…
I0403 14:39:35.289521 10946 net.cpp:313] The NetState phase (1) differed from the phase (0) specified by a rule in layer data
I0403 14:39:35.290747 10946 net.cpp:49] Initializing net from parameters: 
state {
  phase: TEST
}
layer {
  name: "data"
  type: "Data"
  top: "data"
  top: "label"
  include {
    phase: TEST
  }
  transform_param {
    mirror: false
    crop_size: 224
    mean_file: "/home/mohanty/data/final_dataset/lmdb/grayscale-60-40/mean.binaryproto"
  }
  data_param {
    source: "/home/mohanty/data/final_dataset/lmdb/grayscale-60-40/test_db"
    batch_size: 24
    backend: LMDB
  }
}
layer {
  name: "conv1/7x7_s2"
  type: "Convolution"
  bottom: "data"
  top: "conv1/7x7_s2"
  param {
    lr_mult: 1
    decay_mult: 1
  }
  param {
    lr_mult: 2
    decay_mult: 0
  }
  convolution_param {
    num_output: 64
    pad: 3
    kernel_size: 7
    stride: 2
    weight_filler {
      type: "xavier"
      std: 0.1
    }
    bias_filler {
      type: "constant"
      value: 0.2
    }
  }
}
layer {
  name: "conv1/relu_7x7"
  type: "ReLU"
  bottom: "conv1/7x7_s2"
  top: "conv1/7x7_s2"
}
layer {
  name: "pool1/3x3_s2"
  type: "Pooling"
  bottom: "conv1/7x7_s2"
  top: "pool1/3x3_s2"
  pooling_param {
    pool: MAX
    kernel_size: 3
    stride: 2
  }
}
layer {
  name: "pool1/norm1"
  type: "LRN"
  bottom: "pool1/3x3_s2"
  top: "pool1/norm1"
  lrn_param {
    local_size: 5
    alpha: 0.0001
    beta: 0.75
  }
}
layer {
  name: "conv2/3x3_reduce"
  type: "Convolution"
  bottom: "pool1/norm1"
  top: "conv2/3x3_reduce"
  param {
    lr_mult: 1
    decay_mult: 1
  }
  param {
    lr_mult: 2
    decay_mult: 0
  }
  convolution_param {
    num_output: 64
    kernel_size: 1
    weight_filler {
      type: "xavier"
      std: 0.1
    }
    bias_filler {
      type: "constant"
      value: 0.2
    }
  }
}
layer {
  name: "conv2/relu_3x3_reduce"
  type: "ReLU"
  bottom: "conv2/3x3_reduce"
  top: "conv2/3x3_reduce"
}
layer {
  name: "conv2/3x3"
  type: "Convolution"
  bottom: "conv2/3x3_reduce"
  top: "conv2/3x3"
  param {
    lr_mult: 1
    decay_mult: 1
  }
  param {
    lr_mult: 2
    decay_mult: 0
  }
  convolution_param {
    num_output: 192
    pad: 1
    kernel_size: 3
    weight_filler {
      type: "xavier"
      std: 0.03
    }
    bias_filler {
      type: "constant"
      value: 0.2
    }
  }
}
layer {
  name: "conv2/relu_3x3"
  type: "ReLU"
  bottom: "conv2/3x3"
  top: "conv2/3x3"
}
layer {
  name: "conv2/norm2"
  type: "LRN"
  bottom: "conv2/3x3"
  top: "conv2/norm2"
  lrn_param {
    local_size: 5
    alpha: 0.0001
    beta: 0.75
  }
}
layer {
  name: "pool2/3x3_s2"
  type: "Pooling"
  bottom: "conv2/norm2"
  top: "pool2/3x3_s2"
  pooling_param {
    pool: MAX
    kernel_size: 3
    stride: 2
  }
}
layer {
  name: "inception_3a/1x1"
  type: "Convolution"
  bottom: "pool2/3x3_s2"
  top: "inception_3a/1x1"
  param {
    lr_mult: 1
    decay_mult: 1
  }
  param {
    lr_mult: 2
    decay_mult: 0
  }
  convolution_param {
    num_output: 64
    kernel_size: 1
    weight_filler {
      type: "xavier"
      std: 0.03
    }
    bias_filler {
      type: "constant"
      value: 0.2
    }
  }
}
layer {
  name: "inception_3a/relu_1x1"
  type: "ReLU"
  bottom: "inception_3a/1x1"
  top: "inception_3a/1x1"
}
layer {
  name: "inception_3a/3x3_reduce"
  type: "Convolution"
  bottom: "pool2/3x3_s2"
  top: "inception_3a/3x3_reduce"
  param {
    lr_mult: 1
    decay_mult: 1
  }
  param {
    lr_mult: 2
    decay_mult: 0
  }
  convolution_param {
    num_output: 96
    kernel_size: 1
    weight_filler {
      type: "xavier"
      std: 0.09
    }
    bias_filler {
      type: "constant"
      value: 0.2
    }
  }
}
layer {
  name: "inception_3a/relu_3x3_reduce"
  type: "ReLU"
  bottom: "inception_3a/3x3_reduce"
  top: "inception_3a/3x3_reduce"
}
layer {
  name: "inception_3a/3x3"
  type: "Convolution"
  bottom: "inception_3a/3x3_reduce"
  top: "inception_3a/3x3"
  param {
    lr_mult: 1
    decay_mult: 1
  }
  param {
    lr_mult: 2
    decay_mult: 0
  }
  convolution_param {
    num_output: 128
    pad: 1
    kernel_size: 3
    weight_filler {
      type: "xavier"
      std: 0.03
    }
    bias_filler {
      type: "constant"
      value: 0.2
    }
  }
}
layer {
  name: "inception_3a/relu_3x3"
  type: "ReLU"
  bottom: "inception_3a/3x3"
  top: "inception_3a/3x3"
}
layer {
  name: "inception_3a/5x5_reduce"
  type: "Convolution"
  bottom: "pool2/3x3_s2"
  top: "inception_3a/5x5_reduce"
  param {
    lr_mult: 1
    decay_mult: 1
  }
  param {
    lr_mult: 2
    decay_mult: 0
  }
  convolution_param {
    num_output: 16
    kernel_size: 1
    weight_filler {
      type: "xavier"
      std: 0.2
    }
    bias_filler {
      type: "constant"
      value: 0.2
    }
  }
}
layer {
  name: "inception_3a/relu_5x5_reduce"
  type: "ReLU"
  bottom: "inception_3a/5x5_reduce"
  top: "inception_3a/5x5_reduce"
}
layer {
  name: "inception_3a/5x5"
  type: "Convolution"
  bottom: "inception_3a/5x5_reduce"
  top: "inception_3a/5x5"
  param {
    lr_mult: 1
    decay_mult: 1
  }
  param {
    lr_mult: 2
    decay_mult: 0
  }
  convolution_param {
    num_output: 32
    pad: 2
    kernel_size: 5
    weight_filler {
      type: "xavier"
      std: 0.03
    }
    bias_filler {
      type: "constant"
      value: 0.2
    }
  }
}
layer {
  name: "inception_3a/relu_5x5"
  type: "ReLU"
  bottom: "inception_3a/5x5"
  top: "inception_3a/5x5"
}
layer {
  name: "inception_3a/pool"
  type: "Pooling"
  bottom: "pool2/3x3_s2"
  top: "inception_3a/pool"
  pooling_param {
    pool: MAX
    kernel_size: 3
    stride: 1
    pad: 1
  }
}
layer {
  name: "inception_3a/pool_proj"
  type: "Convolution"
  bottom: "inception_3a/pool"
  top: "inception_3a/pool_proj"
  param {
    lr_mult: 1
    decay_mult: 1
  }
  param {
    lr_mult: 2
    decay_mult: 0
  }
  convolution_param {
    num_output: 32
    kernel_size: 1
    weight_filler {
      type: "xavier"
      std: 0.1
    }
    bias_filler {
      type: "constant"
      value: 0.2
    }
  }
}
layer {
  name: "inception_3a/relu_pool_proj"
  type: "ReLU"
  bottom: "inception_3a/pool_proj"
  top: "inception_3a/pool_proj"
}
layer {
  name: "inception_3a/output"
  type: "Concat"
  bottom: "inception_3a/1x1"
  bottom: "inception_3a/3x3"
  bottom: "inception_3a/5x5"
  bottom: "inception_3a/pool_proj"
  top: "inception_3a/output"
}
layer {
  name: "inception_3b/1x1"
  type: "Convolution"
  bottom: "inception_3a/output"
  top: "inception_3b/1x1"
  param {
    lr_mult: 1
    decay_mult: 1
  }
  param {
    lr_mult: 2
    decay_mult: 0
  }
  convolution_param {
    num_output: 128
    kernel_size: 1
    weight_filler {
      type: "xavier"
      std: 0.03
    }
    bias_filler {
      type: "constant"
      value: 0.2
    }
  }
}
layer {
  name: "inception_3b/relu_1x1"
  type: "ReLU"
  bottom: "inception_3b/1x1"
  top: "inception_3b/1x1"
}
layer {
  name: "inception_3b/3x3_reduce"
  type: "Convolution"
  bottom: "inception_3a/output"
  top: "inception_3b/3x3_reduce"
  param {
    lr_mult: 1
    decay_mult: 1
  }
  param {
    lr_mult: 2
    decay_mult: 0
  }
  convolution_param {
    num_output: 128
    kernel_size: 1
    weight_filler {
      type: "xavier"
      std: 0.09
    }
    bias_filler {
      type: "constant"
      value: 0.2
    }
  }
}
layer {
  name: "inception_3b/relu_3x3_reduce"
  type: "ReLU"
  bottom: "inception_3b/3x3_reduce"
  top: "inception_3b/3x3_reduce"
}
layer {
  name: "inception_3b/3x3"
  type: "Convolution"
  bottom: "inception_3b/3x3_reduce"
  top: "inception_3b/3x3"
  param {
    lr_mult: 1
    decay_mult: 1
  }
  param {
    lr_mult: 2
    decay_mult: 0
  }
  convolution_param {
    num_output: 192
    pad: 1
    kernel_size: 3
    weight_filler {
      type: "xavier"
      std: 0.03
    }
    bias_filler {
      type: "constant"
      value: 0.2
    }
  }
}
layer {
  name: "inception_3b/relu_3x3"
  type: "ReLU"
  bottom: "inception_3b/3x3"
  top: "inception_3b/3x3"
}
layer {
  name: "inception_3b/5x5_reduce"
  type: "Convolution"
  bottom: "inception_3a/output"
  top: "inception_3b/5x5_reduce"
  param {
    lr_mult: 1
    decay_mult: 1
  }
  param {
    lr_mult: 2
    decay_mult: 0
  }
  convolution_param {
    num_output: 32
    kernel_size: 1
    weight_filler {
      type: "xavier"
      std: 0.2
    }
    bias_filler {
      type: "constant"
      value: 0.2
    }
  }
}
layer {
  name: "inception_3b/relu_5x5_reduce"
  type: "ReLU"
  bottom: "inception_3b/5x5_reduce"
  top: "inception_3b/5x5_reduce"
}
layer {
  name: "inception_3b/5x5"
  type: "Convolution"
  bottom: "inception_3b/5x5_reduce"
  top: "inception_3b/5x5"
  param {
    lr_mult: 1
    decay_mult: 1
  }
  param {
    lr_mult: 2
    decay_mult: 0
  }
  convolution_param {
    num_output: 96
    pad: 2
    kernel_size: 5
    weight_filler {
      type: "xavier"
      std: 0.03
    }
    bias_filler {
      type: "constant"
      value: 0.2
    }
  }
}
layer {
  name: "inception_3b/relu_5x5"
  type: "ReLU"
  bottom: "inception_3b/5x5"
  top: "inception_3b/5x5"
}
layer {
  name: "inception_3b/pool"
  type: "Pooling"
  bottom: "inception_3a/output"
  top: "inception_3b/pool"
  pooling_param {
    pool: MAX
    kernel_size: 3
    stride: 1
    pad: 1
  }
}
layer {
  name: "inception_3b/pool_proj"
  type: "Convolution"
  bottom: "inception_3b/pool"
  top: "inception_3b/pool_proj"
  param {
    lr_mult: 1
    decay_mult: 1
  }
  param {
    lr_mult: 2
    decay_mult: 0
  }
  convolution_param {
    num_output: 64
    kernel_size: 1
    weight_filler {
      type: "xavier"
      std: 0.1
    }
    bias_filler {
      type: "constant"
      value: 0.2
    }
  }
}
layer {
  name: "inception_3b/relu_pool_proj"
  type: "ReLU"
  bottom: "inception_3b/pool_proj"
  top: "inception_3b/pool_proj"
}
layer {
  name: "inception_3b/output"
  type: "Concat"
  bottom: "inception_3b/1x1"
  bottom: "inception_3b/3x3"
  bottom: "inception_3b/5x5"
  bottom: "inception_3b/pool_proj"
  top: "inception_3b/output"
}
layer {
  name: "pool3/3x3_s2"
  type: "Pooling"
  bottom: "inception_3b/output"
  top: "pool3/3x3_s2"
  pooling_param {
    pool: MAX
    kernel_size: 3
    stride: 2
  }
}
layer {
  name: "inception_4a/1x1"
  type: "Convolution"
  bottom: "pool3/3x3_s2"
  top: "inception_4a/1x1"
  param {
    lr_mult: 1
    decay_mult: 1
  }
  param {
    lr_mult: 2
    decay_mult: 0
  }
  convolution_param {
    num_output: 192
    kernel_size: 1
    weight_filler {
      type: "xavier"
      std: 0.03
    }
    bias_filler {
      type: "constant"
      value: 0.2
    }
  }
}
layer {
  name: "inception_4a/relu_1x1"
  type: "ReLU"
  bottom: "inception_4a/1x1"
  top: "inception_4a/1x1"
}
layer {
  name: "inception_4a/3x3_reduce"
  type: "Convolution"
  bottom: "pool3/3x3_s2"
  top: "inception_4a/3x3_reduce"
  param {
    lr_mult: 1
    decay_mult: 1
  }
  param {
    lr_mult: 2
    decay_mult: 0
  }
  convolution_param {
    num_output: 96
    kernel_size: 1
    weight_filler {
      type: "xavier"
      std: 0.09
    }
    bias_filler {
      type: "constant"
      value: 0.2
    }
  }
}
layer {
  name: "inception_4a/relu_3x3_reduce"
  type: "ReLU"
  bottom: "inception_4a/3x3_reduce"
  top: "inception_4a/3x3_reduce"
}
layer {
  name: "inception_4a/3x3"
  type: "Convolution"
  bottom: "inception_4a/3x3_reduce"
  top: "inception_4a/3x3"
  param {
    lr_mult: 1
    decay_mult: 1
  }
  param {
    lr_mult: 2
    decay_mult: 0
  }
  convolution_param {
    num_output: 208
    pad: 1
    kernel_size: 3
    weight_filler {
      type: "xavier"
      std: 0.03
    }
    bias_filler {
      type: "constant"
      value: 0.2
    }
  }
}
layer {
  name: "inception_4a/relu_3x3"
  type: "ReLU"
  bottom: "inception_4a/3x3"
  top: "inception_4a/3x3"
}
layer {
  name: "inception_4a/5x5_reduce"
  type: "Convolution"
  bottom: "pool3/3x3_s2"
  top: "inception_4a/5x5_reduce"
  param {
    lr_mult: 1
    decay_mult: 1
  }
  param {
    lr_mult: 2
    decay_mult: 0
  }
  convolution_param {
    num_output: 16
    kernel_size: 1
    weight_filler {
      type: "xavier"
      std: 0.2
    }
    bias_filler {
      type: "constant"
      value: 0.2
    }
  }
}
layer {
  name: "inception_4a/relu_5x5_reduce"
  type: "ReLU"
  bottom: "inception_4a/5x5_reduce"
  top: "inception_4a/5x5_reduce"
}
layer {
  name: "inception_4a/5x5"
  type: "Convolution"
  bottom: "inception_4a/5x5_reduce"
  top: "inception_4a/5x5"
  param {
    lr_mult: 1
    decay_mult: 1
  }
  param {
    lr_mult: 2
    decay_mult: 0
  }
  convolution_param {
    num_output: 48
    pad: 2
    kernel_size: 5
    weight_filler {
      type: "xavier"
      std: 0.03
    }
    bias_filler {
      type: "constant"
      value: 0.2
    }
  }
}
layer {
  name: "inception_4a/relu_5x5"
  type: "ReLU"
  bottom: "inception_4a/5x5"
  top: "inception_4a/5x5"
}
layer {
  name: "inception_4a/pool"
  type: "Pooling"
  bottom: "pool3/3x3_s2"
  top: "inception_4a/pool"
  pooling_param {
    pool: MAX
    kernel_size: 3
    stride: 1
    pad: 1
  }
}
layer {
  name: "inception_4a/pool_proj"
  type: "Convolution"
  bottom: "inception_4a/pool"
  top: "inception_4a/pool_proj"
  param {
    lr_mult: 1
    decay_mult: 1
  }
  param {
    lr_mult: 2
    decay_mult: 0
  }
  convolution_param {
    num_output: 64
    kernel_size: 1
    weight_filler {
      type: "xavier"
      std: 0.1
    }
    bias_filler {
      type: "constant"
      value: 0.2
    }
  }
}
layer {
  name: "inception_4a/relu_pool_proj"
  type: "ReLU"
  bottom: "inception_4a/pool_proj"
  top: "inception_4a/pool_proj"
}
layer {
  name: "inception_4a/output"
  type: "Concat"
  bottom: "inception_4a/1x1"
  bottom: "inception_4a/3x3"
  bottom: "inception_4a/5x5"
  bottom: "inception_4a/pool_proj"
  top: "inception_4a/output"
}
layer {
  name: "loss1/ave_pool"
  type: "Pooling"
  bottom: "inception_4a/output"
  top: "loss1/ave_pool"
  pooling_param {
    pool: AVE
    kernel_size: 5
    stride: 3
  }
}
layer {
  name: "loss1/conv"
  type: "Convolution"
  bottom: "loss1/ave_pool"
  top: "loss1/conv"
  param {
    lr_mult: 1
    decay_mult: 1
  }
  param {
    lr_mult: 2
    decay_mult: 0
  }
  convolution_param {
    num_output: 128
    kernel_size: 1
    weight_filler {
      type: "xavier"
      std: 0.08
    }
    bias_filler {
      type: "constant"
      value: 0.2
    }
  }
}
layer {
  name: "loss1/relu_conv"
  type: "ReLU"
  bottom: "loss1/conv"
  top: "loss1/conv"
}
layer {
  name: "loss1/fc"
  type: "InnerProduct"
  bottom: "loss1/conv"
  top: "loss1/fc"
  param {
    lr_mult: 1
    decay_mult: 1
  }
  param {
    lr_mult: 2
    decay_mult: 0
  }
  inner_product_param {
    num_output: 1024
    weight_filler {
      type: "xavier"
      std: 0.02
    }
    bias_filler {
      type: "constant"
      value: 0.2
    }
  }
}
layer {
  name: "loss1/relu_fc"
  type: "ReLU"
  bottom: "loss1/fc"
  top: "loss1/fc"
}
layer {
  name: "loss1/drop_fc"
  type: "Dropout"
  bottom: "loss1/fc"
  top: "loss1/fc"
  dropout_param {
    dropout_ratio: 0.7
  }
}
layer {
  name: "loss1/classifier_plantvillage"
  type: "InnerProduct"
  bottom: "loss1/fc"
  top: "loss1/classifier_plantvillage"
  param {
    lr_mult: 1
    decay_mult: 1
  }
  param {
    lr_mult: 2
    decay_mult: 0
  }
  inner_product_param {
    num_output: 38
    weight_filler {
      type: "xavier"
      std: 0.0009765625
    }
    bias_filler {
      type: "constant"
      value: 0
    }
  }
}
layer {
  name: "inception_4b/1x1"
  type: "Convolution"
  bottom: "inception_4a/output"
  top: "inception_4b/1x1"
  param {
    lr_mult: 1
    decay_mult: 1
  }
  param {
    lr_mult: 2
    decay_mult: 0
  }
  convolution_param {
    num_output: 160
    kernel_size: 1
    weight_filler {
      type: "xavier"
      std: 0.03
    }
    bias_filler {
      type: "constant"
      value: 0.2
    }
  }
}
layer {
  name: "inception_4b/relu_1x1"
  type: "ReLU"
  bottom: "inception_4b/1x1"
  top: "inception_4b/1x1"
}
layer {
  name: "inception_4b/3x3_reduce"
  type: "Convolution"
  bottom: "inception_4a/output"
  top: "inception_4b/3x3_reduce"
  param {
    lr_mult: 1
    decay_mult: 1
  }
  param {
    lr_mult: 2
    decay_mult: 0
  }
  convolution_param {
    num_output: 112
    kernel_size: 1
    weight_filler {
      type: "xavier"
      std: 0.09
    }
    bias_filler {
      type: "constant"
      value: 0.2
    }
  }
}
layer {
  name: "inception_4b/relu_3x3_reduce"
  type: "ReLU"
  bottom: "inception_4b/3x3_reduce"
  top: "inception_4b/3x3_reduce"
}
layer {
  name: "inception_4b/3x3"
  type: "Convolution"
  bottom: "inception_4b/3x3_reduce"
  top: "inception_4b/3x3"
  param {
    lr_mult: 1
    decay_mult: 1
  }
  param {
    lr_mult: 2
    decay_mult: 0
  }
  convolution_param {
    num_output: 224
    pad: 1
    kernel_size: 3
    weight_filler {
      type: "xavier"
      std: 0.03
    }
    bias_filler {
      type: "constant"
      value: 0.2
    }
  }
}
layer {
  name: "inception_4b/relu_3x3"
  type: "ReLU"
  bottom: "inception_4b/3x3"
  top: "inception_4b/3x3"
}
layer {
  name: "inception_4b/5x5_reduce"
  type: "Convolution"
  bottom: "inception_4a/output"
  top: "inception_4b/5x5_reduce"
  param {
    lr_mult: 1
    decay_mult: 1
  }
  param {
    lr_mult: 2
    decay_mult: 0
  }
  convolution_param {
    num_output: 24
    kernel_size: 1
    weight_filler {
      type: "xavier"
      std: 0.2
    }
    bias_filler {
      type: "constant"
      value: 0.2
    }
  }
}
layer {
  name: "inception_4b/relu_5x5_reduce"
  type: "ReLU"
  bottom: "inception_4b/5x5_reduce"
  top: "inception_4b/5x5_reduce"
}
layer {
  name: "inception_4b/5x5"
  type: "Convolution"
  bottom: "inception_4b/5x5_reduce"
  top: "inception_4b/5x5"
  param {
    lr_mult: 1
    decay_mult: 1
  }
  param {
    lr_mult: 2
    decay_mult: 0
  }
  convolution_param {
    num_output: 64
    pad: 2
    kernel_size: 5
    weight_filler {
      type: "xavier"
      std: 0.03
    }
    bias_filler {
      type: "constant"
      value: 0.2
    }
  }
}
layer {
  name: "inception_4b/relu_5x5"
  type: "ReLU"
  bottom: "inception_4b/5x5"
  top: "inception_4b/5x5"
}
layer {
  name: "inception_4b/pool"
  type: "Pooling"
  bottom: "inception_4a/output"
  top: "inception_4b/pool"
  pooling_param {
    pool: MAX
    kernel_size: 3
    stride: 1
    pad: 1
  }
}
layer {
  name: "inception_4b/pool_proj"
  type: "Convolution"
  bottom: "inception_4b/pool"
  top: "inception_4b/pool_proj"
  param {
    lr_mult: 1
    decay_mult: 1
  }
  param {
    lr_mult: 2
    decay_mult: 0
  }
  convolution_param {
    num_output: 64
    kernel_size: 1
    weight_filler {
      type: "xavier"
      std: 0.1
    }
    bias_filler {
      type: "constant"
      value: 0.2
    }
  }
}
layer {
  name: "inception_4b/relu_pool_proj"
  type: "ReLU"
  bottom: "inception_4b/pool_proj"
  top: "inception_4b/pool_proj"
}
layer {
  name: "inception_4b/output"
  type: "Concat"
  bottom: "inception_4b/1x1"
  bottom: "inception_4b/3x3"
  bottom: "inception_4b/5x5"
  bottom: "inception_4b/pool_proj"
  top: "inception_4b/output"
}
layer {
  name: "inception_4c/1x1"
  type: "Convolution"
  bottom: "inception_4b/output"
  top: "inception_4c/1x1"
  param {
    lr_mult: 1
    decay_mult: 1
  }
  param {
    lr_mult: 2
    decay_mult: 0
  }
  convolution_param {
    num_output: 128
    kernel_size: 1
    weight_filler {
      type: "xavier"
      std: 0.03
    }
    bias_filler {
      type: "constant"
      value: 0.2
    }
  }
}
layer {
  name: "inception_4c/relu_1x1"
  type: "ReLU"
  bottom: "inception_4c/1x1"
  top: "inception_4c/1x1"
}
layer {
  name: "inception_4c/3x3_reduce"
  type: "Convolution"
  bottom: "inception_4b/output"
  top: "inception_4c/3x3_reduce"
  param {
    lr_mult: 1
    decay_mult: 1
  }
  param {
    lr_mult: 2
    decay_mult: 0
  }
  convolution_param {
    num_output: 128
    kernel_size: 1
    weight_filler {
      type: "xavier"
      std: 0.09
    }
    bias_filler {
      type: "constant"
      value: 0.2
    }
  }
}
layer {
  name: "inception_4c/relu_3x3_reduce"
  type: "ReLU"
  bottom: "inception_4c/3x3_reduce"
  top: "inception_4c/3x3_reduce"
}
layer {
  name: "inception_4c/3x3"
  type: "Convolution"
  bottom: "inception_4c/3x3_reduce"
  top: "inception_4c/3x3"
  param {
    lr_mult: 1
    decay_mult: 1
  }
  param {
    lr_mult: 2
    decay_mult: 0
  }
  convolution_param {
    num_output: 256
    pad: 1
    kernel_size: 3
    weight_filler {
      type: "xavier"
      std: 0.03
    }
    bias_filler {
      type: "constant"
      value: 0.2
    }
  }
}
layer {
  name: "inception_4c/relu_3x3"
  type: "ReLU"
  bottom: "inception_4c/3x3"
  top: "inception_4c/3x3"
}
layer {
  name: "inception_4c/5x5_reduce"
  type: "Convolution"
  bottom: "inception_4b/output"
  top: "inception_4c/5x5_reduce"
  param {
    lr_mult: 1
    decay_mult: 1
  }
  param {
    lr_mult: 2
    decay_mult: 0
  }
  convolution_param {
    num_output: 24
    kernel_size: 1
    weight_filler {
      type: "xavier"
      std: 0.2
    }
    bias_filler {
      type: "constant"
      value: 0.2
    }
  }
}
layer {
  name: "inception_4c/relu_5x5_reduce"
  type: "ReLU"
  bottom: "inception_4c/5x5_reduce"
  top: "inception_4c/5x5_reduce"
}
layer {
  name: "inception_4c/5x5"
  type: "Convolution"
  bottom: "inception_4c/5x5_reduce"
  top: "inception_4c/5x5"
  param {
    lr_mult: 1
    decay_mult: 1
  }
  param {
    lr_mult: 2
    decay_mult: 0
  }
  convolution_param {
    num_output: 64
    pad: 2
    kernel_size: 5
    weight_filler {
      type: "xavier"
      std: 0.03
    }
    bias_filler {
      type: "constant"
      value: 0.2
    }
  }
}
layer {
  name: "inception_4c/relu_5x5"
  type: "ReLU"
  bottom: "inception_4c/5x5"
  top: "inception_4c/5x5"
}
layer {
  name: "inception_4c/pool"
  type: "Pooling"
  bottom: "inception_4b/output"
  top: "inception_4c/pool"
  pooling_param {
    pool: MAX
    kernel_size: 3
    stride: 1
    pad: 1
  }
}
layer {
  name: "inception_4c/pool_proj"
  type: "Convolution"
  bottom: "inception_4c/pool"
  top: "inception_4c/pool_proj"
  param {
    lr_mult: 1
    decay_mult: 1
  }
  param {
    lr_mult: 2
    decay_mult: 0
  }
  convolution_param {
    num_output: 64
    kernel_size: 1
    weight_filler {
      type: "xavier"
      std: 0.1
    }
    bias_filler {
      type: "constant"
      value: 0.2
    }
  }
}
layer {
  name: "inception_4c/relu_pool_proj"
  type: "ReLU"
  bottom: "inception_4c/pool_proj"
  top: "inception_4c/pool_proj"
}
layer {
  name: "inception_4c/output"
  type: "Concat"
  bottom: "inception_4c/1x1"
  bottom: "inception_4c/3x3"
  bottom: "inception_4c/5x5"
  bottom: "inception_4c/pool_proj"
  top: "inception_4c/output"
}
layer {
  name: "inception_4d/1x1"
  type: "Convolution"
  bottom: "inception_4c/output"
  top: "inception_4d/1x1"
  param {
    lr_mult: 1
    decay_mult: 1
  }
  param {
    lr_mult: 2
    decay_mult: 0
  }
  convolution_param {
    num_output: 112
    kernel_size: 1
    weight_filler {
      type: "xavier"
      std: 0.03
    }
    bias_filler {
      type: "constant"
      value: 0.2
    }
  }
}
layer {
  name: "inception_4d/relu_1x1"
  type: "ReLU"
  bottom: "inception_4d/1x1"
  top: "inception_4d/1x1"
}
layer {
  name: "inception_4d/3x3_reduce"
  type: "Convolution"
  bottom: "inception_4c/output"
  top: "inception_4d/3x3_reduce"
  param {
    lr_mult: 1
    decay_mult: 1
  }
  param {
    lr_mult: 2
    decay_mult: 0
  }
  convolution_param {
    num_output: 144
    kernel_size: 1
    weight_filler {
      type: "xavier"
      std: 0.09
    }
    bias_filler {
      type: "constant"
      value: 0.2
    }
  }
}
layer {
  name: "inception_4d/relu_3x3_reduce"
  type: "ReLU"
  bottom: "inception_4d/3x3_reduce"
  top: "inception_4d/3x3_reduce"
}
layer {
  name: "inception_4d/3x3"
  type: "Convolution"
  bottom: "inception_4d/3x3_reduce"
  top: "inception_4d/3x3"
  param {
    lr_mult: 1
    decay_mult: 1
  }
  param {
    lr_mult: 2
    decay_mult: 0
  }
  convolution_param {
    num_output: 288
    pad: 1
    kernel_size: 3
    weight_filler {
      type: "xavier"
      std: 0.03
    }
    bias_filler {
      type: "constant"
      value: 0.2
    }
  }
}
layer {
  name: "inception_4d/relu_3x3"
  type: "ReLU"
  bottom: "inception_4d/3x3"
  top: "inception_4d/3x3"
}
layer {
  name: "inception_4d/5x5_reduce"
  type: "Convolution"
  bottom: "inception_4c/output"
  top: "inception_4d/5x5_reduce"
  param {
    lr_mult: 1
    decay_mult: 1
  }
  param {
    lr_mult: 2
    decay_mult: 0
  }
  convolution_param {
    num_output: 32
    kernel_size: 1
    weight_filler {
      type: "xavier"
      std: 0.2
    }
    bias_filler {
      type: "constant"
      value: 0.2
    }
  }
}
layer {
  name: "inception_4d/relu_5x5_reduce"
  type: "ReLU"
  bottom: "inception_4d/5x5_reduce"
  top: "inception_4d/5x5_reduce"
}
layer {
  name: "inception_4d/5x5"
  type: "Convolution"
  bottom: "inception_4d/5x5_reduce"
  top: "inception_4d/5x5"
  param {
    lr_mult: 1
    decay_mult: 1
  }
  param {
    lr_mult: 2
    decay_mult: 0
  }
  convolution_param {
    num_output: 64
    pad: 2
    kernel_size: 5
    weight_filler {
      type: "xavier"
      std: 0.03
    }
    bias_filler {
      type: "constant"
      value: 0.2
    }
  }
}
layer {
  name: "inception_4d/relu_5x5"
  type: "ReLU"
  bottom: "inception_4d/5x5"
  top: "inception_4d/5x5"
}
layer {
  name: "inception_4d/pool"
  type: "Pooling"
  bottom: "inception_4c/output"
  top: "inception_4d/pool"
  pooling_param {
    pool: MAX
    kernel_size: 3
    stride: 1
    pad: 1
  }
}
layer {
  name: "inception_4d/pool_proj"
  type: "Convolution"
  bottom: "inception_4d/pool"
  top: "inception_4d/pool_proj"
  param {
    lr_mult: 1
    decay_mult: 1
  }
  param {
    lr_mult: 2
    decay_mult: 0
  }
  convolution_param {
    num_output: 64
    kernel_size: 1
    weight_filler {
      type: "xavier"
      std: 0.1
    }
    bias_filler {
      type: "constant"
      value: 0.2
    }
  }
}
layer {
  name: "inception_4d/relu_pool_proj"
  type: "ReLU"
  bottom: "inception_4d/pool_proj"
  top: "inception_4d/pool_proj"
}
layer {
  name: "inception_4d/output"
  type: "Concat"
  bottom: "inception_4d/1x1"
  bottom: "inception_4d/3x3"
  bottom: "inception_4d/5x5"
  bottom: "inception_4d/pool_proj"
  top: "inception_4d/output"
}
layer {
  name: "loss2/ave_pool"
  type: "Pooling"
  bottom: "inception_4d/output"
  top: "loss2/ave_pool"
  pooling_param {
    pool: AVE
    kernel_size: 5
    stride: 3
  }
}
layer {
  name: "loss2/conv"
  type: "Convolution"
  bottom: "loss2/ave_pool"
  top: "loss2/conv"
  param {
    lr_mult: 1
    decay_mult: 1
  }
  param {
    lr_mult: 2
    decay_mult: 0
  }
  convolution_param {
    num_output: 128
    kernel_size: 1
    weight_filler {
      type: "xavier"
      std: 0.08
    }
    bias_filler {
      type: "constant"
      value: 0.2
    }
  }
}
layer {
  name: "loss2/relu_conv"
  type: "ReLU"
  bottom: "loss2/conv"
  top: "loss2/conv"
}
layer {
  name: "loss2/fc"
  type: "InnerProduct"
  bottom: "loss2/conv"
  top: "loss2/fc"
  param {
    lr_mult: 1
    decay_mult: 1
  }
  param {
    lr_mult: 2
    decay_mult: 0
  }
  inner_product_param {
    num_output: 1024
    weight_filler {
      type: "xavier"
      std: 0.02
    }
    bias_filler {
      type: "constant"
      value: 0.2
    }
  }
}
layer {
  name: "loss2/relu_fc"
  type: "ReLU"
  bottom: "loss2/fc"
  top: "loss2/fc"
}
layer {
  name: "loss2/drop_fc"
  type: "Dropout"
  bottom: "loss2/fc"
  top: "loss2/fc"
  dropout_param {
    dropout_ratio: 0.7
  }
}
layer {
  name: "loss2/classifier_plantvillage"
  type: "InnerProduct"
  bottom: "loss2/fc"
  top: "loss2/classifier_plantvillage"
  param {
    lr_mult: 1
    decay_mult: 1
  }
  param {
    lr_mult: 2
    decay_mult: 0
  }
  inner_product_param {
    num_output: 38
    weight_filler {
      type: "xavier"
      std: 0.0009765625
    }
    bias_filler {
      type: "constant"
      value: 0
    }
  }
}
layer {
  name: "inception_4e/1x1"
  type: "Convolution"
  bottom: "inception_4d/output"
  top: "inception_4e/1x1"
  param {
    lr_mult: 1
    decay_mult: 1
  }
  param {
    lr_mult: 2
    decay_mult: 0
  }
  convolution_param {
    num_output: 256
    kernel_size: 1
    weight_filler {
      type: "xavier"
      std: 0.03
    }
    bias_filler {
      type: "constant"
      value: 0.2
    }
  }
}
layer {
  name: "inception_4e/relu_1x1"
  type: "ReLU"
  bottom: "inception_4e/1x1"
  top: "inception_4e/1x1"
}
layer {
  name: "inception_4e/3x3_reduce"
  type: "Convolution"
  bottom: "inception_4d/output"
  top: "inception_4e/3x3_reduce"
  param {
    lr_mult: 1
    decay_mult: 1
  }
  param {
    lr_mult: 2
    decay_mult: 0
  }
  convolution_param {
    num_output: 160
    kernel_size: 1
    weight_filler {
      type: "xavier"
      std: 0.09
    }
    bias_filler {
      type: "constant"
      value: 0.2
    }
  }
}
layer {
  name: "inception_4e/relu_3x3_reduce"
  type: "ReLU"
  bottom: "inception_4e/3x3_reduce"
  top: "inception_4e/3x3_reduce"
}
layer {
  name: "inception_4e/3x3"
  type: "Convolution"
  bottom: "inception_4e/3x3_reduce"
  top: "inception_4e/3x3"
  param {
    lr_mult: 1
    decay_mult: 1
  }
  param {
    lr_mult: 2
    decay_mult: 0
  }
  convolution_param {
    num_output: 320
    pad: 1
    kernel_size: 3
    weight_filler {
      type: "xavier"
      std: 0.03
    }
    bias_filler {
      type: "constant"
      value: 0.2
    }
  }
}
layer {
  name: "inception_4e/relu_3x3"
  type: "ReLU"
  bottom: "inception_4e/3x3"
  top: "inception_4e/3x3"
}
layer {
  name: "inception_4e/5x5_reduce"
  type: "Convolution"
  bottom: "inception_4d/output"
  top: "inception_4e/5x5_reduce"
  param {
    lr_mult: 1
    decay_mult: 1
  }
  param {
    lr_mult: 2
    decay_mult: 0
  }
  convolution_param {
    num_output: 32
    kernel_size: 1
    weight_filler {
      type: "xavier"
      std: 0.2
    }
    bias_filler {
      type: "constant"
      value: 0.2
    }
  }
}
layer {
  name: "inception_4e/relu_5x5_reduce"
  type: "ReLU"
  bottom: "inception_4e/5x5_reduce"
  top: "inception_4e/5x5_reduce"
}
layer {
  name: "inception_4e/5x5"
  type: "Convolution"
  bottom: "inception_4e/5x5_reduce"
  top: "inception_4e/
I0403 14:39:35.292054 10946 layer_factory.hpp:77] Creating layer data
I0403 14:39:35.292690 10946 net.cpp:91] Creating Layer data
I0403 14:39:35.292721 10946 net.cpp:399] data -> data
I0403 14:39:35.292776 10946 net.cpp:399] data -> label
I0403 14:39:35.292814 10946 data_transformer.cpp:25] Loading mean file from: /home/mohanty/data/final_dataset/lmdb/grayscale-60-40/mean.binaryproto
I0403 14:39:35.295938 10949 db_lmdb.cpp:38] Opened lmdb /home/mohanty/data/final_dataset/lmdb/grayscale-60-40/test_db
I0403 14:39:35.306397 10946 data_layer.cpp:41] output data size: 24,3,224,224
I0403 14:39:35.334661 10946 net.cpp:141] Setting up data
I0403 14:39:35.334764 10946 net.cpp:148] Top shape: 24 3 224 224 (3612672)
I0403 14:39:35.334789 10946 net.cpp:148] Top shape: 24 (24)
I0403 14:39:35.334805 10946 net.cpp:156] Memory required for data: 14450784
I0403 14:39:35.334833 10946 layer_factory.hpp:77] Creating layer label_data_1_split
I0403 14:39:35.334861 10946 net.cpp:91] Creating Layer label_data_1_split
I0403 14:39:35.334882 10946 net.cpp:425] label_data_1_split <- label
I0403 14:39:35.334915 10946 net.cpp:399] label_data_1_split -> label_data_1_split_0
I0403 14:39:35.334944 10946 net.cpp:399] label_data_1_split -> label_data_1_split_1
I0403 14:39:35.334966 10946 net.cpp:399] label_data_1_split -> label_data_1_split_2
I0403 14:39:35.334988 10946 net.cpp:399] label_data_1_split -> label_data_1_split_3
I0403 14:39:35.335010 10946 net.cpp:399] label_data_1_split -> label_data_1_split_4
I0403 14:39:35.335031 10946 net.cpp:399] label_data_1_split -> label_data_1_split_5
I0403 14:39:35.335050 10946 net.cpp:399] label_data_1_split -> label_data_1_split_6
I0403 14:39:35.335072 10946 net.cpp:399] label_data_1_split -> label_data_1_split_7
I0403 14:39:35.335093 10946 net.cpp:399] label_data_1_split -> label_data_1_split_8
I0403 14:39:35.335114 10946 net.cpp:399] label_data_1_split -> label_data_1_split_9
I0403 14:39:35.335249 10946 net.cpp:141] Setting up label_data_1_split
I0403 14:39:35.335275 10946 net.cpp:148] Top shape: 24 (24)
I0403 14:39:35.335294 10946 net.cpp:148] Top shape: 24 (24)
I0403 14:39:35.335310 10946 net.cpp:148] Top shape: 24 (24)
I0403 14:39:35.335326 10946 net.cpp:148] Top shape: 24 (24)
I0403 14:39:35.335343 10946 net.cpp:148] Top shape: 24 (24)
I0403 14:39:35.335360 10946 net.cpp:148] Top shape: 24 (24)
I0403 14:39:35.335376 10946 net.cpp:148] Top shape: 24 (24)
I0403 14:39:35.335391 10946 net.cpp:148] Top shape: 24 (24)
I0403 14:39:35.335408 10946 net.cpp:148] Top shape: 24 (24)
I0403 14:39:35.335425 10946 net.cpp:148] Top shape: 24 (24)
I0403 14:39:35.335467 10946 net.cpp:156] Memory required for data: 14451744
I0403 14:39:35.335492 10946 layer_factory.hpp:77] Creating layer conv1/7x7_s2
I0403 14:39:35.335525 10946 net.cpp:91] Creating Layer conv1/7x7_s2
I0403 14:39:35.335543 10946 net.cpp:425] conv1/7x7_s2 <- data
I0403 14:39:35.335564 10946 net.cpp:399] conv1/7x7_s2 -> conv1/7x7_s2
I0403 14:39:35.480376 10946 net.cpp:141] Setting up conv1/7x7_s2
I0403 14:39:35.480463 10946 net.cpp:148] Top shape: 24 64 112 112 (19267584)
I0403 14:39:35.480482 10946 net.cpp:156] Memory required for data: 91522080
I0403 14:39:35.480514 10946 layer_factory.hpp:77] Creating layer conv1/relu_7x7
I0403 14:39:35.480541 10946 net.cpp:91] Creating Layer conv1/relu_7x7
I0403 14:39:35.480561 10946 net.cpp:425] conv1/relu_7x7 <- conv1/7x7_s2
I0403 14:39:35.480584 10946 net.cpp:386] conv1/relu_7x7 -> conv1/7x7_s2 (in-place)
I0403 14:39:35.480868 10946 net.cpp:141] Setting up conv1/relu_7x7
I0403 14:39:35.480898 10946 net.cpp:148] Top shape: 24 64 112 112 (19267584)
I0403 14:39:35.480916 10946 net.cpp:156] Memory required for data: 168592416
I0403 14:39:35.480931 10946 layer_factory.hpp:77] Creating layer pool1/3x3_s2
I0403 14:39:35.480957 10946 net.cpp:91] Creating Layer pool1/3x3_s2
I0403 14:39:35.480976 10946 net.cpp:425] pool1/3x3_s2 <- conv1/7x7_s2
I0403 14:39:35.480999 10946 net.cpp:399] pool1/3x3_s2 -> pool1/3x3_s2
I0403 14:39:35.481081 10946 net.cpp:141] Setting up pool1/3x3_s2
I0403 14:39:35.481106 10946 net.cpp:148] Top shape: 24 64 56 56 (4816896)
I0403 14:39:35.481120 10946 net.cpp:156] Memory required for data: 187860000
I0403 14:39:35.481142 10946 layer_factory.hpp:77] Creating layer pool1/norm1
I0403 14:39:35.481173 10946 net.cpp:91] Creating Layer pool1/norm1
I0403 14:39:35.481194 10946 net.cpp:425] pool1/norm1 <- pool1/3x3_s2
I0403 14:39:35.481216 10946 net.cpp:399] pool1/norm1 -> pool1/norm1
I0403 14:39:35.481544 10946 net.cpp:141] Setting up pool1/norm1
I0403 14:39:35.481572 10946 net.cpp:148] Top shape: 24 64 56 56 (4816896)
I0403 14:39:35.481590 10946 net.cpp:156] Memory required for data: 207127584
I0403 14:39:35.481606 10946 layer_factory.hpp:77] Creating layer conv2/3x3_reduce
I0403 14:39:35.481636 10946 net.cpp:91] Creating Layer conv2/3x3_reduce
I0403 14:39:35.481654 10946 net.cpp:425] conv2/3x3_reduce <- pool1/norm1
I0403 14:39:35.481678 10946 net.cpp:399] conv2/3x3_reduce -> conv2/3x3_reduce
I0403 14:39:35.483158 10946 net.cpp:141] Setting up conv2/3x3_reduce
I0403 14:39:35.483196 10946 net.cpp:148] Top shape: 24 64 56 56 (4816896)
I0403 14:39:35.483214 10946 net.cpp:156] Memory required for data: 226395168
I0403 14:39:35.483237 10946 layer_factory.hpp:77] Creating layer conv2/relu_3x3_reduce
I0403 14:39:35.483258 10946 net.cpp:91] Creating Layer conv2/relu_3x3_reduce
I0403 14:39:35.483274 10946 net.cpp:425] conv2/relu_3x3_reduce <- conv2/3x3_reduce
I0403 14:39:35.483294 10946 net.cpp:386] conv2/relu_3x3_reduce -> conv2/3x3_reduce (in-place)
I0403 14:39:35.483572 10946 net.cpp:141] Setting up conv2/relu_3x3_reduce
I0403 14:39:35.483605 10946 net.cpp:148] Top shape: 24 64 56 56 (4816896)
I0403 14:39:35.483623 10946 net.cpp:156] Memory required for data: 245662752
I0403 14:39:35.483639 10946 layer_factory.hpp:77] Creating layer conv2/3x3
I0403 14:39:35.483664 10946 net.cpp:91] Creating Layer conv2/3x3
I0403 14:39:35.483682 10946 net.cpp:425] conv2/3x3 <- conv2/3x3_reduce
I0403 14:39:35.483703 10946 net.cpp:399] conv2/3x3 -> conv2/3x3
I0403 14:39:35.486104 10946 net.cpp:141] Setting up conv2/3x3
I0403 14:39:35.486145 10946 net.cpp:148] Top shape: 24 192 56 56 (14450688)
I0403 14:39:35.486163 10946 net.cpp:156] Memory required for data: 303465504
I0403 14:39:35.486186 10946 layer_factory.hpp:77] Creating layer conv2/relu_3x3
I0403 14:39:35.486205 10946 net.cpp:91] Creating Layer conv2/relu_3x3
I0403 14:39:35.486222 10946 net.cpp:425] conv2/relu_3x3 <- conv2/3x3
I0403 14:39:35.486241 10946 net.cpp:386] conv2/relu_3x3 -> conv2/3x3 (in-place)
I0403 14:39:35.486424 10946 net.cpp:141] Setting up conv2/relu_3x3
I0403 14:39:35.486451 10946 net.cpp:148] Top shape: 24 192 56 56 (14450688)
I0403 14:39:35.486498 10946 net.cpp:156] Memory required for data: 361268256
I0403 14:39:35.486515 10946 layer_factory.hpp:77] Creating layer conv2/norm2
I0403 14:39:35.486537 10946 net.cpp:91] Creating Layer conv2/norm2
I0403 14:39:35.486555 10946 net.cpp:425] conv2/norm2 <- conv2/3x3
I0403 14:39:35.486574 10946 net.cpp:399] conv2/norm2 -> conv2/norm2
I0403 14:39:35.486907 10946 net.cpp:141] Setting up conv2/norm2
I0403 14:39:35.486935 10946 net.cpp:148] Top shape: 24 192 56 56 (14450688)
I0403 14:39:35.486951 10946 net.cpp:156] Memory required for data: 419071008
I0403 14:39:35.486968 10946 layer_factory.hpp:77] Creating layer pool2/3x3_s2
I0403 14:39:35.486989 10946 net.cpp:91] Creating Layer pool2/3x3_s2
I0403 14:39:35.487005 10946 net.cpp:425] pool2/3x3_s2 <- conv2/norm2
I0403 14:39:35.487025 10946 net.cpp:399] pool2/3x3_s2 -> pool2/3x3_s2
I0403 14:39:35.487083 10946 net.cpp:141] Setting up pool2/3x3_s2
I0403 14:39:35.487107 10946 net.cpp:148] Top shape: 24 192 28 28 (3612672)
I0403 14:39:35.487123 10946 net.cpp:156] Memory required for data: 433521696
I0403 14:39:35.487144 10946 layer_factory.hpp:77] Creating layer pool2/3x3_s2_pool2/3x3_s2_0_split
I0403 14:39:35.487164 10946 net.cpp:91] Creating Layer pool2/3x3_s2_pool2/3x3_s2_0_split
I0403 14:39:35.487181 10946 net.cpp:425] pool2/3x3_s2_pool2/3x3_s2_0_split <- pool2/3x3_s2
I0403 14:39:35.487202 10946 net.cpp:399] pool2/3x3_s2_pool2/3x3_s2_0_split -> pool2/3x3_s2_pool2/3x3_s2_0_split_0
I0403 14:39:35.487224 10946 net.cpp:399] pool2/3x3_s2_pool2/3x3_s2_0_split -> pool2/3x3_s2_pool2/3x3_s2_0_split_1
I0403 14:39:35.487244 10946 net.cpp:399] pool2/3x3_s2_pool2/3x3_s2_0_split -> pool2/3x3_s2_pool2/3x3_s2_0_split_2
I0403 14:39:35.487265 10946 net.cpp:399] pool2/3x3_s2_pool2/3x3_s2_0_split -> pool2/3x3_s2_pool2/3x3_s2_0_split_3
I0403 14:39:35.487340 10946 net.cpp:141] Setting up pool2/3x3_s2_pool2/3x3_s2_0_split
I0403 14:39:35.487368 10946 net.cpp:148] Top shape: 24 192 28 28 (3612672)
I0403 14:39:35.487387 10946 net.cpp:148] Top shape: 24 192 28 28 (3612672)
I0403 14:39:35.487406 10946 net.cpp:148] Top shape: 24 192 28 28 (3612672)
I0403 14:39:35.487421 10946 net.cpp:148] Top shape: 24 192 28 28 (3612672)
I0403 14:39:35.487437 10946 net.cpp:156] Memory required for data: 491324448
I0403 14:39:35.487450 10946 layer_factory.hpp:77] Creating layer inception_3a/1x1
I0403 14:39:35.487474 10946 net.cpp:91] Creating Layer inception_3a/1x1
I0403 14:39:35.487493 10946 net.cpp:425] inception_3a/1x1 <- pool2/3x3_s2_pool2/3x3_s2_0_split_0
I0403 14:39:35.487512 10946 net.cpp:399] inception_3a/1x1 -> inception_3a/1x1
I0403 14:39:35.489120 10946 net.cpp:141] Setting up inception_3a/1x1
I0403 14:39:35.489169 10946 net.cpp:148] Top shape: 24 64 28 28 (1204224)
I0403 14:39:35.489187 10946 net.cpp:156] Memory required for data: 496141344
I0403 14:39:35.489208 10946 layer_factory.hpp:77] Creating layer inception_3a/relu_1x1
I0403 14:39:35.489229 10946 net.cpp:91] Creating Layer inception_3a/relu_1x1
I0403 14:39:35.489248 10946 net.cpp:425] inception_3a/relu_1x1 <- inception_3a/1x1
I0403 14:39:35.489266 10946 net.cpp:386] inception_3a/relu_1x1 -> inception_3a/1x1 (in-place)
I0403 14:39:35.489449 10946 net.cpp:141] Setting up inception_3a/relu_1x1
I0403 14:39:35.489476 10946 net.cpp:148] Top shape: 24 64 28 28 (1204224)
I0403 14:39:35.489492 10946 net.cpp:156] Memory required for data: 500958240
I0403 14:39:35.489508 10946 layer_factory.hpp:77] Creating layer inception_3a/3x3_reduce
I0403 14:39:35.489534 10946 net.cpp:91] Creating Layer inception_3a/3x3_reduce
I0403 14:39:35.489554 10946 net.cpp:425] inception_3a/3x3_reduce <- pool2/3x3_s2_pool2/3x3_s2_0_split_1
I0403 14:39:35.489578 10946 net.cpp:399] inception_3a/3x3_reduce -> inception_3a/3x3_reduce
I0403 14:39:35.491389 10946 net.cpp:141] Setting up inception_3a/3x3_reduce
I0403 14:39:35.491423 10946 net.cpp:148] Top shape: 24 96 28 28 (1806336)
I0403 14:39:35.491441 10946 net.cpp:156] Memory required for data: 508183584
I0403 14:39:35.491464 10946 layer_factory.hpp:77] Creating layer inception_3a/relu_3x3_reduce
I0403 14:39:35.491503 10946 net.cpp:91] Creating Layer inception_3a/relu_3x3_reduce
I0403 14:39:35.491521 10946 net.cpp:425] inception_3a/relu_3x3_reduce <- inception_3a/3x3_reduce
I0403 14:39:35.491542 10946 net.cpp:386] inception_3a/relu_3x3_reduce -> inception_3a/3x3_reduce (in-place)
I0403 14:39:35.491734 10946 net.cpp:141] Setting up inception_3a/relu_3x3_reduce
I0403 14:39:35.491760 10946 net.cpp:148] Top shape: 24 96 28 28 (1806336)
I0403 14:39:35.491776 10946 net.cpp:156] Memory required for data: 515408928
I0403 14:39:35.491791 10946 layer_factory.hpp:77] Creating layer inception_3a/3x3
I0403 14:39:35.491816 10946 net.cpp:91] Creating Layer inception_3a/3x3
I0403 14:39:35.491833 10946 net.cpp:425] inception_3a/3x3 <- inception_3a/3x3_reduce
I0403 14:39:35.491858 10946 net.cpp:399] inception_3a/3x3 -> inception_3a/3x3
I0403 14:39:35.493614 10946 net.cpp:141] Setting up inception_3a/3x3
I0403 14:39:35.493651 10946 net.cpp:148] Top shape: 24 128 28 28 (2408448)
I0403 14:39:35.493670 10946 net.cpp:156] Memory required for data: 525042720
I0403 14:39:35.493691 10946 layer_factory.hpp:77] Creating layer inception_3a/relu_3x3
I0403 14:39:35.493710 10946 net.cpp:91] Creating Layer inception_3a/relu_3x3
I0403 14:39:35.493728 10946 net.cpp:425] inception_3a/relu_3x3 <- inception_3a/3x3
I0403 14:39:35.493749 10946 net.cpp:386] inception_3a/relu_3x3 -> inception_3a/3x3 (in-place)
I0403 14:39:35.494035 10946 net.cpp:141] Setting up inception_3a/relu_3x3
I0403 14:39:35.494066 10946 net.cpp:148] Top shape: 24 128 28 28 (2408448)
I0403 14:39:35.494083 10946 net.cpp:156] Memory required for data: 534676512
I0403 14:39:35.494103 10946 layer_factory.hpp:77] Creating layer inception_3a/5x5_reduce
I0403 14:39:35.494132 10946 net.cpp:91] Creating Layer inception_3a/5x5_reduce
I0403 14:39:35.494153 10946 net.cpp:425] inception_3a/5x5_reduce <- pool2/3x3_s2_pool2/3x3_s2_0_split_2
I0403 14:39:35.494174 10946 net.cpp:399] inception_3a/5x5_reduce -> inception_3a/5x5_reduce
I0403 14:39:35.495195 10946 net.cpp:141] Setting up inception_3a/5x5_reduce
I0403 14:39:35.495228 10946 net.cpp:148] Top shape: 24 16 28 28 (301056)
I0403 14:39:35.495245 10946 net.cpp:156] Memory required for data: 535880736
I0403 14:39:35.495265 10946 layer_factory.hpp:77] Creating layer inception_3a/relu_5x5_reduce
I0403 14:39:35.495285 10946 net.cpp:91] Creating Layer inception_3a/relu_5x5_reduce
I0403 14:39:35.495301 10946 net.cpp:425] inception_3a/relu_5x5_reduce <- inception_3a/5x5_reduce
I0403 14:39:35.495322 10946 net.cpp:386] inception_3a/relu_5x5_reduce -> inception_3a/5x5_reduce (in-place)
I0403 14:39:35.495633 10946 net.cpp:141] Setting up inception_3a/relu_5x5_reduce
I0403 14:39:35.495662 10946 net.cpp:148] Top shape: 24 16 28 28 (301056)
I0403 14:39:35.495678 10946 net.cpp:156] Memory required for data: 537084960
I0403 14:39:35.495694 10946 layer_factory.hpp:77] Creating layer inception_3a/5x5
I0403 14:39:35.495719 10946 net.cpp:91] Creating Layer inception_3a/5x5
I0403 14:39:35.495738 10946 net.cpp:425] inception_3a/5x5 <- inception_3a/5x5_reduce
I0403 14:39:35.495760 10946 net.cpp:399] inception_3a/5x5 -> inception_3a/5x5
I0403 14:39:35.496848 10946 net.cpp:141] Setting up inception_3a/5x5
I0403 14:39:35.496881 10946 net.cpp:148] Top shape: 24 32 28 28 (602112)
I0403 14:39:35.496901 10946 net.cpp:156] Memory required for data: 539493408
I0403 14:39:35.496919 10946 layer_factory.hpp:77] Creating layer inception_3a/relu_5x5
I0403 14:39:35.496939 10946 net.cpp:91] Creating Layer inception_3a/relu_5x5
I0403 14:39:35.496956 10946 net.cpp:425] inception_3a/relu_5x5 <- inception_3a/5x5
I0403 14:39:35.496978 10946 net.cpp:386] inception_3a/relu_5x5 -> inception_3a/5x5 (in-place)
I0403 14:39:35.497169 10946 net.cpp:141] Setting up inception_3a/relu_5x5
I0403 14:39:35.497197 10946 net.cpp:148] Top shape: 24 32 28 28 (602112)
I0403 14:39:35.497213 10946 net.cpp:156] Memory required for data: 541901856
I0403 14:39:35.497230 10946 layer_factory.hpp:77] Creating layer inception_3a/pool
I0403 14:39:35.497248 10946 net.cpp:91] Creating Layer inception_3a/pool
I0403 14:39:35.497280 10946 net.cpp:425] inception_3a/pool <- pool2/3x3_s2_pool2/3x3_s2_0_split_3
I0403 14:39:35.497303 10946 net.cpp:399] inception_3a/pool -> inception_3a/pool
I0403 14:39:35.497366 10946 net.cpp:141] Setting up inception_3a/pool
I0403 14:39:35.497391 10946 net.cpp:148] Top shape: 24 192 28 28 (3612672)
I0403 14:39:35.497407 10946 net.cpp:156] Memory required for data: 556352544
I0403 14:39:35.497423 10946 layer_factory.hpp:77] Creating layer inception_3a/pool_proj
I0403 14:39:35.497450 10946 net.cpp:91] Creating Layer inception_3a/pool_proj
I0403 14:39:35.497469 10946 net.cpp:425] inception_3a/pool_proj <- inception_3a/pool
I0403 14:39:35.497488 10946 net.cpp:399] inception_3a/pool_proj -> inception_3a/pool_proj
I0403 14:39:35.498502 10946 net.cpp:141] Setting up inception_3a/pool_proj
I0403 14:39:35.498531 10946 net.cpp:148] Top shape: 24 32 28 28 (602112)
I0403 14:39:35.498548 10946 net.cpp:156] Memory required for data: 558760992
I0403 14:39:35.498574 10946 layer_factory.hpp:77] Creating layer inception_3a/relu_pool_proj
I0403 14:39:35.498595 10946 net.cpp:91] Creating Layer inception_3a/relu_pool_proj
I0403 14:39:35.498613 10946 net.cpp:425] inception_3a/relu_pool_proj <- inception_3a/pool_proj
I0403 14:39:35.498634 10946 net.cpp:386] inception_3a/relu_pool_proj -> inception_3a/pool_proj (in-place)
I0403 14:39:35.498919 10946 net.cpp:141] Setting up inception_3a/relu_pool_proj
I0403 14:39:35.498950 10946 net.cpp:148] Top shape: 24 32 28 28 (602112)
I0403 14:39:35.498967 10946 net.cpp:156] Memory required for data: 561169440
I0403 14:39:35.498983 10946 layer_factory.hpp:77] Creating layer inception_3a/output
I0403 14:39:35.499003 10946 net.cpp:91] Creating Layer inception_3a/output
I0403 14:39:35.499019 10946 net.cpp:425] inception_3a/output <- inception_3a/1x1
I0403 14:39:35.499037 10946 net.cpp:425] inception_3a/output <- inception_3a/3x3
I0403 14:39:35.499054 10946 net.cpp:425] inception_3a/output <- inception_3a/5x5
I0403 14:39:35.499071 10946 net.cpp:425] inception_3a/output <- inception_3a/pool_proj
I0403 14:39:35.499092 10946 net.cpp:399] inception_3a/output -> inception_3a/output
I0403 14:39:35.499145 10946 net.cpp:141] Setting up inception_3a/output
I0403 14:39:35.499171 10946 net.cpp:148] Top shape: 24 256 28 28 (4816896)
I0403 14:39:35.499186 10946 net.cpp:156] Memory required for data: 580437024
I0403 14:39:35.499203 10946 layer_factory.hpp:77] Creating layer inception_3a/output_inception_3a/output_0_split
I0403 14:39:35.499224 10946 net.cpp:91] Creating Layer inception_3a/output_inception_3a/output_0_split
I0403 14:39:35.499243 10946 net.cpp:425] inception_3a/output_inception_3a/output_0_split <- inception_3a/output
I0403 14:39:35.499261 10946 net.cpp:399] inception_3a/output_inception_3a/output_0_split -> inception_3a/output_inception_3a/output_0_split_0
I0403 14:39:35.499282 10946 net.cpp:399] inception_3a/output_inception_3a/output_0_split -> inception_3a/output_inception_3a/output_0_split_1
I0403 14:39:35.499308 10946 net.cpp:399] inception_3a/output_inception_3a/output_0_split -> inception_3a/output_inception_3a/output_0_split_2
I0403 14:39:35.499332 10946 net.cpp:399] inception_3a/output_inception_3a/output_0_split -> inception_3a/output_inception_3a/output_0_split_3
I0403 14:39:35.499408 10946 net.cpp:141] Setting up inception_3a/output_inception_3a/output_0_split
I0403 14:39:35.499436 10946 net.cpp:148] Top shape: 24 256 28 28 (4816896)
I0403 14:39:35.499454 10946 net.cpp:148] Top shape: 24 256 28 28 (4816896)
I0403 14:39:35.499471 10946 net.cpp:148] Top shape: 24 256 28 28 (4816896)
I0403 14:39:35.499488 10946 net.cpp:148] Top shape: 24 256 28 28 (4816896)
I0403 14:39:35.499502 10946 net.cpp:156] Memory required for data: 657507360
I0403 14:39:35.499519 10946 layer_factory.hpp:77] Creating layer inception_3b/1x1
I0403 14:39:35.499542 10946 net.cpp:91] Creating Layer inception_3b/1x1
I0403 14:39:35.499562 10946 net.cpp:425] inception_3b/1x1 <- inception_3a/output_inception_3a/output_0_split_0
I0403 14:39:35.499582 10946 net.cpp:399] inception_3b/1x1 -> inception_3b/1x1
I0403 14:39:35.500772 10946 net.cpp:141] Setting up inception_3b/1x1
I0403 14:39:35.500818 10946 net.cpp:148] Top shape: 24 128 28 28 (2408448)
I0403 14:39:35.500834 10946 net.cpp:156] Memory required for data: 667141152
I0403 14:39:35.500854 10946 layer_factory.hpp:77] Creating layer inception_3b/relu_1x1
I0403 14:39:35.500879 10946 net.cpp:91] Creating Layer inception_3b/relu_1x1
I0403 14:39:35.500895 10946 net.cpp:425] inception_3b/relu_1x1 <- inception_3b/1x1
I0403 14:39:35.500913 10946 net.cpp:386] inception_3b/relu_1x1 -> inception_3b/1x1 (in-place)
I0403 14:39:35.501096 10946 net.cpp:141] Setting up inception_3b/relu_1x1
I0403 14:39:35.501128 10946 net.cpp:148] Top shape: 24 128 28 28 (2408448)
I0403 14:39:35.501148 10946 net.cpp:156] Memory required for data: 676774944
I0403 14:39:35.501163 10946 layer_factory.hpp:77] Creating layer inception_3b/3x3_reduce
I0403 14:39:35.501188 10946 net.cpp:91] Creating Layer inception_3b/3x3_reduce
I0403 14:39:35.501206 10946 net.cpp:425] inception_3b/3x3_reduce <- inception_3a/output_inception_3a/output_0_split_1
I0403 14:39:35.501226 10946 net.cpp:399] inception_3b/3x3_reduce -> inception_3b/3x3_reduce
I0403 14:39:35.502416 10946 net.cpp:141] Setting up inception_3b/3x3_reduce
I0403 14:39:35.502447 10946 net.cpp:148] Top shape: 24 128 28 28 (2408448)
I0403 14:39:35.502465 10946 net.cpp:156] Memory required for data: 686408736
I0403 14:39:35.502485 10946 layer_factory.hpp:77] Creating layer inception_3b/relu_3x3_reduce
I0403 14:39:35.502506 10946 net.cpp:91] Creating Layer inception_3b/relu_3x3_reduce
I0403 14:39:35.502523 10946 net.cpp:425] inception_3b/relu_3x3_reduce <- inception_3b/3x3_reduce
I0403 14:39:35.502542 10946 net.cpp:386] inception_3b/relu_3x3_reduce -> inception_3b/3x3_reduce (in-place)
I0403 14:39:35.502722 10946 net.cpp:141] Setting up inception_3b/relu_3x3_reduce
I0403 14:39:35.502750 10946 net.cpp:148] Top shape: 24 128 28 28 (2408448)
I0403 14:39:35.502765 10946 net.cpp:156] Memory required for data: 696042528
I0403 14:39:35.502781 10946 layer_factory.hpp:77] Creating layer inception_3b/3x3
I0403 14:39:35.502807 10946 net.cpp:91] Creating Layer inception_3b/3x3
I0403 14:39:35.502827 10946 net.cpp:425] inception_3b/3x3 <- inception_3b/3x3_reduce
I0403 14:39:35.502851 10946 net.cpp:399] inception_3b/3x3 -> inception_3b/3x3
I0403 14:39:35.505919 10946 net.cpp:141] Setting up inception_3b/3x3
I0403 14:39:35.505952 10946 net.cpp:148] Top shape: 24 192 28 28 (3612672)
I0403 14:39:35.505971 10946 net.cpp:156] Memory required for data: 710493216
I0403 14:39:35.505992 10946 layer_factory.hpp:77] Creating layer inception_3b/relu_3x3
I0403 14:39:35.506011 10946 net.cpp:91] Creating Layer inception_3b/relu_3x3
I0403 14:39:35.506028 10946 net.cpp:425] inception_3b/relu_3x3 <- inception_3b/3x3
I0403 14:39:35.506049 10946 net.cpp:386] inception_3b/relu_3x3 -> inception_3b/3x3 (in-place)
I0403 14:39:35.506343 10946 net.cpp:141] Setting up inception_3b/relu_3x3
I0403 14:39:35.506374 10946 net.cpp:148] Top shape: 24 192 28 28 (3612672)
I0403 14:39:35.506392 10946 net.cpp:156] Memory required for data: 724943904
I0403 14:39:35.506409 10946 layer_factory.hpp:77] Creating layer inception_3b/5x5_reduce
I0403 14:39:35.506434 10946 net.cpp:91] Creating Layer inception_3b/5x5_reduce
I0403 14:39:35.506458 10946 net.cpp:425] inception_3b/5x5_reduce <- inception_3a/output_inception_3a/output_0_split_2
I0403 14:39:35.506479 10946 net.cpp:399] inception_3b/5x5_reduce -> inception_3b/5x5_reduce
I0403 14:39:35.507534 10946 net.cpp:141] Setting up inception_3b/5x5_reduce
I0403 14:39:35.507565 10946 net.cpp:148] Top shape: 24 32 28 28 (602112)
I0403 14:39:35.507581 10946 net.cpp:156] Memory required for data: 727352352
I0403 14:39:35.507601 10946 layer_factory.hpp:77] Creating layer inception_3b/relu_5x5_reduce
I0403 14:39:35.507621 10946 net.cpp:91] Creating Layer inception_3b/relu_5x5_reduce
I0403 14:39:35.507637 10946 net.cpp:425] inception_3b/relu_5x5_reduce <- inception_3b/5x5_reduce
I0403 14:39:35.507657 10946 net.cpp:386] inception_3b/relu_5x5_reduce -> inception_3b/5x5_reduce (in-place)
I0403 14:39:35.507850 10946 net.cpp:141] Setting up inception_3b/relu_5x5_reduce
I0403 14:39:35.507877 10946 net.cpp:148] Top shape: 24 32 28 28 (602112)
I0403 14:39:35.507894 10946 net.cpp:156] Memory required for data: 729760800
I0403 14:39:35.507910 10946 layer_factory.hpp:77] Creating layer inception_3b/5x5
I0403 14:39:35.507936 10946 net.cpp:91] Creating Layer inception_3b/5x5
I0403 14:39:35.507956 10946 net.cpp:425] inception_3b/5x5 <- inception_3b/5x5_reduce
I0403 14:39:35.507977 10946 net.cpp:399] inception_3b/5x5 -> inception_3b/5x5
I0403 14:39:35.509974 10946 net.cpp:141] Setting up inception_3b/5x5
I0403 14:39:35.510004 10946 net.cpp:148] Top shape: 24 96 28 28 (1806336)
I0403 14:39:35.510020 10946 net.cpp:156] Memory required for data: 736986144
I0403 14:39:35.510040 10946 layer_factory.hpp:77] Creating layer inception_3b/relu_5x5
I0403 14:39:35.510059 10946 net.cpp:91] Creating Layer inception_3b/relu_5x5
I0403 14:39:35.510077 10946 net.cpp:425] inception_3b/relu_5x5 <- inception_3b/5x5
I0403 14:39:35.510097 10946 net.cpp:386] inception_3b/relu_5x5 -> inception_3b/5x5 (in-place)
I0403 14:39:35.510295 10946 net.cpp:141] Setting up inception_3b/relu_5x5
I0403 14:39:35.510321 10946 net.cpp:148] Top shape: 24 96 28 28 (1806336)
I0403 14:39:35.510336 10946 net.cpp:156] Memory required for data: 744211488
I0403 14:39:35.510352 10946 layer_factory.hpp:77] Creating layer inception_3b/pool
I0403 14:39:35.510371 10946 net.cpp:91] Creating Layer inception_3b/pool
I0403 14:39:35.510388 10946 net.cpp:425] inception_3b/pool <- inception_3a/output_inception_3a/output_0_split_3
I0403 14:39:35.510407 10946 net.cpp:399] inception_3b/pool -> inception_3b/pool
I0403 14:39:35.510465 10946 net.cpp:141] Setting up inception_3b/pool
I0403 14:39:35.510489 10946 net.cpp:148] Top shape: 24 256 28 28 (4816896)
I0403 14:39:35.510505 10946 net.cpp:156] Memory required for data: 763479072
I0403 14:39:35.510520 10946 layer_factory.hpp:77] Creating layer inception_3b/pool_proj
I0403 14:39:35.510543 10946 net.cpp:91] Creating Layer inception_3b/pool_proj
I0403 14:39:35.510565 10946 net.cpp:425] inception_3b/pool_proj <- inception_3b/pool
I0403 14:39:35.510584 10946 net.cpp:399] inception_3b/pool_proj -> inception_3b/pool_proj
I0403 14:39:35.511657 10946 net.cpp:141] Setting up inception_3b/pool_proj
I0403 14:39:35.511687 10946 net.cpp:148] Top shape: 24 64 28 28 (1204224)
I0403 14:39:35.511703 10946 net.cpp:156] Memory required for data: 768295968
I0403 14:39:35.511723 10946 layer_factory.hpp:77] Creating layer inception_3b/relu_pool_proj
I0403 14:39:35.511740 10946 net.cpp:91] Creating Layer inception_3b/relu_pool_proj
I0403 14:39:35.511759 10946 net.cpp:425] inception_3b/relu_pool_proj <- inception_3b/pool_proj
I0403 14:39:35.511778 10946 net.cpp:386] inception_3b/relu_pool_proj -> inception_3b/pool_proj (in-place)
I0403 14:39:35.512212 10946 net.cpp:141] Setting up inception_3b/relu_pool_proj
I0403 14:39:35.512240 10946 net.cpp:148] Top shape: 24 64 28 28 (1204224)
I0403 14:39:35.512256 10946 net.cpp:156] Memory required for data: 773112864
I0403 14:39:35.512272 10946 layer_factory.hpp:77] Creating layer inception_3b/output
I0403 14:39:35.512290 10946 net.cpp:91] Creating Layer inception_3b/output
I0403 14:39:35.512306 10946 net.cpp:425] inception_3b/output <- inception_3b/1x1
I0403 14:39:35.512325 10946 net.cpp:425] inception_3b/output <- inception_3b/3x3
I0403 14:39:35.512341 10946 net.cpp:425] inception_3b/output <- inception_3b/5x5
I0403 14:39:35.512358 10946 net.cpp:425] inception_3b/output <- inception_3b/pool_proj
I0403 14:39:35.512379 10946 net.cpp:399] inception_3b/output -> inception_3b/output
I0403 14:39:35.512425 10946 net.cpp:141] Setting up inception_3b/output
I0403 14:39:35.512452 10946 net.cpp:148] Top shape: 24 480 28 28 (9031680)
I0403 14:39:35.512480 10946 net.cpp:156] Memory required for data: 809239584
I0403 14:39:35.512495 10946 layer_factory.hpp:77] Creating layer pool3/3x3_s2
I0403 14:39:35.512513 10946 net.cpp:91] Creating Layer pool3/3x3_s2
I0403 14:39:35.512529 10946 net.cpp:425] pool3/3x3_s2 <- inception_3b/output
I0403 14:39:35.512567 10946 net.cpp:399] pool3/3x3_s2 -> pool3/3x3_s2
I0403 14:39:35.512627 10946 net.cpp:141] Setting up pool3/3x3_s2
I0403 14:39:35.512652 10946 net.cpp:148] Top shape: 24 480 14 14 (2257920)
I0403 14:39:35.512668 10946 net.cpp:156] Memory required for data: 818271264
I0403 14:39:35.512682 10946 layer_factory.hpp:77] Creating layer pool3/3x3_s2_pool3/3x3_s2_0_split
I0403 14:39:35.512702 10946 net.cpp:91] Creating Layer pool3/3x3_s2_pool3/3x3_s2_0_split
I0403 14:39:35.512719 10946 net.cpp:425] pool3/3x3_s2_pool3/3x3_s2_0_split <- pool3/3x3_s2
I0403 14:39:35.512737 10946 net.cpp:399] pool3/3x3_s2_pool3/3x3_s2_0_split -> pool3/3x3_s2_pool3/3x3_s2_0_split_0
I0403 14:39:35.512756 10946 net.cpp:399] pool3/3x3_s2_pool3/3x3_s2_0_split -> pool3/3x3_s2_pool3/3x3_s2_0_split_1
I0403 14:39:35.512776 10946 net.cpp:399] pool3/3x3_s2_pool3/3x3_s2_0_split -> pool3/3x3_s2_pool3/3x3_s2_0_split_2
I0403 14:39:35.512795 10946 net.cpp:399] pool3/3x3_s2_pool3/3x3_s2_0_split -> pool3/3x3_s2_pool3/3x3_s2_0_split_3
I0403 14:39:35.512873 10946 net.cpp:141] Setting up pool3/3x3_s2_pool3/3x3_s2_0_split
I0403 14:39:35.512897 10946 net.cpp:148] Top shape: 24 480 14 14 (2257920)
I0403 14:39:35.512915 10946 net.cpp:148] Top shape: 24 480 14 14 (2257920)
I0403 14:39:35.512931 10946 net.cpp:148] Top shape: 24 480 14 14 (2257920)
I0403 14:39:35.512948 10946 net.cpp:148] Top shape: 24 480 14 14 (2257920)
I0403 14:39:35.512960 10946 net.cpp:156] Memory required for data: 854397984
I0403 14:39:35.512975 10946 layer_factory.hpp:77] Creating layer inception_4a/1x1
I0403 14:39:35.512998 10946 net.cpp:91] Creating Layer inception_4a/1x1
I0403 14:39:35.513016 10946 net.cpp:425] inception_4a/1x1 <- pool3/3x3_s2_pool3/3x3_s2_0_split_0
I0403 14:39:35.513038 10946 net.cpp:399] inception_4a/1x1 -> inception_4a/1x1
I0403 14:39:35.514674 10946 net.cpp:141] Setting up inception_4a/1x1
I0403 14:39:35.514704 10946 net.cpp:148] Top shape: 24 192 14 14 (903168)
I0403 14:39:35.514721 10946 net.cpp:156] Memory required for data: 858010656
I0403 14:39:35.514739 10946 layer_factory.hpp:77] Creating layer inception_4a/relu_1x1
I0403 14:39:35.514760 10946 net.cpp:91] Creating Layer inception_4a/relu_1x1
I0403 14:39:35.514780 10946 net.cpp:425] inception_4a/relu_1x1 <- inception_4a/1x1
I0403 14:39:35.514797 10946 net.cpp:386] inception_4a/relu_1x1 -> inception_4a/1x1 (in-place)
I0403 14:39:35.514974 10946 net.cpp:141] Setting up inception_4a/relu_1x1
I0403 14:39:35.515005 10946 net.cpp:148] Top shape: 24 192 14 14 (903168)
I0403 14:39:35.515023 10946 net.cpp:156] Memory required for data: 861623328
I0403 14:39:35.515039 10946 layer_factory.hpp:77] Creating layer inception_4a/3x3_reduce
I0403 14:39:35.515059 10946 net.cpp:91] Creating Layer inception_4a/3x3_reduce
I0403 14:39:35.515077 10946 net.cpp:425] inception_4a/3x3_reduce <- pool3/3x3_s2_pool3/3x3_s2_0_split_1
I0403 14:39:35.515101 10946 net.cpp:399] inception_4a/3x3_reduce -> inception_4a/3x3_reduce
I0403 14:39:35.516412 10946 net.cpp:141] Setting up inception_4a/3x3_reduce
I0403 14:39:35.516441 10946 net.cpp:148] Top shape: 24 96 14 14 (451584)
I0403 14:39:35.516458 10946 net.cpp:156] Memory required for data: 863429664
I0403 14:39:35.516484 10946 layer_factory.hpp:77] Creating layer inception_4a/relu_3x3_reduce
I0403 14:39:35.516505 10946 net.cpp:91] Creating Layer inception_4a/relu_3x3_reduce
I0403 14:39:35.516522 10946 net.cpp:425] inception_4a/relu_3x3_reduce <- inception_4a/3x3_reduce
I0403 14:39:35.516542 10946 net.cpp:386] inception_4a/relu_3x3_reduce -> inception_4a/3x3_reduce (in-place)
I0403 14:39:35.516724 10946 net.cpp:141] Setting up inception_4a/relu_3x3_reduce
I0403 14:39:35.516751 10946 net.cpp:148] Top shape: 24 96 14 14 (451584)
I0403 14:39:35.516767 10946 net.cpp:156] Memory required for data: 865236000
I0403 14:39:35.516782 10946 layer_factory.hpp:77] Creating layer inception_4a/3x3
I0403 14:39:35.516805 10946 net.cpp:91] Creating Layer inception_4a/3x3
I0403 14:39:35.516824 10946 net.cpp:425] inception_4a/3x3 <- inception_4a/3x3_reduce
I0403 14:39:35.516845 10946 net.cpp:399] inception_4a/3x3 -> inception_4a/3x3
I0403 14:39:35.519618 10946 net.cpp:141] Setting up inception_4a/3x3
I0403 14:39:35.519647 10946 net.cpp:148] Top shape: 24 208 14 14 (978432)
I0403 14:39:35.519665 10946 net.cpp:156] Memory required for data: 869149728
I0403 14:39:35.519685 10946 layer_factory.hpp:77] Creating layer inception_4a/relu_3x3
I0403 14:39:35.519706 10946 net.cpp:91] Creating Layer inception_4a/relu_3x3
I0403 14:39:35.519722 10946 net.cpp:425] inception_4a/relu_3x3 <- inception_4a/3x3
I0403 14:39:35.519740 10946 net.cpp:386] inception_4a/relu_3x3 -> inception_4a/3x3 (in-place)
I0403 14:39:35.520025 10946 net.cpp:141] Setting up inception_4a/relu_3x3
I0403 14:39:35.520053 10946 net.cpp:148] Top shape: 24 208 14 14 (978432)
I0403 14:39:35.520069 10946 net.cpp:156] Memory required for data: 873063456
I0403 14:39:35.520084 10946 layer_factory.hpp:77] Creating layer inception_4a/5x5_reduce
I0403 14:39:35.520110 10946 net.cpp:91] Creating Layer inception_4a/5x5_reduce
I0403 14:39:35.520135 10946 net.cpp:425] inception_4a/5x5_reduce <- pool3/3x3_s2_pool3/3x3_s2_0_split_2
I0403 14:39:35.520158 10946 net.cpp:399] inception_4a/5x5_reduce -> inception_4a/5x5_reduce
I0403 14:39:35.521219 10946 net.cpp:141] Setting up inception_4a/5x5_reduce
I0403 14:39:35.521250 10946 net.cpp:148] Top shape: 24 16 14 14 (75264)
I0403 14:39:35.521268 10946 net.cpp:156] Memory required for data: 873364512
I0403 14:39:35.521288 10946 layer_factory.hpp:77] Creating layer inception_4a/relu_5x5_reduce
I0403 14:39:35.521307 10946 net.cpp:91] Creating Layer inception_4a/relu_5x5_reduce
I0403 14:39:35.521324 10946 net.cpp:425] inception_4a/relu_5x5_reduce <- inception_4a/5x5_reduce
I0403 14:39:35.521345 10946 net.cpp:386] inception_4a/relu_5x5_reduce -> inception_4a/5x5_reduce (in-place)
I0403 14:39:35.521544 10946 net.cpp:141] Setting up inception_4a/relu_5x5_reduce
I0403 14:39:35.521570 10946 net.cpp:148] Top shape: 24 16 14 14 (75264)
I0403 14:39:35.521585 10946 net.cpp:156] Memory required for data: 873665568
I0403 14:39:35.521602 10946 layer_factory.hpp:77] Creating layer inception_4a/5x5
I0403 14:39:35.521626 10946 net.cpp:91] Creating Layer inception_4a/5x5
I0403 14:39:35.521646 10946 net.cpp:425] inception_4a/5x5 <- inception_4a/5x5_reduce
I0403 14:39:35.521668 10946 net.cpp:399] inception_4a/5x5 -> inception_4a/5x5
I0403 14:39:35.522830 10946 net.cpp:141] Setting up inception_4a/5x5
I0403 14:39:35.522860 10946 net.cpp:148] Top shape: 24 48 14 14 (225792)
I0403 14:39:35.522876 10946 net.cpp:156] Memory required for data: 874568736
I0403 14:39:35.522894 10946 layer_factory.hpp:77] Creating layer inception_4a/relu_5x5
I0403 14:39:35.522912 10946 net.cpp:91] Creating Layer inception_4a/relu_5x5
I0403 14:39:35.522932 10946 net.cpp:425] inception_4a/relu_5x5 <- inception_4a/5x5
I0403 14:39:35.522949 10946 net.cpp:386] inception_4a/relu_5x5 -> inception_4a/5x5 (in-place)
I0403 14:39:35.523139 10946 net.cpp:141] Setting up inception_4a/relu_5x5
I0403 14:39:35.523165 10946 net.cpp:148] Top shape: 24 48 14 14 (225792)
I0403 14:39:35.523181 10946 net.cpp:156] Memory required for data: 875471904
I0403 14:39:35.523197 10946 layer_factory.hpp:77] Creating layer inception_4a/pool
I0403 14:39:35.523218 10946 net.cpp:91] Creating Layer inception_4a/pool
I0403 14:39:35.523236 10946 net.cpp:425] inception_4a/pool <- pool3/3x3_s2_pool3/3x3_s2_0_split_3
I0403 14:39:35.523255 10946 net.cpp:399] inception_4a/pool -> inception_4a/pool
I0403 14:39:35.523319 10946 net.cpp:141] Setting up inception_4a/pool
I0403 14:39:35.523344 10946 net.cpp:148] Top shape: 24 480 14 14 (2257920)
I0403 14:39:35.523360 10946 net.cpp:156] Memory required for data: 884503584
I0403 14:39:35.523375 10946 layer_factory.hpp:77] Creating layer inception_4a/pool_proj
I0403 14:39:35.523398 10946 net.cpp:91] Creating Layer inception_4a/pool_proj
I0403 14:39:35.523416 10946 net.cpp:425] inception_4a/pool_proj <- inception_4a/pool
I0403 14:39:35.523437 10946 net.cpp:399] inception_4a/pool_proj -> inception_4a/pool_proj
I0403 14:39:35.524626 10946 net.cpp:141] Setting up inception_4a/pool_proj
I0403 14:39:35.524655 10946 net.cpp:148] Top shape: 24 64 14 14 (301056)
I0403 14:39:35.524687 10946 net.cpp:156] Memory required for data: 885707808
I0403 14:39:35.524708 10946 layer_factory.hpp:77] Creating layer inception_4a/relu_pool_proj
I0403 14:39:35.524730 10946 net.cpp:91] Creating Layer inception_4a/relu_pool_proj
I0403 14:39:35.524749 10946 net.cpp:425] inception_4a/relu_pool_proj <- inception_4a/pool_proj
I0403 14:39:35.524766 10946 net.cpp:386] inception_4a/relu_pool_proj -> inception_4a/pool_proj (in-place)
I0403 14:39:35.525051 10946 net.cpp:141] Setting up inception_4a/relu_pool_proj
I0403 14:39:35.525079 10946 net.cpp:148] Top shape: 24 64 14 14 (301056)
I0403 14:39:35.525095 10946 net.cpp:156] Memory required for data: 886912032
I0403 14:39:35.525111 10946 layer_factory.hpp:77] Creating layer inception_4a/output
I0403 14:39:35.525135 10946 net.cpp:91] Creating Layer inception_4a/output
I0403 14:39:35.525152 10946 net.cpp:425] inception_4a/output <- inception_4a/1x1
I0403 14:39:35.525187 10946 net.cpp:425] inception_4a/output <- inception_4a/3x3
I0403 14:39:35.525204 10946 net.cpp:425] inception_4a/output <- inception_4a/5x5
I0403 14:39:35.525221 10946 net.cpp:425] inception_4a/output <- inception_4a/pool_proj
I0403 14:39:35.525239 10946 net.cpp:399] inception_4a/output -> inception_4a/output
I0403 14:39:35.525285 10946 net.cpp:141] Setting up inception_4a/output
I0403 14:39:35.525313 10946 net.cpp:148] Top shape: 24 512 14 14 (2408448)
I0403 14:39:35.525329 10946 net.cpp:156] Memory required for data: 896545824
I0403 14:39:35.525346 10946 layer_factory.hpp:77] Creating layer inception_4a/output_inception_4a/output_0_split
I0403 14:39:35.525363 10946 net.cpp:91] Creating Layer inception_4a/output_inception_4a/output_0_split
I0403 14:39:35.525379 10946 net.cpp:425] inception_4a/output_inception_4a/output_0_split <- inception_4a/output
I0403 14:39:35.525401 10946 net.cpp:399] inception_4a/output_inception_4a/output_0_split -> inception_4a/output_inception_4a/output_0_split_0
I0403 14:39:35.525426 10946 net.cpp:399] inception_4a/output_inception_4a/output_0_split -> inception_4a/output_inception_4a/output_0_split_1
I0403 14:39:35.525460 10946 net.cpp:399] inception_4a/output_inception_4a/output_0_split -> inception_4a/output_inception_4a/output_0_split_2
I0403 14:39:35.525481 10946 net.cpp:399] inception_4a/output_inception_4a/output_0_split -> inception_4a/output_inception_4a/output_0_split_3
I0403 14:39:35.525501 10946 net.cpp:399] inception_4a/output_inception_4a/output_0_split -> inception_4a/output_inception_4a/output_0_split_4
I0403 14:39:35.525594 10946 net.cpp:141] Setting up inception_4a/output_inception_4a/output_0_split
I0403 14:39:35.525619 10946 net.cpp:148] Top shape: 24 512 14 14 (2408448)
I0403 14:39:35.525640 10946 net.cpp:148] Top shape: 24 512 14 14 (2408448)
I0403 14:39:35.525656 10946 net.cpp:148] Top shape: 24 512 14 14 (2408448)
I0403 14:39:35.525672 10946 net.cpp:148] Top shape: 24 512 14 14 (2408448)
I0403 14:39:35.525687 10946 net.cpp:148] Top shape: 24 512 14 14 (2408448)
I0403 14:39:35.525701 10946 net.cpp:156] Memory required for data: 944714784
I0403 14:39:35.525717 10946 layer_factory.hpp:77] Creating layer loss1/ave_pool
I0403 14:39:35.525734 10946 net.cpp:91] Creating Layer loss1/ave_pool
I0403 14:39:35.525749 10946 net.cpp:425] loss1/ave_pool <- inception_4a/output_inception_4a/output_0_split_0
I0403 14:39:35.525770 10946 net.cpp:399] loss1/ave_pool -> loss1/ave_pool
I0403 14:39:35.525982 10946 net.cpp:141] Setting up loss1/ave_pool
I0403 14:39:35.526010 10946 net.cpp:148] Top shape: 24 512 4 4 (196608)
I0403 14:39:35.526026 10946 net.cpp:156] Memory required for data: 945501216
I0403 14:39:35.526041 10946 layer_factory.hpp:77] Creating layer loss1/conv
I0403 14:39:35.526064 10946 net.cpp:91] Creating Layer loss1/conv
I0403 14:39:35.526082 10946 net.cpp:425] loss1/conv <- loss1/ave_pool
I0403 14:39:35.526104 10946 net.cpp:399] loss1/conv -> loss1/conv
I0403 14:39:35.527575 10946 net.cpp:141] Setting up loss1/conv
I0403 14:39:35.527606 10946 net.cpp:148] Top shape: 24 128 4 4 (49152)
I0403 14:39:35.527649 10946 net.cpp:156] Memory required for data: 945697824
I0403 14:39:35.527670 10946 layer_factory.hpp:77] Creating layer loss1/relu_conv
I0403 14:39:35.527704 10946 net.cpp:91] Creating Layer loss1/relu_conv
I0403 14:39:35.527722 10946 net.cpp:425] loss1/relu_conv <- loss1/conv
I0403 14:39:35.527741 10946 net.cpp:386] loss1/relu_conv -> loss1/conv (in-place)
I0403 14:39:35.528035 10946 net.cpp:141] Setting up loss1/relu_conv
I0403 14:39:35.528064 10946 net.cpp:148] Top shape: 24 128 4 4 (49152)
I0403 14:39:35.528080 10946 net.cpp:156] Memory required for data: 945894432
I0403 14:39:35.528096 10946 layer_factory.hpp:77] Creating layer loss1/fc
I0403 14:39:35.528123 10946 net.cpp:91] Creating Layer loss1/fc
I0403 14:39:35.528151 10946 net.cpp:425] loss1/fc <- loss1/conv
I0403 14:39:35.528173 10946 net.cpp:399] loss1/fc -> loss1/fc
I0403 14:39:35.546802 10946 net.cpp:141] Setting up loss1/fc
I0403 14:39:35.546864 10946 net.cpp:148] Top shape: 24 1024 (24576)
I0403 14:39:35.546880 10946 net.cpp:156] Memory required for data: 945992736
I0403 14:39:35.546900 10946 layer_factory.hpp:77] Creating layer loss1/relu_fc
I0403 14:39:35.546921 10946 net.cpp:91] Creating Layer loss1/relu_fc
I0403 14:39:35.546938 10946 net.cpp:425] loss1/relu_fc <- loss1/fc
I0403 14:39:35.546960 10946 net.cpp:386] loss1/relu_fc -> loss1/fc (in-place)
I0403 14:39:35.547178 10946 net.cpp:141] Setting up loss1/relu_fc
I0403 14:39:35.547207 10946 net.cpp:148] Top shape: 24 1024 (24576)
I0403 14:39:35.547224 10946 net.cpp:156] Memory required for data: 946091040
I0403 14:39:35.547240 10946 layer_factory.hpp:77] Creating layer loss1/drop_fc
I0403 14:39:35.547269 10946 net.cpp:91] Creating Layer loss1/drop_fc
I0403 14:39:35.547287 10946 net.cpp:425] loss1/drop_fc <- loss1/fc
I0403 14:39:35.547307 10946 net.cpp:386] loss1/drop_fc -> loss1/fc (in-place)
I0403 14:39:35.547360 10946 net.cpp:141] Setting up loss1/drop_fc
I0403 14:39:35.547384 10946 net.cpp:148] Top shape: 24 1024 (24576)
I0403 14:39:35.547400 10946 net.cpp:156] Memory required for data: 946189344
I0403 14:39:35.547416 10946 layer_factory.hpp:77] Creating layer loss1/classifier_plantvillage
I0403 14:39:35.547436 10946 net.cpp:91] Creating Layer loss1/classifier_plantvillage
I0403 14:39:35.547452 10946 net.cpp:425] loss1/classifier_plantvillage <- loss1/fc
I0403 14:39:35.547474 10946 net.cpp:399] loss1/classifier_plantvillage -> loss1/classifier_plantvillage
I0403 14:39:35.548434 10946 net.cpp:141] Setting up loss1/classifier_plantvillage
I0403 14:39:35.548463 10946 net.cpp:148] Top shape: 24 38 (912)
I0403 14:39:35.548480 10946 net.cpp:156] Memory required for data: 946192992
I0403 14:39:35.548498 10946 layer_factory.hpp:77] Creating layer loss1/classifier_plantvillage_loss1/classifier_plantvillage_0_split
I0403 14:39:35.548519 10946 net.cpp:91] Creating Layer loss1/classifier_plantvillage_loss1/classifier_plantvillage_0_split
I0403 14:39:35.548537 10946 net.cpp:425] loss1/classifier_plantvillage_loss1/classifier_plantvillage_0_split <- loss1/classifier_plantvillage
I0403 14:39:35.548555 10946 net.cpp:399] loss1/classifier_plantvillage_loss1/classifier_plantvillage_0_split -> loss1/classifier_plantvillage_loss1/classifier_plantvillage_0_split_0
I0403 14:39:35.548584 10946 net.cpp:399] loss1/classifier_plantvillage_loss1/classifier_plantvillage_0_split -> loss1/classifier_plantvillage_loss1/classifier_plantvillage_0_split_1
I0403 14:39:35.548614 10946 net.cpp:399] loss1/classifier_plantvillage_loss1/classifier_plantvillage_0_split -> loss1/classifier_plantvillage_loss1/classifier_plantvillage_0_split_2
I0403 14:39:35.548688 10946 net.cpp:141] Setting up loss1/classifier_plantvillage_loss1/classifier_plantvillage_0_split
I0403 14:39:35.548712 10946 net.cpp:148] Top shape: 24 38 (912)
I0403 14:39:35.548729 10946 net.cpp:148] Top shape: 24 38 (912)
I0403 14:39:35.548744 10946 net.cpp:148] Top shape: 24 38 (912)
I0403 14:39:35.548759 10946 net.cpp:156] Memory required for data: 946203936
I0403 14:39:35.548775 10946 layer_factory.hpp:77] Creating layer inception_4b/1x1
I0403 14:39:35.548799 10946 net.cpp:91] Creating Layer inception_4b/1x1
I0403 14:39:35.548837 10946 net.cpp:425] inception_4b/1x1 <- inception_4a/output_inception_4a/output_0_split_1
I0403 14:39:35.548859 10946 net.cpp:399] inception_4b/1x1 -> inception_4b/1x1
I0403 14:39:35.550611 10946 net.cpp:141] Setting up inception_4b/1x1
I0403 14:39:35.550640 10946 net.cpp:148] Top shape: 24 160 14 14 (752640)
I0403 14:39:35.550657 10946 net.cpp:156] Memory required for data: 949214496
I0403 14:39:35.550679 10946 layer_factory.hpp:77] Creating layer inception_4b/relu_1x1
I0403 14:39:35.550699 10946 net.cpp:91] Creating Layer inception_4b/relu_1x1
I0403 14:39:35.550716 10946 net.cpp:425] inception_4b/relu_1x1 <- inception_4b/1x1
I0403 14:39:35.550746 10946 net.cpp:386] inception_4b/relu_1x1 -> inception_4b/1x1 (in-place)
I0403 14:39:35.550930 10946 net.cpp:141] Setting up inception_4b/relu_1x1
I0403 14:39:35.550956 10946 net.cpp:148] Top shape: 24 160 14 14 (752640)
I0403 14:39:35.550971 10946 net.cpp:156] Memory required for data: 952225056
I0403 14:39:35.550987 10946 layer_factory.hpp:77] Creating layer inception_4b/3x3_reduce
I0403 14:39:35.551012 10946 net.cpp:91] Creating Layer inception_4b/3x3_reduce
I0403 14:39:35.551029 10946 net.cpp:425] inception_4b/3x3_reduce <- inception_4a/output_inception_4a/output_0_split_2
I0403 14:39:35.551051 10946 net.cpp:399] inception_4b/3x3_reduce -> inception_4b/3x3_reduce
I0403 14:39:35.552462 10946 net.cpp:141] Setting up inception_4b/3x3_reduce
I0403 14:39:35.552491 10946 net.cpp:148] Top shape: 24 112 14 14 (526848)
I0403 14:39:35.552506 10946 net.cpp:156] Memory required for data: 954332448
I0403 14:39:35.552526 10946 layer_factory.hpp:77] Creating layer inception_4b/relu_3x3_reduce
I0403 14:39:35.552544 10946 net.cpp:91] Creating Layer inception_4b/relu_3x3_reduce
I0403 14:39:35.552561 10946 net.cpp:425] inception_4b/relu_3x3_reduce <- inception_4b/3x3_reduce
I0403 14:39:35.552582 10946 net.cpp:386] inception_4b/relu_3x3_reduce -> inception_4b/3x3_reduce (in-place)
I0403 14:39:35.552867 10946 net.cpp:141] Setting up inception_4b/relu_3x3_reduce
I0403 14:39:35.552894 10946 net.cpp:148] Top shape: 24 112 14 14 (526848)
I0403 14:39:35.552909 10946 net.cpp:156] Memory required for data: 956439840
I0403 14:39:35.552924 10946 layer_factory.hpp:77] Creating layer inception_4b/3x3
I0403 14:39:35.552947 10946 net.cpp:91] Creating Layer inception_4b/3x3
I0403 14:39:35.552965 10946 net.cpp:425] inception_4b/3x3 <- inception_4b/3x3_reduce
I0403 14:39:35.552986 10946 net.cpp:399] inception_4b/3x3 -> inception_4b/3x3
I0403 14:39:35.556062 10946 net.cpp:141] Setting up inception_4b/3x3
I0403 14:39:35.556092 10946 net.cpp:148] Top shape: 24 224 14 14 (1053696)
I0403 14:39:35.556108 10946 net.cpp:156] Memory required for data: 960654624
I0403 14:39:35.556133 10946 layer_factory.hpp:77] Creating layer inception_4b/relu_3x3
I0403 14:39:35.556155 10946 net.cpp:91] Creating Layer inception_4b/relu_3x3
I0403 14:39:35.556174 10946 net.cpp:425] inception_4b/relu_3x3 <- inception_4b/3x3
I0403 14:39:35.556191 10946 net.cpp:386] inception_4b/relu_3x3 -> inception_4b/3x3 (in-place)
I0403 14:39:35.556373 10946 net.cpp:141] Setting up inception_4b/relu_3x3
I0403 14:39:35.556401 10946 net.cpp:148] Top shape: 24 224 14 14 (1053696)
I0403 14:39:35.556416 10946 net.cpp:156] Memory required for data: 964869408
I0403 14:39:35.556432 10946 layer_factory.hpp:77] Creating layer inception_4b/5x5_reduce
I0403 14:39:35.556454 10946 net.cpp:91] Creating Layer inception_4b/5x5_reduce
I0403 14:39:35.556473 10946 net.cpp:425] inception_4b/5x5_reduce <- inception_4a/output_inception_4a/output_0_split_3
I0403 14:39:35.556493 10946 net.cpp:399] inception_4b/5x5_reduce -> inception_4b/5x5_reduce
I0403 14:39:35.557616 10946 net.cpp:141] Setting up inception_4b/5x5_reduce
I0403 14:39:35.557647 10946 net.cpp:148] Top shape: 24 24 14 14 (112896)
I0403 14:39:35.557664 10946 net.cpp:156] Memory required for data: 965320992
I0403 14:39:35.557684 10946 layer_factory.hpp:77] Creating layer inception_4b/relu_5x5_reduce
I0403 14:39:35.557703 10946 net.cpp:91] Creating Layer inception_4b/relu_5x5_reduce
I0403 14:39:35.557734 10946 net.cpp:425] inception_4b/relu_5x5_reduce <- inception_4b/5x5_reduce
I0403 14:39:35.557756 10946 net.cpp:386] inception_4b/relu_5x5_reduce -> inception_4b/5x5_reduce (in-place)
I0403 14:39:35.557957 10946 net.cpp:141] Setting up inception_4b/relu_5x5_reduce
I0403 14:39:35.557983 10946 net.cpp:148] Top shape: 24 24 14 14 (112896)
I0403 14:39:35.557998 10946 net.cpp:156] Memory required for data: 965772576
I0403 14:39:35.558012 10946 layer_factory.hpp:77] Creating layer inception_4b/5x5
I0403 14:39:35.558034 10946 net.cpp:91] Creating Layer inception_4b/5x5
I0403 14:39:35.558053 10946 net.cpp:425] inception_4b/5x5 <- inception_4b/5x5_reduce
I0403 14:39:35.558074 10946 net.cpp:399] inception_4b/5x5 -> inception_4b/5x5
I0403 14:39:35.559299 10946 net.cpp:141] Setting up inception_4b/5x5
I0403 14:39:35.559327 10946 net.cpp:148] Top shape: 24 64 14 14 (301056)
I0403 14:39:35.559345 10946 net.cpp:156] Memory required for data: 966976800
I0403 14:39:35.559365 10946 layer_factory.hpp:77] Creating layer inception_4b/relu_5x5
I0403 14:39:35.559383 10946 net.cpp:91] Creating Layer inception_4b/relu_5x5
I0403 14:39:35.559401 10946 net.cpp:425] inception_4b/relu_5x5 <- inception_4b/5x5
I0403 14:39:35.559417 10946 net.cpp:386] inception_4b/relu_5x5 -> inception_4b/5x5 (in-place)
I0403 14:39:35.559722 10946 net.cpp:141] Setting up inception_4b/relu_5x5
I0403 14:39:35.559751 10946 net.cpp:148] Top shape: 24 64 14 14 (301056)
I0403 14:39:35.559787 10946 net.cpp:156] Memory required for data: 968181024
I0403 14:39:35.559803 10946 layer_factory.hpp:77] Creating layer inception_4b/pool
I0403 14:39:35.559824 10946 net.cpp:91] Creating Layer inception_4b/pool
I0403 14:39:35.559841 10946 net.cpp:425] inception_4b/pool <- inception_4a/output_inception_4a/output_0_split_4
I0403 14:39:35.559862 10946 net.cpp:399] inception_4b/pool -> inception_4b/pool
I0403 14:39:35.559926 10946 net.cpp:141] Setting up inception_4b/pool
I0403 14:39:35.559952 10946 net.cpp:148] Top shape: 24 512 14 14 (2408448)
I0403 14:39:35.559965 10946 net.cpp:156] Memory required for data: 977814816
I0403 14:39:35.559980 10946 layer_factory.hpp:77] Creating layer inception_4b/pool_proj
I0403 14:39:35.560003 10946 net.cpp:91] Creating Layer inception_4b/pool_proj
I0403 14:39:35.560020 10946 net.cpp:425] inception_4b/pool_proj <- inception_4b/pool
I0403 14:39:35.560040 10946 net.cpp:399] inception_4b/pool_proj -> inception_4b/pool_proj
I0403 14:39:35.561269 10946 net.cpp:141] Setting up inception_4b/pool_proj
I0403 14:39:35.561301 10946 net.cpp:148] Top shape: 24 64 14 14 (301056)
I0403 14:39:35.561318 10946 net.cpp:156] Memory required for data: 979019040
I0403 14:39:35.561338 10946 layer_factory.hpp:77] Creating layer inception_4b/relu_pool_proj
I0403 14:39:35.561358 10946 net.cpp:91] Creating Layer inception_4b/relu_pool_proj
I0403 14:39:35.561375 10946 net.cpp:425] inception_4b/relu_pool_proj <- inception_4b/pool_proj
I0403 14:39:35.561396 10946 net.cpp:386] inception_4b/relu_pool_proj -> inception_4b/pool_proj (in-place)
I0403 14:39:35.561604 10946 net.cpp:141] Setting up inception_4b/relu_pool_proj
I0403 14:39:35.561630 10946 net.cpp:148] Top shape: 24 64 14 14 (301056)
I0403 14:39:35.561645 10946 net.cpp:156] Memory required for data: 980223264
I0403 14:39:35.561661 10946 layer_factory.hpp:77] Creating layer inception_4b/output
I0403 14:39:35.561678 10946 net.cpp:91] Creating Layer inception_4b/output
I0403 14:39:35.561693 10946 net.cpp:425] inception_4b/output <- inception_4b/1x1
I0403 14:39:35.561710 10946 net.cpp:425] inception_4b/output <- inception_4b/3x3
I0403 14:39:35.561727 10946 net.cpp:425] inception_4b/output <- inception_4b/5x5
I0403 14:39:35.561743 10946 net.cpp:425] inception_4b/output <- inception_4b/pool_proj
I0403 14:39:35.561761 10946 net.cpp:399] inception_4b/output -> inception_4b/output
I0403 14:39:35.561808 10946 net.cpp:141] Setting up inception_4b/output
I0403 14:39:35.561835 10946 net.cpp:148] Top shape: 24 512 14 14 (2408448)
I0403 14:39:35.561851 10946 net.cpp:156] Memory required for data: 989857056
I0403 14:39:35.561880 10946 layer_factory.hpp:77] Creating layer inception_4b/output_inception_4b/output_0_split
I0403 14:39:35.561898 10946 net.cpp:91] Creating Layer inception_4b/output_inception_4b/output_0_split
I0403 14:39:35.561913 10946 net.cpp:425] inception_4b/output_inception_4b/output_0_split <- inception_4b/output
I0403 14:39:35.561933 10946 net.cpp:399] inception_4b/output_inception_4b/output_0_split -> inception_4b/output_inception_4b/output_0_split_0
I0403 14:39:35.561954 10946 net.cpp:399] inception_4b/output_inception_4b/output_0_split -> inception_4b/output_inception_4b/output_0_split_1
I0403 14:39:35.561976 10946 net.cpp:399] inception_4b/output_inception_4b/output_0_split -> inception_4b/output_inception_4b/output_0_split_2
I0403 14:39:35.561996 10946 net.cpp:399] inception_4b/output_inception_4b/output_0_split -> inception_4b/output_inception_4b/output_0_split_3
I0403 14:39:35.562079 10946 net.cpp:141] Setting up inception_4b/output_inception_4b/output_0_split
I0403 14:39:35.562103 10946 net.cpp:148] Top shape: 24 512 14 14 (2408448)
I0403 14:39:35.562120 10946 net.cpp:148] Top shape: 24 512 14 14 (2408448)
I0403 14:39:35.562152 10946 net.cpp:148] Top shape: 24 512 14 14 (2408448)
I0403 14:39:35.562170 10946 net.cpp:148] Top shape: 24 512 14 14 (2408448)
I0403 14:39:35.562185 10946 net.cpp:156] Memory required for data: 1028392224
I0403 14:39:35.562199 10946 layer_factory.hpp:77] Creating layer inception_4c/1x1
I0403 14:39:35.562224 10946 net.cpp:91] Creating Layer inception_4c/1x1
I0403 14:39:35.562242 10946 net.cpp:425] inception_4c/1x1 <- inception_4b/output_inception_4b/output_0_split_0
I0403 14:39:35.562260 10946 net.cpp:399] inception_4c/1x1 -> inception_4c/1x1
I0403 14:39:35.563724 10946 net.cpp:141] Setting up inception_4c/1x1
I0403 14:39:35.563752 10946 net.cpp:148] Top shape: 24 128 14 14 (602112)
I0403 14:39:35.563768 10946 net.cpp:156] Memory required for data: 1030800672
I0403 14:39:35.563787 10946 layer_factory.hpp:77] Creating layer inception_4c/relu_1x1
I0403 14:39:35.563807 10946 net.cpp:91] Creating Layer inception_4c/relu_1x1
I0403 14:39:35.563824 10946 net.cpp:425] inception_4c/relu_1x1 <- inception_4c/1x1
I0403 14:39:35.563843 10946 net.cpp:386] inception_4c/relu_1x1 -> inception_4c/1x1 (in-place)
I0403 14:39:35.564020 10946 net.cpp:141] Setting up inception_4c/relu_1x1
I0403 14:39:35.564045 10946 net.cpp:148] Top shape: 24 128 14 14 (602112)
I0403 14:39:35.564060 10946 net.cpp:156] Memory required for data: 1033209120
I0403 14:39:35.564075 10946 layer_factory.hpp:77] Creating layer inception_4c/3x3_reduce
I0403 14:39:35.564097 10946 net.cpp:91] Creating Layer inception_4c/3x3_reduce
I0403 14:39:35.564116 10946 net.cpp:425] inception_4c/3x3_reduce <- inception_4b/output_inception_4b/output_0_split_1
I0403 14:39:35.564146 10946 net.cpp:399] inception_4c/3x3_reduce -> inception_4c/3x3_reduce
I0403 14:39:35.566159 10946 net.cpp:141] Setting up inception_4c/3x3_reduce
I0403 14:39:35.566190 10946 net.cpp:148] Top shape: 24 128 14 14 (602112)
I0403 14:39:35.566207 10946 net.cpp:156] Memory required for data: 1035617568
I0403 14:39:35.566226 10946 layer_factory.hpp:77] Creating layer inception_4c/relu_3x3_reduce
I0403 14:39:35.566244 10946 net.cpp:91] Creating Layer inception_4c/relu_3x3_reduce
I0403 14:39:35.566261 10946 net.cpp:425] inception_4c/relu_3x3_reduce <- inception_4c/3x3_reduce
I0403 14:39:35.566278 10946 net.cpp:386] inception_4c/relu_3x3_reduce -> inception_4c/3x3_reduce (in-place)
I0403 14:39:35.566566 10946 net.cpp:141] Setting up inception_4c/relu_3x3_reduce
I0403 14:39:35.566596 10946 net.cpp:148] Top shape: 24 128 14 14 (602112)
I0403 14:39:35.566612 10946 net.cpp:156] Memory required for data: 1038026016
I0403 14:39:35.566640 10946 layer_factory.hpp:77] Creating layer inception_4c/3x3
I0403 14:39:35.566665 10946 net.cpp:91] Creating Layer inception_4c/3x3
I0403 14:39:35.566685 10946 net.cpp:425] inception_4c/3x3 <- inception_4c/3x3_reduce
I0403 14:39:35.566706 10946 net.cpp:399] inception_4c/3x3 -> inception_4c/3x3
I0403 14:39:35.570459 10946 net.cpp:141] Setting up inception_4c/3x3
I0403 14:39:35.570507 10946 net.cpp:148] Top shape: 24 256 14 14 (1204224)
I0403 14:39:35.570525 10946 net.cpp:156] Memory required for data: 1042842912
I0403 14:39:35.570559 10946 layer_factory.hpp:77] Creating layer inception_4c/relu_3x3
I0403 14:39:35.570580 10946 net.cpp:91] Creating Layer inception_4c/relu_3x3
I0403 14:39:35.570597 10946 net.cpp:425] inception_4c/relu_3x3 <- inception_4c/3x3
I0403 14:39:35.570616 10946 net.cpp:386] inception_4c/relu_3x3 -> inception_4c/3x3 (in-place)
I0403 14:39:35.570801 10946 net.cpp:141] Setting up inception_4c/relu_3x3
I0403 14:39:35.570832 10946 net.cpp:148] Top shape: 24 256 14 14 (1204224)
I0403 14:39:35.570849 10946 net.cpp:156] Memory required for data: 1047659808
I0403 14:39:35.570865 10946 layer_factory.hpp:77] Creating layer inception_4c/5x5_reduce
I0403 14:39:35.570888 10946 net.cpp:91] Creating Layer inception_4c/5x5_reduce
I0403 14:39:35.570909 10946 net.cpp:425] inception_4c/5x5_reduce <- inception_4b/output_inception_4b/output_0_split_2
I0403 14:39:35.570930 10946 net.cpp:399] inception_4c/5x5_reduce -> inception_4c/5x5_reduce
I0403 14:39:35.572046 10946 net.cpp:141] Setting up inception_4c/5x5_reduce
I0403 14:39:35.572077 10946 net.cpp:148] Top shape: 24 24 14 14 (112896)
I0403 14:39:35.572094 10946 net.cpp:156] Memory required for data: 1048111392
I0403 14:39:35.572114 10946 layer_factory.hpp:77] Creating layer inception_4c/relu_5x5_reduce
I0403 14:39:35.572147 10946 net.cpp:91] Creating Layer inception_4c/relu_5x5_reduce
I0403 14:39:35.572166 10946 net.cpp:425] inception_4c/relu_5x5_reduce <- inception_4c/5x5_reduce
I0403 14:39:35.572185 10946 net.cpp:386] inception_4c/relu_5x5_reduce -> inception_4c/5x5_reduce (in-place)
I0403 14:39:35.572376 10946 net.cpp:141] Setting up inception_4c/relu_5x5_reduce
I0403 14:39:35.572402 10946 net.cpp:148] Top shape: 24 24 14 14 (112896)
I0403 14:39:35.572417 10946 net.cpp:156] Memory required for data: 1048562976
I0403 14:39:35.572434 10946 layer_factory.hpp:77] Creating layer inception_4c/5x5
I0403 14:39:35.572458 10946 net.cpp:91] Creating Layer inception_4c/5x5
I0403 14:39:35.572476 10946 net.cpp:425] inception_4c/5x5 <- inception_4c/5x5_reduce
I0403 14:39:35.572497 10946 net.cpp:399] inception_4c/5x5 -> inception_4c/5x5
I0403 14:39:35.573806 10946 net.cpp:141] Setting up inception_4c/5x5
I0403 14:39:35.573834 10946 net.cpp:148] Top shape: 24 64 14 14 (301056)
I0403 14:39:35.573851 10946 net.cpp:156] Memory required for data: 1049767200
I0403 14:39:35.573870 10946 layer_factory.hpp:77] Creating layer inception_4c/relu_5x5
I0403 14:39:35.573889 10946 net.cpp:91] Creating Layer inception_4c/relu_5x5
I0403 14:39:35.573905 10946 net.cpp:425] inception_4c/relu_5x5 <- inception_4c/5x5
I0403 14:39:35.573925 10946 net.cpp:386] inception_4c/relu_5x5 -> inception_4c/5x5 (in-place)
I0403 14:39:35.574231 10946 net.cpp:141] Setting up inception_4c/relu_5x5
I0403 14:39:35.574259 10946 net.cpp:148] Top shape: 24 64 14 14 (301056)
I0403 14:39:35.574276 10946 net.cpp:156] Memory required for data: 1050971424
I0403 14:39:35.574291 10946 layer_factory.hpp:77] Creating layer inception_4c/pool
I0403 14:39:35.574311 10946 net.cpp:91] Creating Layer inception_4c/pool
I0403 14:39:35.574327 10946 net.cpp:425] inception_4c/pool <- inception_4b/output_inception_4b/output_0_split_3
I0403 14:39:35.574348 10946 net.cpp:399] inception_4c/pool -> inception_4c/pool
I0403 14:39:35.574417 10946 net.cpp:141] Setting up inception_4c/pool
I0403 14:39:35.574442 10946 net.cpp:148] Top shape: 24 512 14 14 (2408448)
I0403 14:39:35.574457 10946 net.cpp:156] Memory required for data: 1060605216
I0403 14:39:35.574471 10946 layer_factory.hpp:77] Creating layer inception_4c/pool_proj
I0403 14:39:35.574498 10946 net.cpp:91] Creating Layer inception_4c/pool_proj
I0403 14:39:35.574517 10946 net.cpp:425] inception_4c/pool_proj <- inception_4c/pool
I0403 14:39:35.574537 10946 net.cpp:399] inception_4c/pool_proj -> inception_4c/pool_proj
I0403 14:39:35.575790 10946 net.cpp:141] Setting up inception_4c/pool_proj
I0403 14:39:35.575822 10946 net.cpp:148] Top shape: 24 64 14 14 (301056)
I0403 14:39:35.575852 10946 net.cpp:156] Memory required for data: 1061809440
I0403 14:39:35.575873 10946 layer_factory.hpp:77] Creating layer inception_4c/relu_pool_proj
I0403 14:39:35.575892 10946 net.cpp:91] Creating Layer inception_4c/relu_pool_proj
I0403 14:39:35.575909 10946 net.cpp:425] inception_4c/relu_pool_proj <- inception_4c/pool_proj
I0403 14:39:35.575930 10946 net.cpp:386] inception_4c/relu_pool_proj -> inception_4c/pool_proj (in-place)
I0403 14:39:35.576118 10946 net.cpp:141] Setting up inception_4c/relu_pool_proj
I0403 14:39:35.576151 10946 net.cpp:148] Top shape: 24 64 14 14 (301056)
I0403 14:39:35.576167 10946 net.cpp:156] Memory required for data: 1063013664
I0403 14:39:35.576182 10946 layer_factory.hpp:77] Creating layer inception_4c/output
I0403 14:39:35.576200 10946 net.cpp:91] Creating Layer inception_4c/output
I0403 14:39:35.576216 10946 net.cpp:425] inception_4c/output <- inception_4c/1x1
I0403 14:39:35.576233 10946 net.cpp:425] inception_4c/output <- inception_4c/3x3
I0403 14:39:35.576251 10946 net.cpp:425] inception_4c/output <- inception_4c/5x5
I0403 14:39:35.576267 10946 net.cpp:425] inception_4c/output <- inception_4c/pool_proj
I0403 14:39:35.576287 10946 net.cpp:399] inception_4c/output -> inception_4c/output
I0403 14:39:35.576334 10946 net.cpp:141] Setting up inception_4c/output
I0403 14:39:35.576362 10946 net.cpp:148] Top shape: 24 512 14 14 (2408448)
I0403 14:39:35.576378 10946 net.cpp:156] Memory required for data: 1072647456
I0403 14:39:35.576395 10946 layer_factory.hpp:77] Creating layer inception_4c/output_inception_4c/output_0_split
I0403 14:39:35.576424 10946 net.cpp:91] Creating Layer inception_4c/output_inception_4c/output_0_split
I0403 14:39:35.576441 10946 net.cpp:425] inception_4c/output_inception_4c/output_0_split <- inception_4c/output
I0403 14:39:35.576458 10946 net.cpp:399] inception_4c/output_inception_4c/output_0_split -> inception_4c/output_inception_4c/output_0_split_0
I0403 14:39:35.576483 10946 net.cpp:399] inception_4c/output_inception_4c/output_0_split -> inception_4c/output_inception_4c/output_0_split_1
I0403 14:39:35.576505 10946 net.cpp:399] inception_4c/output_inception_4c/output_0_split -> inception_4c/output_inception_4c/output_0_split_2
I0403 14:39:35.576527 10946 net.cpp:399] inception_4c/output_inception_4c/output_0_split -> inception_4c/output_inception_4c/output_0_split_3
I0403 14:39:35.576620 10946 net.cpp:141] Setting up inception_4c/output_inception_4c/output_0_split
I0403 14:39:35.576645 10946 net.cpp:148] Top shape: 24 512 14 14 (2408448)
I0403 14:39:35.576663 10946 net.cpp:148] Top shape: 24 512 14 14 (2408448)
I0403 14:39:35.576680 10946 net.cpp:148] Top shape: 24 512 14 14 (2408448)
I0403 14:39:35.576696 10946 net.cpp:148] Top shape: 24 512 14 14 (2408448)
I0403 14:39:35.576711 10946 net.cpp:156] Memory required for data: 1111182624
I0403 14:39:35.576727 10946 layer_factory.hpp:77] Creating layer inception_4d/1x1
I0403 14:39:35.576751 10946 net.cpp:91] Creating Layer inception_4d/1x1
I0403 14:39:35.576771 10946 net.cpp:425] inception_4d/1x1 <- inception_4c/output_inception_4c/output_0_split_0
I0403 14:39:35.576803 10946 net.cpp:399] inception_4d/1x1 -> inception_4d/1x1
I0403 14:39:35.578276 10946 net.cpp:141] Setting up inception_4d/1x1
I0403 14:39:35.578306 10946 net.cpp:148] Top shape: 24 112 14 14 (526848)
I0403 14:39:35.578322 10946 net.cpp:156] Memory required for data: 1113290016
I0403 14:39:35.578343 10946 layer_factory.hpp:77] Creating layer inception_4d/relu_1x1
I0403 14:39:35.578364 10946 net.cpp:91] Creating Layer inception_4d/relu_1x1
I0403 14:39:35.578382 10946 net.cpp:425] inception_4d/relu_1x1 <- inception_4d/1x1
I0403 14:39:35.578402 10946 net.cpp:386] inception_4d/relu_1x1 -> inception_4d/1x1 (in-place)
I0403 14:39:35.578601 10946 net.cpp:141] Setting up inception_4d/relu_1x1
I0403 14:39:35.578630 10946 net.cpp:148] Top shape: 24 112 14 14 (526848)
I0403 14:39:35.578647 10946 net.cpp:156] Memory required for data: 1115397408
I0403 14:39:35.578663 10946 layer_factory.hpp:77] Creating layer inception_4d/3x3_reduce
I0403 14:39:35.578703 10946 net.cpp:91] Creating Layer inception_4d/3x3_reduce
I0403 14:39:35.578722 10946 net.cpp:425] inception_4d/3x3_reduce <- inception_4c/output_inception_4c/output_0_split_1
I0403 14:39:35.578742 10946 net.cpp:399] inception_4d/3x3_reduce -> inception_4d/3x3_reduce
I0403 14:39:35.580344 10946 net.cpp:141] Setting up inception_4d/3x3_reduce
I0403 14:39:35.580374 10946 net.cpp:148] Top shape: 24 144 14 14 (677376)
I0403 14:39:35.580390 10946 net.cpp:156] Memory required for data: 1118106912
I0403 14:39:35.580410 10946 layer_factory.hpp:77] Creating layer inception_4d/relu_3x3_reduce
I0403 14:39:35.580431 10946 net.cpp:91] Creating Layer inception_4d/relu_3x3_reduce
I0403 14:39:35.580449 10946 net.cpp:425] inception_4d/relu_3x3_reduce <- inception_4d/3x3_reduce
I0403 14:39:35.580468 10946 net.cpp:386] inception_4d/relu_3x3_reduce -> inception_4d/3x3_reduce (in-place)
I0403 14:39:35.580768 10946 net.cpp:141] Setting up inception_4d/relu_3x3_reduce
I0403 14:39:35.580797 10946 net.cpp:148] Top shape: 24 144 14 14 (677376)
I0403 14:39:35.580813 10946 net.cpp:156] Memory required for data: 1120816416
I0403 14:39:35.580829 10946 layer_factory.hpp:77] Creating layer inception_4d/3x3
I0403 14:39:35.580853 10946 net.cpp:91] Creating Layer inception_4d/3x3
I0403 14:39:35.580873 10946 net.cpp:425] inception_4d/3x3 <- inception_4d/3x3_reduce
I0403 14:39:35.580894 10946 net.cpp:399] inception_4d/3x3 -> inception_4d/3x3
I0403 14:39:35.585345 10946 net.cpp:141] Setting up inception_4d/3x3
I0403 14:39:35.585377 10946 net.cpp:148] Top shape: 24 288 14 14 (1354752)
I0403 14:39:35.585393 10946 net.cpp:156] Memory required for data: 1126235424
I0403 14:39:35.585414 10946 layer_factory.hpp:77] Creating layer inception_4d/relu_3x3
I0403 14:39:35.585435 10946 net.cpp:91] Creating Layer inception_4d/relu_3x3
I0403 14:39:35.585453 10946 net.cpp:425] inception_4d/relu_3x3 <- inception_4d/3x3
I0403 14:39:35.585482 10946 net.cpp:386] inception_4d/relu_3x3 -> inception_4d/3x3 (in-place)
I0403 14:39:35.585672 10946 net.cpp:141] Setting up inception_4d/relu_3x3
I0403 14:39:35.585701 10946 net.cpp:148] Top shape: 24 288 14 14 (1354752)
I0403 14:39:35.585717 10946 net.cpp:156] Memory required for data: 1131654432
I0403 14:39:35.585732 10946 layer_factory.hpp:77] Creating layer inception_4d/5x5_reduce
I0403 14:39:35.585755 10946 net.cpp:91] Creating Layer inception_4d/5x5_reduce
I0403 14:39:35.585774 10946 net.cpp:425] inception_4d/5x5_reduce <- inception_4c/output_inception_4c/output_0_split_2
I0403 14:39:35.585794 10946 net.cpp:399] inception_4d/5x5_reduce -> inception_4d/5x5_reduce
I0403 14:39:35.586962 10946 net.cpp:141] Setting up inception_4d/5x5_reduce
I0403 14:39:35.586992 10946 net.cpp:148] Top shape: 24 32 14 14 (150528)
I0403 14:39:35.587008 10946 net.cpp:156] Memory required for data: 1132256544
I0403 14:39:35.587028 10946 layer_factory.hpp:77] Creating layer inception_4d/relu_5x5_reduce
I0403 14:39:35.587047 10946 net.cpp:91] Creating Layer inception_4d/relu_5x5_reduce
I0403 14:39:35.587066 10946 net.cpp:425] inception_4d/relu_5x5_reduce <- inception_4d/5x5_reduce
I0403 14:39:35.587085 10946 net.cpp:386] inception_4d/relu_5x5_reduce -> inception_4d/5x5_reduce (in-place)
I0403 14:39:35.587282 10946 net.cpp:141] Setting up inception_4d/relu_5x5_reduce
I0403 14:39:35.587311 10946 net.cpp:148] Top shape: 24 32 14 14 (150528)
I0403 14:39:35.587329 10946 net.cpp:156] Memory required for data: 1132858656
I0403 14:39:35.587347 10946 layer_factory.hpp:77] Creating layer inception_4d/5x5
I0403 14:39:35.587368 10946 net.cpp:91] Creating Layer inception_4d/5x5
I0403 14:39:35.587386 10946 net.cpp:425] inception_4d/5x5 <- inception_4d/5x5_reduce
I0403 14:39:35.587407 10946 net.cpp:399] inception_4d/5x5 -> inception_4d/5x5
I0403 14:39:35.588927 10946 net.cpp:141] Setting up inception_4d/5x5
I0403 14:39:35.588956 10946 net.cpp:148] Top shape: 24 64 14 14 (301056)
I0403 14:39:35.588973 10946 net.cpp:156] Memory required for data: 1134062880
I0403 14:39:35.588992 10946 layer_factory.hpp:77] Creating layer inception_4d/relu_5x5
I0403 14:39:35.589026 10946 net.cpp:91] Creating Layer inception_4d/relu_5x5
I0403 14:39:35.589046 10946 net.cpp:425] inception_4d/relu_5x5 <- inception_4d/5x5
I0403 14:39:35.589067 10946 net.cpp:386] inception_4d/relu_5x5 -> inception_4d/5x5 (in-place)
I0403 14:39:35.589401 10946 net.cpp:141] Setting up inception_4d/relu_5x5
I0403 14:39:35.589429 10946 net.cpp:148] Top shape: 24 64 14 14 (301056)
I0403 14:39:35.589444 10946 net.cpp:156] Memory required for data: 1135267104
I0403 14:39:35.589473 10946 layer_factory.hpp:77] Creating layer inception_4d/pool
I0403 14:39:35.589491 10946 net.cpp:91] Creating Layer inception_4d/pool
I0403 14:39:35.589509 10946 net.cpp:425] inception_4d/pool <- inception_4c/output_inception_4c/output_0_split_3
I0403 14:39:35.589529 10946 net.cpp:399] inception_4d/pool -> inception_4d/pool
I0403 14:39:35.589599 10946 net.cpp:141] Setting up inception_4d/pool
I0403 14:39:35.589625 10946 net.cpp:148] Top shape: 24 512 14 14 (2408448)
I0403 14:39:35.589640 10946 net.cpp:156] Memory required for data: 1144900896
I0403 14:39:35.589654 10946 layer_factory.hpp:77] Creating layer inception_4d/pool_proj
I0403 14:39:35.589679 10946 net.cpp:91] Creating Layer inception_4d/pool_proj
I0403 14:39:35.589696 10946 net.cpp:425] inception_4d/pool_proj <- inception_4d/pool
I0403 14:39:35.589717 10946 net.cpp:399] inception_4d/pool_proj -> inception_4d/pool_proj
I0403 14:39:35.591581 10946 net.cpp:141] Setting up inception_4d/pool_proj
I0403 14:39:35.591611 10946 net.cpp:148] Top shape: 24 64 14 14 (301056)
I0403 14:39:35.591627 10946 net.cpp:156] Memory required for data: 1146105120
I0403 14:39:35.591645 10946 layer_factory.hpp:77] Creating layer inception_4d/relu_pool_proj
I0403 14:39:35.591666 10946 net.cpp:91] Creating Layer inception_4d/relu_pool_proj
I0403 14:39:35.591683 10946 net.cpp:425] inception_4d/relu_pool_proj <- inception_4d/pool_proj
I0403 14:39:35.591701 10946 net.cpp:386] inception_4d/relu_pool_proj -> inception_4d/pool_proj (in-place)
I0403 14:39:35.591891 10946 net.cpp:141] Setting up inception_4d/relu_pool_proj
I0403 14:39:35.591918 10946 net.cpp:148] Top shape: 24 64 14 14 (301056)
I0403 14:39:35.591935 10946 net.cpp:156] Memory required for data: 1147309344
I0403 14:39:35.591951 10946 layer_factory.hpp:77] Creating layer inception_4d/output
I0403 14:39:35.591970 10946 net.cpp:91] Creating Layer inception_4d/output
I0403 14:39:35.591986 10946 net.cpp:425] inception_4d/output <- inception_4d/1x1
I0403 14:39:35.592003 10946 net.cpp:425] inception_4d/output <- inception_4d/3x3
I0403 14:39:35.592020 10946 net.cpp:425] inception_4d/output <- inception_4d/5x5
I0403 14:39:35.592036 10946 net.cpp:425] inception_4d/output <- inception_4d/pool_proj
I0403 14:39:35.592056 10946 net.cpp:399] inception_4d/output -> inception_4d/output
I0403 14:39:35.592106 10946 net.cpp:141] Setting up inception_4d/output
I0403 14:39:35.592144 10946 net.cpp:148] Top shape: 24 528 14 14 (2483712)
I0403 14:39:35.592162 10946 net.cpp:156] Memory required for data: 1157244192
I0403 14:39:35.592178 10946 layer_factory.hpp:77] Creating layer inception_4d/output_inception_4d/output_0_split
I0403 14:39:35.592200 10946 net.cpp:91] Creating Layer inception_4d/output_inception_4d/output_0_split
I0403 14:39:35.592217 10946 net.cpp:425] inception_4d/output_inception_4d/output_0_split <- inception_4d/output
I0403 14:39:35.592236 10946 net.cpp:399] inception_4d/output_inception_4d/output_0_split -> inception_4d/output_inception_4d/output_0_split_0
I0403 14:39:35.592257 10946 net.cpp:399] inception_4d/output_inception_4d/output_0_split -> inception_4d/output_inception_4d/output_0_split_1
I0403 14:39:35.592284 10946 net.cpp:399] inception_4d/output_inception_4d/output_0_split -> inception_4d/output_inception_4d/output_0_split_2
I0403 14:39:35.592308 10946 net.cpp:399] inception_4d/output_inception_4d/output_0_split -> inception_4d/output_inception_4d/output_0_split_3
I0403 14:39:35.592329 10946 net.cpp:399] inception_4d/output_inception_4d/output_0_split -> inception_4d/output_inception_4d/output_0_split_4
I0403 14:39:35.592432 10946 net.cpp:141] Setting up inception_4d/output_inception_4d/output_0_split
I0403 14:39:35.592468 10946 net.cpp:148] Top shape: 24 528 14 14 (2483712)
I0403 14:39:35.592486 10946 net.cpp:148] Top shape: 24 528 14 14 (2483712)
I0403 14:39:35.592504 10946 net.cpp:148] Top shape: 24 528 14 14 (2483712)
I0403 14:39:35.592521 10946 net.cpp:148] Top shape: 24 528 14 14 (2483712)
I0403 14:39:35.592538 10946 net.cpp:148] Top shape: 24 528 14 14 (2483712)
I0403 14:39:35.592552 10946 net.cpp:156] Memory required for data: 1206918432
I0403 14:39:35.592568 10946 layer_factory.hpp:77] Creating layer loss2/ave_pool
I0403 14:39:35.592588 10946 net.cpp:91] Creating Layer loss2/ave_pool
I0403 14:39:35.592607 10946 net.cpp:425] loss2/ave_pool <- inception_4d/output_inception_4d/output_0_split_0
I0403 14:39:35.592625 10946 net.cpp:399] loss2/ave_pool -> loss2/ave_pool
I0403 14:39:35.592952 10946 net.cpp:141] Setting up loss2/ave_pool
I0403 14:39:35.592979 10946 net.cpp:148] Top shape: 24 528 4 4 (202752)
I0403 14:39:35.592998 10946 net.cpp:156] Memory required for data: 1207729440
I0403 14:39:35.593014 10946 layer_factory.hpp:77] Creating layer loss2/conv
I0403 14:39:35.593034 10946 net.cpp:91] Creating Layer loss2/conv
I0403 14:39:35.593051 10946 net.cpp:425] loss2/conv <- loss2/ave_pool
I0403 14:39:35.593083 10946 net.cpp:399] loss2/conv -> loss2/conv
I0403 14:39:35.595060 10946 net.cpp:141] Setting up loss2/conv
I0403 14:39:35.595091 10946 net.cpp:148] Top shape: 24 128 4 4 (49152)
I0403 14:39:35.595109 10946 net.cpp:156] Memory required for data: 1207926048
I0403 14:39:35.595134 10946 layer_factory.hpp:77] Creating layer loss2/relu_conv
I0403 14:39:35.595155 10946 net.cpp:91] Creating Layer loss2/relu_conv
I0403 14:39:35.595172 10946 net.cpp:425] loss2/relu_conv <- loss2/conv
I0403 14:39:35.595192 10946 net.cpp:386] loss2/relu_conv -> loss2/conv (in-place)
I0403 14:39:35.595476 10946 net.cpp:141] Setting up loss2/relu_conv
I0403 14:39:35.595505 10946 net.cpp:148] Top shape: 24 128 4 4 (49152)
I0403 14:39:35.595522 10946 net.cpp:156] Memory required for data: 1208122656
I0403 14:39:35.595537 10946 layer_factory.hpp:77] Creating layer loss2/fc
I0403 14:39:35.595557 10946 net.cpp:91] Creating Layer loss2/fc
I0403 14:39:35.595573 10946 net.cpp:425] loss2/fc <- loss2/conv
I0403 14:39:35.595595 10946 net.cpp:399] loss2/fc -> loss2/fc
I0403 14:39:35.613934 10946 net.cpp:141] Setting up loss2/fc
I0403 14:39:35.613991 10946 net.cpp:148] Top shape: 24 1024 (24576)
I0403 14:39:35.614008 10946 net.cpp:156] Memory required for data: 1208220960
I0403 14:39:35.614028 10946 layer_factory.hpp:77] Creating layer loss2/relu_fc
I0403 14:39:35.614051 10946 net.cpp:91] Creating Layer loss2/relu_fc
I0403 14:39:35.614070 10946 net.cpp:425] loss2/relu_fc <- loss2/fc
I0403 14:39:35.614089 10946 net.cpp:386] loss2/relu_fc -> loss2/fc (in-place)
I0403 14:39:35.614444 10946 net.cpp:141] Setting up loss2/relu_fc
I0403 14:39:35.614472 10946 net.cpp:148] Top shape: 24 1024 (24576)
I0403 14:39:35.614488 10946 net.cpp:156] Memory required for data: 1208319264
I0403 14:39:35.614506 10946 layer_factory.hpp:77] Creating layer loss2/drop_fc
I0403 14:39:35.614526 10946 net.cpp:91] Creating Layer loss2/drop_fc
I0403 14:39:35.614543 10946 net.cpp:425] loss2/drop_fc <- loss2/fc
I0403 14:39:35.614562 10946 net.cpp:386] loss2/drop_fc -> loss2/fc (in-place)
I0403 14:39:35.614616 10946 net.cpp:141] Setting up loss2/drop_fc
I0403 14:39:35.614641 10946 net.cpp:148] Top shape: 24 1024 (24576)
I0403 14:39:35.614656 10946 net.cpp:156] Memory required for data: 1208417568
I0403 14:39:35.614672 10946 layer_factory.hpp:77] Creating layer loss2/classifier_plantvillage
I0403 14:39:35.614694 10946 net.cpp:91] Creating Layer loss2/classifier_plantvillage
I0403 14:39:35.614713 10946 net.cpp:425] loss2/classifier_plantvillage <- loss2/fc
I0403 14:39:35.614732 10946 net.cpp:399] loss2/classifier_plantvillage -> loss2/classifier_plantvillage
I0403 14:39:35.615166 10946 net.cpp:141] Setting up loss2/classifier_plantvillage
I0403 14:39:35.615193 10946 net.cpp:148] Top shape: 24 38 (912)
I0403 14:39:35.615233 10946 net.cpp:156] Memory required for data: 1208421216
I0403 14:39:35.615254 10946 layer_factory.hpp:77] Creating layer loss2/classifier_plantvillage_loss2/classifier_plantvillage_0_split
I0403 14:39:35.615273 10946 net.cpp:91] Creating Layer loss2/classifier_plantvillage_loss2/classifier_plantvillage_0_split
I0403 14:39:35.615289 10946 net.cpp:425] loss2/classifier_plantvillage_loss2/classifier_plantvillage_0_split <- loss2/classifier_plantvillage
I0403 14:39:35.615311 10946 net.cpp:399] loss2/classifier_plantvillage_loss2/classifier_plantvillage_0_split -> loss2/classifier_plantvillage_loss2/classifier_plantvillage_0_split_0
I0403 14:39:35.615332 10946 net.cpp:399] loss2/classifier_plantvillage_loss2/classifier_plantvillage_0_split -> loss2/classifier_plantvillage_loss2/classifier_plantvillage_0_split_1
I0403 14:39:35.615355 10946 net.cpp:399] loss2/classifier_plantvillage_loss2/classifier_plantvillage_0_split -> loss2/classifier_plantvillage_loss2/classifier_plantvillage_0_split_2
I0403 14:39:35.615434 10946 net.cpp:141] Setting up loss2/classifier_plantvillage_loss2/classifier_plantvillage_0_split
I0403 14:39:35.615461 10946 net.cpp:148] Top shape: 24 38 (912)
I0403 14:39:35.615479 10946 net.cpp:148] Top shape: 24 38 (912)
I0403 14:39:35.615495 10946 net.cpp:148] Top shape: 24 38 (912)
I0403 14:39:35.615509 10946 net.cpp:156] Memory required for data: 1208432160
I0403 14:39:35.615525 10946 layer_factory.hpp:77] Creating layer inception_4e/1x1
I0403 14:39:35.615545 10946 net.cpp:91] Creating Layer inception_4e/1x1
I0403 14:39:35.615566 10946 net.cpp:425] inception_4e/1x1 <- inception_4d/output_inception_4d/output_0_split_1
I0403 14:39:35.615586 10946 net.cpp:399] inception_4e/1x1 -> inception_4e/1x1
I0403 14:39:35.617509 10946 net.cpp:141] Setting up inception_4e/1x1
I0403 14:39:35.617539 10946 net.cpp:148] Top shape: 24 256 14 14 (1204224)
I0403 14:39:35.617555 10946 net.cpp:156] Memory required for data: 1213249056
I0403 14:39:35.617575 10946 layer_factory.hpp:77] Creating layer inception_4e/relu_1x1
I0403 14:39:35.617594 10946 net.cpp:91] Creating Layer inception_4e/relu_1x1
I0403 14:39:35.617610 10946 net.cpp:425] inception_4e/relu_1x1 <- inception_4e/1x1
I0403 14:39:35.617630 10946 net.cpp:386] inception_4e/relu_1x1 -> inception_4e/1x1 (in-place)
I0403 14:39:35.617941 10946 net.cpp:141] Setting up inception_4e/relu_1x1
I0403 14:39:35.617969 10946 net.cpp:148] Top shape: 24 256 14 14 (1204224)
I0403 14:39:35.617983 10946 net.cpp:156] Memory required for data: 1218065952
I0403 14:39:35.618000 10946 layer_factory.hpp:77] Creating layer inception_4e/3x3_reduce
I0403 14:39:35.618022 10946 net.cpp:91] Creating Layer inception_4e/3x3_reduce
I0403 14:39:35.618041 10946 net.cpp:425] inception_4e/3x3_reduce <- inception_4d/output_inception_4d/output_0_split_2
I0403 14:39:35.618062 10946 net.cpp:399] inception_4e/3x3_reduce -> inception_4e/3x3_reduce
I0403 14:39:35.620210 10946 net.cpp:141] Setting up inception_4e/3x3_reduce
I0403 14:39:35.620242 10946 net.cpp:148] Top shape: 24 160 14 14 (752640)
I0403 14:39:35.620260 10946 net.cpp:156] Memory required for data: 1221076512
I0403 14:39:35.620278 10946 layer_factory.hpp:77] Creating layer inception_4e/relu_3x3_reduce
I0403 14:39:35.620297 10946 net.cpp:91] Creating Layer inception_4e/relu_3x3_reduce
I0403 14:39:35.620313 10946 net.cpp:425] inception_4e/relu_3x3_reduce <- inception_4e/3x3_reduce
I0403 14:39:35.620333 10946 net.cpp:386] inception_4e/relu_3x3_reduce -> inception_4e/3x3_reduce (in-place)
I0403 14:39:35.620517 10946 net.cpp:141] Setting up inception_4e/relu_3x3_reduce
I0403 14:39:35.620543 10946 net.cpp:148] Top shape: 24 160 14 14 (752640)
I0403 14:39:35.620558 10946 net.cpp:156] Memory required for data: 1224087072
I0403 14:39:35.620573 10946 layer_factory.hpp:77] Creating layer inception_4e/3x3
I0403 14:39:35.620596 10946 net.cpp:91] Creating Layer inception_4e/3x3
I0403 14:39:35.620615 10946 net.cpp:425] inception_4e/3x3 <- inception_4e/3x3_reduce
I0403 14:39:35.620637 10946 net.cpp:399] inception_4e/3x3 -> inception_4e/3x3
I0403 14:39:35.625869 10946 net.cpp:141] Setting up inception_4e/3x3
I0403 14:39:35.625911 10946 net.cpp:148] Top shape: 24 320 14 14 (1505280)
I0403 14:39:35.625931 10946 net.cpp:156] Memory required for data: 1230108192
I0403 14:39:35.625951 10946 layer_factory.hpp:77] Creating layer inception_4e/relu_3x3
I0403 14:39:35.625972 10946 net.cpp:91] Creating Layer inception_4e/relu_3x3
I0403 14:39:35.625989 10946 net.cpp:425] inception_4e/relu_3x3 <- inception_4e/3x3
I0403 14:39:35.626008 10946 net.cpp:386] inception_4e/relu_3x3 -> inception_4e/3x3 (in-place)
I0403 14:39:35.626325 10946 net.cpp:141] Setting up inception_4e/relu_3x3
I0403 14:39:35.626353 10946 net.cpp:148] Top shape: 24 320 14 14 (1505280)
I0403 14:39:35.626369 10946 net.cpp:156] Memory required for data: 1236129312
I0403 14:39:35.626386 10946 layer_factory.hpp:77] Creating layer inception_4e/5x5_reduce
I0403 14:39:35.626411 10946 net.cpp:91] Creating Layer inception_4e/5x5_reduce
I0403 14:39:35.626430 10946 net.cpp:425] inception_4e/5x5_reduce <- inception_4d/output_inception_4d/output_0_split_3
I0403 14:39:35.626454 10946 net.cpp:399] inception_4e/5x5_reduce -> inception_4e/5x5_reduce
I0403 14:39:35.627560 10946 net.cpp:141] Setting up inception_4e/5x5_reduce
I0403 14:39:35.627590 10946 net.cpp:148] Top shape: 24 32 14 14 (150528)
I0403 14:39:35.627605 10946 net.cpp:156] Memory required for data: 1236731424
I0403 14:39:35.627624 10946 layer_factory.hpp:77] Creating layer inception_4e/relu_5x5_reduce
I0403 14:39:35.627642 10946 net.cpp:91] Creating Layer inception_4e/relu_5x5_reduce
I0403 14:39:35.627660 10946 net.cpp:425] inception_4e/relu_5x5_reduce <- inception_4e/5x5_reduce
I0403 14:39:35.627681 10946 net.cpp:386] inception_4e/relu_5x5_reduce -> inception_4e/5x5_reduce (in-place)
I0403 14:39:35.627990 10946 net.cpp:141] Setting up inception_4e/relu_5x5_reduce
I0403 14:39:35.628017 10946 net.cpp:148] Top shape: 24 32 14 14 (150528)
I0403 14:39:35.628034 10946 net.cpp:156] Memory required for data: 1237333536
I0403 14:39:35.628049 10946 layer_factory.hpp:77] Creating layer inception_4e/5x5
I0403 14:39:35.628090 10946 net.cpp:91] Creating Layer inception_4e/5x5
I0403 14:39:35.628111 10946 net.cpp:425] inception_4e/5x5 <- inception_4e/5x5_reduce
I0403 14:39:35.628139 10946 net.cpp:399] inception_4e/5x5 -> inception_4e/5x5
I0403 14:39:35.630075 10946 net.cpp:141] Setting up inception_4e/5x5
I0403 14:39:35.630107 10946 net.cpp:148] Top shape: 24 128 14 14 (602112)
I0403 14:39:35.630131 10946 net.cpp:156] Memory required for data: 1239741984
I0403 14:39:35.630154 10946 layer_factory.hpp:77] Creating layer inception_4e/relu_5x5
I0403 14:39:35.630174 10946 net.cpp:91] Creating Layer inception_4e/relu_5x5
I0403 14:39:35.630190 10946 net.cpp:425] inception_4e/relu_5x5 <- inception_4e/5x5
I0403 14:39:35.630208 10946 net.cpp:386] inception_4e/relu_5x5 -> inception_4e/5x5 (in-place)
I0403 14:39:35.630412 10946 net.cpp:141] Setting up inception_4e/relu_5x5
I0403 14:39:35.630439 10946 net.cpp:148] Top shape: 24 128 14 14 (602112)
I0403 14:39:35.630453 10946 net.cpp:156] Memory required for data: 1242150432
I0403 14:39:35.630470 10946 layer_factory.hpp:77] Creating layer inception_4e/pool
I0403 14:39:35.630488 10946 net.cpp:91] Creating Layer inception_4e/pool
I0403 14:39:35.630506 10946 net.cpp:425] inception_4e/pool <- inception_4d/output_inception_4d/output_0_split_4
I0403 14:39:35.630527 10946 net.cpp:399] inception_4e/pool -> inception_4e/pool
I0403 14:39:35.630599 10946 net.cpp:141] Setting up inception_4e/pool
I0403 14:39:35.630627 10946 net.cpp:148] Top shape: 24 528 14 14 (2483712)
I0403 14:39:35.630642 10946 net.cpp:156] Memory required for data: 1252085280
I0403 14:39:35.630657 10946 layer_factory.hpp:77] Creating layer inception_4e/pool_proj
I0403 14:39:35.630681 10946 net.cpp:91] Creating Layer inception_4e/pool_proj
I0403 14:39:35.630698 10946 net.cpp:425] inception_4e/pool_proj <- inception_4e/pool
I0403 14:39:35.630717 10946 net.cpp:399] inception_4e/pool_proj -> inception_4e/pool_proj
I0403 14:39:35.632315 10946 net.cpp:141] Setting up inception_4e/pool_proj
I0403 14:39:35.632357 10946 net.cpp:148] Top shape: 24 128 14 14 (602112)
I0403 14:39:35.632377 10946 net.cpp:156] Memory required for data: 1254493728
I0403 14:39:35.632397 10946 layer_factory.hpp:77] Creating layer inception_4e/relu_pool_proj
I0403 14:39:35.632416 10946 net.cpp:91] Creating Layer inception_4e/relu_pool_proj
I0403 14:39:35.632432 10946 net.cpp:425] inception_4e/relu_pool_proj <- inception_4e/pool_proj
I0403 14:39:35.632450 10946 net.cpp:386] inception_4e/relu_pool_proj -> inception_4e/pool_proj (in-place)
I0403 14:39:35.632755 10946 net.cpp:141] Setting up inception_4e/relu_pool_proj
I0403 14:39:35.632781 10946 net.cpp:148] Top shape: 24 128 14 14 (602112)
I0403 14:39:35.632802 10946 net.cpp:156] Memory required for data: 1256902176
I0403 14:39:35.632817 10946 layer_factory.hpp:77] Creating layer inception_4e/output
I0403 14:39:35.632836 10946 net.cpp:91] Creating Layer inception_4e/output
I0403 14:39:35.632853 10946 net.cpp:425] inception_4e/output <- inception_4e/1x1
I0403 14:39:35.632869 10946 net.cpp:425] inception_4e/output <- inception_4e/3x3
I0403 14:39:35.632886 10946 net.cpp:425] inception_4e/output <- inception_4e/5x5
I0403 14:39:35.632902 10946 net.cpp:425] inception_4e/output <- inception_4e/pool_proj
I0403 14:39:35.632920 10946 net.cpp:399] inception_4e/output -> inception_4e/output
I0403 14:39:35.632977 10946 net.cpp:141] Setting up inception_4e/output
I0403 14:39:35.633002 10946 net.cpp:148] Top shape: 24 832 14 14 (3913728)
I0403 14:39:35.633018 10946 net.cpp:156] Memory required for data: 1272557088
I0403 14:39:35.633033 10946 layer_factory.hpp:77] Creating layer pool4/3x3_s2
I0403 14:39:35.633052 10946 net.cpp:91] Creating Layer pool4/3x3_s2
I0403 14:39:35.633070 10946 net.cpp:425] pool4/3x3_s2 <- inception_4e/output
I0403 14:39:35.633090 10946 net.cpp:399] pool4/3x3_s2 -> pool4/3x3_s2
I0403 14:39:35.633180 10946 net.cpp:141] Setting up pool4/3x3_s2
I0403 14:39:35.633208 10946 net.cpp:148] Top shape: 24 832 7 7 (978432)
I0403 14:39:35.633224 10946 net.cpp:156] Memory required for data: 1276470816
I0403 14:39:35.633239 10946 layer_factory.hpp:77] Creating layer pool4/3x3_s2_pool4/3x3_s2_0_split
I0403 14:39:35.633257 10946 net.cpp:91] Creating Layer pool4/3x3_s2_pool4/3x3_s2_0_split
I0403 14:39:35.633273 10946 net.cpp:425] pool4/3x3_s2_pool4/3x3_s2_0_split <- pool4/3x3_s2
I0403 14:39:35.633294 10946 net.cpp:399] pool4/3x3_s2_pool4/3x3_s2_0_split -> pool4/3x3_s2_pool4/3x3_s2_0_split_0
I0403 14:39:35.633317 10946 net.cpp:399] pool4/3x3_s2_pool4/3x3_s2_0_split -> pool4/3x3_s2_pool4/3x3_s2_0_split_1
I0403 14:39:35.633338 10946 net.cpp:399] pool4/3x3_s2_pool4/3x3_s2_0_split -> pool4/3x3_s2_pool4/3x3_s2_0_split_2
I0403 14:39:35.633359 10946 net.cpp:399] pool4/3x3_s2_pool4/3x3_s2_0_split -> pool4/3x3_s2_pool4/3x3_s2_0_split_3
I0403 14:39:35.633455 10946 net.cpp:141] Setting up pool4/3x3_s2_pool4/3x3_s2_0_split
I0403 14:39:35.633491 10946 net.cpp:148] Top shape: 24 832 7 7 (978432)
I0403 14:39:35.633509 10946 net.cpp:148] Top shape: 24 832 7 7 (978432)
I0403 14:39:35.633527 10946 net.cpp:148] Top shape: 24 832 7 7 (978432)
I0403 14:39:35.633543 10946 net.cpp:148] Top shape: 24 832 7 7 (978432)
I0403 14:39:35.633556 10946 net.cpp:156] Memory required for data: 1292125728
I0403 14:39:35.633572 10946 layer_factory.hpp:77] Creating layer inception_5a/1x1
I0403 14:39:35.633596 10946 net.cpp:91] Creating Layer inception_5a/1x1
I0403 14:39:35.633615 10946 net.cpp:425] inception_5a/1x1 <- pool4/3x3_s2_pool4/3x3_s2_0_split_0
I0403 14:39:35.633635 10946 net.cpp:399] inception_5a/1x1 -> inception_5a/1x1
I0403 14:39:35.636592 10946 net.cpp:141] Setting up inception_5a/1x1
I0403 14:39:35.636625 10946 net.cpp:148] Top shape: 24 256 7 7 (301056)
I0403 14:39:35.636642 10946 net.cpp:156] Memory required for data: 1293329952
I0403 14:39:35.636661 10946 layer_factory.hpp:77] Creating layer inception_5a/relu_1x1
I0403 14:39:35.636679 10946 net.cpp:91] Creating Layer inception_5a/relu_1x1
I0403 14:39:35.636698 10946 net.cpp:425] inception_5a/relu_1x1 <- inception_5a/1x1
I0403 14:39:35.636718 10946 net.cpp:386] inception_5a/relu_1x1 -> inception_5a/1x1 (in-place)
I0403 14:39:35.637037 10946 net.cpp:141] Setting up inception_5a/relu_1x1
I0403 14:39:35.637068 10946 net.cpp:148] Top shape: 24 256 7 7 (301056)
I0403 14:39:35.637084 10946 net.cpp:156] Memory required for data: 1294534176
I0403 14:39:35.637099 10946 layer_factory.hpp:77] Creating layer inception_5a/3x3_reduce
I0403 14:39:35.637122 10946 net.cpp:91] Creating Layer inception_5a/3x3_reduce
I0403 14:39:35.637150 10946 net.cpp:425] inception_5a/3x3_reduce <- pool4/3x3_s2_pool4/3x3_s2_0_split_1
I0403 14:39:35.637182 10946 net.cpp:399] inception_5a/3x3_reduce -> inception_5a/3x3_reduce
I0403 14:39:35.639739 10946 net.cpp:141] Setting up inception_5a/3x3_reduce
I0403 14:39:35.639771 10946 net.cpp:148] Top shape: 24 160 7 7 (188160)
I0403 14:39:35.639787 10946 net.cpp:156] Memory required for data: 1295286816
I0403 14:39:35.639806 10946 layer_factory.hpp:77] Creating layer inception_5a/relu_3x3_reduce
I0403 14:39:35.639827 10946 net.cpp:91] Creating Layer inception_5a/relu_3x3_reduce
I0403 14:39:35.639844 10946 net.cpp:425] inception_5a/relu_3x3_reduce <- inception_5a/3x3_reduce
I0403 14:39:35.639863 10946 net.cpp:386] inception_5a/relu_3x3_reduce -> inception_5a/3x3_reduce (in-place)
I0403 14:39:35.640058 10946 net.cpp:141] Setting up inception_5a/relu_3x3_reduce
I0403 14:39:35.640086 10946 net.cpp:148] Top shape: 24 160 7 7 (188160)
I0403 14:39:35.640102 10946 net.cpp:156] Memory required for data: 1296039456
I0403 14:39:35.640118 10946 layer_factory.hpp:77] Creating layer inception_5a/3x3
I0403 14:39:35.640149 10946 net.cpp:91] Creating Layer inception_5a/3x3
I0403 14:39:35.640168 10946 net.cpp:425] inception_5a/3x3 <- inception_5a/3x3_reduce
I0403 14:39:35.640188 10946 net.cpp:399] inception_5a/3x3 -> inception_5a/3x3
I0403 14:39:35.645529 10946 net.cpp:141] Setting up inception_5a/3x3
I0403 14:39:35.645563 10946 net.cpp:148] Top shape: 24 320 7 7 (376320)
I0403 14:39:35.645581 10946 net.cpp:156] Memory required for data: 1297544736
I0403 14:39:35.645601 10946 layer_factory.hpp:77] Creating layer inception_5a/relu_3x3
I0403 14:39:35.645620 10946 net.cpp:91] Creating Layer inception_5a/relu_3x3
I0403 14:39:35.645637 10946 net.cpp:425] inception_5a/relu_3x3 <- inception_5a/3x3
I0403 14:39:35.645655 10946 net.cpp:386] inception_5a/relu_3x3 -> inception_5a/3x3 (in-place)
I0403 14:39:35.645957 10946 net.cpp:141] Setting up inception_5a/relu_3x3
I0403 14:39:35.645988 10946 net.cpp:148] Top shape: 24 320 7 7 (376320)
I0403 14:39:35.646005 10946 net.cpp:156] Memory required for data: 1299050016
I0403 14:39:35.646021 10946 layer_factory.hpp:77] Creating layer inception_5a/5x5_reduce
I0403 14:39:35.646044 10946 net.cpp:91] Creating Layer inception_5a/5x5_reduce
I0403 14:39:35.646062 10946 net.cpp:425] inception_5a/5x5_reduce <- pool4/3x3_s2_pool4/3x3_s2_0_split_2
I0403 14:39:35.646083 10946 net.cpp:399] inception_5a/5x5_reduce -> inception_5a/5x5_reduce
I0403 14:39:35.647305 10946 net.cpp:141] Setting up inception_5a/5x5_reduce
I0403 14:39:35.647337 10946 net.cpp:148] Top shape: 24 32 7 7 (37632)
I0403 14:39:35.647356 10946 net.cpp:156] Memory required for data: 1299200544
I0403 14:39:35.647374 10946 layer_factory.hpp:77] Creating layer inception_5a/relu_5x5_reduce
I0403 14:39:35.647393 10946 net.cpp:91] Creating Layer inception_5a/relu_5x5_reduce
I0403 14:39:35.647410 10946 net.cpp:425] inception_5a/relu_5x5_reduce <- inception_5a/5x5_reduce
I0403 14:39:35.647430 10946 net.cpp:386] inception_5a/relu_5x5_reduce -> inception_5a/5x5_reduce (in-place)
I0403 14:39:35.647739 10946 net.cpp:141] Setting up inception_5a/relu_5x5_reduce
I0403 14:39:35.647768 10946 net.cpp:148] Top shape: 24 32 7 7 (37632)
I0403 14:39:35.647783 10946 net.cpp:156] Memory required for data: 1299351072
I0403 14:39:35.647799 10946 layer_factory.hpp:77] Creating layer inception_5a/5x5
I0403 14:39:35.647821 10946 net.cpp:91] Creating Layer inception_5a/5x5
I0403 14:39:35.647840 10946 net.cpp:425] inception_5a/5x5 <- inception_5a/5x5_reduce
I0403 14:39:35.647861 10946 net.cpp:399] inception_5a/5x5 -> inception_5a/5x5
I0403 14:39:35.649721 10946 net.cpp:141] Setting up inception_5a/5x5
I0403 14:39:35.649766 10946 net.cpp:148] Top shape: 24 128 7 7 (150528)
I0403 14:39:35.649785 10946 net.cpp:156] Memory required for data: 1299953184
I0403 14:39:35.649803 10946 layer_factory.hpp:77] Creating layer inception_5a/relu_5x5
I0403 14:39:35.649821 10946 net.cpp:91] Creating Layer inception_5a/relu_5x5
I0403 14:39:35.649838 10946 net.cpp:425] inception_5a/relu_5x5 <- inception_5a/5x5
I0403 14:39:35.649857 10946 net.cpp:386] inception_5a/relu_5x5 -> inception_5a/5x5 (in-place)
I0403 14:39:35.650058 10946 net.cpp:141] Setting up inception_5a/relu_5x5
I0403 14:39:35.650082 10946 net.cpp:148] Top shape: 24 128 7 7 (150528)
I0403 14:39:35.650099 10946 net.cpp:156] Memory required for data: 1300555296
I0403 14:39:35.650113 10946 layer_factory.hpp:77] Creating layer inception_5a/pool
I0403 14:39:35.650140 10946 net.cpp:91] Creating Layer inception_5a/pool
I0403 14:39:35.650158 10946 net.cpp:425] inception_5a/pool <- pool4/3x3_s2_pool4/3x3_s2_0_split_3
I0403 14:39:35.650180 10946 net.cpp:399] inception_5a/pool -> inception_5a/pool
I0403 14:39:35.650254 10946 net.cpp:141] Setting up inception_5a/pool
I0403 14:39:35.650282 10946 net.cpp:148] Top shape: 24 832 7 7 (978432)
I0403 14:39:35.650297 10946 net.cpp:156] Memory required for data: 1304469024
I0403 14:39:35.650313 10946 layer_factory.hpp:77] Creating layer inception_5a/pool_proj
I0403 14:39:35.650336 10946 net.cpp:91] Creating Layer inception_5a/pool_proj
I0403 14:39:35.650354 10946 net.cpp:425] inception_5a/pool_proj <- inception_5a/pool
I0403 14:39:35.650373 10946 net.cpp:399] inception_5a/pool_proj -> inception_5a/pool_proj
I0403 14:39:35.652742 10946 net.cpp:141] Setting up inception_5a/pool_proj
I0403 14:39:35.652772 10946 net.cpp:148] Top shape: 24 128 7 7 (150528)
I0403 14:39:35.652788 10946 net.cpp:156] Memory required for data: 1305071136
I0403 14:39:35.652807 10946 layer_factory.hpp:77] Creating layer inception_5a/relu_pool_proj
I0403 14:39:35.652828 10946 net.cpp:91] Creating Layer inception_5a/relu_pool_proj
I0403 14:39:35.652845 10946 net.cpp:425] inception_5a/relu_pool_proj <- inception_5a/pool_proj
I0403 14:39:35.652864 10946 net.cpp:386] inception_5a/relu_pool_proj -> inception_5a/pool_proj (in-place)
I0403 14:39:35.653190 10946 net.cpp:141] Setting up inception_5a/relu_pool_proj
I0403 14:39:35.653218 10946 net.cpp:148] Top shape: 24 128 7 7 (150528)
I0403 14:39:35.653234 10946 net.cpp:156] Memory required for data: 1305673248
I0403 14:39:35.653249 10946 layer_factory.hpp:77] Creating layer inception_5a/output
I0403 14:39:35.653270 10946 net.cpp:91] Creating Layer inception_5a/output
I0403 14:39:35.653288 10946 net.cpp:425] inception_5a/output <- inception_5a/1x1
I0403 14:39:35.653307 10946 net.cpp:425] inception_5a/output <- inception_5a/3x3
I0403 14:39:35.653326 10946 net.cpp:425] inception_5a/output <- inception_5a/5x5
I0403 14:39:35.653342 10946 net.cpp:425] inception_5a/output <- inception_5a/pool_proj
I0403 14:39:35.653362 10946 net.cpp:399] inception_5a/output -> inception_5a/output
I0403 14:39:35.653416 10946 net.cpp:141] Setting up inception_5a/output
I0403 14:39:35.653441 10946 net.cpp:148] Top shape: 24 832 7 7 (978432)
I0403 14:39:35.653468 10946 net.cpp:156] Memory required for data: 1309586976
I0403 14:39:35.653483 10946 layer_factory.hpp:77] Creating layer inception_5a/output_inception_5a/output_0_split
I0403 14:39:35.653502 10946 net.cpp:91] Creating Layer inception_5a/output_inception_5a/output_0_split
I0403 14:39:35.653532 10946 net.cpp:425] inception_5a/output_inception_5a/output_0_split <- inception_5a/output
I0403 14:39:35.653553 10946 net.cpp:399] inception_5a/output_inception_5a/output_0_split -> inception_5a/output_inception_5a/output_0_split_0
I0403 14:39:35.653575 10946 net.cpp:399] inception_5a/output_inception_5a/output_0_split -> inception_5a/output_inception_5a/output_0_split_1
I0403 14:39:35.653599 10946 net.cpp:399] inception_5a/output_inception_5a/output_0_split -> inception_5a/output_inception_5a/output_0_split_2
I0403 14:39:35.653621 10946 net.cpp:399] inception_5a/output_inception_5a/output_0_split -> inception_5a/output_inception_5a/output_0_split_3
I0403 14:39:35.653743 10946 net.cpp:141] Setting up inception_5a/output_inception_5a/output_0_split
I0403 14:39:35.653771 10946 net.cpp:148] Top shape: 24 832 7 7 (978432)
I0403 14:39:35.653791 10946 net.cpp:148] Top shape: 24 832 7 7 (978432)
I0403 14:39:35.653808 10946 net.cpp:148] Top shape: 24 832 7 7 (978432)
I0403 14:39:35.653826 10946 net.cpp:148] Top shape: 24 832 7 7 (978432)
I0403 14:39:35.653841 10946 net.cpp:156] Memory required for data: 1325241888
I0403 14:39:35.653856 10946 layer_factory.hpp:77] Creating layer inception_5b/1x1
I0403 14:39:35.653879 10946 net.cpp:91] Creating Layer inception_5b/1x1
I0403 14:39:35.653898 10946 net.cpp:425] inception_5b/1x1 <- inception_5a/output_inception_5a/output_0_split_0
I0403 14:39:35.653920 10946 net.cpp:399] inception_5b/1x1 -> inception_5b/1x1
I0403 14:39:35.657908 10946 net.cpp:141] Setting up inception_5b/1x1
I0403 14:39:35.657939 10946 net.cpp:148] Top shape: 24 384 7 7 (451584)
I0403 14:39:35.657955 10946 net.cpp:156] Memory required for data: 1327048224
I0403 14:39:35.657974 10946 layer_factory.hpp:77] Creating layer inception_5b/relu_1x1
I0403 14:39:35.657995 10946 net.cpp:91] Creating Layer inception_5b/relu_1x1
I0403 14:39:35.658013 10946 net.cpp:425] inception_5b/relu_1x1 <- inception_5b/1x1
I0403 14:39:35.658032 10946 net.cpp:386] inception_5b/relu_1x1 -> inception_5b/1x1 (in-place)
I0403 14:39:35.658361 10946 net.cpp:141] Setting up inception_5b/relu_1x1
I0403 14:39:35.658388 10946 net.cpp:148] Top shape: 24 384 7 7 (451584)
I0403 14:39:35.658404 10946 net.cpp:156] Memory required for data: 1328854560
I0403 14:39:35.658419 10946 layer_factory.hpp:77] Creating layer inception_5b/3x3_reduce
I0403 14:39:35.658445 10946 net.cpp:91] Creating Layer inception_5b/3x3_reduce
I0403 14:39:35.658464 10946 net.cpp:425] inception_5b/3x3_reduce <- inception_5a/output_inception_5a/output_0_split_1
I0403 14:39:35.658488 10946 net.cpp:399] inception_5b/3x3_reduce -> inception_5b/3x3_reduce
I0403 14:39:35.661269 10946 net.cpp:141] Setting up inception_5b/3x3_reduce
I0403 14:39:35.661300 10946 net.cpp:148] Top shape: 24 192 7 7 (225792)
I0403 14:39:35.661317 10946 net.cpp:156] Memory required for data: 1329757728
I0403 14:39:35.661337 10946 layer_factory.hpp:77] Creating layer inception_5b/relu_3x3_reduce
I0403 14:39:35.661360 10946 net.cpp:91] Creating Layer inception_5b/relu_3x3_reduce
I0403 14:39:35.661378 10946 net.cpp:425] inception_5b/relu_3x3_reduce <- inception_5b/3x3_reduce
I0403 14:39:35.661396 10946 net.cpp:386] inception_5b/relu_3x3_reduce -> inception_5b/3x3_reduce (in-place)
I0403 14:39:35.661610 10946 net.cpp:141] Setting up inception_5b/relu_3x3_reduce
I0403 14:39:35.661640 10946 net.cpp:148] Top shape: 24 192 7 7 (225792)
I0403 14:39:35.661656 10946 net.cpp:156] Memory required for data: 1330660896
I0403 14:39:35.661672 10946 layer_factory.hpp:77] Creating layer inception_5b/3x3
I0403 14:39:35.661696 10946 net.cpp:91] Creating Layer inception_5b/3x3
I0403 14:39:35.661715 10946 net.cpp:425] inception_5b/3x3 <- inception_5b/3x3_reduce
I0403 14:39:35.661737 10946 net.cpp:399] inception_5b/3x3 -> inception_5b/3x3
I0403 14:39:35.668726 10946 net.cpp:141] Setting up inception_5b/3x3
I0403 14:39:35.668757 10946 net.cpp:148] Top shape: 24 384 7 7 (451584)
I0403 14:39:35.668774 10946 net.cpp:156] Memory required for data: 1332467232
I0403 14:39:35.668793 10946 layer_factory.hpp:77] Creating layer inception_5b/relu_3x3
I0403 14:39:35.668815 10946 net.cpp:91] Creating Layer inception_5b/relu_3x3
I0403 14:39:35.668833 10946 net.cpp:425] inception_5b/relu_3x3 <- inception_5b/3x3
I0403 14:39:35.668853 10946 net.cpp:386] inception_5b/relu_3x3 -> inception_5b/3x3 (in-place)
I0403 14:39:35.669183 10946 net.cpp:141] Setting up inception_5b/relu_3x3
I0403 14:39:35.669212 10946 net.cpp:148] Top shape: 24 384 7 7 (451584)
I0403 14:39:35.669229 10946 net.cpp:156] Memory required for data: 1334273568
I0403 14:39:35.669245 10946 layer_factory.hpp:77] Creating layer inception_5b/5x5_reduce
I0403 14:39:35.669288 10946 net.cpp:91] Creating Layer inception_5b/5x5_reduce
I0403 14:39:35.669311 10946 net.cpp:425] inception_5b/5x5_reduce <- inception_5a/output_inception_5a/output_0_split_2
I0403 14:39:35.669330 10946 net.cpp:399] inception_5b/5x5_reduce -> inception_5b/5x5_reduce
I0403 14:39:35.670668 10946 net.cpp:141] Setting up inception_5b/5x5_reduce
I0403 14:39:35.670698 10946 net.cpp:148] Top shape: 24 48 7 7 (56448)
I0403 14:39:35.670718 10946 net.cpp:156] Memory required for data: 1334499360
I0403 14:39:35.670737 10946 layer_factory.hpp:77] Creating layer inception_5b/relu_5x5_reduce
I0403 14:39:35.670756 10946 net.cpp:91] Creating Layer inception_5b/relu_5x5_reduce
I0403 14:39:35.670773 10946 net.cpp:425] inception_5b/relu_5x5_reduce <- inception_5b/5x5_reduce
I0403 14:39:35.670791 10946 net.cpp:386] inception_5b/relu_5x5_reduce -> inception_5b/5x5_reduce (in-place)
I0403 14:39:35.671190 10946 net.cpp:141] Setting up inception_5b/relu_5x5_reduce
I0403 14:39:35.671218 10946 net.cpp:148] Top shape: 24 48 7 7 (56448)
I0403 14:39:35.671234 10946 net.cpp:156] Memory required for data: 1334725152
I0403 14:39:35.671252 10946 layer_factory.hpp:77] Creating layer inception_5b/5x5
I0403 14:39:35.671272 10946 net.cpp:91] Creating Layer inception_5b/5x5
I0403 14:39:35.671289 10946 net.cpp:425] inception_5b/5x5 <- inception_5b/5x5_reduce
I0403 14:39:35.671310 10946 net.cpp:399] inception_5b/5x5 -> inception_5b/5x5
I0403 14:39:35.673508 10946 net.cpp:141] Setting up inception_5b/5x5
I0403 14:39:35.673540 10946 net.cpp:148] Top shape: 24 128 7 7 (150528)
I0403 14:39:35.673557 10946 net.cpp:156] Memory required for data: 1335327264
I0403 14:39:35.673576 10946 layer_factory.hpp:77] Creating layer inception_5b/relu_5x5
I0403 14:39:35.673595 10946 net.cpp:91] Creating Layer inception_5b/relu_5x5
I0403 14:39:35.673612 10946 net.cpp:425] inception_5b/relu_5x5 <- inception_5b/5x5
I0403 14:39:35.673634 10946 net.cpp:386] inception_5b/relu_5x5 -> inception_5b/5x5 (in-place)
I0403 14:39:35.673835 10946 net.cpp:141] Setting up inception_5b/relu_5x5
I0403 14:39:35.673861 10946 net.cpp:148] Top shape: 24 128 7 7 (150528)
I0403 14:39:35.673877 10946 net.cpp:156] Memory required for data: 1335929376
I0403 14:39:35.673892 10946 layer_factory.hpp:77] Creating layer inception_5b/pool
I0403 14:39:35.673910 10946 net.cpp:91] Creating Layer inception_5b/pool
I0403 14:39:35.673928 10946 net.cpp:425] inception_5b/pool <- inception_5a/output_inception_5a/output_0_split_3
I0403 14:39:35.673949 10946 net.cpp:399] inception_5b/pool -> inception_5b/pool
I0403 14:39:35.674026 10946 net.cpp:141] Setting up inception_5b/pool
I0403 14:39:35.674052 10946 net.cpp:148] Top shape: 24 832 7 7 (978432)
I0403 14:39:35.674065 10946 net.cpp:156] Memory required for data: 1339843104
I0403 14:39:35.674080 10946 layer_factory.hpp:77] Creating layer inception_5b/pool_proj
I0403 14:39:35.674105 10946 net.cpp:91] Creating Layer inception_5b/pool_proj
I0403 14:39:35.674124 10946 net.cpp:425] inception_5b/pool_proj <- inception_5b/pool
I0403 14:39:35.674151 10946 net.cpp:399] inception_5b/pool_proj -> inception_5b/pool_proj
I0403 14:39:35.676573 10946 net.cpp:141] Setting up inception_5b/pool_proj
I0403 14:39:35.676609 10946 net.cpp:148] Top shape: 24 128 7 7 (150528)
I0403 14:39:35.676626 10946 net.cpp:156] Memory required for data: 1340445216
I0403 14:39:35.676647 10946 layer_factory.hpp:77] Creating layer inception_5b/relu_pool_proj
I0403 14:39:35.676666 10946 net.cpp:91] Creating Layer inception_5b/relu_pool_proj
I0403 14:39:35.676682 10946 net.cpp:425] inception_5b/relu_pool_proj <- inception_5b/pool_proj
I0403 14:39:35.676702 10946 net.cpp:386] inception_5b/relu_pool_proj -> inception_5b/pool_proj (in-place)
I0403 14:39:35.677012 10946 net.cpp:141] Setting up inception_5b/relu_pool_proj
I0403 14:39:35.677042 10946 net.cpp:148] Top shape: 24 128 7 7 (150528)
I0403 14:39:35.677058 10946 net.cpp:156] Memory required for data: 1341047328
I0403 14:39:35.677074 10946 layer_factory.hpp:77] Creating layer inception_5b/output
I0403 14:39:35.677093 10946 net.cpp:91] Creating Layer inception_5b/output
I0403 14:39:35.677132 10946 net.cpp:425] inception_5b/output <- inception_5b/1x1
I0403 14:39:35.677153 10946 net.cpp:425] inception_5b/output <- inception_5b/3x3
I0403 14:39:35.677183 10946 net.cpp:425] inception_5b/output <- inception_5b/5x5
I0403 14:39:35.677201 10946 net.cpp:425] inception_5b/output <- inception_5b/pool_proj
I0403 14:39:35.677219 10946 net.cpp:399] inception_5b/output -> inception_5b/output
I0403 14:39:35.677276 10946 net.cpp:141] Setting up inception_5b/output
I0403 14:39:35.677302 10946 net.cpp:148] Top shape: 24 1024 7 7 (1204224)
I0403 14:39:35.677319 10946 net.cpp:156] Memory required for data: 1345864224
I0403 14:39:35.677335 10946 layer_factory.hpp:77] Creating layer pool5/7x7_s1
I0403 14:39:35.677356 10946 net.cpp:91] Creating Layer pool5/7x7_s1
I0403 14:39:35.677373 10946 net.cpp:425] pool5/7x7_s1 <- inception_5b/output
I0403 14:39:35.677393 10946 net.cpp:399] pool5/7x7_s1 -> pool5/7x7_s1
I0403 14:39:35.677630 10946 net.cpp:141] Setting up pool5/7x7_s1
I0403 14:39:35.677659 10946 net.cpp:148] Top shape: 24 1024 1 1 (24576)
I0403 14:39:35.677676 10946 net.cpp:156] Memory required for data: 1345962528
I0403 14:39:35.677691 10946 layer_factory.hpp:77] Creating layer pool5/drop_7x7_s1
I0403 14:39:35.677711 10946 net.cpp:91] Creating Layer pool5/drop_7x7_s1
I0403 14:39:35.677726 10946 net.cpp:425] pool5/drop_7x7_s1 <- pool5/7x7_s1
I0403 14:39:35.677743 10946 net.cpp:386] pool5/drop_7x7_s1 -> pool5/7x7_s1 (in-place)
I0403 14:39:35.677796 10946 net.cpp:141] Setting up pool5/drop_7x7_s1
I0403 14:39:35.677821 10946 net.cpp:148] Top shape: 24 1024 1 1 (24576)
I0403 14:39:35.677836 10946 net.cpp:156] Memory required for data: 1346060832
I0403 14:39:35.677851 10946 layer_factory.hpp:77] Creating layer loss3/classifier_plantvillage
I0403 14:39:35.677872 10946 net.cpp:91] Creating Layer loss3/classifier_plantvillage
I0403 14:39:35.677889 10946 net.cpp:425] loss3/classifier_plantvillage <- pool5/7x7_s1
I0403 14:39:35.677908 10946 net.cpp:399] loss3/classifier_plantvillage -> loss3/classifier_plantvillage
I0403 14:39:35.678359 10946 net.cpp:141] Setting up loss3/classifier_plantvillage
I0403 14:39:35.678385 10946 net.cpp:148] Top shape: 24 38 (912)
I0403 14:39:35.678400 10946 net.cpp:156] Memory required for data: 1346064480
I0403 14:39:35.678418 10946 layer_factory.hpp:77] Creating layer loss3/classifier_plantvillage_loss3/classifier_plantvillage_0_split
I0403 14:39:35.678437 10946 net.cpp:91] Creating Layer loss3/classifier_plantvillage_loss3/classifier_plantvillage_0_split
I0403 14:39:35.678453 10946 net.cpp:425] loss3/classifier_plantvillage_loss3/classifier_plantvillage_0_split <- loss3/classifier_plantvillage
I0403 14:39:35.678475 10946 net.cpp:399] loss3/classifier_plantvillage_loss3/classifier_plantvillage_0_split -> loss3/classifier_plantvillage_loss3/classifier_plantvillage_0_split_0
I0403 14:39:35.678498 10946 net.cpp:399] loss3/classifier_plantvillage_loss3/classifier_plantvillage_0_split -> loss3/classifier_plantvillage_loss3/classifier_plantvillage_0_split_1
I0403 14:39:35.678519 10946 net.cpp:399] loss3/classifier_plantvillage_loss3/classifier_plantvillage_0_split -> loss3/classifier_plantvillage_loss3/classifier_plantvillage_0_split_2
I0403 14:39:35.678539 10946 net.cpp:399] loss3/classifier_plantvillage_loss3/classifier_plantvillage_0_split -> loss3/classifier_plantvillage_loss3/classifier_plantvillage_0_split_3
I0403 14:39:35.678652 10946 net.cpp:141] Setting up loss3/classifier_plantvillage_loss3/classifier_plantvillage_0_split
I0403 14:39:35.678676 10946 net.cpp:148] Top shape: 24 38 (912)
I0403 14:39:35.678694 10946 net.cpp:148] Top shape: 24 38 (912)
I0403 14:39:35.678709 10946 net.cpp:148] Top shape: 24 38 (912)
I0403 14:39:35.678725 10946 net.cpp:148] Top shape: 24 38 (912)
I0403 14:39:35.678738 10946 net.cpp:156] Memory required for data: 1346079072
I0403 14:39:35.678753 10946 layer_factory.hpp:77] Creating layer loss1/loss
I0403 14:39:35.678776 10946 net.cpp:91] Creating Layer loss1/loss
I0403 14:39:35.678792 10946 net.cpp:425] loss1/loss <- loss1/classifier_plantvillage_loss1/classifier_plantvillage_0_split_0
I0403 14:39:35.678824 10946 net.cpp:425] loss1/loss <- label_data_1_split_0
…
