…
I0403 14:41:01.853890 10976 net.cpp:313] The NetState phase (1) differed from the phase (0) specified by a rule in layer data
I0403 14:41:01.855244 10976 net.cpp:49] Initializing net from parameters: 
state {
  phase: TEST
}
layer {
  name: "data"
  type: "Data"
  top: "data"
  top: "label"
  include {
    phase: TEST
  }
  transform_param {
    mirror: false
    crop_size: 224
    mean_file: "/home/mohanty/data/final_dataset/lmdb/grayscale-60-40/mean.binaryproto"
  }
  data_param {
    source: "/home/mohanty/data/final_dataset/lmdb/grayscale-60-40/test_db"
    batch_size: 24
    backend: LMDB
  }
}
layer {
  name: "conv1/7x7_s2"
  type: "Convolution"
  bottom: "data"
  top: "conv1/7x7_s2"
  param {
    lr_mult: 1
    decay_mult: 1
  }
  param {
    lr_mult: 2
    decay_mult: 0
  }
  convolution_param {
    num_output: 64
    pad: 3
    kernel_size: 7
    stride: 2
    weight_filler {
      type: "xavier"
      std: 0.1
    }
    bias_filler {
      type: "constant"
      value: 0.2
    }
  }
}
layer {
  name: "conv1/relu_7x7"
  type: "ReLU"
  bottom: "conv1/7x7_s2"
  top: "conv1/7x7_s2"
}
layer {
  name: "pool1/3x3_s2"
  type: "Pooling"
  bottom: "conv1/7x7_s2"
  top: "pool1/3x3_s2"
  pooling_param {
    pool: MAX
    kernel_size: 3
    stride: 2
  }
}
layer {
  name: "pool1/norm1"
  type: "LRN"
  bottom: "pool1/3x3_s2"
  top: "pool1/norm1"
  lrn_param {
    local_size: 5
    alpha: 0.0001
    beta: 0.75
  }
}
layer {
  name: "conv2/3x3_reduce"
  type: "Convolution"
  bottom: "pool1/norm1"
  top: "conv2/3x3_reduce"
  param {
    lr_mult: 1
    decay_mult: 1
  }
  param {
    lr_mult: 2
    decay_mult: 0
  }
  convolution_param {
    num_output: 64
    kernel_size: 1
    weight_filler {
      type: "xavier"
      std: 0.1
    }
    bias_filler {
      type: "constant"
      value: 0.2
    }
  }
}
layer {
  name: "conv2/relu_3x3_reduce"
  type: "ReLU"
  bottom: "conv2/3x3_reduce"
  top: "conv2/3x3_reduce"
}
layer {
  name: "conv2/3x3"
  type: "Convolution"
  bottom: "conv2/3x3_reduce"
  top: "conv2/3x3"
  param {
    lr_mult: 1
    decay_mult: 1
  }
  param {
    lr_mult: 2
    decay_mult: 0
  }
  convolution_param {
    num_output: 192
    pad: 1
    kernel_size: 3
    weight_filler {
      type: "xavier"
      std: 0.03
    }
    bias_filler {
      type: "constant"
      value: 0.2
    }
  }
}
layer {
  name: "conv2/relu_3x3"
  type: "ReLU"
  bottom: "conv2/3x3"
  top: "conv2/3x3"
}
layer {
  name: "conv2/norm2"
  type: "LRN"
  bottom: "conv2/3x3"
  top: "conv2/norm2"
  lrn_param {
    local_size: 5
    alpha: 0.0001
    beta: 0.75
  }
}
layer {
  name: "pool2/3x3_s2"
  type: "Pooling"
  bottom: "conv2/norm2"
  top: "pool2/3x3_s2"
  pooling_param {
    pool: MAX
    kernel_size: 3
    stride: 2
  }
}
layer {
  name: "inception_3a/1x1"
  type: "Convolution"
  bottom: "pool2/3x3_s2"
  top: "inception_3a/1x1"
  param {
    lr_mult: 1
    decay_mult: 1
  }
  param {
    lr_mult: 2
    decay_mult: 0
  }
  convolution_param {
    num_output: 64
    kernel_size: 1
    weight_filler {
      type: "xavier"
      std: 0.03
    }
    bias_filler {
      type: "constant"
      value: 0.2
    }
  }
}
layer {
  name: "inception_3a/relu_1x1"
  type: "ReLU"
  bottom: "inception_3a/1x1"
  top: "inception_3a/1x1"
}
layer {
  name: "inception_3a/3x3_reduce"
  type: "Convolution"
  bottom: "pool2/3x3_s2"
  top: "inception_3a/3x3_reduce"
  param {
    lr_mult: 1
    decay_mult: 1
  }
  param {
    lr_mult: 2
    decay_mult: 0
  }
  convolution_param {
    num_output: 96
    kernel_size: 1
    weight_filler {
      type: "xavier"
      std: 0.09
    }
    bias_filler {
      type: "constant"
      value: 0.2
    }
  }
}
layer {
  name: "inception_3a/relu_3x3_reduce"
  type: "ReLU"
  bottom: "inception_3a/3x3_reduce"
  top: "inception_3a/3x3_reduce"
}
layer {
  name: "inception_3a/3x3"
  type: "Convolution"
  bottom: "inception_3a/3x3_reduce"
  top: "inception_3a/3x3"
  param {
    lr_mult: 1
    decay_mult: 1
  }
  param {
    lr_mult: 2
    decay_mult: 0
  }
  convolution_param {
    num_output: 128
    pad: 1
    kernel_size: 3
    weight_filler {
      type: "xavier"
      std: 0.03
    }
    bias_filler {
      type: "constant"
      value: 0.2
    }
  }
}
layer {
  name: "inception_3a/relu_3x3"
  type: "ReLU"
  bottom: "inception_3a/3x3"
  top: "inception_3a/3x3"
}
layer {
  name: "inception_3a/5x5_reduce"
  type: "Convolution"
  bottom: "pool2/3x3_s2"
  top: "inception_3a/5x5_reduce"
  param {
    lr_mult: 1
    decay_mult: 1
  }
  param {
    lr_mult: 2
    decay_mult: 0
  }
  convolution_param {
    num_output: 16
    kernel_size: 1
    weight_filler {
      type: "xavier"
      std: 0.2
    }
    bias_filler {
      type: "constant"
      value: 0.2
    }
  }
}
layer {
  name: "inception_3a/relu_5x5_reduce"
  type: "ReLU"
  bottom: "inception_3a/5x5_reduce"
  top: "inception_3a/5x5_reduce"
}
layer {
  name: "inception_3a/5x5"
  type: "Convolution"
  bottom: "inception_3a/5x5_reduce"
  top: "inception_3a/5x5"
  param {
    lr_mult: 1
    decay_mult: 1
  }
  param {
    lr_mult: 2
    decay_mult: 0
  }
  convolution_param {
    num_output: 32
    pad: 2
    kernel_size: 5
    weight_filler {
      type: "xavier"
      std: 0.03
    }
    bias_filler {
      type: "constant"
      value: 0.2
    }
  }
}
layer {
  name: "inception_3a/relu_5x5"
  type: "ReLU"
  bottom: "inception_3a/5x5"
  top: "inception_3a/5x5"
}
layer {
  name: "inception_3a/pool"
  type: "Pooling"
  bottom: "pool2/3x3_s2"
  top: "inception_3a/pool"
  pooling_param {
    pool: MAX
    kernel_size: 3
    stride: 1
    pad: 1
  }
}
layer {
  name: "inception_3a/pool_proj"
  type: "Convolution"
  bottom: "inception_3a/pool"
  top: "inception_3a/pool_proj"
  param {
    lr_mult: 1
    decay_mult: 1
  }
  param {
    lr_mult: 2
    decay_mult: 0
  }
  convolution_param {
    num_output: 32
    kernel_size: 1
    weight_filler {
      type: "xavier"
      std: 0.1
    }
    bias_filler {
      type: "constant"
      value: 0.2
    }
  }
}
layer {
  name: "inception_3a/relu_pool_proj"
  type: "ReLU"
  bottom: "inception_3a/pool_proj"
  top: "inception_3a/pool_proj"
}
layer {
  name: "inception_3a/output"
  type: "Concat"
  bottom: "inception_3a/1x1"
  bottom: "inception_3a/3x3"
  bottom: "inception_3a/5x5"
  bottom: "inception_3a/pool_proj"
  top: "inception_3a/output"
}
layer {
  name: "inception_3b/1x1"
  type: "Convolution"
  bottom: "inception_3a/output"
  top: "inception_3b/1x1"
  param {
    lr_mult: 1
    decay_mult: 1
  }
  param {
    lr_mult: 2
    decay_mult: 0
  }
  convolution_param {
    num_output: 128
    kernel_size: 1
    weight_filler {
      type: "xavier"
      std: 0.03
    }
    bias_filler {
      type: "constant"
      value: 0.2
    }
  }
}
layer {
  name: "inception_3b/relu_1x1"
  type: "ReLU"
  bottom: "inception_3b/1x1"
  top: "inception_3b/1x1"
}
layer {
  name: "inception_3b/3x3_reduce"
  type: "Convolution"
  bottom: "inception_3a/output"
  top: "inception_3b/3x3_reduce"
  param {
    lr_mult: 1
    decay_mult: 1
  }
  param {
    lr_mult: 2
    decay_mult: 0
  }
  convolution_param {
    num_output: 128
    kernel_size: 1
    weight_filler {
      type: "xavier"
      std: 0.09
    }
    bias_filler {
      type: "constant"
      value: 0.2
    }
  }
}
layer {
  name: "inception_3b/relu_3x3_reduce"
  type: "ReLU"
  bottom: "inception_3b/3x3_reduce"
  top: "inception_3b/3x3_reduce"
}
layer {
  name: "inception_3b/3x3"
  type: "Convolution"
  bottom: "inception_3b/3x3_reduce"
  top: "inception_3b/3x3"
  param {
    lr_mult: 1
    decay_mult: 1
  }
  param {
    lr_mult: 2
    decay_mult: 0
  }
  convolution_param {
    num_output: 192
    pad: 1
    kernel_size: 3
    weight_filler {
      type: "xavier"
      std: 0.03
    }
    bias_filler {
      type: "constant"
      value: 0.2
    }
  }
}
layer {
  name: "inception_3b/relu_3x3"
  type: "ReLU"
  bottom: "inception_3b/3x3"
  top: "inception_3b/3x3"
}
layer {
  name: "inception_3b/5x5_reduce"
  type: "Convolution"
  bottom: "inception_3a/output"
  top: "inception_3b/5x5_reduce"
  param {
    lr_mult: 1
    decay_mult: 1
  }
  param {
    lr_mult: 2
    decay_mult: 0
  }
  convolution_param {
    num_output: 32
    kernel_size: 1
    weight_filler {
      type: "xavier"
      std: 0.2
    }
    bias_filler {
      type: "constant"
      value: 0.2
    }
  }
}
layer {
  name: "inception_3b/relu_5x5_reduce"
  type: "ReLU"
  bottom: "inception_3b/5x5_reduce"
  top: "inception_3b/5x5_reduce"
}
layer {
  name: "inception_3b/5x5"
  type: "Convolution"
  bottom: "inception_3b/5x5_reduce"
  top: "inception_3b/5x5"
  param {
    lr_mult: 1
    decay_mult: 1
  }
  param {
    lr_mult: 2
    decay_mult: 0
  }
  convolution_param {
    num_output: 96
    pad: 2
    kernel_size: 5
    weight_filler {
      type: "xavier"
      std: 0.03
    }
    bias_filler {
      type: "constant"
      value: 0.2
    }
  }
}
layer {
  name: "inception_3b/relu_5x5"
  type: "ReLU"
  bottom: "inception_3b/5x5"
  top: "inception_3b/5x5"
}
layer {
  name: "inception_3b/pool"
  type: "Pooling"
  bottom: "inception_3a/output"
  top: "inception_3b/pool"
  pooling_param {
    pool: MAX
    kernel_size: 3
    stride: 1
    pad: 1
  }
}
layer {
  name: "inception_3b/pool_proj"
  type: "Convolution"
  bottom: "inception_3b/pool"
  top: "inception_3b/pool_proj"
  param {
    lr_mult: 1
    decay_mult: 1
  }
  param {
    lr_mult: 2
    decay_mult: 0
  }
  convolution_param {
    num_output: 64
    kernel_size: 1
    weight_filler {
      type: "xavier"
      std: 0.1
    }
    bias_filler {
      type: "constant"
      value: 0.2
    }
  }
}
layer {
  name: "inception_3b/relu_pool_proj"
  type: "ReLU"
  bottom: "inception_3b/pool_proj"
  top: "inception_3b/pool_proj"
}
layer {
  name: "inception_3b/output"
  type: "Concat"
  bottom: "inception_3b/1x1"
  bottom: "inception_3b/3x3"
  bottom: "inception_3b/5x5"
  bottom: "inception_3b/pool_proj"
  top: "inception_3b/output"
}
layer {
  name: "pool3/3x3_s2"
  type: "Pooling"
  bottom: "inception_3b/output"
  top: "pool3/3x3_s2"
  pooling_param {
    pool: MAX
    kernel_size: 3
    stride: 2
  }
}
layer {
  name: "inception_4a/1x1"
  type: "Convolution"
  bottom: "pool3/3x3_s2"
  top: "inception_4a/1x1"
  param {
    lr_mult: 1
    decay_mult: 1
  }
  param {
    lr_mult: 2
    decay_mult: 0
  }
  convolution_param {
    num_output: 192
    kernel_size: 1
    weight_filler {
      type: "xavier"
      std: 0.03
    }
    bias_filler {
      type: "constant"
      value: 0.2
    }
  }
}
layer {
  name: "inception_4a/relu_1x1"
  type: "ReLU"
  bottom: "inception_4a/1x1"
  top: "inception_4a/1x1"
}
layer {
  name: "inception_4a/3x3_reduce"
  type: "Convolution"
  bottom: "pool3/3x3_s2"
  top: "inception_4a/3x3_reduce"
  param {
    lr_mult: 1
    decay_mult: 1
  }
  param {
    lr_mult: 2
    decay_mult: 0
  }
  convolution_param {
    num_output: 96
    kernel_size: 1
    weight_filler {
      type: "xavier"
      std: 0.09
    }
    bias_filler {
      type: "constant"
      value: 0.2
    }
  }
}
layer {
  name: "inception_4a/relu_3x3_reduce"
  type: "ReLU"
  bottom: "inception_4a/3x3_reduce"
  top: "inception_4a/3x3_reduce"
}
layer {
  name: "inception_4a/3x3"
  type: "Convolution"
  bottom: "inception_4a/3x3_reduce"
  top: "inception_4a/3x3"
  param {
    lr_mult: 1
    decay_mult: 1
  }
  param {
    lr_mult: 2
    decay_mult: 0
  }
  convolution_param {
    num_output: 208
    pad: 1
    kernel_size: 3
    weight_filler {
      type: "xavier"
      std: 0.03
    }
    bias_filler {
      type: "constant"
      value: 0.2
    }
  }
}
layer {
  name: "inception_4a/relu_3x3"
  type: "ReLU"
  bottom: "inception_4a/3x3"
  top: "inception_4a/3x3"
}
layer {
  name: "inception_4a/5x5_reduce"
  type: "Convolution"
  bottom: "pool3/3x3_s2"
  top: "inception_4a/5x5_reduce"
  param {
    lr_mult: 1
    decay_mult: 1
  }
  param {
    lr_mult: 2
    decay_mult: 0
  }
  convolution_param {
    num_output: 16
    kernel_size: 1
    weight_filler {
      type: "xavier"
      std: 0.2
    }
    bias_filler {
      type: "constant"
      value: 0.2
    }
  }
}
layer {
  name: "inception_4a/relu_5x5_reduce"
  type: "ReLU"
  bottom: "inception_4a/5x5_reduce"
  top: "inception_4a/5x5_reduce"
}
layer {
  name: "inception_4a/5x5"
  type: "Convolution"
  bottom: "inception_4a/5x5_reduce"
  top: "inception_4a/5x5"
  param {
    lr_mult: 1
    decay_mult: 1
  }
  param {
    lr_mult: 2
    decay_mult: 0
  }
  convolution_param {
    num_output: 48
    pad: 2
    kernel_size: 5
    weight_filler {
      type: "xavier"
      std: 0.03
    }
    bias_filler {
      type: "constant"
      value: 0.2
    }
  }
}
layer {
  name: "inception_4a/relu_5x5"
  type: "ReLU"
  bottom: "inception_4a/5x5"
  top: "inception_4a/5x5"
}
layer {
  name: "inception_4a/pool"
  type: "Pooling"
  bottom: "pool3/3x3_s2"
  top: "inception_4a/pool"
  pooling_param {
    pool: MAX
    kernel_size: 3
    stride: 1
    pad: 1
  }
}
layer {
  name: "inception_4a/pool_proj"
  type: "Convolution"
  bottom: "inception_4a/pool"
  top: "inception_4a/pool_proj"
  param {
    lr_mult: 1
    decay_mult: 1
  }
  param {
    lr_mult: 2
    decay_mult: 0
  }
  convolution_param {
    num_output: 64
    kernel_size: 1
    weight_filler {
      type: "xavier"
      std: 0.1
    }
    bias_filler {
      type: "constant"
      value: 0.2
    }
  }
}
layer {
  name: "inception_4a/relu_pool_proj"
  type: "ReLU"
  bottom: "inception_4a/pool_proj"
  top: "inception_4a/pool_proj"
}
layer {
  name: "inception_4a/output"
  type: "Concat"
  bottom: "inception_4a/1x1"
  bottom: "inception_4a/3x3"
  bottom: "inception_4a/5x5"
  bottom: "inception_4a/pool_proj"
  top: "inception_4a/output"
}
layer {
  name: "loss1/ave_pool"
  type: "Pooling"
  bottom: "inception_4a/output"
  top: "loss1/ave_pool"
  pooling_param {
    pool: AVE
    kernel_size: 5
    stride: 3
  }
}
layer {
  name: "loss1/conv"
  type: "Convolution"
  bottom: "loss1/ave_pool"
  top: "loss1/conv"
  param {
    lr_mult: 1
    decay_mult: 1
  }
  param {
    lr_mult: 2
    decay_mult: 0
  }
  convolution_param {
    num_output: 128
    kernel_size: 1
    weight_filler {
      type: "xavier"
      std: 0.08
    }
    bias_filler {
      type: "constant"
      value: 0.2
    }
  }
}
layer {
  name: "loss1/relu_conv"
  type: "ReLU"
  bottom: "loss1/conv"
  top: "loss1/conv"
}
layer {
  name: "loss1/fc"
  type: "InnerProduct"
  bottom: "loss1/conv"
  top: "loss1/fc"
  param {
    lr_mult: 1
    decay_mult: 1
  }
  param {
    lr_mult: 2
    decay_mult: 0
  }
  inner_product_param {
    num_output: 1024
    weight_filler {
      type: "xavier"
      std: 0.02
    }
    bias_filler {
      type: "constant"
      value: 0.2
    }
  }
}
layer {
  name: "loss1/relu_fc"
  type: "ReLU"
  bottom: "loss1/fc"
  top: "loss1/fc"
}
layer {
  name: "loss1/drop_fc"
  type: "Dropout"
  bottom: "loss1/fc"
  top: "loss1/fc"
  dropout_param {
    dropout_ratio: 0.7
  }
}
layer {
  name: "loss1/classifier_plantvillage"
  type: "InnerProduct"
  bottom: "loss1/fc"
  top: "loss1/classifier_plantvillage"
  param {
    lr_mult: 1
    decay_mult: 1
  }
  param {
    lr_mult: 2
    decay_mult: 0
  }
  inner_product_param {
    num_output: 38
    weight_filler {
      type: "xavier"
      std: 0.0009765625
    }
    bias_filler {
      type: "constant"
      value: 0
    }
  }
}
layer {
  name: "inception_4b/1x1"
  type: "Convolution"
  bottom: "inception_4a/output"
  top: "inception_4b/1x1"
  param {
    lr_mult: 1
    decay_mult: 1
  }
  param {
    lr_mult: 2
    decay_mult: 0
  }
  convolution_param {
    num_output: 160
    kernel_size: 1
    weight_filler {
      type: "xavier"
      std: 0.03
    }
    bias_filler {
      type: "constant"
      value: 0.2
    }
  }
}
layer {
  name: "inception_4b/relu_1x1"
  type: "ReLU"
  bottom: "inception_4b/1x1"
  top: "inception_4b/1x1"
}
layer {
  name: "inception_4b/3x3_reduce"
  type: "Convolution"
  bottom: "inception_4a/output"
  top: "inception_4b/3x3_reduce"
  param {
    lr_mult: 1
    decay_mult: 1
  }
  param {
    lr_mult: 2
    decay_mult: 0
  }
  convolution_param {
    num_output: 112
    kernel_size: 1
    weight_filler {
      type: "xavier"
      std: 0.09
    }
    bias_filler {
      type: "constant"
      value: 0.2
    }
  }
}
layer {
  name: "inception_4b/relu_3x3_reduce"
  type: "ReLU"
  bottom: "inception_4b/3x3_reduce"
  top: "inception_4b/3x3_reduce"
}
layer {
  name: "inception_4b/3x3"
  type: "Convolution"
  bottom: "inception_4b/3x3_reduce"
  top: "inception_4b/3x3"
  param {
    lr_mult: 1
    decay_mult: 1
  }
  param {
    lr_mult: 2
    decay_mult: 0
  }
  convolution_param {
    num_output: 224
    pad: 1
    kernel_size: 3
    weight_filler {
      type: "xavier"
      std: 0.03
    }
    bias_filler {
      type: "constant"
      value: 0.2
    }
  }
}
layer {
  name: "inception_4b/relu_3x3"
  type: "ReLU"
  bottom: "inception_4b/3x3"
  top: "inception_4b/3x3"
}
layer {
  name: "inception_4b/5x5_reduce"
  type: "Convolution"
  bottom: "inception_4a/output"
  top: "inception_4b/5x5_reduce"
  param {
    lr_mult: 1
    decay_mult: 1
  }
  param {
    lr_mult: 2
    decay_mult: 0
  }
  convolution_param {
    num_output: 24
    kernel_size: 1
    weight_filler {
      type: "xavier"
      std: 0.2
    }
    bias_filler {
      type: "constant"
      value: 0.2
    }
  }
}
layer {
  name: "inception_4b/relu_5x5_reduce"
  type: "ReLU"
  bottom: "inception_4b/5x5_reduce"
  top: "inception_4b/5x5_reduce"
}
layer {
  name: "inception_4b/5x5"
  type: "Convolution"
  bottom: "inception_4b/5x5_reduce"
  top: "inception_4b/5x5"
  param {
    lr_mult: 1
    decay_mult: 1
  }
  param {
    lr_mult: 2
    decay_mult: 0
  }
  convolution_param {
    num_output: 64
    pad: 2
    kernel_size: 5
    weight_filler {
      type: "xavier"
      std: 0.03
    }
    bias_filler {
      type: "constant"
      value: 0.2
    }
  }
}
layer {
  name: "inception_4b/relu_5x5"
  type: "ReLU"
  bottom: "inception_4b/5x5"
  top: "inception_4b/5x5"
}
layer {
  name: "inception_4b/pool"
  type: "Pooling"
  bottom: "inception_4a/output"
  top: "inception_4b/pool"
  pooling_param {
    pool: MAX
    kernel_size: 3
    stride: 1
    pad: 1
  }
}
layer {
  name: "inception_4b/pool_proj"
  type: "Convolution"
  bottom: "inception_4b/pool"
  top: "inception_4b/pool_proj"
  param {
    lr_mult: 1
    decay_mult: 1
  }
  param {
    lr_mult: 2
    decay_mult: 0
  }
  convolution_param {
    num_output: 64
    kernel_size: 1
    weight_filler {
      type: "xavier"
      std: 0.1
    }
    bias_filler {
      type: "constant"
      value: 0.2
    }
  }
}
layer {
  name: "inception_4b/relu_pool_proj"
  type: "ReLU"
  bottom: "inception_4b/pool_proj"
  top: "inception_4b/pool_proj"
}
layer {
  name: "inception_4b/output"
  type: "Concat"
  bottom: "inception_4b/1x1"
  bottom: "inception_4b/3x3"
  bottom: "inception_4b/5x5"
  bottom: "inception_4b/pool_proj"
  top: "inception_4b/output"
}
layer {
  name: "inception_4c/1x1"
  type: "Convolution"
  bottom: "inception_4b/output"
  top: "inception_4c/1x1"
  param {
    lr_mult: 1
    decay_mult: 1
  }
  param {
    lr_mult: 2
    decay_mult: 0
  }
  convolution_param {
    num_output: 128
    kernel_size: 1
    weight_filler {
      type: "xavier"
      std: 0.03
    }
    bias_filler {
      type: "constant"
      value: 0.2
    }
  }
}
layer {
  name: "inception_4c/relu_1x1"
  type: "ReLU"
  bottom: "inception_4c/1x1"
  top: "inception_4c/1x1"
}
layer {
  name: "inception_4c/3x3_reduce"
  type: "Convolution"
  bottom: "inception_4b/output"
  top: "inception_4c/3x3_reduce"
  param {
    lr_mult: 1
    decay_mult: 1
  }
  param {
    lr_mult: 2
    decay_mult: 0
  }
  convolution_param {
    num_output: 128
    kernel_size: 1
    weight_filler {
      type: "xavier"
      std: 0.09
    }
    bias_filler {
      type: "constant"
      value: 0.2
    }
  }
}
layer {
  name: "inception_4c/relu_3x3_reduce"
  type: "ReLU"
  bottom: "inception_4c/3x3_reduce"
  top: "inception_4c/3x3_reduce"
}
layer {
  name: "inception_4c/3x3"
  type: "Convolution"
  bottom: "inception_4c/3x3_reduce"
  top: "inception_4c/3x3"
  param {
    lr_mult: 1
    decay_mult: 1
  }
  param {
    lr_mult: 2
    decay_mult: 0
  }
  convolution_param {
    num_output: 256
    pad: 1
    kernel_size: 3
    weight_filler {
      type: "xavier"
      std: 0.03
    }
    bias_filler {
      type: "constant"
      value: 0.2
    }
  }
}
layer {
  name: "inception_4c/relu_3x3"
  type: "ReLU"
  bottom: "inception_4c/3x3"
  top: "inception_4c/3x3"
}
layer {
  name: "inception_4c/5x5_reduce"
  type: "Convolution"
  bottom: "inception_4b/output"
  top: "inception_4c/5x5_reduce"
  param {
    lr_mult: 1
    decay_mult: 1
  }
  param {
    lr_mult: 2
    decay_mult: 0
  }
  convolution_param {
    num_output: 24
    kernel_size: 1
    weight_filler {
      type: "xavier"
      std: 0.2
    }
    bias_filler {
      type: "constant"
      value: 0.2
    }
  }
}
layer {
  name: "inception_4c/relu_5x5_reduce"
  type: "ReLU"
  bottom: "inception_4c/5x5_reduce"
  top: "inception_4c/5x5_reduce"
}
layer {
  name: "inception_4c/5x5"
  type: "Convolution"
  bottom: "inception_4c/5x5_reduce"
  top: "inception_4c/5x5"
  param {
    lr_mult: 1
    decay_mult: 1
  }
  param {
    lr_mult: 2
    decay_mult: 0
  }
  convolution_param {
    num_output: 64
    pad: 2
    kernel_size: 5
    weight_filler {
      type: "xavier"
      std: 0.03
    }
    bias_filler {
      type: "constant"
      value: 0.2
    }
  }
}
layer {
  name: "inception_4c/relu_5x5"
  type: "ReLU"
  bottom: "inception_4c/5x5"
  top: "inception_4c/5x5"
}
layer {
  name: "inception_4c/pool"
  type: "Pooling"
  bottom: "inception_4b/output"
  top: "inception_4c/pool"
  pooling_param {
    pool: MAX
    kernel_size: 3
    stride: 1
    pad: 1
  }
}
layer {
  name: "inception_4c/pool_proj"
  type: "Convolution"
  bottom: "inception_4c/pool"
  top: "inception_4c/pool_proj"
  param {
    lr_mult: 1
    decay_mult: 1
  }
  param {
    lr_mult: 2
    decay_mult: 0
  }
  convolution_param {
    num_output: 64
    kernel_size: 1
    weight_filler {
      type: "xavier"
      std: 0.1
    }
    bias_filler {
      type: "constant"
      value: 0.2
    }
  }
}
layer {
  name: "inception_4c/relu_pool_proj"
  type: "ReLU"
  bottom: "inception_4c/pool_proj"
  top: "inception_4c/pool_proj"
}
layer {
  name: "inception_4c/output"
  type: "Concat"
  bottom: "inception_4c/1x1"
  bottom: "inception_4c/3x3"
  bottom: "inception_4c/5x5"
  bottom: "inception_4c/pool_proj"
  top: "inception_4c/output"
}
layer {
  name: "inception_4d/1x1"
  type: "Convolution"
  bottom: "inception_4c/output"
  top: "inception_4d/1x1"
  param {
    lr_mult: 1
    decay_mult: 1
  }
  param {
    lr_mult: 2
    decay_mult: 0
  }
  convolution_param {
    num_output: 112
    kernel_size: 1
    weight_filler {
      type: "xavier"
      std: 0.03
    }
    bias_filler {
      type: "constant"
      value: 0.2
    }
  }
}
layer {
  name: "inception_4d/relu_1x1"
  type: "ReLU"
  bottom: "inception_4d/1x1"
  top: "inception_4d/1x1"
}
layer {
  name: "inception_4d/3x3_reduce"
  type: "Convolution"
  bottom: "inception_4c/output"
  top: "inception_4d/3x3_reduce"
  param {
    lr_mult: 1
    decay_mult: 1
  }
  param {
    lr_mult: 2
    decay_mult: 0
  }
  convolution_param {
    num_output: 144
    kernel_size: 1
    weight_filler {
      type: "xavier"
      std: 0.09
    }
    bias_filler {
      type: "constant"
      value: 0.2
    }
  }
}
layer {
  name: "inception_4d/relu_3x3_reduce"
  type: "ReLU"
  bottom: "inception_4d/3x3_reduce"
  top: "inception_4d/3x3_reduce"
}
layer {
  name: "inception_4d/3x3"
  type: "Convolution"
  bottom: "inception_4d/3x3_reduce"
  top: "inception_4d/3x3"
  param {
    lr_mult: 1
    decay_mult: 1
  }
  param {
    lr_mult: 2
    decay_mult: 0
  }
  convolution_param {
    num_output: 288
    pad: 1
    kernel_size: 3
    weight_filler {
      type: "xavier"
      std: 0.03
    }
    bias_filler {
      type: "constant"
      value: 0.2
    }
  }
}
layer {
  name: "inception_4d/relu_3x3"
  type: "ReLU"
  bottom: "inception_4d/3x3"
  top: "inception_4d/3x3"
}
layer {
  name: "inception_4d/5x5_reduce"
  type: "Convolution"
  bottom: "inception_4c/output"
  top: "inception_4d/5x5_reduce"
  param {
    lr_mult: 1
    decay_mult: 1
  }
  param {
    lr_mult: 2
    decay_mult: 0
  }
  convolution_param {
    num_output: 32
    kernel_size: 1
    weight_filler {
      type: "xavier"
      std: 0.2
    }
    bias_filler {
      type: "constant"
      value: 0.2
    }
  }
}
layer {
  name: "inception_4d/relu_5x5_reduce"
  type: "ReLU"
  bottom: "inception_4d/5x5_reduce"
  top: "inception_4d/5x5_reduce"
}
layer {
  name: "inception_4d/5x5"
  type: "Convolution"
  bottom: "inception_4d/5x5_reduce"
  top: "inception_4d/5x5"
  param {
    lr_mult: 1
    decay_mult: 1
  }
  param {
    lr_mult: 2
    decay_mult: 0
  }
  convolution_param {
    num_output: 64
    pad: 2
    kernel_size: 5
    weight_filler {
      type: "xavier"
      std: 0.03
    }
    bias_filler {
      type: "constant"
      value: 0.2
    }
  }
}
layer {
  name: "inception_4d/relu_5x5"
  type: "ReLU"
  bottom: "inception_4d/5x5"
  top: "inception_4d/5x5"
}
layer {
  name: "inception_4d/pool"
  type: "Pooling"
  bottom: "inception_4c/output"
  top: "inception_4d/pool"
  pooling_param {
    pool: MAX
    kernel_size: 3
    stride: 1
    pad: 1
  }
}
layer {
  name: "inception_4d/pool_proj"
  type: "Convolution"
  bottom: "inception_4d/pool"
  top: "inception_4d/pool_proj"
  param {
    lr_mult: 1
    decay_mult: 1
  }
  param {
    lr_mult: 2
    decay_mult: 0
  }
  convolution_param {
    num_output: 64
    kernel_size: 1
    weight_filler {
      type: "xavier"
      std: 0.1
    }
    bias_filler {
      type: "constant"
      value: 0.2
    }
  }
}
layer {
  name: "inception_4d/relu_pool_proj"
  type: "ReLU"
  bottom: "inception_4d/pool_proj"
  top: "inception_4d/pool_proj"
}
layer {
  name: "inception_4d/output"
  type: "Concat"
  bottom: "inception_4d/1x1"
  bottom: "inception_4d/3x3"
  bottom: "inception_4d/5x5"
  bottom: "inception_4d/pool_proj"
  top: "inception_4d/output"
}
layer {
  name: "loss2/ave_pool"
  type: "Pooling"
  bottom: "inception_4d/output"
  top: "loss2/ave_pool"
  pooling_param {
    pool: AVE
    kernel_size: 5
    stride: 3
  }
}
layer {
  name: "loss2/conv"
  type: "Convolution"
  bottom: "loss2/ave_pool"
  top: "loss2/conv"
  param {
    lr_mult: 1
    decay_mult: 1
  }
  param {
    lr_mult: 2
    decay_mult: 0
  }
  convolution_param {
    num_output: 128
    kernel_size: 1
    weight_filler {
      type: "xavier"
      std: 0.08
    }
    bias_filler {
      type: "constant"
      value: 0.2
    }
  }
}
layer {
  name: "loss2/relu_conv"
  type: "ReLU"
  bottom: "loss2/conv"
  top: "loss2/conv"
}
layer {
  name: "loss2/fc"
  type: "InnerProduct"
  bottom: "loss2/conv"
  top: "loss2/fc"
  param {
    lr_mult: 1
    decay_mult: 1
  }
  param {
    lr_mult: 2
    decay_mult: 0
  }
  inner_product_param {
    num_output: 1024
    weight_filler {
      type: "xavier"
      std: 0.02
    }
    bias_filler {
      type: "constant"
      value: 0.2
    }
  }
}
layer {
  name: "loss2/relu_fc"
  type: "ReLU"
  bottom: "loss2/fc"
  top: "loss2/fc"
}
layer {
  name: "loss2/drop_fc"
  type: "Dropout"
  bottom: "loss2/fc"
  top: "loss2/fc"
  dropout_param {
    dropout_ratio: 0.7
  }
}
layer {
  name: "loss2/classifier_plantvillage"
  type: "InnerProduct"
  bottom: "loss2/fc"
  top: "loss2/classifier_plantvillage"
  param {
    lr_mult: 1
    decay_mult: 1
  }
  param {
    lr_mult: 2
    decay_mult: 0
  }
  inner_product_param {
    num_output: 38
    weight_filler {
      type: "xavier"
      std: 0.0009765625
    }
    bias_filler {
      type: "constant"
      value: 0
    }
  }
}
layer {
  name: "inception_4e/1x1"
  type: "Convolution"
  bottom: "inception_4d/output"
  top: "inception_4e/1x1"
  param {
    lr_mult: 1
    decay_mult: 1
  }
  param {
    lr_mult: 2
    decay_mult: 0
  }
  convolution_param {
    num_output: 256
    kernel_size: 1
    weight_filler {
      type: "xavier"
      std: 0.03
    }
    bias_filler {
      type: "constant"
      value: 0.2
    }
  }
}
layer {
  name: "inception_4e/relu_1x1"
  type: "ReLU"
  bottom: "inception_4e/1x1"
  top: "inception_4e/1x1"
}
layer {
  name: "inception_4e/3x3_reduce"
  type: "Convolution"
  bottom: "inception_4d/output"
  top: "inception_4e/3x3_reduce"
  param {
    lr_mult: 1
    decay_mult: 1
  }
  param {
    lr_mult: 2
    decay_mult: 0
  }
  convolution_param {
    num_output: 160
    kernel_size: 1
    weight_filler {
      type: "xavier"
      std: 0.09
    }
    bias_filler {
      type: "constant"
      value: 0.2
    }
  }
}
layer {
  name: "inception_4e/relu_3x3_reduce"
  type: "ReLU"
  bottom: "inception_4e/3x3_reduce"
  top: "inception_4e/3x3_reduce"
}
layer {
  name: "inception_4e/3x3"
  type: "Convolution"
  bottom: "inception_4e/3x3_reduce"
  top: "inception_4e/3x3"
  param {
    lr_mult: 1
    decay_mult: 1
  }
  param {
    lr_mult: 2
    decay_mult: 0
  }
  convolution_param {
    num_output: 320
    pad: 1
    kernel_size: 3
    weight_filler {
      type: "xavier"
      std: 0.03
    }
    bias_filler {
      type: "constant"
      value: 0.2
    }
  }
}
layer {
  name: "inception_4e/relu_3x3"
  type: "ReLU"
  bottom: "inception_4e/3x3"
  top: "inception_4e/3x3"
}
layer {
  name: "inception_4e/5x5_reduce"
  type: "Convolution"
  bottom: "inception_4d/output"
  top: "inception_4e/5x5_reduce"
  param {
    lr_mult: 1
    decay_mult: 1
  }
  param {
    lr_mult: 2
    decay_mult: 0
  }
  convolution_param {
    num_output: 32
    kernel_size: 1
    weight_filler {
      type: "xavier"
      std: 0.2
    }
    bias_filler {
      type: "constant"
      value: 0.2
    }
  }
}
layer {
  name: "inception_4e/relu_5x5_reduce"
  type: "ReLU"
  bottom: "inception_4e/5x5_reduce"
  top: "inception_4e/5x5_reduce"
}
layer {
  name: "inception_4e/5x5"
  type: "Convolution"
  bottom: "inception_4e/5x5_reduce"
  top: "inception_4e/
I0403 14:41:01.856732 10976 layer_factory.hpp:77] Creating layer data
I0403 14:41:01.857434 10976 net.cpp:91] Creating Layer data
I0403 14:41:01.857473 10976 net.cpp:399] data -> data
I0403 14:41:01.857529 10976 net.cpp:399] data -> label
I0403 14:41:01.857580 10976 data_transformer.cpp:25] Loading mean file from: /home/mohanty/data/final_dataset/lmdb/grayscale-60-40/mean.binaryproto
I0403 14:41:01.860720 10983 db_lmdb.cpp:38] Opened lmdb /home/mohanty/data/final_dataset/lmdb/grayscale-60-40/test_db
I0403 14:41:01.873622 10976 data_layer.cpp:41] output data size: 24,3,224,224
I0403 14:41:01.906107 10976 net.cpp:141] Setting up data
I0403 14:41:01.906229 10976 net.cpp:148] Top shape: 24 3 224 224 (3612672)
I0403 14:41:01.906258 10976 net.cpp:148] Top shape: 24 (24)
I0403 14:41:01.906276 10976 net.cpp:156] Memory required for data: 14450784
I0403 14:41:01.906309 10976 layer_factory.hpp:77] Creating layer label_data_1_split
I0403 14:41:01.906342 10976 net.cpp:91] Creating Layer label_data_1_split
I0403 14:41:01.906363 10976 net.cpp:425] label_data_1_split <- label
I0403 14:41:01.906409 10976 net.cpp:399] label_data_1_split -> label_data_1_split_0
I0403 14:41:01.906443 10976 net.cpp:399] label_data_1_split -> label_data_1_split_1
I0403 14:41:01.906469 10976 net.cpp:399] label_data_1_split -> label_data_1_split_2
I0403 14:41:01.906496 10976 net.cpp:399] label_data_1_split -> label_data_1_split_3
I0403 14:41:01.906519 10976 net.cpp:399] label_data_1_split -> label_data_1_split_4
I0403 14:41:01.906543 10976 net.cpp:399] label_data_1_split -> label_data_1_split_5
I0403 14:41:01.906565 10976 net.cpp:399] label_data_1_split -> label_data_1_split_6
I0403 14:41:01.906589 10976 net.cpp:399] label_data_1_split -> label_data_1_split_7
I0403 14:41:01.906613 10976 net.cpp:399] label_data_1_split -> label_data_1_split_8
I0403 14:41:01.906637 10976 net.cpp:399] label_data_1_split -> label_data_1_split_9
I0403 14:41:01.906774 10976 net.cpp:141] Setting up label_data_1_split
I0403 14:41:01.906802 10976 net.cpp:148] Top shape: 24 (24)
I0403 14:41:01.906823 10976 net.cpp:148] Top shape: 24 (24)
I0403 14:41:01.906841 10976 net.cpp:148] Top shape: 24 (24)
I0403 14:41:01.906860 10976 net.cpp:148] Top shape: 24 (24)
I0403 14:41:01.906878 10976 net.cpp:148] Top shape: 24 (24)
I0403 14:41:01.906898 10976 net.cpp:148] Top shape: 24 (24)
I0403 14:41:01.906915 10976 net.cpp:148] Top shape: 24 (24)
I0403 14:41:01.906935 10976 net.cpp:148] Top shape: 24 (24)
I0403 14:41:01.906954 10976 net.cpp:148] Top shape: 24 (24)
I0403 14:41:01.906972 10976 net.cpp:148] Top shape: 24 (24)
I0403 14:41:01.907021 10976 net.cpp:156] Memory required for data: 14451744
I0403 14:41:01.907040 10976 layer_factory.hpp:77] Creating layer conv1/7x7_s2
I0403 14:41:01.907079 10976 net.cpp:91] Creating Layer conv1/7x7_s2
I0403 14:41:01.907101 10976 net.cpp:425] conv1/7x7_s2 <- data
I0403 14:41:01.907133 10976 net.cpp:399] conv1/7x7_s2 -> conv1/7x7_s2
I0403 14:41:02.074458 10976 net.cpp:141] Setting up conv1/7x7_s2
I0403 14:41:02.074556 10976 net.cpp:148] Top shape: 24 64 112 112 (19267584)
I0403 14:41:02.074579 10976 net.cpp:156] Memory required for data: 91522080
I0403 14:41:02.074616 10976 layer_factory.hpp:77] Creating layer conv1/relu_7x7
I0403 14:41:02.074650 10976 net.cpp:91] Creating Layer conv1/relu_7x7
I0403 14:41:02.074673 10976 net.cpp:425] conv1/relu_7x7 <- conv1/7x7_s2
I0403 14:41:02.074697 10976 net.cpp:386] conv1/relu_7x7 -> conv1/7x7_s2 (in-place)
I0403 14:41:02.075007 10976 net.cpp:141] Setting up conv1/relu_7x7
I0403 14:41:02.075043 10976 net.cpp:148] Top shape: 24 64 112 112 (19267584)
I0403 14:41:02.075063 10976 net.cpp:156] Memory required for data: 168592416
I0403 14:41:02.075083 10976 layer_factory.hpp:77] Creating layer pool1/3x3_s2
I0403 14:41:02.075126 10976 net.cpp:91] Creating Layer pool1/3x3_s2
I0403 14:41:02.075153 10976 net.cpp:425] pool1/3x3_s2 <- conv1/7x7_s2
I0403 14:41:02.075178 10976 net.cpp:399] pool1/3x3_s2 -> pool1/3x3_s2
I0403 14:41:02.075278 10976 net.cpp:141] Setting up pool1/3x3_s2
I0403 14:41:02.075307 10976 net.cpp:148] Top shape: 24 64 56 56 (4816896)
I0403 14:41:02.075325 10976 net.cpp:156] Memory required for data: 187860000
I0403 14:41:02.075342 10976 layer_factory.hpp:77] Creating layer pool1/norm1
I0403 14:41:02.075372 10976 net.cpp:91] Creating Layer pool1/norm1
I0403 14:41:02.075394 10976 net.cpp:425] pool1/norm1 <- pool1/3x3_s2
I0403 14:41:02.075417 10976 net.cpp:399] pool1/norm1 -> pool1/norm1
I0403 14:41:02.075767 10976 net.cpp:141] Setting up pool1/norm1
I0403 14:41:02.075800 10976 net.cpp:148] Top shape: 24 64 56 56 (4816896)
I0403 14:41:02.075819 10976 net.cpp:156] Memory required for data: 207127584
I0403 14:41:02.075836 10976 layer_factory.hpp:77] Creating layer conv2/3x3_reduce
I0403 14:41:02.075867 10976 net.cpp:91] Creating Layer conv2/3x3_reduce
I0403 14:41:02.075887 10976 net.cpp:425] conv2/3x3_reduce <- pool1/norm1
I0403 14:41:02.075911 10976 net.cpp:399] conv2/3x3_reduce -> conv2/3x3_reduce
I0403 14:41:02.077514 10976 net.cpp:141] Setting up conv2/3x3_reduce
I0403 14:41:02.077550 10976 net.cpp:148] Top shape: 24 64 56 56 (4816896)
I0403 14:41:02.077569 10976 net.cpp:156] Memory required for data: 226395168
I0403 14:41:02.077596 10976 layer_factory.hpp:77] Creating layer conv2/relu_3x3_reduce
I0403 14:41:02.077618 10976 net.cpp:91] Creating Layer conv2/relu_3x3_reduce
I0403 14:41:02.077638 10976 net.cpp:425] conv2/relu_3x3_reduce <- conv2/3x3_reduce
I0403 14:41:02.077661 10976 net.cpp:386] conv2/relu_3x3_reduce -> conv2/3x3_reduce (in-place)
I0403 14:41:02.077960 10976 net.cpp:141] Setting up conv2/relu_3x3_reduce
I0403 14:41:02.077992 10976 net.cpp:148] Top shape: 24 64 56 56 (4816896)
I0403 14:41:02.078011 10976 net.cpp:156] Memory required for data: 245662752
I0403 14:41:02.078028 10976 layer_factory.hpp:77] Creating layer conv2/3x3
I0403 14:41:02.078055 10976 net.cpp:91] Creating Layer conv2/3x3
I0403 14:41:02.078075 10976 net.cpp:425] conv2/3x3 <- conv2/3x3_reduce
I0403 14:41:02.078105 10976 net.cpp:399] conv2/3x3 -> conv2/3x3
I0403 14:41:02.080914 10976 net.cpp:141] Setting up conv2/3x3
I0403 14:41:02.080951 10976 net.cpp:148] Top shape: 24 192 56 56 (14450688)
I0403 14:41:02.080971 10976 net.cpp:156] Memory required for data: 303465504
I0403 14:41:02.080997 10976 layer_factory.hpp:77] Creating layer conv2/relu_3x3
I0403 14:41:02.081020 10976 net.cpp:91] Creating Layer conv2/relu_3x3
I0403 14:41:02.081039 10976 net.cpp:425] conv2/relu_3x3 <- conv2/3x3
I0403 14:41:02.081060 10976 net.cpp:386] conv2/relu_3x3 -> conv2/3x3 (in-place)
I0403 14:41:02.081265 10976 net.cpp:141] Setting up conv2/relu_3x3
I0403 14:41:02.081296 10976 net.cpp:148] Top shape: 24 192 56 56 (14450688)
I0403 14:41:02.081349 10976 net.cpp:156] Memory required for data: 361268256
I0403 14:41:02.081369 10976 layer_factory.hpp:77] Creating layer conv2/norm2
I0403 14:41:02.081395 10976 net.cpp:91] Creating Layer conv2/norm2
I0403 14:41:02.081415 10976 net.cpp:425] conv2/norm2 <- conv2/3x3
I0403 14:41:02.081444 10976 net.cpp:399] conv2/norm2 -> conv2/norm2
I0403 14:41:02.081797 10976 net.cpp:141] Setting up conv2/norm2
I0403 14:41:02.081830 10976 net.cpp:148] Top shape: 24 192 56 56 (14450688)
I0403 14:41:02.081848 10976 net.cpp:156] Memory required for data: 419071008
I0403 14:41:02.081867 10976 layer_factory.hpp:77] Creating layer pool2/3x3_s2
I0403 14:41:02.081890 10976 net.cpp:91] Creating Layer pool2/3x3_s2
I0403 14:41:02.081909 10976 net.cpp:425] pool2/3x3_s2 <- conv2/norm2
I0403 14:41:02.081931 10976 net.cpp:399] pool2/3x3_s2 -> pool2/3x3_s2
I0403 14:41:02.081992 10976 net.cpp:141] Setting up pool2/3x3_s2
I0403 14:41:02.082020 10976 net.cpp:148] Top shape: 24 192 28 28 (3612672)
I0403 14:41:02.082037 10976 net.cpp:156] Memory required for data: 433521696
I0403 14:41:02.082056 10976 layer_factory.hpp:77] Creating layer pool2/3x3_s2_pool2/3x3_s2_0_split
I0403 14:41:02.082077 10976 net.cpp:91] Creating Layer pool2/3x3_s2_pool2/3x3_s2_0_split
I0403 14:41:02.082113 10976 net.cpp:425] pool2/3x3_s2_pool2/3x3_s2_0_split <- pool2/3x3_s2
I0403 14:41:02.082140 10976 net.cpp:399] pool2/3x3_s2_pool2/3x3_s2_0_split -> pool2/3x3_s2_pool2/3x3_s2_0_split_0
I0403 14:41:02.082165 10976 net.cpp:399] pool2/3x3_s2_pool2/3x3_s2_0_split -> pool2/3x3_s2_pool2/3x3_s2_0_split_1
I0403 14:41:02.082190 10976 net.cpp:399] pool2/3x3_s2_pool2/3x3_s2_0_split -> pool2/3x3_s2_pool2/3x3_s2_0_split_2
I0403 14:41:02.082216 10976 net.cpp:399] pool2/3x3_s2_pool2/3x3_s2_0_split -> pool2/3x3_s2_pool2/3x3_s2_0_split_3
I0403 14:41:02.082295 10976 net.cpp:141] Setting up pool2/3x3_s2_pool2/3x3_s2_0_split
I0403 14:41:02.082322 10976 net.cpp:148] Top shape: 24 192 28 28 (3612672)
I0403 14:41:02.082342 10976 net.cpp:148] Top shape: 24 192 28 28 (3612672)
I0403 14:41:02.082360 10976 net.cpp:148] Top shape: 24 192 28 28 (3612672)
I0403 14:41:02.082381 10976 net.cpp:148] Top shape: 24 192 28 28 (3612672)
I0403 14:41:02.082397 10976 net.cpp:156] Memory required for data: 491324448
I0403 14:41:02.082415 10976 layer_factory.hpp:77] Creating layer inception_3a/1x1
I0403 14:41:02.082442 10976 net.cpp:91] Creating Layer inception_3a/1x1
I0403 14:41:02.082460 10976 net.cpp:425] inception_3a/1x1 <- pool2/3x3_s2_pool2/3x3_s2_0_split_0
I0403 14:41:02.082482 10976 net.cpp:399] inception_3a/1x1 -> inception_3a/1x1
I0403 14:41:02.084285 10976 net.cpp:141] Setting up inception_3a/1x1
I0403 14:41:02.084321 10976 net.cpp:148] Top shape: 24 64 28 28 (1204224)
I0403 14:41:02.084342 10976 net.cpp:156] Memory required for data: 496141344
I0403 14:41:02.084367 10976 layer_factory.hpp:77] Creating layer inception_3a/relu_1x1
I0403 14:41:02.084389 10976 net.cpp:91] Creating Layer inception_3a/relu_1x1
I0403 14:41:02.084408 10976 net.cpp:425] inception_3a/relu_1x1 <- inception_3a/1x1
I0403 14:41:02.084432 10976 net.cpp:386] inception_3a/relu_1x1 -> inception_3a/1x1 (in-place)
I0403 14:41:02.084651 10976 net.cpp:141] Setting up inception_3a/relu_1x1
I0403 14:41:02.084682 10976 net.cpp:148] Top shape: 24 64 28 28 (1204224)
I0403 14:41:02.084700 10976 net.cpp:156] Memory required for data: 500958240
I0403 14:41:02.084718 10976 layer_factory.hpp:77] Creating layer inception_3a/3x3_reduce
I0403 14:41:02.084746 10976 net.cpp:91] Creating Layer inception_3a/3x3_reduce
I0403 14:41:02.084769 10976 net.cpp:425] inception_3a/3x3_reduce <- pool2/3x3_s2_pool2/3x3_s2_0_split_1
I0403 14:41:02.084794 10976 net.cpp:399] inception_3a/3x3_reduce -> inception_3a/3x3_reduce
I0403 14:41:02.086830 10976 net.cpp:141] Setting up inception_3a/3x3_reduce
I0403 14:41:02.086868 10976 net.cpp:148] Top shape: 24 96 28 28 (1806336)
I0403 14:41:02.086887 10976 net.cpp:156] Memory required for data: 508183584
I0403 14:41:02.086915 10976 layer_factory.hpp:77] Creating layer inception_3a/relu_3x3_reduce
I0403 14:41:02.086966 10976 net.cpp:91] Creating Layer inception_3a/relu_3x3_reduce
I0403 14:41:02.086989 10976 net.cpp:425] inception_3a/relu_3x3_reduce <- inception_3a/3x3_reduce
I0403 14:41:02.087010 10976 net.cpp:386] inception_3a/relu_3x3_reduce -> inception_3a/3x3_reduce (in-place)
I0403 14:41:02.087242 10976 net.cpp:141] Setting up inception_3a/relu_3x3_reduce
I0403 14:41:02.087277 10976 net.cpp:148] Top shape: 24 96 28 28 (1806336)
I0403 14:41:02.087296 10976 net.cpp:156] Memory required for data: 515408928
I0403 14:41:02.087314 10976 layer_factory.hpp:77] Creating layer inception_3a/3x3
I0403 14:41:02.087342 10976 net.cpp:91] Creating Layer inception_3a/3x3
I0403 14:41:02.087363 10976 net.cpp:425] inception_3a/3x3 <- inception_3a/3x3_reduce
I0403 14:41:02.087388 10976 net.cpp:399] inception_3a/3x3 -> inception_3a/3x3
I0403 14:41:02.089431 10976 net.cpp:141] Setting up inception_3a/3x3
I0403 14:41:02.089465 10976 net.cpp:148] Top shape: 24 128 28 28 (2408448)
I0403 14:41:02.089484 10976 net.cpp:156] Memory required for data: 525042720
I0403 14:41:02.089507 10976 layer_factory.hpp:77] Creating layer inception_3a/relu_3x3
I0403 14:41:02.089532 10976 net.cpp:91] Creating Layer inception_3a/relu_3x3
I0403 14:41:02.089553 10976 net.cpp:425] inception_3a/relu_3x3 <- inception_3a/3x3
I0403 14:41:02.089576 10976 net.cpp:386] inception_3a/relu_3x3 -> inception_3a/3x3 (in-place)
I0403 14:41:02.089915 10976 net.cpp:141] Setting up inception_3a/relu_3x3
I0403 14:41:02.089947 10976 net.cpp:148] Top shape: 24 128 28 28 (2408448)
I0403 14:41:02.089967 10976 net.cpp:156] Memory required for data: 534676512
I0403 14:41:02.089984 10976 layer_factory.hpp:77] Creating layer inception_3a/5x5_reduce
I0403 14:41:02.090013 10976 net.cpp:91] Creating Layer inception_3a/5x5_reduce
I0403 14:41:02.090034 10976 net.cpp:425] inception_3a/5x5_reduce <- pool2/3x3_s2_pool2/3x3_s2_0_split_2
I0403 14:41:02.090059 10976 net.cpp:399] inception_3a/5x5_reduce -> inception_3a/5x5_reduce
I0403 14:41:02.091256 10976 net.cpp:141] Setting up inception_3a/5x5_reduce
I0403 14:41:02.091290 10976 net.cpp:148] Top shape: 24 16 28 28 (301056)
I0403 14:41:02.091310 10976 net.cpp:156] Memory required for data: 535880736
I0403 14:41:02.091332 10976 layer_factory.hpp:77] Creating layer inception_3a/relu_5x5_reduce
I0403 14:41:02.091356 10976 net.cpp:91] Creating Layer inception_3a/relu_5x5_reduce
I0403 14:41:02.091377 10976 net.cpp:425] inception_3a/relu_5x5_reduce <- inception_3a/5x5_reduce
I0403 14:41:02.091399 10976 net.cpp:386] inception_3a/relu_5x5_reduce -> inception_3a/5x5_reduce (in-place)
I0403 14:41:02.091752 10976 net.cpp:141] Setting up inception_3a/relu_5x5_reduce
I0403 14:41:02.091786 10976 net.cpp:148] Top shape: 24 16 28 28 (301056)
I0403 14:41:02.091806 10976 net.cpp:156] Memory required for data: 537084960
I0403 14:41:02.091825 10976 layer_factory.hpp:77] Creating layer inception_3a/5x5
I0403 14:41:02.091848 10976 net.cpp:91] Creating Layer inception_3a/5x5
I0403 14:41:02.091868 10976 net.cpp:425] inception_3a/5x5 <- inception_3a/5x5_reduce
I0403 14:41:02.091893 10976 net.cpp:399] inception_3a/5x5 -> inception_3a/5x5
I0403 14:41:02.093188 10976 net.cpp:141] Setting up inception_3a/5x5
I0403 14:41:02.093222 10976 net.cpp:148] Top shape: 24 32 28 28 (602112)
I0403 14:41:02.093241 10976 net.cpp:156] Memory required for data: 539493408
I0403 14:41:02.093264 10976 layer_factory.hpp:77] Creating layer inception_3a/relu_5x5
I0403 14:41:02.093288 10976 net.cpp:91] Creating Layer inception_3a/relu_5x5
I0403 14:41:02.093308 10976 net.cpp:425] inception_3a/relu_5x5 <- inception_3a/5x5
I0403 14:41:02.093330 10976 net.cpp:386] inception_3a/relu_5x5 -> inception_3a/5x5 (in-place)
I0403 14:41:02.093544 10976 net.cpp:141] Setting up inception_3a/relu_5x5
I0403 14:41:02.093575 10976 net.cpp:148] Top shape: 24 32 28 28 (602112)
I0403 14:41:02.093593 10976 net.cpp:156] Memory required for data: 541901856
I0403 14:41:02.093611 10976 layer_factory.hpp:77] Creating layer inception_3a/pool
I0403 14:41:02.093636 10976 net.cpp:91] Creating Layer inception_3a/pool
I0403 14:41:02.093683 10976 net.cpp:425] inception_3a/pool <- pool2/3x3_s2_pool2/3x3_s2_0_split_3
I0403 14:41:02.093705 10976 net.cpp:399] inception_3a/pool -> inception_3a/pool
I0403 14:41:02.093777 10976 net.cpp:141] Setting up inception_3a/pool
I0403 14:41:02.093806 10976 net.cpp:148] Top shape: 24 192 28 28 (3612672)
I0403 14:41:02.093824 10976 net.cpp:156] Memory required for data: 556352544
I0403 14:41:02.093842 10976 layer_factory.hpp:77] Creating layer inception_3a/pool_proj
I0403 14:41:02.093869 10976 net.cpp:91] Creating Layer inception_3a/pool_proj
I0403 14:41:02.093890 10976 net.cpp:425] inception_3a/pool_proj <- inception_3a/pool
I0403 14:41:02.093917 10976 net.cpp:399] inception_3a/pool_proj -> inception_3a/pool_proj
I0403 14:41:02.095073 10976 net.cpp:141] Setting up inception_3a/pool_proj
I0403 14:41:02.095116 10976 net.cpp:148] Top shape: 24 32 28 28 (602112)
I0403 14:41:02.095139 10976 net.cpp:156] Memory required for data: 558760992
I0403 14:41:02.095165 10976 layer_factory.hpp:77] Creating layer inception_3a/relu_pool_proj
I0403 14:41:02.095191 10976 net.cpp:91] Creating Layer inception_3a/relu_pool_proj
I0403 14:41:02.095212 10976 net.cpp:425] inception_3a/relu_pool_proj <- inception_3a/pool_proj
I0403 14:41:02.095234 10976 net.cpp:386] inception_3a/relu_pool_proj -> inception_3a/pool_proj (in-place)
I0403 14:41:02.095566 10976 net.cpp:141] Setting up inception_3a/relu_pool_proj
I0403 14:41:02.095598 10976 net.cpp:148] Top shape: 24 32 28 28 (602112)
I0403 14:41:02.095618 10976 net.cpp:156] Memory required for data: 561169440
I0403 14:41:02.095635 10976 layer_factory.hpp:77] Creating layer inception_3a/output
I0403 14:41:02.095657 10976 net.cpp:91] Creating Layer inception_3a/output
I0403 14:41:02.095677 10976 net.cpp:425] inception_3a/output <- inception_3a/1x1
I0403 14:41:02.095698 10976 net.cpp:425] inception_3a/output <- inception_3a/3x3
I0403 14:41:02.095722 10976 net.cpp:425] inception_3a/output <- inception_3a/5x5
I0403 14:41:02.095743 10976 net.cpp:425] inception_3a/output <- inception_3a/pool_proj
I0403 14:41:02.095763 10976 net.cpp:399] inception_3a/output -> inception_3a/output
I0403 14:41:02.095819 10976 net.cpp:141] Setting up inception_3a/output
I0403 14:41:02.095851 10976 net.cpp:148] Top shape: 24 256 28 28 (4816896)
I0403 14:41:02.095871 10976 net.cpp:156] Memory required for data: 580437024
I0403 14:41:02.095890 10976 layer_factory.hpp:77] Creating layer inception_3a/output_inception_3a/output_0_split
I0403 14:41:02.095912 10976 net.cpp:91] Creating Layer inception_3a/output_inception_3a/output_0_split
I0403 14:41:02.095932 10976 net.cpp:425] inception_3a/output_inception_3a/output_0_split <- inception_3a/output
I0403 14:41:02.095954 10976 net.cpp:399] inception_3a/output_inception_3a/output_0_split -> inception_3a/output_inception_3a/output_0_split_0
I0403 14:41:02.095979 10976 net.cpp:399] inception_3a/output_inception_3a/output_0_split -> inception_3a/output_inception_3a/output_0_split_1
I0403 14:41:02.096009 10976 net.cpp:399] inception_3a/output_inception_3a/output_0_split -> inception_3a/output_inception_3a/output_0_split_2
I0403 14:41:02.096035 10976 net.cpp:399] inception_3a/output_inception_3a/output_0_split -> inception_3a/output_inception_3a/output_0_split_3
I0403 14:41:02.096130 10976 net.cpp:141] Setting up inception_3a/output_inception_3a/output_0_split
I0403 14:41:02.096158 10976 net.cpp:148] Top shape: 24 256 28 28 (4816896)
I0403 14:41:02.096179 10976 net.cpp:148] Top shape: 24 256 28 28 (4816896)
I0403 14:41:02.096199 10976 net.cpp:148] Top shape: 24 256 28 28 (4816896)
I0403 14:41:02.096218 10976 net.cpp:148] Top shape: 24 256 28 28 (4816896)
I0403 14:41:02.096235 10976 net.cpp:156] Memory required for data: 657507360
I0403 14:41:02.096252 10976 layer_factory.hpp:77] Creating layer inception_3b/1x1
I0403 14:41:02.096282 10976 net.cpp:91] Creating Layer inception_3b/1x1
I0403 14:41:02.096303 10976 net.cpp:425] inception_3b/1x1 <- inception_3a/output_inception_3a/output_0_split_0
I0403 14:41:02.096333 10976 net.cpp:399] inception_3b/1x1 -> inception_3b/1x1
I0403 14:41:02.097725 10976 net.cpp:141] Setting up inception_3b/1x1
I0403 14:41:02.097774 10976 net.cpp:148] Top shape: 24 128 28 28 (2408448)
I0403 14:41:02.097793 10976 net.cpp:156] Memory required for data: 667141152
I0403 14:41:02.097815 10976 layer_factory.hpp:77] Creating layer inception_3b/relu_1x1
I0403 14:41:02.097838 10976 net.cpp:91] Creating Layer inception_3b/relu_1x1
I0403 14:41:02.097857 10976 net.cpp:425] inception_3b/relu_1x1 <- inception_3b/1x1
I0403 14:41:02.097882 10976 net.cpp:386] inception_3b/relu_1x1 -> inception_3b/1x1 (in-place)
I0403 14:41:02.098104 10976 net.cpp:141] Setting up inception_3b/relu_1x1
I0403 14:41:02.098135 10976 net.cpp:148] Top shape: 24 128 28 28 (2408448)
I0403 14:41:02.098155 10976 net.cpp:156] Memory required for data: 676774944
I0403 14:41:02.098171 10976 layer_factory.hpp:77] Creating layer inception_3b/3x3_reduce
I0403 14:41:02.098199 10976 net.cpp:91] Creating Layer inception_3b/3x3_reduce
I0403 14:41:02.098222 10976 net.cpp:425] inception_3b/3x3_reduce <- inception_3a/output_inception_3a/output_0_split_1
I0403 14:41:02.098247 10976 net.cpp:399] inception_3b/3x3_reduce -> inception_3b/3x3_reduce
I0403 14:41:02.099633 10976 net.cpp:141] Setting up inception_3b/3x3_reduce
I0403 14:41:02.099671 10976 net.cpp:148] Top shape: 24 128 28 28 (2408448)
I0403 14:41:02.099691 10976 net.cpp:156] Memory required for data: 686408736
I0403 14:41:02.099714 10976 layer_factory.hpp:77] Creating layer inception_3b/relu_3x3_reduce
I0403 14:41:02.099736 10976 net.cpp:91] Creating Layer inception_3b/relu_3x3_reduce
I0403 14:41:02.099757 10976 net.cpp:425] inception_3b/relu_3x3_reduce <- inception_3b/3x3_reduce
I0403 14:41:02.099781 10976 net.cpp:386] inception_3b/relu_3x3_reduce -> inception_3b/3x3_reduce (in-place)
I0403 14:41:02.099992 10976 net.cpp:141] Setting up inception_3b/relu_3x3_reduce
I0403 14:41:02.100023 10976 net.cpp:148] Top shape: 24 128 28 28 (2408448)
I0403 14:41:02.100044 10976 net.cpp:156] Memory required for data: 696042528
I0403 14:41:02.100061 10976 layer_factory.hpp:77] Creating layer inception_3b/3x3
I0403 14:41:02.100100 10976 net.cpp:91] Creating Layer inception_3b/3x3
I0403 14:41:02.100124 10976 net.cpp:425] inception_3b/3x3 <- inception_3b/3x3_reduce
I0403 14:41:02.100147 10976 net.cpp:399] inception_3b/3x3 -> inception_3b/3x3
I0403 14:41:02.103713 10976 net.cpp:141] Setting up inception_3b/3x3
I0403 14:41:02.103752 10976 net.cpp:148] Top shape: 24 192 28 28 (3612672)
I0403 14:41:02.103772 10976 net.cpp:156] Memory required for data: 710493216
I0403 14:41:02.103796 10976 layer_factory.hpp:77] Creating layer inception_3b/relu_3x3
I0403 14:41:02.103822 10976 net.cpp:91] Creating Layer inception_3b/relu_3x3
I0403 14:41:02.103844 10976 net.cpp:425] inception_3b/relu_3x3 <- inception_3b/3x3
I0403 14:41:02.103865 10976 net.cpp:386] inception_3b/relu_3x3 -> inception_3b/3x3 (in-place)
I0403 14:41:02.104215 10976 net.cpp:141] Setting up inception_3b/relu_3x3
I0403 14:41:02.104248 10976 net.cpp:148] Top shape: 24 192 28 28 (3612672)
I0403 14:41:02.104266 10976 net.cpp:156] Memory required for data: 724943904
I0403 14:41:02.104285 10976 layer_factory.hpp:77] Creating layer inception_3b/5x5_reduce
I0403 14:41:02.104311 10976 net.cpp:91] Creating Layer inception_3b/5x5_reduce
I0403 14:41:02.104332 10976 net.cpp:425] inception_3b/5x5_reduce <- inception_3a/output_inception_3a/output_0_split_2
I0403 14:41:02.104359 10976 net.cpp:399] inception_3b/5x5_reduce -> inception_3b/5x5_reduce
I0403 14:41:02.105584 10976 net.cpp:141] Setting up inception_3b/5x5_reduce
I0403 14:41:02.105620 10976 net.cpp:148] Top shape: 24 32 28 28 (602112)
I0403 14:41:02.105640 10976 net.cpp:156] Memory required for data: 727352352
I0403 14:41:02.105662 10976 layer_factory.hpp:77] Creating layer inception_3b/relu_5x5_reduce
I0403 14:41:02.105687 10976 net.cpp:91] Creating Layer inception_3b/relu_5x5_reduce
I0403 14:41:02.105710 10976 net.cpp:425] inception_3b/relu_5x5_reduce <- inception_3b/5x5_reduce
I0403 14:41:02.105729 10976 net.cpp:386] inception_3b/relu_5x5_reduce -> inception_3b/5x5_reduce (in-place)
I0403 14:41:02.105970 10976 net.cpp:141] Setting up inception_3b/relu_5x5_reduce
I0403 14:41:02.106003 10976 net.cpp:148] Top shape: 24 32 28 28 (602112)
I0403 14:41:02.106020 10976 net.cpp:156] Memory required for data: 729760800
I0403 14:41:02.106037 10976 layer_factory.hpp:77] Creating layer inception_3b/5x5
I0403 14:41:02.106066 10976 net.cpp:91] Creating Layer inception_3b/5x5
I0403 14:41:02.106091 10976 net.cpp:425] inception_3b/5x5 <- inception_3b/5x5_reduce
I0403 14:41:02.106122 10976 net.cpp:399] inception_3b/5x5 -> inception_3b/5x5
I0403 14:41:02.108497 10976 net.cpp:141] Setting up inception_3b/5x5
I0403 14:41:02.108537 10976 net.cpp:148] Top shape: 24 96 28 28 (1806336)
I0403 14:41:02.108557 10976 net.cpp:156] Memory required for data: 736986144
I0403 14:41:02.108580 10976 layer_factory.hpp:77] Creating layer inception_3b/relu_5x5
I0403 14:41:02.108603 10976 net.cpp:91] Creating Layer inception_3b/relu_5x5
I0403 14:41:02.108623 10976 net.cpp:425] inception_3b/relu_5x5 <- inception_3b/5x5
I0403 14:41:02.108647 10976 net.cpp:386] inception_3b/relu_5x5 -> inception_3b/5x5 (in-place)
I0403 14:41:02.108885 10976 net.cpp:141] Setting up inception_3b/relu_5x5
I0403 14:41:02.108916 10976 net.cpp:148] Top shape: 24 96 28 28 (1806336)
I0403 14:41:02.108934 10976 net.cpp:156] Memory required for data: 744211488
I0403 14:41:02.108952 10976 layer_factory.hpp:77] Creating layer inception_3b/pool
I0403 14:41:02.108975 10976 net.cpp:91] Creating Layer inception_3b/pool
I0403 14:41:02.108994 10976 net.cpp:425] inception_3b/pool <- inception_3a/output_inception_3a/output_0_split_3
I0403 14:41:02.109016 10976 net.cpp:399] inception_3b/pool -> inception_3b/pool
I0403 14:41:02.109086 10976 net.cpp:141] Setting up inception_3b/pool
I0403 14:41:02.109119 10976 net.cpp:148] Top shape: 24 256 28 28 (4816896)
I0403 14:41:02.109138 10976 net.cpp:156] Memory required for data: 763479072
I0403 14:41:02.109155 10976 layer_factory.hpp:77] Creating layer inception_3b/pool_proj
I0403 14:41:02.109184 10976 net.cpp:91] Creating Layer inception_3b/pool_proj
I0403 14:41:02.109207 10976 net.cpp:425] inception_3b/pool_proj <- inception_3b/pool
I0403 14:41:02.109230 10976 net.cpp:399] inception_3b/pool_proj -> inception_3b/pool_proj
I0403 14:41:02.110519 10976 net.cpp:141] Setting up inception_3b/pool_proj
I0403 14:41:02.110554 10976 net.cpp:148] Top shape: 24 64 28 28 (1204224)
I0403 14:41:02.110572 10976 net.cpp:156] Memory required for data: 768295968
I0403 14:41:02.110594 10976 layer_factory.hpp:77] Creating layer inception_3b/relu_pool_proj
I0403 14:41:02.110620 10976 net.cpp:91] Creating Layer inception_3b/relu_pool_proj
I0403 14:41:02.110641 10976 net.cpp:425] inception_3b/relu_pool_proj <- inception_3b/pool_proj
I0403 14:41:02.110662 10976 net.cpp:386] inception_3b/relu_pool_proj -> inception_3b/pool_proj (in-place)
I0403 14:41:02.111140 10976 net.cpp:141] Setting up inception_3b/relu_pool_proj
I0403 14:41:02.111174 10976 net.cpp:148] Top shape: 24 64 28 28 (1204224)
I0403 14:41:02.111196 10976 net.cpp:156] Memory required for data: 773112864
I0403 14:41:02.111215 10976 layer_factory.hpp:77] Creating layer inception_3b/output
I0403 14:41:02.111240 10976 net.cpp:91] Creating Layer inception_3b/output
I0403 14:41:02.111261 10976 net.cpp:425] inception_3b/output <- inception_3b/1x1
I0403 14:41:02.111281 10976 net.cpp:425] inception_3b/output <- inception_3b/3x3
I0403 14:41:02.111301 10976 net.cpp:425] inception_3b/output <- inception_3b/5x5
I0403 14:41:02.111321 10976 net.cpp:425] inception_3b/output <- inception_3b/pool_proj
I0403 14:41:02.111341 10976 net.cpp:399] inception_3b/output -> inception_3b/output
I0403 14:41:02.111398 10976 net.cpp:141] Setting up inception_3b/output
I0403 14:41:02.111428 10976 net.cpp:148] Top shape: 24 480 28 28 (9031680)
I0403 14:41:02.111444 10976 net.cpp:156] Memory required for data: 809239584
I0403 14:41:02.111464 10976 layer_factory.hpp:77] Creating layer pool3/3x3_s2
I0403 14:41:02.111485 10976 net.cpp:91] Creating Layer pool3/3x3_s2
I0403 14:41:02.111505 10976 net.cpp:425] pool3/3x3_s2 <- inception_3b/output
I0403 14:41:02.111552 10976 net.cpp:399] pool3/3x3_s2 -> pool3/3x3_s2
I0403 14:41:02.111624 10976 net.cpp:141] Setting up pool3/3x3_s2
I0403 14:41:02.111656 10976 net.cpp:148] Top shape: 24 480 14 14 (2257920)
I0403 14:41:02.111675 10976 net.cpp:156] Memory required for data: 818271264
I0403 14:41:02.111692 10976 layer_factory.hpp:77] Creating layer pool3/3x3_s2_pool3/3x3_s2_0_split
I0403 14:41:02.111714 10976 net.cpp:91] Creating Layer pool3/3x3_s2_pool3/3x3_s2_0_split
I0403 14:41:02.111732 10976 net.cpp:425] pool3/3x3_s2_pool3/3x3_s2_0_split <- pool3/3x3_s2
I0403 14:41:02.111753 10976 net.cpp:399] pool3/3x3_s2_pool3/3x3_s2_0_split -> pool3/3x3_s2_pool3/3x3_s2_0_split_0
I0403 14:41:02.111779 10976 net.cpp:399] pool3/3x3_s2_pool3/3x3_s2_0_split -> pool3/3x3_s2_pool3/3x3_s2_0_split_1
I0403 14:41:02.111804 10976 net.cpp:399] pool3/3x3_s2_pool3/3x3_s2_0_split -> pool3/3x3_s2_pool3/3x3_s2_0_split_2
I0403 14:41:02.111827 10976 net.cpp:399] pool3/3x3_s2_pool3/3x3_s2_0_split -> pool3/3x3_s2_pool3/3x3_s2_0_split_3
I0403 14:41:02.111920 10976 net.cpp:141] Setting up pool3/3x3_s2_pool3/3x3_s2_0_split
I0403 14:41:02.111949 10976 net.cpp:148] Top shape: 24 480 14 14 (2257920)
I0403 14:41:02.111969 10976 net.cpp:148] Top shape: 24 480 14 14 (2257920)
I0403 14:41:02.111989 10976 net.cpp:148] Top shape: 24 480 14 14 (2257920)
I0403 14:41:02.112006 10976 net.cpp:148] Top shape: 24 480 14 14 (2257920)
I0403 14:41:02.112023 10976 net.cpp:156] Memory required for data: 854397984
I0403 14:41:02.112040 10976 layer_factory.hpp:77] Creating layer inception_4a/1x1
I0403 14:41:02.112069 10976 net.cpp:91] Creating Layer inception_4a/1x1
I0403 14:41:02.112090 10976 net.cpp:425] inception_4a/1x1 <- pool3/3x3_s2_pool3/3x3_s2_0_split_0
I0403 14:41:02.112120 10976 net.cpp:399] inception_4a/1x1 -> inception_4a/1x1
I0403 14:41:02.114038 10976 net.cpp:141] Setting up inception_4a/1x1
I0403 14:41:02.114075 10976 net.cpp:148] Top shape: 24 192 14 14 (903168)
I0403 14:41:02.114102 10976 net.cpp:156] Memory required for data: 858010656
I0403 14:41:02.114131 10976 layer_factory.hpp:77] Creating layer inception_4a/relu_1x1
I0403 14:41:02.114156 10976 net.cpp:91] Creating Layer inception_4a/relu_1x1
I0403 14:41:02.114177 10976 net.cpp:425] inception_4a/relu_1x1 <- inception_4a/1x1
I0403 14:41:02.114202 10976 net.cpp:386] inception_4a/relu_1x1 -> inception_4a/1x1 (in-place)
I0403 14:41:02.114425 10976 net.cpp:141] Setting up inception_4a/relu_1x1
I0403 14:41:02.114456 10976 net.cpp:148] Top shape: 24 192 14 14 (903168)
I0403 14:41:02.114475 10976 net.cpp:156] Memory required for data: 861623328
I0403 14:41:02.114493 10976 layer_factory.hpp:77] Creating layer inception_4a/3x3_reduce
I0403 14:41:02.114521 10976 net.cpp:91] Creating Layer inception_4a/3x3_reduce
I0403 14:41:02.114543 10976 net.cpp:425] inception_4a/3x3_reduce <- pool3/3x3_s2_pool3/3x3_s2_0_split_1
I0403 14:41:02.114569 10976 net.cpp:399] inception_4a/3x3_reduce -> inception_4a/3x3_reduce
I0403 14:41:02.116137 10976 net.cpp:141] Setting up inception_4a/3x3_reduce
I0403 14:41:02.116174 10976 net.cpp:148] Top shape: 24 96 14 14 (451584)
I0403 14:41:02.116197 10976 net.cpp:156] Memory required for data: 863429664
I0403 14:41:02.116228 10976 layer_factory.hpp:77] Creating layer inception_4a/relu_3x3_reduce
I0403 14:41:02.116256 10976 net.cpp:91] Creating Layer inception_4a/relu_3x3_reduce
I0403 14:41:02.116277 10976 net.cpp:425] inception_4a/relu_3x3_reduce <- inception_4a/3x3_reduce
I0403 14:41:02.116300 10976 net.cpp:386] inception_4a/relu_3x3_reduce -> inception_4a/3x3_reduce (in-place)
I0403 14:41:02.116518 10976 net.cpp:141] Setting up inception_4a/relu_3x3_reduce
I0403 14:41:02.116551 10976 net.cpp:148] Top shape: 24 96 14 14 (451584)
I0403 14:41:02.116570 10976 net.cpp:156] Memory required for data: 865236000
I0403 14:41:02.116587 10976 layer_factory.hpp:77] Creating layer inception_4a/3x3
I0403 14:41:02.116616 10976 net.cpp:91] Creating Layer inception_4a/3x3
I0403 14:41:02.116637 10976 net.cpp:425] inception_4a/3x3 <- inception_4a/3x3_reduce
I0403 14:41:02.116662 10976 net.cpp:399] inception_4a/3x3 -> inception_4a/3x3
I0403 14:41:02.119959 10976 net.cpp:141] Setting up inception_4a/3x3
I0403 14:41:02.120002 10976 net.cpp:148] Top shape: 24 208 14 14 (978432)
I0403 14:41:02.120023 10976 net.cpp:156] Memory required for data: 869149728
I0403 14:41:02.120044 10976 layer_factory.hpp:77] Creating layer inception_4a/relu_3x3
I0403 14:41:02.120066 10976 net.cpp:91] Creating Layer inception_4a/relu_3x3
I0403 14:41:02.120085 10976 net.cpp:425] inception_4a/relu_3x3 <- inception_4a/3x3
I0403 14:41:02.120118 10976 net.cpp:386] inception_4a/relu_3x3 -> inception_4a/3x3 (in-place)
I0403 14:41:02.120461 10976 net.cpp:141] Setting up inception_4a/relu_3x3
I0403 14:41:02.120496 10976 net.cpp:148] Top shape: 24 208 14 14 (978432)
I0403 14:41:02.120517 10976 net.cpp:156] Memory required for data: 873063456
I0403 14:41:02.120535 10976 layer_factory.hpp:77] Creating layer inception_4a/5x5_reduce
I0403 14:41:02.120564 10976 net.cpp:91] Creating Layer inception_4a/5x5_reduce
I0403 14:41:02.120586 10976 net.cpp:425] inception_4a/5x5_reduce <- pool3/3x3_s2_pool3/3x3_s2_0_split_2
I0403 14:41:02.120612 10976 net.cpp:399] inception_4a/5x5_reduce -> inception_4a/5x5_reduce
I0403 14:41:02.121877 10976 net.cpp:141] Setting up inception_4a/5x5_reduce
I0403 14:41:02.121912 10976 net.cpp:148] Top shape: 24 16 14 14 (75264)
I0403 14:41:02.121930 10976 net.cpp:156] Memory required for data: 873364512
I0403 14:41:02.121953 10976 layer_factory.hpp:77] Creating layer inception_4a/relu_5x5_reduce
I0403 14:41:02.121978 10976 net.cpp:91] Creating Layer inception_4a/relu_5x5_reduce
I0403 14:41:02.121999 10976 net.cpp:425] inception_4a/relu_5x5_reduce <- inception_4a/5x5_reduce
I0403 14:41:02.122021 10976 net.cpp:386] inception_4a/relu_5x5_reduce -> inception_4a/5x5_reduce (in-place)
I0403 14:41:02.122246 10976 net.cpp:141] Setting up inception_4a/relu_5x5_reduce
I0403 14:41:02.122277 10976 net.cpp:148] Top shape: 24 16 14 14 (75264)
I0403 14:41:02.122297 10976 net.cpp:156] Memory required for data: 873665568
I0403 14:41:02.122313 10976 layer_factory.hpp:77] Creating layer inception_4a/5x5
I0403 14:41:02.122341 10976 net.cpp:91] Creating Layer inception_4a/5x5
I0403 14:41:02.122364 10976 net.cpp:425] inception_4a/5x5 <- inception_4a/5x5_reduce
I0403 14:41:02.122390 10976 net.cpp:399] inception_4a/5x5 -> inception_4a/5x5
I0403 14:41:02.123739 10976 net.cpp:141] Setting up inception_4a/5x5
I0403 14:41:02.123775 10976 net.cpp:148] Top shape: 24 48 14 14 (225792)
I0403 14:41:02.123795 10976 net.cpp:156] Memory required for data: 874568736
I0403 14:41:02.123818 10976 layer_factory.hpp:77] Creating layer inception_4a/relu_5x5
I0403 14:41:02.123843 10976 net.cpp:91] Creating Layer inception_4a/relu_5x5
I0403 14:41:02.123864 10976 net.cpp:425] inception_4a/relu_5x5 <- inception_4a/5x5
I0403 14:41:02.123886 10976 net.cpp:386] inception_4a/relu_5x5 -> inception_4a/5x5 (in-place)
I0403 14:41:02.124117 10976 net.cpp:141] Setting up inception_4a/relu_5x5
I0403 14:41:02.124153 10976 net.cpp:148] Top shape: 24 48 14 14 (225792)
I0403 14:41:02.124174 10976 net.cpp:156] Memory required for data: 875471904
I0403 14:41:02.124194 10976 layer_factory.hpp:77] Creating layer inception_4a/pool
I0403 14:41:02.124217 10976 net.cpp:91] Creating Layer inception_4a/pool
I0403 14:41:02.124235 10976 net.cpp:425] inception_4a/pool <- pool3/3x3_s2_pool3/3x3_s2_0_split_3
I0403 14:41:02.124259 10976 net.cpp:399] inception_4a/pool -> inception_4a/pool
I0403 14:41:02.124336 10976 net.cpp:141] Setting up inception_4a/pool
I0403 14:41:02.124366 10976 net.cpp:148] Top shape: 24 480 14 14 (2257920)
I0403 14:41:02.124383 10976 net.cpp:156] Memory required for data: 884503584
I0403 14:41:02.124402 10976 layer_factory.hpp:77] Creating layer inception_4a/pool_proj
I0403 14:41:02.124428 10976 net.cpp:91] Creating Layer inception_4a/pool_proj
I0403 14:41:02.124449 10976 net.cpp:425] inception_4a/pool_proj <- inception_4a/pool
I0403 14:41:02.124475 10976 net.cpp:399] inception_4a/pool_proj -> inception_4a/pool_proj
I0403 14:41:02.125900 10976 net.cpp:141] Setting up inception_4a/pool_proj
I0403 14:41:02.125939 10976 net.cpp:148] Top shape: 24 64 14 14 (301056)
I0403 14:41:02.125985 10976 net.cpp:156] Memory required for data: 885707808
I0403 14:41:02.126010 10976 layer_factory.hpp:77] Creating layer inception_4a/relu_pool_proj
I0403 14:41:02.126034 10976 net.cpp:91] Creating Layer inception_4a/relu_pool_proj
I0403 14:41:02.126055 10976 net.cpp:425] inception_4a/relu_pool_proj <- inception_4a/pool_proj
I0403 14:41:02.126075 10976 net.cpp:386] inception_4a/relu_pool_proj -> inception_4a/pool_proj (in-place)
I0403 14:41:02.126420 10976 net.cpp:141] Setting up inception_4a/relu_pool_proj
I0403 14:41:02.126456 10976 net.cpp:148] Top shape: 24 64 14 14 (301056)
I0403 14:41:02.126477 10976 net.cpp:156] Memory required for data: 886912032
I0403 14:41:02.126494 10976 layer_factory.hpp:77] Creating layer inception_4a/output
I0403 14:41:02.126516 10976 net.cpp:91] Creating Layer inception_4a/output
I0403 14:41:02.126535 10976 net.cpp:425] inception_4a/output <- inception_4a/1x1
I0403 14:41:02.126555 10976 net.cpp:425] inception_4a/output <- inception_4a/3x3
I0403 14:41:02.126574 10976 net.cpp:425] inception_4a/output <- inception_4a/5x5
I0403 14:41:02.126593 10976 net.cpp:425] inception_4a/output <- inception_4a/pool_proj
I0403 14:41:02.126612 10976 net.cpp:399] inception_4a/output -> inception_4a/output
I0403 14:41:02.126670 10976 net.cpp:141] Setting up inception_4a/output
I0403 14:41:02.126699 10976 net.cpp:148] Top shape: 24 512 14 14 (2408448)
I0403 14:41:02.126718 10976 net.cpp:156] Memory required for data: 896545824
I0403 14:41:02.126735 10976 layer_factory.hpp:77] Creating layer inception_4a/output_inception_4a/output_0_split
I0403 14:41:02.126760 10976 net.cpp:91] Creating Layer inception_4a/output_inception_4a/output_0_split
I0403 14:41:02.126781 10976 net.cpp:425] inception_4a/output_inception_4a/output_0_split <- inception_4a/output
I0403 14:41:02.126802 10976 net.cpp:399] inception_4a/output_inception_4a/output_0_split -> inception_4a/output_inception_4a/output_0_split_0
I0403 14:41:02.126828 10976 net.cpp:399] inception_4a/output_inception_4a/output_0_split -> inception_4a/output_inception_4a/output_0_split_1
I0403 14:41:02.126853 10976 net.cpp:399] inception_4a/output_inception_4a/output_0_split -> inception_4a/output_inception_4a/output_0_split_2
I0403 14:41:02.126878 10976 net.cpp:399] inception_4a/output_inception_4a/output_0_split -> inception_4a/output_inception_4a/output_0_split_3
I0403 14:41:02.126904 10976 net.cpp:399] inception_4a/output_inception_4a/output_0_split -> inception_4a/output_inception_4a/output_0_split_4
I0403 14:41:02.127019 10976 net.cpp:141] Setting up inception_4a/output_inception_4a/output_0_split
I0403 14:41:02.127048 10976 net.cpp:148] Top shape: 24 512 14 14 (2408448)
I0403 14:41:02.127071 10976 net.cpp:148] Top shape: 24 512 14 14 (2408448)
I0403 14:41:02.127090 10976 net.cpp:148] Top shape: 24 512 14 14 (2408448)
I0403 14:41:02.127117 10976 net.cpp:148] Top shape: 24 512 14 14 (2408448)
I0403 14:41:02.127137 10976 net.cpp:148] Top shape: 24 512 14 14 (2408448)
I0403 14:41:02.127154 10976 net.cpp:156] Memory required for data: 944714784
I0403 14:41:02.127172 10976 layer_factory.hpp:77] Creating layer loss1/ave_pool
I0403 14:41:02.127193 10976 net.cpp:91] Creating Layer loss1/ave_pool
I0403 14:41:02.127213 10976 net.cpp:425] loss1/ave_pool <- inception_4a/output_inception_4a/output_0_split_0
I0403 14:41:02.127238 10976 net.cpp:399] loss1/ave_pool -> loss1/ave_pool
I0403 14:41:02.127497 10976 net.cpp:141] Setting up loss1/ave_pool
I0403 14:41:02.127532 10976 net.cpp:148] Top shape: 24 512 4 4 (196608)
I0403 14:41:02.127552 10976 net.cpp:156] Memory required for data: 945501216
I0403 14:41:02.127569 10976 layer_factory.hpp:77] Creating layer loss1/conv
I0403 14:41:02.127596 10976 net.cpp:91] Creating Layer loss1/conv
I0403 14:41:02.127617 10976 net.cpp:425] loss1/conv <- loss1/ave_pool
I0403 14:41:02.127640 10976 net.cpp:399] loss1/conv -> loss1/conv
I0403 14:41:02.129407 10976 net.cpp:141] Setting up loss1/conv
I0403 14:41:02.129442 10976 net.cpp:148] Top shape: 24 128 4 4 (49152)
I0403 14:41:02.129482 10976 net.cpp:156] Memory required for data: 945697824
I0403 14:41:02.129506 10976 layer_factory.hpp:77] Creating layer loss1/relu_conv
I0403 14:41:02.129528 10976 net.cpp:91] Creating Layer loss1/relu_conv
I0403 14:41:02.129547 10976 net.cpp:425] loss1/relu_conv <- loss1/conv
I0403 14:41:02.129572 10976 net.cpp:386] loss1/relu_conv -> loss1/conv (in-place)
I0403 14:41:02.129916 10976 net.cpp:141] Setting up loss1/relu_conv
I0403 14:41:02.129950 10976 net.cpp:148] Top shape: 24 128 4 4 (49152)
I0403 14:41:02.129968 10976 net.cpp:156] Memory required for data: 945894432
I0403 14:41:02.129987 10976 layer_factory.hpp:77] Creating layer loss1/fc
I0403 14:41:02.130017 10976 net.cpp:91] Creating Layer loss1/fc
I0403 14:41:02.130038 10976 net.cpp:425] loss1/fc <- loss1/conv
I0403 14:41:02.130064 10976 net.cpp:399] loss1/fc -> loss1/fc
I0403 14:41:02.151849 10976 net.cpp:141] Setting up loss1/fc
I0403 14:41:02.151939 10976 net.cpp:148] Top shape: 24 1024 (24576)
I0403 14:41:02.151959 10976 net.cpp:156] Memory required for data: 945992736
I0403 14:41:02.151985 10976 layer_factory.hpp:77] Creating layer loss1/relu_fc
I0403 14:41:02.152014 10976 net.cpp:91] Creating Layer loss1/relu_fc
I0403 14:41:02.152040 10976 net.cpp:425] loss1/relu_fc <- loss1/fc
I0403 14:41:02.152063 10976 net.cpp:386] loss1/relu_fc -> loss1/fc (in-place)
I0403 14:41:02.152353 10976 net.cpp:141] Setting up loss1/relu_fc
I0403 14:41:02.152384 10976 net.cpp:148] Top shape: 24 1024 (24576)
I0403 14:41:02.152402 10976 net.cpp:156] Memory required for data: 946091040
I0403 14:41:02.152420 10976 layer_factory.hpp:77] Creating layer loss1/drop_fc
I0403 14:41:02.152456 10976 net.cpp:91] Creating Layer loss1/drop_fc
I0403 14:41:02.152482 10976 net.cpp:425] loss1/drop_fc <- loss1/fc
I0403 14:41:02.152505 10976 net.cpp:386] loss1/drop_fc -> loss1/fc (in-place)
I0403 14:41:02.152572 10976 net.cpp:141] Setting up loss1/drop_fc
I0403 14:41:02.152601 10976 net.cpp:148] Top shape: 24 1024 (24576)
I0403 14:41:02.152619 10976 net.cpp:156] Memory required for data: 946189344
I0403 14:41:02.152638 10976 layer_factory.hpp:77] Creating layer loss1/classifier_plantvillage
I0403 14:41:02.152668 10976 net.cpp:91] Creating Layer loss1/classifier_plantvillage
I0403 14:41:02.152690 10976 net.cpp:425] loss1/classifier_plantvillage <- loss1/fc
I0403 14:41:02.152715 10976 net.cpp:399] loss1/classifier_plantvillage -> loss1/classifier_plantvillage
I0403 14:41:02.153884 10976 net.cpp:141] Setting up loss1/classifier_plantvillage
I0403 14:41:02.153923 10976 net.cpp:148] Top shape: 24 38 (912)
I0403 14:41:02.153944 10976 net.cpp:156] Memory required for data: 946192992
I0403 14:41:02.153966 10976 layer_factory.hpp:77] Creating layer loss1/classifier_plantvillage_loss1/classifier_plantvillage_0_split
I0403 14:41:02.153990 10976 net.cpp:91] Creating Layer loss1/classifier_plantvillage_loss1/classifier_plantvillage_0_split
I0403 14:41:02.154009 10976 net.cpp:425] loss1/classifier_plantvillage_loss1/classifier_plantvillage_0_split <- loss1/classifier_plantvillage
I0403 14:41:02.154032 10976 net.cpp:399] loss1/classifier_plantvillage_loss1/classifier_plantvillage_0_split -> loss1/classifier_plantvillage_loss1/classifier_plantvillage_0_split_0
I0403 14:41:02.154057 10976 net.cpp:399] loss1/classifier_plantvillage_loss1/classifier_plantvillage_0_split -> loss1/classifier_plantvillage_loss1/classifier_plantvillage_0_split_1
I0403 14:41:02.154083 10976 net.cpp:399] loss1/classifier_plantvillage_loss1/classifier_plantvillage_0_split -> loss1/classifier_plantvillage_loss1/classifier_plantvillage_0_split_2
I0403 14:41:02.154170 10976 net.cpp:141] Setting up loss1/classifier_plantvillage_loss1/classifier_plantvillage_0_split
I0403 14:41:02.154199 10976 net.cpp:148] Top shape: 24 38 (912)
I0403 14:41:02.154219 10976 net.cpp:148] Top shape: 24 38 (912)
I0403 14:41:02.154238 10976 net.cpp:148] Top shape: 24 38 (912)
I0403 14:41:02.154255 10976 net.cpp:156] Memory required for data: 946203936
I0403 14:41:02.154273 10976 layer_factory.hpp:77] Creating layer inception_4b/1x1
I0403 14:41:02.154304 10976 net.cpp:91] Creating Layer inception_4b/1x1
I0403 14:41:02.154361 10976 net.cpp:425] inception_4b/1x1 <- inception_4a/output_inception_4a/output_0_split_1
I0403 14:41:02.154386 10976 net.cpp:399] inception_4b/1x1 -> inception_4b/1x1
I0403 14:41:02.156488 10976 net.cpp:141] Setting up inception_4b/1x1
I0403 14:41:02.156523 10976 net.cpp:148] Top shape: 24 160 14 14 (752640)
I0403 14:41:02.156543 10976 net.cpp:156] Memory required for data: 949214496
I0403 14:41:02.156565 10976 layer_factory.hpp:77] Creating layer inception_4b/relu_1x1
I0403 14:41:02.156587 10976 net.cpp:91] Creating Layer inception_4b/relu_1x1
I0403 14:41:02.156610 10976 net.cpp:425] inception_4b/relu_1x1 <- inception_4b/1x1
I0403 14:41:02.156632 10976 net.cpp:386] inception_4b/relu_1x1 -> inception_4b/1x1 (in-place)
I0403 14:41:02.156859 10976 net.cpp:141] Setting up inception_4b/relu_1x1
I0403 14:41:02.156890 10976 net.cpp:148] Top shape: 24 160 14 14 (752640)
I0403 14:41:02.156909 10976 net.cpp:156] Memory required for data: 952225056
I0403 14:41:02.156927 10976 layer_factory.hpp:77] Creating layer inception_4b/3x3_reduce
I0403 14:41:02.156955 10976 net.cpp:91] Creating Layer inception_4b/3x3_reduce
I0403 14:41:02.156977 10976 net.cpp:425] inception_4b/3x3_reduce <- inception_4a/output_inception_4a/output_0_split_2
I0403 14:41:02.157003 10976 net.cpp:399] inception_4b/3x3_reduce -> inception_4b/3x3_reduce
I0403 14:41:02.158674 10976 net.cpp:141] Setting up inception_4b/3x3_reduce
I0403 14:41:02.158709 10976 net.cpp:148] Top shape: 24 112 14 14 (526848)
I0403 14:41:02.158727 10976 net.cpp:156] Memory required for data: 954332448
I0403 14:41:02.158751 10976 layer_factory.hpp:77] Creating layer inception_4b/relu_3x3_reduce
I0403 14:41:02.158776 10976 net.cpp:91] Creating Layer inception_4b/relu_3x3_reduce
I0403 14:41:02.158797 10976 net.cpp:425] inception_4b/relu_3x3_reduce <- inception_4b/3x3_reduce
I0403 14:41:02.158818 10976 net.cpp:386] inception_4b/relu_3x3_reduce -> inception_4b/3x3_reduce (in-place)
I0403 14:41:02.159164 10976 net.cpp:141] Setting up inception_4b/relu_3x3_reduce
I0403 14:41:02.159199 10976 net.cpp:148] Top shape: 24 112 14 14 (526848)
I0403 14:41:02.159217 10976 net.cpp:156] Memory required for data: 956439840
I0403 14:41:02.159235 10976 layer_factory.hpp:77] Creating layer inception_4b/3x3
I0403 14:41:02.159262 10976 net.cpp:91] Creating Layer inception_4b/3x3
I0403 14:41:02.159284 10976 net.cpp:425] inception_4b/3x3 <- inception_4b/3x3_reduce
I0403 14:41:02.159310 10976 net.cpp:399] inception_4b/3x3 -> inception_4b/3x3
I0403 14:41:02.162940 10976 net.cpp:141] Setting up inception_4b/3x3
I0403 14:41:02.162978 10976 net.cpp:148] Top shape: 24 224 14 14 (1053696)
I0403 14:41:02.162998 10976 net.cpp:156] Memory required for data: 960654624
I0403 14:41:02.163022 10976 layer_factory.hpp:77] Creating layer inception_4b/relu_3x3
I0403 14:41:02.163044 10976 net.cpp:91] Creating Layer inception_4b/relu_3x3
I0403 14:41:02.163065 10976 net.cpp:425] inception_4b/relu_3x3 <- inception_4b/3x3
I0403 14:41:02.163106 10976 net.cpp:386] inception_4b/relu_3x3 -> inception_4b/3x3 (in-place)
I0403 14:41:02.163336 10976 net.cpp:141] Setting up inception_4b/relu_3x3
I0403 14:41:02.163367 10976 net.cpp:148] Top shape: 24 224 14 14 (1053696)
I0403 14:41:02.163386 10976 net.cpp:156] Memory required for data: 964869408
I0403 14:41:02.163403 10976 layer_factory.hpp:77] Creating layer inception_4b/5x5_reduce
I0403 14:41:02.163430 10976 net.cpp:91] Creating Layer inception_4b/5x5_reduce
I0403 14:41:02.163452 10976 net.cpp:425] inception_4b/5x5_reduce <- inception_4a/output_inception_4a/output_0_split_3
I0403 14:41:02.163481 10976 net.cpp:399] inception_4b/5x5_reduce -> inception_4b/5x5_reduce
I0403 14:41:02.164885 10976 net.cpp:141] Setting up inception_4b/5x5_reduce
I0403 14:41:02.164921 10976 net.cpp:148] Top shape: 24 24 14 14 (112896)
I0403 14:41:02.164939 10976 net.cpp:156] Memory required for data: 965320992
I0403 14:41:02.164961 10976 layer_factory.hpp:77] Creating layer inception_4b/relu_5x5_reduce
I0403 14:41:02.164986 10976 net.cpp:91] Creating Layer inception_4b/relu_5x5_reduce
I0403 14:41:02.165036 10976 net.cpp:425] inception_4b/relu_5x5_reduce <- inception_4b/5x5_reduce
I0403 14:41:02.165060 10976 net.cpp:386] inception_4b/relu_5x5_reduce -> inception_4b/5x5_reduce (in-place)
I0403 14:41:02.165294 10976 net.cpp:141] Setting up inception_4b/relu_5x5_reduce
I0403 14:41:02.165331 10976 net.cpp:148] Top shape: 24 24 14 14 (112896)
I0403 14:41:02.165364 10976 net.cpp:156] Memory required for data: 965772576
I0403 14:41:02.165391 10976 layer_factory.hpp:77] Creating layer inception_4b/5x5
I0403 14:41:02.165417 10976 net.cpp:91] Creating Layer inception_4b/5x5
I0403 14:41:02.165442 10976 net.cpp:425] inception_4b/5x5 <- inception_4b/5x5_reduce
I0403 14:41:02.165477 10976 net.cpp:399] inception_4b/5x5 -> inception_4b/5x5
I0403 14:41:02.167007 10976 net.cpp:141] Setting up inception_4b/5x5
I0403 14:41:02.167042 10976 net.cpp:148] Top shape: 24 64 14 14 (301056)
I0403 14:41:02.167060 10976 net.cpp:156] Memory required for data: 966976800
I0403 14:41:02.167083 10976 layer_factory.hpp:77] Creating layer inception_4b/relu_5x5
I0403 14:41:02.167110 10976 net.cpp:91] Creating Layer inception_4b/relu_5x5
I0403 14:41:02.167135 10976 net.cpp:425] inception_4b/relu_5x5 <- inception_4b/5x5
I0403 14:41:02.167156 10976 net.cpp:386] inception_4b/relu_5x5 -> inception_4b/5x5 (in-place)
I0403 14:41:02.167505 10976 net.cpp:141] Setting up inception_4b/relu_5x5
I0403 14:41:02.167538 10976 net.cpp:148] Top shape: 24 64 14 14 (301056)
I0403 14:41:02.167557 10976 net.cpp:156] Memory required for data: 968181024
I0403 14:41:02.167575 10976 layer_factory.hpp:77] Creating layer inception_4b/pool
I0403 14:41:02.167598 10976 net.cpp:91] Creating Layer inception_4b/pool
I0403 14:41:02.167618 10976 net.cpp:425] inception_4b/pool <- inception_4a/output_inception_4a/output_0_split_4
I0403 14:41:02.167644 10976 net.cpp:399] inception_4b/pool -> inception_4b/pool
I0403 14:41:02.167721 10976 net.cpp:141] Setting up inception_4b/pool
I0403 14:41:02.167753 10976 net.cpp:148] Top shape: 24 512 14 14 (2408448)
I0403 14:41:02.167773 10976 net.cpp:156] Memory required for data: 977814816
I0403 14:41:02.167789 10976 layer_factory.hpp:77] Creating layer inception_4b/pool_proj
I0403 14:41:02.167816 10976 net.cpp:91] Creating Layer inception_4b/pool_proj
I0403 14:41:02.167839 10976 net.cpp:425] inception_4b/pool_proj <- inception_4b/pool
I0403 14:41:02.167861 10976 net.cpp:399] inception_4b/pool_proj -> inception_4b/pool_proj
I0403 14:41:02.169343 10976 net.cpp:141] Setting up inception_4b/pool_proj
I0403 14:41:02.169378 10976 net.cpp:148] Top shape: 24 64 14 14 (301056)
I0403 14:41:02.169397 10976 net.cpp:156] Memory required for data: 979019040
I0403 14:41:02.169420 10976 layer_factory.hpp:77] Creating layer inception_4b/relu_pool_proj
I0403 14:41:02.169445 10976 net.cpp:91] Creating Layer inception_4b/relu_pool_proj
I0403 14:41:02.169466 10976 net.cpp:425] inception_4b/relu_pool_proj <- inception_4b/pool_proj
I0403 14:41:02.169488 10976 net.cpp:386] inception_4b/relu_pool_proj -> inception_4b/pool_proj (in-place)
I0403 14:41:02.169713 10976 net.cpp:141] Setting up inception_4b/relu_pool_proj
I0403 14:41:02.169742 10976 net.cpp:148] Top shape: 24 64 14 14 (301056)
I0403 14:41:02.169760 10976 net.cpp:156] Memory required for data: 980223264
I0403 14:41:02.169778 10976 layer_factory.hpp:77] Creating layer inception_4b/output
I0403 14:41:02.169802 10976 net.cpp:91] Creating Layer inception_4b/output
I0403 14:41:02.169823 10976 net.cpp:425] inception_4b/output <- inception_4b/1x1
I0403 14:41:02.169843 10976 net.cpp:425] inception_4b/output <- inception_4b/3x3
I0403 14:41:02.169863 10976 net.cpp:425] inception_4b/output <- inception_4b/5x5
I0403 14:41:02.169883 10976 net.cpp:425] inception_4b/output <- inception_4b/pool_proj
I0403 14:41:02.169903 10976 net.cpp:399] inception_4b/output -> inception_4b/output
I0403 14:41:02.169961 10976 net.cpp:141] Setting up inception_4b/output
I0403 14:41:02.169991 10976 net.cpp:148] Top shape: 24 512 14 14 (2408448)
I0403 14:41:02.170008 10976 net.cpp:156] Memory required for data: 989857056
I0403 14:41:02.170043 10976 layer_factory.hpp:77] Creating layer inception_4b/output_inception_4b/output_0_split
I0403 14:41:02.170066 10976 net.cpp:91] Creating Layer inception_4b/output_inception_4b/output_0_split
I0403 14:41:02.170085 10976 net.cpp:425] inception_4b/output_inception_4b/output_0_split <- inception_4b/output
I0403 14:41:02.170116 10976 net.cpp:399] inception_4b/output_inception_4b/output_0_split -> inception_4b/output_inception_4b/output_0_split_0
I0403 14:41:02.170145 10976 net.cpp:399] inception_4b/output_inception_4b/output_0_split -> inception_4b/output_inception_4b/output_0_split_1
I0403 14:41:02.170171 10976 net.cpp:399] inception_4b/output_inception_4b/output_0_split -> inception_4b/output_inception_4b/output_0_split_2
I0403 14:41:02.170194 10976 net.cpp:399] inception_4b/output_inception_4b/output_0_split -> inception_4b/output_inception_4b/output_0_split_3
I0403 14:41:02.170298 10976 net.cpp:141] Setting up inception_4b/output_inception_4b/output_0_split
I0403 14:41:02.170330 10976 net.cpp:148] Top shape: 24 512 14 14 (2408448)
I0403 14:41:02.170349 10976 net.cpp:148] Top shape: 24 512 14 14 (2408448)
I0403 14:41:02.170369 10976 net.cpp:148] Top shape: 24 512 14 14 (2408448)
I0403 14:41:02.170388 10976 net.cpp:148] Top shape: 24 512 14 14 (2408448)
I0403 14:41:02.170405 10976 net.cpp:156] Memory required for data: 1028392224
I0403 14:41:02.170423 10976 layer_factory.hpp:77] Creating layer inception_4c/1x1
I0403 14:41:02.170450 10976 net.cpp:91] Creating Layer inception_4c/1x1
I0403 14:41:02.170471 10976 net.cpp:425] inception_4c/1x1 <- inception_4b/output_inception_4b/output_0_split_0
I0403 14:41:02.170495 10976 net.cpp:399] inception_4c/1x1 -> inception_4c/1x1
I0403 14:41:02.172267 10976 net.cpp:141] Setting up inception_4c/1x1
I0403 14:41:02.172302 10976 net.cpp:148] Top shape: 24 128 14 14 (602112)
I0403 14:41:02.172322 10976 net.cpp:156] Memory required for data: 1030800672
I0403 14:41:02.172344 10976 layer_factory.hpp:77] Creating layer inception_4c/relu_1x1
I0403 14:41:02.172371 10976 net.cpp:91] Creating Layer inception_4c/relu_1x1
I0403 14:41:02.172392 10976 net.cpp:425] inception_4c/relu_1x1 <- inception_4c/1x1
I0403 14:41:02.172413 10976 net.cpp:386] inception_4c/relu_1x1 -> inception_4c/1x1 (in-place)
I0403 14:41:02.172637 10976 net.cpp:141] Setting up inception_4c/relu_1x1
I0403 14:41:02.172668 10976 net.cpp:148] Top shape: 24 128 14 14 (602112)
I0403 14:41:02.172686 10976 net.cpp:156] Memory required for data: 1033209120
I0403 14:41:02.172704 10976 layer_factory.hpp:77] Creating layer inception_4c/3x3_reduce
I0403 14:41:02.172731 10976 net.cpp:91] Creating Layer inception_4c/3x3_reduce
I0403 14:41:02.172754 10976 net.cpp:425] inception_4c/3x3_reduce <- inception_4b/output_inception_4b/output_0_split_1
I0403 14:41:02.172780 10976 net.cpp:399] inception_4c/3x3_reduce -> inception_4c/3x3_reduce
I0403 14:41:02.175148 10976 net.cpp:141] Setting up inception_4c/3x3_reduce
I0403 14:41:02.175184 10976 net.cpp:148] Top shape: 24 128 14 14 (602112)
I0403 14:41:02.175205 10976 net.cpp:156] Memory required for data: 1035617568
I0403 14:41:02.175228 10976 layer_factory.hpp:77] Creating layer inception_4c/relu_3x3_reduce
I0403 14:41:02.175251 10976 net.cpp:91] Creating Layer inception_4c/relu_3x3_reduce
I0403 14:41:02.175269 10976 net.cpp:425] inception_4c/relu_3x3_reduce <- inception_4c/3x3_reduce
I0403 14:41:02.175292 10976 net.cpp:386] inception_4c/relu_3x3_reduce -> inception_4c/3x3_reduce (in-place)
I0403 14:41:02.175647 10976 net.cpp:141] Setting up inception_4c/relu_3x3_reduce
I0403 14:41:02.175680 10976 net.cpp:148] Top shape: 24 128 14 14 (602112)
I0403 14:41:02.175699 10976 net.cpp:156] Memory required for data: 1038026016
I0403 14:41:02.175719 10976 layer_factory.hpp:77] Creating layer inception_4c/3x3
I0403 14:41:02.175747 10976 net.cpp:91] Creating Layer inception_4c/3x3
I0403 14:41:02.175770 10976 net.cpp:425] inception_4c/3x3 <- inception_4c/3x3_reduce
I0403 14:41:02.175796 10976 net.cpp:399] inception_4c/3x3 -> inception_4c/3x3
I0403 14:41:02.180249 10976 net.cpp:141] Setting up inception_4c/3x3
I0403 14:41:02.180300 10976 net.cpp:148] Top shape: 24 256 14 14 (1204224)
I0403 14:41:02.180320 10976 net.cpp:156] Memory required for data: 1042842912
I0403 14:41:02.180359 10976 layer_factory.hpp:77] Creating layer inception_4c/relu_3x3
I0403 14:41:02.180388 10976 net.cpp:91] Creating Layer inception_4c/relu_3x3
I0403 14:41:02.180409 10976 net.cpp:425] inception_4c/relu_3x3 <- inception_4c/3x3
I0403 14:41:02.180431 10976 net.cpp:386] inception_4c/relu_3x3 -> inception_4c/3x3 (in-place)
I0403 14:41:02.180661 10976 net.cpp:141] Setting up inception_4c/relu_3x3
I0403 14:41:02.180691 10976 net.cpp:148] Top shape: 24 256 14 14 (1204224)
I0403 14:41:02.180711 10976 net.cpp:156] Memory required for data: 1047659808
I0403 14:41:02.180730 10976 layer_factory.hpp:77] Creating layer inception_4c/5x5_reduce
I0403 14:41:02.180759 10976 net.cpp:91] Creating Layer inception_4c/5x5_reduce
I0403 14:41:02.180781 10976 net.cpp:425] inception_4c/5x5_reduce <- inception_4b/output_inception_4b/output_0_split_2
I0403 14:41:02.180807 10976 net.cpp:399] inception_4c/5x5_reduce -> inception_4c/5x5_reduce
I0403 14:41:02.182170 10976 net.cpp:141] Setting up inception_4c/5x5_reduce
I0403 14:41:02.182205 10976 net.cpp:148] Top shape: 24 24 14 14 (112896)
I0403 14:41:02.182225 10976 net.cpp:156] Memory required for data: 1048111392
I0403 14:41:02.182247 10976 layer_factory.hpp:77] Creating layer inception_4c/relu_5x5_reduce
I0403 14:41:02.182271 10976 net.cpp:91] Creating Layer inception_4c/relu_5x5_reduce
I0403 14:41:02.182291 10976 net.cpp:425] inception_4c/relu_5x5_reduce <- inception_4c/5x5_reduce
I0403 14:41:02.182314 10976 net.cpp:386] inception_4c/relu_5x5_reduce -> inception_4c/5x5_reduce (in-place)
I0403 14:41:02.182544 10976 net.cpp:141] Setting up inception_4c/relu_5x5_reduce
I0403 14:41:02.182574 10976 net.cpp:148] Top shape: 24 24 14 14 (112896)
I0403 14:41:02.182592 10976 net.cpp:156] Memory required for data: 1048562976
I0403 14:41:02.182610 10976 layer_factory.hpp:77] Creating layer inception_4c/5x5
I0403 14:41:02.182637 10976 net.cpp:91] Creating Layer inception_4c/5x5
I0403 14:41:02.182658 10976 net.cpp:425] inception_4c/5x5 <- inception_4c/5x5_reduce
I0403 14:41:02.182683 10976 net.cpp:399] inception_4c/5x5 -> inception_4c/5x5
I0403 14:41:02.184223 10976 net.cpp:141] Setting up inception_4c/5x5
I0403 14:41:02.184257 10976 net.cpp:148] Top shape: 24 64 14 14 (301056)
I0403 14:41:02.184276 10976 net.cpp:156] Memory required for data: 1049767200
I0403 14:41:02.184298 10976 layer_factory.hpp:77] Creating layer inception_4c/relu_5x5
I0403 14:41:02.184324 10976 net.cpp:91] Creating Layer inception_4c/relu_5x5
I0403 14:41:02.184345 10976 net.cpp:425] inception_4c/relu_5x5 <- inception_4c/5x5
I0403 14:41:02.184366 10976 net.cpp:386] inception_4c/relu_5x5 -> inception_4c/5x5 (in-place)
I0403 14:41:02.184751 10976 net.cpp:141] Setting up inception_4c/relu_5x5
I0403 14:41:02.184784 10976 net.cpp:148] Top shape: 24 64 14 14 (301056)
I0403 14:41:02.184803 10976 net.cpp:156] Memory required for data: 1050971424
I0403 14:41:02.184820 10976 layer_factory.hpp:77] Creating layer inception_4c/pool
I0403 14:41:02.184845 10976 net.cpp:91] Creating Layer inception_4c/pool
I0403 14:41:02.184866 10976 net.cpp:425] inception_4c/pool <- inception_4b/output_inception_4b/output_0_split_3
I0403 14:41:02.184888 10976 net.cpp:399] inception_4c/pool -> inception_4c/pool
I0403 14:41:02.184973 10976 net.cpp:141] Setting up inception_4c/pool
I0403 14:41:02.185003 10976 net.cpp:148] Top shape: 24 512 14 14 (2408448)
I0403 14:41:02.185020 10976 net.cpp:156] Memory required for data: 1060605216
I0403 14:41:02.185039 10976 layer_factory.hpp:77] Creating layer inception_4c/pool_proj
I0403 14:41:02.185065 10976 net.cpp:91] Creating Layer inception_4c/pool_proj
I0403 14:41:02.185091 10976 net.cpp:425] inception_4c/pool_proj <- inception_4c/pool
I0403 14:41:02.185123 10976 net.cpp:399] inception_4c/pool_proj -> inception_4c/pool_proj
I0403 14:41:02.186640 10976 net.cpp:141] Setting up inception_4c/pool_proj
I0403 14:41:02.186673 10976 net.cpp:148] Top shape: 24 64 14 14 (301056)
I0403 14:41:02.186710 10976 net.cpp:156] Memory required for data: 1061809440
I0403 14:41:02.186734 10976 layer_factory.hpp:77] Creating layer inception_4c/relu_pool_proj
I0403 14:41:02.186760 10976 net.cpp:91] Creating Layer inception_4c/relu_pool_proj
I0403 14:41:02.186780 10976 net.cpp:425] inception_4c/relu_pool_proj <- inception_4c/pool_proj
I0403 14:41:02.186801 10976 net.cpp:386] inception_4c/relu_pool_proj -> inception_4c/pool_proj (in-place)
I0403 14:41:02.187028 10976 net.cpp:141] Setting up inception_4c/relu_pool_proj
I0403 14:41:02.187059 10976 net.cpp:148] Top shape: 24 64 14 14 (301056)
I0403 14:41:02.187077 10976 net.cpp:156] Memory required for data: 1063013664
I0403 14:41:02.187099 10976 layer_factory.hpp:77] Creating layer inception_4c/output
I0403 14:41:02.187126 10976 net.cpp:91] Creating Layer inception_4c/output
I0403 14:41:02.187147 10976 net.cpp:425] inception_4c/output <- inception_4c/1x1
I0403 14:41:02.187166 10976 net.cpp:425] inception_4c/output <- inception_4c/3x3
I0403 14:41:02.187186 10976 net.cpp:425] inception_4c/output <- inception_4c/5x5
I0403 14:41:02.187206 10976 net.cpp:425] inception_4c/output <- inception_4c/pool_proj
I0403 14:41:02.187225 10976 net.cpp:399] inception_4c/output -> inception_4c/output
I0403 14:41:02.187284 10976 net.cpp:141] Setting up inception_4c/output
I0403 14:41:02.187314 10976 net.cpp:148] Top shape: 24 512 14 14 (2408448)
I0403 14:41:02.187330 10976 net.cpp:156] Memory required for data: 1072647456
I0403 14:41:02.187351 10976 layer_factory.hpp:77] Creating layer inception_4c/output_inception_4c/output_0_split
I0403 14:41:02.187373 10976 net.cpp:91] Creating Layer inception_4c/output_inception_4c/output_0_split
I0403 14:41:02.187391 10976 net.cpp:425] inception_4c/output_inception_4c/output_0_split <- inception_4c/output
I0403 14:41:02.187414 10976 net.cpp:399] inception_4c/output_inception_4c/output_0_split -> inception_4c/output_inception_4c/output_0_split_0
I0403 14:41:02.187440 10976 net.cpp:399] inception_4c/output_inception_4c/output_0_split -> inception_4c/output_inception_4c/output_0_split_1
I0403 14:41:02.187465 10976 net.cpp:399] inception_4c/output_inception_4c/output_0_split -> inception_4c/output_inception_4c/output_0_split_2
I0403 14:41:02.187491 10976 net.cpp:399] inception_4c/output_inception_4c/output_0_split -> inception_4c/output_inception_4c/output_0_split_3
I0403 14:41:02.187597 10976 net.cpp:141] Setting up inception_4c/output_inception_4c/output_0_split
I0403 14:41:02.187628 10976 net.cpp:148] Top shape: 24 512 14 14 (2408448)
I0403 14:41:02.187649 10976 net.cpp:148] Top shape: 24 512 14 14 (2408448)
I0403 14:41:02.187667 10976 net.cpp:148] Top shape: 24 512 14 14 (2408448)
I0403 14:41:02.187687 10976 net.cpp:148] Top shape: 24 512 14 14 (2408448)
I0403 14:41:02.187703 10976 net.cpp:156] Memory required for data: 1111182624
I0403 14:41:02.187721 10976 layer_factory.hpp:77] Creating layer inception_4d/1x1
I0403 14:41:02.187749 10976 net.cpp:91] Creating Layer inception_4d/1x1
I0403 14:41:02.187770 10976 net.cpp:425] inception_4d/1x1 <- inception_4c/output_inception_4c/output_0_split_0
I0403 14:41:02.187793 10976 net.cpp:399] inception_4d/1x1 -> inception_4d/1x1
I0403 14:41:02.189501 10976 net.cpp:141] Setting up inception_4d/1x1
I0403 14:41:02.189538 10976 net.cpp:148] Top shape: 24 112 14 14 (526848)
I0403 14:41:02.189558 10976 net.cpp:156] Memory required for data: 1113290016
I0403 14:41:02.189580 10976 layer_factory.hpp:77] Creating layer inception_4d/relu_1x1
I0403 14:41:02.189602 10976 net.cpp:91] Creating Layer inception_4d/relu_1x1
I0403 14:41:02.189622 10976 net.cpp:425] inception_4d/relu_1x1 <- inception_4d/1x1
I0403 14:41:02.189646 10976 net.cpp:386] inception_4d/relu_1x1 -> inception_4d/1x1 (in-place)
I0403 14:41:02.189877 10976 net.cpp:141] Setting up inception_4d/relu_1x1
I0403 14:41:02.189908 10976 net.cpp:148] Top shape: 24 112 14 14 (526848)
I0403 14:41:02.189926 10976 net.cpp:156] Memory required for data: 1115397408
I0403 14:41:02.189944 10976 layer_factory.hpp:77] Creating layer inception_4d/3x3_reduce
I0403 14:41:02.189990 10976 net.cpp:91] Creating Layer inception_4d/3x3_reduce
I0403 14:41:02.190013 10976 net.cpp:425] inception_4d/3x3_reduce <- inception_4c/output_inception_4c/output_0_split_1
I0403 14:41:02.190039 10976 net.cpp:399] inception_4d/3x3_reduce -> inception_4d/3x3_reduce
I0403 14:41:02.191889 10976 net.cpp:141] Setting up inception_4d/3x3_reduce
I0403 14:41:02.191925 10976 net.cpp:148] Top shape: 24 144 14 14 (677376)
I0403 14:41:02.191946 10976 net.cpp:156] Memory required for data: 1118106912
I0403 14:41:02.191969 10976 layer_factory.hpp:77] Creating layer inception_4d/relu_3x3_reduce
I0403 14:41:02.191992 10976 net.cpp:91] Creating Layer inception_4d/relu_3x3_reduce
I0403 14:41:02.192010 10976 net.cpp:425] inception_4d/relu_3x3_reduce <- inception_4d/3x3_reduce
I0403 14:41:02.192030 10976 net.cpp:386] inception_4d/relu_3x3_reduce -> inception_4d/3x3_reduce (in-place)
I0403 14:41:02.192386 10976 net.cpp:141] Setting up inception_4d/relu_3x3_reduce
I0403 14:41:02.192422 10976 net.cpp:148] Top shape: 24 144 14 14 (677376)
I0403 14:41:02.192442 10976 net.cpp:156] Memory required for data: 1120816416
I0403 14:41:02.192461 10976 layer_factory.hpp:77] Creating layer inception_4d/3x3
I0403 14:41:02.192487 10976 net.cpp:91] Creating Layer inception_4d/3x3
I0403 14:41:02.192507 10976 net.cpp:425] inception_4d/3x3 <- inception_4d/3x3_reduce
I0403 14:41:02.192533 10976 net.cpp:399] inception_4d/3x3 -> inception_4d/3x3
I0403 14:41:02.197762 10976 net.cpp:141] Setting up inception_4d/3x3
I0403 14:41:02.197798 10976 net.cpp:148] Top shape: 24 288 14 14 (1354752)
I0403 14:41:02.197816 10976 net.cpp:156] Memory required for data: 1126235424
I0403 14:41:02.197839 10976 layer_factory.hpp:77] Creating layer inception_4d/relu_3x3
I0403 14:41:02.197861 10976 net.cpp:91] Creating Layer inception_4d/relu_3x3
I0403 14:41:02.197881 10976 net.cpp:425] inception_4d/relu_3x3 <- inception_4d/3x3
I0403 14:41:02.197906 10976 net.cpp:386] inception_4d/relu_3x3 -> inception_4d/3x3 (in-place)
I0403 14:41:02.198143 10976 net.cpp:141] Setting up inception_4d/relu_3x3
I0403 14:41:02.198174 10976 net.cpp:148] Top shape: 24 288 14 14 (1354752)
I0403 14:41:02.198195 10976 net.cpp:156] Memory required for data: 1131654432
I0403 14:41:02.198213 10976 layer_factory.hpp:77] Creating layer inception_4d/5x5_reduce
I0403 14:41:02.198240 10976 net.cpp:91] Creating Layer inception_4d/5x5_reduce
I0403 14:41:02.198262 10976 net.cpp:425] inception_4d/5x5_reduce <- inception_4c/output_inception_4c/output_0_split_2
I0403 14:41:02.198287 10976 net.cpp:399] inception_4d/5x5_reduce -> inception_4d/5x5_reduce
I0403 14:41:02.199700 10976 net.cpp:141] Setting up inception_4d/5x5_reduce
I0403 14:41:02.199738 10976 net.cpp:148] Top shape: 24 32 14 14 (150528)
I0403 14:41:02.199759 10976 net.cpp:156] Memory required for data: 1132256544
I0403 14:41:02.199780 10976 layer_factory.hpp:77] Creating layer inception_4d/relu_5x5_reduce
I0403 14:41:02.199802 10976 net.cpp:91] Creating Layer inception_4d/relu_5x5_reduce
I0403 14:41:02.199822 10976 net.cpp:425] inception_4d/relu_5x5_reduce <- inception_4d/5x5_reduce
I0403 14:41:02.199846 10976 net.cpp:386] inception_4d/relu_5x5_reduce -> inception_4d/5x5_reduce (in-place)
I0403 14:41:02.200085 10976 net.cpp:141] Setting up inception_4d/relu_5x5_reduce
I0403 14:41:02.200121 10976 net.cpp:148] Top shape: 24 32 14 14 (150528)
I0403 14:41:02.200141 10976 net.cpp:156] Memory required for data: 1132858656
I0403 14:41:02.200160 10976 layer_factory.hpp:77] Creating layer inception_4d/5x5
I0403 14:41:02.200187 10976 net.cpp:91] Creating Layer inception_4d/5x5
I0403 14:41:02.200209 10976 net.cpp:425] inception_4d/5x5 <- inception_4d/5x5_reduce
I0403 14:41:02.200235 10976 net.cpp:399] inception_4d/5x5 -> inception_4d/5x5
I0403 14:41:02.202039 10976 net.cpp:141] Setting up inception_4d/5x5
I0403 14:41:02.202075 10976 net.cpp:148] Top shape: 24 64 14 14 (301056)
I0403 14:41:02.202098 10976 net.cpp:156] Memory required for data: 1134062880
I0403 14:41:02.202123 10976 layer_factory.hpp:77] Creating layer inception_4d/relu_5x5
I0403 14:41:02.202167 10976 net.cpp:91] Creating Layer inception_4d/relu_5x5
I0403 14:41:02.202189 10976 net.cpp:425] inception_4d/relu_5x5 <- inception_4d/5x5
I0403 14:41:02.202211 10976 net.cpp:386] inception_4d/relu_5x5 -> inception_4d/5x5 (in-place)
I0403 14:41:02.202574 10976 net.cpp:141] Setting up inception_4d/relu_5x5
I0403 14:41:02.202606 10976 net.cpp:148] Top shape: 24 64 14 14 (301056)
I0403 14:41:02.202625 10976 net.cpp:156] Memory required for data: 1135267104
I0403 14:41:02.202643 10976 layer_factory.hpp:77] Creating layer inception_4d/pool
I0403 14:41:02.202667 10976 net.cpp:91] Creating Layer inception_4d/pool
I0403 14:41:02.202688 10976 net.cpp:425] inception_4d/pool <- inception_4c/output_inception_4c/output_0_split_3
I0403 14:41:02.202711 10976 net.cpp:399] inception_4d/pool -> inception_4d/pool
I0403 14:41:02.202795 10976 net.cpp:141] Setting up inception_4d/pool
I0403 14:41:02.202824 10976 net.cpp:148] Top shape: 24 512 14 14 (2408448)
I0403 14:41:02.202842 10976 net.cpp:156] Memory required for data: 1144900896
I0403 14:41:02.202860 10976 layer_factory.hpp:77] Creating layer inception_4d/pool_proj
I0403 14:41:02.202888 10976 net.cpp:91] Creating Layer inception_4d/pool_proj
I0403 14:41:02.202908 10976 net.cpp:425] inception_4d/pool_proj <- inception_4d/pool
I0403 14:41:02.202935 10976 net.cpp:399] inception_4d/pool_proj -> inception_4d/pool_proj
I0403 14:41:02.205087 10976 net.cpp:141] Setting up inception_4d/pool_proj
I0403 14:41:02.205128 10976 net.cpp:148] Top shape: 24 64 14 14 (301056)
I0403 14:41:02.205147 10976 net.cpp:156] Memory required for data: 1146105120
I0403 14:41:02.205170 10976 layer_factory.hpp:77] Creating layer inception_4d/relu_pool_proj
I0403 14:41:02.205193 10976 net.cpp:91] Creating Layer inception_4d/relu_pool_proj
I0403 14:41:02.205214 10976 net.cpp:425] inception_4d/relu_pool_proj <- inception_4d/pool_proj
I0403 14:41:02.205238 10976 net.cpp:386] inception_4d/relu_pool_proj -> inception_4d/pool_proj (in-place)
I0403 14:41:02.205471 10976 net.cpp:141] Setting up inception_4d/relu_pool_proj
I0403 14:41:02.205502 10976 net.cpp:148] Top shape: 24 64 14 14 (301056)
I0403 14:41:02.205518 10976 net.cpp:156] Memory required for data: 1147309344
I0403 14:41:02.205536 10976 layer_factory.hpp:77] Creating layer inception_4d/output
I0403 14:41:02.205557 10976 net.cpp:91] Creating Layer inception_4d/output
I0403 14:41:02.205575 10976 net.cpp:425] inception_4d/output <- inception_4d/1x1
I0403 14:41:02.205600 10976 net.cpp:425] inception_4d/output <- inception_4d/3x3
I0403 14:41:02.205618 10976 net.cpp:425] inception_4d/output <- inception_4d/5x5
I0403 14:41:02.205637 10976 net.cpp:425] inception_4d/output <- inception_4d/pool_proj
I0403 14:41:02.205658 10976 net.cpp:399] inception_4d/output -> inception_4d/output
I0403 14:41:02.205715 10976 net.cpp:141] Setting up inception_4d/output
I0403 14:41:02.205747 10976 net.cpp:148] Top shape: 24 528 14 14 (2483712)
I0403 14:41:02.205767 10976 net.cpp:156] Memory required for data: 1157244192
I0403 14:41:02.205785 10976 layer_factory.hpp:77] Creating layer inception_4d/output_inception_4d/output_0_split
I0403 14:41:02.205806 10976 net.cpp:91] Creating Layer inception_4d/output_inception_4d/output_0_split
I0403 14:41:02.205826 10976 net.cpp:425] inception_4d/output_inception_4d/output_0_split <- inception_4d/output
I0403 14:41:02.205849 10976 net.cpp:399] inception_4d/output_inception_4d/output_0_split -> inception_4d/output_inception_4d/output_0_split_0
I0403 14:41:02.205878 10976 net.cpp:399] inception_4d/output_inception_4d/output_0_split -> inception_4d/output_inception_4d/output_0_split_1
I0403 14:41:02.205904 10976 net.cpp:399] inception_4d/output_inception_4d/output_0_split -> inception_4d/output_inception_4d/output_0_split_2
I0403 14:41:02.205930 10976 net.cpp:399] inception_4d/output_inception_4d/output_0_split -> inception_4d/output_inception_4d/output_0_split_3
I0403 14:41:02.205955 10976 net.cpp:399] inception_4d/output_inception_4d/output_0_split -> inception_4d/output_inception_4d/output_0_split_4
I0403 14:41:02.206080 10976 net.cpp:141] Setting up inception_4d/output_inception_4d/output_0_split
I0403 14:41:02.206131 10976 net.cpp:148] Top shape: 24 528 14 14 (2483712)
I0403 14:41:02.206156 10976 net.cpp:148] Top shape: 24 528 14 14 (2483712)
I0403 14:41:02.206176 10976 net.cpp:148] Top shape: 24 528 14 14 (2483712)
I0403 14:41:02.206198 10976 net.cpp:148] Top shape: 24 528 14 14 (2483712)
I0403 14:41:02.206218 10976 net.cpp:148] Top shape: 24 528 14 14 (2483712)
I0403 14:41:02.206234 10976 net.cpp:156] Memory required for data: 1206918432
I0403 14:41:02.206250 10976 layer_factory.hpp:77] Creating layer loss2/ave_pool
I0403 14:41:02.206272 10976 net.cpp:91] Creating Layer loss2/ave_pool
I0403 14:41:02.206292 10976 net.cpp:425] loss2/ave_pool <- inception_4d/output_inception_4d/output_0_split_0
I0403 14:41:02.206320 10976 net.cpp:399] loss2/ave_pool -> loss2/ave_pool
I0403 14:41:02.206707 10976 net.cpp:141] Setting up loss2/ave_pool
I0403 14:41:02.206739 10976 net.cpp:148] Top shape: 24 528 4 4 (202752)
I0403 14:41:02.206758 10976 net.cpp:156] Memory required for data: 1207729440
I0403 14:41:02.206776 10976 layer_factory.hpp:77] Creating layer loss2/conv
I0403 14:41:02.206804 10976 net.cpp:91] Creating Layer loss2/conv
I0403 14:41:02.206825 10976 net.cpp:425] loss2/conv <- loss2/ave_pool
I0403 14:41:02.206851 10976 net.cpp:399] loss2/conv -> loss2/conv
I0403 14:41:02.209180 10976 net.cpp:141] Setting up loss2/conv
I0403 14:41:02.209218 10976 net.cpp:148] Top shape: 24 128 4 4 (49152)
I0403 14:41:02.209238 10976 net.cpp:156] Memory required for data: 1207926048
I0403 14:41:02.209260 10976 layer_factory.hpp:77] Creating layer loss2/relu_conv
I0403 14:41:02.209285 10976 net.cpp:91] Creating Layer loss2/relu_conv
I0403 14:41:02.209308 10976 net.cpp:425] loss2/relu_conv <- loss2/conv
I0403 14:41:02.209331 10976 net.cpp:386] loss2/relu_conv -> loss2/conv (in-place)
I0403 14:41:02.209681 10976 net.cpp:141] Setting up loss2/relu_conv
I0403 14:41:02.209713 10976 net.cpp:148] Top shape: 24 128 4 4 (49152)
I0403 14:41:02.209731 10976 net.cpp:156] Memory required for data: 1208122656
I0403 14:41:02.209750 10976 layer_factory.hpp:77] Creating layer loss2/fc
I0403 14:41:02.209777 10976 net.cpp:91] Creating Layer loss2/fc
I0403 14:41:02.209799 10976 net.cpp:425] loss2/fc <- loss2/conv
I0403 14:41:02.209822 10976 net.cpp:399] loss2/fc -> loss2/fc
I0403 14:41:02.231423 10976 net.cpp:141] Setting up loss2/fc
I0403 14:41:02.231493 10976 net.cpp:148] Top shape: 24 1024 (24576)
I0403 14:41:02.231514 10976 net.cpp:156] Memory required for data: 1208220960
I0403 14:41:02.231537 10976 layer_factory.hpp:77] Creating layer loss2/relu_fc
I0403 14:41:02.231562 10976 net.cpp:91] Creating Layer loss2/relu_fc
I0403 14:41:02.231585 10976 net.cpp:425] loss2/relu_fc <- loss2/fc
I0403 14:41:02.231611 10976 net.cpp:386] loss2/relu_fc -> loss2/fc (in-place)
I0403 14:41:02.232029 10976 net.cpp:141] Setting up loss2/relu_fc
I0403 14:41:02.232071 10976 net.cpp:148] Top shape: 24 1024 (24576)
I0403 14:41:02.232089 10976 net.cpp:156] Memory required for data: 1208319264
I0403 14:41:02.232115 10976 layer_factory.hpp:77] Creating layer loss2/drop_fc
I0403 14:41:02.232139 10976 net.cpp:91] Creating Layer loss2/drop_fc
I0403 14:41:02.232161 10976 net.cpp:425] loss2/drop_fc <- loss2/fc
I0403 14:41:02.232187 10976 net.cpp:386] loss2/drop_fc -> loss2/fc (in-place)
I0403 14:41:02.232252 10976 net.cpp:141] Setting up loss2/drop_fc
I0403 14:41:02.232280 10976 net.cpp:148] Top shape: 24 1024 (24576)
I0403 14:41:02.232298 10976 net.cpp:156] Memory required for data: 1208417568
I0403 14:41:02.232317 10976 layer_factory.hpp:77] Creating layer loss2/classifier_plantvillage
I0403 14:41:02.232344 10976 net.cpp:91] Creating Layer loss2/classifier_plantvillage
I0403 14:41:02.232367 10976 net.cpp:425] loss2/classifier_plantvillage <- loss2/fc
I0403 14:41:02.232393 10976 net.cpp:399] loss2/classifier_plantvillage -> loss2/classifier_plantvillage
I0403 14:41:02.232904 10976 net.cpp:141] Setting up loss2/classifier_plantvillage
I0403 14:41:02.232947 10976 net.cpp:148] Top shape: 24 38 (912)
I0403 14:41:02.232995 10976 net.cpp:156] Memory required for data: 1208421216
I0403 14:41:02.233018 10976 layer_factory.hpp:77] Creating layer loss2/classifier_plantvillage_loss2/classifier_plantvillage_0_split
I0403 14:41:02.233042 10976 net.cpp:91] Creating Layer loss2/classifier_plantvillage_loss2/classifier_plantvillage_0_split
I0403 14:41:02.233062 10976 net.cpp:425] loss2/classifier_plantvillage_loss2/classifier_plantvillage_0_split <- loss2/classifier_plantvillage
I0403 14:41:02.233084 10976 net.cpp:399] loss2/classifier_plantvillage_loss2/classifier_plantvillage_0_split -> loss2/classifier_plantvillage_loss2/classifier_plantvillage_0_split_0
I0403 14:41:02.233124 10976 net.cpp:399] loss2/classifier_plantvillage_loss2/classifier_plantvillage_0_split -> loss2/classifier_plantvillage_loss2/classifier_plantvillage_0_split_1
I0403 14:41:02.233152 10976 net.cpp:399] loss2/classifier_plantvillage_loss2/classifier_plantvillage_0_split -> loss2/classifier_plantvillage_loss2/classifier_plantvillage_0_split_2
I0403 14:41:02.233250 10976 net.cpp:141] Setting up loss2/classifier_plantvillage_loss2/classifier_plantvillage_0_split
I0403 14:41:02.233281 10976 net.cpp:148] Top shape: 24 38 (912)
I0403 14:41:02.233301 10976 net.cpp:148] Top shape: 24 38 (912)
I0403 14:41:02.233320 10976 net.cpp:148] Top shape: 24 38 (912)
I0403 14:41:02.233337 10976 net.cpp:156] Memory required for data: 1208432160
I0403 14:41:02.233355 10976 layer_factory.hpp:77] Creating layer inception_4e/1x1
I0403 14:41:02.233382 10976 net.cpp:91] Creating Layer inception_4e/1x1
I0403 14:41:02.233404 10976 net.cpp:425] inception_4e/1x1 <- inception_4d/output_inception_4d/output_0_split_1
I0403 14:41:02.233431 10976 net.cpp:399] inception_4e/1x1 -> inception_4e/1x1
I0403 14:41:02.235736 10976 net.cpp:141] Setting up inception_4e/1x1
I0403 14:41:02.235776 10976 net.cpp:148] Top shape: 24 256 14 14 (1204224)
I0403 14:41:02.235800 10976 net.cpp:156] Memory required for data: 1213249056
I0403 14:41:02.235823 10976 layer_factory.hpp:77] Creating layer inception_4e/relu_1x1
I0403 14:41:02.235847 10976 net.cpp:91] Creating Layer inception_4e/relu_1x1
I0403 14:41:02.235869 10976 net.cpp:425] inception_4e/relu_1x1 <- inception_4e/1x1
I0403 14:41:02.235890 10976 net.cpp:386] inception_4e/relu_1x1 -> inception_4e/1x1 (in-place)
I0403 14:41:02.236259 10976 net.cpp:141] Setting up inception_4e/relu_1x1
I0403 14:41:02.236292 10976 net.cpp:148] Top shape: 24 256 14 14 (1204224)
I0403 14:41:02.236311 10976 net.cpp:156] Memory required for data: 1218065952
I0403 14:41:02.236330 10976 layer_factory.hpp:77] Creating layer inception_4e/3x3_reduce
I0403 14:41:02.236358 10976 net.cpp:91] Creating Layer inception_4e/3x3_reduce
I0403 14:41:02.236380 10976 net.cpp:425] inception_4e/3x3_reduce <- inception_4d/output_inception_4d/output_0_split_2
I0403 14:41:02.236407 10976 net.cpp:399] inception_4e/3x3_reduce -> inception_4e/3x3_reduce
I0403 14:41:02.239246 10976 net.cpp:141] Setting up inception_4e/3x3_reduce
I0403 14:41:02.239284 10976 net.cpp:148] Top shape: 24 160 14 14 (752640)
I0403 14:41:02.239303 10976 net.cpp:156] Memory required for data: 1221076512
I0403 14:41:02.239326 10976 layer_factory.hpp:77] Creating layer inception_4e/relu_3x3_reduce
I0403 14:41:02.239351 10976 net.cpp:91] Creating Layer inception_4e/relu_3x3_reduce
I0403 14:41:02.239372 10976 net.cpp:425] inception_4e/relu_3x3_reduce <- inception_4e/3x3_reduce
I0403 14:41:02.239394 10976 net.cpp:386] inception_4e/relu_3x3_reduce -> inception_4e/3x3_reduce (in-place)
I0403 14:41:02.239627 10976 net.cpp:141] Setting up inception_4e/relu_3x3_reduce
I0403 14:41:02.239658 10976 net.cpp:148] Top shape: 24 160 14 14 (752640)
I0403 14:41:02.239676 10976 net.cpp:156] Memory required for data: 1224087072
I0403 14:41:02.239694 10976 layer_factory.hpp:77] Creating layer inception_4e/3x3
I0403 14:41:02.239722 10976 net.cpp:91] Creating Layer inception_4e/3x3
I0403 14:41:02.239744 10976 net.cpp:425] inception_4e/3x3 <- inception_4e/3x3_reduce
I0403 14:41:02.239768 10976 net.cpp:399] inception_4e/3x3 -> inception_4e/3x3
I0403 14:41:02.245931 10976 net.cpp:141] Setting up inception_4e/3x3
I0403 14:41:02.245987 10976 net.cpp:148] Top shape: 24 320 14 14 (1505280)
I0403 14:41:02.246007 10976 net.cpp:156] Memory required for data: 1230108192
I0403 14:41:02.246031 10976 layer_factory.hpp:77] Creating layer inception_4e/relu_3x3
I0403 14:41:02.246055 10976 net.cpp:91] Creating Layer inception_4e/relu_3x3
I0403 14:41:02.246078 10976 net.cpp:425] inception_4e/relu_3x3 <- inception_4e/3x3
I0403 14:41:02.246104 10976 net.cpp:386] inception_4e/relu_3x3 -> inception_4e/3x3 (in-place)
I0403 14:41:02.246479 10976 net.cpp:141] Setting up inception_4e/relu_3x3
I0403 14:41:02.246515 10976 net.cpp:148] Top shape: 24 320 14 14 (1505280)
I0403 14:41:02.246534 10976 net.cpp:156] Memory required for data: 1236129312
I0403 14:41:02.246552 10976 layer_factory.hpp:77] Creating layer inception_4e/5x5_reduce
I0403 14:41:02.246582 10976 net.cpp:91] Creating Layer inception_4e/5x5_reduce
I0403 14:41:02.246603 10976 net.cpp:425] inception_4e/5x5_reduce <- inception_4d/output_inception_4d/output_0_split_3
I0403 14:41:02.246626 10976 net.cpp:399] inception_4e/5x5_reduce -> inception_4e/5x5_reduce
I0403 14:41:02.247956 10976 net.cpp:141] Setting up inception_4e/5x5_reduce
I0403 14:41:02.247990 10976 net.cpp:148] Top shape: 24 32 14 14 (150528)
I0403 14:41:02.248009 10976 net.cpp:156] Memory required for data: 1236731424
I0403 14:41:02.248033 10976 layer_factory.hpp:77] Creating layer inception_4e/relu_5x5_reduce
I0403 14:41:02.248057 10976 net.cpp:91] Creating Layer inception_4e/relu_5x5_reduce
I0403 14:41:02.248078 10976 net.cpp:425] inception_4e/relu_5x5_reduce <- inception_4e/5x5_reduce
I0403 14:41:02.248105 10976 net.cpp:386] inception_4e/relu_5x5_reduce -> inception_4e/5x5_reduce (in-place)
I0403 14:41:02.248471 10976 net.cpp:141] Setting up inception_4e/relu_5x5_reduce
I0403 14:41:02.248504 10976 net.cpp:148] Top shape: 24 32 14 14 (150528)
I0403 14:41:02.248523 10976 net.cpp:156] Memory required for data: 1237333536
I0403 14:41:02.248541 10976 layer_factory.hpp:77] Creating layer inception_4e/5x5
I0403 14:41:02.248589 10976 net.cpp:91] Creating Layer inception_4e/5x5
I0403 14:41:02.248613 10976 net.cpp:425] inception_4e/5x5 <- inception_4e/5x5_reduce
I0403 14:41:02.248637 10976 net.cpp:399] inception_4e/5x5 -> inception_4e/5x5
I0403 14:41:02.250907 10976 net.cpp:141] Setting up inception_4e/5x5
I0403 14:41:02.250941 10976 net.cpp:148] Top shape: 24 128 14 14 (602112)
I0403 14:41:02.250962 10976 net.cpp:156] Memory required for data: 1239741984
I0403 14:41:02.250984 10976 layer_factory.hpp:77] Creating layer inception_4e/relu_5x5
I0403 14:41:02.251008 10976 net.cpp:91] Creating Layer inception_4e/relu_5x5
I0403 14:41:02.251027 10976 net.cpp:425] inception_4e/relu_5x5 <- inception_4e/5x5
I0403 14:41:02.251051 10976 net.cpp:386] inception_4e/relu_5x5 -> inception_4e/5x5 (in-place)
I0403 14:41:02.251302 10976 net.cpp:141] Setting up inception_4e/relu_5x5
I0403 14:41:02.251333 10976 net.cpp:148] Top shape: 24 128 14 14 (602112)
I0403 14:41:02.251351 10976 net.cpp:156] Memory required for data: 1242150432
I0403 14:41:02.251370 10976 layer_factory.hpp:77] Creating layer inception_4e/pool
I0403 14:41:02.251395 10976 net.cpp:91] Creating Layer inception_4e/pool
I0403 14:41:02.251416 10976 net.cpp:425] inception_4e/pool <- inception_4d/output_inception_4d/output_0_split_4
I0403 14:41:02.251438 10976 net.cpp:399] inception_4e/pool -> inception_4e/pool
I0403 14:41:02.251526 10976 net.cpp:141] Setting up inception_4e/pool
I0403 14:41:02.251557 10976 net.cpp:148] Top shape: 24 528 14 14 (2483712)
I0403 14:41:02.251575 10976 net.cpp:156] Memory required for data: 1252085280
I0403 14:41:02.251592 10976 layer_factory.hpp:77] Creating layer inception_4e/pool_proj
I0403 14:41:02.251621 10976 net.cpp:91] Creating Layer inception_4e/pool_proj
I0403 14:41:02.251641 10976 net.cpp:425] inception_4e/pool_proj <- inception_4e/pool
I0403 14:41:02.251667 10976 net.cpp:399] inception_4e/pool_proj -> inception_4e/pool_proj
I0403 14:41:02.253527 10976 net.cpp:141] Setting up inception_4e/pool_proj
I0403 14:41:02.253576 10976 net.cpp:148] Top shape: 24 128 14 14 (602112)
I0403 14:41:02.253595 10976 net.cpp:156] Memory required for data: 1254493728
I0403 14:41:02.253619 10976 layer_factory.hpp:77] Creating layer inception_4e/relu_pool_proj
I0403 14:41:02.253640 10976 net.cpp:91] Creating Layer inception_4e/relu_pool_proj
I0403 14:41:02.253661 10976 net.cpp:425] inception_4e/relu_pool_proj <- inception_4e/pool_proj
I0403 14:41:02.253685 10976 net.cpp:386] inception_4e/relu_pool_proj -> inception_4e/pool_proj (in-place)
I0403 14:41:02.254058 10976 net.cpp:141] Setting up inception_4e/relu_pool_proj
I0403 14:41:02.254091 10976 net.cpp:148] Top shape: 24 128 14 14 (602112)
I0403 14:41:02.254117 10976 net.cpp:156] Memory required for data: 1256902176
I0403 14:41:02.254135 10976 layer_factory.hpp:77] Creating layer inception_4e/output
I0403 14:41:02.254158 10976 net.cpp:91] Creating Layer inception_4e/output
I0403 14:41:02.254178 10976 net.cpp:425] inception_4e/output <- inception_4e/1x1
I0403 14:41:02.254199 10976 net.cpp:425] inception_4e/output <- inception_4e/3x3
I0403 14:41:02.254220 10976 net.cpp:425] inception_4e/output <- inception_4e/5x5
I0403 14:41:02.254238 10976 net.cpp:425] inception_4e/output <- inception_4e/pool_proj
I0403 14:41:02.254262 10976 net.cpp:399] inception_4e/output -> inception_4e/output
I0403 14:41:02.254323 10976 net.cpp:141] Setting up inception_4e/output
I0403 14:41:02.254355 10976 net.cpp:148] Top shape: 24 832 14 14 (3913728)
I0403 14:41:02.254375 10976 net.cpp:156] Memory required for data: 1272557088
I0403 14:41:02.254395 10976 layer_factory.hpp:77] Creating layer pool4/3x3_s2
I0403 14:41:02.254416 10976 net.cpp:91] Creating Layer pool4/3x3_s2
I0403 14:41:02.254436 10976 net.cpp:425] pool4/3x3_s2 <- inception_4e/output
I0403 14:41:02.254458 10976 net.cpp:399] pool4/3x3_s2 -> pool4/3x3_s2
I0403 14:41:02.254544 10976 net.cpp:141] Setting up pool4/3x3_s2
I0403 14:41:02.254572 10976 net.cpp:148] Top shape: 24 832 7 7 (978432)
I0403 14:41:02.254590 10976 net.cpp:156] Memory required for data: 1276470816
I0403 14:41:02.254608 10976 layer_factory.hpp:77] Creating layer pool4/3x3_s2_pool4/3x3_s2_0_split
I0403 14:41:02.254629 10976 net.cpp:91] Creating Layer pool4/3x3_s2_pool4/3x3_s2_0_split
I0403 14:41:02.254648 10976 net.cpp:425] pool4/3x3_s2_pool4/3x3_s2_0_split <- pool4/3x3_s2
I0403 14:41:02.254673 10976 net.cpp:399] pool4/3x3_s2_pool4/3x3_s2_0_split -> pool4/3x3_s2_pool4/3x3_s2_0_split_0
I0403 14:41:02.254698 10976 net.cpp:399] pool4/3x3_s2_pool4/3x3_s2_0_split -> pool4/3x3_s2_pool4/3x3_s2_0_split_1
I0403 14:41:02.254724 10976 net.cpp:399] pool4/3x3_s2_pool4/3x3_s2_0_split -> pool4/3x3_s2_pool4/3x3_s2_0_split_2
I0403 14:41:02.254750 10976 net.cpp:399] pool4/3x3_s2_pool4/3x3_s2_0_split -> pool4/3x3_s2_pool4/3x3_s2_0_split_3
I0403 14:41:02.254865 10976 net.cpp:141] Setting up pool4/3x3_s2_pool4/3x3_s2_0_split
I0403 14:41:02.254894 10976 net.cpp:148] Top shape: 24 832 7 7 (978432)
I0403 14:41:02.254914 10976 net.cpp:148] Top shape: 24 832 7 7 (978432)
I0403 14:41:02.254935 10976 net.cpp:148] Top shape: 24 832 7 7 (978432)
I0403 14:41:02.254953 10976 net.cpp:148] Top shape: 24 832 7 7 (978432)
I0403 14:41:02.254969 10976 net.cpp:156] Memory required for data: 1292125728
I0403 14:41:02.254987 10976 layer_factory.hpp:77] Creating layer inception_5a/1x1
I0403 14:41:02.255014 10976 net.cpp:91] Creating Layer inception_5a/1x1
I0403 14:41:02.255038 10976 net.cpp:425] inception_5a/1x1 <- pool4/3x3_s2_pool4/3x3_s2_0_split_0
I0403 14:41:02.255064 10976 net.cpp:399] inception_5a/1x1 -> inception_5a/1x1
I0403 14:41:02.258577 10976 net.cpp:141] Setting up inception_5a/1x1
I0403 14:41:02.258615 10976 net.cpp:148] Top shape: 24 256 7 7 (301056)
I0403 14:41:02.258635 10976 net.cpp:156] Memory required for data: 1293329952
I0403 14:41:02.258656 10976 layer_factory.hpp:77] Creating layer inception_5a/relu_1x1
I0403 14:41:02.258682 10976 net.cpp:91] Creating Layer inception_5a/relu_1x1
I0403 14:41:02.258703 10976 net.cpp:425] inception_5a/relu_1x1 <- inception_5a/1x1
I0403 14:41:02.258724 10976 net.cpp:386] inception_5a/relu_1x1 -> inception_5a/1x1 (in-place)
I0403 14:41:02.259114 10976 net.cpp:141] Setting up inception_5a/relu_1x1
I0403 14:41:02.259147 10976 net.cpp:148] Top shape: 24 256 7 7 (301056)
I0403 14:41:02.259166 10976 net.cpp:156] Memory required for data: 1294534176
I0403 14:41:02.259184 10976 layer_factory.hpp:77] Creating layer inception_5a/3x3_reduce
I0403 14:41:02.259215 10976 net.cpp:91] Creating Layer inception_5a/3x3_reduce
I0403 14:41:02.259238 10976 net.cpp:425] inception_5a/3x3_reduce <- pool4/3x3_s2_pool4/3x3_s2_0_split_1
I0403 14:41:02.259263 10976 net.cpp:399] inception_5a/3x3_reduce -> inception_5a/3x3_reduce
I0403 14:41:02.262271 10976 net.cpp:141] Setting up inception_5a/3x3_reduce
I0403 14:41:02.262310 10976 net.cpp:148] Top shape: 24 160 7 7 (188160)
I0403 14:41:02.262332 10976 net.cpp:156] Memory required for data: 1295286816
I0403 14:41:02.262356 10976 layer_factory.hpp:77] Creating layer inception_5a/relu_3x3_reduce
I0403 14:41:02.262377 10976 net.cpp:91] Creating Layer inception_5a/relu_3x3_reduce
I0403 14:41:02.262398 10976 net.cpp:425] inception_5a/relu_3x3_reduce <- inception_5a/3x3_reduce
I0403 14:41:02.262418 10976 net.cpp:386] inception_5a/relu_3x3_reduce -> inception_5a/3x3_reduce (in-place)
I0403 14:41:02.262657 10976 net.cpp:141] Setting up inception_5a/relu_3x3_reduce
I0403 14:41:02.262688 10976 net.cpp:148] Top shape: 24 160 7 7 (188160)
I0403 14:41:02.262706 10976 net.cpp:156] Memory required for data: 1296039456
I0403 14:41:02.262724 10976 layer_factory.hpp:77] Creating layer inception_5a/3x3
I0403 14:41:02.262751 10976 net.cpp:91] Creating Layer inception_5a/3x3
I0403 14:41:02.262773 10976 net.cpp:425] inception_5a/3x3 <- inception_5a/3x3_reduce
I0403 14:41:02.262800 10976 net.cpp:399] inception_5a/3x3 -> inception_5a/3x3
I0403 14:41:02.269215 10976 net.cpp:141] Setting up inception_5a/3x3
I0403 14:41:02.269253 10976 net.cpp:148] Top shape: 24 320 7 7 (376320)
I0403 14:41:02.269273 10976 net.cpp:156] Memory required for data: 1297544736
I0403 14:41:02.269295 10976 layer_factory.hpp:77] Creating layer inception_5a/relu_3x3
I0403 14:41:02.269317 10976 net.cpp:91] Creating Layer inception_5a/relu_3x3
I0403 14:41:02.269337 10976 net.cpp:425] inception_5a/relu_3x3 <- inception_5a/3x3
I0403 14:41:02.269362 10976 net.cpp:386] inception_5a/relu_3x3 -> inception_5a/3x3 (in-place)
I0403 14:41:02.269732 10976 net.cpp:141] Setting up inception_5a/relu_3x3
I0403 14:41:02.269765 10976 net.cpp:148] Top shape: 24 320 7 7 (376320)
I0403 14:41:02.269784 10976 net.cpp:156] Memory required for data: 1299050016
I0403 14:41:02.269804 10976 layer_factory.hpp:77] Creating layer inception_5a/5x5_reduce
I0403 14:41:02.269830 10976 net.cpp:91] Creating Layer inception_5a/5x5_reduce
I0403 14:41:02.269853 10976 net.cpp:425] inception_5a/5x5_reduce <- pool4/3x3_s2_pool4/3x3_s2_0_split_2
I0403 14:41:02.269881 10976 net.cpp:399] inception_5a/5x5_reduce -> inception_5a/5x5_reduce
I0403 14:41:02.271687 10976 net.cpp:141] Setting up inception_5a/5x5_reduce
I0403 14:41:02.271725 10976 net.cpp:148] Top shape: 24 32 7 7 (37632)
I0403 14:41:02.271747 10976 net.cpp:156] Memory required for data: 1299200544
I0403 14:41:02.271770 10976 layer_factory.hpp:77] Creating layer inception_5a/relu_5x5_reduce
I0403 14:41:02.271798 10976 net.cpp:91] Creating Layer inception_5a/relu_5x5_reduce
I0403 14:41:02.271827 10976 net.cpp:425] inception_5a/relu_5x5_reduce <- inception_5a/5x5_reduce
I0403 14:41:02.271858 10976 net.cpp:386] inception_5a/relu_5x5_reduce -> inception_5a/5x5_reduce (in-place)
I0403 14:41:02.272250 10976 net.cpp:141] Setting up inception_5a/relu_5x5_reduce
I0403 14:41:02.272284 10976 net.cpp:148] Top shape: 24 32 7 7 (37632)
I0403 14:41:02.272302 10976 net.cpp:156] Memory required for data: 1299351072
I0403 14:41:02.272320 10976 layer_factory.hpp:77] Creating layer inception_5a/5x5
I0403 14:41:02.272348 10976 net.cpp:91] Creating Layer inception_5a/5x5
I0403 14:41:02.272369 10976 net.cpp:425] inception_5a/5x5 <- inception_5a/5x5_reduce
I0403 14:41:02.272395 10976 net.cpp:399] inception_5a/5x5 -> inception_5a/5x5
I0403 14:41:02.274539 10976 net.cpp:141] Setting up inception_5a/5x5
I0403 14:41:02.274588 10976 net.cpp:148] Top shape: 24 128 7 7 (150528)
I0403 14:41:02.274610 10976 net.cpp:156] Memory required for data: 1299953184
I0403 14:41:02.274632 10976 layer_factory.hpp:77] Creating layer inception_5a/relu_5x5
I0403 14:41:02.274655 10976 net.cpp:91] Creating Layer inception_5a/relu_5x5
I0403 14:41:02.274674 10976 net.cpp:425] inception_5a/relu_5x5 <- inception_5a/5x5
I0403 14:41:02.274698 10976 net.cpp:386] inception_5a/relu_5x5 -> inception_5a/5x5 (in-place)
I0403 14:41:02.274941 10976 net.cpp:141] Setting up inception_5a/relu_5x5
I0403 14:41:02.274972 10976 net.cpp:148] Top shape: 24 128 7 7 (150528)
I0403 14:41:02.274991 10976 net.cpp:156] Memory required for data: 1300555296
I0403 14:41:02.275008 10976 layer_factory.hpp:77] Creating layer inception_5a/pool
I0403 14:41:02.275034 10976 net.cpp:91] Creating Layer inception_5a/pool
I0403 14:41:02.275054 10976 net.cpp:425] inception_5a/pool <- pool4/3x3_s2_pool4/3x3_s2_0_split_3
I0403 14:41:02.275077 10976 net.cpp:399] inception_5a/pool -> inception_5a/pool
I0403 14:41:02.275174 10976 net.cpp:141] Setting up inception_5a/pool
I0403 14:41:02.275205 10976 net.cpp:148] Top shape: 24 832 7 7 (978432)
I0403 14:41:02.275223 10976 net.cpp:156] Memory required for data: 1304469024
I0403 14:41:02.275241 10976 layer_factory.hpp:77] Creating layer inception_5a/pool_proj
I0403 14:41:02.275269 10976 net.cpp:91] Creating Layer inception_5a/pool_proj
I0403 14:41:02.275291 10976 net.cpp:425] inception_5a/pool_proj <- inception_5a/pool
I0403 14:41:02.275318 10976 net.cpp:399] inception_5a/pool_proj -> inception_5a/pool_proj
I0403 14:41:02.278117 10976 net.cpp:141] Setting up inception_5a/pool_proj
I0403 14:41:02.278157 10976 net.cpp:148] Top shape: 24 128 7 7 (150528)
I0403 14:41:02.278177 10976 net.cpp:156] Memory required for data: 1305071136
I0403 14:41:02.278200 10976 layer_factory.hpp:77] Creating layer inception_5a/relu_pool_proj
I0403 14:41:02.278224 10976 net.cpp:91] Creating Layer inception_5a/relu_pool_proj
I0403 14:41:02.278271 10976 net.cpp:425] inception_5a/relu_pool_proj <- inception_5a/pool_proj
I0403 14:41:02.278302 10976 net.cpp:386] inception_5a/relu_pool_proj -> inception_5a/pool_proj (in-place)
I0403 14:41:02.278666 10976 net.cpp:141] Setting up inception_5a/relu_pool_proj
I0403 14:41:02.278702 10976 net.cpp:148] Top shape: 24 128 7 7 (150528)
I0403 14:41:02.278723 10976 net.cpp:156] Memory required for data: 1305673248
I0403 14:41:02.278743 10976 layer_factory.hpp:77] Creating layer inception_5a/output
I0403 14:41:02.278764 10976 net.cpp:91] Creating Layer inception_5a/output
I0403 14:41:02.278784 10976 net.cpp:425] inception_5a/output <- inception_5a/1x1
I0403 14:41:02.278805 10976 net.cpp:425] inception_5a/output <- inception_5a/3x3
I0403 14:41:02.278825 10976 net.cpp:425] inception_5a/output <- inception_5a/5x5
I0403 14:41:02.278843 10976 net.cpp:425] inception_5a/output <- inception_5a/pool_proj
I0403 14:41:02.278867 10976 net.cpp:399] inception_5a/output -> inception_5a/output
I0403 14:41:02.278930 10976 net.cpp:141] Setting up inception_5a/output
I0403 14:41:02.278959 10976 net.cpp:148] Top shape: 24 832 7 7 (978432)
I0403 14:41:02.278976 10976 net.cpp:156] Memory required for data: 1309586976
I0403 14:41:02.278995 10976 layer_factory.hpp:77] Creating layer inception_5a/output_inception_5a/output_0_split
I0403 14:41:02.279019 10976 net.cpp:91] Creating Layer inception_5a/output_inception_5a/output_0_split
I0403 14:41:02.279039 10976 net.cpp:425] inception_5a/output_inception_5a/output_0_split <- inception_5a/output
I0403 14:41:02.279060 10976 net.cpp:399] inception_5a/output_inception_5a/output_0_split -> inception_5a/output_inception_5a/output_0_split_0
I0403 14:41:02.279085 10976 net.cpp:399] inception_5a/output_inception_5a/output_0_split -> inception_5a/output_inception_5a/output_0_split_1
I0403 14:41:02.279124 10976 net.cpp:399] inception_5a/output_inception_5a/output_0_split -> inception_5a/output_inception_5a/output_0_split_2
I0403 14:41:02.279151 10976 net.cpp:399] inception_5a/output_inception_5a/output_0_split -> inception_5a/output_inception_5a/output_0_split_3
I0403 14:41:02.279287 10976 net.cpp:141] Setting up inception_5a/output_inception_5a/output_0_split
I0403 14:41:02.279317 10976 net.cpp:148] Top shape: 24 832 7 7 (978432)
I0403 14:41:02.279337 10976 net.cpp:148] Top shape: 24 832 7 7 (978432)
I0403 14:41:02.279356 10976 net.cpp:148] Top shape: 24 832 7 7 (978432)
I0403 14:41:02.279374 10976 net.cpp:148] Top shape: 24 832 7 7 (978432)
I0403 14:41:02.279391 10976 net.cpp:156] Memory required for data: 1325241888
I0403 14:41:02.279408 10976 layer_factory.hpp:77] Creating layer inception_5b/1x1
I0403 14:41:02.279436 10976 net.cpp:91] Creating Layer inception_5b/1x1
I0403 14:41:02.279458 10976 net.cpp:425] inception_5b/1x1 <- inception_5a/output_inception_5a/output_0_split_0
I0403 14:41:02.279484 10976 net.cpp:399] inception_5b/1x1 -> inception_5b/1x1
I0403 14:41:02.284137 10976 net.cpp:141] Setting up inception_5b/1x1
I0403 14:41:02.284178 10976 net.cpp:148] Top shape: 24 384 7 7 (451584)
I0403 14:41:02.284198 10976 net.cpp:156] Memory required for data: 1327048224
I0403 14:41:02.284221 10976 layer_factory.hpp:77] Creating layer inception_5b/relu_1x1
I0403 14:41:02.284245 10976 net.cpp:91] Creating Layer inception_5b/relu_1x1
I0403 14:41:02.284263 10976 net.cpp:425] inception_5b/relu_1x1 <- inception_5b/1x1
I0403 14:41:02.284288 10976 net.cpp:386] inception_5b/relu_1x1 -> inception_5b/1x1 (in-place)
I0403 14:41:02.284667 10976 net.cpp:141] Setting up inception_5b/relu_1x1
I0403 14:41:02.284703 10976 net.cpp:148] Top shape: 24 384 7 7 (451584)
I0403 14:41:02.284723 10976 net.cpp:156] Memory required for data: 1328854560
I0403 14:41:02.284741 10976 layer_factory.hpp:77] Creating layer inception_5b/3x3_reduce
I0403 14:41:02.284768 10976 net.cpp:91] Creating Layer inception_5b/3x3_reduce
I0403 14:41:02.284791 10976 net.cpp:425] inception_5b/3x3_reduce <- inception_5a/output_inception_5a/output_0_split_1
I0403 14:41:02.284816 10976 net.cpp:399] inception_5b/3x3_reduce -> inception_5b/3x3_reduce
I0403 14:41:02.288126 10976 net.cpp:141] Setting up inception_5b/3x3_reduce
I0403 14:41:02.288164 10976 net.cpp:148] Top shape: 24 192 7 7 (225792)
I0403 14:41:02.288187 10976 net.cpp:156] Memory required for data: 1329757728
I0403 14:41:02.288209 10976 layer_factory.hpp:77] Creating layer inception_5b/relu_3x3_reduce
I0403 14:41:02.288233 10976 net.cpp:91] Creating Layer inception_5b/relu_3x3_reduce
I0403 14:41:02.288252 10976 net.cpp:425] inception_5b/relu_3x3_reduce <- inception_5b/3x3_reduce
I0403 14:41:02.288276 10976 net.cpp:386] inception_5b/relu_3x3_reduce -> inception_5b/3x3_reduce (in-place)
I0403 14:41:02.288516 10976 net.cpp:141] Setting up inception_5b/relu_3x3_reduce
I0403 14:41:02.288547 10976 net.cpp:148] Top shape: 24 192 7 7 (225792)
I0403 14:41:02.288565 10976 net.cpp:156] Memory required for data: 1330660896
I0403 14:41:02.288583 10976 layer_factory.hpp:77] Creating layer inception_5b/3x3
I0403 14:41:02.288610 10976 net.cpp:91] Creating Layer inception_5b/3x3
I0403 14:41:02.288631 10976 net.cpp:425] inception_5b/3x3 <- inception_5b/3x3_reduce
I0403 14:41:02.288660 10976 net.cpp:399] inception_5b/3x3 -> inception_5b/3x3
I0403 14:41:02.297293 10976 net.cpp:141] Setting up inception_5b/3x3
I0403 14:41:02.297339 10976 net.cpp:148] Top shape: 24 384 7 7 (451584)
I0403 14:41:02.297369 10976 net.cpp:156] Memory required for data: 1332467232
I0403 14:41:02.297394 10976 layer_factory.hpp:77] Creating layer inception_5b/relu_3x3
I0403 14:41:02.297415 10976 net.cpp:91] Creating Layer inception_5b/relu_3x3
I0403 14:41:02.297435 10976 net.cpp:425] inception_5b/relu_3x3 <- inception_5b/3x3
I0403 14:41:02.297457 10976 net.cpp:386] inception_5b/relu_3x3 -> inception_5b/3x3 (in-place)
I0403 14:41:02.297824 10976 net.cpp:141] Setting up inception_5b/relu_3x3
I0403 14:41:02.297859 10976 net.cpp:148] Top shape: 24 384 7 7 (451584)
I0403 14:41:02.297880 10976 net.cpp:156] Memory required for data: 1334273568
I0403 14:41:02.297899 10976 layer_factory.hpp:77] Creating layer inception_5b/5x5_reduce
I0403 14:41:02.297951 10976 net.cpp:91] Creating Layer inception_5b/5x5_reduce
I0403 14:41:02.297974 10976 net.cpp:425] inception_5b/5x5_reduce <- inception_5a/output_inception_5a/output_0_split_2
I0403 14:41:02.298002 10976 net.cpp:399] inception_5b/5x5_reduce -> inception_5b/5x5_reduce
I0403 14:41:02.299605 10976 net.cpp:141] Setting up inception_5b/5x5_reduce
I0403 14:41:02.299641 10976 net.cpp:148] Top shape: 24 48 7 7 (56448)
I0403 14:41:02.299661 10976 net.cpp:156] Memory required for data: 1334499360
I0403 14:41:02.299685 10976 layer_factory.hpp:77] Creating layer inception_5b/relu_5x5_reduce
I0403 14:41:02.299706 10976 net.cpp:91] Creating Layer inception_5b/relu_5x5_reduce
I0403 14:41:02.299726 10976 net.cpp:425] inception_5b/relu_5x5_reduce <- inception_5b/5x5_reduce
I0403 14:41:02.299751 10976 net.cpp:386] inception_5b/relu_5x5_reduce -> inception_5b/5x5_reduce (in-place)
I0403 14:41:02.300226 10976 net.cpp:141] Setting up inception_5b/relu_5x5_reduce
I0403 14:41:02.300261 10976 net.cpp:148] Top shape: 24 48 7 7 (56448)
I0403 14:41:02.300279 10976 net.cpp:156] Memory required for data: 1334725152
I0403 14:41:02.300297 10976 layer_factory.hpp:77] Creating layer inception_5b/5x5
I0403 14:41:02.300323 10976 net.cpp:91] Creating Layer inception_5b/5x5
I0403 14:41:02.300343 10976 net.cpp:425] inception_5b/5x5 <- inception_5b/5x5_reduce
I0403 14:41:02.300366 10976 net.cpp:399] inception_5b/5x5 -> inception_5b/5x5
I0403 14:41:02.302976 10976 net.cpp:141] Setting up inception_5b/5x5
I0403 14:41:02.303012 10976 net.cpp:148] Top shape: 24 128 7 7 (150528)
I0403 14:41:02.303031 10976 net.cpp:156] Memory required for data: 1335327264
I0403 14:41:02.303055 10976 layer_factory.hpp:77] Creating layer inception_5b/relu_5x5
I0403 14:41:02.303079 10976 net.cpp:91] Creating Layer inception_5b/relu_5x5
I0403 14:41:02.303107 10976 net.cpp:425] inception_5b/relu_5x5 <- inception_5b/5x5
I0403 14:41:02.303133 10976 net.cpp:386] inception_5b/relu_5x5 -> inception_5b/5x5 (in-place)
I0403 14:41:02.303377 10976 net.cpp:141] Setting up inception_5b/relu_5x5
I0403 14:41:02.303408 10976 net.cpp:148] Top shape: 24 128 7 7 (150528)
I0403 14:41:02.303426 10976 net.cpp:156] Memory required for data: 1335929376
I0403 14:41:02.303444 10976 layer_factory.hpp:77] Creating layer inception_5b/pool
I0403 14:41:02.303469 10976 net.cpp:91] Creating Layer inception_5b/pool
I0403 14:41:02.303491 10976 net.cpp:425] inception_5b/pool <- inception_5a/output_inception_5a/output_0_split_3
I0403 14:41:02.303514 10976 net.cpp:399] inception_5b/pool -> inception_5b/pool
I0403 14:41:02.303606 10976 net.cpp:141] Setting up inception_5b/pool
I0403 14:41:02.303635 10976 net.cpp:148] Top shape: 24 832 7 7 (978432)
I0403 14:41:02.303653 10976 net.cpp:156] Memory required for data: 1339843104
I0403 14:41:02.303671 10976 layer_factory.hpp:77] Creating layer inception_5b/pool_proj
I0403 14:41:02.303699 10976 net.cpp:91] Creating Layer inception_5b/pool_proj
I0403 14:41:02.303720 10976 net.cpp:425] inception_5b/pool_proj <- inception_5b/pool
I0403 14:41:02.303745 10976 net.cpp:399] inception_5b/pool_proj -> inception_5b/pool_proj
I0403 14:41:02.306617 10976 net.cpp:141] Setting up inception_5b/pool_proj
I0403 14:41:02.306656 10976 net.cpp:148] Top shape: 24 128 7 7 (150528)
I0403 14:41:02.306675 10976 net.cpp:156] Memory required for data: 1340445216
I0403 14:41:02.306699 10976 layer_factory.hpp:77] Creating layer inception_5b/relu_pool_proj
I0403 14:41:02.306720 10976 net.cpp:91] Creating Layer inception_5b/relu_pool_proj
I0403 14:41:02.306740 10976 net.cpp:425] inception_5b/relu_pool_proj <- inception_5b/pool_proj
I0403 14:41:02.306764 10976 net.cpp:386] inception_5b/relu_pool_proj -> inception_5b/pool_proj (in-place)
I0403 14:41:02.307140 10976 net.cpp:141] Setting up inception_5b/relu_pool_proj
I0403 14:41:02.307173 10976 net.cpp:148] Top shape: 24 128 7 7 (150528)
I0403 14:41:02.307193 10976 net.cpp:156] Memory required for data: 1341047328
I0403 14:41:02.307211 10976 layer_factory.hpp:77] Creating layer inception_5b/output
I0403 14:41:02.307234 10976 net.cpp:91] Creating Layer inception_5b/output
I0403 14:41:02.307286 10976 net.cpp:425] inception_5b/output <- inception_5b/1x1
I0403 14:41:02.307308 10976 net.cpp:425] inception_5b/output <- inception_5b/3x3
I0403 14:41:02.307329 10976 net.cpp:425] inception_5b/output <- inception_5b/5x5
I0403 14:41:02.307349 10976 net.cpp:425] inception_5b/output <- inception_5b/pool_proj
I0403 14:41:02.307373 10976 net.cpp:399] inception_5b/output -> inception_5b/output
I0403 14:41:02.307436 10976 net.cpp:141] Setting up inception_5b/output
I0403 14:41:02.307469 10976 net.cpp:148] Top shape: 24 1024 7 7 (1204224)
I0403 14:41:02.307489 10976 net.cpp:156] Memory required for data: 1345864224
I0403 14:41:02.307507 10976 layer_factory.hpp:77] Creating layer pool5/7x7_s1
I0403 14:41:02.307528 10976 net.cpp:91] Creating Layer pool5/7x7_s1
I0403 14:41:02.307548 10976 net.cpp:425] pool5/7x7_s1 <- inception_5b/output
I0403 14:41:02.307572 10976 net.cpp:399] pool5/7x7_s1 -> pool5/7x7_s1
I0403 14:41:02.307847 10976 net.cpp:141] Setting up pool5/7x7_s1
I0403 14:41:02.307879 10976 net.cpp:148] Top shape: 24 1024 1 1 (24576)
I0403 14:41:02.307898 10976 net.cpp:156] Memory required for data: 1345962528
I0403 14:41:02.307915 10976 layer_factory.hpp:77] Creating layer pool5/drop_7x7_s1
I0403 14:41:02.307939 10976 net.cpp:91] Creating Layer pool5/drop_7x7_s1
I0403 14:41:02.307958 10976 net.cpp:425] pool5/drop_7x7_s1 <- pool5/7x7_s1
I0403 14:41:02.307982 10976 net.cpp:386] pool5/drop_7x7_s1 -> pool5/7x7_s1 (in-place)
I0403 14:41:02.308045 10976 net.cpp:141] Setting up pool5/drop_7x7_s1
I0403 14:41:02.308078 10976 net.cpp:148] Top shape: 24 1024 1 1 (24576)
I0403 14:41:02.308101 10976 net.cpp:156] Memory required for data: 1346060832
I0403 14:41:02.308121 10976 layer_factory.hpp:77] Creating layer loss3/classifier_plantvillage
I0403 14:41:02.308146 10976 net.cpp:91] Creating Layer loss3/classifier_plantvillage
I0403 14:41:02.308166 10976 net.cpp:425] loss3/classifier_plantvillage <- pool5/7x7_s1
I0403 14:41:02.308192 10976 net.cpp:399] loss3/classifier_plantvillage -> loss3/classifier_plantvillage
I0403 14:41:02.308723 10976 net.cpp:141] Setting up loss3/classifier_plantvillage
I0403 14:41:02.308754 10976 net.cpp:148] Top shape: 24 38 (912)
I0403 14:41:02.308773 10976 net.cpp:156] Memory required for data: 1346064480
I0403 14:41:02.308794 10976 layer_factory.hpp:77] Creating layer loss3/classifier_plantvillage_loss3/classifier_plantvillage_0_split
I0403 14:41:02.308821 10976 net.cpp:91] Creating Layer loss3/classifier_plantvillage_loss3/classifier_plantvillage_0_split
I0403 14:41:02.308842 10976 net.cpp:425] loss3/classifier_plantvillage_loss3/classifier_plantvillage_0_split <- loss3/classifier_plantvillage
I0403 14:41:02.308863 10976 net.cpp:399] loss3/classifier_plantvillage_loss3/classifier_plantvillage_0_split -> loss3/classifier_plantvillage_loss3/classifier_plantvillage_0_split_0
I0403 14:41:02.308890 10976 net.cpp:399] loss3/classifier_plantvillage_loss3/classifier_plantvillage_0_split -> loss3/classifier_plantvillage_loss3/classifier_plantvillage_0_split_1
I0403 14:41:02.308917 10976 net.cpp:399] loss3/classifier_plantvillage_loss3/classifier_plantvillage_0_split -> loss3/classifier_plantvillage_loss3/classifier_plantvillage_0_split_2
I0403 14:41:02.308941 10976 net.cpp:399] loss3/classifier_plantvillage_loss3/classifier_plantvillage_0_split -> loss3/classifier_plantvillage_loss3/classifier_plantvillage_0_split_3
I0403 14:41:02.309072 10976 net.cpp:141] Setting up loss3/classifier_plantvillage_loss3/classifier_plantvillage_0_split
I0403 14:41:02.309126 10976 net.cpp:148] Top shape: 24 38 (912)
I0403 14:41:02.309150 10976 net.cpp:148] Top shape: 24 38 (912)
I0403 14:41:02.309170 10976 net.cpp:148] Top shape: 24 38 (912)
I0403 14:41:02.309187 10976 net.cpp:148] Top shape: 24 38 (912)
I0403 14:41:02.309204 10976 net.cpp:156] Memory required for data: 1346079072
I0403 14:41:02.309222 10976 layer_factory.hpp:77] Creating layer loss1/loss
I0403 14:41:02.309249 10976 net.cpp:91] Creating Layer loss1/loss
I0403 14:41:02.309272 10976 net.cpp:425] loss1/loss <- loss1/classifier_plantvillage_loss1/classifier_plantvillage_0_split_0
I0403 14:41:02.309309 10976 net.cpp:425] loss1/loss <- label_data_1_split_0
…
