…
I0403 14:48:07.307818 11129 net.cpp:313] The NetState phase (1) differed from the phase (0) specified by a rule in layer data
I0403 14:48:07.308989 11129 net.cpp:49] Initializing net from parameters: 
state {
  phase: TEST
}
layer {
  name: "data"
  type: "Data"
  top: "data"
  top: "label"
  include {
    phase: TEST
  }
  transform_param {
    mirror: false
    crop_size: 224
    mean_file: "/home/mohanty/data/final_dataset/lmdb/grayscale-60-40/mean.binaryproto"
  }
  data_param {
    source: "/home/mohanty/data/final_dataset/lmdb/grayscale-60-40/test_db"
    batch_size: 24
    backend: LMDB
  }
}
layer {
  name: "conv1/7x7_s2"
  type: "Convolution"
  bottom: "data"
  top: "conv1/7x7_s2"
  param {
    lr_mult: 1
    decay_mult: 1
  }
  param {
    lr_mult: 2
    decay_mult: 0
  }
  convolution_param {
    num_output: 64
    pad: 3
    kernel_size: 7
    stride: 2
    weight_filler {
      type: "xavier"
      std: 0.1
    }
    bias_filler {
      type: "constant"
      value: 0.2
    }
  }
}
layer {
  name: "conv1/relu_7x7"
  type: "ReLU"
  bottom: "conv1/7x7_s2"
  top: "conv1/7x7_s2"
}
layer {
  name: "pool1/3x3_s2"
  type: "Pooling"
  bottom: "conv1/7x7_s2"
  top: "pool1/3x3_s2"
  pooling_param {
    pool: MAX
    kernel_size: 3
    stride: 2
  }
}
layer {
  name: "pool1/norm1"
  type: "LRN"
  bottom: "pool1/3x3_s2"
  top: "pool1/norm1"
  lrn_param {
    local_size: 5
    alpha: 0.0001
    beta: 0.75
  }
}
layer {
  name: "conv2/3x3_reduce"
  type: "Convolution"
  bottom: "pool1/norm1"
  top: "conv2/3x3_reduce"
  param {
    lr_mult: 1
    decay_mult: 1
  }
  param {
    lr_mult: 2
    decay_mult: 0
  }
  convolution_param {
    num_output: 64
    kernel_size: 1
    weight_filler {
      type: "xavier"
      std: 0.1
    }
    bias_filler {
      type: "constant"
      value: 0.2
    }
  }
}
layer {
  name: "conv2/relu_3x3_reduce"
  type: "ReLU"
  bottom: "conv2/3x3_reduce"
  top: "conv2/3x3_reduce"
}
layer {
  name: "conv2/3x3"
  type: "Convolution"
  bottom: "conv2/3x3_reduce"
  top: "conv2/3x3"
  param {
    lr_mult: 1
    decay_mult: 1
  }
  param {
    lr_mult: 2
    decay_mult: 0
  }
  convolution_param {
    num_output: 192
    pad: 1
    kernel_size: 3
    weight_filler {
      type: "xavier"
      std: 0.03
    }
    bias_filler {
      type: "constant"
      value: 0.2
    }
  }
}
layer {
  name: "conv2/relu_3x3"
  type: "ReLU"
  bottom: "conv2/3x3"
  top: "conv2/3x3"
}
layer {
  name: "conv2/norm2"
  type: "LRN"
  bottom: "conv2/3x3"
  top: "conv2/norm2"
  lrn_param {
    local_size: 5
    alpha: 0.0001
    beta: 0.75
  }
}
layer {
  name: "pool2/3x3_s2"
  type: "Pooling"
  bottom: "conv2/norm2"
  top: "pool2/3x3_s2"
  pooling_param {
    pool: MAX
    kernel_size: 3
    stride: 2
  }
}
layer {
  name: "inception_3a/1x1"
  type: "Convolution"
  bottom: "pool2/3x3_s2"
  top: "inception_3a/1x1"
  param {
    lr_mult: 1
    decay_mult: 1
  }
  param {
    lr_mult: 2
    decay_mult: 0
  }
  convolution_param {
    num_output: 64
    kernel_size: 1
    weight_filler {
      type: "xavier"
      std: 0.03
    }
    bias_filler {
      type: "constant"
      value: 0.2
    }
  }
}
layer {
  name: "inception_3a/relu_1x1"
  type: "ReLU"
  bottom: "inception_3a/1x1"
  top: "inception_3a/1x1"
}
layer {
  name: "inception_3a/3x3_reduce"
  type: "Convolution"
  bottom: "pool2/3x3_s2"
  top: "inception_3a/3x3_reduce"
  param {
    lr_mult: 1
    decay_mult: 1
  }
  param {
    lr_mult: 2
    decay_mult: 0
  }
  convolution_param {
    num_output: 96
    kernel_size: 1
    weight_filler {
      type: "xavier"
      std: 0.09
    }
    bias_filler {
      type: "constant"
      value: 0.2
    }
  }
}
layer {
  name: "inception_3a/relu_3x3_reduce"
  type: "ReLU"
  bottom: "inception_3a/3x3_reduce"
  top: "inception_3a/3x3_reduce"
}
layer {
  name: "inception_3a/3x3"
  type: "Convolution"
  bottom: "inception_3a/3x3_reduce"
  top: "inception_3a/3x3"
  param {
    lr_mult: 1
    decay_mult: 1
  }
  param {
    lr_mult: 2
    decay_mult: 0
  }
  convolution_param {
    num_output: 128
    pad: 1
    kernel_size: 3
    weight_filler {
      type: "xavier"
      std: 0.03
    }
    bias_filler {
      type: "constant"
      value: 0.2
    }
  }
}
layer {
  name: "inception_3a/relu_3x3"
  type: "ReLU"
  bottom: "inception_3a/3x3"
  top: "inception_3a/3x3"
}
layer {
  name: "inception_3a/5x5_reduce"
  type: "Convolution"
  bottom: "pool2/3x3_s2"
  top: "inception_3a/5x5_reduce"
  param {
    lr_mult: 1
    decay_mult: 1
  }
  param {
    lr_mult: 2
    decay_mult: 0
  }
  convolution_param {
    num_output: 16
    kernel_size: 1
    weight_filler {
      type: "xavier"
      std: 0.2
    }
    bias_filler {
      type: "constant"
      value: 0.2
    }
  }
}
layer {
  name: "inception_3a/relu_5x5_reduce"
  type: "ReLU"
  bottom: "inception_3a/5x5_reduce"
  top: "inception_3a/5x5_reduce"
}
layer {
  name: "inception_3a/5x5"
  type: "Convolution"
  bottom: "inception_3a/5x5_reduce"
  top: "inception_3a/5x5"
  param {
    lr_mult: 1
    decay_mult: 1
  }
  param {
    lr_mult: 2
    decay_mult: 0
  }
  convolution_param {
    num_output: 32
    pad: 2
    kernel_size: 5
    weight_filler {
      type: "xavier"
      std: 0.03
    }
    bias_filler {
      type: "constant"
      value: 0.2
    }
  }
}
layer {
  name: "inception_3a/relu_5x5"
  type: "ReLU"
  bottom: "inception_3a/5x5"
  top: "inception_3a/5x5"
}
layer {
  name: "inception_3a/pool"
  type: "Pooling"
  bottom: "pool2/3x3_s2"
  top: "inception_3a/pool"
  pooling_param {
    pool: MAX
    kernel_size: 3
    stride: 1
    pad: 1
  }
}
layer {
  name: "inception_3a/pool_proj"
  type: "Convolution"
  bottom: "inception_3a/pool"
  top: "inception_3a/pool_proj"
  param {
    lr_mult: 1
    decay_mult: 1
  }
  param {
    lr_mult: 2
    decay_mult: 0
  }
  convolution_param {
    num_output: 32
    kernel_size: 1
    weight_filler {
      type: "xavier"
      std: 0.1
    }
    bias_filler {
      type: "constant"
      value: 0.2
    }
  }
}
layer {
  name: "inception_3a/relu_pool_proj"
  type: "ReLU"
  bottom: "inception_3a/pool_proj"
  top: "inception_3a/pool_proj"
}
layer {
  name: "inception_3a/output"
  type: "Concat"
  bottom: "inception_3a/1x1"
  bottom: "inception_3a/3x3"
  bottom: "inception_3a/5x5"
  bottom: "inception_3a/pool_proj"
  top: "inception_3a/output"
}
layer {
  name: "inception_3b/1x1"
  type: "Convolution"
  bottom: "inception_3a/output"
  top: "inception_3b/1x1"
  param {
    lr_mult: 1
    decay_mult: 1
  }
  param {
    lr_mult: 2
    decay_mult: 0
  }
  convolution_param {
    num_output: 128
    kernel_size: 1
    weight_filler {
      type: "xavier"
      std: 0.03
    }
    bias_filler {
      type: "constant"
      value: 0.2
    }
  }
}
layer {
  name: "inception_3b/relu_1x1"
  type: "ReLU"
  bottom: "inception_3b/1x1"
  top: "inception_3b/1x1"
}
layer {
  name: "inception_3b/3x3_reduce"
  type: "Convolution"
  bottom: "inception_3a/output"
  top: "inception_3b/3x3_reduce"
  param {
    lr_mult: 1
    decay_mult: 1
  }
  param {
    lr_mult: 2
    decay_mult: 0
  }
  convolution_param {
    num_output: 128
    kernel_size: 1
    weight_filler {
      type: "xavier"
      std: 0.09
    }
    bias_filler {
      type: "constant"
      value: 0.2
    }
  }
}
layer {
  name: "inception_3b/relu_3x3_reduce"
  type: "ReLU"
  bottom: "inception_3b/3x3_reduce"
  top: "inception_3b/3x3_reduce"
}
layer {
  name: "inception_3b/3x3"
  type: "Convolution"
  bottom: "inception_3b/3x3_reduce"
  top: "inception_3b/3x3"
  param {
    lr_mult: 1
    decay_mult: 1
  }
  param {
    lr_mult: 2
    decay_mult: 0
  }
  convolution_param {
    num_output: 192
    pad: 1
    kernel_size: 3
    weight_filler {
      type: "xavier"
      std: 0.03
    }
    bias_filler {
      type: "constant"
      value: 0.2
    }
  }
}
layer {
  name: "inception_3b/relu_3x3"
  type: "ReLU"
  bottom: "inception_3b/3x3"
  top: "inception_3b/3x3"
}
layer {
  name: "inception_3b/5x5_reduce"
  type: "Convolution"
  bottom: "inception_3a/output"
  top: "inception_3b/5x5_reduce"
  param {
    lr_mult: 1
    decay_mult: 1
  }
  param {
    lr_mult: 2
    decay_mult: 0
  }
  convolution_param {
    num_output: 32
    kernel_size: 1
    weight_filler {
      type: "xavier"
      std: 0.2
    }
    bias_filler {
      type: "constant"
      value: 0.2
    }
  }
}
layer {
  name: "inception_3b/relu_5x5_reduce"
  type: "ReLU"
  bottom: "inception_3b/5x5_reduce"
  top: "inception_3b/5x5_reduce"
}
layer {
  name: "inception_3b/5x5"
  type: "Convolution"
  bottom: "inception_3b/5x5_reduce"
  top: "inception_3b/5x5"
  param {
    lr_mult: 1
    decay_mult: 1
  }
  param {
    lr_mult: 2
    decay_mult: 0
  }
  convolution_param {
    num_output: 96
    pad: 2
    kernel_size: 5
    weight_filler {
      type: "xavier"
      std: 0.03
    }
    bias_filler {
      type: "constant"
      value: 0.2
    }
  }
}
layer {
  name: "inception_3b/relu_5x5"
  type: "ReLU"
  bottom: "inception_3b/5x5"
  top: "inception_3b/5x5"
}
layer {
  name: "inception_3b/pool"
  type: "Pooling"
  bottom: "inception_3a/output"
  top: "inception_3b/pool"
  pooling_param {
    pool: MAX
    kernel_size: 3
    stride: 1
    pad: 1
  }
}
layer {
  name: "inception_3b/pool_proj"
  type: "Convolution"
  bottom: "inception_3b/pool"
  top: "inception_3b/pool_proj"
  param {
    lr_mult: 1
    decay_mult: 1
  }
  param {
    lr_mult: 2
    decay_mult: 0
  }
  convolution_param {
    num_output: 64
    kernel_size: 1
    weight_filler {
      type: "xavier"
      std: 0.1
    }
    bias_filler {
      type: "constant"
      value: 0.2
    }
  }
}
layer {
  name: "inception_3b/relu_pool_proj"
  type: "ReLU"
  bottom: "inception_3b/pool_proj"
  top: "inception_3b/pool_proj"
}
layer {
  name: "inception_3b/output"
  type: "Concat"
  bottom: "inception_3b/1x1"
  bottom: "inception_3b/3x3"
  bottom: "inception_3b/5x5"
  bottom: "inception_3b/pool_proj"
  top: "inception_3b/output"
}
layer {
  name: "pool3/3x3_s2"
  type: "Pooling"
  bottom: "inception_3b/output"
  top: "pool3/3x3_s2"
  pooling_param {
    pool: MAX
    kernel_size: 3
    stride: 2
  }
}
layer {
  name: "inception_4a/1x1"
  type: "Convolution"
  bottom: "pool3/3x3_s2"
  top: "inception_4a/1x1"
  param {
    lr_mult: 1
    decay_mult: 1
  }
  param {
    lr_mult: 2
    decay_mult: 0
  }
  convolution_param {
    num_output: 192
    kernel_size: 1
    weight_filler {
      type: "xavier"
      std: 0.03
    }
    bias_filler {
      type: "constant"
      value: 0.2
    }
  }
}
layer {
  name: "inception_4a/relu_1x1"
  type: "ReLU"
  bottom: "inception_4a/1x1"
  top: "inception_4a/1x1"
}
layer {
  name: "inception_4a/3x3_reduce"
  type: "Convolution"
  bottom: "pool3/3x3_s2"
  top: "inception_4a/3x3_reduce"
  param {
    lr_mult: 1
    decay_mult: 1
  }
  param {
    lr_mult: 2
    decay_mult: 0
  }
  convolution_param {
    num_output: 96
    kernel_size: 1
    weight_filler {
      type: "xavier"
      std: 0.09
    }
    bias_filler {
      type: "constant"
      value: 0.2
    }
  }
}
layer {
  name: "inception_4a/relu_3x3_reduce"
  type: "ReLU"
  bottom: "inception_4a/3x3_reduce"
  top: "inception_4a/3x3_reduce"
}
layer {
  name: "inception_4a/3x3"
  type: "Convolution"
  bottom: "inception_4a/3x3_reduce"
  top: "inception_4a/3x3"
  param {
    lr_mult: 1
    decay_mult: 1
  }
  param {
    lr_mult: 2
    decay_mult: 0
  }
  convolution_param {
    num_output: 208
    pad: 1
    kernel_size: 3
    weight_filler {
      type: "xavier"
      std: 0.03
    }
    bias_filler {
      type: "constant"
      value: 0.2
    }
  }
}
layer {
  name: "inception_4a/relu_3x3"
  type: "ReLU"
  bottom: "inception_4a/3x3"
  top: "inception_4a/3x3"
}
layer {
  name: "inception_4a/5x5_reduce"
  type: "Convolution"
  bottom: "pool3/3x3_s2"
  top: "inception_4a/5x5_reduce"
  param {
    lr_mult: 1
    decay_mult: 1
  }
  param {
    lr_mult: 2
    decay_mult: 0
  }
  convolution_param {
    num_output: 16
    kernel_size: 1
    weight_filler {
      type: "xavier"
      std: 0.2
    }
    bias_filler {
      type: "constant"
      value: 0.2
    }
  }
}
layer {
  name: "inception_4a/relu_5x5_reduce"
  type: "ReLU"
  bottom: "inception_4a/5x5_reduce"
  top: "inception_4a/5x5_reduce"
}
layer {
  name: "inception_4a/5x5"
  type: "Convolution"
  bottom: "inception_4a/5x5_reduce"
  top: "inception_4a/5x5"
  param {
    lr_mult: 1
    decay_mult: 1
  }
  param {
    lr_mult: 2
    decay_mult: 0
  }
  convolution_param {
    num_output: 48
    pad: 2
    kernel_size: 5
    weight_filler {
      type: "xavier"
      std: 0.03
    }
    bias_filler {
      type: "constant"
      value: 0.2
    }
  }
}
layer {
  name: "inception_4a/relu_5x5"
  type: "ReLU"
  bottom: "inception_4a/5x5"
  top: "inception_4a/5x5"
}
layer {
  name: "inception_4a/pool"
  type: "Pooling"
  bottom: "pool3/3x3_s2"
  top: "inception_4a/pool"
  pooling_param {
    pool: MAX
    kernel_size: 3
    stride: 1
    pad: 1
  }
}
layer {
  name: "inception_4a/pool_proj"
  type: "Convolution"
  bottom: "inception_4a/pool"
  top: "inception_4a/pool_proj"
  param {
    lr_mult: 1
    decay_mult: 1
  }
  param {
    lr_mult: 2
    decay_mult: 0
  }
  convolution_param {
    num_output: 64
    kernel_size: 1
    weight_filler {
      type: "xavier"
      std: 0.1
    }
    bias_filler {
      type: "constant"
      value: 0.2
    }
  }
}
layer {
  name: "inception_4a/relu_pool_proj"
  type: "ReLU"
  bottom: "inception_4a/pool_proj"
  top: "inception_4a/pool_proj"
}
layer {
  name: "inception_4a/output"
  type: "Concat"
  bottom: "inception_4a/1x1"
  bottom: "inception_4a/3x3"
  bottom: "inception_4a/5x5"
  bottom: "inception_4a/pool_proj"
  top: "inception_4a/output"
}
layer {
  name: "loss1/ave_pool"
  type: "Pooling"
  bottom: "inception_4a/output"
  top: "loss1/ave_pool"
  pooling_param {
    pool: AVE
    kernel_size: 5
    stride: 3
  }
}
layer {
  name: "loss1/conv"
  type: "Convolution"
  bottom: "loss1/ave_pool"
  top: "loss1/conv"
  param {
    lr_mult: 1
    decay_mult: 1
  }
  param {
    lr_mult: 2
    decay_mult: 0
  }
  convolution_param {
    num_output: 128
    kernel_size: 1
    weight_filler {
      type: "xavier"
      std: 0.08
    }
    bias_filler {
      type: "constant"
      value: 0.2
    }
  }
}
layer {
  name: "loss1/relu_conv"
  type: "ReLU"
  bottom: "loss1/conv"
  top: "loss1/conv"
}
layer {
  name: "loss1/fc"
  type: "InnerProduct"
  bottom: "loss1/conv"
  top: "loss1/fc"
  param {
    lr_mult: 1
    decay_mult: 1
  }
  param {
    lr_mult: 2
    decay_mult: 0
  }
  inner_product_param {
    num_output: 1024
    weight_filler {
      type: "xavier"
      std: 0.02
    }
    bias_filler {
      type: "constant"
      value: 0.2
    }
  }
}
layer {
  name: "loss1/relu_fc"
  type: "ReLU"
  bottom: "loss1/fc"
  top: "loss1/fc"
}
layer {
  name: "loss1/drop_fc"
  type: "Dropout"
  bottom: "loss1/fc"
  top: "loss1/fc"
  dropout_param {
    dropout_ratio: 0.7
  }
}
layer {
  name: "loss1/classifier_plantvillage"
  type: "InnerProduct"
  bottom: "loss1/fc"
  top: "loss1/classifier_plantvillage"
  param {
    lr_mult: 1
    decay_mult: 1
  }
  param {
    lr_mult: 2
    decay_mult: 0
  }
  inner_product_param {
    num_output: 38
    weight_filler {
      type: "xavier"
      std: 0.0009765625
    }
    bias_filler {
      type: "constant"
      value: 0
    }
  }
}
layer {
  name: "inception_4b/1x1"
  type: "Convolution"
  bottom: "inception_4a/output"
  top: "inception_4b/1x1"
  param {
    lr_mult: 1
    decay_mult: 1
  }
  param {
    lr_mult: 2
    decay_mult: 0
  }
  convolution_param {
    num_output: 160
    kernel_size: 1
    weight_filler {
      type: "xavier"
      std: 0.03
    }
    bias_filler {
      type: "constant"
      value: 0.2
    }
  }
}
layer {
  name: "inception_4b/relu_1x1"
  type: "ReLU"
  bottom: "inception_4b/1x1"
  top: "inception_4b/1x1"
}
layer {
  name: "inception_4b/3x3_reduce"
  type: "Convolution"
  bottom: "inception_4a/output"
  top: "inception_4b/3x3_reduce"
  param {
    lr_mult: 1
    decay_mult: 1
  }
  param {
    lr_mult: 2
    decay_mult: 0
  }
  convolution_param {
    num_output: 112
    kernel_size: 1
    weight_filler {
      type: "xavier"
      std: 0.09
    }
    bias_filler {
      type: "constant"
      value: 0.2
    }
  }
}
layer {
  name: "inception_4b/relu_3x3_reduce"
  type: "ReLU"
  bottom: "inception_4b/3x3_reduce"
  top: "inception_4b/3x3_reduce"
}
layer {
  name: "inception_4b/3x3"
  type: "Convolution"
  bottom: "inception_4b/3x3_reduce"
  top: "inception_4b/3x3"
  param {
    lr_mult: 1
    decay_mult: 1
  }
  param {
    lr_mult: 2
    decay_mult: 0
  }
  convolution_param {
    num_output: 224
    pad: 1
    kernel_size: 3
    weight_filler {
      type: "xavier"
      std: 0.03
    }
    bias_filler {
      type: "constant"
      value: 0.2
    }
  }
}
layer {
  name: "inception_4b/relu_3x3"
  type: "ReLU"
  bottom: "inception_4b/3x3"
  top: "inception_4b/3x3"
}
layer {
  name: "inception_4b/5x5_reduce"
  type: "Convolution"
  bottom: "inception_4a/output"
  top: "inception_4b/5x5_reduce"
  param {
    lr_mult: 1
    decay_mult: 1
  }
  param {
    lr_mult: 2
    decay_mult: 0
  }
  convolution_param {
    num_output: 24
    kernel_size: 1
    weight_filler {
      type: "xavier"
      std: 0.2
    }
    bias_filler {
      type: "constant"
      value: 0.2
    }
  }
}
layer {
  name: "inception_4b/relu_5x5_reduce"
  type: "ReLU"
  bottom: "inception_4b/5x5_reduce"
  top: "inception_4b/5x5_reduce"
}
layer {
  name: "inception_4b/5x5"
  type: "Convolution"
  bottom: "inception_4b/5x5_reduce"
  top: "inception_4b/5x5"
  param {
    lr_mult: 1
    decay_mult: 1
  }
  param {
    lr_mult: 2
    decay_mult: 0
  }
  convolution_param {
    num_output: 64
    pad: 2
    kernel_size: 5
    weight_filler {
      type: "xavier"
      std: 0.03
    }
    bias_filler {
      type: "constant"
      value: 0.2
    }
  }
}
layer {
  name: "inception_4b/relu_5x5"
  type: "ReLU"
  bottom: "inception_4b/5x5"
  top: "inception_4b/5x5"
}
layer {
  name: "inception_4b/pool"
  type: "Pooling"
  bottom: "inception_4a/output"
  top: "inception_4b/pool"
  pooling_param {
    pool: MAX
    kernel_size: 3
    stride: 1
    pad: 1
  }
}
layer {
  name: "inception_4b/pool_proj"
  type: "Convolution"
  bottom: "inception_4b/pool"
  top: "inception_4b/pool_proj"
  param {
    lr_mult: 1
    decay_mult: 1
  }
  param {
    lr_mult: 2
    decay_mult: 0
  }
  convolution_param {
    num_output: 64
    kernel_size: 1
    weight_filler {
      type: "xavier"
      std: 0.1
    }
    bias_filler {
      type: "constant"
      value: 0.2
    }
  }
}
layer {
  name: "inception_4b/relu_pool_proj"
  type: "ReLU"
  bottom: "inception_4b/pool_proj"
  top: "inception_4b/pool_proj"
}
layer {
  name: "inception_4b/output"
  type: "Concat"
  bottom: "inception_4b/1x1"
  bottom: "inception_4b/3x3"
  bottom: "inception_4b/5x5"
  bottom: "inception_4b/pool_proj"
  top: "inception_4b/output"
}
layer {
  name: "inception_4c/1x1"
  type: "Convolution"
  bottom: "inception_4b/output"
  top: "inception_4c/1x1"
  param {
    lr_mult: 1
    decay_mult: 1
  }
  param {
    lr_mult: 2
    decay_mult: 0
  }
  convolution_param {
    num_output: 128
    kernel_size: 1
    weight_filler {
      type: "xavier"
      std: 0.03
    }
    bias_filler {
      type: "constant"
      value: 0.2
    }
  }
}
layer {
  name: "inception_4c/relu_1x1"
  type: "ReLU"
  bottom: "inception_4c/1x1"
  top: "inception_4c/1x1"
}
layer {
  name: "inception_4c/3x3_reduce"
  type: "Convolution"
  bottom: "inception_4b/output"
  top: "inception_4c/3x3_reduce"
  param {
    lr_mult: 1
    decay_mult: 1
  }
  param {
    lr_mult: 2
    decay_mult: 0
  }
  convolution_param {
    num_output: 128
    kernel_size: 1
    weight_filler {
      type: "xavier"
      std: 0.09
    }
    bias_filler {
      type: "constant"
      value: 0.2
    }
  }
}
layer {
  name: "inception_4c/relu_3x3_reduce"
  type: "ReLU"
  bottom: "inception_4c/3x3_reduce"
  top: "inception_4c/3x3_reduce"
}
layer {
  name: "inception_4c/3x3"
  type: "Convolution"
  bottom: "inception_4c/3x3_reduce"
  top: "inception_4c/3x3"
  param {
    lr_mult: 1
    decay_mult: 1
  }
  param {
    lr_mult: 2
    decay_mult: 0
  }
  convolution_param {
    num_output: 256
    pad: 1
    kernel_size: 3
    weight_filler {
      type: "xavier"
      std: 0.03
    }
    bias_filler {
      type: "constant"
      value: 0.2
    }
  }
}
layer {
  name: "inception_4c/relu_3x3"
  type: "ReLU"
  bottom: "inception_4c/3x3"
  top: "inception_4c/3x3"
}
layer {
  name: "inception_4c/5x5_reduce"
  type: "Convolution"
  bottom: "inception_4b/output"
  top: "inception_4c/5x5_reduce"
  param {
    lr_mult: 1
    decay_mult: 1
  }
  param {
    lr_mult: 2
    decay_mult: 0
  }
  convolution_param {
    num_output: 24
    kernel_size: 1
    weight_filler {
      type: "xavier"
      std: 0.2
    }
    bias_filler {
      type: "constant"
      value: 0.2
    }
  }
}
layer {
  name: "inception_4c/relu_5x5_reduce"
  type: "ReLU"
  bottom: "inception_4c/5x5_reduce"
  top: "inception_4c/5x5_reduce"
}
layer {
  name: "inception_4c/5x5"
  type: "Convolution"
  bottom: "inception_4c/5x5_reduce"
  top: "inception_4c/5x5"
  param {
    lr_mult: 1
    decay_mult: 1
  }
  param {
    lr_mult: 2
    decay_mult: 0
  }
  convolution_param {
    num_output: 64
    pad: 2
    kernel_size: 5
    weight_filler {
      type: "xavier"
      std: 0.03
    }
    bias_filler {
      type: "constant"
      value: 0.2
    }
  }
}
layer {
  name: "inception_4c/relu_5x5"
  type: "ReLU"
  bottom: "inception_4c/5x5"
  top: "inception_4c/5x5"
}
layer {
  name: "inception_4c/pool"
  type: "Pooling"
  bottom: "inception_4b/output"
  top: "inception_4c/pool"
  pooling_param {
    pool: MAX
    kernel_size: 3
    stride: 1
    pad: 1
  }
}
layer {
  name: "inception_4c/pool_proj"
  type: "Convolution"
  bottom: "inception_4c/pool"
  top: "inception_4c/pool_proj"
  param {
    lr_mult: 1
    decay_mult: 1
  }
  param {
    lr_mult: 2
    decay_mult: 0
  }
  convolution_param {
    num_output: 64
    kernel_size: 1
    weight_filler {
      type: "xavier"
      std: 0.1
    }
    bias_filler {
      type: "constant"
      value: 0.2
    }
  }
}
layer {
  name: "inception_4c/relu_pool_proj"
  type: "ReLU"
  bottom: "inception_4c/pool_proj"
  top: "inception_4c/pool_proj"
}
layer {
  name: "inception_4c/output"
  type: "Concat"
  bottom: "inception_4c/1x1"
  bottom: "inception_4c/3x3"
  bottom: "inception_4c/5x5"
  bottom: "inception_4c/pool_proj"
  top: "inception_4c/output"
}
layer {
  name: "inception_4d/1x1"
  type: "Convolution"
  bottom: "inception_4c/output"
  top: "inception_4d/1x1"
  param {
    lr_mult: 1
    decay_mult: 1
  }
  param {
    lr_mult: 2
    decay_mult: 0
  }
  convolution_param {
    num_output: 112
    kernel_size: 1
    weight_filler {
      type: "xavier"
      std: 0.03
    }
    bias_filler {
      type: "constant"
      value: 0.2
    }
  }
}
layer {
  name: "inception_4d/relu_1x1"
  type: "ReLU"
  bottom: "inception_4d/1x1"
  top: "inception_4d/1x1"
}
layer {
  name: "inception_4d/3x3_reduce"
  type: "Convolution"
  bottom: "inception_4c/output"
  top: "inception_4d/3x3_reduce"
  param {
    lr_mult: 1
    decay_mult: 1
  }
  param {
    lr_mult: 2
    decay_mult: 0
  }
  convolution_param {
    num_output: 144
    kernel_size: 1
    weight_filler {
      type: "xavier"
      std: 0.09
    }
    bias_filler {
      type: "constant"
      value: 0.2
    }
  }
}
layer {
  name: "inception_4d/relu_3x3_reduce"
  type: "ReLU"
  bottom: "inception_4d/3x3_reduce"
  top: "inception_4d/3x3_reduce"
}
layer {
  name: "inception_4d/3x3"
  type: "Convolution"
  bottom: "inception_4d/3x3_reduce"
  top: "inception_4d/3x3"
  param {
    lr_mult: 1
    decay_mult: 1
  }
  param {
    lr_mult: 2
    decay_mult: 0
  }
  convolution_param {
    num_output: 288
    pad: 1
    kernel_size: 3
    weight_filler {
      type: "xavier"
      std: 0.03
    }
    bias_filler {
      type: "constant"
      value: 0.2
    }
  }
}
layer {
  name: "inception_4d/relu_3x3"
  type: "ReLU"
  bottom: "inception_4d/3x3"
  top: "inception_4d/3x3"
}
layer {
  name: "inception_4d/5x5_reduce"
  type: "Convolution"
  bottom: "inception_4c/output"
  top: "inception_4d/5x5_reduce"
  param {
    lr_mult: 1
    decay_mult: 1
  }
  param {
    lr_mult: 2
    decay_mult: 0
  }
  convolution_param {
    num_output: 32
    kernel_size: 1
    weight_filler {
      type: "xavier"
      std: 0.2
    }
    bias_filler {
      type: "constant"
      value: 0.2
    }
  }
}
layer {
  name: "inception_4d/relu_5x5_reduce"
  type: "ReLU"
  bottom: "inception_4d/5x5_reduce"
  top: "inception_4d/5x5_reduce"
}
layer {
  name: "inception_4d/5x5"
  type: "Convolution"
  bottom: "inception_4d/5x5_reduce"
  top: "inception_4d/5x5"
  param {
    lr_mult: 1
    decay_mult: 1
  }
  param {
    lr_mult: 2
    decay_mult: 0
  }
  convolution_param {
    num_output: 64
    pad: 2
    kernel_size: 5
    weight_filler {
      type: "xavier"
      std: 0.03
    }
    bias_filler {
      type: "constant"
      value: 0.2
    }
  }
}
layer {
  name: "inception_4d/relu_5x5"
  type: "ReLU"
  bottom: "inception_4d/5x5"
  top: "inception_4d/5x5"
}
layer {
  name: "inception_4d/pool"
  type: "Pooling"
  bottom: "inception_4c/output"
  top: "inception_4d/pool"
  pooling_param {
    pool: MAX
    kernel_size: 3
    stride: 1
    pad: 1
  }
}
layer {
  name: "inception_4d/pool_proj"
  type: "Convolution"
  bottom: "inception_4d/pool"
  top: "inception_4d/pool_proj"
  param {
    lr_mult: 1
    decay_mult: 1
  }
  param {
    lr_mult: 2
    decay_mult: 0
  }
  convolution_param {
    num_output: 64
    kernel_size: 1
    weight_filler {
      type: "xavier"
      std: 0.1
    }
    bias_filler {
      type: "constant"
      value: 0.2
    }
  }
}
layer {
  name: "inception_4d/relu_pool_proj"
  type: "ReLU"
  bottom: "inception_4d/pool_proj"
  top: "inception_4d/pool_proj"
}
layer {
  name: "inception_4d/output"
  type: "Concat"
  bottom: "inception_4d/1x1"
  bottom: "inception_4d/3x3"
  bottom: "inception_4d/5x5"
  bottom: "inception_4d/pool_proj"
  top: "inception_4d/output"
}
layer {
  name: "loss2/ave_pool"
  type: "Pooling"
  bottom: "inception_4d/output"
  top: "loss2/ave_pool"
  pooling_param {
    pool: AVE
    kernel_size: 5
    stride: 3
  }
}
layer {
  name: "loss2/conv"
  type: "Convolution"
  bottom: "loss2/ave_pool"
  top: "loss2/conv"
  param {
    lr_mult: 1
    decay_mult: 1
  }
  param {
    lr_mult: 2
    decay_mult: 0
  }
  convolution_param {
    num_output: 128
    kernel_size: 1
    weight_filler {
      type: "xavier"
      std: 0.08
    }
    bias_filler {
      type: "constant"
      value: 0.2
    }
  }
}
layer {
  name: "loss2/relu_conv"
  type: "ReLU"
  bottom: "loss2/conv"
  top: "loss2/conv"
}
layer {
  name: "loss2/fc"
  type: "InnerProduct"
  bottom: "loss2/conv"
  top: "loss2/fc"
  param {
    lr_mult: 1
    decay_mult: 1
  }
  param {
    lr_mult: 2
    decay_mult: 0
  }
  inner_product_param {
    num_output: 1024
    weight_filler {
      type: "xavier"
      std: 0.02
    }
    bias_filler {
      type: "constant"
      value: 0.2
    }
  }
}
layer {
  name: "loss2/relu_fc"
  type: "ReLU"
  bottom: "loss2/fc"
  top: "loss2/fc"
}
layer {
  name: "loss2/drop_fc"
  type: "Dropout"
  bottom: "loss2/fc"
  top: "loss2/fc"
  dropout_param {
    dropout_ratio: 0.7
  }
}
layer {
  name: "loss2/classifier_plantvillage"
  type: "InnerProduct"
  bottom: "loss2/fc"
  top: "loss2/classifier_plantvillage"
  param {
    lr_mult: 1
    decay_mult: 1
  }
  param {
    lr_mult: 2
    decay_mult: 0
  }
  inner_product_param {
    num_output: 38
    weight_filler {
      type: "xavier"
      std: 0.0009765625
    }
    bias_filler {
      type: "constant"
      value: 0
    }
  }
}
layer {
  name: "inception_4e/1x1"
  type: "Convolution"
  bottom: "inception_4d/output"
  top: "inception_4e/1x1"
  param {
    lr_mult: 1
    decay_mult: 1
  }
  param {
    lr_mult: 2
    decay_mult: 0
  }
  convolution_param {
    num_output: 256
    kernel_size: 1
    weight_filler {
      type: "xavier"
      std: 0.03
    }
    bias_filler {
      type: "constant"
      value: 0.2
    }
  }
}
layer {
  name: "inception_4e/relu_1x1"
  type: "ReLU"
  bottom: "inception_4e/1x1"
  top: "inception_4e/1x1"
}
layer {
  name: "inception_4e/3x3_reduce"
  type: "Convolution"
  bottom: "inception_4d/output"
  top: "inception_4e/3x3_reduce"
  param {
    lr_mult: 1
    decay_mult: 1
  }
  param {
    lr_mult: 2
    decay_mult: 0
  }
  convolution_param {
    num_output: 160
    kernel_size: 1
    weight_filler {
      type: "xavier"
      std: 0.09
    }
    bias_filler {
      type: "constant"
      value: 0.2
    }
  }
}
layer {
  name: "inception_4e/relu_3x3_reduce"
  type: "ReLU"
  bottom: "inception_4e/3x3_reduce"
  top: "inception_4e/3x3_reduce"
}
layer {
  name: "inception_4e/3x3"
  type: "Convolution"
  bottom: "inception_4e/3x3_reduce"
  top: "inception_4e/3x3"
  param {
    lr_mult: 1
    decay_mult: 1
  }
  param {
    lr_mult: 2
    decay_mult: 0
  }
  convolution_param {
    num_output: 320
    pad: 1
    kernel_size: 3
    weight_filler {
      type: "xavier"
      std: 0.03
    }
    bias_filler {
      type: "constant"
      value: 0.2
    }
  }
}
layer {
  name: "inception_4e/relu_3x3"
  type: "ReLU"
  bottom: "inception_4e/3x3"
  top: "inception_4e/3x3"
}
layer {
  name: "inception_4e/5x5_reduce"
  type: "Convolution"
  bottom: "inception_4d/output"
  top: "inception_4e/5x5_reduce"
  param {
    lr_mult: 1
    decay_mult: 1
  }
  param {
    lr_mult: 2
    decay_mult: 0
  }
  convolution_param {
    num_output: 32
    kernel_size: 1
    weight_filler {
      type: "xavier"
      std: 0.2
    }
    bias_filler {
      type: "constant"
      value: 0.2
    }
  }
}
layer {
  name: "inception_4e/relu_5x5_reduce"
  type: "ReLU"
  bottom: "inception_4e/5x5_reduce"
  top: "inception_4e/5x5_reduce"
}
layer {
  name: "inception_4e/5x5"
  type: "Convolution"
  bottom: "inception_4e/5x5_reduce"
  top: "inception_4e/
I0403 14:48:07.310328 11129 layer_factory.hpp:77] Creating layer data
I0403 14:48:07.310930 11129 net.cpp:91] Creating Layer data
I0403 14:48:07.310964 11129 net.cpp:399] data -> data
I0403 14:48:07.311015 11129 net.cpp:399] data -> label
I0403 14:48:07.311053 11129 data_transformer.cpp:25] Loading mean file from: /home/mohanty/data/final_dataset/lmdb/grayscale-60-40/mean.binaryproto
I0403 14:48:07.313822 11132 db_lmdb.cpp:38] Opened lmdb /home/mohanty/data/final_dataset/lmdb/grayscale-60-40/test_db
I0403 14:48:07.324676 11129 data_layer.cpp:41] output data size: 24,3,224,224
I0403 14:48:07.352639 11129 net.cpp:141] Setting up data
I0403 14:48:07.352742 11129 net.cpp:148] Top shape: 24 3 224 224 (3612672)
I0403 14:48:07.352766 11129 net.cpp:148] Top shape: 24 (24)
I0403 14:48:07.352782 11129 net.cpp:156] Memory required for data: 14450784
I0403 14:48:07.352810 11129 layer_factory.hpp:77] Creating layer label_data_1_split
I0403 14:48:07.352838 11129 net.cpp:91] Creating Layer label_data_1_split
I0403 14:48:07.352856 11129 net.cpp:425] label_data_1_split <- label
I0403 14:48:07.352888 11129 net.cpp:399] label_data_1_split -> label_data_1_split_0
I0403 14:48:07.352918 11129 net.cpp:399] label_data_1_split -> label_data_1_split_1
I0403 14:48:07.352941 11129 net.cpp:399] label_data_1_split -> label_data_1_split_2
I0403 14:48:07.352962 11129 net.cpp:399] label_data_1_split -> label_data_1_split_3
I0403 14:48:07.352983 11129 net.cpp:399] label_data_1_split -> label_data_1_split_4
I0403 14:48:07.353004 11129 net.cpp:399] label_data_1_split -> label_data_1_split_5
I0403 14:48:07.353025 11129 net.cpp:399] label_data_1_split -> label_data_1_split_6
I0403 14:48:07.353046 11129 net.cpp:399] label_data_1_split -> label_data_1_split_7
I0403 14:48:07.353066 11129 net.cpp:399] label_data_1_split -> label_data_1_split_8
I0403 14:48:07.353087 11129 net.cpp:399] label_data_1_split -> label_data_1_split_9
I0403 14:48:07.353222 11129 net.cpp:141] Setting up label_data_1_split
I0403 14:48:07.353250 11129 net.cpp:148] Top shape: 24 (24)
I0403 14:48:07.353267 11129 net.cpp:148] Top shape: 24 (24)
I0403 14:48:07.353283 11129 net.cpp:148] Top shape: 24 (24)
I0403 14:48:07.353299 11129 net.cpp:148] Top shape: 24 (24)
I0403 14:48:07.353315 11129 net.cpp:148] Top shape: 24 (24)
I0403 14:48:07.353332 11129 net.cpp:148] Top shape: 24 (24)
I0403 14:48:07.353348 11129 net.cpp:148] Top shape: 24 (24)
I0403 14:48:07.353364 11129 net.cpp:148] Top shape: 24 (24)
I0403 14:48:07.353380 11129 net.cpp:148] Top shape: 24 (24)
I0403 14:48:07.353397 11129 net.cpp:148] Top shape: 24 (24)
I0403 14:48:07.353443 11129 net.cpp:156] Memory required for data: 14451744
I0403 14:48:07.353461 11129 layer_factory.hpp:77] Creating layer conv1/7x7_s2
I0403 14:48:07.353497 11129 net.cpp:91] Creating Layer conv1/7x7_s2
I0403 14:48:07.353516 11129 net.cpp:425] conv1/7x7_s2 <- data
I0403 14:48:07.353538 11129 net.cpp:399] conv1/7x7_s2 -> conv1/7x7_s2
I0403 14:48:07.495493 11129 net.cpp:141] Setting up conv1/7x7_s2
I0403 14:48:07.495584 11129 net.cpp:148] Top shape: 24 64 112 112 (19267584)
I0403 14:48:07.495604 11129 net.cpp:156] Memory required for data: 91522080
I0403 14:48:07.495636 11129 layer_factory.hpp:77] Creating layer conv1/relu_7x7
I0403 14:48:07.495666 11129 net.cpp:91] Creating Layer conv1/relu_7x7
I0403 14:48:07.495685 11129 net.cpp:425] conv1/relu_7x7 <- conv1/7x7_s2
I0403 14:48:07.495705 11129 net.cpp:386] conv1/relu_7x7 -> conv1/7x7_s2 (in-place)
I0403 14:48:07.495971 11129 net.cpp:141] Setting up conv1/relu_7x7
I0403 14:48:07.496001 11129 net.cpp:148] Top shape: 24 64 112 112 (19267584)
I0403 14:48:07.496016 11129 net.cpp:156] Memory required for data: 168592416
I0403 14:48:07.496032 11129 layer_factory.hpp:77] Creating layer pool1/3x3_s2
I0403 14:48:07.496058 11129 net.cpp:91] Creating Layer pool1/3x3_s2
I0403 14:48:07.496078 11129 net.cpp:425] pool1/3x3_s2 <- conv1/7x7_s2
I0403 14:48:07.496098 11129 net.cpp:399] pool1/3x3_s2 -> pool1/3x3_s2
I0403 14:48:07.496184 11129 net.cpp:141] Setting up pool1/3x3_s2
I0403 14:48:07.496215 11129 net.cpp:148] Top shape: 24 64 56 56 (4816896)
I0403 14:48:07.496232 11129 net.cpp:156] Memory required for data: 187860000
I0403 14:48:07.496249 11129 layer_factory.hpp:77] Creating layer pool1/norm1
I0403 14:48:07.496274 11129 net.cpp:91] Creating Layer pool1/norm1
I0403 14:48:07.496294 11129 net.cpp:425] pool1/norm1 <- pool1/3x3_s2
I0403 14:48:07.496312 11129 net.cpp:399] pool1/norm1 -> pool1/norm1
I0403 14:48:07.496609 11129 net.cpp:141] Setting up pool1/norm1
I0403 14:48:07.496639 11129 net.cpp:148] Top shape: 24 64 56 56 (4816896)
I0403 14:48:07.496656 11129 net.cpp:156] Memory required for data: 207127584
I0403 14:48:07.496672 11129 layer_factory.hpp:77] Creating layer conv2/3x3_reduce
I0403 14:48:07.496697 11129 net.cpp:91] Creating Layer conv2/3x3_reduce
I0403 14:48:07.496714 11129 net.cpp:425] conv2/3x3_reduce <- pool1/norm1
I0403 14:48:07.496734 11129 net.cpp:399] conv2/3x3_reduce -> conv2/3x3_reduce
I0403 14:48:07.498121 11129 net.cpp:141] Setting up conv2/3x3_reduce
I0403 14:48:07.498162 11129 net.cpp:148] Top shape: 24 64 56 56 (4816896)
I0403 14:48:07.498178 11129 net.cpp:156] Memory required for data: 226395168
I0403 14:48:07.498200 11129 layer_factory.hpp:77] Creating layer conv2/relu_3x3_reduce
I0403 14:48:07.498221 11129 net.cpp:91] Creating Layer conv2/relu_3x3_reduce
I0403 14:48:07.498239 11129 net.cpp:425] conv2/relu_3x3_reduce <- conv2/3x3_reduce
I0403 14:48:07.498258 11129 net.cpp:386] conv2/relu_3x3_reduce -> conv2/3x3_reduce (in-place)
I0403 14:48:07.498538 11129 net.cpp:141] Setting up conv2/relu_3x3_reduce
I0403 14:48:07.498567 11129 net.cpp:148] Top shape: 24 64 56 56 (4816896)
I0403 14:48:07.498584 11129 net.cpp:156] Memory required for data: 245662752
I0403 14:48:07.498600 11129 layer_factory.hpp:77] Creating layer conv2/3x3
I0403 14:48:07.498625 11129 net.cpp:91] Creating Layer conv2/3x3
I0403 14:48:07.498644 11129 net.cpp:425] conv2/3x3 <- conv2/3x3_reduce
I0403 14:48:07.498664 11129 net.cpp:399] conv2/3x3 -> conv2/3x3
I0403 14:48:07.501085 11129 net.cpp:141] Setting up conv2/3x3
I0403 14:48:07.501121 11129 net.cpp:148] Top shape: 24 192 56 56 (14450688)
I0403 14:48:07.501143 11129 net.cpp:156] Memory required for data: 303465504
I0403 14:48:07.501166 11129 layer_factory.hpp:77] Creating layer conv2/relu_3x3
I0403 14:48:07.501188 11129 net.cpp:91] Creating Layer conv2/relu_3x3
I0403 14:48:07.501205 11129 net.cpp:425] conv2/relu_3x3 <- conv2/3x3
I0403 14:48:07.501227 11129 net.cpp:386] conv2/relu_3x3 -> conv2/3x3 (in-place)
I0403 14:48:07.501415 11129 net.cpp:141] Setting up conv2/relu_3x3
I0403 14:48:07.501443 11129 net.cpp:148] Top shape: 24 192 56 56 (14450688)
I0403 14:48:07.501492 11129 net.cpp:156] Memory required for data: 361268256
I0403 14:48:07.501510 11129 layer_factory.hpp:77] Creating layer conv2/norm2
I0403 14:48:07.501533 11129 net.cpp:91] Creating Layer conv2/norm2
I0403 14:48:07.501550 11129 net.cpp:425] conv2/norm2 <- conv2/3x3
I0403 14:48:07.501569 11129 net.cpp:399] conv2/norm2 -> conv2/norm2
I0403 14:48:07.501917 11129 net.cpp:141] Setting up conv2/norm2
I0403 14:48:07.501950 11129 net.cpp:148] Top shape: 24 192 56 56 (14450688)
I0403 14:48:07.501966 11129 net.cpp:156] Memory required for data: 419071008
I0403 14:48:07.501982 11129 layer_factory.hpp:77] Creating layer pool2/3x3_s2
I0403 14:48:07.502003 11129 net.cpp:91] Creating Layer pool2/3x3_s2
I0403 14:48:07.502022 11129 net.cpp:425] pool2/3x3_s2 <- conv2/norm2
I0403 14:48:07.502041 11129 net.cpp:399] pool2/3x3_s2 -> pool2/3x3_s2
I0403 14:48:07.502099 11129 net.cpp:141] Setting up pool2/3x3_s2
I0403 14:48:07.502123 11129 net.cpp:148] Top shape: 24 192 28 28 (3612672)
I0403 14:48:07.502146 11129 net.cpp:156] Memory required for data: 433521696
I0403 14:48:07.502161 11129 layer_factory.hpp:77] Creating layer pool2/3x3_s2_pool2/3x3_s2_0_split
I0403 14:48:07.502180 11129 net.cpp:91] Creating Layer pool2/3x3_s2_pool2/3x3_s2_0_split
I0403 14:48:07.502197 11129 net.cpp:425] pool2/3x3_s2_pool2/3x3_s2_0_split <- pool2/3x3_s2
I0403 14:48:07.502219 11129 net.cpp:399] pool2/3x3_s2_pool2/3x3_s2_0_split -> pool2/3x3_s2_pool2/3x3_s2_0_split_0
I0403 14:48:07.502240 11129 net.cpp:399] pool2/3x3_s2_pool2/3x3_s2_0_split -> pool2/3x3_s2_pool2/3x3_s2_0_split_1
I0403 14:48:07.502262 11129 net.cpp:399] pool2/3x3_s2_pool2/3x3_s2_0_split -> pool2/3x3_s2_pool2/3x3_s2_0_split_2
I0403 14:48:07.502285 11129 net.cpp:399] pool2/3x3_s2_pool2/3x3_s2_0_split -> pool2/3x3_s2_pool2/3x3_s2_0_split_3
I0403 14:48:07.502359 11129 net.cpp:141] Setting up pool2/3x3_s2_pool2/3x3_s2_0_split
I0403 14:48:07.502385 11129 net.cpp:148] Top shape: 24 192 28 28 (3612672)
I0403 14:48:07.502403 11129 net.cpp:148] Top shape: 24 192 28 28 (3612672)
I0403 14:48:07.502419 11129 net.cpp:148] Top shape: 24 192 28 28 (3612672)
I0403 14:48:07.502435 11129 net.cpp:148] Top shape: 24 192 28 28 (3612672)
I0403 14:48:07.502451 11129 net.cpp:156] Memory required for data: 491324448
I0403 14:48:07.502466 11129 layer_factory.hpp:77] Creating layer inception_3a/1x1
I0403 14:48:07.502490 11129 net.cpp:91] Creating Layer inception_3a/1x1
I0403 14:48:07.502509 11129 net.cpp:425] inception_3a/1x1 <- pool2/3x3_s2_pool2/3x3_s2_0_split_0
I0403 14:48:07.502532 11129 net.cpp:399] inception_3a/1x1 -> inception_3a/1x1
I0403 14:48:07.504140 11129 net.cpp:141] Setting up inception_3a/1x1
I0403 14:48:07.504173 11129 net.cpp:148] Top shape: 24 64 28 28 (1204224)
I0403 14:48:07.504192 11129 net.cpp:156] Memory required for data: 496141344
I0403 14:48:07.504212 11129 layer_factory.hpp:77] Creating layer inception_3a/relu_1x1
I0403 14:48:07.504231 11129 net.cpp:91] Creating Layer inception_3a/relu_1x1
I0403 14:48:07.504248 11129 net.cpp:425] inception_3a/relu_1x1 <- inception_3a/1x1
I0403 14:48:07.504267 11129 net.cpp:386] inception_3a/relu_1x1 -> inception_3a/1x1 (in-place)
I0403 14:48:07.504451 11129 net.cpp:141] Setting up inception_3a/relu_1x1
I0403 14:48:07.504482 11129 net.cpp:148] Top shape: 24 64 28 28 (1204224)
I0403 14:48:07.504498 11129 net.cpp:156] Memory required for data: 500958240
I0403 14:48:07.504513 11129 layer_factory.hpp:77] Creating layer inception_3a/3x3_reduce
I0403 14:48:07.504536 11129 net.cpp:91] Creating Layer inception_3a/3x3_reduce
I0403 14:48:07.504555 11129 net.cpp:425] inception_3a/3x3_reduce <- pool2/3x3_s2_pool2/3x3_s2_0_split_1
I0403 14:48:07.504575 11129 net.cpp:399] inception_3a/3x3_reduce -> inception_3a/3x3_reduce
I0403 14:48:07.506356 11129 net.cpp:141] Setting up inception_3a/3x3_reduce
I0403 14:48:07.506386 11129 net.cpp:148] Top shape: 24 96 28 28 (1806336)
I0403 14:48:07.506405 11129 net.cpp:156] Memory required for data: 508183584
I0403 14:48:07.506428 11129 layer_factory.hpp:77] Creating layer inception_3a/relu_3x3_reduce
I0403 14:48:07.506469 11129 net.cpp:91] Creating Layer inception_3a/relu_3x3_reduce
I0403 14:48:07.506490 11129 net.cpp:425] inception_3a/relu_3x3_reduce <- inception_3a/3x3_reduce
I0403 14:48:07.506510 11129 net.cpp:386] inception_3a/relu_3x3_reduce -> inception_3a/3x3_reduce (in-place)
I0403 14:48:07.506701 11129 net.cpp:141] Setting up inception_3a/relu_3x3_reduce
I0403 14:48:07.506729 11129 net.cpp:148] Top shape: 24 96 28 28 (1806336)
I0403 14:48:07.506745 11129 net.cpp:156] Memory required for data: 515408928
I0403 14:48:07.506760 11129 layer_factory.hpp:77] Creating layer inception_3a/3x3
I0403 14:48:07.506783 11129 net.cpp:91] Creating Layer inception_3a/3x3
I0403 14:48:07.506803 11129 net.cpp:425] inception_3a/3x3 <- inception_3a/3x3_reduce
I0403 14:48:07.506825 11129 net.cpp:399] inception_3a/3x3 -> inception_3a/3x3
I0403 14:48:07.508556 11129 net.cpp:141] Setting up inception_3a/3x3
I0403 14:48:07.508589 11129 net.cpp:148] Top shape: 24 128 28 28 (2408448)
I0403 14:48:07.508606 11129 net.cpp:156] Memory required for data: 525042720
I0403 14:48:07.508627 11129 layer_factory.hpp:77] Creating layer inception_3a/relu_3x3
I0403 14:48:07.508646 11129 net.cpp:91] Creating Layer inception_3a/relu_3x3
I0403 14:48:07.508663 11129 net.cpp:425] inception_3a/relu_3x3 <- inception_3a/3x3
I0403 14:48:07.508682 11129 net.cpp:386] inception_3a/relu_3x3 -> inception_3a/3x3 (in-place)
I0403 14:48:07.508966 11129 net.cpp:141] Setting up inception_3a/relu_3x3
I0403 14:48:07.508998 11129 net.cpp:148] Top shape: 24 128 28 28 (2408448)
I0403 14:48:07.509016 11129 net.cpp:156] Memory required for data: 534676512
I0403 14:48:07.509032 11129 layer_factory.hpp:77] Creating layer inception_3a/5x5_reduce
I0403 14:48:07.509057 11129 net.cpp:91] Creating Layer inception_3a/5x5_reduce
I0403 14:48:07.509075 11129 net.cpp:425] inception_3a/5x5_reduce <- pool2/3x3_s2_pool2/3x3_s2_0_split_2
I0403 14:48:07.509095 11129 net.cpp:399] inception_3a/5x5_reduce -> inception_3a/5x5_reduce
I0403 14:48:07.510128 11129 net.cpp:141] Setting up inception_3a/5x5_reduce
I0403 14:48:07.510159 11129 net.cpp:148] Top shape: 24 16 28 28 (301056)
I0403 14:48:07.510176 11129 net.cpp:156] Memory required for data: 535880736
I0403 14:48:07.510195 11129 layer_factory.hpp:77] Creating layer inception_3a/relu_5x5_reduce
I0403 14:48:07.510215 11129 net.cpp:91] Creating Layer inception_3a/relu_5x5_reduce
I0403 14:48:07.510231 11129 net.cpp:425] inception_3a/relu_5x5_reduce <- inception_3a/5x5_reduce
I0403 14:48:07.510252 11129 net.cpp:386] inception_3a/relu_5x5_reduce -> inception_3a/5x5_reduce (in-place)
I0403 14:48:07.510563 11129 net.cpp:141] Setting up inception_3a/relu_5x5_reduce
I0403 14:48:07.510592 11129 net.cpp:148] Top shape: 24 16 28 28 (301056)
I0403 14:48:07.510608 11129 net.cpp:156] Memory required for data: 537084960
I0403 14:48:07.510623 11129 layer_factory.hpp:77] Creating layer inception_3a/5x5
I0403 14:48:07.510646 11129 net.cpp:91] Creating Layer inception_3a/5x5
I0403 14:48:07.510665 11129 net.cpp:425] inception_3a/5x5 <- inception_3a/5x5_reduce
I0403 14:48:07.510689 11129 net.cpp:399] inception_3a/5x5 -> inception_3a/5x5
I0403 14:48:07.511737 11129 net.cpp:141] Setting up inception_3a/5x5
I0403 14:48:07.511770 11129 net.cpp:148] Top shape: 24 32 28 28 (602112)
I0403 14:48:07.511787 11129 net.cpp:156] Memory required for data: 539493408
I0403 14:48:07.511806 11129 layer_factory.hpp:77] Creating layer inception_3a/relu_5x5
I0403 14:48:07.511826 11129 net.cpp:91] Creating Layer inception_3a/relu_5x5
I0403 14:48:07.511842 11129 net.cpp:425] inception_3a/relu_5x5 <- inception_3a/5x5
I0403 14:48:07.511860 11129 net.cpp:386] inception_3a/relu_5x5 -> inception_3a/5x5 (in-place)
I0403 14:48:07.512042 11129 net.cpp:141] Setting up inception_3a/relu_5x5
I0403 14:48:07.512070 11129 net.cpp:148] Top shape: 24 32 28 28 (602112)
I0403 14:48:07.512087 11129 net.cpp:156] Memory required for data: 541901856
I0403 14:48:07.512104 11129 layer_factory.hpp:77] Creating layer inception_3a/pool
I0403 14:48:07.512122 11129 net.cpp:91] Creating Layer inception_3a/pool
I0403 14:48:07.512161 11129 net.cpp:425] inception_3a/pool <- pool2/3x3_s2_pool2/3x3_s2_0_split_3
I0403 14:48:07.512184 11129 net.cpp:399] inception_3a/pool -> inception_3a/pool
I0403 14:48:07.512245 11129 net.cpp:141] Setting up inception_3a/pool
I0403 14:48:07.512274 11129 net.cpp:148] Top shape: 24 192 28 28 (3612672)
I0403 14:48:07.512290 11129 net.cpp:156] Memory required for data: 556352544
I0403 14:48:07.512306 11129 layer_factory.hpp:77] Creating layer inception_3a/pool_proj
I0403 14:48:07.512331 11129 net.cpp:91] Creating Layer inception_3a/pool_proj
I0403 14:48:07.512351 11129 net.cpp:425] inception_3a/pool_proj <- inception_3a/pool
I0403 14:48:07.512370 11129 net.cpp:399] inception_3a/pool_proj -> inception_3a/pool_proj
I0403 14:48:07.513381 11129 net.cpp:141] Setting up inception_3a/pool_proj
I0403 14:48:07.513412 11129 net.cpp:148] Top shape: 24 32 28 28 (602112)
I0403 14:48:07.513428 11129 net.cpp:156] Memory required for data: 558760992
I0403 14:48:07.513454 11129 layer_factory.hpp:77] Creating layer inception_3a/relu_pool_proj
I0403 14:48:07.513475 11129 net.cpp:91] Creating Layer inception_3a/relu_pool_proj
I0403 14:48:07.513492 11129 net.cpp:425] inception_3a/relu_pool_proj <- inception_3a/pool_proj
I0403 14:48:07.513512 11129 net.cpp:386] inception_3a/relu_pool_proj -> inception_3a/pool_proj (in-place)
I0403 14:48:07.513800 11129 net.cpp:141] Setting up inception_3a/relu_pool_proj
I0403 14:48:07.513833 11129 net.cpp:148] Top shape: 24 32 28 28 (602112)
I0403 14:48:07.513850 11129 net.cpp:156] Memory required for data: 561169440
I0403 14:48:07.513866 11129 layer_factory.hpp:77] Creating layer inception_3a/output
I0403 14:48:07.513885 11129 net.cpp:91] Creating Layer inception_3a/output
I0403 14:48:07.513901 11129 net.cpp:425] inception_3a/output <- inception_3a/1x1
I0403 14:48:07.513918 11129 net.cpp:425] inception_3a/output <- inception_3a/3x3
I0403 14:48:07.513936 11129 net.cpp:425] inception_3a/output <- inception_3a/5x5
I0403 14:48:07.513952 11129 net.cpp:425] inception_3a/output <- inception_3a/pool_proj
I0403 14:48:07.513970 11129 net.cpp:399] inception_3a/output -> inception_3a/output
I0403 14:48:07.514021 11129 net.cpp:141] Setting up inception_3a/output
I0403 14:48:07.514047 11129 net.cpp:148] Top shape: 24 256 28 28 (4816896)
I0403 14:48:07.514063 11129 net.cpp:156] Memory required for data: 580437024
I0403 14:48:07.514080 11129 layer_factory.hpp:77] Creating layer inception_3a/output_inception_3a/output_0_split
I0403 14:48:07.514101 11129 net.cpp:91] Creating Layer inception_3a/output_inception_3a/output_0_split
I0403 14:48:07.514117 11129 net.cpp:425] inception_3a/output_inception_3a/output_0_split <- inception_3a/output
I0403 14:48:07.514142 11129 net.cpp:399] inception_3a/output_inception_3a/output_0_split -> inception_3a/output_inception_3a/output_0_split_0
I0403 14:48:07.514163 11129 net.cpp:399] inception_3a/output_inception_3a/output_0_split -> inception_3a/output_inception_3a/output_0_split_1
I0403 14:48:07.514189 11129 net.cpp:399] inception_3a/output_inception_3a/output_0_split -> inception_3a/output_inception_3a/output_0_split_2
I0403 14:48:07.514214 11129 net.cpp:399] inception_3a/output_inception_3a/output_0_split -> inception_3a/output_inception_3a/output_0_split_3
I0403 14:48:07.514292 11129 net.cpp:141] Setting up inception_3a/output_inception_3a/output_0_split
I0403 14:48:07.514318 11129 net.cpp:148] Top shape: 24 256 28 28 (4816896)
I0403 14:48:07.514335 11129 net.cpp:148] Top shape: 24 256 28 28 (4816896)
I0403 14:48:07.514353 11129 net.cpp:148] Top shape: 24 256 28 28 (4816896)
I0403 14:48:07.514370 11129 net.cpp:148] Top shape: 24 256 28 28 (4816896)
I0403 14:48:07.514384 11129 net.cpp:156] Memory required for data: 657507360
I0403 14:48:07.514400 11129 layer_factory.hpp:77] Creating layer inception_3b/1x1
I0403 14:48:07.514425 11129 net.cpp:91] Creating Layer inception_3b/1x1
I0403 14:48:07.514443 11129 net.cpp:425] inception_3b/1x1 <- inception_3a/output_inception_3a/output_0_split_0
I0403 14:48:07.514464 11129 net.cpp:399] inception_3b/1x1 -> inception_3b/1x1
I0403 14:48:07.515655 11129 net.cpp:141] Setting up inception_3b/1x1
I0403 14:48:07.515697 11129 net.cpp:148] Top shape: 24 128 28 28 (2408448)
I0403 14:48:07.515714 11129 net.cpp:156] Memory required for data: 667141152
I0403 14:48:07.515733 11129 layer_factory.hpp:77] Creating layer inception_3b/relu_1x1
I0403 14:48:07.515756 11129 net.cpp:91] Creating Layer inception_3b/relu_1x1
I0403 14:48:07.515775 11129 net.cpp:425] inception_3b/relu_1x1 <- inception_3b/1x1
I0403 14:48:07.515794 11129 net.cpp:386] inception_3b/relu_1x1 -> inception_3b/1x1 (in-place)
I0403 14:48:07.515976 11129 net.cpp:141] Setting up inception_3b/relu_1x1
I0403 14:48:07.516006 11129 net.cpp:148] Top shape: 24 128 28 28 (2408448)
I0403 14:48:07.516023 11129 net.cpp:156] Memory required for data: 676774944
I0403 14:48:07.516039 11129 layer_factory.hpp:77] Creating layer inception_3b/3x3_reduce
I0403 14:48:07.516063 11129 net.cpp:91] Creating Layer inception_3b/3x3_reduce
I0403 14:48:07.516082 11129 net.cpp:425] inception_3b/3x3_reduce <- inception_3a/output_inception_3a/output_0_split_1
I0403 14:48:07.516103 11129 net.cpp:399] inception_3b/3x3_reduce -> inception_3b/3x3_reduce
I0403 14:48:07.517299 11129 net.cpp:141] Setting up inception_3b/3x3_reduce
I0403 14:48:07.517329 11129 net.cpp:148] Top shape: 24 128 28 28 (2408448)
I0403 14:48:07.517346 11129 net.cpp:156] Memory required for data: 686408736
I0403 14:48:07.517366 11129 layer_factory.hpp:77] Creating layer inception_3b/relu_3x3_reduce
I0403 14:48:07.517390 11129 net.cpp:91] Creating Layer inception_3b/relu_3x3_reduce
I0403 14:48:07.517408 11129 net.cpp:425] inception_3b/relu_3x3_reduce <- inception_3b/3x3_reduce
I0403 14:48:07.517427 11129 net.cpp:386] inception_3b/relu_3x3_reduce -> inception_3b/3x3_reduce (in-place)
I0403 14:48:07.517611 11129 net.cpp:141] Setting up inception_3b/relu_3x3_reduce
I0403 14:48:07.517640 11129 net.cpp:148] Top shape: 24 128 28 28 (2408448)
I0403 14:48:07.517657 11129 net.cpp:156] Memory required for data: 696042528
I0403 14:48:07.517673 11129 layer_factory.hpp:77] Creating layer inception_3b/3x3
I0403 14:48:07.517699 11129 net.cpp:91] Creating Layer inception_3b/3x3
I0403 14:48:07.517717 11129 net.cpp:425] inception_3b/3x3 <- inception_3b/3x3_reduce
I0403 14:48:07.517740 11129 net.cpp:399] inception_3b/3x3 -> inception_3b/3x3
I0403 14:48:07.520800 11129 net.cpp:141] Setting up inception_3b/3x3
I0403 14:48:07.520833 11129 net.cpp:148] Top shape: 24 192 28 28 (3612672)
I0403 14:48:07.520849 11129 net.cpp:156] Memory required for data: 710493216
I0403 14:48:07.520869 11129 layer_factory.hpp:77] Creating layer inception_3b/relu_3x3
I0403 14:48:07.520887 11129 net.cpp:91] Creating Layer inception_3b/relu_3x3
I0403 14:48:07.520905 11129 net.cpp:425] inception_3b/relu_3x3 <- inception_3b/3x3
I0403 14:48:07.520923 11129 net.cpp:386] inception_3b/relu_3x3 -> inception_3b/3x3 (in-place)
I0403 14:48:07.521216 11129 net.cpp:141] Setting up inception_3b/relu_3x3
I0403 14:48:07.521246 11129 net.cpp:148] Top shape: 24 192 28 28 (3612672)
I0403 14:48:07.521263 11129 net.cpp:156] Memory required for data: 724943904
I0403 14:48:07.521278 11129 layer_factory.hpp:77] Creating layer inception_3b/5x5_reduce
I0403 14:48:07.521301 11129 net.cpp:91] Creating Layer inception_3b/5x5_reduce
I0403 14:48:07.521319 11129 net.cpp:425] inception_3b/5x5_reduce <- inception_3a/output_inception_3a/output_0_split_2
I0403 14:48:07.521340 11129 net.cpp:399] inception_3b/5x5_reduce -> inception_3b/5x5_reduce
I0403 14:48:07.522373 11129 net.cpp:141] Setting up inception_3b/5x5_reduce
I0403 14:48:07.522408 11129 net.cpp:148] Top shape: 24 32 28 28 (602112)
I0403 14:48:07.522425 11129 net.cpp:156] Memory required for data: 727352352
I0403 14:48:07.522444 11129 layer_factory.hpp:77] Creating layer inception_3b/relu_5x5_reduce
I0403 14:48:07.522464 11129 net.cpp:91] Creating Layer inception_3b/relu_5x5_reduce
I0403 14:48:07.522480 11129 net.cpp:425] inception_3b/relu_5x5_reduce <- inception_3b/5x5_reduce
I0403 14:48:07.522498 11129 net.cpp:386] inception_3b/relu_5x5_reduce -> inception_3b/5x5_reduce (in-place)
I0403 14:48:07.522696 11129 net.cpp:141] Setting up inception_3b/relu_5x5_reduce
I0403 14:48:07.522724 11129 net.cpp:148] Top shape: 24 32 28 28 (602112)
I0403 14:48:07.522739 11129 net.cpp:156] Memory required for data: 729760800
I0403 14:48:07.522754 11129 layer_factory.hpp:77] Creating layer inception_3b/5x5
I0403 14:48:07.522778 11129 net.cpp:91] Creating Layer inception_3b/5x5
I0403 14:48:07.522797 11129 net.cpp:425] inception_3b/5x5 <- inception_3b/5x5_reduce
I0403 14:48:07.522819 11129 net.cpp:399] inception_3b/5x5 -> inception_3b/5x5
I0403 14:48:07.524814 11129 net.cpp:141] Setting up inception_3b/5x5
I0403 14:48:07.524844 11129 net.cpp:148] Top shape: 24 96 28 28 (1806336)
I0403 14:48:07.524860 11129 net.cpp:156] Memory required for data: 736986144
I0403 14:48:07.524879 11129 layer_factory.hpp:77] Creating layer inception_3b/relu_5x5
I0403 14:48:07.524901 11129 net.cpp:91] Creating Layer inception_3b/relu_5x5
I0403 14:48:07.524920 11129 net.cpp:425] inception_3b/relu_5x5 <- inception_3b/5x5
I0403 14:48:07.524937 11129 net.cpp:386] inception_3b/relu_5x5 -> inception_3b/5x5 (in-place)
I0403 14:48:07.525138 11129 net.cpp:141] Setting up inception_3b/relu_5x5
I0403 14:48:07.525166 11129 net.cpp:148] Top shape: 24 96 28 28 (1806336)
I0403 14:48:07.525182 11129 net.cpp:156] Memory required for data: 744211488
I0403 14:48:07.525198 11129 layer_factory.hpp:77] Creating layer inception_3b/pool
I0403 14:48:07.525216 11129 net.cpp:91] Creating Layer inception_3b/pool
I0403 14:48:07.525233 11129 net.cpp:425] inception_3b/pool <- inception_3a/output_inception_3a/output_0_split_3
I0403 14:48:07.525251 11129 net.cpp:399] inception_3b/pool -> inception_3b/pool
I0403 14:48:07.525308 11129 net.cpp:141] Setting up inception_3b/pool
I0403 14:48:07.525332 11129 net.cpp:148] Top shape: 24 256 28 28 (4816896)
I0403 14:48:07.525347 11129 net.cpp:156] Memory required for data: 763479072
I0403 14:48:07.525362 11129 layer_factory.hpp:77] Creating layer inception_3b/pool_proj
I0403 14:48:07.525384 11129 net.cpp:91] Creating Layer inception_3b/pool_proj
I0403 14:48:07.525403 11129 net.cpp:425] inception_3b/pool_proj <- inception_3b/pool
I0403 14:48:07.525424 11129 net.cpp:399] inception_3b/pool_proj -> inception_3b/pool_proj
I0403 14:48:07.526495 11129 net.cpp:141] Setting up inception_3b/pool_proj
I0403 14:48:07.526525 11129 net.cpp:148] Top shape: 24 64 28 28 (1204224)
I0403 14:48:07.526541 11129 net.cpp:156] Memory required for data: 768295968
I0403 14:48:07.526559 11129 layer_factory.hpp:77] Creating layer inception_3b/relu_pool_proj
I0403 14:48:07.526579 11129 net.cpp:91] Creating Layer inception_3b/relu_pool_proj
I0403 14:48:07.526598 11129 net.cpp:425] inception_3b/relu_pool_proj <- inception_3b/pool_proj
I0403 14:48:07.526617 11129 net.cpp:386] inception_3b/relu_pool_proj -> inception_3b/pool_proj (in-place)
I0403 14:48:07.527015 11129 net.cpp:141] Setting up inception_3b/relu_pool_proj
I0403 14:48:07.527042 11129 net.cpp:148] Top shape: 24 64 28 28 (1204224)
I0403 14:48:07.527058 11129 net.cpp:156] Memory required for data: 773112864
I0403 14:48:07.527072 11129 layer_factory.hpp:77] Creating layer inception_3b/output
I0403 14:48:07.527106 11129 net.cpp:91] Creating Layer inception_3b/output
I0403 14:48:07.527122 11129 net.cpp:425] inception_3b/output <- inception_3b/1x1
I0403 14:48:07.527145 11129 net.cpp:425] inception_3b/output <- inception_3b/3x3
I0403 14:48:07.527163 11129 net.cpp:425] inception_3b/output <- inception_3b/5x5
I0403 14:48:07.527180 11129 net.cpp:425] inception_3b/output <- inception_3b/pool_proj
I0403 14:48:07.527200 11129 net.cpp:399] inception_3b/output -> inception_3b/output
I0403 14:48:07.527246 11129 net.cpp:141] Setting up inception_3b/output
I0403 14:48:07.527274 11129 net.cpp:148] Top shape: 24 480 28 28 (9031680)
I0403 14:48:07.527290 11129 net.cpp:156] Memory required for data: 809239584
I0403 14:48:07.527307 11129 layer_factory.hpp:77] Creating layer pool3/3x3_s2
I0403 14:48:07.527324 11129 net.cpp:91] Creating Layer pool3/3x3_s2
I0403 14:48:07.527341 11129 net.cpp:425] pool3/3x3_s2 <- inception_3b/output
I0403 14:48:07.527375 11129 net.cpp:399] pool3/3x3_s2 -> pool3/3x3_s2
I0403 14:48:07.527449 11129 net.cpp:141] Setting up pool3/3x3_s2
I0403 14:48:07.527474 11129 net.cpp:148] Top shape: 24 480 14 14 (2257920)
I0403 14:48:07.527489 11129 net.cpp:156] Memory required for data: 818271264
I0403 14:48:07.527505 11129 layer_factory.hpp:77] Creating layer pool3/3x3_s2_pool3/3x3_s2_0_split
I0403 14:48:07.527523 11129 net.cpp:91] Creating Layer pool3/3x3_s2_pool3/3x3_s2_0_split
I0403 14:48:07.527539 11129 net.cpp:425] pool3/3x3_s2_pool3/3x3_s2_0_split <- pool3/3x3_s2
I0403 14:48:07.527559 11129 net.cpp:399] pool3/3x3_s2_pool3/3x3_s2_0_split -> pool3/3x3_s2_pool3/3x3_s2_0_split_0
I0403 14:48:07.527578 11129 net.cpp:399] pool3/3x3_s2_pool3/3x3_s2_0_split -> pool3/3x3_s2_pool3/3x3_s2_0_split_1
I0403 14:48:07.527600 11129 net.cpp:399] pool3/3x3_s2_pool3/3x3_s2_0_split -> pool3/3x3_s2_pool3/3x3_s2_0_split_2
I0403 14:48:07.527621 11129 net.cpp:399] pool3/3x3_s2_pool3/3x3_s2_0_split -> pool3/3x3_s2_pool3/3x3_s2_0_split_3
I0403 14:48:07.527704 11129 net.cpp:141] Setting up pool3/3x3_s2_pool3/3x3_s2_0_split
I0403 14:48:07.527727 11129 net.cpp:148] Top shape: 24 480 14 14 (2257920)
I0403 14:48:07.527743 11129 net.cpp:148] Top shape: 24 480 14 14 (2257920)
I0403 14:48:07.527760 11129 net.cpp:148] Top shape: 24 480 14 14 (2257920)
I0403 14:48:07.527776 11129 net.cpp:148] Top shape: 24 480 14 14 (2257920)
I0403 14:48:07.527789 11129 net.cpp:156] Memory required for data: 854397984
I0403 14:48:07.527804 11129 layer_factory.hpp:77] Creating layer inception_4a/1x1
I0403 14:48:07.527827 11129 net.cpp:91] Creating Layer inception_4a/1x1
I0403 14:48:07.527844 11129 net.cpp:425] inception_4a/1x1 <- pool3/3x3_s2_pool3/3x3_s2_0_split_0
I0403 14:48:07.527866 11129 net.cpp:399] inception_4a/1x1 -> inception_4a/1x1
I0403 14:48:07.529472 11129 net.cpp:141] Setting up inception_4a/1x1
I0403 14:48:07.529501 11129 net.cpp:148] Top shape: 24 192 14 14 (903168)
I0403 14:48:07.529520 11129 net.cpp:156] Memory required for data: 858010656
I0403 14:48:07.529538 11129 layer_factory.hpp:77] Creating layer inception_4a/relu_1x1
I0403 14:48:07.529559 11129 net.cpp:91] Creating Layer inception_4a/relu_1x1
I0403 14:48:07.529577 11129 net.cpp:425] inception_4a/relu_1x1 <- inception_4a/1x1
I0403 14:48:07.529594 11129 net.cpp:386] inception_4a/relu_1x1 -> inception_4a/1x1 (in-place)
I0403 14:48:07.529769 11129 net.cpp:141] Setting up inception_4a/relu_1x1
I0403 14:48:07.529796 11129 net.cpp:148] Top shape: 24 192 14 14 (903168)
I0403 14:48:07.529811 11129 net.cpp:156] Memory required for data: 861623328
I0403 14:48:07.529827 11129 layer_factory.hpp:77] Creating layer inception_4a/3x3_reduce
I0403 14:48:07.529852 11129 net.cpp:91] Creating Layer inception_4a/3x3_reduce
I0403 14:48:07.529870 11129 net.cpp:425] inception_4a/3x3_reduce <- pool3/3x3_s2_pool3/3x3_s2_0_split_1
I0403 14:48:07.529889 11129 net.cpp:399] inception_4a/3x3_reduce -> inception_4a/3x3_reduce
I0403 14:48:07.531239 11129 net.cpp:141] Setting up inception_4a/3x3_reduce
I0403 14:48:07.531268 11129 net.cpp:148] Top shape: 24 96 14 14 (451584)
I0403 14:48:07.531285 11129 net.cpp:156] Memory required for data: 863429664
I0403 14:48:07.531311 11129 layer_factory.hpp:77] Creating layer inception_4a/relu_3x3_reduce
I0403 14:48:07.531333 11129 net.cpp:91] Creating Layer inception_4a/relu_3x3_reduce
I0403 14:48:07.531350 11129 net.cpp:425] inception_4a/relu_3x3_reduce <- inception_4a/3x3_reduce
I0403 14:48:07.531369 11129 net.cpp:386] inception_4a/relu_3x3_reduce -> inception_4a/3x3_reduce (in-place)
I0403 14:48:07.531551 11129 net.cpp:141] Setting up inception_4a/relu_3x3_reduce
I0403 14:48:07.531579 11129 net.cpp:148] Top shape: 24 96 14 14 (451584)
I0403 14:48:07.531595 11129 net.cpp:156] Memory required for data: 865236000
I0403 14:48:07.531611 11129 layer_factory.hpp:77] Creating layer inception_4a/3x3
I0403 14:48:07.531635 11129 net.cpp:91] Creating Layer inception_4a/3x3
I0403 14:48:07.531653 11129 net.cpp:425] inception_4a/3x3 <- inception_4a/3x3_reduce
I0403 14:48:07.531677 11129 net.cpp:399] inception_4a/3x3 -> inception_4a/3x3
I0403 14:48:07.534500 11129 net.cpp:141] Setting up inception_4a/3x3
I0403 14:48:07.534531 11129 net.cpp:148] Top shape: 24 208 14 14 (978432)
I0403 14:48:07.534548 11129 net.cpp:156] Memory required for data: 869149728
I0403 14:48:07.534567 11129 layer_factory.hpp:77] Creating layer inception_4a/relu_3x3
I0403 14:48:07.534590 11129 net.cpp:91] Creating Layer inception_4a/relu_3x3
I0403 14:48:07.534607 11129 net.cpp:425] inception_4a/relu_3x3 <- inception_4a/3x3
I0403 14:48:07.534626 11129 net.cpp:386] inception_4a/relu_3x3 -> inception_4a/3x3 (in-place)
I0403 14:48:07.534922 11129 net.cpp:141] Setting up inception_4a/relu_3x3
I0403 14:48:07.534951 11129 net.cpp:148] Top shape: 24 208 14 14 (978432)
I0403 14:48:07.534967 11129 net.cpp:156] Memory required for data: 873063456
I0403 14:48:07.534982 11129 layer_factory.hpp:77] Creating layer inception_4a/5x5_reduce
I0403 14:48:07.535007 11129 net.cpp:91] Creating Layer inception_4a/5x5_reduce
I0403 14:48:07.535027 11129 net.cpp:425] inception_4a/5x5_reduce <- pool3/3x3_s2_pool3/3x3_s2_0_split_2
I0403 14:48:07.535050 11129 net.cpp:399] inception_4a/5x5_reduce -> inception_4a/5x5_reduce
I0403 14:48:07.536135 11129 net.cpp:141] Setting up inception_4a/5x5_reduce
I0403 14:48:07.536169 11129 net.cpp:148] Top shape: 24 16 14 14 (75264)
I0403 14:48:07.536186 11129 net.cpp:156] Memory required for data: 873364512
I0403 14:48:07.536206 11129 layer_factory.hpp:77] Creating layer inception_4a/relu_5x5_reduce
I0403 14:48:07.536226 11129 net.cpp:91] Creating Layer inception_4a/relu_5x5_reduce
I0403 14:48:07.536243 11129 net.cpp:425] inception_4a/relu_5x5_reduce <- inception_4a/5x5_reduce
I0403 14:48:07.536262 11129 net.cpp:386] inception_4a/relu_5x5_reduce -> inception_4a/5x5_reduce (in-place)
I0403 14:48:07.536451 11129 net.cpp:141] Setting up inception_4a/relu_5x5_reduce
I0403 14:48:07.536479 11129 net.cpp:148] Top shape: 24 16 14 14 (75264)
I0403 14:48:07.536495 11129 net.cpp:156] Memory required for data: 873665568
I0403 14:48:07.536510 11129 layer_factory.hpp:77] Creating layer inception_4a/5x5
I0403 14:48:07.536535 11129 net.cpp:91] Creating Layer inception_4a/5x5
I0403 14:48:07.536555 11129 net.cpp:425] inception_4a/5x5 <- inception_4a/5x5_reduce
I0403 14:48:07.536576 11129 net.cpp:399] inception_4a/5x5 -> inception_4a/5x5
I0403 14:48:07.537720 11129 net.cpp:141] Setting up inception_4a/5x5
I0403 14:48:07.537750 11129 net.cpp:148] Top shape: 24 48 14 14 (225792)
I0403 14:48:07.537767 11129 net.cpp:156] Memory required for data: 874568736
I0403 14:48:07.537786 11129 layer_factory.hpp:77] Creating layer inception_4a/relu_5x5
I0403 14:48:07.537806 11129 net.cpp:91] Creating Layer inception_4a/relu_5x5
I0403 14:48:07.537822 11129 net.cpp:425] inception_4a/relu_5x5 <- inception_4a/5x5
I0403 14:48:07.537843 11129 net.cpp:386] inception_4a/relu_5x5 -> inception_4a/5x5 (in-place)
I0403 14:48:07.538029 11129 net.cpp:141] Setting up inception_4a/relu_5x5
I0403 14:48:07.538058 11129 net.cpp:148] Top shape: 24 48 14 14 (225792)
I0403 14:48:07.538072 11129 net.cpp:156] Memory required for data: 875471904
I0403 14:48:07.538087 11129 layer_factory.hpp:77] Creating layer inception_4a/pool
I0403 14:48:07.538108 11129 net.cpp:91] Creating Layer inception_4a/pool
I0403 14:48:07.538133 11129 net.cpp:425] inception_4a/pool <- pool3/3x3_s2_pool3/3x3_s2_0_split_3
I0403 14:48:07.538156 11129 net.cpp:399] inception_4a/pool -> inception_4a/pool
I0403 14:48:07.538223 11129 net.cpp:141] Setting up inception_4a/pool
I0403 14:48:07.538247 11129 net.cpp:148] Top shape: 24 480 14 14 (2257920)
I0403 14:48:07.538264 11129 net.cpp:156] Memory required for data: 884503584
I0403 14:48:07.538278 11129 layer_factory.hpp:77] Creating layer inception_4a/pool_proj
I0403 14:48:07.538302 11129 net.cpp:91] Creating Layer inception_4a/pool_proj
I0403 14:48:07.538321 11129 net.cpp:425] inception_4a/pool_proj <- inception_4a/pool
I0403 14:48:07.538343 11129 net.cpp:399] inception_4a/pool_proj -> inception_4a/pool_proj
I0403 14:48:07.539564 11129 net.cpp:141] Setting up inception_4a/pool_proj
I0403 14:48:07.539595 11129 net.cpp:148] Top shape: 24 64 14 14 (301056)
I0403 14:48:07.539629 11129 net.cpp:156] Memory required for data: 885707808
I0403 14:48:07.539649 11129 layer_factory.hpp:77] Creating layer inception_4a/relu_pool_proj
I0403 14:48:07.539669 11129 net.cpp:91] Creating Layer inception_4a/relu_pool_proj
I0403 14:48:07.539686 11129 net.cpp:425] inception_4a/relu_pool_proj <- inception_4a/pool_proj
I0403 14:48:07.539710 11129 net.cpp:386] inception_4a/relu_pool_proj -> inception_4a/pool_proj (in-place)
I0403 14:48:07.540006 11129 net.cpp:141] Setting up inception_4a/relu_pool_proj
I0403 14:48:07.540035 11129 net.cpp:148] Top shape: 24 64 14 14 (301056)
I0403 14:48:07.540051 11129 net.cpp:156] Memory required for data: 886912032
I0403 14:48:07.540066 11129 layer_factory.hpp:77] Creating layer inception_4a/output
I0403 14:48:07.540084 11129 net.cpp:91] Creating Layer inception_4a/output
I0403 14:48:07.540101 11129 net.cpp:425] inception_4a/output <- inception_4a/1x1
I0403 14:48:07.540118 11129 net.cpp:425] inception_4a/output <- inception_4a/3x3
I0403 14:48:07.540144 11129 net.cpp:425] inception_4a/output <- inception_4a/5x5
I0403 14:48:07.540163 11129 net.cpp:425] inception_4a/output <- inception_4a/pool_proj
I0403 14:48:07.540186 11129 net.cpp:399] inception_4a/output -> inception_4a/output
I0403 14:48:07.540233 11129 net.cpp:141] Setting up inception_4a/output
I0403 14:48:07.540261 11129 net.cpp:148] Top shape: 24 512 14 14 (2408448)
I0403 14:48:07.540279 11129 net.cpp:156] Memory required for data: 896545824
I0403 14:48:07.540294 11129 layer_factory.hpp:77] Creating layer inception_4a/output_inception_4a/output_0_split
I0403 14:48:07.540313 11129 net.cpp:91] Creating Layer inception_4a/output_inception_4a/output_0_split
I0403 14:48:07.540330 11129 net.cpp:425] inception_4a/output_inception_4a/output_0_split <- inception_4a/output
I0403 14:48:07.540351 11129 net.cpp:399] inception_4a/output_inception_4a/output_0_split -> inception_4a/output_inception_4a/output_0_split_0
I0403 14:48:07.540374 11129 net.cpp:399] inception_4a/output_inception_4a/output_0_split -> inception_4a/output_inception_4a/output_0_split_1
I0403 14:48:07.540396 11129 net.cpp:399] inception_4a/output_inception_4a/output_0_split -> inception_4a/output_inception_4a/output_0_split_2
I0403 14:48:07.540419 11129 net.cpp:399] inception_4a/output_inception_4a/output_0_split -> inception_4a/output_inception_4a/output_0_split_3
I0403 14:48:07.540439 11129 net.cpp:399] inception_4a/output_inception_4a/output_0_split -> inception_4a/output_inception_4a/output_0_split_4
I0403 14:48:07.540535 11129 net.cpp:141] Setting up inception_4a/output_inception_4a/output_0_split
I0403 14:48:07.540563 11129 net.cpp:148] Top shape: 24 512 14 14 (2408448)
I0403 14:48:07.540581 11129 net.cpp:148] Top shape: 24 512 14 14 (2408448)
I0403 14:48:07.540599 11129 net.cpp:148] Top shape: 24 512 14 14 (2408448)
I0403 14:48:07.540614 11129 net.cpp:148] Top shape: 24 512 14 14 (2408448)
I0403 14:48:07.540630 11129 net.cpp:148] Top shape: 24 512 14 14 (2408448)
I0403 14:48:07.540645 11129 net.cpp:156] Memory required for data: 944714784
I0403 14:48:07.540662 11129 layer_factory.hpp:77] Creating layer loss1/ave_pool
I0403 14:48:07.540680 11129 net.cpp:91] Creating Layer loss1/ave_pool
I0403 14:48:07.540698 11129 net.cpp:425] loss1/ave_pool <- inception_4a/output_inception_4a/output_0_split_0
I0403 14:48:07.540716 11129 net.cpp:399] loss1/ave_pool -> loss1/ave_pool
I0403 14:48:07.540935 11129 net.cpp:141] Setting up loss1/ave_pool
I0403 14:48:07.540963 11129 net.cpp:148] Top shape: 24 512 4 4 (196608)
I0403 14:48:07.540979 11129 net.cpp:156] Memory required for data: 945501216
I0403 14:48:07.540995 11129 layer_factory.hpp:77] Creating layer loss1/conv
I0403 14:48:07.541018 11129 net.cpp:91] Creating Layer loss1/conv
I0403 14:48:07.541038 11129 net.cpp:425] loss1/conv <- loss1/ave_pool
I0403 14:48:07.541059 11129 net.cpp:399] loss1/conv -> loss1/conv
I0403 14:48:07.542562 11129 net.cpp:141] Setting up loss1/conv
I0403 14:48:07.542592 11129 net.cpp:148] Top shape: 24 128 4 4 (49152)
I0403 14:48:07.542626 11129 net.cpp:156] Memory required for data: 945697824
I0403 14:48:07.542647 11129 layer_factory.hpp:77] Creating layer loss1/relu_conv
I0403 14:48:07.542667 11129 net.cpp:91] Creating Layer loss1/relu_conv
I0403 14:48:07.542685 11129 net.cpp:425] loss1/relu_conv <- loss1/conv
I0403 14:48:07.542701 11129 net.cpp:386] loss1/relu_conv -> loss1/conv (in-place)
I0403 14:48:07.542992 11129 net.cpp:141] Setting up loss1/relu_conv
I0403 14:48:07.543021 11129 net.cpp:148] Top shape: 24 128 4 4 (49152)
I0403 14:48:07.543041 11129 net.cpp:156] Memory required for data: 945894432
I0403 14:48:07.543057 11129 layer_factory.hpp:77] Creating layer loss1/fc
I0403 14:48:07.543083 11129 net.cpp:91] Creating Layer loss1/fc
I0403 14:48:07.543102 11129 net.cpp:425] loss1/fc <- loss1/conv
I0403 14:48:07.543133 11129 net.cpp:399] loss1/fc -> loss1/fc
I0403 14:48:07.561595 11129 net.cpp:141] Setting up loss1/fc
I0403 14:48:07.561657 11129 net.cpp:148] Top shape: 24 1024 (24576)
I0403 14:48:07.561673 11129 net.cpp:156] Memory required for data: 945992736
I0403 14:48:07.561696 11129 layer_factory.hpp:77] Creating layer loss1/relu_fc
I0403 14:48:07.561729 11129 net.cpp:91] Creating Layer loss1/relu_fc
I0403 14:48:07.561749 11129 net.cpp:425] loss1/relu_fc <- loss1/fc
I0403 14:48:07.561769 11129 net.cpp:386] loss1/relu_fc -> loss1/fc (in-place)
I0403 14:48:07.561996 11129 net.cpp:141] Setting up loss1/relu_fc
I0403 14:48:07.562036 11129 net.cpp:148] Top shape: 24 1024 (24576)
I0403 14:48:07.562052 11129 net.cpp:156] Memory required for data: 946091040
I0403 14:48:07.562067 11129 layer_factory.hpp:77] Creating layer loss1/drop_fc
I0403 14:48:07.562098 11129 net.cpp:91] Creating Layer loss1/drop_fc
I0403 14:48:07.562116 11129 net.cpp:425] loss1/drop_fc <- loss1/fc
I0403 14:48:07.562149 11129 net.cpp:386] loss1/drop_fc -> loss1/fc (in-place)
I0403 14:48:07.562204 11129 net.cpp:141] Setting up loss1/drop_fc
I0403 14:48:07.562232 11129 net.cpp:148] Top shape: 24 1024 (24576)
I0403 14:48:07.562248 11129 net.cpp:156] Memory required for data: 946189344
I0403 14:48:07.562266 11129 layer_factory.hpp:77] Creating layer loss1/classifier_plantvillage
I0403 14:48:07.562286 11129 net.cpp:91] Creating Layer loss1/classifier_plantvillage
I0403 14:48:07.562304 11129 net.cpp:425] loss1/classifier_plantvillage <- loss1/fc
I0403 14:48:07.562325 11129 net.cpp:399] loss1/classifier_plantvillage -> loss1/classifier_plantvillage
I0403 14:48:07.563278 11129 net.cpp:141] Setting up loss1/classifier_plantvillage
I0403 14:48:07.563309 11129 net.cpp:148] Top shape: 24 38 (912)
I0403 14:48:07.563328 11129 net.cpp:156] Memory required for data: 946192992
I0403 14:48:07.563346 11129 layer_factory.hpp:77] Creating layer loss1/classifier_plantvillage_loss1/classifier_plantvillage_0_split
I0403 14:48:07.563365 11129 net.cpp:91] Creating Layer loss1/classifier_plantvillage_loss1/classifier_plantvillage_0_split
I0403 14:48:07.563380 11129 net.cpp:425] loss1/classifier_plantvillage_loss1/classifier_plantvillage_0_split <- loss1/classifier_plantvillage
I0403 14:48:07.563398 11129 net.cpp:399] loss1/classifier_plantvillage_loss1/classifier_plantvillage_0_split -> loss1/classifier_plantvillage_loss1/classifier_plantvillage_0_split_0
I0403 14:48:07.563419 11129 net.cpp:399] loss1/classifier_plantvillage_loss1/classifier_plantvillage_0_split -> loss1/classifier_plantvillage_loss1/classifier_plantvillage_0_split_1
I0403 14:48:07.563441 11129 net.cpp:399] loss1/classifier_plantvillage_loss1/classifier_plantvillage_0_split -> loss1/classifier_plantvillage_loss1/classifier_plantvillage_0_split_2
I0403 14:48:07.563510 11129 net.cpp:141] Setting up loss1/classifier_plantvillage_loss1/classifier_plantvillage_0_split
I0403 14:48:07.563535 11129 net.cpp:148] Top shape: 24 38 (912)
I0403 14:48:07.563552 11129 net.cpp:148] Top shape: 24 38 (912)
I0403 14:48:07.563568 11129 net.cpp:148] Top shape: 24 38 (912)
I0403 14:48:07.563582 11129 net.cpp:156] Memory required for data: 946203936
I0403 14:48:07.563598 11129 layer_factory.hpp:77] Creating layer inception_4b/1x1
I0403 14:48:07.563621 11129 net.cpp:91] Creating Layer inception_4b/1x1
I0403 14:48:07.563664 11129 net.cpp:425] inception_4b/1x1 <- inception_4a/output_inception_4a/output_0_split_1
I0403 14:48:07.563688 11129 net.cpp:399] inception_4b/1x1 -> inception_4b/1x1
I0403 14:48:07.565436 11129 net.cpp:141] Setting up inception_4b/1x1
I0403 14:48:07.565469 11129 net.cpp:148] Top shape: 24 160 14 14 (752640)
I0403 14:48:07.565485 11129 net.cpp:156] Memory required for data: 949214496
I0403 14:48:07.565505 11129 layer_factory.hpp:77] Creating layer inception_4b/relu_1x1
I0403 14:48:07.565523 11129 net.cpp:91] Creating Layer inception_4b/relu_1x1
I0403 14:48:07.565539 11129 net.cpp:425] inception_4b/relu_1x1 <- inception_4b/1x1
I0403 14:48:07.565557 11129 net.cpp:386] inception_4b/relu_1x1 -> inception_4b/1x1 (in-place)
I0403 14:48:07.565735 11129 net.cpp:141] Setting up inception_4b/relu_1x1
I0403 14:48:07.565764 11129 net.cpp:148] Top shape: 24 160 14 14 (752640)
I0403 14:48:07.565779 11129 net.cpp:156] Memory required for data: 952225056
I0403 14:48:07.565795 11129 layer_factory.hpp:77] Creating layer inception_4b/3x3_reduce
I0403 14:48:07.565817 11129 net.cpp:91] Creating Layer inception_4b/3x3_reduce
I0403 14:48:07.565836 11129 net.cpp:425] inception_4b/3x3_reduce <- inception_4a/output_inception_4a/output_0_split_2
I0403 14:48:07.565858 11129 net.cpp:399] inception_4b/3x3_reduce -> inception_4b/3x3_reduce
I0403 14:48:07.567214 11129 net.cpp:141] Setting up inception_4b/3x3_reduce
I0403 14:48:07.567245 11129 net.cpp:148] Top shape: 24 112 14 14 (526848)
I0403 14:48:07.567262 11129 net.cpp:156] Memory required for data: 954332448
I0403 14:48:07.567281 11129 layer_factory.hpp:77] Creating layer inception_4b/relu_3x3_reduce
I0403 14:48:07.567299 11129 net.cpp:91] Creating Layer inception_4b/relu_3x3_reduce
I0403 14:48:07.567317 11129 net.cpp:425] inception_4b/relu_3x3_reduce <- inception_4b/3x3_reduce
I0403 14:48:07.567335 11129 net.cpp:386] inception_4b/relu_3x3_reduce -> inception_4b/3x3_reduce (in-place)
I0403 14:48:07.567617 11129 net.cpp:141] Setting up inception_4b/relu_3x3_reduce
I0403 14:48:07.567647 11129 net.cpp:148] Top shape: 24 112 14 14 (526848)
I0403 14:48:07.567663 11129 net.cpp:156] Memory required for data: 956439840
I0403 14:48:07.567678 11129 layer_factory.hpp:77] Creating layer inception_4b/3x3
I0403 14:48:07.567700 11129 net.cpp:91] Creating Layer inception_4b/3x3
I0403 14:48:07.567718 11129 net.cpp:425] inception_4b/3x3 <- inception_4b/3x3_reduce
I0403 14:48:07.567736 11129 net.cpp:399] inception_4b/3x3 -> inception_4b/3x3
I0403 14:48:07.570731 11129 net.cpp:141] Setting up inception_4b/3x3
I0403 14:48:07.570760 11129 net.cpp:148] Top shape: 24 224 14 14 (1053696)
I0403 14:48:07.570776 11129 net.cpp:156] Memory required for data: 960654624
I0403 14:48:07.570794 11129 layer_factory.hpp:77] Creating layer inception_4b/relu_3x3
I0403 14:48:07.570814 11129 net.cpp:91] Creating Layer inception_4b/relu_3x3
I0403 14:48:07.570833 11129 net.cpp:425] inception_4b/relu_3x3 <- inception_4b/3x3
I0403 14:48:07.570852 11129 net.cpp:386] inception_4b/relu_3x3 -> inception_4b/3x3 (in-place)
I0403 14:48:07.571032 11129 net.cpp:141] Setting up inception_4b/relu_3x3
I0403 14:48:07.571058 11129 net.cpp:148] Top shape: 24 224 14 14 (1053696)
I0403 14:48:07.571074 11129 net.cpp:156] Memory required for data: 964869408
I0403 14:48:07.571089 11129 layer_factory.hpp:77] Creating layer inception_4b/5x5_reduce
I0403 14:48:07.571112 11129 net.cpp:91] Creating Layer inception_4b/5x5_reduce
I0403 14:48:07.571138 11129 net.cpp:425] inception_4b/5x5_reduce <- inception_4a/output_inception_4a/output_0_split_3
I0403 14:48:07.571159 11129 net.cpp:399] inception_4b/5x5_reduce -> inception_4b/5x5_reduce
I0403 14:48:07.572239 11129 net.cpp:141] Setting up inception_4b/5x5_reduce
I0403 14:48:07.572270 11129 net.cpp:148] Top shape: 24 24 14 14 (112896)
I0403 14:48:07.572288 11129 net.cpp:156] Memory required for data: 965320992
I0403 14:48:07.572306 11129 layer_factory.hpp:77] Creating layer inception_4b/relu_5x5_reduce
I0403 14:48:07.572325 11129 net.cpp:91] Creating Layer inception_4b/relu_5x5_reduce
I0403 14:48:07.572357 11129 net.cpp:425] inception_4b/relu_5x5_reduce <- inception_4b/5x5_reduce
I0403 14:48:07.572377 11129 net.cpp:386] inception_4b/relu_5x5_reduce -> inception_4b/5x5_reduce (in-place)
I0403 14:48:07.572559 11129 net.cpp:141] Setting up inception_4b/relu_5x5_reduce
I0403 14:48:07.572585 11129 net.cpp:148] Top shape: 24 24 14 14 (112896)
I0403 14:48:07.572602 11129 net.cpp:156] Memory required for data: 965772576
I0403 14:48:07.572616 11129 layer_factory.hpp:77] Creating layer inception_4b/5x5
I0403 14:48:07.572638 11129 net.cpp:91] Creating Layer inception_4b/5x5
I0403 14:48:07.572656 11129 net.cpp:425] inception_4b/5x5 <- inception_4b/5x5_reduce
I0403 14:48:07.572679 11129 net.cpp:399] inception_4b/5x5 -> inception_4b/5x5
I0403 14:48:07.573886 11129 net.cpp:141] Setting up inception_4b/5x5
I0403 14:48:07.573916 11129 net.cpp:148] Top shape: 24 64 14 14 (301056)
I0403 14:48:07.573932 11129 net.cpp:156] Memory required for data: 966976800
I0403 14:48:07.573951 11129 layer_factory.hpp:77] Creating layer inception_4b/relu_5x5
I0403 14:48:07.573969 11129 net.cpp:91] Creating Layer inception_4b/relu_5x5
I0403 14:48:07.573987 11129 net.cpp:425] inception_4b/relu_5x5 <- inception_4b/5x5
I0403 14:48:07.574005 11129 net.cpp:386] inception_4b/relu_5x5 -> inception_4b/5x5 (in-place)
I0403 14:48:07.574291 11129 net.cpp:141] Setting up inception_4b/relu_5x5
I0403 14:48:07.574321 11129 net.cpp:148] Top shape: 24 64 14 14 (301056)
I0403 14:48:07.574337 11129 net.cpp:156] Memory required for data: 968181024
I0403 14:48:07.574352 11129 layer_factory.hpp:77] Creating layer inception_4b/pool
I0403 14:48:07.574372 11129 net.cpp:91] Creating Layer inception_4b/pool
I0403 14:48:07.574388 11129 net.cpp:425] inception_4b/pool <- inception_4a/output_inception_4a/output_0_split_4
I0403 14:48:07.574407 11129 net.cpp:399] inception_4b/pool -> inception_4b/pool
I0403 14:48:07.574475 11129 net.cpp:141] Setting up inception_4b/pool
I0403 14:48:07.574498 11129 net.cpp:148] Top shape: 24 512 14 14 (2408448)
I0403 14:48:07.574513 11129 net.cpp:156] Memory required for data: 977814816
I0403 14:48:07.574528 11129 layer_factory.hpp:77] Creating layer inception_4b/pool_proj
I0403 14:48:07.574551 11129 net.cpp:91] Creating Layer inception_4b/pool_proj
I0403 14:48:07.574569 11129 net.cpp:425] inception_4b/pool_proj <- inception_4b/pool
I0403 14:48:07.574590 11129 net.cpp:399] inception_4b/pool_proj -> inception_4b/pool_proj
I0403 14:48:07.575788 11129 net.cpp:141] Setting up inception_4b/pool_proj
I0403 14:48:07.575819 11129 net.cpp:148] Top shape: 24 64 14 14 (301056)
I0403 14:48:07.575837 11129 net.cpp:156] Memory required for data: 979019040
I0403 14:48:07.575858 11129 layer_factory.hpp:77] Creating layer inception_4b/relu_pool_proj
I0403 14:48:07.575876 11129 net.cpp:91] Creating Layer inception_4b/relu_pool_proj
I0403 14:48:07.575892 11129 net.cpp:425] inception_4b/relu_pool_proj <- inception_4b/pool_proj
I0403 14:48:07.575911 11129 net.cpp:386] inception_4b/relu_pool_proj -> inception_4b/pool_proj (in-place)
I0403 14:48:07.576091 11129 net.cpp:141] Setting up inception_4b/relu_pool_proj
I0403 14:48:07.576117 11129 net.cpp:148] Top shape: 24 64 14 14 (301056)
I0403 14:48:07.576138 11129 net.cpp:156] Memory required for data: 980223264
I0403 14:48:07.576154 11129 layer_factory.hpp:77] Creating layer inception_4b/output
I0403 14:48:07.576172 11129 net.cpp:91] Creating Layer inception_4b/output
I0403 14:48:07.576189 11129 net.cpp:425] inception_4b/output <- inception_4b/1x1
I0403 14:48:07.576205 11129 net.cpp:425] inception_4b/output <- inception_4b/3x3
I0403 14:48:07.576221 11129 net.cpp:425] inception_4b/output <- inception_4b/5x5
I0403 14:48:07.576237 11129 net.cpp:425] inception_4b/output <- inception_4b/pool_proj
I0403 14:48:07.576259 11129 net.cpp:399] inception_4b/output -> inception_4b/output
I0403 14:48:07.576306 11129 net.cpp:141] Setting up inception_4b/output
I0403 14:48:07.576333 11129 net.cpp:148] Top shape: 24 512 14 14 (2408448)
I0403 14:48:07.576350 11129 net.cpp:156] Memory required for data: 989857056
I0403 14:48:07.576380 11129 layer_factory.hpp:77] Creating layer inception_4b/output_inception_4b/output_0_split
I0403 14:48:07.576400 11129 net.cpp:91] Creating Layer inception_4b/output_inception_4b/output_0_split
I0403 14:48:07.576416 11129 net.cpp:425] inception_4b/output_inception_4b/output_0_split <- inception_4b/output
I0403 14:48:07.576436 11129 net.cpp:399] inception_4b/output_inception_4b/output_0_split -> inception_4b/output_inception_4b/output_0_split_0
I0403 14:48:07.576457 11129 net.cpp:399] inception_4b/output_inception_4b/output_0_split -> inception_4b/output_inception_4b/output_0_split_1
I0403 14:48:07.576478 11129 net.cpp:399] inception_4b/output_inception_4b/output_0_split -> inception_4b/output_inception_4b/output_0_split_2
I0403 14:48:07.576499 11129 net.cpp:399] inception_4b/output_inception_4b/output_0_split -> inception_4b/output_inception_4b/output_0_split_3
I0403 14:48:07.576581 11129 net.cpp:141] Setting up inception_4b/output_inception_4b/output_0_split
I0403 14:48:07.576606 11129 net.cpp:148] Top shape: 24 512 14 14 (2408448)
I0403 14:48:07.576622 11129 net.cpp:148] Top shape: 24 512 14 14 (2408448)
I0403 14:48:07.576637 11129 net.cpp:148] Top shape: 24 512 14 14 (2408448)
I0403 14:48:07.576653 11129 net.cpp:148] Top shape: 24 512 14 14 (2408448)
I0403 14:48:07.576668 11129 net.cpp:156] Memory required for data: 1028392224
I0403 14:48:07.576683 11129 layer_factory.hpp:77] Creating layer inception_4c/1x1
I0403 14:48:07.576704 11129 net.cpp:91] Creating Layer inception_4c/1x1
I0403 14:48:07.576721 11129 net.cpp:425] inception_4c/1x1 <- inception_4b/output_inception_4b/output_0_split_0
I0403 14:48:07.576741 11129 net.cpp:399] inception_4c/1x1 -> inception_4c/1x1
I0403 14:48:07.578171 11129 net.cpp:141] Setting up inception_4c/1x1
I0403 14:48:07.578200 11129 net.cpp:148] Top shape: 24 128 14 14 (602112)
I0403 14:48:07.578215 11129 net.cpp:156] Memory required for data: 1030800672
I0403 14:48:07.578234 11129 layer_factory.hpp:77] Creating layer inception_4c/relu_1x1
I0403 14:48:07.578254 11129 net.cpp:91] Creating Layer inception_4c/relu_1x1
I0403 14:48:07.578271 11129 net.cpp:425] inception_4c/relu_1x1 <- inception_4c/1x1
I0403 14:48:07.578289 11129 net.cpp:386] inception_4c/relu_1x1 -> inception_4c/1x1 (in-place)
I0403 14:48:07.578466 11129 net.cpp:141] Setting up inception_4c/relu_1x1
I0403 14:48:07.578495 11129 net.cpp:148] Top shape: 24 128 14 14 (602112)
I0403 14:48:07.578510 11129 net.cpp:156] Memory required for data: 1033209120
I0403 14:48:07.578526 11129 layer_factory.hpp:77] Creating layer inception_4c/3x3_reduce
I0403 14:48:07.578547 11129 net.cpp:91] Creating Layer inception_4c/3x3_reduce
I0403 14:48:07.578568 11129 net.cpp:425] inception_4c/3x3_reduce <- inception_4b/output_inception_4b/output_0_split_1
I0403 14:48:07.578588 11129 net.cpp:399] inception_4c/3x3_reduce -> inception_4c/3x3_reduce
I0403 14:48:07.580586 11129 net.cpp:141] Setting up inception_4c/3x3_reduce
I0403 14:48:07.580616 11129 net.cpp:148] Top shape: 24 128 14 14 (602112)
I0403 14:48:07.580633 11129 net.cpp:156] Memory required for data: 1035617568
I0403 14:48:07.580652 11129 layer_factory.hpp:77] Creating layer inception_4c/relu_3x3_reduce
I0403 14:48:07.580674 11129 net.cpp:91] Creating Layer inception_4c/relu_3x3_reduce
I0403 14:48:07.580692 11129 net.cpp:425] inception_4c/relu_3x3_reduce <- inception_4c/3x3_reduce
I0403 14:48:07.580708 11129 net.cpp:386] inception_4c/relu_3x3_reduce -> inception_4c/3x3_reduce (in-place)
I0403 14:48:07.581007 11129 net.cpp:141] Setting up inception_4c/relu_3x3_reduce
I0403 14:48:07.581034 11129 net.cpp:148] Top shape: 24 128 14 14 (602112)
I0403 14:48:07.581053 11129 net.cpp:156] Memory required for data: 1038026016
I0403 14:48:07.581070 11129 layer_factory.hpp:77] Creating layer inception_4c/3x3
I0403 14:48:07.581095 11129 net.cpp:91] Creating Layer inception_4c/3x3
I0403 14:48:07.581113 11129 net.cpp:425] inception_4c/3x3 <- inception_4c/3x3_reduce
I0403 14:48:07.581141 11129 net.cpp:399] inception_4c/3x3 -> inception_4c/3x3
I0403 14:48:07.584867 11129 net.cpp:141] Setting up inception_4c/3x3
I0403 14:48:07.584914 11129 net.cpp:148] Top shape: 24 256 14 14 (1204224)
I0403 14:48:07.584933 11129 net.cpp:156] Memory required for data: 1042842912
I0403 14:48:07.584967 11129 layer_factory.hpp:77] Creating layer inception_4c/relu_3x3
I0403 14:48:07.584988 11129 net.cpp:91] Creating Layer inception_4c/relu_3x3
I0403 14:48:07.585005 11129 net.cpp:425] inception_4c/relu_3x3 <- inception_4c/3x3
I0403 14:48:07.585023 11129 net.cpp:386] inception_4c/relu_3x3 -> inception_4c/3x3 (in-place)
I0403 14:48:07.585208 11129 net.cpp:141] Setting up inception_4c/relu_3x3
I0403 14:48:07.585237 11129 net.cpp:148] Top shape: 24 256 14 14 (1204224)
I0403 14:48:07.585253 11129 net.cpp:156] Memory required for data: 1047659808
I0403 14:48:07.585268 11129 layer_factory.hpp:77] Creating layer inception_4c/5x5_reduce
I0403 14:48:07.585292 11129 net.cpp:91] Creating Layer inception_4c/5x5_reduce
I0403 14:48:07.585311 11129 net.cpp:425] inception_4c/5x5_reduce <- inception_4b/output_inception_4b/output_0_split_2
I0403 14:48:07.585330 11129 net.cpp:399] inception_4c/5x5_reduce -> inception_4c/5x5_reduce
I0403 14:48:07.586427 11129 net.cpp:141] Setting up inception_4c/5x5_reduce
I0403 14:48:07.586459 11129 net.cpp:148] Top shape: 24 24 14 14 (112896)
I0403 14:48:07.586475 11129 net.cpp:156] Memory required for data: 1048111392
I0403 14:48:07.586494 11129 layer_factory.hpp:77] Creating layer inception_4c/relu_5x5_reduce
I0403 14:48:07.586513 11129 net.cpp:91] Creating Layer inception_4c/relu_5x5_reduce
I0403 14:48:07.586530 11129 net.cpp:425] inception_4c/relu_5x5_reduce <- inception_4c/5x5_reduce
I0403 14:48:07.586551 11129 net.cpp:386] inception_4c/relu_5x5_reduce -> inception_4c/5x5_reduce (in-place)
I0403 14:48:07.586747 11129 net.cpp:141] Setting up inception_4c/relu_5x5_reduce
I0403 14:48:07.586773 11129 net.cpp:148] Top shape: 24 24 14 14 (112896)
I0403 14:48:07.586787 11129 net.cpp:156] Memory required for data: 1048562976
I0403 14:48:07.586802 11129 layer_factory.hpp:77] Creating layer inception_4c/5x5
I0403 14:48:07.586824 11129 net.cpp:91] Creating Layer inception_4c/5x5
I0403 14:48:07.586843 11129 net.cpp:425] inception_4c/5x5 <- inception_4c/5x5_reduce
I0403 14:48:07.586863 11129 net.cpp:399] inception_4c/5x5 -> inception_4c/5x5
I0403 14:48:07.588100 11129 net.cpp:141] Setting up inception_4c/5x5
I0403 14:48:07.588135 11129 net.cpp:148] Top shape: 24 64 14 14 (301056)
I0403 14:48:07.588165 11129 net.cpp:156] Memory required for data: 1049767200
I0403 14:48:07.588184 11129 layer_factory.hpp:77] Creating layer inception_4c/relu_5x5
I0403 14:48:07.588208 11129 net.cpp:91] Creating Layer inception_4c/relu_5x5
I0403 14:48:07.588227 11129 net.cpp:425] inception_4c/relu_5x5 <- inception_4c/5x5
I0403 14:48:07.588245 11129 net.cpp:386] inception_4c/relu_5x5 -> inception_4c/5x5 (in-place)
I0403 14:48:07.588546 11129 net.cpp:141] Setting up inception_4c/relu_5x5
I0403 14:48:07.588574 11129 net.cpp:148] Top shape: 24 64 14 14 (301056)
I0403 14:48:07.588589 11129 net.cpp:156] Memory required for data: 1050971424
I0403 14:48:07.588604 11129 layer_factory.hpp:77] Creating layer inception_4c/pool
I0403 14:48:07.588624 11129 net.cpp:91] Creating Layer inception_4c/pool
I0403 14:48:07.588640 11129 net.cpp:425] inception_4c/pool <- inception_4b/output_inception_4b/output_0_split_3
I0403 14:48:07.588661 11129 net.cpp:399] inception_4c/pool -> inception_4c/pool
I0403 14:48:07.588727 11129 net.cpp:141] Setting up inception_4c/pool
I0403 14:48:07.588754 11129 net.cpp:148] Top shape: 24 512 14 14 (2408448)
I0403 14:48:07.588769 11129 net.cpp:156] Memory required for data: 1060605216
I0403 14:48:07.588784 11129 layer_factory.hpp:77] Creating layer inception_4c/pool_proj
I0403 14:48:07.588807 11129 net.cpp:91] Creating Layer inception_4c/pool_proj
I0403 14:48:07.588825 11129 net.cpp:425] inception_4c/pool_proj <- inception_4c/pool
I0403 14:48:07.588845 11129 net.cpp:399] inception_4c/pool_proj -> inception_4c/pool_proj
I0403 14:48:07.590090 11129 net.cpp:141] Setting up inception_4c/pool_proj
I0403 14:48:07.590131 11129 net.cpp:148] Top shape: 24 64 14 14 (301056)
I0403 14:48:07.590174 11129 net.cpp:156] Memory required for data: 1061809440
I0403 14:48:07.590196 11129 layer_factory.hpp:77] Creating layer inception_4c/relu_pool_proj
I0403 14:48:07.590214 11129 net.cpp:91] Creating Layer inception_4c/relu_pool_proj
I0403 14:48:07.590232 11129 net.cpp:425] inception_4c/relu_pool_proj <- inception_4c/pool_proj
I0403 14:48:07.590250 11129 net.cpp:386] inception_4c/relu_pool_proj -> inception_4c/pool_proj (in-place)
I0403 14:48:07.590447 11129 net.cpp:141] Setting up inception_4c/relu_pool_proj
I0403 14:48:07.590473 11129 net.cpp:148] Top shape: 24 64 14 14 (301056)
I0403 14:48:07.590488 11129 net.cpp:156] Memory required for data: 1063013664
I0403 14:48:07.590503 11129 layer_factory.hpp:77] Creating layer inception_4c/output
I0403 14:48:07.590520 11129 net.cpp:91] Creating Layer inception_4c/output
I0403 14:48:07.590535 11129 net.cpp:425] inception_4c/output <- inception_4c/1x1
I0403 14:48:07.590553 11129 net.cpp:425] inception_4c/output <- inception_4c/3x3
I0403 14:48:07.590567 11129 net.cpp:425] inception_4c/output <- inception_4c/5x5
I0403 14:48:07.590582 11129 net.cpp:425] inception_4c/output <- inception_4c/pool_proj
I0403 14:48:07.590601 11129 net.cpp:399] inception_4c/output -> inception_4c/output
I0403 14:48:07.590648 11129 net.cpp:141] Setting up inception_4c/output
I0403 14:48:07.590674 11129 net.cpp:148] Top shape: 24 512 14 14 (2408448)
I0403 14:48:07.590690 11129 net.cpp:156] Memory required for data: 1072647456
I0403 14:48:07.590705 11129 layer_factory.hpp:77] Creating layer inception_4c/output_inception_4c/output_0_split
I0403 14:48:07.590723 11129 net.cpp:91] Creating Layer inception_4c/output_inception_4c/output_0_split
I0403 14:48:07.590739 11129 net.cpp:425] inception_4c/output_inception_4c/output_0_split <- inception_4c/output
I0403 14:48:07.590756 11129 net.cpp:399] inception_4c/output_inception_4c/output_0_split -> inception_4c/output_inception_4c/output_0_split_0
I0403 14:48:07.590780 11129 net.cpp:399] inception_4c/output_inception_4c/output_0_split -> inception_4c/output_inception_4c/output_0_split_1
I0403 14:48:07.590801 11129 net.cpp:399] inception_4c/output_inception_4c/output_0_split -> inception_4c/output_inception_4c/output_0_split_2
I0403 14:48:07.590822 11129 net.cpp:399] inception_4c/output_inception_4c/output_0_split -> inception_4c/output_inception_4c/output_0_split_3
I0403 14:48:07.590905 11129 net.cpp:141] Setting up inception_4c/output_inception_4c/output_0_split
I0403 14:48:07.590929 11129 net.cpp:148] Top shape: 24 512 14 14 (2408448)
I0403 14:48:07.590945 11129 net.cpp:148] Top shape: 24 512 14 14 (2408448)
I0403 14:48:07.590961 11129 net.cpp:148] Top shape: 24 512 14 14 (2408448)
I0403 14:48:07.590977 11129 net.cpp:148] Top shape: 24 512 14 14 (2408448)
I0403 14:48:07.590991 11129 net.cpp:156] Memory required for data: 1111182624
I0403 14:48:07.591006 11129 layer_factory.hpp:77] Creating layer inception_4d/1x1
I0403 14:48:07.591029 11129 net.cpp:91] Creating Layer inception_4d/1x1
I0403 14:48:07.591048 11129 net.cpp:425] inception_4d/1x1 <- inception_4c/output_inception_4c/output_0_split_0
I0403 14:48:07.591070 11129 net.cpp:399] inception_4d/1x1 -> inception_4d/1x1
I0403 14:48:07.592496 11129 net.cpp:141] Setting up inception_4d/1x1
I0403 14:48:07.592525 11129 net.cpp:148] Top shape: 24 112 14 14 (526848)
I0403 14:48:07.592541 11129 net.cpp:156] Memory required for data: 1113290016
I0403 14:48:07.592561 11129 layer_factory.hpp:77] Creating layer inception_4d/relu_1x1
I0403 14:48:07.592581 11129 net.cpp:91] Creating Layer inception_4d/relu_1x1
I0403 14:48:07.592597 11129 net.cpp:425] inception_4d/relu_1x1 <- inception_4d/1x1
I0403 14:48:07.592614 11129 net.cpp:386] inception_4d/relu_1x1 -> inception_4d/1x1 (in-place)
I0403 14:48:07.592797 11129 net.cpp:141] Setting up inception_4d/relu_1x1
I0403 14:48:07.592825 11129 net.cpp:148] Top shape: 24 112 14 14 (526848)
I0403 14:48:07.592840 11129 net.cpp:156] Memory required for data: 1115397408
I0403 14:48:07.592855 11129 layer_factory.hpp:77] Creating layer inception_4d/3x3_reduce
I0403 14:48:07.592892 11129 net.cpp:91] Creating Layer inception_4d/3x3_reduce
I0403 14:48:07.592912 11129 net.cpp:425] inception_4d/3x3_reduce <- inception_4c/output_inception_4c/output_0_split_1
I0403 14:48:07.592931 11129 net.cpp:399] inception_4d/3x3_reduce -> inception_4d/3x3_reduce
I0403 14:48:07.594481 11129 net.cpp:141] Setting up inception_4d/3x3_reduce
I0403 14:48:07.594509 11129 net.cpp:148] Top shape: 24 144 14 14 (677376)
I0403 14:48:07.594526 11129 net.cpp:156] Memory required for data: 1118106912
I0403 14:48:07.594544 11129 layer_factory.hpp:77] Creating layer inception_4d/relu_3x3_reduce
I0403 14:48:07.594563 11129 net.cpp:91] Creating Layer inception_4d/relu_3x3_reduce
I0403 14:48:07.594579 11129 net.cpp:425] inception_4d/relu_3x3_reduce <- inception_4d/3x3_reduce
I0403 14:48:07.594597 11129 net.cpp:386] inception_4d/relu_3x3_reduce -> inception_4d/3x3_reduce (in-place)
I0403 14:48:07.594888 11129 net.cpp:141] Setting up inception_4d/relu_3x3_reduce
I0403 14:48:07.594916 11129 net.cpp:148] Top shape: 24 144 14 14 (677376)
I0403 14:48:07.594931 11129 net.cpp:156] Memory required for data: 1120816416
I0403 14:48:07.594946 11129 layer_factory.hpp:77] Creating layer inception_4d/3x3
I0403 14:48:07.594969 11129 net.cpp:91] Creating Layer inception_4d/3x3
I0403 14:48:07.594986 11129 net.cpp:425] inception_4d/3x3 <- inception_4d/3x3_reduce
I0403 14:48:07.595007 11129 net.cpp:399] inception_4d/3x3 -> inception_4d/3x3
I0403 14:48:07.599370 11129 net.cpp:141] Setting up inception_4d/3x3
I0403 14:48:07.599400 11129 net.cpp:148] Top shape: 24 288 14 14 (1354752)
I0403 14:48:07.599413 11129 net.cpp:156] Memory required for data: 1126235424
I0403 14:48:07.599432 11129 layer_factory.hpp:77] Creating layer inception_4d/relu_3x3
I0403 14:48:07.599452 11129 net.cpp:91] Creating Layer inception_4d/relu_3x3
I0403 14:48:07.599469 11129 net.cpp:425] inception_4d/relu_3x3 <- inception_4d/3x3
I0403 14:48:07.599485 11129 net.cpp:386] inception_4d/relu_3x3 -> inception_4d/3x3 (in-place)
I0403 14:48:07.599663 11129 net.cpp:141] Setting up inception_4d/relu_3x3
I0403 14:48:07.599690 11129 net.cpp:148] Top shape: 24 288 14 14 (1354752)
I0403 14:48:07.599705 11129 net.cpp:156] Memory required for data: 1131654432
I0403 14:48:07.599720 11129 layer_factory.hpp:77] Creating layer inception_4d/5x5_reduce
I0403 14:48:07.599742 11129 net.cpp:91] Creating Layer inception_4d/5x5_reduce
I0403 14:48:07.599761 11129 net.cpp:425] inception_4d/5x5_reduce <- inception_4c/output_inception_4c/output_0_split_2
I0403 14:48:07.599779 11129 net.cpp:399] inception_4d/5x5_reduce -> inception_4d/5x5_reduce
I0403 14:48:07.600921 11129 net.cpp:141] Setting up inception_4d/5x5_reduce
I0403 14:48:07.600950 11129 net.cpp:148] Top shape: 24 32 14 14 (150528)
I0403 14:48:07.600965 11129 net.cpp:156] Memory required for data: 1132256544
I0403 14:48:07.600982 11129 layer_factory.hpp:77] Creating layer inception_4d/relu_5x5_reduce
I0403 14:48:07.601003 11129 net.cpp:91] Creating Layer inception_4d/relu_5x5_reduce
I0403 14:48:07.601021 11129 net.cpp:425] inception_4d/relu_5x5_reduce <- inception_4d/5x5_reduce
I0403 14:48:07.601037 11129 net.cpp:386] inception_4d/relu_5x5_reduce -> inception_4d/5x5_reduce (in-place)
I0403 14:48:07.601225 11129 net.cpp:141] Setting up inception_4d/relu_5x5_reduce
I0403 14:48:07.601253 11129 net.cpp:148] Top shape: 24 32 14 14 (150528)
I0403 14:48:07.601269 11129 net.cpp:156] Memory required for data: 1132858656
I0403 14:48:07.601284 11129 layer_factory.hpp:77] Creating layer inception_4d/5x5
I0403 14:48:07.601305 11129 net.cpp:91] Creating Layer inception_4d/5x5
I0403 14:48:07.601322 11129 net.cpp:425] inception_4d/5x5 <- inception_4d/5x5_reduce
I0403 14:48:07.601341 11129 net.cpp:399] inception_4d/5x5 -> inception_4d/5x5
I0403 14:48:07.602814 11129 net.cpp:141] Setting up inception_4d/5x5
I0403 14:48:07.602844 11129 net.cpp:148] Top shape: 24 64 14 14 (301056)
I0403 14:48:07.602860 11129 net.cpp:156] Memory required for data: 1134062880
I0403 14:48:07.602880 11129 layer_factory.hpp:77] Creating layer inception_4d/relu_5x5
I0403 14:48:07.602913 11129 net.cpp:91] Creating Layer inception_4d/relu_5x5
I0403 14:48:07.602929 11129 net.cpp:425] inception_4d/relu_5x5 <- inception_4d/5x5
I0403 14:48:07.602949 11129 net.cpp:386] inception_4d/relu_5x5 -> inception_4d/5x5 (in-place)
I0403 14:48:07.603246 11129 net.cpp:141] Setting up inception_4d/relu_5x5
I0403 14:48:07.603277 11129 net.cpp:148] Top shape: 24 64 14 14 (301056)
I0403 14:48:07.603294 11129 net.cpp:156] Memory required for data: 1135267104
I0403 14:48:07.603310 11129 layer_factory.hpp:77] Creating layer inception_4d/pool
I0403 14:48:07.603327 11129 net.cpp:91] Creating Layer inception_4d/pool
I0403 14:48:07.603343 11129 net.cpp:425] inception_4d/pool <- inception_4c/output_inception_4c/output_0_split_3
I0403 14:48:07.603363 11129 net.cpp:399] inception_4d/pool -> inception_4d/pool
I0403 14:48:07.603428 11129 net.cpp:141] Setting up inception_4d/pool
I0403 14:48:07.603454 11129 net.cpp:148] Top shape: 24 512 14 14 (2408448)
I0403 14:48:07.603471 11129 net.cpp:156] Memory required for data: 1144900896
I0403 14:48:07.603487 11129 layer_factory.hpp:77] Creating layer inception_4d/pool_proj
I0403 14:48:07.603505 11129 net.cpp:91] Creating Layer inception_4d/pool_proj
I0403 14:48:07.603523 11129 net.cpp:425] inception_4d/pool_proj <- inception_4d/pool
I0403 14:48:07.603543 11129 net.cpp:399] inception_4d/pool_proj -> inception_4d/pool_proj
I0403 14:48:07.605286 11129 net.cpp:141] Setting up inception_4d/pool_proj
I0403 14:48:07.605316 11129 net.cpp:148] Top shape: 24 64 14 14 (301056)
I0403 14:48:07.605331 11129 net.cpp:156] Memory required for data: 1146105120
I0403 14:48:07.605350 11129 layer_factory.hpp:77] Creating layer inception_4d/relu_pool_proj
I0403 14:48:07.605370 11129 net.cpp:91] Creating Layer inception_4d/relu_pool_proj
I0403 14:48:07.605386 11129 net.cpp:425] inception_4d/relu_pool_proj <- inception_4d/pool_proj
I0403 14:48:07.605403 11129 net.cpp:386] inception_4d/relu_pool_proj -> inception_4d/pool_proj (in-place)
I0403 14:48:07.605618 11129 net.cpp:141] Setting up inception_4d/relu_pool_proj
I0403 14:48:07.605648 11129 net.cpp:148] Top shape: 24 64 14 14 (301056)
I0403 14:48:07.605662 11129 net.cpp:156] Memory required for data: 1147309344
I0403 14:48:07.605679 11129 layer_factory.hpp:77] Creating layer inception_4d/output
I0403 14:48:07.605695 11129 net.cpp:91] Creating Layer inception_4d/output
I0403 14:48:07.605711 11129 net.cpp:425] inception_4d/output <- inception_4d/1x1
I0403 14:48:07.605727 11129 net.cpp:425] inception_4d/output <- inception_4d/3x3
I0403 14:48:07.605744 11129 net.cpp:425] inception_4d/output <- inception_4d/5x5
I0403 14:48:07.605761 11129 net.cpp:425] inception_4d/output <- inception_4d/pool_proj
I0403 14:48:07.605778 11129 net.cpp:399] inception_4d/output -> inception_4d/output
I0403 14:48:07.605829 11129 net.cpp:141] Setting up inception_4d/output
I0403 14:48:07.605852 11129 net.cpp:148] Top shape: 24 528 14 14 (2483712)
I0403 14:48:07.605866 11129 net.cpp:156] Memory required for data: 1157244192
I0403 14:48:07.605892 11129 layer_factory.hpp:77] Creating layer inception_4d/output_inception_4d/output_0_split
I0403 14:48:07.605912 11129 net.cpp:91] Creating Layer inception_4d/output_inception_4d/output_0_split
I0403 14:48:07.605928 11129 net.cpp:425] inception_4d/output_inception_4d/output_0_split <- inception_4d/output
I0403 14:48:07.605945 11129 net.cpp:399] inception_4d/output_inception_4d/output_0_split -> inception_4d/output_inception_4d/output_0_split_0
I0403 14:48:07.605964 11129 net.cpp:399] inception_4d/output_inception_4d/output_0_split -> inception_4d/output_inception_4d/output_0_split_1
I0403 14:48:07.605984 11129 net.cpp:399] inception_4d/output_inception_4d/output_0_split -> inception_4d/output_inception_4d/output_0_split_2
I0403 14:48:07.606009 11129 net.cpp:399] inception_4d/output_inception_4d/output_0_split -> inception_4d/output_inception_4d/output_0_split_3
I0403 14:48:07.606029 11129 net.cpp:399] inception_4d/output_inception_4d/output_0_split -> inception_4d/output_inception_4d/output_0_split_4
I0403 14:48:07.606135 11129 net.cpp:141] Setting up inception_4d/output_inception_4d/output_0_split
I0403 14:48:07.606170 11129 net.cpp:148] Top shape: 24 528 14 14 (2483712)
I0403 14:48:07.606187 11129 net.cpp:148] Top shape: 24 528 14 14 (2483712)
I0403 14:48:07.606202 11129 net.cpp:148] Top shape: 24 528 14 14 (2483712)
I0403 14:48:07.606217 11129 net.cpp:148] Top shape: 24 528 14 14 (2483712)
I0403 14:48:07.606231 11129 net.cpp:148] Top shape: 24 528 14 14 (2483712)
I0403 14:48:07.606245 11129 net.cpp:156] Memory required for data: 1206918432
I0403 14:48:07.606259 11129 layer_factory.hpp:77] Creating layer loss2/ave_pool
I0403 14:48:07.606281 11129 net.cpp:91] Creating Layer loss2/ave_pool
I0403 14:48:07.606297 11129 net.cpp:425] loss2/ave_pool <- inception_4d/output_inception_4d/output_0_split_0
I0403 14:48:07.606315 11129 net.cpp:399] loss2/ave_pool -> loss2/ave_pool
I0403 14:48:07.606616 11129 net.cpp:141] Setting up loss2/ave_pool
I0403 14:48:07.606643 11129 net.cpp:148] Top shape: 24 528 4 4 (202752)
I0403 14:48:07.606658 11129 net.cpp:156] Memory required for data: 1207729440
I0403 14:48:07.606674 11129 layer_factory.hpp:77] Creating layer loss2/conv
I0403 14:48:07.606695 11129 net.cpp:91] Creating Layer loss2/conv
I0403 14:48:07.606714 11129 net.cpp:425] loss2/conv <- loss2/ave_pool
I0403 14:48:07.606734 11129 net.cpp:399] loss2/conv -> loss2/conv
I0403 14:48:07.608630 11129 net.cpp:141] Setting up loss2/conv
I0403 14:48:07.608660 11129 net.cpp:148] Top shape: 24 128 4 4 (49152)
I0403 14:48:07.608675 11129 net.cpp:156] Memory required for data: 1207926048
I0403 14:48:07.608695 11129 layer_factory.hpp:77] Creating layer loss2/relu_conv
I0403 14:48:07.608712 11129 net.cpp:91] Creating Layer loss2/relu_conv
I0403 14:48:07.608729 11129 net.cpp:425] loss2/relu_conv <- loss2/conv
I0403 14:48:07.608749 11129 net.cpp:386] loss2/relu_conv -> loss2/conv (in-place)
I0403 14:48:07.609035 11129 net.cpp:141] Setting up loss2/relu_conv
I0403 14:48:07.609062 11129 net.cpp:148] Top shape: 24 128 4 4 (49152)
I0403 14:48:07.609077 11129 net.cpp:156] Memory required for data: 1208122656
I0403 14:48:07.609092 11129 layer_factory.hpp:77] Creating layer loss2/fc
I0403 14:48:07.609112 11129 net.cpp:91] Creating Layer loss2/fc
I0403 14:48:07.609133 11129 net.cpp:425] loss2/fc <- loss2/conv
I0403 14:48:07.609158 11129 net.cpp:399] loss2/fc -> loss2/fc
I0403 14:48:07.626893 11129 net.cpp:141] Setting up loss2/fc
I0403 14:48:07.626951 11129 net.cpp:148] Top shape: 24 1024 (24576)
I0403 14:48:07.626968 11129 net.cpp:156] Memory required for data: 1208220960
I0403 14:48:07.626991 11129 layer_factory.hpp:77] Creating layer loss2/relu_fc
I0403 14:48:07.627008 11129 net.cpp:91] Creating Layer loss2/relu_fc
I0403 14:48:07.627025 11129 net.cpp:425] loss2/relu_fc <- loss2/fc
I0403 14:48:07.627044 11129 net.cpp:386] loss2/relu_fc -> loss2/fc (in-place)
I0403 14:48:07.627384 11129 net.cpp:141] Setting up loss2/relu_fc
I0403 14:48:07.627414 11129 net.cpp:148] Top shape: 24 1024 (24576)
I0403 14:48:07.627431 11129 net.cpp:156] Memory required for data: 1208319264
I0403 14:48:07.627447 11129 layer_factory.hpp:77] Creating layer loss2/drop_fc
I0403 14:48:07.627466 11129 net.cpp:91] Creating Layer loss2/drop_fc
I0403 14:48:07.627483 11129 net.cpp:425] loss2/drop_fc <- loss2/fc
I0403 14:48:07.627501 11129 net.cpp:386] loss2/drop_fc -> loss2/fc (in-place)
I0403 14:48:07.627552 11129 net.cpp:141] Setting up loss2/drop_fc
I0403 14:48:07.627576 11129 net.cpp:148] Top shape: 24 1024 (24576)
I0403 14:48:07.627591 11129 net.cpp:156] Memory required for data: 1208417568
I0403 14:48:07.627606 11129 layer_factory.hpp:77] Creating layer loss2/classifier_plantvillage
I0403 14:48:07.627629 11129 net.cpp:91] Creating Layer loss2/classifier_plantvillage
I0403 14:48:07.627646 11129 net.cpp:425] loss2/classifier_plantvillage <- loss2/fc
I0403 14:48:07.627665 11129 net.cpp:399] loss2/classifier_plantvillage -> loss2/classifier_plantvillage
I0403 14:48:07.628077 11129 net.cpp:141] Setting up loss2/classifier_plantvillage
I0403 14:48:07.628104 11129 net.cpp:148] Top shape: 24 38 (912)
I0403 14:48:07.628151 11129 net.cpp:156] Memory required for data: 1208421216
I0403 14:48:07.628172 11129 layer_factory.hpp:77] Creating layer loss2/classifier_plantvillage_loss2/classifier_plantvillage_0_split
I0403 14:48:07.628191 11129 net.cpp:91] Creating Layer loss2/classifier_plantvillage_loss2/classifier_plantvillage_0_split
I0403 14:48:07.628208 11129 net.cpp:425] loss2/classifier_plantvillage_loss2/classifier_plantvillage_0_split <- loss2/classifier_plantvillage
I0403 14:48:07.628228 11129 net.cpp:399] loss2/classifier_plantvillage_loss2/classifier_plantvillage_0_split -> loss2/classifier_plantvillage_loss2/classifier_plantvillage_0_split_0
I0403 14:48:07.628250 11129 net.cpp:399] loss2/classifier_plantvillage_loss2/classifier_plantvillage_0_split -> loss2/classifier_plantvillage_loss2/classifier_plantvillage_0_split_1
I0403 14:48:07.628271 11129 net.cpp:399] loss2/classifier_plantvillage_loss2/classifier_plantvillage_0_split -> loss2/classifier_plantvillage_loss2/classifier_plantvillage_0_split_2
I0403 14:48:07.628350 11129 net.cpp:141] Setting up loss2/classifier_plantvillage_loss2/classifier_plantvillage_0_split
I0403 14:48:07.628376 11129 net.cpp:148] Top shape: 24 38 (912)
I0403 14:48:07.628391 11129 net.cpp:148] Top shape: 24 38 (912)
I0403 14:48:07.628407 11129 net.cpp:148] Top shape: 24 38 (912)
I0403 14:48:07.628422 11129 net.cpp:156] Memory required for data: 1208432160
I0403 14:48:07.628437 11129 layer_factory.hpp:77] Creating layer inception_4e/1x1
I0403 14:48:07.628460 11129 net.cpp:91] Creating Layer inception_4e/1x1
I0403 14:48:07.628479 11129 net.cpp:425] inception_4e/1x1 <- inception_4d/output_inception_4d/output_0_split_1
I0403 14:48:07.628499 11129 net.cpp:399] inception_4e/1x1 -> inception_4e/1x1
I0403 14:48:07.630358 11129 net.cpp:141] Setting up inception_4e/1x1
I0403 14:48:07.630388 11129 net.cpp:148] Top shape: 24 256 14 14 (1204224)
I0403 14:48:07.630403 11129 net.cpp:156] Memory required for data: 1213249056
I0403 14:48:07.630421 11129 layer_factory.hpp:77] Creating layer inception_4e/relu_1x1
I0403 14:48:07.630440 11129 net.cpp:91] Creating Layer inception_4e/relu_1x1
I0403 14:48:07.630457 11129 net.cpp:425] inception_4e/relu_1x1 <- inception_4e/1x1
I0403 14:48:07.630477 11129 net.cpp:386] inception_4e/relu_1x1 -> inception_4e/1x1 (in-place)
I0403 14:48:07.630781 11129 net.cpp:141] Setting up inception_4e/relu_1x1
I0403 14:48:07.630825 11129 net.cpp:148] Top shape: 24 256 14 14 (1204224)
I0403 14:48:07.630841 11129 net.cpp:156] Memory required for data: 1218065952
I0403 14:48:07.630856 11129 layer_factory.hpp:77] Creating layer inception_4e/3x3_reduce
I0403 14:48:07.630882 11129 net.cpp:91] Creating Layer inception_4e/3x3_reduce
I0403 14:48:07.630900 11129 net.cpp:425] inception_4e/3x3_reduce <- inception_4d/output_inception_4d/output_0_split_2
I0403 14:48:07.630930 11129 net.cpp:399] inception_4e/3x3_reduce -> inception_4e/3x3_reduce
I0403 14:48:07.633244 11129 net.cpp:141] Setting up inception_4e/3x3_reduce
I0403 14:48:07.633276 11129 net.cpp:148] Top shape: 24 160 14 14 (752640)
I0403 14:48:07.633293 11129 net.cpp:156] Memory required for data: 1221076512
I0403 14:48:07.633312 11129 layer_factory.hpp:77] Creating layer inception_4e/relu_3x3_reduce
I0403 14:48:07.633332 11129 net.cpp:91] Creating Layer inception_4e/relu_3x3_reduce
I0403 14:48:07.633349 11129 net.cpp:425] inception_4e/relu_3x3_reduce <- inception_4e/3x3_reduce
I0403 14:48:07.633370 11129 net.cpp:386] inception_4e/relu_3x3_reduce -> inception_4e/3x3_reduce (in-place)
I0403 14:48:07.633563 11129 net.cpp:141] Setting up inception_4e/relu_3x3_reduce
I0403 14:48:07.633589 11129 net.cpp:148] Top shape: 24 160 14 14 (752640)
I0403 14:48:07.633605 11129 net.cpp:156] Memory required for data: 1224087072
I0403 14:48:07.633621 11129 layer_factory.hpp:77] Creating layer inception_4e/3x3
I0403 14:48:07.633643 11129 net.cpp:91] Creating Layer inception_4e/3x3
I0403 14:48:07.633661 11129 net.cpp:425] inception_4e/3x3 <- inception_4e/3x3_reduce
I0403 14:48:07.633683 11129 net.cpp:399] inception_4e/3x3 -> inception_4e/3x3
I0403 14:48:07.638845 11129 net.cpp:141] Setting up inception_4e/3x3
I0403 14:48:07.638888 11129 net.cpp:148] Top shape: 24 320 14 14 (1505280)
I0403 14:48:07.638906 11129 net.cpp:156] Memory required for data: 1230108192
I0403 14:48:07.638926 11129 layer_factory.hpp:77] Creating layer inception_4e/relu_3x3
I0403 14:48:07.638947 11129 net.cpp:91] Creating Layer inception_4e/relu_3x3
I0403 14:48:07.638964 11129 net.cpp:425] inception_4e/relu_3x3 <- inception_4e/3x3
I0403 14:48:07.638981 11129 net.cpp:386] inception_4e/relu_3x3 -> inception_4e/3x3 (in-place)
I0403 14:48:07.639293 11129 net.cpp:141] Setting up inception_4e/relu_3x3
I0403 14:48:07.639322 11129 net.cpp:148] Top shape: 24 320 14 14 (1505280)
I0403 14:48:07.639338 11129 net.cpp:156] Memory required for data: 1236129312
I0403 14:48:07.639354 11129 layer_factory.hpp:77] Creating layer inception_4e/5x5_reduce
I0403 14:48:07.639377 11129 net.cpp:91] Creating Layer inception_4e/5x5_reduce
I0403 14:48:07.639396 11129 net.cpp:425] inception_4e/5x5_reduce <- inception_4d/output_inception_4d/output_0_split_3
I0403 14:48:07.639417 11129 net.cpp:399] inception_4e/5x5_reduce -> inception_4e/5x5_reduce
I0403 14:48:07.640528 11129 net.cpp:141] Setting up inception_4e/5x5_reduce
I0403 14:48:07.640563 11129 net.cpp:148] Top shape: 24 32 14 14 (150528)
I0403 14:48:07.640580 11129 net.cpp:156] Memory required for data: 1236731424
I0403 14:48:07.640599 11129 layer_factory.hpp:77] Creating layer inception_4e/relu_5x5_reduce
I0403 14:48:07.640617 11129 net.cpp:91] Creating Layer inception_4e/relu_5x5_reduce
I0403 14:48:07.640633 11129 net.cpp:425] inception_4e/relu_5x5_reduce <- inception_4e/5x5_reduce
I0403 14:48:07.640653 11129 net.cpp:386] inception_4e/relu_5x5_reduce -> inception_4e/5x5_reduce (in-place)
I0403 14:48:07.640957 11129 net.cpp:141] Setting up inception_4e/relu_5x5_reduce
I0403 14:48:07.640987 11129 net.cpp:148] Top shape: 24 32 14 14 (150528)
I0403 14:48:07.641005 11129 net.cpp:156] Memory required for data: 1237333536
I0403 14:48:07.641021 11129 layer_factory.hpp:77] Creating layer inception_4e/5x5
I0403 14:48:07.641062 11129 net.cpp:91] Creating Layer inception_4e/5x5
I0403 14:48:07.641083 11129 net.cpp:425] inception_4e/5x5 <- inception_4e/5x5_reduce
I0403 14:48:07.641103 11129 net.cpp:399] inception_4e/5x5 -> inception_4e/5x5
I0403 14:48:07.643031 11129 net.cpp:141] Setting up inception_4e/5x5
I0403 14:48:07.643061 11129 net.cpp:148] Top shape: 24 128 14 14 (602112)
I0403 14:48:07.643077 11129 net.cpp:156] Memory required for data: 1239741984
I0403 14:48:07.643096 11129 layer_factory.hpp:77] Creating layer inception_4e/relu_5x5
I0403 14:48:07.643117 11129 net.cpp:91] Creating Layer inception_4e/relu_5x5
I0403 14:48:07.643144 11129 net.cpp:425] inception_4e/relu_5x5 <- inception_4e/5x5
I0403 14:48:07.643164 11129 net.cpp:386] inception_4e/relu_5x5 -> inception_4e/5x5 (in-place)
I0403 14:48:07.643389 11129 net.cpp:141] Setting up inception_4e/relu_5x5
I0403 14:48:07.643417 11129 net.cpp:148] Top shape: 24 128 14 14 (602112)
I0403 14:48:07.643431 11129 net.cpp:156] Memory required for data: 1242150432
I0403 14:48:07.643447 11129 layer_factory.hpp:77] Creating layer inception_4e/pool
I0403 14:48:07.643466 11129 net.cpp:91] Creating Layer inception_4e/pool
I0403 14:48:07.643482 11129 net.cpp:425] inception_4e/pool <- inception_4d/output_inception_4d/output_0_split_4
I0403 14:48:07.643503 11129 net.cpp:399] inception_4e/pool -> inception_4e/pool
I0403 14:48:07.643589 11129 net.cpp:141] Setting up inception_4e/pool
I0403 14:48:07.643615 11129 net.cpp:148] Top shape: 24 528 14 14 (2483712)
I0403 14:48:07.643628 11129 net.cpp:156] Memory required for data: 1252085280
I0403 14:48:07.643643 11129 layer_factory.hpp:77] Creating layer inception_4e/pool_proj
I0403 14:48:07.643667 11129 net.cpp:91] Creating Layer inception_4e/pool_proj
I0403 14:48:07.643687 11129 net.cpp:425] inception_4e/pool_proj <- inception_4e/pool
I0403 14:48:07.643704 11129 net.cpp:399] inception_4e/pool_proj -> inception_4e/pool_proj
I0403 14:48:07.645241 11129 net.cpp:141] Setting up inception_4e/pool_proj
I0403 14:48:07.645282 11129 net.cpp:148] Top shape: 24 128 14 14 (602112)
I0403 14:48:07.645299 11129 net.cpp:156] Memory required for data: 1254493728
I0403 14:48:07.645329 11129 layer_factory.hpp:77] Creating layer inception_4e/relu_pool_proj
I0403 14:48:07.645350 11129 net.cpp:91] Creating Layer inception_4e/relu_pool_proj
I0403 14:48:07.645369 11129 net.cpp:425] inception_4e/relu_pool_proj <- inception_4e/pool_proj
I0403 14:48:07.645386 11129 net.cpp:386] inception_4e/relu_pool_proj -> inception_4e/pool_proj (in-place)
I0403 14:48:07.645696 11129 net.cpp:141] Setting up inception_4e/relu_pool_proj
I0403 14:48:07.645725 11129 net.cpp:148] Top shape: 24 128 14 14 (602112)
I0403 14:48:07.645740 11129 net.cpp:156] Memory required for data: 1256902176
I0403 14:48:07.645756 11129 layer_factory.hpp:77] Creating layer inception_4e/output
I0403 14:48:07.645776 11129 net.cpp:91] Creating Layer inception_4e/output
I0403 14:48:07.645794 11129 net.cpp:425] inception_4e/output <- inception_4e/1x1
I0403 14:48:07.645812 11129 net.cpp:425] inception_4e/output <- inception_4e/3x3
I0403 14:48:07.645828 11129 net.cpp:425] inception_4e/output <- inception_4e/5x5
I0403 14:48:07.645844 11129 net.cpp:425] inception_4e/output <- inception_4e/pool_proj
I0403 14:48:07.645860 11129 net.cpp:399] inception_4e/output -> inception_4e/output
I0403 14:48:07.645912 11129 net.cpp:141] Setting up inception_4e/output
I0403 14:48:07.645936 11129 net.cpp:148] Top shape: 24 832 14 14 (3913728)
I0403 14:48:07.645951 11129 net.cpp:156] Memory required for data: 1272557088
I0403 14:48:07.645967 11129 layer_factory.hpp:77] Creating layer pool4/3x3_s2
I0403 14:48:07.645983 11129 net.cpp:91] Creating Layer pool4/3x3_s2
I0403 14:48:07.645999 11129 net.cpp:425] pool4/3x3_s2 <- inception_4e/output
I0403 14:48:07.646020 11129 net.cpp:399] pool4/3x3_s2 -> pool4/3x3_s2
I0403 14:48:07.646087 11129 net.cpp:141] Setting up pool4/3x3_s2
I0403 14:48:07.646112 11129 net.cpp:148] Top shape: 24 832 7 7 (978432)
I0403 14:48:07.646133 11129 net.cpp:156] Memory required for data: 1276470816
I0403 14:48:07.646149 11129 layer_factory.hpp:77] Creating layer pool4/3x3_s2_pool4/3x3_s2_0_split
I0403 14:48:07.646170 11129 net.cpp:91] Creating Layer pool4/3x3_s2_pool4/3x3_s2_0_split
I0403 14:48:07.646188 11129 net.cpp:425] pool4/3x3_s2_pool4/3x3_s2_0_split <- pool4/3x3_s2
I0403 14:48:07.646208 11129 net.cpp:399] pool4/3x3_s2_pool4/3x3_s2_0_split -> pool4/3x3_s2_pool4/3x3_s2_0_split_0
I0403 14:48:07.646227 11129 net.cpp:399] pool4/3x3_s2_pool4/3x3_s2_0_split -> pool4/3x3_s2_pool4/3x3_s2_0_split_1
I0403 14:48:07.646248 11129 net.cpp:399] pool4/3x3_s2_pool4/3x3_s2_0_split -> pool4/3x3_s2_pool4/3x3_s2_0_split_2
I0403 14:48:07.646268 11129 net.cpp:399] pool4/3x3_s2_pool4/3x3_s2_0_split -> pool4/3x3_s2_pool4/3x3_s2_0_split_3
I0403 14:48:07.646358 11129 net.cpp:141] Setting up pool4/3x3_s2_pool4/3x3_s2_0_split
I0403 14:48:07.646384 11129 net.cpp:148] Top shape: 24 832 7 7 (978432)
I0403 14:48:07.646401 11129 net.cpp:148] Top shape: 24 832 7 7 (978432)
I0403 14:48:07.646430 11129 net.cpp:148] Top shape: 24 832 7 7 (978432)
I0403 14:48:07.646445 11129 net.cpp:148] Top shape: 24 832 7 7 (978432)
I0403 14:48:07.646461 11129 net.cpp:156] Memory required for data: 1292125728
I0403 14:48:07.646477 11129 layer_factory.hpp:77] Creating layer inception_5a/1x1
I0403 14:48:07.646500 11129 net.cpp:91] Creating Layer inception_5a/1x1
I0403 14:48:07.646519 11129 net.cpp:425] inception_5a/1x1 <- pool4/3x3_s2_pool4/3x3_s2_0_split_0
I0403 14:48:07.646540 11129 net.cpp:399] inception_5a/1x1 -> inception_5a/1x1
I0403 14:48:07.649490 11129 net.cpp:141] Setting up inception_5a/1x1
I0403 14:48:07.649524 11129 net.cpp:148] Top shape: 24 256 7 7 (301056)
I0403 14:48:07.649541 11129 net.cpp:156] Memory required for data: 1293329952
I0403 14:48:07.649560 11129 layer_factory.hpp:77] Creating layer inception_5a/relu_1x1
I0403 14:48:07.649593 11129 net.cpp:91] Creating Layer inception_5a/relu_1x1
I0403 14:48:07.649610 11129 net.cpp:425] inception_5a/relu_1x1 <- inception_5a/1x1
I0403 14:48:07.649627 11129 net.cpp:386] inception_5a/relu_1x1 -> inception_5a/1x1 (in-place)
I0403 14:48:07.649956 11129 net.cpp:141] Setting up inception_5a/relu_1x1
I0403 14:48:07.649987 11129 net.cpp:148] Top shape: 24 256 7 7 (301056)
I0403 14:48:07.650003 11129 net.cpp:156] Memory required for data: 1294534176
I0403 14:48:07.650018 11129 layer_factory.hpp:77] Creating layer inception_5a/3x3_reduce
I0403 14:48:07.650054 11129 net.cpp:91] Creating Layer inception_5a/3x3_reduce
I0403 14:48:07.650071 11129 net.cpp:425] inception_5a/3x3_reduce <- pool4/3x3_s2_pool4/3x3_s2_0_split_1
I0403 14:48:07.650092 11129 net.cpp:399] inception_5a/3x3_reduce -> inception_5a/3x3_reduce
I0403 14:48:07.652601 11129 net.cpp:141] Setting up inception_5a/3x3_reduce
I0403 14:48:07.652631 11129 net.cpp:148] Top shape: 24 160 7 7 (188160)
I0403 14:48:07.652644 11129 net.cpp:156] Memory required for data: 1295286816
I0403 14:48:07.652662 11129 layer_factory.hpp:77] Creating layer inception_5a/relu_3x3_reduce
I0403 14:48:07.652683 11129 net.cpp:91] Creating Layer inception_5a/relu_3x3_reduce
I0403 14:48:07.652699 11129 net.cpp:425] inception_5a/relu_3x3_reduce <- inception_5a/3x3_reduce
I0403 14:48:07.652717 11129 net.cpp:386] inception_5a/relu_3x3_reduce -> inception_5a/3x3_reduce (in-place)
I0403 14:48:07.652897 11129 net.cpp:141] Setting up inception_5a/relu_3x3_reduce
I0403 14:48:07.652925 11129 net.cpp:148] Top shape: 24 160 7 7 (188160)
I0403 14:48:07.652941 11129 net.cpp:156] Memory required for data: 1296039456
I0403 14:48:07.652956 11129 layer_factory.hpp:77] Creating layer inception_5a/3x3
I0403 14:48:07.652978 11129 net.cpp:91] Creating Layer inception_5a/3x3
I0403 14:48:07.652997 11129 net.cpp:425] inception_5a/3x3 <- inception_5a/3x3_reduce
I0403 14:48:07.653015 11129 net.cpp:399] inception_5a/3x3 -> inception_5a/3x3
I0403 14:48:07.657984 11129 net.cpp:141] Setting up inception_5a/3x3
I0403 14:48:07.658017 11129 net.cpp:148] Top shape: 24 320 7 7 (376320)
I0403 14:48:07.658035 11129 net.cpp:156] Memory required for data: 1297544736
I0403 14:48:07.658052 11129 layer_factory.hpp:77] Creating layer inception_5a/relu_3x3
I0403 14:48:07.658071 11129 net.cpp:91] Creating Layer inception_5a/relu_3x3
I0403 14:48:07.658088 11129 net.cpp:425] inception_5a/relu_3x3 <- inception_5a/3x3
I0403 14:48:07.658107 11129 net.cpp:386] inception_5a/relu_3x3 -> inception_5a/3x3 (in-place)
I0403 14:48:07.658409 11129 net.cpp:141] Setting up inception_5a/relu_3x3
I0403 14:48:07.658438 11129 net.cpp:148] Top shape: 24 320 7 7 (376320)
I0403 14:48:07.658454 11129 net.cpp:156] Memory required for data: 1299050016
I0403 14:48:07.658470 11129 layer_factory.hpp:77] Creating layer inception_5a/5x5_reduce
I0403 14:48:07.658493 11129 net.cpp:91] Creating Layer inception_5a/5x5_reduce
I0403 14:48:07.658512 11129 net.cpp:425] inception_5a/5x5_reduce <- pool4/3x3_s2_pool4/3x3_s2_0_split_2
I0403 14:48:07.658534 11129 net.cpp:399] inception_5a/5x5_reduce -> inception_5a/5x5_reduce
I0403 14:48:07.659705 11129 net.cpp:141] Setting up inception_5a/5x5_reduce
I0403 14:48:07.659737 11129 net.cpp:148] Top shape: 24 32 7 7 (37632)
I0403 14:48:07.659754 11129 net.cpp:156] Memory required for data: 1299200544
I0403 14:48:07.659772 11129 layer_factory.hpp:77] Creating layer inception_5a/relu_5x5_reduce
I0403 14:48:07.659791 11129 net.cpp:91] Creating Layer inception_5a/relu_5x5_reduce
I0403 14:48:07.659808 11129 net.cpp:425] inception_5a/relu_5x5_reduce <- inception_5a/5x5_reduce
I0403 14:48:07.659829 11129 net.cpp:386] inception_5a/relu_5x5_reduce -> inception_5a/5x5_reduce (in-place)
I0403 14:48:07.660132 11129 net.cpp:141] Setting up inception_5a/relu_5x5_reduce
I0403 14:48:07.660159 11129 net.cpp:148] Top shape: 24 32 7 7 (37632)
I0403 14:48:07.660186 11129 net.cpp:156] Memory required for data: 1299351072
I0403 14:48:07.660202 11129 layer_factory.hpp:77] Creating layer inception_5a/5x5
I0403 14:48:07.660224 11129 net.cpp:91] Creating Layer inception_5a/5x5
I0403 14:48:07.660243 11129 net.cpp:425] inception_5a/5x5 <- inception_5a/5x5_reduce
I0403 14:48:07.660265 11129 net.cpp:399] inception_5a/5x5 -> inception_5a/5x5
I0403 14:48:07.662034 11129 net.cpp:141] Setting up inception_5a/5x5
I0403 14:48:07.662076 11129 net.cpp:148] Top shape: 24 128 7 7 (150528)
I0403 14:48:07.662094 11129 net.cpp:156] Memory required for data: 1299953184
I0403 14:48:07.662112 11129 layer_factory.hpp:77] Creating layer inception_5a/relu_5x5
I0403 14:48:07.662144 11129 net.cpp:91] Creating Layer inception_5a/relu_5x5
I0403 14:48:07.662165 11129 net.cpp:425] inception_5a/relu_5x5 <- inception_5a/5x5
I0403 14:48:07.662186 11129 net.cpp:386] inception_5a/relu_5x5 -> inception_5a/5x5 (in-place)
I0403 14:48:07.662375 11129 net.cpp:141] Setting up inception_5a/relu_5x5
I0403 14:48:07.662402 11129 net.cpp:148] Top shape: 24 128 7 7 (150528)
I0403 14:48:07.662417 11129 net.cpp:156] Memory required for data: 1300555296
I0403 14:48:07.662432 11129 layer_factory.hpp:77] Creating layer inception_5a/pool
I0403 14:48:07.662449 11129 net.cpp:91] Creating Layer inception_5a/pool
I0403 14:48:07.662467 11129 net.cpp:425] inception_5a/pool <- pool4/3x3_s2_pool4/3x3_s2_0_split_3
I0403 14:48:07.662487 11129 net.cpp:399] inception_5a/pool -> inception_5a/pool
I0403 14:48:07.662559 11129 net.cpp:141] Setting up inception_5a/pool
I0403 14:48:07.662583 11129 net.cpp:148] Top shape: 24 832 7 7 (978432)
I0403 14:48:07.662598 11129 net.cpp:156] Memory required for data: 1304469024
I0403 14:48:07.662612 11129 layer_factory.hpp:77] Creating layer inception_5a/pool_proj
I0403 14:48:07.662639 11129 net.cpp:91] Creating Layer inception_5a/pool_proj
I0403 14:48:07.662657 11129 net.cpp:425] inception_5a/pool_proj <- inception_5a/pool
I0403 14:48:07.662677 11129 net.cpp:399] inception_5a/pool_proj -> inception_5a/pool_proj
I0403 14:48:07.664963 11129 net.cpp:141] Setting up inception_5a/pool_proj
I0403 14:48:07.664993 11129 net.cpp:148] Top shape: 24 128 7 7 (150528)
I0403 14:48:07.665009 11129 net.cpp:156] Memory required for data: 1305071136
I0403 14:48:07.665027 11129 layer_factory.hpp:77] Creating layer inception_5a/relu_pool_proj
I0403 14:48:07.665048 11129 net.cpp:91] Creating Layer inception_5a/relu_pool_proj
I0403 14:48:07.665066 11129 net.cpp:425] inception_5a/relu_pool_proj <- inception_5a/pool_proj
I0403 14:48:07.665082 11129 net.cpp:386] inception_5a/relu_pool_proj -> inception_5a/pool_proj (in-place)
I0403 14:48:07.665383 11129 net.cpp:141] Setting up inception_5a/relu_pool_proj
I0403 14:48:07.665410 11129 net.cpp:148] Top shape: 24 128 7 7 (150528)
I0403 14:48:07.665426 11129 net.cpp:156] Memory required for data: 1305673248
I0403 14:48:07.665441 11129 layer_factory.hpp:77] Creating layer inception_5a/output
I0403 14:48:07.665460 11129 net.cpp:91] Creating Layer inception_5a/output
I0403 14:48:07.665477 11129 net.cpp:425] inception_5a/output <- inception_5a/1x1
I0403 14:48:07.665493 11129 net.cpp:425] inception_5a/output <- inception_5a/3x3
I0403 14:48:07.665508 11129 net.cpp:425] inception_5a/output <- inception_5a/5x5
I0403 14:48:07.665524 11129 net.cpp:425] inception_5a/output <- inception_5a/pool_proj
I0403 14:48:07.665540 11129 net.cpp:399] inception_5a/output -> inception_5a/output
I0403 14:48:07.665592 11129 net.cpp:141] Setting up inception_5a/output
I0403 14:48:07.665618 11129 net.cpp:148] Top shape: 24 832 7 7 (978432)
I0403 14:48:07.665632 11129 net.cpp:156] Memory required for data: 1309586976
I0403 14:48:07.665648 11129 layer_factory.hpp:77] Creating layer inception_5a/output_inception_5a/output_0_split
I0403 14:48:07.665665 11129 net.cpp:91] Creating Layer inception_5a/output_inception_5a/output_0_split
I0403 14:48:07.665681 11129 net.cpp:425] inception_5a/output_inception_5a/output_0_split <- inception_5a/output
I0403 14:48:07.665700 11129 net.cpp:399] inception_5a/output_inception_5a/output_0_split -> inception_5a/output_inception_5a/output_0_split_0
I0403 14:48:07.665721 11129 net.cpp:399] inception_5a/output_inception_5a/output_0_split -> inception_5a/output_inception_5a/output_0_split_1
I0403 14:48:07.665742 11129 net.cpp:399] inception_5a/output_inception_5a/output_0_split -> inception_5a/output_inception_5a/output_0_split_2
I0403 14:48:07.665765 11129 net.cpp:399] inception_5a/output_inception_5a/output_0_split -> inception_5a/output_inception_5a/output_0_split_3
I0403 14:48:07.665877 11129 net.cpp:141] Setting up inception_5a/output_inception_5a/output_0_split
I0403 14:48:07.665904 11129 net.cpp:148] Top shape: 24 832 7 7 (978432)
I0403 14:48:07.665920 11129 net.cpp:148] Top shape: 24 832 7 7 (978432)
I0403 14:48:07.665935 11129 net.cpp:148] Top shape: 24 832 7 7 (978432)
I0403 14:48:07.665951 11129 net.cpp:148] Top shape: 24 832 7 7 (978432)
I0403 14:48:07.665966 11129 net.cpp:156] Memory required for data: 1325241888
I0403 14:48:07.665980 11129 layer_factory.hpp:77] Creating layer inception_5b/1x1
I0403 14:48:07.666003 11129 net.cpp:91] Creating Layer inception_5b/1x1
I0403 14:48:07.666023 11129 net.cpp:425] inception_5b/1x1 <- inception_5a/output_inception_5a/output_0_split_0
I0403 14:48:07.666043 11129 net.cpp:399] inception_5b/1x1 -> inception_5b/1x1
I0403 14:48:07.669850 11129 net.cpp:141] Setting up inception_5b/1x1
I0403 14:48:07.669881 11129 net.cpp:148] Top shape: 24 384 7 7 (451584)
I0403 14:48:07.669898 11129 net.cpp:156] Memory required for data: 1327048224
I0403 14:48:07.669915 11129 layer_factory.hpp:77] Creating layer inception_5b/relu_1x1
I0403 14:48:07.669936 11129 net.cpp:91] Creating Layer inception_5b/relu_1x1
I0403 14:48:07.669955 11129 net.cpp:425] inception_5b/relu_1x1 <- inception_5b/1x1
I0403 14:48:07.669972 11129 net.cpp:386] inception_5b/relu_1x1 -> inception_5b/1x1 (in-place)
I0403 14:48:07.670284 11129 net.cpp:141] Setting up inception_5b/relu_1x1
I0403 14:48:07.670310 11129 net.cpp:148] Top shape: 24 384 7 7 (451584)
I0403 14:48:07.670325 11129 net.cpp:156] Memory required for data: 1328854560
I0403 14:48:07.670341 11129 layer_factory.hpp:77] Creating layer inception_5b/3x3_reduce
I0403 14:48:07.670363 11129 net.cpp:91] Creating Layer inception_5b/3x3_reduce
I0403 14:48:07.670382 11129 net.cpp:425] inception_5b/3x3_reduce <- inception_5a/output_inception_5a/output_0_split_1
I0403 14:48:07.670404 11129 net.cpp:399] inception_5b/3x3_reduce -> inception_5b/3x3_reduce
I0403 14:48:07.673087 11129 net.cpp:141] Setting up inception_5b/3x3_reduce
I0403 14:48:07.673118 11129 net.cpp:148] Top shape: 24 192 7 7 (225792)
I0403 14:48:07.673141 11129 net.cpp:156] Memory required for data: 1329757728
I0403 14:48:07.673161 11129 layer_factory.hpp:77] Creating layer inception_5b/relu_3x3_reduce
I0403 14:48:07.673182 11129 net.cpp:91] Creating Layer inception_5b/relu_3x3_reduce
I0403 14:48:07.673200 11129 net.cpp:425] inception_5b/relu_3x3_reduce <- inception_5b/3x3_reduce
I0403 14:48:07.673219 11129 net.cpp:386] inception_5b/relu_3x3_reduce -> inception_5b/3x3_reduce (in-place)
I0403 14:48:07.673413 11129 net.cpp:141] Setting up inception_5b/relu_3x3_reduce
I0403 14:48:07.673440 11129 net.cpp:148] Top shape: 24 192 7 7 (225792)
I0403 14:48:07.673456 11129 net.cpp:156] Memory required for data: 1330660896
I0403 14:48:07.673471 11129 layer_factory.hpp:77] Creating layer inception_5b/3x3
I0403 14:48:07.673493 11129 net.cpp:91] Creating Layer inception_5b/3x3
I0403 14:48:07.673511 11129 net.cpp:425] inception_5b/3x3 <- inception_5b/3x3_reduce
I0403 14:48:07.673530 11129 net.cpp:399] inception_5b/3x3 -> inception_5b/3x3
I0403 14:48:07.680351 11129 net.cpp:141] Setting up inception_5b/3x3
I0403 14:48:07.680382 11129 net.cpp:148] Top shape: 24 384 7 7 (451584)
I0403 14:48:07.680397 11129 net.cpp:156] Memory required for data: 1332467232
I0403 14:48:07.680416 11129 layer_factory.hpp:77] Creating layer inception_5b/relu_3x3
I0403 14:48:07.680436 11129 net.cpp:91] Creating Layer inception_5b/relu_3x3
I0403 14:48:07.680454 11129 net.cpp:425] inception_5b/relu_3x3 <- inception_5b/3x3
I0403 14:48:07.680470 11129 net.cpp:386] inception_5b/relu_3x3 -> inception_5b/3x3 (in-place)
I0403 14:48:07.680768 11129 net.cpp:141] Setting up inception_5b/relu_3x3
I0403 14:48:07.680796 11129 net.cpp:148] Top shape: 24 384 7 7 (451584)
I0403 14:48:07.680814 11129 net.cpp:156] Memory required for data: 1334273568
I0403 14:48:07.680830 11129 layer_factory.hpp:77] Creating layer inception_5b/5x5_reduce
I0403 14:48:07.680869 11129 net.cpp:91] Creating Layer inception_5b/5x5_reduce
I0403 14:48:07.680888 11129 net.cpp:425] inception_5b/5x5_reduce <- inception_5a/output_inception_5a/output_0_split_2
I0403 14:48:07.680910 11129 net.cpp:399] inception_5b/5x5_reduce -> inception_5b/5x5_reduce
I0403 14:48:07.682201 11129 net.cpp:141] Setting up inception_5b/5x5_reduce
I0403 14:48:07.682230 11129 net.cpp:148] Top shape: 24 48 7 7 (56448)
I0403 14:48:07.682247 11129 net.cpp:156] Memory required for data: 1334499360
I0403 14:48:07.682266 11129 layer_factory.hpp:77] Creating layer inception_5b/relu_5x5_reduce
I0403 14:48:07.682287 11129 net.cpp:91] Creating Layer inception_5b/relu_5x5_reduce
I0403 14:48:07.682306 11129 net.cpp:425] inception_5b/relu_5x5_reduce <- inception_5b/5x5_reduce
I0403 14:48:07.682323 11129 net.cpp:386] inception_5b/relu_5x5_reduce -> inception_5b/5x5_reduce (in-place)
I0403 14:48:07.682694 11129 net.cpp:141] Setting up inception_5b/relu_5x5_reduce
I0403 14:48:07.682721 11129 net.cpp:148] Top shape: 24 48 7 7 (56448)
I0403 14:48:07.682737 11129 net.cpp:156] Memory required for data: 1334725152
I0403 14:48:07.682752 11129 layer_factory.hpp:77] Creating layer inception_5b/5x5
I0403 14:48:07.682773 11129 net.cpp:91] Creating Layer inception_5b/5x5
I0403 14:48:07.682791 11129 net.cpp:425] inception_5b/5x5 <- inception_5b/5x5_reduce
I0403 14:48:07.682811 11129 net.cpp:399] inception_5b/5x5 -> inception_5b/5x5
I0403 14:48:07.684924 11129 net.cpp:141] Setting up inception_5b/5x5
I0403 14:48:07.684955 11129 net.cpp:148] Top shape: 24 128 7 7 (150528)
I0403 14:48:07.684973 11129 net.cpp:156] Memory required for data: 1335327264
I0403 14:48:07.684990 11129 layer_factory.hpp:77] Creating layer inception_5b/relu_5x5
I0403 14:48:07.685009 11129 net.cpp:91] Creating Layer inception_5b/relu_5x5
I0403 14:48:07.685024 11129 net.cpp:425] inception_5b/relu_5x5 <- inception_5b/5x5
I0403 14:48:07.685041 11129 net.cpp:386] inception_5b/relu_5x5 -> inception_5b/5x5 (in-place)
I0403 14:48:07.685245 11129 net.cpp:141] Setting up inception_5b/relu_5x5
I0403 14:48:07.685271 11129 net.cpp:148] Top shape: 24 128 7 7 (150528)
I0403 14:48:07.685286 11129 net.cpp:156] Memory required for data: 1335929376
I0403 14:48:07.685302 11129 layer_factory.hpp:77] Creating layer inception_5b/pool
I0403 14:48:07.685320 11129 net.cpp:91] Creating Layer inception_5b/pool
I0403 14:48:07.685338 11129 net.cpp:425] inception_5b/pool <- inception_5a/output_inception_5a/output_0_split_3
I0403 14:48:07.685359 11129 net.cpp:399] inception_5b/pool -> inception_5b/pool
I0403 14:48:07.685433 11129 net.cpp:141] Setting up inception_5b/pool
I0403 14:48:07.685461 11129 net.cpp:148] Top shape: 24 832 7 7 (978432)
I0403 14:48:07.685477 11129 net.cpp:156] Memory required for data: 1339843104
I0403 14:48:07.685492 11129 layer_factory.hpp:77] Creating layer inception_5b/pool_proj
I0403 14:48:07.685515 11129 net.cpp:91] Creating Layer inception_5b/pool_proj
I0403 14:48:07.685534 11129 net.cpp:425] inception_5b/pool_proj <- inception_5b/pool
I0403 14:48:07.685554 11129 net.cpp:399] inception_5b/pool_proj -> inception_5b/pool_proj
I0403 14:48:07.689281 11129 net.cpp:141] Setting up inception_5b/pool_proj
I0403 14:48:07.689313 11129 net.cpp:148] Top shape: 24 128 7 7 (150528)
I0403 14:48:07.689329 11129 net.cpp:156] Memory required for data: 1340445216
I0403 14:48:07.689348 11129 layer_factory.hpp:77] Creating layer inception_5b/relu_pool_proj
I0403 14:48:07.689369 11129 net.cpp:91] Creating Layer inception_5b/relu_pool_proj
I0403 14:48:07.689388 11129 net.cpp:425] inception_5b/relu_pool_proj <- inception_5b/pool_proj
I0403 14:48:07.689407 11129 net.cpp:386] inception_5b/relu_pool_proj -> inception_5b/pool_proj (in-place)
I0403 14:48:07.689719 11129 net.cpp:141] Setting up inception_5b/relu_pool_proj
I0403 14:48:07.689748 11129 net.cpp:148] Top shape: 24 128 7 7 (150528)
I0403 14:48:07.689764 11129 net.cpp:156] Memory required for data: 1341047328
I0403 14:48:07.689779 11129 layer_factory.hpp:77] Creating layer inception_5b/output
I0403 14:48:07.689800 11129 net.cpp:91] Creating Layer inception_5b/output
I0403 14:48:07.689832 11129 net.cpp:425] inception_5b/output <- inception_5b/1x1
I0403 14:48:07.689851 11129 net.cpp:425] inception_5b/output <- inception_5b/3x3
I0403 14:48:07.689868 11129 net.cpp:425] inception_5b/output <- inception_5b/5x5
I0403 14:48:07.689884 11129 net.cpp:425] inception_5b/output <- inception_5b/pool_proj
I0403 14:48:07.689903 11129 net.cpp:399] inception_5b/output -> inception_5b/output
I0403 14:48:07.689960 11129 net.cpp:141] Setting up inception_5b/output
I0403 14:48:07.689985 11129 net.cpp:148] Top shape: 24 1024 7 7 (1204224)
I0403 14:48:07.690001 11129 net.cpp:156] Memory required for data: 1345864224
I0403 14:48:07.690017 11129 layer_factory.hpp:77] Creating layer pool5/7x7_s1
I0403 14:48:07.690035 11129 net.cpp:91] Creating Layer pool5/7x7_s1
I0403 14:48:07.690052 11129 net.cpp:425] pool5/7x7_s1 <- inception_5b/output
I0403 14:48:07.690073 11129 net.cpp:399] pool5/7x7_s1 -> pool5/7x7_s1
I0403 14:48:07.690300 11129 net.cpp:141] Setting up pool5/7x7_s1
I0403 14:48:07.690332 11129 net.cpp:148] Top shape: 24 1024 1 1 (24576)
I0403 14:48:07.690348 11129 net.cpp:156] Memory required for data: 1345962528
I0403 14:48:07.690363 11129 layer_factory.hpp:77] Creating layer pool5/drop_7x7_s1
I0403 14:48:07.690382 11129 net.cpp:91] Creating Layer pool5/drop_7x7_s1
I0403 14:48:07.690398 11129 net.cpp:425] pool5/drop_7x7_s1 <- pool5/7x7_s1
I0403 14:48:07.690418 11129 net.cpp:386] pool5/drop_7x7_s1 -> pool5/7x7_s1 (in-place)
I0403 14:48:07.690472 11129 net.cpp:141] Setting up pool5/drop_7x7_s1
I0403 14:48:07.690496 11129 net.cpp:148] Top shape: 24 1024 1 1 (24576)
I0403 14:48:07.690512 11129 net.cpp:156] Memory required for data: 1346060832
I0403 14:48:07.690527 11129 layer_factory.hpp:77] Creating layer loss3/classifier_plantvillage
I0403 14:48:07.690549 11129 net.cpp:91] Creating Layer loss3/classifier_plantvillage
I0403 14:48:07.690567 11129 net.cpp:425] loss3/classifier_plantvillage <- pool5/7x7_s1
I0403 14:48:07.690587 11129 net.cpp:399] loss3/classifier_plantvillage -> loss3/classifier_plantvillage
I0403 14:48:07.691027 11129 net.cpp:141] Setting up loss3/classifier_plantvillage
I0403 14:48:07.691054 11129 net.cpp:148] Top shape: 24 38 (912)
I0403 14:48:07.691069 11129 net.cpp:156] Memory required for data: 1346064480
I0403 14:48:07.691087 11129 layer_factory.hpp:77] Creating layer loss3/classifier_plantvillage_loss3/classifier_plantvillage_0_split
I0403 14:48:07.691107 11129 net.cpp:91] Creating Layer loss3/classifier_plantvillage_loss3/classifier_plantvillage_0_split
I0403 14:48:07.691128 11129 net.cpp:425] loss3/classifier_plantvillage_loss3/classifier_plantvillage_0_split <- loss3/classifier_plantvillage
I0403 14:48:07.691154 11129 net.cpp:399] loss3/classifier_plantvillage_loss3/classifier_plantvillage_0_split -> loss3/classifier_plantvillage_loss3/classifier_plantvillage_0_split_0
I0403 14:48:07.691175 11129 net.cpp:399] loss3/classifier_plantvillage_loss3/classifier_plantvillage_0_split -> loss3/classifier_plantvillage_loss3/classifier_plantvillage_0_split_1
I0403 14:48:07.691196 11129 net.cpp:399] loss3/classifier_plantvillage_loss3/classifier_plantvillage_0_split -> loss3/classifier_plantvillage_loss3/classifier_plantvillage_0_split_2
I0403 14:48:07.691217 11129 net.cpp:399] loss3/classifier_plantvillage_loss3/classifier_plantvillage_0_split -> loss3/classifier_plantvillage_loss3/classifier_plantvillage_0_split_3
I0403 14:48:07.691323 11129 net.cpp:141] Setting up loss3/classifier_plantvillage_loss3/classifier_plantvillage_0_split
I0403 14:48:07.691349 11129 net.cpp:148] Top shape: 24 38 (912)
I0403 14:48:07.691365 11129 net.cpp:148] Top shape: 24 38 (912)
I0403 14:48:07.691380 11129 net.cpp:148] Top shape: 24 38 (912)
I0403 14:48:07.691396 11129 net.cpp:148] Top shape: 24 38 (912)
I0403 14:48:07.691411 11129 net.cpp:156] Memory required for data: 1346079072
I0403 14:48:07.691426 11129 layer_factory.hpp:77] Creating layer loss1/loss
I0403 14:48:07.691447 11129 net.cpp:91] Creating Layer loss1/loss
I0403 14:48:07.691465 11129 net.cpp:425] loss1/loss <- loss1/classifier_plantvillage_loss1/classifier_plantvillage_0_split_0
I0403 14:48:07.691498 11129 net.cpp:425] loss1/loss <- label_data_1_split_0
…
