…
I0403 15:06:33.754241 11752 net.cpp:313] The NetState phase (1) differed from the phase (0) specified by a rule in layer data
I0403 15:06:33.755470 11752 net.cpp:49] Initializing net from parameters: 
state {
  phase: TEST
}
layer {
  name: "data"
  type: "Data"
  top: "data"
  top: "label"
  include {
    phase: TEST
  }
  transform_param {
    mirror: false
    crop_size: 224
    mean_file: "/home/mohanty/data/final_dataset/lmdb/grayscale-60-40/mean.binaryproto"
  }
  data_param {
    source: "/home/mohanty/data/final_dataset/lmdb/grayscale-60-40/test_db"
    batch_size: 24
    backend: LMDB
  }
}
layer {
  name: "conv1/7x7_s2"
  type: "Convolution"
  bottom: "data"
  top: "conv1/7x7_s2"
  param {
    lr_mult: 1
    decay_mult: 1
  }
  param {
    lr_mult: 2
    decay_mult: 0
  }
  convolution_param {
    num_output: 64
    pad: 3
    kernel_size: 7
    stride: 2
    weight_filler {
      type: "xavier"
      std: 0.1
    }
    bias_filler {
      type: "constant"
      value: 0.2
    }
  }
}
layer {
  name: "conv1/relu_7x7"
  type: "ReLU"
  bottom: "conv1/7x7_s2"
  top: "conv1/7x7_s2"
}
layer {
  name: "pool1/3x3_s2"
  type: "Pooling"
  bottom: "conv1/7x7_s2"
  top: "pool1/3x3_s2"
  pooling_param {
    pool: MAX
    kernel_size: 3
    stride: 2
  }
}
layer {
  name: "pool1/norm1"
  type: "LRN"
  bottom: "pool1/3x3_s2"
  top: "pool1/norm1"
  lrn_param {
    local_size: 5
    alpha: 0.0001
    beta: 0.75
  }
}
layer {
  name: "conv2/3x3_reduce"
  type: "Convolution"
  bottom: "pool1/norm1"
  top: "conv2/3x3_reduce"
  param {
    lr_mult: 1
    decay_mult: 1
  }
  param {
    lr_mult: 2
    decay_mult: 0
  }
  convolution_param {
    num_output: 64
    kernel_size: 1
    weight_filler {
      type: "xavier"
      std: 0.1
    }
    bias_filler {
      type: "constant"
      value: 0.2
    }
  }
}
layer {
  name: "conv2/relu_3x3_reduce"
  type: "ReLU"
  bottom: "conv2/3x3_reduce"
  top: "conv2/3x3_reduce"
}
layer {
  name: "conv2/3x3"
  type: "Convolution"
  bottom: "conv2/3x3_reduce"
  top: "conv2/3x3"
  param {
    lr_mult: 1
    decay_mult: 1
  }
  param {
    lr_mult: 2
    decay_mult: 0
  }
  convolution_param {
    num_output: 192
    pad: 1
    kernel_size: 3
    weight_filler {
      type: "xavier"
      std: 0.03
    }
    bias_filler {
      type: "constant"
      value: 0.2
    }
  }
}
layer {
  name: "conv2/relu_3x3"
  type: "ReLU"
  bottom: "conv2/3x3"
  top: "conv2/3x3"
}
layer {
  name: "conv2/norm2"
  type: "LRN"
  bottom: "conv2/3x3"
  top: "conv2/norm2"
  lrn_param {
    local_size: 5
    alpha: 0.0001
    beta: 0.75
  }
}
layer {
  name: "pool2/3x3_s2"
  type: "Pooling"
  bottom: "conv2/norm2"
  top: "pool2/3x3_s2"
  pooling_param {
    pool: MAX
    kernel_size: 3
    stride: 2
  }
}
layer {
  name: "inception_3a/1x1"
  type: "Convolution"
  bottom: "pool2/3x3_s2"
  top: "inception_3a/1x1"
  param {
    lr_mult: 1
    decay_mult: 1
  }
  param {
    lr_mult: 2
    decay_mult: 0
  }
  convolution_param {
    num_output: 64
    kernel_size: 1
    weight_filler {
      type: "xavier"
      std: 0.03
    }
    bias_filler {
      type: "constant"
      value: 0.2
    }
  }
}
layer {
  name: "inception_3a/relu_1x1"
  type: "ReLU"
  bottom: "inception_3a/1x1"
  top: "inception_3a/1x1"
}
layer {
  name: "inception_3a/3x3_reduce"
  type: "Convolution"
  bottom: "pool2/3x3_s2"
  top: "inception_3a/3x3_reduce"
  param {
    lr_mult: 1
    decay_mult: 1
  }
  param {
    lr_mult: 2
    decay_mult: 0
  }
  convolution_param {
    num_output: 96
    kernel_size: 1
    weight_filler {
      type: "xavier"
      std: 0.09
    }
    bias_filler {
      type: "constant"
      value: 0.2
    }
  }
}
layer {
  name: "inception_3a/relu_3x3_reduce"
  type: "ReLU"
  bottom: "inception_3a/3x3_reduce"
  top: "inception_3a/3x3_reduce"
}
layer {
  name: "inception_3a/3x3"
  type: "Convolution"
  bottom: "inception_3a/3x3_reduce"
  top: "inception_3a/3x3"
  param {
    lr_mult: 1
    decay_mult: 1
  }
  param {
    lr_mult: 2
    decay_mult: 0
  }
  convolution_param {
    num_output: 128
    pad: 1
    kernel_size: 3
    weight_filler {
      type: "xavier"
      std: 0.03
    }
    bias_filler {
      type: "constant"
      value: 0.2
    }
  }
}
layer {
  name: "inception_3a/relu_3x3"
  type: "ReLU"
  bottom: "inception_3a/3x3"
  top: "inception_3a/3x3"
}
layer {
  name: "inception_3a/5x5_reduce"
  type: "Convolution"
  bottom: "pool2/3x3_s2"
  top: "inception_3a/5x5_reduce"
  param {
    lr_mult: 1
    decay_mult: 1
  }
  param {
    lr_mult: 2
    decay_mult: 0
  }
  convolution_param {
    num_output: 16
    kernel_size: 1
    weight_filler {
      type: "xavier"
      std: 0.2
    }
    bias_filler {
      type: "constant"
      value: 0.2
    }
  }
}
layer {
  name: "inception_3a/relu_5x5_reduce"
  type: "ReLU"
  bottom: "inception_3a/5x5_reduce"
  top: "inception_3a/5x5_reduce"
}
layer {
  name: "inception_3a/5x5"
  type: "Convolution"
  bottom: "inception_3a/5x5_reduce"
  top: "inception_3a/5x5"
  param {
    lr_mult: 1
    decay_mult: 1
  }
  param {
    lr_mult: 2
    decay_mult: 0
  }
  convolution_param {
    num_output: 32
    pad: 2
    kernel_size: 5
    weight_filler {
      type: "xavier"
      std: 0.03
    }
    bias_filler {
      type: "constant"
      value: 0.2
    }
  }
}
layer {
  name: "inception_3a/relu_5x5"
  type: "ReLU"
  bottom: "inception_3a/5x5"
  top: "inception_3a/5x5"
}
layer {
  name: "inception_3a/pool"
  type: "Pooling"
  bottom: "pool2/3x3_s2"
  top: "inception_3a/pool"
  pooling_param {
    pool: MAX
    kernel_size: 3
    stride: 1
    pad: 1
  }
}
layer {
  name: "inception_3a/pool_proj"
  type: "Convolution"
  bottom: "inception_3a/pool"
  top: "inception_3a/pool_proj"
  param {
    lr_mult: 1
    decay_mult: 1
  }
  param {
    lr_mult: 2
    decay_mult: 0
  }
  convolution_param {
    num_output: 32
    kernel_size: 1
    weight_filler {
      type: "xavier"
      std: 0.1
    }
    bias_filler {
      type: "constant"
      value: 0.2
    }
  }
}
layer {
  name: "inception_3a/relu_pool_proj"
  type: "ReLU"
  bottom: "inception_3a/pool_proj"
  top: "inception_3a/pool_proj"
}
layer {
  name: "inception_3a/output"
  type: "Concat"
  bottom: "inception_3a/1x1"
  bottom: "inception_3a/3x3"
  bottom: "inception_3a/5x5"
  bottom: "inception_3a/pool_proj"
  top: "inception_3a/output"
}
layer {
  name: "inception_3b/1x1"
  type: "Convolution"
  bottom: "inception_3a/output"
  top: "inception_3b/1x1"
  param {
    lr_mult: 1
    decay_mult: 1
  }
  param {
    lr_mult: 2
    decay_mult: 0
  }
  convolution_param {
    num_output: 128
    kernel_size: 1
    weight_filler {
      type: "xavier"
      std: 0.03
    }
    bias_filler {
      type: "constant"
      value: 0.2
    }
  }
}
layer {
  name: "inception_3b/relu_1x1"
  type: "ReLU"
  bottom: "inception_3b/1x1"
  top: "inception_3b/1x1"
}
layer {
  name: "inception_3b/3x3_reduce"
  type: "Convolution"
  bottom: "inception_3a/output"
  top: "inception_3b/3x3_reduce"
  param {
    lr_mult: 1
    decay_mult: 1
  }
  param {
    lr_mult: 2
    decay_mult: 0
  }
  convolution_param {
    num_output: 128
    kernel_size: 1
    weight_filler {
      type: "xavier"
      std: 0.09
    }
    bias_filler {
      type: "constant"
      value: 0.2
    }
  }
}
layer {
  name: "inception_3b/relu_3x3_reduce"
  type: "ReLU"
  bottom: "inception_3b/3x3_reduce"
  top: "inception_3b/3x3_reduce"
}
layer {
  name: "inception_3b/3x3"
  type: "Convolution"
  bottom: "inception_3b/3x3_reduce"
  top: "inception_3b/3x3"
  param {
    lr_mult: 1
    decay_mult: 1
  }
  param {
    lr_mult: 2
    decay_mult: 0
  }
  convolution_param {
    num_output: 192
    pad: 1
    kernel_size: 3
    weight_filler {
      type: "xavier"
      std: 0.03
    }
    bias_filler {
      type: "constant"
      value: 0.2
    }
  }
}
layer {
  name: "inception_3b/relu_3x3"
  type: "ReLU"
  bottom: "inception_3b/3x3"
  top: "inception_3b/3x3"
}
layer {
  name: "inception_3b/5x5_reduce"
  type: "Convolution"
  bottom: "inception_3a/output"
  top: "inception_3b/5x5_reduce"
  param {
    lr_mult: 1
    decay_mult: 1
  }
  param {
    lr_mult: 2
    decay_mult: 0
  }
  convolution_param {
    num_output: 32
    kernel_size: 1
    weight_filler {
      type: "xavier"
      std: 0.2
    }
    bias_filler {
      type: "constant"
      value: 0.2
    }
  }
}
layer {
  name: "inception_3b/relu_5x5_reduce"
  type: "ReLU"
  bottom: "inception_3b/5x5_reduce"
  top: "inception_3b/5x5_reduce"
}
layer {
  name: "inception_3b/5x5"
  type: "Convolution"
  bottom: "inception_3b/5x5_reduce"
  top: "inception_3b/5x5"
  param {
    lr_mult: 1
    decay_mult: 1
  }
  param {
    lr_mult: 2
    decay_mult: 0
  }
  convolution_param {
    num_output: 96
    pad: 2
    kernel_size: 5
    weight_filler {
      type: "xavier"
      std: 0.03
    }
    bias_filler {
      type: "constant"
      value: 0.2
    }
  }
}
layer {
  name: "inception_3b/relu_5x5"
  type: "ReLU"
  bottom: "inception_3b/5x5"
  top: "inception_3b/5x5"
}
layer {
  name: "inception_3b/pool"
  type: "Pooling"
  bottom: "inception_3a/output"
  top: "inception_3b/pool"
  pooling_param {
    pool: MAX
    kernel_size: 3
    stride: 1
    pad: 1
  }
}
layer {
  name: "inception_3b/pool_proj"
  type: "Convolution"
  bottom: "inception_3b/pool"
  top: "inception_3b/pool_proj"
  param {
    lr_mult: 1
    decay_mult: 1
  }
  param {
    lr_mult: 2
    decay_mult: 0
  }
  convolution_param {
    num_output: 64
    kernel_size: 1
    weight_filler {
      type: "xavier"
      std: 0.1
    }
    bias_filler {
      type: "constant"
      value: 0.2
    }
  }
}
layer {
  name: "inception_3b/relu_pool_proj"
  type: "ReLU"
  bottom: "inception_3b/pool_proj"
  top: "inception_3b/pool_proj"
}
layer {
  name: "inception_3b/output"
  type: "Concat"
  bottom: "inception_3b/1x1"
  bottom: "inception_3b/3x3"
  bottom: "inception_3b/5x5"
  bottom: "inception_3b/pool_proj"
  top: "inception_3b/output"
}
layer {
  name: "pool3/3x3_s2"
  type: "Pooling"
  bottom: "inception_3b/output"
  top: "pool3/3x3_s2"
  pooling_param {
    pool: MAX
    kernel_size: 3
    stride: 2
  }
}
layer {
  name: "inception_4a/1x1"
  type: "Convolution"
  bottom: "pool3/3x3_s2"
  top: "inception_4a/1x1"
  param {
    lr_mult: 1
    decay_mult: 1
  }
  param {
    lr_mult: 2
    decay_mult: 0
  }
  convolution_param {
    num_output: 192
    kernel_size: 1
    weight_filler {
      type: "xavier"
      std: 0.03
    }
    bias_filler {
      type: "constant"
      value: 0.2
    }
  }
}
layer {
  name: "inception_4a/relu_1x1"
  type: "ReLU"
  bottom: "inception_4a/1x1"
  top: "inception_4a/1x1"
}
layer {
  name: "inception_4a/3x3_reduce"
  type: "Convolution"
  bottom: "pool3/3x3_s2"
  top: "inception_4a/3x3_reduce"
  param {
    lr_mult: 1
    decay_mult: 1
  }
  param {
    lr_mult: 2
    decay_mult: 0
  }
  convolution_param {
    num_output: 96
    kernel_size: 1
    weight_filler {
      type: "xavier"
      std: 0.09
    }
    bias_filler {
      type: "constant"
      value: 0.2
    }
  }
}
layer {
  name: "inception_4a/relu_3x3_reduce"
  type: "ReLU"
  bottom: "inception_4a/3x3_reduce"
  top: "inception_4a/3x3_reduce"
}
layer {
  name: "inception_4a/3x3"
  type: "Convolution"
  bottom: "inception_4a/3x3_reduce"
  top: "inception_4a/3x3"
  param {
    lr_mult: 1
    decay_mult: 1
  }
  param {
    lr_mult: 2
    decay_mult: 0
  }
  convolution_param {
    num_output: 208
    pad: 1
    kernel_size: 3
    weight_filler {
      type: "xavier"
      std: 0.03
    }
    bias_filler {
      type: "constant"
      value: 0.2
    }
  }
}
layer {
  name: "inception_4a/relu_3x3"
  type: "ReLU"
  bottom: "inception_4a/3x3"
  top: "inception_4a/3x3"
}
layer {
  name: "inception_4a/5x5_reduce"
  type: "Convolution"
  bottom: "pool3/3x3_s2"
  top: "inception_4a/5x5_reduce"
  param {
    lr_mult: 1
    decay_mult: 1
  }
  param {
    lr_mult: 2
    decay_mult: 0
  }
  convolution_param {
    num_output: 16
    kernel_size: 1
    weight_filler {
      type: "xavier"
      std: 0.2
    }
    bias_filler {
      type: "constant"
      value: 0.2
    }
  }
}
layer {
  name: "inception_4a/relu_5x5_reduce"
  type: "ReLU"
  bottom: "inception_4a/5x5_reduce"
  top: "inception_4a/5x5_reduce"
}
layer {
  name: "inception_4a/5x5"
  type: "Convolution"
  bottom: "inception_4a/5x5_reduce"
  top: "inception_4a/5x5"
  param {
    lr_mult: 1
    decay_mult: 1
  }
  param {
    lr_mult: 2
    decay_mult: 0
  }
  convolution_param {
    num_output: 48
    pad: 2
    kernel_size: 5
    weight_filler {
      type: "xavier"
      std: 0.03
    }
    bias_filler {
      type: "constant"
      value: 0.2
    }
  }
}
layer {
  name: "inception_4a/relu_5x5"
  type: "ReLU"
  bottom: "inception_4a/5x5"
  top: "inception_4a/5x5"
}
layer {
  name: "inception_4a/pool"
  type: "Pooling"
  bottom: "pool3/3x3_s2"
  top: "inception_4a/pool"
  pooling_param {
    pool: MAX
    kernel_size: 3
    stride: 1
    pad: 1
  }
}
layer {
  name: "inception_4a/pool_proj"
  type: "Convolution"
  bottom: "inception_4a/pool"
  top: "inception_4a/pool_proj"
  param {
    lr_mult: 1
    decay_mult: 1
  }
  param {
    lr_mult: 2
    decay_mult: 0
  }
  convolution_param {
    num_output: 64
    kernel_size: 1
    weight_filler {
      type: "xavier"
      std: 0.1
    }
    bias_filler {
      type: "constant"
      value: 0.2
    }
  }
}
layer {
  name: "inception_4a/relu_pool_proj"
  type: "ReLU"
  bottom: "inception_4a/pool_proj"
  top: "inception_4a/pool_proj"
}
layer {
  name: "inception_4a/output"
  type: "Concat"
  bottom: "inception_4a/1x1"
  bottom: "inception_4a/3x3"
  bottom: "inception_4a/5x5"
  bottom: "inception_4a/pool_proj"
  top: "inception_4a/output"
}
layer {
  name: "loss1/ave_pool"
  type: "Pooling"
  bottom: "inception_4a/output"
  top: "loss1/ave_pool"
  pooling_param {
    pool: AVE
    kernel_size: 5
    stride: 3
  }
}
layer {
  name: "loss1/conv"
  type: "Convolution"
  bottom: "loss1/ave_pool"
  top: "loss1/conv"
  param {
    lr_mult: 1
    decay_mult: 1
  }
  param {
    lr_mult: 2
    decay_mult: 0
  }
  convolution_param {
    num_output: 128
    kernel_size: 1
    weight_filler {
      type: "xavier"
      std: 0.08
    }
    bias_filler {
      type: "constant"
      value: 0.2
    }
  }
}
layer {
  name: "loss1/relu_conv"
  type: "ReLU"
  bottom: "loss1/conv"
  top: "loss1/conv"
}
layer {
  name: "loss1/fc"
  type: "InnerProduct"
  bottom: "loss1/conv"
  top: "loss1/fc"
  param {
    lr_mult: 1
    decay_mult: 1
  }
  param {
    lr_mult: 2
    decay_mult: 0
  }
  inner_product_param {
    num_output: 1024
    weight_filler {
      type: "xavier"
      std: 0.02
    }
    bias_filler {
      type: "constant"
      value: 0.2
    }
  }
}
layer {
  name: "loss1/relu_fc"
  type: "ReLU"
  bottom: "loss1/fc"
  top: "loss1/fc"
}
layer {
  name: "loss1/drop_fc"
  type: "Dropout"
  bottom: "loss1/fc"
  top: "loss1/fc"
  dropout_param {
    dropout_ratio: 0.7
  }
}
layer {
  name: "loss1/classifier_plantvillage"
  type: "InnerProduct"
  bottom: "loss1/fc"
  top: "loss1/classifier_plantvillage"
  param {
    lr_mult: 1
    decay_mult: 1
  }
  param {
    lr_mult: 2
    decay_mult: 0
  }
  inner_product_param {
    num_output: 38
    weight_filler {
      type: "xavier"
      std: 0.0009765625
    }
    bias_filler {
      type: "constant"
      value: 0
    }
  }
}
layer {
  name: "inception_4b/1x1"
  type: "Convolution"
  bottom: "inception_4a/output"
  top: "inception_4b/1x1"
  param {
    lr_mult: 1
    decay_mult: 1
  }
  param {
    lr_mult: 2
    decay_mult: 0
  }
  convolution_param {
    num_output: 160
    kernel_size: 1
    weight_filler {
      type: "xavier"
      std: 0.03
    }
    bias_filler {
      type: "constant"
      value: 0.2
    }
  }
}
layer {
  name: "inception_4b/relu_1x1"
  type: "ReLU"
  bottom: "inception_4b/1x1"
  top: "inception_4b/1x1"
}
layer {
  name: "inception_4b/3x3_reduce"
  type: "Convolution"
  bottom: "inception_4a/output"
  top: "inception_4b/3x3_reduce"
  param {
    lr_mult: 1
    decay_mult: 1
  }
  param {
    lr_mult: 2
    decay_mult: 0
  }
  convolution_param {
    num_output: 112
    kernel_size: 1
    weight_filler {
      type: "xavier"
      std: 0.09
    }
    bias_filler {
      type: "constant"
      value: 0.2
    }
  }
}
layer {
  name: "inception_4b/relu_3x3_reduce"
  type: "ReLU"
  bottom: "inception_4b/3x3_reduce"
  top: "inception_4b/3x3_reduce"
}
layer {
  name: "inception_4b/3x3"
  type: "Convolution"
  bottom: "inception_4b/3x3_reduce"
  top: "inception_4b/3x3"
  param {
    lr_mult: 1
    decay_mult: 1
  }
  param {
    lr_mult: 2
    decay_mult: 0
  }
  convolution_param {
    num_output: 224
    pad: 1
    kernel_size: 3
    weight_filler {
      type: "xavier"
      std: 0.03
    }
    bias_filler {
      type: "constant"
      value: 0.2
    }
  }
}
layer {
  name: "inception_4b/relu_3x3"
  type: "ReLU"
  bottom: "inception_4b/3x3"
  top: "inception_4b/3x3"
}
layer {
  name: "inception_4b/5x5_reduce"
  type: "Convolution"
  bottom: "inception_4a/output"
  top: "inception_4b/5x5_reduce"
  param {
    lr_mult: 1
    decay_mult: 1
  }
  param {
    lr_mult: 2
    decay_mult: 0
  }
  convolution_param {
    num_output: 24
    kernel_size: 1
    weight_filler {
      type: "xavier"
      std: 0.2
    }
    bias_filler {
      type: "constant"
      value: 0.2
    }
  }
}
layer {
  name: "inception_4b/relu_5x5_reduce"
  type: "ReLU"
  bottom: "inception_4b/5x5_reduce"
  top: "inception_4b/5x5_reduce"
}
layer {
  name: "inception_4b/5x5"
  type: "Convolution"
  bottom: "inception_4b/5x5_reduce"
  top: "inception_4b/5x5"
  param {
    lr_mult: 1
    decay_mult: 1
  }
  param {
    lr_mult: 2
    decay_mult: 0
  }
  convolution_param {
    num_output: 64
    pad: 2
    kernel_size: 5
    weight_filler {
      type: "xavier"
      std: 0.03
    }
    bias_filler {
      type: "constant"
      value: 0.2
    }
  }
}
layer {
  name: "inception_4b/relu_5x5"
  type: "ReLU"
  bottom: "inception_4b/5x5"
  top: "inception_4b/5x5"
}
layer {
  name: "inception_4b/pool"
  type: "Pooling"
  bottom: "inception_4a/output"
  top: "inception_4b/pool"
  pooling_param {
    pool: MAX
    kernel_size: 3
    stride: 1
    pad: 1
  }
}
layer {
  name: "inception_4b/pool_proj"
  type: "Convolution"
  bottom: "inception_4b/pool"
  top: "inception_4b/pool_proj"
  param {
    lr_mult: 1
    decay_mult: 1
  }
  param {
    lr_mult: 2
    decay_mult: 0
  }
  convolution_param {
    num_output: 64
    kernel_size: 1
    weight_filler {
      type: "xavier"
      std: 0.1
    }
    bias_filler {
      type: "constant"
      value: 0.2
    }
  }
}
layer {
  name: "inception_4b/relu_pool_proj"
  type: "ReLU"
  bottom: "inception_4b/pool_proj"
  top: "inception_4b/pool_proj"
}
layer {
  name: "inception_4b/output"
  type: "Concat"
  bottom: "inception_4b/1x1"
  bottom: "inception_4b/3x3"
  bottom: "inception_4b/5x5"
  bottom: "inception_4b/pool_proj"
  top: "inception_4b/output"
}
layer {
  name: "inception_4c/1x1"
  type: "Convolution"
  bottom: "inception_4b/output"
  top: "inception_4c/1x1"
  param {
    lr_mult: 1
    decay_mult: 1
  }
  param {
    lr_mult: 2
    decay_mult: 0
  }
  convolution_param {
    num_output: 128
    kernel_size: 1
    weight_filler {
      type: "xavier"
      std: 0.03
    }
    bias_filler {
      type: "constant"
      value: 0.2
    }
  }
}
layer {
  name: "inception_4c/relu_1x1"
  type: "ReLU"
  bottom: "inception_4c/1x1"
  top: "inception_4c/1x1"
}
layer {
  name: "inception_4c/3x3_reduce"
  type: "Convolution"
  bottom: "inception_4b/output"
  top: "inception_4c/3x3_reduce"
  param {
    lr_mult: 1
    decay_mult: 1
  }
  param {
    lr_mult: 2
    decay_mult: 0
  }
  convolution_param {
    num_output: 128
    kernel_size: 1
    weight_filler {
      type: "xavier"
      std: 0.09
    }
    bias_filler {
      type: "constant"
      value: 0.2
    }
  }
}
layer {
  name: "inception_4c/relu_3x3_reduce"
  type: "ReLU"
  bottom: "inception_4c/3x3_reduce"
  top: "inception_4c/3x3_reduce"
}
layer {
  name: "inception_4c/3x3"
  type: "Convolution"
  bottom: "inception_4c/3x3_reduce"
  top: "inception_4c/3x3"
  param {
    lr_mult: 1
    decay_mult: 1
  }
  param {
    lr_mult: 2
    decay_mult: 0
  }
  convolution_param {
    num_output: 256
    pad: 1
    kernel_size: 3
    weight_filler {
      type: "xavier"
      std: 0.03
    }
    bias_filler {
      type: "constant"
      value: 0.2
    }
  }
}
layer {
  name: "inception_4c/relu_3x3"
  type: "ReLU"
  bottom: "inception_4c/3x3"
  top: "inception_4c/3x3"
}
layer {
  name: "inception_4c/5x5_reduce"
  type: "Convolution"
  bottom: "inception_4b/output"
  top: "inception_4c/5x5_reduce"
  param {
    lr_mult: 1
    decay_mult: 1
  }
  param {
    lr_mult: 2
    decay_mult: 0
  }
  convolution_param {
    num_output: 24
    kernel_size: 1
    weight_filler {
      type: "xavier"
      std: 0.2
    }
    bias_filler {
      type: "constant"
      value: 0.2
    }
  }
}
layer {
  name: "inception_4c/relu_5x5_reduce"
  type: "ReLU"
  bottom: "inception_4c/5x5_reduce"
  top: "inception_4c/5x5_reduce"
}
layer {
  name: "inception_4c/5x5"
  type: "Convolution"
  bottom: "inception_4c/5x5_reduce"
  top: "inception_4c/5x5"
  param {
    lr_mult: 1
    decay_mult: 1
  }
  param {
    lr_mult: 2
    decay_mult: 0
  }
  convolution_param {
    num_output: 64
    pad: 2
    kernel_size: 5
    weight_filler {
      type: "xavier"
      std: 0.03
    }
    bias_filler {
      type: "constant"
      value: 0.2
    }
  }
}
layer {
  name: "inception_4c/relu_5x5"
  type: "ReLU"
  bottom: "inception_4c/5x5"
  top: "inception_4c/5x5"
}
layer {
  name: "inception_4c/pool"
  type: "Pooling"
  bottom: "inception_4b/output"
  top: "inception_4c/pool"
  pooling_param {
    pool: MAX
    kernel_size: 3
    stride: 1
    pad: 1
  }
}
layer {
  name: "inception_4c/pool_proj"
  type: "Convolution"
  bottom: "inception_4c/pool"
  top: "inception_4c/pool_proj"
  param {
    lr_mult: 1
    decay_mult: 1
  }
  param {
    lr_mult: 2
    decay_mult: 0
  }
  convolution_param {
    num_output: 64
    kernel_size: 1
    weight_filler {
      type: "xavier"
      std: 0.1
    }
    bias_filler {
      type: "constant"
      value: 0.2
    }
  }
}
layer {
  name: "inception_4c/relu_pool_proj"
  type: "ReLU"
  bottom: "inception_4c/pool_proj"
  top: "inception_4c/pool_proj"
}
layer {
  name: "inception_4c/output"
  type: "Concat"
  bottom: "inception_4c/1x1"
  bottom: "inception_4c/3x3"
  bottom: "inception_4c/5x5"
  bottom: "inception_4c/pool_proj"
  top: "inception_4c/output"
}
layer {
  name: "inception_4d/1x1"
  type: "Convolution"
  bottom: "inception_4c/output"
  top: "inception_4d/1x1"
  param {
    lr_mult: 1
    decay_mult: 1
  }
  param {
    lr_mult: 2
    decay_mult: 0
  }
  convolution_param {
    num_output: 112
    kernel_size: 1
    weight_filler {
      type: "xavier"
      std: 0.03
    }
    bias_filler {
      type: "constant"
      value: 0.2
    }
  }
}
layer {
  name: "inception_4d/relu_1x1"
  type: "ReLU"
  bottom: "inception_4d/1x1"
  top: "inception_4d/1x1"
}
layer {
  name: "inception_4d/3x3_reduce"
  type: "Convolution"
  bottom: "inception_4c/output"
  top: "inception_4d/3x3_reduce"
  param {
    lr_mult: 1
    decay_mult: 1
  }
  param {
    lr_mult: 2
    decay_mult: 0
  }
  convolution_param {
    num_output: 144
    kernel_size: 1
    weight_filler {
      type: "xavier"
      std: 0.09
    }
    bias_filler {
      type: "constant"
      value: 0.2
    }
  }
}
layer {
  name: "inception_4d/relu_3x3_reduce"
  type: "ReLU"
  bottom: "inception_4d/3x3_reduce"
  top: "inception_4d/3x3_reduce"
}
layer {
  name: "inception_4d/3x3"
  type: "Convolution"
  bottom: "inception_4d/3x3_reduce"
  top: "inception_4d/3x3"
  param {
    lr_mult: 1
    decay_mult: 1
  }
  param {
    lr_mult: 2
    decay_mult: 0
  }
  convolution_param {
    num_output: 288
    pad: 1
    kernel_size: 3
    weight_filler {
      type: "xavier"
      std: 0.03
    }
    bias_filler {
      type: "constant"
      value: 0.2
    }
  }
}
layer {
  name: "inception_4d/relu_3x3"
  type: "ReLU"
  bottom: "inception_4d/3x3"
  top: "inception_4d/3x3"
}
layer {
  name: "inception_4d/5x5_reduce"
  type: "Convolution"
  bottom: "inception_4c/output"
  top: "inception_4d/5x5_reduce"
  param {
    lr_mult: 1
    decay_mult: 1
  }
  param {
    lr_mult: 2
    decay_mult: 0
  }
  convolution_param {
    num_output: 32
    kernel_size: 1
    weight_filler {
      type: "xavier"
      std: 0.2
    }
    bias_filler {
      type: "constant"
      value: 0.2
    }
  }
}
layer {
  name: "inception_4d/relu_5x5_reduce"
  type: "ReLU"
  bottom: "inception_4d/5x5_reduce"
  top: "inception_4d/5x5_reduce"
}
layer {
  name: "inception_4d/5x5"
  type: "Convolution"
  bottom: "inception_4d/5x5_reduce"
  top: "inception_4d/5x5"
  param {
    lr_mult: 1
    decay_mult: 1
  }
  param {
    lr_mult: 2
    decay_mult: 0
  }
  convolution_param {
    num_output: 64
    pad: 2
    kernel_size: 5
    weight_filler {
      type: "xavier"
      std: 0.03
    }
    bias_filler {
      type: "constant"
      value: 0.2
    }
  }
}
layer {
  name: "inception_4d/relu_5x5"
  type: "ReLU"
  bottom: "inception_4d/5x5"
  top: "inception_4d/5x5"
}
layer {
  name: "inception_4d/pool"
  type: "Pooling"
  bottom: "inception_4c/output"
  top: "inception_4d/pool"
  pooling_param {
    pool: MAX
    kernel_size: 3
    stride: 1
    pad: 1
  }
}
layer {
  name: "inception_4d/pool_proj"
  type: "Convolution"
  bottom: "inception_4d/pool"
  top: "inception_4d/pool_proj"
  param {
    lr_mult: 1
    decay_mult: 1
  }
  param {
    lr_mult: 2
    decay_mult: 0
  }
  convolution_param {
    num_output: 64
    kernel_size: 1
    weight_filler {
      type: "xavier"
      std: 0.1
    }
    bias_filler {
      type: "constant"
      value: 0.2
    }
  }
}
layer {
  name: "inception_4d/relu_pool_proj"
  type: "ReLU"
  bottom: "inception_4d/pool_proj"
  top: "inception_4d/pool_proj"
}
layer {
  name: "inception_4d/output"
  type: "Concat"
  bottom: "inception_4d/1x1"
  bottom: "inception_4d/3x3"
  bottom: "inception_4d/5x5"
  bottom: "inception_4d/pool_proj"
  top: "inception_4d/output"
}
layer {
  name: "loss2/ave_pool"
  type: "Pooling"
  bottom: "inception_4d/output"
  top: "loss2/ave_pool"
  pooling_param {
    pool: AVE
    kernel_size: 5
    stride: 3
  }
}
layer {
  name: "loss2/conv"
  type: "Convolution"
  bottom: "loss2/ave_pool"
  top: "loss2/conv"
  param {
    lr_mult: 1
    decay_mult: 1
  }
  param {
    lr_mult: 2
    decay_mult: 0
  }
  convolution_param {
    num_output: 128
    kernel_size: 1
    weight_filler {
      type: "xavier"
      std: 0.08
    }
    bias_filler {
      type: "constant"
      value: 0.2
    }
  }
}
layer {
  name: "loss2/relu_conv"
  type: "ReLU"
  bottom: "loss2/conv"
  top: "loss2/conv"
}
layer {
  name: "loss2/fc"
  type: "InnerProduct"
  bottom: "loss2/conv"
  top: "loss2/fc"
  param {
    lr_mult: 1
    decay_mult: 1
  }
  param {
    lr_mult: 2
    decay_mult: 0
  }
  inner_product_param {
    num_output: 1024
    weight_filler {
      type: "xavier"
      std: 0.02
    }
    bias_filler {
      type: "constant"
      value: 0.2
    }
  }
}
layer {
  name: "loss2/relu_fc"
  type: "ReLU"
  bottom: "loss2/fc"
  top: "loss2/fc"
}
layer {
  name: "loss2/drop_fc"
  type: "Dropout"
  bottom: "loss2/fc"
  top: "loss2/fc"
  dropout_param {
    dropout_ratio: 0.7
  }
}
layer {
  name: "loss2/classifier_plantvillage"
  type: "InnerProduct"
  bottom: "loss2/fc"
  top: "loss2/classifier_plantvillage"
  param {
    lr_mult: 1
    decay_mult: 1
  }
  param {
    lr_mult: 2
    decay_mult: 0
  }
  inner_product_param {
    num_output: 38
    weight_filler {
      type: "xavier"
      std: 0.0009765625
    }
    bias_filler {
      type: "constant"
      value: 0
    }
  }
}
layer {
  name: "inception_4e/1x1"
  type: "Convolution"
  bottom: "inception_4d/output"
  top: "inception_4e/1x1"
  param {
    lr_mult: 1
    decay_mult: 1
  }
  param {
    lr_mult: 2
    decay_mult: 0
  }
  convolution_param {
    num_output: 256
    kernel_size: 1
    weight_filler {
      type: "xavier"
      std: 0.03
    }
    bias_filler {
      type: "constant"
      value: 0.2
    }
  }
}
layer {
  name: "inception_4e/relu_1x1"
  type: "ReLU"
  bottom: "inception_4e/1x1"
  top: "inception_4e/1x1"
}
layer {
  name: "inception_4e/3x3_reduce"
  type: "Convolution"
  bottom: "inception_4d/output"
  top: "inception_4e/3x3_reduce"
  param {
    lr_mult: 1
    decay_mult: 1
  }
  param {
    lr_mult: 2
    decay_mult: 0
  }
  convolution_param {
    num_output: 160
    kernel_size: 1
    weight_filler {
      type: "xavier"
      std: 0.09
    }
    bias_filler {
      type: "constant"
      value: 0.2
    }
  }
}
layer {
  name: "inception_4e/relu_3x3_reduce"
  type: "ReLU"
  bottom: "inception_4e/3x3_reduce"
  top: "inception_4e/3x3_reduce"
}
layer {
  name: "inception_4e/3x3"
  type: "Convolution"
  bottom: "inception_4e/3x3_reduce"
  top: "inception_4e/3x3"
  param {
    lr_mult: 1
    decay_mult: 1
  }
  param {
    lr_mult: 2
    decay_mult: 0
  }
  convolution_param {
    num_output: 320
    pad: 1
    kernel_size: 3
    weight_filler {
      type: "xavier"
      std: 0.03
    }
    bias_filler {
      type: "constant"
      value: 0.2
    }
  }
}
layer {
  name: "inception_4e/relu_3x3"
  type: "ReLU"
  bottom: "inception_4e/3x3"
  top: "inception_4e/3x3"
}
layer {
  name: "inception_4e/5x5_reduce"
  type: "Convolution"
  bottom: "inception_4d/output"
  top: "inception_4e/5x5_reduce"
  param {
    lr_mult: 1
    decay_mult: 1
  }
  param {
    lr_mult: 2
    decay_mult: 0
  }
  convolution_param {
    num_output: 32
    kernel_size: 1
    weight_filler {
      type: "xavier"
      std: 0.2
    }
    bias_filler {
      type: "constant"
      value: 0.2
    }
  }
}
layer {
  name: "inception_4e/relu_5x5_reduce"
  type: "ReLU"
  bottom: "inception_4e/5x5_reduce"
  top: "inception_4e/5x5_reduce"
}
layer {
  name: "inception_4e/5x5"
  type: "Convolution"
  bottom: "inception_4e/5x5_reduce"
  top: "inception_4e/
I0403 15:06:33.756708 11752 layer_factory.hpp:77] Creating layer data
I0403 15:06:33.757333 11752 net.cpp:91] Creating Layer data
I0403 15:06:33.757375 11752 net.cpp:399] data -> data
I0403 15:06:33.757431 11752 net.cpp:399] data -> label
I0403 15:06:33.757470 11752 data_transformer.cpp:25] Loading mean file from: /home/mohanty/data/final_dataset/lmdb/grayscale-60-40/mean.binaryproto
I0403 15:06:33.762904 11755 db_lmdb.cpp:38] Opened lmdb /home/mohanty/data/final_dataset/lmdb/grayscale-60-40/test_db
I0403 15:06:33.775209 11752 data_layer.cpp:41] output data size: 24,3,224,224
I0403 15:06:33.803808 11752 net.cpp:141] Setting up data
I0403 15:06:33.803882 11752 net.cpp:148] Top shape: 24 3 224 224 (3612672)
I0403 15:06:33.803907 11752 net.cpp:148] Top shape: 24 (24)
I0403 15:06:33.803925 11752 net.cpp:156] Memory required for data: 14450784
I0403 15:06:33.803953 11752 layer_factory.hpp:77] Creating layer label_data_1_split
I0403 15:06:33.803985 11752 net.cpp:91] Creating Layer label_data_1_split
I0403 15:06:33.804005 11752 net.cpp:425] label_data_1_split <- label
I0403 15:06:33.804039 11752 net.cpp:399] label_data_1_split -> label_data_1_split_0
I0403 15:06:33.804069 11752 net.cpp:399] label_data_1_split -> label_data_1_split_1
I0403 15:06:33.804091 11752 net.cpp:399] label_data_1_split -> label_data_1_split_2
I0403 15:06:33.804113 11752 net.cpp:399] label_data_1_split -> label_data_1_split_3
I0403 15:06:33.804141 11752 net.cpp:399] label_data_1_split -> label_data_1_split_4
I0403 15:06:33.804163 11752 net.cpp:399] label_data_1_split -> label_data_1_split_5
I0403 15:06:33.804188 11752 net.cpp:399] label_data_1_split -> label_data_1_split_6
I0403 15:06:33.804219 11752 net.cpp:399] label_data_1_split -> label_data_1_split_7
I0403 15:06:33.804250 11752 net.cpp:399] label_data_1_split -> label_data_1_split_8
I0403 15:06:33.804275 11752 net.cpp:399] label_data_1_split -> label_data_1_split_9
I0403 15:06:33.804420 11752 net.cpp:141] Setting up label_data_1_split
I0403 15:06:33.804447 11752 net.cpp:148] Top shape: 24 (24)
I0403 15:06:33.804464 11752 net.cpp:148] Top shape: 24 (24)
I0403 15:06:33.804482 11752 net.cpp:148] Top shape: 24 (24)
I0403 15:06:33.804499 11752 net.cpp:148] Top shape: 24 (24)
I0403 15:06:33.804517 11752 net.cpp:148] Top shape: 24 (24)
I0403 15:06:33.804533 11752 net.cpp:148] Top shape: 24 (24)
I0403 15:06:33.804551 11752 net.cpp:148] Top shape: 24 (24)
I0403 15:06:33.804569 11752 net.cpp:148] Top shape: 24 (24)
I0403 15:06:33.804584 11752 net.cpp:148] Top shape: 24 (24)
I0403 15:06:33.804610 11752 net.cpp:148] Top shape: 24 (24)
I0403 15:06:33.804657 11752 net.cpp:156] Memory required for data: 14451744
I0403 15:06:33.804675 11752 layer_factory.hpp:77] Creating layer conv1/7x7_s2
I0403 15:06:33.804709 11752 net.cpp:91] Creating Layer conv1/7x7_s2
I0403 15:06:33.804730 11752 net.cpp:425] conv1/7x7_s2 <- data
I0403 15:06:33.804752 11752 net.cpp:399] conv1/7x7_s2 -> conv1/7x7_s2
I0403 15:06:33.954785 11752 net.cpp:141] Setting up conv1/7x7_s2
I0403 15:06:33.954864 11752 net.cpp:148] Top shape: 24 64 112 112 (19267584)
I0403 15:06:33.954882 11752 net.cpp:156] Memory required for data: 91522080
I0403 15:06:33.954913 11752 layer_factory.hpp:77] Creating layer conv1/relu_7x7
I0403 15:06:33.954943 11752 net.cpp:91] Creating Layer conv1/relu_7x7
I0403 15:06:33.954964 11752 net.cpp:425] conv1/relu_7x7 <- conv1/7x7_s2
I0403 15:06:33.954983 11752 net.cpp:386] conv1/relu_7x7 -> conv1/7x7_s2 (in-place)
I0403 15:06:33.955265 11752 net.cpp:141] Setting up conv1/relu_7x7
I0403 15:06:33.955293 11752 net.cpp:148] Top shape: 24 64 112 112 (19267584)
I0403 15:06:33.955310 11752 net.cpp:156] Memory required for data: 168592416
I0403 15:06:33.955327 11752 layer_factory.hpp:77] Creating layer pool1/3x3_s2
I0403 15:06:33.955354 11752 net.cpp:91] Creating Layer pool1/3x3_s2
I0403 15:06:33.955375 11752 net.cpp:425] pool1/3x3_s2 <- conv1/7x7_s2
I0403 15:06:33.955394 11752 net.cpp:399] pool1/3x3_s2 -> pool1/3x3_s2
I0403 15:06:33.955477 11752 net.cpp:141] Setting up pool1/3x3_s2
I0403 15:06:33.955503 11752 net.cpp:148] Top shape: 24 64 56 56 (4816896)
I0403 15:06:33.955520 11752 net.cpp:156] Memory required for data: 187860000
I0403 15:06:33.955535 11752 layer_factory.hpp:77] Creating layer pool1/norm1
I0403 15:06:33.955562 11752 net.cpp:91] Creating Layer pool1/norm1
I0403 15:06:33.955582 11752 net.cpp:425] pool1/norm1 <- pool1/3x3_s2
I0403 15:06:33.955600 11752 net.cpp:399] pool1/norm1 -> pool1/norm1
I0403 15:06:33.955912 11752 net.cpp:141] Setting up pool1/norm1
I0403 15:06:33.955942 11752 net.cpp:148] Top shape: 24 64 56 56 (4816896)
I0403 15:06:33.955963 11752 net.cpp:156] Memory required for data: 207127584
I0403 15:06:33.955979 11752 layer_factory.hpp:77] Creating layer conv2/3x3_reduce
I0403 15:06:33.956006 11752 net.cpp:91] Creating Layer conv2/3x3_reduce
I0403 15:06:33.956022 11752 net.cpp:425] conv2/3x3_reduce <- pool1/norm1
I0403 15:06:33.956044 11752 net.cpp:399] conv2/3x3_reduce -> conv2/3x3_reduce
I0403 15:06:33.957545 11752 net.cpp:141] Setting up conv2/3x3_reduce
I0403 15:06:33.957578 11752 net.cpp:148] Top shape: 24 64 56 56 (4816896)
I0403 15:06:33.957595 11752 net.cpp:156] Memory required for data: 226395168
I0403 15:06:33.957618 11752 layer_factory.hpp:77] Creating layer conv2/relu_3x3_reduce
I0403 15:06:33.957638 11752 net.cpp:91] Creating Layer conv2/relu_3x3_reduce
I0403 15:06:33.957655 11752 net.cpp:425] conv2/relu_3x3_reduce <- conv2/3x3_reduce
I0403 15:06:33.957676 11752 net.cpp:386] conv2/relu_3x3_reduce -> conv2/3x3_reduce (in-place)
I0403 15:06:33.957962 11752 net.cpp:141] Setting up conv2/relu_3x3_reduce
I0403 15:06:33.957991 11752 net.cpp:148] Top shape: 24 64 56 56 (4816896)
I0403 15:06:33.958008 11752 net.cpp:156] Memory required for data: 245662752
I0403 15:06:33.958024 11752 layer_factory.hpp:77] Creating layer conv2/3x3
I0403 15:06:33.958050 11752 net.cpp:91] Creating Layer conv2/3x3
I0403 15:06:33.958068 11752 net.cpp:425] conv2/3x3 <- conv2/3x3_reduce
I0403 15:06:33.958093 11752 net.cpp:399] conv2/3x3 -> conv2/3x3
I0403 15:06:33.960566 11752 net.cpp:141] Setting up conv2/3x3
I0403 15:06:33.960620 11752 net.cpp:148] Top shape: 24 192 56 56 (14450688)
I0403 15:06:33.960643 11752 net.cpp:156] Memory required for data: 303465504
I0403 15:06:33.960664 11752 layer_factory.hpp:77] Creating layer conv2/relu_3x3
I0403 15:06:33.960683 11752 net.cpp:91] Creating Layer conv2/relu_3x3
I0403 15:06:33.960700 11752 net.cpp:425] conv2/relu_3x3 <- conv2/3x3
I0403 15:06:33.960721 11752 net.cpp:386] conv2/relu_3x3 -> conv2/3x3 (in-place)
I0403 15:06:33.960909 11752 net.cpp:141] Setting up conv2/relu_3x3
I0403 15:06:33.960937 11752 net.cpp:148] Top shape: 24 192 56 56 (14450688)
I0403 15:06:33.960984 11752 net.cpp:156] Memory required for data: 361268256
I0403 15:06:33.961001 11752 layer_factory.hpp:77] Creating layer conv2/norm2
I0403 15:06:33.961021 11752 net.cpp:91] Creating Layer conv2/norm2
I0403 15:06:33.961037 11752 net.cpp:425] conv2/norm2 <- conv2/3x3
I0403 15:06:33.961058 11752 net.cpp:399] conv2/norm2 -> conv2/norm2
I0403 15:06:33.961375 11752 net.cpp:141] Setting up conv2/norm2
I0403 15:06:33.961403 11752 net.cpp:148] Top shape: 24 192 56 56 (14450688)
I0403 15:06:33.961419 11752 net.cpp:156] Memory required for data: 419071008
I0403 15:06:33.961434 11752 layer_factory.hpp:77] Creating layer pool2/3x3_s2
I0403 15:06:33.961453 11752 net.cpp:91] Creating Layer pool2/3x3_s2
I0403 15:06:33.961470 11752 net.cpp:425] pool2/3x3_s2 <- conv2/norm2
I0403 15:06:33.961491 11752 net.cpp:399] pool2/3x3_s2 -> pool2/3x3_s2
I0403 15:06:33.961546 11752 net.cpp:141] Setting up pool2/3x3_s2
I0403 15:06:33.961570 11752 net.cpp:148] Top shape: 24 192 28 28 (3612672)
I0403 15:06:33.961586 11752 net.cpp:156] Memory required for data: 433521696
I0403 15:06:33.961601 11752 layer_factory.hpp:77] Creating layer pool2/3x3_s2_pool2/3x3_s2_0_split
I0403 15:06:33.961622 11752 net.cpp:91] Creating Layer pool2/3x3_s2_pool2/3x3_s2_0_split
I0403 15:06:33.961639 11752 net.cpp:425] pool2/3x3_s2_pool2/3x3_s2_0_split <- pool2/3x3_s2
I0403 15:06:33.961658 11752 net.cpp:399] pool2/3x3_s2_pool2/3x3_s2_0_split -> pool2/3x3_s2_pool2/3x3_s2_0_split_0
I0403 15:06:33.961678 11752 net.cpp:399] pool2/3x3_s2_pool2/3x3_s2_0_split -> pool2/3x3_s2_pool2/3x3_s2_0_split_1
I0403 15:06:33.961702 11752 net.cpp:399] pool2/3x3_s2_pool2/3x3_s2_0_split -> pool2/3x3_s2_pool2/3x3_s2_0_split_2
I0403 15:06:33.961724 11752 net.cpp:399] pool2/3x3_s2_pool2/3x3_s2_0_split -> pool2/3x3_s2_pool2/3x3_s2_0_split_3
I0403 15:06:33.961793 11752 net.cpp:141] Setting up pool2/3x3_s2_pool2/3x3_s2_0_split
I0403 15:06:33.961817 11752 net.cpp:148] Top shape: 24 192 28 28 (3612672)
I0403 15:06:33.961834 11752 net.cpp:148] Top shape: 24 192 28 28 (3612672)
I0403 15:06:33.961851 11752 net.cpp:148] Top shape: 24 192 28 28 (3612672)
I0403 15:06:33.961868 11752 net.cpp:148] Top shape: 24 192 28 28 (3612672)
I0403 15:06:33.961881 11752 net.cpp:156] Memory required for data: 491324448
I0403 15:06:33.961897 11752 layer_factory.hpp:77] Creating layer inception_3a/1x1
I0403 15:06:33.961920 11752 net.cpp:91] Creating Layer inception_3a/1x1
I0403 15:06:33.961938 11752 net.cpp:425] inception_3a/1x1 <- pool2/3x3_s2_pool2/3x3_s2_0_split_0
I0403 15:06:33.961961 11752 net.cpp:399] inception_3a/1x1 -> inception_3a/1x1
I0403 15:06:33.963557 11752 net.cpp:141] Setting up inception_3a/1x1
I0403 15:06:33.963588 11752 net.cpp:148] Top shape: 24 64 28 28 (1204224)
I0403 15:06:33.963604 11752 net.cpp:156] Memory required for data: 496141344
I0403 15:06:33.963624 11752 layer_factory.hpp:77] Creating layer inception_3a/relu_1x1
I0403 15:06:33.963642 11752 net.cpp:91] Creating Layer inception_3a/relu_1x1
I0403 15:06:33.963660 11752 net.cpp:425] inception_3a/relu_1x1 <- inception_3a/1x1
I0403 15:06:33.963680 11752 net.cpp:386] inception_3a/relu_1x1 -> inception_3a/1x1 (in-place)
I0403 15:06:33.963857 11752 net.cpp:141] Setting up inception_3a/relu_1x1
I0403 15:06:33.963883 11752 net.cpp:148] Top shape: 24 64 28 28 (1204224)
I0403 15:06:33.963898 11752 net.cpp:156] Memory required for data: 500958240
I0403 15:06:33.963914 11752 layer_factory.hpp:77] Creating layer inception_3a/3x3_reduce
I0403 15:06:33.963937 11752 net.cpp:91] Creating Layer inception_3a/3x3_reduce
I0403 15:06:33.963956 11752 net.cpp:425] inception_3a/3x3_reduce <- pool2/3x3_s2_pool2/3x3_s2_0_split_1
I0403 15:06:33.963979 11752 net.cpp:399] inception_3a/3x3_reduce -> inception_3a/3x3_reduce
I0403 15:06:33.965759 11752 net.cpp:141] Setting up inception_3a/3x3_reduce
I0403 15:06:33.965790 11752 net.cpp:148] Top shape: 24 96 28 28 (1806336)
I0403 15:06:33.965807 11752 net.cpp:156] Memory required for data: 508183584
I0403 15:06:33.965831 11752 layer_factory.hpp:77] Creating layer inception_3a/relu_3x3_reduce
I0403 15:06:33.965870 11752 net.cpp:91] Creating Layer inception_3a/relu_3x3_reduce
I0403 15:06:33.965890 11752 net.cpp:425] inception_3a/relu_3x3_reduce <- inception_3a/3x3_reduce
I0403 15:06:33.965909 11752 net.cpp:386] inception_3a/relu_3x3_reduce -> inception_3a/3x3_reduce (in-place)
I0403 15:06:33.966099 11752 net.cpp:141] Setting up inception_3a/relu_3x3_reduce
I0403 15:06:33.966130 11752 net.cpp:148] Top shape: 24 96 28 28 (1806336)
I0403 15:06:33.966147 11752 net.cpp:156] Memory required for data: 515408928
I0403 15:06:33.966162 11752 layer_factory.hpp:77] Creating layer inception_3a/3x3
I0403 15:06:33.966187 11752 net.cpp:91] Creating Layer inception_3a/3x3
I0403 15:06:33.966204 11752 net.cpp:425] inception_3a/3x3 <- inception_3a/3x3_reduce
I0403 15:06:33.966228 11752 net.cpp:399] inception_3a/3x3 -> inception_3a/3x3
I0403 15:06:33.967901 11752 net.cpp:141] Setting up inception_3a/3x3
I0403 15:06:33.967931 11752 net.cpp:148] Top shape: 24 128 28 28 (2408448)
I0403 15:06:33.967947 11752 net.cpp:156] Memory required for data: 525042720
I0403 15:06:33.967965 11752 layer_factory.hpp:77] Creating layer inception_3a/relu_3x3
I0403 15:06:33.967988 11752 net.cpp:91] Creating Layer inception_3a/relu_3x3
I0403 15:06:33.968006 11752 net.cpp:425] inception_3a/relu_3x3 <- inception_3a/3x3
I0403 15:06:33.968024 11752 net.cpp:386] inception_3a/relu_3x3 -> inception_3a/3x3 (in-place)
I0403 15:06:33.968308 11752 net.cpp:141] Setting up inception_3a/relu_3x3
I0403 15:06:33.968336 11752 net.cpp:148] Top shape: 24 128 28 28 (2408448)
I0403 15:06:33.968351 11752 net.cpp:156] Memory required for data: 534676512
I0403 15:06:33.968369 11752 layer_factory.hpp:77] Creating layer inception_3a/5x5_reduce
I0403 15:06:33.968392 11752 net.cpp:91] Creating Layer inception_3a/5x5_reduce
I0403 15:06:33.968411 11752 net.cpp:425] inception_3a/5x5_reduce <- pool2/3x3_s2_pool2/3x3_s2_0_split_2
I0403 15:06:33.968433 11752 net.cpp:399] inception_3a/5x5_reduce -> inception_3a/5x5_reduce
I0403 15:06:33.969419 11752 net.cpp:141] Setting up inception_3a/5x5_reduce
I0403 15:06:33.969449 11752 net.cpp:148] Top shape: 24 16 28 28 (301056)
I0403 15:06:33.969465 11752 net.cpp:156] Memory required for data: 535880736
I0403 15:06:33.969485 11752 layer_factory.hpp:77] Creating layer inception_3a/relu_5x5_reduce
I0403 15:06:33.969506 11752 net.cpp:91] Creating Layer inception_3a/relu_5x5_reduce
I0403 15:06:33.969523 11752 net.cpp:425] inception_3a/relu_5x5_reduce <- inception_3a/5x5_reduce
I0403 15:06:33.969542 11752 net.cpp:386] inception_3a/relu_5x5_reduce -> inception_3a/5x5_reduce (in-place)
I0403 15:06:33.969846 11752 net.cpp:141] Setting up inception_3a/relu_5x5_reduce
I0403 15:06:33.969877 11752 net.cpp:148] Top shape: 24 16 28 28 (301056)
I0403 15:06:33.969893 11752 net.cpp:156] Memory required for data: 537084960
I0403 15:06:33.969909 11752 layer_factory.hpp:77] Creating layer inception_3a/5x5
I0403 15:06:33.969930 11752 net.cpp:91] Creating Layer inception_3a/5x5
I0403 15:06:33.969947 11752 net.cpp:425] inception_3a/5x5 <- inception_3a/5x5_reduce
I0403 15:06:33.969969 11752 net.cpp:399] inception_3a/5x5 -> inception_3a/5x5
I0403 15:06:33.971007 11752 net.cpp:141] Setting up inception_3a/5x5
I0403 15:06:33.971036 11752 net.cpp:148] Top shape: 24 32 28 28 (602112)
I0403 15:06:33.971051 11752 net.cpp:156] Memory required for data: 539493408
I0403 15:06:33.971071 11752 layer_factory.hpp:77] Creating layer inception_3a/relu_5x5
I0403 15:06:33.971092 11752 net.cpp:91] Creating Layer inception_3a/relu_5x5
I0403 15:06:33.971109 11752 net.cpp:425] inception_3a/relu_5x5 <- inception_3a/5x5
I0403 15:06:33.971132 11752 net.cpp:386] inception_3a/relu_5x5 -> inception_3a/5x5 (in-place)
I0403 15:06:33.971312 11752 net.cpp:141] Setting up inception_3a/relu_5x5
I0403 15:06:33.971338 11752 net.cpp:148] Top shape: 24 32 28 28 (602112)
I0403 15:06:33.971354 11752 net.cpp:156] Memory required for data: 541901856
I0403 15:06:33.971369 11752 layer_factory.hpp:77] Creating layer inception_3a/pool
I0403 15:06:33.971390 11752 net.cpp:91] Creating Layer inception_3a/pool
I0403 15:06:33.971422 11752 net.cpp:425] inception_3a/pool <- pool2/3x3_s2_pool2/3x3_s2_0_split_3
I0403 15:06:33.971442 11752 net.cpp:399] inception_3a/pool -> inception_3a/pool
I0403 15:06:33.971503 11752 net.cpp:141] Setting up inception_3a/pool
I0403 15:06:33.971529 11752 net.cpp:148] Top shape: 24 192 28 28 (3612672)
I0403 15:06:33.971544 11752 net.cpp:156] Memory required for data: 556352544
I0403 15:06:33.971560 11752 layer_factory.hpp:77] Creating layer inception_3a/pool_proj
I0403 15:06:33.971582 11752 net.cpp:91] Creating Layer inception_3a/pool_proj
I0403 15:06:33.971601 11752 net.cpp:425] inception_3a/pool_proj <- inception_3a/pool
I0403 15:06:33.971623 11752 net.cpp:399] inception_3a/pool_proj -> inception_3a/pool_proj
I0403 15:06:33.972610 11752 net.cpp:141] Setting up inception_3a/pool_proj
I0403 15:06:33.972641 11752 net.cpp:148] Top shape: 24 32 28 28 (602112)
I0403 15:06:33.972658 11752 net.cpp:156] Memory required for data: 558760992
I0403 15:06:33.972681 11752 layer_factory.hpp:77] Creating layer inception_3a/relu_pool_proj
I0403 15:06:33.972703 11752 net.cpp:91] Creating Layer inception_3a/relu_pool_proj
I0403 15:06:33.972721 11752 net.cpp:425] inception_3a/relu_pool_proj <- inception_3a/pool_proj
I0403 15:06:33.972739 11752 net.cpp:386] inception_3a/relu_pool_proj -> inception_3a/pool_proj (in-place)
I0403 15:06:33.973016 11752 net.cpp:141] Setting up inception_3a/relu_pool_proj
I0403 15:06:33.973044 11752 net.cpp:148] Top shape: 24 32 28 28 (602112)
I0403 15:06:33.973060 11752 net.cpp:156] Memory required for data: 561169440
I0403 15:06:33.973076 11752 layer_factory.hpp:77] Creating layer inception_3a/output
I0403 15:06:33.973095 11752 net.cpp:91] Creating Layer inception_3a/output
I0403 15:06:33.973115 11752 net.cpp:425] inception_3a/output <- inception_3a/1x1
I0403 15:06:33.973146 11752 net.cpp:425] inception_3a/output <- inception_3a/3x3
I0403 15:06:33.973167 11752 net.cpp:425] inception_3a/output <- inception_3a/5x5
I0403 15:06:33.973183 11752 net.cpp:425] inception_3a/output <- inception_3a/pool_proj
I0403 15:06:33.973203 11752 net.cpp:399] inception_3a/output -> inception_3a/output
I0403 15:06:33.973251 11752 net.cpp:141] Setting up inception_3a/output
I0403 15:06:33.973278 11752 net.cpp:148] Top shape: 24 256 28 28 (4816896)
I0403 15:06:33.973295 11752 net.cpp:156] Memory required for data: 580437024
I0403 15:06:33.973310 11752 layer_factory.hpp:77] Creating layer inception_3a/output_inception_3a/output_0_split
I0403 15:06:33.973328 11752 net.cpp:91] Creating Layer inception_3a/output_inception_3a/output_0_split
I0403 15:06:33.973345 11752 net.cpp:425] inception_3a/output_inception_3a/output_0_split <- inception_3a/output
I0403 15:06:33.973364 11752 net.cpp:399] inception_3a/output_inception_3a/output_0_split -> inception_3a/output_inception_3a/output_0_split_0
I0403 15:06:33.973387 11752 net.cpp:399] inception_3a/output_inception_3a/output_0_split -> inception_3a/output_inception_3a/output_0_split_1
I0403 15:06:33.973409 11752 net.cpp:399] inception_3a/output_inception_3a/output_0_split -> inception_3a/output_inception_3a/output_0_split_2
I0403 15:06:33.973431 11752 net.cpp:399] inception_3a/output_inception_3a/output_0_split -> inception_3a/output_inception_3a/output_0_split_3
I0403 15:06:33.973508 11752 net.cpp:141] Setting up inception_3a/output_inception_3a/output_0_split
I0403 15:06:33.973533 11752 net.cpp:148] Top shape: 24 256 28 28 (4816896)
I0403 15:06:33.973551 11752 net.cpp:148] Top shape: 24 256 28 28 (4816896)
I0403 15:06:33.973567 11752 net.cpp:148] Top shape: 24 256 28 28 (4816896)
I0403 15:06:33.973583 11752 net.cpp:148] Top shape: 24 256 28 28 (4816896)
I0403 15:06:33.973598 11752 net.cpp:156] Memory required for data: 657507360
I0403 15:06:33.973613 11752 layer_factory.hpp:77] Creating layer inception_3b/1x1
I0403 15:06:33.973637 11752 net.cpp:91] Creating Layer inception_3b/1x1
I0403 15:06:33.973656 11752 net.cpp:425] inception_3b/1x1 <- inception_3a/output_inception_3a/output_0_split_0
I0403 15:06:33.973678 11752 net.cpp:399] inception_3b/1x1 -> inception_3b/1x1
I0403 15:06:33.974912 11752 net.cpp:141] Setting up inception_3b/1x1
I0403 15:06:33.974956 11752 net.cpp:148] Top shape: 24 128 28 28 (2408448)
I0403 15:06:33.974973 11752 net.cpp:156] Memory required for data: 667141152
I0403 15:06:33.974994 11752 layer_factory.hpp:77] Creating layer inception_3b/relu_1x1
I0403 15:06:33.975013 11752 net.cpp:91] Creating Layer inception_3b/relu_1x1
I0403 15:06:33.975030 11752 net.cpp:425] inception_3b/relu_1x1 <- inception_3b/1x1
I0403 15:06:33.975052 11752 net.cpp:386] inception_3b/relu_1x1 -> inception_3b/1x1 (in-place)
I0403 15:06:33.975244 11752 net.cpp:141] Setting up inception_3b/relu_1x1
I0403 15:06:33.975271 11752 net.cpp:148] Top shape: 24 128 28 28 (2408448)
I0403 15:06:33.975288 11752 net.cpp:156] Memory required for data: 676774944
I0403 15:06:33.975304 11752 layer_factory.hpp:77] Creating layer inception_3b/3x3_reduce
I0403 15:06:33.975328 11752 net.cpp:91] Creating Layer inception_3b/3x3_reduce
I0403 15:06:33.975347 11752 net.cpp:425] inception_3b/3x3_reduce <- inception_3a/output_inception_3a/output_0_split_1
I0403 15:06:33.975370 11752 net.cpp:399] inception_3b/3x3_reduce -> inception_3b/3x3_reduce
I0403 15:06:33.976572 11752 net.cpp:141] Setting up inception_3b/3x3_reduce
I0403 15:06:33.976604 11752 net.cpp:148] Top shape: 24 128 28 28 (2408448)
I0403 15:06:33.976622 11752 net.cpp:156] Memory required for data: 686408736
I0403 15:06:33.976640 11752 layer_factory.hpp:77] Creating layer inception_3b/relu_3x3_reduce
I0403 15:06:33.976660 11752 net.cpp:91] Creating Layer inception_3b/relu_3x3_reduce
I0403 15:06:33.976677 11752 net.cpp:425] inception_3b/relu_3x3_reduce <- inception_3b/3x3_reduce
I0403 15:06:33.976701 11752 net.cpp:386] inception_3b/relu_3x3_reduce -> inception_3b/3x3_reduce (in-place)
I0403 15:06:33.976876 11752 net.cpp:141] Setting up inception_3b/relu_3x3_reduce
I0403 15:06:33.976902 11752 net.cpp:148] Top shape: 24 128 28 28 (2408448)
I0403 15:06:33.976917 11752 net.cpp:156] Memory required for data: 696042528
I0403 15:06:33.976932 11752 layer_factory.hpp:77] Creating layer inception_3b/3x3
I0403 15:06:33.976958 11752 net.cpp:91] Creating Layer inception_3b/3x3
I0403 15:06:33.976981 11752 net.cpp:425] inception_3b/3x3 <- inception_3b/3x3_reduce
I0403 15:06:33.977001 11752 net.cpp:399] inception_3b/3x3 -> inception_3b/3x3
I0403 15:06:33.979953 11752 net.cpp:141] Setting up inception_3b/3x3
I0403 15:06:33.979982 11752 net.cpp:148] Top shape: 24 192 28 28 (3612672)
I0403 15:06:33.979998 11752 net.cpp:156] Memory required for data: 710493216
I0403 15:06:33.980018 11752 layer_factory.hpp:77] Creating layer inception_3b/relu_3x3
I0403 15:06:33.980039 11752 net.cpp:91] Creating Layer inception_3b/relu_3x3
I0403 15:06:33.980057 11752 net.cpp:425] inception_3b/relu_3x3 <- inception_3b/3x3
I0403 15:06:33.980073 11752 net.cpp:386] inception_3b/relu_3x3 -> inception_3b/3x3 (in-place)
I0403 15:06:33.980358 11752 net.cpp:141] Setting up inception_3b/relu_3x3
I0403 15:06:33.980387 11752 net.cpp:148] Top shape: 24 192 28 28 (3612672)
I0403 15:06:33.980403 11752 net.cpp:156] Memory required for data: 724943904
I0403 15:06:33.980419 11752 layer_factory.hpp:77] Creating layer inception_3b/5x5_reduce
I0403 15:06:33.980445 11752 net.cpp:91] Creating Layer inception_3b/5x5_reduce
I0403 15:06:33.980465 11752 net.cpp:425] inception_3b/5x5_reduce <- inception_3a/output_inception_3a/output_0_split_2
I0403 15:06:33.980489 11752 net.cpp:399] inception_3b/5x5_reduce -> inception_3b/5x5_reduce
I0403 15:06:33.981497 11752 net.cpp:141] Setting up inception_3b/5x5_reduce
I0403 15:06:33.981526 11752 net.cpp:148] Top shape: 24 32 28 28 (602112)
I0403 15:06:33.981542 11752 net.cpp:156] Memory required for data: 727352352
I0403 15:06:33.981562 11752 layer_factory.hpp:77] Creating layer inception_3b/relu_5x5_reduce
I0403 15:06:33.981585 11752 net.cpp:91] Creating Layer inception_3b/relu_5x5_reduce
I0403 15:06:33.981602 11752 net.cpp:425] inception_3b/relu_5x5_reduce <- inception_3b/5x5_reduce
I0403 15:06:33.981621 11752 net.cpp:386] inception_3b/relu_5x5_reduce -> inception_3b/5x5_reduce (in-place)
I0403 15:06:33.981814 11752 net.cpp:141] Setting up inception_3b/relu_5x5_reduce
I0403 15:06:33.981842 11752 net.cpp:148] Top shape: 24 32 28 28 (602112)
I0403 15:06:33.981856 11752 net.cpp:156] Memory required for data: 729760800
I0403 15:06:33.981871 11752 layer_factory.hpp:77] Creating layer inception_3b/5x5
I0403 15:06:33.981897 11752 net.cpp:91] Creating Layer inception_3b/5x5
I0403 15:06:33.981915 11752 net.cpp:425] inception_3b/5x5 <- inception_3b/5x5_reduce
I0403 15:06:33.981935 11752 net.cpp:399] inception_3b/5x5 -> inception_3b/5x5
I0403 15:06:33.983958 11752 net.cpp:141] Setting up inception_3b/5x5
I0403 15:06:33.983990 11752 net.cpp:148] Top shape: 24 96 28 28 (1806336)
I0403 15:06:33.984009 11752 net.cpp:156] Memory required for data: 736986144
I0403 15:06:33.984028 11752 layer_factory.hpp:77] Creating layer inception_3b/relu_5x5
I0403 15:06:33.984047 11752 net.cpp:91] Creating Layer inception_3b/relu_5x5
I0403 15:06:33.984066 11752 net.cpp:425] inception_3b/relu_5x5 <- inception_3b/5x5
I0403 15:06:33.984086 11752 net.cpp:386] inception_3b/relu_5x5 -> inception_3b/5x5 (in-place)
I0403 15:06:33.984288 11752 net.cpp:141] Setting up inception_3b/relu_5x5
I0403 15:06:33.984315 11752 net.cpp:148] Top shape: 24 96 28 28 (1806336)
I0403 15:06:33.984331 11752 net.cpp:156] Memory required for data: 744211488
I0403 15:06:33.984349 11752 layer_factory.hpp:77] Creating layer inception_3b/pool
I0403 15:06:33.984366 11752 net.cpp:91] Creating Layer inception_3b/pool
I0403 15:06:33.984391 11752 net.cpp:425] inception_3b/pool <- inception_3a/output_inception_3a/output_0_split_3
I0403 15:06:33.984412 11752 net.cpp:399] inception_3b/pool -> inception_3b/pool
I0403 15:06:33.984472 11752 net.cpp:141] Setting up inception_3b/pool
I0403 15:06:33.984496 11752 net.cpp:148] Top shape: 24 256 28 28 (4816896)
I0403 15:06:33.984513 11752 net.cpp:156] Memory required for data: 763479072
I0403 15:06:33.984527 11752 layer_factory.hpp:77] Creating layer inception_3b/pool_proj
I0403 15:06:33.984552 11752 net.cpp:91] Creating Layer inception_3b/pool_proj
I0403 15:06:33.984571 11752 net.cpp:425] inception_3b/pool_proj <- inception_3b/pool
I0403 15:06:33.984593 11752 net.cpp:399] inception_3b/pool_proj -> inception_3b/pool_proj
I0403 15:06:33.985677 11752 net.cpp:141] Setting up inception_3b/pool_proj
I0403 15:06:33.985708 11752 net.cpp:148] Top shape: 24 64 28 28 (1204224)
I0403 15:06:33.985724 11752 net.cpp:156] Memory required for data: 768295968
I0403 15:06:33.985745 11752 layer_factory.hpp:77] Creating layer inception_3b/relu_pool_proj
I0403 15:06:33.985767 11752 net.cpp:91] Creating Layer inception_3b/relu_pool_proj
I0403 15:06:33.985786 11752 net.cpp:425] inception_3b/relu_pool_proj <- inception_3b/pool_proj
I0403 15:06:33.985805 11752 net.cpp:386] inception_3b/relu_pool_proj -> inception_3b/pool_proj (in-place)
I0403 15:06:33.986213 11752 net.cpp:141] Setting up inception_3b/relu_pool_proj
I0403 15:06:33.986243 11752 net.cpp:148] Top shape: 24 64 28 28 (1204224)
I0403 15:06:33.986258 11752 net.cpp:156] Memory required for data: 773112864
I0403 15:06:33.986275 11752 layer_factory.hpp:77] Creating layer inception_3b/output
I0403 15:06:33.986296 11752 net.cpp:91] Creating Layer inception_3b/output
I0403 15:06:33.986315 11752 net.cpp:425] inception_3b/output <- inception_3b/1x1
I0403 15:06:33.986331 11752 net.cpp:425] inception_3b/output <- inception_3b/3x3
I0403 15:06:33.986348 11752 net.cpp:425] inception_3b/output <- inception_3b/5x5
I0403 15:06:33.986366 11752 net.cpp:425] inception_3b/output <- inception_3b/pool_proj
I0403 15:06:33.986384 11752 net.cpp:399] inception_3b/output -> inception_3b/output
I0403 15:06:33.986433 11752 net.cpp:141] Setting up inception_3b/output
I0403 15:06:33.986456 11752 net.cpp:148] Top shape: 24 480 28 28 (9031680)
I0403 15:06:33.986471 11752 net.cpp:156] Memory required for data: 809239584
I0403 15:06:33.986486 11752 layer_factory.hpp:77] Creating layer pool3/3x3_s2
I0403 15:06:33.986505 11752 net.cpp:91] Creating Layer pool3/3x3_s2
I0403 15:06:33.986522 11752 net.cpp:425] pool3/3x3_s2 <- inception_3b/output
I0403 15:06:33.986562 11752 net.cpp:399] pool3/3x3_s2 -> pool3/3x3_s2
I0403 15:06:33.986626 11752 net.cpp:141] Setting up pool3/3x3_s2
I0403 15:06:33.986656 11752 net.cpp:148] Top shape: 24 480 14 14 (2257920)
I0403 15:06:33.986672 11752 net.cpp:156] Memory required for data: 818271264
I0403 15:06:33.986688 11752 layer_factory.hpp:77] Creating layer pool3/3x3_s2_pool3/3x3_s2_0_split
I0403 15:06:33.986706 11752 net.cpp:91] Creating Layer pool3/3x3_s2_pool3/3x3_s2_0_split
I0403 15:06:33.986723 11752 net.cpp:425] pool3/3x3_s2_pool3/3x3_s2_0_split <- pool3/3x3_s2
I0403 15:06:33.986742 11752 net.cpp:399] pool3/3x3_s2_pool3/3x3_s2_0_split -> pool3/3x3_s2_pool3/3x3_s2_0_split_0
I0403 15:06:33.986765 11752 net.cpp:399] pool3/3x3_s2_pool3/3x3_s2_0_split -> pool3/3x3_s2_pool3/3x3_s2_0_split_1
I0403 15:06:33.986788 11752 net.cpp:399] pool3/3x3_s2_pool3/3x3_s2_0_split -> pool3/3x3_s2_pool3/3x3_s2_0_split_2
I0403 15:06:33.986809 11752 net.cpp:399] pool3/3x3_s2_pool3/3x3_s2_0_split -> pool3/3x3_s2_pool3/3x3_s2_0_split_3
I0403 15:06:33.986888 11752 net.cpp:141] Setting up pool3/3x3_s2_pool3/3x3_s2_0_split
I0403 15:06:33.986913 11752 net.cpp:148] Top shape: 24 480 14 14 (2257920)
I0403 15:06:33.986932 11752 net.cpp:148] Top shape: 24 480 14 14 (2257920)
I0403 15:06:33.986948 11752 net.cpp:148] Top shape: 24 480 14 14 (2257920)
I0403 15:06:33.986964 11752 net.cpp:148] Top shape: 24 480 14 14 (2257920)
I0403 15:06:33.986980 11752 net.cpp:156] Memory required for data: 854397984
I0403 15:06:33.986995 11752 layer_factory.hpp:77] Creating layer inception_4a/1x1
I0403 15:06:33.987020 11752 net.cpp:91] Creating Layer inception_4a/1x1
I0403 15:06:33.987038 11752 net.cpp:425] inception_4a/1x1 <- pool3/3x3_s2_pool3/3x3_s2_0_split_0
I0403 15:06:33.987061 11752 net.cpp:399] inception_4a/1x1 -> inception_4a/1x1
I0403 15:06:33.988719 11752 net.cpp:141] Setting up inception_4a/1x1
I0403 15:06:33.988751 11752 net.cpp:148] Top shape: 24 192 14 14 (903168)
I0403 15:06:33.988770 11752 net.cpp:156] Memory required for data: 858010656
I0403 15:06:33.988790 11752 layer_factory.hpp:77] Creating layer inception_4a/relu_1x1
I0403 15:06:33.988809 11752 net.cpp:91] Creating Layer inception_4a/relu_1x1
I0403 15:06:33.988826 11752 net.cpp:425] inception_4a/relu_1x1 <- inception_4a/1x1
I0403 15:06:33.988847 11752 net.cpp:386] inception_4a/relu_1x1 -> inception_4a/1x1 (in-place)
I0403 15:06:33.989032 11752 net.cpp:141] Setting up inception_4a/relu_1x1
I0403 15:06:33.989058 11752 net.cpp:148] Top shape: 24 192 14 14 (903168)
I0403 15:06:33.989073 11752 net.cpp:156] Memory required for data: 861623328
I0403 15:06:33.989087 11752 layer_factory.hpp:77] Creating layer inception_4a/3x3_reduce
I0403 15:06:33.989110 11752 net.cpp:91] Creating Layer inception_4a/3x3_reduce
I0403 15:06:33.989132 11752 net.cpp:425] inception_4a/3x3_reduce <- pool3/3x3_s2_pool3/3x3_s2_0_split_1
I0403 15:06:33.989156 11752 net.cpp:399] inception_4a/3x3_reduce -> inception_4a/3x3_reduce
I0403 15:06:33.990387 11752 net.cpp:141] Setting up inception_4a/3x3_reduce
I0403 15:06:33.990418 11752 net.cpp:148] Top shape: 24 96 14 14 (451584)
I0403 15:06:33.990437 11752 net.cpp:156] Memory required for data: 863429664
I0403 15:06:33.990459 11752 layer_factory.hpp:77] Creating layer inception_4a/relu_3x3_reduce
I0403 15:06:33.990481 11752 net.cpp:91] Creating Layer inception_4a/relu_3x3_reduce
I0403 15:06:33.990499 11752 net.cpp:425] inception_4a/relu_3x3_reduce <- inception_4a/3x3_reduce
I0403 15:06:33.990517 11752 net.cpp:386] inception_4a/relu_3x3_reduce -> inception_4a/3x3_reduce (in-place)
I0403 15:06:33.990689 11752 net.cpp:141] Setting up inception_4a/relu_3x3_reduce
I0403 15:06:33.990715 11752 net.cpp:148] Top shape: 24 96 14 14 (451584)
I0403 15:06:33.990731 11752 net.cpp:156] Memory required for data: 865236000
I0403 15:06:33.990746 11752 layer_factory.hpp:77] Creating layer inception_4a/3x3
I0403 15:06:33.990770 11752 net.cpp:91] Creating Layer inception_4a/3x3
I0403 15:06:33.990789 11752 net.cpp:425] inception_4a/3x3 <- inception_4a/3x3_reduce
I0403 15:06:33.990813 11752 net.cpp:399] inception_4a/3x3 -> inception_4a/3x3
I0403 15:06:33.993441 11752 net.cpp:141] Setting up inception_4a/3x3
I0403 15:06:33.993471 11752 net.cpp:148] Top shape: 24 208 14 14 (978432)
I0403 15:06:33.993489 11752 net.cpp:156] Memory required for data: 869149728
I0403 15:06:33.993507 11752 layer_factory.hpp:77] Creating layer inception_4a/relu_3x3
I0403 15:06:33.993525 11752 net.cpp:91] Creating Layer inception_4a/relu_3x3
I0403 15:06:33.993541 11752 net.cpp:425] inception_4a/relu_3x3 <- inception_4a/3x3
I0403 15:06:33.993561 11752 net.cpp:386] inception_4a/relu_3x3 -> inception_4a/3x3 (in-place)
I0403 15:06:33.993829 11752 net.cpp:141] Setting up inception_4a/relu_3x3
I0403 15:06:33.993857 11752 net.cpp:148] Top shape: 24 208 14 14 (978432)
I0403 15:06:33.993872 11752 net.cpp:156] Memory required for data: 873063456
I0403 15:06:33.993888 11752 layer_factory.hpp:77] Creating layer inception_4a/5x5_reduce
I0403 15:06:33.993911 11752 net.cpp:91] Creating Layer inception_4a/5x5_reduce
I0403 15:06:33.993929 11752 net.cpp:425] inception_4a/5x5_reduce <- pool3/3x3_s2_pool3/3x3_s2_0_split_2
I0403 15:06:33.993952 11752 net.cpp:399] inception_4a/5x5_reduce -> inception_4a/5x5_reduce
I0403 15:06:33.994935 11752 net.cpp:141] Setting up inception_4a/5x5_reduce
I0403 15:06:33.994962 11752 net.cpp:148] Top shape: 24 16 14 14 (75264)
I0403 15:06:33.994978 11752 net.cpp:156] Memory required for data: 873364512
I0403 15:06:33.994997 11752 layer_factory.hpp:77] Creating layer inception_4a/relu_5x5_reduce
I0403 15:06:33.995018 11752 net.cpp:91] Creating Layer inception_4a/relu_5x5_reduce
I0403 15:06:33.995035 11752 net.cpp:425] inception_4a/relu_5x5_reduce <- inception_4a/5x5_reduce
I0403 15:06:33.995054 11752 net.cpp:386] inception_4a/relu_5x5_reduce -> inception_4a/5x5_reduce (in-place)
I0403 15:06:33.995230 11752 net.cpp:141] Setting up inception_4a/relu_5x5_reduce
I0403 15:06:33.995255 11752 net.cpp:148] Top shape: 24 16 14 14 (75264)
I0403 15:06:33.995270 11752 net.cpp:156] Memory required for data: 873665568
I0403 15:06:33.995285 11752 layer_factory.hpp:77] Creating layer inception_4a/5x5
I0403 15:06:33.995307 11752 net.cpp:91] Creating Layer inception_4a/5x5
I0403 15:06:33.995324 11752 net.cpp:425] inception_4a/5x5 <- inception_4a/5x5_reduce
I0403 15:06:33.995345 11752 net.cpp:399] inception_4a/5x5 -> inception_4a/5x5
I0403 15:06:33.996387 11752 net.cpp:141] Setting up inception_4a/5x5
I0403 15:06:33.996413 11752 net.cpp:148] Top shape: 24 48 14 14 (225792)
I0403 15:06:33.996428 11752 net.cpp:156] Memory required for data: 874568736
I0403 15:06:33.996446 11752 layer_factory.hpp:77] Creating layer inception_4a/relu_5x5
I0403 15:06:33.996467 11752 net.cpp:91] Creating Layer inception_4a/relu_5x5
I0403 15:06:33.996484 11752 net.cpp:425] inception_4a/relu_5x5 <- inception_4a/5x5
I0403 15:06:33.996501 11752 net.cpp:386] inception_4a/relu_5x5 -> inception_4a/5x5 (in-place)
I0403 15:06:33.996675 11752 net.cpp:141] Setting up inception_4a/relu_5x5
I0403 15:06:33.996702 11752 net.cpp:148] Top shape: 24 48 14 14 (225792)
I0403 15:06:33.996717 11752 net.cpp:156] Memory required for data: 875471904
I0403 15:06:33.996732 11752 layer_factory.hpp:77] Creating layer inception_4a/pool
I0403 15:06:33.996750 11752 net.cpp:91] Creating Layer inception_4a/pool
I0403 15:06:33.996765 11752 net.cpp:425] inception_4a/pool <- pool3/3x3_s2_pool3/3x3_s2_0_split_3
I0403 15:06:33.996784 11752 net.cpp:399] inception_4a/pool -> inception_4a/pool
I0403 15:06:33.996842 11752 net.cpp:141] Setting up inception_4a/pool
I0403 15:06:33.996865 11752 net.cpp:148] Top shape: 24 480 14 14 (2257920)
I0403 15:06:33.996881 11752 net.cpp:156] Memory required for data: 884503584
I0403 15:06:33.996896 11752 layer_factory.hpp:77] Creating layer inception_4a/pool_proj
I0403 15:06:33.996917 11752 net.cpp:91] Creating Layer inception_4a/pool_proj
I0403 15:06:33.996935 11752 net.cpp:425] inception_4a/pool_proj <- inception_4a/pool
I0403 15:06:33.996954 11752 net.cpp:399] inception_4a/pool_proj -> inception_4a/pool_proj
I0403 15:06:33.998071 11752 net.cpp:141] Setting up inception_4a/pool_proj
I0403 15:06:33.998103 11752 net.cpp:148] Top shape: 24 64 14 14 (301056)
I0403 15:06:33.998137 11752 net.cpp:156] Memory required for data: 885707808
I0403 15:06:33.998158 11752 layer_factory.hpp:77] Creating layer inception_4a/relu_pool_proj
I0403 15:06:33.998175 11752 net.cpp:91] Creating Layer inception_4a/relu_pool_proj
I0403 15:06:33.998195 11752 net.cpp:425] inception_4a/relu_pool_proj <- inception_4a/pool_proj
I0403 15:06:33.998214 11752 net.cpp:386] inception_4a/relu_pool_proj -> inception_4a/pool_proj (in-place)
I0403 15:06:33.998492 11752 net.cpp:141] Setting up inception_4a/relu_pool_proj
I0403 15:06:33.998520 11752 net.cpp:148] Top shape: 24 64 14 14 (301056)
I0403 15:06:33.998536 11752 net.cpp:156] Memory required for data: 886912032
I0403 15:06:33.998550 11752 layer_factory.hpp:77] Creating layer inception_4a/output
I0403 15:06:33.998569 11752 net.cpp:91] Creating Layer inception_4a/output
I0403 15:06:33.998584 11752 net.cpp:425] inception_4a/output <- inception_4a/1x1
I0403 15:06:33.998600 11752 net.cpp:425] inception_4a/output <- inception_4a/3x3
I0403 15:06:33.998615 11752 net.cpp:425] inception_4a/output <- inception_4a/5x5
I0403 15:06:33.998631 11752 net.cpp:425] inception_4a/output <- inception_4a/pool_proj
I0403 15:06:33.998646 11752 net.cpp:399] inception_4a/output -> inception_4a/output
I0403 15:06:33.998692 11752 net.cpp:141] Setting up inception_4a/output
I0403 15:06:33.998714 11752 net.cpp:148] Top shape: 24 512 14 14 (2408448)
I0403 15:06:33.998729 11752 net.cpp:156] Memory required for data: 896545824
I0403 15:06:33.998744 11752 layer_factory.hpp:77] Creating layer inception_4a/output_inception_4a/output_0_split
I0403 15:06:33.998764 11752 net.cpp:91] Creating Layer inception_4a/output_inception_4a/output_0_split
I0403 15:06:33.998780 11752 net.cpp:425] inception_4a/output_inception_4a/output_0_split <- inception_4a/output
I0403 15:06:33.998797 11752 net.cpp:399] inception_4a/output_inception_4a/output_0_split -> inception_4a/output_inception_4a/output_0_split_0
I0403 15:06:33.998817 11752 net.cpp:399] inception_4a/output_inception_4a/output_0_split -> inception_4a/output_inception_4a/output_0_split_1
I0403 15:06:33.998837 11752 net.cpp:399] inception_4a/output_inception_4a/output_0_split -> inception_4a/output_inception_4a/output_0_split_2
I0403 15:06:33.998858 11752 net.cpp:399] inception_4a/output_inception_4a/output_0_split -> inception_4a/output_inception_4a/output_0_split_3
I0403 15:06:33.998880 11752 net.cpp:399] inception_4a/output_inception_4a/output_0_split -> inception_4a/output_inception_4a/output_0_split_4
I0403 15:06:33.998971 11752 net.cpp:141] Setting up inception_4a/output_inception_4a/output_0_split
I0403 15:06:33.998996 11752 net.cpp:148] Top shape: 24 512 14 14 (2408448)
I0403 15:06:33.999011 11752 net.cpp:148] Top shape: 24 512 14 14 (2408448)
I0403 15:06:33.999027 11752 net.cpp:148] Top shape: 24 512 14 14 (2408448)
I0403 15:06:33.999043 11752 net.cpp:148] Top shape: 24 512 14 14 (2408448)
I0403 15:06:33.999058 11752 net.cpp:148] Top shape: 24 512 14 14 (2408448)
I0403 15:06:33.999071 11752 net.cpp:156] Memory required for data: 944714784
I0403 15:06:33.999085 11752 layer_factory.hpp:77] Creating layer loss1/ave_pool
I0403 15:06:33.999102 11752 net.cpp:91] Creating Layer loss1/ave_pool
I0403 15:06:33.999121 11752 net.cpp:425] loss1/ave_pool <- inception_4a/output_inception_4a/output_0_split_0
I0403 15:06:33.999145 11752 net.cpp:399] loss1/ave_pool -> loss1/ave_pool
I0403 15:06:33.999343 11752 net.cpp:141] Setting up loss1/ave_pool
I0403 15:06:33.999371 11752 net.cpp:148] Top shape: 24 512 4 4 (196608)
I0403 15:06:33.999387 11752 net.cpp:156] Memory required for data: 945501216
I0403 15:06:33.999402 11752 layer_factory.hpp:77] Creating layer loss1/conv
I0403 15:06:33.999423 11752 net.cpp:91] Creating Layer loss1/conv
I0403 15:06:33.999441 11752 net.cpp:425] loss1/conv <- loss1/ave_pool
I0403 15:06:33.999460 11752 net.cpp:399] loss1/conv -> loss1/conv
I0403 15:06:34.000902 11752 net.cpp:141] Setting up loss1/conv
I0403 15:06:34.000931 11752 net.cpp:148] Top shape: 24 128 4 4 (49152)
I0403 15:06:34.000962 11752 net.cpp:156] Memory required for data: 945697824
I0403 15:06:34.000982 11752 layer_factory.hpp:77] Creating layer loss1/relu_conv
I0403 15:06:34.001000 11752 net.cpp:91] Creating Layer loss1/relu_conv
I0403 15:06:34.001029 11752 net.cpp:425] loss1/relu_conv <- loss1/conv
I0403 15:06:34.001049 11752 net.cpp:386] loss1/relu_conv -> loss1/conv (in-place)
I0403 15:06:34.001358 11752 net.cpp:141] Setting up loss1/relu_conv
I0403 15:06:34.001397 11752 net.cpp:148] Top shape: 24 128 4 4 (49152)
I0403 15:06:34.001413 11752 net.cpp:156] Memory required for data: 945894432
I0403 15:06:34.001430 11752 layer_factory.hpp:77] Creating layer loss1/fc
I0403 15:06:34.001454 11752 net.cpp:91] Creating Layer loss1/fc
I0403 15:06:34.001472 11752 net.cpp:425] loss1/fc <- loss1/conv
I0403 15:06:34.001495 11752 net.cpp:399] loss1/fc -> loss1/fc
I0403 15:06:34.019297 11752 net.cpp:141] Setting up loss1/fc
I0403 15:06:34.019332 11752 net.cpp:148] Top shape: 24 1024 (24576)
I0403 15:06:34.019348 11752 net.cpp:156] Memory required for data: 945992736
I0403 15:06:34.019367 11752 layer_factory.hpp:77] Creating layer loss1/relu_fc
I0403 15:06:34.019388 11752 net.cpp:91] Creating Layer loss1/relu_fc
I0403 15:06:34.019407 11752 net.cpp:425] loss1/relu_fc <- loss1/fc
I0403 15:06:34.019424 11752 net.cpp:386] loss1/relu_fc -> loss1/fc (in-place)
I0403 15:06:34.019611 11752 net.cpp:141] Setting up loss1/relu_fc
I0403 15:06:34.019636 11752 net.cpp:148] Top shape: 24 1024 (24576)
I0403 15:06:34.019651 11752 net.cpp:156] Memory required for data: 946091040
I0403 15:06:34.019665 11752 layer_factory.hpp:77] Creating layer loss1/drop_fc
I0403 15:06:34.019692 11752 net.cpp:91] Creating Layer loss1/drop_fc
I0403 15:06:34.019711 11752 net.cpp:425] loss1/drop_fc <- loss1/fc
I0403 15:06:34.019731 11752 net.cpp:386] loss1/drop_fc -> loss1/fc (in-place)
I0403 15:06:34.019780 11752 net.cpp:141] Setting up loss1/drop_fc
I0403 15:06:34.019804 11752 net.cpp:148] Top shape: 24 1024 (24576)
I0403 15:06:34.019820 11752 net.cpp:156] Memory required for data: 946189344
I0403 15:06:34.019834 11752 layer_factory.hpp:77] Creating layer loss1/classifier_plantvillage
I0403 15:06:34.019857 11752 net.cpp:91] Creating Layer loss1/classifier_plantvillage
I0403 15:06:34.019875 11752 net.cpp:425] loss1/classifier_plantvillage <- loss1/fc
I0403 15:06:34.019896 11752 net.cpp:399] loss1/classifier_plantvillage -> loss1/classifier_plantvillage
I0403 15:06:34.020772 11752 net.cpp:141] Setting up loss1/classifier_plantvillage
I0403 15:06:34.020803 11752 net.cpp:148] Top shape: 24 38 (912)
I0403 15:06:34.020819 11752 net.cpp:156] Memory required for data: 946192992
I0403 15:06:34.020838 11752 layer_factory.hpp:77] Creating layer loss1/classifier_plantvillage_loss1/classifier_plantvillage_0_split
I0403 15:06:34.020855 11752 net.cpp:91] Creating Layer loss1/classifier_plantvillage_loss1/classifier_plantvillage_0_split
I0403 15:06:34.020871 11752 net.cpp:425] loss1/classifier_plantvillage_loss1/classifier_plantvillage_0_split <- loss1/classifier_plantvillage
I0403 15:06:34.020891 11752 net.cpp:399] loss1/classifier_plantvillage_loss1/classifier_plantvillage_0_split -> loss1/classifier_plantvillage_loss1/classifier_plantvillage_0_split_0
I0403 15:06:34.020911 11752 net.cpp:399] loss1/classifier_plantvillage_loss1/classifier_plantvillage_0_split -> loss1/classifier_plantvillage_loss1/classifier_plantvillage_0_split_1
I0403 15:06:34.020931 11752 net.cpp:399] loss1/classifier_plantvillage_loss1/classifier_plantvillage_0_split -> loss1/classifier_plantvillage_loss1/classifier_plantvillage_0_split_2
I0403 15:06:34.020997 11752 net.cpp:141] Setting up loss1/classifier_plantvillage_loss1/classifier_plantvillage_0_split
I0403 15:06:34.021019 11752 net.cpp:148] Top shape: 24 38 (912)
I0403 15:06:34.021035 11752 net.cpp:148] Top shape: 24 38 (912)
I0403 15:06:34.021050 11752 net.cpp:148] Top shape: 24 38 (912)
I0403 15:06:34.021064 11752 net.cpp:156] Memory required for data: 946203936
I0403 15:06:34.021078 11752 layer_factory.hpp:77] Creating layer inception_4b/1x1
I0403 15:06:34.021101 11752 net.cpp:91] Creating Layer inception_4b/1x1
I0403 15:06:34.021138 11752 net.cpp:425] inception_4b/1x1 <- inception_4a/output_inception_4a/output_0_split_1
I0403 15:06:34.021159 11752 net.cpp:399] inception_4b/1x1 -> inception_4b/1x1
I0403 15:06:34.022752 11752 net.cpp:141] Setting up inception_4b/1x1
I0403 15:06:34.022779 11752 net.cpp:148] Top shape: 24 160 14 14 (752640)
I0403 15:06:34.022795 11752 net.cpp:156] Memory required for data: 949214496
I0403 15:06:34.022814 11752 layer_factory.hpp:77] Creating layer inception_4b/relu_1x1
I0403 15:06:34.022833 11752 net.cpp:91] Creating Layer inception_4b/relu_1x1
I0403 15:06:34.022850 11752 net.cpp:425] inception_4b/relu_1x1 <- inception_4b/1x1
I0403 15:06:34.022867 11752 net.cpp:386] inception_4b/relu_1x1 -> inception_4b/1x1 (in-place)
I0403 15:06:34.023041 11752 net.cpp:141] Setting up inception_4b/relu_1x1
I0403 15:06:34.023066 11752 net.cpp:148] Top shape: 24 160 14 14 (752640)
I0403 15:06:34.023080 11752 net.cpp:156] Memory required for data: 952225056
I0403 15:06:34.023094 11752 layer_factory.hpp:77] Creating layer inception_4b/3x3_reduce
I0403 15:06:34.023116 11752 net.cpp:91] Creating Layer inception_4b/3x3_reduce
I0403 15:06:34.023145 11752 net.cpp:425] inception_4b/3x3_reduce <- inception_4a/output_inception_4a/output_0_split_2
I0403 15:06:34.023170 11752 net.cpp:399] inception_4b/3x3_reduce -> inception_4b/3x3_reduce
I0403 15:06:34.024480 11752 net.cpp:141] Setting up inception_4b/3x3_reduce
I0403 15:06:34.024508 11752 net.cpp:148] Top shape: 24 112 14 14 (526848)
I0403 15:06:34.024523 11752 net.cpp:156] Memory required for data: 954332448
I0403 15:06:34.024541 11752 layer_factory.hpp:77] Creating layer inception_4b/relu_3x3_reduce
I0403 15:06:34.024562 11752 net.cpp:91] Creating Layer inception_4b/relu_3x3_reduce
I0403 15:06:34.024580 11752 net.cpp:425] inception_4b/relu_3x3_reduce <- inception_4b/3x3_reduce
I0403 15:06:34.024598 11752 net.cpp:386] inception_4b/relu_3x3_reduce -> inception_4b/3x3_reduce (in-place)
I0403 15:06:34.024873 11752 net.cpp:141] Setting up inception_4b/relu_3x3_reduce
I0403 15:06:34.024899 11752 net.cpp:148] Top shape: 24 112 14 14 (526848)
I0403 15:06:34.024914 11752 net.cpp:156] Memory required for data: 956439840
I0403 15:06:34.024929 11752 layer_factory.hpp:77] Creating layer inception_4b/3x3
I0403 15:06:34.024950 11752 net.cpp:91] Creating Layer inception_4b/3x3
I0403 15:06:34.024968 11752 net.cpp:425] inception_4b/3x3 <- inception_4b/3x3_reduce
I0403 15:06:34.024992 11752 net.cpp:399] inception_4b/3x3 -> inception_4b/3x3
I0403 15:06:34.027875 11752 net.cpp:141] Setting up inception_4b/3x3
I0403 15:06:34.027907 11752 net.cpp:148] Top shape: 24 224 14 14 (1053696)
I0403 15:06:34.027925 11752 net.cpp:156] Memory required for data: 960654624
I0403 15:06:34.027942 11752 layer_factory.hpp:77] Creating layer inception_4b/relu_3x3
I0403 15:06:34.027961 11752 net.cpp:91] Creating Layer inception_4b/relu_3x3
I0403 15:06:34.027977 11752 net.cpp:425] inception_4b/relu_3x3 <- inception_4b/3x3
I0403 15:06:34.027997 11752 net.cpp:386] inception_4b/relu_3x3 -> inception_4b/3x3 (in-place)
I0403 15:06:34.028178 11752 net.cpp:141] Setting up inception_4b/relu_3x3
I0403 15:06:34.028204 11752 net.cpp:148] Top shape: 24 224 14 14 (1053696)
I0403 15:06:34.028218 11752 net.cpp:156] Memory required for data: 964869408
I0403 15:06:34.028233 11752 layer_factory.hpp:77] Creating layer inception_4b/5x5_reduce
I0403 15:06:34.028254 11752 net.cpp:91] Creating Layer inception_4b/5x5_reduce
I0403 15:06:34.028271 11752 net.cpp:425] inception_4b/5x5_reduce <- inception_4a/output_inception_4a/output_0_split_3
I0403 15:06:34.028295 11752 net.cpp:399] inception_4b/5x5_reduce -> inception_4b/5x5_reduce
I0403 15:06:34.029350 11752 net.cpp:141] Setting up inception_4b/5x5_reduce
I0403 15:06:34.029378 11752 net.cpp:148] Top shape: 24 24 14 14 (112896)
I0403 15:06:34.029394 11752 net.cpp:156] Memory required for data: 965320992
I0403 15:06:34.029412 11752 layer_factory.hpp:77] Creating layer inception_4b/relu_5x5_reduce
I0403 15:06:34.029434 11752 net.cpp:91] Creating Layer inception_4b/relu_5x5_reduce
I0403 15:06:34.029465 11752 net.cpp:425] inception_4b/relu_5x5_reduce <- inception_4b/5x5_reduce
I0403 15:06:34.029484 11752 net.cpp:386] inception_4b/relu_5x5_reduce -> inception_4b/5x5_reduce (in-place)
I0403 15:06:34.029662 11752 net.cpp:141] Setting up inception_4b/relu_5x5_reduce
I0403 15:06:34.029690 11752 net.cpp:148] Top shape: 24 24 14 14 (112896)
I0403 15:06:34.029706 11752 net.cpp:156] Memory required for data: 965772576
I0403 15:06:34.029721 11752 layer_factory.hpp:77] Creating layer inception_4b/5x5
I0403 15:06:34.029739 11752 net.cpp:91] Creating Layer inception_4b/5x5
I0403 15:06:34.029757 11752 net.cpp:425] inception_4b/5x5 <- inception_4b/5x5_reduce
I0403 15:06:34.029778 11752 net.cpp:399] inception_4b/5x5 -> inception_4b/5x5
I0403 15:06:34.030971 11752 net.cpp:141] Setting up inception_4b/5x5
I0403 15:06:34.030997 11752 net.cpp:148] Top shape: 24 64 14 14 (301056)
I0403 15:06:34.031013 11752 net.cpp:156] Memory required for data: 966976800
I0403 15:06:34.031031 11752 layer_factory.hpp:77] Creating layer inception_4b/relu_5x5
I0403 15:06:34.031051 11752 net.cpp:91] Creating Layer inception_4b/relu_5x5
I0403 15:06:34.031069 11752 net.cpp:425] inception_4b/relu_5x5 <- inception_4b/5x5
I0403 15:06:34.031087 11752 net.cpp:386] inception_4b/relu_5x5 -> inception_4b/5x5 (in-place)
I0403 15:06:34.031373 11752 net.cpp:141] Setting up inception_4b/relu_5x5
I0403 15:06:34.031399 11752 net.cpp:148] Top shape: 24 64 14 14 (301056)
I0403 15:06:34.031414 11752 net.cpp:156] Memory required for data: 968181024
I0403 15:06:34.031429 11752 layer_factory.hpp:77] Creating layer inception_4b/pool
I0403 15:06:34.031446 11752 net.cpp:91] Creating Layer inception_4b/pool
I0403 15:06:34.031463 11752 net.cpp:425] inception_4b/pool <- inception_4a/output_inception_4a/output_0_split_4
I0403 15:06:34.031484 11752 net.cpp:399] inception_4b/pool -> inception_4b/pool
I0403 15:06:34.031546 11752 net.cpp:141] Setting up inception_4b/pool
I0403 15:06:34.031572 11752 net.cpp:148] Top shape: 24 512 14 14 (2408448)
I0403 15:06:34.031587 11752 net.cpp:156] Memory required for data: 977814816
I0403 15:06:34.031604 11752 layer_factory.hpp:77] Creating layer inception_4b/pool_proj
I0403 15:06:34.031625 11752 net.cpp:91] Creating Layer inception_4b/pool_proj
I0403 15:06:34.031642 11752 net.cpp:425] inception_4b/pool_proj <- inception_4b/pool
I0403 15:06:34.031661 11752 net.cpp:399] inception_4b/pool_proj -> inception_4b/pool_proj
I0403 15:06:34.032829 11752 net.cpp:141] Setting up inception_4b/pool_proj
I0403 15:06:34.032855 11752 net.cpp:148] Top shape: 24 64 14 14 (301056)
I0403 15:06:34.032871 11752 net.cpp:156] Memory required for data: 979019040
I0403 15:06:34.032891 11752 layer_factory.hpp:77] Creating layer inception_4b/relu_pool_proj
I0403 15:06:34.032910 11752 net.cpp:91] Creating Layer inception_4b/relu_pool_proj
I0403 15:06:34.032927 11752 net.cpp:425] inception_4b/relu_pool_proj <- inception_4b/pool_proj
I0403 15:06:34.032944 11752 net.cpp:386] inception_4b/relu_pool_proj -> inception_4b/pool_proj (in-place)
I0403 15:06:34.033145 11752 net.cpp:141] Setting up inception_4b/relu_pool_proj
I0403 15:06:34.033171 11752 net.cpp:148] Top shape: 24 64 14 14 (301056)
I0403 15:06:34.033187 11752 net.cpp:156] Memory required for data: 980223264
I0403 15:06:34.033203 11752 layer_factory.hpp:77] Creating layer inception_4b/output
I0403 15:06:34.033223 11752 net.cpp:91] Creating Layer inception_4b/output
I0403 15:06:34.033241 11752 net.cpp:425] inception_4b/output <- inception_4b/1x1
I0403 15:06:34.033257 11752 net.cpp:425] inception_4b/output <- inception_4b/3x3
I0403 15:06:34.033272 11752 net.cpp:425] inception_4b/output <- inception_4b/5x5
I0403 15:06:34.033289 11752 net.cpp:425] inception_4b/output <- inception_4b/pool_proj
I0403 15:06:34.033306 11752 net.cpp:399] inception_4b/output -> inception_4b/output
I0403 15:06:34.033354 11752 net.cpp:141] Setting up inception_4b/output
I0403 15:06:34.033378 11752 net.cpp:148] Top shape: 24 512 14 14 (2408448)
I0403 15:06:34.033392 11752 net.cpp:156] Memory required for data: 989857056
I0403 15:06:34.033434 11752 layer_factory.hpp:77] Creating layer inception_4b/output_inception_4b/output_0_split
I0403 15:06:34.033453 11752 net.cpp:91] Creating Layer inception_4b/output_inception_4b/output_0_split
I0403 15:06:34.033469 11752 net.cpp:425] inception_4b/output_inception_4b/output_0_split <- inception_4b/output
I0403 15:06:34.033488 11752 net.cpp:399] inception_4b/output_inception_4b/output_0_split -> inception_4b/output_inception_4b/output_0_split_0
I0403 15:06:34.033510 11752 net.cpp:399] inception_4b/output_inception_4b/output_0_split -> inception_4b/output_inception_4b/output_0_split_1
I0403 15:06:34.033530 11752 net.cpp:399] inception_4b/output_inception_4b/output_0_split -> inception_4b/output_inception_4b/output_0_split_2
I0403 15:06:34.033550 11752 net.cpp:399] inception_4b/output_inception_4b/output_0_split -> inception_4b/output_inception_4b/output_0_split_3
I0403 15:06:34.033634 11752 net.cpp:141] Setting up inception_4b/output_inception_4b/output_0_split
I0403 15:06:34.033659 11752 net.cpp:148] Top shape: 24 512 14 14 (2408448)
I0403 15:06:34.033677 11752 net.cpp:148] Top shape: 24 512 14 14 (2408448)
I0403 15:06:34.033691 11752 net.cpp:148] Top shape: 24 512 14 14 (2408448)
I0403 15:06:34.033707 11752 net.cpp:148] Top shape: 24 512 14 14 (2408448)
I0403 15:06:34.033720 11752 net.cpp:156] Memory required for data: 1028392224
I0403 15:06:34.033735 11752 layer_factory.hpp:77] Creating layer inception_4c/1x1
I0403 15:06:34.033756 11752 net.cpp:91] Creating Layer inception_4c/1x1
I0403 15:06:34.033774 11752 net.cpp:425] inception_4c/1x1 <- inception_4b/output_inception_4b/output_0_split_0
I0403 15:06:34.033794 11752 net.cpp:399] inception_4c/1x1 -> inception_4c/1x1
I0403 15:06:34.035187 11752 net.cpp:141] Setting up inception_4c/1x1
I0403 15:06:34.035215 11752 net.cpp:148] Top shape: 24 128 14 14 (602112)
I0403 15:06:34.035231 11752 net.cpp:156] Memory required for data: 1030800672
I0403 15:06:34.035249 11752 layer_factory.hpp:77] Creating layer inception_4c/relu_1x1
I0403 15:06:34.035270 11752 net.cpp:91] Creating Layer inception_4c/relu_1x1
I0403 15:06:34.035286 11752 net.cpp:425] inception_4c/relu_1x1 <- inception_4c/1x1
I0403 15:06:34.035303 11752 net.cpp:386] inception_4c/relu_1x1 -> inception_4c/1x1 (in-place)
I0403 15:06:34.035478 11752 net.cpp:141] Setting up inception_4c/relu_1x1
I0403 15:06:34.035503 11752 net.cpp:148] Top shape: 24 128 14 14 (602112)
I0403 15:06:34.035517 11752 net.cpp:156] Memory required for data: 1033209120
I0403 15:06:34.035533 11752 layer_factory.hpp:77] Creating layer inception_4c/3x3_reduce
I0403 15:06:34.035554 11752 net.cpp:91] Creating Layer inception_4c/3x3_reduce
I0403 15:06:34.035573 11752 net.cpp:425] inception_4c/3x3_reduce <- inception_4b/output_inception_4b/output_0_split_1
I0403 15:06:34.035596 11752 net.cpp:399] inception_4c/3x3_reduce -> inception_4c/3x3_reduce
I0403 15:06:34.037474 11752 net.cpp:141] Setting up inception_4c/3x3_reduce
I0403 15:06:34.037502 11752 net.cpp:148] Top shape: 24 128 14 14 (602112)
I0403 15:06:34.037518 11752 net.cpp:156] Memory required for data: 1035617568
I0403 15:06:34.037536 11752 layer_factory.hpp:77] Creating layer inception_4c/relu_3x3_reduce
I0403 15:06:34.037554 11752 net.cpp:91] Creating Layer inception_4c/relu_3x3_reduce
I0403 15:06:34.037570 11752 net.cpp:425] inception_4c/relu_3x3_reduce <- inception_4c/3x3_reduce
I0403 15:06:34.037590 11752 net.cpp:386] inception_4c/relu_3x3_reduce -> inception_4c/3x3_reduce (in-place)
I0403 15:06:34.037870 11752 net.cpp:141] Setting up inception_4c/relu_3x3_reduce
I0403 15:06:34.037896 11752 net.cpp:148] Top shape: 24 128 14 14 (602112)
I0403 15:06:34.037911 11752 net.cpp:156] Memory required for data: 1038026016
I0403 15:06:34.037926 11752 layer_factory.hpp:77] Creating layer inception_4c/3x3
I0403 15:06:34.037948 11752 net.cpp:91] Creating Layer inception_4c/3x3
I0403 15:06:34.037967 11752 net.cpp:425] inception_4c/3x3 <- inception_4c/3x3_reduce
I0403 15:06:34.037988 11752 net.cpp:399] inception_4c/3x3 -> inception_4c/3x3
I0403 15:06:34.041474 11752 net.cpp:141] Setting up inception_4c/3x3
I0403 15:06:34.041515 11752 net.cpp:148] Top shape: 24 256 14 14 (1204224)
I0403 15:06:34.041532 11752 net.cpp:156] Memory required for data: 1042842912
I0403 15:06:34.041563 11752 layer_factory.hpp:77] Creating layer inception_4c/relu_3x3
I0403 15:06:34.041586 11752 net.cpp:91] Creating Layer inception_4c/relu_3x3
I0403 15:06:34.041604 11752 net.cpp:425] inception_4c/relu_3x3 <- inception_4c/3x3
I0403 15:06:34.041621 11752 net.cpp:386] inception_4c/relu_3x3 -> inception_4c/3x3 (in-place)
I0403 15:06:34.041795 11752 net.cpp:141] Setting up inception_4c/relu_3x3
I0403 15:06:34.041821 11752 net.cpp:148] Top shape: 24 256 14 14 (1204224)
I0403 15:06:34.041836 11752 net.cpp:156] Memory required for data: 1047659808
I0403 15:06:34.041849 11752 layer_factory.hpp:77] Creating layer inception_4c/5x5_reduce
I0403 15:06:34.041872 11752 net.cpp:91] Creating Layer inception_4c/5x5_reduce
I0403 15:06:34.041892 11752 net.cpp:425] inception_4c/5x5_reduce <- inception_4b/output_inception_4b/output_0_split_2
I0403 15:06:34.041913 11752 net.cpp:399] inception_4c/5x5_reduce -> inception_4c/5x5_reduce
I0403 15:06:34.042966 11752 net.cpp:141] Setting up inception_4c/5x5_reduce
I0403 15:06:34.042996 11752 net.cpp:148] Top shape: 24 24 14 14 (112896)
I0403 15:06:34.043012 11752 net.cpp:156] Memory required for data: 1048111392
I0403 15:06:34.043031 11752 layer_factory.hpp:77] Creating layer inception_4c/relu_5x5_reduce
I0403 15:06:34.043052 11752 net.cpp:91] Creating Layer inception_4c/relu_5x5_reduce
I0403 15:06:34.043069 11752 net.cpp:425] inception_4c/relu_5x5_reduce <- inception_4c/5x5_reduce
I0403 15:06:34.043087 11752 net.cpp:386] inception_4c/relu_5x5_reduce -> inception_4c/5x5_reduce (in-place)
I0403 15:06:34.043277 11752 net.cpp:141] Setting up inception_4c/relu_5x5_reduce
I0403 15:06:34.043303 11752 net.cpp:148] Top shape: 24 24 14 14 (112896)
I0403 15:06:34.043320 11752 net.cpp:156] Memory required for data: 1048562976
I0403 15:06:34.043336 11752 layer_factory.hpp:77] Creating layer inception_4c/5x5
I0403 15:06:34.043356 11752 net.cpp:91] Creating Layer inception_4c/5x5
I0403 15:06:34.043372 11752 net.cpp:425] inception_4c/5x5 <- inception_4c/5x5_reduce
I0403 15:06:34.043393 11752 net.cpp:399] inception_4c/5x5 -> inception_4c/5x5
I0403 15:06:34.044641 11752 net.cpp:141] Setting up inception_4c/5x5
I0403 15:06:34.044667 11752 net.cpp:148] Top shape: 24 64 14 14 (301056)
I0403 15:06:34.044683 11752 net.cpp:156] Memory required for data: 1049767200
I0403 15:06:34.044702 11752 layer_factory.hpp:77] Creating layer inception_4c/relu_5x5
I0403 15:06:34.044721 11752 net.cpp:91] Creating Layer inception_4c/relu_5x5
I0403 15:06:34.044737 11752 net.cpp:425] inception_4c/relu_5x5 <- inception_4c/5x5
I0403 15:06:34.044755 11752 net.cpp:386] inception_4c/relu_5x5 -> inception_4c/5x5 (in-place)
I0403 15:06:34.045032 11752 net.cpp:141] Setting up inception_4c/relu_5x5
I0403 15:06:34.045058 11752 net.cpp:148] Top shape: 24 64 14 14 (301056)
I0403 15:06:34.045073 11752 net.cpp:156] Memory required for data: 1050971424
I0403 15:06:34.045089 11752 layer_factory.hpp:77] Creating layer inception_4c/pool
I0403 15:06:34.045109 11752 net.cpp:91] Creating Layer inception_4c/pool
I0403 15:06:34.045130 11752 net.cpp:425] inception_4c/pool <- inception_4b/output_inception_4b/output_0_split_3
I0403 15:06:34.045150 11752 net.cpp:399] inception_4c/pool -> inception_4c/pool
I0403 15:06:34.045215 11752 net.cpp:141] Setting up inception_4c/pool
I0403 15:06:34.045239 11752 net.cpp:148] Top shape: 24 512 14 14 (2408448)
I0403 15:06:34.045253 11752 net.cpp:156] Memory required for data: 1060605216
I0403 15:06:34.045269 11752 layer_factory.hpp:77] Creating layer inception_4c/pool_proj
I0403 15:06:34.045289 11752 net.cpp:91] Creating Layer inception_4c/pool_proj
I0403 15:06:34.045307 11752 net.cpp:425] inception_4c/pool_proj <- inception_4c/pool
I0403 15:06:34.045328 11752 net.cpp:399] inception_4c/pool_proj -> inception_4c/pool_proj
I0403 15:06:34.046525 11752 net.cpp:141] Setting up inception_4c/pool_proj
I0403 15:06:34.046553 11752 net.cpp:148] Top shape: 24 64 14 14 (301056)
I0403 15:06:34.046582 11752 net.cpp:156] Memory required for data: 1061809440
I0403 15:06:34.046602 11752 layer_factory.hpp:77] Creating layer inception_4c/relu_pool_proj
I0403 15:06:34.046624 11752 net.cpp:91] Creating Layer inception_4c/relu_pool_proj
I0403 15:06:34.046641 11752 net.cpp:425] inception_4c/relu_pool_proj <- inception_4c/pool_proj
I0403 15:06:34.046658 11752 net.cpp:386] inception_4c/relu_pool_proj -> inception_4c/pool_proj (in-place)
I0403 15:06:34.046835 11752 net.cpp:141] Setting up inception_4c/relu_pool_proj
I0403 15:06:34.046860 11752 net.cpp:148] Top shape: 24 64 14 14 (301056)
I0403 15:06:34.046875 11752 net.cpp:156] Memory required for data: 1063013664
I0403 15:06:34.046891 11752 layer_factory.hpp:77] Creating layer inception_4c/output
I0403 15:06:34.046911 11752 net.cpp:91] Creating Layer inception_4c/output
I0403 15:06:34.046926 11752 net.cpp:425] inception_4c/output <- inception_4c/1x1
I0403 15:06:34.046943 11752 net.cpp:425] inception_4c/output <- inception_4c/3x3
I0403 15:06:34.046959 11752 net.cpp:425] inception_4c/output <- inception_4c/5x5
I0403 15:06:34.046975 11752 net.cpp:425] inception_4c/output <- inception_4c/pool_proj
I0403 15:06:34.046993 11752 net.cpp:399] inception_4c/output -> inception_4c/output
I0403 15:06:34.047041 11752 net.cpp:141] Setting up inception_4c/output
I0403 15:06:34.047065 11752 net.cpp:148] Top shape: 24 512 14 14 (2408448)
I0403 15:06:34.047080 11752 net.cpp:156] Memory required for data: 1072647456
I0403 15:06:34.047096 11752 layer_factory.hpp:77] Creating layer inception_4c/output_inception_4c/output_0_split
I0403 15:06:34.047112 11752 net.cpp:91] Creating Layer inception_4c/output_inception_4c/output_0_split
I0403 15:06:34.047132 11752 net.cpp:425] inception_4c/output_inception_4c/output_0_split <- inception_4c/output
I0403 15:06:34.047157 11752 net.cpp:399] inception_4c/output_inception_4c/output_0_split -> inception_4c/output_inception_4c/output_0_split_0
I0403 15:06:34.047179 11752 net.cpp:399] inception_4c/output_inception_4c/output_0_split -> inception_4c/output_inception_4c/output_0_split_1
I0403 15:06:34.047199 11752 net.cpp:399] inception_4c/output_inception_4c/output_0_split -> inception_4c/output_inception_4c/output_0_split_2
I0403 15:06:34.047219 11752 net.cpp:399] inception_4c/output_inception_4c/output_0_split -> inception_4c/output_inception_4c/output_0_split_3
I0403 15:06:34.047307 11752 net.cpp:141] Setting up inception_4c/output_inception_4c/output_0_split
I0403 15:06:34.047332 11752 net.cpp:148] Top shape: 24 512 14 14 (2408448)
I0403 15:06:34.047349 11752 net.cpp:148] Top shape: 24 512 14 14 (2408448)
I0403 15:06:34.047365 11752 net.cpp:148] Top shape: 24 512 14 14 (2408448)
I0403 15:06:34.047380 11752 net.cpp:148] Top shape: 24 512 14 14 (2408448)
I0403 15:06:34.047394 11752 net.cpp:156] Memory required for data: 1111182624
I0403 15:06:34.047408 11752 layer_factory.hpp:77] Creating layer inception_4d/1x1
I0403 15:06:34.047430 11752 net.cpp:91] Creating Layer inception_4d/1x1
I0403 15:06:34.047448 11752 net.cpp:425] inception_4d/1x1 <- inception_4c/output_inception_4c/output_0_split_0
I0403 15:06:34.047467 11752 net.cpp:399] inception_4d/1x1 -> inception_4d/1x1
I0403 15:06:34.048877 11752 net.cpp:141] Setting up inception_4d/1x1
I0403 15:06:34.048907 11752 net.cpp:148] Top shape: 24 112 14 14 (526848)
I0403 15:06:34.048925 11752 net.cpp:156] Memory required for data: 1113290016
I0403 15:06:34.048944 11752 layer_factory.hpp:77] Creating layer inception_4d/relu_1x1
I0403 15:06:34.048964 11752 net.cpp:91] Creating Layer inception_4d/relu_1x1
I0403 15:06:34.048980 11752 net.cpp:425] inception_4d/relu_1x1 <- inception_4d/1x1
I0403 15:06:34.049000 11752 net.cpp:386] inception_4d/relu_1x1 -> inception_4d/1x1 (in-place)
I0403 15:06:34.049193 11752 net.cpp:141] Setting up inception_4d/relu_1x1
I0403 15:06:34.049219 11752 net.cpp:148] Top shape: 24 112 14 14 (526848)
I0403 15:06:34.049234 11752 net.cpp:156] Memory required for data: 1115397408
I0403 15:06:34.049250 11752 layer_factory.hpp:77] Creating layer inception_4d/3x3_reduce
I0403 15:06:34.049288 11752 net.cpp:91] Creating Layer inception_4d/3x3_reduce
I0403 15:06:34.049307 11752 net.cpp:425] inception_4d/3x3_reduce <- inception_4c/output_inception_4c/output_0_split_1
I0403 15:06:34.049329 11752 net.cpp:399] inception_4d/3x3_reduce -> inception_4d/3x3_reduce
I0403 15:06:34.050843 11752 net.cpp:141] Setting up inception_4d/3x3_reduce
I0403 15:06:34.050874 11752 net.cpp:148] Top shape: 24 144 14 14 (677376)
I0403 15:06:34.050891 11752 net.cpp:156] Memory required for data: 1118106912
I0403 15:06:34.050911 11752 layer_factory.hpp:77] Creating layer inception_4d/relu_3x3_reduce
I0403 15:06:34.050930 11752 net.cpp:91] Creating Layer inception_4d/relu_3x3_reduce
I0403 15:06:34.050945 11752 net.cpp:425] inception_4d/relu_3x3_reduce <- inception_4d/3x3_reduce
I0403 15:06:34.050962 11752 net.cpp:386] inception_4d/relu_3x3_reduce -> inception_4d/3x3_reduce (in-place)
I0403 15:06:34.051255 11752 net.cpp:141] Setting up inception_4d/relu_3x3_reduce
I0403 15:06:34.051285 11752 net.cpp:148] Top shape: 24 144 14 14 (677376)
I0403 15:06:34.051301 11752 net.cpp:156] Memory required for data: 1120816416
I0403 15:06:34.051318 11752 layer_factory.hpp:77] Creating layer inception_4d/3x3
I0403 15:06:34.051344 11752 net.cpp:91] Creating Layer inception_4d/3x3
I0403 15:06:34.051363 11752 net.cpp:425] inception_4d/3x3 <- inception_4d/3x3_reduce
I0403 15:06:34.051383 11752 net.cpp:399] inception_4d/3x3 -> inception_4d/3x3
I0403 15:06:34.055640 11752 net.cpp:141] Setting up inception_4d/3x3
I0403 15:06:34.055670 11752 net.cpp:148] Top shape: 24 288 14 14 (1354752)
I0403 15:06:34.055686 11752 net.cpp:156] Memory required for data: 1126235424
I0403 15:06:34.055706 11752 layer_factory.hpp:77] Creating layer inception_4d/relu_3x3
I0403 15:06:34.055726 11752 net.cpp:91] Creating Layer inception_4d/relu_3x3
I0403 15:06:34.055742 11752 net.cpp:425] inception_4d/relu_3x3 <- inception_4d/3x3
I0403 15:06:34.055762 11752 net.cpp:386] inception_4d/relu_3x3 -> inception_4d/3x3 (in-place)
I0403 15:06:34.055950 11752 net.cpp:141] Setting up inception_4d/relu_3x3
I0403 15:06:34.055977 11752 net.cpp:148] Top shape: 24 288 14 14 (1354752)
I0403 15:06:34.055994 11752 net.cpp:156] Memory required for data: 1131654432
I0403 15:06:34.056010 11752 layer_factory.hpp:77] Creating layer inception_4d/5x5_reduce
I0403 15:06:34.056032 11752 net.cpp:91] Creating Layer inception_4d/5x5_reduce
I0403 15:06:34.056052 11752 net.cpp:425] inception_4d/5x5_reduce <- inception_4c/output_inception_4c/output_0_split_2
I0403 15:06:34.056073 11752 net.cpp:399] inception_4d/5x5_reduce -> inception_4d/5x5_reduce
I0403 15:06:34.057224 11752 net.cpp:141] Setting up inception_4d/5x5_reduce
I0403 15:06:34.057255 11752 net.cpp:148] Top shape: 24 32 14 14 (150528)
I0403 15:06:34.057271 11752 net.cpp:156] Memory required for data: 1132256544
I0403 15:06:34.057291 11752 layer_factory.hpp:77] Creating layer inception_4d/relu_5x5_reduce
I0403 15:06:34.057309 11752 net.cpp:91] Creating Layer inception_4d/relu_5x5_reduce
I0403 15:06:34.057325 11752 net.cpp:425] inception_4d/relu_5x5_reduce <- inception_4d/5x5_reduce
I0403 15:06:34.057345 11752 net.cpp:386] inception_4d/relu_5x5_reduce -> inception_4d/5x5_reduce (in-place)
I0403 15:06:34.057533 11752 net.cpp:141] Setting up inception_4d/relu_5x5_reduce
I0403 15:06:34.057560 11752 net.cpp:148] Top shape: 24 32 14 14 (150528)
I0403 15:06:34.057576 11752 net.cpp:156] Memory required for data: 1132858656
I0403 15:06:34.057591 11752 layer_factory.hpp:77] Creating layer inception_4d/5x5
I0403 15:06:34.057613 11752 net.cpp:91] Creating Layer inception_4d/5x5
I0403 15:06:34.057632 11752 net.cpp:425] inception_4d/5x5 <- inception_4d/5x5_reduce
I0403 15:06:34.057654 11752 net.cpp:399] inception_4d/5x5 -> inception_4d/5x5
I0403 15:06:34.059130 11752 net.cpp:141] Setting up inception_4d/5x5
I0403 15:06:34.059159 11752 net.cpp:148] Top shape: 24 64 14 14 (301056)
I0403 15:06:34.059175 11752 net.cpp:156] Memory required for data: 1134062880
I0403 15:06:34.059195 11752 layer_factory.hpp:77] Creating layer inception_4d/relu_5x5
I0403 15:06:34.059231 11752 net.cpp:91] Creating Layer inception_4d/relu_5x5
I0403 15:06:34.059250 11752 net.cpp:425] inception_4d/relu_5x5 <- inception_4d/5x5
I0403 15:06:34.059268 11752 net.cpp:386] inception_4d/relu_5x5 -> inception_4d/5x5 (in-place)
I0403 15:06:34.059576 11752 net.cpp:141] Setting up inception_4d/relu_5x5
I0403 15:06:34.059603 11752 net.cpp:148] Top shape: 24 64 14 14 (301056)
I0403 15:06:34.059619 11752 net.cpp:156] Memory required for data: 1135267104
I0403 15:06:34.059634 11752 layer_factory.hpp:77] Creating layer inception_4d/pool
I0403 15:06:34.059654 11752 net.cpp:91] Creating Layer inception_4d/pool
I0403 15:06:34.059672 11752 net.cpp:425] inception_4d/pool <- inception_4c/output_inception_4c/output_0_split_3
I0403 15:06:34.059690 11752 net.cpp:399] inception_4d/pool -> inception_4d/pool
I0403 15:06:34.059761 11752 net.cpp:141] Setting up inception_4d/pool
I0403 15:06:34.059785 11752 net.cpp:148] Top shape: 24 512 14 14 (2408448)
I0403 15:06:34.059800 11752 net.cpp:156] Memory required for data: 1144900896
I0403 15:06:34.059815 11752 layer_factory.hpp:77] Creating layer inception_4d/pool_proj
I0403 15:06:34.059837 11752 net.cpp:91] Creating Layer inception_4d/pool_proj
I0403 15:06:34.059856 11752 net.cpp:425] inception_4d/pool_proj <- inception_4d/pool
I0403 15:06:34.059877 11752 net.cpp:399] inception_4d/pool_proj -> inception_4d/pool_proj
I0403 15:06:34.061676 11752 net.cpp:141] Setting up inception_4d/pool_proj
I0403 15:06:34.061707 11752 net.cpp:148] Top shape: 24 64 14 14 (301056)
I0403 15:06:34.061723 11752 net.cpp:156] Memory required for data: 1146105120
I0403 15:06:34.061743 11752 layer_factory.hpp:77] Creating layer inception_4d/relu_pool_proj
I0403 15:06:34.061761 11752 net.cpp:91] Creating Layer inception_4d/relu_pool_proj
I0403 15:06:34.061779 11752 net.cpp:425] inception_4d/relu_pool_proj <- inception_4d/pool_proj
I0403 15:06:34.061799 11752 net.cpp:386] inception_4d/relu_pool_proj -> inception_4d/pool_proj (in-place)
I0403 15:06:34.061986 11752 net.cpp:141] Setting up inception_4d/relu_pool_proj
I0403 15:06:34.062013 11752 net.cpp:148] Top shape: 24 64 14 14 (301056)
I0403 15:06:34.062028 11752 net.cpp:156] Memory required for data: 1147309344
I0403 15:06:34.062042 11752 layer_factory.hpp:77] Creating layer inception_4d/output
I0403 15:06:34.062062 11752 net.cpp:91] Creating Layer inception_4d/output
I0403 15:06:34.062079 11752 net.cpp:425] inception_4d/output <- inception_4d/1x1
I0403 15:06:34.062096 11752 net.cpp:425] inception_4d/output <- inception_4d/3x3
I0403 15:06:34.062114 11752 net.cpp:425] inception_4d/output <- inception_4d/5x5
I0403 15:06:34.062135 11752 net.cpp:425] inception_4d/output <- inception_4d/pool_proj
I0403 15:06:34.062153 11752 net.cpp:399] inception_4d/output -> inception_4d/output
I0403 15:06:34.062201 11752 net.cpp:141] Setting up inception_4d/output
I0403 15:06:34.062228 11752 net.cpp:148] Top shape: 24 528 14 14 (2483712)
I0403 15:06:34.062245 11752 net.cpp:156] Memory required for data: 1157244192
I0403 15:06:34.062261 11752 layer_factory.hpp:77] Creating layer inception_4d/output_inception_4d/output_0_split
I0403 15:06:34.062279 11752 net.cpp:91] Creating Layer inception_4d/output_inception_4d/output_0_split
I0403 15:06:34.062295 11752 net.cpp:425] inception_4d/output_inception_4d/output_0_split <- inception_4d/output
I0403 15:06:34.062314 11752 net.cpp:399] inception_4d/output_inception_4d/output_0_split -> inception_4d/output_inception_4d/output_0_split_0
I0403 15:06:34.062336 11752 net.cpp:399] inception_4d/output_inception_4d/output_0_split -> inception_4d/output_inception_4d/output_0_split_1
I0403 15:06:34.062357 11752 net.cpp:399] inception_4d/output_inception_4d/output_0_split -> inception_4d/output_inception_4d/output_0_split_2
I0403 15:06:34.062379 11752 net.cpp:399] inception_4d/output_inception_4d/output_0_split -> inception_4d/output_inception_4d/output_0_split_3
I0403 15:06:34.062398 11752 net.cpp:399] inception_4d/output_inception_4d/output_0_split -> inception_4d/output_inception_4d/output_0_split_4
I0403 15:06:34.062504 11752 net.cpp:141] Setting up inception_4d/output_inception_4d/output_0_split
I0403 15:06:34.062541 11752 net.cpp:148] Top shape: 24 528 14 14 (2483712)
I0403 15:06:34.062561 11752 net.cpp:148] Top shape: 24 528 14 14 (2483712)
I0403 15:06:34.062578 11752 net.cpp:148] Top shape: 24 528 14 14 (2483712)
I0403 15:06:34.062595 11752 net.cpp:148] Top shape: 24 528 14 14 (2483712)
I0403 15:06:34.062613 11752 net.cpp:148] Top shape: 24 528 14 14 (2483712)
I0403 15:06:34.062625 11752 net.cpp:156] Memory required for data: 1206918432
I0403 15:06:34.062640 11752 layer_factory.hpp:77] Creating layer loss2/ave_pool
I0403 15:06:34.062659 11752 net.cpp:91] Creating Layer loss2/ave_pool
I0403 15:06:34.062674 11752 net.cpp:425] loss2/ave_pool <- inception_4d/output_inception_4d/output_0_split_0
I0403 15:06:34.062695 11752 net.cpp:399] loss2/ave_pool -> loss2/ave_pool
I0403 15:06:34.063017 11752 net.cpp:141] Setting up loss2/ave_pool
I0403 15:06:34.063045 11752 net.cpp:148] Top shape: 24 528 4 4 (202752)
I0403 15:06:34.063060 11752 net.cpp:156] Memory required for data: 1207729440
I0403 15:06:34.063076 11752 layer_factory.hpp:77] Creating layer loss2/conv
I0403 15:06:34.063099 11752 net.cpp:91] Creating Layer loss2/conv
I0403 15:06:34.063117 11752 net.cpp:425] loss2/conv <- loss2/ave_pool
I0403 15:06:34.063153 11752 net.cpp:399] loss2/conv -> loss2/conv
I0403 15:06:34.065043 11752 net.cpp:141] Setting up loss2/conv
I0403 15:06:34.065073 11752 net.cpp:148] Top shape: 24 128 4 4 (49152)
I0403 15:06:34.065088 11752 net.cpp:156] Memory required for data: 1207926048
I0403 15:06:34.065107 11752 layer_factory.hpp:77] Creating layer loss2/relu_conv
I0403 15:06:34.065132 11752 net.cpp:91] Creating Layer loss2/relu_conv
I0403 15:06:34.065152 11752 net.cpp:425] loss2/relu_conv <- loss2/conv
I0403 15:06:34.065171 11752 net.cpp:386] loss2/relu_conv -> loss2/conv (in-place)
I0403 15:06:34.065460 11752 net.cpp:141] Setting up loss2/relu_conv
I0403 15:06:34.065487 11752 net.cpp:148] Top shape: 24 128 4 4 (49152)
I0403 15:06:34.065502 11752 net.cpp:156] Memory required for data: 1208122656
I0403 15:06:34.065518 11752 layer_factory.hpp:77] Creating layer loss2/fc
I0403 15:06:34.065539 11752 net.cpp:91] Creating Layer loss2/fc
I0403 15:06:34.065557 11752 net.cpp:425] loss2/fc <- loss2/conv
I0403 15:06:34.065575 11752 net.cpp:399] loss2/fc -> loss2/fc
I0403 15:06:34.082778 11752 net.cpp:141] Setting up loss2/fc
I0403 15:06:34.082814 11752 net.cpp:148] Top shape: 24 1024 (24576)
I0403 15:06:34.082830 11752 net.cpp:156] Memory required for data: 1208220960
I0403 15:06:34.082849 11752 layer_factory.hpp:77] Creating layer loss2/relu_fc
I0403 15:06:34.082866 11752 net.cpp:91] Creating Layer loss2/relu_fc
I0403 15:06:34.082883 11752 net.cpp:425] loss2/relu_fc <- loss2/fc
I0403 15:06:34.082904 11752 net.cpp:386] loss2/relu_fc -> loss2/fc (in-place)
I0403 15:06:34.083212 11752 net.cpp:141] Setting up loss2/relu_fc
I0403 15:06:34.083238 11752 net.cpp:148] Top shape: 24 1024 (24576)
I0403 15:06:34.083255 11752 net.cpp:156] Memory required for data: 1208319264
I0403 15:06:34.083269 11752 layer_factory.hpp:77] Creating layer loss2/drop_fc
I0403 15:06:34.083287 11752 net.cpp:91] Creating Layer loss2/drop_fc
I0403 15:06:34.083302 11752 net.cpp:425] loss2/drop_fc <- loss2/fc
I0403 15:06:34.083323 11752 net.cpp:386] loss2/drop_fc -> loss2/fc (in-place)
I0403 15:06:34.083369 11752 net.cpp:141] Setting up loss2/drop_fc
I0403 15:06:34.083396 11752 net.cpp:148] Top shape: 24 1024 (24576)
I0403 15:06:34.083411 11752 net.cpp:156] Memory required for data: 1208417568
I0403 15:06:34.083425 11752 layer_factory.hpp:77] Creating layer loss2/classifier_plantvillage
I0403 15:06:34.083444 11752 net.cpp:91] Creating Layer loss2/classifier_plantvillage
I0403 15:06:34.083461 11752 net.cpp:425] loss2/classifier_plantvillage <- loss2/fc
I0403 15:06:34.083482 11752 net.cpp:399] loss2/classifier_plantvillage -> loss2/classifier_plantvillage
I0403 15:06:34.083871 11752 net.cpp:141] Setting up loss2/classifier_plantvillage
I0403 15:06:34.083899 11752 net.cpp:148] Top shape: 24 38 (912)
I0403 15:06:34.083930 11752 net.cpp:156] Memory required for data: 1208421216
I0403 15:06:34.083950 11752 layer_factory.hpp:77] Creating layer loss2/classifier_plantvillage_loss2/classifier_plantvillage_0_split
I0403 15:06:34.083967 11752 net.cpp:91] Creating Layer loss2/classifier_plantvillage_loss2/classifier_plantvillage_0_split
I0403 15:06:34.083982 11752 net.cpp:425] loss2/classifier_plantvillage_loss2/classifier_plantvillage_0_split <- loss2/classifier_plantvillage
I0403 15:06:34.084000 11752 net.cpp:399] loss2/classifier_plantvillage_loss2/classifier_plantvillage_0_split -> loss2/classifier_plantvillage_loss2/classifier_plantvillage_0_split_0
I0403 15:06:34.084020 11752 net.cpp:399] loss2/classifier_plantvillage_loss2/classifier_plantvillage_0_split -> loss2/classifier_plantvillage_loss2/classifier_plantvillage_0_split_1
I0403 15:06:34.084041 11752 net.cpp:399] loss2/classifier_plantvillage_loss2/classifier_plantvillage_0_split -> loss2/classifier_plantvillage_loss2/classifier_plantvillage_0_split_2
I0403 15:06:34.084116 11752 net.cpp:141] Setting up loss2/classifier_plantvillage_loss2/classifier_plantvillage_0_split
I0403 15:06:34.084144 11752 net.cpp:148] Top shape: 24 38 (912)
I0403 15:06:34.084161 11752 net.cpp:148] Top shape: 24 38 (912)
I0403 15:06:34.084177 11752 net.cpp:148] Top shape: 24 38 (912)
I0403 15:06:34.084190 11752 net.cpp:156] Memory required for data: 1208432160
I0403 15:06:34.084205 11752 layer_factory.hpp:77] Creating layer inception_4e/1x1
I0403 15:06:34.084225 11752 net.cpp:91] Creating Layer inception_4e/1x1
I0403 15:06:34.084241 11752 net.cpp:425] inception_4e/1x1 <- inception_4d/output_inception_4d/output_0_split_1
I0403 15:06:34.084264 11752 net.cpp:399] inception_4e/1x1 -> inception_4e/1x1
I0403 15:06:34.086038 11752 net.cpp:141] Setting up inception_4e/1x1
I0403 15:06:34.086066 11752 net.cpp:148] Top shape: 24 256 14 14 (1204224)
I0403 15:06:34.086081 11752 net.cpp:156] Memory required for data: 1213249056
I0403 15:06:34.086099 11752 layer_factory.hpp:77] Creating layer inception_4e/relu_1x1
I0403 15:06:34.086119 11752 net.cpp:91] Creating Layer inception_4e/relu_1x1
I0403 15:06:34.086141 11752 net.cpp:425] inception_4e/relu_1x1 <- inception_4e/1x1
I0403 15:06:34.086159 11752 net.cpp:386] inception_4e/relu_1x1 -> inception_4e/1x1 (in-place)
I0403 15:06:34.086450 11752 net.cpp:141] Setting up inception_4e/relu_1x1
I0403 15:06:34.086477 11752 net.cpp:148] Top shape: 24 256 14 14 (1204224)
I0403 15:06:34.086493 11752 net.cpp:156] Memory required for data: 1218065952
I0403 15:06:34.086508 11752 layer_factory.hpp:77] Creating layer inception_4e/3x3_reduce
I0403 15:06:34.086529 11752 net.cpp:91] Creating Layer inception_4e/3x3_reduce
I0403 15:06:34.086547 11752 net.cpp:425] inception_4e/3x3_reduce <- inception_4d/output_inception_4d/output_0_split_2
I0403 15:06:34.086566 11752 net.cpp:399] inception_4e/3x3_reduce -> inception_4e/3x3_reduce
I0403 15:06:34.088629 11752 net.cpp:141] Setting up inception_4e/3x3_reduce
I0403 15:06:34.088659 11752 net.cpp:148] Top shape: 24 160 14 14 (752640)
I0403 15:06:34.088675 11752 net.cpp:156] Memory required for data: 1221076512
I0403 15:06:34.088693 11752 layer_factory.hpp:77] Creating layer inception_4e/relu_3x3_reduce
I0403 15:06:34.088713 11752 net.cpp:91] Creating Layer inception_4e/relu_3x3_reduce
I0403 15:06:34.088732 11752 net.cpp:425] inception_4e/relu_3x3_reduce <- inception_4e/3x3_reduce
I0403 15:06:34.088748 11752 net.cpp:386] inception_4e/relu_3x3_reduce -> inception_4e/3x3_reduce (in-place)
I0403 15:06:34.088930 11752 net.cpp:141] Setting up inception_4e/relu_3x3_reduce
I0403 15:06:34.088955 11752 net.cpp:148] Top shape: 24 160 14 14 (752640)
I0403 15:06:34.088970 11752 net.cpp:156] Memory required for data: 1224087072
I0403 15:06:34.088985 11752 layer_factory.hpp:77] Creating layer inception_4e/3x3
I0403 15:06:34.089011 11752 net.cpp:91] Creating Layer inception_4e/3x3
I0403 15:06:34.089030 11752 net.cpp:425] inception_4e/3x3 <- inception_4e/3x3_reduce
I0403 15:06:34.089048 11752 net.cpp:399] inception_4e/3x3 -> inception_4e/3x3
I0403 15:06:34.093958 11752 net.cpp:141] Setting up inception_4e/3x3
I0403 15:06:34.094002 11752 net.cpp:148] Top shape: 24 320 14 14 (1505280)
I0403 15:06:34.094018 11752 net.cpp:156] Memory required for data: 1230108192
I0403 15:06:34.094039 11752 layer_factory.hpp:77] Creating layer inception_4e/relu_3x3
I0403 15:06:34.094059 11752 net.cpp:91] Creating Layer inception_4e/relu_3x3
I0403 15:06:34.094075 11752 net.cpp:425] inception_4e/relu_3x3 <- inception_4e/3x3
I0403 15:06:34.094094 11752 net.cpp:386] inception_4e/relu_3x3 -> inception_4e/3x3 (in-place)
I0403 15:06:34.094395 11752 net.cpp:141] Setting up inception_4e/relu_3x3
I0403 15:06:34.094426 11752 net.cpp:148] Top shape: 24 320 14 14 (1505280)
I0403 15:06:34.094444 11752 net.cpp:156] Memory required for data: 1236129312
I0403 15:06:34.094458 11752 layer_factory.hpp:77] Creating layer inception_4e/5x5_reduce
I0403 15:06:34.094481 11752 net.cpp:91] Creating Layer inception_4e/5x5_reduce
I0403 15:06:34.094501 11752 net.cpp:425] inception_4e/5x5_reduce <- inception_4d/output_inception_4d/output_0_split_3
I0403 15:06:34.094519 11752 net.cpp:399] inception_4e/5x5_reduce -> inception_4e/5x5_reduce
I0403 15:06:34.095594 11752 net.cpp:141] Setting up inception_4e/5x5_reduce
I0403 15:06:34.095623 11752 net.cpp:148] Top shape: 24 32 14 14 (150528)
I0403 15:06:34.095638 11752 net.cpp:156] Memory required for data: 1236731424
I0403 15:06:34.095656 11752 layer_factory.hpp:77] Creating layer inception_4e/relu_5x5_reduce
I0403 15:06:34.095677 11752 net.cpp:91] Creating Layer inception_4e/relu_5x5_reduce
I0403 15:06:34.095695 11752 net.cpp:425] inception_4e/relu_5x5_reduce <- inception_4e/5x5_reduce
I0403 15:06:34.095712 11752 net.cpp:386] inception_4e/relu_5x5_reduce -> inception_4e/5x5_reduce (in-place)
I0403 15:06:34.096004 11752 net.cpp:141] Setting up inception_4e/relu_5x5_reduce
I0403 15:06:34.096031 11752 net.cpp:148] Top shape: 24 32 14 14 (150528)
I0403 15:06:34.096046 11752 net.cpp:156] Memory required for data: 1237333536
I0403 15:06:34.096061 11752 layer_factory.hpp:77] Creating layer inception_4e/5x5
I0403 15:06:34.096110 11752 net.cpp:91] Creating Layer inception_4e/5x5
I0403 15:06:34.096134 11752 net.cpp:425] inception_4e/5x5 <- inception_4e/5x5_reduce
I0403 15:06:34.096158 11752 net.cpp:399] inception_4e/5x5 -> inception_4e/5x5
I0403 15:06:34.097970 11752 net.cpp:141] Setting up inception_4e/5x5
I0403 15:06:34.097997 11752 net.cpp:148] Top shape: 24 128 14 14 (602112)
I0403 15:06:34.098014 11752 net.cpp:156] Memory required for data: 1239741984
I0403 15:06:34.098034 11752 layer_factory.hpp:77] Creating layer inception_4e/relu_5x5
I0403 15:06:34.098053 11752 net.cpp:91] Creating Layer inception_4e/relu_5x5
I0403 15:06:34.098068 11752 net.cpp:425] inception_4e/relu_5x5 <- inception_4e/5x5
I0403 15:06:34.098088 11752 net.cpp:386] inception_4e/relu_5x5 -> inception_4e/5x5 (in-place)
I0403 15:06:34.098286 11752 net.cpp:141] Setting up inception_4e/relu_5x5
I0403 15:06:34.098312 11752 net.cpp:148] Top shape: 24 128 14 14 (602112)
I0403 15:06:34.098327 11752 net.cpp:156] Memory required for data: 1242150432
I0403 15:06:34.098342 11752 layer_factory.hpp:77] Creating layer inception_4e/pool
I0403 15:06:34.098362 11752 net.cpp:91] Creating Layer inception_4e/pool
I0403 15:06:34.098379 11752 net.cpp:425] inception_4e/pool <- inception_4d/output_inception_4d/output_0_split_4
I0403 15:06:34.098397 11752 net.cpp:399] inception_4e/pool -> inception_4e/pool
I0403 15:06:34.098469 11752 net.cpp:141] Setting up inception_4e/pool
I0403 15:06:34.098494 11752 net.cpp:148] Top shape: 24 528 14 14 (2483712)
I0403 15:06:34.098508 11752 net.cpp:156] Memory required for data: 1252085280
I0403 15:06:34.098525 11752 layer_factory.hpp:77] Creating layer inception_4e/pool_proj
I0403 15:06:34.098546 11752 net.cpp:91] Creating Layer inception_4e/pool_proj
I0403 15:06:34.098563 11752 net.cpp:425] inception_4e/pool_proj <- inception_4e/pool
I0403 15:06:34.098584 11752 net.cpp:399] inception_4e/pool_proj -> inception_4e/pool_proj
I0403 15:06:34.100054 11752 net.cpp:141] Setting up inception_4e/pool_proj
I0403 15:06:34.100116 11752 net.cpp:148] Top shape: 24 128 14 14 (602112)
I0403 15:06:34.100137 11752 net.cpp:156] Memory required for data: 1254493728
I0403 15:06:34.100158 11752 layer_factory.hpp:77] Creating layer inception_4e/relu_pool_proj
I0403 15:06:34.100177 11752 net.cpp:91] Creating Layer inception_4e/relu_pool_proj
I0403 15:06:34.100193 11752 net.cpp:425] inception_4e/relu_pool_proj <- inception_4e/pool_proj
I0403 15:06:34.100214 11752 net.cpp:386] inception_4e/relu_pool_proj -> inception_4e/pool_proj (in-place)
I0403 15:06:34.100527 11752 net.cpp:141] Setting up inception_4e/relu_pool_proj
I0403 15:06:34.100554 11752 net.cpp:148] Top shape: 24 128 14 14 (602112)
I0403 15:06:34.100569 11752 net.cpp:156] Memory required for data: 1256902176
I0403 15:06:34.100584 11752 layer_factory.hpp:77] Creating layer inception_4e/output
I0403 15:06:34.100601 11752 net.cpp:91] Creating Layer inception_4e/output
I0403 15:06:34.100616 11752 net.cpp:425] inception_4e/output <- inception_4e/1x1
I0403 15:06:34.100632 11752 net.cpp:425] inception_4e/output <- inception_4e/3x3
I0403 15:06:34.100647 11752 net.cpp:425] inception_4e/output <- inception_4e/5x5
I0403 15:06:34.100663 11752 net.cpp:425] inception_4e/output <- inception_4e/pool_proj
I0403 15:06:34.100682 11752 net.cpp:399] inception_4e/output -> inception_4e/output
I0403 15:06:34.100731 11752 net.cpp:141] Setting up inception_4e/output
I0403 15:06:34.100757 11752 net.cpp:148] Top shape: 24 832 14 14 (3913728)
I0403 15:06:34.100775 11752 net.cpp:156] Memory required for data: 1272557088
I0403 15:06:34.100790 11752 layer_factory.hpp:77] Creating layer pool4/3x3_s2
I0403 15:06:34.100807 11752 net.cpp:91] Creating Layer pool4/3x3_s2
I0403 15:06:34.100822 11752 net.cpp:425] pool4/3x3_s2 <- inception_4e/output
I0403 15:06:34.100841 11752 net.cpp:399] pool4/3x3_s2 -> pool4/3x3_s2
I0403 15:06:34.100906 11752 net.cpp:141] Setting up pool4/3x3_s2
I0403 15:06:34.100931 11752 net.cpp:148] Top shape: 24 832 7 7 (978432)
I0403 15:06:34.100945 11752 net.cpp:156] Memory required for data: 1276470816
I0403 15:06:34.100960 11752 layer_factory.hpp:77] Creating layer pool4/3x3_s2_pool4/3x3_s2_0_split
I0403 15:06:34.100976 11752 net.cpp:91] Creating Layer pool4/3x3_s2_pool4/3x3_s2_0_split
I0403 15:06:34.100992 11752 net.cpp:425] pool4/3x3_s2_pool4/3x3_s2_0_split <- pool4/3x3_s2
I0403 15:06:34.101011 11752 net.cpp:399] pool4/3x3_s2_pool4/3x3_s2_0_split -> pool4/3x3_s2_pool4/3x3_s2_0_split_0
I0403 15:06:34.101033 11752 net.cpp:399] pool4/3x3_s2_pool4/3x3_s2_0_split -> pool4/3x3_s2_pool4/3x3_s2_0_split_1
I0403 15:06:34.101054 11752 net.cpp:399] pool4/3x3_s2_pool4/3x3_s2_0_split -> pool4/3x3_s2_pool4/3x3_s2_0_split_2
I0403 15:06:34.101078 11752 net.cpp:399] pool4/3x3_s2_pool4/3x3_s2_0_split -> pool4/3x3_s2_pool4/3x3_s2_0_split_3
I0403 15:06:34.101173 11752 net.cpp:141] Setting up pool4/3x3_s2_pool4/3x3_s2_0_split
I0403 15:06:34.101198 11752 net.cpp:148] Top shape: 24 832 7 7 (978432)
I0403 15:06:34.101213 11752 net.cpp:148] Top shape: 24 832 7 7 (978432)
I0403 15:06:34.101229 11752 net.cpp:148] Top shape: 24 832 7 7 (978432)
I0403 15:06:34.101245 11752 net.cpp:148] Top shape: 24 832 7 7 (978432)
I0403 15:06:34.101259 11752 net.cpp:156] Memory required for data: 1292125728
I0403 15:06:34.101274 11752 layer_factory.hpp:77] Creating layer inception_5a/1x1
I0403 15:06:34.101296 11752 net.cpp:91] Creating Layer inception_5a/1x1
I0403 15:06:34.101313 11752 net.cpp:425] inception_5a/1x1 <- pool4/3x3_s2_pool4/3x3_s2_0_split_0
I0403 15:06:34.101335 11752 net.cpp:399] inception_5a/1x1 -> inception_5a/1x1
I0403 15:06:34.104228 11752 net.cpp:141] Setting up inception_5a/1x1
I0403 15:06:34.104259 11752 net.cpp:148] Top shape: 24 256 7 7 (301056)
I0403 15:06:34.104275 11752 net.cpp:156] Memory required for data: 1293329952
I0403 15:06:34.104295 11752 layer_factory.hpp:77] Creating layer inception_5a/relu_1x1
I0403 15:06:34.104316 11752 net.cpp:91] Creating Layer inception_5a/relu_1x1
I0403 15:06:34.104333 11752 net.cpp:425] inception_5a/relu_1x1 <- inception_5a/1x1
I0403 15:06:34.104351 11752 net.cpp:386] inception_5a/relu_1x1 -> inception_5a/1x1 (in-place)
I0403 15:06:34.104671 11752 net.cpp:141] Setting up inception_5a/relu_1x1
I0403 15:06:34.104697 11752 net.cpp:148] Top shape: 24 256 7 7 (301056)
I0403 15:06:34.104713 11752 net.cpp:156] Memory required for data: 1294534176
I0403 15:06:34.104729 11752 layer_factory.hpp:77] Creating layer inception_5a/3x3_reduce
I0403 15:06:34.104753 11752 net.cpp:91] Creating Layer inception_5a/3x3_reduce
I0403 15:06:34.104771 11752 net.cpp:425] inception_5a/3x3_reduce <- pool4/3x3_s2_pool4/3x3_s2_0_split_1
I0403 15:06:34.104794 11752 net.cpp:399] inception_5a/3x3_reduce -> inception_5a/3x3_reduce
I0403 15:06:34.107271 11752 net.cpp:141] Setting up inception_5a/3x3_reduce
I0403 15:06:34.107305 11752 net.cpp:148] Top shape: 24 160 7 7 (188160)
I0403 15:06:34.107322 11752 net.cpp:156] Memory required for data: 1295286816
I0403 15:06:34.107342 11752 layer_factory.hpp:77] Creating layer inception_5a/relu_3x3_reduce
I0403 15:06:34.107360 11752 net.cpp:91] Creating Layer inception_5a/relu_3x3_reduce
I0403 15:06:34.107378 11752 net.cpp:425] inception_5a/relu_3x3_reduce <- inception_5a/3x3_reduce
I0403 15:06:34.107398 11752 net.cpp:386] inception_5a/relu_3x3_reduce -> inception_5a/3x3_reduce (in-place)
I0403 15:06:34.107594 11752 net.cpp:141] Setting up inception_5a/relu_3x3_reduce
I0403 15:06:34.107620 11752 net.cpp:148] Top shape: 24 160 7 7 (188160)
I0403 15:06:34.107635 11752 net.cpp:156] Memory required for data: 1296039456
I0403 15:06:34.107650 11752 layer_factory.hpp:77] Creating layer inception_5a/3x3
I0403 15:06:34.107673 11752 net.cpp:91] Creating Layer inception_5a/3x3
I0403 15:06:34.107692 11752 net.cpp:425] inception_5a/3x3 <- inception_5a/3x3_reduce
I0403 15:06:34.107713 11752 net.cpp:399] inception_5a/3x3 -> inception_5a/3x3
I0403 15:06:34.112781 11752 net.cpp:141] Setting up inception_5a/3x3
I0403 15:06:34.112812 11752 net.cpp:148] Top shape: 24 320 7 7 (376320)
I0403 15:06:34.112828 11752 net.cpp:156] Memory required for data: 1297544736
I0403 15:06:34.112846 11752 layer_factory.hpp:77] Creating layer inception_5a/relu_3x3
I0403 15:06:34.112865 11752 net.cpp:91] Creating Layer inception_5a/relu_3x3
I0403 15:06:34.112882 11752 net.cpp:425] inception_5a/relu_3x3 <- inception_5a/3x3
I0403 15:06:34.112901 11752 net.cpp:386] inception_5a/relu_3x3 -> inception_5a/3x3 (in-place)
I0403 15:06:34.113215 11752 net.cpp:141] Setting up inception_5a/relu_3x3
I0403 15:06:34.113242 11752 net.cpp:148] Top shape: 24 320 7 7 (376320)
I0403 15:06:34.113258 11752 net.cpp:156] Memory required for data: 1299050016
I0403 15:06:34.113273 11752 layer_factory.hpp:77] Creating layer inception_5a/5x5_reduce
I0403 15:06:34.113296 11752 net.cpp:91] Creating Layer inception_5a/5x5_reduce
I0403 15:06:34.113315 11752 net.cpp:425] inception_5a/5x5_reduce <- pool4/3x3_s2_pool4/3x3_s2_0_split_2
I0403 15:06:34.113338 11752 net.cpp:399] inception_5a/5x5_reduce -> inception_5a/5x5_reduce
I0403 15:06:34.114516 11752 net.cpp:141] Setting up inception_5a/5x5_reduce
I0403 15:06:34.114548 11752 net.cpp:148] Top shape: 24 32 7 7 (37632)
I0403 15:06:34.114564 11752 net.cpp:156] Memory required for data: 1299200544
I0403 15:06:34.114583 11752 layer_factory.hpp:77] Creating layer inception_5a/relu_5x5_reduce
I0403 15:06:34.114601 11752 net.cpp:91] Creating Layer inception_5a/relu_5x5_reduce
I0403 15:06:34.114619 11752 net.cpp:425] inception_5a/relu_5x5_reduce <- inception_5a/5x5_reduce
I0403 15:06:34.114636 11752 net.cpp:386] inception_5a/relu_5x5_reduce -> inception_5a/5x5_reduce (in-place)
I0403 15:06:34.114938 11752 net.cpp:141] Setting up inception_5a/relu_5x5_reduce
I0403 15:06:34.114964 11752 net.cpp:148] Top shape: 24 32 7 7 (37632)
I0403 15:06:34.114979 11752 net.cpp:156] Memory required for data: 1299351072
I0403 15:06:34.114995 11752 layer_factory.hpp:77] Creating layer inception_5a/5x5
I0403 15:06:34.115016 11752 net.cpp:91] Creating Layer inception_5a/5x5
I0403 15:06:34.115036 11752 net.cpp:425] inception_5a/5x5 <- inception_5a/5x5_reduce
I0403 15:06:34.115058 11752 net.cpp:399] inception_5a/5x5 -> inception_5a/5x5
I0403 15:06:34.116801 11752 net.cpp:141] Setting up inception_5a/5x5
I0403 15:06:34.116842 11752 net.cpp:148] Top shape: 24 128 7 7 (150528)
I0403 15:06:34.116858 11752 net.cpp:156] Memory required for data: 1299953184
I0403 15:06:34.116878 11752 layer_factory.hpp:77] Creating layer inception_5a/relu_5x5
I0403 15:06:34.116895 11752 net.cpp:91] Creating Layer inception_5a/relu_5x5
I0403 15:06:34.116914 11752 net.cpp:425] inception_5a/relu_5x5 <- inception_5a/5x5
I0403 15:06:34.116932 11752 net.cpp:386] inception_5a/relu_5x5 -> inception_5a/5x5 (in-place)
I0403 15:06:34.117136 11752 net.cpp:141] Setting up inception_5a/relu_5x5
I0403 15:06:34.117161 11752 net.cpp:148] Top shape: 24 128 7 7 (150528)
I0403 15:06:34.117177 11752 net.cpp:156] Memory required for data: 1300555296
I0403 15:06:34.117194 11752 layer_factory.hpp:77] Creating layer inception_5a/pool
I0403 15:06:34.117215 11752 net.cpp:91] Creating Layer inception_5a/pool
I0403 15:06:34.117233 11752 net.cpp:425] inception_5a/pool <- pool4/3x3_s2_pool4/3x3_s2_0_split_3
I0403 15:06:34.117250 11752 net.cpp:399] inception_5a/pool -> inception_5a/pool
I0403 15:06:34.117322 11752 net.cpp:141] Setting up inception_5a/pool
I0403 15:06:34.117347 11752 net.cpp:148] Top shape: 24 832 7 7 (978432)
I0403 15:06:34.117362 11752 net.cpp:156] Memory required for data: 1304469024
I0403 15:06:34.117377 11752 layer_factory.hpp:77] Creating layer inception_5a/pool_proj
I0403 15:06:34.117399 11752 net.cpp:91] Creating Layer inception_5a/pool_proj
I0403 15:06:34.117419 11752 net.cpp:425] inception_5a/pool_proj <- inception_5a/pool
I0403 15:06:34.117439 11752 net.cpp:399] inception_5a/pool_proj -> inception_5a/pool_proj
I0403 15:06:34.119745 11752 net.cpp:141] Setting up inception_5a/pool_proj
I0403 15:06:34.119774 11752 net.cpp:148] Top shape: 24 128 7 7 (150528)
I0403 15:06:34.119792 11752 net.cpp:156] Memory required for data: 1305071136
I0403 15:06:34.119812 11752 layer_factory.hpp:77] Creating layer inception_5a/relu_pool_proj
I0403 15:06:34.119830 11752 net.cpp:91] Creating Layer inception_5a/relu_pool_proj
I0403 15:06:34.119848 11752 net.cpp:425] inception_5a/relu_pool_proj <- inception_5a/pool_proj
I0403 15:06:34.119866 11752 net.cpp:386] inception_5a/relu_pool_proj -> inception_5a/pool_proj (in-place)
I0403 15:06:34.120174 11752 net.cpp:141] Setting up inception_5a/relu_pool_proj
I0403 15:06:34.120204 11752 net.cpp:148] Top shape: 24 128 7 7 (150528)
I0403 15:06:34.120231 11752 net.cpp:156] Memory required for data: 1305673248
I0403 15:06:34.120249 11752 layer_factory.hpp:77] Creating layer inception_5a/output
I0403 15:06:34.120265 11752 net.cpp:91] Creating Layer inception_5a/output
I0403 15:06:34.120282 11752 net.cpp:425] inception_5a/output <- inception_5a/1x1
I0403 15:06:34.120299 11752 net.cpp:425] inception_5a/output <- inception_5a/3x3
I0403 15:06:34.120317 11752 net.cpp:425] inception_5a/output <- inception_5a/5x5
I0403 15:06:34.120334 11752 net.cpp:425] inception_5a/output <- inception_5a/pool_proj
I0403 15:06:34.120355 11752 net.cpp:399] inception_5a/output -> inception_5a/output
I0403 15:06:34.120407 11752 net.cpp:141] Setting up inception_5a/output
I0403 15:06:34.120431 11752 net.cpp:148] Top shape: 24 832 7 7 (978432)
I0403 15:06:34.120446 11752 net.cpp:156] Memory required for data: 1309586976
I0403 15:06:34.120462 11752 layer_factory.hpp:77] Creating layer inception_5a/output_inception_5a/output_0_split
I0403 15:06:34.120481 11752 net.cpp:91] Creating Layer inception_5a/output_inception_5a/output_0_split
I0403 15:06:34.120512 11752 net.cpp:425] inception_5a/output_inception_5a/output_0_split <- inception_5a/output
I0403 15:06:34.120528 11752 net.cpp:399] inception_5a/output_inception_5a/output_0_split -> inception_5a/output_inception_5a/output_0_split_0
I0403 15:06:34.120551 11752 net.cpp:399] inception_5a/output_inception_5a/output_0_split -> inception_5a/output_inception_5a/output_0_split_1
I0403 15:06:34.120574 11752 net.cpp:399] inception_5a/output_inception_5a/output_0_split -> inception_5a/output_inception_5a/output_0_split_2
I0403 15:06:34.120596 11752 net.cpp:399] inception_5a/output_inception_5a/output_0_split -> inception_5a/output_inception_5a/output_0_split_3
I0403 15:06:34.120709 11752 net.cpp:141] Setting up inception_5a/output_inception_5a/output_0_split
I0403 15:06:34.120734 11752 net.cpp:148] Top shape: 24 832 7 7 (978432)
I0403 15:06:34.120751 11752 net.cpp:148] Top shape: 24 832 7 7 (978432)
I0403 15:06:34.120767 11752 net.cpp:148] Top shape: 24 832 7 7 (978432)
I0403 15:06:34.120782 11752 net.cpp:148] Top shape: 24 832 7 7 (978432)
I0403 15:06:34.120808 11752 net.cpp:156] Memory required for data: 1325241888
I0403 15:06:34.120822 11752 layer_factory.hpp:77] Creating layer inception_5b/1x1
I0403 15:06:34.120846 11752 net.cpp:91] Creating Layer inception_5b/1x1
I0403 15:06:34.120863 11752 net.cpp:425] inception_5b/1x1 <- inception_5a/output_inception_5a/output_0_split_0
I0403 15:06:34.120884 11752 net.cpp:399] inception_5b/1x1 -> inception_5b/1x1
I0403 15:06:34.124573 11752 net.cpp:141] Setting up inception_5b/1x1
I0403 15:06:34.124606 11752 net.cpp:148] Top shape: 24 384 7 7 (451584)
I0403 15:06:34.124624 11752 net.cpp:156] Memory required for data: 1327048224
I0403 15:06:34.124642 11752 layer_factory.hpp:77] Creating layer inception_5b/relu_1x1
I0403 15:06:34.124660 11752 net.cpp:91] Creating Layer inception_5b/relu_1x1
I0403 15:06:34.124676 11752 net.cpp:425] inception_5b/relu_1x1 <- inception_5b/1x1
I0403 15:06:34.124696 11752 net.cpp:386] inception_5b/relu_1x1 -> inception_5b/1x1 (in-place)
I0403 15:06:34.124995 11752 net.cpp:141] Setting up inception_5b/relu_1x1
I0403 15:06:34.125025 11752 net.cpp:148] Top shape: 24 384 7 7 (451584)
I0403 15:06:34.125039 11752 net.cpp:156] Memory required for data: 1328854560
I0403 15:06:34.125054 11752 layer_factory.hpp:77] Creating layer inception_5b/3x3_reduce
I0403 15:06:34.125077 11752 net.cpp:91] Creating Layer inception_5b/3x3_reduce
I0403 15:06:34.125095 11752 net.cpp:425] inception_5b/3x3_reduce <- inception_5a/output_inception_5a/output_0_split_1
I0403 15:06:34.125118 11752 net.cpp:399] inception_5b/3x3_reduce -> inception_5b/3x3_reduce
I0403 15:06:34.127722 11752 net.cpp:141] Setting up inception_5b/3x3_reduce
I0403 15:06:34.127753 11752 net.cpp:148] Top shape: 24 192 7 7 (225792)
I0403 15:06:34.127770 11752 net.cpp:156] Memory required for data: 1329757728
I0403 15:06:34.127789 11752 layer_factory.hpp:77] Creating layer inception_5b/relu_3x3_reduce
I0403 15:06:34.127807 11752 net.cpp:91] Creating Layer inception_5b/relu_3x3_reduce
I0403 15:06:34.127825 11752 net.cpp:425] inception_5b/relu_3x3_reduce <- inception_5b/3x3_reduce
I0403 15:06:34.127845 11752 net.cpp:386] inception_5b/relu_3x3_reduce -> inception_5b/3x3_reduce (in-place)
I0403 15:06:34.128036 11752 net.cpp:141] Setting up inception_5b/relu_3x3_reduce
I0403 15:06:34.128062 11752 net.cpp:148] Top shape: 24 192 7 7 (225792)
I0403 15:06:34.128075 11752 net.cpp:156] Memory required for data: 1330660896
I0403 15:06:34.128090 11752 layer_factory.hpp:77] Creating layer inception_5b/3x3
I0403 15:06:34.128113 11752 net.cpp:91] Creating Layer inception_5b/3x3
I0403 15:06:34.128134 11752 net.cpp:425] inception_5b/3x3 <- inception_5b/3x3_reduce
I0403 15:06:34.128157 11752 net.cpp:399] inception_5b/3x3 -> inception_5b/3x3
I0403 15:06:34.134747 11752 net.cpp:141] Setting up inception_5b/3x3
I0403 15:06:34.134776 11752 net.cpp:148] Top shape: 24 384 7 7 (451584)
I0403 15:06:34.134793 11752 net.cpp:156] Memory required for data: 1332467232
I0403 15:06:34.134811 11752 layer_factory.hpp:77] Creating layer inception_5b/relu_3x3
I0403 15:06:34.134829 11752 net.cpp:91] Creating Layer inception_5b/relu_3x3
I0403 15:06:34.134845 11752 net.cpp:425] inception_5b/relu_3x3 <- inception_5b/3x3
I0403 15:06:34.134863 11752 net.cpp:386] inception_5b/relu_3x3 -> inception_5b/3x3 (in-place)
I0403 15:06:34.135165 11752 net.cpp:141] Setting up inception_5b/relu_3x3
I0403 15:06:34.135192 11752 net.cpp:148] Top shape: 24 384 7 7 (451584)
I0403 15:06:34.135208 11752 net.cpp:156] Memory required for data: 1334273568
I0403 15:06:34.135223 11752 layer_factory.hpp:77] Creating layer inception_5b/5x5_reduce
I0403 15:06:34.135262 11752 net.cpp:91] Creating Layer inception_5b/5x5_reduce
I0403 15:06:34.135282 11752 net.cpp:425] inception_5b/5x5_reduce <- inception_5a/output_inception_5a/output_0_split_2
I0403 15:06:34.135304 11752 net.cpp:399] inception_5b/5x5_reduce -> inception_5b/5x5_reduce
I0403 15:06:34.136562 11752 net.cpp:141] Setting up inception_5b/5x5_reduce
I0403 15:06:34.136591 11752 net.cpp:148] Top shape: 24 48 7 7 (56448)
I0403 15:06:34.136607 11752 net.cpp:156] Memory required for data: 1334499360
I0403 15:06:34.136626 11752 layer_factory.hpp:77] Creating layer inception_5b/relu_5x5_reduce
I0403 15:06:34.136643 11752 net.cpp:91] Creating Layer inception_5b/relu_5x5_reduce
I0403 15:06:34.136659 11752 net.cpp:425] inception_5b/relu_5x5_reduce <- inception_5b/5x5_reduce
I0403 15:06:34.136679 11752 net.cpp:386] inception_5b/relu_5x5_reduce -> inception_5b/5x5_reduce (in-place)
I0403 15:06:34.137053 11752 net.cpp:141] Setting up inception_5b/relu_5x5_reduce
I0403 15:06:34.137079 11752 net.cpp:148] Top shape: 24 48 7 7 (56448)
I0403 15:06:34.137094 11752 net.cpp:156] Memory required for data: 1334725152
I0403 15:06:34.137109 11752 layer_factory.hpp:77] Creating layer inception_5b/5x5
I0403 15:06:34.137132 11752 net.cpp:91] Creating Layer inception_5b/5x5
I0403 15:06:34.137151 11752 net.cpp:425] inception_5b/5x5 <- inception_5b/5x5_reduce
I0403 15:06:34.137171 11752 net.cpp:399] inception_5b/5x5 -> inception_5b/5x5
I0403 15:06:34.139194 11752 net.cpp:141] Setting up inception_5b/5x5
I0403 15:06:34.139220 11752 net.cpp:148] Top shape: 24 128 7 7 (150528)
I0403 15:06:34.139235 11752 net.cpp:156] Memory required for data: 1335327264
I0403 15:06:34.139253 11752 layer_factory.hpp:77] Creating layer inception_5b/relu_5x5
I0403 15:06:34.139274 11752 net.cpp:91] Creating Layer inception_5b/relu_5x5
I0403 15:06:34.139291 11752 net.cpp:425] inception_5b/relu_5x5 <- inception_5b/5x5
I0403 15:06:34.139308 11752 net.cpp:386] inception_5b/relu_5x5 -> inception_5b/5x5 (in-place)
I0403 15:06:34.139503 11752 net.cpp:141] Setting up inception_5b/relu_5x5
I0403 15:06:34.139528 11752 net.cpp:148] Top shape: 24 128 7 7 (150528)
I0403 15:06:34.139542 11752 net.cpp:156] Memory required for data: 1335929376
I0403 15:06:34.139557 11752 layer_factory.hpp:77] Creating layer inception_5b/pool
I0403 15:06:34.139577 11752 net.cpp:91] Creating Layer inception_5b/pool
I0403 15:06:34.139595 11752 net.cpp:425] inception_5b/pool <- inception_5a/output_inception_5a/output_0_split_3
I0403 15:06:34.139613 11752 net.cpp:399] inception_5b/pool -> inception_5b/pool
I0403 15:06:34.139684 11752 net.cpp:141] Setting up inception_5b/pool
I0403 15:06:34.139708 11752 net.cpp:148] Top shape: 24 832 7 7 (978432)
I0403 15:06:34.139724 11752 net.cpp:156] Memory required for data: 1339843104
I0403 15:06:34.139737 11752 layer_factory.hpp:77] Creating layer inception_5b/pool_proj
I0403 15:06:34.139758 11752 net.cpp:91] Creating Layer inception_5b/pool_proj
I0403 15:06:34.139776 11752 net.cpp:425] inception_5b/pool_proj <- inception_5b/pool
I0403 15:06:34.139797 11752 net.cpp:399] inception_5b/pool_proj -> inception_5b/pool_proj
I0403 15:06:34.142051 11752 net.cpp:141] Setting up inception_5b/pool_proj
I0403 15:06:34.142081 11752 net.cpp:148] Top shape: 24 128 7 7 (150528)
I0403 15:06:34.142096 11752 net.cpp:156] Memory required for data: 1340445216
I0403 15:06:34.142114 11752 layer_factory.hpp:77] Creating layer inception_5b/relu_pool_proj
I0403 15:06:34.142138 11752 net.cpp:91] Creating Layer inception_5b/relu_pool_proj
I0403 15:06:34.142155 11752 net.cpp:425] inception_5b/relu_pool_proj <- inception_5b/pool_proj
I0403 15:06:34.142175 11752 net.cpp:386] inception_5b/relu_pool_proj -> inception_5b/pool_proj (in-place)
I0403 15:06:34.142472 11752 net.cpp:141] Setting up inception_5b/relu_pool_proj
I0403 15:06:34.142498 11752 net.cpp:148] Top shape: 24 128 7 7 (150528)
I0403 15:06:34.142513 11752 net.cpp:156] Memory required for data: 1341047328
I0403 15:06:34.142529 11752 layer_factory.hpp:77] Creating layer inception_5b/output
I0403 15:06:34.142545 11752 net.cpp:91] Creating Layer inception_5b/output
I0403 15:06:34.142575 11752 net.cpp:425] inception_5b/output <- inception_5b/1x1
I0403 15:06:34.142593 11752 net.cpp:425] inception_5b/output <- inception_5b/3x3
I0403 15:06:34.142611 11752 net.cpp:425] inception_5b/output <- inception_5b/5x5
I0403 15:06:34.142627 11752 net.cpp:425] inception_5b/output <- inception_5b/pool_proj
I0403 15:06:34.142645 11752 net.cpp:399] inception_5b/output -> inception_5b/output
I0403 15:06:34.142696 11752 net.cpp:141] Setting up inception_5b/output
I0403 15:06:34.142722 11752 net.cpp:148] Top shape: 24 1024 7 7 (1204224)
I0403 15:06:34.142738 11752 net.cpp:156] Memory required for data: 1345864224
I0403 15:06:34.142755 11752 layer_factory.hpp:77] Creating layer pool5/7x7_s1
I0403 15:06:34.142772 11752 net.cpp:91] Creating Layer pool5/7x7_s1
I0403 15:06:34.142787 11752 net.cpp:425] pool5/7x7_s1 <- inception_5b/output
I0403 15:06:34.142807 11752 net.cpp:399] pool5/7x7_s1 -> pool5/7x7_s1
I0403 15:06:34.143023 11752 net.cpp:141] Setting up pool5/7x7_s1
I0403 15:06:34.143049 11752 net.cpp:148] Top shape: 24 1024 1 1 (24576)
I0403 15:06:34.143064 11752 net.cpp:156] Memory required for data: 1345962528
I0403 15:06:34.143079 11752 layer_factory.hpp:77] Creating layer pool5/drop_7x7_s1
I0403 15:06:34.143096 11752 net.cpp:91] Creating Layer pool5/drop_7x7_s1
I0403 15:06:34.143112 11752 net.cpp:425] pool5/drop_7x7_s1 <- pool5/7x7_s1
I0403 15:06:34.143141 11752 net.cpp:386] pool5/drop_7x7_s1 -> pool5/7x7_s1 (in-place)
I0403 15:06:34.143194 11752 net.cpp:141] Setting up pool5/drop_7x7_s1
I0403 15:06:34.143220 11752 net.cpp:148] Top shape: 24 1024 1 1 (24576)
I0403 15:06:34.143237 11752 net.cpp:156] Memory required for data: 1346060832
I0403 15:06:34.143252 11752 layer_factory.hpp:77] Creating layer loss3/classifier_plantvillage
I0403 15:06:34.143272 11752 net.cpp:91] Creating Layer loss3/classifier_plantvillage
I0403 15:06:34.143288 11752 net.cpp:425] loss3/classifier_plantvillage <- pool5/7x7_s1
I0403 15:06:34.143308 11752 net.cpp:399] loss3/classifier_plantvillage -> loss3/classifier_plantvillage
I0403 15:06:34.143728 11752 net.cpp:141] Setting up loss3/classifier_plantvillage
I0403 15:06:34.143753 11752 net.cpp:148] Top shape: 24 38 (912)
I0403 15:06:34.143766 11752 net.cpp:156] Memory required for data: 1346064480
I0403 15:06:34.143784 11752 layer_factory.hpp:77] Creating layer loss3/classifier_plantvillage_loss3/classifier_plantvillage_0_split
I0403 15:06:34.143803 11752 net.cpp:91] Creating Layer loss3/classifier_plantvillage_loss3/classifier_plantvillage_0_split
I0403 15:06:34.143821 11752 net.cpp:425] loss3/classifier_plantvillage_loss3/classifier_plantvillage_0_split <- loss3/classifier_plantvillage
I0403 15:06:34.143838 11752 net.cpp:399] loss3/classifier_plantvillage_loss3/classifier_plantvillage_0_split -> loss3/classifier_plantvillage_loss3/classifier_plantvillage_0_split_0
I0403 15:06:34.143862 11752 net.cpp:399] loss3/classifier_plantvillage_loss3/classifier_plantvillage_0_split -> loss3/classifier_plantvillage_loss3/classifier_plantvillage_0_split_1
I0403 15:06:34.143882 11752 net.cpp:399] loss3/classifier_plantvillage_loss3/classifier_plantvillage_0_split -> loss3/classifier_plantvillage_loss3/classifier_plantvillage_0_split_2
I0403 15:06:34.143900 11752 net.cpp:399] loss3/classifier_plantvillage_loss3/classifier_plantvillage_0_split -> loss3/classifier_plantvillage_loss3/classifier_plantvillage_0_split_3
I0403 15:06:34.143998 11752 net.cpp:141] Setting up loss3/classifier_plantvillage_loss3/classifier_plantvillage_0_split
I0403 15:06:34.144022 11752 net.cpp:148] Top shape: 24 38 (912)
I0403 15:06:34.144038 11752 net.cpp:148] Top shape: 24 38 (912)
I0403 15:06:34.144053 11752 net.cpp:148] Top shape: 24 38 (912)
I0403 15:06:34.144069 11752 net.cpp:148] Top shape: 24 38 (912)
I0403 15:06:34.144083 11752 net.cpp:156] Memory required for data: 1346079072
I0403 15:06:34.144096 11752 layer_factory.hpp:77] Creating layer loss1/loss
I0403 15:06:34.144119 11752 net.cpp:91] Creating Layer loss1/loss
I0403 15:06:34.144141 11752 net.cpp:425] loss1/loss <- loss1/classifier_plantvillage_loss1/classifier_plantvillage_0_split_0
I0403 15:06:34.144173 11752 net.cpp:425] loss1/loss <- label_data_1_split_0
…
