…
I0403 14:35:16.981014 10847 net.cpp:313] The NetState phase (1) differed from the phase (0) specified by a rule in layer data
I0403 14:35:16.982408 10847 net.cpp:49] Initializing net from parameters: 
state {
  phase: TEST
}
layer {
  name: "data"
  type: "Data"
  top: "data"
  top: "label"
  include {
    phase: TEST
  }
  transform_param {
    mirror: false
    crop_size: 224
    mean_file: "/home/mohanty/data/final_dataset/lmdb/grayscale-60-40/mean.binaryproto"
  }
  data_param {
    source: "/home/mohanty/data/final_dataset/lmdb/grayscale-60-40/test_db"
    batch_size: 24
    backend: LMDB
  }
}
layer {
  name: "conv1/7x7_s2"
  type: "Convolution"
  bottom: "data"
  top: "conv1/7x7_s2"
  param {
    lr_mult: 1
    decay_mult: 1
  }
  param {
    lr_mult: 2
    decay_mult: 0
  }
  convolution_param {
    num_output: 64
    pad: 3
    kernel_size: 7
    stride: 2
    weight_filler {
      type: "xavier"
      std: 0.1
    }
    bias_filler {
      type: "constant"
      value: 0.2
    }
  }
}
layer {
  name: "conv1/relu_7x7"
  type: "ReLU"
  bottom: "conv1/7x7_s2"
  top: "conv1/7x7_s2"
}
layer {
  name: "pool1/3x3_s2"
  type: "Pooling"
  bottom: "conv1/7x7_s2"
  top: "pool1/3x3_s2"
  pooling_param {
    pool: MAX
    kernel_size: 3
    stride: 2
  }
}
layer {
  name: "pool1/norm1"
  type: "LRN"
  bottom: "pool1/3x3_s2"
  top: "pool1/norm1"
  lrn_param {
    local_size: 5
    alpha: 0.0001
    beta: 0.75
  }
}
layer {
  name: "conv2/3x3_reduce"
  type: "Convolution"
  bottom: "pool1/norm1"
  top: "conv2/3x3_reduce"
  param {
    lr_mult: 1
    decay_mult: 1
  }
  param {
    lr_mult: 2
    decay_mult: 0
  }
  convolution_param {
    num_output: 64
    kernel_size: 1
    weight_filler {
      type: "xavier"
      std: 0.1
    }
    bias_filler {
      type: "constant"
      value: 0.2
    }
  }
}
layer {
  name: "conv2/relu_3x3_reduce"
  type: "ReLU"
  bottom: "conv2/3x3_reduce"
  top: "conv2/3x3_reduce"
}
layer {
  name: "conv2/3x3"
  type: "Convolution"
  bottom: "conv2/3x3_reduce"
  top: "conv2/3x3"
  param {
    lr_mult: 1
    decay_mult: 1
  }
  param {
    lr_mult: 2
    decay_mult: 0
  }
  convolution_param {
    num_output: 192
    pad: 1
    kernel_size: 3
    weight_filler {
      type: "xavier"
      std: 0.03
    }
    bias_filler {
      type: "constant"
      value: 0.2
    }
  }
}
layer {
  name: "conv2/relu_3x3"
  type: "ReLU"
  bottom: "conv2/3x3"
  top: "conv2/3x3"
}
layer {
  name: "conv2/norm2"
  type: "LRN"
  bottom: "conv2/3x3"
  top: "conv2/norm2"
  lrn_param {
    local_size: 5
    alpha: 0.0001
    beta: 0.75
  }
}
layer {
  name: "pool2/3x3_s2"
  type: "Pooling"
  bottom: "conv2/norm2"
  top: "pool2/3x3_s2"
  pooling_param {
    pool: MAX
    kernel_size: 3
    stride: 2
  }
}
layer {
  name: "inception_3a/1x1"
  type: "Convolution"
  bottom: "pool2/3x3_s2"
  top: "inception_3a/1x1"
  param {
    lr_mult: 1
    decay_mult: 1
  }
  param {
    lr_mult: 2
    decay_mult: 0
  }
  convolution_param {
    num_output: 64
    kernel_size: 1
    weight_filler {
      type: "xavier"
      std: 0.03
    }
    bias_filler {
      type: "constant"
      value: 0.2
    }
  }
}
layer {
  name: "inception_3a/relu_1x1"
  type: "ReLU"
  bottom: "inception_3a/1x1"
  top: "inception_3a/1x1"
}
layer {
  name: "inception_3a/3x3_reduce"
  type: "Convolution"
  bottom: "pool2/3x3_s2"
  top: "inception_3a/3x3_reduce"
  param {
    lr_mult: 1
    decay_mult: 1
  }
  param {
    lr_mult: 2
    decay_mult: 0
  }
  convolution_param {
    num_output: 96
    kernel_size: 1
    weight_filler {
      type: "xavier"
      std: 0.09
    }
    bias_filler {
      type: "constant"
      value: 0.2
    }
  }
}
layer {
  name: "inception_3a/relu_3x3_reduce"
  type: "ReLU"
  bottom: "inception_3a/3x3_reduce"
  top: "inception_3a/3x3_reduce"
}
layer {
  name: "inception_3a/3x3"
  type: "Convolution"
  bottom: "inception_3a/3x3_reduce"
  top: "inception_3a/3x3"
  param {
    lr_mult: 1
    decay_mult: 1
  }
  param {
    lr_mult: 2
    decay_mult: 0
  }
  convolution_param {
    num_output: 128
    pad: 1
    kernel_size: 3
    weight_filler {
      type: "xavier"
      std: 0.03
    }
    bias_filler {
      type: "constant"
      value: 0.2
    }
  }
}
layer {
  name: "inception_3a/relu_3x3"
  type: "ReLU"
  bottom: "inception_3a/3x3"
  top: "inception_3a/3x3"
}
layer {
  name: "inception_3a/5x5_reduce"
  type: "Convolution"
  bottom: "pool2/3x3_s2"
  top: "inception_3a/5x5_reduce"
  param {
    lr_mult: 1
    decay_mult: 1
  }
  param {
    lr_mult: 2
    decay_mult: 0
  }
  convolution_param {
    num_output: 16
    kernel_size: 1
    weight_filler {
      type: "xavier"
      std: 0.2
    }
    bias_filler {
      type: "constant"
      value: 0.2
    }
  }
}
layer {
  name: "inception_3a/relu_5x5_reduce"
  type: "ReLU"
  bottom: "inception_3a/5x5_reduce"
  top: "inception_3a/5x5_reduce"
}
layer {
  name: "inception_3a/5x5"
  type: "Convolution"
  bottom: "inception_3a/5x5_reduce"
  top: "inception_3a/5x5"
  param {
    lr_mult: 1
    decay_mult: 1
  }
  param {
    lr_mult: 2
    decay_mult: 0
  }
  convolution_param {
    num_output: 32
    pad: 2
    kernel_size: 5
    weight_filler {
      type: "xavier"
      std: 0.03
    }
    bias_filler {
      type: "constant"
      value: 0.2
    }
  }
}
layer {
  name: "inception_3a/relu_5x5"
  type: "ReLU"
  bottom: "inception_3a/5x5"
  top: "inception_3a/5x5"
}
layer {
  name: "inception_3a/pool"
  type: "Pooling"
  bottom: "pool2/3x3_s2"
  top: "inception_3a/pool"
  pooling_param {
    pool: MAX
    kernel_size: 3
    stride: 1
    pad: 1
  }
}
layer {
  name: "inception_3a/pool_proj"
  type: "Convolution"
  bottom: "inception_3a/pool"
  top: "inception_3a/pool_proj"
  param {
    lr_mult: 1
    decay_mult: 1
  }
  param {
    lr_mult: 2
    decay_mult: 0
  }
  convolution_param {
    num_output: 32
    kernel_size: 1
    weight_filler {
      type: "xavier"
      std: 0.1
    }
    bias_filler {
      type: "constant"
      value: 0.2
    }
  }
}
layer {
  name: "inception_3a/relu_pool_proj"
  type: "ReLU"
  bottom: "inception_3a/pool_proj"
  top: "inception_3a/pool_proj"
}
layer {
  name: "inception_3a/output"
  type: "Concat"
  bottom: "inception_3a/1x1"
  bottom: "inception_3a/3x3"
  bottom: "inception_3a/5x5"
  bottom: "inception_3a/pool_proj"
  top: "inception_3a/output"
}
layer {
  name: "inception_3b/1x1"
  type: "Convolution"
  bottom: "inception_3a/output"
  top: "inception_3b/1x1"
  param {
    lr_mult: 1
    decay_mult: 1
  }
  param {
    lr_mult: 2
    decay_mult: 0
  }
  convolution_param {
    num_output: 128
    kernel_size: 1
    weight_filler {
      type: "xavier"
      std: 0.03
    }
    bias_filler {
      type: "constant"
      value: 0.2
    }
  }
}
layer {
  name: "inception_3b/relu_1x1"
  type: "ReLU"
  bottom: "inception_3b/1x1"
  top: "inception_3b/1x1"
}
layer {
  name: "inception_3b/3x3_reduce"
  type: "Convolution"
  bottom: "inception_3a/output"
  top: "inception_3b/3x3_reduce"
  param {
    lr_mult: 1
    decay_mult: 1
  }
  param {
    lr_mult: 2
    decay_mult: 0
  }
  convolution_param {
    num_output: 128
    kernel_size: 1
    weight_filler {
      type: "xavier"
      std: 0.09
    }
    bias_filler {
      type: "constant"
      value: 0.2
    }
  }
}
layer {
  name: "inception_3b/relu_3x3_reduce"
  type: "ReLU"
  bottom: "inception_3b/3x3_reduce"
  top: "inception_3b/3x3_reduce"
}
layer {
  name: "inception_3b/3x3"
  type: "Convolution"
  bottom: "inception_3b/3x3_reduce"
  top: "inception_3b/3x3"
  param {
    lr_mult: 1
    decay_mult: 1
  }
  param {
    lr_mult: 2
    decay_mult: 0
  }
  convolution_param {
    num_output: 192
    pad: 1
    kernel_size: 3
    weight_filler {
      type: "xavier"
      std: 0.03
    }
    bias_filler {
      type: "constant"
      value: 0.2
    }
  }
}
layer {
  name: "inception_3b/relu_3x3"
  type: "ReLU"
  bottom: "inception_3b/3x3"
  top: "inception_3b/3x3"
}
layer {
  name: "inception_3b/5x5_reduce"
  type: "Convolution"
  bottom: "inception_3a/output"
  top: "inception_3b/5x5_reduce"
  param {
    lr_mult: 1
    decay_mult: 1
  }
  param {
    lr_mult: 2
    decay_mult: 0
  }
  convolution_param {
    num_output: 32
    kernel_size: 1
    weight_filler {
      type: "xavier"
      std: 0.2
    }
    bias_filler {
      type: "constant"
      value: 0.2
    }
  }
}
layer {
  name: "inception_3b/relu_5x5_reduce"
  type: "ReLU"
  bottom: "inception_3b/5x5_reduce"
  top: "inception_3b/5x5_reduce"
}
layer {
  name: "inception_3b/5x5"
  type: "Convolution"
  bottom: "inception_3b/5x5_reduce"
  top: "inception_3b/5x5"
  param {
    lr_mult: 1
    decay_mult: 1
  }
  param {
    lr_mult: 2
    decay_mult: 0
  }
  convolution_param {
    num_output: 96
    pad: 2
    kernel_size: 5
    weight_filler {
      type: "xavier"
      std: 0.03
    }
    bias_filler {
      type: "constant"
      value: 0.2
    }
  }
}
layer {
  name: "inception_3b/relu_5x5"
  type: "ReLU"
  bottom: "inception_3b/5x5"
  top: "inception_3b/5x5"
}
layer {
  name: "inception_3b/pool"
  type: "Pooling"
  bottom: "inception_3a/output"
  top: "inception_3b/pool"
  pooling_param {
    pool: MAX
    kernel_size: 3
    stride: 1
    pad: 1
  }
}
layer {
  name: "inception_3b/pool_proj"
  type: "Convolution"
  bottom: "inception_3b/pool"
  top: "inception_3b/pool_proj"
  param {
    lr_mult: 1
    decay_mult: 1
  }
  param {
    lr_mult: 2
    decay_mult: 0
  }
  convolution_param {
    num_output: 64
    kernel_size: 1
    weight_filler {
      type: "xavier"
      std: 0.1
    }
    bias_filler {
      type: "constant"
      value: 0.2
    }
  }
}
layer {
  name: "inception_3b/relu_pool_proj"
  type: "ReLU"
  bottom: "inception_3b/pool_proj"
  top: "inception_3b/pool_proj"
}
layer {
  name: "inception_3b/output"
  type: "Concat"
  bottom: "inception_3b/1x1"
  bottom: "inception_3b/3x3"
  bottom: "inception_3b/5x5"
  bottom: "inception_3b/pool_proj"
  top: "inception_3b/output"
}
layer {
  name: "pool3/3x3_s2"
  type: "Pooling"
  bottom: "inception_3b/output"
  top: "pool3/3x3_s2"
  pooling_param {
    pool: MAX
    kernel_size: 3
    stride: 2
  }
}
layer {
  name: "inception_4a/1x1"
  type: "Convolution"
  bottom: "pool3/3x3_s2"
  top: "inception_4a/1x1"
  param {
    lr_mult: 1
    decay_mult: 1
  }
  param {
    lr_mult: 2
    decay_mult: 0
  }
  convolution_param {
    num_output: 192
    kernel_size: 1
    weight_filler {
      type: "xavier"
      std: 0.03
    }
    bias_filler {
      type: "constant"
      value: 0.2
    }
  }
}
layer {
  name: "inception_4a/relu_1x1"
  type: "ReLU"
  bottom: "inception_4a/1x1"
  top: "inception_4a/1x1"
}
layer {
  name: "inception_4a/3x3_reduce"
  type: "Convolution"
  bottom: "pool3/3x3_s2"
  top: "inception_4a/3x3_reduce"
  param {
    lr_mult: 1
    decay_mult: 1
  }
  param {
    lr_mult: 2
    decay_mult: 0
  }
  convolution_param {
    num_output: 96
    kernel_size: 1
    weight_filler {
      type: "xavier"
      std: 0.09
    }
    bias_filler {
      type: "constant"
      value: 0.2
    }
  }
}
layer {
  name: "inception_4a/relu_3x3_reduce"
  type: "ReLU"
  bottom: "inception_4a/3x3_reduce"
  top: "inception_4a/3x3_reduce"
}
layer {
  name: "inception_4a/3x3"
  type: "Convolution"
  bottom: "inception_4a/3x3_reduce"
  top: "inception_4a/3x3"
  param {
    lr_mult: 1
    decay_mult: 1
  }
  param {
    lr_mult: 2
    decay_mult: 0
  }
  convolution_param {
    num_output: 208
    pad: 1
    kernel_size: 3
    weight_filler {
      type: "xavier"
      std: 0.03
    }
    bias_filler {
      type: "constant"
      value: 0.2
    }
  }
}
layer {
  name: "inception_4a/relu_3x3"
  type: "ReLU"
  bottom: "inception_4a/3x3"
  top: "inception_4a/3x3"
}
layer {
  name: "inception_4a/5x5_reduce"
  type: "Convolution"
  bottom: "pool3/3x3_s2"
  top: "inception_4a/5x5_reduce"
  param {
    lr_mult: 1
    decay_mult: 1
  }
  param {
    lr_mult: 2
    decay_mult: 0
  }
  convolution_param {
    num_output: 16
    kernel_size: 1
    weight_filler {
      type: "xavier"
      std: 0.2
    }
    bias_filler {
      type: "constant"
      value: 0.2
    }
  }
}
layer {
  name: "inception_4a/relu_5x5_reduce"
  type: "ReLU"
  bottom: "inception_4a/5x5_reduce"
  top: "inception_4a/5x5_reduce"
}
layer {
  name: "inception_4a/5x5"
  type: "Convolution"
  bottom: "inception_4a/5x5_reduce"
  top: "inception_4a/5x5"
  param {
    lr_mult: 1
    decay_mult: 1
  }
  param {
    lr_mult: 2
    decay_mult: 0
  }
  convolution_param {
    num_output: 48
    pad: 2
    kernel_size: 5
    weight_filler {
      type: "xavier"
      std: 0.03
    }
    bias_filler {
      type: "constant"
      value: 0.2
    }
  }
}
layer {
  name: "inception_4a/relu_5x5"
  type: "ReLU"
  bottom: "inception_4a/5x5"
  top: "inception_4a/5x5"
}
layer {
  name: "inception_4a/pool"
  type: "Pooling"
  bottom: "pool3/3x3_s2"
  top: "inception_4a/pool"
  pooling_param {
    pool: MAX
    kernel_size: 3
    stride: 1
    pad: 1
  }
}
layer {
  name: "inception_4a/pool_proj"
  type: "Convolution"
  bottom: "inception_4a/pool"
  top: "inception_4a/pool_proj"
  param {
    lr_mult: 1
    decay_mult: 1
  }
  param {
    lr_mult: 2
    decay_mult: 0
  }
  convolution_param {
    num_output: 64
    kernel_size: 1
    weight_filler {
      type: "xavier"
      std: 0.1
    }
    bias_filler {
      type: "constant"
      value: 0.2
    }
  }
}
layer {
  name: "inception_4a/relu_pool_proj"
  type: "ReLU"
  bottom: "inception_4a/pool_proj"
  top: "inception_4a/pool_proj"
}
layer {
  name: "inception_4a/output"
  type: "Concat"
  bottom: "inception_4a/1x1"
  bottom: "inception_4a/3x3"
  bottom: "inception_4a/5x5"
  bottom: "inception_4a/pool_proj"
  top: "inception_4a/output"
}
layer {
  name: "loss1/ave_pool"
  type: "Pooling"
  bottom: "inception_4a/output"
  top: "loss1/ave_pool"
  pooling_param {
    pool: AVE
    kernel_size: 5
    stride: 3
  }
}
layer {
  name: "loss1/conv"
  type: "Convolution"
  bottom: "loss1/ave_pool"
  top: "loss1/conv"
  param {
    lr_mult: 1
    decay_mult: 1
  }
  param {
    lr_mult: 2
    decay_mult: 0
  }
  convolution_param {
    num_output: 128
    kernel_size: 1
    weight_filler {
      type: "xavier"
      std: 0.08
    }
    bias_filler {
      type: "constant"
      value: 0.2
    }
  }
}
layer {
  name: "loss1/relu_conv"
  type: "ReLU"
  bottom: "loss1/conv"
  top: "loss1/conv"
}
layer {
  name: "loss1/fc"
  type: "InnerProduct"
  bottom: "loss1/conv"
  top: "loss1/fc"
  param {
    lr_mult: 1
    decay_mult: 1
  }
  param {
    lr_mult: 2
    decay_mult: 0
  }
  inner_product_param {
    num_output: 1024
    weight_filler {
      type: "xavier"
      std: 0.02
    }
    bias_filler {
      type: "constant"
      value: 0.2
    }
  }
}
layer {
  name: "loss1/relu_fc"
  type: "ReLU"
  bottom: "loss1/fc"
  top: "loss1/fc"
}
layer {
  name: "loss1/drop_fc"
  type: "Dropout"
  bottom: "loss1/fc"
  top: "loss1/fc"
  dropout_param {
    dropout_ratio: 0.7
  }
}
layer {
  name: "loss1/classifier_plantvillage"
  type: "InnerProduct"
  bottom: "loss1/fc"
  top: "loss1/classifier_plantvillage"
  param {
    lr_mult: 1
    decay_mult: 1
  }
  param {
    lr_mult: 2
    decay_mult: 0
  }
  inner_product_param {
    num_output: 38
    weight_filler {
      type: "xavier"
      std: 0.0009765625
    }
    bias_filler {
      type: "constant"
      value: 0
    }
  }
}
layer {
  name: "inception_4b/1x1"
  type: "Convolution"
  bottom: "inception_4a/output"
  top: "inception_4b/1x1"
  param {
    lr_mult: 1
    decay_mult: 1
  }
  param {
    lr_mult: 2
    decay_mult: 0
  }
  convolution_param {
    num_output: 160
    kernel_size: 1
    weight_filler {
      type: "xavier"
      std: 0.03
    }
    bias_filler {
      type: "constant"
      value: 0.2
    }
  }
}
layer {
  name: "inception_4b/relu_1x1"
  type: "ReLU"
  bottom: "inception_4b/1x1"
  top: "inception_4b/1x1"
}
layer {
  name: "inception_4b/3x3_reduce"
  type: "Convolution"
  bottom: "inception_4a/output"
  top: "inception_4b/3x3_reduce"
  param {
    lr_mult: 1
    decay_mult: 1
  }
  param {
    lr_mult: 2
    decay_mult: 0
  }
  convolution_param {
    num_output: 112
    kernel_size: 1
    weight_filler {
      type: "xavier"
      std: 0.09
    }
    bias_filler {
      type: "constant"
      value: 0.2
    }
  }
}
layer {
  name: "inception_4b/relu_3x3_reduce"
  type: "ReLU"
  bottom: "inception_4b/3x3_reduce"
  top: "inception_4b/3x3_reduce"
}
layer {
  name: "inception_4b/3x3"
  type: "Convolution"
  bottom: "inception_4b/3x3_reduce"
  top: "inception_4b/3x3"
  param {
    lr_mult: 1
    decay_mult: 1
  }
  param {
    lr_mult: 2
    decay_mult: 0
  }
  convolution_param {
    num_output: 224
    pad: 1
    kernel_size: 3
    weight_filler {
      type: "xavier"
      std: 0.03
    }
    bias_filler {
      type: "constant"
      value: 0.2
    }
  }
}
layer {
  name: "inception_4b/relu_3x3"
  type: "ReLU"
  bottom: "inception_4b/3x3"
  top: "inception_4b/3x3"
}
layer {
  name: "inception_4b/5x5_reduce"
  type: "Convolution"
  bottom: "inception_4a/output"
  top: "inception_4b/5x5_reduce"
  param {
    lr_mult: 1
    decay_mult: 1
  }
  param {
    lr_mult: 2
    decay_mult: 0
  }
  convolution_param {
    num_output: 24
    kernel_size: 1
    weight_filler {
      type: "xavier"
      std: 0.2
    }
    bias_filler {
      type: "constant"
      value: 0.2
    }
  }
}
layer {
  name: "inception_4b/relu_5x5_reduce"
  type: "ReLU"
  bottom: "inception_4b/5x5_reduce"
  top: "inception_4b/5x5_reduce"
}
layer {
  name: "inception_4b/5x5"
  type: "Convolution"
  bottom: "inception_4b/5x5_reduce"
  top: "inception_4b/5x5"
  param {
    lr_mult: 1
    decay_mult: 1
  }
  param {
    lr_mult: 2
    decay_mult: 0
  }
  convolution_param {
    num_output: 64
    pad: 2
    kernel_size: 5
    weight_filler {
      type: "xavier"
      std: 0.03
    }
    bias_filler {
      type: "constant"
      value: 0.2
    }
  }
}
layer {
  name: "inception_4b/relu_5x5"
  type: "ReLU"
  bottom: "inception_4b/5x5"
  top: "inception_4b/5x5"
}
layer {
  name: "inception_4b/pool"
  type: "Pooling"
  bottom: "inception_4a/output"
  top: "inception_4b/pool"
  pooling_param {
    pool: MAX
    kernel_size: 3
    stride: 1
    pad: 1
  }
}
layer {
  name: "inception_4b/pool_proj"
  type: "Convolution"
  bottom: "inception_4b/pool"
  top: "inception_4b/pool_proj"
  param {
    lr_mult: 1
    decay_mult: 1
  }
  param {
    lr_mult: 2
    decay_mult: 0
  }
  convolution_param {
    num_output: 64
    kernel_size: 1
    weight_filler {
      type: "xavier"
      std: 0.1
    }
    bias_filler {
      type: "constant"
      value: 0.2
    }
  }
}
layer {
  name: "inception_4b/relu_pool_proj"
  type: "ReLU"
  bottom: "inception_4b/pool_proj"
  top: "inception_4b/pool_proj"
}
layer {
  name: "inception_4b/output"
  type: "Concat"
  bottom: "inception_4b/1x1"
  bottom: "inception_4b/3x3"
  bottom: "inception_4b/5x5"
  bottom: "inception_4b/pool_proj"
  top: "inception_4b/output"
}
layer {
  name: "inception_4c/1x1"
  type: "Convolution"
  bottom: "inception_4b/output"
  top: "inception_4c/1x1"
  param {
    lr_mult: 1
    decay_mult: 1
  }
  param {
    lr_mult: 2
    decay_mult: 0
  }
  convolution_param {
    num_output: 128
    kernel_size: 1
    weight_filler {
      type: "xavier"
      std: 0.03
    }
    bias_filler {
      type: "constant"
      value: 0.2
    }
  }
}
layer {
  name: "inception_4c/relu_1x1"
  type: "ReLU"
  bottom: "inception_4c/1x1"
  top: "inception_4c/1x1"
}
layer {
  name: "inception_4c/3x3_reduce"
  type: "Convolution"
  bottom: "inception_4b/output"
  top: "inception_4c/3x3_reduce"
  param {
    lr_mult: 1
    decay_mult: 1
  }
  param {
    lr_mult: 2
    decay_mult: 0
  }
  convolution_param {
    num_output: 128
    kernel_size: 1
    weight_filler {
      type: "xavier"
      std: 0.09
    }
    bias_filler {
      type: "constant"
      value: 0.2
    }
  }
}
layer {
  name: "inception_4c/relu_3x3_reduce"
  type: "ReLU"
  bottom: "inception_4c/3x3_reduce"
  top: "inception_4c/3x3_reduce"
}
layer {
  name: "inception_4c/3x3"
  type: "Convolution"
  bottom: "inception_4c/3x3_reduce"
  top: "inception_4c/3x3"
  param {
    lr_mult: 1
    decay_mult: 1
  }
  param {
    lr_mult: 2
    decay_mult: 0
  }
  convolution_param {
    num_output: 256
    pad: 1
    kernel_size: 3
    weight_filler {
      type: "xavier"
      std: 0.03
    }
    bias_filler {
      type: "constant"
      value: 0.2
    }
  }
}
layer {
  name: "inception_4c/relu_3x3"
  type: "ReLU"
  bottom: "inception_4c/3x3"
  top: "inception_4c/3x3"
}
layer {
  name: "inception_4c/5x5_reduce"
  type: "Convolution"
  bottom: "inception_4b/output"
  top: "inception_4c/5x5_reduce"
  param {
    lr_mult: 1
    decay_mult: 1
  }
  param {
    lr_mult: 2
    decay_mult: 0
  }
  convolution_param {
    num_output: 24
    kernel_size: 1
    weight_filler {
      type: "xavier"
      std: 0.2
    }
    bias_filler {
      type: "constant"
      value: 0.2
    }
  }
}
layer {
  name: "inception_4c/relu_5x5_reduce"
  type: "ReLU"
  bottom: "inception_4c/5x5_reduce"
  top: "inception_4c/5x5_reduce"
}
layer {
  name: "inception_4c/5x5"
  type: "Convolution"
  bottom: "inception_4c/5x5_reduce"
  top: "inception_4c/5x5"
  param {
    lr_mult: 1
    decay_mult: 1
  }
  param {
    lr_mult: 2
    decay_mult: 0
  }
  convolution_param {
    num_output: 64
    pad: 2
    kernel_size: 5
    weight_filler {
      type: "xavier"
      std: 0.03
    }
    bias_filler {
      type: "constant"
      value: 0.2
    }
  }
}
layer {
  name: "inception_4c/relu_5x5"
  type: "ReLU"
  bottom: "inception_4c/5x5"
  top: "inception_4c/5x5"
}
layer {
  name: "inception_4c/pool"
  type: "Pooling"
  bottom: "inception_4b/output"
  top: "inception_4c/pool"
  pooling_param {
    pool: MAX
    kernel_size: 3
    stride: 1
    pad: 1
  }
}
layer {
  name: "inception_4c/pool_proj"
  type: "Convolution"
  bottom: "inception_4c/pool"
  top: "inception_4c/pool_proj"
  param {
    lr_mult: 1
    decay_mult: 1
  }
  param {
    lr_mult: 2
    decay_mult: 0
  }
  convolution_param {
    num_output: 64
    kernel_size: 1
    weight_filler {
      type: "xavier"
      std: 0.1
    }
    bias_filler {
      type: "constant"
      value: 0.2
    }
  }
}
layer {
  name: "inception_4c/relu_pool_proj"
  type: "ReLU"
  bottom: "inception_4c/pool_proj"
  top: "inception_4c/pool_proj"
}
layer {
  name: "inception_4c/output"
  type: "Concat"
  bottom: "inception_4c/1x1"
  bottom: "inception_4c/3x3"
  bottom: "inception_4c/5x5"
  bottom: "inception_4c/pool_proj"
  top: "inception_4c/output"
}
layer {
  name: "inception_4d/1x1"
  type: "Convolution"
  bottom: "inception_4c/output"
  top: "inception_4d/1x1"
  param {
    lr_mult: 1
    decay_mult: 1
  }
  param {
    lr_mult: 2
    decay_mult: 0
  }
  convolution_param {
    num_output: 112
    kernel_size: 1
    weight_filler {
      type: "xavier"
      std: 0.03
    }
    bias_filler {
      type: "constant"
      value: 0.2
    }
  }
}
layer {
  name: "inception_4d/relu_1x1"
  type: "ReLU"
  bottom: "inception_4d/1x1"
  top: "inception_4d/1x1"
}
layer {
  name: "inception_4d/3x3_reduce"
  type: "Convolution"
  bottom: "inception_4c/output"
  top: "inception_4d/3x3_reduce"
  param {
    lr_mult: 1
    decay_mult: 1
  }
  param {
    lr_mult: 2
    decay_mult: 0
  }
  convolution_param {
    num_output: 144
    kernel_size: 1
    weight_filler {
      type: "xavier"
      std: 0.09
    }
    bias_filler {
      type: "constant"
      value: 0.2
    }
  }
}
layer {
  name: "inception_4d/relu_3x3_reduce"
  type: "ReLU"
  bottom: "inception_4d/3x3_reduce"
  top: "inception_4d/3x3_reduce"
}
layer {
  name: "inception_4d/3x3"
  type: "Convolution"
  bottom: "inception_4d/3x3_reduce"
  top: "inception_4d/3x3"
  param {
    lr_mult: 1
    decay_mult: 1
  }
  param {
    lr_mult: 2
    decay_mult: 0
  }
  convolution_param {
    num_output: 288
    pad: 1
    kernel_size: 3
    weight_filler {
      type: "xavier"
      std: 0.03
    }
    bias_filler {
      type: "constant"
      value: 0.2
    }
  }
}
layer {
  name: "inception_4d/relu_3x3"
  type: "ReLU"
  bottom: "inception_4d/3x3"
  top: "inception_4d/3x3"
}
layer {
  name: "inception_4d/5x5_reduce"
  type: "Convolution"
  bottom: "inception_4c/output"
  top: "inception_4d/5x5_reduce"
  param {
    lr_mult: 1
    decay_mult: 1
  }
  param {
    lr_mult: 2
    decay_mult: 0
  }
  convolution_param {
    num_output: 32
    kernel_size: 1
    weight_filler {
      type: "xavier"
      std: 0.2
    }
    bias_filler {
      type: "constant"
      value: 0.2
    }
  }
}
layer {
  name: "inception_4d/relu_5x5_reduce"
  type: "ReLU"
  bottom: "inception_4d/5x5_reduce"
  top: "inception_4d/5x5_reduce"
}
layer {
  name: "inception_4d/5x5"
  type: "Convolution"
  bottom: "inception_4d/5x5_reduce"
  top: "inception_4d/5x5"
  param {
    lr_mult: 1
    decay_mult: 1
  }
  param {
    lr_mult: 2
    decay_mult: 0
  }
  convolution_param {
    num_output: 64
    pad: 2
    kernel_size: 5
    weight_filler {
      type: "xavier"
      std: 0.03
    }
    bias_filler {
      type: "constant"
      value: 0.2
    }
  }
}
layer {
  name: "inception_4d/relu_5x5"
  type: "ReLU"
  bottom: "inception_4d/5x5"
  top: "inception_4d/5x5"
}
layer {
  name: "inception_4d/pool"
  type: "Pooling"
  bottom: "inception_4c/output"
  top: "inception_4d/pool"
  pooling_param {
    pool: MAX
    kernel_size: 3
    stride: 1
    pad: 1
  }
}
layer {
  name: "inception_4d/pool_proj"
  type: "Convolution"
  bottom: "inception_4d/pool"
  top: "inception_4d/pool_proj"
  param {
    lr_mult: 1
    decay_mult: 1
  }
  param {
    lr_mult: 2
    decay_mult: 0
  }
  convolution_param {
    num_output: 64
    kernel_size: 1
    weight_filler {
      type: "xavier"
      std: 0.1
    }
    bias_filler {
      type: "constant"
      value: 0.2
    }
  }
}
layer {
  name: "inception_4d/relu_pool_proj"
  type: "ReLU"
  bottom: "inception_4d/pool_proj"
  top: "inception_4d/pool_proj"
}
layer {
  name: "inception_4d/output"
  type: "Concat"
  bottom: "inception_4d/1x1"
  bottom: "inception_4d/3x3"
  bottom: "inception_4d/5x5"
  bottom: "inception_4d/pool_proj"
  top: "inception_4d/output"
}
layer {
  name: "loss2/ave_pool"
  type: "Pooling"
  bottom: "inception_4d/output"
  top: "loss2/ave_pool"
  pooling_param {
    pool: AVE
    kernel_size: 5
    stride: 3
  }
}
layer {
  name: "loss2/conv"
  type: "Convolution"
  bottom: "loss2/ave_pool"
  top: "loss2/conv"
  param {
    lr_mult: 1
    decay_mult: 1
  }
  param {
    lr_mult: 2
    decay_mult: 0
  }
  convolution_param {
    num_output: 128
    kernel_size: 1
    weight_filler {
      type: "xavier"
      std: 0.08
    }
    bias_filler {
      type: "constant"
      value: 0.2
    }
  }
}
layer {
  name: "loss2/relu_conv"
  type: "ReLU"
  bottom: "loss2/conv"
  top: "loss2/conv"
}
layer {
  name: "loss2/fc"
  type: "InnerProduct"
  bottom: "loss2/conv"
  top: "loss2/fc"
  param {
    lr_mult: 1
    decay_mult: 1
  }
  param {
    lr_mult: 2
    decay_mult: 0
  }
  inner_product_param {
    num_output: 1024
    weight_filler {
      type: "xavier"
      std: 0.02
    }
    bias_filler {
      type: "constant"
      value: 0.2
    }
  }
}
layer {
  name: "loss2/relu_fc"
  type: "ReLU"
  bottom: "loss2/fc"
  top: "loss2/fc"
}
layer {
  name: "loss2/drop_fc"
  type: "Dropout"
  bottom: "loss2/fc"
  top: "loss2/fc"
  dropout_param {
    dropout_ratio: 0.7
  }
}
layer {
  name: "loss2/classifier_plantvillage"
  type: "InnerProduct"
  bottom: "loss2/fc"
  top: "loss2/classifier_plantvillage"
  param {
    lr_mult: 1
    decay_mult: 1
  }
  param {
    lr_mult: 2
    decay_mult: 0
  }
  inner_product_param {
    num_output: 38
    weight_filler {
      type: "xavier"
      std: 0.0009765625
    }
    bias_filler {
      type: "constant"
      value: 0
    }
  }
}
layer {
  name: "inception_4e/1x1"
  type: "Convolution"
  bottom: "inception_4d/output"
  top: "inception_4e/1x1"
  param {
    lr_mult: 1
    decay_mult: 1
  }
  param {
    lr_mult: 2
    decay_mult: 0
  }
  convolution_param {
    num_output: 256
    kernel_size: 1
    weight_filler {
      type: "xavier"
      std: 0.03
    }
    bias_filler {
      type: "constant"
      value: 0.2
    }
  }
}
layer {
  name: "inception_4e/relu_1x1"
  type: "ReLU"
  bottom: "inception_4e/1x1"
  top: "inception_4e/1x1"
}
layer {
  name: "inception_4e/3x3_reduce"
  type: "Convolution"
  bottom: "inception_4d/output"
  top: "inception_4e/3x3_reduce"
  param {
    lr_mult: 1
    decay_mult: 1
  }
  param {
    lr_mult: 2
    decay_mult: 0
  }
  convolution_param {
    num_output: 160
    kernel_size: 1
    weight_filler {
      type: "xavier"
      std: 0.09
    }
    bias_filler {
      type: "constant"
      value: 0.2
    }
  }
}
layer {
  name: "inception_4e/relu_3x3_reduce"
  type: "ReLU"
  bottom: "inception_4e/3x3_reduce"
  top: "inception_4e/3x3_reduce"
}
layer {
  name: "inception_4e/3x3"
  type: "Convolution"
  bottom: "inception_4e/3x3_reduce"
  top: "inception_4e/3x3"
  param {
    lr_mult: 1
    decay_mult: 1
  }
  param {
    lr_mult: 2
    decay_mult: 0
  }
  convolution_param {
    num_output: 320
    pad: 1
    kernel_size: 3
    weight_filler {
      type: "xavier"
      std: 0.03
    }
    bias_filler {
      type: "constant"
      value: 0.2
    }
  }
}
layer {
  name: "inception_4e/relu_3x3"
  type: "ReLU"
  bottom: "inception_4e/3x3"
  top: "inception_4e/3x3"
}
layer {
  name: "inception_4e/5x5_reduce"
  type: "Convolution"
  bottom: "inception_4d/output"
  top: "inception_4e/5x5_reduce"
  param {
    lr_mult: 1
    decay_mult: 1
  }
  param {
    lr_mult: 2
    decay_mult: 0
  }
  convolution_param {
    num_output: 32
    kernel_size: 1
    weight_filler {
      type: "xavier"
      std: 0.2
    }
    bias_filler {
      type: "constant"
      value: 0.2
    }
  }
}
layer {
  name: "inception_4e/relu_5x5_reduce"
  type: "ReLU"
  bottom: "inception_4e/5x5_reduce"
  top: "inception_4e/5x5_reduce"
}
layer {
  name: "inception_4e/5x5"
  type: "Convolution"
  bottom: "inception_4e/5x5_reduce"
  top: "inception_4e/
I0403 14:35:16.983849 10847 layer_factory.hpp:77] Creating layer data
I0403 14:35:16.984570 10847 net.cpp:91] Creating Layer data
I0403 14:35:16.984613 10847 net.cpp:399] data -> data
I0403 14:35:16.984681 10847 net.cpp:399] data -> label
I0403 14:35:16.984829 10847 data_transformer.cpp:25] Loading mean file from: /home/mohanty/data/final_dataset/lmdb/grayscale-60-40/mean.binaryproto
I0403 14:35:17.000495 10855 db_lmdb.cpp:38] Opened lmdb /home/mohanty/data/final_dataset/lmdb/grayscale-60-40/test_db
I0403 14:35:17.069864 10847 data_layer.cpp:41] output data size: 24,3,224,224
I0403 14:35:17.107676 10847 net.cpp:141] Setting up data
I0403 14:35:17.126876 10847 net.cpp:148] Top shape: 24 3 224 224 (3612672)
I0403 14:35:17.126916 10847 net.cpp:148] Top shape: 24 (24)
I0403 14:35:17.126935 10847 net.cpp:156] Memory required for data: 14450784
I0403 14:35:17.126968 10847 layer_factory.hpp:77] Creating layer label_data_1_split
I0403 14:35:17.127001 10847 net.cpp:91] Creating Layer label_data_1_split
I0403 14:35:17.127022 10847 net.cpp:425] label_data_1_split <- label
I0403 14:35:17.127060 10847 net.cpp:399] label_data_1_split -> label_data_1_split_0
I0403 14:35:17.127092 10847 net.cpp:399] label_data_1_split -> label_data_1_split_1
I0403 14:35:17.127120 10847 net.cpp:399] label_data_1_split -> label_data_1_split_2
I0403 14:35:17.127159 10847 net.cpp:399] label_data_1_split -> label_data_1_split_3
I0403 14:35:17.127187 10847 net.cpp:399] label_data_1_split -> label_data_1_split_4
I0403 14:35:17.127210 10847 net.cpp:399] label_data_1_split -> label_data_1_split_5
I0403 14:35:17.127234 10847 net.cpp:399] label_data_1_split -> label_data_1_split_6
I0403 14:35:17.127259 10847 net.cpp:399] label_data_1_split -> label_data_1_split_7
I0403 14:35:17.127282 10847 net.cpp:399] label_data_1_split -> label_data_1_split_8
I0403 14:35:17.127306 10847 net.cpp:399] label_data_1_split -> label_data_1_split_9
I0403 14:35:17.127452 10847 net.cpp:141] Setting up label_data_1_split
I0403 14:35:17.127483 10847 net.cpp:148] Top shape: 24 (24)
I0403 14:35:17.127503 10847 net.cpp:148] Top shape: 24 (24)
I0403 14:35:17.127522 10847 net.cpp:148] Top shape: 24 (24)
I0403 14:35:17.127542 10847 net.cpp:148] Top shape: 24 (24)
I0403 14:35:17.127562 10847 net.cpp:148] Top shape: 24 (24)
I0403 14:35:17.127579 10847 net.cpp:148] Top shape: 24 (24)
I0403 14:35:17.127599 10847 net.cpp:148] Top shape: 24 (24)
I0403 14:35:17.127617 10847 net.cpp:148] Top shape: 24 (24)
I0403 14:35:17.127637 10847 net.cpp:148] Top shape: 24 (24)
I0403 14:35:17.127656 10847 net.cpp:148] Top shape: 24 (24)
I0403 14:35:17.127701 10847 net.cpp:156] Memory required for data: 14451744
I0403 14:35:17.127720 10847 layer_factory.hpp:77] Creating layer conv1/7x7_s2
I0403 14:35:17.127776 10847 net.cpp:91] Creating Layer conv1/7x7_s2
I0403 14:35:17.127800 10847 net.cpp:425] conv1/7x7_s2 <- data
I0403 14:35:17.127825 10847 net.cpp:399] conv1/7x7_s2 -> conv1/7x7_s2
I0403 14:35:17.800521 10847 net.cpp:141] Setting up conv1/7x7_s2
I0403 14:35:17.800597 10847 net.cpp:148] Top shape: 24 64 112 112 (19267584)
I0403 14:35:17.800617 10847 net.cpp:156] Memory required for data: 91522080
I0403 14:35:17.800655 10847 layer_factory.hpp:77] Creating layer conv1/relu_7x7
I0403 14:35:17.800688 10847 net.cpp:91] Creating Layer conv1/relu_7x7
I0403 14:35:17.800709 10847 net.cpp:425] conv1/relu_7x7 <- conv1/7x7_s2
I0403 14:35:17.800731 10847 net.cpp:386] conv1/relu_7x7 -> conv1/7x7_s2 (in-place)
I0403 14:35:17.801043 10847 net.cpp:141] Setting up conv1/relu_7x7
I0403 14:35:17.801076 10847 net.cpp:148] Top shape: 24 64 112 112 (19267584)
I0403 14:35:17.801100 10847 net.cpp:156] Memory required for data: 168592416
I0403 14:35:17.801120 10847 layer_factory.hpp:77] Creating layer pool1/3x3_s2
I0403 14:35:17.801152 10847 net.cpp:91] Creating Layer pool1/3x3_s2
I0403 14:35:17.801173 10847 net.cpp:425] pool1/3x3_s2 <- conv1/7x7_s2
I0403 14:35:17.801195 10847 net.cpp:399] pool1/3x3_s2 -> pool1/3x3_s2
I0403 14:35:17.801285 10847 net.cpp:141] Setting up pool1/3x3_s2
I0403 14:35:17.801314 10847 net.cpp:148] Top shape: 24 64 56 56 (4816896)
I0403 14:35:17.801332 10847 net.cpp:156] Memory required for data: 187860000
I0403 14:35:17.801349 10847 layer_factory.hpp:77] Creating layer pool1/norm1
I0403 14:35:17.801379 10847 net.cpp:91] Creating Layer pool1/norm1
I0403 14:35:17.801401 10847 net.cpp:425] pool1/norm1 <- pool1/3x3_s2
I0403 14:35:17.801422 10847 net.cpp:399] pool1/norm1 -> pool1/norm1
I0403 14:35:17.801767 10847 net.cpp:141] Setting up pool1/norm1
I0403 14:35:17.801801 10847 net.cpp:148] Top shape: 24 64 56 56 (4816896)
I0403 14:35:17.801820 10847 net.cpp:156] Memory required for data: 207127584
I0403 14:35:17.801839 10847 layer_factory.hpp:77] Creating layer conv2/3x3_reduce
I0403 14:35:17.801868 10847 net.cpp:91] Creating Layer conv2/3x3_reduce
I0403 14:35:17.801888 10847 net.cpp:425] conv2/3x3_reduce <- pool1/norm1
I0403 14:35:17.801909 10847 net.cpp:399] conv2/3x3_reduce -> conv2/3x3_reduce
I0403 14:35:17.803565 10847 net.cpp:141] Setting up conv2/3x3_reduce
I0403 14:35:17.803598 10847 net.cpp:148] Top shape: 24 64 56 56 (4816896)
I0403 14:35:17.803617 10847 net.cpp:156] Memory required for data: 226395168
I0403 14:35:17.803643 10847 layer_factory.hpp:77] Creating layer conv2/relu_3x3_reduce
I0403 14:35:17.803665 10847 net.cpp:91] Creating Layer conv2/relu_3x3_reduce
I0403 14:35:17.803685 10847 net.cpp:425] conv2/relu_3x3_reduce <- conv2/3x3_reduce
I0403 14:35:17.803706 10847 net.cpp:386] conv2/relu_3x3_reduce -> conv2/3x3_reduce (in-place)
I0403 14:35:17.804008 10847 net.cpp:141] Setting up conv2/relu_3x3_reduce
I0403 14:35:17.804040 10847 net.cpp:148] Top shape: 24 64 56 56 (4816896)
I0403 14:35:17.804059 10847 net.cpp:156] Memory required for data: 245662752
I0403 14:35:17.804076 10847 layer_factory.hpp:77] Creating layer conv2/3x3
I0403 14:35:17.804107 10847 net.cpp:91] Creating Layer conv2/3x3
I0403 14:35:17.804131 10847 net.cpp:425] conv2/3x3 <- conv2/3x3_reduce
I0403 14:35:17.804157 10847 net.cpp:399] conv2/3x3 -> conv2/3x3
I0403 14:35:17.806908 10847 net.cpp:141] Setting up conv2/3x3
I0403 14:35:17.806944 10847 net.cpp:148] Top shape: 24 192 56 56 (14450688)
I0403 14:35:17.806963 10847 net.cpp:156] Memory required for data: 303465504
I0403 14:35:17.806988 10847 layer_factory.hpp:77] Creating layer conv2/relu_3x3
I0403 14:35:17.807011 10847 net.cpp:91] Creating Layer conv2/relu_3x3
I0403 14:35:17.807030 10847 net.cpp:425] conv2/relu_3x3 <- conv2/3x3
I0403 14:35:17.807051 10847 net.cpp:386] conv2/relu_3x3 -> conv2/3x3 (in-place)
I0403 14:35:17.807251 10847 net.cpp:141] Setting up conv2/relu_3x3
I0403 14:35:17.807283 10847 net.cpp:148] Top shape: 24 192 56 56 (14450688)
I0403 14:35:17.807329 10847 net.cpp:156] Memory required for data: 361268256
I0403 14:35:17.807349 10847 layer_factory.hpp:77] Creating layer conv2/norm2
I0403 14:35:17.807371 10847 net.cpp:91] Creating Layer conv2/norm2
I0403 14:35:17.807391 10847 net.cpp:425] conv2/norm2 <- conv2/3x3
I0403 14:35:17.807413 10847 net.cpp:399] conv2/norm2 -> conv2/norm2
I0403 14:35:17.807757 10847 net.cpp:141] Setting up conv2/norm2
I0403 14:35:17.807791 10847 net.cpp:148] Top shape: 24 192 56 56 (14450688)
I0403 14:35:17.807809 10847 net.cpp:156] Memory required for data: 419071008
I0403 14:35:17.807827 10847 layer_factory.hpp:77] Creating layer pool2/3x3_s2
I0403 14:35:17.807848 10847 net.cpp:91] Creating Layer pool2/3x3_s2
I0403 14:35:17.807868 10847 net.cpp:425] pool2/3x3_s2 <- conv2/norm2
I0403 14:35:17.807889 10847 net.cpp:399] pool2/3x3_s2 -> pool2/3x3_s2
I0403 14:35:17.807948 10847 net.cpp:141] Setting up pool2/3x3_s2
I0403 14:35:17.807976 10847 net.cpp:148] Top shape: 24 192 28 28 (3612672)
I0403 14:35:17.807994 10847 net.cpp:156] Memory required for data: 433521696
I0403 14:35:17.808012 10847 layer_factory.hpp:77] Creating layer pool2/3x3_s2_pool2/3x3_s2_0_split
I0403 14:35:17.808032 10847 net.cpp:91] Creating Layer pool2/3x3_s2_pool2/3x3_s2_0_split
I0403 14:35:17.808051 10847 net.cpp:425] pool2/3x3_s2_pool2/3x3_s2_0_split <- pool2/3x3_s2
I0403 14:35:17.808073 10847 net.cpp:399] pool2/3x3_s2_pool2/3x3_s2_0_split -> pool2/3x3_s2_pool2/3x3_s2_0_split_0
I0403 14:35:17.808100 10847 net.cpp:399] pool2/3x3_s2_pool2/3x3_s2_0_split -> pool2/3x3_s2_pool2/3x3_s2_0_split_1
I0403 14:35:17.808127 10847 net.cpp:399] pool2/3x3_s2_pool2/3x3_s2_0_split -> pool2/3x3_s2_pool2/3x3_s2_0_split_2
I0403 14:35:17.808152 10847 net.cpp:399] pool2/3x3_s2_pool2/3x3_s2_0_split -> pool2/3x3_s2_pool2/3x3_s2_0_split_3
I0403 14:35:17.808231 10847 net.cpp:141] Setting up pool2/3x3_s2_pool2/3x3_s2_0_split
I0403 14:35:17.808259 10847 net.cpp:148] Top shape: 24 192 28 28 (3612672)
I0403 14:35:17.808279 10847 net.cpp:148] Top shape: 24 192 28 28 (3612672)
I0403 14:35:17.808297 10847 net.cpp:148] Top shape: 24 192 28 28 (3612672)
I0403 14:35:17.808316 10847 net.cpp:148] Top shape: 24 192 28 28 (3612672)
I0403 14:35:17.808332 10847 net.cpp:156] Memory required for data: 491324448
I0403 14:35:17.808349 10847 layer_factory.hpp:77] Creating layer inception_3a/1x1
I0403 14:35:17.808374 10847 net.cpp:91] Creating Layer inception_3a/1x1
I0403 14:35:17.808394 10847 net.cpp:425] inception_3a/1x1 <- pool2/3x3_s2_pool2/3x3_s2_0_split_0
I0403 14:35:17.808415 10847 net.cpp:399] inception_3a/1x1 -> inception_3a/1x1
I0403 14:35:17.810199 10847 net.cpp:141] Setting up inception_3a/1x1
I0403 14:35:17.810231 10847 net.cpp:148] Top shape: 24 64 28 28 (1204224)
I0403 14:35:17.810250 10847 net.cpp:156] Memory required for data: 496141344
I0403 14:35:17.810272 10847 layer_factory.hpp:77] Creating layer inception_3a/relu_1x1
I0403 14:35:17.810299 10847 net.cpp:91] Creating Layer inception_3a/relu_1x1
I0403 14:35:17.810320 10847 net.cpp:425] inception_3a/relu_1x1 <- inception_3a/1x1
I0403 14:35:17.810341 10847 net.cpp:386] inception_3a/relu_1x1 -> inception_3a/1x1 (in-place)
I0403 14:35:17.810555 10847 net.cpp:141] Setting up inception_3a/relu_1x1
I0403 14:35:17.810585 10847 net.cpp:148] Top shape: 24 64 28 28 (1204224)
I0403 14:35:17.810612 10847 net.cpp:156] Memory required for data: 500958240
I0403 14:35:17.810639 10847 layer_factory.hpp:77] Creating layer inception_3a/3x3_reduce
I0403 14:35:17.810675 10847 net.cpp:91] Creating Layer inception_3a/3x3_reduce
I0403 14:35:17.810704 10847 net.cpp:425] inception_3a/3x3_reduce <- pool2/3x3_s2_pool2/3x3_s2_0_split_1
I0403 14:35:17.810734 10847 net.cpp:399] inception_3a/3x3_reduce -> inception_3a/3x3_reduce
I0403 14:35:17.812845 10847 net.cpp:141] Setting up inception_3a/3x3_reduce
I0403 14:35:17.812883 10847 net.cpp:148] Top shape: 24 96 28 28 (1806336)
I0403 14:35:17.812904 10847 net.cpp:156] Memory required for data: 508183584
I0403 14:35:17.812930 10847 layer_factory.hpp:77] Creating layer inception_3a/relu_3x3_reduce
I0403 14:35:17.812973 10847 net.cpp:91] Creating Layer inception_3a/relu_3x3_reduce
I0403 14:35:17.813004 10847 net.cpp:425] inception_3a/relu_3x3_reduce <- inception_3a/3x3_reduce
I0403 14:35:17.813040 10847 net.cpp:386] inception_3a/relu_3x3_reduce -> inception_3a/3x3_reduce (in-place)
I0403 14:35:17.813283 10847 net.cpp:141] Setting up inception_3a/relu_3x3_reduce
I0403 14:35:17.813315 10847 net.cpp:148] Top shape: 24 96 28 28 (1806336)
I0403 14:35:17.813333 10847 net.cpp:156] Memory required for data: 515408928
I0403 14:35:17.813351 10847 layer_factory.hpp:77] Creating layer inception_3a/3x3
I0403 14:35:17.813379 10847 net.cpp:91] Creating Layer inception_3a/3x3
I0403 14:35:17.813400 10847 net.cpp:425] inception_3a/3x3 <- inception_3a/3x3_reduce
I0403 14:35:17.813426 10847 net.cpp:399] inception_3a/3x3 -> inception_3a/3x3
I0403 14:35:17.815454 10847 net.cpp:141] Setting up inception_3a/3x3
I0403 14:35:17.815491 10847 net.cpp:148] Top shape: 24 128 28 28 (2408448)
I0403 14:35:17.815511 10847 net.cpp:156] Memory required for data: 525042720
I0403 14:35:17.815534 10847 layer_factory.hpp:77] Creating layer inception_3a/relu_3x3
I0403 14:35:17.815557 10847 net.cpp:91] Creating Layer inception_3a/relu_3x3
I0403 14:35:17.815577 10847 net.cpp:425] inception_3a/relu_3x3 <- inception_3a/3x3
I0403 14:35:17.815599 10847 net.cpp:386] inception_3a/relu_3x3 -> inception_3a/3x3 (in-place)
I0403 14:35:17.815932 10847 net.cpp:141] Setting up inception_3a/relu_3x3
I0403 14:35:17.815968 10847 net.cpp:148] Top shape: 24 128 28 28 (2408448)
I0403 14:35:17.815987 10847 net.cpp:156] Memory required for data: 534676512
I0403 14:35:17.816004 10847 layer_factory.hpp:77] Creating layer inception_3a/5x5_reduce
I0403 14:35:17.816031 10847 net.cpp:91] Creating Layer inception_3a/5x5_reduce
I0403 14:35:17.816052 10847 net.cpp:425] inception_3a/5x5_reduce <- pool2/3x3_s2_pool2/3x3_s2_0_split_2
I0403 14:35:17.816076 10847 net.cpp:399] inception_3a/5x5_reduce -> inception_3a/5x5_reduce
I0403 14:35:17.817283 10847 net.cpp:141] Setting up inception_3a/5x5_reduce
I0403 14:35:17.817319 10847 net.cpp:148] Top shape: 24 16 28 28 (301056)
I0403 14:35:17.817339 10847 net.cpp:156] Memory required for data: 535880736
I0403 14:35:17.817363 10847 layer_factory.hpp:77] Creating layer inception_3a/relu_5x5_reduce
I0403 14:35:17.817391 10847 net.cpp:91] Creating Layer inception_3a/relu_5x5_reduce
I0403 14:35:17.817420 10847 net.cpp:425] inception_3a/relu_5x5_reduce <- inception_3a/5x5_reduce
I0403 14:35:17.817452 10847 net.cpp:386] inception_3a/relu_5x5_reduce -> inception_3a/5x5_reduce (in-place)
I0403 14:35:17.817858 10847 net.cpp:141] Setting up inception_3a/relu_5x5_reduce
I0403 14:35:17.817891 10847 net.cpp:148] Top shape: 24 16 28 28 (301056)
I0403 14:35:17.817911 10847 net.cpp:156] Memory required for data: 537084960
I0403 14:35:17.817929 10847 layer_factory.hpp:77] Creating layer inception_3a/5x5
I0403 14:35:17.817956 10847 net.cpp:91] Creating Layer inception_3a/5x5
I0403 14:35:17.817977 10847 net.cpp:425] inception_3a/5x5 <- inception_3a/5x5_reduce
I0403 14:35:17.818003 10847 net.cpp:399] inception_3a/5x5 -> inception_3a/5x5
I0403 14:35:17.819263 10847 net.cpp:141] Setting up inception_3a/5x5
I0403 14:35:17.819296 10847 net.cpp:148] Top shape: 24 32 28 28 (602112)
I0403 14:35:17.819315 10847 net.cpp:156] Memory required for data: 539493408
I0403 14:35:17.819337 10847 layer_factory.hpp:77] Creating layer inception_3a/relu_5x5
I0403 14:35:17.819362 10847 net.cpp:91] Creating Layer inception_3a/relu_5x5
I0403 14:35:17.819383 10847 net.cpp:425] inception_3a/relu_5x5 <- inception_3a/5x5
I0403 14:35:17.819406 10847 net.cpp:386] inception_3a/relu_5x5 -> inception_3a/5x5 (in-place)
I0403 14:35:17.819619 10847 net.cpp:141] Setting up inception_3a/relu_5x5
I0403 14:35:17.819650 10847 net.cpp:148] Top shape: 24 32 28 28 (602112)
I0403 14:35:17.819669 10847 net.cpp:156] Memory required for data: 541901856
I0403 14:35:17.819686 10847 layer_factory.hpp:77] Creating layer inception_3a/pool
I0403 14:35:17.819707 10847 net.cpp:91] Creating Layer inception_3a/pool
I0403 14:35:17.819744 10847 net.cpp:425] inception_3a/pool <- pool2/3x3_s2_pool2/3x3_s2_0_split_3
I0403 14:35:17.819772 10847 net.cpp:399] inception_3a/pool -> inception_3a/pool
I0403 14:35:17.819844 10847 net.cpp:141] Setting up inception_3a/pool
I0403 14:35:17.819872 10847 net.cpp:148] Top shape: 24 192 28 28 (3612672)
I0403 14:35:17.819890 10847 net.cpp:156] Memory required for data: 556352544
I0403 14:35:17.819907 10847 layer_factory.hpp:77] Creating layer inception_3a/pool_proj
I0403 14:35:17.819937 10847 net.cpp:91] Creating Layer inception_3a/pool_proj
I0403 14:35:17.819959 10847 net.cpp:425] inception_3a/pool_proj <- inception_3a/pool
I0403 14:35:17.819983 10847 net.cpp:399] inception_3a/pool_proj -> inception_3a/pool_proj
I0403 14:35:17.821158 10847 net.cpp:141] Setting up inception_3a/pool_proj
I0403 14:35:17.821192 10847 net.cpp:148] Top shape: 24 32 28 28 (602112)
I0403 14:35:17.821211 10847 net.cpp:156] Memory required for data: 558760992
I0403 14:35:17.821240 10847 layer_factory.hpp:77] Creating layer inception_3a/relu_pool_proj
I0403 14:35:17.821265 10847 net.cpp:91] Creating Layer inception_3a/relu_pool_proj
I0403 14:35:17.821285 10847 net.cpp:425] inception_3a/relu_pool_proj <- inception_3a/pool_proj
I0403 14:35:17.821308 10847 net.cpp:386] inception_3a/relu_pool_proj -> inception_3a/pool_proj (in-place)
I0403 14:35:17.821640 10847 net.cpp:141] Setting up inception_3a/relu_pool_proj
I0403 14:35:17.821676 10847 net.cpp:148] Top shape: 24 32 28 28 (602112)
I0403 14:35:17.821694 10847 net.cpp:156] Memory required for data: 561169440
I0403 14:35:17.821713 10847 layer_factory.hpp:77] Creating layer inception_3a/output
I0403 14:35:17.821734 10847 net.cpp:91] Creating Layer inception_3a/output
I0403 14:35:17.821753 10847 net.cpp:425] inception_3a/output <- inception_3a/1x1
I0403 14:35:17.821773 10847 net.cpp:425] inception_3a/output <- inception_3a/3x3
I0403 14:35:17.821792 10847 net.cpp:425] inception_3a/output <- inception_3a/5x5
I0403 14:35:17.821810 10847 net.cpp:425] inception_3a/output <- inception_3a/pool_proj
I0403 14:35:17.821830 10847 net.cpp:399] inception_3a/output -> inception_3a/output
I0403 14:35:17.821912 10847 net.cpp:141] Setting up inception_3a/output
I0403 14:35:17.821940 10847 net.cpp:148] Top shape: 24 256 28 28 (4816896)
I0403 14:35:17.821959 10847 net.cpp:156] Memory required for data: 580437024
I0403 14:35:17.821976 10847 layer_factory.hpp:77] Creating layer inception_3a/output_inception_3a/output_0_split
I0403 14:35:17.822002 10847 net.cpp:91] Creating Layer inception_3a/output_inception_3a/output_0_split
I0403 14:35:17.822023 10847 net.cpp:425] inception_3a/output_inception_3a/output_0_split <- inception_3a/output
I0403 14:35:17.822044 10847 net.cpp:399] inception_3a/output_inception_3a/output_0_split -> inception_3a/output_inception_3a/output_0_split_0
I0403 14:35:17.822069 10847 net.cpp:399] inception_3a/output_inception_3a/output_0_split -> inception_3a/output_inception_3a/output_0_split_1
I0403 14:35:17.822104 10847 net.cpp:399] inception_3a/output_inception_3a/output_0_split -> inception_3a/output_inception_3a/output_0_split_2
I0403 14:35:17.822134 10847 net.cpp:399] inception_3a/output_inception_3a/output_0_split -> inception_3a/output_inception_3a/output_0_split_3
I0403 14:35:17.822329 10847 net.cpp:141] Setting up inception_3a/output_inception_3a/output_0_split
I0403 14:35:17.822360 10847 net.cpp:148] Top shape: 24 256 28 28 (4816896)
I0403 14:35:17.822382 10847 net.cpp:148] Top shape: 24 256 28 28 (4816896)
I0403 14:35:17.822403 10847 net.cpp:148] Top shape: 24 256 28 28 (4816896)
I0403 14:35:17.822422 10847 net.cpp:148] Top shape: 24 256 28 28 (4816896)
I0403 14:35:17.822439 10847 net.cpp:156] Memory required for data: 657507360
I0403 14:35:17.822458 10847 layer_factory.hpp:77] Creating layer inception_3b/1x1
I0403 14:35:17.822482 10847 net.cpp:91] Creating Layer inception_3b/1x1
I0403 14:35:17.822502 10847 net.cpp:425] inception_3b/1x1 <- inception_3a/output_inception_3a/output_0_split_0
I0403 14:35:17.822528 10847 net.cpp:399] inception_3b/1x1 -> inception_3b/1x1
I0403 14:35:17.824054 10847 net.cpp:141] Setting up inception_3b/1x1
I0403 14:35:17.824108 10847 net.cpp:148] Top shape: 24 128 28 28 (2408448)
I0403 14:35:17.824129 10847 net.cpp:156] Memory required for data: 667141152
I0403 14:35:17.824151 10847 layer_factory.hpp:77] Creating layer inception_3b/relu_1x1
I0403 14:35:17.824177 10847 net.cpp:91] Creating Layer inception_3b/relu_1x1
I0403 14:35:17.824198 10847 net.cpp:425] inception_3b/relu_1x1 <- inception_3b/1x1
I0403 14:35:17.824218 10847 net.cpp:386] inception_3b/relu_1x1 -> inception_3b/1x1 (in-place)
I0403 14:35:17.824434 10847 net.cpp:141] Setting up inception_3b/relu_1x1
I0403 14:35:17.824467 10847 net.cpp:148] Top shape: 24 128 28 28 (2408448)
I0403 14:35:17.824486 10847 net.cpp:156] Memory required for data: 676774944
I0403 14:35:17.824503 10847 layer_factory.hpp:77] Creating layer inception_3b/3x3_reduce
I0403 14:35:17.824530 10847 net.cpp:91] Creating Layer inception_3b/3x3_reduce
I0403 14:35:17.824551 10847 net.cpp:425] inception_3b/3x3_reduce <- inception_3a/output_inception_3a/output_0_split_1
I0403 14:35:17.824574 10847 net.cpp:399] inception_3b/3x3_reduce -> inception_3b/3x3_reduce
I0403 14:35:17.825960 10847 net.cpp:141] Setting up inception_3b/3x3_reduce
I0403 14:35:17.825995 10847 net.cpp:148] Top shape: 24 128 28 28 (2408448)
I0403 14:35:17.826014 10847 net.cpp:156] Memory required for data: 686408736
I0403 14:35:17.826036 10847 layer_factory.hpp:77] Creating layer inception_3b/relu_3x3_reduce
I0403 14:35:17.826061 10847 net.cpp:91] Creating Layer inception_3b/relu_3x3_reduce
I0403 14:35:17.826081 10847 net.cpp:425] inception_3b/relu_3x3_reduce <- inception_3b/3x3_reduce
I0403 14:35:17.826109 10847 net.cpp:386] inception_3b/relu_3x3_reduce -> inception_3b/3x3_reduce (in-place)
I0403 14:35:17.826323 10847 net.cpp:141] Setting up inception_3b/relu_3x3_reduce
I0403 14:35:17.826356 10847 net.cpp:148] Top shape: 24 128 28 28 (2408448)
I0403 14:35:17.826375 10847 net.cpp:156] Memory required for data: 696042528
I0403 14:35:17.826393 10847 layer_factory.hpp:77] Creating layer inception_3b/3x3
I0403 14:35:17.826423 10847 net.cpp:91] Creating Layer inception_3b/3x3
I0403 14:35:17.826444 10847 net.cpp:425] inception_3b/3x3 <- inception_3b/3x3_reduce
I0403 14:35:17.826474 10847 net.cpp:399] inception_3b/3x3 -> inception_3b/3x3
I0403 14:35:17.830029 10847 net.cpp:141] Setting up inception_3b/3x3
I0403 14:35:17.830070 10847 net.cpp:148] Top shape: 24 192 28 28 (3612672)
I0403 14:35:17.830090 10847 net.cpp:156] Memory required for data: 710493216
I0403 14:35:17.830121 10847 layer_factory.hpp:77] Creating layer inception_3b/relu_3x3
I0403 14:35:17.830144 10847 net.cpp:91] Creating Layer inception_3b/relu_3x3
I0403 14:35:17.830163 10847 net.cpp:425] inception_3b/relu_3x3 <- inception_3b/3x3
I0403 14:35:17.830186 10847 net.cpp:386] inception_3b/relu_3x3 -> inception_3b/3x3 (in-place)
I0403 14:35:17.830538 10847 net.cpp:141] Setting up inception_3b/relu_3x3
I0403 14:35:17.830575 10847 net.cpp:148] Top shape: 24 192 28 28 (3612672)
I0403 14:35:17.830595 10847 net.cpp:156] Memory required for data: 724943904
I0403 14:35:17.830613 10847 layer_factory.hpp:77] Creating layer inception_3b/5x5_reduce
I0403 14:35:17.830644 10847 net.cpp:91] Creating Layer inception_3b/5x5_reduce
I0403 14:35:17.830667 10847 net.cpp:425] inception_3b/5x5_reduce <- inception_3a/output_inception_3a/output_0_split_2
I0403 14:35:17.830689 10847 net.cpp:399] inception_3b/5x5_reduce -> inception_3b/5x5_reduce
I0403 14:35:17.831923 10847 net.cpp:141] Setting up inception_3b/5x5_reduce
I0403 14:35:17.831962 10847 net.cpp:148] Top shape: 24 32 28 28 (602112)
I0403 14:35:17.831982 10847 net.cpp:156] Memory required for data: 727352352
I0403 14:35:17.832005 10847 layer_factory.hpp:77] Creating layer inception_3b/relu_5x5_reduce
I0403 14:35:17.832027 10847 net.cpp:91] Creating Layer inception_3b/relu_5x5_reduce
I0403 14:35:17.832046 10847 net.cpp:425] inception_3b/relu_5x5_reduce <- inception_3b/5x5_reduce
I0403 14:35:17.832072 10847 net.cpp:386] inception_3b/relu_5x5_reduce -> inception_3b/5x5_reduce (in-place)
I0403 14:35:17.832320 10847 net.cpp:141] Setting up inception_3b/relu_5x5_reduce
I0403 14:35:17.832352 10847 net.cpp:148] Top shape: 24 32 28 28 (602112)
I0403 14:35:17.832370 10847 net.cpp:156] Memory required for data: 729760800
I0403 14:35:17.832389 10847 layer_factory.hpp:77] Creating layer inception_3b/5x5
I0403 14:35:17.832417 10847 net.cpp:91] Creating Layer inception_3b/5x5
I0403 14:35:17.832438 10847 net.cpp:425] inception_3b/5x5 <- inception_3b/5x5_reduce
I0403 14:35:17.832464 10847 net.cpp:399] inception_3b/5x5 -> inception_3b/5x5
I0403 14:35:17.834875 10847 net.cpp:141] Setting up inception_3b/5x5
I0403 14:35:17.834913 10847 net.cpp:148] Top shape: 24 96 28 28 (1806336)
I0403 14:35:17.834933 10847 net.cpp:156] Memory required for data: 736986144
I0403 14:35:17.834955 10847 layer_factory.hpp:77] Creating layer inception_3b/relu_5x5
I0403 14:35:17.834980 10847 net.cpp:91] Creating Layer inception_3b/relu_5x5
I0403 14:35:17.835001 10847 net.cpp:425] inception_3b/relu_5x5 <- inception_3b/5x5
I0403 14:35:17.835023 10847 net.cpp:386] inception_3b/relu_5x5 -> inception_3b/5x5 (in-place)
I0403 14:35:17.835270 10847 net.cpp:141] Setting up inception_3b/relu_5x5
I0403 14:35:17.835301 10847 net.cpp:148] Top shape: 24 96 28 28 (1806336)
I0403 14:35:17.835319 10847 net.cpp:156] Memory required for data: 744211488
I0403 14:35:17.835337 10847 layer_factory.hpp:77] Creating layer inception_3b/pool
I0403 14:35:17.835366 10847 net.cpp:91] Creating Layer inception_3b/pool
I0403 14:35:17.835386 10847 net.cpp:425] inception_3b/pool <- inception_3a/output_inception_3a/output_0_split_3
I0403 14:35:17.835408 10847 net.cpp:399] inception_3b/pool -> inception_3b/pool
I0403 14:35:17.835479 10847 net.cpp:141] Setting up inception_3b/pool
I0403 14:35:17.835510 10847 net.cpp:148] Top shape: 24 256 28 28 (4816896)
I0403 14:35:17.835526 10847 net.cpp:156] Memory required for data: 763479072
I0403 14:35:17.835544 10847 layer_factory.hpp:77] Creating layer inception_3b/pool_proj
I0403 14:35:17.835572 10847 net.cpp:91] Creating Layer inception_3b/pool_proj
I0403 14:35:17.835592 10847 net.cpp:425] inception_3b/pool_proj <- inception_3b/pool
I0403 14:35:17.835616 10847 net.cpp:399] inception_3b/pool_proj -> inception_3b/pool_proj
I0403 14:35:17.836937 10847 net.cpp:141] Setting up inception_3b/pool_proj
I0403 14:35:17.836969 10847 net.cpp:148] Top shape: 24 64 28 28 (1204224)
I0403 14:35:17.836989 10847 net.cpp:156] Memory required for data: 768295968
I0403 14:35:17.837010 10847 layer_factory.hpp:77] Creating layer inception_3b/relu_pool_proj
I0403 14:35:17.837033 10847 net.cpp:91] Creating Layer inception_3b/relu_pool_proj
I0403 14:35:17.837051 10847 net.cpp:425] inception_3b/relu_pool_proj <- inception_3b/pool_proj
I0403 14:35:17.837075 10847 net.cpp:386] inception_3b/relu_pool_proj -> inception_3b/pool_proj (in-place)
I0403 14:35:17.837548 10847 net.cpp:141] Setting up inception_3b/relu_pool_proj
I0403 14:35:17.837584 10847 net.cpp:148] Top shape: 24 64 28 28 (1204224)
I0403 14:35:17.837604 10847 net.cpp:156] Memory required for data: 773112864
I0403 14:35:17.837621 10847 layer_factory.hpp:77] Creating layer inception_3b/output
I0403 14:35:17.837642 10847 net.cpp:91] Creating Layer inception_3b/output
I0403 14:35:17.837661 10847 net.cpp:425] inception_3b/output <- inception_3b/1x1
I0403 14:35:17.837682 10847 net.cpp:425] inception_3b/output <- inception_3b/3x3
I0403 14:35:17.837700 10847 net.cpp:425] inception_3b/output <- inception_3b/5x5
I0403 14:35:17.837719 10847 net.cpp:425] inception_3b/output <- inception_3b/pool_proj
I0403 14:35:17.837743 10847 net.cpp:399] inception_3b/output -> inception_3b/output
I0403 14:35:17.837797 10847 net.cpp:141] Setting up inception_3b/output
I0403 14:35:17.837834 10847 net.cpp:148] Top shape: 24 480 28 28 (9031680)
I0403 14:35:17.837860 10847 net.cpp:156] Memory required for data: 809239584
I0403 14:35:17.837889 10847 layer_factory.hpp:77] Creating layer pool3/3x3_s2
I0403 14:35:17.837913 10847 net.cpp:91] Creating Layer pool3/3x3_s2
I0403 14:35:17.837932 10847 net.cpp:425] pool3/3x3_s2 <- inception_3b/output
I0403 14:35:17.837975 10847 net.cpp:399] pool3/3x3_s2 -> pool3/3x3_s2
I0403 14:35:17.838052 10847 net.cpp:141] Setting up pool3/3x3_s2
I0403 14:35:17.838080 10847 net.cpp:148] Top shape: 24 480 14 14 (2257920)
I0403 14:35:17.838104 10847 net.cpp:156] Memory required for data: 818271264
I0403 14:35:17.838122 10847 layer_factory.hpp:77] Creating layer pool3/3x3_s2_pool3/3x3_s2_0_split
I0403 14:35:17.838146 10847 net.cpp:91] Creating Layer pool3/3x3_s2_pool3/3x3_s2_0_split
I0403 14:35:17.838166 10847 net.cpp:425] pool3/3x3_s2_pool3/3x3_s2_0_split <- pool3/3x3_s2
I0403 14:35:17.838187 10847 net.cpp:399] pool3/3x3_s2_pool3/3x3_s2_0_split -> pool3/3x3_s2_pool3/3x3_s2_0_split_0
I0403 14:35:17.838212 10847 net.cpp:399] pool3/3x3_s2_pool3/3x3_s2_0_split -> pool3/3x3_s2_pool3/3x3_s2_0_split_1
I0403 14:35:17.838234 10847 net.cpp:399] pool3/3x3_s2_pool3/3x3_s2_0_split -> pool3/3x3_s2_pool3/3x3_s2_0_split_2
I0403 14:35:17.838258 10847 net.cpp:399] pool3/3x3_s2_pool3/3x3_s2_0_split -> pool3/3x3_s2_pool3/3x3_s2_0_split_3
I0403 14:35:17.838352 10847 net.cpp:141] Setting up pool3/3x3_s2_pool3/3x3_s2_0_split
I0403 14:35:17.838387 10847 net.cpp:148] Top shape: 24 480 14 14 (2257920)
I0403 14:35:17.838407 10847 net.cpp:148] Top shape: 24 480 14 14 (2257920)
I0403 14:35:17.838426 10847 net.cpp:148] Top shape: 24 480 14 14 (2257920)
I0403 14:35:17.838445 10847 net.cpp:148] Top shape: 24 480 14 14 (2257920)
I0403 14:35:17.838461 10847 net.cpp:156] Memory required for data: 854397984
I0403 14:35:17.838479 10847 layer_factory.hpp:77] Creating layer inception_4a/1x1
I0403 14:35:17.838505 10847 net.cpp:91] Creating Layer inception_4a/1x1
I0403 14:35:17.838526 10847 net.cpp:425] inception_4a/1x1 <- pool3/3x3_s2_pool3/3x3_s2_0_split_0
I0403 14:35:17.838554 10847 net.cpp:399] inception_4a/1x1 -> inception_4a/1x1
I0403 14:35:17.840519 10847 net.cpp:141] Setting up inception_4a/1x1
I0403 14:35:17.840553 10847 net.cpp:148] Top shape: 24 192 14 14 (903168)
I0403 14:35:17.840570 10847 net.cpp:156] Memory required for data: 858010656
I0403 14:35:17.840592 10847 layer_factory.hpp:77] Creating layer inception_4a/relu_1x1
I0403 14:35:17.840617 10847 net.cpp:91] Creating Layer inception_4a/relu_1x1
I0403 14:35:17.840637 10847 net.cpp:425] inception_4a/relu_1x1 <- inception_4a/1x1
I0403 14:35:17.840658 10847 net.cpp:386] inception_4a/relu_1x1 -> inception_4a/1x1 (in-place)
I0403 14:35:17.840874 10847 net.cpp:141] Setting up inception_4a/relu_1x1
I0403 14:35:17.840906 10847 net.cpp:148] Top shape: 24 192 14 14 (903168)
I0403 14:35:17.840929 10847 net.cpp:156] Memory required for data: 861623328
I0403 14:35:17.840947 10847 layer_factory.hpp:77] Creating layer inception_4a/3x3_reduce
I0403 14:35:17.840971 10847 net.cpp:91] Creating Layer inception_4a/3x3_reduce
I0403 14:35:17.840991 10847 net.cpp:425] inception_4a/3x3_reduce <- pool3/3x3_s2_pool3/3x3_s2_0_split_1
I0403 14:35:17.841015 10847 net.cpp:399] inception_4a/3x3_reduce -> inception_4a/3x3_reduce
I0403 14:35:17.842602 10847 net.cpp:141] Setting up inception_4a/3x3_reduce
I0403 14:35:17.842634 10847 net.cpp:148] Top shape: 24 96 14 14 (451584)
I0403 14:35:17.842653 10847 net.cpp:156] Memory required for data: 863429664
I0403 14:35:17.842684 10847 layer_factory.hpp:77] Creating layer inception_4a/relu_3x3_reduce
I0403 14:35:17.842708 10847 net.cpp:91] Creating Layer inception_4a/relu_3x3_reduce
I0403 14:35:17.842727 10847 net.cpp:425] inception_4a/relu_3x3_reduce <- inception_4a/3x3_reduce
I0403 14:35:17.842751 10847 net.cpp:386] inception_4a/relu_3x3_reduce -> inception_4a/3x3_reduce (in-place)
I0403 14:35:17.842967 10847 net.cpp:141] Setting up inception_4a/relu_3x3_reduce
I0403 14:35:17.842998 10847 net.cpp:148] Top shape: 24 96 14 14 (451584)
I0403 14:35:17.843014 10847 net.cpp:156] Memory required for data: 865236000
I0403 14:35:17.843035 10847 layer_factory.hpp:77] Creating layer inception_4a/3x3
I0403 14:35:17.843062 10847 net.cpp:91] Creating Layer inception_4a/3x3
I0403 14:35:17.843083 10847 net.cpp:425] inception_4a/3x3 <- inception_4a/3x3_reduce
I0403 14:35:17.843125 10847 net.cpp:399] inception_4a/3x3 -> inception_4a/3x3
I0403 14:35:17.846449 10847 net.cpp:141] Setting up inception_4a/3x3
I0403 14:35:17.846484 10847 net.cpp:148] Top shape: 24 208 14 14 (978432)
I0403 14:35:17.846503 10847 net.cpp:156] Memory required for data: 869149728
I0403 14:35:17.846525 10847 layer_factory.hpp:77] Creating layer inception_4a/relu_3x3
I0403 14:35:17.846552 10847 net.cpp:91] Creating Layer inception_4a/relu_3x3
I0403 14:35:17.846575 10847 net.cpp:425] inception_4a/relu_3x3 <- inception_4a/3x3
I0403 14:35:17.846596 10847 net.cpp:386] inception_4a/relu_3x3 -> inception_4a/3x3 (in-place)
I0403 14:35:17.846933 10847 net.cpp:141] Setting up inception_4a/relu_3x3
I0403 14:35:17.846966 10847 net.cpp:148] Top shape: 24 208 14 14 (978432)
I0403 14:35:17.846985 10847 net.cpp:156] Memory required for data: 873063456
I0403 14:35:17.847002 10847 layer_factory.hpp:77] Creating layer inception_4a/5x5_reduce
I0403 14:35:17.847029 10847 net.cpp:91] Creating Layer inception_4a/5x5_reduce
I0403 14:35:17.847056 10847 net.cpp:425] inception_4a/5x5_reduce <- pool3/3x3_s2_pool3/3x3_s2_0_split_2
I0403 14:35:17.847080 10847 net.cpp:399] inception_4a/5x5_reduce -> inception_4a/5x5_reduce
I0403 14:35:17.848366 10847 net.cpp:141] Setting up inception_4a/5x5_reduce
I0403 14:35:17.848399 10847 net.cpp:148] Top shape: 24 16 14 14 (75264)
I0403 14:35:17.848419 10847 net.cpp:156] Memory required for data: 873364512
I0403 14:35:17.848441 10847 layer_factory.hpp:77] Creating layer inception_4a/relu_5x5_reduce
I0403 14:35:17.848465 10847 net.cpp:91] Creating Layer inception_4a/relu_5x5_reduce
I0403 14:35:17.848486 10847 net.cpp:425] inception_4a/relu_5x5_reduce <- inception_4a/5x5_reduce
I0403 14:35:17.848508 10847 net.cpp:386] inception_4a/relu_5x5_reduce -> inception_4a/5x5_reduce (in-place)
I0403 14:35:17.848734 10847 net.cpp:141] Setting up inception_4a/relu_5x5_reduce
I0403 14:35:17.848767 10847 net.cpp:148] Top shape: 24 16 14 14 (75264)
I0403 14:35:17.848790 10847 net.cpp:156] Memory required for data: 873665568
I0403 14:35:17.848816 10847 layer_factory.hpp:77] Creating layer inception_4a/5x5
I0403 14:35:17.848851 10847 net.cpp:91] Creating Layer inception_4a/5x5
I0403 14:35:17.848877 10847 net.cpp:425] inception_4a/5x5 <- inception_4a/5x5_reduce
I0403 14:35:17.848903 10847 net.cpp:399] inception_4a/5x5 -> inception_4a/5x5
I0403 14:35:17.850272 10847 net.cpp:141] Setting up inception_4a/5x5
I0403 14:35:17.850306 10847 net.cpp:148] Top shape: 24 48 14 14 (225792)
I0403 14:35:17.850324 10847 net.cpp:156] Memory required for data: 874568736
I0403 14:35:17.850347 10847 layer_factory.hpp:77] Creating layer inception_4a/relu_5x5
I0403 14:35:17.850368 10847 net.cpp:91] Creating Layer inception_4a/relu_5x5
I0403 14:35:17.850388 10847 net.cpp:425] inception_4a/relu_5x5 <- inception_4a/5x5
I0403 14:35:17.850411 10847 net.cpp:386] inception_4a/relu_5x5 -> inception_4a/5x5 (in-place)
I0403 14:35:17.850630 10847 net.cpp:141] Setting up inception_4a/relu_5x5
I0403 14:35:17.850661 10847 net.cpp:148] Top shape: 24 48 14 14 (225792)
I0403 14:35:17.850678 10847 net.cpp:156] Memory required for data: 875471904
I0403 14:35:17.850695 10847 layer_factory.hpp:77] Creating layer inception_4a/pool
I0403 14:35:17.850723 10847 net.cpp:91] Creating Layer inception_4a/pool
I0403 14:35:17.850744 10847 net.cpp:425] inception_4a/pool <- pool3/3x3_s2_pool3/3x3_s2_0_split_3
I0403 14:35:17.850764 10847 net.cpp:399] inception_4a/pool -> inception_4a/pool
I0403 14:35:17.850841 10847 net.cpp:141] Setting up inception_4a/pool
I0403 14:35:17.850869 10847 net.cpp:148] Top shape: 24 480 14 14 (2257920)
I0403 14:35:17.850888 10847 net.cpp:156] Memory required for data: 884503584
I0403 14:35:17.850904 10847 layer_factory.hpp:77] Creating layer inception_4a/pool_proj
I0403 14:35:17.850935 10847 net.cpp:91] Creating Layer inception_4a/pool_proj
I0403 14:35:17.850965 10847 net.cpp:425] inception_4a/pool_proj <- inception_4a/pool
I0403 14:35:17.850999 10847 net.cpp:399] inception_4a/pool_proj -> inception_4a/pool_proj
I0403 14:35:17.852463 10847 net.cpp:141] Setting up inception_4a/pool_proj
I0403 14:35:17.852497 10847 net.cpp:148] Top shape: 24 64 14 14 (301056)
I0403 14:35:17.852535 10847 net.cpp:156] Memory required for data: 885707808
I0403 14:35:17.852560 10847 layer_factory.hpp:77] Creating layer inception_4a/relu_pool_proj
I0403 14:35:17.852584 10847 net.cpp:91] Creating Layer inception_4a/relu_pool_proj
I0403 14:35:17.852604 10847 net.cpp:425] inception_4a/relu_pool_proj <- inception_4a/pool_proj
I0403 14:35:17.852627 10847 net.cpp:386] inception_4a/relu_pool_proj -> inception_4a/pool_proj (in-place)
I0403 14:35:17.852978 10847 net.cpp:141] Setting up inception_4a/relu_pool_proj
I0403 14:35:17.853011 10847 net.cpp:148] Top shape: 24 64 14 14 (301056)
I0403 14:35:17.853029 10847 net.cpp:156] Memory required for data: 886912032
I0403 14:35:17.853047 10847 layer_factory.hpp:77] Creating layer inception_4a/output
I0403 14:35:17.853068 10847 net.cpp:91] Creating Layer inception_4a/output
I0403 14:35:17.853099 10847 net.cpp:425] inception_4a/output <- inception_4a/1x1
I0403 14:35:17.853129 10847 net.cpp:425] inception_4a/output <- inception_4a/3x3
I0403 14:35:17.853157 10847 net.cpp:425] inception_4a/output <- inception_4a/5x5
I0403 14:35:17.853179 10847 net.cpp:425] inception_4a/output <- inception_4a/pool_proj
I0403 14:35:17.853204 10847 net.cpp:399] inception_4a/output -> inception_4a/output
I0403 14:35:17.853258 10847 net.cpp:141] Setting up inception_4a/output
I0403 14:35:17.853288 10847 net.cpp:148] Top shape: 24 512 14 14 (2408448)
I0403 14:35:17.853307 10847 net.cpp:156] Memory required for data: 896545824
I0403 14:35:17.853325 10847 layer_factory.hpp:77] Creating layer inception_4a/output_inception_4a/output_0_split
I0403 14:35:17.853348 10847 net.cpp:91] Creating Layer inception_4a/output_inception_4a/output_0_split
I0403 14:35:17.853365 10847 net.cpp:425] inception_4a/output_inception_4a/output_0_split <- inception_4a/output
I0403 14:35:17.853389 10847 net.cpp:399] inception_4a/output_inception_4a/output_0_split -> inception_4a/output_inception_4a/output_0_split_0
I0403 14:35:17.853415 10847 net.cpp:399] inception_4a/output_inception_4a/output_0_split -> inception_4a/output_inception_4a/output_0_split_1
I0403 14:35:17.853442 10847 net.cpp:399] inception_4a/output_inception_4a/output_0_split -> inception_4a/output_inception_4a/output_0_split_2
I0403 14:35:17.853468 10847 net.cpp:399] inception_4a/output_inception_4a/output_0_split -> inception_4a/output_inception_4a/output_0_split_3
I0403 14:35:17.853493 10847 net.cpp:399] inception_4a/output_inception_4a/output_0_split -> inception_4a/output_inception_4a/output_0_split_4
I0403 14:35:17.853606 10847 net.cpp:141] Setting up inception_4a/output_inception_4a/output_0_split
I0403 14:35:17.853636 10847 net.cpp:148] Top shape: 24 512 14 14 (2408448)
I0403 14:35:17.853657 10847 net.cpp:148] Top shape: 24 512 14 14 (2408448)
I0403 14:35:17.853677 10847 net.cpp:148] Top shape: 24 512 14 14 (2408448)
I0403 14:35:17.853695 10847 net.cpp:148] Top shape: 24 512 14 14 (2408448)
I0403 14:35:17.853714 10847 net.cpp:148] Top shape: 24 512 14 14 (2408448)
I0403 14:35:17.853731 10847 net.cpp:156] Memory required for data: 944714784
I0403 14:35:17.853749 10847 layer_factory.hpp:77] Creating layer loss1/ave_pool
I0403 14:35:17.853770 10847 net.cpp:91] Creating Layer loss1/ave_pool
I0403 14:35:17.853790 10847 net.cpp:425] loss1/ave_pool <- inception_4a/output_inception_4a/output_0_split_0
I0403 14:35:17.853813 10847 net.cpp:399] loss1/ave_pool -> loss1/ave_pool
I0403 14:35:17.854091 10847 net.cpp:141] Setting up loss1/ave_pool
I0403 14:35:17.854138 10847 net.cpp:148] Top shape: 24 512 4 4 (196608)
I0403 14:35:17.854161 10847 net.cpp:156] Memory required for data: 945501216
I0403 14:35:17.854183 10847 layer_factory.hpp:77] Creating layer loss1/conv
I0403 14:35:17.854210 10847 net.cpp:91] Creating Layer loss1/conv
I0403 14:35:17.854233 10847 net.cpp:425] loss1/conv <- loss1/ave_pool
I0403 14:35:17.854259 10847 net.cpp:399] loss1/conv -> loss1/conv
I0403 14:35:17.856083 10847 net.cpp:141] Setting up loss1/conv
I0403 14:35:17.856125 10847 net.cpp:148] Top shape: 24 128 4 4 (49152)
I0403 14:35:17.856163 10847 net.cpp:156] Memory required for data: 945697824
I0403 14:35:17.856187 10847 layer_factory.hpp:77] Creating layer loss1/relu_conv
I0403 14:35:17.856211 10847 net.cpp:91] Creating Layer loss1/relu_conv
I0403 14:35:17.856232 10847 net.cpp:425] loss1/relu_conv <- loss1/conv
I0403 14:35:17.856253 10847 net.cpp:386] loss1/relu_conv -> loss1/conv (in-place)
I0403 14:35:17.856600 10847 net.cpp:141] Setting up loss1/relu_conv
I0403 14:35:17.856632 10847 net.cpp:148] Top shape: 24 128 4 4 (49152)
I0403 14:35:17.856652 10847 net.cpp:156] Memory required for data: 945894432
I0403 14:35:17.856668 10847 layer_factory.hpp:77] Creating layer loss1/fc
I0403 14:35:17.856716 10847 net.cpp:91] Creating Layer loss1/fc
I0403 14:35:17.856742 10847 net.cpp:425] loss1/fc <- loss1/conv
I0403 14:35:17.856767 10847 net.cpp:399] loss1/fc -> loss1/fc
I0403 14:35:17.878608 10847 net.cpp:141] Setting up loss1/fc
I0403 14:35:17.878669 10847 net.cpp:148] Top shape: 24 1024 (24576)
I0403 14:35:17.878687 10847 net.cpp:156] Memory required for data: 945992736
I0403 14:35:17.878711 10847 layer_factory.hpp:77] Creating layer loss1/relu_fc
I0403 14:35:17.878736 10847 net.cpp:91] Creating Layer loss1/relu_fc
I0403 14:35:17.878756 10847 net.cpp:425] loss1/relu_fc <- loss1/fc
I0403 14:35:17.878782 10847 net.cpp:386] loss1/relu_fc -> loss1/fc (in-place)
I0403 14:35:17.879041 10847 net.cpp:141] Setting up loss1/relu_fc
I0403 14:35:17.879076 10847 net.cpp:148] Top shape: 24 1024 (24576)
I0403 14:35:17.879101 10847 net.cpp:156] Memory required for data: 946091040
I0403 14:35:17.879120 10847 layer_factory.hpp:77] Creating layer loss1/drop_fc
I0403 14:35:17.879156 10847 net.cpp:91] Creating Layer loss1/drop_fc
I0403 14:35:17.879179 10847 net.cpp:425] loss1/drop_fc <- loss1/fc
I0403 14:35:17.879200 10847 net.cpp:386] loss1/drop_fc -> loss1/fc (in-place)
I0403 14:35:17.879297 10847 net.cpp:141] Setting up loss1/drop_fc
I0403 14:35:17.879328 10847 net.cpp:148] Top shape: 24 1024 (24576)
I0403 14:35:17.879354 10847 net.cpp:156] Memory required for data: 946189344
I0403 14:35:17.879377 10847 layer_factory.hpp:77] Creating layer loss1/classifier_plantvillage
I0403 14:35:17.879402 10847 net.cpp:91] Creating Layer loss1/classifier_plantvillage
I0403 14:35:17.879423 10847 net.cpp:425] loss1/classifier_plantvillage <- loss1/fc
I0403 14:35:17.879449 10847 net.cpp:399] loss1/classifier_plantvillage -> loss1/classifier_plantvillage
I0403 14:35:17.880590 10847 net.cpp:141] Setting up loss1/classifier_plantvillage
I0403 14:35:17.880626 10847 net.cpp:148] Top shape: 24 38 (912)
I0403 14:35:17.880645 10847 net.cpp:156] Memory required for data: 946192992
I0403 14:35:17.880668 10847 layer_factory.hpp:77] Creating layer loss1/classifier_plantvillage_loss1/classifier_plantvillage_0_split
I0403 14:35:17.880693 10847 net.cpp:91] Creating Layer loss1/classifier_plantvillage_loss1/classifier_plantvillage_0_split
I0403 14:35:17.880714 10847 net.cpp:425] loss1/classifier_plantvillage_loss1/classifier_plantvillage_0_split <- loss1/classifier_plantvillage
I0403 14:35:17.880735 10847 net.cpp:399] loss1/classifier_plantvillage_loss1/classifier_plantvillage_0_split -> loss1/classifier_plantvillage_loss1/classifier_plantvillage_0_split_0
I0403 14:35:17.880761 10847 net.cpp:399] loss1/classifier_plantvillage_loss1/classifier_plantvillage_0_split -> loss1/classifier_plantvillage_loss1/classifier_plantvillage_0_split_1
I0403 14:35:17.880787 10847 net.cpp:399] loss1/classifier_plantvillage_loss1/classifier_plantvillage_0_split -> loss1/classifier_plantvillage_loss1/classifier_plantvillage_0_split_2
I0403 14:35:17.880872 10847 net.cpp:141] Setting up loss1/classifier_plantvillage_loss1/classifier_plantvillage_0_split
I0403 14:35:17.880902 10847 net.cpp:148] Top shape: 24 38 (912)
I0403 14:35:17.880920 10847 net.cpp:148] Top shape: 24 38 (912)
I0403 14:35:17.880939 10847 net.cpp:148] Top shape: 24 38 (912)
I0403 14:35:17.880955 10847 net.cpp:156] Memory required for data: 946203936
I0403 14:35:17.880972 10847 layer_factory.hpp:77] Creating layer inception_4b/1x1
I0403 14:35:17.881001 10847 net.cpp:91] Creating Layer inception_4b/1x1
I0403 14:35:17.881047 10847 net.cpp:425] inception_4b/1x1 <- inception_4a/output_inception_4a/output_0_split_1
I0403 14:35:17.881072 10847 net.cpp:399] inception_4b/1x1 -> inception_4b/1x1
I0403 14:35:17.883147 10847 net.cpp:141] Setting up inception_4b/1x1
I0403 14:35:17.883185 10847 net.cpp:148] Top shape: 24 160 14 14 (752640)
I0403 14:35:17.883204 10847 net.cpp:156] Memory required for data: 949214496
I0403 14:35:17.883226 10847 layer_factory.hpp:77] Creating layer inception_4b/relu_1x1
I0403 14:35:17.883251 10847 net.cpp:91] Creating Layer inception_4b/relu_1x1
I0403 14:35:17.883272 10847 net.cpp:425] inception_4b/relu_1x1 <- inception_4b/1x1
I0403 14:35:17.883294 10847 net.cpp:386] inception_4b/relu_1x1 -> inception_4b/1x1 (in-place)
I0403 14:35:17.883522 10847 net.cpp:141] Setting up inception_4b/relu_1x1
I0403 14:35:17.883554 10847 net.cpp:148] Top shape: 24 160 14 14 (752640)
I0403 14:35:17.883572 10847 net.cpp:156] Memory required for data: 952225056
I0403 14:35:17.883590 10847 layer_factory.hpp:77] Creating layer inception_4b/3x3_reduce
I0403 14:35:17.883620 10847 net.cpp:91] Creating Layer inception_4b/3x3_reduce
I0403 14:35:17.883642 10847 net.cpp:425] inception_4b/3x3_reduce <- inception_4a/output_inception_4a/output_0_split_2
I0403 14:35:17.883673 10847 net.cpp:399] inception_4b/3x3_reduce -> inception_4b/3x3_reduce
I0403 14:35:17.885385 10847 net.cpp:141] Setting up inception_4b/3x3_reduce
I0403 14:35:17.885419 10847 net.cpp:148] Top shape: 24 112 14 14 (526848)
I0403 14:35:17.885438 10847 net.cpp:156] Memory required for data: 954332448
I0403 14:35:17.885460 10847 layer_factory.hpp:77] Creating layer inception_4b/relu_3x3_reduce
I0403 14:35:17.885483 10847 net.cpp:91] Creating Layer inception_4b/relu_3x3_reduce
I0403 14:35:17.885501 10847 net.cpp:425] inception_4b/relu_3x3_reduce <- inception_4b/3x3_reduce
I0403 14:35:17.885525 10847 net.cpp:386] inception_4b/relu_3x3_reduce -> inception_4b/3x3_reduce (in-place)
I0403 14:35:17.885874 10847 net.cpp:141] Setting up inception_4b/relu_3x3_reduce
I0403 14:35:17.885907 10847 net.cpp:148] Top shape: 24 112 14 14 (526848)
I0403 14:35:17.885926 10847 net.cpp:156] Memory required for data: 956439840
I0403 14:35:17.885943 10847 layer_factory.hpp:77] Creating layer inception_4b/3x3
I0403 14:35:17.885970 10847 net.cpp:91] Creating Layer inception_4b/3x3
I0403 14:35:17.885993 10847 net.cpp:425] inception_4b/3x3 <- inception_4b/3x3_reduce
I0403 14:35:17.886018 10847 net.cpp:399] inception_4b/3x3 -> inception_4b/3x3
I0403 14:35:17.889693 10847 net.cpp:141] Setting up inception_4b/3x3
I0403 14:35:17.889736 10847 net.cpp:148] Top shape: 24 224 14 14 (1053696)
I0403 14:35:17.889755 10847 net.cpp:156] Memory required for data: 960654624
I0403 14:35:17.889778 10847 layer_factory.hpp:77] Creating layer inception_4b/relu_3x3
I0403 14:35:17.889802 10847 net.cpp:91] Creating Layer inception_4b/relu_3x3
I0403 14:35:17.889822 10847 net.cpp:425] inception_4b/relu_3x3 <- inception_4b/3x3
I0403 14:35:17.889842 10847 net.cpp:386] inception_4b/relu_3x3 -> inception_4b/3x3 (in-place)
I0403 14:35:17.890067 10847 net.cpp:141] Setting up inception_4b/relu_3x3
I0403 14:35:17.890107 10847 net.cpp:148] Top shape: 24 224 14 14 (1053696)
I0403 14:35:17.890130 10847 net.cpp:156] Memory required for data: 964869408
I0403 14:35:17.890147 10847 layer_factory.hpp:77] Creating layer inception_4b/5x5_reduce
I0403 14:35:17.890177 10847 net.cpp:91] Creating Layer inception_4b/5x5_reduce
I0403 14:35:17.890198 10847 net.cpp:425] inception_4b/5x5_reduce <- inception_4a/output_inception_4a/output_0_split_3
I0403 14:35:17.890221 10847 net.cpp:399] inception_4b/5x5_reduce -> inception_4b/5x5_reduce
I0403 14:35:17.891638 10847 net.cpp:141] Setting up inception_4b/5x5_reduce
I0403 14:35:17.891675 10847 net.cpp:148] Top shape: 24 24 14 14 (112896)
I0403 14:35:17.891695 10847 net.cpp:156] Memory required for data: 965320992
I0403 14:35:17.891717 10847 layer_factory.hpp:77] Creating layer inception_4b/relu_5x5_reduce
I0403 14:35:17.891738 10847 net.cpp:91] Creating Layer inception_4b/relu_5x5_reduce
I0403 14:35:17.891794 10847 net.cpp:425] inception_4b/relu_5x5_reduce <- inception_4b/5x5_reduce
I0403 14:35:17.891819 10847 net.cpp:386] inception_4b/relu_5x5_reduce -> inception_4b/5x5_reduce (in-place)
I0403 14:35:17.892050 10847 net.cpp:141] Setting up inception_4b/relu_5x5_reduce
I0403 14:35:17.892081 10847 net.cpp:148] Top shape: 24 24 14 14 (112896)
I0403 14:35:17.892123 10847 net.cpp:156] Memory required for data: 965772576
I0403 14:35:17.892145 10847 layer_factory.hpp:77] Creating layer inception_4b/5x5
I0403 14:35:17.892174 10847 net.cpp:91] Creating Layer inception_4b/5x5
I0403 14:35:17.892195 10847 net.cpp:425] inception_4b/5x5 <- inception_4b/5x5_reduce
I0403 14:35:17.892221 10847 net.cpp:399] inception_4b/5x5 -> inception_4b/5x5
I0403 14:35:17.893748 10847 net.cpp:141] Setting up inception_4b/5x5
I0403 14:35:17.893784 10847 net.cpp:148] Top shape: 24 64 14 14 (301056)
I0403 14:35:17.893802 10847 net.cpp:156] Memory required for data: 966976800
I0403 14:35:17.893824 10847 layer_factory.hpp:77] Creating layer inception_4b/relu_5x5
I0403 14:35:17.893849 10847 net.cpp:91] Creating Layer inception_4b/relu_5x5
I0403 14:35:17.893869 10847 net.cpp:425] inception_4b/relu_5x5 <- inception_4b/5x5
I0403 14:35:17.893890 10847 net.cpp:386] inception_4b/relu_5x5 -> inception_4b/5x5 (in-place)
I0403 14:35:17.894242 10847 net.cpp:141] Setting up inception_4b/relu_5x5
I0403 14:35:17.894274 10847 net.cpp:148] Top shape: 24 64 14 14 (301056)
I0403 14:35:17.894292 10847 net.cpp:156] Memory required for data: 968181024
I0403 14:35:17.894310 10847 layer_factory.hpp:77] Creating layer inception_4b/pool
I0403 14:35:17.894336 10847 net.cpp:91] Creating Layer inception_4b/pool
I0403 14:35:17.894356 10847 net.cpp:425] inception_4b/pool <- inception_4a/output_inception_4a/output_0_split_4
I0403 14:35:17.894378 10847 net.cpp:399] inception_4b/pool -> inception_4b/pool
I0403 14:35:17.894460 10847 net.cpp:141] Setting up inception_4b/pool
I0403 14:35:17.894490 10847 net.cpp:148] Top shape: 24 512 14 14 (2408448)
I0403 14:35:17.894508 10847 net.cpp:156] Memory required for data: 977814816
I0403 14:35:17.894526 10847 layer_factory.hpp:77] Creating layer inception_4b/pool_proj
I0403 14:35:17.894553 10847 net.cpp:91] Creating Layer inception_4b/pool_proj
I0403 14:35:17.894574 10847 net.cpp:425] inception_4b/pool_proj <- inception_4b/pool
I0403 14:35:17.894601 10847 net.cpp:399] inception_4b/pool_proj -> inception_4b/pool_proj
I0403 14:35:17.896101 10847 net.cpp:141] Setting up inception_4b/pool_proj
I0403 14:35:17.896139 10847 net.cpp:148] Top shape: 24 64 14 14 (301056)
I0403 14:35:17.896159 10847 net.cpp:156] Memory required for data: 979019040
I0403 14:35:17.896183 10847 layer_factory.hpp:77] Creating layer inception_4b/relu_pool_proj
I0403 14:35:17.896204 10847 net.cpp:91] Creating Layer inception_4b/relu_pool_proj
I0403 14:35:17.896224 10847 net.cpp:425] inception_4b/relu_pool_proj <- inception_4b/pool_proj
I0403 14:35:17.896248 10847 net.cpp:386] inception_4b/relu_pool_proj -> inception_4b/pool_proj (in-place)
I0403 14:35:17.896471 10847 net.cpp:141] Setting up inception_4b/relu_pool_proj
I0403 14:35:17.896502 10847 net.cpp:148] Top shape: 24 64 14 14 (301056)
I0403 14:35:17.896520 10847 net.cpp:156] Memory required for data: 980223264
I0403 14:35:17.896539 10847 layer_factory.hpp:77] Creating layer inception_4b/output
I0403 14:35:17.896560 10847 net.cpp:91] Creating Layer inception_4b/output
I0403 14:35:17.896579 10847 net.cpp:425] inception_4b/output <- inception_4b/1x1
I0403 14:35:17.896600 10847 net.cpp:425] inception_4b/output <- inception_4b/3x3
I0403 14:35:17.896618 10847 net.cpp:425] inception_4b/output <- inception_4b/5x5
I0403 14:35:17.896637 10847 net.cpp:425] inception_4b/output <- inception_4b/pool_proj
I0403 14:35:17.896661 10847 net.cpp:399] inception_4b/output -> inception_4b/output
I0403 14:35:17.896718 10847 net.cpp:141] Setting up inception_4b/output
I0403 14:35:17.896750 10847 net.cpp:148] Top shape: 24 512 14 14 (2408448)
I0403 14:35:17.896770 10847 net.cpp:156] Memory required for data: 989857056
I0403 14:35:17.896811 10847 layer_factory.hpp:77] Creating layer inception_4b/output_inception_4b/output_0_split
I0403 14:35:17.896836 10847 net.cpp:91] Creating Layer inception_4b/output_inception_4b/output_0_split
I0403 14:35:17.896854 10847 net.cpp:425] inception_4b/output_inception_4b/output_0_split <- inception_4b/output
I0403 14:35:17.896877 10847 net.cpp:399] inception_4b/output_inception_4b/output_0_split -> inception_4b/output_inception_4b/output_0_split_0
I0403 14:35:17.896903 10847 net.cpp:399] inception_4b/output_inception_4b/output_0_split -> inception_4b/output_inception_4b/output_0_split_1
I0403 14:35:17.896930 10847 net.cpp:399] inception_4b/output_inception_4b/output_0_split -> inception_4b/output_inception_4b/output_0_split_2
I0403 14:35:17.896955 10847 net.cpp:399] inception_4b/output_inception_4b/output_0_split -> inception_4b/output_inception_4b/output_0_split_3
I0403 14:35:17.897061 10847 net.cpp:141] Setting up inception_4b/output_inception_4b/output_0_split
I0403 14:35:17.897090 10847 net.cpp:148] Top shape: 24 512 14 14 (2408448)
I0403 14:35:17.897119 10847 net.cpp:148] Top shape: 24 512 14 14 (2408448)
I0403 14:35:17.897138 10847 net.cpp:148] Top shape: 24 512 14 14 (2408448)
I0403 14:35:17.897156 10847 net.cpp:148] Top shape: 24 512 14 14 (2408448)
I0403 14:35:17.897173 10847 net.cpp:156] Memory required for data: 1028392224
I0403 14:35:17.897191 10847 layer_factory.hpp:77] Creating layer inception_4c/1x1
I0403 14:35:17.897217 10847 net.cpp:91] Creating Layer inception_4c/1x1
I0403 14:35:17.897240 10847 net.cpp:425] inception_4c/1x1 <- inception_4b/output_inception_4b/output_0_split_0
I0403 14:35:17.897264 10847 net.cpp:399] inception_4c/1x1 -> inception_4c/1x1
I0403 14:35:17.899050 10847 net.cpp:141] Setting up inception_4c/1x1
I0403 14:35:17.899085 10847 net.cpp:148] Top shape: 24 128 14 14 (602112)
I0403 14:35:17.899112 10847 net.cpp:156] Memory required for data: 1030800672
I0403 14:35:17.899137 10847 layer_factory.hpp:77] Creating layer inception_4c/relu_1x1
I0403 14:35:17.899158 10847 net.cpp:91] Creating Layer inception_4c/relu_1x1
I0403 14:35:17.899176 10847 net.cpp:425] inception_4c/relu_1x1 <- inception_4c/1x1
I0403 14:35:17.899199 10847 net.cpp:386] inception_4c/relu_1x1 -> inception_4c/1x1 (in-place)
I0403 14:35:17.899435 10847 net.cpp:141] Setting up inception_4c/relu_1x1
I0403 14:35:17.899467 10847 net.cpp:148] Top shape: 24 128 14 14 (602112)
I0403 14:35:17.899485 10847 net.cpp:156] Memory required for data: 1033209120
I0403 14:35:17.899503 10847 layer_factory.hpp:77] Creating layer inception_4c/3x3_reduce
I0403 14:35:17.899531 10847 net.cpp:91] Creating Layer inception_4c/3x3_reduce
I0403 14:35:17.899554 10847 net.cpp:425] inception_4c/3x3_reduce <- inception_4b/output_inception_4b/output_0_split_1
I0403 14:35:17.899579 10847 net.cpp:399] inception_4c/3x3_reduce -> inception_4c/3x3_reduce
I0403 14:35:17.901983 10847 net.cpp:141] Setting up inception_4c/3x3_reduce
I0403 14:35:17.902021 10847 net.cpp:148] Top shape: 24 128 14 14 (602112)
I0403 14:35:17.902045 10847 net.cpp:156] Memory required for data: 1035617568
I0403 14:35:17.902067 10847 layer_factory.hpp:77] Creating layer inception_4c/relu_3x3_reduce
I0403 14:35:17.902091 10847 net.cpp:91] Creating Layer inception_4c/relu_3x3_reduce
I0403 14:35:17.902137 10847 net.cpp:425] inception_4c/relu_3x3_reduce <- inception_4c/3x3_reduce
I0403 14:35:17.902159 10847 net.cpp:386] inception_4c/relu_3x3_reduce -> inception_4c/3x3_reduce (in-place)
I0403 14:35:17.902518 10847 net.cpp:141] Setting up inception_4c/relu_3x3_reduce
I0403 14:35:17.902552 10847 net.cpp:148] Top shape: 24 128 14 14 (602112)
I0403 14:35:17.902573 10847 net.cpp:156] Memory required for data: 1038026016
I0403 14:35:17.902590 10847 layer_factory.hpp:77] Creating layer inception_4c/3x3
I0403 14:35:17.902616 10847 net.cpp:91] Creating Layer inception_4c/3x3
I0403 14:35:17.902644 10847 net.cpp:425] inception_4c/3x3 <- inception_4c/3x3_reduce
I0403 14:35:17.902673 10847 net.cpp:399] inception_4c/3x3 -> inception_4c/3x3
I0403 14:35:17.907153 10847 net.cpp:141] Setting up inception_4c/3x3
I0403 14:35:17.907234 10847 net.cpp:148] Top shape: 24 256 14 14 (1204224)
I0403 14:35:17.907255 10847 net.cpp:156] Memory required for data: 1042842912
I0403 14:35:17.907297 10847 layer_factory.hpp:77] Creating layer inception_4c/relu_3x3
I0403 14:35:17.907325 10847 net.cpp:91] Creating Layer inception_4c/relu_3x3
I0403 14:35:17.907346 10847 net.cpp:425] inception_4c/relu_3x3 <- inception_4c/3x3
I0403 14:35:17.907378 10847 net.cpp:386] inception_4c/relu_3x3 -> inception_4c/3x3 (in-place)
I0403 14:35:17.907605 10847 net.cpp:141] Setting up inception_4c/relu_3x3
I0403 14:35:17.907644 10847 net.cpp:148] Top shape: 24 256 14 14 (1204224)
I0403 14:35:17.907663 10847 net.cpp:156] Memory required for data: 1047659808
I0403 14:35:17.907681 10847 layer_factory.hpp:77] Creating layer inception_4c/5x5_reduce
I0403 14:35:17.907711 10847 net.cpp:91] Creating Layer inception_4c/5x5_reduce
I0403 14:35:17.907733 10847 net.cpp:425] inception_4c/5x5_reduce <- inception_4b/output_inception_4b/output_0_split_2
I0403 14:35:17.907758 10847 net.cpp:399] inception_4c/5x5_reduce -> inception_4c/5x5_reduce
I0403 14:35:17.909129 10847 net.cpp:141] Setting up inception_4c/5x5_reduce
I0403 14:35:17.909168 10847 net.cpp:148] Top shape: 24 24 14 14 (112896)
I0403 14:35:17.909188 10847 net.cpp:156] Memory required for data: 1048111392
I0403 14:35:17.909210 10847 layer_factory.hpp:77] Creating layer inception_4c/relu_5x5_reduce
I0403 14:35:17.909231 10847 net.cpp:91] Creating Layer inception_4c/relu_5x5_reduce
I0403 14:35:17.909250 10847 net.cpp:425] inception_4c/relu_5x5_reduce <- inception_4c/5x5_reduce
I0403 14:35:17.909272 10847 net.cpp:386] inception_4c/relu_5x5_reduce -> inception_4c/5x5_reduce (in-place)
I0403 14:35:17.909505 10847 net.cpp:141] Setting up inception_4c/relu_5x5_reduce
I0403 14:35:17.909536 10847 net.cpp:148] Top shape: 24 24 14 14 (112896)
I0403 14:35:17.909554 10847 net.cpp:156] Memory required for data: 1048562976
I0403 14:35:17.909572 10847 layer_factory.hpp:77] Creating layer inception_4c/5x5
I0403 14:35:17.909600 10847 net.cpp:91] Creating Layer inception_4c/5x5
I0403 14:35:17.909621 10847 net.cpp:425] inception_4c/5x5 <- inception_4c/5x5_reduce
I0403 14:35:17.909646 10847 net.cpp:399] inception_4c/5x5 -> inception_4c/5x5
I0403 14:35:17.911206 10847 net.cpp:141] Setting up inception_4c/5x5
I0403 14:35:17.911239 10847 net.cpp:148] Top shape: 24 64 14 14 (301056)
I0403 14:35:17.911258 10847 net.cpp:156] Memory required for data: 1049767200
I0403 14:35:17.911281 10847 layer_factory.hpp:77] Creating layer inception_4c/relu_5x5
I0403 14:35:17.911303 10847 net.cpp:91] Creating Layer inception_4c/relu_5x5
I0403 14:35:17.911320 10847 net.cpp:425] inception_4c/relu_5x5 <- inception_4c/5x5
I0403 14:35:17.911345 10847 net.cpp:386] inception_4c/relu_5x5 -> inception_4c/5x5 (in-place)
I0403 14:35:17.911705 10847 net.cpp:141] Setting up inception_4c/relu_5x5
I0403 14:35:17.911737 10847 net.cpp:148] Top shape: 24 64 14 14 (301056)
I0403 14:35:17.911756 10847 net.cpp:156] Memory required for data: 1050971424
I0403 14:35:17.911775 10847 layer_factory.hpp:77] Creating layer inception_4c/pool
I0403 14:35:17.911799 10847 net.cpp:91] Creating Layer inception_4c/pool
I0403 14:35:17.911818 10847 net.cpp:425] inception_4c/pool <- inception_4b/output_inception_4b/output_0_split_3
I0403 14:35:17.911844 10847 net.cpp:399] inception_4c/pool -> inception_4c/pool
I0403 14:35:17.911928 10847 net.cpp:141] Setting up inception_4c/pool
I0403 14:35:17.911958 10847 net.cpp:148] Top shape: 24 512 14 14 (2408448)
I0403 14:35:17.911975 10847 net.cpp:156] Memory required for data: 1060605216
I0403 14:35:17.911993 10847 layer_factory.hpp:77] Creating layer inception_4c/pool_proj
I0403 14:35:17.912022 10847 net.cpp:91] Creating Layer inception_4c/pool_proj
I0403 14:35:17.912044 10847 net.cpp:425] inception_4c/pool_proj <- inception_4c/pool
I0403 14:35:17.912066 10847 net.cpp:399] inception_4c/pool_proj -> inception_4c/pool_proj
I0403 14:35:17.913615 10847 net.cpp:141] Setting up inception_4c/pool_proj
I0403 14:35:17.913652 10847 net.cpp:148] Top shape: 24 64 14 14 (301056)
I0403 14:35:17.913696 10847 net.cpp:156] Memory required for data: 1061809440
I0403 14:35:17.913720 10847 layer_factory.hpp:77] Creating layer inception_4c/relu_pool_proj
I0403 14:35:17.913743 10847 net.cpp:91] Creating Layer inception_4c/relu_pool_proj
I0403 14:35:17.913763 10847 net.cpp:425] inception_4c/relu_pool_proj <- inception_4c/pool_proj
I0403 14:35:17.913787 10847 net.cpp:386] inception_4c/relu_pool_proj -> inception_4c/pool_proj (in-place)
I0403 14:35:17.914018 10847 net.cpp:141] Setting up inception_4c/relu_pool_proj
I0403 14:35:17.914049 10847 net.cpp:148] Top shape: 24 64 14 14 (301056)
I0403 14:35:17.914067 10847 net.cpp:156] Memory required for data: 1063013664
I0403 14:35:17.914084 10847 layer_factory.hpp:77] Creating layer inception_4c/output
I0403 14:35:17.914115 10847 net.cpp:91] Creating Layer inception_4c/output
I0403 14:35:17.914135 10847 net.cpp:425] inception_4c/output <- inception_4c/1x1
I0403 14:35:17.914155 10847 net.cpp:425] inception_4c/output <- inception_4c/3x3
I0403 14:35:17.914173 10847 net.cpp:425] inception_4c/output <- inception_4c/5x5
I0403 14:35:17.914193 10847 net.cpp:425] inception_4c/output <- inception_4c/pool_proj
I0403 14:35:17.914216 10847 net.cpp:399] inception_4c/output -> inception_4c/output
I0403 14:35:17.914275 10847 net.cpp:141] Setting up inception_4c/output
I0403 14:35:17.914307 10847 net.cpp:148] Top shape: 24 512 14 14 (2408448)
I0403 14:35:17.914326 10847 net.cpp:156] Memory required for data: 1072647456
I0403 14:35:17.914345 10847 layer_factory.hpp:77] Creating layer inception_4c/output_inception_4c/output_0_split
I0403 14:35:17.914366 10847 net.cpp:91] Creating Layer inception_4c/output_inception_4c/output_0_split
I0403 14:35:17.914384 10847 net.cpp:425] inception_4c/output_inception_4c/output_0_split <- inception_4c/output
I0403 14:35:17.914405 10847 net.cpp:399] inception_4c/output_inception_4c/output_0_split -> inception_4c/output_inception_4c/output_0_split_0
I0403 14:35:17.914429 10847 net.cpp:399] inception_4c/output_inception_4c/output_0_split -> inception_4c/output_inception_4c/output_0_split_1
I0403 14:35:17.914458 10847 net.cpp:399] inception_4c/output_inception_4c/output_0_split -> inception_4c/output_inception_4c/output_0_split_2
I0403 14:35:17.914485 10847 net.cpp:399] inception_4c/output_inception_4c/output_0_split -> inception_4c/output_inception_4c/output_0_split_3
I0403 14:35:17.914595 10847 net.cpp:141] Setting up inception_4c/output_inception_4c/output_0_split
I0403 14:35:17.914624 10847 net.cpp:148] Top shape: 24 512 14 14 (2408448)
I0403 14:35:17.914644 10847 net.cpp:148] Top shape: 24 512 14 14 (2408448)
I0403 14:35:17.914662 10847 net.cpp:148] Top shape: 24 512 14 14 (2408448)
I0403 14:35:17.914680 10847 net.cpp:148] Top shape: 24 512 14 14 (2408448)
I0403 14:35:17.914696 10847 net.cpp:156] Memory required for data: 1111182624
I0403 14:35:17.914715 10847 layer_factory.hpp:77] Creating layer inception_4d/1x1
I0403 14:35:17.914741 10847 net.cpp:91] Creating Layer inception_4d/1x1
I0403 14:35:17.914764 10847 net.cpp:425] inception_4d/1x1 <- inception_4c/output_inception_4c/output_0_split_0
I0403 14:35:17.914789 10847 net.cpp:399] inception_4d/1x1 -> inception_4d/1x1
I0403 14:35:17.916530 10847 net.cpp:141] Setting up inception_4d/1x1
I0403 14:35:17.916565 10847 net.cpp:148] Top shape: 24 112 14 14 (526848)
I0403 14:35:17.916584 10847 net.cpp:156] Memory required for data: 1113290016
I0403 14:35:17.916605 10847 layer_factory.hpp:77] Creating layer inception_4d/relu_1x1
I0403 14:35:17.916630 10847 net.cpp:91] Creating Layer inception_4d/relu_1x1
I0403 14:35:17.916651 10847 net.cpp:425] inception_4d/relu_1x1 <- inception_4d/1x1
I0403 14:35:17.916671 10847 net.cpp:386] inception_4d/relu_1x1 -> inception_4d/1x1 (in-place)
I0403 14:35:17.916901 10847 net.cpp:141] Setting up inception_4d/relu_1x1
I0403 14:35:17.916934 10847 net.cpp:148] Top shape: 24 112 14 14 (526848)
I0403 14:35:17.916952 10847 net.cpp:156] Memory required for data: 1115397408
I0403 14:35:17.916970 10847 layer_factory.hpp:77] Creating layer inception_4d/3x3_reduce
I0403 14:35:17.917016 10847 net.cpp:91] Creating Layer inception_4d/3x3_reduce
I0403 14:35:17.917039 10847 net.cpp:425] inception_4d/3x3_reduce <- inception_4c/output_inception_4c/output_0_split_1
I0403 14:35:17.917062 10847 net.cpp:399] inception_4d/3x3_reduce -> inception_4d/3x3_reduce
I0403 14:35:17.918967 10847 net.cpp:141] Setting up inception_4d/3x3_reduce
I0403 14:35:17.919003 10847 net.cpp:148] Top shape: 24 144 14 14 (677376)
I0403 14:35:17.919021 10847 net.cpp:156] Memory required for data: 1118106912
I0403 14:35:17.919042 10847 layer_factory.hpp:77] Creating layer inception_4d/relu_3x3_reduce
I0403 14:35:17.919067 10847 net.cpp:91] Creating Layer inception_4d/relu_3x3_reduce
I0403 14:35:17.919090 10847 net.cpp:425] inception_4d/relu_3x3_reduce <- inception_4d/3x3_reduce
I0403 14:35:17.919121 10847 net.cpp:386] inception_4d/relu_3x3_reduce -> inception_4d/3x3_reduce (in-place)
I0403 14:35:17.919486 10847 net.cpp:141] Setting up inception_4d/relu_3x3_reduce
I0403 14:35:17.919519 10847 net.cpp:148] Top shape: 24 144 14 14 (677376)
I0403 14:35:17.919538 10847 net.cpp:156] Memory required for data: 1120816416
I0403 14:35:17.919555 10847 layer_factory.hpp:77] Creating layer inception_4d/3x3
I0403 14:35:17.919584 10847 net.cpp:91] Creating Layer inception_4d/3x3
I0403 14:35:17.919605 10847 net.cpp:425] inception_4d/3x3 <- inception_4d/3x3_reduce
I0403 14:35:17.919631 10847 net.cpp:399] inception_4d/3x3 -> inception_4d/3x3
I0403 14:35:17.924985 10847 net.cpp:141] Setting up inception_4d/3x3
I0403 14:35:17.925031 10847 net.cpp:148] Top shape: 24 288 14 14 (1354752)
I0403 14:35:17.925051 10847 net.cpp:156] Memory required for data: 1126235424
I0403 14:35:17.925073 10847 layer_factory.hpp:77] Creating layer inception_4d/relu_3x3
I0403 14:35:17.925107 10847 net.cpp:91] Creating Layer inception_4d/relu_3x3
I0403 14:35:17.925130 10847 net.cpp:425] inception_4d/relu_3x3 <- inception_4d/3x3
I0403 14:35:17.925153 10847 net.cpp:386] inception_4d/relu_3x3 -> inception_4d/3x3 (in-place)
I0403 14:35:17.925384 10847 net.cpp:141] Setting up inception_4d/relu_3x3
I0403 14:35:17.925417 10847 net.cpp:148] Top shape: 24 288 14 14 (1354752)
I0403 14:35:17.925436 10847 net.cpp:156] Memory required for data: 1131654432
I0403 14:35:17.925454 10847 layer_factory.hpp:77] Creating layer inception_4d/5x5_reduce
I0403 14:35:17.925482 10847 net.cpp:91] Creating Layer inception_4d/5x5_reduce
I0403 14:35:17.925503 10847 net.cpp:425] inception_4d/5x5_reduce <- inception_4c/output_inception_4c/output_0_split_2
I0403 14:35:17.925526 10847 net.cpp:399] inception_4d/5x5_reduce -> inception_4d/5x5_reduce
I0403 14:35:17.926954 10847 net.cpp:141] Setting up inception_4d/5x5_reduce
I0403 14:35:17.926988 10847 net.cpp:148] Top shape: 24 32 14 14 (150528)
I0403 14:35:17.927006 10847 net.cpp:156] Memory required for data: 1132256544
I0403 14:35:17.927028 10847 layer_factory.hpp:77] Creating layer inception_4d/relu_5x5_reduce
I0403 14:35:17.927053 10847 net.cpp:91] Creating Layer inception_4d/relu_5x5_reduce
I0403 14:35:17.927073 10847 net.cpp:425] inception_4d/relu_5x5_reduce <- inception_4d/5x5_reduce
I0403 14:35:17.927101 10847 net.cpp:386] inception_4d/relu_5x5_reduce -> inception_4d/5x5_reduce (in-place)
I0403 14:35:17.927333 10847 net.cpp:141] Setting up inception_4d/relu_5x5_reduce
I0403 14:35:17.927378 10847 net.cpp:148] Top shape: 24 32 14 14 (150528)
I0403 14:35:17.927397 10847 net.cpp:156] Memory required for data: 1132858656
I0403 14:35:17.927423 10847 layer_factory.hpp:77] Creating layer inception_4d/5x5
I0403 14:35:17.927453 10847 net.cpp:91] Creating Layer inception_4d/5x5
I0403 14:35:17.927475 10847 net.cpp:425] inception_4d/5x5 <- inception_4d/5x5_reduce
I0403 14:35:17.927500 10847 net.cpp:399] inception_4d/5x5 -> inception_4d/5x5
I0403 14:35:17.929350 10847 net.cpp:141] Setting up inception_4d/5x5
I0403 14:35:17.929388 10847 net.cpp:148] Top shape: 24 64 14 14 (301056)
I0403 14:35:17.929406 10847 net.cpp:156] Memory required for data: 1134062880
I0403 14:35:17.929430 10847 layer_factory.hpp:77] Creating layer inception_4d/relu_5x5
I0403 14:35:17.929487 10847 net.cpp:91] Creating Layer inception_4d/relu_5x5
I0403 14:35:17.929510 10847 net.cpp:425] inception_4d/relu_5x5 <- inception_4d/5x5
I0403 14:35:17.929533 10847 net.cpp:386] inception_4d/relu_5x5 -> inception_4d/5x5 (in-place)
I0403 14:35:17.929903 10847 net.cpp:141] Setting up inception_4d/relu_5x5
I0403 14:35:17.929935 10847 net.cpp:148] Top shape: 24 64 14 14 (301056)
I0403 14:35:17.929954 10847 net.cpp:156] Memory required for data: 1135267104
I0403 14:35:17.929971 10847 layer_factory.hpp:77] Creating layer inception_4d/pool
I0403 14:35:17.929994 10847 net.cpp:91] Creating Layer inception_4d/pool
I0403 14:35:17.930013 10847 net.cpp:425] inception_4d/pool <- inception_4c/output_inception_4c/output_0_split_3
I0403 14:35:17.930038 10847 net.cpp:399] inception_4d/pool -> inception_4d/pool
I0403 14:35:17.930133 10847 net.cpp:141] Setting up inception_4d/pool
I0403 14:35:17.930163 10847 net.cpp:148] Top shape: 24 512 14 14 (2408448)
I0403 14:35:17.930181 10847 net.cpp:156] Memory required for data: 1144900896
I0403 14:35:17.930198 10847 layer_factory.hpp:77] Creating layer inception_4d/pool_proj
I0403 14:35:17.930227 10847 net.cpp:91] Creating Layer inception_4d/pool_proj
I0403 14:35:17.930249 10847 net.cpp:425] inception_4d/pool_proj <- inception_4d/pool
I0403 14:35:17.930271 10847 net.cpp:399] inception_4d/pool_proj -> inception_4d/pool_proj
I0403 14:35:17.932447 10847 net.cpp:141] Setting up inception_4d/pool_proj
I0403 14:35:17.932485 10847 net.cpp:148] Top shape: 24 64 14 14 (301056)
I0403 14:35:17.932505 10847 net.cpp:156] Memory required for data: 1146105120
I0403 14:35:17.932528 10847 layer_factory.hpp:77] Creating layer inception_4d/relu_pool_proj
I0403 14:35:17.932554 10847 net.cpp:91] Creating Layer inception_4d/relu_pool_proj
I0403 14:35:17.932574 10847 net.cpp:425] inception_4d/relu_pool_proj <- inception_4d/pool_proj
I0403 14:35:17.932596 10847 net.cpp:386] inception_4d/relu_pool_proj -> inception_4d/pool_proj (in-place)
I0403 14:35:17.932829 10847 net.cpp:141] Setting up inception_4d/relu_pool_proj
I0403 14:35:17.932862 10847 net.cpp:148] Top shape: 24 64 14 14 (301056)
I0403 14:35:17.932883 10847 net.cpp:156] Memory required for data: 1147309344
I0403 14:35:17.932899 10847 layer_factory.hpp:77] Creating layer inception_4d/output
I0403 14:35:17.932921 10847 net.cpp:91] Creating Layer inception_4d/output
I0403 14:35:17.932941 10847 net.cpp:425] inception_4d/output <- inception_4d/1x1
I0403 14:35:17.932962 10847 net.cpp:425] inception_4d/output <- inception_4d/3x3
I0403 14:35:17.932982 10847 net.cpp:425] inception_4d/output <- inception_4d/5x5
I0403 14:35:17.933001 10847 net.cpp:425] inception_4d/output <- inception_4d/pool_proj
I0403 14:35:17.933024 10847 net.cpp:399] inception_4d/output -> inception_4d/output
I0403 14:35:17.933084 10847 net.cpp:141] Setting up inception_4d/output
I0403 14:35:17.933121 10847 net.cpp:148] Top shape: 24 528 14 14 (2483712)
I0403 14:35:17.933140 10847 net.cpp:156] Memory required for data: 1157244192
I0403 14:35:17.933157 10847 layer_factory.hpp:77] Creating layer inception_4d/output_inception_4d/output_0_split
I0403 14:35:17.933182 10847 net.cpp:91] Creating Layer inception_4d/output_inception_4d/output_0_split
I0403 14:35:17.933202 10847 net.cpp:425] inception_4d/output_inception_4d/output_0_split <- inception_4d/output
I0403 14:35:17.933223 10847 net.cpp:399] inception_4d/output_inception_4d/output_0_split -> inception_4d/output_inception_4d/output_0_split_0
I0403 14:35:17.933248 10847 net.cpp:399] inception_4d/output_inception_4d/output_0_split -> inception_4d/output_inception_4d/output_0_split_1
I0403 14:35:17.933279 10847 net.cpp:399] inception_4d/output_inception_4d/output_0_split -> inception_4d/output_inception_4d/output_0_split_2
I0403 14:35:17.933305 10847 net.cpp:399] inception_4d/output_inception_4d/output_0_split -> inception_4d/output_inception_4d/output_0_split_3
I0403 14:35:17.933328 10847 net.cpp:399] inception_4d/output_inception_4d/output_0_split -> inception_4d/output_inception_4d/output_0_split_4
I0403 14:35:17.933457 10847 net.cpp:141] Setting up inception_4d/output_inception_4d/output_0_split
I0403 14:35:17.933502 10847 net.cpp:148] Top shape: 24 528 14 14 (2483712)
I0403 14:35:17.933523 10847 net.cpp:148] Top shape: 24 528 14 14 (2483712)
I0403 14:35:17.933542 10847 net.cpp:148] Top shape: 24 528 14 14 (2483712)
I0403 14:35:17.933559 10847 net.cpp:148] Top shape: 24 528 14 14 (2483712)
I0403 14:35:17.933578 10847 net.cpp:148] Top shape: 24 528 14 14 (2483712)
I0403 14:35:17.933593 10847 net.cpp:156] Memory required for data: 1206918432
I0403 14:35:17.933611 10847 layer_factory.hpp:77] Creating layer loss2/ave_pool
I0403 14:35:17.933636 10847 net.cpp:91] Creating Layer loss2/ave_pool
I0403 14:35:17.933658 10847 net.cpp:425] loss2/ave_pool <- inception_4d/output_inception_4d/output_0_split_0
I0403 14:35:17.933681 10847 net.cpp:399] loss2/ave_pool -> loss2/ave_pool
I0403 14:35:17.934063 10847 net.cpp:141] Setting up loss2/ave_pool
I0403 14:35:17.934104 10847 net.cpp:148] Top shape: 24 528 4 4 (202752)
I0403 14:35:17.934125 10847 net.cpp:156] Memory required for data: 1207729440
I0403 14:35:17.934144 10847 layer_factory.hpp:77] Creating layer loss2/conv
I0403 14:35:17.934172 10847 net.cpp:91] Creating Layer loss2/conv
I0403 14:35:17.934195 10847 net.cpp:425] loss2/conv <- loss2/ave_pool
I0403 14:35:17.934221 10847 net.cpp:399] loss2/conv -> loss2/conv
I0403 14:35:17.936612 10847 net.cpp:141] Setting up loss2/conv
I0403 14:35:17.936650 10847 net.cpp:148] Top shape: 24 128 4 4 (49152)
I0403 14:35:17.936671 10847 net.cpp:156] Memory required for data: 1207926048
I0403 14:35:17.936693 10847 layer_factory.hpp:77] Creating layer loss2/relu_conv
I0403 14:35:17.936715 10847 net.cpp:91] Creating Layer loss2/relu_conv
I0403 14:35:17.936736 10847 net.cpp:425] loss2/relu_conv <- loss2/conv
I0403 14:35:17.936761 10847 net.cpp:386] loss2/relu_conv -> loss2/conv (in-place)
I0403 14:35:17.937119 10847 net.cpp:141] Setting up loss2/relu_conv
I0403 14:35:17.937155 10847 net.cpp:148] Top shape: 24 128 4 4 (49152)
I0403 14:35:17.937173 10847 net.cpp:156] Memory required for data: 1208122656
I0403 14:35:17.937191 10847 layer_factory.hpp:77] Creating layer loss2/fc
I0403 14:35:17.937214 10847 net.cpp:91] Creating Layer loss2/fc
I0403 14:35:17.937235 10847 net.cpp:425] loss2/fc <- loss2/conv
I0403 14:35:17.937263 10847 net.cpp:399] loss2/fc -> loss2/fc
I0403 14:35:17.959141 10847 net.cpp:141] Setting up loss2/fc
I0403 14:35:17.959213 10847 net.cpp:148] Top shape: 24 1024 (24576)
I0403 14:35:17.959233 10847 net.cpp:156] Memory required for data: 1208220960
I0403 14:35:17.959257 10847 layer_factory.hpp:77] Creating layer loss2/relu_fc
I0403 14:35:17.959287 10847 net.cpp:91] Creating Layer loss2/relu_fc
I0403 14:35:17.959311 10847 net.cpp:425] loss2/relu_fc <- loss2/fc
I0403 14:35:17.959333 10847 net.cpp:386] loss2/relu_fc -> loss2/fc (in-place)
I0403 14:35:17.959816 10847 net.cpp:141] Setting up loss2/relu_fc
I0403 14:35:17.959849 10847 net.cpp:148] Top shape: 24 1024 (24576)
I0403 14:35:17.959867 10847 net.cpp:156] Memory required for data: 1208319264
I0403 14:35:17.959887 10847 layer_factory.hpp:77] Creating layer loss2/drop_fc
I0403 14:35:17.959913 10847 net.cpp:91] Creating Layer loss2/drop_fc
I0403 14:35:17.959935 10847 net.cpp:425] loss2/drop_fc <- loss2/fc
I0403 14:35:17.959957 10847 net.cpp:386] loss2/drop_fc -> loss2/fc (in-place)
I0403 14:35:17.960022 10847 net.cpp:141] Setting up loss2/drop_fc
I0403 14:35:17.960052 10847 net.cpp:148] Top shape: 24 1024 (24576)
I0403 14:35:17.960068 10847 net.cpp:156] Memory required for data: 1208417568
I0403 14:35:17.960086 10847 layer_factory.hpp:77] Creating layer loss2/classifier_plantvillage
I0403 14:35:17.960125 10847 net.cpp:91] Creating Layer loss2/classifier_plantvillage
I0403 14:35:17.960150 10847 net.cpp:425] loss2/classifier_plantvillage <- loss2/fc
I0403 14:35:17.960172 10847 net.cpp:399] loss2/classifier_plantvillage -> loss2/classifier_plantvillage
I0403 14:35:17.960686 10847 net.cpp:141] Setting up loss2/classifier_plantvillage
I0403 14:35:17.960718 10847 net.cpp:148] Top shape: 24 38 (912)
I0403 14:35:17.960762 10847 net.cpp:156] Memory required for data: 1208421216
I0403 14:35:17.960786 10847 layer_factory.hpp:77] Creating layer loss2/classifier_plantvillage_loss2/classifier_plantvillage_0_split
I0403 14:35:17.960809 10847 net.cpp:91] Creating Layer loss2/classifier_plantvillage_loss2/classifier_plantvillage_0_split
I0403 14:35:17.960829 10847 net.cpp:425] loss2/classifier_plantvillage_loss2/classifier_plantvillage_0_split <- loss2/classifier_plantvillage
I0403 14:35:17.960853 10847 net.cpp:399] loss2/classifier_plantvillage_loss2/classifier_plantvillage_0_split -> loss2/classifier_plantvillage_loss2/classifier_plantvillage_0_split_0
I0403 14:35:17.960880 10847 net.cpp:399] loss2/classifier_plantvillage_loss2/classifier_plantvillage_0_split -> loss2/classifier_plantvillage_loss2/classifier_plantvillage_0_split_1
I0403 14:35:17.960906 10847 net.cpp:399] loss2/classifier_plantvillage_loss2/classifier_plantvillage_0_split -> loss2/classifier_plantvillage_loss2/classifier_plantvillage_0_split_2
I0403 14:35:17.961001 10847 net.cpp:141] Setting up loss2/classifier_plantvillage_loss2/classifier_plantvillage_0_split
I0403 14:35:17.961033 10847 net.cpp:148] Top shape: 24 38 (912)
I0403 14:35:17.961055 10847 net.cpp:148] Top shape: 24 38 (912)
I0403 14:35:17.961073 10847 net.cpp:148] Top shape: 24 38 (912)
I0403 14:35:17.961104 10847 net.cpp:156] Memory required for data: 1208432160
I0403 14:35:17.961133 10847 layer_factory.hpp:77] Creating layer inception_4e/1x1
I0403 14:35:17.961166 10847 net.cpp:91] Creating Layer inception_4e/1x1
I0403 14:35:17.961187 10847 net.cpp:425] inception_4e/1x1 <- inception_4d/output_inception_4d/output_0_split_1
I0403 14:35:17.961212 10847 net.cpp:399] inception_4e/1x1 -> inception_4e/1x1
I0403 14:35:17.963539 10847 net.cpp:141] Setting up inception_4e/1x1
I0403 14:35:17.963574 10847 net.cpp:148] Top shape: 24 256 14 14 (1204224)
I0403 14:35:17.963593 10847 net.cpp:156] Memory required for data: 1213249056
I0403 14:35:17.963615 10847 layer_factory.hpp:77] Creating layer inception_4e/relu_1x1
I0403 14:35:17.963636 10847 net.cpp:91] Creating Layer inception_4e/relu_1x1
I0403 14:35:17.963656 10847 net.cpp:425] inception_4e/relu_1x1 <- inception_4e/1x1
I0403 14:35:17.963680 10847 net.cpp:386] inception_4e/relu_1x1 -> inception_4e/1x1 (in-place)
I0403 14:35:17.964040 10847 net.cpp:141] Setting up inception_4e/relu_1x1
I0403 14:35:17.964072 10847 net.cpp:148] Top shape: 24 256 14 14 (1204224)
I0403 14:35:17.964092 10847 net.cpp:156] Memory required for data: 1218065952
I0403 14:35:17.964118 10847 layer_factory.hpp:77] Creating layer inception_4e/3x3_reduce
I0403 14:35:17.964146 10847 net.cpp:91] Creating Layer inception_4e/3x3_reduce
I0403 14:35:17.964169 10847 net.cpp:425] inception_4e/3x3_reduce <- inception_4d/output_inception_4d/output_0_split_2
I0403 14:35:17.964196 10847 net.cpp:399] inception_4e/3x3_reduce -> inception_4e/3x3_reduce
I0403 14:35:17.966833 10847 net.cpp:141] Setting up inception_4e/3x3_reduce
I0403 14:35:17.966872 10847 net.cpp:148] Top shape: 24 160 14 14 (752640)
I0403 14:35:17.966892 10847 net.cpp:156] Memory required for data: 1221076512
I0403 14:35:17.966915 10847 layer_factory.hpp:77] Creating layer inception_4e/relu_3x3_reduce
I0403 14:35:17.966938 10847 net.cpp:91] Creating Layer inception_4e/relu_3x3_reduce
I0403 14:35:17.966956 10847 net.cpp:425] inception_4e/relu_3x3_reduce <- inception_4e/3x3_reduce
I0403 14:35:17.966979 10847 net.cpp:386] inception_4e/relu_3x3_reduce -> inception_4e/3x3_reduce (in-place)
I0403 14:35:17.967221 10847 net.cpp:141] Setting up inception_4e/relu_3x3_reduce
I0403 14:35:17.967252 10847 net.cpp:148] Top shape: 24 160 14 14 (752640)
I0403 14:35:17.967270 10847 net.cpp:156] Memory required for data: 1224087072
I0403 14:35:17.967288 10847 layer_factory.hpp:77] Creating layer inception_4e/3x3
I0403 14:35:17.967315 10847 net.cpp:91] Creating Layer inception_4e/3x3
I0403 14:35:17.967337 10847 net.cpp:425] inception_4e/3x3 <- inception_4e/3x3_reduce
I0403 14:35:17.967365 10847 net.cpp:399] inception_4e/3x3 -> inception_4e/3x3
I0403 14:35:17.974244 10847 net.cpp:141] Setting up inception_4e/3x3
I0403 14:35:17.974294 10847 net.cpp:148] Top shape: 24 320 14 14 (1505280)
I0403 14:35:17.974314 10847 net.cpp:156] Memory required for data: 1230108192
I0403 14:35:17.974337 10847 layer_factory.hpp:77] Creating layer inception_4e/relu_3x3
I0403 14:35:17.974359 10847 net.cpp:91] Creating Layer inception_4e/relu_3x3
I0403 14:35:17.974378 10847 net.cpp:425] inception_4e/relu_3x3 <- inception_4e/3x3
I0403 14:35:17.974402 10847 net.cpp:386] inception_4e/relu_3x3 -> inception_4e/3x3 (in-place)
I0403 14:35:17.974766 10847 net.cpp:141] Setting up inception_4e/relu_3x3
I0403 14:35:17.974798 10847 net.cpp:148] Top shape: 24 320 14 14 (1505280)
I0403 14:35:17.974817 10847 net.cpp:156] Memory required for data: 1236129312
I0403 14:35:17.974836 10847 layer_factory.hpp:77] Creating layer inception_4e/5x5_reduce
I0403 14:35:17.974866 10847 net.cpp:91] Creating Layer inception_4e/5x5_reduce
I0403 14:35:17.974889 10847 net.cpp:425] inception_4e/5x5_reduce <- inception_4d/output_inception_4d/output_0_split_3
I0403 14:35:17.974916 10847 net.cpp:399] inception_4e/5x5_reduce -> inception_4e/5x5_reduce
I0403 14:35:17.976253 10847 net.cpp:141] Setting up inception_4e/5x5_reduce
I0403 14:35:17.976289 10847 net.cpp:148] Top shape: 24 32 14 14 (150528)
I0403 14:35:17.976307 10847 net.cpp:156] Memory required for data: 1236731424
I0403 14:35:17.976330 10847 layer_factory.hpp:77] Creating layer inception_4e/relu_5x5_reduce
I0403 14:35:17.976352 10847 net.cpp:91] Creating Layer inception_4e/relu_5x5_reduce
I0403 14:35:17.976379 10847 net.cpp:425] inception_4e/relu_5x5_reduce <- inception_4e/5x5_reduce
I0403 14:35:17.976411 10847 net.cpp:386] inception_4e/relu_5x5_reduce -> inception_4e/5x5_reduce (in-place)
I0403 14:35:17.976778 10847 net.cpp:141] Setting up inception_4e/relu_5x5_reduce
I0403 14:35:17.976814 10847 net.cpp:148] Top shape: 24 32 14 14 (150528)
I0403 14:35:17.976832 10847 net.cpp:156] Memory required for data: 1237333536
I0403 14:35:17.976850 10847 layer_factory.hpp:77] Creating layer inception_4e/5x5
I0403 14:35:17.976897 10847 net.cpp:91] Creating Layer inception_4e/5x5
I0403 14:35:17.976922 10847 net.cpp:425] inception_4e/5x5 <- inception_4e/5x5_reduce
I0403 14:35:17.976945 10847 net.cpp:399] inception_4e/5x5 -> inception_4e/5x5
I0403 14:35:17.979228 10847 net.cpp:141] Setting up inception_4e/5x5
I0403 14:35:17.979265 10847 net.cpp:148] Top shape: 24 128 14 14 (602112)
I0403 14:35:17.979285 10847 net.cpp:156] Memory required for data: 1239741984
I0403 14:35:17.979307 10847 layer_factory.hpp:77] Creating layer inception_4e/relu_5x5
I0403 14:35:17.979329 10847 net.cpp:91] Creating Layer inception_4e/relu_5x5
I0403 14:35:17.979349 10847 net.cpp:425] inception_4e/relu_5x5 <- inception_4e/5x5
I0403 14:35:17.979372 10847 net.cpp:386] inception_4e/relu_5x5 -> inception_4e/5x5 (in-place)
I0403 14:35:17.979617 10847 net.cpp:141] Setting up inception_4e/relu_5x5
I0403 14:35:17.979650 10847 net.cpp:148] Top shape: 24 128 14 14 (602112)
I0403 14:35:17.979670 10847 net.cpp:156] Memory required for data: 1242150432
I0403 14:35:17.979687 10847 layer_factory.hpp:77] Creating layer inception_4e/pool
I0403 14:35:17.979709 10847 net.cpp:91] Creating Layer inception_4e/pool
I0403 14:35:17.979728 10847 net.cpp:425] inception_4e/pool <- inception_4d/output_inception_4d/output_0_split_4
I0403 14:35:17.979753 10847 net.cpp:399] inception_4e/pool -> inception_4e/pool
I0403 14:35:17.979841 10847 net.cpp:141] Setting up inception_4e/pool
I0403 14:35:17.979874 10847 net.cpp:148] Top shape: 24 528 14 14 (2483712)
I0403 14:35:17.979892 10847 net.cpp:156] Memory required for data: 1252085280
I0403 14:35:17.979910 10847 layer_factory.hpp:77] Creating layer inception_4e/pool_proj
I0403 14:35:17.979938 10847 net.cpp:91] Creating Layer inception_4e/pool_proj
I0403 14:35:17.979959 10847 net.cpp:425] inception_4e/pool_proj <- inception_4e/pool
I0403 14:35:17.979981 10847 net.cpp:399] inception_4e/pool_proj -> inception_4e/pool_proj
I0403 14:35:17.981842 10847 net.cpp:141] Setting up inception_4e/pool_proj
I0403 14:35:17.981891 10847 net.cpp:148] Top shape: 24 128 14 14 (602112)
I0403 14:35:17.981911 10847 net.cpp:156] Memory required for data: 1254493728
I0403 14:35:17.981935 10847 layer_factory.hpp:77] Creating layer inception_4e/relu_pool_proj
I0403 14:35:17.981959 10847 net.cpp:91] Creating Layer inception_4e/relu_pool_proj
I0403 14:35:17.981979 10847 net.cpp:425] inception_4e/relu_pool_proj <- inception_4e/pool_proj
I0403 14:35:17.982002 10847 net.cpp:386] inception_4e/relu_pool_proj -> inception_4e/pool_proj (in-place)
I0403 14:35:17.982375 10847 net.cpp:141] Setting up inception_4e/relu_pool_proj
I0403 14:35:17.982409 10847 net.cpp:148] Top shape: 24 128 14 14 (602112)
I0403 14:35:17.982427 10847 net.cpp:156] Memory required for data: 1256902176
I0403 14:35:17.982445 10847 layer_factory.hpp:77] Creating layer inception_4e/output
I0403 14:35:17.982470 10847 net.cpp:91] Creating Layer inception_4e/output
I0403 14:35:17.982489 10847 net.cpp:425] inception_4e/output <- inception_4e/1x1
I0403 14:35:17.982509 10847 net.cpp:425] inception_4e/output <- inception_4e/3x3
I0403 14:35:17.982528 10847 net.cpp:425] inception_4e/output <- inception_4e/5x5
I0403 14:35:17.982547 10847 net.cpp:425] inception_4e/output <- inception_4e/pool_proj
I0403 14:35:17.982568 10847 net.cpp:399] inception_4e/output -> inception_4e/output
I0403 14:35:17.982631 10847 net.cpp:141] Setting up inception_4e/output
I0403 14:35:17.982661 10847 net.cpp:148] Top shape: 24 832 14 14 (3913728)
I0403 14:35:17.982678 10847 net.cpp:156] Memory required for data: 1272557088
I0403 14:35:17.982695 10847 layer_factory.hpp:77] Creating layer pool4/3x3_s2
I0403 14:35:17.982717 10847 net.cpp:91] Creating Layer pool4/3x3_s2
I0403 14:35:17.982736 10847 net.cpp:425] pool4/3x3_s2 <- inception_4e/output
I0403 14:35:17.982761 10847 net.cpp:399] pool4/3x3_s2 -> pool4/3x3_s2
I0403 14:35:17.982848 10847 net.cpp:141] Setting up pool4/3x3_s2
I0403 14:35:17.982878 10847 net.cpp:148] Top shape: 24 832 7 7 (978432)
I0403 14:35:17.982897 10847 net.cpp:156] Memory required for data: 1276470816
I0403 14:35:17.982914 10847 layer_factory.hpp:77] Creating layer pool4/3x3_s2_pool4/3x3_s2_0_split
I0403 14:35:17.982934 10847 net.cpp:91] Creating Layer pool4/3x3_s2_pool4/3x3_s2_0_split
I0403 14:35:17.982954 10847 net.cpp:425] pool4/3x3_s2_pool4/3x3_s2_0_split <- pool4/3x3_s2
I0403 14:35:17.982975 10847 net.cpp:399] pool4/3x3_s2_pool4/3x3_s2_0_split -> pool4/3x3_s2_pool4/3x3_s2_0_split_0
I0403 14:35:17.983005 10847 net.cpp:399] pool4/3x3_s2_pool4/3x3_s2_0_split -> pool4/3x3_s2_pool4/3x3_s2_0_split_1
I0403 14:35:17.983037 10847 net.cpp:399] pool4/3x3_s2_pool4/3x3_s2_0_split -> pool4/3x3_s2_pool4/3x3_s2_0_split_2
I0403 14:35:17.983072 10847 net.cpp:399] pool4/3x3_s2_pool4/3x3_s2_0_split -> pool4/3x3_s2_pool4/3x3_s2_0_split_3
I0403 14:35:17.983202 10847 net.cpp:141] Setting up pool4/3x3_s2_pool4/3x3_s2_0_split
I0403 14:35:17.983232 10847 net.cpp:148] Top shape: 24 832 7 7 (978432)
I0403 14:35:17.983252 10847 net.cpp:148] Top shape: 24 832 7 7 (978432)
I0403 14:35:17.983270 10847 net.cpp:148] Top shape: 24 832 7 7 (978432)
I0403 14:35:17.983289 10847 net.cpp:148] Top shape: 24 832 7 7 (978432)
I0403 14:35:17.983305 10847 net.cpp:156] Memory required for data: 1292125728
I0403 14:35:17.983322 10847 layer_factory.hpp:77] Creating layer inception_5a/1x1
I0403 14:35:17.983351 10847 net.cpp:91] Creating Layer inception_5a/1x1
I0403 14:35:17.983373 10847 net.cpp:425] inception_5a/1x1 <- pool4/3x3_s2_pool4/3x3_s2_0_split_0
I0403 14:35:17.983397 10847 net.cpp:399] inception_5a/1x1 -> inception_5a/1x1
I0403 14:35:17.986929 10847 net.cpp:141] Setting up inception_5a/1x1
I0403 14:35:17.986966 10847 net.cpp:148] Top shape: 24 256 7 7 (301056)
I0403 14:35:17.986987 10847 net.cpp:156] Memory required for data: 1293329952
I0403 14:35:17.987010 10847 layer_factory.hpp:77] Creating layer inception_5a/relu_1x1
I0403 14:35:17.987031 10847 net.cpp:91] Creating Layer inception_5a/relu_1x1
I0403 14:35:17.987051 10847 net.cpp:425] inception_5a/relu_1x1 <- inception_5a/1x1
I0403 14:35:17.987074 10847 net.cpp:386] inception_5a/relu_1x1 -> inception_5a/1x1 (in-place)
I0403 14:35:17.987458 10847 net.cpp:141] Setting up inception_5a/relu_1x1
I0403 14:35:17.987498 10847 net.cpp:148] Top shape: 24 256 7 7 (301056)
I0403 14:35:17.987519 10847 net.cpp:156] Memory required for data: 1294534176
I0403 14:35:17.987537 10847 layer_factory.hpp:77] Creating layer inception_5a/3x3_reduce
I0403 14:35:17.987565 10847 net.cpp:91] Creating Layer inception_5a/3x3_reduce
I0403 14:35:17.987586 10847 net.cpp:425] inception_5a/3x3_reduce <- pool4/3x3_s2_pool4/3x3_s2_0_split_1
I0403 14:35:17.987610 10847 net.cpp:399] inception_5a/3x3_reduce -> inception_5a/3x3_reduce
I0403 14:35:17.990622 10847 net.cpp:141] Setting up inception_5a/3x3_reduce
I0403 14:35:17.990658 10847 net.cpp:148] Top shape: 24 160 7 7 (188160)
I0403 14:35:17.990679 10847 net.cpp:156] Memory required for data: 1295286816
I0403 14:35:17.990701 10847 layer_factory.hpp:77] Creating layer inception_5a/relu_3x3_reduce
I0403 14:35:17.990726 10847 net.cpp:91] Creating Layer inception_5a/relu_3x3_reduce
I0403 14:35:17.990747 10847 net.cpp:425] inception_5a/relu_3x3_reduce <- inception_5a/3x3_reduce
I0403 14:35:17.990768 10847 net.cpp:386] inception_5a/relu_3x3_reduce -> inception_5a/3x3_reduce (in-place)
I0403 14:35:17.991003 10847 net.cpp:141] Setting up inception_5a/relu_3x3_reduce
I0403 14:35:17.991034 10847 net.cpp:148] Top shape: 24 160 7 7 (188160)
I0403 14:35:17.991052 10847 net.cpp:156] Memory required for data: 1296039456
I0403 14:35:17.991070 10847 layer_factory.hpp:77] Creating layer inception_5a/3x3
I0403 14:35:17.991108 10847 net.cpp:91] Creating Layer inception_5a/3x3
I0403 14:35:17.991133 10847 net.cpp:425] inception_5a/3x3 <- inception_5a/3x3_reduce
I0403 14:35:17.991158 10847 net.cpp:399] inception_5a/3x3 -> inception_5a/3x3
I0403 14:35:17.997390 10847 net.cpp:141] Setting up inception_5a/3x3
I0403 14:35:17.997431 10847 net.cpp:148] Top shape: 24 320 7 7 (376320)
I0403 14:35:17.997450 10847 net.cpp:156] Memory required for data: 1297544736
I0403 14:35:17.997473 10847 layer_factory.hpp:77] Creating layer inception_5a/relu_3x3
I0403 14:35:17.997494 10847 net.cpp:91] Creating Layer inception_5a/relu_3x3
I0403 14:35:17.997514 10847 net.cpp:425] inception_5a/relu_3x3 <- inception_5a/3x3
I0403 14:35:17.997535 10847 net.cpp:386] inception_5a/relu_3x3 -> inception_5a/3x3 (in-place)
I0403 14:35:17.997897 10847 net.cpp:141] Setting up inception_5a/relu_3x3
I0403 14:35:17.997932 10847 net.cpp:148] Top shape: 24 320 7 7 (376320)
I0403 14:35:17.997952 10847 net.cpp:156] Memory required for data: 1299050016
I0403 14:35:17.997970 10847 layer_factory.hpp:77] Creating layer inception_5a/5x5_reduce
I0403 14:35:17.997998 10847 net.cpp:91] Creating Layer inception_5a/5x5_reduce
I0403 14:35:17.998020 10847 net.cpp:425] inception_5a/5x5_reduce <- pool4/3x3_s2_pool4/3x3_s2_0_split_2
I0403 14:35:17.998044 10847 net.cpp:399] inception_5a/5x5_reduce -> inception_5a/5x5_reduce
I0403 14:35:17.999506 10847 net.cpp:141] Setting up inception_5a/5x5_reduce
I0403 14:35:17.999543 10847 net.cpp:148] Top shape: 24 32 7 7 (37632)
I0403 14:35:17.999563 10847 net.cpp:156] Memory required for data: 1299200544
I0403 14:35:17.999586 10847 layer_factory.hpp:77] Creating layer inception_5a/relu_5x5_reduce
I0403 14:35:17.999608 10847 net.cpp:91] Creating Layer inception_5a/relu_5x5_reduce
I0403 14:35:17.999629 10847 net.cpp:425] inception_5a/relu_5x5_reduce <- inception_5a/5x5_reduce
I0403 14:35:17.999652 10847 net.cpp:386] inception_5a/relu_5x5_reduce -> inception_5a/5x5_reduce (in-place)
I0403 14:35:18.000012 10847 net.cpp:141] Setting up inception_5a/relu_5x5_reduce
I0403 14:35:18.000051 10847 net.cpp:148] Top shape: 24 32 7 7 (37632)
I0403 14:35:18.000071 10847 net.cpp:156] Memory required for data: 1299351072
I0403 14:35:18.000088 10847 layer_factory.hpp:77] Creating layer inception_5a/5x5
I0403 14:35:18.000124 10847 net.cpp:91] Creating Layer inception_5a/5x5
I0403 14:35:18.000147 10847 net.cpp:425] inception_5a/5x5 <- inception_5a/5x5_reduce
I0403 14:35:18.000172 10847 net.cpp:399] inception_5a/5x5 -> inception_5a/5x5
I0403 14:35:18.002321 10847 net.cpp:141] Setting up inception_5a/5x5
I0403 14:35:18.002377 10847 net.cpp:148] Top shape: 24 128 7 7 (150528)
I0403 14:35:18.002398 10847 net.cpp:156] Memory required for data: 1299953184
I0403 14:35:18.002421 10847 layer_factory.hpp:77] Creating layer inception_5a/relu_5x5
I0403 14:35:18.002444 10847 net.cpp:91] Creating Layer inception_5a/relu_5x5
I0403 14:35:18.002465 10847 net.cpp:425] inception_5a/relu_5x5 <- inception_5a/5x5
I0403 14:35:18.002486 10847 net.cpp:386] inception_5a/relu_5x5 -> inception_5a/5x5 (in-place)
I0403 14:35:18.002729 10847 net.cpp:141] Setting up inception_5a/relu_5x5
I0403 14:35:18.002760 10847 net.cpp:148] Top shape: 24 128 7 7 (150528)
I0403 14:35:18.002779 10847 net.cpp:156] Memory required for data: 1300555296
I0403 14:35:18.002796 10847 layer_factory.hpp:77] Creating layer inception_5a/pool
I0403 14:35:18.002818 10847 net.cpp:91] Creating Layer inception_5a/pool
I0403 14:35:18.002840 10847 net.cpp:425] inception_5a/pool <- pool4/3x3_s2_pool4/3x3_s2_0_split_3
I0403 14:35:18.002866 10847 net.cpp:399] inception_5a/pool -> inception_5a/pool
I0403 14:35:18.002965 10847 net.cpp:141] Setting up inception_5a/pool
I0403 14:35:18.002997 10847 net.cpp:148] Top shape: 24 832 7 7 (978432)
I0403 14:35:18.003017 10847 net.cpp:156] Memory required for data: 1304469024
I0403 14:35:18.003034 10847 layer_factory.hpp:77] Creating layer inception_5a/pool_proj
I0403 14:35:18.003062 10847 net.cpp:91] Creating Layer inception_5a/pool_proj
I0403 14:35:18.003082 10847 net.cpp:425] inception_5a/pool_proj <- inception_5a/pool
I0403 14:35:18.003113 10847 net.cpp:399] inception_5a/pool_proj -> inception_5a/pool_proj
I0403 14:35:18.005910 10847 net.cpp:141] Setting up inception_5a/pool_proj
I0403 14:35:18.005947 10847 net.cpp:148] Top shape: 24 128 7 7 (150528)
I0403 14:35:18.005966 10847 net.cpp:156] Memory required for data: 1305071136
I0403 14:35:18.005988 10847 layer_factory.hpp:77] Creating layer inception_5a/relu_pool_proj
I0403 14:35:18.006012 10847 net.cpp:91] Creating Layer inception_5a/relu_pool_proj
I0403 14:35:18.006033 10847 net.cpp:425] inception_5a/relu_pool_proj <- inception_5a/pool_proj
I0403 14:35:18.006055 10847 net.cpp:386] inception_5a/relu_pool_proj -> inception_5a/pool_proj (in-place)
I0403 14:35:18.006425 10847 net.cpp:141] Setting up inception_5a/relu_pool_proj
I0403 14:35:18.006458 10847 net.cpp:148] Top shape: 24 128 7 7 (150528)
I0403 14:35:18.006476 10847 net.cpp:156] Memory required for data: 1305673248
I0403 14:35:18.006495 10847 layer_factory.hpp:77] Creating layer inception_5a/output
I0403 14:35:18.006520 10847 net.cpp:91] Creating Layer inception_5a/output
I0403 14:35:18.006541 10847 net.cpp:425] inception_5a/output <- inception_5a/1x1
I0403 14:35:18.006561 10847 net.cpp:425] inception_5a/output <- inception_5a/3x3
I0403 14:35:18.006582 10847 net.cpp:425] inception_5a/output <- inception_5a/5x5
I0403 14:35:18.006600 10847 net.cpp:425] inception_5a/output <- inception_5a/pool_proj
I0403 14:35:18.006621 10847 net.cpp:399] inception_5a/output -> inception_5a/output
I0403 14:35:18.006686 10847 net.cpp:141] Setting up inception_5a/output
I0403 14:35:18.006714 10847 net.cpp:148] Top shape: 24 832 7 7 (978432)
I0403 14:35:18.006732 10847 net.cpp:156] Memory required for data: 1309586976
I0403 14:35:18.006749 10847 layer_factory.hpp:77] Creating layer inception_5a/output_inception_5a/output_0_split
I0403 14:35:18.006770 10847 net.cpp:91] Creating Layer inception_5a/output_inception_5a/output_0_split
I0403 14:35:18.006789 10847 net.cpp:425] inception_5a/output_inception_5a/output_0_split <- inception_5a/output
I0403 14:35:18.006814 10847 net.cpp:399] inception_5a/output_inception_5a/output_0_split -> inception_5a/output_inception_5a/output_0_split_0
I0403 14:35:18.006840 10847 net.cpp:399] inception_5a/output_inception_5a/output_0_split -> inception_5a/output_inception_5a/output_0_split_1
I0403 14:35:18.006865 10847 net.cpp:399] inception_5a/output_inception_5a/output_0_split -> inception_5a/output_inception_5a/output_0_split_2
I0403 14:35:18.006891 10847 net.cpp:399] inception_5a/output_inception_5a/output_0_split -> inception_5a/output_inception_5a/output_0_split_3
I0403 14:35:18.007038 10847 net.cpp:141] Setting up inception_5a/output_inception_5a/output_0_split
I0403 14:35:18.007071 10847 net.cpp:148] Top shape: 24 832 7 7 (978432)
I0403 14:35:18.007091 10847 net.cpp:148] Top shape: 24 832 7 7 (978432)
I0403 14:35:18.007119 10847 net.cpp:148] Top shape: 24 832 7 7 (978432)
I0403 14:35:18.007138 10847 net.cpp:148] Top shape: 24 832 7 7 (978432)
I0403 14:35:18.007155 10847 net.cpp:156] Memory required for data: 1325241888
I0403 14:35:18.007172 10847 layer_factory.hpp:77] Creating layer inception_5b/1x1
I0403 14:35:18.007200 10847 net.cpp:91] Creating Layer inception_5b/1x1
I0403 14:35:18.007222 10847 net.cpp:425] inception_5b/1x1 <- inception_5a/output_inception_5a/output_0_split_0
I0403 14:35:18.007246 10847 net.cpp:399] inception_5b/1x1 -> inception_5b/1x1
I0403 14:35:18.011886 10847 net.cpp:141] Setting up inception_5b/1x1
I0403 14:35:18.011924 10847 net.cpp:148] Top shape: 24 384 7 7 (451584)
I0403 14:35:18.011942 10847 net.cpp:156] Memory required for data: 1327048224
I0403 14:35:18.011965 10847 layer_factory.hpp:77] Creating layer inception_5b/relu_1x1
I0403 14:35:18.011991 10847 net.cpp:91] Creating Layer inception_5b/relu_1x1
I0403 14:35:18.012012 10847 net.cpp:425] inception_5b/relu_1x1 <- inception_5b/1x1
I0403 14:35:18.012033 10847 net.cpp:386] inception_5b/relu_1x1 -> inception_5b/1x1 (in-place)
I0403 14:35:18.012459 10847 net.cpp:141] Setting up inception_5b/relu_1x1
I0403 14:35:18.012491 10847 net.cpp:148] Top shape: 24 384 7 7 (451584)
I0403 14:35:18.012511 10847 net.cpp:156] Memory required for data: 1328854560
I0403 14:35:18.012528 10847 layer_factory.hpp:77] Creating layer inception_5b/3x3_reduce
I0403 14:35:18.012557 10847 net.cpp:91] Creating Layer inception_5b/3x3_reduce
I0403 14:35:18.012578 10847 net.cpp:425] inception_5b/3x3_reduce <- inception_5a/output_inception_5a/output_0_split_1
I0403 14:35:18.012605 10847 net.cpp:399] inception_5b/3x3_reduce -> inception_5b/3x3_reduce
I0403 14:35:18.015878 10847 net.cpp:141] Setting up inception_5b/3x3_reduce
I0403 14:35:18.015915 10847 net.cpp:148] Top shape: 24 192 7 7 (225792)
I0403 14:35:18.015934 10847 net.cpp:156] Memory required for data: 1329757728
I0403 14:35:18.015956 10847 layer_factory.hpp:77] Creating layer inception_5b/relu_3x3_reduce
I0403 14:35:18.015980 10847 net.cpp:91] Creating Layer inception_5b/relu_3x3_reduce
I0403 14:35:18.016002 10847 net.cpp:425] inception_5b/relu_3x3_reduce <- inception_5b/3x3_reduce
I0403 14:35:18.016024 10847 net.cpp:386] inception_5b/relu_3x3_reduce -> inception_5b/3x3_reduce (in-place)
I0403 14:35:18.016270 10847 net.cpp:141] Setting up inception_5b/relu_3x3_reduce
I0403 14:35:18.016304 10847 net.cpp:148] Top shape: 24 192 7 7 (225792)
I0403 14:35:18.016324 10847 net.cpp:156] Memory required for data: 1330660896
I0403 14:35:18.016341 10847 layer_factory.hpp:77] Creating layer inception_5b/3x3
I0403 14:35:18.016368 10847 net.cpp:91] Creating Layer inception_5b/3x3
I0403 14:35:18.016391 10847 net.cpp:425] inception_5b/3x3 <- inception_5b/3x3_reduce
I0403 14:35:18.016413 10847 net.cpp:399] inception_5b/3x3 -> inception_5b/3x3
I0403 14:35:18.024858 10847 net.cpp:141] Setting up inception_5b/3x3
I0403 14:35:18.024894 10847 net.cpp:148] Top shape: 24 384 7 7 (451584)
I0403 14:35:18.024914 10847 net.cpp:156] Memory required for data: 1332467232
I0403 14:35:18.024936 10847 layer_factory.hpp:77] Creating layer inception_5b/relu_3x3
I0403 14:35:18.024961 10847 net.cpp:91] Creating Layer inception_5b/relu_3x3
I0403 14:35:18.024991 10847 net.cpp:425] inception_5b/relu_3x3 <- inception_5b/3x3
I0403 14:35:18.025020 10847 net.cpp:386] inception_5b/relu_3x3 -> inception_5b/3x3 (in-place)
I0403 14:35:18.025404 10847 net.cpp:141] Setting up inception_5b/relu_3x3
I0403 14:35:18.025437 10847 net.cpp:148] Top shape: 24 384 7 7 (451584)
I0403 14:35:18.025456 10847 net.cpp:156] Memory required for data: 1334273568
I0403 14:35:18.025475 10847 layer_factory.hpp:77] Creating layer inception_5b/5x5_reduce
I0403 14:35:18.025527 10847 net.cpp:91] Creating Layer inception_5b/5x5_reduce
I0403 14:35:18.025552 10847 net.cpp:425] inception_5b/5x5_reduce <- inception_5a/output_inception_5a/output_0_split_2
I0403 14:35:18.025578 10847 net.cpp:399] inception_5b/5x5_reduce -> inception_5b/5x5_reduce
I0403 14:35:18.027179 10847 net.cpp:141] Setting up inception_5b/5x5_reduce
I0403 14:35:18.027215 10847 net.cpp:148] Top shape: 24 48 7 7 (56448)
I0403 14:35:18.027235 10847 net.cpp:156] Memory required for data: 1334499360
I0403 14:35:18.027266 10847 layer_factory.hpp:77] Creating layer inception_5b/relu_5x5_reduce
I0403 14:35:18.027299 10847 net.cpp:91] Creating Layer inception_5b/relu_5x5_reduce
I0403 14:35:18.027328 10847 net.cpp:425] inception_5b/relu_5x5_reduce <- inception_5b/5x5_reduce
I0403 14:35:18.027351 10847 net.cpp:386] inception_5b/relu_5x5_reduce -> inception_5b/5x5_reduce (in-place)
I0403 14:35:18.027822 10847 net.cpp:141] Setting up inception_5b/relu_5x5_reduce
I0403 14:35:18.027855 10847 net.cpp:148] Top shape: 24 48 7 7 (56448)
I0403 14:35:18.027873 10847 net.cpp:156] Memory required for data: 1334725152
I0403 14:35:18.027890 10847 layer_factory.hpp:77] Creating layer inception_5b/5x5
I0403 14:35:18.027915 10847 net.cpp:91] Creating Layer inception_5b/5x5
I0403 14:35:18.027935 10847 net.cpp:425] inception_5b/5x5 <- inception_5b/5x5_reduce
I0403 14:35:18.027958 10847 net.cpp:399] inception_5b/5x5 -> inception_5b/5x5
I0403 14:35:18.030561 10847 net.cpp:141] Setting up inception_5b/5x5
I0403 14:35:18.030601 10847 net.cpp:148] Top shape: 24 128 7 7 (150528)
I0403 14:35:18.030622 10847 net.cpp:156] Memory required for data: 1335327264
I0403 14:35:18.030644 10847 layer_factory.hpp:77] Creating layer inception_5b/relu_5x5
I0403 14:35:18.030668 10847 net.cpp:91] Creating Layer inception_5b/relu_5x5
I0403 14:35:18.030689 10847 net.cpp:425] inception_5b/relu_5x5 <- inception_5b/5x5
I0403 14:35:18.030714 10847 net.cpp:386] inception_5b/relu_5x5 -> inception_5b/5x5 (in-place)
I0403 14:35:18.030958 10847 net.cpp:141] Setting up inception_5b/relu_5x5
I0403 14:35:18.030989 10847 net.cpp:148] Top shape: 24 128 7 7 (150528)
I0403 14:35:18.031008 10847 net.cpp:156] Memory required for data: 1335929376
I0403 14:35:18.031025 10847 layer_factory.hpp:77] Creating layer inception_5b/pool
I0403 14:35:18.031049 10847 net.cpp:91] Creating Layer inception_5b/pool
I0403 14:35:18.031069 10847 net.cpp:425] inception_5b/pool <- inception_5a/output_inception_5a/output_0_split_3
I0403 14:35:18.031100 10847 net.cpp:399] inception_5b/pool -> inception_5b/pool
I0403 14:35:18.031196 10847 net.cpp:141] Setting up inception_5b/pool
I0403 14:35:18.031226 10847 net.cpp:148] Top shape: 24 832 7 7 (978432)
I0403 14:35:18.031244 10847 net.cpp:156] Memory required for data: 1339843104
I0403 14:35:18.031260 10847 layer_factory.hpp:77] Creating layer inception_5b/pool_proj
I0403 14:35:18.031289 10847 net.cpp:91] Creating Layer inception_5b/pool_proj
I0403 14:35:18.031311 10847 net.cpp:425] inception_5b/pool_proj <- inception_5b/pool
I0403 14:35:18.031334 10847 net.cpp:399] inception_5b/pool_proj -> inception_5b/pool_proj
I0403 14:35:18.034227 10847 net.cpp:141] Setting up inception_5b/pool_proj
I0403 14:35:18.034265 10847 net.cpp:148] Top shape: 24 128 7 7 (150528)
I0403 14:35:18.034286 10847 net.cpp:156] Memory required for data: 1340445216
I0403 14:35:18.034309 10847 layer_factory.hpp:77] Creating layer inception_5b/relu_pool_proj
I0403 14:35:18.034332 10847 net.cpp:91] Creating Layer inception_5b/relu_pool_proj
I0403 14:35:18.034351 10847 net.cpp:425] inception_5b/relu_pool_proj <- inception_5b/pool_proj
I0403 14:35:18.034373 10847 net.cpp:386] inception_5b/relu_pool_proj -> inception_5b/pool_proj (in-place)
I0403 14:35:18.034739 10847 net.cpp:141] Setting up inception_5b/relu_pool_proj
I0403 14:35:18.034775 10847 net.cpp:148] Top shape: 24 128 7 7 (150528)
I0403 14:35:18.034795 10847 net.cpp:156] Memory required for data: 1341047328
I0403 14:35:18.034812 10847 layer_factory.hpp:77] Creating layer inception_5b/output
I0403 14:35:18.034834 10847 net.cpp:91] Creating Layer inception_5b/output
I0403 14:35:18.034874 10847 net.cpp:425] inception_5b/output <- inception_5b/1x1
I0403 14:35:18.034898 10847 net.cpp:425] inception_5b/output <- inception_5b/3x3
I0403 14:35:18.034919 10847 net.cpp:425] inception_5b/output <- inception_5b/5x5
I0403 14:35:18.034940 10847 net.cpp:425] inception_5b/output <- inception_5b/pool_proj
I0403 14:35:18.034960 10847 net.cpp:399] inception_5b/output -> inception_5b/output
I0403 14:35:18.035027 10847 net.cpp:141] Setting up inception_5b/output
I0403 14:35:18.035058 10847 net.cpp:148] Top shape: 24 1024 7 7 (1204224)
I0403 14:35:18.035075 10847 net.cpp:156] Memory required for data: 1345864224
I0403 14:35:18.035092 10847 layer_factory.hpp:77] Creating layer pool5/7x7_s1
I0403 14:35:18.035125 10847 net.cpp:91] Creating Layer pool5/7x7_s1
I0403 14:35:18.035147 10847 net.cpp:425] pool5/7x7_s1 <- inception_5b/output
I0403 14:35:18.035171 10847 net.cpp:399] pool5/7x7_s1 -> pool5/7x7_s1
I0403 14:35:18.035441 10847 net.cpp:141] Setting up pool5/7x7_s1
I0403 14:35:18.035476 10847 net.cpp:148] Top shape: 24 1024 1 1 (24576)
I0403 14:35:18.035495 10847 net.cpp:156] Memory required for data: 1345962528
I0403 14:35:18.035513 10847 layer_factory.hpp:77] Creating layer pool5/drop_7x7_s1
I0403 14:35:18.035536 10847 net.cpp:91] Creating Layer pool5/drop_7x7_s1
I0403 14:35:18.035555 10847 net.cpp:425] pool5/drop_7x7_s1 <- pool5/7x7_s1
I0403 14:35:18.035575 10847 net.cpp:386] pool5/drop_7x7_s1 -> pool5/7x7_s1 (in-place)
I0403 14:35:18.035640 10847 net.cpp:141] Setting up pool5/drop_7x7_s1
I0403 14:35:18.035670 10847 net.cpp:148] Top shape: 24 1024 1 1 (24576)
I0403 14:35:18.035688 10847 net.cpp:156] Memory required for data: 1346060832
I0403 14:35:18.035706 10847 layer_factory.hpp:77] Creating layer loss3/classifier_plantvillage
I0403 14:35:18.035732 10847 net.cpp:91] Creating Layer loss3/classifier_plantvillage
I0403 14:35:18.035753 10847 net.cpp:425] loss3/classifier_plantvillage <- pool5/7x7_s1
I0403 14:35:18.035774 10847 net.cpp:399] loss3/classifier_plantvillage -> loss3/classifier_plantvillage
I0403 14:35:18.036311 10847 net.cpp:141] Setting up loss3/classifier_plantvillage
I0403 14:35:18.036350 10847 net.cpp:148] Top shape: 24 38 (912)
I0403 14:35:18.036367 10847 net.cpp:156] Memory required for data: 1346064480
I0403 14:35:18.036389 10847 layer_factory.hpp:77] Creating layer loss3/classifier_plantvillage_loss3/classifier_plantvillage_0_split
I0403 14:35:18.036412 10847 net.cpp:91] Creating Layer loss3/classifier_plantvillage_loss3/classifier_plantvillage_0_split
I0403 14:35:18.036432 10847 net.cpp:425] loss3/classifier_plantvillage_loss3/classifier_plantvillage_0_split <- loss3/classifier_plantvillage
I0403 14:35:18.036458 10847 net.cpp:399] loss3/classifier_plantvillage_loss3/classifier_plantvillage_0_split -> loss3/classifier_plantvillage_loss3/classifier_plantvillage_0_split_0
I0403 14:35:18.036484 10847 net.cpp:399] loss3/classifier_plantvillage_loss3/classifier_plantvillage_0_split -> loss3/classifier_plantvillage_loss3/classifier_plantvillage_0_split_1
I0403 14:35:18.036509 10847 net.cpp:399] loss3/classifier_plantvillage_loss3/classifier_plantvillage_0_split -> loss3/classifier_plantvillage_loss3/classifier_plantvillage_0_split_2
I0403 14:35:18.036533 10847 net.cpp:399] loss3/classifier_plantvillage_loss3/classifier_plantvillage_0_split -> loss3/classifier_plantvillage_loss3/classifier_plantvillage_0_split_3
I0403 14:35:18.036662 10847 net.cpp:141] Setting up loss3/classifier_plantvillage_loss3/classifier_plantvillage_0_split
I0403 14:35:18.036695 10847 net.cpp:148] Top shape: 24 38 (912)
I0403 14:35:18.036715 10847 net.cpp:148] Top shape: 24 38 (912)
I0403 14:35:18.036734 10847 net.cpp:148] Top shape: 24 38 (912)
I0403 14:35:18.036752 10847 net.cpp:148] Top shape: 24 38 (912)
I0403 14:35:18.036768 10847 net.cpp:156] Memory required for data: 1346079072
I0403 14:35:18.036785 10847 layer_factory.hpp:77] Creating layer loss1/loss
I0403 14:35:18.036836 10847 net.cpp:91] Creating Layer loss1/loss
I0403 14:35:18.036861 10847 net.cpp:425] loss1/loss <- loss1/classifier_plantvillage_loss1/classifier_plantvillage_0_split_0
I0403 14:35:18.036902 10847 net.cpp:425] loss1/loss <- label_data_1_split_0
…
