…
I0403 15:03:45.983189 11499 net.cpp:313] The NetState phase (1) differed from the phase (0) specified by a rule in layer data
I0403 15:03:45.984426 11499 net.cpp:49] Initializing net from parameters: 
state {
  phase: TEST
}
layer {
  name: "data"
  type: "Data"
  top: "data"
  top: "label"
  include {
    phase: TEST
  }
  transform_param {
    mirror: false
    crop_size: 224
    mean_file: "/home/mohanty/data/final_dataset/lmdb/grayscale-60-40/mean.binaryproto"
  }
  data_param {
    source: "/home/mohanty/data/final_dataset/lmdb/grayscale-60-40/test_db"
    batch_size: 24
    backend: LMDB
  }
}
layer {
  name: "conv1/7x7_s2"
  type: "Convolution"
  bottom: "data"
  top: "conv1/7x7_s2"
  param {
    lr_mult: 1
    decay_mult: 1
  }
  param {
    lr_mult: 2
    decay_mult: 0
  }
  convolution_param {
    num_output: 64
    pad: 3
    kernel_size: 7
    stride: 2
    weight_filler {
      type: "xavier"
      std: 0.1
    }
    bias_filler {
      type: "constant"
      value: 0.2
    }
  }
}
layer {
  name: "conv1/relu_7x7"
  type: "ReLU"
  bottom: "conv1/7x7_s2"
  top: "conv1/7x7_s2"
}
layer {
  name: "pool1/3x3_s2"
  type: "Pooling"
  bottom: "conv1/7x7_s2"
  top: "pool1/3x3_s2"
  pooling_param {
    pool: MAX
    kernel_size: 3
    stride: 2
  }
}
layer {
  name: "pool1/norm1"
  type: "LRN"
  bottom: "pool1/3x3_s2"
  top: "pool1/norm1"
  lrn_param {
    local_size: 5
    alpha: 0.0001
    beta: 0.75
  }
}
layer {
  name: "conv2/3x3_reduce"
  type: "Convolution"
  bottom: "pool1/norm1"
  top: "conv2/3x3_reduce"
  param {
    lr_mult: 1
    decay_mult: 1
  }
  param {
    lr_mult: 2
    decay_mult: 0
  }
  convolution_param {
    num_output: 64
    kernel_size: 1
    weight_filler {
      type: "xavier"
      std: 0.1
    }
    bias_filler {
      type: "constant"
      value: 0.2
    }
  }
}
layer {
  name: "conv2/relu_3x3_reduce"
  type: "ReLU"
  bottom: "conv2/3x3_reduce"
  top: "conv2/3x3_reduce"
}
layer {
  name: "conv2/3x3"
  type: "Convolution"
  bottom: "conv2/3x3_reduce"
  top: "conv2/3x3"
  param {
    lr_mult: 1
    decay_mult: 1
  }
  param {
    lr_mult: 2
    decay_mult: 0
  }
  convolution_param {
    num_output: 192
    pad: 1
    kernel_size: 3
    weight_filler {
      type: "xavier"
      std: 0.03
    }
    bias_filler {
      type: "constant"
      value: 0.2
    }
  }
}
layer {
  name: "conv2/relu_3x3"
  type: "ReLU"
  bottom: "conv2/3x3"
  top: "conv2/3x3"
}
layer {
  name: "conv2/norm2"
  type: "LRN"
  bottom: "conv2/3x3"
  top: "conv2/norm2"
  lrn_param {
    local_size: 5
    alpha: 0.0001
    beta: 0.75
  }
}
layer {
  name: "pool2/3x3_s2"
  type: "Pooling"
  bottom: "conv2/norm2"
  top: "pool2/3x3_s2"
  pooling_param {
    pool: MAX
    kernel_size: 3
    stride: 2
  }
}
layer {
  name: "inception_3a/1x1"
  type: "Convolution"
  bottom: "pool2/3x3_s2"
  top: "inception_3a/1x1"
  param {
    lr_mult: 1
    decay_mult: 1
  }
  param {
    lr_mult: 2
    decay_mult: 0
  }
  convolution_param {
    num_output: 64
    kernel_size: 1
    weight_filler {
      type: "xavier"
      std: 0.03
    }
    bias_filler {
      type: "constant"
      value: 0.2
    }
  }
}
layer {
  name: "inception_3a/relu_1x1"
  type: "ReLU"
  bottom: "inception_3a/1x1"
  top: "inception_3a/1x1"
}
layer {
  name: "inception_3a/3x3_reduce"
  type: "Convolution"
  bottom: "pool2/3x3_s2"
  top: "inception_3a/3x3_reduce"
  param {
    lr_mult: 1
    decay_mult: 1
  }
  param {
    lr_mult: 2
    decay_mult: 0
  }
  convolution_param {
    num_output: 96
    kernel_size: 1
    weight_filler {
      type: "xavier"
      std: 0.09
    }
    bias_filler {
      type: "constant"
      value: 0.2
    }
  }
}
layer {
  name: "inception_3a/relu_3x3_reduce"
  type: "ReLU"
  bottom: "inception_3a/3x3_reduce"
  top: "inception_3a/3x3_reduce"
}
layer {
  name: "inception_3a/3x3"
  type: "Convolution"
  bottom: "inception_3a/3x3_reduce"
  top: "inception_3a/3x3"
  param {
    lr_mult: 1
    decay_mult: 1
  }
  param {
    lr_mult: 2
    decay_mult: 0
  }
  convolution_param {
    num_output: 128
    pad: 1
    kernel_size: 3
    weight_filler {
      type: "xavier"
      std: 0.03
    }
    bias_filler {
      type: "constant"
      value: 0.2
    }
  }
}
layer {
  name: "inception_3a/relu_3x3"
  type: "ReLU"
  bottom: "inception_3a/3x3"
  top: "inception_3a/3x3"
}
layer {
  name: "inception_3a/5x5_reduce"
  type: "Convolution"
  bottom: "pool2/3x3_s2"
  top: "inception_3a/5x5_reduce"
  param {
    lr_mult: 1
    decay_mult: 1
  }
  param {
    lr_mult: 2
    decay_mult: 0
  }
  convolution_param {
    num_output: 16
    kernel_size: 1
    weight_filler {
      type: "xavier"
      std: 0.2
    }
    bias_filler {
      type: "constant"
      value: 0.2
    }
  }
}
layer {
  name: "inception_3a/relu_5x5_reduce"
  type: "ReLU"
  bottom: "inception_3a/5x5_reduce"
  top: "inception_3a/5x5_reduce"
}
layer {
  name: "inception_3a/5x5"
  type: "Convolution"
  bottom: "inception_3a/5x5_reduce"
  top: "inception_3a/5x5"
  param {
    lr_mult: 1
    decay_mult: 1
  }
  param {
    lr_mult: 2
    decay_mult: 0
  }
  convolution_param {
    num_output: 32
    pad: 2
    kernel_size: 5
    weight_filler {
      type: "xavier"
      std: 0.03
    }
    bias_filler {
      type: "constant"
      value: 0.2
    }
  }
}
layer {
  name: "inception_3a/relu_5x5"
  type: "ReLU"
  bottom: "inception_3a/5x5"
  top: "inception_3a/5x5"
}
layer {
  name: "inception_3a/pool"
  type: "Pooling"
  bottom: "pool2/3x3_s2"
  top: "inception_3a/pool"
  pooling_param {
    pool: MAX
    kernel_size: 3
    stride: 1
    pad: 1
  }
}
layer {
  name: "inception_3a/pool_proj"
  type: "Convolution"
  bottom: "inception_3a/pool"
  top: "inception_3a/pool_proj"
  param {
    lr_mult: 1
    decay_mult: 1
  }
  param {
    lr_mult: 2
    decay_mult: 0
  }
  convolution_param {
    num_output: 32
    kernel_size: 1
    weight_filler {
      type: "xavier"
      std: 0.1
    }
    bias_filler {
      type: "constant"
      value: 0.2
    }
  }
}
layer {
  name: "inception_3a/relu_pool_proj"
  type: "ReLU"
  bottom: "inception_3a/pool_proj"
  top: "inception_3a/pool_proj"
}
layer {
  name: "inception_3a/output"
  type: "Concat"
  bottom: "inception_3a/1x1"
  bottom: "inception_3a/3x3"
  bottom: "inception_3a/5x5"
  bottom: "inception_3a/pool_proj"
  top: "inception_3a/output"
}
layer {
  name: "inception_3b/1x1"
  type: "Convolution"
  bottom: "inception_3a/output"
  top: "inception_3b/1x1"
  param {
    lr_mult: 1
    decay_mult: 1
  }
  param {
    lr_mult: 2
    decay_mult: 0
  }
  convolution_param {
    num_output: 128
    kernel_size: 1
    weight_filler {
      type: "xavier"
      std: 0.03
    }
    bias_filler {
      type: "constant"
      value: 0.2
    }
  }
}
layer {
  name: "inception_3b/relu_1x1"
  type: "ReLU"
  bottom: "inception_3b/1x1"
  top: "inception_3b/1x1"
}
layer {
  name: "inception_3b/3x3_reduce"
  type: "Convolution"
  bottom: "inception_3a/output"
  top: "inception_3b/3x3_reduce"
  param {
    lr_mult: 1
    decay_mult: 1
  }
  param {
    lr_mult: 2
    decay_mult: 0
  }
  convolution_param {
    num_output: 128
    kernel_size: 1
    weight_filler {
      type: "xavier"
      std: 0.09
    }
    bias_filler {
      type: "constant"
      value: 0.2
    }
  }
}
layer {
  name: "inception_3b/relu_3x3_reduce"
  type: "ReLU"
  bottom: "inception_3b/3x3_reduce"
  top: "inception_3b/3x3_reduce"
}
layer {
  name: "inception_3b/3x3"
  type: "Convolution"
  bottom: "inception_3b/3x3_reduce"
  top: "inception_3b/3x3"
  param {
    lr_mult: 1
    decay_mult: 1
  }
  param {
    lr_mult: 2
    decay_mult: 0
  }
  convolution_param {
    num_output: 192
    pad: 1
    kernel_size: 3
    weight_filler {
      type: "xavier"
      std: 0.03
    }
    bias_filler {
      type: "constant"
      value: 0.2
    }
  }
}
layer {
  name: "inception_3b/relu_3x3"
  type: "ReLU"
  bottom: "inception_3b/3x3"
  top: "inception_3b/3x3"
}
layer {
  name: "inception_3b/5x5_reduce"
  type: "Convolution"
  bottom: "inception_3a/output"
  top: "inception_3b/5x5_reduce"
  param {
    lr_mult: 1
    decay_mult: 1
  }
  param {
    lr_mult: 2
    decay_mult: 0
  }
  convolution_param {
    num_output: 32
    kernel_size: 1
    weight_filler {
      type: "xavier"
      std: 0.2
    }
    bias_filler {
      type: "constant"
      value: 0.2
    }
  }
}
layer {
  name: "inception_3b/relu_5x5_reduce"
  type: "ReLU"
  bottom: "inception_3b/5x5_reduce"
  top: "inception_3b/5x5_reduce"
}
layer {
  name: "inception_3b/5x5"
  type: "Convolution"
  bottom: "inception_3b/5x5_reduce"
  top: "inception_3b/5x5"
  param {
    lr_mult: 1
    decay_mult: 1
  }
  param {
    lr_mult: 2
    decay_mult: 0
  }
  convolution_param {
    num_output: 96
    pad: 2
    kernel_size: 5
    weight_filler {
      type: "xavier"
      std: 0.03
    }
    bias_filler {
      type: "constant"
      value: 0.2
    }
  }
}
layer {
  name: "inception_3b/relu_5x5"
  type: "ReLU"
  bottom: "inception_3b/5x5"
  top: "inception_3b/5x5"
}
layer {
  name: "inception_3b/pool"
  type: "Pooling"
  bottom: "inception_3a/output"
  top: "inception_3b/pool"
  pooling_param {
    pool: MAX
    kernel_size: 3
    stride: 1
    pad: 1
  }
}
layer {
  name: "inception_3b/pool_proj"
  type: "Convolution"
  bottom: "inception_3b/pool"
  top: "inception_3b/pool_proj"
  param {
    lr_mult: 1
    decay_mult: 1
  }
  param {
    lr_mult: 2
    decay_mult: 0
  }
  convolution_param {
    num_output: 64
    kernel_size: 1
    weight_filler {
      type: "xavier"
      std: 0.1
    }
    bias_filler {
      type: "constant"
      value: 0.2
    }
  }
}
layer {
  name: "inception_3b/relu_pool_proj"
  type: "ReLU"
  bottom: "inception_3b/pool_proj"
  top: "inception_3b/pool_proj"
}
layer {
  name: "inception_3b/output"
  type: "Concat"
  bottom: "inception_3b/1x1"
  bottom: "inception_3b/3x3"
  bottom: "inception_3b/5x5"
  bottom: "inception_3b/pool_proj"
  top: "inception_3b/output"
}
layer {
  name: "pool3/3x3_s2"
  type: "Pooling"
  bottom: "inception_3b/output"
  top: "pool3/3x3_s2"
  pooling_param {
    pool: MAX
    kernel_size: 3
    stride: 2
  }
}
layer {
  name: "inception_4a/1x1"
  type: "Convolution"
  bottom: "pool3/3x3_s2"
  top: "inception_4a/1x1"
  param {
    lr_mult: 1
    decay_mult: 1
  }
  param {
    lr_mult: 2
    decay_mult: 0
  }
  convolution_param {
    num_output: 192
    kernel_size: 1
    weight_filler {
      type: "xavier"
      std: 0.03
    }
    bias_filler {
      type: "constant"
      value: 0.2
    }
  }
}
layer {
  name: "inception_4a/relu_1x1"
  type: "ReLU"
  bottom: "inception_4a/1x1"
  top: "inception_4a/1x1"
}
layer {
  name: "inception_4a/3x3_reduce"
  type: "Convolution"
  bottom: "pool3/3x3_s2"
  top: "inception_4a/3x3_reduce"
  param {
    lr_mult: 1
    decay_mult: 1
  }
  param {
    lr_mult: 2
    decay_mult: 0
  }
  convolution_param {
    num_output: 96
    kernel_size: 1
    weight_filler {
      type: "xavier"
      std: 0.09
    }
    bias_filler {
      type: "constant"
      value: 0.2
    }
  }
}
layer {
  name: "inception_4a/relu_3x3_reduce"
  type: "ReLU"
  bottom: "inception_4a/3x3_reduce"
  top: "inception_4a/3x3_reduce"
}
layer {
  name: "inception_4a/3x3"
  type: "Convolution"
  bottom: "inception_4a/3x3_reduce"
  top: "inception_4a/3x3"
  param {
    lr_mult: 1
    decay_mult: 1
  }
  param {
    lr_mult: 2
    decay_mult: 0
  }
  convolution_param {
    num_output: 208
    pad: 1
    kernel_size: 3
    weight_filler {
      type: "xavier"
      std: 0.03
    }
    bias_filler {
      type: "constant"
      value: 0.2
    }
  }
}
layer {
  name: "inception_4a/relu_3x3"
  type: "ReLU"
  bottom: "inception_4a/3x3"
  top: "inception_4a/3x3"
}
layer {
  name: "inception_4a/5x5_reduce"
  type: "Convolution"
  bottom: "pool3/3x3_s2"
  top: "inception_4a/5x5_reduce"
  param {
    lr_mult: 1
    decay_mult: 1
  }
  param {
    lr_mult: 2
    decay_mult: 0
  }
  convolution_param {
    num_output: 16
    kernel_size: 1
    weight_filler {
      type: "xavier"
      std: 0.2
    }
    bias_filler {
      type: "constant"
      value: 0.2
    }
  }
}
layer {
  name: "inception_4a/relu_5x5_reduce"
  type: "ReLU"
  bottom: "inception_4a/5x5_reduce"
  top: "inception_4a/5x5_reduce"
}
layer {
  name: "inception_4a/5x5"
  type: "Convolution"
  bottom: "inception_4a/5x5_reduce"
  top: "inception_4a/5x5"
  param {
    lr_mult: 1
    decay_mult: 1
  }
  param {
    lr_mult: 2
    decay_mult: 0
  }
  convolution_param {
    num_output: 48
    pad: 2
    kernel_size: 5
    weight_filler {
      type: "xavier"
      std: 0.03
    }
    bias_filler {
      type: "constant"
      value: 0.2
    }
  }
}
layer {
  name: "inception_4a/relu_5x5"
  type: "ReLU"
  bottom: "inception_4a/5x5"
  top: "inception_4a/5x5"
}
layer {
  name: "inception_4a/pool"
  type: "Pooling"
  bottom: "pool3/3x3_s2"
  top: "inception_4a/pool"
  pooling_param {
    pool: MAX
    kernel_size: 3
    stride: 1
    pad: 1
  }
}
layer {
  name: "inception_4a/pool_proj"
  type: "Convolution"
  bottom: "inception_4a/pool"
  top: "inception_4a/pool_proj"
  param {
    lr_mult: 1
    decay_mult: 1
  }
  param {
    lr_mult: 2
    decay_mult: 0
  }
  convolution_param {
    num_output: 64
    kernel_size: 1
    weight_filler {
      type: "xavier"
      std: 0.1
    }
    bias_filler {
      type: "constant"
      value: 0.2
    }
  }
}
layer {
  name: "inception_4a/relu_pool_proj"
  type: "ReLU"
  bottom: "inception_4a/pool_proj"
  top: "inception_4a/pool_proj"
}
layer {
  name: "inception_4a/output"
  type: "Concat"
  bottom: "inception_4a/1x1"
  bottom: "inception_4a/3x3"
  bottom: "inception_4a/5x5"
  bottom: "inception_4a/pool_proj"
  top: "inception_4a/output"
}
layer {
  name: "loss1/ave_pool"
  type: "Pooling"
  bottom: "inception_4a/output"
  top: "loss1/ave_pool"
  pooling_param {
    pool: AVE
    kernel_size: 5
    stride: 3
  }
}
layer {
  name: "loss1/conv"
  type: "Convolution"
  bottom: "loss1/ave_pool"
  top: "loss1/conv"
  param {
    lr_mult: 1
    decay_mult: 1
  }
  param {
    lr_mult: 2
    decay_mult: 0
  }
  convolution_param {
    num_output: 128
    kernel_size: 1
    weight_filler {
      type: "xavier"
      std: 0.08
    }
    bias_filler {
      type: "constant"
      value: 0.2
    }
  }
}
layer {
  name: "loss1/relu_conv"
  type: "ReLU"
  bottom: "loss1/conv"
  top: "loss1/conv"
}
layer {
  name: "loss1/fc"
  type: "InnerProduct"
  bottom: "loss1/conv"
  top: "loss1/fc"
  param {
    lr_mult: 1
    decay_mult: 1
  }
  param {
    lr_mult: 2
    decay_mult: 0
  }
  inner_product_param {
    num_output: 1024
    weight_filler {
      type: "xavier"
      std: 0.02
    }
    bias_filler {
      type: "constant"
      value: 0.2
    }
  }
}
layer {
  name: "loss1/relu_fc"
  type: "ReLU"
  bottom: "loss1/fc"
  top: "loss1/fc"
}
layer {
  name: "loss1/drop_fc"
  type: "Dropout"
  bottom: "loss1/fc"
  top: "loss1/fc"
  dropout_param {
    dropout_ratio: 0.7
  }
}
layer {
  name: "loss1/classifier_plantvillage"
  type: "InnerProduct"
  bottom: "loss1/fc"
  top: "loss1/classifier_plantvillage"
  param {
    lr_mult: 1
    decay_mult: 1
  }
  param {
    lr_mult: 2
    decay_mult: 0
  }
  inner_product_param {
    num_output: 38
    weight_filler {
      type: "xavier"
      std: 0.0009765625
    }
    bias_filler {
      type: "constant"
      value: 0
    }
  }
}
layer {
  name: "inception_4b/1x1"
  type: "Convolution"
  bottom: "inception_4a/output"
  top: "inception_4b/1x1"
  param {
    lr_mult: 1
    decay_mult: 1
  }
  param {
    lr_mult: 2
    decay_mult: 0
  }
  convolution_param {
    num_output: 160
    kernel_size: 1
    weight_filler {
      type: "xavier"
      std: 0.03
    }
    bias_filler {
      type: "constant"
      value: 0.2
    }
  }
}
layer {
  name: "inception_4b/relu_1x1"
  type: "ReLU"
  bottom: "inception_4b/1x1"
  top: "inception_4b/1x1"
}
layer {
  name: "inception_4b/3x3_reduce"
  type: "Convolution"
  bottom: "inception_4a/output"
  top: "inception_4b/3x3_reduce"
  param {
    lr_mult: 1
    decay_mult: 1
  }
  param {
    lr_mult: 2
    decay_mult: 0
  }
  convolution_param {
    num_output: 112
    kernel_size: 1
    weight_filler {
      type: "xavier"
      std: 0.09
    }
    bias_filler {
      type: "constant"
      value: 0.2
    }
  }
}
layer {
  name: "inception_4b/relu_3x3_reduce"
  type: "ReLU"
  bottom: "inception_4b/3x3_reduce"
  top: "inception_4b/3x3_reduce"
}
layer {
  name: "inception_4b/3x3"
  type: "Convolution"
  bottom: "inception_4b/3x3_reduce"
  top: "inception_4b/3x3"
  param {
    lr_mult: 1
    decay_mult: 1
  }
  param {
    lr_mult: 2
    decay_mult: 0
  }
  convolution_param {
    num_output: 224
    pad: 1
    kernel_size: 3
    weight_filler {
      type: "xavier"
      std: 0.03
    }
    bias_filler {
      type: "constant"
      value: 0.2
    }
  }
}
layer {
  name: "inception_4b/relu_3x3"
  type: "ReLU"
  bottom: "inception_4b/3x3"
  top: "inception_4b/3x3"
}
layer {
  name: "inception_4b/5x5_reduce"
  type: "Convolution"
  bottom: "inception_4a/output"
  top: "inception_4b/5x5_reduce"
  param {
    lr_mult: 1
    decay_mult: 1
  }
  param {
    lr_mult: 2
    decay_mult: 0
  }
  convolution_param {
    num_output: 24
    kernel_size: 1
    weight_filler {
      type: "xavier"
      std: 0.2
    }
    bias_filler {
      type: "constant"
      value: 0.2
    }
  }
}
layer {
  name: "inception_4b/relu_5x5_reduce"
  type: "ReLU"
  bottom: "inception_4b/5x5_reduce"
  top: "inception_4b/5x5_reduce"
}
layer {
  name: "inception_4b/5x5"
  type: "Convolution"
  bottom: "inception_4b/5x5_reduce"
  top: "inception_4b/5x5"
  param {
    lr_mult: 1
    decay_mult: 1
  }
  param {
    lr_mult: 2
    decay_mult: 0
  }
  convolution_param {
    num_output: 64
    pad: 2
    kernel_size: 5
    weight_filler {
      type: "xavier"
      std: 0.03
    }
    bias_filler {
      type: "constant"
      value: 0.2
    }
  }
}
layer {
  name: "inception_4b/relu_5x5"
  type: "ReLU"
  bottom: "inception_4b/5x5"
  top: "inception_4b/5x5"
}
layer {
  name: "inception_4b/pool"
  type: "Pooling"
  bottom: "inception_4a/output"
  top: "inception_4b/pool"
  pooling_param {
    pool: MAX
    kernel_size: 3
    stride: 1
    pad: 1
  }
}
layer {
  name: "inception_4b/pool_proj"
  type: "Convolution"
  bottom: "inception_4b/pool"
  top: "inception_4b/pool_proj"
  param {
    lr_mult: 1
    decay_mult: 1
  }
  param {
    lr_mult: 2
    decay_mult: 0
  }
  convolution_param {
    num_output: 64
    kernel_size: 1
    weight_filler {
      type: "xavier"
      std: 0.1
    }
    bias_filler {
      type: "constant"
      value: 0.2
    }
  }
}
layer {
  name: "inception_4b/relu_pool_proj"
  type: "ReLU"
  bottom: "inception_4b/pool_proj"
  top: "inception_4b/pool_proj"
}
layer {
  name: "inception_4b/output"
  type: "Concat"
  bottom: "inception_4b/1x1"
  bottom: "inception_4b/3x3"
  bottom: "inception_4b/5x5"
  bottom: "inception_4b/pool_proj"
  top: "inception_4b/output"
}
layer {
  name: "inception_4c/1x1"
  type: "Convolution"
  bottom: "inception_4b/output"
  top: "inception_4c/1x1"
  param {
    lr_mult: 1
    decay_mult: 1
  }
  param {
    lr_mult: 2
    decay_mult: 0
  }
  convolution_param {
    num_output: 128
    kernel_size: 1
    weight_filler {
      type: "xavier"
      std: 0.03
    }
    bias_filler {
      type: "constant"
      value: 0.2
    }
  }
}
layer {
  name: "inception_4c/relu_1x1"
  type: "ReLU"
  bottom: "inception_4c/1x1"
  top: "inception_4c/1x1"
}
layer {
  name: "inception_4c/3x3_reduce"
  type: "Convolution"
  bottom: "inception_4b/output"
  top: "inception_4c/3x3_reduce"
  param {
    lr_mult: 1
    decay_mult: 1
  }
  param {
    lr_mult: 2
    decay_mult: 0
  }
  convolution_param {
    num_output: 128
    kernel_size: 1
    weight_filler {
      type: "xavier"
      std: 0.09
    }
    bias_filler {
      type: "constant"
      value: 0.2
    }
  }
}
layer {
  name: "inception_4c/relu_3x3_reduce"
  type: "ReLU"
  bottom: "inception_4c/3x3_reduce"
  top: "inception_4c/3x3_reduce"
}
layer {
  name: "inception_4c/3x3"
  type: "Convolution"
  bottom: "inception_4c/3x3_reduce"
  top: "inception_4c/3x3"
  param {
    lr_mult: 1
    decay_mult: 1
  }
  param {
    lr_mult: 2
    decay_mult: 0
  }
  convolution_param {
    num_output: 256
    pad: 1
    kernel_size: 3
    weight_filler {
      type: "xavier"
      std: 0.03
    }
    bias_filler {
      type: "constant"
      value: 0.2
    }
  }
}
layer {
  name: "inception_4c/relu_3x3"
  type: "ReLU"
  bottom: "inception_4c/3x3"
  top: "inception_4c/3x3"
}
layer {
  name: "inception_4c/5x5_reduce"
  type: "Convolution"
  bottom: "inception_4b/output"
  top: "inception_4c/5x5_reduce"
  param {
    lr_mult: 1
    decay_mult: 1
  }
  param {
    lr_mult: 2
    decay_mult: 0
  }
  convolution_param {
    num_output: 24
    kernel_size: 1
    weight_filler {
      type: "xavier"
      std: 0.2
    }
    bias_filler {
      type: "constant"
      value: 0.2
    }
  }
}
layer {
  name: "inception_4c/relu_5x5_reduce"
  type: "ReLU"
  bottom: "inception_4c/5x5_reduce"
  top: "inception_4c/5x5_reduce"
}
layer {
  name: "inception_4c/5x5"
  type: "Convolution"
  bottom: "inception_4c/5x5_reduce"
  top: "inception_4c/5x5"
  param {
    lr_mult: 1
    decay_mult: 1
  }
  param {
    lr_mult: 2
    decay_mult: 0
  }
  convolution_param {
    num_output: 64
    pad: 2
    kernel_size: 5
    weight_filler {
      type: "xavier"
      std: 0.03
    }
    bias_filler {
      type: "constant"
      value: 0.2
    }
  }
}
layer {
  name: "inception_4c/relu_5x5"
  type: "ReLU"
  bottom: "inception_4c/5x5"
  top: "inception_4c/5x5"
}
layer {
  name: "inception_4c/pool"
  type: "Pooling"
  bottom: "inception_4b/output"
  top: "inception_4c/pool"
  pooling_param {
    pool: MAX
    kernel_size: 3
    stride: 1
    pad: 1
  }
}
layer {
  name: "inception_4c/pool_proj"
  type: "Convolution"
  bottom: "inception_4c/pool"
  top: "inception_4c/pool_proj"
  param {
    lr_mult: 1
    decay_mult: 1
  }
  param {
    lr_mult: 2
    decay_mult: 0
  }
  convolution_param {
    num_output: 64
    kernel_size: 1
    weight_filler {
      type: "xavier"
      std: 0.1
    }
    bias_filler {
      type: "constant"
      value: 0.2
    }
  }
}
layer {
  name: "inception_4c/relu_pool_proj"
  type: "ReLU"
  bottom: "inception_4c/pool_proj"
  top: "inception_4c/pool_proj"
}
layer {
  name: "inception_4c/output"
  type: "Concat"
  bottom: "inception_4c/1x1"
  bottom: "inception_4c/3x3"
  bottom: "inception_4c/5x5"
  bottom: "inception_4c/pool_proj"
  top: "inception_4c/output"
}
layer {
  name: "inception_4d/1x1"
  type: "Convolution"
  bottom: "inception_4c/output"
  top: "inception_4d/1x1"
  param {
    lr_mult: 1
    decay_mult: 1
  }
  param {
    lr_mult: 2
    decay_mult: 0
  }
  convolution_param {
    num_output: 112
    kernel_size: 1
    weight_filler {
      type: "xavier"
      std: 0.03
    }
    bias_filler {
      type: "constant"
      value: 0.2
    }
  }
}
layer {
  name: "inception_4d/relu_1x1"
  type: "ReLU"
  bottom: "inception_4d/1x1"
  top: "inception_4d/1x1"
}
layer {
  name: "inception_4d/3x3_reduce"
  type: "Convolution"
  bottom: "inception_4c/output"
  top: "inception_4d/3x3_reduce"
  param {
    lr_mult: 1
    decay_mult: 1
  }
  param {
    lr_mult: 2
    decay_mult: 0
  }
  convolution_param {
    num_output: 144
    kernel_size: 1
    weight_filler {
      type: "xavier"
      std: 0.09
    }
    bias_filler {
      type: "constant"
      value: 0.2
    }
  }
}
layer {
  name: "inception_4d/relu_3x3_reduce"
  type: "ReLU"
  bottom: "inception_4d/3x3_reduce"
  top: "inception_4d/3x3_reduce"
}
layer {
  name: "inception_4d/3x3"
  type: "Convolution"
  bottom: "inception_4d/3x3_reduce"
  top: "inception_4d/3x3"
  param {
    lr_mult: 1
    decay_mult: 1
  }
  param {
    lr_mult: 2
    decay_mult: 0
  }
  convolution_param {
    num_output: 288
    pad: 1
    kernel_size: 3
    weight_filler {
      type: "xavier"
      std: 0.03
    }
    bias_filler {
      type: "constant"
      value: 0.2
    }
  }
}
layer {
  name: "inception_4d/relu_3x3"
  type: "ReLU"
  bottom: "inception_4d/3x3"
  top: "inception_4d/3x3"
}
layer {
  name: "inception_4d/5x5_reduce"
  type: "Convolution"
  bottom: "inception_4c/output"
  top: "inception_4d/5x5_reduce"
  param {
    lr_mult: 1
    decay_mult: 1
  }
  param {
    lr_mult: 2
    decay_mult: 0
  }
  convolution_param {
    num_output: 32
    kernel_size: 1
    weight_filler {
      type: "xavier"
      std: 0.2
    }
    bias_filler {
      type: "constant"
      value: 0.2
    }
  }
}
layer {
  name: "inception_4d/relu_5x5_reduce"
  type: "ReLU"
  bottom: "inception_4d/5x5_reduce"
  top: "inception_4d/5x5_reduce"
}
layer {
  name: "inception_4d/5x5"
  type: "Convolution"
  bottom: "inception_4d/5x5_reduce"
  top: "inception_4d/5x5"
  param {
    lr_mult: 1
    decay_mult: 1
  }
  param {
    lr_mult: 2
    decay_mult: 0
  }
  convolution_param {
    num_output: 64
    pad: 2
    kernel_size: 5
    weight_filler {
      type: "xavier"
      std: 0.03
    }
    bias_filler {
      type: "constant"
      value: 0.2
    }
  }
}
layer {
  name: "inception_4d/relu_5x5"
  type: "ReLU"
  bottom: "inception_4d/5x5"
  top: "inception_4d/5x5"
}
layer {
  name: "inception_4d/pool"
  type: "Pooling"
  bottom: "inception_4c/output"
  top: "inception_4d/pool"
  pooling_param {
    pool: MAX
    kernel_size: 3
    stride: 1
    pad: 1
  }
}
layer {
  name: "inception_4d/pool_proj"
  type: "Convolution"
  bottom: "inception_4d/pool"
  top: "inception_4d/pool_proj"
  param {
    lr_mult: 1
    decay_mult: 1
  }
  param {
    lr_mult: 2
    decay_mult: 0
  }
  convolution_param {
    num_output: 64
    kernel_size: 1
    weight_filler {
      type: "xavier"
      std: 0.1
    }
    bias_filler {
      type: "constant"
      value: 0.2
    }
  }
}
layer {
  name: "inception_4d/relu_pool_proj"
  type: "ReLU"
  bottom: "inception_4d/pool_proj"
  top: "inception_4d/pool_proj"
}
layer {
  name: "inception_4d/output"
  type: "Concat"
  bottom: "inception_4d/1x1"
  bottom: "inception_4d/3x3"
  bottom: "inception_4d/5x5"
  bottom: "inception_4d/pool_proj"
  top: "inception_4d/output"
}
layer {
  name: "loss2/ave_pool"
  type: "Pooling"
  bottom: "inception_4d/output"
  top: "loss2/ave_pool"
  pooling_param {
    pool: AVE
    kernel_size: 5
    stride: 3
  }
}
layer {
  name: "loss2/conv"
  type: "Convolution"
  bottom: "loss2/ave_pool"
  top: "loss2/conv"
  param {
    lr_mult: 1
    decay_mult: 1
  }
  param {
    lr_mult: 2
    decay_mult: 0
  }
  convolution_param {
    num_output: 128
    kernel_size: 1
    weight_filler {
      type: "xavier"
      std: 0.08
    }
    bias_filler {
      type: "constant"
      value: 0.2
    }
  }
}
layer {
  name: "loss2/relu_conv"
  type: "ReLU"
  bottom: "loss2/conv"
  top: "loss2/conv"
}
layer {
  name: "loss2/fc"
  type: "InnerProduct"
  bottom: "loss2/conv"
  top: "loss2/fc"
  param {
    lr_mult: 1
    decay_mult: 1
  }
  param {
    lr_mult: 2
    decay_mult: 0
  }
  inner_product_param {
    num_output: 1024
    weight_filler {
      type: "xavier"
      std: 0.02
    }
    bias_filler {
      type: "constant"
      value: 0.2
    }
  }
}
layer {
  name: "loss2/relu_fc"
  type: "ReLU"
  bottom: "loss2/fc"
  top: "loss2/fc"
}
layer {
  name: "loss2/drop_fc"
  type: "Dropout"
  bottom: "loss2/fc"
  top: "loss2/fc"
  dropout_param {
    dropout_ratio: 0.7
  }
}
layer {
  name: "loss2/classifier_plantvillage"
  type: "InnerProduct"
  bottom: "loss2/fc"
  top: "loss2/classifier_plantvillage"
  param {
    lr_mult: 1
    decay_mult: 1
  }
  param {
    lr_mult: 2
    decay_mult: 0
  }
  inner_product_param {
    num_output: 38
    weight_filler {
      type: "xavier"
      std: 0.0009765625
    }
    bias_filler {
      type: "constant"
      value: 0
    }
  }
}
layer {
  name: "inception_4e/1x1"
  type: "Convolution"
  bottom: "inception_4d/output"
  top: "inception_4e/1x1"
  param {
    lr_mult: 1
    decay_mult: 1
  }
  param {
    lr_mult: 2
    decay_mult: 0
  }
  convolution_param {
    num_output: 256
    kernel_size: 1
    weight_filler {
      type: "xavier"
      std: 0.03
    }
    bias_filler {
      type: "constant"
      value: 0.2
    }
  }
}
layer {
  name: "inception_4e/relu_1x1"
  type: "ReLU"
  bottom: "inception_4e/1x1"
  top: "inception_4e/1x1"
}
layer {
  name: "inception_4e/3x3_reduce"
  type: "Convolution"
  bottom: "inception_4d/output"
  top: "inception_4e/3x3_reduce"
  param {
    lr_mult: 1
    decay_mult: 1
  }
  param {
    lr_mult: 2
    decay_mult: 0
  }
  convolution_param {
    num_output: 160
    kernel_size: 1
    weight_filler {
      type: "xavier"
      std: 0.09
    }
    bias_filler {
      type: "constant"
      value: 0.2
    }
  }
}
layer {
  name: "inception_4e/relu_3x3_reduce"
  type: "ReLU"
  bottom: "inception_4e/3x3_reduce"
  top: "inception_4e/3x3_reduce"
}
layer {
  name: "inception_4e/3x3"
  type: "Convolution"
  bottom: "inception_4e/3x3_reduce"
  top: "inception_4e/3x3"
  param {
    lr_mult: 1
    decay_mult: 1
  }
  param {
    lr_mult: 2
    decay_mult: 0
  }
  convolution_param {
    num_output: 320
    pad: 1
    kernel_size: 3
    weight_filler {
      type: "xavier"
      std: 0.03
    }
    bias_filler {
      type: "constant"
      value: 0.2
    }
  }
}
layer {
  name: "inception_4e/relu_3x3"
  type: "ReLU"
  bottom: "inception_4e/3x3"
  top: "inception_4e/3x3"
}
layer {
  name: "inception_4e/5x5_reduce"
  type: "Convolution"
  bottom: "inception_4d/output"
  top: "inception_4e/5x5_reduce"
  param {
    lr_mult: 1
    decay_mult: 1
  }
  param {
    lr_mult: 2
    decay_mult: 0
  }
  convolution_param {
    num_output: 32
    kernel_size: 1
    weight_filler {
      type: "xavier"
      std: 0.2
    }
    bias_filler {
      type: "constant"
      value: 0.2
    }
  }
}
layer {
  name: "inception_4e/relu_5x5_reduce"
  type: "ReLU"
  bottom: "inception_4e/5x5_reduce"
  top: "inception_4e/5x5_reduce"
}
layer {
  name: "inception_4e/5x5"
  type: "Convolution"
  bottom: "inception_4e/5x5_reduce"
  top: "inception_4e/
I0403 15:03:45.985749 11499 layer_factory.hpp:77] Creating layer data
I0403 15:03:45.986376 11499 net.cpp:91] Creating Layer data
I0403 15:03:45.986409 11499 net.cpp:399] data -> data
I0403 15:03:45.986462 11499 net.cpp:399] data -> label
I0403 15:03:45.986505 11499 data_transformer.cpp:25] Loading mean file from: /home/mohanty/data/final_dataset/lmdb/grayscale-60-40/mean.binaryproto
I0403 15:03:45.989327 11506 db_lmdb.cpp:38] Opened lmdb /home/mohanty/data/final_dataset/lmdb/grayscale-60-40/test_db
I0403 15:03:46.000048 11499 data_layer.cpp:41] output data size: 24,3,224,224
I0403 15:03:46.028076 11499 net.cpp:141] Setting up data
I0403 15:03:46.028178 11499 net.cpp:148] Top shape: 24 3 224 224 (3612672)
I0403 15:03:46.028203 11499 net.cpp:148] Top shape: 24 (24)
I0403 15:03:46.028219 11499 net.cpp:156] Memory required for data: 14450784
I0403 15:03:46.028246 11499 layer_factory.hpp:77] Creating layer label_data_1_split
I0403 15:03:46.028273 11499 net.cpp:91] Creating Layer label_data_1_split
I0403 15:03:46.028292 11499 net.cpp:425] label_data_1_split <- label
I0403 15:03:46.028326 11499 net.cpp:399] label_data_1_split -> label_data_1_split_0
I0403 15:03:46.028353 11499 net.cpp:399] label_data_1_split -> label_data_1_split_1
I0403 15:03:46.028375 11499 net.cpp:399] label_data_1_split -> label_data_1_split_2
I0403 15:03:46.028396 11499 net.cpp:399] label_data_1_split -> label_data_1_split_3
I0403 15:03:46.028416 11499 net.cpp:399] label_data_1_split -> label_data_1_split_4
I0403 15:03:46.028437 11499 net.cpp:399] label_data_1_split -> label_data_1_split_5
I0403 15:03:46.028457 11499 net.cpp:399] label_data_1_split -> label_data_1_split_6
I0403 15:03:46.028480 11499 net.cpp:399] label_data_1_split -> label_data_1_split_7
I0403 15:03:46.028501 11499 net.cpp:399] label_data_1_split -> label_data_1_split_8
I0403 15:03:46.028520 11499 net.cpp:399] label_data_1_split -> label_data_1_split_9
I0403 15:03:46.028642 11499 net.cpp:141] Setting up label_data_1_split
I0403 15:03:46.028667 11499 net.cpp:148] Top shape: 24 (24)
I0403 15:03:46.028686 11499 net.cpp:148] Top shape: 24 (24)
I0403 15:03:46.028702 11499 net.cpp:148] Top shape: 24 (24)
I0403 15:03:46.028718 11499 net.cpp:148] Top shape: 24 (24)
I0403 15:03:46.028733 11499 net.cpp:148] Top shape: 24 (24)
I0403 15:03:46.028749 11499 net.cpp:148] Top shape: 24 (24)
I0403 15:03:46.028766 11499 net.cpp:148] Top shape: 24 (24)
I0403 15:03:46.028781 11499 net.cpp:148] Top shape: 24 (24)
I0403 15:03:46.028798 11499 net.cpp:148] Top shape: 24 (24)
I0403 15:03:46.028815 11499 net.cpp:148] Top shape: 24 (24)
I0403 15:03:46.028861 11499 net.cpp:156] Memory required for data: 14451744
I0403 15:03:46.028878 11499 layer_factory.hpp:77] Creating layer conv1/7x7_s2
I0403 15:03:46.028911 11499 net.cpp:91] Creating Layer conv1/7x7_s2
I0403 15:03:46.028933 11499 net.cpp:425] conv1/7x7_s2 <- data
I0403 15:03:46.028952 11499 net.cpp:399] conv1/7x7_s2 -> conv1/7x7_s2
I0403 15:03:46.175318 11499 net.cpp:141] Setting up conv1/7x7_s2
I0403 15:03:46.175405 11499 net.cpp:148] Top shape: 24 64 112 112 (19267584)
I0403 15:03:46.175425 11499 net.cpp:156] Memory required for data: 91522080
I0403 15:03:46.175457 11499 layer_factory.hpp:77] Creating layer conv1/relu_7x7
I0403 15:03:46.175484 11499 net.cpp:91] Creating Layer conv1/relu_7x7
I0403 15:03:46.175504 11499 net.cpp:425] conv1/relu_7x7 <- conv1/7x7_s2
I0403 15:03:46.175523 11499 net.cpp:386] conv1/relu_7x7 -> conv1/7x7_s2 (in-place)
I0403 15:03:46.175794 11499 net.cpp:141] Setting up conv1/relu_7x7
I0403 15:03:46.175824 11499 net.cpp:148] Top shape: 24 64 112 112 (19267584)
I0403 15:03:46.175840 11499 net.cpp:156] Memory required for data: 168592416
I0403 15:03:46.175856 11499 layer_factory.hpp:77] Creating layer pool1/3x3_s2
I0403 15:03:46.175882 11499 net.cpp:91] Creating Layer pool1/3x3_s2
I0403 15:03:46.175901 11499 net.cpp:425] pool1/3x3_s2 <- conv1/7x7_s2
I0403 15:03:46.175920 11499 net.cpp:399] pool1/3x3_s2 -> pool1/3x3_s2
I0403 15:03:46.175997 11499 net.cpp:141] Setting up pool1/3x3_s2
I0403 15:03:46.176023 11499 net.cpp:148] Top shape: 24 64 56 56 (4816896)
I0403 15:03:46.176038 11499 net.cpp:156] Memory required for data: 187860000
I0403 15:03:46.176053 11499 layer_factory.hpp:77] Creating layer pool1/norm1
I0403 15:03:46.176079 11499 net.cpp:91] Creating Layer pool1/norm1
I0403 15:03:46.176095 11499 net.cpp:425] pool1/norm1 <- pool1/3x3_s2
I0403 15:03:46.176115 11499 net.cpp:399] pool1/norm1 -> pool1/norm1
I0403 15:03:46.176415 11499 net.cpp:141] Setting up pool1/norm1
I0403 15:03:46.176445 11499 net.cpp:148] Top shape: 24 64 56 56 (4816896)
I0403 15:03:46.176460 11499 net.cpp:156] Memory required for data: 207127584
I0403 15:03:46.176476 11499 layer_factory.hpp:77] Creating layer conv2/3x3_reduce
I0403 15:03:46.176502 11499 net.cpp:91] Creating Layer conv2/3x3_reduce
I0403 15:03:46.176519 11499 net.cpp:425] conv2/3x3_reduce <- pool1/norm1
I0403 15:03:46.176538 11499 net.cpp:399] conv2/3x3_reduce -> conv2/3x3_reduce
I0403 15:03:46.177938 11499 net.cpp:141] Setting up conv2/3x3_reduce
I0403 15:03:46.177971 11499 net.cpp:148] Top shape: 24 64 56 56 (4816896)
I0403 15:03:46.177990 11499 net.cpp:156] Memory required for data: 226395168
I0403 15:03:46.178012 11499 layer_factory.hpp:77] Creating layer conv2/relu_3x3_reduce
I0403 15:03:46.178033 11499 net.cpp:91] Creating Layer conv2/relu_3x3_reduce
I0403 15:03:46.178050 11499 net.cpp:425] conv2/relu_3x3_reduce <- conv2/3x3_reduce
I0403 15:03:46.178067 11499 net.cpp:386] conv2/relu_3x3_reduce -> conv2/3x3_reduce (in-place)
I0403 15:03:46.178350 11499 net.cpp:141] Setting up conv2/relu_3x3_reduce
I0403 15:03:46.178381 11499 net.cpp:148] Top shape: 24 64 56 56 (4816896)
I0403 15:03:46.178398 11499 net.cpp:156] Memory required for data: 245662752
I0403 15:03:46.178414 11499 layer_factory.hpp:77] Creating layer conv2/3x3
I0403 15:03:46.178439 11499 net.cpp:91] Creating Layer conv2/3x3
I0403 15:03:46.178459 11499 net.cpp:425] conv2/3x3 <- conv2/3x3_reduce
I0403 15:03:46.178483 11499 net.cpp:399] conv2/3x3 -> conv2/3x3
I0403 15:03:46.180920 11499 net.cpp:141] Setting up conv2/3x3
I0403 15:03:46.180955 11499 net.cpp:148] Top shape: 24 192 56 56 (14450688)
I0403 15:03:46.180975 11499 net.cpp:156] Memory required for data: 303465504
I0403 15:03:46.180999 11499 layer_factory.hpp:77] Creating layer conv2/relu_3x3
I0403 15:03:46.181020 11499 net.cpp:91] Creating Layer conv2/relu_3x3
I0403 15:03:46.181035 11499 net.cpp:425] conv2/relu_3x3 <- conv2/3x3
I0403 15:03:46.181056 11499 net.cpp:386] conv2/relu_3x3 -> conv2/3x3 (in-place)
I0403 15:03:46.181246 11499 net.cpp:141] Setting up conv2/relu_3x3
I0403 15:03:46.181274 11499 net.cpp:148] Top shape: 24 192 56 56 (14450688)
I0403 15:03:46.181321 11499 net.cpp:156] Memory required for data: 361268256
I0403 15:03:46.181339 11499 layer_factory.hpp:77] Creating layer conv2/norm2
I0403 15:03:46.181361 11499 net.cpp:91] Creating Layer conv2/norm2
I0403 15:03:46.181380 11499 net.cpp:425] conv2/norm2 <- conv2/3x3
I0403 15:03:46.181397 11499 net.cpp:399] conv2/norm2 -> conv2/norm2
I0403 15:03:46.181715 11499 net.cpp:141] Setting up conv2/norm2
I0403 15:03:46.181743 11499 net.cpp:148] Top shape: 24 192 56 56 (14450688)
I0403 15:03:46.181762 11499 net.cpp:156] Memory required for data: 419071008
I0403 15:03:46.181779 11499 layer_factory.hpp:77] Creating layer pool2/3x3_s2
I0403 15:03:46.181798 11499 net.cpp:91] Creating Layer pool2/3x3_s2
I0403 15:03:46.181814 11499 net.cpp:425] pool2/3x3_s2 <- conv2/norm2
I0403 15:03:46.181833 11499 net.cpp:399] pool2/3x3_s2 -> pool2/3x3_s2
I0403 15:03:46.181888 11499 net.cpp:141] Setting up pool2/3x3_s2
I0403 15:03:46.181912 11499 net.cpp:148] Top shape: 24 192 28 28 (3612672)
I0403 15:03:46.181928 11499 net.cpp:156] Memory required for data: 433521696
I0403 15:03:46.181943 11499 layer_factory.hpp:77] Creating layer pool2/3x3_s2_pool2/3x3_s2_0_split
I0403 15:03:46.181962 11499 net.cpp:91] Creating Layer pool2/3x3_s2_pool2/3x3_s2_0_split
I0403 15:03:46.181977 11499 net.cpp:425] pool2/3x3_s2_pool2/3x3_s2_0_split <- pool2/3x3_s2
I0403 15:03:46.181998 11499 net.cpp:399] pool2/3x3_s2_pool2/3x3_s2_0_split -> pool2/3x3_s2_pool2/3x3_s2_0_split_0
I0403 15:03:46.182019 11499 net.cpp:399] pool2/3x3_s2_pool2/3x3_s2_0_split -> pool2/3x3_s2_pool2/3x3_s2_0_split_1
I0403 15:03:46.182041 11499 net.cpp:399] pool2/3x3_s2_pool2/3x3_s2_0_split -> pool2/3x3_s2_pool2/3x3_s2_0_split_2
I0403 15:03:46.182061 11499 net.cpp:399] pool2/3x3_s2_pool2/3x3_s2_0_split -> pool2/3x3_s2_pool2/3x3_s2_0_split_3
I0403 15:03:46.182143 11499 net.cpp:141] Setting up pool2/3x3_s2_pool2/3x3_s2_0_split
I0403 15:03:46.182169 11499 net.cpp:148] Top shape: 24 192 28 28 (3612672)
I0403 15:03:46.182185 11499 net.cpp:148] Top shape: 24 192 28 28 (3612672)
I0403 15:03:46.182201 11499 net.cpp:148] Top shape: 24 192 28 28 (3612672)
I0403 15:03:46.182219 11499 net.cpp:148] Top shape: 24 192 28 28 (3612672)
I0403 15:03:46.182232 11499 net.cpp:156] Memory required for data: 491324448
I0403 15:03:46.182248 11499 layer_factory.hpp:77] Creating layer inception_3a/1x1
I0403 15:03:46.182272 11499 net.cpp:91] Creating Layer inception_3a/1x1
I0403 15:03:46.182291 11499 net.cpp:425] inception_3a/1x1 <- pool2/3x3_s2_pool2/3x3_s2_0_split_0
I0403 15:03:46.182312 11499 net.cpp:399] inception_3a/1x1 -> inception_3a/1x1
I0403 15:03:46.183907 11499 net.cpp:141] Setting up inception_3a/1x1
I0403 15:03:46.183940 11499 net.cpp:148] Top shape: 24 64 28 28 (1204224)
I0403 15:03:46.183959 11499 net.cpp:156] Memory required for data: 496141344
I0403 15:03:46.183979 11499 layer_factory.hpp:77] Creating layer inception_3a/relu_1x1
I0403 15:03:46.183997 11499 net.cpp:91] Creating Layer inception_3a/relu_1x1
I0403 15:03:46.184015 11499 net.cpp:425] inception_3a/relu_1x1 <- inception_3a/1x1
I0403 15:03:46.184036 11499 net.cpp:386] inception_3a/relu_1x1 -> inception_3a/1x1 (in-place)
I0403 15:03:46.184226 11499 net.cpp:141] Setting up inception_3a/relu_1x1
I0403 15:03:46.184252 11499 net.cpp:148] Top shape: 24 64 28 28 (1204224)
I0403 15:03:46.184268 11499 net.cpp:156] Memory required for data: 500958240
I0403 15:03:46.184284 11499 layer_factory.hpp:77] Creating layer inception_3a/3x3_reduce
I0403 15:03:46.184308 11499 net.cpp:91] Creating Layer inception_3a/3x3_reduce
I0403 15:03:46.184327 11499 net.cpp:425] inception_3a/3x3_reduce <- pool2/3x3_s2_pool2/3x3_s2_0_split_1
I0403 15:03:46.184350 11499 net.cpp:399] inception_3a/3x3_reduce -> inception_3a/3x3_reduce
I0403 15:03:46.186106 11499 net.cpp:141] Setting up inception_3a/3x3_reduce
I0403 15:03:46.186144 11499 net.cpp:148] Top shape: 24 96 28 28 (1806336)
I0403 15:03:46.186163 11499 net.cpp:156] Memory required for data: 508183584
I0403 15:03:46.186185 11499 layer_factory.hpp:77] Creating layer inception_3a/relu_3x3_reduce
I0403 15:03:46.186223 11499 net.cpp:91] Creating Layer inception_3a/relu_3x3_reduce
I0403 15:03:46.186242 11499 net.cpp:425] inception_3a/relu_3x3_reduce <- inception_3a/3x3_reduce
I0403 15:03:46.186264 11499 net.cpp:386] inception_3a/relu_3x3_reduce -> inception_3a/3x3_reduce (in-place)
I0403 15:03:46.186455 11499 net.cpp:141] Setting up inception_3a/relu_3x3_reduce
I0403 15:03:46.186482 11499 net.cpp:148] Top shape: 24 96 28 28 (1806336)
I0403 15:03:46.186501 11499 net.cpp:156] Memory required for data: 515408928
I0403 15:03:46.186518 11499 layer_factory.hpp:77] Creating layer inception_3a/3x3
I0403 15:03:46.186539 11499 net.cpp:91] Creating Layer inception_3a/3x3
I0403 15:03:46.186558 11499 net.cpp:425] inception_3a/3x3 <- inception_3a/3x3_reduce
I0403 15:03:46.186580 11499 net.cpp:399] inception_3a/3x3 -> inception_3a/3x3
I0403 15:03:46.188318 11499 net.cpp:141] Setting up inception_3a/3x3
I0403 15:03:46.188351 11499 net.cpp:148] Top shape: 24 128 28 28 (2408448)
I0403 15:03:46.188369 11499 net.cpp:156] Memory required for data: 525042720
I0403 15:03:46.188387 11499 layer_factory.hpp:77] Creating layer inception_3a/relu_3x3
I0403 15:03:46.188406 11499 net.cpp:91] Creating Layer inception_3a/relu_3x3
I0403 15:03:46.188423 11499 net.cpp:425] inception_3a/relu_3x3 <- inception_3a/3x3
I0403 15:03:46.188444 11499 net.cpp:386] inception_3a/relu_3x3 -> inception_3a/3x3 (in-place)
I0403 15:03:46.188737 11499 net.cpp:141] Setting up inception_3a/relu_3x3
I0403 15:03:46.188768 11499 net.cpp:148] Top shape: 24 128 28 28 (2408448)
I0403 15:03:46.188786 11499 net.cpp:156] Memory required for data: 534676512
I0403 15:03:46.188802 11499 layer_factory.hpp:77] Creating layer inception_3a/5x5_reduce
I0403 15:03:46.188827 11499 net.cpp:91] Creating Layer inception_3a/5x5_reduce
I0403 15:03:46.188846 11499 net.cpp:425] inception_3a/5x5_reduce <- pool2/3x3_s2_pool2/3x3_s2_0_split_2
I0403 15:03:46.188865 11499 net.cpp:399] inception_3a/5x5_reduce -> inception_3a/5x5_reduce
I0403 15:03:46.189884 11499 net.cpp:141] Setting up inception_3a/5x5_reduce
I0403 15:03:46.189914 11499 net.cpp:148] Top shape: 24 16 28 28 (301056)
I0403 15:03:46.189931 11499 net.cpp:156] Memory required for data: 535880736
I0403 15:03:46.189951 11499 layer_factory.hpp:77] Creating layer inception_3a/relu_5x5_reduce
I0403 15:03:46.189970 11499 net.cpp:91] Creating Layer inception_3a/relu_5x5_reduce
I0403 15:03:46.189993 11499 net.cpp:425] inception_3a/relu_5x5_reduce <- inception_3a/5x5_reduce
I0403 15:03:46.190014 11499 net.cpp:386] inception_3a/relu_5x5_reduce -> inception_3a/5x5_reduce (in-place)
I0403 15:03:46.190337 11499 net.cpp:141] Setting up inception_3a/relu_5x5_reduce
I0403 15:03:46.190366 11499 net.cpp:148] Top shape: 24 16 28 28 (301056)
I0403 15:03:46.190383 11499 net.cpp:156] Memory required for data: 537084960
I0403 15:03:46.190398 11499 layer_factory.hpp:77] Creating layer inception_3a/5x5
I0403 15:03:46.190423 11499 net.cpp:91] Creating Layer inception_3a/5x5
I0403 15:03:46.190443 11499 net.cpp:425] inception_3a/5x5 <- inception_3a/5x5_reduce
I0403 15:03:46.190464 11499 net.cpp:399] inception_3a/5x5 -> inception_3a/5x5
I0403 15:03:46.191536 11499 net.cpp:141] Setting up inception_3a/5x5
I0403 15:03:46.191567 11499 net.cpp:148] Top shape: 24 32 28 28 (602112)
I0403 15:03:46.191586 11499 net.cpp:156] Memory required for data: 539493408
I0403 15:03:46.191606 11499 layer_factory.hpp:77] Creating layer inception_3a/relu_5x5
I0403 15:03:46.191624 11499 net.cpp:91] Creating Layer inception_3a/relu_5x5
I0403 15:03:46.191640 11499 net.cpp:425] inception_3a/relu_5x5 <- inception_3a/5x5
I0403 15:03:46.191661 11499 net.cpp:386] inception_3a/relu_5x5 -> inception_3a/5x5 (in-place)
I0403 15:03:46.191845 11499 net.cpp:141] Setting up inception_3a/relu_5x5
I0403 15:03:46.191872 11499 net.cpp:148] Top shape: 24 32 28 28 (602112)
I0403 15:03:46.191889 11499 net.cpp:156] Memory required for data: 541901856
I0403 15:03:46.191905 11499 layer_factory.hpp:77] Creating layer inception_3a/pool
I0403 15:03:46.191922 11499 net.cpp:91] Creating Layer inception_3a/pool
I0403 15:03:46.191956 11499 net.cpp:425] inception_3a/pool <- pool2/3x3_s2_pool2/3x3_s2_0_split_3
I0403 15:03:46.191978 11499 net.cpp:399] inception_3a/pool -> inception_3a/pool
I0403 15:03:46.192040 11499 net.cpp:141] Setting up inception_3a/pool
I0403 15:03:46.192065 11499 net.cpp:148] Top shape: 24 192 28 28 (3612672)
I0403 15:03:46.192081 11499 net.cpp:156] Memory required for data: 556352544
I0403 15:03:46.192096 11499 layer_factory.hpp:77] Creating layer inception_3a/pool_proj
I0403 15:03:46.192122 11499 net.cpp:91] Creating Layer inception_3a/pool_proj
I0403 15:03:46.192147 11499 net.cpp:425] inception_3a/pool_proj <- inception_3a/pool
I0403 15:03:46.192167 11499 net.cpp:399] inception_3a/pool_proj -> inception_3a/pool_proj
I0403 15:03:46.193258 11499 net.cpp:141] Setting up inception_3a/pool_proj
I0403 15:03:46.193289 11499 net.cpp:148] Top shape: 24 32 28 28 (602112)
I0403 15:03:46.193305 11499 net.cpp:156] Memory required for data: 558760992
I0403 15:03:46.193331 11499 layer_factory.hpp:77] Creating layer inception_3a/relu_pool_proj
I0403 15:03:46.193353 11499 net.cpp:91] Creating Layer inception_3a/relu_pool_proj
I0403 15:03:46.193374 11499 net.cpp:425] inception_3a/relu_pool_proj <- inception_3a/pool_proj
I0403 15:03:46.193392 11499 net.cpp:386] inception_3a/relu_pool_proj -> inception_3a/pool_proj (in-place)
I0403 15:03:46.193681 11499 net.cpp:141] Setting up inception_3a/relu_pool_proj
I0403 15:03:46.193712 11499 net.cpp:148] Top shape: 24 32 28 28 (602112)
I0403 15:03:46.193729 11499 net.cpp:156] Memory required for data: 561169440
I0403 15:03:46.193745 11499 layer_factory.hpp:77] Creating layer inception_3a/output
I0403 15:03:46.193764 11499 net.cpp:91] Creating Layer inception_3a/output
I0403 15:03:46.193781 11499 net.cpp:425] inception_3a/output <- inception_3a/1x1
I0403 15:03:46.193797 11499 net.cpp:425] inception_3a/output <- inception_3a/3x3
I0403 15:03:46.193814 11499 net.cpp:425] inception_3a/output <- inception_3a/5x5
I0403 15:03:46.193830 11499 net.cpp:425] inception_3a/output <- inception_3a/pool_proj
I0403 15:03:46.193851 11499 net.cpp:399] inception_3a/output -> inception_3a/output
I0403 15:03:46.193902 11499 net.cpp:141] Setting up inception_3a/output
I0403 15:03:46.193927 11499 net.cpp:148] Top shape: 24 256 28 28 (4816896)
I0403 15:03:46.193941 11499 net.cpp:156] Memory required for data: 580437024
I0403 15:03:46.193959 11499 layer_factory.hpp:77] Creating layer inception_3a/output_inception_3a/output_0_split
I0403 15:03:46.193979 11499 net.cpp:91] Creating Layer inception_3a/output_inception_3a/output_0_split
I0403 15:03:46.193996 11499 net.cpp:425] inception_3a/output_inception_3a/output_0_split <- inception_3a/output
I0403 15:03:46.194016 11499 net.cpp:399] inception_3a/output_inception_3a/output_0_split -> inception_3a/output_inception_3a/output_0_split_0
I0403 15:03:46.194036 11499 net.cpp:399] inception_3a/output_inception_3a/output_0_split -> inception_3a/output_inception_3a/output_0_split_1
I0403 15:03:46.194063 11499 net.cpp:399] inception_3a/output_inception_3a/output_0_split -> inception_3a/output_inception_3a/output_0_split_2
I0403 15:03:46.194085 11499 net.cpp:399] inception_3a/output_inception_3a/output_0_split -> inception_3a/output_inception_3a/output_0_split_3
I0403 15:03:46.194166 11499 net.cpp:141] Setting up inception_3a/output_inception_3a/output_0_split
I0403 15:03:46.194195 11499 net.cpp:148] Top shape: 24 256 28 28 (4816896)
I0403 15:03:46.194213 11499 net.cpp:148] Top shape: 24 256 28 28 (4816896)
I0403 15:03:46.194231 11499 net.cpp:148] Top shape: 24 256 28 28 (4816896)
I0403 15:03:46.194247 11499 net.cpp:148] Top shape: 24 256 28 28 (4816896)
I0403 15:03:46.194260 11499 net.cpp:156] Memory required for data: 657507360
I0403 15:03:46.194275 11499 layer_factory.hpp:77] Creating layer inception_3b/1x1
I0403 15:03:46.194298 11499 net.cpp:91] Creating Layer inception_3b/1x1
I0403 15:03:46.194317 11499 net.cpp:425] inception_3b/1x1 <- inception_3a/output_inception_3a/output_0_split_0
I0403 15:03:46.194337 11499 net.cpp:399] inception_3b/1x1 -> inception_3b/1x1
I0403 15:03:46.195531 11499 net.cpp:141] Setting up inception_3b/1x1
I0403 15:03:46.195576 11499 net.cpp:148] Top shape: 24 128 28 28 (2408448)
I0403 15:03:46.195595 11499 net.cpp:156] Memory required for data: 667141152
I0403 15:03:46.195616 11499 layer_factory.hpp:77] Creating layer inception_3b/relu_1x1
I0403 15:03:46.195633 11499 net.cpp:91] Creating Layer inception_3b/relu_1x1
I0403 15:03:46.195649 11499 net.cpp:425] inception_3b/relu_1x1 <- inception_3b/1x1
I0403 15:03:46.195667 11499 net.cpp:386] inception_3b/relu_1x1 -> inception_3b/1x1 (in-place)
I0403 15:03:46.195852 11499 net.cpp:141] Setting up inception_3b/relu_1x1
I0403 15:03:46.195881 11499 net.cpp:148] Top shape: 24 128 28 28 (2408448)
I0403 15:03:46.195899 11499 net.cpp:156] Memory required for data: 676774944
I0403 15:03:46.195914 11499 layer_factory.hpp:77] Creating layer inception_3b/3x3_reduce
I0403 15:03:46.195936 11499 net.cpp:91] Creating Layer inception_3b/3x3_reduce
I0403 15:03:46.195955 11499 net.cpp:425] inception_3b/3x3_reduce <- inception_3a/output_inception_3a/output_0_split_1
I0403 15:03:46.195976 11499 net.cpp:399] inception_3b/3x3_reduce -> inception_3b/3x3_reduce
I0403 15:03:46.197171 11499 net.cpp:141] Setting up inception_3b/3x3_reduce
I0403 15:03:46.197201 11499 net.cpp:148] Top shape: 24 128 28 28 (2408448)
I0403 15:03:46.197217 11499 net.cpp:156] Memory required for data: 686408736
I0403 15:03:46.197237 11499 layer_factory.hpp:77] Creating layer inception_3b/relu_3x3_reduce
I0403 15:03:46.197259 11499 net.cpp:91] Creating Layer inception_3b/relu_3x3_reduce
I0403 15:03:46.197278 11499 net.cpp:425] inception_3b/relu_3x3_reduce <- inception_3b/3x3_reduce
I0403 15:03:46.197295 11499 net.cpp:386] inception_3b/relu_3x3_reduce -> inception_3b/3x3_reduce (in-place)
I0403 15:03:46.197479 11499 net.cpp:141] Setting up inception_3b/relu_3x3_reduce
I0403 15:03:46.197505 11499 net.cpp:148] Top shape: 24 128 28 28 (2408448)
I0403 15:03:46.197521 11499 net.cpp:156] Memory required for data: 696042528
I0403 15:03:46.197537 11499 layer_factory.hpp:77] Creating layer inception_3b/3x3
I0403 15:03:46.197563 11499 net.cpp:91] Creating Layer inception_3b/3x3
I0403 15:03:46.197583 11499 net.cpp:425] inception_3b/3x3 <- inception_3b/3x3_reduce
I0403 15:03:46.197605 11499 net.cpp:399] inception_3b/3x3 -> inception_3b/3x3
I0403 15:03:46.200656 11499 net.cpp:141] Setting up inception_3b/3x3
I0403 15:03:46.200690 11499 net.cpp:148] Top shape: 24 192 28 28 (3612672)
I0403 15:03:46.200707 11499 net.cpp:156] Memory required for data: 710493216
I0403 15:03:46.200727 11499 layer_factory.hpp:77] Creating layer inception_3b/relu_3x3
I0403 15:03:46.200747 11499 net.cpp:91] Creating Layer inception_3b/relu_3x3
I0403 15:03:46.200765 11499 net.cpp:425] inception_3b/relu_3x3 <- inception_3b/3x3
I0403 15:03:46.200786 11499 net.cpp:386] inception_3b/relu_3x3 -> inception_3b/3x3 (in-place)
I0403 15:03:46.201071 11499 net.cpp:141] Setting up inception_3b/relu_3x3
I0403 15:03:46.201102 11499 net.cpp:148] Top shape: 24 192 28 28 (3612672)
I0403 15:03:46.201119 11499 net.cpp:156] Memory required for data: 724943904
I0403 15:03:46.201140 11499 layer_factory.hpp:77] Creating layer inception_3b/5x5_reduce
I0403 15:03:46.201169 11499 net.cpp:91] Creating Layer inception_3b/5x5_reduce
I0403 15:03:46.201189 11499 net.cpp:425] inception_3b/5x5_reduce <- inception_3a/output_inception_3a/output_0_split_2
I0403 15:03:46.201210 11499 net.cpp:399] inception_3b/5x5_reduce -> inception_3b/5x5_reduce
I0403 15:03:46.202252 11499 net.cpp:141] Setting up inception_3b/5x5_reduce
I0403 15:03:46.202286 11499 net.cpp:148] Top shape: 24 32 28 28 (602112)
I0403 15:03:46.202303 11499 net.cpp:156] Memory required for data: 727352352
I0403 15:03:46.202323 11499 layer_factory.hpp:77] Creating layer inception_3b/relu_5x5_reduce
I0403 15:03:46.202344 11499 net.cpp:91] Creating Layer inception_3b/relu_5x5_reduce
I0403 15:03:46.202363 11499 net.cpp:425] inception_3b/relu_5x5_reduce <- inception_3b/5x5_reduce
I0403 15:03:46.202383 11499 net.cpp:386] inception_3b/relu_5x5_reduce -> inception_3b/5x5_reduce (in-place)
I0403 15:03:46.202586 11499 net.cpp:141] Setting up inception_3b/relu_5x5_reduce
I0403 15:03:46.202615 11499 net.cpp:148] Top shape: 24 32 28 28 (602112)
I0403 15:03:46.202630 11499 net.cpp:156] Memory required for data: 729760800
I0403 15:03:46.202646 11499 layer_factory.hpp:77] Creating layer inception_3b/5x5
I0403 15:03:46.202668 11499 net.cpp:91] Creating Layer inception_3b/5x5
I0403 15:03:46.202687 11499 net.cpp:425] inception_3b/5x5 <- inception_3b/5x5_reduce
I0403 15:03:46.202708 11499 net.cpp:399] inception_3b/5x5 -> inception_3b/5x5
I0403 15:03:46.204793 11499 net.cpp:141] Setting up inception_3b/5x5
I0403 15:03:46.204824 11499 net.cpp:148] Top shape: 24 96 28 28 (1806336)
I0403 15:03:46.204841 11499 net.cpp:156] Memory required for data: 736986144
I0403 15:03:46.204860 11499 layer_factory.hpp:77] Creating layer inception_3b/relu_5x5
I0403 15:03:46.204882 11499 net.cpp:91] Creating Layer inception_3b/relu_5x5
I0403 15:03:46.204900 11499 net.cpp:425] inception_3b/relu_5x5 <- inception_3b/5x5
I0403 15:03:46.204919 11499 net.cpp:386] inception_3b/relu_5x5 -> inception_3b/5x5 (in-place)
I0403 15:03:46.205128 11499 net.cpp:141] Setting up inception_3b/relu_5x5
I0403 15:03:46.205157 11499 net.cpp:148] Top shape: 24 96 28 28 (1806336)
I0403 15:03:46.205173 11499 net.cpp:156] Memory required for data: 744211488
I0403 15:03:46.205188 11499 layer_factory.hpp:77] Creating layer inception_3b/pool
I0403 15:03:46.205205 11499 net.cpp:91] Creating Layer inception_3b/pool
I0403 15:03:46.205222 11499 net.cpp:425] inception_3b/pool <- inception_3a/output_inception_3a/output_0_split_3
I0403 15:03:46.205241 11499 net.cpp:399] inception_3b/pool -> inception_3b/pool
I0403 15:03:46.205299 11499 net.cpp:141] Setting up inception_3b/pool
I0403 15:03:46.205324 11499 net.cpp:148] Top shape: 24 256 28 28 (4816896)
I0403 15:03:46.205340 11499 net.cpp:156] Memory required for data: 763479072
I0403 15:03:46.205356 11499 layer_factory.hpp:77] Creating layer inception_3b/pool_proj
I0403 15:03:46.205381 11499 net.cpp:91] Creating Layer inception_3b/pool_proj
I0403 15:03:46.205399 11499 net.cpp:425] inception_3b/pool_proj <- inception_3b/pool
I0403 15:03:46.205420 11499 net.cpp:399] inception_3b/pool_proj -> inception_3b/pool_proj
I0403 15:03:46.206539 11499 net.cpp:141] Setting up inception_3b/pool_proj
I0403 15:03:46.206569 11499 net.cpp:148] Top shape: 24 64 28 28 (1204224)
I0403 15:03:46.206588 11499 net.cpp:156] Memory required for data: 768295968
I0403 15:03:46.206606 11499 layer_factory.hpp:77] Creating layer inception_3b/relu_pool_proj
I0403 15:03:46.206629 11499 net.cpp:91] Creating Layer inception_3b/relu_pool_proj
I0403 15:03:46.206647 11499 net.cpp:425] inception_3b/relu_pool_proj <- inception_3b/pool_proj
I0403 15:03:46.206665 11499 net.cpp:386] inception_3b/relu_pool_proj -> inception_3b/pool_proj (in-place)
I0403 15:03:46.207077 11499 net.cpp:141] Setting up inception_3b/relu_pool_proj
I0403 15:03:46.207106 11499 net.cpp:148] Top shape: 24 64 28 28 (1204224)
I0403 15:03:46.207123 11499 net.cpp:156] Memory required for data: 773112864
I0403 15:03:46.207144 11499 layer_factory.hpp:77] Creating layer inception_3b/output
I0403 15:03:46.207162 11499 net.cpp:91] Creating Layer inception_3b/output
I0403 15:03:46.207180 11499 net.cpp:425] inception_3b/output <- inception_3b/1x1
I0403 15:03:46.207196 11499 net.cpp:425] inception_3b/output <- inception_3b/3x3
I0403 15:03:46.207214 11499 net.cpp:425] inception_3b/output <- inception_3b/5x5
I0403 15:03:46.207231 11499 net.cpp:425] inception_3b/output <- inception_3b/pool_proj
I0403 15:03:46.207250 11499 net.cpp:399] inception_3b/output -> inception_3b/output
I0403 15:03:46.207296 11499 net.cpp:141] Setting up inception_3b/output
I0403 15:03:46.207324 11499 net.cpp:148] Top shape: 24 480 28 28 (9031680)
I0403 15:03:46.207340 11499 net.cpp:156] Memory required for data: 809239584
I0403 15:03:46.207357 11499 layer_factory.hpp:77] Creating layer pool3/3x3_s2
I0403 15:03:46.207376 11499 net.cpp:91] Creating Layer pool3/3x3_s2
I0403 15:03:46.207392 11499 net.cpp:425] pool3/3x3_s2 <- inception_3b/output
I0403 15:03:46.207429 11499 net.cpp:399] pool3/3x3_s2 -> pool3/3x3_s2
I0403 15:03:46.207492 11499 net.cpp:141] Setting up pool3/3x3_s2
I0403 15:03:46.207517 11499 net.cpp:148] Top shape: 24 480 14 14 (2257920)
I0403 15:03:46.207533 11499 net.cpp:156] Memory required for data: 818271264
I0403 15:03:46.207548 11499 layer_factory.hpp:77] Creating layer pool3/3x3_s2_pool3/3x3_s2_0_split
I0403 15:03:46.207571 11499 net.cpp:91] Creating Layer pool3/3x3_s2_pool3/3x3_s2_0_split
I0403 15:03:46.207588 11499 net.cpp:425] pool3/3x3_s2_pool3/3x3_s2_0_split <- pool3/3x3_s2
I0403 15:03:46.207607 11499 net.cpp:399] pool3/3x3_s2_pool3/3x3_s2_0_split -> pool3/3x3_s2_pool3/3x3_s2_0_split_0
I0403 15:03:46.207629 11499 net.cpp:399] pool3/3x3_s2_pool3/3x3_s2_0_split -> pool3/3x3_s2_pool3/3x3_s2_0_split_1
I0403 15:03:46.207651 11499 net.cpp:399] pool3/3x3_s2_pool3/3x3_s2_0_split -> pool3/3x3_s2_pool3/3x3_s2_0_split_2
I0403 15:03:46.207675 11499 net.cpp:399] pool3/3x3_s2_pool3/3x3_s2_0_split -> pool3/3x3_s2_pool3/3x3_s2_0_split_3
I0403 15:03:46.207757 11499 net.cpp:141] Setting up pool3/3x3_s2_pool3/3x3_s2_0_split
I0403 15:03:46.207783 11499 net.cpp:148] Top shape: 24 480 14 14 (2257920)
I0403 15:03:46.207800 11499 net.cpp:148] Top shape: 24 480 14 14 (2257920)
I0403 15:03:46.207816 11499 net.cpp:148] Top shape: 24 480 14 14 (2257920)
I0403 15:03:46.207831 11499 net.cpp:148] Top shape: 24 480 14 14 (2257920)
I0403 15:03:46.207846 11499 net.cpp:156] Memory required for data: 854397984
I0403 15:03:46.207861 11499 layer_factory.hpp:77] Creating layer inception_4a/1x1
I0403 15:03:46.207885 11499 net.cpp:91] Creating Layer inception_4a/1x1
I0403 15:03:46.207903 11499 net.cpp:425] inception_4a/1x1 <- pool3/3x3_s2_pool3/3x3_s2_0_split_0
I0403 15:03:46.207926 11499 net.cpp:399] inception_4a/1x1 -> inception_4a/1x1
I0403 15:03:46.209589 11499 net.cpp:141] Setting up inception_4a/1x1
I0403 15:03:46.209619 11499 net.cpp:148] Top shape: 24 192 14 14 (903168)
I0403 15:03:46.209635 11499 net.cpp:156] Memory required for data: 858010656
I0403 15:03:46.209655 11499 layer_factory.hpp:77] Creating layer inception_4a/relu_1x1
I0403 15:03:46.209676 11499 net.cpp:91] Creating Layer inception_4a/relu_1x1
I0403 15:03:46.209697 11499 net.cpp:425] inception_4a/relu_1x1 <- inception_4a/1x1
I0403 15:03:46.209714 11499 net.cpp:386] inception_4a/relu_1x1 -> inception_4a/1x1 (in-place)
I0403 15:03:46.209898 11499 net.cpp:141] Setting up inception_4a/relu_1x1
I0403 15:03:46.209928 11499 net.cpp:148] Top shape: 24 192 14 14 (903168)
I0403 15:03:46.209946 11499 net.cpp:156] Memory required for data: 861623328
I0403 15:03:46.209964 11499 layer_factory.hpp:77] Creating layer inception_4a/3x3_reduce
I0403 15:03:46.209987 11499 net.cpp:91] Creating Layer inception_4a/3x3_reduce
I0403 15:03:46.210005 11499 net.cpp:425] inception_4a/3x3_reduce <- pool3/3x3_s2_pool3/3x3_s2_0_split_1
I0403 15:03:46.210026 11499 net.cpp:399] inception_4a/3x3_reduce -> inception_4a/3x3_reduce
I0403 15:03:46.211361 11499 net.cpp:141] Setting up inception_4a/3x3_reduce
I0403 15:03:46.211401 11499 net.cpp:148] Top shape: 24 96 14 14 (451584)
I0403 15:03:46.211417 11499 net.cpp:156] Memory required for data: 863429664
I0403 15:03:46.211444 11499 layer_factory.hpp:77] Creating layer inception_4a/relu_3x3_reduce
I0403 15:03:46.211465 11499 net.cpp:91] Creating Layer inception_4a/relu_3x3_reduce
I0403 15:03:46.211483 11499 net.cpp:425] inception_4a/relu_3x3_reduce <- inception_4a/3x3_reduce
I0403 15:03:46.211503 11499 net.cpp:386] inception_4a/relu_3x3_reduce -> inception_4a/3x3_reduce (in-place)
I0403 15:03:46.211695 11499 net.cpp:141] Setting up inception_4a/relu_3x3_reduce
I0403 15:03:46.211721 11499 net.cpp:148] Top shape: 24 96 14 14 (451584)
I0403 15:03:46.211738 11499 net.cpp:156] Memory required for data: 865236000
I0403 15:03:46.211753 11499 layer_factory.hpp:77] Creating layer inception_4a/3x3
I0403 15:03:46.211772 11499 net.cpp:91] Creating Layer inception_4a/3x3
I0403 15:03:46.211789 11499 net.cpp:425] inception_4a/3x3 <- inception_4a/3x3_reduce
I0403 15:03:46.211810 11499 net.cpp:399] inception_4a/3x3 -> inception_4a/3x3
I0403 15:03:46.214488 11499 net.cpp:141] Setting up inception_4a/3x3
I0403 15:03:46.214519 11499 net.cpp:148] Top shape: 24 208 14 14 (978432)
I0403 15:03:46.214535 11499 net.cpp:156] Memory required for data: 869149728
I0403 15:03:46.214555 11499 layer_factory.hpp:77] Creating layer inception_4a/relu_3x3
I0403 15:03:46.214576 11499 net.cpp:91] Creating Layer inception_4a/relu_3x3
I0403 15:03:46.214594 11499 net.cpp:425] inception_4a/relu_3x3 <- inception_4a/3x3
I0403 15:03:46.214613 11499 net.cpp:386] inception_4a/relu_3x3 -> inception_4a/3x3 (in-place)
I0403 15:03:46.214905 11499 net.cpp:141] Setting up inception_4a/relu_3x3
I0403 15:03:46.214932 11499 net.cpp:148] Top shape: 24 208 14 14 (978432)
I0403 15:03:46.214947 11499 net.cpp:156] Memory required for data: 873063456
I0403 15:03:46.214962 11499 layer_factory.hpp:77] Creating layer inception_4a/5x5_reduce
I0403 15:03:46.214985 11499 net.cpp:91] Creating Layer inception_4a/5x5_reduce
I0403 15:03:46.215005 11499 net.cpp:425] inception_4a/5x5_reduce <- pool3/3x3_s2_pool3/3x3_s2_0_split_2
I0403 15:03:46.215024 11499 net.cpp:399] inception_4a/5x5_reduce -> inception_4a/5x5_reduce
I0403 15:03:46.216068 11499 net.cpp:141] Setting up inception_4a/5x5_reduce
I0403 15:03:46.216099 11499 net.cpp:148] Top shape: 24 16 14 14 (75264)
I0403 15:03:46.216114 11499 net.cpp:156] Memory required for data: 873364512
I0403 15:03:46.216137 11499 layer_factory.hpp:77] Creating layer inception_4a/relu_5x5_reduce
I0403 15:03:46.216157 11499 net.cpp:91] Creating Layer inception_4a/relu_5x5_reduce
I0403 15:03:46.216173 11499 net.cpp:425] inception_4a/relu_5x5_reduce <- inception_4a/5x5_reduce
I0403 15:03:46.216192 11499 net.cpp:386] inception_4a/relu_5x5_reduce -> inception_4a/5x5_reduce (in-place)
I0403 15:03:46.216374 11499 net.cpp:141] Setting up inception_4a/relu_5x5_reduce
I0403 15:03:46.216400 11499 net.cpp:148] Top shape: 24 16 14 14 (75264)
I0403 15:03:46.216415 11499 net.cpp:156] Memory required for data: 873665568
I0403 15:03:46.216430 11499 layer_factory.hpp:77] Creating layer inception_4a/5x5
I0403 15:03:46.216454 11499 net.cpp:91] Creating Layer inception_4a/5x5
I0403 15:03:46.216472 11499 net.cpp:425] inception_4a/5x5 <- inception_4a/5x5_reduce
I0403 15:03:46.216493 11499 net.cpp:399] inception_4a/5x5 -> inception_4a/5x5
I0403 15:03:46.217581 11499 net.cpp:141] Setting up inception_4a/5x5
I0403 15:03:46.217609 11499 net.cpp:148] Top shape: 24 48 14 14 (225792)
I0403 15:03:46.217625 11499 net.cpp:156] Memory required for data: 874568736
I0403 15:03:46.217643 11499 layer_factory.hpp:77] Creating layer inception_4a/relu_5x5
I0403 15:03:46.217664 11499 net.cpp:91] Creating Layer inception_4a/relu_5x5
I0403 15:03:46.217680 11499 net.cpp:425] inception_4a/relu_5x5 <- inception_4a/5x5
I0403 15:03:46.217697 11499 net.cpp:386] inception_4a/relu_5x5 -> inception_4a/5x5 (in-place)
I0403 15:03:46.217872 11499 net.cpp:141] Setting up inception_4a/relu_5x5
I0403 15:03:46.217898 11499 net.cpp:148] Top shape: 24 48 14 14 (225792)
I0403 15:03:46.217914 11499 net.cpp:156] Memory required for data: 875471904
I0403 15:03:46.217928 11499 layer_factory.hpp:77] Creating layer inception_4a/pool
I0403 15:03:46.217948 11499 net.cpp:91] Creating Layer inception_4a/pool
I0403 15:03:46.217967 11499 net.cpp:425] inception_4a/pool <- pool3/3x3_s2_pool3/3x3_s2_0_split_3
I0403 15:03:46.217985 11499 net.cpp:399] inception_4a/pool -> inception_4a/pool
I0403 15:03:46.218047 11499 net.cpp:141] Setting up inception_4a/pool
I0403 15:03:46.218072 11499 net.cpp:148] Top shape: 24 480 14 14 (2257920)
I0403 15:03:46.218086 11499 net.cpp:156] Memory required for data: 884503584
I0403 15:03:46.218101 11499 layer_factory.hpp:77] Creating layer inception_4a/pool_proj
I0403 15:03:46.218123 11499 net.cpp:91] Creating Layer inception_4a/pool_proj
I0403 15:03:46.218147 11499 net.cpp:425] inception_4a/pool_proj <- inception_4a/pool
I0403 15:03:46.218168 11499 net.cpp:399] inception_4a/pool_proj -> inception_4a/pool_proj
I0403 15:03:46.219336 11499 net.cpp:141] Setting up inception_4a/pool_proj
I0403 15:03:46.219365 11499 net.cpp:148] Top shape: 24 64 14 14 (301056)
I0403 15:03:46.219409 11499 net.cpp:156] Memory required for data: 885707808
I0403 15:03:46.219429 11499 layer_factory.hpp:77] Creating layer inception_4a/relu_pool_proj
I0403 15:03:46.219450 11499 net.cpp:91] Creating Layer inception_4a/relu_pool_proj
I0403 15:03:46.219470 11499 net.cpp:425] inception_4a/relu_pool_proj <- inception_4a/pool_proj
I0403 15:03:46.219487 11499 net.cpp:386] inception_4a/relu_pool_proj -> inception_4a/pool_proj (in-place)
I0403 15:03:46.219790 11499 net.cpp:141] Setting up inception_4a/relu_pool_proj
I0403 15:03:46.219817 11499 net.cpp:148] Top shape: 24 64 14 14 (301056)
I0403 15:03:46.219832 11499 net.cpp:156] Memory required for data: 886912032
I0403 15:03:46.219847 11499 layer_factory.hpp:77] Creating layer inception_4a/output
I0403 15:03:46.219867 11499 net.cpp:91] Creating Layer inception_4a/output
I0403 15:03:46.219883 11499 net.cpp:425] inception_4a/output <- inception_4a/1x1
I0403 15:03:46.219899 11499 net.cpp:425] inception_4a/output <- inception_4a/3x3
I0403 15:03:46.219915 11499 net.cpp:425] inception_4a/output <- inception_4a/5x5
I0403 15:03:46.219931 11499 net.cpp:425] inception_4a/output <- inception_4a/pool_proj
I0403 15:03:46.219949 11499 net.cpp:399] inception_4a/output -> inception_4a/output
I0403 15:03:46.219992 11499 net.cpp:141] Setting up inception_4a/output
I0403 15:03:46.220018 11499 net.cpp:148] Top shape: 24 512 14 14 (2408448)
I0403 15:03:46.220034 11499 net.cpp:156] Memory required for data: 896545824
I0403 15:03:46.220049 11499 layer_factory.hpp:77] Creating layer inception_4a/output_inception_4a/output_0_split
I0403 15:03:46.220067 11499 net.cpp:91] Creating Layer inception_4a/output_inception_4a/output_0_split
I0403 15:03:46.220080 11499 net.cpp:425] inception_4a/output_inception_4a/output_0_split <- inception_4a/output
I0403 15:03:46.220099 11499 net.cpp:399] inception_4a/output_inception_4a/output_0_split -> inception_4a/output_inception_4a/output_0_split_0
I0403 15:03:46.220121 11499 net.cpp:399] inception_4a/output_inception_4a/output_0_split -> inception_4a/output_inception_4a/output_0_split_1
I0403 15:03:46.220149 11499 net.cpp:399] inception_4a/output_inception_4a/output_0_split -> inception_4a/output_inception_4a/output_0_split_2
I0403 15:03:46.220170 11499 net.cpp:399] inception_4a/output_inception_4a/output_0_split -> inception_4a/output_inception_4a/output_0_split_3
I0403 15:03:46.220190 11499 net.cpp:399] inception_4a/output_inception_4a/output_0_split -> inception_4a/output_inception_4a/output_0_split_4
I0403 15:03:46.220280 11499 net.cpp:141] Setting up inception_4a/output_inception_4a/output_0_split
I0403 15:03:46.220304 11499 net.cpp:148] Top shape: 24 512 14 14 (2408448)
I0403 15:03:46.220324 11499 net.cpp:148] Top shape: 24 512 14 14 (2408448)
I0403 15:03:46.220340 11499 net.cpp:148] Top shape: 24 512 14 14 (2408448)
I0403 15:03:46.220357 11499 net.cpp:148] Top shape: 24 512 14 14 (2408448)
I0403 15:03:46.220374 11499 net.cpp:148] Top shape: 24 512 14 14 (2408448)
I0403 15:03:46.220391 11499 net.cpp:156] Memory required for data: 944714784
I0403 15:03:46.220405 11499 layer_factory.hpp:77] Creating layer loss1/ave_pool
I0403 15:03:46.220423 11499 net.cpp:91] Creating Layer loss1/ave_pool
I0403 15:03:46.220439 11499 net.cpp:425] loss1/ave_pool <- inception_4a/output_inception_4a/output_0_split_0
I0403 15:03:46.220459 11499 net.cpp:399] loss1/ave_pool -> loss1/ave_pool
I0403 15:03:46.220666 11499 net.cpp:141] Setting up loss1/ave_pool
I0403 15:03:46.220691 11499 net.cpp:148] Top shape: 24 512 4 4 (196608)
I0403 15:03:46.220707 11499 net.cpp:156] Memory required for data: 945501216
I0403 15:03:46.220722 11499 layer_factory.hpp:77] Creating layer loss1/conv
I0403 15:03:46.220744 11499 net.cpp:91] Creating Layer loss1/conv
I0403 15:03:46.220762 11499 net.cpp:425] loss1/conv <- loss1/ave_pool
I0403 15:03:46.220782 11499 net.cpp:399] loss1/conv -> loss1/conv
I0403 15:03:46.222216 11499 net.cpp:141] Setting up loss1/conv
I0403 15:03:46.222249 11499 net.cpp:148] Top shape: 24 128 4 4 (49152)
I0403 15:03:46.222280 11499 net.cpp:156] Memory required for data: 945697824
I0403 15:03:46.222301 11499 layer_factory.hpp:77] Creating layer loss1/relu_conv
I0403 15:03:46.222319 11499 net.cpp:91] Creating Layer loss1/relu_conv
I0403 15:03:46.222337 11499 net.cpp:425] loss1/relu_conv <- loss1/conv
I0403 15:03:46.222357 11499 net.cpp:386] loss1/relu_conv -> loss1/conv (in-place)
I0403 15:03:46.222645 11499 net.cpp:141] Setting up loss1/relu_conv
I0403 15:03:46.222676 11499 net.cpp:148] Top shape: 24 128 4 4 (49152)
I0403 15:03:46.222692 11499 net.cpp:156] Memory required for data: 945894432
I0403 15:03:46.222707 11499 layer_factory.hpp:77] Creating layer loss1/fc
I0403 15:03:46.222733 11499 net.cpp:91] Creating Layer loss1/fc
I0403 15:03:46.222751 11499 net.cpp:425] loss1/fc <- loss1/conv
I0403 15:03:46.222772 11499 net.cpp:399] loss1/fc -> loss1/fc
I0403 15:03:46.241389 11499 net.cpp:141] Setting up loss1/fc
I0403 15:03:46.241443 11499 net.cpp:148] Top shape: 24 1024 (24576)
I0403 15:03:46.241461 11499 net.cpp:156] Memory required for data: 945992736
I0403 15:03:46.241482 11499 layer_factory.hpp:77] Creating layer loss1/relu_fc
I0403 15:03:46.241503 11499 net.cpp:91] Creating Layer loss1/relu_fc
I0403 15:03:46.241523 11499 net.cpp:425] loss1/relu_fc <- loss1/fc
I0403 15:03:46.241542 11499 net.cpp:386] loss1/relu_fc -> loss1/fc (in-place)
I0403 15:03:46.241766 11499 net.cpp:141] Setting up loss1/relu_fc
I0403 15:03:46.241796 11499 net.cpp:148] Top shape: 24 1024 (24576)
I0403 15:03:46.241811 11499 net.cpp:156] Memory required for data: 946091040
I0403 15:03:46.241827 11499 layer_factory.hpp:77] Creating layer loss1/drop_fc
I0403 15:03:46.241868 11499 net.cpp:91] Creating Layer loss1/drop_fc
I0403 15:03:46.241891 11499 net.cpp:425] loss1/drop_fc <- loss1/fc
I0403 15:03:46.241909 11499 net.cpp:386] loss1/drop_fc -> loss1/fc (in-place)
I0403 15:03:46.241963 11499 net.cpp:141] Setting up loss1/drop_fc
I0403 15:03:46.241987 11499 net.cpp:148] Top shape: 24 1024 (24576)
I0403 15:03:46.242002 11499 net.cpp:156] Memory required for data: 946189344
I0403 15:03:46.242017 11499 layer_factory.hpp:77] Creating layer loss1/classifier_plantvillage
I0403 15:03:46.242034 11499 net.cpp:91] Creating Layer loss1/classifier_plantvillage
I0403 15:03:46.242050 11499 net.cpp:425] loss1/classifier_plantvillage <- loss1/fc
I0403 15:03:46.242072 11499 net.cpp:399] loss1/classifier_plantvillage -> loss1/classifier_plantvillage
I0403 15:03:46.243000 11499 net.cpp:141] Setting up loss1/classifier_plantvillage
I0403 15:03:46.243028 11499 net.cpp:148] Top shape: 24 38 (912)
I0403 15:03:46.243044 11499 net.cpp:156] Memory required for data: 946192992
I0403 15:03:46.243062 11499 layer_factory.hpp:77] Creating layer loss1/classifier_plantvillage_loss1/classifier_plantvillage_0_split
I0403 15:03:46.243083 11499 net.cpp:91] Creating Layer loss1/classifier_plantvillage_loss1/classifier_plantvillage_0_split
I0403 15:03:46.243099 11499 net.cpp:425] loss1/classifier_plantvillage_loss1/classifier_plantvillage_0_split <- loss1/classifier_plantvillage
I0403 15:03:46.243119 11499 net.cpp:399] loss1/classifier_plantvillage_loss1/classifier_plantvillage_0_split -> loss1/classifier_plantvillage_loss1/classifier_plantvillage_0_split_0
I0403 15:03:46.243152 11499 net.cpp:399] loss1/classifier_plantvillage_loss1/classifier_plantvillage_0_split -> loss1/classifier_plantvillage_loss1/classifier_plantvillage_0_split_1
I0403 15:03:46.243177 11499 net.cpp:399] loss1/classifier_plantvillage_loss1/classifier_plantvillage_0_split -> loss1/classifier_plantvillage_loss1/classifier_plantvillage_0_split_2
I0403 15:03:46.243245 11499 net.cpp:141] Setting up loss1/classifier_plantvillage_loss1/classifier_plantvillage_0_split
I0403 15:03:46.243269 11499 net.cpp:148] Top shape: 24 38 (912)
I0403 15:03:46.243286 11499 net.cpp:148] Top shape: 24 38 (912)
I0403 15:03:46.243301 11499 net.cpp:148] Top shape: 24 38 (912)
I0403 15:03:46.243316 11499 net.cpp:156] Memory required for data: 946203936
I0403 15:03:46.243330 11499 layer_factory.hpp:77] Creating layer inception_4b/1x1
I0403 15:03:46.243353 11499 net.cpp:91] Creating Layer inception_4b/1x1
I0403 15:03:46.243407 11499 net.cpp:425] inception_4b/1x1 <- inception_4a/output_inception_4a/output_0_split_1
I0403 15:03:46.243427 11499 net.cpp:399] inception_4b/1x1 -> inception_4b/1x1
I0403 15:03:46.245117 11499 net.cpp:141] Setting up inception_4b/1x1
I0403 15:03:46.245153 11499 net.cpp:148] Top shape: 24 160 14 14 (752640)
I0403 15:03:46.245172 11499 net.cpp:156] Memory required for data: 949214496
I0403 15:03:46.245190 11499 layer_factory.hpp:77] Creating layer inception_4b/relu_1x1
I0403 15:03:46.245208 11499 net.cpp:91] Creating Layer inception_4b/relu_1x1
I0403 15:03:46.245224 11499 net.cpp:425] inception_4b/relu_1x1 <- inception_4b/1x1
I0403 15:03:46.245245 11499 net.cpp:386] inception_4b/relu_1x1 -> inception_4b/1x1 (in-place)
I0403 15:03:46.245424 11499 net.cpp:141] Setting up inception_4b/relu_1x1
I0403 15:03:46.245450 11499 net.cpp:148] Top shape: 24 160 14 14 (752640)
I0403 15:03:46.245463 11499 net.cpp:156] Memory required for data: 952225056
I0403 15:03:46.245478 11499 layer_factory.hpp:77] Creating layer inception_4b/3x3_reduce
I0403 15:03:46.245501 11499 net.cpp:91] Creating Layer inception_4b/3x3_reduce
I0403 15:03:46.245519 11499 net.cpp:425] inception_4b/3x3_reduce <- inception_4a/output_inception_4a/output_0_split_2
I0403 15:03:46.245542 11499 net.cpp:399] inception_4b/3x3_reduce -> inception_4b/3x3_reduce
I0403 15:03:46.246887 11499 net.cpp:141] Setting up inception_4b/3x3_reduce
I0403 15:03:46.246917 11499 net.cpp:148] Top shape: 24 112 14 14 (526848)
I0403 15:03:46.246932 11499 net.cpp:156] Memory required for data: 954332448
I0403 15:03:46.246950 11499 layer_factory.hpp:77] Creating layer inception_4b/relu_3x3_reduce
I0403 15:03:46.246968 11499 net.cpp:91] Creating Layer inception_4b/relu_3x3_reduce
I0403 15:03:46.246985 11499 net.cpp:425] inception_4b/relu_3x3_reduce <- inception_4b/3x3_reduce
I0403 15:03:46.247004 11499 net.cpp:386] inception_4b/relu_3x3_reduce -> inception_4b/3x3_reduce (in-place)
I0403 15:03:46.247288 11499 net.cpp:141] Setting up inception_4b/relu_3x3_reduce
I0403 15:03:46.247315 11499 net.cpp:148] Top shape: 24 112 14 14 (526848)
I0403 15:03:46.247330 11499 net.cpp:156] Memory required for data: 956439840
I0403 15:03:46.247345 11499 layer_factory.hpp:77] Creating layer inception_4b/3x3
I0403 15:03:46.247369 11499 net.cpp:91] Creating Layer inception_4b/3x3
I0403 15:03:46.247400 11499 net.cpp:425] inception_4b/3x3 <- inception_4b/3x3_reduce
I0403 15:03:46.247421 11499 net.cpp:399] inception_4b/3x3 -> inception_4b/3x3
I0403 15:03:46.250424 11499 net.cpp:141] Setting up inception_4b/3x3
I0403 15:03:46.250454 11499 net.cpp:148] Top shape: 24 224 14 14 (1053696)
I0403 15:03:46.250469 11499 net.cpp:156] Memory required for data: 960654624
I0403 15:03:46.250488 11499 layer_factory.hpp:77] Creating layer inception_4b/relu_3x3
I0403 15:03:46.250509 11499 net.cpp:91] Creating Layer inception_4b/relu_3x3
I0403 15:03:46.250524 11499 net.cpp:425] inception_4b/relu_3x3 <- inception_4b/3x3
I0403 15:03:46.250541 11499 net.cpp:386] inception_4b/relu_3x3 -> inception_4b/3x3 (in-place)
I0403 15:03:46.250720 11499 net.cpp:141] Setting up inception_4b/relu_3x3
I0403 15:03:46.250748 11499 net.cpp:148] Top shape: 24 224 14 14 (1053696)
I0403 15:03:46.250764 11499 net.cpp:156] Memory required for data: 964869408
I0403 15:03:46.250779 11499 layer_factory.hpp:77] Creating layer inception_4b/5x5_reduce
I0403 15:03:46.250802 11499 net.cpp:91] Creating Layer inception_4b/5x5_reduce
I0403 15:03:46.250821 11499 net.cpp:425] inception_4b/5x5_reduce <- inception_4a/output_inception_4a/output_0_split_3
I0403 15:03:46.250840 11499 net.cpp:399] inception_4b/5x5_reduce -> inception_4b/5x5_reduce
I0403 15:03:46.251965 11499 net.cpp:141] Setting up inception_4b/5x5_reduce
I0403 15:03:46.251994 11499 net.cpp:148] Top shape: 24 24 14 14 (112896)
I0403 15:03:46.252010 11499 net.cpp:156] Memory required for data: 965320992
I0403 15:03:46.252028 11499 layer_factory.hpp:77] Creating layer inception_4b/relu_5x5_reduce
I0403 15:03:46.252045 11499 net.cpp:91] Creating Layer inception_4b/relu_5x5_reduce
I0403 15:03:46.252076 11499 net.cpp:425] inception_4b/relu_5x5_reduce <- inception_4b/5x5_reduce
I0403 15:03:46.252097 11499 net.cpp:386] inception_4b/relu_5x5_reduce -> inception_4b/5x5_reduce (in-place)
I0403 15:03:46.252285 11499 net.cpp:141] Setting up inception_4b/relu_5x5_reduce
I0403 15:03:46.252312 11499 net.cpp:148] Top shape: 24 24 14 14 (112896)
I0403 15:03:46.252327 11499 net.cpp:156] Memory required for data: 965772576
I0403 15:03:46.252342 11499 layer_factory.hpp:77] Creating layer inception_4b/5x5
I0403 15:03:46.252365 11499 net.cpp:91] Creating Layer inception_4b/5x5
I0403 15:03:46.252383 11499 net.cpp:425] inception_4b/5x5 <- inception_4b/5x5_reduce
I0403 15:03:46.252404 11499 net.cpp:399] inception_4b/5x5 -> inception_4b/5x5
I0403 15:03:46.253633 11499 net.cpp:141] Setting up inception_4b/5x5
I0403 15:03:46.253664 11499 net.cpp:148] Top shape: 24 64 14 14 (301056)
I0403 15:03:46.253679 11499 net.cpp:156] Memory required for data: 966976800
I0403 15:03:46.253698 11499 layer_factory.hpp:77] Creating layer inception_4b/relu_5x5
I0403 15:03:46.253715 11499 net.cpp:91] Creating Layer inception_4b/relu_5x5
I0403 15:03:46.253731 11499 net.cpp:425] inception_4b/relu_5x5 <- inception_4b/5x5
I0403 15:03:46.253751 11499 net.cpp:386] inception_4b/relu_5x5 -> inception_4b/5x5 (in-place)
I0403 15:03:46.254030 11499 net.cpp:141] Setting up inception_4b/relu_5x5
I0403 15:03:46.254062 11499 net.cpp:148] Top shape: 24 64 14 14 (301056)
I0403 15:03:46.254079 11499 net.cpp:156] Memory required for data: 968181024
I0403 15:03:46.254094 11499 layer_factory.hpp:77] Creating layer inception_4b/pool
I0403 15:03:46.254112 11499 net.cpp:91] Creating Layer inception_4b/pool
I0403 15:03:46.254133 11499 net.cpp:425] inception_4b/pool <- inception_4a/output_inception_4a/output_0_split_4
I0403 15:03:46.254156 11499 net.cpp:399] inception_4b/pool -> inception_4b/pool
I0403 15:03:46.254221 11499 net.cpp:141] Setting up inception_4b/pool
I0403 15:03:46.254245 11499 net.cpp:148] Top shape: 24 512 14 14 (2408448)
I0403 15:03:46.254261 11499 net.cpp:156] Memory required for data: 977814816
I0403 15:03:46.254276 11499 layer_factory.hpp:77] Creating layer inception_4b/pool_proj
I0403 15:03:46.254298 11499 net.cpp:91] Creating Layer inception_4b/pool_proj
I0403 15:03:46.254315 11499 net.cpp:425] inception_4b/pool_proj <- inception_4b/pool
I0403 15:03:46.254336 11499 net.cpp:399] inception_4b/pool_proj -> inception_4b/pool_proj
I0403 15:03:46.255547 11499 net.cpp:141] Setting up inception_4b/pool_proj
I0403 15:03:46.255578 11499 net.cpp:148] Top shape: 24 64 14 14 (301056)
I0403 15:03:46.255594 11499 net.cpp:156] Memory required for data: 979019040
I0403 15:03:46.255612 11499 layer_factory.hpp:77] Creating layer inception_4b/relu_pool_proj
I0403 15:03:46.255630 11499 net.cpp:91] Creating Layer inception_4b/relu_pool_proj
I0403 15:03:46.255647 11499 net.cpp:425] inception_4b/relu_pool_proj <- inception_4b/pool_proj
I0403 15:03:46.255667 11499 net.cpp:386] inception_4b/relu_pool_proj -> inception_4b/pool_proj (in-place)
I0403 15:03:46.255859 11499 net.cpp:141] Setting up inception_4b/relu_pool_proj
I0403 15:03:46.255885 11499 net.cpp:148] Top shape: 24 64 14 14 (301056)
I0403 15:03:46.255900 11499 net.cpp:156] Memory required for data: 980223264
I0403 15:03:46.255915 11499 layer_factory.hpp:77] Creating layer inception_4b/output
I0403 15:03:46.255934 11499 net.cpp:91] Creating Layer inception_4b/output
I0403 15:03:46.255949 11499 net.cpp:425] inception_4b/output <- inception_4b/1x1
I0403 15:03:46.255964 11499 net.cpp:425] inception_4b/output <- inception_4b/3x3
I0403 15:03:46.255980 11499 net.cpp:425] inception_4b/output <- inception_4b/5x5
I0403 15:03:46.255995 11499 net.cpp:425] inception_4b/output <- inception_4b/pool_proj
I0403 15:03:46.256014 11499 net.cpp:399] inception_4b/output -> inception_4b/output
I0403 15:03:46.256063 11499 net.cpp:141] Setting up inception_4b/output
I0403 15:03:46.256088 11499 net.cpp:148] Top shape: 24 512 14 14 (2408448)
I0403 15:03:46.256103 11499 net.cpp:156] Memory required for data: 989857056
I0403 15:03:46.256135 11499 layer_factory.hpp:77] Creating layer inception_4b/output_inception_4b/output_0_split
I0403 15:03:46.256155 11499 net.cpp:91] Creating Layer inception_4b/output_inception_4b/output_0_split
I0403 15:03:46.256171 11499 net.cpp:425] inception_4b/output_inception_4b/output_0_split <- inception_4b/output
I0403 15:03:46.256191 11499 net.cpp:399] inception_4b/output_inception_4b/output_0_split -> inception_4b/output_inception_4b/output_0_split_0
I0403 15:03:46.256212 11499 net.cpp:399] inception_4b/output_inception_4b/output_0_split -> inception_4b/output_inception_4b/output_0_split_1
I0403 15:03:46.256233 11499 net.cpp:399] inception_4b/output_inception_4b/output_0_split -> inception_4b/output_inception_4b/output_0_split_2
I0403 15:03:46.256253 11499 net.cpp:399] inception_4b/output_inception_4b/output_0_split -> inception_4b/output_inception_4b/output_0_split_3
I0403 15:03:46.256338 11499 net.cpp:141] Setting up inception_4b/output_inception_4b/output_0_split
I0403 15:03:46.256362 11499 net.cpp:148] Top shape: 24 512 14 14 (2408448)
I0403 15:03:46.256378 11499 net.cpp:148] Top shape: 24 512 14 14 (2408448)
I0403 15:03:46.256394 11499 net.cpp:148] Top shape: 24 512 14 14 (2408448)
I0403 15:03:46.256409 11499 net.cpp:148] Top shape: 24 512 14 14 (2408448)
I0403 15:03:46.256423 11499 net.cpp:156] Memory required for data: 1028392224
I0403 15:03:46.256438 11499 layer_factory.hpp:77] Creating layer inception_4c/1x1
I0403 15:03:46.256461 11499 net.cpp:91] Creating Layer inception_4c/1x1
I0403 15:03:46.256479 11499 net.cpp:425] inception_4c/1x1 <- inception_4b/output_inception_4b/output_0_split_0
I0403 15:03:46.256499 11499 net.cpp:399] inception_4c/1x1 -> inception_4c/1x1
I0403 15:03:46.257922 11499 net.cpp:141] Setting up inception_4c/1x1
I0403 15:03:46.257951 11499 net.cpp:148] Top shape: 24 128 14 14 (602112)
I0403 15:03:46.257966 11499 net.cpp:156] Memory required for data: 1030800672
I0403 15:03:46.257983 11499 layer_factory.hpp:77] Creating layer inception_4c/relu_1x1
I0403 15:03:46.258004 11499 net.cpp:91] Creating Layer inception_4c/relu_1x1
I0403 15:03:46.258021 11499 net.cpp:425] inception_4c/relu_1x1 <- inception_4c/1x1
I0403 15:03:46.258038 11499 net.cpp:386] inception_4c/relu_1x1 -> inception_4c/1x1 (in-place)
I0403 15:03:46.258220 11499 net.cpp:141] Setting up inception_4c/relu_1x1
I0403 15:03:46.258249 11499 net.cpp:148] Top shape: 24 128 14 14 (602112)
I0403 15:03:46.258265 11499 net.cpp:156] Memory required for data: 1033209120
I0403 15:03:46.258280 11499 layer_factory.hpp:77] Creating layer inception_4c/3x3_reduce
I0403 15:03:46.258302 11499 net.cpp:91] Creating Layer inception_4c/3x3_reduce
I0403 15:03:46.258319 11499 net.cpp:425] inception_4c/3x3_reduce <- inception_4b/output_inception_4b/output_0_split_1
I0403 15:03:46.258342 11499 net.cpp:399] inception_4c/3x3_reduce -> inception_4c/3x3_reduce
I0403 15:03:46.260296 11499 net.cpp:141] Setting up inception_4c/3x3_reduce
I0403 15:03:46.260327 11499 net.cpp:148] Top shape: 24 128 14 14 (602112)
I0403 15:03:46.260344 11499 net.cpp:156] Memory required for data: 1035617568
I0403 15:03:46.260363 11499 layer_factory.hpp:77] Creating layer inception_4c/relu_3x3_reduce
I0403 15:03:46.260381 11499 net.cpp:91] Creating Layer inception_4c/relu_3x3_reduce
I0403 15:03:46.260398 11499 net.cpp:425] inception_4c/relu_3x3_reduce <- inception_4c/3x3_reduce
I0403 15:03:46.260416 11499 net.cpp:386] inception_4c/relu_3x3_reduce -> inception_4c/3x3_reduce (in-place)
I0403 15:03:46.260699 11499 net.cpp:141] Setting up inception_4c/relu_3x3_reduce
I0403 15:03:46.260727 11499 net.cpp:148] Top shape: 24 128 14 14 (602112)
I0403 15:03:46.260743 11499 net.cpp:156] Memory required for data: 1038026016
I0403 15:03:46.260757 11499 layer_factory.hpp:77] Creating layer inception_4c/3x3
I0403 15:03:46.260781 11499 net.cpp:91] Creating Layer inception_4c/3x3
I0403 15:03:46.260799 11499 net.cpp:425] inception_4c/3x3 <- inception_4c/3x3_reduce
I0403 15:03:46.260819 11499 net.cpp:399] inception_4c/3x3 -> inception_4c/3x3
I0403 15:03:46.264468 11499 net.cpp:141] Setting up inception_4c/3x3
I0403 15:03:46.264513 11499 net.cpp:148] Top shape: 24 256 14 14 (1204224)
I0403 15:03:46.264531 11499 net.cpp:156] Memory required for data: 1042842912
I0403 15:03:46.264564 11499 layer_factory.hpp:77] Creating layer inception_4c/relu_3x3
I0403 15:03:46.264585 11499 net.cpp:91] Creating Layer inception_4c/relu_3x3
I0403 15:03:46.264603 11499 net.cpp:425] inception_4c/relu_3x3 <- inception_4c/3x3
I0403 15:03:46.264621 11499 net.cpp:386] inception_4c/relu_3x3 -> inception_4c/3x3 (in-place)
I0403 15:03:46.264802 11499 net.cpp:141] Setting up inception_4c/relu_3x3
I0403 15:03:46.264829 11499 net.cpp:148] Top shape: 24 256 14 14 (1204224)
I0403 15:03:46.264843 11499 net.cpp:156] Memory required for data: 1047659808
I0403 15:03:46.264858 11499 layer_factory.hpp:77] Creating layer inception_4c/5x5_reduce
I0403 15:03:46.264881 11499 net.cpp:91] Creating Layer inception_4c/5x5_reduce
I0403 15:03:46.264900 11499 net.cpp:425] inception_4c/5x5_reduce <- inception_4b/output_inception_4b/output_0_split_2
I0403 15:03:46.264921 11499 net.cpp:399] inception_4c/5x5_reduce -> inception_4c/5x5_reduce
I0403 15:03:46.266016 11499 net.cpp:141] Setting up inception_4c/5x5_reduce
I0403 15:03:46.266046 11499 net.cpp:148] Top shape: 24 24 14 14 (112896)
I0403 15:03:46.266062 11499 net.cpp:156] Memory required for data: 1048111392
I0403 15:03:46.266080 11499 layer_factory.hpp:77] Creating layer inception_4c/relu_5x5_reduce
I0403 15:03:46.266098 11499 net.cpp:91] Creating Layer inception_4c/relu_5x5_reduce
I0403 15:03:46.266114 11499 net.cpp:425] inception_4c/relu_5x5_reduce <- inception_4c/5x5_reduce
I0403 15:03:46.266139 11499 net.cpp:386] inception_4c/relu_5x5_reduce -> inception_4c/5x5_reduce (in-place)
I0403 15:03:46.266324 11499 net.cpp:141] Setting up inception_4c/relu_5x5_reduce
I0403 15:03:46.266351 11499 net.cpp:148] Top shape: 24 24 14 14 (112896)
I0403 15:03:46.266366 11499 net.cpp:156] Memory required for data: 1048562976
I0403 15:03:46.266381 11499 layer_factory.hpp:77] Creating layer inception_4c/5x5
I0403 15:03:46.266404 11499 net.cpp:91] Creating Layer inception_4c/5x5
I0403 15:03:46.266422 11499 net.cpp:425] inception_4c/5x5 <- inception_4c/5x5_reduce
I0403 15:03:46.266443 11499 net.cpp:399] inception_4c/5x5 -> inception_4c/5x5
I0403 15:03:46.267741 11499 net.cpp:141] Setting up inception_4c/5x5
I0403 15:03:46.267770 11499 net.cpp:148] Top shape: 24 64 14 14 (301056)
I0403 15:03:46.267786 11499 net.cpp:156] Memory required for data: 1049767200
I0403 15:03:46.267803 11499 layer_factory.hpp:77] Creating layer inception_4c/relu_5x5
I0403 15:03:46.267824 11499 net.cpp:91] Creating Layer inception_4c/relu_5x5
I0403 15:03:46.267841 11499 net.cpp:425] inception_4c/relu_5x5 <- inception_4c/5x5
I0403 15:03:46.267859 11499 net.cpp:386] inception_4c/relu_5x5 -> inception_4c/5x5 (in-place)
I0403 15:03:46.268148 11499 net.cpp:141] Setting up inception_4c/relu_5x5
I0403 15:03:46.268174 11499 net.cpp:148] Top shape: 24 64 14 14 (301056)
I0403 15:03:46.268189 11499 net.cpp:156] Memory required for data: 1050971424
I0403 15:03:46.268204 11499 layer_factory.hpp:77] Creating layer inception_4c/pool
I0403 15:03:46.268223 11499 net.cpp:91] Creating Layer inception_4c/pool
I0403 15:03:46.268239 11499 net.cpp:425] inception_4c/pool <- inception_4b/output_inception_4b/output_0_split_3
I0403 15:03:46.268260 11499 net.cpp:399] inception_4c/pool -> inception_4c/pool
I0403 15:03:46.268324 11499 net.cpp:141] Setting up inception_4c/pool
I0403 15:03:46.268350 11499 net.cpp:148] Top shape: 24 512 14 14 (2408448)
I0403 15:03:46.268365 11499 net.cpp:156] Memory required for data: 1060605216
I0403 15:03:46.268379 11499 layer_factory.hpp:77] Creating layer inception_4c/pool_proj
I0403 15:03:46.268415 11499 net.cpp:91] Creating Layer inception_4c/pool_proj
I0403 15:03:46.268435 11499 net.cpp:425] inception_4c/pool_proj <- inception_4c/pool
I0403 15:03:46.268455 11499 net.cpp:399] inception_4c/pool_proj -> inception_4c/pool_proj
I0403 15:03:46.269688 11499 net.cpp:141] Setting up inception_4c/pool_proj
I0403 15:03:46.269719 11499 net.cpp:148] Top shape: 24 64 14 14 (301056)
I0403 15:03:46.269750 11499 net.cpp:156] Memory required for data: 1061809440
I0403 15:03:46.269769 11499 layer_factory.hpp:77] Creating layer inception_4c/relu_pool_proj
I0403 15:03:46.269788 11499 net.cpp:91] Creating Layer inception_4c/relu_pool_proj
I0403 15:03:46.269804 11499 net.cpp:425] inception_4c/relu_pool_proj <- inception_4c/pool_proj
I0403 15:03:46.269824 11499 net.cpp:386] inception_4c/relu_pool_proj -> inception_4c/pool_proj (in-place)
I0403 15:03:46.270004 11499 net.cpp:141] Setting up inception_4c/relu_pool_proj
I0403 15:03:46.270030 11499 net.cpp:148] Top shape: 24 64 14 14 (301056)
I0403 15:03:46.270045 11499 net.cpp:156] Memory required for data: 1063013664
I0403 15:03:46.270059 11499 layer_factory.hpp:77] Creating layer inception_4c/output
I0403 15:03:46.270076 11499 net.cpp:91] Creating Layer inception_4c/output
I0403 15:03:46.270092 11499 net.cpp:425] inception_4c/output <- inception_4c/1x1
I0403 15:03:46.270108 11499 net.cpp:425] inception_4c/output <- inception_4c/3x3
I0403 15:03:46.270128 11499 net.cpp:425] inception_4c/output <- inception_4c/5x5
I0403 15:03:46.270145 11499 net.cpp:425] inception_4c/output <- inception_4c/pool_proj
I0403 15:03:46.270165 11499 net.cpp:399] inception_4c/output -> inception_4c/output
I0403 15:03:46.270211 11499 net.cpp:141] Setting up inception_4c/output
I0403 15:03:46.270237 11499 net.cpp:148] Top shape: 24 512 14 14 (2408448)
I0403 15:03:46.270253 11499 net.cpp:156] Memory required for data: 1072647456
I0403 15:03:46.270268 11499 layer_factory.hpp:77] Creating layer inception_4c/output_inception_4c/output_0_split
I0403 15:03:46.270284 11499 net.cpp:91] Creating Layer inception_4c/output_inception_4c/output_0_split
I0403 15:03:46.270300 11499 net.cpp:425] inception_4c/output_inception_4c/output_0_split <- inception_4c/output
I0403 15:03:46.270318 11499 net.cpp:399] inception_4c/output_inception_4c/output_0_split -> inception_4c/output_inception_4c/output_0_split_0
I0403 15:03:46.270339 11499 net.cpp:399] inception_4c/output_inception_4c/output_0_split -> inception_4c/output_inception_4c/output_0_split_1
I0403 15:03:46.270362 11499 net.cpp:399] inception_4c/output_inception_4c/output_0_split -> inception_4c/output_inception_4c/output_0_split_2
I0403 15:03:46.270383 11499 net.cpp:399] inception_4c/output_inception_4c/output_0_split -> inception_4c/output_inception_4c/output_0_split_3
I0403 15:03:46.270473 11499 net.cpp:141] Setting up inception_4c/output_inception_4c/output_0_split
I0403 15:03:46.270496 11499 net.cpp:148] Top shape: 24 512 14 14 (2408448)
I0403 15:03:46.270512 11499 net.cpp:148] Top shape: 24 512 14 14 (2408448)
I0403 15:03:46.270530 11499 net.cpp:148] Top shape: 24 512 14 14 (2408448)
I0403 15:03:46.270545 11499 net.cpp:148] Top shape: 24 512 14 14 (2408448)
I0403 15:03:46.270560 11499 net.cpp:156] Memory required for data: 1111182624
I0403 15:03:46.270573 11499 layer_factory.hpp:77] Creating layer inception_4d/1x1
I0403 15:03:46.270597 11499 net.cpp:91] Creating Layer inception_4d/1x1
I0403 15:03:46.270614 11499 net.cpp:425] inception_4d/1x1 <- inception_4c/output_inception_4c/output_0_split_0
I0403 15:03:46.270633 11499 net.cpp:399] inception_4d/1x1 -> inception_4d/1x1
I0403 15:03:46.272042 11499 net.cpp:141] Setting up inception_4d/1x1
I0403 15:03:46.272069 11499 net.cpp:148] Top shape: 24 112 14 14 (526848)
I0403 15:03:46.272084 11499 net.cpp:156] Memory required for data: 1113290016
I0403 15:03:46.272105 11499 layer_factory.hpp:77] Creating layer inception_4d/relu_1x1
I0403 15:03:46.272137 11499 net.cpp:91] Creating Layer inception_4d/relu_1x1
I0403 15:03:46.272161 11499 net.cpp:425] inception_4d/relu_1x1 <- inception_4d/1x1
I0403 15:03:46.272178 11499 net.cpp:386] inception_4d/relu_1x1 -> inception_4d/1x1 (in-place)
I0403 15:03:46.272358 11499 net.cpp:141] Setting up inception_4d/relu_1x1
I0403 15:03:46.272387 11499 net.cpp:148] Top shape: 24 112 14 14 (526848)
I0403 15:03:46.272402 11499 net.cpp:156] Memory required for data: 1115397408
I0403 15:03:46.272418 11499 layer_factory.hpp:77] Creating layer inception_4d/3x3_reduce
I0403 15:03:46.272452 11499 net.cpp:91] Creating Layer inception_4d/3x3_reduce
I0403 15:03:46.272472 11499 net.cpp:425] inception_4d/3x3_reduce <- inception_4c/output_inception_4c/output_0_split_1
I0403 15:03:46.272493 11499 net.cpp:399] inception_4d/3x3_reduce -> inception_4d/3x3_reduce
I0403 15:03:46.273989 11499 net.cpp:141] Setting up inception_4d/3x3_reduce
I0403 15:03:46.274018 11499 net.cpp:148] Top shape: 24 144 14 14 (677376)
I0403 15:03:46.274032 11499 net.cpp:156] Memory required for data: 1118106912
I0403 15:03:46.274050 11499 layer_factory.hpp:77] Creating layer inception_4d/relu_3x3_reduce
I0403 15:03:46.274070 11499 net.cpp:91] Creating Layer inception_4d/relu_3x3_reduce
I0403 15:03:46.274088 11499 net.cpp:425] inception_4d/relu_3x3_reduce <- inception_4d/3x3_reduce
I0403 15:03:46.274106 11499 net.cpp:386] inception_4d/relu_3x3_reduce -> inception_4d/3x3_reduce (in-place)
I0403 15:03:46.274417 11499 net.cpp:141] Setting up inception_4d/relu_3x3_reduce
I0403 15:03:46.274444 11499 net.cpp:148] Top shape: 24 144 14 14 (677376)
I0403 15:03:46.274461 11499 net.cpp:156] Memory required for data: 1120816416
I0403 15:03:46.274484 11499 layer_factory.hpp:77] Creating layer inception_4d/3x3
I0403 15:03:46.274507 11499 net.cpp:91] Creating Layer inception_4d/3x3
I0403 15:03:46.274525 11499 net.cpp:425] inception_4d/3x3 <- inception_4d/3x3_reduce
I0403 15:03:46.274547 11499 net.cpp:399] inception_4d/3x3 -> inception_4d/3x3
I0403 15:03:46.278960 11499 net.cpp:141] Setting up inception_4d/3x3
I0403 15:03:46.278993 11499 net.cpp:148] Top shape: 24 288 14 14 (1354752)
I0403 15:03:46.279011 11499 net.cpp:156] Memory required for data: 1126235424
I0403 15:03:46.279031 11499 layer_factory.hpp:77] Creating layer inception_4d/relu_3x3
I0403 15:03:46.279049 11499 net.cpp:91] Creating Layer inception_4d/relu_3x3
I0403 15:03:46.279065 11499 net.cpp:425] inception_4d/relu_3x3 <- inception_4d/3x3
I0403 15:03:46.279083 11499 net.cpp:386] inception_4d/relu_3x3 -> inception_4d/3x3 (in-place)
I0403 15:03:46.279278 11499 net.cpp:141] Setting up inception_4d/relu_3x3
I0403 15:03:46.279306 11499 net.cpp:148] Top shape: 24 288 14 14 (1354752)
I0403 15:03:46.279322 11499 net.cpp:156] Memory required for data: 1131654432
I0403 15:03:46.279338 11499 layer_factory.hpp:77] Creating layer inception_4d/5x5_reduce
I0403 15:03:46.279361 11499 net.cpp:91] Creating Layer inception_4d/5x5_reduce
I0403 15:03:46.279392 11499 net.cpp:425] inception_4d/5x5_reduce <- inception_4c/output_inception_4c/output_0_split_2
I0403 15:03:46.279412 11499 net.cpp:399] inception_4d/5x5_reduce -> inception_4d/5x5_reduce
I0403 15:03:46.280603 11499 net.cpp:141] Setting up inception_4d/5x5_reduce
I0403 15:03:46.280633 11499 net.cpp:148] Top shape: 24 32 14 14 (150528)
I0403 15:03:46.280649 11499 net.cpp:156] Memory required for data: 1132256544
I0403 15:03:46.280668 11499 layer_factory.hpp:77] Creating layer inception_4d/relu_5x5_reduce
I0403 15:03:46.280689 11499 net.cpp:91] Creating Layer inception_4d/relu_5x5_reduce
I0403 15:03:46.280707 11499 net.cpp:425] inception_4d/relu_5x5_reduce <- inception_4d/5x5_reduce
I0403 15:03:46.280725 11499 net.cpp:386] inception_4d/relu_5x5_reduce -> inception_4d/5x5_reduce (in-place)
I0403 15:03:46.280917 11499 net.cpp:141] Setting up inception_4d/relu_5x5_reduce
I0403 15:03:46.280943 11499 net.cpp:148] Top shape: 24 32 14 14 (150528)
I0403 15:03:46.280958 11499 net.cpp:156] Memory required for data: 1132858656
I0403 15:03:46.280973 11499 layer_factory.hpp:77] Creating layer inception_4d/5x5
I0403 15:03:46.280995 11499 net.cpp:91] Creating Layer inception_4d/5x5
I0403 15:03:46.281014 11499 net.cpp:425] inception_4d/5x5 <- inception_4d/5x5_reduce
I0403 15:03:46.281036 11499 net.cpp:399] inception_4d/5x5 -> inception_4d/5x5
I0403 15:03:46.282568 11499 net.cpp:141] Setting up inception_4d/5x5
I0403 15:03:46.282598 11499 net.cpp:148] Top shape: 24 64 14 14 (301056)
I0403 15:03:46.282615 11499 net.cpp:156] Memory required for data: 1134062880
I0403 15:03:46.282635 11499 layer_factory.hpp:77] Creating layer inception_4d/relu_5x5
I0403 15:03:46.282671 11499 net.cpp:91] Creating Layer inception_4d/relu_5x5
I0403 15:03:46.282688 11499 net.cpp:425] inception_4d/relu_5x5 <- inception_4d/5x5
I0403 15:03:46.282708 11499 net.cpp:386] inception_4d/relu_5x5 -> inception_4d/5x5 (in-place)
I0403 15:03:46.283018 11499 net.cpp:141] Setting up inception_4d/relu_5x5
I0403 15:03:46.283046 11499 net.cpp:148] Top shape: 24 64 14 14 (301056)
I0403 15:03:46.283061 11499 net.cpp:156] Memory required for data: 1135267104
I0403 15:03:46.283077 11499 layer_factory.hpp:77] Creating layer inception_4d/pool
I0403 15:03:46.283095 11499 net.cpp:91] Creating Layer inception_4d/pool
I0403 15:03:46.283113 11499 net.cpp:425] inception_4d/pool <- inception_4c/output_inception_4c/output_0_split_3
I0403 15:03:46.283143 11499 net.cpp:399] inception_4d/pool -> inception_4d/pool
I0403 15:03:46.283215 11499 net.cpp:141] Setting up inception_4d/pool
I0403 15:03:46.283241 11499 net.cpp:148] Top shape: 24 512 14 14 (2408448)
I0403 15:03:46.283257 11499 net.cpp:156] Memory required for data: 1144900896
I0403 15:03:46.283270 11499 layer_factory.hpp:77] Creating layer inception_4d/pool_proj
I0403 15:03:46.283295 11499 net.cpp:91] Creating Layer inception_4d/pool_proj
I0403 15:03:46.283313 11499 net.cpp:425] inception_4d/pool_proj <- inception_4d/pool
I0403 15:03:46.283332 11499 net.cpp:399] inception_4d/pool_proj -> inception_4d/pool_proj
I0403 15:03:46.285168 11499 net.cpp:141] Setting up inception_4d/pool_proj
I0403 15:03:46.285200 11499 net.cpp:148] Top shape: 24 64 14 14 (301056)
I0403 15:03:46.285218 11499 net.cpp:156] Memory required for data: 1146105120
I0403 15:03:46.285238 11499 layer_factory.hpp:77] Creating layer inception_4d/relu_pool_proj
I0403 15:03:46.285256 11499 net.cpp:91] Creating Layer inception_4d/relu_pool_proj
I0403 15:03:46.285274 11499 net.cpp:425] inception_4d/relu_pool_proj <- inception_4d/pool_proj
I0403 15:03:46.285291 11499 net.cpp:386] inception_4d/relu_pool_proj -> inception_4d/pool_proj (in-place)
I0403 15:03:46.285480 11499 net.cpp:141] Setting up inception_4d/relu_pool_proj
I0403 15:03:46.285508 11499 net.cpp:148] Top shape: 24 64 14 14 (301056)
I0403 15:03:46.285526 11499 net.cpp:156] Memory required for data: 1147309344
I0403 15:03:46.285540 11499 layer_factory.hpp:77] Creating layer inception_4d/output
I0403 15:03:46.285558 11499 net.cpp:91] Creating Layer inception_4d/output
I0403 15:03:46.285574 11499 net.cpp:425] inception_4d/output <- inception_4d/1x1
I0403 15:03:46.285593 11499 net.cpp:425] inception_4d/output <- inception_4d/3x3
I0403 15:03:46.285609 11499 net.cpp:425] inception_4d/output <- inception_4d/5x5
I0403 15:03:46.285624 11499 net.cpp:425] inception_4d/output <- inception_4d/pool_proj
I0403 15:03:46.285645 11499 net.cpp:399] inception_4d/output -> inception_4d/output
I0403 15:03:46.285693 11499 net.cpp:141] Setting up inception_4d/output
I0403 15:03:46.285718 11499 net.cpp:148] Top shape: 24 528 14 14 (2483712)
I0403 15:03:46.285733 11499 net.cpp:156] Memory required for data: 1157244192
I0403 15:03:46.285748 11499 layer_factory.hpp:77] Creating layer inception_4d/output_inception_4d/output_0_split
I0403 15:03:46.285769 11499 net.cpp:91] Creating Layer inception_4d/output_inception_4d/output_0_split
I0403 15:03:46.285786 11499 net.cpp:425] inception_4d/output_inception_4d/output_0_split <- inception_4d/output
I0403 15:03:46.285805 11499 net.cpp:399] inception_4d/output_inception_4d/output_0_split -> inception_4d/output_inception_4d/output_0_split_0
I0403 15:03:46.285831 11499 net.cpp:399] inception_4d/output_inception_4d/output_0_split -> inception_4d/output_inception_4d/output_0_split_1
I0403 15:03:46.285853 11499 net.cpp:399] inception_4d/output_inception_4d/output_0_split -> inception_4d/output_inception_4d/output_0_split_2
I0403 15:03:46.285876 11499 net.cpp:399] inception_4d/output_inception_4d/output_0_split -> inception_4d/output_inception_4d/output_0_split_3
I0403 15:03:46.285894 11499 net.cpp:399] inception_4d/output_inception_4d/output_0_split -> inception_4d/output_inception_4d/output_0_split_4
I0403 15:03:46.286000 11499 net.cpp:141] Setting up inception_4d/output_inception_4d/output_0_split
I0403 15:03:46.286037 11499 net.cpp:148] Top shape: 24 528 14 14 (2483712)
I0403 15:03:46.286054 11499 net.cpp:148] Top shape: 24 528 14 14 (2483712)
I0403 15:03:46.286072 11499 net.cpp:148] Top shape: 24 528 14 14 (2483712)
I0403 15:03:46.286087 11499 net.cpp:148] Top shape: 24 528 14 14 (2483712)
I0403 15:03:46.286103 11499 net.cpp:148] Top shape: 24 528 14 14 (2483712)
I0403 15:03:46.286118 11499 net.cpp:156] Memory required for data: 1206918432
I0403 15:03:46.286137 11499 layer_factory.hpp:77] Creating layer loss2/ave_pool
I0403 15:03:46.286159 11499 net.cpp:91] Creating Layer loss2/ave_pool
I0403 15:03:46.286177 11499 net.cpp:425] loss2/ave_pool <- inception_4d/output_inception_4d/output_0_split_0
I0403 15:03:46.286201 11499 net.cpp:399] loss2/ave_pool -> loss2/ave_pool
I0403 15:03:46.286520 11499 net.cpp:141] Setting up loss2/ave_pool
I0403 15:03:46.286550 11499 net.cpp:148] Top shape: 24 528 4 4 (202752)
I0403 15:03:46.286566 11499 net.cpp:156] Memory required for data: 1207729440
I0403 15:03:46.286581 11499 layer_factory.hpp:77] Creating layer loss2/conv
I0403 15:03:46.286602 11499 net.cpp:91] Creating Layer loss2/conv
I0403 15:03:46.286619 11499 net.cpp:425] loss2/conv <- loss2/ave_pool
I0403 15:03:46.286641 11499 net.cpp:399] loss2/conv -> loss2/conv
I0403 15:03:46.288610 11499 net.cpp:141] Setting up loss2/conv
I0403 15:03:46.288640 11499 net.cpp:148] Top shape: 24 128 4 4 (49152)
I0403 15:03:46.288656 11499 net.cpp:156] Memory required for data: 1207926048
I0403 15:03:46.288676 11499 layer_factory.hpp:77] Creating layer loss2/relu_conv
I0403 15:03:46.288694 11499 net.cpp:91] Creating Layer loss2/relu_conv
I0403 15:03:46.288712 11499 net.cpp:425] loss2/relu_conv <- loss2/conv
I0403 15:03:46.288732 11499 net.cpp:386] loss2/relu_conv -> loss2/conv (in-place)
I0403 15:03:46.289026 11499 net.cpp:141] Setting up loss2/relu_conv
I0403 15:03:46.289054 11499 net.cpp:148] Top shape: 24 128 4 4 (49152)
I0403 15:03:46.289069 11499 net.cpp:156] Memory required for data: 1208122656
I0403 15:03:46.289083 11499 layer_factory.hpp:77] Creating layer loss2/fc
I0403 15:03:46.289104 11499 net.cpp:91] Creating Layer loss2/fc
I0403 15:03:46.289121 11499 net.cpp:425] loss2/fc <- loss2/conv
I0403 15:03:46.289150 11499 net.cpp:399] loss2/fc -> loss2/fc
I0403 15:03:46.307242 11499 net.cpp:141] Setting up loss2/fc
I0403 15:03:46.307307 11499 net.cpp:148] Top shape: 24 1024 (24576)
I0403 15:03:46.307322 11499 net.cpp:156] Memory required for data: 1208220960
I0403 15:03:46.307342 11499 layer_factory.hpp:77] Creating layer loss2/relu_fc
I0403 15:03:46.307364 11499 net.cpp:91] Creating Layer loss2/relu_fc
I0403 15:03:46.307396 11499 net.cpp:425] loss2/relu_fc <- loss2/fc
I0403 15:03:46.307415 11499 net.cpp:386] loss2/relu_fc -> loss2/fc (in-place)
I0403 15:03:46.307783 11499 net.cpp:141] Setting up loss2/relu_fc
I0403 15:03:46.307812 11499 net.cpp:148] Top shape: 24 1024 (24576)
I0403 15:03:46.307828 11499 net.cpp:156] Memory required for data: 1208319264
I0403 15:03:46.307844 11499 layer_factory.hpp:77] Creating layer loss2/drop_fc
I0403 15:03:46.307862 11499 net.cpp:91] Creating Layer loss2/drop_fc
I0403 15:03:46.307878 11499 net.cpp:425] loss2/drop_fc <- loss2/fc
I0403 15:03:46.307894 11499 net.cpp:386] loss2/drop_fc -> loss2/fc (in-place)
I0403 15:03:46.307947 11499 net.cpp:141] Setting up loss2/drop_fc
I0403 15:03:46.307971 11499 net.cpp:148] Top shape: 24 1024 (24576)
I0403 15:03:46.307986 11499 net.cpp:156] Memory required for data: 1208417568
I0403 15:03:46.308001 11499 layer_factory.hpp:77] Creating layer loss2/classifier_plantvillage
I0403 15:03:46.308023 11499 net.cpp:91] Creating Layer loss2/classifier_plantvillage
I0403 15:03:46.308040 11499 net.cpp:425] loss2/classifier_plantvillage <- loss2/fc
I0403 15:03:46.308058 11499 net.cpp:399] loss2/classifier_plantvillage -> loss2/classifier_plantvillage
I0403 15:03:46.308475 11499 net.cpp:141] Setting up loss2/classifier_plantvillage
I0403 15:03:46.308501 11499 net.cpp:148] Top shape: 24 38 (912)
I0403 15:03:46.308544 11499 net.cpp:156] Memory required for data: 1208421216
I0403 15:03:46.308564 11499 layer_factory.hpp:77] Creating layer loss2/classifier_plantvillage_loss2/classifier_plantvillage_0_split
I0403 15:03:46.308583 11499 net.cpp:91] Creating Layer loss2/classifier_plantvillage_loss2/classifier_plantvillage_0_split
I0403 15:03:46.308598 11499 net.cpp:425] loss2/classifier_plantvillage_loss2/classifier_plantvillage_0_split <- loss2/classifier_plantvillage
I0403 15:03:46.308619 11499 net.cpp:399] loss2/classifier_plantvillage_loss2/classifier_plantvillage_0_split -> loss2/classifier_plantvillage_loss2/classifier_plantvillage_0_split_0
I0403 15:03:46.308640 11499 net.cpp:399] loss2/classifier_plantvillage_loss2/classifier_plantvillage_0_split -> loss2/classifier_plantvillage_loss2/classifier_plantvillage_0_split_1
I0403 15:03:46.308660 11499 net.cpp:399] loss2/classifier_plantvillage_loss2/classifier_plantvillage_0_split -> loss2/classifier_plantvillage_loss2/classifier_plantvillage_0_split_2
I0403 15:03:46.308737 11499 net.cpp:141] Setting up loss2/classifier_plantvillage_loss2/classifier_plantvillage_0_split
I0403 15:03:46.308763 11499 net.cpp:148] Top shape: 24 38 (912)
I0403 15:03:46.308780 11499 net.cpp:148] Top shape: 24 38 (912)
I0403 15:03:46.308796 11499 net.cpp:148] Top shape: 24 38 (912)
I0403 15:03:46.308810 11499 net.cpp:156] Memory required for data: 1208432160
I0403 15:03:46.308825 11499 layer_factory.hpp:77] Creating layer inception_4e/1x1
I0403 15:03:46.308845 11499 net.cpp:91] Creating Layer inception_4e/1x1
I0403 15:03:46.308862 11499 net.cpp:425] inception_4e/1x1 <- inception_4d/output_inception_4d/output_0_split_1
I0403 15:03:46.308884 11499 net.cpp:399] inception_4e/1x1 -> inception_4e/1x1
I0403 15:03:46.310736 11499 net.cpp:141] Setting up inception_4e/1x1
I0403 15:03:46.310765 11499 net.cpp:148] Top shape: 24 256 14 14 (1204224)
I0403 15:03:46.310781 11499 net.cpp:156] Memory required for data: 1213249056
I0403 15:03:46.310798 11499 layer_factory.hpp:77] Creating layer inception_4e/relu_1x1
I0403 15:03:46.310817 11499 net.cpp:91] Creating Layer inception_4e/relu_1x1
I0403 15:03:46.310833 11499 net.cpp:425] inception_4e/relu_1x1 <- inception_4e/1x1
I0403 15:03:46.310853 11499 net.cpp:386] inception_4e/relu_1x1 -> inception_4e/1x1 (in-place)
I0403 15:03:46.311154 11499 net.cpp:141] Setting up inception_4e/relu_1x1
I0403 15:03:46.311182 11499 net.cpp:148] Top shape: 24 256 14 14 (1204224)
I0403 15:03:46.311197 11499 net.cpp:156] Memory required for data: 1218065952
I0403 15:03:46.311211 11499 layer_factory.hpp:77] Creating layer inception_4e/3x3_reduce
I0403 15:03:46.311233 11499 net.cpp:91] Creating Layer inception_4e/3x3_reduce
I0403 15:03:46.311250 11499 net.cpp:425] inception_4e/3x3_reduce <- inception_4d/output_inception_4d/output_0_split_2
I0403 15:03:46.311272 11499 net.cpp:399] inception_4e/3x3_reduce -> inception_4e/3x3_reduce
I0403 15:03:46.313429 11499 net.cpp:141] Setting up inception_4e/3x3_reduce
I0403 15:03:46.313462 11499 net.cpp:148] Top shape: 24 160 14 14 (752640)
I0403 15:03:46.313479 11499 net.cpp:156] Memory required for data: 1221076512
I0403 15:03:46.313498 11499 layer_factory.hpp:77] Creating layer inception_4e/relu_3x3_reduce
I0403 15:03:46.313516 11499 net.cpp:91] Creating Layer inception_4e/relu_3x3_reduce
I0403 15:03:46.313534 11499 net.cpp:425] inception_4e/relu_3x3_reduce <- inception_4e/3x3_reduce
I0403 15:03:46.313554 11499 net.cpp:386] inception_4e/relu_3x3_reduce -> inception_4e/3x3_reduce (in-place)
I0403 15:03:46.313737 11499 net.cpp:141] Setting up inception_4e/relu_3x3_reduce
I0403 15:03:46.313763 11499 net.cpp:148] Top shape: 24 160 14 14 (752640)
I0403 15:03:46.313778 11499 net.cpp:156] Memory required for data: 1224087072
I0403 15:03:46.313791 11499 layer_factory.hpp:77] Creating layer inception_4e/3x3
I0403 15:03:46.313813 11499 net.cpp:91] Creating Layer inception_4e/3x3
I0403 15:03:46.313832 11499 net.cpp:425] inception_4e/3x3 <- inception_4e/3x3_reduce
I0403 15:03:46.313853 11499 net.cpp:399] inception_4e/3x3 -> inception_4e/3x3
I0403 15:03:46.318874 11499 net.cpp:141] Setting up inception_4e/3x3
I0403 15:03:46.318917 11499 net.cpp:148] Top shape: 24 320 14 14 (1505280)
I0403 15:03:46.318933 11499 net.cpp:156] Memory required for data: 1230108192
I0403 15:03:46.318953 11499 layer_factory.hpp:77] Creating layer inception_4e/relu_3x3
I0403 15:03:46.318972 11499 net.cpp:91] Creating Layer inception_4e/relu_3x3
I0403 15:03:46.318989 11499 net.cpp:425] inception_4e/relu_3x3 <- inception_4e/3x3
I0403 15:03:46.319006 11499 net.cpp:386] inception_4e/relu_3x3 -> inception_4e/3x3 (in-place)
I0403 15:03:46.319306 11499 net.cpp:141] Setting up inception_4e/relu_3x3
I0403 15:03:46.319334 11499 net.cpp:148] Top shape: 24 320 14 14 (1505280)
I0403 15:03:46.319350 11499 net.cpp:156] Memory required for data: 1236129312
I0403 15:03:46.319365 11499 layer_factory.hpp:77] Creating layer inception_4e/5x5_reduce
I0403 15:03:46.319403 11499 net.cpp:91] Creating Layer inception_4e/5x5_reduce
I0403 15:03:46.319422 11499 net.cpp:425] inception_4e/5x5_reduce <- inception_4d/output_inception_4d/output_0_split_3
I0403 15:03:46.319442 11499 net.cpp:399] inception_4e/5x5_reduce -> inception_4e/5x5_reduce
I0403 15:03:46.320524 11499 net.cpp:141] Setting up inception_4e/5x5_reduce
I0403 15:03:46.320554 11499 net.cpp:148] Top shape: 24 32 14 14 (150528)
I0403 15:03:46.320569 11499 net.cpp:156] Memory required for data: 1236731424
I0403 15:03:46.320586 11499 layer_factory.hpp:77] Creating layer inception_4e/relu_5x5_reduce
I0403 15:03:46.320603 11499 net.cpp:91] Creating Layer inception_4e/relu_5x5_reduce
I0403 15:03:46.320621 11499 net.cpp:425] inception_4e/relu_5x5_reduce <- inception_4e/5x5_reduce
I0403 15:03:46.320639 11499 net.cpp:386] inception_4e/relu_5x5_reduce -> inception_4e/5x5_reduce (in-place)
I0403 15:03:46.320936 11499 net.cpp:141] Setting up inception_4e/relu_5x5_reduce
I0403 15:03:46.320966 11499 net.cpp:148] Top shape: 24 32 14 14 (150528)
I0403 15:03:46.320982 11499 net.cpp:156] Memory required for data: 1237333536
I0403 15:03:46.320996 11499 layer_factory.hpp:77] Creating layer inception_4e/5x5
I0403 15:03:46.321035 11499 net.cpp:91] Creating Layer inception_4e/5x5
I0403 15:03:46.321055 11499 net.cpp:425] inception_4e/5x5 <- inception_4e/5x5_reduce
I0403 15:03:46.321075 11499 net.cpp:399] inception_4e/5x5 -> inception_4e/5x5
I0403 15:03:46.322909 11499 net.cpp:141] Setting up inception_4e/5x5
I0403 15:03:46.322942 11499 net.cpp:148] Top shape: 24 128 14 14 (602112)
I0403 15:03:46.322958 11499 net.cpp:156] Memory required for data: 1239741984
I0403 15:03:46.322978 11499 layer_factory.hpp:77] Creating layer inception_4e/relu_5x5
I0403 15:03:46.322995 11499 net.cpp:91] Creating Layer inception_4e/relu_5x5
I0403 15:03:46.323014 11499 net.cpp:425] inception_4e/relu_5x5 <- inception_4e/5x5
I0403 15:03:46.323031 11499 net.cpp:386] inception_4e/relu_5x5 -> inception_4e/5x5 (in-place)
I0403 15:03:46.323238 11499 net.cpp:141] Setting up inception_4e/relu_5x5
I0403 15:03:46.323264 11499 net.cpp:148] Top shape: 24 128 14 14 (602112)
I0403 15:03:46.323281 11499 net.cpp:156] Memory required for data: 1242150432
I0403 15:03:46.323295 11499 layer_factory.hpp:77] Creating layer inception_4e/pool
I0403 15:03:46.323314 11499 net.cpp:91] Creating Layer inception_4e/pool
I0403 15:03:46.323331 11499 net.cpp:425] inception_4e/pool <- inception_4d/output_inception_4d/output_0_split_4
I0403 15:03:46.323351 11499 net.cpp:399] inception_4e/pool -> inception_4e/pool
I0403 15:03:46.323436 11499 net.cpp:141] Setting up inception_4e/pool
I0403 15:03:46.323465 11499 net.cpp:148] Top shape: 24 528 14 14 (2483712)
I0403 15:03:46.323482 11499 net.cpp:156] Memory required for data: 1252085280
I0403 15:03:46.323496 11499 layer_factory.hpp:77] Creating layer inception_4e/pool_proj
I0403 15:03:46.323518 11499 net.cpp:91] Creating Layer inception_4e/pool_proj
I0403 15:03:46.323537 11499 net.cpp:425] inception_4e/pool_proj <- inception_4e/pool
I0403 15:03:46.323555 11499 net.cpp:399] inception_4e/pool_proj -> inception_4e/pool_proj
I0403 15:03:46.325074 11499 net.cpp:141] Setting up inception_4e/pool_proj
I0403 15:03:46.325117 11499 net.cpp:148] Top shape: 24 128 14 14 (602112)
I0403 15:03:46.325139 11499 net.cpp:156] Memory required for data: 1254493728
I0403 15:03:46.325160 11499 layer_factory.hpp:77] Creating layer inception_4e/relu_pool_proj
I0403 15:03:46.325177 11499 net.cpp:91] Creating Layer inception_4e/relu_pool_proj
I0403 15:03:46.325194 11499 net.cpp:425] inception_4e/relu_pool_proj <- inception_4e/pool_proj
I0403 15:03:46.325212 11499 net.cpp:386] inception_4e/relu_pool_proj -> inception_4e/pool_proj (in-place)
I0403 15:03:46.325503 11499 net.cpp:141] Setting up inception_4e/relu_pool_proj
I0403 15:03:46.325533 11499 net.cpp:148] Top shape: 24 128 14 14 (602112)
I0403 15:03:46.325548 11499 net.cpp:156] Memory required for data: 1256902176
I0403 15:03:46.325563 11499 layer_factory.hpp:77] Creating layer inception_4e/output
I0403 15:03:46.325582 11499 net.cpp:91] Creating Layer inception_4e/output
I0403 15:03:46.325598 11499 net.cpp:425] inception_4e/output <- inception_4e/1x1
I0403 15:03:46.325613 11499 net.cpp:425] inception_4e/output <- inception_4e/3x3
I0403 15:03:46.325630 11499 net.cpp:425] inception_4e/output <- inception_4e/5x5
I0403 15:03:46.325646 11499 net.cpp:425] inception_4e/output <- inception_4e/pool_proj
I0403 15:03:46.325664 11499 net.cpp:399] inception_4e/output -> inception_4e/output
I0403 15:03:46.325716 11499 net.cpp:141] Setting up inception_4e/output
I0403 15:03:46.325741 11499 net.cpp:148] Top shape: 24 832 14 14 (3913728)
I0403 15:03:46.325754 11499 net.cpp:156] Memory required for data: 1272557088
I0403 15:03:46.325768 11499 layer_factory.hpp:77] Creating layer pool4/3x3_s2
I0403 15:03:46.325788 11499 net.cpp:91] Creating Layer pool4/3x3_s2
I0403 15:03:46.325805 11499 net.cpp:425] pool4/3x3_s2 <- inception_4e/output
I0403 15:03:46.325824 11499 net.cpp:399] pool4/3x3_s2 -> pool4/3x3_s2
I0403 15:03:46.325892 11499 net.cpp:141] Setting up pool4/3x3_s2
I0403 15:03:46.325917 11499 net.cpp:148] Top shape: 24 832 7 7 (978432)
I0403 15:03:46.325932 11499 net.cpp:156] Memory required for data: 1276470816
I0403 15:03:46.325947 11499 layer_factory.hpp:77] Creating layer pool4/3x3_s2_pool4/3x3_s2_0_split
I0403 15:03:46.325963 11499 net.cpp:91] Creating Layer pool4/3x3_s2_pool4/3x3_s2_0_split
I0403 15:03:46.325979 11499 net.cpp:425] pool4/3x3_s2_pool4/3x3_s2_0_split <- pool4/3x3_s2
I0403 15:03:46.325999 11499 net.cpp:399] pool4/3x3_s2_pool4/3x3_s2_0_split -> pool4/3x3_s2_pool4/3x3_s2_0_split_0
I0403 15:03:46.326022 11499 net.cpp:399] pool4/3x3_s2_pool4/3x3_s2_0_split -> pool4/3x3_s2_pool4/3x3_s2_0_split_1
I0403 15:03:46.326043 11499 net.cpp:399] pool4/3x3_s2_pool4/3x3_s2_0_split -> pool4/3x3_s2_pool4/3x3_s2_0_split_2
I0403 15:03:46.326063 11499 net.cpp:399] pool4/3x3_s2_pool4/3x3_s2_0_split -> pool4/3x3_s2_pool4/3x3_s2_0_split_3
I0403 15:03:46.326159 11499 net.cpp:141] Setting up pool4/3x3_s2_pool4/3x3_s2_0_split
I0403 15:03:46.326186 11499 net.cpp:148] Top shape: 24 832 7 7 (978432)
I0403 15:03:46.326203 11499 net.cpp:148] Top shape: 24 832 7 7 (978432)
I0403 15:03:46.326220 11499 net.cpp:148] Top shape: 24 832 7 7 (978432)
I0403 15:03:46.326236 11499 net.cpp:148] Top shape: 24 832 7 7 (978432)
I0403 15:03:46.326249 11499 net.cpp:156] Memory required for data: 1292125728
I0403 15:03:46.326263 11499 layer_factory.hpp:77] Creating layer inception_5a/1x1
I0403 15:03:46.326285 11499 net.cpp:91] Creating Layer inception_5a/1x1
I0403 15:03:46.326304 11499 net.cpp:425] inception_5a/1x1 <- pool4/3x3_s2_pool4/3x3_s2_0_split_0
I0403 15:03:46.326323 11499 net.cpp:399] inception_5a/1x1 -> inception_5a/1x1
I0403 15:03:46.329210 11499 net.cpp:141] Setting up inception_5a/1x1
I0403 15:03:46.329243 11499 net.cpp:148] Top shape: 24 256 7 7 (301056)
I0403 15:03:46.329262 11499 net.cpp:156] Memory required for data: 1293329952
I0403 15:03:46.329282 11499 layer_factory.hpp:77] Creating layer inception_5a/relu_1x1
I0403 15:03:46.329301 11499 net.cpp:91] Creating Layer inception_5a/relu_1x1
I0403 15:03:46.329318 11499 net.cpp:425] inception_5a/relu_1x1 <- inception_5a/1x1
I0403 15:03:46.329336 11499 net.cpp:386] inception_5a/relu_1x1 -> inception_5a/1x1 (in-place)
I0403 15:03:46.329644 11499 net.cpp:141] Setting up inception_5a/relu_1x1
I0403 15:03:46.329674 11499 net.cpp:148] Top shape: 24 256 7 7 (301056)
I0403 15:03:46.329689 11499 net.cpp:156] Memory required for data: 1294534176
I0403 15:03:46.329705 11499 layer_factory.hpp:77] Creating layer inception_5a/3x3_reduce
I0403 15:03:46.329727 11499 net.cpp:91] Creating Layer inception_5a/3x3_reduce
I0403 15:03:46.329746 11499 net.cpp:425] inception_5a/3x3_reduce <- pool4/3x3_s2_pool4/3x3_s2_0_split_1
I0403 15:03:46.329766 11499 net.cpp:399] inception_5a/3x3_reduce -> inception_5a/3x3_reduce
I0403 15:03:46.332337 11499 net.cpp:141] Setting up inception_5a/3x3_reduce
I0403 15:03:46.332370 11499 net.cpp:148] Top shape: 24 160 7 7 (188160)
I0403 15:03:46.332398 11499 net.cpp:156] Memory required for data: 1295286816
I0403 15:03:46.332418 11499 layer_factory.hpp:77] Creating layer inception_5a/relu_3x3_reduce
I0403 15:03:46.332439 11499 net.cpp:91] Creating Layer inception_5a/relu_3x3_reduce
I0403 15:03:46.332458 11499 net.cpp:425] inception_5a/relu_3x3_reduce <- inception_5a/3x3_reduce
I0403 15:03:46.332475 11499 net.cpp:386] inception_5a/relu_3x3_reduce -> inception_5a/3x3_reduce (in-place)
I0403 15:03:46.332679 11499 net.cpp:141] Setting up inception_5a/relu_3x3_reduce
I0403 15:03:46.332708 11499 net.cpp:148] Top shape: 24 160 7 7 (188160)
I0403 15:03:46.332726 11499 net.cpp:156] Memory required for data: 1296039456
I0403 15:03:46.332753 11499 layer_factory.hpp:77] Creating layer inception_5a/3x3
I0403 15:03:46.332777 11499 net.cpp:91] Creating Layer inception_5a/3x3
I0403 15:03:46.332797 11499 net.cpp:425] inception_5a/3x3 <- inception_5a/3x3_reduce
I0403 15:03:46.332815 11499 net.cpp:399] inception_5a/3x3 -> inception_5a/3x3
I0403 15:03:46.338038 11499 net.cpp:141] Setting up inception_5a/3x3
I0403 15:03:46.338073 11499 net.cpp:148] Top shape: 24 320 7 7 (376320)
I0403 15:03:46.338090 11499 net.cpp:156] Memory required for data: 1297544736
I0403 15:03:46.338109 11499 layer_factory.hpp:77] Creating layer inception_5a/relu_3x3
I0403 15:03:46.338135 11499 net.cpp:91] Creating Layer inception_5a/relu_3x3
I0403 15:03:46.338155 11499 net.cpp:425] inception_5a/relu_3x3 <- inception_5a/3x3
I0403 15:03:46.338176 11499 net.cpp:386] inception_5a/relu_3x3 -> inception_5a/3x3 (in-place)
I0403 15:03:46.338480 11499 net.cpp:141] Setting up inception_5a/relu_3x3
I0403 15:03:46.338511 11499 net.cpp:148] Top shape: 24 320 7 7 (376320)
I0403 15:03:46.338528 11499 net.cpp:156] Memory required for data: 1299050016
I0403 15:03:46.338544 11499 layer_factory.hpp:77] Creating layer inception_5a/5x5_reduce
I0403 15:03:46.338567 11499 net.cpp:91] Creating Layer inception_5a/5x5_reduce
I0403 15:03:46.338587 11499 net.cpp:425] inception_5a/5x5_reduce <- pool4/3x3_s2_pool4/3x3_s2_0_split_2
I0403 15:03:46.338608 11499 net.cpp:399] inception_5a/5x5_reduce -> inception_5a/5x5_reduce
I0403 15:03:46.339850 11499 net.cpp:141] Setting up inception_5a/5x5_reduce
I0403 15:03:46.339884 11499 net.cpp:148] Top shape: 24 32 7 7 (37632)
I0403 15:03:46.339900 11499 net.cpp:156] Memory required for data: 1299200544
I0403 15:03:46.339920 11499 layer_factory.hpp:77] Creating layer inception_5a/relu_5x5_reduce
I0403 15:03:46.339938 11499 net.cpp:91] Creating Layer inception_5a/relu_5x5_reduce
I0403 15:03:46.339956 11499 net.cpp:425] inception_5a/relu_5x5_reduce <- inception_5a/5x5_reduce
I0403 15:03:46.339975 11499 net.cpp:386] inception_5a/relu_5x5_reduce -> inception_5a/5x5_reduce (in-place)
I0403 15:03:46.340294 11499 net.cpp:141] Setting up inception_5a/relu_5x5_reduce
I0403 15:03:46.340322 11499 net.cpp:148] Top shape: 24 32 7 7 (37632)
I0403 15:03:46.340337 11499 net.cpp:156] Memory required for data: 1299351072
I0403 15:03:46.340353 11499 layer_factory.hpp:77] Creating layer inception_5a/5x5
I0403 15:03:46.340376 11499 net.cpp:91] Creating Layer inception_5a/5x5
I0403 15:03:46.340394 11499 net.cpp:425] inception_5a/5x5 <- inception_5a/5x5_reduce
I0403 15:03:46.340416 11499 net.cpp:399] inception_5a/5x5 -> inception_5a/5x5
I0403 15:03:46.342213 11499 net.cpp:141] Setting up inception_5a/5x5
I0403 15:03:46.342260 11499 net.cpp:148] Top shape: 24 128 7 7 (150528)
I0403 15:03:46.342279 11499 net.cpp:156] Memory required for data: 1299953184
I0403 15:03:46.342298 11499 layer_factory.hpp:77] Creating layer inception_5a/relu_5x5
I0403 15:03:46.342316 11499 net.cpp:91] Creating Layer inception_5a/relu_5x5
I0403 15:03:46.342334 11499 net.cpp:425] inception_5a/relu_5x5 <- inception_5a/5x5
I0403 15:03:46.342355 11499 net.cpp:386] inception_5a/relu_5x5 -> inception_5a/5x5 (in-place)
I0403 15:03:46.342555 11499 net.cpp:141] Setting up inception_5a/relu_5x5
I0403 15:03:46.342582 11499 net.cpp:148] Top shape: 24 128 7 7 (150528)
I0403 15:03:46.342597 11499 net.cpp:156] Memory required for data: 1300555296
I0403 15:03:46.342612 11499 layer_factory.hpp:77] Creating layer inception_5a/pool
I0403 15:03:46.342629 11499 net.cpp:91] Creating Layer inception_5a/pool
I0403 15:03:46.342646 11499 net.cpp:425] inception_5a/pool <- pool4/3x3_s2_pool4/3x3_s2_0_split_3
I0403 15:03:46.342667 11499 net.cpp:399] inception_5a/pool -> inception_5a/pool
I0403 15:03:46.342741 11499 net.cpp:141] Setting up inception_5a/pool
I0403 15:03:46.342767 11499 net.cpp:148] Top shape: 24 832 7 7 (978432)
I0403 15:03:46.342782 11499 net.cpp:156] Memory required for data: 1304469024
I0403 15:03:46.342797 11499 layer_factory.hpp:77] Creating layer inception_5a/pool_proj
I0403 15:03:46.342819 11499 net.cpp:91] Creating Layer inception_5a/pool_proj
I0403 15:03:46.342839 11499 net.cpp:425] inception_5a/pool_proj <- inception_5a/pool
I0403 15:03:46.342861 11499 net.cpp:399] inception_5a/pool_proj -> inception_5a/pool_proj
I0403 15:03:46.345247 11499 net.cpp:141] Setting up inception_5a/pool_proj
I0403 15:03:46.345278 11499 net.cpp:148] Top shape: 24 128 7 7 (150528)
I0403 15:03:46.345296 11499 net.cpp:156] Memory required for data: 1305071136
I0403 15:03:46.345314 11499 layer_factory.hpp:77] Creating layer inception_5a/relu_pool_proj
I0403 15:03:46.345336 11499 net.cpp:91] Creating Layer inception_5a/relu_pool_proj
I0403 15:03:46.345355 11499 net.cpp:425] inception_5a/relu_pool_proj <- inception_5a/pool_proj
I0403 15:03:46.345373 11499 net.cpp:386] inception_5a/relu_pool_proj -> inception_5a/pool_proj (in-place)
I0403 15:03:46.345679 11499 net.cpp:141] Setting up inception_5a/relu_pool_proj
I0403 15:03:46.345706 11499 net.cpp:148] Top shape: 24 128 7 7 (150528)
I0403 15:03:46.345722 11499 net.cpp:156] Memory required for data: 1305673248
I0403 15:03:46.345737 11499 layer_factory.hpp:77] Creating layer inception_5a/output
I0403 15:03:46.345757 11499 net.cpp:91] Creating Layer inception_5a/output
I0403 15:03:46.345774 11499 net.cpp:425] inception_5a/output <- inception_5a/1x1
I0403 15:03:46.345793 11499 net.cpp:425] inception_5a/output <- inception_5a/3x3
I0403 15:03:46.345808 11499 net.cpp:425] inception_5a/output <- inception_5a/5x5
I0403 15:03:46.345825 11499 net.cpp:425] inception_5a/output <- inception_5a/pool_proj
I0403 15:03:46.345842 11499 net.cpp:399] inception_5a/output -> inception_5a/output
I0403 15:03:46.345897 11499 net.cpp:141] Setting up inception_5a/output
I0403 15:03:46.345923 11499 net.cpp:148] Top shape: 24 832 7 7 (978432)
I0403 15:03:46.345938 11499 net.cpp:156] Memory required for data: 1309586976
I0403 15:03:46.345953 11499 layer_factory.hpp:77] Creating layer inception_5a/output_inception_5a/output_0_split
I0403 15:03:46.345970 11499 net.cpp:91] Creating Layer inception_5a/output_inception_5a/output_0_split
I0403 15:03:46.345988 11499 net.cpp:425] inception_5a/output_inception_5a/output_0_split <- inception_5a/output
I0403 15:03:46.346006 11499 net.cpp:399] inception_5a/output_inception_5a/output_0_split -> inception_5a/output_inception_5a/output_0_split_0
I0403 15:03:46.346029 11499 net.cpp:399] inception_5a/output_inception_5a/output_0_split -> inception_5a/output_inception_5a/output_0_split_1
I0403 15:03:46.346050 11499 net.cpp:399] inception_5a/output_inception_5a/output_0_split -> inception_5a/output_inception_5a/output_0_split_2
I0403 15:03:46.346071 11499 net.cpp:399] inception_5a/output_inception_5a/output_0_split -> inception_5a/output_inception_5a/output_0_split_3
I0403 15:03:46.346200 11499 net.cpp:141] Setting up inception_5a/output_inception_5a/output_0_split
I0403 15:03:46.346226 11499 net.cpp:148] Top shape: 24 832 7 7 (978432)
I0403 15:03:46.346243 11499 net.cpp:148] Top shape: 24 832 7 7 (978432)
I0403 15:03:46.346259 11499 net.cpp:148] Top shape: 24 832 7 7 (978432)
I0403 15:03:46.346276 11499 net.cpp:148] Top shape: 24 832 7 7 (978432)
I0403 15:03:46.346290 11499 net.cpp:156] Memory required for data: 1325241888
I0403 15:03:46.346305 11499 layer_factory.hpp:77] Creating layer inception_5b/1x1
I0403 15:03:46.346328 11499 net.cpp:91] Creating Layer inception_5b/1x1
I0403 15:03:46.346348 11499 net.cpp:425] inception_5b/1x1 <- inception_5a/output_inception_5a/output_0_split_0
I0403 15:03:46.346369 11499 net.cpp:399] inception_5b/1x1 -> inception_5b/1x1
I0403 15:03:46.350266 11499 net.cpp:141] Setting up inception_5b/1x1
I0403 15:03:46.350296 11499 net.cpp:148] Top shape: 24 384 7 7 (451584)
I0403 15:03:46.350311 11499 net.cpp:156] Memory required for data: 1327048224
I0403 15:03:46.350330 11499 layer_factory.hpp:77] Creating layer inception_5b/relu_1x1
I0403 15:03:46.350352 11499 net.cpp:91] Creating Layer inception_5b/relu_1x1
I0403 15:03:46.350369 11499 net.cpp:425] inception_5b/relu_1x1 <- inception_5b/1x1
I0403 15:03:46.350386 11499 net.cpp:386] inception_5b/relu_1x1 -> inception_5b/1x1 (in-place)
I0403 15:03:46.350690 11499 net.cpp:141] Setting up inception_5b/relu_1x1
I0403 15:03:46.350718 11499 net.cpp:148] Top shape: 24 384 7 7 (451584)
I0403 15:03:46.350733 11499 net.cpp:156] Memory required for data: 1328854560
I0403 15:03:46.350747 11499 layer_factory.hpp:77] Creating layer inception_5b/3x3_reduce
I0403 15:03:46.350770 11499 net.cpp:91] Creating Layer inception_5b/3x3_reduce
I0403 15:03:46.350788 11499 net.cpp:425] inception_5b/3x3_reduce <- inception_5a/output_inception_5a/output_0_split_1
I0403 15:03:46.350810 11499 net.cpp:399] inception_5b/3x3_reduce -> inception_5b/3x3_reduce
I0403 15:03:46.353524 11499 net.cpp:141] Setting up inception_5b/3x3_reduce
I0403 15:03:46.353555 11499 net.cpp:148] Top shape: 24 192 7 7 (225792)
I0403 15:03:46.353571 11499 net.cpp:156] Memory required for data: 1329757728
I0403 15:03:46.353590 11499 layer_factory.hpp:77] Creating layer inception_5b/relu_3x3_reduce
I0403 15:03:46.353610 11499 net.cpp:91] Creating Layer inception_5b/relu_3x3_reduce
I0403 15:03:46.353628 11499 net.cpp:425] inception_5b/relu_3x3_reduce <- inception_5b/3x3_reduce
I0403 15:03:46.353647 11499 net.cpp:386] inception_5b/relu_3x3_reduce -> inception_5b/3x3_reduce (in-place)
I0403 15:03:46.353837 11499 net.cpp:141] Setting up inception_5b/relu_3x3_reduce
I0403 15:03:46.353863 11499 net.cpp:148] Top shape: 24 192 7 7 (225792)
I0403 15:03:46.353876 11499 net.cpp:156] Memory required for data: 1330660896
I0403 15:03:46.353891 11499 layer_factory.hpp:77] Creating layer inception_5b/3x3
I0403 15:03:46.353914 11499 net.cpp:91] Creating Layer inception_5b/3x3
I0403 15:03:46.353931 11499 net.cpp:425] inception_5b/3x3 <- inception_5b/3x3_reduce
I0403 15:03:46.353955 11499 net.cpp:399] inception_5b/3x3 -> inception_5b/3x3
I0403 15:03:46.360739 11499 net.cpp:141] Setting up inception_5b/3x3
I0403 15:03:46.360770 11499 net.cpp:148] Top shape: 24 384 7 7 (451584)
I0403 15:03:46.360786 11499 net.cpp:156] Memory required for data: 1332467232
I0403 15:03:46.360805 11499 layer_factory.hpp:77] Creating layer inception_5b/relu_3x3
I0403 15:03:46.360824 11499 net.cpp:91] Creating Layer inception_5b/relu_3x3
I0403 15:03:46.360841 11499 net.cpp:425] inception_5b/relu_3x3 <- inception_5b/3x3
I0403 15:03:46.360858 11499 net.cpp:386] inception_5b/relu_3x3 -> inception_5b/3x3 (in-place)
I0403 15:03:46.361165 11499 net.cpp:141] Setting up inception_5b/relu_3x3
I0403 15:03:46.361192 11499 net.cpp:148] Top shape: 24 384 7 7 (451584)
I0403 15:03:46.361207 11499 net.cpp:156] Memory required for data: 1334273568
I0403 15:03:46.361222 11499 layer_factory.hpp:77] Creating layer inception_5b/5x5_reduce
I0403 15:03:46.361268 11499 net.cpp:91] Creating Layer inception_5b/5x5_reduce
I0403 15:03:46.361287 11499 net.cpp:425] inception_5b/5x5_reduce <- inception_5a/output_inception_5a/output_0_split_2
I0403 15:03:46.361306 11499 net.cpp:399] inception_5b/5x5_reduce -> inception_5b/5x5_reduce
I0403 15:03:46.362586 11499 net.cpp:141] Setting up inception_5b/5x5_reduce
I0403 15:03:46.362618 11499 net.cpp:148] Top shape: 24 48 7 7 (56448)
I0403 15:03:46.362634 11499 net.cpp:156] Memory required for data: 1334499360
I0403 15:03:46.362653 11499 layer_factory.hpp:77] Creating layer inception_5b/relu_5x5_reduce
I0403 15:03:46.362670 11499 net.cpp:91] Creating Layer inception_5b/relu_5x5_reduce
I0403 15:03:46.362687 11499 net.cpp:425] inception_5b/relu_5x5_reduce <- inception_5b/5x5_reduce
I0403 15:03:46.362704 11499 net.cpp:386] inception_5b/relu_5x5_reduce -> inception_5b/5x5_reduce (in-place)
I0403 15:03:46.363080 11499 net.cpp:141] Setting up inception_5b/relu_5x5_reduce
I0403 15:03:46.363106 11499 net.cpp:148] Top shape: 24 48 7 7 (56448)
I0403 15:03:46.363122 11499 net.cpp:156] Memory required for data: 1334725152
I0403 15:03:46.363145 11499 layer_factory.hpp:77] Creating layer inception_5b/5x5
I0403 15:03:46.363179 11499 net.cpp:91] Creating Layer inception_5b/5x5
I0403 15:03:46.363198 11499 net.cpp:425] inception_5b/5x5 <- inception_5b/5x5_reduce
I0403 15:03:46.363217 11499 net.cpp:399] inception_5b/5x5 -> inception_5b/5x5
I0403 15:03:46.365355 11499 net.cpp:141] Setting up inception_5b/5x5
I0403 15:03:46.365384 11499 net.cpp:148] Top shape: 24 128 7 7 (150528)
I0403 15:03:46.365401 11499 net.cpp:156] Memory required for data: 1335327264
I0403 15:03:46.365419 11499 layer_factory.hpp:77] Creating layer inception_5b/relu_5x5
I0403 15:03:46.365437 11499 net.cpp:91] Creating Layer inception_5b/relu_5x5
I0403 15:03:46.365454 11499 net.cpp:425] inception_5b/relu_5x5 <- inception_5b/5x5
I0403 15:03:46.365473 11499 net.cpp:386] inception_5b/relu_5x5 -> inception_5b/5x5 (in-place)
I0403 15:03:46.365669 11499 net.cpp:141] Setting up inception_5b/relu_5x5
I0403 15:03:46.365694 11499 net.cpp:148] Top shape: 24 128 7 7 (150528)
I0403 15:03:46.365708 11499 net.cpp:156] Memory required for data: 1335929376
I0403 15:03:46.365723 11499 layer_factory.hpp:77] Creating layer inception_5b/pool
I0403 15:03:46.365741 11499 net.cpp:91] Creating Layer inception_5b/pool
I0403 15:03:46.365757 11499 net.cpp:425] inception_5b/pool <- inception_5a/output_inception_5a/output_0_split_3
I0403 15:03:46.365780 11499 net.cpp:399] inception_5b/pool -> inception_5b/pool
I0403 15:03:46.365854 11499 net.cpp:141] Setting up inception_5b/pool
I0403 15:03:46.365880 11499 net.cpp:148] Top shape: 24 832 7 7 (978432)
I0403 15:03:46.365893 11499 net.cpp:156] Memory required for data: 1339843104
I0403 15:03:46.365908 11499 layer_factory.hpp:77] Creating layer inception_5b/pool_proj
I0403 15:03:46.365932 11499 net.cpp:91] Creating Layer inception_5b/pool_proj
I0403 15:03:46.365949 11499 net.cpp:425] inception_5b/pool_proj <- inception_5b/pool
I0403 15:03:46.365967 11499 net.cpp:399] inception_5b/pool_proj -> inception_5b/pool_proj
I0403 15:03:46.368329 11499 net.cpp:141] Setting up inception_5b/pool_proj
I0403 15:03:46.368360 11499 net.cpp:148] Top shape: 24 128 7 7 (150528)
I0403 15:03:46.368377 11499 net.cpp:156] Memory required for data: 1340445216
I0403 15:03:46.368396 11499 layer_factory.hpp:77] Creating layer inception_5b/relu_pool_proj
I0403 15:03:46.368415 11499 net.cpp:91] Creating Layer inception_5b/relu_pool_proj
I0403 15:03:46.368432 11499 net.cpp:425] inception_5b/relu_pool_proj <- inception_5b/pool_proj
I0403 15:03:46.368450 11499 net.cpp:386] inception_5b/relu_pool_proj -> inception_5b/pool_proj (in-place)
I0403 15:03:46.368749 11499 net.cpp:141] Setting up inception_5b/relu_pool_proj
I0403 15:03:46.368778 11499 net.cpp:148] Top shape: 24 128 7 7 (150528)
I0403 15:03:46.368793 11499 net.cpp:156] Memory required for data: 1341047328
I0403 15:03:46.368811 11499 layer_factory.hpp:77] Creating layer inception_5b/output
I0403 15:03:46.368829 11499 net.cpp:91] Creating Layer inception_5b/output
I0403 15:03:46.368860 11499 net.cpp:425] inception_5b/output <- inception_5b/1x1
I0403 15:03:46.368880 11499 net.cpp:425] inception_5b/output <- inception_5b/3x3
I0403 15:03:46.368896 11499 net.cpp:425] inception_5b/output <- inception_5b/5x5
I0403 15:03:46.368911 11499 net.cpp:425] inception_5b/output <- inception_5b/pool_proj
I0403 15:03:46.368929 11499 net.cpp:399] inception_5b/output -> inception_5b/output
I0403 15:03:46.368983 11499 net.cpp:141] Setting up inception_5b/output
I0403 15:03:46.369007 11499 net.cpp:148] Top shape: 24 1024 7 7 (1204224)
I0403 15:03:46.369022 11499 net.cpp:156] Memory required for data: 1345864224
I0403 15:03:46.369037 11499 layer_factory.hpp:77] Creating layer pool5/7x7_s1
I0403 15:03:46.369056 11499 net.cpp:91] Creating Layer pool5/7x7_s1
I0403 15:03:46.369073 11499 net.cpp:425] pool5/7x7_s1 <- inception_5b/output
I0403 15:03:46.369091 11499 net.cpp:399] pool5/7x7_s1 -> pool5/7x7_s1
I0403 15:03:46.369318 11499 net.cpp:141] Setting up pool5/7x7_s1
I0403 15:03:46.369345 11499 net.cpp:148] Top shape: 24 1024 1 1 (24576)
I0403 15:03:46.369360 11499 net.cpp:156] Memory required for data: 1345962528
I0403 15:03:46.369375 11499 layer_factory.hpp:77] Creating layer pool5/drop_7x7_s1
I0403 15:03:46.369393 11499 net.cpp:91] Creating Layer pool5/drop_7x7_s1
I0403 15:03:46.369410 11499 net.cpp:425] pool5/drop_7x7_s1 <- pool5/7x7_s1
I0403 15:03:46.369427 11499 net.cpp:386] pool5/drop_7x7_s1 -> pool5/7x7_s1 (in-place)
I0403 15:03:46.369480 11499 net.cpp:141] Setting up pool5/drop_7x7_s1
I0403 15:03:46.369504 11499 net.cpp:148] Top shape: 24 1024 1 1 (24576)
I0403 15:03:46.369519 11499 net.cpp:156] Memory required for data: 1346060832
I0403 15:03:46.369532 11499 layer_factory.hpp:77] Creating layer loss3/classifier_plantvillage
I0403 15:03:46.369554 11499 net.cpp:91] Creating Layer loss3/classifier_plantvillage
I0403 15:03:46.369571 11499 net.cpp:425] loss3/classifier_plantvillage <- pool5/7x7_s1
I0403 15:03:46.369590 11499 net.cpp:399] loss3/classifier_plantvillage -> loss3/classifier_plantvillage
I0403 15:03:46.370018 11499 net.cpp:141] Setting up loss3/classifier_plantvillage
I0403 15:03:46.370043 11499 net.cpp:148] Top shape: 24 38 (912)
I0403 15:03:46.370056 11499 net.cpp:156] Memory required for data: 1346064480
I0403 15:03:46.370074 11499 layer_factory.hpp:77] Creating layer loss3/classifier_plantvillage_loss3/classifier_plantvillage_0_split
I0403 15:03:46.370092 11499 net.cpp:91] Creating Layer loss3/classifier_plantvillage_loss3/classifier_plantvillage_0_split
I0403 15:03:46.370108 11499 net.cpp:425] loss3/classifier_plantvillage_loss3/classifier_plantvillage_0_split <- loss3/classifier_plantvillage
I0403 15:03:46.370136 11499 net.cpp:399] loss3/classifier_plantvillage_loss3/classifier_plantvillage_0_split -> loss3/classifier_plantvillage_loss3/classifier_plantvillage_0_split_0
I0403 15:03:46.370159 11499 net.cpp:399] loss3/classifier_plantvillage_loss3/classifier_plantvillage_0_split -> loss3/classifier_plantvillage_loss3/classifier_plantvillage_0_split_1
I0403 15:03:46.370182 11499 net.cpp:399] loss3/classifier_plantvillage_loss3/classifier_plantvillage_0_split -> loss3/classifier_plantvillage_loss3/classifier_plantvillage_0_split_2
I0403 15:03:46.370203 11499 net.cpp:399] loss3/classifier_plantvillage_loss3/classifier_plantvillage_0_split -> loss3/classifier_plantvillage_loss3/classifier_plantvillage_0_split_3
I0403 15:03:46.370307 11499 net.cpp:141] Setting up loss3/classifier_plantvillage_loss3/classifier_plantvillage_0_split
I0403 15:03:46.370332 11499 net.cpp:148] Top shape: 24 38 (912)
I0403 15:03:46.370347 11499 net.cpp:148] Top shape: 24 38 (912)
I0403 15:03:46.370363 11499 net.cpp:148] Top shape: 24 38 (912)
I0403 15:03:46.370378 11499 net.cpp:148] Top shape: 24 38 (912)
I0403 15:03:46.370393 11499 net.cpp:156] Memory required for data: 1346079072
I0403 15:03:46.370406 11499 layer_factory.hpp:77] Creating layer loss1/loss
I0403 15:03:46.370427 11499 net.cpp:91] Creating Layer loss1/loss
I0403 15:03:46.370445 11499 net.cpp:425] loss1/loss <- loss1/classifier_plantvillage_loss1/classifier_plantvillage_0_split_0
I0403 15:03:46.370478 11499 net.cpp:425] loss1/loss <- label_data_1_split_0
…
