…
I0403 15:00:55.829514 11431 net.cpp:313] The NetState phase (1) differed from the phase (0) specified by a rule in layer data
I0403 15:00:55.830718 11431 net.cpp:49] Initializing net from parameters: 
state {
  phase: TEST
}
layer {
  name: "data"
  type: "Data"
  top: "data"
  top: "label"
  include {
    phase: TEST
  }
  transform_param {
    mirror: false
    crop_size: 224
    mean_file: "/home/mohanty/data/final_dataset/lmdb/grayscale-60-40/mean.binaryproto"
  }
  data_param {
    source: "/home/mohanty/data/final_dataset/lmdb/grayscale-60-40/test_db"
    batch_size: 24
    backend: LMDB
  }
}
layer {
  name: "conv1/7x7_s2"
  type: "Convolution"
  bottom: "data"
  top: "conv1/7x7_s2"
  param {
    lr_mult: 1
    decay_mult: 1
  }
  param {
    lr_mult: 2
    decay_mult: 0
  }
  convolution_param {
    num_output: 64
    pad: 3
    kernel_size: 7
    stride: 2
    weight_filler {
      type: "xavier"
      std: 0.1
    }
    bias_filler {
      type: "constant"
      value: 0.2
    }
  }
}
layer {
  name: "conv1/relu_7x7"
  type: "ReLU"
  bottom: "conv1/7x7_s2"
  top: "conv1/7x7_s2"
}
layer {
  name: "pool1/3x3_s2"
  type: "Pooling"
  bottom: "conv1/7x7_s2"
  top: "pool1/3x3_s2"
  pooling_param {
    pool: MAX
    kernel_size: 3
    stride: 2
  }
}
layer {
  name: "pool1/norm1"
  type: "LRN"
  bottom: "pool1/3x3_s2"
  top: "pool1/norm1"
  lrn_param {
    local_size: 5
    alpha: 0.0001
    beta: 0.75
  }
}
layer {
  name: "conv2/3x3_reduce"
  type: "Convolution"
  bottom: "pool1/norm1"
  top: "conv2/3x3_reduce"
  param {
    lr_mult: 1
    decay_mult: 1
  }
  param {
    lr_mult: 2
    decay_mult: 0
  }
  convolution_param {
    num_output: 64
    kernel_size: 1
    weight_filler {
      type: "xavier"
      std: 0.1
    }
    bias_filler {
      type: "constant"
      value: 0.2
    }
  }
}
layer {
  name: "conv2/relu_3x3_reduce"
  type: "ReLU"
  bottom: "conv2/3x3_reduce"
  top: "conv2/3x3_reduce"
}
layer {
  name: "conv2/3x3"
  type: "Convolution"
  bottom: "conv2/3x3_reduce"
  top: "conv2/3x3"
  param {
    lr_mult: 1
    decay_mult: 1
  }
  param {
    lr_mult: 2
    decay_mult: 0
  }
  convolution_param {
    num_output: 192
    pad: 1
    kernel_size: 3
    weight_filler {
      type: "xavier"
      std: 0.03
    }
    bias_filler {
      type: "constant"
      value: 0.2
    }
  }
}
layer {
  name: "conv2/relu_3x3"
  type: "ReLU"
  bottom: "conv2/3x3"
  top: "conv2/3x3"
}
layer {
  name: "conv2/norm2"
  type: "LRN"
  bottom: "conv2/3x3"
  top: "conv2/norm2"
  lrn_param {
    local_size: 5
    alpha: 0.0001
    beta: 0.75
  }
}
layer {
  name: "pool2/3x3_s2"
  type: "Pooling"
  bottom: "conv2/norm2"
  top: "pool2/3x3_s2"
  pooling_param {
    pool: MAX
    kernel_size: 3
    stride: 2
  }
}
layer {
  name: "inception_3a/1x1"
  type: "Convolution"
  bottom: "pool2/3x3_s2"
  top: "inception_3a/1x1"
  param {
    lr_mult: 1
    decay_mult: 1
  }
  param {
    lr_mult: 2
    decay_mult: 0
  }
  convolution_param {
    num_output: 64
    kernel_size: 1
    weight_filler {
      type: "xavier"
      std: 0.03
    }
    bias_filler {
      type: "constant"
      value: 0.2
    }
  }
}
layer {
  name: "inception_3a/relu_1x1"
  type: "ReLU"
  bottom: "inception_3a/1x1"
  top: "inception_3a/1x1"
}
layer {
  name: "inception_3a/3x3_reduce"
  type: "Convolution"
  bottom: "pool2/3x3_s2"
  top: "inception_3a/3x3_reduce"
  param {
    lr_mult: 1
    decay_mult: 1
  }
  param {
    lr_mult: 2
    decay_mult: 0
  }
  convolution_param {
    num_output: 96
    kernel_size: 1
    weight_filler {
      type: "xavier"
      std: 0.09
    }
    bias_filler {
      type: "constant"
      value: 0.2
    }
  }
}
layer {
  name: "inception_3a/relu_3x3_reduce"
  type: "ReLU"
  bottom: "inception_3a/3x3_reduce"
  top: "inception_3a/3x3_reduce"
}
layer {
  name: "inception_3a/3x3"
  type: "Convolution"
  bottom: "inception_3a/3x3_reduce"
  top: "inception_3a/3x3"
  param {
    lr_mult: 1
    decay_mult: 1
  }
  param {
    lr_mult: 2
    decay_mult: 0
  }
  convolution_param {
    num_output: 128
    pad: 1
    kernel_size: 3
    weight_filler {
      type: "xavier"
      std: 0.03
    }
    bias_filler {
      type: "constant"
      value: 0.2
    }
  }
}
layer {
  name: "inception_3a/relu_3x3"
  type: "ReLU"
  bottom: "inception_3a/3x3"
  top: "inception_3a/3x3"
}
layer {
  name: "inception_3a/5x5_reduce"
  type: "Convolution"
  bottom: "pool2/3x3_s2"
  top: "inception_3a/5x5_reduce"
  param {
    lr_mult: 1
    decay_mult: 1
  }
  param {
    lr_mult: 2
    decay_mult: 0
  }
  convolution_param {
    num_output: 16
    kernel_size: 1
    weight_filler {
      type: "xavier"
      std: 0.2
    }
    bias_filler {
      type: "constant"
      value: 0.2
    }
  }
}
layer {
  name: "inception_3a/relu_5x5_reduce"
  type: "ReLU"
  bottom: "inception_3a/5x5_reduce"
  top: "inception_3a/5x5_reduce"
}
layer {
  name: "inception_3a/5x5"
  type: "Convolution"
  bottom: "inception_3a/5x5_reduce"
  top: "inception_3a/5x5"
  param {
    lr_mult: 1
    decay_mult: 1
  }
  param {
    lr_mult: 2
    decay_mult: 0
  }
  convolution_param {
    num_output: 32
    pad: 2
    kernel_size: 5
    weight_filler {
      type: "xavier"
      std: 0.03
    }
    bias_filler {
      type: "constant"
      value: 0.2
    }
  }
}
layer {
  name: "inception_3a/relu_5x5"
  type: "ReLU"
  bottom: "inception_3a/5x5"
  top: "inception_3a/5x5"
}
layer {
  name: "inception_3a/pool"
  type: "Pooling"
  bottom: "pool2/3x3_s2"
  top: "inception_3a/pool"
  pooling_param {
    pool: MAX
    kernel_size: 3
    stride: 1
    pad: 1
  }
}
layer {
  name: "inception_3a/pool_proj"
  type: "Convolution"
  bottom: "inception_3a/pool"
  top: "inception_3a/pool_proj"
  param {
    lr_mult: 1
    decay_mult: 1
  }
  param {
    lr_mult: 2
    decay_mult: 0
  }
  convolution_param {
    num_output: 32
    kernel_size: 1
    weight_filler {
      type: "xavier"
      std: 0.1
    }
    bias_filler {
      type: "constant"
      value: 0.2
    }
  }
}
layer {
  name: "inception_3a/relu_pool_proj"
  type: "ReLU"
  bottom: "inception_3a/pool_proj"
  top: "inception_3a/pool_proj"
}
layer {
  name: "inception_3a/output"
  type: "Concat"
  bottom: "inception_3a/1x1"
  bottom: "inception_3a/3x3"
  bottom: "inception_3a/5x5"
  bottom: "inception_3a/pool_proj"
  top: "inception_3a/output"
}
layer {
  name: "inception_3b/1x1"
  type: "Convolution"
  bottom: "inception_3a/output"
  top: "inception_3b/1x1"
  param {
    lr_mult: 1
    decay_mult: 1
  }
  param {
    lr_mult: 2
    decay_mult: 0
  }
  convolution_param {
    num_output: 128
    kernel_size: 1
    weight_filler {
      type: "xavier"
      std: 0.03
    }
    bias_filler {
      type: "constant"
      value: 0.2
    }
  }
}
layer {
  name: "inception_3b/relu_1x1"
  type: "ReLU"
  bottom: "inception_3b/1x1"
  top: "inception_3b/1x1"
}
layer {
  name: "inception_3b/3x3_reduce"
  type: "Convolution"
  bottom: "inception_3a/output"
  top: "inception_3b/3x3_reduce"
  param {
    lr_mult: 1
    decay_mult: 1
  }
  param {
    lr_mult: 2
    decay_mult: 0
  }
  convolution_param {
    num_output: 128
    kernel_size: 1
    weight_filler {
      type: "xavier"
      std: 0.09
    }
    bias_filler {
      type: "constant"
      value: 0.2
    }
  }
}
layer {
  name: "inception_3b/relu_3x3_reduce"
  type: "ReLU"
  bottom: "inception_3b/3x3_reduce"
  top: "inception_3b/3x3_reduce"
}
layer {
  name: "inception_3b/3x3"
  type: "Convolution"
  bottom: "inception_3b/3x3_reduce"
  top: "inception_3b/3x3"
  param {
    lr_mult: 1
    decay_mult: 1
  }
  param {
    lr_mult: 2
    decay_mult: 0
  }
  convolution_param {
    num_output: 192
    pad: 1
    kernel_size: 3
    weight_filler {
      type: "xavier"
      std: 0.03
    }
    bias_filler {
      type: "constant"
      value: 0.2
    }
  }
}
layer {
  name: "inception_3b/relu_3x3"
  type: "ReLU"
  bottom: "inception_3b/3x3"
  top: "inception_3b/3x3"
}
layer {
  name: "inception_3b/5x5_reduce"
  type: "Convolution"
  bottom: "inception_3a/output"
  top: "inception_3b/5x5_reduce"
  param {
    lr_mult: 1
    decay_mult: 1
  }
  param {
    lr_mult: 2
    decay_mult: 0
  }
  convolution_param {
    num_output: 32
    kernel_size: 1
    weight_filler {
      type: "xavier"
      std: 0.2
    }
    bias_filler {
      type: "constant"
      value: 0.2
    }
  }
}
layer {
  name: "inception_3b/relu_5x5_reduce"
  type: "ReLU"
  bottom: "inception_3b/5x5_reduce"
  top: "inception_3b/5x5_reduce"
}
layer {
  name: "inception_3b/5x5"
  type: "Convolution"
  bottom: "inception_3b/5x5_reduce"
  top: "inception_3b/5x5"
  param {
    lr_mult: 1
    decay_mult: 1
  }
  param {
    lr_mult: 2
    decay_mult: 0
  }
  convolution_param {
    num_output: 96
    pad: 2
    kernel_size: 5
    weight_filler {
      type: "xavier"
      std: 0.03
    }
    bias_filler {
      type: "constant"
      value: 0.2
    }
  }
}
layer {
  name: "inception_3b/relu_5x5"
  type: "ReLU"
  bottom: "inception_3b/5x5"
  top: "inception_3b/5x5"
}
layer {
  name: "inception_3b/pool"
  type: "Pooling"
  bottom: "inception_3a/output"
  top: "inception_3b/pool"
  pooling_param {
    pool: MAX
    kernel_size: 3
    stride: 1
    pad: 1
  }
}
layer {
  name: "inception_3b/pool_proj"
  type: "Convolution"
  bottom: "inception_3b/pool"
  top: "inception_3b/pool_proj"
  param {
    lr_mult: 1
    decay_mult: 1
  }
  param {
    lr_mult: 2
    decay_mult: 0
  }
  convolution_param {
    num_output: 64
    kernel_size: 1
    weight_filler {
      type: "xavier"
      std: 0.1
    }
    bias_filler {
      type: "constant"
      value: 0.2
    }
  }
}
layer {
  name: "inception_3b/relu_pool_proj"
  type: "ReLU"
  bottom: "inception_3b/pool_proj"
  top: "inception_3b/pool_proj"
}
layer {
  name: "inception_3b/output"
  type: "Concat"
  bottom: "inception_3b/1x1"
  bottom: "inception_3b/3x3"
  bottom: "inception_3b/5x5"
  bottom: "inception_3b/pool_proj"
  top: "inception_3b/output"
}
layer {
  name: "pool3/3x3_s2"
  type: "Pooling"
  bottom: "inception_3b/output"
  top: "pool3/3x3_s2"
  pooling_param {
    pool: MAX
    kernel_size: 3
    stride: 2
  }
}
layer {
  name: "inception_4a/1x1"
  type: "Convolution"
  bottom: "pool3/3x3_s2"
  top: "inception_4a/1x1"
  param {
    lr_mult: 1
    decay_mult: 1
  }
  param {
    lr_mult: 2
    decay_mult: 0
  }
  convolution_param {
    num_output: 192
    kernel_size: 1
    weight_filler {
      type: "xavier"
      std: 0.03
    }
    bias_filler {
      type: "constant"
      value: 0.2
    }
  }
}
layer {
  name: "inception_4a/relu_1x1"
  type: "ReLU"
  bottom: "inception_4a/1x1"
  top: "inception_4a/1x1"
}
layer {
  name: "inception_4a/3x3_reduce"
  type: "Convolution"
  bottom: "pool3/3x3_s2"
  top: "inception_4a/3x3_reduce"
  param {
    lr_mult: 1
    decay_mult: 1
  }
  param {
    lr_mult: 2
    decay_mult: 0
  }
  convolution_param {
    num_output: 96
    kernel_size: 1
    weight_filler {
      type: "xavier"
      std: 0.09
    }
    bias_filler {
      type: "constant"
      value: 0.2
    }
  }
}
layer {
  name: "inception_4a/relu_3x3_reduce"
  type: "ReLU"
  bottom: "inception_4a/3x3_reduce"
  top: "inception_4a/3x3_reduce"
}
layer {
  name: "inception_4a/3x3"
  type: "Convolution"
  bottom: "inception_4a/3x3_reduce"
  top: "inception_4a/3x3"
  param {
    lr_mult: 1
    decay_mult: 1
  }
  param {
    lr_mult: 2
    decay_mult: 0
  }
  convolution_param {
    num_output: 208
    pad: 1
    kernel_size: 3
    weight_filler {
      type: "xavier"
      std: 0.03
    }
    bias_filler {
      type: "constant"
      value: 0.2
    }
  }
}
layer {
  name: "inception_4a/relu_3x3"
  type: "ReLU"
  bottom: "inception_4a/3x3"
  top: "inception_4a/3x3"
}
layer {
  name: "inception_4a/5x5_reduce"
  type: "Convolution"
  bottom: "pool3/3x3_s2"
  top: "inception_4a/5x5_reduce"
  param {
    lr_mult: 1
    decay_mult: 1
  }
  param {
    lr_mult: 2
    decay_mult: 0
  }
  convolution_param {
    num_output: 16
    kernel_size: 1
    weight_filler {
      type: "xavier"
      std: 0.2
    }
    bias_filler {
      type: "constant"
      value: 0.2
    }
  }
}
layer {
  name: "inception_4a/relu_5x5_reduce"
  type: "ReLU"
  bottom: "inception_4a/5x5_reduce"
  top: "inception_4a/5x5_reduce"
}
layer {
  name: "inception_4a/5x5"
  type: "Convolution"
  bottom: "inception_4a/5x5_reduce"
  top: "inception_4a/5x5"
  param {
    lr_mult: 1
    decay_mult: 1
  }
  param {
    lr_mult: 2
    decay_mult: 0
  }
  convolution_param {
    num_output: 48
    pad: 2
    kernel_size: 5
    weight_filler {
      type: "xavier"
      std: 0.03
    }
    bias_filler {
      type: "constant"
      value: 0.2
    }
  }
}
layer {
  name: "inception_4a/relu_5x5"
  type: "ReLU"
  bottom: "inception_4a/5x5"
  top: "inception_4a/5x5"
}
layer {
  name: "inception_4a/pool"
  type: "Pooling"
  bottom: "pool3/3x3_s2"
  top: "inception_4a/pool"
  pooling_param {
    pool: MAX
    kernel_size: 3
    stride: 1
    pad: 1
  }
}
layer {
  name: "inception_4a/pool_proj"
  type: "Convolution"
  bottom: "inception_4a/pool"
  top: "inception_4a/pool_proj"
  param {
    lr_mult: 1
    decay_mult: 1
  }
  param {
    lr_mult: 2
    decay_mult: 0
  }
  convolution_param {
    num_output: 64
    kernel_size: 1
    weight_filler {
      type: "xavier"
      std: 0.1
    }
    bias_filler {
      type: "constant"
      value: 0.2
    }
  }
}
layer {
  name: "inception_4a/relu_pool_proj"
  type: "ReLU"
  bottom: "inception_4a/pool_proj"
  top: "inception_4a/pool_proj"
}
layer {
  name: "inception_4a/output"
  type: "Concat"
  bottom: "inception_4a/1x1"
  bottom: "inception_4a/3x3"
  bottom: "inception_4a/5x5"
  bottom: "inception_4a/pool_proj"
  top: "inception_4a/output"
}
layer {
  name: "loss1/ave_pool"
  type: "Pooling"
  bottom: "inception_4a/output"
  top: "loss1/ave_pool"
  pooling_param {
    pool: AVE
    kernel_size: 5
    stride: 3
  }
}
layer {
  name: "loss1/conv"
  type: "Convolution"
  bottom: "loss1/ave_pool"
  top: "loss1/conv"
  param {
    lr_mult: 1
    decay_mult: 1
  }
  param {
    lr_mult: 2
    decay_mult: 0
  }
  convolution_param {
    num_output: 128
    kernel_size: 1
    weight_filler {
      type: "xavier"
      std: 0.08
    }
    bias_filler {
      type: "constant"
      value: 0.2
    }
  }
}
layer {
  name: "loss1/relu_conv"
  type: "ReLU"
  bottom: "loss1/conv"
  top: "loss1/conv"
}
layer {
  name: "loss1/fc"
  type: "InnerProduct"
  bottom: "loss1/conv"
  top: "loss1/fc"
  param {
    lr_mult: 1
    decay_mult: 1
  }
  param {
    lr_mult: 2
    decay_mult: 0
  }
  inner_product_param {
    num_output: 1024
    weight_filler {
      type: "xavier"
      std: 0.02
    }
    bias_filler {
      type: "constant"
      value: 0.2
    }
  }
}
layer {
  name: "loss1/relu_fc"
  type: "ReLU"
  bottom: "loss1/fc"
  top: "loss1/fc"
}
layer {
  name: "loss1/drop_fc"
  type: "Dropout"
  bottom: "loss1/fc"
  top: "loss1/fc"
  dropout_param {
    dropout_ratio: 0.7
  }
}
layer {
  name: "loss1/classifier_plantvillage"
  type: "InnerProduct"
  bottom: "loss1/fc"
  top: "loss1/classifier_plantvillage"
  param {
    lr_mult: 1
    decay_mult: 1
  }
  param {
    lr_mult: 2
    decay_mult: 0
  }
  inner_product_param {
    num_output: 38
    weight_filler {
      type: "xavier"
      std: 0.0009765625
    }
    bias_filler {
      type: "constant"
      value: 0
    }
  }
}
layer {
  name: "inception_4b/1x1"
  type: "Convolution"
  bottom: "inception_4a/output"
  top: "inception_4b/1x1"
  param {
    lr_mult: 1
    decay_mult: 1
  }
  param {
    lr_mult: 2
    decay_mult: 0
  }
  convolution_param {
    num_output: 160
    kernel_size: 1
    weight_filler {
      type: "xavier"
      std: 0.03
    }
    bias_filler {
      type: "constant"
      value: 0.2
    }
  }
}
layer {
  name: "inception_4b/relu_1x1"
  type: "ReLU"
  bottom: "inception_4b/1x1"
  top: "inception_4b/1x1"
}
layer {
  name: "inception_4b/3x3_reduce"
  type: "Convolution"
  bottom: "inception_4a/output"
  top: "inception_4b/3x3_reduce"
  param {
    lr_mult: 1
    decay_mult: 1
  }
  param {
    lr_mult: 2
    decay_mult: 0
  }
  convolution_param {
    num_output: 112
    kernel_size: 1
    weight_filler {
      type: "xavier"
      std: 0.09
    }
    bias_filler {
      type: "constant"
      value: 0.2
    }
  }
}
layer {
  name: "inception_4b/relu_3x3_reduce"
  type: "ReLU"
  bottom: "inception_4b/3x3_reduce"
  top: "inception_4b/3x3_reduce"
}
layer {
  name: "inception_4b/3x3"
  type: "Convolution"
  bottom: "inception_4b/3x3_reduce"
  top: "inception_4b/3x3"
  param {
    lr_mult: 1
    decay_mult: 1
  }
  param {
    lr_mult: 2
    decay_mult: 0
  }
  convolution_param {
    num_output: 224
    pad: 1
    kernel_size: 3
    weight_filler {
      type: "xavier"
      std: 0.03
    }
    bias_filler {
      type: "constant"
      value: 0.2
    }
  }
}
layer {
  name: "inception_4b/relu_3x3"
  type: "ReLU"
  bottom: "inception_4b/3x3"
  top: "inception_4b/3x3"
}
layer {
  name: "inception_4b/5x5_reduce"
  type: "Convolution"
  bottom: "inception_4a/output"
  top: "inception_4b/5x5_reduce"
  param {
    lr_mult: 1
    decay_mult: 1
  }
  param {
    lr_mult: 2
    decay_mult: 0
  }
  convolution_param {
    num_output: 24
    kernel_size: 1
    weight_filler {
      type: "xavier"
      std: 0.2
    }
    bias_filler {
      type: "constant"
      value: 0.2
    }
  }
}
layer {
  name: "inception_4b/relu_5x5_reduce"
  type: "ReLU"
  bottom: "inception_4b/5x5_reduce"
  top: "inception_4b/5x5_reduce"
}
layer {
  name: "inception_4b/5x5"
  type: "Convolution"
  bottom: "inception_4b/5x5_reduce"
  top: "inception_4b/5x5"
  param {
    lr_mult: 1
    decay_mult: 1
  }
  param {
    lr_mult: 2
    decay_mult: 0
  }
  convolution_param {
    num_output: 64
    pad: 2
    kernel_size: 5
    weight_filler {
      type: "xavier"
      std: 0.03
    }
    bias_filler {
      type: "constant"
      value: 0.2
    }
  }
}
layer {
  name: "inception_4b/relu_5x5"
  type: "ReLU"
  bottom: "inception_4b/5x5"
  top: "inception_4b/5x5"
}
layer {
  name: "inception_4b/pool"
  type: "Pooling"
  bottom: "inception_4a/output"
  top: "inception_4b/pool"
  pooling_param {
    pool: MAX
    kernel_size: 3
    stride: 1
    pad: 1
  }
}
layer {
  name: "inception_4b/pool_proj"
  type: "Convolution"
  bottom: "inception_4b/pool"
  top: "inception_4b/pool_proj"
  param {
    lr_mult: 1
    decay_mult: 1
  }
  param {
    lr_mult: 2
    decay_mult: 0
  }
  convolution_param {
    num_output: 64
    kernel_size: 1
    weight_filler {
      type: "xavier"
      std: 0.1
    }
    bias_filler {
      type: "constant"
      value: 0.2
    }
  }
}
layer {
  name: "inception_4b/relu_pool_proj"
  type: "ReLU"
  bottom: "inception_4b/pool_proj"
  top: "inception_4b/pool_proj"
}
layer {
  name: "inception_4b/output"
  type: "Concat"
  bottom: "inception_4b/1x1"
  bottom: "inception_4b/3x3"
  bottom: "inception_4b/5x5"
  bottom: "inception_4b/pool_proj"
  top: "inception_4b/output"
}
layer {
  name: "inception_4c/1x1"
  type: "Convolution"
  bottom: "inception_4b/output"
  top: "inception_4c/1x1"
  param {
    lr_mult: 1
    decay_mult: 1
  }
  param {
    lr_mult: 2
    decay_mult: 0
  }
  convolution_param {
    num_output: 128
    kernel_size: 1
    weight_filler {
      type: "xavier"
      std: 0.03
    }
    bias_filler {
      type: "constant"
      value: 0.2
    }
  }
}
layer {
  name: "inception_4c/relu_1x1"
  type: "ReLU"
  bottom: "inception_4c/1x1"
  top: "inception_4c/1x1"
}
layer {
  name: "inception_4c/3x3_reduce"
  type: "Convolution"
  bottom: "inception_4b/output"
  top: "inception_4c/3x3_reduce"
  param {
    lr_mult: 1
    decay_mult: 1
  }
  param {
    lr_mult: 2
    decay_mult: 0
  }
  convolution_param {
    num_output: 128
    kernel_size: 1
    weight_filler {
      type: "xavier"
      std: 0.09
    }
    bias_filler {
      type: "constant"
      value: 0.2
    }
  }
}
layer {
  name: "inception_4c/relu_3x3_reduce"
  type: "ReLU"
  bottom: "inception_4c/3x3_reduce"
  top: "inception_4c/3x3_reduce"
}
layer {
  name: "inception_4c/3x3"
  type: "Convolution"
  bottom: "inception_4c/3x3_reduce"
  top: "inception_4c/3x3"
  param {
    lr_mult: 1
    decay_mult: 1
  }
  param {
    lr_mult: 2
    decay_mult: 0
  }
  convolution_param {
    num_output: 256
    pad: 1
    kernel_size: 3
    weight_filler {
      type: "xavier"
      std: 0.03
    }
    bias_filler {
      type: "constant"
      value: 0.2
    }
  }
}
layer {
  name: "inception_4c/relu_3x3"
  type: "ReLU"
  bottom: "inception_4c/3x3"
  top: "inception_4c/3x3"
}
layer {
  name: "inception_4c/5x5_reduce"
  type: "Convolution"
  bottom: "inception_4b/output"
  top: "inception_4c/5x5_reduce"
  param {
    lr_mult: 1
    decay_mult: 1
  }
  param {
    lr_mult: 2
    decay_mult: 0
  }
  convolution_param {
    num_output: 24
    kernel_size: 1
    weight_filler {
      type: "xavier"
      std: 0.2
    }
    bias_filler {
      type: "constant"
      value: 0.2
    }
  }
}
layer {
  name: "inception_4c/relu_5x5_reduce"
  type: "ReLU"
  bottom: "inception_4c/5x5_reduce"
  top: "inception_4c/5x5_reduce"
}
layer {
  name: "inception_4c/5x5"
  type: "Convolution"
  bottom: "inception_4c/5x5_reduce"
  top: "inception_4c/5x5"
  param {
    lr_mult: 1
    decay_mult: 1
  }
  param {
    lr_mult: 2
    decay_mult: 0
  }
  convolution_param {
    num_output: 64
    pad: 2
    kernel_size: 5
    weight_filler {
      type: "xavier"
      std: 0.03
    }
    bias_filler {
      type: "constant"
      value: 0.2
    }
  }
}
layer {
  name: "inception_4c/relu_5x5"
  type: "ReLU"
  bottom: "inception_4c/5x5"
  top: "inception_4c/5x5"
}
layer {
  name: "inception_4c/pool"
  type: "Pooling"
  bottom: "inception_4b/output"
  top: "inception_4c/pool"
  pooling_param {
    pool: MAX
    kernel_size: 3
    stride: 1
    pad: 1
  }
}
layer {
  name: "inception_4c/pool_proj"
  type: "Convolution"
  bottom: "inception_4c/pool"
  top: "inception_4c/pool_proj"
  param {
    lr_mult: 1
    decay_mult: 1
  }
  param {
    lr_mult: 2
    decay_mult: 0
  }
  convolution_param {
    num_output: 64
    kernel_size: 1
    weight_filler {
      type: "xavier"
      std: 0.1
    }
    bias_filler {
      type: "constant"
      value: 0.2
    }
  }
}
layer {
  name: "inception_4c/relu_pool_proj"
  type: "ReLU"
  bottom: "inception_4c/pool_proj"
  top: "inception_4c/pool_proj"
}
layer {
  name: "inception_4c/output"
  type: "Concat"
  bottom: "inception_4c/1x1"
  bottom: "inception_4c/3x3"
  bottom: "inception_4c/5x5"
  bottom: "inception_4c/pool_proj"
  top: "inception_4c/output"
}
layer {
  name: "inception_4d/1x1"
  type: "Convolution"
  bottom: "inception_4c/output"
  top: "inception_4d/1x1"
  param {
    lr_mult: 1
    decay_mult: 1
  }
  param {
    lr_mult: 2
    decay_mult: 0
  }
  convolution_param {
    num_output: 112
    kernel_size: 1
    weight_filler {
      type: "xavier"
      std: 0.03
    }
    bias_filler {
      type: "constant"
      value: 0.2
    }
  }
}
layer {
  name: "inception_4d/relu_1x1"
  type: "ReLU"
  bottom: "inception_4d/1x1"
  top: "inception_4d/1x1"
}
layer {
  name: "inception_4d/3x3_reduce"
  type: "Convolution"
  bottom: "inception_4c/output"
  top: "inception_4d/3x3_reduce"
  param {
    lr_mult: 1
    decay_mult: 1
  }
  param {
    lr_mult: 2
    decay_mult: 0
  }
  convolution_param {
    num_output: 144
    kernel_size: 1
    weight_filler {
      type: "xavier"
      std: 0.09
    }
    bias_filler {
      type: "constant"
      value: 0.2
    }
  }
}
layer {
  name: "inception_4d/relu_3x3_reduce"
  type: "ReLU"
  bottom: "inception_4d/3x3_reduce"
  top: "inception_4d/3x3_reduce"
}
layer {
  name: "inception_4d/3x3"
  type: "Convolution"
  bottom: "inception_4d/3x3_reduce"
  top: "inception_4d/3x3"
  param {
    lr_mult: 1
    decay_mult: 1
  }
  param {
    lr_mult: 2
    decay_mult: 0
  }
  convolution_param {
    num_output: 288
    pad: 1
    kernel_size: 3
    weight_filler {
      type: "xavier"
      std: 0.03
    }
    bias_filler {
      type: "constant"
      value: 0.2
    }
  }
}
layer {
  name: "inception_4d/relu_3x3"
  type: "ReLU"
  bottom: "inception_4d/3x3"
  top: "inception_4d/3x3"
}
layer {
  name: "inception_4d/5x5_reduce"
  type: "Convolution"
  bottom: "inception_4c/output"
  top: "inception_4d/5x5_reduce"
  param {
    lr_mult: 1
    decay_mult: 1
  }
  param {
    lr_mult: 2
    decay_mult: 0
  }
  convolution_param {
    num_output: 32
    kernel_size: 1
    weight_filler {
      type: "xavier"
      std: 0.2
    }
    bias_filler {
      type: "constant"
      value: 0.2
    }
  }
}
layer {
  name: "inception_4d/relu_5x5_reduce"
  type: "ReLU"
  bottom: "inception_4d/5x5_reduce"
  top: "inception_4d/5x5_reduce"
}
layer {
  name: "inception_4d/5x5"
  type: "Convolution"
  bottom: "inception_4d/5x5_reduce"
  top: "inception_4d/5x5"
  param {
    lr_mult: 1
    decay_mult: 1
  }
  param {
    lr_mult: 2
    decay_mult: 0
  }
  convolution_param {
    num_output: 64
    pad: 2
    kernel_size: 5
    weight_filler {
      type: "xavier"
      std: 0.03
    }
    bias_filler {
      type: "constant"
      value: 0.2
    }
  }
}
layer {
  name: "inception_4d/relu_5x5"
  type: "ReLU"
  bottom: "inception_4d/5x5"
  top: "inception_4d/5x5"
}
layer {
  name: "inception_4d/pool"
  type: "Pooling"
  bottom: "inception_4c/output"
  top: "inception_4d/pool"
  pooling_param {
    pool: MAX
    kernel_size: 3
    stride: 1
    pad: 1
  }
}
layer {
  name: "inception_4d/pool_proj"
  type: "Convolution"
  bottom: "inception_4d/pool"
  top: "inception_4d/pool_proj"
  param {
    lr_mult: 1
    decay_mult: 1
  }
  param {
    lr_mult: 2
    decay_mult: 0
  }
  convolution_param {
    num_output: 64
    kernel_size: 1
    weight_filler {
      type: "xavier"
      std: 0.1
    }
    bias_filler {
      type: "constant"
      value: 0.2
    }
  }
}
layer {
  name: "inception_4d/relu_pool_proj"
  type: "ReLU"
  bottom: "inception_4d/pool_proj"
  top: "inception_4d/pool_proj"
}
layer {
  name: "inception_4d/output"
  type: "Concat"
  bottom: "inception_4d/1x1"
  bottom: "inception_4d/3x3"
  bottom: "inception_4d/5x5"
  bottom: "inception_4d/pool_proj"
  top: "inception_4d/output"
}
layer {
  name: "loss2/ave_pool"
  type: "Pooling"
  bottom: "inception_4d/output"
  top: "loss2/ave_pool"
  pooling_param {
    pool: AVE
    kernel_size: 5
    stride: 3
  }
}
layer {
  name: "loss2/conv"
  type: "Convolution"
  bottom: "loss2/ave_pool"
  top: "loss2/conv"
  param {
    lr_mult: 1
    decay_mult: 1
  }
  param {
    lr_mult: 2
    decay_mult: 0
  }
  convolution_param {
    num_output: 128
    kernel_size: 1
    weight_filler {
      type: "xavier"
      std: 0.08
    }
    bias_filler {
      type: "constant"
      value: 0.2
    }
  }
}
layer {
  name: "loss2/relu_conv"
  type: "ReLU"
  bottom: "loss2/conv"
  top: "loss2/conv"
}
layer {
  name: "loss2/fc"
  type: "InnerProduct"
  bottom: "loss2/conv"
  top: "loss2/fc"
  param {
    lr_mult: 1
    decay_mult: 1
  }
  param {
    lr_mult: 2
    decay_mult: 0
  }
  inner_product_param {
    num_output: 1024
    weight_filler {
      type: "xavier"
      std: 0.02
    }
    bias_filler {
      type: "constant"
      value: 0.2
    }
  }
}
layer {
  name: "loss2/relu_fc"
  type: "ReLU"
  bottom: "loss2/fc"
  top: "loss2/fc"
}
layer {
  name: "loss2/drop_fc"
  type: "Dropout"
  bottom: "loss2/fc"
  top: "loss2/fc"
  dropout_param {
    dropout_ratio: 0.7
  }
}
layer {
  name: "loss2/classifier_plantvillage"
  type: "InnerProduct"
  bottom: "loss2/fc"
  top: "loss2/classifier_plantvillage"
  param {
    lr_mult: 1
    decay_mult: 1
  }
  param {
    lr_mult: 2
    decay_mult: 0
  }
  inner_product_param {
    num_output: 38
    weight_filler {
      type: "xavier"
      std: 0.0009765625
    }
    bias_filler {
      type: "constant"
      value: 0
    }
  }
}
layer {
  name: "inception_4e/1x1"
  type: "Convolution"
  bottom: "inception_4d/output"
  top: "inception_4e/1x1"
  param {
    lr_mult: 1
    decay_mult: 1
  }
  param {
    lr_mult: 2
    decay_mult: 0
  }
  convolution_param {
    num_output: 256
    kernel_size: 1
    weight_filler {
      type: "xavier"
      std: 0.03
    }
    bias_filler {
      type: "constant"
      value: 0.2
    }
  }
}
layer {
  name: "inception_4e/relu_1x1"
  type: "ReLU"
  bottom: "inception_4e/1x1"
  top: "inception_4e/1x1"
}
layer {
  name: "inception_4e/3x3_reduce"
  type: "Convolution"
  bottom: "inception_4d/output"
  top: "inception_4e/3x3_reduce"
  param {
    lr_mult: 1
    decay_mult: 1
  }
  param {
    lr_mult: 2
    decay_mult: 0
  }
  convolution_param {
    num_output: 160
    kernel_size: 1
    weight_filler {
      type: "xavier"
      std: 0.09
    }
    bias_filler {
      type: "constant"
      value: 0.2
    }
  }
}
layer {
  name: "inception_4e/relu_3x3_reduce"
  type: "ReLU"
  bottom: "inception_4e/3x3_reduce"
  top: "inception_4e/3x3_reduce"
}
layer {
  name: "inception_4e/3x3"
  type: "Convolution"
  bottom: "inception_4e/3x3_reduce"
  top: "inception_4e/3x3"
  param {
    lr_mult: 1
    decay_mult: 1
  }
  param {
    lr_mult: 2
    decay_mult: 0
  }
  convolution_param {
    num_output: 320
    pad: 1
    kernel_size: 3
    weight_filler {
      type: "xavier"
      std: 0.03
    }
    bias_filler {
      type: "constant"
      value: 0.2
    }
  }
}
layer {
  name: "inception_4e/relu_3x3"
  type: "ReLU"
  bottom: "inception_4e/3x3"
  top: "inception_4e/3x3"
}
layer {
  name: "inception_4e/5x5_reduce"
  type: "Convolution"
  bottom: "inception_4d/output"
  top: "inception_4e/5x5_reduce"
  param {
    lr_mult: 1
    decay_mult: 1
  }
  param {
    lr_mult: 2
    decay_mult: 0
  }
  convolution_param {
    num_output: 32
    kernel_size: 1
    weight_filler {
      type: "xavier"
      std: 0.2
    }
    bias_filler {
      type: "constant"
      value: 0.2
    }
  }
}
layer {
  name: "inception_4e/relu_5x5_reduce"
  type: "ReLU"
  bottom: "inception_4e/5x5_reduce"
  top: "inception_4e/5x5_reduce"
}
layer {
  name: "inception_4e/5x5"
  type: "Convolution"
  bottom: "inception_4e/5x5_reduce"
  top: "inception_4e/
I0403 15:00:55.831961 11431 layer_factory.hpp:77] Creating layer data
I0403 15:00:55.832594 11431 net.cpp:91] Creating Layer data
I0403 15:00:55.832625 11431 net.cpp:399] data -> data
I0403 15:00:55.832679 11431 net.cpp:399] data -> label
I0403 15:00:55.832718 11431 data_transformer.cpp:25] Loading mean file from: /home/mohanty/data/final_dataset/lmdb/grayscale-60-40/mean.binaryproto
I0403 15:00:55.835466 11436 db_lmdb.cpp:38] Opened lmdb /home/mohanty/data/final_dataset/lmdb/grayscale-60-40/test_db
I0403 15:00:55.846474 11431 data_layer.cpp:41] output data size: 24,3,224,224
I0403 15:00:55.874876 11431 net.cpp:141] Setting up data
I0403 15:00:55.874979 11431 net.cpp:148] Top shape: 24 3 224 224 (3612672)
I0403 15:00:55.875004 11431 net.cpp:148] Top shape: 24 (24)
I0403 15:00:55.875020 11431 net.cpp:156] Memory required for data: 14450784
I0403 15:00:55.875049 11431 layer_factory.hpp:77] Creating layer label_data_1_split
I0403 15:00:55.875077 11431 net.cpp:91] Creating Layer label_data_1_split
I0403 15:00:55.875097 11431 net.cpp:425] label_data_1_split <- label
I0403 15:00:55.875134 11431 net.cpp:399] label_data_1_split -> label_data_1_split_0
I0403 15:00:55.875164 11431 net.cpp:399] label_data_1_split -> label_data_1_split_1
I0403 15:00:55.875186 11431 net.cpp:399] label_data_1_split -> label_data_1_split_2
I0403 15:00:55.875210 11431 net.cpp:399] label_data_1_split -> label_data_1_split_3
I0403 15:00:55.875231 11431 net.cpp:399] label_data_1_split -> label_data_1_split_4
I0403 15:00:55.875252 11431 net.cpp:399] label_data_1_split -> label_data_1_split_5
I0403 15:00:55.875272 11431 net.cpp:399] label_data_1_split -> label_data_1_split_6
I0403 15:00:55.875294 11431 net.cpp:399] label_data_1_split -> label_data_1_split_7
I0403 15:00:55.875315 11431 net.cpp:399] label_data_1_split -> label_data_1_split_8
I0403 15:00:55.875336 11431 net.cpp:399] label_data_1_split -> label_data_1_split_9
I0403 15:00:55.875459 11431 net.cpp:141] Setting up label_data_1_split
I0403 15:00:55.875485 11431 net.cpp:148] Top shape: 24 (24)
I0403 15:00:55.875504 11431 net.cpp:148] Top shape: 24 (24)
I0403 15:00:55.875521 11431 net.cpp:148] Top shape: 24 (24)
I0403 15:00:55.875537 11431 net.cpp:148] Top shape: 24 (24)
I0403 15:00:55.875555 11431 net.cpp:148] Top shape: 24 (24)
I0403 15:00:55.875571 11431 net.cpp:148] Top shape: 24 (24)
I0403 15:00:55.875587 11431 net.cpp:148] Top shape: 24 (24)
I0403 15:00:55.875603 11431 net.cpp:148] Top shape: 24 (24)
I0403 15:00:55.875619 11431 net.cpp:148] Top shape: 24 (24)
I0403 15:00:55.875636 11431 net.cpp:148] Top shape: 24 (24)
I0403 15:00:55.875684 11431 net.cpp:156] Memory required for data: 14451744
I0403 15:00:55.875701 11431 layer_factory.hpp:77] Creating layer conv1/7x7_s2
I0403 15:00:55.875733 11431 net.cpp:91] Creating Layer conv1/7x7_s2
I0403 15:00:55.875753 11431 net.cpp:425] conv1/7x7_s2 <- data
I0403 15:00:55.875774 11431 net.cpp:399] conv1/7x7_s2 -> conv1/7x7_s2
I0403 15:00:56.021868 11431 net.cpp:141] Setting up conv1/7x7_s2
I0403 15:00:56.021960 11431 net.cpp:148] Top shape: 24 64 112 112 (19267584)
I0403 15:00:56.021980 11431 net.cpp:156] Memory required for data: 91522080
I0403 15:00:56.022011 11431 layer_factory.hpp:77] Creating layer conv1/relu_7x7
I0403 15:00:56.022042 11431 net.cpp:91] Creating Layer conv1/relu_7x7
I0403 15:00:56.022061 11431 net.cpp:425] conv1/relu_7x7 <- conv1/7x7_s2
I0403 15:00:56.022081 11431 net.cpp:386] conv1/relu_7x7 -> conv1/7x7_s2 (in-place)
I0403 15:00:56.022354 11431 net.cpp:141] Setting up conv1/relu_7x7
I0403 15:00:56.022384 11431 net.cpp:148] Top shape: 24 64 112 112 (19267584)
I0403 15:00:56.022402 11431 net.cpp:156] Memory required for data: 168592416
I0403 15:00:56.022418 11431 layer_factory.hpp:77] Creating layer pool1/3x3_s2
I0403 15:00:56.022444 11431 net.cpp:91] Creating Layer pool1/3x3_s2
I0403 15:00:56.022464 11431 net.cpp:425] pool1/3x3_s2 <- conv1/7x7_s2
I0403 15:00:56.022482 11431 net.cpp:399] pool1/3x3_s2 -> pool1/3x3_s2
I0403 15:00:56.022560 11431 net.cpp:141] Setting up pool1/3x3_s2
I0403 15:00:56.022586 11431 net.cpp:148] Top shape: 24 64 56 56 (4816896)
I0403 15:00:56.022603 11431 net.cpp:156] Memory required for data: 187860000
I0403 15:00:56.022619 11431 layer_factory.hpp:77] Creating layer pool1/norm1
I0403 15:00:56.022645 11431 net.cpp:91] Creating Layer pool1/norm1
I0403 15:00:56.022665 11431 net.cpp:425] pool1/norm1 <- pool1/3x3_s2
I0403 15:00:56.022683 11431 net.cpp:399] pool1/norm1 -> pool1/norm1
I0403 15:00:56.022980 11431 net.cpp:141] Setting up pool1/norm1
I0403 15:00:56.023010 11431 net.cpp:148] Top shape: 24 64 56 56 (4816896)
I0403 15:00:56.023026 11431 net.cpp:156] Memory required for data: 207127584
I0403 15:00:56.023043 11431 layer_factory.hpp:77] Creating layer conv2/3x3_reduce
I0403 15:00:56.023071 11431 net.cpp:91] Creating Layer conv2/3x3_reduce
I0403 15:00:56.023088 11431 net.cpp:425] conv2/3x3_reduce <- pool1/norm1
I0403 15:00:56.023124 11431 net.cpp:399] conv2/3x3_reduce -> conv2/3x3_reduce
I0403 15:00:56.024580 11431 net.cpp:141] Setting up conv2/3x3_reduce
I0403 15:00:56.024611 11431 net.cpp:148] Top shape: 24 64 56 56 (4816896)
I0403 15:00:56.024629 11431 net.cpp:156] Memory required for data: 226395168
I0403 15:00:56.024654 11431 layer_factory.hpp:77] Creating layer conv2/relu_3x3_reduce
I0403 15:00:56.024677 11431 net.cpp:91] Creating Layer conv2/relu_3x3_reduce
I0403 15:00:56.024694 11431 net.cpp:425] conv2/relu_3x3_reduce <- conv2/3x3_reduce
I0403 15:00:56.024713 11431 net.cpp:386] conv2/relu_3x3_reduce -> conv2/3x3_reduce (in-place)
I0403 15:00:56.024997 11431 net.cpp:141] Setting up conv2/relu_3x3_reduce
I0403 15:00:56.025027 11431 net.cpp:148] Top shape: 24 64 56 56 (4816896)
I0403 15:00:56.025044 11431 net.cpp:156] Memory required for data: 245662752
I0403 15:00:56.025097 11431 layer_factory.hpp:77] Creating layer conv2/3x3
I0403 15:00:56.025130 11431 net.cpp:91] Creating Layer conv2/3x3
I0403 15:00:56.025151 11431 net.cpp:425] conv2/3x3 <- conv2/3x3_reduce
I0403 15:00:56.025174 11431 net.cpp:399] conv2/3x3 -> conv2/3x3
I0403 15:00:56.027669 11431 net.cpp:141] Setting up conv2/3x3
I0403 15:00:56.027701 11431 net.cpp:148] Top shape: 24 192 56 56 (14450688)
I0403 15:00:56.027719 11431 net.cpp:156] Memory required for data: 303465504
I0403 15:00:56.027745 11431 layer_factory.hpp:77] Creating layer conv2/relu_3x3
I0403 15:00:56.027767 11431 net.cpp:91] Creating Layer conv2/relu_3x3
I0403 15:00:56.027783 11431 net.cpp:425] conv2/relu_3x3 <- conv2/3x3
I0403 15:00:56.027801 11431 net.cpp:386] conv2/relu_3x3 -> conv2/3x3 (in-place)
I0403 15:00:56.027989 11431 net.cpp:141] Setting up conv2/relu_3x3
I0403 15:00:56.028019 11431 net.cpp:148] Top shape: 24 192 56 56 (14450688)
I0403 15:00:56.028067 11431 net.cpp:156] Memory required for data: 361268256
I0403 15:00:56.028085 11431 layer_factory.hpp:77] Creating layer conv2/norm2
I0403 15:00:56.028110 11431 net.cpp:91] Creating Layer conv2/norm2
I0403 15:00:56.028129 11431 net.cpp:425] conv2/norm2 <- conv2/3x3
I0403 15:00:56.028151 11431 net.cpp:399] conv2/norm2 -> conv2/norm2
I0403 15:00:56.028473 11431 net.cpp:141] Setting up conv2/norm2
I0403 15:00:56.028503 11431 net.cpp:148] Top shape: 24 192 56 56 (14450688)
I0403 15:00:56.028519 11431 net.cpp:156] Memory required for data: 419071008
I0403 15:00:56.028537 11431 layer_factory.hpp:77] Creating layer pool2/3x3_s2
I0403 15:00:56.028555 11431 net.cpp:91] Creating Layer pool2/3x3_s2
I0403 15:00:56.028573 11431 net.cpp:425] pool2/3x3_s2 <- conv2/norm2
I0403 15:00:56.028594 11431 net.cpp:399] pool2/3x3_s2 -> pool2/3x3_s2
I0403 15:00:56.028651 11431 net.cpp:141] Setting up pool2/3x3_s2
I0403 15:00:56.028677 11431 net.cpp:148] Top shape: 24 192 28 28 (3612672)
I0403 15:00:56.028693 11431 net.cpp:156] Memory required for data: 433521696
I0403 15:00:56.028708 11431 layer_factory.hpp:77] Creating layer pool2/3x3_s2_pool2/3x3_s2_0_split
I0403 15:00:56.028728 11431 net.cpp:91] Creating Layer pool2/3x3_s2_pool2/3x3_s2_0_split
I0403 15:00:56.028744 11431 net.cpp:425] pool2/3x3_s2_pool2/3x3_s2_0_split <- pool2/3x3_s2
I0403 15:00:56.028765 11431 net.cpp:399] pool2/3x3_s2_pool2/3x3_s2_0_split -> pool2/3x3_s2_pool2/3x3_s2_0_split_0
I0403 15:00:56.028821 11431 net.cpp:399] pool2/3x3_s2_pool2/3x3_s2_0_split -> pool2/3x3_s2_pool2/3x3_s2_0_split_1
I0403 15:00:56.028849 11431 net.cpp:399] pool2/3x3_s2_pool2/3x3_s2_0_split -> pool2/3x3_s2_pool2/3x3_s2_0_split_2
I0403 15:00:56.028870 11431 net.cpp:399] pool2/3x3_s2_pool2/3x3_s2_0_split -> pool2/3x3_s2_pool2/3x3_s2_0_split_3
I0403 15:00:56.028946 11431 net.cpp:141] Setting up pool2/3x3_s2_pool2/3x3_s2_0_split
I0403 15:00:56.028971 11431 net.cpp:148] Top shape: 24 192 28 28 (3612672)
I0403 15:00:56.028990 11431 net.cpp:148] Top shape: 24 192 28 28 (3612672)
I0403 15:00:56.029006 11431 net.cpp:148] Top shape: 24 192 28 28 (3612672)
I0403 15:00:56.029022 11431 net.cpp:148] Top shape: 24 192 28 28 (3612672)
I0403 15:00:56.029037 11431 net.cpp:156] Memory required for data: 491324448
I0403 15:00:56.029053 11431 layer_factory.hpp:77] Creating layer inception_3a/1x1
I0403 15:00:56.029079 11431 net.cpp:91] Creating Layer inception_3a/1x1
I0403 15:00:56.029103 11431 net.cpp:425] inception_3a/1x1 <- pool2/3x3_s2_pool2/3x3_s2_0_split_0
I0403 15:00:56.029126 11431 net.cpp:399] inception_3a/1x1 -> inception_3a/1x1
I0403 15:00:56.030769 11431 net.cpp:141] Setting up inception_3a/1x1
I0403 15:00:56.030802 11431 net.cpp:148] Top shape: 24 64 28 28 (1204224)
I0403 15:00:56.030819 11431 net.cpp:156] Memory required for data: 496141344
I0403 15:00:56.030840 11431 layer_factory.hpp:77] Creating layer inception_3a/relu_1x1
I0403 15:00:56.030863 11431 net.cpp:91] Creating Layer inception_3a/relu_1x1
I0403 15:00:56.030882 11431 net.cpp:425] inception_3a/relu_1x1 <- inception_3a/1x1
I0403 15:00:56.030901 11431 net.cpp:386] inception_3a/relu_1x1 -> inception_3a/1x1 (in-place)
I0403 15:00:56.031090 11431 net.cpp:141] Setting up inception_3a/relu_1x1
I0403 15:00:56.031123 11431 net.cpp:148] Top shape: 24 64 28 28 (1204224)
I0403 15:00:56.031141 11431 net.cpp:156] Memory required for data: 500958240
I0403 15:00:56.031157 11431 layer_factory.hpp:77] Creating layer inception_3a/3x3_reduce
I0403 15:00:56.031178 11431 net.cpp:91] Creating Layer inception_3a/3x3_reduce
I0403 15:00:56.031196 11431 net.cpp:425] inception_3a/3x3_reduce <- pool2/3x3_s2_pool2/3x3_s2_0_split_1
I0403 15:00:56.031219 11431 net.cpp:399] inception_3a/3x3_reduce -> inception_3a/3x3_reduce
I0403 15:00:56.033074 11431 net.cpp:141] Setting up inception_3a/3x3_reduce
I0403 15:00:56.033119 11431 net.cpp:148] Top shape: 24 96 28 28 (1806336)
I0403 15:00:56.033140 11431 net.cpp:156] Memory required for data: 508183584
I0403 15:00:56.033167 11431 layer_factory.hpp:77] Creating layer inception_3a/relu_3x3_reduce
I0403 15:00:56.033207 11431 net.cpp:91] Creating Layer inception_3a/relu_3x3_reduce
I0403 15:00:56.033227 11431 net.cpp:425] inception_3a/relu_3x3_reduce <- inception_3a/3x3_reduce
I0403 15:00:56.033246 11431 net.cpp:386] inception_3a/relu_3x3_reduce -> inception_3a/3x3_reduce (in-place)
I0403 15:00:56.033440 11431 net.cpp:141] Setting up inception_3a/relu_3x3_reduce
I0403 15:00:56.033468 11431 net.cpp:148] Top shape: 24 96 28 28 (1806336)
I0403 15:00:56.033485 11431 net.cpp:156] Memory required for data: 515408928
I0403 15:00:56.033502 11431 layer_factory.hpp:77] Creating layer inception_3a/3x3
I0403 15:00:56.033526 11431 net.cpp:91] Creating Layer inception_3a/3x3
I0403 15:00:56.033546 11431 net.cpp:425] inception_3a/3x3 <- inception_3a/3x3_reduce
I0403 15:00:56.033568 11431 net.cpp:399] inception_3a/3x3 -> inception_3a/3x3
I0403 15:00:56.035317 11431 net.cpp:141] Setting up inception_3a/3x3
I0403 15:00:56.035347 11431 net.cpp:148] Top shape: 24 128 28 28 (2408448)
I0403 15:00:56.035364 11431 net.cpp:156] Memory required for data: 525042720
I0403 15:00:56.035385 11431 layer_factory.hpp:77] Creating layer inception_3a/relu_3x3
I0403 15:00:56.035406 11431 net.cpp:91] Creating Layer inception_3a/relu_3x3
I0403 15:00:56.035424 11431 net.cpp:425] inception_3a/relu_3x3 <- inception_3a/3x3
I0403 15:00:56.035444 11431 net.cpp:386] inception_3a/relu_3x3 -> inception_3a/3x3 (in-place)
I0403 15:00:56.035734 11431 net.cpp:141] Setting up inception_3a/relu_3x3
I0403 15:00:56.035763 11431 net.cpp:148] Top shape: 24 128 28 28 (2408448)
I0403 15:00:56.035780 11431 net.cpp:156] Memory required for data: 534676512
I0403 15:00:56.035797 11431 layer_factory.hpp:77] Creating layer inception_3a/5x5_reduce
I0403 15:00:56.035821 11431 net.cpp:91] Creating Layer inception_3a/5x5_reduce
I0403 15:00:56.035842 11431 net.cpp:425] inception_3a/5x5_reduce <- pool2/3x3_s2_pool2/3x3_s2_0_split_2
I0403 15:00:56.035863 11431 net.cpp:399] inception_3a/5x5_reduce -> inception_3a/5x5_reduce
I0403 15:00:56.036877 11431 net.cpp:141] Setting up inception_3a/5x5_reduce
I0403 15:00:56.036907 11431 net.cpp:148] Top shape: 24 16 28 28 (301056)
I0403 15:00:56.036926 11431 net.cpp:156] Memory required for data: 535880736
I0403 15:00:56.036945 11431 layer_factory.hpp:77] Creating layer inception_3a/relu_5x5_reduce
I0403 15:00:56.036967 11431 net.cpp:91] Creating Layer inception_3a/relu_5x5_reduce
I0403 15:00:56.036984 11431 net.cpp:425] inception_3a/relu_5x5_reduce <- inception_3a/5x5_reduce
I0403 15:00:56.037003 11431 net.cpp:386] inception_3a/relu_5x5_reduce -> inception_3a/5x5_reduce (in-place)
I0403 15:00:56.037322 11431 net.cpp:141] Setting up inception_3a/relu_5x5_reduce
I0403 15:00:56.037353 11431 net.cpp:148] Top shape: 24 16 28 28 (301056)
I0403 15:00:56.037370 11431 net.cpp:156] Memory required for data: 537084960
I0403 15:00:56.037389 11431 layer_factory.hpp:77] Creating layer inception_3a/5x5
I0403 15:00:56.037412 11431 net.cpp:91] Creating Layer inception_3a/5x5
I0403 15:00:56.037431 11431 net.cpp:425] inception_3a/5x5 <- inception_3a/5x5_reduce
I0403 15:00:56.037452 11431 net.cpp:399] inception_3a/5x5 -> inception_3a/5x5
I0403 15:00:56.038523 11431 net.cpp:141] Setting up inception_3a/5x5
I0403 15:00:56.038553 11431 net.cpp:148] Top shape: 24 32 28 28 (602112)
I0403 15:00:56.038570 11431 net.cpp:156] Memory required for data: 539493408
I0403 15:00:56.038590 11431 layer_factory.hpp:77] Creating layer inception_3a/relu_5x5
I0403 15:00:56.038611 11431 net.cpp:91] Creating Layer inception_3a/relu_5x5
I0403 15:00:56.038630 11431 net.cpp:425] inception_3a/relu_5x5 <- inception_3a/5x5
I0403 15:00:56.038648 11431 net.cpp:386] inception_3a/relu_5x5 -> inception_3a/5x5 (in-place)
I0403 15:00:56.038830 11431 net.cpp:141] Setting up inception_3a/relu_5x5
I0403 15:00:56.038861 11431 net.cpp:148] Top shape: 24 32 28 28 (602112)
I0403 15:00:56.038879 11431 net.cpp:156] Memory required for data: 541901856
I0403 15:00:56.038897 11431 layer_factory.hpp:77] Creating layer inception_3a/pool
I0403 15:00:56.038915 11431 net.cpp:91] Creating Layer inception_3a/pool
I0403 15:00:56.038949 11431 net.cpp:425] inception_3a/pool <- pool2/3x3_s2_pool2/3x3_s2_0_split_3
I0403 15:00:56.038970 11431 net.cpp:399] inception_3a/pool -> inception_3a/pool
I0403 15:00:56.039032 11431 net.cpp:141] Setting up inception_3a/pool
I0403 15:00:56.039058 11431 net.cpp:148] Top shape: 24 192 28 28 (3612672)
I0403 15:00:56.039074 11431 net.cpp:156] Memory required for data: 556352544
I0403 15:00:56.039089 11431 layer_factory.hpp:77] Creating layer inception_3a/pool_proj
I0403 15:00:56.039119 11431 net.cpp:91] Creating Layer inception_3a/pool_proj
I0403 15:00:56.039139 11431 net.cpp:425] inception_3a/pool_proj <- inception_3a/pool
I0403 15:00:56.039162 11431 net.cpp:399] inception_3a/pool_proj -> inception_3a/pool_proj
I0403 15:00:56.040199 11431 net.cpp:141] Setting up inception_3a/pool_proj
I0403 15:00:56.040230 11431 net.cpp:148] Top shape: 24 32 28 28 (602112)
I0403 15:00:56.040247 11431 net.cpp:156] Memory required for data: 558760992
I0403 15:00:56.040271 11431 layer_factory.hpp:77] Creating layer inception_3a/relu_pool_proj
I0403 15:00:56.040292 11431 net.cpp:91] Creating Layer inception_3a/relu_pool_proj
I0403 15:00:56.040310 11431 net.cpp:425] inception_3a/relu_pool_proj <- inception_3a/pool_proj
I0403 15:00:56.040330 11431 net.cpp:386] inception_3a/relu_pool_proj -> inception_3a/pool_proj (in-place)
I0403 15:00:56.040626 11431 net.cpp:141] Setting up inception_3a/relu_pool_proj
I0403 15:00:56.040654 11431 net.cpp:148] Top shape: 24 32 28 28 (602112)
I0403 15:00:56.040671 11431 net.cpp:156] Memory required for data: 561169440
I0403 15:00:56.040688 11431 layer_factory.hpp:77] Creating layer inception_3a/output
I0403 15:00:56.040709 11431 net.cpp:91] Creating Layer inception_3a/output
I0403 15:00:56.040727 11431 net.cpp:425] inception_3a/output <- inception_3a/1x1
I0403 15:00:56.040745 11431 net.cpp:425] inception_3a/output <- inception_3a/3x3
I0403 15:00:56.040763 11431 net.cpp:425] inception_3a/output <- inception_3a/5x5
I0403 15:00:56.040781 11431 net.cpp:425] inception_3a/output <- inception_3a/pool_proj
I0403 15:00:56.040798 11431 net.cpp:399] inception_3a/output -> inception_3a/output
I0403 15:00:56.040849 11431 net.cpp:141] Setting up inception_3a/output
I0403 15:00:56.040874 11431 net.cpp:148] Top shape: 24 256 28 28 (4816896)
I0403 15:00:56.040891 11431 net.cpp:156] Memory required for data: 580437024
I0403 15:00:56.040907 11431 layer_factory.hpp:77] Creating layer inception_3a/output_inception_3a/output_0_split
I0403 15:00:56.040925 11431 net.cpp:91] Creating Layer inception_3a/output_inception_3a/output_0_split
I0403 15:00:56.040942 11431 net.cpp:425] inception_3a/output_inception_3a/output_0_split <- inception_3a/output
I0403 15:00:56.040963 11431 net.cpp:399] inception_3a/output_inception_3a/output_0_split -> inception_3a/output_inception_3a/output_0_split_0
I0403 15:00:56.040987 11431 net.cpp:399] inception_3a/output_inception_3a/output_0_split -> inception_3a/output_inception_3a/output_0_split_1
I0403 15:00:56.041013 11431 net.cpp:399] inception_3a/output_inception_3a/output_0_split -> inception_3a/output_inception_3a/output_0_split_2
I0403 15:00:56.041038 11431 net.cpp:399] inception_3a/output_inception_3a/output_0_split -> inception_3a/output_inception_3a/output_0_split_3
I0403 15:00:56.041122 11431 net.cpp:141] Setting up inception_3a/output_inception_3a/output_0_split
I0403 15:00:56.041149 11431 net.cpp:148] Top shape: 24 256 28 28 (4816896)
I0403 15:00:56.041167 11431 net.cpp:148] Top shape: 24 256 28 28 (4816896)
I0403 15:00:56.041184 11431 net.cpp:148] Top shape: 24 256 28 28 (4816896)
I0403 15:00:56.041201 11431 net.cpp:148] Top shape: 24 256 28 28 (4816896)
I0403 15:00:56.041216 11431 net.cpp:156] Memory required for data: 657507360
I0403 15:00:56.041232 11431 layer_factory.hpp:77] Creating layer inception_3b/1x1
I0403 15:00:56.041256 11431 net.cpp:91] Creating Layer inception_3b/1x1
I0403 15:00:56.041275 11431 net.cpp:425] inception_3b/1x1 <- inception_3a/output_inception_3a/output_0_split_0
I0403 15:00:56.041298 11431 net.cpp:399] inception_3b/1x1 -> inception_3b/1x1
I0403 15:00:56.042506 11431 net.cpp:141] Setting up inception_3b/1x1
I0403 15:00:56.042548 11431 net.cpp:148] Top shape: 24 128 28 28 (2408448)
I0403 15:00:56.042567 11431 net.cpp:156] Memory required for data: 667141152
I0403 15:00:56.042587 11431 layer_factory.hpp:77] Creating layer inception_3b/relu_1x1
I0403 15:00:56.042610 11431 net.cpp:91] Creating Layer inception_3b/relu_1x1
I0403 15:00:56.042630 11431 net.cpp:425] inception_3b/relu_1x1 <- inception_3b/1x1
I0403 15:00:56.042649 11431 net.cpp:386] inception_3b/relu_1x1 -> inception_3b/1x1 (in-place)
I0403 15:00:56.042835 11431 net.cpp:141] Setting up inception_3b/relu_1x1
I0403 15:00:56.042863 11431 net.cpp:148] Top shape: 24 128 28 28 (2408448)
I0403 15:00:56.042879 11431 net.cpp:156] Memory required for data: 676774944
I0403 15:00:56.042896 11431 layer_factory.hpp:77] Creating layer inception_3b/3x3_reduce
I0403 15:00:56.042922 11431 net.cpp:91] Creating Layer inception_3b/3x3_reduce
I0403 15:00:56.042939 11431 net.cpp:425] inception_3b/3x3_reduce <- inception_3a/output_inception_3a/output_0_split_1
I0403 15:00:56.042960 11431 net.cpp:399] inception_3b/3x3_reduce -> inception_3b/3x3_reduce
I0403 15:00:56.044165 11431 net.cpp:141] Setting up inception_3b/3x3_reduce
I0403 15:00:56.044196 11431 net.cpp:148] Top shape: 24 128 28 28 (2408448)
I0403 15:00:56.044214 11431 net.cpp:156] Memory required for data: 686408736
I0403 15:00:56.044234 11431 layer_factory.hpp:77] Creating layer inception_3b/relu_3x3_reduce
I0403 15:00:56.044253 11431 net.cpp:91] Creating Layer inception_3b/relu_3x3_reduce
I0403 15:00:56.044271 11431 net.cpp:425] inception_3b/relu_3x3_reduce <- inception_3b/3x3_reduce
I0403 15:00:56.044292 11431 net.cpp:386] inception_3b/relu_3x3_reduce -> inception_3b/3x3_reduce (in-place)
I0403 15:00:56.044473 11431 net.cpp:141] Setting up inception_3b/relu_3x3_reduce
I0403 15:00:56.044502 11431 net.cpp:148] Top shape: 24 128 28 28 (2408448)
I0403 15:00:56.044517 11431 net.cpp:156] Memory required for data: 696042528
I0403 15:00:56.044533 11431 layer_factory.hpp:77] Creating layer inception_3b/3x3
I0403 15:00:56.044560 11431 net.cpp:91] Creating Layer inception_3b/3x3
I0403 15:00:56.044580 11431 net.cpp:425] inception_3b/3x3 <- inception_3b/3x3_reduce
I0403 15:00:56.044603 11431 net.cpp:399] inception_3b/3x3 -> inception_3b/3x3
I0403 15:00:56.047660 11431 net.cpp:141] Setting up inception_3b/3x3
I0403 15:00:56.047691 11431 net.cpp:148] Top shape: 24 192 28 28 (3612672)
I0403 15:00:56.047708 11431 net.cpp:156] Memory required for data: 710493216
I0403 15:00:56.047729 11431 layer_factory.hpp:77] Creating layer inception_3b/relu_3x3
I0403 15:00:56.047752 11431 net.cpp:91] Creating Layer inception_3b/relu_3x3
I0403 15:00:56.047771 11431 net.cpp:425] inception_3b/relu_3x3 <- inception_3b/3x3
I0403 15:00:56.047791 11431 net.cpp:386] inception_3b/relu_3x3 -> inception_3b/3x3 (in-place)
I0403 15:00:56.048081 11431 net.cpp:141] Setting up inception_3b/relu_3x3
I0403 15:00:56.048115 11431 net.cpp:148] Top shape: 24 192 28 28 (3612672)
I0403 15:00:56.048130 11431 net.cpp:156] Memory required for data: 724943904
I0403 15:00:56.048146 11431 layer_factory.hpp:77] Creating layer inception_3b/5x5_reduce
I0403 15:00:56.048172 11431 net.cpp:91] Creating Layer inception_3b/5x5_reduce
I0403 15:00:56.048194 11431 net.cpp:425] inception_3b/5x5_reduce <- inception_3a/output_inception_3a/output_0_split_2
I0403 15:00:56.048214 11431 net.cpp:399] inception_3b/5x5_reduce -> inception_3b/5x5_reduce
I0403 15:00:56.049257 11431 net.cpp:141] Setting up inception_3b/5x5_reduce
I0403 15:00:56.049290 11431 net.cpp:148] Top shape: 24 32 28 28 (602112)
I0403 15:00:56.049309 11431 net.cpp:156] Memory required for data: 727352352
I0403 15:00:56.049327 11431 layer_factory.hpp:77] Creating layer inception_3b/relu_5x5_reduce
I0403 15:00:56.049350 11431 net.cpp:91] Creating Layer inception_3b/relu_5x5_reduce
I0403 15:00:56.049368 11431 net.cpp:425] inception_3b/relu_5x5_reduce <- inception_3b/5x5_reduce
I0403 15:00:56.049386 11431 net.cpp:386] inception_3b/relu_5x5_reduce -> inception_3b/5x5_reduce (in-place)
I0403 15:00:56.049592 11431 net.cpp:141] Setting up inception_3b/relu_5x5_reduce
I0403 15:00:56.049621 11431 net.cpp:148] Top shape: 24 32 28 28 (602112)
I0403 15:00:56.049638 11431 net.cpp:156] Memory required for data: 729760800
I0403 15:00:56.049654 11431 layer_factory.hpp:77] Creating layer inception_3b/5x5
I0403 15:00:56.049677 11431 net.cpp:91] Creating Layer inception_3b/5x5
I0403 15:00:56.049697 11431 net.cpp:425] inception_3b/5x5 <- inception_3b/5x5_reduce
I0403 15:00:56.049720 11431 net.cpp:399] inception_3b/5x5 -> inception_3b/5x5
I0403 15:00:56.051784 11431 net.cpp:141] Setting up inception_3b/5x5
I0403 15:00:56.051815 11431 net.cpp:148] Top shape: 24 96 28 28 (1806336)
I0403 15:00:56.051833 11431 net.cpp:156] Memory required for data: 736986144
I0403 15:00:56.051853 11431 layer_factory.hpp:77] Creating layer inception_3b/relu_5x5
I0403 15:00:56.051872 11431 net.cpp:91] Creating Layer inception_3b/relu_5x5
I0403 15:00:56.051890 11431 net.cpp:425] inception_3b/relu_5x5 <- inception_3b/5x5
I0403 15:00:56.051913 11431 net.cpp:386] inception_3b/relu_5x5 -> inception_3b/5x5 (in-place)
I0403 15:00:56.052121 11431 net.cpp:141] Setting up inception_3b/relu_5x5
I0403 15:00:56.052150 11431 net.cpp:148] Top shape: 24 96 28 28 (1806336)
I0403 15:00:56.052167 11431 net.cpp:156] Memory required for data: 744211488
I0403 15:00:56.052183 11431 layer_factory.hpp:77] Creating layer inception_3b/pool
I0403 15:00:56.052202 11431 net.cpp:91] Creating Layer inception_3b/pool
I0403 15:00:56.052220 11431 net.cpp:425] inception_3b/pool <- inception_3a/output_inception_3a/output_0_split_3
I0403 15:00:56.052239 11431 net.cpp:399] inception_3b/pool -> inception_3b/pool
I0403 15:00:56.052299 11431 net.cpp:141] Setting up inception_3b/pool
I0403 15:00:56.052323 11431 net.cpp:148] Top shape: 24 256 28 28 (4816896)
I0403 15:00:56.052340 11431 net.cpp:156] Memory required for data: 763479072
I0403 15:00:56.052355 11431 layer_factory.hpp:77] Creating layer inception_3b/pool_proj
I0403 15:00:56.052378 11431 net.cpp:91] Creating Layer inception_3b/pool_proj
I0403 15:00:56.052397 11431 net.cpp:425] inception_3b/pool_proj <- inception_3b/pool
I0403 15:00:56.052419 11431 net.cpp:399] inception_3b/pool_proj -> inception_3b/pool_proj
I0403 15:00:56.053537 11431 net.cpp:141] Setting up inception_3b/pool_proj
I0403 15:00:56.053571 11431 net.cpp:148] Top shape: 24 64 28 28 (1204224)
I0403 15:00:56.053588 11431 net.cpp:156] Memory required for data: 768295968
I0403 15:00:56.053607 11431 layer_factory.hpp:77] Creating layer inception_3b/relu_pool_proj
I0403 15:00:56.053627 11431 net.cpp:91] Creating Layer inception_3b/relu_pool_proj
I0403 15:00:56.053645 11431 net.cpp:425] inception_3b/relu_pool_proj <- inception_3b/pool_proj
I0403 15:00:56.053666 11431 net.cpp:386] inception_3b/relu_pool_proj -> inception_3b/pool_proj (in-place)
I0403 15:00:56.054085 11431 net.cpp:141] Setting up inception_3b/relu_pool_proj
I0403 15:00:56.054121 11431 net.cpp:148] Top shape: 24 64 28 28 (1204224)
I0403 15:00:56.054141 11431 net.cpp:156] Memory required for data: 773112864
I0403 15:00:56.054155 11431 layer_factory.hpp:77] Creating layer inception_3b/output
I0403 15:00:56.054175 11431 net.cpp:91] Creating Layer inception_3b/output
I0403 15:00:56.054191 11431 net.cpp:425] inception_3b/output <- inception_3b/1x1
I0403 15:00:56.054209 11431 net.cpp:425] inception_3b/output <- inception_3b/3x3
I0403 15:00:56.054226 11431 net.cpp:425] inception_3b/output <- inception_3b/5x5
I0403 15:00:56.054244 11431 net.cpp:425] inception_3b/output <- inception_3b/pool_proj
I0403 15:00:56.054262 11431 net.cpp:399] inception_3b/output -> inception_3b/output
I0403 15:00:56.054311 11431 net.cpp:141] Setting up inception_3b/output
I0403 15:00:56.054337 11431 net.cpp:148] Top shape: 24 480 28 28 (9031680)
I0403 15:00:56.054353 11431 net.cpp:156] Memory required for data: 809239584
I0403 15:00:56.054369 11431 layer_factory.hpp:77] Creating layer pool3/3x3_s2
I0403 15:00:56.054393 11431 net.cpp:91] Creating Layer pool3/3x3_s2
I0403 15:00:56.054411 11431 net.cpp:425] pool3/3x3_s2 <- inception_3b/output
I0403 15:00:56.054447 11431 net.cpp:399] pool3/3x3_s2 -> pool3/3x3_s2
I0403 15:00:56.054512 11431 net.cpp:141] Setting up pool3/3x3_s2
I0403 15:00:56.054538 11431 net.cpp:148] Top shape: 24 480 14 14 (2257920)
I0403 15:00:56.054554 11431 net.cpp:156] Memory required for data: 818271264
I0403 15:00:56.054570 11431 layer_factory.hpp:77] Creating layer pool3/3x3_s2_pool3/3x3_s2_0_split
I0403 15:00:56.054589 11431 net.cpp:91] Creating Layer pool3/3x3_s2_pool3/3x3_s2_0_split
I0403 15:00:56.054605 11431 net.cpp:425] pool3/3x3_s2_pool3/3x3_s2_0_split <- pool3/3x3_s2
I0403 15:00:56.054625 11431 net.cpp:399] pool3/3x3_s2_pool3/3x3_s2_0_split -> pool3/3x3_s2_pool3/3x3_s2_0_split_0
I0403 15:00:56.054647 11431 net.cpp:399] pool3/3x3_s2_pool3/3x3_s2_0_split -> pool3/3x3_s2_pool3/3x3_s2_0_split_1
I0403 15:00:56.054669 11431 net.cpp:399] pool3/3x3_s2_pool3/3x3_s2_0_split -> pool3/3x3_s2_pool3/3x3_s2_0_split_2
I0403 15:00:56.054690 11431 net.cpp:399] pool3/3x3_s2_pool3/3x3_s2_0_split -> pool3/3x3_s2_pool3/3x3_s2_0_split_3
I0403 15:00:56.054769 11431 net.cpp:141] Setting up pool3/3x3_s2_pool3/3x3_s2_0_split
I0403 15:00:56.054795 11431 net.cpp:148] Top shape: 24 480 14 14 (2257920)
I0403 15:00:56.054814 11431 net.cpp:148] Top shape: 24 480 14 14 (2257920)
I0403 15:00:56.054831 11431 net.cpp:148] Top shape: 24 480 14 14 (2257920)
I0403 15:00:56.054848 11431 net.cpp:148] Top shape: 24 480 14 14 (2257920)
I0403 15:00:56.054864 11431 net.cpp:156] Memory required for data: 854397984
I0403 15:00:56.054880 11431 layer_factory.hpp:77] Creating layer inception_4a/1x1
I0403 15:00:56.054903 11431 net.cpp:91] Creating Layer inception_4a/1x1
I0403 15:00:56.054922 11431 net.cpp:425] inception_4a/1x1 <- pool3/3x3_s2_pool3/3x3_s2_0_split_0
I0403 15:00:56.054944 11431 net.cpp:399] inception_4a/1x1 -> inception_4a/1x1
I0403 15:00:56.056618 11431 net.cpp:141] Setting up inception_4a/1x1
I0403 15:00:56.056649 11431 net.cpp:148] Top shape: 24 192 14 14 (903168)
I0403 15:00:56.056666 11431 net.cpp:156] Memory required for data: 858010656
I0403 15:00:56.056686 11431 layer_factory.hpp:77] Creating layer inception_4a/relu_1x1
I0403 15:00:56.056704 11431 net.cpp:91] Creating Layer inception_4a/relu_1x1
I0403 15:00:56.056721 11431 net.cpp:425] inception_4a/relu_1x1 <- inception_4a/1x1
I0403 15:00:56.056741 11431 net.cpp:386] inception_4a/relu_1x1 -> inception_4a/1x1 (in-place)
I0403 15:00:56.056929 11431 net.cpp:141] Setting up inception_4a/relu_1x1
I0403 15:00:56.056957 11431 net.cpp:148] Top shape: 24 192 14 14 (903168)
I0403 15:00:56.056973 11431 net.cpp:156] Memory required for data: 861623328
I0403 15:00:56.056989 11431 layer_factory.hpp:77] Creating layer inception_4a/3x3_reduce
I0403 15:00:56.057014 11431 net.cpp:91] Creating Layer inception_4a/3x3_reduce
I0403 15:00:56.057032 11431 net.cpp:425] inception_4a/3x3_reduce <- pool3/3x3_s2_pool3/3x3_s2_0_split_1
I0403 15:00:56.057055 11431 net.cpp:399] inception_4a/3x3_reduce -> inception_4a/3x3_reduce
I0403 15:00:56.058416 11431 net.cpp:141] Setting up inception_4a/3x3_reduce
I0403 15:00:56.058449 11431 net.cpp:148] Top shape: 24 96 14 14 (451584)
I0403 15:00:56.058467 11431 net.cpp:156] Memory required for data: 863429664
I0403 15:00:56.058495 11431 layer_factory.hpp:77] Creating layer inception_4a/relu_3x3_reduce
I0403 15:00:56.058516 11431 net.cpp:91] Creating Layer inception_4a/relu_3x3_reduce
I0403 15:00:56.058533 11431 net.cpp:425] inception_4a/relu_3x3_reduce <- inception_4a/3x3_reduce
I0403 15:00:56.058552 11431 net.cpp:386] inception_4a/relu_3x3_reduce -> inception_4a/3x3_reduce (in-place)
I0403 15:00:56.058737 11431 net.cpp:141] Setting up inception_4a/relu_3x3_reduce
I0403 15:00:56.058764 11431 net.cpp:148] Top shape: 24 96 14 14 (451584)
I0403 15:00:56.058780 11431 net.cpp:156] Memory required for data: 865236000
I0403 15:00:56.058796 11431 layer_factory.hpp:77] Creating layer inception_4a/3x3
I0403 15:00:56.058820 11431 net.cpp:91] Creating Layer inception_4a/3x3
I0403 15:00:56.058840 11431 net.cpp:425] inception_4a/3x3 <- inception_4a/3x3_reduce
I0403 15:00:56.058862 11431 net.cpp:399] inception_4a/3x3 -> inception_4a/3x3
I0403 15:00:56.061669 11431 net.cpp:141] Setting up inception_4a/3x3
I0403 15:00:56.061700 11431 net.cpp:148] Top shape: 24 208 14 14 (978432)
I0403 15:00:56.061718 11431 net.cpp:156] Memory required for data: 869149728
I0403 15:00:56.061739 11431 layer_factory.hpp:77] Creating layer inception_4a/relu_3x3
I0403 15:00:56.061761 11431 net.cpp:91] Creating Layer inception_4a/relu_3x3
I0403 15:00:56.061781 11431 net.cpp:425] inception_4a/relu_3x3 <- inception_4a/3x3
I0403 15:00:56.061800 11431 net.cpp:386] inception_4a/relu_3x3 -> inception_4a/3x3 (in-place)
I0403 15:00:56.062093 11431 net.cpp:141] Setting up inception_4a/relu_3x3
I0403 15:00:56.062124 11431 net.cpp:148] Top shape: 24 208 14 14 (978432)
I0403 15:00:56.062141 11431 net.cpp:156] Memory required for data: 873063456
I0403 15:00:56.062157 11431 layer_factory.hpp:77] Creating layer inception_4a/5x5_reduce
I0403 15:00:56.062182 11431 net.cpp:91] Creating Layer inception_4a/5x5_reduce
I0403 15:00:56.062202 11431 net.cpp:425] inception_4a/5x5_reduce <- pool3/3x3_s2_pool3/3x3_s2_0_split_2
I0403 15:00:56.062225 11431 net.cpp:399] inception_4a/5x5_reduce -> inception_4a/5x5_reduce
I0403 15:00:56.063309 11431 net.cpp:141] Setting up inception_4a/5x5_reduce
I0403 15:00:56.063339 11431 net.cpp:148] Top shape: 24 16 14 14 (75264)
I0403 15:00:56.063359 11431 net.cpp:156] Memory required for data: 873364512
I0403 15:00:56.063379 11431 layer_factory.hpp:77] Creating layer inception_4a/relu_5x5_reduce
I0403 15:00:56.063400 11431 net.cpp:91] Creating Layer inception_4a/relu_5x5_reduce
I0403 15:00:56.063421 11431 net.cpp:425] inception_4a/relu_5x5_reduce <- inception_4a/5x5_reduce
I0403 15:00:56.063439 11431 net.cpp:386] inception_4a/relu_5x5_reduce -> inception_4a/5x5_reduce (in-place)
I0403 15:00:56.063627 11431 net.cpp:141] Setting up inception_4a/relu_5x5_reduce
I0403 15:00:56.063658 11431 net.cpp:148] Top shape: 24 16 14 14 (75264)
I0403 15:00:56.063678 11431 net.cpp:156] Memory required for data: 873665568
I0403 15:00:56.063694 11431 layer_factory.hpp:77] Creating layer inception_4a/5x5
I0403 15:00:56.063716 11431 net.cpp:91] Creating Layer inception_4a/5x5
I0403 15:00:56.063736 11431 net.cpp:425] inception_4a/5x5 <- inception_4a/5x5_reduce
I0403 15:00:56.063757 11431 net.cpp:399] inception_4a/5x5 -> inception_4a/5x5
I0403 15:00:56.064903 11431 net.cpp:141] Setting up inception_4a/5x5
I0403 15:00:56.064935 11431 net.cpp:148] Top shape: 24 48 14 14 (225792)
I0403 15:00:56.064954 11431 net.cpp:156] Memory required for data: 874568736
I0403 15:00:56.064975 11431 layer_factory.hpp:77] Creating layer inception_4a/relu_5x5
I0403 15:00:56.064993 11431 net.cpp:91] Creating Layer inception_4a/relu_5x5
I0403 15:00:56.065011 11431 net.cpp:425] inception_4a/relu_5x5 <- inception_4a/5x5
I0403 15:00:56.065035 11431 net.cpp:386] inception_4a/relu_5x5 -> inception_4a/5x5 (in-place)
I0403 15:00:56.065227 11431 net.cpp:141] Setting up inception_4a/relu_5x5
I0403 15:00:56.065255 11431 net.cpp:148] Top shape: 24 48 14 14 (225792)
I0403 15:00:56.065271 11431 net.cpp:156] Memory required for data: 875471904
I0403 15:00:56.065287 11431 layer_factory.hpp:77] Creating layer inception_4a/pool
I0403 15:00:56.065306 11431 net.cpp:91] Creating Layer inception_4a/pool
I0403 15:00:56.065325 11431 net.cpp:425] inception_4a/pool <- pool3/3x3_s2_pool3/3x3_s2_0_split_3
I0403 15:00:56.065346 11431 net.cpp:399] inception_4a/pool -> inception_4a/pool
I0403 15:00:56.065412 11431 net.cpp:141] Setting up inception_4a/pool
I0403 15:00:56.065438 11431 net.cpp:148] Top shape: 24 480 14 14 (2257920)
I0403 15:00:56.065455 11431 net.cpp:156] Memory required for data: 884503584
I0403 15:00:56.065471 11431 layer_factory.hpp:77] Creating layer inception_4a/pool_proj
I0403 15:00:56.065495 11431 net.cpp:91] Creating Layer inception_4a/pool_proj
I0403 15:00:56.065515 11431 net.cpp:425] inception_4a/pool_proj <- inception_4a/pool
I0403 15:00:56.065536 11431 net.cpp:399] inception_4a/pool_proj -> inception_4a/pool_proj
I0403 15:00:56.066767 11431 net.cpp:141] Setting up inception_4a/pool_proj
I0403 15:00:56.066800 11431 net.cpp:148] Top shape: 24 64 14 14 (301056)
I0403 15:00:56.066833 11431 net.cpp:156] Memory required for data: 885707808
I0403 15:00:56.066854 11431 layer_factory.hpp:77] Creating layer inception_4a/relu_pool_proj
I0403 15:00:56.066876 11431 net.cpp:91] Creating Layer inception_4a/relu_pool_proj
I0403 15:00:56.066895 11431 net.cpp:425] inception_4a/relu_pool_proj <- inception_4a/pool_proj
I0403 15:00:56.066917 11431 net.cpp:386] inception_4a/relu_pool_proj -> inception_4a/pool_proj (in-place)
I0403 15:00:56.067219 11431 net.cpp:141] Setting up inception_4a/relu_pool_proj
I0403 15:00:56.067250 11431 net.cpp:148] Top shape: 24 64 14 14 (301056)
I0403 15:00:56.067267 11431 net.cpp:156] Memory required for data: 886912032
I0403 15:00:56.067284 11431 layer_factory.hpp:77] Creating layer inception_4a/output
I0403 15:00:56.067303 11431 net.cpp:91] Creating Layer inception_4a/output
I0403 15:00:56.067320 11431 net.cpp:425] inception_4a/output <- inception_4a/1x1
I0403 15:00:56.067338 11431 net.cpp:425] inception_4a/output <- inception_4a/3x3
I0403 15:00:56.067356 11431 net.cpp:425] inception_4a/output <- inception_4a/5x5
I0403 15:00:56.067373 11431 net.cpp:425] inception_4a/output <- inception_4a/pool_proj
I0403 15:00:56.067394 11431 net.cpp:399] inception_4a/output -> inception_4a/output
I0403 15:00:56.067442 11431 net.cpp:141] Setting up inception_4a/output
I0403 15:00:56.067467 11431 net.cpp:148] Top shape: 24 512 14 14 (2408448)
I0403 15:00:56.067483 11431 net.cpp:156] Memory required for data: 896545824
I0403 15:00:56.067498 11431 layer_factory.hpp:77] Creating layer inception_4a/output_inception_4a/output_0_split
I0403 15:00:56.067524 11431 net.cpp:91] Creating Layer inception_4a/output_inception_4a/output_0_split
I0403 15:00:56.067543 11431 net.cpp:425] inception_4a/output_inception_4a/output_0_split <- inception_4a/output
I0403 15:00:56.067562 11431 net.cpp:399] inception_4a/output_inception_4a/output_0_split -> inception_4a/output_inception_4a/output_0_split_0
I0403 15:00:56.067587 11431 net.cpp:399] inception_4a/output_inception_4a/output_0_split -> inception_4a/output_inception_4a/output_0_split_1
I0403 15:00:56.067610 11431 net.cpp:399] inception_4a/output_inception_4a/output_0_split -> inception_4a/output_inception_4a/output_0_split_2
I0403 15:00:56.067631 11431 net.cpp:399] inception_4a/output_inception_4a/output_0_split -> inception_4a/output_inception_4a/output_0_split_3
I0403 15:00:56.067654 11431 net.cpp:399] inception_4a/output_inception_4a/output_0_split -> inception_4a/output_inception_4a/output_0_split_4
I0403 15:00:56.067751 11431 net.cpp:141] Setting up inception_4a/output_inception_4a/output_0_split
I0403 15:00:56.067777 11431 net.cpp:148] Top shape: 24 512 14 14 (2408448)
I0403 15:00:56.067816 11431 net.cpp:148] Top shape: 24 512 14 14 (2408448)
I0403 15:00:56.067833 11431 net.cpp:148] Top shape: 24 512 14 14 (2408448)
I0403 15:00:56.067850 11431 net.cpp:148] Top shape: 24 512 14 14 (2408448)
I0403 15:00:56.067867 11431 net.cpp:148] Top shape: 24 512 14 14 (2408448)
I0403 15:00:56.067881 11431 net.cpp:156] Memory required for data: 944714784
I0403 15:00:56.067898 11431 layer_factory.hpp:77] Creating layer loss1/ave_pool
I0403 15:00:56.067920 11431 net.cpp:91] Creating Layer loss1/ave_pool
I0403 15:00:56.067940 11431 net.cpp:425] loss1/ave_pool <- inception_4a/output_inception_4a/output_0_split_0
I0403 15:00:56.067960 11431 net.cpp:399] loss1/ave_pool -> loss1/ave_pool
I0403 15:00:56.068184 11431 net.cpp:141] Setting up loss1/ave_pool
I0403 15:00:56.068214 11431 net.cpp:148] Top shape: 24 512 4 4 (196608)
I0403 15:00:56.068233 11431 net.cpp:156] Memory required for data: 945501216
I0403 15:00:56.068248 11431 layer_factory.hpp:77] Creating layer loss1/conv
I0403 15:00:56.068272 11431 net.cpp:91] Creating Layer loss1/conv
I0403 15:00:56.068291 11431 net.cpp:425] loss1/conv <- loss1/ave_pool
I0403 15:00:56.068311 11431 net.cpp:399] loss1/conv -> loss1/conv
I0403 15:00:56.069816 11431 net.cpp:141] Setting up loss1/conv
I0403 15:00:56.069847 11431 net.cpp:148] Top shape: 24 128 4 4 (49152)
I0403 15:00:56.069880 11431 net.cpp:156] Memory required for data: 945697824
I0403 15:00:56.069900 11431 layer_factory.hpp:77] Creating layer loss1/relu_conv
I0403 15:00:56.069923 11431 net.cpp:91] Creating Layer loss1/relu_conv
I0403 15:00:56.069942 11431 net.cpp:425] loss1/relu_conv <- loss1/conv
I0403 15:00:56.069962 11431 net.cpp:386] loss1/relu_conv -> loss1/conv (in-place)
I0403 15:00:56.070262 11431 net.cpp:141] Setting up loss1/relu_conv
I0403 15:00:56.070291 11431 net.cpp:148] Top shape: 24 128 4 4 (49152)
I0403 15:00:56.070308 11431 net.cpp:156] Memory required for data: 945894432
I0403 15:00:56.070325 11431 layer_factory.hpp:77] Creating layer loss1/fc
I0403 15:00:56.070353 11431 net.cpp:91] Creating Layer loss1/fc
I0403 15:00:56.070372 11431 net.cpp:425] loss1/fc <- loss1/conv
I0403 15:00:56.070394 11431 net.cpp:399] loss1/fc -> loss1/fc
I0403 15:00:56.088876 11431 net.cpp:141] Setting up loss1/fc
I0403 15:00:56.088928 11431 net.cpp:148] Top shape: 24 1024 (24576)
I0403 15:00:56.088945 11431 net.cpp:156] Memory required for data: 945992736
I0403 15:00:56.088966 11431 layer_factory.hpp:77] Creating layer loss1/relu_fc
I0403 15:00:56.088987 11431 net.cpp:91] Creating Layer loss1/relu_fc
I0403 15:00:56.089005 11431 net.cpp:425] loss1/relu_fc <- loss1/fc
I0403 15:00:56.089026 11431 net.cpp:386] loss1/relu_fc -> loss1/fc (in-place)
I0403 15:00:56.089242 11431 net.cpp:141] Setting up loss1/relu_fc
I0403 15:00:56.089270 11431 net.cpp:148] Top shape: 24 1024 (24576)
I0403 15:00:56.089287 11431 net.cpp:156] Memory required for data: 946091040
I0403 15:00:56.089303 11431 layer_factory.hpp:77] Creating layer loss1/drop_fc
I0403 15:00:56.089332 11431 net.cpp:91] Creating Layer loss1/drop_fc
I0403 15:00:56.089351 11431 net.cpp:425] loss1/drop_fc <- loss1/fc
I0403 15:00:56.089372 11431 net.cpp:386] loss1/drop_fc -> loss1/fc (in-place)
I0403 15:00:56.089427 11431 net.cpp:141] Setting up loss1/drop_fc
I0403 15:00:56.089455 11431 net.cpp:148] Top shape: 24 1024 (24576)
I0403 15:00:56.089473 11431 net.cpp:156] Memory required for data: 946189344
I0403 15:00:56.089488 11431 layer_factory.hpp:77] Creating layer loss1/classifier_plantvillage
I0403 15:00:56.089507 11431 net.cpp:91] Creating Layer loss1/classifier_plantvillage
I0403 15:00:56.089525 11431 net.cpp:425] loss1/classifier_plantvillage <- loss1/fc
I0403 15:00:56.089547 11431 net.cpp:399] loss1/classifier_plantvillage -> loss1/classifier_plantvillage
I0403 15:00:56.090500 11431 net.cpp:141] Setting up loss1/classifier_plantvillage
I0403 15:00:56.090530 11431 net.cpp:148] Top shape: 24 38 (912)
I0403 15:00:56.090546 11431 net.cpp:156] Memory required for data: 946192992
I0403 15:00:56.090565 11431 layer_factory.hpp:77] Creating layer loss1/classifier_plantvillage_loss1/classifier_plantvillage_0_split
I0403 15:00:56.090585 11431 net.cpp:91] Creating Layer loss1/classifier_plantvillage_loss1/classifier_plantvillage_0_split
I0403 15:00:56.090602 11431 net.cpp:425] loss1/classifier_plantvillage_loss1/classifier_plantvillage_0_split <- loss1/classifier_plantvillage
I0403 15:00:56.090622 11431 net.cpp:399] loss1/classifier_plantvillage_loss1/classifier_plantvillage_0_split -> loss1/classifier_plantvillage_loss1/classifier_plantvillage_0_split_0
I0403 15:00:56.090646 11431 net.cpp:399] loss1/classifier_plantvillage_loss1/classifier_plantvillage_0_split -> loss1/classifier_plantvillage_loss1/classifier_plantvillage_0_split_1
I0403 15:00:56.090667 11431 net.cpp:399] loss1/classifier_plantvillage_loss1/classifier_plantvillage_0_split -> loss1/classifier_plantvillage_loss1/classifier_plantvillage_0_split_2
I0403 15:00:56.090739 11431 net.cpp:141] Setting up loss1/classifier_plantvillage_loss1/classifier_plantvillage_0_split
I0403 15:00:56.090764 11431 net.cpp:148] Top shape: 24 38 (912)
I0403 15:00:56.090780 11431 net.cpp:148] Top shape: 24 38 (912)
I0403 15:00:56.090796 11431 net.cpp:148] Top shape: 24 38 (912)
I0403 15:00:56.090811 11431 net.cpp:156] Memory required for data: 946203936
I0403 15:00:56.090826 11431 layer_factory.hpp:77] Creating layer inception_4b/1x1
I0403 15:00:56.090852 11431 net.cpp:91] Creating Layer inception_4b/1x1
I0403 15:00:56.090893 11431 net.cpp:425] inception_4b/1x1 <- inception_4a/output_inception_4a/output_0_split_1
I0403 15:00:56.090914 11431 net.cpp:399] inception_4b/1x1 -> inception_4b/1x1
I0403 15:00:56.092638 11431 net.cpp:141] Setting up inception_4b/1x1
I0403 15:00:56.092669 11431 net.cpp:148] Top shape: 24 160 14 14 (752640)
I0403 15:00:56.092685 11431 net.cpp:156] Memory required for data: 949214496
I0403 15:00:56.092705 11431 layer_factory.hpp:77] Creating layer inception_4b/relu_1x1
I0403 15:00:56.092725 11431 net.cpp:91] Creating Layer inception_4b/relu_1x1
I0403 15:00:56.092743 11431 net.cpp:425] inception_4b/relu_1x1 <- inception_4b/1x1
I0403 15:00:56.092762 11431 net.cpp:386] inception_4b/relu_1x1 -> inception_4b/1x1 (in-place)
I0403 15:00:56.092949 11431 net.cpp:141] Setting up inception_4b/relu_1x1
I0403 15:00:56.092979 11431 net.cpp:148] Top shape: 24 160 14 14 (752640)
I0403 15:00:56.092996 11431 net.cpp:156] Memory required for data: 952225056
I0403 15:00:56.093013 11431 layer_factory.hpp:77] Creating layer inception_4b/3x3_reduce
I0403 15:00:56.093035 11431 net.cpp:91] Creating Layer inception_4b/3x3_reduce
I0403 15:00:56.093055 11431 net.cpp:425] inception_4b/3x3_reduce <- inception_4a/output_inception_4a/output_0_split_2
I0403 15:00:56.093075 11431 net.cpp:399] inception_4b/3x3_reduce -> inception_4b/3x3_reduce
I0403 15:00:56.094480 11431 net.cpp:141] Setting up inception_4b/3x3_reduce
I0403 15:00:56.094512 11431 net.cpp:148] Top shape: 24 112 14 14 (526848)
I0403 15:00:56.094530 11431 net.cpp:156] Memory required for data: 954332448
I0403 15:00:56.094549 11431 layer_factory.hpp:77] Creating layer inception_4b/relu_3x3_reduce
I0403 15:00:56.094568 11431 net.cpp:91] Creating Layer inception_4b/relu_3x3_reduce
I0403 15:00:56.094586 11431 net.cpp:425] inception_4b/relu_3x3_reduce <- inception_4b/3x3_reduce
I0403 15:00:56.094604 11431 net.cpp:386] inception_4b/relu_3x3_reduce -> inception_4b/3x3_reduce (in-place)
I0403 15:00:56.094892 11431 net.cpp:141] Setting up inception_4b/relu_3x3_reduce
I0403 15:00:56.094923 11431 net.cpp:148] Top shape: 24 112 14 14 (526848)
I0403 15:00:56.094940 11431 net.cpp:156] Memory required for data: 956439840
I0403 15:00:56.094956 11431 layer_factory.hpp:77] Creating layer inception_4b/3x3
I0403 15:00:56.094979 11431 net.cpp:91] Creating Layer inception_4b/3x3
I0403 15:00:56.094995 11431 net.cpp:425] inception_4b/3x3 <- inception_4b/3x3_reduce
I0403 15:00:56.095018 11431 net.cpp:399] inception_4b/3x3 -> inception_4b/3x3
I0403 15:00:56.098086 11431 net.cpp:141] Setting up inception_4b/3x3
I0403 15:00:56.098120 11431 net.cpp:148] Top shape: 24 224 14 14 (1053696)
I0403 15:00:56.098139 11431 net.cpp:156] Memory required for data: 960654624
I0403 15:00:56.098158 11431 layer_factory.hpp:77] Creating layer inception_4b/relu_3x3
I0403 15:00:56.098177 11431 net.cpp:91] Creating Layer inception_4b/relu_3x3
I0403 15:00:56.098196 11431 net.cpp:425] inception_4b/relu_3x3 <- inception_4b/3x3
I0403 15:00:56.098218 11431 net.cpp:386] inception_4b/relu_3x3 -> inception_4b/3x3 (in-place)
I0403 15:00:56.098407 11431 net.cpp:141] Setting up inception_4b/relu_3x3
I0403 15:00:56.098438 11431 net.cpp:148] Top shape: 24 224 14 14 (1053696)
I0403 15:00:56.098453 11431 net.cpp:156] Memory required for data: 964869408
I0403 15:00:56.098469 11431 layer_factory.hpp:77] Creating layer inception_4b/5x5_reduce
I0403 15:00:56.098492 11431 net.cpp:91] Creating Layer inception_4b/5x5_reduce
I0403 15:00:56.098510 11431 net.cpp:425] inception_4b/5x5_reduce <- inception_4a/output_inception_4a/output_0_split_3
I0403 15:00:56.098533 11431 net.cpp:399] inception_4b/5x5_reduce -> inception_4b/5x5_reduce
I0403 15:00:56.099668 11431 net.cpp:141] Setting up inception_4b/5x5_reduce
I0403 15:00:56.099699 11431 net.cpp:148] Top shape: 24 24 14 14 (112896)
I0403 15:00:56.099715 11431 net.cpp:156] Memory required for data: 965320992
I0403 15:00:56.099735 11431 layer_factory.hpp:77] Creating layer inception_4b/relu_5x5_reduce
I0403 15:00:56.099756 11431 net.cpp:91] Creating Layer inception_4b/relu_5x5_reduce
I0403 15:00:56.099791 11431 net.cpp:425] inception_4b/relu_5x5_reduce <- inception_4b/5x5_reduce
I0403 15:00:56.099812 11431 net.cpp:386] inception_4b/relu_5x5_reduce -> inception_4b/5x5_reduce (in-place)
I0403 15:00:56.100002 11431 net.cpp:141] Setting up inception_4b/relu_5x5_reduce
I0403 15:00:56.100031 11431 net.cpp:148] Top shape: 24 24 14 14 (112896)
I0403 15:00:56.100049 11431 net.cpp:156] Memory required for data: 965772576
I0403 15:00:56.100064 11431 layer_factory.hpp:77] Creating layer inception_4b/5x5
I0403 15:00:56.100087 11431 net.cpp:91] Creating Layer inception_4b/5x5
I0403 15:00:56.100112 11431 net.cpp:425] inception_4b/5x5 <- inception_4b/5x5_reduce
I0403 15:00:56.100133 11431 net.cpp:399] inception_4b/5x5 -> inception_4b/5x5
I0403 15:00:56.101407 11431 net.cpp:141] Setting up inception_4b/5x5
I0403 15:00:56.101438 11431 net.cpp:148] Top shape: 24 64 14 14 (301056)
I0403 15:00:56.101454 11431 net.cpp:156] Memory required for data: 966976800
I0403 15:00:56.101475 11431 layer_factory.hpp:77] Creating layer inception_4b/relu_5x5
I0403 15:00:56.101495 11431 net.cpp:91] Creating Layer inception_4b/relu_5x5
I0403 15:00:56.101514 11431 net.cpp:425] inception_4b/relu_5x5 <- inception_4b/5x5
I0403 15:00:56.101532 11431 net.cpp:386] inception_4b/relu_5x5 -> inception_4b/5x5 (in-place)
I0403 15:00:56.101830 11431 net.cpp:141] Setting up inception_4b/relu_5x5
I0403 15:00:56.101858 11431 net.cpp:148] Top shape: 24 64 14 14 (301056)
I0403 15:00:56.101874 11431 net.cpp:156] Memory required for data: 968181024
I0403 15:00:56.101888 11431 layer_factory.hpp:77] Creating layer inception_4b/pool
I0403 15:00:56.101912 11431 net.cpp:91] Creating Layer inception_4b/pool
I0403 15:00:56.101933 11431 net.cpp:425] inception_4b/pool <- inception_4a/output_inception_4a/output_0_split_4
I0403 15:00:56.101954 11431 net.cpp:399] inception_4b/pool -> inception_4b/pool
I0403 15:00:56.102022 11431 net.cpp:141] Setting up inception_4b/pool
I0403 15:00:56.102047 11431 net.cpp:148] Top shape: 24 512 14 14 (2408448)
I0403 15:00:56.102063 11431 net.cpp:156] Memory required for data: 977814816
I0403 15:00:56.102079 11431 layer_factory.hpp:77] Creating layer inception_4b/pool_proj
I0403 15:00:56.102108 11431 net.cpp:91] Creating Layer inception_4b/pool_proj
I0403 15:00:56.102128 11431 net.cpp:425] inception_4b/pool_proj <- inception_4b/pool
I0403 15:00:56.102149 11431 net.cpp:399] inception_4b/pool_proj -> inception_4b/pool_proj
I0403 15:00:56.103404 11431 net.cpp:141] Setting up inception_4b/pool_proj
I0403 15:00:56.103432 11431 net.cpp:148] Top shape: 24 64 14 14 (301056)
I0403 15:00:56.103449 11431 net.cpp:156] Memory required for data: 979019040
I0403 15:00:56.103468 11431 layer_factory.hpp:77] Creating layer inception_4b/relu_pool_proj
I0403 15:00:56.103490 11431 net.cpp:91] Creating Layer inception_4b/relu_pool_proj
I0403 15:00:56.103508 11431 net.cpp:425] inception_4b/relu_pool_proj <- inception_4b/pool_proj
I0403 15:00:56.103528 11431 net.cpp:386] inception_4b/relu_pool_proj -> inception_4b/pool_proj (in-place)
I0403 15:00:56.103716 11431 net.cpp:141] Setting up inception_4b/relu_pool_proj
I0403 15:00:56.103749 11431 net.cpp:148] Top shape: 24 64 14 14 (301056)
I0403 15:00:56.103765 11431 net.cpp:156] Memory required for data: 980223264
I0403 15:00:56.103781 11431 layer_factory.hpp:77] Creating layer inception_4b/output
I0403 15:00:56.103799 11431 net.cpp:91] Creating Layer inception_4b/output
I0403 15:00:56.103816 11431 net.cpp:425] inception_4b/output <- inception_4b/1x1
I0403 15:00:56.103833 11431 net.cpp:425] inception_4b/output <- inception_4b/3x3
I0403 15:00:56.103850 11431 net.cpp:425] inception_4b/output <- inception_4b/5x5
I0403 15:00:56.103868 11431 net.cpp:425] inception_4b/output <- inception_4b/pool_proj
I0403 15:00:56.103884 11431 net.cpp:399] inception_4b/output -> inception_4b/output
I0403 15:00:56.103934 11431 net.cpp:141] Setting up inception_4b/output
I0403 15:00:56.103958 11431 net.cpp:148] Top shape: 24 512 14 14 (2408448)
I0403 15:00:56.103973 11431 net.cpp:156] Memory required for data: 989857056
I0403 15:00:56.104004 11431 layer_factory.hpp:77] Creating layer inception_4b/output_inception_4b/output_0_split
I0403 15:00:56.104027 11431 net.cpp:91] Creating Layer inception_4b/output_inception_4b/output_0_split
I0403 15:00:56.104044 11431 net.cpp:425] inception_4b/output_inception_4b/output_0_split <- inception_4b/output
I0403 15:00:56.104063 11431 net.cpp:399] inception_4b/output_inception_4b/output_0_split -> inception_4b/output_inception_4b/output_0_split_0
I0403 15:00:56.104084 11431 net.cpp:399] inception_4b/output_inception_4b/output_0_split -> inception_4b/output_inception_4b/output_0_split_1
I0403 15:00:56.104111 11431 net.cpp:399] inception_4b/output_inception_4b/output_0_split -> inception_4b/output_inception_4b/output_0_split_2
I0403 15:00:56.104136 11431 net.cpp:399] inception_4b/output_inception_4b/output_0_split -> inception_4b/output_inception_4b/output_0_split_3
I0403 15:00:56.104226 11431 net.cpp:141] Setting up inception_4b/output_inception_4b/output_0_split
I0403 15:00:56.104252 11431 net.cpp:148] Top shape: 24 512 14 14 (2408448)
I0403 15:00:56.104269 11431 net.cpp:148] Top shape: 24 512 14 14 (2408448)
I0403 15:00:56.104285 11431 net.cpp:148] Top shape: 24 512 14 14 (2408448)
I0403 15:00:56.104301 11431 net.cpp:148] Top shape: 24 512 14 14 (2408448)
I0403 15:00:56.104316 11431 net.cpp:156] Memory required for data: 1028392224
I0403 15:00:56.104331 11431 layer_factory.hpp:77] Creating layer inception_4c/1x1
I0403 15:00:56.104357 11431 net.cpp:91] Creating Layer inception_4c/1x1
I0403 15:00:56.104377 11431 net.cpp:425] inception_4c/1x1 <- inception_4b/output_inception_4b/output_0_split_0
I0403 15:00:56.104399 11431 net.cpp:399] inception_4c/1x1 -> inception_4c/1x1
I0403 15:00:56.105886 11431 net.cpp:141] Setting up inception_4c/1x1
I0403 15:00:56.105918 11431 net.cpp:148] Top shape: 24 128 14 14 (602112)
I0403 15:00:56.105936 11431 net.cpp:156] Memory required for data: 1030800672
I0403 15:00:56.105954 11431 layer_factory.hpp:77] Creating layer inception_4c/relu_1x1
I0403 15:00:56.105973 11431 net.cpp:91] Creating Layer inception_4c/relu_1x1
I0403 15:00:56.105989 11431 net.cpp:425] inception_4c/relu_1x1 <- inception_4c/1x1
I0403 15:00:56.106009 11431 net.cpp:386] inception_4c/relu_1x1 -> inception_4c/1x1 (in-place)
I0403 15:00:56.106204 11431 net.cpp:141] Setting up inception_4c/relu_1x1
I0403 15:00:56.106230 11431 net.cpp:148] Top shape: 24 128 14 14 (602112)
I0403 15:00:56.106245 11431 net.cpp:156] Memory required for data: 1033209120
I0403 15:00:56.106261 11431 layer_factory.hpp:77] Creating layer inception_4c/3x3_reduce
I0403 15:00:56.106286 11431 net.cpp:91] Creating Layer inception_4c/3x3_reduce
I0403 15:00:56.106304 11431 net.cpp:425] inception_4c/3x3_reduce <- inception_4b/output_inception_4b/output_0_split_1
I0403 15:00:56.106328 11431 net.cpp:399] inception_4c/3x3_reduce -> inception_4c/3x3_reduce
I0403 15:00:56.108331 11431 net.cpp:141] Setting up inception_4c/3x3_reduce
I0403 15:00:56.108361 11431 net.cpp:148] Top shape: 24 128 14 14 (602112)
I0403 15:00:56.108381 11431 net.cpp:156] Memory required for data: 1035617568
I0403 15:00:56.108400 11431 layer_factory.hpp:77] Creating layer inception_4c/relu_3x3_reduce
I0403 15:00:56.108422 11431 net.cpp:91] Creating Layer inception_4c/relu_3x3_reduce
I0403 15:00:56.108440 11431 net.cpp:425] inception_4c/relu_3x3_reduce <- inception_4c/3x3_reduce
I0403 15:00:56.108459 11431 net.cpp:386] inception_4c/relu_3x3_reduce -> inception_4c/3x3_reduce (in-place)
I0403 15:00:56.108754 11431 net.cpp:141] Setting up inception_4c/relu_3x3_reduce
I0403 15:00:56.108783 11431 net.cpp:148] Top shape: 24 128 14 14 (602112)
I0403 15:00:56.108799 11431 net.cpp:156] Memory required for data: 1038026016
I0403 15:00:56.108815 11431 layer_factory.hpp:77] Creating layer inception_4c/3x3
I0403 15:00:56.108839 11431 net.cpp:91] Creating Layer inception_4c/3x3
I0403 15:00:56.108858 11431 net.cpp:425] inception_4c/3x3 <- inception_4c/3x3_reduce
I0403 15:00:56.108880 11431 net.cpp:399] inception_4c/3x3 -> inception_4c/3x3
I0403 15:00:56.112598 11431 net.cpp:141] Setting up inception_4c/3x3
I0403 15:00:56.112643 11431 net.cpp:148] Top shape: 24 256 14 14 (1204224)
I0403 15:00:56.112660 11431 net.cpp:156] Memory required for data: 1042842912
I0403 15:00:56.112695 11431 layer_factory.hpp:77] Creating layer inception_4c/relu_3x3
I0403 15:00:56.112720 11431 net.cpp:91] Creating Layer inception_4c/relu_3x3
I0403 15:00:56.112740 11431 net.cpp:425] inception_4c/relu_3x3 <- inception_4c/3x3
I0403 15:00:56.112759 11431 net.cpp:386] inception_4c/relu_3x3 -> inception_4c/3x3 (in-place)
I0403 15:00:56.112949 11431 net.cpp:141] Setting up inception_4c/relu_3x3
I0403 15:00:56.112977 11431 net.cpp:148] Top shape: 24 256 14 14 (1204224)
I0403 15:00:56.112993 11431 net.cpp:156] Memory required for data: 1047659808
I0403 15:00:56.113009 11431 layer_factory.hpp:77] Creating layer inception_4c/5x5_reduce
I0403 15:00:56.113032 11431 net.cpp:91] Creating Layer inception_4c/5x5_reduce
I0403 15:00:56.113051 11431 net.cpp:425] inception_4c/5x5_reduce <- inception_4b/output_inception_4b/output_0_split_2
I0403 15:00:56.113075 11431 net.cpp:399] inception_4c/5x5_reduce -> inception_4c/5x5_reduce
I0403 15:00:56.114218 11431 net.cpp:141] Setting up inception_4c/5x5_reduce
I0403 15:00:56.114248 11431 net.cpp:148] Top shape: 24 24 14 14 (112896)
I0403 15:00:56.114264 11431 net.cpp:156] Memory required for data: 1048111392
I0403 15:00:56.114284 11431 layer_factory.hpp:77] Creating layer inception_4c/relu_5x5_reduce
I0403 15:00:56.114306 11431 net.cpp:91] Creating Layer inception_4c/relu_5x5_reduce
I0403 15:00:56.114326 11431 net.cpp:425] inception_4c/relu_5x5_reduce <- inception_4c/5x5_reduce
I0403 15:00:56.114344 11431 net.cpp:386] inception_4c/relu_5x5_reduce -> inception_4c/5x5_reduce (in-place)
I0403 15:00:56.114539 11431 net.cpp:141] Setting up inception_4c/relu_5x5_reduce
I0403 15:00:56.114568 11431 net.cpp:148] Top shape: 24 24 14 14 (112896)
I0403 15:00:56.114584 11431 net.cpp:156] Memory required for data: 1048562976
I0403 15:00:56.114600 11431 layer_factory.hpp:77] Creating layer inception_4c/5x5
I0403 15:00:56.114624 11431 net.cpp:91] Creating Layer inception_4c/5x5
I0403 15:00:56.114644 11431 net.cpp:425] inception_4c/5x5 <- inception_4c/5x5_reduce
I0403 15:00:56.114663 11431 net.cpp:399] inception_4c/5x5 -> inception_4c/5x5
I0403 15:00:56.115958 11431 net.cpp:141] Setting up inception_4c/5x5
I0403 15:00:56.115990 11431 net.cpp:148] Top shape: 24 64 14 14 (301056)
I0403 15:00:56.116008 11431 net.cpp:156] Memory required for data: 1049767200
I0403 15:00:56.116027 11431 layer_factory.hpp:77] Creating layer inception_4c/relu_5x5
I0403 15:00:56.116046 11431 net.cpp:91] Creating Layer inception_4c/relu_5x5
I0403 15:00:56.116063 11431 net.cpp:425] inception_4c/relu_5x5 <- inception_4c/5x5
I0403 15:00:56.116081 11431 net.cpp:386] inception_4c/relu_5x5 -> inception_4c/5x5 (in-place)
I0403 15:00:56.116389 11431 net.cpp:141] Setting up inception_4c/relu_5x5
I0403 15:00:56.116421 11431 net.cpp:148] Top shape: 24 64 14 14 (301056)
I0403 15:00:56.116438 11431 net.cpp:156] Memory required for data: 1050971424
I0403 15:00:56.116454 11431 layer_factory.hpp:77] Creating layer inception_4c/pool
I0403 15:00:56.116473 11431 net.cpp:91] Creating Layer inception_4c/pool
I0403 15:00:56.116489 11431 net.cpp:425] inception_4c/pool <- inception_4b/output_inception_4b/output_0_split_3
I0403 15:00:56.116511 11431 net.cpp:399] inception_4c/pool -> inception_4c/pool
I0403 15:00:56.116580 11431 net.cpp:141] Setting up inception_4c/pool
I0403 15:00:56.116605 11431 net.cpp:148] Top shape: 24 512 14 14 (2408448)
I0403 15:00:56.116621 11431 net.cpp:156] Memory required for data: 1060605216
I0403 15:00:56.116636 11431 layer_factory.hpp:77] Creating layer inception_4c/pool_proj
I0403 15:00:56.116659 11431 net.cpp:91] Creating Layer inception_4c/pool_proj
I0403 15:00:56.116683 11431 net.cpp:425] inception_4c/pool_proj <- inception_4c/pool
I0403 15:00:56.116703 11431 net.cpp:399] inception_4c/pool_proj -> inception_4c/pool_proj
I0403 15:00:56.117980 11431 net.cpp:141] Setting up inception_4c/pool_proj
I0403 15:00:56.118010 11431 net.cpp:148] Top shape: 24 64 14 14 (301056)
I0403 15:00:56.118041 11431 net.cpp:156] Memory required for data: 1061809440
I0403 15:00:56.118062 11431 layer_factory.hpp:77] Creating layer inception_4c/relu_pool_proj
I0403 15:00:56.118084 11431 net.cpp:91] Creating Layer inception_4c/relu_pool_proj
I0403 15:00:56.118108 11431 net.cpp:425] inception_4c/relu_pool_proj <- inception_4c/pool_proj
I0403 15:00:56.118129 11431 net.cpp:386] inception_4c/relu_pool_proj -> inception_4c/pool_proj (in-place)
I0403 15:00:56.118320 11431 net.cpp:141] Setting up inception_4c/relu_pool_proj
I0403 15:00:56.118350 11431 net.cpp:148] Top shape: 24 64 14 14 (301056)
I0403 15:00:56.118367 11431 net.cpp:156] Memory required for data: 1063013664
I0403 15:00:56.118383 11431 layer_factory.hpp:77] Creating layer inception_4c/output
I0403 15:00:56.118402 11431 net.cpp:91] Creating Layer inception_4c/output
I0403 15:00:56.118418 11431 net.cpp:425] inception_4c/output <- inception_4c/1x1
I0403 15:00:56.118437 11431 net.cpp:425] inception_4c/output <- inception_4c/3x3
I0403 15:00:56.118453 11431 net.cpp:425] inception_4c/output <- inception_4c/5x5
I0403 15:00:56.118469 11431 net.cpp:425] inception_4c/output <- inception_4c/pool_proj
I0403 15:00:56.118485 11431 net.cpp:399] inception_4c/output -> inception_4c/output
I0403 15:00:56.118535 11431 net.cpp:141] Setting up inception_4c/output
I0403 15:00:56.118561 11431 net.cpp:148] Top shape: 24 512 14 14 (2408448)
I0403 15:00:56.118577 11431 net.cpp:156] Memory required for data: 1072647456
I0403 15:00:56.118592 11431 layer_factory.hpp:77] Creating layer inception_4c/output_inception_4c/output_0_split
I0403 15:00:56.118613 11431 net.cpp:91] Creating Layer inception_4c/output_inception_4c/output_0_split
I0403 15:00:56.118633 11431 net.cpp:425] inception_4c/output_inception_4c/output_0_split <- inception_4c/output
I0403 15:00:56.118651 11431 net.cpp:399] inception_4c/output_inception_4c/output_0_split -> inception_4c/output_inception_4c/output_0_split_0
I0403 15:00:56.118674 11431 net.cpp:399] inception_4c/output_inception_4c/output_0_split -> inception_4c/output_inception_4c/output_0_split_1
I0403 15:00:56.118695 11431 net.cpp:399] inception_4c/output_inception_4c/output_0_split -> inception_4c/output_inception_4c/output_0_split_2
I0403 15:00:56.118717 11431 net.cpp:399] inception_4c/output_inception_4c/output_0_split -> inception_4c/output_inception_4c/output_0_split_3
I0403 15:00:56.118806 11431 net.cpp:141] Setting up inception_4c/output_inception_4c/output_0_split
I0403 15:00:56.118832 11431 net.cpp:148] Top shape: 24 512 14 14 (2408448)
I0403 15:00:56.118849 11431 net.cpp:148] Top shape: 24 512 14 14 (2408448)
I0403 15:00:56.118865 11431 net.cpp:148] Top shape: 24 512 14 14 (2408448)
I0403 15:00:56.118881 11431 net.cpp:148] Top shape: 24 512 14 14 (2408448)
I0403 15:00:56.118896 11431 net.cpp:156] Memory required for data: 1111182624
I0403 15:00:56.118911 11431 layer_factory.hpp:77] Creating layer inception_4d/1x1
I0403 15:00:56.118933 11431 net.cpp:91] Creating Layer inception_4d/1x1
I0403 15:00:56.118953 11431 net.cpp:425] inception_4d/1x1 <- inception_4c/output_inception_4c/output_0_split_0
I0403 15:00:56.118975 11431 net.cpp:399] inception_4d/1x1 -> inception_4d/1x1
I0403 15:00:56.120420 11431 net.cpp:141] Setting up inception_4d/1x1
I0403 15:00:56.120450 11431 net.cpp:148] Top shape: 24 112 14 14 (526848)
I0403 15:00:56.120466 11431 net.cpp:156] Memory required for data: 1113290016
I0403 15:00:56.120486 11431 layer_factory.hpp:77] Creating layer inception_4d/relu_1x1
I0403 15:00:56.120506 11431 net.cpp:91] Creating Layer inception_4d/relu_1x1
I0403 15:00:56.120522 11431 net.cpp:425] inception_4d/relu_1x1 <- inception_4d/1x1
I0403 15:00:56.120543 11431 net.cpp:386] inception_4d/relu_1x1 -> inception_4d/1x1 (in-place)
I0403 15:00:56.120735 11431 net.cpp:141] Setting up inception_4d/relu_1x1
I0403 15:00:56.120762 11431 net.cpp:148] Top shape: 24 112 14 14 (526848)
I0403 15:00:56.120779 11431 net.cpp:156] Memory required for data: 1115397408
I0403 15:00:56.120795 11431 layer_factory.hpp:77] Creating layer inception_4d/3x3_reduce
I0403 15:00:56.120832 11431 net.cpp:91] Creating Layer inception_4d/3x3_reduce
I0403 15:00:56.120852 11431 net.cpp:425] inception_4d/3x3_reduce <- inception_4c/output_inception_4c/output_0_split_1
I0403 15:00:56.120875 11431 net.cpp:399] inception_4d/3x3_reduce -> inception_4d/3x3_reduce
I0403 15:00:56.122438 11431 net.cpp:141] Setting up inception_4d/3x3_reduce
I0403 15:00:56.122469 11431 net.cpp:148] Top shape: 24 144 14 14 (677376)
I0403 15:00:56.122488 11431 net.cpp:156] Memory required for data: 1118106912
I0403 15:00:56.122509 11431 layer_factory.hpp:77] Creating layer inception_4d/relu_3x3_reduce
I0403 15:00:56.122527 11431 net.cpp:91] Creating Layer inception_4d/relu_3x3_reduce
I0403 15:00:56.122545 11431 net.cpp:425] inception_4d/relu_3x3_reduce <- inception_4d/3x3_reduce
I0403 15:00:56.122565 11431 net.cpp:386] inception_4d/relu_3x3_reduce -> inception_4d/3x3_reduce (in-place)
I0403 15:00:56.122864 11431 net.cpp:141] Setting up inception_4d/relu_3x3_reduce
I0403 15:00:56.122894 11431 net.cpp:148] Top shape: 24 144 14 14 (677376)
I0403 15:00:56.122911 11431 net.cpp:156] Memory required for data: 1120816416
I0403 15:00:56.122926 11431 layer_factory.hpp:77] Creating layer inception_4d/3x3
I0403 15:00:56.122949 11431 net.cpp:91] Creating Layer inception_4d/3x3
I0403 15:00:56.122968 11431 net.cpp:425] inception_4d/3x3 <- inception_4d/3x3_reduce
I0403 15:00:56.122988 11431 net.cpp:399] inception_4d/3x3 -> inception_4d/3x3
I0403 15:00:56.127403 11431 net.cpp:141] Setting up inception_4d/3x3
I0403 15:00:56.127436 11431 net.cpp:148] Top shape: 24 288 14 14 (1354752)
I0403 15:00:56.127454 11431 net.cpp:156] Memory required for data: 1126235424
I0403 15:00:56.127472 11431 layer_factory.hpp:77] Creating layer inception_4d/relu_3x3
I0403 15:00:56.127495 11431 net.cpp:91] Creating Layer inception_4d/relu_3x3
I0403 15:00:56.127514 11431 net.cpp:425] inception_4d/relu_3x3 <- inception_4d/3x3
I0403 15:00:56.127533 11431 net.cpp:386] inception_4d/relu_3x3 -> inception_4d/3x3 (in-place)
I0403 15:00:56.127722 11431 net.cpp:141] Setting up inception_4d/relu_3x3
I0403 15:00:56.127749 11431 net.cpp:148] Top shape: 24 288 14 14 (1354752)
I0403 15:00:56.127765 11431 net.cpp:156] Memory required for data: 1131654432
I0403 15:00:56.127780 11431 layer_factory.hpp:77] Creating layer inception_4d/5x5_reduce
I0403 15:00:56.127804 11431 net.cpp:91] Creating Layer inception_4d/5x5_reduce
I0403 15:00:56.127823 11431 net.cpp:425] inception_4d/5x5_reduce <- inception_4c/output_inception_4c/output_0_split_2
I0403 15:00:56.127845 11431 net.cpp:399] inception_4d/5x5_reduce -> inception_4d/5x5_reduce
I0403 15:00:56.129037 11431 net.cpp:141] Setting up inception_4d/5x5_reduce
I0403 15:00:56.129066 11431 net.cpp:148] Top shape: 24 32 14 14 (150528)
I0403 15:00:56.129082 11431 net.cpp:156] Memory required for data: 1132256544
I0403 15:00:56.129107 11431 layer_factory.hpp:77] Creating layer inception_4d/relu_5x5_reduce
I0403 15:00:56.129128 11431 net.cpp:91] Creating Layer inception_4d/relu_5x5_reduce
I0403 15:00:56.129148 11431 net.cpp:425] inception_4d/relu_5x5_reduce <- inception_4d/5x5_reduce
I0403 15:00:56.129169 11431 net.cpp:386] inception_4d/relu_5x5_reduce -> inception_4d/5x5_reduce (in-place)
I0403 15:00:56.129365 11431 net.cpp:141] Setting up inception_4d/relu_5x5_reduce
I0403 15:00:56.129393 11431 net.cpp:148] Top shape: 24 32 14 14 (150528)
I0403 15:00:56.129410 11431 net.cpp:156] Memory required for data: 1132858656
I0403 15:00:56.129425 11431 layer_factory.hpp:77] Creating layer inception_4d/5x5
I0403 15:00:56.129448 11431 net.cpp:91] Creating Layer inception_4d/5x5
I0403 15:00:56.129467 11431 net.cpp:425] inception_4d/5x5 <- inception_4d/5x5_reduce
I0403 15:00:56.129487 11431 net.cpp:399] inception_4d/5x5 -> inception_4d/5x5
I0403 15:00:56.131032 11431 net.cpp:141] Setting up inception_4d/5x5
I0403 15:00:56.131064 11431 net.cpp:148] Top shape: 24 64 14 14 (301056)
I0403 15:00:56.131081 11431 net.cpp:156] Memory required for data: 1134062880
I0403 15:00:56.131106 11431 layer_factory.hpp:77] Creating layer inception_4d/relu_5x5
I0403 15:00:56.131144 11431 net.cpp:91] Creating Layer inception_4d/relu_5x5
I0403 15:00:56.131161 11431 net.cpp:425] inception_4d/relu_5x5 <- inception_4d/5x5
I0403 15:00:56.131180 11431 net.cpp:386] inception_4d/relu_5x5 -> inception_4d/5x5 (in-place)
I0403 15:00:56.131490 11431 net.cpp:141] Setting up inception_4d/relu_5x5
I0403 15:00:56.131521 11431 net.cpp:148] Top shape: 24 64 14 14 (301056)
I0403 15:00:56.131538 11431 net.cpp:156] Memory required for data: 1135267104
I0403 15:00:56.131554 11431 layer_factory.hpp:77] Creating layer inception_4d/pool
I0403 15:00:56.131572 11431 net.cpp:91] Creating Layer inception_4d/pool
I0403 15:00:56.131590 11431 net.cpp:425] inception_4d/pool <- inception_4c/output_inception_4c/output_0_split_3
I0403 15:00:56.131609 11431 net.cpp:399] inception_4d/pool -> inception_4d/pool
I0403 15:00:56.131680 11431 net.cpp:141] Setting up inception_4d/pool
I0403 15:00:56.131705 11431 net.cpp:148] Top shape: 24 512 14 14 (2408448)
I0403 15:00:56.131721 11431 net.cpp:156] Memory required for data: 1144900896
I0403 15:00:56.131736 11431 layer_factory.hpp:77] Creating layer inception_4d/pool_proj
I0403 15:00:56.131757 11431 net.cpp:91] Creating Layer inception_4d/pool_proj
I0403 15:00:56.131777 11431 net.cpp:425] inception_4d/pool_proj <- inception_4d/pool
I0403 15:00:56.131798 11431 net.cpp:399] inception_4d/pool_proj -> inception_4d/pool_proj
I0403 15:00:56.133642 11431 net.cpp:141] Setting up inception_4d/pool_proj
I0403 15:00:56.133674 11431 net.cpp:148] Top shape: 24 64 14 14 (301056)
I0403 15:00:56.133690 11431 net.cpp:156] Memory required for data: 1146105120
I0403 15:00:56.133710 11431 layer_factory.hpp:77] Creating layer inception_4d/relu_pool_proj
I0403 15:00:56.133731 11431 net.cpp:91] Creating Layer inception_4d/relu_pool_proj
I0403 15:00:56.133750 11431 net.cpp:425] inception_4d/relu_pool_proj <- inception_4d/pool_proj
I0403 15:00:56.133769 11431 net.cpp:386] inception_4d/relu_pool_proj -> inception_4d/pool_proj (in-place)
I0403 15:00:56.133960 11431 net.cpp:141] Setting up inception_4d/relu_pool_proj
I0403 15:00:56.133985 11431 net.cpp:148] Top shape: 24 64 14 14 (301056)
I0403 15:00:56.134001 11431 net.cpp:156] Memory required for data: 1147309344
I0403 15:00:56.134017 11431 layer_factory.hpp:77] Creating layer inception_4d/output
I0403 15:00:56.134037 11431 net.cpp:91] Creating Layer inception_4d/output
I0403 15:00:56.134057 11431 net.cpp:425] inception_4d/output <- inception_4d/1x1
I0403 15:00:56.134073 11431 net.cpp:425] inception_4d/output <- inception_4d/3x3
I0403 15:00:56.134090 11431 net.cpp:425] inception_4d/output <- inception_4d/5x5
I0403 15:00:56.134114 11431 net.cpp:425] inception_4d/output <- inception_4d/pool_proj
I0403 15:00:56.134133 11431 net.cpp:399] inception_4d/output -> inception_4d/output
I0403 15:00:56.134184 11431 net.cpp:141] Setting up inception_4d/output
I0403 15:00:56.134210 11431 net.cpp:148] Top shape: 24 528 14 14 (2483712)
I0403 15:00:56.134225 11431 net.cpp:156] Memory required for data: 1157244192
I0403 15:00:56.134240 11431 layer_factory.hpp:77] Creating layer inception_4d/output_inception_4d/output_0_split
I0403 15:00:56.134258 11431 net.cpp:91] Creating Layer inception_4d/output_inception_4d/output_0_split
I0403 15:00:56.134274 11431 net.cpp:425] inception_4d/output_inception_4d/output_0_split <- inception_4d/output
I0403 15:00:56.134295 11431 net.cpp:399] inception_4d/output_inception_4d/output_0_split -> inception_4d/output_inception_4d/output_0_split_0
I0403 15:00:56.134318 11431 net.cpp:399] inception_4d/output_inception_4d/output_0_split -> inception_4d/output_inception_4d/output_0_split_1
I0403 15:00:56.134340 11431 net.cpp:399] inception_4d/output_inception_4d/output_0_split -> inception_4d/output_inception_4d/output_0_split_2
I0403 15:00:56.134361 11431 net.cpp:399] inception_4d/output_inception_4d/output_0_split -> inception_4d/output_inception_4d/output_0_split_3
I0403 15:00:56.134390 11431 net.cpp:399] inception_4d/output_inception_4d/output_0_split -> inception_4d/output_inception_4d/output_0_split_4
I0403 15:00:56.134495 11431 net.cpp:141] Setting up inception_4d/output_inception_4d/output_0_split
I0403 15:00:56.134533 11431 net.cpp:148] Top shape: 24 528 14 14 (2483712)
I0403 15:00:56.134551 11431 net.cpp:148] Top shape: 24 528 14 14 (2483712)
I0403 15:00:56.134567 11431 net.cpp:148] Top shape: 24 528 14 14 (2483712)
I0403 15:00:56.134582 11431 net.cpp:148] Top shape: 24 528 14 14 (2483712)
I0403 15:00:56.134598 11431 net.cpp:148] Top shape: 24 528 14 14 (2483712)
I0403 15:00:56.134613 11431 net.cpp:156] Memory required for data: 1206918432
I0403 15:00:56.134626 11431 layer_factory.hpp:77] Creating layer loss2/ave_pool
I0403 15:00:56.134644 11431 net.cpp:91] Creating Layer loss2/ave_pool
I0403 15:00:56.134660 11431 net.cpp:425] loss2/ave_pool <- inception_4d/output_inception_4d/output_0_split_0
I0403 15:00:56.134682 11431 net.cpp:399] loss2/ave_pool -> loss2/ave_pool
I0403 15:00:56.135006 11431 net.cpp:141] Setting up loss2/ave_pool
I0403 15:00:56.135033 11431 net.cpp:148] Top shape: 24 528 4 4 (202752)
I0403 15:00:56.135049 11431 net.cpp:156] Memory required for data: 1207729440
I0403 15:00:56.135064 11431 layer_factory.hpp:77] Creating layer loss2/conv
I0403 15:00:56.135087 11431 net.cpp:91] Creating Layer loss2/conv
I0403 15:00:56.135123 11431 net.cpp:425] loss2/conv <- loss2/ave_pool
I0403 15:00:56.135146 11431 net.cpp:399] loss2/conv -> loss2/conv
I0403 15:00:56.137105 11431 net.cpp:141] Setting up loss2/conv
I0403 15:00:56.137135 11431 net.cpp:148] Top shape: 24 128 4 4 (49152)
I0403 15:00:56.137151 11431 net.cpp:156] Memory required for data: 1207926048
I0403 15:00:56.137171 11431 layer_factory.hpp:77] Creating layer loss2/relu_conv
I0403 15:00:56.137190 11431 net.cpp:91] Creating Layer loss2/relu_conv
I0403 15:00:56.137208 11431 net.cpp:425] loss2/relu_conv <- loss2/conv
I0403 15:00:56.137226 11431 net.cpp:386] loss2/relu_conv -> loss2/conv (in-place)
I0403 15:00:56.137521 11431 net.cpp:141] Setting up loss2/relu_conv
I0403 15:00:56.137548 11431 net.cpp:148] Top shape: 24 128 4 4 (49152)
I0403 15:00:56.137564 11431 net.cpp:156] Memory required for data: 1208122656
I0403 15:00:56.137580 11431 layer_factory.hpp:77] Creating layer loss2/fc
I0403 15:00:56.137603 11431 net.cpp:91] Creating Layer loss2/fc
I0403 15:00:56.137621 11431 net.cpp:425] loss2/fc <- loss2/conv
I0403 15:00:56.137644 11431 net.cpp:399] loss2/fc -> loss2/fc
I0403 15:00:56.155910 11431 net.cpp:141] Setting up loss2/fc
I0403 15:00:56.155972 11431 net.cpp:148] Top shape: 24 1024 (24576)
I0403 15:00:56.155987 11431 net.cpp:156] Memory required for data: 1208220960
I0403 15:00:56.156008 11431 layer_factory.hpp:77] Creating layer loss2/relu_fc
I0403 15:00:56.156028 11431 net.cpp:91] Creating Layer loss2/relu_fc
I0403 15:00:56.156046 11431 net.cpp:425] loss2/relu_fc <- loss2/fc
I0403 15:00:56.156070 11431 net.cpp:386] loss2/relu_fc -> loss2/fc (in-place)
I0403 15:00:56.156435 11431 net.cpp:141] Setting up loss2/relu_fc
I0403 15:00:56.156461 11431 net.cpp:148] Top shape: 24 1024 (24576)
I0403 15:00:56.156477 11431 net.cpp:156] Memory required for data: 1208319264
I0403 15:00:56.156492 11431 layer_factory.hpp:77] Creating layer loss2/drop_fc
I0403 15:00:56.156510 11431 net.cpp:91] Creating Layer loss2/drop_fc
I0403 15:00:56.156527 11431 net.cpp:425] loss2/drop_fc <- loss2/fc
I0403 15:00:56.156548 11431 net.cpp:386] loss2/drop_fc -> loss2/fc (in-place)
I0403 15:00:56.156601 11431 net.cpp:141] Setting up loss2/drop_fc
I0403 15:00:56.156625 11431 net.cpp:148] Top shape: 24 1024 (24576)
I0403 15:00:56.156640 11431 net.cpp:156] Memory required for data: 1208417568
I0403 15:00:56.156654 11431 layer_factory.hpp:77] Creating layer loss2/classifier_plantvillage
I0403 15:00:56.156673 11431 net.cpp:91] Creating Layer loss2/classifier_plantvillage
I0403 15:00:56.156689 11431 net.cpp:425] loss2/classifier_plantvillage <- loss2/fc
I0403 15:00:56.156713 11431 net.cpp:399] loss2/classifier_plantvillage -> loss2/classifier_plantvillage
I0403 15:00:56.157145 11431 net.cpp:141] Setting up loss2/classifier_plantvillage
I0403 15:00:56.157171 11431 net.cpp:148] Top shape: 24 38 (912)
I0403 15:00:56.157212 11431 net.cpp:156] Memory required for data: 1208421216
I0403 15:00:56.157232 11431 layer_factory.hpp:77] Creating layer loss2/classifier_plantvillage_loss2/classifier_plantvillage_0_split
I0403 15:00:56.157253 11431 net.cpp:91] Creating Layer loss2/classifier_plantvillage_loss2/classifier_plantvillage_0_split
I0403 15:00:56.157271 11431 net.cpp:425] loss2/classifier_plantvillage_loss2/classifier_plantvillage_0_split <- loss2/classifier_plantvillage
I0403 15:00:56.157292 11431 net.cpp:399] loss2/classifier_plantvillage_loss2/classifier_plantvillage_0_split -> loss2/classifier_plantvillage_loss2/classifier_plantvillage_0_split_0
I0403 15:00:56.157315 11431 net.cpp:399] loss2/classifier_plantvillage_loss2/classifier_plantvillage_0_split -> loss2/classifier_plantvillage_loss2/classifier_plantvillage_0_split_1
I0403 15:00:56.157335 11431 net.cpp:399] loss2/classifier_plantvillage_loss2/classifier_plantvillage_0_split -> loss2/classifier_plantvillage_loss2/classifier_plantvillage_0_split_2
I0403 15:00:56.157413 11431 net.cpp:141] Setting up loss2/classifier_plantvillage_loss2/classifier_plantvillage_0_split
I0403 15:00:56.157438 11431 net.cpp:148] Top shape: 24 38 (912)
I0403 15:00:56.157454 11431 net.cpp:148] Top shape: 24 38 (912)
I0403 15:00:56.157470 11431 net.cpp:148] Top shape: 24 38 (912)
I0403 15:00:56.157485 11431 net.cpp:156] Memory required for data: 1208432160
I0403 15:00:56.157500 11431 layer_factory.hpp:77] Creating layer inception_4e/1x1
I0403 15:00:56.157523 11431 net.cpp:91] Creating Layer inception_4e/1x1
I0403 15:00:56.157541 11431 net.cpp:425] inception_4e/1x1 <- inception_4d/output_inception_4d/output_0_split_1
I0403 15:00:56.157562 11431 net.cpp:399] inception_4e/1x1 -> inception_4e/1x1
I0403 15:00:56.159473 11431 net.cpp:141] Setting up inception_4e/1x1
I0403 15:00:56.159504 11431 net.cpp:148] Top shape: 24 256 14 14 (1204224)
I0403 15:00:56.159521 11431 net.cpp:156] Memory required for data: 1213249056
I0403 15:00:56.159540 11431 layer_factory.hpp:77] Creating layer inception_4e/relu_1x1
I0403 15:00:56.159559 11431 net.cpp:91] Creating Layer inception_4e/relu_1x1
I0403 15:00:56.159574 11431 net.cpp:425] inception_4e/relu_1x1 <- inception_4e/1x1
I0403 15:00:56.159591 11431 net.cpp:386] inception_4e/relu_1x1 -> inception_4e/1x1 (in-place)
I0403 15:00:56.159894 11431 net.cpp:141] Setting up inception_4e/relu_1x1
I0403 15:00:56.159924 11431 net.cpp:148] Top shape: 24 256 14 14 (1204224)
I0403 15:00:56.159940 11431 net.cpp:156] Memory required for data: 1218065952
I0403 15:00:56.159955 11431 layer_factory.hpp:77] Creating layer inception_4e/3x3_reduce
I0403 15:00:56.159977 11431 net.cpp:91] Creating Layer inception_4e/3x3_reduce
I0403 15:00:56.159996 11431 net.cpp:425] inception_4e/3x3_reduce <- inception_4d/output_inception_4d/output_0_split_2
I0403 15:00:56.160017 11431 net.cpp:399] inception_4e/3x3_reduce -> inception_4e/3x3_reduce
I0403 15:00:56.162228 11431 net.cpp:141] Setting up inception_4e/3x3_reduce
I0403 15:00:56.162258 11431 net.cpp:148] Top shape: 24 160 14 14 (752640)
I0403 15:00:56.162274 11431 net.cpp:156] Memory required for data: 1221076512
I0403 15:00:56.162292 11431 layer_factory.hpp:77] Creating layer inception_4e/relu_3x3_reduce
I0403 15:00:56.162313 11431 net.cpp:91] Creating Layer inception_4e/relu_3x3_reduce
I0403 15:00:56.162331 11431 net.cpp:425] inception_4e/relu_3x3_reduce <- inception_4e/3x3_reduce
I0403 15:00:56.162349 11431 net.cpp:386] inception_4e/relu_3x3_reduce -> inception_4e/3x3_reduce (in-place)
I0403 15:00:56.162540 11431 net.cpp:141] Setting up inception_4e/relu_3x3_reduce
I0403 15:00:56.162569 11431 net.cpp:148] Top shape: 24 160 14 14 (752640)
I0403 15:00:56.162583 11431 net.cpp:156] Memory required for data: 1224087072
I0403 15:00:56.162598 11431 layer_factory.hpp:77] Creating layer inception_4e/3x3
I0403 15:00:56.162621 11431 net.cpp:91] Creating Layer inception_4e/3x3
I0403 15:00:56.162639 11431 net.cpp:425] inception_4e/3x3 <- inception_4e/3x3_reduce
I0403 15:00:56.162662 11431 net.cpp:399] inception_4e/3x3 -> inception_4e/3x3
I0403 15:00:56.167825 11431 net.cpp:141] Setting up inception_4e/3x3
I0403 15:00:56.167870 11431 net.cpp:148] Top shape: 24 320 14 14 (1505280)
I0403 15:00:56.167887 11431 net.cpp:156] Memory required for data: 1230108192
I0403 15:00:56.167906 11431 layer_factory.hpp:77] Creating layer inception_4e/relu_3x3
I0403 15:00:56.167924 11431 net.cpp:91] Creating Layer inception_4e/relu_3x3
I0403 15:00:56.167940 11431 net.cpp:425] inception_4e/relu_3x3 <- inception_4e/3x3
I0403 15:00:56.167961 11431 net.cpp:386] inception_4e/relu_3x3 -> inception_4e/3x3 (in-place)
I0403 15:00:56.168274 11431 net.cpp:141] Setting up inception_4e/relu_3x3
I0403 15:00:56.168303 11431 net.cpp:148] Top shape: 24 320 14 14 (1505280)
I0403 15:00:56.168318 11431 net.cpp:156] Memory required for data: 1236129312
I0403 15:00:56.168332 11431 layer_factory.hpp:77] Creating layer inception_4e/5x5_reduce
I0403 15:00:56.168356 11431 net.cpp:91] Creating Layer inception_4e/5x5_reduce
I0403 15:00:56.168376 11431 net.cpp:425] inception_4e/5x5_reduce <- inception_4d/output_inception_4d/output_0_split_3
I0403 15:00:56.168398 11431 net.cpp:399] inception_4e/5x5_reduce -> inception_4e/5x5_reduce
I0403 15:00:56.169512 11431 net.cpp:141] Setting up inception_4e/5x5_reduce
I0403 15:00:56.169543 11431 net.cpp:148] Top shape: 24 32 14 14 (150528)
I0403 15:00:56.169560 11431 net.cpp:156] Memory required for data: 1236731424
I0403 15:00:56.169579 11431 layer_factory.hpp:77] Creating layer inception_4e/relu_5x5_reduce
I0403 15:00:56.169597 11431 net.cpp:91] Creating Layer inception_4e/relu_5x5_reduce
I0403 15:00:56.169615 11431 net.cpp:425] inception_4e/relu_5x5_reduce <- inception_4e/5x5_reduce
I0403 15:00:56.169632 11431 net.cpp:386] inception_4e/relu_5x5_reduce -> inception_4e/5x5_reduce (in-place)
I0403 15:00:56.169941 11431 net.cpp:141] Setting up inception_4e/relu_5x5_reduce
I0403 15:00:56.169970 11431 net.cpp:148] Top shape: 24 32 14 14 (150528)
I0403 15:00:56.169986 11431 net.cpp:156] Memory required for data: 1237333536
I0403 15:00:56.170001 11431 layer_factory.hpp:77] Creating layer inception_4e/5x5
I0403 15:00:56.170042 11431 net.cpp:91] Creating Layer inception_4e/5x5
I0403 15:00:56.170061 11431 net.cpp:425] inception_4e/5x5 <- inception_4e/5x5_reduce
I0403 15:00:56.170083 11431 net.cpp:399] inception_4e/5x5 -> inception_4e/5x5
I0403 15:00:56.171993 11431 net.cpp:141] Setting up inception_4e/5x5
I0403 15:00:56.172022 11431 net.cpp:148] Top shape: 24 128 14 14 (602112)
I0403 15:00:56.172039 11431 net.cpp:156] Memory required for data: 1239741984
I0403 15:00:56.172057 11431 layer_factory.hpp:77] Creating layer inception_4e/relu_5x5
I0403 15:00:56.172078 11431 net.cpp:91] Creating Layer inception_4e/relu_5x5
I0403 15:00:56.172101 11431 net.cpp:425] inception_4e/relu_5x5 <- inception_4e/5x5
I0403 15:00:56.172121 11431 net.cpp:386] inception_4e/relu_5x5 -> inception_4e/5x5 (in-place)
I0403 15:00:56.172324 11431 net.cpp:141] Setting up inception_4e/relu_5x5
I0403 15:00:56.172350 11431 net.cpp:148] Top shape: 24 128 14 14 (602112)
I0403 15:00:56.172364 11431 net.cpp:156] Memory required for data: 1242150432
I0403 15:00:56.172380 11431 layer_factory.hpp:77] Creating layer inception_4e/pool
I0403 15:00:56.172402 11431 net.cpp:91] Creating Layer inception_4e/pool
I0403 15:00:56.172420 11431 net.cpp:425] inception_4e/pool <- inception_4d/output_inception_4d/output_0_split_4
I0403 15:00:56.172441 11431 net.cpp:399] inception_4e/pool -> inception_4e/pool
I0403 15:00:56.172514 11431 net.cpp:141] Setting up inception_4e/pool
I0403 15:00:56.172538 11431 net.cpp:148] Top shape: 24 528 14 14 (2483712)
I0403 15:00:56.172552 11431 net.cpp:156] Memory required for data: 1252085280
I0403 15:00:56.172567 11431 layer_factory.hpp:77] Creating layer inception_4e/pool_proj
I0403 15:00:56.172590 11431 net.cpp:91] Creating Layer inception_4e/pool_proj
I0403 15:00:56.172606 11431 net.cpp:425] inception_4e/pool_proj <- inception_4e/pool
I0403 15:00:56.172629 11431 net.cpp:399] inception_4e/pool_proj -> inception_4e/pool_proj
I0403 15:00:56.174195 11431 net.cpp:141] Setting up inception_4e/pool_proj
I0403 15:00:56.174237 11431 net.cpp:148] Top shape: 24 128 14 14 (602112)
I0403 15:00:56.174252 11431 net.cpp:156] Memory required for data: 1254493728
I0403 15:00:56.174271 11431 layer_factory.hpp:77] Creating layer inception_4e/relu_pool_proj
I0403 15:00:56.174293 11431 net.cpp:91] Creating Layer inception_4e/relu_pool_proj
I0403 15:00:56.174309 11431 net.cpp:425] inception_4e/relu_pool_proj <- inception_4e/pool_proj
I0403 15:00:56.174327 11431 net.cpp:386] inception_4e/relu_pool_proj -> inception_4e/pool_proj (in-place)
I0403 15:00:56.174629 11431 net.cpp:141] Setting up inception_4e/relu_pool_proj
I0403 15:00:56.174655 11431 net.cpp:148] Top shape: 24 128 14 14 (602112)
I0403 15:00:56.174670 11431 net.cpp:156] Memory required for data: 1256902176
I0403 15:00:56.174685 11431 layer_factory.hpp:77] Creating layer inception_4e/output
I0403 15:00:56.174705 11431 net.cpp:91] Creating Layer inception_4e/output
I0403 15:00:56.174721 11431 net.cpp:425] inception_4e/output <- inception_4e/1x1
I0403 15:00:56.174737 11431 net.cpp:425] inception_4e/output <- inception_4e/3x3
I0403 15:00:56.174757 11431 net.cpp:425] inception_4e/output <- inception_4e/5x5
I0403 15:00:56.174774 11431 net.cpp:425] inception_4e/output <- inception_4e/pool_proj
I0403 15:00:56.174792 11431 net.cpp:399] inception_4e/output -> inception_4e/output
I0403 15:00:56.174841 11431 net.cpp:141] Setting up inception_4e/output
I0403 15:00:56.174868 11431 net.cpp:148] Top shape: 24 832 14 14 (3913728)
I0403 15:00:56.174885 11431 net.cpp:156] Memory required for data: 1272557088
I0403 15:00:56.174899 11431 layer_factory.hpp:77] Creating layer pool4/3x3_s2
I0403 15:00:56.174917 11431 net.cpp:91] Creating Layer pool4/3x3_s2
I0403 15:00:56.174934 11431 net.cpp:425] pool4/3x3_s2 <- inception_4e/output
I0403 15:00:56.174955 11431 net.cpp:399] pool4/3x3_s2 -> pool4/3x3_s2
I0403 15:00:56.175024 11431 net.cpp:141] Setting up pool4/3x3_s2
I0403 15:00:56.175051 11431 net.cpp:148] Top shape: 24 832 7 7 (978432)
I0403 15:00:56.175068 11431 net.cpp:156] Memory required for data: 1276470816
I0403 15:00:56.175083 11431 layer_factory.hpp:77] Creating layer pool4/3x3_s2_pool4/3x3_s2_0_split
I0403 15:00:56.175108 11431 net.cpp:91] Creating Layer pool4/3x3_s2_pool4/3x3_s2_0_split
I0403 15:00:56.175127 11431 net.cpp:425] pool4/3x3_s2_pool4/3x3_s2_0_split <- pool4/3x3_s2
I0403 15:00:56.175144 11431 net.cpp:399] pool4/3x3_s2_pool4/3x3_s2_0_split -> pool4/3x3_s2_pool4/3x3_s2_0_split_0
I0403 15:00:56.175164 11431 net.cpp:399] pool4/3x3_s2_pool4/3x3_s2_0_split -> pool4/3x3_s2_pool4/3x3_s2_0_split_1
I0403 15:00:56.175185 11431 net.cpp:399] pool4/3x3_s2_pool4/3x3_s2_0_split -> pool4/3x3_s2_pool4/3x3_s2_0_split_2
I0403 15:00:56.175209 11431 net.cpp:399] pool4/3x3_s2_pool4/3x3_s2_0_split -> pool4/3x3_s2_pool4/3x3_s2_0_split_3
I0403 15:00:56.175303 11431 net.cpp:141] Setting up pool4/3x3_s2_pool4/3x3_s2_0_split
I0403 15:00:56.175328 11431 net.cpp:148] Top shape: 24 832 7 7 (978432)
I0403 15:00:56.175343 11431 net.cpp:148] Top shape: 24 832 7 7 (978432)
I0403 15:00:56.175359 11431 net.cpp:148] Top shape: 24 832 7 7 (978432)
I0403 15:00:56.175374 11431 net.cpp:148] Top shape: 24 832 7 7 (978432)
I0403 15:00:56.175390 11431 net.cpp:156] Memory required for data: 1292125728
I0403 15:00:56.175403 11431 layer_factory.hpp:77] Creating layer inception_5a/1x1
I0403 15:00:56.175426 11431 net.cpp:91] Creating Layer inception_5a/1x1
I0403 15:00:56.175444 11431 net.cpp:425] inception_5a/1x1 <- pool4/3x3_s2_pool4/3x3_s2_0_split_0
I0403 15:00:56.175479 11431 net.cpp:399] inception_5a/1x1 -> inception_5a/1x1
I0403 15:00:56.178455 11431 net.cpp:141] Setting up inception_5a/1x1
I0403 15:00:56.178485 11431 net.cpp:148] Top shape: 24 256 7 7 (301056)
I0403 15:00:56.178503 11431 net.cpp:156] Memory required for data: 1293329952
I0403 15:00:56.178520 11431 layer_factory.hpp:77] Creating layer inception_5a/relu_1x1
I0403 15:00:56.178541 11431 net.cpp:91] Creating Layer inception_5a/relu_1x1
I0403 15:00:56.178560 11431 net.cpp:425] inception_5a/relu_1x1 <- inception_5a/1x1
I0403 15:00:56.178577 11431 net.cpp:386] inception_5a/relu_1x1 -> inception_5a/1x1 (in-place)
I0403 15:00:56.178902 11431 net.cpp:141] Setting up inception_5a/relu_1x1
I0403 15:00:56.178930 11431 net.cpp:148] Top shape: 24 256 7 7 (301056)
I0403 15:00:56.178944 11431 net.cpp:156] Memory required for data: 1294534176
I0403 15:00:56.178959 11431 layer_factory.hpp:77] Creating layer inception_5a/3x3_reduce
I0403 15:00:56.178985 11431 net.cpp:91] Creating Layer inception_5a/3x3_reduce
I0403 15:00:56.179004 11431 net.cpp:425] inception_5a/3x3_reduce <- pool4/3x3_s2_pool4/3x3_s2_0_split_1
I0403 15:00:56.179026 11431 net.cpp:399] inception_5a/3x3_reduce -> inception_5a/3x3_reduce
I0403 15:00:56.181764 11431 net.cpp:141] Setting up inception_5a/3x3_reduce
I0403 15:00:56.181794 11431 net.cpp:148] Top shape: 24 160 7 7 (188160)
I0403 15:00:56.181810 11431 net.cpp:156] Memory required for data: 1295286816
I0403 15:00:56.181829 11431 layer_factory.hpp:77] Creating layer inception_5a/relu_3x3_reduce
I0403 15:00:56.181849 11431 net.cpp:91] Creating Layer inception_5a/relu_3x3_reduce
I0403 15:00:56.181869 11431 net.cpp:425] inception_5a/relu_3x3_reduce <- inception_5a/3x3_reduce
I0403 15:00:56.181885 11431 net.cpp:386] inception_5a/relu_3x3_reduce -> inception_5a/3x3_reduce (in-place)
I0403 15:00:56.182080 11431 net.cpp:141] Setting up inception_5a/relu_3x3_reduce
I0403 15:00:56.182111 11431 net.cpp:148] Top shape: 24 160 7 7 (188160)
I0403 15:00:56.182127 11431 net.cpp:156] Memory required for data: 1296039456
I0403 15:00:56.182142 11431 layer_factory.hpp:77] Creating layer inception_5a/3x3
I0403 15:00:56.182165 11431 net.cpp:91] Creating Layer inception_5a/3x3
I0403 15:00:56.182184 11431 net.cpp:425] inception_5a/3x3 <- inception_5a/3x3_reduce
I0403 15:00:56.182206 11431 net.cpp:399] inception_5a/3x3 -> inception_5a/3x3
I0403 15:00:56.187402 11431 net.cpp:141] Setting up inception_5a/3x3
I0403 15:00:56.187434 11431 net.cpp:148] Top shape: 24 320 7 7 (376320)
I0403 15:00:56.187451 11431 net.cpp:156] Memory required for data: 1297544736
I0403 15:00:56.187469 11431 layer_factory.hpp:77] Creating layer inception_5a/relu_3x3
I0403 15:00:56.187491 11431 net.cpp:91] Creating Layer inception_5a/relu_3x3
I0403 15:00:56.187510 11431 net.cpp:425] inception_5a/relu_3x3 <- inception_5a/3x3
I0403 15:00:56.187527 11431 net.cpp:386] inception_5a/relu_3x3 -> inception_5a/3x3 (in-place)
I0403 15:00:56.187830 11431 net.cpp:141] Setting up inception_5a/relu_3x3
I0403 15:00:56.187857 11431 net.cpp:148] Top shape: 24 320 7 7 (376320)
I0403 15:00:56.187872 11431 net.cpp:156] Memory required for data: 1299050016
I0403 15:00:56.187891 11431 layer_factory.hpp:77] Creating layer inception_5a/5x5_reduce
I0403 15:00:56.187913 11431 net.cpp:91] Creating Layer inception_5a/5x5_reduce
I0403 15:00:56.187932 11431 net.cpp:425] inception_5a/5x5_reduce <- pool4/3x3_s2_pool4/3x3_s2_0_split_2
I0403 15:00:56.187953 11431 net.cpp:399] inception_5a/5x5_reduce -> inception_5a/5x5_reduce
I0403 15:00:56.189182 11431 net.cpp:141] Setting up inception_5a/5x5_reduce
I0403 15:00:56.189211 11431 net.cpp:148] Top shape: 24 32 7 7 (37632)
I0403 15:00:56.189227 11431 net.cpp:156] Memory required for data: 1299200544
I0403 15:00:56.189246 11431 layer_factory.hpp:77] Creating layer inception_5a/relu_5x5_reduce
I0403 15:00:56.189267 11431 net.cpp:91] Creating Layer inception_5a/relu_5x5_reduce
I0403 15:00:56.189286 11431 net.cpp:425] inception_5a/relu_5x5_reduce <- inception_5a/5x5_reduce
I0403 15:00:56.189304 11431 net.cpp:386] inception_5a/relu_5x5_reduce -> inception_5a/5x5_reduce (in-place)
I0403 15:00:56.189618 11431 net.cpp:141] Setting up inception_5a/relu_5x5_reduce
I0403 15:00:56.189646 11431 net.cpp:148] Top shape: 24 32 7 7 (37632)
I0403 15:00:56.189662 11431 net.cpp:156] Memory required for data: 1299351072
I0403 15:00:56.189677 11431 layer_factory.hpp:77] Creating layer inception_5a/5x5
I0403 15:00:56.189702 11431 net.cpp:91] Creating Layer inception_5a/5x5
I0403 15:00:56.189721 11431 net.cpp:425] inception_5a/5x5 <- inception_5a/5x5_reduce
I0403 15:00:56.189741 11431 net.cpp:399] inception_5a/5x5 -> inception_5a/5x5
I0403 15:00:56.191542 11431 net.cpp:141] Setting up inception_5a/5x5
I0403 15:00:56.191584 11431 net.cpp:148] Top shape: 24 128 7 7 (150528)
I0403 15:00:56.191601 11431 net.cpp:156] Memory required for data: 1299953184
I0403 15:00:56.191620 11431 layer_factory.hpp:77] Creating layer inception_5a/relu_5x5
I0403 15:00:56.191642 11431 net.cpp:91] Creating Layer inception_5a/relu_5x5
I0403 15:00:56.191658 11431 net.cpp:425] inception_5a/relu_5x5 <- inception_5a/5x5
I0403 15:00:56.191676 11431 net.cpp:386] inception_5a/relu_5x5 -> inception_5a/5x5 (in-place)
I0403 15:00:56.191875 11431 net.cpp:141] Setting up inception_5a/relu_5x5
I0403 15:00:56.191903 11431 net.cpp:148] Top shape: 24 128 7 7 (150528)
I0403 15:00:56.191920 11431 net.cpp:156] Memory required for data: 1300555296
I0403 15:00:56.191934 11431 layer_factory.hpp:77] Creating layer inception_5a/pool
I0403 15:00:56.191952 11431 net.cpp:91] Creating Layer inception_5a/pool
I0403 15:00:56.191969 11431 net.cpp:425] inception_5a/pool <- pool4/3x3_s2_pool4/3x3_s2_0_split_3
I0403 15:00:56.191990 11431 net.cpp:399] inception_5a/pool -> inception_5a/pool
I0403 15:00:56.192062 11431 net.cpp:141] Setting up inception_5a/pool
I0403 15:00:56.192086 11431 net.cpp:148] Top shape: 24 832 7 7 (978432)
I0403 15:00:56.192106 11431 net.cpp:156] Memory required for data: 1304469024
I0403 15:00:56.192122 11431 layer_factory.hpp:77] Creating layer inception_5a/pool_proj
I0403 15:00:56.192144 11431 net.cpp:91] Creating Layer inception_5a/pool_proj
I0403 15:00:56.192163 11431 net.cpp:425] inception_5a/pool_proj <- inception_5a/pool
I0403 15:00:56.192184 11431 net.cpp:399] inception_5a/pool_proj -> inception_5a/pool_proj
I0403 15:00:56.194568 11431 net.cpp:141] Setting up inception_5a/pool_proj
I0403 15:00:56.194599 11431 net.cpp:148] Top shape: 24 128 7 7 (150528)
I0403 15:00:56.194615 11431 net.cpp:156] Memory required for data: 1305071136
I0403 15:00:56.194634 11431 layer_factory.hpp:77] Creating layer inception_5a/relu_pool_proj
I0403 15:00:56.194655 11431 net.cpp:91] Creating Layer inception_5a/relu_pool_proj
I0403 15:00:56.194674 11431 net.cpp:425] inception_5a/relu_pool_proj <- inception_5a/pool_proj
I0403 15:00:56.194691 11431 net.cpp:386] inception_5a/relu_pool_proj -> inception_5a/pool_proj (in-place)
I0403 15:00:56.194998 11431 net.cpp:141] Setting up inception_5a/relu_pool_proj
I0403 15:00:56.195024 11431 net.cpp:148] Top shape: 24 128 7 7 (150528)
I0403 15:00:56.195039 11431 net.cpp:156] Memory required for data: 1305673248
I0403 15:00:56.195055 11431 layer_factory.hpp:77] Creating layer inception_5a/output
I0403 15:00:56.195072 11431 net.cpp:91] Creating Layer inception_5a/output
I0403 15:00:56.195088 11431 net.cpp:425] inception_5a/output <- inception_5a/1x1
I0403 15:00:56.195111 11431 net.cpp:425] inception_5a/output <- inception_5a/3x3
I0403 15:00:56.195129 11431 net.cpp:425] inception_5a/output <- inception_5a/5x5
I0403 15:00:56.195145 11431 net.cpp:425] inception_5a/output <- inception_5a/pool_proj
I0403 15:00:56.195165 11431 net.cpp:399] inception_5a/output -> inception_5a/output
I0403 15:00:56.195220 11431 net.cpp:141] Setting up inception_5a/output
I0403 15:00:56.195245 11431 net.cpp:148] Top shape: 24 832 7 7 (978432)
I0403 15:00:56.195261 11431 net.cpp:156] Memory required for data: 1309586976
I0403 15:00:56.195276 11431 layer_factory.hpp:77] Creating layer inception_5a/output_inception_5a/output_0_split
I0403 15:00:56.195293 11431 net.cpp:91] Creating Layer inception_5a/output_inception_5a/output_0_split
I0403 15:00:56.195309 11431 net.cpp:425] inception_5a/output_inception_5a/output_0_split <- inception_5a/output
I0403 15:00:56.195330 11431 net.cpp:399] inception_5a/output_inception_5a/output_0_split -> inception_5a/output_inception_5a/output_0_split_0
I0403 15:00:56.195351 11431 net.cpp:399] inception_5a/output_inception_5a/output_0_split -> inception_5a/output_inception_5a/output_0_split_1
I0403 15:00:56.195374 11431 net.cpp:399] inception_5a/output_inception_5a/output_0_split -> inception_5a/output_inception_5a/output_0_split_2
I0403 15:00:56.195396 11431 net.cpp:399] inception_5a/output_inception_5a/output_0_split -> inception_5a/output_inception_5a/output_0_split_3
I0403 15:00:56.195514 11431 net.cpp:141] Setting up inception_5a/output_inception_5a/output_0_split
I0403 15:00:56.195539 11431 net.cpp:148] Top shape: 24 832 7 7 (978432)
I0403 15:00:56.195555 11431 net.cpp:148] Top shape: 24 832 7 7 (978432)
I0403 15:00:56.195570 11431 net.cpp:148] Top shape: 24 832 7 7 (978432)
I0403 15:00:56.195586 11431 net.cpp:148] Top shape: 24 832 7 7 (978432)
I0403 15:00:56.195600 11431 net.cpp:156] Memory required for data: 1325241888
I0403 15:00:56.195616 11431 layer_factory.hpp:77] Creating layer inception_5b/1x1
I0403 15:00:56.195639 11431 net.cpp:91] Creating Layer inception_5b/1x1
I0403 15:00:56.195657 11431 net.cpp:425] inception_5b/1x1 <- inception_5a/output_inception_5a/output_0_split_0
I0403 15:00:56.195677 11431 net.cpp:399] inception_5b/1x1 -> inception_5b/1x1
I0403 15:00:56.199594 11431 net.cpp:141] Setting up inception_5b/1x1
I0403 15:00:56.199625 11431 net.cpp:148] Top shape: 24 384 7 7 (451584)
I0403 15:00:56.199640 11431 net.cpp:156] Memory required for data: 1327048224
I0403 15:00:56.199659 11431 layer_factory.hpp:77] Creating layer inception_5b/relu_1x1
I0403 15:00:56.199678 11431 net.cpp:91] Creating Layer inception_5b/relu_1x1
I0403 15:00:56.199698 11431 net.cpp:425] inception_5b/relu_1x1 <- inception_5b/1x1
I0403 15:00:56.199717 11431 net.cpp:386] inception_5b/relu_1x1 -> inception_5b/1x1 (in-place)
I0403 15:00:56.200033 11431 net.cpp:141] Setting up inception_5b/relu_1x1
I0403 15:00:56.200060 11431 net.cpp:148] Top shape: 24 384 7 7 (451584)
I0403 15:00:56.200075 11431 net.cpp:156] Memory required for data: 1328854560
I0403 15:00:56.200090 11431 layer_factory.hpp:77] Creating layer inception_5b/3x3_reduce
I0403 15:00:56.200119 11431 net.cpp:91] Creating Layer inception_5b/3x3_reduce
I0403 15:00:56.200139 11431 net.cpp:425] inception_5b/3x3_reduce <- inception_5a/output_inception_5a/output_0_split_1
I0403 15:00:56.200162 11431 net.cpp:399] inception_5b/3x3_reduce -> inception_5b/3x3_reduce
I0403 15:00:56.202913 11431 net.cpp:141] Setting up inception_5b/3x3_reduce
I0403 15:00:56.202942 11431 net.cpp:148] Top shape: 24 192 7 7 (225792)
I0403 15:00:56.202960 11431 net.cpp:156] Memory required for data: 1329757728
I0403 15:00:56.202978 11431 layer_factory.hpp:77] Creating layer inception_5b/relu_3x3_reduce
I0403 15:00:56.202997 11431 net.cpp:91] Creating Layer inception_5b/relu_3x3_reduce
I0403 15:00:56.203013 11431 net.cpp:425] inception_5b/relu_3x3_reduce <- inception_5b/3x3_reduce
I0403 15:00:56.203033 11431 net.cpp:386] inception_5b/relu_3x3_reduce -> inception_5b/3x3_reduce (in-place)
I0403 15:00:56.203243 11431 net.cpp:141] Setting up inception_5b/relu_3x3_reduce
I0403 15:00:56.203270 11431 net.cpp:148] Top shape: 24 192 7 7 (225792)
I0403 15:00:56.203286 11431 net.cpp:156] Memory required for data: 1330660896
I0403 15:00:56.203301 11431 layer_factory.hpp:77] Creating layer inception_5b/3x3
I0403 15:00:56.203325 11431 net.cpp:91] Creating Layer inception_5b/3x3
I0403 15:00:56.203343 11431 net.cpp:425] inception_5b/3x3 <- inception_5b/3x3_reduce
I0403 15:00:56.203366 11431 net.cpp:399] inception_5b/3x3 -> inception_5b/3x3
I0403 15:00:56.210304 11431 net.cpp:141] Setting up inception_5b/3x3
I0403 15:00:56.210336 11431 net.cpp:148] Top shape: 24 384 7 7 (451584)
I0403 15:00:56.210352 11431 net.cpp:156] Memory required for data: 1332467232
I0403 15:00:56.210371 11431 layer_factory.hpp:77] Creating layer inception_5b/relu_3x3
I0403 15:00:56.210393 11431 net.cpp:91] Creating Layer inception_5b/relu_3x3
I0403 15:00:56.210412 11431 net.cpp:425] inception_5b/relu_3x3 <- inception_5b/3x3
I0403 15:00:56.210429 11431 net.cpp:386] inception_5b/relu_3x3 -> inception_5b/3x3 (in-place)
I0403 15:00:56.210739 11431 net.cpp:141] Setting up inception_5b/relu_3x3
I0403 15:00:56.210767 11431 net.cpp:148] Top shape: 24 384 7 7 (451584)
I0403 15:00:56.210783 11431 net.cpp:156] Memory required for data: 1334273568
I0403 15:00:56.210798 11431 layer_factory.hpp:77] Creating layer inception_5b/5x5_reduce
I0403 15:00:56.210842 11431 net.cpp:91] Creating Layer inception_5b/5x5_reduce
I0403 15:00:56.210862 11431 net.cpp:425] inception_5b/5x5_reduce <- inception_5a/output_inception_5a/output_0_split_2
I0403 15:00:56.210886 11431 net.cpp:399] inception_5b/5x5_reduce -> inception_5b/5x5_reduce
I0403 15:00:56.212213 11431 net.cpp:141] Setting up inception_5b/5x5_reduce
I0403 15:00:56.212242 11431 net.cpp:148] Top shape: 24 48 7 7 (56448)
I0403 15:00:56.212258 11431 net.cpp:156] Memory required for data: 1334499360
I0403 15:00:56.212277 11431 layer_factory.hpp:77] Creating layer inception_5b/relu_5x5_reduce
I0403 15:00:56.212298 11431 net.cpp:91] Creating Layer inception_5b/relu_5x5_reduce
I0403 15:00:56.212316 11431 net.cpp:425] inception_5b/relu_5x5_reduce <- inception_5b/5x5_reduce
I0403 15:00:56.212333 11431 net.cpp:386] inception_5b/relu_5x5_reduce -> inception_5b/5x5_reduce (in-place)
I0403 15:00:56.212719 11431 net.cpp:141] Setting up inception_5b/relu_5x5_reduce
I0403 15:00:56.212748 11431 net.cpp:148] Top shape: 24 48 7 7 (56448)
I0403 15:00:56.212762 11431 net.cpp:156] Memory required for data: 1334725152
I0403 15:00:56.212777 11431 layer_factory.hpp:77] Creating layer inception_5b/5x5
I0403 15:00:56.212798 11431 net.cpp:91] Creating Layer inception_5b/5x5
I0403 15:00:56.212816 11431 net.cpp:425] inception_5b/5x5 <- inception_5b/5x5_reduce
I0403 15:00:56.212836 11431 net.cpp:399] inception_5b/5x5 -> inception_5b/5x5
I0403 15:00:56.215001 11431 net.cpp:141] Setting up inception_5b/5x5
I0403 15:00:56.215030 11431 net.cpp:148] Top shape: 24 128 7 7 (150528)
I0403 15:00:56.215046 11431 net.cpp:156] Memory required for data: 1335327264
I0403 15:00:56.215065 11431 layer_factory.hpp:77] Creating layer inception_5b/relu_5x5
I0403 15:00:56.215086 11431 net.cpp:91] Creating Layer inception_5b/relu_5x5
I0403 15:00:56.215109 11431 net.cpp:425] inception_5b/relu_5x5 <- inception_5b/5x5
I0403 15:00:56.215128 11431 net.cpp:386] inception_5b/relu_5x5 -> inception_5b/5x5 (in-place)
I0403 15:00:56.215329 11431 net.cpp:141] Setting up inception_5b/relu_5x5
I0403 15:00:56.215358 11431 net.cpp:148] Top shape: 24 128 7 7 (150528)
I0403 15:00:56.215374 11431 net.cpp:156] Memory required for data: 1335929376
I0403 15:00:56.215390 11431 layer_factory.hpp:77] Creating layer inception_5b/pool
I0403 15:00:56.215409 11431 net.cpp:91] Creating Layer inception_5b/pool
I0403 15:00:56.215425 11431 net.cpp:425] inception_5b/pool <- inception_5a/output_inception_5a/output_0_split_3
I0403 15:00:56.215446 11431 net.cpp:399] inception_5b/pool -> inception_5b/pool
I0403 15:00:56.215523 11431 net.cpp:141] Setting up inception_5b/pool
I0403 15:00:56.215548 11431 net.cpp:148] Top shape: 24 832 7 7 (978432)
I0403 15:00:56.215564 11431 net.cpp:156] Memory required for data: 1339843104
I0403 15:00:56.215577 11431 layer_factory.hpp:77] Creating layer inception_5b/pool_proj
I0403 15:00:56.215601 11431 net.cpp:91] Creating Layer inception_5b/pool_proj
I0403 15:00:56.215621 11431 net.cpp:425] inception_5b/pool_proj <- inception_5b/pool
I0403 15:00:56.215641 11431 net.cpp:399] inception_5b/pool_proj -> inception_5b/pool_proj
I0403 15:00:56.218034 11431 net.cpp:141] Setting up inception_5b/pool_proj
I0403 15:00:56.218065 11431 net.cpp:148] Top shape: 24 128 7 7 (150528)
I0403 15:00:56.218081 11431 net.cpp:156] Memory required for data: 1340445216
I0403 15:00:56.218106 11431 layer_factory.hpp:77] Creating layer inception_5b/relu_pool_proj
I0403 15:00:56.218127 11431 net.cpp:91] Creating Layer inception_5b/relu_pool_proj
I0403 15:00:56.218147 11431 net.cpp:425] inception_5b/relu_pool_proj <- inception_5b/pool_proj
I0403 15:00:56.218164 11431 net.cpp:386] inception_5b/relu_pool_proj -> inception_5b/pool_proj (in-place)
I0403 15:00:56.218475 11431 net.cpp:141] Setting up inception_5b/relu_pool_proj
I0403 15:00:56.218502 11431 net.cpp:148] Top shape: 24 128 7 7 (150528)
I0403 15:00:56.218518 11431 net.cpp:156] Memory required for data: 1341047328
I0403 15:00:56.218533 11431 layer_factory.hpp:77] Creating layer inception_5b/output
I0403 15:00:56.218554 11431 net.cpp:91] Creating Layer inception_5b/output
I0403 15:00:56.218587 11431 net.cpp:425] inception_5b/output <- inception_5b/1x1
I0403 15:00:56.218605 11431 net.cpp:425] inception_5b/output <- inception_5b/3x3
I0403 15:00:56.218621 11431 net.cpp:425] inception_5b/output <- inception_5b/5x5
I0403 15:00:56.218637 11431 net.cpp:425] inception_5b/output <- inception_5b/pool_proj
I0403 15:00:56.218654 11431 net.cpp:399] inception_5b/output -> inception_5b/output
I0403 15:00:56.218708 11431 net.cpp:141] Setting up inception_5b/output
I0403 15:00:56.218735 11431 net.cpp:148] Top shape: 24 1024 7 7 (1204224)
I0403 15:00:56.218751 11431 net.cpp:156] Memory required for data: 1345864224
I0403 15:00:56.218766 11431 layer_factory.hpp:77] Creating layer pool5/7x7_s1
I0403 15:00:56.218785 11431 net.cpp:91] Creating Layer pool5/7x7_s1
I0403 15:00:56.218801 11431 net.cpp:425] pool5/7x7_s1 <- inception_5b/output
I0403 15:00:56.218822 11431 net.cpp:399] pool5/7x7_s1 -> pool5/7x7_s1
I0403 15:00:56.219045 11431 net.cpp:141] Setting up pool5/7x7_s1
I0403 15:00:56.219071 11431 net.cpp:148] Top shape: 24 1024 1 1 (24576)
I0403 15:00:56.219086 11431 net.cpp:156] Memory required for data: 1345962528
I0403 15:00:56.219106 11431 layer_factory.hpp:77] Creating layer pool5/drop_7x7_s1
I0403 15:00:56.219128 11431 net.cpp:91] Creating Layer pool5/drop_7x7_s1
I0403 15:00:56.219146 11431 net.cpp:425] pool5/drop_7x7_s1 <- pool5/7x7_s1
I0403 15:00:56.219164 11431 net.cpp:386] pool5/drop_7x7_s1 -> pool5/7x7_s1 (in-place)
I0403 15:00:56.219218 11431 net.cpp:141] Setting up pool5/drop_7x7_s1
I0403 15:00:56.219241 11431 net.cpp:148] Top shape: 24 1024 1 1 (24576)
I0403 15:00:56.219256 11431 net.cpp:156] Memory required for data: 1346060832
I0403 15:00:56.219271 11431 layer_factory.hpp:77] Creating layer loss3/classifier_plantvillage
I0403 15:00:56.219290 11431 net.cpp:91] Creating Layer loss3/classifier_plantvillage
I0403 15:00:56.219310 11431 net.cpp:425] loss3/classifier_plantvillage <- pool5/7x7_s1
I0403 15:00:56.219329 11431 net.cpp:399] loss3/classifier_plantvillage -> loss3/classifier_plantvillage
I0403 15:00:56.219774 11431 net.cpp:141] Setting up loss3/classifier_plantvillage
I0403 15:00:56.219799 11431 net.cpp:148] Top shape: 24 38 (912)
I0403 15:00:56.219813 11431 net.cpp:156] Memory required for data: 1346064480
I0403 15:00:56.219832 11431 layer_factory.hpp:77] Creating layer loss3/classifier_plantvillage_loss3/classifier_plantvillage_0_split
I0403 15:00:56.219851 11431 net.cpp:91] Creating Layer loss3/classifier_plantvillage_loss3/classifier_plantvillage_0_split
I0403 15:00:56.219867 11431 net.cpp:425] loss3/classifier_plantvillage_loss3/classifier_plantvillage_0_split <- loss3/classifier_plantvillage
I0403 15:00:56.219890 11431 net.cpp:399] loss3/classifier_plantvillage_loss3/classifier_plantvillage_0_split -> loss3/classifier_plantvillage_loss3/classifier_plantvillage_0_split_0
I0403 15:00:56.219913 11431 net.cpp:399] loss3/classifier_plantvillage_loss3/classifier_plantvillage_0_split -> loss3/classifier_plantvillage_loss3/classifier_plantvillage_0_split_1
I0403 15:00:56.219935 11431 net.cpp:399] loss3/classifier_plantvillage_loss3/classifier_plantvillage_0_split -> loss3/classifier_plantvillage_loss3/classifier_plantvillage_0_split_2
I0403 15:00:56.219955 11431 net.cpp:399] loss3/classifier_plantvillage_loss3/classifier_plantvillage_0_split -> loss3/classifier_plantvillage_loss3/classifier_plantvillage_0_split_3
I0403 15:00:56.220063 11431 net.cpp:141] Setting up loss3/classifier_plantvillage_loss3/classifier_plantvillage_0_split
I0403 15:00:56.220088 11431 net.cpp:148] Top shape: 24 38 (912)
I0403 15:00:56.220109 11431 net.cpp:148] Top shape: 24 38 (912)
I0403 15:00:56.220126 11431 net.cpp:148] Top shape: 24 38 (912)
I0403 15:00:56.220141 11431 net.cpp:148] Top shape: 24 38 (912)
I0403 15:00:56.220156 11431 net.cpp:156] Memory required for data: 1346079072
I0403 15:00:56.220171 11431 layer_factory.hpp:77] Creating layer loss1/loss
I0403 15:00:56.220196 11431 net.cpp:91] Creating Layer loss1/loss
I0403 15:00:56.220216 11431 net.cpp:425] loss1/loss <- loss1/classifier_plantvillage_loss1/classifier_plantvillage_0_split_0
I0403 15:00:56.220247 11431 net.cpp:425] loss1/loss <- label_data_1_split_0
…
