…
I0403 15:07:57.517060 11820 net.cpp:313] The NetState phase (1) differed from the phase (0) specified by a rule in layer data
I0403 15:07:57.518220 11820 net.cpp:49] Initializing net from parameters: 
state {
  phase: TEST
}
layer {
  name: "data"
  type: "Data"
  top: "data"
  top: "label"
  include {
    phase: TEST
  }
  transform_param {
    mirror: false
    crop_size: 224
    mean_file: "/home/mohanty/data/final_dataset/lmdb/grayscale-60-40/mean.binaryproto"
  }
  data_param {
    source: "/home/mohanty/data/final_dataset/lmdb/grayscale-60-40/test_db"
    batch_size: 24
    backend: LMDB
  }
}
layer {
  name: "conv1/7x7_s2"
  type: "Convolution"
  bottom: "data"
  top: "conv1/7x7_s2"
  param {
    lr_mult: 1
    decay_mult: 1
  }
  param {
    lr_mult: 2
    decay_mult: 0
  }
  convolution_param {
    num_output: 64
    pad: 3
    kernel_size: 7
    stride: 2
    weight_filler {
      type: "xavier"
      std: 0.1
    }
    bias_filler {
      type: "constant"
      value: 0.2
    }
  }
}
layer {
  name: "conv1/relu_7x7"
  type: "ReLU"
  bottom: "conv1/7x7_s2"
  top: "conv1/7x7_s2"
}
layer {
  name: "pool1/3x3_s2"
  type: "Pooling"
  bottom: "conv1/7x7_s2"
  top: "pool1/3x3_s2"
  pooling_param {
    pool: MAX
    kernel_size: 3
    stride: 2
  }
}
layer {
  name: "pool1/norm1"
  type: "LRN"
  bottom: "pool1/3x3_s2"
  top: "pool1/norm1"
  lrn_param {
    local_size: 5
    alpha: 0.0001
    beta: 0.75
  }
}
layer {
  name: "conv2/3x3_reduce"
  type: "Convolution"
  bottom: "pool1/norm1"
  top: "conv2/3x3_reduce"
  param {
    lr_mult: 1
    decay_mult: 1
  }
  param {
    lr_mult: 2
    decay_mult: 0
  }
  convolution_param {
    num_output: 64
    kernel_size: 1
    weight_filler {
      type: "xavier"
      std: 0.1
    }
    bias_filler {
      type: "constant"
      value: 0.2
    }
  }
}
layer {
  name: "conv2/relu_3x3_reduce"
  type: "ReLU"
  bottom: "conv2/3x3_reduce"
  top: "conv2/3x3_reduce"
}
layer {
  name: "conv2/3x3"
  type: "Convolution"
  bottom: "conv2/3x3_reduce"
  top: "conv2/3x3"
  param {
    lr_mult: 1
    decay_mult: 1
  }
  param {
    lr_mult: 2
    decay_mult: 0
  }
  convolution_param {
    num_output: 192
    pad: 1
    kernel_size: 3
    weight_filler {
      type: "xavier"
      std: 0.03
    }
    bias_filler {
      type: "constant"
      value: 0.2
    }
  }
}
layer {
  name: "conv2/relu_3x3"
  type: "ReLU"
  bottom: "conv2/3x3"
  top: "conv2/3x3"
}
layer {
  name: "conv2/norm2"
  type: "LRN"
  bottom: "conv2/3x3"
  top: "conv2/norm2"
  lrn_param {
    local_size: 5
    alpha: 0.0001
    beta: 0.75
  }
}
layer {
  name: "pool2/3x3_s2"
  type: "Pooling"
  bottom: "conv2/norm2"
  top: "pool2/3x3_s2"
  pooling_param {
    pool: MAX
    kernel_size: 3
    stride: 2
  }
}
layer {
  name: "inception_3a/1x1"
  type: "Convolution"
  bottom: "pool2/3x3_s2"
  top: "inception_3a/1x1"
  param {
    lr_mult: 1
    decay_mult: 1
  }
  param {
    lr_mult: 2
    decay_mult: 0
  }
  convolution_param {
    num_output: 64
    kernel_size: 1
    weight_filler {
      type: "xavier"
      std: 0.03
    }
    bias_filler {
      type: "constant"
      value: 0.2
    }
  }
}
layer {
  name: "inception_3a/relu_1x1"
  type: "ReLU"
  bottom: "inception_3a/1x1"
  top: "inception_3a/1x1"
}
layer {
  name: "inception_3a/3x3_reduce"
  type: "Convolution"
  bottom: "pool2/3x3_s2"
  top: "inception_3a/3x3_reduce"
  param {
    lr_mult: 1
    decay_mult: 1
  }
  param {
    lr_mult: 2
    decay_mult: 0
  }
  convolution_param {
    num_output: 96
    kernel_size: 1
    weight_filler {
      type: "xavier"
      std: 0.09
    }
    bias_filler {
      type: "constant"
      value: 0.2
    }
  }
}
layer {
  name: "inception_3a/relu_3x3_reduce"
  type: "ReLU"
  bottom: "inception_3a/3x3_reduce"
  top: "inception_3a/3x3_reduce"
}
layer {
  name: "inception_3a/3x3"
  type: "Convolution"
  bottom: "inception_3a/3x3_reduce"
  top: "inception_3a/3x3"
  param {
    lr_mult: 1
    decay_mult: 1
  }
  param {
    lr_mult: 2
    decay_mult: 0
  }
  convolution_param {
    num_output: 128
    pad: 1
    kernel_size: 3
    weight_filler {
      type: "xavier"
      std: 0.03
    }
    bias_filler {
      type: "constant"
      value: 0.2
    }
  }
}
layer {
  name: "inception_3a/relu_3x3"
  type: "ReLU"
  bottom: "inception_3a/3x3"
  top: "inception_3a/3x3"
}
layer {
  name: "inception_3a/5x5_reduce"
  type: "Convolution"
  bottom: "pool2/3x3_s2"
  top: "inception_3a/5x5_reduce"
  param {
    lr_mult: 1
    decay_mult: 1
  }
  param {
    lr_mult: 2
    decay_mult: 0
  }
  convolution_param {
    num_output: 16
    kernel_size: 1
    weight_filler {
      type: "xavier"
      std: 0.2
    }
    bias_filler {
      type: "constant"
      value: 0.2
    }
  }
}
layer {
  name: "inception_3a/relu_5x5_reduce"
  type: "ReLU"
  bottom: "inception_3a/5x5_reduce"
  top: "inception_3a/5x5_reduce"
}
layer {
  name: "inception_3a/5x5"
  type: "Convolution"
  bottom: "inception_3a/5x5_reduce"
  top: "inception_3a/5x5"
  param {
    lr_mult: 1
    decay_mult: 1
  }
  param {
    lr_mult: 2
    decay_mult: 0
  }
  convolution_param {
    num_output: 32
    pad: 2
    kernel_size: 5
    weight_filler {
      type: "xavier"
      std: 0.03
    }
    bias_filler {
      type: "constant"
      value: 0.2
    }
  }
}
layer {
  name: "inception_3a/relu_5x5"
  type: "ReLU"
  bottom: "inception_3a/5x5"
  top: "inception_3a/5x5"
}
layer {
  name: "inception_3a/pool"
  type: "Pooling"
  bottom: "pool2/3x3_s2"
  top: "inception_3a/pool"
  pooling_param {
    pool: MAX
    kernel_size: 3
    stride: 1
    pad: 1
  }
}
layer {
  name: "inception_3a/pool_proj"
  type: "Convolution"
  bottom: "inception_3a/pool"
  top: "inception_3a/pool_proj"
  param {
    lr_mult: 1
    decay_mult: 1
  }
  param {
    lr_mult: 2
    decay_mult: 0
  }
  convolution_param {
    num_output: 32
    kernel_size: 1
    weight_filler {
      type: "xavier"
      std: 0.1
    }
    bias_filler {
      type: "constant"
      value: 0.2
    }
  }
}
layer {
  name: "inception_3a/relu_pool_proj"
  type: "ReLU"
  bottom: "inception_3a/pool_proj"
  top: "inception_3a/pool_proj"
}
layer {
  name: "inception_3a/output"
  type: "Concat"
  bottom: "inception_3a/1x1"
  bottom: "inception_3a/3x3"
  bottom: "inception_3a/5x5"
  bottom: "inception_3a/pool_proj"
  top: "inception_3a/output"
}
layer {
  name: "inception_3b/1x1"
  type: "Convolution"
  bottom: "inception_3a/output"
  top: "inception_3b/1x1"
  param {
    lr_mult: 1
    decay_mult: 1
  }
  param {
    lr_mult: 2
    decay_mult: 0
  }
  convolution_param {
    num_output: 128
    kernel_size: 1
    weight_filler {
      type: "xavier"
      std: 0.03
    }
    bias_filler {
      type: "constant"
      value: 0.2
    }
  }
}
layer {
  name: "inception_3b/relu_1x1"
  type: "ReLU"
  bottom: "inception_3b/1x1"
  top: "inception_3b/1x1"
}
layer {
  name: "inception_3b/3x3_reduce"
  type: "Convolution"
  bottom: "inception_3a/output"
  top: "inception_3b/3x3_reduce"
  param {
    lr_mult: 1
    decay_mult: 1
  }
  param {
    lr_mult: 2
    decay_mult: 0
  }
  convolution_param {
    num_output: 128
    kernel_size: 1
    weight_filler {
      type: "xavier"
      std: 0.09
    }
    bias_filler {
      type: "constant"
      value: 0.2
    }
  }
}
layer {
  name: "inception_3b/relu_3x3_reduce"
  type: "ReLU"
  bottom: "inception_3b/3x3_reduce"
  top: "inception_3b/3x3_reduce"
}
layer {
  name: "inception_3b/3x3"
  type: "Convolution"
  bottom: "inception_3b/3x3_reduce"
  top: "inception_3b/3x3"
  param {
    lr_mult: 1
    decay_mult: 1
  }
  param {
    lr_mult: 2
    decay_mult: 0
  }
  convolution_param {
    num_output: 192
    pad: 1
    kernel_size: 3
    weight_filler {
      type: "xavier"
      std: 0.03
    }
    bias_filler {
      type: "constant"
      value: 0.2
    }
  }
}
layer {
  name: "inception_3b/relu_3x3"
  type: "ReLU"
  bottom: "inception_3b/3x3"
  top: "inception_3b/3x3"
}
layer {
  name: "inception_3b/5x5_reduce"
  type: "Convolution"
  bottom: "inception_3a/output"
  top: "inception_3b/5x5_reduce"
  param {
    lr_mult: 1
    decay_mult: 1
  }
  param {
    lr_mult: 2
    decay_mult: 0
  }
  convolution_param {
    num_output: 32
    kernel_size: 1
    weight_filler {
      type: "xavier"
      std: 0.2
    }
    bias_filler {
      type: "constant"
      value: 0.2
    }
  }
}
layer {
  name: "inception_3b/relu_5x5_reduce"
  type: "ReLU"
  bottom: "inception_3b/5x5_reduce"
  top: "inception_3b/5x5_reduce"
}
layer {
  name: "inception_3b/5x5"
  type: "Convolution"
  bottom: "inception_3b/5x5_reduce"
  top: "inception_3b/5x5"
  param {
    lr_mult: 1
    decay_mult: 1
  }
  param {
    lr_mult: 2
    decay_mult: 0
  }
  convolution_param {
    num_output: 96
    pad: 2
    kernel_size: 5
    weight_filler {
      type: "xavier"
      std: 0.03
    }
    bias_filler {
      type: "constant"
      value: 0.2
    }
  }
}
layer {
  name: "inception_3b/relu_5x5"
  type: "ReLU"
  bottom: "inception_3b/5x5"
  top: "inception_3b/5x5"
}
layer {
  name: "inception_3b/pool"
  type: "Pooling"
  bottom: "inception_3a/output"
  top: "inception_3b/pool"
  pooling_param {
    pool: MAX
    kernel_size: 3
    stride: 1
    pad: 1
  }
}
layer {
  name: "inception_3b/pool_proj"
  type: "Convolution"
  bottom: "inception_3b/pool"
  top: "inception_3b/pool_proj"
  param {
    lr_mult: 1
    decay_mult: 1
  }
  param {
    lr_mult: 2
    decay_mult: 0
  }
  convolution_param {
    num_output: 64
    kernel_size: 1
    weight_filler {
      type: "xavier"
      std: 0.1
    }
    bias_filler {
      type: "constant"
      value: 0.2
    }
  }
}
layer {
  name: "inception_3b/relu_pool_proj"
  type: "ReLU"
  bottom: "inception_3b/pool_proj"
  top: "inception_3b/pool_proj"
}
layer {
  name: "inception_3b/output"
  type: "Concat"
  bottom: "inception_3b/1x1"
  bottom: "inception_3b/3x3"
  bottom: "inception_3b/5x5"
  bottom: "inception_3b/pool_proj"
  top: "inception_3b/output"
}
layer {
  name: "pool3/3x3_s2"
  type: "Pooling"
  bottom: "inception_3b/output"
  top: "pool3/3x3_s2"
  pooling_param {
    pool: MAX
    kernel_size: 3
    stride: 2
  }
}
layer {
  name: "inception_4a/1x1"
  type: "Convolution"
  bottom: "pool3/3x3_s2"
  top: "inception_4a/1x1"
  param {
    lr_mult: 1
    decay_mult: 1
  }
  param {
    lr_mult: 2
    decay_mult: 0
  }
  convolution_param {
    num_output: 192
    kernel_size: 1
    weight_filler {
      type: "xavier"
      std: 0.03
    }
    bias_filler {
      type: "constant"
      value: 0.2
    }
  }
}
layer {
  name: "inception_4a/relu_1x1"
  type: "ReLU"
  bottom: "inception_4a/1x1"
  top: "inception_4a/1x1"
}
layer {
  name: "inception_4a/3x3_reduce"
  type: "Convolution"
  bottom: "pool3/3x3_s2"
  top: "inception_4a/3x3_reduce"
  param {
    lr_mult: 1
    decay_mult: 1
  }
  param {
    lr_mult: 2
    decay_mult: 0
  }
  convolution_param {
    num_output: 96
    kernel_size: 1
    weight_filler {
      type: "xavier"
      std: 0.09
    }
    bias_filler {
      type: "constant"
      value: 0.2
    }
  }
}
layer {
  name: "inception_4a/relu_3x3_reduce"
  type: "ReLU"
  bottom: "inception_4a/3x3_reduce"
  top: "inception_4a/3x3_reduce"
}
layer {
  name: "inception_4a/3x3"
  type: "Convolution"
  bottom: "inception_4a/3x3_reduce"
  top: "inception_4a/3x3"
  param {
    lr_mult: 1
    decay_mult: 1
  }
  param {
    lr_mult: 2
    decay_mult: 0
  }
  convolution_param {
    num_output: 208
    pad: 1
    kernel_size: 3
    weight_filler {
      type: "xavier"
      std: 0.03
    }
    bias_filler {
      type: "constant"
      value: 0.2
    }
  }
}
layer {
  name: "inception_4a/relu_3x3"
  type: "ReLU"
  bottom: "inception_4a/3x3"
  top: "inception_4a/3x3"
}
layer {
  name: "inception_4a/5x5_reduce"
  type: "Convolution"
  bottom: "pool3/3x3_s2"
  top: "inception_4a/5x5_reduce"
  param {
    lr_mult: 1
    decay_mult: 1
  }
  param {
    lr_mult: 2
    decay_mult: 0
  }
  convolution_param {
    num_output: 16
    kernel_size: 1
    weight_filler {
      type: "xavier"
      std: 0.2
    }
    bias_filler {
      type: "constant"
      value: 0.2
    }
  }
}
layer {
  name: "inception_4a/relu_5x5_reduce"
  type: "ReLU"
  bottom: "inception_4a/5x5_reduce"
  top: "inception_4a/5x5_reduce"
}
layer {
  name: "inception_4a/5x5"
  type: "Convolution"
  bottom: "inception_4a/5x5_reduce"
  top: "inception_4a/5x5"
  param {
    lr_mult: 1
    decay_mult: 1
  }
  param {
    lr_mult: 2
    decay_mult: 0
  }
  convolution_param {
    num_output: 48
    pad: 2
    kernel_size: 5
    weight_filler {
      type: "xavier"
      std: 0.03
    }
    bias_filler {
      type: "constant"
      value: 0.2
    }
  }
}
layer {
  name: "inception_4a/relu_5x5"
  type: "ReLU"
  bottom: "inception_4a/5x5"
  top: "inception_4a/5x5"
}
layer {
  name: "inception_4a/pool"
  type: "Pooling"
  bottom: "pool3/3x3_s2"
  top: "inception_4a/pool"
  pooling_param {
    pool: MAX
    kernel_size: 3
    stride: 1
    pad: 1
  }
}
layer {
  name: "inception_4a/pool_proj"
  type: "Convolution"
  bottom: "inception_4a/pool"
  top: "inception_4a/pool_proj"
  param {
    lr_mult: 1
    decay_mult: 1
  }
  param {
    lr_mult: 2
    decay_mult: 0
  }
  convolution_param {
    num_output: 64
    kernel_size: 1
    weight_filler {
      type: "xavier"
      std: 0.1
    }
    bias_filler {
      type: "constant"
      value: 0.2
    }
  }
}
layer {
  name: "inception_4a/relu_pool_proj"
  type: "ReLU"
  bottom: "inception_4a/pool_proj"
  top: "inception_4a/pool_proj"
}
layer {
  name: "inception_4a/output"
  type: "Concat"
  bottom: "inception_4a/1x1"
  bottom: "inception_4a/3x3"
  bottom: "inception_4a/5x5"
  bottom: "inception_4a/pool_proj"
  top: "inception_4a/output"
}
layer {
  name: "loss1/ave_pool"
  type: "Pooling"
  bottom: "inception_4a/output"
  top: "loss1/ave_pool"
  pooling_param {
    pool: AVE
    kernel_size: 5
    stride: 3
  }
}
layer {
  name: "loss1/conv"
  type: "Convolution"
  bottom: "loss1/ave_pool"
  top: "loss1/conv"
  param {
    lr_mult: 1
    decay_mult: 1
  }
  param {
    lr_mult: 2
    decay_mult: 0
  }
  convolution_param {
    num_output: 128
    kernel_size: 1
    weight_filler {
      type: "xavier"
      std: 0.08
    }
    bias_filler {
      type: "constant"
      value: 0.2
    }
  }
}
layer {
  name: "loss1/relu_conv"
  type: "ReLU"
  bottom: "loss1/conv"
  top: "loss1/conv"
}
layer {
  name: "loss1/fc"
  type: "InnerProduct"
  bottom: "loss1/conv"
  top: "loss1/fc"
  param {
    lr_mult: 1
    decay_mult: 1
  }
  param {
    lr_mult: 2
    decay_mult: 0
  }
  inner_product_param {
    num_output: 1024
    weight_filler {
      type: "xavier"
      std: 0.02
    }
    bias_filler {
      type: "constant"
      value: 0.2
    }
  }
}
layer {
  name: "loss1/relu_fc"
  type: "ReLU"
  bottom: "loss1/fc"
  top: "loss1/fc"
}
layer {
  name: "loss1/drop_fc"
  type: "Dropout"
  bottom: "loss1/fc"
  top: "loss1/fc"
  dropout_param {
    dropout_ratio: 0.7
  }
}
layer {
  name: "loss1/classifier_plantvillage"
  type: "InnerProduct"
  bottom: "loss1/fc"
  top: "loss1/classifier_plantvillage"
  param {
    lr_mult: 1
    decay_mult: 1
  }
  param {
    lr_mult: 2
    decay_mult: 0
  }
  inner_product_param {
    num_output: 38
    weight_filler {
      type: "xavier"
      std: 0.0009765625
    }
    bias_filler {
      type: "constant"
      value: 0
    }
  }
}
layer {
  name: "inception_4b/1x1"
  type: "Convolution"
  bottom: "inception_4a/output"
  top: "inception_4b/1x1"
  param {
    lr_mult: 1
    decay_mult: 1
  }
  param {
    lr_mult: 2
    decay_mult: 0
  }
  convolution_param {
    num_output: 160
    kernel_size: 1
    weight_filler {
      type: "xavier"
      std: 0.03
    }
    bias_filler {
      type: "constant"
      value: 0.2
    }
  }
}
layer {
  name: "inception_4b/relu_1x1"
  type: "ReLU"
  bottom: "inception_4b/1x1"
  top: "inception_4b/1x1"
}
layer {
  name: "inception_4b/3x3_reduce"
  type: "Convolution"
  bottom: "inception_4a/output"
  top: "inception_4b/3x3_reduce"
  param {
    lr_mult: 1
    decay_mult: 1
  }
  param {
    lr_mult: 2
    decay_mult: 0
  }
  convolution_param {
    num_output: 112
    kernel_size: 1
    weight_filler {
      type: "xavier"
      std: 0.09
    }
    bias_filler {
      type: "constant"
      value: 0.2
    }
  }
}
layer {
  name: "inception_4b/relu_3x3_reduce"
  type: "ReLU"
  bottom: "inception_4b/3x3_reduce"
  top: "inception_4b/3x3_reduce"
}
layer {
  name: "inception_4b/3x3"
  type: "Convolution"
  bottom: "inception_4b/3x3_reduce"
  top: "inception_4b/3x3"
  param {
    lr_mult: 1
    decay_mult: 1
  }
  param {
    lr_mult: 2
    decay_mult: 0
  }
  convolution_param {
    num_output: 224
    pad: 1
    kernel_size: 3
    weight_filler {
      type: "xavier"
      std: 0.03
    }
    bias_filler {
      type: "constant"
      value: 0.2
    }
  }
}
layer {
  name: "inception_4b/relu_3x3"
  type: "ReLU"
  bottom: "inception_4b/3x3"
  top: "inception_4b/3x3"
}
layer {
  name: "inception_4b/5x5_reduce"
  type: "Convolution"
  bottom: "inception_4a/output"
  top: "inception_4b/5x5_reduce"
  param {
    lr_mult: 1
    decay_mult: 1
  }
  param {
    lr_mult: 2
    decay_mult: 0
  }
  convolution_param {
    num_output: 24
    kernel_size: 1
    weight_filler {
      type: "xavier"
      std: 0.2
    }
    bias_filler {
      type: "constant"
      value: 0.2
    }
  }
}
layer {
  name: "inception_4b/relu_5x5_reduce"
  type: "ReLU"
  bottom: "inception_4b/5x5_reduce"
  top: "inception_4b/5x5_reduce"
}
layer {
  name: "inception_4b/5x5"
  type: "Convolution"
  bottom: "inception_4b/5x5_reduce"
  top: "inception_4b/5x5"
  param {
    lr_mult: 1
    decay_mult: 1
  }
  param {
    lr_mult: 2
    decay_mult: 0
  }
  convolution_param {
    num_output: 64
    pad: 2
    kernel_size: 5
    weight_filler {
      type: "xavier"
      std: 0.03
    }
    bias_filler {
      type: "constant"
      value: 0.2
    }
  }
}
layer {
  name: "inception_4b/relu_5x5"
  type: "ReLU"
  bottom: "inception_4b/5x5"
  top: "inception_4b/5x5"
}
layer {
  name: "inception_4b/pool"
  type: "Pooling"
  bottom: "inception_4a/output"
  top: "inception_4b/pool"
  pooling_param {
    pool: MAX
    kernel_size: 3
    stride: 1
    pad: 1
  }
}
layer {
  name: "inception_4b/pool_proj"
  type: "Convolution"
  bottom: "inception_4b/pool"
  top: "inception_4b/pool_proj"
  param {
    lr_mult: 1
    decay_mult: 1
  }
  param {
    lr_mult: 2
    decay_mult: 0
  }
  convolution_param {
    num_output: 64
    kernel_size: 1
    weight_filler {
      type: "xavier"
      std: 0.1
    }
    bias_filler {
      type: "constant"
      value: 0.2
    }
  }
}
layer {
  name: "inception_4b/relu_pool_proj"
  type: "ReLU"
  bottom: "inception_4b/pool_proj"
  top: "inception_4b/pool_proj"
}
layer {
  name: "inception_4b/output"
  type: "Concat"
  bottom: "inception_4b/1x1"
  bottom: "inception_4b/3x3"
  bottom: "inception_4b/5x5"
  bottom: "inception_4b/pool_proj"
  top: "inception_4b/output"
}
layer {
  name: "inception_4c/1x1"
  type: "Convolution"
  bottom: "inception_4b/output"
  top: "inception_4c/1x1"
  param {
    lr_mult: 1
    decay_mult: 1
  }
  param {
    lr_mult: 2
    decay_mult: 0
  }
  convolution_param {
    num_output: 128
    kernel_size: 1
    weight_filler {
      type: "xavier"
      std: 0.03
    }
    bias_filler {
      type: "constant"
      value: 0.2
    }
  }
}
layer {
  name: "inception_4c/relu_1x1"
  type: "ReLU"
  bottom: "inception_4c/1x1"
  top: "inception_4c/1x1"
}
layer {
  name: "inception_4c/3x3_reduce"
  type: "Convolution"
  bottom: "inception_4b/output"
  top: "inception_4c/3x3_reduce"
  param {
    lr_mult: 1
    decay_mult: 1
  }
  param {
    lr_mult: 2
    decay_mult: 0
  }
  convolution_param {
    num_output: 128
    kernel_size: 1
    weight_filler {
      type: "xavier"
      std: 0.09
    }
    bias_filler {
      type: "constant"
      value: 0.2
    }
  }
}
layer {
  name: "inception_4c/relu_3x3_reduce"
  type: "ReLU"
  bottom: "inception_4c/3x3_reduce"
  top: "inception_4c/3x3_reduce"
}
layer {
  name: "inception_4c/3x3"
  type: "Convolution"
  bottom: "inception_4c/3x3_reduce"
  top: "inception_4c/3x3"
  param {
    lr_mult: 1
    decay_mult: 1
  }
  param {
    lr_mult: 2
    decay_mult: 0
  }
  convolution_param {
    num_output: 256
    pad: 1
    kernel_size: 3
    weight_filler {
      type: "xavier"
      std: 0.03
    }
    bias_filler {
      type: "constant"
      value: 0.2
    }
  }
}
layer {
  name: "inception_4c/relu_3x3"
  type: "ReLU"
  bottom: "inception_4c/3x3"
  top: "inception_4c/3x3"
}
layer {
  name: "inception_4c/5x5_reduce"
  type: "Convolution"
  bottom: "inception_4b/output"
  top: "inception_4c/5x5_reduce"
  param {
    lr_mult: 1
    decay_mult: 1
  }
  param {
    lr_mult: 2
    decay_mult: 0
  }
  convolution_param {
    num_output: 24
    kernel_size: 1
    weight_filler {
      type: "xavier"
      std: 0.2
    }
    bias_filler {
      type: "constant"
      value: 0.2
    }
  }
}
layer {
  name: "inception_4c/relu_5x5_reduce"
  type: "ReLU"
  bottom: "inception_4c/5x5_reduce"
  top: "inception_4c/5x5_reduce"
}
layer {
  name: "inception_4c/5x5"
  type: "Convolution"
  bottom: "inception_4c/5x5_reduce"
  top: "inception_4c/5x5"
  param {
    lr_mult: 1
    decay_mult: 1
  }
  param {
    lr_mult: 2
    decay_mult: 0
  }
  convolution_param {
    num_output: 64
    pad: 2
    kernel_size: 5
    weight_filler {
      type: "xavier"
      std: 0.03
    }
    bias_filler {
      type: "constant"
      value: 0.2
    }
  }
}
layer {
  name: "inception_4c/relu_5x5"
  type: "ReLU"
  bottom: "inception_4c/5x5"
  top: "inception_4c/5x5"
}
layer {
  name: "inception_4c/pool"
  type: "Pooling"
  bottom: "inception_4b/output"
  top: "inception_4c/pool"
  pooling_param {
    pool: MAX
    kernel_size: 3
    stride: 1
    pad: 1
  }
}
layer {
  name: "inception_4c/pool_proj"
  type: "Convolution"
  bottom: "inception_4c/pool"
  top: "inception_4c/pool_proj"
  param {
    lr_mult: 1
    decay_mult: 1
  }
  param {
    lr_mult: 2
    decay_mult: 0
  }
  convolution_param {
    num_output: 64
    kernel_size: 1
    weight_filler {
      type: "xavier"
      std: 0.1
    }
    bias_filler {
      type: "constant"
      value: 0.2
    }
  }
}
layer {
  name: "inception_4c/relu_pool_proj"
  type: "ReLU"
  bottom: "inception_4c/pool_proj"
  top: "inception_4c/pool_proj"
}
layer {
  name: "inception_4c/output"
  type: "Concat"
  bottom: "inception_4c/1x1"
  bottom: "inception_4c/3x3"
  bottom: "inception_4c/5x5"
  bottom: "inception_4c/pool_proj"
  top: "inception_4c/output"
}
layer {
  name: "inception_4d/1x1"
  type: "Convolution"
  bottom: "inception_4c/output"
  top: "inception_4d/1x1"
  param {
    lr_mult: 1
    decay_mult: 1
  }
  param {
    lr_mult: 2
    decay_mult: 0
  }
  convolution_param {
    num_output: 112
    kernel_size: 1
    weight_filler {
      type: "xavier"
      std: 0.03
    }
    bias_filler {
      type: "constant"
      value: 0.2
    }
  }
}
layer {
  name: "inception_4d/relu_1x1"
  type: "ReLU"
  bottom: "inception_4d/1x1"
  top: "inception_4d/1x1"
}
layer {
  name: "inception_4d/3x3_reduce"
  type: "Convolution"
  bottom: "inception_4c/output"
  top: "inception_4d/3x3_reduce"
  param {
    lr_mult: 1
    decay_mult: 1
  }
  param {
    lr_mult: 2
    decay_mult: 0
  }
  convolution_param {
    num_output: 144
    kernel_size: 1
    weight_filler {
      type: "xavier"
      std: 0.09
    }
    bias_filler {
      type: "constant"
      value: 0.2
    }
  }
}
layer {
  name: "inception_4d/relu_3x3_reduce"
  type: "ReLU"
  bottom: "inception_4d/3x3_reduce"
  top: "inception_4d/3x3_reduce"
}
layer {
  name: "inception_4d/3x3"
  type: "Convolution"
  bottom: "inception_4d/3x3_reduce"
  top: "inception_4d/3x3"
  param {
    lr_mult: 1
    decay_mult: 1
  }
  param {
    lr_mult: 2
    decay_mult: 0
  }
  convolution_param {
    num_output: 288
    pad: 1
    kernel_size: 3
    weight_filler {
      type: "xavier"
      std: 0.03
    }
    bias_filler {
      type: "constant"
      value: 0.2
    }
  }
}
layer {
  name: "inception_4d/relu_3x3"
  type: "ReLU"
  bottom: "inception_4d/3x3"
  top: "inception_4d/3x3"
}
layer {
  name: "inception_4d/5x5_reduce"
  type: "Convolution"
  bottom: "inception_4c/output"
  top: "inception_4d/5x5_reduce"
  param {
    lr_mult: 1
    decay_mult: 1
  }
  param {
    lr_mult: 2
    decay_mult: 0
  }
  convolution_param {
    num_output: 32
    kernel_size: 1
    weight_filler {
      type: "xavier"
      std: 0.2
    }
    bias_filler {
      type: "constant"
      value: 0.2
    }
  }
}
layer {
  name: "inception_4d/relu_5x5_reduce"
  type: "ReLU"
  bottom: "inception_4d/5x5_reduce"
  top: "inception_4d/5x5_reduce"
}
layer {
  name: "inception_4d/5x5"
  type: "Convolution"
  bottom: "inception_4d/5x5_reduce"
  top: "inception_4d/5x5"
  param {
    lr_mult: 1
    decay_mult: 1
  }
  param {
    lr_mult: 2
    decay_mult: 0
  }
  convolution_param {
    num_output: 64
    pad: 2
    kernel_size: 5
    weight_filler {
      type: "xavier"
      std: 0.03
    }
    bias_filler {
      type: "constant"
      value: 0.2
    }
  }
}
layer {
  name: "inception_4d/relu_5x5"
  type: "ReLU"
  bottom: "inception_4d/5x5"
  top: "inception_4d/5x5"
}
layer {
  name: "inception_4d/pool"
  type: "Pooling"
  bottom: "inception_4c/output"
  top: "inception_4d/pool"
  pooling_param {
    pool: MAX
    kernel_size: 3
    stride: 1
    pad: 1
  }
}
layer {
  name: "inception_4d/pool_proj"
  type: "Convolution"
  bottom: "inception_4d/pool"
  top: "inception_4d/pool_proj"
  param {
    lr_mult: 1
    decay_mult: 1
  }
  param {
    lr_mult: 2
    decay_mult: 0
  }
  convolution_param {
    num_output: 64
    kernel_size: 1
    weight_filler {
      type: "xavier"
      std: 0.1
    }
    bias_filler {
      type: "constant"
      value: 0.2
    }
  }
}
layer {
  name: "inception_4d/relu_pool_proj"
  type: "ReLU"
  bottom: "inception_4d/pool_proj"
  top: "inception_4d/pool_proj"
}
layer {
  name: "inception_4d/output"
  type: "Concat"
  bottom: "inception_4d/1x1"
  bottom: "inception_4d/3x3"
  bottom: "inception_4d/5x5"
  bottom: "inception_4d/pool_proj"
  top: "inception_4d/output"
}
layer {
  name: "loss2/ave_pool"
  type: "Pooling"
  bottom: "inception_4d/output"
  top: "loss2/ave_pool"
  pooling_param {
    pool: AVE
    kernel_size: 5
    stride: 3
  }
}
layer {
  name: "loss2/conv"
  type: "Convolution"
  bottom: "loss2/ave_pool"
  top: "loss2/conv"
  param {
    lr_mult: 1
    decay_mult: 1
  }
  param {
    lr_mult: 2
    decay_mult: 0
  }
  convolution_param {
    num_output: 128
    kernel_size: 1
    weight_filler {
      type: "xavier"
      std: 0.08
    }
    bias_filler {
      type: "constant"
      value: 0.2
    }
  }
}
layer {
  name: "loss2/relu_conv"
  type: "ReLU"
  bottom: "loss2/conv"
  top: "loss2/conv"
}
layer {
  name: "loss2/fc"
  type: "InnerProduct"
  bottom: "loss2/conv"
  top: "loss2/fc"
  param {
    lr_mult: 1
    decay_mult: 1
  }
  param {
    lr_mult: 2
    decay_mult: 0
  }
  inner_product_param {
    num_output: 1024
    weight_filler {
      type: "xavier"
      std: 0.02
    }
    bias_filler {
      type: "constant"
      value: 0.2
    }
  }
}
layer {
  name: "loss2/relu_fc"
  type: "ReLU"
  bottom: "loss2/fc"
  top: "loss2/fc"
}
layer {
  name: "loss2/drop_fc"
  type: "Dropout"
  bottom: "loss2/fc"
  top: "loss2/fc"
  dropout_param {
    dropout_ratio: 0.7
  }
}
layer {
  name: "loss2/classifier_plantvillage"
  type: "InnerProduct"
  bottom: "loss2/fc"
  top: "loss2/classifier_plantvillage"
  param {
    lr_mult: 1
    decay_mult: 1
  }
  param {
    lr_mult: 2
    decay_mult: 0
  }
  inner_product_param {
    num_output: 38
    weight_filler {
      type: "xavier"
      std: 0.0009765625
    }
    bias_filler {
      type: "constant"
      value: 0
    }
  }
}
layer {
  name: "inception_4e/1x1"
  type: "Convolution"
  bottom: "inception_4d/output"
  top: "inception_4e/1x1"
  param {
    lr_mult: 1
    decay_mult: 1
  }
  param {
    lr_mult: 2
    decay_mult: 0
  }
  convolution_param {
    num_output: 256
    kernel_size: 1
    weight_filler {
      type: "xavier"
      std: 0.03
    }
    bias_filler {
      type: "constant"
      value: 0.2
    }
  }
}
layer {
  name: "inception_4e/relu_1x1"
  type: "ReLU"
  bottom: "inception_4e/1x1"
  top: "inception_4e/1x1"
}
layer {
  name: "inception_4e/3x3_reduce"
  type: "Convolution"
  bottom: "inception_4d/output"
  top: "inception_4e/3x3_reduce"
  param {
    lr_mult: 1
    decay_mult: 1
  }
  param {
    lr_mult: 2
    decay_mult: 0
  }
  convolution_param {
    num_output: 160
    kernel_size: 1
    weight_filler {
      type: "xavier"
      std: 0.09
    }
    bias_filler {
      type: "constant"
      value: 0.2
    }
  }
}
layer {
  name: "inception_4e/relu_3x3_reduce"
  type: "ReLU"
  bottom: "inception_4e/3x3_reduce"
  top: "inception_4e/3x3_reduce"
}
layer {
  name: "inception_4e/3x3"
  type: "Convolution"
  bottom: "inception_4e/3x3_reduce"
  top: "inception_4e/3x3"
  param {
    lr_mult: 1
    decay_mult: 1
  }
  param {
    lr_mult: 2
    decay_mult: 0
  }
  convolution_param {
    num_output: 320
    pad: 1
    kernel_size: 3
    weight_filler {
      type: "xavier"
      std: 0.03
    }
    bias_filler {
      type: "constant"
      value: 0.2
    }
  }
}
layer {
  name: "inception_4e/relu_3x3"
  type: "ReLU"
  bottom: "inception_4e/3x3"
  top: "inception_4e/3x3"
}
layer {
  name: "inception_4e/5x5_reduce"
  type: "Convolution"
  bottom: "inception_4d/output"
  top: "inception_4e/5x5_reduce"
  param {
    lr_mult: 1
    decay_mult: 1
  }
  param {
    lr_mult: 2
    decay_mult: 0
  }
  convolution_param {
    num_output: 32
    kernel_size: 1
    weight_filler {
      type: "xavier"
      std: 0.2
    }
    bias_filler {
      type: "constant"
      value: 0.2
    }
  }
}
layer {
  name: "inception_4e/relu_5x5_reduce"
  type: "ReLU"
  bottom: "inception_4e/5x5_reduce"
  top: "inception_4e/5x5_reduce"
}
layer {
  name: "inception_4e/5x5"
  type: "Convolution"
  bottom: "inception_4e/5x5_reduce"
  top: "inception_4e/
I0403 15:07:57.519495 11820 layer_factory.hpp:77] Creating layer data
I0403 15:07:57.520072 11820 net.cpp:91] Creating Layer data
I0403 15:07:57.520105 11820 net.cpp:399] data -> data
I0403 15:07:57.520159 11820 net.cpp:399] data -> label
I0403 15:07:57.520196 11820 data_transformer.cpp:25] Loading mean file from: /home/mohanty/data/final_dataset/lmdb/grayscale-60-40/mean.binaryproto
I0403 15:07:57.522985 11822 db_lmdb.cpp:38] Opened lmdb /home/mohanty/data/final_dataset/lmdb/grayscale-60-40/test_db
I0403 15:07:57.533877 11820 data_layer.cpp:41] output data size: 24,3,224,224
I0403 15:07:57.561357 11820 net.cpp:141] Setting up data
I0403 15:07:57.561434 11820 net.cpp:148] Top shape: 24 3 224 224 (3612672)
I0403 15:07:57.561458 11820 net.cpp:148] Top shape: 24 (24)
I0403 15:07:57.561473 11820 net.cpp:156] Memory required for data: 14450784
I0403 15:07:57.561503 11820 layer_factory.hpp:77] Creating layer label_data_1_split
I0403 15:07:57.561532 11820 net.cpp:91] Creating Layer label_data_1_split
I0403 15:07:57.561574 11820 net.cpp:425] label_data_1_split <- label
I0403 15:07:57.561611 11820 net.cpp:399] label_data_1_split -> label_data_1_split_0
I0403 15:07:57.561640 11820 net.cpp:399] label_data_1_split -> label_data_1_split_1
I0403 15:07:57.561662 11820 net.cpp:399] label_data_1_split -> label_data_1_split_2
I0403 15:07:57.561684 11820 net.cpp:399] label_data_1_split -> label_data_1_split_3
I0403 15:07:57.561704 11820 net.cpp:399] label_data_1_split -> label_data_1_split_4
I0403 15:07:57.561725 11820 net.cpp:399] label_data_1_split -> label_data_1_split_5
I0403 15:07:57.561745 11820 net.cpp:399] label_data_1_split -> label_data_1_split_6
I0403 15:07:57.561766 11820 net.cpp:399] label_data_1_split -> label_data_1_split_7
I0403 15:07:57.561786 11820 net.cpp:399] label_data_1_split -> label_data_1_split_8
I0403 15:07:57.561807 11820 net.cpp:399] label_data_1_split -> label_data_1_split_9
I0403 15:07:57.561928 11820 net.cpp:141] Setting up label_data_1_split
I0403 15:07:57.561951 11820 net.cpp:148] Top shape: 24 (24)
I0403 15:07:57.561969 11820 net.cpp:148] Top shape: 24 (24)
I0403 15:07:57.561985 11820 net.cpp:148] Top shape: 24 (24)
I0403 15:07:57.562000 11820 net.cpp:148] Top shape: 24 (24)
I0403 15:07:57.562013 11820 net.cpp:148] Top shape: 24 (24)
I0403 15:07:57.562029 11820 net.cpp:148] Top shape: 24 (24)
I0403 15:07:57.562046 11820 net.cpp:148] Top shape: 24 (24)
I0403 15:07:57.562062 11820 net.cpp:148] Top shape: 24 (24)
I0403 15:07:57.562075 11820 net.cpp:148] Top shape: 24 (24)
I0403 15:07:57.562091 11820 net.cpp:148] Top shape: 24 (24)
I0403 15:07:57.562141 11820 net.cpp:156] Memory required for data: 14451744
I0403 15:07:57.562160 11820 layer_factory.hpp:77] Creating layer conv1/7x7_s2
I0403 15:07:57.562191 11820 net.cpp:91] Creating Layer conv1/7x7_s2
I0403 15:07:57.562209 11820 net.cpp:425] conv1/7x7_s2 <- data
I0403 15:07:57.562229 11820 net.cpp:399] conv1/7x7_s2 -> conv1/7x7_s2
I0403 15:07:57.705585 11820 net.cpp:141] Setting up conv1/7x7_s2
I0403 15:07:57.705659 11820 net.cpp:148] Top shape: 24 64 112 112 (19267584)
I0403 15:07:57.705677 11820 net.cpp:156] Memory required for data: 91522080
I0403 15:07:57.705709 11820 layer_factory.hpp:77] Creating layer conv1/relu_7x7
I0403 15:07:57.705739 11820 net.cpp:91] Creating Layer conv1/relu_7x7
I0403 15:07:57.705760 11820 net.cpp:425] conv1/relu_7x7 <- conv1/7x7_s2
I0403 15:07:57.705785 11820 net.cpp:386] conv1/relu_7x7 -> conv1/7x7_s2 (in-place)
I0403 15:07:57.706063 11820 net.cpp:141] Setting up conv1/relu_7x7
I0403 15:07:57.706092 11820 net.cpp:148] Top shape: 24 64 112 112 (19267584)
I0403 15:07:57.706110 11820 net.cpp:156] Memory required for data: 168592416
I0403 15:07:57.706130 11820 layer_factory.hpp:77] Creating layer pool1/3x3_s2
I0403 15:07:57.706157 11820 net.cpp:91] Creating Layer pool1/3x3_s2
I0403 15:07:57.706177 11820 net.cpp:425] pool1/3x3_s2 <- conv1/7x7_s2
I0403 15:07:57.706200 11820 net.cpp:399] pool1/3x3_s2 -> pool1/3x3_s2
I0403 15:07:57.706281 11820 net.cpp:141] Setting up pool1/3x3_s2
I0403 15:07:57.706310 11820 net.cpp:148] Top shape: 24 64 56 56 (4816896)
I0403 15:07:57.706327 11820 net.cpp:156] Memory required for data: 187860000
I0403 15:07:57.706342 11820 layer_factory.hpp:77] Creating layer pool1/norm1
I0403 15:07:57.706367 11820 net.cpp:91] Creating Layer pool1/norm1
I0403 15:07:57.706385 11820 net.cpp:425] pool1/norm1 <- pool1/3x3_s2
I0403 15:07:57.706408 11820 net.cpp:399] pool1/norm1 -> pool1/norm1
I0403 15:07:57.706730 11820 net.cpp:141] Setting up pool1/norm1
I0403 15:07:57.706759 11820 net.cpp:148] Top shape: 24 64 56 56 (4816896)
I0403 15:07:57.706775 11820 net.cpp:156] Memory required for data: 207127584
I0403 15:07:57.706791 11820 layer_factory.hpp:77] Creating layer conv2/3x3_reduce
I0403 15:07:57.706818 11820 net.cpp:91] Creating Layer conv2/3x3_reduce
I0403 15:07:57.706836 11820 net.cpp:425] conv2/3x3_reduce <- pool1/norm1
I0403 15:07:57.706859 11820 net.cpp:399] conv2/3x3_reduce -> conv2/3x3_reduce
I0403 15:07:57.708350 11820 net.cpp:141] Setting up conv2/3x3_reduce
I0403 15:07:57.708382 11820 net.cpp:148] Top shape: 24 64 56 56 (4816896)
I0403 15:07:57.708400 11820 net.cpp:156] Memory required for data: 226395168
I0403 15:07:57.708425 11820 layer_factory.hpp:77] Creating layer conv2/relu_3x3_reduce
I0403 15:07:57.708447 11820 net.cpp:91] Creating Layer conv2/relu_3x3_reduce
I0403 15:07:57.708467 11820 net.cpp:425] conv2/relu_3x3_reduce <- conv2/3x3_reduce
I0403 15:07:57.708484 11820 net.cpp:386] conv2/relu_3x3_reduce -> conv2/3x3_reduce (in-place)
I0403 15:07:57.708767 11820 net.cpp:141] Setting up conv2/relu_3x3_reduce
I0403 15:07:57.708796 11820 net.cpp:148] Top shape: 24 64 56 56 (4816896)
I0403 15:07:57.708811 11820 net.cpp:156] Memory required for data: 245662752
I0403 15:07:57.708827 11820 layer_factory.hpp:77] Creating layer conv2/3x3
I0403 15:07:57.708855 11820 net.cpp:91] Creating Layer conv2/3x3
I0403 15:07:57.708875 11820 net.cpp:425] conv2/3x3 <- conv2/3x3_reduce
I0403 15:07:57.708896 11820 net.cpp:399] conv2/3x3 -> conv2/3x3
I0403 15:07:57.711412 11820 net.cpp:141] Setting up conv2/3x3
I0403 15:07:57.711447 11820 net.cpp:148] Top shape: 24 192 56 56 (14450688)
I0403 15:07:57.711467 11820 net.cpp:156] Memory required for data: 303465504
I0403 15:07:57.711489 11820 layer_factory.hpp:77] Creating layer conv2/relu_3x3
I0403 15:07:57.711509 11820 net.cpp:91] Creating Layer conv2/relu_3x3
I0403 15:07:57.711526 11820 net.cpp:425] conv2/relu_3x3 <- conv2/3x3
I0403 15:07:57.711544 11820 net.cpp:386] conv2/relu_3x3 -> conv2/3x3 (in-place)
I0403 15:07:57.711735 11820 net.cpp:141] Setting up conv2/relu_3x3
I0403 15:07:57.711761 11820 net.cpp:148] Top shape: 24 192 56 56 (14450688)
I0403 15:07:57.711812 11820 net.cpp:156] Memory required for data: 361268256
I0403 15:07:57.711828 11820 layer_factory.hpp:77] Creating layer conv2/norm2
I0403 15:07:57.711850 11820 net.cpp:91] Creating Layer conv2/norm2
I0403 15:07:57.711869 11820 net.cpp:425] conv2/norm2 <- conv2/3x3
I0403 15:07:57.711886 11820 net.cpp:399] conv2/norm2 -> conv2/norm2
I0403 15:07:57.712208 11820 net.cpp:141] Setting up conv2/norm2
I0403 15:07:57.712237 11820 net.cpp:148] Top shape: 24 192 56 56 (14450688)
I0403 15:07:57.712254 11820 net.cpp:156] Memory required for data: 419071008
I0403 15:07:57.712267 11820 layer_factory.hpp:77] Creating layer pool2/3x3_s2
I0403 15:07:57.712290 11820 net.cpp:91] Creating Layer pool2/3x3_s2
I0403 15:07:57.712307 11820 net.cpp:425] pool2/3x3_s2 <- conv2/norm2
I0403 15:07:57.712327 11820 net.cpp:399] pool2/3x3_s2 -> pool2/3x3_s2
I0403 15:07:57.712383 11820 net.cpp:141] Setting up pool2/3x3_s2
I0403 15:07:57.712407 11820 net.cpp:148] Top shape: 24 192 28 28 (3612672)
I0403 15:07:57.712422 11820 net.cpp:156] Memory required for data: 433521696
I0403 15:07:57.712437 11820 layer_factory.hpp:77] Creating layer pool2/3x3_s2_pool2/3x3_s2_0_split
I0403 15:07:57.712455 11820 net.cpp:91] Creating Layer pool2/3x3_s2_pool2/3x3_s2_0_split
I0403 15:07:57.712471 11820 net.cpp:425] pool2/3x3_s2_pool2/3x3_s2_0_split <- pool2/3x3_s2
I0403 15:07:57.712491 11820 net.cpp:399] pool2/3x3_s2_pool2/3x3_s2_0_split -> pool2/3x3_s2_pool2/3x3_s2_0_split_0
I0403 15:07:57.712513 11820 net.cpp:399] pool2/3x3_s2_pool2/3x3_s2_0_split -> pool2/3x3_s2_pool2/3x3_s2_0_split_1
I0403 15:07:57.712534 11820 net.cpp:399] pool2/3x3_s2_pool2/3x3_s2_0_split -> pool2/3x3_s2_pool2/3x3_s2_0_split_2
I0403 15:07:57.712555 11820 net.cpp:399] pool2/3x3_s2_pool2/3x3_s2_0_split -> pool2/3x3_s2_pool2/3x3_s2_0_split_3
I0403 15:07:57.712628 11820 net.cpp:141] Setting up pool2/3x3_s2_pool2/3x3_s2_0_split
I0403 15:07:57.712656 11820 net.cpp:148] Top shape: 24 192 28 28 (3612672)
I0403 15:07:57.712672 11820 net.cpp:148] Top shape: 24 192 28 28 (3612672)
I0403 15:07:57.712688 11820 net.cpp:148] Top shape: 24 192 28 28 (3612672)
I0403 15:07:57.712703 11820 net.cpp:148] Top shape: 24 192 28 28 (3612672)
I0403 15:07:57.712718 11820 net.cpp:156] Memory required for data: 491324448
I0403 15:07:57.712733 11820 layer_factory.hpp:77] Creating layer inception_3a/1x1
I0403 15:07:57.712756 11820 net.cpp:91] Creating Layer inception_3a/1x1
I0403 15:07:57.712775 11820 net.cpp:425] inception_3a/1x1 <- pool2/3x3_s2_pool2/3x3_s2_0_split_0
I0403 15:07:57.712797 11820 net.cpp:399] inception_3a/1x1 -> inception_3a/1x1
I0403 15:07:57.714401 11820 net.cpp:141] Setting up inception_3a/1x1
I0403 15:07:57.714432 11820 net.cpp:148] Top shape: 24 64 28 28 (1204224)
I0403 15:07:57.714452 11820 net.cpp:156] Memory required for data: 496141344
I0403 15:07:57.714473 11820 layer_factory.hpp:77] Creating layer inception_3a/relu_1x1
I0403 15:07:57.714491 11820 net.cpp:91] Creating Layer inception_3a/relu_1x1
I0403 15:07:57.714509 11820 net.cpp:425] inception_3a/relu_1x1 <- inception_3a/1x1
I0403 15:07:57.714526 11820 net.cpp:386] inception_3a/relu_1x1 -> inception_3a/1x1 (in-place)
I0403 15:07:57.714714 11820 net.cpp:141] Setting up inception_3a/relu_1x1
I0403 15:07:57.714743 11820 net.cpp:148] Top shape: 24 64 28 28 (1204224)
I0403 15:07:57.714761 11820 net.cpp:156] Memory required for data: 500958240
I0403 15:07:57.714777 11820 layer_factory.hpp:77] Creating layer inception_3a/3x3_reduce
I0403 15:07:57.714800 11820 net.cpp:91] Creating Layer inception_3a/3x3_reduce
I0403 15:07:57.714819 11820 net.cpp:425] inception_3a/3x3_reduce <- pool2/3x3_s2_pool2/3x3_s2_0_split_1
I0403 15:07:57.714838 11820 net.cpp:399] inception_3a/3x3_reduce -> inception_3a/3x3_reduce
I0403 15:07:57.716596 11820 net.cpp:141] Setting up inception_3a/3x3_reduce
I0403 15:07:57.716627 11820 net.cpp:148] Top shape: 24 96 28 28 (1806336)
I0403 15:07:57.716645 11820 net.cpp:156] Memory required for data: 508183584
I0403 15:07:57.716667 11820 layer_factory.hpp:77] Creating layer inception_3a/relu_3x3_reduce
I0403 15:07:57.716706 11820 net.cpp:91] Creating Layer inception_3a/relu_3x3_reduce
I0403 15:07:57.716727 11820 net.cpp:425] inception_3a/relu_3x3_reduce <- inception_3a/3x3_reduce
I0403 15:07:57.716748 11820 net.cpp:386] inception_3a/relu_3x3_reduce -> inception_3a/3x3_reduce (in-place)
I0403 15:07:57.716938 11820 net.cpp:141] Setting up inception_3a/relu_3x3_reduce
I0403 15:07:57.716965 11820 net.cpp:148] Top shape: 24 96 28 28 (1806336)
I0403 15:07:57.716981 11820 net.cpp:156] Memory required for data: 515408928
I0403 15:07:57.716996 11820 layer_factory.hpp:77] Creating layer inception_3a/3x3
I0403 15:07:57.717022 11820 net.cpp:91] Creating Layer inception_3a/3x3
I0403 15:07:57.717041 11820 net.cpp:425] inception_3a/3x3 <- inception_3a/3x3_reduce
I0403 15:07:57.717063 11820 net.cpp:399] inception_3a/3x3 -> inception_3a/3x3
I0403 15:07:57.718796 11820 net.cpp:141] Setting up inception_3a/3x3
I0403 15:07:57.718832 11820 net.cpp:148] Top shape: 24 128 28 28 (2408448)
I0403 15:07:57.718850 11820 net.cpp:156] Memory required for data: 525042720
I0403 15:07:57.718870 11820 layer_factory.hpp:77] Creating layer inception_3a/relu_3x3
I0403 15:07:57.718889 11820 net.cpp:91] Creating Layer inception_3a/relu_3x3
I0403 15:07:57.718905 11820 net.cpp:425] inception_3a/relu_3x3 <- inception_3a/3x3
I0403 15:07:57.718924 11820 net.cpp:386] inception_3a/relu_3x3 -> inception_3a/3x3 (in-place)
I0403 15:07:57.719218 11820 net.cpp:141] Setting up inception_3a/relu_3x3
I0403 15:07:57.719249 11820 net.cpp:148] Top shape: 24 128 28 28 (2408448)
I0403 15:07:57.719266 11820 net.cpp:156] Memory required for data: 534676512
I0403 15:07:57.719282 11820 layer_factory.hpp:77] Creating layer inception_3a/5x5_reduce
I0403 15:07:57.719306 11820 net.cpp:91] Creating Layer inception_3a/5x5_reduce
I0403 15:07:57.719326 11820 net.cpp:425] inception_3a/5x5_reduce <- pool2/3x3_s2_pool2/3x3_s2_0_split_2
I0403 15:07:57.719347 11820 net.cpp:399] inception_3a/5x5_reduce -> inception_3a/5x5_reduce
I0403 15:07:57.720366 11820 net.cpp:141] Setting up inception_3a/5x5_reduce
I0403 15:07:57.720396 11820 net.cpp:148] Top shape: 24 16 28 28 (301056)
I0403 15:07:57.720413 11820 net.cpp:156] Memory required for data: 535880736
I0403 15:07:57.720432 11820 layer_factory.hpp:77] Creating layer inception_3a/relu_5x5_reduce
I0403 15:07:57.720451 11820 net.cpp:91] Creating Layer inception_3a/relu_5x5_reduce
I0403 15:07:57.720468 11820 net.cpp:425] inception_3a/relu_5x5_reduce <- inception_3a/5x5_reduce
I0403 15:07:57.720489 11820 net.cpp:386] inception_3a/relu_5x5_reduce -> inception_3a/5x5_reduce (in-place)
I0403 15:07:57.720803 11820 net.cpp:141] Setting up inception_3a/relu_5x5_reduce
I0403 15:07:57.720830 11820 net.cpp:148] Top shape: 24 16 28 28 (301056)
I0403 15:07:57.720846 11820 net.cpp:156] Memory required for data: 537084960
I0403 15:07:57.720861 11820 layer_factory.hpp:77] Creating layer inception_3a/5x5
I0403 15:07:57.720887 11820 net.cpp:91] Creating Layer inception_3a/5x5
I0403 15:07:57.720907 11820 net.cpp:425] inception_3a/5x5 <- inception_3a/5x5_reduce
I0403 15:07:57.720929 11820 net.cpp:399] inception_3a/5x5 -> inception_3a/5x5
I0403 15:07:57.721997 11820 net.cpp:141] Setting up inception_3a/5x5
I0403 15:07:57.722028 11820 net.cpp:148] Top shape: 24 32 28 28 (602112)
I0403 15:07:57.722046 11820 net.cpp:156] Memory required for data: 539493408
I0403 15:07:57.722065 11820 layer_factory.hpp:77] Creating layer inception_3a/relu_5x5
I0403 15:07:57.722084 11820 net.cpp:91] Creating Layer inception_3a/relu_5x5
I0403 15:07:57.722101 11820 net.cpp:425] inception_3a/relu_5x5 <- inception_3a/5x5
I0403 15:07:57.722120 11820 net.cpp:386] inception_3a/relu_5x5 -> inception_3a/5x5 (in-place)
I0403 15:07:57.722307 11820 net.cpp:141] Setting up inception_3a/relu_5x5
I0403 15:07:57.722334 11820 net.cpp:148] Top shape: 24 32 28 28 (602112)
I0403 15:07:57.722350 11820 net.cpp:156] Memory required for data: 541901856
I0403 15:07:57.722365 11820 layer_factory.hpp:77] Creating layer inception_3a/pool
I0403 15:07:57.722384 11820 net.cpp:91] Creating Layer inception_3a/pool
I0403 15:07:57.722416 11820 net.cpp:425] inception_3a/pool <- pool2/3x3_s2_pool2/3x3_s2_0_split_3
I0403 15:07:57.722440 11820 net.cpp:399] inception_3a/pool -> inception_3a/pool
I0403 15:07:57.722501 11820 net.cpp:141] Setting up inception_3a/pool
I0403 15:07:57.722529 11820 net.cpp:148] Top shape: 24 192 28 28 (3612672)
I0403 15:07:57.722548 11820 net.cpp:156] Memory required for data: 556352544
I0403 15:07:57.722563 11820 layer_factory.hpp:77] Creating layer inception_3a/pool_proj
I0403 15:07:57.722587 11820 net.cpp:91] Creating Layer inception_3a/pool_proj
I0403 15:07:57.722606 11820 net.cpp:425] inception_3a/pool_proj <- inception_3a/pool
I0403 15:07:57.722626 11820 net.cpp:399] inception_3a/pool_proj -> inception_3a/pool_proj
I0403 15:07:57.723649 11820 net.cpp:141] Setting up inception_3a/pool_proj
I0403 15:07:57.723678 11820 net.cpp:148] Top shape: 24 32 28 28 (602112)
I0403 15:07:57.723695 11820 net.cpp:156] Memory required for data: 558760992
I0403 15:07:57.723721 11820 layer_factory.hpp:77] Creating layer inception_3a/relu_pool_proj
I0403 15:07:57.723742 11820 net.cpp:91] Creating Layer inception_3a/relu_pool_proj
I0403 15:07:57.723759 11820 net.cpp:425] inception_3a/relu_pool_proj <- inception_3a/pool_proj
I0403 15:07:57.723780 11820 net.cpp:386] inception_3a/relu_pool_proj -> inception_3a/pool_proj (in-place)
I0403 15:07:57.724066 11820 net.cpp:141] Setting up inception_3a/relu_pool_proj
I0403 15:07:57.724097 11820 net.cpp:148] Top shape: 24 32 28 28 (602112)
I0403 15:07:57.724113 11820 net.cpp:156] Memory required for data: 561169440
I0403 15:07:57.724133 11820 layer_factory.hpp:77] Creating layer inception_3a/output
I0403 15:07:57.724153 11820 net.cpp:91] Creating Layer inception_3a/output
I0403 15:07:57.724172 11820 net.cpp:425] inception_3a/output <- inception_3a/1x1
I0403 15:07:57.724189 11820 net.cpp:425] inception_3a/output <- inception_3a/3x3
I0403 15:07:57.724206 11820 net.cpp:425] inception_3a/output <- inception_3a/5x5
I0403 15:07:57.724222 11820 net.cpp:425] inception_3a/output <- inception_3a/pool_proj
I0403 15:07:57.724239 11820 net.cpp:399] inception_3a/output -> inception_3a/output
I0403 15:07:57.724292 11820 net.cpp:141] Setting up inception_3a/output
I0403 15:07:57.724318 11820 net.cpp:148] Top shape: 24 256 28 28 (4816896)
I0403 15:07:57.724334 11820 net.cpp:156] Memory required for data: 580437024
I0403 15:07:57.724349 11820 layer_factory.hpp:77] Creating layer inception_3a/output_inception_3a/output_0_split
I0403 15:07:57.724369 11820 net.cpp:91] Creating Layer inception_3a/output_inception_3a/output_0_split
I0403 15:07:57.724385 11820 net.cpp:425] inception_3a/output_inception_3a/output_0_split <- inception_3a/output
I0403 15:07:57.724403 11820 net.cpp:399] inception_3a/output_inception_3a/output_0_split -> inception_3a/output_inception_3a/output_0_split_0
I0403 15:07:57.724424 11820 net.cpp:399] inception_3a/output_inception_3a/output_0_split -> inception_3a/output_inception_3a/output_0_split_1
I0403 15:07:57.724452 11820 net.cpp:399] inception_3a/output_inception_3a/output_0_split -> inception_3a/output_inception_3a/output_0_split_2
I0403 15:07:57.724475 11820 net.cpp:399] inception_3a/output_inception_3a/output_0_split -> inception_3a/output_inception_3a/output_0_split_3
I0403 15:07:57.724555 11820 net.cpp:141] Setting up inception_3a/output_inception_3a/output_0_split
I0403 15:07:57.724578 11820 net.cpp:148] Top shape: 24 256 28 28 (4816896)
I0403 15:07:57.724596 11820 net.cpp:148] Top shape: 24 256 28 28 (4816896)
I0403 15:07:57.724612 11820 net.cpp:148] Top shape: 24 256 28 28 (4816896)
I0403 15:07:57.724628 11820 net.cpp:148] Top shape: 24 256 28 28 (4816896)
I0403 15:07:57.724642 11820 net.cpp:156] Memory required for data: 657507360
I0403 15:07:57.724658 11820 layer_factory.hpp:77] Creating layer inception_3b/1x1
I0403 15:07:57.724683 11820 net.cpp:91] Creating Layer inception_3b/1x1
I0403 15:07:57.724701 11820 net.cpp:425] inception_3b/1x1 <- inception_3a/output_inception_3a/output_0_split_0
I0403 15:07:57.724721 11820 net.cpp:399] inception_3b/1x1 -> inception_3b/1x1
I0403 15:07:57.725910 11820 net.cpp:141] Setting up inception_3b/1x1
I0403 15:07:57.725952 11820 net.cpp:148] Top shape: 24 128 28 28 (2408448)
I0403 15:07:57.725970 11820 net.cpp:156] Memory required for data: 667141152
I0403 15:07:57.725991 11820 layer_factory.hpp:77] Creating layer inception_3b/relu_1x1
I0403 15:07:57.726011 11820 net.cpp:91] Creating Layer inception_3b/relu_1x1
I0403 15:07:57.726029 11820 net.cpp:425] inception_3b/relu_1x1 <- inception_3b/1x1
I0403 15:07:57.726047 11820 net.cpp:386] inception_3b/relu_1x1 -> inception_3b/1x1 (in-place)
I0403 15:07:57.726236 11820 net.cpp:141] Setting up inception_3b/relu_1x1
I0403 15:07:57.726265 11820 net.cpp:148] Top shape: 24 128 28 28 (2408448)
I0403 15:07:57.726281 11820 net.cpp:156] Memory required for data: 676774944
I0403 15:07:57.726297 11820 layer_factory.hpp:77] Creating layer inception_3b/3x3_reduce
I0403 15:07:57.726321 11820 net.cpp:91] Creating Layer inception_3b/3x3_reduce
I0403 15:07:57.726341 11820 net.cpp:425] inception_3b/3x3_reduce <- inception_3a/output_inception_3a/output_0_split_1
I0403 15:07:57.726361 11820 net.cpp:399] inception_3b/3x3_reduce -> inception_3b/3x3_reduce
I0403 15:07:57.727555 11820 net.cpp:141] Setting up inception_3b/3x3_reduce
I0403 15:07:57.727583 11820 net.cpp:148] Top shape: 24 128 28 28 (2408448)
I0403 15:07:57.727601 11820 net.cpp:156] Memory required for data: 686408736
I0403 15:07:57.727619 11820 layer_factory.hpp:77] Creating layer inception_3b/relu_3x3_reduce
I0403 15:07:57.727641 11820 net.cpp:91] Creating Layer inception_3b/relu_3x3_reduce
I0403 15:07:57.727659 11820 net.cpp:425] inception_3b/relu_3x3_reduce <- inception_3b/3x3_reduce
I0403 15:07:57.727679 11820 net.cpp:386] inception_3b/relu_3x3_reduce -> inception_3b/3x3_reduce (in-place)
I0403 15:07:57.727859 11820 net.cpp:141] Setting up inception_3b/relu_3x3_reduce
I0403 15:07:57.727890 11820 net.cpp:148] Top shape: 24 128 28 28 (2408448)
I0403 15:07:57.727907 11820 net.cpp:156] Memory required for data: 696042528
I0403 15:07:57.727922 11820 layer_factory.hpp:77] Creating layer inception_3b/3x3
I0403 15:07:57.727948 11820 net.cpp:91] Creating Layer inception_3b/3x3
I0403 15:07:57.727967 11820 net.cpp:425] inception_3b/3x3 <- inception_3b/3x3_reduce
I0403 15:07:57.727990 11820 net.cpp:399] inception_3b/3x3 -> inception_3b/3x3
I0403 15:07:57.731940 11820 net.cpp:141] Setting up inception_3b/3x3
I0403 15:07:57.731976 11820 net.cpp:148] Top shape: 24 192 28 28 (3612672)
I0403 15:07:57.731994 11820 net.cpp:156] Memory required for data: 710493216
I0403 15:07:57.732013 11820 layer_factory.hpp:77] Creating layer inception_3b/relu_3x3
I0403 15:07:57.732033 11820 net.cpp:91] Creating Layer inception_3b/relu_3x3
I0403 15:07:57.732051 11820 net.cpp:425] inception_3b/relu_3x3 <- inception_3b/3x3
I0403 15:07:57.732070 11820 net.cpp:386] inception_3b/relu_3x3 -> inception_3b/3x3 (in-place)
I0403 15:07:57.732369 11820 net.cpp:141] Setting up inception_3b/relu_3x3
I0403 15:07:57.732409 11820 net.cpp:148] Top shape: 24 192 28 28 (3612672)
I0403 15:07:57.732427 11820 net.cpp:156] Memory required for data: 724943904
I0403 15:07:57.732444 11820 layer_factory.hpp:77] Creating layer inception_3b/5x5_reduce
I0403 15:07:57.732466 11820 net.cpp:91] Creating Layer inception_3b/5x5_reduce
I0403 15:07:57.732486 11820 net.cpp:425] inception_3b/5x5_reduce <- inception_3a/output_inception_3a/output_0_split_2
I0403 15:07:57.732506 11820 net.cpp:399] inception_3b/5x5_reduce -> inception_3b/5x5_reduce
I0403 15:07:57.733549 11820 net.cpp:141] Setting up inception_3b/5x5_reduce
I0403 15:07:57.733582 11820 net.cpp:148] Top shape: 24 32 28 28 (602112)
I0403 15:07:57.733600 11820 net.cpp:156] Memory required for data: 727352352
I0403 15:07:57.733619 11820 layer_factory.hpp:77] Creating layer inception_3b/relu_5x5_reduce
I0403 15:07:57.733639 11820 net.cpp:91] Creating Layer inception_3b/relu_5x5_reduce
I0403 15:07:57.733656 11820 net.cpp:425] inception_3b/relu_5x5_reduce <- inception_3b/5x5_reduce
I0403 15:07:57.733675 11820 net.cpp:386] inception_3b/relu_5x5_reduce -> inception_3b/5x5_reduce (in-place)
I0403 15:07:57.733882 11820 net.cpp:141] Setting up inception_3b/relu_5x5_reduce
I0403 15:07:57.733909 11820 net.cpp:148] Top shape: 24 32 28 28 (602112)
I0403 15:07:57.733924 11820 net.cpp:156] Memory required for data: 729760800
I0403 15:07:57.733940 11820 layer_factory.hpp:77] Creating layer inception_3b/5x5
I0403 15:07:57.733964 11820 net.cpp:91] Creating Layer inception_3b/5x5
I0403 15:07:57.733981 11820 net.cpp:425] inception_3b/5x5 <- inception_3b/5x5_reduce
I0403 15:07:57.734004 11820 net.cpp:399] inception_3b/5x5 -> inception_3b/5x5
I0403 15:07:57.736076 11820 net.cpp:141] Setting up inception_3b/5x5
I0403 15:07:57.736107 11820 net.cpp:148] Top shape: 24 96 28 28 (1806336)
I0403 15:07:57.736127 11820 net.cpp:156] Memory required for data: 736986144
I0403 15:07:57.736150 11820 layer_factory.hpp:77] Creating layer inception_3b/relu_5x5
I0403 15:07:57.736174 11820 net.cpp:91] Creating Layer inception_3b/relu_5x5
I0403 15:07:57.736192 11820 net.cpp:425] inception_3b/relu_5x5 <- inception_3b/5x5
I0403 15:07:57.736212 11820 net.cpp:386] inception_3b/relu_5x5 -> inception_3b/5x5 (in-place)
I0403 15:07:57.736415 11820 net.cpp:141] Setting up inception_3b/relu_5x5
I0403 15:07:57.736443 11820 net.cpp:148] Top shape: 24 96 28 28 (1806336)
I0403 15:07:57.736459 11820 net.cpp:156] Memory required for data: 744211488
I0403 15:07:57.736475 11820 layer_factory.hpp:77] Creating layer inception_3b/pool
I0403 15:07:57.736502 11820 net.cpp:91] Creating Layer inception_3b/pool
I0403 15:07:57.736518 11820 net.cpp:425] inception_3b/pool <- inception_3a/output_inception_3a/output_0_split_3
I0403 15:07:57.736538 11820 net.cpp:399] inception_3b/pool -> inception_3b/pool
I0403 15:07:57.736596 11820 net.cpp:141] Setting up inception_3b/pool
I0403 15:07:57.736621 11820 net.cpp:148] Top shape: 24 256 28 28 (4816896)
I0403 15:07:57.736636 11820 net.cpp:156] Memory required for data: 763479072
I0403 15:07:57.736652 11820 layer_factory.hpp:77] Creating layer inception_3b/pool_proj
I0403 15:07:57.736676 11820 net.cpp:91] Creating Layer inception_3b/pool_proj
I0403 15:07:57.736696 11820 net.cpp:425] inception_3b/pool_proj <- inception_3b/pool
I0403 15:07:57.736717 11820 net.cpp:399] inception_3b/pool_proj -> inception_3b/pool_proj
I0403 15:07:57.737896 11820 net.cpp:141] Setting up inception_3b/pool_proj
I0403 15:07:57.737926 11820 net.cpp:148] Top shape: 24 64 28 28 (1204224)
I0403 15:07:57.737941 11820 net.cpp:156] Memory required for data: 768295968
I0403 15:07:57.737959 11820 layer_factory.hpp:77] Creating layer inception_3b/relu_pool_proj
I0403 15:07:57.737980 11820 net.cpp:91] Creating Layer inception_3b/relu_pool_proj
I0403 15:07:57.737998 11820 net.cpp:425] inception_3b/relu_pool_proj <- inception_3b/pool_proj
I0403 15:07:57.738015 11820 net.cpp:386] inception_3b/relu_pool_proj -> inception_3b/pool_proj (in-place)
I0403 15:07:57.739078 11820 net.cpp:141] Setting up inception_3b/relu_pool_proj
I0403 15:07:57.739105 11820 net.cpp:148] Top shape: 24 64 28 28 (1204224)
I0403 15:07:57.739120 11820 net.cpp:156] Memory required for data: 773112864
I0403 15:07:57.739140 11820 layer_factory.hpp:77] Creating layer inception_3b/output
I0403 15:07:57.739158 11820 net.cpp:91] Creating Layer inception_3b/output
I0403 15:07:57.739176 11820 net.cpp:425] inception_3b/output <- inception_3b/1x1
I0403 15:07:57.739192 11820 net.cpp:425] inception_3b/output <- inception_3b/3x3
I0403 15:07:57.739209 11820 net.cpp:425] inception_3b/output <- inception_3b/5x5
I0403 15:07:57.739225 11820 net.cpp:425] inception_3b/output <- inception_3b/pool_proj
I0403 15:07:57.739244 11820 net.cpp:399] inception_3b/output -> inception_3b/output
I0403 15:07:57.739290 11820 net.cpp:141] Setting up inception_3b/output
I0403 15:07:57.739316 11820 net.cpp:148] Top shape: 24 480 28 28 (9031680)
I0403 15:07:57.739332 11820 net.cpp:156] Memory required for data: 809239584
I0403 15:07:57.739347 11820 layer_factory.hpp:77] Creating layer pool3/3x3_s2
I0403 15:07:57.739365 11820 net.cpp:91] Creating Layer pool3/3x3_s2
I0403 15:07:57.739382 11820 net.cpp:425] pool3/3x3_s2 <- inception_3b/output
I0403 15:07:57.739418 11820 net.cpp:399] pool3/3x3_s2 -> pool3/3x3_s2
I0403 15:07:57.739480 11820 net.cpp:141] Setting up pool3/3x3_s2
I0403 15:07:57.739505 11820 net.cpp:148] Top shape: 24 480 14 14 (2257920)
I0403 15:07:57.739519 11820 net.cpp:156] Memory required for data: 818271264
I0403 15:07:57.739534 11820 layer_factory.hpp:77] Creating layer pool3/3x3_s2_pool3/3x3_s2_0_split
I0403 15:07:57.739552 11820 net.cpp:91] Creating Layer pool3/3x3_s2_pool3/3x3_s2_0_split
I0403 15:07:57.739568 11820 net.cpp:425] pool3/3x3_s2_pool3/3x3_s2_0_split <- pool3/3x3_s2
I0403 15:07:57.739588 11820 net.cpp:399] pool3/3x3_s2_pool3/3x3_s2_0_split -> pool3/3x3_s2_pool3/3x3_s2_0_split_0
I0403 15:07:57.739609 11820 net.cpp:399] pool3/3x3_s2_pool3/3x3_s2_0_split -> pool3/3x3_s2_pool3/3x3_s2_0_split_1
I0403 15:07:57.739630 11820 net.cpp:399] pool3/3x3_s2_pool3/3x3_s2_0_split -> pool3/3x3_s2_pool3/3x3_s2_0_split_2
I0403 15:07:57.739651 11820 net.cpp:399] pool3/3x3_s2_pool3/3x3_s2_0_split -> pool3/3x3_s2_pool3/3x3_s2_0_split_3
I0403 15:07:57.739732 11820 net.cpp:141] Setting up pool3/3x3_s2_pool3/3x3_s2_0_split
I0403 15:07:57.739755 11820 net.cpp:148] Top shape: 24 480 14 14 (2257920)
I0403 15:07:57.739773 11820 net.cpp:148] Top shape: 24 480 14 14 (2257920)
I0403 15:07:57.739789 11820 net.cpp:148] Top shape: 24 480 14 14 (2257920)
I0403 15:07:57.739804 11820 net.cpp:148] Top shape: 24 480 14 14 (2257920)
I0403 15:07:57.739819 11820 net.cpp:156] Memory required for data: 854397984
I0403 15:07:57.739835 11820 layer_factory.hpp:77] Creating layer inception_4a/1x1
I0403 15:07:57.739857 11820 net.cpp:91] Creating Layer inception_4a/1x1
I0403 15:07:57.739876 11820 net.cpp:425] inception_4a/1x1 <- pool3/3x3_s2_pool3/3x3_s2_0_split_0
I0403 15:07:57.739897 11820 net.cpp:399] inception_4a/1x1 -> inception_4a/1x1
I0403 15:07:57.741538 11820 net.cpp:141] Setting up inception_4a/1x1
I0403 15:07:57.741567 11820 net.cpp:148] Top shape: 24 192 14 14 (903168)
I0403 15:07:57.741585 11820 net.cpp:156] Memory required for data: 858010656
I0403 15:07:57.741603 11820 layer_factory.hpp:77] Creating layer inception_4a/relu_1x1
I0403 15:07:57.741624 11820 net.cpp:91] Creating Layer inception_4a/relu_1x1
I0403 15:07:57.741643 11820 net.cpp:425] inception_4a/relu_1x1 <- inception_4a/1x1
I0403 15:07:57.741662 11820 net.cpp:386] inception_4a/relu_1x1 -> inception_4a/1x1 (in-place)
I0403 15:07:57.741858 11820 net.cpp:141] Setting up inception_4a/relu_1x1
I0403 15:07:57.741883 11820 net.cpp:148] Top shape: 24 192 14 14 (903168)
I0403 15:07:57.741899 11820 net.cpp:156] Memory required for data: 861623328
I0403 15:07:57.741912 11820 layer_factory.hpp:77] Creating layer inception_4a/3x3_reduce
I0403 15:07:57.741938 11820 net.cpp:91] Creating Layer inception_4a/3x3_reduce
I0403 15:07:57.741957 11820 net.cpp:425] inception_4a/3x3_reduce <- pool3/3x3_s2_pool3/3x3_s2_0_split_1
I0403 15:07:57.741977 11820 net.cpp:399] inception_4a/3x3_reduce -> inception_4a/3x3_reduce
I0403 15:07:57.743331 11820 net.cpp:141] Setting up inception_4a/3x3_reduce
I0403 15:07:57.743362 11820 net.cpp:148] Top shape: 24 96 14 14 (451584)
I0403 15:07:57.743391 11820 net.cpp:156] Memory required for data: 863429664
I0403 15:07:57.743418 11820 layer_factory.hpp:77] Creating layer inception_4a/relu_3x3_reduce
I0403 15:07:57.743439 11820 net.cpp:91] Creating Layer inception_4a/relu_3x3_reduce
I0403 15:07:57.743456 11820 net.cpp:425] inception_4a/relu_3x3_reduce <- inception_4a/3x3_reduce
I0403 15:07:57.743475 11820 net.cpp:386] inception_4a/relu_3x3_reduce -> inception_4a/3x3_reduce (in-place)
I0403 15:07:57.743652 11820 net.cpp:141] Setting up inception_4a/relu_3x3_reduce
I0403 15:07:57.743680 11820 net.cpp:148] Top shape: 24 96 14 14 (451584)
I0403 15:07:57.743695 11820 net.cpp:156] Memory required for data: 865236000
I0403 15:07:57.743710 11820 layer_factory.hpp:77] Creating layer inception_4a/3x3
I0403 15:07:57.743732 11820 net.cpp:91] Creating Layer inception_4a/3x3
I0403 15:07:57.743752 11820 net.cpp:425] inception_4a/3x3 <- inception_4a/3x3_reduce
I0403 15:07:57.743773 11820 net.cpp:399] inception_4a/3x3 -> inception_4a/3x3
I0403 15:07:57.746556 11820 net.cpp:141] Setting up inception_4a/3x3
I0403 15:07:57.746585 11820 net.cpp:148] Top shape: 24 208 14 14 (978432)
I0403 15:07:57.746603 11820 net.cpp:156] Memory required for data: 869149728
I0403 15:07:57.746620 11820 layer_factory.hpp:77] Creating layer inception_4a/relu_3x3
I0403 15:07:57.746641 11820 net.cpp:91] Creating Layer inception_4a/relu_3x3
I0403 15:07:57.746659 11820 net.cpp:425] inception_4a/relu_3x3 <- inception_4a/3x3
I0403 15:07:57.746676 11820 net.cpp:386] inception_4a/relu_3x3 -> inception_4a/3x3 (in-place)
I0403 15:07:57.746958 11820 net.cpp:141] Setting up inception_4a/relu_3x3
I0403 15:07:57.746985 11820 net.cpp:148] Top shape: 24 208 14 14 (978432)
I0403 15:07:57.746999 11820 net.cpp:156] Memory required for data: 873063456
I0403 15:07:57.747014 11820 layer_factory.hpp:77] Creating layer inception_4a/5x5_reduce
I0403 15:07:57.747036 11820 net.cpp:91] Creating Layer inception_4a/5x5_reduce
I0403 15:07:57.747054 11820 net.cpp:425] inception_4a/5x5_reduce <- pool3/3x3_s2_pool3/3x3_s2_0_split_2
I0403 15:07:57.747077 11820 net.cpp:399] inception_4a/5x5_reduce -> inception_4a/5x5_reduce
I0403 15:07:57.748111 11820 net.cpp:141] Setting up inception_4a/5x5_reduce
I0403 15:07:57.748147 11820 net.cpp:148] Top shape: 24 16 14 14 (75264)
I0403 15:07:57.748167 11820 net.cpp:156] Memory required for data: 873364512
I0403 15:07:57.748186 11820 layer_factory.hpp:77] Creating layer inception_4a/relu_5x5_reduce
I0403 15:07:57.748204 11820 net.cpp:91] Creating Layer inception_4a/relu_5x5_reduce
I0403 15:07:57.748221 11820 net.cpp:425] inception_4a/relu_5x5_reduce <- inception_4a/5x5_reduce
I0403 15:07:57.748239 11820 net.cpp:386] inception_4a/relu_5x5_reduce -> inception_4a/5x5_reduce (in-place)
I0403 15:07:57.748422 11820 net.cpp:141] Setting up inception_4a/relu_5x5_reduce
I0403 15:07:57.748450 11820 net.cpp:148] Top shape: 24 16 14 14 (75264)
I0403 15:07:57.748466 11820 net.cpp:156] Memory required for data: 873665568
I0403 15:07:57.748481 11820 layer_factory.hpp:77] Creating layer inception_4a/5x5
I0403 15:07:57.748504 11820 net.cpp:91] Creating Layer inception_4a/5x5
I0403 15:07:57.748522 11820 net.cpp:425] inception_4a/5x5 <- inception_4a/5x5_reduce
I0403 15:07:57.748544 11820 net.cpp:399] inception_4a/5x5 -> inception_4a/5x5
I0403 15:07:57.749689 11820 net.cpp:141] Setting up inception_4a/5x5
I0403 15:07:57.749718 11820 net.cpp:148] Top shape: 24 48 14 14 (225792)
I0403 15:07:57.749734 11820 net.cpp:156] Memory required for data: 874568736
I0403 15:07:57.749752 11820 layer_factory.hpp:77] Creating layer inception_4a/relu_5x5
I0403 15:07:57.749770 11820 net.cpp:91] Creating Layer inception_4a/relu_5x5
I0403 15:07:57.749786 11820 net.cpp:425] inception_4a/relu_5x5 <- inception_4a/5x5
I0403 15:07:57.749806 11820 net.cpp:386] inception_4a/relu_5x5 -> inception_4a/5x5 (in-place)
I0403 15:07:57.749987 11820 net.cpp:141] Setting up inception_4a/relu_5x5
I0403 15:07:57.750013 11820 net.cpp:148] Top shape: 24 48 14 14 (225792)
I0403 15:07:57.750027 11820 net.cpp:156] Memory required for data: 875471904
I0403 15:07:57.750043 11820 layer_factory.hpp:77] Creating layer inception_4a/pool
I0403 15:07:57.750064 11820 net.cpp:91] Creating Layer inception_4a/pool
I0403 15:07:57.750082 11820 net.cpp:425] inception_4a/pool <- pool3/3x3_s2_pool3/3x3_s2_0_split_3
I0403 15:07:57.750099 11820 net.cpp:399] inception_4a/pool -> inception_4a/pool
I0403 15:07:57.750166 11820 net.cpp:141] Setting up inception_4a/pool
I0403 15:07:57.750191 11820 net.cpp:148] Top shape: 24 480 14 14 (2257920)
I0403 15:07:57.750206 11820 net.cpp:156] Memory required for data: 884503584
I0403 15:07:57.750221 11820 layer_factory.hpp:77] Creating layer inception_4a/pool_proj
I0403 15:07:57.750244 11820 net.cpp:91] Creating Layer inception_4a/pool_proj
I0403 15:07:57.750262 11820 net.cpp:425] inception_4a/pool_proj <- inception_4a/pool
I0403 15:07:57.750283 11820 net.cpp:399] inception_4a/pool_proj -> inception_4a/pool_proj
I0403 15:07:57.751494 11820 net.cpp:141] Setting up inception_4a/pool_proj
I0403 15:07:57.751525 11820 net.cpp:148] Top shape: 24 64 14 14 (301056)
I0403 15:07:57.751560 11820 net.cpp:156] Memory required for data: 885707808
I0403 15:07:57.751582 11820 layer_factory.hpp:77] Creating layer inception_4a/relu_pool_proj
I0403 15:07:57.751601 11820 net.cpp:91] Creating Layer inception_4a/relu_pool_proj
I0403 15:07:57.751618 11820 net.cpp:425] inception_4a/relu_pool_proj <- inception_4a/pool_proj
I0403 15:07:57.751652 11820 net.cpp:386] inception_4a/relu_pool_proj -> inception_4a/pool_proj (in-place)
I0403 15:07:57.751946 11820 net.cpp:141] Setting up inception_4a/relu_pool_proj
I0403 15:07:57.751974 11820 net.cpp:148] Top shape: 24 64 14 14 (301056)
I0403 15:07:57.751991 11820 net.cpp:156] Memory required for data: 886912032
I0403 15:07:57.752005 11820 layer_factory.hpp:77] Creating layer inception_4a/output
I0403 15:07:57.752023 11820 net.cpp:91] Creating Layer inception_4a/output
I0403 15:07:57.752039 11820 net.cpp:425] inception_4a/output <- inception_4a/1x1
I0403 15:07:57.752056 11820 net.cpp:425] inception_4a/output <- inception_4a/3x3
I0403 15:07:57.752074 11820 net.cpp:425] inception_4a/output <- inception_4a/5x5
I0403 15:07:57.752089 11820 net.cpp:425] inception_4a/output <- inception_4a/pool_proj
I0403 15:07:57.752109 11820 net.cpp:399] inception_4a/output -> inception_4a/output
I0403 15:07:57.752184 11820 net.cpp:141] Setting up inception_4a/output
I0403 15:07:57.752213 11820 net.cpp:148] Top shape: 24 512 14 14 (2408448)
I0403 15:07:57.752228 11820 net.cpp:156] Memory required for data: 896545824
I0403 15:07:57.752244 11820 layer_factory.hpp:77] Creating layer inception_4a/output_inception_4a/output_0_split
I0403 15:07:57.752262 11820 net.cpp:91] Creating Layer inception_4a/output_inception_4a/output_0_split
I0403 15:07:57.752277 11820 net.cpp:425] inception_4a/output_inception_4a/output_0_split <- inception_4a/output
I0403 15:07:57.752296 11820 net.cpp:399] inception_4a/output_inception_4a/output_0_split -> inception_4a/output_inception_4a/output_0_split_0
I0403 15:07:57.752321 11820 net.cpp:399] inception_4a/output_inception_4a/output_0_split -> inception_4a/output_inception_4a/output_0_split_1
I0403 15:07:57.752342 11820 net.cpp:399] inception_4a/output_inception_4a/output_0_split -> inception_4a/output_inception_4a/output_0_split_2
I0403 15:07:57.752365 11820 net.cpp:399] inception_4a/output_inception_4a/output_0_split -> inception_4a/output_inception_4a/output_0_split_3
I0403 15:07:57.752388 11820 net.cpp:399] inception_4a/output_inception_4a/output_0_split -> inception_4a/output_inception_4a/output_0_split_4
I0403 15:07:57.752496 11820 net.cpp:141] Setting up inception_4a/output_inception_4a/output_0_split
I0403 15:07:57.752522 11820 net.cpp:148] Top shape: 24 512 14 14 (2408448)
I0403 15:07:57.752540 11820 net.cpp:148] Top shape: 24 512 14 14 (2408448)
I0403 15:07:57.752557 11820 net.cpp:148] Top shape: 24 512 14 14 (2408448)
I0403 15:07:57.752573 11820 net.cpp:148] Top shape: 24 512 14 14 (2408448)
I0403 15:07:57.752588 11820 net.cpp:148] Top shape: 24 512 14 14 (2408448)
I0403 15:07:57.752602 11820 net.cpp:156] Memory required for data: 944714784
I0403 15:07:57.752619 11820 layer_factory.hpp:77] Creating layer loss1/ave_pool
I0403 15:07:57.752635 11820 net.cpp:91] Creating Layer loss1/ave_pool
I0403 15:07:57.752652 11820 net.cpp:425] loss1/ave_pool <- inception_4a/output_inception_4a/output_0_split_0
I0403 15:07:57.752671 11820 net.cpp:399] loss1/ave_pool -> loss1/ave_pool
I0403 15:07:57.752888 11820 net.cpp:141] Setting up loss1/ave_pool
I0403 15:07:57.752917 11820 net.cpp:148] Top shape: 24 512 4 4 (196608)
I0403 15:07:57.752933 11820 net.cpp:156] Memory required for data: 945501216
I0403 15:07:57.752948 11820 layer_factory.hpp:77] Creating layer loss1/conv
I0403 15:07:57.752970 11820 net.cpp:91] Creating Layer loss1/conv
I0403 15:07:57.752990 11820 net.cpp:425] loss1/conv <- loss1/ave_pool
I0403 15:07:57.753011 11820 net.cpp:399] loss1/conv -> loss1/conv
I0403 15:07:57.754500 11820 net.cpp:141] Setting up loss1/conv
I0403 15:07:57.754530 11820 net.cpp:148] Top shape: 24 128 4 4 (49152)
I0403 15:07:57.754564 11820 net.cpp:156] Memory required for data: 945697824
I0403 15:07:57.754585 11820 layer_factory.hpp:77] Creating layer loss1/relu_conv
I0403 15:07:57.754607 11820 net.cpp:91] Creating Layer loss1/relu_conv
I0403 15:07:57.754624 11820 net.cpp:425] loss1/relu_conv <- loss1/conv
I0403 15:07:57.754643 11820 net.cpp:386] loss1/relu_conv -> loss1/conv (in-place)
I0403 15:07:57.754936 11820 net.cpp:141] Setting up loss1/relu_conv
I0403 15:07:57.754966 11820 net.cpp:148] Top shape: 24 128 4 4 (49152)
I0403 15:07:57.754984 11820 net.cpp:156] Memory required for data: 945894432
I0403 15:07:57.754999 11820 layer_factory.hpp:77] Creating layer loss1/fc
I0403 15:07:57.755024 11820 net.cpp:91] Creating Layer loss1/fc
I0403 15:07:57.755044 11820 net.cpp:425] loss1/fc <- loss1/conv
I0403 15:07:57.755066 11820 net.cpp:399] loss1/fc -> loss1/fc
I0403 15:07:57.773824 11820 net.cpp:141] Setting up loss1/fc
I0403 15:07:57.773861 11820 net.cpp:148] Top shape: 24 1024 (24576)
I0403 15:07:57.773877 11820 net.cpp:156] Memory required for data: 945992736
I0403 15:07:57.773896 11820 layer_factory.hpp:77] Creating layer loss1/relu_fc
I0403 15:07:57.773916 11820 net.cpp:91] Creating Layer loss1/relu_fc
I0403 15:07:57.773934 11820 net.cpp:425] loss1/relu_fc <- loss1/fc
I0403 15:07:57.773952 11820 net.cpp:386] loss1/relu_fc -> loss1/fc (in-place)
I0403 15:07:57.774160 11820 net.cpp:141] Setting up loss1/relu_fc
I0403 15:07:57.774186 11820 net.cpp:148] Top shape: 24 1024 (24576)
I0403 15:07:57.774202 11820 net.cpp:156] Memory required for data: 946091040
I0403 15:07:57.774217 11820 layer_factory.hpp:77] Creating layer loss1/drop_fc
I0403 15:07:57.774245 11820 net.cpp:91] Creating Layer loss1/drop_fc
I0403 15:07:57.774263 11820 net.cpp:425] loss1/drop_fc <- loss1/fc
I0403 15:07:57.774281 11820 net.cpp:386] loss1/drop_fc -> loss1/fc (in-place)
I0403 15:07:57.774333 11820 net.cpp:141] Setting up loss1/drop_fc
I0403 15:07:57.774360 11820 net.cpp:148] Top shape: 24 1024 (24576)
I0403 15:07:57.774377 11820 net.cpp:156] Memory required for data: 946189344
I0403 15:07:57.774394 11820 layer_factory.hpp:77] Creating layer loss1/classifier_plantvillage
I0403 15:07:57.774412 11820 net.cpp:91] Creating Layer loss1/classifier_plantvillage
I0403 15:07:57.774428 11820 net.cpp:425] loss1/classifier_plantvillage <- loss1/fc
I0403 15:07:57.774451 11820 net.cpp:399] loss1/classifier_plantvillage -> loss1/classifier_plantvillage
I0403 15:07:57.775408 11820 net.cpp:141] Setting up loss1/classifier_plantvillage
I0403 15:07:57.775435 11820 net.cpp:148] Top shape: 24 38 (912)
I0403 15:07:57.775451 11820 net.cpp:156] Memory required for data: 946192992
I0403 15:07:57.775468 11820 layer_factory.hpp:77] Creating layer loss1/classifier_plantvillage_loss1/classifier_plantvillage_0_split
I0403 15:07:57.775488 11820 net.cpp:91] Creating Layer loss1/classifier_plantvillage_loss1/classifier_plantvillage_0_split
I0403 15:07:57.775506 11820 net.cpp:425] loss1/classifier_plantvillage_loss1/classifier_plantvillage_0_split <- loss1/classifier_plantvillage
I0403 15:07:57.775524 11820 net.cpp:399] loss1/classifier_plantvillage_loss1/classifier_plantvillage_0_split -> loss1/classifier_plantvillage_loss1/classifier_plantvillage_0_split_0
I0403 15:07:57.775544 11820 net.cpp:399] loss1/classifier_plantvillage_loss1/classifier_plantvillage_0_split -> loss1/classifier_plantvillage_loss1/classifier_plantvillage_0_split_1
I0403 15:07:57.775564 11820 net.cpp:399] loss1/classifier_plantvillage_loss1/classifier_plantvillage_0_split -> loss1/classifier_plantvillage_loss1/classifier_plantvillage_0_split_2
I0403 15:07:57.775631 11820 net.cpp:141] Setting up loss1/classifier_plantvillage_loss1/classifier_plantvillage_0_split
I0403 15:07:57.775655 11820 net.cpp:148] Top shape: 24 38 (912)
I0403 15:07:57.775671 11820 net.cpp:148] Top shape: 24 38 (912)
I0403 15:07:57.775686 11820 net.cpp:148] Top shape: 24 38 (912)
I0403 15:07:57.775701 11820 net.cpp:156] Memory required for data: 946203936
I0403 15:07:57.775714 11820 layer_factory.hpp:77] Creating layer inception_4b/1x1
I0403 15:07:57.775734 11820 net.cpp:91] Creating Layer inception_4b/1x1
I0403 15:07:57.775768 11820 net.cpp:425] inception_4b/1x1 <- inception_4a/output_inception_4a/output_0_split_1
I0403 15:07:57.775792 11820 net.cpp:399] inception_4b/1x1 -> inception_4b/1x1
I0403 15:07:57.777482 11820 net.cpp:141] Setting up inception_4b/1x1
I0403 15:07:57.777519 11820 net.cpp:148] Top shape: 24 160 14 14 (752640)
I0403 15:07:57.777544 11820 net.cpp:156] Memory required for data: 949214496
I0403 15:07:57.777565 11820 layer_factory.hpp:77] Creating layer inception_4b/relu_1x1
I0403 15:07:57.777585 11820 net.cpp:91] Creating Layer inception_4b/relu_1x1
I0403 15:07:57.777601 11820 net.cpp:425] inception_4b/relu_1x1 <- inception_4b/1x1
I0403 15:07:57.777619 11820 net.cpp:386] inception_4b/relu_1x1 -> inception_4b/1x1 (in-place)
I0403 15:07:57.777832 11820 net.cpp:141] Setting up inception_4b/relu_1x1
I0403 15:07:57.777863 11820 net.cpp:148] Top shape: 24 160 14 14 (752640)
I0403 15:07:57.777879 11820 net.cpp:156] Memory required for data: 952225056
I0403 15:07:57.777895 11820 layer_factory.hpp:77] Creating layer inception_4b/3x3_reduce
I0403 15:07:57.777920 11820 net.cpp:91] Creating Layer inception_4b/3x3_reduce
I0403 15:07:57.777941 11820 net.cpp:425] inception_4b/3x3_reduce <- inception_4a/output_inception_4a/output_0_split_2
I0403 15:07:57.777971 11820 net.cpp:399] inception_4b/3x3_reduce -> inception_4b/3x3_reduce
I0403 15:07:57.779521 11820 net.cpp:141] Setting up inception_4b/3x3_reduce
I0403 15:07:57.779570 11820 net.cpp:148] Top shape: 24 112 14 14 (526848)
I0403 15:07:57.779592 11820 net.cpp:156] Memory required for data: 954332448
I0403 15:07:57.779613 11820 layer_factory.hpp:77] Creating layer inception_4b/relu_3x3_reduce
I0403 15:07:57.779633 11820 net.cpp:91] Creating Layer inception_4b/relu_3x3_reduce
I0403 15:07:57.779649 11820 net.cpp:425] inception_4b/relu_3x3_reduce <- inception_4b/3x3_reduce
I0403 15:07:57.779670 11820 net.cpp:386] inception_4b/relu_3x3_reduce -> inception_4b/3x3_reduce (in-place)
I0403 15:07:57.779975 11820 net.cpp:141] Setting up inception_4b/relu_3x3_reduce
I0403 15:07:57.780006 11820 net.cpp:148] Top shape: 24 112 14 14 (526848)
I0403 15:07:57.780022 11820 net.cpp:156] Memory required for data: 956439840
I0403 15:07:57.780038 11820 layer_factory.hpp:77] Creating layer inception_4b/3x3
I0403 15:07:57.780062 11820 net.cpp:91] Creating Layer inception_4b/3x3
I0403 15:07:57.780081 11820 net.cpp:425] inception_4b/3x3 <- inception_4b/3x3_reduce
I0403 15:07:57.780104 11820 net.cpp:399] inception_4b/3x3 -> inception_4b/3x3
I0403 15:07:57.783161 11820 net.cpp:141] Setting up inception_4b/3x3
I0403 15:07:57.783191 11820 net.cpp:148] Top shape: 24 224 14 14 (1053696)
I0403 15:07:57.783207 11820 net.cpp:156] Memory required for data: 960654624
I0403 15:07:57.783226 11820 layer_factory.hpp:77] Creating layer inception_4b/relu_3x3
I0403 15:07:57.783246 11820 net.cpp:91] Creating Layer inception_4b/relu_3x3
I0403 15:07:57.783264 11820 net.cpp:425] inception_4b/relu_3x3 <- inception_4b/3x3
I0403 15:07:57.783282 11820 net.cpp:386] inception_4b/relu_3x3 -> inception_4b/3x3 (in-place)
I0403 15:07:57.783478 11820 net.cpp:141] Setting up inception_4b/relu_3x3
I0403 15:07:57.783502 11820 net.cpp:148] Top shape: 24 224 14 14 (1053696)
I0403 15:07:57.783517 11820 net.cpp:156] Memory required for data: 964869408
I0403 15:07:57.783532 11820 layer_factory.hpp:77] Creating layer inception_4b/5x5_reduce
I0403 15:07:57.783557 11820 net.cpp:91] Creating Layer inception_4b/5x5_reduce
I0403 15:07:57.783576 11820 net.cpp:425] inception_4b/5x5_reduce <- inception_4a/output_inception_4a/output_0_split_3
I0403 15:07:57.783594 11820 net.cpp:399] inception_4b/5x5_reduce -> inception_4b/5x5_reduce
I0403 15:07:57.784682 11820 net.cpp:141] Setting up inception_4b/5x5_reduce
I0403 15:07:57.784711 11820 net.cpp:148] Top shape: 24 24 14 14 (112896)
I0403 15:07:57.784729 11820 net.cpp:156] Memory required for data: 965320992
I0403 15:07:57.784746 11820 layer_factory.hpp:77] Creating layer inception_4b/relu_5x5_reduce
I0403 15:07:57.784765 11820 net.cpp:91] Creating Layer inception_4b/relu_5x5_reduce
I0403 15:07:57.784796 11820 net.cpp:425] inception_4b/relu_5x5_reduce <- inception_4b/5x5_reduce
I0403 15:07:57.784817 11820 net.cpp:386] inception_4b/relu_5x5_reduce -> inception_4b/5x5_reduce (in-place)
I0403 15:07:57.784998 11820 net.cpp:141] Setting up inception_4b/relu_5x5_reduce
I0403 15:07:57.785024 11820 net.cpp:148] Top shape: 24 24 14 14 (112896)
I0403 15:07:57.785039 11820 net.cpp:156] Memory required for data: 965772576
I0403 15:07:57.785054 11820 layer_factory.hpp:77] Creating layer inception_4b/5x5
I0403 15:07:57.785078 11820 net.cpp:91] Creating Layer inception_4b/5x5
I0403 15:07:57.785094 11820 net.cpp:425] inception_4b/5x5 <- inception_4b/5x5_reduce
I0403 15:07:57.785116 11820 net.cpp:399] inception_4b/5x5 -> inception_4b/5x5
I0403 15:07:57.786377 11820 net.cpp:141] Setting up inception_4b/5x5
I0403 15:07:57.786409 11820 net.cpp:148] Top shape: 24 64 14 14 (301056)
I0403 15:07:57.786427 11820 net.cpp:156] Memory required for data: 966976800
I0403 15:07:57.786445 11820 layer_factory.hpp:77] Creating layer inception_4b/relu_5x5
I0403 15:07:57.786464 11820 net.cpp:91] Creating Layer inception_4b/relu_5x5
I0403 15:07:57.786481 11820 net.cpp:425] inception_4b/relu_5x5 <- inception_4b/5x5
I0403 15:07:57.786499 11820 net.cpp:386] inception_4b/relu_5x5 -> inception_4b/5x5 (in-place)
I0403 15:07:57.786793 11820 net.cpp:141] Setting up inception_4b/relu_5x5
I0403 15:07:57.786823 11820 net.cpp:148] Top shape: 24 64 14 14 (301056)
I0403 15:07:57.786839 11820 net.cpp:156] Memory required for data: 968181024
I0403 15:07:57.786854 11820 layer_factory.hpp:77] Creating layer inception_4b/pool
I0403 15:07:57.786871 11820 net.cpp:91] Creating Layer inception_4b/pool
I0403 15:07:57.786887 11820 net.cpp:425] inception_4b/pool <- inception_4a/output_inception_4a/output_0_split_4
I0403 15:07:57.786906 11820 net.cpp:399] inception_4b/pool -> inception_4b/pool
I0403 15:07:57.786973 11820 net.cpp:141] Setting up inception_4b/pool
I0403 15:07:57.786998 11820 net.cpp:148] Top shape: 24 512 14 14 (2408448)
I0403 15:07:57.787011 11820 net.cpp:156] Memory required for data: 977814816
I0403 15:07:57.787025 11820 layer_factory.hpp:77] Creating layer inception_4b/pool_proj
I0403 15:07:57.787048 11820 net.cpp:91] Creating Layer inception_4b/pool_proj
I0403 15:07:57.787065 11820 net.cpp:425] inception_4b/pool_proj <- inception_4b/pool
I0403 15:07:57.787087 11820 net.cpp:399] inception_4b/pool_proj -> inception_4b/pool_proj
I0403 15:07:57.788280 11820 net.cpp:141] Setting up inception_4b/pool_proj
I0403 15:07:57.788312 11820 net.cpp:148] Top shape: 24 64 14 14 (301056)
I0403 15:07:57.788329 11820 net.cpp:156] Memory required for data: 979019040
I0403 15:07:57.788347 11820 layer_factory.hpp:77] Creating layer inception_4b/relu_pool_proj
I0403 15:07:57.788364 11820 net.cpp:91] Creating Layer inception_4b/relu_pool_proj
I0403 15:07:57.788383 11820 net.cpp:425] inception_4b/relu_pool_proj <- inception_4b/pool_proj
I0403 15:07:57.788399 11820 net.cpp:386] inception_4b/relu_pool_proj -> inception_4b/pool_proj (in-place)
I0403 15:07:57.788580 11820 net.cpp:141] Setting up inception_4b/relu_pool_proj
I0403 15:07:57.788606 11820 net.cpp:148] Top shape: 24 64 14 14 (301056)
I0403 15:07:57.788621 11820 net.cpp:156] Memory required for data: 980223264
I0403 15:07:57.788635 11820 layer_factory.hpp:77] Creating layer inception_4b/output
I0403 15:07:57.788653 11820 net.cpp:91] Creating Layer inception_4b/output
I0403 15:07:57.788668 11820 net.cpp:425] inception_4b/output <- inception_4b/1x1
I0403 15:07:57.788684 11820 net.cpp:425] inception_4b/output <- inception_4b/3x3
I0403 15:07:57.788700 11820 net.cpp:425] inception_4b/output <- inception_4b/5x5
I0403 15:07:57.788715 11820 net.cpp:425] inception_4b/output <- inception_4b/pool_proj
I0403 15:07:57.788733 11820 net.cpp:399] inception_4b/output -> inception_4b/output
I0403 15:07:57.788779 11820 net.cpp:141] Setting up inception_4b/output
I0403 15:07:57.788805 11820 net.cpp:148] Top shape: 24 512 14 14 (2408448)
I0403 15:07:57.788821 11820 net.cpp:156] Memory required for data: 989857056
I0403 15:07:57.788851 11820 layer_factory.hpp:77] Creating layer inception_4b/output_inception_4b/output_0_split
I0403 15:07:57.788869 11820 net.cpp:91] Creating Layer inception_4b/output_inception_4b/output_0_split
I0403 15:07:57.788884 11820 net.cpp:425] inception_4b/output_inception_4b/output_0_split <- inception_4b/output
I0403 15:07:57.788902 11820 net.cpp:399] inception_4b/output_inception_4b/output_0_split -> inception_4b/output_inception_4b/output_0_split_0
I0403 15:07:57.788928 11820 net.cpp:399] inception_4b/output_inception_4b/output_0_split -> inception_4b/output_inception_4b/output_0_split_1
I0403 15:07:57.788949 11820 net.cpp:399] inception_4b/output_inception_4b/output_0_split -> inception_4b/output_inception_4b/output_0_split_2
I0403 15:07:57.788971 11820 net.cpp:399] inception_4b/output_inception_4b/output_0_split -> inception_4b/output_inception_4b/output_0_split_3
I0403 15:07:57.789053 11820 net.cpp:141] Setting up inception_4b/output_inception_4b/output_0_split
I0403 15:07:57.789077 11820 net.cpp:148] Top shape: 24 512 14 14 (2408448)
I0403 15:07:57.789093 11820 net.cpp:148] Top shape: 24 512 14 14 (2408448)
I0403 15:07:57.789108 11820 net.cpp:148] Top shape: 24 512 14 14 (2408448)
I0403 15:07:57.789124 11820 net.cpp:148] Top shape: 24 512 14 14 (2408448)
I0403 15:07:57.789141 11820 net.cpp:156] Memory required for data: 1028392224
I0403 15:07:57.789156 11820 layer_factory.hpp:77] Creating layer inception_4c/1x1
I0403 15:07:57.789180 11820 net.cpp:91] Creating Layer inception_4c/1x1
I0403 15:07:57.789197 11820 net.cpp:425] inception_4c/1x1 <- inception_4b/output_inception_4b/output_0_split_0
I0403 15:07:57.789218 11820 net.cpp:399] inception_4c/1x1 -> inception_4c/1x1
I0403 15:07:57.790676 11820 net.cpp:141] Setting up inception_4c/1x1
I0403 15:07:57.790704 11820 net.cpp:148] Top shape: 24 128 14 14 (602112)
I0403 15:07:57.790720 11820 net.cpp:156] Memory required for data: 1030800672
I0403 15:07:57.790737 11820 layer_factory.hpp:77] Creating layer inception_4c/relu_1x1
I0403 15:07:57.790758 11820 net.cpp:91] Creating Layer inception_4c/relu_1x1
I0403 15:07:57.790776 11820 net.cpp:425] inception_4c/relu_1x1 <- inception_4c/1x1
I0403 15:07:57.790792 11820 net.cpp:386] inception_4c/relu_1x1 -> inception_4c/1x1 (in-place)
I0403 15:07:57.790971 11820 net.cpp:141] Setting up inception_4c/relu_1x1
I0403 15:07:57.790997 11820 net.cpp:148] Top shape: 24 128 14 14 (602112)
I0403 15:07:57.791012 11820 net.cpp:156] Memory required for data: 1033209120
I0403 15:07:57.791025 11820 layer_factory.hpp:77] Creating layer inception_4c/3x3_reduce
I0403 15:07:57.791048 11820 net.cpp:91] Creating Layer inception_4c/3x3_reduce
I0403 15:07:57.791067 11820 net.cpp:425] inception_4c/3x3_reduce <- inception_4b/output_inception_4b/output_0_split_1
I0403 15:07:57.791086 11820 net.cpp:399] inception_4c/3x3_reduce -> inception_4c/3x3_reduce
I0403 15:07:57.793015 11820 net.cpp:141] Setting up inception_4c/3x3_reduce
I0403 15:07:57.793045 11820 net.cpp:148] Top shape: 24 128 14 14 (602112)
I0403 15:07:57.793061 11820 net.cpp:156] Memory required for data: 1035617568
I0403 15:07:57.793078 11820 layer_factory.hpp:77] Creating layer inception_4c/relu_3x3_reduce
I0403 15:07:57.793098 11820 net.cpp:91] Creating Layer inception_4c/relu_3x3_reduce
I0403 15:07:57.793117 11820 net.cpp:425] inception_4c/relu_3x3_reduce <- inception_4c/3x3_reduce
I0403 15:07:57.793148 11820 net.cpp:386] inception_4c/relu_3x3_reduce -> inception_4c/3x3_reduce (in-place)
I0403 15:07:57.793449 11820 net.cpp:141] Setting up inception_4c/relu_3x3_reduce
I0403 15:07:57.793476 11820 net.cpp:148] Top shape: 24 128 14 14 (602112)
I0403 15:07:57.793491 11820 net.cpp:156] Memory required for data: 1038026016
I0403 15:07:57.793506 11820 layer_factory.hpp:77] Creating layer inception_4c/3x3
I0403 15:07:57.793531 11820 net.cpp:91] Creating Layer inception_4c/3x3
I0403 15:07:57.793550 11820 net.cpp:425] inception_4c/3x3 <- inception_4c/3x3_reduce
I0403 15:07:57.793568 11820 net.cpp:399] inception_4c/3x3 -> inception_4c/3x3
I0403 15:07:57.797186 11820 net.cpp:141] Setting up inception_4c/3x3
I0403 15:07:57.797230 11820 net.cpp:148] Top shape: 24 256 14 14 (1204224)
I0403 15:07:57.797248 11820 net.cpp:156] Memory required for data: 1042842912
I0403 15:07:57.797282 11820 layer_factory.hpp:77] Creating layer inception_4c/relu_3x3
I0403 15:07:57.797304 11820 net.cpp:91] Creating Layer inception_4c/relu_3x3
I0403 15:07:57.797320 11820 net.cpp:425] inception_4c/relu_3x3 <- inception_4c/3x3
I0403 15:07:57.797338 11820 net.cpp:386] inception_4c/relu_3x3 -> inception_4c/3x3 (in-place)
I0403 15:07:57.797535 11820 net.cpp:141] Setting up inception_4c/relu_3x3
I0403 15:07:57.797564 11820 net.cpp:148] Top shape: 24 256 14 14 (1204224)
I0403 15:07:57.797581 11820 net.cpp:156] Memory required for data: 1047659808
I0403 15:07:57.797596 11820 layer_factory.hpp:77] Creating layer inception_4c/5x5_reduce
I0403 15:07:57.797621 11820 net.cpp:91] Creating Layer inception_4c/5x5_reduce
I0403 15:07:57.797638 11820 net.cpp:425] inception_4c/5x5_reduce <- inception_4b/output_inception_4b/output_0_split_2
I0403 15:07:57.797670 11820 net.cpp:399] inception_4c/5x5_reduce -> inception_4c/5x5_reduce
I0403 15:07:57.798751 11820 net.cpp:141] Setting up inception_4c/5x5_reduce
I0403 15:07:57.798782 11820 net.cpp:148] Top shape: 24 24 14 14 (112896)
I0403 15:07:57.798799 11820 net.cpp:156] Memory required for data: 1048111392
I0403 15:07:57.798818 11820 layer_factory.hpp:77] Creating layer inception_4c/relu_5x5_reduce
I0403 15:07:57.798836 11820 net.cpp:91] Creating Layer inception_4c/relu_5x5_reduce
I0403 15:07:57.798853 11820 net.cpp:425] inception_4c/relu_5x5_reduce <- inception_4c/5x5_reduce
I0403 15:07:57.798873 11820 net.cpp:386] inception_4c/relu_5x5_reduce -> inception_4c/5x5_reduce (in-place)
I0403 15:07:57.799057 11820 net.cpp:141] Setting up inception_4c/relu_5x5_reduce
I0403 15:07:57.799082 11820 net.cpp:148] Top shape: 24 24 14 14 (112896)
I0403 15:07:57.799096 11820 net.cpp:156] Memory required for data: 1048562976
I0403 15:07:57.799110 11820 layer_factory.hpp:77] Creating layer inception_4c/5x5
I0403 15:07:57.799136 11820 net.cpp:91] Creating Layer inception_4c/5x5
I0403 15:07:57.799155 11820 net.cpp:425] inception_4c/5x5 <- inception_4c/5x5_reduce
I0403 15:07:57.799178 11820 net.cpp:399] inception_4c/5x5 -> inception_4c/5x5
I0403 15:07:57.800417 11820 net.cpp:141] Setting up inception_4c/5x5
I0403 15:07:57.800446 11820 net.cpp:148] Top shape: 24 64 14 14 (301056)
I0403 15:07:57.800460 11820 net.cpp:156] Memory required for data: 1049767200
I0403 15:07:57.800478 11820 layer_factory.hpp:77] Creating layer inception_4c/relu_5x5
I0403 15:07:57.800498 11820 net.cpp:91] Creating Layer inception_4c/relu_5x5
I0403 15:07:57.800518 11820 net.cpp:425] inception_4c/relu_5x5 <- inception_4c/5x5
I0403 15:07:57.800534 11820 net.cpp:386] inception_4c/relu_5x5 -> inception_4c/5x5 (in-place)
I0403 15:07:57.800820 11820 net.cpp:141] Setting up inception_4c/relu_5x5
I0403 15:07:57.800848 11820 net.cpp:148] Top shape: 24 64 14 14 (301056)
I0403 15:07:57.800863 11820 net.cpp:156] Memory required for data: 1050971424
I0403 15:07:57.800879 11820 layer_factory.hpp:77] Creating layer inception_4c/pool
I0403 15:07:57.800896 11820 net.cpp:91] Creating Layer inception_4c/pool
I0403 15:07:57.800912 11820 net.cpp:425] inception_4c/pool <- inception_4b/output_inception_4b/output_0_split_3
I0403 15:07:57.800933 11820 net.cpp:399] inception_4c/pool -> inception_4c/pool
I0403 15:07:57.800997 11820 net.cpp:141] Setting up inception_4c/pool
I0403 15:07:57.801024 11820 net.cpp:148] Top shape: 24 512 14 14 (2408448)
I0403 15:07:57.801040 11820 net.cpp:156] Memory required for data: 1060605216
I0403 15:07:57.801055 11820 layer_factory.hpp:77] Creating layer inception_4c/pool_proj
I0403 15:07:57.801077 11820 net.cpp:91] Creating Layer inception_4c/pool_proj
I0403 15:07:57.801093 11820 net.cpp:425] inception_4c/pool_proj <- inception_4c/pool
I0403 15:07:57.801112 11820 net.cpp:399] inception_4c/pool_proj -> inception_4c/pool_proj
I0403 15:07:57.802367 11820 net.cpp:141] Setting up inception_4c/pool_proj
I0403 15:07:57.802400 11820 net.cpp:148] Top shape: 24 64 14 14 (301056)
I0403 15:07:57.802430 11820 net.cpp:156] Memory required for data: 1061809440
I0403 15:07:57.802449 11820 layer_factory.hpp:77] Creating layer inception_4c/relu_pool_proj
I0403 15:07:57.802467 11820 net.cpp:91] Creating Layer inception_4c/relu_pool_proj
I0403 15:07:57.802484 11820 net.cpp:425] inception_4c/relu_pool_proj <- inception_4c/pool_proj
I0403 15:07:57.802502 11820 net.cpp:386] inception_4c/relu_pool_proj -> inception_4c/pool_proj (in-place)
I0403 15:07:57.802690 11820 net.cpp:141] Setting up inception_4c/relu_pool_proj
I0403 15:07:57.802716 11820 net.cpp:148] Top shape: 24 64 14 14 (301056)
I0403 15:07:57.802731 11820 net.cpp:156] Memory required for data: 1063013664
I0403 15:07:57.802744 11820 layer_factory.hpp:77] Creating layer inception_4c/output
I0403 15:07:57.802760 11820 net.cpp:91] Creating Layer inception_4c/output
I0403 15:07:57.802777 11820 net.cpp:425] inception_4c/output <- inception_4c/1x1
I0403 15:07:57.802793 11820 net.cpp:425] inception_4c/output <- inception_4c/3x3
I0403 15:07:57.802808 11820 net.cpp:425] inception_4c/output <- inception_4c/5x5
I0403 15:07:57.802824 11820 net.cpp:425] inception_4c/output <- inception_4c/pool_proj
I0403 15:07:57.802842 11820 net.cpp:399] inception_4c/output -> inception_4c/output
I0403 15:07:57.802891 11820 net.cpp:141] Setting up inception_4c/output
I0403 15:07:57.802917 11820 net.cpp:148] Top shape: 24 512 14 14 (2408448)
I0403 15:07:57.802930 11820 net.cpp:156] Memory required for data: 1072647456
I0403 15:07:57.802945 11820 layer_factory.hpp:77] Creating layer inception_4c/output_inception_4c/output_0_split
I0403 15:07:57.802961 11820 net.cpp:91] Creating Layer inception_4c/output_inception_4c/output_0_split
I0403 15:07:57.802975 11820 net.cpp:425] inception_4c/output_inception_4c/output_0_split <- inception_4c/output
I0403 15:07:57.802992 11820 net.cpp:399] inception_4c/output_inception_4c/output_0_split -> inception_4c/output_inception_4c/output_0_split_0
I0403 15:07:57.803017 11820 net.cpp:399] inception_4c/output_inception_4c/output_0_split -> inception_4c/output_inception_4c/output_0_split_1
I0403 15:07:57.803037 11820 net.cpp:399] inception_4c/output_inception_4c/output_0_split -> inception_4c/output_inception_4c/output_0_split_2
I0403 15:07:57.803058 11820 net.cpp:399] inception_4c/output_inception_4c/output_0_split -> inception_4c/output_inception_4c/output_0_split_3
I0403 15:07:57.803158 11820 net.cpp:141] Setting up inception_4c/output_inception_4c/output_0_split
I0403 15:07:57.803184 11820 net.cpp:148] Top shape: 24 512 14 14 (2408448)
I0403 15:07:57.803200 11820 net.cpp:148] Top shape: 24 512 14 14 (2408448)
I0403 15:07:57.803215 11820 net.cpp:148] Top shape: 24 512 14 14 (2408448)
I0403 15:07:57.803231 11820 net.cpp:148] Top shape: 24 512 14 14 (2408448)
I0403 15:07:57.803244 11820 net.cpp:156] Memory required for data: 1111182624
I0403 15:07:57.803259 11820 layer_factory.hpp:77] Creating layer inception_4d/1x1
I0403 15:07:57.803282 11820 net.cpp:91] Creating Layer inception_4d/1x1
I0403 15:07:57.803299 11820 net.cpp:425] inception_4d/1x1 <- inception_4c/output_inception_4c/output_0_split_0
I0403 15:07:57.803320 11820 net.cpp:399] inception_4d/1x1 -> inception_4d/1x1
I0403 15:07:57.804733 11820 net.cpp:141] Setting up inception_4d/1x1
I0403 15:07:57.804761 11820 net.cpp:148] Top shape: 24 112 14 14 (526848)
I0403 15:07:57.804777 11820 net.cpp:156] Memory required for data: 1113290016
I0403 15:07:57.804796 11820 layer_factory.hpp:77] Creating layer inception_4d/relu_1x1
I0403 15:07:57.804816 11820 net.cpp:91] Creating Layer inception_4d/relu_1x1
I0403 15:07:57.804833 11820 net.cpp:425] inception_4d/relu_1x1 <- inception_4d/1x1
I0403 15:07:57.804852 11820 net.cpp:386] inception_4d/relu_1x1 -> inception_4d/1x1 (in-place)
I0403 15:07:57.805043 11820 net.cpp:141] Setting up inception_4d/relu_1x1
I0403 15:07:57.805073 11820 net.cpp:148] Top shape: 24 112 14 14 (526848)
I0403 15:07:57.805088 11820 net.cpp:156] Memory required for data: 1115397408
I0403 15:07:57.805104 11820 layer_factory.hpp:77] Creating layer inception_4d/3x3_reduce
I0403 15:07:57.805146 11820 net.cpp:91] Creating Layer inception_4d/3x3_reduce
I0403 15:07:57.805167 11820 net.cpp:425] inception_4d/3x3_reduce <- inception_4c/output_inception_4c/output_0_split_1
I0403 15:07:57.805187 11820 net.cpp:399] inception_4d/3x3_reduce -> inception_4d/3x3_reduce
I0403 15:07:57.806777 11820 net.cpp:141] Setting up inception_4d/3x3_reduce
I0403 15:07:57.806807 11820 net.cpp:148] Top shape: 24 144 14 14 (677376)
I0403 15:07:57.806823 11820 net.cpp:156] Memory required for data: 1118106912
I0403 15:07:57.806841 11820 layer_factory.hpp:77] Creating layer inception_4d/relu_3x3_reduce
I0403 15:07:57.806860 11820 net.cpp:91] Creating Layer inception_4d/relu_3x3_reduce
I0403 15:07:57.806877 11820 net.cpp:425] inception_4d/relu_3x3_reduce <- inception_4d/3x3_reduce
I0403 15:07:57.806897 11820 net.cpp:386] inception_4d/relu_3x3_reduce -> inception_4d/3x3_reduce (in-place)
I0403 15:07:57.807199 11820 net.cpp:141] Setting up inception_4d/relu_3x3_reduce
I0403 15:07:57.807227 11820 net.cpp:148] Top shape: 24 144 14 14 (677376)
I0403 15:07:57.807242 11820 net.cpp:156] Memory required for data: 1120816416
I0403 15:07:57.807258 11820 layer_factory.hpp:77] Creating layer inception_4d/3x3
I0403 15:07:57.807281 11820 net.cpp:91] Creating Layer inception_4d/3x3
I0403 15:07:57.807298 11820 net.cpp:425] inception_4d/3x3 <- inception_4d/3x3_reduce
I0403 15:07:57.807320 11820 net.cpp:399] inception_4d/3x3 -> inception_4d/3x3
I0403 15:07:57.811880 11820 net.cpp:141] Setting up inception_4d/3x3
I0403 15:07:57.811911 11820 net.cpp:148] Top shape: 24 288 14 14 (1354752)
I0403 15:07:57.811928 11820 net.cpp:156] Memory required for data: 1126235424
I0403 15:07:57.811947 11820 layer_factory.hpp:77] Creating layer inception_4d/relu_3x3
I0403 15:07:57.811969 11820 net.cpp:91] Creating Layer inception_4d/relu_3x3
I0403 15:07:57.811987 11820 net.cpp:425] inception_4d/relu_3x3 <- inception_4d/3x3
I0403 15:07:57.812005 11820 net.cpp:386] inception_4d/relu_3x3 -> inception_4d/3x3 (in-place)
I0403 15:07:57.812196 11820 net.cpp:141] Setting up inception_4d/relu_3x3
I0403 15:07:57.812225 11820 net.cpp:148] Top shape: 24 288 14 14 (1354752)
I0403 15:07:57.812242 11820 net.cpp:156] Memory required for data: 1131654432
I0403 15:07:57.812258 11820 layer_factory.hpp:77] Creating layer inception_4d/5x5_reduce
I0403 15:07:57.812281 11820 net.cpp:91] Creating Layer inception_4d/5x5_reduce
I0403 15:07:57.812299 11820 net.cpp:425] inception_4d/5x5_reduce <- inception_4c/output_inception_4c/output_0_split_2
I0403 15:07:57.812319 11820 net.cpp:399] inception_4d/5x5_reduce -> inception_4d/5x5_reduce
I0403 15:07:57.813544 11820 net.cpp:141] Setting up inception_4d/5x5_reduce
I0403 15:07:57.813573 11820 net.cpp:148] Top shape: 24 32 14 14 (150528)
I0403 15:07:57.813591 11820 net.cpp:156] Memory required for data: 1132256544
I0403 15:07:57.813611 11820 layer_factory.hpp:77] Creating layer inception_4d/relu_5x5_reduce
I0403 15:07:57.813632 11820 net.cpp:91] Creating Layer inception_4d/relu_5x5_reduce
I0403 15:07:57.813663 11820 net.cpp:425] inception_4d/relu_5x5_reduce <- inception_4d/5x5_reduce
I0403 15:07:57.813679 11820 net.cpp:386] inception_4d/relu_5x5_reduce -> inception_4d/5x5_reduce (in-place)
I0403 15:07:57.813874 11820 net.cpp:141] Setting up inception_4d/relu_5x5_reduce
I0403 15:07:57.813901 11820 net.cpp:148] Top shape: 24 32 14 14 (150528)
I0403 15:07:57.813917 11820 net.cpp:156] Memory required for data: 1132858656
I0403 15:07:57.813932 11820 layer_factory.hpp:77] Creating layer inception_4d/5x5
I0403 15:07:57.813954 11820 net.cpp:91] Creating Layer inception_4d/5x5
I0403 15:07:57.813985 11820 net.cpp:425] inception_4d/5x5 <- inception_4d/5x5_reduce
I0403 15:07:57.814005 11820 net.cpp:399] inception_4d/5x5 -> inception_4d/5x5
I0403 15:07:57.815567 11820 net.cpp:141] Setting up inception_4d/5x5
I0403 15:07:57.815600 11820 net.cpp:148] Top shape: 24 64 14 14 (301056)
I0403 15:07:57.815618 11820 net.cpp:156] Memory required for data: 1134062880
I0403 15:07:57.815649 11820 layer_factory.hpp:77] Creating layer inception_4d/relu_5x5
I0403 15:07:57.815685 11820 net.cpp:91] Creating Layer inception_4d/relu_5x5
I0403 15:07:57.815701 11820 net.cpp:425] inception_4d/relu_5x5 <- inception_4d/5x5
I0403 15:07:57.815722 11820 net.cpp:386] inception_4d/relu_5x5 -> inception_4d/5x5 (in-place)
I0403 15:07:57.816030 11820 net.cpp:141] Setting up inception_4d/relu_5x5
I0403 15:07:57.816061 11820 net.cpp:148] Top shape: 24 64 14 14 (301056)
I0403 15:07:57.816076 11820 net.cpp:156] Memory required for data: 1135267104
I0403 15:07:57.816092 11820 layer_factory.hpp:77] Creating layer inception_4d/pool
I0403 15:07:57.816110 11820 net.cpp:91] Creating Layer inception_4d/pool
I0403 15:07:57.816131 11820 net.cpp:425] inception_4d/pool <- inception_4c/output_inception_4c/output_0_split_3
I0403 15:07:57.816155 11820 net.cpp:399] inception_4d/pool -> inception_4d/pool
I0403 15:07:57.816226 11820 net.cpp:141] Setting up inception_4d/pool
I0403 15:07:57.816256 11820 net.cpp:148] Top shape: 24 512 14 14 (2408448)
I0403 15:07:57.816272 11820 net.cpp:156] Memory required for data: 1144900896
I0403 15:07:57.816287 11820 layer_factory.hpp:77] Creating layer inception_4d/pool_proj
I0403 15:07:57.816306 11820 net.cpp:91] Creating Layer inception_4d/pool_proj
I0403 15:07:57.816323 11820 net.cpp:425] inception_4d/pool_proj <- inception_4d/pool
I0403 15:07:57.816345 11820 net.cpp:399] inception_4d/pool_proj -> inception_4d/pool_proj
I0403 15:07:57.818209 11820 net.cpp:141] Setting up inception_4d/pool_proj
I0403 15:07:57.818241 11820 net.cpp:148] Top shape: 24 64 14 14 (301056)
I0403 15:07:57.818259 11820 net.cpp:156] Memory required for data: 1146105120
I0403 15:07:57.818276 11820 layer_factory.hpp:77] Creating layer inception_4d/relu_pool_proj
I0403 15:07:57.818298 11820 net.cpp:91] Creating Layer inception_4d/relu_pool_proj
I0403 15:07:57.818316 11820 net.cpp:425] inception_4d/relu_pool_proj <- inception_4d/pool_proj
I0403 15:07:57.818336 11820 net.cpp:386] inception_4d/relu_pool_proj -> inception_4d/pool_proj (in-place)
I0403 15:07:57.818532 11820 net.cpp:141] Setting up inception_4d/relu_pool_proj
I0403 15:07:57.818562 11820 net.cpp:148] Top shape: 24 64 14 14 (301056)
I0403 15:07:57.818580 11820 net.cpp:156] Memory required for data: 1147309344
I0403 15:07:57.818595 11820 layer_factory.hpp:77] Creating layer inception_4d/output
I0403 15:07:57.818614 11820 net.cpp:91] Creating Layer inception_4d/output
I0403 15:07:57.818630 11820 net.cpp:425] inception_4d/output <- inception_4d/1x1
I0403 15:07:57.818660 11820 net.cpp:425] inception_4d/output <- inception_4d/3x3
I0403 15:07:57.818675 11820 net.cpp:425] inception_4d/output <- inception_4d/5x5
I0403 15:07:57.818691 11820 net.cpp:425] inception_4d/output <- inception_4d/pool_proj
I0403 15:07:57.818709 11820 net.cpp:399] inception_4d/output -> inception_4d/output
I0403 15:07:57.818759 11820 net.cpp:141] Setting up inception_4d/output
I0403 15:07:57.818784 11820 net.cpp:148] Top shape: 24 528 14 14 (2483712)
I0403 15:07:57.818799 11820 net.cpp:156] Memory required for data: 1157244192
I0403 15:07:57.818814 11820 layer_factory.hpp:77] Creating layer inception_4d/output_inception_4d/output_0_split
I0403 15:07:57.818833 11820 net.cpp:91] Creating Layer inception_4d/output_inception_4d/output_0_split
I0403 15:07:57.818850 11820 net.cpp:425] inception_4d/output_inception_4d/output_0_split <- inception_4d/output
I0403 15:07:57.818868 11820 net.cpp:399] inception_4d/output_inception_4d/output_0_split -> inception_4d/output_inception_4d/output_0_split_0
I0403 15:07:57.818889 11820 net.cpp:399] inception_4d/output_inception_4d/output_0_split -> inception_4d/output_inception_4d/output_0_split_1
I0403 15:07:57.818912 11820 net.cpp:399] inception_4d/output_inception_4d/output_0_split -> inception_4d/output_inception_4d/output_0_split_2
I0403 15:07:57.818935 11820 net.cpp:399] inception_4d/output_inception_4d/output_0_split -> inception_4d/output_inception_4d/output_0_split_3
I0403 15:07:57.818958 11820 net.cpp:399] inception_4d/output_inception_4d/output_0_split -> inception_4d/output_inception_4d/output_0_split_4
I0403 15:07:57.819066 11820 net.cpp:141] Setting up inception_4d/output_inception_4d/output_0_split
I0403 15:07:57.819103 11820 net.cpp:148] Top shape: 24 528 14 14 (2483712)
I0403 15:07:57.819121 11820 net.cpp:148] Top shape: 24 528 14 14 (2483712)
I0403 15:07:57.819164 11820 net.cpp:148] Top shape: 24 528 14 14 (2483712)
I0403 15:07:57.819180 11820 net.cpp:148] Top shape: 24 528 14 14 (2483712)
I0403 15:07:57.819197 11820 net.cpp:148] Top shape: 24 528 14 14 (2483712)
I0403 15:07:57.819212 11820 net.cpp:156] Memory required for data: 1206918432
I0403 15:07:57.819228 11820 layer_factory.hpp:77] Creating layer loss2/ave_pool
I0403 15:07:57.819249 11820 net.cpp:91] Creating Layer loss2/ave_pool
I0403 15:07:57.819268 11820 net.cpp:425] loss2/ave_pool <- inception_4d/output_inception_4d/output_0_split_0
I0403 15:07:57.819288 11820 net.cpp:399] loss2/ave_pool -> loss2/ave_pool
I0403 15:07:57.819633 11820 net.cpp:141] Setting up loss2/ave_pool
I0403 15:07:57.819661 11820 net.cpp:148] Top shape: 24 528 4 4 (202752)
I0403 15:07:57.819677 11820 net.cpp:156] Memory required for data: 1207729440
I0403 15:07:57.819691 11820 layer_factory.hpp:77] Creating layer loss2/conv
I0403 15:07:57.819715 11820 net.cpp:91] Creating Layer loss2/conv
I0403 15:07:57.819736 11820 net.cpp:425] loss2/conv <- loss2/ave_pool
I0403 15:07:57.819756 11820 net.cpp:399] loss2/conv -> loss2/conv
I0403 15:07:57.821769 11820 net.cpp:141] Setting up loss2/conv
I0403 15:07:57.821801 11820 net.cpp:148] Top shape: 24 128 4 4 (49152)
I0403 15:07:57.821817 11820 net.cpp:156] Memory required for data: 1207926048
I0403 15:07:57.821836 11820 layer_factory.hpp:77] Creating layer loss2/relu_conv
I0403 15:07:57.821854 11820 net.cpp:91] Creating Layer loss2/relu_conv
I0403 15:07:57.821871 11820 net.cpp:425] loss2/relu_conv <- loss2/conv
I0403 15:07:57.821892 11820 net.cpp:386] loss2/relu_conv -> loss2/conv (in-place)
I0403 15:07:57.822191 11820 net.cpp:141] Setting up loss2/relu_conv
I0403 15:07:57.822219 11820 net.cpp:148] Top shape: 24 128 4 4 (49152)
I0403 15:07:57.822235 11820 net.cpp:156] Memory required for data: 1208122656
I0403 15:07:57.822252 11820 layer_factory.hpp:77] Creating layer loss2/fc
I0403 15:07:57.822270 11820 net.cpp:91] Creating Layer loss2/fc
I0403 15:07:57.822288 11820 net.cpp:425] loss2/fc <- loss2/conv
I0403 15:07:57.822309 11820 net.cpp:399] loss2/fc -> loss2/fc
I0403 15:07:57.840932 11820 net.cpp:141] Setting up loss2/fc
I0403 15:07:57.840980 11820 net.cpp:148] Top shape: 24 1024 (24576)
I0403 15:07:57.840997 11820 net.cpp:156] Memory required for data: 1208220960
I0403 15:07:57.841017 11820 layer_factory.hpp:77] Creating layer loss2/relu_fc
I0403 15:07:57.841037 11820 net.cpp:91] Creating Layer loss2/relu_fc
I0403 15:07:57.841055 11820 net.cpp:425] loss2/relu_fc <- loss2/fc
I0403 15:07:57.841074 11820 net.cpp:386] loss2/relu_fc -> loss2/fc (in-place)
I0403 15:07:57.841420 11820 net.cpp:141] Setting up loss2/relu_fc
I0403 15:07:57.841451 11820 net.cpp:148] Top shape: 24 1024 (24576)
I0403 15:07:57.841469 11820 net.cpp:156] Memory required for data: 1208319264
I0403 15:07:57.841485 11820 layer_factory.hpp:77] Creating layer loss2/drop_fc
I0403 15:07:57.841505 11820 net.cpp:91] Creating Layer loss2/drop_fc
I0403 15:07:57.841521 11820 net.cpp:425] loss2/drop_fc <- loss2/fc
I0403 15:07:57.841539 11820 net.cpp:386] loss2/drop_fc -> loss2/fc (in-place)
I0403 15:07:57.841595 11820 net.cpp:141] Setting up loss2/drop_fc
I0403 15:07:57.841619 11820 net.cpp:148] Top shape: 24 1024 (24576)
I0403 15:07:57.841647 11820 net.cpp:156] Memory required for data: 1208417568
I0403 15:07:57.841662 11820 layer_factory.hpp:77] Creating layer loss2/classifier_plantvillage
I0403 15:07:57.841683 11820 net.cpp:91] Creating Layer loss2/classifier_plantvillage
I0403 15:07:57.841701 11820 net.cpp:425] loss2/classifier_plantvillage <- loss2/fc
I0403 15:07:57.841718 11820 net.cpp:399] loss2/classifier_plantvillage -> loss2/classifier_plantvillage
I0403 15:07:57.842146 11820 net.cpp:141] Setting up loss2/classifier_plantvillage
I0403 15:07:57.842175 11820 net.cpp:148] Top shape: 24 38 (912)
I0403 15:07:57.842211 11820 net.cpp:156] Memory required for data: 1208421216
I0403 15:07:57.842232 11820 layer_factory.hpp:77] Creating layer loss2/classifier_plantvillage_loss2/classifier_plantvillage_0_split
I0403 15:07:57.842252 11820 net.cpp:91] Creating Layer loss2/classifier_plantvillage_loss2/classifier_plantvillage_0_split
I0403 15:07:57.842267 11820 net.cpp:425] loss2/classifier_plantvillage_loss2/classifier_plantvillage_0_split <- loss2/classifier_plantvillage
I0403 15:07:57.842288 11820 net.cpp:399] loss2/classifier_plantvillage_loss2/classifier_plantvillage_0_split -> loss2/classifier_plantvillage_loss2/classifier_plantvillage_0_split_0
I0403 15:07:57.842309 11820 net.cpp:399] loss2/classifier_plantvillage_loss2/classifier_plantvillage_0_split -> loss2/classifier_plantvillage_loss2/classifier_plantvillage_0_split_1
I0403 15:07:57.842331 11820 net.cpp:399] loss2/classifier_plantvillage_loss2/classifier_plantvillage_0_split -> loss2/classifier_plantvillage_loss2/classifier_plantvillage_0_split_2
I0403 15:07:57.842412 11820 net.cpp:141] Setting up loss2/classifier_plantvillage_loss2/classifier_plantvillage_0_split
I0403 15:07:57.842439 11820 net.cpp:148] Top shape: 24 38 (912)
I0403 15:07:57.842458 11820 net.cpp:148] Top shape: 24 38 (912)
I0403 15:07:57.842473 11820 net.cpp:148] Top shape: 24 38 (912)
I0403 15:07:57.842488 11820 net.cpp:156] Memory required for data: 1208432160
I0403 15:07:57.842502 11820 layer_factory.hpp:77] Creating layer inception_4e/1x1
I0403 15:07:57.842525 11820 net.cpp:91] Creating Layer inception_4e/1x1
I0403 15:07:57.842543 11820 net.cpp:425] inception_4e/1x1 <- inception_4d/output_inception_4d/output_0_split_1
I0403 15:07:57.842563 11820 net.cpp:399] inception_4e/1x1 -> inception_4e/1x1
I0403 15:07:57.844477 11820 net.cpp:141] Setting up inception_4e/1x1
I0403 15:07:57.844507 11820 net.cpp:148] Top shape: 24 256 14 14 (1204224)
I0403 15:07:57.844522 11820 net.cpp:156] Memory required for data: 1213249056
I0403 15:07:57.844542 11820 layer_factory.hpp:77] Creating layer inception_4e/relu_1x1
I0403 15:07:57.844560 11820 net.cpp:91] Creating Layer inception_4e/relu_1x1
I0403 15:07:57.844576 11820 net.cpp:425] inception_4e/relu_1x1 <- inception_4e/1x1
I0403 15:07:57.844594 11820 net.cpp:386] inception_4e/relu_1x1 -> inception_4e/1x1 (in-place)
I0403 15:07:57.844903 11820 net.cpp:141] Setting up inception_4e/relu_1x1
I0403 15:07:57.844931 11820 net.cpp:148] Top shape: 24 256 14 14 (1204224)
I0403 15:07:57.844947 11820 net.cpp:156] Memory required for data: 1218065952
I0403 15:07:57.844962 11820 layer_factory.hpp:77] Creating layer inception_4e/3x3_reduce
I0403 15:07:57.844985 11820 net.cpp:91] Creating Layer inception_4e/3x3_reduce
I0403 15:07:57.845005 11820 net.cpp:425] inception_4e/3x3_reduce <- inception_4d/output_inception_4d/output_0_split_2
I0403 15:07:57.845026 11820 net.cpp:399] inception_4e/3x3_reduce -> inception_4e/3x3_reduce
I0403 15:07:57.847251 11820 net.cpp:141] Setting up inception_4e/3x3_reduce
I0403 15:07:57.847285 11820 net.cpp:148] Top shape: 24 160 14 14 (752640)
I0403 15:07:57.847302 11820 net.cpp:156] Memory required for data: 1221076512
I0403 15:07:57.847321 11820 layer_factory.hpp:77] Creating layer inception_4e/relu_3x3_reduce
I0403 15:07:57.847339 11820 net.cpp:91] Creating Layer inception_4e/relu_3x3_reduce
I0403 15:07:57.847368 11820 net.cpp:425] inception_4e/relu_3x3_reduce <- inception_4e/3x3_reduce
I0403 15:07:57.847388 11820 net.cpp:386] inception_4e/relu_3x3_reduce -> inception_4e/3x3_reduce (in-place)
I0403 15:07:57.847590 11820 net.cpp:141] Setting up inception_4e/relu_3x3_reduce
I0403 15:07:57.847617 11820 net.cpp:148] Top shape: 24 160 14 14 (752640)
I0403 15:07:57.847645 11820 net.cpp:156] Memory required for data: 1224087072
I0403 15:07:57.847661 11820 layer_factory.hpp:77] Creating layer inception_4e/3x3
I0403 15:07:57.847682 11820 net.cpp:91] Creating Layer inception_4e/3x3
I0403 15:07:57.847702 11820 net.cpp:425] inception_4e/3x3 <- inception_4e/3x3_reduce
I0403 15:07:57.847723 11820 net.cpp:399] inception_4e/3x3 -> inception_4e/3x3
I0403 15:07:57.853005 11820 net.cpp:141] Setting up inception_4e/3x3
I0403 15:07:57.853050 11820 net.cpp:148] Top shape: 24 320 14 14 (1505280)
I0403 15:07:57.853068 11820 net.cpp:156] Memory required for data: 1230108192
I0403 15:07:57.853090 11820 layer_factory.hpp:77] Creating layer inception_4e/relu_3x3
I0403 15:07:57.853111 11820 net.cpp:91] Creating Layer inception_4e/relu_3x3
I0403 15:07:57.853142 11820 net.cpp:425] inception_4e/relu_3x3 <- inception_4e/3x3
I0403 15:07:57.853166 11820 net.cpp:386] inception_4e/relu_3x3 -> inception_4e/3x3 (in-place)
I0403 15:07:57.853483 11820 net.cpp:141] Setting up inception_4e/relu_3x3
I0403 15:07:57.853513 11820 net.cpp:148] Top shape: 24 320 14 14 (1505280)
I0403 15:07:57.853529 11820 net.cpp:156] Memory required for data: 1236129312
I0403 15:07:57.853545 11820 layer_factory.hpp:77] Creating layer inception_4e/5x5_reduce
I0403 15:07:57.853569 11820 net.cpp:91] Creating Layer inception_4e/5x5_reduce
I0403 15:07:57.853586 11820 net.cpp:425] inception_4e/5x5_reduce <- inception_4d/output_inception_4d/output_0_split_3
I0403 15:07:57.853610 11820 net.cpp:399] inception_4e/5x5_reduce -> inception_4e/5x5_reduce
I0403 15:07:57.854753 11820 net.cpp:141] Setting up inception_4e/5x5_reduce
I0403 15:07:57.854786 11820 net.cpp:148] Top shape: 24 32 14 14 (150528)
I0403 15:07:57.854804 11820 net.cpp:156] Memory required for data: 1236731424
I0403 15:07:57.854823 11820 layer_factory.hpp:77] Creating layer inception_4e/relu_5x5_reduce
I0403 15:07:57.854841 11820 net.cpp:91] Creating Layer inception_4e/relu_5x5_reduce
I0403 15:07:57.854858 11820 net.cpp:425] inception_4e/relu_5x5_reduce <- inception_4e/5x5_reduce
I0403 15:07:57.854879 11820 net.cpp:386] inception_4e/relu_5x5_reduce -> inception_4e/5x5_reduce (in-place)
I0403 15:07:57.855214 11820 net.cpp:141] Setting up inception_4e/relu_5x5_reduce
I0403 15:07:57.855245 11820 net.cpp:148] Top shape: 24 32 14 14 (150528)
I0403 15:07:57.855263 11820 net.cpp:156] Memory required for data: 1237333536
I0403 15:07:57.855279 11820 layer_factory.hpp:77] Creating layer inception_4e/5x5
I0403 15:07:57.855321 11820 net.cpp:91] Creating Layer inception_4e/5x5
I0403 15:07:57.855343 11820 net.cpp:425] inception_4e/5x5 <- inception_4e/5x5_reduce
I0403 15:07:57.855365 11820 net.cpp:399] inception_4e/5x5 -> inception_4e/5x5
I0403 15:07:57.857290 11820 net.cpp:141] Setting up inception_4e/5x5
I0403 15:07:57.857321 11820 net.cpp:148] Top shape: 24 128 14 14 (602112)
I0403 15:07:57.857336 11820 net.cpp:156] Memory required for data: 1239741984
I0403 15:07:57.857368 11820 layer_factory.hpp:77] Creating layer inception_4e/relu_5x5
I0403 15:07:57.857390 11820 net.cpp:91] Creating Layer inception_4e/relu_5x5
I0403 15:07:57.857409 11820 net.cpp:425] inception_4e/relu_5x5 <- inception_4e/5x5
I0403 15:07:57.857427 11820 net.cpp:386] inception_4e/relu_5x5 -> inception_4e/5x5 (in-place)
I0403 15:07:57.857650 11820 net.cpp:141] Setting up inception_4e/relu_5x5
I0403 15:07:57.857677 11820 net.cpp:148] Top shape: 24 128 14 14 (602112)
I0403 15:07:57.857693 11820 net.cpp:156] Memory required for data: 1242150432
I0403 15:07:57.857707 11820 layer_factory.hpp:77] Creating layer inception_4e/pool
I0403 15:07:57.857727 11820 net.cpp:91] Creating Layer inception_4e/pool
I0403 15:07:57.857743 11820 net.cpp:425] inception_4e/pool <- inception_4d/output_inception_4d/output_0_split_4
I0403 15:07:57.857764 11820 net.cpp:399] inception_4e/pool -> inception_4e/pool
I0403 15:07:57.857841 11820 net.cpp:141] Setting up inception_4e/pool
I0403 15:07:57.857866 11820 net.cpp:148] Top shape: 24 528 14 14 (2483712)
I0403 15:07:57.857880 11820 net.cpp:156] Memory required for data: 1252085280
I0403 15:07:57.857895 11820 layer_factory.hpp:77] Creating layer inception_4e/pool_proj
I0403 15:07:57.857918 11820 net.cpp:91] Creating Layer inception_4e/pool_proj
I0403 15:07:57.857938 11820 net.cpp:425] inception_4e/pool_proj <- inception_4e/pool
I0403 15:07:57.857957 11820 net.cpp:399] inception_4e/pool_proj -> inception_4e/pool_proj
I0403 15:07:57.859562 11820 net.cpp:141] Setting up inception_4e/pool_proj
I0403 15:07:57.859606 11820 net.cpp:148] Top shape: 24 128 14 14 (602112)
I0403 15:07:57.859625 11820 net.cpp:156] Memory required for data: 1254493728
I0403 15:07:57.859657 11820 layer_factory.hpp:77] Creating layer inception_4e/relu_pool_proj
I0403 15:07:57.859676 11820 net.cpp:91] Creating Layer inception_4e/relu_pool_proj
I0403 15:07:57.859695 11820 net.cpp:425] inception_4e/relu_pool_proj <- inception_4e/pool_proj
I0403 15:07:57.859715 11820 net.cpp:386] inception_4e/relu_pool_proj -> inception_4e/pool_proj (in-place)
I0403 15:07:57.860018 11820 net.cpp:141] Setting up inception_4e/relu_pool_proj
I0403 15:07:57.860045 11820 net.cpp:148] Top shape: 24 128 14 14 (602112)
I0403 15:07:57.860061 11820 net.cpp:156] Memory required for data: 1256902176
I0403 15:07:57.860075 11820 layer_factory.hpp:77] Creating layer inception_4e/output
I0403 15:07:57.860095 11820 net.cpp:91] Creating Layer inception_4e/output
I0403 15:07:57.860112 11820 net.cpp:425] inception_4e/output <- inception_4e/1x1
I0403 15:07:57.860134 11820 net.cpp:425] inception_4e/output <- inception_4e/3x3
I0403 15:07:57.860152 11820 net.cpp:425] inception_4e/output <- inception_4e/5x5
I0403 15:07:57.860170 11820 net.cpp:425] inception_4e/output <- inception_4e/pool_proj
I0403 15:07:57.860188 11820 net.cpp:399] inception_4e/output -> inception_4e/output
I0403 15:07:57.860241 11820 net.cpp:141] Setting up inception_4e/output
I0403 15:07:57.860267 11820 net.cpp:148] Top shape: 24 832 14 14 (3913728)
I0403 15:07:57.860283 11820 net.cpp:156] Memory required for data: 1272557088
I0403 15:07:57.860298 11820 layer_factory.hpp:77] Creating layer pool4/3x3_s2
I0403 15:07:57.860316 11820 net.cpp:91] Creating Layer pool4/3x3_s2
I0403 15:07:57.860332 11820 net.cpp:425] pool4/3x3_s2 <- inception_4e/output
I0403 15:07:57.860353 11820 net.cpp:399] pool4/3x3_s2 -> pool4/3x3_s2
I0403 15:07:57.860424 11820 net.cpp:141] Setting up pool4/3x3_s2
I0403 15:07:57.860450 11820 net.cpp:148] Top shape: 24 832 7 7 (978432)
I0403 15:07:57.860465 11820 net.cpp:156] Memory required for data: 1276470816
I0403 15:07:57.860478 11820 layer_factory.hpp:77] Creating layer pool4/3x3_s2_pool4/3x3_s2_0_split
I0403 15:07:57.860499 11820 net.cpp:91] Creating Layer pool4/3x3_s2_pool4/3x3_s2_0_split
I0403 15:07:57.860517 11820 net.cpp:425] pool4/3x3_s2_pool4/3x3_s2_0_split <- pool4/3x3_s2
I0403 15:07:57.860538 11820 net.cpp:399] pool4/3x3_s2_pool4/3x3_s2_0_split -> pool4/3x3_s2_pool4/3x3_s2_0_split_0
I0403 15:07:57.860560 11820 net.cpp:399] pool4/3x3_s2_pool4/3x3_s2_0_split -> pool4/3x3_s2_pool4/3x3_s2_0_split_1
I0403 15:07:57.860581 11820 net.cpp:399] pool4/3x3_s2_pool4/3x3_s2_0_split -> pool4/3x3_s2_pool4/3x3_s2_0_split_2
I0403 15:07:57.860601 11820 net.cpp:399] pool4/3x3_s2_pool4/3x3_s2_0_split -> pool4/3x3_s2_pool4/3x3_s2_0_split_3
I0403 15:07:57.860694 11820 net.cpp:141] Setting up pool4/3x3_s2_pool4/3x3_s2_0_split
I0403 15:07:57.860720 11820 net.cpp:148] Top shape: 24 832 7 7 (978432)
I0403 15:07:57.860738 11820 net.cpp:148] Top shape: 24 832 7 7 (978432)
I0403 15:07:57.860754 11820 net.cpp:148] Top shape: 24 832 7 7 (978432)
I0403 15:07:57.860769 11820 net.cpp:148] Top shape: 24 832 7 7 (978432)
I0403 15:07:57.860785 11820 net.cpp:156] Memory required for data: 1292125728
I0403 15:07:57.860798 11820 layer_factory.hpp:77] Creating layer inception_5a/1x1
I0403 15:07:57.860818 11820 net.cpp:91] Creating Layer inception_5a/1x1
I0403 15:07:57.860836 11820 net.cpp:425] inception_5a/1x1 <- pool4/3x3_s2_pool4/3x3_s2_0_split_0
I0403 15:07:57.860857 11820 net.cpp:399] inception_5a/1x1 -> inception_5a/1x1
I0403 15:07:57.863881 11820 net.cpp:141] Setting up inception_5a/1x1
I0403 15:07:57.863914 11820 net.cpp:148] Top shape: 24 256 7 7 (301056)
I0403 15:07:57.863931 11820 net.cpp:156] Memory required for data: 1293329952
I0403 15:07:57.863950 11820 layer_factory.hpp:77] Creating layer inception_5a/relu_1x1
I0403 15:07:57.863968 11820 net.cpp:91] Creating Layer inception_5a/relu_1x1
I0403 15:07:57.863986 11820 net.cpp:425] inception_5a/relu_1x1 <- inception_5a/1x1
I0403 15:07:57.864003 11820 net.cpp:386] inception_5a/relu_1x1 -> inception_5a/1x1 (in-place)
I0403 15:07:57.864363 11820 net.cpp:141] Setting up inception_5a/relu_1x1
I0403 15:07:57.864395 11820 net.cpp:148] Top shape: 24 256 7 7 (301056)
I0403 15:07:57.864413 11820 net.cpp:156] Memory required for data: 1294534176
I0403 15:07:57.864428 11820 layer_factory.hpp:77] Creating layer inception_5a/3x3_reduce
I0403 15:07:57.864454 11820 net.cpp:91] Creating Layer inception_5a/3x3_reduce
I0403 15:07:57.864471 11820 net.cpp:425] inception_5a/3x3_reduce <- pool4/3x3_s2_pool4/3x3_s2_0_split_1
I0403 15:07:57.864492 11820 net.cpp:399] inception_5a/3x3_reduce -> inception_5a/3x3_reduce
I0403 15:07:57.867080 11820 net.cpp:141] Setting up inception_5a/3x3_reduce
I0403 15:07:57.867112 11820 net.cpp:148] Top shape: 24 160 7 7 (188160)
I0403 15:07:57.867132 11820 net.cpp:156] Memory required for data: 1295286816
I0403 15:07:57.867154 11820 layer_factory.hpp:77] Creating layer inception_5a/relu_3x3_reduce
I0403 15:07:57.867177 11820 net.cpp:91] Creating Layer inception_5a/relu_3x3_reduce
I0403 15:07:57.867194 11820 net.cpp:425] inception_5a/relu_3x3_reduce <- inception_5a/3x3_reduce
I0403 15:07:57.867213 11820 net.cpp:386] inception_5a/relu_3x3_reduce -> inception_5a/3x3_reduce (in-place)
I0403 15:07:57.867420 11820 net.cpp:141] Setting up inception_5a/relu_3x3_reduce
I0403 15:07:57.867449 11820 net.cpp:148] Top shape: 24 160 7 7 (188160)
I0403 15:07:57.867467 11820 net.cpp:156] Memory required for data: 1296039456
I0403 15:07:57.867482 11820 layer_factory.hpp:77] Creating layer inception_5a/3x3
I0403 15:07:57.867506 11820 net.cpp:91] Creating Layer inception_5a/3x3
I0403 15:07:57.867525 11820 net.cpp:425] inception_5a/3x3 <- inception_5a/3x3_reduce
I0403 15:07:57.867547 11820 net.cpp:399] inception_5a/3x3 -> inception_5a/3x3
I0403 15:07:57.872879 11820 net.cpp:141] Setting up inception_5a/3x3
I0403 15:07:57.872911 11820 net.cpp:148] Top shape: 24 320 7 7 (376320)
I0403 15:07:57.872931 11820 net.cpp:156] Memory required for data: 1297544736
I0403 15:07:57.872949 11820 layer_factory.hpp:77] Creating layer inception_5a/relu_3x3
I0403 15:07:57.872968 11820 net.cpp:91] Creating Layer inception_5a/relu_3x3
I0403 15:07:57.872985 11820 net.cpp:425] inception_5a/relu_3x3 <- inception_5a/3x3
I0403 15:07:57.873006 11820 net.cpp:386] inception_5a/relu_3x3 -> inception_5a/3x3 (in-place)
I0403 15:07:57.873332 11820 net.cpp:141] Setting up inception_5a/relu_3x3
I0403 15:07:57.873363 11820 net.cpp:148] Top shape: 24 320 7 7 (376320)
I0403 15:07:57.873379 11820 net.cpp:156] Memory required for data: 1299050016
I0403 15:07:57.873395 11820 layer_factory.hpp:77] Creating layer inception_5a/5x5_reduce
I0403 15:07:57.873420 11820 net.cpp:91] Creating Layer inception_5a/5x5_reduce
I0403 15:07:57.873438 11820 net.cpp:425] inception_5a/5x5_reduce <- pool4/3x3_s2_pool4/3x3_s2_0_split_2
I0403 15:07:57.873458 11820 net.cpp:399] inception_5a/5x5_reduce -> inception_5a/5x5_reduce
I0403 15:07:57.874732 11820 net.cpp:141] Setting up inception_5a/5x5_reduce
I0403 15:07:57.874765 11820 net.cpp:148] Top shape: 24 32 7 7 (37632)
I0403 15:07:57.874783 11820 net.cpp:156] Memory required for data: 1299200544
I0403 15:07:57.874802 11820 layer_factory.hpp:77] Creating layer inception_5a/relu_5x5_reduce
I0403 15:07:57.874820 11820 net.cpp:91] Creating Layer inception_5a/relu_5x5_reduce
I0403 15:07:57.874836 11820 net.cpp:425] inception_5a/relu_5x5_reduce <- inception_5a/5x5_reduce
I0403 15:07:57.874855 11820 net.cpp:386] inception_5a/relu_5x5_reduce -> inception_5a/5x5_reduce (in-place)
I0403 15:07:57.875171 11820 net.cpp:141] Setting up inception_5a/relu_5x5_reduce
I0403 15:07:57.875198 11820 net.cpp:148] Top shape: 24 32 7 7 (37632)
I0403 15:07:57.875214 11820 net.cpp:156] Memory required for data: 1299351072
I0403 15:07:57.875231 11820 layer_factory.hpp:77] Creating layer inception_5a/5x5
I0403 15:07:57.875253 11820 net.cpp:91] Creating Layer inception_5a/5x5
I0403 15:07:57.875272 11820 net.cpp:425] inception_5a/5x5 <- inception_5a/5x5_reduce
I0403 15:07:57.875294 11820 net.cpp:399] inception_5a/5x5 -> inception_5a/5x5
I0403 15:07:57.877109 11820 net.cpp:141] Setting up inception_5a/5x5
I0403 15:07:57.877154 11820 net.cpp:148] Top shape: 24 128 7 7 (150528)
I0403 15:07:57.877172 11820 net.cpp:156] Memory required for data: 1299953184
I0403 15:07:57.877192 11820 layer_factory.hpp:77] Creating layer inception_5a/relu_5x5
I0403 15:07:57.877214 11820 net.cpp:91] Creating Layer inception_5a/relu_5x5
I0403 15:07:57.877233 11820 net.cpp:425] inception_5a/relu_5x5 <- inception_5a/5x5
I0403 15:07:57.877250 11820 net.cpp:386] inception_5a/relu_5x5 -> inception_5a/5x5 (in-place)
I0403 15:07:57.877467 11820 net.cpp:141] Setting up inception_5a/relu_5x5
I0403 15:07:57.877493 11820 net.cpp:148] Top shape: 24 128 7 7 (150528)
I0403 15:07:57.877509 11820 net.cpp:156] Memory required for data: 1300555296
I0403 15:07:57.877524 11820 layer_factory.hpp:77] Creating layer inception_5a/pool
I0403 15:07:57.877542 11820 net.cpp:91] Creating Layer inception_5a/pool
I0403 15:07:57.877559 11820 net.cpp:425] inception_5a/pool <- pool4/3x3_s2_pool4/3x3_s2_0_split_3
I0403 15:07:57.877581 11820 net.cpp:399] inception_5a/pool -> inception_5a/pool
I0403 15:07:57.877671 11820 net.cpp:141] Setting up inception_5a/pool
I0403 15:07:57.877696 11820 net.cpp:148] Top shape: 24 832 7 7 (978432)
I0403 15:07:57.877709 11820 net.cpp:156] Memory required for data: 1304469024
I0403 15:07:57.877724 11820 layer_factory.hpp:77] Creating layer inception_5a/pool_proj
I0403 15:07:57.877748 11820 net.cpp:91] Creating Layer inception_5a/pool_proj
I0403 15:07:57.877766 11820 net.cpp:425] inception_5a/pool_proj <- inception_5a/pool
I0403 15:07:57.877786 11820 net.cpp:399] inception_5a/pool_proj -> inception_5a/pool_proj
I0403 15:07:57.880256 11820 net.cpp:141] Setting up inception_5a/pool_proj
I0403 15:07:57.880290 11820 net.cpp:148] Top shape: 24 128 7 7 (150528)
I0403 15:07:57.880306 11820 net.cpp:156] Memory required for data: 1305071136
I0403 15:07:57.880326 11820 layer_factory.hpp:77] Creating layer inception_5a/relu_pool_proj
I0403 15:07:57.880347 11820 net.cpp:91] Creating Layer inception_5a/relu_pool_proj
I0403 15:07:57.880364 11820 net.cpp:425] inception_5a/relu_pool_proj <- inception_5a/pool_proj
I0403 15:07:57.880383 11820 net.cpp:386] inception_5a/relu_pool_proj -> inception_5a/pool_proj (in-place)
I0403 15:07:57.880697 11820 net.cpp:141] Setting up inception_5a/relu_pool_proj
I0403 15:07:57.880736 11820 net.cpp:148] Top shape: 24 128 7 7 (150528)
I0403 15:07:57.880753 11820 net.cpp:156] Memory required for data: 1305673248
I0403 15:07:57.880770 11820 layer_factory.hpp:77] Creating layer inception_5a/output
I0403 15:07:57.880790 11820 net.cpp:91] Creating Layer inception_5a/output
I0403 15:07:57.880807 11820 net.cpp:425] inception_5a/output <- inception_5a/1x1
I0403 15:07:57.880825 11820 net.cpp:425] inception_5a/output <- inception_5a/3x3
I0403 15:07:57.880842 11820 net.cpp:425] inception_5a/output <- inception_5a/5x5
I0403 15:07:57.880858 11820 net.cpp:425] inception_5a/output <- inception_5a/pool_proj
I0403 15:07:57.880878 11820 net.cpp:399] inception_5a/output -> inception_5a/output
I0403 15:07:57.880934 11820 net.cpp:141] Setting up inception_5a/output
I0403 15:07:57.880961 11820 net.cpp:148] Top shape: 24 832 7 7 (978432)
I0403 15:07:57.880977 11820 net.cpp:156] Memory required for data: 1309586976
I0403 15:07:57.881003 11820 layer_factory.hpp:77] Creating layer inception_5a/output_inception_5a/output_0_split
I0403 15:07:57.881021 11820 net.cpp:91] Creating Layer inception_5a/output_inception_5a/output_0_split
I0403 15:07:57.881037 11820 net.cpp:425] inception_5a/output_inception_5a/output_0_split <- inception_5a/output
I0403 15:07:57.881057 11820 net.cpp:399] inception_5a/output_inception_5a/output_0_split -> inception_5a/output_inception_5a/output_0_split_0
I0403 15:07:57.881079 11820 net.cpp:399] inception_5a/output_inception_5a/output_0_split -> inception_5a/output_inception_5a/output_0_split_1
I0403 15:07:57.881101 11820 net.cpp:399] inception_5a/output_inception_5a/output_0_split -> inception_5a/output_inception_5a/output_0_split_2
I0403 15:07:57.881122 11820 net.cpp:399] inception_5a/output_inception_5a/output_0_split -> inception_5a/output_inception_5a/output_0_split_3
I0403 15:07:57.881253 11820 net.cpp:141] Setting up inception_5a/output_inception_5a/output_0_split
I0403 15:07:57.881280 11820 net.cpp:148] Top shape: 24 832 7 7 (978432)
I0403 15:07:57.881299 11820 net.cpp:148] Top shape: 24 832 7 7 (978432)
I0403 15:07:57.881314 11820 net.cpp:148] Top shape: 24 832 7 7 (978432)
I0403 15:07:57.881330 11820 net.cpp:148] Top shape: 24 832 7 7 (978432)
I0403 15:07:57.881345 11820 net.cpp:156] Memory required for data: 1325241888
I0403 15:07:57.881359 11820 layer_factory.hpp:77] Creating layer inception_5b/1x1
I0403 15:07:57.881382 11820 net.cpp:91] Creating Layer inception_5b/1x1
I0403 15:07:57.881402 11820 net.cpp:425] inception_5b/1x1 <- inception_5a/output_inception_5a/output_0_split_0
I0403 15:07:57.881423 11820 net.cpp:399] inception_5b/1x1 -> inception_5b/1x1
I0403 15:07:57.885516 11820 net.cpp:141] Setting up inception_5b/1x1
I0403 15:07:57.885550 11820 net.cpp:148] Top shape: 24 384 7 7 (451584)
I0403 15:07:57.885567 11820 net.cpp:156] Memory required for data: 1327048224
I0403 15:07:57.885587 11820 layer_factory.hpp:77] Creating layer inception_5b/relu_1x1
I0403 15:07:57.885608 11820 net.cpp:91] Creating Layer inception_5b/relu_1x1
I0403 15:07:57.885627 11820 net.cpp:425] inception_5b/relu_1x1 <- inception_5b/1x1
I0403 15:07:57.885644 11820 net.cpp:386] inception_5b/relu_1x1 -> inception_5b/1x1 (in-place)
I0403 15:07:57.885975 11820 net.cpp:141] Setting up inception_5b/relu_1x1
I0403 15:07:57.886004 11820 net.cpp:148] Top shape: 24 384 7 7 (451584)
I0403 15:07:57.886021 11820 net.cpp:156] Memory required for data: 1328854560
I0403 15:07:57.886036 11820 layer_factory.hpp:77] Creating layer inception_5b/3x3_reduce
I0403 15:07:57.886060 11820 net.cpp:91] Creating Layer inception_5b/3x3_reduce
I0403 15:07:57.886080 11820 net.cpp:425] inception_5b/3x3_reduce <- inception_5a/output_inception_5a/output_0_split_1
I0403 15:07:57.886103 11820 net.cpp:399] inception_5b/3x3_reduce -> inception_5b/3x3_reduce
I0403 15:07:57.888953 11820 net.cpp:141] Setting up inception_5b/3x3_reduce
I0403 15:07:57.888985 11820 net.cpp:148] Top shape: 24 192 7 7 (225792)
I0403 15:07:57.889003 11820 net.cpp:156] Memory required for data: 1329757728
I0403 15:07:57.889022 11820 layer_factory.hpp:77] Creating layer inception_5b/relu_3x3_reduce
I0403 15:07:57.889045 11820 net.cpp:91] Creating Layer inception_5b/relu_3x3_reduce
I0403 15:07:57.889062 11820 net.cpp:425] inception_5b/relu_3x3_reduce <- inception_5b/3x3_reduce
I0403 15:07:57.889081 11820 net.cpp:386] inception_5b/relu_3x3_reduce -> inception_5b/3x3_reduce (in-place)
I0403 15:07:57.889291 11820 net.cpp:141] Setting up inception_5b/relu_3x3_reduce
I0403 15:07:57.889320 11820 net.cpp:148] Top shape: 24 192 7 7 (225792)
I0403 15:07:57.889338 11820 net.cpp:156] Memory required for data: 1330660896
I0403 15:07:57.889353 11820 layer_factory.hpp:77] Creating layer inception_5b/3x3
I0403 15:07:57.889379 11820 net.cpp:91] Creating Layer inception_5b/3x3
I0403 15:07:57.889399 11820 net.cpp:425] inception_5b/3x3 <- inception_5b/3x3_reduce
I0403 15:07:57.889418 11820 net.cpp:399] inception_5b/3x3 -> inception_5b/3x3
I0403 15:07:57.896595 11820 net.cpp:141] Setting up inception_5b/3x3
I0403 15:07:57.896627 11820 net.cpp:148] Top shape: 24 384 7 7 (451584)
I0403 15:07:57.896644 11820 net.cpp:156] Memory required for data: 1332467232
I0403 15:07:57.896662 11820 layer_factory.hpp:77] Creating layer inception_5b/relu_3x3
I0403 15:07:57.896684 11820 net.cpp:91] Creating Layer inception_5b/relu_3x3
I0403 15:07:57.896703 11820 net.cpp:425] inception_5b/relu_3x3 <- inception_5b/3x3
I0403 15:07:57.896723 11820 net.cpp:386] inception_5b/relu_3x3 -> inception_5b/3x3 (in-place)
I0403 15:07:57.897042 11820 net.cpp:141] Setting up inception_5b/relu_3x3
I0403 15:07:57.897071 11820 net.cpp:148] Top shape: 24 384 7 7 (451584)
I0403 15:07:57.897088 11820 net.cpp:156] Memory required for data: 1334273568
I0403 15:07:57.897104 11820 layer_factory.hpp:77] Creating layer inception_5b/5x5_reduce
I0403 15:07:57.897150 11820 net.cpp:91] Creating Layer inception_5b/5x5_reduce
I0403 15:07:57.897174 11820 net.cpp:425] inception_5b/5x5_reduce <- inception_5a/output_inception_5a/output_0_split_2
I0403 15:07:57.897197 11820 net.cpp:399] inception_5b/5x5_reduce -> inception_5b/5x5_reduce
I0403 15:07:57.898573 11820 net.cpp:141] Setting up inception_5b/5x5_reduce
I0403 15:07:57.898604 11820 net.cpp:148] Top shape: 24 48 7 7 (56448)
I0403 15:07:57.898620 11820 net.cpp:156] Memory required for data: 1334499360
I0403 15:07:57.898640 11820 layer_factory.hpp:77] Creating layer inception_5b/relu_5x5_reduce
I0403 15:07:57.898663 11820 net.cpp:91] Creating Layer inception_5b/relu_5x5_reduce
I0403 15:07:57.898681 11820 net.cpp:425] inception_5b/relu_5x5_reduce <- inception_5b/5x5_reduce
I0403 15:07:57.898699 11820 net.cpp:386] inception_5b/relu_5x5_reduce -> inception_5b/5x5_reduce (in-place)
I0403 15:07:57.899097 11820 net.cpp:141] Setting up inception_5b/relu_5x5_reduce
I0403 15:07:57.899130 11820 net.cpp:148] Top shape: 24 48 7 7 (56448)
I0403 15:07:57.899149 11820 net.cpp:156] Memory required for data: 1334725152
I0403 15:07:57.899168 11820 layer_factory.hpp:77] Creating layer inception_5b/5x5
I0403 15:07:57.899188 11820 net.cpp:91] Creating Layer inception_5b/5x5
I0403 15:07:57.899205 11820 net.cpp:425] inception_5b/5x5 <- inception_5b/5x5_reduce
I0403 15:07:57.899226 11820 net.cpp:399] inception_5b/5x5 -> inception_5b/5x5
I0403 15:07:57.901459 11820 net.cpp:141] Setting up inception_5b/5x5
I0403 15:07:57.901492 11820 net.cpp:148] Top shape: 24 128 7 7 (150528)
I0403 15:07:57.901510 11820 net.cpp:156] Memory required for data: 1335327264
I0403 15:07:57.901530 11820 layer_factory.hpp:77] Creating layer inception_5b/relu_5x5
I0403 15:07:57.901547 11820 net.cpp:91] Creating Layer inception_5b/relu_5x5
I0403 15:07:57.901564 11820 net.cpp:425] inception_5b/relu_5x5 <- inception_5b/5x5
I0403 15:07:57.901583 11820 net.cpp:386] inception_5b/relu_5x5 -> inception_5b/5x5 (in-place)
I0403 15:07:57.901798 11820 net.cpp:141] Setting up inception_5b/relu_5x5
I0403 15:07:57.901824 11820 net.cpp:148] Top shape: 24 128 7 7 (150528)
I0403 15:07:57.901840 11820 net.cpp:156] Memory required for data: 1335929376
I0403 15:07:57.901855 11820 layer_factory.hpp:77] Creating layer inception_5b/pool
I0403 15:07:57.901875 11820 net.cpp:91] Creating Layer inception_5b/pool
I0403 15:07:57.901891 11820 net.cpp:425] inception_5b/pool <- inception_5a/output_inception_5a/output_0_split_3
I0403 15:07:57.901913 11820 net.cpp:399] inception_5b/pool -> inception_5b/pool
I0403 15:07:57.901993 11820 net.cpp:141] Setting up inception_5b/pool
I0403 15:07:57.902020 11820 net.cpp:148] Top shape: 24 832 7 7 (978432)
I0403 15:07:57.902037 11820 net.cpp:156] Memory required for data: 1339843104
I0403 15:07:57.902052 11820 layer_factory.hpp:77] Creating layer inception_5b/pool_proj
I0403 15:07:57.902075 11820 net.cpp:91] Creating Layer inception_5b/pool_proj
I0403 15:07:57.902093 11820 net.cpp:425] inception_5b/pool_proj <- inception_5b/pool
I0403 15:07:57.902113 11820 net.cpp:399] inception_5b/pool_proj -> inception_5b/pool_proj
I0403 15:07:57.904600 11820 net.cpp:141] Setting up inception_5b/pool_proj
I0403 15:07:57.904633 11820 net.cpp:148] Top shape: 24 128 7 7 (150528)
I0403 15:07:57.904649 11820 net.cpp:156] Memory required for data: 1340445216
I0403 15:07:57.904669 11820 layer_factory.hpp:77] Creating layer inception_5b/relu_pool_proj
I0403 15:07:57.904691 11820 net.cpp:91] Creating Layer inception_5b/relu_pool_proj
I0403 15:07:57.904709 11820 net.cpp:425] inception_5b/relu_pool_proj <- inception_5b/pool_proj
I0403 15:07:57.904728 11820 net.cpp:386] inception_5b/relu_pool_proj -> inception_5b/pool_proj (in-place)
I0403 15:07:57.905047 11820 net.cpp:141] Setting up inception_5b/relu_pool_proj
I0403 15:07:57.905076 11820 net.cpp:148] Top shape: 24 128 7 7 (150528)
I0403 15:07:57.905093 11820 net.cpp:156] Memory required for data: 1341047328
I0403 15:07:57.905108 11820 layer_factory.hpp:77] Creating layer inception_5b/output
I0403 15:07:57.905134 11820 net.cpp:91] Creating Layer inception_5b/output
I0403 15:07:57.905170 11820 net.cpp:425] inception_5b/output <- inception_5b/1x1
I0403 15:07:57.905189 11820 net.cpp:425] inception_5b/output <- inception_5b/3x3
I0403 15:07:57.905206 11820 net.cpp:425] inception_5b/output <- inception_5b/5x5
I0403 15:07:57.905225 11820 net.cpp:425] inception_5b/output <- inception_5b/pool_proj
I0403 15:07:57.905242 11820 net.cpp:399] inception_5b/output -> inception_5b/output
I0403 15:07:57.905300 11820 net.cpp:141] Setting up inception_5b/output
I0403 15:07:57.905328 11820 net.cpp:148] Top shape: 24 1024 7 7 (1204224)
I0403 15:07:57.905342 11820 net.cpp:156] Memory required for data: 1345864224
I0403 15:07:57.905359 11820 layer_factory.hpp:77] Creating layer pool5/7x7_s1
I0403 15:07:57.905376 11820 net.cpp:91] Creating Layer pool5/7x7_s1
I0403 15:07:57.905393 11820 net.cpp:425] pool5/7x7_s1 <- inception_5b/output
I0403 15:07:57.905416 11820 net.cpp:399] pool5/7x7_s1 -> pool5/7x7_s1
I0403 15:07:57.905649 11820 net.cpp:141] Setting up pool5/7x7_s1
I0403 15:07:57.905680 11820 net.cpp:148] Top shape: 24 1024 1 1 (24576)
I0403 15:07:57.905697 11820 net.cpp:156] Memory required for data: 1345962528
I0403 15:07:57.905714 11820 layer_factory.hpp:77] Creating layer pool5/drop_7x7_s1
I0403 15:07:57.905731 11820 net.cpp:91] Creating Layer pool5/drop_7x7_s1
I0403 15:07:57.905748 11820 net.cpp:425] pool5/drop_7x7_s1 <- pool5/7x7_s1
I0403 15:07:57.905767 11820 net.cpp:386] pool5/drop_7x7_s1 -> pool5/7x7_s1 (in-place)
I0403 15:07:57.905823 11820 net.cpp:141] Setting up pool5/drop_7x7_s1
I0403 15:07:57.905849 11820 net.cpp:148] Top shape: 24 1024 1 1 (24576)
I0403 15:07:57.905864 11820 net.cpp:156] Memory required for data: 1346060832
I0403 15:07:57.905880 11820 layer_factory.hpp:77] Creating layer loss3/classifier_plantvillage
I0403 15:07:57.905903 11820 net.cpp:91] Creating Layer loss3/classifier_plantvillage
I0403 15:07:57.905921 11820 net.cpp:425] loss3/classifier_plantvillage <- pool5/7x7_s1
I0403 15:07:57.905941 11820 net.cpp:399] loss3/classifier_plantvillage -> loss3/classifier_plantvillage
I0403 15:07:57.906409 11820 net.cpp:141] Setting up loss3/classifier_plantvillage
I0403 15:07:57.906436 11820 net.cpp:148] Top shape: 24 38 (912)
I0403 15:07:57.906451 11820 net.cpp:156] Memory required for data: 1346064480
I0403 15:07:57.906471 11820 layer_factory.hpp:77] Creating layer loss3/classifier_plantvillage_loss3/classifier_plantvillage_0_split
I0403 15:07:57.906489 11820 net.cpp:91] Creating Layer loss3/classifier_plantvillage_loss3/classifier_plantvillage_0_split
I0403 15:07:57.906504 11820 net.cpp:425] loss3/classifier_plantvillage_loss3/classifier_plantvillage_0_split <- loss3/classifier_plantvillage
I0403 15:07:57.906527 11820 net.cpp:399] loss3/classifier_plantvillage_loss3/classifier_plantvillage_0_split -> loss3/classifier_plantvillage_loss3/classifier_plantvillage_0_split_0
I0403 15:07:57.906549 11820 net.cpp:399] loss3/classifier_plantvillage_loss3/classifier_plantvillage_0_split -> loss3/classifier_plantvillage_loss3/classifier_plantvillage_0_split_1
I0403 15:07:57.906571 11820 net.cpp:399] loss3/classifier_plantvillage_loss3/classifier_plantvillage_0_split -> loss3/classifier_plantvillage_loss3/classifier_plantvillage_0_split_2
I0403 15:07:57.906594 11820 net.cpp:399] loss3/classifier_plantvillage_loss3/classifier_plantvillage_0_split -> loss3/classifier_plantvillage_loss3/classifier_plantvillage_0_split_3
I0403 15:07:57.906702 11820 net.cpp:141] Setting up loss3/classifier_plantvillage_loss3/classifier_plantvillage_0_split
I0403 15:07:57.906728 11820 net.cpp:148] Top shape: 24 38 (912)
I0403 15:07:57.906745 11820 net.cpp:148] Top shape: 24 38 (912)
I0403 15:07:57.906761 11820 net.cpp:148] Top shape: 24 38 (912)
I0403 15:07:57.906776 11820 net.cpp:148] Top shape: 24 38 (912)
I0403 15:07:57.906790 11820 net.cpp:156] Memory required for data: 1346079072
I0403 15:07:57.906805 11820 layer_factory.hpp:77] Creating layer loss1/loss
I0403 15:07:57.906828 11820 net.cpp:91] Creating Layer loss1/loss
I0403 15:07:57.906847 11820 net.cpp:425] loss1/loss <- loss1/classifier_plantvillage_loss1/classifier_plantvillage_0_split_0
I0403 15:07:57.906882 11820 net.cpp:425] loss1/loss <- label_data_1_split_0
…
