…
I0403 15:12:09.039536 12035 net.cpp:313] The NetState phase (1) differed from the phase (0) specified by a rule in layer data
I0403 15:12:09.040662 12035 net.cpp:49] Initializing net from parameters: 
state {
  phase: TEST
}
layer {
  name: "data"
  type: "Data"
  top: "data"
  top: "label"
  include {
    phase: TEST
  }
  transform_param {
    mirror: false
    crop_size: 224
    mean_file: "/home/mohanty/data/final_dataset/lmdb/grayscale-60-40/mean.binaryproto"
  }
  data_param {
    source: "/home/mohanty/data/final_dataset/lmdb/grayscale-60-40/test_db"
    batch_size: 24
    backend: LMDB
  }
}
layer {
  name: "conv1/7x7_s2"
  type: "Convolution"
  bottom: "data"
  top: "conv1/7x7_s2"
  param {
    lr_mult: 1
    decay_mult: 1
  }
  param {
    lr_mult: 2
    decay_mult: 0
  }
  convolution_param {
    num_output: 64
    pad: 3
    kernel_size: 7
    stride: 2
    weight_filler {
      type: "xavier"
      std: 0.1
    }
    bias_filler {
      type: "constant"
      value: 0.2
    }
  }
}
layer {
  name: "conv1/relu_7x7"
  type: "ReLU"
  bottom: "conv1/7x7_s2"
  top: "conv1/7x7_s2"
}
layer {
  name: "pool1/3x3_s2"
  type: "Pooling"
  bottom: "conv1/7x7_s2"
  top: "pool1/3x3_s2"
  pooling_param {
    pool: MAX
    kernel_size: 3
    stride: 2
  }
}
layer {
  name: "pool1/norm1"
  type: "LRN"
  bottom: "pool1/3x3_s2"
  top: "pool1/norm1"
  lrn_param {
    local_size: 5
    alpha: 0.0001
    beta: 0.75
  }
}
layer {
  name: "conv2/3x3_reduce"
  type: "Convolution"
  bottom: "pool1/norm1"
  top: "conv2/3x3_reduce"
  param {
    lr_mult: 1
    decay_mult: 1
  }
  param {
    lr_mult: 2
    decay_mult: 0
  }
  convolution_param {
    num_output: 64
    kernel_size: 1
    weight_filler {
      type: "xavier"
      std: 0.1
    }
    bias_filler {
      type: "constant"
      value: 0.2
    }
  }
}
layer {
  name: "conv2/relu_3x3_reduce"
  type: "ReLU"
  bottom: "conv2/3x3_reduce"
  top: "conv2/3x3_reduce"
}
layer {
  name: "conv2/3x3"
  type: "Convolution"
  bottom: "conv2/3x3_reduce"
  top: "conv2/3x3"
  param {
    lr_mult: 1
    decay_mult: 1
  }
  param {
    lr_mult: 2
    decay_mult: 0
  }
  convolution_param {
    num_output: 192
    pad: 1
    kernel_size: 3
    weight_filler {
      type: "xavier"
      std: 0.03
    }
    bias_filler {
      type: "constant"
      value: 0.2
    }
  }
}
layer {
  name: "conv2/relu_3x3"
  type: "ReLU"
  bottom: "conv2/3x3"
  top: "conv2/3x3"
}
layer {
  name: "conv2/norm2"
  type: "LRN"
  bottom: "conv2/3x3"
  top: "conv2/norm2"
  lrn_param {
    local_size: 5
    alpha: 0.0001
    beta: 0.75
  }
}
layer {
  name: "pool2/3x3_s2"
  type: "Pooling"
  bottom: "conv2/norm2"
  top: "pool2/3x3_s2"
  pooling_param {
    pool: MAX
    kernel_size: 3
    stride: 2
  }
}
layer {
  name: "inception_3a/1x1"
  type: "Convolution"
  bottom: "pool2/3x3_s2"
  top: "inception_3a/1x1"
  param {
    lr_mult: 1
    decay_mult: 1
  }
  param {
    lr_mult: 2
    decay_mult: 0
  }
  convolution_param {
    num_output: 64
    kernel_size: 1
    weight_filler {
      type: "xavier"
      std: 0.03
    }
    bias_filler {
      type: "constant"
      value: 0.2
    }
  }
}
layer {
  name: "inception_3a/relu_1x1"
  type: "ReLU"
  bottom: "inception_3a/1x1"
  top: "inception_3a/1x1"
}
layer {
  name: "inception_3a/3x3_reduce"
  type: "Convolution"
  bottom: "pool2/3x3_s2"
  top: "inception_3a/3x3_reduce"
  param {
    lr_mult: 1
    decay_mult: 1
  }
  param {
    lr_mult: 2
    decay_mult: 0
  }
  convolution_param {
    num_output: 96
    kernel_size: 1
    weight_filler {
      type: "xavier"
      std: 0.09
    }
    bias_filler {
      type: "constant"
      value: 0.2
    }
  }
}
layer {
  name: "inception_3a/relu_3x3_reduce"
  type: "ReLU"
  bottom: "inception_3a/3x3_reduce"
  top: "inception_3a/3x3_reduce"
}
layer {
  name: "inception_3a/3x3"
  type: "Convolution"
  bottom: "inception_3a/3x3_reduce"
  top: "inception_3a/3x3"
  param {
    lr_mult: 1
    decay_mult: 1
  }
  param {
    lr_mult: 2
    decay_mult: 0
  }
  convolution_param {
    num_output: 128
    pad: 1
    kernel_size: 3
    weight_filler {
      type: "xavier"
      std: 0.03
    }
    bias_filler {
      type: "constant"
      value: 0.2
    }
  }
}
layer {
  name: "inception_3a/relu_3x3"
  type: "ReLU"
  bottom: "inception_3a/3x3"
  top: "inception_3a/3x3"
}
layer {
  name: "inception_3a/5x5_reduce"
  type: "Convolution"
  bottom: "pool2/3x3_s2"
  top: "inception_3a/5x5_reduce"
  param {
    lr_mult: 1
    decay_mult: 1
  }
  param {
    lr_mult: 2
    decay_mult: 0
  }
  convolution_param {
    num_output: 16
    kernel_size: 1
    weight_filler {
      type: "xavier"
      std: 0.2
    }
    bias_filler {
      type: "constant"
      value: 0.2
    }
  }
}
layer {
  name: "inception_3a/relu_5x5_reduce"
  type: "ReLU"
  bottom: "inception_3a/5x5_reduce"
  top: "inception_3a/5x5_reduce"
}
layer {
  name: "inception_3a/5x5"
  type: "Convolution"
  bottom: "inception_3a/5x5_reduce"
  top: "inception_3a/5x5"
  param {
    lr_mult: 1
    decay_mult: 1
  }
  param {
    lr_mult: 2
    decay_mult: 0
  }
  convolution_param {
    num_output: 32
    pad: 2
    kernel_size: 5
    weight_filler {
      type: "xavier"
      std: 0.03
    }
    bias_filler {
      type: "constant"
      value: 0.2
    }
  }
}
layer {
  name: "inception_3a/relu_5x5"
  type: "ReLU"
  bottom: "inception_3a/5x5"
  top: "inception_3a/5x5"
}
layer {
  name: "inception_3a/pool"
  type: "Pooling"
  bottom: "pool2/3x3_s2"
  top: "inception_3a/pool"
  pooling_param {
    pool: MAX
    kernel_size: 3
    stride: 1
    pad: 1
  }
}
layer {
  name: "inception_3a/pool_proj"
  type: "Convolution"
  bottom: "inception_3a/pool"
  top: "inception_3a/pool_proj"
  param {
    lr_mult: 1
    decay_mult: 1
  }
  param {
    lr_mult: 2
    decay_mult: 0
  }
  convolution_param {
    num_output: 32
    kernel_size: 1
    weight_filler {
      type: "xavier"
      std: 0.1
    }
    bias_filler {
      type: "constant"
      value: 0.2
    }
  }
}
layer {
  name: "inception_3a/relu_pool_proj"
  type: "ReLU"
  bottom: "inception_3a/pool_proj"
  top: "inception_3a/pool_proj"
}
layer {
  name: "inception_3a/output"
  type: "Concat"
  bottom: "inception_3a/1x1"
  bottom: "inception_3a/3x3"
  bottom: "inception_3a/5x5"
  bottom: "inception_3a/pool_proj"
  top: "inception_3a/output"
}
layer {
  name: "inception_3b/1x1"
  type: "Convolution"
  bottom: "inception_3a/output"
  top: "inception_3b/1x1"
  param {
    lr_mult: 1
    decay_mult: 1
  }
  param {
    lr_mult: 2
    decay_mult: 0
  }
  convolution_param {
    num_output: 128
    kernel_size: 1
    weight_filler {
      type: "xavier"
      std: 0.03
    }
    bias_filler {
      type: "constant"
      value: 0.2
    }
  }
}
layer {
  name: "inception_3b/relu_1x1"
  type: "ReLU"
  bottom: "inception_3b/1x1"
  top: "inception_3b/1x1"
}
layer {
  name: "inception_3b/3x3_reduce"
  type: "Convolution"
  bottom: "inception_3a/output"
  top: "inception_3b/3x3_reduce"
  param {
    lr_mult: 1
    decay_mult: 1
  }
  param {
    lr_mult: 2
    decay_mult: 0
  }
  convolution_param {
    num_output: 128
    kernel_size: 1
    weight_filler {
      type: "xavier"
      std: 0.09
    }
    bias_filler {
      type: "constant"
      value: 0.2
    }
  }
}
layer {
  name: "inception_3b/relu_3x3_reduce"
  type: "ReLU"
  bottom: "inception_3b/3x3_reduce"
  top: "inception_3b/3x3_reduce"
}
layer {
  name: "inception_3b/3x3"
  type: "Convolution"
  bottom: "inception_3b/3x3_reduce"
  top: "inception_3b/3x3"
  param {
    lr_mult: 1
    decay_mult: 1
  }
  param {
    lr_mult: 2
    decay_mult: 0
  }
  convolution_param {
    num_output: 192
    pad: 1
    kernel_size: 3
    weight_filler {
      type: "xavier"
      std: 0.03
    }
    bias_filler {
      type: "constant"
      value: 0.2
    }
  }
}
layer {
  name: "inception_3b/relu_3x3"
  type: "ReLU"
  bottom: "inception_3b/3x3"
  top: "inception_3b/3x3"
}
layer {
  name: "inception_3b/5x5_reduce"
  type: "Convolution"
  bottom: "inception_3a/output"
  top: "inception_3b/5x5_reduce"
  param {
    lr_mult: 1
    decay_mult: 1
  }
  param {
    lr_mult: 2
    decay_mult: 0
  }
  convolution_param {
    num_output: 32
    kernel_size: 1
    weight_filler {
      type: "xavier"
      std: 0.2
    }
    bias_filler {
      type: "constant"
      value: 0.2
    }
  }
}
layer {
  name: "inception_3b/relu_5x5_reduce"
  type: "ReLU"
  bottom: "inception_3b/5x5_reduce"
  top: "inception_3b/5x5_reduce"
}
layer {
  name: "inception_3b/5x5"
  type: "Convolution"
  bottom: "inception_3b/5x5_reduce"
  top: "inception_3b/5x5"
  param {
    lr_mult: 1
    decay_mult: 1
  }
  param {
    lr_mult: 2
    decay_mult: 0
  }
  convolution_param {
    num_output: 96
    pad: 2
    kernel_size: 5
    weight_filler {
      type: "xavier"
      std: 0.03
    }
    bias_filler {
      type: "constant"
      value: 0.2
    }
  }
}
layer {
  name: "inception_3b/relu_5x5"
  type: "ReLU"
  bottom: "inception_3b/5x5"
  top: "inception_3b/5x5"
}
layer {
  name: "inception_3b/pool"
  type: "Pooling"
  bottom: "inception_3a/output"
  top: "inception_3b/pool"
  pooling_param {
    pool: MAX
    kernel_size: 3
    stride: 1
    pad: 1
  }
}
layer {
  name: "inception_3b/pool_proj"
  type: "Convolution"
  bottom: "inception_3b/pool"
  top: "inception_3b/pool_proj"
  param {
    lr_mult: 1
    decay_mult: 1
  }
  param {
    lr_mult: 2
    decay_mult: 0
  }
  convolution_param {
    num_output: 64
    kernel_size: 1
    weight_filler {
      type: "xavier"
      std: 0.1
    }
    bias_filler {
      type: "constant"
      value: 0.2
    }
  }
}
layer {
  name: "inception_3b/relu_pool_proj"
  type: "ReLU"
  bottom: "inception_3b/pool_proj"
  top: "inception_3b/pool_proj"
}
layer {
  name: "inception_3b/output"
  type: "Concat"
  bottom: "inception_3b/1x1"
  bottom: "inception_3b/3x3"
  bottom: "inception_3b/5x5"
  bottom: "inception_3b/pool_proj"
  top: "inception_3b/output"
}
layer {
  name: "pool3/3x3_s2"
  type: "Pooling"
  bottom: "inception_3b/output"
  top: "pool3/3x3_s2"
  pooling_param {
    pool: MAX
    kernel_size: 3
    stride: 2
  }
}
layer {
  name: "inception_4a/1x1"
  type: "Convolution"
  bottom: "pool3/3x3_s2"
  top: "inception_4a/1x1"
  param {
    lr_mult: 1
    decay_mult: 1
  }
  param {
    lr_mult: 2
    decay_mult: 0
  }
  convolution_param {
    num_output: 192
    kernel_size: 1
    weight_filler {
      type: "xavier"
      std: 0.03
    }
    bias_filler {
      type: "constant"
      value: 0.2
    }
  }
}
layer {
  name: "inception_4a/relu_1x1"
  type: "ReLU"
  bottom: "inception_4a/1x1"
  top: "inception_4a/1x1"
}
layer {
  name: "inception_4a/3x3_reduce"
  type: "Convolution"
  bottom: "pool3/3x3_s2"
  top: "inception_4a/3x3_reduce"
  param {
    lr_mult: 1
    decay_mult: 1
  }
  param {
    lr_mult: 2
    decay_mult: 0
  }
  convolution_param {
    num_output: 96
    kernel_size: 1
    weight_filler {
      type: "xavier"
      std: 0.09
    }
    bias_filler {
      type: "constant"
      value: 0.2
    }
  }
}
layer {
  name: "inception_4a/relu_3x3_reduce"
  type: "ReLU"
  bottom: "inception_4a/3x3_reduce"
  top: "inception_4a/3x3_reduce"
}
layer {
  name: "inception_4a/3x3"
  type: "Convolution"
  bottom: "inception_4a/3x3_reduce"
  top: "inception_4a/3x3"
  param {
    lr_mult: 1
    decay_mult: 1
  }
  param {
    lr_mult: 2
    decay_mult: 0
  }
  convolution_param {
    num_output: 208
    pad: 1
    kernel_size: 3
    weight_filler {
      type: "xavier"
      std: 0.03
    }
    bias_filler {
      type: "constant"
      value: 0.2
    }
  }
}
layer {
  name: "inception_4a/relu_3x3"
  type: "ReLU"
  bottom: "inception_4a/3x3"
  top: "inception_4a/3x3"
}
layer {
  name: "inception_4a/5x5_reduce"
  type: "Convolution"
  bottom: "pool3/3x3_s2"
  top: "inception_4a/5x5_reduce"
  param {
    lr_mult: 1
    decay_mult: 1
  }
  param {
    lr_mult: 2
    decay_mult: 0
  }
  convolution_param {
    num_output: 16
    kernel_size: 1
    weight_filler {
      type: "xavier"
      std: 0.2
    }
    bias_filler {
      type: "constant"
      value: 0.2
    }
  }
}
layer {
  name: "inception_4a/relu_5x5_reduce"
  type: "ReLU"
  bottom: "inception_4a/5x5_reduce"
  top: "inception_4a/5x5_reduce"
}
layer {
  name: "inception_4a/5x5"
  type: "Convolution"
  bottom: "inception_4a/5x5_reduce"
  top: "inception_4a/5x5"
  param {
    lr_mult: 1
    decay_mult: 1
  }
  param {
    lr_mult: 2
    decay_mult: 0
  }
  convolution_param {
    num_output: 48
    pad: 2
    kernel_size: 5
    weight_filler {
      type: "xavier"
      std: 0.03
    }
    bias_filler {
      type: "constant"
      value: 0.2
    }
  }
}
layer {
  name: "inception_4a/relu_5x5"
  type: "ReLU"
  bottom: "inception_4a/5x5"
  top: "inception_4a/5x5"
}
layer {
  name: "inception_4a/pool"
  type: "Pooling"
  bottom: "pool3/3x3_s2"
  top: "inception_4a/pool"
  pooling_param {
    pool: MAX
    kernel_size: 3
    stride: 1
    pad: 1
  }
}
layer {
  name: "inception_4a/pool_proj"
  type: "Convolution"
  bottom: "inception_4a/pool"
  top: "inception_4a/pool_proj"
  param {
    lr_mult: 1
    decay_mult: 1
  }
  param {
    lr_mult: 2
    decay_mult: 0
  }
  convolution_param {
    num_output: 64
    kernel_size: 1
    weight_filler {
      type: "xavier"
      std: 0.1
    }
    bias_filler {
      type: "constant"
      value: 0.2
    }
  }
}
layer {
  name: "inception_4a/relu_pool_proj"
  type: "ReLU"
  bottom: "inception_4a/pool_proj"
  top: "inception_4a/pool_proj"
}
layer {
  name: "inception_4a/output"
  type: "Concat"
  bottom: "inception_4a/1x1"
  bottom: "inception_4a/3x3"
  bottom: "inception_4a/5x5"
  bottom: "inception_4a/pool_proj"
  top: "inception_4a/output"
}
layer {
  name: "loss1/ave_pool"
  type: "Pooling"
  bottom: "inception_4a/output"
  top: "loss1/ave_pool"
  pooling_param {
    pool: AVE
    kernel_size: 5
    stride: 3
  }
}
layer {
  name: "loss1/conv"
  type: "Convolution"
  bottom: "loss1/ave_pool"
  top: "loss1/conv"
  param {
    lr_mult: 1
    decay_mult: 1
  }
  param {
    lr_mult: 2
    decay_mult: 0
  }
  convolution_param {
    num_output: 128
    kernel_size: 1
    weight_filler {
      type: "xavier"
      std: 0.08
    }
    bias_filler {
      type: "constant"
      value: 0.2
    }
  }
}
layer {
  name: "loss1/relu_conv"
  type: "ReLU"
  bottom: "loss1/conv"
  top: "loss1/conv"
}
layer {
  name: "loss1/fc"
  type: "InnerProduct"
  bottom: "loss1/conv"
  top: "loss1/fc"
  param {
    lr_mult: 1
    decay_mult: 1
  }
  param {
    lr_mult: 2
    decay_mult: 0
  }
  inner_product_param {
    num_output: 1024
    weight_filler {
      type: "xavier"
      std: 0.02
    }
    bias_filler {
      type: "constant"
      value: 0.2
    }
  }
}
layer {
  name: "loss1/relu_fc"
  type: "ReLU"
  bottom: "loss1/fc"
  top: "loss1/fc"
}
layer {
  name: "loss1/drop_fc"
  type: "Dropout"
  bottom: "loss1/fc"
  top: "loss1/fc"
  dropout_param {
    dropout_ratio: 0.7
  }
}
layer {
  name: "loss1/classifier_plantvillage"
  type: "InnerProduct"
  bottom: "loss1/fc"
  top: "loss1/classifier_plantvillage"
  param {
    lr_mult: 1
    decay_mult: 1
  }
  param {
    lr_mult: 2
    decay_mult: 0
  }
  inner_product_param {
    num_output: 38
    weight_filler {
      type: "xavier"
      std: 0.0009765625
    }
    bias_filler {
      type: "constant"
      value: 0
    }
  }
}
layer {
  name: "inception_4b/1x1"
  type: "Convolution"
  bottom: "inception_4a/output"
  top: "inception_4b/1x1"
  param {
    lr_mult: 1
    decay_mult: 1
  }
  param {
    lr_mult: 2
    decay_mult: 0
  }
  convolution_param {
    num_output: 160
    kernel_size: 1
    weight_filler {
      type: "xavier"
      std: 0.03
    }
    bias_filler {
      type: "constant"
      value: 0.2
    }
  }
}
layer {
  name: "inception_4b/relu_1x1"
  type: "ReLU"
  bottom: "inception_4b/1x1"
  top: "inception_4b/1x1"
}
layer {
  name: "inception_4b/3x3_reduce"
  type: "Convolution"
  bottom: "inception_4a/output"
  top: "inception_4b/3x3_reduce"
  param {
    lr_mult: 1
    decay_mult: 1
  }
  param {
    lr_mult: 2
    decay_mult: 0
  }
  convolution_param {
    num_output: 112
    kernel_size: 1
    weight_filler {
      type: "xavier"
      std: 0.09
    }
    bias_filler {
      type: "constant"
      value: 0.2
    }
  }
}
layer {
  name: "inception_4b/relu_3x3_reduce"
  type: "ReLU"
  bottom: "inception_4b/3x3_reduce"
  top: "inception_4b/3x3_reduce"
}
layer {
  name: "inception_4b/3x3"
  type: "Convolution"
  bottom: "inception_4b/3x3_reduce"
  top: "inception_4b/3x3"
  param {
    lr_mult: 1
    decay_mult: 1
  }
  param {
    lr_mult: 2
    decay_mult: 0
  }
  convolution_param {
    num_output: 224
    pad: 1
    kernel_size: 3
    weight_filler {
      type: "xavier"
      std: 0.03
    }
    bias_filler {
      type: "constant"
      value: 0.2
    }
  }
}
layer {
  name: "inception_4b/relu_3x3"
  type: "ReLU"
  bottom: "inception_4b/3x3"
  top: "inception_4b/3x3"
}
layer {
  name: "inception_4b/5x5_reduce"
  type: "Convolution"
  bottom: "inception_4a/output"
  top: "inception_4b/5x5_reduce"
  param {
    lr_mult: 1
    decay_mult: 1
  }
  param {
    lr_mult: 2
    decay_mult: 0
  }
  convolution_param {
    num_output: 24
    kernel_size: 1
    weight_filler {
      type: "xavier"
      std: 0.2
    }
    bias_filler {
      type: "constant"
      value: 0.2
    }
  }
}
layer {
  name: "inception_4b/relu_5x5_reduce"
  type: "ReLU"
  bottom: "inception_4b/5x5_reduce"
  top: "inception_4b/5x5_reduce"
}
layer {
  name: "inception_4b/5x5"
  type: "Convolution"
  bottom: "inception_4b/5x5_reduce"
  top: "inception_4b/5x5"
  param {
    lr_mult: 1
    decay_mult: 1
  }
  param {
    lr_mult: 2
    decay_mult: 0
  }
  convolution_param {
    num_output: 64
    pad: 2
    kernel_size: 5
    weight_filler {
      type: "xavier"
      std: 0.03
    }
    bias_filler {
      type: "constant"
      value: 0.2
    }
  }
}
layer {
  name: "inception_4b/relu_5x5"
  type: "ReLU"
  bottom: "inception_4b/5x5"
  top: "inception_4b/5x5"
}
layer {
  name: "inception_4b/pool"
  type: "Pooling"
  bottom: "inception_4a/output"
  top: "inception_4b/pool"
  pooling_param {
    pool: MAX
    kernel_size: 3
    stride: 1
    pad: 1
  }
}
layer {
  name: "inception_4b/pool_proj"
  type: "Convolution"
  bottom: "inception_4b/pool"
  top: "inception_4b/pool_proj"
  param {
    lr_mult: 1
    decay_mult: 1
  }
  param {
    lr_mult: 2
    decay_mult: 0
  }
  convolution_param {
    num_output: 64
    kernel_size: 1
    weight_filler {
      type: "xavier"
      std: 0.1
    }
    bias_filler {
      type: "constant"
      value: 0.2
    }
  }
}
layer {
  name: "inception_4b/relu_pool_proj"
  type: "ReLU"
  bottom: "inception_4b/pool_proj"
  top: "inception_4b/pool_proj"
}
layer {
  name: "inception_4b/output"
  type: "Concat"
  bottom: "inception_4b/1x1"
  bottom: "inception_4b/3x3"
  bottom: "inception_4b/5x5"
  bottom: "inception_4b/pool_proj"
  top: "inception_4b/output"
}
layer {
  name: "inception_4c/1x1"
  type: "Convolution"
  bottom: "inception_4b/output"
  top: "inception_4c/1x1"
  param {
    lr_mult: 1
    decay_mult: 1
  }
  param {
    lr_mult: 2
    decay_mult: 0
  }
  convolution_param {
    num_output: 128
    kernel_size: 1
    weight_filler {
      type: "xavier"
      std: 0.03
    }
    bias_filler {
      type: "constant"
      value: 0.2
    }
  }
}
layer {
  name: "inception_4c/relu_1x1"
  type: "ReLU"
  bottom: "inception_4c/1x1"
  top: "inception_4c/1x1"
}
layer {
  name: "inception_4c/3x3_reduce"
  type: "Convolution"
  bottom: "inception_4b/output"
  top: "inception_4c/3x3_reduce"
  param {
    lr_mult: 1
    decay_mult: 1
  }
  param {
    lr_mult: 2
    decay_mult: 0
  }
  convolution_param {
    num_output: 128
    kernel_size: 1
    weight_filler {
      type: "xavier"
      std: 0.09
    }
    bias_filler {
      type: "constant"
      value: 0.2
    }
  }
}
layer {
  name: "inception_4c/relu_3x3_reduce"
  type: "ReLU"
  bottom: "inception_4c/3x3_reduce"
  top: "inception_4c/3x3_reduce"
}
layer {
  name: "inception_4c/3x3"
  type: "Convolution"
  bottom: "inception_4c/3x3_reduce"
  top: "inception_4c/3x3"
  param {
    lr_mult: 1
    decay_mult: 1
  }
  param {
    lr_mult: 2
    decay_mult: 0
  }
  convolution_param {
    num_output: 256
    pad: 1
    kernel_size: 3
    weight_filler {
      type: "xavier"
      std: 0.03
    }
    bias_filler {
      type: "constant"
      value: 0.2
    }
  }
}
layer {
  name: "inception_4c/relu_3x3"
  type: "ReLU"
  bottom: "inception_4c/3x3"
  top: "inception_4c/3x3"
}
layer {
  name: "inception_4c/5x5_reduce"
  type: "Convolution"
  bottom: "inception_4b/output"
  top: "inception_4c/5x5_reduce"
  param {
    lr_mult: 1
    decay_mult: 1
  }
  param {
    lr_mult: 2
    decay_mult: 0
  }
  convolution_param {
    num_output: 24
    kernel_size: 1
    weight_filler {
      type: "xavier"
      std: 0.2
    }
    bias_filler {
      type: "constant"
      value: 0.2
    }
  }
}
layer {
  name: "inception_4c/relu_5x5_reduce"
  type: "ReLU"
  bottom: "inception_4c/5x5_reduce"
  top: "inception_4c/5x5_reduce"
}
layer {
  name: "inception_4c/5x5"
  type: "Convolution"
  bottom: "inception_4c/5x5_reduce"
  top: "inception_4c/5x5"
  param {
    lr_mult: 1
    decay_mult: 1
  }
  param {
    lr_mult: 2
    decay_mult: 0
  }
  convolution_param {
    num_output: 64
    pad: 2
    kernel_size: 5
    weight_filler {
      type: "xavier"
      std: 0.03
    }
    bias_filler {
      type: "constant"
      value: 0.2
    }
  }
}
layer {
  name: "inception_4c/relu_5x5"
  type: "ReLU"
  bottom: "inception_4c/5x5"
  top: "inception_4c/5x5"
}
layer {
  name: "inception_4c/pool"
  type: "Pooling"
  bottom: "inception_4b/output"
  top: "inception_4c/pool"
  pooling_param {
    pool: MAX
    kernel_size: 3
    stride: 1
    pad: 1
  }
}
layer {
  name: "inception_4c/pool_proj"
  type: "Convolution"
  bottom: "inception_4c/pool"
  top: "inception_4c/pool_proj"
  param {
    lr_mult: 1
    decay_mult: 1
  }
  param {
    lr_mult: 2
    decay_mult: 0
  }
  convolution_param {
    num_output: 64
    kernel_size: 1
    weight_filler {
      type: "xavier"
      std: 0.1
    }
    bias_filler {
      type: "constant"
      value: 0.2
    }
  }
}
layer {
  name: "inception_4c/relu_pool_proj"
  type: "ReLU"
  bottom: "inception_4c/pool_proj"
  top: "inception_4c/pool_proj"
}
layer {
  name: "inception_4c/output"
  type: "Concat"
  bottom: "inception_4c/1x1"
  bottom: "inception_4c/3x3"
  bottom: "inception_4c/5x5"
  bottom: "inception_4c/pool_proj"
  top: "inception_4c/output"
}
layer {
  name: "inception_4d/1x1"
  type: "Convolution"
  bottom: "inception_4c/output"
  top: "inception_4d/1x1"
  param {
    lr_mult: 1
    decay_mult: 1
  }
  param {
    lr_mult: 2
    decay_mult: 0
  }
  convolution_param {
    num_output: 112
    kernel_size: 1
    weight_filler {
      type: "xavier"
      std: 0.03
    }
    bias_filler {
      type: "constant"
      value: 0.2
    }
  }
}
layer {
  name: "inception_4d/relu_1x1"
  type: "ReLU"
  bottom: "inception_4d/1x1"
  top: "inception_4d/1x1"
}
layer {
  name: "inception_4d/3x3_reduce"
  type: "Convolution"
  bottom: "inception_4c/output"
  top: "inception_4d/3x3_reduce"
  param {
    lr_mult: 1
    decay_mult: 1
  }
  param {
    lr_mult: 2
    decay_mult: 0
  }
  convolution_param {
    num_output: 144
    kernel_size: 1
    weight_filler {
      type: "xavier"
      std: 0.09
    }
    bias_filler {
      type: "constant"
      value: 0.2
    }
  }
}
layer {
  name: "inception_4d/relu_3x3_reduce"
  type: "ReLU"
  bottom: "inception_4d/3x3_reduce"
  top: "inception_4d/3x3_reduce"
}
layer {
  name: "inception_4d/3x3"
  type: "Convolution"
  bottom: "inception_4d/3x3_reduce"
  top: "inception_4d/3x3"
  param {
    lr_mult: 1
    decay_mult: 1
  }
  param {
    lr_mult: 2
    decay_mult: 0
  }
  convolution_param {
    num_output: 288
    pad: 1
    kernel_size: 3
    weight_filler {
      type: "xavier"
      std: 0.03
    }
    bias_filler {
      type: "constant"
      value: 0.2
    }
  }
}
layer {
  name: "inception_4d/relu_3x3"
  type: "ReLU"
  bottom: "inception_4d/3x3"
  top: "inception_4d/3x3"
}
layer {
  name: "inception_4d/5x5_reduce"
  type: "Convolution"
  bottom: "inception_4c/output"
  top: "inception_4d/5x5_reduce"
  param {
    lr_mult: 1
    decay_mult: 1
  }
  param {
    lr_mult: 2
    decay_mult: 0
  }
  convolution_param {
    num_output: 32
    kernel_size: 1
    weight_filler {
      type: "xavier"
      std: 0.2
    }
    bias_filler {
      type: "constant"
      value: 0.2
    }
  }
}
layer {
  name: "inception_4d/relu_5x5_reduce"
  type: "ReLU"
  bottom: "inception_4d/5x5_reduce"
  top: "inception_4d/5x5_reduce"
}
layer {
  name: "inception_4d/5x5"
  type: "Convolution"
  bottom: "inception_4d/5x5_reduce"
  top: "inception_4d/5x5"
  param {
    lr_mult: 1
    decay_mult: 1
  }
  param {
    lr_mult: 2
    decay_mult: 0
  }
  convolution_param {
    num_output: 64
    pad: 2
    kernel_size: 5
    weight_filler {
      type: "xavier"
      std: 0.03
    }
    bias_filler {
      type: "constant"
      value: 0.2
    }
  }
}
layer {
  name: "inception_4d/relu_5x5"
  type: "ReLU"
  bottom: "inception_4d/5x5"
  top: "inception_4d/5x5"
}
layer {
  name: "inception_4d/pool"
  type: "Pooling"
  bottom: "inception_4c/output"
  top: "inception_4d/pool"
  pooling_param {
    pool: MAX
    kernel_size: 3
    stride: 1
    pad: 1
  }
}
layer {
  name: "inception_4d/pool_proj"
  type: "Convolution"
  bottom: "inception_4d/pool"
  top: "inception_4d/pool_proj"
  param {
    lr_mult: 1
    decay_mult: 1
  }
  param {
    lr_mult: 2
    decay_mult: 0
  }
  convolution_param {
    num_output: 64
    kernel_size: 1
    weight_filler {
      type: "xavier"
      std: 0.1
    }
    bias_filler {
      type: "constant"
      value: 0.2
    }
  }
}
layer {
  name: "inception_4d/relu_pool_proj"
  type: "ReLU"
  bottom: "inception_4d/pool_proj"
  top: "inception_4d/pool_proj"
}
layer {
  name: "inception_4d/output"
  type: "Concat"
  bottom: "inception_4d/1x1"
  bottom: "inception_4d/3x3"
  bottom: "inception_4d/5x5"
  bottom: "inception_4d/pool_proj"
  top: "inception_4d/output"
}
layer {
  name: "loss2/ave_pool"
  type: "Pooling"
  bottom: "inception_4d/output"
  top: "loss2/ave_pool"
  pooling_param {
    pool: AVE
    kernel_size: 5
    stride: 3
  }
}
layer {
  name: "loss2/conv"
  type: "Convolution"
  bottom: "loss2/ave_pool"
  top: "loss2/conv"
  param {
    lr_mult: 1
    decay_mult: 1
  }
  param {
    lr_mult: 2
    decay_mult: 0
  }
  convolution_param {
    num_output: 128
    kernel_size: 1
    weight_filler {
      type: "xavier"
      std: 0.08
    }
    bias_filler {
      type: "constant"
      value: 0.2
    }
  }
}
layer {
  name: "loss2/relu_conv"
  type: "ReLU"
  bottom: "loss2/conv"
  top: "loss2/conv"
}
layer {
  name: "loss2/fc"
  type: "InnerProduct"
  bottom: "loss2/conv"
  top: "loss2/fc"
  param {
    lr_mult: 1
    decay_mult: 1
  }
  param {
    lr_mult: 2
    decay_mult: 0
  }
  inner_product_param {
    num_output: 1024
    weight_filler {
      type: "xavier"
      std: 0.02
    }
    bias_filler {
      type: "constant"
      value: 0.2
    }
  }
}
layer {
  name: "loss2/relu_fc"
  type: "ReLU"
  bottom: "loss2/fc"
  top: "loss2/fc"
}
layer {
  name: "loss2/drop_fc"
  type: "Dropout"
  bottom: "loss2/fc"
  top: "loss2/fc"
  dropout_param {
    dropout_ratio: 0.7
  }
}
layer {
  name: "loss2/classifier_plantvillage"
  type: "InnerProduct"
  bottom: "loss2/fc"
  top: "loss2/classifier_plantvillage"
  param {
    lr_mult: 1
    decay_mult: 1
  }
  param {
    lr_mult: 2
    decay_mult: 0
  }
  inner_product_param {
    num_output: 38
    weight_filler {
      type: "xavier"
      std: 0.0009765625
    }
    bias_filler {
      type: "constant"
      value: 0
    }
  }
}
layer {
  name: "inception_4e/1x1"
  type: "Convolution"
  bottom: "inception_4d/output"
  top: "inception_4e/1x1"
  param {
    lr_mult: 1
    decay_mult: 1
  }
  param {
    lr_mult: 2
    decay_mult: 0
  }
  convolution_param {
    num_output: 256
    kernel_size: 1
    weight_filler {
      type: "xavier"
      std: 0.03
    }
    bias_filler {
      type: "constant"
      value: 0.2
    }
  }
}
layer {
  name: "inception_4e/relu_1x1"
  type: "ReLU"
  bottom: "inception_4e/1x1"
  top: "inception_4e/1x1"
}
layer {
  name: "inception_4e/3x3_reduce"
  type: "Convolution"
  bottom: "inception_4d/output"
  top: "inception_4e/3x3_reduce"
  param {
    lr_mult: 1
    decay_mult: 1
  }
  param {
    lr_mult: 2
    decay_mult: 0
  }
  convolution_param {
    num_output: 160
    kernel_size: 1
    weight_filler {
      type: "xavier"
      std: 0.09
    }
    bias_filler {
      type: "constant"
      value: 0.2
    }
  }
}
layer {
  name: "inception_4e/relu_3x3_reduce"
  type: "ReLU"
  bottom: "inception_4e/3x3_reduce"
  top: "inception_4e/3x3_reduce"
}
layer {
  name: "inception_4e/3x3"
  type: "Convolution"
  bottom: "inception_4e/3x3_reduce"
  top: "inception_4e/3x3"
  param {
    lr_mult: 1
    decay_mult: 1
  }
  param {
    lr_mult: 2
    decay_mult: 0
  }
  convolution_param {
    num_output: 320
    pad: 1
    kernel_size: 3
    weight_filler {
      type: "xavier"
      std: 0.03
    }
    bias_filler {
      type: "constant"
      value: 0.2
    }
  }
}
layer {
  name: "inception_4e/relu_3x3"
  type: "ReLU"
  bottom: "inception_4e/3x3"
  top: "inception_4e/3x3"
}
layer {
  name: "inception_4e/5x5_reduce"
  type: "Convolution"
  bottom: "inception_4d/output"
  top: "inception_4e/5x5_reduce"
  param {
    lr_mult: 1
    decay_mult: 1
  }
  param {
    lr_mult: 2
    decay_mult: 0
  }
  convolution_param {
    num_output: 32
    kernel_size: 1
    weight_filler {
      type: "xavier"
      std: 0.2
    }
    bias_filler {
      type: "constant"
      value: 0.2
    }
  }
}
layer {
  name: "inception_4e/relu_5x5_reduce"
  type: "ReLU"
  bottom: "inception_4e/5x5_reduce"
  top: "inception_4e/5x5_reduce"
}
layer {
  name: "inception_4e/5x5"
  type: "Convolution"
  bottom: "inception_4e/5x5_reduce"
  top: "inception_4e/
I0403 15:12:09.041926 12035 layer_factory.hpp:77] Creating layer data
I0403 15:12:09.042520 12035 net.cpp:91] Creating Layer data
I0403 15:12:09.042553 12035 net.cpp:399] data -> data
I0403 15:12:09.042608 12035 net.cpp:399] data -> label
I0403 15:12:09.042646 12035 data_transformer.cpp:25] Loading mean file from: /home/mohanty/data/final_dataset/lmdb/grayscale-60-40/mean.binaryproto
I0403 15:12:09.045188 12037 db_lmdb.cpp:38] Opened lmdb /home/mohanty/data/final_dataset/lmdb/grayscale-60-40/test_db
I0403 15:12:09.056023 12035 data_layer.cpp:41] output data size: 24,3,224,224
I0403 15:12:09.083339 12035 net.cpp:141] Setting up data
I0403 15:12:09.083433 12035 net.cpp:148] Top shape: 24 3 224 224 (3612672)
I0403 15:12:09.083457 12035 net.cpp:148] Top shape: 24 (24)
I0403 15:12:09.083472 12035 net.cpp:156] Memory required for data: 14450784
I0403 15:12:09.083499 12035 layer_factory.hpp:77] Creating layer label_data_1_split
I0403 15:12:09.083525 12035 net.cpp:91] Creating Layer label_data_1_split
I0403 15:12:09.083542 12035 net.cpp:425] label_data_1_split <- label
I0403 15:12:09.083575 12035 net.cpp:399] label_data_1_split -> label_data_1_split_0
I0403 15:12:09.083601 12035 net.cpp:399] label_data_1_split -> label_data_1_split_1
I0403 15:12:09.083622 12035 net.cpp:399] label_data_1_split -> label_data_1_split_2
I0403 15:12:09.083642 12035 net.cpp:399] label_data_1_split -> label_data_1_split_3
I0403 15:12:09.083662 12035 net.cpp:399] label_data_1_split -> label_data_1_split_4
I0403 15:12:09.083681 12035 net.cpp:399] label_data_1_split -> label_data_1_split_5
I0403 15:12:09.083701 12035 net.cpp:399] label_data_1_split -> label_data_1_split_6
I0403 15:12:09.083722 12035 net.cpp:399] label_data_1_split -> label_data_1_split_7
I0403 15:12:09.083741 12035 net.cpp:399] label_data_1_split -> label_data_1_split_8
I0403 15:12:09.083761 12035 net.cpp:399] label_data_1_split -> label_data_1_split_9
I0403 15:12:09.083873 12035 net.cpp:141] Setting up label_data_1_split
I0403 15:12:09.083897 12035 net.cpp:148] Top shape: 24 (24)
I0403 15:12:09.083914 12035 net.cpp:148] Top shape: 24 (24)
I0403 15:12:09.083930 12035 net.cpp:148] Top shape: 24 (24)
I0403 15:12:09.083945 12035 net.cpp:148] Top shape: 24 (24)
I0403 15:12:09.083961 12035 net.cpp:148] Top shape: 24 (24)
I0403 15:12:09.083976 12035 net.cpp:148] Top shape: 24 (24)
I0403 15:12:09.083991 12035 net.cpp:148] Top shape: 24 (24)
I0403 15:12:09.084005 12035 net.cpp:148] Top shape: 24 (24)
I0403 15:12:09.084020 12035 net.cpp:148] Top shape: 24 (24)
I0403 15:12:09.084036 12035 net.cpp:148] Top shape: 24 (24)
I0403 15:12:09.084080 12035 net.cpp:156] Memory required for data: 14451744
I0403 15:12:09.084096 12035 layer_factory.hpp:77] Creating layer conv1/7x7_s2
I0403 15:12:09.084131 12035 net.cpp:91] Creating Layer conv1/7x7_s2
I0403 15:12:09.084151 12035 net.cpp:425] conv1/7x7_s2 <- data
I0403 15:12:09.084172 12035 net.cpp:399] conv1/7x7_s2 -> conv1/7x7_s2
I0403 15:12:09.226665 12035 net.cpp:141] Setting up conv1/7x7_s2
I0403 15:12:09.226784 12035 net.cpp:148] Top shape: 24 64 112 112 (19267584)
I0403 15:12:09.226806 12035 net.cpp:156] Memory required for data: 91522080
I0403 15:12:09.226846 12035 layer_factory.hpp:77] Creating layer conv1/relu_7x7
I0403 15:12:09.226873 12035 net.cpp:91] Creating Layer conv1/relu_7x7
I0403 15:12:09.226891 12035 net.cpp:425] conv1/relu_7x7 <- conv1/7x7_s2
I0403 15:12:09.226910 12035 net.cpp:386] conv1/relu_7x7 -> conv1/7x7_s2 (in-place)
I0403 15:12:09.227167 12035 net.cpp:141] Setting up conv1/relu_7x7
I0403 15:12:09.227195 12035 net.cpp:148] Top shape: 24 64 112 112 (19267584)
I0403 15:12:09.227210 12035 net.cpp:156] Memory required for data: 168592416
I0403 15:12:09.227226 12035 layer_factory.hpp:77] Creating layer pool1/3x3_s2
I0403 15:12:09.227252 12035 net.cpp:91] Creating Layer pool1/3x3_s2
I0403 15:12:09.227269 12035 net.cpp:425] pool1/3x3_s2 <- conv1/7x7_s2
I0403 15:12:09.227288 12035 net.cpp:399] pool1/3x3_s2 -> pool1/3x3_s2
I0403 15:12:09.227360 12035 net.cpp:141] Setting up pool1/3x3_s2
I0403 15:12:09.227383 12035 net.cpp:148] Top shape: 24 64 56 56 (4816896)
I0403 15:12:09.227398 12035 net.cpp:156] Memory required for data: 187860000
I0403 15:12:09.227413 12035 layer_factory.hpp:77] Creating layer pool1/norm1
I0403 15:12:09.227437 12035 net.cpp:91] Creating Layer pool1/norm1
I0403 15:12:09.227455 12035 net.cpp:425] pool1/norm1 <- pool1/3x3_s2
I0403 15:12:09.227471 12035 net.cpp:399] pool1/norm1 -> pool1/norm1
I0403 15:12:09.227753 12035 net.cpp:141] Setting up pool1/norm1
I0403 15:12:09.227780 12035 net.cpp:148] Top shape: 24 64 56 56 (4816896)
I0403 15:12:09.227797 12035 net.cpp:156] Memory required for data: 207127584
I0403 15:12:09.227812 12035 layer_factory.hpp:77] Creating layer conv2/3x3_reduce
I0403 15:12:09.227835 12035 net.cpp:91] Creating Layer conv2/3x3_reduce
I0403 15:12:09.227854 12035 net.cpp:425] conv2/3x3_reduce <- pool1/norm1
I0403 15:12:09.227874 12035 net.cpp:399] conv2/3x3_reduce -> conv2/3x3_reduce
I0403 15:12:09.229233 12035 net.cpp:141] Setting up conv2/3x3_reduce
I0403 15:12:09.229265 12035 net.cpp:148] Top shape: 24 64 56 56 (4816896)
I0403 15:12:09.229282 12035 net.cpp:156] Memory required for data: 226395168
I0403 15:12:09.229303 12035 layer_factory.hpp:77] Creating layer conv2/relu_3x3_reduce
I0403 15:12:09.229322 12035 net.cpp:91] Creating Layer conv2/relu_3x3_reduce
I0403 15:12:09.229338 12035 net.cpp:425] conv2/relu_3x3_reduce <- conv2/3x3_reduce
I0403 15:12:09.229356 12035 net.cpp:386] conv2/relu_3x3_reduce -> conv2/3x3_reduce (in-place)
I0403 15:12:09.229606 12035 net.cpp:141] Setting up conv2/relu_3x3_reduce
I0403 15:12:09.229634 12035 net.cpp:148] Top shape: 24 64 56 56 (4816896)
I0403 15:12:09.229648 12035 net.cpp:156] Memory required for data: 245662752
I0403 15:12:09.229662 12035 layer_factory.hpp:77] Creating layer conv2/3x3
I0403 15:12:09.229686 12035 net.cpp:91] Creating Layer conv2/3x3
I0403 15:12:09.229701 12035 net.cpp:425] conv2/3x3 <- conv2/3x3_reduce
I0403 15:12:09.229720 12035 net.cpp:399] conv2/3x3 -> conv2/3x3
I0403 15:12:09.231912 12035 net.cpp:141] Setting up conv2/3x3
I0403 15:12:09.231943 12035 net.cpp:148] Top shape: 24 192 56 56 (14450688)
I0403 15:12:09.231958 12035 net.cpp:156] Memory required for data: 303465504
I0403 15:12:09.231979 12035 layer_factory.hpp:77] Creating layer conv2/relu_3x3
I0403 15:12:09.231999 12035 net.cpp:91] Creating Layer conv2/relu_3x3
I0403 15:12:09.232017 12035 net.cpp:425] conv2/relu_3x3 <- conv2/3x3
I0403 15:12:09.232033 12035 net.cpp:386] conv2/relu_3x3 -> conv2/3x3 (in-place)
I0403 15:12:09.232208 12035 net.cpp:141] Setting up conv2/relu_3x3
I0403 15:12:09.232235 12035 net.cpp:148] Top shape: 24 192 56 56 (14450688)
I0403 15:12:09.232280 12035 net.cpp:156] Memory required for data: 361268256
I0403 15:12:09.232295 12035 layer_factory.hpp:77] Creating layer conv2/norm2
I0403 15:12:09.232313 12035 net.cpp:91] Creating Layer conv2/norm2
I0403 15:12:09.232328 12035 net.cpp:425] conv2/norm2 <- conv2/3x3
I0403 15:12:09.232347 12035 net.cpp:399] conv2/norm2 -> conv2/norm2
I0403 15:12:09.232650 12035 net.cpp:141] Setting up conv2/norm2
I0403 15:12:09.232677 12035 net.cpp:148] Top shape: 24 192 56 56 (14450688)
I0403 15:12:09.232692 12035 net.cpp:156] Memory required for data: 419071008
I0403 15:12:09.232708 12035 layer_factory.hpp:77] Creating layer pool2/3x3_s2
I0403 15:12:09.232728 12035 net.cpp:91] Creating Layer pool2/3x3_s2
I0403 15:12:09.232743 12035 net.cpp:425] pool2/3x3_s2 <- conv2/norm2
I0403 15:12:09.232764 12035 net.cpp:399] pool2/3x3_s2 -> pool2/3x3_s2
I0403 15:12:09.232820 12035 net.cpp:141] Setting up pool2/3x3_s2
I0403 15:12:09.232843 12035 net.cpp:148] Top shape: 24 192 28 28 (3612672)
I0403 15:12:09.232857 12035 net.cpp:156] Memory required for data: 433521696
I0403 15:12:09.232872 12035 layer_factory.hpp:77] Creating layer pool2/3x3_s2_pool2/3x3_s2_0_split
I0403 15:12:09.232892 12035 net.cpp:91] Creating Layer pool2/3x3_s2_pool2/3x3_s2_0_split
I0403 15:12:09.232908 12035 net.cpp:425] pool2/3x3_s2_pool2/3x3_s2_0_split <- pool2/3x3_s2
I0403 15:12:09.232924 12035 net.cpp:399] pool2/3x3_s2_pool2/3x3_s2_0_split -> pool2/3x3_s2_pool2/3x3_s2_0_split_0
I0403 15:12:09.232947 12035 net.cpp:399] pool2/3x3_s2_pool2/3x3_s2_0_split -> pool2/3x3_s2_pool2/3x3_s2_0_split_1
I0403 15:12:09.232966 12035 net.cpp:399] pool2/3x3_s2_pool2/3x3_s2_0_split -> pool2/3x3_s2_pool2/3x3_s2_0_split_2
I0403 15:12:09.232985 12035 net.cpp:399] pool2/3x3_s2_pool2/3x3_s2_0_split -> pool2/3x3_s2_pool2/3x3_s2_0_split_3
I0403 15:12:09.233052 12035 net.cpp:141] Setting up pool2/3x3_s2_pool2/3x3_s2_0_split
I0403 15:12:09.233075 12035 net.cpp:148] Top shape: 24 192 28 28 (3612672)
I0403 15:12:09.233093 12035 net.cpp:148] Top shape: 24 192 28 28 (3612672)
I0403 15:12:09.233108 12035 net.cpp:148] Top shape: 24 192 28 28 (3612672)
I0403 15:12:09.233124 12035 net.cpp:148] Top shape: 24 192 28 28 (3612672)
I0403 15:12:09.233150 12035 net.cpp:156] Memory required for data: 491324448
I0403 15:12:09.233166 12035 layer_factory.hpp:77] Creating layer inception_3a/1x1
I0403 15:12:09.233188 12035 net.cpp:91] Creating Layer inception_3a/1x1
I0403 15:12:09.233204 12035 net.cpp:425] inception_3a/1x1 <- pool2/3x3_s2_pool2/3x3_s2_0_split_0
I0403 15:12:09.233227 12035 net.cpp:399] inception_3a/1x1 -> inception_3a/1x1
I0403 15:12:09.234726 12035 net.cpp:141] Setting up inception_3a/1x1
I0403 15:12:09.234756 12035 net.cpp:148] Top shape: 24 64 28 28 (1204224)
I0403 15:12:09.234772 12035 net.cpp:156] Memory required for data: 496141344
I0403 15:12:09.234791 12035 layer_factory.hpp:77] Creating layer inception_3a/relu_1x1
I0403 15:12:09.234810 12035 net.cpp:91] Creating Layer inception_3a/relu_1x1
I0403 15:12:09.234827 12035 net.cpp:425] inception_3a/relu_1x1 <- inception_3a/1x1
I0403 15:12:09.234844 12035 net.cpp:386] inception_3a/relu_1x1 -> inception_3a/1x1 (in-place)
I0403 15:12:09.235013 12035 net.cpp:141] Setting up inception_3a/relu_1x1
I0403 15:12:09.235040 12035 net.cpp:148] Top shape: 24 64 28 28 (1204224)
I0403 15:12:09.235054 12035 net.cpp:156] Memory required for data: 500958240
I0403 15:12:09.235069 12035 layer_factory.hpp:77] Creating layer inception_3a/3x3_reduce
I0403 15:12:09.235090 12035 net.cpp:91] Creating Layer inception_3a/3x3_reduce
I0403 15:12:09.235108 12035 net.cpp:425] inception_3a/3x3_reduce <- pool2/3x3_s2_pool2/3x3_s2_0_split_1
I0403 15:12:09.235131 12035 net.cpp:399] inception_3a/3x3_reduce -> inception_3a/3x3_reduce
I0403 15:12:09.236780 12035 net.cpp:141] Setting up inception_3a/3x3_reduce
I0403 15:12:09.236809 12035 net.cpp:148] Top shape: 24 96 28 28 (1806336)
I0403 15:12:09.236824 12035 net.cpp:156] Memory required for data: 508183584
I0403 15:12:09.236845 12035 layer_factory.hpp:77] Creating layer inception_3a/relu_3x3_reduce
I0403 15:12:09.236882 12035 net.cpp:91] Creating Layer inception_3a/relu_3x3_reduce
I0403 15:12:09.236902 12035 net.cpp:425] inception_3a/relu_3x3_reduce <- inception_3a/3x3_reduce
I0403 15:12:09.236919 12035 net.cpp:386] inception_3a/relu_3x3_reduce -> inception_3a/3x3_reduce (in-place)
I0403 15:12:09.237100 12035 net.cpp:141] Setting up inception_3a/relu_3x3_reduce
I0403 15:12:09.237131 12035 net.cpp:148] Top shape: 24 96 28 28 (1806336)
I0403 15:12:09.237148 12035 net.cpp:156] Memory required for data: 515408928
I0403 15:12:09.237164 12035 layer_factory.hpp:77] Creating layer inception_3a/3x3
I0403 15:12:09.237186 12035 net.cpp:91] Creating Layer inception_3a/3x3
I0403 15:12:09.237203 12035 net.cpp:425] inception_3a/3x3 <- inception_3a/3x3_reduce
I0403 15:12:09.237226 12035 net.cpp:399] inception_3a/3x3 -> inception_3a/3x3
I0403 15:12:09.238844 12035 net.cpp:141] Setting up inception_3a/3x3
I0403 15:12:09.238873 12035 net.cpp:148] Top shape: 24 128 28 28 (2408448)
I0403 15:12:09.238889 12035 net.cpp:156] Memory required for data: 525042720
I0403 15:12:09.238908 12035 layer_factory.hpp:77] Creating layer inception_3a/relu_3x3
I0403 15:12:09.238927 12035 net.cpp:91] Creating Layer inception_3a/relu_3x3
I0403 15:12:09.238945 12035 net.cpp:425] inception_3a/relu_3x3 <- inception_3a/3x3
I0403 15:12:09.238961 12035 net.cpp:386] inception_3a/relu_3x3 -> inception_3a/3x3 (in-place)
I0403 15:12:09.239234 12035 net.cpp:141] Setting up inception_3a/relu_3x3
I0403 15:12:09.239261 12035 net.cpp:148] Top shape: 24 128 28 28 (2408448)
I0403 15:12:09.239279 12035 net.cpp:156] Memory required for data: 534676512
I0403 15:12:09.239294 12035 layer_factory.hpp:77] Creating layer inception_3a/5x5_reduce
I0403 15:12:09.239316 12035 net.cpp:91] Creating Layer inception_3a/5x5_reduce
I0403 15:12:09.239337 12035 net.cpp:425] inception_3a/5x5_reduce <- pool2/3x3_s2_pool2/3x3_s2_0_split_2
I0403 15:12:09.239357 12035 net.cpp:399] inception_3a/5x5_reduce -> inception_3a/5x5_reduce
I0403 15:12:09.240304 12035 net.cpp:141] Setting up inception_3a/5x5_reduce
I0403 15:12:09.240334 12035 net.cpp:148] Top shape: 24 16 28 28 (301056)
I0403 15:12:09.240352 12035 net.cpp:156] Memory required for data: 535880736
I0403 15:12:09.240370 12035 layer_factory.hpp:77] Creating layer inception_3a/relu_5x5_reduce
I0403 15:12:09.240391 12035 net.cpp:91] Creating Layer inception_3a/relu_5x5_reduce
I0403 15:12:09.240407 12035 net.cpp:425] inception_3a/relu_5x5_reduce <- inception_3a/5x5_reduce
I0403 15:12:09.240425 12035 net.cpp:386] inception_3a/relu_5x5_reduce -> inception_3a/5x5_reduce (in-place)
I0403 15:12:09.240715 12035 net.cpp:141] Setting up inception_3a/relu_5x5_reduce
I0403 15:12:09.240744 12035 net.cpp:148] Top shape: 24 16 28 28 (301056)
I0403 15:12:09.240761 12035 net.cpp:156] Memory required for data: 537084960
I0403 15:12:09.240775 12035 layer_factory.hpp:77] Creating layer inception_3a/5x5
I0403 15:12:09.240797 12035 net.cpp:91] Creating Layer inception_3a/5x5
I0403 15:12:09.240814 12035 net.cpp:425] inception_3a/5x5 <- inception_3a/5x5_reduce
I0403 15:12:09.240833 12035 net.cpp:399] inception_3a/5x5 -> inception_3a/5x5
I0403 15:12:09.241827 12035 net.cpp:141] Setting up inception_3a/5x5
I0403 15:12:09.241854 12035 net.cpp:148] Top shape: 24 32 28 28 (602112)
I0403 15:12:09.241869 12035 net.cpp:156] Memory required for data: 539493408
I0403 15:12:09.241888 12035 layer_factory.hpp:77] Creating layer inception_3a/relu_5x5
I0403 15:12:09.241907 12035 net.cpp:91] Creating Layer inception_3a/relu_5x5
I0403 15:12:09.241924 12035 net.cpp:425] inception_3a/relu_5x5 <- inception_3a/5x5
I0403 15:12:09.241941 12035 net.cpp:386] inception_3a/relu_5x5 -> inception_3a/5x5 (in-place)
I0403 15:12:09.242111 12035 net.cpp:141] Setting up inception_3a/relu_5x5
I0403 15:12:09.242141 12035 net.cpp:148] Top shape: 24 32 28 28 (602112)
I0403 15:12:09.242159 12035 net.cpp:156] Memory required for data: 541901856
I0403 15:12:09.242173 12035 layer_factory.hpp:77] Creating layer inception_3a/pool
I0403 15:12:09.242193 12035 net.cpp:91] Creating Layer inception_3a/pool
I0403 15:12:09.242225 12035 net.cpp:425] inception_3a/pool <- pool2/3x3_s2_pool2/3x3_s2_0_split_3
I0403 15:12:09.242244 12035 net.cpp:399] inception_3a/pool -> inception_3a/pool
I0403 15:12:09.242305 12035 net.cpp:141] Setting up inception_3a/pool
I0403 15:12:09.242329 12035 net.cpp:148] Top shape: 24 192 28 28 (3612672)
I0403 15:12:09.242343 12035 net.cpp:156] Memory required for data: 556352544
I0403 15:12:09.242359 12035 layer_factory.hpp:77] Creating layer inception_3a/pool_proj
I0403 15:12:09.242383 12035 net.cpp:91] Creating Layer inception_3a/pool_proj
I0403 15:12:09.242399 12035 net.cpp:425] inception_3a/pool_proj <- inception_3a/pool
I0403 15:12:09.242420 12035 net.cpp:399] inception_3a/pool_proj -> inception_3a/pool_proj
I0403 15:12:09.243389 12035 net.cpp:141] Setting up inception_3a/pool_proj
I0403 15:12:09.243420 12035 net.cpp:148] Top shape: 24 32 28 28 (602112)
I0403 15:12:09.243438 12035 net.cpp:156] Memory required for data: 558760992
I0403 15:12:09.243458 12035 layer_factory.hpp:77] Creating layer inception_3a/relu_pool_proj
I0403 15:12:09.243480 12035 net.cpp:91] Creating Layer inception_3a/relu_pool_proj
I0403 15:12:09.243495 12035 net.cpp:425] inception_3a/relu_pool_proj <- inception_3a/pool_proj
I0403 15:12:09.243512 12035 net.cpp:386] inception_3a/relu_pool_proj -> inception_3a/pool_proj (in-place)
I0403 15:12:09.243790 12035 net.cpp:141] Setting up inception_3a/relu_pool_proj
I0403 15:12:09.243816 12035 net.cpp:148] Top shape: 24 32 28 28 (602112)
I0403 15:12:09.243832 12035 net.cpp:156] Memory required for data: 561169440
I0403 15:12:09.243847 12035 layer_factory.hpp:77] Creating layer inception_3a/output
I0403 15:12:09.243867 12035 net.cpp:91] Creating Layer inception_3a/output
I0403 15:12:09.243885 12035 net.cpp:425] inception_3a/output <- inception_3a/1x1
I0403 15:12:09.243901 12035 net.cpp:425] inception_3a/output <- inception_3a/3x3
I0403 15:12:09.243916 12035 net.cpp:425] inception_3a/output <- inception_3a/5x5
I0403 15:12:09.243932 12035 net.cpp:425] inception_3a/output <- inception_3a/pool_proj
I0403 15:12:09.243949 12035 net.cpp:399] inception_3a/output -> inception_3a/output
I0403 15:12:09.243998 12035 net.cpp:141] Setting up inception_3a/output
I0403 15:12:09.244020 12035 net.cpp:148] Top shape: 24 256 28 28 (4816896)
I0403 15:12:09.244035 12035 net.cpp:156] Memory required for data: 580437024
I0403 15:12:09.244050 12035 layer_factory.hpp:77] Creating layer inception_3a/output_inception_3a/output_0_split
I0403 15:12:09.244066 12035 net.cpp:91] Creating Layer inception_3a/output_inception_3a/output_0_split
I0403 15:12:09.244081 12035 net.cpp:425] inception_3a/output_inception_3a/output_0_split <- inception_3a/output
I0403 15:12:09.244102 12035 net.cpp:399] inception_3a/output_inception_3a/output_0_split -> inception_3a/output_inception_3a/output_0_split_0
I0403 15:12:09.244122 12035 net.cpp:399] inception_3a/output_inception_3a/output_0_split -> inception_3a/output_inception_3a/output_0_split_1
I0403 15:12:09.244151 12035 net.cpp:399] inception_3a/output_inception_3a/output_0_split -> inception_3a/output_inception_3a/output_0_split_2
I0403 15:12:09.244174 12035 net.cpp:399] inception_3a/output_inception_3a/output_0_split -> inception_3a/output_inception_3a/output_0_split_3
I0403 15:12:09.244249 12035 net.cpp:141] Setting up inception_3a/output_inception_3a/output_0_split
I0403 15:12:09.244273 12035 net.cpp:148] Top shape: 24 256 28 28 (4816896)
I0403 15:12:09.244292 12035 net.cpp:148] Top shape: 24 256 28 28 (4816896)
I0403 15:12:09.244308 12035 net.cpp:148] Top shape: 24 256 28 28 (4816896)
I0403 15:12:09.244324 12035 net.cpp:148] Top shape: 24 256 28 28 (4816896)
I0403 15:12:09.244340 12035 net.cpp:156] Memory required for data: 657507360
I0403 15:12:09.244357 12035 layer_factory.hpp:77] Creating layer inception_3b/1x1
I0403 15:12:09.244379 12035 net.cpp:91] Creating Layer inception_3b/1x1
I0403 15:12:09.244397 12035 net.cpp:425] inception_3b/1x1 <- inception_3a/output_inception_3a/output_0_split_0
I0403 15:12:09.244418 12035 net.cpp:399] inception_3b/1x1 -> inception_3b/1x1
I0403 15:12:09.245565 12035 net.cpp:141] Setting up inception_3b/1x1
I0403 15:12:09.245604 12035 net.cpp:148] Top shape: 24 128 28 28 (2408448)
I0403 15:12:09.245620 12035 net.cpp:156] Memory required for data: 667141152
I0403 15:12:09.245638 12035 layer_factory.hpp:77] Creating layer inception_3b/relu_1x1
I0403 15:12:09.245656 12035 net.cpp:91] Creating Layer inception_3b/relu_1x1
I0403 15:12:09.245671 12035 net.cpp:425] inception_3b/relu_1x1 <- inception_3b/1x1
I0403 15:12:09.245692 12035 net.cpp:386] inception_3b/relu_1x1 -> inception_3b/1x1 (in-place)
I0403 15:12:09.245864 12035 net.cpp:141] Setting up inception_3b/relu_1x1
I0403 15:12:09.245890 12035 net.cpp:148] Top shape: 24 128 28 28 (2408448)
I0403 15:12:09.245905 12035 net.cpp:156] Memory required for data: 676774944
I0403 15:12:09.245920 12035 layer_factory.hpp:77] Creating layer inception_3b/3x3_reduce
I0403 15:12:09.245944 12035 net.cpp:91] Creating Layer inception_3b/3x3_reduce
I0403 15:12:09.245960 12035 net.cpp:425] inception_3b/3x3_reduce <- inception_3a/output_inception_3a/output_0_split_1
I0403 15:12:09.245981 12035 net.cpp:399] inception_3b/3x3_reduce -> inception_3b/3x3_reduce
I0403 15:12:09.247153 12035 net.cpp:141] Setting up inception_3b/3x3_reduce
I0403 15:12:09.247184 12035 net.cpp:148] Top shape: 24 128 28 28 (2408448)
I0403 15:12:09.247200 12035 net.cpp:156] Memory required for data: 686408736
I0403 15:12:09.247217 12035 layer_factory.hpp:77] Creating layer inception_3b/relu_3x3_reduce
I0403 15:12:09.247237 12035 net.cpp:91] Creating Layer inception_3b/relu_3x3_reduce
I0403 15:12:09.247258 12035 net.cpp:425] inception_3b/relu_3x3_reduce <- inception_3b/3x3_reduce
I0403 15:12:09.247277 12035 net.cpp:386] inception_3b/relu_3x3_reduce -> inception_3b/3x3_reduce (in-place)
I0403 15:12:09.247449 12035 net.cpp:141] Setting up inception_3b/relu_3x3_reduce
I0403 15:12:09.247475 12035 net.cpp:148] Top shape: 24 128 28 28 (2408448)
I0403 15:12:09.247489 12035 net.cpp:156] Memory required for data: 696042528
I0403 15:12:09.247504 12035 layer_factory.hpp:77] Creating layer inception_3b/3x3
I0403 15:12:09.247529 12035 net.cpp:91] Creating Layer inception_3b/3x3
I0403 15:12:09.247547 12035 net.cpp:425] inception_3b/3x3 <- inception_3b/3x3_reduce
I0403 15:12:09.247566 12035 net.cpp:399] inception_3b/3x3 -> inception_3b/3x3
I0403 15:12:09.250488 12035 net.cpp:141] Setting up inception_3b/3x3
I0403 15:12:09.250517 12035 net.cpp:148] Top shape: 24 192 28 28 (3612672)
I0403 15:12:09.250533 12035 net.cpp:156] Memory required for data: 710493216
I0403 15:12:09.250551 12035 layer_factory.hpp:77] Creating layer inception_3b/relu_3x3
I0403 15:12:09.250572 12035 net.cpp:91] Creating Layer inception_3b/relu_3x3
I0403 15:12:09.250589 12035 net.cpp:425] inception_3b/relu_3x3 <- inception_3b/3x3
I0403 15:12:09.250607 12035 net.cpp:386] inception_3b/relu_3x3 -> inception_3b/3x3 (in-place)
I0403 15:12:09.250896 12035 net.cpp:141] Setting up inception_3b/relu_3x3
I0403 15:12:09.250922 12035 net.cpp:148] Top shape: 24 192 28 28 (3612672)
I0403 15:12:09.250937 12035 net.cpp:156] Memory required for data: 724943904
I0403 15:12:09.250952 12035 layer_factory.hpp:77] Creating layer inception_3b/5x5_reduce
I0403 15:12:09.250974 12035 net.cpp:91] Creating Layer inception_3b/5x5_reduce
I0403 15:12:09.250993 12035 net.cpp:425] inception_3b/5x5_reduce <- inception_3a/output_inception_3a/output_0_split_2
I0403 15:12:09.251014 12035 net.cpp:399] inception_3b/5x5_reduce -> inception_3b/5x5_reduce
I0403 15:12:09.252007 12035 net.cpp:141] Setting up inception_3b/5x5_reduce
I0403 15:12:09.252035 12035 net.cpp:148] Top shape: 24 32 28 28 (602112)
I0403 15:12:09.252051 12035 net.cpp:156] Memory required for data: 727352352
I0403 15:12:09.252070 12035 layer_factory.hpp:77] Creating layer inception_3b/relu_5x5_reduce
I0403 15:12:09.252089 12035 net.cpp:91] Creating Layer inception_3b/relu_5x5_reduce
I0403 15:12:09.252105 12035 net.cpp:425] inception_3b/relu_5x5_reduce <- inception_3b/5x5_reduce
I0403 15:12:09.252121 12035 net.cpp:386] inception_3b/relu_5x5_reduce -> inception_3b/5x5_reduce (in-place)
I0403 15:12:09.252318 12035 net.cpp:141] Setting up inception_3b/relu_5x5_reduce
I0403 15:12:09.252343 12035 net.cpp:148] Top shape: 24 32 28 28 (602112)
I0403 15:12:09.252358 12035 net.cpp:156] Memory required for data: 729760800
I0403 15:12:09.252373 12035 layer_factory.hpp:77] Creating layer inception_3b/5x5
I0403 15:12:09.252398 12035 net.cpp:91] Creating Layer inception_3b/5x5
I0403 15:12:09.252414 12035 net.cpp:425] inception_3b/5x5 <- inception_3b/5x5_reduce
I0403 15:12:09.252434 12035 net.cpp:399] inception_3b/5x5 -> inception_3b/5x5
I0403 15:12:09.254393 12035 net.cpp:141] Setting up inception_3b/5x5
I0403 15:12:09.254423 12035 net.cpp:148] Top shape: 24 96 28 28 (1806336)
I0403 15:12:09.254441 12035 net.cpp:156] Memory required for data: 736986144
I0403 15:12:09.254459 12035 layer_factory.hpp:77] Creating layer inception_3b/relu_5x5
I0403 15:12:09.254477 12035 net.cpp:91] Creating Layer inception_3b/relu_5x5
I0403 15:12:09.254493 12035 net.cpp:425] inception_3b/relu_5x5 <- inception_3b/5x5
I0403 15:12:09.254513 12035 net.cpp:386] inception_3b/relu_5x5 -> inception_3b/5x5 (in-place)
I0403 15:12:09.254720 12035 net.cpp:141] Setting up inception_3b/relu_5x5
I0403 15:12:09.254747 12035 net.cpp:148] Top shape: 24 96 28 28 (1806336)
I0403 15:12:09.254762 12035 net.cpp:156] Memory required for data: 744211488
I0403 15:12:09.254778 12035 layer_factory.hpp:77] Creating layer inception_3b/pool
I0403 15:12:09.254796 12035 net.cpp:91] Creating Layer inception_3b/pool
I0403 15:12:09.254812 12035 net.cpp:425] inception_3b/pool <- inception_3a/output_inception_3a/output_0_split_3
I0403 15:12:09.254830 12035 net.cpp:399] inception_3b/pool -> inception_3b/pool
I0403 15:12:09.254887 12035 net.cpp:141] Setting up inception_3b/pool
I0403 15:12:09.254912 12035 net.cpp:148] Top shape: 24 256 28 28 (4816896)
I0403 15:12:09.254927 12035 net.cpp:156] Memory required for data: 763479072
I0403 15:12:09.254942 12035 layer_factory.hpp:77] Creating layer inception_3b/pool_proj
I0403 15:12:09.254964 12035 net.cpp:91] Creating Layer inception_3b/pool_proj
I0403 15:12:09.254981 12035 net.cpp:425] inception_3b/pool_proj <- inception_3b/pool
I0403 15:12:09.255002 12035 net.cpp:399] inception_3b/pool_proj -> inception_3b/pool_proj
I0403 15:12:09.256045 12035 net.cpp:141] Setting up inception_3b/pool_proj
I0403 15:12:09.256075 12035 net.cpp:148] Top shape: 24 64 28 28 (1204224)
I0403 15:12:09.256093 12035 net.cpp:156] Memory required for data: 768295968
I0403 15:12:09.256113 12035 layer_factory.hpp:77] Creating layer inception_3b/relu_pool_proj
I0403 15:12:09.256134 12035 net.cpp:91] Creating Layer inception_3b/relu_pool_proj
I0403 15:12:09.256152 12035 net.cpp:425] inception_3b/relu_pool_proj <- inception_3b/pool_proj
I0403 15:12:09.256173 12035 net.cpp:386] inception_3b/relu_pool_proj -> inception_3b/pool_proj (in-place)
I0403 15:12:09.256559 12035 net.cpp:141] Setting up inception_3b/relu_pool_proj
I0403 15:12:09.256588 12035 net.cpp:148] Top shape: 24 64 28 28 (1204224)
I0403 15:12:09.256604 12035 net.cpp:156] Memory required for data: 773112864
I0403 15:12:09.256618 12035 layer_factory.hpp:77] Creating layer inception_3b/output
I0403 15:12:09.256636 12035 net.cpp:91] Creating Layer inception_3b/output
I0403 15:12:09.256651 12035 net.cpp:425] inception_3b/output <- inception_3b/1x1
I0403 15:12:09.256669 12035 net.cpp:425] inception_3b/output <- inception_3b/3x3
I0403 15:12:09.256685 12035 net.cpp:425] inception_3b/output <- inception_3b/5x5
I0403 15:12:09.256700 12035 net.cpp:425] inception_3b/output <- inception_3b/pool_proj
I0403 15:12:09.256716 12035 net.cpp:399] inception_3b/output -> inception_3b/output
I0403 15:12:09.256762 12035 net.cpp:141] Setting up inception_3b/output
I0403 15:12:09.256784 12035 net.cpp:148] Top shape: 24 480 28 28 (9031680)
I0403 15:12:09.256799 12035 net.cpp:156] Memory required for data: 809239584
I0403 15:12:09.256814 12035 layer_factory.hpp:77] Creating layer pool3/3x3_s2
I0403 15:12:09.256834 12035 net.cpp:91] Creating Layer pool3/3x3_s2
I0403 15:12:09.256850 12035 net.cpp:425] pool3/3x3_s2 <- inception_3b/output
I0403 15:12:09.256883 12035 net.cpp:399] pool3/3x3_s2 -> pool3/3x3_s2
I0403 15:12:09.256942 12035 net.cpp:141] Setting up pool3/3x3_s2
I0403 15:12:09.256968 12035 net.cpp:148] Top shape: 24 480 14 14 (2257920)
I0403 15:12:09.256983 12035 net.cpp:156] Memory required for data: 818271264
I0403 15:12:09.256997 12035 layer_factory.hpp:77] Creating layer pool3/3x3_s2_pool3/3x3_s2_0_split
I0403 15:12:09.257014 12035 net.cpp:91] Creating Layer pool3/3x3_s2_pool3/3x3_s2_0_split
I0403 15:12:09.257030 12035 net.cpp:425] pool3/3x3_s2_pool3/3x3_s2_0_split <- pool3/3x3_s2
I0403 15:12:09.257048 12035 net.cpp:399] pool3/3x3_s2_pool3/3x3_s2_0_split -> pool3/3x3_s2_pool3/3x3_s2_0_split_0
I0403 15:12:09.257069 12035 net.cpp:399] pool3/3x3_s2_pool3/3x3_s2_0_split -> pool3/3x3_s2_pool3/3x3_s2_0_split_1
I0403 15:12:09.257100 12035 net.cpp:399] pool3/3x3_s2_pool3/3x3_s2_0_split -> pool3/3x3_s2_pool3/3x3_s2_0_split_2
I0403 15:12:09.257122 12035 net.cpp:399] pool3/3x3_s2_pool3/3x3_s2_0_split -> pool3/3x3_s2_pool3/3x3_s2_0_split_3
I0403 15:12:09.257210 12035 net.cpp:141] Setting up pool3/3x3_s2_pool3/3x3_s2_0_split
I0403 15:12:09.257233 12035 net.cpp:148] Top shape: 24 480 14 14 (2257920)
I0403 15:12:09.257251 12035 net.cpp:148] Top shape: 24 480 14 14 (2257920)
I0403 15:12:09.257266 12035 net.cpp:148] Top shape: 24 480 14 14 (2257920)
I0403 15:12:09.257282 12035 net.cpp:148] Top shape: 24 480 14 14 (2257920)
I0403 15:12:09.257297 12035 net.cpp:156] Memory required for data: 854397984
I0403 15:12:09.257313 12035 layer_factory.hpp:77] Creating layer inception_4a/1x1
I0403 15:12:09.257336 12035 net.cpp:91] Creating Layer inception_4a/1x1
I0403 15:12:09.257355 12035 net.cpp:425] inception_4a/1x1 <- pool3/3x3_s2_pool3/3x3_s2_0_split_0
I0403 15:12:09.257375 12035 net.cpp:399] inception_4a/1x1 -> inception_4a/1x1
I0403 15:12:09.258978 12035 net.cpp:141] Setting up inception_4a/1x1
I0403 15:12:09.259009 12035 net.cpp:148] Top shape: 24 192 14 14 (903168)
I0403 15:12:09.259026 12035 net.cpp:156] Memory required for data: 858010656
I0403 15:12:09.259043 12035 layer_factory.hpp:77] Creating layer inception_4a/relu_1x1
I0403 15:12:09.259064 12035 net.cpp:91] Creating Layer inception_4a/relu_1x1
I0403 15:12:09.259079 12035 net.cpp:425] inception_4a/relu_1x1 <- inception_4a/1x1
I0403 15:12:09.259099 12035 net.cpp:386] inception_4a/relu_1x1 -> inception_4a/1x1 (in-place)
I0403 15:12:09.259279 12035 net.cpp:141] Setting up inception_4a/relu_1x1
I0403 15:12:09.259306 12035 net.cpp:148] Top shape: 24 192 14 14 (903168)
I0403 15:12:09.259322 12035 net.cpp:156] Memory required for data: 861623328
I0403 15:12:09.259337 12035 layer_factory.hpp:77] Creating layer inception_4a/3x3_reduce
I0403 15:12:09.259361 12035 net.cpp:91] Creating Layer inception_4a/3x3_reduce
I0403 15:12:09.259378 12035 net.cpp:425] inception_4a/3x3_reduce <- pool3/3x3_s2_pool3/3x3_s2_0_split_1
I0403 15:12:09.259399 12035 net.cpp:399] inception_4a/3x3_reduce -> inception_4a/3x3_reduce
I0403 15:12:09.260655 12035 net.cpp:141] Setting up inception_4a/3x3_reduce
I0403 15:12:09.260687 12035 net.cpp:148] Top shape: 24 96 14 14 (451584)
I0403 15:12:09.260705 12035 net.cpp:156] Memory required for data: 863429664
I0403 15:12:09.260727 12035 layer_factory.hpp:77] Creating layer inception_4a/relu_3x3_reduce
I0403 15:12:09.260749 12035 net.cpp:91] Creating Layer inception_4a/relu_3x3_reduce
I0403 15:12:09.260766 12035 net.cpp:425] inception_4a/relu_3x3_reduce <- inception_4a/3x3_reduce
I0403 15:12:09.260783 12035 net.cpp:386] inception_4a/relu_3x3_reduce -> inception_4a/3x3_reduce (in-place)
I0403 15:12:09.260958 12035 net.cpp:141] Setting up inception_4a/relu_3x3_reduce
I0403 15:12:09.260984 12035 net.cpp:148] Top shape: 24 96 14 14 (451584)
I0403 15:12:09.260998 12035 net.cpp:156] Memory required for data: 865236000
I0403 15:12:09.261013 12035 layer_factory.hpp:77] Creating layer inception_4a/3x3
I0403 15:12:09.261035 12035 net.cpp:91] Creating Layer inception_4a/3x3
I0403 15:12:09.261052 12035 net.cpp:425] inception_4a/3x3 <- inception_4a/3x3_reduce
I0403 15:12:09.261075 12035 net.cpp:399] inception_4a/3x3 -> inception_4a/3x3
I0403 15:12:09.263736 12035 net.cpp:141] Setting up inception_4a/3x3
I0403 15:12:09.263764 12035 net.cpp:148] Top shape: 24 208 14 14 (978432)
I0403 15:12:09.263779 12035 net.cpp:156] Memory required for data: 869149728
I0403 15:12:09.263797 12035 layer_factory.hpp:77] Creating layer inception_4a/relu_3x3
I0403 15:12:09.263818 12035 net.cpp:91] Creating Layer inception_4a/relu_3x3
I0403 15:12:09.263834 12035 net.cpp:425] inception_4a/relu_3x3 <- inception_4a/3x3
I0403 15:12:09.263852 12035 net.cpp:386] inception_4a/relu_3x3 -> inception_4a/3x3 (in-place)
I0403 15:12:09.264118 12035 net.cpp:141] Setting up inception_4a/relu_3x3
I0403 15:12:09.264148 12035 net.cpp:148] Top shape: 24 208 14 14 (978432)
I0403 15:12:09.264163 12035 net.cpp:156] Memory required for data: 873063456
I0403 15:12:09.264178 12035 layer_factory.hpp:77] Creating layer inception_4a/5x5_reduce
I0403 15:12:09.264200 12035 net.cpp:91] Creating Layer inception_4a/5x5_reduce
I0403 15:12:09.264217 12035 net.cpp:425] inception_4a/5x5_reduce <- pool3/3x3_s2_pool3/3x3_s2_0_split_2
I0403 15:12:09.264237 12035 net.cpp:399] inception_4a/5x5_reduce -> inception_4a/5x5_reduce
I0403 15:12:09.265214 12035 net.cpp:141] Setting up inception_4a/5x5_reduce
I0403 15:12:09.265241 12035 net.cpp:148] Top shape: 24 16 14 14 (75264)
I0403 15:12:09.265256 12035 net.cpp:156] Memory required for data: 873364512
I0403 15:12:09.265275 12035 layer_factory.hpp:77] Creating layer inception_4a/relu_5x5_reduce
I0403 15:12:09.265295 12035 net.cpp:91] Creating Layer inception_4a/relu_5x5_reduce
I0403 15:12:09.265311 12035 net.cpp:425] inception_4a/relu_5x5_reduce <- inception_4a/5x5_reduce
I0403 15:12:09.265326 12035 net.cpp:386] inception_4a/relu_5x5_reduce -> inception_4a/5x5_reduce (in-place)
I0403 15:12:09.265501 12035 net.cpp:141] Setting up inception_4a/relu_5x5_reduce
I0403 15:12:09.265527 12035 net.cpp:148] Top shape: 24 16 14 14 (75264)
I0403 15:12:09.265542 12035 net.cpp:156] Memory required for data: 873665568
I0403 15:12:09.265557 12035 layer_factory.hpp:77] Creating layer inception_4a/5x5
I0403 15:12:09.265583 12035 net.cpp:91] Creating Layer inception_4a/5x5
I0403 15:12:09.265602 12035 net.cpp:425] inception_4a/5x5 <- inception_4a/5x5_reduce
I0403 15:12:09.265621 12035 net.cpp:399] inception_4a/5x5 -> inception_4a/5x5
I0403 15:12:09.266690 12035 net.cpp:141] Setting up inception_4a/5x5
I0403 15:12:09.266721 12035 net.cpp:148] Top shape: 24 48 14 14 (225792)
I0403 15:12:09.266736 12035 net.cpp:156] Memory required for data: 874568736
I0403 15:12:09.266753 12035 layer_factory.hpp:77] Creating layer inception_4a/relu_5x5
I0403 15:12:09.266772 12035 net.cpp:91] Creating Layer inception_4a/relu_5x5
I0403 15:12:09.266787 12035 net.cpp:425] inception_4a/relu_5x5 <- inception_4a/5x5
I0403 15:12:09.266803 12035 net.cpp:386] inception_4a/relu_5x5 -> inception_4a/5x5 (in-place)
I0403 15:12:09.266973 12035 net.cpp:141] Setting up inception_4a/relu_5x5
I0403 15:12:09.267002 12035 net.cpp:148] Top shape: 24 48 14 14 (225792)
I0403 15:12:09.267019 12035 net.cpp:156] Memory required for data: 875471904
I0403 15:12:09.267036 12035 layer_factory.hpp:77] Creating layer inception_4a/pool
I0403 15:12:09.267055 12035 net.cpp:91] Creating Layer inception_4a/pool
I0403 15:12:09.267072 12035 net.cpp:425] inception_4a/pool <- pool3/3x3_s2_pool3/3x3_s2_0_split_3
I0403 15:12:09.267094 12035 net.cpp:399] inception_4a/pool -> inception_4a/pool
I0403 15:12:09.267159 12035 net.cpp:141] Setting up inception_4a/pool
I0403 15:12:09.267187 12035 net.cpp:148] Top shape: 24 480 14 14 (2257920)
I0403 15:12:09.267204 12035 net.cpp:156] Memory required for data: 884503584
I0403 15:12:09.267217 12035 layer_factory.hpp:77] Creating layer inception_4a/pool_proj
I0403 15:12:09.267238 12035 net.cpp:91] Creating Layer inception_4a/pool_proj
I0403 15:12:09.267256 12035 net.cpp:425] inception_4a/pool_proj <- inception_4a/pool
I0403 15:12:09.267273 12035 net.cpp:399] inception_4a/pool_proj -> inception_4a/pool_proj
I0403 15:12:09.268399 12035 net.cpp:141] Setting up inception_4a/pool_proj
I0403 15:12:09.268429 12035 net.cpp:148] Top shape: 24 64 14 14 (301056)
I0403 15:12:09.268461 12035 net.cpp:156] Memory required for data: 885707808
I0403 15:12:09.268488 12035 layer_factory.hpp:77] Creating layer inception_4a/relu_pool_proj
I0403 15:12:09.268506 12035 net.cpp:91] Creating Layer inception_4a/relu_pool_proj
I0403 15:12:09.268520 12035 net.cpp:425] inception_4a/relu_pool_proj <- inception_4a/pool_proj
I0403 15:12:09.268537 12035 net.cpp:386] inception_4a/relu_pool_proj -> inception_4a/pool_proj (in-place)
I0403 15:12:09.268813 12035 net.cpp:141] Setting up inception_4a/relu_pool_proj
I0403 15:12:09.268841 12035 net.cpp:148] Top shape: 24 64 14 14 (301056)
I0403 15:12:09.268857 12035 net.cpp:156] Memory required for data: 886912032
I0403 15:12:09.268872 12035 layer_factory.hpp:77] Creating layer inception_4a/output
I0403 15:12:09.268889 12035 net.cpp:91] Creating Layer inception_4a/output
I0403 15:12:09.268904 12035 net.cpp:425] inception_4a/output <- inception_4a/1x1
I0403 15:12:09.268921 12035 net.cpp:425] inception_4a/output <- inception_4a/3x3
I0403 15:12:09.268936 12035 net.cpp:425] inception_4a/output <- inception_4a/5x5
I0403 15:12:09.268952 12035 net.cpp:425] inception_4a/output <- inception_4a/pool_proj
I0403 15:12:09.268968 12035 net.cpp:399] inception_4a/output -> inception_4a/output
I0403 15:12:09.269013 12035 net.cpp:141] Setting up inception_4a/output
I0403 15:12:09.269037 12035 net.cpp:148] Top shape: 24 512 14 14 (2408448)
I0403 15:12:09.269050 12035 net.cpp:156] Memory required for data: 896545824
I0403 15:12:09.269065 12035 layer_factory.hpp:77] Creating layer inception_4a/output_inception_4a/output_0_split
I0403 15:12:09.269084 12035 net.cpp:91] Creating Layer inception_4a/output_inception_4a/output_0_split
I0403 15:12:09.269100 12035 net.cpp:425] inception_4a/output_inception_4a/output_0_split <- inception_4a/output
I0403 15:12:09.269117 12035 net.cpp:399] inception_4a/output_inception_4a/output_0_split -> inception_4a/output_inception_4a/output_0_split_0
I0403 15:12:09.269143 12035 net.cpp:399] inception_4a/output_inception_4a/output_0_split -> inception_4a/output_inception_4a/output_0_split_1
I0403 15:12:09.269166 12035 net.cpp:399] inception_4a/output_inception_4a/output_0_split -> inception_4a/output_inception_4a/output_0_split_2
I0403 15:12:09.269191 12035 net.cpp:399] inception_4a/output_inception_4a/output_0_split -> inception_4a/output_inception_4a/output_0_split_3
I0403 15:12:09.269212 12035 net.cpp:399] inception_4a/output_inception_4a/output_0_split -> inception_4a/output_inception_4a/output_0_split_4
I0403 15:12:09.269304 12035 net.cpp:141] Setting up inception_4a/output_inception_4a/output_0_split
I0403 15:12:09.269327 12035 net.cpp:148] Top shape: 24 512 14 14 (2408448)
I0403 15:12:09.269342 12035 net.cpp:148] Top shape: 24 512 14 14 (2408448)
I0403 15:12:09.269358 12035 net.cpp:148] Top shape: 24 512 14 14 (2408448)
I0403 15:12:09.269372 12035 net.cpp:148] Top shape: 24 512 14 14 (2408448)
I0403 15:12:09.269387 12035 net.cpp:148] Top shape: 24 512 14 14 (2408448)
I0403 15:12:09.269400 12035 net.cpp:156] Memory required for data: 944714784
I0403 15:12:09.269415 12035 layer_factory.hpp:77] Creating layer loss1/ave_pool
I0403 15:12:09.269435 12035 net.cpp:91] Creating Layer loss1/ave_pool
I0403 15:12:09.269451 12035 net.cpp:425] loss1/ave_pool <- inception_4a/output_inception_4a/output_0_split_0
I0403 15:12:09.269469 12035 net.cpp:399] loss1/ave_pool -> loss1/ave_pool
I0403 15:12:09.269665 12035 net.cpp:141] Setting up loss1/ave_pool
I0403 15:12:09.269693 12035 net.cpp:148] Top shape: 24 512 4 4 (196608)
I0403 15:12:09.269711 12035 net.cpp:156] Memory required for data: 945501216
I0403 15:12:09.269724 12035 layer_factory.hpp:77] Creating layer loss1/conv
I0403 15:12:09.269747 12035 net.cpp:91] Creating Layer loss1/conv
I0403 15:12:09.269765 12035 net.cpp:425] loss1/conv <- loss1/ave_pool
I0403 15:12:09.269784 12035 net.cpp:399] loss1/conv -> loss1/conv
I0403 15:12:09.271175 12035 net.cpp:141] Setting up loss1/conv
I0403 15:12:09.271203 12035 net.cpp:148] Top shape: 24 128 4 4 (49152)
I0403 15:12:09.271231 12035 net.cpp:156] Memory required for data: 945697824
I0403 15:12:09.271251 12035 layer_factory.hpp:77] Creating layer loss1/relu_conv
I0403 15:12:09.271270 12035 net.cpp:91] Creating Layer loss1/relu_conv
I0403 15:12:09.271287 12035 net.cpp:425] loss1/relu_conv <- loss1/conv
I0403 15:12:09.271304 12035 net.cpp:386] loss1/relu_conv -> loss1/conv (in-place)
I0403 15:12:09.271577 12035 net.cpp:141] Setting up loss1/relu_conv
I0403 15:12:09.271605 12035 net.cpp:148] Top shape: 24 128 4 4 (49152)
I0403 15:12:09.271620 12035 net.cpp:156] Memory required for data: 945894432
I0403 15:12:09.271636 12035 layer_factory.hpp:77] Creating layer loss1/fc
I0403 15:12:09.271661 12035 net.cpp:91] Creating Layer loss1/fc
I0403 15:12:09.271682 12035 net.cpp:425] loss1/fc <- loss1/conv
I0403 15:12:09.271700 12035 net.cpp:399] loss1/fc -> loss1/fc
I0403 15:12:09.289032 12035 net.cpp:141] Setting up loss1/fc
I0403 15:12:09.289072 12035 net.cpp:148] Top shape: 24 1024 (24576)
I0403 15:12:09.289086 12035 net.cpp:156] Memory required for data: 945992736
I0403 15:12:09.289105 12035 layer_factory.hpp:77] Creating layer loss1/relu_fc
I0403 15:12:09.289122 12035 net.cpp:91] Creating Layer loss1/relu_fc
I0403 15:12:09.289142 12035 net.cpp:425] loss1/relu_fc <- loss1/fc
I0403 15:12:09.289161 12035 net.cpp:386] loss1/relu_fc -> loss1/fc (in-place)
I0403 15:12:09.289346 12035 net.cpp:141] Setting up loss1/relu_fc
I0403 15:12:09.289372 12035 net.cpp:148] Top shape: 24 1024 (24576)
I0403 15:12:09.289397 12035 net.cpp:156] Memory required for data: 946091040
I0403 15:12:09.289414 12035 layer_factory.hpp:77] Creating layer loss1/drop_fc
I0403 15:12:09.289440 12035 net.cpp:91] Creating Layer loss1/drop_fc
I0403 15:12:09.289459 12035 net.cpp:425] loss1/drop_fc <- loss1/fc
I0403 15:12:09.289479 12035 net.cpp:386] loss1/drop_fc -> loss1/fc (in-place)
I0403 15:12:09.289531 12035 net.cpp:141] Setting up loss1/drop_fc
I0403 15:12:09.289554 12035 net.cpp:148] Top shape: 24 1024 (24576)
I0403 15:12:09.289568 12035 net.cpp:156] Memory required for data: 946189344
I0403 15:12:09.289582 12035 layer_factory.hpp:77] Creating layer loss1/classifier_plantvillage
I0403 15:12:09.289604 12035 net.cpp:91] Creating Layer loss1/classifier_plantvillage
I0403 15:12:09.289621 12035 net.cpp:425] loss1/classifier_plantvillage <- loss1/fc
I0403 15:12:09.289643 12035 net.cpp:399] loss1/classifier_plantvillage -> loss1/classifier_plantvillage
I0403 15:12:09.290549 12035 net.cpp:141] Setting up loss1/classifier_plantvillage
I0403 15:12:09.290580 12035 net.cpp:148] Top shape: 24 38 (912)
I0403 15:12:09.290597 12035 net.cpp:156] Memory required for data: 946192992
I0403 15:12:09.290616 12035 layer_factory.hpp:77] Creating layer loss1/classifier_plantvillage_loss1/classifier_plantvillage_0_split
I0403 15:12:09.290634 12035 net.cpp:91] Creating Layer loss1/classifier_plantvillage_loss1/classifier_plantvillage_0_split
I0403 15:12:09.290650 12035 net.cpp:425] loss1/classifier_plantvillage_loss1/classifier_plantvillage_0_split <- loss1/classifier_plantvillage
I0403 15:12:09.290681 12035 net.cpp:399] loss1/classifier_plantvillage_loss1/classifier_plantvillage_0_split -> loss1/classifier_plantvillage_loss1/classifier_plantvillage_0_split_0
I0403 15:12:09.290702 12035 net.cpp:399] loss1/classifier_plantvillage_loss1/classifier_plantvillage_0_split -> loss1/classifier_plantvillage_loss1/classifier_plantvillage_0_split_1
I0403 15:12:09.290722 12035 net.cpp:399] loss1/classifier_plantvillage_loss1/classifier_plantvillage_0_split -> loss1/classifier_plantvillage_loss1/classifier_plantvillage_0_split_2
I0403 15:12:09.290784 12035 net.cpp:141] Setting up loss1/classifier_plantvillage_loss1/classifier_plantvillage_0_split
I0403 15:12:09.290807 12035 net.cpp:148] Top shape: 24 38 (912)
I0403 15:12:09.290823 12035 net.cpp:148] Top shape: 24 38 (912)
I0403 15:12:09.290839 12035 net.cpp:148] Top shape: 24 38 (912)
I0403 15:12:09.290853 12035 net.cpp:156] Memory required for data: 946203936
I0403 15:12:09.290866 12035 layer_factory.hpp:77] Creating layer inception_4b/1x1
I0403 15:12:09.290886 12035 net.cpp:91] Creating Layer inception_4b/1x1
I0403 15:12:09.290920 12035 net.cpp:425] inception_4b/1x1 <- inception_4a/output_inception_4a/output_0_split_1
I0403 15:12:09.290940 12035 net.cpp:399] inception_4b/1x1 -> inception_4b/1x1
I0403 15:12:09.292542 12035 net.cpp:141] Setting up inception_4b/1x1
I0403 15:12:09.292570 12035 net.cpp:148] Top shape: 24 160 14 14 (752640)
I0403 15:12:09.292585 12035 net.cpp:156] Memory required for data: 949214496
I0403 15:12:09.292603 12035 layer_factory.hpp:77] Creating layer inception_4b/relu_1x1
I0403 15:12:09.292623 12035 net.cpp:91] Creating Layer inception_4b/relu_1x1
I0403 15:12:09.292640 12035 net.cpp:425] inception_4b/relu_1x1 <- inception_4b/1x1
I0403 15:12:09.292657 12035 net.cpp:386] inception_4b/relu_1x1 -> inception_4b/1x1 (in-place)
I0403 15:12:09.292830 12035 net.cpp:141] Setting up inception_4b/relu_1x1
I0403 15:12:09.292855 12035 net.cpp:148] Top shape: 24 160 14 14 (752640)
I0403 15:12:09.292868 12035 net.cpp:156] Memory required for data: 952225056
I0403 15:12:09.292882 12035 layer_factory.hpp:77] Creating layer inception_4b/3x3_reduce
I0403 15:12:09.292906 12035 net.cpp:91] Creating Layer inception_4b/3x3_reduce
I0403 15:12:09.292922 12035 net.cpp:425] inception_4b/3x3_reduce <- inception_4a/output_inception_4a/output_0_split_2
I0403 15:12:09.292942 12035 net.cpp:399] inception_4b/3x3_reduce -> inception_4b/3x3_reduce
I0403 15:12:09.294294 12035 net.cpp:141] Setting up inception_4b/3x3_reduce
I0403 15:12:09.294322 12035 net.cpp:148] Top shape: 24 112 14 14 (526848)
I0403 15:12:09.294337 12035 net.cpp:156] Memory required for data: 954332448
I0403 15:12:09.294355 12035 layer_factory.hpp:77] Creating layer inception_4b/relu_3x3_reduce
I0403 15:12:09.294376 12035 net.cpp:91] Creating Layer inception_4b/relu_3x3_reduce
I0403 15:12:09.294406 12035 net.cpp:425] inception_4b/relu_3x3_reduce <- inception_4b/3x3_reduce
I0403 15:12:09.294423 12035 net.cpp:386] inception_4b/relu_3x3_reduce -> inception_4b/3x3_reduce (in-place)
I0403 15:12:09.294715 12035 net.cpp:141] Setting up inception_4b/relu_3x3_reduce
I0403 15:12:09.294741 12035 net.cpp:148] Top shape: 24 112 14 14 (526848)
I0403 15:12:09.294756 12035 net.cpp:156] Memory required for data: 956439840
I0403 15:12:09.294770 12035 layer_factory.hpp:77] Creating layer inception_4b/3x3
I0403 15:12:09.294792 12035 net.cpp:91] Creating Layer inception_4b/3x3
I0403 15:12:09.294811 12035 net.cpp:425] inception_4b/3x3 <- inception_4b/3x3_reduce
I0403 15:12:09.294829 12035 net.cpp:399] inception_4b/3x3 -> inception_4b/3x3
I0403 15:12:09.297700 12035 net.cpp:141] Setting up inception_4b/3x3
I0403 15:12:09.297732 12035 net.cpp:148] Top shape: 24 224 14 14 (1053696)
I0403 15:12:09.297747 12035 net.cpp:156] Memory required for data: 960654624
I0403 15:12:09.297765 12035 layer_factory.hpp:77] Creating layer inception_4b/relu_3x3
I0403 15:12:09.297782 12035 net.cpp:91] Creating Layer inception_4b/relu_3x3
I0403 15:12:09.297798 12035 net.cpp:425] inception_4b/relu_3x3 <- inception_4b/3x3
I0403 15:12:09.297817 12035 net.cpp:386] inception_4b/relu_3x3 -> inception_4b/3x3 (in-place)
I0403 15:12:09.297992 12035 net.cpp:141] Setting up inception_4b/relu_3x3
I0403 15:12:09.298017 12035 net.cpp:148] Top shape: 24 224 14 14 (1053696)
I0403 15:12:09.298032 12035 net.cpp:156] Memory required for data: 964869408
I0403 15:12:09.298046 12035 layer_factory.hpp:77] Creating layer inception_4b/5x5_reduce
I0403 15:12:09.298068 12035 net.cpp:91] Creating Layer inception_4b/5x5_reduce
I0403 15:12:09.298085 12035 net.cpp:425] inception_4b/5x5_reduce <- inception_4a/output_inception_4a/output_0_split_3
I0403 15:12:09.298107 12035 net.cpp:399] inception_4b/5x5_reduce -> inception_4b/5x5_reduce
I0403 15:12:09.299192 12035 net.cpp:141] Setting up inception_4b/5x5_reduce
I0403 15:12:09.299221 12035 net.cpp:148] Top shape: 24 24 14 14 (112896)
I0403 15:12:09.299237 12035 net.cpp:156] Memory required for data: 965320992
I0403 15:12:09.299254 12035 layer_factory.hpp:77] Creating layer inception_4b/relu_5x5_reduce
I0403 15:12:09.299274 12035 net.cpp:91] Creating Layer inception_4b/relu_5x5_reduce
I0403 15:12:09.299305 12035 net.cpp:425] inception_4b/relu_5x5_reduce <- inception_4b/5x5_reduce
I0403 15:12:09.299324 12035 net.cpp:386] inception_4b/relu_5x5_reduce -> inception_4b/5x5_reduce (in-place)
I0403 15:12:09.299504 12035 net.cpp:141] Setting up inception_4b/relu_5x5_reduce
I0403 15:12:09.299530 12035 net.cpp:148] Top shape: 24 24 14 14 (112896)
I0403 15:12:09.299545 12035 net.cpp:156] Memory required for data: 965772576
I0403 15:12:09.299558 12035 layer_factory.hpp:77] Creating layer inception_4b/5x5
I0403 15:12:09.299581 12035 net.cpp:91] Creating Layer inception_4b/5x5
I0403 15:12:09.299599 12035 net.cpp:425] inception_4b/5x5 <- inception_4b/5x5_reduce
I0403 15:12:09.299618 12035 net.cpp:399] inception_4b/5x5 -> inception_4b/5x5
I0403 15:12:09.300801 12035 net.cpp:141] Setting up inception_4b/5x5
I0403 15:12:09.300828 12035 net.cpp:148] Top shape: 24 64 14 14 (301056)
I0403 15:12:09.300843 12035 net.cpp:156] Memory required for data: 966976800
I0403 15:12:09.300860 12035 layer_factory.hpp:77] Creating layer inception_4b/relu_5x5
I0403 15:12:09.300879 12035 net.cpp:91] Creating Layer inception_4b/relu_5x5
I0403 15:12:09.300895 12035 net.cpp:425] inception_4b/relu_5x5 <- inception_4b/5x5
I0403 15:12:09.300911 12035 net.cpp:386] inception_4b/relu_5x5 -> inception_4b/5x5 (in-place)
I0403 15:12:09.301192 12035 net.cpp:141] Setting up inception_4b/relu_5x5
I0403 15:12:09.301228 12035 net.cpp:148] Top shape: 24 64 14 14 (301056)
I0403 15:12:09.301241 12035 net.cpp:156] Memory required for data: 968181024
I0403 15:12:09.301255 12035 layer_factory.hpp:77] Creating layer inception_4b/pool
I0403 15:12:09.301275 12035 net.cpp:91] Creating Layer inception_4b/pool
I0403 15:12:09.301290 12035 net.cpp:425] inception_4b/pool <- inception_4a/output_inception_4a/output_0_split_4
I0403 15:12:09.301307 12035 net.cpp:399] inception_4b/pool -> inception_4b/pool
I0403 15:12:09.301368 12035 net.cpp:141] Setting up inception_4b/pool
I0403 15:12:09.301393 12035 net.cpp:148] Top shape: 24 512 14 14 (2408448)
I0403 15:12:09.301409 12035 net.cpp:156] Memory required for data: 977814816
I0403 15:12:09.301424 12035 layer_factory.hpp:77] Creating layer inception_4b/pool_proj
I0403 15:12:09.301446 12035 net.cpp:91] Creating Layer inception_4b/pool_proj
I0403 15:12:09.301465 12035 net.cpp:425] inception_4b/pool_proj <- inception_4b/pool
I0403 15:12:09.301489 12035 net.cpp:399] inception_4b/pool_proj -> inception_4b/pool_proj
I0403 15:12:09.302680 12035 net.cpp:141] Setting up inception_4b/pool_proj
I0403 15:12:09.302708 12035 net.cpp:148] Top shape: 24 64 14 14 (301056)
I0403 15:12:09.302722 12035 net.cpp:156] Memory required for data: 979019040
I0403 15:12:09.302741 12035 layer_factory.hpp:77] Creating layer inception_4b/relu_pool_proj
I0403 15:12:09.302762 12035 net.cpp:91] Creating Layer inception_4b/relu_pool_proj
I0403 15:12:09.302780 12035 net.cpp:425] inception_4b/relu_pool_proj <- inception_4b/pool_proj
I0403 15:12:09.302798 12035 net.cpp:386] inception_4b/relu_pool_proj -> inception_4b/pool_proj (in-place)
I0403 15:12:09.302974 12035 net.cpp:141] Setting up inception_4b/relu_pool_proj
I0403 15:12:09.303000 12035 net.cpp:148] Top shape: 24 64 14 14 (301056)
I0403 15:12:09.303015 12035 net.cpp:156] Memory required for data: 980223264
I0403 15:12:09.303030 12035 layer_factory.hpp:77] Creating layer inception_4b/output
I0403 15:12:09.303046 12035 net.cpp:91] Creating Layer inception_4b/output
I0403 15:12:09.303061 12035 net.cpp:425] inception_4b/output <- inception_4b/1x1
I0403 15:12:09.303076 12035 net.cpp:425] inception_4b/output <- inception_4b/3x3
I0403 15:12:09.303092 12035 net.cpp:425] inception_4b/output <- inception_4b/5x5
I0403 15:12:09.303107 12035 net.cpp:425] inception_4b/output <- inception_4b/pool_proj
I0403 15:12:09.303122 12035 net.cpp:399] inception_4b/output -> inception_4b/output
I0403 15:12:09.303180 12035 net.cpp:141] Setting up inception_4b/output
I0403 15:12:09.303203 12035 net.cpp:148] Top shape: 24 512 14 14 (2408448)
I0403 15:12:09.303216 12035 net.cpp:156] Memory required for data: 989857056
I0403 15:12:09.303244 12035 layer_factory.hpp:77] Creating layer inception_4b/output_inception_4b/output_0_split
I0403 15:12:09.303262 12035 net.cpp:91] Creating Layer inception_4b/output_inception_4b/output_0_split
I0403 15:12:09.303277 12035 net.cpp:425] inception_4b/output_inception_4b/output_0_split <- inception_4b/output
I0403 15:12:09.303297 12035 net.cpp:399] inception_4b/output_inception_4b/output_0_split -> inception_4b/output_inception_4b/output_0_split_0
I0403 15:12:09.303316 12035 net.cpp:399] inception_4b/output_inception_4b/output_0_split -> inception_4b/output_inception_4b/output_0_split_1
I0403 15:12:09.303335 12035 net.cpp:399] inception_4b/output_inception_4b/output_0_split -> inception_4b/output_inception_4b/output_0_split_2
I0403 15:12:09.303354 12035 net.cpp:399] inception_4b/output_inception_4b/output_0_split -> inception_4b/output_inception_4b/output_0_split_3
I0403 15:12:09.303438 12035 net.cpp:141] Setting up inception_4b/output_inception_4b/output_0_split
I0403 15:12:09.303462 12035 net.cpp:148] Top shape: 24 512 14 14 (2408448)
I0403 15:12:09.303477 12035 net.cpp:148] Top shape: 24 512 14 14 (2408448)
I0403 15:12:09.303491 12035 net.cpp:148] Top shape: 24 512 14 14 (2408448)
I0403 15:12:09.303505 12035 net.cpp:148] Top shape: 24 512 14 14 (2408448)
I0403 15:12:09.303520 12035 net.cpp:156] Memory required for data: 1028392224
I0403 15:12:09.303535 12035 layer_factory.hpp:77] Creating layer inception_4c/1x1
I0403 15:12:09.303556 12035 net.cpp:91] Creating Layer inception_4c/1x1
I0403 15:12:09.303575 12035 net.cpp:425] inception_4c/1x1 <- inception_4b/output_inception_4b/output_0_split_0
I0403 15:12:09.303597 12035 net.cpp:399] inception_4c/1x1 -> inception_4c/1x1
I0403 15:12:09.304991 12035 net.cpp:141] Setting up inception_4c/1x1
I0403 15:12:09.305022 12035 net.cpp:148] Top shape: 24 128 14 14 (602112)
I0403 15:12:09.305039 12035 net.cpp:156] Memory required for data: 1030800672
I0403 15:12:09.305058 12035 layer_factory.hpp:77] Creating layer inception_4c/relu_1x1
I0403 15:12:09.305074 12035 net.cpp:91] Creating Layer inception_4c/relu_1x1
I0403 15:12:09.305089 12035 net.cpp:425] inception_4c/relu_1x1 <- inception_4c/1x1
I0403 15:12:09.305109 12035 net.cpp:386] inception_4c/relu_1x1 -> inception_4c/1x1 (in-place)
I0403 15:12:09.305287 12035 net.cpp:141] Setting up inception_4c/relu_1x1
I0403 15:12:09.305311 12035 net.cpp:148] Top shape: 24 128 14 14 (602112)
I0403 15:12:09.305325 12035 net.cpp:156] Memory required for data: 1033209120
I0403 15:12:09.305341 12035 layer_factory.hpp:77] Creating layer inception_4c/3x3_reduce
I0403 15:12:09.305361 12035 net.cpp:91] Creating Layer inception_4c/3x3_reduce
I0403 15:12:09.305378 12035 net.cpp:425] inception_4c/3x3_reduce <- inception_4b/output_inception_4b/output_0_split_1
I0403 15:12:09.305399 12035 net.cpp:399] inception_4c/3x3_reduce -> inception_4c/3x3_reduce
I0403 15:12:09.307317 12035 net.cpp:141] Setting up inception_4c/3x3_reduce
I0403 15:12:09.307344 12035 net.cpp:148] Top shape: 24 128 14 14 (602112)
I0403 15:12:09.307359 12035 net.cpp:156] Memory required for data: 1035617568
I0403 15:12:09.307376 12035 layer_factory.hpp:77] Creating layer inception_4c/relu_3x3_reduce
I0403 15:12:09.307394 12035 net.cpp:91] Creating Layer inception_4c/relu_3x3_reduce
I0403 15:12:09.307409 12035 net.cpp:425] inception_4c/relu_3x3_reduce <- inception_4c/3x3_reduce
I0403 15:12:09.307427 12035 net.cpp:386] inception_4c/relu_3x3_reduce -> inception_4c/3x3_reduce (in-place)
I0403 15:12:09.307708 12035 net.cpp:141] Setting up inception_4c/relu_3x3_reduce
I0403 15:12:09.307735 12035 net.cpp:148] Top shape: 24 128 14 14 (602112)
I0403 15:12:09.307750 12035 net.cpp:156] Memory required for data: 1038026016
I0403 15:12:09.307765 12035 layer_factory.hpp:77] Creating layer inception_4c/3x3
I0403 15:12:09.307787 12035 net.cpp:91] Creating Layer inception_4c/3x3
I0403 15:12:09.307806 12035 net.cpp:425] inception_4c/3x3 <- inception_4c/3x3_reduce
I0403 15:12:09.307827 12035 net.cpp:399] inception_4c/3x3 -> inception_4c/3x3
I0403 15:12:09.311337 12035 net.cpp:141] Setting up inception_4c/3x3
I0403 15:12:09.311378 12035 net.cpp:148] Top shape: 24 256 14 14 (1204224)
I0403 15:12:09.311393 12035 net.cpp:156] Memory required for data: 1042842912
I0403 15:12:09.311424 12035 layer_factory.hpp:77] Creating layer inception_4c/relu_3x3
I0403 15:12:09.311445 12035 net.cpp:91] Creating Layer inception_4c/relu_3x3
I0403 15:12:09.311461 12035 net.cpp:425] inception_4c/relu_3x3 <- inception_4c/3x3
I0403 15:12:09.311480 12035 net.cpp:386] inception_4c/relu_3x3 -> inception_4c/3x3 (in-place)
I0403 15:12:09.311655 12035 net.cpp:141] Setting up inception_4c/relu_3x3
I0403 15:12:09.311681 12035 net.cpp:148] Top shape: 24 256 14 14 (1204224)
I0403 15:12:09.311694 12035 net.cpp:156] Memory required for data: 1047659808
I0403 15:12:09.311710 12035 layer_factory.hpp:77] Creating layer inception_4c/5x5_reduce
I0403 15:12:09.311733 12035 net.cpp:91] Creating Layer inception_4c/5x5_reduce
I0403 15:12:09.311750 12035 net.cpp:425] inception_4c/5x5_reduce <- inception_4b/output_inception_4b/output_0_split_2
I0403 15:12:09.311771 12035 net.cpp:399] inception_4c/5x5_reduce -> inception_4c/5x5_reduce
I0403 15:12:09.312822 12035 net.cpp:141] Setting up inception_4c/5x5_reduce
I0403 15:12:09.312852 12035 net.cpp:148] Top shape: 24 24 14 14 (112896)
I0403 15:12:09.312867 12035 net.cpp:156] Memory required for data: 1048111392
I0403 15:12:09.312886 12035 layer_factory.hpp:77] Creating layer inception_4c/relu_5x5_reduce
I0403 15:12:09.312907 12035 net.cpp:91] Creating Layer inception_4c/relu_5x5_reduce
I0403 15:12:09.312924 12035 net.cpp:425] inception_4c/relu_5x5_reduce <- inception_4c/5x5_reduce
I0403 15:12:09.312940 12035 net.cpp:386] inception_4c/relu_5x5_reduce -> inception_4c/5x5_reduce (in-place)
I0403 15:12:09.313117 12035 net.cpp:141] Setting up inception_4c/relu_5x5_reduce
I0403 15:12:09.313153 12035 net.cpp:148] Top shape: 24 24 14 14 (112896)
I0403 15:12:09.313171 12035 net.cpp:156] Memory required for data: 1048562976
I0403 15:12:09.313185 12035 layer_factory.hpp:77] Creating layer inception_4c/5x5
I0403 15:12:09.313206 12035 net.cpp:91] Creating Layer inception_4c/5x5
I0403 15:12:09.313223 12035 net.cpp:425] inception_4c/5x5 <- inception_4c/5x5_reduce
I0403 15:12:09.313241 12035 net.cpp:399] inception_4c/5x5 -> inception_4c/5x5
I0403 15:12:09.314466 12035 net.cpp:141] Setting up inception_4c/5x5
I0403 15:12:09.314493 12035 net.cpp:148] Top shape: 24 64 14 14 (301056)
I0403 15:12:09.314508 12035 net.cpp:156] Memory required for data: 1049767200
I0403 15:12:09.314527 12035 layer_factory.hpp:77] Creating layer inception_4c/relu_5x5
I0403 15:12:09.314546 12035 net.cpp:91] Creating Layer inception_4c/relu_5x5
I0403 15:12:09.314561 12035 net.cpp:425] inception_4c/relu_5x5 <- inception_4c/5x5
I0403 15:12:09.314579 12035 net.cpp:386] inception_4c/relu_5x5 -> inception_4c/5x5 (in-place)
I0403 15:12:09.314869 12035 net.cpp:141] Setting up inception_4c/relu_5x5
I0403 15:12:09.314896 12035 net.cpp:148] Top shape: 24 64 14 14 (301056)
I0403 15:12:09.314909 12035 net.cpp:156] Memory required for data: 1050971424
I0403 15:12:09.314925 12035 layer_factory.hpp:77] Creating layer inception_4c/pool
I0403 15:12:09.314944 12035 net.cpp:91] Creating Layer inception_4c/pool
I0403 15:12:09.314960 12035 net.cpp:425] inception_4c/pool <- inception_4b/output_inception_4b/output_0_split_3
I0403 15:12:09.314980 12035 net.cpp:399] inception_4c/pool -> inception_4c/pool
I0403 15:12:09.315042 12035 net.cpp:141] Setting up inception_4c/pool
I0403 15:12:09.315065 12035 net.cpp:148] Top shape: 24 512 14 14 (2408448)
I0403 15:12:09.315078 12035 net.cpp:156] Memory required for data: 1060605216
I0403 15:12:09.315093 12035 layer_factory.hpp:77] Creating layer inception_4c/pool_proj
I0403 15:12:09.315114 12035 net.cpp:91] Creating Layer inception_4c/pool_proj
I0403 15:12:09.315135 12035 net.cpp:425] inception_4c/pool_proj <- inception_4c/pool
I0403 15:12:09.315155 12035 net.cpp:399] inception_4c/pool_proj -> inception_4c/pool_proj
I0403 15:12:09.316335 12035 net.cpp:141] Setting up inception_4c/pool_proj
I0403 15:12:09.316362 12035 net.cpp:148] Top shape: 24 64 14 14 (301056)
I0403 15:12:09.316391 12035 net.cpp:156] Memory required for data: 1061809440
I0403 15:12:09.316409 12035 layer_factory.hpp:77] Creating layer inception_4c/relu_pool_proj
I0403 15:12:09.316431 12035 net.cpp:91] Creating Layer inception_4c/relu_pool_proj
I0403 15:12:09.316447 12035 net.cpp:425] inception_4c/relu_pool_proj <- inception_4c/pool_proj
I0403 15:12:09.316462 12035 net.cpp:386] inception_4c/relu_pool_proj -> inception_4c/pool_proj (in-place)
I0403 15:12:09.316639 12035 net.cpp:141] Setting up inception_4c/relu_pool_proj
I0403 15:12:09.316666 12035 net.cpp:148] Top shape: 24 64 14 14 (301056)
I0403 15:12:09.316681 12035 net.cpp:156] Memory required for data: 1063013664
I0403 15:12:09.316699 12035 layer_factory.hpp:77] Creating layer inception_4c/output
I0403 15:12:09.316717 12035 net.cpp:91] Creating Layer inception_4c/output
I0403 15:12:09.316733 12035 net.cpp:425] inception_4c/output <- inception_4c/1x1
I0403 15:12:09.316750 12035 net.cpp:425] inception_4c/output <- inception_4c/3x3
I0403 15:12:09.316766 12035 net.cpp:425] inception_4c/output <- inception_4c/5x5
I0403 15:12:09.316781 12035 net.cpp:425] inception_4c/output <- inception_4c/pool_proj
I0403 15:12:09.316797 12035 net.cpp:399] inception_4c/output -> inception_4c/output
I0403 15:12:09.316843 12035 net.cpp:141] Setting up inception_4c/output
I0403 15:12:09.316865 12035 net.cpp:148] Top shape: 24 512 14 14 (2408448)
I0403 15:12:09.316879 12035 net.cpp:156] Memory required for data: 1072647456
I0403 15:12:09.316893 12035 layer_factory.hpp:77] Creating layer inception_4c/output_inception_4c/output_0_split
I0403 15:12:09.316910 12035 net.cpp:91] Creating Layer inception_4c/output_inception_4c/output_0_split
I0403 15:12:09.316925 12035 net.cpp:425] inception_4c/output_inception_4c/output_0_split <- inception_4c/output
I0403 15:12:09.316943 12035 net.cpp:399] inception_4c/output_inception_4c/output_0_split -> inception_4c/output_inception_4c/output_0_split_0
I0403 15:12:09.316963 12035 net.cpp:399] inception_4c/output_inception_4c/output_0_split -> inception_4c/output_inception_4c/output_0_split_1
I0403 15:12:09.316982 12035 net.cpp:399] inception_4c/output_inception_4c/output_0_split -> inception_4c/output_inception_4c/output_0_split_2
I0403 15:12:09.317001 12035 net.cpp:399] inception_4c/output_inception_4c/output_0_split -> inception_4c/output_inception_4c/output_0_split_3
I0403 15:12:09.317090 12035 net.cpp:141] Setting up inception_4c/output_inception_4c/output_0_split
I0403 15:12:09.317112 12035 net.cpp:148] Top shape: 24 512 14 14 (2408448)
I0403 15:12:09.317131 12035 net.cpp:148] Top shape: 24 512 14 14 (2408448)
I0403 15:12:09.317148 12035 net.cpp:148] Top shape: 24 512 14 14 (2408448)
I0403 15:12:09.317165 12035 net.cpp:148] Top shape: 24 512 14 14 (2408448)
I0403 15:12:09.317178 12035 net.cpp:156] Memory required for data: 1111182624
I0403 15:12:09.317193 12035 layer_factory.hpp:77] Creating layer inception_4d/1x1
I0403 15:12:09.317214 12035 net.cpp:91] Creating Layer inception_4d/1x1
I0403 15:12:09.317230 12035 net.cpp:425] inception_4d/1x1 <- inception_4c/output_inception_4c/output_0_split_0
I0403 15:12:09.317250 12035 net.cpp:399] inception_4d/1x1 -> inception_4d/1x1
I0403 15:12:09.318637 12035 net.cpp:141] Setting up inception_4d/1x1
I0403 15:12:09.318680 12035 net.cpp:148] Top shape: 24 112 14 14 (526848)
I0403 15:12:09.318696 12035 net.cpp:156] Memory required for data: 1113290016
I0403 15:12:09.318712 12035 layer_factory.hpp:77] Creating layer inception_4d/relu_1x1
I0403 15:12:09.318729 12035 net.cpp:91] Creating Layer inception_4d/relu_1x1
I0403 15:12:09.318743 12035 net.cpp:425] inception_4d/relu_1x1 <- inception_4d/1x1
I0403 15:12:09.318761 12035 net.cpp:386] inception_4d/relu_1x1 -> inception_4d/1x1 (in-place)
I0403 15:12:09.318938 12035 net.cpp:141] Setting up inception_4d/relu_1x1
I0403 15:12:09.318963 12035 net.cpp:148] Top shape: 24 112 14 14 (526848)
I0403 15:12:09.318976 12035 net.cpp:156] Memory required for data: 1115397408
I0403 15:12:09.318990 12035 layer_factory.hpp:77] Creating layer inception_4d/3x3_reduce
I0403 15:12:09.319025 12035 net.cpp:91] Creating Layer inception_4d/3x3_reduce
I0403 15:12:09.319043 12035 net.cpp:425] inception_4d/3x3_reduce <- inception_4c/output_inception_4c/output_0_split_1
I0403 15:12:09.319063 12035 net.cpp:399] inception_4d/3x3_reduce -> inception_4d/3x3_reduce
I0403 15:12:09.320540 12035 net.cpp:141] Setting up inception_4d/3x3_reduce
I0403 15:12:09.320569 12035 net.cpp:148] Top shape: 24 144 14 14 (677376)
I0403 15:12:09.320585 12035 net.cpp:156] Memory required for data: 1118106912
I0403 15:12:09.320602 12035 layer_factory.hpp:77] Creating layer inception_4d/relu_3x3_reduce
I0403 15:12:09.320619 12035 net.cpp:91] Creating Layer inception_4d/relu_3x3_reduce
I0403 15:12:09.320634 12035 net.cpp:425] inception_4d/relu_3x3_reduce <- inception_4d/3x3_reduce
I0403 15:12:09.320650 12035 net.cpp:386] inception_4d/relu_3x3_reduce -> inception_4d/3x3_reduce (in-place)
I0403 15:12:09.320932 12035 net.cpp:141] Setting up inception_4d/relu_3x3_reduce
I0403 15:12:09.320960 12035 net.cpp:148] Top shape: 24 144 14 14 (677376)
I0403 15:12:09.320974 12035 net.cpp:156] Memory required for data: 1120816416
I0403 15:12:09.320988 12035 layer_factory.hpp:77] Creating layer inception_4d/3x3
I0403 15:12:09.321009 12035 net.cpp:91] Creating Layer inception_4d/3x3
I0403 15:12:09.321027 12035 net.cpp:425] inception_4d/3x3 <- inception_4d/3x3_reduce
I0403 15:12:09.321044 12035 net.cpp:399] inception_4d/3x3 -> inception_4d/3x3
I0403 15:12:09.325211 12035 net.cpp:141] Setting up inception_4d/3x3
I0403 15:12:09.325238 12035 net.cpp:148] Top shape: 24 288 14 14 (1354752)
I0403 15:12:09.325253 12035 net.cpp:156] Memory required for data: 1126235424
I0403 15:12:09.325270 12035 layer_factory.hpp:77] Creating layer inception_4d/relu_3x3
I0403 15:12:09.325287 12035 net.cpp:91] Creating Layer inception_4d/relu_3x3
I0403 15:12:09.325302 12035 net.cpp:425] inception_4d/relu_3x3 <- inception_4d/3x3
I0403 15:12:09.325321 12035 net.cpp:386] inception_4d/relu_3x3 -> inception_4d/3x3 (in-place)
I0403 15:12:09.325503 12035 net.cpp:141] Setting up inception_4d/relu_3x3
I0403 15:12:09.325527 12035 net.cpp:148] Top shape: 24 288 14 14 (1354752)
I0403 15:12:09.325541 12035 net.cpp:156] Memory required for data: 1131654432
I0403 15:12:09.325556 12035 layer_factory.hpp:77] Creating layer inception_4d/5x5_reduce
I0403 15:12:09.325577 12035 net.cpp:91] Creating Layer inception_4d/5x5_reduce
I0403 15:12:09.325592 12035 net.cpp:425] inception_4d/5x5_reduce <- inception_4c/output_inception_4c/output_0_split_2
I0403 15:12:09.325613 12035 net.cpp:399] inception_4d/5x5_reduce -> inception_4d/5x5_reduce
I0403 15:12:09.326756 12035 net.cpp:141] Setting up inception_4d/5x5_reduce
I0403 15:12:09.326782 12035 net.cpp:148] Top shape: 24 32 14 14 (150528)
I0403 15:12:09.326797 12035 net.cpp:156] Memory required for data: 1132256544
I0403 15:12:09.326814 12035 layer_factory.hpp:77] Creating layer inception_4d/relu_5x5_reduce
I0403 15:12:09.326831 12035 net.cpp:91] Creating Layer inception_4d/relu_5x5_reduce
I0403 15:12:09.326848 12035 net.cpp:425] inception_4d/relu_5x5_reduce <- inception_4d/5x5_reduce
I0403 15:12:09.326865 12035 net.cpp:386] inception_4d/relu_5x5_reduce -> inception_4d/5x5_reduce (in-place)
I0403 15:12:09.327046 12035 net.cpp:141] Setting up inception_4d/relu_5x5_reduce
I0403 15:12:09.327070 12035 net.cpp:148] Top shape: 24 32 14 14 (150528)
I0403 15:12:09.327083 12035 net.cpp:156] Memory required for data: 1132858656
I0403 15:12:09.327097 12035 layer_factory.hpp:77] Creating layer inception_4d/5x5
I0403 15:12:09.327118 12035 net.cpp:91] Creating Layer inception_4d/5x5
I0403 15:12:09.327139 12035 net.cpp:425] inception_4d/5x5 <- inception_4d/5x5_reduce
I0403 15:12:09.327159 12035 net.cpp:399] inception_4d/5x5 -> inception_4d/5x5
I0403 15:12:09.328583 12035 net.cpp:141] Setting up inception_4d/5x5
I0403 15:12:09.328610 12035 net.cpp:148] Top shape: 24 64 14 14 (301056)
I0403 15:12:09.328625 12035 net.cpp:156] Memory required for data: 1134062880
I0403 15:12:09.328644 12035 layer_factory.hpp:77] Creating layer inception_4d/relu_5x5
I0403 15:12:09.328677 12035 net.cpp:91] Creating Layer inception_4d/relu_5x5
I0403 15:12:09.328694 12035 net.cpp:425] inception_4d/relu_5x5 <- inception_4d/5x5
I0403 15:12:09.328711 12035 net.cpp:386] inception_4d/relu_5x5 -> inception_4d/5x5 (in-place)
I0403 15:12:09.329004 12035 net.cpp:141] Setting up inception_4d/relu_5x5
I0403 15:12:09.329028 12035 net.cpp:148] Top shape: 24 64 14 14 (301056)
I0403 15:12:09.329044 12035 net.cpp:156] Memory required for data: 1135267104
I0403 15:12:09.329059 12035 layer_factory.hpp:77] Creating layer inception_4d/pool
I0403 15:12:09.329078 12035 net.cpp:91] Creating Layer inception_4d/pool
I0403 15:12:09.329094 12035 net.cpp:425] inception_4d/pool <- inception_4c/output_inception_4c/output_0_split_3
I0403 15:12:09.329113 12035 net.cpp:399] inception_4d/pool -> inception_4d/pool
I0403 15:12:09.329185 12035 net.cpp:141] Setting up inception_4d/pool
I0403 15:12:09.329208 12035 net.cpp:148] Top shape: 24 512 14 14 (2408448)
I0403 15:12:09.329223 12035 net.cpp:156] Memory required for data: 1144900896
I0403 15:12:09.329237 12035 layer_factory.hpp:77] Creating layer inception_4d/pool_proj
I0403 15:12:09.329259 12035 net.cpp:91] Creating Layer inception_4d/pool_proj
I0403 15:12:09.329277 12035 net.cpp:425] inception_4d/pool_proj <- inception_4d/pool
I0403 15:12:09.329298 12035 net.cpp:399] inception_4d/pool_proj -> inception_4d/pool_proj
I0403 15:12:09.331043 12035 net.cpp:141] Setting up inception_4d/pool_proj
I0403 15:12:09.331071 12035 net.cpp:148] Top shape: 24 64 14 14 (301056)
I0403 15:12:09.331085 12035 net.cpp:156] Memory required for data: 1146105120
I0403 15:12:09.331104 12035 layer_factory.hpp:77] Creating layer inception_4d/relu_pool_proj
I0403 15:12:09.331120 12035 net.cpp:91] Creating Layer inception_4d/relu_pool_proj
I0403 15:12:09.331140 12035 net.cpp:425] inception_4d/relu_pool_proj <- inception_4d/pool_proj
I0403 15:12:09.331161 12035 net.cpp:386] inception_4d/relu_pool_proj -> inception_4d/pool_proj (in-place)
I0403 15:12:09.331339 12035 net.cpp:141] Setting up inception_4d/relu_pool_proj
I0403 15:12:09.331364 12035 net.cpp:148] Top shape: 24 64 14 14 (301056)
I0403 15:12:09.331379 12035 net.cpp:156] Memory required for data: 1147309344
I0403 15:12:09.331393 12035 layer_factory.hpp:77] Creating layer inception_4d/output
I0403 15:12:09.331413 12035 net.cpp:91] Creating Layer inception_4d/output
I0403 15:12:09.331429 12035 net.cpp:425] inception_4d/output <- inception_4d/1x1
I0403 15:12:09.331444 12035 net.cpp:425] inception_4d/output <- inception_4d/3x3
I0403 15:12:09.331459 12035 net.cpp:425] inception_4d/output <- inception_4d/5x5
I0403 15:12:09.331473 12035 net.cpp:425] inception_4d/output <- inception_4d/pool_proj
I0403 15:12:09.331490 12035 net.cpp:399] inception_4d/output -> inception_4d/output
I0403 15:12:09.331538 12035 net.cpp:141] Setting up inception_4d/output
I0403 15:12:09.331560 12035 net.cpp:148] Top shape: 24 528 14 14 (2483712)
I0403 15:12:09.331574 12035 net.cpp:156] Memory required for data: 1157244192
I0403 15:12:09.331588 12035 layer_factory.hpp:77] Creating layer inception_4d/output_inception_4d/output_0_split
I0403 15:12:09.331605 12035 net.cpp:91] Creating Layer inception_4d/output_inception_4d/output_0_split
I0403 15:12:09.331619 12035 net.cpp:425] inception_4d/output_inception_4d/output_0_split <- inception_4d/output
I0403 15:12:09.331640 12035 net.cpp:399] inception_4d/output_inception_4d/output_0_split -> inception_4d/output_inception_4d/output_0_split_0
I0403 15:12:09.331660 12035 net.cpp:399] inception_4d/output_inception_4d/output_0_split -> inception_4d/output_inception_4d/output_0_split_1
I0403 15:12:09.331679 12035 net.cpp:399] inception_4d/output_inception_4d/output_0_split -> inception_4d/output_inception_4d/output_0_split_2
I0403 15:12:09.331698 12035 net.cpp:399] inception_4d/output_inception_4d/output_0_split -> inception_4d/output_inception_4d/output_0_split_3
I0403 15:12:09.331717 12035 net.cpp:399] inception_4d/output_inception_4d/output_0_split -> inception_4d/output_inception_4d/output_0_split_4
I0403 15:12:09.331821 12035 net.cpp:141] Setting up inception_4d/output_inception_4d/output_0_split
I0403 15:12:09.331856 12035 net.cpp:148] Top shape: 24 528 14 14 (2483712)
I0403 15:12:09.331874 12035 net.cpp:148] Top shape: 24 528 14 14 (2483712)
I0403 15:12:09.331889 12035 net.cpp:148] Top shape: 24 528 14 14 (2483712)
I0403 15:12:09.331904 12035 net.cpp:148] Top shape: 24 528 14 14 (2483712)
I0403 15:12:09.331918 12035 net.cpp:148] Top shape: 24 528 14 14 (2483712)
I0403 15:12:09.331931 12035 net.cpp:156] Memory required for data: 1206918432
I0403 15:12:09.331945 12035 layer_factory.hpp:77] Creating layer loss2/ave_pool
I0403 15:12:09.331962 12035 net.cpp:91] Creating Layer loss2/ave_pool
I0403 15:12:09.331977 12035 net.cpp:425] loss2/ave_pool <- inception_4d/output_inception_4d/output_0_split_0
I0403 15:12:09.331997 12035 net.cpp:399] loss2/ave_pool -> loss2/ave_pool
I0403 15:12:09.332309 12035 net.cpp:141] Setting up loss2/ave_pool
I0403 15:12:09.332335 12035 net.cpp:148] Top shape: 24 528 4 4 (202752)
I0403 15:12:09.332350 12035 net.cpp:156] Memory required for data: 1207729440
I0403 15:12:09.332365 12035 layer_factory.hpp:77] Creating layer loss2/conv
I0403 15:12:09.332387 12035 net.cpp:91] Creating Layer loss2/conv
I0403 15:12:09.332404 12035 net.cpp:425] loss2/conv <- loss2/ave_pool
I0403 15:12:09.332424 12035 net.cpp:399] loss2/conv -> loss2/conv
I0403 15:12:09.334288 12035 net.cpp:141] Setting up loss2/conv
I0403 15:12:09.334328 12035 net.cpp:148] Top shape: 24 128 4 4 (49152)
I0403 15:12:09.334344 12035 net.cpp:156] Memory required for data: 1207926048
I0403 15:12:09.334362 12035 layer_factory.hpp:77] Creating layer loss2/relu_conv
I0403 15:12:09.334381 12035 net.cpp:91] Creating Layer loss2/relu_conv
I0403 15:12:09.334410 12035 net.cpp:425] loss2/relu_conv <- loss2/conv
I0403 15:12:09.334426 12035 net.cpp:386] loss2/relu_conv -> loss2/conv (in-place)
I0403 15:12:09.334725 12035 net.cpp:141] Setting up loss2/relu_conv
I0403 15:12:09.334751 12035 net.cpp:148] Top shape: 24 128 4 4 (49152)
I0403 15:12:09.334765 12035 net.cpp:156] Memory required for data: 1208122656
I0403 15:12:09.334780 12035 layer_factory.hpp:77] Creating layer loss2/fc
I0403 15:12:09.334813 12035 net.cpp:91] Creating Layer loss2/fc
I0403 15:12:09.334831 12035 net.cpp:425] loss2/fc <- loss2/conv
I0403 15:12:09.334852 12035 net.cpp:399] loss2/fc -> loss2/fc
I0403 15:12:09.352783 12035 net.cpp:141] Setting up loss2/fc
I0403 15:12:09.352816 12035 net.cpp:148] Top shape: 24 1024 (24576)
I0403 15:12:09.352831 12035 net.cpp:156] Memory required for data: 1208220960
I0403 15:12:09.352849 12035 layer_factory.hpp:77] Creating layer loss2/relu_fc
I0403 15:12:09.352865 12035 net.cpp:91] Creating Layer loss2/relu_fc
I0403 15:12:09.352881 12035 net.cpp:425] loss2/relu_fc <- loss2/fc
I0403 15:12:09.352901 12035 net.cpp:386] loss2/relu_fc -> loss2/fc (in-place)
I0403 15:12:09.353209 12035 net.cpp:141] Setting up loss2/relu_fc
I0403 15:12:09.353235 12035 net.cpp:148] Top shape: 24 1024 (24576)
I0403 15:12:09.353248 12035 net.cpp:156] Memory required for data: 1208319264
I0403 15:12:09.353262 12035 layer_factory.hpp:77] Creating layer loss2/drop_fc
I0403 15:12:09.353279 12035 net.cpp:91] Creating Layer loss2/drop_fc
I0403 15:12:09.353294 12035 net.cpp:425] loss2/drop_fc <- loss2/fc
I0403 15:12:09.353312 12035 net.cpp:386] loss2/drop_fc -> loss2/fc (in-place)
I0403 15:12:09.353360 12035 net.cpp:141] Setting up loss2/drop_fc
I0403 15:12:09.353385 12035 net.cpp:148] Top shape: 24 1024 (24576)
I0403 15:12:09.353399 12035 net.cpp:156] Memory required for data: 1208417568
I0403 15:12:09.353413 12035 layer_factory.hpp:77] Creating layer loss2/classifier_plantvillage
I0403 15:12:09.353430 12035 net.cpp:91] Creating Layer loss2/classifier_plantvillage
I0403 15:12:09.353446 12035 net.cpp:425] loss2/classifier_plantvillage <- loss2/fc
I0403 15:12:09.353466 12035 net.cpp:399] loss2/classifier_plantvillage -> loss2/classifier_plantvillage
I0403 15:12:09.353859 12035 net.cpp:141] Setting up loss2/classifier_plantvillage
I0403 15:12:09.353885 12035 net.cpp:148] Top shape: 24 38 (912)
I0403 15:12:09.353917 12035 net.cpp:156] Memory required for data: 1208421216
I0403 15:12:09.353935 12035 layer_factory.hpp:77] Creating layer loss2/classifier_plantvillage_loss2/classifier_plantvillage_0_split
I0403 15:12:09.353952 12035 net.cpp:91] Creating Layer loss2/classifier_plantvillage_loss2/classifier_plantvillage_0_split
I0403 15:12:09.353967 12035 net.cpp:425] loss2/classifier_plantvillage_loss2/classifier_plantvillage_0_split <- loss2/classifier_plantvillage
I0403 15:12:09.353983 12035 net.cpp:399] loss2/classifier_plantvillage_loss2/classifier_plantvillage_0_split -> loss2/classifier_plantvillage_loss2/classifier_plantvillage_0_split_0
I0403 15:12:09.354002 12035 net.cpp:399] loss2/classifier_plantvillage_loss2/classifier_plantvillage_0_split -> loss2/classifier_plantvillage_loss2/classifier_plantvillage_0_split_1
I0403 15:12:09.354023 12035 net.cpp:399] loss2/classifier_plantvillage_loss2/classifier_plantvillage_0_split -> loss2/classifier_plantvillage_loss2/classifier_plantvillage_0_split_2
I0403 15:12:09.354099 12035 net.cpp:141] Setting up loss2/classifier_plantvillage_loss2/classifier_plantvillage_0_split
I0403 15:12:09.354120 12035 net.cpp:148] Top shape: 24 38 (912)
I0403 15:12:09.354156 12035 net.cpp:148] Top shape: 24 38 (912)
I0403 15:12:09.354171 12035 net.cpp:148] Top shape: 24 38 (912)
I0403 15:12:09.354183 12035 net.cpp:156] Memory required for data: 1208432160
I0403 15:12:09.354198 12035 layer_factory.hpp:77] Creating layer inception_4e/1x1
I0403 15:12:09.354218 12035 net.cpp:91] Creating Layer inception_4e/1x1
I0403 15:12:09.354233 12035 net.cpp:425] inception_4e/1x1 <- inception_4d/output_inception_4d/output_0_split_1
I0403 15:12:09.354254 12035 net.cpp:399] inception_4e/1x1 -> inception_4e/1x1
I0403 15:12:09.356046 12035 net.cpp:141] Setting up inception_4e/1x1
I0403 15:12:09.356073 12035 net.cpp:148] Top shape: 24 256 14 14 (1204224)
I0403 15:12:09.356087 12035 net.cpp:156] Memory required for data: 1213249056
I0403 15:12:09.356106 12035 layer_factory.hpp:77] Creating layer inception_4e/relu_1x1
I0403 15:12:09.356124 12035 net.cpp:91] Creating Layer inception_4e/relu_1x1
I0403 15:12:09.356158 12035 net.cpp:425] inception_4e/relu_1x1 <- inception_4e/1x1
I0403 15:12:09.356174 12035 net.cpp:386] inception_4e/relu_1x1 -> inception_4e/1x1 (in-place)
I0403 15:12:09.356482 12035 net.cpp:141] Setting up inception_4e/relu_1x1
I0403 15:12:09.356506 12035 net.cpp:148] Top shape: 24 256 14 14 (1204224)
I0403 15:12:09.356520 12035 net.cpp:156] Memory required for data: 1218065952
I0403 15:12:09.356535 12035 layer_factory.hpp:77] Creating layer inception_4e/3x3_reduce
I0403 15:12:09.356559 12035 net.cpp:91] Creating Layer inception_4e/3x3_reduce
I0403 15:12:09.356575 12035 net.cpp:425] inception_4e/3x3_reduce <- inception_4d/output_inception_4d/output_0_split_2
I0403 15:12:09.356592 12035 net.cpp:399] inception_4e/3x3_reduce -> inception_4e/3x3_reduce
I0403 15:12:09.358654 12035 net.cpp:141] Setting up inception_4e/3x3_reduce
I0403 15:12:09.358681 12035 net.cpp:148] Top shape: 24 160 14 14 (752640)
I0403 15:12:09.358696 12035 net.cpp:156] Memory required for data: 1221076512
I0403 15:12:09.358713 12035 layer_factory.hpp:77] Creating layer inception_4e/relu_3x3_reduce
I0403 15:12:09.358733 12035 net.cpp:91] Creating Layer inception_4e/relu_3x3_reduce
I0403 15:12:09.358749 12035 net.cpp:425] inception_4e/relu_3x3_reduce <- inception_4e/3x3_reduce
I0403 15:12:09.358765 12035 net.cpp:386] inception_4e/relu_3x3_reduce -> inception_4e/3x3_reduce (in-place)
I0403 15:12:09.358945 12035 net.cpp:141] Setting up inception_4e/relu_3x3_reduce
I0403 15:12:09.358971 12035 net.cpp:148] Top shape: 24 160 14 14 (752640)
I0403 15:12:09.358988 12035 net.cpp:156] Memory required for data: 1224087072
I0403 15:12:09.359001 12035 layer_factory.hpp:77] Creating layer inception_4e/3x3
I0403 15:12:09.359022 12035 net.cpp:91] Creating Layer inception_4e/3x3
I0403 15:12:09.359038 12035 net.cpp:425] inception_4e/3x3 <- inception_4e/3x3_reduce
I0403 15:12:09.359055 12035 net.cpp:399] inception_4e/3x3 -> inception_4e/3x3
I0403 15:12:09.364023 12035 net.cpp:141] Setting up inception_4e/3x3
I0403 15:12:09.364066 12035 net.cpp:148] Top shape: 24 320 14 14 (1505280)
I0403 15:12:09.364083 12035 net.cpp:156] Memory required for data: 1230108192
I0403 15:12:09.364100 12035 layer_factory.hpp:77] Creating layer inception_4e/relu_3x3
I0403 15:12:09.364117 12035 net.cpp:91] Creating Layer inception_4e/relu_3x3
I0403 15:12:09.364137 12035 net.cpp:425] inception_4e/relu_3x3 <- inception_4e/3x3
I0403 15:12:09.364157 12035 net.cpp:386] inception_4e/relu_3x3 -> inception_4e/3x3 (in-place)
I0403 15:12:09.364451 12035 net.cpp:141] Setting up inception_4e/relu_3x3
I0403 15:12:09.364478 12035 net.cpp:148] Top shape: 24 320 14 14 (1505280)
I0403 15:12:09.364493 12035 net.cpp:156] Memory required for data: 1236129312
I0403 15:12:09.364507 12035 layer_factory.hpp:77] Creating layer inception_4e/5x5_reduce
I0403 15:12:09.364529 12035 net.cpp:91] Creating Layer inception_4e/5x5_reduce
I0403 15:12:09.364547 12035 net.cpp:425] inception_4e/5x5_reduce <- inception_4d/output_inception_4d/output_0_split_3
I0403 15:12:09.364568 12035 net.cpp:399] inception_4e/5x5_reduce -> inception_4e/5x5_reduce
I0403 15:12:09.365615 12035 net.cpp:141] Setting up inception_4e/5x5_reduce
I0403 15:12:09.365643 12035 net.cpp:148] Top shape: 24 32 14 14 (150528)
I0403 15:12:09.365656 12035 net.cpp:156] Memory required for data: 1236731424
I0403 15:12:09.365674 12035 layer_factory.hpp:77] Creating layer inception_4e/relu_5x5_reduce
I0403 15:12:09.365692 12035 net.cpp:91] Creating Layer inception_4e/relu_5x5_reduce
I0403 15:12:09.365708 12035 net.cpp:425] inception_4e/relu_5x5_reduce <- inception_4e/5x5_reduce
I0403 15:12:09.365725 12035 net.cpp:386] inception_4e/relu_5x5_reduce -> inception_4e/5x5_reduce (in-place)
I0403 15:12:09.366017 12035 net.cpp:141] Setting up inception_4e/relu_5x5_reduce
I0403 15:12:09.366042 12035 net.cpp:148] Top shape: 24 32 14 14 (150528)
I0403 15:12:09.366056 12035 net.cpp:156] Memory required for data: 1237333536
I0403 15:12:09.366070 12035 layer_factory.hpp:77] Creating layer inception_4e/5x5
I0403 15:12:09.366106 12035 net.cpp:91] Creating Layer inception_4e/5x5
I0403 15:12:09.366123 12035 net.cpp:425] inception_4e/5x5 <- inception_4e/5x5_reduce
I0403 15:12:09.366163 12035 net.cpp:399] inception_4e/5x5 -> inception_4e/5x5
I0403 15:12:09.367985 12035 net.cpp:141] Setting up inception_4e/5x5
I0403 15:12:09.368011 12035 net.cpp:148] Top shape: 24 128 14 14 (602112)
I0403 15:12:09.368026 12035 net.cpp:156] Memory required for data: 1239741984
I0403 15:12:09.368044 12035 layer_factory.hpp:77] Creating layer inception_4e/relu_5x5
I0403 15:12:09.368063 12035 net.cpp:91] Creating Layer inception_4e/relu_5x5
I0403 15:12:09.368079 12035 net.cpp:425] inception_4e/relu_5x5 <- inception_4e/5x5
I0403 15:12:09.368096 12035 net.cpp:386] inception_4e/relu_5x5 -> inception_4e/5x5 (in-place)
I0403 15:12:09.368304 12035 net.cpp:141] Setting up inception_4e/relu_5x5
I0403 15:12:09.368330 12035 net.cpp:148] Top shape: 24 128 14 14 (602112)
I0403 15:12:09.368343 12035 net.cpp:156] Memory required for data: 1242150432
I0403 15:12:09.368358 12035 layer_factory.hpp:77] Creating layer inception_4e/pool
I0403 15:12:09.368377 12035 net.cpp:91] Creating Layer inception_4e/pool
I0403 15:12:09.368394 12035 net.cpp:425] inception_4e/pool <- inception_4d/output_inception_4d/output_0_split_4
I0403 15:12:09.368412 12035 net.cpp:399] inception_4e/pool -> inception_4e/pool
I0403 15:12:09.368481 12035 net.cpp:141] Setting up inception_4e/pool
I0403 15:12:09.368505 12035 net.cpp:148] Top shape: 24 528 14 14 (2483712)
I0403 15:12:09.368520 12035 net.cpp:156] Memory required for data: 1252085280
I0403 15:12:09.368533 12035 layer_factory.hpp:77] Creating layer inception_4e/pool_proj
I0403 15:12:09.368567 12035 net.cpp:91] Creating Layer inception_4e/pool_proj
I0403 15:12:09.368583 12035 net.cpp:425] inception_4e/pool_proj <- inception_4e/pool
I0403 15:12:09.368604 12035 net.cpp:399] inception_4e/pool_proj -> inception_4e/pool_proj
I0403 15:12:09.370062 12035 net.cpp:141] Setting up inception_4e/pool_proj
I0403 15:12:09.370100 12035 net.cpp:148] Top shape: 24 128 14 14 (602112)
I0403 15:12:09.370115 12035 net.cpp:156] Memory required for data: 1254493728
I0403 15:12:09.370137 12035 layer_factory.hpp:77] Creating layer inception_4e/relu_pool_proj
I0403 15:12:09.370156 12035 net.cpp:91] Creating Layer inception_4e/relu_pool_proj
I0403 15:12:09.370172 12035 net.cpp:425] inception_4e/relu_pool_proj <- inception_4e/pool_proj
I0403 15:12:09.370190 12035 net.cpp:386] inception_4e/relu_pool_proj -> inception_4e/pool_proj (in-place)
I0403 15:12:09.370476 12035 net.cpp:141] Setting up inception_4e/relu_pool_proj
I0403 15:12:09.370502 12035 net.cpp:148] Top shape: 24 128 14 14 (602112)
I0403 15:12:09.370517 12035 net.cpp:156] Memory required for data: 1256902176
I0403 15:12:09.370530 12035 layer_factory.hpp:77] Creating layer inception_4e/output
I0403 15:12:09.370546 12035 net.cpp:91] Creating Layer inception_4e/output
I0403 15:12:09.370561 12035 net.cpp:425] inception_4e/output <- inception_4e/1x1
I0403 15:12:09.370578 12035 net.cpp:425] inception_4e/output <- inception_4e/3x3
I0403 15:12:09.370592 12035 net.cpp:425] inception_4e/output <- inception_4e/5x5
I0403 15:12:09.370609 12035 net.cpp:425] inception_4e/output <- inception_4e/pool_proj
I0403 15:12:09.370626 12035 net.cpp:399] inception_4e/output -> inception_4e/output
I0403 15:12:09.370673 12035 net.cpp:141] Setting up inception_4e/output
I0403 15:12:09.370698 12035 net.cpp:148] Top shape: 24 832 14 14 (3913728)
I0403 15:12:09.370712 12035 net.cpp:156] Memory required for data: 1272557088
I0403 15:12:09.370726 12035 layer_factory.hpp:77] Creating layer pool4/3x3_s2
I0403 15:12:09.370743 12035 net.cpp:91] Creating Layer pool4/3x3_s2
I0403 15:12:09.370759 12035 net.cpp:425] pool4/3x3_s2 <- inception_4e/output
I0403 15:12:09.370775 12035 net.cpp:399] pool4/3x3_s2 -> pool4/3x3_s2
I0403 15:12:09.370841 12035 net.cpp:141] Setting up pool4/3x3_s2
I0403 15:12:09.370864 12035 net.cpp:148] Top shape: 24 832 7 7 (978432)
I0403 15:12:09.370877 12035 net.cpp:156] Memory required for data: 1276470816
I0403 15:12:09.370892 12035 layer_factory.hpp:77] Creating layer pool4/3x3_s2_pool4/3x3_s2_0_split
I0403 15:12:09.370910 12035 net.cpp:91] Creating Layer pool4/3x3_s2_pool4/3x3_s2_0_split
I0403 15:12:09.370926 12035 net.cpp:425] pool4/3x3_s2_pool4/3x3_s2_0_split <- pool4/3x3_s2
I0403 15:12:09.370942 12035 net.cpp:399] pool4/3x3_s2_pool4/3x3_s2_0_split -> pool4/3x3_s2_pool4/3x3_s2_0_split_0
I0403 15:12:09.370960 12035 net.cpp:399] pool4/3x3_s2_pool4/3x3_s2_0_split -> pool4/3x3_s2_pool4/3x3_s2_0_split_1
I0403 15:12:09.370980 12035 net.cpp:399] pool4/3x3_s2_pool4/3x3_s2_0_split -> pool4/3x3_s2_pool4/3x3_s2_0_split_2
I0403 15:12:09.371001 12035 net.cpp:399] pool4/3x3_s2_pool4/3x3_s2_0_split -> pool4/3x3_s2_pool4/3x3_s2_0_split_3
I0403 15:12:09.371089 12035 net.cpp:141] Setting up pool4/3x3_s2_pool4/3x3_s2_0_split
I0403 15:12:09.371111 12035 net.cpp:148] Top shape: 24 832 7 7 (978432)
I0403 15:12:09.371131 12035 net.cpp:148] Top shape: 24 832 7 7 (978432)
I0403 15:12:09.371161 12035 net.cpp:148] Top shape: 24 832 7 7 (978432)
I0403 15:12:09.371177 12035 net.cpp:148] Top shape: 24 832 7 7 (978432)
I0403 15:12:09.371191 12035 net.cpp:156] Memory required for data: 1292125728
I0403 15:12:09.371204 12035 layer_factory.hpp:77] Creating layer inception_5a/1x1
I0403 15:12:09.371227 12035 net.cpp:91] Creating Layer inception_5a/1x1
I0403 15:12:09.371244 12035 net.cpp:425] inception_5a/1x1 <- pool4/3x3_s2_pool4/3x3_s2_0_split_0
I0403 15:12:09.371264 12035 net.cpp:399] inception_5a/1x1 -> inception_5a/1x1
I0403 15:12:09.374094 12035 net.cpp:141] Setting up inception_5a/1x1
I0403 15:12:09.374124 12035 net.cpp:148] Top shape: 24 256 7 7 (301056)
I0403 15:12:09.374142 12035 net.cpp:156] Memory required for data: 1293329952
I0403 15:12:09.374161 12035 layer_factory.hpp:77] Creating layer inception_5a/relu_1x1
I0403 15:12:09.374179 12035 net.cpp:91] Creating Layer inception_5a/relu_1x1
I0403 15:12:09.374196 12035 net.cpp:425] inception_5a/relu_1x1 <- inception_5a/1x1
I0403 15:12:09.374212 12035 net.cpp:386] inception_5a/relu_1x1 -> inception_5a/1x1 (in-place)
I0403 15:12:09.374518 12035 net.cpp:141] Setting up inception_5a/relu_1x1
I0403 15:12:09.374544 12035 net.cpp:148] Top shape: 24 256 7 7 (301056)
I0403 15:12:09.374558 12035 net.cpp:156] Memory required for data: 1294534176
I0403 15:12:09.374573 12035 layer_factory.hpp:77] Creating layer inception_5a/3x3_reduce
I0403 15:12:09.374594 12035 net.cpp:91] Creating Layer inception_5a/3x3_reduce
I0403 15:12:09.374611 12035 net.cpp:425] inception_5a/3x3_reduce <- pool4/3x3_s2_pool4/3x3_s2_0_split_1
I0403 15:12:09.374631 12035 net.cpp:399] inception_5a/3x3_reduce -> inception_5a/3x3_reduce
I0403 15:12:09.377045 12035 net.cpp:141] Setting up inception_5a/3x3_reduce
I0403 15:12:09.377074 12035 net.cpp:148] Top shape: 24 160 7 7 (188160)
I0403 15:12:09.377087 12035 net.cpp:156] Memory required for data: 1295286816
I0403 15:12:09.377105 12035 layer_factory.hpp:77] Creating layer inception_5a/relu_3x3_reduce
I0403 15:12:09.377122 12035 net.cpp:91] Creating Layer inception_5a/relu_3x3_reduce
I0403 15:12:09.377142 12035 net.cpp:425] inception_5a/relu_3x3_reduce <- inception_5a/3x3_reduce
I0403 15:12:09.377162 12035 net.cpp:386] inception_5a/relu_3x3_reduce -> inception_5a/3x3_reduce (in-place)
I0403 15:12:09.377348 12035 net.cpp:141] Setting up inception_5a/relu_3x3_reduce
I0403 15:12:09.377374 12035 net.cpp:148] Top shape: 24 160 7 7 (188160)
I0403 15:12:09.377388 12035 net.cpp:156] Memory required for data: 1296039456
I0403 15:12:09.377401 12035 layer_factory.hpp:77] Creating layer inception_5a/3x3
I0403 15:12:09.377423 12035 net.cpp:91] Creating Layer inception_5a/3x3
I0403 15:12:09.377439 12035 net.cpp:425] inception_5a/3x3 <- inception_5a/3x3_reduce
I0403 15:12:09.377460 12035 net.cpp:399] inception_5a/3x3 -> inception_5a/3x3
I0403 15:12:09.382463 12035 net.cpp:141] Setting up inception_5a/3x3
I0403 15:12:09.382493 12035 net.cpp:148] Top shape: 24 320 7 7 (376320)
I0403 15:12:09.382508 12035 net.cpp:156] Memory required for data: 1297544736
I0403 15:12:09.382526 12035 layer_factory.hpp:77] Creating layer inception_5a/relu_3x3
I0403 15:12:09.382545 12035 net.cpp:91] Creating Layer inception_5a/relu_3x3
I0403 15:12:09.382561 12035 net.cpp:425] inception_5a/relu_3x3 <- inception_5a/3x3
I0403 15:12:09.382578 12035 net.cpp:386] inception_5a/relu_3x3 -> inception_5a/3x3 (in-place)
I0403 15:12:09.382870 12035 net.cpp:141] Setting up inception_5a/relu_3x3
I0403 15:12:09.382896 12035 net.cpp:148] Top shape: 24 320 7 7 (376320)
I0403 15:12:09.382910 12035 net.cpp:156] Memory required for data: 1299050016
I0403 15:12:09.382925 12035 layer_factory.hpp:77] Creating layer inception_5a/5x5_reduce
I0403 15:12:09.382946 12035 net.cpp:91] Creating Layer inception_5a/5x5_reduce
I0403 15:12:09.382963 12035 net.cpp:425] inception_5a/5x5_reduce <- pool4/3x3_s2_pool4/3x3_s2_0_split_2
I0403 15:12:09.382985 12035 net.cpp:399] inception_5a/5x5_reduce -> inception_5a/5x5_reduce
I0403 15:12:09.384140 12035 net.cpp:141] Setting up inception_5a/5x5_reduce
I0403 15:12:09.384171 12035 net.cpp:148] Top shape: 24 32 7 7 (37632)
I0403 15:12:09.384186 12035 net.cpp:156] Memory required for data: 1299200544
I0403 15:12:09.384203 12035 layer_factory.hpp:77] Creating layer inception_5a/relu_5x5_reduce
I0403 15:12:09.384219 12035 net.cpp:91] Creating Layer inception_5a/relu_5x5_reduce
I0403 15:12:09.384235 12035 net.cpp:425] inception_5a/relu_5x5_reduce <- inception_5a/5x5_reduce
I0403 15:12:09.384251 12035 net.cpp:386] inception_5a/relu_5x5_reduce -> inception_5a/5x5_reduce (in-place)
I0403 15:12:09.384542 12035 net.cpp:141] Setting up inception_5a/relu_5x5_reduce
I0403 15:12:09.384568 12035 net.cpp:148] Top shape: 24 32 7 7 (37632)
I0403 15:12:09.384582 12035 net.cpp:156] Memory required for data: 1299351072
I0403 15:12:09.384596 12035 layer_factory.hpp:77] Creating layer inception_5a/5x5
I0403 15:12:09.384618 12035 net.cpp:91] Creating Layer inception_5a/5x5
I0403 15:12:09.384635 12035 net.cpp:425] inception_5a/5x5 <- inception_5a/5x5_reduce
I0403 15:12:09.384655 12035 net.cpp:399] inception_5a/5x5 -> inception_5a/5x5
I0403 15:12:09.386364 12035 net.cpp:141] Setting up inception_5a/5x5
I0403 15:12:09.386404 12035 net.cpp:148] Top shape: 24 128 7 7 (150528)
I0403 15:12:09.386420 12035 net.cpp:156] Memory required for data: 1299953184
I0403 15:12:09.386437 12035 layer_factory.hpp:77] Creating layer inception_5a/relu_5x5
I0403 15:12:09.386456 12035 net.cpp:91] Creating Layer inception_5a/relu_5x5
I0403 15:12:09.386473 12035 net.cpp:425] inception_5a/relu_5x5 <- inception_5a/5x5
I0403 15:12:09.386489 12035 net.cpp:386] inception_5a/relu_5x5 -> inception_5a/5x5 (in-place)
I0403 15:12:09.386674 12035 net.cpp:141] Setting up inception_5a/relu_5x5
I0403 15:12:09.386701 12035 net.cpp:148] Top shape: 24 128 7 7 (150528)
I0403 15:12:09.386716 12035 net.cpp:156] Memory required for data: 1300555296
I0403 15:12:09.386731 12035 layer_factory.hpp:77] Creating layer inception_5a/pool
I0403 15:12:09.386749 12035 net.cpp:91] Creating Layer inception_5a/pool
I0403 15:12:09.386764 12035 net.cpp:425] inception_5a/pool <- pool4/3x3_s2_pool4/3x3_s2_0_split_3
I0403 15:12:09.386780 12035 net.cpp:399] inception_5a/pool -> inception_5a/pool
I0403 15:12:09.386852 12035 net.cpp:141] Setting up inception_5a/pool
I0403 15:12:09.386875 12035 net.cpp:148] Top shape: 24 832 7 7 (978432)
I0403 15:12:09.386888 12035 net.cpp:156] Memory required for data: 1304469024
I0403 15:12:09.386904 12035 layer_factory.hpp:77] Creating layer inception_5a/pool_proj
I0403 15:12:09.386924 12035 net.cpp:91] Creating Layer inception_5a/pool_proj
I0403 15:12:09.386942 12035 net.cpp:425] inception_5a/pool_proj <- inception_5a/pool
I0403 15:12:09.386962 12035 net.cpp:399] inception_5a/pool_proj -> inception_5a/pool_proj
I0403 15:12:09.389188 12035 net.cpp:141] Setting up inception_5a/pool_proj
I0403 15:12:09.389216 12035 net.cpp:148] Top shape: 24 128 7 7 (150528)
I0403 15:12:09.389230 12035 net.cpp:156] Memory required for data: 1305071136
I0403 15:12:09.389248 12035 layer_factory.hpp:77] Creating layer inception_5a/relu_pool_proj
I0403 15:12:09.389267 12035 net.cpp:91] Creating Layer inception_5a/relu_pool_proj
I0403 15:12:09.389284 12035 net.cpp:425] inception_5a/relu_pool_proj <- inception_5a/pool_proj
I0403 15:12:09.389302 12035 net.cpp:386] inception_5a/relu_pool_proj -> inception_5a/pool_proj (in-place)
I0403 15:12:09.389585 12035 net.cpp:141] Setting up inception_5a/relu_pool_proj
I0403 15:12:09.389611 12035 net.cpp:148] Top shape: 24 128 7 7 (150528)
I0403 15:12:09.389626 12035 net.cpp:156] Memory required for data: 1305673248
I0403 15:12:09.389641 12035 layer_factory.hpp:77] Creating layer inception_5a/output
I0403 15:12:09.389657 12035 net.cpp:91] Creating Layer inception_5a/output
I0403 15:12:09.389672 12035 net.cpp:425] inception_5a/output <- inception_5a/1x1
I0403 15:12:09.389688 12035 net.cpp:425] inception_5a/output <- inception_5a/3x3
I0403 15:12:09.389703 12035 net.cpp:425] inception_5a/output <- inception_5a/5x5
I0403 15:12:09.389719 12035 net.cpp:425] inception_5a/output <- inception_5a/pool_proj
I0403 15:12:09.389739 12035 net.cpp:399] inception_5a/output -> inception_5a/output
I0403 15:12:09.389787 12035 net.cpp:141] Setting up inception_5a/output
I0403 15:12:09.389814 12035 net.cpp:148] Top shape: 24 832 7 7 (978432)
I0403 15:12:09.389830 12035 net.cpp:156] Memory required for data: 1309586976
I0403 15:12:09.389844 12035 layer_factory.hpp:77] Creating layer inception_5a/output_inception_5a/output_0_split
I0403 15:12:09.389860 12035 net.cpp:91] Creating Layer inception_5a/output_inception_5a/output_0_split
I0403 15:12:09.389875 12035 net.cpp:425] inception_5a/output_inception_5a/output_0_split <- inception_5a/output
I0403 15:12:09.389894 12035 net.cpp:399] inception_5a/output_inception_5a/output_0_split -> inception_5a/output_inception_5a/output_0_split_0
I0403 15:12:09.389914 12035 net.cpp:399] inception_5a/output_inception_5a/output_0_split -> inception_5a/output_inception_5a/output_0_split_1
I0403 15:12:09.389935 12035 net.cpp:399] inception_5a/output_inception_5a/output_0_split -> inception_5a/output_inception_5a/output_0_split_2
I0403 15:12:09.389955 12035 net.cpp:399] inception_5a/output_inception_5a/output_0_split -> inception_5a/output_inception_5a/output_0_split_3
I0403 15:12:09.390061 12035 net.cpp:141] Setting up inception_5a/output_inception_5a/output_0_split
I0403 15:12:09.390085 12035 net.cpp:148] Top shape: 24 832 7 7 (978432)
I0403 15:12:09.390101 12035 net.cpp:148] Top shape: 24 832 7 7 (978432)
I0403 15:12:09.390116 12035 net.cpp:148] Top shape: 24 832 7 7 (978432)
I0403 15:12:09.390148 12035 net.cpp:148] Top shape: 24 832 7 7 (978432)
I0403 15:12:09.390166 12035 net.cpp:156] Memory required for data: 1325241888
I0403 15:12:09.390179 12035 layer_factory.hpp:77] Creating layer inception_5b/1x1
I0403 15:12:09.390202 12035 net.cpp:91] Creating Layer inception_5b/1x1
I0403 15:12:09.390219 12035 net.cpp:425] inception_5b/1x1 <- inception_5a/output_inception_5a/output_0_split_0
I0403 15:12:09.390242 12035 net.cpp:399] inception_5b/1x1 -> inception_5b/1x1
I0403 15:12:09.393971 12035 net.cpp:141] Setting up inception_5b/1x1
I0403 15:12:09.394001 12035 net.cpp:148] Top shape: 24 384 7 7 (451584)
I0403 15:12:09.394017 12035 net.cpp:156] Memory required for data: 1327048224
I0403 15:12:09.394034 12035 layer_factory.hpp:77] Creating layer inception_5b/relu_1x1
I0403 15:12:09.394052 12035 net.cpp:91] Creating Layer inception_5b/relu_1x1
I0403 15:12:09.394069 12035 net.cpp:425] inception_5b/relu_1x1 <- inception_5b/1x1
I0403 15:12:09.394088 12035 net.cpp:386] inception_5b/relu_1x1 -> inception_5b/1x1 (in-place)
I0403 15:12:09.394409 12035 net.cpp:141] Setting up inception_5b/relu_1x1
I0403 15:12:09.394435 12035 net.cpp:148] Top shape: 24 384 7 7 (451584)
I0403 15:12:09.394451 12035 net.cpp:156] Memory required for data: 1328854560
I0403 15:12:09.394466 12035 layer_factory.hpp:77] Creating layer inception_5b/3x3_reduce
I0403 15:12:09.394487 12035 net.cpp:91] Creating Layer inception_5b/3x3_reduce
I0403 15:12:09.394505 12035 net.cpp:425] inception_5b/3x3_reduce <- inception_5a/output_inception_5a/output_0_split_1
I0403 15:12:09.394528 12035 net.cpp:399] inception_5b/3x3_reduce -> inception_5b/3x3_reduce
I0403 15:12:09.397192 12035 net.cpp:141] Setting up inception_5b/3x3_reduce
I0403 15:12:09.397222 12035 net.cpp:148] Top shape: 24 192 7 7 (225792)
I0403 15:12:09.397236 12035 net.cpp:156] Memory required for data: 1329757728
I0403 15:12:09.397255 12035 layer_factory.hpp:77] Creating layer inception_5b/relu_3x3_reduce
I0403 15:12:09.397272 12035 net.cpp:91] Creating Layer inception_5b/relu_3x3_reduce
I0403 15:12:09.397289 12035 net.cpp:425] inception_5b/relu_3x3_reduce <- inception_5b/3x3_reduce
I0403 15:12:09.397307 12035 net.cpp:386] inception_5b/relu_3x3_reduce -> inception_5b/3x3_reduce (in-place)
I0403 15:12:09.397495 12035 net.cpp:141] Setting up inception_5b/relu_3x3_reduce
I0403 15:12:09.397519 12035 net.cpp:148] Top shape: 24 192 7 7 (225792)
I0403 15:12:09.397533 12035 net.cpp:156] Memory required for data: 1330660896
I0403 15:12:09.397547 12035 layer_factory.hpp:77] Creating layer inception_5b/3x3
I0403 15:12:09.397568 12035 net.cpp:91] Creating Layer inception_5b/3x3
I0403 15:12:09.397586 12035 net.cpp:425] inception_5b/3x3 <- inception_5b/3x3_reduce
I0403 15:12:09.397608 12035 net.cpp:399] inception_5b/3x3 -> inception_5b/3x3
I0403 15:12:09.404242 12035 net.cpp:141] Setting up inception_5b/3x3
I0403 15:12:09.404270 12035 net.cpp:148] Top shape: 24 384 7 7 (451584)
I0403 15:12:09.404285 12035 net.cpp:156] Memory required for data: 1332467232
I0403 15:12:09.404304 12035 layer_factory.hpp:77] Creating layer inception_5b/relu_3x3
I0403 15:12:09.404325 12035 net.cpp:91] Creating Layer inception_5b/relu_3x3
I0403 15:12:09.404341 12035 net.cpp:425] inception_5b/relu_3x3 <- inception_5b/3x3
I0403 15:12:09.404358 12035 net.cpp:386] inception_5b/relu_3x3 -> inception_5b/3x3 (in-place)
I0403 15:12:09.404646 12035 net.cpp:141] Setting up inception_5b/relu_3x3
I0403 15:12:09.404673 12035 net.cpp:148] Top shape: 24 384 7 7 (451584)
I0403 15:12:09.404687 12035 net.cpp:156] Memory required for data: 1334273568
I0403 15:12:09.404702 12035 layer_factory.hpp:77] Creating layer inception_5b/5x5_reduce
I0403 15:12:09.404739 12035 net.cpp:91] Creating Layer inception_5b/5x5_reduce
I0403 15:12:09.404758 12035 net.cpp:425] inception_5b/5x5_reduce <- inception_5a/output_inception_5a/output_0_split_2
I0403 15:12:09.404780 12035 net.cpp:399] inception_5b/5x5_reduce -> inception_5b/5x5_reduce
I0403 15:12:09.406045 12035 net.cpp:141] Setting up inception_5b/5x5_reduce
I0403 15:12:09.406074 12035 net.cpp:148] Top shape: 24 48 7 7 (56448)
I0403 15:12:09.406090 12035 net.cpp:156] Memory required for data: 1334499360
I0403 15:12:09.406107 12035 layer_factory.hpp:77] Creating layer inception_5b/relu_5x5_reduce
I0403 15:12:09.406128 12035 net.cpp:91] Creating Layer inception_5b/relu_5x5_reduce
I0403 15:12:09.406147 12035 net.cpp:425] inception_5b/relu_5x5_reduce <- inception_5b/5x5_reduce
I0403 15:12:09.406168 12035 net.cpp:386] inception_5b/relu_5x5_reduce -> inception_5b/5x5_reduce (in-place)
I0403 15:12:09.406533 12035 net.cpp:141] Setting up inception_5b/relu_5x5_reduce
I0403 15:12:09.406559 12035 net.cpp:148] Top shape: 24 48 7 7 (56448)
I0403 15:12:09.406574 12035 net.cpp:156] Memory required for data: 1334725152
I0403 15:12:09.406589 12035 layer_factory.hpp:77] Creating layer inception_5b/5x5
I0403 15:12:09.406608 12035 net.cpp:91] Creating Layer inception_5b/5x5
I0403 15:12:09.406625 12035 net.cpp:425] inception_5b/5x5 <- inception_5b/5x5_reduce
I0403 15:12:09.406643 12035 net.cpp:399] inception_5b/5x5 -> inception_5b/5x5
I0403 15:12:09.408746 12035 net.cpp:141] Setting up inception_5b/5x5
I0403 15:12:09.408776 12035 net.cpp:148] Top shape: 24 128 7 7 (150528)
I0403 15:12:09.408792 12035 net.cpp:156] Memory required for data: 1335327264
I0403 15:12:09.408809 12035 layer_factory.hpp:77] Creating layer inception_5b/relu_5x5
I0403 15:12:09.408829 12035 net.cpp:91] Creating Layer inception_5b/relu_5x5
I0403 15:12:09.408846 12035 net.cpp:425] inception_5b/relu_5x5 <- inception_5b/5x5
I0403 15:12:09.408864 12035 net.cpp:386] inception_5b/relu_5x5 -> inception_5b/5x5 (in-place)
I0403 15:12:09.409060 12035 net.cpp:141] Setting up inception_5b/relu_5x5
I0403 15:12:09.409085 12035 net.cpp:148] Top shape: 24 128 7 7 (150528)
I0403 15:12:09.409102 12035 net.cpp:156] Memory required for data: 1335929376
I0403 15:12:09.409116 12035 layer_factory.hpp:77] Creating layer inception_5b/pool
I0403 15:12:09.409142 12035 net.cpp:91] Creating Layer inception_5b/pool
I0403 15:12:09.409160 12035 net.cpp:425] inception_5b/pool <- inception_5a/output_inception_5a/output_0_split_3
I0403 15:12:09.409184 12035 net.cpp:399] inception_5b/pool -> inception_5b/pool
I0403 15:12:09.409256 12035 net.cpp:141] Setting up inception_5b/pool
I0403 15:12:09.409281 12035 net.cpp:148] Top shape: 24 832 7 7 (978432)
I0403 15:12:09.409296 12035 net.cpp:156] Memory required for data: 1339843104
I0403 15:12:09.409310 12035 layer_factory.hpp:77] Creating layer inception_5b/pool_proj
I0403 15:12:09.409332 12035 net.cpp:91] Creating Layer inception_5b/pool_proj
I0403 15:12:09.409350 12035 net.cpp:425] inception_5b/pool_proj <- inception_5b/pool
I0403 15:12:09.409373 12035 net.cpp:399] inception_5b/pool_proj -> inception_5b/pool_proj
I0403 15:12:09.411691 12035 net.cpp:141] Setting up inception_5b/pool_proj
I0403 15:12:09.411721 12035 net.cpp:148] Top shape: 24 128 7 7 (150528)
I0403 15:12:09.411736 12035 net.cpp:156] Memory required for data: 1340445216
I0403 15:12:09.411754 12035 layer_factory.hpp:77] Creating layer inception_5b/relu_pool_proj
I0403 15:12:09.411772 12035 net.cpp:91] Creating Layer inception_5b/relu_pool_proj
I0403 15:12:09.411787 12035 net.cpp:425] inception_5b/relu_pool_proj <- inception_5b/pool_proj
I0403 15:12:09.411806 12035 net.cpp:386] inception_5b/relu_pool_proj -> inception_5b/pool_proj (in-place)
I0403 15:12:09.412106 12035 net.cpp:141] Setting up inception_5b/relu_pool_proj
I0403 15:12:09.412137 12035 net.cpp:148] Top shape: 24 128 7 7 (150528)
I0403 15:12:09.412153 12035 net.cpp:156] Memory required for data: 1341047328
I0403 15:12:09.412169 12035 layer_factory.hpp:77] Creating layer inception_5b/output
I0403 15:12:09.412186 12035 net.cpp:91] Creating Layer inception_5b/output
I0403 15:12:09.412216 12035 net.cpp:425] inception_5b/output <- inception_5b/1x1
I0403 15:12:09.412235 12035 net.cpp:425] inception_5b/output <- inception_5b/3x3
I0403 15:12:09.412251 12035 net.cpp:425] inception_5b/output <- inception_5b/5x5
I0403 15:12:09.412268 12035 net.cpp:425] inception_5b/output <- inception_5b/pool_proj
I0403 15:12:09.412288 12035 net.cpp:399] inception_5b/output -> inception_5b/output
I0403 15:12:09.412340 12035 net.cpp:141] Setting up inception_5b/output
I0403 15:12:09.412367 12035 net.cpp:148] Top shape: 24 1024 7 7 (1204224)
I0403 15:12:09.412384 12035 net.cpp:156] Memory required for data: 1345864224
I0403 15:12:09.412398 12035 layer_factory.hpp:77] Creating layer pool5/7x7_s1
I0403 15:12:09.412416 12035 net.cpp:91] Creating Layer pool5/7x7_s1
I0403 15:12:09.412431 12035 net.cpp:425] pool5/7x7_s1 <- inception_5b/output
I0403 15:12:09.412451 12035 net.cpp:399] pool5/7x7_s1 -> pool5/7x7_s1
I0403 15:12:09.412669 12035 net.cpp:141] Setting up pool5/7x7_s1
I0403 15:12:09.412695 12035 net.cpp:148] Top shape: 24 1024 1 1 (24576)
I0403 15:12:09.412711 12035 net.cpp:156] Memory required for data: 1345962528
I0403 15:12:09.412725 12035 layer_factory.hpp:77] Creating layer pool5/drop_7x7_s1
I0403 15:12:09.412742 12035 net.cpp:91] Creating Layer pool5/drop_7x7_s1
I0403 15:12:09.412757 12035 net.cpp:425] pool5/drop_7x7_s1 <- pool5/7x7_s1
I0403 15:12:09.412777 12035 net.cpp:386] pool5/drop_7x7_s1 -> pool5/7x7_s1 (in-place)
I0403 15:12:09.412829 12035 net.cpp:141] Setting up pool5/drop_7x7_s1
I0403 15:12:09.412853 12035 net.cpp:148] Top shape: 24 1024 1 1 (24576)
I0403 15:12:09.412868 12035 net.cpp:156] Memory required for data: 1346060832
I0403 15:12:09.412883 12035 layer_factory.hpp:77] Creating layer loss3/classifier_plantvillage
I0403 15:12:09.412901 12035 net.cpp:91] Creating Layer loss3/classifier_plantvillage
I0403 15:12:09.412916 12035 net.cpp:425] loss3/classifier_plantvillage <- pool5/7x7_s1
I0403 15:12:09.412937 12035 net.cpp:399] loss3/classifier_plantvillage -> loss3/classifier_plantvillage
I0403 15:12:09.413378 12035 net.cpp:141] Setting up loss3/classifier_plantvillage
I0403 15:12:09.413404 12035 net.cpp:148] Top shape: 24 38 (912)
I0403 15:12:09.413419 12035 net.cpp:156] Memory required for data: 1346064480
I0403 15:12:09.413437 12035 layer_factory.hpp:77] Creating layer loss3/classifier_plantvillage_loss3/classifier_plantvillage_0_split
I0403 15:12:09.413458 12035 net.cpp:91] Creating Layer loss3/classifier_plantvillage_loss3/classifier_plantvillage_0_split
I0403 15:12:09.413476 12035 net.cpp:425] loss3/classifier_plantvillage_loss3/classifier_plantvillage_0_split <- loss3/classifier_plantvillage
I0403 15:12:09.413497 12035 net.cpp:399] loss3/classifier_plantvillage_loss3/classifier_plantvillage_0_split -> loss3/classifier_plantvillage_loss3/classifier_plantvillage_0_split_0
I0403 15:12:09.413518 12035 net.cpp:399] loss3/classifier_plantvillage_loss3/classifier_plantvillage_0_split -> loss3/classifier_plantvillage_loss3/classifier_plantvillage_0_split_1
I0403 15:12:09.413537 12035 net.cpp:399] loss3/classifier_plantvillage_loss3/classifier_plantvillage_0_split -> loss3/classifier_plantvillage_loss3/classifier_plantvillage_0_split_2
I0403 15:12:09.413558 12035 net.cpp:399] loss3/classifier_plantvillage_loss3/classifier_plantvillage_0_split -> loss3/classifier_plantvillage_loss3/classifier_plantvillage_0_split_3
I0403 15:12:09.413658 12035 net.cpp:141] Setting up loss3/classifier_plantvillage_loss3/classifier_plantvillage_0_split
I0403 15:12:09.413682 12035 net.cpp:148] Top shape: 24 38 (912)
I0403 15:12:09.413697 12035 net.cpp:148] Top shape: 24 38 (912)
I0403 15:12:09.413712 12035 net.cpp:148] Top shape: 24 38 (912)
I0403 15:12:09.413728 12035 net.cpp:148] Top shape: 24 38 (912)
I0403 15:12:09.413741 12035 net.cpp:156] Memory required for data: 1346079072
I0403 15:12:09.413755 12035 layer_factory.hpp:77] Creating layer loss1/loss
I0403 15:12:09.413775 12035 net.cpp:91] Creating Layer loss1/loss
I0403 15:12:09.413797 12035 net.cpp:425] loss1/loss <- loss1/classifier_plantvillage_loss1/classifier_plantvillage_0_split_0
I0403 15:12:09.413828 12035 net.cpp:425] loss1/loss <- label_data_1_split_0
…
