…
I0403 14:43:52.374727 11035 net.cpp:313] The NetState phase (1) differed from the phase (0) specified by a rule in layer data
I0403 14:43:52.375952 11035 net.cpp:49] Initializing net from parameters: 
state {
  phase: TEST
}
layer {
  name: "data"
  type: "Data"
  top: "data"
  top: "label"
  include {
    phase: TEST
  }
  transform_param {
    mirror: false
    crop_size: 224
    mean_file: "/home/mohanty/data/final_dataset/lmdb/grayscale-60-40/mean.binaryproto"
  }
  data_param {
    source: "/home/mohanty/data/final_dataset/lmdb/grayscale-60-40/test_db"
    batch_size: 24
    backend: LMDB
  }
}
layer {
  name: "conv1/7x7_s2"
  type: "Convolution"
  bottom: "data"
  top: "conv1/7x7_s2"
  param {
    lr_mult: 1
    decay_mult: 1
  }
  param {
    lr_mult: 2
    decay_mult: 0
  }
  convolution_param {
    num_output: 64
    pad: 3
    kernel_size: 7
    stride: 2
    weight_filler {
      type: "xavier"
      std: 0.1
    }
    bias_filler {
      type: "constant"
      value: 0.2
    }
  }
}
layer {
  name: "conv1/relu_7x7"
  type: "ReLU"
  bottom: "conv1/7x7_s2"
  top: "conv1/7x7_s2"
}
layer {
  name: "pool1/3x3_s2"
  type: "Pooling"
  bottom: "conv1/7x7_s2"
  top: "pool1/3x3_s2"
  pooling_param {
    pool: MAX
    kernel_size: 3
    stride: 2
  }
}
layer {
  name: "pool1/norm1"
  type: "LRN"
  bottom: "pool1/3x3_s2"
  top: "pool1/norm1"
  lrn_param {
    local_size: 5
    alpha: 0.0001
    beta: 0.75
  }
}
layer {
  name: "conv2/3x3_reduce"
  type: "Convolution"
  bottom: "pool1/norm1"
  top: "conv2/3x3_reduce"
  param {
    lr_mult: 1
    decay_mult: 1
  }
  param {
    lr_mult: 2
    decay_mult: 0
  }
  convolution_param {
    num_output: 64
    kernel_size: 1
    weight_filler {
      type: "xavier"
      std: 0.1
    }
    bias_filler {
      type: "constant"
      value: 0.2
    }
  }
}
layer {
  name: "conv2/relu_3x3_reduce"
  type: "ReLU"
  bottom: "conv2/3x3_reduce"
  top: "conv2/3x3_reduce"
}
layer {
  name: "conv2/3x3"
  type: "Convolution"
  bottom: "conv2/3x3_reduce"
  top: "conv2/3x3"
  param {
    lr_mult: 1
    decay_mult: 1
  }
  param {
    lr_mult: 2
    decay_mult: 0
  }
  convolution_param {
    num_output: 192
    pad: 1
    kernel_size: 3
    weight_filler {
      type: "xavier"
      std: 0.03
    }
    bias_filler {
      type: "constant"
      value: 0.2
    }
  }
}
layer {
  name: "conv2/relu_3x3"
  type: "ReLU"
  bottom: "conv2/3x3"
  top: "conv2/3x3"
}
layer {
  name: "conv2/norm2"
  type: "LRN"
  bottom: "conv2/3x3"
  top: "conv2/norm2"
  lrn_param {
    local_size: 5
    alpha: 0.0001
    beta: 0.75
  }
}
layer {
  name: "pool2/3x3_s2"
  type: "Pooling"
  bottom: "conv2/norm2"
  top: "pool2/3x3_s2"
  pooling_param {
    pool: MAX
    kernel_size: 3
    stride: 2
  }
}
layer {
  name: "inception_3a/1x1"
  type: "Convolution"
  bottom: "pool2/3x3_s2"
  top: "inception_3a/1x1"
  param {
    lr_mult: 1
    decay_mult: 1
  }
  param {
    lr_mult: 2
    decay_mult: 0
  }
  convolution_param {
    num_output: 64
    kernel_size: 1
    weight_filler {
      type: "xavier"
      std: 0.03
    }
    bias_filler {
      type: "constant"
      value: 0.2
    }
  }
}
layer {
  name: "inception_3a/relu_1x1"
  type: "ReLU"
  bottom: "inception_3a/1x1"
  top: "inception_3a/1x1"
}
layer {
  name: "inception_3a/3x3_reduce"
  type: "Convolution"
  bottom: "pool2/3x3_s2"
  top: "inception_3a/3x3_reduce"
  param {
    lr_mult: 1
    decay_mult: 1
  }
  param {
    lr_mult: 2
    decay_mult: 0
  }
  convolution_param {
    num_output: 96
    kernel_size: 1
    weight_filler {
      type: "xavier"
      std: 0.09
    }
    bias_filler {
      type: "constant"
      value: 0.2
    }
  }
}
layer {
  name: "inception_3a/relu_3x3_reduce"
  type: "ReLU"
  bottom: "inception_3a/3x3_reduce"
  top: "inception_3a/3x3_reduce"
}
layer {
  name: "inception_3a/3x3"
  type: "Convolution"
  bottom: "inception_3a/3x3_reduce"
  top: "inception_3a/3x3"
  param {
    lr_mult: 1
    decay_mult: 1
  }
  param {
    lr_mult: 2
    decay_mult: 0
  }
  convolution_param {
    num_output: 128
    pad: 1
    kernel_size: 3
    weight_filler {
      type: "xavier"
      std: 0.03
    }
    bias_filler {
      type: "constant"
      value: 0.2
    }
  }
}
layer {
  name: "inception_3a/relu_3x3"
  type: "ReLU"
  bottom: "inception_3a/3x3"
  top: "inception_3a/3x3"
}
layer {
  name: "inception_3a/5x5_reduce"
  type: "Convolution"
  bottom: "pool2/3x3_s2"
  top: "inception_3a/5x5_reduce"
  param {
    lr_mult: 1
    decay_mult: 1
  }
  param {
    lr_mult: 2
    decay_mult: 0
  }
  convolution_param {
    num_output: 16
    kernel_size: 1
    weight_filler {
      type: "xavier"
      std: 0.2
    }
    bias_filler {
      type: "constant"
      value: 0.2
    }
  }
}
layer {
  name: "inception_3a/relu_5x5_reduce"
  type: "ReLU"
  bottom: "inception_3a/5x5_reduce"
  top: "inception_3a/5x5_reduce"
}
layer {
  name: "inception_3a/5x5"
  type: "Convolution"
  bottom: "inception_3a/5x5_reduce"
  top: "inception_3a/5x5"
  param {
    lr_mult: 1
    decay_mult: 1
  }
  param {
    lr_mult: 2
    decay_mult: 0
  }
  convolution_param {
    num_output: 32
    pad: 2
    kernel_size: 5
    weight_filler {
      type: "xavier"
      std: 0.03
    }
    bias_filler {
      type: "constant"
      value: 0.2
    }
  }
}
layer {
  name: "inception_3a/relu_5x5"
  type: "ReLU"
  bottom: "inception_3a/5x5"
  top: "inception_3a/5x5"
}
layer {
  name: "inception_3a/pool"
  type: "Pooling"
  bottom: "pool2/3x3_s2"
  top: "inception_3a/pool"
  pooling_param {
    pool: MAX
    kernel_size: 3
    stride: 1
    pad: 1
  }
}
layer {
  name: "inception_3a/pool_proj"
  type: "Convolution"
  bottom: "inception_3a/pool"
  top: "inception_3a/pool_proj"
  param {
    lr_mult: 1
    decay_mult: 1
  }
  param {
    lr_mult: 2
    decay_mult: 0
  }
  convolution_param {
    num_output: 32
    kernel_size: 1
    weight_filler {
      type: "xavier"
      std: 0.1
    }
    bias_filler {
      type: "constant"
      value: 0.2
    }
  }
}
layer {
  name: "inception_3a/relu_pool_proj"
  type: "ReLU"
  bottom: "inception_3a/pool_proj"
  top: "inception_3a/pool_proj"
}
layer {
  name: "inception_3a/output"
  type: "Concat"
  bottom: "inception_3a/1x1"
  bottom: "inception_3a/3x3"
  bottom: "inception_3a/5x5"
  bottom: "inception_3a/pool_proj"
  top: "inception_3a/output"
}
layer {
  name: "inception_3b/1x1"
  type: "Convolution"
  bottom: "inception_3a/output"
  top: "inception_3b/1x1"
  param {
    lr_mult: 1
    decay_mult: 1
  }
  param {
    lr_mult: 2
    decay_mult: 0
  }
  convolution_param {
    num_output: 128
    kernel_size: 1
    weight_filler {
      type: "xavier"
      std: 0.03
    }
    bias_filler {
      type: "constant"
      value: 0.2
    }
  }
}
layer {
  name: "inception_3b/relu_1x1"
  type: "ReLU"
  bottom: "inception_3b/1x1"
  top: "inception_3b/1x1"
}
layer {
  name: "inception_3b/3x3_reduce"
  type: "Convolution"
  bottom: "inception_3a/output"
  top: "inception_3b/3x3_reduce"
  param {
    lr_mult: 1
    decay_mult: 1
  }
  param {
    lr_mult: 2
    decay_mult: 0
  }
  convolution_param {
    num_output: 128
    kernel_size: 1
    weight_filler {
      type: "xavier"
      std: 0.09
    }
    bias_filler {
      type: "constant"
      value: 0.2
    }
  }
}
layer {
  name: "inception_3b/relu_3x3_reduce"
  type: "ReLU"
  bottom: "inception_3b/3x3_reduce"
  top: "inception_3b/3x3_reduce"
}
layer {
  name: "inception_3b/3x3"
  type: "Convolution"
  bottom: "inception_3b/3x3_reduce"
  top: "inception_3b/3x3"
  param {
    lr_mult: 1
    decay_mult: 1
  }
  param {
    lr_mult: 2
    decay_mult: 0
  }
  convolution_param {
    num_output: 192
    pad: 1
    kernel_size: 3
    weight_filler {
      type: "xavier"
      std: 0.03
    }
    bias_filler {
      type: "constant"
      value: 0.2
    }
  }
}
layer {
  name: "inception_3b/relu_3x3"
  type: "ReLU"
  bottom: "inception_3b/3x3"
  top: "inception_3b/3x3"
}
layer {
  name: "inception_3b/5x5_reduce"
  type: "Convolution"
  bottom: "inception_3a/output"
  top: "inception_3b/5x5_reduce"
  param {
    lr_mult: 1
    decay_mult: 1
  }
  param {
    lr_mult: 2
    decay_mult: 0
  }
  convolution_param {
    num_output: 32
    kernel_size: 1
    weight_filler {
      type: "xavier"
      std: 0.2
    }
    bias_filler {
      type: "constant"
      value: 0.2
    }
  }
}
layer {
  name: "inception_3b/relu_5x5_reduce"
  type: "ReLU"
  bottom: "inception_3b/5x5_reduce"
  top: "inception_3b/5x5_reduce"
}
layer {
  name: "inception_3b/5x5"
  type: "Convolution"
  bottom: "inception_3b/5x5_reduce"
  top: "inception_3b/5x5"
  param {
    lr_mult: 1
    decay_mult: 1
  }
  param {
    lr_mult: 2
    decay_mult: 0
  }
  convolution_param {
    num_output: 96
    pad: 2
    kernel_size: 5
    weight_filler {
      type: "xavier"
      std: 0.03
    }
    bias_filler {
      type: "constant"
      value: 0.2
    }
  }
}
layer {
  name: "inception_3b/relu_5x5"
  type: "ReLU"
  bottom: "inception_3b/5x5"
  top: "inception_3b/5x5"
}
layer {
  name: "inception_3b/pool"
  type: "Pooling"
  bottom: "inception_3a/output"
  top: "inception_3b/pool"
  pooling_param {
    pool: MAX
    kernel_size: 3
    stride: 1
    pad: 1
  }
}
layer {
  name: "inception_3b/pool_proj"
  type: "Convolution"
  bottom: "inception_3b/pool"
  top: "inception_3b/pool_proj"
  param {
    lr_mult: 1
    decay_mult: 1
  }
  param {
    lr_mult: 2
    decay_mult: 0
  }
  convolution_param {
    num_output: 64
    kernel_size: 1
    weight_filler {
      type: "xavier"
      std: 0.1
    }
    bias_filler {
      type: "constant"
      value: 0.2
    }
  }
}
layer {
  name: "inception_3b/relu_pool_proj"
  type: "ReLU"
  bottom: "inception_3b/pool_proj"
  top: "inception_3b/pool_proj"
}
layer {
  name: "inception_3b/output"
  type: "Concat"
  bottom: "inception_3b/1x1"
  bottom: "inception_3b/3x3"
  bottom: "inception_3b/5x5"
  bottom: "inception_3b/pool_proj"
  top: "inception_3b/output"
}
layer {
  name: "pool3/3x3_s2"
  type: "Pooling"
  bottom: "inception_3b/output"
  top: "pool3/3x3_s2"
  pooling_param {
    pool: MAX
    kernel_size: 3
    stride: 2
  }
}
layer {
  name: "inception_4a/1x1"
  type: "Convolution"
  bottom: "pool3/3x3_s2"
  top: "inception_4a/1x1"
  param {
    lr_mult: 1
    decay_mult: 1
  }
  param {
    lr_mult: 2
    decay_mult: 0
  }
  convolution_param {
    num_output: 192
    kernel_size: 1
    weight_filler {
      type: "xavier"
      std: 0.03
    }
    bias_filler {
      type: "constant"
      value: 0.2
    }
  }
}
layer {
  name: "inception_4a/relu_1x1"
  type: "ReLU"
  bottom: "inception_4a/1x1"
  top: "inception_4a/1x1"
}
layer {
  name: "inception_4a/3x3_reduce"
  type: "Convolution"
  bottom: "pool3/3x3_s2"
  top: "inception_4a/3x3_reduce"
  param {
    lr_mult: 1
    decay_mult: 1
  }
  param {
    lr_mult: 2
    decay_mult: 0
  }
  convolution_param {
    num_output: 96
    kernel_size: 1
    weight_filler {
      type: "xavier"
      std: 0.09
    }
    bias_filler {
      type: "constant"
      value: 0.2
    }
  }
}
layer {
  name: "inception_4a/relu_3x3_reduce"
  type: "ReLU"
  bottom: "inception_4a/3x3_reduce"
  top: "inception_4a/3x3_reduce"
}
layer {
  name: "inception_4a/3x3"
  type: "Convolution"
  bottom: "inception_4a/3x3_reduce"
  top: "inception_4a/3x3"
  param {
    lr_mult: 1
    decay_mult: 1
  }
  param {
    lr_mult: 2
    decay_mult: 0
  }
  convolution_param {
    num_output: 208
    pad: 1
    kernel_size: 3
    weight_filler {
      type: "xavier"
      std: 0.03
    }
    bias_filler {
      type: "constant"
      value: 0.2
    }
  }
}
layer {
  name: "inception_4a/relu_3x3"
  type: "ReLU"
  bottom: "inception_4a/3x3"
  top: "inception_4a/3x3"
}
layer {
  name: "inception_4a/5x5_reduce"
  type: "Convolution"
  bottom: "pool3/3x3_s2"
  top: "inception_4a/5x5_reduce"
  param {
    lr_mult: 1
    decay_mult: 1
  }
  param {
    lr_mult: 2
    decay_mult: 0
  }
  convolution_param {
    num_output: 16
    kernel_size: 1
    weight_filler {
      type: "xavier"
      std: 0.2
    }
    bias_filler {
      type: "constant"
      value: 0.2
    }
  }
}
layer {
  name: "inception_4a/relu_5x5_reduce"
  type: "ReLU"
  bottom: "inception_4a/5x5_reduce"
  top: "inception_4a/5x5_reduce"
}
layer {
  name: "inception_4a/5x5"
  type: "Convolution"
  bottom: "inception_4a/5x5_reduce"
  top: "inception_4a/5x5"
  param {
    lr_mult: 1
    decay_mult: 1
  }
  param {
    lr_mult: 2
    decay_mult: 0
  }
  convolution_param {
    num_output: 48
    pad: 2
    kernel_size: 5
    weight_filler {
      type: "xavier"
      std: 0.03
    }
    bias_filler {
      type: "constant"
      value: 0.2
    }
  }
}
layer {
  name: "inception_4a/relu_5x5"
  type: "ReLU"
  bottom: "inception_4a/5x5"
  top: "inception_4a/5x5"
}
layer {
  name: "inception_4a/pool"
  type: "Pooling"
  bottom: "pool3/3x3_s2"
  top: "inception_4a/pool"
  pooling_param {
    pool: MAX
    kernel_size: 3
    stride: 1
    pad: 1
  }
}
layer {
  name: "inception_4a/pool_proj"
  type: "Convolution"
  bottom: "inception_4a/pool"
  top: "inception_4a/pool_proj"
  param {
    lr_mult: 1
    decay_mult: 1
  }
  param {
    lr_mult: 2
    decay_mult: 0
  }
  convolution_param {
    num_output: 64
    kernel_size: 1
    weight_filler {
      type: "xavier"
      std: 0.1
    }
    bias_filler {
      type: "constant"
      value: 0.2
    }
  }
}
layer {
  name: "inception_4a/relu_pool_proj"
  type: "ReLU"
  bottom: "inception_4a/pool_proj"
  top: "inception_4a/pool_proj"
}
layer {
  name: "inception_4a/output"
  type: "Concat"
  bottom: "inception_4a/1x1"
  bottom: "inception_4a/3x3"
  bottom: "inception_4a/5x5"
  bottom: "inception_4a/pool_proj"
  top: "inception_4a/output"
}
layer {
  name: "loss1/ave_pool"
  type: "Pooling"
  bottom: "inception_4a/output"
  top: "loss1/ave_pool"
  pooling_param {
    pool: AVE
    kernel_size: 5
    stride: 3
  }
}
layer {
  name: "loss1/conv"
  type: "Convolution"
  bottom: "loss1/ave_pool"
  top: "loss1/conv"
  param {
    lr_mult: 1
    decay_mult: 1
  }
  param {
    lr_mult: 2
    decay_mult: 0
  }
  convolution_param {
    num_output: 128
    kernel_size: 1
    weight_filler {
      type: "xavier"
      std: 0.08
    }
    bias_filler {
      type: "constant"
      value: 0.2
    }
  }
}
layer {
  name: "loss1/relu_conv"
  type: "ReLU"
  bottom: "loss1/conv"
  top: "loss1/conv"
}
layer {
  name: "loss1/fc"
  type: "InnerProduct"
  bottom: "loss1/conv"
  top: "loss1/fc"
  param {
    lr_mult: 1
    decay_mult: 1
  }
  param {
    lr_mult: 2
    decay_mult: 0
  }
  inner_product_param {
    num_output: 1024
    weight_filler {
      type: "xavier"
      std: 0.02
    }
    bias_filler {
      type: "constant"
      value: 0.2
    }
  }
}
layer {
  name: "loss1/relu_fc"
  type: "ReLU"
  bottom: "loss1/fc"
  top: "loss1/fc"
}
layer {
  name: "loss1/drop_fc"
  type: "Dropout"
  bottom: "loss1/fc"
  top: "loss1/fc"
  dropout_param {
    dropout_ratio: 0.7
  }
}
layer {
  name: "loss1/classifier_plantvillage"
  type: "InnerProduct"
  bottom: "loss1/fc"
  top: "loss1/classifier_plantvillage"
  param {
    lr_mult: 1
    decay_mult: 1
  }
  param {
    lr_mult: 2
    decay_mult: 0
  }
  inner_product_param {
    num_output: 38
    weight_filler {
      type: "xavier"
      std: 0.0009765625
    }
    bias_filler {
      type: "constant"
      value: 0
    }
  }
}
layer {
  name: "inception_4b/1x1"
  type: "Convolution"
  bottom: "inception_4a/output"
  top: "inception_4b/1x1"
  param {
    lr_mult: 1
    decay_mult: 1
  }
  param {
    lr_mult: 2
    decay_mult: 0
  }
  convolution_param {
    num_output: 160
    kernel_size: 1
    weight_filler {
      type: "xavier"
      std: 0.03
    }
    bias_filler {
      type: "constant"
      value: 0.2
    }
  }
}
layer {
  name: "inception_4b/relu_1x1"
  type: "ReLU"
  bottom: "inception_4b/1x1"
  top: "inception_4b/1x1"
}
layer {
  name: "inception_4b/3x3_reduce"
  type: "Convolution"
  bottom: "inception_4a/output"
  top: "inception_4b/3x3_reduce"
  param {
    lr_mult: 1
    decay_mult: 1
  }
  param {
    lr_mult: 2
    decay_mult: 0
  }
  convolution_param {
    num_output: 112
    kernel_size: 1
    weight_filler {
      type: "xavier"
      std: 0.09
    }
    bias_filler {
      type: "constant"
      value: 0.2
    }
  }
}
layer {
  name: "inception_4b/relu_3x3_reduce"
  type: "ReLU"
  bottom: "inception_4b/3x3_reduce"
  top: "inception_4b/3x3_reduce"
}
layer {
  name: "inception_4b/3x3"
  type: "Convolution"
  bottom: "inception_4b/3x3_reduce"
  top: "inception_4b/3x3"
  param {
    lr_mult: 1
    decay_mult: 1
  }
  param {
    lr_mult: 2
    decay_mult: 0
  }
  convolution_param {
    num_output: 224
    pad: 1
    kernel_size: 3
    weight_filler {
      type: "xavier"
      std: 0.03
    }
    bias_filler {
      type: "constant"
      value: 0.2
    }
  }
}
layer {
  name: "inception_4b/relu_3x3"
  type: "ReLU"
  bottom: "inception_4b/3x3"
  top: "inception_4b/3x3"
}
layer {
  name: "inception_4b/5x5_reduce"
  type: "Convolution"
  bottom: "inception_4a/output"
  top: "inception_4b/5x5_reduce"
  param {
    lr_mult: 1
    decay_mult: 1
  }
  param {
    lr_mult: 2
    decay_mult: 0
  }
  convolution_param {
    num_output: 24
    kernel_size: 1
    weight_filler {
      type: "xavier"
      std: 0.2
    }
    bias_filler {
      type: "constant"
      value: 0.2
    }
  }
}
layer {
  name: "inception_4b/relu_5x5_reduce"
  type: "ReLU"
  bottom: "inception_4b/5x5_reduce"
  top: "inception_4b/5x5_reduce"
}
layer {
  name: "inception_4b/5x5"
  type: "Convolution"
  bottom: "inception_4b/5x5_reduce"
  top: "inception_4b/5x5"
  param {
    lr_mult: 1
    decay_mult: 1
  }
  param {
    lr_mult: 2
    decay_mult: 0
  }
  convolution_param {
    num_output: 64
    pad: 2
    kernel_size: 5
    weight_filler {
      type: "xavier"
      std: 0.03
    }
    bias_filler {
      type: "constant"
      value: 0.2
    }
  }
}
layer {
  name: "inception_4b/relu_5x5"
  type: "ReLU"
  bottom: "inception_4b/5x5"
  top: "inception_4b/5x5"
}
layer {
  name: "inception_4b/pool"
  type: "Pooling"
  bottom: "inception_4a/output"
  top: "inception_4b/pool"
  pooling_param {
    pool: MAX
    kernel_size: 3
    stride: 1
    pad: 1
  }
}
layer {
  name: "inception_4b/pool_proj"
  type: "Convolution"
  bottom: "inception_4b/pool"
  top: "inception_4b/pool_proj"
  param {
    lr_mult: 1
    decay_mult: 1
  }
  param {
    lr_mult: 2
    decay_mult: 0
  }
  convolution_param {
    num_output: 64
    kernel_size: 1
    weight_filler {
      type: "xavier"
      std: 0.1
    }
    bias_filler {
      type: "constant"
      value: 0.2
    }
  }
}
layer {
  name: "inception_4b/relu_pool_proj"
  type: "ReLU"
  bottom: "inception_4b/pool_proj"
  top: "inception_4b/pool_proj"
}
layer {
  name: "inception_4b/output"
  type: "Concat"
  bottom: "inception_4b/1x1"
  bottom: "inception_4b/3x3"
  bottom: "inception_4b/5x5"
  bottom: "inception_4b/pool_proj"
  top: "inception_4b/output"
}
layer {
  name: "inception_4c/1x1"
  type: "Convolution"
  bottom: "inception_4b/output"
  top: "inception_4c/1x1"
  param {
    lr_mult: 1
    decay_mult: 1
  }
  param {
    lr_mult: 2
    decay_mult: 0
  }
  convolution_param {
    num_output: 128
    kernel_size: 1
    weight_filler {
      type: "xavier"
      std: 0.03
    }
    bias_filler {
      type: "constant"
      value: 0.2
    }
  }
}
layer {
  name: "inception_4c/relu_1x1"
  type: "ReLU"
  bottom: "inception_4c/1x1"
  top: "inception_4c/1x1"
}
layer {
  name: "inception_4c/3x3_reduce"
  type: "Convolution"
  bottom: "inception_4b/output"
  top: "inception_4c/3x3_reduce"
  param {
    lr_mult: 1
    decay_mult: 1
  }
  param {
    lr_mult: 2
    decay_mult: 0
  }
  convolution_param {
    num_output: 128
    kernel_size: 1
    weight_filler {
      type: "xavier"
      std: 0.09
    }
    bias_filler {
      type: "constant"
      value: 0.2
    }
  }
}
layer {
  name: "inception_4c/relu_3x3_reduce"
  type: "ReLU"
  bottom: "inception_4c/3x3_reduce"
  top: "inception_4c/3x3_reduce"
}
layer {
  name: "inception_4c/3x3"
  type: "Convolution"
  bottom: "inception_4c/3x3_reduce"
  top: "inception_4c/3x3"
  param {
    lr_mult: 1
    decay_mult: 1
  }
  param {
    lr_mult: 2
    decay_mult: 0
  }
  convolution_param {
    num_output: 256
    pad: 1
    kernel_size: 3
    weight_filler {
      type: "xavier"
      std: 0.03
    }
    bias_filler {
      type: "constant"
      value: 0.2
    }
  }
}
layer {
  name: "inception_4c/relu_3x3"
  type: "ReLU"
  bottom: "inception_4c/3x3"
  top: "inception_4c/3x3"
}
layer {
  name: "inception_4c/5x5_reduce"
  type: "Convolution"
  bottom: "inception_4b/output"
  top: "inception_4c/5x5_reduce"
  param {
    lr_mult: 1
    decay_mult: 1
  }
  param {
    lr_mult: 2
    decay_mult: 0
  }
  convolution_param {
    num_output: 24
    kernel_size: 1
    weight_filler {
      type: "xavier"
      std: 0.2
    }
    bias_filler {
      type: "constant"
      value: 0.2
    }
  }
}
layer {
  name: "inception_4c/relu_5x5_reduce"
  type: "ReLU"
  bottom: "inception_4c/5x5_reduce"
  top: "inception_4c/5x5_reduce"
}
layer {
  name: "inception_4c/5x5"
  type: "Convolution"
  bottom: "inception_4c/5x5_reduce"
  top: "inception_4c/5x5"
  param {
    lr_mult: 1
    decay_mult: 1
  }
  param {
    lr_mult: 2
    decay_mult: 0
  }
  convolution_param {
    num_output: 64
    pad: 2
    kernel_size: 5
    weight_filler {
      type: "xavier"
      std: 0.03
    }
    bias_filler {
      type: "constant"
      value: 0.2
    }
  }
}
layer {
  name: "inception_4c/relu_5x5"
  type: "ReLU"
  bottom: "inception_4c/5x5"
  top: "inception_4c/5x5"
}
layer {
  name: "inception_4c/pool"
  type: "Pooling"
  bottom: "inception_4b/output"
  top: "inception_4c/pool"
  pooling_param {
    pool: MAX
    kernel_size: 3
    stride: 1
    pad: 1
  }
}
layer {
  name: "inception_4c/pool_proj"
  type: "Convolution"
  bottom: "inception_4c/pool"
  top: "inception_4c/pool_proj"
  param {
    lr_mult: 1
    decay_mult: 1
  }
  param {
    lr_mult: 2
    decay_mult: 0
  }
  convolution_param {
    num_output: 64
    kernel_size: 1
    weight_filler {
      type: "xavier"
      std: 0.1
    }
    bias_filler {
      type: "constant"
      value: 0.2
    }
  }
}
layer {
  name: "inception_4c/relu_pool_proj"
  type: "ReLU"
  bottom: "inception_4c/pool_proj"
  top: "inception_4c/pool_proj"
}
layer {
  name: "inception_4c/output"
  type: "Concat"
  bottom: "inception_4c/1x1"
  bottom: "inception_4c/3x3"
  bottom: "inception_4c/5x5"
  bottom: "inception_4c/pool_proj"
  top: "inception_4c/output"
}
layer {
  name: "inception_4d/1x1"
  type: "Convolution"
  bottom: "inception_4c/output"
  top: "inception_4d/1x1"
  param {
    lr_mult: 1
    decay_mult: 1
  }
  param {
    lr_mult: 2
    decay_mult: 0
  }
  convolution_param {
    num_output: 112
    kernel_size: 1
    weight_filler {
      type: "xavier"
      std: 0.03
    }
    bias_filler {
      type: "constant"
      value: 0.2
    }
  }
}
layer {
  name: "inception_4d/relu_1x1"
  type: "ReLU"
  bottom: "inception_4d/1x1"
  top: "inception_4d/1x1"
}
layer {
  name: "inception_4d/3x3_reduce"
  type: "Convolution"
  bottom: "inception_4c/output"
  top: "inception_4d/3x3_reduce"
  param {
    lr_mult: 1
    decay_mult: 1
  }
  param {
    lr_mult: 2
    decay_mult: 0
  }
  convolution_param {
    num_output: 144
    kernel_size: 1
    weight_filler {
      type: "xavier"
      std: 0.09
    }
    bias_filler {
      type: "constant"
      value: 0.2
    }
  }
}
layer {
  name: "inception_4d/relu_3x3_reduce"
  type: "ReLU"
  bottom: "inception_4d/3x3_reduce"
  top: "inception_4d/3x3_reduce"
}
layer {
  name: "inception_4d/3x3"
  type: "Convolution"
  bottom: "inception_4d/3x3_reduce"
  top: "inception_4d/3x3"
  param {
    lr_mult: 1
    decay_mult: 1
  }
  param {
    lr_mult: 2
    decay_mult: 0
  }
  convolution_param {
    num_output: 288
    pad: 1
    kernel_size: 3
    weight_filler {
      type: "xavier"
      std: 0.03
    }
    bias_filler {
      type: "constant"
      value: 0.2
    }
  }
}
layer {
  name: "inception_4d/relu_3x3"
  type: "ReLU"
  bottom: "inception_4d/3x3"
  top: "inception_4d/3x3"
}
layer {
  name: "inception_4d/5x5_reduce"
  type: "Convolution"
  bottom: "inception_4c/output"
  top: "inception_4d/5x5_reduce"
  param {
    lr_mult: 1
    decay_mult: 1
  }
  param {
    lr_mult: 2
    decay_mult: 0
  }
  convolution_param {
    num_output: 32
    kernel_size: 1
    weight_filler {
      type: "xavier"
      std: 0.2
    }
    bias_filler {
      type: "constant"
      value: 0.2
    }
  }
}
layer {
  name: "inception_4d/relu_5x5_reduce"
  type: "ReLU"
  bottom: "inception_4d/5x5_reduce"
  top: "inception_4d/5x5_reduce"
}
layer {
  name: "inception_4d/5x5"
  type: "Convolution"
  bottom: "inception_4d/5x5_reduce"
  top: "inception_4d/5x5"
  param {
    lr_mult: 1
    decay_mult: 1
  }
  param {
    lr_mult: 2
    decay_mult: 0
  }
  convolution_param {
    num_output: 64
    pad: 2
    kernel_size: 5
    weight_filler {
      type: "xavier"
      std: 0.03
    }
    bias_filler {
      type: "constant"
      value: 0.2
    }
  }
}
layer {
  name: "inception_4d/relu_5x5"
  type: "ReLU"
  bottom: "inception_4d/5x5"
  top: "inception_4d/5x5"
}
layer {
  name: "inception_4d/pool"
  type: "Pooling"
  bottom: "inception_4c/output"
  top: "inception_4d/pool"
  pooling_param {
    pool: MAX
    kernel_size: 3
    stride: 1
    pad: 1
  }
}
layer {
  name: "inception_4d/pool_proj"
  type: "Convolution"
  bottom: "inception_4d/pool"
  top: "inception_4d/pool_proj"
  param {
    lr_mult: 1
    decay_mult: 1
  }
  param {
    lr_mult: 2
    decay_mult: 0
  }
  convolution_param {
    num_output: 64
    kernel_size: 1
    weight_filler {
      type: "xavier"
      std: 0.1
    }
    bias_filler {
      type: "constant"
      value: 0.2
    }
  }
}
layer {
  name: "inception_4d/relu_pool_proj"
  type: "ReLU"
  bottom: "inception_4d/pool_proj"
  top: "inception_4d/pool_proj"
}
layer {
  name: "inception_4d/output"
  type: "Concat"
  bottom: "inception_4d/1x1"
  bottom: "inception_4d/3x3"
  bottom: "inception_4d/5x5"
  bottom: "inception_4d/pool_proj"
  top: "inception_4d/output"
}
layer {
  name: "loss2/ave_pool"
  type: "Pooling"
  bottom: "inception_4d/output"
  top: "loss2/ave_pool"
  pooling_param {
    pool: AVE
    kernel_size: 5
    stride: 3
  }
}
layer {
  name: "loss2/conv"
  type: "Convolution"
  bottom: "loss2/ave_pool"
  top: "loss2/conv"
  param {
    lr_mult: 1
    decay_mult: 1
  }
  param {
    lr_mult: 2
    decay_mult: 0
  }
  convolution_param {
    num_output: 128
    kernel_size: 1
    weight_filler {
      type: "xavier"
      std: 0.08
    }
    bias_filler {
      type: "constant"
      value: 0.2
    }
  }
}
layer {
  name: "loss2/relu_conv"
  type: "ReLU"
  bottom: "loss2/conv"
  top: "loss2/conv"
}
layer {
  name: "loss2/fc"
  type: "InnerProduct"
  bottom: "loss2/conv"
  top: "loss2/fc"
  param {
    lr_mult: 1
    decay_mult: 1
  }
  param {
    lr_mult: 2
    decay_mult: 0
  }
  inner_product_param {
    num_output: 1024
    weight_filler {
      type: "xavier"
      std: 0.02
    }
    bias_filler {
      type: "constant"
      value: 0.2
    }
  }
}
layer {
  name: "loss2/relu_fc"
  type: "ReLU"
  bottom: "loss2/fc"
  top: "loss2/fc"
}
layer {
  name: "loss2/drop_fc"
  type: "Dropout"
  bottom: "loss2/fc"
  top: "loss2/fc"
  dropout_param {
    dropout_ratio: 0.7
  }
}
layer {
  name: "loss2/classifier_plantvillage"
  type: "InnerProduct"
  bottom: "loss2/fc"
  top: "loss2/classifier_plantvillage"
  param {
    lr_mult: 1
    decay_mult: 1
  }
  param {
    lr_mult: 2
    decay_mult: 0
  }
  inner_product_param {
    num_output: 38
    weight_filler {
      type: "xavier"
      std: 0.0009765625
    }
    bias_filler {
      type: "constant"
      value: 0
    }
  }
}
layer {
  name: "inception_4e/1x1"
  type: "Convolution"
  bottom: "inception_4d/output"
  top: "inception_4e/1x1"
  param {
    lr_mult: 1
    decay_mult: 1
  }
  param {
    lr_mult: 2
    decay_mult: 0
  }
  convolution_param {
    num_output: 256
    kernel_size: 1
    weight_filler {
      type: "xavier"
      std: 0.03
    }
    bias_filler {
      type: "constant"
      value: 0.2
    }
  }
}
layer {
  name: "inception_4e/relu_1x1"
  type: "ReLU"
  bottom: "inception_4e/1x1"
  top: "inception_4e/1x1"
}
layer {
  name: "inception_4e/3x3_reduce"
  type: "Convolution"
  bottom: "inception_4d/output"
  top: "inception_4e/3x3_reduce"
  param {
    lr_mult: 1
    decay_mult: 1
  }
  param {
    lr_mult: 2
    decay_mult: 0
  }
  convolution_param {
    num_output: 160
    kernel_size: 1
    weight_filler {
      type: "xavier"
      std: 0.09
    }
    bias_filler {
      type: "constant"
      value: 0.2
    }
  }
}
layer {
  name: "inception_4e/relu_3x3_reduce"
  type: "ReLU"
  bottom: "inception_4e/3x3_reduce"
  top: "inception_4e/3x3_reduce"
}
layer {
  name: "inception_4e/3x3"
  type: "Convolution"
  bottom: "inception_4e/3x3_reduce"
  top: "inception_4e/3x3"
  param {
    lr_mult: 1
    decay_mult: 1
  }
  param {
    lr_mult: 2
    decay_mult: 0
  }
  convolution_param {
    num_output: 320
    pad: 1
    kernel_size: 3
    weight_filler {
      type: "xavier"
      std: 0.03
    }
    bias_filler {
      type: "constant"
      value: 0.2
    }
  }
}
layer {
  name: "inception_4e/relu_3x3"
  type: "ReLU"
  bottom: "inception_4e/3x3"
  top: "inception_4e/3x3"
}
layer {
  name: "inception_4e/5x5_reduce"
  type: "Convolution"
  bottom: "inception_4d/output"
  top: "inception_4e/5x5_reduce"
  param {
    lr_mult: 1
    decay_mult: 1
  }
  param {
    lr_mult: 2
    decay_mult: 0
  }
  convolution_param {
    num_output: 32
    kernel_size: 1
    weight_filler {
      type: "xavier"
      std: 0.2
    }
    bias_filler {
      type: "constant"
      value: 0.2
    }
  }
}
layer {
  name: "inception_4e/relu_5x5_reduce"
  type: "ReLU"
  bottom: "inception_4e/5x5_reduce"
  top: "inception_4e/5x5_reduce"
}
layer {
  name: "inception_4e/5x5"
  type: "Convolution"
  bottom: "inception_4e/5x5_reduce"
  top: "inception_4e/
I0403 14:43:52.377346 11035 layer_factory.hpp:77] Creating layer data
I0403 14:43:52.377967 11035 net.cpp:91] Creating Layer data
I0403 14:43:52.378002 11035 net.cpp:399] data -> data
I0403 14:43:52.378056 11035 net.cpp:399] data -> label
I0403 14:43:52.378098 11035 data_transformer.cpp:25] Loading mean file from: /home/mohanty/data/final_dataset/lmdb/grayscale-60-40/mean.binaryproto
I0403 14:43:52.380404 11040 db_lmdb.cpp:38] Opened lmdb /home/mohanty/data/final_dataset/lmdb/grayscale-60-40/test_db
I0403 14:43:52.391548 11035 data_layer.cpp:41] output data size: 24,3,224,224
I0403 14:43:52.419502 11035 net.cpp:141] Setting up data
I0403 14:43:52.419559 11035 net.cpp:148] Top shape: 24 3 224 224 (3612672)
I0403 14:43:52.419584 11035 net.cpp:148] Top shape: 24 (24)
I0403 14:43:52.419600 11035 net.cpp:156] Memory required for data: 14450784
I0403 14:43:52.419626 11035 layer_factory.hpp:77] Creating layer label_data_1_split
I0403 14:43:52.419652 11035 net.cpp:91] Creating Layer label_data_1_split
I0403 14:43:52.419670 11035 net.cpp:425] label_data_1_split <- label
I0403 14:43:52.419702 11035 net.cpp:399] label_data_1_split -> label_data_1_split_0
I0403 14:43:52.419728 11035 net.cpp:399] label_data_1_split -> label_data_1_split_1
I0403 14:43:52.419750 11035 net.cpp:399] label_data_1_split -> label_data_1_split_2
I0403 14:43:52.419771 11035 net.cpp:399] label_data_1_split -> label_data_1_split_3
I0403 14:43:52.419792 11035 net.cpp:399] label_data_1_split -> label_data_1_split_4
I0403 14:43:52.419814 11035 net.cpp:399] label_data_1_split -> label_data_1_split_5
I0403 14:43:52.419833 11035 net.cpp:399] label_data_1_split -> label_data_1_split_6
I0403 14:43:52.419853 11035 net.cpp:399] label_data_1_split -> label_data_1_split_7
I0403 14:43:52.419874 11035 net.cpp:399] label_data_1_split -> label_data_1_split_8
I0403 14:43:52.419895 11035 net.cpp:399] label_data_1_split -> label_data_1_split_9
I0403 14:43:52.420014 11035 net.cpp:141] Setting up label_data_1_split
I0403 14:43:52.420039 11035 net.cpp:148] Top shape: 24 (24)
I0403 14:43:52.420058 11035 net.cpp:148] Top shape: 24 (24)
I0403 14:43:52.420074 11035 net.cpp:148] Top shape: 24 (24)
I0403 14:43:52.420091 11035 net.cpp:148] Top shape: 24 (24)
I0403 14:43:52.420114 11035 net.cpp:148] Top shape: 24 (24)
I0403 14:43:52.420130 11035 net.cpp:148] Top shape: 24 (24)
I0403 14:43:52.420147 11035 net.cpp:148] Top shape: 24 (24)
I0403 14:43:52.420162 11035 net.cpp:148] Top shape: 24 (24)
I0403 14:43:52.420178 11035 net.cpp:148] Top shape: 24 (24)
I0403 14:43:52.420195 11035 net.cpp:148] Top shape: 24 (24)
I0403 14:43:52.420230 11035 net.cpp:156] Memory required for data: 14451744
I0403 14:43:52.420248 11035 layer_factory.hpp:77] Creating layer conv1/7x7_s2
I0403 14:43:52.420277 11035 net.cpp:91] Creating Layer conv1/7x7_s2
I0403 14:43:52.420296 11035 net.cpp:425] conv1/7x7_s2 <- data
I0403 14:43:52.420316 11035 net.cpp:399] conv1/7x7_s2 -> conv1/7x7_s2
I0403 14:43:52.562407 11035 net.cpp:141] Setting up conv1/7x7_s2
I0403 14:43:52.562497 11035 net.cpp:148] Top shape: 24 64 112 112 (19267584)
I0403 14:43:52.562516 11035 net.cpp:156] Memory required for data: 91522080
I0403 14:43:52.562551 11035 layer_factory.hpp:77] Creating layer conv1/relu_7x7
I0403 14:43:52.562580 11035 net.cpp:91] Creating Layer conv1/relu_7x7
I0403 14:43:52.562602 11035 net.cpp:425] conv1/relu_7x7 <- conv1/7x7_s2
I0403 14:43:52.562623 11035 net.cpp:386] conv1/relu_7x7 -> conv1/7x7_s2 (in-place)
I0403 14:43:52.562917 11035 net.cpp:141] Setting up conv1/relu_7x7
I0403 14:43:52.562993 11035 net.cpp:148] Top shape: 24 64 112 112 (19267584)
I0403 14:43:52.563016 11035 net.cpp:156] Memory required for data: 168592416
I0403 14:43:52.563032 11035 layer_factory.hpp:77] Creating layer pool1/3x3_s2
I0403 14:43:52.563060 11035 net.cpp:91] Creating Layer pool1/3x3_s2
I0403 14:43:52.563081 11035 net.cpp:425] pool1/3x3_s2 <- conv1/7x7_s2
I0403 14:43:52.563099 11035 net.cpp:399] pool1/3x3_s2 -> pool1/3x3_s2
I0403 14:43:52.563194 11035 net.cpp:141] Setting up pool1/3x3_s2
I0403 14:43:52.563220 11035 net.cpp:148] Top shape: 24 64 56 56 (4816896)
I0403 14:43:52.563236 11035 net.cpp:156] Memory required for data: 187860000
I0403 14:43:52.563252 11035 layer_factory.hpp:77] Creating layer pool1/norm1
I0403 14:43:52.563280 11035 net.cpp:91] Creating Layer pool1/norm1
I0403 14:43:52.563300 11035 net.cpp:425] pool1/norm1 <- pool1/3x3_s2
I0403 14:43:52.563319 11035 net.cpp:399] pool1/norm1 -> pool1/norm1
I0403 14:43:52.563637 11035 net.cpp:141] Setting up pool1/norm1
I0403 14:43:52.563668 11035 net.cpp:148] Top shape: 24 64 56 56 (4816896)
I0403 14:43:52.563683 11035 net.cpp:156] Memory required for data: 207127584
I0403 14:43:52.563699 11035 layer_factory.hpp:77] Creating layer conv2/3x3_reduce
I0403 14:43:52.563729 11035 net.cpp:91] Creating Layer conv2/3x3_reduce
I0403 14:43:52.563747 11035 net.cpp:425] conv2/3x3_reduce <- pool1/norm1
I0403 14:43:52.563768 11035 net.cpp:399] conv2/3x3_reduce -> conv2/3x3_reduce
I0403 14:43:52.567181 11035 net.cpp:141] Setting up conv2/3x3_reduce
I0403 14:43:52.567214 11035 net.cpp:148] Top shape: 24 64 56 56 (4816896)
I0403 14:43:52.567231 11035 net.cpp:156] Memory required for data: 226395168
I0403 14:43:52.567253 11035 layer_factory.hpp:77] Creating layer conv2/relu_3x3_reduce
I0403 14:43:52.567275 11035 net.cpp:91] Creating Layer conv2/relu_3x3_reduce
I0403 14:43:52.567296 11035 net.cpp:425] conv2/relu_3x3_reduce <- conv2/3x3_reduce
I0403 14:43:52.567315 11035 net.cpp:386] conv2/relu_3x3_reduce -> conv2/3x3_reduce (in-place)
I0403 14:43:52.567597 11035 net.cpp:141] Setting up conv2/relu_3x3_reduce
I0403 14:43:52.567626 11035 net.cpp:148] Top shape: 24 64 56 56 (4816896)
I0403 14:43:52.567642 11035 net.cpp:156] Memory required for data: 245662752
I0403 14:43:52.567658 11035 layer_factory.hpp:77] Creating layer conv2/3x3
I0403 14:43:52.567683 11035 net.cpp:91] Creating Layer conv2/3x3
I0403 14:43:52.567703 11035 net.cpp:425] conv2/3x3 <- conv2/3x3_reduce
I0403 14:43:52.567726 11035 net.cpp:399] conv2/3x3 -> conv2/3x3
I0403 14:43:52.570351 11035 net.cpp:141] Setting up conv2/3x3
I0403 14:43:52.570385 11035 net.cpp:148] Top shape: 24 192 56 56 (14450688)
I0403 14:43:52.570401 11035 net.cpp:156] Memory required for data: 303465504
I0403 14:43:52.570425 11035 layer_factory.hpp:77] Creating layer conv2/relu_3x3
I0403 14:43:52.570447 11035 net.cpp:91] Creating Layer conv2/relu_3x3
I0403 14:43:52.570466 11035 net.cpp:425] conv2/relu_3x3 <- conv2/3x3
I0403 14:43:52.570484 11035 net.cpp:386] conv2/relu_3x3 -> conv2/3x3 (in-place)
I0403 14:43:52.570672 11035 net.cpp:141] Setting up conv2/relu_3x3
I0403 14:43:52.570698 11035 net.cpp:148] Top shape: 24 192 56 56 (14450688)
I0403 14:43:52.570749 11035 net.cpp:156] Memory required for data: 361268256
I0403 14:43:52.570766 11035 layer_factory.hpp:77] Creating layer conv2/norm2
I0403 14:43:52.570787 11035 net.cpp:91] Creating Layer conv2/norm2
I0403 14:43:52.570806 11035 net.cpp:425] conv2/norm2 <- conv2/3x3
I0403 14:43:52.570827 11035 net.cpp:399] conv2/norm2 -> conv2/norm2
I0403 14:43:52.571156 11035 net.cpp:141] Setting up conv2/norm2
I0403 14:43:52.571188 11035 net.cpp:148] Top shape: 24 192 56 56 (14450688)
I0403 14:43:52.571205 11035 net.cpp:156] Memory required for data: 419071008
I0403 14:43:52.571221 11035 layer_factory.hpp:77] Creating layer pool2/3x3_s2
I0403 14:43:52.571240 11035 net.cpp:91] Creating Layer pool2/3x3_s2
I0403 14:43:52.571257 11035 net.cpp:425] pool2/3x3_s2 <- conv2/norm2
I0403 14:43:52.571280 11035 net.cpp:399] pool2/3x3_s2 -> pool2/3x3_s2
I0403 14:43:52.571336 11035 net.cpp:141] Setting up pool2/3x3_s2
I0403 14:43:52.571363 11035 net.cpp:148] Top shape: 24 192 28 28 (3612672)
I0403 14:43:52.571380 11035 net.cpp:156] Memory required for data: 433521696
I0403 14:43:52.571396 11035 layer_factory.hpp:77] Creating layer pool2/3x3_s2_pool2/3x3_s2_0_split
I0403 14:43:52.571414 11035 net.cpp:91] Creating Layer pool2/3x3_s2_pool2/3x3_s2_0_split
I0403 14:43:52.571431 11035 net.cpp:425] pool2/3x3_s2_pool2/3x3_s2_0_split <- pool2/3x3_s2
I0403 14:43:52.571449 11035 net.cpp:399] pool2/3x3_s2_pool2/3x3_s2_0_split -> pool2/3x3_s2_pool2/3x3_s2_0_split_0
I0403 14:43:52.571470 11035 net.cpp:399] pool2/3x3_s2_pool2/3x3_s2_0_split -> pool2/3x3_s2_pool2/3x3_s2_0_split_1
I0403 14:43:52.571492 11035 net.cpp:399] pool2/3x3_s2_pool2/3x3_s2_0_split -> pool2/3x3_s2_pool2/3x3_s2_0_split_2
I0403 14:43:52.571514 11035 net.cpp:399] pool2/3x3_s2_pool2/3x3_s2_0_split -> pool2/3x3_s2_pool2/3x3_s2_0_split_3
I0403 14:43:52.571590 11035 net.cpp:141] Setting up pool2/3x3_s2_pool2/3x3_s2_0_split
I0403 14:43:52.571615 11035 net.cpp:148] Top shape: 24 192 28 28 (3612672)
I0403 14:43:52.571633 11035 net.cpp:148] Top shape: 24 192 28 28 (3612672)
I0403 14:43:52.571650 11035 net.cpp:148] Top shape: 24 192 28 28 (3612672)
I0403 14:43:52.571667 11035 net.cpp:148] Top shape: 24 192 28 28 (3612672)
I0403 14:43:52.571682 11035 net.cpp:156] Memory required for data: 491324448
I0403 14:43:52.571697 11035 layer_factory.hpp:77] Creating layer inception_3a/1x1
I0403 14:43:52.571722 11035 net.cpp:91] Creating Layer inception_3a/1x1
I0403 14:43:52.571743 11035 net.cpp:425] inception_3a/1x1 <- pool2/3x3_s2_pool2/3x3_s2_0_split_0
I0403 14:43:52.571765 11035 net.cpp:399] inception_3a/1x1 -> inception_3a/1x1
I0403 14:43:52.573426 11035 net.cpp:141] Setting up inception_3a/1x1
I0403 14:43:52.573457 11035 net.cpp:148] Top shape: 24 64 28 28 (1204224)
I0403 14:43:52.573475 11035 net.cpp:156] Memory required for data: 496141344
I0403 14:43:52.573495 11035 layer_factory.hpp:77] Creating layer inception_3a/relu_1x1
I0403 14:43:52.573515 11035 net.cpp:91] Creating Layer inception_3a/relu_1x1
I0403 14:43:52.573532 11035 net.cpp:425] inception_3a/relu_1x1 <- inception_3a/1x1
I0403 14:43:52.573554 11035 net.cpp:386] inception_3a/relu_1x1 -> inception_3a/1x1 (in-place)
I0403 14:43:52.573740 11035 net.cpp:141] Setting up inception_3a/relu_1x1
I0403 14:43:52.573768 11035 net.cpp:148] Top shape: 24 64 28 28 (1204224)
I0403 14:43:52.573783 11035 net.cpp:156] Memory required for data: 500958240
I0403 14:43:52.573799 11035 layer_factory.hpp:77] Creating layer inception_3a/3x3_reduce
I0403 14:43:52.573822 11035 net.cpp:91] Creating Layer inception_3a/3x3_reduce
I0403 14:43:52.573843 11035 net.cpp:425] inception_3a/3x3_reduce <- pool2/3x3_s2_pool2/3x3_s2_0_split_1
I0403 14:43:52.573865 11035 net.cpp:399] inception_3a/3x3_reduce -> inception_3a/3x3_reduce
I0403 14:43:52.575711 11035 net.cpp:141] Setting up inception_3a/3x3_reduce
I0403 14:43:52.575742 11035 net.cpp:148] Top shape: 24 96 28 28 (1806336)
I0403 14:43:52.575759 11035 net.cpp:156] Memory required for data: 508183584
I0403 14:43:52.575783 11035 layer_factory.hpp:77] Creating layer inception_3a/relu_3x3_reduce
I0403 14:43:52.575822 11035 net.cpp:91] Creating Layer inception_3a/relu_3x3_reduce
I0403 14:43:52.575845 11035 net.cpp:425] inception_3a/relu_3x3_reduce <- inception_3a/3x3_reduce
I0403 14:43:52.575863 11035 net.cpp:386] inception_3a/relu_3x3_reduce -> inception_3a/3x3_reduce (in-place)
I0403 14:43:52.576100 11035 net.cpp:141] Setting up inception_3a/relu_3x3_reduce
I0403 14:43:52.576135 11035 net.cpp:148] Top shape: 24 96 28 28 (1806336)
I0403 14:43:52.576155 11035 net.cpp:156] Memory required for data: 515408928
I0403 14:43:52.576171 11035 layer_factory.hpp:77] Creating layer inception_3a/3x3
I0403 14:43:52.576196 11035 net.cpp:91] Creating Layer inception_3a/3x3
I0403 14:43:52.576215 11035 net.cpp:425] inception_3a/3x3 <- inception_3a/3x3_reduce
I0403 14:43:52.576236 11035 net.cpp:399] inception_3a/3x3 -> inception_3a/3x3
I0403 14:43:52.577985 11035 net.cpp:141] Setting up inception_3a/3x3
I0403 14:43:52.578014 11035 net.cpp:148] Top shape: 24 128 28 28 (2408448)
I0403 14:43:52.578033 11035 net.cpp:156] Memory required for data: 525042720
I0403 14:43:52.578052 11035 layer_factory.hpp:77] Creating layer inception_3a/relu_3x3
I0403 14:43:52.578074 11035 net.cpp:91] Creating Layer inception_3a/relu_3x3
I0403 14:43:52.578093 11035 net.cpp:425] inception_3a/relu_3x3 <- inception_3a/3x3
I0403 14:43:52.578111 11035 net.cpp:386] inception_3a/relu_3x3 -> inception_3a/3x3 (in-place)
I0403 14:43:52.578403 11035 net.cpp:141] Setting up inception_3a/relu_3x3
I0403 14:43:52.578431 11035 net.cpp:148] Top shape: 24 128 28 28 (2408448)
I0403 14:43:52.578449 11035 net.cpp:156] Memory required for data: 534676512
I0403 14:43:52.578465 11035 layer_factory.hpp:77] Creating layer inception_3a/5x5_reduce
I0403 14:43:52.578490 11035 net.cpp:91] Creating Layer inception_3a/5x5_reduce
I0403 14:43:52.578508 11035 net.cpp:425] inception_3a/5x5_reduce <- pool2/3x3_s2_pool2/3x3_s2_0_split_2
I0403 14:43:52.578531 11035 net.cpp:399] inception_3a/5x5_reduce -> inception_3a/5x5_reduce
I0403 14:43:52.579551 11035 net.cpp:141] Setting up inception_3a/5x5_reduce
I0403 14:43:52.579582 11035 net.cpp:148] Top shape: 24 16 28 28 (301056)
I0403 14:43:52.579598 11035 net.cpp:156] Memory required for data: 535880736
I0403 14:43:52.579618 11035 layer_factory.hpp:77] Creating layer inception_3a/relu_5x5_reduce
I0403 14:43:52.579640 11035 net.cpp:91] Creating Layer inception_3a/relu_5x5_reduce
I0403 14:43:52.579659 11035 net.cpp:425] inception_3a/relu_5x5_reduce <- inception_3a/5x5_reduce
I0403 14:43:52.579679 11035 net.cpp:386] inception_3a/relu_5x5_reduce -> inception_3a/5x5_reduce (in-place)
I0403 14:43:52.579988 11035 net.cpp:141] Setting up inception_3a/relu_5x5_reduce
I0403 14:43:52.580018 11035 net.cpp:148] Top shape: 24 16 28 28 (301056)
I0403 14:43:52.580034 11035 net.cpp:156] Memory required for data: 537084960
I0403 14:43:52.580049 11035 layer_factory.hpp:77] Creating layer inception_3a/5x5
I0403 14:43:52.580075 11035 net.cpp:91] Creating Layer inception_3a/5x5
I0403 14:43:52.580096 11035 net.cpp:425] inception_3a/5x5 <- inception_3a/5x5_reduce
I0403 14:43:52.580116 11035 net.cpp:399] inception_3a/5x5 -> inception_3a/5x5
I0403 14:43:52.581183 11035 net.cpp:141] Setting up inception_3a/5x5
I0403 14:43:52.581212 11035 net.cpp:148] Top shape: 24 32 28 28 (602112)
I0403 14:43:52.581228 11035 net.cpp:156] Memory required for data: 539493408
I0403 14:43:52.581248 11035 layer_factory.hpp:77] Creating layer inception_3a/relu_5x5
I0403 14:43:52.581269 11035 net.cpp:91] Creating Layer inception_3a/relu_5x5
I0403 14:43:52.581286 11035 net.cpp:425] inception_3a/relu_5x5 <- inception_3a/5x5
I0403 14:43:52.581307 11035 net.cpp:386] inception_3a/relu_5x5 -> inception_3a/5x5 (in-place)
I0403 14:43:52.581488 11035 net.cpp:141] Setting up inception_3a/relu_5x5
I0403 14:43:52.581516 11035 net.cpp:148] Top shape: 24 32 28 28 (602112)
I0403 14:43:52.581532 11035 net.cpp:156] Memory required for data: 541901856
I0403 14:43:52.581547 11035 layer_factory.hpp:77] Creating layer inception_3a/pool
I0403 14:43:52.581568 11035 net.cpp:91] Creating Layer inception_3a/pool
I0403 14:43:52.581600 11035 net.cpp:425] inception_3a/pool <- pool2/3x3_s2_pool2/3x3_s2_0_split_3
I0403 14:43:52.581622 11035 net.cpp:399] inception_3a/pool -> inception_3a/pool
I0403 14:43:52.581683 11035 net.cpp:141] Setting up inception_3a/pool
I0403 14:43:52.581709 11035 net.cpp:148] Top shape: 24 192 28 28 (3612672)
I0403 14:43:52.581724 11035 net.cpp:156] Memory required for data: 556352544
I0403 14:43:52.581739 11035 layer_factory.hpp:77] Creating layer inception_3a/pool_proj
I0403 14:43:52.581763 11035 net.cpp:91] Creating Layer inception_3a/pool_proj
I0403 14:43:52.581781 11035 net.cpp:425] inception_3a/pool_proj <- inception_3a/pool
I0403 14:43:52.581804 11035 net.cpp:399] inception_3a/pool_proj -> inception_3a/pool_proj
I0403 14:43:52.582823 11035 net.cpp:141] Setting up inception_3a/pool_proj
I0403 14:43:52.582856 11035 net.cpp:148] Top shape: 24 32 28 28 (602112)
I0403 14:43:52.582875 11035 net.cpp:156] Memory required for data: 558760992
I0403 14:43:52.582897 11035 layer_factory.hpp:77] Creating layer inception_3a/relu_pool_proj
I0403 14:43:52.582921 11035 net.cpp:91] Creating Layer inception_3a/relu_pool_proj
I0403 14:43:52.582939 11035 net.cpp:425] inception_3a/relu_pool_proj <- inception_3a/pool_proj
I0403 14:43:52.582958 11035 net.cpp:386] inception_3a/relu_pool_proj -> inception_3a/pool_proj (in-place)
I0403 14:43:52.583261 11035 net.cpp:141] Setting up inception_3a/relu_pool_proj
I0403 14:43:52.583289 11035 net.cpp:148] Top shape: 24 32 28 28 (602112)
I0403 14:43:52.583305 11035 net.cpp:156] Memory required for data: 561169440
I0403 14:43:52.583323 11035 layer_factory.hpp:77] Creating layer inception_3a/output
I0403 14:43:52.583341 11035 net.cpp:91] Creating Layer inception_3a/output
I0403 14:43:52.583359 11035 net.cpp:425] inception_3a/output <- inception_3a/1x1
I0403 14:43:52.583377 11035 net.cpp:425] inception_3a/output <- inception_3a/3x3
I0403 14:43:52.583396 11035 net.cpp:425] inception_3a/output <- inception_3a/5x5
I0403 14:43:52.583412 11035 net.cpp:425] inception_3a/output <- inception_3a/pool_proj
I0403 14:43:52.583433 11035 net.cpp:399] inception_3a/output -> inception_3a/output
I0403 14:43:52.583487 11035 net.cpp:141] Setting up inception_3a/output
I0403 14:43:52.583511 11035 net.cpp:148] Top shape: 24 256 28 28 (4816896)
I0403 14:43:52.583528 11035 net.cpp:156] Memory required for data: 580437024
I0403 14:43:52.583544 11035 layer_factory.hpp:77] Creating layer inception_3a/output_inception_3a/output_0_split
I0403 14:43:52.583561 11035 net.cpp:91] Creating Layer inception_3a/output_inception_3a/output_0_split
I0403 14:43:52.583577 11035 net.cpp:425] inception_3a/output_inception_3a/output_0_split <- inception_3a/output
I0403 14:43:52.583597 11035 net.cpp:399] inception_3a/output_inception_3a/output_0_split -> inception_3a/output_inception_3a/output_0_split_0
I0403 14:43:52.583621 11035 net.cpp:399] inception_3a/output_inception_3a/output_0_split -> inception_3a/output_inception_3a/output_0_split_1
I0403 14:43:52.583644 11035 net.cpp:399] inception_3a/output_inception_3a/output_0_split -> inception_3a/output_inception_3a/output_0_split_2
I0403 14:43:52.583667 11035 net.cpp:399] inception_3a/output_inception_3a/output_0_split -> inception_3a/output_inception_3a/output_0_split_3
I0403 14:43:52.583752 11035 net.cpp:141] Setting up inception_3a/output_inception_3a/output_0_split
I0403 14:43:52.583777 11035 net.cpp:148] Top shape: 24 256 28 28 (4816896)
I0403 14:43:52.583796 11035 net.cpp:148] Top shape: 24 256 28 28 (4816896)
I0403 14:43:52.583812 11035 net.cpp:148] Top shape: 24 256 28 28 (4816896)
I0403 14:43:52.583829 11035 net.cpp:148] Top shape: 24 256 28 28 (4816896)
I0403 14:43:52.583844 11035 net.cpp:156] Memory required for data: 657507360
I0403 14:43:52.583859 11035 layer_factory.hpp:77] Creating layer inception_3b/1x1
I0403 14:43:52.583884 11035 net.cpp:91] Creating Layer inception_3b/1x1
I0403 14:43:52.583901 11035 net.cpp:425] inception_3b/1x1 <- inception_3a/output_inception_3a/output_0_split_0
I0403 14:43:52.583925 11035 net.cpp:399] inception_3b/1x1 -> inception_3b/1x1
I0403 14:43:52.585119 11035 net.cpp:141] Setting up inception_3b/1x1
I0403 14:43:52.585168 11035 net.cpp:148] Top shape: 24 128 28 28 (2408448)
I0403 14:43:52.585187 11035 net.cpp:156] Memory required for data: 667141152
I0403 14:43:52.585207 11035 layer_factory.hpp:77] Creating layer inception_3b/relu_1x1
I0403 14:43:52.585227 11035 net.cpp:91] Creating Layer inception_3b/relu_1x1
I0403 14:43:52.585244 11035 net.cpp:425] inception_3b/relu_1x1 <- inception_3b/1x1
I0403 14:43:52.585265 11035 net.cpp:386] inception_3b/relu_1x1 -> inception_3b/1x1 (in-place)
I0403 14:43:52.585451 11035 net.cpp:141] Setting up inception_3b/relu_1x1
I0403 14:43:52.585479 11035 net.cpp:148] Top shape: 24 128 28 28 (2408448)
I0403 14:43:52.585494 11035 net.cpp:156] Memory required for data: 676774944
I0403 14:43:52.585510 11035 layer_factory.hpp:77] Creating layer inception_3b/3x3_reduce
I0403 14:43:52.585535 11035 net.cpp:91] Creating Layer inception_3b/3x3_reduce
I0403 14:43:52.585554 11035 net.cpp:425] inception_3b/3x3_reduce <- inception_3a/output_inception_3a/output_0_split_1
I0403 14:43:52.585580 11035 net.cpp:399] inception_3b/3x3_reduce -> inception_3b/3x3_reduce
I0403 14:43:52.586776 11035 net.cpp:141] Setting up inception_3b/3x3_reduce
I0403 14:43:52.586805 11035 net.cpp:148] Top shape: 24 128 28 28 (2408448)
I0403 14:43:52.586822 11035 net.cpp:156] Memory required for data: 686408736
I0403 14:43:52.586843 11035 layer_factory.hpp:77] Creating layer inception_3b/relu_3x3_reduce
I0403 14:43:52.586861 11035 net.cpp:91] Creating Layer inception_3b/relu_3x3_reduce
I0403 14:43:52.586879 11035 net.cpp:425] inception_3b/relu_3x3_reduce <- inception_3b/3x3_reduce
I0403 14:43:52.586899 11035 net.cpp:386] inception_3b/relu_3x3_reduce -> inception_3b/3x3_reduce (in-place)
I0403 14:43:52.587080 11035 net.cpp:141] Setting up inception_3b/relu_3x3_reduce
I0403 14:43:52.587107 11035 net.cpp:148] Top shape: 24 128 28 28 (2408448)
I0403 14:43:52.587123 11035 net.cpp:156] Memory required for data: 696042528
I0403 14:43:52.587144 11035 layer_factory.hpp:77] Creating layer inception_3b/3x3
I0403 14:43:52.587172 11035 net.cpp:91] Creating Layer inception_3b/3x3
I0403 14:43:52.587193 11035 net.cpp:425] inception_3b/3x3 <- inception_3b/3x3_reduce
I0403 14:43:52.587213 11035 net.cpp:399] inception_3b/3x3 -> inception_3b/3x3
I0403 14:43:52.590292 11035 net.cpp:141] Setting up inception_3b/3x3
I0403 14:43:52.590323 11035 net.cpp:148] Top shape: 24 192 28 28 (3612672)
I0403 14:43:52.590340 11035 net.cpp:156] Memory required for data: 710493216
I0403 14:43:52.590361 11035 layer_factory.hpp:77] Creating layer inception_3b/relu_3x3
I0403 14:43:52.590384 11035 net.cpp:91] Creating Layer inception_3b/relu_3x3
I0403 14:43:52.590404 11035 net.cpp:425] inception_3b/relu_3x3 <- inception_3b/3x3
I0403 14:43:52.590422 11035 net.cpp:386] inception_3b/relu_3x3 -> inception_3b/3x3 (in-place)
I0403 14:43:52.590718 11035 net.cpp:141] Setting up inception_3b/relu_3x3
I0403 14:43:52.590745 11035 net.cpp:148] Top shape: 24 192 28 28 (3612672)
I0403 14:43:52.590761 11035 net.cpp:156] Memory required for data: 724943904
I0403 14:43:52.590777 11035 layer_factory.hpp:77] Creating layer inception_3b/5x5_reduce
I0403 14:43:52.590802 11035 net.cpp:91] Creating Layer inception_3b/5x5_reduce
I0403 14:43:52.590821 11035 net.cpp:425] inception_3b/5x5_reduce <- inception_3a/output_inception_3a/output_0_split_2
I0403 14:43:52.590843 11035 net.cpp:399] inception_3b/5x5_reduce -> inception_3b/5x5_reduce
I0403 14:43:52.591892 11035 net.cpp:141] Setting up inception_3b/5x5_reduce
I0403 14:43:52.591922 11035 net.cpp:148] Top shape: 24 32 28 28 (602112)
I0403 14:43:52.591938 11035 net.cpp:156] Memory required for data: 727352352
I0403 14:43:52.591958 11035 layer_factory.hpp:77] Creating layer inception_3b/relu_5x5_reduce
I0403 14:43:52.591980 11035 net.cpp:91] Creating Layer inception_3b/relu_5x5_reduce
I0403 14:43:52.591998 11035 net.cpp:425] inception_3b/relu_5x5_reduce <- inception_3b/5x5_reduce
I0403 14:43:52.592015 11035 net.cpp:386] inception_3b/relu_5x5_reduce -> inception_3b/5x5_reduce (in-place)
I0403 14:43:52.592226 11035 net.cpp:141] Setting up inception_3b/relu_5x5_reduce
I0403 14:43:52.592254 11035 net.cpp:148] Top shape: 24 32 28 28 (602112)
I0403 14:43:52.592270 11035 net.cpp:156] Memory required for data: 729760800
I0403 14:43:52.592286 11035 layer_factory.hpp:77] Creating layer inception_3b/5x5
I0403 14:43:52.592309 11035 net.cpp:91] Creating Layer inception_3b/5x5
I0403 14:43:52.592329 11035 net.cpp:425] inception_3b/5x5 <- inception_3b/5x5_reduce
I0403 14:43:52.592351 11035 net.cpp:399] inception_3b/5x5 -> inception_3b/5x5
I0403 14:43:52.594424 11035 net.cpp:141] Setting up inception_3b/5x5
I0403 14:43:52.594457 11035 net.cpp:148] Top shape: 24 96 28 28 (1806336)
I0403 14:43:52.594475 11035 net.cpp:156] Memory required for data: 736986144
I0403 14:43:52.594494 11035 layer_factory.hpp:77] Creating layer inception_3b/relu_5x5
I0403 14:43:52.594513 11035 net.cpp:91] Creating Layer inception_3b/relu_5x5
I0403 14:43:52.594530 11035 net.cpp:425] inception_3b/relu_5x5 <- inception_3b/5x5
I0403 14:43:52.594552 11035 net.cpp:386] inception_3b/relu_5x5 -> inception_3b/5x5 (in-place)
I0403 14:43:52.594753 11035 net.cpp:141] Setting up inception_3b/relu_5x5
I0403 14:43:52.594779 11035 net.cpp:148] Top shape: 24 96 28 28 (1806336)
I0403 14:43:52.594795 11035 net.cpp:156] Memory required for data: 744211488
I0403 14:43:52.594810 11035 layer_factory.hpp:77] Creating layer inception_3b/pool
I0403 14:43:52.594828 11035 net.cpp:91] Creating Layer inception_3b/pool
I0403 14:43:52.594846 11035 net.cpp:425] inception_3b/pool <- inception_3a/output_inception_3a/output_0_split_3
I0403 14:43:52.594864 11035 net.cpp:399] inception_3b/pool -> inception_3b/pool
I0403 14:43:52.594926 11035 net.cpp:141] Setting up inception_3b/pool
I0403 14:43:52.594950 11035 net.cpp:148] Top shape: 24 256 28 28 (4816896)
I0403 14:43:52.594966 11035 net.cpp:156] Memory required for data: 763479072
I0403 14:43:52.594981 11035 layer_factory.hpp:77] Creating layer inception_3b/pool_proj
I0403 14:43:52.595005 11035 net.cpp:91] Creating Layer inception_3b/pool_proj
I0403 14:43:52.595024 11035 net.cpp:425] inception_3b/pool_proj <- inception_3b/pool
I0403 14:43:52.595046 11035 net.cpp:399] inception_3b/pool_proj -> inception_3b/pool_proj
I0403 14:43:52.596158 11035 net.cpp:141] Setting up inception_3b/pool_proj
I0403 14:43:52.596190 11035 net.cpp:148] Top shape: 24 64 28 28 (1204224)
I0403 14:43:52.596210 11035 net.cpp:156] Memory required for data: 768295968
I0403 14:43:52.596228 11035 layer_factory.hpp:77] Creating layer inception_3b/relu_pool_proj
I0403 14:43:52.596248 11035 net.cpp:91] Creating Layer inception_3b/relu_pool_proj
I0403 14:43:52.596266 11035 net.cpp:425] inception_3b/relu_pool_proj <- inception_3b/pool_proj
I0403 14:43:52.596284 11035 net.cpp:386] inception_3b/relu_pool_proj -> inception_3b/pool_proj (in-place)
I0403 14:43:52.596694 11035 net.cpp:141] Setting up inception_3b/relu_pool_proj
I0403 14:43:52.596724 11035 net.cpp:148] Top shape: 24 64 28 28 (1204224)
I0403 14:43:52.596740 11035 net.cpp:156] Memory required for data: 773112864
I0403 14:43:52.596755 11035 layer_factory.hpp:77] Creating layer inception_3b/output
I0403 14:43:52.596778 11035 net.cpp:91] Creating Layer inception_3b/output
I0403 14:43:52.596796 11035 net.cpp:425] inception_3b/output <- inception_3b/1x1
I0403 14:43:52.596815 11035 net.cpp:425] inception_3b/output <- inception_3b/3x3
I0403 14:43:52.596832 11035 net.cpp:425] inception_3b/output <- inception_3b/5x5
I0403 14:43:52.596848 11035 net.cpp:425] inception_3b/output <- inception_3b/pool_proj
I0403 14:43:52.596866 11035 net.cpp:399] inception_3b/output -> inception_3b/output
I0403 14:43:52.596915 11035 net.cpp:141] Setting up inception_3b/output
I0403 14:43:52.596940 11035 net.cpp:148] Top shape: 24 480 28 28 (9031680)
I0403 14:43:52.596956 11035 net.cpp:156] Memory required for data: 809239584
I0403 14:43:52.596971 11035 layer_factory.hpp:77] Creating layer pool3/3x3_s2
I0403 14:43:52.596992 11035 net.cpp:91] Creating Layer pool3/3x3_s2
I0403 14:43:52.597007 11035 net.cpp:425] pool3/3x3_s2 <- inception_3b/output
I0403 14:43:52.597045 11035 net.cpp:399] pool3/3x3_s2 -> pool3/3x3_s2
I0403 14:43:52.597110 11035 net.cpp:141] Setting up pool3/3x3_s2
I0403 14:43:52.597139 11035 net.cpp:148] Top shape: 24 480 14 14 (2257920)
I0403 14:43:52.597157 11035 net.cpp:156] Memory required for data: 818271264
I0403 14:43:52.597172 11035 layer_factory.hpp:77] Creating layer pool3/3x3_s2_pool3/3x3_s2_0_split
I0403 14:43:52.597193 11035 net.cpp:91] Creating Layer pool3/3x3_s2_pool3/3x3_s2_0_split
I0403 14:43:52.597210 11035 net.cpp:425] pool3/3x3_s2_pool3/3x3_s2_0_split <- pool3/3x3_s2
I0403 14:43:52.597232 11035 net.cpp:399] pool3/3x3_s2_pool3/3x3_s2_0_split -> pool3/3x3_s2_pool3/3x3_s2_0_split_0
I0403 14:43:52.597254 11035 net.cpp:399] pool3/3x3_s2_pool3/3x3_s2_0_split -> pool3/3x3_s2_pool3/3x3_s2_0_split_1
I0403 14:43:52.597275 11035 net.cpp:399] pool3/3x3_s2_pool3/3x3_s2_0_split -> pool3/3x3_s2_pool3/3x3_s2_0_split_2
I0403 14:43:52.597295 11035 net.cpp:399] pool3/3x3_s2_pool3/3x3_s2_0_split -> pool3/3x3_s2_pool3/3x3_s2_0_split_3
I0403 14:43:52.597373 11035 net.cpp:141] Setting up pool3/3x3_s2_pool3/3x3_s2_0_split
I0403 14:43:52.597398 11035 net.cpp:148] Top shape: 24 480 14 14 (2257920)
I0403 14:43:52.597421 11035 net.cpp:148] Top shape: 24 480 14 14 (2257920)
I0403 14:43:52.597440 11035 net.cpp:148] Top shape: 24 480 14 14 (2257920)
I0403 14:43:52.597456 11035 net.cpp:148] Top shape: 24 480 14 14 (2257920)
I0403 14:43:52.597470 11035 net.cpp:156] Memory required for data: 854397984
I0403 14:43:52.597486 11035 layer_factory.hpp:77] Creating layer inception_4a/1x1
I0403 14:43:52.597506 11035 net.cpp:91] Creating Layer inception_4a/1x1
I0403 14:43:52.597524 11035 net.cpp:425] inception_4a/1x1 <- pool3/3x3_s2_pool3/3x3_s2_0_split_0
I0403 14:43:52.597548 11035 net.cpp:399] inception_4a/1x1 -> inception_4a/1x1
I0403 14:43:52.599211 11035 net.cpp:141] Setting up inception_4a/1x1
I0403 14:43:52.599244 11035 net.cpp:148] Top shape: 24 192 14 14 (903168)
I0403 14:43:52.599262 11035 net.cpp:156] Memory required for data: 858010656
I0403 14:43:52.599282 11035 layer_factory.hpp:77] Creating layer inception_4a/relu_1x1
I0403 14:43:52.599300 11035 net.cpp:91] Creating Layer inception_4a/relu_1x1
I0403 14:43:52.599318 11035 net.cpp:425] inception_4a/relu_1x1 <- inception_4a/1x1
I0403 14:43:52.599334 11035 net.cpp:386] inception_4a/relu_1x1 -> inception_4a/1x1 (in-place)
I0403 14:43:52.599517 11035 net.cpp:141] Setting up inception_4a/relu_1x1
I0403 14:43:52.599545 11035 net.cpp:148] Top shape: 24 192 14 14 (903168)
I0403 14:43:52.599560 11035 net.cpp:156] Memory required for data: 861623328
I0403 14:43:52.599576 11035 layer_factory.hpp:77] Creating layer inception_4a/3x3_reduce
I0403 14:43:52.599599 11035 net.cpp:91] Creating Layer inception_4a/3x3_reduce
I0403 14:43:52.599617 11035 net.cpp:425] inception_4a/3x3_reduce <- pool3/3x3_s2_pool3/3x3_s2_0_split_1
I0403 14:43:52.599638 11035 net.cpp:399] inception_4a/3x3_reduce -> inception_4a/3x3_reduce
I0403 14:43:52.600937 11035 net.cpp:141] Setting up inception_4a/3x3_reduce
I0403 14:43:52.600970 11035 net.cpp:148] Top shape: 24 96 14 14 (451584)
I0403 14:43:52.600986 11035 net.cpp:156] Memory required for data: 863429664
I0403 14:43:52.601013 11035 layer_factory.hpp:77] Creating layer inception_4a/relu_3x3_reduce
I0403 14:43:52.601034 11035 net.cpp:91] Creating Layer inception_4a/relu_3x3_reduce
I0403 14:43:52.601052 11035 net.cpp:425] inception_4a/relu_3x3_reduce <- inception_4a/3x3_reduce
I0403 14:43:52.601069 11035 net.cpp:386] inception_4a/relu_3x3_reduce -> inception_4a/3x3_reduce (in-place)
I0403 14:43:52.601254 11035 net.cpp:141] Setting up inception_4a/relu_3x3_reduce
I0403 14:43:52.601284 11035 net.cpp:148] Top shape: 24 96 14 14 (451584)
I0403 14:43:52.601300 11035 net.cpp:156] Memory required for data: 865236000
I0403 14:43:52.601316 11035 layer_factory.hpp:77] Creating layer inception_4a/3x3
I0403 14:43:52.601341 11035 net.cpp:91] Creating Layer inception_4a/3x3
I0403 14:43:52.601361 11035 net.cpp:425] inception_4a/3x3 <- inception_4a/3x3_reduce
I0403 14:43:52.601379 11035 net.cpp:399] inception_4a/3x3 -> inception_4a/3x3
I0403 14:43:52.604164 11035 net.cpp:141] Setting up inception_4a/3x3
I0403 14:43:52.604194 11035 net.cpp:148] Top shape: 24 208 14 14 (978432)
I0403 14:43:52.604212 11035 net.cpp:156] Memory required for data: 869149728
I0403 14:43:52.604231 11035 layer_factory.hpp:77] Creating layer inception_4a/relu_3x3
I0403 14:43:52.604250 11035 net.cpp:91] Creating Layer inception_4a/relu_3x3
I0403 14:43:52.604266 11035 net.cpp:425] inception_4a/relu_3x3 <- inception_4a/3x3
I0403 14:43:52.604286 11035 net.cpp:386] inception_4a/relu_3x3 -> inception_4a/3x3 (in-place)
I0403 14:43:52.604578 11035 net.cpp:141] Setting up inception_4a/relu_3x3
I0403 14:43:52.604606 11035 net.cpp:148] Top shape: 24 208 14 14 (978432)
I0403 14:43:52.604622 11035 net.cpp:156] Memory required for data: 873063456
I0403 14:43:52.604638 11035 layer_factory.hpp:77] Creating layer inception_4a/5x5_reduce
I0403 14:43:52.604662 11035 net.cpp:91] Creating Layer inception_4a/5x5_reduce
I0403 14:43:52.604681 11035 net.cpp:425] inception_4a/5x5_reduce <- pool3/3x3_s2_pool3/3x3_s2_0_split_2
I0403 14:43:52.604706 11035 net.cpp:399] inception_4a/5x5_reduce -> inception_4a/5x5_reduce
I0403 14:43:52.605759 11035 net.cpp:141] Setting up inception_4a/5x5_reduce
I0403 14:43:52.605788 11035 net.cpp:148] Top shape: 24 16 14 14 (75264)
I0403 14:43:52.605805 11035 net.cpp:156] Memory required for data: 873364512
I0403 14:43:52.605824 11035 layer_factory.hpp:77] Creating layer inception_4a/relu_5x5_reduce
I0403 14:43:52.605844 11035 net.cpp:91] Creating Layer inception_4a/relu_5x5_reduce
I0403 14:43:52.605859 11035 net.cpp:425] inception_4a/relu_5x5_reduce <- inception_4a/5x5_reduce
I0403 14:43:52.605880 11035 net.cpp:386] inception_4a/relu_5x5_reduce -> inception_4a/5x5_reduce (in-place)
I0403 14:43:52.606062 11035 net.cpp:141] Setting up inception_4a/relu_5x5_reduce
I0403 14:43:52.606089 11035 net.cpp:148] Top shape: 24 16 14 14 (75264)
I0403 14:43:52.606106 11035 net.cpp:156] Memory required for data: 873665568
I0403 14:43:52.606120 11035 layer_factory.hpp:77] Creating layer inception_4a/5x5
I0403 14:43:52.606148 11035 net.cpp:91] Creating Layer inception_4a/5x5
I0403 14:43:52.606168 11035 net.cpp:425] inception_4a/5x5 <- inception_4a/5x5_reduce
I0403 14:43:52.606190 11035 net.cpp:399] inception_4a/5x5 -> inception_4a/5x5
I0403 14:43:52.607374 11035 net.cpp:141] Setting up inception_4a/5x5
I0403 14:43:52.607403 11035 net.cpp:148] Top shape: 24 48 14 14 (225792)
I0403 14:43:52.607419 11035 net.cpp:156] Memory required for data: 874568736
I0403 14:43:52.607439 11035 layer_factory.hpp:77] Creating layer inception_4a/relu_5x5
I0403 14:43:52.607460 11035 net.cpp:91] Creating Layer inception_4a/relu_5x5
I0403 14:43:52.607477 11035 net.cpp:425] inception_4a/relu_5x5 <- inception_4a/5x5
I0403 14:43:52.607496 11035 net.cpp:386] inception_4a/relu_5x5 -> inception_4a/5x5 (in-place)
I0403 14:43:52.607676 11035 net.cpp:141] Setting up inception_4a/relu_5x5
I0403 14:43:52.607704 11035 net.cpp:148] Top shape: 24 48 14 14 (225792)
I0403 14:43:52.607722 11035 net.cpp:156] Memory required for data: 875471904
I0403 14:43:52.607738 11035 layer_factory.hpp:77] Creating layer inception_4a/pool
I0403 14:43:52.607755 11035 net.cpp:91] Creating Layer inception_4a/pool
I0403 14:43:52.607771 11035 net.cpp:425] inception_4a/pool <- pool3/3x3_s2_pool3/3x3_s2_0_split_3
I0403 14:43:52.607792 11035 net.cpp:399] inception_4a/pool -> inception_4a/pool
I0403 14:43:52.607856 11035 net.cpp:141] Setting up inception_4a/pool
I0403 14:43:52.607882 11035 net.cpp:148] Top shape: 24 480 14 14 (2257920)
I0403 14:43:52.607897 11035 net.cpp:156] Memory required for data: 884503584
I0403 14:43:52.607911 11035 layer_factory.hpp:77] Creating layer inception_4a/pool_proj
I0403 14:43:52.607935 11035 net.cpp:91] Creating Layer inception_4a/pool_proj
I0403 14:43:52.607954 11035 net.cpp:425] inception_4a/pool_proj <- inception_4a/pool
I0403 14:43:52.607974 11035 net.cpp:399] inception_4a/pool_proj -> inception_4a/pool_proj
I0403 14:43:52.609176 11035 net.cpp:141] Setting up inception_4a/pool_proj
I0403 14:43:52.609205 11035 net.cpp:148] Top shape: 24 64 14 14 (301056)
I0403 14:43:52.609238 11035 net.cpp:156] Memory required for data: 885707808
I0403 14:43:52.609263 11035 layer_factory.hpp:77] Creating layer inception_4a/relu_pool_proj
I0403 14:43:52.609285 11035 net.cpp:91] Creating Layer inception_4a/relu_pool_proj
I0403 14:43:52.609303 11035 net.cpp:425] inception_4a/relu_pool_proj <- inception_4a/pool_proj
I0403 14:43:52.609321 11035 net.cpp:386] inception_4a/relu_pool_proj -> inception_4a/pool_proj (in-place)
I0403 14:43:52.609611 11035 net.cpp:141] Setting up inception_4a/relu_pool_proj
I0403 14:43:52.609638 11035 net.cpp:148] Top shape: 24 64 14 14 (301056)
I0403 14:43:52.609654 11035 net.cpp:156] Memory required for data: 886912032
I0403 14:43:52.609670 11035 layer_factory.hpp:77] Creating layer inception_4a/output
I0403 14:43:52.609690 11035 net.cpp:91] Creating Layer inception_4a/output
I0403 14:43:52.609706 11035 net.cpp:425] inception_4a/output <- inception_4a/1x1
I0403 14:43:52.609724 11035 net.cpp:425] inception_4a/output <- inception_4a/3x3
I0403 14:43:52.609741 11035 net.cpp:425] inception_4a/output <- inception_4a/5x5
I0403 14:43:52.609757 11035 net.cpp:425] inception_4a/output <- inception_4a/pool_proj
I0403 14:43:52.609776 11035 net.cpp:399] inception_4a/output -> inception_4a/output
I0403 14:43:52.609822 11035 net.cpp:141] Setting up inception_4a/output
I0403 14:43:52.609848 11035 net.cpp:148] Top shape: 24 512 14 14 (2408448)
I0403 14:43:52.609861 11035 net.cpp:156] Memory required for data: 896545824
I0403 14:43:52.609875 11035 layer_factory.hpp:77] Creating layer inception_4a/output_inception_4a/output_0_split
I0403 14:43:52.609894 11035 net.cpp:91] Creating Layer inception_4a/output_inception_4a/output_0_split
I0403 14:43:52.609910 11035 net.cpp:425] inception_4a/output_inception_4a/output_0_split <- inception_4a/output
I0403 14:43:52.609930 11035 net.cpp:399] inception_4a/output_inception_4a/output_0_split -> inception_4a/output_inception_4a/output_0_split_0
I0403 14:43:52.609952 11035 net.cpp:399] inception_4a/output_inception_4a/output_0_split -> inception_4a/output_inception_4a/output_0_split_1
I0403 14:43:52.609974 11035 net.cpp:399] inception_4a/output_inception_4a/output_0_split -> inception_4a/output_inception_4a/output_0_split_2
I0403 14:43:52.609998 11035 net.cpp:399] inception_4a/output_inception_4a/output_0_split -> inception_4a/output_inception_4a/output_0_split_3
I0403 14:43:52.610019 11035 net.cpp:399] inception_4a/output_inception_4a/output_0_split -> inception_4a/output_inception_4a/output_0_split_4
I0403 14:43:52.610113 11035 net.cpp:141] Setting up inception_4a/output_inception_4a/output_0_split
I0403 14:43:52.610143 11035 net.cpp:148] Top shape: 24 512 14 14 (2408448)
I0403 14:43:52.610160 11035 net.cpp:148] Top shape: 24 512 14 14 (2408448)
I0403 14:43:52.610177 11035 net.cpp:148] Top shape: 24 512 14 14 (2408448)
I0403 14:43:52.610193 11035 net.cpp:148] Top shape: 24 512 14 14 (2408448)
I0403 14:43:52.610209 11035 net.cpp:148] Top shape: 24 512 14 14 (2408448)
I0403 14:43:52.610224 11035 net.cpp:156] Memory required for data: 944714784
I0403 14:43:52.610239 11035 layer_factory.hpp:77] Creating layer loss1/ave_pool
I0403 14:43:52.610256 11035 net.cpp:91] Creating Layer loss1/ave_pool
I0403 14:43:52.610272 11035 net.cpp:425] loss1/ave_pool <- inception_4a/output_inception_4a/output_0_split_0
I0403 14:43:52.610292 11035 net.cpp:399] loss1/ave_pool -> loss1/ave_pool
I0403 14:43:52.610527 11035 net.cpp:141] Setting up loss1/ave_pool
I0403 14:43:52.610558 11035 net.cpp:148] Top shape: 24 512 4 4 (196608)
I0403 14:43:52.610575 11035 net.cpp:156] Memory required for data: 945501216
I0403 14:43:52.610592 11035 layer_factory.hpp:77] Creating layer loss1/conv
I0403 14:43:52.610616 11035 net.cpp:91] Creating Layer loss1/conv
I0403 14:43:52.610635 11035 net.cpp:425] loss1/conv <- loss1/ave_pool
I0403 14:43:52.610667 11035 net.cpp:399] loss1/conv -> loss1/conv
I0403 14:43:52.612200 11035 net.cpp:141] Setting up loss1/conv
I0403 14:43:52.612234 11035 net.cpp:148] Top shape: 24 128 4 4 (49152)
I0403 14:43:52.612270 11035 net.cpp:156] Memory required for data: 945697824
I0403 14:43:52.612293 11035 layer_factory.hpp:77] Creating layer loss1/relu_conv
I0403 14:43:52.612311 11035 net.cpp:91] Creating Layer loss1/relu_conv
I0403 14:43:52.612328 11035 net.cpp:425] loss1/relu_conv <- loss1/conv
I0403 14:43:52.612347 11035 net.cpp:386] loss1/relu_conv -> loss1/conv (in-place)
I0403 14:43:52.612639 11035 net.cpp:141] Setting up loss1/relu_conv
I0403 14:43:52.612668 11035 net.cpp:148] Top shape: 24 128 4 4 (49152)
I0403 14:43:52.612684 11035 net.cpp:156] Memory required for data: 945894432
I0403 14:43:52.612700 11035 layer_factory.hpp:77] Creating layer loss1/fc
I0403 14:43:52.612725 11035 net.cpp:91] Creating Layer loss1/fc
I0403 14:43:52.612746 11035 net.cpp:425] loss1/fc <- loss1/conv
I0403 14:43:52.612766 11035 net.cpp:399] loss1/fc -> loss1/fc
I0403 14:43:52.631335 11035 net.cpp:141] Setting up loss1/fc
I0403 14:43:52.631389 11035 net.cpp:148] Top shape: 24 1024 (24576)
I0403 14:43:52.631407 11035 net.cpp:156] Memory required for data: 945992736
I0403 14:43:52.631427 11035 layer_factory.hpp:77] Creating layer loss1/relu_fc
I0403 14:43:52.631448 11035 net.cpp:91] Creating Layer loss1/relu_fc
I0403 14:43:52.631465 11035 net.cpp:425] loss1/relu_fc <- loss1/fc
I0403 14:43:52.631484 11035 net.cpp:386] loss1/relu_fc -> loss1/fc (in-place)
I0403 14:43:52.631705 11035 net.cpp:141] Setting up loss1/relu_fc
I0403 14:43:52.631731 11035 net.cpp:148] Top shape: 24 1024 (24576)
I0403 14:43:52.631747 11035 net.cpp:156] Memory required for data: 946091040
I0403 14:43:52.631762 11035 layer_factory.hpp:77] Creating layer loss1/drop_fc
I0403 14:43:52.631790 11035 net.cpp:91] Creating Layer loss1/drop_fc
I0403 14:43:52.631810 11035 net.cpp:425] loss1/drop_fc <- loss1/fc
I0403 14:43:52.631831 11035 net.cpp:386] loss1/drop_fc -> loss1/fc (in-place)
I0403 14:43:52.631888 11035 net.cpp:141] Setting up loss1/drop_fc
I0403 14:43:52.631913 11035 net.cpp:148] Top shape: 24 1024 (24576)
I0403 14:43:52.631929 11035 net.cpp:156] Memory required for data: 946189344
I0403 14:43:52.631945 11035 layer_factory.hpp:77] Creating layer loss1/classifier_plantvillage
I0403 14:43:52.631970 11035 net.cpp:91] Creating Layer loss1/classifier_plantvillage
I0403 14:43:52.631989 11035 net.cpp:425] loss1/classifier_plantvillage <- loss1/fc
I0403 14:43:52.632009 11035 net.cpp:399] loss1/classifier_plantvillage -> loss1/classifier_plantvillage
I0403 14:43:52.632992 11035 net.cpp:141] Setting up loss1/classifier_plantvillage
I0403 14:43:52.633023 11035 net.cpp:148] Top shape: 24 38 (912)
I0403 14:43:52.633039 11035 net.cpp:156] Memory required for data: 946192992
I0403 14:43:52.633057 11035 layer_factory.hpp:77] Creating layer loss1/classifier_plantvillage_loss1/classifier_plantvillage_0_split
I0403 14:43:52.633077 11035 net.cpp:91] Creating Layer loss1/classifier_plantvillage_loss1/classifier_plantvillage_0_split
I0403 14:43:52.633095 11035 net.cpp:425] loss1/classifier_plantvillage_loss1/classifier_plantvillage_0_split <- loss1/classifier_plantvillage
I0403 14:43:52.633113 11035 net.cpp:399] loss1/classifier_plantvillage_loss1/classifier_plantvillage_0_split -> loss1/classifier_plantvillage_loss1/classifier_plantvillage_0_split_0
I0403 14:43:52.633150 11035 net.cpp:399] loss1/classifier_plantvillage_loss1/classifier_plantvillage_0_split -> loss1/classifier_plantvillage_loss1/classifier_plantvillage_0_split_1
I0403 14:43:52.633177 11035 net.cpp:399] loss1/classifier_plantvillage_loss1/classifier_plantvillage_0_split -> loss1/classifier_plantvillage_loss1/classifier_plantvillage_0_split_2
I0403 14:43:52.633249 11035 net.cpp:141] Setting up loss1/classifier_plantvillage_loss1/classifier_plantvillage_0_split
I0403 14:43:52.633273 11035 net.cpp:148] Top shape: 24 38 (912)
I0403 14:43:52.633291 11035 net.cpp:148] Top shape: 24 38 (912)
I0403 14:43:52.633307 11035 net.cpp:148] Top shape: 24 38 (912)
I0403 14:43:52.633322 11035 net.cpp:156] Memory required for data: 946203936
I0403 14:43:52.633337 11035 layer_factory.hpp:77] Creating layer inception_4b/1x1
I0403 14:43:52.633361 11035 net.cpp:91] Creating Layer inception_4b/1x1
I0403 14:43:52.633405 11035 net.cpp:425] inception_4b/1x1 <- inception_4a/output_inception_4a/output_0_split_1
I0403 14:43:52.633430 11035 net.cpp:399] inception_4b/1x1 -> inception_4b/1x1
I0403 14:43:52.635224 11035 net.cpp:141] Setting up inception_4b/1x1
I0403 14:43:52.635256 11035 net.cpp:148] Top shape: 24 160 14 14 (752640)
I0403 14:43:52.635272 11035 net.cpp:156] Memory required for data: 949214496
I0403 14:43:52.635291 11035 layer_factory.hpp:77] Creating layer inception_4b/relu_1x1
I0403 14:43:52.635310 11035 net.cpp:91] Creating Layer inception_4b/relu_1x1
I0403 14:43:52.635327 11035 net.cpp:425] inception_4b/relu_1x1 <- inception_4b/1x1
I0403 14:43:52.635347 11035 net.cpp:386] inception_4b/relu_1x1 -> inception_4b/1x1 (in-place)
I0403 14:43:52.635540 11035 net.cpp:141] Setting up inception_4b/relu_1x1
I0403 14:43:52.635567 11035 net.cpp:148] Top shape: 24 160 14 14 (752640)
I0403 14:43:52.635583 11035 net.cpp:156] Memory required for data: 952225056
I0403 14:43:52.635598 11035 layer_factory.hpp:77] Creating layer inception_4b/3x3_reduce
I0403 14:43:52.635622 11035 net.cpp:91] Creating Layer inception_4b/3x3_reduce
I0403 14:43:52.635642 11035 net.cpp:425] inception_4b/3x3_reduce <- inception_4a/output_inception_4a/output_0_split_2
I0403 14:43:52.635663 11035 net.cpp:399] inception_4b/3x3_reduce -> inception_4b/3x3_reduce
I0403 14:43:52.637097 11035 net.cpp:141] Setting up inception_4b/3x3_reduce
I0403 14:43:52.637133 11035 net.cpp:148] Top shape: 24 112 14 14 (526848)
I0403 14:43:52.637153 11035 net.cpp:156] Memory required for data: 954332448
I0403 14:43:52.637173 11035 layer_factory.hpp:77] Creating layer inception_4b/relu_3x3_reduce
I0403 14:43:52.637197 11035 net.cpp:91] Creating Layer inception_4b/relu_3x3_reduce
I0403 14:43:52.637217 11035 net.cpp:425] inception_4b/relu_3x3_reduce <- inception_4b/3x3_reduce
I0403 14:43:52.637235 11035 net.cpp:386] inception_4b/relu_3x3_reduce -> inception_4b/3x3_reduce (in-place)
I0403 14:43:52.637536 11035 net.cpp:141] Setting up inception_4b/relu_3x3_reduce
I0403 14:43:52.637563 11035 net.cpp:148] Top shape: 24 112 14 14 (526848)
I0403 14:43:52.637578 11035 net.cpp:156] Memory required for data: 956439840
I0403 14:43:52.637594 11035 layer_factory.hpp:77] Creating layer inception_4b/3x3
I0403 14:43:52.637619 11035 net.cpp:91] Creating Layer inception_4b/3x3
I0403 14:43:52.637637 11035 net.cpp:425] inception_4b/3x3 <- inception_4b/3x3_reduce
I0403 14:43:52.637658 11035 net.cpp:399] inception_4b/3x3 -> inception_4b/3x3
I0403 14:43:52.640822 11035 net.cpp:141] Setting up inception_4b/3x3
I0403 14:43:52.640856 11035 net.cpp:148] Top shape: 24 224 14 14 (1053696)
I0403 14:43:52.640875 11035 net.cpp:156] Memory required for data: 960654624
I0403 14:43:52.640894 11035 layer_factory.hpp:77] Creating layer inception_4b/relu_3x3
I0403 14:43:52.640914 11035 net.cpp:91] Creating Layer inception_4b/relu_3x3
I0403 14:43:52.640933 11035 net.cpp:425] inception_4b/relu_3x3 <- inception_4b/3x3
I0403 14:43:52.640950 11035 net.cpp:386] inception_4b/relu_3x3 -> inception_4b/3x3 (in-place)
I0403 14:43:52.641149 11035 net.cpp:141] Setting up inception_4b/relu_3x3
I0403 14:43:52.641176 11035 net.cpp:148] Top shape: 24 224 14 14 (1053696)
I0403 14:43:52.641192 11035 net.cpp:156] Memory required for data: 964869408
I0403 14:43:52.641208 11035 layer_factory.hpp:77] Creating layer inception_4b/5x5_reduce
I0403 14:43:52.641233 11035 net.cpp:91] Creating Layer inception_4b/5x5_reduce
I0403 14:43:52.641252 11035 net.cpp:425] inception_4b/5x5_reduce <- inception_4a/output_inception_4a/output_0_split_3
I0403 14:43:52.641274 11035 net.cpp:399] inception_4b/5x5_reduce -> inception_4b/5x5_reduce
I0403 14:43:52.642422 11035 net.cpp:141] Setting up inception_4b/5x5_reduce
I0403 14:43:52.642453 11035 net.cpp:148] Top shape: 24 24 14 14 (112896)
I0403 14:43:52.642470 11035 net.cpp:156] Memory required for data: 965320992
I0403 14:43:52.642489 11035 layer_factory.hpp:77] Creating layer inception_4b/relu_5x5_reduce
I0403 14:43:52.642513 11035 net.cpp:91] Creating Layer inception_4b/relu_5x5_reduce
I0403 14:43:52.642547 11035 net.cpp:425] inception_4b/relu_5x5_reduce <- inception_4b/5x5_reduce
I0403 14:43:52.642568 11035 net.cpp:386] inception_4b/relu_5x5_reduce -> inception_4b/5x5_reduce (in-place)
I0403 14:43:52.642763 11035 net.cpp:141] Setting up inception_4b/relu_5x5_reduce
I0403 14:43:52.642791 11035 net.cpp:148] Top shape: 24 24 14 14 (112896)
I0403 14:43:52.642807 11035 net.cpp:156] Memory required for data: 965772576
I0403 14:43:52.642824 11035 layer_factory.hpp:77] Creating layer inception_4b/5x5
I0403 14:43:52.642848 11035 net.cpp:91] Creating Layer inception_4b/5x5
I0403 14:43:52.642868 11035 net.cpp:425] inception_4b/5x5 <- inception_4b/5x5_reduce
I0403 14:43:52.642889 11035 net.cpp:399] inception_4b/5x5 -> inception_4b/5x5
I0403 14:43:52.644204 11035 net.cpp:141] Setting up inception_4b/5x5
I0403 14:43:52.644234 11035 net.cpp:148] Top shape: 24 64 14 14 (301056)
I0403 14:43:52.644251 11035 net.cpp:156] Memory required for data: 966976800
I0403 14:43:52.644270 11035 layer_factory.hpp:77] Creating layer inception_4b/relu_5x5
I0403 14:43:52.644289 11035 net.cpp:91] Creating Layer inception_4b/relu_5x5
I0403 14:43:52.644306 11035 net.cpp:425] inception_4b/relu_5x5 <- inception_4b/5x5
I0403 14:43:52.644327 11035 net.cpp:386] inception_4b/relu_5x5 -> inception_4b/5x5 (in-place)
I0403 14:43:52.644628 11035 net.cpp:141] Setting up inception_4b/relu_5x5
I0403 14:43:52.644655 11035 net.cpp:148] Top shape: 24 64 14 14 (301056)
I0403 14:43:52.644671 11035 net.cpp:156] Memory required for data: 968181024
I0403 14:43:52.644687 11035 layer_factory.hpp:77] Creating layer inception_4b/pool
I0403 14:43:52.644707 11035 net.cpp:91] Creating Layer inception_4b/pool
I0403 14:43:52.644724 11035 net.cpp:425] inception_4b/pool <- inception_4a/output_inception_4a/output_0_split_4
I0403 14:43:52.644748 11035 net.cpp:399] inception_4b/pool -> inception_4b/pool
I0403 14:43:52.644819 11035 net.cpp:141] Setting up inception_4b/pool
I0403 14:43:52.644845 11035 net.cpp:148] Top shape: 24 512 14 14 (2408448)
I0403 14:43:52.644860 11035 net.cpp:156] Memory required for data: 977814816
I0403 14:43:52.644876 11035 layer_factory.hpp:77] Creating layer inception_4b/pool_proj
I0403 14:43:52.644901 11035 net.cpp:91] Creating Layer inception_4b/pool_proj
I0403 14:43:52.644919 11035 net.cpp:425] inception_4b/pool_proj <- inception_4b/pool
I0403 14:43:52.644939 11035 net.cpp:399] inception_4b/pool_proj -> inception_4b/pool_proj
I0403 14:43:52.646219 11035 net.cpp:141] Setting up inception_4b/pool_proj
I0403 14:43:52.646250 11035 net.cpp:148] Top shape: 24 64 14 14 (301056)
I0403 14:43:52.646266 11035 net.cpp:156] Memory required for data: 979019040
I0403 14:43:52.646286 11035 layer_factory.hpp:77] Creating layer inception_4b/relu_pool_proj
I0403 14:43:52.646311 11035 net.cpp:91] Creating Layer inception_4b/relu_pool_proj
I0403 14:43:52.646329 11035 net.cpp:425] inception_4b/relu_pool_proj <- inception_4b/pool_proj
I0403 14:43:52.646348 11035 net.cpp:386] inception_4b/relu_pool_proj -> inception_4b/pool_proj (in-place)
I0403 14:43:52.646543 11035 net.cpp:141] Setting up inception_4b/relu_pool_proj
I0403 14:43:52.646572 11035 net.cpp:148] Top shape: 24 64 14 14 (301056)
I0403 14:43:52.646589 11035 net.cpp:156] Memory required for data: 980223264
I0403 14:43:52.646605 11035 layer_factory.hpp:77] Creating layer inception_4b/output
I0403 14:43:52.646623 11035 net.cpp:91] Creating Layer inception_4b/output
I0403 14:43:52.646641 11035 net.cpp:425] inception_4b/output <- inception_4b/1x1
I0403 14:43:52.646656 11035 net.cpp:425] inception_4b/output <- inception_4b/3x3
I0403 14:43:52.646674 11035 net.cpp:425] inception_4b/output <- inception_4b/5x5
I0403 14:43:52.646690 11035 net.cpp:425] inception_4b/output <- inception_4b/pool_proj
I0403 14:43:52.646708 11035 net.cpp:399] inception_4b/output -> inception_4b/output
I0403 14:43:52.646759 11035 net.cpp:141] Setting up inception_4b/output
I0403 14:43:52.646785 11035 net.cpp:148] Top shape: 24 512 14 14 (2408448)
I0403 14:43:52.646800 11035 net.cpp:156] Memory required for data: 989857056
I0403 14:43:52.646831 11035 layer_factory.hpp:77] Creating layer inception_4b/output_inception_4b/output_0_split
I0403 14:43:52.646848 11035 net.cpp:91] Creating Layer inception_4b/output_inception_4b/output_0_split
I0403 14:43:52.646865 11035 net.cpp:425] inception_4b/output_inception_4b/output_0_split <- inception_4b/output
I0403 14:43:52.646888 11035 net.cpp:399] inception_4b/output_inception_4b/output_0_split -> inception_4b/output_inception_4b/output_0_split_0
I0403 14:43:52.646910 11035 net.cpp:399] inception_4b/output_inception_4b/output_0_split -> inception_4b/output_inception_4b/output_0_split_1
I0403 14:43:52.646931 11035 net.cpp:399] inception_4b/output_inception_4b/output_0_split -> inception_4b/output_inception_4b/output_0_split_2
I0403 14:43:52.646953 11035 net.cpp:399] inception_4b/output_inception_4b/output_0_split -> inception_4b/output_inception_4b/output_0_split_3
I0403 14:43:52.647042 11035 net.cpp:141] Setting up inception_4b/output_inception_4b/output_0_split
I0403 14:43:52.647068 11035 net.cpp:148] Top shape: 24 512 14 14 (2408448)
I0403 14:43:52.647084 11035 net.cpp:148] Top shape: 24 512 14 14 (2408448)
I0403 14:43:52.647100 11035 net.cpp:148] Top shape: 24 512 14 14 (2408448)
I0403 14:43:52.647119 11035 net.cpp:148] Top shape: 24 512 14 14 (2408448)
I0403 14:43:52.647138 11035 net.cpp:156] Memory required for data: 1028392224
I0403 14:43:52.647156 11035 layer_factory.hpp:77] Creating layer inception_4c/1x1
I0403 14:43:52.647177 11035 net.cpp:91] Creating Layer inception_4c/1x1
I0403 14:43:52.647197 11035 net.cpp:425] inception_4c/1x1 <- inception_4b/output_inception_4b/output_0_split_0
I0403 14:43:52.647219 11035 net.cpp:399] inception_4c/1x1 -> inception_4c/1x1
I0403 14:43:52.648754 11035 net.cpp:141] Setting up inception_4c/1x1
I0403 14:43:52.648789 11035 net.cpp:148] Top shape: 24 128 14 14 (602112)
I0403 14:43:52.648807 11035 net.cpp:156] Memory required for data: 1030800672
I0403 14:43:52.648826 11035 layer_factory.hpp:77] Creating layer inception_4c/relu_1x1
I0403 14:43:52.648846 11035 net.cpp:91] Creating Layer inception_4c/relu_1x1
I0403 14:43:52.648864 11035 net.cpp:425] inception_4c/relu_1x1 <- inception_4c/1x1
I0403 14:43:52.648885 11035 net.cpp:386] inception_4c/relu_1x1 -> inception_4c/1x1 (in-place)
I0403 14:43:52.649077 11035 net.cpp:141] Setting up inception_4c/relu_1x1
I0403 14:43:52.649106 11035 net.cpp:148] Top shape: 24 128 14 14 (602112)
I0403 14:43:52.649122 11035 net.cpp:156] Memory required for data: 1033209120
I0403 14:43:52.649143 11035 layer_factory.hpp:77] Creating layer inception_4c/3x3_reduce
I0403 14:43:52.649168 11035 net.cpp:91] Creating Layer inception_4c/3x3_reduce
I0403 14:43:52.649188 11035 net.cpp:425] inception_4c/3x3_reduce <- inception_4b/output_inception_4b/output_0_split_1
I0403 14:43:52.649212 11035 net.cpp:399] inception_4c/3x3_reduce -> inception_4c/3x3_reduce
I0403 14:43:52.651275 11035 net.cpp:141] Setting up inception_4c/3x3_reduce
I0403 14:43:52.651306 11035 net.cpp:148] Top shape: 24 128 14 14 (602112)
I0403 14:43:52.651324 11035 net.cpp:156] Memory required for data: 1035617568
I0403 14:43:52.651342 11035 layer_factory.hpp:77] Creating layer inception_4c/relu_3x3_reduce
I0403 14:43:52.651362 11035 net.cpp:91] Creating Layer inception_4c/relu_3x3_reduce
I0403 14:43:52.651384 11035 net.cpp:425] inception_4c/relu_3x3_reduce <- inception_4c/3x3_reduce
I0403 14:43:52.651403 11035 net.cpp:386] inception_4c/relu_3x3_reduce -> inception_4c/3x3_reduce (in-place)
I0403 14:43:52.651705 11035 net.cpp:141] Setting up inception_4c/relu_3x3_reduce
I0403 14:43:52.651734 11035 net.cpp:148] Top shape: 24 128 14 14 (602112)
I0403 14:43:52.651751 11035 net.cpp:156] Memory required for data: 1038026016
I0403 14:43:52.651767 11035 layer_factory.hpp:77] Creating layer inception_4c/3x3
I0403 14:43:52.651790 11035 net.cpp:91] Creating Layer inception_4c/3x3
I0403 14:43:52.651809 11035 net.cpp:425] inception_4c/3x3 <- inception_4c/3x3_reduce
I0403 14:43:52.651834 11035 net.cpp:399] inception_4c/3x3 -> inception_4c/3x3
I0403 14:43:52.655665 11035 net.cpp:141] Setting up inception_4c/3x3
I0403 14:43:52.655710 11035 net.cpp:148] Top shape: 24 256 14 14 (1204224)
I0403 14:43:52.655728 11035 net.cpp:156] Memory required for data: 1042842912
I0403 14:43:52.655762 11035 layer_factory.hpp:77] Creating layer inception_4c/relu_3x3
I0403 14:43:52.655787 11035 net.cpp:91] Creating Layer inception_4c/relu_3x3
I0403 14:43:52.655807 11035 net.cpp:425] inception_4c/relu_3x3 <- inception_4c/3x3
I0403 14:43:52.655824 11035 net.cpp:386] inception_4c/relu_3x3 -> inception_4c/3x3 (in-place)
I0403 14:43:52.656019 11035 net.cpp:141] Setting up inception_4c/relu_3x3
I0403 14:43:52.656047 11035 net.cpp:148] Top shape: 24 256 14 14 (1204224)
I0403 14:43:52.656064 11035 net.cpp:156] Memory required for data: 1047659808
I0403 14:43:52.656080 11035 layer_factory.hpp:77] Creating layer inception_4c/5x5_reduce
I0403 14:43:52.656103 11035 net.cpp:91] Creating Layer inception_4c/5x5_reduce
I0403 14:43:52.656122 11035 net.cpp:425] inception_4c/5x5_reduce <- inception_4b/output_inception_4b/output_0_split_2
I0403 14:43:52.656152 11035 net.cpp:399] inception_4c/5x5_reduce -> inception_4c/5x5_reduce
I0403 14:43:52.657321 11035 net.cpp:141] Setting up inception_4c/5x5_reduce
I0403 14:43:52.657351 11035 net.cpp:148] Top shape: 24 24 14 14 (112896)
I0403 14:43:52.657368 11035 net.cpp:156] Memory required for data: 1048111392
I0403 14:43:52.657389 11035 layer_factory.hpp:77] Creating layer inception_4c/relu_5x5_reduce
I0403 14:43:52.657410 11035 net.cpp:91] Creating Layer inception_4c/relu_5x5_reduce
I0403 14:43:52.657428 11035 net.cpp:425] inception_4c/relu_5x5_reduce <- inception_4c/5x5_reduce
I0403 14:43:52.657445 11035 net.cpp:386] inception_4c/relu_5x5_reduce -> inception_4c/5x5_reduce (in-place)
I0403 14:43:52.657644 11035 net.cpp:141] Setting up inception_4c/relu_5x5_reduce
I0403 14:43:52.657670 11035 net.cpp:148] Top shape: 24 24 14 14 (112896)
I0403 14:43:52.657686 11035 net.cpp:156] Memory required for data: 1048562976
I0403 14:43:52.657702 11035 layer_factory.hpp:77] Creating layer inception_4c/5x5
I0403 14:43:52.657728 11035 net.cpp:91] Creating Layer inception_4c/5x5
I0403 14:43:52.657747 11035 net.cpp:425] inception_4c/5x5 <- inception_4c/5x5_reduce
I0403 14:43:52.657768 11035 net.cpp:399] inception_4c/5x5 -> inception_4c/5x5
I0403 14:43:52.659090 11035 net.cpp:141] Setting up inception_4c/5x5
I0403 14:43:52.659121 11035 net.cpp:148] Top shape: 24 64 14 14 (301056)
I0403 14:43:52.659147 11035 net.cpp:156] Memory required for data: 1049767200
I0403 14:43:52.659167 11035 layer_factory.hpp:77] Creating layer inception_4c/relu_5x5
I0403 14:43:52.659186 11035 net.cpp:91] Creating Layer inception_4c/relu_5x5
I0403 14:43:52.659204 11035 net.cpp:425] inception_4c/relu_5x5 <- inception_4c/5x5
I0403 14:43:52.659222 11035 net.cpp:386] inception_4c/relu_5x5 -> inception_4c/5x5 (in-place)
I0403 14:43:52.659529 11035 net.cpp:141] Setting up inception_4c/relu_5x5
I0403 14:43:52.659561 11035 net.cpp:148] Top shape: 24 64 14 14 (301056)
I0403 14:43:52.659579 11035 net.cpp:156] Memory required for data: 1050971424
I0403 14:43:52.659595 11035 layer_factory.hpp:77] Creating layer inception_4c/pool
I0403 14:43:52.659615 11035 net.cpp:91] Creating Layer inception_4c/pool
I0403 14:43:52.659631 11035 net.cpp:425] inception_4c/pool <- inception_4b/output_inception_4b/output_0_split_3
I0403 14:43:52.659651 11035 net.cpp:399] inception_4c/pool -> inception_4c/pool
I0403 14:43:52.659720 11035 net.cpp:141] Setting up inception_4c/pool
I0403 14:43:52.659746 11035 net.cpp:148] Top shape: 24 512 14 14 (2408448)
I0403 14:43:52.659761 11035 net.cpp:156] Memory required for data: 1060605216
I0403 14:43:52.659778 11035 layer_factory.hpp:77] Creating layer inception_4c/pool_proj
I0403 14:43:52.659801 11035 net.cpp:91] Creating Layer inception_4c/pool_proj
I0403 14:43:52.659821 11035 net.cpp:425] inception_4c/pool_proj <- inception_4c/pool
I0403 14:43:52.659843 11035 net.cpp:399] inception_4c/pool_proj -> inception_4c/pool_proj
I0403 14:43:52.661268 11035 net.cpp:141] Setting up inception_4c/pool_proj
I0403 14:43:52.661298 11035 net.cpp:148] Top shape: 24 64 14 14 (301056)
I0403 14:43:52.661331 11035 net.cpp:156] Memory required for data: 1061809440
I0403 14:43:52.661355 11035 layer_factory.hpp:77] Creating layer inception_4c/relu_pool_proj
I0403 14:43:52.661378 11035 net.cpp:91] Creating Layer inception_4c/relu_pool_proj
I0403 14:43:52.661396 11035 net.cpp:425] inception_4c/relu_pool_proj <- inception_4c/pool_proj
I0403 14:43:52.661415 11035 net.cpp:386] inception_4c/relu_pool_proj -> inception_4c/pool_proj (in-place)
I0403 14:43:52.661612 11035 net.cpp:141] Setting up inception_4c/relu_pool_proj
I0403 14:43:52.661639 11035 net.cpp:148] Top shape: 24 64 14 14 (301056)
I0403 14:43:52.661659 11035 net.cpp:156] Memory required for data: 1063013664
I0403 14:43:52.661674 11035 layer_factory.hpp:77] Creating layer inception_4c/output
I0403 14:43:52.661694 11035 net.cpp:91] Creating Layer inception_4c/output
I0403 14:43:52.661710 11035 net.cpp:425] inception_4c/output <- inception_4c/1x1
I0403 14:43:52.661727 11035 net.cpp:425] inception_4c/output <- inception_4c/3x3
I0403 14:43:52.661746 11035 net.cpp:425] inception_4c/output <- inception_4c/5x5
I0403 14:43:52.661762 11035 net.cpp:425] inception_4c/output <- inception_4c/pool_proj
I0403 14:43:52.661782 11035 net.cpp:399] inception_4c/output -> inception_4c/output
I0403 14:43:52.661833 11035 net.cpp:141] Setting up inception_4c/output
I0403 14:43:52.661859 11035 net.cpp:148] Top shape: 24 512 14 14 (2408448)
I0403 14:43:52.661875 11035 net.cpp:156] Memory required for data: 1072647456
I0403 14:43:52.661890 11035 layer_factory.hpp:77] Creating layer inception_4c/output_inception_4c/output_0_split
I0403 14:43:52.661907 11035 net.cpp:91] Creating Layer inception_4c/output_inception_4c/output_0_split
I0403 14:43:52.661924 11035 net.cpp:425] inception_4c/output_inception_4c/output_0_split <- inception_4c/output
I0403 14:43:52.661947 11035 net.cpp:399] inception_4c/output_inception_4c/output_0_split -> inception_4c/output_inception_4c/output_0_split_0
I0403 14:43:52.661969 11035 net.cpp:399] inception_4c/output_inception_4c/output_0_split -> inception_4c/output_inception_4c/output_0_split_1
I0403 14:43:52.661991 11035 net.cpp:399] inception_4c/output_inception_4c/output_0_split -> inception_4c/output_inception_4c/output_0_split_2
I0403 14:43:52.662014 11035 net.cpp:399] inception_4c/output_inception_4c/output_0_split -> inception_4c/output_inception_4c/output_0_split_3
I0403 14:43:52.662107 11035 net.cpp:141] Setting up inception_4c/output_inception_4c/output_0_split
I0403 14:43:52.662137 11035 net.cpp:148] Top shape: 24 512 14 14 (2408448)
I0403 14:43:52.662158 11035 net.cpp:148] Top shape: 24 512 14 14 (2408448)
I0403 14:43:52.662174 11035 net.cpp:148] Top shape: 24 512 14 14 (2408448)
I0403 14:43:52.662191 11035 net.cpp:148] Top shape: 24 512 14 14 (2408448)
I0403 14:43:52.662205 11035 net.cpp:156] Memory required for data: 1111182624
I0403 14:43:52.662221 11035 layer_factory.hpp:77] Creating layer inception_4d/1x1
I0403 14:43:52.662245 11035 net.cpp:91] Creating Layer inception_4d/1x1
I0403 14:43:52.662264 11035 net.cpp:425] inception_4d/1x1 <- inception_4c/output_inception_4c/output_0_split_0
I0403 14:43:52.662286 11035 net.cpp:399] inception_4d/1x1 -> inception_4d/1x1
I0403 14:43:52.663823 11035 net.cpp:141] Setting up inception_4d/1x1
I0403 14:43:52.663856 11035 net.cpp:148] Top shape: 24 112 14 14 (526848)
I0403 14:43:52.663873 11035 net.cpp:156] Memory required for data: 1113290016
I0403 14:43:52.663893 11035 layer_factory.hpp:77] Creating layer inception_4d/relu_1x1
I0403 14:43:52.663913 11035 net.cpp:91] Creating Layer inception_4d/relu_1x1
I0403 14:43:52.663930 11035 net.cpp:425] inception_4d/relu_1x1 <- inception_4d/1x1
I0403 14:43:52.663951 11035 net.cpp:386] inception_4d/relu_1x1 -> inception_4d/1x1 (in-place)
I0403 14:43:52.664155 11035 net.cpp:141] Setting up inception_4d/relu_1x1
I0403 14:43:52.664183 11035 net.cpp:148] Top shape: 24 112 14 14 (526848)
I0403 14:43:52.664199 11035 net.cpp:156] Memory required for data: 1115397408
I0403 14:43:52.664216 11035 layer_factory.hpp:77] Creating layer inception_4d/3x3_reduce
I0403 14:43:52.664255 11035 net.cpp:91] Creating Layer inception_4d/3x3_reduce
I0403 14:43:52.664276 11035 net.cpp:425] inception_4d/3x3_reduce <- inception_4c/output_inception_4c/output_0_split_1
I0403 14:43:52.664299 11035 net.cpp:399] inception_4d/3x3_reduce -> inception_4d/3x3_reduce
I0403 14:43:52.665871 11035 net.cpp:141] Setting up inception_4d/3x3_reduce
I0403 14:43:52.665900 11035 net.cpp:148] Top shape: 24 144 14 14 (677376)
I0403 14:43:52.665917 11035 net.cpp:156] Memory required for data: 1118106912
I0403 14:43:52.665936 11035 layer_factory.hpp:77] Creating layer inception_4d/relu_3x3_reduce
I0403 14:43:52.665957 11035 net.cpp:91] Creating Layer inception_4d/relu_3x3_reduce
I0403 14:43:52.665976 11035 net.cpp:425] inception_4d/relu_3x3_reduce <- inception_4d/3x3_reduce
I0403 14:43:52.665993 11035 net.cpp:386] inception_4d/relu_3x3_reduce -> inception_4d/3x3_reduce (in-place)
I0403 14:43:52.666299 11035 net.cpp:141] Setting up inception_4d/relu_3x3_reduce
I0403 14:43:52.666327 11035 net.cpp:148] Top shape: 24 144 14 14 (677376)
I0403 14:43:52.666343 11035 net.cpp:156] Memory required for data: 1120816416
I0403 14:43:52.666373 11035 layer_factory.hpp:77] Creating layer inception_4d/3x3
I0403 14:43:52.666399 11035 net.cpp:91] Creating Layer inception_4d/3x3
I0403 14:43:52.666417 11035 net.cpp:425] inception_4d/3x3 <- inception_4d/3x3_reduce
I0403 14:43:52.666438 11035 net.cpp:399] inception_4d/3x3 -> inception_4d/3x3
I0403 14:43:52.670871 11035 net.cpp:141] Setting up inception_4d/3x3
I0403 14:43:52.670904 11035 net.cpp:148] Top shape: 24 288 14 14 (1354752)
I0403 14:43:52.670922 11035 net.cpp:156] Memory required for data: 1126235424
I0403 14:43:52.670941 11035 layer_factory.hpp:77] Creating layer inception_4d/relu_3x3
I0403 14:43:52.670960 11035 net.cpp:91] Creating Layer inception_4d/relu_3x3
I0403 14:43:52.670977 11035 net.cpp:425] inception_4d/relu_3x3 <- inception_4d/3x3
I0403 14:43:52.670999 11035 net.cpp:386] inception_4d/relu_3x3 -> inception_4d/3x3 (in-place)
I0403 14:43:52.671195 11035 net.cpp:141] Setting up inception_4d/relu_3x3
I0403 14:43:52.671221 11035 net.cpp:148] Top shape: 24 288 14 14 (1354752)
I0403 14:43:52.671236 11035 net.cpp:156] Memory required for data: 1131654432
I0403 14:43:52.671252 11035 layer_factory.hpp:77] Creating layer inception_4d/5x5_reduce
I0403 14:43:52.671275 11035 net.cpp:91] Creating Layer inception_4d/5x5_reduce
I0403 14:43:52.671293 11035 net.cpp:425] inception_4d/5x5_reduce <- inception_4c/output_inception_4c/output_0_split_2
I0403 14:43:52.671316 11035 net.cpp:399] inception_4d/5x5_reduce -> inception_4d/5x5_reduce
I0403 14:43:52.672514 11035 net.cpp:141] Setting up inception_4d/5x5_reduce
I0403 14:43:52.672544 11035 net.cpp:148] Top shape: 24 32 14 14 (150528)
I0403 14:43:52.672560 11035 net.cpp:156] Memory required for data: 1132256544
I0403 14:43:52.672592 11035 layer_factory.hpp:77] Creating layer inception_4d/relu_5x5_reduce
I0403 14:43:52.672611 11035 net.cpp:91] Creating Layer inception_4d/relu_5x5_reduce
I0403 14:43:52.672629 11035 net.cpp:425] inception_4d/relu_5x5_reduce <- inception_4d/5x5_reduce
I0403 14:43:52.672652 11035 net.cpp:386] inception_4d/relu_5x5_reduce -> inception_4d/5x5_reduce (in-place)
I0403 14:43:52.672853 11035 net.cpp:141] Setting up inception_4d/relu_5x5_reduce
I0403 14:43:52.672881 11035 net.cpp:148] Top shape: 24 32 14 14 (150528)
I0403 14:43:52.672896 11035 net.cpp:156] Memory required for data: 1132858656
I0403 14:43:52.672911 11035 layer_factory.hpp:77] Creating layer inception_4d/5x5
I0403 14:43:52.672935 11035 net.cpp:91] Creating Layer inception_4d/5x5
I0403 14:43:52.672957 11035 net.cpp:425] inception_4d/5x5 <- inception_4d/5x5_reduce
I0403 14:43:52.672981 11035 net.cpp:399] inception_4d/5x5 -> inception_4d/5x5
I0403 14:43:52.674553 11035 net.cpp:141] Setting up inception_4d/5x5
I0403 14:43:52.674583 11035 net.cpp:148] Top shape: 24 64 14 14 (301056)
I0403 14:43:52.674599 11035 net.cpp:156] Memory required for data: 1134062880
I0403 14:43:52.674618 11035 layer_factory.hpp:77] Creating layer inception_4d/relu_5x5
I0403 14:43:52.674670 11035 net.cpp:91] Creating Layer inception_4d/relu_5x5
I0403 14:43:52.674690 11035 net.cpp:425] inception_4d/relu_5x5 <- inception_4d/5x5
I0403 14:43:52.674710 11035 net.cpp:386] inception_4d/relu_5x5 -> inception_4d/5x5 (in-place)
I0403 14:43:52.675020 11035 net.cpp:141] Setting up inception_4d/relu_5x5
I0403 14:43:52.675050 11035 net.cpp:148] Top shape: 24 64 14 14 (301056)
I0403 14:43:52.675065 11035 net.cpp:156] Memory required for data: 1135267104
I0403 14:43:52.675081 11035 layer_factory.hpp:77] Creating layer inception_4d/pool
I0403 14:43:52.675101 11035 net.cpp:91] Creating Layer inception_4d/pool
I0403 14:43:52.675119 11035 net.cpp:425] inception_4d/pool <- inception_4c/output_inception_4c/output_0_split_3
I0403 14:43:52.675144 11035 net.cpp:399] inception_4d/pool -> inception_4d/pool
I0403 14:43:52.675216 11035 net.cpp:141] Setting up inception_4d/pool
I0403 14:43:52.675242 11035 net.cpp:148] Top shape: 24 512 14 14 (2408448)
I0403 14:43:52.675257 11035 net.cpp:156] Memory required for data: 1144900896
I0403 14:43:52.675272 11035 layer_factory.hpp:77] Creating layer inception_4d/pool_proj
I0403 14:43:52.675294 11035 net.cpp:91] Creating Layer inception_4d/pool_proj
I0403 14:43:52.675313 11035 net.cpp:425] inception_4d/pool_proj <- inception_4d/pool
I0403 14:43:52.675335 11035 net.cpp:399] inception_4d/pool_proj -> inception_4d/pool_proj
I0403 14:43:52.677156 11035 net.cpp:141] Setting up inception_4d/pool_proj
I0403 14:43:52.677188 11035 net.cpp:148] Top shape: 24 64 14 14 (301056)
I0403 14:43:52.677206 11035 net.cpp:156] Memory required for data: 1146105120
I0403 14:43:52.677225 11035 layer_factory.hpp:77] Creating layer inception_4d/relu_pool_proj
I0403 14:43:52.677245 11035 net.cpp:91] Creating Layer inception_4d/relu_pool_proj
I0403 14:43:52.677263 11035 net.cpp:425] inception_4d/relu_pool_proj <- inception_4d/pool_proj
I0403 14:43:52.677284 11035 net.cpp:386] inception_4d/relu_pool_proj -> inception_4d/pool_proj (in-place)
I0403 14:43:52.677479 11035 net.cpp:141] Setting up inception_4d/relu_pool_proj
I0403 14:43:52.677505 11035 net.cpp:148] Top shape: 24 64 14 14 (301056)
I0403 14:43:52.677520 11035 net.cpp:156] Memory required for data: 1147309344
I0403 14:43:52.677534 11035 layer_factory.hpp:77] Creating layer inception_4d/output
I0403 14:43:52.677552 11035 net.cpp:91] Creating Layer inception_4d/output
I0403 14:43:52.677568 11035 net.cpp:425] inception_4d/output <- inception_4d/1x1
I0403 14:43:52.677585 11035 net.cpp:425] inception_4d/output <- inception_4d/3x3
I0403 14:43:52.677603 11035 net.cpp:425] inception_4d/output <- inception_4d/5x5
I0403 14:43:52.677618 11035 net.cpp:425] inception_4d/output <- inception_4d/pool_proj
I0403 14:43:52.677639 11035 net.cpp:399] inception_4d/output -> inception_4d/output
I0403 14:43:52.677691 11035 net.cpp:141] Setting up inception_4d/output
I0403 14:43:52.677716 11035 net.cpp:148] Top shape: 24 528 14 14 (2483712)
I0403 14:43:52.677731 11035 net.cpp:156] Memory required for data: 1157244192
I0403 14:43:52.677748 11035 layer_factory.hpp:77] Creating layer inception_4d/output_inception_4d/output_0_split
I0403 14:43:52.677767 11035 net.cpp:91] Creating Layer inception_4d/output_inception_4d/output_0_split
I0403 14:43:52.677783 11035 net.cpp:425] inception_4d/output_inception_4d/output_0_split <- inception_4d/output
I0403 14:43:52.677805 11035 net.cpp:399] inception_4d/output_inception_4d/output_0_split -> inception_4d/output_inception_4d/output_0_split_0
I0403 14:43:52.677827 11035 net.cpp:399] inception_4d/output_inception_4d/output_0_split -> inception_4d/output_inception_4d/output_0_split_1
I0403 14:43:52.677850 11035 net.cpp:399] inception_4d/output_inception_4d/output_0_split -> inception_4d/output_inception_4d/output_0_split_2
I0403 14:43:52.677872 11035 net.cpp:399] inception_4d/output_inception_4d/output_0_split -> inception_4d/output_inception_4d/output_0_split_3
I0403 14:43:52.677893 11035 net.cpp:399] inception_4d/output_inception_4d/output_0_split -> inception_4d/output_inception_4d/output_0_split_4
I0403 14:43:52.678000 11035 net.cpp:141] Setting up inception_4d/output_inception_4d/output_0_split
I0403 14:43:52.678041 11035 net.cpp:148] Top shape: 24 528 14 14 (2483712)
I0403 14:43:52.678061 11035 net.cpp:148] Top shape: 24 528 14 14 (2483712)
I0403 14:43:52.678077 11035 net.cpp:148] Top shape: 24 528 14 14 (2483712)
I0403 14:43:52.678093 11035 net.cpp:148] Top shape: 24 528 14 14 (2483712)
I0403 14:43:52.678110 11035 net.cpp:148] Top shape: 24 528 14 14 (2483712)
I0403 14:43:52.678129 11035 net.cpp:156] Memory required for data: 1206918432
I0403 14:43:52.678145 11035 layer_factory.hpp:77] Creating layer loss2/ave_pool
I0403 14:43:52.678164 11035 net.cpp:91] Creating Layer loss2/ave_pool
I0403 14:43:52.678179 11035 net.cpp:425] loss2/ave_pool <- inception_4d/output_inception_4d/output_0_split_0
I0403 14:43:52.678201 11035 net.cpp:399] loss2/ave_pool -> loss2/ave_pool
I0403 14:43:52.678527 11035 net.cpp:141] Setting up loss2/ave_pool
I0403 14:43:52.678555 11035 net.cpp:148] Top shape: 24 528 4 4 (202752)
I0403 14:43:52.678571 11035 net.cpp:156] Memory required for data: 1207729440
I0403 14:43:52.678587 11035 layer_factory.hpp:77] Creating layer loss2/conv
I0403 14:43:52.678611 11035 net.cpp:91] Creating Layer loss2/conv
I0403 14:43:52.678629 11035 net.cpp:425] loss2/conv <- loss2/ave_pool
I0403 14:43:52.678652 11035 net.cpp:399] loss2/conv -> loss2/conv
I0403 14:43:52.680608 11035 net.cpp:141] Setting up loss2/conv
I0403 14:43:52.680639 11035 net.cpp:148] Top shape: 24 128 4 4 (49152)
I0403 14:43:52.680655 11035 net.cpp:156] Memory required for data: 1207926048
I0403 14:43:52.680675 11035 layer_factory.hpp:77] Creating layer loss2/relu_conv
I0403 14:43:52.680696 11035 net.cpp:91] Creating Layer loss2/relu_conv
I0403 14:43:52.680712 11035 net.cpp:425] loss2/relu_conv <- loss2/conv
I0403 14:43:52.680730 11035 net.cpp:386] loss2/relu_conv -> loss2/conv (in-place)
I0403 14:43:52.681035 11035 net.cpp:141] Setting up loss2/relu_conv
I0403 14:43:52.681064 11035 net.cpp:148] Top shape: 24 128 4 4 (49152)
I0403 14:43:52.681080 11035 net.cpp:156] Memory required for data: 1208122656
I0403 14:43:52.681095 11035 layer_factory.hpp:77] Creating layer loss2/fc
I0403 14:43:52.681118 11035 net.cpp:91] Creating Layer loss2/fc
I0403 14:43:52.681143 11035 net.cpp:425] loss2/fc <- loss2/conv
I0403 14:43:52.681167 11035 net.cpp:399] loss2/fc -> loss2/fc
I0403 14:43:52.699112 11035 net.cpp:141] Setting up loss2/fc
I0403 14:43:52.699175 11035 net.cpp:148] Top shape: 24 1024 (24576)
I0403 14:43:52.699193 11035 net.cpp:156] Memory required for data: 1208220960
I0403 14:43:52.699213 11035 layer_factory.hpp:77] Creating layer loss2/relu_fc
I0403 14:43:52.699232 11035 net.cpp:91] Creating Layer loss2/relu_fc
I0403 14:43:52.699251 11035 net.cpp:425] loss2/relu_fc <- loss2/fc
I0403 14:43:52.699272 11035 net.cpp:386] loss2/relu_fc -> loss2/fc (in-place)
I0403 14:43:52.699620 11035 net.cpp:141] Setting up loss2/relu_fc
I0403 14:43:52.699646 11035 net.cpp:148] Top shape: 24 1024 (24576)
I0403 14:43:52.699661 11035 net.cpp:156] Memory required for data: 1208319264
I0403 14:43:52.699676 11035 layer_factory.hpp:77] Creating layer loss2/drop_fc
I0403 14:43:52.699697 11035 net.cpp:91] Creating Layer loss2/drop_fc
I0403 14:43:52.699712 11035 net.cpp:425] loss2/drop_fc <- loss2/fc
I0403 14:43:52.699731 11035 net.cpp:386] loss2/drop_fc -> loss2/fc (in-place)
I0403 14:43:52.699782 11035 net.cpp:141] Setting up loss2/drop_fc
I0403 14:43:52.699808 11035 net.cpp:148] Top shape: 24 1024 (24576)
I0403 14:43:52.699826 11035 net.cpp:156] Memory required for data: 1208417568
I0403 14:43:52.699841 11035 layer_factory.hpp:77] Creating layer loss2/classifier_plantvillage
I0403 14:43:52.699859 11035 net.cpp:91] Creating Layer loss2/classifier_plantvillage
I0403 14:43:52.699875 11035 net.cpp:425] loss2/classifier_plantvillage <- loss2/fc
I0403 14:43:52.699898 11035 net.cpp:399] loss2/classifier_plantvillage -> loss2/classifier_plantvillage
I0403 14:43:52.700353 11035 net.cpp:141] Setting up loss2/classifier_plantvillage
I0403 14:43:52.700379 11035 net.cpp:148] Top shape: 24 38 (912)
I0403 14:43:52.700420 11035 net.cpp:156] Memory required for data: 1208421216
I0403 14:43:52.700440 11035 layer_factory.hpp:77] Creating layer loss2/classifier_plantvillage_loss2/classifier_plantvillage_0_split
I0403 14:43:52.700464 11035 net.cpp:91] Creating Layer loss2/classifier_plantvillage_loss2/classifier_plantvillage_0_split
I0403 14:43:52.700482 11035 net.cpp:425] loss2/classifier_plantvillage_loss2/classifier_plantvillage_0_split <- loss2/classifier_plantvillage
I0403 14:43:52.700500 11035 net.cpp:399] loss2/classifier_plantvillage_loss2/classifier_plantvillage_0_split -> loss2/classifier_plantvillage_loss2/classifier_plantvillage_0_split_0
I0403 14:43:52.700520 11035 net.cpp:399] loss2/classifier_plantvillage_loss2/classifier_plantvillage_0_split -> loss2/classifier_plantvillage_loss2/classifier_plantvillage_0_split_1
I0403 14:43:52.700546 11035 net.cpp:399] loss2/classifier_plantvillage_loss2/classifier_plantvillage_0_split -> loss2/classifier_plantvillage_loss2/classifier_plantvillage_0_split_2
I0403 14:43:52.700623 11035 net.cpp:141] Setting up loss2/classifier_plantvillage_loss2/classifier_plantvillage_0_split
I0403 14:43:52.700649 11035 net.cpp:148] Top shape: 24 38 (912)
I0403 14:43:52.700664 11035 net.cpp:148] Top shape: 24 38 (912)
I0403 14:43:52.700680 11035 net.cpp:148] Top shape: 24 38 (912)
I0403 14:43:52.700695 11035 net.cpp:156] Memory required for data: 1208432160
I0403 14:43:52.700711 11035 layer_factory.hpp:77] Creating layer inception_4e/1x1
I0403 14:43:52.700733 11035 net.cpp:91] Creating Layer inception_4e/1x1
I0403 14:43:52.700752 11035 net.cpp:425] inception_4e/1x1 <- inception_4d/output_inception_4d/output_0_split_1
I0403 14:43:52.700773 11035 net.cpp:399] inception_4e/1x1 -> inception_4e/1x1
I0403 14:43:52.702677 11035 net.cpp:141] Setting up inception_4e/1x1
I0403 14:43:52.702704 11035 net.cpp:148] Top shape: 24 256 14 14 (1204224)
I0403 14:43:52.702720 11035 net.cpp:156] Memory required for data: 1213249056
I0403 14:43:52.702739 11035 layer_factory.hpp:77] Creating layer inception_4e/relu_1x1
I0403 14:43:52.702760 11035 net.cpp:91] Creating Layer inception_4e/relu_1x1
I0403 14:43:52.702777 11035 net.cpp:425] inception_4e/relu_1x1 <- inception_4e/1x1
I0403 14:43:52.702795 11035 net.cpp:386] inception_4e/relu_1x1 -> inception_4e/1x1 (in-place)
I0403 14:43:52.703106 11035 net.cpp:141] Setting up inception_4e/relu_1x1
I0403 14:43:52.703145 11035 net.cpp:148] Top shape: 24 256 14 14 (1204224)
I0403 14:43:52.703163 11035 net.cpp:156] Memory required for data: 1218065952
I0403 14:43:52.703179 11035 layer_factory.hpp:77] Creating layer inception_4e/3x3_reduce
I0403 14:43:52.703203 11035 net.cpp:91] Creating Layer inception_4e/3x3_reduce
I0403 14:43:52.703222 11035 net.cpp:425] inception_4e/3x3_reduce <- inception_4d/output_inception_4d/output_0_split_2
I0403 14:43:52.703245 11035 net.cpp:399] inception_4e/3x3_reduce -> inception_4e/3x3_reduce
I0403 14:43:52.705468 11035 net.cpp:141] Setting up inception_4e/3x3_reduce
I0403 14:43:52.705509 11035 net.cpp:148] Top shape: 24 160 14 14 (752640)
I0403 14:43:52.705526 11035 net.cpp:156] Memory required for data: 1221076512
I0403 14:43:52.705545 11035 layer_factory.hpp:77] Creating layer inception_4e/relu_3x3_reduce
I0403 14:43:52.705566 11035 net.cpp:91] Creating Layer inception_4e/relu_3x3_reduce
I0403 14:43:52.705584 11035 net.cpp:425] inception_4e/relu_3x3_reduce <- inception_4e/3x3_reduce
I0403 14:43:52.705601 11035 net.cpp:386] inception_4e/relu_3x3_reduce -> inception_4e/3x3_reduce (in-place)
I0403 14:43:52.705797 11035 net.cpp:141] Setting up inception_4e/relu_3x3_reduce
I0403 14:43:52.705827 11035 net.cpp:148] Top shape: 24 160 14 14 (752640)
I0403 14:43:52.705844 11035 net.cpp:156] Memory required for data: 1224087072
I0403 14:43:52.705859 11035 layer_factory.hpp:77] Creating layer inception_4e/3x3
I0403 14:43:52.705883 11035 net.cpp:91] Creating Layer inception_4e/3x3
I0403 14:43:52.705901 11035 net.cpp:425] inception_4e/3x3 <- inception_4e/3x3_reduce
I0403 14:43:52.705921 11035 net.cpp:399] inception_4e/3x3 -> inception_4e/3x3
I0403 14:43:52.711118 11035 net.cpp:141] Setting up inception_4e/3x3
I0403 14:43:52.711169 11035 net.cpp:148] Top shape: 24 320 14 14 (1505280)
I0403 14:43:52.711189 11035 net.cpp:156] Memory required for data: 1230108192
I0403 14:43:52.711208 11035 layer_factory.hpp:77] Creating layer inception_4e/relu_3x3
I0403 14:43:52.711226 11035 net.cpp:91] Creating Layer inception_4e/relu_3x3
I0403 14:43:52.711246 11035 net.cpp:425] inception_4e/relu_3x3 <- inception_4e/3x3
I0403 14:43:52.711263 11035 net.cpp:386] inception_4e/relu_3x3 -> inception_4e/3x3 (in-place)
I0403 14:43:52.711585 11035 net.cpp:141] Setting up inception_4e/relu_3x3
I0403 14:43:52.711611 11035 net.cpp:148] Top shape: 24 320 14 14 (1505280)
I0403 14:43:52.711627 11035 net.cpp:156] Memory required for data: 1236129312
I0403 14:43:52.711643 11035 layer_factory.hpp:77] Creating layer inception_4e/5x5_reduce
I0403 14:43:52.711668 11035 net.cpp:91] Creating Layer inception_4e/5x5_reduce
I0403 14:43:52.711688 11035 net.cpp:425] inception_4e/5x5_reduce <- inception_4d/output_inception_4d/output_0_split_3
I0403 14:43:52.711710 11035 net.cpp:399] inception_4e/5x5_reduce -> inception_4e/5x5_reduce
I0403 14:43:52.712833 11035 net.cpp:141] Setting up inception_4e/5x5_reduce
I0403 14:43:52.712863 11035 net.cpp:148] Top shape: 24 32 14 14 (150528)
I0403 14:43:52.712879 11035 net.cpp:156] Memory required for data: 1236731424
I0403 14:43:52.712898 11035 layer_factory.hpp:77] Creating layer inception_4e/relu_5x5_reduce
I0403 14:43:52.712919 11035 net.cpp:91] Creating Layer inception_4e/relu_5x5_reduce
I0403 14:43:52.712937 11035 net.cpp:425] inception_4e/relu_5x5_reduce <- inception_4e/5x5_reduce
I0403 14:43:52.712956 11035 net.cpp:386] inception_4e/relu_5x5_reduce -> inception_4e/5x5_reduce (in-place)
I0403 14:43:52.713275 11035 net.cpp:141] Setting up inception_4e/relu_5x5_reduce
I0403 14:43:52.713304 11035 net.cpp:148] Top shape: 24 32 14 14 (150528)
I0403 14:43:52.713320 11035 net.cpp:156] Memory required for data: 1237333536
I0403 14:43:52.713335 11035 layer_factory.hpp:77] Creating layer inception_4e/5x5
I0403 14:43:52.713378 11035 net.cpp:91] Creating Layer inception_4e/5x5
I0403 14:43:52.713399 11035 net.cpp:425] inception_4e/5x5 <- inception_4e/5x5_reduce
I0403 14:43:52.713418 11035 net.cpp:399] inception_4e/5x5 -> inception_4e/5x5
I0403 14:43:52.715364 11035 net.cpp:141] Setting up inception_4e/5x5
I0403 14:43:52.715394 11035 net.cpp:148] Top shape: 24 128 14 14 (602112)
I0403 14:43:52.715410 11035 net.cpp:156] Memory required for data: 1239741984
I0403 14:43:52.715430 11035 layer_factory.hpp:77] Creating layer inception_4e/relu_5x5
I0403 14:43:52.715453 11035 net.cpp:91] Creating Layer inception_4e/relu_5x5
I0403 14:43:52.715472 11035 net.cpp:425] inception_4e/relu_5x5 <- inception_4e/5x5
I0403 14:43:52.715490 11035 net.cpp:386] inception_4e/relu_5x5 -> inception_4e/5x5 (in-place)
I0403 14:43:52.715697 11035 net.cpp:141] Setting up inception_4e/relu_5x5
I0403 14:43:52.715723 11035 net.cpp:148] Top shape: 24 128 14 14 (602112)
I0403 14:43:52.715739 11035 net.cpp:156] Memory required for data: 1242150432
I0403 14:43:52.715754 11035 layer_factory.hpp:77] Creating layer inception_4e/pool
I0403 14:43:52.715775 11035 net.cpp:91] Creating Layer inception_4e/pool
I0403 14:43:52.715796 11035 net.cpp:425] inception_4e/pool <- inception_4d/output_inception_4d/output_0_split_4
I0403 14:43:52.715816 11035 net.cpp:399] inception_4e/pool -> inception_4e/pool
I0403 14:43:52.715889 11035 net.cpp:141] Setting up inception_4e/pool
I0403 14:43:52.715914 11035 net.cpp:148] Top shape: 24 528 14 14 (2483712)
I0403 14:43:52.715929 11035 net.cpp:156] Memory required for data: 1252085280
I0403 14:43:52.715945 11035 layer_factory.hpp:77] Creating layer inception_4e/pool_proj
I0403 14:43:52.715966 11035 net.cpp:91] Creating Layer inception_4e/pool_proj
I0403 14:43:52.715984 11035 net.cpp:425] inception_4e/pool_proj <- inception_4e/pool
I0403 14:43:52.716006 11035 net.cpp:399] inception_4e/pool_proj -> inception_4e/pool_proj
I0403 14:43:52.717586 11035 net.cpp:141] Setting up inception_4e/pool_proj
I0403 14:43:52.717628 11035 net.cpp:148] Top shape: 24 128 14 14 (602112)
I0403 14:43:52.717645 11035 net.cpp:156] Memory required for data: 1254493728
I0403 14:43:52.717666 11035 layer_factory.hpp:77] Creating layer inception_4e/relu_pool_proj
I0403 14:43:52.717686 11035 net.cpp:91] Creating Layer inception_4e/relu_pool_proj
I0403 14:43:52.717705 11035 net.cpp:425] inception_4e/relu_pool_proj <- inception_4e/pool_proj
I0403 14:43:52.717727 11035 net.cpp:386] inception_4e/relu_pool_proj -> inception_4e/pool_proj (in-place)
I0403 14:43:52.718044 11035 net.cpp:141] Setting up inception_4e/relu_pool_proj
I0403 14:43:52.718071 11035 net.cpp:148] Top shape: 24 128 14 14 (602112)
I0403 14:43:52.718087 11035 net.cpp:156] Memory required for data: 1256902176
I0403 14:43:52.718103 11035 layer_factory.hpp:77] Creating layer inception_4e/output
I0403 14:43:52.718122 11035 net.cpp:91] Creating Layer inception_4e/output
I0403 14:43:52.718143 11035 net.cpp:425] inception_4e/output <- inception_4e/1x1
I0403 14:43:52.718161 11035 net.cpp:425] inception_4e/output <- inception_4e/3x3
I0403 14:43:52.718178 11035 net.cpp:425] inception_4e/output <- inception_4e/5x5
I0403 14:43:52.718195 11035 net.cpp:425] inception_4e/output <- inception_4e/pool_proj
I0403 14:43:52.718215 11035 net.cpp:399] inception_4e/output -> inception_4e/output
I0403 14:43:52.718269 11035 net.cpp:141] Setting up inception_4e/output
I0403 14:43:52.718294 11035 net.cpp:148] Top shape: 24 832 14 14 (3913728)
I0403 14:43:52.718309 11035 net.cpp:156] Memory required for data: 1272557088
I0403 14:43:52.718324 11035 layer_factory.hpp:77] Creating layer pool4/3x3_s2
I0403 14:43:52.718345 11035 net.cpp:91] Creating Layer pool4/3x3_s2
I0403 14:43:52.718364 11035 net.cpp:425] pool4/3x3_s2 <- inception_4e/output
I0403 14:43:52.718386 11035 net.cpp:399] pool4/3x3_s2 -> pool4/3x3_s2
I0403 14:43:52.718456 11035 net.cpp:141] Setting up pool4/3x3_s2
I0403 14:43:52.718482 11035 net.cpp:148] Top shape: 24 832 7 7 (978432)
I0403 14:43:52.718497 11035 net.cpp:156] Memory required for data: 1276470816
I0403 14:43:52.718510 11035 layer_factory.hpp:77] Creating layer pool4/3x3_s2_pool4/3x3_s2_0_split
I0403 14:43:52.718530 11035 net.cpp:91] Creating Layer pool4/3x3_s2_pool4/3x3_s2_0_split
I0403 14:43:52.718547 11035 net.cpp:425] pool4/3x3_s2_pool4/3x3_s2_0_split <- pool4/3x3_s2
I0403 14:43:52.718566 11035 net.cpp:399] pool4/3x3_s2_pool4/3x3_s2_0_split -> pool4/3x3_s2_pool4/3x3_s2_0_split_0
I0403 14:43:52.718587 11035 net.cpp:399] pool4/3x3_s2_pool4/3x3_s2_0_split -> pool4/3x3_s2_pool4/3x3_s2_0_split_1
I0403 14:43:52.718610 11035 net.cpp:399] pool4/3x3_s2_pool4/3x3_s2_0_split -> pool4/3x3_s2_pool4/3x3_s2_0_split_2
I0403 14:43:52.718631 11035 net.cpp:399] pool4/3x3_s2_pool4/3x3_s2_0_split -> pool4/3x3_s2_pool4/3x3_s2_0_split_3
I0403 14:43:52.718726 11035 net.cpp:141] Setting up pool4/3x3_s2_pool4/3x3_s2_0_split
I0403 14:43:52.718751 11035 net.cpp:148] Top shape: 24 832 7 7 (978432)
I0403 14:43:52.718767 11035 net.cpp:148] Top shape: 24 832 7 7 (978432)
I0403 14:43:52.718785 11035 net.cpp:148] Top shape: 24 832 7 7 (978432)
I0403 14:43:52.718801 11035 net.cpp:148] Top shape: 24 832 7 7 (978432)
I0403 14:43:52.718816 11035 net.cpp:156] Memory required for data: 1292125728
I0403 14:43:52.718830 11035 layer_factory.hpp:77] Creating layer inception_5a/1x1
I0403 14:43:52.718853 11035 net.cpp:91] Creating Layer inception_5a/1x1
I0403 14:43:52.718873 11035 net.cpp:425] inception_5a/1x1 <- pool4/3x3_s2_pool4/3x3_s2_0_split_0
I0403 14:43:52.718895 11035 net.cpp:399] inception_5a/1x1 -> inception_5a/1x1
I0403 14:43:52.721884 11035 net.cpp:141] Setting up inception_5a/1x1
I0403 14:43:52.721915 11035 net.cpp:148] Top shape: 24 256 7 7 (301056)
I0403 14:43:52.721931 11035 net.cpp:156] Memory required for data: 1293329952
I0403 14:43:52.721951 11035 layer_factory.hpp:77] Creating layer inception_5a/relu_1x1
I0403 14:43:52.721971 11035 net.cpp:91] Creating Layer inception_5a/relu_1x1
I0403 14:43:52.721989 11035 net.cpp:425] inception_5a/relu_1x1 <- inception_5a/1x1
I0403 14:43:52.722007 11035 net.cpp:386] inception_5a/relu_1x1 -> inception_5a/1x1 (in-place)
I0403 14:43:52.722335 11035 net.cpp:141] Setting up inception_5a/relu_1x1
I0403 14:43:52.722378 11035 net.cpp:148] Top shape: 24 256 7 7 (301056)
I0403 14:43:52.722393 11035 net.cpp:156] Memory required for data: 1294534176
I0403 14:43:52.722410 11035 layer_factory.hpp:77] Creating layer inception_5a/3x3_reduce
I0403 14:43:52.722435 11035 net.cpp:91] Creating Layer inception_5a/3x3_reduce
I0403 14:43:52.722455 11035 net.cpp:425] inception_5a/3x3_reduce <- pool4/3x3_s2_pool4/3x3_s2_0_split_1
I0403 14:43:52.722478 11035 net.cpp:399] inception_5a/3x3_reduce -> inception_5a/3x3_reduce
I0403 14:43:52.725046 11035 net.cpp:141] Setting up inception_5a/3x3_reduce
I0403 14:43:52.725080 11035 net.cpp:148] Top shape: 24 160 7 7 (188160)
I0403 14:43:52.725096 11035 net.cpp:156] Memory required for data: 1295286816
I0403 14:43:52.725116 11035 layer_factory.hpp:77] Creating layer inception_5a/relu_3x3_reduce
I0403 14:43:52.725142 11035 net.cpp:91] Creating Layer inception_5a/relu_3x3_reduce
I0403 14:43:52.725158 11035 net.cpp:425] inception_5a/relu_3x3_reduce <- inception_5a/3x3_reduce
I0403 14:43:52.725181 11035 net.cpp:386] inception_5a/relu_3x3_reduce -> inception_5a/3x3_reduce (in-place)
I0403 14:43:52.725376 11035 net.cpp:141] Setting up inception_5a/relu_3x3_reduce
I0403 14:43:52.725404 11035 net.cpp:148] Top shape: 24 160 7 7 (188160)
I0403 14:43:52.725419 11035 net.cpp:156] Memory required for data: 1296039456
I0403 14:43:52.725435 11035 layer_factory.hpp:77] Creating layer inception_5a/3x3
I0403 14:43:52.725458 11035 net.cpp:91] Creating Layer inception_5a/3x3
I0403 14:43:52.725478 11035 net.cpp:425] inception_5a/3x3 <- inception_5a/3x3_reduce
I0403 14:43:52.725502 11035 net.cpp:399] inception_5a/3x3 -> inception_5a/3x3
I0403 14:43:52.730767 11035 net.cpp:141] Setting up inception_5a/3x3
I0403 14:43:52.730799 11035 net.cpp:148] Top shape: 24 320 7 7 (376320)
I0403 14:43:52.730816 11035 net.cpp:156] Memory required for data: 1297544736
I0403 14:43:52.730835 11035 layer_factory.hpp:77] Creating layer inception_5a/relu_3x3
I0403 14:43:52.730856 11035 net.cpp:91] Creating Layer inception_5a/relu_3x3
I0403 14:43:52.730875 11035 net.cpp:425] inception_5a/relu_3x3 <- inception_5a/3x3
I0403 14:43:52.730892 11035 net.cpp:386] inception_5a/relu_3x3 -> inception_5a/3x3 (in-place)
I0403 14:43:52.731204 11035 net.cpp:141] Setting up inception_5a/relu_3x3
I0403 14:43:52.731231 11035 net.cpp:148] Top shape: 24 320 7 7 (376320)
I0403 14:43:52.731248 11035 net.cpp:156] Memory required for data: 1299050016
I0403 14:43:52.731264 11035 layer_factory.hpp:77] Creating layer inception_5a/5x5_reduce
I0403 14:43:52.731287 11035 net.cpp:91] Creating Layer inception_5a/5x5_reduce
I0403 14:43:52.731307 11035 net.cpp:425] inception_5a/5x5_reduce <- pool4/3x3_s2_pool4/3x3_s2_0_split_2
I0403 14:43:52.731330 11035 net.cpp:399] inception_5a/5x5_reduce -> inception_5a/5x5_reduce
I0403 14:43:52.732545 11035 net.cpp:141] Setting up inception_5a/5x5_reduce
I0403 14:43:52.732576 11035 net.cpp:148] Top shape: 24 32 7 7 (37632)
I0403 14:43:52.732594 11035 net.cpp:156] Memory required for data: 1299200544
I0403 14:43:52.732614 11035 layer_factory.hpp:77] Creating layer inception_5a/relu_5x5_reduce
I0403 14:43:52.732635 11035 net.cpp:91] Creating Layer inception_5a/relu_5x5_reduce
I0403 14:43:52.732652 11035 net.cpp:425] inception_5a/relu_5x5_reduce <- inception_5a/5x5_reduce
I0403 14:43:52.732671 11035 net.cpp:386] inception_5a/relu_5x5_reduce -> inception_5a/5x5_reduce (in-place)
I0403 14:43:52.732981 11035 net.cpp:141] Setting up inception_5a/relu_5x5_reduce
I0403 14:43:52.733009 11035 net.cpp:148] Top shape: 24 32 7 7 (37632)
I0403 14:43:52.733026 11035 net.cpp:156] Memory required for data: 1299351072
I0403 14:43:52.733042 11035 layer_factory.hpp:77] Creating layer inception_5a/5x5
I0403 14:43:52.733064 11035 net.cpp:91] Creating Layer inception_5a/5x5
I0403 14:43:52.733083 11035 net.cpp:425] inception_5a/5x5 <- inception_5a/5x5_reduce
I0403 14:43:52.733105 11035 net.cpp:399] inception_5a/5x5 -> inception_5a/5x5
I0403 14:43:52.734937 11035 net.cpp:141] Setting up inception_5a/5x5
I0403 14:43:52.734980 11035 net.cpp:148] Top shape: 24 128 7 7 (150528)
I0403 14:43:52.734997 11035 net.cpp:156] Memory required for data: 1299953184
I0403 14:43:52.735016 11035 layer_factory.hpp:77] Creating layer inception_5a/relu_5x5
I0403 14:43:52.735038 11035 net.cpp:91] Creating Layer inception_5a/relu_5x5
I0403 14:43:52.735056 11035 net.cpp:425] inception_5a/relu_5x5 <- inception_5a/5x5
I0403 14:43:52.735075 11035 net.cpp:386] inception_5a/relu_5x5 -> inception_5a/5x5 (in-place)
I0403 14:43:52.735281 11035 net.cpp:141] Setting up inception_5a/relu_5x5
I0403 14:43:52.735308 11035 net.cpp:148] Top shape: 24 128 7 7 (150528)
I0403 14:43:52.735323 11035 net.cpp:156] Memory required for data: 1300555296
I0403 14:43:52.735339 11035 layer_factory.hpp:77] Creating layer inception_5a/pool
I0403 14:43:52.735360 11035 net.cpp:91] Creating Layer inception_5a/pool
I0403 14:43:52.735378 11035 net.cpp:425] inception_5a/pool <- pool4/3x3_s2_pool4/3x3_s2_0_split_3
I0403 14:43:52.735399 11035 net.cpp:399] inception_5a/pool -> inception_5a/pool
I0403 14:43:52.735473 11035 net.cpp:141] Setting up inception_5a/pool
I0403 14:43:52.735499 11035 net.cpp:148] Top shape: 24 832 7 7 (978432)
I0403 14:43:52.735514 11035 net.cpp:156] Memory required for data: 1304469024
I0403 14:43:52.735529 11035 layer_factory.hpp:77] Creating layer inception_5a/pool_proj
I0403 14:43:52.735553 11035 net.cpp:91] Creating Layer inception_5a/pool_proj
I0403 14:43:52.735571 11035 net.cpp:425] inception_5a/pool_proj <- inception_5a/pool
I0403 14:43:52.735592 11035 net.cpp:399] inception_5a/pool_proj -> inception_5a/pool_proj
I0403 14:43:52.738008 11035 net.cpp:141] Setting up inception_5a/pool_proj
I0403 14:43:52.738040 11035 net.cpp:148] Top shape: 24 128 7 7 (150528)
I0403 14:43:52.738057 11035 net.cpp:156] Memory required for data: 1305071136
I0403 14:43:52.738075 11035 layer_factory.hpp:77] Creating layer inception_5a/relu_pool_proj
I0403 14:43:52.738095 11035 net.cpp:91] Creating Layer inception_5a/relu_pool_proj
I0403 14:43:52.738112 11035 net.cpp:425] inception_5a/relu_pool_proj <- inception_5a/pool_proj
I0403 14:43:52.738139 11035 net.cpp:386] inception_5a/relu_pool_proj -> inception_5a/pool_proj (in-place)
I0403 14:43:52.738482 11035 net.cpp:141] Setting up inception_5a/relu_pool_proj
I0403 14:43:52.738510 11035 net.cpp:148] Top shape: 24 128 7 7 (150528)
I0403 14:43:52.738526 11035 net.cpp:156] Memory required for data: 1305673248
I0403 14:43:52.738543 11035 layer_factory.hpp:77] Creating layer inception_5a/output
I0403 14:43:52.738561 11035 net.cpp:91] Creating Layer inception_5a/output
I0403 14:43:52.738579 11035 net.cpp:425] inception_5a/output <- inception_5a/1x1
I0403 14:43:52.738597 11035 net.cpp:425] inception_5a/output <- inception_5a/3x3
I0403 14:43:52.738613 11035 net.cpp:425] inception_5a/output <- inception_5a/5x5
I0403 14:43:52.738631 11035 net.cpp:425] inception_5a/output <- inception_5a/pool_proj
I0403 14:43:52.738662 11035 net.cpp:399] inception_5a/output -> inception_5a/output
I0403 14:43:52.738715 11035 net.cpp:141] Setting up inception_5a/output
I0403 14:43:52.738745 11035 net.cpp:148] Top shape: 24 832 7 7 (978432)
I0403 14:43:52.738761 11035 net.cpp:156] Memory required for data: 1309586976
I0403 14:43:52.738777 11035 layer_factory.hpp:77] Creating layer inception_5a/output_inception_5a/output_0_split
I0403 14:43:52.738795 11035 net.cpp:91] Creating Layer inception_5a/output_inception_5a/output_0_split
I0403 14:43:52.738811 11035 net.cpp:425] inception_5a/output_inception_5a/output_0_split <- inception_5a/output
I0403 14:43:52.738829 11035 net.cpp:399] inception_5a/output_inception_5a/output_0_split -> inception_5a/output_inception_5a/output_0_split_0
I0403 14:43:52.738850 11035 net.cpp:399] inception_5a/output_inception_5a/output_0_split -> inception_5a/output_inception_5a/output_0_split_1
I0403 14:43:52.738874 11035 net.cpp:399] inception_5a/output_inception_5a/output_0_split -> inception_5a/output_inception_5a/output_0_split_2
I0403 14:43:52.738898 11035 net.cpp:399] inception_5a/output_inception_5a/output_0_split -> inception_5a/output_inception_5a/output_0_split_3
I0403 14:43:52.739017 11035 net.cpp:141] Setting up inception_5a/output_inception_5a/output_0_split
I0403 14:43:52.739042 11035 net.cpp:148] Top shape: 24 832 7 7 (978432)
I0403 14:43:52.739060 11035 net.cpp:148] Top shape: 24 832 7 7 (978432)
I0403 14:43:52.739076 11035 net.cpp:148] Top shape: 24 832 7 7 (978432)
I0403 14:43:52.739092 11035 net.cpp:148] Top shape: 24 832 7 7 (978432)
I0403 14:43:52.739107 11035 net.cpp:156] Memory required for data: 1325241888
I0403 14:43:52.739122 11035 layer_factory.hpp:77] Creating layer inception_5b/1x1
I0403 14:43:52.739151 11035 net.cpp:91] Creating Layer inception_5b/1x1
I0403 14:43:52.739171 11035 net.cpp:425] inception_5b/1x1 <- inception_5a/output_inception_5a/output_0_split_0
I0403 14:43:52.739192 11035 net.cpp:399] inception_5b/1x1 -> inception_5b/1x1
I0403 14:43:52.743093 11035 net.cpp:141] Setting up inception_5b/1x1
I0403 14:43:52.743136 11035 net.cpp:148] Top shape: 24 384 7 7 (451584)
I0403 14:43:52.743157 11035 net.cpp:156] Memory required for data: 1327048224
I0403 14:43:52.743177 11035 layer_factory.hpp:77] Creating layer inception_5b/relu_1x1
I0403 14:43:52.743197 11035 net.cpp:91] Creating Layer inception_5b/relu_1x1
I0403 14:43:52.743214 11035 net.cpp:425] inception_5b/relu_1x1 <- inception_5b/1x1
I0403 14:43:52.743235 11035 net.cpp:386] inception_5b/relu_1x1 -> inception_5b/1x1 (in-place)
I0403 14:43:52.743551 11035 net.cpp:141] Setting up inception_5b/relu_1x1
I0403 14:43:52.743582 11035 net.cpp:148] Top shape: 24 384 7 7 (451584)
I0403 14:43:52.743597 11035 net.cpp:156] Memory required for data: 1328854560
I0403 14:43:52.743613 11035 layer_factory.hpp:77] Creating layer inception_5b/3x3_reduce
I0403 14:43:52.743636 11035 net.cpp:91] Creating Layer inception_5b/3x3_reduce
I0403 14:43:52.743655 11035 net.cpp:425] inception_5b/3x3_reduce <- inception_5a/output_inception_5a/output_0_split_1
I0403 14:43:52.743676 11035 net.cpp:399] inception_5b/3x3_reduce -> inception_5b/3x3_reduce
I0403 14:43:52.746449 11035 net.cpp:141] Setting up inception_5b/3x3_reduce
I0403 14:43:52.746481 11035 net.cpp:148] Top shape: 24 192 7 7 (225792)
I0403 14:43:52.746498 11035 net.cpp:156] Memory required for data: 1329757728
I0403 14:43:52.746518 11035 layer_factory.hpp:77] Creating layer inception_5b/relu_3x3_reduce
I0403 14:43:52.746537 11035 net.cpp:91] Creating Layer inception_5b/relu_3x3_reduce
I0403 14:43:52.746556 11035 net.cpp:425] inception_5b/relu_3x3_reduce <- inception_5b/3x3_reduce
I0403 14:43:52.746577 11035 net.cpp:386] inception_5b/relu_3x3_reduce -> inception_5b/3x3_reduce (in-place)
I0403 14:43:52.746789 11035 net.cpp:141] Setting up inception_5b/relu_3x3_reduce
I0403 14:43:52.746816 11035 net.cpp:148] Top shape: 24 192 7 7 (225792)
I0403 14:43:52.746831 11035 net.cpp:156] Memory required for data: 1330660896
I0403 14:43:52.746846 11035 layer_factory.hpp:77] Creating layer inception_5b/3x3
I0403 14:43:52.746870 11035 net.cpp:91] Creating Layer inception_5b/3x3
I0403 14:43:52.746888 11035 net.cpp:425] inception_5b/3x3 <- inception_5b/3x3_reduce
I0403 14:43:52.746911 11035 net.cpp:399] inception_5b/3x3 -> inception_5b/3x3
I0403 14:43:52.753855 11035 net.cpp:141] Setting up inception_5b/3x3
I0403 14:43:52.753888 11035 net.cpp:148] Top shape: 24 384 7 7 (451584)
I0403 14:43:52.753904 11035 net.cpp:156] Memory required for data: 1332467232
I0403 14:43:52.753924 11035 layer_factory.hpp:77] Creating layer inception_5b/relu_3x3
I0403 14:43:52.753942 11035 net.cpp:91] Creating Layer inception_5b/relu_3x3
I0403 14:43:52.753959 11035 net.cpp:425] inception_5b/relu_3x3 <- inception_5b/3x3
I0403 14:43:52.753979 11035 net.cpp:386] inception_5b/relu_3x3 -> inception_5b/3x3 (in-place)
I0403 14:43:52.754300 11035 net.cpp:141] Setting up inception_5b/relu_3x3
I0403 14:43:52.754328 11035 net.cpp:148] Top shape: 24 384 7 7 (451584)
I0403 14:43:52.754344 11035 net.cpp:156] Memory required for data: 1334273568
I0403 14:43:52.754372 11035 layer_factory.hpp:77] Creating layer inception_5b/5x5_reduce
I0403 14:43:52.754417 11035 net.cpp:91] Creating Layer inception_5b/5x5_reduce
I0403 14:43:52.754439 11035 net.cpp:425] inception_5b/5x5_reduce <- inception_5a/output_inception_5a/output_0_split_2
I0403 14:43:52.754463 11035 net.cpp:399] inception_5b/5x5_reduce -> inception_5b/5x5_reduce
I0403 14:43:52.755815 11035 net.cpp:141] Setting up inception_5b/5x5_reduce
I0403 14:43:52.755844 11035 net.cpp:148] Top shape: 24 48 7 7 (56448)
I0403 14:43:52.755861 11035 net.cpp:156] Memory required for data: 1334499360
I0403 14:43:52.755879 11035 layer_factory.hpp:77] Creating layer inception_5b/relu_5x5_reduce
I0403 14:43:52.755898 11035 net.cpp:91] Creating Layer inception_5b/relu_5x5_reduce
I0403 14:43:52.755918 11035 net.cpp:425] inception_5b/relu_5x5_reduce <- inception_5b/5x5_reduce
I0403 14:43:52.755938 11035 net.cpp:386] inception_5b/relu_5x5_reduce -> inception_5b/5x5_reduce (in-place)
I0403 14:43:52.756336 11035 net.cpp:141] Setting up inception_5b/relu_5x5_reduce
I0403 14:43:52.756366 11035 net.cpp:148] Top shape: 24 48 7 7 (56448)
I0403 14:43:52.756382 11035 net.cpp:156] Memory required for data: 1334725152
I0403 14:43:52.756398 11035 layer_factory.hpp:77] Creating layer inception_5b/5x5
I0403 14:43:52.756419 11035 net.cpp:91] Creating Layer inception_5b/5x5
I0403 14:43:52.756438 11035 net.cpp:425] inception_5b/5x5 <- inception_5b/5x5_reduce
I0403 14:43:52.756458 11035 net.cpp:399] inception_5b/5x5 -> inception_5b/5x5
I0403 14:43:52.758626 11035 net.cpp:141] Setting up inception_5b/5x5
I0403 14:43:52.758668 11035 net.cpp:148] Top shape: 24 128 7 7 (150528)
I0403 14:43:52.758684 11035 net.cpp:156] Memory required for data: 1335327264
I0403 14:43:52.758703 11035 layer_factory.hpp:77] Creating layer inception_5b/relu_5x5
I0403 14:43:52.758724 11035 net.cpp:91] Creating Layer inception_5b/relu_5x5
I0403 14:43:52.758744 11035 net.cpp:425] inception_5b/relu_5x5 <- inception_5b/5x5
I0403 14:43:52.758762 11035 net.cpp:386] inception_5b/relu_5x5 -> inception_5b/5x5 (in-place)
I0403 14:43:52.758966 11035 net.cpp:141] Setting up inception_5b/relu_5x5
I0403 14:43:52.758992 11035 net.cpp:148] Top shape: 24 128 7 7 (150528)
I0403 14:43:52.759011 11035 net.cpp:156] Memory required for data: 1335929376
I0403 14:43:52.759027 11035 layer_factory.hpp:77] Creating layer inception_5b/pool
I0403 14:43:52.759045 11035 net.cpp:91] Creating Layer inception_5b/pool
I0403 14:43:52.759063 11035 net.cpp:425] inception_5b/pool <- inception_5a/output_inception_5a/output_0_split_3
I0403 14:43:52.759081 11035 net.cpp:399] inception_5b/pool -> inception_5b/pool
I0403 14:43:52.759163 11035 net.cpp:141] Setting up inception_5b/pool
I0403 14:43:52.759189 11035 net.cpp:148] Top shape: 24 832 7 7 (978432)
I0403 14:43:52.759204 11035 net.cpp:156] Memory required for data: 1339843104
I0403 14:43:52.759219 11035 layer_factory.hpp:77] Creating layer inception_5b/pool_proj
I0403 14:43:52.759243 11035 net.cpp:91] Creating Layer inception_5b/pool_proj
I0403 14:43:52.759260 11035 net.cpp:425] inception_5b/pool_proj <- inception_5b/pool
I0403 14:43:52.759282 11035 net.cpp:399] inception_5b/pool_proj -> inception_5b/pool_proj
I0403 14:43:52.761682 11035 net.cpp:141] Setting up inception_5b/pool_proj
I0403 14:43:52.761713 11035 net.cpp:148] Top shape: 24 128 7 7 (150528)
I0403 14:43:52.761730 11035 net.cpp:156] Memory required for data: 1340445216
I0403 14:43:52.761749 11035 layer_factory.hpp:77] Creating layer inception_5b/relu_pool_proj
I0403 14:43:52.761768 11035 net.cpp:91] Creating Layer inception_5b/relu_pool_proj
I0403 14:43:52.761790 11035 net.cpp:425] inception_5b/relu_pool_proj <- inception_5b/pool_proj
I0403 14:43:52.761809 11035 net.cpp:386] inception_5b/relu_pool_proj -> inception_5b/pool_proj (in-place)
I0403 14:43:52.762116 11035 net.cpp:141] Setting up inception_5b/relu_pool_proj
I0403 14:43:52.762147 11035 net.cpp:148] Top shape: 24 128 7 7 (150528)
I0403 14:43:52.762164 11035 net.cpp:156] Memory required for data: 1341047328
I0403 14:43:52.762179 11035 layer_factory.hpp:77] Creating layer inception_5b/output
I0403 14:43:52.762198 11035 net.cpp:91] Creating Layer inception_5b/output
I0403 14:43:52.762231 11035 net.cpp:425] inception_5b/output <- inception_5b/1x1
I0403 14:43:52.762250 11035 net.cpp:425] inception_5b/output <- inception_5b/3x3
I0403 14:43:52.762267 11035 net.cpp:425] inception_5b/output <- inception_5b/5x5
I0403 14:43:52.762284 11035 net.cpp:425] inception_5b/output <- inception_5b/pool_proj
I0403 14:43:52.762307 11035 net.cpp:399] inception_5b/output -> inception_5b/output
I0403 14:43:52.762375 11035 net.cpp:141] Setting up inception_5b/output
I0403 14:43:52.762404 11035 net.cpp:148] Top shape: 24 1024 7 7 (1204224)
I0403 14:43:52.762423 11035 net.cpp:156] Memory required for data: 1345864224
I0403 14:43:52.762439 11035 layer_factory.hpp:77] Creating layer pool5/7x7_s1
I0403 14:43:52.762457 11035 net.cpp:91] Creating Layer pool5/7x7_s1
I0403 14:43:52.762475 11035 net.cpp:425] pool5/7x7_s1 <- inception_5b/output
I0403 14:43:52.762498 11035 net.cpp:399] pool5/7x7_s1 -> pool5/7x7_s1
I0403 14:43:52.762742 11035 net.cpp:141] Setting up pool5/7x7_s1
I0403 14:43:52.762769 11035 net.cpp:148] Top shape: 24 1024 1 1 (24576)
I0403 14:43:52.762789 11035 net.cpp:156] Memory required for data: 1345962528
I0403 14:43:52.762804 11035 layer_factory.hpp:77] Creating layer pool5/drop_7x7_s1
I0403 14:43:52.762822 11035 net.cpp:91] Creating Layer pool5/drop_7x7_s1
I0403 14:43:52.762838 11035 net.cpp:425] pool5/drop_7x7_s1 <- pool5/7x7_s1
I0403 14:43:52.762858 11035 net.cpp:386] pool5/drop_7x7_s1 -> pool5/7x7_s1 (in-place)
I0403 14:43:52.762912 11035 net.cpp:141] Setting up pool5/drop_7x7_s1
I0403 14:43:52.762938 11035 net.cpp:148] Top shape: 24 1024 1 1 (24576)
I0403 14:43:52.762955 11035 net.cpp:156] Memory required for data: 1346060832
I0403 14:43:52.762970 11035 layer_factory.hpp:77] Creating layer loss3/classifier_plantvillage
I0403 14:43:52.762990 11035 net.cpp:91] Creating Layer loss3/classifier_plantvillage
I0403 14:43:52.763006 11035 net.cpp:425] loss3/classifier_plantvillage <- pool5/7x7_s1
I0403 14:43:52.763027 11035 net.cpp:399] loss3/classifier_plantvillage -> loss3/classifier_plantvillage
I0403 14:43:52.763483 11035 net.cpp:141] Setting up loss3/classifier_plantvillage
I0403 14:43:52.763511 11035 net.cpp:148] Top shape: 24 38 (912)
I0403 14:43:52.763528 11035 net.cpp:156] Memory required for data: 1346064480
I0403 14:43:52.763546 11035 layer_factory.hpp:77] Creating layer loss3/classifier_plantvillage_loss3/classifier_plantvillage_0_split
I0403 14:43:52.763566 11035 net.cpp:91] Creating Layer loss3/classifier_plantvillage_loss3/classifier_plantvillage_0_split
I0403 14:43:52.763582 11035 net.cpp:425] loss3/classifier_plantvillage_loss3/classifier_plantvillage_0_split <- loss3/classifier_plantvillage
I0403 14:43:52.763602 11035 net.cpp:399] loss3/classifier_plantvillage_loss3/classifier_plantvillage_0_split -> loss3/classifier_plantvillage_loss3/classifier_plantvillage_0_split_0
I0403 14:43:52.763622 11035 net.cpp:399] loss3/classifier_plantvillage_loss3/classifier_plantvillage_0_split -> loss3/classifier_plantvillage_loss3/classifier_plantvillage_0_split_1
I0403 14:43:52.763648 11035 net.cpp:399] loss3/classifier_plantvillage_loss3/classifier_plantvillage_0_split -> loss3/classifier_plantvillage_loss3/classifier_plantvillage_0_split_2
I0403 14:43:52.763670 11035 net.cpp:399] loss3/classifier_plantvillage_loss3/classifier_plantvillage_0_split -> loss3/classifier_plantvillage_loss3/classifier_plantvillage_0_split_3
I0403 14:43:52.763777 11035 net.cpp:141] Setting up loss3/classifier_plantvillage_loss3/classifier_plantvillage_0_split
I0403 14:43:52.763803 11035 net.cpp:148] Top shape: 24 38 (912)
I0403 14:43:52.763819 11035 net.cpp:148] Top shape: 24 38 (912)
I0403 14:43:52.763835 11035 net.cpp:148] Top shape: 24 38 (912)
I0403 14:43:52.763851 11035 net.cpp:148] Top shape: 24 38 (912)
I0403 14:43:52.763865 11035 net.cpp:156] Memory required for data: 1346079072
I0403 14:43:52.763880 11035 layer_factory.hpp:77] Creating layer loss1/loss
I0403 14:43:52.763906 11035 net.cpp:91] Creating Layer loss1/loss
I0403 14:43:52.763926 11035 net.cpp:425] loss1/loss <- loss1/classifier_plantvillage_loss1/classifier_plantvillage_0_split_0
I0403 14:43:52.763957 11035 net.cpp:425] loss1/loss <- label_data_1_split_0
…
