…
I0403 14:55:14.432121 11300 net.cpp:313] The NetState phase (1) differed from the phase (0) specified by a rule in layer data
I0403 14:55:14.433523 11300 net.cpp:49] Initializing net from parameters: 
state {
  phase: TEST
}
layer {
  name: "data"
  type: "Data"
  top: "data"
  top: "label"
  include {
    phase: TEST
  }
  transform_param {
    mirror: false
    crop_size: 224
    mean_file: "/home/mohanty/data/final_dataset/lmdb/grayscale-60-40/mean.binaryproto"
  }
  data_param {
    source: "/home/mohanty/data/final_dataset/lmdb/grayscale-60-40/test_db"
    batch_size: 24
    backend: LMDB
  }
}
layer {
  name: "conv1/7x7_s2"
  type: "Convolution"
  bottom: "data"
  top: "conv1/7x7_s2"
  param {
    lr_mult: 1
    decay_mult: 1
  }
  param {
    lr_mult: 2
    decay_mult: 0
  }
  convolution_param {
    num_output: 64
    pad: 3
    kernel_size: 7
    stride: 2
    weight_filler {
      type: "xavier"
      std: 0.1
    }
    bias_filler {
      type: "constant"
      value: 0.2
    }
  }
}
layer {
  name: "conv1/relu_7x7"
  type: "ReLU"
  bottom: "conv1/7x7_s2"
  top: "conv1/7x7_s2"
}
layer {
  name: "pool1/3x3_s2"
  type: "Pooling"
  bottom: "conv1/7x7_s2"
  top: "pool1/3x3_s2"
  pooling_param {
    pool: MAX
    kernel_size: 3
    stride: 2
  }
}
layer {
  name: "pool1/norm1"
  type: "LRN"
  bottom: "pool1/3x3_s2"
  top: "pool1/norm1"
  lrn_param {
    local_size: 5
    alpha: 0.0001
    beta: 0.75
  }
}
layer {
  name: "conv2/3x3_reduce"
  type: "Convolution"
  bottom: "pool1/norm1"
  top: "conv2/3x3_reduce"
  param {
    lr_mult: 1
    decay_mult: 1
  }
  param {
    lr_mult: 2
    decay_mult: 0
  }
  convolution_param {
    num_output: 64
    kernel_size: 1
    weight_filler {
      type: "xavier"
      std: 0.1
    }
    bias_filler {
      type: "constant"
      value: 0.2
    }
  }
}
layer {
  name: "conv2/relu_3x3_reduce"
  type: "ReLU"
  bottom: "conv2/3x3_reduce"
  top: "conv2/3x3_reduce"
}
layer {
  name: "conv2/3x3"
  type: "Convolution"
  bottom: "conv2/3x3_reduce"
  top: "conv2/3x3"
  param {
    lr_mult: 1
    decay_mult: 1
  }
  param {
    lr_mult: 2
    decay_mult: 0
  }
  convolution_param {
    num_output: 192
    pad: 1
    kernel_size: 3
    weight_filler {
      type: "xavier"
      std: 0.03
    }
    bias_filler {
      type: "constant"
      value: 0.2
    }
  }
}
layer {
  name: "conv2/relu_3x3"
  type: "ReLU"
  bottom: "conv2/3x3"
  top: "conv2/3x3"
}
layer {
  name: "conv2/norm2"
  type: "LRN"
  bottom: "conv2/3x3"
  top: "conv2/norm2"
  lrn_param {
    local_size: 5
    alpha: 0.0001
    beta: 0.75
  }
}
layer {
  name: "pool2/3x3_s2"
  type: "Pooling"
  bottom: "conv2/norm2"
  top: "pool2/3x3_s2"
  pooling_param {
    pool: MAX
    kernel_size: 3
    stride: 2
  }
}
layer {
  name: "inception_3a/1x1"
  type: "Convolution"
  bottom: "pool2/3x3_s2"
  top: "inception_3a/1x1"
  param {
    lr_mult: 1
    decay_mult: 1
  }
  param {
    lr_mult: 2
    decay_mult: 0
  }
  convolution_param {
    num_output: 64
    kernel_size: 1
    weight_filler {
      type: "xavier"
      std: 0.03
    }
    bias_filler {
      type: "constant"
      value: 0.2
    }
  }
}
layer {
  name: "inception_3a/relu_1x1"
  type: "ReLU"
  bottom: "inception_3a/1x1"
  top: "inception_3a/1x1"
}
layer {
  name: "inception_3a/3x3_reduce"
  type: "Convolution"
  bottom: "pool2/3x3_s2"
  top: "inception_3a/3x3_reduce"
  param {
    lr_mult: 1
    decay_mult: 1
  }
  param {
    lr_mult: 2
    decay_mult: 0
  }
  convolution_param {
    num_output: 96
    kernel_size: 1
    weight_filler {
      type: "xavier"
      std: 0.09
    }
    bias_filler {
      type: "constant"
      value: 0.2
    }
  }
}
layer {
  name: "inception_3a/relu_3x3_reduce"
  type: "ReLU"
  bottom: "inception_3a/3x3_reduce"
  top: "inception_3a/3x3_reduce"
}
layer {
  name: "inception_3a/3x3"
  type: "Convolution"
  bottom: "inception_3a/3x3_reduce"
  top: "inception_3a/3x3"
  param {
    lr_mult: 1
    decay_mult: 1
  }
  param {
    lr_mult: 2
    decay_mult: 0
  }
  convolution_param {
    num_output: 128
    pad: 1
    kernel_size: 3
    weight_filler {
      type: "xavier"
      std: 0.03
    }
    bias_filler {
      type: "constant"
      value: 0.2
    }
  }
}
layer {
  name: "inception_3a/relu_3x3"
  type: "ReLU"
  bottom: "inception_3a/3x3"
  top: "inception_3a/3x3"
}
layer {
  name: "inception_3a/5x5_reduce"
  type: "Convolution"
  bottom: "pool2/3x3_s2"
  top: "inception_3a/5x5_reduce"
  param {
    lr_mult: 1
    decay_mult: 1
  }
  param {
    lr_mult: 2
    decay_mult: 0
  }
  convolution_param {
    num_output: 16
    kernel_size: 1
    weight_filler {
      type: "xavier"
      std: 0.2
    }
    bias_filler {
      type: "constant"
      value: 0.2
    }
  }
}
layer {
  name: "inception_3a/relu_5x5_reduce"
  type: "ReLU"
  bottom: "inception_3a/5x5_reduce"
  top: "inception_3a/5x5_reduce"
}
layer {
  name: "inception_3a/5x5"
  type: "Convolution"
  bottom: "inception_3a/5x5_reduce"
  top: "inception_3a/5x5"
  param {
    lr_mult: 1
    decay_mult: 1
  }
  param {
    lr_mult: 2
    decay_mult: 0
  }
  convolution_param {
    num_output: 32
    pad: 2
    kernel_size: 5
    weight_filler {
      type: "xavier"
      std: 0.03
    }
    bias_filler {
      type: "constant"
      value: 0.2
    }
  }
}
layer {
  name: "inception_3a/relu_5x5"
  type: "ReLU"
  bottom: "inception_3a/5x5"
  top: "inception_3a/5x5"
}
layer {
  name: "inception_3a/pool"
  type: "Pooling"
  bottom: "pool2/3x3_s2"
  top: "inception_3a/pool"
  pooling_param {
    pool: MAX
    kernel_size: 3
    stride: 1
    pad: 1
  }
}
layer {
  name: "inception_3a/pool_proj"
  type: "Convolution"
  bottom: "inception_3a/pool"
  top: "inception_3a/pool_proj"
  param {
    lr_mult: 1
    decay_mult: 1
  }
  param {
    lr_mult: 2
    decay_mult: 0
  }
  convolution_param {
    num_output: 32
    kernel_size: 1
    weight_filler {
      type: "xavier"
      std: 0.1
    }
    bias_filler {
      type: "constant"
      value: 0.2
    }
  }
}
layer {
  name: "inception_3a/relu_pool_proj"
  type: "ReLU"
  bottom: "inception_3a/pool_proj"
  top: "inception_3a/pool_proj"
}
layer {
  name: "inception_3a/output"
  type: "Concat"
  bottom: "inception_3a/1x1"
  bottom: "inception_3a/3x3"
  bottom: "inception_3a/5x5"
  bottom: "inception_3a/pool_proj"
  top: "inception_3a/output"
}
layer {
  name: "inception_3b/1x1"
  type: "Convolution"
  bottom: "inception_3a/output"
  top: "inception_3b/1x1"
  param {
    lr_mult: 1
    decay_mult: 1
  }
  param {
    lr_mult: 2
    decay_mult: 0
  }
  convolution_param {
    num_output: 128
    kernel_size: 1
    weight_filler {
      type: "xavier"
      std: 0.03
    }
    bias_filler {
      type: "constant"
      value: 0.2
    }
  }
}
layer {
  name: "inception_3b/relu_1x1"
  type: "ReLU"
  bottom: "inception_3b/1x1"
  top: "inception_3b/1x1"
}
layer {
  name: "inception_3b/3x3_reduce"
  type: "Convolution"
  bottom: "inception_3a/output"
  top: "inception_3b/3x3_reduce"
  param {
    lr_mult: 1
    decay_mult: 1
  }
  param {
    lr_mult: 2
    decay_mult: 0
  }
  convolution_param {
    num_output: 128
    kernel_size: 1
    weight_filler {
      type: "xavier"
      std: 0.09
    }
    bias_filler {
      type: "constant"
      value: 0.2
    }
  }
}
layer {
  name: "inception_3b/relu_3x3_reduce"
  type: "ReLU"
  bottom: "inception_3b/3x3_reduce"
  top: "inception_3b/3x3_reduce"
}
layer {
  name: "inception_3b/3x3"
  type: "Convolution"
  bottom: "inception_3b/3x3_reduce"
  top: "inception_3b/3x3"
  param {
    lr_mult: 1
    decay_mult: 1
  }
  param {
    lr_mult: 2
    decay_mult: 0
  }
  convolution_param {
    num_output: 192
    pad: 1
    kernel_size: 3
    weight_filler {
      type: "xavier"
      std: 0.03
    }
    bias_filler {
      type: "constant"
      value: 0.2
    }
  }
}
layer {
  name: "inception_3b/relu_3x3"
  type: "ReLU"
  bottom: "inception_3b/3x3"
  top: "inception_3b/3x3"
}
layer {
  name: "inception_3b/5x5_reduce"
  type: "Convolution"
  bottom: "inception_3a/output"
  top: "inception_3b/5x5_reduce"
  param {
    lr_mult: 1
    decay_mult: 1
  }
  param {
    lr_mult: 2
    decay_mult: 0
  }
  convolution_param {
    num_output: 32
    kernel_size: 1
    weight_filler {
      type: "xavier"
      std: 0.2
    }
    bias_filler {
      type: "constant"
      value: 0.2
    }
  }
}
layer {
  name: "inception_3b/relu_5x5_reduce"
  type: "ReLU"
  bottom: "inception_3b/5x5_reduce"
  top: "inception_3b/5x5_reduce"
}
layer {
  name: "inception_3b/5x5"
  type: "Convolution"
  bottom: "inception_3b/5x5_reduce"
  top: "inception_3b/5x5"
  param {
    lr_mult: 1
    decay_mult: 1
  }
  param {
    lr_mult: 2
    decay_mult: 0
  }
  convolution_param {
    num_output: 96
    pad: 2
    kernel_size: 5
    weight_filler {
      type: "xavier"
      std: 0.03
    }
    bias_filler {
      type: "constant"
      value: 0.2
    }
  }
}
layer {
  name: "inception_3b/relu_5x5"
  type: "ReLU"
  bottom: "inception_3b/5x5"
  top: "inception_3b/5x5"
}
layer {
  name: "inception_3b/pool"
  type: "Pooling"
  bottom: "inception_3a/output"
  top: "inception_3b/pool"
  pooling_param {
    pool: MAX
    kernel_size: 3
    stride: 1
    pad: 1
  }
}
layer {
  name: "inception_3b/pool_proj"
  type: "Convolution"
  bottom: "inception_3b/pool"
  top: "inception_3b/pool_proj"
  param {
    lr_mult: 1
    decay_mult: 1
  }
  param {
    lr_mult: 2
    decay_mult: 0
  }
  convolution_param {
    num_output: 64
    kernel_size: 1
    weight_filler {
      type: "xavier"
      std: 0.1
    }
    bias_filler {
      type: "constant"
      value: 0.2
    }
  }
}
layer {
  name: "inception_3b/relu_pool_proj"
  type: "ReLU"
  bottom: "inception_3b/pool_proj"
  top: "inception_3b/pool_proj"
}
layer {
  name: "inception_3b/output"
  type: "Concat"
  bottom: "inception_3b/1x1"
  bottom: "inception_3b/3x3"
  bottom: "inception_3b/5x5"
  bottom: "inception_3b/pool_proj"
  top: "inception_3b/output"
}
layer {
  name: "pool3/3x3_s2"
  type: "Pooling"
  bottom: "inception_3b/output"
  top: "pool3/3x3_s2"
  pooling_param {
    pool: MAX
    kernel_size: 3
    stride: 2
  }
}
layer {
  name: "inception_4a/1x1"
  type: "Convolution"
  bottom: "pool3/3x3_s2"
  top: "inception_4a/1x1"
  param {
    lr_mult: 1
    decay_mult: 1
  }
  param {
    lr_mult: 2
    decay_mult: 0
  }
  convolution_param {
    num_output: 192
    kernel_size: 1
    weight_filler {
      type: "xavier"
      std: 0.03
    }
    bias_filler {
      type: "constant"
      value: 0.2
    }
  }
}
layer {
  name: "inception_4a/relu_1x1"
  type: "ReLU"
  bottom: "inception_4a/1x1"
  top: "inception_4a/1x1"
}
layer {
  name: "inception_4a/3x3_reduce"
  type: "Convolution"
  bottom: "pool3/3x3_s2"
  top: "inception_4a/3x3_reduce"
  param {
    lr_mult: 1
    decay_mult: 1
  }
  param {
    lr_mult: 2
    decay_mult: 0
  }
  convolution_param {
    num_output: 96
    kernel_size: 1
    weight_filler {
      type: "xavier"
      std: 0.09
    }
    bias_filler {
      type: "constant"
      value: 0.2
    }
  }
}
layer {
  name: "inception_4a/relu_3x3_reduce"
  type: "ReLU"
  bottom: "inception_4a/3x3_reduce"
  top: "inception_4a/3x3_reduce"
}
layer {
  name: "inception_4a/3x3"
  type: "Convolution"
  bottom: "inception_4a/3x3_reduce"
  top: "inception_4a/3x3"
  param {
    lr_mult: 1
    decay_mult: 1
  }
  param {
    lr_mult: 2
    decay_mult: 0
  }
  convolution_param {
    num_output: 208
    pad: 1
    kernel_size: 3
    weight_filler {
      type: "xavier"
      std: 0.03
    }
    bias_filler {
      type: "constant"
      value: 0.2
    }
  }
}
layer {
  name: "inception_4a/relu_3x3"
  type: "ReLU"
  bottom: "inception_4a/3x3"
  top: "inception_4a/3x3"
}
layer {
  name: "inception_4a/5x5_reduce"
  type: "Convolution"
  bottom: "pool3/3x3_s2"
  top: "inception_4a/5x5_reduce"
  param {
    lr_mult: 1
    decay_mult: 1
  }
  param {
    lr_mult: 2
    decay_mult: 0
  }
  convolution_param {
    num_output: 16
    kernel_size: 1
    weight_filler {
      type: "xavier"
      std: 0.2
    }
    bias_filler {
      type: "constant"
      value: 0.2
    }
  }
}
layer {
  name: "inception_4a/relu_5x5_reduce"
  type: "ReLU"
  bottom: "inception_4a/5x5_reduce"
  top: "inception_4a/5x5_reduce"
}
layer {
  name: "inception_4a/5x5"
  type: "Convolution"
  bottom: "inception_4a/5x5_reduce"
  top: "inception_4a/5x5"
  param {
    lr_mult: 1
    decay_mult: 1
  }
  param {
    lr_mult: 2
    decay_mult: 0
  }
  convolution_param {
    num_output: 48
    pad: 2
    kernel_size: 5
    weight_filler {
      type: "xavier"
      std: 0.03
    }
    bias_filler {
      type: "constant"
      value: 0.2
    }
  }
}
layer {
  name: "inception_4a/relu_5x5"
  type: "ReLU"
  bottom: "inception_4a/5x5"
  top: "inception_4a/5x5"
}
layer {
  name: "inception_4a/pool"
  type: "Pooling"
  bottom: "pool3/3x3_s2"
  top: "inception_4a/pool"
  pooling_param {
    pool: MAX
    kernel_size: 3
    stride: 1
    pad: 1
  }
}
layer {
  name: "inception_4a/pool_proj"
  type: "Convolution"
  bottom: "inception_4a/pool"
  top: "inception_4a/pool_proj"
  param {
    lr_mult: 1
    decay_mult: 1
  }
  param {
    lr_mult: 2
    decay_mult: 0
  }
  convolution_param {
    num_output: 64
    kernel_size: 1
    weight_filler {
      type: "xavier"
      std: 0.1
    }
    bias_filler {
      type: "constant"
      value: 0.2
    }
  }
}
layer {
  name: "inception_4a/relu_pool_proj"
  type: "ReLU"
  bottom: "inception_4a/pool_proj"
  top: "inception_4a/pool_proj"
}
layer {
  name: "inception_4a/output"
  type: "Concat"
  bottom: "inception_4a/1x1"
  bottom: "inception_4a/3x3"
  bottom: "inception_4a/5x5"
  bottom: "inception_4a/pool_proj"
  top: "inception_4a/output"
}
layer {
  name: "loss1/ave_pool"
  type: "Pooling"
  bottom: "inception_4a/output"
  top: "loss1/ave_pool"
  pooling_param {
    pool: AVE
    kernel_size: 5
    stride: 3
  }
}
layer {
  name: "loss1/conv"
  type: "Convolution"
  bottom: "loss1/ave_pool"
  top: "loss1/conv"
  param {
    lr_mult: 1
    decay_mult: 1
  }
  param {
    lr_mult: 2
    decay_mult: 0
  }
  convolution_param {
    num_output: 128
    kernel_size: 1
    weight_filler {
      type: "xavier"
      std: 0.08
    }
    bias_filler {
      type: "constant"
      value: 0.2
    }
  }
}
layer {
  name: "loss1/relu_conv"
  type: "ReLU"
  bottom: "loss1/conv"
  top: "loss1/conv"
}
layer {
  name: "loss1/fc"
  type: "InnerProduct"
  bottom: "loss1/conv"
  top: "loss1/fc"
  param {
    lr_mult: 1
    decay_mult: 1
  }
  param {
    lr_mult: 2
    decay_mult: 0
  }
  inner_product_param {
    num_output: 1024
    weight_filler {
      type: "xavier"
      std: 0.02
    }
    bias_filler {
      type: "constant"
      value: 0.2
    }
  }
}
layer {
  name: "loss1/relu_fc"
  type: "ReLU"
  bottom: "loss1/fc"
  top: "loss1/fc"
}
layer {
  name: "loss1/drop_fc"
  type: "Dropout"
  bottom: "loss1/fc"
  top: "loss1/fc"
  dropout_param {
    dropout_ratio: 0.7
  }
}
layer {
  name: "loss1/classifier_plantvillage"
  type: "InnerProduct"
  bottom: "loss1/fc"
  top: "loss1/classifier_plantvillage"
  param {
    lr_mult: 1
    decay_mult: 1
  }
  param {
    lr_mult: 2
    decay_mult: 0
  }
  inner_product_param {
    num_output: 38
    weight_filler {
      type: "xavier"
      std: 0.0009765625
    }
    bias_filler {
      type: "constant"
      value: 0
    }
  }
}
layer {
  name: "inception_4b/1x1"
  type: "Convolution"
  bottom: "inception_4a/output"
  top: "inception_4b/1x1"
  param {
    lr_mult: 1
    decay_mult: 1
  }
  param {
    lr_mult: 2
    decay_mult: 0
  }
  convolution_param {
    num_output: 160
    kernel_size: 1
    weight_filler {
      type: "xavier"
      std: 0.03
    }
    bias_filler {
      type: "constant"
      value: 0.2
    }
  }
}
layer {
  name: "inception_4b/relu_1x1"
  type: "ReLU"
  bottom: "inception_4b/1x1"
  top: "inception_4b/1x1"
}
layer {
  name: "inception_4b/3x3_reduce"
  type: "Convolution"
  bottom: "inception_4a/output"
  top: "inception_4b/3x3_reduce"
  param {
    lr_mult: 1
    decay_mult: 1
  }
  param {
    lr_mult: 2
    decay_mult: 0
  }
  convolution_param {
    num_output: 112
    kernel_size: 1
    weight_filler {
      type: "xavier"
      std: 0.09
    }
    bias_filler {
      type: "constant"
      value: 0.2
    }
  }
}
layer {
  name: "inception_4b/relu_3x3_reduce"
  type: "ReLU"
  bottom: "inception_4b/3x3_reduce"
  top: "inception_4b/3x3_reduce"
}
layer {
  name: "inception_4b/3x3"
  type: "Convolution"
  bottom: "inception_4b/3x3_reduce"
  top: "inception_4b/3x3"
  param {
    lr_mult: 1
    decay_mult: 1
  }
  param {
    lr_mult: 2
    decay_mult: 0
  }
  convolution_param {
    num_output: 224
    pad: 1
    kernel_size: 3
    weight_filler {
      type: "xavier"
      std: 0.03
    }
    bias_filler {
      type: "constant"
      value: 0.2
    }
  }
}
layer {
  name: "inception_4b/relu_3x3"
  type: "ReLU"
  bottom: "inception_4b/3x3"
  top: "inception_4b/3x3"
}
layer {
  name: "inception_4b/5x5_reduce"
  type: "Convolution"
  bottom: "inception_4a/output"
  top: "inception_4b/5x5_reduce"
  param {
    lr_mult: 1
    decay_mult: 1
  }
  param {
    lr_mult: 2
    decay_mult: 0
  }
  convolution_param {
    num_output: 24
    kernel_size: 1
    weight_filler {
      type: "xavier"
      std: 0.2
    }
    bias_filler {
      type: "constant"
      value: 0.2
    }
  }
}
layer {
  name: "inception_4b/relu_5x5_reduce"
  type: "ReLU"
  bottom: "inception_4b/5x5_reduce"
  top: "inception_4b/5x5_reduce"
}
layer {
  name: "inception_4b/5x5"
  type: "Convolution"
  bottom: "inception_4b/5x5_reduce"
  top: "inception_4b/5x5"
  param {
    lr_mult: 1
    decay_mult: 1
  }
  param {
    lr_mult: 2
    decay_mult: 0
  }
  convolution_param {
    num_output: 64
    pad: 2
    kernel_size: 5
    weight_filler {
      type: "xavier"
      std: 0.03
    }
    bias_filler {
      type: "constant"
      value: 0.2
    }
  }
}
layer {
  name: "inception_4b/relu_5x5"
  type: "ReLU"
  bottom: "inception_4b/5x5"
  top: "inception_4b/5x5"
}
layer {
  name: "inception_4b/pool"
  type: "Pooling"
  bottom: "inception_4a/output"
  top: "inception_4b/pool"
  pooling_param {
    pool: MAX
    kernel_size: 3
    stride: 1
    pad: 1
  }
}
layer {
  name: "inception_4b/pool_proj"
  type: "Convolution"
  bottom: "inception_4b/pool"
  top: "inception_4b/pool_proj"
  param {
    lr_mult: 1
    decay_mult: 1
  }
  param {
    lr_mult: 2
    decay_mult: 0
  }
  convolution_param {
    num_output: 64
    kernel_size: 1
    weight_filler {
      type: "xavier"
      std: 0.1
    }
    bias_filler {
      type: "constant"
      value: 0.2
    }
  }
}
layer {
  name: "inception_4b/relu_pool_proj"
  type: "ReLU"
  bottom: "inception_4b/pool_proj"
  top: "inception_4b/pool_proj"
}
layer {
  name: "inception_4b/output"
  type: "Concat"
  bottom: "inception_4b/1x1"
  bottom: "inception_4b/3x3"
  bottom: "inception_4b/5x5"
  bottom: "inception_4b/pool_proj"
  top: "inception_4b/output"
}
layer {
  name: "inception_4c/1x1"
  type: "Convolution"
  bottom: "inception_4b/output"
  top: "inception_4c/1x1"
  param {
    lr_mult: 1
    decay_mult: 1
  }
  param {
    lr_mult: 2
    decay_mult: 0
  }
  convolution_param {
    num_output: 128
    kernel_size: 1
    weight_filler {
      type: "xavier"
      std: 0.03
    }
    bias_filler {
      type: "constant"
      value: 0.2
    }
  }
}
layer {
  name: "inception_4c/relu_1x1"
  type: "ReLU"
  bottom: "inception_4c/1x1"
  top: "inception_4c/1x1"
}
layer {
  name: "inception_4c/3x3_reduce"
  type: "Convolution"
  bottom: "inception_4b/output"
  top: "inception_4c/3x3_reduce"
  param {
    lr_mult: 1
    decay_mult: 1
  }
  param {
    lr_mult: 2
    decay_mult: 0
  }
  convolution_param {
    num_output: 128
    kernel_size: 1
    weight_filler {
      type: "xavier"
      std: 0.09
    }
    bias_filler {
      type: "constant"
      value: 0.2
    }
  }
}
layer {
  name: "inception_4c/relu_3x3_reduce"
  type: "ReLU"
  bottom: "inception_4c/3x3_reduce"
  top: "inception_4c/3x3_reduce"
}
layer {
  name: "inception_4c/3x3"
  type: "Convolution"
  bottom: "inception_4c/3x3_reduce"
  top: "inception_4c/3x3"
  param {
    lr_mult: 1
    decay_mult: 1
  }
  param {
    lr_mult: 2
    decay_mult: 0
  }
  convolution_param {
    num_output: 256
    pad: 1
    kernel_size: 3
    weight_filler {
      type: "xavier"
      std: 0.03
    }
    bias_filler {
      type: "constant"
      value: 0.2
    }
  }
}
layer {
  name: "inception_4c/relu_3x3"
  type: "ReLU"
  bottom: "inception_4c/3x3"
  top: "inception_4c/3x3"
}
layer {
  name: "inception_4c/5x5_reduce"
  type: "Convolution"
  bottom: "inception_4b/output"
  top: "inception_4c/5x5_reduce"
  param {
    lr_mult: 1
    decay_mult: 1
  }
  param {
    lr_mult: 2
    decay_mult: 0
  }
  convolution_param {
    num_output: 24
    kernel_size: 1
    weight_filler {
      type: "xavier"
      std: 0.2
    }
    bias_filler {
      type: "constant"
      value: 0.2
    }
  }
}
layer {
  name: "inception_4c/relu_5x5_reduce"
  type: "ReLU"
  bottom: "inception_4c/5x5_reduce"
  top: "inception_4c/5x5_reduce"
}
layer {
  name: "inception_4c/5x5"
  type: "Convolution"
  bottom: "inception_4c/5x5_reduce"
  top: "inception_4c/5x5"
  param {
    lr_mult: 1
    decay_mult: 1
  }
  param {
    lr_mult: 2
    decay_mult: 0
  }
  convolution_param {
    num_output: 64
    pad: 2
    kernel_size: 5
    weight_filler {
      type: "xavier"
      std: 0.03
    }
    bias_filler {
      type: "constant"
      value: 0.2
    }
  }
}
layer {
  name: "inception_4c/relu_5x5"
  type: "ReLU"
  bottom: "inception_4c/5x5"
  top: "inception_4c/5x5"
}
layer {
  name: "inception_4c/pool"
  type: "Pooling"
  bottom: "inception_4b/output"
  top: "inception_4c/pool"
  pooling_param {
    pool: MAX
    kernel_size: 3
    stride: 1
    pad: 1
  }
}
layer {
  name: "inception_4c/pool_proj"
  type: "Convolution"
  bottom: "inception_4c/pool"
  top: "inception_4c/pool_proj"
  param {
    lr_mult: 1
    decay_mult: 1
  }
  param {
    lr_mult: 2
    decay_mult: 0
  }
  convolution_param {
    num_output: 64
    kernel_size: 1
    weight_filler {
      type: "xavier"
      std: 0.1
    }
    bias_filler {
      type: "constant"
      value: 0.2
    }
  }
}
layer {
  name: "inception_4c/relu_pool_proj"
  type: "ReLU"
  bottom: "inception_4c/pool_proj"
  top: "inception_4c/pool_proj"
}
layer {
  name: "inception_4c/output"
  type: "Concat"
  bottom: "inception_4c/1x1"
  bottom: "inception_4c/3x3"
  bottom: "inception_4c/5x5"
  bottom: "inception_4c/pool_proj"
  top: "inception_4c/output"
}
layer {
  name: "inception_4d/1x1"
  type: "Convolution"
  bottom: "inception_4c/output"
  top: "inception_4d/1x1"
  param {
    lr_mult: 1
    decay_mult: 1
  }
  param {
    lr_mult: 2
    decay_mult: 0
  }
  convolution_param {
    num_output: 112
    kernel_size: 1
    weight_filler {
      type: "xavier"
      std: 0.03
    }
    bias_filler {
      type: "constant"
      value: 0.2
    }
  }
}
layer {
  name: "inception_4d/relu_1x1"
  type: "ReLU"
  bottom: "inception_4d/1x1"
  top: "inception_4d/1x1"
}
layer {
  name: "inception_4d/3x3_reduce"
  type: "Convolution"
  bottom: "inception_4c/output"
  top: "inception_4d/3x3_reduce"
  param {
    lr_mult: 1
    decay_mult: 1
  }
  param {
    lr_mult: 2
    decay_mult: 0
  }
  convolution_param {
    num_output: 144
    kernel_size: 1
    weight_filler {
      type: "xavier"
      std: 0.09
    }
    bias_filler {
      type: "constant"
      value: 0.2
    }
  }
}
layer {
  name: "inception_4d/relu_3x3_reduce"
  type: "ReLU"
  bottom: "inception_4d/3x3_reduce"
  top: "inception_4d/3x3_reduce"
}
layer {
  name: "inception_4d/3x3"
  type: "Convolution"
  bottom: "inception_4d/3x3_reduce"
  top: "inception_4d/3x3"
  param {
    lr_mult: 1
    decay_mult: 1
  }
  param {
    lr_mult: 2
    decay_mult: 0
  }
  convolution_param {
    num_output: 288
    pad: 1
    kernel_size: 3
    weight_filler {
      type: "xavier"
      std: 0.03
    }
    bias_filler {
      type: "constant"
      value: 0.2
    }
  }
}
layer {
  name: "inception_4d/relu_3x3"
  type: "ReLU"
  bottom: "inception_4d/3x3"
  top: "inception_4d/3x3"
}
layer {
  name: "inception_4d/5x5_reduce"
  type: "Convolution"
  bottom: "inception_4c/output"
  top: "inception_4d/5x5_reduce"
  param {
    lr_mult: 1
    decay_mult: 1
  }
  param {
    lr_mult: 2
    decay_mult: 0
  }
  convolution_param {
    num_output: 32
    kernel_size: 1
    weight_filler {
      type: "xavier"
      std: 0.2
    }
    bias_filler {
      type: "constant"
      value: 0.2
    }
  }
}
layer {
  name: "inception_4d/relu_5x5_reduce"
  type: "ReLU"
  bottom: "inception_4d/5x5_reduce"
  top: "inception_4d/5x5_reduce"
}
layer {
  name: "inception_4d/5x5"
  type: "Convolution"
  bottom: "inception_4d/5x5_reduce"
  top: "inception_4d/5x5"
  param {
    lr_mult: 1
    decay_mult: 1
  }
  param {
    lr_mult: 2
    decay_mult: 0
  }
  convolution_param {
    num_output: 64
    pad: 2
    kernel_size: 5
    weight_filler {
      type: "xavier"
      std: 0.03
    }
    bias_filler {
      type: "constant"
      value: 0.2
    }
  }
}
layer {
  name: "inception_4d/relu_5x5"
  type: "ReLU"
  bottom: "inception_4d/5x5"
  top: "inception_4d/5x5"
}
layer {
  name: "inception_4d/pool"
  type: "Pooling"
  bottom: "inception_4c/output"
  top: "inception_4d/pool"
  pooling_param {
    pool: MAX
    kernel_size: 3
    stride: 1
    pad: 1
  }
}
layer {
  name: "inception_4d/pool_proj"
  type: "Convolution"
  bottom: "inception_4d/pool"
  top: "inception_4d/pool_proj"
  param {
    lr_mult: 1
    decay_mult: 1
  }
  param {
    lr_mult: 2
    decay_mult: 0
  }
  convolution_param {
    num_output: 64
    kernel_size: 1
    weight_filler {
      type: "xavier"
      std: 0.1
    }
    bias_filler {
      type: "constant"
      value: 0.2
    }
  }
}
layer {
  name: "inception_4d/relu_pool_proj"
  type: "ReLU"
  bottom: "inception_4d/pool_proj"
  top: "inception_4d/pool_proj"
}
layer {
  name: "inception_4d/output"
  type: "Concat"
  bottom: "inception_4d/1x1"
  bottom: "inception_4d/3x3"
  bottom: "inception_4d/5x5"
  bottom: "inception_4d/pool_proj"
  top: "inception_4d/output"
}
layer {
  name: "loss2/ave_pool"
  type: "Pooling"
  bottom: "inception_4d/output"
  top: "loss2/ave_pool"
  pooling_param {
    pool: AVE
    kernel_size: 5
    stride: 3
  }
}
layer {
  name: "loss2/conv"
  type: "Convolution"
  bottom: "loss2/ave_pool"
  top: "loss2/conv"
  param {
    lr_mult: 1
    decay_mult: 1
  }
  param {
    lr_mult: 2
    decay_mult: 0
  }
  convolution_param {
    num_output: 128
    kernel_size: 1
    weight_filler {
      type: "xavier"
      std: 0.08
    }
    bias_filler {
      type: "constant"
      value: 0.2
    }
  }
}
layer {
  name: "loss2/relu_conv"
  type: "ReLU"
  bottom: "loss2/conv"
  top: "loss2/conv"
}
layer {
  name: "loss2/fc"
  type: "InnerProduct"
  bottom: "loss2/conv"
  top: "loss2/fc"
  param {
    lr_mult: 1
    decay_mult: 1
  }
  param {
    lr_mult: 2
    decay_mult: 0
  }
  inner_product_param {
    num_output: 1024
    weight_filler {
      type: "xavier"
      std: 0.02
    }
    bias_filler {
      type: "constant"
      value: 0.2
    }
  }
}
layer {
  name: "loss2/relu_fc"
  type: "ReLU"
  bottom: "loss2/fc"
  top: "loss2/fc"
}
layer {
  name: "loss2/drop_fc"
  type: "Dropout"
  bottom: "loss2/fc"
  top: "loss2/fc"
  dropout_param {
    dropout_ratio: 0.7
  }
}
layer {
  name: "loss2/classifier_plantvillage"
  type: "InnerProduct"
  bottom: "loss2/fc"
  top: "loss2/classifier_plantvillage"
  param {
    lr_mult: 1
    decay_mult: 1
  }
  param {
    lr_mult: 2
    decay_mult: 0
  }
  inner_product_param {
    num_output: 38
    weight_filler {
      type: "xavier"
      std: 0.0009765625
    }
    bias_filler {
      type: "constant"
      value: 0
    }
  }
}
layer {
  name: "inception_4e/1x1"
  type: "Convolution"
  bottom: "inception_4d/output"
  top: "inception_4e/1x1"
  param {
    lr_mult: 1
    decay_mult: 1
  }
  param {
    lr_mult: 2
    decay_mult: 0
  }
  convolution_param {
    num_output: 256
    kernel_size: 1
    weight_filler {
      type: "xavier"
      std: 0.03
    }
    bias_filler {
      type: "constant"
      value: 0.2
    }
  }
}
layer {
  name: "inception_4e/relu_1x1"
  type: "ReLU"
  bottom: "inception_4e/1x1"
  top: "inception_4e/1x1"
}
layer {
  name: "inception_4e/3x3_reduce"
  type: "Convolution"
  bottom: "inception_4d/output"
  top: "inception_4e/3x3_reduce"
  param {
    lr_mult: 1
    decay_mult: 1
  }
  param {
    lr_mult: 2
    decay_mult: 0
  }
  convolution_param {
    num_output: 160
    kernel_size: 1
    weight_filler {
      type: "xavier"
      std: 0.09
    }
    bias_filler {
      type: "constant"
      value: 0.2
    }
  }
}
layer {
  name: "inception_4e/relu_3x3_reduce"
  type: "ReLU"
  bottom: "inception_4e/3x3_reduce"
  top: "inception_4e/3x3_reduce"
}
layer {
  name: "inception_4e/3x3"
  type: "Convolution"
  bottom: "inception_4e/3x3_reduce"
  top: "inception_4e/3x3"
  param {
    lr_mult: 1
    decay_mult: 1
  }
  param {
    lr_mult: 2
    decay_mult: 0
  }
  convolution_param {
    num_output: 320
    pad: 1
    kernel_size: 3
    weight_filler {
      type: "xavier"
      std: 0.03
    }
    bias_filler {
      type: "constant"
      value: 0.2
    }
  }
}
layer {
  name: "inception_4e/relu_3x3"
  type: "ReLU"
  bottom: "inception_4e/3x3"
  top: "inception_4e/3x3"
}
layer {
  name: "inception_4e/5x5_reduce"
  type: "Convolution"
  bottom: "inception_4d/output"
  top: "inception_4e/5x5_reduce"
  param {
    lr_mult: 1
    decay_mult: 1
  }
  param {
    lr_mult: 2
    decay_mult: 0
  }
  convolution_param {
    num_output: 32
    kernel_size: 1
    weight_filler {
      type: "xavier"
      std: 0.2
    }
    bias_filler {
      type: "constant"
      value: 0.2
    }
  }
}
layer {
  name: "inception_4e/relu_5x5_reduce"
  type: "ReLU"
  bottom: "inception_4e/5x5_reduce"
  top: "inception_4e/5x5_reduce"
}
layer {
  name: "inception_4e/5x5"
  type: "Convolution"
  bottom: "inception_4e/5x5_reduce"
  top: "inception_4e/
I0403 14:55:14.434952 11300 layer_factory.hpp:77] Creating layer data
I0403 14:55:14.435688 11300 net.cpp:91] Creating Layer data
I0403 14:55:14.435727 11300 net.cpp:399] data -> data
I0403 14:55:14.435786 11300 net.cpp:399] data -> label
I0403 14:55:14.435832 11300 data_transformer.cpp:25] Loading mean file from: /home/mohanty/data/final_dataset/lmdb/grayscale-60-40/mean.binaryproto
I0403 14:55:14.438997 11305 db_lmdb.cpp:38] Opened lmdb /home/mohanty/data/final_dataset/lmdb/grayscale-60-40/test_db
I0403 14:55:14.451520 11300 data_layer.cpp:41] output data size: 24,3,224,224
I0403 14:55:14.482710 11300 net.cpp:141] Setting up data
I0403 14:55:14.482820 11300 net.cpp:148] Top shape: 24 3 224 224 (3612672)
I0403 14:55:14.482849 11300 net.cpp:148] Top shape: 24 (24)
I0403 14:55:14.482869 11300 net.cpp:156] Memory required for data: 14450784
I0403 14:55:14.482904 11300 layer_factory.hpp:77] Creating layer label_data_1_split
I0403 14:55:14.482938 11300 net.cpp:91] Creating Layer label_data_1_split
I0403 14:55:14.482961 11300 net.cpp:425] label_data_1_split <- label
I0403 14:55:14.483000 11300 net.cpp:399] label_data_1_split -> label_data_1_split_0
I0403 14:55:14.483036 11300 net.cpp:399] label_data_1_split -> label_data_1_split_1
I0403 14:55:14.483062 11300 net.cpp:399] label_data_1_split -> label_data_1_split_2
I0403 14:55:14.483088 11300 net.cpp:399] label_data_1_split -> label_data_1_split_3
I0403 14:55:14.483114 11300 net.cpp:399] label_data_1_split -> label_data_1_split_4
I0403 14:55:14.483150 11300 net.cpp:399] label_data_1_split -> label_data_1_split_5
I0403 14:55:14.483175 11300 net.cpp:399] label_data_1_split -> label_data_1_split_6
I0403 14:55:14.483202 11300 net.cpp:399] label_data_1_split -> label_data_1_split_7
I0403 14:55:14.483229 11300 net.cpp:399] label_data_1_split -> label_data_1_split_8
I0403 14:55:14.483255 11300 net.cpp:399] label_data_1_split -> label_data_1_split_9
I0403 14:55:14.483397 11300 net.cpp:141] Setting up label_data_1_split
I0403 14:55:14.483427 11300 net.cpp:148] Top shape: 24 (24)
I0403 14:55:14.483448 11300 net.cpp:148] Top shape: 24 (24)
I0403 14:55:14.483469 11300 net.cpp:148] Top shape: 24 (24)
I0403 14:55:14.483489 11300 net.cpp:148] Top shape: 24 (24)
I0403 14:55:14.483510 11300 net.cpp:148] Top shape: 24 (24)
I0403 14:55:14.483530 11300 net.cpp:148] Top shape: 24 (24)
I0403 14:55:14.483549 11300 net.cpp:148] Top shape: 24 (24)
I0403 14:55:14.483571 11300 net.cpp:148] Top shape: 24 (24)
I0403 14:55:14.483590 11300 net.cpp:148] Top shape: 24 (24)
I0403 14:55:14.483611 11300 net.cpp:148] Top shape: 24 (24)
I0403 14:55:14.483664 11300 net.cpp:156] Memory required for data: 14451744
I0403 14:55:14.483685 11300 layer_factory.hpp:77] Creating layer conv1/7x7_s2
I0403 14:55:14.483726 11300 net.cpp:91] Creating Layer conv1/7x7_s2
I0403 14:55:14.483749 11300 net.cpp:425] conv1/7x7_s2 <- data
I0403 14:55:14.483777 11300 net.cpp:399] conv1/7x7_s2 -> conv1/7x7_s2
I0403 14:55:14.649960 11300 net.cpp:141] Setting up conv1/7x7_s2
I0403 14:55:14.650055 11300 net.cpp:148] Top shape: 24 64 112 112 (19267584)
I0403 14:55:14.650079 11300 net.cpp:156] Memory required for data: 91522080
I0403 14:55:14.650117 11300 layer_factory.hpp:77] Creating layer conv1/relu_7x7
I0403 14:55:14.650157 11300 net.cpp:91] Creating Layer conv1/relu_7x7
I0403 14:55:14.650182 11300 net.cpp:425] conv1/relu_7x7 <- conv1/7x7_s2
I0403 14:55:14.650209 11300 net.cpp:386] conv1/relu_7x7 -> conv1/7x7_s2 (in-place)
I0403 14:55:14.650517 11300 net.cpp:141] Setting up conv1/relu_7x7
I0403 14:55:14.650552 11300 net.cpp:148] Top shape: 24 64 112 112 (19267584)
I0403 14:55:14.650573 11300 net.cpp:156] Memory required for data: 168592416
I0403 14:55:14.650593 11300 layer_factory.hpp:77] Creating layer pool1/3x3_s2
I0403 14:55:14.650624 11300 net.cpp:91] Creating Layer pool1/3x3_s2
I0403 14:55:14.650648 11300 net.cpp:425] pool1/3x3_s2 <- conv1/7x7_s2
I0403 14:55:14.650676 11300 net.cpp:399] pool1/3x3_s2 -> pool1/3x3_s2
I0403 14:55:14.650773 11300 net.cpp:141] Setting up pool1/3x3_s2
I0403 14:55:14.650804 11300 net.cpp:148] Top shape: 24 64 56 56 (4816896)
I0403 14:55:14.650826 11300 net.cpp:156] Memory required for data: 187860000
I0403 14:55:14.650846 11300 layer_factory.hpp:77] Creating layer pool1/norm1
I0403 14:55:14.650881 11300 net.cpp:91] Creating Layer pool1/norm1
I0403 14:55:14.650903 11300 net.cpp:425] pool1/norm1 <- pool1/3x3_s2
I0403 14:55:14.650928 11300 net.cpp:399] pool1/norm1 -> pool1/norm1
I0403 14:55:14.651345 11300 net.cpp:141] Setting up pool1/norm1
I0403 14:55:14.651379 11300 net.cpp:148] Top shape: 24 64 56 56 (4816896)
I0403 14:55:14.651399 11300 net.cpp:156] Memory required for data: 207127584
I0403 14:55:14.651419 11300 layer_factory.hpp:77] Creating layer conv2/3x3_reduce
I0403 14:55:14.651453 11300 net.cpp:91] Creating Layer conv2/3x3_reduce
I0403 14:55:14.651476 11300 net.cpp:425] conv2/3x3_reduce <- pool1/norm1
I0403 14:55:14.651504 11300 net.cpp:399] conv2/3x3_reduce -> conv2/3x3_reduce
I0403 14:55:14.653167 11300 net.cpp:141] Setting up conv2/3x3_reduce
I0403 14:55:14.653209 11300 net.cpp:148] Top shape: 24 64 56 56 (4816896)
I0403 14:55:14.653234 11300 net.cpp:156] Memory required for data: 226395168
I0403 14:55:14.653260 11300 layer_factory.hpp:77] Creating layer conv2/relu_3x3_reduce
I0403 14:55:14.653285 11300 net.cpp:91] Creating Layer conv2/relu_3x3_reduce
I0403 14:55:14.653306 11300 net.cpp:425] conv2/relu_3x3_reduce <- conv2/3x3_reduce
I0403 14:55:14.653415 11300 net.cpp:386] conv2/relu_3x3_reduce -> conv2/3x3_reduce (in-place)
I0403 14:55:14.653749 11300 net.cpp:141] Setting up conv2/relu_3x3_reduce
I0403 14:55:14.653786 11300 net.cpp:148] Top shape: 24 64 56 56 (4816896)
I0403 14:55:14.653807 11300 net.cpp:156] Memory required for data: 245662752
I0403 14:55:14.653827 11300 layer_factory.hpp:77] Creating layer conv2/3x3
I0403 14:55:14.653857 11300 net.cpp:91] Creating Layer conv2/3x3
I0403 14:55:14.653882 11300 net.cpp:425] conv2/3x3 <- conv2/3x3_reduce
I0403 14:55:14.653908 11300 net.cpp:399] conv2/3x3 -> conv2/3x3
I0403 14:55:14.656688 11300 net.cpp:141] Setting up conv2/3x3
I0403 14:55:14.656728 11300 net.cpp:148] Top shape: 24 192 56 56 (14450688)
I0403 14:55:14.656750 11300 net.cpp:156] Memory required for data: 303465504
I0403 14:55:14.656779 11300 layer_factory.hpp:77] Creating layer conv2/relu_3x3
I0403 14:55:14.656805 11300 net.cpp:91] Creating Layer conv2/relu_3x3
I0403 14:55:14.656826 11300 net.cpp:425] conv2/relu_3x3 <- conv2/3x3
I0403 14:55:14.656848 11300 net.cpp:386] conv2/relu_3x3 -> conv2/3x3 (in-place)
I0403 14:55:14.657065 11300 net.cpp:141] Setting up conv2/relu_3x3
I0403 14:55:14.657097 11300 net.cpp:148] Top shape: 24 192 56 56 (14450688)
I0403 14:55:14.657168 11300 net.cpp:156] Memory required for data: 361268256
I0403 14:55:14.657191 11300 layer_factory.hpp:77] Creating layer conv2/norm2
I0403 14:55:14.657218 11300 net.cpp:91] Creating Layer conv2/norm2
I0403 14:55:14.657241 11300 net.cpp:425] conv2/norm2 <- conv2/3x3
I0403 14:55:14.657265 11300 net.cpp:399] conv2/norm2 -> conv2/norm2
I0403 14:55:14.657634 11300 net.cpp:141] Setting up conv2/norm2
I0403 14:55:14.657668 11300 net.cpp:148] Top shape: 24 192 56 56 (14450688)
I0403 14:55:14.657690 11300 net.cpp:156] Memory required for data: 419071008
I0403 14:55:14.657709 11300 layer_factory.hpp:77] Creating layer pool2/3x3_s2
I0403 14:55:14.657734 11300 net.cpp:91] Creating Layer pool2/3x3_s2
I0403 14:55:14.657757 11300 net.cpp:425] pool2/3x3_s2 <- conv2/norm2
I0403 14:55:14.657780 11300 net.cpp:399] pool2/3x3_s2 -> pool2/3x3_s2
I0403 14:55:14.657896 11300 net.cpp:141] Setting up pool2/3x3_s2
I0403 14:55:14.657927 11300 net.cpp:148] Top shape: 24 192 28 28 (3612672)
I0403 14:55:14.657946 11300 net.cpp:156] Memory required for data: 433521696
I0403 14:55:14.657966 11300 layer_factory.hpp:77] Creating layer pool2/3x3_s2_pool2/3x3_s2_0_split
I0403 14:55:14.657989 11300 net.cpp:91] Creating Layer pool2/3x3_s2_pool2/3x3_s2_0_split
I0403 14:55:14.658010 11300 net.cpp:425] pool2/3x3_s2_pool2/3x3_s2_0_split <- pool2/3x3_s2
I0403 14:55:14.658036 11300 net.cpp:399] pool2/3x3_s2_pool2/3x3_s2_0_split -> pool2/3x3_s2_pool2/3x3_s2_0_split_0
I0403 14:55:14.658063 11300 net.cpp:399] pool2/3x3_s2_pool2/3x3_s2_0_split -> pool2/3x3_s2_pool2/3x3_s2_0_split_1
I0403 14:55:14.658089 11300 net.cpp:399] pool2/3x3_s2_pool2/3x3_s2_0_split -> pool2/3x3_s2_pool2/3x3_s2_0_split_2
I0403 14:55:14.658116 11300 net.cpp:399] pool2/3x3_s2_pool2/3x3_s2_0_split -> pool2/3x3_s2_pool2/3x3_s2_0_split_3
I0403 14:55:14.658212 11300 net.cpp:141] Setting up pool2/3x3_s2_pool2/3x3_s2_0_split
I0403 14:55:14.658246 11300 net.cpp:148] Top shape: 24 192 28 28 (3612672)
I0403 14:55:14.658267 11300 net.cpp:148] Top shape: 24 192 28 28 (3612672)
I0403 14:55:14.658289 11300 net.cpp:148] Top shape: 24 192 28 28 (3612672)
I0403 14:55:14.658309 11300 net.cpp:148] Top shape: 24 192 28 28 (3612672)
I0403 14:55:14.658329 11300 net.cpp:156] Memory required for data: 491324448
I0403 14:55:14.658347 11300 layer_factory.hpp:77] Creating layer inception_3a/1x1
I0403 14:55:14.658377 11300 net.cpp:91] Creating Layer inception_3a/1x1
I0403 14:55:14.658401 11300 net.cpp:425] inception_3a/1x1 <- pool2/3x3_s2_pool2/3x3_s2_0_split_0
I0403 14:55:14.658426 11300 net.cpp:399] inception_3a/1x1 -> inception_3a/1x1
I0403 14:55:14.660316 11300 net.cpp:141] Setting up inception_3a/1x1
I0403 14:55:14.660353 11300 net.cpp:148] Top shape: 24 64 28 28 (1204224)
I0403 14:55:14.660374 11300 net.cpp:156] Memory required for data: 496141344
I0403 14:55:14.660398 11300 layer_factory.hpp:77] Creating layer inception_3a/relu_1x1
I0403 14:55:14.660426 11300 net.cpp:91] Creating Layer inception_3a/relu_1x1
I0403 14:55:14.660449 11300 net.cpp:425] inception_3a/relu_1x1 <- inception_3a/1x1
I0403 14:55:14.660472 11300 net.cpp:386] inception_3a/relu_1x1 -> inception_3a/1x1 (in-place)
I0403 14:55:14.660691 11300 net.cpp:141] Setting up inception_3a/relu_1x1
I0403 14:55:14.660723 11300 net.cpp:148] Top shape: 24 64 28 28 (1204224)
I0403 14:55:14.660742 11300 net.cpp:156] Memory required for data: 500958240
I0403 14:55:14.660763 11300 layer_factory.hpp:77] Creating layer inception_3a/3x3_reduce
I0403 14:55:14.660791 11300 net.cpp:91] Creating Layer inception_3a/3x3_reduce
I0403 14:55:14.660814 11300 net.cpp:425] inception_3a/3x3_reduce <- pool2/3x3_s2_pool2/3x3_s2_0_split_1
I0403 14:55:14.660841 11300 net.cpp:399] inception_3a/3x3_reduce -> inception_3a/3x3_reduce
I0403 14:55:14.662858 11300 net.cpp:141] Setting up inception_3a/3x3_reduce
I0403 14:55:14.662896 11300 net.cpp:148] Top shape: 24 96 28 28 (1806336)
I0403 14:55:14.662919 11300 net.cpp:156] Memory required for data: 508183584
I0403 14:55:14.662947 11300 layer_factory.hpp:77] Creating layer inception_3a/relu_3x3_reduce
I0403 14:55:14.662993 11300 net.cpp:91] Creating Layer inception_3a/relu_3x3_reduce
I0403 14:55:14.663017 11300 net.cpp:425] inception_3a/relu_3x3_reduce <- inception_3a/3x3_reduce
I0403 14:55:14.663044 11300 net.cpp:386] inception_3a/relu_3x3_reduce -> inception_3a/3x3_reduce (in-place)
I0403 14:55:14.663280 11300 net.cpp:141] Setting up inception_3a/relu_3x3_reduce
I0403 14:55:14.663311 11300 net.cpp:148] Top shape: 24 96 28 28 (1806336)
I0403 14:55:14.663331 11300 net.cpp:156] Memory required for data: 515408928
I0403 14:55:14.663352 11300 layer_factory.hpp:77] Creating layer inception_3a/3x3
I0403 14:55:14.663380 11300 net.cpp:91] Creating Layer inception_3a/3x3
I0403 14:55:14.663403 11300 net.cpp:425] inception_3a/3x3 <- inception_3a/3x3_reduce
I0403 14:55:14.663432 11300 net.cpp:399] inception_3a/3x3 -> inception_3a/3x3
I0403 14:55:14.665443 11300 net.cpp:141] Setting up inception_3a/3x3
I0403 14:55:14.665483 11300 net.cpp:148] Top shape: 24 128 28 28 (2408448)
I0403 14:55:14.665506 11300 net.cpp:156] Memory required for data: 525042720
I0403 14:55:14.665530 11300 layer_factory.hpp:77] Creating layer inception_3a/relu_3x3
I0403 14:55:14.665555 11300 net.cpp:91] Creating Layer inception_3a/relu_3x3
I0403 14:55:14.665575 11300 net.cpp:425] inception_3a/relu_3x3 <- inception_3a/3x3
I0403 14:55:14.665601 11300 net.cpp:386] inception_3a/relu_3x3 -> inception_3a/3x3 (in-place)
I0403 14:55:14.665933 11300 net.cpp:141] Setting up inception_3a/relu_3x3
I0403 14:55:14.665971 11300 net.cpp:148] Top shape: 24 128 28 28 (2408448)
I0403 14:55:14.665992 11300 net.cpp:156] Memory required for data: 534676512
I0403 14:55:14.666013 11300 layer_factory.hpp:77] Creating layer inception_3a/5x5_reduce
I0403 14:55:14.666041 11300 net.cpp:91] Creating Layer inception_3a/5x5_reduce
I0403 14:55:14.666064 11300 net.cpp:425] inception_3a/5x5_reduce <- pool2/3x3_s2_pool2/3x3_s2_0_split_2
I0403 14:55:14.666090 11300 net.cpp:399] inception_3a/5x5_reduce -> inception_3a/5x5_reduce
I0403 14:55:14.667255 11300 net.cpp:141] Setting up inception_3a/5x5_reduce
I0403 14:55:14.667294 11300 net.cpp:148] Top shape: 24 16 28 28 (301056)
I0403 14:55:14.667315 11300 net.cpp:156] Memory required for data: 535880736
I0403 14:55:14.667340 11300 layer_factory.hpp:77] Creating layer inception_3a/relu_5x5_reduce
I0403 14:55:14.667363 11300 net.cpp:91] Creating Layer inception_3a/relu_5x5_reduce
I0403 14:55:14.667385 11300 net.cpp:425] inception_3a/relu_5x5_reduce <- inception_3a/5x5_reduce
I0403 14:55:14.667414 11300 net.cpp:386] inception_3a/relu_5x5_reduce -> inception_3a/5x5_reduce (in-place)
I0403 14:55:14.667768 11300 net.cpp:141] Setting up inception_3a/relu_5x5_reduce
I0403 14:55:14.667800 11300 net.cpp:148] Top shape: 24 16 28 28 (301056)
I0403 14:55:14.667820 11300 net.cpp:156] Memory required for data: 537084960
I0403 14:55:14.667840 11300 layer_factory.hpp:77] Creating layer inception_3a/5x5
I0403 14:55:14.667870 11300 net.cpp:91] Creating Layer inception_3a/5x5
I0403 14:55:14.667894 11300 net.cpp:425] inception_3a/5x5 <- inception_3a/5x5_reduce
I0403 14:55:14.667922 11300 net.cpp:399] inception_3a/5x5 -> inception_3a/5x5
I0403 14:55:14.669143 11300 net.cpp:141] Setting up inception_3a/5x5
I0403 14:55:14.669178 11300 net.cpp:148] Top shape: 24 32 28 28 (602112)
I0403 14:55:14.669199 11300 net.cpp:156] Memory required for data: 539493408
I0403 14:55:14.669226 11300 layer_factory.hpp:77] Creating layer inception_3a/relu_5x5
I0403 14:55:14.669251 11300 net.cpp:91] Creating Layer inception_3a/relu_5x5
I0403 14:55:14.669272 11300 net.cpp:425] inception_3a/relu_5x5 <- inception_3a/5x5
I0403 14:55:14.669296 11300 net.cpp:386] inception_3a/relu_5x5 -> inception_3a/5x5 (in-place)
I0403 14:55:14.669512 11300 net.cpp:141] Setting up inception_3a/relu_5x5
I0403 14:55:14.669544 11300 net.cpp:148] Top shape: 24 32 28 28 (602112)
I0403 14:55:14.669564 11300 net.cpp:156] Memory required for data: 541901856
I0403 14:55:14.669584 11300 layer_factory.hpp:77] Creating layer inception_3a/pool
I0403 14:55:14.669606 11300 net.cpp:91] Creating Layer inception_3a/pool
I0403 14:55:14.669647 11300 net.cpp:425] inception_3a/pool <- pool2/3x3_s2_pool2/3x3_s2_0_split_3
I0403 14:55:14.669675 11300 net.cpp:399] inception_3a/pool -> inception_3a/pool
I0403 14:55:14.669749 11300 net.cpp:141] Setting up inception_3a/pool
I0403 14:55:14.669780 11300 net.cpp:148] Top shape: 24 192 28 28 (3612672)
I0403 14:55:14.669800 11300 net.cpp:156] Memory required for data: 556352544
I0403 14:55:14.669818 11300 layer_factory.hpp:77] Creating layer inception_3a/pool_proj
I0403 14:55:14.669852 11300 net.cpp:91] Creating Layer inception_3a/pool_proj
I0403 14:55:14.669874 11300 net.cpp:425] inception_3a/pool_proj <- inception_3a/pool
I0403 14:55:14.669899 11300 net.cpp:399] inception_3a/pool_proj -> inception_3a/pool_proj
I0403 14:55:14.671056 11300 net.cpp:141] Setting up inception_3a/pool_proj
I0403 14:55:14.671090 11300 net.cpp:148] Top shape: 24 32 28 28 (602112)
I0403 14:55:14.671111 11300 net.cpp:156] Memory required for data: 558760992
I0403 14:55:14.671149 11300 layer_factory.hpp:77] Creating layer inception_3a/relu_pool_proj
I0403 14:55:14.671176 11300 net.cpp:91] Creating Layer inception_3a/relu_pool_proj
I0403 14:55:14.671200 11300 net.cpp:425] inception_3a/relu_pool_proj <- inception_3a/pool_proj
I0403 14:55:14.671226 11300 net.cpp:386] inception_3a/relu_pool_proj -> inception_3a/pool_proj (in-place)
I0403 14:55:14.671552 11300 net.cpp:141] Setting up inception_3a/relu_pool_proj
I0403 14:55:14.671589 11300 net.cpp:148] Top shape: 24 32 28 28 (602112)
I0403 14:55:14.671610 11300 net.cpp:156] Memory required for data: 561169440
I0403 14:55:14.671630 11300 layer_factory.hpp:77] Creating layer inception_3a/output
I0403 14:55:14.671653 11300 net.cpp:91] Creating Layer inception_3a/output
I0403 14:55:14.671674 11300 net.cpp:425] inception_3a/output <- inception_3a/1x1
I0403 14:55:14.671697 11300 net.cpp:425] inception_3a/output <- inception_3a/3x3
I0403 14:55:14.671718 11300 net.cpp:425] inception_3a/output <- inception_3a/5x5
I0403 14:55:14.671738 11300 net.cpp:425] inception_3a/output <- inception_3a/pool_proj
I0403 14:55:14.671764 11300 net.cpp:399] inception_3a/output -> inception_3a/output
I0403 14:55:14.671823 11300 net.cpp:141] Setting up inception_3a/output
I0403 14:55:14.671852 11300 net.cpp:148] Top shape: 24 256 28 28 (4816896)
I0403 14:55:14.671872 11300 net.cpp:156] Memory required for data: 580437024
I0403 14:55:14.671893 11300 layer_factory.hpp:77] Creating layer inception_3a/output_inception_3a/output_0_split
I0403 14:55:14.671919 11300 net.cpp:91] Creating Layer inception_3a/output_inception_3a/output_0_split
I0403 14:55:14.671941 11300 net.cpp:425] inception_3a/output_inception_3a/output_0_split <- inception_3a/output
I0403 14:55:14.671962 11300 net.cpp:399] inception_3a/output_inception_3a/output_0_split -> inception_3a/output_inception_3a/output_0_split_0
I0403 14:55:14.671988 11300 net.cpp:399] inception_3a/output_inception_3a/output_0_split -> inception_3a/output_inception_3a/output_0_split_1
I0403 14:55:14.672021 11300 net.cpp:399] inception_3a/output_inception_3a/output_0_split -> inception_3a/output_inception_3a/output_0_split_2
I0403 14:55:14.672051 11300 net.cpp:399] inception_3a/output_inception_3a/output_0_split -> inception_3a/output_inception_3a/output_0_split_3
I0403 14:55:14.672158 11300 net.cpp:141] Setting up inception_3a/output_inception_3a/output_0_split
I0403 14:55:14.672189 11300 net.cpp:148] Top shape: 24 256 28 28 (4816896)
I0403 14:55:14.672215 11300 net.cpp:148] Top shape: 24 256 28 28 (4816896)
I0403 14:55:14.672236 11300 net.cpp:148] Top shape: 24 256 28 28 (4816896)
I0403 14:55:14.672257 11300 net.cpp:148] Top shape: 24 256 28 28 (4816896)
I0403 14:55:14.672276 11300 net.cpp:156] Memory required for data: 657507360
I0403 14:55:14.672296 11300 layer_factory.hpp:77] Creating layer inception_3b/1x1
I0403 14:55:14.672324 11300 net.cpp:91] Creating Layer inception_3b/1x1
I0403 14:55:14.672348 11300 net.cpp:425] inception_3b/1x1 <- inception_3a/output_inception_3a/output_0_split_0
I0403 14:55:14.672371 11300 net.cpp:399] inception_3b/1x1 -> inception_3b/1x1
I0403 14:55:14.673748 11300 net.cpp:141] Setting up inception_3b/1x1
I0403 14:55:14.673796 11300 net.cpp:148] Top shape: 24 128 28 28 (2408448)
I0403 14:55:14.673818 11300 net.cpp:156] Memory required for data: 667141152
I0403 14:55:14.673843 11300 layer_factory.hpp:77] Creating layer inception_3b/relu_1x1
I0403 14:55:14.673869 11300 net.cpp:91] Creating Layer inception_3b/relu_1x1
I0403 14:55:14.673892 11300 net.cpp:425] inception_3b/relu_1x1 <- inception_3b/1x1
I0403 14:55:14.673914 11300 net.cpp:386] inception_3b/relu_1x1 -> inception_3b/1x1 (in-place)
I0403 14:55:14.674134 11300 net.cpp:141] Setting up inception_3b/relu_1x1
I0403 14:55:14.674170 11300 net.cpp:148] Top shape: 24 128 28 28 (2408448)
I0403 14:55:14.674193 11300 net.cpp:156] Memory required for data: 676774944
I0403 14:55:14.674213 11300 layer_factory.hpp:77] Creating layer inception_3b/3x3_reduce
I0403 14:55:14.674242 11300 net.cpp:91] Creating Layer inception_3b/3x3_reduce
I0403 14:55:14.674265 11300 net.cpp:425] inception_3b/3x3_reduce <- inception_3a/output_inception_3a/output_0_split_1
I0403 14:55:14.674290 11300 net.cpp:399] inception_3b/3x3_reduce -> inception_3b/3x3_reduce
I0403 14:55:14.675671 11300 net.cpp:141] Setting up inception_3b/3x3_reduce
I0403 14:55:14.675709 11300 net.cpp:148] Top shape: 24 128 28 28 (2408448)
I0403 14:55:14.675729 11300 net.cpp:156] Memory required for data: 686408736
I0403 14:55:14.675753 11300 layer_factory.hpp:77] Creating layer inception_3b/relu_3x3_reduce
I0403 14:55:14.675781 11300 net.cpp:91] Creating Layer inception_3b/relu_3x3_reduce
I0403 14:55:14.675804 11300 net.cpp:425] inception_3b/relu_3x3_reduce <- inception_3b/3x3_reduce
I0403 14:55:14.675827 11300 net.cpp:386] inception_3b/relu_3x3_reduce -> inception_3b/3x3_reduce (in-place)
I0403 14:55:14.676036 11300 net.cpp:141] Setting up inception_3b/relu_3x3_reduce
I0403 14:55:14.676071 11300 net.cpp:148] Top shape: 24 128 28 28 (2408448)
I0403 14:55:14.676093 11300 net.cpp:156] Memory required for data: 696042528
I0403 14:55:14.676113 11300 layer_factory.hpp:77] Creating layer inception_3b/3x3
I0403 14:55:14.676151 11300 net.cpp:91] Creating Layer inception_3b/3x3
I0403 14:55:14.676177 11300 net.cpp:425] inception_3b/3x3 <- inception_3b/3x3_reduce
I0403 14:55:14.676206 11300 net.cpp:399] inception_3b/3x3 -> inception_3b/3x3
I0403 14:55:14.679718 11300 net.cpp:141] Setting up inception_3b/3x3
I0403 14:55:14.679757 11300 net.cpp:148] Top shape: 24 192 28 28 (3612672)
I0403 14:55:14.679780 11300 net.cpp:156] Memory required for data: 710493216
I0403 14:55:14.679805 11300 layer_factory.hpp:77] Creating layer inception_3b/relu_3x3
I0403 14:55:14.679827 11300 net.cpp:91] Creating Layer inception_3b/relu_3x3
I0403 14:55:14.679848 11300 net.cpp:425] inception_3b/relu_3x3 <- inception_3b/3x3
I0403 14:55:14.679873 11300 net.cpp:386] inception_3b/relu_3x3 -> inception_3b/3x3 (in-place)
I0403 14:55:14.680209 11300 net.cpp:141] Setting up inception_3b/relu_3x3
I0403 14:55:14.680245 11300 net.cpp:148] Top shape: 24 192 28 28 (3612672)
I0403 14:55:14.680268 11300 net.cpp:156] Memory required for data: 724943904
I0403 14:55:14.680287 11300 layer_factory.hpp:77] Creating layer inception_3b/5x5_reduce
I0403 14:55:14.680317 11300 net.cpp:91] Creating Layer inception_3b/5x5_reduce
I0403 14:55:14.680341 11300 net.cpp:425] inception_3b/5x5_reduce <- inception_3a/output_inception_3a/output_0_split_2
I0403 14:55:14.680366 11300 net.cpp:399] inception_3b/5x5_reduce -> inception_3b/5x5_reduce
I0403 14:55:14.681555 11300 net.cpp:141] Setting up inception_3b/5x5_reduce
I0403 14:55:14.681593 11300 net.cpp:148] Top shape: 24 32 28 28 (602112)
I0403 14:55:14.681615 11300 net.cpp:156] Memory required for data: 727352352
I0403 14:55:14.681640 11300 layer_factory.hpp:77] Creating layer inception_3b/relu_5x5_reduce
I0403 14:55:14.681664 11300 net.cpp:91] Creating Layer inception_3b/relu_5x5_reduce
I0403 14:55:14.681685 11300 net.cpp:425] inception_3b/relu_5x5_reduce <- inception_3b/5x5_reduce
I0403 14:55:14.681710 11300 net.cpp:386] inception_3b/relu_5x5_reduce -> inception_3b/5x5_reduce (in-place)
I0403 14:55:14.681944 11300 net.cpp:141] Setting up inception_3b/relu_5x5_reduce
I0403 14:55:14.681977 11300 net.cpp:148] Top shape: 24 32 28 28 (602112)
I0403 14:55:14.681998 11300 net.cpp:156] Memory required for data: 729760800
I0403 14:55:14.682018 11300 layer_factory.hpp:77] Creating layer inception_3b/5x5
I0403 14:55:14.682046 11300 net.cpp:91] Creating Layer inception_3b/5x5
I0403 14:55:14.682068 11300 net.cpp:425] inception_3b/5x5 <- inception_3b/5x5_reduce
I0403 14:55:14.682096 11300 net.cpp:399] inception_3b/5x5 -> inception_3b/5x5
I0403 14:55:14.684468 11300 net.cpp:141] Setting up inception_3b/5x5
I0403 14:55:14.684504 11300 net.cpp:148] Top shape: 24 96 28 28 (1806336)
I0403 14:55:14.684525 11300 net.cpp:156] Memory required for data: 736986144
I0403 14:55:14.684550 11300 layer_factory.hpp:77] Creating layer inception_3b/relu_5x5
I0403 14:55:14.684576 11300 net.cpp:91] Creating Layer inception_3b/relu_5x5
I0403 14:55:14.684599 11300 net.cpp:425] inception_3b/relu_5x5 <- inception_3b/5x5
I0403 14:55:14.684623 11300 net.cpp:386] inception_3b/relu_5x5 -> inception_3b/5x5 (in-place)
I0403 14:55:14.684854 11300 net.cpp:141] Setting up inception_3b/relu_5x5
I0403 14:55:14.684887 11300 net.cpp:148] Top shape: 24 96 28 28 (1806336)
I0403 14:55:14.684906 11300 net.cpp:156] Memory required for data: 744211488
I0403 14:55:14.684927 11300 layer_factory.hpp:77] Creating layer inception_3b/pool
I0403 14:55:14.684950 11300 net.cpp:91] Creating Layer inception_3b/pool
I0403 14:55:14.684970 11300 net.cpp:425] inception_3b/pool <- inception_3a/output_inception_3a/output_0_split_3
I0403 14:55:14.684994 11300 net.cpp:399] inception_3b/pool -> inception_3b/pool
I0403 14:55:14.685065 11300 net.cpp:141] Setting up inception_3b/pool
I0403 14:55:14.685096 11300 net.cpp:148] Top shape: 24 256 28 28 (4816896)
I0403 14:55:14.685116 11300 net.cpp:156] Memory required for data: 763479072
I0403 14:55:14.685142 11300 layer_factory.hpp:77] Creating layer inception_3b/pool_proj
I0403 14:55:14.685171 11300 net.cpp:91] Creating Layer inception_3b/pool_proj
I0403 14:55:14.685197 11300 net.cpp:425] inception_3b/pool_proj <- inception_3b/pool
I0403 14:55:14.685222 11300 net.cpp:399] inception_3b/pool_proj -> inception_3b/pool_proj
I0403 14:55:14.686496 11300 net.cpp:141] Setting up inception_3b/pool_proj
I0403 14:55:14.686532 11300 net.cpp:148] Top shape: 24 64 28 28 (1204224)
I0403 14:55:14.686553 11300 net.cpp:156] Memory required for data: 768295968
I0403 14:55:14.686576 11300 layer_factory.hpp:77] Creating layer inception_3b/relu_pool_proj
I0403 14:55:14.686600 11300 net.cpp:91] Creating Layer inception_3b/relu_pool_proj
I0403 14:55:14.686621 11300 net.cpp:425] inception_3b/relu_pool_proj <- inception_3b/pool_proj
I0403 14:55:14.686646 11300 net.cpp:386] inception_3b/relu_pool_proj -> inception_3b/pool_proj (in-place)
I0403 14:55:14.687129 11300 net.cpp:141] Setting up inception_3b/relu_pool_proj
I0403 14:55:14.687163 11300 net.cpp:148] Top shape: 24 64 28 28 (1204224)
I0403 14:55:14.687183 11300 net.cpp:156] Memory required for data: 773112864
I0403 14:55:14.687203 11300 layer_factory.hpp:77] Creating layer inception_3b/output
I0403 14:55:14.687227 11300 net.cpp:91] Creating Layer inception_3b/output
I0403 14:55:14.687247 11300 net.cpp:425] inception_3b/output <- inception_3b/1x1
I0403 14:55:14.687268 11300 net.cpp:425] inception_3b/output <- inception_3b/3x3
I0403 14:55:14.687290 11300 net.cpp:425] inception_3b/output <- inception_3b/5x5
I0403 14:55:14.687311 11300 net.cpp:425] inception_3b/output <- inception_3b/pool_proj
I0403 14:55:14.687337 11300 net.cpp:399] inception_3b/output -> inception_3b/output
I0403 14:55:14.687392 11300 net.cpp:141] Setting up inception_3b/output
I0403 14:55:14.687422 11300 net.cpp:148] Top shape: 24 480 28 28 (9031680)
I0403 14:55:14.687441 11300 net.cpp:156] Memory required for data: 809239584
I0403 14:55:14.687460 11300 layer_factory.hpp:77] Creating layer pool3/3x3_s2
I0403 14:55:14.687487 11300 net.cpp:91] Creating Layer pool3/3x3_s2
I0403 14:55:14.687510 11300 net.cpp:425] pool3/3x3_s2 <- inception_3b/output
I0403 14:55:14.687556 11300 net.cpp:399] pool3/3x3_s2 -> pool3/3x3_s2
I0403 14:55:14.687631 11300 net.cpp:141] Setting up pool3/3x3_s2
I0403 14:55:14.687661 11300 net.cpp:148] Top shape: 24 480 14 14 (2257920)
I0403 14:55:14.687681 11300 net.cpp:156] Memory required for data: 818271264
I0403 14:55:14.687700 11300 layer_factory.hpp:77] Creating layer pool3/3x3_s2_pool3/3x3_s2_0_split
I0403 14:55:14.687726 11300 net.cpp:91] Creating Layer pool3/3x3_s2_pool3/3x3_s2_0_split
I0403 14:55:14.687747 11300 net.cpp:425] pool3/3x3_s2_pool3/3x3_s2_0_split <- pool3/3x3_s2
I0403 14:55:14.687770 11300 net.cpp:399] pool3/3x3_s2_pool3/3x3_s2_0_split -> pool3/3x3_s2_pool3/3x3_s2_0_split_0
I0403 14:55:14.687796 11300 net.cpp:399] pool3/3x3_s2_pool3/3x3_s2_0_split -> pool3/3x3_s2_pool3/3x3_s2_0_split_1
I0403 14:55:14.687822 11300 net.cpp:399] pool3/3x3_s2_pool3/3x3_s2_0_split -> pool3/3x3_s2_pool3/3x3_s2_0_split_2
I0403 14:55:14.687847 11300 net.cpp:399] pool3/3x3_s2_pool3/3x3_s2_0_split -> pool3/3x3_s2_pool3/3x3_s2_0_split_3
I0403 14:55:14.687944 11300 net.cpp:141] Setting up pool3/3x3_s2_pool3/3x3_s2_0_split
I0403 14:55:14.687974 11300 net.cpp:148] Top shape: 24 480 14 14 (2257920)
I0403 14:55:14.687995 11300 net.cpp:148] Top shape: 24 480 14 14 (2257920)
I0403 14:55:14.688016 11300 net.cpp:148] Top shape: 24 480 14 14 (2257920)
I0403 14:55:14.688036 11300 net.cpp:148] Top shape: 24 480 14 14 (2257920)
I0403 14:55:14.688055 11300 net.cpp:156] Memory required for data: 854397984
I0403 14:55:14.688074 11300 layer_factory.hpp:77] Creating layer inception_4a/1x1
I0403 14:55:14.688103 11300 net.cpp:91] Creating Layer inception_4a/1x1
I0403 14:55:14.688130 11300 net.cpp:425] inception_4a/1x1 <- pool3/3x3_s2_pool3/3x3_s2_0_split_0
I0403 14:55:14.688160 11300 net.cpp:399] inception_4a/1x1 -> inception_4a/1x1
I0403 14:55:14.690069 11300 net.cpp:141] Setting up inception_4a/1x1
I0403 14:55:14.690104 11300 net.cpp:148] Top shape: 24 192 14 14 (903168)
I0403 14:55:14.690129 11300 net.cpp:156] Memory required for data: 858010656
I0403 14:55:14.690157 11300 layer_factory.hpp:77] Creating layer inception_4a/relu_1x1
I0403 14:55:14.690184 11300 net.cpp:91] Creating Layer inception_4a/relu_1x1
I0403 14:55:14.690208 11300 net.cpp:425] inception_4a/relu_1x1 <- inception_4a/1x1
I0403 14:55:14.690232 11300 net.cpp:386] inception_4a/relu_1x1 -> inception_4a/1x1 (in-place)
I0403 14:55:14.690448 11300 net.cpp:141] Setting up inception_4a/relu_1x1
I0403 14:55:14.690482 11300 net.cpp:148] Top shape: 24 192 14 14 (903168)
I0403 14:55:14.690505 11300 net.cpp:156] Memory required for data: 861623328
I0403 14:55:14.690524 11300 layer_factory.hpp:77] Creating layer inception_4a/3x3_reduce
I0403 14:55:14.690551 11300 net.cpp:91] Creating Layer inception_4a/3x3_reduce
I0403 14:55:14.690573 11300 net.cpp:425] inception_4a/3x3_reduce <- pool3/3x3_s2_pool3/3x3_s2_0_split_1
I0403 14:55:14.690603 11300 net.cpp:399] inception_4a/3x3_reduce -> inception_4a/3x3_reduce
I0403 14:55:14.692165 11300 net.cpp:141] Setting up inception_4a/3x3_reduce
I0403 14:55:14.692203 11300 net.cpp:148] Top shape: 24 96 14 14 (451584)
I0403 14:55:14.692224 11300 net.cpp:156] Memory required for data: 863429664
I0403 14:55:14.692255 11300 layer_factory.hpp:77] Creating layer inception_4a/relu_3x3_reduce
I0403 14:55:14.692282 11300 net.cpp:91] Creating Layer inception_4a/relu_3x3_reduce
I0403 14:55:14.692304 11300 net.cpp:425] inception_4a/relu_3x3_reduce <- inception_4a/3x3_reduce
I0403 14:55:14.692330 11300 net.cpp:386] inception_4a/relu_3x3_reduce -> inception_4a/3x3_reduce (in-place)
I0403 14:55:14.692543 11300 net.cpp:141] Setting up inception_4a/relu_3x3_reduce
I0403 14:55:14.692576 11300 net.cpp:148] Top shape: 24 96 14 14 (451584)
I0403 14:55:14.692595 11300 net.cpp:156] Memory required for data: 865236000
I0403 14:55:14.692615 11300 layer_factory.hpp:77] Creating layer inception_4a/3x3
I0403 14:55:14.692644 11300 net.cpp:91] Creating Layer inception_4a/3x3
I0403 14:55:14.692667 11300 net.cpp:425] inception_4a/3x3 <- inception_4a/3x3_reduce
I0403 14:55:14.692697 11300 net.cpp:399] inception_4a/3x3 -> inception_4a/3x3
I0403 14:55:14.695941 11300 net.cpp:141] Setting up inception_4a/3x3
I0403 14:55:14.695977 11300 net.cpp:148] Top shape: 24 208 14 14 (978432)
I0403 14:55:14.695999 11300 net.cpp:156] Memory required for data: 869149728
I0403 14:55:14.696023 11300 layer_factory.hpp:77] Creating layer inception_4a/relu_3x3
I0403 14:55:14.696050 11300 net.cpp:91] Creating Layer inception_4a/relu_3x3
I0403 14:55:14.696074 11300 net.cpp:425] inception_4a/relu_3x3 <- inception_4a/3x3
I0403 14:55:14.696096 11300 net.cpp:386] inception_4a/relu_3x3 -> inception_4a/3x3 (in-place)
I0403 14:55:14.696441 11300 net.cpp:141] Setting up inception_4a/relu_3x3
I0403 14:55:14.696475 11300 net.cpp:148] Top shape: 24 208 14 14 (978432)
I0403 14:55:14.696496 11300 net.cpp:156] Memory required for data: 873063456
I0403 14:55:14.696516 11300 layer_factory.hpp:77] Creating layer inception_4a/5x5_reduce
I0403 14:55:14.696547 11300 net.cpp:91] Creating Layer inception_4a/5x5_reduce
I0403 14:55:14.696573 11300 net.cpp:425] inception_4a/5x5_reduce <- pool3/3x3_s2_pool3/3x3_s2_0_split_2
I0403 14:55:14.696599 11300 net.cpp:399] inception_4a/5x5_reduce -> inception_4a/5x5_reduce
I0403 14:55:14.697827 11300 net.cpp:141] Setting up inception_4a/5x5_reduce
I0403 14:55:14.697861 11300 net.cpp:148] Top shape: 24 16 14 14 (75264)
I0403 14:55:14.697883 11300 net.cpp:156] Memory required for data: 873364512
I0403 14:55:14.697909 11300 layer_factory.hpp:77] Creating layer inception_4a/relu_5x5_reduce
I0403 14:55:14.697935 11300 net.cpp:91] Creating Layer inception_4a/relu_5x5_reduce
I0403 14:55:14.697957 11300 net.cpp:425] inception_4a/relu_5x5_reduce <- inception_4a/5x5_reduce
I0403 14:55:14.697980 11300 net.cpp:386] inception_4a/relu_5x5_reduce -> inception_4a/5x5_reduce (in-place)
I0403 14:55:14.698210 11300 net.cpp:141] Setting up inception_4a/relu_5x5_reduce
I0403 14:55:14.698242 11300 net.cpp:148] Top shape: 24 16 14 14 (75264)
I0403 14:55:14.698262 11300 net.cpp:156] Memory required for data: 873665568
I0403 14:55:14.698282 11300 layer_factory.hpp:77] Creating layer inception_4a/5x5
I0403 14:55:14.698312 11300 net.cpp:91] Creating Layer inception_4a/5x5
I0403 14:55:14.698335 11300 net.cpp:425] inception_4a/5x5 <- inception_4a/5x5_reduce
I0403 14:55:14.698364 11300 net.cpp:399] inception_4a/5x5 -> inception_4a/5x5
I0403 14:55:14.699681 11300 net.cpp:141] Setting up inception_4a/5x5
I0403 14:55:14.699714 11300 net.cpp:148] Top shape: 24 48 14 14 (225792)
I0403 14:55:14.699734 11300 net.cpp:156] Memory required for data: 874568736
I0403 14:55:14.699759 11300 layer_factory.hpp:77] Creating layer inception_4a/relu_5x5
I0403 14:55:14.699781 11300 net.cpp:91] Creating Layer inception_4a/relu_5x5
I0403 14:55:14.699802 11300 net.cpp:425] inception_4a/relu_5x5 <- inception_4a/5x5
I0403 14:55:14.699828 11300 net.cpp:386] inception_4a/relu_5x5 -> inception_4a/5x5 (in-place)
I0403 14:55:14.700045 11300 net.cpp:141] Setting up inception_4a/relu_5x5
I0403 14:55:14.700078 11300 net.cpp:148] Top shape: 24 48 14 14 (225792)
I0403 14:55:14.700098 11300 net.cpp:156] Memory required for data: 875471904
I0403 14:55:14.700117 11300 layer_factory.hpp:77] Creating layer inception_4a/pool
I0403 14:55:14.700188 11300 net.cpp:91] Creating Layer inception_4a/pool
I0403 14:55:14.700214 11300 net.cpp:425] inception_4a/pool <- pool3/3x3_s2_pool3/3x3_s2_0_split_3
I0403 14:55:14.700238 11300 net.cpp:399] inception_4a/pool -> inception_4a/pool
I0403 14:55:14.700320 11300 net.cpp:141] Setting up inception_4a/pool
I0403 14:55:14.700350 11300 net.cpp:148] Top shape: 24 480 14 14 (2257920)
I0403 14:55:14.700374 11300 net.cpp:156] Memory required for data: 884503584
I0403 14:55:14.700393 11300 layer_factory.hpp:77] Creating layer inception_4a/pool_proj
I0403 14:55:14.700423 11300 net.cpp:91] Creating Layer inception_4a/pool_proj
I0403 14:55:14.700445 11300 net.cpp:425] inception_4a/pool_proj <- inception_4a/pool
I0403 14:55:14.700474 11300 net.cpp:399] inception_4a/pool_proj -> inception_4a/pool_proj
I0403 14:55:14.701890 11300 net.cpp:141] Setting up inception_4a/pool_proj
I0403 14:55:14.701926 11300 net.cpp:148] Top shape: 24 64 14 14 (301056)
I0403 14:55:14.701967 11300 net.cpp:156] Memory required for data: 885707808
I0403 14:55:14.701992 11300 layer_factory.hpp:77] Creating layer inception_4a/relu_pool_proj
I0403 14:55:14.702019 11300 net.cpp:91] Creating Layer inception_4a/relu_pool_proj
I0403 14:55:14.702042 11300 net.cpp:425] inception_4a/relu_pool_proj <- inception_4a/pool_proj
I0403 14:55:14.702065 11300 net.cpp:386] inception_4a/relu_pool_proj -> inception_4a/pool_proj (in-place)
I0403 14:55:14.702415 11300 net.cpp:141] Setting up inception_4a/relu_pool_proj
I0403 14:55:14.702448 11300 net.cpp:148] Top shape: 24 64 14 14 (301056)
I0403 14:55:14.702468 11300 net.cpp:156] Memory required for data: 886912032
I0403 14:55:14.702488 11300 layer_factory.hpp:77] Creating layer inception_4a/output
I0403 14:55:14.702512 11300 net.cpp:91] Creating Layer inception_4a/output
I0403 14:55:14.702533 11300 net.cpp:425] inception_4a/output <- inception_4a/1x1
I0403 14:55:14.702554 11300 net.cpp:425] inception_4a/output <- inception_4a/3x3
I0403 14:55:14.702582 11300 net.cpp:425] inception_4a/output <- inception_4a/5x5
I0403 14:55:14.702603 11300 net.cpp:425] inception_4a/output <- inception_4a/pool_proj
I0403 14:55:14.702625 11300 net.cpp:399] inception_4a/output -> inception_4a/output
I0403 14:55:14.702680 11300 net.cpp:141] Setting up inception_4a/output
I0403 14:55:14.702714 11300 net.cpp:148] Top shape: 24 512 14 14 (2408448)
I0403 14:55:14.702735 11300 net.cpp:156] Memory required for data: 896545824
I0403 14:55:14.702755 11300 layer_factory.hpp:77] Creating layer inception_4a/output_inception_4a/output_0_split
I0403 14:55:14.702778 11300 net.cpp:91] Creating Layer inception_4a/output_inception_4a/output_0_split
I0403 14:55:14.702800 11300 net.cpp:425] inception_4a/output_inception_4a/output_0_split <- inception_4a/output
I0403 14:55:14.702826 11300 net.cpp:399] inception_4a/output_inception_4a/output_0_split -> inception_4a/output_inception_4a/output_0_split_0
I0403 14:55:14.702853 11300 net.cpp:399] inception_4a/output_inception_4a/output_0_split -> inception_4a/output_inception_4a/output_0_split_1
I0403 14:55:14.702880 11300 net.cpp:399] inception_4a/output_inception_4a/output_0_split -> inception_4a/output_inception_4a/output_0_split_2
I0403 14:55:14.702908 11300 net.cpp:399] inception_4a/output_inception_4a/output_0_split -> inception_4a/output_inception_4a/output_0_split_3
I0403 14:55:14.702934 11300 net.cpp:399] inception_4a/output_inception_4a/output_0_split -> inception_4a/output_inception_4a/output_0_split_4
I0403 14:55:14.703047 11300 net.cpp:141] Setting up inception_4a/output_inception_4a/output_0_split
I0403 14:55:14.703078 11300 net.cpp:148] Top shape: 24 512 14 14 (2408448)
I0403 14:55:14.703101 11300 net.cpp:148] Top shape: 24 512 14 14 (2408448)
I0403 14:55:14.703135 11300 net.cpp:148] Top shape: 24 512 14 14 (2408448)
I0403 14:55:14.703162 11300 net.cpp:148] Top shape: 24 512 14 14 (2408448)
I0403 14:55:14.703184 11300 net.cpp:148] Top shape: 24 512 14 14 (2408448)
I0403 14:55:14.703205 11300 net.cpp:156] Memory required for data: 944714784
I0403 14:55:14.703224 11300 layer_factory.hpp:77] Creating layer loss1/ave_pool
I0403 14:55:14.703248 11300 net.cpp:91] Creating Layer loss1/ave_pool
I0403 14:55:14.703269 11300 net.cpp:425] loss1/ave_pool <- inception_4a/output_inception_4a/output_0_split_0
I0403 14:55:14.703296 11300 net.cpp:399] loss1/ave_pool -> loss1/ave_pool
I0403 14:55:14.703554 11300 net.cpp:141] Setting up loss1/ave_pool
I0403 14:55:14.703588 11300 net.cpp:148] Top shape: 24 512 4 4 (196608)
I0403 14:55:14.703608 11300 net.cpp:156] Memory required for data: 945501216
I0403 14:55:14.703627 11300 layer_factory.hpp:77] Creating layer loss1/conv
I0403 14:55:14.703655 11300 net.cpp:91] Creating Layer loss1/conv
I0403 14:55:14.703678 11300 net.cpp:425] loss1/conv <- loss1/ave_pool
I0403 14:55:14.703706 11300 net.cpp:399] loss1/conv -> loss1/conv
I0403 14:55:14.705453 11300 net.cpp:141] Setting up loss1/conv
I0403 14:55:14.705489 11300 net.cpp:148] Top shape: 24 128 4 4 (49152)
I0403 14:55:14.705528 11300 net.cpp:156] Memory required for data: 945697824
I0403 14:55:14.705554 11300 layer_factory.hpp:77] Creating layer loss1/relu_conv
I0403 14:55:14.705580 11300 net.cpp:91] Creating Layer loss1/relu_conv
I0403 14:55:14.705602 11300 net.cpp:425] loss1/relu_conv <- loss1/conv
I0403 14:55:14.705626 11300 net.cpp:386] loss1/relu_conv -> loss1/conv (in-place)
I0403 14:55:14.705972 11300 net.cpp:141] Setting up loss1/relu_conv
I0403 14:55:14.706007 11300 net.cpp:148] Top shape: 24 128 4 4 (49152)
I0403 14:55:14.706025 11300 net.cpp:156] Memory required for data: 945894432
I0403 14:55:14.706045 11300 layer_factory.hpp:77] Creating layer loss1/fc
I0403 14:55:14.706079 11300 net.cpp:91] Creating Layer loss1/fc
I0403 14:55:14.706102 11300 net.cpp:425] loss1/fc <- loss1/conv
I0403 14:55:14.706135 11300 net.cpp:399] loss1/fc -> loss1/fc
I0403 14:55:14.727843 11300 net.cpp:141] Setting up loss1/fc
I0403 14:55:14.727916 11300 net.cpp:148] Top shape: 24 1024 (24576)
I0403 14:55:14.727936 11300 net.cpp:156] Memory required for data: 945992736
I0403 14:55:14.727962 11300 layer_factory.hpp:77] Creating layer loss1/relu_fc
I0403 14:55:14.727988 11300 net.cpp:91] Creating Layer loss1/relu_fc
I0403 14:55:14.728013 11300 net.cpp:425] loss1/relu_fc <- loss1/fc
I0403 14:55:14.728040 11300 net.cpp:386] loss1/relu_fc -> loss1/fc (in-place)
I0403 14:55:14.728314 11300 net.cpp:141] Setting up loss1/relu_fc
I0403 14:55:14.728350 11300 net.cpp:148] Top shape: 24 1024 (24576)
I0403 14:55:14.728370 11300 net.cpp:156] Memory required for data: 946091040
I0403 14:55:14.728391 11300 layer_factory.hpp:77] Creating layer loss1/drop_fc
I0403 14:55:14.728426 11300 net.cpp:91] Creating Layer loss1/drop_fc
I0403 14:55:14.728449 11300 net.cpp:425] loss1/drop_fc <- loss1/fc
I0403 14:55:14.728473 11300 net.cpp:386] loss1/drop_fc -> loss1/fc (in-place)
I0403 14:55:14.728543 11300 net.cpp:141] Setting up loss1/drop_fc
I0403 14:55:14.728574 11300 net.cpp:148] Top shape: 24 1024 (24576)
I0403 14:55:14.728593 11300 net.cpp:156] Memory required for data: 946189344
I0403 14:55:14.728615 11300 layer_factory.hpp:77] Creating layer loss1/classifier_plantvillage
I0403 14:55:14.728638 11300 net.cpp:91] Creating Layer loss1/classifier_plantvillage
I0403 14:55:14.728659 11300 net.cpp:425] loss1/classifier_plantvillage <- loss1/fc
I0403 14:55:14.728688 11300 net.cpp:399] loss1/classifier_plantvillage -> loss1/classifier_plantvillage
I0403 14:55:14.729821 11300 net.cpp:141] Setting up loss1/classifier_plantvillage
I0403 14:55:14.729857 11300 net.cpp:148] Top shape: 24 38 (912)
I0403 14:55:14.729877 11300 net.cpp:156] Memory required for data: 946192992
I0403 14:55:14.729902 11300 layer_factory.hpp:77] Creating layer loss1/classifier_plantvillage_loss1/classifier_plantvillage_0_split
I0403 14:55:14.729928 11300 net.cpp:91] Creating Layer loss1/classifier_plantvillage_loss1/classifier_plantvillage_0_split
I0403 14:55:14.729951 11300 net.cpp:425] loss1/classifier_plantvillage_loss1/classifier_plantvillage_0_split <- loss1/classifier_plantvillage
I0403 14:55:14.729975 11300 net.cpp:399] loss1/classifier_plantvillage_loss1/classifier_plantvillage_0_split -> loss1/classifier_plantvillage_loss1/classifier_plantvillage_0_split_0
I0403 14:55:14.730002 11300 net.cpp:399] loss1/classifier_plantvillage_loss1/classifier_plantvillage_0_split -> loss1/classifier_plantvillage_loss1/classifier_plantvillage_0_split_1
I0403 14:55:14.730028 11300 net.cpp:399] loss1/classifier_plantvillage_loss1/classifier_plantvillage_0_split -> loss1/classifier_plantvillage_loss1/classifier_plantvillage_0_split_2
I0403 14:55:14.730114 11300 net.cpp:141] Setting up loss1/classifier_plantvillage_loss1/classifier_plantvillage_0_split
I0403 14:55:14.730149 11300 net.cpp:148] Top shape: 24 38 (912)
I0403 14:55:14.730171 11300 net.cpp:148] Top shape: 24 38 (912)
I0403 14:55:14.730191 11300 net.cpp:148] Top shape: 24 38 (912)
I0403 14:55:14.730211 11300 net.cpp:156] Memory required for data: 946203936
I0403 14:55:14.730229 11300 layer_factory.hpp:77] Creating layer inception_4b/1x1
I0403 14:55:14.730262 11300 net.cpp:91] Creating Layer inception_4b/1x1
I0403 14:55:14.730314 11300 net.cpp:425] inception_4b/1x1 <- inception_4a/output_inception_4a/output_0_split_1
I0403 14:55:14.730340 11300 net.cpp:399] inception_4b/1x1 -> inception_4b/1x1
I0403 14:55:14.732403 11300 net.cpp:141] Setting up inception_4b/1x1
I0403 14:55:14.732439 11300 net.cpp:148] Top shape: 24 160 14 14 (752640)
I0403 14:55:14.732460 11300 net.cpp:156] Memory required for data: 949214496
I0403 14:55:14.732483 11300 layer_factory.hpp:77] Creating layer inception_4b/relu_1x1
I0403 14:55:14.732509 11300 net.cpp:91] Creating Layer inception_4b/relu_1x1
I0403 14:55:14.732532 11300 net.cpp:425] inception_4b/relu_1x1 <- inception_4b/1x1
I0403 14:55:14.732555 11300 net.cpp:386] inception_4b/relu_1x1 -> inception_4b/1x1 (in-place)
I0403 14:55:14.732780 11300 net.cpp:141] Setting up inception_4b/relu_1x1
I0403 14:55:14.732813 11300 net.cpp:148] Top shape: 24 160 14 14 (752640)
I0403 14:55:14.732832 11300 net.cpp:156] Memory required for data: 952225056
I0403 14:55:14.732852 11300 layer_factory.hpp:77] Creating layer inception_4b/3x3_reduce
I0403 14:55:14.732882 11300 net.cpp:91] Creating Layer inception_4b/3x3_reduce
I0403 14:55:14.732904 11300 net.cpp:425] inception_4b/3x3_reduce <- inception_4a/output_inception_4a/output_0_split_2
I0403 14:55:14.732933 11300 net.cpp:399] inception_4b/3x3_reduce -> inception_4b/3x3_reduce
I0403 14:55:14.734628 11300 net.cpp:141] Setting up inception_4b/3x3_reduce
I0403 14:55:14.734664 11300 net.cpp:148] Top shape: 24 112 14 14 (526848)
I0403 14:55:14.734684 11300 net.cpp:156] Memory required for data: 954332448
I0403 14:55:14.734707 11300 layer_factory.hpp:77] Creating layer inception_4b/relu_3x3_reduce
I0403 14:55:14.734731 11300 net.cpp:91] Creating Layer inception_4b/relu_3x3_reduce
I0403 14:55:14.734753 11300 net.cpp:425] inception_4b/relu_3x3_reduce <- inception_4b/3x3_reduce
I0403 14:55:14.734781 11300 net.cpp:386] inception_4b/relu_3x3_reduce -> inception_4b/3x3_reduce (in-place)
I0403 14:55:14.735133 11300 net.cpp:141] Setting up inception_4b/relu_3x3_reduce
I0403 14:55:14.735167 11300 net.cpp:148] Top shape: 24 112 14 14 (526848)
I0403 14:55:14.735186 11300 net.cpp:156] Memory required for data: 956439840
I0403 14:55:14.735208 11300 layer_factory.hpp:77] Creating layer inception_4b/3x3
I0403 14:55:14.735237 11300 net.cpp:91] Creating Layer inception_4b/3x3
I0403 14:55:14.735260 11300 net.cpp:425] inception_4b/3x3 <- inception_4b/3x3_reduce
I0403 14:55:14.735290 11300 net.cpp:399] inception_4b/3x3 -> inception_4b/3x3
I0403 14:55:14.738914 11300 net.cpp:141] Setting up inception_4b/3x3
I0403 14:55:14.738950 11300 net.cpp:148] Top shape: 24 224 14 14 (1053696)
I0403 14:55:14.738970 11300 net.cpp:156] Memory required for data: 960654624
I0403 14:55:14.738996 11300 layer_factory.hpp:77] Creating layer inception_4b/relu_3x3
I0403 14:55:14.739022 11300 net.cpp:91] Creating Layer inception_4b/relu_3x3
I0403 14:55:14.739043 11300 net.cpp:425] inception_4b/relu_3x3 <- inception_4b/3x3
I0403 14:55:14.739066 11300 net.cpp:386] inception_4b/relu_3x3 -> inception_4b/3x3 (in-place)
I0403 14:55:14.739298 11300 net.cpp:141] Setting up inception_4b/relu_3x3
I0403 14:55:14.739334 11300 net.cpp:148] Top shape: 24 224 14 14 (1053696)
I0403 14:55:14.739356 11300 net.cpp:156] Memory required for data: 964869408
I0403 14:55:14.739377 11300 layer_factory.hpp:77] Creating layer inception_4b/5x5_reduce
I0403 14:55:14.739405 11300 net.cpp:91] Creating Layer inception_4b/5x5_reduce
I0403 14:55:14.739429 11300 net.cpp:425] inception_4b/5x5_reduce <- inception_4a/output_inception_4a/output_0_split_3
I0403 14:55:14.739455 11300 net.cpp:399] inception_4b/5x5_reduce -> inception_4b/5x5_reduce
I0403 14:55:14.740782 11300 net.cpp:141] Setting up inception_4b/5x5_reduce
I0403 14:55:14.740821 11300 net.cpp:148] Top shape: 24 24 14 14 (112896)
I0403 14:55:14.740842 11300 net.cpp:156] Memory required for data: 965320992
I0403 14:55:14.740867 11300 layer_factory.hpp:77] Creating layer inception_4b/relu_5x5_reduce
I0403 14:55:14.740891 11300 net.cpp:91] Creating Layer inception_4b/relu_5x5_reduce
I0403 14:55:14.740931 11300 net.cpp:425] inception_4b/relu_5x5_reduce <- inception_4b/5x5_reduce
I0403 14:55:14.740957 11300 net.cpp:386] inception_4b/relu_5x5_reduce -> inception_4b/5x5_reduce (in-place)
I0403 14:55:14.741190 11300 net.cpp:141] Setting up inception_4b/relu_5x5_reduce
I0403 14:55:14.741224 11300 net.cpp:148] Top shape: 24 24 14 14 (112896)
I0403 14:55:14.741243 11300 net.cpp:156] Memory required for data: 965772576
I0403 14:55:14.741264 11300 layer_factory.hpp:77] Creating layer inception_4b/5x5
I0403 14:55:14.741293 11300 net.cpp:91] Creating Layer inception_4b/5x5
I0403 14:55:14.741315 11300 net.cpp:425] inception_4b/5x5 <- inception_4b/5x5_reduce
I0403 14:55:14.741343 11300 net.cpp:399] inception_4b/5x5 -> inception_4b/5x5
I0403 14:55:14.742841 11300 net.cpp:141] Setting up inception_4b/5x5
I0403 14:55:14.742876 11300 net.cpp:148] Top shape: 24 64 14 14 (301056)
I0403 14:55:14.742895 11300 net.cpp:156] Memory required for data: 966976800
I0403 14:55:14.742919 11300 layer_factory.hpp:77] Creating layer inception_4b/relu_5x5
I0403 14:55:14.742945 11300 net.cpp:91] Creating Layer inception_4b/relu_5x5
I0403 14:55:14.742969 11300 net.cpp:425] inception_4b/relu_5x5 <- inception_4b/5x5
I0403 14:55:14.742991 11300 net.cpp:386] inception_4b/relu_5x5 -> inception_4b/5x5 (in-place)
I0403 14:55:14.743352 11300 net.cpp:141] Setting up inception_4b/relu_5x5
I0403 14:55:14.743386 11300 net.cpp:148] Top shape: 24 64 14 14 (301056)
I0403 14:55:14.743407 11300 net.cpp:156] Memory required for data: 968181024
I0403 14:55:14.743428 11300 layer_factory.hpp:77] Creating layer inception_4b/pool
I0403 14:55:14.743458 11300 net.cpp:91] Creating Layer inception_4b/pool
I0403 14:55:14.743480 11300 net.cpp:425] inception_4b/pool <- inception_4a/output_inception_4a/output_0_split_4
I0403 14:55:14.743510 11300 net.cpp:399] inception_4b/pool -> inception_4b/pool
I0403 14:55:14.743593 11300 net.cpp:141] Setting up inception_4b/pool
I0403 14:55:14.743624 11300 net.cpp:148] Top shape: 24 512 14 14 (2408448)
I0403 14:55:14.743645 11300 net.cpp:156] Memory required for data: 977814816
I0403 14:55:14.743666 11300 layer_factory.hpp:77] Creating layer inception_4b/pool_proj
I0403 14:55:14.743695 11300 net.cpp:91] Creating Layer inception_4b/pool_proj
I0403 14:55:14.743717 11300 net.cpp:425] inception_4b/pool_proj <- inception_4b/pool
I0403 14:55:14.743744 11300 net.cpp:399] inception_4b/pool_proj -> inception_4b/pool_proj
I0403 14:55:14.745223 11300 net.cpp:141] Setting up inception_4b/pool_proj
I0403 14:55:14.745261 11300 net.cpp:148] Top shape: 24 64 14 14 (301056)
I0403 14:55:14.745283 11300 net.cpp:156] Memory required for data: 979019040
I0403 14:55:14.745308 11300 layer_factory.hpp:77] Creating layer inception_4b/relu_pool_proj
I0403 14:55:14.745332 11300 net.cpp:91] Creating Layer inception_4b/relu_pool_proj
I0403 14:55:14.745353 11300 net.cpp:425] inception_4b/relu_pool_proj <- inception_4b/pool_proj
I0403 14:55:14.745379 11300 net.cpp:386] inception_4b/relu_pool_proj -> inception_4b/pool_proj (in-place)
I0403 14:55:14.745602 11300 net.cpp:141] Setting up inception_4b/relu_pool_proj
I0403 14:55:14.745635 11300 net.cpp:148] Top shape: 24 64 14 14 (301056)
I0403 14:55:14.745654 11300 net.cpp:156] Memory required for data: 980223264
I0403 14:55:14.745673 11300 layer_factory.hpp:77] Creating layer inception_4b/output
I0403 14:55:14.745697 11300 net.cpp:91] Creating Layer inception_4b/output
I0403 14:55:14.745718 11300 net.cpp:425] inception_4b/output <- inception_4b/1x1
I0403 14:55:14.745738 11300 net.cpp:425] inception_4b/output <- inception_4b/3x3
I0403 14:55:14.745760 11300 net.cpp:425] inception_4b/output <- inception_4b/5x5
I0403 14:55:14.745782 11300 net.cpp:425] inception_4b/output <- inception_4b/pool_proj
I0403 14:55:14.745808 11300 net.cpp:399] inception_4b/output -> inception_4b/output
I0403 14:55:14.745868 11300 net.cpp:141] Setting up inception_4b/output
I0403 14:55:14.745903 11300 net.cpp:148] Top shape: 24 512 14 14 (2408448)
I0403 14:55:14.745923 11300 net.cpp:156] Memory required for data: 989857056
I0403 14:55:14.745959 11300 layer_factory.hpp:77] Creating layer inception_4b/output_inception_4b/output_0_split
I0403 14:55:14.745985 11300 net.cpp:91] Creating Layer inception_4b/output_inception_4b/output_0_split
I0403 14:55:14.746004 11300 net.cpp:425] inception_4b/output_inception_4b/output_0_split <- inception_4b/output
I0403 14:55:14.746027 11300 net.cpp:399] inception_4b/output_inception_4b/output_0_split -> inception_4b/output_inception_4b/output_0_split_0
I0403 14:55:14.746057 11300 net.cpp:399] inception_4b/output_inception_4b/output_0_split -> inception_4b/output_inception_4b/output_0_split_1
I0403 14:55:14.746084 11300 net.cpp:399] inception_4b/output_inception_4b/output_0_split -> inception_4b/output_inception_4b/output_0_split_2
I0403 14:55:14.746111 11300 net.cpp:399] inception_4b/output_inception_4b/output_0_split -> inception_4b/output_inception_4b/output_0_split_3
I0403 14:55:14.746227 11300 net.cpp:141] Setting up inception_4b/output_inception_4b/output_0_split
I0403 14:55:14.746258 11300 net.cpp:148] Top shape: 24 512 14 14 (2408448)
I0403 14:55:14.746279 11300 net.cpp:148] Top shape: 24 512 14 14 (2408448)
I0403 14:55:14.746299 11300 net.cpp:148] Top shape: 24 512 14 14 (2408448)
I0403 14:55:14.746320 11300 net.cpp:148] Top shape: 24 512 14 14 (2408448)
I0403 14:55:14.746338 11300 net.cpp:156] Memory required for data: 1028392224
I0403 14:55:14.746358 11300 layer_factory.hpp:77] Creating layer inception_4c/1x1
I0403 14:55:14.746388 11300 net.cpp:91] Creating Layer inception_4c/1x1
I0403 14:55:14.746410 11300 net.cpp:425] inception_4c/1x1 <- inception_4b/output_inception_4b/output_0_split_0
I0403 14:55:14.746435 11300 net.cpp:399] inception_4c/1x1 -> inception_4c/1x1
I0403 14:55:14.748199 11300 net.cpp:141] Setting up inception_4c/1x1
I0403 14:55:14.748234 11300 net.cpp:148] Top shape: 24 128 14 14 (602112)
I0403 14:55:14.748255 11300 net.cpp:156] Memory required for data: 1030800672
I0403 14:55:14.748280 11300 layer_factory.hpp:77] Creating layer inception_4c/relu_1x1
I0403 14:55:14.748303 11300 net.cpp:91] Creating Layer inception_4c/relu_1x1
I0403 14:55:14.748324 11300 net.cpp:425] inception_4c/relu_1x1 <- inception_4c/1x1
I0403 14:55:14.748349 11300 net.cpp:386] inception_4c/relu_1x1 -> inception_4c/1x1 (in-place)
I0403 14:55:14.748574 11300 net.cpp:141] Setting up inception_4c/relu_1x1
I0403 14:55:14.748607 11300 net.cpp:148] Top shape: 24 128 14 14 (602112)
I0403 14:55:14.748626 11300 net.cpp:156] Memory required for data: 1033209120
I0403 14:55:14.748646 11300 layer_factory.hpp:77] Creating layer inception_4c/3x3_reduce
I0403 14:55:14.748674 11300 net.cpp:91] Creating Layer inception_4c/3x3_reduce
I0403 14:55:14.748697 11300 net.cpp:425] inception_4c/3x3_reduce <- inception_4b/output_inception_4b/output_0_split_1
I0403 14:55:14.748728 11300 net.cpp:399] inception_4c/3x3_reduce -> inception_4c/3x3_reduce
I0403 14:55:14.751085 11300 net.cpp:141] Setting up inception_4c/3x3_reduce
I0403 14:55:14.751138 11300 net.cpp:148] Top shape: 24 128 14 14 (602112)
I0403 14:55:14.751162 11300 net.cpp:156] Memory required for data: 1035617568
I0403 14:55:14.751186 11300 layer_factory.hpp:77] Creating layer inception_4c/relu_3x3_reduce
I0403 14:55:14.751214 11300 net.cpp:91] Creating Layer inception_4c/relu_3x3_reduce
I0403 14:55:14.751233 11300 net.cpp:425] inception_4c/relu_3x3_reduce <- inception_4c/3x3_reduce
I0403 14:55:14.751257 11300 net.cpp:386] inception_4c/relu_3x3_reduce -> inception_4c/3x3_reduce (in-place)
I0403 14:55:14.751613 11300 net.cpp:141] Setting up inception_4c/relu_3x3_reduce
I0403 14:55:14.751651 11300 net.cpp:148] Top shape: 24 128 14 14 (602112)
I0403 14:55:14.751672 11300 net.cpp:156] Memory required for data: 1038026016
I0403 14:55:14.751693 11300 layer_factory.hpp:77] Creating layer inception_4c/3x3
I0403 14:55:14.751719 11300 net.cpp:91] Creating Layer inception_4c/3x3
I0403 14:55:14.751742 11300 net.cpp:425] inception_4c/3x3 <- inception_4c/3x3_reduce
I0403 14:55:14.751770 11300 net.cpp:399] inception_4c/3x3 -> inception_4c/3x3
I0403 14:55:14.756211 11300 net.cpp:141] Setting up inception_4c/3x3
I0403 14:55:14.756274 11300 net.cpp:148] Top shape: 24 256 14 14 (1204224)
I0403 14:55:14.756297 11300 net.cpp:156] Memory required for data: 1042842912
I0403 14:55:14.756340 11300 layer_factory.hpp:77] Creating layer inception_4c/relu_3x3
I0403 14:55:14.756368 11300 net.cpp:91] Creating Layer inception_4c/relu_3x3
I0403 14:55:14.756391 11300 net.cpp:425] inception_4c/relu_3x3 <- inception_4c/3x3
I0403 14:55:14.756417 11300 net.cpp:386] inception_4c/relu_3x3 -> inception_4c/3x3 (in-place)
I0403 14:55:14.756644 11300 net.cpp:141] Setting up inception_4c/relu_3x3
I0403 14:55:14.756680 11300 net.cpp:148] Top shape: 24 256 14 14 (1204224)
I0403 14:55:14.756700 11300 net.cpp:156] Memory required for data: 1047659808
I0403 14:55:14.756721 11300 layer_factory.hpp:77] Creating layer inception_4c/5x5_reduce
I0403 14:55:14.756750 11300 net.cpp:91] Creating Layer inception_4c/5x5_reduce
I0403 14:55:14.756775 11300 net.cpp:425] inception_4c/5x5_reduce <- inception_4b/output_inception_4b/output_0_split_2
I0403 14:55:14.756800 11300 net.cpp:399] inception_4c/5x5_reduce -> inception_4c/5x5_reduce
I0403 14:55:14.758150 11300 net.cpp:141] Setting up inception_4c/5x5_reduce
I0403 14:55:14.758193 11300 net.cpp:148] Top shape: 24 24 14 14 (112896)
I0403 14:55:14.758215 11300 net.cpp:156] Memory required for data: 1048111392
I0403 14:55:14.758239 11300 layer_factory.hpp:77] Creating layer inception_4c/relu_5x5_reduce
I0403 14:55:14.758263 11300 net.cpp:91] Creating Layer inception_4c/relu_5x5_reduce
I0403 14:55:14.758285 11300 net.cpp:425] inception_4c/relu_5x5_reduce <- inception_4c/5x5_reduce
I0403 14:55:14.758308 11300 net.cpp:386] inception_4c/relu_5x5_reduce -> inception_4c/5x5_reduce (in-place)
I0403 14:55:14.758541 11300 net.cpp:141] Setting up inception_4c/relu_5x5_reduce
I0403 14:55:14.758574 11300 net.cpp:148] Top shape: 24 24 14 14 (112896)
I0403 14:55:14.758594 11300 net.cpp:156] Memory required for data: 1048562976
I0403 14:55:14.758613 11300 layer_factory.hpp:77] Creating layer inception_4c/5x5
I0403 14:55:14.758642 11300 net.cpp:91] Creating Layer inception_4c/5x5
I0403 14:55:14.758666 11300 net.cpp:425] inception_4c/5x5 <- inception_4c/5x5_reduce
I0403 14:55:14.758693 11300 net.cpp:399] inception_4c/5x5 -> inception_4c/5x5
I0403 14:55:14.760241 11300 net.cpp:141] Setting up inception_4c/5x5
I0403 14:55:14.760277 11300 net.cpp:148] Top shape: 24 64 14 14 (301056)
I0403 14:55:14.760298 11300 net.cpp:156] Memory required for data: 1049767200
I0403 14:55:14.760323 11300 layer_factory.hpp:77] Creating layer inception_4c/relu_5x5
I0403 14:55:14.760346 11300 net.cpp:91] Creating Layer inception_4c/relu_5x5
I0403 14:55:14.760367 11300 net.cpp:425] inception_4c/relu_5x5 <- inception_4c/5x5
I0403 14:55:14.760392 11300 net.cpp:386] inception_4c/relu_5x5 -> inception_4c/5x5 (in-place)
I0403 14:55:14.760746 11300 net.cpp:141] Setting up inception_4c/relu_5x5
I0403 14:55:14.760781 11300 net.cpp:148] Top shape: 24 64 14 14 (301056)
I0403 14:55:14.760800 11300 net.cpp:156] Memory required for data: 1050971424
I0403 14:55:14.760820 11300 layer_factory.hpp:77] Creating layer inception_4c/pool
I0403 14:55:14.760843 11300 net.cpp:91] Creating Layer inception_4c/pool
I0403 14:55:14.760864 11300 net.cpp:425] inception_4c/pool <- inception_4b/output_inception_4b/output_0_split_3
I0403 14:55:14.760891 11300 net.cpp:399] inception_4c/pool -> inception_4c/pool
I0403 14:55:14.760977 11300 net.cpp:141] Setting up inception_4c/pool
I0403 14:55:14.761008 11300 net.cpp:148] Top shape: 24 512 14 14 (2408448)
I0403 14:55:14.761028 11300 net.cpp:156] Memory required for data: 1060605216
I0403 14:55:14.761047 11300 layer_factory.hpp:77] Creating layer inception_4c/pool_proj
I0403 14:55:14.761077 11300 net.cpp:91] Creating Layer inception_4c/pool_proj
I0403 14:55:14.761099 11300 net.cpp:425] inception_4c/pool_proj <- inception_4c/pool
I0403 14:55:14.761128 11300 net.cpp:399] inception_4c/pool_proj -> inception_4c/pool_proj
I0403 14:55:14.762632 11300 net.cpp:141] Setting up inception_4c/pool_proj
I0403 14:55:14.762670 11300 net.cpp:148] Top shape: 24 64 14 14 (301056)
I0403 14:55:14.762712 11300 net.cpp:156] Memory required for data: 1061809440
I0403 14:55:14.762737 11300 layer_factory.hpp:77] Creating layer inception_4c/relu_pool_proj
I0403 14:55:14.762763 11300 net.cpp:91] Creating Layer inception_4c/relu_pool_proj
I0403 14:55:14.762784 11300 net.cpp:425] inception_4c/relu_pool_proj <- inception_4c/pool_proj
I0403 14:55:14.762809 11300 net.cpp:386] inception_4c/relu_pool_proj -> inception_4c/pool_proj (in-place)
I0403 14:55:14.763036 11300 net.cpp:141] Setting up inception_4c/relu_pool_proj
I0403 14:55:14.763068 11300 net.cpp:148] Top shape: 24 64 14 14 (301056)
I0403 14:55:14.763087 11300 net.cpp:156] Memory required for data: 1063013664
I0403 14:55:14.763108 11300 layer_factory.hpp:77] Creating layer inception_4c/output
I0403 14:55:14.763142 11300 net.cpp:91] Creating Layer inception_4c/output
I0403 14:55:14.763167 11300 net.cpp:425] inception_4c/output <- inception_4c/1x1
I0403 14:55:14.763190 11300 net.cpp:425] inception_4c/output <- inception_4c/3x3
I0403 14:55:14.763211 11300 net.cpp:425] inception_4c/output <- inception_4c/5x5
I0403 14:55:14.763233 11300 net.cpp:425] inception_4c/output <- inception_4c/pool_proj
I0403 14:55:14.763259 11300 net.cpp:399] inception_4c/output -> inception_4c/output
I0403 14:55:14.763319 11300 net.cpp:141] Setting up inception_4c/output
I0403 14:55:14.763353 11300 net.cpp:148] Top shape: 24 512 14 14 (2408448)
I0403 14:55:14.763375 11300 net.cpp:156] Memory required for data: 1072647456
I0403 14:55:14.763393 11300 layer_factory.hpp:77] Creating layer inception_4c/output_inception_4c/output_0_split
I0403 14:55:14.763417 11300 net.cpp:91] Creating Layer inception_4c/output_inception_4c/output_0_split
I0403 14:55:14.763438 11300 net.cpp:425] inception_4c/output_inception_4c/output_0_split <- inception_4c/output
I0403 14:55:14.763461 11300 net.cpp:399] inception_4c/output_inception_4c/output_0_split -> inception_4c/output_inception_4c/output_0_split_0
I0403 14:55:14.763490 11300 net.cpp:399] inception_4c/output_inception_4c/output_0_split -> inception_4c/output_inception_4c/output_0_split_1
I0403 14:55:14.763519 11300 net.cpp:399] inception_4c/output_inception_4c/output_0_split -> inception_4c/output_inception_4c/output_0_split_2
I0403 14:55:14.763545 11300 net.cpp:399] inception_4c/output_inception_4c/output_0_split -> inception_4c/output_inception_4c/output_0_split_3
I0403 14:55:14.763653 11300 net.cpp:141] Setting up inception_4c/output_inception_4c/output_0_split
I0403 14:55:14.763684 11300 net.cpp:148] Top shape: 24 512 14 14 (2408448)
I0403 14:55:14.763705 11300 net.cpp:148] Top shape: 24 512 14 14 (2408448)
I0403 14:55:14.763725 11300 net.cpp:148] Top shape: 24 512 14 14 (2408448)
I0403 14:55:14.763746 11300 net.cpp:148] Top shape: 24 512 14 14 (2408448)
I0403 14:55:14.763766 11300 net.cpp:156] Memory required for data: 1111182624
I0403 14:55:14.763784 11300 layer_factory.hpp:77] Creating layer inception_4d/1x1
I0403 14:55:14.763813 11300 net.cpp:91] Creating Layer inception_4d/1x1
I0403 14:55:14.763835 11300 net.cpp:425] inception_4d/1x1 <- inception_4c/output_inception_4c/output_0_split_0
I0403 14:55:14.763864 11300 net.cpp:399] inception_4d/1x1 -> inception_4d/1x1
I0403 14:55:14.765585 11300 net.cpp:141] Setting up inception_4d/1x1
I0403 14:55:14.765621 11300 net.cpp:148] Top shape: 24 112 14 14 (526848)
I0403 14:55:14.765641 11300 net.cpp:156] Memory required for data: 1113290016
I0403 14:55:14.765666 11300 layer_factory.hpp:77] Creating layer inception_4d/relu_1x1
I0403 14:55:14.765692 11300 net.cpp:91] Creating Layer inception_4d/relu_1x1
I0403 14:55:14.765715 11300 net.cpp:425] inception_4d/relu_1x1 <- inception_4d/1x1
I0403 14:55:14.765738 11300 net.cpp:386] inception_4d/relu_1x1 -> inception_4d/1x1 (in-place)
I0403 14:55:14.765965 11300 net.cpp:141] Setting up inception_4d/relu_1x1
I0403 14:55:14.766000 11300 net.cpp:148] Top shape: 24 112 14 14 (526848)
I0403 14:55:14.766021 11300 net.cpp:156] Memory required for data: 1115397408
I0403 14:55:14.766041 11300 layer_factory.hpp:77] Creating layer inception_4d/3x3_reduce
I0403 14:55:14.766086 11300 net.cpp:91] Creating Layer inception_4d/3x3_reduce
I0403 14:55:14.766111 11300 net.cpp:425] inception_4d/3x3_reduce <- inception_4c/output_inception_4c/output_0_split_1
I0403 14:55:14.766144 11300 net.cpp:399] inception_4d/3x3_reduce -> inception_4d/3x3_reduce
I0403 14:55:14.768012 11300 net.cpp:141] Setting up inception_4d/3x3_reduce
I0403 14:55:14.768046 11300 net.cpp:148] Top shape: 24 144 14 14 (677376)
I0403 14:55:14.768067 11300 net.cpp:156] Memory required for data: 1118106912
I0403 14:55:14.768090 11300 layer_factory.hpp:77] Creating layer inception_4d/relu_3x3_reduce
I0403 14:55:14.768117 11300 net.cpp:91] Creating Layer inception_4d/relu_3x3_reduce
I0403 14:55:14.768146 11300 net.cpp:425] inception_4d/relu_3x3_reduce <- inception_4d/3x3_reduce
I0403 14:55:14.768170 11300 net.cpp:386] inception_4d/relu_3x3_reduce -> inception_4d/3x3_reduce (in-place)
I0403 14:55:14.768522 11300 net.cpp:141] Setting up inception_4d/relu_3x3_reduce
I0403 14:55:14.768556 11300 net.cpp:148] Top shape: 24 144 14 14 (677376)
I0403 14:55:14.768575 11300 net.cpp:156] Memory required for data: 1120816416
I0403 14:55:14.768595 11300 layer_factory.hpp:77] Creating layer inception_4d/3x3
I0403 14:55:14.768625 11300 net.cpp:91] Creating Layer inception_4d/3x3
I0403 14:55:14.768648 11300 net.cpp:425] inception_4d/3x3 <- inception_4d/3x3_reduce
I0403 14:55:14.768676 11300 net.cpp:399] inception_4d/3x3 -> inception_4d/3x3
I0403 14:55:14.773917 11300 net.cpp:141] Setting up inception_4d/3x3
I0403 14:55:14.773954 11300 net.cpp:148] Top shape: 24 288 14 14 (1354752)
I0403 14:55:14.773975 11300 net.cpp:156] Memory required for data: 1126235424
I0403 14:55:14.773999 11300 layer_factory.hpp:77] Creating layer inception_4d/relu_3x3
I0403 14:55:14.774027 11300 net.cpp:91] Creating Layer inception_4d/relu_3x3
I0403 14:55:14.774051 11300 net.cpp:425] inception_4d/relu_3x3 <- inception_4d/3x3
I0403 14:55:14.774075 11300 net.cpp:386] inception_4d/relu_3x3 -> inception_4d/3x3 (in-place)
I0403 14:55:14.774312 11300 net.cpp:141] Setting up inception_4d/relu_3x3
I0403 14:55:14.774358 11300 net.cpp:148] Top shape: 24 288 14 14 (1354752)
I0403 14:55:14.774379 11300 net.cpp:156] Memory required for data: 1131654432
I0403 14:55:14.774408 11300 layer_factory.hpp:77] Creating layer inception_4d/5x5_reduce
I0403 14:55:14.774437 11300 net.cpp:91] Creating Layer inception_4d/5x5_reduce
I0403 14:55:14.774472 11300 net.cpp:425] inception_4d/5x5_reduce <- inception_4c/output_inception_4c/output_0_split_2
I0403 14:55:14.774497 11300 net.cpp:399] inception_4d/5x5_reduce -> inception_4d/5x5_reduce
I0403 14:55:14.775920 11300 net.cpp:141] Setting up inception_4d/5x5_reduce
I0403 14:55:14.775956 11300 net.cpp:148] Top shape: 24 32 14 14 (150528)
I0403 14:55:14.775977 11300 net.cpp:156] Memory required for data: 1132256544
I0403 14:55:14.776002 11300 layer_factory.hpp:77] Creating layer inception_4d/relu_5x5_reduce
I0403 14:55:14.776029 11300 net.cpp:91] Creating Layer inception_4d/relu_5x5_reduce
I0403 14:55:14.776053 11300 net.cpp:425] inception_4d/relu_5x5_reduce <- inception_4d/5x5_reduce
I0403 14:55:14.776077 11300 net.cpp:386] inception_4d/relu_5x5_reduce -> inception_4d/5x5_reduce (in-place)
I0403 14:55:14.776314 11300 net.cpp:141] Setting up inception_4d/relu_5x5_reduce
I0403 14:55:14.776361 11300 net.cpp:148] Top shape: 24 32 14 14 (150528)
I0403 14:55:14.776383 11300 net.cpp:156] Memory required for data: 1132858656
I0403 14:55:14.776412 11300 layer_factory.hpp:77] Creating layer inception_4d/5x5
I0403 14:55:14.776439 11300 net.cpp:91] Creating Layer inception_4d/5x5
I0403 14:55:14.776473 11300 net.cpp:425] inception_4d/5x5 <- inception_4d/5x5_reduce
I0403 14:55:14.776499 11300 net.cpp:399] inception_4d/5x5 -> inception_4d/5x5
I0403 14:55:14.778345 11300 net.cpp:141] Setting up inception_4d/5x5
I0403 14:55:14.778380 11300 net.cpp:148] Top shape: 24 64 14 14 (301056)
I0403 14:55:14.778411 11300 net.cpp:156] Memory required for data: 1134062880
I0403 14:55:14.778436 11300 layer_factory.hpp:77] Creating layer inception_4d/relu_5x5
I0403 14:55:14.778489 11300 net.cpp:91] Creating Layer inception_4d/relu_5x5
I0403 14:55:14.778512 11300 net.cpp:425] inception_4d/relu_5x5 <- inception_4d/5x5
I0403 14:55:14.778539 11300 net.cpp:386] inception_4d/relu_5x5 -> inception_4d/5x5 (in-place)
I0403 14:55:14.778928 11300 net.cpp:141] Setting up inception_4d/relu_5x5
I0403 14:55:14.778962 11300 net.cpp:148] Top shape: 24 64 14 14 (301056)
I0403 14:55:14.778983 11300 net.cpp:156] Memory required for data: 1135267104
I0403 14:55:14.779003 11300 layer_factory.hpp:77] Creating layer inception_4d/pool
I0403 14:55:14.779026 11300 net.cpp:91] Creating Layer inception_4d/pool
I0403 14:55:14.779048 11300 net.cpp:425] inception_4d/pool <- inception_4c/output_inception_4c/output_0_split_3
I0403 14:55:14.779075 11300 net.cpp:399] inception_4d/pool -> inception_4d/pool
I0403 14:55:14.779168 11300 net.cpp:141] Setting up inception_4d/pool
I0403 14:55:14.779201 11300 net.cpp:148] Top shape: 24 512 14 14 (2408448)
I0403 14:55:14.779219 11300 net.cpp:156] Memory required for data: 1144900896
I0403 14:55:14.779238 11300 layer_factory.hpp:77] Creating layer inception_4d/pool_proj
I0403 14:55:14.779269 11300 net.cpp:91] Creating Layer inception_4d/pool_proj
I0403 14:55:14.779292 11300 net.cpp:425] inception_4d/pool_proj <- inception_4d/pool
I0403 14:55:14.779319 11300 net.cpp:399] inception_4d/pool_proj -> inception_4d/pool_proj
I0403 14:55:14.781520 11300 net.cpp:141] Setting up inception_4d/pool_proj
I0403 14:55:14.781558 11300 net.cpp:148] Top shape: 24 64 14 14 (301056)
I0403 14:55:14.781579 11300 net.cpp:156] Memory required for data: 1146105120
I0403 14:55:14.781604 11300 layer_factory.hpp:77] Creating layer inception_4d/relu_pool_proj
I0403 14:55:14.781632 11300 net.cpp:91] Creating Layer inception_4d/relu_pool_proj
I0403 14:55:14.781656 11300 net.cpp:425] inception_4d/relu_pool_proj <- inception_4d/pool_proj
I0403 14:55:14.781679 11300 net.cpp:386] inception_4d/relu_pool_proj -> inception_4d/pool_proj (in-place)
I0403 14:55:14.781913 11300 net.cpp:141] Setting up inception_4d/relu_pool_proj
I0403 14:55:14.781949 11300 net.cpp:148] Top shape: 24 64 14 14 (301056)
I0403 14:55:14.781971 11300 net.cpp:156] Memory required for data: 1147309344
I0403 14:55:14.781991 11300 layer_factory.hpp:77] Creating layer inception_4d/output
I0403 14:55:14.782013 11300 net.cpp:91] Creating Layer inception_4d/output
I0403 14:55:14.782033 11300 net.cpp:425] inception_4d/output <- inception_4d/1x1
I0403 14:55:14.782054 11300 net.cpp:425] inception_4d/output <- inception_4d/3x3
I0403 14:55:14.782076 11300 net.cpp:425] inception_4d/output <- inception_4d/5x5
I0403 14:55:14.782097 11300 net.cpp:425] inception_4d/output <- inception_4d/pool_proj
I0403 14:55:14.782122 11300 net.cpp:399] inception_4d/output -> inception_4d/output
I0403 14:55:14.782189 11300 net.cpp:141] Setting up inception_4d/output
I0403 14:55:14.782220 11300 net.cpp:148] Top shape: 24 528 14 14 (2483712)
I0403 14:55:14.782239 11300 net.cpp:156] Memory required for data: 1157244192
I0403 14:55:14.782258 11300 layer_factory.hpp:77] Creating layer inception_4d/output_inception_4d/output_0_split
I0403 14:55:14.782284 11300 net.cpp:91] Creating Layer inception_4d/output_inception_4d/output_0_split
I0403 14:55:14.782307 11300 net.cpp:425] inception_4d/output_inception_4d/output_0_split <- inception_4d/output
I0403 14:55:14.782331 11300 net.cpp:399] inception_4d/output_inception_4d/output_0_split -> inception_4d/output_inception_4d/output_0_split_0
I0403 14:55:14.782358 11300 net.cpp:399] inception_4d/output_inception_4d/output_0_split -> inception_4d/output_inception_4d/output_0_split_1
I0403 14:55:14.782392 11300 net.cpp:399] inception_4d/output_inception_4d/output_0_split -> inception_4d/output_inception_4d/output_0_split_2
I0403 14:55:14.782420 11300 net.cpp:399] inception_4d/output_inception_4d/output_0_split -> inception_4d/output_inception_4d/output_0_split_3
I0403 14:55:14.782446 11300 net.cpp:399] inception_4d/output_inception_4d/output_0_split -> inception_4d/output_inception_4d/output_0_split_4
I0403 14:55:14.782577 11300 net.cpp:141] Setting up inception_4d/output_inception_4d/output_0_split
I0403 14:55:14.782623 11300 net.cpp:148] Top shape: 24 528 14 14 (2483712)
I0403 14:55:14.782645 11300 net.cpp:148] Top shape: 24 528 14 14 (2483712)
I0403 14:55:14.782666 11300 net.cpp:148] Top shape: 24 528 14 14 (2483712)
I0403 14:55:14.782687 11300 net.cpp:148] Top shape: 24 528 14 14 (2483712)
I0403 14:55:14.782708 11300 net.cpp:148] Top shape: 24 528 14 14 (2483712)
I0403 14:55:14.782732 11300 net.cpp:156] Memory required for data: 1206918432
I0403 14:55:14.782752 11300 layer_factory.hpp:77] Creating layer loss2/ave_pool
I0403 14:55:14.782778 11300 net.cpp:91] Creating Layer loss2/ave_pool
I0403 14:55:14.782800 11300 net.cpp:425] loss2/ave_pool <- inception_4d/output_inception_4d/output_0_split_0
I0403 14:55:14.782824 11300 net.cpp:399] loss2/ave_pool -> loss2/ave_pool
I0403 14:55:14.783232 11300 net.cpp:141] Setting up loss2/ave_pool
I0403 14:55:14.783267 11300 net.cpp:148] Top shape: 24 528 4 4 (202752)
I0403 14:55:14.783287 11300 net.cpp:156] Memory required for data: 1207729440
I0403 14:55:14.783306 11300 layer_factory.hpp:77] Creating layer loss2/conv
I0403 14:55:14.783341 11300 net.cpp:91] Creating Layer loss2/conv
I0403 14:55:14.783365 11300 net.cpp:425] loss2/conv <- loss2/ave_pool
I0403 14:55:14.783392 11300 net.cpp:399] loss2/conv -> loss2/conv
I0403 14:55:14.785724 11300 net.cpp:141] Setting up loss2/conv
I0403 14:55:14.785763 11300 net.cpp:148] Top shape: 24 128 4 4 (49152)
I0403 14:55:14.785785 11300 net.cpp:156] Memory required for data: 1207926048
I0403 14:55:14.785810 11300 layer_factory.hpp:77] Creating layer loss2/relu_conv
I0403 14:55:14.785835 11300 net.cpp:91] Creating Layer loss2/relu_conv
I0403 14:55:14.785857 11300 net.cpp:425] loss2/relu_conv <- loss2/conv
I0403 14:55:14.785883 11300 net.cpp:386] loss2/relu_conv -> loss2/conv (in-place)
I0403 14:55:14.786239 11300 net.cpp:141] Setting up loss2/relu_conv
I0403 14:55:14.786276 11300 net.cpp:148] Top shape: 24 128 4 4 (49152)
I0403 14:55:14.786298 11300 net.cpp:156] Memory required for data: 1208122656
I0403 14:55:14.786317 11300 layer_factory.hpp:77] Creating layer loss2/fc
I0403 14:55:14.786352 11300 net.cpp:91] Creating Layer loss2/fc
I0403 14:55:14.786375 11300 net.cpp:425] loss2/fc <- loss2/conv
I0403 14:55:14.786402 11300 net.cpp:399] loss2/fc -> loss2/fc
I0403 14:55:14.808192 11300 net.cpp:141] Setting up loss2/fc
I0403 14:55:14.808264 11300 net.cpp:148] Top shape: 24 1024 (24576)
I0403 14:55:14.808284 11300 net.cpp:156] Memory required for data: 1208220960
I0403 14:55:14.808308 11300 layer_factory.hpp:77] Creating layer loss2/relu_fc
I0403 14:55:14.808338 11300 net.cpp:91] Creating Layer loss2/relu_fc
I0403 14:55:14.808362 11300 net.cpp:425] loss2/relu_fc <- loss2/fc
I0403 14:55:14.808387 11300 net.cpp:386] loss2/relu_fc -> loss2/fc (in-place)
I0403 14:55:14.808810 11300 net.cpp:141] Setting up loss2/relu_fc
I0403 14:55:14.808845 11300 net.cpp:148] Top shape: 24 1024 (24576)
I0403 14:55:14.808864 11300 net.cpp:156] Memory required for data: 1208319264
I0403 14:55:14.808884 11300 layer_factory.hpp:77] Creating layer loss2/drop_fc
I0403 14:55:14.808912 11300 net.cpp:91] Creating Layer loss2/drop_fc
I0403 14:55:14.808934 11300 net.cpp:425] loss2/drop_fc <- loss2/fc
I0403 14:55:14.808959 11300 net.cpp:386] loss2/drop_fc -> loss2/fc (in-place)
I0403 14:55:14.809026 11300 net.cpp:141] Setting up loss2/drop_fc
I0403 14:55:14.809056 11300 net.cpp:148] Top shape: 24 1024 (24576)
I0403 14:55:14.809077 11300 net.cpp:156] Memory required for data: 1208417568
I0403 14:55:14.809097 11300 layer_factory.hpp:77] Creating layer loss2/classifier_plantvillage
I0403 14:55:14.809134 11300 net.cpp:91] Creating Layer loss2/classifier_plantvillage
I0403 14:55:14.809159 11300 net.cpp:425] loss2/classifier_plantvillage <- loss2/fc
I0403 14:55:14.809183 11300 net.cpp:399] loss2/classifier_plantvillage -> loss2/classifier_plantvillage
I0403 14:55:14.809691 11300 net.cpp:141] Setting up loss2/classifier_plantvillage
I0403 14:55:14.809723 11300 net.cpp:148] Top shape: 24 38 (912)
I0403 14:55:14.809774 11300 net.cpp:156] Memory required for data: 1208421216
I0403 14:55:14.809800 11300 layer_factory.hpp:77] Creating layer loss2/classifier_plantvillage_loss2/classifier_plantvillage_0_split
I0403 14:55:14.809825 11300 net.cpp:91] Creating Layer loss2/classifier_plantvillage_loss2/classifier_plantvillage_0_split
I0403 14:55:14.809849 11300 net.cpp:425] loss2/classifier_plantvillage_loss2/classifier_plantvillage_0_split <- loss2/classifier_plantvillage
I0403 14:55:14.809876 11300 net.cpp:399] loss2/classifier_plantvillage_loss2/classifier_plantvillage_0_split -> loss2/classifier_plantvillage_loss2/classifier_plantvillage_0_split_0
I0403 14:55:14.809903 11300 net.cpp:399] loss2/classifier_plantvillage_loss2/classifier_plantvillage_0_split -> loss2/classifier_plantvillage_loss2/classifier_plantvillage_0_split_1
I0403 14:55:14.809931 11300 net.cpp:399] loss2/classifier_plantvillage_loss2/classifier_plantvillage_0_split -> loss2/classifier_plantvillage_loss2/classifier_plantvillage_0_split_2
I0403 14:55:14.810030 11300 net.cpp:141] Setting up loss2/classifier_plantvillage_loss2/classifier_plantvillage_0_split
I0403 14:55:14.810065 11300 net.cpp:148] Top shape: 24 38 (912)
I0403 14:55:14.810086 11300 net.cpp:148] Top shape: 24 38 (912)
I0403 14:55:14.810108 11300 net.cpp:148] Top shape: 24 38 (912)
I0403 14:55:14.810132 11300 net.cpp:156] Memory required for data: 1208432160
I0403 14:55:14.810153 11300 layer_factory.hpp:77] Creating layer inception_4e/1x1
I0403 14:55:14.810181 11300 net.cpp:91] Creating Layer inception_4e/1x1
I0403 14:55:14.810205 11300 net.cpp:425] inception_4e/1x1 <- inception_4d/output_inception_4d/output_0_split_1
I0403 14:55:14.810231 11300 net.cpp:399] inception_4e/1x1 -> inception_4e/1x1
I0403 14:55:14.812530 11300 net.cpp:141] Setting up inception_4e/1x1
I0403 14:55:14.812566 11300 net.cpp:148] Top shape: 24 256 14 14 (1204224)
I0403 14:55:14.812587 11300 net.cpp:156] Memory required for data: 1213249056
I0403 14:55:14.812611 11300 layer_factory.hpp:77] Creating layer inception_4e/relu_1x1
I0403 14:55:14.812635 11300 net.cpp:91] Creating Layer inception_4e/relu_1x1
I0403 14:55:14.812657 11300 net.cpp:425] inception_4e/relu_1x1 <- inception_4e/1x1
I0403 14:55:14.812682 11300 net.cpp:386] inception_4e/relu_1x1 -> inception_4e/1x1 (in-place)
I0403 14:55:14.813050 11300 net.cpp:141] Setting up inception_4e/relu_1x1
I0403 14:55:14.813081 11300 net.cpp:148] Top shape: 24 256 14 14 (1204224)
I0403 14:55:14.813102 11300 net.cpp:156] Memory required for data: 1218065952
I0403 14:55:14.813122 11300 layer_factory.hpp:77] Creating layer inception_4e/3x3_reduce
I0403 14:55:14.813166 11300 net.cpp:91] Creating Layer inception_4e/3x3_reduce
I0403 14:55:14.813191 11300 net.cpp:425] inception_4e/3x3_reduce <- inception_4d/output_inception_4d/output_0_split_2
I0403 14:55:14.813220 11300 net.cpp:399] inception_4e/3x3_reduce -> inception_4e/3x3_reduce
I0403 14:55:14.815809 11300 net.cpp:141] Setting up inception_4e/3x3_reduce
I0403 14:55:14.815848 11300 net.cpp:148] Top shape: 24 160 14 14 (752640)
I0403 14:55:14.815871 11300 net.cpp:156] Memory required for data: 1221076512
I0403 14:55:14.815896 11300 layer_factory.hpp:77] Creating layer inception_4e/relu_3x3_reduce
I0403 14:55:14.815922 11300 net.cpp:91] Creating Layer inception_4e/relu_3x3_reduce
I0403 14:55:14.815943 11300 net.cpp:425] inception_4e/relu_3x3_reduce <- inception_4e/3x3_reduce
I0403 14:55:14.815968 11300 net.cpp:386] inception_4e/relu_3x3_reduce -> inception_4e/3x3_reduce (in-place)
I0403 14:55:14.816206 11300 net.cpp:141] Setting up inception_4e/relu_3x3_reduce
I0403 14:55:14.816238 11300 net.cpp:148] Top shape: 24 160 14 14 (752640)
I0403 14:55:14.816257 11300 net.cpp:156] Memory required for data: 1224087072
I0403 14:55:14.816277 11300 layer_factory.hpp:77] Creating layer inception_4e/3x3
I0403 14:55:14.816305 11300 net.cpp:91] Creating Layer inception_4e/3x3
I0403 14:55:14.816329 11300 net.cpp:425] inception_4e/3x3 <- inception_4e/3x3_reduce
I0403 14:55:14.816357 11300 net.cpp:399] inception_4e/3x3 -> inception_4e/3x3
I0403 14:55:14.822496 11300 net.cpp:141] Setting up inception_4e/3x3
I0403 14:55:14.822551 11300 net.cpp:148] Top shape: 24 320 14 14 (1505280)
I0403 14:55:14.822572 11300 net.cpp:156] Memory required for data: 1230108192
I0403 14:55:14.822597 11300 layer_factory.hpp:77] Creating layer inception_4e/relu_3x3
I0403 14:55:14.822624 11300 net.cpp:91] Creating Layer inception_4e/relu_3x3
I0403 14:55:14.822648 11300 net.cpp:425] inception_4e/relu_3x3 <- inception_4e/3x3
I0403 14:55:14.822670 11300 net.cpp:386] inception_4e/relu_3x3 -> inception_4e/3x3 (in-place)
I0403 14:55:14.823035 11300 net.cpp:141] Setting up inception_4e/relu_3x3
I0403 14:55:14.823068 11300 net.cpp:148] Top shape: 24 320 14 14 (1505280)
I0403 14:55:14.823088 11300 net.cpp:156] Memory required for data: 1236129312
I0403 14:55:14.823108 11300 layer_factory.hpp:77] Creating layer inception_4e/5x5_reduce
I0403 14:55:14.823151 11300 net.cpp:91] Creating Layer inception_4e/5x5_reduce
I0403 14:55:14.823178 11300 net.cpp:425] inception_4e/5x5_reduce <- inception_4d/output_inception_4d/output_0_split_3
I0403 14:55:14.823210 11300 net.cpp:399] inception_4e/5x5_reduce -> inception_4e/5x5_reduce
I0403 14:55:14.824532 11300 net.cpp:141] Setting up inception_4e/5x5_reduce
I0403 14:55:14.824566 11300 net.cpp:148] Top shape: 24 32 14 14 (150528)
I0403 14:55:14.824586 11300 net.cpp:156] Memory required for data: 1236731424
I0403 14:55:14.824610 11300 layer_factory.hpp:77] Creating layer inception_4e/relu_5x5_reduce
I0403 14:55:14.824635 11300 net.cpp:91] Creating Layer inception_4e/relu_5x5_reduce
I0403 14:55:14.824656 11300 net.cpp:425] inception_4e/relu_5x5_reduce <- inception_4e/5x5_reduce
I0403 14:55:14.824683 11300 net.cpp:386] inception_4e/relu_5x5_reduce -> inception_4e/5x5_reduce (in-place)
I0403 14:55:14.825048 11300 net.cpp:141] Setting up inception_4e/relu_5x5_reduce
I0403 14:55:14.825081 11300 net.cpp:148] Top shape: 24 32 14 14 (150528)
I0403 14:55:14.825101 11300 net.cpp:156] Memory required for data: 1237333536
I0403 14:55:14.825121 11300 layer_factory.hpp:77] Creating layer inception_4e/5x5
I0403 14:55:14.825175 11300 net.cpp:91] Creating Layer inception_4e/5x5
I0403 14:55:14.825201 11300 net.cpp:425] inception_4e/5x5 <- inception_4e/5x5_reduce
I0403 14:55:14.825227 11300 net.cpp:399] inception_4e/5x5 -> inception_4e/5x5
I0403 14:55:14.827510 11300 net.cpp:141] Setting up inception_4e/5x5
I0403 14:55:14.827551 11300 net.cpp:148] Top shape: 24 128 14 14 (602112)
I0403 14:55:14.827574 11300 net.cpp:156] Memory required for data: 1239741984
I0403 14:55:14.827599 11300 layer_factory.hpp:77] Creating layer inception_4e/relu_5x5
I0403 14:55:14.827623 11300 net.cpp:91] Creating Layer inception_4e/relu_5x5
I0403 14:55:14.827646 11300 net.cpp:425] inception_4e/relu_5x5 <- inception_4e/5x5
I0403 14:55:14.827668 11300 net.cpp:386] inception_4e/relu_5x5 -> inception_4e/5x5 (in-place)
I0403 14:55:14.827913 11300 net.cpp:141] Setting up inception_4e/relu_5x5
I0403 14:55:14.827946 11300 net.cpp:148] Top shape: 24 128 14 14 (602112)
I0403 14:55:14.827965 11300 net.cpp:156] Memory required for data: 1242150432
I0403 14:55:14.827986 11300 layer_factory.hpp:77] Creating layer inception_4e/pool
I0403 14:55:14.828009 11300 net.cpp:91] Creating Layer inception_4e/pool
I0403 14:55:14.828029 11300 net.cpp:425] inception_4e/pool <- inception_4d/output_inception_4d/output_0_split_4
I0403 14:55:14.828055 11300 net.cpp:399] inception_4e/pool -> inception_4e/pool
I0403 14:55:14.828150 11300 net.cpp:141] Setting up inception_4e/pool
I0403 14:55:14.828183 11300 net.cpp:148] Top shape: 24 528 14 14 (2483712)
I0403 14:55:14.828205 11300 net.cpp:156] Memory required for data: 1252085280
I0403 14:55:14.828224 11300 layer_factory.hpp:77] Creating layer inception_4e/pool_proj
I0403 14:55:14.828253 11300 net.cpp:91] Creating Layer inception_4e/pool_proj
I0403 14:55:14.828275 11300 net.cpp:425] inception_4e/pool_proj <- inception_4e/pool
I0403 14:55:14.828301 11300 net.cpp:399] inception_4e/pool_proj -> inception_4e/pool_proj
I0403 14:55:14.830157 11300 net.cpp:141] Setting up inception_4e/pool_proj
I0403 14:55:14.830209 11300 net.cpp:148] Top shape: 24 128 14 14 (602112)
I0403 14:55:14.830235 11300 net.cpp:156] Memory required for data: 1254493728
I0403 14:55:14.830258 11300 layer_factory.hpp:77] Creating layer inception_4e/relu_pool_proj
I0403 14:55:14.830282 11300 net.cpp:91] Creating Layer inception_4e/relu_pool_proj
I0403 14:55:14.830307 11300 net.cpp:425] inception_4e/relu_pool_proj <- inception_4e/pool_proj
I0403 14:55:14.830329 11300 net.cpp:386] inception_4e/relu_pool_proj -> inception_4e/pool_proj (in-place)
I0403 14:55:14.830694 11300 net.cpp:141] Setting up inception_4e/relu_pool_proj
I0403 14:55:14.830727 11300 net.cpp:148] Top shape: 24 128 14 14 (602112)
I0403 14:55:14.830750 11300 net.cpp:156] Memory required for data: 1256902176
I0403 14:55:14.830770 11300 layer_factory.hpp:77] Creating layer inception_4e/output
I0403 14:55:14.830793 11300 net.cpp:91] Creating Layer inception_4e/output
I0403 14:55:14.830814 11300 net.cpp:425] inception_4e/output <- inception_4e/1x1
I0403 14:55:14.830835 11300 net.cpp:425] inception_4e/output <- inception_4e/3x3
I0403 14:55:14.830857 11300 net.cpp:425] inception_4e/output <- inception_4e/5x5
I0403 14:55:14.830878 11300 net.cpp:425] inception_4e/output <- inception_4e/pool_proj
I0403 14:55:14.830899 11300 net.cpp:399] inception_4e/output -> inception_4e/output
I0403 14:55:14.830965 11300 net.cpp:141] Setting up inception_4e/output
I0403 14:55:14.830996 11300 net.cpp:148] Top shape: 24 832 14 14 (3913728)
I0403 14:55:14.831015 11300 net.cpp:156] Memory required for data: 1272557088
I0403 14:55:14.831034 11300 layer_factory.hpp:77] Creating layer pool4/3x3_s2
I0403 14:55:14.831058 11300 net.cpp:91] Creating Layer pool4/3x3_s2
I0403 14:55:14.831092 11300 net.cpp:425] pool4/3x3_s2 <- inception_4e/output
I0403 14:55:14.831120 11300 net.cpp:399] pool4/3x3_s2 -> pool4/3x3_s2
I0403 14:55:14.831212 11300 net.cpp:141] Setting up pool4/3x3_s2
I0403 14:55:14.831241 11300 net.cpp:148] Top shape: 24 832 7 7 (978432)
I0403 14:55:14.831261 11300 net.cpp:156] Memory required for data: 1276470816
I0403 14:55:14.831280 11300 layer_factory.hpp:77] Creating layer pool4/3x3_s2_pool4/3x3_s2_0_split
I0403 14:55:14.831303 11300 net.cpp:91] Creating Layer pool4/3x3_s2_pool4/3x3_s2_0_split
I0403 14:55:14.831326 11300 net.cpp:425] pool4/3x3_s2_pool4/3x3_s2_0_split <- pool4/3x3_s2
I0403 14:55:14.831351 11300 net.cpp:399] pool4/3x3_s2_pool4/3x3_s2_0_split -> pool4/3x3_s2_pool4/3x3_s2_0_split_0
I0403 14:55:14.831378 11300 net.cpp:399] pool4/3x3_s2_pool4/3x3_s2_0_split -> pool4/3x3_s2_pool4/3x3_s2_0_split_1
I0403 14:55:14.831409 11300 net.cpp:399] pool4/3x3_s2_pool4/3x3_s2_0_split -> pool4/3x3_s2_pool4/3x3_s2_0_split_2
I0403 14:55:14.831436 11300 net.cpp:399] pool4/3x3_s2_pool4/3x3_s2_0_split -> pool4/3x3_s2_pool4/3x3_s2_0_split_3
I0403 14:55:14.831553 11300 net.cpp:141] Setting up pool4/3x3_s2_pool4/3x3_s2_0_split
I0403 14:55:14.831583 11300 net.cpp:148] Top shape: 24 832 7 7 (978432)
I0403 14:55:14.831604 11300 net.cpp:148] Top shape: 24 832 7 7 (978432)
I0403 14:55:14.831625 11300 net.cpp:148] Top shape: 24 832 7 7 (978432)
I0403 14:55:14.831645 11300 net.cpp:148] Top shape: 24 832 7 7 (978432)
I0403 14:55:14.831662 11300 net.cpp:156] Memory required for data: 1292125728
I0403 14:55:14.831681 11300 layer_factory.hpp:77] Creating layer inception_5a/1x1
I0403 14:55:14.831712 11300 net.cpp:91] Creating Layer inception_5a/1x1
I0403 14:55:14.831735 11300 net.cpp:425] inception_5a/1x1 <- pool4/3x3_s2_pool4/3x3_s2_0_split_0
I0403 14:55:14.831761 11300 net.cpp:399] inception_5a/1x1 -> inception_5a/1x1
I0403 14:55:14.835275 11300 net.cpp:141] Setting up inception_5a/1x1
I0403 14:55:14.835314 11300 net.cpp:148] Top shape: 24 256 7 7 (301056)
I0403 14:55:14.835336 11300 net.cpp:156] Memory required for data: 1293329952
I0403 14:55:14.835362 11300 layer_factory.hpp:77] Creating layer inception_5a/relu_1x1
I0403 14:55:14.835386 11300 net.cpp:91] Creating Layer inception_5a/relu_1x1
I0403 14:55:14.835407 11300 net.cpp:425] inception_5a/relu_1x1 <- inception_5a/1x1
I0403 14:55:14.835433 11300 net.cpp:386] inception_5a/relu_1x1 -> inception_5a/1x1 (in-place)
I0403 14:55:14.835814 11300 net.cpp:141] Setting up inception_5a/relu_1x1
I0403 14:55:14.835850 11300 net.cpp:148] Top shape: 24 256 7 7 (301056)
I0403 14:55:14.835872 11300 net.cpp:156] Memory required for data: 1294534176
I0403 14:55:14.835892 11300 layer_factory.hpp:77] Creating layer inception_5a/3x3_reduce
I0403 14:55:14.835922 11300 net.cpp:91] Creating Layer inception_5a/3x3_reduce
I0403 14:55:14.835945 11300 net.cpp:425] inception_5a/3x3_reduce <- pool4/3x3_s2_pool4/3x3_s2_0_split_1
I0403 14:55:14.835971 11300 net.cpp:399] inception_5a/3x3_reduce -> inception_5a/3x3_reduce
I0403 14:55:14.838980 11300 net.cpp:141] Setting up inception_5a/3x3_reduce
I0403 14:55:14.839017 11300 net.cpp:148] Top shape: 24 160 7 7 (188160)
I0403 14:55:14.839040 11300 net.cpp:156] Memory required for data: 1295286816
I0403 14:55:14.839066 11300 layer_factory.hpp:77] Creating layer inception_5a/relu_3x3_reduce
I0403 14:55:14.839094 11300 net.cpp:91] Creating Layer inception_5a/relu_3x3_reduce
I0403 14:55:14.839118 11300 net.cpp:425] inception_5a/relu_3x3_reduce <- inception_5a/3x3_reduce
I0403 14:55:14.839148 11300 net.cpp:386] inception_5a/relu_3x3_reduce -> inception_5a/3x3_reduce (in-place)
I0403 14:55:14.839387 11300 net.cpp:141] Setting up inception_5a/relu_3x3_reduce
I0403 14:55:14.839422 11300 net.cpp:148] Top shape: 24 160 7 7 (188160)
I0403 14:55:14.839444 11300 net.cpp:156] Memory required for data: 1296039456
I0403 14:55:14.839463 11300 layer_factory.hpp:77] Creating layer inception_5a/3x3
I0403 14:55:14.839493 11300 net.cpp:91] Creating Layer inception_5a/3x3
I0403 14:55:14.839516 11300 net.cpp:425] inception_5a/3x3 <- inception_5a/3x3_reduce
I0403 14:55:14.839541 11300 net.cpp:399] inception_5a/3x3 -> inception_5a/3x3
I0403 14:55:14.845736 11300 net.cpp:141] Setting up inception_5a/3x3
I0403 14:55:14.845777 11300 net.cpp:148] Top shape: 24 320 7 7 (376320)
I0403 14:55:14.845799 11300 net.cpp:156] Memory required for data: 1297544736
I0403 14:55:14.845824 11300 layer_factory.hpp:77] Creating layer inception_5a/relu_3x3
I0403 14:55:14.845849 11300 net.cpp:91] Creating Layer inception_5a/relu_3x3
I0403 14:55:14.845870 11300 net.cpp:425] inception_5a/relu_3x3 <- inception_5a/3x3
I0403 14:55:14.845893 11300 net.cpp:386] inception_5a/relu_3x3 -> inception_5a/3x3 (in-place)
I0403 14:55:14.846261 11300 net.cpp:141] Setting up inception_5a/relu_3x3
I0403 14:55:14.846298 11300 net.cpp:148] Top shape: 24 320 7 7 (376320)
I0403 14:55:14.846319 11300 net.cpp:156] Memory required for data: 1299050016
I0403 14:55:14.846340 11300 layer_factory.hpp:77] Creating layer inception_5a/5x5_reduce
I0403 14:55:14.846369 11300 net.cpp:91] Creating Layer inception_5a/5x5_reduce
I0403 14:55:14.846392 11300 net.cpp:425] inception_5a/5x5_reduce <- pool4/3x3_s2_pool4/3x3_s2_0_split_2
I0403 14:55:14.846418 11300 net.cpp:399] inception_5a/5x5_reduce -> inception_5a/5x5_reduce
I0403 14:55:14.847868 11300 net.cpp:141] Setting up inception_5a/5x5_reduce
I0403 14:55:14.847906 11300 net.cpp:148] Top shape: 24 32 7 7 (37632)
I0403 14:55:14.847929 11300 net.cpp:156] Memory required for data: 1299200544
I0403 14:55:14.847956 11300 layer_factory.hpp:77] Creating layer inception_5a/relu_5x5_reduce
I0403 14:55:14.847980 11300 net.cpp:91] Creating Layer inception_5a/relu_5x5_reduce
I0403 14:55:14.848001 11300 net.cpp:425] inception_5a/relu_5x5_reduce <- inception_5a/5x5_reduce
I0403 14:55:14.848027 11300 net.cpp:386] inception_5a/relu_5x5_reduce -> inception_5a/5x5_reduce (in-place)
I0403 14:55:14.848404 11300 net.cpp:141] Setting up inception_5a/relu_5x5_reduce
I0403 14:55:14.848441 11300 net.cpp:148] Top shape: 24 32 7 7 (37632)
I0403 14:55:14.848462 11300 net.cpp:156] Memory required for data: 1299351072
I0403 14:55:14.848482 11300 layer_factory.hpp:77] Creating layer inception_5a/5x5
I0403 14:55:14.848511 11300 net.cpp:91] Creating Layer inception_5a/5x5
I0403 14:55:14.848536 11300 net.cpp:425] inception_5a/5x5 <- inception_5a/5x5_reduce
I0403 14:55:14.848563 11300 net.cpp:399] inception_5a/5x5 -> inception_5a/5x5
I0403 14:55:14.850697 11300 net.cpp:141] Setting up inception_5a/5x5
I0403 14:55:14.850751 11300 net.cpp:148] Top shape: 24 128 7 7 (150528)
I0403 14:55:14.850775 11300 net.cpp:156] Memory required for data: 1299953184
I0403 14:55:14.850800 11300 layer_factory.hpp:77] Creating layer inception_5a/relu_5x5
I0403 14:55:14.850824 11300 net.cpp:91] Creating Layer inception_5a/relu_5x5
I0403 14:55:14.850846 11300 net.cpp:425] inception_5a/relu_5x5 <- inception_5a/5x5
I0403 14:55:14.850868 11300 net.cpp:386] inception_5a/relu_5x5 -> inception_5a/5x5 (in-place)
I0403 14:55:14.851111 11300 net.cpp:141] Setting up inception_5a/relu_5x5
I0403 14:55:14.851150 11300 net.cpp:148] Top shape: 24 128 7 7 (150528)
I0403 14:55:14.851171 11300 net.cpp:156] Memory required for data: 1300555296
I0403 14:55:14.851191 11300 layer_factory.hpp:77] Creating layer inception_5a/pool
I0403 14:55:14.851213 11300 net.cpp:91] Creating Layer inception_5a/pool
I0403 14:55:14.851234 11300 net.cpp:425] inception_5a/pool <- pool4/3x3_s2_pool4/3x3_s2_0_split_3
I0403 14:55:14.851263 11300 net.cpp:399] inception_5a/pool -> inception_5a/pool
I0403 14:55:14.851351 11300 net.cpp:141] Setting up inception_5a/pool
I0403 14:55:14.851385 11300 net.cpp:148] Top shape: 24 832 7 7 (978432)
I0403 14:55:14.851405 11300 net.cpp:156] Memory required for data: 1304469024
I0403 14:55:14.851425 11300 layer_factory.hpp:77] Creating layer inception_5a/pool_proj
I0403 14:55:14.851454 11300 net.cpp:91] Creating Layer inception_5a/pool_proj
I0403 14:55:14.851477 11300 net.cpp:425] inception_5a/pool_proj <- inception_5a/pool
I0403 14:55:14.851502 11300 net.cpp:399] inception_5a/pool_proj -> inception_5a/pool_proj
I0403 14:55:14.854300 11300 net.cpp:141] Setting up inception_5a/pool_proj
I0403 14:55:14.854337 11300 net.cpp:148] Top shape: 24 128 7 7 (150528)
I0403 14:55:14.854358 11300 net.cpp:156] Memory required for data: 1305071136
I0403 14:55:14.854382 11300 layer_factory.hpp:77] Creating layer inception_5a/relu_pool_proj
I0403 14:55:14.854409 11300 net.cpp:91] Creating Layer inception_5a/relu_pool_proj
I0403 14:55:14.854432 11300 net.cpp:425] inception_5a/relu_pool_proj <- inception_5a/pool_proj
I0403 14:55:14.854457 11300 net.cpp:386] inception_5a/relu_pool_proj -> inception_5a/pool_proj (in-place)
I0403 14:55:14.854830 11300 net.cpp:141] Setting up inception_5a/relu_pool_proj
I0403 14:55:14.854863 11300 net.cpp:148] Top shape: 24 128 7 7 (150528)
I0403 14:55:14.854883 11300 net.cpp:156] Memory required for data: 1305673248
I0403 14:55:14.854903 11300 layer_factory.hpp:77] Creating layer inception_5a/output
I0403 14:55:14.854929 11300 net.cpp:91] Creating Layer inception_5a/output
I0403 14:55:14.854953 11300 net.cpp:425] inception_5a/output <- inception_5a/1x1
I0403 14:55:14.854974 11300 net.cpp:425] inception_5a/output <- inception_5a/3x3
I0403 14:55:14.854997 11300 net.cpp:425] inception_5a/output <- inception_5a/5x5
I0403 14:55:14.855018 11300 net.cpp:425] inception_5a/output <- inception_5a/pool_proj
I0403 14:55:14.855041 11300 net.cpp:399] inception_5a/output -> inception_5a/output
I0403 14:55:14.855108 11300 net.cpp:141] Setting up inception_5a/output
I0403 14:55:14.855144 11300 net.cpp:148] Top shape: 24 832 7 7 (978432)
I0403 14:55:14.855165 11300 net.cpp:156] Memory required for data: 1309586976
I0403 14:55:14.855185 11300 layer_factory.hpp:77] Creating layer inception_5a/output_inception_5a/output_0_split
I0403 14:55:14.855207 11300 net.cpp:91] Creating Layer inception_5a/output_inception_5a/output_0_split
I0403 14:55:14.855228 11300 net.cpp:425] inception_5a/output_inception_5a/output_0_split <- inception_5a/output
I0403 14:55:14.855254 11300 net.cpp:399] inception_5a/output_inception_5a/output_0_split -> inception_5a/output_inception_5a/output_0_split_0
I0403 14:55:14.855281 11300 net.cpp:399] inception_5a/output_inception_5a/output_0_split -> inception_5a/output_inception_5a/output_0_split_1
I0403 14:55:14.855309 11300 net.cpp:399] inception_5a/output_inception_5a/output_0_split -> inception_5a/output_inception_5a/output_0_split_2
I0403 14:55:14.855334 11300 net.cpp:399] inception_5a/output_inception_5a/output_0_split -> inception_5a/output_inception_5a/output_0_split_3
I0403 14:55:14.855479 11300 net.cpp:141] Setting up inception_5a/output_inception_5a/output_0_split
I0403 14:55:14.855511 11300 net.cpp:148] Top shape: 24 832 7 7 (978432)
I0403 14:55:14.855535 11300 net.cpp:148] Top shape: 24 832 7 7 (978432)
I0403 14:55:14.855554 11300 net.cpp:148] Top shape: 24 832 7 7 (978432)
I0403 14:55:14.855576 11300 net.cpp:148] Top shape: 24 832 7 7 (978432)
I0403 14:55:14.855593 11300 net.cpp:156] Memory required for data: 1325241888
I0403 14:55:14.855613 11300 layer_factory.hpp:77] Creating layer inception_5b/1x1
I0403 14:55:14.855641 11300 net.cpp:91] Creating Layer inception_5b/1x1
I0403 14:55:14.855664 11300 net.cpp:425] inception_5b/1x1 <- inception_5a/output_inception_5a/output_0_split_0
I0403 14:55:14.855691 11300 net.cpp:399] inception_5b/1x1 -> inception_5b/1x1
I0403 14:55:14.860327 11300 net.cpp:141] Setting up inception_5b/1x1
I0403 14:55:14.860364 11300 net.cpp:148] Top shape: 24 384 7 7 (451584)
I0403 14:55:14.860386 11300 net.cpp:156] Memory required for data: 1327048224
I0403 14:55:14.860410 11300 layer_factory.hpp:77] Creating layer inception_5b/relu_1x1
I0403 14:55:14.860437 11300 net.cpp:91] Creating Layer inception_5b/relu_1x1
I0403 14:55:14.860460 11300 net.cpp:425] inception_5b/relu_1x1 <- inception_5b/1x1
I0403 14:55:14.860483 11300 net.cpp:386] inception_5b/relu_1x1 -> inception_5b/1x1 (in-place)
I0403 14:55:14.860860 11300 net.cpp:141] Setting up inception_5b/relu_1x1
I0403 14:55:14.860894 11300 net.cpp:148] Top shape: 24 384 7 7 (451584)
I0403 14:55:14.860914 11300 net.cpp:156] Memory required for data: 1328854560
I0403 14:55:14.860934 11300 layer_factory.hpp:77] Creating layer inception_5b/3x3_reduce
I0403 14:55:14.860965 11300 net.cpp:91] Creating Layer inception_5b/3x3_reduce
I0403 14:55:14.860988 11300 net.cpp:425] inception_5b/3x3_reduce <- inception_5a/output_inception_5a/output_0_split_1
I0403 14:55:14.861016 11300 net.cpp:399] inception_5b/3x3_reduce -> inception_5b/3x3_reduce
I0403 14:55:14.864306 11300 net.cpp:141] Setting up inception_5b/3x3_reduce
I0403 14:55:14.864346 11300 net.cpp:148] Top shape: 24 192 7 7 (225792)
I0403 14:55:14.864367 11300 net.cpp:156] Memory required for data: 1329757728
I0403 14:55:14.864390 11300 layer_factory.hpp:77] Creating layer inception_5b/relu_3x3_reduce
I0403 14:55:14.864418 11300 net.cpp:91] Creating Layer inception_5b/relu_3x3_reduce
I0403 14:55:14.864440 11300 net.cpp:425] inception_5b/relu_3x3_reduce <- inception_5b/3x3_reduce
I0403 14:55:14.864464 11300 net.cpp:386] inception_5b/relu_3x3_reduce -> inception_5b/3x3_reduce (in-place)
I0403 14:55:14.864704 11300 net.cpp:141] Setting up inception_5b/relu_3x3_reduce
I0403 14:55:14.864740 11300 net.cpp:148] Top shape: 24 192 7 7 (225792)
I0403 14:55:14.864763 11300 net.cpp:156] Memory required for data: 1330660896
I0403 14:55:14.864784 11300 layer_factory.hpp:77] Creating layer inception_5b/3x3
I0403 14:55:14.864812 11300 net.cpp:91] Creating Layer inception_5b/3x3
I0403 14:55:14.864836 11300 net.cpp:425] inception_5b/3x3 <- inception_5b/3x3_reduce
I0403 14:55:14.864862 11300 net.cpp:399] inception_5b/3x3 -> inception_5b/3x3
I0403 14:55:14.873148 11300 net.cpp:141] Setting up inception_5b/3x3
I0403 14:55:14.873185 11300 net.cpp:148] Top shape: 24 384 7 7 (451584)
I0403 14:55:14.873208 11300 net.cpp:156] Memory required for data: 1332467232
I0403 14:55:14.873232 11300 layer_factory.hpp:77] Creating layer inception_5b/relu_3x3
I0403 14:55:14.873260 11300 net.cpp:91] Creating Layer inception_5b/relu_3x3
I0403 14:55:14.873282 11300 net.cpp:425] inception_5b/relu_3x3 <- inception_5b/3x3
I0403 14:55:14.873306 11300 net.cpp:386] inception_5b/relu_3x3 -> inception_5b/3x3 (in-place)
I0403 14:55:14.873685 11300 net.cpp:141] Setting up inception_5b/relu_3x3
I0403 14:55:14.873719 11300 net.cpp:148] Top shape: 24 384 7 7 (451584)
I0403 14:55:14.873740 11300 net.cpp:156] Memory required for data: 1334273568
I0403 14:55:14.873759 11300 layer_factory.hpp:77] Creating layer inception_5b/5x5_reduce
I0403 14:55:14.873818 11300 net.cpp:91] Creating Layer inception_5b/5x5_reduce
I0403 14:55:14.873844 11300 net.cpp:425] inception_5b/5x5_reduce <- inception_5a/output_inception_5a/output_0_split_2
I0403 14:55:14.873870 11300 net.cpp:399] inception_5b/5x5_reduce -> inception_5b/5x5_reduce
I0403 14:55:14.875473 11300 net.cpp:141] Setting up inception_5b/5x5_reduce
I0403 14:55:14.875509 11300 net.cpp:148] Top shape: 24 48 7 7 (56448)
I0403 14:55:14.875530 11300 net.cpp:156] Memory required for data: 1334499360
I0403 14:55:14.875555 11300 layer_factory.hpp:77] Creating layer inception_5b/relu_5x5_reduce
I0403 14:55:14.875583 11300 net.cpp:91] Creating Layer inception_5b/relu_5x5_reduce
I0403 14:55:14.875605 11300 net.cpp:425] inception_5b/relu_5x5_reduce <- inception_5b/5x5_reduce
I0403 14:55:14.875629 11300 net.cpp:386] inception_5b/relu_5x5_reduce -> inception_5b/5x5_reduce (in-place)
I0403 14:55:14.876092 11300 net.cpp:141] Setting up inception_5b/relu_5x5_reduce
I0403 14:55:14.876130 11300 net.cpp:148] Top shape: 24 48 7 7 (56448)
I0403 14:55:14.876153 11300 net.cpp:156] Memory required for data: 1334725152
I0403 14:55:14.876174 11300 layer_factory.hpp:77] Creating layer inception_5b/5x5
I0403 14:55:14.876201 11300 net.cpp:91] Creating Layer inception_5b/5x5
I0403 14:55:14.876224 11300 net.cpp:425] inception_5b/5x5 <- inception_5b/5x5_reduce
I0403 14:55:14.876250 11300 net.cpp:399] inception_5b/5x5 -> inception_5b/5x5
I0403 14:55:14.878828 11300 net.cpp:141] Setting up inception_5b/5x5
I0403 14:55:14.878866 11300 net.cpp:148] Top shape: 24 128 7 7 (150528)
I0403 14:55:14.878888 11300 net.cpp:156] Memory required for data: 1335327264
I0403 14:55:14.878914 11300 layer_factory.hpp:77] Creating layer inception_5b/relu_5x5
I0403 14:55:14.878938 11300 net.cpp:91] Creating Layer inception_5b/relu_5x5
I0403 14:55:14.878960 11300 net.cpp:425] inception_5b/relu_5x5 <- inception_5b/5x5
I0403 14:55:14.878986 11300 net.cpp:386] inception_5b/relu_5x5 -> inception_5b/5x5 (in-place)
I0403 14:55:14.879240 11300 net.cpp:141] Setting up inception_5b/relu_5x5
I0403 14:55:14.879271 11300 net.cpp:148] Top shape: 24 128 7 7 (150528)
I0403 14:55:14.879292 11300 net.cpp:156] Memory required for data: 1335929376
I0403 14:55:14.879312 11300 layer_factory.hpp:77] Creating layer inception_5b/pool
I0403 14:55:14.879335 11300 net.cpp:91] Creating Layer inception_5b/pool
I0403 14:55:14.879357 11300 net.cpp:425] inception_5b/pool <- inception_5a/output_inception_5a/output_0_split_3
I0403 14:55:14.879384 11300 net.cpp:399] inception_5b/pool -> inception_5b/pool
I0403 14:55:14.879479 11300 net.cpp:141] Setting up inception_5b/pool
I0403 14:55:14.879510 11300 net.cpp:148] Top shape: 24 832 7 7 (978432)
I0403 14:55:14.879529 11300 net.cpp:156] Memory required for data: 1339843104
I0403 14:55:14.879549 11300 layer_factory.hpp:77] Creating layer inception_5b/pool_proj
I0403 14:55:14.879578 11300 net.cpp:91] Creating Layer inception_5b/pool_proj
I0403 14:55:14.879602 11300 net.cpp:425] inception_5b/pool_proj <- inception_5b/pool
I0403 14:55:14.879627 11300 net.cpp:399] inception_5b/pool_proj -> inception_5b/pool_proj
I0403 14:55:14.882467 11300 net.cpp:141] Setting up inception_5b/pool_proj
I0403 14:55:14.882506 11300 net.cpp:148] Top shape: 24 128 7 7 (150528)
I0403 14:55:14.882529 11300 net.cpp:156] Memory required for data: 1340445216
I0403 14:55:14.882555 11300 layer_factory.hpp:77] Creating layer inception_5b/relu_pool_proj
I0403 14:55:14.882577 11300 net.cpp:91] Creating Layer inception_5b/relu_pool_proj
I0403 14:55:14.882599 11300 net.cpp:425] inception_5b/relu_pool_proj <- inception_5b/pool_proj
I0403 14:55:14.882622 11300 net.cpp:386] inception_5b/relu_pool_proj -> inception_5b/pool_proj (in-place)
I0403 14:55:14.882997 11300 net.cpp:141] Setting up inception_5b/relu_pool_proj
I0403 14:55:14.883034 11300 net.cpp:148] Top shape: 24 128 7 7 (150528)
I0403 14:55:14.883055 11300 net.cpp:156] Memory required for data: 1341047328
I0403 14:55:14.883075 11300 layer_factory.hpp:77] Creating layer inception_5b/output
I0403 14:55:14.883098 11300 net.cpp:91] Creating Layer inception_5b/output
I0403 14:55:14.883152 11300 net.cpp:425] inception_5b/output <- inception_5b/1x1
I0403 14:55:14.883178 11300 net.cpp:425] inception_5b/output <- inception_5b/3x3
I0403 14:55:14.883201 11300 net.cpp:425] inception_5b/output <- inception_5b/5x5
I0403 14:55:14.883222 11300 net.cpp:425] inception_5b/output <- inception_5b/pool_proj
I0403 14:55:14.883244 11300 net.cpp:399] inception_5b/output -> inception_5b/output
I0403 14:55:14.883313 11300 net.cpp:141] Setting up inception_5b/output
I0403 14:55:14.883344 11300 net.cpp:148] Top shape: 24 1024 7 7 (1204224)
I0403 14:55:14.883364 11300 net.cpp:156] Memory required for data: 1345864224
I0403 14:55:14.883383 11300 layer_factory.hpp:77] Creating layer pool5/7x7_s1
I0403 14:55:14.883409 11300 net.cpp:91] Creating Layer pool5/7x7_s1
I0403 14:55:14.883432 11300 net.cpp:425] pool5/7x7_s1 <- inception_5b/output
I0403 14:55:14.883457 11300 net.cpp:399] pool5/7x7_s1 -> pool5/7x7_s1
I0403 14:55:14.883729 11300 net.cpp:141] Setting up pool5/7x7_s1
I0403 14:55:14.883765 11300 net.cpp:148] Top shape: 24 1024 1 1 (24576)
I0403 14:55:14.883787 11300 net.cpp:156] Memory required for data: 1345962528
I0403 14:55:14.883807 11300 layer_factory.hpp:77] Creating layer pool5/drop_7x7_s1
I0403 14:55:14.883829 11300 net.cpp:91] Creating Layer pool5/drop_7x7_s1
I0403 14:55:14.883851 11300 net.cpp:425] pool5/drop_7x7_s1 <- pool5/7x7_s1
I0403 14:55:14.883874 11300 net.cpp:386] pool5/drop_7x7_s1 -> pool5/7x7_s1 (in-place)
I0403 14:55:14.883940 11300 net.cpp:141] Setting up pool5/drop_7x7_s1
I0403 14:55:14.883972 11300 net.cpp:148] Top shape: 24 1024 1 1 (24576)
I0403 14:55:14.883991 11300 net.cpp:156] Memory required for data: 1346060832
I0403 14:55:14.884011 11300 layer_factory.hpp:77] Creating layer loss3/classifier_plantvillage
I0403 14:55:14.884040 11300 net.cpp:91] Creating Layer loss3/classifier_plantvillage
I0403 14:55:14.884063 11300 net.cpp:425] loss3/classifier_plantvillage <- pool5/7x7_s1
I0403 14:55:14.884088 11300 net.cpp:399] loss3/classifier_plantvillage -> loss3/classifier_plantvillage
I0403 14:55:14.884623 11300 net.cpp:141] Setting up loss3/classifier_plantvillage
I0403 14:55:14.884655 11300 net.cpp:148] Top shape: 24 38 (912)
I0403 14:55:14.884675 11300 net.cpp:156] Memory required for data: 1346064480
I0403 14:55:14.884701 11300 layer_factory.hpp:77] Creating layer loss3/classifier_plantvillage_loss3/classifier_plantvillage_0_split
I0403 14:55:14.884724 11300 net.cpp:91] Creating Layer loss3/classifier_plantvillage_loss3/classifier_plantvillage_0_split
I0403 14:55:14.884747 11300 net.cpp:425] loss3/classifier_plantvillage_loss3/classifier_plantvillage_0_split <- loss3/classifier_plantvillage
I0403 14:55:14.884774 11300 net.cpp:399] loss3/classifier_plantvillage_loss3/classifier_plantvillage_0_split -> loss3/classifier_plantvillage_loss3/classifier_plantvillage_0_split_0
I0403 14:55:14.884802 11300 net.cpp:399] loss3/classifier_plantvillage_loss3/classifier_plantvillage_0_split -> loss3/classifier_plantvillage_loss3/classifier_plantvillage_0_split_1
I0403 14:55:14.884830 11300 net.cpp:399] loss3/classifier_plantvillage_loss3/classifier_plantvillage_0_split -> loss3/classifier_plantvillage_loss3/classifier_plantvillage_0_split_2
I0403 14:55:14.884858 11300 net.cpp:399] loss3/classifier_plantvillage_loss3/classifier_plantvillage_0_split -> loss3/classifier_plantvillage_loss3/classifier_plantvillage_0_split_3
I0403 14:55:14.884994 11300 net.cpp:141] Setting up loss3/classifier_plantvillage_loss3/classifier_plantvillage_0_split
I0403 14:55:14.885025 11300 net.cpp:148] Top shape: 24 38 (912)
I0403 14:55:14.885046 11300 net.cpp:148] Top shape: 24 38 (912)
I0403 14:55:14.885066 11300 net.cpp:148] Top shape: 24 38 (912)
I0403 14:55:14.885087 11300 net.cpp:148] Top shape: 24 38 (912)
I0403 14:55:14.885105 11300 net.cpp:156] Memory required for data: 1346079072
I0403 14:55:14.885128 11300 layer_factory.hpp:77] Creating layer loss1/loss
I0403 14:55:14.885159 11300 net.cpp:91] Creating Layer loss1/loss
I0403 14:55:14.885184 11300 net.cpp:425] loss1/loss <- loss1/classifier_plantvillage_loss1/classifier_plantvillage_0_split_0
I0403 14:55:14.885226 11300 net.cpp:425] loss1/loss <- label_data_1_split_0
…
