…
I0403 15:02:20.166451 11471 net.cpp:313] The NetState phase (1) differed from the phase (0) specified by a rule in layer data
I0403 15:02:20.167647 11471 net.cpp:49] Initializing net from parameters: 
state {
  phase: TEST
}
layer {
  name: "data"
  type: "Data"
  top: "data"
  top: "label"
  include {
    phase: TEST
  }
  transform_param {
    mirror: false
    crop_size: 224
    mean_file: "/home/mohanty/data/final_dataset/lmdb/grayscale-60-40/mean.binaryproto"
  }
  data_param {
    source: "/home/mohanty/data/final_dataset/lmdb/grayscale-60-40/test_db"
    batch_size: 24
    backend: LMDB
  }
}
layer {
  name: "conv1/7x7_s2"
  type: "Convolution"
  bottom: "data"
  top: "conv1/7x7_s2"
  param {
    lr_mult: 1
    decay_mult: 1
  }
  param {
    lr_mult: 2
    decay_mult: 0
  }
  convolution_param {
    num_output: 64
    pad: 3
    kernel_size: 7
    stride: 2
    weight_filler {
      type: "xavier"
      std: 0.1
    }
    bias_filler {
      type: "constant"
      value: 0.2
    }
  }
}
layer {
  name: "conv1/relu_7x7"
  type: "ReLU"
  bottom: "conv1/7x7_s2"
  top: "conv1/7x7_s2"
}
layer {
  name: "pool1/3x3_s2"
  type: "Pooling"
  bottom: "conv1/7x7_s2"
  top: "pool1/3x3_s2"
  pooling_param {
    pool: MAX
    kernel_size: 3
    stride: 2
  }
}
layer {
  name: "pool1/norm1"
  type: "LRN"
  bottom: "pool1/3x3_s2"
  top: "pool1/norm1"
  lrn_param {
    local_size: 5
    alpha: 0.0001
    beta: 0.75
  }
}
layer {
  name: "conv2/3x3_reduce"
  type: "Convolution"
  bottom: "pool1/norm1"
  top: "conv2/3x3_reduce"
  param {
    lr_mult: 1
    decay_mult: 1
  }
  param {
    lr_mult: 2
    decay_mult: 0
  }
  convolution_param {
    num_output: 64
    kernel_size: 1
    weight_filler {
      type: "xavier"
      std: 0.1
    }
    bias_filler {
      type: "constant"
      value: 0.2
    }
  }
}
layer {
  name: "conv2/relu_3x3_reduce"
  type: "ReLU"
  bottom: "conv2/3x3_reduce"
  top: "conv2/3x3_reduce"
}
layer {
  name: "conv2/3x3"
  type: "Convolution"
  bottom: "conv2/3x3_reduce"
  top: "conv2/3x3"
  param {
    lr_mult: 1
    decay_mult: 1
  }
  param {
    lr_mult: 2
    decay_mult: 0
  }
  convolution_param {
    num_output: 192
    pad: 1
    kernel_size: 3
    weight_filler {
      type: "xavier"
      std: 0.03
    }
    bias_filler {
      type: "constant"
      value: 0.2
    }
  }
}
layer {
  name: "conv2/relu_3x3"
  type: "ReLU"
  bottom: "conv2/3x3"
  top: "conv2/3x3"
}
layer {
  name: "conv2/norm2"
  type: "LRN"
  bottom: "conv2/3x3"
  top: "conv2/norm2"
  lrn_param {
    local_size: 5
    alpha: 0.0001
    beta: 0.75
  }
}
layer {
  name: "pool2/3x3_s2"
  type: "Pooling"
  bottom: "conv2/norm2"
  top: "pool2/3x3_s2"
  pooling_param {
    pool: MAX
    kernel_size: 3
    stride: 2
  }
}
layer {
  name: "inception_3a/1x1"
  type: "Convolution"
  bottom: "pool2/3x3_s2"
  top: "inception_3a/1x1"
  param {
    lr_mult: 1
    decay_mult: 1
  }
  param {
    lr_mult: 2
    decay_mult: 0
  }
  convolution_param {
    num_output: 64
    kernel_size: 1
    weight_filler {
      type: "xavier"
      std: 0.03
    }
    bias_filler {
      type: "constant"
      value: 0.2
    }
  }
}
layer {
  name: "inception_3a/relu_1x1"
  type: "ReLU"
  bottom: "inception_3a/1x1"
  top: "inception_3a/1x1"
}
layer {
  name: "inception_3a/3x3_reduce"
  type: "Convolution"
  bottom: "pool2/3x3_s2"
  top: "inception_3a/3x3_reduce"
  param {
    lr_mult: 1
    decay_mult: 1
  }
  param {
    lr_mult: 2
    decay_mult: 0
  }
  convolution_param {
    num_output: 96
    kernel_size: 1
    weight_filler {
      type: "xavier"
      std: 0.09
    }
    bias_filler {
      type: "constant"
      value: 0.2
    }
  }
}
layer {
  name: "inception_3a/relu_3x3_reduce"
  type: "ReLU"
  bottom: "inception_3a/3x3_reduce"
  top: "inception_3a/3x3_reduce"
}
layer {
  name: "inception_3a/3x3"
  type: "Convolution"
  bottom: "inception_3a/3x3_reduce"
  top: "inception_3a/3x3"
  param {
    lr_mult: 1
    decay_mult: 1
  }
  param {
    lr_mult: 2
    decay_mult: 0
  }
  convolution_param {
    num_output: 128
    pad: 1
    kernel_size: 3
    weight_filler {
      type: "xavier"
      std: 0.03
    }
    bias_filler {
      type: "constant"
      value: 0.2
    }
  }
}
layer {
  name: "inception_3a/relu_3x3"
  type: "ReLU"
  bottom: "inception_3a/3x3"
  top: "inception_3a/3x3"
}
layer {
  name: "inception_3a/5x5_reduce"
  type: "Convolution"
  bottom: "pool2/3x3_s2"
  top: "inception_3a/5x5_reduce"
  param {
    lr_mult: 1
    decay_mult: 1
  }
  param {
    lr_mult: 2
    decay_mult: 0
  }
  convolution_param {
    num_output: 16
    kernel_size: 1
    weight_filler {
      type: "xavier"
      std: 0.2
    }
    bias_filler {
      type: "constant"
      value: 0.2
    }
  }
}
layer {
  name: "inception_3a/relu_5x5_reduce"
  type: "ReLU"
  bottom: "inception_3a/5x5_reduce"
  top: "inception_3a/5x5_reduce"
}
layer {
  name: "inception_3a/5x5"
  type: "Convolution"
  bottom: "inception_3a/5x5_reduce"
  top: "inception_3a/5x5"
  param {
    lr_mult: 1
    decay_mult: 1
  }
  param {
    lr_mult: 2
    decay_mult: 0
  }
  convolution_param {
    num_output: 32
    pad: 2
    kernel_size: 5
    weight_filler {
      type: "xavier"
      std: 0.03
    }
    bias_filler {
      type: "constant"
      value: 0.2
    }
  }
}
layer {
  name: "inception_3a/relu_5x5"
  type: "ReLU"
  bottom: "inception_3a/5x5"
  top: "inception_3a/5x5"
}
layer {
  name: "inception_3a/pool"
  type: "Pooling"
  bottom: "pool2/3x3_s2"
  top: "inception_3a/pool"
  pooling_param {
    pool: MAX
    kernel_size: 3
    stride: 1
    pad: 1
  }
}
layer {
  name: "inception_3a/pool_proj"
  type: "Convolution"
  bottom: "inception_3a/pool"
  top: "inception_3a/pool_proj"
  param {
    lr_mult: 1
    decay_mult: 1
  }
  param {
    lr_mult: 2
    decay_mult: 0
  }
  convolution_param {
    num_output: 32
    kernel_size: 1
    weight_filler {
      type: "xavier"
      std: 0.1
    }
    bias_filler {
      type: "constant"
      value: 0.2
    }
  }
}
layer {
  name: "inception_3a/relu_pool_proj"
  type: "ReLU"
  bottom: "inception_3a/pool_proj"
  top: "inception_3a/pool_proj"
}
layer {
  name: "inception_3a/output"
  type: "Concat"
  bottom: "inception_3a/1x1"
  bottom: "inception_3a/3x3"
  bottom: "inception_3a/5x5"
  bottom: "inception_3a/pool_proj"
  top: "inception_3a/output"
}
layer {
  name: "inception_3b/1x1"
  type: "Convolution"
  bottom: "inception_3a/output"
  top: "inception_3b/1x1"
  param {
    lr_mult: 1
    decay_mult: 1
  }
  param {
    lr_mult: 2
    decay_mult: 0
  }
  convolution_param {
    num_output: 128
    kernel_size: 1
    weight_filler {
      type: "xavier"
      std: 0.03
    }
    bias_filler {
      type: "constant"
      value: 0.2
    }
  }
}
layer {
  name: "inception_3b/relu_1x1"
  type: "ReLU"
  bottom: "inception_3b/1x1"
  top: "inception_3b/1x1"
}
layer {
  name: "inception_3b/3x3_reduce"
  type: "Convolution"
  bottom: "inception_3a/output"
  top: "inception_3b/3x3_reduce"
  param {
    lr_mult: 1
    decay_mult: 1
  }
  param {
    lr_mult: 2
    decay_mult: 0
  }
  convolution_param {
    num_output: 128
    kernel_size: 1
    weight_filler {
      type: "xavier"
      std: 0.09
    }
    bias_filler {
      type: "constant"
      value: 0.2
    }
  }
}
layer {
  name: "inception_3b/relu_3x3_reduce"
  type: "ReLU"
  bottom: "inception_3b/3x3_reduce"
  top: "inception_3b/3x3_reduce"
}
layer {
  name: "inception_3b/3x3"
  type: "Convolution"
  bottom: "inception_3b/3x3_reduce"
  top: "inception_3b/3x3"
  param {
    lr_mult: 1
    decay_mult: 1
  }
  param {
    lr_mult: 2
    decay_mult: 0
  }
  convolution_param {
    num_output: 192
    pad: 1
    kernel_size: 3
    weight_filler {
      type: "xavier"
      std: 0.03
    }
    bias_filler {
      type: "constant"
      value: 0.2
    }
  }
}
layer {
  name: "inception_3b/relu_3x3"
  type: "ReLU"
  bottom: "inception_3b/3x3"
  top: "inception_3b/3x3"
}
layer {
  name: "inception_3b/5x5_reduce"
  type: "Convolution"
  bottom: "inception_3a/output"
  top: "inception_3b/5x5_reduce"
  param {
    lr_mult: 1
    decay_mult: 1
  }
  param {
    lr_mult: 2
    decay_mult: 0
  }
  convolution_param {
    num_output: 32
    kernel_size: 1
    weight_filler {
      type: "xavier"
      std: 0.2
    }
    bias_filler {
      type: "constant"
      value: 0.2
    }
  }
}
layer {
  name: "inception_3b/relu_5x5_reduce"
  type: "ReLU"
  bottom: "inception_3b/5x5_reduce"
  top: "inception_3b/5x5_reduce"
}
layer {
  name: "inception_3b/5x5"
  type: "Convolution"
  bottom: "inception_3b/5x5_reduce"
  top: "inception_3b/5x5"
  param {
    lr_mult: 1
    decay_mult: 1
  }
  param {
    lr_mult: 2
    decay_mult: 0
  }
  convolution_param {
    num_output: 96
    pad: 2
    kernel_size: 5
    weight_filler {
      type: "xavier"
      std: 0.03
    }
    bias_filler {
      type: "constant"
      value: 0.2
    }
  }
}
layer {
  name: "inception_3b/relu_5x5"
  type: "ReLU"
  bottom: "inception_3b/5x5"
  top: "inception_3b/5x5"
}
layer {
  name: "inception_3b/pool"
  type: "Pooling"
  bottom: "inception_3a/output"
  top: "inception_3b/pool"
  pooling_param {
    pool: MAX
    kernel_size: 3
    stride: 1
    pad: 1
  }
}
layer {
  name: "inception_3b/pool_proj"
  type: "Convolution"
  bottom: "inception_3b/pool"
  top: "inception_3b/pool_proj"
  param {
    lr_mult: 1
    decay_mult: 1
  }
  param {
    lr_mult: 2
    decay_mult: 0
  }
  convolution_param {
    num_output: 64
    kernel_size: 1
    weight_filler {
      type: "xavier"
      std: 0.1
    }
    bias_filler {
      type: "constant"
      value: 0.2
    }
  }
}
layer {
  name: "inception_3b/relu_pool_proj"
  type: "ReLU"
  bottom: "inception_3b/pool_proj"
  top: "inception_3b/pool_proj"
}
layer {
  name: "inception_3b/output"
  type: "Concat"
  bottom: "inception_3b/1x1"
  bottom: "inception_3b/3x3"
  bottom: "inception_3b/5x5"
  bottom: "inception_3b/pool_proj"
  top: "inception_3b/output"
}
layer {
  name: "pool3/3x3_s2"
  type: "Pooling"
  bottom: "inception_3b/output"
  top: "pool3/3x3_s2"
  pooling_param {
    pool: MAX
    kernel_size: 3
    stride: 2
  }
}
layer {
  name: "inception_4a/1x1"
  type: "Convolution"
  bottom: "pool3/3x3_s2"
  top: "inception_4a/1x1"
  param {
    lr_mult: 1
    decay_mult: 1
  }
  param {
    lr_mult: 2
    decay_mult: 0
  }
  convolution_param {
    num_output: 192
    kernel_size: 1
    weight_filler {
      type: "xavier"
      std: 0.03
    }
    bias_filler {
      type: "constant"
      value: 0.2
    }
  }
}
layer {
  name: "inception_4a/relu_1x1"
  type: "ReLU"
  bottom: "inception_4a/1x1"
  top: "inception_4a/1x1"
}
layer {
  name: "inception_4a/3x3_reduce"
  type: "Convolution"
  bottom: "pool3/3x3_s2"
  top: "inception_4a/3x3_reduce"
  param {
    lr_mult: 1
    decay_mult: 1
  }
  param {
    lr_mult: 2
    decay_mult: 0
  }
  convolution_param {
    num_output: 96
    kernel_size: 1
    weight_filler {
      type: "xavier"
      std: 0.09
    }
    bias_filler {
      type: "constant"
      value: 0.2
    }
  }
}
layer {
  name: "inception_4a/relu_3x3_reduce"
  type: "ReLU"
  bottom: "inception_4a/3x3_reduce"
  top: "inception_4a/3x3_reduce"
}
layer {
  name: "inception_4a/3x3"
  type: "Convolution"
  bottom: "inception_4a/3x3_reduce"
  top: "inception_4a/3x3"
  param {
    lr_mult: 1
    decay_mult: 1
  }
  param {
    lr_mult: 2
    decay_mult: 0
  }
  convolution_param {
    num_output: 208
    pad: 1
    kernel_size: 3
    weight_filler {
      type: "xavier"
      std: 0.03
    }
    bias_filler {
      type: "constant"
      value: 0.2
    }
  }
}
layer {
  name: "inception_4a/relu_3x3"
  type: "ReLU"
  bottom: "inception_4a/3x3"
  top: "inception_4a/3x3"
}
layer {
  name: "inception_4a/5x5_reduce"
  type: "Convolution"
  bottom: "pool3/3x3_s2"
  top: "inception_4a/5x5_reduce"
  param {
    lr_mult: 1
    decay_mult: 1
  }
  param {
    lr_mult: 2
    decay_mult: 0
  }
  convolution_param {
    num_output: 16
    kernel_size: 1
    weight_filler {
      type: "xavier"
      std: 0.2
    }
    bias_filler {
      type: "constant"
      value: 0.2
    }
  }
}
layer {
  name: "inception_4a/relu_5x5_reduce"
  type: "ReLU"
  bottom: "inception_4a/5x5_reduce"
  top: "inception_4a/5x5_reduce"
}
layer {
  name: "inception_4a/5x5"
  type: "Convolution"
  bottom: "inception_4a/5x5_reduce"
  top: "inception_4a/5x5"
  param {
    lr_mult: 1
    decay_mult: 1
  }
  param {
    lr_mult: 2
    decay_mult: 0
  }
  convolution_param {
    num_output: 48
    pad: 2
    kernel_size: 5
    weight_filler {
      type: "xavier"
      std: 0.03
    }
    bias_filler {
      type: "constant"
      value: 0.2
    }
  }
}
layer {
  name: "inception_4a/relu_5x5"
  type: "ReLU"
  bottom: "inception_4a/5x5"
  top: "inception_4a/5x5"
}
layer {
  name: "inception_4a/pool"
  type: "Pooling"
  bottom: "pool3/3x3_s2"
  top: "inception_4a/pool"
  pooling_param {
    pool: MAX
    kernel_size: 3
    stride: 1
    pad: 1
  }
}
layer {
  name: "inception_4a/pool_proj"
  type: "Convolution"
  bottom: "inception_4a/pool"
  top: "inception_4a/pool_proj"
  param {
    lr_mult: 1
    decay_mult: 1
  }
  param {
    lr_mult: 2
    decay_mult: 0
  }
  convolution_param {
    num_output: 64
    kernel_size: 1
    weight_filler {
      type: "xavier"
      std: 0.1
    }
    bias_filler {
      type: "constant"
      value: 0.2
    }
  }
}
layer {
  name: "inception_4a/relu_pool_proj"
  type: "ReLU"
  bottom: "inception_4a/pool_proj"
  top: "inception_4a/pool_proj"
}
layer {
  name: "inception_4a/output"
  type: "Concat"
  bottom: "inception_4a/1x1"
  bottom: "inception_4a/3x3"
  bottom: "inception_4a/5x5"
  bottom: "inception_4a/pool_proj"
  top: "inception_4a/output"
}
layer {
  name: "loss1/ave_pool"
  type: "Pooling"
  bottom: "inception_4a/output"
  top: "loss1/ave_pool"
  pooling_param {
    pool: AVE
    kernel_size: 5
    stride: 3
  }
}
layer {
  name: "loss1/conv"
  type: "Convolution"
  bottom: "loss1/ave_pool"
  top: "loss1/conv"
  param {
    lr_mult: 1
    decay_mult: 1
  }
  param {
    lr_mult: 2
    decay_mult: 0
  }
  convolution_param {
    num_output: 128
    kernel_size: 1
    weight_filler {
      type: "xavier"
      std: 0.08
    }
    bias_filler {
      type: "constant"
      value: 0.2
    }
  }
}
layer {
  name: "loss1/relu_conv"
  type: "ReLU"
  bottom: "loss1/conv"
  top: "loss1/conv"
}
layer {
  name: "loss1/fc"
  type: "InnerProduct"
  bottom: "loss1/conv"
  top: "loss1/fc"
  param {
    lr_mult: 1
    decay_mult: 1
  }
  param {
    lr_mult: 2
    decay_mult: 0
  }
  inner_product_param {
    num_output: 1024
    weight_filler {
      type: "xavier"
      std: 0.02
    }
    bias_filler {
      type: "constant"
      value: 0.2
    }
  }
}
layer {
  name: "loss1/relu_fc"
  type: "ReLU"
  bottom: "loss1/fc"
  top: "loss1/fc"
}
layer {
  name: "loss1/drop_fc"
  type: "Dropout"
  bottom: "loss1/fc"
  top: "loss1/fc"
  dropout_param {
    dropout_ratio: 0.7
  }
}
layer {
  name: "loss1/classifier_plantvillage"
  type: "InnerProduct"
  bottom: "loss1/fc"
  top: "loss1/classifier_plantvillage"
  param {
    lr_mult: 1
    decay_mult: 1
  }
  param {
    lr_mult: 2
    decay_mult: 0
  }
  inner_product_param {
    num_output: 38
    weight_filler {
      type: "xavier"
      std: 0.0009765625
    }
    bias_filler {
      type: "constant"
      value: 0
    }
  }
}
layer {
  name: "inception_4b/1x1"
  type: "Convolution"
  bottom: "inception_4a/output"
  top: "inception_4b/1x1"
  param {
    lr_mult: 1
    decay_mult: 1
  }
  param {
    lr_mult: 2
    decay_mult: 0
  }
  convolution_param {
    num_output: 160
    kernel_size: 1
    weight_filler {
      type: "xavier"
      std: 0.03
    }
    bias_filler {
      type: "constant"
      value: 0.2
    }
  }
}
layer {
  name: "inception_4b/relu_1x1"
  type: "ReLU"
  bottom: "inception_4b/1x1"
  top: "inception_4b/1x1"
}
layer {
  name: "inception_4b/3x3_reduce"
  type: "Convolution"
  bottom: "inception_4a/output"
  top: "inception_4b/3x3_reduce"
  param {
    lr_mult: 1
    decay_mult: 1
  }
  param {
    lr_mult: 2
    decay_mult: 0
  }
  convolution_param {
    num_output: 112
    kernel_size: 1
    weight_filler {
      type: "xavier"
      std: 0.09
    }
    bias_filler {
      type: "constant"
      value: 0.2
    }
  }
}
layer {
  name: "inception_4b/relu_3x3_reduce"
  type: "ReLU"
  bottom: "inception_4b/3x3_reduce"
  top: "inception_4b/3x3_reduce"
}
layer {
  name: "inception_4b/3x3"
  type: "Convolution"
  bottom: "inception_4b/3x3_reduce"
  top: "inception_4b/3x3"
  param {
    lr_mult: 1
    decay_mult: 1
  }
  param {
    lr_mult: 2
    decay_mult: 0
  }
  convolution_param {
    num_output: 224
    pad: 1
    kernel_size: 3
    weight_filler {
      type: "xavier"
      std: 0.03
    }
    bias_filler {
      type: "constant"
      value: 0.2
    }
  }
}
layer {
  name: "inception_4b/relu_3x3"
  type: "ReLU"
  bottom: "inception_4b/3x3"
  top: "inception_4b/3x3"
}
layer {
  name: "inception_4b/5x5_reduce"
  type: "Convolution"
  bottom: "inception_4a/output"
  top: "inception_4b/5x5_reduce"
  param {
    lr_mult: 1
    decay_mult: 1
  }
  param {
    lr_mult: 2
    decay_mult: 0
  }
  convolution_param {
    num_output: 24
    kernel_size: 1
    weight_filler {
      type: "xavier"
      std: 0.2
    }
    bias_filler {
      type: "constant"
      value: 0.2
    }
  }
}
layer {
  name: "inception_4b/relu_5x5_reduce"
  type: "ReLU"
  bottom: "inception_4b/5x5_reduce"
  top: "inception_4b/5x5_reduce"
}
layer {
  name: "inception_4b/5x5"
  type: "Convolution"
  bottom: "inception_4b/5x5_reduce"
  top: "inception_4b/5x5"
  param {
    lr_mult: 1
    decay_mult: 1
  }
  param {
    lr_mult: 2
    decay_mult: 0
  }
  convolution_param {
    num_output: 64
    pad: 2
    kernel_size: 5
    weight_filler {
      type: "xavier"
      std: 0.03
    }
    bias_filler {
      type: "constant"
      value: 0.2
    }
  }
}
layer {
  name: "inception_4b/relu_5x5"
  type: "ReLU"
  bottom: "inception_4b/5x5"
  top: "inception_4b/5x5"
}
layer {
  name: "inception_4b/pool"
  type: "Pooling"
  bottom: "inception_4a/output"
  top: "inception_4b/pool"
  pooling_param {
    pool: MAX
    kernel_size: 3
    stride: 1
    pad: 1
  }
}
layer {
  name: "inception_4b/pool_proj"
  type: "Convolution"
  bottom: "inception_4b/pool"
  top: "inception_4b/pool_proj"
  param {
    lr_mult: 1
    decay_mult: 1
  }
  param {
    lr_mult: 2
    decay_mult: 0
  }
  convolution_param {
    num_output: 64
    kernel_size: 1
    weight_filler {
      type: "xavier"
      std: 0.1
    }
    bias_filler {
      type: "constant"
      value: 0.2
    }
  }
}
layer {
  name: "inception_4b/relu_pool_proj"
  type: "ReLU"
  bottom: "inception_4b/pool_proj"
  top: "inception_4b/pool_proj"
}
layer {
  name: "inception_4b/output"
  type: "Concat"
  bottom: "inception_4b/1x1"
  bottom: "inception_4b/3x3"
  bottom: "inception_4b/5x5"
  bottom: "inception_4b/pool_proj"
  top: "inception_4b/output"
}
layer {
  name: "inception_4c/1x1"
  type: "Convolution"
  bottom: "inception_4b/output"
  top: "inception_4c/1x1"
  param {
    lr_mult: 1
    decay_mult: 1
  }
  param {
    lr_mult: 2
    decay_mult: 0
  }
  convolution_param {
    num_output: 128
    kernel_size: 1
    weight_filler {
      type: "xavier"
      std: 0.03
    }
    bias_filler {
      type: "constant"
      value: 0.2
    }
  }
}
layer {
  name: "inception_4c/relu_1x1"
  type: "ReLU"
  bottom: "inception_4c/1x1"
  top: "inception_4c/1x1"
}
layer {
  name: "inception_4c/3x3_reduce"
  type: "Convolution"
  bottom: "inception_4b/output"
  top: "inception_4c/3x3_reduce"
  param {
    lr_mult: 1
    decay_mult: 1
  }
  param {
    lr_mult: 2
    decay_mult: 0
  }
  convolution_param {
    num_output: 128
    kernel_size: 1
    weight_filler {
      type: "xavier"
      std: 0.09
    }
    bias_filler {
      type: "constant"
      value: 0.2
    }
  }
}
layer {
  name: "inception_4c/relu_3x3_reduce"
  type: "ReLU"
  bottom: "inception_4c/3x3_reduce"
  top: "inception_4c/3x3_reduce"
}
layer {
  name: "inception_4c/3x3"
  type: "Convolution"
  bottom: "inception_4c/3x3_reduce"
  top: "inception_4c/3x3"
  param {
    lr_mult: 1
    decay_mult: 1
  }
  param {
    lr_mult: 2
    decay_mult: 0
  }
  convolution_param {
    num_output: 256
    pad: 1
    kernel_size: 3
    weight_filler {
      type: "xavier"
      std: 0.03
    }
    bias_filler {
      type: "constant"
      value: 0.2
    }
  }
}
layer {
  name: "inception_4c/relu_3x3"
  type: "ReLU"
  bottom: "inception_4c/3x3"
  top: "inception_4c/3x3"
}
layer {
  name: "inception_4c/5x5_reduce"
  type: "Convolution"
  bottom: "inception_4b/output"
  top: "inception_4c/5x5_reduce"
  param {
    lr_mult: 1
    decay_mult: 1
  }
  param {
    lr_mult: 2
    decay_mult: 0
  }
  convolution_param {
    num_output: 24
    kernel_size: 1
    weight_filler {
      type: "xavier"
      std: 0.2
    }
    bias_filler {
      type: "constant"
      value: 0.2
    }
  }
}
layer {
  name: "inception_4c/relu_5x5_reduce"
  type: "ReLU"
  bottom: "inception_4c/5x5_reduce"
  top: "inception_4c/5x5_reduce"
}
layer {
  name: "inception_4c/5x5"
  type: "Convolution"
  bottom: "inception_4c/5x5_reduce"
  top: "inception_4c/5x5"
  param {
    lr_mult: 1
    decay_mult: 1
  }
  param {
    lr_mult: 2
    decay_mult: 0
  }
  convolution_param {
    num_output: 64
    pad: 2
    kernel_size: 5
    weight_filler {
      type: "xavier"
      std: 0.03
    }
    bias_filler {
      type: "constant"
      value: 0.2
    }
  }
}
layer {
  name: "inception_4c/relu_5x5"
  type: "ReLU"
  bottom: "inception_4c/5x5"
  top: "inception_4c/5x5"
}
layer {
  name: "inception_4c/pool"
  type: "Pooling"
  bottom: "inception_4b/output"
  top: "inception_4c/pool"
  pooling_param {
    pool: MAX
    kernel_size: 3
    stride: 1
    pad: 1
  }
}
layer {
  name: "inception_4c/pool_proj"
  type: "Convolution"
  bottom: "inception_4c/pool"
  top: "inception_4c/pool_proj"
  param {
    lr_mult: 1
    decay_mult: 1
  }
  param {
    lr_mult: 2
    decay_mult: 0
  }
  convolution_param {
    num_output: 64
    kernel_size: 1
    weight_filler {
      type: "xavier"
      std: 0.1
    }
    bias_filler {
      type: "constant"
      value: 0.2
    }
  }
}
layer {
  name: "inception_4c/relu_pool_proj"
  type: "ReLU"
  bottom: "inception_4c/pool_proj"
  top: "inception_4c/pool_proj"
}
layer {
  name: "inception_4c/output"
  type: "Concat"
  bottom: "inception_4c/1x1"
  bottom: "inception_4c/3x3"
  bottom: "inception_4c/5x5"
  bottom: "inception_4c/pool_proj"
  top: "inception_4c/output"
}
layer {
  name: "inception_4d/1x1"
  type: "Convolution"
  bottom: "inception_4c/output"
  top: "inception_4d/1x1"
  param {
    lr_mult: 1
    decay_mult: 1
  }
  param {
    lr_mult: 2
    decay_mult: 0
  }
  convolution_param {
    num_output: 112
    kernel_size: 1
    weight_filler {
      type: "xavier"
      std: 0.03
    }
    bias_filler {
      type: "constant"
      value: 0.2
    }
  }
}
layer {
  name: "inception_4d/relu_1x1"
  type: "ReLU"
  bottom: "inception_4d/1x1"
  top: "inception_4d/1x1"
}
layer {
  name: "inception_4d/3x3_reduce"
  type: "Convolution"
  bottom: "inception_4c/output"
  top: "inception_4d/3x3_reduce"
  param {
    lr_mult: 1
    decay_mult: 1
  }
  param {
    lr_mult: 2
    decay_mult: 0
  }
  convolution_param {
    num_output: 144
    kernel_size: 1
    weight_filler {
      type: "xavier"
      std: 0.09
    }
    bias_filler {
      type: "constant"
      value: 0.2
    }
  }
}
layer {
  name: "inception_4d/relu_3x3_reduce"
  type: "ReLU"
  bottom: "inception_4d/3x3_reduce"
  top: "inception_4d/3x3_reduce"
}
layer {
  name: "inception_4d/3x3"
  type: "Convolution"
  bottom: "inception_4d/3x3_reduce"
  top: "inception_4d/3x3"
  param {
    lr_mult: 1
    decay_mult: 1
  }
  param {
    lr_mult: 2
    decay_mult: 0
  }
  convolution_param {
    num_output: 288
    pad: 1
    kernel_size: 3
    weight_filler {
      type: "xavier"
      std: 0.03
    }
    bias_filler {
      type: "constant"
      value: 0.2
    }
  }
}
layer {
  name: "inception_4d/relu_3x3"
  type: "ReLU"
  bottom: "inception_4d/3x3"
  top: "inception_4d/3x3"
}
layer {
  name: "inception_4d/5x5_reduce"
  type: "Convolution"
  bottom: "inception_4c/output"
  top: "inception_4d/5x5_reduce"
  param {
    lr_mult: 1
    decay_mult: 1
  }
  param {
    lr_mult: 2
    decay_mult: 0
  }
  convolution_param {
    num_output: 32
    kernel_size: 1
    weight_filler {
      type: "xavier"
      std: 0.2
    }
    bias_filler {
      type: "constant"
      value: 0.2
    }
  }
}
layer {
  name: "inception_4d/relu_5x5_reduce"
  type: "ReLU"
  bottom: "inception_4d/5x5_reduce"
  top: "inception_4d/5x5_reduce"
}
layer {
  name: "inception_4d/5x5"
  type: "Convolution"
  bottom: "inception_4d/5x5_reduce"
  top: "inception_4d/5x5"
  param {
    lr_mult: 1
    decay_mult: 1
  }
  param {
    lr_mult: 2
    decay_mult: 0
  }
  convolution_param {
    num_output: 64
    pad: 2
    kernel_size: 5
    weight_filler {
      type: "xavier"
      std: 0.03
    }
    bias_filler {
      type: "constant"
      value: 0.2
    }
  }
}
layer {
  name: "inception_4d/relu_5x5"
  type: "ReLU"
  bottom: "inception_4d/5x5"
  top: "inception_4d/5x5"
}
layer {
  name: "inception_4d/pool"
  type: "Pooling"
  bottom: "inception_4c/output"
  top: "inception_4d/pool"
  pooling_param {
    pool: MAX
    kernel_size: 3
    stride: 1
    pad: 1
  }
}
layer {
  name: "inception_4d/pool_proj"
  type: "Convolution"
  bottom: "inception_4d/pool"
  top: "inception_4d/pool_proj"
  param {
    lr_mult: 1
    decay_mult: 1
  }
  param {
    lr_mult: 2
    decay_mult: 0
  }
  convolution_param {
    num_output: 64
    kernel_size: 1
    weight_filler {
      type: "xavier"
      std: 0.1
    }
    bias_filler {
      type: "constant"
      value: 0.2
    }
  }
}
layer {
  name: "inception_4d/relu_pool_proj"
  type: "ReLU"
  bottom: "inception_4d/pool_proj"
  top: "inception_4d/pool_proj"
}
layer {
  name: "inception_4d/output"
  type: "Concat"
  bottom: "inception_4d/1x1"
  bottom: "inception_4d/3x3"
  bottom: "inception_4d/5x5"
  bottom: "inception_4d/pool_proj"
  top: "inception_4d/output"
}
layer {
  name: "loss2/ave_pool"
  type: "Pooling"
  bottom: "inception_4d/output"
  top: "loss2/ave_pool"
  pooling_param {
    pool: AVE
    kernel_size: 5
    stride: 3
  }
}
layer {
  name: "loss2/conv"
  type: "Convolution"
  bottom: "loss2/ave_pool"
  top: "loss2/conv"
  param {
    lr_mult: 1
    decay_mult: 1
  }
  param {
    lr_mult: 2
    decay_mult: 0
  }
  convolution_param {
    num_output: 128
    kernel_size: 1
    weight_filler {
      type: "xavier"
      std: 0.08
    }
    bias_filler {
      type: "constant"
      value: 0.2
    }
  }
}
layer {
  name: "loss2/relu_conv"
  type: "ReLU"
  bottom: "loss2/conv"
  top: "loss2/conv"
}
layer {
  name: "loss2/fc"
  type: "InnerProduct"
  bottom: "loss2/conv"
  top: "loss2/fc"
  param {
    lr_mult: 1
    decay_mult: 1
  }
  param {
    lr_mult: 2
    decay_mult: 0
  }
  inner_product_param {
    num_output: 1024
    weight_filler {
      type: "xavier"
      std: 0.02
    }
    bias_filler {
      type: "constant"
      value: 0.2
    }
  }
}
layer {
  name: "loss2/relu_fc"
  type: "ReLU"
  bottom: "loss2/fc"
  top: "loss2/fc"
}
layer {
  name: "loss2/drop_fc"
  type: "Dropout"
  bottom: "loss2/fc"
  top: "loss2/fc"
  dropout_param {
    dropout_ratio: 0.7
  }
}
layer {
  name: "loss2/classifier_plantvillage"
  type: "InnerProduct"
  bottom: "loss2/fc"
  top: "loss2/classifier_plantvillage"
  param {
    lr_mult: 1
    decay_mult: 1
  }
  param {
    lr_mult: 2
    decay_mult: 0
  }
  inner_product_param {
    num_output: 38
    weight_filler {
      type: "xavier"
      std: 0.0009765625
    }
    bias_filler {
      type: "constant"
      value: 0
    }
  }
}
layer {
  name: "inception_4e/1x1"
  type: "Convolution"
  bottom: "inception_4d/output"
  top: "inception_4e/1x1"
  param {
    lr_mult: 1
    decay_mult: 1
  }
  param {
    lr_mult: 2
    decay_mult: 0
  }
  convolution_param {
    num_output: 256
    kernel_size: 1
    weight_filler {
      type: "xavier"
      std: 0.03
    }
    bias_filler {
      type: "constant"
      value: 0.2
    }
  }
}
layer {
  name: "inception_4e/relu_1x1"
  type: "ReLU"
  bottom: "inception_4e/1x1"
  top: "inception_4e/1x1"
}
layer {
  name: "inception_4e/3x3_reduce"
  type: "Convolution"
  bottom: "inception_4d/output"
  top: "inception_4e/3x3_reduce"
  param {
    lr_mult: 1
    decay_mult: 1
  }
  param {
    lr_mult: 2
    decay_mult: 0
  }
  convolution_param {
    num_output: 160
    kernel_size: 1
    weight_filler {
      type: "xavier"
      std: 0.09
    }
    bias_filler {
      type: "constant"
      value: 0.2
    }
  }
}
layer {
  name: "inception_4e/relu_3x3_reduce"
  type: "ReLU"
  bottom: "inception_4e/3x3_reduce"
  top: "inception_4e/3x3_reduce"
}
layer {
  name: "inception_4e/3x3"
  type: "Convolution"
  bottom: "inception_4e/3x3_reduce"
  top: "inception_4e/3x3"
  param {
    lr_mult: 1
    decay_mult: 1
  }
  param {
    lr_mult: 2
    decay_mult: 0
  }
  convolution_param {
    num_output: 320
    pad: 1
    kernel_size: 3
    weight_filler {
      type: "xavier"
      std: 0.03
    }
    bias_filler {
      type: "constant"
      value: 0.2
    }
  }
}
layer {
  name: "inception_4e/relu_3x3"
  type: "ReLU"
  bottom: "inception_4e/3x3"
  top: "inception_4e/3x3"
}
layer {
  name: "inception_4e/5x5_reduce"
  type: "Convolution"
  bottom: "inception_4d/output"
  top: "inception_4e/5x5_reduce"
  param {
    lr_mult: 1
    decay_mult: 1
  }
  param {
    lr_mult: 2
    decay_mult: 0
  }
  convolution_param {
    num_output: 32
    kernel_size: 1
    weight_filler {
      type: "xavier"
      std: 0.2
    }
    bias_filler {
      type: "constant"
      value: 0.2
    }
  }
}
layer {
  name: "inception_4e/relu_5x5_reduce"
  type: "ReLU"
  bottom: "inception_4e/5x5_reduce"
  top: "inception_4e/5x5_reduce"
}
layer {
  name: "inception_4e/5x5"
  type: "Convolution"
  bottom: "inception_4e/5x5_reduce"
  top: "inception_4e/
I0403 15:02:20.168896 11471 layer_factory.hpp:77] Creating layer data
I0403 15:02:20.169548 11471 net.cpp:91] Creating Layer data
I0403 15:02:20.169580 11471 net.cpp:399] data -> data
I0403 15:02:20.169632 11471 net.cpp:399] data -> label
I0403 15:02:20.169670 11471 data_transformer.cpp:25] Loading mean file from: /home/mohanty/data/final_dataset/lmdb/grayscale-60-40/mean.binaryproto
I0403 15:02:20.172309 11474 db_lmdb.cpp:38] Opened lmdb /home/mohanty/data/final_dataset/lmdb/grayscale-60-40/test_db
I0403 15:02:20.183506 11471 data_layer.cpp:41] output data size: 24,3,224,224
I0403 15:02:20.211000 11471 net.cpp:141] Setting up data
I0403 15:02:20.211084 11471 net.cpp:148] Top shape: 24 3 224 224 (3612672)
I0403 15:02:20.211107 11471 net.cpp:148] Top shape: 24 (24)
I0403 15:02:20.211123 11471 net.cpp:156] Memory required for data: 14450784
I0403 15:02:20.211159 11471 layer_factory.hpp:77] Creating layer label_data_1_split
I0403 15:02:20.211186 11471 net.cpp:91] Creating Layer label_data_1_split
I0403 15:02:20.211206 11471 net.cpp:425] label_data_1_split <- label
I0403 15:02:20.211238 11471 net.cpp:399] label_data_1_split -> label_data_1_split_0
I0403 15:02:20.211267 11471 net.cpp:399] label_data_1_split -> label_data_1_split_1
I0403 15:02:20.211289 11471 net.cpp:399] label_data_1_split -> label_data_1_split_2
I0403 15:02:20.211310 11471 net.cpp:399] label_data_1_split -> label_data_1_split_3
I0403 15:02:20.211331 11471 net.cpp:399] label_data_1_split -> label_data_1_split_4
I0403 15:02:20.211351 11471 net.cpp:399] label_data_1_split -> label_data_1_split_5
I0403 15:02:20.211372 11471 net.cpp:399] label_data_1_split -> label_data_1_split_6
I0403 15:02:20.211392 11471 net.cpp:399] label_data_1_split -> label_data_1_split_7
I0403 15:02:20.211410 11471 net.cpp:399] label_data_1_split -> label_data_1_split_8
I0403 15:02:20.211431 11471 net.cpp:399] label_data_1_split -> label_data_1_split_9
I0403 15:02:20.211550 11471 net.cpp:141] Setting up label_data_1_split
I0403 15:02:20.211575 11471 net.cpp:148] Top shape: 24 (24)
I0403 15:02:20.211592 11471 net.cpp:148] Top shape: 24 (24)
I0403 15:02:20.211608 11471 net.cpp:148] Top shape: 24 (24)
I0403 15:02:20.211623 11471 net.cpp:148] Top shape: 24 (24)
I0403 15:02:20.211639 11471 net.cpp:148] Top shape: 24 (24)
I0403 15:02:20.211653 11471 net.cpp:148] Top shape: 24 (24)
I0403 15:02:20.211670 11471 net.cpp:148] Top shape: 24 (24)
I0403 15:02:20.211685 11471 net.cpp:148] Top shape: 24 (24)
I0403 15:02:20.211701 11471 net.cpp:148] Top shape: 24 (24)
I0403 15:02:20.211716 11471 net.cpp:148] Top shape: 24 (24)
I0403 15:02:20.211760 11471 net.cpp:156] Memory required for data: 14451744
I0403 15:02:20.211776 11471 layer_factory.hpp:77] Creating layer conv1/7x7_s2
I0403 15:02:20.211808 11471 net.cpp:91] Creating Layer conv1/7x7_s2
I0403 15:02:20.211828 11471 net.cpp:425] conv1/7x7_s2 <- data
I0403 15:02:20.211849 11471 net.cpp:399] conv1/7x7_s2 -> conv1/7x7_s2
I0403 15:02:20.356199 11471 net.cpp:141] Setting up conv1/7x7_s2
I0403 15:02:20.356289 11471 net.cpp:148] Top shape: 24 64 112 112 (19267584)
I0403 15:02:20.356308 11471 net.cpp:156] Memory required for data: 91522080
I0403 15:02:20.356339 11471 layer_factory.hpp:77] Creating layer conv1/relu_7x7
I0403 15:02:20.356369 11471 net.cpp:91] Creating Layer conv1/relu_7x7
I0403 15:02:20.356389 11471 net.cpp:425] conv1/relu_7x7 <- conv1/7x7_s2
I0403 15:02:20.356408 11471 net.cpp:386] conv1/relu_7x7 -> conv1/7x7_s2 (in-place)
I0403 15:02:20.356676 11471 net.cpp:141] Setting up conv1/relu_7x7
I0403 15:02:20.356706 11471 net.cpp:148] Top shape: 24 64 112 112 (19267584)
I0403 15:02:20.356724 11471 net.cpp:156] Memory required for data: 168592416
I0403 15:02:20.356739 11471 layer_factory.hpp:77] Creating layer pool1/3x3_s2
I0403 15:02:20.356765 11471 net.cpp:91] Creating Layer pool1/3x3_s2
I0403 15:02:20.356783 11471 net.cpp:425] pool1/3x3_s2 <- conv1/7x7_s2
I0403 15:02:20.356803 11471 net.cpp:399] pool1/3x3_s2 -> pool1/3x3_s2
I0403 15:02:20.356881 11471 net.cpp:141] Setting up pool1/3x3_s2
I0403 15:02:20.356907 11471 net.cpp:148] Top shape: 24 64 56 56 (4816896)
I0403 15:02:20.356923 11471 net.cpp:156] Memory required for data: 187860000
I0403 15:02:20.356941 11471 layer_factory.hpp:77] Creating layer pool1/norm1
I0403 15:02:20.356966 11471 net.cpp:91] Creating Layer pool1/norm1
I0403 15:02:20.356986 11471 net.cpp:425] pool1/norm1 <- pool1/3x3_s2
I0403 15:02:20.357003 11471 net.cpp:399] pool1/norm1 -> pool1/norm1
I0403 15:02:20.357308 11471 net.cpp:141] Setting up pool1/norm1
I0403 15:02:20.357339 11471 net.cpp:148] Top shape: 24 64 56 56 (4816896)
I0403 15:02:20.357357 11471 net.cpp:156] Memory required for data: 207127584
I0403 15:02:20.357373 11471 layer_factory.hpp:77] Creating layer conv2/3x3_reduce
I0403 15:02:20.357399 11471 net.cpp:91] Creating Layer conv2/3x3_reduce
I0403 15:02:20.357417 11471 net.cpp:425] conv2/3x3_reduce <- pool1/norm1
I0403 15:02:20.357437 11471 net.cpp:399] conv2/3x3_reduce -> conv2/3x3_reduce
I0403 15:02:20.358930 11471 net.cpp:141] Setting up conv2/3x3_reduce
I0403 15:02:20.358963 11471 net.cpp:148] Top shape: 24 64 56 56 (4816896)
I0403 15:02:20.358978 11471 net.cpp:156] Memory required for data: 226395168
I0403 15:02:20.359000 11471 layer_factory.hpp:77] Creating layer conv2/relu_3x3_reduce
I0403 15:02:20.359024 11471 net.cpp:91] Creating Layer conv2/relu_3x3_reduce
I0403 15:02:20.359042 11471 net.cpp:425] conv2/relu_3x3_reduce <- conv2/3x3_reduce
I0403 15:02:20.359061 11471 net.cpp:386] conv2/relu_3x3_reduce -> conv2/3x3_reduce (in-place)
I0403 15:02:20.359343 11471 net.cpp:141] Setting up conv2/relu_3x3_reduce
I0403 15:02:20.359371 11471 net.cpp:148] Top shape: 24 64 56 56 (4816896)
I0403 15:02:20.359388 11471 net.cpp:156] Memory required for data: 245662752
I0403 15:02:20.359403 11471 layer_factory.hpp:77] Creating layer conv2/3x3
I0403 15:02:20.359431 11471 net.cpp:91] Creating Layer conv2/3x3
I0403 15:02:20.359452 11471 net.cpp:425] conv2/3x3 <- conv2/3x3_reduce
I0403 15:02:20.359474 11471 net.cpp:399] conv2/3x3 -> conv2/3x3
I0403 15:02:20.361873 11471 net.cpp:141] Setting up conv2/3x3
I0403 15:02:20.361907 11471 net.cpp:148] Top shape: 24 192 56 56 (14450688)
I0403 15:02:20.361922 11471 net.cpp:156] Memory required for data: 303465504
I0403 15:02:20.361944 11471 layer_factory.hpp:77] Creating layer conv2/relu_3x3
I0403 15:02:20.361969 11471 net.cpp:91] Creating Layer conv2/relu_3x3
I0403 15:02:20.361990 11471 net.cpp:425] conv2/relu_3x3 <- conv2/3x3
I0403 15:02:20.362010 11471 net.cpp:386] conv2/relu_3x3 -> conv2/3x3 (in-place)
I0403 15:02:20.362216 11471 net.cpp:141] Setting up conv2/relu_3x3
I0403 15:02:20.362246 11471 net.cpp:148] Top shape: 24 192 56 56 (14450688)
I0403 15:02:20.362295 11471 net.cpp:156] Memory required for data: 361268256
I0403 15:02:20.362313 11471 layer_factory.hpp:77] Creating layer conv2/norm2
I0403 15:02:20.362332 11471 net.cpp:91] Creating Layer conv2/norm2
I0403 15:02:20.362350 11471 net.cpp:425] conv2/norm2 <- conv2/3x3
I0403 15:02:20.362371 11471 net.cpp:399] conv2/norm2 -> conv2/norm2
I0403 15:02:20.362696 11471 net.cpp:141] Setting up conv2/norm2
I0403 15:02:20.362725 11471 net.cpp:148] Top shape: 24 192 56 56 (14450688)
I0403 15:02:20.362740 11471 net.cpp:156] Memory required for data: 419071008
I0403 15:02:20.362756 11471 layer_factory.hpp:77] Creating layer pool2/3x3_s2
I0403 15:02:20.362773 11471 net.cpp:91] Creating Layer pool2/3x3_s2
I0403 15:02:20.362788 11471 net.cpp:425] pool2/3x3_s2 <- conv2/norm2
I0403 15:02:20.362809 11471 net.cpp:399] pool2/3x3_s2 -> pool2/3x3_s2
I0403 15:02:20.362864 11471 net.cpp:141] Setting up pool2/3x3_s2
I0403 15:02:20.362890 11471 net.cpp:148] Top shape: 24 192 28 28 (3612672)
I0403 15:02:20.362905 11471 net.cpp:156] Memory required for data: 433521696
I0403 15:02:20.362920 11471 layer_factory.hpp:77] Creating layer pool2/3x3_s2_pool2/3x3_s2_0_split
I0403 15:02:20.362941 11471 net.cpp:91] Creating Layer pool2/3x3_s2_pool2/3x3_s2_0_split
I0403 15:02:20.362957 11471 net.cpp:425] pool2/3x3_s2_pool2/3x3_s2_0_split <- pool2/3x3_s2
I0403 15:02:20.362975 11471 net.cpp:399] pool2/3x3_s2_pool2/3x3_s2_0_split -> pool2/3x3_s2_pool2/3x3_s2_0_split_0
I0403 15:02:20.362998 11471 net.cpp:399] pool2/3x3_s2_pool2/3x3_s2_0_split -> pool2/3x3_s2_pool2/3x3_s2_0_split_1
I0403 15:02:20.363018 11471 net.cpp:399] pool2/3x3_s2_pool2/3x3_s2_0_split -> pool2/3x3_s2_pool2/3x3_s2_0_split_2
I0403 15:02:20.363039 11471 net.cpp:399] pool2/3x3_s2_pool2/3x3_s2_0_split -> pool2/3x3_s2_pool2/3x3_s2_0_split_3
I0403 15:02:20.363111 11471 net.cpp:141] Setting up pool2/3x3_s2_pool2/3x3_s2_0_split
I0403 15:02:20.363139 11471 net.cpp:148] Top shape: 24 192 28 28 (3612672)
I0403 15:02:20.363157 11471 net.cpp:148] Top shape: 24 192 28 28 (3612672)
I0403 15:02:20.363173 11471 net.cpp:148] Top shape: 24 192 28 28 (3612672)
I0403 15:02:20.363189 11471 net.cpp:148] Top shape: 24 192 28 28 (3612672)
I0403 15:02:20.363204 11471 net.cpp:156] Memory required for data: 491324448
I0403 15:02:20.363217 11471 layer_factory.hpp:77] Creating layer inception_3a/1x1
I0403 15:02:20.363241 11471 net.cpp:91] Creating Layer inception_3a/1x1
I0403 15:02:20.363262 11471 net.cpp:425] inception_3a/1x1 <- pool2/3x3_s2_pool2/3x3_s2_0_split_0
I0403 15:02:20.363283 11471 net.cpp:399] inception_3a/1x1 -> inception_3a/1x1
I0403 15:02:20.364836 11471 net.cpp:141] Setting up inception_3a/1x1
I0403 15:02:20.364867 11471 net.cpp:148] Top shape: 24 64 28 28 (1204224)
I0403 15:02:20.364883 11471 net.cpp:156] Memory required for data: 496141344
I0403 15:02:20.364902 11471 layer_factory.hpp:77] Creating layer inception_3a/relu_1x1
I0403 15:02:20.364923 11471 net.cpp:91] Creating Layer inception_3a/relu_1x1
I0403 15:02:20.364941 11471 net.cpp:425] inception_3a/relu_1x1 <- inception_3a/1x1
I0403 15:02:20.364960 11471 net.cpp:386] inception_3a/relu_1x1 -> inception_3a/1x1 (in-place)
I0403 15:02:20.365144 11471 net.cpp:141] Setting up inception_3a/relu_1x1
I0403 15:02:20.365172 11471 net.cpp:148] Top shape: 24 64 28 28 (1204224)
I0403 15:02:20.365188 11471 net.cpp:156] Memory required for data: 500958240
I0403 15:02:20.365205 11471 layer_factory.hpp:77] Creating layer inception_3a/3x3_reduce
I0403 15:02:20.365231 11471 net.cpp:91] Creating Layer inception_3a/3x3_reduce
I0403 15:02:20.365250 11471 net.cpp:425] inception_3a/3x3_reduce <- pool2/3x3_s2_pool2/3x3_s2_0_split_1
I0403 15:02:20.365269 11471 net.cpp:399] inception_3a/3x3_reduce -> inception_3a/3x3_reduce
I0403 15:02:20.366976 11471 net.cpp:141] Setting up inception_3a/3x3_reduce
I0403 15:02:20.367007 11471 net.cpp:148] Top shape: 24 96 28 28 (1806336)
I0403 15:02:20.367023 11471 net.cpp:156] Memory required for data: 508183584
I0403 15:02:20.367045 11471 layer_factory.hpp:77] Creating layer inception_3a/relu_3x3_reduce
I0403 15:02:20.367085 11471 net.cpp:91] Creating Layer inception_3a/relu_3x3_reduce
I0403 15:02:20.367106 11471 net.cpp:425] inception_3a/relu_3x3_reduce <- inception_3a/3x3_reduce
I0403 15:02:20.367130 11471 net.cpp:386] inception_3a/relu_3x3_reduce -> inception_3a/3x3_reduce (in-place)
I0403 15:02:20.367316 11471 net.cpp:141] Setting up inception_3a/relu_3x3_reduce
I0403 15:02:20.367343 11471 net.cpp:148] Top shape: 24 96 28 28 (1806336)
I0403 15:02:20.367358 11471 net.cpp:156] Memory required for data: 515408928
I0403 15:02:20.367374 11471 layer_factory.hpp:77] Creating layer inception_3a/3x3
I0403 15:02:20.367398 11471 net.cpp:91] Creating Layer inception_3a/3x3
I0403 15:02:20.367415 11471 net.cpp:425] inception_3a/3x3 <- inception_3a/3x3_reduce
I0403 15:02:20.367439 11471 net.cpp:399] inception_3a/3x3 -> inception_3a/3x3
I0403 15:02:20.369133 11471 net.cpp:141] Setting up inception_3a/3x3
I0403 15:02:20.369163 11471 net.cpp:148] Top shape: 24 128 28 28 (2408448)
I0403 15:02:20.369179 11471 net.cpp:156] Memory required for data: 525042720
I0403 15:02:20.369197 11471 layer_factory.hpp:77] Creating layer inception_3a/relu_3x3
I0403 15:02:20.369220 11471 net.cpp:91] Creating Layer inception_3a/relu_3x3
I0403 15:02:20.369237 11471 net.cpp:425] inception_3a/relu_3x3 <- inception_3a/3x3
I0403 15:02:20.369256 11471 net.cpp:386] inception_3a/relu_3x3 -> inception_3a/3x3 (in-place)
I0403 15:02:20.369537 11471 net.cpp:141] Setting up inception_3a/relu_3x3
I0403 15:02:20.369565 11471 net.cpp:148] Top shape: 24 128 28 28 (2408448)
I0403 15:02:20.369580 11471 net.cpp:156] Memory required for data: 534676512
I0403 15:02:20.369597 11471 layer_factory.hpp:77] Creating layer inception_3a/5x5_reduce
I0403 15:02:20.369621 11471 net.cpp:91] Creating Layer inception_3a/5x5_reduce
I0403 15:02:20.369642 11471 net.cpp:425] inception_3a/5x5_reduce <- pool2/3x3_s2_pool2/3x3_s2_0_split_2
I0403 15:02:20.369666 11471 net.cpp:399] inception_3a/5x5_reduce -> inception_3a/5x5_reduce
I0403 15:02:20.370662 11471 net.cpp:141] Setting up inception_3a/5x5_reduce
I0403 15:02:20.370693 11471 net.cpp:148] Top shape: 24 16 28 28 (301056)
I0403 15:02:20.370710 11471 net.cpp:156] Memory required for data: 535880736
I0403 15:02:20.370729 11471 layer_factory.hpp:77] Creating layer inception_3a/relu_5x5_reduce
I0403 15:02:20.370748 11471 net.cpp:91] Creating Layer inception_3a/relu_5x5_reduce
I0403 15:02:20.370764 11471 net.cpp:425] inception_3a/relu_5x5_reduce <- inception_3a/5x5_reduce
I0403 15:02:20.370782 11471 net.cpp:386] inception_3a/relu_5x5_reduce -> inception_3a/5x5_reduce (in-place)
I0403 15:02:20.371090 11471 net.cpp:141] Setting up inception_3a/relu_5x5_reduce
I0403 15:02:20.371121 11471 net.cpp:148] Top shape: 24 16 28 28 (301056)
I0403 15:02:20.371143 11471 net.cpp:156] Memory required for data: 537084960
I0403 15:02:20.371160 11471 layer_factory.hpp:77] Creating layer inception_3a/5x5
I0403 15:02:20.371181 11471 net.cpp:91] Creating Layer inception_3a/5x5
I0403 15:02:20.371201 11471 net.cpp:425] inception_3a/5x5 <- inception_3a/5x5_reduce
I0403 15:02:20.371224 11471 net.cpp:399] inception_3a/5x5 -> inception_3a/5x5
I0403 15:02:20.372314 11471 net.cpp:141] Setting up inception_3a/5x5
I0403 15:02:20.372344 11471 net.cpp:148] Top shape: 24 32 28 28 (602112)
I0403 15:02:20.372360 11471 net.cpp:156] Memory required for data: 539493408
I0403 15:02:20.372380 11471 layer_factory.hpp:77] Creating layer inception_3a/relu_5x5
I0403 15:02:20.372400 11471 net.cpp:91] Creating Layer inception_3a/relu_5x5
I0403 15:02:20.372418 11471 net.cpp:425] inception_3a/relu_5x5 <- inception_3a/5x5
I0403 15:02:20.372436 11471 net.cpp:386] inception_3a/relu_5x5 -> inception_3a/5x5 (in-place)
I0403 15:02:20.372616 11471 net.cpp:141] Setting up inception_3a/relu_5x5
I0403 15:02:20.372642 11471 net.cpp:148] Top shape: 24 32 28 28 (602112)
I0403 15:02:20.372658 11471 net.cpp:156] Memory required for data: 541901856
I0403 15:02:20.372673 11471 layer_factory.hpp:77] Creating layer inception_3a/pool
I0403 15:02:20.372694 11471 net.cpp:91] Creating Layer inception_3a/pool
I0403 15:02:20.372725 11471 net.cpp:425] inception_3a/pool <- pool2/3x3_s2_pool2/3x3_s2_0_split_3
I0403 15:02:20.372747 11471 net.cpp:399] inception_3a/pool -> inception_3a/pool
I0403 15:02:20.372807 11471 net.cpp:141] Setting up inception_3a/pool
I0403 15:02:20.372833 11471 net.cpp:148] Top shape: 24 192 28 28 (3612672)
I0403 15:02:20.372848 11471 net.cpp:156] Memory required for data: 556352544
I0403 15:02:20.372861 11471 layer_factory.hpp:77] Creating layer inception_3a/pool_proj
I0403 15:02:20.372884 11471 net.cpp:91] Creating Layer inception_3a/pool_proj
I0403 15:02:20.372903 11471 net.cpp:425] inception_3a/pool_proj <- inception_3a/pool
I0403 15:02:20.372926 11471 net.cpp:399] inception_3a/pool_proj -> inception_3a/pool_proj
I0403 15:02:20.373922 11471 net.cpp:141] Setting up inception_3a/pool_proj
I0403 15:02:20.373952 11471 net.cpp:148] Top shape: 24 32 28 28 (602112)
I0403 15:02:20.373967 11471 net.cpp:156] Memory required for data: 558760992
I0403 15:02:20.373992 11471 layer_factory.hpp:77] Creating layer inception_3a/relu_pool_proj
I0403 15:02:20.374012 11471 net.cpp:91] Creating Layer inception_3a/relu_pool_proj
I0403 15:02:20.374028 11471 net.cpp:425] inception_3a/relu_pool_proj <- inception_3a/pool_proj
I0403 15:02:20.374045 11471 net.cpp:386] inception_3a/relu_pool_proj -> inception_3a/pool_proj (in-place)
I0403 15:02:20.374336 11471 net.cpp:141] Setting up inception_3a/relu_pool_proj
I0403 15:02:20.374363 11471 net.cpp:148] Top shape: 24 32 28 28 (602112)
I0403 15:02:20.374379 11471 net.cpp:156] Memory required for data: 561169440
I0403 15:02:20.374394 11471 layer_factory.hpp:77] Creating layer inception_3a/output
I0403 15:02:20.374414 11471 net.cpp:91] Creating Layer inception_3a/output
I0403 15:02:20.374433 11471 net.cpp:425] inception_3a/output <- inception_3a/1x1
I0403 15:02:20.374449 11471 net.cpp:425] inception_3a/output <- inception_3a/3x3
I0403 15:02:20.374465 11471 net.cpp:425] inception_3a/output <- inception_3a/5x5
I0403 15:02:20.374481 11471 net.cpp:425] inception_3a/output <- inception_3a/pool_proj
I0403 15:02:20.374500 11471 net.cpp:399] inception_3a/output -> inception_3a/output
I0403 15:02:20.374547 11471 net.cpp:141] Setting up inception_3a/output
I0403 15:02:20.374572 11471 net.cpp:148] Top shape: 24 256 28 28 (4816896)
I0403 15:02:20.374585 11471 net.cpp:156] Memory required for data: 580437024
I0403 15:02:20.374600 11471 layer_factory.hpp:77] Creating layer inception_3a/output_inception_3a/output_0_split
I0403 15:02:20.374617 11471 net.cpp:91] Creating Layer inception_3a/output_inception_3a/output_0_split
I0403 15:02:20.374634 11471 net.cpp:425] inception_3a/output_inception_3a/output_0_split <- inception_3a/output
I0403 15:02:20.374653 11471 net.cpp:399] inception_3a/output_inception_3a/output_0_split -> inception_3a/output_inception_3a/output_0_split_0
I0403 15:02:20.374675 11471 net.cpp:399] inception_3a/output_inception_3a/output_0_split -> inception_3a/output_inception_3a/output_0_split_1
I0403 15:02:20.374698 11471 net.cpp:399] inception_3a/output_inception_3a/output_0_split -> inception_3a/output_inception_3a/output_0_split_2
I0403 15:02:20.374722 11471 net.cpp:399] inception_3a/output_inception_3a/output_0_split -> inception_3a/output_inception_3a/output_0_split_3
I0403 15:02:20.374799 11471 net.cpp:141] Setting up inception_3a/output_inception_3a/output_0_split
I0403 15:02:20.374822 11471 net.cpp:148] Top shape: 24 256 28 28 (4816896)
I0403 15:02:20.374840 11471 net.cpp:148] Top shape: 24 256 28 28 (4816896)
I0403 15:02:20.374855 11471 net.cpp:148] Top shape: 24 256 28 28 (4816896)
I0403 15:02:20.374871 11471 net.cpp:148] Top shape: 24 256 28 28 (4816896)
I0403 15:02:20.374883 11471 net.cpp:156] Memory required for data: 657507360
I0403 15:02:20.374898 11471 layer_factory.hpp:77] Creating layer inception_3b/1x1
I0403 15:02:20.374920 11471 net.cpp:91] Creating Layer inception_3b/1x1
I0403 15:02:20.374938 11471 net.cpp:425] inception_3b/1x1 <- inception_3a/output_inception_3a/output_0_split_0
I0403 15:02:20.374959 11471 net.cpp:399] inception_3b/1x1 -> inception_3b/1x1
I0403 15:02:20.376142 11471 net.cpp:141] Setting up inception_3b/1x1
I0403 15:02:20.376188 11471 net.cpp:148] Top shape: 24 128 28 28 (2408448)
I0403 15:02:20.376204 11471 net.cpp:156] Memory required for data: 667141152
I0403 15:02:20.376224 11471 layer_factory.hpp:77] Creating layer inception_3b/relu_1x1
I0403 15:02:20.376242 11471 net.cpp:91] Creating Layer inception_3b/relu_1x1
I0403 15:02:20.376258 11471 net.cpp:425] inception_3b/relu_1x1 <- inception_3b/1x1
I0403 15:02:20.376278 11471 net.cpp:386] inception_3b/relu_1x1 -> inception_3b/1x1 (in-place)
I0403 15:02:20.376467 11471 net.cpp:141] Setting up inception_3b/relu_1x1
I0403 15:02:20.376492 11471 net.cpp:148] Top shape: 24 128 28 28 (2408448)
I0403 15:02:20.376507 11471 net.cpp:156] Memory required for data: 676774944
I0403 15:02:20.376523 11471 layer_factory.hpp:77] Creating layer inception_3b/3x3_reduce
I0403 15:02:20.376545 11471 net.cpp:91] Creating Layer inception_3b/3x3_reduce
I0403 15:02:20.376564 11471 net.cpp:425] inception_3b/3x3_reduce <- inception_3a/output_inception_3a/output_0_split_1
I0403 15:02:20.376586 11471 net.cpp:399] inception_3b/3x3_reduce -> inception_3b/3x3_reduce
I0403 15:02:20.377748 11471 net.cpp:141] Setting up inception_3b/3x3_reduce
I0403 15:02:20.377776 11471 net.cpp:148] Top shape: 24 128 28 28 (2408448)
I0403 15:02:20.377792 11471 net.cpp:156] Memory required for data: 686408736
I0403 15:02:20.377810 11471 layer_factory.hpp:77] Creating layer inception_3b/relu_3x3_reduce
I0403 15:02:20.377831 11471 net.cpp:91] Creating Layer inception_3b/relu_3x3_reduce
I0403 15:02:20.377849 11471 net.cpp:425] inception_3b/relu_3x3_reduce <- inception_3b/3x3_reduce
I0403 15:02:20.377867 11471 net.cpp:386] inception_3b/relu_3x3_reduce -> inception_3b/3x3_reduce (in-place)
I0403 15:02:20.378037 11471 net.cpp:141] Setting up inception_3b/relu_3x3_reduce
I0403 15:02:20.378063 11471 net.cpp:148] Top shape: 24 128 28 28 (2408448)
I0403 15:02:20.378078 11471 net.cpp:156] Memory required for data: 696042528
I0403 15:02:20.378093 11471 layer_factory.hpp:77] Creating layer inception_3b/3x3
I0403 15:02:20.378118 11471 net.cpp:91] Creating Layer inception_3b/3x3
I0403 15:02:20.378141 11471 net.cpp:425] inception_3b/3x3 <- inception_3b/3x3_reduce
I0403 15:02:20.378161 11471 net.cpp:399] inception_3b/3x3 -> inception_3b/3x3
I0403 15:02:20.381104 11471 net.cpp:141] Setting up inception_3b/3x3
I0403 15:02:20.381137 11471 net.cpp:148] Top shape: 24 192 28 28 (3612672)
I0403 15:02:20.381153 11471 net.cpp:156] Memory required for data: 710493216
I0403 15:02:20.381172 11471 layer_factory.hpp:77] Creating layer inception_3b/relu_3x3
I0403 15:02:20.381193 11471 net.cpp:91] Creating Layer inception_3b/relu_3x3
I0403 15:02:20.381211 11471 net.cpp:425] inception_3b/relu_3x3 <- inception_3b/3x3
I0403 15:02:20.381227 11471 net.cpp:386] inception_3b/relu_3x3 -> inception_3b/3x3 (in-place)
I0403 15:02:20.381499 11471 net.cpp:141] Setting up inception_3b/relu_3x3
I0403 15:02:20.381525 11471 net.cpp:148] Top shape: 24 192 28 28 (3612672)
I0403 15:02:20.381541 11471 net.cpp:156] Memory required for data: 724943904
I0403 15:02:20.381556 11471 layer_factory.hpp:77] Creating layer inception_3b/5x5_reduce
I0403 15:02:20.381578 11471 net.cpp:91] Creating Layer inception_3b/5x5_reduce
I0403 15:02:20.381597 11471 net.cpp:425] inception_3b/5x5_reduce <- inception_3a/output_inception_3a/output_0_split_2
I0403 15:02:20.381619 11471 net.cpp:399] inception_3b/5x5_reduce -> inception_3b/5x5_reduce
I0403 15:02:20.382627 11471 net.cpp:141] Setting up inception_3b/5x5_reduce
I0403 15:02:20.382657 11471 net.cpp:148] Top shape: 24 32 28 28 (602112)
I0403 15:02:20.382671 11471 net.cpp:156] Memory required for data: 727352352
I0403 15:02:20.382689 11471 layer_factory.hpp:77] Creating layer inception_3b/relu_5x5_reduce
I0403 15:02:20.382710 11471 net.cpp:91] Creating Layer inception_3b/relu_5x5_reduce
I0403 15:02:20.382727 11471 net.cpp:425] inception_3b/relu_5x5_reduce <- inception_3b/5x5_reduce
I0403 15:02:20.382746 11471 net.cpp:386] inception_3b/relu_5x5_reduce -> inception_3b/5x5_reduce (in-place)
I0403 15:02:20.382953 11471 net.cpp:141] Setting up inception_3b/relu_5x5_reduce
I0403 15:02:20.382982 11471 net.cpp:148] Top shape: 24 32 28 28 (602112)
I0403 15:02:20.382997 11471 net.cpp:156] Memory required for data: 729760800
I0403 15:02:20.383011 11471 layer_factory.hpp:77] Creating layer inception_3b/5x5
I0403 15:02:20.383036 11471 net.cpp:91] Creating Layer inception_3b/5x5
I0403 15:02:20.383055 11471 net.cpp:425] inception_3b/5x5 <- inception_3b/5x5_reduce
I0403 15:02:20.383074 11471 net.cpp:399] inception_3b/5x5 -> inception_3b/5x5
I0403 15:02:20.385073 11471 net.cpp:141] Setting up inception_3b/5x5
I0403 15:02:20.385112 11471 net.cpp:148] Top shape: 24 96 28 28 (1806336)
I0403 15:02:20.385133 11471 net.cpp:156] Memory required for data: 736986144
I0403 15:02:20.385152 11471 layer_factory.hpp:77] Creating layer inception_3b/relu_5x5
I0403 15:02:20.385174 11471 net.cpp:91] Creating Layer inception_3b/relu_5x5
I0403 15:02:20.385191 11471 net.cpp:425] inception_3b/relu_5x5 <- inception_3b/5x5
I0403 15:02:20.385208 11471 net.cpp:386] inception_3b/relu_5x5 -> inception_3b/5x5 (in-place)
I0403 15:02:20.385393 11471 net.cpp:141] Setting up inception_3b/relu_5x5
I0403 15:02:20.385419 11471 net.cpp:148] Top shape: 24 96 28 28 (1806336)
I0403 15:02:20.385434 11471 net.cpp:156] Memory required for data: 744211488
I0403 15:02:20.385449 11471 layer_factory.hpp:77] Creating layer inception_3b/pool
I0403 15:02:20.385467 11471 net.cpp:91] Creating Layer inception_3b/pool
I0403 15:02:20.385483 11471 net.cpp:425] inception_3b/pool <- inception_3a/output_inception_3a/output_0_split_3
I0403 15:02:20.385501 11471 net.cpp:399] inception_3b/pool -> inception_3b/pool
I0403 15:02:20.385560 11471 net.cpp:141] Setting up inception_3b/pool
I0403 15:02:20.385584 11471 net.cpp:148] Top shape: 24 256 28 28 (4816896)
I0403 15:02:20.385599 11471 net.cpp:156] Memory required for data: 763479072
I0403 15:02:20.385613 11471 layer_factory.hpp:77] Creating layer inception_3b/pool_proj
I0403 15:02:20.385634 11471 net.cpp:91] Creating Layer inception_3b/pool_proj
I0403 15:02:20.385653 11471 net.cpp:425] inception_3b/pool_proj <- inception_3b/pool
I0403 15:02:20.385673 11471 net.cpp:399] inception_3b/pool_proj -> inception_3b/pool_proj
I0403 15:02:20.386780 11471 net.cpp:141] Setting up inception_3b/pool_proj
I0403 15:02:20.386811 11471 net.cpp:148] Top shape: 24 64 28 28 (1204224)
I0403 15:02:20.386827 11471 net.cpp:156] Memory required for data: 768295968
I0403 15:02:20.386847 11471 layer_factory.hpp:77] Creating layer inception_3b/relu_pool_proj
I0403 15:02:20.386864 11471 net.cpp:91] Creating Layer inception_3b/relu_pool_proj
I0403 15:02:20.386881 11471 net.cpp:425] inception_3b/relu_pool_proj <- inception_3b/pool_proj
I0403 15:02:20.386903 11471 net.cpp:386] inception_3b/relu_pool_proj -> inception_3b/pool_proj (in-place)
I0403 15:02:20.387307 11471 net.cpp:141] Setting up inception_3b/relu_pool_proj
I0403 15:02:20.387336 11471 net.cpp:148] Top shape: 24 64 28 28 (1204224)
I0403 15:02:20.387356 11471 net.cpp:156] Memory required for data: 773112864
I0403 15:02:20.387370 11471 layer_factory.hpp:77] Creating layer inception_3b/output
I0403 15:02:20.387388 11471 net.cpp:91] Creating Layer inception_3b/output
I0403 15:02:20.387404 11471 net.cpp:425] inception_3b/output <- inception_3b/1x1
I0403 15:02:20.387420 11471 net.cpp:425] inception_3b/output <- inception_3b/3x3
I0403 15:02:20.387437 11471 net.cpp:425] inception_3b/output <- inception_3b/5x5
I0403 15:02:20.387454 11471 net.cpp:425] inception_3b/output <- inception_3b/pool_proj
I0403 15:02:20.387470 11471 net.cpp:399] inception_3b/output -> inception_3b/output
I0403 15:02:20.387514 11471 net.cpp:141] Setting up inception_3b/output
I0403 15:02:20.387538 11471 net.cpp:148] Top shape: 24 480 28 28 (9031680)
I0403 15:02:20.387553 11471 net.cpp:156] Memory required for data: 809239584
I0403 15:02:20.387568 11471 layer_factory.hpp:77] Creating layer pool3/3x3_s2
I0403 15:02:20.387588 11471 net.cpp:91] Creating Layer pool3/3x3_s2
I0403 15:02:20.387605 11471 net.cpp:425] pool3/3x3_s2 <- inception_3b/output
I0403 15:02:20.387639 11471 net.cpp:399] pool3/3x3_s2 -> pool3/3x3_s2
I0403 15:02:20.387699 11471 net.cpp:141] Setting up pool3/3x3_s2
I0403 15:02:20.387723 11471 net.cpp:148] Top shape: 24 480 14 14 (2257920)
I0403 15:02:20.387737 11471 net.cpp:156] Memory required for data: 818271264
I0403 15:02:20.387751 11471 layer_factory.hpp:77] Creating layer pool3/3x3_s2_pool3/3x3_s2_0_split
I0403 15:02:20.387768 11471 net.cpp:91] Creating Layer pool3/3x3_s2_pool3/3x3_s2_0_split
I0403 15:02:20.387784 11471 net.cpp:425] pool3/3x3_s2_pool3/3x3_s2_0_split <- pool3/3x3_s2
I0403 15:02:20.387802 11471 net.cpp:399] pool3/3x3_s2_pool3/3x3_s2_0_split -> pool3/3x3_s2_pool3/3x3_s2_0_split_0
I0403 15:02:20.387823 11471 net.cpp:399] pool3/3x3_s2_pool3/3x3_s2_0_split -> pool3/3x3_s2_pool3/3x3_s2_0_split_1
I0403 15:02:20.387842 11471 net.cpp:399] pool3/3x3_s2_pool3/3x3_s2_0_split -> pool3/3x3_s2_pool3/3x3_s2_0_split_2
I0403 15:02:20.387863 11471 net.cpp:399] pool3/3x3_s2_pool3/3x3_s2_0_split -> pool3/3x3_s2_pool3/3x3_s2_0_split_3
I0403 15:02:20.387943 11471 net.cpp:141] Setting up pool3/3x3_s2_pool3/3x3_s2_0_split
I0403 15:02:20.387967 11471 net.cpp:148] Top shape: 24 480 14 14 (2257920)
I0403 15:02:20.387997 11471 net.cpp:148] Top shape: 24 480 14 14 (2257920)
I0403 15:02:20.388015 11471 net.cpp:148] Top shape: 24 480 14 14 (2257920)
I0403 15:02:20.388030 11471 net.cpp:148] Top shape: 24 480 14 14 (2257920)
I0403 15:02:20.388043 11471 net.cpp:156] Memory required for data: 854397984
I0403 15:02:20.388058 11471 layer_factory.hpp:77] Creating layer inception_4a/1x1
I0403 15:02:20.388082 11471 net.cpp:91] Creating Layer inception_4a/1x1
I0403 15:02:20.388099 11471 net.cpp:425] inception_4a/1x1 <- pool3/3x3_s2_pool3/3x3_s2_0_split_0
I0403 15:02:20.388119 11471 net.cpp:399] inception_4a/1x1 -> inception_4a/1x1
I0403 15:02:20.389708 11471 net.cpp:141] Setting up inception_4a/1x1
I0403 15:02:20.389736 11471 net.cpp:148] Top shape: 24 192 14 14 (903168)
I0403 15:02:20.389753 11471 net.cpp:156] Memory required for data: 858010656
I0403 15:02:20.389771 11471 layer_factory.hpp:77] Creating layer inception_4a/relu_1x1
I0403 15:02:20.389788 11471 net.cpp:91] Creating Layer inception_4a/relu_1x1
I0403 15:02:20.389816 11471 net.cpp:425] inception_4a/relu_1x1 <- inception_4a/1x1
I0403 15:02:20.389837 11471 net.cpp:386] inception_4a/relu_1x1 -> inception_4a/1x1 (in-place)
I0403 15:02:20.390012 11471 net.cpp:141] Setting up inception_4a/relu_1x1
I0403 15:02:20.390039 11471 net.cpp:148] Top shape: 24 192 14 14 (903168)
I0403 15:02:20.390054 11471 net.cpp:156] Memory required for data: 861623328
I0403 15:02:20.390069 11471 layer_factory.hpp:77] Creating layer inception_4a/3x3_reduce
I0403 15:02:20.390091 11471 net.cpp:91] Creating Layer inception_4a/3x3_reduce
I0403 15:02:20.390121 11471 net.cpp:425] inception_4a/3x3_reduce <- pool3/3x3_s2_pool3/3x3_s2_0_split_1
I0403 15:02:20.390151 11471 net.cpp:399] inception_4a/3x3_reduce -> inception_4a/3x3_reduce
I0403 15:02:20.391397 11471 net.cpp:141] Setting up inception_4a/3x3_reduce
I0403 15:02:20.391427 11471 net.cpp:148] Top shape: 24 96 14 14 (451584)
I0403 15:02:20.391443 11471 net.cpp:156] Memory required for data: 863429664
I0403 15:02:20.391464 11471 layer_factory.hpp:77] Creating layer inception_4a/relu_3x3_reduce
I0403 15:02:20.391487 11471 net.cpp:91] Creating Layer inception_4a/relu_3x3_reduce
I0403 15:02:20.391505 11471 net.cpp:425] inception_4a/relu_3x3_reduce <- inception_4a/3x3_reduce
I0403 15:02:20.391522 11471 net.cpp:386] inception_4a/relu_3x3_reduce -> inception_4a/3x3_reduce (in-place)
I0403 15:02:20.391727 11471 net.cpp:141] Setting up inception_4a/relu_3x3_reduce
I0403 15:02:20.391753 11471 net.cpp:148] Top shape: 24 96 14 14 (451584)
I0403 15:02:20.391768 11471 net.cpp:156] Memory required for data: 865236000
I0403 15:02:20.391783 11471 layer_factory.hpp:77] Creating layer inception_4a/3x3
I0403 15:02:20.391805 11471 net.cpp:91] Creating Layer inception_4a/3x3
I0403 15:02:20.391822 11471 net.cpp:425] inception_4a/3x3 <- inception_4a/3x3_reduce
I0403 15:02:20.391844 11471 net.cpp:399] inception_4a/3x3 -> inception_4a/3x3
I0403 15:02:20.394500 11471 net.cpp:141] Setting up inception_4a/3x3
I0403 15:02:20.394529 11471 net.cpp:148] Top shape: 24 208 14 14 (978432)
I0403 15:02:20.394546 11471 net.cpp:156] Memory required for data: 869149728
I0403 15:02:20.394564 11471 layer_factory.hpp:77] Creating layer inception_4a/relu_3x3
I0403 15:02:20.394584 11471 net.cpp:91] Creating Layer inception_4a/relu_3x3
I0403 15:02:20.394601 11471 net.cpp:425] inception_4a/relu_3x3 <- inception_4a/3x3
I0403 15:02:20.394618 11471 net.cpp:386] inception_4a/relu_3x3 -> inception_4a/3x3 (in-place)
I0403 15:02:20.394894 11471 net.cpp:141] Setting up inception_4a/relu_3x3
I0403 15:02:20.394922 11471 net.cpp:148] Top shape: 24 208 14 14 (978432)
I0403 15:02:20.394948 11471 net.cpp:156] Memory required for data: 873063456
I0403 15:02:20.394963 11471 layer_factory.hpp:77] Creating layer inception_4a/5x5_reduce
I0403 15:02:20.394987 11471 net.cpp:91] Creating Layer inception_4a/5x5_reduce
I0403 15:02:20.395005 11471 net.cpp:425] inception_4a/5x5_reduce <- pool3/3x3_s2_pool3/3x3_s2_0_split_2
I0403 15:02:20.395026 11471 net.cpp:399] inception_4a/5x5_reduce -> inception_4a/5x5_reduce
I0403 15:02:20.396014 11471 net.cpp:141] Setting up inception_4a/5x5_reduce
I0403 15:02:20.396040 11471 net.cpp:148] Top shape: 24 16 14 14 (75264)
I0403 15:02:20.396056 11471 net.cpp:156] Memory required for data: 873364512
I0403 15:02:20.396075 11471 layer_factory.hpp:77] Creating layer inception_4a/relu_5x5_reduce
I0403 15:02:20.396095 11471 net.cpp:91] Creating Layer inception_4a/relu_5x5_reduce
I0403 15:02:20.396109 11471 net.cpp:425] inception_4a/relu_5x5_reduce <- inception_4a/5x5_reduce
I0403 15:02:20.396131 11471 net.cpp:386] inception_4a/relu_5x5_reduce -> inception_4a/5x5_reduce (in-place)
I0403 15:02:20.396324 11471 net.cpp:141] Setting up inception_4a/relu_5x5_reduce
I0403 15:02:20.396350 11471 net.cpp:148] Top shape: 24 16 14 14 (75264)
I0403 15:02:20.396365 11471 net.cpp:156] Memory required for data: 873665568
I0403 15:02:20.396380 11471 layer_factory.hpp:77] Creating layer inception_4a/5x5
I0403 15:02:20.396404 11471 net.cpp:91] Creating Layer inception_4a/5x5
I0403 15:02:20.396422 11471 net.cpp:425] inception_4a/5x5 <- inception_4a/5x5_reduce
I0403 15:02:20.396441 11471 net.cpp:399] inception_4a/5x5 -> inception_4a/5x5
I0403 15:02:20.397505 11471 net.cpp:141] Setting up inception_4a/5x5
I0403 15:02:20.397536 11471 net.cpp:148] Top shape: 24 48 14 14 (225792)
I0403 15:02:20.397552 11471 net.cpp:156] Memory required for data: 874568736
I0403 15:02:20.397569 11471 layer_factory.hpp:77] Creating layer inception_4a/relu_5x5
I0403 15:02:20.397586 11471 net.cpp:91] Creating Layer inception_4a/relu_5x5
I0403 15:02:20.397601 11471 net.cpp:425] inception_4a/relu_5x5 <- inception_4a/5x5
I0403 15:02:20.397617 11471 net.cpp:386] inception_4a/relu_5x5 -> inception_4a/5x5 (in-place)
I0403 15:02:20.397794 11471 net.cpp:141] Setting up inception_4a/relu_5x5
I0403 15:02:20.397819 11471 net.cpp:148] Top shape: 24 48 14 14 (225792)
I0403 15:02:20.397832 11471 net.cpp:156] Memory required for data: 875471904
I0403 15:02:20.397846 11471 layer_factory.hpp:77] Creating layer inception_4a/pool
I0403 15:02:20.397864 11471 net.cpp:91] Creating Layer inception_4a/pool
I0403 15:02:20.397881 11471 net.cpp:425] inception_4a/pool <- pool3/3x3_s2_pool3/3x3_s2_0_split_3
I0403 15:02:20.397900 11471 net.cpp:399] inception_4a/pool -> inception_4a/pool
I0403 15:02:20.397959 11471 net.cpp:141] Setting up inception_4a/pool
I0403 15:02:20.397999 11471 net.cpp:148] Top shape: 24 480 14 14 (2257920)
I0403 15:02:20.398017 11471 net.cpp:156] Memory required for data: 884503584
I0403 15:02:20.398032 11471 layer_factory.hpp:77] Creating layer inception_4a/pool_proj
I0403 15:02:20.398056 11471 net.cpp:91] Creating Layer inception_4a/pool_proj
I0403 15:02:20.398073 11471 net.cpp:425] inception_4a/pool_proj <- inception_4a/pool
I0403 15:02:20.398092 11471 net.cpp:399] inception_4a/pool_proj -> inception_4a/pool_proj
I0403 15:02:20.399250 11471 net.cpp:141] Setting up inception_4a/pool_proj
I0403 15:02:20.399281 11471 net.cpp:148] Top shape: 24 64 14 14 (301056)
I0403 15:02:20.399312 11471 net.cpp:156] Memory required for data: 885707808
I0403 15:02:20.399332 11471 layer_factory.hpp:77] Creating layer inception_4a/relu_pool_proj
I0403 15:02:20.399351 11471 net.cpp:91] Creating Layer inception_4a/relu_pool_proj
I0403 15:02:20.399368 11471 net.cpp:425] inception_4a/relu_pool_proj <- inception_4a/pool_proj
I0403 15:02:20.399399 11471 net.cpp:386] inception_4a/relu_pool_proj -> inception_4a/pool_proj (in-place)
I0403 15:02:20.399709 11471 net.cpp:141] Setting up inception_4a/relu_pool_proj
I0403 15:02:20.399739 11471 net.cpp:148] Top shape: 24 64 14 14 (301056)
I0403 15:02:20.399755 11471 net.cpp:156] Memory required for data: 886912032
I0403 15:02:20.399770 11471 layer_factory.hpp:77] Creating layer inception_4a/output
I0403 15:02:20.399786 11471 net.cpp:91] Creating Layer inception_4a/output
I0403 15:02:20.399813 11471 net.cpp:425] inception_4a/output <- inception_4a/1x1
I0403 15:02:20.399829 11471 net.cpp:425] inception_4a/output <- inception_4a/3x3
I0403 15:02:20.399847 11471 net.cpp:425] inception_4a/output <- inception_4a/5x5
I0403 15:02:20.399863 11471 net.cpp:425] inception_4a/output <- inception_4a/pool_proj
I0403 15:02:20.399879 11471 net.cpp:399] inception_4a/output -> inception_4a/output
I0403 15:02:20.399924 11471 net.cpp:141] Setting up inception_4a/output
I0403 15:02:20.399946 11471 net.cpp:148] Top shape: 24 512 14 14 (2408448)
I0403 15:02:20.399960 11471 net.cpp:156] Memory required for data: 896545824
I0403 15:02:20.399974 11471 layer_factory.hpp:77] Creating layer inception_4a/output_inception_4a/output_0_split
I0403 15:02:20.399993 11471 net.cpp:91] Creating Layer inception_4a/output_inception_4a/output_0_split
I0403 15:02:20.400009 11471 net.cpp:425] inception_4a/output_inception_4a/output_0_split <- inception_4a/output
I0403 15:02:20.400027 11471 net.cpp:399] inception_4a/output_inception_4a/output_0_split -> inception_4a/output_inception_4a/output_0_split_0
I0403 15:02:20.400048 11471 net.cpp:399] inception_4a/output_inception_4a/output_0_split -> inception_4a/output_inception_4a/output_0_split_1
I0403 15:02:20.400071 11471 net.cpp:399] inception_4a/output_inception_4a/output_0_split -> inception_4a/output_inception_4a/output_0_split_2
I0403 15:02:20.400092 11471 net.cpp:399] inception_4a/output_inception_4a/output_0_split -> inception_4a/output_inception_4a/output_0_split_3
I0403 15:02:20.400113 11471 net.cpp:399] inception_4a/output_inception_4a/output_0_split -> inception_4a/output_inception_4a/output_0_split_4
I0403 15:02:20.400209 11471 net.cpp:141] Setting up inception_4a/output_inception_4a/output_0_split
I0403 15:02:20.400233 11471 net.cpp:148] Top shape: 24 512 14 14 (2408448)
I0403 15:02:20.400249 11471 net.cpp:148] Top shape: 24 512 14 14 (2408448)
I0403 15:02:20.400264 11471 net.cpp:148] Top shape: 24 512 14 14 (2408448)
I0403 15:02:20.400279 11471 net.cpp:148] Top shape: 24 512 14 14 (2408448)
I0403 15:02:20.400295 11471 net.cpp:148] Top shape: 24 512 14 14 (2408448)
I0403 15:02:20.400307 11471 net.cpp:156] Memory required for data: 944714784
I0403 15:02:20.400321 11471 layer_factory.hpp:77] Creating layer loss1/ave_pool
I0403 15:02:20.400341 11471 net.cpp:91] Creating Layer loss1/ave_pool
I0403 15:02:20.400359 11471 net.cpp:425] loss1/ave_pool <- inception_4a/output_inception_4a/output_0_split_0
I0403 15:02:20.400377 11471 net.cpp:399] loss1/ave_pool -> loss1/ave_pool
I0403 15:02:20.400583 11471 net.cpp:141] Setting up loss1/ave_pool
I0403 15:02:20.400609 11471 net.cpp:148] Top shape: 24 512 4 4 (196608)
I0403 15:02:20.400624 11471 net.cpp:156] Memory required for data: 945501216
I0403 15:02:20.400637 11471 layer_factory.hpp:77] Creating layer loss1/conv
I0403 15:02:20.400660 11471 net.cpp:91] Creating Layer loss1/conv
I0403 15:02:20.400676 11471 net.cpp:425] loss1/conv <- loss1/ave_pool
I0403 15:02:20.400697 11471 net.cpp:399] loss1/conv -> loss1/conv
I0403 15:02:20.402107 11471 net.cpp:141] Setting up loss1/conv
I0403 15:02:20.402138 11471 net.cpp:148] Top shape: 24 128 4 4 (49152)
I0403 15:02:20.402168 11471 net.cpp:156] Memory required for data: 945697824
I0403 15:02:20.402189 11471 layer_factory.hpp:77] Creating layer loss1/relu_conv
I0403 15:02:20.402209 11471 net.cpp:91] Creating Layer loss1/relu_conv
I0403 15:02:20.402225 11471 net.cpp:425] loss1/relu_conv <- loss1/conv
I0403 15:02:20.402241 11471 net.cpp:386] loss1/relu_conv -> loss1/conv (in-place)
I0403 15:02:20.402515 11471 net.cpp:141] Setting up loss1/relu_conv
I0403 15:02:20.402541 11471 net.cpp:148] Top shape: 24 128 4 4 (49152)
I0403 15:02:20.402556 11471 net.cpp:156] Memory required for data: 945894432
I0403 15:02:20.402570 11471 layer_factory.hpp:77] Creating layer loss1/fc
I0403 15:02:20.402596 11471 net.cpp:91] Creating Layer loss1/fc
I0403 15:02:20.402616 11471 net.cpp:425] loss1/fc <- loss1/conv
I0403 15:02:20.402633 11471 net.cpp:399] loss1/fc -> loss1/fc
I0403 15:02:20.420341 11471 net.cpp:141] Setting up loss1/fc
I0403 15:02:20.420413 11471 net.cpp:148] Top shape: 24 1024 (24576)
I0403 15:02:20.420429 11471 net.cpp:156] Memory required for data: 945992736
I0403 15:02:20.420449 11471 layer_factory.hpp:77] Creating layer loss1/relu_fc
I0403 15:02:20.420469 11471 net.cpp:91] Creating Layer loss1/relu_fc
I0403 15:02:20.420487 11471 net.cpp:425] loss1/relu_fc <- loss1/fc
I0403 15:02:20.420509 11471 net.cpp:386] loss1/relu_fc -> loss1/fc (in-place)
I0403 15:02:20.420737 11471 net.cpp:141] Setting up loss1/relu_fc
I0403 15:02:20.420763 11471 net.cpp:148] Top shape: 24 1024 (24576)
I0403 15:02:20.420778 11471 net.cpp:156] Memory required for data: 946091040
I0403 15:02:20.420792 11471 layer_factory.hpp:77] Creating layer loss1/drop_fc
I0403 15:02:20.420824 11471 net.cpp:91] Creating Layer loss1/drop_fc
I0403 15:02:20.420842 11471 net.cpp:425] loss1/drop_fc <- loss1/fc
I0403 15:02:20.420860 11471 net.cpp:386] loss1/drop_fc -> loss1/fc (in-place)
I0403 15:02:20.420912 11471 net.cpp:141] Setting up loss1/drop_fc
I0403 15:02:20.420934 11471 net.cpp:148] Top shape: 24 1024 (24576)
I0403 15:02:20.420948 11471 net.cpp:156] Memory required for data: 946189344
I0403 15:02:20.420964 11471 layer_factory.hpp:77] Creating layer loss1/classifier_plantvillage
I0403 15:02:20.420984 11471 net.cpp:91] Creating Layer loss1/classifier_plantvillage
I0403 15:02:20.421002 11471 net.cpp:425] loss1/classifier_plantvillage <- loss1/fc
I0403 15:02:20.421023 11471 net.cpp:399] loss1/classifier_plantvillage -> loss1/classifier_plantvillage
I0403 15:02:20.421950 11471 net.cpp:141] Setting up loss1/classifier_plantvillage
I0403 15:02:20.421979 11471 net.cpp:148] Top shape: 24 38 (912)
I0403 15:02:20.421994 11471 net.cpp:156] Memory required for data: 946192992
I0403 15:02:20.422013 11471 layer_factory.hpp:77] Creating layer loss1/classifier_plantvillage_loss1/classifier_plantvillage_0_split
I0403 15:02:20.422031 11471 net.cpp:91] Creating Layer loss1/classifier_plantvillage_loss1/classifier_plantvillage_0_split
I0403 15:02:20.422049 11471 net.cpp:425] loss1/classifier_plantvillage_loss1/classifier_plantvillage_0_split <- loss1/classifier_plantvillage
I0403 15:02:20.422070 11471 net.cpp:399] loss1/classifier_plantvillage_loss1/classifier_plantvillage_0_split -> loss1/classifier_plantvillage_loss1/classifier_plantvillage_0_split_0
I0403 15:02:20.422091 11471 net.cpp:399] loss1/classifier_plantvillage_loss1/classifier_plantvillage_0_split -> loss1/classifier_plantvillage_loss1/classifier_plantvillage_0_split_1
I0403 15:02:20.422111 11471 net.cpp:399] loss1/classifier_plantvillage_loss1/classifier_plantvillage_0_split -> loss1/classifier_plantvillage_loss1/classifier_plantvillage_0_split_2
I0403 15:02:20.422181 11471 net.cpp:141] Setting up loss1/classifier_plantvillage_loss1/classifier_plantvillage_0_split
I0403 15:02:20.422207 11471 net.cpp:148] Top shape: 24 38 (912)
I0403 15:02:20.422225 11471 net.cpp:148] Top shape: 24 38 (912)
I0403 15:02:20.422241 11471 net.cpp:148] Top shape: 24 38 (912)
I0403 15:02:20.422255 11471 net.cpp:156] Memory required for data: 946203936
I0403 15:02:20.422269 11471 layer_factory.hpp:77] Creating layer inception_4b/1x1
I0403 15:02:20.422291 11471 net.cpp:91] Creating Layer inception_4b/1x1
I0403 15:02:20.422327 11471 net.cpp:425] inception_4b/1x1 <- inception_4a/output_inception_4a/output_0_split_1
I0403 15:02:20.422349 11471 net.cpp:399] inception_4b/1x1 -> inception_4b/1x1
I0403 15:02:20.424069 11471 net.cpp:141] Setting up inception_4b/1x1
I0403 15:02:20.424098 11471 net.cpp:148] Top shape: 24 160 14 14 (752640)
I0403 15:02:20.424113 11471 net.cpp:156] Memory required for data: 949214496
I0403 15:02:20.424136 11471 layer_factory.hpp:77] Creating layer inception_4b/relu_1x1
I0403 15:02:20.424159 11471 net.cpp:91] Creating Layer inception_4b/relu_1x1
I0403 15:02:20.424175 11471 net.cpp:425] inception_4b/relu_1x1 <- inception_4b/1x1
I0403 15:02:20.424192 11471 net.cpp:386] inception_4b/relu_1x1 -> inception_4b/1x1 (in-place)
I0403 15:02:20.424367 11471 net.cpp:141] Setting up inception_4b/relu_1x1
I0403 15:02:20.424392 11471 net.cpp:148] Top shape: 24 160 14 14 (752640)
I0403 15:02:20.424407 11471 net.cpp:156] Memory required for data: 952225056
I0403 15:02:20.424420 11471 layer_factory.hpp:77] Creating layer inception_4b/3x3_reduce
I0403 15:02:20.424445 11471 net.cpp:91] Creating Layer inception_4b/3x3_reduce
I0403 15:02:20.424464 11471 net.cpp:425] inception_4b/3x3_reduce <- inception_4a/output_inception_4a/output_0_split_2
I0403 15:02:20.424484 11471 net.cpp:399] inception_4b/3x3_reduce -> inception_4b/3x3_reduce
I0403 15:02:20.425838 11471 net.cpp:141] Setting up inception_4b/3x3_reduce
I0403 15:02:20.425865 11471 net.cpp:148] Top shape: 24 112 14 14 (526848)
I0403 15:02:20.425880 11471 net.cpp:156] Memory required for data: 954332448
I0403 15:02:20.425897 11471 layer_factory.hpp:77] Creating layer inception_4b/relu_3x3_reduce
I0403 15:02:20.425918 11471 net.cpp:91] Creating Layer inception_4b/relu_3x3_reduce
I0403 15:02:20.425936 11471 net.cpp:425] inception_4b/relu_3x3_reduce <- inception_4b/3x3_reduce
I0403 15:02:20.425953 11471 net.cpp:386] inception_4b/relu_3x3_reduce -> inception_4b/3x3_reduce (in-place)
I0403 15:02:20.426232 11471 net.cpp:141] Setting up inception_4b/relu_3x3_reduce
I0403 15:02:20.426259 11471 net.cpp:148] Top shape: 24 112 14 14 (526848)
I0403 15:02:20.426273 11471 net.cpp:156] Memory required for data: 956439840
I0403 15:02:20.426287 11471 layer_factory.hpp:77] Creating layer inception_4b/3x3
I0403 15:02:20.426311 11471 net.cpp:91] Creating Layer inception_4b/3x3
I0403 15:02:20.426327 11471 net.cpp:425] inception_4b/3x3 <- inception_4b/3x3_reduce
I0403 15:02:20.426347 11471 net.cpp:399] inception_4b/3x3 -> inception_4b/3x3
I0403 15:02:20.429330 11471 net.cpp:141] Setting up inception_4b/3x3
I0403 15:02:20.429363 11471 net.cpp:148] Top shape: 24 224 14 14 (1053696)
I0403 15:02:20.429380 11471 net.cpp:156] Memory required for data: 960654624
I0403 15:02:20.429399 11471 layer_factory.hpp:77] Creating layer inception_4b/relu_3x3
I0403 15:02:20.429417 11471 net.cpp:91] Creating Layer inception_4b/relu_3x3
I0403 15:02:20.429433 11471 net.cpp:425] inception_4b/relu_3x3 <- inception_4b/3x3
I0403 15:02:20.429453 11471 net.cpp:386] inception_4b/relu_3x3 -> inception_4b/3x3 (in-place)
I0403 15:02:20.429638 11471 net.cpp:141] Setting up inception_4b/relu_3x3
I0403 15:02:20.429664 11471 net.cpp:148] Top shape: 24 224 14 14 (1053696)
I0403 15:02:20.429679 11471 net.cpp:156] Memory required for data: 964869408
I0403 15:02:20.429694 11471 layer_factory.hpp:77] Creating layer inception_4b/5x5_reduce
I0403 15:02:20.429716 11471 net.cpp:91] Creating Layer inception_4b/5x5_reduce
I0403 15:02:20.429735 11471 net.cpp:425] inception_4b/5x5_reduce <- inception_4a/output_inception_4a/output_0_split_3
I0403 15:02:20.429757 11471 net.cpp:399] inception_4b/5x5_reduce -> inception_4b/5x5_reduce
I0403 15:02:20.430857 11471 net.cpp:141] Setting up inception_4b/5x5_reduce
I0403 15:02:20.430897 11471 net.cpp:148] Top shape: 24 24 14 14 (112896)
I0403 15:02:20.430912 11471 net.cpp:156] Memory required for data: 965320992
I0403 15:02:20.430930 11471 layer_factory.hpp:77] Creating layer inception_4b/relu_5x5_reduce
I0403 15:02:20.430949 11471 net.cpp:91] Creating Layer inception_4b/relu_5x5_reduce
I0403 15:02:20.430980 11471 net.cpp:425] inception_4b/relu_5x5_reduce <- inception_4b/5x5_reduce
I0403 15:02:20.430999 11471 net.cpp:386] inception_4b/relu_5x5_reduce -> inception_4b/5x5_reduce (in-place)
I0403 15:02:20.431180 11471 net.cpp:141] Setting up inception_4b/relu_5x5_reduce
I0403 15:02:20.431207 11471 net.cpp:148] Top shape: 24 24 14 14 (112896)
I0403 15:02:20.431223 11471 net.cpp:156] Memory required for data: 965772576
I0403 15:02:20.431238 11471 layer_factory.hpp:77] Creating layer inception_4b/5x5
I0403 15:02:20.431259 11471 net.cpp:91] Creating Layer inception_4b/5x5
I0403 15:02:20.431278 11471 net.cpp:425] inception_4b/5x5 <- inception_4b/5x5_reduce
I0403 15:02:20.431298 11471 net.cpp:399] inception_4b/5x5 -> inception_4b/5x5
I0403 15:02:20.432554 11471 net.cpp:141] Setting up inception_4b/5x5
I0403 15:02:20.432581 11471 net.cpp:148] Top shape: 24 64 14 14 (301056)
I0403 15:02:20.432596 11471 net.cpp:156] Memory required for data: 966976800
I0403 15:02:20.432615 11471 layer_factory.hpp:77] Creating layer inception_4b/relu_5x5
I0403 15:02:20.432634 11471 net.cpp:91] Creating Layer inception_4b/relu_5x5
I0403 15:02:20.432651 11471 net.cpp:425] inception_4b/relu_5x5 <- inception_4b/5x5
I0403 15:02:20.432668 11471 net.cpp:386] inception_4b/relu_5x5 -> inception_4b/5x5 (in-place)
I0403 15:02:20.432950 11471 net.cpp:141] Setting up inception_4b/relu_5x5
I0403 15:02:20.432976 11471 net.cpp:148] Top shape: 24 64 14 14 (301056)
I0403 15:02:20.432992 11471 net.cpp:156] Memory required for data: 968181024
I0403 15:02:20.433007 11471 layer_factory.hpp:77] Creating layer inception_4b/pool
I0403 15:02:20.433027 11471 net.cpp:91] Creating Layer inception_4b/pool
I0403 15:02:20.433044 11471 net.cpp:425] inception_4b/pool <- inception_4a/output_inception_4a/output_0_split_4
I0403 15:02:20.433063 11471 net.cpp:399] inception_4b/pool -> inception_4b/pool
I0403 15:02:20.433135 11471 net.cpp:141] Setting up inception_4b/pool
I0403 15:02:20.433161 11471 net.cpp:148] Top shape: 24 512 14 14 (2408448)
I0403 15:02:20.433176 11471 net.cpp:156] Memory required for data: 977814816
I0403 15:02:20.433190 11471 layer_factory.hpp:77] Creating layer inception_4b/pool_proj
I0403 15:02:20.433212 11471 net.cpp:91] Creating Layer inception_4b/pool_proj
I0403 15:02:20.433230 11471 net.cpp:425] inception_4b/pool_proj <- inception_4b/pool
I0403 15:02:20.433250 11471 net.cpp:399] inception_4b/pool_proj -> inception_4b/pool_proj
I0403 15:02:20.434458 11471 net.cpp:141] Setting up inception_4b/pool_proj
I0403 15:02:20.434485 11471 net.cpp:148] Top shape: 24 64 14 14 (301056)
I0403 15:02:20.434501 11471 net.cpp:156] Memory required for data: 979019040
I0403 15:02:20.434520 11471 layer_factory.hpp:77] Creating layer inception_4b/relu_pool_proj
I0403 15:02:20.434540 11471 net.cpp:91] Creating Layer inception_4b/relu_pool_proj
I0403 15:02:20.434557 11471 net.cpp:425] inception_4b/relu_pool_proj <- inception_4b/pool_proj
I0403 15:02:20.434576 11471 net.cpp:386] inception_4b/relu_pool_proj -> inception_4b/pool_proj (in-place)
I0403 15:02:20.434759 11471 net.cpp:141] Setting up inception_4b/relu_pool_proj
I0403 15:02:20.434787 11471 net.cpp:148] Top shape: 24 64 14 14 (301056)
I0403 15:02:20.434803 11471 net.cpp:156] Memory required for data: 980223264
I0403 15:02:20.434818 11471 layer_factory.hpp:77] Creating layer inception_4b/output
I0403 15:02:20.434835 11471 net.cpp:91] Creating Layer inception_4b/output
I0403 15:02:20.434851 11471 net.cpp:425] inception_4b/output <- inception_4b/1x1
I0403 15:02:20.434869 11471 net.cpp:425] inception_4b/output <- inception_4b/3x3
I0403 15:02:20.434885 11471 net.cpp:425] inception_4b/output <- inception_4b/5x5
I0403 15:02:20.434901 11471 net.cpp:425] inception_4b/output <- inception_4b/pool_proj
I0403 15:02:20.434918 11471 net.cpp:399] inception_4b/output -> inception_4b/output
I0403 15:02:20.434967 11471 net.cpp:141] Setting up inception_4b/output
I0403 15:02:20.434989 11471 net.cpp:148] Top shape: 24 512 14 14 (2408448)
I0403 15:02:20.435004 11471 net.cpp:156] Memory required for data: 989857056
I0403 15:02:20.435034 11471 layer_factory.hpp:77] Creating layer inception_4b/output_inception_4b/output_0_split
I0403 15:02:20.435055 11471 net.cpp:91] Creating Layer inception_4b/output_inception_4b/output_0_split
I0403 15:02:20.435073 11471 net.cpp:425] inception_4b/output_inception_4b/output_0_split <- inception_4b/output
I0403 15:02:20.435091 11471 net.cpp:399] inception_4b/output_inception_4b/output_0_split -> inception_4b/output_inception_4b/output_0_split_0
I0403 15:02:20.435111 11471 net.cpp:399] inception_4b/output_inception_4b/output_0_split -> inception_4b/output_inception_4b/output_0_split_1
I0403 15:02:20.435137 11471 net.cpp:399] inception_4b/output_inception_4b/output_0_split -> inception_4b/output_inception_4b/output_0_split_2
I0403 15:02:20.435161 11471 net.cpp:399] inception_4b/output_inception_4b/output_0_split -> inception_4b/output_inception_4b/output_0_split_3
I0403 15:02:20.435248 11471 net.cpp:141] Setting up inception_4b/output_inception_4b/output_0_split
I0403 15:02:20.435273 11471 net.cpp:148] Top shape: 24 512 14 14 (2408448)
I0403 15:02:20.435289 11471 net.cpp:148] Top shape: 24 512 14 14 (2408448)
I0403 15:02:20.435304 11471 net.cpp:148] Top shape: 24 512 14 14 (2408448)
I0403 15:02:20.435320 11471 net.cpp:148] Top shape: 24 512 14 14 (2408448)
I0403 15:02:20.435333 11471 net.cpp:156] Memory required for data: 1028392224
I0403 15:02:20.435364 11471 layer_factory.hpp:77] Creating layer inception_4c/1x1
I0403 15:02:20.435386 11471 net.cpp:91] Creating Layer inception_4c/1x1
I0403 15:02:20.435405 11471 net.cpp:425] inception_4c/1x1 <- inception_4b/output_inception_4b/output_0_split_0
I0403 15:02:20.435426 11471 net.cpp:399] inception_4c/1x1 -> inception_4c/1x1
I0403 15:02:20.436923 11471 net.cpp:141] Setting up inception_4c/1x1
I0403 15:02:20.436954 11471 net.cpp:148] Top shape: 24 128 14 14 (602112)
I0403 15:02:20.436971 11471 net.cpp:156] Memory required for data: 1030800672
I0403 15:02:20.436988 11471 layer_factory.hpp:77] Creating layer inception_4c/relu_1x1
I0403 15:02:20.437006 11471 net.cpp:91] Creating Layer inception_4c/relu_1x1
I0403 15:02:20.437022 11471 net.cpp:425] inception_4c/relu_1x1 <- inception_4c/1x1
I0403 15:02:20.437042 11471 net.cpp:386] inception_4c/relu_1x1 -> inception_4c/1x1 (in-place)
I0403 15:02:20.437224 11471 net.cpp:141] Setting up inception_4c/relu_1x1
I0403 15:02:20.437250 11471 net.cpp:148] Top shape: 24 128 14 14 (602112)
I0403 15:02:20.437265 11471 net.cpp:156] Memory required for data: 1033209120
I0403 15:02:20.437279 11471 layer_factory.hpp:77] Creating layer inception_4c/3x3_reduce
I0403 15:02:20.437300 11471 net.cpp:91] Creating Layer inception_4c/3x3_reduce
I0403 15:02:20.437319 11471 net.cpp:425] inception_4c/3x3_reduce <- inception_4b/output_inception_4b/output_0_split_1
I0403 15:02:20.437338 11471 net.cpp:399] inception_4c/3x3_reduce -> inception_4c/3x3_reduce
I0403 15:02:20.439294 11471 net.cpp:141] Setting up inception_4c/3x3_reduce
I0403 15:02:20.439323 11471 net.cpp:148] Top shape: 24 128 14 14 (602112)
I0403 15:02:20.439339 11471 net.cpp:156] Memory required for data: 1035617568
I0403 15:02:20.439358 11471 layer_factory.hpp:77] Creating layer inception_4c/relu_3x3_reduce
I0403 15:02:20.439378 11471 net.cpp:91] Creating Layer inception_4c/relu_3x3_reduce
I0403 15:02:20.439407 11471 net.cpp:425] inception_4c/relu_3x3_reduce <- inception_4c/3x3_reduce
I0403 15:02:20.439425 11471 net.cpp:386] inception_4c/relu_3x3_reduce -> inception_4c/3x3_reduce (in-place)
I0403 15:02:20.439724 11471 net.cpp:141] Setting up inception_4c/relu_3x3_reduce
I0403 15:02:20.439751 11471 net.cpp:148] Top shape: 24 128 14 14 (602112)
I0403 15:02:20.439766 11471 net.cpp:156] Memory required for data: 1038026016
I0403 15:02:20.439780 11471 layer_factory.hpp:77] Creating layer inception_4c/3x3
I0403 15:02:20.439802 11471 net.cpp:91] Creating Layer inception_4c/3x3
I0403 15:02:20.439820 11471 net.cpp:425] inception_4c/3x3 <- inception_4c/3x3_reduce
I0403 15:02:20.439841 11471 net.cpp:399] inception_4c/3x3 -> inception_4c/3x3
I0403 15:02:20.443440 11471 net.cpp:141] Setting up inception_4c/3x3
I0403 15:02:20.443482 11471 net.cpp:148] Top shape: 24 256 14 14 (1204224)
I0403 15:02:20.443500 11471 net.cpp:156] Memory required for data: 1042842912
I0403 15:02:20.443531 11471 layer_factory.hpp:77] Creating layer inception_4c/relu_3x3
I0403 15:02:20.443553 11471 net.cpp:91] Creating Layer inception_4c/relu_3x3
I0403 15:02:20.443570 11471 net.cpp:425] inception_4c/relu_3x3 <- inception_4c/3x3
I0403 15:02:20.443588 11471 net.cpp:386] inception_4c/relu_3x3 -> inception_4c/3x3 (in-place)
I0403 15:02:20.443768 11471 net.cpp:141] Setting up inception_4c/relu_3x3
I0403 15:02:20.443794 11471 net.cpp:148] Top shape: 24 256 14 14 (1204224)
I0403 15:02:20.443807 11471 net.cpp:156] Memory required for data: 1047659808
I0403 15:02:20.443821 11471 layer_factory.hpp:77] Creating layer inception_4c/5x5_reduce
I0403 15:02:20.443845 11471 net.cpp:91] Creating Layer inception_4c/5x5_reduce
I0403 15:02:20.443864 11471 net.cpp:425] inception_4c/5x5_reduce <- inception_4b/output_inception_4b/output_0_split_2
I0403 15:02:20.443887 11471 net.cpp:399] inception_4c/5x5_reduce -> inception_4c/5x5_reduce
I0403 15:02:20.444996 11471 net.cpp:141] Setting up inception_4c/5x5_reduce
I0403 15:02:20.445025 11471 net.cpp:148] Top shape: 24 24 14 14 (112896)
I0403 15:02:20.445041 11471 net.cpp:156] Memory required for data: 1048111392
I0403 15:02:20.445060 11471 layer_factory.hpp:77] Creating layer inception_4c/relu_5x5_reduce
I0403 15:02:20.445078 11471 net.cpp:91] Creating Layer inception_4c/relu_5x5_reduce
I0403 15:02:20.445094 11471 net.cpp:425] inception_4c/relu_5x5_reduce <- inception_4c/5x5_reduce
I0403 15:02:20.445111 11471 net.cpp:386] inception_4c/relu_5x5_reduce -> inception_4c/5x5_reduce (in-place)
I0403 15:02:20.445296 11471 net.cpp:141] Setting up inception_4c/relu_5x5_reduce
I0403 15:02:20.445323 11471 net.cpp:148] Top shape: 24 24 14 14 (112896)
I0403 15:02:20.445339 11471 net.cpp:156] Memory required for data: 1048562976
I0403 15:02:20.445356 11471 layer_factory.hpp:77] Creating layer inception_4c/5x5
I0403 15:02:20.445377 11471 net.cpp:91] Creating Layer inception_4c/5x5
I0403 15:02:20.445396 11471 net.cpp:425] inception_4c/5x5 <- inception_4c/5x5_reduce
I0403 15:02:20.445415 11471 net.cpp:399] inception_4c/5x5 -> inception_4c/5x5
I0403 15:02:20.446646 11471 net.cpp:141] Setting up inception_4c/5x5
I0403 15:02:20.446676 11471 net.cpp:148] Top shape: 24 64 14 14 (301056)
I0403 15:02:20.446692 11471 net.cpp:156] Memory required for data: 1049767200
I0403 15:02:20.446709 11471 layer_factory.hpp:77] Creating layer inception_4c/relu_5x5
I0403 15:02:20.446727 11471 net.cpp:91] Creating Layer inception_4c/relu_5x5
I0403 15:02:20.446743 11471 net.cpp:425] inception_4c/relu_5x5 <- inception_4c/5x5
I0403 15:02:20.446763 11471 net.cpp:386] inception_4c/relu_5x5 -> inception_4c/5x5 (in-place)
I0403 15:02:20.447046 11471 net.cpp:141] Setting up inception_4c/relu_5x5
I0403 15:02:20.447074 11471 net.cpp:148] Top shape: 24 64 14 14 (301056)
I0403 15:02:20.447090 11471 net.cpp:156] Memory required for data: 1050971424
I0403 15:02:20.447104 11471 layer_factory.hpp:77] Creating layer inception_4c/pool
I0403 15:02:20.447121 11471 net.cpp:91] Creating Layer inception_4c/pool
I0403 15:02:20.447144 11471 net.cpp:425] inception_4c/pool <- inception_4b/output_inception_4b/output_0_split_3
I0403 15:02:20.447165 11471 net.cpp:399] inception_4c/pool -> inception_4c/pool
I0403 15:02:20.447229 11471 net.cpp:141] Setting up inception_4c/pool
I0403 15:02:20.447253 11471 net.cpp:148] Top shape: 24 512 14 14 (2408448)
I0403 15:02:20.447268 11471 net.cpp:156] Memory required for data: 1060605216
I0403 15:02:20.447281 11471 layer_factory.hpp:77] Creating layer inception_4c/pool_proj
I0403 15:02:20.447305 11471 net.cpp:91] Creating Layer inception_4c/pool_proj
I0403 15:02:20.447324 11471 net.cpp:425] inception_4c/pool_proj <- inception_4c/pool
I0403 15:02:20.447345 11471 net.cpp:399] inception_4c/pool_proj -> inception_4c/pool_proj
I0403 15:02:20.448575 11471 net.cpp:141] Setting up inception_4c/pool_proj
I0403 15:02:20.448604 11471 net.cpp:148] Top shape: 24 64 14 14 (301056)
I0403 15:02:20.448634 11471 net.cpp:156] Memory required for data: 1061809440
I0403 15:02:20.448653 11471 layer_factory.hpp:77] Creating layer inception_4c/relu_pool_proj
I0403 15:02:20.448676 11471 net.cpp:91] Creating Layer inception_4c/relu_pool_proj
I0403 15:02:20.448694 11471 net.cpp:425] inception_4c/relu_pool_proj <- inception_4c/pool_proj
I0403 15:02:20.448711 11471 net.cpp:386] inception_4c/relu_pool_proj -> inception_4c/pool_proj (in-place)
I0403 15:02:20.448892 11471 net.cpp:141] Setting up inception_4c/relu_pool_proj
I0403 15:02:20.448920 11471 net.cpp:148] Top shape: 24 64 14 14 (301056)
I0403 15:02:20.448935 11471 net.cpp:156] Memory required for data: 1063013664
I0403 15:02:20.448951 11471 layer_factory.hpp:77] Creating layer inception_4c/output
I0403 15:02:20.448966 11471 net.cpp:91] Creating Layer inception_4c/output
I0403 15:02:20.448982 11471 net.cpp:425] inception_4c/output <- inception_4c/1x1
I0403 15:02:20.448997 11471 net.cpp:425] inception_4c/output <- inception_4c/3x3
I0403 15:02:20.449013 11471 net.cpp:425] inception_4c/output <- inception_4c/5x5
I0403 15:02:20.449028 11471 net.cpp:425] inception_4c/output <- inception_4c/pool_proj
I0403 15:02:20.449045 11471 net.cpp:399] inception_4c/output -> inception_4c/output
I0403 15:02:20.449092 11471 net.cpp:141] Setting up inception_4c/output
I0403 15:02:20.449116 11471 net.cpp:148] Top shape: 24 512 14 14 (2408448)
I0403 15:02:20.449134 11471 net.cpp:156] Memory required for data: 1072647456
I0403 15:02:20.449151 11471 layer_factory.hpp:77] Creating layer inception_4c/output_inception_4c/output_0_split
I0403 15:02:20.449167 11471 net.cpp:91] Creating Layer inception_4c/output_inception_4c/output_0_split
I0403 15:02:20.449183 11471 net.cpp:425] inception_4c/output_inception_4c/output_0_split <- inception_4c/output
I0403 15:02:20.449203 11471 net.cpp:399] inception_4c/output_inception_4c/output_0_split -> inception_4c/output_inception_4c/output_0_split_0
I0403 15:02:20.449223 11471 net.cpp:399] inception_4c/output_inception_4c/output_0_split -> inception_4c/output_inception_4c/output_0_split_1
I0403 15:02:20.449244 11471 net.cpp:399] inception_4c/output_inception_4c/output_0_split -> inception_4c/output_inception_4c/output_0_split_2
I0403 15:02:20.449265 11471 net.cpp:399] inception_4c/output_inception_4c/output_0_split -> inception_4c/output_inception_4c/output_0_split_3
I0403 15:02:20.449352 11471 net.cpp:141] Setting up inception_4c/output_inception_4c/output_0_split
I0403 15:02:20.449374 11471 net.cpp:148] Top shape: 24 512 14 14 (2408448)
I0403 15:02:20.449390 11471 net.cpp:148] Top shape: 24 512 14 14 (2408448)
I0403 15:02:20.449405 11471 net.cpp:148] Top shape: 24 512 14 14 (2408448)
I0403 15:02:20.449420 11471 net.cpp:148] Top shape: 24 512 14 14 (2408448)
I0403 15:02:20.449434 11471 net.cpp:156] Memory required for data: 1111182624
I0403 15:02:20.449447 11471 layer_factory.hpp:77] Creating layer inception_4d/1x1
I0403 15:02:20.449470 11471 net.cpp:91] Creating Layer inception_4d/1x1
I0403 15:02:20.449487 11471 net.cpp:425] inception_4d/1x1 <- inception_4c/output_inception_4c/output_0_split_0
I0403 15:02:20.449508 11471 net.cpp:399] inception_4d/1x1 -> inception_4d/1x1
I0403 15:02:20.450886 11471 net.cpp:141] Setting up inception_4d/1x1
I0403 15:02:20.450916 11471 net.cpp:148] Top shape: 24 112 14 14 (526848)
I0403 15:02:20.450930 11471 net.cpp:156] Memory required for data: 1113290016
I0403 15:02:20.450948 11471 layer_factory.hpp:77] Creating layer inception_4d/relu_1x1
I0403 15:02:20.450968 11471 net.cpp:91] Creating Layer inception_4d/relu_1x1
I0403 15:02:20.450989 11471 net.cpp:425] inception_4d/relu_1x1 <- inception_4d/1x1
I0403 15:02:20.451006 11471 net.cpp:386] inception_4d/relu_1x1 -> inception_4d/1x1 (in-place)
I0403 15:02:20.451195 11471 net.cpp:141] Setting up inception_4d/relu_1x1
I0403 15:02:20.451221 11471 net.cpp:148] Top shape: 24 112 14 14 (526848)
I0403 15:02:20.451236 11471 net.cpp:156] Memory required for data: 1115397408
I0403 15:02:20.451251 11471 layer_factory.hpp:77] Creating layer inception_4d/3x3_reduce
I0403 15:02:20.451289 11471 net.cpp:91] Creating Layer inception_4d/3x3_reduce
I0403 15:02:20.451309 11471 net.cpp:425] inception_4d/3x3_reduce <- inception_4c/output_inception_4c/output_0_split_1
I0403 15:02:20.451331 11471 net.cpp:399] inception_4d/3x3_reduce -> inception_4d/3x3_reduce
I0403 15:02:20.452855 11471 net.cpp:141] Setting up inception_4d/3x3_reduce
I0403 15:02:20.452886 11471 net.cpp:148] Top shape: 24 144 14 14 (677376)
I0403 15:02:20.452903 11471 net.cpp:156] Memory required for data: 1118106912
I0403 15:02:20.452921 11471 layer_factory.hpp:77] Creating layer inception_4d/relu_3x3_reduce
I0403 15:02:20.452939 11471 net.cpp:91] Creating Layer inception_4d/relu_3x3_reduce
I0403 15:02:20.452957 11471 net.cpp:425] inception_4d/relu_3x3_reduce <- inception_4d/3x3_reduce
I0403 15:02:20.452977 11471 net.cpp:386] inception_4d/relu_3x3_reduce -> inception_4d/3x3_reduce (in-place)
I0403 15:02:20.453277 11471 net.cpp:141] Setting up inception_4d/relu_3x3_reduce
I0403 15:02:20.453307 11471 net.cpp:148] Top shape: 24 144 14 14 (677376)
I0403 15:02:20.453323 11471 net.cpp:156] Memory required for data: 1120816416
I0403 15:02:20.453339 11471 layer_factory.hpp:77] Creating layer inception_4d/3x3
I0403 15:02:20.453363 11471 net.cpp:91] Creating Layer inception_4d/3x3
I0403 15:02:20.453382 11471 net.cpp:425] inception_4d/3x3 <- inception_4d/3x3_reduce
I0403 15:02:20.453400 11471 net.cpp:399] inception_4d/3x3 -> inception_4d/3x3
I0403 15:02:20.457808 11471 net.cpp:141] Setting up inception_4d/3x3
I0403 15:02:20.457836 11471 net.cpp:148] Top shape: 24 288 14 14 (1354752)
I0403 15:02:20.457852 11471 net.cpp:156] Memory required for data: 1126235424
I0403 15:02:20.457870 11471 layer_factory.hpp:77] Creating layer inception_4d/relu_3x3
I0403 15:02:20.457888 11471 net.cpp:91] Creating Layer inception_4d/relu_3x3
I0403 15:02:20.457906 11471 net.cpp:425] inception_4d/relu_3x3 <- inception_4d/3x3
I0403 15:02:20.457926 11471 net.cpp:386] inception_4d/relu_3x3 -> inception_4d/3x3 (in-place)
I0403 15:02:20.458114 11471 net.cpp:141] Setting up inception_4d/relu_3x3
I0403 15:02:20.458148 11471 net.cpp:148] Top shape: 24 288 14 14 (1354752)
I0403 15:02:20.458164 11471 net.cpp:156] Memory required for data: 1131654432
I0403 15:02:20.458179 11471 layer_factory.hpp:77] Creating layer inception_4d/5x5_reduce
I0403 15:02:20.458201 11471 net.cpp:91] Creating Layer inception_4d/5x5_reduce
I0403 15:02:20.458220 11471 net.cpp:425] inception_4d/5x5_reduce <- inception_4c/output_inception_4c/output_0_split_2
I0403 15:02:20.458241 11471 net.cpp:399] inception_4d/5x5_reduce -> inception_4d/5x5_reduce
I0403 15:02:20.459411 11471 net.cpp:141] Setting up inception_4d/5x5_reduce
I0403 15:02:20.459439 11471 net.cpp:148] Top shape: 24 32 14 14 (150528)
I0403 15:02:20.459455 11471 net.cpp:156] Memory required for data: 1132256544
I0403 15:02:20.459473 11471 layer_factory.hpp:77] Creating layer inception_4d/relu_5x5_reduce
I0403 15:02:20.459494 11471 net.cpp:91] Creating Layer inception_4d/relu_5x5_reduce
I0403 15:02:20.459512 11471 net.cpp:425] inception_4d/relu_5x5_reduce <- inception_4d/5x5_reduce
I0403 15:02:20.459529 11471 net.cpp:386] inception_4d/relu_5x5_reduce -> inception_4d/5x5_reduce (in-place)
I0403 15:02:20.459718 11471 net.cpp:141] Setting up inception_4d/relu_5x5_reduce
I0403 15:02:20.459744 11471 net.cpp:148] Top shape: 24 32 14 14 (150528)
I0403 15:02:20.459760 11471 net.cpp:156] Memory required for data: 1132858656
I0403 15:02:20.459775 11471 layer_factory.hpp:77] Creating layer inception_4d/5x5
I0403 15:02:20.459797 11471 net.cpp:91] Creating Layer inception_4d/5x5
I0403 15:02:20.459816 11471 net.cpp:425] inception_4d/5x5 <- inception_4d/5x5_reduce
I0403 15:02:20.459837 11471 net.cpp:399] inception_4d/5x5 -> inception_4d/5x5
I0403 15:02:20.461343 11471 net.cpp:141] Setting up inception_4d/5x5
I0403 15:02:20.461371 11471 net.cpp:148] Top shape: 24 64 14 14 (301056)
I0403 15:02:20.461387 11471 net.cpp:156] Memory required for data: 1134062880
I0403 15:02:20.461406 11471 layer_factory.hpp:77] Creating layer inception_4d/relu_5x5
I0403 15:02:20.461442 11471 net.cpp:91] Creating Layer inception_4d/relu_5x5
I0403 15:02:20.461462 11471 net.cpp:425] inception_4d/relu_5x5 <- inception_4d/5x5
I0403 15:02:20.461480 11471 net.cpp:386] inception_4d/relu_5x5 -> inception_4d/5x5 (in-place)
I0403 15:02:20.461787 11471 net.cpp:141] Setting up inception_4d/relu_5x5
I0403 15:02:20.461814 11471 net.cpp:148] Top shape: 24 64 14 14 (301056)
I0403 15:02:20.461830 11471 net.cpp:156] Memory required for data: 1135267104
I0403 15:02:20.461845 11471 layer_factory.hpp:77] Creating layer inception_4d/pool
I0403 15:02:20.461865 11471 net.cpp:91] Creating Layer inception_4d/pool
I0403 15:02:20.461882 11471 net.cpp:425] inception_4d/pool <- inception_4c/output_inception_4c/output_0_split_3
I0403 15:02:20.461901 11471 net.cpp:399] inception_4d/pool -> inception_4d/pool
I0403 15:02:20.461969 11471 net.cpp:141] Setting up inception_4d/pool
I0403 15:02:20.461994 11471 net.cpp:148] Top shape: 24 512 14 14 (2408448)
I0403 15:02:20.462009 11471 net.cpp:156] Memory required for data: 1144900896
I0403 15:02:20.462023 11471 layer_factory.hpp:77] Creating layer inception_4d/pool_proj
I0403 15:02:20.462045 11471 net.cpp:91] Creating Layer inception_4d/pool_proj
I0403 15:02:20.462064 11471 net.cpp:425] inception_4d/pool_proj <- inception_4d/pool
I0403 15:02:20.462085 11471 net.cpp:399] inception_4d/pool_proj -> inception_4d/pool_proj
I0403 15:02:20.463893 11471 net.cpp:141] Setting up inception_4d/pool_proj
I0403 15:02:20.463923 11471 net.cpp:148] Top shape: 24 64 14 14 (301056)
I0403 15:02:20.463939 11471 net.cpp:156] Memory required for data: 1146105120
I0403 15:02:20.463958 11471 layer_factory.hpp:77] Creating layer inception_4d/relu_pool_proj
I0403 15:02:20.463975 11471 net.cpp:91] Creating Layer inception_4d/relu_pool_proj
I0403 15:02:20.463992 11471 net.cpp:425] inception_4d/relu_pool_proj <- inception_4d/pool_proj
I0403 15:02:20.464011 11471 net.cpp:386] inception_4d/relu_pool_proj -> inception_4d/pool_proj (in-place)
I0403 15:02:20.464203 11471 net.cpp:141] Setting up inception_4d/relu_pool_proj
I0403 15:02:20.464228 11471 net.cpp:148] Top shape: 24 64 14 14 (301056)
I0403 15:02:20.464244 11471 net.cpp:156] Memory required for data: 1147309344
I0403 15:02:20.464257 11471 layer_factory.hpp:77] Creating layer inception_4d/output
I0403 15:02:20.464278 11471 net.cpp:91] Creating Layer inception_4d/output
I0403 15:02:20.464295 11471 net.cpp:425] inception_4d/output <- inception_4d/1x1
I0403 15:02:20.464313 11471 net.cpp:425] inception_4d/output <- inception_4d/3x3
I0403 15:02:20.464329 11471 net.cpp:425] inception_4d/output <- inception_4d/5x5
I0403 15:02:20.464345 11471 net.cpp:425] inception_4d/output <- inception_4d/pool_proj
I0403 15:02:20.464362 11471 net.cpp:399] inception_4d/output -> inception_4d/output
I0403 15:02:20.464424 11471 net.cpp:141] Setting up inception_4d/output
I0403 15:02:20.464449 11471 net.cpp:148] Top shape: 24 528 14 14 (2483712)
I0403 15:02:20.464465 11471 net.cpp:156] Memory required for data: 1157244192
I0403 15:02:20.464480 11471 layer_factory.hpp:77] Creating layer inception_4d/output_inception_4d/output_0_split
I0403 15:02:20.464499 11471 net.cpp:91] Creating Layer inception_4d/output_inception_4d/output_0_split
I0403 15:02:20.464515 11471 net.cpp:425] inception_4d/output_inception_4d/output_0_split <- inception_4d/output
I0403 15:02:20.464537 11471 net.cpp:399] inception_4d/output_inception_4d/output_0_split -> inception_4d/output_inception_4d/output_0_split_0
I0403 15:02:20.464560 11471 net.cpp:399] inception_4d/output_inception_4d/output_0_split -> inception_4d/output_inception_4d/output_0_split_1
I0403 15:02:20.464581 11471 net.cpp:399] inception_4d/output_inception_4d/output_0_split -> inception_4d/output_inception_4d/output_0_split_2
I0403 15:02:20.464604 11471 net.cpp:399] inception_4d/output_inception_4d/output_0_split -> inception_4d/output_inception_4d/output_0_split_3
I0403 15:02:20.464624 11471 net.cpp:399] inception_4d/output_inception_4d/output_0_split -> inception_4d/output_inception_4d/output_0_split_4
I0403 15:02:20.464745 11471 net.cpp:141] Setting up inception_4d/output_inception_4d/output_0_split
I0403 15:02:20.464781 11471 net.cpp:148] Top shape: 24 528 14 14 (2483712)
I0403 15:02:20.464798 11471 net.cpp:148] Top shape: 24 528 14 14 (2483712)
I0403 15:02:20.464814 11471 net.cpp:148] Top shape: 24 528 14 14 (2483712)
I0403 15:02:20.464830 11471 net.cpp:148] Top shape: 24 528 14 14 (2483712)
I0403 15:02:20.464846 11471 net.cpp:148] Top shape: 24 528 14 14 (2483712)
I0403 15:02:20.464860 11471 net.cpp:156] Memory required for data: 1206918432
I0403 15:02:20.464875 11471 layer_factory.hpp:77] Creating layer loss2/ave_pool
I0403 15:02:20.464893 11471 net.cpp:91] Creating Layer loss2/ave_pool
I0403 15:02:20.464910 11471 net.cpp:425] loss2/ave_pool <- inception_4d/output_inception_4d/output_0_split_0
I0403 15:02:20.464931 11471 net.cpp:399] loss2/ave_pool -> loss2/ave_pool
I0403 15:02:20.465250 11471 net.cpp:141] Setting up loss2/ave_pool
I0403 15:02:20.465277 11471 net.cpp:148] Top shape: 24 528 4 4 (202752)
I0403 15:02:20.465293 11471 net.cpp:156] Memory required for data: 1207729440
I0403 15:02:20.465308 11471 layer_factory.hpp:77] Creating layer loss2/conv
I0403 15:02:20.465330 11471 net.cpp:91] Creating Layer loss2/conv
I0403 15:02:20.465351 11471 net.cpp:425] loss2/conv <- loss2/ave_pool
I0403 15:02:20.465373 11471 net.cpp:399] loss2/conv -> loss2/conv
I0403 15:02:20.467279 11471 net.cpp:141] Setting up loss2/conv
I0403 15:02:20.467311 11471 net.cpp:148] Top shape: 24 128 4 4 (49152)
I0403 15:02:20.467329 11471 net.cpp:156] Memory required for data: 1207926048
I0403 15:02:20.467347 11471 layer_factory.hpp:77] Creating layer loss2/relu_conv
I0403 15:02:20.467365 11471 net.cpp:91] Creating Layer loss2/relu_conv
I0403 15:02:20.467381 11471 net.cpp:425] loss2/relu_conv <- loss2/conv
I0403 15:02:20.467398 11471 net.cpp:386] loss2/relu_conv -> loss2/conv (in-place)
I0403 15:02:20.467684 11471 net.cpp:141] Setting up loss2/relu_conv
I0403 15:02:20.467713 11471 net.cpp:148] Top shape: 24 128 4 4 (49152)
I0403 15:02:20.467730 11471 net.cpp:156] Memory required for data: 1208122656
I0403 15:02:20.467746 11471 layer_factory.hpp:77] Creating layer loss2/fc
I0403 15:02:20.467764 11471 net.cpp:91] Creating Layer loss2/fc
I0403 15:02:20.467782 11471 net.cpp:425] loss2/fc <- loss2/conv
I0403 15:02:20.467803 11471 net.cpp:399] loss2/fc -> loss2/fc
I0403 15:02:20.485698 11471 net.cpp:141] Setting up loss2/fc
I0403 15:02:20.485756 11471 net.cpp:148] Top shape: 24 1024 (24576)
I0403 15:02:20.485774 11471 net.cpp:156] Memory required for data: 1208220960
I0403 15:02:20.485791 11471 layer_factory.hpp:77] Creating layer loss2/relu_fc
I0403 15:02:20.485813 11471 net.cpp:91] Creating Layer loss2/relu_fc
I0403 15:02:20.485832 11471 net.cpp:425] loss2/relu_fc <- loss2/fc
I0403 15:02:20.485852 11471 net.cpp:386] loss2/relu_fc -> loss2/fc (in-place)
I0403 15:02:20.486197 11471 net.cpp:141] Setting up loss2/relu_fc
I0403 15:02:20.486225 11471 net.cpp:148] Top shape: 24 1024 (24576)
I0403 15:02:20.486240 11471 net.cpp:156] Memory required for data: 1208319264
I0403 15:02:20.486255 11471 layer_factory.hpp:77] Creating layer loss2/drop_fc
I0403 15:02:20.486275 11471 net.cpp:91] Creating Layer loss2/drop_fc
I0403 15:02:20.486294 11471 net.cpp:425] loss2/drop_fc <- loss2/fc
I0403 15:02:20.486311 11471 net.cpp:386] loss2/drop_fc -> loss2/fc (in-place)
I0403 15:02:20.486361 11471 net.cpp:141] Setting up loss2/drop_fc
I0403 15:02:20.486387 11471 net.cpp:148] Top shape: 24 1024 (24576)
I0403 15:02:20.486402 11471 net.cpp:156] Memory required for data: 1208417568
I0403 15:02:20.486418 11471 layer_factory.hpp:77] Creating layer loss2/classifier_plantvillage
I0403 15:02:20.486435 11471 net.cpp:91] Creating Layer loss2/classifier_plantvillage
I0403 15:02:20.486452 11471 net.cpp:425] loss2/classifier_plantvillage <- loss2/fc
I0403 15:02:20.486472 11471 net.cpp:399] loss2/classifier_plantvillage -> loss2/classifier_plantvillage
I0403 15:02:20.486888 11471 net.cpp:141] Setting up loss2/classifier_plantvillage
I0403 15:02:20.486914 11471 net.cpp:148] Top shape: 24 38 (912)
I0403 15:02:20.486954 11471 net.cpp:156] Memory required for data: 1208421216
I0403 15:02:20.486974 11471 layer_factory.hpp:77] Creating layer loss2/classifier_plantvillage_loss2/classifier_plantvillage_0_split
I0403 15:02:20.486992 11471 net.cpp:91] Creating Layer loss2/classifier_plantvillage_loss2/classifier_plantvillage_0_split
I0403 15:02:20.487009 11471 net.cpp:425] loss2/classifier_plantvillage_loss2/classifier_plantvillage_0_split <- loss2/classifier_plantvillage
I0403 15:02:20.487025 11471 net.cpp:399] loss2/classifier_plantvillage_loss2/classifier_plantvillage_0_split -> loss2/classifier_plantvillage_loss2/classifier_plantvillage_0_split_0
I0403 15:02:20.487049 11471 net.cpp:399] loss2/classifier_plantvillage_loss2/classifier_plantvillage_0_split -> loss2/classifier_plantvillage_loss2/classifier_plantvillage_0_split_1
I0403 15:02:20.487072 11471 net.cpp:399] loss2/classifier_plantvillage_loss2/classifier_plantvillage_0_split -> loss2/classifier_plantvillage_loss2/classifier_plantvillage_0_split_2
I0403 15:02:20.487156 11471 net.cpp:141] Setting up loss2/classifier_plantvillage_loss2/classifier_plantvillage_0_split
I0403 15:02:20.487184 11471 net.cpp:148] Top shape: 24 38 (912)
I0403 15:02:20.487200 11471 net.cpp:148] Top shape: 24 38 (912)
I0403 15:02:20.487216 11471 net.cpp:148] Top shape: 24 38 (912)
I0403 15:02:20.487229 11471 net.cpp:156] Memory required for data: 1208432160
I0403 15:02:20.487244 11471 layer_factory.hpp:77] Creating layer inception_4e/1x1
I0403 15:02:20.487268 11471 net.cpp:91] Creating Layer inception_4e/1x1
I0403 15:02:20.487287 11471 net.cpp:425] inception_4e/1x1 <- inception_4d/output_inception_4d/output_0_split_1
I0403 15:02:20.487309 11471 net.cpp:399] inception_4e/1x1 -> inception_4e/1x1
I0403 15:02:20.489219 11471 net.cpp:141] Setting up inception_4e/1x1
I0403 15:02:20.489250 11471 net.cpp:148] Top shape: 24 256 14 14 (1204224)
I0403 15:02:20.489267 11471 net.cpp:156] Memory required for data: 1213249056
I0403 15:02:20.489286 11471 layer_factory.hpp:77] Creating layer inception_4e/relu_1x1
I0403 15:02:20.489303 11471 net.cpp:91] Creating Layer inception_4e/relu_1x1
I0403 15:02:20.489320 11471 net.cpp:425] inception_4e/relu_1x1 <- inception_4e/1x1
I0403 15:02:20.489338 11471 net.cpp:386] inception_4e/relu_1x1 -> inception_4e/1x1 (in-place)
I0403 15:02:20.489660 11471 net.cpp:141] Setting up inception_4e/relu_1x1
I0403 15:02:20.489689 11471 net.cpp:148] Top shape: 24 256 14 14 (1204224)
I0403 15:02:20.489706 11471 net.cpp:156] Memory required for data: 1218065952
I0403 15:02:20.489720 11471 layer_factory.hpp:77] Creating layer inception_4e/3x3_reduce
I0403 15:02:20.489742 11471 net.cpp:91] Creating Layer inception_4e/3x3_reduce
I0403 15:02:20.489771 11471 net.cpp:425] inception_4e/3x3_reduce <- inception_4d/output_inception_4d/output_0_split_2
I0403 15:02:20.489790 11471 net.cpp:399] inception_4e/3x3_reduce -> inception_4e/3x3_reduce
I0403 15:02:20.491988 11471 net.cpp:141] Setting up inception_4e/3x3_reduce
I0403 15:02:20.492017 11471 net.cpp:148] Top shape: 24 160 14 14 (752640)
I0403 15:02:20.492033 11471 net.cpp:156] Memory required for data: 1221076512
I0403 15:02:20.492050 11471 layer_factory.hpp:77] Creating layer inception_4e/relu_3x3_reduce
I0403 15:02:20.492070 11471 net.cpp:91] Creating Layer inception_4e/relu_3x3_reduce
I0403 15:02:20.492087 11471 net.cpp:425] inception_4e/relu_3x3_reduce <- inception_4e/3x3_reduce
I0403 15:02:20.492105 11471 net.cpp:386] inception_4e/relu_3x3_reduce -> inception_4e/3x3_reduce (in-place)
I0403 15:02:20.492296 11471 net.cpp:141] Setting up inception_4e/relu_3x3_reduce
I0403 15:02:20.492324 11471 net.cpp:148] Top shape: 24 160 14 14 (752640)
I0403 15:02:20.492339 11471 net.cpp:156] Memory required for data: 1224087072
I0403 15:02:20.492357 11471 layer_factory.hpp:77] Creating layer inception_4e/3x3
I0403 15:02:20.492378 11471 net.cpp:91] Creating Layer inception_4e/3x3
I0403 15:02:20.492396 11471 net.cpp:425] inception_4e/3x3 <- inception_4e/3x3_reduce
I0403 15:02:20.492414 11471 net.cpp:399] inception_4e/3x3 -> inception_4e/3x3
I0403 15:02:20.497465 11471 net.cpp:141] Setting up inception_4e/3x3
I0403 15:02:20.497509 11471 net.cpp:148] Top shape: 24 320 14 14 (1505280)
I0403 15:02:20.497526 11471 net.cpp:156] Memory required for data: 1230108192
I0403 15:02:20.497544 11471 layer_factory.hpp:77] Creating layer inception_4e/relu_3x3
I0403 15:02:20.497562 11471 net.cpp:91] Creating Layer inception_4e/relu_3x3
I0403 15:02:20.497578 11471 net.cpp:425] inception_4e/relu_3x3 <- inception_4e/3x3
I0403 15:02:20.497598 11471 net.cpp:386] inception_4e/relu_3x3 -> inception_4e/3x3 (in-place)
I0403 15:02:20.497897 11471 net.cpp:141] Setting up inception_4e/relu_3x3
I0403 15:02:20.497925 11471 net.cpp:148] Top shape: 24 320 14 14 (1505280)
I0403 15:02:20.497939 11471 net.cpp:156] Memory required for data: 1236129312
I0403 15:02:20.497953 11471 layer_factory.hpp:77] Creating layer inception_4e/5x5_reduce
I0403 15:02:20.497977 11471 net.cpp:91] Creating Layer inception_4e/5x5_reduce
I0403 15:02:20.497994 11471 net.cpp:425] inception_4e/5x5_reduce <- inception_4d/output_inception_4d/output_0_split_3
I0403 15:02:20.498016 11471 net.cpp:399] inception_4e/5x5_reduce -> inception_4e/5x5_reduce
I0403 15:02:20.499102 11471 net.cpp:141] Setting up inception_4e/5x5_reduce
I0403 15:02:20.499135 11471 net.cpp:148] Top shape: 24 32 14 14 (150528)
I0403 15:02:20.499151 11471 net.cpp:156] Memory required for data: 1236731424
I0403 15:02:20.499168 11471 layer_factory.hpp:77] Creating layer inception_4e/relu_5x5_reduce
I0403 15:02:20.499189 11471 net.cpp:91] Creating Layer inception_4e/relu_5x5_reduce
I0403 15:02:20.499207 11471 net.cpp:425] inception_4e/relu_5x5_reduce <- inception_4e/5x5_reduce
I0403 15:02:20.499224 11471 net.cpp:386] inception_4e/relu_5x5_reduce -> inception_4e/5x5_reduce (in-place)
I0403 15:02:20.499522 11471 net.cpp:141] Setting up inception_4e/relu_5x5_reduce
I0403 15:02:20.499548 11471 net.cpp:148] Top shape: 24 32 14 14 (150528)
I0403 15:02:20.499563 11471 net.cpp:156] Memory required for data: 1237333536
I0403 15:02:20.499578 11471 layer_factory.hpp:77] Creating layer inception_4e/5x5
I0403 15:02:20.499619 11471 net.cpp:91] Creating Layer inception_4e/5x5
I0403 15:02:20.499639 11471 net.cpp:425] inception_4e/5x5 <- inception_4e/5x5_reduce
I0403 15:02:20.499658 11471 net.cpp:399] inception_4e/5x5 -> inception_4e/5x5
I0403 15:02:20.501528 11471 net.cpp:141] Setting up inception_4e/5x5
I0403 15:02:20.501556 11471 net.cpp:148] Top shape: 24 128 14 14 (602112)
I0403 15:02:20.501571 11471 net.cpp:156] Memory required for data: 1239741984
I0403 15:02:20.501590 11471 layer_factory.hpp:77] Creating layer inception_4e/relu_5x5
I0403 15:02:20.501610 11471 net.cpp:91] Creating Layer inception_4e/relu_5x5
I0403 15:02:20.501626 11471 net.cpp:425] inception_4e/relu_5x5 <- inception_4e/5x5
I0403 15:02:20.501643 11471 net.cpp:386] inception_4e/relu_5x5 -> inception_4e/5x5 (in-place)
I0403 15:02:20.501842 11471 net.cpp:141] Setting up inception_4e/relu_5x5
I0403 15:02:20.501869 11471 net.cpp:148] Top shape: 24 128 14 14 (602112)
I0403 15:02:20.501885 11471 net.cpp:156] Memory required for data: 1242150432
I0403 15:02:20.501899 11471 layer_factory.hpp:77] Creating layer inception_4e/pool
I0403 15:02:20.501919 11471 net.cpp:91] Creating Layer inception_4e/pool
I0403 15:02:20.501935 11471 net.cpp:425] inception_4e/pool <- inception_4d/output_inception_4d/output_0_split_4
I0403 15:02:20.501951 11471 net.cpp:399] inception_4e/pool -> inception_4e/pool
I0403 15:02:20.502024 11471 net.cpp:141] Setting up inception_4e/pool
I0403 15:02:20.502048 11471 net.cpp:148] Top shape: 24 528 14 14 (2483712)
I0403 15:02:20.502063 11471 net.cpp:156] Memory required for data: 1252085280
I0403 15:02:20.502076 11471 layer_factory.hpp:77] Creating layer inception_4e/pool_proj
I0403 15:02:20.502099 11471 net.cpp:91] Creating Layer inception_4e/pool_proj
I0403 15:02:20.502115 11471 net.cpp:425] inception_4e/pool_proj <- inception_4e/pool
I0403 15:02:20.502141 11471 net.cpp:399] inception_4e/pool_proj -> inception_4e/pool_proj
I0403 15:02:20.503726 11471 net.cpp:141] Setting up inception_4e/pool_proj
I0403 15:02:20.503767 11471 net.cpp:148] Top shape: 24 128 14 14 (602112)
I0403 15:02:20.503783 11471 net.cpp:156] Memory required for data: 1254493728
I0403 15:02:20.503801 11471 layer_factory.hpp:77] Creating layer inception_4e/relu_pool_proj
I0403 15:02:20.503819 11471 net.cpp:91] Creating Layer inception_4e/relu_pool_proj
I0403 15:02:20.503836 11471 net.cpp:425] inception_4e/relu_pool_proj <- inception_4e/pool_proj
I0403 15:02:20.503870 11471 net.cpp:386] inception_4e/relu_pool_proj -> inception_4e/pool_proj (in-place)
I0403 15:02:20.504178 11471 net.cpp:141] Setting up inception_4e/relu_pool_proj
I0403 15:02:20.504204 11471 net.cpp:148] Top shape: 24 128 14 14 (602112)
I0403 15:02:20.504218 11471 net.cpp:156] Memory required for data: 1256902176
I0403 15:02:20.504231 11471 layer_factory.hpp:77] Creating layer inception_4e/output
I0403 15:02:20.504250 11471 net.cpp:91] Creating Layer inception_4e/output
I0403 15:02:20.504264 11471 net.cpp:425] inception_4e/output <- inception_4e/1x1
I0403 15:02:20.504281 11471 net.cpp:425] inception_4e/output <- inception_4e/3x3
I0403 15:02:20.504297 11471 net.cpp:425] inception_4e/output <- inception_4e/5x5
I0403 15:02:20.504312 11471 net.cpp:425] inception_4e/output <- inception_4e/pool_proj
I0403 15:02:20.504330 11471 net.cpp:399] inception_4e/output -> inception_4e/output
I0403 15:02:20.504382 11471 net.cpp:141] Setting up inception_4e/output
I0403 15:02:20.504410 11471 net.cpp:148] Top shape: 24 832 14 14 (3913728)
I0403 15:02:20.504426 11471 net.cpp:156] Memory required for data: 1272557088
I0403 15:02:20.504439 11471 layer_factory.hpp:77] Creating layer pool4/3x3_s2
I0403 15:02:20.504457 11471 net.cpp:91] Creating Layer pool4/3x3_s2
I0403 15:02:20.504473 11471 net.cpp:425] pool4/3x3_s2 <- inception_4e/output
I0403 15:02:20.504493 11471 net.cpp:399] pool4/3x3_s2 -> pool4/3x3_s2
I0403 15:02:20.504561 11471 net.cpp:141] Setting up pool4/3x3_s2
I0403 15:02:20.504585 11471 net.cpp:148] Top shape: 24 832 7 7 (978432)
I0403 15:02:20.504600 11471 net.cpp:156] Memory required for data: 1276470816
I0403 15:02:20.504613 11471 layer_factory.hpp:77] Creating layer pool4/3x3_s2_pool4/3x3_s2_0_split
I0403 15:02:20.504632 11471 net.cpp:91] Creating Layer pool4/3x3_s2_pool4/3x3_s2_0_split
I0403 15:02:20.504649 11471 net.cpp:425] pool4/3x3_s2_pool4/3x3_s2_0_split <- pool4/3x3_s2
I0403 15:02:20.504667 11471 net.cpp:399] pool4/3x3_s2_pool4/3x3_s2_0_split -> pool4/3x3_s2_pool4/3x3_s2_0_split_0
I0403 15:02:20.504688 11471 net.cpp:399] pool4/3x3_s2_pool4/3x3_s2_0_split -> pool4/3x3_s2_pool4/3x3_s2_0_split_1
I0403 15:02:20.504709 11471 net.cpp:399] pool4/3x3_s2_pool4/3x3_s2_0_split -> pool4/3x3_s2_pool4/3x3_s2_0_split_2
I0403 15:02:20.504730 11471 net.cpp:399] pool4/3x3_s2_pool4/3x3_s2_0_split -> pool4/3x3_s2_pool4/3x3_s2_0_split_3
I0403 15:02:20.504822 11471 net.cpp:141] Setting up pool4/3x3_s2_pool4/3x3_s2_0_split
I0403 15:02:20.504845 11471 net.cpp:148] Top shape: 24 832 7 7 (978432)
I0403 15:02:20.504860 11471 net.cpp:148] Top shape: 24 832 7 7 (978432)
I0403 15:02:20.504875 11471 net.cpp:148] Top shape: 24 832 7 7 (978432)
I0403 15:02:20.504890 11471 net.cpp:148] Top shape: 24 832 7 7 (978432)
I0403 15:02:20.504904 11471 net.cpp:156] Memory required for data: 1292125728
I0403 15:02:20.504917 11471 layer_factory.hpp:77] Creating layer inception_5a/1x1
I0403 15:02:20.504940 11471 net.cpp:91] Creating Layer inception_5a/1x1
I0403 15:02:20.504957 11471 net.cpp:425] inception_5a/1x1 <- pool4/3x3_s2_pool4/3x3_s2_0_split_0
I0403 15:02:20.504978 11471 net.cpp:399] inception_5a/1x1 -> inception_5a/1x1
I0403 15:02:20.507884 11471 net.cpp:141] Setting up inception_5a/1x1
I0403 15:02:20.507915 11471 net.cpp:148] Top shape: 24 256 7 7 (301056)
I0403 15:02:20.507930 11471 net.cpp:156] Memory required for data: 1293329952
I0403 15:02:20.507948 11471 layer_factory.hpp:77] Creating layer inception_5a/relu_1x1
I0403 15:02:20.507968 11471 net.cpp:91] Creating Layer inception_5a/relu_1x1
I0403 15:02:20.507985 11471 net.cpp:425] inception_5a/relu_1x1 <- inception_5a/1x1
I0403 15:02:20.508002 11471 net.cpp:386] inception_5a/relu_1x1 -> inception_5a/1x1 (in-place)
I0403 15:02:20.508335 11471 net.cpp:141] Setting up inception_5a/relu_1x1
I0403 15:02:20.508363 11471 net.cpp:148] Top shape: 24 256 7 7 (301056)
I0403 15:02:20.508376 11471 net.cpp:156] Memory required for data: 1294534176
I0403 15:02:20.508391 11471 layer_factory.hpp:77] Creating layer inception_5a/3x3_reduce
I0403 15:02:20.508414 11471 net.cpp:91] Creating Layer inception_5a/3x3_reduce
I0403 15:02:20.508430 11471 net.cpp:425] inception_5a/3x3_reduce <- pool4/3x3_s2_pool4/3x3_s2_0_split_1
I0403 15:02:20.508451 11471 net.cpp:399] inception_5a/3x3_reduce -> inception_5a/3x3_reduce
I0403 15:02:20.510921 11471 net.cpp:141] Setting up inception_5a/3x3_reduce
I0403 15:02:20.510951 11471 net.cpp:148] Top shape: 24 160 7 7 (188160)
I0403 15:02:20.510965 11471 net.cpp:156] Memory required for data: 1295286816
I0403 15:02:20.510982 11471 layer_factory.hpp:77] Creating layer inception_5a/relu_3x3_reduce
I0403 15:02:20.511000 11471 net.cpp:91] Creating Layer inception_5a/relu_3x3_reduce
I0403 15:02:20.511016 11471 net.cpp:425] inception_5a/relu_3x3_reduce <- inception_5a/3x3_reduce
I0403 15:02:20.511036 11471 net.cpp:386] inception_5a/relu_3x3_reduce -> inception_5a/3x3_reduce (in-place)
I0403 15:02:20.511231 11471 net.cpp:141] Setting up inception_5a/relu_3x3_reduce
I0403 15:02:20.511256 11471 net.cpp:148] Top shape: 24 160 7 7 (188160)
I0403 15:02:20.511270 11471 net.cpp:156] Memory required for data: 1296039456
I0403 15:02:20.511284 11471 layer_factory.hpp:77] Creating layer inception_5a/3x3
I0403 15:02:20.511307 11471 net.cpp:91] Creating Layer inception_5a/3x3
I0403 15:02:20.511323 11471 net.cpp:425] inception_5a/3x3 <- inception_5a/3x3_reduce
I0403 15:02:20.511345 11471 net.cpp:399] inception_5a/3x3 -> inception_5a/3x3
I0403 15:02:20.516433 11471 net.cpp:141] Setting up inception_5a/3x3
I0403 15:02:20.516463 11471 net.cpp:148] Top shape: 24 320 7 7 (376320)
I0403 15:02:20.516477 11471 net.cpp:156] Memory required for data: 1297544736
I0403 15:02:20.516495 11471 layer_factory.hpp:77] Creating layer inception_5a/relu_3x3
I0403 15:02:20.516515 11471 net.cpp:91] Creating Layer inception_5a/relu_3x3
I0403 15:02:20.516532 11471 net.cpp:425] inception_5a/relu_3x3 <- inception_5a/3x3
I0403 15:02:20.516549 11471 net.cpp:386] inception_5a/relu_3x3 -> inception_5a/3x3 (in-place)
I0403 15:02:20.516846 11471 net.cpp:141] Setting up inception_5a/relu_3x3
I0403 15:02:20.516872 11471 net.cpp:148] Top shape: 24 320 7 7 (376320)
I0403 15:02:20.516887 11471 net.cpp:156] Memory required for data: 1299050016
I0403 15:02:20.516901 11471 layer_factory.hpp:77] Creating layer inception_5a/5x5_reduce
I0403 15:02:20.516923 11471 net.cpp:91] Creating Layer inception_5a/5x5_reduce
I0403 15:02:20.516942 11471 net.cpp:425] inception_5a/5x5_reduce <- pool4/3x3_s2_pool4/3x3_s2_0_split_2
I0403 15:02:20.516963 11471 net.cpp:399] inception_5a/5x5_reduce -> inception_5a/5x5_reduce
I0403 15:02:20.518160 11471 net.cpp:141] Setting up inception_5a/5x5_reduce
I0403 15:02:20.518192 11471 net.cpp:148] Top shape: 24 32 7 7 (37632)
I0403 15:02:20.518208 11471 net.cpp:156] Memory required for data: 1299200544
I0403 15:02:20.518225 11471 layer_factory.hpp:77] Creating layer inception_5a/relu_5x5_reduce
I0403 15:02:20.518244 11471 net.cpp:91] Creating Layer inception_5a/relu_5x5_reduce
I0403 15:02:20.518260 11471 net.cpp:425] inception_5a/relu_5x5_reduce <- inception_5a/5x5_reduce
I0403 15:02:20.518276 11471 net.cpp:386] inception_5a/relu_5x5_reduce -> inception_5a/5x5_reduce (in-place)
I0403 15:02:20.518586 11471 net.cpp:141] Setting up inception_5a/relu_5x5_reduce
I0403 15:02:20.518615 11471 net.cpp:148] Top shape: 24 32 7 7 (37632)
I0403 15:02:20.518630 11471 net.cpp:156] Memory required for data: 1299351072
I0403 15:02:20.518646 11471 layer_factory.hpp:77] Creating layer inception_5a/5x5
I0403 15:02:20.518664 11471 net.cpp:91] Creating Layer inception_5a/5x5
I0403 15:02:20.518682 11471 net.cpp:425] inception_5a/5x5 <- inception_5a/5x5_reduce
I0403 15:02:20.518702 11471 net.cpp:399] inception_5a/5x5 -> inception_5a/5x5
I0403 15:02:20.520534 11471 net.cpp:141] Setting up inception_5a/5x5
I0403 15:02:20.520575 11471 net.cpp:148] Top shape: 24 128 7 7 (150528)
I0403 15:02:20.520591 11471 net.cpp:156] Memory required for data: 1299953184
I0403 15:02:20.520607 11471 layer_factory.hpp:77] Creating layer inception_5a/relu_5x5
I0403 15:02:20.520628 11471 net.cpp:91] Creating Layer inception_5a/relu_5x5
I0403 15:02:20.520644 11471 net.cpp:425] inception_5a/relu_5x5 <- inception_5a/5x5
I0403 15:02:20.520661 11471 net.cpp:386] inception_5a/relu_5x5 -> inception_5a/5x5 (in-place)
I0403 15:02:20.520855 11471 net.cpp:141] Setting up inception_5a/relu_5x5
I0403 15:02:20.520882 11471 net.cpp:148] Top shape: 24 128 7 7 (150528)
I0403 15:02:20.520898 11471 net.cpp:156] Memory required for data: 1300555296
I0403 15:02:20.520912 11471 layer_factory.hpp:77] Creating layer inception_5a/pool
I0403 15:02:20.520931 11471 net.cpp:91] Creating Layer inception_5a/pool
I0403 15:02:20.520946 11471 net.cpp:425] inception_5a/pool <- pool4/3x3_s2_pool4/3x3_s2_0_split_3
I0403 15:02:20.520963 11471 net.cpp:399] inception_5a/pool -> inception_5a/pool
I0403 15:02:20.521036 11471 net.cpp:141] Setting up inception_5a/pool
I0403 15:02:20.521059 11471 net.cpp:148] Top shape: 24 832 7 7 (978432)
I0403 15:02:20.521073 11471 net.cpp:156] Memory required for data: 1304469024
I0403 15:02:20.521087 11471 layer_factory.hpp:77] Creating layer inception_5a/pool_proj
I0403 15:02:20.521108 11471 net.cpp:91] Creating Layer inception_5a/pool_proj
I0403 15:02:20.521131 11471 net.cpp:425] inception_5a/pool_proj <- inception_5a/pool
I0403 15:02:20.521152 11471 net.cpp:399] inception_5a/pool_proj -> inception_5a/pool_proj
I0403 15:02:20.523468 11471 net.cpp:141] Setting up inception_5a/pool_proj
I0403 15:02:20.523496 11471 net.cpp:148] Top shape: 24 128 7 7 (150528)
I0403 15:02:20.523512 11471 net.cpp:156] Memory required for data: 1305071136
I0403 15:02:20.523530 11471 layer_factory.hpp:77] Creating layer inception_5a/relu_pool_proj
I0403 15:02:20.523550 11471 net.cpp:91] Creating Layer inception_5a/relu_pool_proj
I0403 15:02:20.523566 11471 net.cpp:425] inception_5a/relu_pool_proj <- inception_5a/pool_proj
I0403 15:02:20.523582 11471 net.cpp:386] inception_5a/relu_pool_proj -> inception_5a/pool_proj (in-place)
I0403 15:02:20.523879 11471 net.cpp:141] Setting up inception_5a/relu_pool_proj
I0403 15:02:20.523905 11471 net.cpp:148] Top shape: 24 128 7 7 (150528)
I0403 15:02:20.523919 11471 net.cpp:156] Memory required for data: 1305673248
I0403 15:02:20.523933 11471 layer_factory.hpp:77] Creating layer inception_5a/output
I0403 15:02:20.523950 11471 net.cpp:91] Creating Layer inception_5a/output
I0403 15:02:20.523967 11471 net.cpp:425] inception_5a/output <- inception_5a/1x1
I0403 15:02:20.523983 11471 net.cpp:425] inception_5a/output <- inception_5a/3x3
I0403 15:02:20.523998 11471 net.cpp:425] inception_5a/output <- inception_5a/5x5
I0403 15:02:20.524014 11471 net.cpp:425] inception_5a/output <- inception_5a/pool_proj
I0403 15:02:20.524034 11471 net.cpp:399] inception_5a/output -> inception_5a/output
I0403 15:02:20.524083 11471 net.cpp:141] Setting up inception_5a/output
I0403 15:02:20.524109 11471 net.cpp:148] Top shape: 24 832 7 7 (978432)
I0403 15:02:20.524128 11471 net.cpp:156] Memory required for data: 1309586976
I0403 15:02:20.524144 11471 layer_factory.hpp:77] Creating layer inception_5a/output_inception_5a/output_0_split
I0403 15:02:20.524161 11471 net.cpp:91] Creating Layer inception_5a/output_inception_5a/output_0_split
I0403 15:02:20.524178 11471 net.cpp:425] inception_5a/output_inception_5a/output_0_split <- inception_5a/output
I0403 15:02:20.524199 11471 net.cpp:399] inception_5a/output_inception_5a/output_0_split -> inception_5a/output_inception_5a/output_0_split_0
I0403 15:02:20.524219 11471 net.cpp:399] inception_5a/output_inception_5a/output_0_split -> inception_5a/output_inception_5a/output_0_split_1
I0403 15:02:20.524240 11471 net.cpp:399] inception_5a/output_inception_5a/output_0_split -> inception_5a/output_inception_5a/output_0_split_2
I0403 15:02:20.524260 11471 net.cpp:399] inception_5a/output_inception_5a/output_0_split -> inception_5a/output_inception_5a/output_0_split_3
I0403 15:02:20.524374 11471 net.cpp:141] Setting up inception_5a/output_inception_5a/output_0_split
I0403 15:02:20.524401 11471 net.cpp:148] Top shape: 24 832 7 7 (978432)
I0403 15:02:20.524418 11471 net.cpp:148] Top shape: 24 832 7 7 (978432)
I0403 15:02:20.524433 11471 net.cpp:148] Top shape: 24 832 7 7 (978432)
I0403 15:02:20.524447 11471 net.cpp:148] Top shape: 24 832 7 7 (978432)
I0403 15:02:20.524461 11471 net.cpp:156] Memory required for data: 1325241888
I0403 15:02:20.524474 11471 layer_factory.hpp:77] Creating layer inception_5b/1x1
I0403 15:02:20.524493 11471 net.cpp:91] Creating Layer inception_5b/1x1
I0403 15:02:20.524510 11471 net.cpp:425] inception_5b/1x1 <- inception_5a/output_inception_5a/output_0_split_0
I0403 15:02:20.524531 11471 net.cpp:399] inception_5b/1x1 -> inception_5b/1x1
I0403 15:02:20.528355 11471 net.cpp:141] Setting up inception_5b/1x1
I0403 15:02:20.528384 11471 net.cpp:148] Top shape: 24 384 7 7 (451584)
I0403 15:02:20.528399 11471 net.cpp:156] Memory required for data: 1327048224
I0403 15:02:20.528417 11471 layer_factory.hpp:77] Creating layer inception_5b/relu_1x1
I0403 15:02:20.528434 11471 net.cpp:91] Creating Layer inception_5b/relu_1x1
I0403 15:02:20.528450 11471 net.cpp:425] inception_5b/relu_1x1 <- inception_5b/1x1
I0403 15:02:20.528470 11471 net.cpp:386] inception_5b/relu_1x1 -> inception_5b/1x1 (in-place)
I0403 15:02:20.528776 11471 net.cpp:141] Setting up inception_5b/relu_1x1
I0403 15:02:20.528802 11471 net.cpp:148] Top shape: 24 384 7 7 (451584)
I0403 15:02:20.528816 11471 net.cpp:156] Memory required for data: 1328854560
I0403 15:02:20.528831 11471 layer_factory.hpp:77] Creating layer inception_5b/3x3_reduce
I0403 15:02:20.528856 11471 net.cpp:91] Creating Layer inception_5b/3x3_reduce
I0403 15:02:20.528873 11471 net.cpp:425] inception_5b/3x3_reduce <- inception_5a/output_inception_5a/output_0_split_1
I0403 15:02:20.528895 11471 net.cpp:399] inception_5b/3x3_reduce -> inception_5b/3x3_reduce
I0403 15:02:20.531585 11471 net.cpp:141] Setting up inception_5b/3x3_reduce
I0403 15:02:20.531615 11471 net.cpp:148] Top shape: 24 192 7 7 (225792)
I0403 15:02:20.531630 11471 net.cpp:156] Memory required for data: 1329757728
I0403 15:02:20.531648 11471 layer_factory.hpp:77] Creating layer inception_5b/relu_3x3_reduce
I0403 15:02:20.531668 11471 net.cpp:91] Creating Layer inception_5b/relu_3x3_reduce
I0403 15:02:20.531685 11471 net.cpp:425] inception_5b/relu_3x3_reduce <- inception_5b/3x3_reduce
I0403 15:02:20.531703 11471 net.cpp:386] inception_5b/relu_3x3_reduce -> inception_5b/3x3_reduce (in-place)
I0403 15:02:20.531894 11471 net.cpp:141] Setting up inception_5b/relu_3x3_reduce
I0403 15:02:20.531920 11471 net.cpp:148] Top shape: 24 192 7 7 (225792)
I0403 15:02:20.531934 11471 net.cpp:156] Memory required for data: 1330660896
I0403 15:02:20.531949 11471 layer_factory.hpp:77] Creating layer inception_5b/3x3
I0403 15:02:20.531970 11471 net.cpp:91] Creating Layer inception_5b/3x3
I0403 15:02:20.531987 11471 net.cpp:425] inception_5b/3x3 <- inception_5b/3x3_reduce
I0403 15:02:20.532009 11471 net.cpp:399] inception_5b/3x3 -> inception_5b/3x3
I0403 15:02:20.538810 11471 net.cpp:141] Setting up inception_5b/3x3
I0403 15:02:20.538838 11471 net.cpp:148] Top shape: 24 384 7 7 (451584)
I0403 15:02:20.538853 11471 net.cpp:156] Memory required for data: 1332467232
I0403 15:02:20.538871 11471 layer_factory.hpp:77] Creating layer inception_5b/relu_3x3
I0403 15:02:20.538892 11471 net.cpp:91] Creating Layer inception_5b/relu_3x3
I0403 15:02:20.538908 11471 net.cpp:425] inception_5b/relu_3x3 <- inception_5b/3x3
I0403 15:02:20.538925 11471 net.cpp:386] inception_5b/relu_3x3 -> inception_5b/3x3 (in-place)
I0403 15:02:20.539230 11471 net.cpp:141] Setting up inception_5b/relu_3x3
I0403 15:02:20.539258 11471 net.cpp:148] Top shape: 24 384 7 7 (451584)
I0403 15:02:20.539273 11471 net.cpp:156] Memory required for data: 1334273568
I0403 15:02:20.539286 11471 layer_factory.hpp:77] Creating layer inception_5b/5x5_reduce
I0403 15:02:20.539326 11471 net.cpp:91] Creating Layer inception_5b/5x5_reduce
I0403 15:02:20.539345 11471 net.cpp:425] inception_5b/5x5_reduce <- inception_5a/output_inception_5a/output_0_split_2
I0403 15:02:20.539368 11471 net.cpp:399] inception_5b/5x5_reduce -> inception_5b/5x5_reduce
I0403 15:02:20.540655 11471 net.cpp:141] Setting up inception_5b/5x5_reduce
I0403 15:02:20.540683 11471 net.cpp:148] Top shape: 24 48 7 7 (56448)
I0403 15:02:20.540699 11471 net.cpp:156] Memory required for data: 1334499360
I0403 15:02:20.540716 11471 layer_factory.hpp:77] Creating layer inception_5b/relu_5x5_reduce
I0403 15:02:20.540735 11471 net.cpp:91] Creating Layer inception_5b/relu_5x5_reduce
I0403 15:02:20.540751 11471 net.cpp:425] inception_5b/relu_5x5_reduce <- inception_5b/5x5_reduce
I0403 15:02:20.540771 11471 net.cpp:386] inception_5b/relu_5x5_reduce -> inception_5b/5x5_reduce (in-place)
I0403 15:02:20.541152 11471 net.cpp:141] Setting up inception_5b/relu_5x5_reduce
I0403 15:02:20.541178 11471 net.cpp:148] Top shape: 24 48 7 7 (56448)
I0403 15:02:20.541193 11471 net.cpp:156] Memory required for data: 1334725152
I0403 15:02:20.541208 11471 layer_factory.hpp:77] Creating layer inception_5b/5x5
I0403 15:02:20.541227 11471 net.cpp:91] Creating Layer inception_5b/5x5
I0403 15:02:20.541244 11471 net.cpp:425] inception_5b/5x5 <- inception_5b/5x5_reduce
I0403 15:02:20.541263 11471 net.cpp:399] inception_5b/5x5 -> inception_5b/5x5
I0403 15:02:20.543370 11471 net.cpp:141] Setting up inception_5b/5x5
I0403 15:02:20.543411 11471 net.cpp:148] Top shape: 24 128 7 7 (150528)
I0403 15:02:20.543426 11471 net.cpp:156] Memory required for data: 1335327264
I0403 15:02:20.543444 11471 layer_factory.hpp:77] Creating layer inception_5b/relu_5x5
I0403 15:02:20.543465 11471 net.cpp:91] Creating Layer inception_5b/relu_5x5
I0403 15:02:20.543483 11471 net.cpp:425] inception_5b/relu_5x5 <- inception_5b/5x5
I0403 15:02:20.543503 11471 net.cpp:386] inception_5b/relu_5x5 -> inception_5b/5x5 (in-place)
I0403 15:02:20.543716 11471 net.cpp:141] Setting up inception_5b/relu_5x5
I0403 15:02:20.543743 11471 net.cpp:148] Top shape: 24 128 7 7 (150528)
I0403 15:02:20.543758 11471 net.cpp:156] Memory required for data: 1335929376
I0403 15:02:20.543772 11471 layer_factory.hpp:77] Creating layer inception_5b/pool
I0403 15:02:20.543789 11471 net.cpp:91] Creating Layer inception_5b/pool
I0403 15:02:20.543805 11471 net.cpp:425] inception_5b/pool <- inception_5a/output_inception_5a/output_0_split_3
I0403 15:02:20.543826 11471 net.cpp:399] inception_5b/pool -> inception_5b/pool
I0403 15:02:20.543901 11471 net.cpp:141] Setting up inception_5b/pool
I0403 15:02:20.543926 11471 net.cpp:148] Top shape: 24 832 7 7 (978432)
I0403 15:02:20.543939 11471 net.cpp:156] Memory required for data: 1339843104
I0403 15:02:20.543953 11471 layer_factory.hpp:77] Creating layer inception_5b/pool_proj
I0403 15:02:20.543975 11471 net.cpp:91] Creating Layer inception_5b/pool_proj
I0403 15:02:20.543993 11471 net.cpp:425] inception_5b/pool_proj <- inception_5b/pool
I0403 15:02:20.544013 11471 net.cpp:399] inception_5b/pool_proj -> inception_5b/pool_proj
I0403 15:02:20.546388 11471 net.cpp:141] Setting up inception_5b/pool_proj
I0403 15:02:20.546417 11471 net.cpp:148] Top shape: 24 128 7 7 (150528)
I0403 15:02:20.546433 11471 net.cpp:156] Memory required for data: 1340445216
I0403 15:02:20.546452 11471 layer_factory.hpp:77] Creating layer inception_5b/relu_pool_proj
I0403 15:02:20.546476 11471 net.cpp:91] Creating Layer inception_5b/relu_pool_proj
I0403 15:02:20.546494 11471 net.cpp:425] inception_5b/relu_pool_proj <- inception_5b/pool_proj
I0403 15:02:20.546511 11471 net.cpp:386] inception_5b/relu_pool_proj -> inception_5b/pool_proj (in-place)
I0403 15:02:20.546813 11471 net.cpp:141] Setting up inception_5b/relu_pool_proj
I0403 15:02:20.546838 11471 net.cpp:148] Top shape: 24 128 7 7 (150528)
I0403 15:02:20.546854 11471 net.cpp:156] Memory required for data: 1341047328
I0403 15:02:20.546867 11471 layer_factory.hpp:77] Creating layer inception_5b/output
I0403 15:02:20.546885 11471 net.cpp:91] Creating Layer inception_5b/output
I0403 15:02:20.546914 11471 net.cpp:425] inception_5b/output <- inception_5b/1x1
I0403 15:02:20.546932 11471 net.cpp:425] inception_5b/output <- inception_5b/3x3
I0403 15:02:20.546948 11471 net.cpp:425] inception_5b/output <- inception_5b/5x5
I0403 15:02:20.546965 11471 net.cpp:425] inception_5b/output <- inception_5b/pool_proj
I0403 15:02:20.546984 11471 net.cpp:399] inception_5b/output -> inception_5b/output
I0403 15:02:20.547041 11471 net.cpp:141] Setting up inception_5b/output
I0403 15:02:20.547065 11471 net.cpp:148] Top shape: 24 1024 7 7 (1204224)
I0403 15:02:20.547080 11471 net.cpp:156] Memory required for data: 1345864224
I0403 15:02:20.547093 11471 layer_factory.hpp:77] Creating layer pool5/7x7_s1
I0403 15:02:20.547111 11471 net.cpp:91] Creating Layer pool5/7x7_s1
I0403 15:02:20.547130 11471 net.cpp:425] pool5/7x7_s1 <- inception_5b/output
I0403 15:02:20.547152 11471 net.cpp:399] pool5/7x7_s1 -> pool5/7x7_s1
I0403 15:02:20.547374 11471 net.cpp:141] Setting up pool5/7x7_s1
I0403 15:02:20.547399 11471 net.cpp:148] Top shape: 24 1024 1 1 (24576)
I0403 15:02:20.547412 11471 net.cpp:156] Memory required for data: 1345962528
I0403 15:02:20.547426 11471 layer_factory.hpp:77] Creating layer pool5/drop_7x7_s1
I0403 15:02:20.547446 11471 net.cpp:91] Creating Layer pool5/drop_7x7_s1
I0403 15:02:20.547463 11471 net.cpp:425] pool5/drop_7x7_s1 <- pool5/7x7_s1
I0403 15:02:20.547482 11471 net.cpp:386] pool5/drop_7x7_s1 -> pool5/7x7_s1 (in-place)
I0403 15:02:20.547533 11471 net.cpp:141] Setting up pool5/drop_7x7_s1
I0403 15:02:20.547556 11471 net.cpp:148] Top shape: 24 1024 1 1 (24576)
I0403 15:02:20.547570 11471 net.cpp:156] Memory required for data: 1346060832
I0403 15:02:20.547585 11471 layer_factory.hpp:77] Creating layer loss3/classifier_plantvillage
I0403 15:02:20.547605 11471 net.cpp:91] Creating Layer loss3/classifier_plantvillage
I0403 15:02:20.547621 11471 net.cpp:425] loss3/classifier_plantvillage <- pool5/7x7_s1
I0403 15:02:20.547641 11471 net.cpp:399] loss3/classifier_plantvillage -> loss3/classifier_plantvillage
I0403 15:02:20.548077 11471 net.cpp:141] Setting up loss3/classifier_plantvillage
I0403 15:02:20.548102 11471 net.cpp:148] Top shape: 24 38 (912)
I0403 15:02:20.548118 11471 net.cpp:156] Memory required for data: 1346064480
I0403 15:02:20.548142 11471 layer_factory.hpp:77] Creating layer loss3/classifier_plantvillage_loss3/classifier_plantvillage_0_split
I0403 15:02:20.548161 11471 net.cpp:91] Creating Layer loss3/classifier_plantvillage_loss3/classifier_plantvillage_0_split
I0403 15:02:20.548177 11471 net.cpp:425] loss3/classifier_plantvillage_loss3/classifier_plantvillage_0_split <- loss3/classifier_plantvillage
I0403 15:02:20.548197 11471 net.cpp:399] loss3/classifier_plantvillage_loss3/classifier_plantvillage_0_split -> loss3/classifier_plantvillage_loss3/classifier_plantvillage_0_split_0
I0403 15:02:20.548218 11471 net.cpp:399] loss3/classifier_plantvillage_loss3/classifier_plantvillage_0_split -> loss3/classifier_plantvillage_loss3/classifier_plantvillage_0_split_1
I0403 15:02:20.548238 11471 net.cpp:399] loss3/classifier_plantvillage_loss3/classifier_plantvillage_0_split -> loss3/classifier_plantvillage_loss3/classifier_plantvillage_0_split_2
I0403 15:02:20.548259 11471 net.cpp:399] loss3/classifier_plantvillage_loss3/classifier_plantvillage_0_split -> loss3/classifier_plantvillage_loss3/classifier_plantvillage_0_split_3
I0403 15:02:20.548362 11471 net.cpp:141] Setting up loss3/classifier_plantvillage_loss3/classifier_plantvillage_0_split
I0403 15:02:20.548384 11471 net.cpp:148] Top shape: 24 38 (912)
I0403 15:02:20.548400 11471 net.cpp:148] Top shape: 24 38 (912)
I0403 15:02:20.548415 11471 net.cpp:148] Top shape: 24 38 (912)
I0403 15:02:20.548430 11471 net.cpp:148] Top shape: 24 38 (912)
I0403 15:02:20.548444 11471 net.cpp:156] Memory required for data: 1346079072
I0403 15:02:20.548457 11471 layer_factory.hpp:77] Creating layer loss1/loss
I0403 15:02:20.548478 11471 net.cpp:91] Creating Layer loss1/loss
I0403 15:02:20.548496 11471 net.cpp:425] loss1/loss <- loss1/classifier_plantvillage_loss1/classifier_plantvillage_0_split_0
I0403 15:02:20.548530 11471 net.cpp:425] loss1/loss <- label_data_1_split_0
…
