…
I0403 15:17:44.313635 12434 net.cpp:313] The NetState phase (1) differed from the phase (0) specified by a rule in layer data
I0403 15:17:44.314833 12434 net.cpp:49] Initializing net from parameters: 
state {
  phase: TEST
}
layer {
  name: "data"
  type: "Data"
  top: "data"
  top: "label"
  include {
    phase: TEST
  }
  transform_param {
    mirror: false
    crop_size: 224
    mean_file: "/home/mohanty/data/final_dataset/lmdb/grayscale-60-40/mean.binaryproto"
  }
  data_param {
    source: "/home/mohanty/data/final_dataset/lmdb/grayscale-60-40/test_db"
    batch_size: 24
    backend: LMDB
  }
}
layer {
  name: "conv1/7x7_s2"
  type: "Convolution"
  bottom: "data"
  top: "conv1/7x7_s2"
  param {
    lr_mult: 1
    decay_mult: 1
  }
  param {
    lr_mult: 2
    decay_mult: 0
  }
  convolution_param {
    num_output: 64
    pad: 3
    kernel_size: 7
    stride: 2
    weight_filler {
      type: "xavier"
      std: 0.1
    }
    bias_filler {
      type: "constant"
      value: 0.2
    }
  }
}
layer {
  name: "conv1/relu_7x7"
  type: "ReLU"
  bottom: "conv1/7x7_s2"
  top: "conv1/7x7_s2"
}
layer {
  name: "pool1/3x3_s2"
  type: "Pooling"
  bottom: "conv1/7x7_s2"
  top: "pool1/3x3_s2"
  pooling_param {
    pool: MAX
    kernel_size: 3
    stride: 2
  }
}
layer {
  name: "pool1/norm1"
  type: "LRN"
  bottom: "pool1/3x3_s2"
  top: "pool1/norm1"
  lrn_param {
    local_size: 5
    alpha: 0.0001
    beta: 0.75
  }
}
layer {
  name: "conv2/3x3_reduce"
  type: "Convolution"
  bottom: "pool1/norm1"
  top: "conv2/3x3_reduce"
  param {
    lr_mult: 1
    decay_mult: 1
  }
  param {
    lr_mult: 2
    decay_mult: 0
  }
  convolution_param {
    num_output: 64
    kernel_size: 1
    weight_filler {
      type: "xavier"
      std: 0.1
    }
    bias_filler {
      type: "constant"
      value: 0.2
    }
  }
}
layer {
  name: "conv2/relu_3x3_reduce"
  type: "ReLU"
  bottom: "conv2/3x3_reduce"
  top: "conv2/3x3_reduce"
}
layer {
  name: "conv2/3x3"
  type: "Convolution"
  bottom: "conv2/3x3_reduce"
  top: "conv2/3x3"
  param {
    lr_mult: 1
    decay_mult: 1
  }
  param {
    lr_mult: 2
    decay_mult: 0
  }
  convolution_param {
    num_output: 192
    pad: 1
    kernel_size: 3
    weight_filler {
      type: "xavier"
      std: 0.03
    }
    bias_filler {
      type: "constant"
      value: 0.2
    }
  }
}
layer {
  name: "conv2/relu_3x3"
  type: "ReLU"
  bottom: "conv2/3x3"
  top: "conv2/3x3"
}
layer {
  name: "conv2/norm2"
  type: "LRN"
  bottom: "conv2/3x3"
  top: "conv2/norm2"
  lrn_param {
    local_size: 5
    alpha: 0.0001
    beta: 0.75
  }
}
layer {
  name: "pool2/3x3_s2"
  type: "Pooling"
  bottom: "conv2/norm2"
  top: "pool2/3x3_s2"
  pooling_param {
    pool: MAX
    kernel_size: 3
    stride: 2
  }
}
layer {
  name: "inception_3a/1x1"
  type: "Convolution"
  bottom: "pool2/3x3_s2"
  top: "inception_3a/1x1"
  param {
    lr_mult: 1
    decay_mult: 1
  }
  param {
    lr_mult: 2
    decay_mult: 0
  }
  convolution_param {
    num_output: 64
    kernel_size: 1
    weight_filler {
      type: "xavier"
      std: 0.03
    }
    bias_filler {
      type: "constant"
      value: 0.2
    }
  }
}
layer {
  name: "inception_3a/relu_1x1"
  type: "ReLU"
  bottom: "inception_3a/1x1"
  top: "inception_3a/1x1"
}
layer {
  name: "inception_3a/3x3_reduce"
  type: "Convolution"
  bottom: "pool2/3x3_s2"
  top: "inception_3a/3x3_reduce"
  param {
    lr_mult: 1
    decay_mult: 1
  }
  param {
    lr_mult: 2
    decay_mult: 0
  }
  convolution_param {
    num_output: 96
    kernel_size: 1
    weight_filler {
      type: "xavier"
      std: 0.09
    }
    bias_filler {
      type: "constant"
      value: 0.2
    }
  }
}
layer {
  name: "inception_3a/relu_3x3_reduce"
  type: "ReLU"
  bottom: "inception_3a/3x3_reduce"
  top: "inception_3a/3x3_reduce"
}
layer {
  name: "inception_3a/3x3"
  type: "Convolution"
  bottom: "inception_3a/3x3_reduce"
  top: "inception_3a/3x3"
  param {
    lr_mult: 1
    decay_mult: 1
  }
  param {
    lr_mult: 2
    decay_mult: 0
  }
  convolution_param {
    num_output: 128
    pad: 1
    kernel_size: 3
    weight_filler {
      type: "xavier"
      std: 0.03
    }
    bias_filler {
      type: "constant"
      value: 0.2
    }
  }
}
layer {
  name: "inception_3a/relu_3x3"
  type: "ReLU"
  bottom: "inception_3a/3x3"
  top: "inception_3a/3x3"
}
layer {
  name: "inception_3a/5x5_reduce"
  type: "Convolution"
  bottom: "pool2/3x3_s2"
  top: "inception_3a/5x5_reduce"
  param {
    lr_mult: 1
    decay_mult: 1
  }
  param {
    lr_mult: 2
    decay_mult: 0
  }
  convolution_param {
    num_output: 16
    kernel_size: 1
    weight_filler {
      type: "xavier"
      std: 0.2
    }
    bias_filler {
      type: "constant"
      value: 0.2
    }
  }
}
layer {
  name: "inception_3a/relu_5x5_reduce"
  type: "ReLU"
  bottom: "inception_3a/5x5_reduce"
  top: "inception_3a/5x5_reduce"
}
layer {
  name: "inception_3a/5x5"
  type: "Convolution"
  bottom: "inception_3a/5x5_reduce"
  top: "inception_3a/5x5"
  param {
    lr_mult: 1
    decay_mult: 1
  }
  param {
    lr_mult: 2
    decay_mult: 0
  }
  convolution_param {
    num_output: 32
    pad: 2
    kernel_size: 5
    weight_filler {
      type: "xavier"
      std: 0.03
    }
    bias_filler {
      type: "constant"
      value: 0.2
    }
  }
}
layer {
  name: "inception_3a/relu_5x5"
  type: "ReLU"
  bottom: "inception_3a/5x5"
  top: "inception_3a/5x5"
}
layer {
  name: "inception_3a/pool"
  type: "Pooling"
  bottom: "pool2/3x3_s2"
  top: "inception_3a/pool"
  pooling_param {
    pool: MAX
    kernel_size: 3
    stride: 1
    pad: 1
  }
}
layer {
  name: "inception_3a/pool_proj"
  type: "Convolution"
  bottom: "inception_3a/pool"
  top: "inception_3a/pool_proj"
  param {
    lr_mult: 1
    decay_mult: 1
  }
  param {
    lr_mult: 2
    decay_mult: 0
  }
  convolution_param {
    num_output: 32
    kernel_size: 1
    weight_filler {
      type: "xavier"
      std: 0.1
    }
    bias_filler {
      type: "constant"
      value: 0.2
    }
  }
}
layer {
  name: "inception_3a/relu_pool_proj"
  type: "ReLU"
  bottom: "inception_3a/pool_proj"
  top: "inception_3a/pool_proj"
}
layer {
  name: "inception_3a/output"
  type: "Concat"
  bottom: "inception_3a/1x1"
  bottom: "inception_3a/3x3"
  bottom: "inception_3a/5x5"
  bottom: "inception_3a/pool_proj"
  top: "inception_3a/output"
}
layer {
  name: "inception_3b/1x1"
  type: "Convolution"
  bottom: "inception_3a/output"
  top: "inception_3b/1x1"
  param {
    lr_mult: 1
    decay_mult: 1
  }
  param {
    lr_mult: 2
    decay_mult: 0
  }
  convolution_param {
    num_output: 128
    kernel_size: 1
    weight_filler {
      type: "xavier"
      std: 0.03
    }
    bias_filler {
      type: "constant"
      value: 0.2
    }
  }
}
layer {
  name: "inception_3b/relu_1x1"
  type: "ReLU"
  bottom: "inception_3b/1x1"
  top: "inception_3b/1x1"
}
layer {
  name: "inception_3b/3x3_reduce"
  type: "Convolution"
  bottom: "inception_3a/output"
  top: "inception_3b/3x3_reduce"
  param {
    lr_mult: 1
    decay_mult: 1
  }
  param {
    lr_mult: 2
    decay_mult: 0
  }
  convolution_param {
    num_output: 128
    kernel_size: 1
    weight_filler {
      type: "xavier"
      std: 0.09
    }
    bias_filler {
      type: "constant"
      value: 0.2
    }
  }
}
layer {
  name: "inception_3b/relu_3x3_reduce"
  type: "ReLU"
  bottom: "inception_3b/3x3_reduce"
  top: "inception_3b/3x3_reduce"
}
layer {
  name: "inception_3b/3x3"
  type: "Convolution"
  bottom: "inception_3b/3x3_reduce"
  top: "inception_3b/3x3"
  param {
    lr_mult: 1
    decay_mult: 1
  }
  param {
    lr_mult: 2
    decay_mult: 0
  }
  convolution_param {
    num_output: 192
    pad: 1
    kernel_size: 3
    weight_filler {
      type: "xavier"
      std: 0.03
    }
    bias_filler {
      type: "constant"
      value: 0.2
    }
  }
}
layer {
  name: "inception_3b/relu_3x3"
  type: "ReLU"
  bottom: "inception_3b/3x3"
  top: "inception_3b/3x3"
}
layer {
  name: "inception_3b/5x5_reduce"
  type: "Convolution"
  bottom: "inception_3a/output"
  top: "inception_3b/5x5_reduce"
  param {
    lr_mult: 1
    decay_mult: 1
  }
  param {
    lr_mult: 2
    decay_mult: 0
  }
  convolution_param {
    num_output: 32
    kernel_size: 1
    weight_filler {
      type: "xavier"
      std: 0.2
    }
    bias_filler {
      type: "constant"
      value: 0.2
    }
  }
}
layer {
  name: "inception_3b/relu_5x5_reduce"
  type: "ReLU"
  bottom: "inception_3b/5x5_reduce"
  top: "inception_3b/5x5_reduce"
}
layer {
  name: "inception_3b/5x5"
  type: "Convolution"
  bottom: "inception_3b/5x5_reduce"
  top: "inception_3b/5x5"
  param {
    lr_mult: 1
    decay_mult: 1
  }
  param {
    lr_mult: 2
    decay_mult: 0
  }
  convolution_param {
    num_output: 96
    pad: 2
    kernel_size: 5
    weight_filler {
      type: "xavier"
      std: 0.03
    }
    bias_filler {
      type: "constant"
      value: 0.2
    }
  }
}
layer {
  name: "inception_3b/relu_5x5"
  type: "ReLU"
  bottom: "inception_3b/5x5"
  top: "inception_3b/5x5"
}
layer {
  name: "inception_3b/pool"
  type: "Pooling"
  bottom: "inception_3a/output"
  top: "inception_3b/pool"
  pooling_param {
    pool: MAX
    kernel_size: 3
    stride: 1
    pad: 1
  }
}
layer {
  name: "inception_3b/pool_proj"
  type: "Convolution"
  bottom: "inception_3b/pool"
  top: "inception_3b/pool_proj"
  param {
    lr_mult: 1
    decay_mult: 1
  }
  param {
    lr_mult: 2
    decay_mult: 0
  }
  convolution_param {
    num_output: 64
    kernel_size: 1
    weight_filler {
      type: "xavier"
      std: 0.1
    }
    bias_filler {
      type: "constant"
      value: 0.2
    }
  }
}
layer {
  name: "inception_3b/relu_pool_proj"
  type: "ReLU"
  bottom: "inception_3b/pool_proj"
  top: "inception_3b/pool_proj"
}
layer {
  name: "inception_3b/output"
  type: "Concat"
  bottom: "inception_3b/1x1"
  bottom: "inception_3b/3x3"
  bottom: "inception_3b/5x5"
  bottom: "inception_3b/pool_proj"
  top: "inception_3b/output"
}
layer {
  name: "pool3/3x3_s2"
  type: "Pooling"
  bottom: "inception_3b/output"
  top: "pool3/3x3_s2"
  pooling_param {
    pool: MAX
    kernel_size: 3
    stride: 2
  }
}
layer {
  name: "inception_4a/1x1"
  type: "Convolution"
  bottom: "pool3/3x3_s2"
  top: "inception_4a/1x1"
  param {
    lr_mult: 1
    decay_mult: 1
  }
  param {
    lr_mult: 2
    decay_mult: 0
  }
  convolution_param {
    num_output: 192
    kernel_size: 1
    weight_filler {
      type: "xavier"
      std: 0.03
    }
    bias_filler {
      type: "constant"
      value: 0.2
    }
  }
}
layer {
  name: "inception_4a/relu_1x1"
  type: "ReLU"
  bottom: "inception_4a/1x1"
  top: "inception_4a/1x1"
}
layer {
  name: "inception_4a/3x3_reduce"
  type: "Convolution"
  bottom: "pool3/3x3_s2"
  top: "inception_4a/3x3_reduce"
  param {
    lr_mult: 1
    decay_mult: 1
  }
  param {
    lr_mult: 2
    decay_mult: 0
  }
  convolution_param {
    num_output: 96
    kernel_size: 1
    weight_filler {
      type: "xavier"
      std: 0.09
    }
    bias_filler {
      type: "constant"
      value: 0.2
    }
  }
}
layer {
  name: "inception_4a/relu_3x3_reduce"
  type: "ReLU"
  bottom: "inception_4a/3x3_reduce"
  top: "inception_4a/3x3_reduce"
}
layer {
  name: "inception_4a/3x3"
  type: "Convolution"
  bottom: "inception_4a/3x3_reduce"
  top: "inception_4a/3x3"
  param {
    lr_mult: 1
    decay_mult: 1
  }
  param {
    lr_mult: 2
    decay_mult: 0
  }
  convolution_param {
    num_output: 208
    pad: 1
    kernel_size: 3
    weight_filler {
      type: "xavier"
      std: 0.03
    }
    bias_filler {
      type: "constant"
      value: 0.2
    }
  }
}
layer {
  name: "inception_4a/relu_3x3"
  type: "ReLU"
  bottom: "inception_4a/3x3"
  top: "inception_4a/3x3"
}
layer {
  name: "inception_4a/5x5_reduce"
  type: "Convolution"
  bottom: "pool3/3x3_s2"
  top: "inception_4a/5x5_reduce"
  param {
    lr_mult: 1
    decay_mult: 1
  }
  param {
    lr_mult: 2
    decay_mult: 0
  }
  convolution_param {
    num_output: 16
    kernel_size: 1
    weight_filler {
      type: "xavier"
      std: 0.2
    }
    bias_filler {
      type: "constant"
      value: 0.2
    }
  }
}
layer {
  name: "inception_4a/relu_5x5_reduce"
  type: "ReLU"
  bottom: "inception_4a/5x5_reduce"
  top: "inception_4a/5x5_reduce"
}
layer {
  name: "inception_4a/5x5"
  type: "Convolution"
  bottom: "inception_4a/5x5_reduce"
  top: "inception_4a/5x5"
  param {
    lr_mult: 1
    decay_mult: 1
  }
  param {
    lr_mult: 2
    decay_mult: 0
  }
  convolution_param {
    num_output: 48
    pad: 2
    kernel_size: 5
    weight_filler {
      type: "xavier"
      std: 0.03
    }
    bias_filler {
      type: "constant"
      value: 0.2
    }
  }
}
layer {
  name: "inception_4a/relu_5x5"
  type: "ReLU"
  bottom: "inception_4a/5x5"
  top: "inception_4a/5x5"
}
layer {
  name: "inception_4a/pool"
  type: "Pooling"
  bottom: "pool3/3x3_s2"
  top: "inception_4a/pool"
  pooling_param {
    pool: MAX
    kernel_size: 3
    stride: 1
    pad: 1
  }
}
layer {
  name: "inception_4a/pool_proj"
  type: "Convolution"
  bottom: "inception_4a/pool"
  top: "inception_4a/pool_proj"
  param {
    lr_mult: 1
    decay_mult: 1
  }
  param {
    lr_mult: 2
    decay_mult: 0
  }
  convolution_param {
    num_output: 64
    kernel_size: 1
    weight_filler {
      type: "xavier"
      std: 0.1
    }
    bias_filler {
      type: "constant"
      value: 0.2
    }
  }
}
layer {
  name: "inception_4a/relu_pool_proj"
  type: "ReLU"
  bottom: "inception_4a/pool_proj"
  top: "inception_4a/pool_proj"
}
layer {
  name: "inception_4a/output"
  type: "Concat"
  bottom: "inception_4a/1x1"
  bottom: "inception_4a/3x3"
  bottom: "inception_4a/5x5"
  bottom: "inception_4a/pool_proj"
  top: "inception_4a/output"
}
layer {
  name: "loss1/ave_pool"
  type: "Pooling"
  bottom: "inception_4a/output"
  top: "loss1/ave_pool"
  pooling_param {
    pool: AVE
    kernel_size: 5
    stride: 3
  }
}
layer {
  name: "loss1/conv"
  type: "Convolution"
  bottom: "loss1/ave_pool"
  top: "loss1/conv"
  param {
    lr_mult: 1
    decay_mult: 1
  }
  param {
    lr_mult: 2
    decay_mult: 0
  }
  convolution_param {
    num_output: 128
    kernel_size: 1
    weight_filler {
      type: "xavier"
      std: 0.08
    }
    bias_filler {
      type: "constant"
      value: 0.2
    }
  }
}
layer {
  name: "loss1/relu_conv"
  type: "ReLU"
  bottom: "loss1/conv"
  top: "loss1/conv"
}
layer {
  name: "loss1/fc"
  type: "InnerProduct"
  bottom: "loss1/conv"
  top: "loss1/fc"
  param {
    lr_mult: 1
    decay_mult: 1
  }
  param {
    lr_mult: 2
    decay_mult: 0
  }
  inner_product_param {
    num_output: 1024
    weight_filler {
      type: "xavier"
      std: 0.02
    }
    bias_filler {
      type: "constant"
      value: 0.2
    }
  }
}
layer {
  name: "loss1/relu_fc"
  type: "ReLU"
  bottom: "loss1/fc"
  top: "loss1/fc"
}
layer {
  name: "loss1/drop_fc"
  type: "Dropout"
  bottom: "loss1/fc"
  top: "loss1/fc"
  dropout_param {
    dropout_ratio: 0.7
  }
}
layer {
  name: "loss1/classifier_plantvillage"
  type: "InnerProduct"
  bottom: "loss1/fc"
  top: "loss1/classifier_plantvillage"
  param {
    lr_mult: 1
    decay_mult: 1
  }
  param {
    lr_mult: 2
    decay_mult: 0
  }
  inner_product_param {
    num_output: 38
    weight_filler {
      type: "xavier"
      std: 0.0009765625
    }
    bias_filler {
      type: "constant"
      value: 0
    }
  }
}
layer {
  name: "inception_4b/1x1"
  type: "Convolution"
  bottom: "inception_4a/output"
  top: "inception_4b/1x1"
  param {
    lr_mult: 1
    decay_mult: 1
  }
  param {
    lr_mult: 2
    decay_mult: 0
  }
  convolution_param {
    num_output: 160
    kernel_size: 1
    weight_filler {
      type: "xavier"
      std: 0.03
    }
    bias_filler {
      type: "constant"
      value: 0.2
    }
  }
}
layer {
  name: "inception_4b/relu_1x1"
  type: "ReLU"
  bottom: "inception_4b/1x1"
  top: "inception_4b/1x1"
}
layer {
  name: "inception_4b/3x3_reduce"
  type: "Convolution"
  bottom: "inception_4a/output"
  top: "inception_4b/3x3_reduce"
  param {
    lr_mult: 1
    decay_mult: 1
  }
  param {
    lr_mult: 2
    decay_mult: 0
  }
  convolution_param {
    num_output: 112
    kernel_size: 1
    weight_filler {
      type: "xavier"
      std: 0.09
    }
    bias_filler {
      type: "constant"
      value: 0.2
    }
  }
}
layer {
  name: "inception_4b/relu_3x3_reduce"
  type: "ReLU"
  bottom: "inception_4b/3x3_reduce"
  top: "inception_4b/3x3_reduce"
}
layer {
  name: "inception_4b/3x3"
  type: "Convolution"
  bottom: "inception_4b/3x3_reduce"
  top: "inception_4b/3x3"
  param {
    lr_mult: 1
    decay_mult: 1
  }
  param {
    lr_mult: 2
    decay_mult: 0
  }
  convolution_param {
    num_output: 224
    pad: 1
    kernel_size: 3
    weight_filler {
      type: "xavier"
      std: 0.03
    }
    bias_filler {
      type: "constant"
      value: 0.2
    }
  }
}
layer {
  name: "inception_4b/relu_3x3"
  type: "ReLU"
  bottom: "inception_4b/3x3"
  top: "inception_4b/3x3"
}
layer {
  name: "inception_4b/5x5_reduce"
  type: "Convolution"
  bottom: "inception_4a/output"
  top: "inception_4b/5x5_reduce"
  param {
    lr_mult: 1
    decay_mult: 1
  }
  param {
    lr_mult: 2
    decay_mult: 0
  }
  convolution_param {
    num_output: 24
    kernel_size: 1
    weight_filler {
      type: "xavier"
      std: 0.2
    }
    bias_filler {
      type: "constant"
      value: 0.2
    }
  }
}
layer {
  name: "inception_4b/relu_5x5_reduce"
  type: "ReLU"
  bottom: "inception_4b/5x5_reduce"
  top: "inception_4b/5x5_reduce"
}
layer {
  name: "inception_4b/5x5"
  type: "Convolution"
  bottom: "inception_4b/5x5_reduce"
  top: "inception_4b/5x5"
  param {
    lr_mult: 1
    decay_mult: 1
  }
  param {
    lr_mult: 2
    decay_mult: 0
  }
  convolution_param {
    num_output: 64
    pad: 2
    kernel_size: 5
    weight_filler {
      type: "xavier"
      std: 0.03
    }
    bias_filler {
      type: "constant"
      value: 0.2
    }
  }
}
layer {
  name: "inception_4b/relu_5x5"
  type: "ReLU"
  bottom: "inception_4b/5x5"
  top: "inception_4b/5x5"
}
layer {
  name: "inception_4b/pool"
  type: "Pooling"
  bottom: "inception_4a/output"
  top: "inception_4b/pool"
  pooling_param {
    pool: MAX
    kernel_size: 3
    stride: 1
    pad: 1
  }
}
layer {
  name: "inception_4b/pool_proj"
  type: "Convolution"
  bottom: "inception_4b/pool"
  top: "inception_4b/pool_proj"
  param {
    lr_mult: 1
    decay_mult: 1
  }
  param {
    lr_mult: 2
    decay_mult: 0
  }
  convolution_param {
    num_output: 64
    kernel_size: 1
    weight_filler {
      type: "xavier"
      std: 0.1
    }
    bias_filler {
      type: "constant"
      value: 0.2
    }
  }
}
layer {
  name: "inception_4b/relu_pool_proj"
  type: "ReLU"
  bottom: "inception_4b/pool_proj"
  top: "inception_4b/pool_proj"
}
layer {
  name: "inception_4b/output"
  type: "Concat"
  bottom: "inception_4b/1x1"
  bottom: "inception_4b/3x3"
  bottom: "inception_4b/5x5"
  bottom: "inception_4b/pool_proj"
  top: "inception_4b/output"
}
layer {
  name: "inception_4c/1x1"
  type: "Convolution"
  bottom: "inception_4b/output"
  top: "inception_4c/1x1"
  param {
    lr_mult: 1
    decay_mult: 1
  }
  param {
    lr_mult: 2
    decay_mult: 0
  }
  convolution_param {
    num_output: 128
    kernel_size: 1
    weight_filler {
      type: "xavier"
      std: 0.03
    }
    bias_filler {
      type: "constant"
      value: 0.2
    }
  }
}
layer {
  name: "inception_4c/relu_1x1"
  type: "ReLU"
  bottom: "inception_4c/1x1"
  top: "inception_4c/1x1"
}
layer {
  name: "inception_4c/3x3_reduce"
  type: "Convolution"
  bottom: "inception_4b/output"
  top: "inception_4c/3x3_reduce"
  param {
    lr_mult: 1
    decay_mult: 1
  }
  param {
    lr_mult: 2
    decay_mult: 0
  }
  convolution_param {
    num_output: 128
    kernel_size: 1
    weight_filler {
      type: "xavier"
      std: 0.09
    }
    bias_filler {
      type: "constant"
      value: 0.2
    }
  }
}
layer {
  name: "inception_4c/relu_3x3_reduce"
  type: "ReLU"
  bottom: "inception_4c/3x3_reduce"
  top: "inception_4c/3x3_reduce"
}
layer {
  name: "inception_4c/3x3"
  type: "Convolution"
  bottom: "inception_4c/3x3_reduce"
  top: "inception_4c/3x3"
  param {
    lr_mult: 1
    decay_mult: 1
  }
  param {
    lr_mult: 2
    decay_mult: 0
  }
  convolution_param {
    num_output: 256
    pad: 1
    kernel_size: 3
    weight_filler {
      type: "xavier"
      std: 0.03
    }
    bias_filler {
      type: "constant"
      value: 0.2
    }
  }
}
layer {
  name: "inception_4c/relu_3x3"
  type: "ReLU"
  bottom: "inception_4c/3x3"
  top: "inception_4c/3x3"
}
layer {
  name: "inception_4c/5x5_reduce"
  type: "Convolution"
  bottom: "inception_4b/output"
  top: "inception_4c/5x5_reduce"
  param {
    lr_mult: 1
    decay_mult: 1
  }
  param {
    lr_mult: 2
    decay_mult: 0
  }
  convolution_param {
    num_output: 24
    kernel_size: 1
    weight_filler {
      type: "xavier"
      std: 0.2
    }
    bias_filler {
      type: "constant"
      value: 0.2
    }
  }
}
layer {
  name: "inception_4c/relu_5x5_reduce"
  type: "ReLU"
  bottom: "inception_4c/5x5_reduce"
  top: "inception_4c/5x5_reduce"
}
layer {
  name: "inception_4c/5x5"
  type: "Convolution"
  bottom: "inception_4c/5x5_reduce"
  top: "inception_4c/5x5"
  param {
    lr_mult: 1
    decay_mult: 1
  }
  param {
    lr_mult: 2
    decay_mult: 0
  }
  convolution_param {
    num_output: 64
    pad: 2
    kernel_size: 5
    weight_filler {
      type: "xavier"
      std: 0.03
    }
    bias_filler {
      type: "constant"
      value: 0.2
    }
  }
}
layer {
  name: "inception_4c/relu_5x5"
  type: "ReLU"
  bottom: "inception_4c/5x5"
  top: "inception_4c/5x5"
}
layer {
  name: "inception_4c/pool"
  type: "Pooling"
  bottom: "inception_4b/output"
  top: "inception_4c/pool"
  pooling_param {
    pool: MAX
    kernel_size: 3
    stride: 1
    pad: 1
  }
}
layer {
  name: "inception_4c/pool_proj"
  type: "Convolution"
  bottom: "inception_4c/pool"
  top: "inception_4c/pool_proj"
  param {
    lr_mult: 1
    decay_mult: 1
  }
  param {
    lr_mult: 2
    decay_mult: 0
  }
  convolution_param {
    num_output: 64
    kernel_size: 1
    weight_filler {
      type: "xavier"
      std: 0.1
    }
    bias_filler {
      type: "constant"
      value: 0.2
    }
  }
}
layer {
  name: "inception_4c/relu_pool_proj"
  type: "ReLU"
  bottom: "inception_4c/pool_proj"
  top: "inception_4c/pool_proj"
}
layer {
  name: "inception_4c/output"
  type: "Concat"
  bottom: "inception_4c/1x1"
  bottom: "inception_4c/3x3"
  bottom: "inception_4c/5x5"
  bottom: "inception_4c/pool_proj"
  top: "inception_4c/output"
}
layer {
  name: "inception_4d/1x1"
  type: "Convolution"
  bottom: "inception_4c/output"
  top: "inception_4d/1x1"
  param {
    lr_mult: 1
    decay_mult: 1
  }
  param {
    lr_mult: 2
    decay_mult: 0
  }
  convolution_param {
    num_output: 112
    kernel_size: 1
    weight_filler {
      type: "xavier"
      std: 0.03
    }
    bias_filler {
      type: "constant"
      value: 0.2
    }
  }
}
layer {
  name: "inception_4d/relu_1x1"
  type: "ReLU"
  bottom: "inception_4d/1x1"
  top: "inception_4d/1x1"
}
layer {
  name: "inception_4d/3x3_reduce"
  type: "Convolution"
  bottom: "inception_4c/output"
  top: "inception_4d/3x3_reduce"
  param {
    lr_mult: 1
    decay_mult: 1
  }
  param {
    lr_mult: 2
    decay_mult: 0
  }
  convolution_param {
    num_output: 144
    kernel_size: 1
    weight_filler {
      type: "xavier"
      std: 0.09
    }
    bias_filler {
      type: "constant"
      value: 0.2
    }
  }
}
layer {
  name: "inception_4d/relu_3x3_reduce"
  type: "ReLU"
  bottom: "inception_4d/3x3_reduce"
  top: "inception_4d/3x3_reduce"
}
layer {
  name: "inception_4d/3x3"
  type: "Convolution"
  bottom: "inception_4d/3x3_reduce"
  top: "inception_4d/3x3"
  param {
    lr_mult: 1
    decay_mult: 1
  }
  param {
    lr_mult: 2
    decay_mult: 0
  }
  convolution_param {
    num_output: 288
    pad: 1
    kernel_size: 3
    weight_filler {
      type: "xavier"
      std: 0.03
    }
    bias_filler {
      type: "constant"
      value: 0.2
    }
  }
}
layer {
  name: "inception_4d/relu_3x3"
  type: "ReLU"
  bottom: "inception_4d/3x3"
  top: "inception_4d/3x3"
}
layer {
  name: "inception_4d/5x5_reduce"
  type: "Convolution"
  bottom: "inception_4c/output"
  top: "inception_4d/5x5_reduce"
  param {
    lr_mult: 1
    decay_mult: 1
  }
  param {
    lr_mult: 2
    decay_mult: 0
  }
  convolution_param {
    num_output: 32
    kernel_size: 1
    weight_filler {
      type: "xavier"
      std: 0.2
    }
    bias_filler {
      type: "constant"
      value: 0.2
    }
  }
}
layer {
  name: "inception_4d/relu_5x5_reduce"
  type: "ReLU"
  bottom: "inception_4d/5x5_reduce"
  top: "inception_4d/5x5_reduce"
}
layer {
  name: "inception_4d/5x5"
  type: "Convolution"
  bottom: "inception_4d/5x5_reduce"
  top: "inception_4d/5x5"
  param {
    lr_mult: 1
    decay_mult: 1
  }
  param {
    lr_mult: 2
    decay_mult: 0
  }
  convolution_param {
    num_output: 64
    pad: 2
    kernel_size: 5
    weight_filler {
      type: "xavier"
      std: 0.03
    }
    bias_filler {
      type: "constant"
      value: 0.2
    }
  }
}
layer {
  name: "inception_4d/relu_5x5"
  type: "ReLU"
  bottom: "inception_4d/5x5"
  top: "inception_4d/5x5"
}
layer {
  name: "inception_4d/pool"
  type: "Pooling"
  bottom: "inception_4c/output"
  top: "inception_4d/pool"
  pooling_param {
    pool: MAX
    kernel_size: 3
    stride: 1
    pad: 1
  }
}
layer {
  name: "inception_4d/pool_proj"
  type: "Convolution"
  bottom: "inception_4d/pool"
  top: "inception_4d/pool_proj"
  param {
    lr_mult: 1
    decay_mult: 1
  }
  param {
    lr_mult: 2
    decay_mult: 0
  }
  convolution_param {
    num_output: 64
    kernel_size: 1
    weight_filler {
      type: "xavier"
      std: 0.1
    }
    bias_filler {
      type: "constant"
      value: 0.2
    }
  }
}
layer {
  name: "inception_4d/relu_pool_proj"
  type: "ReLU"
  bottom: "inception_4d/pool_proj"
  top: "inception_4d/pool_proj"
}
layer {
  name: "inception_4d/output"
  type: "Concat"
  bottom: "inception_4d/1x1"
  bottom: "inception_4d/3x3"
  bottom: "inception_4d/5x5"
  bottom: "inception_4d/pool_proj"
  top: "inception_4d/output"
}
layer {
  name: "loss2/ave_pool"
  type: "Pooling"
  bottom: "inception_4d/output"
  top: "loss2/ave_pool"
  pooling_param {
    pool: AVE
    kernel_size: 5
    stride: 3
  }
}
layer {
  name: "loss2/conv"
  type: "Convolution"
  bottom: "loss2/ave_pool"
  top: "loss2/conv"
  param {
    lr_mult: 1
    decay_mult: 1
  }
  param {
    lr_mult: 2
    decay_mult: 0
  }
  convolution_param {
    num_output: 128
    kernel_size: 1
    weight_filler {
      type: "xavier"
      std: 0.08
    }
    bias_filler {
      type: "constant"
      value: 0.2
    }
  }
}
layer {
  name: "loss2/relu_conv"
  type: "ReLU"
  bottom: "loss2/conv"
  top: "loss2/conv"
}
layer {
  name: "loss2/fc"
  type: "InnerProduct"
  bottom: "loss2/conv"
  top: "loss2/fc"
  param {
    lr_mult: 1
    decay_mult: 1
  }
  param {
    lr_mult: 2
    decay_mult: 0
  }
  inner_product_param {
    num_output: 1024
    weight_filler {
      type: "xavier"
      std: 0.02
    }
    bias_filler {
      type: "constant"
      value: 0.2
    }
  }
}
layer {
  name: "loss2/relu_fc"
  type: "ReLU"
  bottom: "loss2/fc"
  top: "loss2/fc"
}
layer {
  name: "loss2/drop_fc"
  type: "Dropout"
  bottom: "loss2/fc"
  top: "loss2/fc"
  dropout_param {
    dropout_ratio: 0.7
  }
}
layer {
  name: "loss2/classifier_plantvillage"
  type: "InnerProduct"
  bottom: "loss2/fc"
  top: "loss2/classifier_plantvillage"
  param {
    lr_mult: 1
    decay_mult: 1
  }
  param {
    lr_mult: 2
    decay_mult: 0
  }
  inner_product_param {
    num_output: 38
    weight_filler {
      type: "xavier"
      std: 0.0009765625
    }
    bias_filler {
      type: "constant"
      value: 0
    }
  }
}
layer {
  name: "inception_4e/1x1"
  type: "Convolution"
  bottom: "inception_4d/output"
  top: "inception_4e/1x1"
  param {
    lr_mult: 1
    decay_mult: 1
  }
  param {
    lr_mult: 2
    decay_mult: 0
  }
  convolution_param {
    num_output: 256
    kernel_size: 1
    weight_filler {
      type: "xavier"
      std: 0.03
    }
    bias_filler {
      type: "constant"
      value: 0.2
    }
  }
}
layer {
  name: "inception_4e/relu_1x1"
  type: "ReLU"
  bottom: "inception_4e/1x1"
  top: "inception_4e/1x1"
}
layer {
  name: "inception_4e/3x3_reduce"
  type: "Convolution"
  bottom: "inception_4d/output"
  top: "inception_4e/3x3_reduce"
  param {
    lr_mult: 1
    decay_mult: 1
  }
  param {
    lr_mult: 2
    decay_mult: 0
  }
  convolution_param {
    num_output: 160
    kernel_size: 1
    weight_filler {
      type: "xavier"
      std: 0.09
    }
    bias_filler {
      type: "constant"
      value: 0.2
    }
  }
}
layer {
  name: "inception_4e/relu_3x3_reduce"
  type: "ReLU"
  bottom: "inception_4e/3x3_reduce"
  top: "inception_4e/3x3_reduce"
}
layer {
  name: "inception_4e/3x3"
  type: "Convolution"
  bottom: "inception_4e/3x3_reduce"
  top: "inception_4e/3x3"
  param {
    lr_mult: 1
    decay_mult: 1
  }
  param {
    lr_mult: 2
    decay_mult: 0
  }
  convolution_param {
    num_output: 320
    pad: 1
    kernel_size: 3
    weight_filler {
      type: "xavier"
      std: 0.03
    }
    bias_filler {
      type: "constant"
      value: 0.2
    }
  }
}
layer {
  name: "inception_4e/relu_3x3"
  type: "ReLU"
  bottom: "inception_4e/3x3"
  top: "inception_4e/3x3"
}
layer {
  name: "inception_4e/5x5_reduce"
  type: "Convolution"
  bottom: "inception_4d/output"
  top: "inception_4e/5x5_reduce"
  param {
    lr_mult: 1
    decay_mult: 1
  }
  param {
    lr_mult: 2
    decay_mult: 0
  }
  convolution_param {
    num_output: 32
    kernel_size: 1
    weight_filler {
      type: "xavier"
      std: 0.2
    }
    bias_filler {
      type: "constant"
      value: 0.2
    }
  }
}
layer {
  name: "inception_4e/relu_5x5_reduce"
  type: "ReLU"
  bottom: "inception_4e/5x5_reduce"
  top: "inception_4e/5x5_reduce"
}
layer {
  name: "inception_4e/5x5"
  type: "Convolution"
  bottom: "inception_4e/5x5_reduce"
  top: "inception_4e/
I0403 15:17:44.316036 12434 layer_factory.hpp:77] Creating layer data
I0403 15:17:44.316655 12434 net.cpp:91] Creating Layer data
I0403 15:17:44.316687 12434 net.cpp:399] data -> data
I0403 15:17:44.316742 12434 net.cpp:399] data -> label
I0403 15:17:44.316781 12434 data_transformer.cpp:25] Loading mean file from: /home/mohanty/data/final_dataset/lmdb/grayscale-60-40/mean.binaryproto
I0403 15:17:44.319967 12436 db_lmdb.cpp:38] Opened lmdb /home/mohanty/data/final_dataset/lmdb/grayscale-60-40/test_db
I0403 15:17:44.330516 12434 data_layer.cpp:41] output data size: 24,3,224,224
I0403 15:17:44.359669 12434 net.cpp:141] Setting up data
I0403 15:17:44.359763 12434 net.cpp:148] Top shape: 24 3 224 224 (3612672)
I0403 15:17:44.359791 12434 net.cpp:148] Top shape: 24 (24)
I0403 15:17:44.359807 12434 net.cpp:156] Memory required for data: 14450784
I0403 15:17:44.359834 12434 layer_factory.hpp:77] Creating layer label_data_1_split
I0403 15:17:44.359861 12434 net.cpp:91] Creating Layer label_data_1_split
I0403 15:17:44.359879 12434 net.cpp:425] label_data_1_split <- label
I0403 15:17:44.359911 12434 net.cpp:399] label_data_1_split -> label_data_1_split_0
I0403 15:17:44.359941 12434 net.cpp:399] label_data_1_split -> label_data_1_split_1
I0403 15:17:44.359963 12434 net.cpp:399] label_data_1_split -> label_data_1_split_2
I0403 15:17:44.359985 12434 net.cpp:399] label_data_1_split -> label_data_1_split_3
I0403 15:17:44.360005 12434 net.cpp:399] label_data_1_split -> label_data_1_split_4
I0403 15:17:44.360024 12434 net.cpp:399] label_data_1_split -> label_data_1_split_5
I0403 15:17:44.360045 12434 net.cpp:399] label_data_1_split -> label_data_1_split_6
I0403 15:17:44.360065 12434 net.cpp:399] label_data_1_split -> label_data_1_split_7
I0403 15:17:44.360086 12434 net.cpp:399] label_data_1_split -> label_data_1_split_8
I0403 15:17:44.360107 12434 net.cpp:399] label_data_1_split -> label_data_1_split_9
I0403 15:17:44.360236 12434 net.cpp:141] Setting up label_data_1_split
I0403 15:17:44.360261 12434 net.cpp:148] Top shape: 24 (24)
I0403 15:17:44.360280 12434 net.cpp:148] Top shape: 24 (24)
I0403 15:17:44.360296 12434 net.cpp:148] Top shape: 24 (24)
I0403 15:17:44.360313 12434 net.cpp:148] Top shape: 24 (24)
I0403 15:17:44.360330 12434 net.cpp:148] Top shape: 24 (24)
I0403 15:17:44.360347 12434 net.cpp:148] Top shape: 24 (24)
I0403 15:17:44.360363 12434 net.cpp:148] Top shape: 24 (24)
I0403 15:17:44.360379 12434 net.cpp:148] Top shape: 24 (24)
I0403 15:17:44.360396 12434 net.cpp:148] Top shape: 24 (24)
I0403 15:17:44.360414 12434 net.cpp:148] Top shape: 24 (24)
I0403 15:17:44.360460 12434 net.cpp:156] Memory required for data: 14451744
I0403 15:17:44.360476 12434 layer_factory.hpp:77] Creating layer conv1/7x7_s2
I0403 15:17:44.360508 12434 net.cpp:91] Creating Layer conv1/7x7_s2
I0403 15:17:44.360528 12434 net.cpp:425] conv1/7x7_s2 <- data
I0403 15:17:44.360548 12434 net.cpp:399] conv1/7x7_s2 -> conv1/7x7_s2
I0403 15:17:44.500733 12434 net.cpp:141] Setting up conv1/7x7_s2
I0403 15:17:44.500803 12434 net.cpp:148] Top shape: 24 64 112 112 (19267584)
I0403 15:17:44.500821 12434 net.cpp:156] Memory required for data: 91522080
I0403 15:17:44.500852 12434 layer_factory.hpp:77] Creating layer conv1/relu_7x7
I0403 15:17:44.500880 12434 net.cpp:91] Creating Layer conv1/relu_7x7
I0403 15:17:44.500900 12434 net.cpp:425] conv1/relu_7x7 <- conv1/7x7_s2
I0403 15:17:44.500919 12434 net.cpp:386] conv1/relu_7x7 -> conv1/7x7_s2 (in-place)
I0403 15:17:44.501179 12434 net.cpp:141] Setting up conv1/relu_7x7
I0403 15:17:44.501209 12434 net.cpp:148] Top shape: 24 64 112 112 (19267584)
I0403 15:17:44.501225 12434 net.cpp:156] Memory required for data: 168592416
I0403 15:17:44.501240 12434 layer_factory.hpp:77] Creating layer pool1/3x3_s2
I0403 15:17:44.501266 12434 net.cpp:91] Creating Layer pool1/3x3_s2
I0403 15:17:44.501283 12434 net.cpp:425] pool1/3x3_s2 <- conv1/7x7_s2
I0403 15:17:44.501302 12434 net.cpp:399] pool1/3x3_s2 -> pool1/3x3_s2
I0403 15:17:44.501375 12434 net.cpp:141] Setting up pool1/3x3_s2
I0403 15:17:44.501400 12434 net.cpp:148] Top shape: 24 64 56 56 (4816896)
I0403 15:17:44.501415 12434 net.cpp:156] Memory required for data: 187860000
I0403 15:17:44.501430 12434 layer_factory.hpp:77] Creating layer pool1/norm1
I0403 15:17:44.501453 12434 net.cpp:91] Creating Layer pool1/norm1
I0403 15:17:44.501471 12434 net.cpp:425] pool1/norm1 <- pool1/3x3_s2
I0403 15:17:44.501490 12434 net.cpp:399] pool1/norm1 -> pool1/norm1
I0403 15:17:44.501776 12434 net.cpp:141] Setting up pool1/norm1
I0403 15:17:44.501804 12434 net.cpp:148] Top shape: 24 64 56 56 (4816896)
I0403 15:17:44.501821 12434 net.cpp:156] Memory required for data: 207127584
I0403 15:17:44.501837 12434 layer_factory.hpp:77] Creating layer conv2/3x3_reduce
I0403 15:17:44.501862 12434 net.cpp:91] Creating Layer conv2/3x3_reduce
I0403 15:17:44.501878 12434 net.cpp:425] conv2/3x3_reduce <- pool1/norm1
I0403 15:17:44.501898 12434 net.cpp:399] conv2/3x3_reduce -> conv2/3x3_reduce
I0403 15:17:44.503273 12434 net.cpp:141] Setting up conv2/3x3_reduce
I0403 15:17:44.503304 12434 net.cpp:148] Top shape: 24 64 56 56 (4816896)
I0403 15:17:44.503320 12434 net.cpp:156] Memory required for data: 226395168
I0403 15:17:44.503342 12434 layer_factory.hpp:77] Creating layer conv2/relu_3x3_reduce
I0403 15:17:44.503365 12434 net.cpp:91] Creating Layer conv2/relu_3x3_reduce
I0403 15:17:44.503382 12434 net.cpp:425] conv2/relu_3x3_reduce <- conv2/3x3_reduce
I0403 15:17:44.503401 12434 net.cpp:386] conv2/relu_3x3_reduce -> conv2/3x3_reduce (in-place)
I0403 15:17:44.503707 12434 net.cpp:141] Setting up conv2/relu_3x3_reduce
I0403 15:17:44.503734 12434 net.cpp:148] Top shape: 24 64 56 56 (4816896)
I0403 15:17:44.503751 12434 net.cpp:156] Memory required for data: 245662752
I0403 15:17:44.503767 12434 layer_factory.hpp:77] Creating layer conv2/3x3
I0403 15:17:44.503793 12434 net.cpp:91] Creating Layer conv2/3x3
I0403 15:17:44.503811 12434 net.cpp:425] conv2/3x3 <- conv2/3x3_reduce
I0403 15:17:44.503830 12434 net.cpp:399] conv2/3x3 -> conv2/3x3
I0403 15:17:44.506167 12434 net.cpp:141] Setting up conv2/3x3
I0403 15:17:44.506201 12434 net.cpp:148] Top shape: 24 192 56 56 (14450688)
I0403 15:17:44.506217 12434 net.cpp:156] Memory required for data: 303465504
I0403 15:17:44.506240 12434 layer_factory.hpp:77] Creating layer conv2/relu_3x3
I0403 15:17:44.506263 12434 net.cpp:91] Creating Layer conv2/relu_3x3
I0403 15:17:44.506280 12434 net.cpp:425] conv2/relu_3x3 <- conv2/3x3
I0403 15:17:44.506299 12434 net.cpp:386] conv2/relu_3x3 -> conv2/3x3 (in-place)
I0403 15:17:44.506476 12434 net.cpp:141] Setting up conv2/relu_3x3
I0403 15:17:44.506502 12434 net.cpp:148] Top shape: 24 192 56 56 (14450688)
I0403 15:17:44.506551 12434 net.cpp:156] Memory required for data: 361268256
I0403 15:17:44.506567 12434 layer_factory.hpp:77] Creating layer conv2/norm2
I0403 15:17:44.506588 12434 net.cpp:91] Creating Layer conv2/norm2
I0403 15:17:44.506606 12434 net.cpp:425] conv2/norm2 <- conv2/3x3
I0403 15:17:44.506625 12434 net.cpp:399] conv2/norm2 -> conv2/norm2
I0403 15:17:44.506927 12434 net.cpp:141] Setting up conv2/norm2
I0403 15:17:44.506954 12434 net.cpp:148] Top shape: 24 192 56 56 (14450688)
I0403 15:17:44.506970 12434 net.cpp:156] Memory required for data: 419071008
I0403 15:17:44.506985 12434 layer_factory.hpp:77] Creating layer pool2/3x3_s2
I0403 15:17:44.507006 12434 net.cpp:91] Creating Layer pool2/3x3_s2
I0403 15:17:44.507024 12434 net.cpp:425] pool2/3x3_s2 <- conv2/norm2
I0403 15:17:44.507042 12434 net.cpp:399] pool2/3x3_s2 -> pool2/3x3_s2
I0403 15:17:44.507096 12434 net.cpp:141] Setting up pool2/3x3_s2
I0403 15:17:44.507118 12434 net.cpp:148] Top shape: 24 192 28 28 (3612672)
I0403 15:17:44.507138 12434 net.cpp:156] Memory required for data: 433521696
I0403 15:17:44.507174 12434 layer_factory.hpp:77] Creating layer pool2/3x3_s2_pool2/3x3_s2_0_split
I0403 15:17:44.507205 12434 net.cpp:91] Creating Layer pool2/3x3_s2_pool2/3x3_s2_0_split
I0403 15:17:44.507221 12434 net.cpp:425] pool2/3x3_s2_pool2/3x3_s2_0_split <- pool2/3x3_s2
I0403 15:17:44.507242 12434 net.cpp:399] pool2/3x3_s2_pool2/3x3_s2_0_split -> pool2/3x3_s2_pool2/3x3_s2_0_split_0
I0403 15:17:44.507263 12434 net.cpp:399] pool2/3x3_s2_pool2/3x3_s2_0_split -> pool2/3x3_s2_pool2/3x3_s2_0_split_1
I0403 15:17:44.507283 12434 net.cpp:399] pool2/3x3_s2_pool2/3x3_s2_0_split -> pool2/3x3_s2_pool2/3x3_s2_0_split_2
I0403 15:17:44.507303 12434 net.cpp:399] pool2/3x3_s2_pool2/3x3_s2_0_split -> pool2/3x3_s2_pool2/3x3_s2_0_split_3
I0403 15:17:44.507372 12434 net.cpp:141] Setting up pool2/3x3_s2_pool2/3x3_s2_0_split
I0403 15:17:44.507400 12434 net.cpp:148] Top shape: 24 192 28 28 (3612672)
I0403 15:17:44.507416 12434 net.cpp:148] Top shape: 24 192 28 28 (3612672)
I0403 15:17:44.507432 12434 net.cpp:148] Top shape: 24 192 28 28 (3612672)
I0403 15:17:44.507448 12434 net.cpp:148] Top shape: 24 192 28 28 (3612672)
I0403 15:17:44.507462 12434 net.cpp:156] Memory required for data: 491324448
I0403 15:17:44.507477 12434 layer_factory.hpp:77] Creating layer inception_3a/1x1
I0403 15:17:44.507500 12434 net.cpp:91] Creating Layer inception_3a/1x1
I0403 15:17:44.507516 12434 net.cpp:425] inception_3a/1x1 <- pool2/3x3_s2_pool2/3x3_s2_0_split_0
I0403 15:17:44.507536 12434 net.cpp:399] inception_3a/1x1 -> inception_3a/1x1
I0403 15:17:44.509073 12434 net.cpp:141] Setting up inception_3a/1x1
I0403 15:17:44.509104 12434 net.cpp:148] Top shape: 24 64 28 28 (1204224)
I0403 15:17:44.509120 12434 net.cpp:156] Memory required for data: 496141344
I0403 15:17:44.509145 12434 layer_factory.hpp:77] Creating layer inception_3a/relu_1x1
I0403 15:17:44.509166 12434 net.cpp:91] Creating Layer inception_3a/relu_1x1
I0403 15:17:44.509184 12434 net.cpp:425] inception_3a/relu_1x1 <- inception_3a/1x1
I0403 15:17:44.509204 12434 net.cpp:386] inception_3a/relu_1x1 -> inception_3a/1x1 (in-place)
I0403 15:17:44.509378 12434 net.cpp:141] Setting up inception_3a/relu_1x1
I0403 15:17:44.509405 12434 net.cpp:148] Top shape: 24 64 28 28 (1204224)
I0403 15:17:44.509421 12434 net.cpp:156] Memory required for data: 500958240
I0403 15:17:44.509436 12434 layer_factory.hpp:77] Creating layer inception_3a/3x3_reduce
I0403 15:17:44.509459 12434 net.cpp:91] Creating Layer inception_3a/3x3_reduce
I0403 15:17:44.509479 12434 net.cpp:425] inception_3a/3x3_reduce <- pool2/3x3_s2_pool2/3x3_s2_0_split_1
I0403 15:17:44.509497 12434 net.cpp:399] inception_3a/3x3_reduce -> inception_3a/3x3_reduce
I0403 15:17:44.511288 12434 net.cpp:141] Setting up inception_3a/3x3_reduce
I0403 15:17:44.511320 12434 net.cpp:148] Top shape: 24 96 28 28 (1806336)
I0403 15:17:44.511338 12434 net.cpp:156] Memory required for data: 508183584
I0403 15:17:44.511361 12434 layer_factory.hpp:77] Creating layer inception_3a/relu_3x3_reduce
I0403 15:17:44.511402 12434 net.cpp:91] Creating Layer inception_3a/relu_3x3_reduce
I0403 15:17:44.511423 12434 net.cpp:425] inception_3a/relu_3x3_reduce <- inception_3a/3x3_reduce
I0403 15:17:44.511445 12434 net.cpp:386] inception_3a/relu_3x3_reduce -> inception_3a/3x3_reduce (in-place)
I0403 15:17:44.511633 12434 net.cpp:141] Setting up inception_3a/relu_3x3_reduce
I0403 15:17:44.511661 12434 net.cpp:148] Top shape: 24 96 28 28 (1806336)
I0403 15:17:44.511675 12434 net.cpp:156] Memory required for data: 515408928
I0403 15:17:44.511690 12434 layer_factory.hpp:77] Creating layer inception_3a/3x3
I0403 15:17:44.511713 12434 net.cpp:91] Creating Layer inception_3a/3x3
I0403 15:17:44.511732 12434 net.cpp:425] inception_3a/3x3 <- inception_3a/3x3_reduce
I0403 15:17:44.511756 12434 net.cpp:399] inception_3a/3x3 -> inception_3a/3x3
I0403 15:17:44.513448 12434 net.cpp:141] Setting up inception_3a/3x3
I0403 15:17:44.513480 12434 net.cpp:148] Top shape: 24 128 28 28 (2408448)
I0403 15:17:44.513499 12434 net.cpp:156] Memory required for data: 525042720
I0403 15:17:44.513517 12434 layer_factory.hpp:77] Creating layer inception_3a/relu_3x3
I0403 15:17:44.513537 12434 net.cpp:91] Creating Layer inception_3a/relu_3x3
I0403 15:17:44.513556 12434 net.cpp:425] inception_3a/relu_3x3 <- inception_3a/3x3
I0403 15:17:44.513576 12434 net.cpp:386] inception_3a/relu_3x3 -> inception_3a/3x3 (in-place)
I0403 15:17:44.513856 12434 net.cpp:141] Setting up inception_3a/relu_3x3
I0403 15:17:44.513885 12434 net.cpp:148] Top shape: 24 128 28 28 (2408448)
I0403 15:17:44.513903 12434 net.cpp:156] Memory required for data: 534676512
I0403 15:17:44.513919 12434 layer_factory.hpp:77] Creating layer inception_3a/5x5_reduce
I0403 15:17:44.513943 12434 net.cpp:91] Creating Layer inception_3a/5x5_reduce
I0403 15:17:44.513962 12434 net.cpp:425] inception_3a/5x5_reduce <- pool2/3x3_s2_pool2/3x3_s2_0_split_2
I0403 15:17:44.513983 12434 net.cpp:399] inception_3a/5x5_reduce -> inception_3a/5x5_reduce
I0403 15:17:44.514955 12434 net.cpp:141] Setting up inception_3a/5x5_reduce
I0403 15:17:44.514986 12434 net.cpp:148] Top shape: 24 16 28 28 (301056)
I0403 15:17:44.515004 12434 net.cpp:156] Memory required for data: 535880736
I0403 15:17:44.515024 12434 layer_factory.hpp:77] Creating layer inception_3a/relu_5x5_reduce
I0403 15:17:44.515044 12434 net.cpp:91] Creating Layer inception_3a/relu_5x5_reduce
I0403 15:17:44.515061 12434 net.cpp:425] inception_3a/relu_5x5_reduce <- inception_3a/5x5_reduce
I0403 15:17:44.515081 12434 net.cpp:386] inception_3a/relu_5x5_reduce -> inception_3a/5x5_reduce (in-place)
I0403 15:17:44.515391 12434 net.cpp:141] Setting up inception_3a/relu_5x5_reduce
I0403 15:17:44.515419 12434 net.cpp:148] Top shape: 24 16 28 28 (301056)
I0403 15:17:44.515435 12434 net.cpp:156] Memory required for data: 537084960
I0403 15:17:44.515450 12434 layer_factory.hpp:77] Creating layer inception_3a/5x5
I0403 15:17:44.515475 12434 net.cpp:91] Creating Layer inception_3a/5x5
I0403 15:17:44.515493 12434 net.cpp:425] inception_3a/5x5 <- inception_3a/5x5_reduce
I0403 15:17:44.515516 12434 net.cpp:399] inception_3a/5x5 -> inception_3a/5x5
I0403 15:17:44.516554 12434 net.cpp:141] Setting up inception_3a/5x5
I0403 15:17:44.516583 12434 net.cpp:148] Top shape: 24 32 28 28 (602112)
I0403 15:17:44.516603 12434 net.cpp:156] Memory required for data: 539493408
I0403 15:17:44.516623 12434 layer_factory.hpp:77] Creating layer inception_3a/relu_5x5
I0403 15:17:44.516643 12434 net.cpp:91] Creating Layer inception_3a/relu_5x5
I0403 15:17:44.516659 12434 net.cpp:425] inception_3a/relu_5x5 <- inception_3a/5x5
I0403 15:17:44.516676 12434 net.cpp:386] inception_3a/relu_5x5 -> inception_3a/5x5 (in-place)
I0403 15:17:44.516854 12434 net.cpp:141] Setting up inception_3a/relu_5x5
I0403 15:17:44.516882 12434 net.cpp:148] Top shape: 24 32 28 28 (602112)
I0403 15:17:44.516901 12434 net.cpp:156] Memory required for data: 541901856
I0403 15:17:44.516916 12434 layer_factory.hpp:77] Creating layer inception_3a/pool
I0403 15:17:44.516935 12434 net.cpp:91] Creating Layer inception_3a/pool
I0403 15:17:44.516968 12434 net.cpp:425] inception_3a/pool <- pool2/3x3_s2_pool2/3x3_s2_0_split_3
I0403 15:17:44.516989 12434 net.cpp:399] inception_3a/pool -> inception_3a/pool
I0403 15:17:44.517050 12434 net.cpp:141] Setting up inception_3a/pool
I0403 15:17:44.517077 12434 net.cpp:148] Top shape: 24 192 28 28 (3612672)
I0403 15:17:44.517094 12434 net.cpp:156] Memory required for data: 556352544
I0403 15:17:44.517109 12434 layer_factory.hpp:77] Creating layer inception_3a/pool_proj
I0403 15:17:44.517133 12434 net.cpp:91] Creating Layer inception_3a/pool_proj
I0403 15:17:44.517153 12434 net.cpp:425] inception_3a/pool_proj <- inception_3a/pool
I0403 15:17:44.517175 12434 net.cpp:399] inception_3a/pool_proj -> inception_3a/pool_proj
I0403 15:17:44.518200 12434 net.cpp:141] Setting up inception_3a/pool_proj
I0403 15:17:44.518229 12434 net.cpp:148] Top shape: 24 32 28 28 (602112)
I0403 15:17:44.518246 12434 net.cpp:156] Memory required for data: 558760992
I0403 15:17:44.518271 12434 layer_factory.hpp:77] Creating layer inception_3a/relu_pool_proj
I0403 15:17:44.518293 12434 net.cpp:91] Creating Layer inception_3a/relu_pool_proj
I0403 15:17:44.518309 12434 net.cpp:425] inception_3a/relu_pool_proj <- inception_3a/pool_proj
I0403 15:17:44.518331 12434 net.cpp:386] inception_3a/relu_pool_proj -> inception_3a/pool_proj (in-place)
I0403 15:17:44.518616 12434 net.cpp:141] Setting up inception_3a/relu_pool_proj
I0403 15:17:44.518646 12434 net.cpp:148] Top shape: 24 32 28 28 (602112)
I0403 15:17:44.518663 12434 net.cpp:156] Memory required for data: 561169440
I0403 15:17:44.518679 12434 layer_factory.hpp:77] Creating layer inception_3a/output
I0403 15:17:44.518698 12434 net.cpp:91] Creating Layer inception_3a/output
I0403 15:17:44.518714 12434 net.cpp:425] inception_3a/output <- inception_3a/1x1
I0403 15:17:44.518730 12434 net.cpp:425] inception_3a/output <- inception_3a/3x3
I0403 15:17:44.518746 12434 net.cpp:425] inception_3a/output <- inception_3a/5x5
I0403 15:17:44.518764 12434 net.cpp:425] inception_3a/output <- inception_3a/pool_proj
I0403 15:17:44.518781 12434 net.cpp:399] inception_3a/output -> inception_3a/output
I0403 15:17:44.518831 12434 net.cpp:141] Setting up inception_3a/output
I0403 15:17:44.518857 12434 net.cpp:148] Top shape: 24 256 28 28 (4816896)
I0403 15:17:44.518872 12434 net.cpp:156] Memory required for data: 580437024
I0403 15:17:44.518887 12434 layer_factory.hpp:77] Creating layer inception_3a/output_inception_3a/output_0_split
I0403 15:17:44.518906 12434 net.cpp:91] Creating Layer inception_3a/output_inception_3a/output_0_split
I0403 15:17:44.518924 12434 net.cpp:425] inception_3a/output_inception_3a/output_0_split <- inception_3a/output
I0403 15:17:44.518942 12434 net.cpp:399] inception_3a/output_inception_3a/output_0_split -> inception_3a/output_inception_3a/output_0_split_0
I0403 15:17:44.518962 12434 net.cpp:399] inception_3a/output_inception_3a/output_0_split -> inception_3a/output_inception_3a/output_0_split_1
I0403 15:17:44.518987 12434 net.cpp:399] inception_3a/output_inception_3a/output_0_split -> inception_3a/output_inception_3a/output_0_split_2
I0403 15:17:44.519009 12434 net.cpp:399] inception_3a/output_inception_3a/output_0_split -> inception_3a/output_inception_3a/output_0_split_3
I0403 15:17:44.519086 12434 net.cpp:141] Setting up inception_3a/output_inception_3a/output_0_split
I0403 15:17:44.519111 12434 net.cpp:148] Top shape: 24 256 28 28 (4816896)
I0403 15:17:44.519134 12434 net.cpp:148] Top shape: 24 256 28 28 (4816896)
I0403 15:17:44.519153 12434 net.cpp:148] Top shape: 24 256 28 28 (4816896)
I0403 15:17:44.519170 12434 net.cpp:148] Top shape: 24 256 28 28 (4816896)
I0403 15:17:44.519184 12434 net.cpp:156] Memory required for data: 657507360
I0403 15:17:44.519201 12434 layer_factory.hpp:77] Creating layer inception_3b/1x1
I0403 15:17:44.519227 12434 net.cpp:91] Creating Layer inception_3b/1x1
I0403 15:17:44.519246 12434 net.cpp:425] inception_3b/1x1 <- inception_3a/output_inception_3a/output_0_split_0
I0403 15:17:44.519266 12434 net.cpp:399] inception_3b/1x1 -> inception_3b/1x1
I0403 15:17:44.520421 12434 net.cpp:141] Setting up inception_3b/1x1
I0403 15:17:44.520462 12434 net.cpp:148] Top shape: 24 128 28 28 (2408448)
I0403 15:17:44.520479 12434 net.cpp:156] Memory required for data: 667141152
I0403 15:17:44.520498 12434 layer_factory.hpp:77] Creating layer inception_3b/relu_1x1
I0403 15:17:44.520520 12434 net.cpp:91] Creating Layer inception_3b/relu_1x1
I0403 15:17:44.520539 12434 net.cpp:425] inception_3b/relu_1x1 <- inception_3b/1x1
I0403 15:17:44.520558 12434 net.cpp:386] inception_3b/relu_1x1 -> inception_3b/1x1 (in-place)
I0403 15:17:44.520737 12434 net.cpp:141] Setting up inception_3b/relu_1x1
I0403 15:17:44.520766 12434 net.cpp:148] Top shape: 24 128 28 28 (2408448)
I0403 15:17:44.520783 12434 net.cpp:156] Memory required for data: 676774944
I0403 15:17:44.520799 12434 layer_factory.hpp:77] Creating layer inception_3b/3x3_reduce
I0403 15:17:44.520823 12434 net.cpp:91] Creating Layer inception_3b/3x3_reduce
I0403 15:17:44.520841 12434 net.cpp:425] inception_3b/3x3_reduce <- inception_3a/output_inception_3a/output_0_split_1
I0403 15:17:44.520861 12434 net.cpp:399] inception_3b/3x3_reduce -> inception_3b/3x3_reduce
I0403 15:17:44.522048 12434 net.cpp:141] Setting up inception_3b/3x3_reduce
I0403 15:17:44.522078 12434 net.cpp:148] Top shape: 24 128 28 28 (2408448)
I0403 15:17:44.522094 12434 net.cpp:156] Memory required for data: 686408736
I0403 15:17:44.522114 12434 layer_factory.hpp:77] Creating layer inception_3b/relu_3x3_reduce
I0403 15:17:44.522140 12434 net.cpp:91] Creating Layer inception_3b/relu_3x3_reduce
I0403 15:17:44.522159 12434 net.cpp:425] inception_3b/relu_3x3_reduce <- inception_3b/3x3_reduce
I0403 15:17:44.522177 12434 net.cpp:386] inception_3b/relu_3x3_reduce -> inception_3b/3x3_reduce (in-place)
I0403 15:17:44.522370 12434 net.cpp:141] Setting up inception_3b/relu_3x3_reduce
I0403 15:17:44.522399 12434 net.cpp:148] Top shape: 24 128 28 28 (2408448)
I0403 15:17:44.522416 12434 net.cpp:156] Memory required for data: 696042528
I0403 15:17:44.522433 12434 layer_factory.hpp:77] Creating layer inception_3b/3x3
I0403 15:17:44.522459 12434 net.cpp:91] Creating Layer inception_3b/3x3
I0403 15:17:44.522480 12434 net.cpp:425] inception_3b/3x3 <- inception_3b/3x3_reduce
I0403 15:17:44.522502 12434 net.cpp:399] inception_3b/3x3 -> inception_3b/3x3
I0403 15:17:44.525508 12434 net.cpp:141] Setting up inception_3b/3x3
I0403 15:17:44.525540 12434 net.cpp:148] Top shape: 24 192 28 28 (3612672)
I0403 15:17:44.525557 12434 net.cpp:156] Memory required for data: 710493216
I0403 15:17:44.525576 12434 layer_factory.hpp:77] Creating layer inception_3b/relu_3x3
I0403 15:17:44.525595 12434 net.cpp:91] Creating Layer inception_3b/relu_3x3
I0403 15:17:44.525611 12434 net.cpp:425] inception_3b/relu_3x3 <- inception_3b/3x3
I0403 15:17:44.525629 12434 net.cpp:386] inception_3b/relu_3x3 -> inception_3b/3x3 (in-place)
I0403 15:17:44.525902 12434 net.cpp:141] Setting up inception_3b/relu_3x3
I0403 15:17:44.525933 12434 net.cpp:148] Top shape: 24 192 28 28 (3612672)
I0403 15:17:44.525949 12434 net.cpp:156] Memory required for data: 724943904
I0403 15:17:44.525965 12434 layer_factory.hpp:77] Creating layer inception_3b/5x5_reduce
I0403 15:17:44.525987 12434 net.cpp:91] Creating Layer inception_3b/5x5_reduce
I0403 15:17:44.526006 12434 net.cpp:425] inception_3b/5x5_reduce <- inception_3a/output_inception_3a/output_0_split_2
I0403 15:17:44.526026 12434 net.cpp:399] inception_3b/5x5_reduce -> inception_3b/5x5_reduce
I0403 15:17:44.527045 12434 net.cpp:141] Setting up inception_3b/5x5_reduce
I0403 15:17:44.527078 12434 net.cpp:148] Top shape: 24 32 28 28 (602112)
I0403 15:17:44.527096 12434 net.cpp:156] Memory required for data: 727352352
I0403 15:17:44.527115 12434 layer_factory.hpp:77] Creating layer inception_3b/relu_5x5_reduce
I0403 15:17:44.527140 12434 net.cpp:91] Creating Layer inception_3b/relu_5x5_reduce
I0403 15:17:44.527159 12434 net.cpp:425] inception_3b/relu_5x5_reduce <- inception_3b/5x5_reduce
I0403 15:17:44.527178 12434 net.cpp:386] inception_3b/relu_5x5_reduce -> inception_3b/5x5_reduce (in-place)
I0403 15:17:44.527387 12434 net.cpp:141] Setting up inception_3b/relu_5x5_reduce
I0403 15:17:44.527416 12434 net.cpp:148] Top shape: 24 32 28 28 (602112)
I0403 15:17:44.527433 12434 net.cpp:156] Memory required for data: 729760800
I0403 15:17:44.527448 12434 layer_factory.hpp:77] Creating layer inception_3b/5x5
I0403 15:17:44.527472 12434 net.cpp:91] Creating Layer inception_3b/5x5
I0403 15:17:44.527501 12434 net.cpp:425] inception_3b/5x5 <- inception_3b/5x5_reduce
I0403 15:17:44.527523 12434 net.cpp:399] inception_3b/5x5 -> inception_3b/5x5
I0403 15:17:44.529551 12434 net.cpp:141] Setting up inception_3b/5x5
I0403 15:17:44.529582 12434 net.cpp:148] Top shape: 24 96 28 28 (1806336)
I0403 15:17:44.529598 12434 net.cpp:156] Memory required for data: 736986144
I0403 15:17:44.529618 12434 layer_factory.hpp:77] Creating layer inception_3b/relu_5x5
I0403 15:17:44.529640 12434 net.cpp:91] Creating Layer inception_3b/relu_5x5
I0403 15:17:44.529659 12434 net.cpp:425] inception_3b/relu_5x5 <- inception_3b/5x5
I0403 15:17:44.529678 12434 net.cpp:386] inception_3b/relu_5x5 -> inception_3b/5x5 (in-place)
I0403 15:17:44.529880 12434 net.cpp:141] Setting up inception_3b/relu_5x5
I0403 15:17:44.529906 12434 net.cpp:148] Top shape: 24 96 28 28 (1806336)
I0403 15:17:44.529920 12434 net.cpp:156] Memory required for data: 744211488
I0403 15:17:44.529934 12434 layer_factory.hpp:77] Creating layer inception_3b/pool
I0403 15:17:44.529952 12434 net.cpp:91] Creating Layer inception_3b/pool
I0403 15:17:44.529968 12434 net.cpp:425] inception_3b/pool <- inception_3a/output_inception_3a/output_0_split_3
I0403 15:17:44.529985 12434 net.cpp:399] inception_3b/pool -> inception_3b/pool
I0403 15:17:44.530040 12434 net.cpp:141] Setting up inception_3b/pool
I0403 15:17:44.530063 12434 net.cpp:148] Top shape: 24 256 28 28 (4816896)
I0403 15:17:44.530078 12434 net.cpp:156] Memory required for data: 763479072
I0403 15:17:44.530092 12434 layer_factory.hpp:77] Creating layer inception_3b/pool_proj
I0403 15:17:44.530114 12434 net.cpp:91] Creating Layer inception_3b/pool_proj
I0403 15:17:44.530135 12434 net.cpp:425] inception_3b/pool_proj <- inception_3b/pool
I0403 15:17:44.530158 12434 net.cpp:399] inception_3b/pool_proj -> inception_3b/pool_proj
I0403 15:17:44.531185 12434 net.cpp:141] Setting up inception_3b/pool_proj
I0403 15:17:44.531213 12434 net.cpp:148] Top shape: 24 64 28 28 (1204224)
I0403 15:17:44.531229 12434 net.cpp:156] Memory required for data: 768295968
I0403 15:17:44.531246 12434 layer_factory.hpp:77] Creating layer inception_3b/relu_pool_proj
I0403 15:17:44.531265 12434 net.cpp:91] Creating Layer inception_3b/relu_pool_proj
I0403 15:17:44.531281 12434 net.cpp:425] inception_3b/relu_pool_proj <- inception_3b/pool_proj
I0403 15:17:44.531301 12434 net.cpp:386] inception_3b/relu_pool_proj -> inception_3b/pool_proj (in-place)
I0403 15:17:44.531714 12434 net.cpp:141] Setting up inception_3b/relu_pool_proj
I0403 15:17:44.531740 12434 net.cpp:148] Top shape: 24 64 28 28 (1204224)
I0403 15:17:44.531755 12434 net.cpp:156] Memory required for data: 773112864
I0403 15:17:44.531770 12434 layer_factory.hpp:77] Creating layer inception_3b/output
I0403 15:17:44.531788 12434 net.cpp:91] Creating Layer inception_3b/output
I0403 15:17:44.531805 12434 net.cpp:425] inception_3b/output <- inception_3b/1x1
I0403 15:17:44.531821 12434 net.cpp:425] inception_3b/output <- inception_3b/3x3
I0403 15:17:44.531836 12434 net.cpp:425] inception_3b/output <- inception_3b/5x5
I0403 15:17:44.531852 12434 net.cpp:425] inception_3b/output <- inception_3b/pool_proj
I0403 15:17:44.531872 12434 net.cpp:399] inception_3b/output -> inception_3b/output
I0403 15:17:44.531914 12434 net.cpp:141] Setting up inception_3b/output
I0403 15:17:44.531937 12434 net.cpp:148] Top shape: 24 480 28 28 (9031680)
I0403 15:17:44.531955 12434 net.cpp:156] Memory required for data: 809239584
I0403 15:17:44.531970 12434 layer_factory.hpp:77] Creating layer pool3/3x3_s2
I0403 15:17:44.531988 12434 net.cpp:91] Creating Layer pool3/3x3_s2
I0403 15:17:44.532006 12434 net.cpp:425] pool3/3x3_s2 <- inception_3b/output
I0403 15:17:44.532039 12434 net.cpp:399] pool3/3x3_s2 -> pool3/3x3_s2
I0403 15:17:44.532097 12434 net.cpp:141] Setting up pool3/3x3_s2
I0403 15:17:44.532121 12434 net.cpp:148] Top shape: 24 480 14 14 (2257920)
I0403 15:17:44.532142 12434 net.cpp:156] Memory required for data: 818271264
I0403 15:17:44.532157 12434 layer_factory.hpp:77] Creating layer pool3/3x3_s2_pool3/3x3_s2_0_split
I0403 15:17:44.532174 12434 net.cpp:91] Creating Layer pool3/3x3_s2_pool3/3x3_s2_0_split
I0403 15:17:44.532189 12434 net.cpp:425] pool3/3x3_s2_pool3/3x3_s2_0_split <- pool3/3x3_s2
I0403 15:17:44.532209 12434 net.cpp:399] pool3/3x3_s2_pool3/3x3_s2_0_split -> pool3/3x3_s2_pool3/3x3_s2_0_split_0
I0403 15:17:44.532230 12434 net.cpp:399] pool3/3x3_s2_pool3/3x3_s2_0_split -> pool3/3x3_s2_pool3/3x3_s2_0_split_1
I0403 15:17:44.532249 12434 net.cpp:399] pool3/3x3_s2_pool3/3x3_s2_0_split -> pool3/3x3_s2_pool3/3x3_s2_0_split_2
I0403 15:17:44.532269 12434 net.cpp:399] pool3/3x3_s2_pool3/3x3_s2_0_split -> pool3/3x3_s2_pool3/3x3_s2_0_split_3
I0403 15:17:44.532344 12434 net.cpp:141] Setting up pool3/3x3_s2_pool3/3x3_s2_0_split
I0403 15:17:44.532373 12434 net.cpp:148] Top shape: 24 480 14 14 (2257920)
I0403 15:17:44.532390 12434 net.cpp:148] Top shape: 24 480 14 14 (2257920)
I0403 15:17:44.532407 12434 net.cpp:148] Top shape: 24 480 14 14 (2257920)
I0403 15:17:44.532423 12434 net.cpp:148] Top shape: 24 480 14 14 (2257920)
I0403 15:17:44.532435 12434 net.cpp:156] Memory required for data: 854397984
I0403 15:17:44.532449 12434 layer_factory.hpp:77] Creating layer inception_4a/1x1
I0403 15:17:44.532471 12434 net.cpp:91] Creating Layer inception_4a/1x1
I0403 15:17:44.532488 12434 net.cpp:425] inception_4a/1x1 <- pool3/3x3_s2_pool3/3x3_s2_0_split_0
I0403 15:17:44.532510 12434 net.cpp:399] inception_4a/1x1 -> inception_4a/1x1
I0403 15:17:44.534066 12434 net.cpp:141] Setting up inception_4a/1x1
I0403 15:17:44.534095 12434 net.cpp:148] Top shape: 24 192 14 14 (903168)
I0403 15:17:44.534111 12434 net.cpp:156] Memory required for data: 858010656
I0403 15:17:44.534132 12434 layer_factory.hpp:77] Creating layer inception_4a/relu_1x1
I0403 15:17:44.534155 12434 net.cpp:91] Creating Layer inception_4a/relu_1x1
I0403 15:17:44.534173 12434 net.cpp:425] inception_4a/relu_1x1 <- inception_4a/1x1
I0403 15:17:44.534190 12434 net.cpp:386] inception_4a/relu_1x1 -> inception_4a/1x1 (in-place)
I0403 15:17:44.534360 12434 net.cpp:141] Setting up inception_4a/relu_1x1
I0403 15:17:44.534385 12434 net.cpp:148] Top shape: 24 192 14 14 (903168)
I0403 15:17:44.534400 12434 net.cpp:156] Memory required for data: 861623328
I0403 15:17:44.534415 12434 layer_factory.hpp:77] Creating layer inception_4a/3x3_reduce
I0403 15:17:44.534438 12434 net.cpp:91] Creating Layer inception_4a/3x3_reduce
I0403 15:17:44.534456 12434 net.cpp:425] inception_4a/3x3_reduce <- pool3/3x3_s2_pool3/3x3_s2_0_split_1
I0403 15:17:44.534477 12434 net.cpp:399] inception_4a/3x3_reduce -> inception_4a/3x3_reduce
I0403 15:17:44.535739 12434 net.cpp:141] Setting up inception_4a/3x3_reduce
I0403 15:17:44.535766 12434 net.cpp:148] Top shape: 24 96 14 14 (451584)
I0403 15:17:44.535781 12434 net.cpp:156] Memory required for data: 863429664
I0403 15:17:44.535805 12434 layer_factory.hpp:77] Creating layer inception_4a/relu_3x3_reduce
I0403 15:17:44.535826 12434 net.cpp:91] Creating Layer inception_4a/relu_3x3_reduce
I0403 15:17:44.535842 12434 net.cpp:425] inception_4a/relu_3x3_reduce <- inception_4a/3x3_reduce
I0403 15:17:44.535862 12434 net.cpp:386] inception_4a/relu_3x3_reduce -> inception_4a/3x3_reduce (in-place)
I0403 15:17:44.536032 12434 net.cpp:141] Setting up inception_4a/relu_3x3_reduce
I0403 15:17:44.536057 12434 net.cpp:148] Top shape: 24 96 14 14 (451584)
I0403 15:17:44.536072 12434 net.cpp:156] Memory required for data: 865236000
I0403 15:17:44.536087 12434 layer_factory.hpp:77] Creating layer inception_4a/3x3
I0403 15:17:44.536108 12434 net.cpp:91] Creating Layer inception_4a/3x3
I0403 15:17:44.536130 12434 net.cpp:425] inception_4a/3x3 <- inception_4a/3x3_reduce
I0403 15:17:44.536154 12434 net.cpp:399] inception_4a/3x3 -> inception_4a/3x3
I0403 15:17:44.538758 12434 net.cpp:141] Setting up inception_4a/3x3
I0403 15:17:44.538787 12434 net.cpp:148] Top shape: 24 208 14 14 (978432)
I0403 15:17:44.538802 12434 net.cpp:156] Memory required for data: 869149728
I0403 15:17:44.538821 12434 layer_factory.hpp:77] Creating layer inception_4a/relu_3x3
I0403 15:17:44.538842 12434 net.cpp:91] Creating Layer inception_4a/relu_3x3
I0403 15:17:44.538861 12434 net.cpp:425] inception_4a/relu_3x3 <- inception_4a/3x3
I0403 15:17:44.538878 12434 net.cpp:386] inception_4a/relu_3x3 -> inception_4a/3x3 (in-place)
I0403 15:17:44.539155 12434 net.cpp:141] Setting up inception_4a/relu_3x3
I0403 15:17:44.539181 12434 net.cpp:148] Top shape: 24 208 14 14 (978432)
I0403 15:17:44.539198 12434 net.cpp:156] Memory required for data: 873063456
I0403 15:17:44.539213 12434 layer_factory.hpp:77] Creating layer inception_4a/5x5_reduce
I0403 15:17:44.539235 12434 net.cpp:91] Creating Layer inception_4a/5x5_reduce
I0403 15:17:44.539252 12434 net.cpp:425] inception_4a/5x5_reduce <- pool3/3x3_s2_pool3/3x3_s2_0_split_2
I0403 15:17:44.539274 12434 net.cpp:399] inception_4a/5x5_reduce -> inception_4a/5x5_reduce
I0403 15:17:44.540264 12434 net.cpp:141] Setting up inception_4a/5x5_reduce
I0403 15:17:44.540292 12434 net.cpp:148] Top shape: 24 16 14 14 (75264)
I0403 15:17:44.540310 12434 net.cpp:156] Memory required for data: 873364512
I0403 15:17:44.540329 12434 layer_factory.hpp:77] Creating layer inception_4a/relu_5x5_reduce
I0403 15:17:44.540349 12434 net.cpp:91] Creating Layer inception_4a/relu_5x5_reduce
I0403 15:17:44.540364 12434 net.cpp:425] inception_4a/relu_5x5_reduce <- inception_4a/5x5_reduce
I0403 15:17:44.540381 12434 net.cpp:386] inception_4a/relu_5x5_reduce -> inception_4a/5x5_reduce (in-place)
I0403 15:17:44.540555 12434 net.cpp:141] Setting up inception_4a/relu_5x5_reduce
I0403 15:17:44.540585 12434 net.cpp:148] Top shape: 24 16 14 14 (75264)
I0403 15:17:44.540601 12434 net.cpp:156] Memory required for data: 873665568
I0403 15:17:44.540616 12434 layer_factory.hpp:77] Creating layer inception_4a/5x5
I0403 15:17:44.540637 12434 net.cpp:91] Creating Layer inception_4a/5x5
I0403 15:17:44.540654 12434 net.cpp:425] inception_4a/5x5 <- inception_4a/5x5_reduce
I0403 15:17:44.540673 12434 net.cpp:399] inception_4a/5x5 -> inception_4a/5x5
I0403 15:17:44.541754 12434 net.cpp:141] Setting up inception_4a/5x5
I0403 15:17:44.541782 12434 net.cpp:148] Top shape: 24 48 14 14 (225792)
I0403 15:17:44.541800 12434 net.cpp:156] Memory required for data: 874568736
I0403 15:17:44.541818 12434 layer_factory.hpp:77] Creating layer inception_4a/relu_5x5
I0403 15:17:44.541836 12434 net.cpp:91] Creating Layer inception_4a/relu_5x5
I0403 15:17:44.541852 12434 net.cpp:425] inception_4a/relu_5x5 <- inception_4a/5x5
I0403 15:17:44.541872 12434 net.cpp:386] inception_4a/relu_5x5 -> inception_4a/5x5 (in-place)
I0403 15:17:44.542044 12434 net.cpp:141] Setting up inception_4a/relu_5x5
I0403 15:17:44.542069 12434 net.cpp:148] Top shape: 24 48 14 14 (225792)
I0403 15:17:44.542085 12434 net.cpp:156] Memory required for data: 875471904
I0403 15:17:44.542099 12434 layer_factory.hpp:77] Creating layer inception_4a/pool
I0403 15:17:44.542120 12434 net.cpp:91] Creating Layer inception_4a/pool
I0403 15:17:44.542142 12434 net.cpp:425] inception_4a/pool <- pool3/3x3_s2_pool3/3x3_s2_0_split_3
I0403 15:17:44.542161 12434 net.cpp:399] inception_4a/pool -> inception_4a/pool
I0403 15:17:44.542223 12434 net.cpp:141] Setting up inception_4a/pool
I0403 15:17:44.542248 12434 net.cpp:148] Top shape: 24 480 14 14 (2257920)
I0403 15:17:44.542263 12434 net.cpp:156] Memory required for data: 884503584
I0403 15:17:44.542279 12434 layer_factory.hpp:77] Creating layer inception_4a/pool_proj
I0403 15:17:44.542300 12434 net.cpp:91] Creating Layer inception_4a/pool_proj
I0403 15:17:44.542318 12434 net.cpp:425] inception_4a/pool_proj <- inception_4a/pool
I0403 15:17:44.542340 12434 net.cpp:399] inception_4a/pool_proj -> inception_4a/pool_proj
I0403 15:17:44.543504 12434 net.cpp:141] Setting up inception_4a/pool_proj
I0403 15:17:44.543534 12434 net.cpp:148] Top shape: 24 64 14 14 (301056)
I0403 15:17:44.543566 12434 net.cpp:156] Memory required for data: 885707808
I0403 15:17:44.543586 12434 layer_factory.hpp:77] Creating layer inception_4a/relu_pool_proj
I0403 15:17:44.543606 12434 net.cpp:91] Creating Layer inception_4a/relu_pool_proj
I0403 15:17:44.543622 12434 net.cpp:425] inception_4a/relu_pool_proj <- inception_4a/pool_proj
I0403 15:17:44.543643 12434 net.cpp:386] inception_4a/relu_pool_proj -> inception_4a/pool_proj (in-place)
I0403 15:17:44.543931 12434 net.cpp:141] Setting up inception_4a/relu_pool_proj
I0403 15:17:44.543957 12434 net.cpp:148] Top shape: 24 64 14 14 (301056)
I0403 15:17:44.543972 12434 net.cpp:156] Memory required for data: 886912032
I0403 15:17:44.543988 12434 layer_factory.hpp:77] Creating layer inception_4a/output
I0403 15:17:44.544005 12434 net.cpp:91] Creating Layer inception_4a/output
I0403 15:17:44.544021 12434 net.cpp:425] inception_4a/output <- inception_4a/1x1
I0403 15:17:44.544039 12434 net.cpp:425] inception_4a/output <- inception_4a/3x3
I0403 15:17:44.544055 12434 net.cpp:425] inception_4a/output <- inception_4a/5x5
I0403 15:17:44.544070 12434 net.cpp:425] inception_4a/output <- inception_4a/pool_proj
I0403 15:17:44.544091 12434 net.cpp:399] inception_4a/output -> inception_4a/output
I0403 15:17:44.544142 12434 net.cpp:141] Setting up inception_4a/output
I0403 15:17:44.544170 12434 net.cpp:148] Top shape: 24 512 14 14 (2408448)
I0403 15:17:44.544186 12434 net.cpp:156] Memory required for data: 896545824
I0403 15:17:44.544203 12434 layer_factory.hpp:77] Creating layer inception_4a/output_inception_4a/output_0_split
I0403 15:17:44.544221 12434 net.cpp:91] Creating Layer inception_4a/output_inception_4a/output_0_split
I0403 15:17:44.544237 12434 net.cpp:425] inception_4a/output_inception_4a/output_0_split <- inception_4a/output
I0403 15:17:44.544255 12434 net.cpp:399] inception_4a/output_inception_4a/output_0_split -> inception_4a/output_inception_4a/output_0_split_0
I0403 15:17:44.544280 12434 net.cpp:399] inception_4a/output_inception_4a/output_0_split -> inception_4a/output_inception_4a/output_0_split_1
I0403 15:17:44.544302 12434 net.cpp:399] inception_4a/output_inception_4a/output_0_split -> inception_4a/output_inception_4a/output_0_split_2
I0403 15:17:44.544323 12434 net.cpp:399] inception_4a/output_inception_4a/output_0_split -> inception_4a/output_inception_4a/output_0_split_3
I0403 15:17:44.544343 12434 net.cpp:399] inception_4a/output_inception_4a/output_0_split -> inception_4a/output_inception_4a/output_0_split_4
I0403 15:17:44.544436 12434 net.cpp:141] Setting up inception_4a/output_inception_4a/output_0_split
I0403 15:17:44.544463 12434 net.cpp:148] Top shape: 24 512 14 14 (2408448)
I0403 15:17:44.544481 12434 net.cpp:148] Top shape: 24 512 14 14 (2408448)
I0403 15:17:44.544497 12434 net.cpp:148] Top shape: 24 512 14 14 (2408448)
I0403 15:17:44.544514 12434 net.cpp:148] Top shape: 24 512 14 14 (2408448)
I0403 15:17:44.544530 12434 net.cpp:148] Top shape: 24 512 14 14 (2408448)
I0403 15:17:44.544544 12434 net.cpp:156] Memory required for data: 944714784
I0403 15:17:44.544559 12434 layer_factory.hpp:77] Creating layer loss1/ave_pool
I0403 15:17:44.544577 12434 net.cpp:91] Creating Layer loss1/ave_pool
I0403 15:17:44.544594 12434 net.cpp:425] loss1/ave_pool <- inception_4a/output_inception_4a/output_0_split_0
I0403 15:17:44.544612 12434 net.cpp:399] loss1/ave_pool -> loss1/ave_pool
I0403 15:17:44.544817 12434 net.cpp:141] Setting up loss1/ave_pool
I0403 15:17:44.544842 12434 net.cpp:148] Top shape: 24 512 4 4 (196608)
I0403 15:17:44.544858 12434 net.cpp:156] Memory required for data: 945501216
I0403 15:17:44.544872 12434 layer_factory.hpp:77] Creating layer loss1/conv
I0403 15:17:44.544894 12434 net.cpp:91] Creating Layer loss1/conv
I0403 15:17:44.544912 12434 net.cpp:425] loss1/conv <- loss1/ave_pool
I0403 15:17:44.544934 12434 net.cpp:399] loss1/conv -> loss1/conv
I0403 15:17:44.546381 12434 net.cpp:141] Setting up loss1/conv
I0403 15:17:44.546411 12434 net.cpp:148] Top shape: 24 128 4 4 (49152)
I0403 15:17:44.546442 12434 net.cpp:156] Memory required for data: 945697824
I0403 15:17:44.546463 12434 layer_factory.hpp:77] Creating layer loss1/relu_conv
I0403 15:17:44.546484 12434 net.cpp:91] Creating Layer loss1/relu_conv
I0403 15:17:44.546501 12434 net.cpp:425] loss1/relu_conv <- loss1/conv
I0403 15:17:44.546519 12434 net.cpp:386] loss1/relu_conv -> loss1/conv (in-place)
I0403 15:17:44.546800 12434 net.cpp:141] Setting up loss1/relu_conv
I0403 15:17:44.546828 12434 net.cpp:148] Top shape: 24 128 4 4 (49152)
I0403 15:17:44.546843 12434 net.cpp:156] Memory required for data: 945894432
I0403 15:17:44.546859 12434 layer_factory.hpp:77] Creating layer loss1/fc
I0403 15:17:44.546885 12434 net.cpp:91] Creating Layer loss1/fc
I0403 15:17:44.546903 12434 net.cpp:425] loss1/fc <- loss1/conv
I0403 15:17:44.546922 12434 net.cpp:399] loss1/fc -> loss1/fc
I0403 15:17:44.564553 12434 net.cpp:141] Setting up loss1/fc
I0403 15:17:44.564589 12434 net.cpp:148] Top shape: 24 1024 (24576)
I0403 15:17:44.564605 12434 net.cpp:156] Memory required for data: 945992736
I0403 15:17:44.564625 12434 layer_factory.hpp:77] Creating layer loss1/relu_fc
I0403 15:17:44.564643 12434 net.cpp:91] Creating Layer loss1/relu_fc
I0403 15:17:44.564659 12434 net.cpp:425] loss1/relu_fc <- loss1/fc
I0403 15:17:44.564679 12434 net.cpp:386] loss1/relu_fc -> loss1/fc (in-place)
I0403 15:17:44.564868 12434 net.cpp:141] Setting up loss1/relu_fc
I0403 15:17:44.564893 12434 net.cpp:148] Top shape: 24 1024 (24576)
I0403 15:17:44.564908 12434 net.cpp:156] Memory required for data: 946091040
I0403 15:17:44.564923 12434 layer_factory.hpp:77] Creating layer loss1/drop_fc
I0403 15:17:44.564950 12434 net.cpp:91] Creating Layer loss1/drop_fc
I0403 15:17:44.564968 12434 net.cpp:425] loss1/drop_fc <- loss1/fc
I0403 15:17:44.564986 12434 net.cpp:386] loss1/drop_fc -> loss1/fc (in-place)
I0403 15:17:44.565035 12434 net.cpp:141] Setting up loss1/drop_fc
I0403 15:17:44.565062 12434 net.cpp:148] Top shape: 24 1024 (24576)
I0403 15:17:44.565086 12434 net.cpp:156] Memory required for data: 946189344
I0403 15:17:44.565104 12434 layer_factory.hpp:77] Creating layer loss1/classifier_plantvillage
I0403 15:17:44.565121 12434 net.cpp:91] Creating Layer loss1/classifier_plantvillage
I0403 15:17:44.565143 12434 net.cpp:425] loss1/classifier_plantvillage <- loss1/fc
I0403 15:17:44.565166 12434 net.cpp:399] loss1/classifier_plantvillage -> loss1/classifier_plantvillage
I0403 15:17:44.566051 12434 net.cpp:141] Setting up loss1/classifier_plantvillage
I0403 15:17:44.566079 12434 net.cpp:148] Top shape: 24 38 (912)
I0403 15:17:44.566094 12434 net.cpp:156] Memory required for data: 946192992
I0403 15:17:44.566112 12434 layer_factory.hpp:77] Creating layer loss1/classifier_plantvillage_loss1/classifier_plantvillage_0_split
I0403 15:17:44.566136 12434 net.cpp:91] Creating Layer loss1/classifier_plantvillage_loss1/classifier_plantvillage_0_split
I0403 15:17:44.566155 12434 net.cpp:425] loss1/classifier_plantvillage_loss1/classifier_plantvillage_0_split <- loss1/classifier_plantvillage
I0403 15:17:44.566172 12434 net.cpp:399] loss1/classifier_plantvillage_loss1/classifier_plantvillage_0_split -> loss1/classifier_plantvillage_loss1/classifier_plantvillage_0_split_0
I0403 15:17:44.566192 12434 net.cpp:399] loss1/classifier_plantvillage_loss1/classifier_plantvillage_0_split -> loss1/classifier_plantvillage_loss1/classifier_plantvillage_0_split_1
I0403 15:17:44.566213 12434 net.cpp:399] loss1/classifier_plantvillage_loss1/classifier_plantvillage_0_split -> loss1/classifier_plantvillage_loss1/classifier_plantvillage_0_split_2
I0403 15:17:44.566279 12434 net.cpp:141] Setting up loss1/classifier_plantvillage_loss1/classifier_plantvillage_0_split
I0403 15:17:44.566303 12434 net.cpp:148] Top shape: 24 38 (912)
I0403 15:17:44.566323 12434 net.cpp:148] Top shape: 24 38 (912)
I0403 15:17:44.566339 12434 net.cpp:148] Top shape: 24 38 (912)
I0403 15:17:44.566354 12434 net.cpp:156] Memory required for data: 946203936
I0403 15:17:44.566368 12434 layer_factory.hpp:77] Creating layer inception_4b/1x1
I0403 15:17:44.566388 12434 net.cpp:91] Creating Layer inception_4b/1x1
I0403 15:17:44.566426 12434 net.cpp:425] inception_4b/1x1 <- inception_4a/output_inception_4a/output_0_split_1
I0403 15:17:44.566448 12434 net.cpp:399] inception_4b/1x1 -> inception_4b/1x1
I0403 15:17:44.568039 12434 net.cpp:141] Setting up inception_4b/1x1
I0403 15:17:44.568068 12434 net.cpp:148] Top shape: 24 160 14 14 (752640)
I0403 15:17:44.568084 12434 net.cpp:156] Memory required for data: 949214496
I0403 15:17:44.568102 12434 layer_factory.hpp:77] Creating layer inception_4b/relu_1x1
I0403 15:17:44.568122 12434 net.cpp:91] Creating Layer inception_4b/relu_1x1
I0403 15:17:44.568143 12434 net.cpp:425] inception_4b/relu_1x1 <- inception_4b/1x1
I0403 15:17:44.568162 12434 net.cpp:386] inception_4b/relu_1x1 -> inception_4b/1x1 (in-place)
I0403 15:17:44.568339 12434 net.cpp:141] Setting up inception_4b/relu_1x1
I0403 15:17:44.568367 12434 net.cpp:148] Top shape: 24 160 14 14 (752640)
I0403 15:17:44.568383 12434 net.cpp:156] Memory required for data: 952225056
I0403 15:17:44.568398 12434 layer_factory.hpp:77] Creating layer inception_4b/3x3_reduce
I0403 15:17:44.568421 12434 net.cpp:91] Creating Layer inception_4b/3x3_reduce
I0403 15:17:44.568439 12434 net.cpp:425] inception_4b/3x3_reduce <- inception_4a/output_inception_4a/output_0_split_2
I0403 15:17:44.568459 12434 net.cpp:399] inception_4b/3x3_reduce -> inception_4b/3x3_reduce
I0403 15:17:44.569764 12434 net.cpp:141] Setting up inception_4b/3x3_reduce
I0403 15:17:44.569797 12434 net.cpp:148] Top shape: 24 112 14 14 (526848)
I0403 15:17:44.569814 12434 net.cpp:156] Memory required for data: 954332448
I0403 15:17:44.569833 12434 layer_factory.hpp:77] Creating layer inception_4b/relu_3x3_reduce
I0403 15:17:44.569851 12434 net.cpp:91] Creating Layer inception_4b/relu_3x3_reduce
I0403 15:17:44.569867 12434 net.cpp:425] inception_4b/relu_3x3_reduce <- inception_4b/3x3_reduce
I0403 15:17:44.569887 12434 net.cpp:386] inception_4b/relu_3x3_reduce -> inception_4b/3x3_reduce (in-place)
I0403 15:17:44.570164 12434 net.cpp:141] Setting up inception_4b/relu_3x3_reduce
I0403 15:17:44.570194 12434 net.cpp:148] Top shape: 24 112 14 14 (526848)
I0403 15:17:44.570209 12434 net.cpp:156] Memory required for data: 956439840
I0403 15:17:44.570225 12434 layer_factory.hpp:77] Creating layer inception_4b/3x3
I0403 15:17:44.570247 12434 net.cpp:91] Creating Layer inception_4b/3x3
I0403 15:17:44.570266 12434 net.cpp:425] inception_4b/3x3 <- inception_4b/3x3_reduce
I0403 15:17:44.570286 12434 net.cpp:399] inception_4b/3x3 -> inception_4b/3x3
I0403 15:17:44.573173 12434 net.cpp:141] Setting up inception_4b/3x3
I0403 15:17:44.573202 12434 net.cpp:148] Top shape: 24 224 14 14 (1053696)
I0403 15:17:44.573218 12434 net.cpp:156] Memory required for data: 960654624
I0403 15:17:44.573236 12434 layer_factory.hpp:77] Creating layer inception_4b/relu_3x3
I0403 15:17:44.573256 12434 net.cpp:91] Creating Layer inception_4b/relu_3x3
I0403 15:17:44.573274 12434 net.cpp:425] inception_4b/relu_3x3 <- inception_4b/3x3
I0403 15:17:44.573292 12434 net.cpp:386] inception_4b/relu_3x3 -> inception_4b/3x3 (in-place)
I0403 15:17:44.573465 12434 net.cpp:141] Setting up inception_4b/relu_3x3
I0403 15:17:44.573490 12434 net.cpp:148] Top shape: 24 224 14 14 (1053696)
I0403 15:17:44.573505 12434 net.cpp:156] Memory required for data: 964869408
I0403 15:17:44.573520 12434 layer_factory.hpp:77] Creating layer inception_4b/5x5_reduce
I0403 15:17:44.573544 12434 net.cpp:91] Creating Layer inception_4b/5x5_reduce
I0403 15:17:44.573562 12434 net.cpp:425] inception_4b/5x5_reduce <- inception_4a/output_inception_4a/output_0_split_3
I0403 15:17:44.573582 12434 net.cpp:399] inception_4b/5x5_reduce -> inception_4b/5x5_reduce
I0403 15:17:44.574635 12434 net.cpp:141] Setting up inception_4b/5x5_reduce
I0403 15:17:44.574663 12434 net.cpp:148] Top shape: 24 24 14 14 (112896)
I0403 15:17:44.574679 12434 net.cpp:156] Memory required for data: 965320992
I0403 15:17:44.574699 12434 layer_factory.hpp:77] Creating layer inception_4b/relu_5x5_reduce
I0403 15:17:44.574719 12434 net.cpp:91] Creating Layer inception_4b/relu_5x5_reduce
I0403 15:17:44.574750 12434 net.cpp:425] inception_4b/relu_5x5_reduce <- inception_4b/5x5_reduce
I0403 15:17:44.574770 12434 net.cpp:386] inception_4b/relu_5x5_reduce -> inception_4b/5x5_reduce (in-place)
I0403 15:17:44.574951 12434 net.cpp:141] Setting up inception_4b/relu_5x5_reduce
I0403 15:17:44.574976 12434 net.cpp:148] Top shape: 24 24 14 14 (112896)
I0403 15:17:44.574991 12434 net.cpp:156] Memory required for data: 965772576
I0403 15:17:44.575006 12434 layer_factory.hpp:77] Creating layer inception_4b/5x5
I0403 15:17:44.575028 12434 net.cpp:91] Creating Layer inception_4b/5x5
I0403 15:17:44.575047 12434 net.cpp:425] inception_4b/5x5 <- inception_4b/5x5_reduce
I0403 15:17:44.575067 12434 net.cpp:399] inception_4b/5x5 -> inception_4b/5x5
I0403 15:17:44.576272 12434 net.cpp:141] Setting up inception_4b/5x5
I0403 15:17:44.576300 12434 net.cpp:148] Top shape: 24 64 14 14 (301056)
I0403 15:17:44.576315 12434 net.cpp:156] Memory required for data: 966976800
I0403 15:17:44.576334 12434 layer_factory.hpp:77] Creating layer inception_4b/relu_5x5
I0403 15:17:44.576355 12434 net.cpp:91] Creating Layer inception_4b/relu_5x5
I0403 15:17:44.576372 12434 net.cpp:425] inception_4b/relu_5x5 <- inception_4b/5x5
I0403 15:17:44.576390 12434 net.cpp:386] inception_4b/relu_5x5 -> inception_4b/5x5 (in-place)
I0403 15:17:44.576673 12434 net.cpp:141] Setting up inception_4b/relu_5x5
I0403 15:17:44.576699 12434 net.cpp:148] Top shape: 24 64 14 14 (301056)
I0403 15:17:44.576717 12434 net.cpp:156] Memory required for data: 968181024
I0403 15:17:44.576732 12434 layer_factory.hpp:77] Creating layer inception_4b/pool
I0403 15:17:44.576751 12434 net.cpp:91] Creating Layer inception_4b/pool
I0403 15:17:44.576767 12434 net.cpp:425] inception_4b/pool <- inception_4a/output_inception_4a/output_0_split_4
I0403 15:17:44.576784 12434 net.cpp:399] inception_4b/pool -> inception_4b/pool
I0403 15:17:44.576851 12434 net.cpp:141] Setting up inception_4b/pool
I0403 15:17:44.576876 12434 net.cpp:148] Top shape: 24 512 14 14 (2408448)
I0403 15:17:44.576890 12434 net.cpp:156] Memory required for data: 977814816
I0403 15:17:44.576906 12434 layer_factory.hpp:77] Creating layer inception_4b/pool_proj
I0403 15:17:44.576928 12434 net.cpp:91] Creating Layer inception_4b/pool_proj
I0403 15:17:44.576947 12434 net.cpp:425] inception_4b/pool_proj <- inception_4b/pool
I0403 15:17:44.576968 12434 net.cpp:399] inception_4b/pool_proj -> inception_4b/pool_proj
I0403 15:17:44.578161 12434 net.cpp:141] Setting up inception_4b/pool_proj
I0403 15:17:44.578192 12434 net.cpp:148] Top shape: 24 64 14 14 (301056)
I0403 15:17:44.578210 12434 net.cpp:156] Memory required for data: 979019040
I0403 15:17:44.578229 12434 layer_factory.hpp:77] Creating layer inception_4b/relu_pool_proj
I0403 15:17:44.578248 12434 net.cpp:91] Creating Layer inception_4b/relu_pool_proj
I0403 15:17:44.578264 12434 net.cpp:425] inception_4b/relu_pool_proj <- inception_4b/pool_proj
I0403 15:17:44.578282 12434 net.cpp:386] inception_4b/relu_pool_proj -> inception_4b/pool_proj (in-place)
I0403 15:17:44.578474 12434 net.cpp:141] Setting up inception_4b/relu_pool_proj
I0403 15:17:44.578498 12434 net.cpp:148] Top shape: 24 64 14 14 (301056)
I0403 15:17:44.578513 12434 net.cpp:156] Memory required for data: 980223264
I0403 15:17:44.578526 12434 layer_factory.hpp:77] Creating layer inception_4b/output
I0403 15:17:44.578543 12434 net.cpp:91] Creating Layer inception_4b/output
I0403 15:17:44.578560 12434 net.cpp:425] inception_4b/output <- inception_4b/1x1
I0403 15:17:44.578577 12434 net.cpp:425] inception_4b/output <- inception_4b/3x3
I0403 15:17:44.578591 12434 net.cpp:425] inception_4b/output <- inception_4b/5x5
I0403 15:17:44.578606 12434 net.cpp:425] inception_4b/output <- inception_4b/pool_proj
I0403 15:17:44.578629 12434 net.cpp:399] inception_4b/output -> inception_4b/output
I0403 15:17:44.578675 12434 net.cpp:141] Setting up inception_4b/output
I0403 15:17:44.578698 12434 net.cpp:148] Top shape: 24 512 14 14 (2408448)
I0403 15:17:44.578713 12434 net.cpp:156] Memory required for data: 989857056
I0403 15:17:44.578743 12434 layer_factory.hpp:77] Creating layer inception_4b/output_inception_4b/output_0_split
I0403 15:17:44.578764 12434 net.cpp:91] Creating Layer inception_4b/output_inception_4b/output_0_split
I0403 15:17:44.578780 12434 net.cpp:425] inception_4b/output_inception_4b/output_0_split <- inception_4b/output
I0403 15:17:44.578799 12434 net.cpp:399] inception_4b/output_inception_4b/output_0_split -> inception_4b/output_inception_4b/output_0_split_0
I0403 15:17:44.578821 12434 net.cpp:399] inception_4b/output_inception_4b/output_0_split -> inception_4b/output_inception_4b/output_0_split_1
I0403 15:17:44.578842 12434 net.cpp:399] inception_4b/output_inception_4b/output_0_split -> inception_4b/output_inception_4b/output_0_split_2
I0403 15:17:44.578863 12434 net.cpp:399] inception_4b/output_inception_4b/output_0_split -> inception_4b/output_inception_4b/output_0_split_3
I0403 15:17:44.578944 12434 net.cpp:141] Setting up inception_4b/output_inception_4b/output_0_split
I0403 15:17:44.578969 12434 net.cpp:148] Top shape: 24 512 14 14 (2408448)
I0403 15:17:44.578985 12434 net.cpp:148] Top shape: 24 512 14 14 (2408448)
I0403 15:17:44.579000 12434 net.cpp:148] Top shape: 24 512 14 14 (2408448)
I0403 15:17:44.579016 12434 net.cpp:148] Top shape: 24 512 14 14 (2408448)
I0403 15:17:44.579030 12434 net.cpp:156] Memory required for data: 1028392224
I0403 15:17:44.579046 12434 layer_factory.hpp:77] Creating layer inception_4c/1x1
I0403 15:17:44.579066 12434 net.cpp:91] Creating Layer inception_4c/1x1
I0403 15:17:44.579085 12434 net.cpp:425] inception_4c/1x1 <- inception_4b/output_inception_4b/output_0_split_0
I0403 15:17:44.579107 12434 net.cpp:399] inception_4c/1x1 -> inception_4c/1x1
I0403 15:17:44.580504 12434 net.cpp:141] Setting up inception_4c/1x1
I0403 15:17:44.580533 12434 net.cpp:148] Top shape: 24 128 14 14 (602112)
I0403 15:17:44.580549 12434 net.cpp:156] Memory required for data: 1030800672
I0403 15:17:44.580566 12434 layer_factory.hpp:77] Creating layer inception_4c/relu_1x1
I0403 15:17:44.580585 12434 net.cpp:91] Creating Layer inception_4c/relu_1x1
I0403 15:17:44.580603 12434 net.cpp:425] inception_4c/relu_1x1 <- inception_4c/1x1
I0403 15:17:44.580621 12434 net.cpp:386] inception_4c/relu_1x1 -> inception_4c/1x1 (in-place)
I0403 15:17:44.580796 12434 net.cpp:141] Setting up inception_4c/relu_1x1
I0403 15:17:44.580822 12434 net.cpp:148] Top shape: 24 128 14 14 (602112)
I0403 15:17:44.580838 12434 net.cpp:156] Memory required for data: 1033209120
I0403 15:17:44.580853 12434 layer_factory.hpp:77] Creating layer inception_4c/3x3_reduce
I0403 15:17:44.580875 12434 net.cpp:91] Creating Layer inception_4c/3x3_reduce
I0403 15:17:44.580894 12434 net.cpp:425] inception_4c/3x3_reduce <- inception_4b/output_inception_4b/output_0_split_1
I0403 15:17:44.580915 12434 net.cpp:399] inception_4c/3x3_reduce -> inception_4c/3x3_reduce
I0403 15:17:44.582833 12434 net.cpp:141] Setting up inception_4c/3x3_reduce
I0403 15:17:44.582861 12434 net.cpp:148] Top shape: 24 128 14 14 (602112)
I0403 15:17:44.582876 12434 net.cpp:156] Memory required for data: 1035617568
I0403 15:17:44.582895 12434 layer_factory.hpp:77] Creating layer inception_4c/relu_3x3_reduce
I0403 15:17:44.582914 12434 net.cpp:91] Creating Layer inception_4c/relu_3x3_reduce
I0403 15:17:44.582931 12434 net.cpp:425] inception_4c/relu_3x3_reduce <- inception_4c/3x3_reduce
I0403 15:17:44.582949 12434 net.cpp:386] inception_4c/relu_3x3_reduce -> inception_4c/3x3_reduce (in-place)
I0403 15:17:44.583237 12434 net.cpp:141] Setting up inception_4c/relu_3x3_reduce
I0403 15:17:44.583264 12434 net.cpp:148] Top shape: 24 128 14 14 (602112)
I0403 15:17:44.583279 12434 net.cpp:156] Memory required for data: 1038026016
I0403 15:17:44.583294 12434 layer_factory.hpp:77] Creating layer inception_4c/3x3
I0403 15:17:44.583318 12434 net.cpp:91] Creating Layer inception_4c/3x3
I0403 15:17:44.583338 12434 net.cpp:425] inception_4c/3x3 <- inception_4c/3x3_reduce
I0403 15:17:44.583356 12434 net.cpp:399] inception_4c/3x3 -> inception_4c/3x3
I0403 15:17:44.586868 12434 net.cpp:141] Setting up inception_4c/3x3
I0403 15:17:44.586912 12434 net.cpp:148] Top shape: 24 256 14 14 (1204224)
I0403 15:17:44.586931 12434 net.cpp:156] Memory required for data: 1042842912
I0403 15:17:44.586962 12434 layer_factory.hpp:77] Creating layer inception_4c/relu_3x3
I0403 15:17:44.586982 12434 net.cpp:91] Creating Layer inception_4c/relu_3x3
I0403 15:17:44.586998 12434 net.cpp:425] inception_4c/relu_3x3 <- inception_4c/3x3
I0403 15:17:44.587016 12434 net.cpp:386] inception_4c/relu_3x3 -> inception_4c/3x3 (in-place)
I0403 15:17:44.587199 12434 net.cpp:141] Setting up inception_4c/relu_3x3
I0403 15:17:44.587227 12434 net.cpp:148] Top shape: 24 256 14 14 (1204224)
I0403 15:17:44.587244 12434 net.cpp:156] Memory required for data: 1047659808
I0403 15:17:44.587260 12434 layer_factory.hpp:77] Creating layer inception_4c/5x5_reduce
I0403 15:17:44.587282 12434 net.cpp:91] Creating Layer inception_4c/5x5_reduce
I0403 15:17:44.587301 12434 net.cpp:425] inception_4c/5x5_reduce <- inception_4b/output_inception_4b/output_0_split_2
I0403 15:17:44.587321 12434 net.cpp:399] inception_4c/5x5_reduce -> inception_4c/5x5_reduce
I0403 15:17:44.588376 12434 net.cpp:141] Setting up inception_4c/5x5_reduce
I0403 15:17:44.588404 12434 net.cpp:148] Top shape: 24 24 14 14 (112896)
I0403 15:17:44.588419 12434 net.cpp:156] Memory required for data: 1048111392
I0403 15:17:44.588438 12434 layer_factory.hpp:77] Creating layer inception_4c/relu_5x5_reduce
I0403 15:17:44.588457 12434 net.cpp:91] Creating Layer inception_4c/relu_5x5_reduce
I0403 15:17:44.588475 12434 net.cpp:425] inception_4c/relu_5x5_reduce <- inception_4c/5x5_reduce
I0403 15:17:44.588493 12434 net.cpp:386] inception_4c/relu_5x5_reduce -> inception_4c/5x5_reduce (in-place)
I0403 15:17:44.588677 12434 net.cpp:141] Setting up inception_4c/relu_5x5_reduce
I0403 15:17:44.588702 12434 net.cpp:148] Top shape: 24 24 14 14 (112896)
I0403 15:17:44.588717 12434 net.cpp:156] Memory required for data: 1048562976
I0403 15:17:44.588732 12434 layer_factory.hpp:77] Creating layer inception_4c/5x5
I0403 15:17:44.588753 12434 net.cpp:91] Creating Layer inception_4c/5x5
I0403 15:17:44.588771 12434 net.cpp:425] inception_4c/5x5 <- inception_4c/5x5_reduce
I0403 15:17:44.588793 12434 net.cpp:399] inception_4c/5x5 -> inception_4c/5x5
I0403 15:17:44.590028 12434 net.cpp:141] Setting up inception_4c/5x5
I0403 15:17:44.590054 12434 net.cpp:148] Top shape: 24 64 14 14 (301056)
I0403 15:17:44.590070 12434 net.cpp:156] Memory required for data: 1049767200
I0403 15:17:44.590088 12434 layer_factory.hpp:77] Creating layer inception_4c/relu_5x5
I0403 15:17:44.590106 12434 net.cpp:91] Creating Layer inception_4c/relu_5x5
I0403 15:17:44.590123 12434 net.cpp:425] inception_4c/relu_5x5 <- inception_4c/5x5
I0403 15:17:44.590152 12434 net.cpp:386] inception_4c/relu_5x5 -> inception_4c/5x5 (in-place)
I0403 15:17:44.590435 12434 net.cpp:141] Setting up inception_4c/relu_5x5
I0403 15:17:44.590462 12434 net.cpp:148] Top shape: 24 64 14 14 (301056)
I0403 15:17:44.590477 12434 net.cpp:156] Memory required for data: 1050971424
I0403 15:17:44.590492 12434 layer_factory.hpp:77] Creating layer inception_4c/pool
I0403 15:17:44.590509 12434 net.cpp:91] Creating Layer inception_4c/pool
I0403 15:17:44.590525 12434 net.cpp:425] inception_4c/pool <- inception_4b/output_inception_4b/output_0_split_3
I0403 15:17:44.590545 12434 net.cpp:399] inception_4c/pool -> inception_4c/pool
I0403 15:17:44.590610 12434 net.cpp:141] Setting up inception_4c/pool
I0403 15:17:44.590637 12434 net.cpp:148] Top shape: 24 512 14 14 (2408448)
I0403 15:17:44.590653 12434 net.cpp:156] Memory required for data: 1060605216
I0403 15:17:44.590668 12434 layer_factory.hpp:77] Creating layer inception_4c/pool_proj
I0403 15:17:44.590690 12434 net.cpp:91] Creating Layer inception_4c/pool_proj
I0403 15:17:44.590708 12434 net.cpp:425] inception_4c/pool_proj <- inception_4c/pool
I0403 15:17:44.590726 12434 net.cpp:399] inception_4c/pool_proj -> inception_4c/pool_proj
I0403 15:17:44.591920 12434 net.cpp:141] Setting up inception_4c/pool_proj
I0403 15:17:44.591953 12434 net.cpp:148] Top shape: 24 64 14 14 (301056)
I0403 15:17:44.591981 12434 net.cpp:156] Memory required for data: 1061809440
I0403 15:17:44.592002 12434 layer_factory.hpp:77] Creating layer inception_4c/relu_pool_proj
I0403 15:17:44.592021 12434 net.cpp:91] Creating Layer inception_4c/relu_pool_proj
I0403 15:17:44.592037 12434 net.cpp:425] inception_4c/relu_pool_proj <- inception_4c/pool_proj
I0403 15:17:44.592053 12434 net.cpp:386] inception_4c/relu_pool_proj -> inception_4c/pool_proj (in-place)
I0403 15:17:44.592239 12434 net.cpp:141] Setting up inception_4c/relu_pool_proj
I0403 15:17:44.592267 12434 net.cpp:148] Top shape: 24 64 14 14 (301056)
I0403 15:17:44.592283 12434 net.cpp:156] Memory required for data: 1063013664
I0403 15:17:44.592299 12434 layer_factory.hpp:77] Creating layer inception_4c/output
I0403 15:17:44.592315 12434 net.cpp:91] Creating Layer inception_4c/output
I0403 15:17:44.592332 12434 net.cpp:425] inception_4c/output <- inception_4c/1x1
I0403 15:17:44.592350 12434 net.cpp:425] inception_4c/output <- inception_4c/3x3
I0403 15:17:44.592365 12434 net.cpp:425] inception_4c/output <- inception_4c/5x5
I0403 15:17:44.592381 12434 net.cpp:425] inception_4c/output <- inception_4c/pool_proj
I0403 15:17:44.592401 12434 net.cpp:399] inception_4c/output -> inception_4c/output
I0403 15:17:44.592447 12434 net.cpp:141] Setting up inception_4c/output
I0403 15:17:44.592469 12434 net.cpp:148] Top shape: 24 512 14 14 (2408448)
I0403 15:17:44.592484 12434 net.cpp:156] Memory required for data: 1072647456
I0403 15:17:44.592499 12434 layer_factory.hpp:77] Creating layer inception_4c/output_inception_4c/output_0_split
I0403 15:17:44.592517 12434 net.cpp:91] Creating Layer inception_4c/output_inception_4c/output_0_split
I0403 15:17:44.592533 12434 net.cpp:425] inception_4c/output_inception_4c/output_0_split <- inception_4c/output
I0403 15:17:44.592552 12434 net.cpp:399] inception_4c/output_inception_4c/output_0_split -> inception_4c/output_inception_4c/output_0_split_0
I0403 15:17:44.592574 12434 net.cpp:399] inception_4c/output_inception_4c/output_0_split -> inception_4c/output_inception_4c/output_0_split_1
I0403 15:17:44.592595 12434 net.cpp:399] inception_4c/output_inception_4c/output_0_split -> inception_4c/output_inception_4c/output_0_split_2
I0403 15:17:44.592615 12434 net.cpp:399] inception_4c/output_inception_4c/output_0_split -> inception_4c/output_inception_4c/output_0_split_3
I0403 15:17:44.592699 12434 net.cpp:141] Setting up inception_4c/output_inception_4c/output_0_split
I0403 15:17:44.592723 12434 net.cpp:148] Top shape: 24 512 14 14 (2408448)
I0403 15:17:44.592739 12434 net.cpp:148] Top shape: 24 512 14 14 (2408448)
I0403 15:17:44.592756 12434 net.cpp:148] Top shape: 24 512 14 14 (2408448)
I0403 15:17:44.592770 12434 net.cpp:148] Top shape: 24 512 14 14 (2408448)
I0403 15:17:44.592784 12434 net.cpp:156] Memory required for data: 1111182624
I0403 15:17:44.592798 12434 layer_factory.hpp:77] Creating layer inception_4d/1x1
I0403 15:17:44.592819 12434 net.cpp:91] Creating Layer inception_4d/1x1
I0403 15:17:44.592838 12434 net.cpp:425] inception_4d/1x1 <- inception_4c/output_inception_4c/output_0_split_0
I0403 15:17:44.592860 12434 net.cpp:399] inception_4d/1x1 -> inception_4d/1x1
I0403 15:17:44.594300 12434 net.cpp:141] Setting up inception_4d/1x1
I0403 15:17:44.594327 12434 net.cpp:148] Top shape: 24 112 14 14 (526848)
I0403 15:17:44.594343 12434 net.cpp:156] Memory required for data: 1113290016
I0403 15:17:44.594362 12434 layer_factory.hpp:77] Creating layer inception_4d/relu_1x1
I0403 15:17:44.594383 12434 net.cpp:91] Creating Layer inception_4d/relu_1x1
I0403 15:17:44.594401 12434 net.cpp:425] inception_4d/relu_1x1 <- inception_4d/1x1
I0403 15:17:44.594419 12434 net.cpp:386] inception_4d/relu_1x1 -> inception_4d/1x1 (in-place)
I0403 15:17:44.594604 12434 net.cpp:141] Setting up inception_4d/relu_1x1
I0403 15:17:44.594630 12434 net.cpp:148] Top shape: 24 112 14 14 (526848)
I0403 15:17:44.594645 12434 net.cpp:156] Memory required for data: 1115397408
I0403 15:17:44.594660 12434 layer_factory.hpp:77] Creating layer inception_4d/3x3_reduce
I0403 15:17:44.594698 12434 net.cpp:91] Creating Layer inception_4d/3x3_reduce
I0403 15:17:44.594718 12434 net.cpp:425] inception_4d/3x3_reduce <- inception_4c/output_inception_4c/output_0_split_1
I0403 15:17:44.594738 12434 net.cpp:399] inception_4d/3x3_reduce -> inception_4d/3x3_reduce
I0403 15:17:44.596254 12434 net.cpp:141] Setting up inception_4d/3x3_reduce
I0403 15:17:44.596283 12434 net.cpp:148] Top shape: 24 144 14 14 (677376)
I0403 15:17:44.596299 12434 net.cpp:156] Memory required for data: 1118106912
I0403 15:17:44.596319 12434 layer_factory.hpp:77] Creating layer inception_4d/relu_3x3_reduce
I0403 15:17:44.596336 12434 net.cpp:91] Creating Layer inception_4d/relu_3x3_reduce
I0403 15:17:44.596354 12434 net.cpp:425] inception_4d/relu_3x3_reduce <- inception_4d/3x3_reduce
I0403 15:17:44.596374 12434 net.cpp:386] inception_4d/relu_3x3_reduce -> inception_4d/3x3_reduce (in-place)
I0403 15:17:44.596662 12434 net.cpp:141] Setting up inception_4d/relu_3x3_reduce
I0403 15:17:44.596689 12434 net.cpp:148] Top shape: 24 144 14 14 (677376)
I0403 15:17:44.596704 12434 net.cpp:156] Memory required for data: 1120816416
I0403 15:17:44.596720 12434 layer_factory.hpp:77] Creating layer inception_4d/3x3
I0403 15:17:44.596742 12434 net.cpp:91] Creating Layer inception_4d/3x3
I0403 15:17:44.596761 12434 net.cpp:425] inception_4d/3x3 <- inception_4d/3x3_reduce
I0403 15:17:44.596782 12434 net.cpp:399] inception_4d/3x3 -> inception_4d/3x3
I0403 15:17:44.601032 12434 net.cpp:141] Setting up inception_4d/3x3
I0403 15:17:44.601061 12434 net.cpp:148] Top shape: 24 288 14 14 (1354752)
I0403 15:17:44.601078 12434 net.cpp:156] Memory required for data: 1126235424
I0403 15:17:44.601096 12434 layer_factory.hpp:77] Creating layer inception_4d/relu_3x3
I0403 15:17:44.601119 12434 net.cpp:91] Creating Layer inception_4d/relu_3x3
I0403 15:17:44.601141 12434 net.cpp:425] inception_4d/relu_3x3 <- inception_4d/3x3
I0403 15:17:44.601161 12434 net.cpp:386] inception_4d/relu_3x3 -> inception_4d/3x3 (in-place)
I0403 15:17:44.601348 12434 net.cpp:141] Setting up inception_4d/relu_3x3
I0403 15:17:44.601377 12434 net.cpp:148] Top shape: 24 288 14 14 (1354752)
I0403 15:17:44.601393 12434 net.cpp:156] Memory required for data: 1131654432
I0403 15:17:44.601408 12434 layer_factory.hpp:77] Creating layer inception_4d/5x5_reduce
I0403 15:17:44.601429 12434 net.cpp:91] Creating Layer inception_4d/5x5_reduce
I0403 15:17:44.601447 12434 net.cpp:425] inception_4d/5x5_reduce <- inception_4c/output_inception_4c/output_0_split_2
I0403 15:17:44.601467 12434 net.cpp:399] inception_4d/5x5_reduce -> inception_4d/5x5_reduce
I0403 15:17:44.602622 12434 net.cpp:141] Setting up inception_4d/5x5_reduce
I0403 15:17:44.602649 12434 net.cpp:148] Top shape: 24 32 14 14 (150528)
I0403 15:17:44.602665 12434 net.cpp:156] Memory required for data: 1132256544
I0403 15:17:44.602684 12434 layer_factory.hpp:77] Creating layer inception_4d/relu_5x5_reduce
I0403 15:17:44.602705 12434 net.cpp:91] Creating Layer inception_4d/relu_5x5_reduce
I0403 15:17:44.602722 12434 net.cpp:425] inception_4d/relu_5x5_reduce <- inception_4d/5x5_reduce
I0403 15:17:44.602741 12434 net.cpp:386] inception_4d/relu_5x5_reduce -> inception_4d/5x5_reduce (in-place)
I0403 15:17:44.602931 12434 net.cpp:141] Setting up inception_4d/relu_5x5_reduce
I0403 15:17:44.602959 12434 net.cpp:148] Top shape: 24 32 14 14 (150528)
I0403 15:17:44.602977 12434 net.cpp:156] Memory required for data: 1132858656
I0403 15:17:44.602993 12434 layer_factory.hpp:77] Creating layer inception_4d/5x5
I0403 15:17:44.603014 12434 net.cpp:91] Creating Layer inception_4d/5x5
I0403 15:17:44.603034 12434 net.cpp:425] inception_4d/5x5 <- inception_4d/5x5_reduce
I0403 15:17:44.603054 12434 net.cpp:399] inception_4d/5x5 -> inception_4d/5x5
I0403 15:17:44.604538 12434 net.cpp:141] Setting up inception_4d/5x5
I0403 15:17:44.604570 12434 net.cpp:148] Top shape: 24 64 14 14 (301056)
I0403 15:17:44.604588 12434 net.cpp:156] Memory required for data: 1134062880
I0403 15:17:44.604607 12434 layer_factory.hpp:77] Creating layer inception_4d/relu_5x5
I0403 15:17:44.604640 12434 net.cpp:91] Creating Layer inception_4d/relu_5x5
I0403 15:17:44.604660 12434 net.cpp:425] inception_4d/relu_5x5 <- inception_4d/5x5
I0403 15:17:44.604679 12434 net.cpp:386] inception_4d/relu_5x5 -> inception_4d/5x5 (in-place)
I0403 15:17:44.604981 12434 net.cpp:141] Setting up inception_4d/relu_5x5
I0403 15:17:44.605015 12434 net.cpp:148] Top shape: 24 64 14 14 (301056)
I0403 15:17:44.605031 12434 net.cpp:156] Memory required for data: 1135267104
I0403 15:17:44.605046 12434 layer_factory.hpp:77] Creating layer inception_4d/pool
I0403 15:17:44.605064 12434 net.cpp:91] Creating Layer inception_4d/pool
I0403 15:17:44.605082 12434 net.cpp:425] inception_4d/pool <- inception_4c/output_inception_4c/output_0_split_3
I0403 15:17:44.605103 12434 net.cpp:399] inception_4d/pool -> inception_4d/pool
I0403 15:17:44.605175 12434 net.cpp:141] Setting up inception_4d/pool
I0403 15:17:44.605201 12434 net.cpp:148] Top shape: 24 512 14 14 (2408448)
I0403 15:17:44.605216 12434 net.cpp:156] Memory required for data: 1144900896
I0403 15:17:44.605229 12434 layer_factory.hpp:77] Creating layer inception_4d/pool_proj
I0403 15:17:44.605252 12434 net.cpp:91] Creating Layer inception_4d/pool_proj
I0403 15:17:44.605269 12434 net.cpp:425] inception_4d/pool_proj <- inception_4d/pool
I0403 15:17:44.605291 12434 net.cpp:399] inception_4d/pool_proj -> inception_4d/pool_proj
I0403 15:17:44.607062 12434 net.cpp:141] Setting up inception_4d/pool_proj
I0403 15:17:44.607092 12434 net.cpp:148] Top shape: 24 64 14 14 (301056)
I0403 15:17:44.607110 12434 net.cpp:156] Memory required for data: 1146105120
I0403 15:17:44.607131 12434 layer_factory.hpp:77] Creating layer inception_4d/relu_pool_proj
I0403 15:17:44.607156 12434 net.cpp:91] Creating Layer inception_4d/relu_pool_proj
I0403 15:17:44.607174 12434 net.cpp:425] inception_4d/relu_pool_proj <- inception_4d/pool_proj
I0403 15:17:44.607193 12434 net.cpp:386] inception_4d/relu_pool_proj -> inception_4d/pool_proj (in-place)
I0403 15:17:44.607380 12434 net.cpp:141] Setting up inception_4d/relu_pool_proj
I0403 15:17:44.607409 12434 net.cpp:148] Top shape: 24 64 14 14 (301056)
I0403 15:17:44.607425 12434 net.cpp:156] Memory required for data: 1147309344
I0403 15:17:44.607440 12434 layer_factory.hpp:77] Creating layer inception_4d/output
I0403 15:17:44.607458 12434 net.cpp:91] Creating Layer inception_4d/output
I0403 15:17:44.607475 12434 net.cpp:425] inception_4d/output <- inception_4d/1x1
I0403 15:17:44.607492 12434 net.cpp:425] inception_4d/output <- inception_4d/3x3
I0403 15:17:44.607509 12434 net.cpp:425] inception_4d/output <- inception_4d/5x5
I0403 15:17:44.607525 12434 net.cpp:425] inception_4d/output <- inception_4d/pool_proj
I0403 15:17:44.607542 12434 net.cpp:399] inception_4d/output -> inception_4d/output
I0403 15:17:44.607592 12434 net.cpp:141] Setting up inception_4d/output
I0403 15:17:44.607617 12434 net.cpp:148] Top shape: 24 528 14 14 (2483712)
I0403 15:17:44.607632 12434 net.cpp:156] Memory required for data: 1157244192
I0403 15:17:44.607647 12434 layer_factory.hpp:77] Creating layer inception_4d/output_inception_4d/output_0_split
I0403 15:17:44.607667 12434 net.cpp:91] Creating Layer inception_4d/output_inception_4d/output_0_split
I0403 15:17:44.607683 12434 net.cpp:425] inception_4d/output_inception_4d/output_0_split <- inception_4d/output
I0403 15:17:44.607702 12434 net.cpp:399] inception_4d/output_inception_4d/output_0_split -> inception_4d/output_inception_4d/output_0_split_0
I0403 15:17:44.607724 12434 net.cpp:399] inception_4d/output_inception_4d/output_0_split -> inception_4d/output_inception_4d/output_0_split_1
I0403 15:17:44.607745 12434 net.cpp:399] inception_4d/output_inception_4d/output_0_split -> inception_4d/output_inception_4d/output_0_split_2
I0403 15:17:44.607769 12434 net.cpp:399] inception_4d/output_inception_4d/output_0_split -> inception_4d/output_inception_4d/output_0_split_3
I0403 15:17:44.607790 12434 net.cpp:399] inception_4d/output_inception_4d/output_0_split -> inception_4d/output_inception_4d/output_0_split_4
I0403 15:17:44.607895 12434 net.cpp:141] Setting up inception_4d/output_inception_4d/output_0_split
I0403 15:17:44.607933 12434 net.cpp:148] Top shape: 24 528 14 14 (2483712)
I0403 15:17:44.607950 12434 net.cpp:148] Top shape: 24 528 14 14 (2483712)
I0403 15:17:44.607967 12434 net.cpp:148] Top shape: 24 528 14 14 (2483712)
I0403 15:17:44.607983 12434 net.cpp:148] Top shape: 24 528 14 14 (2483712)
I0403 15:17:44.608000 12434 net.cpp:148] Top shape: 24 528 14 14 (2483712)
I0403 15:17:44.608013 12434 net.cpp:156] Memory required for data: 1206918432
I0403 15:17:44.608028 12434 layer_factory.hpp:77] Creating layer loss2/ave_pool
I0403 15:17:44.608052 12434 net.cpp:91] Creating Layer loss2/ave_pool
I0403 15:17:44.608069 12434 net.cpp:425] loss2/ave_pool <- inception_4d/output_inception_4d/output_0_split_0
I0403 15:17:44.608088 12434 net.cpp:399] loss2/ave_pool -> loss2/ave_pool
I0403 15:17:44.608407 12434 net.cpp:141] Setting up loss2/ave_pool
I0403 15:17:44.608434 12434 net.cpp:148] Top shape: 24 528 4 4 (202752)
I0403 15:17:44.608450 12434 net.cpp:156] Memory required for data: 1207729440
I0403 15:17:44.608466 12434 layer_factory.hpp:77] Creating layer loss2/conv
I0403 15:17:44.608489 12434 net.cpp:91] Creating Layer loss2/conv
I0403 15:17:44.608507 12434 net.cpp:425] loss2/conv <- loss2/ave_pool
I0403 15:17:44.608530 12434 net.cpp:399] loss2/conv -> loss2/conv
I0403 15:17:44.610430 12434 net.cpp:141] Setting up loss2/conv
I0403 15:17:44.610462 12434 net.cpp:148] Top shape: 24 128 4 4 (49152)
I0403 15:17:44.610481 12434 net.cpp:156] Memory required for data: 1207926048
I0403 15:17:44.610499 12434 layer_factory.hpp:77] Creating layer loss2/relu_conv
I0403 15:17:44.610518 12434 net.cpp:91] Creating Layer loss2/relu_conv
I0403 15:17:44.610535 12434 net.cpp:425] loss2/relu_conv <- loss2/conv
I0403 15:17:44.610554 12434 net.cpp:386] loss2/relu_conv -> loss2/conv (in-place)
I0403 15:17:44.610843 12434 net.cpp:141] Setting up loss2/relu_conv
I0403 15:17:44.610872 12434 net.cpp:148] Top shape: 24 128 4 4 (49152)
I0403 15:17:44.610888 12434 net.cpp:156] Memory required for data: 1208122656
I0403 15:17:44.610903 12434 layer_factory.hpp:77] Creating layer loss2/fc
I0403 15:17:44.610923 12434 net.cpp:91] Creating Layer loss2/fc
I0403 15:17:44.610939 12434 net.cpp:425] loss2/fc <- loss2/conv
I0403 15:17:44.610960 12434 net.cpp:399] loss2/fc -> loss2/fc
I0403 15:17:44.628283 12434 net.cpp:141] Setting up loss2/fc
I0403 15:17:44.628320 12434 net.cpp:148] Top shape: 24 1024 (24576)
I0403 15:17:44.628336 12434 net.cpp:156] Memory required for data: 1208220960
I0403 15:17:44.628355 12434 layer_factory.hpp:77] Creating layer loss2/relu_fc
I0403 15:17:44.628374 12434 net.cpp:91] Creating Layer loss2/relu_fc
I0403 15:17:44.628391 12434 net.cpp:425] loss2/relu_fc <- loss2/fc
I0403 15:17:44.628409 12434 net.cpp:386] loss2/relu_fc -> loss2/fc (in-place)
I0403 15:17:44.628705 12434 net.cpp:141] Setting up loss2/relu_fc
I0403 15:17:44.628731 12434 net.cpp:148] Top shape: 24 1024 (24576)
I0403 15:17:44.628749 12434 net.cpp:156] Memory required for data: 1208319264
I0403 15:17:44.628764 12434 layer_factory.hpp:77] Creating layer loss2/drop_fc
I0403 15:17:44.628782 12434 net.cpp:91] Creating Layer loss2/drop_fc
I0403 15:17:44.628798 12434 net.cpp:425] loss2/drop_fc <- loss2/fc
I0403 15:17:44.628818 12434 net.cpp:386] loss2/drop_fc -> loss2/fc (in-place)
I0403 15:17:44.628865 12434 net.cpp:141] Setting up loss2/drop_fc
I0403 15:17:44.628888 12434 net.cpp:148] Top shape: 24 1024 (24576)
I0403 15:17:44.628903 12434 net.cpp:156] Memory required for data: 1208417568
I0403 15:17:44.628917 12434 layer_factory.hpp:77] Creating layer loss2/classifier_plantvillage
I0403 15:17:44.628937 12434 net.cpp:91] Creating Layer loss2/classifier_plantvillage
I0403 15:17:44.628954 12434 net.cpp:425] loss2/classifier_plantvillage <- loss2/fc
I0403 15:17:44.628973 12434 net.cpp:399] loss2/classifier_plantvillage -> loss2/classifier_plantvillage
I0403 15:17:44.629385 12434 net.cpp:141] Setting up loss2/classifier_plantvillage
I0403 15:17:44.629411 12434 net.cpp:148] Top shape: 24 38 (912)
I0403 15:17:44.629444 12434 net.cpp:156] Memory required for data: 1208421216
I0403 15:17:44.629463 12434 layer_factory.hpp:77] Creating layer loss2/classifier_plantvillage_loss2/classifier_plantvillage_0_split
I0403 15:17:44.629482 12434 net.cpp:91] Creating Layer loss2/classifier_plantvillage_loss2/classifier_plantvillage_0_split
I0403 15:17:44.629499 12434 net.cpp:425] loss2/classifier_plantvillage_loss2/classifier_plantvillage_0_split <- loss2/classifier_plantvillage
I0403 15:17:44.629520 12434 net.cpp:399] loss2/classifier_plantvillage_loss2/classifier_plantvillage_0_split -> loss2/classifier_plantvillage_loss2/classifier_plantvillage_0_split_0
I0403 15:17:44.629541 12434 net.cpp:399] loss2/classifier_plantvillage_loss2/classifier_plantvillage_0_split -> loss2/classifier_plantvillage_loss2/classifier_plantvillage_0_split_1
I0403 15:17:44.629562 12434 net.cpp:399] loss2/classifier_plantvillage_loss2/classifier_plantvillage_0_split -> loss2/classifier_plantvillage_loss2/classifier_plantvillage_0_split_2
I0403 15:17:44.629653 12434 net.cpp:141] Setting up loss2/classifier_plantvillage_loss2/classifier_plantvillage_0_split
I0403 15:17:44.629680 12434 net.cpp:148] Top shape: 24 38 (912)
I0403 15:17:44.629698 12434 net.cpp:148] Top shape: 24 38 (912)
I0403 15:17:44.629714 12434 net.cpp:148] Top shape: 24 38 (912)
I0403 15:17:44.629727 12434 net.cpp:156] Memory required for data: 1208432160
I0403 15:17:44.629741 12434 layer_factory.hpp:77] Creating layer inception_4e/1x1
I0403 15:17:44.629765 12434 net.cpp:91] Creating Layer inception_4e/1x1
I0403 15:17:44.629782 12434 net.cpp:425] inception_4e/1x1 <- inception_4d/output_inception_4d/output_0_split_1
I0403 15:17:44.629801 12434 net.cpp:399] inception_4e/1x1 -> inception_4e/1x1
I0403 15:17:44.631580 12434 net.cpp:141] Setting up inception_4e/1x1
I0403 15:17:44.631613 12434 net.cpp:148] Top shape: 24 256 14 14 (1204224)
I0403 15:17:44.631629 12434 net.cpp:156] Memory required for data: 1213249056
I0403 15:17:44.631649 12434 layer_factory.hpp:77] Creating layer inception_4e/relu_1x1
I0403 15:17:44.631666 12434 net.cpp:91] Creating Layer inception_4e/relu_1x1
I0403 15:17:44.631683 12434 net.cpp:425] inception_4e/relu_1x1 <- inception_4e/1x1
I0403 15:17:44.631702 12434 net.cpp:386] inception_4e/relu_1x1 -> inception_4e/1x1 (in-place)
I0403 15:17:44.631994 12434 net.cpp:141] Setting up inception_4e/relu_1x1
I0403 15:17:44.632022 12434 net.cpp:148] Top shape: 24 256 14 14 (1204224)
I0403 15:17:44.632038 12434 net.cpp:156] Memory required for data: 1218065952
I0403 15:17:44.632053 12434 layer_factory.hpp:77] Creating layer inception_4e/3x3_reduce
I0403 15:17:44.632076 12434 net.cpp:91] Creating Layer inception_4e/3x3_reduce
I0403 15:17:44.632107 12434 net.cpp:425] inception_4e/3x3_reduce <- inception_4d/output_inception_4d/output_0_split_2
I0403 15:17:44.632136 12434 net.cpp:399] inception_4e/3x3_reduce -> inception_4e/3x3_reduce
I0403 15:17:44.634340 12434 net.cpp:141] Setting up inception_4e/3x3_reduce
I0403 15:17:44.634371 12434 net.cpp:148] Top shape: 24 160 14 14 (752640)
I0403 15:17:44.634388 12434 net.cpp:156] Memory required for data: 1221076512
I0403 15:17:44.634408 12434 layer_factory.hpp:77] Creating layer inception_4e/relu_3x3_reduce
I0403 15:17:44.634428 12434 net.cpp:91] Creating Layer inception_4e/relu_3x3_reduce
I0403 15:17:44.634443 12434 net.cpp:425] inception_4e/relu_3x3_reduce <- inception_4e/3x3_reduce
I0403 15:17:44.634461 12434 net.cpp:386] inception_4e/relu_3x3_reduce -> inception_4e/3x3_reduce (in-place)
I0403 15:17:44.634659 12434 net.cpp:141] Setting up inception_4e/relu_3x3_reduce
I0403 15:17:44.634683 12434 net.cpp:148] Top shape: 24 160 14 14 (752640)
I0403 15:17:44.634697 12434 net.cpp:156] Memory required for data: 1224087072
I0403 15:17:44.634713 12434 layer_factory.hpp:77] Creating layer inception_4e/3x3
I0403 15:17:44.634735 12434 net.cpp:91] Creating Layer inception_4e/3x3
I0403 15:17:44.634754 12434 net.cpp:425] inception_4e/3x3 <- inception_4e/3x3_reduce
I0403 15:17:44.634776 12434 net.cpp:399] inception_4e/3x3 -> inception_4e/3x3
I0403 15:17:44.639688 12434 net.cpp:141] Setting up inception_4e/3x3
I0403 15:17:44.639729 12434 net.cpp:148] Top shape: 24 320 14 14 (1505280)
I0403 15:17:44.639746 12434 net.cpp:156] Memory required for data: 1230108192
I0403 15:17:44.639765 12434 layer_factory.hpp:77] Creating layer inception_4e/relu_3x3
I0403 15:17:44.639786 12434 net.cpp:91] Creating Layer inception_4e/relu_3x3
I0403 15:17:44.639804 12434 net.cpp:425] inception_4e/relu_3x3 <- inception_4e/3x3
I0403 15:17:44.639822 12434 net.cpp:386] inception_4e/relu_3x3 -> inception_4e/3x3 (in-place)
I0403 15:17:44.640112 12434 net.cpp:141] Setting up inception_4e/relu_3x3
I0403 15:17:44.640143 12434 net.cpp:148] Top shape: 24 320 14 14 (1505280)
I0403 15:17:44.640159 12434 net.cpp:156] Memory required for data: 1236129312
I0403 15:17:44.640173 12434 layer_factory.hpp:77] Creating layer inception_4e/5x5_reduce
I0403 15:17:44.640195 12434 net.cpp:91] Creating Layer inception_4e/5x5_reduce
I0403 15:17:44.640213 12434 net.cpp:425] inception_4e/5x5_reduce <- inception_4d/output_inception_4d/output_0_split_3
I0403 15:17:44.640234 12434 net.cpp:399] inception_4e/5x5_reduce -> inception_4e/5x5_reduce
I0403 15:17:44.641283 12434 net.cpp:141] Setting up inception_4e/5x5_reduce
I0403 15:17:44.641315 12434 net.cpp:148] Top shape: 24 32 14 14 (150528)
I0403 15:17:44.641332 12434 net.cpp:156] Memory required for data: 1236731424
I0403 15:17:44.641350 12434 layer_factory.hpp:77] Creating layer inception_4e/relu_5x5_reduce
I0403 15:17:44.641381 12434 net.cpp:91] Creating Layer inception_4e/relu_5x5_reduce
I0403 15:17:44.641397 12434 net.cpp:425] inception_4e/relu_5x5_reduce <- inception_4e/5x5_reduce
I0403 15:17:44.641417 12434 net.cpp:386] inception_4e/relu_5x5_reduce -> inception_4e/5x5_reduce (in-place)
I0403 15:17:44.641726 12434 net.cpp:141] Setting up inception_4e/relu_5x5_reduce
I0403 15:17:44.641754 12434 net.cpp:148] Top shape: 24 32 14 14 (150528)
I0403 15:17:44.641772 12434 net.cpp:156] Memory required for data: 1237333536
I0403 15:17:44.641787 12434 layer_factory.hpp:77] Creating layer inception_4e/5x5
I0403 15:17:44.641824 12434 net.cpp:91] Creating Layer inception_4e/5x5
I0403 15:17:44.641844 12434 net.cpp:425] inception_4e/5x5 <- inception_4e/5x5_reduce
I0403 15:17:44.641865 12434 net.cpp:399] inception_4e/5x5 -> inception_4e/5x5
I0403 15:17:44.643666 12434 net.cpp:141] Setting up inception_4e/5x5
I0403 15:17:44.643693 12434 net.cpp:148] Top shape: 24 128 14 14 (602112)
I0403 15:17:44.643710 12434 net.cpp:156] Memory required for data: 1239741984
I0403 15:17:44.643730 12434 layer_factory.hpp:77] Creating layer inception_4e/relu_5x5
I0403 15:17:44.643750 12434 net.cpp:91] Creating Layer inception_4e/relu_5x5
I0403 15:17:44.643767 12434 net.cpp:425] inception_4e/relu_5x5 <- inception_4e/5x5
I0403 15:17:44.643784 12434 net.cpp:386] inception_4e/relu_5x5 -> inception_4e/5x5 (in-place)
I0403 15:17:44.643977 12434 net.cpp:141] Setting up inception_4e/relu_5x5
I0403 15:17:44.644003 12434 net.cpp:148] Top shape: 24 128 14 14 (602112)
I0403 15:17:44.644018 12434 net.cpp:156] Memory required for data: 1242150432
I0403 15:17:44.644032 12434 layer_factory.hpp:77] Creating layer inception_4e/pool
I0403 15:17:44.644050 12434 net.cpp:91] Creating Layer inception_4e/pool
I0403 15:17:44.644067 12434 net.cpp:425] inception_4e/pool <- inception_4d/output_inception_4d/output_0_split_4
I0403 15:17:44.644086 12434 net.cpp:399] inception_4e/pool -> inception_4e/pool
I0403 15:17:44.644161 12434 net.cpp:141] Setting up inception_4e/pool
I0403 15:17:44.644186 12434 net.cpp:148] Top shape: 24 528 14 14 (2483712)
I0403 15:17:44.644201 12434 net.cpp:156] Memory required for data: 1252085280
I0403 15:17:44.644214 12434 layer_factory.hpp:77] Creating layer inception_4e/pool_proj
I0403 15:17:44.644238 12434 net.cpp:91] Creating Layer inception_4e/pool_proj
I0403 15:17:44.644258 12434 net.cpp:425] inception_4e/pool_proj <- inception_4e/pool
I0403 15:17:44.644275 12434 net.cpp:399] inception_4e/pool_proj -> inception_4e/pool_proj
I0403 15:17:44.645766 12434 net.cpp:141] Setting up inception_4e/pool_proj
I0403 15:17:44.645807 12434 net.cpp:148] Top shape: 24 128 14 14 (602112)
I0403 15:17:44.645823 12434 net.cpp:156] Memory required for data: 1254493728
I0403 15:17:44.645843 12434 layer_factory.hpp:77] Creating layer inception_4e/relu_pool_proj
I0403 15:17:44.645862 12434 net.cpp:91] Creating Layer inception_4e/relu_pool_proj
I0403 15:17:44.645879 12434 net.cpp:425] inception_4e/relu_pool_proj <- inception_4e/pool_proj
I0403 15:17:44.645897 12434 net.cpp:386] inception_4e/relu_pool_proj -> inception_4e/pool_proj (in-place)
I0403 15:17:44.646188 12434 net.cpp:141] Setting up inception_4e/relu_pool_proj
I0403 15:17:44.646215 12434 net.cpp:148] Top shape: 24 128 14 14 (602112)
I0403 15:17:44.646230 12434 net.cpp:156] Memory required for data: 1256902176
I0403 15:17:44.646245 12434 layer_factory.hpp:77] Creating layer inception_4e/output
I0403 15:17:44.646265 12434 net.cpp:91] Creating Layer inception_4e/output
I0403 15:17:44.646281 12434 net.cpp:425] inception_4e/output <- inception_4e/1x1
I0403 15:17:44.646299 12434 net.cpp:425] inception_4e/output <- inception_4e/3x3
I0403 15:17:44.646314 12434 net.cpp:425] inception_4e/output <- inception_4e/5x5
I0403 15:17:44.646329 12434 net.cpp:425] inception_4e/output <- inception_4e/pool_proj
I0403 15:17:44.646347 12434 net.cpp:399] inception_4e/output -> inception_4e/output
I0403 15:17:44.646399 12434 net.cpp:141] Setting up inception_4e/output
I0403 15:17:44.646423 12434 net.cpp:148] Top shape: 24 832 14 14 (3913728)
I0403 15:17:44.646438 12434 net.cpp:156] Memory required for data: 1272557088
I0403 15:17:44.646452 12434 layer_factory.hpp:77] Creating layer pool4/3x3_s2
I0403 15:17:44.646469 12434 net.cpp:91] Creating Layer pool4/3x3_s2
I0403 15:17:44.646486 12434 net.cpp:425] pool4/3x3_s2 <- inception_4e/output
I0403 15:17:44.646505 12434 net.cpp:399] pool4/3x3_s2 -> pool4/3x3_s2
I0403 15:17:44.646572 12434 net.cpp:141] Setting up pool4/3x3_s2
I0403 15:17:44.646596 12434 net.cpp:148] Top shape: 24 832 7 7 (978432)
I0403 15:17:44.646610 12434 net.cpp:156] Memory required for data: 1276470816
I0403 15:17:44.646625 12434 layer_factory.hpp:77] Creating layer pool4/3x3_s2_pool4/3x3_s2_0_split
I0403 15:17:44.646644 12434 net.cpp:91] Creating Layer pool4/3x3_s2_pool4/3x3_s2_0_split
I0403 15:17:44.646662 12434 net.cpp:425] pool4/3x3_s2_pool4/3x3_s2_0_split <- pool4/3x3_s2
I0403 15:17:44.646682 12434 net.cpp:399] pool4/3x3_s2_pool4/3x3_s2_0_split -> pool4/3x3_s2_pool4/3x3_s2_0_split_0
I0403 15:17:44.646703 12434 net.cpp:399] pool4/3x3_s2_pool4/3x3_s2_0_split -> pool4/3x3_s2_pool4/3x3_s2_0_split_1
I0403 15:17:44.646726 12434 net.cpp:399] pool4/3x3_s2_pool4/3x3_s2_0_split -> pool4/3x3_s2_pool4/3x3_s2_0_split_2
I0403 15:17:44.646747 12434 net.cpp:399] pool4/3x3_s2_pool4/3x3_s2_0_split -> pool4/3x3_s2_pool4/3x3_s2_0_split_3
I0403 15:17:44.646836 12434 net.cpp:141] Setting up pool4/3x3_s2_pool4/3x3_s2_0_split
I0403 15:17:44.646862 12434 net.cpp:148] Top shape: 24 832 7 7 (978432)
I0403 15:17:44.646878 12434 net.cpp:148] Top shape: 24 832 7 7 (978432)
I0403 15:17:44.646893 12434 net.cpp:148] Top shape: 24 832 7 7 (978432)
I0403 15:17:44.646909 12434 net.cpp:148] Top shape: 24 832 7 7 (978432)
I0403 15:17:44.646924 12434 net.cpp:156] Memory required for data: 1292125728
I0403 15:17:44.646939 12434 layer_factory.hpp:77] Creating layer inception_5a/1x1
I0403 15:17:44.646960 12434 net.cpp:91] Creating Layer inception_5a/1x1
I0403 15:17:44.646981 12434 net.cpp:425] inception_5a/1x1 <- pool4/3x3_s2_pool4/3x3_s2_0_split_0
I0403 15:17:44.647002 12434 net.cpp:399] inception_5a/1x1 -> inception_5a/1x1
I0403 15:17:44.649957 12434 net.cpp:141] Setting up inception_5a/1x1
I0403 15:17:44.649991 12434 net.cpp:148] Top shape: 24 256 7 7 (301056)
I0403 15:17:44.650007 12434 net.cpp:156] Memory required for data: 1293329952
I0403 15:17:44.650027 12434 layer_factory.hpp:77] Creating layer inception_5a/relu_1x1
I0403 15:17:44.650045 12434 net.cpp:91] Creating Layer inception_5a/relu_1x1
I0403 15:17:44.650061 12434 net.cpp:425] inception_5a/relu_1x1 <- inception_5a/1x1
I0403 15:17:44.650079 12434 net.cpp:386] inception_5a/relu_1x1 -> inception_5a/1x1 (in-place)
I0403 15:17:44.650400 12434 net.cpp:141] Setting up inception_5a/relu_1x1
I0403 15:17:44.650430 12434 net.cpp:148] Top shape: 24 256 7 7 (301056)
I0403 15:17:44.650447 12434 net.cpp:156] Memory required for data: 1294534176
I0403 15:17:44.650463 12434 layer_factory.hpp:77] Creating layer inception_5a/3x3_reduce
I0403 15:17:44.650486 12434 net.cpp:91] Creating Layer inception_5a/3x3_reduce
I0403 15:17:44.650504 12434 net.cpp:425] inception_5a/3x3_reduce <- pool4/3x3_s2_pool4/3x3_s2_0_split_1
I0403 15:17:44.650524 12434 net.cpp:399] inception_5a/3x3_reduce -> inception_5a/3x3_reduce
I0403 15:17:44.652997 12434 net.cpp:141] Setting up inception_5a/3x3_reduce
I0403 15:17:44.653026 12434 net.cpp:148] Top shape: 24 160 7 7 (188160)
I0403 15:17:44.653043 12434 net.cpp:156] Memory required for data: 1295286816
I0403 15:17:44.653061 12434 layer_factory.hpp:77] Creating layer inception_5a/relu_3x3_reduce
I0403 15:17:44.653082 12434 net.cpp:91] Creating Layer inception_5a/relu_3x3_reduce
I0403 15:17:44.653100 12434 net.cpp:425] inception_5a/relu_3x3_reduce <- inception_5a/3x3_reduce
I0403 15:17:44.653118 12434 net.cpp:386] inception_5a/relu_3x3_reduce -> inception_5a/3x3_reduce (in-place)
I0403 15:17:44.653319 12434 net.cpp:141] Setting up inception_5a/relu_3x3_reduce
I0403 15:17:44.653348 12434 net.cpp:148] Top shape: 24 160 7 7 (188160)
I0403 15:17:44.653365 12434 net.cpp:156] Memory required for data: 1296039456
I0403 15:17:44.653381 12434 layer_factory.hpp:77] Creating layer inception_5a/3x3
I0403 15:17:44.653400 12434 net.cpp:91] Creating Layer inception_5a/3x3
I0403 15:17:44.653419 12434 net.cpp:425] inception_5a/3x3 <- inception_5a/3x3_reduce
I0403 15:17:44.653441 12434 net.cpp:399] inception_5a/3x3 -> inception_5a/3x3
I0403 15:17:44.658483 12434 net.cpp:141] Setting up inception_5a/3x3
I0403 15:17:44.658512 12434 net.cpp:148] Top shape: 24 320 7 7 (376320)
I0403 15:17:44.658529 12434 net.cpp:156] Memory required for data: 1297544736
I0403 15:17:44.658546 12434 layer_factory.hpp:77] Creating layer inception_5a/relu_3x3
I0403 15:17:44.658568 12434 net.cpp:91] Creating Layer inception_5a/relu_3x3
I0403 15:17:44.658586 12434 net.cpp:425] inception_5a/relu_3x3 <- inception_5a/3x3
I0403 15:17:44.658606 12434 net.cpp:386] inception_5a/relu_3x3 -> inception_5a/3x3 (in-place)
I0403 15:17:44.658902 12434 net.cpp:141] Setting up inception_5a/relu_3x3
I0403 15:17:44.658929 12434 net.cpp:148] Top shape: 24 320 7 7 (376320)
I0403 15:17:44.658946 12434 net.cpp:156] Memory required for data: 1299050016
I0403 15:17:44.658960 12434 layer_factory.hpp:77] Creating layer inception_5a/5x5_reduce
I0403 15:17:44.658985 12434 net.cpp:91] Creating Layer inception_5a/5x5_reduce
I0403 15:17:44.659004 12434 net.cpp:425] inception_5a/5x5_reduce <- pool4/3x3_s2_pool4/3x3_s2_0_split_2
I0403 15:17:44.659024 12434 net.cpp:399] inception_5a/5x5_reduce -> inception_5a/5x5_reduce
I0403 15:17:44.660215 12434 net.cpp:141] Setting up inception_5a/5x5_reduce
I0403 15:17:44.660246 12434 net.cpp:148] Top shape: 24 32 7 7 (37632)
I0403 15:17:44.660264 12434 net.cpp:156] Memory required for data: 1299200544
I0403 15:17:44.660282 12434 layer_factory.hpp:77] Creating layer inception_5a/relu_5x5_reduce
I0403 15:17:44.660301 12434 net.cpp:91] Creating Layer inception_5a/relu_5x5_reduce
I0403 15:17:44.660320 12434 net.cpp:425] inception_5a/relu_5x5_reduce <- inception_5a/5x5_reduce
I0403 15:17:44.660341 12434 net.cpp:386] inception_5a/relu_5x5_reduce -> inception_5a/5x5_reduce (in-place)
I0403 15:17:44.660640 12434 net.cpp:141] Setting up inception_5a/relu_5x5_reduce
I0403 15:17:44.660668 12434 net.cpp:148] Top shape: 24 32 7 7 (37632)
I0403 15:17:44.660684 12434 net.cpp:156] Memory required for data: 1299351072
I0403 15:17:44.660701 12434 layer_factory.hpp:77] Creating layer inception_5a/5x5
I0403 15:17:44.660722 12434 net.cpp:91] Creating Layer inception_5a/5x5
I0403 15:17:44.660742 12434 net.cpp:425] inception_5a/5x5 <- inception_5a/5x5_reduce
I0403 15:17:44.660763 12434 net.cpp:399] inception_5a/5x5 -> inception_5a/5x5
I0403 15:17:44.662525 12434 net.cpp:141] Setting up inception_5a/5x5
I0403 15:17:44.662565 12434 net.cpp:148] Top shape: 24 128 7 7 (150528)
I0403 15:17:44.662582 12434 net.cpp:156] Memory required for data: 1299953184
I0403 15:17:44.662602 12434 layer_factory.hpp:77] Creating layer inception_5a/relu_5x5
I0403 15:17:44.662623 12434 net.cpp:91] Creating Layer inception_5a/relu_5x5
I0403 15:17:44.662642 12434 net.cpp:425] inception_5a/relu_5x5 <- inception_5a/5x5
I0403 15:17:44.662659 12434 net.cpp:386] inception_5a/relu_5x5 -> inception_5a/5x5 (in-place)
I0403 15:17:44.662852 12434 net.cpp:141] Setting up inception_5a/relu_5x5
I0403 15:17:44.662878 12434 net.cpp:148] Top shape: 24 128 7 7 (150528)
I0403 15:17:44.662894 12434 net.cpp:156] Memory required for data: 1300555296
I0403 15:17:44.662909 12434 layer_factory.hpp:77] Creating layer inception_5a/pool
I0403 15:17:44.662926 12434 net.cpp:91] Creating Layer inception_5a/pool
I0403 15:17:44.662942 12434 net.cpp:425] inception_5a/pool <- pool4/3x3_s2_pool4/3x3_s2_0_split_3
I0403 15:17:44.662964 12434 net.cpp:399] inception_5a/pool -> inception_5a/pool
I0403 15:17:44.663038 12434 net.cpp:141] Setting up inception_5a/pool
I0403 15:17:44.663063 12434 net.cpp:148] Top shape: 24 832 7 7 (978432)
I0403 15:17:44.663077 12434 net.cpp:156] Memory required for data: 1304469024
I0403 15:17:44.663092 12434 layer_factory.hpp:77] Creating layer inception_5a/pool_proj
I0403 15:17:44.663120 12434 net.cpp:91] Creating Layer inception_5a/pool_proj
I0403 15:17:44.663151 12434 net.cpp:425] inception_5a/pool_proj <- inception_5a/pool
I0403 15:17:44.663172 12434 net.cpp:399] inception_5a/pool_proj -> inception_5a/pool_proj
I0403 15:17:44.665469 12434 net.cpp:141] Setting up inception_5a/pool_proj
I0403 15:17:44.665499 12434 net.cpp:148] Top shape: 24 128 7 7 (150528)
I0403 15:17:44.665516 12434 net.cpp:156] Memory required for data: 1305071136
I0403 15:17:44.665535 12434 layer_factory.hpp:77] Creating layer inception_5a/relu_pool_proj
I0403 15:17:44.665557 12434 net.cpp:91] Creating Layer inception_5a/relu_pool_proj
I0403 15:17:44.665576 12434 net.cpp:425] inception_5a/relu_pool_proj <- inception_5a/pool_proj
I0403 15:17:44.665594 12434 net.cpp:386] inception_5a/relu_pool_proj -> inception_5a/pool_proj (in-place)
I0403 15:17:44.665910 12434 net.cpp:141] Setting up inception_5a/relu_pool_proj
I0403 15:17:44.665935 12434 net.cpp:148] Top shape: 24 128 7 7 (150528)
I0403 15:17:44.665951 12434 net.cpp:156] Memory required for data: 1305673248
I0403 15:17:44.665966 12434 layer_factory.hpp:77] Creating layer inception_5a/output
I0403 15:17:44.665983 12434 net.cpp:91] Creating Layer inception_5a/output
I0403 15:17:44.666002 12434 net.cpp:425] inception_5a/output <- inception_5a/1x1
I0403 15:17:44.666018 12434 net.cpp:425] inception_5a/output <- inception_5a/3x3
I0403 15:17:44.666034 12434 net.cpp:425] inception_5a/output <- inception_5a/5x5
I0403 15:17:44.666050 12434 net.cpp:425] inception_5a/output <- inception_5a/pool_proj
I0403 15:17:44.666069 12434 net.cpp:399] inception_5a/output -> inception_5a/output
I0403 15:17:44.666120 12434 net.cpp:141] Setting up inception_5a/output
I0403 15:17:44.666147 12434 net.cpp:148] Top shape: 24 832 7 7 (978432)
I0403 15:17:44.666162 12434 net.cpp:156] Memory required for data: 1309586976
I0403 15:17:44.666177 12434 layer_factory.hpp:77] Creating layer inception_5a/output_inception_5a/output_0_split
I0403 15:17:44.666203 12434 net.cpp:91] Creating Layer inception_5a/output_inception_5a/output_0_split
I0403 15:17:44.666218 12434 net.cpp:425] inception_5a/output_inception_5a/output_0_split <- inception_5a/output
I0403 15:17:44.666239 12434 net.cpp:399] inception_5a/output_inception_5a/output_0_split -> inception_5a/output_inception_5a/output_0_split_0
I0403 15:17:44.666260 12434 net.cpp:399] inception_5a/output_inception_5a/output_0_split -> inception_5a/output_inception_5a/output_0_split_1
I0403 15:17:44.666280 12434 net.cpp:399] inception_5a/output_inception_5a/output_0_split -> inception_5a/output_inception_5a/output_0_split_2
I0403 15:17:44.666299 12434 net.cpp:399] inception_5a/output_inception_5a/output_0_split -> inception_5a/output_inception_5a/output_0_split_3
I0403 15:17:44.666410 12434 net.cpp:141] Setting up inception_5a/output_inception_5a/output_0_split
I0403 15:17:44.666436 12434 net.cpp:148] Top shape: 24 832 7 7 (978432)
I0403 15:17:44.666453 12434 net.cpp:148] Top shape: 24 832 7 7 (978432)
I0403 15:17:44.666470 12434 net.cpp:148] Top shape: 24 832 7 7 (978432)
I0403 15:17:44.666486 12434 net.cpp:148] Top shape: 24 832 7 7 (978432)
I0403 15:17:44.666499 12434 net.cpp:156] Memory required for data: 1325241888
I0403 15:17:44.666513 12434 layer_factory.hpp:77] Creating layer inception_5b/1x1
I0403 15:17:44.666540 12434 net.cpp:91] Creating Layer inception_5b/1x1
I0403 15:17:44.666558 12434 net.cpp:425] inception_5b/1x1 <- inception_5a/output_inception_5a/output_0_split_0
I0403 15:17:44.666580 12434 net.cpp:399] inception_5b/1x1 -> inception_5b/1x1
I0403 15:17:44.670331 12434 net.cpp:141] Setting up inception_5b/1x1
I0403 15:17:44.670359 12434 net.cpp:148] Top shape: 24 384 7 7 (451584)
I0403 15:17:44.670375 12434 net.cpp:156] Memory required for data: 1327048224
I0403 15:17:44.670393 12434 layer_factory.hpp:77] Creating layer inception_5b/relu_1x1
I0403 15:17:44.670414 12434 net.cpp:91] Creating Layer inception_5b/relu_1x1
I0403 15:17:44.670433 12434 net.cpp:425] inception_5b/relu_1x1 <- inception_5b/1x1
I0403 15:17:44.670449 12434 net.cpp:386] inception_5b/relu_1x1 -> inception_5b/1x1 (in-place)
I0403 15:17:44.670747 12434 net.cpp:141] Setting up inception_5b/relu_1x1
I0403 15:17:44.670773 12434 net.cpp:148] Top shape: 24 384 7 7 (451584)
I0403 15:17:44.670788 12434 net.cpp:156] Memory required for data: 1328854560
I0403 15:17:44.670802 12434 layer_factory.hpp:77] Creating layer inception_5b/3x3_reduce
I0403 15:17:44.670825 12434 net.cpp:91] Creating Layer inception_5b/3x3_reduce
I0403 15:17:44.670842 12434 net.cpp:425] inception_5b/3x3_reduce <- inception_5a/output_inception_5a/output_0_split_1
I0403 15:17:44.670866 12434 net.cpp:399] inception_5b/3x3_reduce -> inception_5b/3x3_reduce
I0403 15:17:44.673497 12434 net.cpp:141] Setting up inception_5b/3x3_reduce
I0403 15:17:44.673527 12434 net.cpp:148] Top shape: 24 192 7 7 (225792)
I0403 15:17:44.673543 12434 net.cpp:156] Memory required for data: 1329757728
I0403 15:17:44.673562 12434 layer_factory.hpp:77] Creating layer inception_5b/relu_3x3_reduce
I0403 15:17:44.673583 12434 net.cpp:91] Creating Layer inception_5b/relu_3x3_reduce
I0403 15:17:44.673599 12434 net.cpp:425] inception_5b/relu_3x3_reduce <- inception_5b/3x3_reduce
I0403 15:17:44.673617 12434 net.cpp:386] inception_5b/relu_3x3_reduce -> inception_5b/3x3_reduce (in-place)
I0403 15:17:44.673806 12434 net.cpp:141] Setting up inception_5b/relu_3x3_reduce
I0403 15:17:44.673835 12434 net.cpp:148] Top shape: 24 192 7 7 (225792)
I0403 15:17:44.673851 12434 net.cpp:156] Memory required for data: 1330660896
I0403 15:17:44.673866 12434 layer_factory.hpp:77] Creating layer inception_5b/3x3
I0403 15:17:44.673887 12434 net.cpp:91] Creating Layer inception_5b/3x3
I0403 15:17:44.673905 12434 net.cpp:425] inception_5b/3x3 <- inception_5b/3x3_reduce
I0403 15:17:44.673924 12434 net.cpp:399] inception_5b/3x3 -> inception_5b/3x3
I0403 15:17:44.683055 12434 net.cpp:141] Setting up inception_5b/3x3
I0403 15:17:44.683084 12434 net.cpp:148] Top shape: 24 384 7 7 (451584)
I0403 15:17:44.683100 12434 net.cpp:156] Memory required for data: 1332467232
I0403 15:17:44.683118 12434 layer_factory.hpp:77] Creating layer inception_5b/relu_3x3
I0403 15:17:44.683151 12434 net.cpp:91] Creating Layer inception_5b/relu_3x3
I0403 15:17:44.683171 12434 net.cpp:425] inception_5b/relu_3x3 <- inception_5b/3x3
I0403 15:17:44.683188 12434 net.cpp:386] inception_5b/relu_3x3 -> inception_5b/3x3 (in-place)
I0403 15:17:44.683500 12434 net.cpp:141] Setting up inception_5b/relu_3x3
I0403 15:17:44.683526 12434 net.cpp:148] Top shape: 24 384 7 7 (451584)
I0403 15:17:44.683542 12434 net.cpp:156] Memory required for data: 1334273568
I0403 15:17:44.683557 12434 layer_factory.hpp:77] Creating layer inception_5b/5x5_reduce
I0403 15:17:44.683595 12434 net.cpp:91] Creating Layer inception_5b/5x5_reduce
I0403 15:17:44.683617 12434 net.cpp:425] inception_5b/5x5_reduce <- inception_5a/output_inception_5a/output_0_split_2
I0403 15:17:44.683650 12434 net.cpp:399] inception_5b/5x5_reduce -> inception_5b/5x5_reduce
I0403 15:17:44.684933 12434 net.cpp:141] Setting up inception_5b/5x5_reduce
I0403 15:17:44.684962 12434 net.cpp:148] Top shape: 24 48 7 7 (56448)
I0403 15:17:44.684978 12434 net.cpp:156] Memory required for data: 1334499360
I0403 15:17:44.684995 12434 layer_factory.hpp:77] Creating layer inception_5b/relu_5x5_reduce
I0403 15:17:44.685016 12434 net.cpp:91] Creating Layer inception_5b/relu_5x5_reduce
I0403 15:17:44.685034 12434 net.cpp:425] inception_5b/relu_5x5_reduce <- inception_5b/5x5_reduce
I0403 15:17:44.685051 12434 net.cpp:386] inception_5b/relu_5x5_reduce -> inception_5b/5x5_reduce (in-place)
I0403 15:17:44.685434 12434 net.cpp:141] Setting up inception_5b/relu_5x5_reduce
I0403 15:17:44.685462 12434 net.cpp:148] Top shape: 24 48 7 7 (56448)
I0403 15:17:44.685477 12434 net.cpp:156] Memory required for data: 1334725152
I0403 15:17:44.685492 12434 layer_factory.hpp:77] Creating layer inception_5b/5x5
I0403 15:17:44.685513 12434 net.cpp:91] Creating Layer inception_5b/5x5
I0403 15:17:44.685531 12434 net.cpp:425] inception_5b/5x5 <- inception_5b/5x5_reduce
I0403 15:17:44.685550 12434 net.cpp:399] inception_5b/5x5 -> inception_5b/5x5
I0403 15:17:44.687619 12434 net.cpp:141] Setting up inception_5b/5x5
I0403 15:17:44.687661 12434 net.cpp:148] Top shape: 24 128 7 7 (150528)
I0403 15:17:44.687679 12434 net.cpp:156] Memory required for data: 1335327264
I0403 15:17:44.687697 12434 layer_factory.hpp:77] Creating layer inception_5b/relu_5x5
I0403 15:17:44.687714 12434 net.cpp:91] Creating Layer inception_5b/relu_5x5
I0403 15:17:44.687731 12434 net.cpp:425] inception_5b/relu_5x5 <- inception_5b/5x5
I0403 15:17:44.687748 12434 net.cpp:386] inception_5b/relu_5x5 -> inception_5b/5x5 (in-place)
I0403 15:17:44.687940 12434 net.cpp:141] Setting up inception_5b/relu_5x5
I0403 15:17:44.687966 12434 net.cpp:148] Top shape: 24 128 7 7 (150528)
I0403 15:17:44.687981 12434 net.cpp:156] Memory required for data: 1335929376
I0403 15:17:44.687996 12434 layer_factory.hpp:77] Creating layer inception_5b/pool
I0403 15:17:44.688014 12434 net.cpp:91] Creating Layer inception_5b/pool
I0403 15:17:44.688031 12434 net.cpp:425] inception_5b/pool <- inception_5a/output_inception_5a/output_0_split_3
I0403 15:17:44.688051 12434 net.cpp:399] inception_5b/pool -> inception_5b/pool
I0403 15:17:44.688123 12434 net.cpp:141] Setting up inception_5b/pool
I0403 15:17:44.688154 12434 net.cpp:148] Top shape: 24 832 7 7 (978432)
I0403 15:17:44.688171 12434 net.cpp:156] Memory required for data: 1339843104
I0403 15:17:44.688186 12434 layer_factory.hpp:77] Creating layer inception_5b/pool_proj
I0403 15:17:44.688210 12434 net.cpp:91] Creating Layer inception_5b/pool_proj
I0403 15:17:44.688230 12434 net.cpp:425] inception_5b/pool_proj <- inception_5b/pool
I0403 15:17:44.688248 12434 net.cpp:399] inception_5b/pool_proj -> inception_5b/pool_proj
I0403 15:17:44.690533 12434 net.cpp:141] Setting up inception_5b/pool_proj
I0403 15:17:44.690562 12434 net.cpp:148] Top shape: 24 128 7 7 (150528)
I0403 15:17:44.690578 12434 net.cpp:156] Memory required for data: 1340445216
I0403 15:17:44.690596 12434 layer_factory.hpp:77] Creating layer inception_5b/relu_pool_proj
I0403 15:17:44.690616 12434 net.cpp:91] Creating Layer inception_5b/relu_pool_proj
I0403 15:17:44.690634 12434 net.cpp:425] inception_5b/relu_pool_proj <- inception_5b/pool_proj
I0403 15:17:44.690652 12434 net.cpp:386] inception_5b/relu_pool_proj -> inception_5b/pool_proj (in-place)
I0403 15:17:44.690945 12434 net.cpp:141] Setting up inception_5b/relu_pool_proj
I0403 15:17:44.690973 12434 net.cpp:148] Top shape: 24 128 7 7 (150528)
I0403 15:17:44.690986 12434 net.cpp:156] Memory required for data: 1341047328
I0403 15:17:44.691001 12434 layer_factory.hpp:77] Creating layer inception_5b/output
I0403 15:17:44.691020 12434 net.cpp:91] Creating Layer inception_5b/output
I0403 15:17:44.691051 12434 net.cpp:425] inception_5b/output <- inception_5b/1x1
I0403 15:17:44.691069 12434 net.cpp:425] inception_5b/output <- inception_5b/3x3
I0403 15:17:44.691087 12434 net.cpp:425] inception_5b/output <- inception_5b/5x5
I0403 15:17:44.691102 12434 net.cpp:425] inception_5b/output <- inception_5b/pool_proj
I0403 15:17:44.691118 12434 net.cpp:399] inception_5b/output -> inception_5b/output
I0403 15:17:44.691177 12434 net.cpp:141] Setting up inception_5b/output
I0403 15:17:44.691203 12434 net.cpp:148] Top shape: 24 1024 7 7 (1204224)
I0403 15:17:44.691218 12434 net.cpp:156] Memory required for data: 1345864224
I0403 15:17:44.691233 12434 layer_factory.hpp:77] Creating layer pool5/7x7_s1
I0403 15:17:44.691252 12434 net.cpp:91] Creating Layer pool5/7x7_s1
I0403 15:17:44.691268 12434 net.cpp:425] pool5/7x7_s1 <- inception_5b/output
I0403 15:17:44.691288 12434 net.cpp:399] pool5/7x7_s1 -> pool5/7x7_s1
I0403 15:17:44.691516 12434 net.cpp:141] Setting up pool5/7x7_s1
I0403 15:17:44.691543 12434 net.cpp:148] Top shape: 24 1024 1 1 (24576)
I0403 15:17:44.691558 12434 net.cpp:156] Memory required for data: 1345962528
I0403 15:17:44.691575 12434 layer_factory.hpp:77] Creating layer pool5/drop_7x7_s1
I0403 15:17:44.691596 12434 net.cpp:91] Creating Layer pool5/drop_7x7_s1
I0403 15:17:44.691617 12434 net.cpp:425] pool5/drop_7x7_s1 <- pool5/7x7_s1
I0403 15:17:44.691647 12434 net.cpp:386] pool5/drop_7x7_s1 -> pool5/7x7_s1 (in-place)
I0403 15:17:44.691699 12434 net.cpp:141] Setting up pool5/drop_7x7_s1
I0403 15:17:44.691721 12434 net.cpp:148] Top shape: 24 1024 1 1 (24576)
I0403 15:17:44.691736 12434 net.cpp:156] Memory required for data: 1346060832
I0403 15:17:44.691751 12434 layer_factory.hpp:77] Creating layer loss3/classifier_plantvillage
I0403 15:17:44.691771 12434 net.cpp:91] Creating Layer loss3/classifier_plantvillage
I0403 15:17:44.691788 12434 net.cpp:425] loss3/classifier_plantvillage <- pool5/7x7_s1
I0403 15:17:44.691807 12434 net.cpp:399] loss3/classifier_plantvillage -> loss3/classifier_plantvillage
I0403 15:17:44.692226 12434 net.cpp:141] Setting up loss3/classifier_plantvillage
I0403 15:17:44.692251 12434 net.cpp:148] Top shape: 24 38 (912)
I0403 15:17:44.692265 12434 net.cpp:156] Memory required for data: 1346064480
I0403 15:17:44.692283 12434 layer_factory.hpp:77] Creating layer loss3/classifier_plantvillage_loss3/classifier_plantvillage_0_split
I0403 15:17:44.692302 12434 net.cpp:91] Creating Layer loss3/classifier_plantvillage_loss3/classifier_plantvillage_0_split
I0403 15:17:44.692317 12434 net.cpp:425] loss3/classifier_plantvillage_loss3/classifier_plantvillage_0_split <- loss3/classifier_plantvillage
I0403 15:17:44.692340 12434 net.cpp:399] loss3/classifier_plantvillage_loss3/classifier_plantvillage_0_split -> loss3/classifier_plantvillage_loss3/classifier_plantvillage_0_split_0
I0403 15:17:44.692361 12434 net.cpp:399] loss3/classifier_plantvillage_loss3/classifier_plantvillage_0_split -> loss3/classifier_plantvillage_loss3/classifier_plantvillage_0_split_1
I0403 15:17:44.692383 12434 net.cpp:399] loss3/classifier_plantvillage_loss3/classifier_plantvillage_0_split -> loss3/classifier_plantvillage_loss3/classifier_plantvillage_0_split_2
I0403 15:17:44.692404 12434 net.cpp:399] loss3/classifier_plantvillage_loss3/classifier_plantvillage_0_split -> loss3/classifier_plantvillage_loss3/classifier_plantvillage_0_split_3
I0403 15:17:44.692502 12434 net.cpp:141] Setting up loss3/classifier_plantvillage_loss3/classifier_plantvillage_0_split
I0403 15:17:44.692528 12434 net.cpp:148] Top shape: 24 38 (912)
I0403 15:17:44.692543 12434 net.cpp:148] Top shape: 24 38 (912)
I0403 15:17:44.692559 12434 net.cpp:148] Top shape: 24 38 (912)
I0403 15:17:44.692574 12434 net.cpp:148] Top shape: 24 38 (912)
I0403 15:17:44.692587 12434 net.cpp:156] Memory required for data: 1346079072
I0403 15:17:44.692601 12434 layer_factory.hpp:77] Creating layer loss1/loss
I0403 15:17:44.692623 12434 net.cpp:91] Creating Layer loss1/loss
I0403 15:17:44.692641 12434 net.cpp:425] loss1/loss <- loss1/classifier_plantvillage_loss1/classifier_plantvillage_0_split_0
I0403 15:17:44.692673 12434 net.cpp:425] loss1/loss <- label_data_1_split_0
…
