…
I0403 11:57:05.426877 11366 net.cpp:313] The NetState phase (0) differed from the phase (1) specified by a rule in layer loss3/top-5
I0403 11:57:05.430336 11366 net.cpp:49] Initializing net from parameters: 
state {
  phase: TRAIN
}
layer {
  name: "data"
  type: "Data"
  top: "data"
  top: "label"
  include {
    phase: TRAIN
  }
  transform_param {
    mirror: true
    crop_size: 224
    mean_file: "/home/mohanty/data/final_dataset/lmdb/color-50-50/mean.binaryproto"
  }
  data_param {
    source: "/home/mohanty/data/final_dataset/lmdb/color-50-50/train_db"
    batch_size: 24
    backend: LMDB
  }
}
layer {
  name: "conv1/7x7_s2"
  type: "Convolution"
  bottom: "data"
  top: "conv1/7x7_s2"
  param {
    lr_mult: 1
    decay_mult: 1
  }
  param {
    lr_mult: 2
    decay_mult: 0
  }
  convolution_param {
    num_output: 64
    pad: 3
    kernel_size: 7
    stride: 2
    weight_filler {
      type: "xavier"
      std: 0.1
    }
    bias_filler {
      type: "constant"
      value: 0.2
    }
  }
}
layer {
  name: "conv1/relu_7x7"
  type: "ReLU"
  bottom: "conv1/7x7_s2"
  top: "conv1/7x7_s2"
}
layer {
  name: "pool1/3x3_s2"
  type: "Pooling"
  bottom: "conv1/7x7_s2"
  top: "pool1/3x3_s2"
  pooling_param {
    pool: MAX
    kernel_size: 3
    stride: 2
  }
}
layer {
  name: "pool1/norm1"
  type: "LRN"
  bottom: "pool1/3x3_s2"
  top: "pool1/norm1"
  lrn_param {
    local_size: 5
    alpha: 0.0001
    beta: 0.75
  }
}
layer {
  name: "conv2/3x3_reduce"
  type: "Convolution"
  bottom: "pool1/norm1"
  top: "conv2/3x3_reduce"
  param {
    lr_mult: 1
    decay_mult: 1
  }
  param {
    lr_mult: 2
    decay_mult: 0
  }
  convolution_param {
    num_output: 64
    kernel_size: 1
    weight_filler {
      type: "xavier"
      std: 0.1
    }
    bias_filler {
      type: "constant"
      value: 0.2
    }
  }
}
layer {
  name: "conv2/relu_3x3_reduce"
  type: "ReLU"
  bottom: "conv2/3x3_reduce"
  top: "conv2/3x3_reduce"
}
layer {
  name: "conv2/3x3"
  type: "Convolution"
  bottom: "conv2/3x3_reduce"
  top: "conv2/3x3"
  param {
    lr_mult: 1
    decay_mult: 1
  }
  param {
    lr_mult: 2
    decay_mult: 0
  }
  convolution_param {
    num_output: 192
    pad: 1
    kernel_size: 3
    weight_filler {
      type: "xavier"
      std: 0.03
    }
    bias_filler {
      type: "constant"
      value: 0.2
    }
  }
}
layer {
  name: "conv2/relu_3x3"
  type: "ReLU"
  bottom: "conv2/3x3"
  top: "conv2/3x3"
}
layer {
  name: "conv2/norm2"
  type: "LRN"
  bottom: "conv2/3x3"
  top: "conv2/norm2"
  lrn_param {
    local_size: 5
    alpha: 0.0001
    beta: 0.75
  }
}
layer {
  name: "pool2/3x3_s2"
  type: "Pooling"
  bottom: "conv2/norm2"
  top: "pool2/3x3_s2"
  pooling_param {
    pool: MAX
    kernel_size: 3
    stride: 2
  }
}
layer {
  name: "inception_3a/1x1"
  type: "Convolution"
  bottom: "pool2/3x3_s2"
  top: "inception_3a/1x1"
  param {
    lr_mult: 1
    decay_mult: 1
  }
  param {
    lr_mult: 2
    decay_mult: 0
  }
  convolution_param {
    num_output: 64
    kernel_size: 1
    weight_filler {
      type: "xavier"
      std: 0.03
    }
    bias_filler {
      type: "constant"
      value: 0.2
    }
  }
}
layer {
  name: "inception_3a/relu_1x1"
  type: "ReLU"
  bottom: "inception_3a/1x1"
  top: "inception_3a/1x1"
}
layer {
  name: "inception_3a/3x3_reduce"
  type: "Convolution"
  bottom: "pool2/3x3_s2"
  top: "inception_3a/3x3_reduce"
  param {
    lr_mult: 1
    decay_mult: 1
  }
  param {
    lr_mult: 2
    decay_mult: 0
  }
  convolution_param {
    num_output: 96
    kernel_size: 1
    weight_filler {
      type: "xavier"
      std: 0.09
    }
    bias_filler {
      type: "constant"
      value: 0.2
    }
  }
}
layer {
  name: "inception_3a/relu_3x3_reduce"
  type: "ReLU"
  bottom: "inception_3a/3x3_reduce"
  top: "inception_3a/3x3_reduce"
}
layer {
  name: "inception_3a/3x3"
  type: "Convolution"
  bottom: "inception_3a/3x3_reduce"
  top: "inception_3a/3x3"
  param {
    lr_mult: 1
    decay_mult: 1
  }
  param {
    lr_mult: 2
    decay_mult: 0
  }
  convolution_param {
    num_output: 128
    pad: 1
    kernel_size: 3
    weight_filler {
      type: "xavier"
      std: 0.03
    }
    bias_filler {
      type: "constant"
      value: 0.2
    }
  }
}
layer {
  name: "inception_3a/relu_3x3"
  type: "ReLU"
  bottom: "inception_3a/3x3"
  top: "inception_3a/3x3"
}
layer {
  name: "inception_3a/5x5_reduce"
  type: "Convolution"
  bottom: "pool2/3x3_s2"
  top: "inception_3a/5x5_reduce"
  param {
    lr_mult: 1
    decay_mult: 1
  }
  param {
    lr_mult: 2
    decay_mult: 0
  }
  convolution_param {
    num_output: 16
    kernel_size: 1
    weight_filler {
      type: "xavier"
      std: 0.2
    }
    bias_filler {
      type: "constant"
      value: 0.2
    }
  }
}
layer {
  name: "inception_3a/relu_5x5_reduce"
  type: "ReLU"
  bottom: "inception_3a/5x5_reduce"
  top: "inception_3a/5x5_reduce"
}
layer {
  name: "inception_3a/5x5"
  type: "Convolution"
  bottom: "inception_3a/5x5_reduce"
  top: "inception_3a/5x5"
  param {
    lr_mult: 1
    decay_mult: 1
  }
  param {
    lr_mult: 2
    decay_mult: 0
  }
  convolution_param {
    num_output: 32
    pad: 2
    kernel_size: 5
    weight_filler {
      type: "xavier"
      std: 0.03
    }
    bias_filler {
      type: "constant"
      value: 0.2
    }
  }
}
layer {
  name: "inception_3a/relu_5x5"
  type: "ReLU"
  bottom: "inception_3a/5x5"
  top: "inception_3a/5x5"
}
layer {
  name: "inception_3a/pool"
  type: "Pooling"
  bottom: "pool2/3x3_s2"
  top: "inception_3a/pool"
  pooling_param {
    pool: MAX
    kernel_size: 3
    stride: 1
    pad: 1
  }
}
layer {
  name: "inception_3a/pool_proj"
  type: "Convolution"
  bottom: "inception_3a/pool"
  top: "inception_3a/pool_proj"
  param {
    lr_mult: 1
    decay_mult: 1
  }
  param {
    lr_mult: 2
    decay_mult: 0
  }
  convolution_param {
    num_output: 32
    kernel_size: 1
    weight_filler {
      type: "xavier"
      std: 0.1
    }
    bias_filler {
      type: "constant"
      value: 0.2
    }
  }
}
layer {
  name: "inception_3a/relu_pool_proj"
  type: "ReLU"
  bottom: "inception_3a/pool_proj"
  top: "inception_3a/pool_proj"
}
layer {
  name: "inception_3a/output"
  type: "Concat"
  bottom: "inception_3a/1x1"
  bottom: "inception_3a/3x3"
  bottom: "inception_3a/5x5"
  bottom: "inception_3a/pool_proj"
  top: "inception_3a/output"
}
layer {
  name: "inception_3b/1x1"
  type: "Convolution"
  bottom: "inception_3a/output"
  top: "inception_3b/1x1"
  param {
    lr_mult: 1
    decay_mult: 1
  }
  param {
    lr_mult: 2
    decay_mult: 0
  }
  convolution_param {
    num_output: 128
    kernel_size: 1
    weight_filler {
      type: "xavier"
      std: 0.03
    }
    bias_filler {
      type: "constant"
      value: 0.2
    }
  }
}
layer {
  name: "inception_3b/relu_1x1"
  type: "ReLU"
  bottom: "inception_3b/1x1"
  top: "inception_3b/1x1"
}
layer {
  name: "inception_3b/3x3_reduce"
  type: "Convolution"
  bottom: "inception_3a/output"
  top: "inception_3b/3x3_reduce"
  param {
    lr_mult: 1
    decay_mult: 1
  }
  param {
    lr_mult: 2
    decay_mult: 0
  }
  convolution_param {
    num_output: 128
    kernel_size: 1
    weight_filler {
      type: "xavier"
      std: 0.09
    }
    bias_filler {
      type: "constant"
      value: 0.2
    }
  }
}
layer {
  name: "inception_3b/relu_3x3_reduce"
  type: "ReLU"
  bottom: "inception_3b/3x3_reduce"
  top: "inception_3b/3x3_reduce"
}
layer {
  name: "inception_3b/3x3"
  type: "Convolution"
  bottom: "inception_3b/3x3_reduce"
  top: "inception_3b/3x3"
  param {
    lr_mult: 1
    decay_mult: 1
  }
  param {
    lr_mult: 2
    decay_mult: 0
  }
  convolution_param {
    num_output: 192
    pad: 1
    kernel_size: 3
    weight_filler {
      type: "xavier"
      std: 0.03
    }
    bias_filler {
      type: "constant"
      value: 0.2
    }
  }
}
layer {
  name: "inception_3b/relu_3x3"
  type: "ReLU"
  bottom: "inception_3b/3x3"
  top: "inception_3b/3x3"
}
layer {
  name: "inception_3b/5x5_reduce"
  type: "Convolution"
  bottom: "inception_3a/output"
  top: "inception_3b/5x5_reduce"
  param {
    lr_mult: 1
    decay_mult: 1
  }
  param {
    lr_mult: 2
    decay_mult: 0
  }
  convolution_param {
    num_output: 32
    kernel_size: 1
    weight_filler {
      type: "xavier"
      std: 0.2
    }
    bias_filler {
      type: "constant"
      value: 0.2
    }
  }
}
layer {
  name: "inception_3b/relu_5x5_reduce"
  type: "ReLU"
  bottom: "inception_3b/5x5_reduce"
  top: "inception_3b/5x5_reduce"
}
layer {
  name: "inception_3b/5x5"
  type: "Convolution"
  bottom: "inception_3b/5x5_reduce"
  top: "inception_3b/5x5"
  param {
    lr_mult: 1
    decay_mult: 1
  }
  param {
    lr_mult: 2
    decay_mult: 0
  }
  convolution_param {
    num_output: 96
    pad: 2
    kernel_size: 5
    weight_filler {
      type: "xavier"
      std: 0.03
    }
    bias_filler {
      type: "constant"
      value: 0.2
    }
  }
}
layer {
  name: "inception_3b/relu_5x5"
  type: "ReLU"
  bottom: "inception_3b/5x5"
  top: "inception_3b/5x5"
}
layer {
  name: "inception_3b/pool"
  type: "Pooling"
  bottom: "inception_3a/output"
  top: "inception_3b/pool"
  pooling_param {
    pool: MAX
    kernel_size: 3
    stride: 1
    pad: 1
  }
}
layer {
  name: "inception_3b/pool_proj"
  type: "Convolution"
  bottom: "inception_3b/pool"
  top: "inception_3b/pool_proj"
  param {
    lr_mult: 1
    decay_mult: 1
  }
  param {
    lr_mult: 2
    decay_mult: 0
  }
  convolution_param {
    num_output: 64
    kernel_size: 1
    weight_filler {
      type: "xavier"
      std: 0.1
    }
    bias_filler {
      type: "constant"
      value: 0.2
    }
  }
}
layer {
  name: "inception_3b/relu_pool_proj"
  type: "ReLU"
  bottom: "inception_3b/pool_proj"
  top: "inception_3b/pool_proj"
}
layer {
  name: "inception_3b/output"
  type: "Concat"
  bottom: "inception_3b/1x1"
  bottom: "inception_3b/3x3"
  bottom: "inception_3b/5x5"
  bottom: "inception_3b/pool_proj"
  top: "inception_3b/output"
}
layer {
  name: "pool3/3x3_s2"
  type: "Pooling"
  bottom: "inception_3b/output"
  top: "pool3/3x3_s2"
  pooling_param {
    pool: MAX
    kernel_size: 3
    stride: 2
  }
}
layer {
  name: "inception_4a/1x1"
  type: "Convolution"
  bottom: "pool3/3x3_s2"
  top: "inception_4a/1x1"
  param {
    lr_mult: 1
    decay_mult: 1
  }
  param {
    lr_mult: 2
    decay_mult: 0
  }
  convolution_param {
    num_output: 192
    kernel_size: 1
    weight_filler {
      type: "xavier"
      std: 0.03
    }
    bias_filler {
      type: "constant"
      value: 0.2
    }
  }
}
layer {
  name: "inception_4a/relu_1x1"
  type: "ReLU"
  bottom: "inception_4a/1x1"
  top: "inception_4a/1x1"
}
layer {
  name: "inception_4a/3x3_reduce"
  type: "Convolution"
  bottom: "pool3/3x3_s2"
  top: "inception_4a/3x3_reduce"
  param {
    lr_mult: 1
    decay_mult: 1
  }
  param {
    lr_mult: 2
    decay_mult: 0
  }
  convolution_param {
    num_output: 96
    kernel_size: 1
    weight_filler {
      type: "xavier"
      std: 0.09
    }
    bias_filler {
      type: "constant"
      value: 0.2
    }
  }
}
layer {
  name: "inception_4a/relu_3x3_reduce"
  type: "ReLU"
  bottom: "inception_4a/3x3_reduce"
  top: "inception_4a/3x3_reduce"
}
layer {
  name: "inception_4a/3x3"
  type: "Convolution"
  bottom: "inception_4a/3x3_reduce"
  top: "inception_4a/3x3"
  param {
    lr_mult: 1
    decay_mult: 1
  }
  param {
    lr_mult: 2
    decay_mult: 0
  }
  convolution_param {
    num_output: 208
    pad: 1
    kernel_size: 3
    weight_filler {
      type: "xavier"
      std: 0.03
    }
    bias_filler {
      type: "constant"
      value: 0.2
    }
  }
}
layer {
  name: "inception_4a/relu_3x3"
  type: "ReLU"
  bottom: "inception_4a/3x3"
  top: "inception_4a/3x3"
}
layer {
  name: "inception_4a/5x5_reduce"
  type: "Convolution"
  bottom: "pool3/3x3_s2"
  top: "inception_4a/5x5_reduce"
  param {
    lr_mult: 1
    decay_mult: 1
  }
  param {
    lr_mult: 2
    decay_mult: 0
  }
  convolution_param {
    num_output: 16
    kernel_size: 1
    weight_filler {
      type: "xavier"
      std: 0.2
    }
    bias_filler {
      type: "constant"
      value: 0.2
    }
  }
}
layer {
  name: "inception_4a/relu_5x5_reduce"
  type: "ReLU"
  bottom: "inception_4a/5x5_reduce"
  top: "inception_4a/5x5_reduce"
}
layer {
  name: "inception_4a/5x5"
  type: "Convolution"
  bottom: "inception_4a/5x5_reduce"
  top: "inception_4a/5x5"
  param {
    lr_mult: 1
    decay_mult: 1
  }
  param {
    lr_mult: 2
    decay_mult: 0
  }
  convolution_param {
    num_output: 48
    pad: 2
    kernel_size: 5
    weight_filler {
      type: "xavier"
      std: 0.03
    }
    bias_filler {
      type: "constant"
      value: 0.2
    }
  }
}
layer {
  name: "inception_4a/relu_5x5"
  type: "ReLU"
  bottom: "inception_4a/5x5"
  top: "inception_4a/5x5"
}
layer {
  name: "inception_4a/pool"
  type: "Pooling"
  bottom: "pool3/3x3_s2"
  top: "inception_4a/pool"
  pooling_param {
    pool: MAX
    kernel_size: 3
    stride: 1
    pad: 1
  }
}
layer {
  name: "inception_4a/pool_proj"
  type: "Convolution"
  bottom: "inception_4a/pool"
  top: "inception_4a/pool_proj"
  param {
    lr_mult: 1
    decay_mult: 1
  }
  param {
    lr_mult: 2
    decay_mult: 0
  }
  convolution_param {
    num_output: 64
    kernel_size: 1
    weight_filler {
      type: "xavier"
      std: 0.1
    }
    bias_filler {
      type: "constant"
      value: 0.2
    }
  }
}
layer {
  name: "inception_4a/relu_pool_proj"
  type: "ReLU"
  bottom: "inception_4a/pool_proj"
  top: "inception_4a/pool_proj"
}
layer {
  name: "inception_4a/output"
  type: "Concat"
  bottom: "inception_4a/1x1"
  bottom: "inception_4a/3x3"
  bottom: "inception_4a/5x5"
  bottom: "inception_4a/pool_proj"
  top: "inception_4a/output"
}
layer {
  name: "loss1/ave_pool"
  type: "Pooling"
  bottom: "inception_4a/output"
  top: "loss1/ave_pool"
  pooling_param {
    pool: AVE
    kernel_size: 5
    stride: 3
  }
}
layer {
  name: "loss1/conv"
  type: "Convolution"
  bottom: "loss1/ave_pool"
  top: "loss1/conv"
  param {
    lr_mult: 1
    decay_mult: 1
  }
  param {
    lr_mult: 2
    decay_mult: 0
  }
  convolution_param {
    num_output: 128
    kernel_size: 1
    weight_filler {
      type: "xavier"
      std: 0.08
    }
    bias_filler {
      type: "constant"
      value: 0.2
    }
  }
}
layer {
  name: "loss1/relu_conv"
  type: "ReLU"
  bottom: "loss1/conv"
  top: "loss1/conv"
}
layer {
  name: "loss1/fc"
  type: "InnerProduct"
  bottom: "loss1/conv"
  top: "loss1/fc"
  param {
    lr_mult: 1
    decay_mult: 1
  }
  param {
    lr_mult: 2
    decay_mult: 0
  }
  inner_product_param {
    num_output: 1024
    weight_filler {
      type: "xavier"
      std: 0.02
    }
    bias_filler {
      type: "constant"
      value: 0.2
    }
  }
}
layer {
  name: "loss1/relu_fc"
  type: "ReLU"
  bottom: "loss1/fc"
  top: "loss1/fc"
}
layer {
  name: "loss1/drop_fc"
  type: "Dropout"
  bottom: "loss1/fc"
  top: "loss1/fc"
  dropout_param {
    dropout_ratio: 0.7
  }
}
layer {
  name: "loss1/classifier_plantvillage"
  type: "InnerProduct"
  bottom: "loss1/fc"
  top: "loss1/classifier_plantvillage"
  param {
    lr_mult: 1
    decay_mult: 1
  }
  param {
    lr_mult: 2
    decay_mult: 0
  }
  inner_product_param {
    num_output: 38
    weight_filler {
      type: "xavier"
      std: 0.0009765625
    }
    bias_filler {
      type: "constant"
      value: 0
    }
  }
}
layer {
  name: "inception_4b/1x1"
  type: "Convolution"
  bottom: "inception_4a/output"
  top: "inception_4b/1x1"
  param {
    lr_mult: 1
    decay_mult: 1
  }
  param {
    lr_mult: 2
    decay_mult: 0
  }
  convolution_param {
    num_output: 160
    kernel_size: 1
    weight_filler {
      type: "xavier"
      std: 0.03
    }
    bias_filler {
      type: "constant"
      value: 0.2
    }
  }
}
layer {
  name: "inception_4b/relu_1x1"
  type: "ReLU"
  bottom: "inception_4b/1x1"
  top: "inception_4b/1x1"
}
layer {
  name: "inception_4b/3x3_reduce"
  type: "Convolution"
  bottom: "inception_4a/output"
  top: "inception_4b/3x3_reduce"
  param {
    lr_mult: 1
    decay_mult: 1
  }
  param {
    lr_mult: 2
    decay_mult: 0
  }
  convolution_param {
    num_output: 112
    kernel_size: 1
    weight_filler {
      type: "xavier"
      std: 0.09
    }
    bias_filler {
      type: "constant"
      value: 0.2
    }
  }
}
layer {
  name: "inception_4b/relu_3x3_reduce"
  type: "ReLU"
  bottom: "inception_4b/3x3_reduce"
  top: "inception_4b/3x3_reduce"
}
layer {
  name: "inception_4b/3x3"
  type: "Convolution"
  bottom: "inception_4b/3x3_reduce"
  top: "inception_4b/3x3"
  param {
    lr_mult: 1
    decay_mult: 1
  }
  param {
    lr_mult: 2
    decay_mult: 0
  }
  convolution_param {
    num_output: 224
    pad: 1
    kernel_size: 3
    weight_filler {
      type: "xavier"
      std: 0.03
    }
    bias_filler {
      type: "constant"
      value: 0.2
    }
  }
}
layer {
  name: "inception_4b/relu_3x3"
  type: "ReLU"
  bottom: "inception_4b/3x3"
  top: "inception_4b/3x3"
}
layer {
  name: "inception_4b/5x5_reduce"
  type: "Convolution"
  bottom: "inception_4a/output"
  top: "inception_4b/5x5_reduce"
  param {
    lr_mult: 1
    decay_mult: 1
  }
  param {
    lr_mult: 2
    decay_mult: 0
  }
  convolution_param {
    num_output: 24
    kernel_size: 1
    weight_filler {
      type: "xavier"
      std: 0.2
    }
    bias_filler {
      type: "constant"
      value: 0.2
    }
  }
}
layer {
  name: "inception_4b/relu_5x5_reduce"
  type: "ReLU"
  bottom: "inception_4b/5x5_reduce"
  top: "inception_4b/5x5_reduce"
}
layer {
  name: "inception_4b/5x5"
  type: "Convolution"
  bottom: "inception_4b/5x5_reduce"
  top: "inception_4b/5x5"
  param {
    lr_mult: 1
    decay_mult: 1
  }
  param {
    lr_mult: 2
    decay_mult: 0
  }
  convolution_param {
    num_output: 64
    pad: 2
    kernel_size: 5
    weight_filler {
      type: "xavier"
      std: 0.03
    }
    bias_filler {
      type: "constant"
      value: 0.2
    }
  }
}
layer {
  name: "inception_4b/relu_5x5"
  type: "ReLU"
  bottom: "inception_4b/5x5"
  top: "inception_4b/5x5"
}
layer {
  name: "inception_4b/pool"
  type: "Pooling"
  bottom: "inception_4a/output"
  top: "inception_4b/pool"
  pooling_param {
    pool: MAX
    kernel_size: 3
    stride: 1
    pad: 1
  }
}
layer {
  name: "inception_4b/pool_proj"
  type: "Convolution"
  bottom: "inception_4b/pool"
  top: "inception_4b/pool_proj"
  param {
    lr_mult: 1
    decay_mult: 1
  }
  param {
    lr_mult: 2
    decay_mult: 0
  }
  convolution_param {
    num_output: 64
    kernel_size: 1
    weight_filler {
      type: "xavier"
      std: 0.1
    }
    bias_filler {
      type: "constant"
      value: 0.2
    }
  }
}
layer {
  name: "inception_4b/relu_pool_proj"
  type: "ReLU"
  bottom: "inception_4b/pool_proj"
  top: "inception_4b/pool_proj"
}
layer {
  name: "inception_4b/output"
  type: "Concat"
  bottom: "inception_4b/1x1"
  bottom: "inception_4b/3x3"
  bottom: "inception_4b/5x5"
  bottom: "inception_4b/pool_proj"
  top: "inception_4b/output"
}
layer {
  name: "inception_4c/1x1"
  type: "Convolution"
  bottom: "inception_4b/output"
  top: "inception_4c/1x1"
  param {
    lr_mult: 1
    decay_mult: 1
  }
  param {
    lr_mult: 2
    decay_mult: 0
  }
  convolution_param {
    num_output: 128
    kernel_size: 1
    weight_filler {
      type: "xavier"
      std: 0.03
    }
    bias_filler {
      type: "constant"
      value: 0.2
    }
  }
}
layer {
  name: "inception_4c/relu_1x1"
  type: "ReLU"
  bottom: "inception_4c/1x1"
  top: "inception_4c/1x1"
}
layer {
  name: "inception_4c/3x3_reduce"
  type: "Convolution"
  bottom: "inception_4b/output"
  top: "inception_4c/3x3_reduce"
  param {
    lr_mult: 1
    decay_mult: 1
  }
  param {
    lr_mult: 2
    decay_mult: 0
  }
  convolution_param {
    num_output: 128
    kernel_size: 1
    weight_filler {
      type: "xavier"
      std: 0.09
    }
    bias_filler {
      type: "constant"
      value: 0.2
    }
  }
}
layer {
  name: "inception_4c/relu_3x3_reduce"
  type: "ReLU"
  bottom: "inception_4c/3x3_reduce"
  top: "inception_4c/3x3_reduce"
}
layer {
  name: "inception_4c/3x3"
  type: "Convolution"
  bottom: "inception_4c/3x3_reduce"
  top: "inception_4c/3x3"
  param {
    lr_mult: 1
    decay_mult: 1
  }
  param {
    lr_mult: 2
    decay_mult: 0
  }
  convolution_param {
    num_output: 256
    pad: 1
    kernel_size: 3
    weight_filler {
      type: "xavier"
      std: 0.03
    }
    bias_filler {
      type: "constant"
      value: 0.2
    }
  }
}
layer {
  name: "inception_4c/relu_3x3"
  type: "ReLU"
  bottom: "inception_4c/3x3"
  top: "inception_4c/3x3"
}
layer {
  name: "inception_4c/5x5_reduce"
  type: "Convolution"
  bottom: "inception_4b/output"
  top: "inception_4c/5x5_reduce"
  param {
    lr_mult: 1
    decay_mult: 1
  }
  param {
    lr_mult: 2
    decay_mult: 0
  }
  convolution_param {
    num_output: 24
    kernel_size: 1
    weight_filler {
      type: "xavier"
      std: 0.2
    }
    bias_filler {
      type: "constant"
      value: 0.2
    }
  }
}
layer {
  name: "inception_4c/relu_5x5_reduce"
  type: "ReLU"
  bottom: "inception_4c/5x5_reduce"
  top: "inception_4c/5x5_reduce"
}
layer {
  name: "inception_4c/5x5"
  type: "Convolution"
  bottom: "inception_4c/5x5_reduce"
  top: "inception_4c/5x5"
  param {
    lr_mult: 1
    decay_mult: 1
  }
  param {
    lr_mult: 2
    decay_mult: 0
  }
  convolution_param {
    num_output: 64
    pad: 2
    kernel_size: 5
    weight_filler {
      type: "xavier"
      std: 0.03
    }
    bias_filler {
      type: "constant"
      value: 0.2
    }
  }
}
layer {
  name: "inception_4c/relu_5x5"
  type: "ReLU"
  bottom: "inception_4c/5x5"
  top: "inception_4c/5x5"
}
layer {
  name: "inception_4c/pool"
  type: "Pooling"
  bottom: "inception_4b/output"
  top: "inception_4c/pool"
  pooling_param {
    pool: MAX
    kernel_size: 3
    stride: 1
    pad: 1
  }
}
layer {
  name: "inception_4c/pool_proj"
  type: "Convolution"
  bottom: "inception_4c/pool"
  top: "inception_4c/pool_proj"
  param {
    lr_mult: 1
    decay_mult: 1
  }
  param {
    lr_mult: 2
    decay_mult: 0
  }
  convolution_param {
    num_output: 64
    kernel_size: 1
    weight_filler {
      type: "xavier"
      std: 0.1
    }
    bias_filler {
      type: "constant"
      value: 0.2
    }
  }
}
layer {
  name: "inception_4c/relu_pool_proj"
  type: "ReLU"
  bottom: "inception_4c/pool_proj"
  top: "inception_4c/pool_proj"
}
layer {
  name: "inception_4c/output"
  type: "Concat"
  bottom: "inception_4c/1x1"
  bottom: "inception_4c/3x3"
  bottom: "inception_4c/5x5"
  bottom: "inception_4c/pool_proj"
  top: "inception_4c/output"
}
layer {
  name: "inception_4d/1x1"
  type: "Convolution"
  bottom: "inception_4c/output"
  top: "inception_4d/1x1"
  param {
    lr_mult: 1
    decay_mult: 1
  }
  param {
    lr_mult: 2
    decay_mult: 0
  }
  convolution_param {
    num_output: 112
    kernel_size: 1
    weight_filler {
      type: "xavier"
      std: 0.03
    }
    bias_filler {
      type: "constant"
      value: 0.2
    }
  }
}
layer {
  name: "inception_4d/relu_1x1"
  type: "ReLU"
  bottom: "inception_4d/1x1"
  top: "inception_4d/1x1"
}
layer {
  name: "inception_4d/3x3_reduce"
  type: "Convolution"
  bottom: "inception_4c/output"
  top: "inception_4d/3x3_reduce"
  param {
    lr_mult: 1
    decay_mult: 1
  }
  param {
    lr_mult: 2
    decay_mult: 0
  }
  convolution_param {
    num_output: 144
    kernel_size: 1
    weight_filler {
      type: "xavier"
      std: 0.09
    }
    bias_filler {
      type: "constant"
      value: 0.2
    }
  }
}
layer {
  name: "inception_4d/relu_3x3_reduce"
  type: "ReLU"
  bottom: "inception_4d/3x3_reduce"
  top: "inception_4d/3x3_reduce"
}
layer {
  name: "inception_4d/3x3"
  type: "Convolution"
  bottom: "inception_4d/3x3_reduce"
  top: "inception_4d/3x3"
  param {
    lr_mult: 1
    decay_mult: 1
  }
  param {
    lr_mult: 2
    decay_mult: 0
  }
  convolution_param {
    num_output: 288
    pad: 1
    kernel_size: 3
    weight_filler {
      type: "xavier"
      std: 0.03
    }
    bias_filler {
      type: "constant"
      value: 0.2
    }
  }
}
layer {
  name: "inception_4d/relu_3x3"
  type: "ReLU"
  bottom: "inception_4d/3x3"
  top: "inception_4d/3x3"
}
layer {
  name: "inception_4d/5x5_reduce"
  type: "Convolution"
  bottom: "inception_4c/output"
  top: "inception_4d/5x5_reduce"
  param {
    lr_mult: 1
    decay_mult: 1
  }
  param {
    lr_mult: 2
    decay_mult: 0
  }
  convolution_param {
    num_output: 32
    kernel_size: 1
    weight_filler {
      type: "xavier"
      std: 0.2
    }
    bias_filler {
      type: "constant"
      value: 0.2
    }
  }
}
layer {
  name: "inception_4d/relu_5x5_reduce"
  type: "ReLU"
  bottom: "inception_4d/5x5_reduce"
  top: "inception_4d/5x5_reduce"
}
layer {
  name: "inception_4d/5x5"
  type: "Convolution"
  bottom: "inception_4d/5x5_reduce"
  top: "inception_4d/5x5"
  param {
    lr_mult: 1
    decay_mult: 1
  }
  param {
    lr_mult: 2
    decay_mult: 0
  }
  convolution_param {
    num_output: 64
    pad: 2
    kernel_size: 5
    weight_filler {
      type: "xavier"
      std: 0.03
    }
    bias_filler {
      type: "constant"
      value: 0.2
    }
  }
}
layer {
  name: "inception_4d/relu_5x5"
  type: "ReLU"
  bottom: "inception_4d/5x5"
  top: "inception_4d/5x5"
}
layer {
  name: "inception_4d/pool"
  type: "Pooling"
  bottom: "inception_4c/output"
  top: "inception_4d/pool"
  pooling_param {
    pool: MAX
    kernel_size: 3
    stride: 1
    pad: 1
  }
}
layer {
  name: "inception_4d/pool_proj"
  type: "Convolution"
  bottom: "inception_4d/pool"
  top: "inception_4d/pool_proj"
  param {
    lr_mult: 1
    decay_mult: 1
  }
  param {
    lr_mult: 2
    decay_mult: 0
  }
  convolution_param {
    num_output: 64
    kernel_size: 1
    weight_filler {
      type: "xavier"
      std: 0.1
    }
    bias_filler {
      type: "constant"
      value: 0.2
    }
  }
}
layer {
  name: "inception_4d/relu_pool_proj"
  type: "ReLU"
  bottom: "inception_4d/pool_proj"
  top: "inception_4d/pool_proj"
}
layer {
  name: "inception_4d/output"
  type: "Concat"
  bottom: "inception_4d/1x1"
  bottom: "inception_4d/3x3"
  bottom: "inception_4d/5x5"
  bottom: "inception_4d/pool_proj"
  top: "inception_4d/output"
}
layer {
  name: "loss2/ave_pool"
  type: "Pooling"
  bottom: "inception_4d/output"
  top: "loss2/ave_pool"
  pooling_param {
    pool: AVE
    kernel_size: 5
    stride: 3
  }
}
layer {
  name: "loss2/conv"
  type: "Convolution"
  bottom: "loss2/ave_pool"
  top: "loss2/conv"
  param {
    lr_mult: 1
    decay_mult: 1
  }
  param {
    lr_mult: 2
    decay_mult: 0
  }
  convolution_param {
    num_output: 128
    kernel_size: 1
    weight_filler {
      type: "xavier"
      std: 0.08
    }
    bias_filler {
      type: "constant"
      value: 0.2
    }
  }
}
layer {
  name: "loss2/relu_conv"
  type: "ReLU"
  bottom: "loss2/conv"
  top: "loss2/conv"
}
layer {
  name: "loss2/fc"
  type: "InnerProduct"
  bottom: "loss2/conv"
  top: "loss2/fc"
  param {
    lr_mult: 1
    decay_mult: 1
  }
  param {
    lr_mult: 2
    decay_mult: 0
  }
  inner_product_param {
    num_output: 1024
    weight_filler {
      type: "xavier"
      std: 0.02
    }
    bias_filler {
      type: "constant"
      value: 0.2
    }
  }
}
layer {
  name: "loss2/relu_fc"
  type: "ReLU"
  bottom: "loss2/fc"
  top: "loss2/fc"
}
layer {
  name: "loss2/drop_fc"
  type: "Dropout"
  bottom: "loss2/fc"
  top: "loss2/fc"
  dropout_param {
    dropout_ratio: 0.7
  }
}
layer {
  name: "loss2/classifier_plantvillage"
  type: "InnerProduct"
  bottom: "loss2/fc"
  top: "loss2/classifier_plantvillage"
  param {
    lr_mult: 1
    decay_mult: 1
  }
  param {
    lr_mult: 2
    decay_mult: 0
  }
  inner_product_param {
    num_output: 38
    weight_filler {
      type: "xavier"
      std: 0.0009765625
    }
    bias_filler {
      type: "constant"
      value: 0
    }
  }
}
layer {
  name: "inception_4e/1x1"
  type: "Convolution"
  bottom: "inception_4d/output"
  top: "inception_4e/1x1"
  param {
    lr_mult: 1
    decay_mult: 1
  }
  param {
    lr_mult: 2
    decay_mult: 0
  }
  convolution_param {
    num_output: 256
    kernel_size: 1
    weight_filler {
      type: "xavier"
      std: 0.03
    }
    bias_filler {
      type: "constant"
      value: 0.2
    }
  }
}
layer {
  name: "inception_4e/relu_1x1"
  type: "ReLU"
  bottom: "inception_4e/1x1"
  top: "inception_4e/1x1"
}
layer {
  name: "inception_4e/3x3_reduce"
  type: "Convolution"
  bottom: "inception_4d/output"
  top: "inception_4e/3x3_reduce"
  param {
    lr_mult: 1
    decay_mult: 1
  }
  param {
    lr_mult: 2
    decay_mult: 0
  }
  convolution_param {
    num_output: 160
    kernel_size: 1
    weight_filler {
      type: "xavier"
      std: 0.09
    }
    bias_filler {
      type: "constant"
      value: 0.2
    }
  }
}
layer {
  name: "inception_4e/relu_3x3_reduce"
  type: "ReLU"
  bottom: "inception_4e/3x3_reduce"
  top: "inception_4e/3x3_reduce"
}
layer {
  name: "inception_4e/3x3"
  type: "Convolution"
  bottom: "inception_4e/3x3_reduce"
  top: "inception_4e/3x3"
  param {
    lr_mult: 1
    decay_mult: 1
  }
  param {
    lr_mult: 2
    decay_mult: 0
  }
  convolution_param {
    num_output: 320
    pad: 1
    kernel_size: 3
    weight_filler {
      type: "xavier"
      std: 0.03
    }
    bias_filler {
      type: "constant"
      value: 0.2
    }
  }
}
layer {
  name: "inception_4e/relu_3x3"
  type: "ReLU"
  bottom: "inception_4e/3x3"
  top: "inception_4e/3x3"
}
layer {
  name: "inception_4e/5x5_reduce"
  type: "Convolution"
  bottom: "inception_4d/output"
  top: "inception_4e/5x5_reduce"
  param {
    lr_mult: 1
    decay_mult: 1
  }
  param {
    lr_mult: 2
    decay_mult: 0
  }
  convolution_param {
    num_output: 32
    kernel_size: 1
    weight_filler {
      type: "xavier"
      std: 0.2
    }
    bias_filler {
      type: "constant"
      value: 0.2
    }
  }
}
layer {
  name: "inception_4e/relu_5x5_reduce"
  type: "ReLU"
  bottom: "inception_4e/5x5_reduce"
  top: "inception_4e/5x5_reduce"
}
layer {
  name: "inception_4e/5x5"
  type: "Convolution"
  bottom: "inception_4e/5x5_reduce"
  top: "inception_4e/5x5"
 
I0403 11:57:05.431512 11366 layer_factory.hpp:77] Creating layer data
I0403 11:57:05.432106 11366 net.cpp:91] Creating Layer data
I0403 11:57:05.432142 11366 net.cpp:399] data -> data
I0403 11:57:05.432193 11366 net.cpp:399] data -> label
I0403 11:57:05.432224 11366 data_transformer.cpp:25] Loading mean file from: /home/mohanty/data/final_dataset/lmdb/color-50-50/mean.binaryproto
I0403 11:57:05.488787 11369 db_lmdb.cpp:38] Opened lmdb /home/mohanty/data/final_dataset/lmdb/color-50-50/train_db
I0403 11:57:05.517195 11366 data_layer.cpp:41] output data size: 24,3,224,224
I0403 11:57:05.547955 11366 net.cpp:141] Setting up data
I0403 11:57:05.548033 11366 net.cpp:148] Top shape: 24 3 224 224 (3612672)
I0403 11:57:05.548055 11366 net.cpp:148] Top shape: 24 (24)
I0403 11:57:05.548071 11366 net.cpp:156] Memory required for data: 14450784
I0403 11:57:05.548135 11366 layer_factory.hpp:77] Creating layer label_data_1_split
I0403 11:57:05.548166 11366 net.cpp:91] Creating Layer label_data_1_split
I0403 11:57:05.548187 11366 net.cpp:425] label_data_1_split <- label
I0403 11:57:05.548216 11366 net.cpp:399] label_data_1_split -> label_data_1_split_0
I0403 11:57:05.548241 11366 net.cpp:399] label_data_1_split -> label_data_1_split_1
I0403 11:57:05.548261 11366 net.cpp:399] label_data_1_split -> label_data_1_split_2
I0403 11:57:05.548324 11366 net.cpp:141] Setting up label_data_1_split
I0403 11:57:05.548349 11366 net.cpp:148] Top shape: 24 (24)
I0403 11:57:05.548367 11366 net.cpp:148] Top shape: 24 (24)
I0403 11:57:05.548384 11366 net.cpp:148] Top shape: 24 (24)
I0403 11:57:05.548398 11366 net.cpp:156] Memory required for data: 14451072
I0403 11:57:05.548413 11366 layer_factory.hpp:77] Creating layer conv1/7x7_s2
I0403 11:57:05.548445 11366 net.cpp:91] Creating Layer conv1/7x7_s2
I0403 11:57:05.548465 11366 net.cpp:425] conv1/7x7_s2 <- data
I0403 11:57:05.548483 11366 net.cpp:399] conv1/7x7_s2 -> conv1/7x7_s2
I0403 11:57:05.549412 11366 net.cpp:141] Setting up conv1/7x7_s2
I0403 11:57:05.549440 11366 net.cpp:148] Top shape: 24 64 112 112 (19267584)
I0403 11:57:05.549456 11366 net.cpp:156] Memory required for data: 91521408
I0403 11:57:05.549490 11366 layer_factory.hpp:77] Creating layer conv1/relu_7x7
I0403 11:57:05.549516 11366 net.cpp:91] Creating Layer conv1/relu_7x7
I0403 11:57:05.549532 11366 net.cpp:425] conv1/relu_7x7 <- conv1/7x7_s2
I0403 11:57:05.549551 11366 net.cpp:386] conv1/relu_7x7 -> conv1/7x7_s2 (in-place)
I0403 11:57:05.549571 11366 net.cpp:141] Setting up conv1/relu_7x7
I0403 11:57:05.549589 11366 net.cpp:148] Top shape: 24 64 112 112 (19267584)
I0403 11:57:05.549603 11366 net.cpp:156] Memory required for data: 168591744
I0403 11:57:05.549617 11366 layer_factory.hpp:77] Creating layer pool1/3x3_s2
I0403 11:57:05.549636 11366 net.cpp:91] Creating Layer pool1/3x3_s2
I0403 11:57:05.549654 11366 net.cpp:425] pool1/3x3_s2 <- conv1/7x7_s2
I0403 11:57:05.549671 11366 net.cpp:399] pool1/3x3_s2 -> pool1/3x3_s2
I0403 11:57:05.549733 11366 net.cpp:141] Setting up pool1/3x3_s2
I0403 11:57:05.549757 11366 net.cpp:148] Top shape: 24 64 56 56 (4816896)
I0403 11:57:05.549772 11366 net.cpp:156] Memory required for data: 187859328
I0403 11:57:05.549785 11366 layer_factory.hpp:77] Creating layer pool1/norm1
I0403 11:57:05.549810 11366 net.cpp:91] Creating Layer pool1/norm1
I0403 11:57:05.549828 11366 net.cpp:425] pool1/norm1 <- pool1/3x3_s2
I0403 11:57:05.549845 11366 net.cpp:399] pool1/norm1 -> pool1/norm1
I0403 11:57:05.549896 11366 net.cpp:141] Setting up pool1/norm1
I0403 11:57:05.549917 11366 net.cpp:148] Top shape: 24 64 56 56 (4816896)
I0403 11:57:05.549932 11366 net.cpp:156] Memory required for data: 207126912
I0403 11:57:05.549947 11366 layer_factory.hpp:77] Creating layer conv2/3x3_reduce
I0403 11:57:05.549968 11366 net.cpp:91] Creating Layer conv2/3x3_reduce
I0403 11:57:05.549983 11366 net.cpp:425] conv2/3x3_reduce <- pool1/norm1
I0403 11:57:05.550003 11366 net.cpp:399] conv2/3x3_reduce -> conv2/3x3_reduce
I0403 11:57:05.552181 11366 net.cpp:141] Setting up conv2/3x3_reduce
I0403 11:57:05.552219 11366 net.cpp:148] Top shape: 24 64 56 56 (4816896)
I0403 11:57:05.552237 11366 net.cpp:156] Memory required for data: 226394496
I0403 11:57:05.552258 11366 layer_factory.hpp:77] Creating layer conv2/relu_3x3_reduce
I0403 11:57:05.552278 11366 net.cpp:91] Creating Layer conv2/relu_3x3_reduce
I0403 11:57:05.552295 11366 net.cpp:425] conv2/relu_3x3_reduce <- conv2/3x3_reduce
I0403 11:57:05.552312 11366 net.cpp:386] conv2/relu_3x3_reduce -> conv2/3x3_reduce (in-place)
I0403 11:57:05.552331 11366 net.cpp:141] Setting up conv2/relu_3x3_reduce
I0403 11:57:05.552348 11366 net.cpp:148] Top shape: 24 64 56 56 (4816896)
I0403 11:57:05.552362 11366 net.cpp:156] Memory required for data: 245662080
I0403 11:57:05.552376 11366 layer_factory.hpp:77] Creating layer conv2/3x3
I0403 11:57:05.552399 11366 net.cpp:91] Creating Layer conv2/3x3
I0403 11:57:05.552415 11366 net.cpp:425] conv2/3x3 <- conv2/3x3_reduce
I0403 11:57:05.552453 11366 net.cpp:399] conv2/3x3 -> conv2/3x3
I0403 11:57:05.553678 11370 blocking_queue.cpp:50] Waiting for data
I0403 11:57:05.553810 11366 net.cpp:141] Setting up conv2/3x3
I0403 11:57:05.553840 11366 net.cpp:148] Top shape: 24 192 56 56 (14450688)
I0403 11:57:05.553856 11366 net.cpp:156] Memory required for data: 303464832
I0403 11:57:05.553877 11366 layer_factory.hpp:77] Creating layer conv2/relu_3x3
I0403 11:57:05.553896 11366 net.cpp:91] Creating Layer conv2/relu_3x3
I0403 11:57:05.553912 11366 net.cpp:425] conv2/relu_3x3 <- conv2/3x3
I0403 11:57:05.553930 11366 net.cpp:386] conv2/relu_3x3 -> conv2/3x3 (in-place)
I0403 11:57:05.553948 11366 net.cpp:141] Setting up conv2/relu_3x3
I0403 11:57:05.553966 11366 net.cpp:148] Top shape: 24 192 56 56 (14450688)
I0403 11:57:05.553979 11366 net.cpp:156] Memory required for data: 361267584
I0403 11:57:05.553993 11366 layer_factory.hpp:77] Creating layer conv2/norm2
I0403 11:57:05.554010 11366 net.cpp:91] Creating Layer conv2/norm2
I0403 11:57:05.554039 11366 net.cpp:425] conv2/norm2 <- conv2/3x3
I0403 11:57:05.554056 11366 net.cpp:399] conv2/norm2 -> conv2/norm2
I0403 11:57:05.554100 11366 net.cpp:141] Setting up conv2/norm2
I0403 11:57:05.554123 11366 net.cpp:148] Top shape: 24 192 56 56 (14450688)
I0403 11:57:05.554137 11366 net.cpp:156] Memory required for data: 419070336
I0403 11:57:05.554150 11366 layer_factory.hpp:77] Creating layer pool2/3x3_s2
I0403 11:57:05.554167 11366 net.cpp:91] Creating Layer pool2/3x3_s2
I0403 11:57:05.554183 11366 net.cpp:425] pool2/3x3_s2 <- conv2/norm2
I0403 11:57:05.554199 11366 net.cpp:399] pool2/3x3_s2 -> pool2/3x3_s2
I0403 11:57:05.554242 11366 net.cpp:141] Setting up pool2/3x3_s2
I0403 11:57:05.554262 11366 net.cpp:148] Top shape: 24 192 28 28 (3612672)
I0403 11:57:05.554276 11366 net.cpp:156] Memory required for data: 433521024
I0403 11:57:05.554291 11366 layer_factory.hpp:77] Creating layer pool2/3x3_s2_pool2/3x3_s2_0_split
I0403 11:57:05.554308 11366 net.cpp:91] Creating Layer pool2/3x3_s2_pool2/3x3_s2_0_split
I0403 11:57:05.554324 11366 net.cpp:425] pool2/3x3_s2_pool2/3x3_s2_0_split <- pool2/3x3_s2
I0403 11:57:05.554342 11366 net.cpp:399] pool2/3x3_s2_pool2/3x3_s2_0_split -> pool2/3x3_s2_pool2/3x3_s2_0_split_0
I0403 11:57:05.554363 11366 net.cpp:399] pool2/3x3_s2_pool2/3x3_s2_0_split -> pool2/3x3_s2_pool2/3x3_s2_0_split_1
I0403 11:57:05.554383 11366 net.cpp:399] pool2/3x3_s2_pool2/3x3_s2_0_split -> pool2/3x3_s2_pool2/3x3_s2_0_split_2
I0403 11:57:05.554402 11366 net.cpp:399] pool2/3x3_s2_pool2/3x3_s2_0_split -> pool2/3x3_s2_pool2/3x3_s2_0_split_3
I0403 11:57:05.554460 11366 net.cpp:141] Setting up pool2/3x3_s2_pool2/3x3_s2_0_split
I0403 11:57:05.554482 11366 net.cpp:148] Top shape: 24 192 28 28 (3612672)
I0403 11:57:05.554499 11366 net.cpp:148] Top shape: 24 192 28 28 (3612672)
I0403 11:57:05.554517 11366 net.cpp:148] Top shape: 24 192 28 28 (3612672)
I0403 11:57:05.554532 11366 net.cpp:148] Top shape: 24 192 28 28 (3612672)
I0403 11:57:05.554544 11366 net.cpp:156] Memory required for data: 491323776
I0403 11:57:05.554558 11366 layer_factory.hpp:77] Creating layer inception_3a/1x1
I0403 11:57:05.554579 11366 net.cpp:91] Creating Layer inception_3a/1x1
I0403 11:57:05.554594 11366 net.cpp:425] inception_3a/1x1 <- pool2/3x3_s2_pool2/3x3_s2_0_split_0
I0403 11:57:05.554612 11366 net.cpp:399] inception_3a/1x1 -> inception_3a/1x1
I0403 11:57:05.555402 11366 net.cpp:141] Setting up inception_3a/1x1
I0403 11:57:05.555429 11366 net.cpp:148] Top shape: 24 64 28 28 (1204224)
I0403 11:57:05.555444 11366 net.cpp:156] Memory required for data: 496140672
I0403 11:57:05.555462 11366 layer_factory.hpp:77] Creating layer inception_3a/relu_1x1
I0403 11:57:05.555483 11366 net.cpp:91] Creating Layer inception_3a/relu_1x1
I0403 11:57:05.555500 11366 net.cpp:425] inception_3a/relu_1x1 <- inception_3a/1x1
I0403 11:57:05.555519 11366 net.cpp:386] inception_3a/relu_1x1 -> inception_3a/1x1 (in-place)
I0403 11:57:05.555537 11366 net.cpp:141] Setting up inception_3a/relu_1x1
I0403 11:57:05.555553 11366 net.cpp:148] Top shape: 24 64 28 28 (1204224)
I0403 11:57:05.555582 11366 net.cpp:156] Memory required for data: 500957568
I0403 11:57:05.555596 11366 layer_factory.hpp:77] Creating layer inception_3a/3x3_reduce
I0403 11:57:05.555616 11366 net.cpp:91] Creating Layer inception_3a/3x3_reduce
I0403 11:57:05.555632 11366 net.cpp:425] inception_3a/3x3_reduce <- pool2/3x3_s2_pool2/3x3_s2_0_split_1
I0403 11:57:05.555651 11366 net.cpp:399] inception_3a/3x3_reduce -> inception_3a/3x3_reduce
I0403 11:57:05.556478 11366 net.cpp:141] Setting up inception_3a/3x3_reduce
I0403 11:57:05.556505 11366 net.cpp:148] Top shape: 24 96 28 28 (1806336)
I0403 11:57:05.556521 11366 net.cpp:156] Memory required for data: 508182912
I0403 11:57:05.556541 11366 layer_factory.hpp:77] Creating layer inception_3a/relu_3x3_reduce
I0403 11:57:05.556577 11366 net.cpp:91] Creating Layer inception_3a/relu_3x3_reduce
I0403 11:57:05.556596 11366 net.cpp:425] inception_3a/relu_3x3_reduce <- inception_3a/3x3_reduce
I0403 11:57:05.556613 11366 net.cpp:386] inception_3a/relu_3x3_reduce -> inception_3a/3x3_reduce (in-place)
I0403 11:57:05.556632 11366 net.cpp:141] Setting up inception_3a/relu_3x3_reduce
I0403 11:57:05.556649 11366 net.cpp:148] Top shape: 24 96 28 28 (1806336)
I0403 11:57:05.556663 11366 net.cpp:156] Memory required for data: 515408256
I0403 11:57:05.556677 11366 layer_factory.hpp:77] Creating layer inception_3a/3x3
I0403 11:57:05.556699 11366 net.cpp:91] Creating Layer inception_3a/3x3
I0403 11:57:05.556717 11366 net.cpp:425] inception_3a/3x3 <- inception_3a/3x3_reduce
I0403 11:57:05.556751 11366 net.cpp:399] inception_3a/3x3 -> inception_3a/3x3
I0403 11:57:05.557577 11366 net.cpp:141] Setting up inception_3a/3x3
I0403 11:57:05.557603 11366 net.cpp:148] Top shape: 24 128 28 28 (2408448)
I0403 11:57:05.557618 11366 net.cpp:156] Memory required for data: 525042048
I0403 11:57:05.557636 11366 layer_factory.hpp:77] Creating layer inception_3a/relu_3x3
I0403 11:57:05.557653 11366 net.cpp:91] Creating Layer inception_3a/relu_3x3
I0403 11:57:05.557669 11366 net.cpp:425] inception_3a/relu_3x3 <- inception_3a/3x3
I0403 11:57:05.557687 11366 net.cpp:386] inception_3a/relu_3x3 -> inception_3a/3x3 (in-place)
I0403 11:57:05.557716 11366 net.cpp:141] Setting up inception_3a/relu_3x3
I0403 11:57:05.557734 11366 net.cpp:148] Top shape: 24 128 28 28 (2408448)
I0403 11:57:05.557747 11366 net.cpp:156] Memory required for data: 534675840
I0403 11:57:05.557775 11366 layer_factory.hpp:77] Creating layer inception_3a/5x5_reduce
I0403 11:57:05.557799 11366 net.cpp:91] Creating Layer inception_3a/5x5_reduce
I0403 11:57:05.557818 11366 net.cpp:425] inception_3a/5x5_reduce <- pool2/3x3_s2_pool2/3x3_s2_0_split_2
I0403 11:57:05.557839 11366 net.cpp:399] inception_3a/5x5_reduce -> inception_3a/5x5_reduce
I0403 11:57:05.558076 11366 net.cpp:141] Setting up inception_3a/5x5_reduce
I0403 11:57:05.558099 11366 net.cpp:148] Top shape: 24 16 28 28 (301056)
I0403 11:57:05.558114 11366 net.cpp:156] Memory required for data: 535880064
I0403 11:57:05.558130 11366 layer_factory.hpp:77] Creating layer inception_3a/relu_5x5_reduce
I0403 11:57:05.558147 11366 net.cpp:91] Creating Layer inception_3a/relu_5x5_reduce
I0403 11:57:05.558163 11366 net.cpp:425] inception_3a/relu_5x5_reduce <- inception_3a/5x5_reduce
I0403 11:57:05.558181 11366 net.cpp:386] inception_3a/relu_5x5_reduce -> inception_3a/5x5_reduce (in-place)
I0403 11:57:05.558198 11366 net.cpp:141] Setting up inception_3a/relu_5x5_reduce
I0403 11:57:05.558215 11366 net.cpp:148] Top shape: 24 16 28 28 (301056)
I0403 11:57:05.558229 11366 net.cpp:156] Memory required for data: 537084288
I0403 11:57:05.558243 11366 layer_factory.hpp:77] Creating layer inception_3a/5x5
I0403 11:57:05.558264 11366 net.cpp:91] Creating Layer inception_3a/5x5
I0403 11:57:05.558280 11366 net.cpp:425] inception_3a/5x5 <- inception_3a/5x5_reduce
I0403 11:57:05.558300 11366 net.cpp:399] inception_3a/5x5 -> inception_3a/5x5
I0403 11:57:05.558562 11366 net.cpp:141] Setting up inception_3a/5x5
I0403 11:57:05.558585 11366 net.cpp:148] Top shape: 24 32 28 28 (602112)
I0403 11:57:05.558614 11366 net.cpp:156] Memory required for data: 539492736
I0403 11:57:05.558631 11366 layer_factory.hpp:77] Creating layer inception_3a/relu_5x5
I0403 11:57:05.558650 11366 net.cpp:91] Creating Layer inception_3a/relu_5x5
I0403 11:57:05.558665 11366 net.cpp:425] inception_3a/relu_5x5 <- inception_3a/5x5
I0403 11:57:05.558682 11366 net.cpp:386] inception_3a/relu_5x5 -> inception_3a/5x5 (in-place)
I0403 11:57:05.558701 11366 net.cpp:141] Setting up inception_3a/relu_5x5
I0403 11:57:05.558717 11366 net.cpp:148] Top shape: 24 32 28 28 (602112)
I0403 11:57:05.558729 11366 net.cpp:156] Memory required for data: 541901184
I0403 11:57:05.558743 11366 layer_factory.hpp:77] Creating layer inception_3a/pool
I0403 11:57:05.558763 11366 net.cpp:91] Creating Layer inception_3a/pool
I0403 11:57:05.558779 11366 net.cpp:425] inception_3a/pool <- pool2/3x3_s2_pool2/3x3_s2_0_split_3
I0403 11:57:05.558800 11366 net.cpp:399] inception_3a/pool -> inception_3a/pool
I0403 11:57:05.558851 11366 net.cpp:141] Setting up inception_3a/pool
I0403 11:57:05.558872 11366 net.cpp:148] Top shape: 24 192 28 28 (3612672)
I0403 11:57:05.558887 11366 net.cpp:156] Memory required for data: 556351872
I0403 11:57:05.558900 11366 layer_factory.hpp:77] Creating layer inception_3a/pool_proj
I0403 11:57:05.558923 11366 net.cpp:91] Creating Layer inception_3a/pool_proj
I0403 11:57:05.558939 11366 net.cpp:425] inception_3a/pool_proj <- inception_3a/pool
I0403 11:57:05.558959 11366 net.cpp:399] inception_3a/pool_proj -> inception_3a/pool_proj
I0403 11:57:05.559176 11366 net.cpp:141] Setting up inception_3a/pool_proj
I0403 11:57:05.559202 11366 net.cpp:148] Top shape: 24 32 28 28 (602112)
I0403 11:57:05.559217 11366 net.cpp:156] Memory required for data: 558760320
I0403 11:57:05.559237 11366 layer_factory.hpp:77] Creating layer inception_3a/relu_pool_proj
I0403 11:57:05.559257 11366 net.cpp:91] Creating Layer inception_3a/relu_pool_proj
I0403 11:57:05.559273 11366 net.cpp:425] inception_3a/relu_pool_proj <- inception_3a/pool_proj
I0403 11:57:05.559288 11366 net.cpp:386] inception_3a/relu_pool_proj -> inception_3a/pool_proj (in-place)
I0403 11:57:05.559308 11366 net.cpp:141] Setting up inception_3a/relu_pool_proj
I0403 11:57:05.559324 11366 net.cpp:148] Top shape: 24 32 28 28 (602112)
I0403 11:57:05.559337 11366 net.cpp:156] Memory required for data: 561168768
I0403 11:57:05.559351 11366 layer_factory.hpp:77] Creating layer inception_3a/output
I0403 11:57:05.559371 11366 net.cpp:91] Creating Layer inception_3a/output
I0403 11:57:05.559387 11366 net.cpp:425] inception_3a/output <- inception_3a/1x1
I0403 11:57:05.559402 11366 net.cpp:425] inception_3a/output <- inception_3a/3x3
I0403 11:57:05.559417 11366 net.cpp:425] inception_3a/output <- inception_3a/5x5
I0403 11:57:05.559432 11366 net.cpp:425] inception_3a/output <- inception_3a/pool_proj
I0403 11:57:05.559449 11366 net.cpp:399] inception_3a/output -> inception_3a/output
I0403 11:57:05.559490 11366 net.cpp:141] Setting up inception_3a/output
I0403 11:57:05.559512 11366 net.cpp:148] Top shape: 24 256 28 28 (4816896)
I0403 11:57:05.559527 11366 net.cpp:156] Memory required for data: 580436352
I0403 11:57:05.559541 11366 layer_factory.hpp:77] Creating layer inception_3a/output_inception_3a/output_0_split
I0403 11:57:05.559558 11366 net.cpp:91] Creating Layer inception_3a/output_inception_3a/output_0_split
I0403 11:57:05.559573 11366 net.cpp:425] inception_3a/output_inception_3a/output_0_split <- inception_3a/output
I0403 11:57:05.559592 11366 net.cpp:399] inception_3a/output_inception_3a/output_0_split -> inception_3a/output_inception_3a/output_0_split_0
I0403 11:57:05.559612 11366 net.cpp:399] inception_3a/output_inception_3a/output_0_split -> inception_3a/output_inception_3a/output_0_split_1
I0403 11:57:05.559631 11366 net.cpp:399] inception_3a/output_inception_3a/output_0_split -> inception_3a/output_inception_3a/output_0_split_2
I0403 11:57:05.559650 11366 net.cpp:399] inception_3a/output_inception_3a/output_0_split -> inception_3a/output_inception_3a/output_0_split_3
I0403 11:57:05.559713 11366 net.cpp:141] Setting up inception_3a/output_inception_3a/output_0_split
I0403 11:57:05.559747 11366 net.cpp:148] Top shape: 24 256 28 28 (4816896)
I0403 11:57:05.559765 11366 net.cpp:148] Top shape: 24 256 28 28 (4816896)
I0403 11:57:05.559780 11366 net.cpp:148] Top shape: 24 256 28 28 (4816896)
I0403 11:57:05.559799 11366 net.cpp:148] Top shape: 24 256 28 28 (4816896)
I0403 11:57:05.559813 11366 net.cpp:156] Memory required for data: 657506688
I0403 11:57:05.559828 11366 layer_factory.hpp:77] Creating layer inception_3b/1x1
I0403 11:57:05.559850 11366 net.cpp:91] Creating Layer inception_3b/1x1
I0403 11:57:05.559869 11366 net.cpp:425] inception_3b/1x1 <- inception_3a/output_inception_3a/output_0_split_0
I0403 11:57:05.559886 11366 net.cpp:399] inception_3b/1x1 -> inception_3b/1x1
I0403 11:57:05.560245 11366 net.cpp:141] Setting up inception_3b/1x1
I0403 11:57:05.560268 11366 net.cpp:148] Top shape: 24 128 28 28 (2408448)
I0403 11:57:05.560282 11366 net.cpp:156] Memory required for data: 667140480
I0403 11:57:05.560299 11366 layer_factory.hpp:77] Creating layer inception_3b/relu_1x1
I0403 11:57:05.560317 11366 net.cpp:91] Creating Layer inception_3b/relu_1x1
I0403 11:57:05.560333 11366 net.cpp:425] inception_3b/relu_1x1 <- inception_3b/1x1
I0403 11:57:05.560348 11366 net.cpp:386] inception_3b/relu_1x1 -> inception_3b/1x1 (in-place)
I0403 11:57:05.560366 11366 net.cpp:141] Setting up inception_3b/relu_1x1
I0403 11:57:05.560382 11366 net.cpp:148] Top shape: 24 128 28 28 (2408448)
I0403 11:57:05.560395 11366 net.cpp:156] Memory required for data: 676774272
I0403 11:57:05.560410 11366 layer_factory.hpp:77] Creating layer inception_3b/3x3_reduce
I0403 11:57:05.560431 11366 net.cpp:91] Creating Layer inception_3b/3x3_reduce
I0403 11:57:05.560447 11366 net.cpp:425] inception_3b/3x3_reduce <- inception_3a/output_inception_3a/output_0_split_1
I0403 11:57:05.560467 11366 net.cpp:399] inception_3b/3x3_reduce -> inception_3b/3x3_reduce
I0403 11:57:05.560873 11366 net.cpp:141] Setting up inception_3b/3x3_reduce
I0403 11:57:05.560897 11366 net.cpp:148] Top shape: 24 128 28 28 (2408448)
I0403 11:57:05.560911 11366 net.cpp:156] Memory required for data: 686408064
I0403 11:57:05.560928 11366 layer_factory.hpp:77] Creating layer inception_3b/relu_3x3_reduce
I0403 11:57:05.560945 11366 net.cpp:91] Creating Layer inception_3b/relu_3x3_reduce
I0403 11:57:05.560961 11366 net.cpp:425] inception_3b/relu_3x3_reduce <- inception_3b/3x3_reduce
I0403 11:57:05.560977 11366 net.cpp:386] inception_3b/relu_3x3_reduce -> inception_3b/3x3_reduce (in-place)
I0403 11:57:05.560995 11366 net.cpp:141] Setting up inception_3b/relu_3x3_reduce
I0403 11:57:05.561012 11366 net.cpp:148] Top shape: 24 128 28 28 (2408448)
I0403 11:57:05.561025 11366 net.cpp:156] Memory required for data: 696041856
I0403 11:57:05.561038 11366 layer_factory.hpp:77] Creating layer inception_3b/3x3
I0403 11:57:05.561064 11366 net.cpp:91] Creating Layer inception_3b/3x3
I0403 11:57:05.561080 11366 net.cpp:425] inception_3b/3x3 <- inception_3b/3x3_reduce
I0403 11:57:05.561100 11366 net.cpp:399] inception_3b/3x3 -> inception_3b/3x3
I0403 11:57:05.562991 11366 net.cpp:141] Setting up inception_3b/3x3
I0403 11:57:05.563019 11366 net.cpp:148] Top shape: 24 192 28 28 (3612672)
I0403 11:57:05.563035 11366 net.cpp:156] Memory required for data: 710492544
I0403 11:57:05.563052 11366 layer_factory.hpp:77] Creating layer inception_3b/relu_3x3
I0403 11:57:05.563071 11366 net.cpp:91] Creating Layer inception_3b/relu_3x3
I0403 11:57:05.563086 11366 net.cpp:425] inception_3b/relu_3x3 <- inception_3b/3x3
I0403 11:57:05.563102 11366 net.cpp:386] inception_3b/relu_3x3 -> inception_3b/3x3 (in-place)
I0403 11:57:05.563122 11366 net.cpp:141] Setting up inception_3b/relu_3x3
I0403 11:57:05.563138 11366 net.cpp:148] Top shape: 24 192 28 28 (3612672)
I0403 11:57:05.563150 11366 net.cpp:156] Memory required for data: 724943232
I0403 11:57:05.563163 11366 layer_factory.hpp:77] Creating layer inception_3b/5x5_reduce
I0403 11:57:05.563185 11366 net.cpp:91] Creating Layer inception_3b/5x5_reduce
I0403 11:57:05.563204 11366 net.cpp:425] inception_3b/5x5_reduce <- inception_3a/output_inception_3a/output_0_split_2
I0403 11:57:05.563238 11366 net.cpp:399] inception_3b/5x5_reduce -> inception_3b/5x5_reduce
I0403 11:57:05.563479 11366 net.cpp:141] Setting up inception_3b/5x5_reduce
I0403 11:57:05.563503 11366 net.cpp:148] Top shape: 24 32 28 28 (602112)
I0403 11:57:05.563519 11366 net.cpp:156] Memory required for data: 727351680
I0403 11:57:05.563535 11366 layer_factory.hpp:77] Creating layer inception_3b/relu_5x5_reduce
I0403 11:57:05.563552 11366 net.cpp:91] Creating Layer inception_3b/relu_5x5_reduce
I0403 11:57:05.563568 11366 net.cpp:425] inception_3b/relu_5x5_reduce <- inception_3b/5x5_reduce
I0403 11:57:05.563585 11366 net.cpp:386] inception_3b/relu_5x5_reduce -> inception_3b/5x5_reduce (in-place)
I0403 11:57:05.563604 11366 net.cpp:141] Setting up inception_3b/relu_5x5_reduce
I0403 11:57:05.563621 11366 net.cpp:148] Top shape: 24 32 28 28 (602112)
I0403 11:57:05.563634 11366 net.cpp:156] Memory required for data: 729760128
I0403 11:57:05.563648 11366 layer_factory.hpp:77] Creating layer inception_3b/5x5
I0403 11:57:05.563673 11366 net.cpp:91] Creating Layer inception_3b/5x5
I0403 11:57:05.563689 11366 net.cpp:425] inception_3b/5x5 <- inception_3b/5x5_reduce
I0403 11:57:05.563710 11366 net.cpp:399] inception_3b/5x5 -> inception_3b/5x5
I0403 11:57:05.564863 11366 net.cpp:141] Setting up inception_3b/5x5
I0403 11:57:05.564893 11366 net.cpp:148] Top shape: 24 96 28 28 (1806336)
I0403 11:57:05.564908 11366 net.cpp:156] Memory required for data: 736985472
I0403 11:57:05.564924 11366 layer_factory.hpp:77] Creating layer inception_3b/relu_5x5
I0403 11:57:05.564944 11366 net.cpp:91] Creating Layer inception_3b/relu_5x5
I0403 11:57:05.564963 11366 net.cpp:425] inception_3b/relu_5x5 <- inception_3b/5x5
I0403 11:57:05.564980 11366 net.cpp:386] inception_3b/relu_5x5 -> inception_3b/5x5 (in-place)
I0403 11:57:05.564998 11366 net.cpp:141] Setting up inception_3b/relu_5x5
I0403 11:57:05.565016 11366 net.cpp:148] Top shape: 24 96 28 28 (1806336)
I0403 11:57:05.565031 11366 net.cpp:156] Memory required for data: 744210816
I0403 11:57:05.565044 11366 layer_factory.hpp:77] Creating layer inception_3b/pool
I0403 11:57:05.565062 11366 net.cpp:91] Creating Layer inception_3b/pool
I0403 11:57:05.565076 11366 net.cpp:425] inception_3b/pool <- inception_3a/output_inception_3a/output_0_split_3
I0403 11:57:05.565093 11366 net.cpp:399] inception_3b/pool -> inception_3b/pool
I0403 11:57:05.565142 11366 net.cpp:141] Setting up inception_3b/pool
I0403 11:57:05.565165 11366 net.cpp:148] Top shape: 24 256 28 28 (4816896)
I0403 11:57:05.565178 11366 net.cpp:156] Memory required for data: 763478400
I0403 11:57:05.565192 11366 layer_factory.hpp:77] Creating layer inception_3b/pool_proj
I0403 11:57:05.565214 11366 net.cpp:91] Creating Layer inception_3b/pool_proj
I0403 11:57:05.565232 11366 net.cpp:425] inception_3b/pool_proj <- inception_3b/pool
I0403 11:57:05.565251 11366 net.cpp:399] inception_3b/pool_proj -> inception_3b/pool_proj
I0403 11:57:05.565536 11366 net.cpp:141] Setting up inception_3b/pool_proj
I0403 11:57:05.565572 11366 net.cpp:148] Top shape: 24 64 28 28 (1204224)
I0403 11:57:05.565587 11366 net.cpp:156] Memory required for data: 768295296
I0403 11:57:05.565604 11366 layer_factory.hpp:77] Creating layer inception_3b/relu_pool_proj
I0403 11:57:05.565623 11366 net.cpp:91] Creating Layer inception_3b/relu_pool_proj
I0403 11:57:05.565639 11366 net.cpp:425] inception_3b/relu_pool_proj <- inception_3b/pool_proj
I0403 11:57:05.565655 11366 net.cpp:386] inception_3b/relu_pool_proj -> inception_3b/pool_proj (in-place)
I0403 11:57:05.565675 11366 net.cpp:141] Setting up inception_3b/relu_pool_proj
I0403 11:57:05.565691 11366 net.cpp:148] Top shape: 24 64 28 28 (1204224)
I0403 11:57:05.565706 11366 net.cpp:156] Memory required for data: 773112192
I0403 11:57:05.565719 11366 layer_factory.hpp:77] Creating layer inception_3b/output
I0403 11:57:05.565742 11366 net.cpp:91] Creating Layer inception_3b/output
I0403 11:57:05.565757 11366 net.cpp:425] inception_3b/output <- inception_3b/1x1
I0403 11:57:05.565788 11366 net.cpp:425] inception_3b/output <- inception_3b/3x3
I0403 11:57:05.565814 11366 net.cpp:425] inception_3b/output <- inception_3b/5x5
I0403 11:57:05.565830 11366 net.cpp:425] inception_3b/output <- inception_3b/pool_proj
I0403 11:57:05.565860 11366 net.cpp:399] inception_3b/output -> inception_3b/output
I0403 11:57:05.565897 11366 net.cpp:141] Setting up inception_3b/output
I0403 11:57:05.565919 11366 net.cpp:148] Top shape: 24 480 28 28 (9031680)
I0403 11:57:05.565933 11366 net.cpp:156] Memory required for data: 809238912
I0403 11:57:05.565948 11366 layer_factory.hpp:77] Creating layer pool3/3x3_s2
I0403 11:57:05.565965 11366 net.cpp:91] Creating Layer pool3/3x3_s2
I0403 11:57:05.565981 11366 net.cpp:425] pool3/3x3_s2 <- inception_3b/output
I0403 11:57:05.566000 11366 net.cpp:399] pool3/3x3_s2 -> pool3/3x3_s2
I0403 11:57:05.566050 11366 net.cpp:141] Setting up pool3/3x3_s2
I0403 11:57:05.566073 11366 net.cpp:148] Top shape: 24 480 14 14 (2257920)
I0403 11:57:05.566088 11366 net.cpp:156] Memory required for data: 818270592
I0403 11:57:05.566102 11366 layer_factory.hpp:77] Creating layer pool3/3x3_s2_pool3/3x3_s2_0_split
I0403 11:57:05.566119 11366 net.cpp:91] Creating Layer pool3/3x3_s2_pool3/3x3_s2_0_split
I0403 11:57:05.566134 11366 net.cpp:425] pool3/3x3_s2_pool3/3x3_s2_0_split <- pool3/3x3_s2
I0403 11:57:05.566150 11366 net.cpp:399] pool3/3x3_s2_pool3/3x3_s2_0_split -> pool3/3x3_s2_pool3/3x3_s2_0_split_0
I0403 11:57:05.566169 11366 net.cpp:399] pool3/3x3_s2_pool3/3x3_s2_0_split -> pool3/3x3_s2_pool3/3x3_s2_0_split_1
I0403 11:57:05.566189 11366 net.cpp:399] pool3/3x3_s2_pool3/3x3_s2_0_split -> pool3/3x3_s2_pool3/3x3_s2_0_split_2
I0403 11:57:05.566210 11366 net.cpp:399] pool3/3x3_s2_pool3/3x3_s2_0_split -> pool3/3x3_s2_pool3/3x3_s2_0_split_3
I0403 11:57:05.566272 11366 net.cpp:141] Setting up pool3/3x3_s2_pool3/3x3_s2_0_split
I0403 11:57:05.566293 11366 net.cpp:148] Top shape: 24 480 14 14 (2257920)
I0403 11:57:05.566308 11366 net.cpp:148] Top shape: 24 480 14 14 (2257920)
I0403 11:57:05.566323 11366 net.cpp:148] Top shape: 24 480 14 14 (2257920)
I0403 11:57:05.566339 11366 net.cpp:148] Top shape: 24 480 14 14 (2257920)
I0403 11:57:05.566351 11366 net.cpp:156] Memory required for data: 854397312
I0403 11:57:05.566365 11366 layer_factory.hpp:77] Creating layer inception_4a/1x1
I0403 11:57:05.566386 11366 net.cpp:91] Creating Layer inception_4a/1x1
I0403 11:57:05.566403 11366 net.cpp:425] inception_4a/1x1 <- pool3/3x3_s2_pool3/3x3_s2_0_split_0
I0403 11:57:05.566424 11366 net.cpp:399] inception_4a/1x1 -> inception_4a/1x1
I0403 11:57:05.567098 11366 net.cpp:141] Setting up inception_4a/1x1
I0403 11:57:05.567123 11366 net.cpp:148] Top shape: 24 192 14 14 (903168)
I0403 11:57:05.567137 11366 net.cpp:156] Memory required for data: 858009984
I0403 11:57:05.567154 11366 layer_factory.hpp:77] Creating layer inception_4a/relu_1x1
I0403 11:57:05.567174 11366 net.cpp:91] Creating Layer inception_4a/relu_1x1
I0403 11:57:05.567189 11366 net.cpp:425] inception_4a/relu_1x1 <- inception_4a/1x1
I0403 11:57:05.567206 11366 net.cpp:386] inception_4a/relu_1x1 -> inception_4a/1x1 (in-place)
I0403 11:57:05.567224 11366 net.cpp:141] Setting up inception_4a/relu_1x1
I0403 11:57:05.567241 11366 net.cpp:148] Top shape: 24 192 14 14 (903168)
I0403 11:57:05.567255 11366 net.cpp:156] Memory required for data: 861622656
I0403 11:57:05.567268 11366 layer_factory.hpp:77] Creating layer inception_4a/3x3_reduce
I0403 11:57:05.567289 11366 net.cpp:91] Creating Layer inception_4a/3x3_reduce
I0403 11:57:05.567306 11366 net.cpp:425] inception_4a/3x3_reduce <- pool3/3x3_s2_pool3/3x3_s2_0_split_1
I0403 11:57:05.567327 11366 net.cpp:399] inception_4a/3x3_reduce -> inception_4a/3x3_reduce
I0403 11:57:05.567787 11366 net.cpp:141] Setting up inception_4a/3x3_reduce
I0403 11:57:05.567816 11366 net.cpp:148] Top shape: 24 96 14 14 (451584)
I0403 11:57:05.567831 11366 net.cpp:156] Memory required for data: 863428992
I0403 11:57:05.567867 11366 layer_factory.hpp:77] Creating layer inception_4a/relu_3x3_reduce
I0403 11:57:05.567898 11366 net.cpp:91] Creating Layer inception_4a/relu_3x3_reduce
I0403 11:57:05.567914 11366 net.cpp:425] inception_4a/relu_3x3_reduce <- inception_4a/3x3_reduce
I0403 11:57:05.567931 11366 net.cpp:386] inception_4a/relu_3x3_reduce -> inception_4a/3x3_reduce (in-place)
I0403 11:57:05.567950 11366 net.cpp:141] Setting up inception_4a/relu_3x3_reduce
I0403 11:57:05.567966 11366 net.cpp:148] Top shape: 24 96 14 14 (451584)
I0403 11:57:05.567981 11366 net.cpp:156] Memory required for data: 865235328
I0403 11:57:05.567993 11366 layer_factory.hpp:77] Creating layer inception_4a/3x3
I0403 11:57:05.568014 11366 net.cpp:91] Creating Layer inception_4a/3x3
I0403 11:57:05.568032 11366 net.cpp:425] inception_4a/3x3 <- inception_4a/3x3_reduce
I0403 11:57:05.568051 11366 net.cpp:399] inception_4a/3x3 -> inception_4a/3x3
I0403 11:57:05.569751 11366 net.cpp:141] Setting up inception_4a/3x3
I0403 11:57:05.569777 11366 net.cpp:148] Top shape: 24 208 14 14 (978432)
I0403 11:57:05.569797 11366 net.cpp:156] Memory required for data: 869149056
I0403 11:57:05.569815 11366 layer_factory.hpp:77] Creating layer inception_4a/relu_3x3
I0403 11:57:05.569849 11366 net.cpp:91] Creating Layer inception_4a/relu_3x3
I0403 11:57:05.569866 11366 net.cpp:425] inception_4a/relu_3x3 <- inception_4a/3x3
I0403 11:57:05.569883 11366 net.cpp:386] inception_4a/relu_3x3 -> inception_4a/3x3 (in-place)
I0403 11:57:05.569901 11366 net.cpp:141] Setting up inception_4a/relu_3x3
I0403 11:57:05.569918 11366 net.cpp:148] Top shape: 24 208 14 14 (978432)
I0403 11:57:05.569931 11366 net.cpp:156] Memory required for data: 873062784
I0403 11:57:05.569946 11366 layer_factory.hpp:77] Creating layer inception_4a/5x5_reduce
I0403 11:57:05.569967 11366 net.cpp:91] Creating Layer inception_4a/5x5_reduce
I0403 11:57:05.569983 11366 net.cpp:425] inception_4a/5x5_reduce <- pool3/3x3_s2_pool3/3x3_s2_0_split_2
I0403 11:57:05.570003 11366 net.cpp:399] inception_4a/5x5_reduce -> inception_4a/5x5_reduce
I0403 11:57:05.570238 11366 net.cpp:141] Setting up inception_4a/5x5_reduce
I0403 11:57:05.570264 11366 net.cpp:148] Top shape: 24 16 14 14 (75264)
I0403 11:57:05.570279 11366 net.cpp:156] Memory required for data: 873363840
I0403 11:57:05.570297 11366 layer_factory.hpp:77] Creating layer inception_4a/relu_5x5_reduce
I0403 11:57:05.570314 11366 net.cpp:91] Creating Layer inception_4a/relu_5x5_reduce
I0403 11:57:05.570329 11366 net.cpp:425] inception_4a/relu_5x5_reduce <- inception_4a/5x5_reduce
I0403 11:57:05.570346 11366 net.cpp:386] inception_4a/relu_5x5_reduce -> inception_4a/5x5_reduce (in-place)
I0403 11:57:05.570364 11366 net.cpp:141] Setting up inception_4a/relu_5x5_reduce
I0403 11:57:05.570380 11366 net.cpp:148] Top shape: 24 16 14 14 (75264)
I0403 11:57:05.570394 11366 net.cpp:156] Memory required for data: 873664896
I0403 11:57:05.570408 11366 layer_factory.hpp:77] Creating layer inception_4a/5x5
I0403 11:57:05.570430 11366 net.cpp:91] Creating Layer inception_4a/5x5
I0403 11:57:05.570446 11366 net.cpp:425] inception_4a/5x5 <- inception_4a/5x5_reduce
I0403 11:57:05.570466 11366 net.cpp:399] inception_4a/5x5 -> inception_4a/5x5
I0403 11:57:05.570803 11366 net.cpp:141] Setting up inception_4a/5x5
I0403 11:57:05.570829 11366 net.cpp:148] Top shape: 24 48 14 14 (225792)
I0403 11:57:05.570844 11366 net.cpp:156] Memory required for data: 874568064
I0403 11:57:05.570874 11366 layer_factory.hpp:77] Creating layer inception_4a/relu_5x5
I0403 11:57:05.570894 11366 net.cpp:91] Creating Layer inception_4a/relu_5x5
I0403 11:57:05.570911 11366 net.cpp:425] inception_4a/relu_5x5 <- inception_4a/5x5
I0403 11:57:05.570929 11366 net.cpp:386] inception_4a/relu_5x5 -> inception_4a/5x5 (in-place)
I0403 11:57:05.570947 11366 net.cpp:141] Setting up inception_4a/relu_5x5
I0403 11:57:05.570965 11366 net.cpp:148] Top shape: 24 48 14 14 (225792)
I0403 11:57:05.570978 11366 net.cpp:156] Memory required for data: 875471232
I0403 11:57:05.570992 11366 layer_factory.hpp:77] Creating layer inception_4a/pool
I0403 11:57:05.571012 11366 net.cpp:91] Creating Layer inception_4a/pool
I0403 11:57:05.571029 11366 net.cpp:425] inception_4a/pool <- pool3/3x3_s2_pool3/3x3_s2_0_split_3
I0403 11:57:05.571074 11366 net.cpp:399] inception_4a/pool -> inception_4a/pool
I0403 11:57:05.571122 11366 net.cpp:141] Setting up inception_4a/pool
I0403 11:57:05.571147 11366 net.cpp:148] Top shape: 24 480 14 14 (2257920)
I0403 11:57:05.571162 11366 net.cpp:156] Memory required for data: 884502912
I0403 11:57:05.571176 11366 layer_factory.hpp:77] Creating layer inception_4a/pool_proj
I0403 11:57:05.571195 11366 net.cpp:91] Creating Layer inception_4a/pool_proj
I0403 11:57:05.571211 11366 net.cpp:425] inception_4a/pool_proj <- inception_4a/pool
I0403 11:57:05.571231 11366 net.cpp:399] inception_4a/pool_proj -> inception_4a/pool_proj
I0403 11:57:05.571602 11366 net.cpp:141] Setting up inception_4a/pool_proj
I0403 11:57:05.571627 11366 net.cpp:148] Top shape: 24 64 14 14 (301056)
I0403 11:57:05.571641 11366 net.cpp:156] Memory required for data: 885707136
I0403 11:57:05.571658 11366 layer_factory.hpp:77] Creating layer inception_4a/relu_pool_proj
I0403 11:57:05.571676 11366 net.cpp:91] Creating Layer inception_4a/relu_pool_proj
I0403 11:57:05.571691 11366 net.cpp:425] inception_4a/relu_pool_proj <- inception_4a/pool_proj
I0403 11:57:05.571712 11366 net.cpp:386] inception_4a/relu_pool_proj -> inception_4a/pool_proj (in-place)
I0403 11:57:05.571732 11366 net.cpp:141] Setting up inception_4a/relu_pool_proj
I0403 11:57:05.571750 11366 net.cpp:148] Top shape: 24 64 14 14 (301056)
I0403 11:57:05.571764 11366 net.cpp:156] Memory required for data: 886911360
I0403 11:57:05.571777 11366 layer_factory.hpp:77] Creating layer inception_4a/output
I0403 11:57:05.571799 11366 net.cpp:91] Creating Layer inception_4a/output
I0403 11:57:05.571815 11366 net.cpp:425] inception_4a/output <- inception_4a/1x1
I0403 11:57:05.571831 11366 net.cpp:425] inception_4a/output <- inception_4a/3x3
I0403 11:57:05.571858 11366 net.cpp:425] inception_4a/output <- inception_4a/5x5
I0403 11:57:05.571873 11366 net.cpp:425] inception_4a/output <- inception_4a/pool_proj
I0403 11:57:05.571889 11366 net.cpp:399] inception_4a/output -> inception_4a/output
I0403 11:57:05.571926 11366 net.cpp:141] Setting up inception_4a/output
I0403 11:57:05.571949 11366 net.cpp:148] Top shape: 24 512 14 14 (2408448)
I0403 11:57:05.571961 11366 net.cpp:156] Memory required for data: 896545152
I0403 11:57:05.571976 11366 layer_factory.hpp:77] Creating layer inception_4a/output_inception_4a/output_0_split
I0403 11:57:05.571993 11366 net.cpp:91] Creating Layer inception_4a/output_inception_4a/output_0_split
I0403 11:57:05.572007 11366 net.cpp:425] inception_4a/output_inception_4a/output_0_split <- inception_4a/output
I0403 11:57:05.572026 11366 net.cpp:399] inception_4a/output_inception_4a/output_0_split -> inception_4a/output_inception_4a/output_0_split_0
I0403 11:57:05.572046 11366 net.cpp:399] inception_4a/output_inception_4a/output_0_split -> inception_4a/output_inception_4a/output_0_split_1
I0403 11:57:05.572065 11366 net.cpp:399] inception_4a/output_inception_4a/output_0_split -> inception_4a/output_inception_4a/output_0_split_2
I0403 11:57:05.572084 11366 net.cpp:399] inception_4a/output_inception_4a/output_0_split -> inception_4a/output_inception_4a/output_0_split_3
I0403 11:57:05.572103 11366 net.cpp:399] inception_4a/output_inception_4a/output_0_split -> inception_4a/output_inception_4a/output_0_split_4
I0403 11:57:05.572177 11366 net.cpp:141] Setting up inception_4a/output_inception_4a/output_0_split
I0403 11:57:05.572199 11366 net.cpp:148] Top shape: 24 512 14 14 (2408448)
I0403 11:57:05.572214 11366 net.cpp:148] Top shape: 24 512 14 14 (2408448)
I0403 11:57:05.572229 11366 net.cpp:148] Top shape: 24 512 14 14 (2408448)
I0403 11:57:05.572243 11366 net.cpp:148] Top shape: 24 512 14 14 (2408448)
I0403 11:57:05.572258 11366 net.cpp:148] Top shape: 24 512 14 14 (2408448)
I0403 11:57:05.572271 11366 net.cpp:156] Memory required for data: 944714112
I0403 11:57:05.572284 11366 layer_factory.hpp:77] Creating layer loss1/ave_pool
I0403 11:57:05.572302 11366 net.cpp:91] Creating Layer loss1/ave_pool
I0403 11:57:05.572330 11366 net.cpp:425] loss1/ave_pool <- inception_4a/output_inception_4a/output_0_split_0
I0403 11:57:05.572350 11366 net.cpp:399] loss1/ave_pool -> loss1/ave_pool
I0403 11:57:05.572387 11366 net.cpp:141] Setting up loss1/ave_pool
I0403 11:57:05.572412 11366 net.cpp:148] Top shape: 24 512 4 4 (196608)
I0403 11:57:05.572427 11366 net.cpp:156] Memory required for data: 945500544
I0403 11:57:05.572440 11366 layer_factory.hpp:77] Creating layer loss1/conv
I0403 11:57:05.572463 11366 net.cpp:91] Creating Layer loss1/conv
I0403 11:57:05.572479 11366 net.cpp:425] loss1/conv <- loss1/ave_pool
I0403 11:57:05.572496 11366 net.cpp:399] loss1/conv -> loss1/conv
I0403 11:57:05.573067 11366 net.cpp:141] Setting up loss1/conv
I0403 11:57:05.573091 11366 net.cpp:148] Top shape: 24 128 4 4 (49152)
I0403 11:57:05.573106 11366 net.cpp:156] Memory required for data: 945697152
I0403 11:57:05.573122 11366 layer_factory.hpp:77] Creating layer loss1/relu_conv
I0403 11:57:05.573139 11366 net.cpp:91] Creating Layer loss1/relu_conv
I0403 11:57:05.573156 11366 net.cpp:425] loss1/relu_conv <- loss1/conv
I0403 11:57:05.573173 11366 net.cpp:386] loss1/relu_conv -> loss1/conv (in-place)
I0403 11:57:05.573189 11366 net.cpp:141] Setting up loss1/relu_conv
I0403 11:57:05.573206 11366 net.cpp:148] Top shape: 24 128 4 4 (49152)
I0403 11:57:05.573220 11366 net.cpp:156] Memory required for data: 945893760
I0403 11:57:05.573233 11366 layer_factory.hpp:77] Creating layer loss1/fc
I0403 11:57:05.573257 11366 net.cpp:91] Creating Layer loss1/fc
I0403 11:57:05.573274 11366 net.cpp:425] loss1/fc <- loss1/conv
I0403 11:57:05.573293 11366 net.cpp:399] loss1/fc -> loss1/fc
I0403 11:57:05.588603 11366 net.cpp:141] Setting up loss1/fc
I0403 11:57:05.588647 11366 net.cpp:148] Top shape: 24 1024 (24576)
I0403 11:57:05.588662 11366 net.cpp:156] Memory required for data: 945992064
I0403 11:57:05.588680 11366 layer_factory.hpp:77] Creating layer loss1/relu_fc
I0403 11:57:05.588698 11366 net.cpp:91] Creating Layer loss1/relu_fc
I0403 11:57:05.588714 11366 net.cpp:425] loss1/relu_fc <- loss1/fc
I0403 11:57:05.588732 11366 net.cpp:386] loss1/relu_fc -> loss1/fc (in-place)
I0403 11:57:05.588752 11366 net.cpp:141] Setting up loss1/relu_fc
I0403 11:57:05.588768 11366 net.cpp:148] Top shape: 24 1024 (24576)
I0403 11:57:05.588781 11366 net.cpp:156] Memory required for data: 946090368
I0403 11:57:05.588800 11366 layer_factory.hpp:77] Creating layer loss1/drop_fc
I0403 11:57:05.588827 11366 net.cpp:91] Creating Layer loss1/drop_fc
I0403 11:57:05.588845 11366 net.cpp:425] loss1/drop_fc <- loss1/fc
I0403 11:57:05.588860 11366 net.cpp:386] loss1/drop_fc -> loss1/fc (in-place)
I0403 11:57:05.588904 11366 net.cpp:141] Setting up loss1/drop_fc
I0403 11:57:05.588924 11366 net.cpp:148] Top shape: 24 1024 (24576)
I0403 11:57:05.588938 11366 net.cpp:156] Memory required for data: 946188672
I0403 11:57:05.588953 11366 layer_factory.hpp:77] Creating layer loss1/classifier_plantvillage
I0403 11:57:05.588970 11366 net.cpp:91] Creating Layer loss1/classifier_plantvillage
I0403 11:57:05.588984 11366 net.cpp:425] loss1/classifier_plantvillage <- loss1/fc
I0403 11:57:05.589004 11366 net.cpp:399] loss1/classifier_plantvillage -> loss1/classifier_plantvillage
I0403 11:57:05.589828 11366 net.cpp:141] Setting up loss1/classifier_plantvillage
I0403 11:57:05.589854 11366 net.cpp:148] Top shape: 24 38 (912)
I0403 11:57:05.589869 11366 net.cpp:156] Memory required for data: 946192320
I0403 11:57:05.589885 11366 layer_factory.hpp:77] Creating layer inception_4b/1x1
I0403 11:57:05.589907 11366 net.cpp:91] Creating Layer inception_4b/1x1
I0403 11:57:05.589926 11366 net.cpp:425] inception_4b/1x1 <- inception_4a/output_inception_4a/output_0_split_1
I0403 11:57:05.589946 11366 net.cpp:399] inception_4b/1x1 -> inception_4b/1x1
I0403 11:57:05.590570 11366 net.cpp:141] Setting up inception_4b/1x1
I0403 11:57:05.590595 11366 net.cpp:148] Top shape: 24 160 14 14 (752640)
I0403 11:57:05.590608 11366 net.cpp:156] Memory required for data: 949202880
I0403 11:57:05.590625 11366 layer_factory.hpp:77] Creating layer inception_4b/relu_1x1
I0403 11:57:05.590659 11366 net.cpp:91] Creating Layer inception_4b/relu_1x1
I0403 11:57:05.590675 11366 net.cpp:425] inception_4b/relu_1x1 <- inception_4b/1x1
I0403 11:57:05.590692 11366 net.cpp:386] inception_4b/relu_1x1 -> inception_4b/1x1 (in-place)
I0403 11:57:05.590711 11366 net.cpp:141] Setting up inception_4b/relu_1x1
I0403 11:57:05.590726 11366 net.cpp:148] Top shape: 24 160 14 14 (752640)
I0403 11:57:05.590739 11366 net.cpp:156] Memory required for data: 952213440
I0403 11:57:05.590752 11366 layer_factory.hpp:77] Creating layer inception_4b/3x3_reduce
I0403 11:57:05.590773 11366 net.cpp:91] Creating Layer inception_4b/3x3_reduce
I0403 11:57:05.590801 11366 net.cpp:425] inception_4b/3x3_reduce <- inception_4a/output_inception_4a/output_0_split_2
I0403 11:57:05.590821 11366 net.cpp:399] inception_4b/3x3_reduce -> inception_4b/3x3_reduce
I0403 11:57:05.591310 11366 net.cpp:141] Setting up inception_4b/3x3_reduce
I0403 11:57:05.591334 11366 net.cpp:148] Top shape: 24 112 14 14 (526848)
I0403 11:57:05.591348 11366 net.cpp:156] Memory required for data: 954320832
I0403 11:57:05.591364 11366 layer_factory.hpp:77] Creating layer inception_4b/relu_3x3_reduce
I0403 11:57:05.591382 11366 net.cpp:91] Creating Layer inception_4b/relu_3x3_reduce
I0403 11:57:05.591397 11366 net.cpp:425] inception_4b/relu_3x3_reduce <- inception_4b/3x3_reduce
I0403 11:57:05.591413 11366 net.cpp:386] inception_4b/relu_3x3_reduce -> inception_4b/3x3_reduce (in-place)
I0403 11:57:05.591430 11366 net.cpp:141] Setting up inception_4b/relu_3x3_reduce
I0403 11:57:05.591447 11366 net.cpp:148] Top shape: 24 112 14 14 (526848)
I0403 11:57:05.591460 11366 net.cpp:156] Memory required for data: 956428224
I0403 11:57:05.591473 11366 layer_factory.hpp:77] Creating layer inception_4b/3x3
I0403 11:57:05.591495 11366 net.cpp:91] Creating Layer inception_4b/3x3
I0403 11:57:05.591511 11366 net.cpp:425] inception_4b/3x3 <- inception_4b/3x3_reduce
I0403 11:57:05.591544 11366 net.cpp:399] inception_4b/3x3 -> inception_4b/3x3
I0403 11:57:05.593407 11366 net.cpp:141] Setting up inception_4b/3x3
I0403 11:57:05.593433 11366 net.cpp:148] Top shape: 24 224 14 14 (1053696)
I0403 11:57:05.593448 11366 net.cpp:156] Memory required for data: 960643008
I0403 11:57:05.593466 11366 layer_factory.hpp:77] Creating layer inception_4b/relu_3x3
I0403 11:57:05.593483 11366 net.cpp:91] Creating Layer inception_4b/relu_3x3
I0403 11:57:05.593498 11366 net.cpp:425] inception_4b/relu_3x3 <- inception_4b/3x3
I0403 11:57:05.593514 11366 net.cpp:386] inception_4b/relu_3x3 -> inception_4b/3x3 (in-place)
I0403 11:57:05.593531 11366 net.cpp:141] Setting up inception_4b/relu_3x3
I0403 11:57:05.593549 11366 net.cpp:148] Top shape: 24 224 14 14 (1053696)
I0403 11:57:05.593561 11366 net.cpp:156] Memory required for data: 964857792
I0403 11:57:05.593575 11366 layer_factory.hpp:77] Creating layer inception_4b/5x5_reduce
I0403 11:57:05.593595 11366 net.cpp:91] Creating Layer inception_4b/5x5_reduce
I0403 11:57:05.593611 11366 net.cpp:425] inception_4b/5x5_reduce <- inception_4a/output_inception_4a/output_0_split_3
I0403 11:57:05.593631 11366 net.cpp:399] inception_4b/5x5_reduce -> inception_4b/5x5_reduce
I0403 11:57:05.593902 11366 net.cpp:141] Setting up inception_4b/5x5_reduce
I0403 11:57:05.593925 11366 net.cpp:148] Top shape: 24 24 14 14 (112896)
I0403 11:57:05.593940 11366 net.cpp:156] Memory required for data: 965309376
I0403 11:57:05.593956 11366 layer_factory.hpp:77] Creating layer inception_4b/relu_5x5_reduce
I0403 11:57:05.593973 11366 net.cpp:91] Creating Layer inception_4b/relu_5x5_reduce
I0403 11:57:05.593987 11366 net.cpp:425] inception_4b/relu_5x5_reduce <- inception_4b/5x5_reduce
I0403 11:57:05.594003 11366 net.cpp:386] inception_4b/relu_5x5_reduce -> inception_4b/5x5_reduce (in-place)
I0403 11:57:05.594022 11366 net.cpp:141] Setting up inception_4b/relu_5x5_reduce
I0403 11:57:05.594038 11366 net.cpp:148] Top shape: 24 24 14 14 (112896)
I0403 11:57:05.594050 11366 net.cpp:156] Memory required for data: 965760960
I0403 11:57:05.594064 11366 layer_factory.hpp:77] Creating layer inception_4b/5x5
I0403 11:57:05.594099 11366 net.cpp:91] Creating Layer inception_4b/5x5
I0403 11:57:05.594116 11366 net.cpp:425] inception_4b/5x5 <- inception_4b/5x5_reduce
I0403 11:57:05.594137 11366 net.cpp:399] inception_4b/5x5 -> inception_4b/5x5
I0403 11:57:05.594542 11366 net.cpp:141] Setting up inception_4b/5x5
I0403 11:57:05.594565 11366 net.cpp:148] Top shape: 24 64 14 14 (301056)
I0403 11:57:05.594580 11366 net.cpp:156] Memory required for data: 966965184
I0403 11:57:05.594596 11366 layer_factory.hpp:77] Creating layer inception_4b/relu_5x5
I0403 11:57:05.594614 11366 net.cpp:91] Creating Layer inception_4b/relu_5x5
I0403 11:57:05.594630 11366 net.cpp:425] inception_4b/relu_5x5 <- inception_4b/5x5
I0403 11:57:05.594645 11366 net.cpp:386] inception_4b/relu_5x5 -> inception_4b/5x5 (in-place)
I0403 11:57:05.594665 11366 net.cpp:141] Setting up inception_4b/relu_5x5
I0403 11:57:05.594681 11366 net.cpp:148] Top shape: 24 64 14 14 (301056)
I0403 11:57:05.594694 11366 net.cpp:156] Memory required for data: 968169408
I0403 11:57:05.594707 11366 layer_factory.hpp:77] Creating layer inception_4b/pool
I0403 11:57:05.594727 11366 net.cpp:91] Creating Layer inception_4b/pool
I0403 11:57:05.594743 11366 net.cpp:425] inception_4b/pool <- inception_4a/output_inception_4a/output_0_split_4
I0403 11:57:05.594761 11366 net.cpp:399] inception_4b/pool -> inception_4b/pool
I0403 11:57:05.594832 11366 net.cpp:141] Setting up inception_4b/pool
I0403 11:57:05.594854 11366 net.cpp:148] Top shape: 24 512 14 14 (2408448)
I0403 11:57:05.594868 11366 net.cpp:156] Memory required for data: 977803200
I0403 11:57:05.594882 11366 layer_factory.hpp:77] Creating layer inception_4b/pool_proj
I0403 11:57:05.594903 11366 net.cpp:91] Creating Layer inception_4b/pool_proj
I0403 11:57:05.594919 11366 net.cpp:425] inception_4b/pool_proj <- inception_4b/pool
I0403 11:57:05.594938 11366 net.cpp:399] inception_4b/pool_proj -> inception_4b/pool_proj
I0403 11:57:05.595306 11366 net.cpp:141] Setting up inception_4b/pool_proj
I0403 11:57:05.595330 11366 net.cpp:148] Top shape: 24 64 14 14 (301056)
I0403 11:57:05.595343 11366 net.cpp:156] Memory required for data: 979007424
I0403 11:57:05.595360 11366 layer_factory.hpp:77] Creating layer inception_4b/relu_pool_proj
I0403 11:57:05.595378 11366 net.cpp:91] Creating Layer inception_4b/relu_pool_proj
I0403 11:57:05.595396 11366 net.cpp:425] inception_4b/relu_pool_proj <- inception_4b/pool_proj
I0403 11:57:05.595412 11366 net.cpp:386] inception_4b/relu_pool_proj -> inception_4b/pool_proj (in-place)
I0403 11:57:05.595430 11366 net.cpp:141] Setting up inception_4b/relu_pool_proj
I0403 11:57:05.595446 11366 net.cpp:148] Top shape: 24 64 14 14 (301056)
I0403 11:57:05.595459 11366 net.cpp:156] Memory required for data: 980211648
I0403 11:57:05.595471 11366 layer_factory.hpp:77] Creating layer inception_4b/output
I0403 11:57:05.595487 11366 net.cpp:91] Creating Layer inception_4b/output
I0403 11:57:05.595502 11366 net.cpp:425] inception_4b/output <- inception_4b/1x1
I0403 11:57:05.595516 11366 net.cpp:425] inception_4b/output <- inception_4b/3x3
I0403 11:57:05.595530 11366 net.cpp:425] inception_4b/output <- inception_4b/5x5
I0403 11:57:05.595546 11366 net.cpp:425] inception_4b/output <- inception_4b/pool_proj
I0403 11:57:05.595561 11366 net.cpp:399] inception_4b/output -> inception_4b/output
I0403 11:57:05.595598 11366 net.cpp:141] Setting up inception_4b/output
I0403 11:57:05.595619 11366 net.cpp:148] Top shape: 24 512 14 14 (2408448)
I0403 11:57:05.595633 11366 net.cpp:156] Memory required for data: 989845440
I0403 11:57:05.595645 11366 layer_factory.hpp:77] Creating layer inception_4b/output_inception_4b/output_0_split
I0403 11:57:05.595664 11366 net.cpp:91] Creating Layer inception_4b/output_inception_4b/output_0_split
I0403 11:57:05.595680 11366 net.cpp:425] inception_4b/output_inception_4b/output_0_split <- inception_4b/output
I0403 11:57:05.595696 11366 net.cpp:399] inception_4b/output_inception_4b/output_0_split -> inception_4b/output_inception_4b/output_0_split_0
I0403 11:57:05.595716 11366 net.cpp:399] inception_4b/output_inception_4b/output_0_split -> inception_4b/output_inception_4b/output_0_split_1
I0403 11:57:05.595748 11366 net.cpp:399] inception_4b/output_inception_4b/output_0_split -> inception_4b/output_inception_4b/output_0_split_2
I0403 11:57:05.595770 11366 net.cpp:399] inception_4b/output_inception_4b/output_0_split -> inception_4b/output_inception_4b/output_0_split_3
I0403 11:57:05.595844 11366 net.cpp:141] Setting up inception_4b/output_inception_4b/output_0_split
I0403 11:57:05.595866 11366 net.cpp:148] Top shape: 24 512 14 14 (2408448)
I0403 11:57:05.595883 11366 net.cpp:148] Top shape: 24 512 14 14 (2408448)
I0403 11:57:05.595897 11366 net.cpp:148] Top shape: 24 512 14 14 (2408448)
I0403 11:57:05.595911 11366 net.cpp:148] Top shape: 24 512 14 14 (2408448)
I0403 11:57:05.595923 11366 net.cpp:156] Memory required for data: 1028380608
I0403 11:57:05.595937 11366 layer_factory.hpp:77] Creating layer inception_4c/1x1
I0403 11:57:05.595958 11366 net.cpp:91] Creating Layer inception_4c/1x1
I0403 11:57:05.595974 11366 net.cpp:425] inception_4c/1x1 <- inception_4b/output_inception_4b/output_0_split_0
I0403 11:57:05.595993 11366 net.cpp:399] inception_4c/1x1 -> inception_4c/1x1
I0403 11:57:05.596513 11366 net.cpp:141] Setting up inception_4c/1x1
I0403 11:57:05.596549 11366 net.cpp:148] Top shape: 24 128 14 14 (602112)
I0403 11:57:05.596562 11366 net.cpp:156] Memory required for data: 1030789056
I0403 11:57:05.596580 11366 layer_factory.hpp:77] Creating layer inception_4c/relu_1x1
I0403 11:57:05.596596 11366 net.cpp:91] Creating Layer inception_4c/relu_1x1
I0403 11:57:05.596612 11366 net.cpp:425] inception_4c/relu_1x1 <- inception_4c/1x1
I0403 11:57:05.596632 11366 net.cpp:386] inception_4c/relu_1x1 -> inception_4c/1x1 (in-place)
I0403 11:57:05.596652 11366 net.cpp:141] Setting up inception_4c/relu_1x1
I0403 11:57:05.596668 11366 net.cpp:148] Top shape: 24 128 14 14 (602112)
I0403 11:57:05.596683 11366 net.cpp:156] Memory required for data: 1033197504
I0403 11:57:05.596695 11366 layer_factory.hpp:77] Creating layer inception_4c/3x3_reduce
I0403 11:57:05.596717 11366 net.cpp:91] Creating Layer inception_4c/3x3_reduce
I0403 11:57:05.596735 11366 net.cpp:425] inception_4c/3x3_reduce <- inception_4b/output_inception_4b/output_0_split_1
I0403 11:57:05.596752 11366 net.cpp:399] inception_4c/3x3_reduce -> inception_4c/3x3_reduce
I0403 11:57:05.597836 11366 net.cpp:141] Setting up inception_4c/3x3_reduce
I0403 11:57:05.597863 11366 net.cpp:148] Top shape: 24 128 14 14 (602112)
I0403 11:57:05.597877 11366 net.cpp:156] Memory required for data: 1035605952
I0403 11:57:05.597894 11366 layer_factory.hpp:77] Creating layer inception_4c/relu_3x3_reduce
I0403 11:57:05.597910 11366 net.cpp:91] Creating Layer inception_4c/relu_3x3_reduce
I0403 11:57:05.597926 11366 net.cpp:425] inception_4c/relu_3x3_reduce <- inception_4c/3x3_reduce
I0403 11:57:05.597942 11366 net.cpp:386] inception_4c/relu_3x3_reduce -> inception_4c/3x3_reduce (in-place)
I0403 11:57:05.597961 11366 net.cpp:141] Setting up inception_4c/relu_3x3_reduce
I0403 11:57:05.597980 11366 net.cpp:148] Top shape: 24 128 14 14 (602112)
I0403 11:57:05.597992 11366 net.cpp:156] Memory required for data: 1038014400
I0403 11:57:05.598006 11366 layer_factory.hpp:77] Creating layer inception_4c/3x3
I0403 11:57:05.598026 11366 net.cpp:91] Creating Layer inception_4c/3x3
I0403 11:57:05.598042 11366 net.cpp:425] inception_4c/3x3 <- inception_4c/3x3_reduce
I0403 11:57:05.598060 11366 net.cpp:399] inception_4c/3x3 -> inception_4c/3x3
I0403 11:57:05.600330 11366 net.cpp:141] Setting up inception_4c/3x3
I0403 11:57:05.600356 11366 net.cpp:148] Top shape: 24 256 14 14 (1204224)
I0403 11:57:05.600370 11366 net.cpp:156] Memory required for data: 1042831296
I0403 11:57:05.600400 11366 layer_factory.hpp:77] Creating layer inception_4c/relu_3x3
I0403 11:57:05.600419 11366 net.cpp:91] Creating Layer inception_4c/relu_3x3
I0403 11:57:05.600436 11366 net.cpp:425] inception_4c/relu_3x3 <- inception_4c/3x3
I0403 11:57:05.600452 11366 net.cpp:386] inception_4c/relu_3x3 -> inception_4c/3x3 (in-place)
I0403 11:57:05.600486 11366 net.cpp:141] Setting up inception_4c/relu_3x3
I0403 11:57:05.600502 11366 net.cpp:148] Top shape: 24 256 14 14 (1204224)
I0403 11:57:05.600528 11366 net.cpp:156] Memory required for data: 1047648192
I0403 11:57:05.600543 11366 layer_factory.hpp:77] Creating layer inception_4c/5x5_reduce
I0403 11:57:05.600564 11366 net.cpp:91] Creating Layer inception_4c/5x5_reduce
I0403 11:57:05.600582 11366 net.cpp:425] inception_4c/5x5_reduce <- inception_4b/output_inception_4b/output_0_split_2
I0403 11:57:05.600600 11366 net.cpp:399] inception_4c/5x5_reduce -> inception_4c/5x5_reduce
I0403 11:57:05.600886 11366 net.cpp:141] Setting up inception_4c/5x5_reduce
I0403 11:57:05.600910 11366 net.cpp:148] Top shape: 24 24 14 14 (112896)
I0403 11:57:05.600924 11366 net.cpp:156] Memory required for data: 1048099776
I0403 11:57:05.600941 11366 layer_factory.hpp:77] Creating layer inception_4c/relu_5x5_reduce
I0403 11:57:05.600958 11366 net.cpp:91] Creating Layer inception_4c/relu_5x5_reduce
I0403 11:57:05.600980 11366 net.cpp:425] inception_4c/relu_5x5_reduce <- inception_4c/5x5_reduce
I0403 11:57:05.600996 11366 net.cpp:386] inception_4c/relu_5x5_reduce -> inception_4c/5x5_reduce (in-place)
I0403 11:57:05.601014 11366 net.cpp:141] Setting up inception_4c/relu_5x5_reduce
I0403 11:57:05.601030 11366 net.cpp:148] Top shape: 24 24 14 14 (112896)
I0403 11:57:05.601043 11366 net.cpp:156] Memory required for data: 1048551360
I0403 11:57:05.601057 11366 layer_factory.hpp:77] Creating layer inception_4c/5x5
I0403 11:57:05.601078 11366 net.cpp:91] Creating Layer inception_4c/5x5
I0403 11:57:05.601094 11366 net.cpp:425] inception_4c/5x5 <- inception_4c/5x5_reduce
I0403 11:57:05.601111 11366 net.cpp:399] inception_4c/5x5 -> inception_4c/5x5
I0403 11:57:05.601508 11366 net.cpp:141] Setting up inception_4c/5x5
I0403 11:57:05.601531 11366 net.cpp:148] Top shape: 24 64 14 14 (301056)
I0403 11:57:05.601546 11366 net.cpp:156] Memory required for data: 1049755584
I0403 11:57:05.601562 11366 layer_factory.hpp:77] Creating layer inception_4c/relu_5x5
I0403 11:57:05.601578 11366 net.cpp:91] Creating Layer inception_4c/relu_5x5
I0403 11:57:05.601593 11366 net.cpp:425] inception_4c/relu_5x5 <- inception_4c/5x5
I0403 11:57:05.601611 11366 net.cpp:386] inception_4c/relu_5x5 -> inception_4c/5x5 (in-place)
I0403 11:57:05.601629 11366 net.cpp:141] Setting up inception_4c/relu_5x5
I0403 11:57:05.601646 11366 net.cpp:148] Top shape: 24 64 14 14 (301056)
I0403 11:57:05.601660 11366 net.cpp:156] Memory required for data: 1050959808
I0403 11:57:05.601672 11366 layer_factory.hpp:77] Creating layer inception_4c/pool
I0403 11:57:05.601688 11366 net.cpp:91] Creating Layer inception_4c/pool
I0403 11:57:05.601704 11366 net.cpp:425] inception_4c/pool <- inception_4b/output_inception_4b/output_0_split_3
I0403 11:57:05.601723 11366 net.cpp:399] inception_4c/pool -> inception_4c/pool
I0403 11:57:05.601771 11366 net.cpp:141] Setting up inception_4c/pool
I0403 11:57:05.601797 11366 net.cpp:148] Top shape: 24 512 14 14 (2408448)
I0403 11:57:05.601812 11366 net.cpp:156] Memory required for data: 1060593600
I0403 11:57:05.601826 11366 layer_factory.hpp:77] Creating layer inception_4c/pool_proj
I0403 11:57:05.601847 11366 net.cpp:91] Creating Layer inception_4c/pool_proj
I0403 11:57:05.601864 11366 net.cpp:425] inception_4c/pool_proj <- inception_4c/pool
I0403 11:57:05.601883 11366 net.cpp:399] inception_4c/pool_proj -> inception_4c/pool_proj
I0403 11:57:05.602252 11366 net.cpp:141] Setting up inception_4c/pool_proj
I0403 11:57:05.602274 11366 net.cpp:148] Top shape: 24 64 14 14 (301056)
I0403 11:57:05.602288 11366 net.cpp:156] Memory required for data: 1061797824
I0403 11:57:05.602305 11366 layer_factory.hpp:77] Creating layer inception_4c/relu_pool_proj
I0403 11:57:05.602322 11366 net.cpp:91] Creating Layer inception_4c/relu_pool_proj
I0403 11:57:05.602337 11366 net.cpp:425] inception_4c/relu_pool_proj <- inception_4c/pool_proj
I0403 11:57:05.602354 11366 net.cpp:386] inception_4c/relu_pool_proj -> inception_4c/pool_proj (in-place)
I0403 11:57:05.602372 11366 net.cpp:141] Setting up inception_4c/relu_pool_proj
I0403 11:57:05.602401 11366 net.cpp:148] Top shape: 24 64 14 14 (301056)
I0403 11:57:05.602414 11366 net.cpp:156] Memory required for data: 1063002048
I0403 11:57:05.602427 11366 layer_factory.hpp:77] Creating layer inception_4c/output
I0403 11:57:05.602447 11366 net.cpp:91] Creating Layer inception_4c/output
I0403 11:57:05.602461 11366 net.cpp:425] inception_4c/output <- inception_4c/1x1
I0403 11:57:05.602476 11366 net.cpp:425] inception_4c/output <- inception_4c/3x3
I0403 11:57:05.602491 11366 net.cpp:425] inception_4c/output <- inception_4c/5x5
I0403 11:57:05.602506 11366 net.cpp:425] inception_4c/output <- inception_4c/pool_proj
I0403 11:57:05.602522 11366 net.cpp:399] inception_4c/output -> inception_4c/output
I0403 11:57:05.602560 11366 net.cpp:141] Setting up inception_4c/output
I0403 11:57:05.602581 11366 net.cpp:148] Top shape: 24 512 14 14 (2408448)
I0403 11:57:05.602596 11366 net.cpp:156] Memory required for data: 1072635840
I0403 11:57:05.602608 11366 layer_factory.hpp:77] Creating layer inception_4c/output_inception_4c/output_0_split
I0403 11:57:05.602624 11366 net.cpp:91] Creating Layer inception_4c/output_inception_4c/output_0_split
I0403 11:57:05.602639 11366 net.cpp:425] inception_4c/output_inception_4c/output_0_split <- inception_4c/output
I0403 11:57:05.602658 11366 net.cpp:399] inception_4c/output_inception_4c/output_0_split -> inception_4c/output_inception_4c/output_0_split_0
I0403 11:57:05.602679 11366 net.cpp:399] inception_4c/output_inception_4c/output_0_split -> inception_4c/output_inception_4c/output_0_split_1
I0403 11:57:05.602697 11366 net.cpp:399] inception_4c/output_inception_4c/output_0_split -> inception_4c/output_inception_4c/output_0_split_2
I0403 11:57:05.602716 11366 net.cpp:399] inception_4c/output_inception_4c/output_0_split -> inception_4c/output_inception_4c/output_0_split_3
I0403 11:57:05.602779 11366 net.cpp:141] Setting up inception_4c/output_inception_4c/output_0_split
I0403 11:57:05.602807 11366 net.cpp:148] Top shape: 24 512 14 14 (2408448)
I0403 11:57:05.602825 11366 net.cpp:148] Top shape: 24 512 14 14 (2408448)
I0403 11:57:05.602839 11366 net.cpp:148] Top shape: 24 512 14 14 (2408448)
I0403 11:57:05.602854 11366 net.cpp:148] Top shape: 24 512 14 14 (2408448)
I0403 11:57:05.602867 11366 net.cpp:156] Memory required for data: 1111171008
I0403 11:57:05.602880 11366 layer_factory.hpp:77] Creating layer inception_4d/1x1
I0403 11:57:05.602902 11366 net.cpp:91] Creating Layer inception_4d/1x1
I0403 11:57:05.602919 11366 net.cpp:425] inception_4d/1x1 <- inception_4c/output_inception_4c/output_0_split_0
I0403 11:57:05.602936 11366 net.cpp:399] inception_4d/1x1 -> inception_4d/1x1
I0403 11:57:05.603421 11366 net.cpp:141] Setting up inception_4d/1x1
I0403 11:57:05.603445 11366 net.cpp:148] Top shape: 24 112 14 14 (526848)
I0403 11:57:05.603458 11366 net.cpp:156] Memory required for data: 1113278400
I0403 11:57:05.603474 11366 layer_factory.hpp:77] Creating layer inception_4d/relu_1x1
I0403 11:57:05.603492 11366 net.cpp:91] Creating Layer inception_4d/relu_1x1
I0403 11:57:05.603507 11366 net.cpp:425] inception_4d/relu_1x1 <- inception_4d/1x1
I0403 11:57:05.603541 11366 net.cpp:386] inception_4d/relu_1x1 -> inception_4d/1x1 (in-place)
I0403 11:57:05.603560 11366 net.cpp:141] Setting up inception_4d/relu_1x1
I0403 11:57:05.603577 11366 net.cpp:148] Top shape: 24 112 14 14 (526848)
I0403 11:57:05.603590 11366 net.cpp:156] Memory required for data: 1115385792
I0403 11:57:05.603605 11366 layer_factory.hpp:77] Creating layer inception_4d/3x3_reduce
I0403 11:57:05.603622 11366 net.cpp:91] Creating Layer inception_4d/3x3_reduce
I0403 11:57:05.603638 11366 net.cpp:425] inception_4d/3x3_reduce <- inception_4c/output_inception_4c/output_0_split_1
I0403 11:57:05.603659 11366 net.cpp:399] inception_4d/3x3_reduce -> inception_4d/3x3_reduce
I0403 11:57:05.604269 11366 net.cpp:141] Setting up inception_4d/3x3_reduce
I0403 11:57:05.604292 11366 net.cpp:148] Top shape: 24 144 14 14 (677376)
I0403 11:57:05.604307 11366 net.cpp:156] Memory required for data: 1118095296
I0403 11:57:05.604336 11366 layer_factory.hpp:77] Creating layer inception_4d/relu_3x3_reduce
I0403 11:57:05.604354 11366 net.cpp:91] Creating Layer inception_4d/relu_3x3_reduce
I0403 11:57:05.604369 11366 net.cpp:425] inception_4d/relu_3x3_reduce <- inception_4d/3x3_reduce
I0403 11:57:05.604387 11366 net.cpp:386] inception_4d/relu_3x3_reduce -> inception_4d/3x3_reduce (in-place)
I0403 11:57:05.604406 11366 net.cpp:141] Setting up inception_4d/relu_3x3_reduce
I0403 11:57:05.604423 11366 net.cpp:148] Top shape: 24 144 14 14 (677376)
I0403 11:57:05.604436 11366 net.cpp:156] Memory required for data: 1120804800
I0403 11:57:05.604449 11366 layer_factory.hpp:77] Creating layer inception_4d/3x3
I0403 11:57:05.604470 11366 net.cpp:91] Creating Layer inception_4d/3x3
I0403 11:57:05.604486 11366 net.cpp:425] inception_4d/3x3 <- inception_4d/3x3_reduce
I0403 11:57:05.604503 11366 net.cpp:399] inception_4d/3x3 -> inception_4d/3x3
I0403 11:57:05.607441 11366 net.cpp:141] Setting up inception_4d/3x3
I0403 11:57:05.607470 11366 net.cpp:148] Top shape: 24 288 14 14 (1354752)
I0403 11:57:05.607486 11366 net.cpp:156] Memory required for data: 1126223808
I0403 11:57:05.607517 11366 layer_factory.hpp:77] Creating layer inception_4d/relu_3x3
I0403 11:57:05.607533 11366 net.cpp:91] Creating Layer inception_4d/relu_3x3
I0403 11:57:05.607549 11366 net.cpp:425] inception_4d/relu_3x3 <- inception_4d/3x3
I0403 11:57:05.607566 11366 net.cpp:386] inception_4d/relu_3x3 -> inception_4d/3x3 (in-place)
I0403 11:57:05.607584 11366 net.cpp:141] Setting up inception_4d/relu_3x3
I0403 11:57:05.607601 11366 net.cpp:148] Top shape: 24 288 14 14 (1354752)
I0403 11:57:05.607615 11366 net.cpp:156] Memory required for data: 1131642816
I0403 11:57:05.607628 11366 layer_factory.hpp:77] Creating layer inception_4d/5x5_reduce
I0403 11:57:05.607650 11366 net.cpp:91] Creating Layer inception_4d/5x5_reduce
I0403 11:57:05.607667 11366 net.cpp:425] inception_4d/5x5_reduce <- inception_4c/output_inception_4c/output_0_split_2
I0403 11:57:05.607688 11366 net.cpp:399] inception_4d/5x5_reduce -> inception_4d/5x5_reduce
I0403 11:57:05.607998 11366 net.cpp:141] Setting up inception_4d/5x5_reduce
I0403 11:57:05.608021 11366 net.cpp:148] Top shape: 24 32 14 14 (150528)
I0403 11:57:05.608036 11366 net.cpp:156] Memory required for data: 1132244928
I0403 11:57:05.608052 11366 layer_factory.hpp:77] Creating layer inception_4d/relu_5x5_reduce
I0403 11:57:05.608072 11366 net.cpp:91] Creating Layer inception_4d/relu_5x5_reduce
I0403 11:57:05.608088 11366 net.cpp:425] inception_4d/relu_5x5_reduce <- inception_4d/5x5_reduce
I0403 11:57:05.608104 11366 net.cpp:386] inception_4d/relu_5x5_reduce -> inception_4d/5x5_reduce (in-place)
I0403 11:57:05.608121 11366 net.cpp:141] Setting up inception_4d/relu_5x5_reduce
I0403 11:57:05.608137 11366 net.cpp:148] Top shape: 24 32 14 14 (150528)
I0403 11:57:05.608150 11366 net.cpp:156] Memory required for data: 1132847040
I0403 11:57:05.608163 11366 layer_factory.hpp:77] Creating layer inception_4d/5x5
I0403 11:57:05.608185 11366 net.cpp:91] Creating Layer inception_4d/5x5
I0403 11:57:05.608201 11366 net.cpp:425] inception_4d/5x5 <- inception_4d/5x5_reduce
I0403 11:57:05.608218 11366 net.cpp:399] inception_4d/5x5 -> inception_4d/5x5
I0403 11:57:05.608680 11366 net.cpp:141] Setting up inception_4d/5x5
I0403 11:57:05.608705 11366 net.cpp:148] Top shape: 24 64 14 14 (301056)
I0403 11:57:05.608718 11366 net.cpp:156] Memory required for data: 1134051264
I0403 11:57:05.608736 11366 layer_factory.hpp:77] Creating layer inception_4d/relu_5x5
I0403 11:57:05.608752 11366 net.cpp:91] Creating Layer inception_4d/relu_5x5
I0403 11:57:05.608767 11366 net.cpp:425] inception_4d/relu_5x5 <- inception_4d/5x5
I0403 11:57:05.608783 11366 net.cpp:386] inception_4d/relu_5x5 -> inception_4d/5x5 (in-place)
I0403 11:57:05.608805 11366 net.cpp:141] Setting up inception_4d/relu_5x5
I0403 11:57:05.608822 11366 net.cpp:148] Top shape: 24 64 14 14 (301056)
I0403 11:57:05.608835 11366 net.cpp:156] Memory required for data: 1135255488
I0403 11:57:05.608850 11366 layer_factory.hpp:77] Creating layer inception_4d/pool
I0403 11:57:05.608878 11366 net.cpp:91] Creating Layer inception_4d/pool
I0403 11:57:05.608896 11366 net.cpp:425] inception_4d/pool <- inception_4c/output_inception_4c/output_0_split_3
I0403 11:57:05.608914 11366 net.cpp:399] inception_4d/pool -> inception_4d/pool
I0403 11:57:05.608966 11366 net.cpp:141] Setting up inception_4d/pool
I0403 11:57:05.608989 11366 net.cpp:148] Top shape: 24 512 14 14 (2408448)
I0403 11:57:05.609002 11366 net.cpp:156] Memory required for data: 1144889280
I0403 11:57:05.609016 11366 layer_factory.hpp:77] Creating layer inception_4d/pool_proj
I0403 11:57:05.609038 11366 net.cpp:91] Creating Layer inception_4d/pool_proj
I0403 11:57:05.609055 11366 net.cpp:425] inception_4d/pool_proj <- inception_4d/pool
I0403 11:57:05.609072 11366 net.cpp:399] inception_4d/pool_proj -> inception_4d/pool_proj
I0403 11:57:05.609935 11366 net.cpp:141] Setting up inception_4d/pool_proj
I0403 11:57:05.609962 11366 net.cpp:148] Top shape: 24 64 14 14 (301056)
I0403 11:57:05.609977 11366 net.cpp:156] Memory required for data: 1146093504
I0403 11:57:05.609993 11366 layer_factory.hpp:77] Creating layer inception_4d/relu_pool_proj
I0403 11:57:05.610010 11366 net.cpp:91] Creating Layer inception_4d/relu_pool_proj
I0403 11:57:05.610026 11366 net.cpp:425] inception_4d/relu_pool_proj <- inception_4d/pool_proj
I0403 11:57:05.610044 11366 net.cpp:386] inception_4d/relu_pool_proj -> inception_4d/pool_proj (in-place)
I0403 11:57:05.610064 11366 net.cpp:141] Setting up inception_4d/relu_pool_proj
I0403 11:57:05.610080 11366 net.cpp:148] Top shape: 24 64 14 14 (301056)
I0403 11:57:05.610095 11366 net.cpp:156] Memory required for data: 1147297728
I0403 11:57:05.610107 11366 layer_factory.hpp:77] Creating layer inception_4d/output
I0403 11:57:05.610123 11366 net.cpp:91] Creating Layer inception_4d/output
I0403 11:57:05.610138 11366 net.cpp:425] inception_4d/output <- inception_4d/1x1
I0403 11:57:05.610153 11366 net.cpp:425] inception_4d/output <- inception_4d/3x3
I0403 11:57:05.610168 11366 net.cpp:425] inception_4d/output <- inception_4d/5x5
I0403 11:57:05.610183 11366 net.cpp:425] inception_4d/output <- inception_4d/pool_proj
I0403 11:57:05.610198 11366 net.cpp:399] inception_4d/output -> inception_4d/output
I0403 11:57:05.610235 11366 net.cpp:141] Setting up inception_4d/output
I0403 11:57:05.610257 11366 net.cpp:148] Top shape: 24 528 14 14 (2483712)
I0403 11:57:05.610270 11366 net.cpp:156] Memory required for data: 1157232576
I0403 11:57:05.610285 11366 layer_factory.hpp:77] Creating layer inception_4d/output_inception_4d/output_0_split
I0403 11:57:05.610301 11366 net.cpp:91] Creating Layer inception_4d/output_inception_4d/output_0_split
I0403 11:57:05.610316 11366 net.cpp:425] inception_4d/output_inception_4d/output_0_split <- inception_4d/output
I0403 11:57:05.610333 11366 net.cpp:399] inception_4d/output_inception_4d/output_0_split -> inception_4d/output_inception_4d/output_0_split_0
I0403 11:57:05.610353 11366 net.cpp:399] inception_4d/output_inception_4d/output_0_split -> inception_4d/output_inception_4d/output_0_split_1
I0403 11:57:05.610373 11366 net.cpp:399] inception_4d/output_inception_4d/output_0_split -> inception_4d/output_inception_4d/output_0_split_2
I0403 11:57:05.610391 11366 net.cpp:399] inception_4d/output_inception_4d/output_0_split -> inception_4d/output_inception_4d/output_0_split_3
I0403 11:57:05.610409 11366 net.cpp:399] inception_4d/output_inception_4d/output_0_split -> inception_4d/output_inception_4d/output_0_split_4
I0403 11:57:05.610486 11366 net.cpp:141] Setting up inception_4d/output_inception_4d/output_0_split
I0403 11:57:05.610507 11366 net.cpp:148] Top shape: 24 528 14 14 (2483712)
I0403 11:57:05.610534 11366 net.cpp:148] Top shape: 24 528 14 14 (2483712)
I0403 11:57:05.610549 11366 net.cpp:148] Top shape: 24 528 14 14 (2483712)
I0403 11:57:05.610564 11366 net.cpp:148] Top shape: 24 528 14 14 (2483712)
I0403 11:57:05.610579 11366 net.cpp:148] Top shape: 24 528 14 14 (2483712)
I0403 11:57:05.610592 11366 net.cpp:156] Memory required for data: 1206906816
I0403 11:57:05.610620 11366 layer_factory.hpp:77] Creating layer loss2/ave_pool
I0403 11:57:05.610637 11366 net.cpp:91] Creating Layer loss2/ave_pool
I0403 11:57:05.610653 11366 net.cpp:425] loss2/ave_pool <- inception_4d/output_inception_4d/output_0_split_0
I0403 11:57:05.610672 11366 net.cpp:399] loss2/ave_pool -> loss2/ave_pool
I0403 11:57:05.610710 11366 net.cpp:141] Setting up loss2/ave_pool
I0403 11:57:05.610733 11366 net.cpp:148] Top shape: 24 528 4 4 (202752)
I0403 11:57:05.610749 11366 net.cpp:156] Memory required for data: 1207717824
I0403 11:57:05.610762 11366 layer_factory.hpp:77] Creating layer loss2/conv
I0403 11:57:05.610782 11366 net.cpp:91] Creating Layer loss2/conv
I0403 11:57:05.610816 11366 net.cpp:425] loss2/conv <- loss2/ave_pool
I0403 11:57:05.610836 11366 net.cpp:399] loss2/conv -> loss2/conv
I0403 11:57:05.611874 11366 net.cpp:141] Setting up loss2/conv
I0403 11:57:05.611901 11366 net.cpp:148] Top shape: 24 128 4 4 (49152)
I0403 11:57:05.611915 11366 net.cpp:156] Memory required for data: 1207914432
I0403 11:57:05.611932 11366 layer_factory.hpp:77] Creating layer loss2/relu_conv
I0403 11:57:05.611949 11366 net.cpp:91] Creating Layer loss2/relu_conv
I0403 11:57:05.611965 11366 net.cpp:425] loss2/relu_conv <- loss2/conv
I0403 11:57:05.611981 11366 net.cpp:386] loss2/relu_conv -> loss2/conv (in-place)
I0403 11:57:05.611999 11366 net.cpp:141] Setting up loss2/relu_conv
I0403 11:57:05.612015 11366 net.cpp:148] Top shape: 24 128 4 4 (49152)
I0403 11:57:05.612028 11366 net.cpp:156] Memory required for data: 1208111040
I0403 11:57:05.612041 11366 layer_factory.hpp:77] Creating layer loss2/fc
I0403 11:57:05.612061 11366 net.cpp:91] Creating Layer loss2/fc
I0403 11:57:05.612078 11366 net.cpp:425] loss2/fc <- loss2/conv
I0403 11:57:05.612095 11366 net.cpp:399] loss2/fc -> loss2/fc
I0403 11:57:05.627199 11366 net.cpp:141] Setting up loss2/fc
I0403 11:57:05.627233 11366 net.cpp:148] Top shape: 24 1024 (24576)
I0403 11:57:05.627248 11366 net.cpp:156] Memory required for data: 1208209344
I0403 11:57:05.627264 11366 layer_factory.hpp:77] Creating layer loss2/relu_fc
I0403 11:57:05.627282 11366 net.cpp:91] Creating Layer loss2/relu_fc
I0403 11:57:05.627300 11366 net.cpp:425] loss2/relu_fc <- loss2/fc
I0403 11:57:05.627317 11366 net.cpp:386] loss2/relu_fc -> loss2/fc (in-place)
I0403 11:57:05.627336 11366 net.cpp:141] Setting up loss2/relu_fc
I0403 11:57:05.627352 11366 net.cpp:148] Top shape: 24 1024 (24576)
I0403 11:57:05.627365 11366 net.cpp:156] Memory required for data: 1208307648
I0403 11:57:05.627378 11366 layer_factory.hpp:77] Creating layer loss2/drop_fc
I0403 11:57:05.627395 11366 net.cpp:91] Creating Layer loss2/drop_fc
I0403 11:57:05.627409 11366 net.cpp:425] loss2/drop_fc <- loss2/fc
I0403 11:57:05.627425 11366 net.cpp:386] loss2/drop_fc -> loss2/fc (in-place)
I0403 11:57:05.627463 11366 net.cpp:141] Setting up loss2/drop_fc
I0403 11:57:05.627485 11366 net.cpp:148] Top shape: 24 1024 (24576)
I0403 11:57:05.627498 11366 net.cpp:156] Memory required for data: 1208405952
I0403 11:57:05.627512 11366 layer_factory.hpp:77] Creating layer loss2/classifier_plantvillage
I0403 11:57:05.627545 11366 net.cpp:91] Creating Layer loss2/classifier_plantvillage
I0403 11:57:05.627562 11366 net.cpp:425] loss2/classifier_plantvillage <- loss2/fc
I0403 11:57:05.627579 11366 net.cpp:399] loss2/classifier_plantvillage -> loss2/classifier_plantvillage
I0403 11:57:05.627904 11366 net.cpp:141] Setting up loss2/classifier_plantvillage
I0403 11:57:05.627928 11366 net.cpp:148] Top shape: 24 38 (912)
I0403 11:57:05.627943 11366 net.cpp:156] Memory required for data: 1208409600
I0403 11:57:05.627959 11366 layer_factory.hpp:77] Creating layer inception_4e/1x1
I0403 11:57:05.627982 11366 net.cpp:91] Creating Layer inception_4e/1x1
I0403 11:57:05.628000 11366 net.cpp:425] inception_4e/1x1 <- inception_4d/output_inception_4d/output_0_split_1
I0403 11:57:05.628018 11366 net.cpp:399] inception_4e/1x1 -> inception_4e/1x1
I0403 11:57:05.628926 11366 net.cpp:141] Setting up inception_4e/1x1
I0403 11:57:05.628949 11366 net.cpp:148] Top shape: 24 256 14 14 (1204224)
I0403 11:57:05.628979 11366 net.cpp:156] Memory required for data: 1213226496
I0403 11:57:05.628998 11366 layer_factory.hpp:77] Creating layer inception_4e/relu_1x1
I0403 11:57:05.629014 11366 net.cpp:91] Creating Layer inception_4e/relu_1x1
I0403 11:57:05.629029 11366 net.cpp:425] inception_4e/relu_1x1 <- inception_4e/1x1
I0403 11:57:05.629048 11366 net.cpp:386] inception_4e/relu_1x1 -> inception_4e/1x1 (in-place)
I0403 11:57:05.629067 11366 net.cpp:141] Setting up inception_4e/relu_1x1
I0403 11:57:05.629084 11366 net.cpp:148] Top shape: 24 256 14 14 (1204224)
I0403 11:57:05.629099 11366 net.cpp:156] Memory required for data: 1218043392
I0403 11:57:05.629112 11366 layer_factory.hpp:77] Creating layer inception_4e/3x3_reduce
I0403 11:57:05.629133 11366 net.cpp:91] Creating Layer inception_4e/3x3_reduce
I0403 11:57:05.629159 11366 net.cpp:425] inception_4e/3x3_reduce <- inception_4d/output_inception_4d/output_0_split_2
I0403 11:57:05.629178 11366 net.cpp:399] inception_4e/3x3_reduce -> inception_4e/3x3_reduce
I0403 11:57:05.630312 11366 net.cpp:141] Setting up inception_4e/3x3_reduce
I0403 11:57:05.630338 11366 net.cpp:148] Top shape: 24 160 14 14 (752640)
I0403 11:57:05.630353 11366 net.cpp:156] Memory required for data: 1221053952
I0403 11:57:05.630370 11366 layer_factory.hpp:77] Creating layer inception_4e/relu_3x3_reduce
I0403 11:57:05.630388 11366 net.cpp:91] Creating Layer inception_4e/relu_3x3_reduce
I0403 11:57:05.630403 11366 net.cpp:425] inception_4e/relu_3x3_reduce <- inception_4e/3x3_reduce
I0403 11:57:05.630420 11366 net.cpp:386] inception_4e/relu_3x3_reduce -> inception_4e/3x3_reduce (in-place)
I0403 11:57:05.630439 11366 net.cpp:141] Setting up inception_4e/relu_3x3_reduce
I0403 11:57:05.630455 11366 net.cpp:148] Top shape: 24 160 14 14 (752640)
I0403 11:57:05.630468 11366 net.cpp:156] Memory required for data: 1224064512
I0403 11:57:05.630481 11366 layer_factory.hpp:77] Creating layer inception_4e/3x3
I0403 11:57:05.630503 11366 net.cpp:91] Creating Layer inception_4e/3x3
I0403 11:57:05.630532 11366 net.cpp:425] inception_4e/3x3 <- inception_4e/3x3_reduce
I0403 11:57:05.630554 11366 net.cpp:399] inception_4e/3x3 -> inception_4e/3x3
I0403 11:57:05.634138 11366 net.cpp:141] Setting up inception_4e/3x3
I0403 11:57:05.634166 11366 net.cpp:148] Top shape: 24 320 14 14 (1505280)
I0403 11:57:05.634182 11366 net.cpp:156] Memory required for data: 1230085632
I0403 11:57:05.634199 11366 layer_factory.hpp:77] Creating layer inception_4e/relu_3x3
I0403 11:57:05.634220 11366 net.cpp:91] Creating Layer inception_4e/relu_3x3
I0403 11:57:05.634238 11366 net.cpp:425] inception_4e/relu_3x3 <- inception_4e/3x3
I0403 11:57:05.634254 11366 net.cpp:386] inception_4e/relu_3x3 -> inception_4e/3x3 (in-place)
I0403 11:57:05.634274 11366 net.cpp:141] Setting up inception_4e/relu_3x3
I0403 11:57:05.634289 11366 net.cpp:148] Top shape: 24 320 14 14 (1505280)
I0403 11:57:05.634302 11366 net.cpp:156] Memory required for data: 1236106752
I0403 11:57:05.634316 11366 layer_factory.hpp:77] Creating layer inception_4e/5x5_reduce
I0403 11:57:05.634337 11366 net.cpp:91] Creating Layer inception_4e/5x5_reduce
I0403 11:57:05.634354 11366 net.cpp:425] inception_4e/5x5_reduce <- inception_4d/output_inception_4d/output_0_split_3
I0403 11:57:05.634372 11366 net.cpp:399] inception_4e/5x5_reduce -> inception_4e/5x5_reduce
I0403 11:57:05.634667 11366 net.cpp:141] Setting up inception_4e/5x5_reduce
I0403 11:57:05.634690 11366 net.cpp:148] Top shape: 24 32 14 14 (150528)
I0403 11:57:05.634706 11366 net.cpp:156] Memory required for data: 1236708864
I0403 11:57:05.634722 11366 layer_factory.hpp:77] Creating layer inception_4e/relu_5x5_reduce
I0403 11:57:05.634738 11366 net.cpp:91] Creating Layer inception_4e/relu_5x5_reduce
I0403 11:57:05.634754 11366 net.cpp:425] inception_4e/relu_5x5_reduce <- inception_4e/5x5_reduce
I0403 11:57:05.634773 11366 net.cpp:386] inception_4e/relu_5x5_reduce -> inception_4e/5x5_reduce (in-place)
I0403 11:57:05.634802 11366 net.cpp:141] Setting up inception_4e/relu_5x5_reduce
I0403 11:57:05.634822 11366 net.cpp:148] Top shape: 24 32 14 14 (150528)
I0403 11:57:05.634850 11366 net.cpp:156] Memory required for data: 1237310976
I0403 11:57:05.634865 11366 layer_factory.hpp:77] Creating layer inception_4e/5x5
I0403 11:57:05.634886 11366 net.cpp:91] Creating Layer inception_4e/5x5
I0403 11:57:05.634903 11366 net.cpp:425] inception_4e/5x5 <- inception_4e/5x5_reduce
I0403 11:57:05.634922 11366 net.cpp:399] inception_4e/5x5 -> inception_4e/5x5
I0403 11:57:05.635665 11366 net.cpp:141] Setting up inception_4e/5x5
I0403 11:57:05.635689 11366 net.cpp:148] Top shape: 24 128 14 14 (602112)
I0403 11:57:05.635704 11366 net.cpp:156] Memory required for data: 1239719424
I0403 11:57:05.635721 11366 layer_factory.hpp:77] Creating layer inception_4e/relu_5x5
I0403 11:57:05.635738 11366 net.cpp:91] Creating Layer inception_4e/relu_5x5
I0403 11:57:05.635753 11366 net.cpp:425] inception_4e/relu_5x5 <- inception_4e/5x5
I0403 11:57:05.635772 11366 net.cpp:386] inception_4e/relu_5x5 -> inception_4e/5x5 (in-place)
I0403 11:57:05.635795 11366 net.cpp:141] Setting up inception_4e/relu_5x5
I0403 11:57:05.635826 11366 net.cpp:148] Top shape: 24 128 14 14 (602112)
I0403 11:57:05.635839 11366 net.cpp:156] Memory required for data: 1242127872
I0403 11:57:05.635853 11366 layer_factory.hpp:77] Creating layer inception_4e/pool
I0403 11:57:05.635885 11366 net.cpp:91] Creating Layer inception_4e/pool
I0403 11:57:05.635903 11366 net.cpp:425] inception_4e/pool <- inception_4d/output_inception_4d/output_0_split_4
I0403 11:57:05.635921 11366 net.cpp:399] inception_4e/pool -> inception_4e/pool
I0403 11:57:05.635972 11366 net.cpp:141] Setting up inception_4e/pool
I0403 11:57:05.635994 11366 net.cpp:148] Top shape: 24 528 14 14 (2483712)
I0403 11:57:05.636009 11366 net.cpp:156] Memory required for data: 1252062720
I0403 11:57:05.636024 11366 layer_factory.hpp:77] Creating layer inception_4e/pool_proj
I0403 11:57:05.636046 11366 net.cpp:91] Creating Layer inception_4e/pool_proj
I0403 11:57:05.636062 11366 net.cpp:425] inception_4e/pool_proj <- inception_4e/pool
I0403 11:57:05.636080 11366 net.cpp:399] inception_4e/pool_proj -> inception_4e/pool_proj
I0403 11:57:05.636629 11366 net.cpp:141] Setting up inception_4e/pool_proj
I0403 11:57:05.636652 11366 net.cpp:148] Top shape: 24 128 14 14 (602112)
I0403 11:57:05.636667 11366 net.cpp:156] Memory required for data: 1254471168
I0403 11:57:05.636682 11366 layer_factory.hpp:77] Creating layer inception_4e/relu_pool_proj
I0403 11:57:05.636698 11366 net.cpp:91] Creating Layer inception_4e/relu_pool_proj
I0403 11:57:05.636714 11366 net.cpp:425] inception_4e/relu_pool_proj <- inception_4e/pool_proj
I0403 11:57:05.636731 11366 net.cpp:386] inception_4e/relu_pool_proj -> inception_4e/pool_proj (in-place)
I0403 11:57:05.636749 11366 net.cpp:141] Setting up inception_4e/relu_pool_proj
I0403 11:57:05.636765 11366 net.cpp:148] Top shape: 24 128 14 14 (602112)
I0403 11:57:05.636777 11366 net.cpp:156] Memory required for data: 1256879616
I0403 11:57:05.636795 11366 layer_factory.hpp:77] Creating layer inception_4e/output
I0403 11:57:05.636816 11366 net.cpp:91] Creating Layer inception_4e/output
I0403 11:57:05.636832 11366 net.cpp:425] inception_4e/output <- inception_4e/1x1
I0403 11:57:05.636847 11366 net.cpp:425] inception_4e/output <- inception_4e/3x3
I0403 11:57:05.636862 11366 net.cpp:425] inception_4e/output <- inception_4e/5x5
I0403 11:57:05.636878 11366 net.cpp:425] inception_4e/output <- inception_4e/pool_proj
I0403 11:57:05.636893 11366 net.cpp:399] inception_4e/output -> inception_4e/output
I0403 11:57:05.636931 11366 net.cpp:141] Setting up inception_4e/output
I0403 11:57:05.636953 11366 net.cpp:148] Top shape: 24 832 14 14 (3913728)
I0403 11:57:05.636966 11366 net.cpp:156] Memory required for data: 1272534528
I0403 11:57:05.636981 11366 layer_factory.hpp:77] Creating layer pool4/3x3_s2
I0403 11:57:05.636996 11366 net.cpp:91] Creating Layer pool4/3x3_s2
I0403 11:57:05.637012 11366 net.cpp:425] pool4/3x3_s2 <- inception_4e/output
I0403 11:57:05.637030 11366 net.cpp:399] pool4/3x3_s2 -> pool4/3x3_s2
I0403 11:57:05.637079 11366 net.cpp:141] Setting up pool4/3x3_s2
I0403 11:57:05.637110 11366 net.cpp:148] Top shape: 24 832 7 7 (978432)
I0403 11:57:05.637125 11366 net.cpp:156] Memory required for data: 1276448256
I0403 11:57:05.637138 11366 layer_factory.hpp:77] Creating layer pool4/3x3_s2_pool4/3x3_s2_0_split
I0403 11:57:05.637157 11366 net.cpp:91] Creating Layer pool4/3x3_s2_pool4/3x3_s2_0_split
I0403 11:57:05.637173 11366 net.cpp:425] pool4/3x3_s2_pool4/3x3_s2_0_split <- pool4/3x3_s2
I0403 11:57:05.637190 11366 net.cpp:399] pool4/3x3_s2_pool4/3x3_s2_0_split -> pool4/3x3_s2_pool4/3x3_s2_0_split_0
I0403 11:57:05.637210 11366 net.cpp:399] pool4/3x3_s2_pool4/3x3_s2_0_split -> pool4/3x3_s2_pool4/3x3_s2_0_split_1
I0403 11:57:05.637230 11366 net.cpp:399] pool4/3x3_s2_pool4/3x3_s2_0_split -> pool4/3x3_s2_pool4/3x3_s2_0_split_2
I0403 11:57:05.637250 11366 net.cpp:399] pool4/3x3_s2_pool4/3x3_s2_0_split -> pool4/3x3_s2_pool4/3x3_s2_0_split_3
I0403 11:57:05.637315 11366 net.cpp:141] Setting up pool4/3x3_s2_pool4/3x3_s2_0_split
I0403 11:57:05.637336 11366 net.cpp:148] Top shape: 24 832 7 7 (978432)
I0403 11:57:05.637351 11366 net.cpp:148] Top shape: 24 832 7 7 (978432)
I0403 11:57:05.637367 11366 net.cpp:148] Top shape: 24 832 7 7 (978432)
I0403 11:57:05.637380 11366 net.cpp:148] Top shape: 24 832 7 7 (978432)
I0403 11:57:05.637393 11366 net.cpp:156] Memory required for data: 1292103168
I0403 11:57:05.637406 11366 layer_factory.hpp:77] Creating layer inception_5a/1x1
I0403 11:57:05.637428 11366 net.cpp:91] Creating Layer inception_5a/1x1
I0403 11:57:05.637444 11366 net.cpp:425] inception_5a/1x1 <- pool4/3x3_s2_pool4/3x3_s2_0_split_0
I0403 11:57:05.637466 11366 net.cpp:399] inception_5a/1x1 -> inception_5a/1x1
I0403 11:57:05.639314 11366 net.cpp:141] Setting up inception_5a/1x1
I0403 11:57:05.639340 11366 net.cpp:148] Top shape: 24 256 7 7 (301056)
I0403 11:57:05.639355 11366 net.cpp:156] Memory required for data: 1293307392
I0403 11:57:05.639374 11366 layer_factory.hpp:77] Creating layer inception_5a/relu_1x1
I0403 11:57:05.639390 11366 net.cpp:91] Creating Layer inception_5a/relu_1x1
I0403 11:57:05.639406 11366 net.cpp:425] inception_5a/relu_1x1 <- inception_5a/1x1
I0403 11:57:05.639425 11366 net.cpp:386] inception_5a/relu_1x1 -> inception_5a/1x1 (in-place)
I0403 11:57:05.639444 11366 net.cpp:141] Setting up inception_5a/relu_1x1
I0403 11:57:05.639461 11366 net.cpp:148] Top shape: 24 256 7 7 (301056)
I0403 11:57:05.639473 11366 net.cpp:156] Memory required for data: 1294511616
I0403 11:57:05.639487 11366 layer_factory.hpp:77] Creating layer inception_5a/3x3_reduce
I0403 11:57:05.639508 11366 net.cpp:91] Creating Layer inception_5a/3x3_reduce
I0403 11:57:05.639525 11366 net.cpp:425] inception_5a/3x3_reduce <- pool4/3x3_s2_pool4/3x3_s2_0_split_1
I0403 11:57:05.639544 11366 net.cpp:399] inception_5a/3x3_reduce -> inception_5a/3x3_reduce
I0403 11:57:05.640957 11366 net.cpp:141] Setting up inception_5a/3x3_reduce
I0403 11:57:05.640983 11366 net.cpp:148] Top shape: 24 160 7 7 (188160)
I0403 11:57:05.640998 11366 net.cpp:156] Memory required for data: 1295264256
I0403 11:57:05.641015 11366 layer_factory.hpp:77] Creating layer inception_5a/relu_3x3_reduce
I0403 11:57:05.641032 11366 net.cpp:91] Creating Layer inception_5a/relu_3x3_reduce
I0403 11:57:05.641048 11366 net.cpp:425] inception_5a/relu_3x3_reduce <- inception_5a/3x3_reduce
I0403 11:57:05.641067 11366 net.cpp:386] inception_5a/relu_3x3_reduce -> inception_5a/3x3_reduce (in-place)
I0403 11:57:05.641085 11366 net.cpp:141] Setting up inception_5a/relu_3x3_reduce
I0403 11:57:05.641103 11366 net.cpp:148] Top shape: 24 160 7 7 (188160)
I0403 11:57:05.641115 11366 net.cpp:156] Memory required for data: 1296016896
I0403 11:57:05.641129 11366 layer_factory.hpp:77] Creating layer inception_5a/3x3
I0403 11:57:05.641150 11366 net.cpp:91] Creating Layer inception_5a/3x3
I0403 11:57:05.641166 11366 net.cpp:425] inception_5a/3x3 <- inception_5a/3x3_reduce
I0403 11:57:05.641185 11366 net.cpp:399] inception_5a/3x3 -> inception_5a/3x3
I0403 11:57:05.644742 11366 net.cpp:141] Setting up inception_5a/3x3
I0403 11:57:05.644780 11366 net.cpp:148] Top shape: 24 320 7 7 (376320)
I0403 11:57:05.644810 11366 net.cpp:156] Memory required for data: 1297522176
I0403 11:57:05.644830 11366 layer_factory.hpp:77] Creating layer inception_5a/relu_3x3
I0403 11:57:05.644850 11366 net.cpp:91] Creating Layer inception_5a/relu_3x3
I0403 11:57:05.644866 11366 net.cpp:425] inception_5a/relu_3x3 <- inception_5a/3x3
I0403 11:57:05.644887 11366 net.cpp:386] inception_5a/relu_3x3 -> inception_5a/3x3 (in-place)
I0403 11:57:05.644907 11366 net.cpp:141] Setting up inception_5a/relu_3x3
I0403 11:57:05.644925 11366 net.cpp:148] Top shape: 24 320 7 7 (376320)
I0403 11:57:05.644939 11366 net.cpp:156] Memory required for data: 1299027456
I0403 11:57:05.644953 11366 layer_factory.hpp:77] Creating layer inception_5a/5x5_reduce
I0403 11:57:05.644975 11366 net.cpp:91] Creating Layer inception_5a/5x5_reduce
I0403 11:57:05.644994 11366 net.cpp:425] inception_5a/5x5_reduce <- pool4/3x3_s2_pool4/3x3_s2_0_split_2
I0403 11:57:05.645014 11366 net.cpp:399] inception_5a/5x5_reduce -> inception_5a/5x5_reduce
I0403 11:57:05.645370 11366 net.cpp:141] Setting up inception_5a/5x5_reduce
I0403 11:57:05.645393 11366 net.cpp:148] Top shape: 24 32 7 7 (37632)
I0403 11:57:05.645407 11366 net.cpp:156] Memory required for data: 1299177984
I0403 11:57:05.645424 11366 layer_factory.hpp:77] Creating layer inception_5a/relu_5x5_reduce
I0403 11:57:05.645440 11366 net.cpp:91] Creating Layer inception_5a/relu_5x5_reduce
I0403 11:57:05.645457 11366 net.cpp:425] inception_5a/relu_5x5_reduce <- inception_5a/5x5_reduce
I0403 11:57:05.645475 11366 net.cpp:386] inception_5a/relu_5x5_reduce -> inception_5a/5x5_reduce (in-place)
I0403 11:57:05.645494 11366 net.cpp:141] Setting up inception_5a/relu_5x5_reduce
I0403 11:57:05.645510 11366 net.cpp:148] Top shape: 24 32 7 7 (37632)
I0403 11:57:05.645537 11366 net.cpp:156] Memory required for data: 1299328512
I0403 11:57:05.645551 11366 layer_factory.hpp:77] Creating layer inception_5a/5x5
I0403 11:57:05.645573 11366 net.cpp:91] Creating Layer inception_5a/5x5
I0403 11:57:05.645589 11366 net.cpp:425] inception_5a/5x5 <- inception_5a/5x5_reduce
I0403 11:57:05.645608 11366 net.cpp:399] inception_5a/5x5 -> inception_5a/5x5
I0403 11:57:05.646359 11366 net.cpp:141] Setting up inception_5a/5x5
I0403 11:57:05.646383 11366 net.cpp:148] Top shape: 24 128 7 7 (150528)
I0403 11:57:05.646396 11366 net.cpp:156] Memory required for data: 1299930624
I0403 11:57:05.646421 11366 layer_factory.hpp:77] Creating layer inception_5a/relu_5x5
I0403 11:57:05.646438 11366 net.cpp:91] Creating Layer inception_5a/relu_5x5
I0403 11:57:05.646453 11366 net.cpp:425] inception_5a/relu_5x5 <- inception_5a/5x5
I0403 11:57:05.646469 11366 net.cpp:386] inception_5a/relu_5x5 -> inception_5a/5x5 (in-place)
I0403 11:57:05.646487 11366 net.cpp:141] Setting up inception_5a/relu_5x5
I0403 11:57:05.646502 11366 net.cpp:148] Top shape: 24 128 7 7 (150528)
I0403 11:57:05.646515 11366 net.cpp:156] Memory required for data: 1300532736
I0403 11:57:05.646529 11366 layer_factory.hpp:77] Creating layer inception_5a/pool
I0403 11:57:05.646548 11366 net.cpp:91] Creating Layer inception_5a/pool
I0403 11:57:05.646564 11366 net.cpp:425] inception_5a/pool <- pool4/3x3_s2_pool4/3x3_s2_0_split_3
I0403 11:57:05.646581 11366 net.cpp:399] inception_5a/pool -> inception_5a/pool
I0403 11:57:05.646632 11366 net.cpp:141] Setting up inception_5a/pool
I0403 11:57:05.646662 11366 net.cpp:148] Top shape: 24 832 7 7 (978432)
I0403 11:57:05.646677 11366 net.cpp:156] Memory required for data: 1304446464
I0403 11:57:05.646689 11366 layer_factory.hpp:77] Creating layer inception_5a/pool_proj
I0403 11:57:05.646711 11366 net.cpp:91] Creating Layer inception_5a/pool_proj
I0403 11:57:05.646728 11366 net.cpp:425] inception_5a/pool_proj <- inception_5a/pool
I0403 11:57:05.646745 11366 net.cpp:399] inception_5a/pool_proj -> inception_5a/pool_proj
I0403 11:57:05.648032 11366 net.cpp:141] Setting up inception_5a/pool_proj
I0403 11:57:05.648058 11366 net.cpp:148] Top shape: 24 128 7 7 (150528)
I0403 11:57:05.648073 11366 net.cpp:156] Memory required for data: 1305048576
I0403 11:57:05.648104 11366 layer_factory.hpp:77] Creating layer inception_5a/relu_pool_proj
I0403 11:57:05.648123 11366 net.cpp:91] Creating Layer inception_5a/relu_pool_proj
I0403 11:57:05.648139 11366 net.cpp:425] inception_5a/relu_pool_proj <- inception_5a/pool_proj
I0403 11:57:05.648159 11366 net.cpp:386] inception_5a/relu_pool_proj -> inception_5a/pool_proj (in-place)
I0403 11:57:05.648178 11366 net.cpp:141] Setting up inception_5a/relu_pool_proj
I0403 11:57:05.648195 11366 net.cpp:148] Top shape: 24 128 7 7 (150528)
I0403 11:57:05.648207 11366 net.cpp:156] Memory required for data: 1305650688
I0403 11:57:05.648221 11366 layer_factory.hpp:77] Creating layer inception_5a/output
I0403 11:57:05.648237 11366 net.cpp:91] Creating Layer inception_5a/output
I0403 11:57:05.648252 11366 net.cpp:425] inception_5a/output <- inception_5a/1x1
I0403 11:57:05.648265 11366 net.cpp:425] inception_5a/output <- inception_5a/3x3
I0403 11:57:05.648280 11366 net.cpp:425] inception_5a/output <- inception_5a/5x5
I0403 11:57:05.648295 11366 net.cpp:425] inception_5a/output <- inception_5a/pool_proj
I0403 11:57:05.648311 11366 net.cpp:399] inception_5a/output -> inception_5a/output
I0403 11:57:05.648350 11366 net.cpp:141] Setting up inception_5a/output
I0403 11:57:05.648371 11366 net.cpp:148] Top shape: 24 832 7 7 (978432)
I0403 11:57:05.648385 11366 net.cpp:156] Memory required for data: 1309564416
I0403 11:57:05.648398 11366 layer_factory.hpp:77] Creating layer inception_5a/output_inception_5a/output_0_split
I0403 11:57:05.648414 11366 net.cpp:91] Creating Layer inception_5a/output_inception_5a/output_0_split
I0403 11:57:05.648430 11366 net.cpp:425] inception_5a/output_inception_5a/output_0_split <- inception_5a/output
I0403 11:57:05.648449 11366 net.cpp:399] inception_5a/output_inception_5a/output_0_split -> inception_5a/output_inception_5a/output_0_split_0
I0403 11:57:05.648469 11366 net.cpp:399] inception_5a/output_inception_5a/output_0_split -> inception_5a/output_inception_5a/output_0_split_1
I0403 11:57:05.648488 11366 net.cpp:399] inception_5a/output_inception_5a/output_0_split -> inception_5a/output_inception_5a/output_0_split_2
I0403 11:57:05.648507 11366 net.cpp:399] inception_5a/output_inception_5a/output_0_split -> inception_5a/output_inception_5a/output_0_split_3
I0403 11:57:05.648576 11366 net.cpp:141] Setting up inception_5a/output_inception_5a/output_0_split
I0403 11:57:05.648597 11366 net.cpp:148] Top shape: 24 832 7 7 (978432)
I0403 11:57:05.648612 11366 net.cpp:148] Top shape: 24 832 7 7 (978432)
I0403 11:57:05.648627 11366 net.cpp:148] Top shape: 24 832 7 7 (978432)
I0403 11:57:05.648640 11366 net.cpp:148] Top shape: 24 832 7 7 (978432)
I0403 11:57:05.648653 11366 net.cpp:156] Memory required for data: 1325219328
I0403 11:57:05.648666 11366 layer_factory.hpp:77] Creating layer inception_5b/1x1
I0403 11:57:05.648689 11366 net.cpp:91] Creating Layer inception_5b/1x1
I0403 11:57:05.648705 11366 net.cpp:425] inception_5b/1x1 <- inception_5a/output_inception_5a/output_0_split_0
I0403 11:57:05.648722 11366 net.cpp:399] inception_5b/1x1 -> inception_5b/1x1
I0403 11:57:05.651172 11366 net.cpp:141] Setting up inception_5b/1x1
I0403 11:57:05.651201 11366 net.cpp:148] Top shape: 24 384 7 7 (451584)
I0403 11:57:05.651216 11366 net.cpp:156] Memory required for data: 1327025664
I0403 11:57:05.651232 11366 layer_factory.hpp:77] Creating layer inception_5b/relu_1x1
I0403 11:57:05.651250 11366 net.cpp:91] Creating Layer inception_5b/relu_1x1
I0403 11:57:05.651265 11366 net.cpp:425] inception_5b/relu_1x1 <- inception_5b/1x1
I0403 11:57:05.651284 11366 net.cpp:386] inception_5b/relu_1x1 -> inception_5b/1x1 (in-place)
I0403 11:57:05.651304 11366 net.cpp:141] Setting up inception_5b/relu_1x1
I0403 11:57:05.651320 11366 net.cpp:148] Top shape: 24 384 7 7 (451584)
I0403 11:57:05.651334 11366 net.cpp:156] Memory required for data: 1328832000
I0403 11:57:05.651347 11366 layer_factory.hpp:77] Creating layer inception_5b/3x3_reduce
I0403 11:57:05.651370 11366 net.cpp:91] Creating Layer inception_5b/3x3_reduce
I0403 11:57:05.651398 11366 net.cpp:425] inception_5b/3x3_reduce <- inception_5a/output_inception_5a/output_0_split_1
I0403 11:57:05.651418 11366 net.cpp:399] inception_5b/3x3_reduce -> inception_5b/3x3_reduce
I0403 11:57:05.652979 11366 net.cpp:141] Setting up inception_5b/3x3_reduce
I0403 11:57:05.653005 11366 net.cpp:148] Top shape: 24 192 7 7 (225792)
I0403 11:57:05.653020 11366 net.cpp:156] Memory required for data: 1329735168
I0403 11:57:05.653038 11366 layer_factory.hpp:77] Creating layer inception_5b/relu_3x3_reduce
I0403 11:57:05.653054 11366 net.cpp:91] Creating Layer inception_5b/relu_3x3_reduce
I0403 11:57:05.653070 11366 net.cpp:425] inception_5b/relu_3x3_reduce <- inception_5b/3x3_reduce
I0403 11:57:05.653089 11366 net.cpp:386] inception_5b/relu_3x3_reduce -> inception_5b/3x3_reduce (in-place)
I0403 11:57:05.653108 11366 net.cpp:141] Setting up inception_5b/relu_3x3_reduce
I0403 11:57:05.653126 11366 net.cpp:148] Top shape: 24 192 7 7 (225792)
I0403 11:57:05.653139 11366 net.cpp:156] Memory required for data: 1330638336
I0403 11:57:05.653152 11366 layer_factory.hpp:77] Creating layer inception_5b/3x3
I0403 11:57:05.653173 11366 net.cpp:91] Creating Layer inception_5b/3x3
I0403 11:57:05.653190 11366 net.cpp:425] inception_5b/3x3 <- inception_5b/3x3_reduce
I0403 11:57:05.653208 11366 net.cpp:399] inception_5b/3x3 -> inception_5b/3x3
I0403 11:57:05.658210 11366 net.cpp:141] Setting up inception_5b/3x3
I0403 11:57:05.658236 11366 net.cpp:148] Top shape: 24 384 7 7 (451584)
I0403 11:57:05.658253 11366 net.cpp:156] Memory required for data: 1332444672
I0403 11:57:05.658272 11366 layer_factory.hpp:77] Creating layer inception_5b/relu_3x3
I0403 11:57:05.658289 11366 net.cpp:91] Creating Layer inception_5b/relu_3x3
I0403 11:57:05.658306 11366 net.cpp:425] inception_5b/relu_3x3 <- inception_5b/3x3
I0403 11:57:05.658324 11366 net.cpp:386] inception_5b/relu_3x3 -> inception_5b/3x3 (in-place)
I0403 11:57:05.658344 11366 net.cpp:141] Setting up inception_5b/relu_3x3
I0403 11:57:05.658360 11366 net.cpp:148] Top shape: 24 384 7 7 (451584)
I0403 11:57:05.658372 11366 net.cpp:156] Memory required for data: 1334251008
I0403 11:57:05.658385 11366 layer_factory.hpp:77] Creating layer inception_5b/5x5_reduce
I0403 11:57:05.658407 11366 net.cpp:91] Creating Layer inception_5b/5x5_reduce
I0403 11:57:05.658424 11366 net.cpp:425] inception_5b/5x5_reduce <- inception_5a/output_inception_5a/output_0_split_2
I0403 11:57:05.658444 11366 net.cpp:399] inception_5b/5x5_reduce -> inception_5b/5x5_reduce
I0403 11:57:05.658885 11366 net.cpp:141] Setting up inception_5b/5x5_reduce
I0403 11:57:05.658910 11366 net.cpp:148] Top shape: 24 48 7 7 (56448)
I0403 11:57:05.658924 11366 net.cpp:156] Memory required for data: 1334476800
I0403 11:57:05.658941 11366 layer_factory.hpp:77] Creating layer inception_5b/relu_5x5_reduce
I0403 11:57:05.658957 11366 net.cpp:91] Creating Layer inception_5b/relu_5x5_reduce
I0403 11:57:05.658973 11366 net.cpp:425] inception_5b/relu_5x5_reduce <- inception_5b/5x5_reduce
I0403 11:57:05.658990 11366 net.cpp:386] inception_5b/relu_5x5_reduce -> inception_5b/5x5_reduce (in-place)
I0403 11:57:05.659009 11366 net.cpp:141] Setting up inception_5b/relu_5x5_reduce
I0403 11:57:05.659025 11366 net.cpp:148] Top shape: 24 48 7 7 (56448)
I0403 11:57:05.659039 11366 net.cpp:156] Memory required for data: 1334702592
I0403 11:57:05.659052 11366 layer_factory.hpp:77] Creating layer inception_5b/5x5
I0403 11:57:05.659075 11366 net.cpp:91] Creating Layer inception_5b/5x5
I0403 11:57:05.659091 11366 net.cpp:425] inception_5b/5x5 <- inception_5b/5x5_reduce
I0403 11:57:05.659112 11366 net.cpp:399] inception_5b/5x5 -> inception_5b/5x5
I0403 11:57:05.660122 11366 net.cpp:141] Setting up inception_5b/5x5
I0403 11:57:05.660148 11366 net.cpp:148] Top shape: 24 128 7 7 (150528)
I0403 11:57:05.660164 11366 net.cpp:156] Memory required for data: 1335304704
I0403 11:57:05.660181 11366 layer_factory.hpp:77] Creating layer inception_5b/relu_5x5
I0403 11:57:05.660199 11366 net.cpp:91] Creating Layer inception_5b/relu_5x5
I0403 11:57:05.660214 11366 net.cpp:425] inception_5b/relu_5x5 <- inception_5b/5x5
I0403 11:57:05.660245 11366 net.cpp:386] inception_5b/relu_5x5 -> inception_5b/5x5 (in-place)
I0403 11:57:05.660264 11366 net.cpp:141] Setting up inception_5b/relu_5x5
I0403 11:57:05.660280 11366 net.cpp:148] Top shape: 24 128 7 7 (150528)
I0403 11:57:05.660293 11366 net.cpp:156] Memory required for data: 1335906816
I0403 11:57:05.660307 11366 layer_factory.hpp:77] Creating layer inception_5b/pool
I0403 11:57:05.660323 11366 net.cpp:91] Creating Layer inception_5b/pool
I0403 11:57:05.660338 11366 net.cpp:425] inception_5b/pool <- inception_5a/output_inception_5a/output_0_split_3
I0403 11:57:05.660357 11366 net.cpp:399] inception_5b/pool -> inception_5b/pool
I0403 11:57:05.660408 11366 net.cpp:141] Setting up inception_5b/pool
I0403 11:57:05.660429 11366 net.cpp:148] Top shape: 24 832 7 7 (978432)
I0403 11:57:05.660444 11366 net.cpp:156] Memory required for data: 1339820544
I0403 11:57:05.660456 11366 layer_factory.hpp:77] Creating layer inception_5b/pool_proj
I0403 11:57:05.660477 11366 net.cpp:91] Creating Layer inception_5b/pool_proj
I0403 11:57:05.660495 11366 net.cpp:425] inception_5b/pool_proj <- inception_5b/pool
I0403 11:57:05.660526 11366 net.cpp:399] inception_5b/pool_proj -> inception_5b/pool_proj
I0403 11:57:05.661814 11366 net.cpp:141] Setting up inception_5b/pool_proj
I0403 11:57:05.661841 11366 net.cpp:148] Top shape: 24 128 7 7 (150528)
I0403 11:57:05.661856 11366 net.cpp:156] Memory required for data: 1340422656
I0403 11:57:05.661873 11366 layer_factory.hpp:77] Creating layer inception_5b/relu_pool_proj
I0403 11:57:05.661890 11366 net.cpp:91] Creating Layer inception_5b/relu_pool_proj
I0403 11:57:05.661906 11366 net.cpp:425] inception_5b/relu_pool_proj <- inception_5b/pool_proj
I0403 11:57:05.661922 11366 net.cpp:386] inception_5b/relu_pool_proj -> inception_5b/pool_proj (in-place)
I0403 11:57:05.661942 11366 net.cpp:141] Setting up inception_5b/relu_pool_proj
I0403 11:57:05.661958 11366 net.cpp:148] Top shape: 24 128 7 7 (150528)
I0403 11:57:05.661972 11366 net.cpp:156] Memory required for data: 1341024768
I0403 11:57:05.661985 11366 layer_factory.hpp:77] Creating layer inception_5b/output
I0403 11:57:05.662001 11366 net.cpp:91] Creating Layer inception_5b/output
I0403 11:57:05.662016 11366 net.cpp:425] inception_5b/output <- inception_5b/1x1
I0403 11:57:05.662031 11366 net.cpp:425] inception_5b/output <- inception_5b/3x3
I0403 11:57:05.662046 11366 net.cpp:425] inception_5b/output <- inception_5b/5x5
I0403 11:57:05.662061 11366 net.cpp:425] inception_5b/output <- inception_5b/pool_proj
I0403 11:57:05.662081 11366 net.cpp:399] inception_5b/output -> inception_5b/output
I0403 11:57:05.662117 11366 net.cpp:141] Setting up inception_5b/output
I0403 11:57:05.662140 11366 net.cpp:148] Top shape: 24 1024 7 7 (1204224)
I0403 11:57:05.662155 11366 net.cpp:156] Memory required for data: 1345841664
I0403 11:57:05.662168 11366 layer_factory.hpp:77] Creating layer pool5/7x7_s1
I0403 11:57:05.662185 11366 net.cpp:91] Creating Layer pool5/7x7_s1
I0403 11:57:05.662201 11366 net.cpp:425] pool5/7x7_s1 <- inception_5b/output
I0403 11:57:05.662217 11366 net.cpp:399] pool5/7x7_s1 -> pool5/7x7_s1
I0403 11:57:05.662256 11366 net.cpp:141] Setting up pool5/7x7_s1
I0403 11:57:05.662276 11366 net.cpp:148] Top shape: 24 1024 1 1 (24576)
I0403 11:57:05.662292 11366 net.cpp:156] Memory required for data: 1345939968
I0403 11:57:05.662305 11366 layer_factory.hpp:77] Creating layer pool5/drop_7x7_s1
I0403 11:57:05.662324 11366 net.cpp:91] Creating Layer pool5/drop_7x7_s1
I0403 11:57:05.662339 11366 net.cpp:425] pool5/drop_7x7_s1 <- pool5/7x7_s1
I0403 11:57:05.662356 11366 net.cpp:386] pool5/drop_7x7_s1 -> pool5/7x7_s1 (in-place)
I0403 11:57:05.662392 11366 net.cpp:141] Setting up pool5/drop_7x7_s1
I0403 11:57:05.662413 11366 net.cpp:148] Top shape: 24 1024 1 1 (24576)
I0403 11:57:05.662427 11366 net.cpp:156] Memory required for data: 1346038272
I0403 11:57:05.662441 11366 layer_factory.hpp:77] Creating layer loss3/classifier_plantvillage
I0403 11:57:05.662458 11366 net.cpp:91] Creating Layer loss3/classifier_plantvillage
I0403 11:57:05.662489 11366 net.cpp:425] loss3/classifier_plantvillage <- pool5/7x7_s1
I0403 11:57:05.662511 11366 net.cpp:399] loss3/classifier_plantvillage -> loss3/classifier_plantvillage
I0403 11:57:05.662871 11366 net.cpp:141] Setting up loss3/classifier_plantvillage
I0403 11:57:05.662895 11366 net.cpp:148] Top shape: 24 38 (912)
I0403 11:57:05.662910 11366 net.cpp:156] Memory required for data: 1346041920
I0403 11:57:05.662927 11366 layer_factory.hpp:77] Creating layer loss1/loss
I0403 11:57:05.662950 11366 net.cpp:91] Creating Layer loss1/loss
I0403 11:57:05.662967 11366 net.cpp:425] loss1/loss <- loss1/classifier_plantvillage
I0403 11:57:05.662982 11366 net.cpp:425] loss1/loss <- label_data_1_split_0
I0403 11:57:05.662999 11366 net.cpp:399] loss1/loss -> loss1/loss
…
I0403 11:57:05.672293 11366 net.cpp:313] The NetState phase (1) differed from the phase (0) specified by a rule in layer data
I0403 11:57:05.675966 11366 net.cpp:49] Initializing net from parameters: 
state {
  phase: TEST
}
layer {
  name: "data"
  type: "Data"
  top: "data"
  top: "label"
  include {
    phase: TEST
  }
  transform_param {
    mirror: false
    crop_size: 224
    mean_file: "/home/mohanty/data/final_dataset/lmdb/color-50-50/mean.binaryproto"
  }
  data_param {
    source: "/home/mohanty/data/final_dataset/lmdb/color-50-50/test_db"
    batch_size: 24
    backend: LMDB
  }
}
layer {
  name: "conv1/7x7_s2"
  type: "Convolution"
  bottom: "data"
  top: "conv1/7x7_s2"
  param {
    lr_mult: 1
    decay_mult: 1
  }
  param {
    lr_mult: 2
    decay_mult: 0
  }
  convolution_param {
    num_output: 64
    pad: 3
    kernel_size: 7
    stride: 2
    weight_filler {
      type: "xavier"
      std: 0.1
    }
    bias_filler {
      type: "constant"
      value: 0.2
    }
  }
}
layer {
  name: "conv1/relu_7x7"
  type: "ReLU"
  bottom: "conv1/7x7_s2"
  top: "conv1/7x7_s2"
}
layer {
  name: "pool1/3x3_s2"
  type: "Pooling"
  bottom: "conv1/7x7_s2"
  top: "pool1/3x3_s2"
  pooling_param {
    pool: MAX
    kernel_size: 3
    stride: 2
  }
}
layer {
  name: "pool1/norm1"
  type: "LRN"
  bottom: "pool1/3x3_s2"
  top: "pool1/norm1"
  lrn_param {
    local_size: 5
    alpha: 0.0001
    beta: 0.75
  }
}
layer {
  name: "conv2/3x3_reduce"
  type: "Convolution"
  bottom: "pool1/norm1"
  top: "conv2/3x3_reduce"
  param {
    lr_mult: 1
    decay_mult: 1
  }
  param {
    lr_mult: 2
    decay_mult: 0
  }
  convolution_param {
    num_output: 64
    kernel_size: 1
    weight_filler {
      type: "xavier"
      std: 0.1
    }
    bias_filler {
      type: "constant"
      value: 0.2
    }
  }
}
layer {
  name: "conv2/relu_3x3_reduce"
  type: "ReLU"
  bottom: "conv2/3x3_reduce"
  top: "conv2/3x3_reduce"
}
layer {
  name: "conv2/3x3"
  type: "Convolution"
  bottom: "conv2/3x3_reduce"
  top: "conv2/3x3"
  param {
    lr_mult: 1
    decay_mult: 1
  }
  param {
    lr_mult: 2
    decay_mult: 0
  }
  convolution_param {
    num_output: 192
    pad: 1
    kernel_size: 3
    weight_filler {
      type: "xavier"
      std: 0.03
    }
    bias_filler {
      type: "constant"
      value: 0.2
    }
  }
}
layer {
  name: "conv2/relu_3x3"
  type: "ReLU"
  bottom: "conv2/3x3"
  top: "conv2/3x3"
}
layer {
  name: "conv2/norm2"
  type: "LRN"
  bottom: "conv2/3x3"
  top: "conv2/norm2"
  lrn_param {
    local_size: 5
    alpha: 0.0001
    beta: 0.75
  }
}
layer {
  name: "pool2/3x3_s2"
  type: "Pooling"
  bottom: "conv2/norm2"
  top: "pool2/3x3_s2"
  pooling_param {
    pool: MAX
    kernel_size: 3
    stride: 2
  }
}
layer {
  name: "inception_3a/1x1"
  type: "Convolution"
  bottom: "pool2/3x3_s2"
  top: "inception_3a/1x1"
  param {
    lr_mult: 1
    decay_mult: 1
  }
  param {
    lr_mult: 2
    decay_mult: 0
  }
  convolution_param {
    num_output: 64
    kernel_size: 1
    weight_filler {
      type: "xavier"
      std: 0.03
    }
    bias_filler {
      type: "constant"
      value: 0.2
    }
  }
}
layer {
  name: "inception_3a/relu_1x1"
  type: "ReLU"
  bottom: "inception_3a/1x1"
  top: "inception_3a/1x1"
}
layer {
  name: "inception_3a/3x3_reduce"
  type: "Convolution"
  bottom: "pool2/3x3_s2"
  top: "inception_3a/3x3_reduce"
  param {
    lr_mult: 1
    decay_mult: 1
  }
  param {
    lr_mult: 2
    decay_mult: 0
  }
  convolution_param {
    num_output: 96
    kernel_size: 1
    weight_filler {
      type: "xavier"
      std: 0.09
    }
    bias_filler {
      type: "constant"
      value: 0.2
    }
  }
}
layer {
  name: "inception_3a/relu_3x3_reduce"
  type: "ReLU"
  bottom: "inception_3a/3x3_reduce"
  top: "inception_3a/3x3_reduce"
}
layer {
  name: "inception_3a/3x3"
  type: "Convolution"
  bottom: "inception_3a/3x3_reduce"
  top: "inception_3a/3x3"
  param {
    lr_mult: 1
    decay_mult: 1
  }
  param {
    lr_mult: 2
    decay_mult: 0
  }
  convolution_param {
    num_output: 128
    pad: 1
    kernel_size: 3
    weight_filler {
      type: "xavier"
      std: 0.03
    }
    bias_filler {
      type: "constant"
      value: 0.2
    }
  }
}
layer {
  name: "inception_3a/relu_3x3"
  type: "ReLU"
  bottom: "inception_3a/3x3"
  top: "inception_3a/3x3"
}
layer {
  name: "inception_3a/5x5_reduce"
  type: "Convolution"
  bottom: "pool2/3x3_s2"
  top: "inception_3a/5x5_reduce"
  param {
    lr_mult: 1
    decay_mult: 1
  }
  param {
    lr_mult: 2
    decay_mult: 0
  }
  convolution_param {
    num_output: 16
    kernel_size: 1
    weight_filler {
      type: "xavier"
      std: 0.2
    }
    bias_filler {
      type: "constant"
      value: 0.2
    }
  }
}
layer {
  name: "inception_3a/relu_5x5_reduce"
  type: "ReLU"
  bottom: "inception_3a/5x5_reduce"
  top: "inception_3a/5x5_reduce"
}
layer {
  name: "inception_3a/5x5"
  type: "Convolution"
  bottom: "inception_3a/5x5_reduce"
  top: "inception_3a/5x5"
  param {
    lr_mult: 1
    decay_mult: 1
  }
  param {
    lr_mult: 2
    decay_mult: 0
  }
  convolution_param {
    num_output: 32
    pad: 2
    kernel_size: 5
    weight_filler {
      type: "xavier"
      std: 0.03
    }
    bias_filler {
      type: "constant"
      value: 0.2
    }
  }
}
layer {
  name: "inception_3a/relu_5x5"
  type: "ReLU"
  bottom: "inception_3a/5x5"
  top: "inception_3a/5x5"
}
layer {
  name: "inception_3a/pool"
  type: "Pooling"
  bottom: "pool2/3x3_s2"
  top: "inception_3a/pool"
  pooling_param {
    pool: MAX
    kernel_size: 3
    stride: 1
    pad: 1
  }
}
layer {
  name: "inception_3a/pool_proj"
  type: "Convolution"
  bottom: "inception_3a/pool"
  top: "inception_3a/pool_proj"
  param {
    lr_mult: 1
    decay_mult: 1
  }
  param {
    lr_mult: 2
    decay_mult: 0
  }
  convolution_param {
    num_output: 32
    kernel_size: 1
    weight_filler {
      type: "xavier"
      std: 0.1
    }
    bias_filler {
      type: "constant"
      value: 0.2
    }
  }
}
layer {
  name: "inception_3a/relu_pool_proj"
  type: "ReLU"
  bottom: "inception_3a/pool_proj"
  top: "inception_3a/pool_proj"
}
layer {
  name: "inception_3a/output"
  type: "Concat"
  bottom: "inception_3a/1x1"
  bottom: "inception_3a/3x3"
  bottom: "inception_3a/5x5"
  bottom: "inception_3a/pool_proj"
  top: "inception_3a/output"
}
layer {
  name: "inception_3b/1x1"
  type: "Convolution"
  bottom: "inception_3a/output"
  top: "inception_3b/1x1"
  param {
    lr_mult: 1
    decay_mult: 1
  }
  param {
    lr_mult: 2
    decay_mult: 0
  }
  convolution_param {
    num_output: 128
    kernel_size: 1
    weight_filler {
      type: "xavier"
      std: 0.03
    }
    bias_filler {
      type: "constant"
      value: 0.2
    }
  }
}
layer {
  name: "inception_3b/relu_1x1"
  type: "ReLU"
  bottom: "inception_3b/1x1"
  top: "inception_3b/1x1"
}
layer {
  name: "inception_3b/3x3_reduce"
  type: "Convolution"
  bottom: "inception_3a/output"
  top: "inception_3b/3x3_reduce"
  param {
    lr_mult: 1
    decay_mult: 1
  }
  param {
    lr_mult: 2
    decay_mult: 0
  }
  convolution_param {
    num_output: 128
    kernel_size: 1
    weight_filler {
      type: "xavier"
      std: 0.09
    }
    bias_filler {
      type: "constant"
      value: 0.2
    }
  }
}
layer {
  name: "inception_3b/relu_3x3_reduce"
  type: "ReLU"
  bottom: "inception_3b/3x3_reduce"
  top: "inception_3b/3x3_reduce"
}
layer {
  name: "inception_3b/3x3"
  type: "Convolution"
  bottom: "inception_3b/3x3_reduce"
  top: "inception_3b/3x3"
  param {
    lr_mult: 1
    decay_mult: 1
  }
  param {
    lr_mult: 2
    decay_mult: 0
  }
  convolution_param {
    num_output: 192
    pad: 1
    kernel_size: 3
    weight_filler {
      type: "xavier"
      std: 0.03
    }
    bias_filler {
      type: "constant"
      value: 0.2
    }
  }
}
layer {
  name: "inception_3b/relu_3x3"
  type: "ReLU"
  bottom: "inception_3b/3x3"
  top: "inception_3b/3x3"
}
layer {
  name: "inception_3b/5x5_reduce"
  type: "Convolution"
  bottom: "inception_3a/output"
  top: "inception_3b/5x5_reduce"
  param {
    lr_mult: 1
    decay_mult: 1
  }
  param {
    lr_mult: 2
    decay_mult: 0
  }
  convolution_param {
    num_output: 32
    kernel_size: 1
    weight_filler {
      type: "xavier"
      std: 0.2
    }
    bias_filler {
      type: "constant"
      value: 0.2
    }
  }
}
layer {
  name: "inception_3b/relu_5x5_reduce"
  type: "ReLU"
  bottom: "inception_3b/5x5_reduce"
  top: "inception_3b/5x5_reduce"
}
layer {
  name: "inception_3b/5x5"
  type: "Convolution"
  bottom: "inception_3b/5x5_reduce"
  top: "inception_3b/5x5"
  param {
    lr_mult: 1
    decay_mult: 1
  }
  param {
    lr_mult: 2
    decay_mult: 0
  }
  convolution_param {
    num_output: 96
    pad: 2
    kernel_size: 5
    weight_filler {
      type: "xavier"
      std: 0.03
    }
    bias_filler {
      type: "constant"
      value: 0.2
    }
  }
}
layer {
  name: "inception_3b/relu_5x5"
  type: "ReLU"
  bottom: "inception_3b/5x5"
  top: "inception_3b/5x5"
}
layer {
  name: "inception_3b/pool"
  type: "Pooling"
  bottom: "inception_3a/output"
  top: "inception_3b/pool"
  pooling_param {
    pool: MAX
    kernel_size: 3
    stride: 1
    pad: 1
  }
}
layer {
  name: "inception_3b/pool_proj"
  type: "Convolution"
  bottom: "inception_3b/pool"
  top: "inception_3b/pool_proj"
  param {
    lr_mult: 1
    decay_mult: 1
  }
  param {
    lr_mult: 2
    decay_mult: 0
  }
  convolution_param {
    num_output: 64
    kernel_size: 1
    weight_filler {
      type: "xavier"
      std: 0.1
    }
    bias_filler {
      type: "constant"
      value: 0.2
    }
  }
}
layer {
  name: "inception_3b/relu_pool_proj"
  type: "ReLU"
  bottom: "inception_3b/pool_proj"
  top: "inception_3b/pool_proj"
}
layer {
  name: "inception_3b/output"
  type: "Concat"
  bottom: "inception_3b/1x1"
  bottom: "inception_3b/3x3"
  bottom: "inception_3b/5x5"
  bottom: "inception_3b/pool_proj"
  top: "inception_3b/output"
}
layer {
  name: "pool3/3x3_s2"
  type: "Pooling"
  bottom: "inception_3b/output"
  top: "pool3/3x3_s2"
  pooling_param {
    pool: MAX
    kernel_size: 3
    stride: 2
  }
}
layer {
  name: "inception_4a/1x1"
  type: "Convolution"
  bottom: "pool3/3x3_s2"
  top: "inception_4a/1x1"
  param {
    lr_mult: 1
    decay_mult: 1
  }
  param {
    lr_mult: 2
    decay_mult: 0
  }
  convolution_param {
    num_output: 192
    kernel_size: 1
    weight_filler {
      type: "xavier"
      std: 0.03
    }
    bias_filler {
      type: "constant"
      value: 0.2
    }
  }
}
layer {
  name: "inception_4a/relu_1x1"
  type: "ReLU"
  bottom: "inception_4a/1x1"
  top: "inception_4a/1x1"
}
layer {
  name: "inception_4a/3x3_reduce"
  type: "Convolution"
  bottom: "pool3/3x3_s2"
  top: "inception_4a/3x3_reduce"
  param {
    lr_mult: 1
    decay_mult: 1
  }
  param {
    lr_mult: 2
    decay_mult: 0
  }
  convolution_param {
    num_output: 96
    kernel_size: 1
    weight_filler {
      type: "xavier"
      std: 0.09
    }
    bias_filler {
      type: "constant"
      value: 0.2
    }
  }
}
layer {
  name: "inception_4a/relu_3x3_reduce"
  type: "ReLU"
  bottom: "inception_4a/3x3_reduce"
  top: "inception_4a/3x3_reduce"
}
layer {
  name: "inception_4a/3x3"
  type: "Convolution"
  bottom: "inception_4a/3x3_reduce"
  top: "inception_4a/3x3"
  param {
    lr_mult: 1
    decay_mult: 1
  }
  param {
    lr_mult: 2
    decay_mult: 0
  }
  convolution_param {
    num_output: 208
    pad: 1
    kernel_size: 3
    weight_filler {
      type: "xavier"
      std: 0.03
    }
    bias_filler {
      type: "constant"
      value: 0.2
    }
  }
}
layer {
  name: "inception_4a/relu_3x3"
  type: "ReLU"
  bottom: "inception_4a/3x3"
  top: "inception_4a/3x3"
}
layer {
  name: "inception_4a/5x5_reduce"
  type: "Convolution"
  bottom: "pool3/3x3_s2"
  top: "inception_4a/5x5_reduce"
  param {
    lr_mult: 1
    decay_mult: 1
  }
  param {
    lr_mult: 2
    decay_mult: 0
  }
  convolution_param {
    num_output: 16
    kernel_size: 1
    weight_filler {
      type: "xavier"
      std: 0.2
    }
    bias_filler {
      type: "constant"
      value: 0.2
    }
  }
}
layer {
  name: "inception_4a/relu_5x5_reduce"
  type: "ReLU"
  bottom: "inception_4a/5x5_reduce"
  top: "inception_4a/5x5_reduce"
}
layer {
  name: "inception_4a/5x5"
  type: "Convolution"
  bottom: "inception_4a/5x5_reduce"
  top: "inception_4a/5x5"
  param {
    lr_mult: 1
    decay_mult: 1
  }
  param {
    lr_mult: 2
    decay_mult: 0
  }
  convolution_param {
    num_output: 48
    pad: 2
    kernel_size: 5
    weight_filler {
      type: "xavier"
      std: 0.03
    }
    bias_filler {
      type: "constant"
      value: 0.2
    }
  }
}
layer {
  name: "inception_4a/relu_5x5"
  type: "ReLU"
  bottom: "inception_4a/5x5"
  top: "inception_4a/5x5"
}
layer {
  name: "inception_4a/pool"
  type: "Pooling"
  bottom: "pool3/3x3_s2"
  top: "inception_4a/pool"
  pooling_param {
    pool: MAX
    kernel_size: 3
    stride: 1
    pad: 1
  }
}
layer {
  name: "inception_4a/pool_proj"
  type: "Convolution"
  bottom: "inception_4a/pool"
  top: "inception_4a/pool_proj"
  param {
    lr_mult: 1
    decay_mult: 1
  }
  param {
    lr_mult: 2
    decay_mult: 0
  }
  convolution_param {
    num_output: 64
    kernel_size: 1
    weight_filler {
      type: "xavier"
      std: 0.1
    }
    bias_filler {
      type: "constant"
      value: 0.2
    }
  }
}
layer {
  name: "inception_4a/relu_pool_proj"
  type: "ReLU"
  bottom: "inception_4a/pool_proj"
  top: "inception_4a/pool_proj"
}
layer {
  name: "inception_4a/output"
  type: "Concat"
  bottom: "inception_4a/1x1"
  bottom: "inception_4a/3x3"
  bottom: "inception_4a/5x5"
  bottom: "inception_4a/pool_proj"
  top: "inception_4a/output"
}
layer {
  name: "loss1/ave_pool"
  type: "Pooling"
  bottom: "inception_4a/output"
  top: "loss1/ave_pool"
  pooling_param {
    pool: AVE
    kernel_size: 5
    stride: 3
  }
}
layer {
  name: "loss1/conv"
  type: "Convolution"
  bottom: "loss1/ave_pool"
  top: "loss1/conv"
  param {
    lr_mult: 1
    decay_mult: 1
  }
  param {
    lr_mult: 2
    decay_mult: 0
  }
  convolution_param {
    num_output: 128
    kernel_size: 1
    weight_filler {
      type: "xavier"
      std: 0.08
    }
    bias_filler {
      type: "constant"
      value: 0.2
    }
  }
}
layer {
  name: "loss1/relu_conv"
  type: "ReLU"
  bottom: "loss1/conv"
  top: "loss1/conv"
}
layer {
  name: "loss1/fc"
  type: "InnerProduct"
  bottom: "loss1/conv"
  top: "loss1/fc"
  param {
    lr_mult: 1
    decay_mult: 1
  }
  param {
    lr_mult: 2
    decay_mult: 0
  }
  inner_product_param {
    num_output: 1024
    weight_filler {
      type: "xavier"
      std: 0.02
    }
    bias_filler {
      type: "constant"
      value: 0.2
    }
  }
}
layer {
  name: "loss1/relu_fc"
  type: "ReLU"
  bottom: "loss1/fc"
  top: "loss1/fc"
}
layer {
  name: "loss1/drop_fc"
  type: "Dropout"
  bottom: "loss1/fc"
  top: "loss1/fc"
  dropout_param {
    dropout_ratio: 0.7
  }
}
layer {
  name: "loss1/classifier_plantvillage"
  type: "InnerProduct"
  bottom: "loss1/fc"
  top: "loss1/classifier_plantvillage"
  param {
    lr_mult: 1
    decay_mult: 1
  }
  param {
    lr_mult: 2
    decay_mult: 0
  }
  inner_product_param {
    num_output: 38
    weight_filler {
      type: "xavier"
      std: 0.0009765625
    }
    bias_filler {
      type: "constant"
      value: 0
    }
  }
}
layer {
  name: "inception_4b/1x1"
  type: "Convolution"
  bottom: "inception_4a/output"
  top: "inception_4b/1x1"
  param {
    lr_mult: 1
    decay_mult: 1
  }
  param {
    lr_mult: 2
    decay_mult: 0
  }
  convolution_param {
    num_output: 160
    kernel_size: 1
    weight_filler {
      type: "xavier"
      std: 0.03
    }
    bias_filler {
      type: "constant"
      value: 0.2
    }
  }
}
layer {
  name: "inception_4b/relu_1x1"
…
I0403 11:57:05.889991 11366 layer_factory.hpp:77] Creating layer inception_4c/pool
I0403 11:57:05.890008 11366 net.cpp:91] Creating Layer inception_4c/pool
I0403 11:57:05.890025 11366 net.cpp:425] inception_4c/pool <- inception_4b/output_inception_4b/output_0_split_3
I0403 11:57:05.890043 11366 net.cpp:399] inception_4c/pool -> inception_4c/pool
I0403 11:57:05.890103 11366 net.cpp:141] Setting up inception_4c/pool
I0403 11:57:05.890127 11366 net.cpp:148] Top shape: 24 512 14 14 (2408448)
I0403 11:57:05.890143 11366 net.cpp:156] Memory required for data: 1060605120
I0403 11:57:05.890158 11366 layer_factory.hpp:77] Creating layer inception_4c/pool_proj
I0403 11:57:05.890182 11366 net.cpp:91] Creating Layer inception_4c/pool_proj
I0403 11:57:05.890202 11366 net.cpp:425] inception_4c/pool_proj <- inception_4c/pool
I0403 11:57:05.890223 11366 net.cpp:399] inception_4c/pool_proj -> inception_4c/pool_proj
I0403 11:57:05.890666 11366 net.cpp:141] Setting up inception_4c/pool_proj
I0403 11:57:05.890692 11366 net.cpp:148] Top shape: 24 64 14 14 (301056)
I0403 11:57:05.890710 11366 net.cpp:156] Memory required for data: 1061809344
I0403 11:57:05.890728 11366 layer_factory.hpp:77] Creating layer inception_4c/relu_pool_proj
I0403 11:57:05.890748 11366 net.cpp:91] Creating Layer inception_4c/relu_pool_proj
I0403 11:57:05.890769 11366 net.cpp:425] inception_4c/relu_pool_proj <- inception_4c/pool_proj
I0403 11:57:05.890789 11366 net.cpp:386] inception_4c/relu_pool_proj -> inception_4c/pool_proj (in-place)
I0403 11:57:05.890813 11366 net.cpp:141] Setting up inception_4c/relu_pool_proj
I0403 11:57:05.890831 11366 net.cpp:148] Top shape: 24 64 14 14 (301056)
I0403 11:57:05.890846 11366 net.cpp:156] Memory required for data: 1063013568
I0403 11:57:05.890859 11366 layer_factory.hpp:77] Creating layer inception_4c/output
I0403 11:57:05.890880 11366 net.cpp:91] Creating Layer inception_4c/output
I0403 11:57:05.890897 11366 net.cpp:425] inception_4c/output <- inception_4c/1x1
I0403 11:57:05.890914 11366 net.cpp:425] inception_4c/output <- inception_4c/3x3
I0403 11:57:05.890931 11366 net.cpp:425] inception_4c/output <- inception_4c/5x5
I0403 11:57:05.890949 11366 net.cpp:425] inception_4c/output <- inception_4c/pool_proj
I0403 11:57:05.890965 11366 net.cpp:399] inception_4c/output -> inception_4c/output
I0403 11:57:05.891011 11366 net.cpp:141] Setting up inception_4c/output
I0403 11:57:05.891041 11366 net.cpp:148] Top shape: 24 512 14 14 (2408448)
I0403 11:57:05.891064 11366 net.cpp:156] Memory required for data: 1072647360
I0403 11:57:05.891085 11366 layer_factory.hpp:77] Creating layer inception_4c/output_inception_4c/output_0_split
I0403 11:57:05.891111 11366 net.cpp:91] Creating Layer inception_4c/output_inception_4c/output_0_split
I0403 11:57:05.891129 11366 net.cpp:425] inception_4c/output_inception_4c/output_0_split <- inception_4c/output
I0403 11:57:05.891155 11366 net.cpp:399] inception_4c/output_inception_4c/output_0_split -> inception_4c/output_inception_4c/output_0_split_0
I0403 11:57:05.891180 11366 net.cpp:399] inception_4c/output_inception_4c/output_0_split -> inception_4c/output_inception_4c/output_0_split_1
I0403 11:57:05.891202 11366 net.cpp:399] inception_4c/output_inception_4c/output_0_split -> inception_4c/output_inception_4c/output_0_split_2
I0403 11:57:05.891223 11366 net.cpp:399] inception_4c/output_inception_4c/output_0_split -> inception_4c/output_inception_4c/output_0_split_3
I0403 11:57:05.891317 11366 net.cpp:141] Setting up inception_4c/output_inception_4c/output_0_split
I0403 11:57:05.891345 11366 net.cpp:148] Top shape: 24 512 14 14 (2408448)
I0403 11:57:05.891362 11366 net.cpp:148] Top shape: 24 512 14 14 (2408448)
I0403 11:57:05.891377 11366 net.cpp:148] Top shape: 24 512 14 14 (2408448)
I0403 11:57:05.891393 11366 net.cpp:148] Top shape: 24 512 14 14 (2408448)
I0403 11:57:05.891407 11366 net.cpp:156] Memory required for data: 1111182528
I0403 11:57:05.891422 11366 layer_factory.hpp:77] Creating layer inception_4d/1x1
I0403 11:57:05.891443 11366 net.cpp:91] Creating Layer inception_4d/1x1
I0403 11:57:05.891461 11366 net.cpp:425] inception_4d/1x1 <- inception_4c/output_inception_4c/output_0_split_0
I0403 11:57:05.891484 11366 net.cpp:399] inception_4d/1x1 -> inception_4d/1x1
I0403 11:57:05.892062 11366 net.cpp:141] Setting up inception_4d/1x1
I0403 11:57:05.892088 11366 net.cpp:148] Top shape: 24 112 14 14 (526848)
I0403 11:57:05.892103 11366 net.cpp:156] Memory required for data: 1113289920
I0403 11:57:05.892122 11366 layer_factory.hpp:77] Creating layer inception_4d/relu_1x1
I0403 11:57:05.892140 11366 net.cpp:91] Creating Layer inception_4d/relu_1x1
I0403 11:57:05.892158 11366 net.cpp:425] inception_4d/relu_1x1 <- inception_4d/1x1
I0403 11:57:05.892175 11366 net.cpp:386] inception_4d/relu_1x1 -> inception_4d/1x1 (in-place)
I0403 11:57:05.892197 11366 net.cpp:141] Setting up inception_4d/relu_1x1
I0403 11:57:05.892215 11366 net.cpp:148] Top shape: 24 112 14 14 (526848)
I0403 11:57:05.892230 11366 net.cpp:156] Memory required for data: 1115397312
I0403 11:57:05.892244 11366 layer_factory.hpp:77] Creating layer inception_4d/3x3_reduce
I0403 11:57:05.892266 11366 net.cpp:91] Creating Layer inception_4d/3x3_reduce
I0403 11:57:05.892285 11366 net.cpp:425] inception_4d/3x3_reduce <- inception_4c/output_inception_4c/output_0_split_1
I0403 11:57:05.892305 11366 net.cpp:399] inception_4d/3x3_reduce -> inception_4d/3x3_reduce
I0403 11:57:05.892999 11366 net.cpp:141] Setting up inception_4d/3x3_reduce
I0403 11:57:05.893028 11366 net.cpp:148] Top shape: 24 144 14 14 (677376)
I0403 11:57:05.893044 11366 net.cpp:156] Memory required for data: 1118106816
I0403 11:57:05.893062 11366 layer_factory.hpp:77] Creating layer inception_4d/relu_3x3_reduce
I0403 11:57:05.893080 11366 net.cpp:91] Creating Layer inception_4d/relu_3x3_reduce
I0403 11:57:05.893097 11366 net.cpp:425] inception_4d/relu_3x3_reduce <- inception_4d/3x3_reduce
I0403 11:57:05.893118 11366 net.cpp:386] inception_4d/relu_3x3_reduce -> inception_4d/3x3_reduce (in-place)
I0403 11:57:05.893139 11366 net.cpp:141] Setting up inception_4d/relu_3x3_reduce
I0403 11:57:05.893157 11366 net.cpp:148] Top shape: 24 144 14 14 (677376)
I0403 11:57:05.893172 11366 net.cpp:156] Memory required for data: 1120816320
I0403 11:57:05.893185 11366 layer_factory.hpp:77] Creating layer inception_4d/3x3
I0403 11:57:05.893206 11366 net.cpp:91] Creating Layer inception_4d/3x3
I0403 11:57:05.893224 11366 net.cpp:425] inception_4d/3x3 <- inception_4d/3x3_reduce
I0403 11:57:05.893244 11366 net.cpp:399] inception_4d/3x3 -> inception_4d/3x3
I0403 11:57:05.896607 11366 net.cpp:141] Setting up inception_4d/3x3
I0403 11:57:05.896642 11366 net.cpp:148] Top shape: 24 288 14 14 (1354752)
I0403 11:57:05.896659 11366 net.cpp:156] Memory required for data: 1126235328
I0403 11:57:05.896677 11366 layer_factory.hpp:77] Creating layer inception_4d/relu_3x3
I0403 11:57:05.896700 11366 net.cpp:91] Creating Layer inception_4d/relu_3x3
I0403 11:57:05.896718 11366 net.cpp:425] inception_4d/relu_3x3 <- inception_4d/3x3
I0403 11:57:05.896736 11366 net.cpp:386] inception_4d/relu_3x3 -> inception_4d/3x3 (in-place)
I0403 11:57:05.896756 11366 net.cpp:141] Setting up inception_4d/relu_3x3
I0403 11:57:05.896778 11366 net.cpp:148] Top shape: 24 288 14 14 (1354752)
I0403 11:57:05.896793 11366 net.cpp:156] Memory required for data: 1131654336
I0403 11:57:05.896808 11366 layer_factory.hpp:77] Creating layer inception_4d/5x5_reduce
I0403 11:57:05.896847 11366 net.cpp:91] Creating Layer inception_4d/5x5_reduce
I0403 11:57:05.896867 11366 net.cpp:425] inception_4d/5x5_reduce <- inception_4c/output_inception_4c/output_0_split_2
I0403 11:57:05.896889 11366 net.cpp:399] inception_4d/5x5_reduce -> inception_4d/5x5_reduce
I0403 11:57:05.897248 11366 net.cpp:141] Setting up inception_4d/5x5_reduce
I0403 11:57:05.897274 11366 net.cpp:148] Top shape: 24 32 14 14 (150528)
I0403 11:57:05.897289 11366 net.cpp:156] Memory required for data: 1132256448
I0403 11:57:05.897307 11366 layer_factory.hpp:77] Creating layer inception_4d/relu_5x5_reduce
I0403 11:57:05.897325 11366 net.cpp:91] Creating Layer inception_4d/relu_5x5_reduce
I0403 11:57:05.897342 11366 net.cpp:425] inception_4d/relu_5x5_reduce <- inception_4d/5x5_reduce
I0403 11:57:05.897361 11366 net.cpp:386] inception_4d/relu_5x5_reduce -> inception_4d/5x5_reduce (in-place)
I0403 11:57:05.897379 11366 net.cpp:141] Setting up inception_4d/relu_5x5_reduce
I0403 11:57:05.897397 11366 net.cpp:148] Top shape: 24 32 14 14 (150528)
I0403 11:57:05.897411 11366 net.cpp:156] Memory required for data: 1132858560
I0403 11:57:05.897425 11366 layer_factory.hpp:77] Creating layer inception_4d/5x5
I0403 11:57:05.897449 11366 net.cpp:91] Creating Layer inception_4d/5x5
I0403 11:57:05.897466 11366 net.cpp:425] inception_4d/5x5 <- inception_4d/5x5_reduce
I0403 11:57:05.897490 11366 net.cpp:399] inception_4d/5x5 -> inception_4d/5x5
I0403 11:57:05.898041 11366 net.cpp:141] Setting up inception_4d/5x5
I0403 11:57:05.898066 11366 net.cpp:148] Top shape: 24 64 14 14 (301056)
I0403 11:57:05.898082 11366 net.cpp:156] Memory required for data: 1134062784
I0403 11:57:05.898099 11366 layer_factory.hpp:77] Creating layer inception_4d/relu_5x5
I0403 11:57:05.898120 11366 net.cpp:91] Creating Layer inception_4d/relu_5x5
I0403 11:57:05.898138 11366 net.cpp:425] inception_4d/relu_5x5 <- inception_4d/5x5
I0403 11:57:05.898156 11366 net.cpp:386] inception_4d/relu_5x5 -> inception_4d/5x5 (in-place)
I0403 11:57:05.898176 11366 net.cpp:141] Setting up inception_4d/relu_5x5
I0403 11:57:05.898195 11366 net.cpp:148] Top shape: 24 64 14 14 (301056)
I0403 11:57:05.898216 11366 net.cpp:156] Memory required for data: 1135267008
I0403 11:57:05.898237 11366 layer_factory.hpp:77] Creating layer inception_4d/pool
I0403 11:57:05.898259 11366 net.cpp:91] Creating Layer inception_4d/pool
I0403 11:57:05.898277 11366 net.cpp:425] inception_4d/pool <- inception_4c/output_inception_4c/output_0_split_3
I0403 11:57:05.898296 11366 net.cpp:399] inception_4d/pool -> inception_4d/pool
I0403 11:57:05.898356 11366 net.cpp:141] Setting up inception_4d/pool
I0403 11:57:05.898380 11366 net.cpp:148] Top shape: 24 512 14 14 (2408448)
I0403 11:57:05.898396 11366 net.cpp:156] Memory required for data: 1144900800
I0403 11:57:05.898411 11366 layer_factory.hpp:77] Creating layer inception_4d/pool_proj
I0403 11:57:05.898432 11366 net.cpp:91] Creating Layer inception_4d/pool_proj
I0403 11:57:05.898452 11366 net.cpp:425] inception_4d/pool_proj <- inception_4d/pool
I0403 11:57:05.898471 11366 net.cpp:399] inception_4d/pool_proj -> inception_4d/pool_proj
I0403 11:57:05.898910 11366 net.cpp:141] Setting up inception_4d/pool_proj
I0403 11:57:05.898936 11366 net.cpp:148] Top shape: 24 64 14 14 (301056)
I0403 11:57:05.898952 11366 net.cpp:156] Memory required for data: 1146105024
I0403 11:57:05.898970 11366 layer_factory.hpp:77] Creating layer inception_4d/relu_pool_proj
I0403 11:57:05.898989 11366 net.cpp:91] Creating Layer inception_4d/relu_pool_proj
I0403 11:57:05.899006 11366 net.cpp:425] inception_4d/relu_pool_proj <- inception_4d/pool_proj
I0403 11:57:05.899027 11366 net.cpp:386] inception_4d/relu_pool_proj -> inception_4d/pool_proj (in-place)
I0403 11:57:05.899049 11366 net.cpp:141] Setting up inception_4d/relu_pool_proj
I0403 11:57:05.899066 11366 net.cpp:148] Top shape: 24 64 14 14 (301056)
I0403 11:57:05.899081 11366 net.cpp:156] Memory required for data: 1147309248
I0403 11:57:05.899096 11366 layer_factory.hpp:77] Creating layer inception_4d/output
I0403 11:57:05.899127 11366 net.cpp:91] Creating Layer inception_4d/output
I0403 11:57:05.899144 11366 net.cpp:425] inception_4d/output <- inception_4d/1x1
I0403 11:57:05.899160 11366 net.cpp:425] inception_4d/output <- inception_4d/3x3
I0403 11:57:05.899178 11366 net.cpp:425] inception_4d/output <- inception_4d/5x5
I0403 11:57:05.899194 11366 net.cpp:425] inception_4d/output <- inception_4d/pool_proj
I0403 11:57:05.899214 11366 net.cpp:399] inception_4d/output -> inception_4d/output
I0403 11:57:05.899257 11366 net.cpp:141] Setting up inception_4d/output
I0403 11:57:05.899281 11366 net.cpp:148] Top shape: 24 528 14 14 (2483712)
I0403 11:57:05.899296 11366 net.cpp:156] Memory required for data: 1157244096
I0403 11:57:05.899312 11366 layer_factory.hpp:77] Creating layer inception_4d/output_inception_4d/output_0_split
I0403 11:57:05.899333 11366 net.cpp:91] Creating Layer inception_4d/output_inception_4d/output_0_split
I0403 11:57:05.899349 11366 net.cpp:425] inception_4d/output_inception_4d/output_0_split <- inception_4d/output
I0403 11:57:05.899369 11366 net.cpp:399] inception_4d/output_inception_4d/output_0_split -> inception_4d/output_inception_4d/output_0_split_0
I0403 11:57:05.899389 11366 net.cpp:399] inception_4d/output_inception_4d/output_0_split -> inception_4d/output_inception_4d/output_0_split_1
I0403 11:57:05.899410 11366 net.cpp:399] inception_4d/output_inception_4d/output_0_split -> inception_4d/output_inception_4d/output_0_split_2
I0403 11:57:05.899435 11366 net.cpp:399] inception_4d/output_inception_4d/output_0_split -> inception_4d/output_inception_4d/output_0_split_3
I0403 11:57:05.899454 11366 net.cpp:399] inception_4d/output_inception_4d/output_0_split -> inception_4d/output_inception_4d/output_0_split_4
I0403 11:57:05.899544 11366 net.cpp:141] Setting up inception_4d/output_inception_4d/output_0_split
I0403 11:57:05.899566 11366 net.cpp:148] Top shape: 24 528 14 14 (2483712)
I0403 11:57:05.899583 11366 net.cpp:148] Top shape: 24 528 14 14 (2483712)
I0403 11:57:05.899598 11366 net.cpp:148] Top shape: 24 528 14 14 (2483712)
I0403 11:57:05.899615 11366 net.cpp:148] Top shape: 24 528 14 14 (2483712)
I0403 11:57:05.899631 11366 net.cpp:148] Top shape: 24 528 14 14 (2483712)
I0403 11:57:05.899644 11366 net.cpp:156] Memory required for data: 1206918336
I0403 11:57:05.899659 11366 layer_factory.hpp:77] Creating layer loss2/ave_pool
I0403 11:57:05.899677 11366 net.cpp:91] Creating Layer loss2/ave_pool
I0403 11:57:05.899693 11366 net.cpp:425] loss2/ave_pool <- inception_4d/output_inception_4d/output_0_split_0
I0403 11:57:05.899727 11366 net.cpp:399] loss2/ave_pool -> loss2/ave_pool
I0403 11:57:05.899780 11366 net.cpp:141] Setting up loss2/ave_pool
I0403 11:57:05.899804 11366 net.cpp:148] Top shape: 24 528 4 4 (202752)
I0403 11:57:05.899821 11366 net.cpp:156] Memory required for data: 1207729344
I0403 11:57:05.899835 11366 layer_factory.hpp:77] Creating layer loss2/conv
I0403 11:57:05.899859 11366 net.cpp:91] Creating Layer loss2/conv
I0403 11:57:05.899878 11366 net.cpp:425] loss2/conv <- loss2/ave_pool
I0403 11:57:05.899899 11366 net.cpp:399] loss2/conv -> loss2/conv
I0403 11:57:05.902513 11366 net.cpp:141] Setting up loss2/conv
I0403 11:57:05.902552 11366 net.cpp:148] Top shape: 24 128 4 4 (49152)
I0403 11:57:05.902568 11366 net.cpp:156] Memory required for data: 1207925952
I0403 11:57:05.902588 11366 layer_factory.hpp:77] Creating layer loss2/relu_conv
I0403 11:57:05.902608 11366 net.cpp:91] Creating Layer loss2/relu_conv
I0403 11:57:05.902626 11366 net.cpp:425] loss2/relu_conv <- loss2/conv
I0403 11:57:05.902647 11366 net.cpp:386] loss2/relu_conv -> loss2/conv (in-place)
I0403 11:57:05.902669 11366 net.cpp:141] Setting up loss2/relu_conv
I0403 11:57:05.902688 11366 net.cpp:148] Top shape: 24 128 4 4 (49152)
I0403 11:57:05.902704 11366 net.cpp:156] Memory required for data: 1208122560
I0403 11:57:05.902719 11366 layer_factory.hpp:77] Creating layer loss2/fc
I0403 11:57:05.902739 11366 net.cpp:91] Creating Layer loss2/fc
I0403 11:57:05.902770 11366 net.cpp:425] loss2/fc <- loss2/conv
I0403 11:57:05.902793 11366 net.cpp:399] loss2/fc -> loss2/fc
I0403 11:57:05.919293 11366 net.cpp:141] Setting up loss2/fc
I0403 11:57:05.919342 11366 net.cpp:148] Top shape: 24 1024 (24576)
I0403 11:57:05.919358 11366 net.cpp:156] Memory required for data: 1208220864
I0403 11:57:05.919378 11366 layer_factory.hpp:77] Creating layer loss2/relu_fc
I0403 11:57:05.919399 11366 net.cpp:91] Creating Layer loss2/relu_fc
I0403 11:57:05.919415 11366 net.cpp:425] loss2/relu_fc <- loss2/fc
I0403 11:57:05.919436 11366 net.cpp:386] loss2/relu_fc -> loss2/fc (in-place)
I0403 11:57:05.919458 11366 net.cpp:141] Setting up loss2/relu_fc
I0403 11:57:05.919476 11366 net.cpp:148] Top shape: 24 1024 (24576)
I0403 11:57:05.919492 11366 net.cpp:156] Memory required for data: 1208319168
I0403 11:57:05.919505 11366 layer_factory.hpp:77] Creating layer loss2/drop_fc
I0403 11:57:05.919524 11366 net.cpp:91] Creating Layer loss2/drop_fc
I0403 11:57:05.919539 11366 net.cpp:425] loss2/drop_fc <- loss2/fc
I0403 11:57:05.919556 11366 net.cpp:386] loss2/drop_fc -> loss2/fc (in-place)
I0403 11:57:05.919603 11366 net.cpp:141] Setting up loss2/drop_fc
I0403 11:57:05.919626 11366 net.cpp:148] Top shape: 24 1024 (24576)
I0403 11:57:05.919641 11366 net.cpp:156] Memory required for data: 1208417472
I0403 11:57:05.919656 11366 layer_factory.hpp:77] Creating layer loss2/classifier_plantvillage
I0403 11:57:05.919677 11366 net.cpp:91] Creating Layer loss2/classifier_plantvillage
I0403 11:57:05.919693 11366 net.cpp:425] loss2/classifier_plantvillage <- loss2/fc
I0403 11:57:05.919713 11366 net.cpp:399] loss2/classifier_plantvillage -> loss2/classifier_plantvillage
I0403 11:57:05.920073 11366 net.cpp:141] Setting up loss2/classifier_plantvillage
I0403 11:57:05.920097 11366 net.cpp:148] Top shape: 24 38 (912)
I0403 11:57:05.920112 11366 net.cpp:156] Memory required for data: 1208421120
I0403 11:57:05.920130 11366 layer_factory.hpp:77] Creating layer loss2/classifier_plantvillage_loss2/classifier_plantvillage_0_split
I0403 11:57:05.920148 11366 net.cpp:91] Creating Layer loss2/classifier_plantvillage_loss2/classifier_plantvillage_0_split
I0403 11:57:05.920166 11366 net.cpp:425] loss2/classifier_plantvillage_loss2/classifier_plantvillage_0_split <- loss2/classifier_plantvillage
I0403 11:57:05.920184 11366 net.cpp:399] loss2/classifier_plantvillage_loss2/classifier_plantvillage_0_split -> loss2/classifier_plantvillage_loss2/classifier_plantvillage_0_split_0
I0403 11:57:05.920207 11366 net.cpp:399] loss2/classifier_plantvillage_loss2/classifier_plantvillage_0_split -> loss2/classifier_plantvillage_loss2/classifier_plantvillage_0_split_1
I0403 11:57:05.920229 11366 net.cpp:399] loss2/classifier_plantvillage_loss2/classifier_plantvillage_0_split -> loss2/classifier_plantvillage_loss2/classifier_plantvillage_0_split_2
I0403 11:57:05.920300 11366 net.cpp:141] Setting up loss2/classifier_plantvillage_loss2/classifier_plantvillage_0_split
I0403 11:57:05.920321 11366 net.cpp:148] Top shape: 24 38 (912)
I0403 11:57:05.920338 11366 net.cpp:148] Top shape: 24 38 (912)
I0403 11:57:05.920354 11366 net.cpp:148] Top shape: 24 38 (912)
I0403 11:57:05.920367 11366 net.cpp:156] Memory required for data: 1208432064
I0403 11:57:05.920382 11366 layer_factory.hpp:77] Creating layer inception_4e/1x1
I0403 11:57:05.920403 11366 net.cpp:91] Creating Layer inception_4e/1x1
I0403 11:57:05.920419 11366 net.cpp:425] inception_4e/1x1 <- inception_4d/output_inception_4d/output_0_split_1
I0403 11:57:05.920440 11366 net.cpp:399] inception_4e/1x1 -> inception_4e/1x1
I0403 11:57:05.921476 11366 net.cpp:141] Setting up inception_4e/1x1
I0403 11:57:05.921502 11366 net.cpp:148] Top shape: 24 256 14 14 (1204224)
I0403 11:57:05.921519 11366 net.cpp:156] Memory required for data: 1213248960
I0403 11:57:05.921536 11366 layer_factory.hpp:77] Creating layer inception_4e/relu_1x1
I0403 11:57:05.921555 11366 net.cpp:91] Creating Layer inception_4e/relu_1x1
I0403 11:57:05.921571 11366 net.cpp:425] inception_4e/relu_1x1 <- inception_4e/1x1
I0403 11:57:05.921591 11366 net.cpp:386] inception_4e/relu_1x1 -> inception_4e/1x1 (in-place)
I0403 11:57:05.921610 11366 net.cpp:141] Setting up inception_4e/relu_1x1
I0403 11:57:05.921653 11366 net.cpp:148] Top shape: 24 256 14 14 (1204224)
I0403 11:57:05.921669 11366 net.cpp:156] Memory required for data: 1218065856
I0403 11:57:05.921682 11366 layer_factory.hpp:77] Creating layer inception_4e/3x3_reduce
I0403 11:57:05.921706 11366 net.cpp:91] Creating Layer inception_4e/3x3_reduce
I0403 11:57:05.921725 11366 net.cpp:425] inception_4e/3x3_reduce <- inception_4d/output_inception_4d/output_0_split_2
I0403 11:57:05.921746 11366 net.cpp:399] inception_4e/3x3_reduce -> inception_4e/3x3_reduce
I0403 11:57:05.923017 11366 net.cpp:141] Setting up inception_4e/3x3_reduce
I0403 11:57:05.923045 11366 net.cpp:148] Top shape: 24 160 14 14 (752640)
I0403 11:57:05.923061 11366 net.cpp:156] Memory required for data: 1221076416
I0403 11:57:05.923079 11366 layer_factory.hpp:77] Creating layer inception_4e/relu_3x3_reduce
I0403 11:57:05.923100 11366 net.cpp:91] Creating Layer inception_4e/relu_3x3_reduce
I0403 11:57:05.923118 11366 net.cpp:425] inception_4e/relu_3x3_reduce <- inception_4e/3x3_reduce
I0403 11:57:05.923135 11366 net.cpp:386] inception_4e/relu_3x3_reduce -> inception_4e/3x3_reduce (in-place)
I0403 11:57:05.923156 11366 net.cpp:141] Setting up inception_4e/relu_3x3_reduce
I0403 11:57:05.923174 11366 net.cpp:148] Top shape: 24 160 14 14 (752640)
I0403 11:57:05.923188 11366 net.cpp:156] Memory required for data: 1224086976
I0403 11:57:05.923202 11366 layer_factory.hpp:77] Creating layer inception_4e/3x3
I0403 11:57:05.923225 11366 net.cpp:91] Creating Layer inception_4e/3x3
I0403 11:57:05.923243 11366 net.cpp:425] inception_4e/3x3 <- inception_4e/3x3_reduce
I0403 11:57:05.923261 11366 net.cpp:399] inception_4e/3x3 -> inception_4e/3x3
I0403 11:57:05.927364 11366 net.cpp:141] Setting up inception_4e/3x3
I0403 11:57:05.927394 11366 net.cpp:148] Top shape: 24 320 14 14 (1505280)
I0403 11:57:05.927412 11366 net.cpp:156] Memory required for data: 1230108096
I0403 11:57:05.927430 11366 layer_factory.hpp:77] Creating layer inception_4e/relu_3x3
I0403 11:57:05.927449 11366 net.cpp:91] Creating Layer inception_4e/relu_3x3
I0403 11:57:05.927467 11366 net.cpp:425] inception_4e/relu_3x3 <- inception_4e/3x3
I0403 11:57:05.927484 11366 net.cpp:386] inception_4e/relu_3x3 -> inception_4e/3x3 (in-place)
I0403 11:57:05.927505 11366 net.cpp:141] Setting up inception_4e/relu_3x3
I0403 11:57:05.927526 11366 net.cpp:148] Top shape: 24 320 14 14 (1505280)
I0403 11:57:05.927541 11366 net.cpp:156] Memory required for data: 1236129216
I0403 11:57:05.927556 11366 layer_factory.hpp:77] Creating layer inception_4e/5x5_reduce
I0403 11:57:05.927577 11366 net.cpp:91] Creating Layer inception_4e/5x5_reduce
I0403 11:57:05.927594 11366 net.cpp:425] inception_4e/5x5_reduce <- inception_4d/output_inception_4d/output_0_split_3
I0403 11:57:05.927616 11366 net.cpp:399] inception_4e/5x5_reduce -> inception_4e/5x5_reduce
I0403 11:57:05.928524 11366 net.cpp:141] Setting up inception_4e/5x5_reduce
I0403 11:57:05.928552 11366 net.cpp:148] Top shape: 24 32 14 14 (150528)
I0403 11:57:05.928570 11366 net.cpp:156] Memory required for data: 1236731328
I0403 11:57:05.928587 11366 layer_factory.hpp:77] Creating layer inception_4e/relu_5x5_reduce
I0403 11:57:05.928609 11366 net.cpp:91] Creating Layer inception_4e/relu_5x5_reduce
I0403 11:57:05.928627 11366 net.cpp:425] inception_4e/relu_5x5_reduce <- inception_4e/5x5_reduce
I0403 11:57:05.928645 11366 net.cpp:386] inception_4e/relu_5x5_reduce -> inception_4e/5x5_reduce (in-place)
I0403 11:57:05.928666 11366 net.cpp:141] Setting up inception_4e/relu_5x5_reduce
I0403 11:57:05.928684 11366 net.cpp:148] Top shape: 24 32 14 14 (150528)
I0403 11:57:05.928699 11366 net.cpp:156] Memory required for data: 1237333440
I0403 11:57:05.928714 11366 layer_factory.hpp:77] Creating layer inception_4e/5x5
I0403 11:57:05.928762 11366 net.cpp:91] Creating Layer inception_4e/5x5
I0403 11:57:05.928783 11366 net.cpp:425] inception_4e/5x5 <- inception_4e/5x5_reduce
I0403 11:57:05.928805 11366 net.cpp:399] inception_4e/5x5 -> inception_4e/5x5
I0403 11:57:05.929596 11366 net.cpp:141] Setting up inception_4e/5x5
I0403 11:57:05.929636 11366 net.cpp:148] Top shape: 24 128 14 14 (602112)
I0403 11:57:05.929652 11366 net.cpp:156] Memory required for data: 1239741888
I0403 11:57:05.929672 11366 layer_factory.hpp:77] Creating layer inception_4e/relu_5x5
I0403 11:57:05.929693 11366 net.cpp:91] Creating Layer inception_4e/relu_5x5
I0403 11:57:05.929710 11366 net.cpp:425] inception_4e/relu_5x5 <- inception_4e/5x5
I0403 11:57:05.929729 11366 net.cpp:386] inception_4e/relu_5x5 -> inception_4e/5x5 (in-place)
I0403 11:57:05.929749 11366 net.cpp:141] Setting up inception_4e/relu_5x5
I0403 11:57:05.929771 11366 net.cpp:148] Top shape: 24 128 14 14 (602112)
I0403 11:57:05.929787 11366 net.cpp:156] Memory required for data: 1242150336
I0403 11:57:05.929801 11366 layer_factory.hpp:77] Creating layer inception_4e/pool
I0403 11:57:05.929823 11366 net.cpp:91] Creating Layer inception_4e/pool
I0403 11:57:05.929839 11366 net.cpp:425] inception_4e/pool <- inception_4d/output_inception_4d/output_0_split_4
I0403 11:57:05.929858 11366 net.cpp:399] inception_4e/pool -> inception_4e/pool
I0403 11:57:05.929919 11366 net.cpp:141] Setting up inception_4e/pool
I0403 11:57:05.929944 11366 net.cpp:148] Top shape: 24 528 14 14 (2483712)
I0403 11:57:05.929961 11366 net.cpp:156] Memory required for data: 1252085184
I0403 11:57:05.929977 11366 layer_factory.hpp:77] Creating layer inception_4e/pool_proj
I0403 11:57:05.930003 11366 net.cpp:91] Creating Layer inception_4e/pool_proj
I0403 11:57:05.930028 11366 net.cpp:425] inception_4e/pool_proj <- inception_4e/pool
I0403 11:57:05.930055 11366 net.cpp:399] inception_4e/pool_proj -> inception_4e/pool_proj
I0403 11:57:05.930670 11366 net.cpp:141] Setting up inception_4e/pool_proj
I0403 11:57:05.930696 11366 net.cpp:148] Top shape: 24 128 14 14 (602112)
I0403 11:57:05.930711 11366 net.cpp:156] Memory required for data: 1254493632
I0403 11:57:05.930730 11366 layer_factory.hpp:77] Creating layer inception_4e/relu_pool_proj
I0403 11:57:05.930748 11366 net.cpp:91] Creating Layer inception_4e/relu_pool_proj
I0403 11:57:05.930773 11366 net.cpp:425] inception_4e/relu_pool_proj <- inception_4e/pool_proj
I0403 11:57:05.930794 11366 net.cpp:386] inception_4e/relu_pool_proj -> inception_4e/pool_proj (in-place)
I0403 11:57:05.930815 11366 net.cpp:141] Setting up inception_4e/relu_pool_proj
I0403 11:57:05.930835 11366 net.cpp:148] Top shape: 24 128 14 14 (602112)
I0403 11:57:05.930852 11366 net.cpp:156] Memory required for data: 1256902080
I0403 11:57:05.930869 11366 layer_factory.hpp:77] Creating layer inception_4e/output
I0403 11:57:05.930887 11366 net.cpp:91] Creating Layer inception_4e/output
I0403 11:57:05.930905 11366 net.cpp:425] inception_4e/output <- inception_4e/1x1
I0403 11:57:05.930922 11366 net.cpp:425] inception_4e/output <- inception_4e/3x3
I0403 11:57:05.930938 11366 net.cpp:425] inception_4e/output <- inception_4e/5x5
I0403 11:57:05.930955 11366 net.cpp:425] inception_4e/output <- inception_4e/pool_proj
I0403 11:57:05.930974 11366 net.cpp:399] inception_4e/output -> inception_4e/output
I0403 11:57:05.931015 11366 net.cpp:141] Setting up inception_4e/output
I0403 11:57:05.931051 11366 net.cpp:148] Top shape: 24 832 14 14 (3913728)
I0403 11:57:05.931067 11366 net.cpp:156] Memory required for data: 1272556992
I0403 11:57:05.931082 11366 layer_factory.hpp:77] Creating layer pool4/3x3_s2
I0403 11:57:05.931100 11366 net.cpp:91] Creating Layer pool4/3x3_s2
I0403 11:57:05.931126 11366 net.cpp:425] pool4/3x3_s2 <- inception_4e/output
I0403 11:57:05.931149 11366 net.cpp:399] pool4/3x3_s2 -> pool4/3x3_s2
I0403 11:57:05.931202 11366 net.cpp:141] Setting up pool4/3x3_s2
I0403 11:57:05.931226 11366 net.cpp:148] Top shape: 24 832 7 7 (978432)
I0403 11:57:05.931241 11366 net.cpp:156] Memory required for data: 1276470720
I0403 11:57:05.931257 11366 layer_factory.hpp:77] Creating layer pool4/3x3_s2_pool4/3x3_s2_0_split
I0403 11:57:05.931277 11366 net.cpp:91] Creating Layer pool4/3x3_s2_pool4/3x3_s2_0_split
I0403 11:57:05.931294 11366 net.cpp:425] pool4/3x3_s2_pool4/3x3_s2_0_split <- pool4/3x3_s2
I0403 11:57:05.931334 11366 net.cpp:399] pool4/3x3_s2_pool4/3x3_s2_0_split -> pool4/3x3_s2_pool4/3x3_s2_0_split_0
I0403 11:57:05.931360 11366 net.cpp:399] pool4/3x3_s2_pool4/3x3_s2_0_split -> pool4/3x3_s2_pool4/3x3_s2_0_split_1
I0403 11:57:05.931380 11366 net.cpp:399] pool4/3x3_s2_pool4/3x3_s2_0_split -> pool4/3x3_s2_pool4/3x3_s2_0_split_2
I0403 11:57:05.931401 11366 net.cpp:399] pool4/3x3_s2_pool4/3x3_s2_0_split -> pool4/3x3_s2_pool4/3x3_s2_0_split_3
I0403 11:57:05.931470 11366 net.cpp:141] Setting up pool4/3x3_s2_pool4/3x3_s2_0_split
I0403 11:57:05.931493 11366 net.cpp:148] Top shape: 24 832 7 7 (978432)
I0403 11:57:05.931510 11366 net.cpp:148] Top shape: 24 832 7 7 (978432)
I0403 11:57:05.931526 11366 net.cpp:148] Top shape: 24 832 7 7 (978432)
I0403 11:57:05.931542 11366 net.cpp:148] Top shape: 24 832 7 7 (978432)
I0403 11:57:05.931556 11366 net.cpp:156] Memory required for data: 1292125632
I0403 11:57:05.931571 11366 layer_factory.hpp:77] Creating layer inception_5a/1x1
I0403 11:57:05.931593 11366 net.cpp:91] Creating Layer inception_5a/1x1
I0403 11:57:05.931612 11366 net.cpp:425] inception_5a/1x1 <- pool4/3x3_s2_pool4/3x3_s2_0_split_0
I0403 11:57:05.931635 11366 net.cpp:399] inception_5a/1x1 -> inception_5a/1x1
I0403 11:57:05.933598 11366 net.cpp:141] Setting up inception_5a/1x1
I0403 11:57:05.933629 11366 net.cpp:148] Top shape: 24 256 7 7 (301056)
I0403 11:57:05.933645 11366 net.cpp:156] Memory required for data: 1293329856
I0403 11:57:05.933663 11366 layer_factory.hpp:77] Creating layer inception_5a/relu_1x1
I0403 11:57:05.933686 11366 net.cpp:91] Creating Layer inception_5a/relu_1x1
I0403 11:57:05.933704 11366 net.cpp:425] inception_5a/relu_1x1 <- inception_5a/1x1
I0403 11:57:05.933722 11366 net.cpp:386] inception_5a/relu_1x1 -> inception_5a/1x1 (in-place)
I0403 11:57:05.933740 11366 net.cpp:141] Setting up inception_5a/relu_1x1
I0403 11:57:05.933763 11366 net.cpp:148] Top shape: 24 256 7 7 (301056)
I0403 11:57:05.933779 11366 net.cpp:156] Memory required for data: 1294534080
I0403 11:57:05.933792 11366 layer_factory.hpp:77] Creating layer inception_5a/3x3_reduce
I0403 11:57:05.933816 11366 net.cpp:91] Creating Layer inception_5a/3x3_reduce
I0403 11:57:05.933835 11366 net.cpp:425] inception_5a/3x3_reduce <- pool4/3x3_s2_pool4/3x3_s2_0_split_1
I0403 11:57:05.933856 11366 net.cpp:399] inception_5a/3x3_reduce -> inception_5a/3x3_reduce
I0403 11:57:05.935400 11366 net.cpp:141] Setting up inception_5a/3x3_reduce
I0403 11:57:05.935430 11366 net.cpp:148] Top shape: 24 160 7 7 (188160)
I0403 11:57:05.935446 11366 net.cpp:156] Memory required for data: 1295286720
I0403 11:57:05.935466 11366 layer_factory.hpp:77] Creating layer inception_5a/relu_3x3_reduce
I0403 11:57:05.935487 11366 net.cpp:91] Creating Layer inception_5a/relu_3x3_reduce
I0403 11:57:05.935505 11366 net.cpp:425] inception_5a/relu_3x3_reduce <- inception_5a/3x3_reduce
I0403 11:57:05.935525 11366 net.cpp:386] inception_5a/relu_3x3_reduce -> inception_5a/3x3_reduce (in-place)
I0403 11:57:05.935546 11366 net.cpp:141] Setting up inception_5a/relu_3x3_reduce
I0403 11:57:05.935564 11366 net.cpp:148] Top shape: 24 160 7 7 (188160)
I0403 11:57:05.935578 11366 net.cpp:156] Memory required for data: 1296039360
I0403 11:57:05.935592 11366 layer_factory.hpp:77] Creating layer inception_5a/3x3
I0403 11:57:05.935616 11366 net.cpp:91] Creating Layer inception_5a/3x3
I0403 11:57:05.935634 11366 net.cpp:425] inception_5a/3x3 <- inception_5a/3x3_reduce
I0403 11:57:05.935654 11366 net.cpp:399] inception_5a/3x3 -> inception_5a/3x3
I0403 11:57:05.939520 11366 net.cpp:141] Setting up inception_5a/3x3
I0403 11:57:05.939550 11366 net.cpp:148] Top shape: 24 320 7 7 (376320)
I0403 11:57:05.939568 11366 net.cpp:156] Memory required for data: 1297544640
I0403 11:57:05.939585 11366 layer_factory.hpp:77] Creating layer inception_5a/relu_3x3
I0403 11:57:05.939604 11366 net.cpp:91] Creating Layer inception_5a/relu_3x3
I0403 11:57:05.939622 11366 net.cpp:425] inception_5a/relu_3x3 <- inception_5a/3x3
I0403 11:57:05.939642 11366 net.cpp:386] inception_5a/relu_3x3 -> inception_5a/3x3 (in-place)
I0403 11:57:05.939678 11366 net.cpp:141] Setting up inception_5a/relu_3x3
I0403 11:57:05.939697 11366 net.cpp:148] Top shape: 24 320 7 7 (376320)
I0403 11:57:05.939713 11366 net.cpp:156] Memory required for data: 1299049920
I0403 11:57:05.939728 11366 layer_factory.hpp:77] Creating layer inception_5a/5x5_reduce
I0403 11:57:05.939751 11366 net.cpp:91] Creating Layer inception_5a/5x5_reduce
I0403 11:57:05.939774 11366 net.cpp:425] inception_5a/5x5_reduce <- pool4/3x3_s2_pool4/3x3_s2_0_split_2
I0403 11:57:05.939795 11366 net.cpp:399] inception_5a/5x5_reduce -> inception_5a/5x5_reduce
I0403 11:57:05.940191 11366 net.cpp:141] Setting up inception_5a/5x5_reduce
I0403 11:57:05.940222 11366 net.cpp:148] Top shape: 24 32 7 7 (37632)
I0403 11:57:05.940239 11366 net.cpp:156] Memory required for data: 1299200448
I0403 11:57:05.940258 11366 layer_factory.hpp:77] Creating layer inception_5a/relu_5x5_reduce
I0403 11:57:05.940279 11366 net.cpp:91] Creating Layer inception_5a/relu_5x5_reduce
I0403 11:57:05.940297 11366 net.cpp:425] inception_5a/relu_5x5_reduce <- inception_5a/5x5_reduce
I0403 11:57:05.940315 11366 net.cpp:386] inception_5a/relu_5x5_reduce -> inception_5a/5x5_reduce (in-place)
I0403 11:57:05.940335 11366 net.cpp:141] Setting up inception_5a/relu_5x5_reduce
I0403 11:57:05.940354 11366 net.cpp:148] Top shape: 24 32 7 7 (37632)
I0403 11:57:05.940368 11366 net.cpp:156] Memory required for data: 1299350976
I0403 11:57:05.940382 11366 layer_factory.hpp:77] Creating layer inception_5a/5x5
I0403 11:57:05.940408 11366 net.cpp:91] Creating Layer inception_5a/5x5
I0403 11:57:05.940426 11366 net.cpp:425] inception_5a/5x5 <- inception_5a/5x5_reduce
I0403 11:57:05.940446 11366 net.cpp:399] inception_5a/5x5 -> inception_5a/5x5
I0403 11:57:05.941465 11366 net.cpp:141] Setting up inception_5a/5x5
I0403 11:57:05.941496 11366 net.cpp:148] Top shape: 24 128 7 7 (150528)
I0403 11:57:05.941514 11366 net.cpp:156] Memory required for data: 1299953088
I0403 11:57:05.941534 11366 layer_factory.hpp:77] Creating layer inception_5a/relu_5x5
I0403 11:57:05.941586 11366 net.cpp:91] Creating Layer inception_5a/relu_5x5
I0403 11:57:05.941607 11366 net.cpp:425] inception_5a/relu_5x5 <- inception_5a/5x5
I0403 11:57:05.941627 11366 net.cpp:386] inception_5a/relu_5x5 -> inception_5a/5x5 (in-place)
I0403 11:57:05.941647 11366 net.cpp:141] Setting up inception_5a/relu_5x5
I0403 11:57:05.941664 11366 net.cpp:148] Top shape: 24 128 7 7 (150528)
I0403 11:57:05.941679 11366 net.cpp:156] Memory required for data: 1300555200
I0403 11:57:05.941694 11366 layer_factory.hpp:77] Creating layer inception_5a/pool
I0403 11:57:05.941714 11366 net.cpp:91] Creating Layer inception_5a/pool
I0403 11:57:05.941732 11366 net.cpp:425] inception_5a/pool <- pool4/3x3_s2_pool4/3x3_s2_0_split_3
I0403 11:57:05.941751 11366 net.cpp:399] inception_5a/pool -> inception_5a/pool
I0403 11:57:05.941812 11366 net.cpp:141] Setting up inception_5a/pool
I0403 11:57:05.941835 11366 net.cpp:148] Top shape: 24 832 7 7 (978432)
I0403 11:57:05.941850 11366 net.cpp:156] Memory required for data: 1304468928
I0403 11:57:05.941865 11366 layer_factory.hpp:77] Creating layer inception_5a/pool_proj
I0403 11:57:05.941890 11366 net.cpp:91] Creating Layer inception_5a/pool_proj
I0403 11:57:05.941907 11366 net.cpp:425] inception_5a/pool_proj <- inception_5a/pool
I0403 11:57:05.941927 11366 net.cpp:399] inception_5a/pool_proj -> inception_5a/pool_proj
I0403 11:57:05.943326 11366 net.cpp:141] Setting up inception_5a/pool_proj
I0403 11:57:05.943356 11366 net.cpp:148] Top shape: 24 128 7 7 (150528)
I0403 11:57:05.943372 11366 net.cpp:156] Memory required for data: 1305071040
I0403 11:57:05.943392 11366 layer_factory.hpp:77] Creating layer inception_5a/relu_pool_proj
I0403 11:57:05.943410 11366 net.cpp:91] Creating Layer inception_5a/relu_pool_proj
I0403 11:57:05.943428 11366 net.cpp:425] inception_5a/relu_pool_proj <- inception_5a/pool_proj
I0403 11:57:05.943449 11366 net.cpp:386] inception_5a/relu_pool_proj -> inception_5a/pool_proj (in-place)
I0403 11:57:05.943471 11366 net.cpp:141] Setting up inception_5a/relu_pool_proj
I0403 11:57:05.943505 11366 net.cpp:148] Top shape: 24 128 7 7 (150528)
I0403 11:57:05.943521 11366 net.cpp:156] Memory required for data: 1305673152
I0403 11:57:05.943536 11366 layer_factory.hpp:77] Creating layer inception_5a/output
I0403 11:57:05.943554 11366 net.cpp:91] Creating Layer inception_5a/output
I0403 11:57:05.943572 11366 net.cpp:425] inception_5a/output <- inception_5a/1x1
I0403 11:57:05.943588 11366 net.cpp:425] inception_5a/output <- inception_5a/3x3
I0403 11:57:05.943605 11366 net.cpp:425] inception_5a/output <- inception_5a/5x5
I0403 11:57:05.943622 11366 net.cpp:425] inception_5a/output <- inception_5a/pool_proj
I0403 11:57:05.943640 11366 net.cpp:399] inception_5a/output -> inception_5a/output
I0403 11:57:05.943682 11366 net.cpp:141] Setting up inception_5a/output
I0403 11:57:05.943707 11366 net.cpp:148] Top shape: 24 832 7 7 (978432)
I0403 11:57:05.943722 11366 net.cpp:156] Memory required for data: 1309586880
I0403 11:57:05.943737 11366 layer_factory.hpp:77] Creating layer inception_5a/output_inception_5a/output_0_split
I0403 11:57:05.943755 11366 net.cpp:91] Creating Layer inception_5a/output_inception_5a/output_0_split
I0403 11:57:05.943778 11366 net.cpp:425] inception_5a/output_inception_5a/output_0_split <- inception_5a/output
I0403 11:57:05.943800 11366 net.cpp:399] inception_5a/output_inception_5a/output_0_split -> inception_5a/output_inception_5a/output_0_split_0
I0403 11:57:05.943824 11366 net.cpp:399] inception_5a/output_inception_5a/output_0_split -> inception_5a/output_inception_5a/output_0_split_1
I0403 11:57:05.943845 11366 net.cpp:399] inception_5a/output_inception_5a/output_0_split -> inception_5a/output_inception_5a/output_0_split_2
I0403 11:57:05.943878 11366 net.cpp:399] inception_5a/output_inception_5a/output_0_split -> inception_5a/output_inception_5a/output_0_split_3
I0403 11:57:05.943953 11366 net.cpp:141] Setting up inception_5a/output_inception_5a/output_0_split
I0403 11:57:05.943974 11366 net.cpp:148] Top shape: 24 832 7 7 (978432)
I0403 11:57:05.943990 11366 net.cpp:148] Top shape: 24 832 7 7 (978432)
I0403 11:57:05.944006 11366 net.cpp:148] Top shape: 24 832 7 7 (978432)
I0403 11:57:05.944022 11366 net.cpp:148] Top shape: 24 832 7 7 (978432)
I0403 11:57:05.944036 11366 net.cpp:156] Memory required for data: 1325241792
I0403 11:57:05.944049 11366 layer_factory.hpp:77] Creating layer inception_5b/1x1
I0403 11:57:05.944073 11366 net.cpp:91] Creating Layer inception_5b/1x1
I0403 11:57:05.944092 11366 net.cpp:425] inception_5b/1x1 <- inception_5a/output_inception_5a/output_0_split_0
I0403 11:57:05.944111 11366 net.cpp:399] inception_5b/1x1 -> inception_5b/1x1
I0403 11:57:05.946701 11366 net.cpp:141] Setting up inception_5b/1x1
I0403 11:57:05.946733 11366 net.cpp:148] Top shape: 24 384 7 7 (451584)
I0403 11:57:05.946753 11366 net.cpp:156] Memory required for data: 1327048128
I0403 11:57:05.946776 11366 layer_factory.hpp:77] Creating layer inception_5b/relu_1x1
I0403 11:57:05.946805 11366 net.cpp:91] Creating Layer inception_5b/relu_1x1
I0403 11:57:05.946822 11366 net.cpp:425] inception_5b/relu_1x1 <- inception_5b/1x1
I0403 11:57:05.946842 11366 net.cpp:386] inception_5b/relu_1x1 -> inception_5b/1x1 (in-place)
I0403 11:57:05.946862 11366 net.cpp:141] Setting up inception_5b/relu_1x1
I0403 11:57:05.946879 11366 net.cpp:148] Top shape: 24 384 7 7 (451584)
I0403 11:57:05.946894 11366 net.cpp:156] Memory required for data: 1328854464
I0403 11:57:05.946909 11366 layer_factory.hpp:77] Creating layer inception_5b/3x3_reduce
I0403 11:57:05.946933 11366 net.cpp:91] Creating Layer inception_5b/3x3_reduce
I0403 11:57:05.946950 11366 net.cpp:425] inception_5b/3x3_reduce <- inception_5a/output_inception_5a/output_0_split_1
I0403 11:57:05.946969 11366 net.cpp:399] inception_5b/3x3_reduce -> inception_5b/3x3_reduce
I0403 11:57:05.948632 11366 net.cpp:141] Setting up inception_5b/3x3_reduce
I0403 11:57:05.948660 11366 net.cpp:148] Top shape: 24 192 7 7 (225792)
I0403 11:57:05.948676 11366 net.cpp:156] Memory required for data: 1329757632
I0403 11:57:05.948695 11366 layer_factory.hpp:77] Creating layer inception_5b/relu_3x3_reduce
I0403 11:57:05.948730 11366 net.cpp:91] Creating Layer inception_5b/relu_3x3_reduce
I0403 11:57:05.948750 11366 net.cpp:425] inception_5b/relu_3x3_reduce <- inception_5b/3x3_reduce
I0403 11:57:05.948776 11366 net.cpp:386] inception_5b/relu_3x3_reduce -> inception_5b/3x3_reduce (in-place)
I0403 11:57:05.948799 11366 net.cpp:141] Setting up inception_5b/relu_3x3_reduce
I0403 11:57:05.948817 11366 net.cpp:148] Top shape: 24 192 7 7 (225792)
I0403 11:57:05.948832 11366 net.cpp:156] Memory required for data: 1330660800
I0403 11:57:05.948848 11366 layer_factory.hpp:77] Creating layer inception_5b/3x3
I0403 11:57:05.948871 11366 net.cpp:91] Creating Layer inception_5b/3x3
I0403 11:57:05.948889 11366 net.cpp:425] inception_5b/3x3 <- inception_5b/3x3_reduce
I0403 11:57:05.948909 11366 net.cpp:399] inception_5b/3x3 -> inception_5b/3x3
I0403 11:57:05.954385 11366 net.cpp:141] Setting up inception_5b/3x3
I0403 11:57:05.954416 11366 net.cpp:148] Top shape: 24 384 7 7 (451584)
I0403 11:57:05.954432 11366 net.cpp:156] Memory required for data: 1332467136
I0403 11:57:05.954450 11366 layer_factory.hpp:77] Creating layer inception_5b/relu_3x3
I0403 11:57:05.954470 11366 net.cpp:91] Creating Layer inception_5b/relu_3x3
I0403 11:57:05.954488 11366 net.cpp:425] inception_5b/relu_3x3 <- inception_5b/3x3
I0403 11:57:05.954505 11366 net.cpp:386] inception_5b/relu_3x3 -> inception_5b/3x3 (in-place)
I0403 11:57:05.954525 11366 net.cpp:141] Setting up inception_5b/relu_3x3
I0403 11:57:05.954543 11366 net.cpp:148] Top shape: 24 384 7 7 (451584)
I0403 11:57:05.954558 11366 net.cpp:156] Memory required for data: 1334273472
I0403 11:57:05.954572 11366 layer_factory.hpp:77] Creating layer inception_5b/5x5_reduce
I0403 11:57:05.954596 11366 net.cpp:91] Creating Layer inception_5b/5x5_reduce
I0403 11:57:05.954614 11366 net.cpp:425] inception_5b/5x5_reduce <- inception_5a/output_inception_5a/output_0_split_2
I0403 11:57:05.954638 11366 net.cpp:399] inception_5b/5x5_reduce -> inception_5b/5x5_reduce
I0403 11:57:05.955662 11366 net.cpp:141] Setting up inception_5b/5x5_reduce
I0403 11:57:05.955693 11366 net.cpp:148] Top shape: 24 48 7 7 (56448)
I0403 11:57:05.955708 11366 net.cpp:156] Memory required for data: 1334499264
I0403 11:57:05.955729 11366 layer_factory.hpp:77] Creating layer inception_5b/relu_5x5_reduce
I0403 11:57:05.955747 11366 net.cpp:91] Creating Layer inception_5b/relu_5x5_reduce
I0403 11:57:05.955771 11366 net.cpp:425] inception_5b/relu_5x5_reduce <- inception_5b/5x5_reduce
I0403 11:57:05.955791 11366 net.cpp:386] inception_5b/relu_5x5_reduce -> inception_5b/5x5_reduce (in-place)
I0403 11:57:05.955812 11366 net.cpp:141] Setting up inception_5b/relu_5x5_reduce
I0403 11:57:05.955831 11366 net.cpp:148] Top shape: 24 48 7 7 (56448)
I0403 11:57:05.955847 11366 net.cpp:156] Memory required for data: 1334725056
I0403 11:57:05.955860 11366 layer_factory.hpp:77] Creating layer inception_5b/5x5
I0403 11:57:05.955884 11366 net.cpp:91] Creating Layer inception_5b/5x5
I0403 11:57:05.955904 11366 net.cpp:425] inception_5b/5x5 <- inception_5b/5x5_reduce
I0403 11:57:05.955926 11366 net.cpp:399] inception_5b/5x5 -> inception_5b/5x5
I0403 11:57:05.957048 11366 net.cpp:141] Setting up inception_5b/5x5
I0403 11:57:05.957074 11366 net.cpp:148] Top shape: 24 128 7 7 (150528)
I0403 11:57:05.957090 11366 net.cpp:156] Memory required for data: 1335327168
I0403 11:57:05.957108 11366 layer_factory.hpp:77] Creating layer inception_5b/relu_5x5
I0403 11:57:05.957134 11366 net.cpp:91] Creating Layer inception_5b/relu_5x5
I0403 11:57:05.957152 11366 net.cpp:425] inception_5b/relu_5x5 <- inception_5b/5x5
I0403 11:57:05.957170 11366 net.cpp:386] inception_5b/relu_5x5 -> inception_5b/5x5 (in-place)
I0403 11:57:05.957190 11366 net.cpp:141] Setting up inception_5b/relu_5x5
I0403 11:57:05.957208 11366 net.cpp:148] Top shape: 24 128 7 7 (150528)
I0403 11:57:05.957222 11366 net.cpp:156] Memory required for data: 1335929280
I0403 11:57:05.957237 11366 layer_factory.hpp:77] Creating layer inception_5b/pool
I0403 11:57:05.957257 11366 net.cpp:91] Creating Layer inception_5b/pool
I0403 11:57:05.957293 11366 net.cpp:425] inception_5b/pool <- inception_5a/output_inception_5a/output_0_split_3
I0403 11:57:05.957314 11366 net.cpp:399] inception_5b/pool -> inception_5b/pool
I0403 11:57:05.957370 11366 net.cpp:141] Setting up inception_5b/pool
I0403 11:57:05.957397 11366 net.cpp:148] Top shape: 24 832 7 7 (978432)
I0403 11:57:05.957413 11366 net.cpp:156] Memory required for data: 1339843008
I0403 11:57:05.957428 11366 layer_factory.hpp:77] Creating layer inception_5b/pool_proj
I0403 11:57:05.957520 11366 net.cpp:91] Creating Layer inception_5b/pool_proj
I0403 11:57:05.957538 11366 net.cpp:425] inception_5b/pool_proj <- inception_5b/pool
I0403 11:57:05.957561 11366 net.cpp:399] inception_5b/pool_proj -> inception_5b/pool_proj
I0403 11:57:05.958927 11366 net.cpp:141] Setting up inception_5b/pool_proj
I0403 11:57:05.958956 11366 net.cpp:148] Top shape: 24 128 7 7 (150528)
I0403 11:57:05.958972 11366 net.cpp:156] Memory required for data: 1340445120
I0403 11:57:05.958991 11366 layer_factory.hpp:77] Creating layer inception_5b/relu_pool_proj
I0403 11:57:05.959010 11366 net.cpp:91] Creating Layer inception_5b/relu_pool_proj
I0403 11:57:05.959028 11366 net.cpp:425] inception_5b/relu_pool_proj <- inception_5b/pool_proj
I0403 11:57:05.959046 11366 net.cpp:386] inception_5b/relu_pool_proj -> inception_5b/pool_proj (in-place)
I0403 11:57:05.959066 11366 net.cpp:141] Setting up inception_5b/relu_pool_proj
I0403 11:57:05.959084 11366 net.cpp:148] Top shape: 24 128 7 7 (150528)
I0403 11:57:05.959100 11366 net.cpp:156] Memory required for data: 1341047232
I0403 11:57:05.959113 11366 layer_factory.hpp:77] Creating layer inception_5b/output
I0403 11:57:05.959134 11366 net.cpp:91] Creating Layer inception_5b/output
I0403 11:57:05.959152 11366 net.cpp:425] inception_5b/output <- inception_5b/1x1
I0403 11:57:05.959168 11366 net.cpp:425] inception_5b/output <- inception_5b/3x3
I0403 11:57:05.959184 11366 net.cpp:425] inception_5b/output <- inception_5b/5x5
I0403 11:57:05.959202 11366 net.cpp:425] inception_5b/output <- inception_5b/pool_proj
I0403 11:57:05.959219 11366 net.cpp:399] inception_5b/output -> inception_5b/output
I0403 11:57:05.959260 11366 net.cpp:141] Setting up inception_5b/output
I0403 11:57:05.959286 11366 net.cpp:148] Top shape: 24 1024 7 7 (1204224)
I0403 11:57:05.959303 11366 net.cpp:156] Memory required for data: 1345864128
I0403 11:57:05.959318 11366 layer_factory.hpp:77] Creating layer pool5/7x7_s1
I0403 11:57:05.959336 11366 net.cpp:91] Creating Layer pool5/7x7_s1
I0403 11:57:05.959352 11366 net.cpp:425] pool5/7x7_s1 <- inception_5b/output
I0403 11:57:05.959373 11366 net.cpp:399] pool5/7x7_s1 -> pool5/7x7_s1
I0403 11:57:05.959413 11366 net.cpp:141] Setting up pool5/7x7_s1
I0403 11:57:05.959435 11366 net.cpp:148] Top shape: 24 1024 1 1 (24576)
I0403 11:57:05.959450 11366 net.cpp:156] Memory required for data: 1345962432
I0403 11:57:05.959465 11366 layer_factory.hpp:77] Creating layer pool5/drop_7x7_s1
I0403 11:57:05.959486 11366 net.cpp:91] Creating Layer pool5/drop_7x7_s1
I0403 11:57:05.959504 11366 net.cpp:425] pool5/drop_7x7_s1 <- pool5/7x7_s1
I0403 11:57:05.959522 11366 net.cpp:386] pool5/drop_7x7_s1 -> pool5/7x7_s1 (in-place)
I0403 11:57:05.959563 11366 net.cpp:141] Setting up pool5/drop_7x7_s1
I0403 11:57:05.959586 11366 net.cpp:148] Top shape: 24 1024 1 1 (24576)
I0403 11:57:05.959601 11366 net.cpp:156] Memory required for data: 1346060736
I0403 11:57:05.959616 11366 layer_factory.hpp:77] Creating layer loss3/classifier_plantvillage
I0403 11:57:05.959637 11366 net.cpp:91] Creating Layer loss3/classifier_plantvillage
I0403 11:57:05.959653 11366 net.cpp:425] loss3/classifier_plantvillage <- pool5/7x7_s1
I0403 11:57:05.959674 11366 net.cpp:399] loss3/classifier_plantvillage -> loss3/classifier_plantvillage
I0403 11:57:05.960026 11366 net.cpp:141] Setting up loss3/classifier_plantvillage
I0403 11:57:05.960052 11366 net.cpp:148] Top shape: 24 38 (912)
I0403 11:57:05.960067 11366 net.cpp:156] Memory required for data: 1346064384
I0403 11:57:05.960085 11366 layer_factory.hpp:77] Creating layer loss3/classifier_plantvillage_loss3/classifier_plantvillage_0_split
I0403 11:57:05.960119 11366 net.cpp:91] Creating Layer loss3/classifier_plantvillage_loss3/classifier_plantvillage_0_split
I0403 11:57:05.960137 11366 net.cpp:425] loss3/classifier_plantvillage_loss3/classifier_plantvillage_0_split <- loss3/classifier_plantvillage
I0403 11:57:05.960156 11366 net.cpp:399] loss3/classifier_plantvillage_loss3/classifier_plantvillage_0_split -> loss3/classifier_plantvillage_loss3/classifier_plantvillage_0_split_0
I0403 11:57:05.960177 11366 net.cpp:399] loss3/classifier_plantvillage_loss3/classifier_plantvillage_0_split -> loss3/classifier_plantvillage_loss3/classifier_plantvillage_0_split_1
I0403 11:57:05.960198 11366 net.cpp:399] loss3/classifier_plantvillage_loss3/classifier_plantvillage_0_split -> loss3/classifier_plantvillage_loss3/classifier_plantvillage_0_split_2
I0403 11:57:05.960264 11366 net.cpp:141] Setting up loss3/classifier_plantvillage_loss3/classifier_plantvillage_0_split
I0403 11:57:05.960289 11366 net.cpp:148] Top shape: 24 38 (912)
I0403 11:57:05.960304 11366 net.cpp:148] Top shape: 24 38 (912)
I0403 11:57:05.960320 11366 net.cpp:148] Top shape: 24 38 (912)
I0403 11:57:05.960335 11366 net.cpp:156] Memory required for data: 1346075328
I0403 11:57:05.960348 11366 layer_factory.hpp:77] Creating layer loss1/loss
I0403 11:57:05.960372 11366 net.cpp:91] Creating Layer loss1/loss
I0403 11:57:05.960391 11366 net.cpp:425] loss1/loss <- loss1/classifier_plantvillage_loss1/classifier_plantvillage_0_split_0
I0403 11:57:05.960408 11366 net.cpp:425] loss1/loss <- label_data_1_split_0
…
