…
I0404 17:01:49.479131 13853 net.cpp:313] The NetState phase (0) differed from the phase (1) specified by a rule in layer loss3/top-5
I0404 17:01:49.486547 13853 net.cpp:49] Initializing net from parameters: 
state {
  phase: TRAIN
}
layer {
  name: "data"
  type: "Data"
  top: "data"
  top: "label"
  include {
    phase: TRAIN
  }
  transform_param {
    mirror: true
    crop_size: 224
    mean_file: "/home/mohanty/data/final_dataset/lmdb/segmented-80-20/mean.binaryproto"
  }
  data_param {
    source: "/home/mohanty/data/final_dataset/lmdb/segmented-80-20/train_db"
    batch_size: 100
    backend: LMDB
  }
}
layer {
  name: "conv1/7x7_s2"
  type: "Convolution"
  bottom: "data"
  top: "conv1/7x7_s2"
  param {
    lr_mult: 1
    decay_mult: 1
  }
  param {
    lr_mult: 2
    decay_mult: 0
  }
  convolution_param {
    num_output: 64
    pad: 3
    kernel_size: 7
    stride: 2
    weight_filler {
      type: "xavier"
      std: 0.1
    }
    bias_filler {
      type: "constant"
      value: 0.6
    }
  }
}
layer {
  name: "conv1/relu_7x7"
  type: "ReLU"
  bottom: "conv1/7x7_s2"
  top: "conv1/7x7_s2"
}
layer {
  name: "pool1/3x3_s2"
  type: "Pooling"
  bottom: "conv1/7x7_s2"
  top: "pool1/3x3_s2"
  pooling_param {
    pool: MAX
    kernel_size: 3
    stride: 2
  }
}
layer {
  name: "pool1/norm1"
  type: "LRN"
  bottom: "pool1/3x3_s2"
  top: "pool1/norm1"
  lrn_param {
    local_size: 5
    alpha: 0.0001
    beta: 0.75
  }
}
layer {
  name: "conv2/3x3_reduce"
  type: "Convolution"
  bottom: "pool1/norm1"
  top: "conv2/3x3_reduce"
  param {
    lr_mult: 1
    decay_mult: 1
  }
  param {
    lr_mult: 2
    decay_mult: 0
  }
  convolution_param {
    num_output: 64
    kernel_size: 1
    weight_filler {
      type: "xavier"
      std: 0.1
    }
    bias_filler {
      type: "constant"
      value: 0.6
    }
  }
}
layer {
  name: "conv2/relu_3x3_reduce"
  type: "ReLU"
  bottom: "conv2/3x3_reduce"
  top: "conv2/3x3_reduce"
}
layer {
  name: "conv2/3x3"
  type: "Convolution"
  bottom: "conv2/3x3_reduce"
  top: "conv2/3x3"
  param {
    lr_mult: 1
    decay_mult: 1
  }
  param {
    lr_mult: 2
    decay_mult: 0
  }
  convolution_param {
    num_output: 192
    pad: 1
    kernel_size: 3
    weight_filler {
      type: "xavier"
      std: 0.03
    }
    bias_filler {
      type: "constant"
      value: 0.6
    }
  }
}
layer {
  name: "conv2/relu_3x3"
  type: "ReLU"
  bottom: "conv2/3x3"
  top: "conv2/3x3"
}
layer {
  name: "conv2/norm2"
  type: "LRN"
  bottom: "conv2/3x3"
  top: "conv2/norm2"
  lrn_param {
    local_size: 5
    alpha: 0.0001
    beta: 0.75
  }
}
layer {
  name: "pool2/3x3_s2"
  type: "Pooling"
  bottom: "conv2/norm2"
  top: "pool2/3x3_s2"
  pooling_param {
    pool: MAX
    kernel_size: 3
    stride: 2
  }
}
layer {
  name: "inception_3a/1x1"
  type: "Convolution"
  bottom: "pool2/3x3_s2"
  top: "inception_3a/1x1"
  param {
    lr_mult: 1
    decay_mult: 1
  }
  param {
    lr_mult: 2
    decay_mult: 0
  }
  convolution_param {
    num_output: 64
    kernel_size: 1
    weight_filler {
      type: "xavier"
      std: 0.03
    }
    bias_filler {
      type: "constant"
      value: 0.6
    }
  }
}
layer {
  name: "inception_3a/relu_1x1"
  type: "ReLU"
  bottom: "inception_3a/1x1"
  top: "inception_3a/1x1"
}
layer {
  name: "inception_3a/3x3_reduce"
  type: "Convolution"
  bottom: "pool2/3x3_s2"
  top: "inception_3a/3x3_reduce"
  param {
    lr_mult: 1
    decay_mult: 1
  }
  param {
    lr_mult: 2
    decay_mult: 0
  }
  convolution_param {
    num_output: 96
    kernel_size: 1
    weight_filler {
      type: "xavier"
      std: 0.09
    }
    bias_filler {
      type: "constant"
      value: 0.6
    }
  }
}
layer {
  name: "inception_3a/relu_3x3_reduce"
  type: "ReLU"
  bottom: "inception_3a/3x3_reduce"
  top: "inception_3a/3x3_reduce"
}
layer {
  name: "inception_3a/3x3"
  type: "Convolution"
  bottom: "inception_3a/3x3_reduce"
  top: "inception_3a/3x3"
  param {
    lr_mult: 1
    decay_mult: 1
  }
  param {
    lr_mult: 2
    decay_mult: 0
  }
  convolution_param {
    num_output: 128
    pad: 1
    kernel_size: 3
    weight_filler {
      type: "xavier"
      std: 0.03
    }
    bias_filler {
      type: "constant"
      value: 0.6
    }
  }
}
layer {
  name: "inception_3a/relu_3x3"
  type: "ReLU"
  bottom: "inception_3a/3x3"
  top: "inception_3a/3x3"
}
layer {
  name: "inception_3a/5x5_reduce"
  type: "Convolution"
  bottom: "pool2/3x3_s2"
  top: "inception_3a/5x5_reduce"
  param {
    lr_mult: 1
    decay_mult: 1
  }
  param {
    lr_mult: 2
    decay_mult: 0
  }
  convolution_param {
    num_output: 16
    kernel_size: 1
    weight_filler {
      type: "xavier"
      std: 0.2
    }
    bias_filler {
      type: "constant"
      value: 0.6
    }
  }
}
layer {
  name: "inception_3a/relu_5x5_reduce"
  type: "ReLU"
  bottom: "inception_3a/5x5_reduce"
  top: "inception_3a/5x5_reduce"
}
layer {
  name: "inception_3a/5x5"
  type: "Convolution"
  bottom: "inception_3a/5x5_reduce"
  top: "inception_3a/5x5"
  param {
    lr_mult: 1
    decay_mult: 1
  }
  param {
    lr_mult: 2
    decay_mult: 0
  }
  convolution_param {
    num_output: 32
    pad: 2
    kernel_size: 5
    weight_filler {
      type: "xavier"
      std: 0.03
    }
    bias_filler {
      type: "constant"
      value: 0.6
    }
  }
}
layer {
  name: "inception_3a/relu_5x5"
  type: "ReLU"
  bottom: "inception_3a/5x5"
  top: "inception_3a/5x5"
}
layer {
  name: "inception_3a/pool"
  type: "Pooling"
  bottom: "pool2/3x3_s2"
  top: "inception_3a/pool"
  pooling_param {
    pool: MAX
    kernel_size: 3
    stride: 1
    pad: 1
  }
}
layer {
  name: "inception_3a/pool_proj"
  type: "Convolution"
  bottom: "inception_3a/pool"
  top: "inception_3a/pool_proj"
  param {
    lr_mult: 1
    decay_mult: 1
  }
  param {
    lr_mult: 2
    decay_mult: 0
  }
  convolution_param {
    num_output: 32
    kernel_size: 1
    weight_filler {
      type: "xavier"
      std: 0.1
    }
    bias_filler {
      type: "constant"
      value: 0.6
    }
  }
}
layer {
  name: "inception_3a/relu_pool_proj"
  type: "ReLU"
  bottom: "inception_3a/pool_proj"
  top: "inception_3a/pool_proj"
}
layer {
  name: "inception_3a/output"
  type: "Concat"
  bottom: "inception_3a/1x1"
  bottom: "inception_3a/3x3"
  bottom: "inception_3a/5x5"
  bottom: "inception_3a/pool_proj"
  top: "inception_3a/output"
}
layer {
  name: "inception_3b/1x1"
  type: "Convolution"
  bottom: "inception_3a/output"
  top: "inception_3b/1x1"
  param {
    lr_mult: 1
    decay_mult: 1
  }
  param {
    lr_mult: 2
    decay_mult: 0
  }
  convolution_param {
    num_output: 128
    kernel_size: 1
    weight_filler {
      type: "xavier"
      std: 0.03
    }
    bias_filler {
      type: "constant"
      value: 0.6
    }
  }
}
layer {
  name: "inception_3b/relu_1x1"
  type: "ReLU"
  bottom: "inception_3b/1x1"
  top: "inception_3b/1x1"
}
layer {
  name: "inception_3b/3x3_reduce"
  type: "Convolution"
  bottom: "inception_3a/output"
  top: "inception_3b/3x3_reduce"
  param {
    lr_mult: 1
    decay_mult: 1
  }
  param {
    lr_mult: 2
    decay_mult: 0
  }
  convolution_param {
    num_output: 128
    kernel_size: 1
    weight_filler {
      type: "xavier"
      std: 0.09
    }
    bias_filler {
      type: "constant"
      value: 0.6
    }
  }
}
layer {
  name: "inception_3b/relu_3x3_reduce"
  type: "ReLU"
  bottom: "inception_3b/3x3_reduce"
  top: "inception_3b/3x3_reduce"
}
layer {
  name: "inception_3b/3x3"
  type: "Convolution"
  bottom: "inception_3b/3x3_reduce"
  top: "inception_3b/3x3"
  param {
    lr_mult: 1
    decay_mult: 1
  }
  param {
    lr_mult: 2
    decay_mult: 0
  }
  convolution_param {
    num_output: 192
    pad: 1
    kernel_size: 3
    weight_filler {
      type: "xavier"
      std: 0.03
    }
    bias_filler {
      type: "constant"
      value: 0.6
    }
  }
}
layer {
  name: "inception_3b/relu_3x3"
  type: "ReLU"
  bottom: "inception_3b/3x3"
  top: "inception_3b/3x3"
}
layer {
  name: "inception_3b/5x5_reduce"
  type: "Convolution"
  bottom: "inception_3a/output"
  top: "inception_3b/5x5_reduce"
  param {
    lr_mult: 1
    decay_mult: 1
  }
  param {
    lr_mult: 2
    decay_mult: 0
  }
  convolution_param {
    num_output: 32
    kernel_size: 1
    weight_filler {
      type: "xavier"
      std: 0.2
    }
    bias_filler {
      type: "constant"
      value: 0.6
    }
  }
}
layer {
  name: "inception_3b/relu_5x5_reduce"
  type: "ReLU"
  bottom: "inception_3b/5x5_reduce"
  top: "inception_3b/5x5_reduce"
}
layer {
  name: "inception_3b/5x5"
  type: "Convolution"
  bottom: "inception_3b/5x5_reduce"
  top: "inception_3b/5x5"
  param {
    lr_mult: 1
    decay_mult: 1
  }
  param {
    lr_mult: 2
    decay_mult: 0
  }
  convolution_param {
    num_output: 96
    pad: 2
    kernel_size: 5
    weight_filler {
      type: "xavier"
      std: 0.03
    }
    bias_filler {
      type: "constant"
      value: 0.6
    }
  }
}
layer {
  name: "inception_3b/relu_5x5"
  type: "ReLU"
  bottom: "inception_3b/5x5"
  top: "inception_3b/5x5"
}
layer {
  name: "inception_3b/pool"
  type: "Pooling"
  bottom: "inception_3a/output"
  top: "inception_3b/pool"
  pooling_param {
    pool: MAX
    kernel_size: 3
    stride: 1
    pad: 1
  }
}
layer {
  name: "inception_3b/pool_proj"
  type: "Convolution"
  bottom: "inception_3b/pool"
  top: "inception_3b/pool_proj"
  param {
    lr_mult: 1
    decay_mult: 1
  }
  param {
    lr_mult: 2
    decay_mult: 0
  }
  convolution_param {
    num_output: 64
    kernel_size: 1
    weight_filler {
      type: "xavier"
      std: 0.1
    }
    bias_filler {
      type: "constant"
      value: 0.6
    }
  }
}
layer {
  name: "inception_3b/relu_pool_proj"
  type: "ReLU"
  bottom: "inception_3b/pool_proj"
  top: "inception_3b/pool_proj"
}
layer {
  name: "inception_3b/output"
  type: "Concat"
  bottom: "inception_3b/1x1"
  bottom: "inception_3b/3x3"
  bottom: "inception_3b/5x5"
  bottom: "inception_3b/pool_proj"
  top: "inception_3b/output"
}
layer {
  name: "pool3/3x3_s2"
  type: "Pooling"
  bottom: "inception_3b/output"
  top: "pool3/3x3_s2"
  pooling_param {
    pool: MAX
    kernel_size: 3
    stride: 2
  }
}
layer {
  name: "inception_4a/1x1"
  type: "Convolution"
  bottom: "pool3/3x3_s2"
  top: "inception_4a/1x1"
  param {
    lr_mult: 1
    decay_mult: 1
  }
  param {
    lr_mult: 2
    decay_mult: 0
  }
  convolution_param {
    num_output: 192
    kernel_size: 1
    weight_filler {
      type: "xavier"
      std: 0.03
    }
    bias_filler {
      type: "constant"
      value: 0.6
    }
  }
}
layer {
  name: "inception_4a/relu_1x1"
  type: "ReLU"
  bottom: "inception_4a/1x1"
  top: "inception_4a/1x1"
}
layer {
  name: "inception_4a/3x3_reduce"
  type: "Convolution"
  bottom: "pool3/3x3_s2"
  top: "inception_4a/3x3_reduce"
  param {
    lr_mult: 1
    decay_mult: 1
  }
  param {
    lr_mult: 2
    decay_mult: 0
  }
  convolution_param {
    num_output: 96
    kernel_size: 1
    weight_filler {
      type: "xavier"
      std: 0.09
    }
    bias_filler {
      type: "constant"
      value: 0.6
    }
  }
}
layer {
  name: "inception_4a/relu_3x3_reduce"
  type: "ReLU"
  bottom: "inception_4a/3x3_reduce"
  top: "inception_4a/3x3_reduce"
}
layer {
  name: "inception_4a/3x3"
  type: "Convolution"
  bottom: "inception_4a/3x3_reduce"
  top: "inception_4a/3x3"
  param {
    lr_mult: 1
    decay_mult: 1
  }
  param {
    lr_mult: 2
    decay_mult: 0
  }
  convolution_param {
    num_output: 208
    pad: 1
    kernel_size: 3
    weight_filler {
      type: "xavier"
      std: 0.03
    }
    bias_filler {
      type: "constant"
      value: 0.6
    }
  }
}
layer {
  name: "inception_4a/relu_3x3"
  type: "ReLU"
  bottom: "inception_4a/3x3"
  top: "inception_4a/3x3"
}
layer {
  name: "inception_4a/5x5_reduce"
  type: "Convolution"
  bottom: "pool3/3x3_s2"
  top: "inception_4a/5x5_reduce"
  param {
    lr_mult: 1
    decay_mult: 1
  }
  param {
    lr_mult: 2
    decay_mult: 0
  }
  convolution_param {
    num_output: 16
    kernel_size: 1
    weight_filler {
      type: "xavier"
      std: 0.2
    }
    bias_filler {
      type: "constant"
      value: 0.6
    }
  }
}
layer {
  name: "inception_4a/relu_5x5_reduce"
  type: "ReLU"
  bottom: "inception_4a/5x5_reduce"
  top: "inception_4a/5x5_reduce"
}
layer {
  name: "inception_4a/5x5"
  type: "Convolution"
  bottom: "inception_4a/5x5_reduce"
  top: "inception_4a/5x5"
  param {
    lr_mult: 1
    decay_mult: 1
  }
  param {
    lr_mult: 2
    decay_mult: 0
  }
  convolution_param {
    num_output: 48
    pad: 2
    kernel_size: 5
    weight_filler {
      type: "xavier"
      std: 0.03
    }
    bias_filler {
      type: "constant"
      value: 0.6
    }
  }
}
layer {
  name: "inception_4a/relu_5x5"
  type: "ReLU"
  bottom: "inception_4a/5x5"
  top: "inception_4a/5x5"
}
layer {
  name: "inception_4a/pool"
  type: "Pooling"
  bottom: "pool3/3x3_s2"
  top: "inception_4a/pool"
  pooling_param {
    pool: MAX
    kernel_size: 3
    stride: 1
    pad: 1
  }
}
layer {
  name: "inception_4a/pool_proj"
  type: "Convolution"
  bottom: "inception_4a/pool"
  top: "inception_4a/pool_proj"
  param {
    lr_mult: 1
    decay_mult: 1
  }
  param {
    lr_mult: 2
    decay_mult: 0
  }
  convolution_param {
    num_output: 64
    kernel_size: 1
    weight_filler {
      type: "xavier"
      std: 0.1
    }
    bias_filler {
      type: "constant"
      value: 0.6
    }
  }
}
layer {
  name: "inception_4a/relu_pool_proj"
  type: "ReLU"
  bottom: "inception_4a/pool_proj"
  top: "inception_4a/pool_proj"
}
layer {
  name: "inception_4a/output"
  type: "Concat"
  bottom: "inception_4a/1x1"
  bottom: "inception_4a/3x3"
  bottom: "inception_4a/5x5"
  bottom: "inception_4a/pool_proj"
  top: "inception_4a/output"
}
layer {
  name: "loss1/ave_pool"
  type: "Pooling"
  bottom: "inception_4a/output"
  top: "loss1/ave_pool"
  pooling_param {
    pool: AVE
    kernel_size: 5
    stride: 3
  }
}
layer {
  name: "loss1/conv"
  type: "Convolution"
  bottom: "loss1/ave_pool"
  top: "loss1/conv"
  param {
    lr_mult: 1
    decay_mult: 1
  }
  param {
    lr_mult: 2
    decay_mult: 0
  }
  convolution_param {
    num_output: 128
    kernel_size: 1
    weight_filler {
      type: "xavier"
      std: 0.08
    }
    bias_filler {
      type: "constant"
      value: 0.6
    }
  }
}
layer {
  name: "loss1/relu_conv"
  type: "ReLU"
  bottom: "loss1/conv"
  top: "loss1/conv"
}
layer {
  name: "loss1/fc"
  type: "InnerProduct"
  bottom: "loss1/conv"
  top: "loss1/fc"
  param {
    lr_mult: 1
    decay_mult: 1
  }
  param {
    lr_mult: 2
    decay_mult: 0
  }
  inner_product_param {
    num_output: 1024
    weight_filler {
      type: "xavier"
      std: 0.02
    }
    bias_filler {
      type: "constant"
      value: 0.6
    }
  }
}
layer {
  name: "loss1/relu_fc"
  type: "ReLU"
  bottom: "loss1/fc"
  top: "loss1/fc"
}
layer {
  name: "loss1/drop_fc"
  type: "Dropout"
  bottom: "loss1/fc"
  top: "loss1/fc"
  dropout_param {
    dropout_ratio: 0.9
  }
}
layer {
  name: "loss1/classifier_plantvillage"
  type: "InnerProduct"
  bottom: "loss1/fc"
  top: "loss1/classifier_plantvillage"
  param {
    lr_mult: 1
    decay_mult: 1
  }
  param {
    lr_mult: 2
    decay_mult: 0
  }
  inner_product_param {
    num_output: 38
    weight_filler {
      type: "xavier"
      std: 0.0009765625
    }
    bias_filler {
      type: "constant"
      value: 0
    }
  }
}
layer {
  name: "inception_4b/1x1"
  type: "Convolution"
  bottom: "inception_4a/output"
  top: "inception_4b/1x1"
  param {
    lr_mult: 1
    decay_mult: 1
  }
  param {
    lr_mult: 2
    decay_mult: 0
  }
  convolution_param {
    num_output: 160
    kernel_size: 1
    weight_filler {
      type: "xavier"
      std: 0.03
    }
    bias_filler {
      type: "constant"
      value: 0.6
    }
  }
}
layer {
  name: "inception_4b/relu_1x1"
  type: "ReLU"
  bottom: "inception_4b/1x1"
  top: "inception_4b/1x1"
}
layer {
  name: "inception_4b/3x3_reduce"
  type: "Convolution"
  bottom: "inception_4a/output"
  top: "inception_4b/3x3_reduce"
  param {
    lr_mult: 1
    decay_mult: 1
  }
  param {
    lr_mult: 2
    decay_mult: 0
  }
  convolution_param {
    num_output: 112
    kernel_size: 1
    weight_filler {
      type: "xavier"
      std: 0.09
    }
    bias_filler {
      type: "constant"
      value: 0.6
    }
  }
}
layer {
  name: "inception_4b/relu_3x3_reduce"
  type: "ReLU"
  bottom: "inception_4b/3x3_reduce"
  top: "inception_4b/3x3_reduce"
}
layer {
  name: "inception_4b/3x3"
  type: "Convolution"
  bottom: "inception_4b/3x3_reduce"
  top: "inception_4b/3x3"
  param {
    lr_mult: 1
    decay_mult: 1
  }
  param {
    lr_mult: 2
    decay_mult: 0
  }
  convolution_param {
    num_output: 224
    pad: 1
    kernel_size: 3
    weight_filler {
      type: "xavier"
      std: 0.03
    }
    bias_filler {
      type: "constant"
      value: 0.6
    }
  }
}
layer {
  name: "inception_4b/relu_3x3"
  type: "ReLU"
  bottom: "inception_4b/3x3"
  top: "inception_4b/3x3"
}
layer {
  name: "inception_4b/5x5_reduce"
  type: "Convolution"
  bottom: "inception_4a/output"
  top: "inception_4b/5x5_reduce"
  param {
    lr_mult: 1
    decay_mult: 1
  }
  param {
    lr_mult: 2
    decay_mult: 0
  }
  convolution_param {
    num_output: 24
    kernel_size: 1
    weight_filler {
      type: "xavier"
      std: 0.2
    }
    bias_filler {
      type: "constant"
      value: 0.6
    }
  }
}
layer {
  name: "inception_4b/relu_5x5_reduce"
  type: "ReLU"
  bottom: "inception_4b/5x5_reduce"
  top: "inception_4b/5x5_reduce"
}
layer {
  name: "inception_4b/5x5"
  type: "Convolution"
  bottom: "inception_4b/5x5_reduce"
  top: "inception_4b/5x5"
  param {
    lr_mult: 1
    decay_mult: 1
  }
  param {
    lr_mult: 2
    decay_mult: 0
  }
  convolution_param {
    num_output: 64
    pad: 2
    kernel_size: 5
    weight_filler {
      type: "xavier"
      std: 0.03
    }
    bias_filler {
      type: "constant"
      value: 0.6
    }
  }
}
layer {
  name: "inception_4b/relu_5x5"
  type: "ReLU"
  bottom: "inception_4b/5x5"
  top: "inception_4b/5x5"
}
layer {
  name: "inception_4b/pool"
  type: "Pooling"
  bottom: "inception_4a/output"
  top: "inception_4b/pool"
  pooling_param {
    pool: MAX
    kernel_size: 3
    stride: 1
    pad: 1
  }
}
layer {
  name: "inception_4b/pool_proj"
  type: "Convolution"
  bottom: "inception_4b/pool"
  top: "inception_4b/pool_proj"
  param {
    lr_mult: 1
    decay_mult: 1
  }
  param {
    lr_mult: 2
    decay_mult: 0
  }
  convolution_param {
    num_output: 64
    kernel_size: 1
    weight_filler {
      type: "xavier"
      std: 0.1
    }
    bias_filler {
      type: "constant"
      value: 0.6
    }
  }
}
layer {
  name: "inception_4b/relu_pool_proj"
  type: "ReLU"
  bottom: "inception_4b/pool_proj"
  top: "inception_4b/pool_proj"
}
layer {
  name: "inception_4b/output"
  type: "Concat"
  bottom: "inception_4b/1x1"
  bottom: "inception_4b/3x3"
  bottom: "inception_4b/5x5"
  bottom: "inception_4b/pool_proj"
  top: "inception_4b/output"
}
layer {
  name: "inception_4c/1x1"
  type: "Convolution"
  bottom: "inception_4b/output"
  top: "inception_4c/1x1"
  param {
    lr_mult: 1
    decay_mult: 1
  }
  param {
    lr_mult: 2
    decay_mult: 0
  }
  convolution_param {
    num_output: 128
    kernel_size: 1
    weight_filler {
      type: "xavier"
      std: 0.03
    }
    bias_filler {
      type: "constant"
      value: 0.6
    }
  }
}
layer {
  name: "inception_4c/relu_1x1"
  type: "ReLU"
  bottom: "inception_4c/1x1"
  top: "inception_4c/1x1"
}
layer {
  name: "inception_4c/3x3_reduce"
  type: "Convolution"
  bottom: "inception_4b/output"
  top: "inception_4c/3x3_reduce"
  param {
    lr_mult: 1
    decay_mult: 1
  }
  param {
    lr_mult: 2
    decay_mult: 0
  }
  convolution_param {
    num_output: 128
    kernel_size: 1
    weight_filler {
      type: "xavier"
      std: 0.09
    }
    bias_filler {
      type: "constant"
      value: 0.6
    }
  }
}
layer {
  name: "inception_4c/relu_3x3_reduce"
  type: "ReLU"
  bottom: "inception_4c/3x3_reduce"
  top: "inception_4c/3x3_reduce"
}
layer {
  name: "inception_4c/3x3"
  type: "Convolution"
  bottom: "inception_4c/3x3_reduce"
  top: "inception_4c/3x3"
  param {
    lr_mult: 1
    decay_mult: 1
  }
  param {
    lr_mult: 2
    decay_mult: 0
  }
  convolution_param {
    num_output: 256
    pad: 1
    kernel_size: 3
    weight_filler {
      type: "xavier"
      std: 0.03
    }
    bias_filler {
      type: "constant"
      value: 0.6
    }
  }
}
layer {
  name: "inception_4c/relu_3x3"
  type: "ReLU"
  bottom: "inception_4c/3x3"
  top: "inception_4c/3x3"
}
layer {
  name: "inception_4c/5x5_reduce"
  type: "Convolution"
  bottom: "inception_4b/output"
  top: "inception_4c/5x5_reduce"
  param {
    lr_mult: 1
    decay_mult: 1
  }
  param {
    lr_mult: 2
    decay_mult: 0
  }
  convolution_param {
    num_output: 24
    kernel_size: 1
    weight_filler {
      type: "xavier"
      std: 0.2
    }
    bias_filler {
      type: "constant"
      value: 0.6
    }
  }
}
layer {
  name: "inception_4c/relu_5x5_reduce"
  type: "ReLU"
  bottom: "inception_4c/5x5_reduce"
  top: "inception_4c/5x5_reduce"
}
layer {
  name: "inception_4c/5x5"
  type: "Convolution"
  bottom: "inception_4c/5x5_reduce"
  top: "inception_4c/5x5"
  param {
    lr_mult: 1
    decay_mult: 1
  }
  param {
    lr_mult: 2
    decay_mult: 0
  }
  convolution_param {
    num_output: 64
    pad: 2
    kernel_size: 5
    weight_filler {
      type: "xavier"
      std: 0.03
    }
    bias_filler {
      type: "constant"
      value: 0.6
    }
  }
}
layer {
  name: "inception_4c/relu_5x5"
  type: "ReLU"
  bottom: "inception_4c/5x5"
  top: "inception_4c/5x5"
}
layer {
  name: "inception_4c/pool"
  type: "Pooling"
  bottom: "inception_4b/output"
  top: "inception_4c/pool"
  pooling_param {
    pool: MAX
    kernel_size: 3
    stride: 1
    pad: 1
  }
}
layer {
  name: "inception_4c/pool_proj"
  type: "Convolution"
  bottom: "inception_4c/pool"
  top: "inception_4c/pool_proj"
  param {
    lr_mult: 1
    decay_mult: 1
  }
  param {
    lr_mult: 2
    decay_mult: 0
  }
  convolution_param {
    num_output: 64
    kernel_size: 1
    weight_filler {
      type: "xavier"
      std: 0.1
    }
    bias_filler {
      type: "constant"
      value: 0.6
    }
  }
}
layer {
  name: "inception_4c/relu_pool_proj"
  type: "ReLU"
  bottom: "inception_4c/pool_proj"
  top: "inception_4c/pool_proj"
}
layer {
  name: "inception_4c/output"
  type: "Concat"
  bottom: "inception_4c/1x1"
  bottom: "inception_4c/3x3"
  bottom: "inception_4c/5x5"
  bottom: "inception_4c/pool_proj"
  top: "inception_4c/output"
}
layer {
  name: "inception_4d/1x1"
  type: "Convolution"
  bottom: "inception_4c/output"
  top: "inception_4d/1x1"
  param {
    lr_mult: 1
    decay_mult: 1
  }
  param {
    lr_mult: 2
    decay_mult: 0
  }
  convolution_param {
    num_output: 112
    kernel_size: 1
    weight_filler {
      type: "xavier"
      std: 0.03
    }
    bias_filler {
      type: "constant"
      value: 0.6
    }
  }
}
layer {
  name: "inception_4d/relu_1x1"
  type: "ReLU"
  bottom: "inception_4d/1x1"
  top: "inception_4d/1x1"
}
layer {
  name: "inception_4d/3x3_reduce"
  type: "Convolution"
  bottom: "inception_4c/output"
  top: "inception_4d/3x3_reduce"
  param {
    lr_mult: 1
    decay_mult: 1
  }
  param {
    lr_mult: 2
    decay_mult: 0
  }
  convolution_param {
    num_output: 144
    kernel_size: 1
    weight_filler {
      type: "xavier"
      std: 0.09
    }
    bias_filler {
      type: "constant"
      value: 0.6
    }
  }
}
layer {
  name: "inception_4d/relu_3x3_reduce"
  type: "ReLU"
  bottom: "inception_4d/3x3_reduce"
  top: "inception_4d/3x3_reduce"
}
layer {
  name: "inception_4d/3x3"
  type: "Convolution"
  bottom: "inception_4d/3x3_reduce"
  top: "inception_4d/3x3"
  param {
    lr_mult: 1
    decay_mult: 1
  }
  param {
    lr_mult: 2
    decay_mult: 0
  }
  convolution_param {
    num_output: 288
    pad: 1
    kernel_size: 3
    weight_filler {
      type: "xavier"
      std: 0.03
    }
    bias_filler {
      type: "constant"
      value: 0.6
    }
  }
}
layer {
  name: "inception_4d/relu_3x3"
  type: "ReLU"
  bottom: "inception_4d/3x3"
  top: "inception_4d/3x3"
}
layer {
  name: "inception_4d/5x5_reduce"
  type: "Convolution"
  bottom: "inception_4c/output"
  top: "inception_4d/5x5_reduce"
  param {
    lr_mult: 1
    decay_mult: 1
  }
  param {
    lr_mult: 2
    decay_mult: 0
  }
  convolution_param {
    num_output: 32
    kernel_size: 1
    weight_filler {
      type: "xavier"
      std: 0.2
    }
    bias_filler {
      type: "constant"
      value: 0.6
    }
  }
}
layer {
  name: "inception_4d/relu_5x5_reduce"
  type: "ReLU"
  bottom: "inception_4d/5x5_reduce"
  top: "inception_4d/5x5_reduce"
}
layer {
  name: "inception_4d/5x5"
  type: "Convolution"
  bottom: "inception_4d/5x5_reduce"
  top: "inception_4d/5x5"
  param {
    lr_mult: 1
    decay_mult: 1
  }
  param {
    lr_mult: 2
    decay_mult: 0
  }
  convolution_param {
    num_output: 64
    pad: 2
    kernel_size: 5
    weight_filler {
      type: "xavier"
      std: 0.03
    }
    bias_filler {
      type: "constant"
      value: 0.6
    }
  }
}
layer {
  name: "inception_4d/relu_5x5"
  type: "ReLU"
  bottom: "inception_4d/5x5"
  top: "inception_4d/5x5"
}
layer {
  name: "inception_4d/pool"
  type: "Pooling"
  bottom: "inception_4c/output"
  top: "inception_4d/pool"
  pooling_param {
    pool: MAX
    kernel_size: 3
    stride: 1
    pad: 1
  }
}
layer {
  name: "inception_4d/pool_proj"
  type: "Convolution"
  bottom: "inception_4d/pool"
  top: "inception_4d/pool_proj"
  param {
    lr_mult: 1
    decay_mult: 1
  }
  param {
    lr_mult: 2
    decay_mult: 0
  }
  convolution_param {
    num_output: 64
    kernel_size: 1
    weight_filler {
      type: "xavier"
      std: 0.1
    }
    bias_filler {
      type: "constant"
      value: 0.6
    }
  }
}
layer {
  name: "inception_4d/relu_pool_proj"
  type: "ReLU"
  bottom: "inception_4d/pool_proj"
  top: "inception_4d/pool_proj"
}
layer {
  name: "inception_4d/output"
  type: "Concat"
  bottom: "inception_4d/1x1"
  bottom: "inception_4d/3x3"
  bottom: "inception_4d/5x5"
  bottom: "inception_4d/pool_proj"
  top: "inception_4d/output"
}
layer {
  name: "loss2/ave_pool"
  type: "Pooling"
  bottom: "inception_4d/output"
  top: "loss2/ave_pool"
  pooling_param {
    pool: AVE
    kernel_size: 5
    stride: 3
  }
}
layer {
  name: "loss2/conv"
  type: "Convolution"
  bottom: "loss2/ave_pool"
  top: "loss2/conv"
  param {
    lr_mult: 1
    decay_mult: 1
  }
  param {
    lr_mult: 2
    decay_mult: 0
  }
  convolution_param {
    num_output: 128
    kernel_size: 1
    weight_filler {
      type: "xavier"
      std: 0.08
    }
    bias_filler {
      type: "constant"
      value: 0.6
    }
  }
}
layer {
  name: "loss2/relu_conv"
  type: "ReLU"
  bottom: "loss2/conv"
  top: "loss2/conv"
}
layer {
  name: "loss2/fc"
  type: "InnerProduct"
  bottom: "loss2/conv"
  top: "loss2/fc"
  param {
    lr_mult: 1
    decay_mult: 1
  }
  param {
    lr_mult: 2
    decay_mult: 0
  }
  inner_product_param {
    num_output: 1024
    weight_filler {
      type: "xavier"
      std: 0.02
    }
    bias_filler {
      type: "constant"
      value: 0.6
    }
  }
}
layer {
  name: "loss2/relu_fc"
  type: "ReLU"
  bottom: "loss2/fc"
  top: "loss2/fc"
}
layer {
  name: "loss2/drop_fc"
  type: "Dropout"
  bottom: "loss2/fc"
  top: "loss2/fc"
  dropout_param {
    dropout_ratio: 0.9
  }
}
layer {
  name: "loss2/classifier_plantvillage"
  type: "InnerProduct"
  bottom: "loss2/fc"
  top: "loss2/classifier_plantvillage"
  param {
    lr_mult: 1
    decay_mult: 1
  }
  param {
    lr_mult: 2
    decay_mult: 0
  }
  inner_product_param {
    num_output: 38
    weight_filler {
      type: "xavier"
      std: 0.0009765625
    }
    bias_filler {
      type: "constant"
      value: 0
    }
  }
}
layer {
  name: "inception_4e/1x1"
  type: "Convolution"
  bottom: "inception_4d/output"
  top: "inception_4e/1x1"
  param {
    lr_mult: 1
    decay_mult: 1
  }
  param {
    lr_mult: 2
    decay_mult: 0
  }
  convolution_param {
    num_output: 256
    kernel_size: 1
    weight_filler {
      type: "xavier"
      std: 0.03
    }
    bias_filler {
      type: "constant"
      value: 0.6
    }
  }
}
layer {
  name: "inception_4e/relu_1x1"
  type: "ReLU"
  bottom: "inception_4e/1x1"
  top: "inception_4e/1x1"
}
layer {
  name: "inception_4e/3x3_reduce"
  type: "Convolution"
  bottom: "inception_4d/output"
  top: "inception_4e/3x3_reduce"
  param {
    lr_mult: 1
    decay_mult: 1
  }
  param {
    lr_mult: 2
    decay_mult: 0
  }
  convolution_param {
    num_output: 160
    kernel_size: 1
    weight_filler {
      type: "xavier"
      std: 0.09
    }
    bias_filler {
      type: "constant"
      value: 0.6
    }
  }
}
layer {
  name: "inception_4e/relu_3x3_reduce"
  type: "ReLU"
  bottom: "inception_4e/3x3_reduce"
  top: "inception_4e/3x3_reduce"
}
layer {
  name: "inception_4e/3x3"
  type: "Convolution"
  bottom: "inception_4e/3x3_reduce"
  top: "inception_4e/3x3"
  param {
    lr_mult: 1
    decay_mult: 1
  }
  param {
    lr_mult: 2
    decay_mult: 0
  }
  convolution_param {
    num_output: 320
    pad: 1
    kernel_size: 3
    weight_filler {
      type: "xavier"
      std: 0.03
    }
    bias_filler {
      type: "constant"
      value: 0.6
    }
  }
}
layer {
  name: "inception_4e/relu_3x3"
  type: "ReLU"
  bottom: "inception_4e/3x3"
  top: "inception_4e/3x3"
}
layer {
  name: "inception_4e/5x5_reduce"
  type: "Convolution"
  bottom: "inception_4d/output"
  top: "inception_4e/5x5_reduce"
  param {
    lr_mult: 1
    decay_mult: 1
  }
  param {
    lr_mult: 2
    decay_mult: 0
  }
  convolution_param {
    num_output: 32
    kernel_size: 1
    weight_filler {
      type: "xavier"
      std: 0.2
    }
    bias_filler {
      type: "constant"
      value: 0.6
    }
  }
}
layer {
  name: "inception_4e/relu_5x5_reduce"
  type: "ReLU"
  bottom: "inception_4e/5x5_reduce"
  top: "inception_4e/5x5_reduce"
}
layer {
  name: "inception_4e/5x5"
  type: "Convolution"
  bottom: "inception_4e/5x5_reduce"
  top: "inception_
I0404 17:01:49.488577 13853 layer_factory.hpp:77] Creating layer data
I0404 17:01:49.489289 13853 net.cpp:91] Creating Layer data
I0404 17:01:49.489327 13853 net.cpp:399] data -> data
I0404 17:01:49.489380 13853 net.cpp:399] data -> label
I0404 17:01:49.489416 13853 data_transformer.cpp:25] Loading mean file from: /home/mohanty/data/final_dataset/lmdb/segmented-80-20/mean.binaryproto
I0404 17:01:49.490557 13859 db_lmdb.cpp:38] Opened lmdb /home/mohanty/data/final_dataset/lmdb/segmented-80-20/train_db
I0404 17:01:49.504201 13853 data_layer.cpp:41] output data size: 100,3,224,224
I0404 17:01:49.628202 13853 net.cpp:141] Setting up data
I0404 17:01:49.628324 13853 net.cpp:148] Top shape: 100 3 224 224 (15052800)
I0404 17:01:49.628345 13853 net.cpp:148] Top shape: 100 (100)
I0404 17:01:49.628358 13853 net.cpp:156] Memory required for data: 60211600
I0404 17:01:49.628386 13853 layer_factory.hpp:77] Creating layer label_data_1_split
I0404 17:01:49.628446 13853 net.cpp:91] Creating Layer label_data_1_split
I0404 17:01:49.628466 13853 net.cpp:425] label_data_1_split <- label
I0404 17:01:49.628494 13853 net.cpp:399] label_data_1_split -> label_data_1_split_0
I0404 17:01:49.628518 13853 net.cpp:399] label_data_1_split -> label_data_1_split_1
I0404 17:01:49.628538 13853 net.cpp:399] label_data_1_split -> label_data_1_split_2
I0404 17:01:49.628602 13853 net.cpp:141] Setting up label_data_1_split
I0404 17:01:49.628625 13853 net.cpp:148] Top shape: 100 (100)
I0404 17:01:49.628641 13853 net.cpp:148] Top shape: 100 (100)
I0404 17:01:49.628655 13853 net.cpp:148] Top shape: 100 (100)
I0404 17:01:49.628669 13853 net.cpp:156] Memory required for data: 60212800
I0404 17:01:49.628684 13853 layer_factory.hpp:77] Creating layer conv1/7x7_s2
I0404 17:01:49.628716 13853 net.cpp:91] Creating Layer conv1/7x7_s2
I0404 17:01:49.628734 13853 net.cpp:425] conv1/7x7_s2 <- data
I0404 17:01:49.628754 13853 net.cpp:399] conv1/7x7_s2 -> conv1/7x7_s2
I0404 17:01:49.629734 13853 net.cpp:141] Setting up conv1/7x7_s2
I0404 17:01:49.629765 13853 net.cpp:148] Top shape: 100 64 112 112 (80281600)
I0404 17:01:49.629781 13853 net.cpp:156] Memory required for data: 381339200
I0404 17:01:49.629812 13853 layer_factory.hpp:77] Creating layer conv1/relu_7x7
I0404 17:01:49.629837 13853 net.cpp:91] Creating Layer conv1/relu_7x7
I0404 17:01:49.629855 13853 net.cpp:425] conv1/relu_7x7 <- conv1/7x7_s2
I0404 17:01:49.629873 13853 net.cpp:386] conv1/relu_7x7 -> conv1/7x7_s2 (in-place)
I0404 17:01:49.629894 13853 net.cpp:141] Setting up conv1/relu_7x7
I0404 17:01:49.629915 13853 net.cpp:148] Top shape: 100 64 112 112 (80281600)
I0404 17:01:49.629930 13853 net.cpp:156] Memory required for data: 702465600
I0404 17:01:49.629943 13853 layer_factory.hpp:77] Creating layer pool1/3x3_s2
I0404 17:01:49.629963 13853 net.cpp:91] Creating Layer pool1/3x3_s2
I0404 17:01:49.629978 13853 net.cpp:425] pool1/3x3_s2 <- conv1/7x7_s2
I0404 17:01:49.629995 13853 net.cpp:399] pool1/3x3_s2 -> pool1/3x3_s2
I0404 17:01:49.630059 13853 net.cpp:141] Setting up pool1/3x3_s2
I0404 17:01:49.630082 13853 net.cpp:148] Top shape: 100 64 56 56 (20070400)
I0404 17:01:49.630096 13853 net.cpp:156] Memory required for data: 782747200
I0404 17:01:49.630110 13853 layer_factory.hpp:77] Creating layer pool1/norm1
I0404 17:01:49.630130 13853 net.cpp:91] Creating Layer pool1/norm1
I0404 17:01:49.630144 13853 net.cpp:425] pool1/norm1 <- pool1/3x3_s2
I0404 17:01:49.630162 13853 net.cpp:399] pool1/norm1 -> pool1/norm1
I0404 17:01:49.630210 13853 net.cpp:141] Setting up pool1/norm1
I0404 17:01:49.630233 13853 net.cpp:148] Top shape: 100 64 56 56 (20070400)
I0404 17:01:49.630247 13853 net.cpp:156] Memory required for data: 863028800
I0404 17:01:49.630261 13853 layer_factory.hpp:77] Creating layer conv2/3x3_reduce
I0404 17:01:49.630282 13853 net.cpp:91] Creating Layer conv2/3x3_reduce
I0404 17:01:49.630298 13853 net.cpp:425] conv2/3x3_reduce <- pool1/norm1
I0404 17:01:49.630317 13853 net.cpp:399] conv2/3x3_reduce -> conv2/3x3_reduce
I0404 17:01:49.636857 13853 net.cpp:141] Setting up conv2/3x3_reduce
I0404 17:01:49.636893 13853 net.cpp:148] Top shape: 100 64 56 56 (20070400)
I0404 17:01:49.636941 13853 net.cpp:156] Memory required for data: 943310400
I0404 17:01:49.636966 13853 layer_factory.hpp:77] Creating layer conv2/relu_3x3_reduce
I0404 17:01:49.636987 13853 net.cpp:91] Creating Layer conv2/relu_3x3_reduce
I0404 17:01:49.637004 13853 net.cpp:425] conv2/relu_3x3_reduce <- conv2/3x3_reduce
I0404 17:01:49.637022 13853 net.cpp:386] conv2/relu_3x3_reduce -> conv2/3x3_reduce (in-place)
I0404 17:01:49.637042 13853 net.cpp:141] Setting up conv2/relu_3x3_reduce
I0404 17:01:49.637058 13853 net.cpp:148] Top shape: 100 64 56 56 (20070400)
I0404 17:01:49.637073 13853 net.cpp:156] Memory required for data: 1023592000
I0404 17:01:49.637087 13853 layer_factory.hpp:77] Creating layer conv2/3x3
I0404 17:01:49.637111 13853 net.cpp:91] Creating Layer conv2/3x3
I0404 17:01:49.637127 13853 net.cpp:425] conv2/3x3 <- conv2/3x3_reduce
I0404 17:01:49.637166 13853 net.cpp:399] conv2/3x3 -> conv2/3x3
I0404 17:01:49.638417 13860 blocking_queue.cpp:50] Waiting for data
I0404 17:01:49.638574 13853 net.cpp:141] Setting up conv2/3x3
I0404 17:01:49.638624 13853 net.cpp:148] Top shape: 100 192 56 56 (60211200)
I0404 17:01:49.638653 13853 net.cpp:156] Memory required for data: 1264436800
I0404 17:01:49.638687 13853 layer_factory.hpp:77] Creating layer conv2/relu_3x3
I0404 17:01:49.638720 13853 net.cpp:91] Creating Layer conv2/relu_3x3
I0404 17:01:49.638746 13853 net.cpp:425] conv2/relu_3x3 <- conv2/3x3
I0404 17:01:49.638775 13853 net.cpp:386] conv2/relu_3x3 -> conv2/3x3 (in-place)
I0404 17:01:49.638806 13853 net.cpp:141] Setting up conv2/relu_3x3
I0404 17:01:49.638834 13853 net.cpp:148] Top shape: 100 192 56 56 (60211200)
I0404 17:01:49.638859 13853 net.cpp:156] Memory required for data: 1505281600
I0404 17:01:49.638882 13853 layer_factory.hpp:77] Creating layer conv2/norm2
I0404 17:01:49.638922 13853 net.cpp:91] Creating Layer conv2/norm2
I0404 17:01:49.638938 13853 net.cpp:425] conv2/norm2 <- conv2/3x3
I0404 17:01:49.638959 13853 net.cpp:399] conv2/norm2 -> conv2/norm2
I0404 17:01:49.639004 13853 net.cpp:141] Setting up conv2/norm2
I0404 17:01:49.639025 13853 net.cpp:148] Top shape: 100 192 56 56 (60211200)
I0404 17:01:49.639039 13853 net.cpp:156] Memory required for data: 1746126400
I0404 17:01:49.639052 13853 layer_factory.hpp:77] Creating layer pool2/3x3_s2
I0404 17:01:49.639070 13853 net.cpp:91] Creating Layer pool2/3x3_s2
I0404 17:01:49.639084 13853 net.cpp:425] pool2/3x3_s2 <- conv2/norm2
I0404 17:01:49.639101 13853 net.cpp:399] pool2/3x3_s2 -> pool2/3x3_s2
I0404 17:01:49.639164 13853 net.cpp:141] Setting up pool2/3x3_s2
I0404 17:01:49.639201 13853 net.cpp:148] Top shape: 100 192 28 28 (15052800)
I0404 17:01:49.639225 13853 net.cpp:156] Memory required for data: 1806337600
I0404 17:01:49.639250 13853 layer_factory.hpp:77] Creating layer pool2/3x3_s2_pool2/3x3_s2_0_split
I0404 17:01:49.639279 13853 net.cpp:91] Creating Layer pool2/3x3_s2_pool2/3x3_s2_0_split
I0404 17:01:49.639305 13853 net.cpp:425] pool2/3x3_s2_pool2/3x3_s2_0_split <- pool2/3x3_s2
I0404 17:01:49.639334 13853 net.cpp:399] pool2/3x3_s2_pool2/3x3_s2_0_split -> pool2/3x3_s2_pool2/3x3_s2_0_split_0
I0404 17:01:49.639367 13853 net.cpp:399] pool2/3x3_s2_pool2/3x3_s2_0_split -> pool2/3x3_s2_pool2/3x3_s2_0_split_1
I0404 17:01:49.639400 13853 net.cpp:399] pool2/3x3_s2_pool2/3x3_s2_0_split -> pool2/3x3_s2_pool2/3x3_s2_0_split_2
I0404 17:01:49.639433 13853 net.cpp:399] pool2/3x3_s2_pool2/3x3_s2_0_split -> pool2/3x3_s2_pool2/3x3_s2_0_split_3
I0404 17:01:49.639531 13853 net.cpp:141] Setting up pool2/3x3_s2_pool2/3x3_s2_0_split
I0404 17:01:49.639567 13853 net.cpp:148] Top shape: 100 192 28 28 (15052800)
I0404 17:01:49.639593 13853 net.cpp:148] Top shape: 100 192 28 28 (15052800)
I0404 17:01:49.639618 13853 net.cpp:148] Top shape: 100 192 28 28 (15052800)
I0404 17:01:49.639642 13853 net.cpp:148] Top shape: 100 192 28 28 (15052800)
I0404 17:01:49.639665 13853 net.cpp:156] Memory required for data: 2047182400
I0404 17:01:49.639688 13853 layer_factory.hpp:77] Creating layer inception_3a/1x1
I0404 17:01:49.639724 13853 net.cpp:91] Creating Layer inception_3a/1x1
I0404 17:01:49.639750 13853 net.cpp:425] inception_3a/1x1 <- pool2/3x3_s2_pool2/3x3_s2_0_split_0
I0404 17:01:49.639782 13853 net.cpp:399] inception_3a/1x1 -> inception_3a/1x1
I0404 17:01:49.640947 13853 net.cpp:141] Setting up inception_3a/1x1
I0404 17:01:49.640991 13853 net.cpp:148] Top shape: 100 64 28 28 (5017600)
I0404 17:01:49.641007 13853 net.cpp:156] Memory required for data: 2067252800
I0404 17:01:49.641026 13853 layer_factory.hpp:77] Creating layer inception_3a/relu_1x1
I0404 17:01:49.641047 13853 net.cpp:91] Creating Layer inception_3a/relu_1x1
I0404 17:01:49.641063 13853 net.cpp:425] inception_3a/relu_1x1 <- inception_3a/1x1
I0404 17:01:49.641082 13853 net.cpp:386] inception_3a/relu_1x1 -> inception_3a/1x1 (in-place)
I0404 17:01:49.641100 13853 net.cpp:141] Setting up inception_3a/relu_1x1
I0404 17:01:49.641119 13853 net.cpp:148] Top shape: 100 64 28 28 (5017600)
I0404 17:01:49.641175 13853 net.cpp:156] Memory required for data: 2087323200
I0404 17:01:49.641201 13853 layer_factory.hpp:77] Creating layer inception_3a/3x3_reduce
I0404 17:01:49.641243 13853 net.cpp:91] Creating Layer inception_3a/3x3_reduce
I0404 17:01:49.641273 13853 net.cpp:425] inception_3a/3x3_reduce <- pool2/3x3_s2_pool2/3x3_s2_0_split_1
I0404 17:01:49.641306 13853 net.cpp:399] inception_3a/3x3_reduce -> inception_3a/3x3_reduce
I0404 17:01:49.642591 13853 net.cpp:141] Setting up inception_3a/3x3_reduce
I0404 17:01:49.642644 13853 net.cpp:148] Top shape: 100 96 28 28 (7526400)
I0404 17:01:49.642673 13853 net.cpp:156] Memory required for data: 2117428800
I0404 17:01:49.642709 13853 layer_factory.hpp:77] Creating layer inception_3a/relu_3x3_reduce
I0404 17:01:49.642743 13853 net.cpp:91] Creating Layer inception_3a/relu_3x3_reduce
I0404 17:01:49.642771 13853 net.cpp:425] inception_3a/relu_3x3_reduce <- inception_3a/3x3_reduce
I0404 17:01:49.642802 13853 net.cpp:386] inception_3a/relu_3x3_reduce -> inception_3a/3x3_reduce (in-place)
I0404 17:01:49.642834 13853 net.cpp:141] Setting up inception_3a/relu_3x3_reduce
I0404 17:01:49.642863 13853 net.cpp:148] Top shape: 100 96 28 28 (7526400)
I0404 17:01:49.642887 13853 net.cpp:156] Memory required for data: 2147534400
I0404 17:01:49.642925 13853 layer_factory.hpp:77] Creating layer inception_3a/3x3
I0404 17:01:49.642948 13853 net.cpp:91] Creating Layer inception_3a/3x3
I0404 17:01:49.642966 13853 net.cpp:425] inception_3a/3x3 <- inception_3a/3x3_reduce
I0404 17:01:49.642987 13853 net.cpp:399] inception_3a/3x3 -> inception_3a/3x3
I0404 17:01:49.644294 13853 net.cpp:141] Setting up inception_3a/3x3
I0404 17:01:49.644336 13853 net.cpp:148] Top shape: 100 128 28 28 (10035200)
I0404 17:01:49.644361 13853 net.cpp:156] Memory required for data: 2187675200
I0404 17:01:49.644390 13853 layer_factory.hpp:77] Creating layer inception_3a/relu_3x3
I0404 17:01:49.644423 13853 net.cpp:91] Creating Layer inception_3a/relu_3x3
I0404 17:01:49.644453 13853 net.cpp:425] inception_3a/relu_3x3 <- inception_3a/3x3
I0404 17:01:49.644481 13853 net.cpp:386] inception_3a/relu_3x3 -> inception_3a/3x3 (in-place)
I0404 17:01:49.644513 13853 net.cpp:141] Setting up inception_3a/relu_3x3
I0404 17:01:49.644542 13853 net.cpp:148] Top shape: 100 128 28 28 (10035200)
I0404 17:01:49.644567 13853 net.cpp:156] Memory required for data: 2227816000
I0404 17:01:49.644589 13853 layer_factory.hpp:77] Creating layer inception_3a/5x5_reduce
I0404 17:01:49.644628 13853 net.cpp:91] Creating Layer inception_3a/5x5_reduce
I0404 17:01:49.644656 13853 net.cpp:425] inception_3a/5x5_reduce <- pool2/3x3_s2_pool2/3x3_s2_0_split_2
I0404 17:01:49.644691 13853 net.cpp:399] inception_3a/5x5_reduce -> inception_3a/5x5_reduce
I0404 17:01:49.645052 13853 net.cpp:141] Setting up inception_3a/5x5_reduce
I0404 17:01:49.645078 13853 net.cpp:148] Top shape: 100 16 28 28 (1254400)
I0404 17:01:49.645093 13853 net.cpp:156] Memory required for data: 2232833600
I0404 17:01:49.645110 13853 layer_factory.hpp:77] Creating layer inception_3a/relu_5x5_reduce
I0404 17:01:49.645128 13853 net.cpp:91] Creating Layer inception_3a/relu_5x5_reduce
I0404 17:01:49.645145 13853 net.cpp:425] inception_3a/relu_5x5_reduce <- inception_3a/5x5_reduce
I0404 17:01:49.645164 13853 net.cpp:386] inception_3a/relu_5x5_reduce -> inception_3a/5x5_reduce (in-place)
I0404 17:01:49.645181 13853 net.cpp:141] Setting up inception_3a/relu_5x5_reduce
I0404 17:01:49.645198 13853 net.cpp:148] Top shape: 100 16 28 28 (1254400)
I0404 17:01:49.645212 13853 net.cpp:156] Memory required for data: 2237851200
I0404 17:01:49.645226 13853 layer_factory.hpp:77] Creating layer inception_3a/5x5
I0404 17:01:49.645265 13853 net.cpp:91] Creating Layer inception_3a/5x5
I0404 17:01:49.645283 13853 net.cpp:425] inception_3a/5x5 <- inception_3a/5x5_reduce
I0404 17:01:49.645303 13853 net.cpp:399] inception_3a/5x5 -> inception_3a/5x5
I0404 17:01:49.645576 13853 net.cpp:141] Setting up inception_3a/5x5
I0404 17:01:49.645601 13853 net.cpp:148] Top shape: 100 32 28 28 (2508800)
I0404 17:01:49.645629 13853 net.cpp:156] Memory required for data: 2247886400
I0404 17:01:49.645648 13853 layer_factory.hpp:77] Creating layer inception_3a/relu_5x5
I0404 17:01:49.645666 13853 net.cpp:91] Creating Layer inception_3a/relu_5x5
I0404 17:01:49.645681 13853 net.cpp:425] inception_3a/relu_5x5 <- inception_3a/5x5
I0404 17:01:49.645699 13853 net.cpp:386] inception_3a/relu_5x5 -> inception_3a/5x5 (in-place)
I0404 17:01:49.645715 13853 net.cpp:141] Setting up inception_3a/relu_5x5
I0404 17:01:49.645736 13853 net.cpp:148] Top shape: 100 32 28 28 (2508800)
I0404 17:01:49.645750 13853 net.cpp:156] Memory required for data: 2257921600
I0404 17:01:49.645764 13853 layer_factory.hpp:77] Creating layer inception_3a/pool
I0404 17:01:49.645781 13853 net.cpp:91] Creating Layer inception_3a/pool
I0404 17:01:49.645797 13853 net.cpp:425] inception_3a/pool <- pool2/3x3_s2_pool2/3x3_s2_0_split_3
I0404 17:01:49.645813 13853 net.cpp:399] inception_3a/pool -> inception_3a/pool
I0404 17:01:49.645861 13853 net.cpp:141] Setting up inception_3a/pool
I0404 17:01:49.645884 13853 net.cpp:148] Top shape: 100 192 28 28 (15052800)
I0404 17:01:49.645902 13853 net.cpp:156] Memory required for data: 2318132800
I0404 17:01:49.645920 13853 layer_factory.hpp:77] Creating layer inception_3a/pool_proj
I0404 17:01:49.645942 13853 net.cpp:91] Creating Layer inception_3a/pool_proj
I0404 17:01:49.645959 13853 net.cpp:425] inception_3a/pool_proj <- inception_3a/pool
I0404 17:01:49.645980 13853 net.cpp:399] inception_3a/pool_proj -> inception_3a/pool_proj
I0404 17:01:49.646203 13853 net.cpp:141] Setting up inception_3a/pool_proj
I0404 17:01:49.646227 13853 net.cpp:148] Top shape: 100 32 28 28 (2508800)
I0404 17:01:49.646241 13853 net.cpp:156] Memory required for data: 2328168000
I0404 17:01:49.646263 13853 layer_factory.hpp:77] Creating layer inception_3a/relu_pool_proj
I0404 17:01:49.646282 13853 net.cpp:91] Creating Layer inception_3a/relu_pool_proj
I0404 17:01:49.646298 13853 net.cpp:425] inception_3a/relu_pool_proj <- inception_3a/pool_proj
I0404 17:01:49.646317 13853 net.cpp:386] inception_3a/relu_pool_proj -> inception_3a/pool_proj (in-place)
I0404 17:01:49.646337 13853 net.cpp:141] Setting up inception_3a/relu_pool_proj
I0404 17:01:49.646353 13853 net.cpp:148] Top shape: 100 32 28 28 (2508800)
I0404 17:01:49.646366 13853 net.cpp:156] Memory required for data: 2338203200
I0404 17:01:49.646379 13853 layer_factory.hpp:77] Creating layer inception_3a/output
I0404 17:01:49.646396 13853 net.cpp:91] Creating Layer inception_3a/output
I0404 17:01:49.646410 13853 net.cpp:425] inception_3a/output <- inception_3a/1x1
I0404 17:01:49.646425 13853 net.cpp:425] inception_3a/output <- inception_3a/3x3
I0404 17:01:49.646441 13853 net.cpp:425] inception_3a/output <- inception_3a/5x5
I0404 17:01:49.646456 13853 net.cpp:425] inception_3a/output <- inception_3a/pool_proj
I0404 17:01:49.646472 13853 net.cpp:399] inception_3a/output -> inception_3a/output
I0404 17:01:49.646514 13853 net.cpp:141] Setting up inception_3a/output
I0404 17:01:49.646536 13853 net.cpp:148] Top shape: 100 256 28 28 (20070400)
I0404 17:01:49.646550 13853 net.cpp:156] Memory required for data: 2418484800
I0404 17:01:49.646564 13853 layer_factory.hpp:77] Creating layer inception_3a/output_inception_3a/output_0_split
I0404 17:01:49.646580 13853 net.cpp:91] Creating Layer inception_3a/output_inception_3a/output_0_split
I0404 17:01:49.646595 13853 net.cpp:425] inception_3a/output_inception_3a/output_0_split <- inception_3a/output
I0404 17:01:49.646615 13853 net.cpp:399] inception_3a/output_inception_3a/output_0_split -> inception_3a/output_inception_3a/output_0_split_0
I0404 17:01:49.646634 13853 net.cpp:399] inception_3a/output_inception_3a/output_0_split -> inception_3a/output_inception_3a/output_0_split_1
I0404 17:01:49.646654 13853 net.cpp:399] inception_3a/output_inception_3a/output_0_split -> inception_3a/output_inception_3a/output_0_split_2
I0404 17:01:49.646673 13853 net.cpp:399] inception_3a/output_inception_3a/output_0_split -> inception_3a/output_inception_3a/output_0_split_3
I0404 17:01:49.646749 13853 net.cpp:141] Setting up inception_3a/output_inception_3a/output_0_split
I0404 17:01:49.646773 13853 net.cpp:148] Top shape: 100 256 28 28 (20070400)
I0404 17:01:49.646790 13853 net.cpp:148] Top shape: 100 256 28 28 (20070400)
I0404 17:01:49.646805 13853 net.cpp:148] Top shape: 100 256 28 28 (20070400)
I0404 17:01:49.646819 13853 net.cpp:148] Top shape: 100 256 28 28 (20070400)
I0404 17:01:49.646832 13853 net.cpp:156] Memory required for data: 2739611200
I0404 17:01:49.646845 13853 layer_factory.hpp:77] Creating layer inception_3b/1x1
I0404 17:01:49.646867 13853 net.cpp:91] Creating Layer inception_3b/1x1
I0404 17:01:49.646883 13853 net.cpp:425] inception_3b/1x1 <- inception_3a/output_inception_3a/output_0_split_0
I0404 17:01:49.646908 13853 net.cpp:399] inception_3b/1x1 -> inception_3b/1x1
I0404 17:01:49.647276 13853 net.cpp:141] Setting up inception_3b/1x1
I0404 17:01:49.647300 13853 net.cpp:148] Top shape: 100 128 28 28 (10035200)
I0404 17:01:49.647315 13853 net.cpp:156] Memory required for data: 2779752000
I0404 17:01:49.647332 13853 layer_factory.hpp:77] Creating layer inception_3b/relu_1x1
I0404 17:01:49.647351 13853 net.cpp:91] Creating Layer inception_3b/relu_1x1
I0404 17:01:49.647366 13853 net.cpp:425] inception_3b/relu_1x1 <- inception_3b/1x1
I0404 17:01:49.647382 13853 net.cpp:386] inception_3b/relu_1x1 -> inception_3b/1x1 (in-place)
I0404 17:01:49.647399 13853 net.cpp:141] Setting up inception_3b/relu_1x1
I0404 17:01:49.647416 13853 net.cpp:148] Top shape: 100 128 28 28 (10035200)
I0404 17:01:49.647430 13853 net.cpp:156] Memory required for data: 2819892800
I0404 17:01:49.647444 13853 layer_factory.hpp:77] Creating layer inception_3b/3x3_reduce
I0404 17:01:49.647466 13853 net.cpp:91] Creating Layer inception_3b/3x3_reduce
I0404 17:01:49.647482 13853 net.cpp:425] inception_3b/3x3_reduce <- inception_3a/output_inception_3a/output_0_split_1
I0404 17:01:49.647506 13853 net.cpp:399] inception_3b/3x3_reduce -> inception_3b/3x3_reduce
I0404 17:01:49.647881 13853 net.cpp:141] Setting up inception_3b/3x3_reduce
I0404 17:01:49.647909 13853 net.cpp:148] Top shape: 100 128 28 28 (10035200)
I0404 17:01:49.647927 13853 net.cpp:156] Memory required for data: 2860033600
I0404 17:01:49.647943 13853 layer_factory.hpp:77] Creating layer inception_3b/relu_3x3_reduce
I0404 17:01:49.647964 13853 net.cpp:91] Creating Layer inception_3b/relu_3x3_reduce
I0404 17:01:49.647980 13853 net.cpp:425] inception_3b/relu_3x3_reduce <- inception_3b/3x3_reduce
I0404 17:01:49.647997 13853 net.cpp:386] inception_3b/relu_3x3_reduce -> inception_3b/3x3_reduce (in-place)
I0404 17:01:49.648016 13853 net.cpp:141] Setting up inception_3b/relu_3x3_reduce
I0404 17:01:49.648032 13853 net.cpp:148] Top shape: 100 128 28 28 (10035200)
I0404 17:01:49.648046 13853 net.cpp:156] Memory required for data: 2900174400
I0404 17:01:49.648059 13853 layer_factory.hpp:77] Creating layer inception_3b/3x3
I0404 17:01:49.648085 13853 net.cpp:91] Creating Layer inception_3b/3x3
I0404 17:01:49.648102 13853 net.cpp:425] inception_3b/3x3 <- inception_3b/3x3_reduce
I0404 17:01:49.648121 13853 net.cpp:399] inception_3b/3x3 -> inception_3b/3x3
I0404 17:01:49.650112 13853 net.cpp:141] Setting up inception_3b/3x3
I0404 17:01:49.650141 13853 net.cpp:148] Top shape: 100 192 28 28 (15052800)
I0404 17:01:49.650156 13853 net.cpp:156] Memory required for data: 2960385600
I0404 17:01:49.650174 13853 layer_factory.hpp:77] Creating layer inception_3b/relu_3x3
I0404 17:01:49.650192 13853 net.cpp:91] Creating Layer inception_3b/relu_3x3
I0404 17:01:49.650208 13853 net.cpp:425] inception_3b/relu_3x3 <- inception_3b/3x3
I0404 17:01:49.650228 13853 net.cpp:386] inception_3b/relu_3x3 -> inception_3b/3x3 (in-place)
I0404 17:01:49.650246 13853 net.cpp:141] Setting up inception_3b/relu_3x3
I0404 17:01:49.650264 13853 net.cpp:148] Top shape: 100 192 28 28 (15052800)
I0404 17:01:49.650277 13853 net.cpp:156] Memory required for data: 3020596800
I0404 17:01:49.650290 13853 layer_factory.hpp:77] Creating layer inception_3b/5x5_reduce
I0404 17:01:49.650310 13853 net.cpp:91] Creating Layer inception_3b/5x5_reduce
I0404 17:01:49.650341 13853 net.cpp:425] inception_3b/5x5_reduce <- inception_3a/output_inception_3a/output_0_split_2
I0404 17:01:49.650362 13853 net.cpp:399] inception_3b/5x5_reduce -> inception_3b/5x5_reduce
I0404 17:01:49.650614 13853 net.cpp:141] Setting up inception_3b/5x5_reduce
I0404 17:01:49.650637 13853 net.cpp:148] Top shape: 100 32 28 28 (2508800)
I0404 17:01:49.650652 13853 net.cpp:156] Memory required for data: 3030632000
I0404 17:01:49.650670 13853 layer_factory.hpp:77] Creating layer inception_3b/relu_5x5_reduce
I0404 17:01:49.650688 13853 net.cpp:91] Creating Layer inception_3b/relu_5x5_reduce
I0404 17:01:49.650703 13853 net.cpp:425] inception_3b/relu_5x5_reduce <- inception_3b/5x5_reduce
I0404 17:01:49.650722 13853 net.cpp:386] inception_3b/relu_5x5_reduce -> inception_3b/5x5_reduce (in-place)
I0404 17:01:49.650739 13853 net.cpp:141] Setting up inception_3b/relu_5x5_reduce
I0404 17:01:49.650756 13853 net.cpp:148] Top shape: 100 32 28 28 (2508800)
I0404 17:01:49.650770 13853 net.cpp:156] Memory required for data: 3040667200
I0404 17:01:49.650784 13853 layer_factory.hpp:77] Creating layer inception_3b/5x5
I0404 17:01:49.650806 13853 net.cpp:91] Creating Layer inception_3b/5x5
I0404 17:01:49.650823 13853 net.cpp:425] inception_3b/5x5 <- inception_3b/5x5_reduce
I0404 17:01:49.650843 13853 net.cpp:399] inception_3b/5x5 -> inception_3b/5x5
I0404 17:01:49.652034 13853 net.cpp:141] Setting up inception_3b/5x5
I0404 17:01:49.652065 13853 net.cpp:148] Top shape: 100 96 28 28 (7526400)
I0404 17:01:49.652081 13853 net.cpp:156] Memory required for data: 3070772800
I0404 17:01:49.652097 13853 layer_factory.hpp:77] Creating layer inception_3b/relu_5x5
I0404 17:01:49.652115 13853 net.cpp:91] Creating Layer inception_3b/relu_5x5
I0404 17:01:49.652130 13853 net.cpp:425] inception_3b/relu_5x5 <- inception_3b/5x5
I0404 17:01:49.652149 13853 net.cpp:386] inception_3b/relu_5x5 -> inception_3b/5x5 (in-place)
I0404 17:01:49.652169 13853 net.cpp:141] Setting up inception_3b/relu_5x5
I0404 17:01:49.652186 13853 net.cpp:148] Top shape: 100 96 28 28 (7526400)
I0404 17:01:49.652200 13853 net.cpp:156] Memory required for data: 3100878400
I0404 17:01:49.652215 13853 layer_factory.hpp:77] Creating layer inception_3b/pool
I0404 17:01:49.652231 13853 net.cpp:91] Creating Layer inception_3b/pool
I0404 17:01:49.652248 13853 net.cpp:425] inception_3b/pool <- inception_3a/output_inception_3a/output_0_split_3
I0404 17:01:49.652268 13853 net.cpp:399] inception_3b/pool -> inception_3b/pool
I0404 17:01:49.652318 13853 net.cpp:141] Setting up inception_3b/pool
I0404 17:01:49.652340 13853 net.cpp:148] Top shape: 100 256 28 28 (20070400)
I0404 17:01:49.652354 13853 net.cpp:156] Memory required for data: 3181160000
I0404 17:01:49.652369 13853 layer_factory.hpp:77] Creating layer inception_3b/pool_proj
I0404 17:01:49.652390 13853 net.cpp:91] Creating Layer inception_3b/pool_proj
I0404 17:01:49.652407 13853 net.cpp:425] inception_3b/pool_proj <- inception_3b/pool
I0404 17:01:49.652428 13853 net.cpp:399] inception_3b/pool_proj -> inception_3b/pool_proj
I0404 17:01:49.652719 13853 net.cpp:141] Setting up inception_3b/pool_proj
I0404 17:01:49.652742 13853 net.cpp:148] Top shape: 100 64 28 28 (5017600)
I0404 17:01:49.652755 13853 net.cpp:156] Memory required for data: 3201230400
I0404 17:01:49.652772 13853 layer_factory.hpp:77] Creating layer inception_3b/relu_pool_proj
I0404 17:01:49.652789 13853 net.cpp:91] Creating Layer inception_3b/relu_pool_proj
I0404 17:01:49.652804 13853 net.cpp:425] inception_3b/relu_pool_proj <- inception_3b/pool_proj
I0404 17:01:49.652820 13853 net.cpp:386] inception_3b/relu_pool_proj -> inception_3b/pool_proj (in-place)
I0404 17:01:49.652838 13853 net.cpp:141] Setting up inception_3b/relu_pool_proj
I0404 17:01:49.652855 13853 net.cpp:148] Top shape: 100 64 28 28 (5017600)
I0404 17:01:49.652868 13853 net.cpp:156] Memory required for data: 3221300800
I0404 17:01:49.652881 13853 layer_factory.hpp:77] Creating layer inception_3b/output
I0404 17:01:49.652905 13853 net.cpp:91] Creating Layer inception_3b/output
I0404 17:01:49.652951 13853 net.cpp:425] inception_3b/output <- inception_3b/1x1
I0404 17:01:49.652969 13853 net.cpp:425] inception_3b/output <- inception_3b/3x3
I0404 17:01:49.652986 13853 net.cpp:425] inception_3b/output <- inception_3b/5x5
I0404 17:01:49.653002 13853 net.cpp:425] inception_3b/output <- inception_3b/pool_proj
I0404 17:01:49.653019 13853 net.cpp:399] inception_3b/output -> inception_3b/output
I0404 17:01:49.653059 13853 net.cpp:141] Setting up inception_3b/output
I0404 17:01:49.653081 13853 net.cpp:148] Top shape: 100 480 28 28 (37632000)
I0404 17:01:49.653096 13853 net.cpp:156] Memory required for data: 3371828800
I0404 17:01:49.653111 13853 layer_factory.hpp:77] Creating layer pool3/3x3_s2
I0404 17:01:49.653128 13853 net.cpp:91] Creating Layer pool3/3x3_s2
I0404 17:01:49.653144 13853 net.cpp:425] pool3/3x3_s2 <- inception_3b/output
I0404 17:01:49.653164 13853 net.cpp:399] pool3/3x3_s2 -> pool3/3x3_s2
I0404 17:01:49.653213 13853 net.cpp:141] Setting up pool3/3x3_s2
I0404 17:01:49.653246 13853 net.cpp:148] Top shape: 100 480 14 14 (9408000)
I0404 17:01:49.653260 13853 net.cpp:156] Memory required for data: 3409460800
I0404 17:01:49.653273 13853 layer_factory.hpp:77] Creating layer pool3/3x3_s2_pool3/3x3_s2_0_split
I0404 17:01:49.653292 13853 net.cpp:91] Creating Layer pool3/3x3_s2_pool3/3x3_s2_0_split
I0404 17:01:49.653307 13853 net.cpp:425] pool3/3x3_s2_pool3/3x3_s2_0_split <- pool3/3x3_s2
I0404 17:01:49.653324 13853 net.cpp:399] pool3/3x3_s2_pool3/3x3_s2_0_split -> pool3/3x3_s2_pool3/3x3_s2_0_split_0
I0404 17:01:49.653345 13853 net.cpp:399] pool3/3x3_s2_pool3/3x3_s2_0_split -> pool3/3x3_s2_pool3/3x3_s2_0_split_1
I0404 17:01:49.653364 13853 net.cpp:399] pool3/3x3_s2_pool3/3x3_s2_0_split -> pool3/3x3_s2_pool3/3x3_s2_0_split_2
I0404 17:01:49.653383 13853 net.cpp:399] pool3/3x3_s2_pool3/3x3_s2_0_split -> pool3/3x3_s2_pool3/3x3_s2_0_split_3
I0404 17:01:49.653445 13853 net.cpp:141] Setting up pool3/3x3_s2_pool3/3x3_s2_0_split
I0404 17:01:49.653466 13853 net.cpp:148] Top shape: 100 480 14 14 (9408000)
I0404 17:01:49.653481 13853 net.cpp:148] Top shape: 100 480 14 14 (9408000)
I0404 17:01:49.653496 13853 net.cpp:148] Top shape: 100 480 14 14 (9408000)
I0404 17:01:49.653511 13853 net.cpp:148] Top shape: 100 480 14 14 (9408000)
I0404 17:01:49.653524 13853 net.cpp:156] Memory required for data: 3559988800
I0404 17:01:49.653537 13853 layer_factory.hpp:77] Creating layer inception_4a/1x1
I0404 17:01:49.653559 13853 net.cpp:91] Creating Layer inception_4a/1x1
I0404 17:01:49.653575 13853 net.cpp:425] inception_4a/1x1 <- pool3/3x3_s2_pool3/3x3_s2_0_split_0
I0404 17:01:49.653596 13853 net.cpp:399] inception_4a/1x1 -> inception_4a/1x1
I0404 17:01:49.654292 13853 net.cpp:141] Setting up inception_4a/1x1
I0404 17:01:49.654316 13853 net.cpp:148] Top shape: 100 192 14 14 (3763200)
I0404 17:01:49.654331 13853 net.cpp:156] Memory required for data: 3575041600
I0404 17:01:49.654347 13853 layer_factory.hpp:77] Creating layer inception_4a/relu_1x1
I0404 17:01:49.654364 13853 net.cpp:91] Creating Layer inception_4a/relu_1x1
I0404 17:01:49.654379 13853 net.cpp:425] inception_4a/relu_1x1 <- inception_4a/1x1
I0404 17:01:49.654395 13853 net.cpp:386] inception_4a/relu_1x1 -> inception_4a/1x1 (in-place)
I0404 17:01:49.654413 13853 net.cpp:141] Setting up inception_4a/relu_1x1
I0404 17:01:49.654429 13853 net.cpp:148] Top shape: 100 192 14 14 (3763200)
I0404 17:01:49.654443 13853 net.cpp:156] Memory required for data: 3590094400
I0404 17:01:49.654456 13853 layer_factory.hpp:77] Creating layer inception_4a/3x3_reduce
I0404 17:01:49.654477 13853 net.cpp:91] Creating Layer inception_4a/3x3_reduce
I0404 17:01:49.654495 13853 net.cpp:425] inception_4a/3x3_reduce <- pool3/3x3_s2_pool3/3x3_s2_0_split_1
I0404 17:01:49.654515 13853 net.cpp:399] inception_4a/3x3_reduce -> inception_4a/3x3_reduce
I0404 17:01:49.654988 13853 net.cpp:141] Setting up inception_4a/3x3_reduce
I0404 17:01:49.655012 13853 net.cpp:148] Top shape: 100 96 14 14 (1881600)
I0404 17:01:49.655026 13853 net.cpp:156] Memory required for data: 3597620800
I0404 17:01:49.655063 13853 layer_factory.hpp:77] Creating layer inception_4a/relu_3x3_reduce
I0404 17:01:49.655083 13853 net.cpp:91] Creating Layer inception_4a/relu_3x3_reduce
I0404 17:01:49.655099 13853 net.cpp:425] inception_4a/relu_3x3_reduce <- inception_4a/3x3_reduce
I0404 17:01:49.655115 13853 net.cpp:386] inception_4a/relu_3x3_reduce -> inception_4a/3x3_reduce (in-place)
I0404 17:01:49.655133 13853 net.cpp:141] Setting up inception_4a/relu_3x3_reduce
I0404 17:01:49.655149 13853 net.cpp:148] Top shape: 100 96 14 14 (1881600)
I0404 17:01:49.655163 13853 net.cpp:156] Memory required for data: 3605147200
I0404 17:01:49.655176 13853 layer_factory.hpp:77] Creating layer inception_4a/3x3
I0404 17:01:49.655199 13853 net.cpp:91] Creating Layer inception_4a/3x3
I0404 17:01:49.655215 13853 net.cpp:425] inception_4a/3x3 <- inception_4a/3x3_reduce
I0404 17:01:49.655235 13853 net.cpp:399] inception_4a/3x3 -> inception_4a/3x3
I0404 17:01:49.656980 13853 net.cpp:141] Setting up inception_4a/3x3
I0404 17:01:49.657011 13853 net.cpp:148] Top shape: 100 208 14 14 (4076800)
I0404 17:01:49.657027 13853 net.cpp:156] Memory required for data: 3621454400
I0404 17:01:49.657045 13853 layer_factory.hpp:77] Creating layer inception_4a/relu_3x3
I0404 17:01:49.657063 13853 net.cpp:91] Creating Layer inception_4a/relu_3x3
I0404 17:01:49.657079 13853 net.cpp:425] inception_4a/relu_3x3 <- inception_4a/3x3
I0404 17:01:49.657096 13853 net.cpp:386] inception_4a/relu_3x3 -> inception_4a/3x3 (in-place)
I0404 17:01:49.657115 13853 net.cpp:141] Setting up inception_4a/relu_3x3
I0404 17:01:49.657131 13853 net.cpp:148] Top shape: 100 208 14 14 (4076800)
I0404 17:01:49.657145 13853 net.cpp:156] Memory required for data: 3637761600
I0404 17:01:49.657160 13853 layer_factory.hpp:77] Creating layer inception_4a/5x5_reduce
I0404 17:01:49.657182 13853 net.cpp:91] Creating Layer inception_4a/5x5_reduce
I0404 17:01:49.657199 13853 net.cpp:425] inception_4a/5x5_reduce <- pool3/3x3_s2_pool3/3x3_s2_0_split_2
I0404 17:01:49.657220 13853 net.cpp:399] inception_4a/5x5_reduce -> inception_4a/5x5_reduce
I0404 17:01:49.657477 13853 net.cpp:141] Setting up inception_4a/5x5_reduce
I0404 17:01:49.657500 13853 net.cpp:148] Top shape: 100 16 14 14 (313600)
I0404 17:01:49.657516 13853 net.cpp:156] Memory required for data: 3639016000
I0404 17:01:49.657532 13853 layer_factory.hpp:77] Creating layer inception_4a/relu_5x5_reduce
I0404 17:01:49.657552 13853 net.cpp:91] Creating Layer inception_4a/relu_5x5_reduce
I0404 17:01:49.657567 13853 net.cpp:425] inception_4a/relu_5x5_reduce <- inception_4a/5x5_reduce
I0404 17:01:49.657583 13853 net.cpp:386] inception_4a/relu_5x5_reduce -> inception_4a/5x5_reduce (in-place)
I0404 17:01:49.657601 13853 net.cpp:141] Setting up inception_4a/relu_5x5_reduce
I0404 17:01:49.657618 13853 net.cpp:148] Top shape: 100 16 14 14 (313600)
I0404 17:01:49.657632 13853 net.cpp:156] Memory required for data: 3640270400
I0404 17:01:49.657645 13853 layer_factory.hpp:77] Creating layer inception_4a/5x5
I0404 17:01:49.657667 13853 net.cpp:91] Creating Layer inception_4a/5x5
I0404 17:01:49.657685 13853 net.cpp:425] inception_4a/5x5 <- inception_4a/5x5_reduce
I0404 17:01:49.657704 13853 net.cpp:399] inception_4a/5x5 -> inception_4a/5x5
I0404 17:01:49.658016 13853 net.cpp:141] Setting up inception_4a/5x5
I0404 17:01:49.658041 13853 net.cpp:148] Top shape: 100 48 14 14 (940800)
I0404 17:01:49.658056 13853 net.cpp:156] Memory required for data: 3644033600
I0404 17:01:49.658071 13853 layer_factory.hpp:77] Creating layer inception_4a/relu_5x5
I0404 17:01:49.658088 13853 net.cpp:91] Creating Layer inception_4a/relu_5x5
I0404 17:01:49.658103 13853 net.cpp:425] inception_4a/relu_5x5 <- inception_4a/5x5
I0404 17:01:49.658120 13853 net.cpp:386] inception_4a/relu_5x5 -> inception_4a/5x5 (in-place)
I0404 17:01:49.658138 13853 net.cpp:141] Setting up inception_4a/relu_5x5
I0404 17:01:49.658154 13853 net.cpp:148] Top shape: 100 48 14 14 (940800)
I0404 17:01:49.658167 13853 net.cpp:156] Memory required for data: 3647796800
I0404 17:01:49.658180 13853 layer_factory.hpp:77] Creating layer inception_4a/pool
I0404 17:01:49.658215 13853 net.cpp:91] Creating Layer inception_4a/pool
I0404 17:01:49.658231 13853 net.cpp:425] inception_4a/pool <- pool3/3x3_s2_pool3/3x3_s2_0_split_3
I0404 17:01:49.658249 13853 net.cpp:399] inception_4a/pool -> inception_4a/pool
I0404 17:01:49.658298 13853 net.cpp:141] Setting up inception_4a/pool
I0404 17:01:49.658320 13853 net.cpp:148] Top shape: 100 480 14 14 (9408000)
I0404 17:01:49.658334 13853 net.cpp:156] Memory required for data: 3685428800
I0404 17:01:49.658349 13853 layer_factory.hpp:77] Creating layer inception_4a/pool_proj
I0404 17:01:49.658373 13853 net.cpp:91] Creating Layer inception_4a/pool_proj
I0404 17:01:49.658391 13853 net.cpp:425] inception_4a/pool_proj <- inception_4a/pool
I0404 17:01:49.658409 13853 net.cpp:399] inception_4a/pool_proj -> inception_4a/pool_proj
I0404 17:01:49.658777 13853 net.cpp:141] Setting up inception_4a/pool_proj
I0404 17:01:49.658802 13853 net.cpp:148] Top shape: 100 64 14 14 (1254400)
I0404 17:01:49.658815 13853 net.cpp:156] Memory required for data: 3690446400
I0404 17:01:49.658833 13853 layer_factory.hpp:77] Creating layer inception_4a/relu_pool_proj
I0404 17:01:49.658849 13853 net.cpp:91] Creating Layer inception_4a/relu_pool_proj
I0404 17:01:49.658865 13853 net.cpp:425] inception_4a/relu_pool_proj <- inception_4a/pool_proj
I0404 17:01:49.658885 13853 net.cpp:386] inception_4a/relu_pool_proj -> inception_4a/pool_proj (in-place)
I0404 17:01:49.658907 13853 net.cpp:141] Setting up inception_4a/relu_pool_proj
I0404 17:01:49.658926 13853 net.cpp:148] Top shape: 100 64 14 14 (1254400)
I0404 17:01:49.658938 13853 net.cpp:156] Memory required for data: 3695464000
I0404 17:01:49.658952 13853 layer_factory.hpp:77] Creating layer inception_4a/output
I0404 17:01:49.658969 13853 net.cpp:91] Creating Layer inception_4a/output
I0404 17:01:49.658983 13853 net.cpp:425] inception_4a/output <- inception_4a/1x1
I0404 17:01:49.658999 13853 net.cpp:425] inception_4a/output <- inception_4a/3x3
I0404 17:01:49.659014 13853 net.cpp:425] inception_4a/output <- inception_4a/5x5
I0404 17:01:49.659029 13853 net.cpp:425] inception_4a/output <- inception_4a/pool_proj
I0404 17:01:49.659046 13853 net.cpp:399] inception_4a/output -> inception_4a/output
I0404 17:01:49.659085 13853 net.cpp:141] Setting up inception_4a/output
I0404 17:01:49.659106 13853 net.cpp:148] Top shape: 100 512 14 14 (10035200)
I0404 17:01:49.659121 13853 net.cpp:156] Memory required for data: 3735604800
I0404 17:01:49.659134 13853 layer_factory.hpp:77] Creating layer inception_4a/output_inception_4a/output_0_split
I0404 17:01:49.659153 13853 net.cpp:91] Creating Layer inception_4a/output_inception_4a/output_0_split
I0404 17:01:49.659169 13853 net.cpp:425] inception_4a/output_inception_4a/output_0_split <- inception_4a/output
I0404 17:01:49.659188 13853 net.cpp:399] inception_4a/output_inception_4a/output_0_split -> inception_4a/output_inception_4a/output_0_split_0
I0404 17:01:49.659206 13853 net.cpp:399] inception_4a/output_inception_4a/output_0_split -> inception_4a/output_inception_4a/output_0_split_1
I0404 17:01:49.659225 13853 net.cpp:399] inception_4a/output_inception_4a/output_0_split -> inception_4a/output_inception_4a/output_0_split_2
I0404 17:01:49.659245 13853 net.cpp:399] inception_4a/output_inception_4a/output_0_split -> inception_4a/output_inception_4a/output_0_split_3
I0404 17:01:49.659262 13853 net.cpp:399] inception_4a/output_inception_4a/output_0_split -> inception_4a/output_inception_4a/output_0_split_4
I0404 17:01:49.659337 13853 net.cpp:141] Setting up inception_4a/output_inception_4a/output_0_split
I0404 17:01:49.659358 13853 net.cpp:148] Top shape: 100 512 14 14 (10035200)
I0404 17:01:49.659374 13853 net.cpp:148] Top shape: 100 512 14 14 (10035200)
I0404 17:01:49.659389 13853 net.cpp:148] Top shape: 100 512 14 14 (10035200)
I0404 17:01:49.659404 13853 net.cpp:148] Top shape: 100 512 14 14 (10035200)
I0404 17:01:49.659418 13853 net.cpp:148] Top shape: 100 512 14 14 (10035200)
I0404 17:01:49.659431 13853 net.cpp:156] Memory required for data: 3936308800
I0404 17:01:49.659446 13853 layer_factory.hpp:77] Creating layer loss1/ave_pool
I0404 17:01:49.659474 13853 net.cpp:91] Creating Layer loss1/ave_pool
I0404 17:01:49.659492 13853 net.cpp:425] loss1/ave_pool <- inception_4a/output_inception_4a/output_0_split_0
I0404 17:01:49.659510 13853 net.cpp:399] loss1/ave_pool -> loss1/ave_pool
I0404 17:01:49.659546 13853 net.cpp:141] Setting up loss1/ave_pool
I0404 17:01:49.659569 13853 net.cpp:148] Top shape: 100 512 4 4 (819200)
I0404 17:01:49.659582 13853 net.cpp:156] Memory required for data: 3939585600
I0404 17:01:49.659596 13853 layer_factory.hpp:77] Creating layer loss1/conv
I0404 17:01:49.659620 13853 net.cpp:91] Creating Layer loss1/conv
I0404 17:01:49.659636 13853 net.cpp:425] loss1/conv <- loss1/ave_pool
I0404 17:01:49.659653 13853 net.cpp:399] loss1/conv -> loss1/conv
I0404 17:01:49.660207 13853 net.cpp:141] Setting up loss1/conv
I0404 17:01:49.660230 13853 net.cpp:148] Top shape: 100 128 4 4 (204800)
I0404 17:01:49.660245 13853 net.cpp:156] Memory required for data: 3940404800
I0404 17:01:49.660262 13853 layer_factory.hpp:77] Creating layer loss1/relu_conv
I0404 17:01:49.660279 13853 net.cpp:91] Creating Layer loss1/relu_conv
I0404 17:01:49.660295 13853 net.cpp:425] loss1/relu_conv <- loss1/conv
I0404 17:01:49.660313 13853 net.cpp:386] loss1/relu_conv -> loss1/conv (in-place)
I0404 17:01:49.660332 13853 net.cpp:141] Setting up loss1/relu_conv
I0404 17:01:49.660349 13853 net.cpp:148] Top shape: 100 128 4 4 (204800)
I0404 17:01:49.660363 13853 net.cpp:156] Memory required for data: 3941224000
I0404 17:01:49.660377 13853 layer_factory.hpp:77] Creating layer loss1/fc
I0404 17:01:49.660398 13853 net.cpp:91] Creating Layer loss1/fc
I0404 17:01:49.660413 13853 net.cpp:425] loss1/fc <- loss1/conv
I0404 17:01:49.660435 13853 net.cpp:399] loss1/fc -> loss1/fc
I0404 17:01:49.676591 13853 net.cpp:141] Setting up loss1/fc
I0404 17:01:49.676643 13853 net.cpp:148] Top shape: 100 1024 (102400)
I0404 17:01:49.676658 13853 net.cpp:156] Memory required for data: 3941633600
I0404 17:01:49.676677 13853 layer_factory.hpp:77] Creating layer loss1/relu_fc
I0404 17:01:49.676697 13853 net.cpp:91] Creating Layer loss1/relu_fc
I0404 17:01:49.676713 13853 net.cpp:425] loss1/relu_fc <- loss1/fc
I0404 17:01:49.676733 13853 net.cpp:386] loss1/relu_fc -> loss1/fc (in-place)
I0404 17:01:49.676753 13853 net.cpp:141] Setting up loss1/relu_fc
I0404 17:01:49.676769 13853 net.cpp:148] Top shape: 100 1024 (102400)
I0404 17:01:49.676784 13853 net.cpp:156] Memory required for data: 3942043200
I0404 17:01:49.676797 13853 layer_factory.hpp:77] Creating layer loss1/drop_fc
I0404 17:01:49.676826 13853 net.cpp:91] Creating Layer loss1/drop_fc
I0404 17:01:49.676843 13853 net.cpp:425] loss1/drop_fc <- loss1/fc
I0404 17:01:49.676862 13853 net.cpp:386] loss1/drop_fc -> loss1/fc (in-place)
I0404 17:01:49.676910 13853 net.cpp:141] Setting up loss1/drop_fc
I0404 17:01:49.676934 13853 net.cpp:148] Top shape: 100 1024 (102400)
I0404 17:01:49.676960 13853 net.cpp:156] Memory required for data: 3942452800
I0404 17:01:49.676975 13853 layer_factory.hpp:77] Creating layer loss1/classifier_plantvillage
I0404 17:01:49.676995 13853 net.cpp:91] Creating Layer loss1/classifier_plantvillage
I0404 17:01:49.677011 13853 net.cpp:425] loss1/classifier_plantvillage <- loss1/fc
I0404 17:01:49.677036 13853 net.cpp:399] loss1/classifier_plantvillage -> loss1/classifier_plantvillage
I0404 17:01:49.677911 13853 net.cpp:141] Setting up loss1/classifier_plantvillage
I0404 17:01:49.677942 13853 net.cpp:148] Top shape: 100 38 (3800)
I0404 17:01:49.677958 13853 net.cpp:156] Memory required for data: 3942468000
I0404 17:01:49.677976 13853 layer_factory.hpp:77] Creating layer inception_4b/1x1
I0404 17:01:49.677999 13853 net.cpp:91] Creating Layer inception_4b/1x1
I0404 17:01:49.678015 13853 net.cpp:425] inception_4b/1x1 <- inception_4a/output_inception_4a/output_0_split_1
I0404 17:01:49.678036 13853 net.cpp:399] inception_4b/1x1 -> inception_4b/1x1
I0404 17:01:49.678690 13853 net.cpp:141] Setting up inception_4b/1x1
I0404 17:01:49.678715 13853 net.cpp:148] Top shape: 100 160 14 14 (3136000)
I0404 17:01:49.678750 13853 net.cpp:156] Memory required for data: 3955012000
I0404 17:01:49.678768 13853 layer_factory.hpp:77] Creating layer inception_4b/relu_1x1
I0404 17:01:49.678786 13853 net.cpp:91] Creating Layer inception_4b/relu_1x1
I0404 17:01:49.678802 13853 net.cpp:425] inception_4b/relu_1x1 <- inception_4b/1x1
I0404 17:01:49.678819 13853 net.cpp:386] inception_4b/relu_1x1 -> inception_4b/1x1 (in-place)
I0404 17:01:49.678838 13853 net.cpp:141] Setting up inception_4b/relu_1x1
I0404 17:01:49.678854 13853 net.cpp:148] Top shape: 100 160 14 14 (3136000)
I0404 17:01:49.678869 13853 net.cpp:156] Memory required for data: 3967556000
I0404 17:01:49.678882 13853 layer_factory.hpp:77] Creating layer inception_4b/3x3_reduce
I0404 17:01:49.678910 13853 net.cpp:91] Creating Layer inception_4b/3x3_reduce
I0404 17:01:49.678928 13853 net.cpp:425] inception_4b/3x3_reduce <- inception_4a/output_inception_4a/output_0_split_2
I0404 17:01:49.678951 13853 net.cpp:399] inception_4b/3x3_reduce -> inception_4b/3x3_reduce
I0404 17:01:49.679476 13853 net.cpp:141] Setting up inception_4b/3x3_reduce
I0404 17:01:49.679499 13853 net.cpp:148] Top shape: 100 112 14 14 (2195200)
I0404 17:01:49.679514 13853 net.cpp:156] Memory required for data: 3976336800
I0404 17:01:49.679530 13853 layer_factory.hpp:77] Creating layer inception_4b/relu_3x3_reduce
I0404 17:01:49.679548 13853 net.cpp:91] Creating Layer inception_4b/relu_3x3_reduce
I0404 17:01:49.679563 13853 net.cpp:425] inception_4b/relu_3x3_reduce <- inception_4b/3x3_reduce
I0404 17:01:49.679579 13853 net.cpp:386] inception_4b/relu_3x3_reduce -> inception_4b/3x3_reduce (in-place)
I0404 17:01:49.679601 13853 net.cpp:141] Setting up inception_4b/relu_3x3_reduce
I0404 17:01:49.679617 13853 net.cpp:148] Top shape: 100 112 14 14 (2195200)
I0404 17:01:49.679631 13853 net.cpp:156] Memory required for data: 3985117600
I0404 17:01:49.679644 13853 layer_factory.hpp:77] Creating layer inception_4b/3x3
I0404 17:01:49.679664 13853 net.cpp:91] Creating Layer inception_4b/3x3
I0404 17:01:49.679679 13853 net.cpp:425] inception_4b/3x3 <- inception_4b/3x3_reduce
I0404 17:01:49.679698 13853 net.cpp:399] inception_4b/3x3 -> inception_4b/3x3
I0404 17:01:49.681740 13853 net.cpp:141] Setting up inception_4b/3x3
I0404 17:01:49.681766 13853 net.cpp:148] Top shape: 100 224 14 14 (4390400)
I0404 17:01:49.681782 13853 net.cpp:156] Memory required for data: 4002679200
I0404 17:01:49.681798 13853 layer_factory.hpp:77] Creating layer inception_4b/relu_3x3
I0404 17:01:49.681815 13853 net.cpp:91] Creating Layer inception_4b/relu_3x3
I0404 17:01:49.681830 13853 net.cpp:425] inception_4b/relu_3x3 <- inception_4b/3x3
I0404 17:01:49.681846 13853 net.cpp:386] inception_4b/relu_3x3 -> inception_4b/3x3 (in-place)
I0404 17:01:49.681866 13853 net.cpp:141] Setting up inception_4b/relu_3x3
I0404 17:01:49.681884 13853 net.cpp:148] Top shape: 100 224 14 14 (4390400)
I0404 17:01:49.681897 13853 net.cpp:156] Memory required for data: 4020240800
I0404 17:01:49.681915 13853 layer_factory.hpp:77] Creating layer inception_4b/5x5_reduce
I0404 17:01:49.681936 13853 net.cpp:91] Creating Layer inception_4b/5x5_reduce
I0404 17:01:49.681951 13853 net.cpp:425] inception_4b/5x5_reduce <- inception_4a/output_inception_4a/output_0_split_3
I0404 17:01:49.681970 13853 net.cpp:399] inception_4b/5x5_reduce -> inception_4b/5x5_reduce
I0404 17:01:49.682241 13853 net.cpp:141] Setting up inception_4b/5x5_reduce
I0404 17:01:49.682265 13853 net.cpp:148] Top shape: 100 24 14 14 (470400)
I0404 17:01:49.682278 13853 net.cpp:156] Memory required for data: 4022122400
I0404 17:01:49.682296 13853 layer_factory.hpp:77] Creating layer inception_4b/relu_5x5_reduce
I0404 17:01:49.682312 13853 net.cpp:91] Creating Layer inception_4b/relu_5x5_reduce
I0404 17:01:49.682327 13853 net.cpp:425] inception_4b/relu_5x5_reduce <- inception_4b/5x5_reduce
I0404 17:01:49.682343 13853 net.cpp:386] inception_4b/relu_5x5_reduce -> inception_4b/5x5_reduce (in-place)
I0404 17:01:49.682360 13853 net.cpp:141] Setting up inception_4b/relu_5x5_reduce
I0404 17:01:49.682376 13853 net.cpp:148] Top shape: 100 24 14 14 (470400)
I0404 17:01:49.682404 13853 net.cpp:156] Memory required for data: 4024004000
I0404 17:01:49.682420 13853 layer_factory.hpp:77] Creating layer inception_4b/5x5
I0404 17:01:49.682441 13853 net.cpp:91] Creating Layer inception_4b/5x5
I0404 17:01:49.682458 13853 net.cpp:425] inception_4b/5x5 <- inception_4b/5x5_reduce
I0404 17:01:49.682478 13853 net.cpp:399] inception_4b/5x5 -> inception_4b/5x5
I0404 17:01:49.682885 13853 net.cpp:141] Setting up inception_4b/5x5
I0404 17:01:49.682914 13853 net.cpp:148] Top shape: 100 64 14 14 (1254400)
I0404 17:01:49.682930 13853 net.cpp:156] Memory required for data: 4029021600
I0404 17:01:49.682946 13853 layer_factory.hpp:77] Creating layer inception_4b/relu_5x5
I0404 17:01:49.682963 13853 net.cpp:91] Creating Layer inception_4b/relu_5x5
I0404 17:01:49.682981 13853 net.cpp:425] inception_4b/relu_5x5 <- inception_4b/5x5
I0404 17:01:49.682997 13853 net.cpp:386] inception_4b/relu_5x5 -> inception_4b/5x5 (in-place)
I0404 17:01:49.683017 13853 net.cpp:141] Setting up inception_4b/relu_5x5
I0404 17:01:49.683034 13853 net.cpp:148] Top shape: 100 64 14 14 (1254400)
I0404 17:01:49.683048 13853 net.cpp:156] Memory required for data: 4034039200
I0404 17:01:49.683061 13853 layer_factory.hpp:77] Creating layer inception_4b/pool
I0404 17:01:49.683079 13853 net.cpp:91] Creating Layer inception_4b/pool
I0404 17:01:49.683094 13853 net.cpp:425] inception_4b/pool <- inception_4a/output_inception_4a/output_0_split_4
I0404 17:01:49.683110 13853 net.cpp:399] inception_4b/pool -> inception_4b/pool
I0404 17:01:49.683164 13853 net.cpp:141] Setting up inception_4b/pool
I0404 17:01:49.683187 13853 net.cpp:148] Top shape: 100 512 14 14 (10035200)
I0404 17:01:49.683200 13853 net.cpp:156] Memory required for data: 4074180000
I0404 17:01:49.683214 13853 layer_factory.hpp:77] Creating layer inception_4b/pool_proj
I0404 17:01:49.683236 13853 net.cpp:91] Creating Layer inception_4b/pool_proj
I0404 17:01:49.683254 13853 net.cpp:425] inception_4b/pool_proj <- inception_4b/pool
I0404 17:01:49.683285 13853 net.cpp:399] inception_4b/pool_proj -> inception_4b/pool_proj
I0404 17:01:49.683682 13853 net.cpp:141] Setting up inception_4b/pool_proj
I0404 17:01:49.683708 13853 net.cpp:148] Top shape: 100 64 14 14 (1254400)
I0404 17:01:49.683723 13853 net.cpp:156] Memory required for data: 4079197600
I0404 17:01:49.683739 13853 layer_factory.hpp:77] Creating layer inception_4b/relu_pool_proj
I0404 17:01:49.683755 13853 net.cpp:91] Creating Layer inception_4b/relu_pool_proj
I0404 17:01:49.683771 13853 net.cpp:425] inception_4b/relu_pool_proj <- inception_4b/pool_proj
I0404 17:01:49.683787 13853 net.cpp:386] inception_4b/relu_pool_proj -> inception_4b/pool_proj (in-place)
I0404 17:01:49.683805 13853 net.cpp:141] Setting up inception_4b/relu_pool_proj
I0404 17:01:49.683820 13853 net.cpp:148] Top shape: 100 64 14 14 (1254400)
I0404 17:01:49.683835 13853 net.cpp:156] Memory required for data: 4084215200
I0404 17:01:49.683847 13853 layer_factory.hpp:77] Creating layer inception_4b/output
I0404 17:01:49.683864 13853 net.cpp:91] Creating Layer inception_4b/output
I0404 17:01:49.683878 13853 net.cpp:425] inception_4b/output <- inception_4b/1x1
I0404 17:01:49.683892 13853 net.cpp:425] inception_4b/output <- inception_4b/3x3
I0404 17:01:49.683913 13853 net.cpp:425] inception_4b/output <- inception_4b/5x5
I0404 17:01:49.683929 13853 net.cpp:425] inception_4b/output <- inception_4b/pool_proj
I0404 17:01:49.683946 13853 net.cpp:399] inception_4b/output -> inception_4b/output
I0404 17:01:49.683984 13853 net.cpp:141] Setting up inception_4b/output
I0404 17:01:49.684007 13853 net.cpp:148] Top shape: 100 512 14 14 (10035200)
I0404 17:01:49.684022 13853 net.cpp:156] Memory required for data: 4124356000
I0404 17:01:49.684036 13853 layer_factory.hpp:77] Creating layer inception_4b/output_inception_4b/output_0_split
I0404 17:01:49.684052 13853 net.cpp:91] Creating Layer inception_4b/output_inception_4b/output_0_split
I0404 17:01:49.684067 13853 net.cpp:425] inception_4b/output_inception_4b/output_0_split <- inception_4b/output
I0404 17:01:49.684098 13853 net.cpp:399] inception_4b/output_inception_4b/output_0_split -> inception_4b/output_inception_4b/output_0_split_0
I0404 17:01:49.684118 13853 net.cpp:399] inception_4b/output_inception_4b/output_0_split -> inception_4b/output_inception_4b/output_0_split_1
I0404 17:01:49.684135 13853 net.cpp:399] inception_4b/output_inception_4b/output_0_split -> inception_4b/output_inception_4b/output_0_split_2
I0404 17:01:49.684157 13853 net.cpp:399] inception_4b/output_inception_4b/output_0_split -> inception_4b/output_inception_4b/output_0_split_3
I0404 17:01:49.684221 13853 net.cpp:141] Setting up inception_4b/output_inception_4b/output_0_split
I0404 17:01:49.684242 13853 net.cpp:148] Top shape: 100 512 14 14 (10035200)
I0404 17:01:49.684257 13853 net.cpp:148] Top shape: 100 512 14 14 (10035200)
I0404 17:01:49.684270 13853 net.cpp:148] Top shape: 100 512 14 14 (10035200)
I0404 17:01:49.684283 13853 net.cpp:148] Top shape: 100 512 14 14 (10035200)
I0404 17:01:49.684295 13853 net.cpp:156] Memory required for data: 4284919200
I0404 17:01:49.684309 13853 layer_factory.hpp:77] Creating layer inception_4c/1x1
I0404 17:01:49.684329 13853 net.cpp:91] Creating Layer inception_4c/1x1
I0404 17:01:49.684345 13853 net.cpp:425] inception_4c/1x1 <- inception_4b/output_inception_4b/output_0_split_0
I0404 17:01:49.684365 13853 net.cpp:399] inception_4c/1x1 -> inception_4c/1x1
I0404 17:01:49.684888 13853 net.cpp:141] Setting up inception_4c/1x1
I0404 17:01:49.684921 13853 net.cpp:148] Top shape: 100 128 14 14 (2508800)
I0404 17:01:49.684937 13853 net.cpp:156] Memory required for data: 4294954400
I0404 17:01:49.684952 13853 layer_factory.hpp:77] Creating layer inception_4c/relu_1x1
I0404 17:01:49.684969 13853 net.cpp:91] Creating Layer inception_4c/relu_1x1
I0404 17:01:49.684984 13853 net.cpp:425] inception_4c/relu_1x1 <- inception_4c/1x1
I0404 17:01:49.685003 13853 net.cpp:386] inception_4c/relu_1x1 -> inception_4c/1x1 (in-place)
I0404 17:01:49.685021 13853 net.cpp:141] Setting up inception_4c/relu_1x1
I0404 17:01:49.685037 13853 net.cpp:148] Top shape: 100 128 14 14 (2508800)
I0404 17:01:49.685050 13853 net.cpp:156] Memory required for data: 4304989600
I0404 17:01:49.685063 13853 layer_factory.hpp:77] Creating layer inception_4c/3x3_reduce
I0404 17:01:49.685083 13853 net.cpp:91] Creating Layer inception_4c/3x3_reduce
I0404 17:01:49.685098 13853 net.cpp:425] inception_4c/3x3_reduce <- inception_4b/output_inception_4b/output_0_split_1
I0404 17:01:49.685116 13853 net.cpp:399] inception_4c/3x3_reduce -> inception_4c/3x3_reduce
I0404 17:01:49.686185 13853 net.cpp:141] Setting up inception_4c/3x3_reduce
I0404 17:01:49.686213 13853 net.cpp:148] Top shape: 100 128 14 14 (2508800)
I0404 17:01:49.686228 13853 net.cpp:156] Memory required for data: 4315024800
I0404 17:01:49.686244 13853 layer_factory.hpp:77] Creating layer inception_4c/relu_3x3_reduce
I0404 17:01:49.686261 13853 net.cpp:91] Creating Layer inception_4c/relu_3x3_reduce
I0404 17:01:49.686275 13853 net.cpp:425] inception_4c/relu_3x3_reduce <- inception_4c/3x3_reduce
I0404 17:01:49.686291 13853 net.cpp:386] inception_4c/relu_3x3_reduce -> inception_4c/3x3_reduce (in-place)
I0404 17:01:49.686311 13853 net.cpp:141] Setting up inception_4c/relu_3x3_reduce
I0404 17:01:49.686329 13853 net.cpp:148] Top shape: 100 128 14 14 (2508800)
I0404 17:01:49.686342 13853 net.cpp:156] Memory required for data: 4325060000
I0404 17:01:49.686355 13853 layer_factory.hpp:77] Creating layer inception_4c/3x3
I0404 17:01:49.686374 13853 net.cpp:91] Creating Layer inception_4c/3x3
I0404 17:01:49.686393 13853 net.cpp:425] inception_4c/3x3 <- inception_4c/3x3_reduce
I0404 17:01:49.686409 13853 net.cpp:399] inception_4c/3x3 -> inception_4c/3x3
I0404 17:01:49.688689 13853 net.cpp:141] Setting up inception_4c/3x3
I0404 17:01:49.688719 13853 net.cpp:148] Top shape: 100 256 14 14 (5017600)
I0404 17:01:49.688735 13853 net.cpp:156] Memory required for data: 4345130400
I0404 17:01:49.688762 13853 layer_factory.hpp:77] Creating layer inception_4c/relu_3x3
I0404 17:01:49.688781 13853 net.cpp:91] Creating Layer inception_4c/relu_3x3
I0404 17:01:49.688823 13853 net.cpp:425] inception_4c/relu_3x3 <- inception_4c/3x3
I0404 17:01:49.688843 13853 net.cpp:386] inception_4c/relu_3x3 -> inception_4c/3x3 (in-place)
I0404 17:01:49.688863 13853 net.cpp:141] Setting up inception_4c/relu_3x3
I0404 17:01:49.688879 13853 net.cpp:148] Top shape: 100 256 14 14 (5017600)
I0404 17:01:49.688892 13853 net.cpp:156] Memory required for data: 4365200800
I0404 17:01:49.688910 13853 layer_factory.hpp:77] Creating layer inception_4c/5x5_reduce
I0404 17:01:49.688933 13853 net.cpp:91] Creating Layer inception_4c/5x5_reduce
I0404 17:01:49.688951 13853 net.cpp:425] inception_4c/5x5_reduce <- inception_4b/output_inception_4b/output_0_split_2
I0404 17:01:49.688969 13853 net.cpp:399] inception_4c/5x5_reduce -> inception_4c/5x5_reduce
I0404 17:01:49.689256 13853 net.cpp:141] Setting up inception_4c/5x5_reduce
I0404 17:01:49.689280 13853 net.cpp:148] Top shape: 100 24 14 14 (470400)
I0404 17:01:49.689294 13853 net.cpp:156] Memory required for data: 4367082400
I0404 17:01:49.689311 13853 layer_factory.hpp:77] Creating layer inception_4c/relu_5x5_reduce
I0404 17:01:49.689327 13853 net.cpp:91] Creating Layer inception_4c/relu_5x5_reduce
I0404 17:01:49.689342 13853 net.cpp:425] inception_4c/relu_5x5_reduce <- inception_4c/5x5_reduce
I0404 17:01:49.689362 13853 net.cpp:386] inception_4c/relu_5x5_reduce -> inception_4c/5x5_reduce (in-place)
I0404 17:01:49.689380 13853 net.cpp:141] Setting up inception_4c/relu_5x5_reduce
I0404 17:01:49.689395 13853 net.cpp:148] Top shape: 100 24 14 14 (470400)
I0404 17:01:49.689409 13853 net.cpp:156] Memory required for data: 4368964000
I0404 17:01:49.689422 13853 layer_factory.hpp:77] Creating layer inception_4c/5x5
I0404 17:01:49.689445 13853 net.cpp:91] Creating Layer inception_4c/5x5
I0404 17:01:49.689460 13853 net.cpp:425] inception_4c/5x5 <- inception_4c/5x5_reduce
I0404 17:01:49.689477 13853 net.cpp:399] inception_4c/5x5 -> inception_4c/5x5
I0404 17:01:49.689887 13853 net.cpp:141] Setting up inception_4c/5x5
I0404 17:01:49.689913 13853 net.cpp:148] Top shape: 100 64 14 14 (1254400)
I0404 17:01:49.689929 13853 net.cpp:156] Memory required for data: 4373981600
I0404 17:01:49.689945 13853 layer_factory.hpp:77] Creating layer inception_4c/relu_5x5
I0404 17:01:49.689965 13853 net.cpp:91] Creating Layer inception_4c/relu_5x5
I0404 17:01:49.689981 13853 net.cpp:425] inception_4c/relu_5x5 <- inception_4c/5x5
I0404 17:01:49.689997 13853 net.cpp:386] inception_4c/relu_5x5 -> inception_4c/5x5 (in-place)
I0404 17:01:49.690016 13853 net.cpp:141] Setting up inception_4c/relu_5x5
I0404 17:01:49.690032 13853 net.cpp:148] Top shape: 100 64 14 14 (1254400)
I0404 17:01:49.690044 13853 net.cpp:156] Memory required for data: 4378999200
I0404 17:01:49.690058 13853 layer_factory.hpp:77] Creating layer inception_4c/pool
I0404 17:01:49.690076 13853 net.cpp:91] Creating Layer inception_4c/pool
I0404 17:01:49.690091 13853 net.cpp:425] inception_4c/pool <- inception_4b/output_inception_4b/output_0_split_3
I0404 17:01:49.690109 13853 net.cpp:399] inception_4c/pool -> inception_4c/pool
I0404 17:01:49.690171 13853 net.cpp:141] Setting up inception_4c/pool
I0404 17:01:49.690193 13853 net.cpp:148] Top shape: 100 512 14 14 (10035200)
I0404 17:01:49.690207 13853 net.cpp:156] Memory required for data: 4419140000
I0404 17:01:49.690220 13853 layer_factory.hpp:77] Creating layer inception_4c/pool_proj
I0404 17:01:49.690240 13853 net.cpp:91] Creating Layer inception_4c/pool_proj
I0404 17:01:49.690258 13853 net.cpp:425] inception_4c/pool_proj <- inception_4c/pool
I0404 17:01:49.690276 13853 net.cpp:399] inception_4c/pool_proj -> inception_4c/pool_proj
I0404 17:01:49.690641 13853 net.cpp:141] Setting up inception_4c/pool_proj
I0404 17:01:49.690664 13853 net.cpp:148] Top shape: 100 64 14 14 (1254400)
I0404 17:01:49.690676 13853 net.cpp:156] Memory required for data: 4424157600
I0404 17:01:49.690692 13853 layer_factory.hpp:77] Creating layer inception_4c/relu_pool_proj
I0404 17:01:49.690709 13853 net.cpp:91] Creating Layer inception_4c/relu_pool_proj
I0404 17:01:49.690737 13853 net.cpp:425] inception_4c/relu_pool_proj <- inception_4c/pool_proj
I0404 17:01:49.690757 13853 net.cpp:386] inception_4c/relu_pool_proj -> inception_4c/pool_proj (in-place)
I0404 17:01:49.690775 13853 net.cpp:141] Setting up inception_4c/relu_pool_proj
I0404 17:01:49.690791 13853 net.cpp:148] Top shape: 100 64 14 14 (1254400)
I0404 17:01:49.690804 13853 net.cpp:156] Memory required for data: 4429175200
I0404 17:01:49.690817 13853 layer_factory.hpp:77] Creating layer inception_4c/output
I0404 17:01:49.690834 13853 net.cpp:91] Creating Layer inception_4c/output
I0404 17:01:49.690846 13853 net.cpp:425] inception_4c/output <- inception_4c/1x1
I0404 17:01:49.690861 13853 net.cpp:425] inception_4c/output <- inception_4c/3x3
I0404 17:01:49.690876 13853 net.cpp:425] inception_4c/output <- inception_4c/5x5
I0404 17:01:49.690892 13853 net.cpp:425] inception_4c/output <- inception_4c/pool_proj
I0404 17:01:49.690927 13853 net.cpp:399] inception_4c/output -> inception_4c/output
I0404 17:01:49.690968 13853 net.cpp:141] Setting up inception_4c/output
I0404 17:01:49.691001 13853 net.cpp:148] Top shape: 100 512 14 14 (10035200)
I0404 17:01:49.691016 13853 net.cpp:156] Memory required for data: 4469316000
I0404 17:01:49.691030 13853 layer_factory.hpp:77] Creating layer inception_4c/output_inception_4c/output_0_split
I0404 17:01:49.691047 13853 net.cpp:91] Creating Layer inception_4c/output_inception_4c/output_0_split
I0404 17:01:49.691063 13853 net.cpp:425] inception_4c/output_inception_4c/output_0_split <- inception_4c/output
I0404 17:01:49.691083 13853 net.cpp:399] inception_4c/output_inception_4c/output_0_split -> inception_4c/output_inception_4c/output_0_split_0
I0404 17:01:49.691105 13853 net.cpp:399] inception_4c/output_inception_4c/output_0_split -> inception_4c/output_inception_4c/output_0_split_1
I0404 17:01:49.691125 13853 net.cpp:399] inception_4c/output_inception_4c/output_0_split -> inception_4c/output_inception_4c/output_0_split_2
I0404 17:01:49.691145 13853 net.cpp:399] inception_4c/output_inception_4c/output_0_split -> inception_4c/output_inception_4c/output_0_split_3
I0404 17:01:49.691211 13853 net.cpp:141] Setting up inception_4c/output_inception_4c/output_0_split
I0404 17:01:49.691236 13853 net.cpp:148] Top shape: 100 512 14 14 (10035200)
I0404 17:01:49.691251 13853 net.cpp:148] Top shape: 100 512 14 14 (10035200)
I0404 17:01:49.691278 13853 net.cpp:148] Top shape: 100 512 14 14 (10035200)
I0404 17:01:49.691293 13853 net.cpp:148] Top shape: 100 512 14 14 (10035200)
I0404 17:01:49.691305 13853 net.cpp:156] Memory required for data: 4629879200
I0404 17:01:49.691319 13853 layer_factory.hpp:77] Creating layer inception_4d/1x1
I0404 17:01:49.691341 13853 net.cpp:91] Creating Layer inception_4d/1x1
I0404 17:01:49.691357 13853 net.cpp:425] inception_4d/1x1 <- inception_4c/output_inception_4c/output_0_split_0
I0404 17:01:49.691375 13853 net.cpp:399] inception_4d/1x1 -> inception_4d/1x1
I0404 17:01:49.691886 13853 net.cpp:141] Setting up inception_4d/1x1
I0404 17:01:49.691915 13853 net.cpp:148] Top shape: 100 112 14 14 (2195200)
I0404 17:01:49.691931 13853 net.cpp:156] Memory required for data: 4638660000
I0404 17:01:49.691947 13853 layer_factory.hpp:77] Creating layer inception_4d/relu_1x1
I0404 17:01:49.691965 13853 net.cpp:91] Creating Layer inception_4d/relu_1x1
I0404 17:01:49.691980 13853 net.cpp:425] inception_4d/relu_1x1 <- inception_4d/1x1
I0404 17:01:49.691999 13853 net.cpp:386] inception_4d/relu_1x1 -> inception_4d/1x1 (in-place)
I0404 17:01:49.692018 13853 net.cpp:141] Setting up inception_4d/relu_1x1
I0404 17:01:49.692034 13853 net.cpp:148] Top shape: 100 112 14 14 (2195200)
I0404 17:01:49.692049 13853 net.cpp:156] Memory required for data: 4647440800
I0404 17:01:49.692061 13853 layer_factory.hpp:77] Creating layer inception_4d/3x3_reduce
I0404 17:01:49.692082 13853 net.cpp:91] Creating Layer inception_4d/3x3_reduce
I0404 17:01:49.692098 13853 net.cpp:425] inception_4d/3x3_reduce <- inception_4c/output_inception_4c/output_0_split_1
I0404 17:01:49.692116 13853 net.cpp:399] inception_4d/3x3_reduce -> inception_4d/3x3_reduce
I0404 17:01:49.692739 13853 net.cpp:141] Setting up inception_4d/3x3_reduce
I0404 17:01:49.692762 13853 net.cpp:148] Top shape: 100 144 14 14 (2822400)
I0404 17:01:49.692775 13853 net.cpp:156] Memory required for data: 4658730400
I0404 17:01:49.692791 13853 layer_factory.hpp:77] Creating layer inception_4d/relu_3x3_reduce
I0404 17:01:49.692808 13853 net.cpp:91] Creating Layer inception_4d/relu_3x3_reduce
I0404 17:01:49.692823 13853 net.cpp:425] inception_4d/relu_3x3_reduce <- inception_4d/3x3_reduce
I0404 17:01:49.692842 13853 net.cpp:386] inception_4d/relu_3x3_reduce -> inception_4d/3x3_reduce (in-place)
I0404 17:01:49.692860 13853 net.cpp:141] Setting up inception_4d/relu_3x3_reduce
I0404 17:01:49.692878 13853 net.cpp:148] Top shape: 100 144 14 14 (2822400)
I0404 17:01:49.692890 13853 net.cpp:156] Memory required for data: 4670020000
I0404 17:01:49.692908 13853 layer_factory.hpp:77] Creating layer inception_4d/3x3
I0404 17:01:49.692930 13853 net.cpp:91] Creating Layer inception_4d/3x3
I0404 17:01:49.692958 13853 net.cpp:425] inception_4d/3x3 <- inception_4d/3x3_reduce
I0404 17:01:49.692977 13853 net.cpp:399] inception_4d/3x3 -> inception_4d/3x3
I0404 17:01:49.696086 13853 net.cpp:141] Setting up inception_4d/3x3
I0404 17:01:49.696118 13853 net.cpp:148] Top shape: 100 288 14 14 (5644800)
I0404 17:01:49.696132 13853 net.cpp:156] Memory required for data: 4692599200
I0404 17:01:49.696149 13853 layer_factory.hpp:77] Creating layer inception_4d/relu_3x3
I0404 17:01:49.696168 13853 net.cpp:91] Creating Layer inception_4d/relu_3x3
I0404 17:01:49.696185 13853 net.cpp:425] inception_4d/relu_3x3 <- inception_4d/3x3
I0404 17:01:49.696202 13853 net.cpp:386] inception_4d/relu_3x3 -> inception_4d/3x3 (in-place)
I0404 17:01:49.696220 13853 net.cpp:141] Setting up inception_4d/relu_3x3
I0404 17:01:49.696236 13853 net.cpp:148] Top shape: 100 288 14 14 (5644800)
I0404 17:01:49.696249 13853 net.cpp:156] Memory required for data: 4715178400
I0404 17:01:49.696262 13853 layer_factory.hpp:77] Creating layer inception_4d/5x5_reduce
I0404 17:01:49.696285 13853 net.cpp:91] Creating Layer inception_4d/5x5_reduce
I0404 17:01:49.696300 13853 net.cpp:425] inception_4d/5x5_reduce <- inception_4c/output_inception_4c/output_0_split_2
I0404 17:01:49.696321 13853 net.cpp:399] inception_4d/5x5_reduce -> inception_4d/5x5_reduce
I0404 17:01:49.696619 13853 net.cpp:141] Setting up inception_4d/5x5_reduce
I0404 17:01:49.696642 13853 net.cpp:148] Top shape: 100 32 14 14 (627200)
I0404 17:01:49.696655 13853 net.cpp:156] Memory required for data: 4717687200
I0404 17:01:49.696672 13853 layer_factory.hpp:77] Creating layer inception_4d/relu_5x5_reduce
I0404 17:01:49.696689 13853 net.cpp:91] Creating Layer inception_4d/relu_5x5_reduce
I0404 17:01:49.696704 13853 net.cpp:425] inception_4d/relu_5x5_reduce <- inception_4d/5x5_reduce
I0404 17:01:49.696720 13853 net.cpp:386] inception_4d/relu_5x5_reduce -> inception_4d/5x5_reduce (in-place)
I0404 17:01:49.696738 13853 net.cpp:141] Setting up inception_4d/relu_5x5_reduce
I0404 17:01:49.696753 13853 net.cpp:148] Top shape: 100 32 14 14 (627200)
I0404 17:01:49.696768 13853 net.cpp:156] Memory required for data: 4720196000
I0404 17:01:49.696780 13853 layer_factory.hpp:77] Creating layer inception_4d/5x5
I0404 17:01:49.696802 13853 net.cpp:91] Creating Layer inception_4d/5x5
I0404 17:01:49.696818 13853 net.cpp:425] inception_4d/5x5 <- inception_4d/5x5_reduce
I0404 17:01:49.696840 13853 net.cpp:399] inception_4d/5x5 -> inception_4d/5x5
I0404 17:01:49.697324 13853 net.cpp:141] Setting up inception_4d/5x5
I0404 17:01:49.697347 13853 net.cpp:148] Top shape: 100 64 14 14 (1254400)
I0404 17:01:49.697361 13853 net.cpp:156] Memory required for data: 4725213600
I0404 17:01:49.697378 13853 layer_factory.hpp:77] Creating layer inception_4d/relu_5x5
I0404 17:01:49.697396 13853 net.cpp:91] Creating Layer inception_4d/relu_5x5
I0404 17:01:49.697412 13853 net.cpp:425] inception_4d/relu_5x5 <- inception_4d/5x5
I0404 17:01:49.697430 13853 net.cpp:386] inception_4d/relu_5x5 -> inception_4d/5x5 (in-place)
I0404 17:01:49.697463 13853 net.cpp:141] Setting up inception_4d/relu_5x5
I0404 17:01:49.697480 13853 net.cpp:148] Top shape: 100 64 14 14 (1254400)
I0404 17:01:49.697494 13853 net.cpp:156] Memory required for data: 4730231200
I0404 17:01:49.697507 13853 layer_factory.hpp:77] Creating layer inception_4d/pool
I0404 17:01:49.697526 13853 net.cpp:91] Creating Layer inception_4d/pool
I0404 17:01:49.697542 13853 net.cpp:425] inception_4d/pool <- inception_4c/output_inception_4c/output_0_split_3
I0404 17:01:49.697559 13853 net.cpp:399] inception_4d/pool -> inception_4d/pool
I0404 17:01:49.697609 13853 net.cpp:141] Setting up inception_4d/pool
I0404 17:01:49.697631 13853 net.cpp:148] Top shape: 100 512 14 14 (10035200)
I0404 17:01:49.697644 13853 net.cpp:156] Memory required for data: 4770372000
I0404 17:01:49.697657 13853 layer_factory.hpp:77] Creating layer inception_4d/pool_proj
I0404 17:01:49.697679 13853 net.cpp:91] Creating Layer inception_4d/pool_proj
I0404 17:01:49.697695 13853 net.cpp:425] inception_4d/pool_proj <- inception_4d/pool
I0404 17:01:49.697713 13853 net.cpp:399] inception_4d/pool_proj -> inception_4d/pool_proj
I0404 17:01:49.698632 13853 net.cpp:141] Setting up inception_4d/pool_proj
I0404 17:01:49.698660 13853 net.cpp:148] Top shape: 100 64 14 14 (1254400)
I0404 17:01:49.698675 13853 net.cpp:156] Memory required for data: 4775389600
I0404 17:01:49.698691 13853 layer_factory.hpp:77] Creating layer inception_4d/relu_pool_proj
I0404 17:01:49.698709 13853 net.cpp:91] Creating Layer inception_4d/relu_pool_proj
I0404 17:01:49.698725 13853 net.cpp:425] inception_4d/relu_pool_proj <- inception_4d/pool_proj
I0404 17:01:49.698745 13853 net.cpp:386] inception_4d/relu_pool_proj -> inception_4d/pool_proj (in-place)
I0404 17:01:49.698765 13853 net.cpp:141] Setting up inception_4d/relu_pool_proj
I0404 17:01:49.698782 13853 net.cpp:148] Top shape: 100 64 14 14 (1254400)
I0404 17:01:49.698796 13853 net.cpp:156] Memory required for data: 4780407200
I0404 17:01:49.698809 13853 layer_factory.hpp:77] Creating layer inception_4d/output
I0404 17:01:49.698825 13853 net.cpp:91] Creating Layer inception_4d/output
I0404 17:01:49.698842 13853 net.cpp:425] inception_4d/output <- inception_4d/1x1
I0404 17:01:49.698858 13853 net.cpp:425] inception_4d/output <- inception_4d/3x3
I0404 17:01:49.698873 13853 net.cpp:425] inception_4d/output <- inception_4d/5x5
I0404 17:01:49.698889 13853 net.cpp:425] inception_4d/output <- inception_4d/pool_proj
I0404 17:01:49.698910 13853 net.cpp:399] inception_4d/output -> inception_4d/output
I0404 17:01:49.698963 13853 net.cpp:141] Setting up inception_4d/output
I0404 17:01:49.698987 13853 net.cpp:148] Top shape: 100 528 14 14 (10348800)
I0404 17:01:49.699002 13853 net.cpp:156] Memory required for data: 4821802400
I0404 17:01:49.699015 13853 layer_factory.hpp:77] Creating layer inception_4d/output_inception_4d/output_0_split
I0404 17:01:49.699034 13853 net.cpp:91] Creating Layer inception_4d/output_inception_4d/output_0_split
I0404 17:01:49.699051 13853 net.cpp:425] inception_4d/output_inception_4d/output_0_split <- inception_4d/output
I0404 17:01:49.699069 13853 net.cpp:399] inception_4d/output_inception_4d/output_0_split -> inception_4d/output_inception_4d/output_0_split_0
I0404 17:01:49.699089 13853 net.cpp:399] inception_4d/output_inception_4d/output_0_split -> inception_4d/output_inception_4d/output_0_split_1
I0404 17:01:49.699108 13853 net.cpp:399] inception_4d/output_inception_4d/output_0_split -> inception_4d/output_inception_4d/output_0_split_2
I0404 17:01:49.699128 13853 net.cpp:399] inception_4d/output_inception_4d/output_0_split -> inception_4d/output_inception_4d/output_0_split_3
I0404 17:01:49.699147 13853 net.cpp:399] inception_4d/output_inception_4d/output_0_split -> inception_4d/output_inception_4d/output_0_split_4
I0404 17:01:49.699225 13853 net.cpp:141] Setting up inception_4d/output_inception_4d/output_0_split
I0404 17:01:49.699260 13853 net.cpp:148] Top shape: 100 528 14 14 (10348800)
I0404 17:01:49.699275 13853 net.cpp:148] Top shape: 100 528 14 14 (10348800)
I0404 17:01:49.699290 13853 net.cpp:148] Top shape: 100 528 14 14 (10348800)
I0404 17:01:49.699321 13853 net.cpp:148] Top shape: 100 528 14 14 (10348800)
I0404 17:01:49.699336 13853 net.cpp:148] Top shape: 100 528 14 14 (10348800)
I0404 17:01:49.699349 13853 net.cpp:156] Memory required for data: 5028778400
I0404 17:01:49.699362 13853 layer_factory.hpp:77] Creating layer loss2/ave_pool
I0404 17:01:49.699379 13853 net.cpp:91] Creating Layer loss2/ave_pool
I0404 17:01:49.699396 13853 net.cpp:425] loss2/ave_pool <- inception_4d/output_inception_4d/output_0_split_0
I0404 17:01:49.699416 13853 net.cpp:399] loss2/ave_pool -> loss2/ave_pool
I0404 17:01:49.699453 13853 net.cpp:141] Setting up loss2/ave_pool
I0404 17:01:49.699476 13853 net.cpp:148] Top shape: 100 528 4 4 (844800)
I0404 17:01:49.699489 13853 net.cpp:156] Memory required for data: 5032157600
I0404 17:01:49.699503 13853 layer_factory.hpp:77] Creating layer loss2/conv
I0404 17:01:49.699529 13853 net.cpp:91] Creating Layer loss2/conv
I0404 17:01:49.699548 13853 net.cpp:425] loss2/conv <- loss2/ave_pool
I0404 17:01:49.699565 13853 net.cpp:399] loss2/conv -> loss2/conv
I0404 17:01:49.700670 13853 net.cpp:141] Setting up loss2/conv
I0404 17:01:49.700698 13853 net.cpp:148] Top shape: 100 128 4 4 (204800)
I0404 17:01:49.700713 13853 net.cpp:156] Memory required for data: 5032976800
I0404 17:01:49.700731 13853 layer_factory.hpp:77] Creating layer loss2/relu_conv
I0404 17:01:49.700748 13853 net.cpp:91] Creating Layer loss2/relu_conv
I0404 17:01:49.700764 13853 net.cpp:425] loss2/relu_conv <- loss2/conv
I0404 17:01:49.700780 13853 net.cpp:386] loss2/relu_conv -> loss2/conv (in-place)
I0404 17:01:49.700798 13853 net.cpp:141] Setting up loss2/relu_conv
I0404 17:01:49.700814 13853 net.cpp:148] Top shape: 100 128 4 4 (204800)
I0404 17:01:49.700829 13853 net.cpp:156] Memory required for data: 5033796000
I0404 17:01:49.700841 13853 layer_factory.hpp:77] Creating layer loss2/fc
I0404 17:01:49.700862 13853 net.cpp:91] Creating Layer loss2/fc
I0404 17:01:49.700880 13853 net.cpp:425] loss2/fc <- loss2/conv
I0404 17:01:49.700898 13853 net.cpp:399] loss2/fc -> loss2/fc
I0404 17:01:49.716336 13853 net.cpp:141] Setting up loss2/fc
I0404 17:01:49.716379 13853 net.cpp:148] Top shape: 100 1024 (102400)
I0404 17:01:49.716395 13853 net.cpp:156] Memory required for data: 5034205600
I0404 17:01:49.716413 13853 layer_factory.hpp:77] Creating layer loss2/relu_fc
I0404 17:01:49.716433 13853 net.cpp:91] Creating Layer loss2/relu_fc
I0404 17:01:49.716447 13853 net.cpp:425] loss2/relu_fc <- loss2/fc
I0404 17:01:49.716465 13853 net.cpp:386] loss2/relu_fc -> loss2/fc (in-place)
I0404 17:01:49.716485 13853 net.cpp:141] Setting up loss2/relu_fc
I0404 17:01:49.716500 13853 net.cpp:148] Top shape: 100 1024 (102400)
I0404 17:01:49.716514 13853 net.cpp:156] Memory required for data: 5034615200
I0404 17:01:49.716528 13853 layer_factory.hpp:77] Creating layer loss2/drop_fc
I0404 17:01:49.716544 13853 net.cpp:91] Creating Layer loss2/drop_fc
I0404 17:01:49.716558 13853 net.cpp:425] loss2/drop_fc <- loss2/fc
I0404 17:01:49.716574 13853 net.cpp:386] loss2/drop_fc -> loss2/fc (in-place)
I0404 17:01:49.716611 13853 net.cpp:141] Setting up loss2/drop_fc
I0404 17:01:49.716632 13853 net.cpp:148] Top shape: 100 1024 (102400)
I0404 17:01:49.716645 13853 net.cpp:156] Memory required for data: 5035024800
I0404 17:01:49.716658 13853 layer_factory.hpp:77] Creating layer loss2/classifier_plantvillage
I0404 17:01:49.716677 13853 net.cpp:91] Creating Layer loss2/classifier_plantvillage
I0404 17:01:49.716694 13853 net.cpp:425] loss2/classifier_plantvillage <- loss2/fc
I0404 17:01:49.716712 13853 net.cpp:399] loss2/classifier_plantvillage -> loss2/classifier_plantvillage
I0404 17:01:49.717021 13853 net.cpp:141] Setting up loss2/classifier_plantvillage
I0404 17:01:49.717044 13853 net.cpp:148] Top shape: 100 38 (3800)
I0404 17:01:49.717058 13853 net.cpp:156] Memory required for data: 5035040000
I0404 17:01:49.717074 13853 layer_factory.hpp:77] Creating layer inception_4e/1x1
I0404 17:01:49.717098 13853 net.cpp:91] Creating Layer inception_4e/1x1
I0404 17:01:49.717115 13853 net.cpp:425] inception_4e/1x1 <- inception_4d/output_inception_4d/output_0_split_1
I0404 17:01:49.717150 13853 net.cpp:399] inception_4e/1x1 -> inception_4e/1x1
I0404 17:01:49.718046 13853 net.cpp:141] Setting up inception_4e/1x1
I0404 17:01:49.718070 13853 net.cpp:148] Top shape: 100 256 14 14 (5017600)
I0404 17:01:49.718083 13853 net.cpp:156] Memory required for data: 5055110400
I0404 17:01:49.718099 13853 layer_factory.hpp:77] Creating layer inception_4e/relu_1x1
I0404 17:01:49.718116 13853 net.cpp:91] Creating Layer inception_4e/relu_1x1
I0404 17:01:49.718132 13853 net.cpp:425] inception_4e/relu_1x1 <- inception_4e/1x1
I0404 17:01:49.718155 13853 net.cpp:386] inception_4e/relu_1x1 -> inception_4e/1x1 (in-place)
I0404 17:01:49.718174 13853 net.cpp:141] Setting up inception_4e/relu_1x1
I0404 17:01:49.718190 13853 net.cpp:148] Top shape: 100 256 14 14 (5017600)
I0404 17:01:49.718204 13853 net.cpp:156] Memory required for data: 5075180800
I0404 17:01:49.718215 13853 layer_factory.hpp:77] Creating layer inception_4e/3x3_reduce
I0404 17:01:49.718237 13853 net.cpp:91] Creating Layer inception_4e/3x3_reduce
I0404 17:01:49.718253 13853 net.cpp:425] inception_4e/3x3_reduce <- inception_4d/output_inception_4d/output_0_split_2
I0404 17:01:49.718271 13853 net.cpp:399] inception_4e/3x3_reduce -> inception_4e/3x3_reduce
I0404 17:01:49.719441 13853 net.cpp:141] Setting up inception_4e/3x3_reduce
I0404 17:01:49.719468 13853 net.cpp:148] Top shape: 100 160 14 14 (3136000)
I0404 17:01:49.719483 13853 net.cpp:156] Memory required for data: 5087724800
I0404 17:01:49.719501 13853 layer_factory.hpp:77] Creating layer inception_4e/relu_3x3_reduce
I0404 17:01:49.719517 13853 net.cpp:91] Creating Layer inception_4e/relu_3x3_reduce
I0404 17:01:49.719533 13853 net.cpp:425] inception_4e/relu_3x3_reduce <- inception_4e/3x3_reduce
I0404 17:01:49.719548 13853 net.cpp:386] inception_4e/relu_3x3_reduce -> inception_4e/3x3_reduce (in-place)
I0404 17:01:49.719565 13853 net.cpp:141] Setting up inception_4e/relu_3x3_reduce
I0404 17:01:49.719581 13853 net.cpp:148] Top shape: 100 160 14 14 (3136000)
I0404 17:01:49.719594 13853 net.cpp:156] Memory required for data: 5100268800
I0404 17:01:49.719607 13853 layer_factory.hpp:77] Creating layer inception_4e/3x3
I0404 17:01:49.719630 13853 net.cpp:91] Creating Layer inception_4e/3x3
I0404 17:01:49.719645 13853 net.cpp:425] inception_4e/3x3 <- inception_4e/3x3_reduce
I0404 17:01:49.719663 13853 net.cpp:399] inception_4e/3x3 -> inception_4e/3x3
I0404 17:01:49.723255 13853 net.cpp:141] Setting up inception_4e/3x3
I0404 17:01:49.723284 13853 net.cpp:148] Top shape: 100 320 14 14 (6272000)
I0404 17:01:49.723299 13853 net.cpp:156] Memory required for data: 5125356800
I0404 17:01:49.723315 13853 layer_factory.hpp:77] Creating layer inception_4e/relu_3x3
I0404 17:01:49.723335 13853 net.cpp:91] Creating Layer inception_4e/relu_3x3
I0404 17:01:49.723351 13853 net.cpp:425] inception_4e/relu_3x3 <- inception_4e/3x3
I0404 17:01:49.723366 13853 net.cpp:386] inception_4e/relu_3x3 -> inception_4e/3x3 (in-place)
I0404 17:01:49.723386 13853 net.cpp:141] Setting up inception_4e/relu_3x3
I0404 17:01:49.723402 13853 net.cpp:148] Top shape: 100 320 14 14 (6272000)
I0404 17:01:49.723414 13853 net.cpp:156] Memory required for data: 5150444800
I0404 17:01:49.723426 13853 layer_factory.hpp:77] Creating layer inception_4e/5x5_reduce
I0404 17:01:49.723448 13853 net.cpp:91] Creating Layer inception_4e/5x5_reduce
I0404 17:01:49.723464 13853 net.cpp:425] inception_4e/5x5_reduce <- inception_4d/output_inception_4d/output_0_split_3
I0404 17:01:49.723480 13853 net.cpp:399] inception_4e/5x5_reduce -> inception_4e/5x5_reduce
I0404 17:01:49.723775 13853 net.cpp:141] Setting up inception_4e/5x5_reduce
I0404 17:01:49.723800 13853 net.cpp:148] Top shape: 100 32 14 14 (627200)
I0404 17:01:49.723815 13853 net.cpp:156] Memory required for data: 5152953600
I0404 17:01:49.723832 13853 layer_factory.hpp:77] Creating layer inception_4e/relu_5x5_reduce
I0404 17:01:49.723848 13853 net.cpp:91] Creating Layer inception_4e/relu_5x5_reduce
I0404 17:01:49.723877 13853 net.cpp:425] inception_4e/relu_5x5_reduce <- inception_4e/5x5_reduce
I0404 17:01:49.723894 13853 net.cpp:386] inception_4e/relu_5x5_reduce -> inception_4e/5x5_reduce (in-place)
I0404 17:01:49.723918 13853 net.cpp:141] Setting up inception_4e/relu_5x5_reduce
I0404 17:01:49.723934 13853 net.cpp:148] Top shape: 100 32 14 14 (627200)
I0404 17:01:49.723948 13853 net.cpp:156] Memory required for data: 5155462400
I0404 17:01:49.723960 13853 layer_factory.hpp:77] Creating layer inception_4e/5x5
I0404 17:01:49.723981 13853 net.cpp:91] Creating Layer inception_4e/5x5
I0404 17:01:49.723997 13853 net.cpp:425] inception_4e/5x5 <- inception_4e/5x5_reduce
I0404 17:01:49.724015 13853 net.cpp:399] inception_4e/5x5 -> inception_4e/5x5
I0404 17:01:49.724745 13853 net.cpp:141] Setting up inception_4e/5x5
I0404 17:01:49.724767 13853 net.cpp:148] Top shape: 100 128 14 14 (2508800)
I0404 17:01:49.724782 13853 net.cpp:156] Memory required for data: 5165497600
I0404 17:01:49.724798 13853 layer_factory.hpp:77] Creating layer inception_4e/relu_5x5
I0404 17:01:49.724815 13853 net.cpp:91] Creating Layer inception_4e/relu_5x5
I0404 17:01:49.724830 13853 net.cpp:425] inception_4e/relu_5x5 <- inception_4e/5x5
I0404 17:01:49.724849 13853 net.cpp:386] inception_4e/relu_5x5 -> inception_4e/5x5 (in-place)
I0404 17:01:49.724869 13853 net.cpp:141] Setting up inception_4e/relu_5x5
I0404 17:01:49.724884 13853 net.cpp:148] Top shape: 100 128 14 14 (2508800)
I0404 17:01:49.724897 13853 net.cpp:156] Memory required for data: 5175532800
I0404 17:01:49.724923 13853 layer_factory.hpp:77] Creating layer inception_4e/pool
I0404 17:01:49.724963 13853 net.cpp:91] Creating Layer inception_4e/pool
I0404 17:01:49.724982 13853 net.cpp:425] inception_4e/pool <- inception_4d/output_inception_4d/output_0_split_4
I0404 17:01:49.725000 13853 net.cpp:399] inception_4e/pool -> inception_4e/pool
I0404 17:01:49.725049 13853 net.cpp:141] Setting up inception_4e/pool
I0404 17:01:49.725070 13853 net.cpp:148] Top shape: 100 528 14 14 (10348800)
I0404 17:01:49.725085 13853 net.cpp:156] Memory required for data: 5216928000
I0404 17:01:49.725098 13853 layer_factory.hpp:77] Creating layer inception_4e/pool_proj
I0404 17:01:49.725121 13853 net.cpp:91] Creating Layer inception_4e/pool_proj
I0404 17:01:49.725137 13853 net.cpp:425] inception_4e/pool_proj <- inception_4e/pool
I0404 17:01:49.725154 13853 net.cpp:399] inception_4e/pool_proj -> inception_4e/pool_proj
I0404 17:01:49.725700 13853 net.cpp:141] Setting up inception_4e/pool_proj
I0404 17:01:49.725723 13853 net.cpp:148] Top shape: 100 128 14 14 (2508800)
I0404 17:01:49.725738 13853 net.cpp:156] Memory required for data: 5226963200
I0404 17:01:49.725754 13853 layer_factory.hpp:77] Creating layer inception_4e/relu_pool_proj
I0404 17:01:49.725770 13853 net.cpp:91] Creating Layer inception_4e/relu_pool_proj
I0404 17:01:49.725785 13853 net.cpp:425] inception_4e/relu_pool_proj <- inception_4e/pool_proj
I0404 17:01:49.725803 13853 net.cpp:386] inception_4e/relu_pool_proj -> inception_4e/pool_proj (in-place)
I0404 17:01:49.725821 13853 net.cpp:141] Setting up inception_4e/relu_pool_proj
I0404 17:01:49.725837 13853 net.cpp:148] Top shape: 100 128 14 14 (2508800)
I0404 17:01:49.725850 13853 net.cpp:156] Memory required for data: 5236998400
I0404 17:01:49.725864 13853 layer_factory.hpp:77] Creating layer inception_4e/output
I0404 17:01:49.725879 13853 net.cpp:91] Creating Layer inception_4e/output
I0404 17:01:49.725893 13853 net.cpp:425] inception_4e/output <- inception_4e/1x1
I0404 17:01:49.725914 13853 net.cpp:425] inception_4e/output <- inception_4e/3x3
I0404 17:01:49.725929 13853 net.cpp:425] inception_4e/output <- inception_4e/5x5
I0404 17:01:49.725944 13853 net.cpp:425] inception_4e/output <- inception_4e/pool_proj
I0404 17:01:49.725961 13853 net.cpp:399] inception_4e/output -> inception_4e/output
I0404 17:01:49.725999 13853 net.cpp:141] Setting up inception_4e/output
I0404 17:01:49.726021 13853 net.cpp:148] Top shape: 100 832 14 14 (16307200)
I0404 17:01:49.726034 13853 net.cpp:156] Memory required for data: 5302227200
I0404 17:01:49.726060 13853 layer_factory.hpp:77] Creating layer pool4/3x3_s2
I0404 17:01:49.726078 13853 net.cpp:91] Creating Layer pool4/3x3_s2
I0404 17:01:49.726092 13853 net.cpp:425] pool4/3x3_s2 <- inception_4e/output
I0404 17:01:49.726111 13853 net.cpp:399] pool4/3x3_s2 -> pool4/3x3_s2
I0404 17:01:49.726161 13853 net.cpp:141] Setting up pool4/3x3_s2
I0404 17:01:49.726183 13853 net.cpp:148] Top shape: 100 832 7 7 (4076800)
I0404 17:01:49.726198 13853 net.cpp:156] Memory required for data: 5318534400
I0404 17:01:49.726212 13853 layer_factory.hpp:77] Creating layer pool4/3x3_s2_pool4/3x3_s2_0_split
I0404 17:01:49.726227 13853 net.cpp:91] Creating Layer pool4/3x3_s2_pool4/3x3_s2_0_split
I0404 17:01:49.726243 13853 net.cpp:425] pool4/3x3_s2_pool4/3x3_s2_0_split <- pool4/3x3_s2
I0404 17:01:49.726258 13853 net.cpp:399] pool4/3x3_s2_pool4/3x3_s2_0_split -> pool4/3x3_s2_pool4/3x3_s2_0_split_0
I0404 17:01:49.726275 13853 net.cpp:399] pool4/3x3_s2_pool4/3x3_s2_0_split -> pool4/3x3_s2_pool4/3x3_s2_0_split_1
I0404 17:01:49.726295 13853 net.cpp:399] pool4/3x3_s2_pool4/3x3_s2_0_split -> pool4/3x3_s2_pool4/3x3_s2_0_split_2
I0404 17:01:49.726315 13853 net.cpp:399] pool4/3x3_s2_pool4/3x3_s2_0_split -> pool4/3x3_s2_pool4/3x3_s2_0_split_3
I0404 17:01:49.726378 13853 net.cpp:141] Setting up pool4/3x3_s2_pool4/3x3_s2_0_split
I0404 17:01:49.726399 13853 net.cpp:148] Top shape: 100 832 7 7 (4076800)
I0404 17:01:49.726414 13853 net.cpp:148] Top shape: 100 832 7 7 (4076800)
I0404 17:01:49.726428 13853 net.cpp:148] Top shape: 100 832 7 7 (4076800)
I0404 17:01:49.726443 13853 net.cpp:148] Top shape: 100 832 7 7 (4076800)
I0404 17:01:49.726454 13853 net.cpp:156] Memory required for data: 5383763200
I0404 17:01:49.726467 13853 layer_factory.hpp:77] Creating layer inception_5a/1x1
I0404 17:01:49.726488 13853 net.cpp:91] Creating Layer inception_5a/1x1
I0404 17:01:49.726505 13853 net.cpp:425] inception_5a/1x1 <- pool4/3x3_s2_pool4/3x3_s2_0_split_0
I0404 17:01:49.726523 13853 net.cpp:399] inception_5a/1x1 -> inception_5a/1x1
I0404 17:01:49.728427 13853 net.cpp:141] Setting up inception_5a/1x1
I0404 17:01:49.728459 13853 net.cpp:148] Top shape: 100 256 7 7 (1254400)
I0404 17:01:49.728476 13853 net.cpp:156] Memory required for data: 5388780800
I0404 17:01:49.728492 13853 layer_factory.hpp:77] Creating layer inception_5a/relu_1x1
I0404 17:01:49.728510 13853 net.cpp:91] Creating Layer inception_5a/relu_1x1
I0404 17:01:49.728526 13853 net.cpp:425] inception_5a/relu_1x1 <- inception_5a/1x1
I0404 17:01:49.728543 13853 net.cpp:386] inception_5a/relu_1x1 -> inception_5a/1x1 (in-place)
I0404 17:01:49.728561 13853 net.cpp:141] Setting up inception_5a/relu_1x1
I0404 17:01:49.728577 13853 net.cpp:148] Top shape: 100 256 7 7 (1254400)
I0404 17:01:49.728591 13853 net.cpp:156] Memory required for data: 5393798400
I0404 17:01:49.728605 13853 layer_factory.hpp:77] Creating layer inception_5a/3x3_reduce
I0404 17:01:49.728631 13853 net.cpp:91] Creating Layer inception_5a/3x3_reduce
I0404 17:01:49.728647 13853 net.cpp:425] inception_5a/3x3_reduce <- pool4/3x3_s2_pool4/3x3_s2_0_split_1
I0404 17:01:49.728667 13853 net.cpp:399] inception_5a/3x3_reduce -> inception_5a/3x3_reduce
I0404 17:01:49.730126 13853 net.cpp:141] Setting up inception_5a/3x3_reduce
I0404 17:01:49.730156 13853 net.cpp:148] Top shape: 100 160 7 7 (784000)
I0404 17:01:49.730172 13853 net.cpp:156] Memory required for data: 5396934400
I0404 17:01:49.730190 13853 layer_factory.hpp:77] Creating layer inception_5a/relu_3x3_reduce
I0404 17:01:49.730207 13853 net.cpp:91] Creating Layer inception_5a/relu_3x3_reduce
I0404 17:01:49.730223 13853 net.cpp:425] inception_5a/relu_3x3_reduce <- inception_5a/3x3_reduce
I0404 17:01:49.730239 13853 net.cpp:386] inception_5a/relu_3x3_reduce -> inception_5a/3x3_reduce (in-place)
I0404 17:01:49.730258 13853 net.cpp:141] Setting up inception_5a/relu_3x3_reduce
I0404 17:01:49.730275 13853 net.cpp:148] Top shape: 100 160 7 7 (784000)
I0404 17:01:49.730288 13853 net.cpp:156] Memory required for data: 5400070400
I0404 17:01:49.730301 13853 layer_factory.hpp:77] Creating layer inception_5a/3x3
I0404 17:01:49.730355 13853 net.cpp:91] Creating Layer inception_5a/3x3
I0404 17:01:49.730375 13853 net.cpp:425] inception_5a/3x3 <- inception_5a/3x3_reduce
I0404 17:01:49.730393 13853 net.cpp:399] inception_5a/3x3 -> inception_5a/3x3
I0404 17:01:49.734283 13853 net.cpp:141] Setting up inception_5a/3x3
I0404 17:01:49.734314 13853 net.cpp:148] Top shape: 100 320 7 7 (1568000)
I0404 17:01:49.734329 13853 net.cpp:156] Memory required for data: 5406342400
I0404 17:01:49.734346 13853 layer_factory.hpp:77] Creating layer inception_5a/relu_3x3
I0404 17:01:49.734364 13853 net.cpp:91] Creating Layer inception_5a/relu_3x3
I0404 17:01:49.734385 13853 net.cpp:425] inception_5a/relu_3x3 <- inception_5a/3x3
I0404 17:01:49.734401 13853 net.cpp:386] inception_5a/relu_3x3 -> inception_5a/3x3 (in-place)
I0404 17:01:49.734421 13853 net.cpp:141] Setting up inception_5a/relu_3x3
I0404 17:01:49.734436 13853 net.cpp:148] Top shape: 100 320 7 7 (1568000)
I0404 17:01:49.734450 13853 net.cpp:156] Memory required for data: 5412614400
I0404 17:01:49.734463 13853 layer_factory.hpp:77] Creating layer inception_5a/5x5_reduce
I0404 17:01:49.734485 13853 net.cpp:91] Creating Layer inception_5a/5x5_reduce
I0404 17:01:49.734503 13853 net.cpp:425] inception_5a/5x5_reduce <- pool4/3x3_s2_pool4/3x3_s2_0_split_2
I0404 17:01:49.734520 13853 net.cpp:399] inception_5a/5x5_reduce -> inception_5a/5x5_reduce
I0404 17:01:49.734910 13853 net.cpp:141] Setting up inception_5a/5x5_reduce
I0404 17:01:49.734935 13853 net.cpp:148] Top shape: 100 32 7 7 (156800)
I0404 17:01:49.734963 13853 net.cpp:156] Memory required for data: 5413241600
I0404 17:01:49.734982 13853 layer_factory.hpp:77] Creating layer inception_5a/relu_5x5_reduce
I0404 17:01:49.734999 13853 net.cpp:91] Creating Layer inception_5a/relu_5x5_reduce
I0404 17:01:49.735016 13853 net.cpp:425] inception_5a/relu_5x5_reduce <- inception_5a/5x5_reduce
I0404 17:01:49.735036 13853 net.cpp:386] inception_5a/relu_5x5_reduce -> inception_5a/5x5_reduce (in-place)
I0404 17:01:49.735057 13853 net.cpp:141] Setting up inception_5a/relu_5x5_reduce
I0404 17:01:49.735074 13853 net.cpp:148] Top shape: 100 32 7 7 (156800)
I0404 17:01:49.735088 13853 net.cpp:156] Memory required for data: 5413868800
I0404 17:01:49.735102 13853 layer_factory.hpp:77] Creating layer inception_5a/5x5
I0404 17:01:49.735126 13853 net.cpp:91] Creating Layer inception_5a/5x5
I0404 17:01:49.735157 13853 net.cpp:425] inception_5a/5x5 <- inception_5a/5x5_reduce
I0404 17:01:49.735175 13853 net.cpp:399] inception_5a/5x5 -> inception_5a/5x5
I0404 17:01:49.735944 13853 net.cpp:141] Setting up inception_5a/5x5
I0404 17:01:49.735967 13853 net.cpp:148] Top shape: 100 128 7 7 (627200)
I0404 17:01:49.735981 13853 net.cpp:156] Memory required for data: 5416377600
I0404 17:01:49.735997 13853 layer_factory.hpp:77] Creating layer inception_5a/relu_5x5
I0404 17:01:49.736014 13853 net.cpp:91] Creating Layer inception_5a/relu_5x5
I0404 17:01:49.736029 13853 net.cpp:425] inception_5a/relu_5x5 <- inception_5a/5x5
I0404 17:01:49.736047 13853 net.cpp:386] inception_5a/relu_5x5 -> inception_5a/5x5 (in-place)
I0404 17:01:49.736065 13853 net.cpp:141] Setting up inception_5a/relu_5x5
I0404 17:01:49.736081 13853 net.cpp:148] Top shape: 100 128 7 7 (627200)
I0404 17:01:49.736094 13853 net.cpp:156] Memory required for data: 5418886400
I0404 17:01:49.736107 13853 layer_factory.hpp:77] Creating layer inception_5a/pool
I0404 17:01:49.736124 13853 net.cpp:91] Creating Layer inception_5a/pool
I0404 17:01:49.736137 13853 net.cpp:425] inception_5a/pool <- pool4/3x3_s2_pool4/3x3_s2_0_split_3
I0404 17:01:49.736155 13853 net.cpp:399] inception_5a/pool -> inception_5a/pool
I0404 17:01:49.736208 13853 net.cpp:141] Setting up inception_5a/pool
I0404 17:01:49.736230 13853 net.cpp:148] Top shape: 100 832 7 7 (4076800)
I0404 17:01:49.736244 13853 net.cpp:156] Memory required for data: 5435193600
I0404 17:01:49.736258 13853 layer_factory.hpp:77] Creating layer inception_5a/pool_proj
I0404 17:01:49.736279 13853 net.cpp:91] Creating Layer inception_5a/pool_proj
I0404 17:01:49.736295 13853 net.cpp:425] inception_5a/pool_proj <- inception_5a/pool
I0404 17:01:49.736332 13853 net.cpp:399] inception_5a/pool_proj -> inception_5a/pool_proj
I0404 17:01:49.737650 13853 net.cpp:141] Setting up inception_5a/pool_proj
I0404 17:01:49.737679 13853 net.cpp:148] Top shape: 100 128 7 7 (627200)
I0404 17:01:49.737695 13853 net.cpp:156] Memory required for data: 5437702400
I0404 17:01:49.737712 13853 layer_factory.hpp:77] Creating layer inception_5a/relu_pool_proj
I0404 17:01:49.737731 13853 net.cpp:91] Creating Layer inception_5a/relu_pool_proj
I0404 17:01:49.737748 13853 net.cpp:425] inception_5a/relu_pool_proj <- inception_5a/pool_proj
I0404 17:01:49.737764 13853 net.cpp:386] inception_5a/relu_pool_proj -> inception_5a/pool_proj (in-place)
I0404 17:01:49.737784 13853 net.cpp:141] Setting up inception_5a/relu_pool_proj
I0404 17:01:49.737800 13853 net.cpp:148] Top shape: 100 128 7 7 (627200)
I0404 17:01:49.737814 13853 net.cpp:156] Memory required for data: 5440211200
I0404 17:01:49.737828 13853 layer_factory.hpp:77] Creating layer inception_5a/output
I0404 17:01:49.737843 13853 net.cpp:91] Creating Layer inception_5a/output
I0404 17:01:49.737859 13853 net.cpp:425] inception_5a/output <- inception_5a/1x1
I0404 17:01:49.737874 13853 net.cpp:425] inception_5a/output <- inception_5a/3x3
I0404 17:01:49.737890 13853 net.cpp:425] inception_5a/output <- inception_5a/5x5
I0404 17:01:49.737911 13853 net.cpp:425] inception_5a/output <- inception_5a/pool_proj
I0404 17:01:49.737929 13853 net.cpp:399] inception_5a/output -> inception_5a/output
I0404 17:01:49.737968 13853 net.cpp:141] Setting up inception_5a/output
I0404 17:01:49.737992 13853 net.cpp:148] Top shape: 100 832 7 7 (4076800)
I0404 17:01:49.738004 13853 net.cpp:156] Memory required for data: 5456518400
I0404 17:01:49.738018 13853 layer_factory.hpp:77] Creating layer inception_5a/output_inception_5a/output_0_split
I0404 17:01:49.738036 13853 net.cpp:91] Creating Layer inception_5a/output_inception_5a/output_0_split
I0404 17:01:49.738052 13853 net.cpp:425] inception_5a/output_inception_5a/output_0_split <- inception_5a/output
I0404 17:01:49.738070 13853 net.cpp:399] inception_5a/output_inception_5a/output_0_split -> inception_5a/output_inception_5a/output_0_split_0
I0404 17:01:49.738088 13853 net.cpp:399] inception_5a/output_inception_5a/output_0_split -> inception_5a/output_inception_5a/output_0_split_1
I0404 17:01:49.738107 13853 net.cpp:399] inception_5a/output_inception_5a/output_0_split -> inception_5a/output_inception_5a/output_0_split_2
I0404 17:01:49.738127 13853 net.cpp:399] inception_5a/output_inception_5a/output_0_split -> inception_5a/output_inception_5a/output_0_split_3
I0404 17:01:49.738195 13853 net.cpp:141] Setting up inception_5a/output_inception_5a/output_0_split
I0404 17:01:49.738216 13853 net.cpp:148] Top shape: 100 832 7 7 (4076800)
I0404 17:01:49.738231 13853 net.cpp:148] Top shape: 100 832 7 7 (4076800)
I0404 17:01:49.738246 13853 net.cpp:148] Top shape: 100 832 7 7 (4076800)
I0404 17:01:49.738260 13853 net.cpp:148] Top shape: 100 832 7 7 (4076800)
I0404 17:01:49.738273 13853 net.cpp:156] Memory required for data: 5521747200
I0404 17:01:49.738286 13853 layer_factory.hpp:77] Creating layer inception_5b/1x1
I0404 17:01:49.738307 13853 net.cpp:91] Creating Layer inception_5b/1x1
I0404 17:01:49.738324 13853 net.cpp:425] inception_5b/1x1 <- inception_5a/output_inception_5a/output_0_split_0
I0404 17:01:49.738344 13853 net.cpp:399] inception_5b/1x1 -> inception_5b/1x1
I0404 17:01:49.740905 13853 net.cpp:141] Setting up inception_5b/1x1
I0404 17:01:49.740936 13853 net.cpp:148] Top shape: 100 384 7 7 (1881600)
I0404 17:01:49.740952 13853 net.cpp:156] Memory required for data: 5529273600
I0404 17:01:49.740969 13853 layer_factory.hpp:77] Creating layer inception_5b/relu_1x1
I0404 17:01:49.740986 13853 net.cpp:91] Creating Layer inception_5b/relu_1x1
I0404 17:01:49.741001 13853 net.cpp:425] inception_5b/relu_1x1 <- inception_5b/1x1
I0404 17:01:49.741017 13853 net.cpp:386] inception_5b/relu_1x1 -> inception_5b/1x1 (in-place)
I0404 17:01:49.741035 13853 net.cpp:141] Setting up inception_5b/relu_1x1
I0404 17:01:49.741068 13853 net.cpp:148] Top shape: 100 384 7 7 (1881600)
I0404 17:01:49.741082 13853 net.cpp:156] Memory required for data: 5536800000
I0404 17:01:49.741096 13853 layer_factory.hpp:77] Creating layer inception_5b/3x3_reduce
I0404 17:01:49.741117 13853 net.cpp:91] Creating Layer inception_5b/3x3_reduce
I0404 17:01:49.741133 13853 net.cpp:425] inception_5b/3x3_reduce <- inception_5a/output_inception_5a/output_0_split_1
I0404 17:01:49.741152 13853 net.cpp:399] inception_5b/3x3_reduce -> inception_5b/3x3_reduce
I0404 17:01:49.742763 13853 net.cpp:141] Setting up inception_5b/3x3_reduce
I0404 17:01:49.742792 13853 net.cpp:148] Top shape: 100 192 7 7 (940800)
I0404 17:01:49.742806 13853 net.cpp:156] Memory required for data: 5540563200
I0404 17:01:49.742823 13853 layer_factory.hpp:77] Creating layer inception_5b/relu_3x3_reduce
I0404 17:01:49.742844 13853 net.cpp:91] Creating Layer inception_5b/relu_3x3_reduce
I0404 17:01:49.742861 13853 net.cpp:425] inception_5b/relu_3x3_reduce <- inception_5b/3x3_reduce
I0404 17:01:49.742877 13853 net.cpp:386] inception_5b/relu_3x3_reduce -> inception_5b/3x3_reduce (in-place)
I0404 17:01:49.742897 13853 net.cpp:141] Setting up inception_5b/relu_3x3_reduce
I0404 17:01:49.742918 13853 net.cpp:148] Top shape: 100 192 7 7 (940800)
I0404 17:01:49.742931 13853 net.cpp:156] Memory required for data: 5544326400
I0404 17:01:49.742957 13853 layer_factory.hpp:77] Creating layer inception_5b/3x3
I0404 17:01:49.742980 13853 net.cpp:91] Creating Layer inception_5b/3x3
I0404 17:01:49.742996 13853 net.cpp:425] inception_5b/3x3 <- inception_5b/3x3_reduce
I0404 17:01:49.743016 13853 net.cpp:399] inception_5b/3x3 -> inception_5b/3x3
I0404 17:01:49.748173 13853 net.cpp:141] Setting up inception_5b/3x3
I0404 17:01:49.748203 13853 net.cpp:148] Top shape: 100 384 7 7 (1881600)
I0404 17:01:49.748217 13853 net.cpp:156] Memory required for data: 5551852800
I0404 17:01:49.748234 13853 layer_factory.hpp:77] Creating layer inception_5b/relu_3x3
I0404 17:01:49.748250 13853 net.cpp:91] Creating Layer inception_5b/relu_3x3
I0404 17:01:49.748265 13853 net.cpp:425] inception_5b/relu_3x3 <- inception_5b/3x3
I0404 17:01:49.748283 13853 net.cpp:386] inception_5b/relu_3x3 -> inception_5b/3x3 (in-place)
I0404 17:01:49.748302 13853 net.cpp:141] Setting up inception_5b/relu_3x3
I0404 17:01:49.748317 13853 net.cpp:148] Top shape: 100 384 7 7 (1881600)
I0404 17:01:49.748330 13853 net.cpp:156] Memory required for data: 5559379200
I0404 17:01:49.748342 13853 layer_factory.hpp:77] Creating layer inception_5b/5x5_reduce
I0404 17:01:49.748361 13853 net.cpp:91] Creating Layer inception_5b/5x5_reduce
I0404 17:01:49.748376 13853 net.cpp:425] inception_5b/5x5_reduce <- inception_5a/output_inception_5a/output_0_split_2
I0404 17:01:49.748396 13853 net.cpp:399] inception_5b/5x5_reduce -> inception_5b/5x5_reduce
I0404 17:01:49.748831 13853 net.cpp:141] Setting up inception_5b/5x5_reduce
I0404 17:01:49.748853 13853 net.cpp:148] Top shape: 100 48 7 7 (235200)
I0404 17:01:49.748867 13853 net.cpp:156] Memory required for data: 5560320000
I0404 17:01:49.748883 13853 layer_factory.hpp:77] Creating layer inception_5b/relu_5x5_reduce
I0404 17:01:49.748903 13853 net.cpp:91] Creating Layer inception_5b/relu_5x5_reduce
I0404 17:01:49.748920 13853 net.cpp:425] inception_5b/relu_5x5_reduce <- inception_5b/5x5_reduce
I0404 17:01:49.748936 13853 net.cpp:386] inception_5b/relu_5x5_reduce -> inception_5b/5x5_reduce (in-place)
I0404 17:01:49.748955 13853 net.cpp:141] Setting up inception_5b/relu_5x5_reduce
I0404 17:01:49.748970 13853 net.cpp:148] Top shape: 100 48 7 7 (235200)
I0404 17:01:49.748982 13853 net.cpp:156] Memory required for data: 5561260800
I0404 17:01:49.748996 13853 layer_factory.hpp:77] Creating layer inception_5b/5x5
I0404 17:01:49.749017 13853 net.cpp:91] Creating Layer inception_5b/5x5
I0404 17:01:49.749032 13853 net.cpp:425] inception_5b/5x5 <- inception_5b/5x5_reduce
I0404 17:01:49.749054 13853 net.cpp:399] inception_5b/5x5 -> inception_5b/5x5
I0404 17:01:49.750063 13853 net.cpp:141] Setting up inception_5b/5x5
I0404 17:01:49.750099 13853 net.cpp:148] Top shape: 100 128 7 7 (627200)
I0404 17:01:49.750114 13853 net.cpp:156] Memory required for data: 5563769600
I0404 17:01:49.750130 13853 layer_factory.hpp:77] Creating layer inception_5b/relu_5x5
I0404 17:01:49.750149 13853 net.cpp:91] Creating Layer inception_5b/relu_5x5
I0404 17:01:49.750165 13853 net.cpp:425] inception_5b/relu_5x5 <- inception_5b/5x5
I0404 17:01:49.750182 13853 net.cpp:386] inception_5b/relu_5x5 -> inception_5b/5x5 (in-place)
I0404 17:01:49.750200 13853 net.cpp:141] Setting up inception_5b/relu_5x5
I0404 17:01:49.750216 13853 net.cpp:148] Top shape: 100 128 7 7 (627200)
I0404 17:01:49.750229 13853 net.cpp:156] Memory required for data: 5566278400
I0404 17:01:49.750244 13853 layer_factory.hpp:77] Creating layer inception_5b/pool
I0404 17:01:49.750259 13853 net.cpp:91] Creating Layer inception_5b/pool
I0404 17:01:49.750273 13853 net.cpp:425] inception_5b/pool <- inception_5a/output_inception_5a/output_0_split_3
I0404 17:01:49.750293 13853 net.cpp:399] inception_5b/pool -> inception_5b/pool
I0404 17:01:49.750344 13853 net.cpp:141] Setting up inception_5b/pool
I0404 17:01:49.750368 13853 net.cpp:148] Top shape: 100 832 7 7 (4076800)
I0404 17:01:49.750383 13853 net.cpp:156] Memory required for data: 5582585600
I0404 17:01:49.750396 13853 layer_factory.hpp:77] Creating layer inception_5b/pool_proj
I0404 17:01:49.750416 13853 net.cpp:91] Creating Layer inception_5b/pool_proj
I0404 17:01:49.750430 13853 net.cpp:425] inception_5b/pool_proj <- inception_5b/pool
I0404 17:01:49.750450 13853 net.cpp:399] inception_5b/pool_proj -> inception_5b/pool_proj
I0404 17:01:49.751754 13853 net.cpp:141] Setting up inception_5b/pool_proj
I0404 17:01:49.751781 13853 net.cpp:148] Top shape: 100 128 7 7 (627200)
I0404 17:01:49.751796 13853 net.cpp:156] Memory required for data: 5585094400
I0404 17:01:49.751813 13853 layer_factory.hpp:77] Creating layer inception_5b/relu_pool_proj
I0404 17:01:49.751833 13853 net.cpp:91] Creating Layer inception_5b/relu_pool_proj
I0404 17:01:49.751849 13853 net.cpp:425] inception_5b/relu_pool_proj <- inception_5b/pool_proj
I0404 17:01:49.751866 13853 net.cpp:386] inception_5b/relu_pool_proj -> inception_5b/pool_proj (in-place)
I0404 17:01:49.751884 13853 net.cpp:141] Setting up inception_5b/relu_pool_proj
I0404 17:01:49.751905 13853 net.cpp:148] Top shape: 100 128 7 7 (627200)
I0404 17:01:49.751920 13853 net.cpp:156] Memory required for data: 5587603200
I0404 17:01:49.751935 13853 layer_factory.hpp:77] Creating layer inception_5b/output
I0404 17:01:49.751952 13853 net.cpp:91] Creating Layer inception_5b/output
I0404 17:01:49.751968 13853 net.cpp:425] inception_5b/output <- inception_5b/1x1
I0404 17:01:49.751983 13853 net.cpp:425] inception_5b/output <- inception_5b/3x3
I0404 17:01:49.751998 13853 net.cpp:425] inception_5b/output <- inception_5b/5x5
I0404 17:01:49.752013 13853 net.cpp:425] inception_5b/output <- inception_5b/pool_proj
I0404 17:01:49.752029 13853 net.cpp:399] inception_5b/output -> inception_5b/output
I0404 17:01:49.752065 13853 net.cpp:141] Setting up inception_5b/output
I0404 17:01:49.752092 13853 net.cpp:148] Top shape: 100 1024 7 7 (5017600)
I0404 17:01:49.752107 13853 net.cpp:156] Memory required for data: 5607673600
I0404 17:01:49.752121 13853 layer_factory.hpp:77] Creating layer pool5/7x7_s1
I0404 17:01:49.752137 13853 net.cpp:91] Creating Layer pool5/7x7_s1
I0404 17:01:49.752152 13853 net.cpp:425] pool5/7x7_s1 <- inception_5b/output
I0404 17:01:49.752171 13853 net.cpp:399] pool5/7x7_s1 -> pool5/7x7_s1
I0404 17:01:49.752207 13853 net.cpp:141] Setting up pool5/7x7_s1
I0404 17:01:49.752228 13853 net.cpp:148] Top shape: 100 1024 1 1 (102400)
I0404 17:01:49.752243 13853 net.cpp:156] Memory required for data: 5608083200
I0404 17:01:49.752255 13853 layer_factory.hpp:77] Creating layer pool5/drop_7x7_s1
I0404 17:01:49.752274 13853 net.cpp:91] Creating Layer pool5/drop_7x7_s1
I0404 17:01:49.752290 13853 net.cpp:425] pool5/drop_7x7_s1 <- pool5/7x7_s1
I0404 17:01:49.752305 13853 net.cpp:386] pool5/drop_7x7_s1 -> pool5/7x7_s1 (in-place)
I0404 17:01:49.752357 13853 net.cpp:141] Setting up pool5/drop_7x7_s1
I0404 17:01:49.752377 13853 net.cpp:148] Top shape: 100 1024 1 1 (102400)
I0404 17:01:49.752390 13853 net.cpp:156] Memory required for data: 5608492800
I0404 17:01:49.752404 13853 layer_factory.hpp:77] Creating layer loss3/classifier_plantvillage
I0404 17:01:49.752421 13853 net.cpp:91] Creating Layer loss3/classifier_plantvillage
I0404 17:01:49.752436 13853 net.cpp:425] loss3/classifier_plantvillage <- pool5/7x7_s1
I0404 17:01:49.752455 13853 net.cpp:399] loss3/classifier_plantvillage -> loss3/classifier_plantvillage
I0404 17:01:49.752776 13853 net.cpp:141] Setting up loss3/classifier_plantvillage
I0404 17:01:49.752799 13853 net.cpp:148] Top shape: 100 38 (3800)
I0404 17:01:49.752812 13853 net.cpp:156] Memory required for data: 5608508000
I0404 17:01:49.752828 13853 layer_factory.hpp:77] Creating layer loss1/loss
I0404 17:01:49.752856 13853 net.cpp:91] Creating Layer loss1/loss
I0404 17:01:49.752871 13853 net.cpp:425] loss1/loss <- loss1/classifier_plantvillage
I0404 17:01:49.752887 13853 net.cpp:425] loss1/loss <- label_data_1_split_0
I0404 17:01:49.752907 13853 net.cpp:399] loss1/loss -> loss1/loss
…
I0404 17:01:49.762670 13853 net.cpp:313] The NetState phase (1) differed from the phase (0) specified by a rule in layer data
I0404 17:01:49.766482 13853 net.cpp:49] Initializing net from parameters: 
state {
  phase: TEST
}
layer {
  name: "data"
  type: "Data"
  top: "data"
  top: "label"
  include {
    phase: TEST
  }
  transform_param {
    mirror: false
    crop_size: 224
    mean_file: "/home/mohanty/data/final_dataset/lmdb/segmented-80-20/mean.binaryproto"
  }
  data_param {
    source: "/home/mohanty/data/final_dataset/lmdb/segmented-80-20/test_db"
    batch_size: 24
    backend: LMDB
  }
}
layer {
  name: "conv1/7x7_s2"
  type: "Convolution"
  bottom: "data"
  top: "conv1/7x7_s2"
  param {
    lr_mult: 1
    decay_mult: 1
  }
  param {
    lr_mult: 2
    decay_mult: 0
  }
  convolution_param {
    num_output: 64
    pad: 3
    kernel_size: 7
    stride: 2
    weight_filler {
      type: "xavier"
      std: 0.1
    }
    bias_filler {
      type: "constant"
      value: 0.6
    }
  }
}
layer {
  name: "conv1/relu_7x7"
  type: "ReLU"
  bottom: "conv1/7x7_s2"
  top: "conv1/7x7_s2"
}
layer {
  name: "pool1/3x3_s2"
  type: "Pooling"
  bottom: "conv1/7x7_s2"
  top: "pool1/3x3_s2"
  pooling_param {
    pool: MAX
    kernel_size: 3
    stride: 2
  }
}
layer {
  name: "pool1/norm1"
  type: "LRN"
  bottom: "pool1/3x3_s2"
  top: "pool1/norm1"
  lrn_param {
    local_size: 5
    alpha: 0.0001
    beta: 0.75
  }
}
layer {
  name: "conv2/3x3_reduce"
  type: "Convolution"
  bottom: "pool1/norm1"
  top: "conv2/3x3_reduce"
  param {
    lr_mult: 1
    decay_mult: 1
  }
  param {
    lr_mult: 2
    decay_mult: 0
  }
  convolution_param {
    num_output: 64
    kernel_size: 1
    weight_filler {
      type: "xavier"
      std: 0.1
    }
    bias_filler {
      type: "constant"
      value: 0.6
    }
  }
}
layer {
  name: "conv2/relu_3x3_reduce"
  type: "ReLU"
  bottom: "conv2/3x3_reduce"
  top: "conv2/3x3_reduce"
}
layer {
  name: "conv2/3x3"
  type: "Convolution"
  bottom: "conv2/3x3_reduce"
  top: "conv2/3x3"
  param {
    lr_mult: 1
    decay_mult: 1
  }
  param {
    lr_mult: 2
    decay_mult: 0
  }
  convolution_param {
    num_output: 192
    pad: 1
    kernel_size: 3
    weight_filler {
      type: "xavier"
      std: 0.03
    }
    bias_filler {
      type: "constant"
      value: 0.6
    }
  }
}
layer {
  name: "conv2/relu_3x3"
  type: "ReLU"
  bottom: "conv2/3x3"
  top: "conv2/3x3"
}
layer {
  name: "conv2/norm2"
  type: "LRN"
  bottom: "conv2/3x3"
  top: "conv2/norm2"
  lrn_param {
    local_size: 5
    alpha: 0.0001
    beta: 0.75
  }
}
layer {
  name: "pool2/3x3_s2"
  type: "Pooling"
  bottom: "conv2/norm2"
  top: "pool2/3x3_s2"
  pooling_param {
    pool: MAX
    kernel_size: 3
    stride: 2
  }
}
layer {
  name: "inception_3a/1x1"
  type: "Convolution"
  bottom: "pool2/3x3_s2"
  top: "inception_3a/1x1"
  param {
    lr_mult: 1
    decay_mult: 1
  }
  param {
    lr_mult: 2
    decay_mult: 0
  }
  convolution_param {
    num_output: 64
    kernel_size: 1
    weight_filler {
      type: "xavier"
      std: 0.03
    }
    bias_filler {
      type: "constant"
      value: 0.6
    }
  }
}
layer {
  name: "inception_3a/relu_1x1"
  type: "ReLU"
  bottom: "inception_3a/1x1"
  top: "inception_3a/1x1"
}
layer {
  name: "inception_3a/3x3_reduce"
  type: "Convolution"
  bottom: "pool2/3x3_s2"
  top: "inception_3a/3x3_reduce"
  param {
    lr_mult: 1
    decay_mult: 1
  }
  param {
    lr_mult: 2
    decay_mult: 0
  }
  convolution_param {
    num_output: 96
    kernel_size: 1
    weight_filler {
      type: "xavier"
      std: 0.09
    }
    bias_filler {
      type: "constant"
      value: 0.6
    }
  }
}
layer {
  name: "inception_3a/relu_3x3_reduce"
  type: "ReLU"
  bottom: "inception_3a/3x3_reduce"
  top: "inception_3a/3x3_reduce"
}
layer {
  name: "inception_3a/3x3"
  type: "Convolution"
  bottom: "inception_3a/3x3_reduce"
  top: "inception_3a/3x3"
  param {
    lr_mult: 1
    decay_mult: 1
  }
  param {
    lr_mult: 2
    decay_mult: 0
  }
  convolution_param {
    num_output: 128
    pad: 1
    kernel_size: 3
    weight_filler {
      type: "xavier"
      std: 0.03
    }
    bias_filler {
      type: "constant"
      value: 0.6
    }
  }
}
layer {
  name: "inception_3a/relu_3x3"
  type: "ReLU"
  bottom: "inception_3a/3x3"
  top: "inception_3a/3x3"
}
layer {
  name: "inception_3a/5x5_reduce"
  type: "Convolution"
  bottom: "pool2/3x3_s2"
  top: "inception_3a/5x5_reduce"
  param {
    lr_mult: 1
    decay_mult: 1
  }
  param {
    lr_mult: 2
    decay_mult: 0
  }
  convolution_param {
    num_output: 16
    kernel_size: 1
    weight_filler {
      type: "xavier"
      std: 0.2
    }
    bias_filler {
      type: "constant"
      value: 0.6
    }
  }
}
layer {
  name: "inception_3a/relu_5x5_reduce"
  type: "ReLU"
  bottom: "inception_3a/5x5_reduce"
  top: "inception_3a/5x5_reduce"
}
layer {
  name: "inception_3a/5x5"
  type: "Convolution"
  bottom: "inception_3a/5x5_reduce"
  top: "inception_3a/5x5"
  param {
    lr_mult: 1
    decay_mult: 1
  }
  param {
    lr_mult: 2
    decay_mult: 0
  }
  convolution_param {
    num_output: 32
    pad: 2
    kernel_size: 5
    weight_filler {
      type: "xavier"
      std: 0.03
    }
    bias_filler {
      type: "constant"
      value: 0.6
    }
  }
}
layer {
  name: "inception_3a/relu_5x5"
  type: "ReLU"
  bottom: "inception_3a/5x5"
  top: "inception_3a/5x5"
}
layer {
  name: "inception_3a/pool"
  type: "Pooling"
  bottom: "pool2/3x3_s2"
  top: "inception_3a/pool"
  pooling_param {
    pool: MAX
    kernel_size: 3
    stride: 1
    pad: 1
  }
}
layer {
  name: "inception_3a/pool_proj"
  type: "Convolution"
  bottom: "inception_3a/pool"
  top: "inception_3a/pool_proj"
  param {
    lr_mult: 1
    decay_mult: 1
  }
  param {
    lr_mult: 2
    decay_mult: 0
  }
  convolution_param {
    num_output: 32
    kernel_size: 1
    weight_filler {
      type: "xavier"
      std: 0.1
    }
    bias_filler {
      type: "constant"
      value: 0.6
    }
  }
}
layer {
  name: "inception_3a/relu_pool_proj"
  type: "ReLU"
  bottom: "inception_3a/pool_proj"
  top: "inception_3a/pool_proj"
}
layer {
  name: "inception_3a/output"
  type: "Concat"
  bottom: "inception_3a/1x1"
  bottom: "inception_3a/3x3"
  bottom: "inception_3a/5x5"
  bottom: "inception_3a/pool_proj"
  top: "inception_3a/output"
}
layer {
  name: "inception_3b/1x1"
  type: "Convolution"
  bottom: "inception_3a/output"
  top: "inception_3b/1x1"
  param {
    lr_mult: 1
    decay_mult: 1
  }
  param {
    lr_mult: 2
    decay_mult: 0
  }
  convolution_param {
    num_output: 128
    kernel_size: 1
    weight_filler {
      type: "xavier"
      std: 0.03
    }
    bias_filler {
      type: "constant"
      value: 0.6
    }
  }
}
layer {
  name: "inception_3b/relu_1x1"
  type: "ReLU"
  bottom: "inception_3b/1x1"
  top: "inception_3b/1x1"
}
layer {
  name: "inception_3b/3x3_reduce"
  type: "Convolution"
  bottom: "inception_3a/output"
  top: "inception_3b/3x3_reduce"
  param {
    lr_mult: 1
    decay_mult: 1
  }
  param {
    lr_mult: 2
    decay_mult: 0
  }
  convolution_param {
    num_output: 128
    kernel_size: 1
    weight_filler {
      type: "xavier"
      std: 0.09
    }
    bias_filler {
      type: "constant"
      value: 0.6
    }
  }
}
layer {
  name: "inception_3b/relu_3x3_reduce"
  type: "ReLU"
  bottom: "inception_3b/3x3_reduce"
  top: "inception_3b/3x3_reduce"
}
layer {
  name: "inception_3b/3x3"
  type: "Convolution"
  bottom: "inception_3b/3x3_reduce"
  top: "inception_3b/3x3"
  param {
    lr_mult: 1
    decay_mult: 1
  }
  param {
    lr_mult: 2
    decay_mult: 0
  }
  convolution_param {
    num_output: 192
    pad: 1
    kernel_size: 3
    weight_filler {
      type: "xavier"
      std: 0.03
    }
    bias_filler {
      type: "constant"
      value: 0.6
    }
  }
}
layer {
  name: "inception_3b/relu_3x3"
  type: "ReLU"
  bottom: "inception_3b/3x3"
  top: "inception_3b/3x3"
}
layer {
  name: "inception_3b/5x5_reduce"
  type: "Convolution"
  bottom: "inception_3a/output"
  top: "inception_3b/5x5_reduce"
  param {
    lr_mult: 1
    decay_mult: 1
  }
  param {
    lr_mult: 2
    decay_mult: 0
  }
  convolution_param {
    num_output: 32
    kernel_size: 1
    weight_filler {
      type: "xavier"
      std: 0.2
    }
    bias_filler {
      type: "constant"
      value: 0.6
    }
  }
}
layer {
  name: "inception_3b/relu_5x5_reduce"
  type: "ReLU"
  bottom: "inception_3b/5x5_reduce"
  top: "inception_3b/5x5_reduce"
}
layer {
  name: "inception_3b/5x5"
  type: "Convolution"
  bottom: "inception_3b/5x5_reduce"
  top: "inception_3b/5x5"
  param {
    lr_mult: 1
    decay_mult: 1
  }
  param {
    lr_mult: 2
    decay_mult: 0
  }
  convolution_param {
    num_output: 96
    pad: 2
    kernel_size: 5
    weight_filler {
      type: "xavier"
      std: 0.03
    }
    bias_filler {
      type: "constant"
      value: 0.6
    }
  }
}
layer {
  name: "inception_3b/relu_5x5"
  type: "ReLU"
  bottom: "inception_3b/5x5"
  top: "inception_3b/5x5"
}
layer {
  name: "inception_3b/pool"
  type: "Pooling"
  bottom: "inception_3a/output"
  top: "inception_3b/pool"
  pooling_param {
    pool: MAX
    kernel_size: 3
    stride: 1
    pad: 1
  }
}
layer {
  name: "inception_3b/pool_proj"
  type: "Convolution"
  bottom: "inception_3b/pool"
  top: "inception_3b/pool_proj"
  param {
    lr_mult: 1
    decay_mult: 1
  }
  param {
    lr_mult: 2
    decay_mult: 0
  }
  convolution_param {
    num_output: 64
    kernel_size: 1
    weight_filler {
      type: "xavier"
      std: 0.1
    }
    bias_filler {
      type: "constant"
      value: 0.6
    }
  }
}
layer {
  name: "inception_3b/relu_pool_proj"
  type: "ReLU"
  bottom: "inception_3b/pool_proj"
  top: "inception_3b/pool_proj"
}
layer {
  name: "inception_3b/output"
  type: "Concat"
  bottom: "inception_3b/1x1"
  bottom: "inception_3b/3x3"
  bottom: "inception_3b/5x5"
  bottom: "inception_3b/pool_proj"
  top: "inception_3b/output"
}
layer {
  name: "pool3/3x3_s2"
  type: "Pooling"
  bottom: "inception_3b/output"
  top: "pool3/3x3_s2"
  pooling_param {
    pool: MAX
    kernel_size: 3
    stride: 2
  }
}
layer {
  name: "inception_4a/1x1"
  type: "Convolution"
  bottom: "pool3/3x3_s2"
  top: "inception_4a/1x1"
  param {
    lr_mult: 1
    decay_mult: 1
  }
  param {
    lr_mult: 2
    decay_mult: 0
  }
  convolution_param {
    num_output: 192
    kernel_size: 1
    weight_filler {
      type: "xavier"
      std: 0.03
    }
    bias_filler {
      type: "constant"
      value: 0.6
    }
  }
}
layer {
  name: "inception_4a/relu_1x1"
  type: "ReLU"
  bottom: "inception_4a/1x1"
  top: "inception_4a/1x1"
}
layer {
  name: "inception_4a/3x3_reduce"
  type: "Convolution"
  bottom: "pool3/3x3_s2"
  top: "inception_4a/3x3_reduce"
  param {
    lr_mult: 1
    decay_mult: 1
  }
  param {
    lr_mult: 2
    decay_mult: 0
  }
  convolution_param {
    num_output: 96
    kernel_size: 1
    weight_filler {
      type: "xavier"
      std: 0.09
    }
    bias_filler {
      type: "constant"
      value: 0.6
    }
  }
}
layer {
  name: "inception_4a/relu_3x3_reduce"
  type: "ReLU"
  bottom: "inception_4a/3x3_reduce"
  top: "inception_4a/3x3_reduce"
}
layer {
  name: "inception_4a/3x3"
  type: "Convolution"
  bottom: "inception_4a/3x3_reduce"
  top: "inception_4a/3x3"
  param {
    lr_mult: 1
    decay_mult: 1
  }
  param {
    lr_mult: 2
    decay_mult: 0
  }
  convolution_param {
    num_output: 208
    pad: 1
    kernel_size: 3
    weight_filler {
      type: "xavier"
      std: 0.03
    }
    bias_filler {
      type: "constant"
      value: 0.6
    }
  }
}
layer {
  name: "inception_4a/relu_3x3"
  type: "ReLU"
  bottom: "inception_4a/3x3"
  top: "inception_4a/3x3"
}
layer {
  name: "inception_4a/5x5_reduce"
  type: "Convolution"
  bottom: "pool3/3x3_s2"
  top: "inception_4a/5x5_reduce"
  param {
    lr_mult: 1
    decay_mult: 1
  }
  param {
    lr_mult: 2
    decay_mult: 0
  }
  convolution_param {
    num_output: 16
    kernel_size: 1
    weight_filler {
      type: "xavier"
      std: 0.2
    }
    bias_filler {
      type: "constant"
      value: 0.6
    }
  }
}
layer {
  name: "inception_4a/relu_5x5_reduce"
  type: "ReLU"
  bottom: "inception_4a/5x5_reduce"
  top: "inception_4a/5x5_reduce"
}
layer {
  name: "inception_4a/5x5"
  type: "Convolution"
  bottom: "inception_4a/5x5_reduce"
  top: "inception_4a/5x5"
  param {
    lr_mult: 1
    decay_mult: 1
  }
  param {
    lr_mult: 2
    decay_mult: 0
  }
  convolution_param {
    num_output: 48
    pad: 2
    kernel_size: 5
    weight_filler {
      type: "xavier"
      std: 0.03
    }
    bias_filler {
      type: "constant"
      value: 0.6
    }
  }
}
layer {
  name: "inception_4a/relu_5x5"
  type: "ReLU"
  bottom: "inception_4a/5x5"
  top: "inception_4a/5x5"
}
layer {
  name: "inception_4a/pool"
  type: "Pooling"
  bottom: "pool3/3x3_s2"
  top: "inception_4a/pool"
  pooling_param {
    pool: MAX
    kernel_size: 3
    stride: 1
    pad: 1
  }
}
layer {
  name: "inception_4a/pool_proj"
  type: "Convolution"
  bottom: "inception_4a/pool"
  top: "inception_4a/pool_proj"
  param {
    lr_mult: 1
    decay_mult: 1
  }
  param {
    lr_mult: 2
    decay_mult: 0
  }
  convolution_param {
    num_output: 64
    kernel_size: 1
    weight_filler {
      type: "xavier"
      std: 0.1
    }
    bias_filler {
      type: "constant"
      value: 0.6
    }
  }
}
layer {
  name: "inception_4a/relu_pool_proj"
  type: "ReLU"
  bottom: "inception_4a/pool_proj"
  top: "inception_4a/pool_proj"
}
layer {
  name: "inception_4a/output"
  type: "Concat"
  bottom: "inception_4a/1x1"
  bottom: "inception_4a/3x3"
  bottom: "inception_4a/5x5"
  bottom: "inception_4a/pool_proj"
  top: "inception_4a/output"
}
layer {
  name: "loss1/ave_pool"
  type: "Pooling"
  bottom: "inception_4a/output"
  top: "loss1/ave_pool"
  pooling_param {
    pool: AVE
    kernel_size: 5
    stride: 3
  }
}
layer {
  name: "loss1/conv"
  type: "Convolution"
  bottom: "loss1/ave_pool"
  top: "loss1/conv"
  param {
    lr_mult: 1
    decay_mult: 1
  }
  param {
    lr_mult: 2
    decay_mult: 0
  }
  convolution_param {
    num_output: 128
    kernel_size: 1
    weight_filler {
      type: "xavier"
      std: 0.08
    }
    bias_filler {
      type: "constant"
      value: 0.6
    }
  }
}
layer {
  name: "loss1/relu_conv"
  type: "ReLU"
  bottom: "loss1/conv"
  top: "loss1/conv"
}
layer {
  name: "loss1/fc"
  type: "InnerProduct"
  bottom: "loss1/conv"
  top: "loss1/fc"
  param {
    lr_mult: 1
    decay_mult: 1
  }
  param {
    lr_mult: 2
    decay_mult: 0
  }
  inner_product_param {
    num_output: 1024
    weight_filler {
      type: "xavier"
      std: 0.02
    }
    bias_filler {
      type: "constant"
      value: 0.6
    }
  }
}
layer {
  name: "loss1/relu_fc"
  type: "ReLU"
  bottom: "loss1/fc"
  top: "loss1/fc"
}
layer {
  name: "loss1/drop_fc"
  type: "Dropout"
  bottom: "loss1/fc"
  top: "loss1/fc"
  dropout_param {
    dropout_ratio: 0.9
  }
}
layer {
  name: "loss1/classifier_plantvillage"
  type: "InnerProduct"
  bottom: "loss1/fc"
  top: "loss1/classifier_plantvillage"
  param {
    lr_mult: 1
    decay_mult: 1
  }
  param {
    lr_mult: 2
    decay_mult: 0
  }
  inner_product_param {
    num_output: 38
    weight_filler {
      type: "xavier"
      std: 0.0009765625
    }
    bias_filler {
      type: "constant"
      value: 0
    }
  }
}
layer {
…
I0404 17:01:49.855645 13853 layer_factory.hpp:77] Creating layer inception_4c/pool
I0404 17:01:49.855661 13853 net.cpp:91] Creating Layer inception_4c/pool
I0404 17:01:49.855676 13853 net.cpp:425] inception_4c/pool <- inception_4b/output_inception_4b/output_0_split_3
I0404 17:01:49.855695 13853 net.cpp:399] inception_4c/pool -> inception_4c/pool
I0404 17:01:49.855751 13853 net.cpp:141] Setting up inception_4c/pool
I0404 17:01:49.855772 13853 net.cpp:148] Top shape: 24 512 14 14 (2408448)
I0404 17:01:49.855785 13853 net.cpp:156] Memory required for data: 1060605120
I0404 17:01:49.855799 13853 layer_factory.hpp:77] Creating layer inception_4c/pool_proj
I0404 17:01:49.855821 13853 net.cpp:91] Creating Layer inception_4c/pool_proj
I0404 17:01:49.855837 13853 net.cpp:425] inception_4c/pool_proj <- inception_4c/pool
I0404 17:01:49.855856 13853 net.cpp:399] inception_4c/pool_proj -> inception_4c/pool_proj
I0404 17:01:49.856307 13853 net.cpp:141] Setting up inception_4c/pool_proj
I0404 17:01:49.856330 13853 net.cpp:148] Top shape: 24 64 14 14 (301056)
I0404 17:01:49.856345 13853 net.cpp:156] Memory required for data: 1061809344
I0404 17:01:49.856361 13853 layer_factory.hpp:77] Creating layer inception_4c/relu_pool_proj
I0404 17:01:49.856379 13853 net.cpp:91] Creating Layer inception_4c/relu_pool_proj
I0404 17:01:49.856394 13853 net.cpp:425] inception_4c/relu_pool_proj <- inception_4c/pool_proj
I0404 17:01:49.856410 13853 net.cpp:386] inception_4c/relu_pool_proj -> inception_4c/pool_proj (in-place)
I0404 17:01:49.856427 13853 net.cpp:141] Setting up inception_4c/relu_pool_proj
I0404 17:01:49.856444 13853 net.cpp:148] Top shape: 24 64 14 14 (301056)
I0404 17:01:49.856457 13853 net.cpp:156] Memory required for data: 1063013568
I0404 17:01:49.856470 13853 layer_factory.hpp:77] Creating layer inception_4c/output
I0404 17:01:49.856489 13853 net.cpp:91] Creating Layer inception_4c/output
I0404 17:01:49.856505 13853 net.cpp:425] inception_4c/output <- inception_4c/1x1
I0404 17:01:49.856520 13853 net.cpp:425] inception_4c/output <- inception_4c/3x3
I0404 17:01:49.856536 13853 net.cpp:425] inception_4c/output <- inception_4c/5x5
I0404 17:01:49.856551 13853 net.cpp:425] inception_4c/output <- inception_4c/pool_proj
I0404 17:01:49.856567 13853 net.cpp:399] inception_4c/output -> inception_4c/output
I0404 17:01:49.856607 13853 net.cpp:141] Setting up inception_4c/output
I0404 17:01:49.856629 13853 net.cpp:148] Top shape: 24 512 14 14 (2408448)
I0404 17:01:49.856643 13853 net.cpp:156] Memory required for data: 1072647360
I0404 17:01:49.856657 13853 layer_factory.hpp:77] Creating layer inception_4c/output_inception_4c/output_0_split
I0404 17:01:49.856674 13853 net.cpp:91] Creating Layer inception_4c/output_inception_4c/output_0_split
I0404 17:01:49.856688 13853 net.cpp:425] inception_4c/output_inception_4c/output_0_split <- inception_4c/output
I0404 17:01:49.856704 13853 net.cpp:399] inception_4c/output_inception_4c/output_0_split -> inception_4c/output_inception_4c/output_0_split_0
I0404 17:01:49.856741 13853 net.cpp:399] inception_4c/output_inception_4c/output_0_split -> inception_4c/output_inception_4c/output_0_split_1
I0404 17:01:49.856762 13853 net.cpp:399] inception_4c/output_inception_4c/output_0_split -> inception_4c/output_inception_4c/output_0_split_2
I0404 17:01:49.856781 13853 net.cpp:399] inception_4c/output_inception_4c/output_0_split -> inception_4c/output_inception_4c/output_0_split_3
I0404 17:01:49.856858 13853 net.cpp:141] Setting up inception_4c/output_inception_4c/output_0_split
I0404 17:01:49.856881 13853 net.cpp:148] Top shape: 24 512 14 14 (2408448)
I0404 17:01:49.856896 13853 net.cpp:148] Top shape: 24 512 14 14 (2408448)
I0404 17:01:49.856915 13853 net.cpp:148] Top shape: 24 512 14 14 (2408448)
I0404 17:01:49.856930 13853 net.cpp:148] Top shape: 24 512 14 14 (2408448)
I0404 17:01:49.856943 13853 net.cpp:156] Memory required for data: 1111182528
I0404 17:01:49.856957 13853 layer_factory.hpp:77] Creating layer inception_4d/1x1
I0404 17:01:49.856979 13853 net.cpp:91] Creating Layer inception_4d/1x1
I0404 17:01:49.856997 13853 net.cpp:425] inception_4d/1x1 <- inception_4c/output_inception_4c/output_0_split_0
I0404 17:01:49.857013 13853 net.cpp:399] inception_4d/1x1 -> inception_4d/1x1
I0404 17:01:49.857549 13853 net.cpp:141] Setting up inception_4d/1x1
I0404 17:01:49.857573 13853 net.cpp:148] Top shape: 24 112 14 14 (526848)
I0404 17:01:49.857586 13853 net.cpp:156] Memory required for data: 1113289920
I0404 17:01:49.857604 13853 layer_factory.hpp:77] Creating layer inception_4d/relu_1x1
I0404 17:01:49.857621 13853 net.cpp:91] Creating Layer inception_4d/relu_1x1
I0404 17:01:49.857635 13853 net.cpp:425] inception_4d/relu_1x1 <- inception_4d/1x1
I0404 17:01:49.857655 13853 net.cpp:386] inception_4d/relu_1x1 -> inception_4d/1x1 (in-place)
I0404 17:01:49.857673 13853 net.cpp:141] Setting up inception_4d/relu_1x1
I0404 17:01:49.857688 13853 net.cpp:148] Top shape: 24 112 14 14 (526848)
I0404 17:01:49.857702 13853 net.cpp:156] Memory required for data: 1115397312
I0404 17:01:49.857715 13853 layer_factory.hpp:77] Creating layer inception_4d/3x3_reduce
I0404 17:01:49.857734 13853 net.cpp:91] Creating Layer inception_4d/3x3_reduce
I0404 17:01:49.857748 13853 net.cpp:425] inception_4d/3x3_reduce <- inception_4c/output_inception_4c/output_0_split_1
I0404 17:01:49.857769 13853 net.cpp:399] inception_4d/3x3_reduce -> inception_4d/3x3_reduce
I0404 17:01:49.858449 13853 net.cpp:141] Setting up inception_4d/3x3_reduce
I0404 17:01:49.858472 13853 net.cpp:148] Top shape: 24 144 14 14 (677376)
I0404 17:01:49.858486 13853 net.cpp:156] Memory required for data: 1118106816
I0404 17:01:49.858503 13853 layer_factory.hpp:77] Creating layer inception_4d/relu_3x3_reduce
I0404 17:01:49.858520 13853 net.cpp:91] Creating Layer inception_4d/relu_3x3_reduce
I0404 17:01:49.858535 13853 net.cpp:425] inception_4d/relu_3x3_reduce <- inception_4d/3x3_reduce
I0404 17:01:49.858551 13853 net.cpp:386] inception_4d/relu_3x3_reduce -> inception_4d/3x3_reduce (in-place)
I0404 17:01:49.858571 13853 net.cpp:141] Setting up inception_4d/relu_3x3_reduce
I0404 17:01:49.858587 13853 net.cpp:148] Top shape: 24 144 14 14 (677376)
I0404 17:01:49.858600 13853 net.cpp:156] Memory required for data: 1120816320
I0404 17:01:49.858613 13853 layer_factory.hpp:77] Creating layer inception_4d/3x3
I0404 17:01:49.858635 13853 net.cpp:91] Creating Layer inception_4d/3x3
I0404 17:01:49.858652 13853 net.cpp:425] inception_4d/3x3 <- inception_4d/3x3_reduce
I0404 17:01:49.858670 13853 net.cpp:399] inception_4d/3x3 -> inception_4d/3x3
I0404 17:01:49.861778 13853 net.cpp:141] Setting up inception_4d/3x3
I0404 17:01:49.861806 13853 net.cpp:148] Top shape: 24 288 14 14 (1354752)
I0404 17:01:49.861821 13853 net.cpp:156] Memory required for data: 1126235328
I0404 17:01:49.861838 13853 layer_factory.hpp:77] Creating layer inception_4d/relu_3x3
I0404 17:01:49.861856 13853 net.cpp:91] Creating Layer inception_4d/relu_3x3
I0404 17:01:49.861871 13853 net.cpp:425] inception_4d/relu_3x3 <- inception_4d/3x3
I0404 17:01:49.861907 13853 net.cpp:386] inception_4d/relu_3x3 -> inception_4d/3x3 (in-place)
I0404 17:01:49.861938 13853 net.cpp:141] Setting up inception_4d/relu_3x3
I0404 17:01:49.861955 13853 net.cpp:148] Top shape: 24 288 14 14 (1354752)
I0404 17:01:49.861969 13853 net.cpp:156] Memory required for data: 1131654336
I0404 17:01:49.861984 13853 layer_factory.hpp:77] Creating layer inception_4d/5x5_reduce
I0404 17:01:49.862004 13853 net.cpp:91] Creating Layer inception_4d/5x5_reduce
I0404 17:01:49.862021 13853 net.cpp:425] inception_4d/5x5_reduce <- inception_4c/output_inception_4c/output_0_split_2
I0404 17:01:49.862042 13853 net.cpp:399] inception_4d/5x5_reduce -> inception_4d/5x5_reduce
I0404 17:01:49.862391 13853 net.cpp:141] Setting up inception_4d/5x5_reduce
I0404 17:01:49.862414 13853 net.cpp:148] Top shape: 24 32 14 14 (150528)
I0404 17:01:49.862429 13853 net.cpp:156] Memory required for data: 1132256448
I0404 17:01:49.862445 13853 layer_factory.hpp:77] Creating layer inception_4d/relu_5x5_reduce
I0404 17:01:49.862464 13853 net.cpp:91] Creating Layer inception_4d/relu_5x5_reduce
I0404 17:01:49.862480 13853 net.cpp:425] inception_4d/relu_5x5_reduce <- inception_4d/5x5_reduce
I0404 17:01:49.862496 13853 net.cpp:386] inception_4d/relu_5x5_reduce -> inception_4d/5x5_reduce (in-place)
I0404 17:01:49.862514 13853 net.cpp:141] Setting up inception_4d/relu_5x5_reduce
I0404 17:01:49.862530 13853 net.cpp:148] Top shape: 24 32 14 14 (150528)
I0404 17:01:49.862545 13853 net.cpp:156] Memory required for data: 1132858560
I0404 17:01:49.862557 13853 layer_factory.hpp:77] Creating layer inception_4d/5x5
I0404 17:01:49.862578 13853 net.cpp:91] Creating Layer inception_4d/5x5
I0404 17:01:49.862594 13853 net.cpp:425] inception_4d/5x5 <- inception_4d/5x5_reduce
I0404 17:01:49.862618 13853 net.cpp:399] inception_4d/5x5 -> inception_4d/5x5
I0404 17:01:49.863131 13853 net.cpp:141] Setting up inception_4d/5x5
I0404 17:01:49.863154 13853 net.cpp:148] Top shape: 24 64 14 14 (301056)
I0404 17:01:49.863168 13853 net.cpp:156] Memory required for data: 1134062784
I0404 17:01:49.863184 13853 layer_factory.hpp:77] Creating layer inception_4d/relu_5x5
I0404 17:01:49.863201 13853 net.cpp:91] Creating Layer inception_4d/relu_5x5
I0404 17:01:49.863216 13853 net.cpp:425] inception_4d/relu_5x5 <- inception_4d/5x5
I0404 17:01:49.863232 13853 net.cpp:386] inception_4d/relu_5x5 -> inception_4d/5x5 (in-place)
I0404 17:01:49.863250 13853 net.cpp:141] Setting up inception_4d/relu_5x5
I0404 17:01:49.863265 13853 net.cpp:148] Top shape: 24 64 14 14 (301056)
I0404 17:01:49.863278 13853 net.cpp:156] Memory required for data: 1135267008
I0404 17:01:49.863291 13853 layer_factory.hpp:77] Creating layer inception_4d/pool
I0404 17:01:49.863311 13853 net.cpp:91] Creating Layer inception_4d/pool
I0404 17:01:49.863327 13853 net.cpp:425] inception_4d/pool <- inception_4c/output_inception_4c/output_0_split_3
I0404 17:01:49.863344 13853 net.cpp:399] inception_4d/pool -> inception_4d/pool
I0404 17:01:49.863397 13853 net.cpp:141] Setting up inception_4d/pool
I0404 17:01:49.863420 13853 net.cpp:148] Top shape: 24 512 14 14 (2408448)
I0404 17:01:49.863432 13853 net.cpp:156] Memory required for data: 1144900800
I0404 17:01:49.863446 13853 layer_factory.hpp:77] Creating layer inception_4d/pool_proj
I0404 17:01:49.863469 13853 net.cpp:91] Creating Layer inception_4d/pool_proj
I0404 17:01:49.863486 13853 net.cpp:425] inception_4d/pool_proj <- inception_4d/pool
I0404 17:01:49.863503 13853 net.cpp:399] inception_4d/pool_proj -> inception_4d/pool_proj
I0404 17:01:49.863924 13853 net.cpp:141] Setting up inception_4d/pool_proj
I0404 17:01:49.863948 13853 net.cpp:148] Top shape: 24 64 14 14 (301056)
I0404 17:01:49.863962 13853 net.cpp:156] Memory required for data: 1146105024
I0404 17:01:49.863979 13853 layer_factory.hpp:77] Creating layer inception_4d/relu_pool_proj
I0404 17:01:49.863999 13853 net.cpp:91] Creating Layer inception_4d/relu_pool_proj
I0404 17:01:49.864017 13853 net.cpp:425] inception_4d/relu_pool_proj <- inception_4d/pool_proj
I0404 17:01:49.864033 13853 net.cpp:386] inception_4d/relu_pool_proj -> inception_4d/pool_proj (in-place)
I0404 17:01:49.864064 13853 net.cpp:141] Setting up inception_4d/relu_pool_proj
I0404 17:01:49.864083 13853 net.cpp:148] Top shape: 24 64 14 14 (301056)
I0404 17:01:49.864095 13853 net.cpp:156] Memory required for data: 1147309248
I0404 17:01:49.864109 13853 layer_factory.hpp:77] Creating layer inception_4d/output
I0404 17:01:49.864126 13853 net.cpp:91] Creating Layer inception_4d/output
I0404 17:01:49.864141 13853 net.cpp:425] inception_4d/output <- inception_4d/1x1
I0404 17:01:49.864156 13853 net.cpp:425] inception_4d/output <- inception_4d/3x3
I0404 17:01:49.864171 13853 net.cpp:425] inception_4d/output <- inception_4d/5x5
I0404 17:01:49.864187 13853 net.cpp:425] inception_4d/output <- inception_4d/pool_proj
I0404 17:01:49.864215 13853 net.cpp:399] inception_4d/output -> inception_4d/output
I0404 17:01:49.864256 13853 net.cpp:141] Setting up inception_4d/output
I0404 17:01:49.864279 13853 net.cpp:148] Top shape: 24 528 14 14 (2483712)
I0404 17:01:49.864292 13853 net.cpp:156] Memory required for data: 1157244096
I0404 17:01:49.864306 13853 layer_factory.hpp:77] Creating layer inception_4d/output_inception_4d/output_0_split
I0404 17:01:49.864325 13853 net.cpp:91] Creating Layer inception_4d/output_inception_4d/output_0_split
I0404 17:01:49.864341 13853 net.cpp:425] inception_4d/output_inception_4d/output_0_split <- inception_4d/output
I0404 17:01:49.864357 13853 net.cpp:399] inception_4d/output_inception_4d/output_0_split -> inception_4d/output_inception_4d/output_0_split_0
I0404 17:01:49.864375 13853 net.cpp:399] inception_4d/output_inception_4d/output_0_split -> inception_4d/output_inception_4d/output_0_split_1
I0404 17:01:49.864394 13853 net.cpp:399] inception_4d/output_inception_4d/output_0_split -> inception_4d/output_inception_4d/output_0_split_2
I0404 17:01:49.864413 13853 net.cpp:399] inception_4d/output_inception_4d/output_0_split -> inception_4d/output_inception_4d/output_0_split_3
I0404 17:01:49.864433 13853 net.cpp:399] inception_4d/output_inception_4d/output_0_split -> inception_4d/output_inception_4d/output_0_split_4
I0404 17:01:49.864517 13853 net.cpp:141] Setting up inception_4d/output_inception_4d/output_0_split
I0404 17:01:49.864538 13853 net.cpp:148] Top shape: 24 528 14 14 (2483712)
I0404 17:01:49.864553 13853 net.cpp:148] Top shape: 24 528 14 14 (2483712)
I0404 17:01:49.864568 13853 net.cpp:148] Top shape: 24 528 14 14 (2483712)
I0404 17:01:49.864583 13853 net.cpp:148] Top shape: 24 528 14 14 (2483712)
I0404 17:01:49.864596 13853 net.cpp:148] Top shape: 24 528 14 14 (2483712)
I0404 17:01:49.864609 13853 net.cpp:156] Memory required for data: 1206918336
I0404 17:01:49.864622 13853 layer_factory.hpp:77] Creating layer loss2/ave_pool
I0404 17:01:49.864639 13853 net.cpp:91] Creating Layer loss2/ave_pool
I0404 17:01:49.864657 13853 net.cpp:425] loss2/ave_pool <- inception_4d/output_inception_4d/output_0_split_0
I0404 17:01:49.864675 13853 net.cpp:399] loss2/ave_pool -> loss2/ave_pool
I0404 17:01:49.864714 13853 net.cpp:141] Setting up loss2/ave_pool
I0404 17:01:49.864737 13853 net.cpp:148] Top shape: 24 528 4 4 (202752)
I0404 17:01:49.864750 13853 net.cpp:156] Memory required for data: 1207729344
I0404 17:01:49.864763 13853 layer_factory.hpp:77] Creating layer loss2/conv
I0404 17:01:49.864785 13853 net.cpp:91] Creating Layer loss2/conv
I0404 17:01:49.864802 13853 net.cpp:425] loss2/conv <- loss2/ave_pool
I0404 17:01:49.864820 13853 net.cpp:399] loss2/conv -> loss2/conv
I0404 17:01:49.866073 13853 net.cpp:141] Setting up loss2/conv
I0404 17:01:49.866101 13853 net.cpp:148] Top shape: 24 128 4 4 (49152)
I0404 17:01:49.866117 13853 net.cpp:156] Memory required for data: 1207925952
I0404 17:01:49.866134 13853 layer_factory.hpp:77] Creating layer loss2/relu_conv
I0404 17:01:49.866153 13853 net.cpp:91] Creating Layer loss2/relu_conv
I0404 17:01:49.866168 13853 net.cpp:425] loss2/relu_conv <- loss2/conv
I0404 17:01:49.866184 13853 net.cpp:386] loss2/relu_conv -> loss2/conv (in-place)
I0404 17:01:49.866217 13853 net.cpp:141] Setting up loss2/relu_conv
I0404 17:01:49.866248 13853 net.cpp:148] Top shape: 24 128 4 4 (49152)
I0404 17:01:49.866263 13853 net.cpp:156] Memory required for data: 1208122560
I0404 17:01:49.866277 13853 layer_factory.hpp:77] Creating layer loss2/fc
I0404 17:01:49.866307 13853 net.cpp:91] Creating Layer loss2/fc
I0404 17:01:49.866323 13853 net.cpp:425] loss2/fc <- loss2/conv
I0404 17:01:49.866344 13853 net.cpp:399] loss2/fc -> loss2/fc
I0404 17:01:49.881902 13853 net.cpp:141] Setting up loss2/fc
I0404 17:01:49.881975 13853 net.cpp:148] Top shape: 24 1024 (24576)
I0404 17:01:49.881991 13853 net.cpp:156] Memory required for data: 1208220864
I0404 17:01:49.882010 13853 layer_factory.hpp:77] Creating layer loss2/relu_fc
I0404 17:01:49.882030 13853 net.cpp:91] Creating Layer loss2/relu_fc
I0404 17:01:49.882046 13853 net.cpp:425] loss2/relu_fc <- loss2/fc
I0404 17:01:49.882066 13853 net.cpp:386] loss2/relu_fc -> loss2/fc (in-place)
I0404 17:01:49.882087 13853 net.cpp:141] Setting up loss2/relu_fc
I0404 17:01:49.882103 13853 net.cpp:148] Top shape: 24 1024 (24576)
I0404 17:01:49.882117 13853 net.cpp:156] Memory required for data: 1208319168
I0404 17:01:49.882131 13853 layer_factory.hpp:77] Creating layer loss2/drop_fc
I0404 17:01:49.882148 13853 net.cpp:91] Creating Layer loss2/drop_fc
I0404 17:01:49.882164 13853 net.cpp:425] loss2/drop_fc <- loss2/fc
I0404 17:01:49.882182 13853 net.cpp:386] loss2/drop_fc -> loss2/fc (in-place)
I0404 17:01:49.882236 13853 net.cpp:141] Setting up loss2/drop_fc
I0404 17:01:49.882257 13853 net.cpp:148] Top shape: 24 1024 (24576)
I0404 17:01:49.882272 13853 net.cpp:156] Memory required for data: 1208417472
I0404 17:01:49.882284 13853 layer_factory.hpp:77] Creating layer loss2/classifier_plantvillage
I0404 17:01:49.882305 13853 net.cpp:91] Creating Layer loss2/classifier_plantvillage
I0404 17:01:49.882321 13853 net.cpp:425] loss2/classifier_plantvillage <- loss2/fc
I0404 17:01:49.882339 13853 net.cpp:399] loss2/classifier_plantvillage -> loss2/classifier_plantvillage
I0404 17:01:49.882683 13853 net.cpp:141] Setting up loss2/classifier_plantvillage
I0404 17:01:49.882707 13853 net.cpp:148] Top shape: 24 38 (912)
I0404 17:01:49.882721 13853 net.cpp:156] Memory required for data: 1208421120
I0404 17:01:49.882738 13853 layer_factory.hpp:77] Creating layer loss2/classifier_plantvillage_loss2/classifier_plantvillage_0_split
I0404 17:01:49.882756 13853 net.cpp:91] Creating Layer loss2/classifier_plantvillage_loss2/classifier_plantvillage_0_split
I0404 17:01:49.882771 13853 net.cpp:425] loss2/classifier_plantvillage_loss2/classifier_plantvillage_0_split <- loss2/classifier_plantvillage
I0404 17:01:49.882791 13853 net.cpp:399] loss2/classifier_plantvillage_loss2/classifier_plantvillage_0_split -> loss2/classifier_plantvillage_loss2/classifier_plantvillage_0_split_0
I0404 17:01:49.882812 13853 net.cpp:399] loss2/classifier_plantvillage_loss2/classifier_plantvillage_0_split -> loss2/classifier_plantvillage_loss2/classifier_plantvillage_0_split_1
I0404 17:01:49.882830 13853 net.cpp:399] loss2/classifier_plantvillage_loss2/classifier_plantvillage_0_split -> loss2/classifier_plantvillage_loss2/classifier_plantvillage_0_split_2
I0404 17:01:49.882895 13853 net.cpp:141] Setting up loss2/classifier_plantvillage_loss2/classifier_plantvillage_0_split
I0404 17:01:49.882936 13853 net.cpp:148] Top shape: 24 38 (912)
I0404 17:01:49.882952 13853 net.cpp:148] Top shape: 24 38 (912)
I0404 17:01:49.882967 13853 net.cpp:148] Top shape: 24 38 (912)
I0404 17:01:49.882982 13853 net.cpp:156] Memory required for data: 1208432064
I0404 17:01:49.882995 13853 layer_factory.hpp:77] Creating layer inception_4e/1x1
I0404 17:01:49.883015 13853 net.cpp:91] Creating Layer inception_4e/1x1
I0404 17:01:49.883033 13853 net.cpp:425] inception_4e/1x1 <- inception_4d/output_inception_4d/output_0_split_1
I0404 17:01:49.883050 13853 net.cpp:399] inception_4e/1x1 -> inception_4e/1x1
I0404 17:01:49.884059 13853 net.cpp:141] Setting up inception_4e/1x1
I0404 17:01:49.884085 13853 net.cpp:148] Top shape: 24 256 14 14 (1204224)
I0404 17:01:49.884100 13853 net.cpp:156] Memory required for data: 1213248960
I0404 17:01:49.884142 13853 layer_factory.hpp:77] Creating layer inception_4e/relu_1x1
I0404 17:01:49.884162 13853 net.cpp:91] Creating Layer inception_4e/relu_1x1
I0404 17:01:49.884178 13853 net.cpp:425] inception_4e/relu_1x1 <- inception_4e/1x1
I0404 17:01:49.884212 13853 net.cpp:386] inception_4e/relu_1x1 -> inception_4e/1x1 (in-place)
I0404 17:01:49.884232 13853 net.cpp:141] Setting up inception_4e/relu_1x1
I0404 17:01:49.884248 13853 net.cpp:148] Top shape: 24 256 14 14 (1204224)
I0404 17:01:49.884261 13853 net.cpp:156] Memory required for data: 1218065856
I0404 17:01:49.884275 13853 layer_factory.hpp:77] Creating layer inception_4e/3x3_reduce
I0404 17:01:49.884295 13853 net.cpp:91] Creating Layer inception_4e/3x3_reduce
I0404 17:01:49.884310 13853 net.cpp:425] inception_4e/3x3_reduce <- inception_4d/output_inception_4d/output_0_split_2
I0404 17:01:49.884330 13853 net.cpp:399] inception_4e/3x3_reduce -> inception_4e/3x3_reduce
I0404 17:01:49.885610 13853 net.cpp:141] Setting up inception_4e/3x3_reduce
I0404 17:01:49.885639 13853 net.cpp:148] Top shape: 24 160 14 14 (752640)
I0404 17:01:49.885654 13853 net.cpp:156] Memory required for data: 1221076416
I0404 17:01:49.885671 13853 layer_factory.hpp:77] Creating layer inception_4e/relu_3x3_reduce
I0404 17:01:49.885691 13853 net.cpp:91] Creating Layer inception_4e/relu_3x3_reduce
I0404 17:01:49.885709 13853 net.cpp:425] inception_4e/relu_3x3_reduce <- inception_4e/3x3_reduce
I0404 17:01:49.885725 13853 net.cpp:386] inception_4e/relu_3x3_reduce -> inception_4e/3x3_reduce (in-place)
I0404 17:01:49.885742 13853 net.cpp:141] Setting up inception_4e/relu_3x3_reduce
I0404 17:01:49.885758 13853 net.cpp:148] Top shape: 24 160 14 14 (752640)
I0404 17:01:49.885772 13853 net.cpp:156] Memory required for data: 1224086976
I0404 17:01:49.885787 13853 layer_factory.hpp:77] Creating layer inception_4e/3x3
I0404 17:01:49.885808 13853 net.cpp:91] Creating Layer inception_4e/3x3
I0404 17:01:49.885824 13853 net.cpp:425] inception_4e/3x3 <- inception_4e/3x3_reduce
I0404 17:01:49.885844 13853 net.cpp:399] inception_4e/3x3 -> inception_4e/3x3
I0404 17:01:49.889611 13853 net.cpp:141] Setting up inception_4e/3x3
I0404 17:01:49.889642 13853 net.cpp:148] Top shape: 24 320 14 14 (1505280)
I0404 17:01:49.889657 13853 net.cpp:156] Memory required for data: 1230108096
I0404 17:01:49.889674 13853 layer_factory.hpp:77] Creating layer inception_4e/relu_3x3
I0404 17:01:49.889693 13853 net.cpp:91] Creating Layer inception_4e/relu_3x3
I0404 17:01:49.889708 13853 net.cpp:425] inception_4e/relu_3x3 <- inception_4e/3x3
I0404 17:01:49.889727 13853 net.cpp:386] inception_4e/relu_3x3 -> inception_4e/3x3 (in-place)
I0404 17:01:49.889746 13853 net.cpp:141] Setting up inception_4e/relu_3x3
I0404 17:01:49.889763 13853 net.cpp:148] Top shape: 24 320 14 14 (1505280)
I0404 17:01:49.889776 13853 net.cpp:156] Memory required for data: 1236129216
I0404 17:01:49.889791 13853 layer_factory.hpp:77] Creating layer inception_4e/5x5_reduce
I0404 17:01:49.889824 13853 net.cpp:91] Creating Layer inception_4e/5x5_reduce
I0404 17:01:49.889840 13853 net.cpp:425] inception_4e/5x5_reduce <- inception_4d/output_inception_4d/output_0_split_3
I0404 17:01:49.889858 13853 net.cpp:399] inception_4e/5x5_reduce -> inception_4e/5x5_reduce
I0404 17:01:49.890725 13853 net.cpp:141] Setting up inception_4e/5x5_reduce
I0404 17:01:49.890753 13853 net.cpp:148] Top shape: 24 32 14 14 (150528)
I0404 17:01:49.890768 13853 net.cpp:156] Memory required for data: 1236731328
I0404 17:01:49.890784 13853 layer_factory.hpp:77] Creating layer inception_4e/relu_5x5_reduce
I0404 17:01:49.890805 13853 net.cpp:91] Creating Layer inception_4e/relu_5x5_reduce
I0404 17:01:49.890822 13853 net.cpp:425] inception_4e/relu_5x5_reduce <- inception_4e/5x5_reduce
I0404 17:01:49.890838 13853 net.cpp:386] inception_4e/relu_5x5_reduce -> inception_4e/5x5_reduce (in-place)
I0404 17:01:49.890856 13853 net.cpp:141] Setting up inception_4e/relu_5x5_reduce
I0404 17:01:49.890872 13853 net.cpp:148] Top shape: 24 32 14 14 (150528)
I0404 17:01:49.890887 13853 net.cpp:156] Memory required for data: 1237333440
I0404 17:01:49.890935 13853 layer_factory.hpp:77] Creating layer inception_4e/5x5
I0404 17:01:49.890987 13853 net.cpp:91] Creating Layer inception_4e/5x5
I0404 17:01:49.891007 13853 net.cpp:425] inception_4e/5x5 <- inception_4e/5x5_reduce
I0404 17:01:49.891026 13853 net.cpp:399] inception_4e/5x5 -> inception_4e/5x5
I0404 17:01:49.891789 13853 net.cpp:141] Setting up inception_4e/5x5
I0404 17:01:49.891813 13853 net.cpp:148] Top shape: 24 128 14 14 (602112)
I0404 17:01:49.891826 13853 net.cpp:156] Memory required for data: 1239741888
I0404 17:01:49.891844 13853 layer_factory.hpp:77] Creating layer inception_4e/relu_5x5
I0404 17:01:49.891861 13853 net.cpp:91] Creating Layer inception_4e/relu_5x5
I0404 17:01:49.891877 13853 net.cpp:425] inception_4e/relu_5x5 <- inception_4e/5x5
I0404 17:01:49.891893 13853 net.cpp:386] inception_4e/relu_5x5 -> inception_4e/5x5 (in-place)
I0404 17:01:49.891928 13853 net.cpp:141] Setting up inception_4e/relu_5x5
I0404 17:01:49.891945 13853 net.cpp:148] Top shape: 24 128 14 14 (602112)
I0404 17:01:49.891959 13853 net.cpp:156] Memory required for data: 1242150336
I0404 17:01:49.891974 13853 layer_factory.hpp:77] Creating layer inception_4e/pool
I0404 17:01:49.891993 13853 net.cpp:91] Creating Layer inception_4e/pool
I0404 17:01:49.892009 13853 net.cpp:425] inception_4e/pool <- inception_4d/output_inception_4d/output_0_split_4
I0404 17:01:49.892027 13853 net.cpp:399] inception_4e/pool -> inception_4e/pool
I0404 17:01:49.892081 13853 net.cpp:141] Setting up inception_4e/pool
I0404 17:01:49.892104 13853 net.cpp:148] Top shape: 24 528 14 14 (2483712)
I0404 17:01:49.892119 13853 net.cpp:156] Memory required for data: 1252085184
I0404 17:01:49.892135 13853 layer_factory.hpp:77] Creating layer inception_4e/pool_proj
I0404 17:01:49.892158 13853 net.cpp:91] Creating Layer inception_4e/pool_proj
I0404 17:01:49.892174 13853 net.cpp:425] inception_4e/pool_proj <- inception_4e/pool
I0404 17:01:49.892207 13853 net.cpp:399] inception_4e/pool_proj -> inception_4e/pool_proj
I0404 17:01:49.892788 13853 net.cpp:141] Setting up inception_4e/pool_proj
I0404 17:01:49.892813 13853 net.cpp:148] Top shape: 24 128 14 14 (602112)
I0404 17:01:49.892827 13853 net.cpp:156] Memory required for data: 1254493632
I0404 17:01:49.892844 13853 layer_factory.hpp:77] Creating layer inception_4e/relu_pool_proj
I0404 17:01:49.892861 13853 net.cpp:91] Creating Layer inception_4e/relu_pool_proj
I0404 17:01:49.892890 13853 net.cpp:425] inception_4e/relu_pool_proj <- inception_4e/pool_proj
I0404 17:01:49.892910 13853 net.cpp:386] inception_4e/relu_pool_proj -> inception_4e/pool_proj (in-place)
I0404 17:01:49.892930 13853 net.cpp:141] Setting up inception_4e/relu_pool_proj
I0404 17:01:49.892946 13853 net.cpp:148] Top shape: 24 128 14 14 (602112)
I0404 17:01:49.892959 13853 net.cpp:156] Memory required for data: 1256902080
I0404 17:01:49.892972 13853 layer_factory.hpp:77] Creating layer inception_4e/output
I0404 17:01:49.892988 13853 net.cpp:91] Creating Layer inception_4e/output
I0404 17:01:49.893003 13853 net.cpp:425] inception_4e/output <- inception_4e/1x1
I0404 17:01:49.893018 13853 net.cpp:425] inception_4e/output <- inception_4e/3x3
I0404 17:01:49.893033 13853 net.cpp:425] inception_4e/output <- inception_4e/5x5
I0404 17:01:49.893049 13853 net.cpp:425] inception_4e/output <- inception_4e/pool_proj
I0404 17:01:49.893065 13853 net.cpp:399] inception_4e/output -> inception_4e/output
I0404 17:01:49.893105 13853 net.cpp:141] Setting up inception_4e/output
I0404 17:01:49.893126 13853 net.cpp:148] Top shape: 24 832 14 14 (3913728)
I0404 17:01:49.893141 13853 net.cpp:156] Memory required for data: 1272556992
I0404 17:01:49.893154 13853 layer_factory.hpp:77] Creating layer pool4/3x3_s2
I0404 17:01:49.893174 13853 net.cpp:91] Creating Layer pool4/3x3_s2
I0404 17:01:49.893190 13853 net.cpp:425] pool4/3x3_s2 <- inception_4e/output
I0404 17:01:49.893208 13853 net.cpp:399] pool4/3x3_s2 -> pool4/3x3_s2
I0404 17:01:49.893256 13853 net.cpp:141] Setting up pool4/3x3_s2
I0404 17:01:49.893277 13853 net.cpp:148] Top shape: 24 832 7 7 (978432)
I0404 17:01:49.893307 13853 net.cpp:156] Memory required for data: 1276470720
I0404 17:01:49.893326 13853 layer_factory.hpp:77] Creating layer pool4/3x3_s2_pool4/3x3_s2_0_split
I0404 17:01:49.893344 13853 net.cpp:91] Creating Layer pool4/3x3_s2_pool4/3x3_s2_0_split
I0404 17:01:49.893359 13853 net.cpp:425] pool4/3x3_s2_pool4/3x3_s2_0_split <- pool4/3x3_s2
I0404 17:01:49.893379 13853 net.cpp:399] pool4/3x3_s2_pool4/3x3_s2_0_split -> pool4/3x3_s2_pool4/3x3_s2_0_split_0
I0404 17:01:49.893401 13853 net.cpp:399] pool4/3x3_s2_pool4/3x3_s2_0_split -> pool4/3x3_s2_pool4/3x3_s2_0_split_1
I0404 17:01:49.893420 13853 net.cpp:399] pool4/3x3_s2_pool4/3x3_s2_0_split -> pool4/3x3_s2_pool4/3x3_s2_0_split_2
I0404 17:01:49.893440 13853 net.cpp:399] pool4/3x3_s2_pool4/3x3_s2_0_split -> pool4/3x3_s2_pool4/3x3_s2_0_split_3
I0404 17:01:49.893507 13853 net.cpp:141] Setting up pool4/3x3_s2_pool4/3x3_s2_0_split
I0404 17:01:49.893532 13853 net.cpp:148] Top shape: 24 832 7 7 (978432)
I0404 17:01:49.893549 13853 net.cpp:148] Top shape: 24 832 7 7 (978432)
I0404 17:01:49.893565 13853 net.cpp:148] Top shape: 24 832 7 7 (978432)
I0404 17:01:49.893580 13853 net.cpp:148] Top shape: 24 832 7 7 (978432)
I0404 17:01:49.893594 13853 net.cpp:156] Memory required for data: 1292125632
I0404 17:01:49.893610 13853 layer_factory.hpp:77] Creating layer inception_5a/1x1
I0404 17:01:49.893632 13853 net.cpp:91] Creating Layer inception_5a/1x1
I0404 17:01:49.893651 13853 net.cpp:425] inception_5a/1x1 <- pool4/3x3_s2_pool4/3x3_s2_0_split_0
I0404 17:01:49.893668 13853 net.cpp:399] inception_5a/1x1 -> inception_5a/1x1
I0404 17:01:49.895596 13853 net.cpp:141] Setting up inception_5a/1x1
I0404 17:01:49.895627 13853 net.cpp:148] Top shape: 24 256 7 7 (301056)
I0404 17:01:49.895642 13853 net.cpp:156] Memory required for data: 1293329856
I0404 17:01:49.895661 13853 layer_factory.hpp:77] Creating layer inception_5a/relu_1x1
I0404 17:01:49.895681 13853 net.cpp:91] Creating Layer inception_5a/relu_1x1
I0404 17:01:49.895697 13853 net.cpp:425] inception_5a/relu_1x1 <- inception_5a/1x1
I0404 17:01:49.895715 13853 net.cpp:386] inception_5a/relu_1x1 -> inception_5a/1x1 (in-place)
I0404 17:01:49.895735 13853 net.cpp:141] Setting up inception_5a/relu_1x1
I0404 17:01:49.895752 13853 net.cpp:148] Top shape: 24 256 7 7 (301056)
I0404 17:01:49.895766 13853 net.cpp:156] Memory required for data: 1294534080
I0404 17:01:49.895781 13853 layer_factory.hpp:77] Creating layer inception_5a/3x3_reduce
I0404 17:01:49.895802 13853 net.cpp:91] Creating Layer inception_5a/3x3_reduce
I0404 17:01:49.895819 13853 net.cpp:425] inception_5a/3x3_reduce <- pool4/3x3_s2_pool4/3x3_s2_0_split_1
I0404 17:01:49.895853 13853 net.cpp:399] inception_5a/3x3_reduce -> inception_5a/3x3_reduce
I0404 17:01:49.897356 13853 net.cpp:141] Setting up inception_5a/3x3_reduce
I0404 17:01:49.897384 13853 net.cpp:148] Top shape: 24 160 7 7 (188160)
I0404 17:01:49.897402 13853 net.cpp:156] Memory required for data: 1295286720
I0404 17:01:49.897420 13853 layer_factory.hpp:77] Creating layer inception_5a/relu_3x3_reduce
I0404 17:01:49.897439 13853 net.cpp:91] Creating Layer inception_5a/relu_3x3_reduce
I0404 17:01:49.897456 13853 net.cpp:425] inception_5a/relu_3x3_reduce <- inception_5a/3x3_reduce
I0404 17:01:49.897472 13853 net.cpp:386] inception_5a/relu_3x3_reduce -> inception_5a/3x3_reduce (in-place)
I0404 17:01:49.897491 13853 net.cpp:141] Setting up inception_5a/relu_3x3_reduce
I0404 17:01:49.897507 13853 net.cpp:148] Top shape: 24 160 7 7 (188160)
I0404 17:01:49.897521 13853 net.cpp:156] Memory required for data: 1296039360
I0404 17:01:49.897534 13853 layer_factory.hpp:77] Creating layer inception_5a/3x3
I0404 17:01:49.897557 13853 net.cpp:91] Creating Layer inception_5a/3x3
I0404 17:01:49.897573 13853 net.cpp:425] inception_5a/3x3 <- inception_5a/3x3_reduce
I0404 17:01:49.897593 13853 net.cpp:399] inception_5a/3x3 -> inception_5a/3x3
I0404 17:01:49.901314 13853 net.cpp:141] Setting up inception_5a/3x3
I0404 17:01:49.901345 13853 net.cpp:148] Top shape: 24 320 7 7 (376320)
I0404 17:01:49.901360 13853 net.cpp:156] Memory required for data: 1297544640
I0404 17:01:49.901396 13853 layer_factory.hpp:77] Creating layer inception_5a/relu_3x3
I0404 17:01:49.901414 13853 net.cpp:91] Creating Layer inception_5a/relu_3x3
I0404 17:01:49.901429 13853 net.cpp:425] inception_5a/relu_3x3 <- inception_5a/3x3
I0404 17:01:49.901446 13853 net.cpp:386] inception_5a/relu_3x3 -> inception_5a/3x3 (in-place)
I0404 17:01:49.901464 13853 net.cpp:141] Setting up inception_5a/relu_3x3
I0404 17:01:49.901481 13853 net.cpp:148] Top shape: 24 320 7 7 (376320)
I0404 17:01:49.901495 13853 net.cpp:156] Memory required for data: 1299049920
I0404 17:01:49.901510 13853 layer_factory.hpp:77] Creating layer inception_5a/5x5_reduce
I0404 17:01:49.901530 13853 net.cpp:91] Creating Layer inception_5a/5x5_reduce
I0404 17:01:49.901547 13853 net.cpp:425] inception_5a/5x5_reduce <- pool4/3x3_s2_pool4/3x3_s2_0_split_2
I0404 17:01:49.901567 13853 net.cpp:399] inception_5a/5x5_reduce -> inception_5a/5x5_reduce
I0404 17:01:49.901952 13853 net.cpp:141] Setting up inception_5a/5x5_reduce
I0404 17:01:49.901976 13853 net.cpp:148] Top shape: 24 32 7 7 (37632)
I0404 17:01:49.901991 13853 net.cpp:156] Memory required for data: 1299200448
I0404 17:01:49.902009 13853 layer_factory.hpp:77] Creating layer inception_5a/relu_5x5_reduce
I0404 17:01:49.902029 13853 net.cpp:91] Creating Layer inception_5a/relu_5x5_reduce
I0404 17:01:49.902046 13853 net.cpp:425] inception_5a/relu_5x5_reduce <- inception_5a/5x5_reduce
I0404 17:01:49.902065 13853 net.cpp:386] inception_5a/relu_5x5_reduce -> inception_5a/5x5_reduce (in-place)
I0404 17:01:49.902083 13853 net.cpp:141] Setting up inception_5a/relu_5x5_reduce
I0404 17:01:49.902101 13853 net.cpp:148] Top shape: 24 32 7 7 (37632)
I0404 17:01:49.902114 13853 net.cpp:156] Memory required for data: 1299350976
I0404 17:01:49.902129 13853 layer_factory.hpp:77] Creating layer inception_5a/5x5
I0404 17:01:49.902150 13853 net.cpp:91] Creating Layer inception_5a/5x5
I0404 17:01:49.902168 13853 net.cpp:425] inception_5a/5x5 <- inception_5a/5x5_reduce
I0404 17:01:49.902189 13853 net.cpp:399] inception_5a/5x5 -> inception_5a/5x5
I0404 17:01:49.902964 13853 net.cpp:141] Setting up inception_5a/5x5
I0404 17:01:49.902989 13853 net.cpp:148] Top shape: 24 128 7 7 (150528)
I0404 17:01:49.903004 13853 net.cpp:156] Memory required for data: 1299953088
I0404 17:01:49.903020 13853 layer_factory.hpp:77] Creating layer inception_5a/relu_5x5
I0404 17:01:49.903040 13853 net.cpp:91] Creating Layer inception_5a/relu_5x5
I0404 17:01:49.903056 13853 net.cpp:425] inception_5a/relu_5x5 <- inception_5a/5x5
I0404 17:01:49.903074 13853 net.cpp:386] inception_5a/relu_5x5 -> inception_5a/5x5 (in-place)
I0404 17:01:49.903092 13853 net.cpp:141] Setting up inception_5a/relu_5x5
I0404 17:01:49.903110 13853 net.cpp:148] Top shape: 24 128 7 7 (150528)
I0404 17:01:49.903123 13853 net.cpp:156] Memory required for data: 1300555200
I0404 17:01:49.903137 13853 layer_factory.hpp:77] Creating layer inception_5a/pool
I0404 17:01:49.903153 13853 net.cpp:91] Creating Layer inception_5a/pool
I0404 17:01:49.903168 13853 net.cpp:425] inception_5a/pool <- pool4/3x3_s2_pool4/3x3_s2_0_split_3
I0404 17:01:49.903185 13853 net.cpp:399] inception_5a/pool -> inception_5a/pool
I0404 17:01:49.903237 13853 net.cpp:141] Setting up inception_5a/pool
I0404 17:01:49.903259 13853 net.cpp:148] Top shape: 24 832 7 7 (978432)
I0404 17:01:49.903275 13853 net.cpp:156] Memory required for data: 1304468928
I0404 17:01:49.903288 13853 layer_factory.hpp:77] Creating layer inception_5a/pool_proj
I0404 17:01:49.903311 13853 net.cpp:91] Creating Layer inception_5a/pool_proj
I0404 17:01:49.903327 13853 net.cpp:425] inception_5a/pool_proj <- inception_5a/pool
I0404 17:01:49.903348 13853 net.cpp:399] inception_5a/pool_proj -> inception_5a/pool_proj
I0404 17:01:49.904646 13853 net.cpp:141] Setting up inception_5a/pool_proj
I0404 17:01:49.904675 13853 net.cpp:148] Top shape: 24 128 7 7 (150528)
I0404 17:01:49.904690 13853 net.cpp:156] Memory required for data: 1305071040
I0404 17:01:49.904708 13853 layer_factory.hpp:77] Creating layer inception_5a/relu_pool_proj
I0404 17:01:49.904743 13853 net.cpp:91] Creating Layer inception_5a/relu_pool_proj
I0404 17:01:49.904760 13853 net.cpp:425] inception_5a/relu_pool_proj <- inception_5a/pool_proj
I0404 17:01:49.904779 13853 net.cpp:386] inception_5a/relu_pool_proj -> inception_5a/pool_proj (in-place)
I0404 17:01:49.904800 13853 net.cpp:141] Setting up inception_5a/relu_pool_proj
I0404 17:01:49.904817 13853 net.cpp:148] Top shape: 24 128 7 7 (150528)
I0404 17:01:49.904830 13853 net.cpp:156] Memory required for data: 1305673152
I0404 17:01:49.904844 13853 layer_factory.hpp:77] Creating layer inception_5a/output
I0404 17:01:49.904873 13853 net.cpp:91] Creating Layer inception_5a/output
I0404 17:01:49.904891 13853 net.cpp:425] inception_5a/output <- inception_5a/1x1
I0404 17:01:49.904917 13853 net.cpp:425] inception_5a/output <- inception_5a/3x3
I0404 17:01:49.904937 13853 net.cpp:425] inception_5a/output <- inception_5a/5x5
I0404 17:01:49.904953 13853 net.cpp:425] inception_5a/output <- inception_5a/pool_proj
I0404 17:01:49.904971 13853 net.cpp:399] inception_5a/output -> inception_5a/output
I0404 17:01:49.905012 13853 net.cpp:141] Setting up inception_5a/output
I0404 17:01:49.905035 13853 net.cpp:148] Top shape: 24 832 7 7 (978432)
I0404 17:01:49.905050 13853 net.cpp:156] Memory required for data: 1309586880
I0404 17:01:49.905064 13853 layer_factory.hpp:77] Creating layer inception_5a/output_inception_5a/output_0_split
I0404 17:01:49.905083 13853 net.cpp:91] Creating Layer inception_5a/output_inception_5a/output_0_split
I0404 17:01:49.905099 13853 net.cpp:425] inception_5a/output_inception_5a/output_0_split <- inception_5a/output
I0404 17:01:49.905117 13853 net.cpp:399] inception_5a/output_inception_5a/output_0_split -> inception_5a/output_inception_5a/output_0_split_0
I0404 17:01:49.905138 13853 net.cpp:399] inception_5a/output_inception_5a/output_0_split -> inception_5a/output_inception_5a/output_0_split_1
I0404 17:01:49.905158 13853 net.cpp:399] inception_5a/output_inception_5a/output_0_split -> inception_5a/output_inception_5a/output_0_split_2
I0404 17:01:49.905189 13853 net.cpp:399] inception_5a/output_inception_5a/output_0_split -> inception_5a/output_inception_5a/output_0_split_3
I0404 17:01:49.905256 13853 net.cpp:141] Setting up inception_5a/output_inception_5a/output_0_split
I0404 17:01:49.905277 13853 net.cpp:148] Top shape: 24 832 7 7 (978432)
I0404 17:01:49.905292 13853 net.cpp:148] Top shape: 24 832 7 7 (978432)
I0404 17:01:49.905308 13853 net.cpp:148] Top shape: 24 832 7 7 (978432)
I0404 17:01:49.905321 13853 net.cpp:148] Top shape: 24 832 7 7 (978432)
I0404 17:01:49.905335 13853 net.cpp:156] Memory required for data: 1325241792
I0404 17:01:49.905349 13853 layer_factory.hpp:77] Creating layer inception_5b/1x1
I0404 17:01:49.905370 13853 net.cpp:91] Creating Layer inception_5b/1x1
I0404 17:01:49.905387 13853 net.cpp:425] inception_5b/1x1 <- inception_5a/output_inception_5a/output_0_split_0
I0404 17:01:49.905406 13853 net.cpp:399] inception_5b/1x1 -> inception_5b/1x1
I0404 17:01:49.908005 13853 net.cpp:141] Setting up inception_5b/1x1
I0404 17:01:49.908036 13853 net.cpp:148] Top shape: 24 384 7 7 (451584)
I0404 17:01:49.908054 13853 net.cpp:156] Memory required for data: 1327048128
I0404 17:01:49.908073 13853 layer_factory.hpp:77] Creating layer inception_5b/relu_1x1
I0404 17:01:49.908092 13853 net.cpp:91] Creating Layer inception_5b/relu_1x1
I0404 17:01:49.908113 13853 net.cpp:425] inception_5b/relu_1x1 <- inception_5b/1x1
I0404 17:01:49.908130 13853 net.cpp:386] inception_5b/relu_1x1 -> inception_5b/1x1 (in-place)
I0404 17:01:49.908149 13853 net.cpp:141] Setting up inception_5b/relu_1x1
I0404 17:01:49.908167 13853 net.cpp:148] Top shape: 24 384 7 7 (451584)
I0404 17:01:49.908182 13853 net.cpp:156] Memory required for data: 1328854464
I0404 17:01:49.908208 13853 layer_factory.hpp:77] Creating layer inception_5b/3x3_reduce
I0404 17:01:49.908231 13853 net.cpp:91] Creating Layer inception_5b/3x3_reduce
I0404 17:01:49.908248 13853 net.cpp:425] inception_5b/3x3_reduce <- inception_5a/output_inception_5a/output_0_split_1
I0404 17:01:49.908282 13853 net.cpp:399] inception_5b/3x3_reduce -> inception_5b/3x3_reduce
I0404 17:01:49.909839 13853 net.cpp:141] Setting up inception_5b/3x3_reduce
I0404 17:01:49.909870 13853 net.cpp:148] Top shape: 24 192 7 7 (225792)
I0404 17:01:49.909888 13853 net.cpp:156] Memory required for data: 1329757632
I0404 17:01:49.909920 13853 layer_factory.hpp:77] Creating layer inception_5b/relu_3x3_reduce
I0404 17:01:49.909942 13853 net.cpp:91] Creating Layer inception_5b/relu_3x3_reduce
I0404 17:01:49.909960 13853 net.cpp:425] inception_5b/relu_3x3_reduce <- inception_5b/3x3_reduce
I0404 17:01:49.909979 13853 net.cpp:386] inception_5b/relu_3x3_reduce -> inception_5b/3x3_reduce (in-place)
I0404 17:01:49.909999 13853 net.cpp:141] Setting up inception_5b/relu_3x3_reduce
I0404 17:01:49.910017 13853 net.cpp:148] Top shape: 24 192 7 7 (225792)
I0404 17:01:49.910032 13853 net.cpp:156] Memory required for data: 1330660800
I0404 17:01:49.910045 13853 layer_factory.hpp:77] Creating layer inception_5b/3x3
I0404 17:01:49.910068 13853 net.cpp:91] Creating Layer inception_5b/3x3
I0404 17:01:49.910085 13853 net.cpp:425] inception_5b/3x3 <- inception_5b/3x3_reduce
I0404 17:01:49.910104 13853 net.cpp:399] inception_5b/3x3 -> inception_5b/3x3
I0404 17:01:49.915294 13853 net.cpp:141] Setting up inception_5b/3x3
I0404 17:01:49.915326 13853 net.cpp:148] Top shape: 24 384 7 7 (451584)
I0404 17:01:49.915343 13853 net.cpp:156] Memory required for data: 1332467136
I0404 17:01:49.915362 13853 layer_factory.hpp:77] Creating layer inception_5b/relu_3x3
I0404 17:01:49.915381 13853 net.cpp:91] Creating Layer inception_5b/relu_3x3
I0404 17:01:49.915400 13853 net.cpp:425] inception_5b/relu_3x3 <- inception_5b/3x3
I0404 17:01:49.915416 13853 net.cpp:386] inception_5b/relu_3x3 -> inception_5b/3x3 (in-place)
I0404 17:01:49.915436 13853 net.cpp:141] Setting up inception_5b/relu_3x3
I0404 17:01:49.915452 13853 net.cpp:148] Top shape: 24 384 7 7 (451584)
I0404 17:01:49.915467 13853 net.cpp:156] Memory required for data: 1334273472
I0404 17:01:49.915479 13853 layer_factory.hpp:77] Creating layer inception_5b/5x5_reduce
I0404 17:01:49.915501 13853 net.cpp:91] Creating Layer inception_5b/5x5_reduce
I0404 17:01:49.915518 13853 net.cpp:425] inception_5b/5x5_reduce <- inception_5a/output_inception_5a/output_0_split_2
I0404 17:01:49.915539 13853 net.cpp:399] inception_5b/5x5_reduce -> inception_5b/5x5_reduce
I0404 17:01:49.916532 13853 net.cpp:141] Setting up inception_5b/5x5_reduce
I0404 17:01:49.916561 13853 net.cpp:148] Top shape: 24 48 7 7 (56448)
I0404 17:01:49.916579 13853 net.cpp:156] Memory required for data: 1334499264
I0404 17:01:49.916597 13853 layer_factory.hpp:77] Creating layer inception_5b/relu_5x5_reduce
I0404 17:01:49.916618 13853 net.cpp:91] Creating Layer inception_5b/relu_5x5_reduce
I0404 17:01:49.916635 13853 net.cpp:425] inception_5b/relu_5x5_reduce <- inception_5b/5x5_reduce
I0404 17:01:49.916653 13853 net.cpp:386] inception_5b/relu_5x5_reduce -> inception_5b/5x5_reduce (in-place)
I0404 17:01:49.916671 13853 net.cpp:141] Setting up inception_5b/relu_5x5_reduce
I0404 17:01:49.916688 13853 net.cpp:148] Top shape: 24 48 7 7 (56448)
I0404 17:01:49.916702 13853 net.cpp:156] Memory required for data: 1334725056
I0404 17:01:49.916717 13853 layer_factory.hpp:77] Creating layer inception_5b/5x5
I0404 17:01:49.916739 13853 net.cpp:91] Creating Layer inception_5b/5x5
I0404 17:01:49.916755 13853 net.cpp:425] inception_5b/5x5 <- inception_5b/5x5_reduce
I0404 17:01:49.916776 13853 net.cpp:399] inception_5b/5x5 -> inception_5b/5x5
I0404 17:01:49.917817 13853 net.cpp:141] Setting up inception_5b/5x5
I0404 17:01:49.917842 13853 net.cpp:148] Top shape: 24 128 7 7 (150528)
I0404 17:01:49.917858 13853 net.cpp:156] Memory required for data: 1335327168
I0404 17:01:49.917877 13853 layer_factory.hpp:77] Creating layer inception_5b/relu_5x5
I0404 17:01:49.917896 13853 net.cpp:91] Creating Layer inception_5b/relu_5x5
I0404 17:01:49.917929 13853 net.cpp:425] inception_5b/relu_5x5 <- inception_5b/5x5
I0404 17:01:49.917948 13853 net.cpp:386] inception_5b/relu_5x5 -> inception_5b/5x5 (in-place)
I0404 17:01:49.917984 13853 net.cpp:141] Setting up inception_5b/relu_5x5
I0404 17:01:49.918004 13853 net.cpp:148] Top shape: 24 128 7 7 (150528)
I0404 17:01:49.918018 13853 net.cpp:156] Memory required for data: 1335929280
I0404 17:01:49.918032 13853 layer_factory.hpp:77] Creating layer inception_5b/pool
I0404 17:01:49.918051 13853 net.cpp:91] Creating Layer inception_5b/pool
I0404 17:01:49.918067 13853 net.cpp:425] inception_5b/pool <- inception_5a/output_inception_5a/output_0_split_3
I0404 17:01:49.918087 13853 net.cpp:399] inception_5b/pool -> inception_5b/pool
I0404 17:01:49.918143 13853 net.cpp:141] Setting up inception_5b/pool
I0404 17:01:49.918165 13853 net.cpp:148] Top shape: 24 832 7 7 (978432)
I0404 17:01:49.918179 13853 net.cpp:156] Memory required for data: 1339843008
I0404 17:01:49.918195 13853 layer_factory.hpp:77] Creating layer inception_5b/pool_proj
I0404 17:01:49.918231 13853 net.cpp:91] Creating Layer inception_5b/pool_proj
I0404 17:01:49.918247 13853 net.cpp:425] inception_5b/pool_proj <- inception_5b/pool
I0404 17:01:49.918267 13853 net.cpp:399] inception_5b/pool_proj -> inception_5b/pool_proj
I0404 17:01:49.919556 13853 net.cpp:141] Setting up inception_5b/pool_proj
I0404 17:01:49.919584 13853 net.cpp:148] Top shape: 24 128 7 7 (150528)
I0404 17:01:49.919598 13853 net.cpp:156] Memory required for data: 1340445120
I0404 17:01:49.919615 13853 layer_factory.hpp:77] Creating layer inception_5b/relu_pool_proj
I0404 17:01:49.919633 13853 net.cpp:91] Creating Layer inception_5b/relu_pool_proj
I0404 17:01:49.919649 13853 net.cpp:425] inception_5b/relu_pool_proj <- inception_5b/pool_proj
I0404 17:01:49.919667 13853 net.cpp:386] inception_5b/relu_pool_proj -> inception_5b/pool_proj (in-place)
I0404 17:01:49.919684 13853 net.cpp:141] Setting up inception_5b/relu_pool_proj
I0404 17:01:49.919700 13853 net.cpp:148] Top shape: 24 128 7 7 (150528)
I0404 17:01:49.919714 13853 net.cpp:156] Memory required for data: 1341047232
I0404 17:01:49.919728 13853 layer_factory.hpp:77] Creating layer inception_5b/output
I0404 17:01:49.919746 13853 net.cpp:91] Creating Layer inception_5b/output
I0404 17:01:49.919764 13853 net.cpp:425] inception_5b/output <- inception_5b/1x1
I0404 17:01:49.919778 13853 net.cpp:425] inception_5b/output <- inception_5b/3x3
I0404 17:01:49.919795 13853 net.cpp:425] inception_5b/output <- inception_5b/5x5
I0404 17:01:49.919811 13853 net.cpp:425] inception_5b/output <- inception_5b/pool_proj
I0404 17:01:49.919826 13853 net.cpp:399] inception_5b/output -> inception_5b/output
I0404 17:01:49.919867 13853 net.cpp:141] Setting up inception_5b/output
I0404 17:01:49.919888 13853 net.cpp:148] Top shape: 24 1024 7 7 (1204224)
I0404 17:01:49.919906 13853 net.cpp:156] Memory required for data: 1345864128
I0404 17:01:49.919922 13853 layer_factory.hpp:77] Creating layer pool5/7x7_s1
I0404 17:01:49.919939 13853 net.cpp:91] Creating Layer pool5/7x7_s1
I0404 17:01:49.919953 13853 net.cpp:425] pool5/7x7_s1 <- inception_5b/output
I0404 17:01:49.919972 13853 net.cpp:399] pool5/7x7_s1 -> pool5/7x7_s1
I0404 17:01:49.920011 13853 net.cpp:141] Setting up pool5/7x7_s1
I0404 17:01:49.920035 13853 net.cpp:148] Top shape: 24 1024 1 1 (24576)
I0404 17:01:49.920049 13853 net.cpp:156] Memory required for data: 1345962432
I0404 17:01:49.920063 13853 layer_factory.hpp:77] Creating layer pool5/drop_7x7_s1
I0404 17:01:49.920080 13853 net.cpp:91] Creating Layer pool5/drop_7x7_s1
I0404 17:01:49.920094 13853 net.cpp:425] pool5/drop_7x7_s1 <- pool5/7x7_s1
I0404 17:01:49.920110 13853 net.cpp:386] pool5/drop_7x7_s1 -> pool5/7x7_s1 (in-place)
I0404 17:01:49.920150 13853 net.cpp:141] Setting up pool5/drop_7x7_s1
I0404 17:01:49.920171 13853 net.cpp:148] Top shape: 24 1024 1 1 (24576)
I0404 17:01:49.920184 13853 net.cpp:156] Memory required for data: 1346060736
I0404 17:01:49.920198 13853 layer_factory.hpp:77] Creating layer loss3/classifier_plantvillage
I0404 17:01:49.920219 13853 net.cpp:91] Creating Layer loss3/classifier_plantvillage
I0404 17:01:49.920238 13853 net.cpp:425] loss3/classifier_plantvillage <- pool5/7x7_s1
I0404 17:01:49.920270 13853 net.cpp:399] loss3/classifier_plantvillage -> loss3/classifier_plantvillage
I0404 17:01:49.920583 13853 net.cpp:141] Setting up loss3/classifier_plantvillage
I0404 17:01:49.920606 13853 net.cpp:148] Top shape: 24 38 (912)
I0404 17:01:49.920620 13853 net.cpp:156] Memory required for data: 1346064384
I0404 17:01:49.920637 13853 layer_factory.hpp:77] Creating layer loss3/classifier_plantvillage_loss3/classifier_plantvillage_0_split
I0404 17:01:49.920655 13853 net.cpp:91] Creating Layer loss3/classifier_plantvillage_loss3/classifier_plantvillage_0_split
I0404 17:01:49.920671 13853 net.cpp:425] loss3/classifier_plantvillage_loss3/classifier_plantvillage_0_split <- loss3/classifier_plantvillage
I0404 17:01:49.920688 13853 net.cpp:399] loss3/classifier_plantvillage_loss3/classifier_plantvillage_0_split -> loss3/classifier_plantvillage_loss3/classifier_plantvillage_0_split_0
I0404 17:01:49.920711 13853 net.cpp:399] loss3/classifier_plantvillage_loss3/classifier_plantvillage_0_split -> loss3/classifier_plantvillage_loss3/classifier_plantvillage_0_split_1
I0404 17:01:49.920730 13853 net.cpp:399] loss3/classifier_plantvillage_loss3/classifier_plantvillage_0_split -> loss3/classifier_plantvillage_loss3/classifier_plantvillage_0_split_2
I0404 17:01:49.920789 13853 net.cpp:141] Setting up loss3/classifier_plantvillage_loss3/classifier_plantvillage_0_split
I0404 17:01:49.920811 13853 net.cpp:148] Top shape: 24 38 (912)
I0404 17:01:49.920827 13853 net.cpp:148] Top shape: 24 38 (912)
I0404 17:01:49.920842 13853 net.cpp:148] Top shape: 24 38 (912)
I0404 17:01:49.920855 13853 net.cpp:156] Memory required for data: 1346075328
I0404 17:01:49.920868 13853 layer_factory.hpp:77] Creating layer loss1/loss
I0404 17:01:49.920884 13853 net.cpp:91] Creating Layer loss1/loss
I0404 17:01:49.920905 13853 net.cpp:425] loss1/loss <- loss1/classifier_plantvillage_loss1/classifier_plantvillage_0_split_0
I0404 17:01:49.920924 13853 net.cpp:425] loss1/loss <- label_data_1_split_0
…
