…
I0403 15:56:17.757840 14867 net.cpp:313] The NetState phase (1) differed from the phase (0) specified by a rule in layer data
I0403 15:56:17.759058 14867 net.cpp:49] Initializing net from parameters: 
state {
  phase: TEST
}
layer {
  name: "data"
  type: "Data"
  top: "data"
  top: "label"
  include {
    phase: TEST
  }
  transform_param {
    mirror: false
    crop_size: 224
    mean_file: "/home/mohanty/data/final_dataset/lmdb/color-80-20/mean.binaryproto"
  }
  data_param {
    source: "/home/mohanty/data/final_dataset/lmdb/color-80-20/test_db"
    batch_size: 24
    backend: LMDB
  }
}
layer {
  name: "conv1/7x7_s2"
  type: "Convolution"
  bottom: "data"
  top: "conv1/7x7_s2"
  param {
    lr_mult: 1
    decay_mult: 1
  }
  param {
    lr_mult: 2
    decay_mult: 0
  }
  convolution_param {
    num_output: 64
    pad: 3
    kernel_size: 7
    stride: 2
    weight_filler {
      type: "xavier"
      std: 0.1
    }
    bias_filler {
      type: "constant"
      value: 0.2
    }
  }
}
layer {
  name: "conv1/relu_7x7"
  type: "ReLU"
  bottom: "conv1/7x7_s2"
  top: "conv1/7x7_s2"
}
layer {
  name: "pool1/3x3_s2"
  type: "Pooling"
  bottom: "conv1/7x7_s2"
  top: "pool1/3x3_s2"
  pooling_param {
    pool: MAX
    kernel_size: 3
    stride: 2
  }
}
layer {
  name: "pool1/norm1"
  type: "LRN"
  bottom: "pool1/3x3_s2"
  top: "pool1/norm1"
  lrn_param {
    local_size: 5
    alpha: 0.0001
    beta: 0.75
  }
}
layer {
  name: "conv2/3x3_reduce"
  type: "Convolution"
  bottom: "pool1/norm1"
  top: "conv2/3x3_reduce"
  param {
    lr_mult: 1
    decay_mult: 1
  }
  param {
    lr_mult: 2
    decay_mult: 0
  }
  convolution_param {
    num_output: 64
    kernel_size: 1
    weight_filler {
      type: "xavier"
      std: 0.1
    }
    bias_filler {
      type: "constant"
      value: 0.2
    }
  }
}
layer {
  name: "conv2/relu_3x3_reduce"
  type: "ReLU"
  bottom: "conv2/3x3_reduce"
  top: "conv2/3x3_reduce"
}
layer {
  name: "conv2/3x3"
  type: "Convolution"
  bottom: "conv2/3x3_reduce"
  top: "conv2/3x3"
  param {
    lr_mult: 1
    decay_mult: 1
  }
  param {
    lr_mult: 2
    decay_mult: 0
  }
  convolution_param {
    num_output: 192
    pad: 1
    kernel_size: 3
    weight_filler {
      type: "xavier"
      std: 0.03
    }
    bias_filler {
      type: "constant"
      value: 0.2
    }
  }
}
layer {
  name: "conv2/relu_3x3"
  type: "ReLU"
  bottom: "conv2/3x3"
  top: "conv2/3x3"
}
layer {
  name: "conv2/norm2"
  type: "LRN"
  bottom: "conv2/3x3"
  top: "conv2/norm2"
  lrn_param {
    local_size: 5
    alpha: 0.0001
    beta: 0.75
  }
}
layer {
  name: "pool2/3x3_s2"
  type: "Pooling"
  bottom: "conv2/norm2"
  top: "pool2/3x3_s2"
  pooling_param {
    pool: MAX
    kernel_size: 3
    stride: 2
  }
}
layer {
  name: "inception_3a/1x1"
  type: "Convolution"
  bottom: "pool2/3x3_s2"
  top: "inception_3a/1x1"
  param {
    lr_mult: 1
    decay_mult: 1
  }
  param {
    lr_mult: 2
    decay_mult: 0
  }
  convolution_param {
    num_output: 64
    kernel_size: 1
    weight_filler {
      type: "xavier"
      std: 0.03
    }
    bias_filler {
      type: "constant"
      value: 0.2
    }
  }
}
layer {
  name: "inception_3a/relu_1x1"
  type: "ReLU"
  bottom: "inception_3a/1x1"
  top: "inception_3a/1x1"
}
layer {
  name: "inception_3a/3x3_reduce"
  type: "Convolution"
  bottom: "pool2/3x3_s2"
  top: "inception_3a/3x3_reduce"
  param {
    lr_mult: 1
    decay_mult: 1
  }
  param {
    lr_mult: 2
    decay_mult: 0
  }
  convolution_param {
    num_output: 96
    kernel_size: 1
    weight_filler {
      type: "xavier"
      std: 0.09
    }
    bias_filler {
      type: "constant"
      value: 0.2
    }
  }
}
layer {
  name: "inception_3a/relu_3x3_reduce"
  type: "ReLU"
  bottom: "inception_3a/3x3_reduce"
  top: "inception_3a/3x3_reduce"
}
layer {
  name: "inception_3a/3x3"
  type: "Convolution"
  bottom: "inception_3a/3x3_reduce"
  top: "inception_3a/3x3"
  param {
    lr_mult: 1
    decay_mult: 1
  }
  param {
    lr_mult: 2
    decay_mult: 0
  }
  convolution_param {
    num_output: 128
    pad: 1
    kernel_size: 3
    weight_filler {
      type: "xavier"
      std: 0.03
    }
    bias_filler {
      type: "constant"
      value: 0.2
    }
  }
}
layer {
  name: "inception_3a/relu_3x3"
  type: "ReLU"
  bottom: "inception_3a/3x3"
  top: "inception_3a/3x3"
}
layer {
  name: "inception_3a/5x5_reduce"
  type: "Convolution"
  bottom: "pool2/3x3_s2"
  top: "inception_3a/5x5_reduce"
  param {
    lr_mult: 1
    decay_mult: 1
  }
  param {
    lr_mult: 2
    decay_mult: 0
  }
  convolution_param {
    num_output: 16
    kernel_size: 1
    weight_filler {
      type: "xavier"
      std: 0.2
    }
    bias_filler {
      type: "constant"
      value: 0.2
    }
  }
}
layer {
  name: "inception_3a/relu_5x5_reduce"
  type: "ReLU"
  bottom: "inception_3a/5x5_reduce"
  top: "inception_3a/5x5_reduce"
}
layer {
  name: "inception_3a/5x5"
  type: "Convolution"
  bottom: "inception_3a/5x5_reduce"
  top: "inception_3a/5x5"
  param {
    lr_mult: 1
    decay_mult: 1
  }
  param {
    lr_mult: 2
    decay_mult: 0
  }
  convolution_param {
    num_output: 32
    pad: 2
    kernel_size: 5
    weight_filler {
      type: "xavier"
      std: 0.03
    }
    bias_filler {
      type: "constant"
      value: 0.2
    }
  }
}
layer {
  name: "inception_3a/relu_5x5"
  type: "ReLU"
  bottom: "inception_3a/5x5"
  top: "inception_3a/5x5"
}
layer {
  name: "inception_3a/pool"
  type: "Pooling"
  bottom: "pool2/3x3_s2"
  top: "inception_3a/pool"
  pooling_param {
    pool: MAX
    kernel_size: 3
    stride: 1
    pad: 1
  }
}
layer {
  name: "inception_3a/pool_proj"
  type: "Convolution"
  bottom: "inception_3a/pool"
  top: "inception_3a/pool_proj"
  param {
    lr_mult: 1
    decay_mult: 1
  }
  param {
    lr_mult: 2
    decay_mult: 0
  }
  convolution_param {
    num_output: 32
    kernel_size: 1
    weight_filler {
      type: "xavier"
      std: 0.1
    }
    bias_filler {
      type: "constant"
      value: 0.2
    }
  }
}
layer {
  name: "inception_3a/relu_pool_proj"
  type: "ReLU"
  bottom: "inception_3a/pool_proj"
  top: "inception_3a/pool_proj"
}
layer {
  name: "inception_3a/output"
  type: "Concat"
  bottom: "inception_3a/1x1"
  bottom: "inception_3a/3x3"
  bottom: "inception_3a/5x5"
  bottom: "inception_3a/pool_proj"
  top: "inception_3a/output"
}
layer {
  name: "inception_3b/1x1"
  type: "Convolution"
  bottom: "inception_3a/output"
  top: "inception_3b/1x1"
  param {
    lr_mult: 1
    decay_mult: 1
  }
  param {
    lr_mult: 2
    decay_mult: 0
  }
  convolution_param {
    num_output: 128
    kernel_size: 1
    weight_filler {
      type: "xavier"
      std: 0.03
    }
    bias_filler {
      type: "constant"
      value: 0.2
    }
  }
}
layer {
  name: "inception_3b/relu_1x1"
  type: "ReLU"
  bottom: "inception_3b/1x1"
  top: "inception_3b/1x1"
}
layer {
  name: "inception_3b/3x3_reduce"
  type: "Convolution"
  bottom: "inception_3a/output"
  top: "inception_3b/3x3_reduce"
  param {
    lr_mult: 1
    decay_mult: 1
  }
  param {
    lr_mult: 2
    decay_mult: 0
  }
  convolution_param {
    num_output: 128
    kernel_size: 1
    weight_filler {
      type: "xavier"
      std: 0.09
    }
    bias_filler {
      type: "constant"
      value: 0.2
    }
  }
}
layer {
  name: "inception_3b/relu_3x3_reduce"
  type: "ReLU"
  bottom: "inception_3b/3x3_reduce"
  top: "inception_3b/3x3_reduce"
}
layer {
  name: "inception_3b/3x3"
  type: "Convolution"
  bottom: "inception_3b/3x3_reduce"
  top: "inception_3b/3x3"
  param {
    lr_mult: 1
    decay_mult: 1
  }
  param {
    lr_mult: 2
    decay_mult: 0
  }
  convolution_param {
    num_output: 192
    pad: 1
    kernel_size: 3
    weight_filler {
      type: "xavier"
      std: 0.03
    }
    bias_filler {
      type: "constant"
      value: 0.2
    }
  }
}
layer {
  name: "inception_3b/relu_3x3"
  type: "ReLU"
  bottom: "inception_3b/3x3"
  top: "inception_3b/3x3"
}
layer {
  name: "inception_3b/5x5_reduce"
  type: "Convolution"
  bottom: "inception_3a/output"
  top: "inception_3b/5x5_reduce"
  param {
    lr_mult: 1
    decay_mult: 1
  }
  param {
    lr_mult: 2
    decay_mult: 0
  }
  convolution_param {
    num_output: 32
    kernel_size: 1
    weight_filler {
      type: "xavier"
      std: 0.2
    }
    bias_filler {
      type: "constant"
      value: 0.2
    }
  }
}
layer {
  name: "inception_3b/relu_5x5_reduce"
  type: "ReLU"
  bottom: "inception_3b/5x5_reduce"
  top: "inception_3b/5x5_reduce"
}
layer {
  name: "inception_3b/5x5"
  type: "Convolution"
  bottom: "inception_3b/5x5_reduce"
  top: "inception_3b/5x5"
  param {
    lr_mult: 1
    decay_mult: 1
  }
  param {
    lr_mult: 2
    decay_mult: 0
  }
  convolution_param {
    num_output: 96
    pad: 2
    kernel_size: 5
    weight_filler {
      type: "xavier"
      std: 0.03
    }
    bias_filler {
      type: "constant"
      value: 0.2
    }
  }
}
layer {
  name: "inception_3b/relu_5x5"
  type: "ReLU"
  bottom: "inception_3b/5x5"
  top: "inception_3b/5x5"
}
layer {
  name: "inception_3b/pool"
  type: "Pooling"
  bottom: "inception_3a/output"
  top: "inception_3b/pool"
  pooling_param {
    pool: MAX
    kernel_size: 3
    stride: 1
    pad: 1
  }
}
layer {
  name: "inception_3b/pool_proj"
  type: "Convolution"
  bottom: "inception_3b/pool"
  top: "inception_3b/pool_proj"
  param {
    lr_mult: 1
    decay_mult: 1
  }
  param {
    lr_mult: 2
    decay_mult: 0
  }
  convolution_param {
    num_output: 64
    kernel_size: 1
    weight_filler {
      type: "xavier"
      std: 0.1
    }
    bias_filler {
      type: "constant"
      value: 0.2
    }
  }
}
layer {
  name: "inception_3b/relu_pool_proj"
  type: "ReLU"
  bottom: "inception_3b/pool_proj"
  top: "inception_3b/pool_proj"
}
layer {
  name: "inception_3b/output"
  type: "Concat"
  bottom: "inception_3b/1x1"
  bottom: "inception_3b/3x3"
  bottom: "inception_3b/5x5"
  bottom: "inception_3b/pool_proj"
  top: "inception_3b/output"
}
layer {
  name: "pool3/3x3_s2"
  type: "Pooling"
  bottom: "inception_3b/output"
  top: "pool3/3x3_s2"
  pooling_param {
    pool: MAX
    kernel_size: 3
    stride: 2
  }
}
layer {
  name: "inception_4a/1x1"
  type: "Convolution"
  bottom: "pool3/3x3_s2"
  top: "inception_4a/1x1"
  param {
    lr_mult: 1
    decay_mult: 1
  }
  param {
    lr_mult: 2
    decay_mult: 0
  }
  convolution_param {
    num_output: 192
    kernel_size: 1
    weight_filler {
      type: "xavier"
      std: 0.03
    }
    bias_filler {
      type: "constant"
      value: 0.2
    }
  }
}
layer {
  name: "inception_4a/relu_1x1"
  type: "ReLU"
  bottom: "inception_4a/1x1"
  top: "inception_4a/1x1"
}
layer {
  name: "inception_4a/3x3_reduce"
  type: "Convolution"
  bottom: "pool3/3x3_s2"
  top: "inception_4a/3x3_reduce"
  param {
    lr_mult: 1
    decay_mult: 1
  }
  param {
    lr_mult: 2
    decay_mult: 0
  }
  convolution_param {
    num_output: 96
    kernel_size: 1
    weight_filler {
      type: "xavier"
      std: 0.09
    }
    bias_filler {
      type: "constant"
      value: 0.2
    }
  }
}
layer {
  name: "inception_4a/relu_3x3_reduce"
  type: "ReLU"
  bottom: "inception_4a/3x3_reduce"
  top: "inception_4a/3x3_reduce"
}
layer {
  name: "inception_4a/3x3"
  type: "Convolution"
  bottom: "inception_4a/3x3_reduce"
  top: "inception_4a/3x3"
  param {
    lr_mult: 1
    decay_mult: 1
  }
  param {
    lr_mult: 2
    decay_mult: 0
  }
  convolution_param {
    num_output: 208
    pad: 1
    kernel_size: 3
    weight_filler {
      type: "xavier"
      std: 0.03
    }
    bias_filler {
      type: "constant"
      value: 0.2
    }
  }
}
layer {
  name: "inception_4a/relu_3x3"
  type: "ReLU"
  bottom: "inception_4a/3x3"
  top: "inception_4a/3x3"
}
layer {
  name: "inception_4a/5x5_reduce"
  type: "Convolution"
  bottom: "pool3/3x3_s2"
  top: "inception_4a/5x5_reduce"
  param {
    lr_mult: 1
    decay_mult: 1
  }
  param {
    lr_mult: 2
    decay_mult: 0
  }
  convolution_param {
    num_output: 16
    kernel_size: 1
    weight_filler {
      type: "xavier"
      std: 0.2
    }
    bias_filler {
      type: "constant"
      value: 0.2
    }
  }
}
layer {
  name: "inception_4a/relu_5x5_reduce"
  type: "ReLU"
  bottom: "inception_4a/5x5_reduce"
  top: "inception_4a/5x5_reduce"
}
layer {
  name: "inception_4a/5x5"
  type: "Convolution"
  bottom: "inception_4a/5x5_reduce"
  top: "inception_4a/5x5"
  param {
    lr_mult: 1
    decay_mult: 1
  }
  param {
    lr_mult: 2
    decay_mult: 0
  }
  convolution_param {
    num_output: 48
    pad: 2
    kernel_size: 5
    weight_filler {
      type: "xavier"
      std: 0.03
    }
    bias_filler {
      type: "constant"
      value: 0.2
    }
  }
}
layer {
  name: "inception_4a/relu_5x5"
  type: "ReLU"
  bottom: "inception_4a/5x5"
  top: "inception_4a/5x5"
}
layer {
  name: "inception_4a/pool"
  type: "Pooling"
  bottom: "pool3/3x3_s2"
  top: "inception_4a/pool"
  pooling_param {
    pool: MAX
    kernel_size: 3
    stride: 1
    pad: 1
  }
}
layer {
  name: "inception_4a/pool_proj"
  type: "Convolution"
  bottom: "inception_4a/pool"
  top: "inception_4a/pool_proj"
  param {
    lr_mult: 1
    decay_mult: 1
  }
  param {
    lr_mult: 2
    decay_mult: 0
  }
  convolution_param {
    num_output: 64
    kernel_size: 1
    weight_filler {
      type: "xavier"
      std: 0.1
    }
    bias_filler {
      type: "constant"
      value: 0.2
    }
  }
}
layer {
  name: "inception_4a/relu_pool_proj"
  type: "ReLU"
  bottom: "inception_4a/pool_proj"
  top: "inception_4a/pool_proj"
}
layer {
  name: "inception_4a/output"
  type: "Concat"
  bottom: "inception_4a/1x1"
  bottom: "inception_4a/3x3"
  bottom: "inception_4a/5x5"
  bottom: "inception_4a/pool_proj"
  top: "inception_4a/output"
}
layer {
  name: "loss1/ave_pool"
  type: "Pooling"
  bottom: "inception_4a/output"
  top: "loss1/ave_pool"
  pooling_param {
    pool: AVE
    kernel_size: 5
    stride: 3
  }
}
layer {
  name: "loss1/conv"
  type: "Convolution"
  bottom: "loss1/ave_pool"
  top: "loss1/conv"
  param {
    lr_mult: 1
    decay_mult: 1
  }
  param {
    lr_mult: 2
    decay_mult: 0
  }
  convolution_param {
    num_output: 128
    kernel_size: 1
    weight_filler {
      type: "xavier"
      std: 0.08
    }
    bias_filler {
      type: "constant"
      value: 0.2
    }
  }
}
layer {
  name: "loss1/relu_conv"
  type: "ReLU"
  bottom: "loss1/conv"
  top: "loss1/conv"
}
layer {
  name: "loss1/fc"
  type: "InnerProduct"
  bottom: "loss1/conv"
  top: "loss1/fc"
  param {
    lr_mult: 1
    decay_mult: 1
  }
  param {
    lr_mult: 2
    decay_mult: 0
  }
  inner_product_param {
    num_output: 1024
    weight_filler {
      type: "xavier"
      std: 0.02
    }
    bias_filler {
      type: "constant"
      value: 0.2
    }
  }
}
layer {
  name: "loss1/relu_fc"
  type: "ReLU"
  bottom: "loss1/fc"
  top: "loss1/fc"
}
layer {
  name: "loss1/drop_fc"
  type: "Dropout"
  bottom: "loss1/fc"
  top: "loss1/fc"
  dropout_param {
    dropout_ratio: 0.7
  }
}
layer {
  name: "loss1/classifier_plantvillage"
  type: "InnerProduct"
  bottom: "loss1/fc"
  top: "loss1/classifier_plantvillage"
  param {
    lr_mult: 1
    decay_mult: 1
  }
  param {
    lr_mult: 2
    decay_mult: 0
  }
  inner_product_param {
    num_output: 38
    weight_filler {
      type: "xavier"
      std: 0.0009765625
    }
    bias_filler {
      type: "constant"
      value: 0
    }
  }
}
layer {
  name: "inception_4b/1x1"
  type: "Convolution"
  bottom: "inception_4a/output"
  top: "inception_4b/1x1"
  param {
    lr_mult: 1
    decay_mult: 1
  }
  param {
    lr_mult: 2
    decay_mult: 0
  }
  convolution_param {
    num_output: 160
    kernel_size: 1
    weight_filler {
      type: "xavier"
      std: 0.03
    }
    bias_filler {
      type: "constant"
      value: 0.2
    }
  }
}
layer {
  name: "inception_4b/relu_1x1"
  type: "ReLU"
  bottom: "inception_4b/1x1"
  top: "inception_4b/1x1"
}
layer {
  name: "inception_4b/3x3_reduce"
  type: "Convolution"
  bottom: "inception_4a/output"
  top: "inception_4b/3x3_reduce"
  param {
    lr_mult: 1
    decay_mult: 1
  }
  param {
    lr_mult: 2
    decay_mult: 0
  }
  convolution_param {
    num_output: 112
    kernel_size: 1
    weight_filler {
      type: "xavier"
      std: 0.09
    }
    bias_filler {
      type: "constant"
      value: 0.2
    }
  }
}
layer {
  name: "inception_4b/relu_3x3_reduce"
  type: "ReLU"
  bottom: "inception_4b/3x3_reduce"
  top: "inception_4b/3x3_reduce"
}
layer {
  name: "inception_4b/3x3"
  type: "Convolution"
  bottom: "inception_4b/3x3_reduce"
  top: "inception_4b/3x3"
  param {
    lr_mult: 1
    decay_mult: 1
  }
  param {
    lr_mult: 2
    decay_mult: 0
  }
  convolution_param {
    num_output: 224
    pad: 1
    kernel_size: 3
    weight_filler {
      type: "xavier"
      std: 0.03
    }
    bias_filler {
      type: "constant"
      value: 0.2
    }
  }
}
layer {
  name: "inception_4b/relu_3x3"
  type: "ReLU"
  bottom: "inception_4b/3x3"
  top: "inception_4b/3x3"
}
layer {
  name: "inception_4b/5x5_reduce"
  type: "Convolution"
  bottom: "inception_4a/output"
  top: "inception_4b/5x5_reduce"
  param {
    lr_mult: 1
    decay_mult: 1
  }
  param {
    lr_mult: 2
    decay_mult: 0
  }
  convolution_param {
    num_output: 24
    kernel_size: 1
    weight_filler {
      type: "xavier"
      std: 0.2
    }
    bias_filler {
      type: "constant"
      value: 0.2
    }
  }
}
layer {
  name: "inception_4b/relu_5x5_reduce"
  type: "ReLU"
  bottom: "inception_4b/5x5_reduce"
  top: "inception_4b/5x5_reduce"
}
layer {
  name: "inception_4b/5x5"
  type: "Convolution"
  bottom: "inception_4b/5x5_reduce"
  top: "inception_4b/5x5"
  param {
    lr_mult: 1
    decay_mult: 1
  }
  param {
    lr_mult: 2
    decay_mult: 0
  }
  convolution_param {
    num_output: 64
    pad: 2
    kernel_size: 5
    weight_filler {
      type: "xavier"
      std: 0.03
    }
    bias_filler {
      type: "constant"
      value: 0.2
    }
  }
}
layer {
  name: "inception_4b/relu_5x5"
  type: "ReLU"
  bottom: "inception_4b/5x5"
  top: "inception_4b/5x5"
}
layer {
  name: "inception_4b/pool"
  type: "Pooling"
  bottom: "inception_4a/output"
  top: "inception_4b/pool"
  pooling_param {
    pool: MAX
    kernel_size: 3
    stride: 1
    pad: 1
  }
}
layer {
  name: "inception_4b/pool_proj"
  type: "Convolution"
  bottom: "inception_4b/pool"
  top: "inception_4b/pool_proj"
  param {
    lr_mult: 1
    decay_mult: 1
  }
  param {
    lr_mult: 2
    decay_mult: 0
  }
  convolution_param {
    num_output: 64
    kernel_size: 1
    weight_filler {
      type: "xavier"
      std: 0.1
    }
    bias_filler {
      type: "constant"
      value: 0.2
    }
  }
}
layer {
  name: "inception_4b/relu_pool_proj"
  type: "ReLU"
  bottom: "inception_4b/pool_proj"
  top: "inception_4b/pool_proj"
}
layer {
  name: "inception_4b/output"
  type: "Concat"
  bottom: "inception_4b/1x1"
  bottom: "inception_4b/3x3"
  bottom: "inception_4b/5x5"
  bottom: "inception_4b/pool_proj"
  top: "inception_4b/output"
}
layer {
  name: "inception_4c/1x1"
  type: "Convolution"
  bottom: "inception_4b/output"
  top: "inception_4c/1x1"
  param {
    lr_mult: 1
    decay_mult: 1
  }
  param {
    lr_mult: 2
    decay_mult: 0
  }
  convolution_param {
    num_output: 128
    kernel_size: 1
    weight_filler {
      type: "xavier"
      std: 0.03
    }
    bias_filler {
      type: "constant"
      value: 0.2
    }
  }
}
layer {
  name: "inception_4c/relu_1x1"
  type: "ReLU"
  bottom: "inception_4c/1x1"
  top: "inception_4c/1x1"
}
layer {
  name: "inception_4c/3x3_reduce"
  type: "Convolution"
  bottom: "inception_4b/output"
  top: "inception_4c/3x3_reduce"
  param {
    lr_mult: 1
    decay_mult: 1
  }
  param {
    lr_mult: 2
    decay_mult: 0
  }
  convolution_param {
    num_output: 128
    kernel_size: 1
    weight_filler {
      type: "xavier"
      std: 0.09
    }
    bias_filler {
      type: "constant"
      value: 0.2
    }
  }
}
layer {
  name: "inception_4c/relu_3x3_reduce"
  type: "ReLU"
  bottom: "inception_4c/3x3_reduce"
  top: "inception_4c/3x3_reduce"
}
layer {
  name: "inception_4c/3x3"
  type: "Convolution"
  bottom: "inception_4c/3x3_reduce"
  top: "inception_4c/3x3"
  param {
    lr_mult: 1
    decay_mult: 1
  }
  param {
    lr_mult: 2
    decay_mult: 0
  }
  convolution_param {
    num_output: 256
    pad: 1
    kernel_size: 3
    weight_filler {
      type: "xavier"
      std: 0.03
    }
    bias_filler {
      type: "constant"
      value: 0.2
    }
  }
}
layer {
  name: "inception_4c/relu_3x3"
  type: "ReLU"
  bottom: "inception_4c/3x3"
  top: "inception_4c/3x3"
}
layer {
  name: "inception_4c/5x5_reduce"
  type: "Convolution"
  bottom: "inception_4b/output"
  top: "inception_4c/5x5_reduce"
  param {
    lr_mult: 1
    decay_mult: 1
  }
  param {
    lr_mult: 2
    decay_mult: 0
  }
  convolution_param {
    num_output: 24
    kernel_size: 1
    weight_filler {
      type: "xavier"
      std: 0.2
    }
    bias_filler {
      type: "constant"
      value: 0.2
    }
  }
}
layer {
  name: "inception_4c/relu_5x5_reduce"
  type: "ReLU"
  bottom: "inception_4c/5x5_reduce"
  top: "inception_4c/5x5_reduce"
}
layer {
  name: "inception_4c/5x5"
  type: "Convolution"
  bottom: "inception_4c/5x5_reduce"
  top: "inception_4c/5x5"
  param {
    lr_mult: 1
    decay_mult: 1
  }
  param {
    lr_mult: 2
    decay_mult: 0
  }
  convolution_param {
    num_output: 64
    pad: 2
    kernel_size: 5
    weight_filler {
      type: "xavier"
      std: 0.03
    }
    bias_filler {
      type: "constant"
      value: 0.2
    }
  }
}
layer {
  name: "inception_4c/relu_5x5"
  type: "ReLU"
  bottom: "inception_4c/5x5"
  top: "inception_4c/5x5"
}
layer {
  name: "inception_4c/pool"
  type: "Pooling"
  bottom: "inception_4b/output"
  top: "inception_4c/pool"
  pooling_param {
    pool: MAX
    kernel_size: 3
    stride: 1
    pad: 1
  }
}
layer {
  name: "inception_4c/pool_proj"
  type: "Convolution"
  bottom: "inception_4c/pool"
  top: "inception_4c/pool_proj"
  param {
    lr_mult: 1
    decay_mult: 1
  }
  param {
    lr_mult: 2
    decay_mult: 0
  }
  convolution_param {
    num_output: 64
    kernel_size: 1
    weight_filler {
      type: "xavier"
      std: 0.1
    }
    bias_filler {
      type: "constant"
      value: 0.2
    }
  }
}
layer {
  name: "inception_4c/relu_pool_proj"
  type: "ReLU"
  bottom: "inception_4c/pool_proj"
  top: "inception_4c/pool_proj"
}
layer {
  name: "inception_4c/output"
  type: "Concat"
  bottom: "inception_4c/1x1"
  bottom: "inception_4c/3x3"
  bottom: "inception_4c/5x5"
  bottom: "inception_4c/pool_proj"
  top: "inception_4c/output"
}
layer {
  name: "inception_4d/1x1"
  type: "Convolution"
  bottom: "inception_4c/output"
  top: "inception_4d/1x1"
  param {
    lr_mult: 1
    decay_mult: 1
  }
  param {
    lr_mult: 2
    decay_mult: 0
  }
  convolution_param {
    num_output: 112
    kernel_size: 1
    weight_filler {
      type: "xavier"
      std: 0.03
    }
    bias_filler {
      type: "constant"
      value: 0.2
    }
  }
}
layer {
  name: "inception_4d/relu_1x1"
  type: "ReLU"
  bottom: "inception_4d/1x1"
  top: "inception_4d/1x1"
}
layer {
  name: "inception_4d/3x3_reduce"
  type: "Convolution"
  bottom: "inception_4c/output"
  top: "inception_4d/3x3_reduce"
  param {
    lr_mult: 1
    decay_mult: 1
  }
  param {
    lr_mult: 2
    decay_mult: 0
  }
  convolution_param {
    num_output: 144
    kernel_size: 1
    weight_filler {
      type: "xavier"
      std: 0.09
    }
    bias_filler {
      type: "constant"
      value: 0.2
    }
  }
}
layer {
  name: "inception_4d/relu_3x3_reduce"
  type: "ReLU"
  bottom: "inception_4d/3x3_reduce"
  top: "inception_4d/3x3_reduce"
}
layer {
  name: "inception_4d/3x3"
  type: "Convolution"
  bottom: "inception_4d/3x3_reduce"
  top: "inception_4d/3x3"
  param {
    lr_mult: 1
    decay_mult: 1
  }
  param {
    lr_mult: 2
    decay_mult: 0
  }
  convolution_param {
    num_output: 288
    pad: 1
    kernel_size: 3
    weight_filler {
      type: "xavier"
      std: 0.03
    }
    bias_filler {
      type: "constant"
      value: 0.2
    }
  }
}
layer {
  name: "inception_4d/relu_3x3"
  type: "ReLU"
  bottom: "inception_4d/3x3"
  top: "inception_4d/3x3"
}
layer {
  name: "inception_4d/5x5_reduce"
  type: "Convolution"
  bottom: "inception_4c/output"
  top: "inception_4d/5x5_reduce"
  param {
    lr_mult: 1
    decay_mult: 1
  }
  param {
    lr_mult: 2
    decay_mult: 0
  }
  convolution_param {
    num_output: 32
    kernel_size: 1
    weight_filler {
      type: "xavier"
      std: 0.2
    }
    bias_filler {
      type: "constant"
      value: 0.2
    }
  }
}
layer {
  name: "inception_4d/relu_5x5_reduce"
  type: "ReLU"
  bottom: "inception_4d/5x5_reduce"
  top: "inception_4d/5x5_reduce"
}
layer {
  name: "inception_4d/5x5"
  type: "Convolution"
  bottom: "inception_4d/5x5_reduce"
  top: "inception_4d/5x5"
  param {
    lr_mult: 1
    decay_mult: 1
  }
  param {
    lr_mult: 2
    decay_mult: 0
  }
  convolution_param {
    num_output: 64
    pad: 2
    kernel_size: 5
    weight_filler {
      type: "xavier"
      std: 0.03
    }
    bias_filler {
      type: "constant"
      value: 0.2
    }
  }
}
layer {
  name: "inception_4d/relu_5x5"
  type: "ReLU"
  bottom: "inception_4d/5x5"
  top: "inception_4d/5x5"
}
layer {
  name: "inception_4d/pool"
  type: "Pooling"
  bottom: "inception_4c/output"
  top: "inception_4d/pool"
  pooling_param {
    pool: MAX
    kernel_size: 3
    stride: 1
    pad: 1
  }
}
layer {
  name: "inception_4d/pool_proj"
  type: "Convolution"
  bottom: "inception_4d/pool"
  top: "inception_4d/pool_proj"
  param {
    lr_mult: 1
    decay_mult: 1
  }
  param {
    lr_mult: 2
    decay_mult: 0
  }
  convolution_param {
    num_output: 64
    kernel_size: 1
    weight_filler {
      type: "xavier"
      std: 0.1
    }
    bias_filler {
      type: "constant"
      value: 0.2
    }
  }
}
layer {
  name: "inception_4d/relu_pool_proj"
  type: "ReLU"
  bottom: "inception_4d/pool_proj"
  top: "inception_4d/pool_proj"
}
layer {
  name: "inception_4d/output"
  type: "Concat"
  bottom: "inception_4d/1x1"
  bottom: "inception_4d/3x3"
  bottom: "inception_4d/5x5"
  bottom: "inception_4d/pool_proj"
  top: "inception_4d/output"
}
layer {
  name: "loss2/ave_pool"
  type: "Pooling"
  bottom: "inception_4d/output"
  top: "loss2/ave_pool"
  pooling_param {
    pool: AVE
    kernel_size: 5
    stride: 3
  }
}
layer {
  name: "loss2/conv"
  type: "Convolution"
  bottom: "loss2/ave_pool"
  top: "loss2/conv"
  param {
    lr_mult: 1
    decay_mult: 1
  }
  param {
    lr_mult: 2
    decay_mult: 0
  }
  convolution_param {
    num_output: 128
    kernel_size: 1
    weight_filler {
      type: "xavier"
      std: 0.08
    }
    bias_filler {
      type: "constant"
      value: 0.2
    }
  }
}
layer {
  name: "loss2/relu_conv"
  type: "ReLU"
  bottom: "loss2/conv"
  top: "loss2/conv"
}
layer {
  name: "loss2/fc"
  type: "InnerProduct"
  bottom: "loss2/conv"
  top: "loss2/fc"
  param {
    lr_mult: 1
    decay_mult: 1
  }
  param {
    lr_mult: 2
    decay_mult: 0
  }
  inner_product_param {
    num_output: 1024
    weight_filler {
      type: "xavier"
      std: 0.02
    }
    bias_filler {
      type: "constant"
      value: 0.2
    }
  }
}
layer {
  name: "loss2/relu_fc"
  type: "ReLU"
  bottom: "loss2/fc"
  top: "loss2/fc"
}
layer {
  name: "loss2/drop_fc"
  type: "Dropout"
  bottom: "loss2/fc"
  top: "loss2/fc"
  dropout_param {
    dropout_ratio: 0.7
  }
}
layer {
  name: "loss2/classifier_plantvillage"
  type: "InnerProduct"
  bottom: "loss2/fc"
  top: "loss2/classifier_plantvillage"
  param {
    lr_mult: 1
    decay_mult: 1
  }
  param {
    lr_mult: 2
    decay_mult: 0
  }
  inner_product_param {
    num_output: 38
    weight_filler {
      type: "xavier"
      std: 0.0009765625
    }
    bias_filler {
      type: "constant"
      value: 0
    }
  }
}
layer {
  name: "inception_4e/1x1"
  type: "Convolution"
  bottom: "inception_4d/output"
  top: "inception_4e/1x1"
  param {
    lr_mult: 1
    decay_mult: 1
  }
  param {
    lr_mult: 2
    decay_mult: 0
  }
  convolution_param {
    num_output: 256
    kernel_size: 1
    weight_filler {
      type: "xavier"
      std: 0.03
    }
    bias_filler {
      type: "constant"
      value: 0.2
    }
  }
}
layer {
  name: "inception_4e/relu_1x1"
  type: "ReLU"
  bottom: "inception_4e/1x1"
  top: "inception_4e/1x1"
}
layer {
  name: "inception_4e/3x3_reduce"
  type: "Convolution"
  bottom: "inception_4d/output"
  top: "inception_4e/3x3_reduce"
  param {
    lr_mult: 1
    decay_mult: 1
  }
  param {
    lr_mult: 2
    decay_mult: 0
  }
  convolution_param {
    num_output: 160
    kernel_size: 1
    weight_filler {
      type: "xavier"
      std: 0.09
    }
    bias_filler {
      type: "constant"
      value: 0.2
    }
  }
}
layer {
  name: "inception_4e/relu_3x3_reduce"
  type: "ReLU"
  bottom: "inception_4e/3x3_reduce"
  top: "inception_4e/3x3_reduce"
}
layer {
  name: "inception_4e/3x3"
  type: "Convolution"
  bottom: "inception_4e/3x3_reduce"
  top: "inception_4e/3x3"
  param {
    lr_mult: 1
    decay_mult: 1
  }
  param {
    lr_mult: 2
    decay_mult: 0
  }
  convolution_param {
    num_output: 320
    pad: 1
    kernel_size: 3
    weight_filler {
      type: "xavier"
      std: 0.03
    }
    bias_filler {
      type: "constant"
      value: 0.2
    }
  }
}
layer {
  name: "inception_4e/relu_3x3"
  type: "ReLU"
  bottom: "inception_4e/3x3"
  top: "inception_4e/3x3"
}
layer {
  name: "inception_4e/5x5_reduce"
  type: "Convolution"
  bottom: "inception_4d/output"
  top: "inception_4e/5x5_reduce"
  param {
    lr_mult: 1
    decay_mult: 1
  }
  param {
    lr_mult: 2
    decay_mult: 0
  }
  convolution_param {
    num_output: 32
    kernel_size: 1
    weight_filler {
      type: "xavier"
      std: 0.2
    }
    bias_filler {
      type: "constant"
      value: 0.2
    }
  }
}
layer {
  name: "inception_4e/relu_5x5_reduce"
  type: "ReLU"
  bottom: "inception_4e/5x5_reduce"
  top: "inception_4e/5x5_reduce"
}
layer {
  name: "inception_4e/5x5"
  type: "Convolution"
  bottom: "inception_4e/5x5_reduce"
  top: "inception_4e/5x5"
  p
I0403 15:56:17.760300 14867 layer_factory.hpp:77] Creating layer data
I0403 15:56:17.760911 14867 net.cpp:91] Creating Layer data
I0403 15:56:17.760947 14867 net.cpp:399] data -> data
I0403 15:56:17.761003 14867 net.cpp:399] data -> label
I0403 15:56:17.761040 14867 data_transformer.cpp:25] Loading mean file from: /home/mohanty/data/final_dataset/lmdb/color-80-20/mean.binaryproto
I0403 15:56:17.763392 14869 db_lmdb.cpp:38] Opened lmdb /home/mohanty/data/final_dataset/lmdb/color-80-20/test_db
I0403 15:56:17.774755 14867 data_layer.cpp:41] output data size: 24,3,224,224
I0403 15:56:17.803104 14867 net.cpp:141] Setting up data
I0403 15:56:17.803200 14867 net.cpp:148] Top shape: 24 3 224 224 (3612672)
I0403 15:56:17.803226 14867 net.cpp:148] Top shape: 24 (24)
I0403 15:56:17.803241 14867 net.cpp:156] Memory required for data: 14450784
I0403 15:56:17.803269 14867 layer_factory.hpp:77] Creating layer label_data_1_split
I0403 15:56:17.803299 14867 net.cpp:91] Creating Layer label_data_1_split
I0403 15:56:17.803318 14867 net.cpp:425] label_data_1_split <- label
I0403 15:56:17.803349 14867 net.cpp:399] label_data_1_split -> label_data_1_split_0
I0403 15:56:17.803378 14867 net.cpp:399] label_data_1_split -> label_data_1_split_1
I0403 15:56:17.803400 14867 net.cpp:399] label_data_1_split -> label_data_1_split_2
I0403 15:56:17.803421 14867 net.cpp:399] label_data_1_split -> label_data_1_split_3
I0403 15:56:17.803442 14867 net.cpp:399] label_data_1_split -> label_data_1_split_4
I0403 15:56:17.803462 14867 net.cpp:399] label_data_1_split -> label_data_1_split_5
I0403 15:56:17.803480 14867 net.cpp:399] label_data_1_split -> label_data_1_split_6
I0403 15:56:17.803501 14867 net.cpp:399] label_data_1_split -> label_data_1_split_7
I0403 15:56:17.803521 14867 net.cpp:399] label_data_1_split -> label_data_1_split_8
I0403 15:56:17.803541 14867 net.cpp:399] label_data_1_split -> label_data_1_split_9
I0403 15:56:17.803668 14867 net.cpp:141] Setting up label_data_1_split
I0403 15:56:17.803695 14867 net.cpp:148] Top shape: 24 (24)
I0403 15:56:17.803714 14867 net.cpp:148] Top shape: 24 (24)
I0403 15:56:17.803731 14867 net.cpp:148] Top shape: 24 (24)
I0403 15:56:17.803747 14867 net.cpp:148] Top shape: 24 (24)
I0403 15:56:17.803762 14867 net.cpp:148] Top shape: 24 (24)
I0403 15:56:17.803778 14867 net.cpp:148] Top shape: 24 (24)
I0403 15:56:17.803794 14867 net.cpp:148] Top shape: 24 (24)
I0403 15:56:17.803810 14867 net.cpp:148] Top shape: 24 (24)
I0403 15:56:17.803828 14867 net.cpp:148] Top shape: 24 (24)
I0403 15:56:17.803845 14867 net.cpp:148] Top shape: 24 (24)
I0403 15:56:17.803887 14867 net.cpp:156] Memory required for data: 14451744
I0403 15:56:17.803903 14867 layer_factory.hpp:77] Creating layer conv1/7x7_s2
I0403 15:56:17.803937 14867 net.cpp:91] Creating Layer conv1/7x7_s2
I0403 15:56:17.803957 14867 net.cpp:425] conv1/7x7_s2 <- data
I0403 15:56:17.803978 14867 net.cpp:399] conv1/7x7_s2 -> conv1/7x7_s2
I0403 15:56:17.956779 14867 net.cpp:141] Setting up conv1/7x7_s2
I0403 15:56:17.956854 14867 net.cpp:148] Top shape: 24 64 112 112 (19267584)
I0403 15:56:17.956874 14867 net.cpp:156] Memory required for data: 91522080
I0403 15:56:17.956907 14867 layer_factory.hpp:77] Creating layer conv1/relu_7x7
I0403 15:56:17.956938 14867 net.cpp:91] Creating Layer conv1/relu_7x7
I0403 15:56:17.956959 14867 net.cpp:425] conv1/relu_7x7 <- conv1/7x7_s2
I0403 15:56:17.956980 14867 net.cpp:386] conv1/relu_7x7 -> conv1/7x7_s2 (in-place)
I0403 15:56:17.957304 14867 net.cpp:141] Setting up conv1/relu_7x7
I0403 15:56:17.957334 14867 net.cpp:148] Top shape: 24 64 112 112 (19267584)
I0403 15:56:17.957350 14867 net.cpp:156] Memory required for data: 168592416
I0403 15:56:17.957366 14867 layer_factory.hpp:77] Creating layer pool1/3x3_s2
I0403 15:56:17.957392 14867 net.cpp:91] Creating Layer pool1/3x3_s2
I0403 15:56:17.957412 14867 net.cpp:425] pool1/3x3_s2 <- conv1/7x7_s2
I0403 15:56:17.957430 14867 net.cpp:399] pool1/3x3_s2 -> pool1/3x3_s2
I0403 15:56:17.957510 14867 net.cpp:141] Setting up pool1/3x3_s2
I0403 15:56:17.957536 14867 net.cpp:148] Top shape: 24 64 56 56 (4816896)
I0403 15:56:17.957552 14867 net.cpp:156] Memory required for data: 187860000
I0403 15:56:17.957568 14867 layer_factory.hpp:77] Creating layer pool1/norm1
I0403 15:56:17.957599 14867 net.cpp:91] Creating Layer pool1/norm1
I0403 15:56:17.957620 14867 net.cpp:425] pool1/norm1 <- pool1/3x3_s2
I0403 15:56:17.957639 14867 net.cpp:399] pool1/norm1 -> pool1/norm1
I0403 15:56:17.957952 14867 net.cpp:141] Setting up pool1/norm1
I0403 15:56:17.957985 14867 net.cpp:148] Top shape: 24 64 56 56 (4816896)
I0403 15:56:17.958009 14867 net.cpp:156] Memory required for data: 207127584
I0403 15:56:17.958025 14867 layer_factory.hpp:77] Creating layer conv2/3x3_reduce
I0403 15:56:17.958051 14867 net.cpp:91] Creating Layer conv2/3x3_reduce
I0403 15:56:17.958070 14867 net.cpp:425] conv2/3x3_reduce <- pool1/norm1
I0403 15:56:17.958091 14867 net.cpp:399] conv2/3x3_reduce -> conv2/3x3_reduce
I0403 15:56:17.959602 14867 net.cpp:141] Setting up conv2/3x3_reduce
I0403 15:56:17.959637 14867 net.cpp:148] Top shape: 24 64 56 56 (4816896)
I0403 15:56:17.959656 14867 net.cpp:156] Memory required for data: 226395168
I0403 15:56:17.959684 14867 layer_factory.hpp:77] Creating layer conv2/relu_3x3_reduce
I0403 15:56:17.959705 14867 net.cpp:91] Creating Layer conv2/relu_3x3_reduce
I0403 15:56:17.959722 14867 net.cpp:425] conv2/relu_3x3_reduce <- conv2/3x3_reduce
I0403 15:56:17.959738 14867 net.cpp:386] conv2/relu_3x3_reduce -> conv2/3x3_reduce (in-place)
I0403 15:56:17.960019 14867 net.cpp:141] Setting up conv2/relu_3x3_reduce
I0403 15:56:17.960050 14867 net.cpp:148] Top shape: 24 64 56 56 (4816896)
I0403 15:56:17.960068 14867 net.cpp:156] Memory required for data: 245662752
I0403 15:56:17.960085 14867 layer_factory.hpp:77] Creating layer conv2/3x3
I0403 15:56:17.960116 14867 net.cpp:91] Creating Layer conv2/3x3
I0403 15:56:17.960135 14867 net.cpp:425] conv2/3x3 <- conv2/3x3_reduce
I0403 15:56:17.960155 14867 net.cpp:399] conv2/3x3 -> conv2/3x3
I0403 15:56:17.962772 14867 net.cpp:141] Setting up conv2/3x3
I0403 15:56:17.962810 14867 net.cpp:148] Top shape: 24 192 56 56 (14450688)
I0403 15:56:17.962833 14867 net.cpp:156] Memory required for data: 303465504
I0403 15:56:17.962857 14867 layer_factory.hpp:77] Creating layer conv2/relu_3x3
I0403 15:56:17.962877 14867 net.cpp:91] Creating Layer conv2/relu_3x3
I0403 15:56:17.962894 14867 net.cpp:425] conv2/relu_3x3 <- conv2/3x3
I0403 15:56:17.962918 14867 net.cpp:386] conv2/relu_3x3 -> conv2/3x3 (in-place)
I0403 15:56:17.963114 14867 net.cpp:141] Setting up conv2/relu_3x3
I0403 15:56:17.963142 14867 net.cpp:148] Top shape: 24 192 56 56 (14450688)
I0403 15:56:17.963189 14867 net.cpp:156] Memory required for data: 361268256
I0403 15:56:17.963208 14867 layer_factory.hpp:77] Creating layer conv2/norm2
I0403 15:56:17.963232 14867 net.cpp:91] Creating Layer conv2/norm2
I0403 15:56:17.963249 14867 net.cpp:425] conv2/norm2 <- conv2/3x3
I0403 15:56:17.963269 14867 net.cpp:399] conv2/norm2 -> conv2/norm2
I0403 15:56:17.963594 14867 net.cpp:141] Setting up conv2/norm2
I0403 15:56:17.963629 14867 net.cpp:148] Top shape: 24 192 56 56 (14450688)
I0403 15:56:17.963645 14867 net.cpp:156] Memory required for data: 419071008
I0403 15:56:17.963661 14867 layer_factory.hpp:77] Creating layer pool2/3x3_s2
I0403 15:56:17.963686 14867 net.cpp:91] Creating Layer pool2/3x3_s2
I0403 15:56:17.963708 14867 net.cpp:425] pool2/3x3_s2 <- conv2/norm2
I0403 15:56:17.963733 14867 net.cpp:399] pool2/3x3_s2 -> pool2/3x3_s2
I0403 15:56:17.963795 14867 net.cpp:141] Setting up pool2/3x3_s2
I0403 15:56:17.963824 14867 net.cpp:148] Top shape: 24 192 28 28 (3612672)
I0403 15:56:17.963845 14867 net.cpp:156] Memory required for data: 433521696
I0403 15:56:17.963860 14867 layer_factory.hpp:77] Creating layer pool2/3x3_s2_pool2/3x3_s2_0_split
I0403 15:56:17.963879 14867 net.cpp:91] Creating Layer pool2/3x3_s2_pool2/3x3_s2_0_split
I0403 15:56:17.963897 14867 net.cpp:425] pool2/3x3_s2_pool2/3x3_s2_0_split <- pool2/3x3_s2
I0403 15:56:17.963919 14867 net.cpp:399] pool2/3x3_s2_pool2/3x3_s2_0_split -> pool2/3x3_s2_pool2/3x3_s2_0_split_0
I0403 15:56:17.963942 14867 net.cpp:399] pool2/3x3_s2_pool2/3x3_s2_0_split -> pool2/3x3_s2_pool2/3x3_s2_0_split_1
I0403 15:56:17.963963 14867 net.cpp:399] pool2/3x3_s2_pool2/3x3_s2_0_split -> pool2/3x3_s2_pool2/3x3_s2_0_split_2
I0403 15:56:17.963986 14867 net.cpp:399] pool2/3x3_s2_pool2/3x3_s2_0_split -> pool2/3x3_s2_pool2/3x3_s2_0_split_3
I0403 15:56:17.964071 14867 net.cpp:141] Setting up pool2/3x3_s2_pool2/3x3_s2_0_split
I0403 15:56:17.964108 14867 net.cpp:148] Top shape: 24 192 28 28 (3612672)
I0403 15:56:17.964131 14867 net.cpp:148] Top shape: 24 192 28 28 (3612672)
I0403 15:56:17.964148 14867 net.cpp:148] Top shape: 24 192 28 28 (3612672)
I0403 15:56:17.964164 14867 net.cpp:148] Top shape: 24 192 28 28 (3612672)
I0403 15:56:17.964177 14867 net.cpp:156] Memory required for data: 491324448
I0403 15:56:17.964192 14867 layer_factory.hpp:77] Creating layer inception_3a/1x1
I0403 15:56:17.964218 14867 net.cpp:91] Creating Layer inception_3a/1x1
I0403 15:56:17.964241 14867 net.cpp:425] inception_3a/1x1 <- pool2/3x3_s2_pool2/3x3_s2_0_split_0
I0403 15:56:17.964267 14867 net.cpp:399] inception_3a/1x1 -> inception_3a/1x1
I0403 15:56:17.965975 14867 net.cpp:141] Setting up inception_3a/1x1
I0403 15:56:17.966015 14867 net.cpp:148] Top shape: 24 64 28 28 (1204224)
I0403 15:56:17.966035 14867 net.cpp:156] Memory required for data: 496141344
I0403 15:56:17.966058 14867 layer_factory.hpp:77] Creating layer inception_3a/relu_1x1
I0403 15:56:17.966078 14867 net.cpp:91] Creating Layer inception_3a/relu_1x1
I0403 15:56:17.966099 14867 net.cpp:425] inception_3a/relu_1x1 <- inception_3a/1x1
I0403 15:56:17.966120 14867 net.cpp:386] inception_3a/relu_1x1 -> inception_3a/1x1 (in-place)
I0403 15:56:17.966310 14867 net.cpp:141] Setting up inception_3a/relu_1x1
I0403 15:56:17.966398 14867 net.cpp:148] Top shape: 24 64 28 28 (1204224)
I0403 15:56:17.966423 14867 net.cpp:156] Memory required for data: 500958240
I0403 15:56:17.966439 14867 layer_factory.hpp:77] Creating layer inception_3a/3x3_reduce
I0403 15:56:17.966462 14867 net.cpp:91] Creating Layer inception_3a/3x3_reduce
I0403 15:56:17.966483 14867 net.cpp:425] inception_3a/3x3_reduce <- pool2/3x3_s2_pool2/3x3_s2_0_split_1
I0403 15:56:17.966506 14867 net.cpp:399] inception_3a/3x3_reduce -> inception_3a/3x3_reduce
I0403 15:56:17.968334 14867 net.cpp:141] Setting up inception_3a/3x3_reduce
I0403 15:56:17.968366 14867 net.cpp:148] Top shape: 24 96 28 28 (1806336)
I0403 15:56:17.968382 14867 net.cpp:156] Memory required for data: 508183584
I0403 15:56:17.968405 14867 layer_factory.hpp:77] Creating layer inception_3a/relu_3x3_reduce
I0403 15:56:17.968444 14867 net.cpp:91] Creating Layer inception_3a/relu_3x3_reduce
I0403 15:56:17.968466 14867 net.cpp:425] inception_3a/relu_3x3_reduce <- inception_3a/3x3_reduce
I0403 15:56:17.968487 14867 net.cpp:386] inception_3a/relu_3x3_reduce -> inception_3a/3x3_reduce (in-place)
I0403 15:56:17.968680 14867 net.cpp:141] Setting up inception_3a/relu_3x3_reduce
I0403 15:56:17.968711 14867 net.cpp:148] Top shape: 24 96 28 28 (1806336)
I0403 15:56:17.968732 14867 net.cpp:156] Memory required for data: 515408928
I0403 15:56:17.968751 14867 layer_factory.hpp:77] Creating layer inception_3a/3x3
I0403 15:56:17.968776 14867 net.cpp:91] Creating Layer inception_3a/3x3
I0403 15:56:17.968796 14867 net.cpp:425] inception_3a/3x3 <- inception_3a/3x3_reduce
I0403 15:56:17.968822 14867 net.cpp:399] inception_3a/3x3 -> inception_3a/3x3
I0403 15:56:17.970598 14867 net.cpp:141] Setting up inception_3a/3x3
I0403 15:56:17.970633 14867 net.cpp:148] Top shape: 24 128 28 28 (2408448)
I0403 15:56:17.970650 14867 net.cpp:156] Memory required for data: 525042720
I0403 15:56:17.970669 14867 layer_factory.hpp:77] Creating layer inception_3a/relu_3x3
I0403 15:56:17.970688 14867 net.cpp:91] Creating Layer inception_3a/relu_3x3
I0403 15:56:17.970705 14867 net.cpp:425] inception_3a/relu_3x3 <- inception_3a/3x3
I0403 15:56:17.970724 14867 net.cpp:386] inception_3a/relu_3x3 -> inception_3a/3x3 (in-place)
I0403 15:56:17.971011 14867 net.cpp:141] Setting up inception_3a/relu_3x3
I0403 15:56:17.971042 14867 net.cpp:148] Top shape: 24 128 28 28 (2408448)
I0403 15:56:17.971058 14867 net.cpp:156] Memory required for data: 534676512
I0403 15:56:17.971073 14867 layer_factory.hpp:77] Creating layer inception_3a/5x5_reduce
I0403 15:56:17.971101 14867 net.cpp:91] Creating Layer inception_3a/5x5_reduce
I0403 15:56:17.971120 14867 net.cpp:425] inception_3a/5x5_reduce <- pool2/3x3_s2_pool2/3x3_s2_0_split_2
I0403 15:56:17.971140 14867 net.cpp:399] inception_3a/5x5_reduce -> inception_3a/5x5_reduce
I0403 15:56:17.972209 14867 net.cpp:141] Setting up inception_3a/5x5_reduce
I0403 15:56:17.972244 14867 net.cpp:148] Top shape: 24 16 28 28 (301056)
I0403 15:56:17.972260 14867 net.cpp:156] Memory required for data: 535880736
I0403 15:56:17.972280 14867 layer_factory.hpp:77] Creating layer inception_3a/relu_5x5_reduce
I0403 15:56:17.972302 14867 net.cpp:91] Creating Layer inception_3a/relu_5x5_reduce
I0403 15:56:17.972318 14867 net.cpp:425] inception_3a/relu_5x5_reduce <- inception_3a/5x5_reduce
I0403 15:56:17.972337 14867 net.cpp:386] inception_3a/relu_5x5_reduce -> inception_3a/5x5_reduce (in-place)
I0403 15:56:17.972651 14867 net.cpp:141] Setting up inception_3a/relu_5x5_reduce
I0403 15:56:17.972681 14867 net.cpp:148] Top shape: 24 16 28 28 (301056)
I0403 15:56:17.972697 14867 net.cpp:156] Memory required for data: 537084960
I0403 15:56:17.972712 14867 layer_factory.hpp:77] Creating layer inception_3a/5x5
I0403 15:56:17.972735 14867 net.cpp:91] Creating Layer inception_3a/5x5
I0403 15:56:17.972754 14867 net.cpp:425] inception_3a/5x5 <- inception_3a/5x5_reduce
I0403 15:56:17.972776 14867 net.cpp:399] inception_3a/5x5 -> inception_3a/5x5
I0403 15:56:17.973927 14867 net.cpp:141] Setting up inception_3a/5x5
I0403 15:56:17.973958 14867 net.cpp:148] Top shape: 24 32 28 28 (602112)
I0403 15:56:17.973974 14867 net.cpp:156] Memory required for data: 539493408
I0403 15:56:17.973994 14867 layer_factory.hpp:77] Creating layer inception_3a/relu_5x5
I0403 15:56:17.974016 14867 net.cpp:91] Creating Layer inception_3a/relu_5x5
I0403 15:56:17.974035 14867 net.cpp:425] inception_3a/relu_5x5 <- inception_3a/5x5
I0403 15:56:17.974052 14867 net.cpp:386] inception_3a/relu_5x5 -> inception_3a/5x5 (in-place)
I0403 15:56:17.974244 14867 net.cpp:141] Setting up inception_3a/relu_5x5
I0403 15:56:17.974273 14867 net.cpp:148] Top shape: 24 32 28 28 (602112)
I0403 15:56:17.974290 14867 net.cpp:156] Memory required for data: 541901856
I0403 15:56:17.974306 14867 layer_factory.hpp:77] Creating layer inception_3a/pool
I0403 15:56:17.974323 14867 net.cpp:91] Creating Layer inception_3a/pool
I0403 15:56:17.974340 14867 net.cpp:425] inception_3a/pool <- pool2/3x3_s2_pool2/3x3_s2_0_split_3
I0403 15:56:17.974377 14867 net.cpp:399] inception_3a/pool -> inception_3a/pool
I0403 15:56:17.974439 14867 net.cpp:141] Setting up inception_3a/pool
I0403 15:56:17.974464 14867 net.cpp:148] Top shape: 24 192 28 28 (3612672)
I0403 15:56:17.974480 14867 net.cpp:156] Memory required for data: 556352544
I0403 15:56:17.974495 14867 layer_factory.hpp:77] Creating layer inception_3a/pool_proj
I0403 15:56:17.974520 14867 net.cpp:91] Creating Layer inception_3a/pool_proj
I0403 15:56:17.974539 14867 net.cpp:425] inception_3a/pool_proj <- inception_3a/pool
I0403 15:56:17.974560 14867 net.cpp:399] inception_3a/pool_proj -> inception_3a/pool_proj
I0403 15:56:17.975636 14867 net.cpp:141] Setting up inception_3a/pool_proj
I0403 15:56:17.975666 14867 net.cpp:148] Top shape: 24 32 28 28 (602112)
I0403 15:56:17.975683 14867 net.cpp:156] Memory required for data: 558760992
I0403 15:56:17.975708 14867 layer_factory.hpp:77] Creating layer inception_3a/relu_pool_proj
I0403 15:56:17.975729 14867 net.cpp:91] Creating Layer inception_3a/relu_pool_proj
I0403 15:56:17.975746 14867 net.cpp:425] inception_3a/relu_pool_proj <- inception_3a/pool_proj
I0403 15:56:17.975764 14867 net.cpp:386] inception_3a/relu_pool_proj -> inception_3a/pool_proj (in-place)
I0403 15:56:17.976054 14867 net.cpp:141] Setting up inception_3a/relu_pool_proj
I0403 15:56:17.976088 14867 net.cpp:148] Top shape: 24 32 28 28 (602112)
I0403 15:56:17.976109 14867 net.cpp:156] Memory required for data: 561169440
I0403 15:56:17.976128 14867 layer_factory.hpp:77] Creating layer inception_3a/output
I0403 15:56:17.976150 14867 net.cpp:91] Creating Layer inception_3a/output
I0403 15:56:17.976166 14867 net.cpp:425] inception_3a/output <- inception_3a/1x1
I0403 15:56:17.976183 14867 net.cpp:425] inception_3a/output <- inception_3a/3x3
I0403 15:56:17.976199 14867 net.cpp:425] inception_3a/output <- inception_3a/5x5
I0403 15:56:17.976215 14867 net.cpp:425] inception_3a/output <- inception_3a/pool_proj
I0403 15:56:17.976233 14867 net.cpp:399] inception_3a/output -> inception_3a/output
I0403 15:56:17.976284 14867 net.cpp:141] Setting up inception_3a/output
I0403 15:56:17.976310 14867 net.cpp:148] Top shape: 24 256 28 28 (4816896)
I0403 15:56:17.976325 14867 net.cpp:156] Memory required for data: 580437024
I0403 15:56:17.976341 14867 layer_factory.hpp:77] Creating layer inception_3a/output_inception_3a/output_0_split
I0403 15:56:17.976358 14867 net.cpp:91] Creating Layer inception_3a/output_inception_3a/output_0_split
I0403 15:56:17.976378 14867 net.cpp:425] inception_3a/output_inception_3a/output_0_split <- inception_3a/output
I0403 15:56:17.976397 14867 net.cpp:399] inception_3a/output_inception_3a/output_0_split -> inception_3a/output_inception_3a/output_0_split_0
I0403 15:56:17.976418 14867 net.cpp:399] inception_3a/output_inception_3a/output_0_split -> inception_3a/output_inception_3a/output_0_split_1
I0403 15:56:17.976445 14867 net.cpp:399] inception_3a/output_inception_3a/output_0_split -> inception_3a/output_inception_3a/output_0_split_2
I0403 15:56:17.976470 14867 net.cpp:399] inception_3a/output_inception_3a/output_0_split -> inception_3a/output_inception_3a/output_0_split_3
I0403 15:56:17.976552 14867 net.cpp:141] Setting up inception_3a/output_inception_3a/output_0_split
I0403 15:56:17.976577 14867 net.cpp:148] Top shape: 24 256 28 28 (4816896)
I0403 15:56:17.976594 14867 net.cpp:148] Top shape: 24 256 28 28 (4816896)
I0403 15:56:17.976610 14867 net.cpp:148] Top shape: 24 256 28 28 (4816896)
I0403 15:56:17.976629 14867 net.cpp:148] Top shape: 24 256 28 28 (4816896)
I0403 15:56:17.976644 14867 net.cpp:156] Memory required for data: 657507360
I0403 15:56:17.976660 14867 layer_factory.hpp:77] Creating layer inception_3b/1x1
I0403 15:56:17.976682 14867 net.cpp:91] Creating Layer inception_3b/1x1
I0403 15:56:17.976702 14867 net.cpp:425] inception_3b/1x1 <- inception_3a/output_inception_3a/output_0_split_0
I0403 15:56:17.976724 14867 net.cpp:399] inception_3b/1x1 -> inception_3b/1x1
I0403 15:56:17.977974 14867 net.cpp:141] Setting up inception_3b/1x1
I0403 15:56:17.978021 14867 net.cpp:148] Top shape: 24 128 28 28 (2408448)
I0403 15:56:17.978042 14867 net.cpp:156] Memory required for data: 667141152
I0403 15:56:17.978062 14867 layer_factory.hpp:77] Creating layer inception_3b/relu_1x1
I0403 15:56:17.978085 14867 net.cpp:91] Creating Layer inception_3b/relu_1x1
I0403 15:56:17.978107 14867 net.cpp:425] inception_3b/relu_1x1 <- inception_3b/1x1
I0403 15:56:17.978127 14867 net.cpp:386] inception_3b/relu_1x1 -> inception_3b/1x1 (in-place)
I0403 15:56:17.978319 14867 net.cpp:141] Setting up inception_3b/relu_1x1
I0403 15:56:17.978353 14867 net.cpp:148] Top shape: 24 128 28 28 (2408448)
I0403 15:56:17.978370 14867 net.cpp:156] Memory required for data: 676774944
I0403 15:56:17.978387 14867 layer_factory.hpp:77] Creating layer inception_3b/3x3_reduce
I0403 15:56:17.978410 14867 net.cpp:91] Creating Layer inception_3b/3x3_reduce
I0403 15:56:17.978432 14867 net.cpp:425] inception_3b/3x3_reduce <- inception_3a/output_inception_3a/output_0_split_1
I0403 15:56:17.978457 14867 net.cpp:399] inception_3b/3x3_reduce -> inception_3b/3x3_reduce
I0403 15:56:17.979717 14867 net.cpp:141] Setting up inception_3b/3x3_reduce
I0403 15:56:17.979748 14867 net.cpp:148] Top shape: 24 128 28 28 (2408448)
I0403 15:56:17.979764 14867 net.cpp:156] Memory required for data: 686408736
I0403 15:56:17.979784 14867 layer_factory.hpp:77] Creating layer inception_3b/relu_3x3_reduce
I0403 15:56:17.979806 14867 net.cpp:91] Creating Layer inception_3b/relu_3x3_reduce
I0403 15:56:17.979825 14867 net.cpp:425] inception_3b/relu_3x3_reduce <- inception_3b/3x3_reduce
I0403 15:56:17.979842 14867 net.cpp:386] inception_3b/relu_3x3_reduce -> inception_3b/3x3_reduce (in-place)
I0403 15:56:17.980028 14867 net.cpp:141] Setting up inception_3b/relu_3x3_reduce
I0403 15:56:17.980056 14867 net.cpp:148] Top shape: 24 128 28 28 (2408448)
I0403 15:56:17.980070 14867 net.cpp:156] Memory required for data: 696042528
I0403 15:56:17.980087 14867 layer_factory.hpp:77] Creating layer inception_3b/3x3
I0403 15:56:17.980119 14867 net.cpp:91] Creating Layer inception_3b/3x3
I0403 15:56:17.980139 14867 net.cpp:425] inception_3b/3x3 <- inception_3b/3x3_reduce
I0403 15:56:17.980161 14867 net.cpp:399] inception_3b/3x3 -> inception_3b/3x3
I0403 15:56:17.983402 14867 net.cpp:141] Setting up inception_3b/3x3
I0403 15:56:17.983436 14867 net.cpp:148] Top shape: 24 192 28 28 (3612672)
I0403 15:56:17.983455 14867 net.cpp:156] Memory required for data: 710493216
I0403 15:56:17.983475 14867 layer_factory.hpp:77] Creating layer inception_3b/relu_3x3
I0403 15:56:17.983494 14867 net.cpp:91] Creating Layer inception_3b/relu_3x3
I0403 15:56:17.983511 14867 net.cpp:425] inception_3b/relu_3x3 <- inception_3b/3x3
I0403 15:56:17.983530 14867 net.cpp:386] inception_3b/relu_3x3 -> inception_3b/3x3 (in-place)
I0403 15:56:17.983830 14867 net.cpp:141] Setting up inception_3b/relu_3x3
I0403 15:56:17.983863 14867 net.cpp:148] Top shape: 24 192 28 28 (3612672)
I0403 15:56:17.983881 14867 net.cpp:156] Memory required for data: 724943904
I0403 15:56:17.983902 14867 layer_factory.hpp:77] Creating layer inception_3b/5x5_reduce
I0403 15:56:17.983927 14867 net.cpp:91] Creating Layer inception_3b/5x5_reduce
I0403 15:56:17.983944 14867 net.cpp:425] inception_3b/5x5_reduce <- inception_3a/output_inception_3a/output_0_split_2
I0403 15:56:17.983965 14867 net.cpp:399] inception_3b/5x5_reduce -> inception_3b/5x5_reduce
I0403 15:56:17.985025 14867 net.cpp:141] Setting up inception_3b/5x5_reduce
I0403 15:56:17.985057 14867 net.cpp:148] Top shape: 24 32 28 28 (602112)
I0403 15:56:17.985079 14867 net.cpp:156] Memory required for data: 727352352
I0403 15:56:17.985102 14867 layer_factory.hpp:77] Creating layer inception_3b/relu_5x5_reduce
I0403 15:56:17.985122 14867 net.cpp:91] Creating Layer inception_3b/relu_5x5_reduce
I0403 15:56:17.985139 14867 net.cpp:425] inception_3b/relu_5x5_reduce <- inception_3b/5x5_reduce
I0403 15:56:17.985157 14867 net.cpp:386] inception_3b/relu_5x5_reduce -> inception_3b/5x5_reduce (in-place)
I0403 15:56:17.985342 14867 net.cpp:141] Setting up inception_3b/relu_5x5_reduce
I0403 15:56:17.985385 14867 net.cpp:148] Top shape: 24 32 28 28 (602112)
I0403 15:56:17.985404 14867 net.cpp:156] Memory required for data: 729760800
I0403 15:56:17.985419 14867 layer_factory.hpp:77] Creating layer inception_3b/5x5
I0403 15:56:17.985442 14867 net.cpp:91] Creating Layer inception_3b/5x5
I0403 15:56:17.985461 14867 net.cpp:425] inception_3b/5x5 <- inception_3b/5x5_reduce
I0403 15:56:17.985481 14867 net.cpp:399] inception_3b/5x5 -> inception_3b/5x5
I0403 15:56:17.987560 14867 net.cpp:141] Setting up inception_3b/5x5
I0403 15:56:17.987596 14867 net.cpp:148] Top shape: 24 96 28 28 (1806336)
I0403 15:56:17.987612 14867 net.cpp:156] Memory required for data: 736986144
I0403 15:56:17.987632 14867 layer_factory.hpp:77] Creating layer inception_3b/relu_5x5
I0403 15:56:17.987655 14867 net.cpp:91] Creating Layer inception_3b/relu_5x5
I0403 15:56:17.987674 14867 net.cpp:425] inception_3b/relu_5x5 <- inception_3b/5x5
I0403 15:56:17.987692 14867 net.cpp:386] inception_3b/relu_5x5 -> inception_3b/5x5 (in-place)
I0403 15:56:17.987897 14867 net.cpp:141] Setting up inception_3b/relu_5x5
I0403 15:56:17.987926 14867 net.cpp:148] Top shape: 24 96 28 28 (1806336)
I0403 15:56:17.987943 14867 net.cpp:156] Memory required for data: 744211488
I0403 15:56:17.987958 14867 layer_factory.hpp:77] Creating layer inception_3b/pool
I0403 15:56:17.987977 14867 net.cpp:91] Creating Layer inception_3b/pool
I0403 15:56:17.987995 14867 net.cpp:425] inception_3b/pool <- inception_3a/output_inception_3a/output_0_split_3
I0403 15:56:17.988018 14867 net.cpp:399] inception_3b/pool -> inception_3b/pool
I0403 15:56:17.988077 14867 net.cpp:141] Setting up inception_3b/pool
I0403 15:56:17.988108 14867 net.cpp:148] Top shape: 24 256 28 28 (4816896)
I0403 15:56:17.988126 14867 net.cpp:156] Memory required for data: 763479072
I0403 15:56:17.988142 14867 layer_factory.hpp:77] Creating layer inception_3b/pool_proj
I0403 15:56:17.988164 14867 net.cpp:91] Creating Layer inception_3b/pool_proj
I0403 15:56:17.988183 14867 net.cpp:425] inception_3b/pool_proj <- inception_3b/pool
I0403 15:56:17.988204 14867 net.cpp:399] inception_3b/pool_proj -> inception_3b/pool_proj
I0403 15:56:17.989325 14867 net.cpp:141] Setting up inception_3b/pool_proj
I0403 15:56:17.989359 14867 net.cpp:148] Top shape: 24 64 28 28 (1204224)
I0403 15:56:17.989377 14867 net.cpp:156] Memory required for data: 768295968
I0403 15:56:17.989398 14867 layer_factory.hpp:77] Creating layer inception_3b/relu_pool_proj
I0403 15:56:17.989419 14867 net.cpp:91] Creating Layer inception_3b/relu_pool_proj
I0403 15:56:17.989435 14867 net.cpp:425] inception_3b/relu_pool_proj <- inception_3b/pool_proj
I0403 15:56:17.989457 14867 net.cpp:386] inception_3b/relu_pool_proj -> inception_3b/pool_proj (in-place)
I0403 15:56:17.989889 14867 net.cpp:141] Setting up inception_3b/relu_pool_proj
I0403 15:56:17.989922 14867 net.cpp:148] Top shape: 24 64 28 28 (1204224)
I0403 15:56:17.989939 14867 net.cpp:156] Memory required for data: 773112864
I0403 15:56:17.989956 14867 layer_factory.hpp:77] Creating layer inception_3b/output
I0403 15:56:17.989974 14867 net.cpp:91] Creating Layer inception_3b/output
I0403 15:56:17.989995 14867 net.cpp:425] inception_3b/output <- inception_3b/1x1
I0403 15:56:17.990011 14867 net.cpp:425] inception_3b/output <- inception_3b/3x3
I0403 15:56:17.990028 14867 net.cpp:425] inception_3b/output <- inception_3b/5x5
I0403 15:56:17.990046 14867 net.cpp:425] inception_3b/output <- inception_3b/pool_proj
I0403 15:56:17.990063 14867 net.cpp:399] inception_3b/output -> inception_3b/output
I0403 15:56:17.990115 14867 net.cpp:141] Setting up inception_3b/output
I0403 15:56:17.990140 14867 net.cpp:148] Top shape: 24 480 28 28 (9031680)
I0403 15:56:17.990155 14867 net.cpp:156] Memory required for data: 809239584
I0403 15:56:17.990170 14867 layer_factory.hpp:77] Creating layer pool3/3x3_s2
I0403 15:56:17.990191 14867 net.cpp:91] Creating Layer pool3/3x3_s2
I0403 15:56:17.990211 14867 net.cpp:425] pool3/3x3_s2 <- inception_3b/output
I0403 15:56:17.990229 14867 net.cpp:399] pool3/3x3_s2 -> pool3/3x3_s2
I0403 15:56:17.990310 14867 net.cpp:141] Setting up pool3/3x3_s2
I0403 15:56:17.990337 14867 net.cpp:148] Top shape: 24 480 14 14 (2257920)
I0403 15:56:17.990357 14867 net.cpp:156] Memory required for data: 818271264
I0403 15:56:17.990375 14867 layer_factory.hpp:77] Creating layer pool3/3x3_s2_pool3/3x3_s2_0_split
I0403 15:56:17.990391 14867 net.cpp:91] Creating Layer pool3/3x3_s2_pool3/3x3_s2_0_split
I0403 15:56:17.990408 14867 net.cpp:425] pool3/3x3_s2_pool3/3x3_s2_0_split <- pool3/3x3_s2
I0403 15:56:17.990428 14867 net.cpp:399] pool3/3x3_s2_pool3/3x3_s2_0_split -> pool3/3x3_s2_pool3/3x3_s2_0_split_0
I0403 15:56:17.990458 14867 net.cpp:399] pool3/3x3_s2_pool3/3x3_s2_0_split -> pool3/3x3_s2_pool3/3x3_s2_0_split_1
I0403 15:56:17.990483 14867 net.cpp:399] pool3/3x3_s2_pool3/3x3_s2_0_split -> pool3/3x3_s2_pool3/3x3_s2_0_split_2
I0403 15:56:17.990504 14867 net.cpp:399] pool3/3x3_s2_pool3/3x3_s2_0_split -> pool3/3x3_s2_pool3/3x3_s2_0_split_3
I0403 15:56:17.990586 14867 net.cpp:141] Setting up pool3/3x3_s2_pool3/3x3_s2_0_split
I0403 15:56:17.990617 14867 net.cpp:148] Top shape: 24 480 14 14 (2257920)
I0403 15:56:17.990634 14867 net.cpp:148] Top shape: 24 480 14 14 (2257920)
I0403 15:56:17.990651 14867 net.cpp:148] Top shape: 24 480 14 14 (2257920)
I0403 15:56:17.990667 14867 net.cpp:148] Top shape: 24 480 14 14 (2257920)
I0403 15:56:17.990684 14867 net.cpp:156] Memory required for data: 854397984
I0403 15:56:17.990700 14867 layer_factory.hpp:77] Creating layer inception_4a/1x1
I0403 15:56:17.990725 14867 net.cpp:91] Creating Layer inception_4a/1x1
I0403 15:56:17.990746 14867 net.cpp:425] inception_4a/1x1 <- pool3/3x3_s2_pool3/3x3_s2_0_split_0
I0403 15:56:17.990772 14867 net.cpp:399] inception_4a/1x1 -> inception_4a/1x1
I0403 15:56:17.992482 14867 net.cpp:141] Setting up inception_4a/1x1
I0403 15:56:17.992513 14867 net.cpp:148] Top shape: 24 192 14 14 (903168)
I0403 15:56:17.992530 14867 net.cpp:156] Memory required for data: 858010656
I0403 15:56:17.992549 14867 layer_factory.hpp:77] Creating layer inception_4a/relu_1x1
I0403 15:56:17.992571 14867 net.cpp:91] Creating Layer inception_4a/relu_1x1
I0403 15:56:17.992594 14867 net.cpp:425] inception_4a/relu_1x1 <- inception_4a/1x1
I0403 15:56:17.992612 14867 net.cpp:386] inception_4a/relu_1x1 -> inception_4a/1x1 (in-place)
I0403 15:56:17.992799 14867 net.cpp:141] Setting up inception_4a/relu_1x1
I0403 15:56:17.992831 14867 net.cpp:148] Top shape: 24 192 14 14 (903168)
I0403 15:56:17.992847 14867 net.cpp:156] Memory required for data: 861623328
I0403 15:56:17.992862 14867 layer_factory.hpp:77] Creating layer inception_4a/3x3_reduce
I0403 15:56:17.992885 14867 net.cpp:91] Creating Layer inception_4a/3x3_reduce
I0403 15:56:17.992904 14867 net.cpp:425] inception_4a/3x3_reduce <- pool3/3x3_s2_pool3/3x3_s2_0_split_1
I0403 15:56:17.992928 14867 net.cpp:399] inception_4a/3x3_reduce -> inception_4a/3x3_reduce
I0403 15:56:17.994346 14867 net.cpp:141] Setting up inception_4a/3x3_reduce
I0403 15:56:17.994377 14867 net.cpp:148] Top shape: 24 96 14 14 (451584)
I0403 15:56:17.994393 14867 net.cpp:156] Memory required for data: 863429664
I0403 15:56:17.994420 14867 layer_factory.hpp:77] Creating layer inception_4a/relu_3x3_reduce
I0403 15:56:17.994441 14867 net.cpp:91] Creating Layer inception_4a/relu_3x3_reduce
I0403 15:56:17.994457 14867 net.cpp:425] inception_4a/relu_3x3_reduce <- inception_4a/3x3_reduce
I0403 15:56:17.994477 14867 net.cpp:386] inception_4a/relu_3x3_reduce -> inception_4a/3x3_reduce (in-place)
I0403 15:56:17.994663 14867 net.cpp:141] Setting up inception_4a/relu_3x3_reduce
I0403 15:56:17.994690 14867 net.cpp:148] Top shape: 24 96 14 14 (451584)
I0403 15:56:17.994705 14867 net.cpp:156] Memory required for data: 865236000
I0403 15:56:17.994720 14867 layer_factory.hpp:77] Creating layer inception_4a/3x3
I0403 15:56:17.994743 14867 net.cpp:91] Creating Layer inception_4a/3x3
I0403 15:56:17.994762 14867 net.cpp:425] inception_4a/3x3 <- inception_4a/3x3_reduce
I0403 15:56:17.994784 14867 net.cpp:399] inception_4a/3x3 -> inception_4a/3x3
I0403 15:56:17.997609 14867 net.cpp:141] Setting up inception_4a/3x3
I0403 15:56:17.997639 14867 net.cpp:148] Top shape: 24 208 14 14 (978432)
I0403 15:56:17.997656 14867 net.cpp:156] Memory required for data: 869149728
I0403 15:56:17.997675 14867 layer_factory.hpp:77] Creating layer inception_4a/relu_3x3
I0403 15:56:17.997697 14867 net.cpp:91] Creating Layer inception_4a/relu_3x3
I0403 15:56:17.997715 14867 net.cpp:425] inception_4a/relu_3x3 <- inception_4a/3x3
I0403 15:56:17.997733 14867 net.cpp:386] inception_4a/relu_3x3 -> inception_4a/3x3 (in-place)
I0403 15:56:17.998026 14867 net.cpp:141] Setting up inception_4a/relu_3x3
I0403 15:56:17.998054 14867 net.cpp:148] Top shape: 24 208 14 14 (978432)
I0403 15:56:17.998071 14867 net.cpp:156] Memory required for data: 873063456
I0403 15:56:17.998087 14867 layer_factory.hpp:77] Creating layer inception_4a/5x5_reduce
I0403 15:56:17.998116 14867 net.cpp:91] Creating Layer inception_4a/5x5_reduce
I0403 15:56:17.998134 14867 net.cpp:425] inception_4a/5x5_reduce <- pool3/3x3_s2_pool3/3x3_s2_0_split_2
I0403 15:56:17.998157 14867 net.cpp:399] inception_4a/5x5_reduce -> inception_4a/5x5_reduce
I0403 15:56:17.999289 14867 net.cpp:141] Setting up inception_4a/5x5_reduce
I0403 15:56:17.999318 14867 net.cpp:148] Top shape: 24 16 14 14 (75264)
I0403 15:56:17.999336 14867 net.cpp:156] Memory required for data: 873364512
I0403 15:56:17.999356 14867 layer_factory.hpp:77] Creating layer inception_4a/relu_5x5_reduce
I0403 15:56:17.999377 14867 net.cpp:91] Creating Layer inception_4a/relu_5x5_reduce
I0403 15:56:17.999397 14867 net.cpp:425] inception_4a/relu_5x5_reduce <- inception_4a/5x5_reduce
I0403 15:56:17.999414 14867 net.cpp:386] inception_4a/relu_5x5_reduce -> inception_4a/5x5_reduce (in-place)
I0403 15:56:17.999626 14867 net.cpp:141] Setting up inception_4a/relu_5x5_reduce
I0403 15:56:17.999658 14867 net.cpp:148] Top shape: 24 16 14 14 (75264)
I0403 15:56:17.999675 14867 net.cpp:156] Memory required for data: 873665568
I0403 15:56:17.999691 14867 layer_factory.hpp:77] Creating layer inception_4a/5x5
I0403 15:56:17.999713 14867 net.cpp:91] Creating Layer inception_4a/5x5
I0403 15:56:17.999732 14867 net.cpp:425] inception_4a/5x5 <- inception_4a/5x5_reduce
I0403 15:56:17.999752 14867 net.cpp:399] inception_4a/5x5 -> inception_4a/5x5
I0403 15:56:18.000897 14867 net.cpp:141] Setting up inception_4a/5x5
I0403 15:56:18.000931 14867 net.cpp:148] Top shape: 24 48 14 14 (225792)
I0403 15:56:18.000946 14867 net.cpp:156] Memory required for data: 874568736
I0403 15:56:18.000965 14867 layer_factory.hpp:77] Creating layer inception_4a/relu_5x5
I0403 15:56:18.000984 14867 net.cpp:91] Creating Layer inception_4a/relu_5x5
I0403 15:56:18.001003 14867 net.cpp:425] inception_4a/relu_5x5 <- inception_4a/5x5
I0403 15:56:18.001022 14867 net.cpp:386] inception_4a/relu_5x5 -> inception_4a/5x5 (in-place)
I0403 15:56:18.001220 14867 net.cpp:141] Setting up inception_4a/relu_5x5
I0403 15:56:18.001253 14867 net.cpp:148] Top shape: 24 48 14 14 (225792)
I0403 15:56:18.001271 14867 net.cpp:156] Memory required for data: 875471904
I0403 15:56:18.001288 14867 layer_factory.hpp:77] Creating layer inception_4a/pool
I0403 15:56:18.001307 14867 net.cpp:91] Creating Layer inception_4a/pool
I0403 15:56:18.001327 14867 net.cpp:425] inception_4a/pool <- pool3/3x3_s2_pool3/3x3_s2_0_split_3
I0403 15:56:18.001345 14867 net.cpp:399] inception_4a/pool -> inception_4a/pool
I0403 15:56:18.001411 14867 net.cpp:141] Setting up inception_4a/pool
I0403 15:56:18.001437 14867 net.cpp:148] Top shape: 24 480 14 14 (2257920)
I0403 15:56:18.001453 14867 net.cpp:156] Memory required for data: 884503584
I0403 15:56:18.001468 14867 layer_factory.hpp:77] Creating layer inception_4a/pool_proj
I0403 15:56:18.001492 14867 net.cpp:91] Creating Layer inception_4a/pool_proj
I0403 15:56:18.001510 14867 net.cpp:425] inception_4a/pool_proj <- inception_4a/pool
I0403 15:56:18.001533 14867 net.cpp:399] inception_4a/pool_proj -> inception_4a/pool_proj
I0403 15:56:18.002756 14867 net.cpp:141] Setting up inception_4a/pool_proj
I0403 15:56:18.002787 14867 net.cpp:148] Top shape: 24 64 14 14 (301056)
I0403 15:56:18.002820 14867 net.cpp:156] Memory required for data: 885707808
I0403 15:56:18.002840 14867 layer_factory.hpp:77] Creating layer inception_4a/relu_pool_proj
I0403 15:56:18.002859 14867 net.cpp:91] Creating Layer inception_4a/relu_pool_proj
I0403 15:56:18.002876 14867 net.cpp:425] inception_4a/relu_pool_proj <- inception_4a/pool_proj
I0403 15:56:18.002899 14867 net.cpp:386] inception_4a/relu_pool_proj -> inception_4a/pool_proj (in-place)
I0403 15:56:18.003206 14867 net.cpp:141] Setting up inception_4a/relu_pool_proj
I0403 15:56:18.003235 14867 net.cpp:148] Top shape: 24 64 14 14 (301056)
I0403 15:56:18.003252 14867 net.cpp:156] Memory required for data: 886912032
I0403 15:56:18.003268 14867 layer_factory.hpp:77] Creating layer inception_4a/output
I0403 15:56:18.003286 14867 net.cpp:91] Creating Layer inception_4a/output
I0403 15:56:18.003303 14867 net.cpp:425] inception_4a/output <- inception_4a/1x1
I0403 15:56:18.003319 14867 net.cpp:425] inception_4a/output <- inception_4a/3x3
I0403 15:56:18.003336 14867 net.cpp:425] inception_4a/output <- inception_4a/5x5
I0403 15:56:18.003357 14867 net.cpp:425] inception_4a/output <- inception_4a/pool_proj
I0403 15:56:18.003383 14867 net.cpp:399] inception_4a/output -> inception_4a/output
I0403 15:56:18.003435 14867 net.cpp:141] Setting up inception_4a/output
I0403 15:56:18.003463 14867 net.cpp:148] Top shape: 24 512 14 14 (2408448)
I0403 15:56:18.003481 14867 net.cpp:156] Memory required for data: 896545824
I0403 15:56:18.003497 14867 layer_factory.hpp:77] Creating layer inception_4a/output_inception_4a/output_0_split
I0403 15:56:18.003515 14867 net.cpp:91] Creating Layer inception_4a/output_inception_4a/output_0_split
I0403 15:56:18.003531 14867 net.cpp:425] inception_4a/output_inception_4a/output_0_split <- inception_4a/output
I0403 15:56:18.003548 14867 net.cpp:399] inception_4a/output_inception_4a/output_0_split -> inception_4a/output_inception_4a/output_0_split_0
I0403 15:56:18.003572 14867 net.cpp:399] inception_4a/output_inception_4a/output_0_split -> inception_4a/output_inception_4a/output_0_split_1
I0403 15:56:18.003597 14867 net.cpp:399] inception_4a/output_inception_4a/output_0_split -> inception_4a/output_inception_4a/output_0_split_2
I0403 15:56:18.003621 14867 net.cpp:399] inception_4a/output_inception_4a/output_0_split -> inception_4a/output_inception_4a/output_0_split_3
I0403 15:56:18.003643 14867 net.cpp:399] inception_4a/output_inception_4a/output_0_split -> inception_4a/output_inception_4a/output_0_split_4
I0403 15:56:18.003746 14867 net.cpp:141] Setting up inception_4a/output_inception_4a/output_0_split
I0403 15:56:18.003772 14867 net.cpp:148] Top shape: 24 512 14 14 (2408448)
I0403 15:56:18.003792 14867 net.cpp:148] Top shape: 24 512 14 14 (2408448)
I0403 15:56:18.003813 14867 net.cpp:148] Top shape: 24 512 14 14 (2408448)
I0403 15:56:18.003829 14867 net.cpp:148] Top shape: 24 512 14 14 (2408448)
I0403 15:56:18.003845 14867 net.cpp:148] Top shape: 24 512 14 14 (2408448)
I0403 15:56:18.003859 14867 net.cpp:156] Memory required for data: 944714784
I0403 15:56:18.003877 14867 layer_factory.hpp:77] Creating layer loss1/ave_pool
I0403 15:56:18.003896 14867 net.cpp:91] Creating Layer loss1/ave_pool
I0403 15:56:18.003914 14867 net.cpp:425] loss1/ave_pool <- inception_4a/output_inception_4a/output_0_split_0
I0403 15:56:18.003932 14867 net.cpp:399] loss1/ave_pool -> loss1/ave_pool
I0403 15:56:18.004169 14867 net.cpp:141] Setting up loss1/ave_pool
I0403 15:56:18.004199 14867 net.cpp:148] Top shape: 24 512 4 4 (196608)
I0403 15:56:18.004216 14867 net.cpp:156] Memory required for data: 945501216
I0403 15:56:18.004232 14867 layer_factory.hpp:77] Creating layer loss1/conv
I0403 15:56:18.004256 14867 net.cpp:91] Creating Layer loss1/conv
I0403 15:56:18.004273 14867 net.cpp:425] loss1/conv <- loss1/ave_pool
I0403 15:56:18.004312 14867 net.cpp:399] loss1/conv -> loss1/conv
I0403 15:56:18.005847 14867 net.cpp:141] Setting up loss1/conv
I0403 15:56:18.005878 14867 net.cpp:148] Top shape: 24 128 4 4 (49152)
I0403 15:56:18.005897 14867 net.cpp:156] Memory required for data: 945697824
I0403 15:56:18.005934 14867 layer_factory.hpp:77] Creating layer loss1/relu_conv
I0403 15:56:18.005957 14867 net.cpp:91] Creating Layer loss1/relu_conv
I0403 15:56:18.005992 14867 net.cpp:425] loss1/relu_conv <- loss1/conv
I0403 15:56:18.006014 14867 net.cpp:386] loss1/relu_conv -> loss1/conv (in-place)
I0403 15:56:18.006333 14867 net.cpp:141] Setting up loss1/relu_conv
I0403 15:56:18.006363 14867 net.cpp:148] Top shape: 24 128 4 4 (49152)
I0403 15:56:18.006379 14867 net.cpp:156] Memory required for data: 945894432
I0403 15:56:18.006394 14867 layer_factory.hpp:77] Creating layer loss1/fc
I0403 15:56:18.006433 14867 net.cpp:91] Creating Layer loss1/fc
I0403 15:56:18.006456 14867 net.cpp:425] loss1/fc <- loss1/conv
I0403 15:56:18.006485 14867 net.cpp:399] loss1/fc -> loss1/fc
I0403 15:56:18.025374 14867 net.cpp:141] Setting up loss1/fc
I0403 15:56:18.025414 14867 net.cpp:148] Top shape: 24 1024 (24576)
I0403 15:56:18.025431 14867 net.cpp:156] Memory required for data: 945992736
I0403 15:56:18.025450 14867 layer_factory.hpp:77] Creating layer loss1/relu_fc
I0403 15:56:18.025470 14867 net.cpp:91] Creating Layer loss1/relu_fc
I0403 15:56:18.025486 14867 net.cpp:425] loss1/relu_fc <- loss1/fc
I0403 15:56:18.025508 14867 net.cpp:386] loss1/relu_fc -> loss1/fc (in-place)
I0403 15:56:18.025713 14867 net.cpp:141] Setting up loss1/relu_fc
I0403 15:56:18.025741 14867 net.cpp:148] Top shape: 24 1024 (24576)
I0403 15:56:18.025756 14867 net.cpp:156] Memory required for data: 946091040
I0403 15:56:18.025771 14867 layer_factory.hpp:77] Creating layer loss1/drop_fc
I0403 15:56:18.025804 14867 net.cpp:91] Creating Layer loss1/drop_fc
I0403 15:56:18.025823 14867 net.cpp:425] loss1/drop_fc <- loss1/fc
I0403 15:56:18.025842 14867 net.cpp:386] loss1/drop_fc -> loss1/fc (in-place)
I0403 15:56:18.025897 14867 net.cpp:141] Setting up loss1/drop_fc
I0403 15:56:18.025924 14867 net.cpp:148] Top shape: 24 1024 (24576)
I0403 15:56:18.025941 14867 net.cpp:156] Memory required for data: 946189344
I0403 15:56:18.025957 14867 layer_factory.hpp:77] Creating layer loss1/classifier_plantvillage
I0403 15:56:18.025977 14867 net.cpp:91] Creating Layer loss1/classifier_plantvillage
I0403 15:56:18.025995 14867 net.cpp:425] loss1/classifier_plantvillage <- loss1/fc
I0403 15:56:18.026016 14867 net.cpp:399] loss1/classifier_plantvillage -> loss1/classifier_plantvillage
I0403 15:56:18.026974 14867 net.cpp:141] Setting up loss1/classifier_plantvillage
I0403 15:56:18.027004 14867 net.cpp:148] Top shape: 24 38 (912)
I0403 15:56:18.027020 14867 net.cpp:156] Memory required for data: 946192992
I0403 15:56:18.027039 14867 layer_factory.hpp:77] Creating layer loss1/classifier_plantvillage_loss1/classifier_plantvillage_0_split
I0403 15:56:18.027060 14867 net.cpp:91] Creating Layer loss1/classifier_plantvillage_loss1/classifier_plantvillage_0_split
I0403 15:56:18.027078 14867 net.cpp:425] loss1/classifier_plantvillage_loss1/classifier_plantvillage_0_split <- loss1/classifier_plantvillage
I0403 15:56:18.027101 14867 net.cpp:399] loss1/classifier_plantvillage_loss1/classifier_plantvillage_0_split -> loss1/classifier_plantvillage_loss1/classifier_plantvillage_0_split_0
I0403 15:56:18.027130 14867 net.cpp:399] loss1/classifier_plantvillage_loss1/classifier_plantvillage_0_split -> loss1/classifier_plantvillage_loss1/classifier_plantvillage_0_split_1
I0403 15:56:18.027153 14867 net.cpp:399] loss1/classifier_plantvillage_loss1/classifier_plantvillage_0_split -> loss1/classifier_plantvillage_loss1/classifier_plantvillage_0_split_2
I0403 15:56:18.027223 14867 net.cpp:141] Setting up loss1/classifier_plantvillage_loss1/classifier_plantvillage_0_split
I0403 15:56:18.027251 14867 net.cpp:148] Top shape: 24 38 (912)
I0403 15:56:18.027268 14867 net.cpp:148] Top shape: 24 38 (912)
I0403 15:56:18.027284 14867 net.cpp:148] Top shape: 24 38 (912)
I0403 15:56:18.027299 14867 net.cpp:156] Memory required for data: 946203936
I0403 15:56:18.027314 14867 layer_factory.hpp:77] Creating layer inception_4b/1x1
I0403 15:56:18.027335 14867 net.cpp:91] Creating Layer inception_4b/1x1
I0403 15:56:18.027371 14867 net.cpp:425] inception_4b/1x1 <- inception_4a/output_inception_4a/output_0_split_1
I0403 15:56:18.027392 14867 net.cpp:399] inception_4b/1x1 -> inception_4b/1x1
I0403 15:56:18.029230 14867 net.cpp:141] Setting up inception_4b/1x1
I0403 15:56:18.029261 14867 net.cpp:148] Top shape: 24 160 14 14 (752640)
I0403 15:56:18.029280 14867 net.cpp:156] Memory required for data: 949214496
I0403 15:56:18.029300 14867 layer_factory.hpp:77] Creating layer inception_4b/relu_1x1
I0403 15:56:18.029321 14867 net.cpp:91] Creating Layer inception_4b/relu_1x1
I0403 15:56:18.029340 14867 net.cpp:425] inception_4b/relu_1x1 <- inception_4b/1x1
I0403 15:56:18.029361 14867 net.cpp:386] inception_4b/relu_1x1 -> inception_4b/1x1 (in-place)
I0403 15:56:18.029553 14867 net.cpp:141] Setting up inception_4b/relu_1x1
I0403 15:56:18.029583 14867 net.cpp:148] Top shape: 24 160 14 14 (752640)
I0403 15:56:18.029603 14867 net.cpp:156] Memory required for data: 952225056
I0403 15:56:18.029618 14867 layer_factory.hpp:77] Creating layer inception_4b/3x3_reduce
I0403 15:56:18.029646 14867 net.cpp:91] Creating Layer inception_4b/3x3_reduce
I0403 15:56:18.029665 14867 net.cpp:425] inception_4b/3x3_reduce <- inception_4a/output_inception_4a/output_0_split_2
I0403 15:56:18.029685 14867 net.cpp:399] inception_4b/3x3_reduce -> inception_4b/3x3_reduce
I0403 15:56:18.031126 14867 net.cpp:141] Setting up inception_4b/3x3_reduce
I0403 15:56:18.031162 14867 net.cpp:148] Top shape: 24 112 14 14 (526848)
I0403 15:56:18.031182 14867 net.cpp:156] Memory required for data: 954332448
I0403 15:56:18.031201 14867 layer_factory.hpp:77] Creating layer inception_4b/relu_3x3_reduce
I0403 15:56:18.031220 14867 net.cpp:91] Creating Layer inception_4b/relu_3x3_reduce
I0403 15:56:18.031237 14867 net.cpp:425] inception_4b/relu_3x3_reduce <- inception_4b/3x3_reduce
I0403 15:56:18.031258 14867 net.cpp:386] inception_4b/relu_3x3_reduce -> inception_4b/3x3_reduce (in-place)
I0403 15:56:18.031553 14867 net.cpp:141] Setting up inception_4b/relu_3x3_reduce
I0403 15:56:18.031584 14867 net.cpp:148] Top shape: 24 112 14 14 (526848)
I0403 15:56:18.031604 14867 net.cpp:156] Memory required for data: 956439840
I0403 15:56:18.031627 14867 layer_factory.hpp:77] Creating layer inception_4b/3x3
I0403 15:56:18.031651 14867 net.cpp:91] Creating Layer inception_4b/3x3
I0403 15:56:18.031671 14867 net.cpp:425] inception_4b/3x3 <- inception_4b/3x3_reduce
I0403 15:56:18.031693 14867 net.cpp:399] inception_4b/3x3 -> inception_4b/3x3
I0403 15:56:18.034889 14867 net.cpp:141] Setting up inception_4b/3x3
I0403 15:56:18.034921 14867 net.cpp:148] Top shape: 24 224 14 14 (1053696)
I0403 15:56:18.034939 14867 net.cpp:156] Memory required for data: 960654624
I0403 15:56:18.034957 14867 layer_factory.hpp:77] Creating layer inception_4b/relu_3x3
I0403 15:56:18.034978 14867 net.cpp:91] Creating Layer inception_4b/relu_3x3
I0403 15:56:18.034997 14867 net.cpp:425] inception_4b/relu_3x3 <- inception_4b/3x3
I0403 15:56:18.035015 14867 net.cpp:386] inception_4b/relu_3x3 -> inception_4b/3x3 (in-place)
I0403 15:56:18.035214 14867 net.cpp:141] Setting up inception_4b/relu_3x3
I0403 15:56:18.035241 14867 net.cpp:148] Top shape: 24 224 14 14 (1053696)
I0403 15:56:18.035257 14867 net.cpp:156] Memory required for data: 964869408
I0403 15:56:18.035272 14867 layer_factory.hpp:77] Creating layer inception_4b/5x5_reduce
I0403 15:56:18.035295 14867 net.cpp:91] Creating Layer inception_4b/5x5_reduce
I0403 15:56:18.035315 14867 net.cpp:425] inception_4b/5x5_reduce <- inception_4a/output_inception_4a/output_0_split_3
I0403 15:56:18.035339 14867 net.cpp:399] inception_4b/5x5_reduce -> inception_4b/5x5_reduce
I0403 15:56:18.036490 14867 net.cpp:141] Setting up inception_4b/5x5_reduce
I0403 15:56:18.036521 14867 net.cpp:148] Top shape: 24 24 14 14 (112896)
I0403 15:56:18.036538 14867 net.cpp:156] Memory required for data: 965320992
I0403 15:56:18.036557 14867 layer_factory.hpp:77] Creating layer inception_4b/relu_5x5_reduce
I0403 15:56:18.036579 14867 net.cpp:91] Creating Layer inception_4b/relu_5x5_reduce
I0403 15:56:18.036612 14867 net.cpp:425] inception_4b/relu_5x5_reduce <- inception_4b/5x5_reduce
I0403 15:56:18.036633 14867 net.cpp:386] inception_4b/relu_5x5_reduce -> inception_4b/5x5_reduce (in-place)
I0403 15:56:18.036829 14867 net.cpp:141] Setting up inception_4b/relu_5x5_reduce
I0403 15:56:18.036856 14867 net.cpp:148] Top shape: 24 24 14 14 (112896)
I0403 15:56:18.036875 14867 net.cpp:156] Memory required for data: 965772576
I0403 15:56:18.036890 14867 layer_factory.hpp:77] Creating layer inception_4b/5x5
I0403 15:56:18.036913 14867 net.cpp:91] Creating Layer inception_4b/5x5
I0403 15:56:18.036932 14867 net.cpp:425] inception_4b/5x5 <- inception_4b/5x5_reduce
I0403 15:56:18.036954 14867 net.cpp:399] inception_4b/5x5 -> inception_4b/5x5
I0403 15:56:18.038262 14867 net.cpp:141] Setting up inception_4b/5x5
I0403 15:56:18.038295 14867 net.cpp:148] Top shape: 24 64 14 14 (301056)
I0403 15:56:18.038311 14867 net.cpp:156] Memory required for data: 966976800
I0403 15:56:18.038331 14867 layer_factory.hpp:77] Creating layer inception_4b/relu_5x5
I0403 15:56:18.038352 14867 net.cpp:91] Creating Layer inception_4b/relu_5x5
I0403 15:56:18.038370 14867 net.cpp:425] inception_4b/relu_5x5 <- inception_4b/5x5
I0403 15:56:18.038389 14867 net.cpp:386] inception_4b/relu_5x5 -> inception_4b/5x5 (in-place)
I0403 15:56:18.038697 14867 net.cpp:141] Setting up inception_4b/relu_5x5
I0403 15:56:18.038724 14867 net.cpp:148] Top shape: 24 64 14 14 (301056)
I0403 15:56:18.038740 14867 net.cpp:156] Memory required for data: 968181024
I0403 15:56:18.038755 14867 layer_factory.hpp:77] Creating layer inception_4b/pool
I0403 15:56:18.038780 14867 net.cpp:91] Creating Layer inception_4b/pool
I0403 15:56:18.038800 14867 net.cpp:425] inception_4b/pool <- inception_4a/output_inception_4a/output_0_split_4
I0403 15:56:18.038820 14867 net.cpp:399] inception_4b/pool -> inception_4b/pool
I0403 15:56:18.038888 14867 net.cpp:141] Setting up inception_4b/pool
I0403 15:56:18.038918 14867 net.cpp:148] Top shape: 24 512 14 14 (2408448)
I0403 15:56:18.038933 14867 net.cpp:156] Memory required for data: 977814816
I0403 15:56:18.038949 14867 layer_factory.hpp:77] Creating layer inception_4b/pool_proj
I0403 15:56:18.038971 14867 net.cpp:91] Creating Layer inception_4b/pool_proj
I0403 15:56:18.038990 14867 net.cpp:425] inception_4b/pool_proj <- inception_4b/pool
I0403 15:56:18.039013 14867 net.cpp:399] inception_4b/pool_proj -> inception_4b/pool_proj
I0403 15:56:18.040293 14867 net.cpp:141] Setting up inception_4b/pool_proj
I0403 15:56:18.040328 14867 net.cpp:148] Top shape: 24 64 14 14 (301056)
I0403 15:56:18.040348 14867 net.cpp:156] Memory required for data: 979019040
I0403 15:56:18.040367 14867 layer_factory.hpp:77] Creating layer inception_4b/relu_pool_proj
I0403 15:56:18.040386 14867 net.cpp:91] Creating Layer inception_4b/relu_pool_proj
I0403 15:56:18.040405 14867 net.cpp:425] inception_4b/relu_pool_proj <- inception_4b/pool_proj
I0403 15:56:18.040422 14867 net.cpp:386] inception_4b/relu_pool_proj -> inception_4b/pool_proj (in-place)
I0403 15:56:18.040614 14867 net.cpp:141] Setting up inception_4b/relu_pool_proj
I0403 15:56:18.040650 14867 net.cpp:148] Top shape: 24 64 14 14 (301056)
I0403 15:56:18.040668 14867 net.cpp:156] Memory required for data: 980223264
I0403 15:56:18.040683 14867 layer_factory.hpp:77] Creating layer inception_4b/output
I0403 15:56:18.040701 14867 net.cpp:91] Creating Layer inception_4b/output
I0403 15:56:18.040719 14867 net.cpp:425] inception_4b/output <- inception_4b/1x1
I0403 15:56:18.040735 14867 net.cpp:425] inception_4b/output <- inception_4b/3x3
I0403 15:56:18.040755 14867 net.cpp:425] inception_4b/output <- inception_4b/5x5
I0403 15:56:18.040776 14867 net.cpp:425] inception_4b/output <- inception_4b/pool_proj
I0403 15:56:18.040797 14867 net.cpp:399] inception_4b/output -> inception_4b/output
I0403 15:56:18.040848 14867 net.cpp:141] Setting up inception_4b/output
I0403 15:56:18.040874 14867 net.cpp:148] Top shape: 24 512 14 14 (2408448)
I0403 15:56:18.040889 14867 net.cpp:156] Memory required for data: 989857056
I0403 15:56:18.040920 14867 layer_factory.hpp:77] Creating layer inception_4b/output_inception_4b/output_0_split
I0403 15:56:18.040940 14867 net.cpp:91] Creating Layer inception_4b/output_inception_4b/output_0_split
I0403 15:56:18.040958 14867 net.cpp:425] inception_4b/output_inception_4b/output_0_split <- inception_4b/output
I0403 15:56:18.040977 14867 net.cpp:399] inception_4b/output_inception_4b/output_0_split -> inception_4b/output_inception_4b/output_0_split_0
I0403 15:56:18.040997 14867 net.cpp:399] inception_4b/output_inception_4b/output_0_split -> inception_4b/output_inception_4b/output_0_split_1
I0403 15:56:18.041023 14867 net.cpp:399] inception_4b/output_inception_4b/output_0_split -> inception_4b/output_inception_4b/output_0_split_2
I0403 15:56:18.041049 14867 net.cpp:399] inception_4b/output_inception_4b/output_0_split -> inception_4b/output_inception_4b/output_0_split_3
I0403 15:56:18.041144 14867 net.cpp:141] Setting up inception_4b/output_inception_4b/output_0_split
I0403 15:56:18.041170 14867 net.cpp:148] Top shape: 24 512 14 14 (2408448)
I0403 15:56:18.041191 14867 net.cpp:148] Top shape: 24 512 14 14 (2408448)
I0403 15:56:18.041208 14867 net.cpp:148] Top shape: 24 512 14 14 (2408448)
I0403 15:56:18.041229 14867 net.cpp:148] Top shape: 24 512 14 14 (2408448)
I0403 15:56:18.041242 14867 net.cpp:156] Memory required for data: 1028392224
I0403 15:56:18.041259 14867 layer_factory.hpp:77] Creating layer inception_4c/1x1
I0403 15:56:18.041281 14867 net.cpp:91] Creating Layer inception_4c/1x1
I0403 15:56:18.041301 14867 net.cpp:425] inception_4c/1x1 <- inception_4b/output_inception_4b/output_0_split_0
I0403 15:56:18.041322 14867 net.cpp:399] inception_4c/1x1 -> inception_4c/1x1
I0403 15:56:18.042919 14867 net.cpp:141] Setting up inception_4c/1x1
I0403 15:56:18.042954 14867 net.cpp:148] Top shape: 24 128 14 14 (602112)
I0403 15:56:18.042973 14867 net.cpp:156] Memory required for data: 1030800672
I0403 15:56:18.042992 14867 layer_factory.hpp:77] Creating layer inception_4c/relu_1x1
I0403 15:56:18.043015 14867 net.cpp:91] Creating Layer inception_4c/relu_1x1
I0403 15:56:18.043033 14867 net.cpp:425] inception_4c/relu_1x1 <- inception_4c/1x1
I0403 15:56:18.043056 14867 net.cpp:386] inception_4c/relu_1x1 -> inception_4c/1x1 (in-place)
I0403 15:56:18.043256 14867 net.cpp:141] Setting up inception_4c/relu_1x1
I0403 15:56:18.043282 14867 net.cpp:148] Top shape: 24 128 14 14 (602112)
I0403 15:56:18.043298 14867 net.cpp:156] Memory required for data: 1033209120
I0403 15:56:18.043313 14867 layer_factory.hpp:77] Creating layer inception_4c/3x3_reduce
I0403 15:56:18.043337 14867 net.cpp:91] Creating Layer inception_4c/3x3_reduce
I0403 15:56:18.043356 14867 net.cpp:425] inception_4c/3x3_reduce <- inception_4b/output_inception_4b/output_0_split_1
I0403 15:56:18.043380 14867 net.cpp:399] inception_4c/3x3_reduce -> inception_4c/3x3_reduce
I0403 15:56:18.045438 14867 net.cpp:141] Setting up inception_4c/3x3_reduce
I0403 15:56:18.045469 14867 net.cpp:148] Top shape: 24 128 14 14 (602112)
I0403 15:56:18.045485 14867 net.cpp:156] Memory required for data: 1035617568
I0403 15:56:18.045505 14867 layer_factory.hpp:77] Creating layer inception_4c/relu_3x3_reduce
I0403 15:56:18.045526 14867 net.cpp:91] Creating Layer inception_4c/relu_3x3_reduce
I0403 15:56:18.045545 14867 net.cpp:425] inception_4c/relu_3x3_reduce <- inception_4c/3x3_reduce
I0403 15:56:18.045564 14867 net.cpp:386] inception_4c/relu_3x3_reduce -> inception_4c/3x3_reduce (in-place)
I0403 15:56:18.045868 14867 net.cpp:141] Setting up inception_4c/relu_3x3_reduce
I0403 15:56:18.045897 14867 net.cpp:148] Top shape: 24 128 14 14 (602112)
I0403 15:56:18.045912 14867 net.cpp:156] Memory required for data: 1038026016
I0403 15:56:18.045928 14867 layer_factory.hpp:77] Creating layer inception_4c/3x3
I0403 15:56:18.045951 14867 net.cpp:91] Creating Layer inception_4c/3x3
I0403 15:56:18.045970 14867 net.cpp:425] inception_4c/3x3 <- inception_4c/3x3_reduce
I0403 15:56:18.045994 14867 net.cpp:399] inception_4c/3x3 -> inception_4c/3x3
I0403 15:56:18.049873 14867 net.cpp:141] Setting up inception_4c/3x3
I0403 15:56:18.049918 14867 net.cpp:148] Top shape: 24 256 14 14 (1204224)
I0403 15:56:18.049937 14867 net.cpp:156] Memory required for data: 1042842912
I0403 15:56:18.049970 14867 layer_factory.hpp:77] Creating layer inception_4c/relu_3x3
I0403 15:56:18.049994 14867 net.cpp:91] Creating Layer inception_4c/relu_3x3
I0403 15:56:18.050012 14867 net.cpp:425] inception_4c/relu_3x3 <- inception_4c/3x3
I0403 15:56:18.050029 14867 net.cpp:386] inception_4c/relu_3x3 -> inception_4c/3x3 (in-place)
I0403 15:56:18.050228 14867 net.cpp:141] Setting up inception_4c/relu_3x3
I0403 15:56:18.050256 14867 net.cpp:148] Top shape: 24 256 14 14 (1204224)
I0403 15:56:18.050272 14867 net.cpp:156] Memory required for data: 1047659808
I0403 15:56:18.050288 14867 layer_factory.hpp:77] Creating layer inception_4c/5x5_reduce
I0403 15:56:18.050315 14867 net.cpp:91] Creating Layer inception_4c/5x5_reduce
I0403 15:56:18.050336 14867 net.cpp:425] inception_4c/5x5_reduce <- inception_4b/output_inception_4b/output_0_split_2
I0403 15:56:18.050356 14867 net.cpp:399] inception_4c/5x5_reduce -> inception_4c/5x5_reduce
I0403 15:56:18.051705 14867 net.cpp:141] Setting up inception_4c/5x5_reduce
I0403 15:56:18.051736 14867 net.cpp:148] Top shape: 24 24 14 14 (112896)
I0403 15:56:18.051754 14867 net.cpp:156] Memory required for data: 1048111392
I0403 15:56:18.051779 14867 layer_factory.hpp:77] Creating layer inception_4c/relu_5x5_reduce
I0403 15:56:18.051801 14867 net.cpp:91] Creating Layer inception_4c/relu_5x5_reduce
I0403 15:56:18.051822 14867 net.cpp:425] inception_4c/relu_5x5_reduce <- inception_4c/5x5_reduce
I0403 15:56:18.051842 14867 net.cpp:386] inception_4c/relu_5x5_reduce -> inception_4c/5x5_reduce (in-place)
I0403 15:56:18.052067 14867 net.cpp:141] Setting up inception_4c/relu_5x5_reduce
I0403 15:56:18.052100 14867 net.cpp:148] Top shape: 24 24 14 14 (112896)
I0403 15:56:18.052130 14867 net.cpp:156] Memory required for data: 1048562976
I0403 15:56:18.052148 14867 layer_factory.hpp:77] Creating layer inception_4c/5x5
I0403 15:56:18.052175 14867 net.cpp:91] Creating Layer inception_4c/5x5
I0403 15:56:18.052193 14867 net.cpp:425] inception_4c/5x5 <- inception_4c/5x5_reduce
I0403 15:56:18.052216 14867 net.cpp:399] inception_4c/5x5 -> inception_4c/5x5
I0403 15:56:18.053578 14867 net.cpp:141] Setting up inception_4c/5x5
I0403 15:56:18.053611 14867 net.cpp:148] Top shape: 24 64 14 14 (301056)
I0403 15:56:18.053629 14867 net.cpp:156] Memory required for data: 1049767200
I0403 15:56:18.053648 14867 layer_factory.hpp:77] Creating layer inception_4c/relu_5x5
I0403 15:56:18.053670 14867 net.cpp:91] Creating Layer inception_4c/relu_5x5
I0403 15:56:18.053688 14867 net.cpp:425] inception_4c/relu_5x5 <- inception_4c/5x5
I0403 15:56:18.053707 14867 net.cpp:386] inception_4c/relu_5x5 -> inception_4c/5x5 (in-place)
I0403 15:56:18.054018 14867 net.cpp:141] Setting up inception_4c/relu_5x5
I0403 15:56:18.054050 14867 net.cpp:148] Top shape: 24 64 14 14 (301056)
I0403 15:56:18.054075 14867 net.cpp:156] Memory required for data: 1050971424
I0403 15:56:18.054091 14867 layer_factory.hpp:77] Creating layer inception_4c/pool
I0403 15:56:18.054116 14867 net.cpp:91] Creating Layer inception_4c/pool
I0403 15:56:18.054133 14867 net.cpp:425] inception_4c/pool <- inception_4b/output_inception_4b/output_0_split_3
I0403 15:56:18.054157 14867 net.cpp:399] inception_4c/pool -> inception_4c/pool
I0403 15:56:18.054232 14867 net.cpp:141] Setting up inception_4c/pool
I0403 15:56:18.054265 14867 net.cpp:148] Top shape: 24 512 14 14 (2408448)
I0403 15:56:18.054282 14867 net.cpp:156] Memory required for data: 1060605216
I0403 15:56:18.054298 14867 layer_factory.hpp:77] Creating layer inception_4c/pool_proj
I0403 15:56:18.054319 14867 net.cpp:91] Creating Layer inception_4c/pool_proj
I0403 15:56:18.054337 14867 net.cpp:425] inception_4c/pool_proj <- inception_4c/pool
I0403 15:56:18.054360 14867 net.cpp:399] inception_4c/pool_proj -> inception_4c/pool_proj
I0403 15:56:18.055668 14867 net.cpp:141] Setting up inception_4c/pool_proj
I0403 15:56:18.055699 14867 net.cpp:148] Top shape: 24 64 14 14 (301056)
I0403 15:56:18.055733 14867 net.cpp:156] Memory required for data: 1061809440
I0403 15:56:18.055754 14867 layer_factory.hpp:77] Creating layer inception_4c/relu_pool_proj
I0403 15:56:18.055779 14867 net.cpp:91] Creating Layer inception_4c/relu_pool_proj
I0403 15:56:18.055797 14867 net.cpp:425] inception_4c/relu_pool_proj <- inception_4c/pool_proj
I0403 15:56:18.055816 14867 net.cpp:386] inception_4c/relu_pool_proj -> inception_4c/pool_proj (in-place)
I0403 15:56:18.056010 14867 net.cpp:141] Setting up inception_4c/relu_pool_proj
I0403 15:56:18.056038 14867 net.cpp:148] Top shape: 24 64 14 14 (301056)
I0403 15:56:18.056056 14867 net.cpp:156] Memory required for data: 1063013664
I0403 15:56:18.056071 14867 layer_factory.hpp:77] Creating layer inception_4c/output
I0403 15:56:18.056089 14867 net.cpp:91] Creating Layer inception_4c/output
I0403 15:56:18.056112 14867 net.cpp:425] inception_4c/output <- inception_4c/1x1
I0403 15:56:18.056129 14867 net.cpp:425] inception_4c/output <- inception_4c/3x3
I0403 15:56:18.056146 14867 net.cpp:425] inception_4c/output <- inception_4c/5x5
I0403 15:56:18.056164 14867 net.cpp:425] inception_4c/output <- inception_4c/pool_proj
I0403 15:56:18.056185 14867 net.cpp:399] inception_4c/output -> inception_4c/output
I0403 15:56:18.056234 14867 net.cpp:141] Setting up inception_4c/output
I0403 15:56:18.056260 14867 net.cpp:148] Top shape: 24 512 14 14 (2408448)
I0403 15:56:18.056277 14867 net.cpp:156] Memory required for data: 1072647456
I0403 15:56:18.056291 14867 layer_factory.hpp:77] Creating layer inception_4c/output_inception_4c/output_0_split
I0403 15:56:18.056311 14867 net.cpp:91] Creating Layer inception_4c/output_inception_4c/output_0_split
I0403 15:56:18.056329 14867 net.cpp:425] inception_4c/output_inception_4c/output_0_split <- inception_4c/output
I0403 15:56:18.056347 14867 net.cpp:399] inception_4c/output_inception_4c/output_0_split -> inception_4c/output_inception_4c/output_0_split_0
I0403 15:56:18.056367 14867 net.cpp:399] inception_4c/output_inception_4c/output_0_split -> inception_4c/output_inception_4c/output_0_split_1
I0403 15:56:18.056392 14867 net.cpp:399] inception_4c/output_inception_4c/output_0_split -> inception_4c/output_inception_4c/output_0_split_2
I0403 15:56:18.056416 14867 net.cpp:399] inception_4c/output_inception_4c/output_0_split -> inception_4c/output_inception_4c/output_0_split_3
I0403 15:56:18.056505 14867 net.cpp:141] Setting up inception_4c/output_inception_4c/output_0_split
I0403 15:56:18.056531 14867 net.cpp:148] Top shape: 24 512 14 14 (2408448)
I0403 15:56:18.056548 14867 net.cpp:148] Top shape: 24 512 14 14 (2408448)
I0403 15:56:18.056565 14867 net.cpp:148] Top shape: 24 512 14 14 (2408448)
I0403 15:56:18.056581 14867 net.cpp:148] Top shape: 24 512 14 14 (2408448)
I0403 15:56:18.056596 14867 net.cpp:156] Memory required for data: 1111182624
I0403 15:56:18.056609 14867 layer_factory.hpp:77] Creating layer inception_4d/1x1
I0403 15:56:18.056633 14867 net.cpp:91] Creating Layer inception_4d/1x1
I0403 15:56:18.056653 14867 net.cpp:425] inception_4d/1x1 <- inception_4c/output_inception_4c/output_0_split_0
I0403 15:56:18.056674 14867 net.cpp:399] inception_4d/1x1 -> inception_4d/1x1
I0403 15:56:18.058198 14867 net.cpp:141] Setting up inception_4d/1x1
I0403 15:56:18.058229 14867 net.cpp:148] Top shape: 24 112 14 14 (526848)
I0403 15:56:18.058245 14867 net.cpp:156] Memory required for data: 1113290016
I0403 15:56:18.058274 14867 layer_factory.hpp:77] Creating layer inception_4d/relu_1x1
I0403 15:56:18.058305 14867 net.cpp:91] Creating Layer inception_4d/relu_1x1
I0403 15:56:18.058333 14867 net.cpp:425] inception_4d/relu_1x1 <- inception_4d/1x1
I0403 15:56:18.058360 14867 net.cpp:386] inception_4d/relu_1x1 -> inception_4d/1x1 (in-place)
I0403 15:56:18.058557 14867 net.cpp:141] Setting up inception_4d/relu_1x1
I0403 15:56:18.058588 14867 net.cpp:148] Top shape: 24 112 14 14 (526848)
I0403 15:56:18.058604 14867 net.cpp:156] Memory required for data: 1115397408
I0403 15:56:18.058619 14867 layer_factory.hpp:77] Creating layer inception_4d/3x3_reduce
I0403 15:56:18.058662 14867 net.cpp:91] Creating Layer inception_4d/3x3_reduce
I0403 15:56:18.058682 14867 net.cpp:425] inception_4d/3x3_reduce <- inception_4c/output_inception_4c/output_0_split_1
I0403 15:56:18.058702 14867 net.cpp:399] inception_4d/3x3_reduce -> inception_4d/3x3_reduce
I0403 15:56:18.060372 14867 net.cpp:141] Setting up inception_4d/3x3_reduce
I0403 15:56:18.060407 14867 net.cpp:148] Top shape: 24 144 14 14 (677376)
I0403 15:56:18.060426 14867 net.cpp:156] Memory required for data: 1118106912
I0403 15:56:18.060446 14867 layer_factory.hpp:77] Creating layer inception_4d/relu_3x3_reduce
I0403 15:56:18.060464 14867 net.cpp:91] Creating Layer inception_4d/relu_3x3_reduce
I0403 15:56:18.060482 14867 net.cpp:425] inception_4d/relu_3x3_reduce <- inception_4d/3x3_reduce
I0403 15:56:18.060503 14867 net.cpp:386] inception_4d/relu_3x3_reduce -> inception_4d/3x3_reduce (in-place)
I0403 15:56:18.060814 14867 net.cpp:141] Setting up inception_4d/relu_3x3_reduce
I0403 15:56:18.060847 14867 net.cpp:148] Top shape: 24 144 14 14 (677376)
I0403 15:56:18.060863 14867 net.cpp:156] Memory required for data: 1120816416
I0403 15:56:18.060878 14867 layer_factory.hpp:77] Creating layer inception_4d/3x3
I0403 15:56:18.060904 14867 net.cpp:91] Creating Layer inception_4d/3x3
I0403 15:56:18.060925 14867 net.cpp:425] inception_4d/3x3 <- inception_4d/3x3_reduce
I0403 15:56:18.060950 14867 net.cpp:399] inception_4d/3x3 -> inception_4d/3x3
I0403 15:56:18.065610 14867 net.cpp:141] Setting up inception_4d/3x3
I0403 15:56:18.065642 14867 net.cpp:148] Top shape: 24 288 14 14 (1354752)
I0403 15:56:18.065659 14867 net.cpp:156] Memory required for data: 1126235424
I0403 15:56:18.065677 14867 layer_factory.hpp:77] Creating layer inception_4d/relu_3x3
I0403 15:56:18.065699 14867 net.cpp:91] Creating Layer inception_4d/relu_3x3
I0403 15:56:18.065718 14867 net.cpp:425] inception_4d/relu_3x3 <- inception_4d/3x3
I0403 15:56:18.065737 14867 net.cpp:386] inception_4d/relu_3x3 -> inception_4d/3x3 (in-place)
I0403 15:56:18.065932 14867 net.cpp:141] Setting up inception_4d/relu_3x3
I0403 15:56:18.065960 14867 net.cpp:148] Top shape: 24 288 14 14 (1354752)
I0403 15:56:18.065978 14867 net.cpp:156] Memory required for data: 1131654432
I0403 15:56:18.065994 14867 layer_factory.hpp:77] Creating layer inception_4d/5x5_reduce
I0403 15:56:18.066015 14867 net.cpp:91] Creating Layer inception_4d/5x5_reduce
I0403 15:56:18.066033 14867 net.cpp:425] inception_4d/5x5_reduce <- inception_4c/output_inception_4c/output_0_split_2
I0403 15:56:18.066056 14867 net.cpp:399] inception_4d/5x5_reduce -> inception_4d/5x5_reduce
I0403 15:56:18.067277 14867 net.cpp:141] Setting up inception_4d/5x5_reduce
I0403 15:56:18.067308 14867 net.cpp:148] Top shape: 24 32 14 14 (150528)
I0403 15:56:18.067325 14867 net.cpp:156] Memory required for data: 1132256544
I0403 15:56:18.067343 14867 layer_factory.hpp:77] Creating layer inception_4d/relu_5x5_reduce
I0403 15:56:18.067365 14867 net.cpp:91] Creating Layer inception_4d/relu_5x5_reduce
I0403 15:56:18.067385 14867 net.cpp:425] inception_4d/relu_5x5_reduce <- inception_4d/5x5_reduce
I0403 15:56:18.067404 14867 net.cpp:386] inception_4d/relu_5x5_reduce -> inception_4d/5x5_reduce (in-place)
I0403 15:56:18.067610 14867 net.cpp:141] Setting up inception_4d/relu_5x5_reduce
I0403 15:56:18.067638 14867 net.cpp:148] Top shape: 24 32 14 14 (150528)
I0403 15:56:18.067653 14867 net.cpp:156] Memory required for data: 1132858656
I0403 15:56:18.067668 14867 layer_factory.hpp:77] Creating layer inception_4d/5x5
I0403 15:56:18.067693 14867 net.cpp:91] Creating Layer inception_4d/5x5
I0403 15:56:18.067718 14867 net.cpp:425] inception_4d/5x5 <- inception_4d/5x5_reduce
I0403 15:56:18.067739 14867 net.cpp:399] inception_4d/5x5 -> inception_4d/5x5
I0403 15:56:18.069430 14867 net.cpp:141] Setting up inception_4d/5x5
I0403 15:56:18.069468 14867 net.cpp:148] Top shape: 24 64 14 14 (301056)
I0403 15:56:18.069488 14867 net.cpp:156] Memory required for data: 1134062880
I0403 15:56:18.069509 14867 layer_factory.hpp:77] Creating layer inception_4d/relu_5x5
I0403 15:56:18.069548 14867 net.cpp:91] Creating Layer inception_4d/relu_5x5
I0403 15:56:18.069569 14867 net.cpp:425] inception_4d/relu_5x5 <- inception_4d/5x5
I0403 15:56:18.069592 14867 net.cpp:386] inception_4d/relu_5x5 -> inception_4d/5x5 (in-place)
I0403 15:56:18.069912 14867 net.cpp:141] Setting up inception_4d/relu_5x5
I0403 15:56:18.069943 14867 net.cpp:148] Top shape: 24 64 14 14 (301056)
I0403 15:56:18.069962 14867 net.cpp:156] Memory required for data: 1135267104
I0403 15:56:18.069977 14867 layer_factory.hpp:77] Creating layer inception_4d/pool
I0403 15:56:18.069995 14867 net.cpp:91] Creating Layer inception_4d/pool
I0403 15:56:18.070013 14867 net.cpp:425] inception_4d/pool <- inception_4c/output_inception_4c/output_0_split_3
I0403 15:56:18.070035 14867 net.cpp:399] inception_4d/pool -> inception_4d/pool
I0403 15:56:18.070111 14867 net.cpp:141] Setting up inception_4d/pool
I0403 15:56:18.070138 14867 net.cpp:148] Top shape: 24 512 14 14 (2408448)
I0403 15:56:18.070153 14867 net.cpp:156] Memory required for data: 1144900896
I0403 15:56:18.070169 14867 layer_factory.hpp:77] Creating layer inception_4d/pool_proj
I0403 15:56:18.070193 14867 net.cpp:91] Creating Layer inception_4d/pool_proj
I0403 15:56:18.070211 14867 net.cpp:425] inception_4d/pool_proj <- inception_4d/pool
I0403 15:56:18.070233 14867 net.cpp:399] inception_4d/pool_proj -> inception_4d/pool_proj
I0403 15:56:18.072165 14867 net.cpp:141] Setting up inception_4d/pool_proj
I0403 15:56:18.072196 14867 net.cpp:148] Top shape: 24 64 14 14 (301056)
I0403 15:56:18.072212 14867 net.cpp:156] Memory required for data: 1146105120
I0403 15:56:18.072232 14867 layer_factory.hpp:77] Creating layer inception_4d/relu_pool_proj
I0403 15:56:18.072253 14867 net.cpp:91] Creating Layer inception_4d/relu_pool_proj
I0403 15:56:18.072273 14867 net.cpp:425] inception_4d/relu_pool_proj <- inception_4d/pool_proj
I0403 15:56:18.072291 14867 net.cpp:386] inception_4d/relu_pool_proj -> inception_4d/pool_proj (in-place)
I0403 15:56:18.072486 14867 net.cpp:141] Setting up inception_4d/relu_pool_proj
I0403 15:56:18.072515 14867 net.cpp:148] Top shape: 24 64 14 14 (301056)
I0403 15:56:18.072532 14867 net.cpp:156] Memory required for data: 1147309344
I0403 15:56:18.072548 14867 layer_factory.hpp:77] Creating layer inception_4d/output
I0403 15:56:18.072566 14867 net.cpp:91] Creating Layer inception_4d/output
I0403 15:56:18.072582 14867 net.cpp:425] inception_4d/output <- inception_4d/1x1
I0403 15:56:18.072600 14867 net.cpp:425] inception_4d/output <- inception_4d/3x3
I0403 15:56:18.072618 14867 net.cpp:425] inception_4d/output <- inception_4d/5x5
I0403 15:56:18.072634 14867 net.cpp:425] inception_4d/output <- inception_4d/pool_proj
I0403 15:56:18.072651 14867 net.cpp:399] inception_4d/output -> inception_4d/output
I0403 15:56:18.072703 14867 net.cpp:141] Setting up inception_4d/output
I0403 15:56:18.072731 14867 net.cpp:148] Top shape: 24 528 14 14 (2483712)
I0403 15:56:18.072744 14867 net.cpp:156] Memory required for data: 1157244192
I0403 15:56:18.072759 14867 layer_factory.hpp:77] Creating layer inception_4d/output_inception_4d/output_0_split
I0403 15:56:18.072780 14867 net.cpp:91] Creating Layer inception_4d/output_inception_4d/output_0_split
I0403 15:56:18.072798 14867 net.cpp:425] inception_4d/output_inception_4d/output_0_split <- inception_4d/output
I0403 15:56:18.072815 14867 net.cpp:399] inception_4d/output_inception_4d/output_0_split -> inception_4d/output_inception_4d/output_0_split_0
I0403 15:56:18.072839 14867 net.cpp:399] inception_4d/output_inception_4d/output_0_split -> inception_4d/output_inception_4d/output_0_split_1
I0403 15:56:18.072865 14867 net.cpp:399] inception_4d/output_inception_4d/output_0_split -> inception_4d/output_inception_4d/output_0_split_2
I0403 15:56:18.072895 14867 net.cpp:399] inception_4d/output_inception_4d/output_0_split -> inception_4d/output_inception_4d/output_0_split_3
I0403 15:56:18.072922 14867 net.cpp:399] inception_4d/output_inception_4d/output_0_split -> inception_4d/output_inception_4d/output_0_split_4
I0403 15:56:18.073036 14867 net.cpp:141] Setting up inception_4d/output_inception_4d/output_0_split
I0403 15:56:18.073076 14867 net.cpp:148] Top shape: 24 528 14 14 (2483712)
I0403 15:56:18.073102 14867 net.cpp:148] Top shape: 24 528 14 14 (2483712)
I0403 15:56:18.073132 14867 net.cpp:148] Top shape: 24 528 14 14 (2483712)
I0403 15:56:18.073148 14867 net.cpp:148] Top shape: 24 528 14 14 (2483712)
I0403 15:56:18.073164 14867 net.cpp:148] Top shape: 24 528 14 14 (2483712)
I0403 15:56:18.073180 14867 net.cpp:156] Memory required for data: 1206918432
I0403 15:56:18.073196 14867 layer_factory.hpp:77] Creating layer loss2/ave_pool
I0403 15:56:18.073217 14867 net.cpp:91] Creating Layer loss2/ave_pool
I0403 15:56:18.073235 14867 net.cpp:425] loss2/ave_pool <- inception_4d/output_inception_4d/output_0_split_0
I0403 15:56:18.073261 14867 net.cpp:399] loss2/ave_pool -> loss2/ave_pool
I0403 15:56:18.073592 14867 net.cpp:141] Setting up loss2/ave_pool
I0403 15:56:18.073622 14867 net.cpp:148] Top shape: 24 528 4 4 (202752)
I0403 15:56:18.073639 14867 net.cpp:156] Memory required for data: 1207729440
I0403 15:56:18.073657 14867 layer_factory.hpp:77] Creating layer loss2/conv
I0403 15:56:18.073680 14867 net.cpp:91] Creating Layer loss2/conv
I0403 15:56:18.073699 14867 net.cpp:425] loss2/conv <- loss2/ave_pool
I0403 15:56:18.073724 14867 net.cpp:399] loss2/conv -> loss2/conv
I0403 15:56:18.075811 14867 net.cpp:141] Setting up loss2/conv
I0403 15:56:18.075846 14867 net.cpp:148] Top shape: 24 128 4 4 (49152)
I0403 15:56:18.075865 14867 net.cpp:156] Memory required for data: 1207926048
I0403 15:56:18.075886 14867 layer_factory.hpp:77] Creating layer loss2/relu_conv
I0403 15:56:18.075903 14867 net.cpp:91] Creating Layer loss2/relu_conv
I0403 15:56:18.075920 14867 net.cpp:425] loss2/relu_conv <- loss2/conv
I0403 15:56:18.075938 14867 net.cpp:386] loss2/relu_conv -> loss2/conv (in-place)
I0403 15:56:18.076246 14867 net.cpp:141] Setting up loss2/relu_conv
I0403 15:56:18.076277 14867 net.cpp:148] Top shape: 24 128 4 4 (49152)
I0403 15:56:18.076293 14867 net.cpp:156] Memory required for data: 1208122656
I0403 15:56:18.076309 14867 layer_factory.hpp:77] Creating layer loss2/fc
I0403 15:56:18.076329 14867 net.cpp:91] Creating Layer loss2/fc
I0403 15:56:18.076346 14867 net.cpp:425] loss2/fc <- loss2/conv
I0403 15:56:18.076367 14867 net.cpp:399] loss2/fc -> loss2/fc
I0403 15:56:18.095384 14867 net.cpp:141] Setting up loss2/fc
I0403 15:56:18.095427 14867 net.cpp:148] Top shape: 24 1024 (24576)
I0403 15:56:18.095446 14867 net.cpp:156] Memory required for data: 1208220960
I0403 15:56:18.095466 14867 layer_factory.hpp:77] Creating layer loss2/relu_fc
I0403 15:56:18.095489 14867 net.cpp:91] Creating Layer loss2/relu_fc
I0403 15:56:18.095510 14867 net.cpp:425] loss2/relu_fc <- loss2/fc
I0403 15:56:18.095535 14867 net.cpp:386] loss2/relu_fc -> loss2/fc (in-place)
I0403 15:56:18.095871 14867 net.cpp:141] Setting up loss2/relu_fc
I0403 15:56:18.095899 14867 net.cpp:148] Top shape: 24 1024 (24576)
I0403 15:56:18.095916 14867 net.cpp:156] Memory required for data: 1208319264
I0403 15:56:18.095932 14867 layer_factory.hpp:77] Creating layer loss2/drop_fc
I0403 15:56:18.095954 14867 net.cpp:91] Creating Layer loss2/drop_fc
I0403 15:56:18.095973 14867 net.cpp:425] loss2/drop_fc <- loss2/fc
I0403 15:56:18.095990 14867 net.cpp:386] loss2/drop_fc -> loss2/fc (in-place)
I0403 15:56:18.096045 14867 net.cpp:141] Setting up loss2/drop_fc
I0403 15:56:18.096068 14867 net.cpp:148] Top shape: 24 1024 (24576)
I0403 15:56:18.096084 14867 net.cpp:156] Memory required for data: 1208417568
I0403 15:56:18.096104 14867 layer_factory.hpp:77] Creating layer loss2/classifier_plantvillage
I0403 15:56:18.096124 14867 net.cpp:91] Creating Layer loss2/classifier_plantvillage
I0403 15:56:18.096146 14867 net.cpp:425] loss2/classifier_plantvillage <- loss2/fc
I0403 15:56:18.096168 14867 net.cpp:399] loss2/classifier_plantvillage -> loss2/classifier_plantvillage
I0403 15:56:18.096599 14867 net.cpp:141] Setting up loss2/classifier_plantvillage
I0403 15:56:18.096627 14867 net.cpp:148] Top shape: 24 38 (912)
I0403 15:56:18.096642 14867 net.cpp:156] Memory required for data: 1208421216
I0403 15:56:18.096683 14867 layer_factory.hpp:77] Creating layer loss2/classifier_plantvillage_loss2/classifier_plantvillage_0_split
I0403 15:56:18.096704 14867 net.cpp:91] Creating Layer loss2/classifier_plantvillage_loss2/classifier_plantvillage_0_split
I0403 15:56:18.096722 14867 net.cpp:425] loss2/classifier_plantvillage_loss2/classifier_plantvillage_0_split <- loss2/classifier_plantvillage
I0403 15:56:18.096742 14867 net.cpp:399] loss2/classifier_plantvillage_loss2/classifier_plantvillage_0_split -> loss2/classifier_plantvillage_loss2/classifier_plantvillage_0_split_0
I0403 15:56:18.096766 14867 net.cpp:399] loss2/classifier_plantvillage_loss2/classifier_plantvillage_0_split -> loss2/classifier_plantvillage_loss2/classifier_plantvillage_0_split_1
I0403 15:56:18.096789 14867 net.cpp:399] loss2/classifier_plantvillage_loss2/classifier_plantvillage_0_split -> loss2/classifier_plantvillage_loss2/classifier_plantvillage_0_split_2
I0403 15:56:18.096873 14867 net.cpp:141] Setting up loss2/classifier_plantvillage_loss2/classifier_plantvillage_0_split
I0403 15:56:18.096900 14867 net.cpp:148] Top shape: 24 38 (912)
I0403 15:56:18.096918 14867 net.cpp:148] Top shape: 24 38 (912)
I0403 15:56:18.096935 14867 net.cpp:148] Top shape: 24 38 (912)
I0403 15:56:18.096949 14867 net.cpp:156] Memory required for data: 1208432160
I0403 15:56:18.096966 14867 layer_factory.hpp:77] Creating layer inception_4e/1x1
I0403 15:56:18.096989 14867 net.cpp:91] Creating Layer inception_4e/1x1
I0403 15:56:18.097008 14867 net.cpp:425] inception_4e/1x1 <- inception_4d/output_inception_4d/output_0_split_1
I0403 15:56:18.097028 14867 net.cpp:399] inception_4e/1x1 -> inception_4e/1x1
I0403 15:56:18.098981 14867 net.cpp:141] Setting up inception_4e/1x1
I0403 15:56:18.099014 14867 net.cpp:148] Top shape: 24 256 14 14 (1204224)
I0403 15:56:18.099033 14867 net.cpp:156] Memory required for data: 1213249056
I0403 15:56:18.099052 14867 layer_factory.hpp:77] Creating layer inception_4e/relu_1x1
I0403 15:56:18.099072 14867 net.cpp:91] Creating Layer inception_4e/relu_1x1
I0403 15:56:18.099089 14867 net.cpp:425] inception_4e/relu_1x1 <- inception_4e/1x1
I0403 15:56:18.099117 14867 net.cpp:386] inception_4e/relu_1x1 -> inception_4e/1x1 (in-place)
I0403 15:56:18.099428 14867 net.cpp:141] Setting up inception_4e/relu_1x1
I0403 15:56:18.099459 14867 net.cpp:148] Top shape: 24 256 14 14 (1204224)
I0403 15:56:18.099478 14867 net.cpp:156] Memory required for data: 1218065952
I0403 15:56:18.099493 14867 layer_factory.hpp:77] Creating layer inception_4e/3x3_reduce
I0403 15:56:18.099516 14867 net.cpp:91] Creating Layer inception_4e/3x3_reduce
I0403 15:56:18.099536 14867 net.cpp:425] inception_4e/3x3_reduce <- inception_4d/output_inception_4d/output_0_split_2
I0403 15:56:18.099557 14867 net.cpp:399] inception_4e/3x3_reduce -> inception_4e/3x3_reduce
I0403 15:56:18.101807 14867 net.cpp:141] Setting up inception_4e/3x3_reduce
I0403 15:56:18.101840 14867 net.cpp:148] Top shape: 24 160 14 14 (752640)
I0403 15:56:18.101860 14867 net.cpp:156] Memory required for data: 1221076512
I0403 15:56:18.101878 14867 layer_factory.hpp:77] Creating layer inception_4e/relu_3x3_reduce
I0403 15:56:18.101898 14867 net.cpp:91] Creating Layer inception_4e/relu_3x3_reduce
I0403 15:56:18.101917 14867 net.cpp:425] inception_4e/relu_3x3_reduce <- inception_4e/3x3_reduce
I0403 15:56:18.101935 14867 net.cpp:386] inception_4e/relu_3x3_reduce -> inception_4e/3x3_reduce (in-place)
I0403 15:56:18.102139 14867 net.cpp:141] Setting up inception_4e/relu_3x3_reduce
I0403 15:56:18.102172 14867 net.cpp:148] Top shape: 24 160 14 14 (752640)
I0403 15:56:18.102190 14867 net.cpp:156] Memory required for data: 1224087072
I0403 15:56:18.102205 14867 layer_factory.hpp:77] Creating layer inception_4e/3x3
I0403 15:56:18.102228 14867 net.cpp:91] Creating Layer inception_4e/3x3
I0403 15:56:18.102247 14867 net.cpp:425] inception_4e/3x3 <- inception_4e/3x3_reduce
I0403 15:56:18.102270 14867 net.cpp:399] inception_4e/3x3 -> inception_4e/3x3
I0403 15:56:18.107709 14867 net.cpp:141] Setting up inception_4e/3x3
I0403 15:56:18.107758 14867 net.cpp:148] Top shape: 24 320 14 14 (1505280)
I0403 15:56:18.107775 14867 net.cpp:156] Memory required for data: 1230108192
I0403 15:56:18.107795 14867 layer_factory.hpp:77] Creating layer inception_4e/relu_3x3
I0403 15:56:18.107815 14867 net.cpp:91] Creating Layer inception_4e/relu_3x3
I0403 15:56:18.107834 14867 net.cpp:425] inception_4e/relu_3x3 <- inception_4e/3x3
I0403 15:56:18.107856 14867 net.cpp:386] inception_4e/relu_3x3 -> inception_4e/3x3 (in-place)
I0403 15:56:18.108183 14867 net.cpp:141] Setting up inception_4e/relu_3x3
I0403 15:56:18.108212 14867 net.cpp:148] Top shape: 24 320 14 14 (1505280)
I0403 15:56:18.108228 14867 net.cpp:156] Memory required for data: 1236129312
I0403 15:56:18.108247 14867 layer_factory.hpp:77] Creating layer inception_4e/5x5_reduce
I0403 15:56:18.108273 14867 net.cpp:91] Creating Layer inception_4e/5x5_reduce
I0403 15:56:18.108294 14867 net.cpp:425] inception_4e/5x5_reduce <- inception_4d/output_inception_4d/output_0_split_3
I0403 15:56:18.108319 14867 net.cpp:399] inception_4e/5x5_reduce -> inception_4e/5x5_reduce
I0403 15:56:18.109530 14867 net.cpp:141] Setting up inception_4e/5x5_reduce
I0403 15:56:18.109565 14867 net.cpp:148] Top shape: 24 32 14 14 (150528)
I0403 15:56:18.109582 14867 net.cpp:156] Memory required for data: 1236731424
I0403 15:56:18.109601 14867 layer_factory.hpp:77] Creating layer inception_4e/relu_5x5_reduce
I0403 15:56:18.109621 14867 net.cpp:91] Creating Layer inception_4e/relu_5x5_reduce
I0403 15:56:18.109637 14867 net.cpp:425] inception_4e/relu_5x5_reduce <- inception_4e/5x5_reduce
I0403 15:56:18.109658 14867 net.cpp:386] inception_4e/relu_5x5_reduce -> inception_4e/5x5_reduce (in-place)
I0403 15:56:18.109975 14867 net.cpp:141] Setting up inception_4e/relu_5x5_reduce
I0403 15:56:18.110005 14867 net.cpp:148] Top shape: 24 32 14 14 (150528)
I0403 15:56:18.110023 14867 net.cpp:156] Memory required for data: 1237333536
I0403 15:56:18.110038 14867 layer_factory.hpp:77] Creating layer inception_4e/5x5
I0403 15:56:18.110083 14867 net.cpp:91] Creating Layer inception_4e/5x5
I0403 15:56:18.110110 14867 net.cpp:425] inception_4e/5x5 <- inception_4e/5x5_reduce
I0403 15:56:18.110131 14867 net.cpp:399] inception_4e/5x5 -> inception_4e/5x5
I0403 15:56:18.112150 14867 net.cpp:141] Setting up inception_4e/5x5
I0403 15:56:18.112185 14867 net.cpp:148] Top shape: 24 128 14 14 (602112)
I0403 15:56:18.112202 14867 net.cpp:156] Memory required for data: 1239741984
I0403 15:56:18.112222 14867 layer_factory.hpp:77] Creating layer inception_4e/relu_5x5
I0403 15:56:18.112244 14867 net.cpp:91] Creating Layer inception_4e/relu_5x5
I0403 15:56:18.112263 14867 net.cpp:425] inception_4e/relu_5x5 <- inception_4e/5x5
I0403 15:56:18.112280 14867 net.cpp:386] inception_4e/relu_5x5 -> inception_4e/5x5 (in-place)
I0403 15:56:18.112490 14867 net.cpp:141] Setting up inception_4e/relu_5x5
I0403 15:56:18.112520 14867 net.cpp:148] Top shape: 24 128 14 14 (602112)
I0403 15:56:18.112540 14867 net.cpp:156] Memory required for data: 1242150432
I0403 15:56:18.112557 14867 layer_factory.hpp:77] Creating layer inception_4e/pool
I0403 15:56:18.112576 14867 net.cpp:91] Creating Layer inception_4e/pool
I0403 15:56:18.112593 14867 net.cpp:425] inception_4e/pool <- inception_4d/output_inception_4d/output_0_split_4
I0403 15:56:18.112617 14867 net.cpp:399] inception_4e/pool -> inception_4e/pool
I0403 15:56:18.112692 14867 net.cpp:141] Setting up inception_4e/pool
I0403 15:56:18.112720 14867 net.cpp:148] Top shape: 24 528 14 14 (2483712)
I0403 15:56:18.112735 14867 net.cpp:156] Memory required for data: 1252085280
I0403 15:56:18.112749 14867 layer_factory.hpp:77] Creating layer inception_4e/pool_proj
I0403 15:56:18.112772 14867 net.cpp:91] Creating Layer inception_4e/pool_proj
I0403 15:56:18.112792 14867 net.cpp:425] inception_4e/pool_proj <- inception_4e/pool
I0403 15:56:18.112813 14867 net.cpp:399] inception_4e/pool_proj -> inception_4e/pool_proj
I0403 15:56:18.114486 14867 net.cpp:141] Setting up inception_4e/pool_proj
I0403 15:56:18.114518 14867 net.cpp:148] Top shape: 24 128 14 14 (602112)
I0403 15:56:18.114552 14867 net.cpp:156] Memory required for data: 1254493728
I0403 15:56:18.114573 14867 layer_factory.hpp:77] Creating layer inception_4e/relu_pool_proj
I0403 15:56:18.114594 14867 net.cpp:91] Creating Layer inception_4e/relu_pool_proj
I0403 15:56:18.114612 14867 net.cpp:425] inception_4e/relu_pool_proj <- inception_4e/pool_proj
I0403 15:56:18.114631 14867 net.cpp:386] inception_4e/relu_pool_proj -> inception_4e/pool_proj (in-place)
I0403 15:56:18.114943 14867 net.cpp:141] Setting up inception_4e/relu_pool_proj
I0403 15:56:18.114986 14867 net.cpp:148] Top shape: 24 128 14 14 (602112)
I0403 15:56:18.115006 14867 net.cpp:156] Memory required for data: 1256902176
I0403 15:56:18.115022 14867 layer_factory.hpp:77] Creating layer inception_4e/output
I0403 15:56:18.115041 14867 net.cpp:91] Creating Layer inception_4e/output
I0403 15:56:18.115067 14867 net.cpp:425] inception_4e/output <- inception_4e/1x1
I0403 15:56:18.115092 14867 net.cpp:425] inception_4e/output <- inception_4e/3x3
I0403 15:56:18.115123 14867 net.cpp:425] inception_4e/output <- inception_4e/5x5
I0403 15:56:18.115145 14867 net.cpp:425] inception_4e/output <- inception_4e/pool_proj
I0403 15:56:18.115167 14867 net.cpp:399] inception_4e/output -> inception_4e/output
I0403 15:56:18.115224 14867 net.cpp:141] Setting up inception_4e/output
I0403 15:56:18.115250 14867 net.cpp:148] Top shape: 24 832 14 14 (3913728)
I0403 15:56:18.115265 14867 net.cpp:156] Memory required for data: 1272557088
I0403 15:56:18.115281 14867 layer_factory.hpp:77] Creating layer pool4/3x3_s2
I0403 15:56:18.115299 14867 net.cpp:91] Creating Layer pool4/3x3_s2
I0403 15:56:18.115315 14867 net.cpp:425] pool4/3x3_s2 <- inception_4e/output
I0403 15:56:18.115339 14867 net.cpp:399] pool4/3x3_s2 -> pool4/3x3_s2
I0403 15:56:18.115412 14867 net.cpp:141] Setting up pool4/3x3_s2
I0403 15:56:18.115452 14867 net.cpp:148] Top shape: 24 832 7 7 (978432)
I0403 15:56:18.115468 14867 net.cpp:156] Memory required for data: 1276470816
I0403 15:56:18.115483 14867 layer_factory.hpp:77] Creating layer pool4/3x3_s2_pool4/3x3_s2_0_split
I0403 15:56:18.115521 14867 net.cpp:91] Creating Layer pool4/3x3_s2_pool4/3x3_s2_0_split
I0403 15:56:18.115543 14867 net.cpp:425] pool4/3x3_s2_pool4/3x3_s2_0_split <- pool4/3x3_s2
I0403 15:56:18.115561 14867 net.cpp:399] pool4/3x3_s2_pool4/3x3_s2_0_split -> pool4/3x3_s2_pool4/3x3_s2_0_split_0
I0403 15:56:18.115586 14867 net.cpp:399] pool4/3x3_s2_pool4/3x3_s2_0_split -> pool4/3x3_s2_pool4/3x3_s2_0_split_1
I0403 15:56:18.115608 14867 net.cpp:399] pool4/3x3_s2_pool4/3x3_s2_0_split -> pool4/3x3_s2_pool4/3x3_s2_0_split_2
I0403 15:56:18.115630 14867 net.cpp:399] pool4/3x3_s2_pool4/3x3_s2_0_split -> pool4/3x3_s2_pool4/3x3_s2_0_split_3
I0403 15:56:18.115726 14867 net.cpp:141] Setting up pool4/3x3_s2_pool4/3x3_s2_0_split
I0403 15:56:18.115756 14867 net.cpp:148] Top shape: 24 832 7 7 (978432)
I0403 15:56:18.115772 14867 net.cpp:148] Top shape: 24 832 7 7 (978432)
I0403 15:56:18.115789 14867 net.cpp:148] Top shape: 24 832 7 7 (978432)
I0403 15:56:18.115804 14867 net.cpp:148] Top shape: 24 832 7 7 (978432)
I0403 15:56:18.115818 14867 net.cpp:156] Memory required for data: 1292125728
I0403 15:56:18.115834 14867 layer_factory.hpp:77] Creating layer inception_5a/1x1
I0403 15:56:18.115857 14867 net.cpp:91] Creating Layer inception_5a/1x1
I0403 15:56:18.115875 14867 net.cpp:425] inception_5a/1x1 <- pool4/3x3_s2_pool4/3x3_s2_0_split_0
I0403 15:56:18.115898 14867 net.cpp:399] inception_5a/1x1 -> inception_5a/1x1
I0403 15:56:18.119034 14867 net.cpp:141] Setting up inception_5a/1x1
I0403 15:56:18.119065 14867 net.cpp:148] Top shape: 24 256 7 7 (301056)
I0403 15:56:18.119086 14867 net.cpp:156] Memory required for data: 1293329952
I0403 15:56:18.119112 14867 layer_factory.hpp:77] Creating layer inception_5a/relu_1x1
I0403 15:56:18.119132 14867 net.cpp:91] Creating Layer inception_5a/relu_1x1
I0403 15:56:18.119149 14867 net.cpp:425] inception_5a/relu_1x1 <- inception_5a/1x1
I0403 15:56:18.119169 14867 net.cpp:386] inception_5a/relu_1x1 -> inception_5a/1x1 (in-place)
I0403 15:56:18.119508 14867 net.cpp:141] Setting up inception_5a/relu_1x1
I0403 15:56:18.119535 14867 net.cpp:148] Top shape: 24 256 7 7 (301056)
I0403 15:56:18.119555 14867 net.cpp:156] Memory required for data: 1294534176
I0403 15:56:18.119571 14867 layer_factory.hpp:77] Creating layer inception_5a/3x3_reduce
I0403 15:56:18.119593 14867 net.cpp:91] Creating Layer inception_5a/3x3_reduce
I0403 15:56:18.119611 14867 net.cpp:425] inception_5a/3x3_reduce <- pool4/3x3_s2_pool4/3x3_s2_0_split_1
I0403 15:56:18.119632 14867 net.cpp:399] inception_5a/3x3_reduce -> inception_5a/3x3_reduce
I0403 15:56:18.122305 14867 net.cpp:141] Setting up inception_5a/3x3_reduce
I0403 15:56:18.122337 14867 net.cpp:148] Top shape: 24 160 7 7 (188160)
I0403 15:56:18.122354 14867 net.cpp:156] Memory required for data: 1295286816
I0403 15:56:18.122372 14867 layer_factory.hpp:77] Creating layer inception_5a/relu_3x3_reduce
I0403 15:56:18.122391 14867 net.cpp:91] Creating Layer inception_5a/relu_3x3_reduce
I0403 15:56:18.122409 14867 net.cpp:425] inception_5a/relu_3x3_reduce <- inception_5a/3x3_reduce
I0403 15:56:18.122431 14867 net.cpp:386] inception_5a/relu_3x3_reduce -> inception_5a/3x3_reduce (in-place)
I0403 15:56:18.122632 14867 net.cpp:141] Setting up inception_5a/relu_3x3_reduce
I0403 15:56:18.122658 14867 net.cpp:148] Top shape: 24 160 7 7 (188160)
I0403 15:56:18.122673 14867 net.cpp:156] Memory required for data: 1296039456
I0403 15:56:18.122689 14867 layer_factory.hpp:77] Creating layer inception_5a/3x3
I0403 15:56:18.122712 14867 net.cpp:91] Creating Layer inception_5a/3x3
I0403 15:56:18.122731 14867 net.cpp:425] inception_5a/3x3 <- inception_5a/3x3_reduce
I0403 15:56:18.122755 14867 net.cpp:399] inception_5a/3x3 -> inception_5a/3x3
I0403 15:56:18.128223 14867 net.cpp:141] Setting up inception_5a/3x3
I0403 15:56:18.128258 14867 net.cpp:148] Top shape: 24 320 7 7 (376320)
I0403 15:56:18.128278 14867 net.cpp:156] Memory required for data: 1297544736
I0403 15:56:18.128301 14867 layer_factory.hpp:77] Creating layer inception_5a/relu_3x3
I0403 15:56:18.128324 14867 net.cpp:91] Creating Layer inception_5a/relu_3x3
I0403 15:56:18.128341 14867 net.cpp:425] inception_5a/relu_3x3 <- inception_5a/3x3
I0403 15:56:18.128360 14867 net.cpp:386] inception_5a/relu_3x3 -> inception_5a/3x3 (in-place)
I0403 15:56:18.128674 14867 net.cpp:141] Setting up inception_5a/relu_3x3
I0403 15:56:18.128703 14867 net.cpp:148] Top shape: 24 320 7 7 (376320)
I0403 15:56:18.128723 14867 net.cpp:156] Memory required for data: 1299050016
I0403 15:56:18.128739 14867 layer_factory.hpp:77] Creating layer inception_5a/5x5_reduce
I0403 15:56:18.128765 14867 net.cpp:91] Creating Layer inception_5a/5x5_reduce
I0403 15:56:18.128789 14867 net.cpp:425] inception_5a/5x5_reduce <- pool4/3x3_s2_pool4/3x3_s2_0_split_2
I0403 15:56:18.128810 14867 net.cpp:399] inception_5a/5x5_reduce -> inception_5a/5x5_reduce
I0403 15:56:18.130121 14867 net.cpp:141] Setting up inception_5a/5x5_reduce
I0403 15:56:18.130158 14867 net.cpp:148] Top shape: 24 32 7 7 (37632)
I0403 15:56:18.130179 14867 net.cpp:156] Memory required for data: 1299200544
I0403 15:56:18.130200 14867 layer_factory.hpp:77] Creating layer inception_5a/relu_5x5_reduce
I0403 15:56:18.130220 14867 net.cpp:91] Creating Layer inception_5a/relu_5x5_reduce
I0403 15:56:18.130237 14867 net.cpp:425] inception_5a/relu_5x5_reduce <- inception_5a/5x5_reduce
I0403 15:56:18.130255 14867 net.cpp:386] inception_5a/relu_5x5_reduce -> inception_5a/5x5_reduce (in-place)
I0403 15:56:18.130575 14867 net.cpp:141] Setting up inception_5a/relu_5x5_reduce
I0403 15:56:18.130611 14867 net.cpp:148] Top shape: 24 32 7 7 (37632)
I0403 15:56:18.130632 14867 net.cpp:156] Memory required for data: 1299351072
I0403 15:56:18.130650 14867 layer_factory.hpp:77] Creating layer inception_5a/5x5
I0403 15:56:18.130672 14867 net.cpp:91] Creating Layer inception_5a/5x5
I0403 15:56:18.130692 14867 net.cpp:425] inception_5a/5x5 <- inception_5a/5x5_reduce
I0403 15:56:18.130729 14867 net.cpp:399] inception_5a/5x5 -> inception_5a/5x5
I0403 15:56:18.132647 14867 net.cpp:141] Setting up inception_5a/5x5
I0403 15:56:18.132690 14867 net.cpp:148] Top shape: 24 128 7 7 (150528)
I0403 15:56:18.132710 14867 net.cpp:156] Memory required for data: 1299953184
I0403 15:56:18.132730 14867 layer_factory.hpp:77] Creating layer inception_5a/relu_5x5
I0403 15:56:18.132752 14867 net.cpp:91] Creating Layer inception_5a/relu_5x5
I0403 15:56:18.132772 14867 net.cpp:425] inception_5a/relu_5x5 <- inception_5a/5x5
I0403 15:56:18.132791 14867 net.cpp:386] inception_5a/relu_5x5 -> inception_5a/5x5 (in-place)
I0403 15:56:18.132994 14867 net.cpp:141] Setting up inception_5a/relu_5x5
I0403 15:56:18.133024 14867 net.cpp:148] Top shape: 24 128 7 7 (150528)
I0403 15:56:18.133043 14867 net.cpp:156] Memory required for data: 1300555296
I0403 15:56:18.133059 14867 layer_factory.hpp:77] Creating layer inception_5a/pool
I0403 15:56:18.133077 14867 net.cpp:91] Creating Layer inception_5a/pool
I0403 15:56:18.133100 14867 net.cpp:425] inception_5a/pool <- pool4/3x3_s2_pool4/3x3_s2_0_split_3
I0403 15:56:18.133121 14867 net.cpp:399] inception_5a/pool -> inception_5a/pool
I0403 15:56:18.133196 14867 net.cpp:141] Setting up inception_5a/pool
I0403 15:56:18.133226 14867 net.cpp:148] Top shape: 24 832 7 7 (978432)
I0403 15:56:18.133245 14867 net.cpp:156] Memory required for data: 1304469024
I0403 15:56:18.133265 14867 layer_factory.hpp:77] Creating layer inception_5a/pool_proj
I0403 15:56:18.133292 14867 net.cpp:91] Creating Layer inception_5a/pool_proj
I0403 15:56:18.133321 14867 net.cpp:425] inception_5a/pool_proj <- inception_5a/pool
I0403 15:56:18.133344 14867 net.cpp:399] inception_5a/pool_proj -> inception_5a/pool_proj
I0403 15:56:18.135895 14867 net.cpp:141] Setting up inception_5a/pool_proj
I0403 15:56:18.135941 14867 net.cpp:148] Top shape: 24 128 7 7 (150528)
I0403 15:56:18.135959 14867 net.cpp:156] Memory required for data: 1305071136
I0403 15:56:18.135979 14867 layer_factory.hpp:77] Creating layer inception_5a/relu_pool_proj
I0403 15:56:18.136001 14867 net.cpp:91] Creating Layer inception_5a/relu_pool_proj
I0403 15:56:18.136021 14867 net.cpp:425] inception_5a/relu_pool_proj <- inception_5a/pool_proj
I0403 15:56:18.136040 14867 net.cpp:386] inception_5a/relu_pool_proj -> inception_5a/pool_proj (in-place)
I0403 15:56:18.136364 14867 net.cpp:141] Setting up inception_5a/relu_pool_proj
I0403 15:56:18.136395 14867 net.cpp:148] Top shape: 24 128 7 7 (150528)
I0403 15:56:18.136411 14867 net.cpp:156] Memory required for data: 1305673248
I0403 15:56:18.136427 14867 layer_factory.hpp:77] Creating layer inception_5a/output
I0403 15:56:18.136451 14867 net.cpp:91] Creating Layer inception_5a/output
I0403 15:56:18.136473 14867 net.cpp:425] inception_5a/output <- inception_5a/1x1
I0403 15:56:18.136497 14867 net.cpp:425] inception_5a/output <- inception_5a/3x3
I0403 15:56:18.136519 14867 net.cpp:425] inception_5a/output <- inception_5a/5x5
I0403 15:56:18.136541 14867 net.cpp:425] inception_5a/output <- inception_5a/pool_proj
I0403 15:56:18.136561 14867 net.cpp:399] inception_5a/output -> inception_5a/output
I0403 15:56:18.136616 14867 net.cpp:141] Setting up inception_5a/output
I0403 15:56:18.136642 14867 net.cpp:148] Top shape: 24 832 7 7 (978432)
I0403 15:56:18.136658 14867 net.cpp:156] Memory required for data: 1309586976
I0403 15:56:18.136673 14867 layer_factory.hpp:77] Creating layer inception_5a/output_inception_5a/output_0_split
I0403 15:56:18.136692 14867 net.cpp:91] Creating Layer inception_5a/output_inception_5a/output_0_split
I0403 15:56:18.136708 14867 net.cpp:425] inception_5a/output_inception_5a/output_0_split <- inception_5a/output
I0403 15:56:18.136736 14867 net.cpp:399] inception_5a/output_inception_5a/output_0_split -> inception_5a/output_inception_5a/output_0_split_0
I0403 15:56:18.136760 14867 net.cpp:399] inception_5a/output_inception_5a/output_0_split -> inception_5a/output_inception_5a/output_0_split_1
I0403 15:56:18.136786 14867 net.cpp:399] inception_5a/output_inception_5a/output_0_split -> inception_5a/output_inception_5a/output_0_split_2
I0403 15:56:18.136811 14867 net.cpp:399] inception_5a/output_inception_5a/output_0_split -> inception_5a/output_inception_5a/output_0_split_3
I0403 15:56:18.136955 14867 net.cpp:141] Setting up inception_5a/output_inception_5a/output_0_split
I0403 15:56:18.136996 14867 net.cpp:148] Top shape: 24 832 7 7 (978432)
I0403 15:56:18.137018 14867 net.cpp:148] Top shape: 24 832 7 7 (978432)
I0403 15:56:18.137035 14867 net.cpp:148] Top shape: 24 832 7 7 (978432)
I0403 15:56:18.137064 14867 net.cpp:148] Top shape: 24 832 7 7 (978432)
I0403 15:56:18.137079 14867 net.cpp:156] Memory required for data: 1325241888
I0403 15:56:18.137099 14867 layer_factory.hpp:77] Creating layer inception_5b/1x1
I0403 15:56:18.137125 14867 net.cpp:91] Creating Layer inception_5b/1x1
I0403 15:56:18.137145 14867 net.cpp:425] inception_5b/1x1 <- inception_5a/output_inception_5a/output_0_split_0
I0403 15:56:18.137167 14867 net.cpp:399] inception_5b/1x1 -> inception_5b/1x1
I0403 15:56:18.141254 14867 net.cpp:141] Setting up inception_5b/1x1
I0403 15:56:18.141289 14867 net.cpp:148] Top shape: 24 384 7 7 (451584)
I0403 15:56:18.141306 14867 net.cpp:156] Memory required for data: 1327048224
I0403 15:56:18.141326 14867 layer_factory.hpp:77] Creating layer inception_5b/relu_1x1
I0403 15:56:18.141347 14867 net.cpp:91] Creating Layer inception_5b/relu_1x1
I0403 15:56:18.141368 14867 net.cpp:425] inception_5b/relu_1x1 <- inception_5b/1x1
I0403 15:56:18.141391 14867 net.cpp:386] inception_5b/relu_1x1 -> inception_5b/1x1 (in-place)
I0403 15:56:18.141719 14867 net.cpp:141] Setting up inception_5b/relu_1x1
I0403 15:56:18.141749 14867 net.cpp:148] Top shape: 24 384 7 7 (451584)
I0403 15:56:18.141767 14867 net.cpp:156] Memory required for data: 1328854560
I0403 15:56:18.141783 14867 layer_factory.hpp:77] Creating layer inception_5b/3x3_reduce
I0403 15:56:18.141806 14867 net.cpp:91] Creating Layer inception_5b/3x3_reduce
I0403 15:56:18.141827 14867 net.cpp:425] inception_5b/3x3_reduce <- inception_5a/output_inception_5a/output_0_split_1
I0403 15:56:18.141855 14867 net.cpp:399] inception_5b/3x3_reduce -> inception_5b/3x3_reduce
I0403 15:56:18.144748 14867 net.cpp:141] Setting up inception_5b/3x3_reduce
I0403 15:56:18.144788 14867 net.cpp:148] Top shape: 24 192 7 7 (225792)
I0403 15:56:18.144809 14867 net.cpp:156] Memory required for data: 1329757728
I0403 15:56:18.144829 14867 layer_factory.hpp:77] Creating layer inception_5b/relu_3x3_reduce
I0403 15:56:18.144850 14867 net.cpp:91] Creating Layer inception_5b/relu_3x3_reduce
I0403 15:56:18.144868 14867 net.cpp:425] inception_5b/relu_3x3_reduce <- inception_5b/3x3_reduce
I0403 15:56:18.144887 14867 net.cpp:386] inception_5b/relu_3x3_reduce -> inception_5b/3x3_reduce (in-place)
I0403 15:56:18.145110 14867 net.cpp:141] Setting up inception_5b/relu_3x3_reduce
I0403 15:56:18.145138 14867 net.cpp:148] Top shape: 24 192 7 7 (225792)
I0403 15:56:18.145164 14867 net.cpp:156] Memory required for data: 1330660896
I0403 15:56:18.145190 14867 layer_factory.hpp:77] Creating layer inception_5b/3x3
I0403 15:56:18.145216 14867 net.cpp:91] Creating Layer inception_5b/3x3
I0403 15:56:18.145236 14867 net.cpp:425] inception_5b/3x3 <- inception_5b/3x3_reduce
I0403 15:56:18.145256 14867 net.cpp:399] inception_5b/3x3 -> inception_5b/3x3
I0403 15:56:18.152510 14867 net.cpp:141] Setting up inception_5b/3x3
I0403 15:56:18.152542 14867 net.cpp:148] Top shape: 24 384 7 7 (451584)
I0403 15:56:18.152559 14867 net.cpp:156] Memory required for data: 1332467232
I0403 15:56:18.152578 14867 layer_factory.hpp:77] Creating layer inception_5b/relu_3x3
I0403 15:56:18.152601 14867 net.cpp:91] Creating Layer inception_5b/relu_3x3
I0403 15:56:18.152621 14867 net.cpp:425] inception_5b/relu_3x3 <- inception_5b/3x3
I0403 15:56:18.152640 14867 net.cpp:386] inception_5b/relu_3x3 -> inception_5b/3x3 (in-place)
I0403 15:56:18.152968 14867 net.cpp:141] Setting up inception_5b/relu_3x3
I0403 15:56:18.152998 14867 net.cpp:148] Top shape: 24 384 7 7 (451584)
I0403 15:56:18.153014 14867 net.cpp:156] Memory required for data: 1334273568
I0403 15:56:18.153030 14867 layer_factory.hpp:77] Creating layer inception_5b/5x5_reduce
I0403 15:56:18.153074 14867 net.cpp:91] Creating Layer inception_5b/5x5_reduce
I0403 15:56:18.153111 14867 net.cpp:425] inception_5b/5x5_reduce <- inception_5a/output_inception_5a/output_0_split_2
I0403 15:56:18.153142 14867 net.cpp:399] inception_5b/5x5_reduce -> inception_5b/5x5_reduce
I0403 15:56:18.154579 14867 net.cpp:141] Setting up inception_5b/5x5_reduce
I0403 15:56:18.154611 14867 net.cpp:148] Top shape: 24 48 7 7 (56448)
I0403 15:56:18.154629 14867 net.cpp:156] Memory required for data: 1334499360
I0403 15:56:18.154649 14867 layer_factory.hpp:77] Creating layer inception_5b/relu_5x5_reduce
I0403 15:56:18.154670 14867 net.cpp:91] Creating Layer inception_5b/relu_5x5_reduce
I0403 15:56:18.154692 14867 net.cpp:425] inception_5b/relu_5x5_reduce <- inception_5b/5x5_reduce
I0403 15:56:18.154712 14867 net.cpp:386] inception_5b/relu_5x5_reduce -> inception_5b/5x5_reduce (in-place)
I0403 15:56:18.155122 14867 net.cpp:141] Setting up inception_5b/relu_5x5_reduce
I0403 15:56:18.155151 14867 net.cpp:148] Top shape: 24 48 7 7 (56448)
I0403 15:56:18.155170 14867 net.cpp:156] Memory required for data: 1334725152
I0403 15:56:18.155189 14867 layer_factory.hpp:77] Creating layer inception_5b/5x5
I0403 15:56:18.155211 14867 net.cpp:91] Creating Layer inception_5b/5x5
I0403 15:56:18.155230 14867 net.cpp:425] inception_5b/5x5 <- inception_5b/5x5_reduce
I0403 15:56:18.155261 14867 net.cpp:399] inception_5b/5x5 -> inception_5b/5x5
I0403 15:56:18.157557 14867 net.cpp:141] Setting up inception_5b/5x5
I0403 15:56:18.157591 14867 net.cpp:148] Top shape: 24 128 7 7 (150528)
I0403 15:56:18.157613 14867 net.cpp:156] Memory required for data: 1335327264
I0403 15:56:18.157634 14867 layer_factory.hpp:77] Creating layer inception_5b/relu_5x5
I0403 15:56:18.157654 14867 net.cpp:91] Creating Layer inception_5b/relu_5x5
I0403 15:56:18.157670 14867 net.cpp:425] inception_5b/relu_5x5 <- inception_5b/5x5
I0403 15:56:18.157691 14867 net.cpp:386] inception_5b/relu_5x5 -> inception_5b/5x5 (in-place)
I0403 15:56:18.157909 14867 net.cpp:141] Setting up inception_5b/relu_5x5
I0403 15:56:18.157939 14867 net.cpp:148] Top shape: 24 128 7 7 (150528)
I0403 15:56:18.157958 14867 net.cpp:156] Memory required for data: 1335929376
I0403 15:56:18.157976 14867 layer_factory.hpp:77] Creating layer inception_5b/pool
I0403 15:56:18.157994 14867 net.cpp:91] Creating Layer inception_5b/pool
I0403 15:56:18.158010 14867 net.cpp:425] inception_5b/pool <- inception_5a/output_inception_5a/output_0_split_3
I0403 15:56:18.158032 14867 net.cpp:399] inception_5b/pool -> inception_5b/pool
I0403 15:56:18.158118 14867 net.cpp:141] Setting up inception_5b/pool
I0403 15:56:18.158148 14867 net.cpp:148] Top shape: 24 832 7 7 (978432)
I0403 15:56:18.158167 14867 net.cpp:156] Memory required for data: 1339843104
I0403 15:56:18.158184 14867 layer_factory.hpp:77] Creating layer inception_5b/pool_proj
I0403 15:56:18.158205 14867 net.cpp:91] Creating Layer inception_5b/pool_proj
I0403 15:56:18.158224 14867 net.cpp:425] inception_5b/pool_proj <- inception_5b/pool
I0403 15:56:18.158246 14867 net.cpp:399] inception_5b/pool_proj -> inception_5b/pool_proj
I0403 15:56:18.160814 14867 net.cpp:141] Setting up inception_5b/pool_proj
I0403 15:56:18.160845 14867 net.cpp:148] Top shape: 24 128 7 7 (150528)
I0403 15:56:18.160862 14867 net.cpp:156] Memory required for data: 1340445216
I0403 15:56:18.160881 14867 layer_factory.hpp:77] Creating layer inception_5b/relu_pool_proj
I0403 15:56:18.160903 14867 net.cpp:91] Creating Layer inception_5b/relu_pool_proj
I0403 15:56:18.160923 14867 net.cpp:425] inception_5b/relu_pool_proj <- inception_5b/pool_proj
I0403 15:56:18.160943 14867 net.cpp:386] inception_5b/relu_pool_proj -> inception_5b/pool_proj (in-place)
I0403 15:56:18.161265 14867 net.cpp:141] Setting up inception_5b/relu_pool_proj
I0403 15:56:18.161301 14867 net.cpp:148] Top shape: 24 128 7 7 (150528)
I0403 15:56:18.161319 14867 net.cpp:156] Memory required for data: 1341047328
I0403 15:56:18.161335 14867 layer_factory.hpp:77] Creating layer inception_5b/output
I0403 15:56:18.161356 14867 net.cpp:91] Creating Layer inception_5b/output
I0403 15:56:18.161391 14867 net.cpp:425] inception_5b/output <- inception_5b/1x1
I0403 15:56:18.161409 14867 net.cpp:425] inception_5b/output <- inception_5b/3x3
I0403 15:56:18.161427 14867 net.cpp:425] inception_5b/output <- inception_5b/5x5
I0403 15:56:18.161443 14867 net.cpp:425] inception_5b/output <- inception_5b/pool_proj
I0403 15:56:18.161463 14867 net.cpp:399] inception_5b/output -> inception_5b/output
I0403 15:56:18.161520 14867 net.cpp:141] Setting up inception_5b/output
I0403 15:56:18.161546 14867 net.cpp:148] Top shape: 24 1024 7 7 (1204224)
I0403 15:56:18.161562 14867 net.cpp:156] Memory required for data: 1345864224
I0403 15:56:18.161583 14867 layer_factory.hpp:77] Creating layer pool5/7x7_s1
I0403 15:56:18.161604 14867 net.cpp:91] Creating Layer pool5/7x7_s1
I0403 15:56:18.161622 14867 net.cpp:425] pool5/7x7_s1 <- inception_5b/output
I0403 15:56:18.161645 14867 net.cpp:399] pool5/7x7_s1 -> pool5/7x7_s1
I0403 15:56:18.161916 14867 net.cpp:141] Setting up pool5/7x7_s1
I0403 15:56:18.161945 14867 net.cpp:148] Top shape: 24 1024 1 1 (24576)
I0403 15:56:18.161962 14867 net.cpp:156] Memory required for data: 1345962528
I0403 15:56:18.161978 14867 layer_factory.hpp:77] Creating layer pool5/drop_7x7_s1
I0403 15:56:18.161998 14867 net.cpp:91] Creating Layer pool5/drop_7x7_s1
I0403 15:56:18.162015 14867 net.cpp:425] pool5/drop_7x7_s1 <- pool5/7x7_s1
I0403 15:56:18.162032 14867 net.cpp:386] pool5/drop_7x7_s1 -> pool5/7x7_s1 (in-place)
I0403 15:56:18.162122 14867 net.cpp:141] Setting up pool5/drop_7x7_s1
I0403 15:56:18.162153 14867 net.cpp:148] Top shape: 24 1024 1 1 (24576)
I0403 15:56:18.162169 14867 net.cpp:156] Memory required for data: 1346060832
I0403 15:56:18.162185 14867 layer_factory.hpp:77] Creating layer loss3/classifier_plantvillage
I0403 15:56:18.162205 14867 net.cpp:91] Creating Layer loss3/classifier_plantvillage
I0403 15:56:18.162221 14867 net.cpp:425] loss3/classifier_plantvillage <- pool5/7x7_s1
I0403 15:56:18.162242 14867 net.cpp:399] loss3/classifier_plantvillage -> loss3/classifier_plantvillage
I0403 15:56:18.162703 14867 net.cpp:141] Setting up loss3/classifier_plantvillage
I0403 15:56:18.162729 14867 net.cpp:148] Top shape: 24 38 (912)
I0403 15:56:18.162744 14867 net.cpp:156] Memory required for data: 1346064480
I0403 15:56:18.162763 14867 layer_factory.hpp:77] Creating layer loss3/classifier_plantvillage_loss3/classifier_plantvillage_0_split
I0403 15:56:18.162782 14867 net.cpp:91] Creating Layer loss3/classifier_plantvillage_loss3/classifier_plantvillage_0_split
I0403 15:56:18.162803 14867 net.cpp:425] loss3/classifier_plantvillage_loss3/classifier_plantvillage_0_split <- loss3/classifier_plantvillage
I0403 15:56:18.162827 14867 net.cpp:399] loss3/classifier_plantvillage_loss3/classifier_plantvillage_0_split -> loss3/classifier_plantvillage_loss3/classifier_plantvillage_0_split_0
I0403 15:56:18.162850 14867 net.cpp:399] loss3/classifier_plantvillage_loss3/classifier_plantvillage_0_split -> loss3/classifier_plantvillage_loss3/classifier_plantvillage_0_split_1
I0403 15:56:18.162873 14867 net.cpp:399] loss3/classifier_plantvillage_loss3/classifier_plantvillage_0_split -> loss3/classifier_plantvillage_loss3/classifier_plantvillage_0_split_2
I0403 15:56:18.162894 14867 net.cpp:399] loss3/classifier_plantvillage_loss3/classifier_plantvillage_0_split -> loss3/classifier_plantvillage_loss3/classifier_plantvillage_0_split_3
I0403 15:56:18.163012 14867 net.cpp:141] Setting up loss3/classifier_plantvillage_loss3/classifier_plantvillage_0_split
I0403 15:56:18.163038 14867 net.cpp:148] Top shape: 24 38 (912)
I0403 15:56:18.163054 14867 net.cpp:148] Top shape: 24 38 (912)
I0403 15:56:18.163071 14867 net.cpp:148] Top shape: 24 38 (912)
I0403 15:56:18.163086 14867 net.cpp:148] Top shape: 24 38 (912)
I0403 15:56:18.163113 14867 net.cpp:156] Memory required for data: 1346079072
I0403 15:56:18.163131 14867 layer_factory.hpp:77] Creating layer loss1/loss
I0403 15:56:18.163154 14867 net.cpp:91] Creating Layer loss1/loss
I0403 15:56:18.163173 14867 net.cpp:425] loss1/loss <- loss1/classifier_plantvillage_loss1/classifier_plantvillage_0_split_0
I0403 15:56:18.163209 14867 net.cpp:425] loss1/loss <- label_data_1_split_0
…
