…
I0403 15:38:35.250226 13846 net.cpp:313] The NetState phase (1) differed from the phase (0) specified by a rule in layer data
I0403 15:38:35.251384 13846 net.cpp:49] Initializing net from parameters: 
state {
  phase: TEST
}
layer {
  name: "data"
  type: "Data"
  top: "data"
  top: "label"
  include {
    phase: TEST
  }
  transform_param {
    mirror: false
    crop_size: 224
    mean_file: "/home/mohanty/data/final_dataset/lmdb/color-80-20/mean.binaryproto"
  }
  data_param {
    source: "/home/mohanty/data/final_dataset/lmdb/color-80-20/test_db"
    batch_size: 24
    backend: LMDB
  }
}
layer {
  name: "conv1/7x7_s2"
  type: "Convolution"
  bottom: "data"
  top: "conv1/7x7_s2"
  param {
    lr_mult: 1
    decay_mult: 1
  }
  param {
    lr_mult: 2
    decay_mult: 0
  }
  convolution_param {
    num_output: 64
    pad: 3
    kernel_size: 7
    stride: 2
    weight_filler {
      type: "xavier"
      std: 0.1
    }
    bias_filler {
      type: "constant"
      value: 0.2
    }
  }
}
layer {
  name: "conv1/relu_7x7"
  type: "ReLU"
  bottom: "conv1/7x7_s2"
  top: "conv1/7x7_s2"
}
layer {
  name: "pool1/3x3_s2"
  type: "Pooling"
  bottom: "conv1/7x7_s2"
  top: "pool1/3x3_s2"
  pooling_param {
    pool: MAX
    kernel_size: 3
    stride: 2
  }
}
layer {
  name: "pool1/norm1"
  type: "LRN"
  bottom: "pool1/3x3_s2"
  top: "pool1/norm1"
  lrn_param {
    local_size: 5
    alpha: 0.0001
    beta: 0.75
  }
}
layer {
  name: "conv2/3x3_reduce"
  type: "Convolution"
  bottom: "pool1/norm1"
  top: "conv2/3x3_reduce"
  param {
    lr_mult: 1
    decay_mult: 1
  }
  param {
    lr_mult: 2
    decay_mult: 0
  }
  convolution_param {
    num_output: 64
    kernel_size: 1
    weight_filler {
      type: "xavier"
      std: 0.1
    }
    bias_filler {
      type: "constant"
      value: 0.2
    }
  }
}
layer {
  name: "conv2/relu_3x3_reduce"
  type: "ReLU"
  bottom: "conv2/3x3_reduce"
  top: "conv2/3x3_reduce"
}
layer {
  name: "conv2/3x3"
  type: "Convolution"
  bottom: "conv2/3x3_reduce"
  top: "conv2/3x3"
  param {
    lr_mult: 1
    decay_mult: 1
  }
  param {
    lr_mult: 2
    decay_mult: 0
  }
  convolution_param {
    num_output: 192
    pad: 1
    kernel_size: 3
    weight_filler {
      type: "xavier"
      std: 0.03
    }
    bias_filler {
      type: "constant"
      value: 0.2
    }
  }
}
layer {
  name: "conv2/relu_3x3"
  type: "ReLU"
  bottom: "conv2/3x3"
  top: "conv2/3x3"
}
layer {
  name: "conv2/norm2"
  type: "LRN"
  bottom: "conv2/3x3"
  top: "conv2/norm2"
  lrn_param {
    local_size: 5
    alpha: 0.0001
    beta: 0.75
  }
}
layer {
  name: "pool2/3x3_s2"
  type: "Pooling"
  bottom: "conv2/norm2"
  top: "pool2/3x3_s2"
  pooling_param {
    pool: MAX
    kernel_size: 3
    stride: 2
  }
}
layer {
  name: "inception_3a/1x1"
  type: "Convolution"
  bottom: "pool2/3x3_s2"
  top: "inception_3a/1x1"
  param {
    lr_mult: 1
    decay_mult: 1
  }
  param {
    lr_mult: 2
    decay_mult: 0
  }
  convolution_param {
    num_output: 64
    kernel_size: 1
    weight_filler {
      type: "xavier"
      std: 0.03
    }
    bias_filler {
      type: "constant"
      value: 0.2
    }
  }
}
layer {
  name: "inception_3a/relu_1x1"
  type: "ReLU"
  bottom: "inception_3a/1x1"
  top: "inception_3a/1x1"
}
layer {
  name: "inception_3a/3x3_reduce"
  type: "Convolution"
  bottom: "pool2/3x3_s2"
  top: "inception_3a/3x3_reduce"
  param {
    lr_mult: 1
    decay_mult: 1
  }
  param {
    lr_mult: 2
    decay_mult: 0
  }
  convolution_param {
    num_output: 96
    kernel_size: 1
    weight_filler {
      type: "xavier"
      std: 0.09
    }
    bias_filler {
      type: "constant"
      value: 0.2
    }
  }
}
layer {
  name: "inception_3a/relu_3x3_reduce"
  type: "ReLU"
  bottom: "inception_3a/3x3_reduce"
  top: "inception_3a/3x3_reduce"
}
layer {
  name: "inception_3a/3x3"
  type: "Convolution"
  bottom: "inception_3a/3x3_reduce"
  top: "inception_3a/3x3"
  param {
    lr_mult: 1
    decay_mult: 1
  }
  param {
    lr_mult: 2
    decay_mult: 0
  }
  convolution_param {
    num_output: 128
    pad: 1
    kernel_size: 3
    weight_filler {
      type: "xavier"
      std: 0.03
    }
    bias_filler {
      type: "constant"
      value: 0.2
    }
  }
}
layer {
  name: "inception_3a/relu_3x3"
  type: "ReLU"
  bottom: "inception_3a/3x3"
  top: "inception_3a/3x3"
}
layer {
  name: "inception_3a/5x5_reduce"
  type: "Convolution"
  bottom: "pool2/3x3_s2"
  top: "inception_3a/5x5_reduce"
  param {
    lr_mult: 1
    decay_mult: 1
  }
  param {
    lr_mult: 2
    decay_mult: 0
  }
  convolution_param {
    num_output: 16
    kernel_size: 1
    weight_filler {
      type: "xavier"
      std: 0.2
    }
    bias_filler {
      type: "constant"
      value: 0.2
    }
  }
}
layer {
  name: "inception_3a/relu_5x5_reduce"
  type: "ReLU"
  bottom: "inception_3a/5x5_reduce"
  top: "inception_3a/5x5_reduce"
}
layer {
  name: "inception_3a/5x5"
  type: "Convolution"
  bottom: "inception_3a/5x5_reduce"
  top: "inception_3a/5x5"
  param {
    lr_mult: 1
    decay_mult: 1
  }
  param {
    lr_mult: 2
    decay_mult: 0
  }
  convolution_param {
    num_output: 32
    pad: 2
    kernel_size: 5
    weight_filler {
      type: "xavier"
      std: 0.03
    }
    bias_filler {
      type: "constant"
      value: 0.2
    }
  }
}
layer {
  name: "inception_3a/relu_5x5"
  type: "ReLU"
  bottom: "inception_3a/5x5"
  top: "inception_3a/5x5"
}
layer {
  name: "inception_3a/pool"
  type: "Pooling"
  bottom: "pool2/3x3_s2"
  top: "inception_3a/pool"
  pooling_param {
    pool: MAX
    kernel_size: 3
    stride: 1
    pad: 1
  }
}
layer {
  name: "inception_3a/pool_proj"
  type: "Convolution"
  bottom: "inception_3a/pool"
  top: "inception_3a/pool_proj"
  param {
    lr_mult: 1
    decay_mult: 1
  }
  param {
    lr_mult: 2
    decay_mult: 0
  }
  convolution_param {
    num_output: 32
    kernel_size: 1
    weight_filler {
      type: "xavier"
      std: 0.1
    }
    bias_filler {
      type: "constant"
      value: 0.2
    }
  }
}
layer {
  name: "inception_3a/relu_pool_proj"
  type: "ReLU"
  bottom: "inception_3a/pool_proj"
  top: "inception_3a/pool_proj"
}
layer {
  name: "inception_3a/output"
  type: "Concat"
  bottom: "inception_3a/1x1"
  bottom: "inception_3a/3x3"
  bottom: "inception_3a/5x5"
  bottom: "inception_3a/pool_proj"
  top: "inception_3a/output"
}
layer {
  name: "inception_3b/1x1"
  type: "Convolution"
  bottom: "inception_3a/output"
  top: "inception_3b/1x1"
  param {
    lr_mult: 1
    decay_mult: 1
  }
  param {
    lr_mult: 2
    decay_mult: 0
  }
  convolution_param {
    num_output: 128
    kernel_size: 1
    weight_filler {
      type: "xavier"
      std: 0.03
    }
    bias_filler {
      type: "constant"
      value: 0.2
    }
  }
}
layer {
  name: "inception_3b/relu_1x1"
  type: "ReLU"
  bottom: "inception_3b/1x1"
  top: "inception_3b/1x1"
}
layer {
  name: "inception_3b/3x3_reduce"
  type: "Convolution"
  bottom: "inception_3a/output"
  top: "inception_3b/3x3_reduce"
  param {
    lr_mult: 1
    decay_mult: 1
  }
  param {
    lr_mult: 2
    decay_mult: 0
  }
  convolution_param {
    num_output: 128
    kernel_size: 1
    weight_filler {
      type: "xavier"
      std: 0.09
    }
    bias_filler {
      type: "constant"
      value: 0.2
    }
  }
}
layer {
  name: "inception_3b/relu_3x3_reduce"
  type: "ReLU"
  bottom: "inception_3b/3x3_reduce"
  top: "inception_3b/3x3_reduce"
}
layer {
  name: "inception_3b/3x3"
  type: "Convolution"
  bottom: "inception_3b/3x3_reduce"
  top: "inception_3b/3x3"
  param {
    lr_mult: 1
    decay_mult: 1
  }
  param {
    lr_mult: 2
    decay_mult: 0
  }
  convolution_param {
    num_output: 192
    pad: 1
    kernel_size: 3
    weight_filler {
      type: "xavier"
      std: 0.03
    }
    bias_filler {
      type: "constant"
      value: 0.2
    }
  }
}
layer {
  name: "inception_3b/relu_3x3"
  type: "ReLU"
  bottom: "inception_3b/3x3"
  top: "inception_3b/3x3"
}
layer {
  name: "inception_3b/5x5_reduce"
  type: "Convolution"
  bottom: "inception_3a/output"
  top: "inception_3b/5x5_reduce"
  param {
    lr_mult: 1
    decay_mult: 1
  }
  param {
    lr_mult: 2
    decay_mult: 0
  }
  convolution_param {
    num_output: 32
    kernel_size: 1
    weight_filler {
      type: "xavier"
      std: 0.2
    }
    bias_filler {
      type: "constant"
      value: 0.2
    }
  }
}
layer {
  name: "inception_3b/relu_5x5_reduce"
  type: "ReLU"
  bottom: "inception_3b/5x5_reduce"
  top: "inception_3b/5x5_reduce"
}
layer {
  name: "inception_3b/5x5"
  type: "Convolution"
  bottom: "inception_3b/5x5_reduce"
  top: "inception_3b/5x5"
  param {
    lr_mult: 1
    decay_mult: 1
  }
  param {
    lr_mult: 2
    decay_mult: 0
  }
  convolution_param {
    num_output: 96
    pad: 2
    kernel_size: 5
    weight_filler {
      type: "xavier"
      std: 0.03
    }
    bias_filler {
      type: "constant"
      value: 0.2
    }
  }
}
layer {
  name: "inception_3b/relu_5x5"
  type: "ReLU"
  bottom: "inception_3b/5x5"
  top: "inception_3b/5x5"
}
layer {
  name: "inception_3b/pool"
  type: "Pooling"
  bottom: "inception_3a/output"
  top: "inception_3b/pool"
  pooling_param {
    pool: MAX
    kernel_size: 3
    stride: 1
    pad: 1
  }
}
layer {
  name: "inception_3b/pool_proj"
  type: "Convolution"
  bottom: "inception_3b/pool"
  top: "inception_3b/pool_proj"
  param {
    lr_mult: 1
    decay_mult: 1
  }
  param {
    lr_mult: 2
    decay_mult: 0
  }
  convolution_param {
    num_output: 64
    kernel_size: 1
    weight_filler {
      type: "xavier"
      std: 0.1
    }
    bias_filler {
      type: "constant"
      value: 0.2
    }
  }
}
layer {
  name: "inception_3b/relu_pool_proj"
  type: "ReLU"
  bottom: "inception_3b/pool_proj"
  top: "inception_3b/pool_proj"
}
layer {
  name: "inception_3b/output"
  type: "Concat"
  bottom: "inception_3b/1x1"
  bottom: "inception_3b/3x3"
  bottom: "inception_3b/5x5"
  bottom: "inception_3b/pool_proj"
  top: "inception_3b/output"
}
layer {
  name: "pool3/3x3_s2"
  type: "Pooling"
  bottom: "inception_3b/output"
  top: "pool3/3x3_s2"
  pooling_param {
    pool: MAX
    kernel_size: 3
    stride: 2
  }
}
layer {
  name: "inception_4a/1x1"
  type: "Convolution"
  bottom: "pool3/3x3_s2"
  top: "inception_4a/1x1"
  param {
    lr_mult: 1
    decay_mult: 1
  }
  param {
    lr_mult: 2
    decay_mult: 0
  }
  convolution_param {
    num_output: 192
    kernel_size: 1
    weight_filler {
      type: "xavier"
      std: 0.03
    }
    bias_filler {
      type: "constant"
      value: 0.2
    }
  }
}
layer {
  name: "inception_4a/relu_1x1"
  type: "ReLU"
  bottom: "inception_4a/1x1"
  top: "inception_4a/1x1"
}
layer {
  name: "inception_4a/3x3_reduce"
  type: "Convolution"
  bottom: "pool3/3x3_s2"
  top: "inception_4a/3x3_reduce"
  param {
    lr_mult: 1
    decay_mult: 1
  }
  param {
    lr_mult: 2
    decay_mult: 0
  }
  convolution_param {
    num_output: 96
    kernel_size: 1
    weight_filler {
      type: "xavier"
      std: 0.09
    }
    bias_filler {
      type: "constant"
      value: 0.2
    }
  }
}
layer {
  name: "inception_4a/relu_3x3_reduce"
  type: "ReLU"
  bottom: "inception_4a/3x3_reduce"
  top: "inception_4a/3x3_reduce"
}
layer {
  name: "inception_4a/3x3"
  type: "Convolution"
  bottom: "inception_4a/3x3_reduce"
  top: "inception_4a/3x3"
  param {
    lr_mult: 1
    decay_mult: 1
  }
  param {
    lr_mult: 2
    decay_mult: 0
  }
  convolution_param {
    num_output: 208
    pad: 1
    kernel_size: 3
    weight_filler {
      type: "xavier"
      std: 0.03
    }
    bias_filler {
      type: "constant"
      value: 0.2
    }
  }
}
layer {
  name: "inception_4a/relu_3x3"
  type: "ReLU"
  bottom: "inception_4a/3x3"
  top: "inception_4a/3x3"
}
layer {
  name: "inception_4a/5x5_reduce"
  type: "Convolution"
  bottom: "pool3/3x3_s2"
  top: "inception_4a/5x5_reduce"
  param {
    lr_mult: 1
    decay_mult: 1
  }
  param {
    lr_mult: 2
    decay_mult: 0
  }
  convolution_param {
    num_output: 16
    kernel_size: 1
    weight_filler {
      type: "xavier"
      std: 0.2
    }
    bias_filler {
      type: "constant"
      value: 0.2
    }
  }
}
layer {
  name: "inception_4a/relu_5x5_reduce"
  type: "ReLU"
  bottom: "inception_4a/5x5_reduce"
  top: "inception_4a/5x5_reduce"
}
layer {
  name: "inception_4a/5x5"
  type: "Convolution"
  bottom: "inception_4a/5x5_reduce"
  top: "inception_4a/5x5"
  param {
    lr_mult: 1
    decay_mult: 1
  }
  param {
    lr_mult: 2
    decay_mult: 0
  }
  convolution_param {
    num_output: 48
    pad: 2
    kernel_size: 5
    weight_filler {
      type: "xavier"
      std: 0.03
    }
    bias_filler {
      type: "constant"
      value: 0.2
    }
  }
}
layer {
  name: "inception_4a/relu_5x5"
  type: "ReLU"
  bottom: "inception_4a/5x5"
  top: "inception_4a/5x5"
}
layer {
  name: "inception_4a/pool"
  type: "Pooling"
  bottom: "pool3/3x3_s2"
  top: "inception_4a/pool"
  pooling_param {
    pool: MAX
    kernel_size: 3
    stride: 1
    pad: 1
  }
}
layer {
  name: "inception_4a/pool_proj"
  type: "Convolution"
  bottom: "inception_4a/pool"
  top: "inception_4a/pool_proj"
  param {
    lr_mult: 1
    decay_mult: 1
  }
  param {
    lr_mult: 2
    decay_mult: 0
  }
  convolution_param {
    num_output: 64
    kernel_size: 1
    weight_filler {
      type: "xavier"
      std: 0.1
    }
    bias_filler {
      type: "constant"
      value: 0.2
    }
  }
}
layer {
  name: "inception_4a/relu_pool_proj"
  type: "ReLU"
  bottom: "inception_4a/pool_proj"
  top: "inception_4a/pool_proj"
}
layer {
  name: "inception_4a/output"
  type: "Concat"
  bottom: "inception_4a/1x1"
  bottom: "inception_4a/3x3"
  bottom: "inception_4a/5x5"
  bottom: "inception_4a/pool_proj"
  top: "inception_4a/output"
}
layer {
  name: "loss1/ave_pool"
  type: "Pooling"
  bottom: "inception_4a/output"
  top: "loss1/ave_pool"
  pooling_param {
    pool: AVE
    kernel_size: 5
    stride: 3
  }
}
layer {
  name: "loss1/conv"
  type: "Convolution"
  bottom: "loss1/ave_pool"
  top: "loss1/conv"
  param {
    lr_mult: 1
    decay_mult: 1
  }
  param {
    lr_mult: 2
    decay_mult: 0
  }
  convolution_param {
    num_output: 128
    kernel_size: 1
    weight_filler {
      type: "xavier"
      std: 0.08
    }
    bias_filler {
      type: "constant"
      value: 0.2
    }
  }
}
layer {
  name: "loss1/relu_conv"
  type: "ReLU"
  bottom: "loss1/conv"
  top: "loss1/conv"
}
layer {
  name: "loss1/fc"
  type: "InnerProduct"
  bottom: "loss1/conv"
  top: "loss1/fc"
  param {
    lr_mult: 1
    decay_mult: 1
  }
  param {
    lr_mult: 2
    decay_mult: 0
  }
  inner_product_param {
    num_output: 1024
    weight_filler {
      type: "xavier"
      std: 0.02
    }
    bias_filler {
      type: "constant"
      value: 0.2
    }
  }
}
layer {
  name: "loss1/relu_fc"
  type: "ReLU"
  bottom: "loss1/fc"
  top: "loss1/fc"
}
layer {
  name: "loss1/drop_fc"
  type: "Dropout"
  bottom: "loss1/fc"
  top: "loss1/fc"
  dropout_param {
    dropout_ratio: 0.7
  }
}
layer {
  name: "loss1/classifier_plantvillage"
  type: "InnerProduct"
  bottom: "loss1/fc"
  top: "loss1/classifier_plantvillage"
  param {
    lr_mult: 1
    decay_mult: 1
  }
  param {
    lr_mult: 2
    decay_mult: 0
  }
  inner_product_param {
    num_output: 38
    weight_filler {
      type: "xavier"
      std: 0.0009765625
    }
    bias_filler {
      type: "constant"
      value: 0
    }
  }
}
layer {
  name: "inception_4b/1x1"
  type: "Convolution"
  bottom: "inception_4a/output"
  top: "inception_4b/1x1"
  param {
    lr_mult: 1
    decay_mult: 1
  }
  param {
    lr_mult: 2
    decay_mult: 0
  }
  convolution_param {
    num_output: 160
    kernel_size: 1
    weight_filler {
      type: "xavier"
      std: 0.03
    }
    bias_filler {
      type: "constant"
      value: 0.2
    }
  }
}
layer {
  name: "inception_4b/relu_1x1"
  type: "ReLU"
  bottom: "inception_4b/1x1"
  top: "inception_4b/1x1"
}
layer {
  name: "inception_4b/3x3_reduce"
  type: "Convolution"
  bottom: "inception_4a/output"
  top: "inception_4b/3x3_reduce"
  param {
    lr_mult: 1
    decay_mult: 1
  }
  param {
    lr_mult: 2
    decay_mult: 0
  }
  convolution_param {
    num_output: 112
    kernel_size: 1
    weight_filler {
      type: "xavier"
      std: 0.09
    }
    bias_filler {
      type: "constant"
      value: 0.2
    }
  }
}
layer {
  name: "inception_4b/relu_3x3_reduce"
  type: "ReLU"
  bottom: "inception_4b/3x3_reduce"
  top: "inception_4b/3x3_reduce"
}
layer {
  name: "inception_4b/3x3"
  type: "Convolution"
  bottom: "inception_4b/3x3_reduce"
  top: "inception_4b/3x3"
  param {
    lr_mult: 1
    decay_mult: 1
  }
  param {
    lr_mult: 2
    decay_mult: 0
  }
  convolution_param {
    num_output: 224
    pad: 1
    kernel_size: 3
    weight_filler {
      type: "xavier"
      std: 0.03
    }
    bias_filler {
      type: "constant"
      value: 0.2
    }
  }
}
layer {
  name: "inception_4b/relu_3x3"
  type: "ReLU"
  bottom: "inception_4b/3x3"
  top: "inception_4b/3x3"
}
layer {
  name: "inception_4b/5x5_reduce"
  type: "Convolution"
  bottom: "inception_4a/output"
  top: "inception_4b/5x5_reduce"
  param {
    lr_mult: 1
    decay_mult: 1
  }
  param {
    lr_mult: 2
    decay_mult: 0
  }
  convolution_param {
    num_output: 24
    kernel_size: 1
    weight_filler {
      type: "xavier"
      std: 0.2
    }
    bias_filler {
      type: "constant"
      value: 0.2
    }
  }
}
layer {
  name: "inception_4b/relu_5x5_reduce"
  type: "ReLU"
  bottom: "inception_4b/5x5_reduce"
  top: "inception_4b/5x5_reduce"
}
layer {
  name: "inception_4b/5x5"
  type: "Convolution"
  bottom: "inception_4b/5x5_reduce"
  top: "inception_4b/5x5"
  param {
    lr_mult: 1
    decay_mult: 1
  }
  param {
    lr_mult: 2
    decay_mult: 0
  }
  convolution_param {
    num_output: 64
    pad: 2
    kernel_size: 5
    weight_filler {
      type: "xavier"
      std: 0.03
    }
    bias_filler {
      type: "constant"
      value: 0.2
    }
  }
}
layer {
  name: "inception_4b/relu_5x5"
  type: "ReLU"
  bottom: "inception_4b/5x5"
  top: "inception_4b/5x5"
}
layer {
  name: "inception_4b/pool"
  type: "Pooling"
  bottom: "inception_4a/output"
  top: "inception_4b/pool"
  pooling_param {
    pool: MAX
    kernel_size: 3
    stride: 1
    pad: 1
  }
}
layer {
  name: "inception_4b/pool_proj"
  type: "Convolution"
  bottom: "inception_4b/pool"
  top: "inception_4b/pool_proj"
  param {
    lr_mult: 1
    decay_mult: 1
  }
  param {
    lr_mult: 2
    decay_mult: 0
  }
  convolution_param {
    num_output: 64
    kernel_size: 1
    weight_filler {
      type: "xavier"
      std: 0.1
    }
    bias_filler {
      type: "constant"
      value: 0.2
    }
  }
}
layer {
  name: "inception_4b/relu_pool_proj"
  type: "ReLU"
  bottom: "inception_4b/pool_proj"
  top: "inception_4b/pool_proj"
}
layer {
  name: "inception_4b/output"
  type: "Concat"
  bottom: "inception_4b/1x1"
  bottom: "inception_4b/3x3"
  bottom: "inception_4b/5x5"
  bottom: "inception_4b/pool_proj"
  top: "inception_4b/output"
}
layer {
  name: "inception_4c/1x1"
  type: "Convolution"
  bottom: "inception_4b/output"
  top: "inception_4c/1x1"
  param {
    lr_mult: 1
    decay_mult: 1
  }
  param {
    lr_mult: 2
    decay_mult: 0
  }
  convolution_param {
    num_output: 128
    kernel_size: 1
    weight_filler {
      type: "xavier"
      std: 0.03
    }
    bias_filler {
      type: "constant"
      value: 0.2
    }
  }
}
layer {
  name: "inception_4c/relu_1x1"
  type: "ReLU"
  bottom: "inception_4c/1x1"
  top: "inception_4c/1x1"
}
layer {
  name: "inception_4c/3x3_reduce"
  type: "Convolution"
  bottom: "inception_4b/output"
  top: "inception_4c/3x3_reduce"
  param {
    lr_mult: 1
    decay_mult: 1
  }
  param {
    lr_mult: 2
    decay_mult: 0
  }
  convolution_param {
    num_output: 128
    kernel_size: 1
    weight_filler {
      type: "xavier"
      std: 0.09
    }
    bias_filler {
      type: "constant"
      value: 0.2
    }
  }
}
layer {
  name: "inception_4c/relu_3x3_reduce"
  type: "ReLU"
  bottom: "inception_4c/3x3_reduce"
  top: "inception_4c/3x3_reduce"
}
layer {
  name: "inception_4c/3x3"
  type: "Convolution"
  bottom: "inception_4c/3x3_reduce"
  top: "inception_4c/3x3"
  param {
    lr_mult: 1
    decay_mult: 1
  }
  param {
    lr_mult: 2
    decay_mult: 0
  }
  convolution_param {
    num_output: 256
    pad: 1
    kernel_size: 3
    weight_filler {
      type: "xavier"
      std: 0.03
    }
    bias_filler {
      type: "constant"
      value: 0.2
    }
  }
}
layer {
  name: "inception_4c/relu_3x3"
  type: "ReLU"
  bottom: "inception_4c/3x3"
  top: "inception_4c/3x3"
}
layer {
  name: "inception_4c/5x5_reduce"
  type: "Convolution"
  bottom: "inception_4b/output"
  top: "inception_4c/5x5_reduce"
  param {
    lr_mult: 1
    decay_mult: 1
  }
  param {
    lr_mult: 2
    decay_mult: 0
  }
  convolution_param {
    num_output: 24
    kernel_size: 1
    weight_filler {
      type: "xavier"
      std: 0.2
    }
    bias_filler {
      type: "constant"
      value: 0.2
    }
  }
}
layer {
  name: "inception_4c/relu_5x5_reduce"
  type: "ReLU"
  bottom: "inception_4c/5x5_reduce"
  top: "inception_4c/5x5_reduce"
}
layer {
  name: "inception_4c/5x5"
  type: "Convolution"
  bottom: "inception_4c/5x5_reduce"
  top: "inception_4c/5x5"
  param {
    lr_mult: 1
    decay_mult: 1
  }
  param {
    lr_mult: 2
    decay_mult: 0
  }
  convolution_param {
    num_output: 64
    pad: 2
    kernel_size: 5
    weight_filler {
      type: "xavier"
      std: 0.03
    }
    bias_filler {
      type: "constant"
      value: 0.2
    }
  }
}
layer {
  name: "inception_4c/relu_5x5"
  type: "ReLU"
  bottom: "inception_4c/5x5"
  top: "inception_4c/5x5"
}
layer {
  name: "inception_4c/pool"
  type: "Pooling"
  bottom: "inception_4b/output"
  top: "inception_4c/pool"
  pooling_param {
    pool: MAX
    kernel_size: 3
    stride: 1
    pad: 1
  }
}
layer {
  name: "inception_4c/pool_proj"
  type: "Convolution"
  bottom: "inception_4c/pool"
  top: "inception_4c/pool_proj"
  param {
    lr_mult: 1
    decay_mult: 1
  }
  param {
    lr_mult: 2
    decay_mult: 0
  }
  convolution_param {
    num_output: 64
    kernel_size: 1
    weight_filler {
      type: "xavier"
      std: 0.1
    }
    bias_filler {
      type: "constant"
      value: 0.2
    }
  }
}
layer {
  name: "inception_4c/relu_pool_proj"
  type: "ReLU"
  bottom: "inception_4c/pool_proj"
  top: "inception_4c/pool_proj"
}
layer {
  name: "inception_4c/output"
  type: "Concat"
  bottom: "inception_4c/1x1"
  bottom: "inception_4c/3x3"
  bottom: "inception_4c/5x5"
  bottom: "inception_4c/pool_proj"
  top: "inception_4c/output"
}
layer {
  name: "inception_4d/1x1"
  type: "Convolution"
  bottom: "inception_4c/output"
  top: "inception_4d/1x1"
  param {
    lr_mult: 1
    decay_mult: 1
  }
  param {
    lr_mult: 2
    decay_mult: 0
  }
  convolution_param {
    num_output: 112
    kernel_size: 1
    weight_filler {
      type: "xavier"
      std: 0.03
    }
    bias_filler {
      type: "constant"
      value: 0.2
    }
  }
}
layer {
  name: "inception_4d/relu_1x1"
  type: "ReLU"
  bottom: "inception_4d/1x1"
  top: "inception_4d/1x1"
}
layer {
  name: "inception_4d/3x3_reduce"
  type: "Convolution"
  bottom: "inception_4c/output"
  top: "inception_4d/3x3_reduce"
  param {
    lr_mult: 1
    decay_mult: 1
  }
  param {
    lr_mult: 2
    decay_mult: 0
  }
  convolution_param {
    num_output: 144
    kernel_size: 1
    weight_filler {
      type: "xavier"
      std: 0.09
    }
    bias_filler {
      type: "constant"
      value: 0.2
    }
  }
}
layer {
  name: "inception_4d/relu_3x3_reduce"
  type: "ReLU"
  bottom: "inception_4d/3x3_reduce"
  top: "inception_4d/3x3_reduce"
}
layer {
  name: "inception_4d/3x3"
  type: "Convolution"
  bottom: "inception_4d/3x3_reduce"
  top: "inception_4d/3x3"
  param {
    lr_mult: 1
    decay_mult: 1
  }
  param {
    lr_mult: 2
    decay_mult: 0
  }
  convolution_param {
    num_output: 288
    pad: 1
    kernel_size: 3
    weight_filler {
      type: "xavier"
      std: 0.03
    }
    bias_filler {
      type: "constant"
      value: 0.2
    }
  }
}
layer {
  name: "inception_4d/relu_3x3"
  type: "ReLU"
  bottom: "inception_4d/3x3"
  top: "inception_4d/3x3"
}
layer {
  name: "inception_4d/5x5_reduce"
  type: "Convolution"
  bottom: "inception_4c/output"
  top: "inception_4d/5x5_reduce"
  param {
    lr_mult: 1
    decay_mult: 1
  }
  param {
    lr_mult: 2
    decay_mult: 0
  }
  convolution_param {
    num_output: 32
    kernel_size: 1
    weight_filler {
      type: "xavier"
      std: 0.2
    }
    bias_filler {
      type: "constant"
      value: 0.2
    }
  }
}
layer {
  name: "inception_4d/relu_5x5_reduce"
  type: "ReLU"
  bottom: "inception_4d/5x5_reduce"
  top: "inception_4d/5x5_reduce"
}
layer {
  name: "inception_4d/5x5"
  type: "Convolution"
  bottom: "inception_4d/5x5_reduce"
  top: "inception_4d/5x5"
  param {
    lr_mult: 1
    decay_mult: 1
  }
  param {
    lr_mult: 2
    decay_mult: 0
  }
  convolution_param {
    num_output: 64
    pad: 2
    kernel_size: 5
    weight_filler {
      type: "xavier"
      std: 0.03
    }
    bias_filler {
      type: "constant"
      value: 0.2
    }
  }
}
layer {
  name: "inception_4d/relu_5x5"
  type: "ReLU"
  bottom: "inception_4d/5x5"
  top: "inception_4d/5x5"
}
layer {
  name: "inception_4d/pool"
  type: "Pooling"
  bottom: "inception_4c/output"
  top: "inception_4d/pool"
  pooling_param {
    pool: MAX
    kernel_size: 3
    stride: 1
    pad: 1
  }
}
layer {
  name: "inception_4d/pool_proj"
  type: "Convolution"
  bottom: "inception_4d/pool"
  top: "inception_4d/pool_proj"
  param {
    lr_mult: 1
    decay_mult: 1
  }
  param {
    lr_mult: 2
    decay_mult: 0
  }
  convolution_param {
    num_output: 64
    kernel_size: 1
    weight_filler {
      type: "xavier"
      std: 0.1
    }
    bias_filler {
      type: "constant"
      value: 0.2
    }
  }
}
layer {
  name: "inception_4d/relu_pool_proj"
  type: "ReLU"
  bottom: "inception_4d/pool_proj"
  top: "inception_4d/pool_proj"
}
layer {
  name: "inception_4d/output"
  type: "Concat"
  bottom: "inception_4d/1x1"
  bottom: "inception_4d/3x3"
  bottom: "inception_4d/5x5"
  bottom: "inception_4d/pool_proj"
  top: "inception_4d/output"
}
layer {
  name: "loss2/ave_pool"
  type: "Pooling"
  bottom: "inception_4d/output"
  top: "loss2/ave_pool"
  pooling_param {
    pool: AVE
    kernel_size: 5
    stride: 3
  }
}
layer {
  name: "loss2/conv"
  type: "Convolution"
  bottom: "loss2/ave_pool"
  top: "loss2/conv"
  param {
    lr_mult: 1
    decay_mult: 1
  }
  param {
    lr_mult: 2
    decay_mult: 0
  }
  convolution_param {
    num_output: 128
    kernel_size: 1
    weight_filler {
      type: "xavier"
      std: 0.08
    }
    bias_filler {
      type: "constant"
      value: 0.2
    }
  }
}
layer {
  name: "loss2/relu_conv"
  type: "ReLU"
  bottom: "loss2/conv"
  top: "loss2/conv"
}
layer {
  name: "loss2/fc"
  type: "InnerProduct"
  bottom: "loss2/conv"
  top: "loss2/fc"
  param {
    lr_mult: 1
    decay_mult: 1
  }
  param {
    lr_mult: 2
    decay_mult: 0
  }
  inner_product_param {
    num_output: 1024
    weight_filler {
      type: "xavier"
      std: 0.02
    }
    bias_filler {
      type: "constant"
      value: 0.2
    }
  }
}
layer {
  name: "loss2/relu_fc"
  type: "ReLU"
  bottom: "loss2/fc"
  top: "loss2/fc"
}
layer {
  name: "loss2/drop_fc"
  type: "Dropout"
  bottom: "loss2/fc"
  top: "loss2/fc"
  dropout_param {
    dropout_ratio: 0.7
  }
}
layer {
  name: "loss2/classifier_plantvillage"
  type: "InnerProduct"
  bottom: "loss2/fc"
  top: "loss2/classifier_plantvillage"
  param {
    lr_mult: 1
    decay_mult: 1
  }
  param {
    lr_mult: 2
    decay_mult: 0
  }
  inner_product_param {
    num_output: 38
    weight_filler {
      type: "xavier"
      std: 0.0009765625
    }
    bias_filler {
      type: "constant"
      value: 0
    }
  }
}
layer {
  name: "inception_4e/1x1"
  type: "Convolution"
  bottom: "inception_4d/output"
  top: "inception_4e/1x1"
  param {
    lr_mult: 1
    decay_mult: 1
  }
  param {
    lr_mult: 2
    decay_mult: 0
  }
  convolution_param {
    num_output: 256
    kernel_size: 1
    weight_filler {
      type: "xavier"
      std: 0.03
    }
    bias_filler {
      type: "constant"
      value: 0.2
    }
  }
}
layer {
  name: "inception_4e/relu_1x1"
  type: "ReLU"
  bottom: "inception_4e/1x1"
  top: "inception_4e/1x1"
}
layer {
  name: "inception_4e/3x3_reduce"
  type: "Convolution"
  bottom: "inception_4d/output"
  top: "inception_4e/3x3_reduce"
  param {
    lr_mult: 1
    decay_mult: 1
  }
  param {
    lr_mult: 2
    decay_mult: 0
  }
  convolution_param {
    num_output: 160
    kernel_size: 1
    weight_filler {
      type: "xavier"
      std: 0.09
    }
    bias_filler {
      type: "constant"
      value: 0.2
    }
  }
}
layer {
  name: "inception_4e/relu_3x3_reduce"
  type: "ReLU"
  bottom: "inception_4e/3x3_reduce"
  top: "inception_4e/3x3_reduce"
}
layer {
  name: "inception_4e/3x3"
  type: "Convolution"
  bottom: "inception_4e/3x3_reduce"
  top: "inception_4e/3x3"
  param {
    lr_mult: 1
    decay_mult: 1
  }
  param {
    lr_mult: 2
    decay_mult: 0
  }
  convolution_param {
    num_output: 320
    pad: 1
    kernel_size: 3
    weight_filler {
      type: "xavier"
      std: 0.03
    }
    bias_filler {
      type: "constant"
      value: 0.2
    }
  }
}
layer {
  name: "inception_4e/relu_3x3"
  type: "ReLU"
  bottom: "inception_4e/3x3"
  top: "inception_4e/3x3"
}
layer {
  name: "inception_4e/5x5_reduce"
  type: "Convolution"
  bottom: "inception_4d/output"
  top: "inception_4e/5x5_reduce"
  param {
    lr_mult: 1
    decay_mult: 1
  }
  param {
    lr_mult: 2
    decay_mult: 0
  }
  convolution_param {
    num_output: 32
    kernel_size: 1
    weight_filler {
      type: "xavier"
      std: 0.2
    }
    bias_filler {
      type: "constant"
      value: 0.2
    }
  }
}
layer {
  name: "inception_4e/relu_5x5_reduce"
  type: "ReLU"
  bottom: "inception_4e/5x5_reduce"
  top: "inception_4e/5x5_reduce"
}
layer {
  name: "inception_4e/5x5"
  type: "Convolution"
  bottom: "inception_4e/5x5_reduce"
  top: "inception_4e/5x5"
  p
I0403 15:38:35.252782 13846 layer_factory.hpp:77] Creating layer data
I0403 15:38:35.253373 13846 net.cpp:91] Creating Layer data
I0403 15:38:35.253404 13846 net.cpp:399] data -> data
I0403 15:38:35.253456 13846 net.cpp:399] data -> label
I0403 15:38:35.253492 13846 data_transformer.cpp:25] Loading mean file from: /home/mohanty/data/final_dataset/lmdb/color-80-20/mean.binaryproto
I0403 15:38:35.261034 13849 db_lmdb.cpp:38] Opened lmdb /home/mohanty/data/final_dataset/lmdb/color-80-20/test_db
I0403 15:38:35.271332 13846 data_layer.cpp:41] output data size: 24,3,224,224
I0403 15:38:35.299545 13846 net.cpp:141] Setting up data
I0403 15:38:35.299624 13846 net.cpp:148] Top shape: 24 3 224 224 (3612672)
I0403 15:38:35.299649 13846 net.cpp:148] Top shape: 24 (24)
I0403 15:38:35.299664 13846 net.cpp:156] Memory required for data: 14450784
I0403 15:38:35.299690 13846 layer_factory.hpp:77] Creating layer label_data_1_split
I0403 15:38:35.299718 13846 net.cpp:91] Creating Layer label_data_1_split
I0403 15:38:35.299736 13846 net.cpp:425] label_data_1_split <- label
I0403 15:38:35.299767 13846 net.cpp:399] label_data_1_split -> label_data_1_split_0
I0403 15:38:35.299796 13846 net.cpp:399] label_data_1_split -> label_data_1_split_1
I0403 15:38:35.299818 13846 net.cpp:399] label_data_1_split -> label_data_1_split_2
I0403 15:38:35.299840 13846 net.cpp:399] label_data_1_split -> label_data_1_split_3
I0403 15:38:35.299860 13846 net.cpp:399] label_data_1_split -> label_data_1_split_4
I0403 15:38:35.299880 13846 net.cpp:399] label_data_1_split -> label_data_1_split_5
I0403 15:38:35.299899 13846 net.cpp:399] label_data_1_split -> label_data_1_split_6
I0403 15:38:35.299921 13846 net.cpp:399] label_data_1_split -> label_data_1_split_7
I0403 15:38:35.299942 13846 net.cpp:399] label_data_1_split -> label_data_1_split_8
I0403 15:38:35.299963 13846 net.cpp:399] label_data_1_split -> label_data_1_split_9
I0403 15:38:35.300082 13846 net.cpp:141] Setting up label_data_1_split
I0403 15:38:35.300107 13846 net.cpp:148] Top shape: 24 (24)
I0403 15:38:35.300128 13846 net.cpp:148] Top shape: 24 (24)
I0403 15:38:35.300148 13846 net.cpp:148] Top shape: 24 (24)
I0403 15:38:35.300165 13846 net.cpp:148] Top shape: 24 (24)
I0403 15:38:35.300181 13846 net.cpp:148] Top shape: 24 (24)
I0403 15:38:35.300197 13846 net.cpp:148] Top shape: 24 (24)
I0403 15:38:35.300214 13846 net.cpp:148] Top shape: 24 (24)
I0403 15:38:35.300230 13846 net.cpp:148] Top shape: 24 (24)
I0403 15:38:35.300246 13846 net.cpp:148] Top shape: 24 (24)
I0403 15:38:35.300262 13846 net.cpp:148] Top shape: 24 (24)
I0403 15:38:35.300308 13846 net.cpp:156] Memory required for data: 14451744
I0403 15:38:35.300325 13846 layer_factory.hpp:77] Creating layer conv1/7x7_s2
I0403 15:38:35.300359 13846 net.cpp:91] Creating Layer conv1/7x7_s2
I0403 15:38:35.300379 13846 net.cpp:425] conv1/7x7_s2 <- data
I0403 15:38:35.300400 13846 net.cpp:399] conv1/7x7_s2 -> conv1/7x7_s2
I0403 15:38:35.446879 13846 net.cpp:141] Setting up conv1/7x7_s2
I0403 15:38:35.446952 13846 net.cpp:148] Top shape: 24 64 112 112 (19267584)
I0403 15:38:35.446970 13846 net.cpp:156] Memory required for data: 91522080
I0403 15:38:35.447003 13846 layer_factory.hpp:77] Creating layer conv1/relu_7x7
I0403 15:38:35.447032 13846 net.cpp:91] Creating Layer conv1/relu_7x7
I0403 15:38:35.447052 13846 net.cpp:425] conv1/relu_7x7 <- conv1/7x7_s2
I0403 15:38:35.447072 13846 net.cpp:386] conv1/relu_7x7 -> conv1/7x7_s2 (in-place)
I0403 15:38:35.447345 13846 net.cpp:141] Setting up conv1/relu_7x7
I0403 15:38:35.447374 13846 net.cpp:148] Top shape: 24 64 112 112 (19267584)
I0403 15:38:35.447391 13846 net.cpp:156] Memory required for data: 168592416
I0403 15:38:35.447407 13846 layer_factory.hpp:77] Creating layer pool1/3x3_s2
I0403 15:38:35.447433 13846 net.cpp:91] Creating Layer pool1/3x3_s2
I0403 15:38:35.447453 13846 net.cpp:425] pool1/3x3_s2 <- conv1/7x7_s2
I0403 15:38:35.447471 13846 net.cpp:399] pool1/3x3_s2 -> pool1/3x3_s2
I0403 15:38:35.447548 13846 net.cpp:141] Setting up pool1/3x3_s2
I0403 15:38:35.447574 13846 net.cpp:148] Top shape: 24 64 56 56 (4816896)
I0403 15:38:35.447590 13846 net.cpp:156] Memory required for data: 187860000
I0403 15:38:35.447607 13846 layer_factory.hpp:77] Creating layer pool1/norm1
I0403 15:38:35.447631 13846 net.cpp:91] Creating Layer pool1/norm1
I0403 15:38:35.447650 13846 net.cpp:425] pool1/norm1 <- pool1/3x3_s2
I0403 15:38:35.447669 13846 net.cpp:399] pool1/norm1 -> pool1/norm1
I0403 15:38:35.448019 13846 net.cpp:141] Setting up pool1/norm1
I0403 15:38:35.448047 13846 net.cpp:148] Top shape: 24 64 56 56 (4816896)
I0403 15:38:35.448065 13846 net.cpp:156] Memory required for data: 207127584
I0403 15:38:35.448079 13846 layer_factory.hpp:77] Creating layer conv2/3x3_reduce
I0403 15:38:35.448104 13846 net.cpp:91] Creating Layer conv2/3x3_reduce
I0403 15:38:35.448122 13846 net.cpp:425] conv2/3x3_reduce <- pool1/norm1
I0403 15:38:35.448148 13846 net.cpp:399] conv2/3x3_reduce -> conv2/3x3_reduce
I0403 15:38:35.449579 13846 net.cpp:141] Setting up conv2/3x3_reduce
I0403 15:38:35.449610 13846 net.cpp:148] Top shape: 24 64 56 56 (4816896)
I0403 15:38:35.449627 13846 net.cpp:156] Memory required for data: 226395168
I0403 15:38:35.449651 13846 layer_factory.hpp:77] Creating layer conv2/relu_3x3_reduce
I0403 15:38:35.449671 13846 net.cpp:91] Creating Layer conv2/relu_3x3_reduce
I0403 15:38:35.449687 13846 net.cpp:425] conv2/relu_3x3_reduce <- conv2/3x3_reduce
I0403 15:38:35.449710 13846 net.cpp:386] conv2/relu_3x3_reduce -> conv2/3x3_reduce (in-place)
I0403 15:38:35.449995 13846 net.cpp:141] Setting up conv2/relu_3x3_reduce
I0403 15:38:35.450022 13846 net.cpp:148] Top shape: 24 64 56 56 (4816896)
I0403 15:38:35.450039 13846 net.cpp:156] Memory required for data: 245662752
I0403 15:38:35.450054 13846 layer_factory.hpp:77] Creating layer conv2/3x3
I0403 15:38:35.450079 13846 net.cpp:91] Creating Layer conv2/3x3
I0403 15:38:35.450098 13846 net.cpp:425] conv2/3x3 <- conv2/3x3_reduce
I0403 15:38:35.450121 13846 net.cpp:399] conv2/3x3 -> conv2/3x3
I0403 15:38:35.452582 13846 net.cpp:141] Setting up conv2/3x3
I0403 15:38:35.452615 13846 net.cpp:148] Top shape: 24 192 56 56 (14450688)
I0403 15:38:35.452632 13846 net.cpp:156] Memory required for data: 303465504
I0403 15:38:35.452654 13846 layer_factory.hpp:77] Creating layer conv2/relu_3x3
I0403 15:38:35.452678 13846 net.cpp:91] Creating Layer conv2/relu_3x3
I0403 15:38:35.452695 13846 net.cpp:425] conv2/relu_3x3 <- conv2/3x3
I0403 15:38:35.452719 13846 net.cpp:386] conv2/relu_3x3 -> conv2/3x3 (in-place)
I0403 15:38:35.452908 13846 net.cpp:141] Setting up conv2/relu_3x3
I0403 15:38:35.452935 13846 net.cpp:148] Top shape: 24 192 56 56 (14450688)
I0403 15:38:35.452988 13846 net.cpp:156] Memory required for data: 361268256
I0403 15:38:35.453006 13846 layer_factory.hpp:77] Creating layer conv2/norm2
I0403 15:38:35.453024 13846 net.cpp:91] Creating Layer conv2/norm2
I0403 15:38:35.453042 13846 net.cpp:425] conv2/norm2 <- conv2/3x3
I0403 15:38:35.453063 13846 net.cpp:399] conv2/norm2 -> conv2/norm2
I0403 15:38:35.453393 13846 net.cpp:141] Setting up conv2/norm2
I0403 15:38:35.453424 13846 net.cpp:148] Top shape: 24 192 56 56 (14450688)
I0403 15:38:35.453440 13846 net.cpp:156] Memory required for data: 419071008
I0403 15:38:35.453455 13846 layer_factory.hpp:77] Creating layer pool2/3x3_s2
I0403 15:38:35.453474 13846 net.cpp:91] Creating Layer pool2/3x3_s2
I0403 15:38:35.453490 13846 net.cpp:425] pool2/3x3_s2 <- conv2/norm2
I0403 15:38:35.453512 13846 net.cpp:399] pool2/3x3_s2 -> pool2/3x3_s2
I0403 15:38:35.453568 13846 net.cpp:141] Setting up pool2/3x3_s2
I0403 15:38:35.453593 13846 net.cpp:148] Top shape: 24 192 28 28 (3612672)
I0403 15:38:35.453608 13846 net.cpp:156] Memory required for data: 433521696
I0403 15:38:35.453622 13846 layer_factory.hpp:77] Creating layer pool2/3x3_s2_pool2/3x3_s2_0_split
I0403 15:38:35.453644 13846 net.cpp:91] Creating Layer pool2/3x3_s2_pool2/3x3_s2_0_split
I0403 15:38:35.453660 13846 net.cpp:425] pool2/3x3_s2_pool2/3x3_s2_0_split <- pool2/3x3_s2
I0403 15:38:35.453678 13846 net.cpp:399] pool2/3x3_s2_pool2/3x3_s2_0_split -> pool2/3x3_s2_pool2/3x3_s2_0_split_0
I0403 15:38:35.453698 13846 net.cpp:399] pool2/3x3_s2_pool2/3x3_s2_0_split -> pool2/3x3_s2_pool2/3x3_s2_0_split_1
I0403 15:38:35.453722 13846 net.cpp:399] pool2/3x3_s2_pool2/3x3_s2_0_split -> pool2/3x3_s2_pool2/3x3_s2_0_split_2
I0403 15:38:35.453742 13846 net.cpp:399] pool2/3x3_s2_pool2/3x3_s2_0_split -> pool2/3x3_s2_pool2/3x3_s2_0_split_3
I0403 15:38:35.453815 13846 net.cpp:141] Setting up pool2/3x3_s2_pool2/3x3_s2_0_split
I0403 15:38:35.453840 13846 net.cpp:148] Top shape: 24 192 28 28 (3612672)
I0403 15:38:35.453856 13846 net.cpp:148] Top shape: 24 192 28 28 (3612672)
I0403 15:38:35.453872 13846 net.cpp:148] Top shape: 24 192 28 28 (3612672)
I0403 15:38:35.453889 13846 net.cpp:148] Top shape: 24 192 28 28 (3612672)
I0403 15:38:35.453903 13846 net.cpp:156] Memory required for data: 491324448
I0403 15:38:35.453919 13846 layer_factory.hpp:77] Creating layer inception_3a/1x1
I0403 15:38:35.453943 13846 net.cpp:91] Creating Layer inception_3a/1x1
I0403 15:38:35.453960 13846 net.cpp:425] inception_3a/1x1 <- pool2/3x3_s2_pool2/3x3_s2_0_split_0
I0403 15:38:35.453981 13846 net.cpp:399] inception_3a/1x1 -> inception_3a/1x1
I0403 15:38:35.455600 13846 net.cpp:141] Setting up inception_3a/1x1
I0403 15:38:35.455631 13846 net.cpp:148] Top shape: 24 64 28 28 (1204224)
I0403 15:38:35.455647 13846 net.cpp:156] Memory required for data: 496141344
I0403 15:38:35.455667 13846 layer_factory.hpp:77] Creating layer inception_3a/relu_1x1
I0403 15:38:35.455687 13846 net.cpp:91] Creating Layer inception_3a/relu_1x1
I0403 15:38:35.455703 13846 net.cpp:425] inception_3a/relu_1x1 <- inception_3a/1x1
I0403 15:38:35.455724 13846 net.cpp:386] inception_3a/relu_1x1 -> inception_3a/1x1 (in-place)
I0403 15:38:35.455909 13846 net.cpp:141] Setting up inception_3a/relu_1x1
I0403 15:38:35.455935 13846 net.cpp:148] Top shape: 24 64 28 28 (1204224)
I0403 15:38:35.455950 13846 net.cpp:156] Memory required for data: 500958240
I0403 15:38:35.455966 13846 layer_factory.hpp:77] Creating layer inception_3a/3x3_reduce
I0403 15:38:35.455991 13846 net.cpp:91] Creating Layer inception_3a/3x3_reduce
I0403 15:38:35.456009 13846 net.cpp:425] inception_3a/3x3_reduce <- pool2/3x3_s2_pool2/3x3_s2_0_split_1
I0403 15:38:35.456032 13846 net.cpp:399] inception_3a/3x3_reduce -> inception_3a/3x3_reduce
I0403 15:38:35.457801 13846 net.cpp:141] Setting up inception_3a/3x3_reduce
I0403 15:38:35.457833 13846 net.cpp:148] Top shape: 24 96 28 28 (1806336)
I0403 15:38:35.457849 13846 net.cpp:156] Memory required for data: 508183584
I0403 15:38:35.457872 13846 layer_factory.hpp:77] Creating layer inception_3a/relu_3x3_reduce
I0403 15:38:35.457914 13846 net.cpp:91] Creating Layer inception_3a/relu_3x3_reduce
I0403 15:38:35.457934 13846 net.cpp:425] inception_3a/relu_3x3_reduce <- inception_3a/3x3_reduce
I0403 15:38:35.457954 13846 net.cpp:386] inception_3a/relu_3x3_reduce -> inception_3a/3x3_reduce (in-place)
I0403 15:38:35.458150 13846 net.cpp:141] Setting up inception_3a/relu_3x3_reduce
I0403 15:38:35.458179 13846 net.cpp:148] Top shape: 24 96 28 28 (1806336)
I0403 15:38:35.458194 13846 net.cpp:156] Memory required for data: 515408928
I0403 15:38:35.458210 13846 layer_factory.hpp:77] Creating layer inception_3a/3x3
I0403 15:38:35.458233 13846 net.cpp:91] Creating Layer inception_3a/3x3
I0403 15:38:35.458251 13846 net.cpp:425] inception_3a/3x3 <- inception_3a/3x3_reduce
I0403 15:38:35.458274 13846 net.cpp:399] inception_3a/3x3 -> inception_3a/3x3
I0403 15:38:35.460011 13846 net.cpp:141] Setting up inception_3a/3x3
I0403 15:38:35.460041 13846 net.cpp:148] Top shape: 24 128 28 28 (2408448)
I0403 15:38:35.460057 13846 net.cpp:156] Memory required for data: 525042720
I0403 15:38:35.460078 13846 layer_factory.hpp:77] Creating layer inception_3a/relu_3x3
I0403 15:38:35.460098 13846 net.cpp:91] Creating Layer inception_3a/relu_3x3
I0403 15:38:35.460114 13846 net.cpp:425] inception_3a/relu_3x3 <- inception_3a/3x3
I0403 15:38:35.460139 13846 net.cpp:386] inception_3a/relu_3x3 -> inception_3a/3x3 (in-place)
I0403 15:38:35.460424 13846 net.cpp:141] Setting up inception_3a/relu_3x3
I0403 15:38:35.460453 13846 net.cpp:148] Top shape: 24 128 28 28 (2408448)
I0403 15:38:35.460469 13846 net.cpp:156] Memory required for data: 534676512
I0403 15:38:35.460484 13846 layer_factory.hpp:77] Creating layer inception_3a/5x5_reduce
I0403 15:38:35.460507 13846 net.cpp:91] Creating Layer inception_3a/5x5_reduce
I0403 15:38:35.460525 13846 net.cpp:425] inception_3a/5x5_reduce <- pool2/3x3_s2_pool2/3x3_s2_0_split_2
I0403 15:38:35.460546 13846 net.cpp:399] inception_3a/5x5_reduce -> inception_3a/5x5_reduce
I0403 15:38:35.461551 13846 net.cpp:141] Setting up inception_3a/5x5_reduce
I0403 15:38:35.461581 13846 net.cpp:148] Top shape: 24 16 28 28 (301056)
I0403 15:38:35.461598 13846 net.cpp:156] Memory required for data: 535880736
I0403 15:38:35.461617 13846 layer_factory.hpp:77] Creating layer inception_3a/relu_5x5_reduce
I0403 15:38:35.461639 13846 net.cpp:91] Creating Layer inception_3a/relu_5x5_reduce
I0403 15:38:35.461658 13846 net.cpp:425] inception_3a/relu_5x5_reduce <- inception_3a/5x5_reduce
I0403 15:38:35.461676 13846 net.cpp:386] inception_3a/relu_5x5_reduce -> inception_3a/5x5_reduce (in-place)
I0403 15:38:35.461983 13846 net.cpp:141] Setting up inception_3a/relu_5x5_reduce
I0403 15:38:35.462013 13846 net.cpp:148] Top shape: 24 16 28 28 (301056)
I0403 15:38:35.462030 13846 net.cpp:156] Memory required for data: 537084960
I0403 15:38:35.462045 13846 layer_factory.hpp:77] Creating layer inception_3a/5x5
I0403 15:38:35.462067 13846 net.cpp:91] Creating Layer inception_3a/5x5
I0403 15:38:35.462083 13846 net.cpp:425] inception_3a/5x5 <- inception_3a/5x5_reduce
I0403 15:38:35.462106 13846 net.cpp:399] inception_3a/5x5 -> inception_3a/5x5
I0403 15:38:35.463188 13846 net.cpp:141] Setting up inception_3a/5x5
I0403 15:38:35.463218 13846 net.cpp:148] Top shape: 24 32 28 28 (602112)
I0403 15:38:35.463234 13846 net.cpp:156] Memory required for data: 539493408
I0403 15:38:35.463253 13846 layer_factory.hpp:77] Creating layer inception_3a/relu_5x5
I0403 15:38:35.463275 13846 net.cpp:91] Creating Layer inception_3a/relu_5x5
I0403 15:38:35.463292 13846 net.cpp:425] inception_3a/relu_5x5 <- inception_3a/5x5
I0403 15:38:35.463310 13846 net.cpp:386] inception_3a/relu_5x5 -> inception_3a/5x5 (in-place)
I0403 15:38:35.463492 13846 net.cpp:141] Setting up inception_3a/relu_5x5
I0403 15:38:35.463520 13846 net.cpp:148] Top shape: 24 32 28 28 (602112)
I0403 15:38:35.463534 13846 net.cpp:156] Memory required for data: 541901856
I0403 15:38:35.463549 13846 layer_factory.hpp:77] Creating layer inception_3a/pool
I0403 15:38:35.463569 13846 net.cpp:91] Creating Layer inception_3a/pool
I0403 15:38:35.463587 13846 net.cpp:425] inception_3a/pool <- pool2/3x3_s2_pool2/3x3_s2_0_split_3
I0403 15:38:35.463623 13846 net.cpp:399] inception_3a/pool -> inception_3a/pool
I0403 15:38:35.463685 13846 net.cpp:141] Setting up inception_3a/pool
I0403 15:38:35.463711 13846 net.cpp:148] Top shape: 24 192 28 28 (3612672)
I0403 15:38:35.463726 13846 net.cpp:156] Memory required for data: 556352544
I0403 15:38:35.463742 13846 layer_factory.hpp:77] Creating layer inception_3a/pool_proj
I0403 15:38:35.463764 13846 net.cpp:91] Creating Layer inception_3a/pool_proj
I0403 15:38:35.463783 13846 net.cpp:425] inception_3a/pool_proj <- inception_3a/pool
I0403 15:38:35.463806 13846 net.cpp:399] inception_3a/pool_proj -> inception_3a/pool_proj
I0403 15:38:35.464808 13846 net.cpp:141] Setting up inception_3a/pool_proj
I0403 15:38:35.464840 13846 net.cpp:148] Top shape: 24 32 28 28 (602112)
I0403 15:38:35.464859 13846 net.cpp:156] Memory required for data: 558760992
I0403 15:38:35.464881 13846 layer_factory.hpp:77] Creating layer inception_3a/relu_pool_proj
I0403 15:38:35.464906 13846 net.cpp:91] Creating Layer inception_3a/relu_pool_proj
I0403 15:38:35.464926 13846 net.cpp:425] inception_3a/relu_pool_proj <- inception_3a/pool_proj
I0403 15:38:35.464943 13846 net.cpp:386] inception_3a/relu_pool_proj -> inception_3a/pool_proj (in-place)
I0403 15:38:35.465235 13846 net.cpp:141] Setting up inception_3a/relu_pool_proj
I0403 15:38:35.465263 13846 net.cpp:148] Top shape: 24 32 28 28 (602112)
I0403 15:38:35.465279 13846 net.cpp:156] Memory required for data: 561169440
I0403 15:38:35.465294 13846 layer_factory.hpp:77] Creating layer inception_3a/output
I0403 15:38:35.465312 13846 net.cpp:91] Creating Layer inception_3a/output
I0403 15:38:35.465328 13846 net.cpp:425] inception_3a/output <- inception_3a/1x1
I0403 15:38:35.465344 13846 net.cpp:425] inception_3a/output <- inception_3a/3x3
I0403 15:38:35.465366 13846 net.cpp:425] inception_3a/output <- inception_3a/5x5
I0403 15:38:35.465383 13846 net.cpp:425] inception_3a/output <- inception_3a/pool_proj
I0403 15:38:35.465400 13846 net.cpp:399] inception_3a/output -> inception_3a/output
I0403 15:38:35.465448 13846 net.cpp:141] Setting up inception_3a/output
I0403 15:38:35.465476 13846 net.cpp:148] Top shape: 24 256 28 28 (4816896)
I0403 15:38:35.465492 13846 net.cpp:156] Memory required for data: 580437024
I0403 15:38:35.465507 13846 layer_factory.hpp:77] Creating layer inception_3a/output_inception_3a/output_0_split
I0403 15:38:35.465524 13846 net.cpp:91] Creating Layer inception_3a/output_inception_3a/output_0_split
I0403 15:38:35.465540 13846 net.cpp:425] inception_3a/output_inception_3a/output_0_split <- inception_3a/output
I0403 15:38:35.465560 13846 net.cpp:399] inception_3a/output_inception_3a/output_0_split -> inception_3a/output_inception_3a/output_0_split_0
I0403 15:38:35.465582 13846 net.cpp:399] inception_3a/output_inception_3a/output_0_split -> inception_3a/output_inception_3a/output_0_split_1
I0403 15:38:35.465606 13846 net.cpp:399] inception_3a/output_inception_3a/output_0_split -> inception_3a/output_inception_3a/output_0_split_2
I0403 15:38:35.465628 13846 net.cpp:399] inception_3a/output_inception_3a/output_0_split -> inception_3a/output_inception_3a/output_0_split_3
I0403 15:38:35.465708 13846 net.cpp:141] Setting up inception_3a/output_inception_3a/output_0_split
I0403 15:38:35.465734 13846 net.cpp:148] Top shape: 24 256 28 28 (4816896)
I0403 15:38:35.465750 13846 net.cpp:148] Top shape: 24 256 28 28 (4816896)
I0403 15:38:35.465767 13846 net.cpp:148] Top shape: 24 256 28 28 (4816896)
I0403 15:38:35.465783 13846 net.cpp:148] Top shape: 24 256 28 28 (4816896)
I0403 15:38:35.465796 13846 net.cpp:156] Memory required for data: 657507360
I0403 15:38:35.465812 13846 layer_factory.hpp:77] Creating layer inception_3b/1x1
I0403 15:38:35.465836 13846 net.cpp:91] Creating Layer inception_3b/1x1
I0403 15:38:35.465854 13846 net.cpp:425] inception_3b/1x1 <- inception_3a/output_inception_3a/output_0_split_0
I0403 15:38:35.465876 13846 net.cpp:399] inception_3b/1x1 -> inception_3b/1x1
I0403 15:38:35.467069 13846 net.cpp:141] Setting up inception_3b/1x1
I0403 15:38:35.467110 13846 net.cpp:148] Top shape: 24 128 28 28 (2408448)
I0403 15:38:35.467133 13846 net.cpp:156] Memory required for data: 667141152
I0403 15:38:35.467154 13846 layer_factory.hpp:77] Creating layer inception_3b/relu_1x1
I0403 15:38:35.467173 13846 net.cpp:91] Creating Layer inception_3b/relu_1x1
I0403 15:38:35.467191 13846 net.cpp:425] inception_3b/relu_1x1 <- inception_3b/1x1
I0403 15:38:35.467212 13846 net.cpp:386] inception_3b/relu_1x1 -> inception_3b/1x1 (in-place)
I0403 15:38:35.467396 13846 net.cpp:141] Setting up inception_3b/relu_1x1
I0403 15:38:35.467423 13846 net.cpp:148] Top shape: 24 128 28 28 (2408448)
I0403 15:38:35.467438 13846 net.cpp:156] Memory required for data: 676774944
I0403 15:38:35.467453 13846 layer_factory.hpp:77] Creating layer inception_3b/3x3_reduce
I0403 15:38:35.467476 13846 net.cpp:91] Creating Layer inception_3b/3x3_reduce
I0403 15:38:35.467494 13846 net.cpp:425] inception_3b/3x3_reduce <- inception_3a/output_inception_3a/output_0_split_1
I0403 15:38:35.467516 13846 net.cpp:399] inception_3b/3x3_reduce -> inception_3b/3x3_reduce
I0403 15:38:35.468711 13846 net.cpp:141] Setting up inception_3b/3x3_reduce
I0403 15:38:35.468745 13846 net.cpp:148] Top shape: 24 128 28 28 (2408448)
I0403 15:38:35.468763 13846 net.cpp:156] Memory required for data: 686408736
I0403 15:38:35.468782 13846 layer_factory.hpp:77] Creating layer inception_3b/relu_3x3_reduce
I0403 15:38:35.468801 13846 net.cpp:91] Creating Layer inception_3b/relu_3x3_reduce
I0403 15:38:35.468817 13846 net.cpp:425] inception_3b/relu_3x3_reduce <- inception_3b/3x3_reduce
I0403 15:38:35.468838 13846 net.cpp:386] inception_3b/relu_3x3_reduce -> inception_3b/3x3_reduce (in-place)
I0403 15:38:35.469022 13846 net.cpp:141] Setting up inception_3b/relu_3x3_reduce
I0403 15:38:35.469049 13846 net.cpp:148] Top shape: 24 128 28 28 (2408448)
I0403 15:38:35.469065 13846 net.cpp:156] Memory required for data: 696042528
I0403 15:38:35.469080 13846 layer_factory.hpp:77] Creating layer inception_3b/3x3
I0403 15:38:35.469108 13846 net.cpp:91] Creating Layer inception_3b/3x3
I0403 15:38:35.469133 13846 net.cpp:425] inception_3b/3x3 <- inception_3b/3x3_reduce
I0403 15:38:35.469156 13846 net.cpp:399] inception_3b/3x3 -> inception_3b/3x3
I0403 15:38:35.472239 13846 net.cpp:141] Setting up inception_3b/3x3
I0403 15:38:35.472278 13846 net.cpp:148] Top shape: 24 192 28 28 (3612672)
I0403 15:38:35.472295 13846 net.cpp:156] Memory required for data: 710493216
I0403 15:38:35.472313 13846 layer_factory.hpp:77] Creating layer inception_3b/relu_3x3
I0403 15:38:35.472333 13846 net.cpp:91] Creating Layer inception_3b/relu_3x3
I0403 15:38:35.472352 13846 net.cpp:425] inception_3b/relu_3x3 <- inception_3b/3x3
I0403 15:38:35.472369 13846 net.cpp:386] inception_3b/relu_3x3 -> inception_3b/3x3 (in-place)
I0403 15:38:35.472667 13846 net.cpp:141] Setting up inception_3b/relu_3x3
I0403 15:38:35.472693 13846 net.cpp:148] Top shape: 24 192 28 28 (3612672)
I0403 15:38:35.472708 13846 net.cpp:156] Memory required for data: 724943904
I0403 15:38:35.472723 13846 layer_factory.hpp:77] Creating layer inception_3b/5x5_reduce
I0403 15:38:35.472746 13846 net.cpp:91] Creating Layer inception_3b/5x5_reduce
I0403 15:38:35.472764 13846 net.cpp:425] inception_3b/5x5_reduce <- inception_3a/output_inception_3a/output_0_split_2
I0403 15:38:35.472786 13846 net.cpp:399] inception_3b/5x5_reduce -> inception_3b/5x5_reduce
I0403 15:38:35.473783 13846 net.cpp:141] Setting up inception_3b/5x5_reduce
I0403 15:38:35.473811 13846 net.cpp:148] Top shape: 24 32 28 28 (602112)
I0403 15:38:35.473827 13846 net.cpp:156] Memory required for data: 727352352
I0403 15:38:35.473845 13846 layer_factory.hpp:77] Creating layer inception_3b/relu_5x5_reduce
I0403 15:38:35.473865 13846 net.cpp:91] Creating Layer inception_3b/relu_5x5_reduce
I0403 15:38:35.473882 13846 net.cpp:425] inception_3b/relu_5x5_reduce <- inception_3b/5x5_reduce
I0403 15:38:35.473901 13846 net.cpp:386] inception_3b/relu_5x5_reduce -> inception_3b/5x5_reduce (in-place)
I0403 15:38:35.474072 13846 net.cpp:141] Setting up inception_3b/relu_5x5_reduce
I0403 15:38:35.474112 13846 net.cpp:148] Top shape: 24 32 28 28 (602112)
I0403 15:38:35.474131 13846 net.cpp:156] Memory required for data: 729760800
I0403 15:38:35.474148 13846 layer_factory.hpp:77] Creating layer inception_3b/5x5
I0403 15:38:35.474171 13846 net.cpp:91] Creating Layer inception_3b/5x5
I0403 15:38:35.474191 13846 net.cpp:425] inception_3b/5x5 <- inception_3b/5x5_reduce
I0403 15:38:35.474210 13846 net.cpp:399] inception_3b/5x5 -> inception_3b/5x5
I0403 15:38:35.476157 13846 net.cpp:141] Setting up inception_3b/5x5
I0403 15:38:35.476188 13846 net.cpp:148] Top shape: 24 96 28 28 (1806336)
I0403 15:38:35.476204 13846 net.cpp:156] Memory required for data: 736986144
I0403 15:38:35.476223 13846 layer_factory.hpp:77] Creating layer inception_3b/relu_5x5
I0403 15:38:35.476240 13846 net.cpp:91] Creating Layer inception_3b/relu_5x5
I0403 15:38:35.476256 13846 net.cpp:425] inception_3b/relu_5x5 <- inception_3b/5x5
I0403 15:38:35.476277 13846 net.cpp:386] inception_3b/relu_5x5 -> inception_3b/5x5 (in-place)
I0403 15:38:35.476469 13846 net.cpp:141] Setting up inception_3b/relu_5x5
I0403 15:38:35.476493 13846 net.cpp:148] Top shape: 24 96 28 28 (1806336)
I0403 15:38:35.476508 13846 net.cpp:156] Memory required for data: 744211488
I0403 15:38:35.476523 13846 layer_factory.hpp:77] Creating layer inception_3b/pool
I0403 15:38:35.476541 13846 net.cpp:91] Creating Layer inception_3b/pool
I0403 15:38:35.476555 13846 net.cpp:425] inception_3b/pool <- inception_3a/output_inception_3a/output_0_split_3
I0403 15:38:35.476573 13846 net.cpp:399] inception_3b/pool -> inception_3b/pool
I0403 15:38:35.476629 13846 net.cpp:141] Setting up inception_3b/pool
I0403 15:38:35.476652 13846 net.cpp:148] Top shape: 24 256 28 28 (4816896)
I0403 15:38:35.476666 13846 net.cpp:156] Memory required for data: 763479072
I0403 15:38:35.476680 13846 layer_factory.hpp:77] Creating layer inception_3b/pool_proj
I0403 15:38:35.476703 13846 net.cpp:91] Creating Layer inception_3b/pool_proj
I0403 15:38:35.476722 13846 net.cpp:425] inception_3b/pool_proj <- inception_3b/pool
I0403 15:38:35.476739 13846 net.cpp:399] inception_3b/pool_proj -> inception_3b/pool_proj
I0403 15:38:35.477789 13846 net.cpp:141] Setting up inception_3b/pool_proj
I0403 15:38:35.477818 13846 net.cpp:148] Top shape: 24 64 28 28 (1204224)
I0403 15:38:35.477833 13846 net.cpp:156] Memory required for data: 768295968
I0403 15:38:35.477850 13846 layer_factory.hpp:77] Creating layer inception_3b/relu_pool_proj
I0403 15:38:35.477871 13846 net.cpp:91] Creating Layer inception_3b/relu_pool_proj
I0403 15:38:35.477888 13846 net.cpp:425] inception_3b/relu_pool_proj <- inception_3b/pool_proj
I0403 15:38:35.477906 13846 net.cpp:386] inception_3b/relu_pool_proj -> inception_3b/pool_proj (in-place)
I0403 15:38:35.478296 13846 net.cpp:141] Setting up inception_3b/relu_pool_proj
I0403 15:38:35.478322 13846 net.cpp:148] Top shape: 24 64 28 28 (1204224)
I0403 15:38:35.478335 13846 net.cpp:156] Memory required for data: 773112864
I0403 15:38:35.478350 13846 layer_factory.hpp:77] Creating layer inception_3b/output
I0403 15:38:35.478370 13846 net.cpp:91] Creating Layer inception_3b/output
I0403 15:38:35.478386 13846 net.cpp:425] inception_3b/output <- inception_3b/1x1
I0403 15:38:35.478404 13846 net.cpp:425] inception_3b/output <- inception_3b/3x3
I0403 15:38:35.478418 13846 net.cpp:425] inception_3b/output <- inception_3b/5x5
I0403 15:38:35.478435 13846 net.cpp:425] inception_3b/output <- inception_3b/pool_proj
I0403 15:38:35.478451 13846 net.cpp:399] inception_3b/output -> inception_3b/output
I0403 15:38:35.478494 13846 net.cpp:141] Setting up inception_3b/output
I0403 15:38:35.478518 13846 net.cpp:148] Top shape: 24 480 28 28 (9031680)
I0403 15:38:35.478533 13846 net.cpp:156] Memory required for data: 809239584
I0403 15:38:35.478548 13846 layer_factory.hpp:77] Creating layer pool3/3x3_s2
I0403 15:38:35.478564 13846 net.cpp:91] Creating Layer pool3/3x3_s2
I0403 15:38:35.478579 13846 net.cpp:425] pool3/3x3_s2 <- inception_3b/output
I0403 15:38:35.478600 13846 net.cpp:399] pool3/3x3_s2 -> pool3/3x3_s2
I0403 15:38:35.478672 13846 net.cpp:141] Setting up pool3/3x3_s2
I0403 15:38:35.478699 13846 net.cpp:148] Top shape: 24 480 14 14 (2257920)
I0403 15:38:35.478716 13846 net.cpp:156] Memory required for data: 818271264
I0403 15:38:35.478731 13846 layer_factory.hpp:77] Creating layer pool3/3x3_s2_pool3/3x3_s2_0_split
I0403 15:38:35.478747 13846 net.cpp:91] Creating Layer pool3/3x3_s2_pool3/3x3_s2_0_split
I0403 15:38:35.478762 13846 net.cpp:425] pool3/3x3_s2_pool3/3x3_s2_0_split <- pool3/3x3_s2
I0403 15:38:35.478778 13846 net.cpp:399] pool3/3x3_s2_pool3/3x3_s2_0_split -> pool3/3x3_s2_pool3/3x3_s2_0_split_0
I0403 15:38:35.478801 13846 net.cpp:399] pool3/3x3_s2_pool3/3x3_s2_0_split -> pool3/3x3_s2_pool3/3x3_s2_0_split_1
I0403 15:38:35.478821 13846 net.cpp:399] pool3/3x3_s2_pool3/3x3_s2_0_split -> pool3/3x3_s2_pool3/3x3_s2_0_split_2
I0403 15:38:35.478839 13846 net.cpp:399] pool3/3x3_s2_pool3/3x3_s2_0_split -> pool3/3x3_s2_pool3/3x3_s2_0_split_3
I0403 15:38:35.478915 13846 net.cpp:141] Setting up pool3/3x3_s2_pool3/3x3_s2_0_split
I0403 15:38:35.478938 13846 net.cpp:148] Top shape: 24 480 14 14 (2257920)
I0403 15:38:35.478955 13846 net.cpp:148] Top shape: 24 480 14 14 (2257920)
I0403 15:38:35.478970 13846 net.cpp:148] Top shape: 24 480 14 14 (2257920)
I0403 15:38:35.478986 13846 net.cpp:148] Top shape: 24 480 14 14 (2257920)
I0403 15:38:35.478998 13846 net.cpp:156] Memory required for data: 854397984
I0403 15:38:35.479013 13846 layer_factory.hpp:77] Creating layer inception_4a/1x1
I0403 15:38:35.479037 13846 net.cpp:91] Creating Layer inception_4a/1x1
I0403 15:38:35.479054 13846 net.cpp:425] inception_4a/1x1 <- pool3/3x3_s2_pool3/3x3_s2_0_split_0
I0403 15:38:35.479074 13846 net.cpp:399] inception_4a/1x1 -> inception_4a/1x1
I0403 15:38:35.480638 13846 net.cpp:141] Setting up inception_4a/1x1
I0403 15:38:35.480665 13846 net.cpp:148] Top shape: 24 192 14 14 (903168)
I0403 15:38:35.480680 13846 net.cpp:156] Memory required for data: 858010656
I0403 15:38:35.480700 13846 layer_factory.hpp:77] Creating layer inception_4a/relu_1x1
I0403 15:38:35.480718 13846 net.cpp:91] Creating Layer inception_4a/relu_1x1
I0403 15:38:35.480736 13846 net.cpp:425] inception_4a/relu_1x1 <- inception_4a/1x1
I0403 15:38:35.480752 13846 net.cpp:386] inception_4a/relu_1x1 -> inception_4a/1x1 (in-place)
I0403 15:38:35.480931 13846 net.cpp:141] Setting up inception_4a/relu_1x1
I0403 15:38:35.480957 13846 net.cpp:148] Top shape: 24 192 14 14 (903168)
I0403 15:38:35.480973 13846 net.cpp:156] Memory required for data: 861623328
I0403 15:38:35.480986 13846 layer_factory.hpp:77] Creating layer inception_4a/3x3_reduce
I0403 15:38:35.481009 13846 net.cpp:91] Creating Layer inception_4a/3x3_reduce
I0403 15:38:35.481026 13846 net.cpp:425] inception_4a/3x3_reduce <- pool3/3x3_s2_pool3/3x3_s2_0_split_1
I0403 15:38:35.481047 13846 net.cpp:399] inception_4a/3x3_reduce -> inception_4a/3x3_reduce
I0403 15:38:35.482316 13846 net.cpp:141] Setting up inception_4a/3x3_reduce
I0403 15:38:35.482347 13846 net.cpp:148] Top shape: 24 96 14 14 (451584)
I0403 15:38:35.482364 13846 net.cpp:156] Memory required for data: 863429664
I0403 15:38:35.482388 13846 layer_factory.hpp:77] Creating layer inception_4a/relu_3x3_reduce
I0403 15:38:35.482409 13846 net.cpp:91] Creating Layer inception_4a/relu_3x3_reduce
I0403 15:38:35.482426 13846 net.cpp:425] inception_4a/relu_3x3_reduce <- inception_4a/3x3_reduce
I0403 15:38:35.482445 13846 net.cpp:386] inception_4a/relu_3x3_reduce -> inception_4a/3x3_reduce (in-place)
I0403 15:38:35.482620 13846 net.cpp:141] Setting up inception_4a/relu_3x3_reduce
I0403 15:38:35.482645 13846 net.cpp:148] Top shape: 24 96 14 14 (451584)
I0403 15:38:35.482661 13846 net.cpp:156] Memory required for data: 865236000
I0403 15:38:35.482674 13846 layer_factory.hpp:77] Creating layer inception_4a/3x3
I0403 15:38:35.482699 13846 net.cpp:91] Creating Layer inception_4a/3x3
I0403 15:38:35.482718 13846 net.cpp:425] inception_4a/3x3 <- inception_4a/3x3_reduce
I0403 15:38:35.482740 13846 net.cpp:399] inception_4a/3x3 -> inception_4a/3x3
I0403 15:38:35.485447 13846 net.cpp:141] Setting up inception_4a/3x3
I0403 15:38:35.485479 13846 net.cpp:148] Top shape: 24 208 14 14 (978432)
I0403 15:38:35.485497 13846 net.cpp:156] Memory required for data: 869149728
I0403 15:38:35.485515 13846 layer_factory.hpp:77] Creating layer inception_4a/relu_3x3
I0403 15:38:35.485534 13846 net.cpp:91] Creating Layer inception_4a/relu_3x3
I0403 15:38:35.485553 13846 net.cpp:425] inception_4a/relu_3x3 <- inception_4a/3x3
I0403 15:38:35.485574 13846 net.cpp:386] inception_4a/relu_3x3 -> inception_4a/3x3 (in-place)
I0403 15:38:35.485860 13846 net.cpp:141] Setting up inception_4a/relu_3x3
I0403 15:38:35.485890 13846 net.cpp:148] Top shape: 24 208 14 14 (978432)
I0403 15:38:35.485908 13846 net.cpp:156] Memory required for data: 873063456
I0403 15:38:35.485924 13846 layer_factory.hpp:77] Creating layer inception_4a/5x5_reduce
I0403 15:38:35.485947 13846 net.cpp:91] Creating Layer inception_4a/5x5_reduce
I0403 15:38:35.485965 13846 net.cpp:425] inception_4a/5x5_reduce <- pool3/3x3_s2_pool3/3x3_s2_0_split_2
I0403 15:38:35.485987 13846 net.cpp:399] inception_4a/5x5_reduce -> inception_4a/5x5_reduce
I0403 15:38:35.487038 13846 net.cpp:141] Setting up inception_4a/5x5_reduce
I0403 15:38:35.487068 13846 net.cpp:148] Top shape: 24 16 14 14 (75264)
I0403 15:38:35.487083 13846 net.cpp:156] Memory required for data: 873364512
I0403 15:38:35.487103 13846 layer_factory.hpp:77] Creating layer inception_4a/relu_5x5_reduce
I0403 15:38:35.487124 13846 net.cpp:91] Creating Layer inception_4a/relu_5x5_reduce
I0403 15:38:35.487149 13846 net.cpp:425] inception_4a/relu_5x5_reduce <- inception_4a/5x5_reduce
I0403 15:38:35.487166 13846 net.cpp:386] inception_4a/relu_5x5_reduce -> inception_4a/5x5_reduce (in-place)
I0403 15:38:35.487351 13846 net.cpp:141] Setting up inception_4a/relu_5x5_reduce
I0403 15:38:35.487377 13846 net.cpp:148] Top shape: 24 16 14 14 (75264)
I0403 15:38:35.487392 13846 net.cpp:156] Memory required for data: 873665568
I0403 15:38:35.487407 13846 layer_factory.hpp:77] Creating layer inception_4a/5x5
I0403 15:38:35.487429 13846 net.cpp:91] Creating Layer inception_4a/5x5
I0403 15:38:35.487447 13846 net.cpp:425] inception_4a/5x5 <- inception_4a/5x5_reduce
I0403 15:38:35.487468 13846 net.cpp:399] inception_4a/5x5 -> inception_4a/5x5
I0403 15:38:35.488595 13846 net.cpp:141] Setting up inception_4a/5x5
I0403 15:38:35.488625 13846 net.cpp:148] Top shape: 24 48 14 14 (225792)
I0403 15:38:35.488641 13846 net.cpp:156] Memory required for data: 874568736
I0403 15:38:35.488659 13846 layer_factory.hpp:77] Creating layer inception_4a/relu_5x5
I0403 15:38:35.488682 13846 net.cpp:91] Creating Layer inception_4a/relu_5x5
I0403 15:38:35.488699 13846 net.cpp:425] inception_4a/relu_5x5 <- inception_4a/5x5
I0403 15:38:35.488718 13846 net.cpp:386] inception_4a/relu_5x5 -> inception_4a/5x5 (in-place)
I0403 15:38:35.488900 13846 net.cpp:141] Setting up inception_4a/relu_5x5
I0403 15:38:35.488929 13846 net.cpp:148] Top shape: 24 48 14 14 (225792)
I0403 15:38:35.488943 13846 net.cpp:156] Memory required for data: 875471904
I0403 15:38:35.488958 13846 layer_factory.hpp:77] Creating layer inception_4a/pool
I0403 15:38:35.488976 13846 net.cpp:91] Creating Layer inception_4a/pool
I0403 15:38:35.488993 13846 net.cpp:425] inception_4a/pool <- pool3/3x3_s2_pool3/3x3_s2_0_split_3
I0403 15:38:35.489014 13846 net.cpp:399] inception_4a/pool -> inception_4a/pool
I0403 15:38:35.489076 13846 net.cpp:141] Setting up inception_4a/pool
I0403 15:38:35.489102 13846 net.cpp:148] Top shape: 24 480 14 14 (2257920)
I0403 15:38:35.489117 13846 net.cpp:156] Memory required for data: 884503584
I0403 15:38:35.489138 13846 layer_factory.hpp:77] Creating layer inception_4a/pool_proj
I0403 15:38:35.489162 13846 net.cpp:91] Creating Layer inception_4a/pool_proj
I0403 15:38:35.489181 13846 net.cpp:425] inception_4a/pool_proj <- inception_4a/pool
I0403 15:38:35.489203 13846 net.cpp:399] inception_4a/pool_proj -> inception_4a/pool_proj
I0403 15:38:35.490397 13846 net.cpp:141] Setting up inception_4a/pool_proj
I0403 15:38:35.490429 13846 net.cpp:148] Top shape: 24 64 14 14 (301056)
I0403 15:38:35.490463 13846 net.cpp:156] Memory required for data: 885707808
I0403 15:38:35.490483 13846 layer_factory.hpp:77] Creating layer inception_4a/relu_pool_proj
I0403 15:38:35.490501 13846 net.cpp:91] Creating Layer inception_4a/relu_pool_proj
I0403 15:38:35.490519 13846 net.cpp:425] inception_4a/relu_pool_proj <- inception_4a/pool_proj
I0403 15:38:35.490535 13846 net.cpp:386] inception_4a/relu_pool_proj -> inception_4a/pool_proj (in-place)
I0403 15:38:35.490823 13846 net.cpp:141] Setting up inception_4a/relu_pool_proj
I0403 15:38:35.490852 13846 net.cpp:148] Top shape: 24 64 14 14 (301056)
I0403 15:38:35.490869 13846 net.cpp:156] Memory required for data: 886912032
I0403 15:38:35.490885 13846 layer_factory.hpp:77] Creating layer inception_4a/output
I0403 15:38:35.490901 13846 net.cpp:91] Creating Layer inception_4a/output
I0403 15:38:35.490917 13846 net.cpp:425] inception_4a/output <- inception_4a/1x1
I0403 15:38:35.490933 13846 net.cpp:425] inception_4a/output <- inception_4a/3x3
I0403 15:38:35.490949 13846 net.cpp:425] inception_4a/output <- inception_4a/5x5
I0403 15:38:35.490964 13846 net.cpp:425] inception_4a/output <- inception_4a/pool_proj
I0403 15:38:35.490981 13846 net.cpp:399] inception_4a/output -> inception_4a/output
I0403 15:38:35.491029 13846 net.cpp:141] Setting up inception_4a/output
I0403 15:38:35.491052 13846 net.cpp:148] Top shape: 24 512 14 14 (2408448)
I0403 15:38:35.491067 13846 net.cpp:156] Memory required for data: 896545824
I0403 15:38:35.491083 13846 layer_factory.hpp:77] Creating layer inception_4a/output_inception_4a/output_0_split
I0403 15:38:35.491103 13846 net.cpp:91] Creating Layer inception_4a/output_inception_4a/output_0_split
I0403 15:38:35.491120 13846 net.cpp:425] inception_4a/output_inception_4a/output_0_split <- inception_4a/output
I0403 15:38:35.491145 13846 net.cpp:399] inception_4a/output_inception_4a/output_0_split -> inception_4a/output_inception_4a/output_0_split_0
I0403 15:38:35.491168 13846 net.cpp:399] inception_4a/output_inception_4a/output_0_split -> inception_4a/output_inception_4a/output_0_split_1
I0403 15:38:35.491189 13846 net.cpp:399] inception_4a/output_inception_4a/output_0_split -> inception_4a/output_inception_4a/output_0_split_2
I0403 15:38:35.491209 13846 net.cpp:399] inception_4a/output_inception_4a/output_0_split -> inception_4a/output_inception_4a/output_0_split_3
I0403 15:38:35.491232 13846 net.cpp:399] inception_4a/output_inception_4a/output_0_split -> inception_4a/output_inception_4a/output_0_split_4
I0403 15:38:35.491331 13846 net.cpp:141] Setting up inception_4a/output_inception_4a/output_0_split
I0403 15:38:35.491356 13846 net.cpp:148] Top shape: 24 512 14 14 (2408448)
I0403 15:38:35.491372 13846 net.cpp:148] Top shape: 24 512 14 14 (2408448)
I0403 15:38:35.491389 13846 net.cpp:148] Top shape: 24 512 14 14 (2408448)
I0403 15:38:35.491403 13846 net.cpp:148] Top shape: 24 512 14 14 (2408448)
I0403 15:38:35.491420 13846 net.cpp:148] Top shape: 24 512 14 14 (2408448)
I0403 15:38:35.491435 13846 net.cpp:156] Memory required for data: 944714784
I0403 15:38:35.491449 13846 layer_factory.hpp:77] Creating layer loss1/ave_pool
I0403 15:38:35.491467 13846 net.cpp:91] Creating Layer loss1/ave_pool
I0403 15:38:35.491482 13846 net.cpp:425] loss1/ave_pool <- inception_4a/output_inception_4a/output_0_split_0
I0403 15:38:35.491530 13846 net.cpp:399] loss1/ave_pool -> loss1/ave_pool
I0403 15:38:35.491742 13846 net.cpp:141] Setting up loss1/ave_pool
I0403 15:38:35.491785 13846 net.cpp:148] Top shape: 24 512 4 4 (196608)
I0403 15:38:35.491801 13846 net.cpp:156] Memory required for data: 945501216
I0403 15:38:35.491817 13846 layer_factory.hpp:77] Creating layer loss1/conv
I0403 15:38:35.491840 13846 net.cpp:91] Creating Layer loss1/conv
I0403 15:38:35.491858 13846 net.cpp:425] loss1/conv <- loss1/ave_pool
I0403 15:38:35.491878 13846 net.cpp:399] loss1/conv -> loss1/conv
I0403 15:38:35.493330 13846 net.cpp:141] Setting up loss1/conv
I0403 15:38:35.493360 13846 net.cpp:148] Top shape: 24 128 4 4 (49152)
I0403 15:38:35.493377 13846 net.cpp:156] Memory required for data: 945697824
I0403 15:38:35.493412 13846 layer_factory.hpp:77] Creating layer loss1/relu_conv
I0403 15:38:35.493432 13846 net.cpp:91] Creating Layer loss1/relu_conv
I0403 15:38:35.493448 13846 net.cpp:425] loss1/relu_conv <- loss1/conv
I0403 15:38:35.493468 13846 net.cpp:386] loss1/relu_conv -> loss1/conv (in-place)
I0403 15:38:35.493757 13846 net.cpp:141] Setting up loss1/relu_conv
I0403 15:38:35.493784 13846 net.cpp:148] Top shape: 24 128 4 4 (49152)
I0403 15:38:35.493799 13846 net.cpp:156] Memory required for data: 945894432
I0403 15:38:35.493814 13846 layer_factory.hpp:77] Creating layer loss1/fc
I0403 15:38:35.493839 13846 net.cpp:91] Creating Layer loss1/fc
I0403 15:38:35.493857 13846 net.cpp:425] loss1/fc <- loss1/conv
I0403 15:38:35.493878 13846 net.cpp:399] loss1/fc -> loss1/fc
I0403 15:38:35.511909 13846 net.cpp:141] Setting up loss1/fc
I0403 15:38:35.511950 13846 net.cpp:148] Top shape: 24 1024 (24576)
I0403 15:38:35.511965 13846 net.cpp:156] Memory required for data: 945992736
I0403 15:38:35.511986 13846 layer_factory.hpp:77] Creating layer loss1/relu_fc
I0403 15:38:35.512006 13846 net.cpp:91] Creating Layer loss1/relu_fc
I0403 15:38:35.512025 13846 net.cpp:425] loss1/relu_fc <- loss1/fc
I0403 15:38:35.512043 13846 net.cpp:386] loss1/relu_fc -> loss1/fc (in-place)
I0403 15:38:35.512243 13846 net.cpp:141] Setting up loss1/relu_fc
I0403 15:38:35.512269 13846 net.cpp:148] Top shape: 24 1024 (24576)
I0403 15:38:35.512284 13846 net.cpp:156] Memory required for data: 946091040
I0403 15:38:35.512300 13846 layer_factory.hpp:77] Creating layer loss1/drop_fc
I0403 15:38:35.512326 13846 net.cpp:91] Creating Layer loss1/drop_fc
I0403 15:38:35.512343 13846 net.cpp:425] loss1/drop_fc <- loss1/fc
I0403 15:38:35.512362 13846 net.cpp:386] loss1/drop_fc -> loss1/fc (in-place)
I0403 15:38:35.512414 13846 net.cpp:141] Setting up loss1/drop_fc
I0403 15:38:35.512439 13846 net.cpp:148] Top shape: 24 1024 (24576)
I0403 15:38:35.512452 13846 net.cpp:156] Memory required for data: 946189344
I0403 15:38:35.512468 13846 layer_factory.hpp:77] Creating layer loss1/classifier_plantvillage
I0403 15:38:35.512490 13846 net.cpp:91] Creating Layer loss1/classifier_plantvillage
I0403 15:38:35.512506 13846 net.cpp:425] loss1/classifier_plantvillage <- loss1/fc
I0403 15:38:35.512527 13846 net.cpp:399] loss1/classifier_plantvillage -> loss1/classifier_plantvillage
I0403 15:38:35.513439 13846 net.cpp:141] Setting up loss1/classifier_plantvillage
I0403 15:38:35.513469 13846 net.cpp:148] Top shape: 24 38 (912)
I0403 15:38:35.513486 13846 net.cpp:156] Memory required for data: 946192992
I0403 15:38:35.513505 13846 layer_factory.hpp:77] Creating layer loss1/classifier_plantvillage_loss1/classifier_plantvillage_0_split
I0403 15:38:35.513522 13846 net.cpp:91] Creating Layer loss1/classifier_plantvillage_loss1/classifier_plantvillage_0_split
I0403 15:38:35.513537 13846 net.cpp:425] loss1/classifier_plantvillage_loss1/classifier_plantvillage_0_split <- loss1/classifier_plantvillage
I0403 15:38:35.513557 13846 net.cpp:399] loss1/classifier_plantvillage_loss1/classifier_plantvillage_0_split -> loss1/classifier_plantvillage_loss1/classifier_plantvillage_0_split_0
I0403 15:38:35.513577 13846 net.cpp:399] loss1/classifier_plantvillage_loss1/classifier_plantvillage_0_split -> loss1/classifier_plantvillage_loss1/classifier_plantvillage_0_split_1
I0403 15:38:35.513598 13846 net.cpp:399] loss1/classifier_plantvillage_loss1/classifier_plantvillage_0_split -> loss1/classifier_plantvillage_loss1/classifier_plantvillage_0_split_2
I0403 15:38:35.513664 13846 net.cpp:141] Setting up loss1/classifier_plantvillage_loss1/classifier_plantvillage_0_split
I0403 15:38:35.513687 13846 net.cpp:148] Top shape: 24 38 (912)
I0403 15:38:35.513703 13846 net.cpp:148] Top shape: 24 38 (912)
I0403 15:38:35.513717 13846 net.cpp:148] Top shape: 24 38 (912)
I0403 15:38:35.513731 13846 net.cpp:156] Memory required for data: 946203936
I0403 15:38:35.513746 13846 layer_factory.hpp:77] Creating layer inception_4b/1x1
I0403 15:38:35.513767 13846 net.cpp:91] Creating Layer inception_4b/1x1
I0403 15:38:35.513804 13846 net.cpp:425] inception_4b/1x1 <- inception_4a/output_inception_4a/output_0_split_1
I0403 15:38:35.513824 13846 net.cpp:399] inception_4b/1x1 -> inception_4b/1x1
I0403 15:38:35.515468 13846 net.cpp:141] Setting up inception_4b/1x1
I0403 15:38:35.515497 13846 net.cpp:148] Top shape: 24 160 14 14 (752640)
I0403 15:38:35.515513 13846 net.cpp:156] Memory required for data: 949214496
I0403 15:38:35.515532 13846 layer_factory.hpp:77] Creating layer inception_4b/relu_1x1
I0403 15:38:35.515548 13846 net.cpp:91] Creating Layer inception_4b/relu_1x1
I0403 15:38:35.515566 13846 net.cpp:425] inception_4b/relu_1x1 <- inception_4b/1x1
I0403 15:38:35.515583 13846 net.cpp:386] inception_4b/relu_1x1 -> inception_4b/1x1 (in-place)
I0403 15:38:35.515760 13846 net.cpp:141] Setting up inception_4b/relu_1x1
I0403 15:38:35.515785 13846 net.cpp:148] Top shape: 24 160 14 14 (752640)
I0403 15:38:35.515800 13846 net.cpp:156] Memory required for data: 952225056
I0403 15:38:35.515815 13846 layer_factory.hpp:77] Creating layer inception_4b/3x3_reduce
I0403 15:38:35.515838 13846 net.cpp:91] Creating Layer inception_4b/3x3_reduce
I0403 15:38:35.515857 13846 net.cpp:425] inception_4b/3x3_reduce <- inception_4a/output_inception_4a/output_0_split_2
I0403 15:38:35.515879 13846 net.cpp:399] inception_4b/3x3_reduce -> inception_4b/3x3_reduce
I0403 15:38:35.517240 13846 net.cpp:141] Setting up inception_4b/3x3_reduce
I0403 15:38:35.517267 13846 net.cpp:148] Top shape: 24 112 14 14 (526848)
I0403 15:38:35.517283 13846 net.cpp:156] Memory required for data: 954332448
I0403 15:38:35.517302 13846 layer_factory.hpp:77] Creating layer inception_4b/relu_3x3_reduce
I0403 15:38:35.517323 13846 net.cpp:91] Creating Layer inception_4b/relu_3x3_reduce
I0403 15:38:35.517339 13846 net.cpp:425] inception_4b/relu_3x3_reduce <- inception_4b/3x3_reduce
I0403 15:38:35.517355 13846 net.cpp:386] inception_4b/relu_3x3_reduce -> inception_4b/3x3_reduce (in-place)
I0403 15:38:35.517639 13846 net.cpp:141] Setting up inception_4b/relu_3x3_reduce
I0403 15:38:35.517666 13846 net.cpp:148] Top shape: 24 112 14 14 (526848)
I0403 15:38:35.517683 13846 net.cpp:156] Memory required for data: 956439840
I0403 15:38:35.517698 13846 layer_factory.hpp:77] Creating layer inception_4b/3x3
I0403 15:38:35.517722 13846 net.cpp:91] Creating Layer inception_4b/3x3
I0403 15:38:35.517740 13846 net.cpp:425] inception_4b/3x3 <- inception_4b/3x3_reduce
I0403 15:38:35.517761 13846 net.cpp:399] inception_4b/3x3 -> inception_4b/3x3
I0403 15:38:35.520735 13846 net.cpp:141] Setting up inception_4b/3x3
I0403 15:38:35.520766 13846 net.cpp:148] Top shape: 24 224 14 14 (1053696)
I0403 15:38:35.520783 13846 net.cpp:156] Memory required for data: 960654624
I0403 15:38:35.520802 13846 layer_factory.hpp:77] Creating layer inception_4b/relu_3x3
I0403 15:38:35.520820 13846 net.cpp:91] Creating Layer inception_4b/relu_3x3
I0403 15:38:35.520836 13846 net.cpp:425] inception_4b/relu_3x3 <- inception_4b/3x3
I0403 15:38:35.520854 13846 net.cpp:386] inception_4b/relu_3x3 -> inception_4b/3x3 (in-place)
I0403 15:38:35.521036 13846 net.cpp:141] Setting up inception_4b/relu_3x3
I0403 15:38:35.521061 13846 net.cpp:148] Top shape: 24 224 14 14 (1053696)
I0403 15:38:35.521076 13846 net.cpp:156] Memory required for data: 964869408
I0403 15:38:35.521090 13846 layer_factory.hpp:77] Creating layer inception_4b/5x5_reduce
I0403 15:38:35.521112 13846 net.cpp:91] Creating Layer inception_4b/5x5_reduce
I0403 15:38:35.521136 13846 net.cpp:425] inception_4b/5x5_reduce <- inception_4a/output_inception_4a/output_0_split_3
I0403 15:38:35.521160 13846 net.cpp:399] inception_4b/5x5_reduce -> inception_4b/5x5_reduce
I0403 15:38:35.522244 13846 net.cpp:141] Setting up inception_4b/5x5_reduce
I0403 15:38:35.522272 13846 net.cpp:148] Top shape: 24 24 14 14 (112896)
I0403 15:38:35.522289 13846 net.cpp:156] Memory required for data: 965320992
I0403 15:38:35.522306 13846 layer_factory.hpp:77] Creating layer inception_4b/relu_5x5_reduce
I0403 15:38:35.522326 13846 net.cpp:91] Creating Layer inception_4b/relu_5x5_reduce
I0403 15:38:35.522357 13846 net.cpp:425] inception_4b/relu_5x5_reduce <- inception_4b/5x5_reduce
I0403 15:38:35.522375 13846 net.cpp:386] inception_4b/relu_5x5_reduce -> inception_4b/5x5_reduce (in-place)
I0403 15:38:35.522560 13846 net.cpp:141] Setting up inception_4b/relu_5x5_reduce
I0403 15:38:35.522585 13846 net.cpp:148] Top shape: 24 24 14 14 (112896)
I0403 15:38:35.522600 13846 net.cpp:156] Memory required for data: 965772576
I0403 15:38:35.522615 13846 layer_factory.hpp:77] Creating layer inception_4b/5x5
I0403 15:38:35.522637 13846 net.cpp:91] Creating Layer inception_4b/5x5
I0403 15:38:35.522655 13846 net.cpp:425] inception_4b/5x5 <- inception_4b/5x5_reduce
I0403 15:38:35.522675 13846 net.cpp:399] inception_4b/5x5 -> inception_4b/5x5
I0403 15:38:35.523913 13846 net.cpp:141] Setting up inception_4b/5x5
I0403 15:38:35.523941 13846 net.cpp:148] Top shape: 24 64 14 14 (301056)
I0403 15:38:35.523957 13846 net.cpp:156] Memory required for data: 966976800
I0403 15:38:35.523975 13846 layer_factory.hpp:77] Creating layer inception_4b/relu_5x5
I0403 15:38:35.523993 13846 net.cpp:91] Creating Layer inception_4b/relu_5x5
I0403 15:38:35.524013 13846 net.cpp:425] inception_4b/relu_5x5 <- inception_4b/5x5
I0403 15:38:35.524029 13846 net.cpp:386] inception_4b/relu_5x5 -> inception_4b/5x5 (in-place)
I0403 15:38:35.524320 13846 net.cpp:141] Setting up inception_4b/relu_5x5
I0403 15:38:35.524345 13846 net.cpp:148] Top shape: 24 64 14 14 (301056)
I0403 15:38:35.524360 13846 net.cpp:156] Memory required for data: 968181024
I0403 15:38:35.524374 13846 layer_factory.hpp:77] Creating layer inception_4b/pool
I0403 15:38:35.524392 13846 net.cpp:91] Creating Layer inception_4b/pool
I0403 15:38:35.524408 13846 net.cpp:425] inception_4b/pool <- inception_4a/output_inception_4a/output_0_split_4
I0403 15:38:35.524428 13846 net.cpp:399] inception_4b/pool -> inception_4b/pool
I0403 15:38:35.524492 13846 net.cpp:141] Setting up inception_4b/pool
I0403 15:38:35.524518 13846 net.cpp:148] Top shape: 24 512 14 14 (2408448)
I0403 15:38:35.524534 13846 net.cpp:156] Memory required for data: 977814816
I0403 15:38:35.524549 13846 layer_factory.hpp:77] Creating layer inception_4b/pool_proj
I0403 15:38:35.524570 13846 net.cpp:91] Creating Layer inception_4b/pool_proj
I0403 15:38:35.524588 13846 net.cpp:425] inception_4b/pool_proj <- inception_4b/pool
I0403 15:38:35.524607 13846 net.cpp:399] inception_4b/pool_proj -> inception_4b/pool_proj
I0403 15:38:35.525811 13846 net.cpp:141] Setting up inception_4b/pool_proj
I0403 15:38:35.525840 13846 net.cpp:148] Top shape: 24 64 14 14 (301056)
I0403 15:38:35.525856 13846 net.cpp:156] Memory required for data: 979019040
I0403 15:38:35.525873 13846 layer_factory.hpp:77] Creating layer inception_4b/relu_pool_proj
I0403 15:38:35.525893 13846 net.cpp:91] Creating Layer inception_4b/relu_pool_proj
I0403 15:38:35.525912 13846 net.cpp:425] inception_4b/relu_pool_proj <- inception_4b/pool_proj
I0403 15:38:35.525929 13846 net.cpp:386] inception_4b/relu_pool_proj -> inception_4b/pool_proj (in-place)
I0403 15:38:35.526113 13846 net.cpp:141] Setting up inception_4b/relu_pool_proj
I0403 15:38:35.526142 13846 net.cpp:148] Top shape: 24 64 14 14 (301056)
I0403 15:38:35.526159 13846 net.cpp:156] Memory required for data: 980223264
I0403 15:38:35.526173 13846 layer_factory.hpp:77] Creating layer inception_4b/output
I0403 15:38:35.526192 13846 net.cpp:91] Creating Layer inception_4b/output
I0403 15:38:35.526207 13846 net.cpp:425] inception_4b/output <- inception_4b/1x1
I0403 15:38:35.526223 13846 net.cpp:425] inception_4b/output <- inception_4b/3x3
I0403 15:38:35.526240 13846 net.cpp:425] inception_4b/output <- inception_4b/5x5
I0403 15:38:35.526257 13846 net.cpp:425] inception_4b/output <- inception_4b/pool_proj
I0403 15:38:35.526273 13846 net.cpp:399] inception_4b/output -> inception_4b/output
I0403 15:38:35.526321 13846 net.cpp:141] Setting up inception_4b/output
I0403 15:38:35.526345 13846 net.cpp:148] Top shape: 24 512 14 14 (2408448)
I0403 15:38:35.526360 13846 net.cpp:156] Memory required for data: 989857056
I0403 15:38:35.526388 13846 layer_factory.hpp:77] Creating layer inception_4b/output_inception_4b/output_0_split
I0403 15:38:35.526407 13846 net.cpp:91] Creating Layer inception_4b/output_inception_4b/output_0_split
I0403 15:38:35.526422 13846 net.cpp:425] inception_4b/output_inception_4b/output_0_split <- inception_4b/output
I0403 15:38:35.526442 13846 net.cpp:399] inception_4b/output_inception_4b/output_0_split -> inception_4b/output_inception_4b/output_0_split_0
I0403 15:38:35.526463 13846 net.cpp:399] inception_4b/output_inception_4b/output_0_split -> inception_4b/output_inception_4b/output_0_split_1
I0403 15:38:35.526484 13846 net.cpp:399] inception_4b/output_inception_4b/output_0_split -> inception_4b/output_inception_4b/output_0_split_2
I0403 15:38:35.526502 13846 net.cpp:399] inception_4b/output_inception_4b/output_0_split -> inception_4b/output_inception_4b/output_0_split_3
I0403 15:38:35.526587 13846 net.cpp:141] Setting up inception_4b/output_inception_4b/output_0_split
I0403 15:38:35.526613 13846 net.cpp:148] Top shape: 24 512 14 14 (2408448)
I0403 15:38:35.526630 13846 net.cpp:148] Top shape: 24 512 14 14 (2408448)
I0403 15:38:35.526646 13846 net.cpp:148] Top shape: 24 512 14 14 (2408448)
I0403 15:38:35.526661 13846 net.cpp:148] Top shape: 24 512 14 14 (2408448)
I0403 15:38:35.526675 13846 net.cpp:156] Memory required for data: 1028392224
I0403 15:38:35.526690 13846 layer_factory.hpp:77] Creating layer inception_4c/1x1
I0403 15:38:35.526712 13846 net.cpp:91] Creating Layer inception_4c/1x1
I0403 15:38:35.526731 13846 net.cpp:425] inception_4c/1x1 <- inception_4b/output_inception_4b/output_0_split_0
I0403 15:38:35.526749 13846 net.cpp:399] inception_4c/1x1 -> inception_4c/1x1
I0403 15:38:35.528188 13846 net.cpp:141] Setting up inception_4c/1x1
I0403 15:38:35.528218 13846 net.cpp:148] Top shape: 24 128 14 14 (602112)
I0403 15:38:35.528233 13846 net.cpp:156] Memory required for data: 1030800672
I0403 15:38:35.528251 13846 layer_factory.hpp:77] Creating layer inception_4c/relu_1x1
I0403 15:38:35.528272 13846 net.cpp:91] Creating Layer inception_4c/relu_1x1
I0403 15:38:35.528290 13846 net.cpp:425] inception_4c/relu_1x1 <- inception_4c/1x1
I0403 15:38:35.528308 13846 net.cpp:386] inception_4c/relu_1x1 -> inception_4c/1x1 (in-place)
I0403 15:38:35.528488 13846 net.cpp:141] Setting up inception_4c/relu_1x1
I0403 15:38:35.528513 13846 net.cpp:148] Top shape: 24 128 14 14 (602112)
I0403 15:38:35.528527 13846 net.cpp:156] Memory required for data: 1033209120
I0403 15:38:35.528542 13846 layer_factory.hpp:77] Creating layer inception_4c/3x3_reduce
I0403 15:38:35.528566 13846 net.cpp:91] Creating Layer inception_4c/3x3_reduce
I0403 15:38:35.528584 13846 net.cpp:425] inception_4c/3x3_reduce <- inception_4b/output_inception_4b/output_0_split_1
I0403 15:38:35.528604 13846 net.cpp:399] inception_4c/3x3_reduce -> inception_4c/3x3_reduce
I0403 15:38:35.530536 13846 net.cpp:141] Setting up inception_4c/3x3_reduce
I0403 15:38:35.530565 13846 net.cpp:148] Top shape: 24 128 14 14 (602112)
I0403 15:38:35.530580 13846 net.cpp:156] Memory required for data: 1035617568
I0403 15:38:35.530599 13846 layer_factory.hpp:77] Creating layer inception_4c/relu_3x3_reduce
I0403 15:38:35.530616 13846 net.cpp:91] Creating Layer inception_4c/relu_3x3_reduce
I0403 15:38:35.530633 13846 net.cpp:425] inception_4c/relu_3x3_reduce <- inception_4c/3x3_reduce
I0403 15:38:35.530652 13846 net.cpp:386] inception_4c/relu_3x3_reduce -> inception_4c/3x3_reduce (in-place)
I0403 15:38:35.530941 13846 net.cpp:141] Setting up inception_4c/relu_3x3_reduce
I0403 15:38:35.530968 13846 net.cpp:148] Top shape: 24 128 14 14 (602112)
I0403 15:38:35.530983 13846 net.cpp:156] Memory required for data: 1038026016
I0403 15:38:35.530998 13846 layer_factory.hpp:77] Creating layer inception_4c/3x3
I0403 15:38:35.531021 13846 net.cpp:91] Creating Layer inception_4c/3x3
I0403 15:38:35.531039 13846 net.cpp:425] inception_4c/3x3 <- inception_4c/3x3_reduce
I0403 15:38:35.531060 13846 net.cpp:399] inception_4c/3x3 -> inception_4c/3x3
I0403 15:38:35.534781 13846 net.cpp:141] Setting up inception_4c/3x3
I0403 15:38:35.534826 13846 net.cpp:148] Top shape: 24 256 14 14 (1204224)
I0403 15:38:35.534842 13846 net.cpp:156] Memory required for data: 1042842912
I0403 15:38:35.534875 13846 layer_factory.hpp:77] Creating layer inception_4c/relu_3x3
I0403 15:38:35.534899 13846 net.cpp:91] Creating Layer inception_4c/relu_3x3
I0403 15:38:35.534916 13846 net.cpp:425] inception_4c/relu_3x3 <- inception_4c/3x3
I0403 15:38:35.534934 13846 net.cpp:386] inception_4c/relu_3x3 -> inception_4c/3x3 (in-place)
I0403 15:38:35.535120 13846 net.cpp:141] Setting up inception_4c/relu_3x3
I0403 15:38:35.535151 13846 net.cpp:148] Top shape: 24 256 14 14 (1204224)
I0403 15:38:35.535171 13846 net.cpp:156] Memory required for data: 1047659808
I0403 15:38:35.535186 13846 layer_factory.hpp:77] Creating layer inception_4c/5x5_reduce
I0403 15:38:35.535209 13846 net.cpp:91] Creating Layer inception_4c/5x5_reduce
I0403 15:38:35.535229 13846 net.cpp:425] inception_4c/5x5_reduce <- inception_4b/output_inception_4b/output_0_split_2
I0403 15:38:35.535250 13846 net.cpp:399] inception_4c/5x5_reduce -> inception_4c/5x5_reduce
I0403 15:38:35.536376 13846 net.cpp:141] Setting up inception_4c/5x5_reduce
I0403 15:38:35.536404 13846 net.cpp:148] Top shape: 24 24 14 14 (112896)
I0403 15:38:35.536420 13846 net.cpp:156] Memory required for data: 1048111392
I0403 15:38:35.536439 13846 layer_factory.hpp:77] Creating layer inception_4c/relu_5x5_reduce
I0403 15:38:35.536458 13846 net.cpp:91] Creating Layer inception_4c/relu_5x5_reduce
I0403 15:38:35.536476 13846 net.cpp:425] inception_4c/relu_5x5_reduce <- inception_4c/5x5_reduce
I0403 15:38:35.536497 13846 net.cpp:386] inception_4c/relu_5x5_reduce -> inception_4c/5x5_reduce (in-place)
I0403 15:38:35.536687 13846 net.cpp:141] Setting up inception_4c/relu_5x5_reduce
I0403 15:38:35.536713 13846 net.cpp:148] Top shape: 24 24 14 14 (112896)
I0403 15:38:35.536727 13846 net.cpp:156] Memory required for data: 1048562976
I0403 15:38:35.536743 13846 layer_factory.hpp:77] Creating layer inception_4c/5x5
I0403 15:38:35.536767 13846 net.cpp:91] Creating Layer inception_4c/5x5
I0403 15:38:35.536783 13846 net.cpp:425] inception_4c/5x5 <- inception_4c/5x5_reduce
I0403 15:38:35.536808 13846 net.cpp:399] inception_4c/5x5 -> inception_4c/5x5
I0403 15:38:35.538084 13846 net.cpp:141] Setting up inception_4c/5x5
I0403 15:38:35.538113 13846 net.cpp:148] Top shape: 24 64 14 14 (301056)
I0403 15:38:35.538133 13846 net.cpp:156] Memory required for data: 1049767200
I0403 15:38:35.538154 13846 layer_factory.hpp:77] Creating layer inception_4c/relu_5x5
I0403 15:38:35.538177 13846 net.cpp:91] Creating Layer inception_4c/relu_5x5
I0403 15:38:35.538192 13846 net.cpp:425] inception_4c/relu_5x5 <- inception_4c/5x5
I0403 15:38:35.538210 13846 net.cpp:386] inception_4c/relu_5x5 -> inception_4c/5x5 (in-place)
I0403 15:38:35.538503 13846 net.cpp:141] Setting up inception_4c/relu_5x5
I0403 15:38:35.538530 13846 net.cpp:148] Top shape: 24 64 14 14 (301056)
I0403 15:38:35.538545 13846 net.cpp:156] Memory required for data: 1050971424
I0403 15:38:35.538560 13846 layer_factory.hpp:77] Creating layer inception_4c/pool
I0403 15:38:35.538581 13846 net.cpp:91] Creating Layer inception_4c/pool
I0403 15:38:35.538599 13846 net.cpp:425] inception_4c/pool <- inception_4b/output_inception_4b/output_0_split_3
I0403 15:38:35.538616 13846 net.cpp:399] inception_4c/pool -> inception_4c/pool
I0403 15:38:35.538686 13846 net.cpp:141] Setting up inception_4c/pool
I0403 15:38:35.538710 13846 net.cpp:148] Top shape: 24 512 14 14 (2408448)
I0403 15:38:35.538727 13846 net.cpp:156] Memory required for data: 1060605216
I0403 15:38:35.538741 13846 layer_factory.hpp:77] Creating layer inception_4c/pool_proj
I0403 15:38:35.538764 13846 net.cpp:91] Creating Layer inception_4c/pool_proj
I0403 15:38:35.538782 13846 net.cpp:425] inception_4c/pool_proj <- inception_4c/pool
I0403 15:38:35.538803 13846 net.cpp:399] inception_4c/pool_proj -> inception_4c/pool_proj
I0403 15:38:35.540060 13846 net.cpp:141] Setting up inception_4c/pool_proj
I0403 15:38:35.540089 13846 net.cpp:148] Top shape: 24 64 14 14 (301056)
I0403 15:38:35.540120 13846 net.cpp:156] Memory required for data: 1061809440
I0403 15:38:35.540146 13846 layer_factory.hpp:77] Creating layer inception_4c/relu_pool_proj
I0403 15:38:35.540170 13846 net.cpp:91] Creating Layer inception_4c/relu_pool_proj
I0403 15:38:35.540189 13846 net.cpp:425] inception_4c/relu_pool_proj <- inception_4c/pool_proj
I0403 15:38:35.540207 13846 net.cpp:386] inception_4c/relu_pool_proj -> inception_4c/pool_proj (in-place)
I0403 15:38:35.540393 13846 net.cpp:141] Setting up inception_4c/relu_pool_proj
I0403 15:38:35.540418 13846 net.cpp:148] Top shape: 24 64 14 14 (301056)
I0403 15:38:35.540433 13846 net.cpp:156] Memory required for data: 1063013664
I0403 15:38:35.540447 13846 layer_factory.hpp:77] Creating layer inception_4c/output
I0403 15:38:35.540467 13846 net.cpp:91] Creating Layer inception_4c/output
I0403 15:38:35.540484 13846 net.cpp:425] inception_4c/output <- inception_4c/1x1
I0403 15:38:35.540501 13846 net.cpp:425] inception_4c/output <- inception_4c/3x3
I0403 15:38:35.540516 13846 net.cpp:425] inception_4c/output <- inception_4c/5x5
I0403 15:38:35.540532 13846 net.cpp:425] inception_4c/output <- inception_4c/pool_proj
I0403 15:38:35.540550 13846 net.cpp:399] inception_4c/output -> inception_4c/output
I0403 15:38:35.540603 13846 net.cpp:141] Setting up inception_4c/output
I0403 15:38:35.540627 13846 net.cpp:148] Top shape: 24 512 14 14 (2408448)
I0403 15:38:35.540643 13846 net.cpp:156] Memory required for data: 1072647456
I0403 15:38:35.540659 13846 layer_factory.hpp:77] Creating layer inception_4c/output_inception_4c/output_0_split
I0403 15:38:35.540676 13846 net.cpp:91] Creating Layer inception_4c/output_inception_4c/output_0_split
I0403 15:38:35.540691 13846 net.cpp:425] inception_4c/output_inception_4c/output_0_split <- inception_4c/output
I0403 15:38:35.540711 13846 net.cpp:399] inception_4c/output_inception_4c/output_0_split -> inception_4c/output_inception_4c/output_0_split_0
I0403 15:38:35.540734 13846 net.cpp:399] inception_4c/output_inception_4c/output_0_split -> inception_4c/output_inception_4c/output_0_split_1
I0403 15:38:35.540755 13846 net.cpp:399] inception_4c/output_inception_4c/output_0_split -> inception_4c/output_inception_4c/output_0_split_2
I0403 15:38:35.540776 13846 net.cpp:399] inception_4c/output_inception_4c/output_0_split -> inception_4c/output_inception_4c/output_0_split_3
I0403 15:38:35.540868 13846 net.cpp:141] Setting up inception_4c/output_inception_4c/output_0_split
I0403 15:38:35.540894 13846 net.cpp:148] Top shape: 24 512 14 14 (2408448)
I0403 15:38:35.540911 13846 net.cpp:148] Top shape: 24 512 14 14 (2408448)
I0403 15:38:35.540927 13846 net.cpp:148] Top shape: 24 512 14 14 (2408448)
I0403 15:38:35.540943 13846 net.cpp:148] Top shape: 24 512 14 14 (2408448)
I0403 15:38:35.540957 13846 net.cpp:156] Memory required for data: 1111182624
I0403 15:38:35.540972 13846 layer_factory.hpp:77] Creating layer inception_4d/1x1
I0403 15:38:35.540994 13846 net.cpp:91] Creating Layer inception_4d/1x1
I0403 15:38:35.541013 13846 net.cpp:425] inception_4d/1x1 <- inception_4c/output_inception_4c/output_0_split_0
I0403 15:38:35.541031 13846 net.cpp:399] inception_4d/1x1 -> inception_4d/1x1
I0403 15:38:35.542498 13846 net.cpp:141] Setting up inception_4d/1x1
I0403 15:38:35.542531 13846 net.cpp:148] Top shape: 24 112 14 14 (526848)
I0403 15:38:35.542547 13846 net.cpp:156] Memory required for data: 1113290016
I0403 15:38:35.542567 13846 layer_factory.hpp:77] Creating layer inception_4d/relu_1x1
I0403 15:38:35.542587 13846 net.cpp:91] Creating Layer inception_4d/relu_1x1
I0403 15:38:35.542603 13846 net.cpp:425] inception_4d/relu_1x1 <- inception_4d/1x1
I0403 15:38:35.542623 13846 net.cpp:386] inception_4d/relu_1x1 -> inception_4d/1x1 (in-place)
I0403 15:38:35.542816 13846 net.cpp:141] Setting up inception_4d/relu_1x1
I0403 15:38:35.542841 13846 net.cpp:148] Top shape: 24 112 14 14 (526848)
I0403 15:38:35.542856 13846 net.cpp:156] Memory required for data: 1115397408
I0403 15:38:35.542871 13846 layer_factory.hpp:77] Creating layer inception_4d/3x3_reduce
I0403 15:38:35.542909 13846 net.cpp:91] Creating Layer inception_4d/3x3_reduce
I0403 15:38:35.542928 13846 net.cpp:425] inception_4d/3x3_reduce <- inception_4c/output_inception_4c/output_0_split_1
I0403 15:38:35.542950 13846 net.cpp:399] inception_4d/3x3_reduce -> inception_4d/3x3_reduce
I0403 15:38:35.544518 13846 net.cpp:141] Setting up inception_4d/3x3_reduce
I0403 15:38:35.544548 13846 net.cpp:148] Top shape: 24 144 14 14 (677376)
I0403 15:38:35.544567 13846 net.cpp:156] Memory required for data: 1118106912
I0403 15:38:35.544586 13846 layer_factory.hpp:77] Creating layer inception_4d/relu_3x3_reduce
I0403 15:38:35.544605 13846 net.cpp:91] Creating Layer inception_4d/relu_3x3_reduce
I0403 15:38:35.544621 13846 net.cpp:425] inception_4d/relu_3x3_reduce <- inception_4d/3x3_reduce
I0403 15:38:35.544639 13846 net.cpp:386] inception_4d/relu_3x3_reduce -> inception_4d/3x3_reduce (in-place)
I0403 15:38:35.544935 13846 net.cpp:141] Setting up inception_4d/relu_3x3_reduce
I0403 15:38:35.544963 13846 net.cpp:148] Top shape: 24 144 14 14 (677376)
I0403 15:38:35.544986 13846 net.cpp:156] Memory required for data: 1120816416
I0403 15:38:35.545001 13846 layer_factory.hpp:77] Creating layer inception_4d/3x3
I0403 15:38:35.545022 13846 net.cpp:91] Creating Layer inception_4d/3x3
I0403 15:38:35.545038 13846 net.cpp:425] inception_4d/3x3 <- inception_4d/3x3_reduce
I0403 15:38:35.545061 13846 net.cpp:399] inception_4d/3x3 -> inception_4d/3x3
I0403 15:38:35.549451 13846 net.cpp:141] Setting up inception_4d/3x3
I0403 15:38:35.549481 13846 net.cpp:148] Top shape: 24 288 14 14 (1354752)
I0403 15:38:35.549497 13846 net.cpp:156] Memory required for data: 1126235424
I0403 15:38:35.549515 13846 layer_factory.hpp:77] Creating layer inception_4d/relu_3x3
I0403 15:38:35.549535 13846 net.cpp:91] Creating Layer inception_4d/relu_3x3
I0403 15:38:35.549552 13846 net.cpp:425] inception_4d/relu_3x3 <- inception_4d/3x3
I0403 15:38:35.549572 13846 net.cpp:386] inception_4d/relu_3x3 -> inception_4d/3x3 (in-place)
I0403 15:38:35.549767 13846 net.cpp:141] Setting up inception_4d/relu_3x3
I0403 15:38:35.549794 13846 net.cpp:148] Top shape: 24 288 14 14 (1354752)
I0403 15:38:35.549809 13846 net.cpp:156] Memory required for data: 1131654432
I0403 15:38:35.549824 13846 layer_factory.hpp:77] Creating layer inception_4d/5x5_reduce
I0403 15:38:35.549846 13846 net.cpp:91] Creating Layer inception_4d/5x5_reduce
I0403 15:38:35.549865 13846 net.cpp:425] inception_4d/5x5_reduce <- inception_4c/output_inception_4c/output_0_split_2
I0403 15:38:35.549887 13846 net.cpp:399] inception_4d/5x5_reduce -> inception_4d/5x5_reduce
I0403 15:38:35.551117 13846 net.cpp:141] Setting up inception_4d/5x5_reduce
I0403 15:38:35.551152 13846 net.cpp:148] Top shape: 24 32 14 14 (150528)
I0403 15:38:35.551170 13846 net.cpp:156] Memory required for data: 1132256544
I0403 15:38:35.551189 13846 layer_factory.hpp:77] Creating layer inception_4d/relu_5x5_reduce
I0403 15:38:35.551206 13846 net.cpp:91] Creating Layer inception_4d/relu_5x5_reduce
I0403 15:38:35.551221 13846 net.cpp:425] inception_4d/relu_5x5_reduce <- inception_4d/5x5_reduce
I0403 15:38:35.551240 13846 net.cpp:386] inception_4d/relu_5x5_reduce -> inception_4d/5x5_reduce (in-place)
I0403 15:38:35.551429 13846 net.cpp:141] Setting up inception_4d/relu_5x5_reduce
I0403 15:38:35.551453 13846 net.cpp:148] Top shape: 24 32 14 14 (150528)
I0403 15:38:35.551470 13846 net.cpp:156] Memory required for data: 1132858656
I0403 15:38:35.551483 13846 layer_factory.hpp:77] Creating layer inception_4d/5x5
I0403 15:38:35.551507 13846 net.cpp:91] Creating Layer inception_4d/5x5
I0403 15:38:35.551527 13846 net.cpp:425] inception_4d/5x5 <- inception_4d/5x5_reduce
I0403 15:38:35.551548 13846 net.cpp:399] inception_4d/5x5 -> inception_4d/5x5
I0403 15:38:35.553017 13846 net.cpp:141] Setting up inception_4d/5x5
I0403 15:38:35.553046 13846 net.cpp:148] Top shape: 24 64 14 14 (301056)
I0403 15:38:35.553061 13846 net.cpp:156] Memory required for data: 1134062880
I0403 15:38:35.553079 13846 layer_factory.hpp:77] Creating layer inception_4d/relu_5x5
I0403 15:38:35.553117 13846 net.cpp:91] Creating Layer inception_4d/relu_5x5
I0403 15:38:35.553156 13846 net.cpp:425] inception_4d/relu_5x5 <- inception_4d/5x5
I0403 15:38:35.553177 13846 net.cpp:386] inception_4d/relu_5x5 -> inception_4d/5x5 (in-place)
I0403 15:38:35.553479 13846 net.cpp:141] Setting up inception_4d/relu_5x5
I0403 15:38:35.553506 13846 net.cpp:148] Top shape: 24 64 14 14 (301056)
I0403 15:38:35.553521 13846 net.cpp:156] Memory required for data: 1135267104
I0403 15:38:35.553536 13846 layer_factory.hpp:77] Creating layer inception_4d/pool
I0403 15:38:35.553556 13846 net.cpp:91] Creating Layer inception_4d/pool
I0403 15:38:35.553573 13846 net.cpp:425] inception_4d/pool <- inception_4c/output_inception_4c/output_0_split_3
I0403 15:38:35.553592 13846 net.cpp:399] inception_4d/pool -> inception_4d/pool
I0403 15:38:35.553661 13846 net.cpp:141] Setting up inception_4d/pool
I0403 15:38:35.553685 13846 net.cpp:148] Top shape: 24 512 14 14 (2408448)
I0403 15:38:35.553700 13846 net.cpp:156] Memory required for data: 1144900896
I0403 15:38:35.553715 13846 layer_factory.hpp:77] Creating layer inception_4d/pool_proj
I0403 15:38:35.553737 13846 net.cpp:91] Creating Layer inception_4d/pool_proj
I0403 15:38:35.553755 13846 net.cpp:425] inception_4d/pool_proj <- inception_4d/pool
I0403 15:38:35.553776 13846 net.cpp:399] inception_4d/pool_proj -> inception_4d/pool_proj
I0403 15:38:35.555533 13846 net.cpp:141] Setting up inception_4d/pool_proj
I0403 15:38:35.555563 13846 net.cpp:148] Top shape: 24 64 14 14 (301056)
I0403 15:38:35.555579 13846 net.cpp:156] Memory required for data: 1146105120
I0403 15:38:35.555598 13846 layer_factory.hpp:77] Creating layer inception_4d/relu_pool_proj
I0403 15:38:35.555615 13846 net.cpp:91] Creating Layer inception_4d/relu_pool_proj
I0403 15:38:35.555630 13846 net.cpp:425] inception_4d/relu_pool_proj <- inception_4d/pool_proj
I0403 15:38:35.555649 13846 net.cpp:386] inception_4d/relu_pool_proj -> inception_4d/pool_proj (in-place)
I0403 15:38:35.555835 13846 net.cpp:141] Setting up inception_4d/relu_pool_proj
I0403 15:38:35.555860 13846 net.cpp:148] Top shape: 24 64 14 14 (301056)
I0403 15:38:35.555874 13846 net.cpp:156] Memory required for data: 1147309344
I0403 15:38:35.555889 13846 layer_factory.hpp:77] Creating layer inception_4d/output
I0403 15:38:35.555907 13846 net.cpp:91] Creating Layer inception_4d/output
I0403 15:38:35.555922 13846 net.cpp:425] inception_4d/output <- inception_4d/1x1
I0403 15:38:35.555938 13846 net.cpp:425] inception_4d/output <- inception_4d/3x3
I0403 15:38:35.555958 13846 net.cpp:425] inception_4d/output <- inception_4d/5x5
I0403 15:38:35.555974 13846 net.cpp:425] inception_4d/output <- inception_4d/pool_proj
I0403 15:38:35.555990 13846 net.cpp:399] inception_4d/output -> inception_4d/output
I0403 15:38:35.556036 13846 net.cpp:141] Setting up inception_4d/output
I0403 15:38:35.556061 13846 net.cpp:148] Top shape: 24 528 14 14 (2483712)
I0403 15:38:35.556078 13846 net.cpp:156] Memory required for data: 1157244192
I0403 15:38:35.556092 13846 layer_factory.hpp:77] Creating layer inception_4d/output_inception_4d/output_0_split
I0403 15:38:35.556109 13846 net.cpp:91] Creating Layer inception_4d/output_inception_4d/output_0_split
I0403 15:38:35.556129 13846 net.cpp:425] inception_4d/output_inception_4d/output_0_split <- inception_4d/output
I0403 15:38:35.556152 13846 net.cpp:399] inception_4d/output_inception_4d/output_0_split -> inception_4d/output_inception_4d/output_0_split_0
I0403 15:38:35.556174 13846 net.cpp:399] inception_4d/output_inception_4d/output_0_split -> inception_4d/output_inception_4d/output_0_split_1
I0403 15:38:35.556193 13846 net.cpp:399] inception_4d/output_inception_4d/output_0_split -> inception_4d/output_inception_4d/output_0_split_2
I0403 15:38:35.556215 13846 net.cpp:399] inception_4d/output_inception_4d/output_0_split -> inception_4d/output_inception_4d/output_0_split_3
I0403 15:38:35.556233 13846 net.cpp:399] inception_4d/output_inception_4d/output_0_split -> inception_4d/output_inception_4d/output_0_split_4
I0403 15:38:35.556339 13846 net.cpp:141] Setting up inception_4d/output_inception_4d/output_0_split
I0403 15:38:35.556375 13846 net.cpp:148] Top shape: 24 528 14 14 (2483712)
I0403 15:38:35.556394 13846 net.cpp:148] Top shape: 24 528 14 14 (2483712)
I0403 15:38:35.556411 13846 net.cpp:148] Top shape: 24 528 14 14 (2483712)
I0403 15:38:35.556427 13846 net.cpp:148] Top shape: 24 528 14 14 (2483712)
I0403 15:38:35.556442 13846 net.cpp:148] Top shape: 24 528 14 14 (2483712)
I0403 15:38:35.556455 13846 net.cpp:156] Memory required for data: 1206918432
I0403 15:38:35.556469 13846 layer_factory.hpp:77] Creating layer loss2/ave_pool
I0403 15:38:35.556488 13846 net.cpp:91] Creating Layer loss2/ave_pool
I0403 15:38:35.556504 13846 net.cpp:425] loss2/ave_pool <- inception_4d/output_inception_4d/output_0_split_0
I0403 15:38:35.556524 13846 net.cpp:399] loss2/ave_pool -> loss2/ave_pool
I0403 15:38:35.556838 13846 net.cpp:141] Setting up loss2/ave_pool
I0403 15:38:35.556864 13846 net.cpp:148] Top shape: 24 528 4 4 (202752)
I0403 15:38:35.556880 13846 net.cpp:156] Memory required for data: 1207729440
I0403 15:38:35.556895 13846 layer_factory.hpp:77] Creating layer loss2/conv
I0403 15:38:35.556917 13846 net.cpp:91] Creating Layer loss2/conv
I0403 15:38:35.556936 13846 net.cpp:425] loss2/conv <- loss2/ave_pool
I0403 15:38:35.556957 13846 net.cpp:399] loss2/conv -> loss2/conv
I0403 15:38:35.558838 13846 net.cpp:141] Setting up loss2/conv
I0403 15:38:35.558867 13846 net.cpp:148] Top shape: 24 128 4 4 (49152)
I0403 15:38:35.558883 13846 net.cpp:156] Memory required for data: 1207926048
I0403 15:38:35.558902 13846 layer_factory.hpp:77] Creating layer loss2/relu_conv
I0403 15:38:35.558923 13846 net.cpp:91] Creating Layer loss2/relu_conv
I0403 15:38:35.558940 13846 net.cpp:425] loss2/relu_conv <- loss2/conv
I0403 15:38:35.558957 13846 net.cpp:386] loss2/relu_conv -> loss2/conv (in-place)
I0403 15:38:35.559249 13846 net.cpp:141] Setting up loss2/relu_conv
I0403 15:38:35.559275 13846 net.cpp:148] Top shape: 24 128 4 4 (49152)
I0403 15:38:35.559290 13846 net.cpp:156] Memory required for data: 1208122656
I0403 15:38:35.559304 13846 layer_factory.hpp:77] Creating layer loss2/fc
I0403 15:38:35.559326 13846 net.cpp:91] Creating Layer loss2/fc
I0403 15:38:35.559342 13846 net.cpp:425] loss2/fc <- loss2/conv
I0403 15:38:35.559360 13846 net.cpp:399] loss2/fc -> loss2/fc
I0403 15:38:35.577024 13846 net.cpp:141] Setting up loss2/fc
I0403 15:38:35.577059 13846 net.cpp:148] Top shape: 24 1024 (24576)
I0403 15:38:35.577075 13846 net.cpp:156] Memory required for data: 1208220960
I0403 15:38:35.577093 13846 layer_factory.hpp:77] Creating layer loss2/relu_fc
I0403 15:38:35.577112 13846 net.cpp:91] Creating Layer loss2/relu_fc
I0403 15:38:35.577132 13846 net.cpp:425] loss2/relu_fc <- loss2/fc
I0403 15:38:35.577153 13846 net.cpp:386] loss2/relu_fc -> loss2/fc (in-place)
I0403 15:38:35.577456 13846 net.cpp:141] Setting up loss2/relu_fc
I0403 15:38:35.577483 13846 net.cpp:148] Top shape: 24 1024 (24576)
I0403 15:38:35.577498 13846 net.cpp:156] Memory required for data: 1208319264
I0403 15:38:35.577514 13846 layer_factory.hpp:77] Creating layer loss2/drop_fc
I0403 15:38:35.577533 13846 net.cpp:91] Creating Layer loss2/drop_fc
I0403 15:38:35.577548 13846 net.cpp:425] loss2/drop_fc <- loss2/fc
I0403 15:38:35.577567 13846 net.cpp:386] loss2/drop_fc -> loss2/fc (in-place)
I0403 15:38:35.577617 13846 net.cpp:141] Setting up loss2/drop_fc
I0403 15:38:35.577641 13846 net.cpp:148] Top shape: 24 1024 (24576)
I0403 15:38:35.577654 13846 net.cpp:156] Memory required for data: 1208417568
I0403 15:38:35.577669 13846 layer_factory.hpp:77] Creating layer loss2/classifier_plantvillage
I0403 15:38:35.577690 13846 net.cpp:91] Creating Layer loss2/classifier_plantvillage
I0403 15:38:35.577708 13846 net.cpp:425] loss2/classifier_plantvillage <- loss2/fc
I0403 15:38:35.577728 13846 net.cpp:399] loss2/classifier_plantvillage -> loss2/classifier_plantvillage
I0403 15:38:35.578135 13846 net.cpp:141] Setting up loss2/classifier_plantvillage
I0403 15:38:35.578166 13846 net.cpp:148] Top shape: 24 38 (912)
I0403 15:38:35.578181 13846 net.cpp:156] Memory required for data: 1208421216
I0403 15:38:35.578217 13846 layer_factory.hpp:77] Creating layer loss2/classifier_plantvillage_loss2/classifier_plantvillage_0_split
I0403 15:38:35.578236 13846 net.cpp:91] Creating Layer loss2/classifier_plantvillage_loss2/classifier_plantvillage_0_split
I0403 15:38:35.578253 13846 net.cpp:425] loss2/classifier_plantvillage_loss2/classifier_plantvillage_0_split <- loss2/classifier_plantvillage
I0403 15:38:35.578269 13846 net.cpp:399] loss2/classifier_plantvillage_loss2/classifier_plantvillage_0_split -> loss2/classifier_plantvillage_loss2/classifier_plantvillage_0_split_0
I0403 15:38:35.578289 13846 net.cpp:399] loss2/classifier_plantvillage_loss2/classifier_plantvillage_0_split -> loss2/classifier_plantvillage_loss2/classifier_plantvillage_0_split_1
I0403 15:38:35.578310 13846 net.cpp:399] loss2/classifier_plantvillage_loss2/classifier_plantvillage_0_split -> loss2/classifier_plantvillage_loss2/classifier_plantvillage_0_split_2
I0403 15:38:35.578387 13846 net.cpp:141] Setting up loss2/classifier_plantvillage_loss2/classifier_plantvillage_0_split
I0403 15:38:35.578410 13846 net.cpp:148] Top shape: 24 38 (912)
I0403 15:38:35.578426 13846 net.cpp:148] Top shape: 24 38 (912)
I0403 15:38:35.578443 13846 net.cpp:148] Top shape: 24 38 (912)
I0403 15:38:35.578456 13846 net.cpp:156] Memory required for data: 1208432160
I0403 15:38:35.578471 13846 layer_factory.hpp:77] Creating layer inception_4e/1x1
I0403 15:38:35.578490 13846 net.cpp:91] Creating Layer inception_4e/1x1
I0403 15:38:35.578506 13846 net.cpp:425] inception_4e/1x1 <- inception_4d/output_inception_4d/output_0_split_1
I0403 15:38:35.578527 13846 net.cpp:399] inception_4e/1x1 -> inception_4e/1x1
I0403 15:38:35.580358 13846 net.cpp:141] Setting up inception_4e/1x1
I0403 15:38:35.580386 13846 net.cpp:148] Top shape: 24 256 14 14 (1204224)
I0403 15:38:35.580401 13846 net.cpp:156] Memory required for data: 1213249056
I0403 15:38:35.580420 13846 layer_factory.hpp:77] Creating layer inception_4e/relu_1x1
I0403 15:38:35.580442 13846 net.cpp:91] Creating Layer inception_4e/relu_1x1
I0403 15:38:35.580461 13846 net.cpp:425] inception_4e/relu_1x1 <- inception_4e/1x1
I0403 15:38:35.580477 13846 net.cpp:386] inception_4e/relu_1x1 -> inception_4e/1x1 (in-place)
I0403 15:38:35.580772 13846 net.cpp:141] Setting up inception_4e/relu_1x1
I0403 15:38:35.580798 13846 net.cpp:148] Top shape: 24 256 14 14 (1204224)
I0403 15:38:35.580813 13846 net.cpp:156] Memory required for data: 1218065952
I0403 15:38:35.580827 13846 layer_factory.hpp:77] Creating layer inception_4e/3x3_reduce
I0403 15:38:35.580852 13846 net.cpp:91] Creating Layer inception_4e/3x3_reduce
I0403 15:38:35.580869 13846 net.cpp:425] inception_4e/3x3_reduce <- inception_4d/output_inception_4d/output_0_split_2
I0403 15:38:35.580890 13846 net.cpp:399] inception_4e/3x3_reduce -> inception_4e/3x3_reduce
I0403 15:38:35.583010 13846 net.cpp:141] Setting up inception_4e/3x3_reduce
I0403 15:38:35.583039 13846 net.cpp:148] Top shape: 24 160 14 14 (752640)
I0403 15:38:35.583055 13846 net.cpp:156] Memory required for data: 1221076512
I0403 15:38:35.583073 13846 layer_factory.hpp:77] Creating layer inception_4e/relu_3x3_reduce
I0403 15:38:35.583094 13846 net.cpp:91] Creating Layer inception_4e/relu_3x3_reduce
I0403 15:38:35.583111 13846 net.cpp:425] inception_4e/relu_3x3_reduce <- inception_4e/3x3_reduce
I0403 15:38:35.583138 13846 net.cpp:386] inception_4e/relu_3x3_reduce -> inception_4e/3x3_reduce (in-place)
I0403 15:38:35.583329 13846 net.cpp:141] Setting up inception_4e/relu_3x3_reduce
I0403 15:38:35.583354 13846 net.cpp:148] Top shape: 24 160 14 14 (752640)
I0403 15:38:35.583369 13846 net.cpp:156] Memory required for data: 1224087072
I0403 15:38:35.583384 13846 layer_factory.hpp:77] Creating layer inception_4e/3x3
I0403 15:38:35.583410 13846 net.cpp:91] Creating Layer inception_4e/3x3
I0403 15:38:35.583426 13846 net.cpp:425] inception_4e/3x3 <- inception_4e/3x3_reduce
I0403 15:38:35.583446 13846 net.cpp:399] inception_4e/3x3 -> inception_4e/3x3
I0403 15:38:35.588438 13846 net.cpp:141] Setting up inception_4e/3x3
I0403 15:38:35.588479 13846 net.cpp:148] Top shape: 24 320 14 14 (1505280)
I0403 15:38:35.588496 13846 net.cpp:156] Memory required for data: 1230108192
I0403 15:38:35.588515 13846 layer_factory.hpp:77] Creating layer inception_4e/relu_3x3
I0403 15:38:35.588536 13846 net.cpp:91] Creating Layer inception_4e/relu_3x3
I0403 15:38:35.588553 13846 net.cpp:425] inception_4e/relu_3x3 <- inception_4e/3x3
I0403 15:38:35.588570 13846 net.cpp:386] inception_4e/relu_3x3 -> inception_4e/3x3 (in-place)
I0403 15:38:35.588873 13846 net.cpp:141] Setting up inception_4e/relu_3x3
I0403 15:38:35.588903 13846 net.cpp:148] Top shape: 24 320 14 14 (1505280)
I0403 15:38:35.588920 13846 net.cpp:156] Memory required for data: 1236129312
I0403 15:38:35.588935 13846 layer_factory.hpp:77] Creating layer inception_4e/5x5_reduce
I0403 15:38:35.588959 13846 net.cpp:91] Creating Layer inception_4e/5x5_reduce
I0403 15:38:35.588979 13846 net.cpp:425] inception_4e/5x5_reduce <- inception_4d/output_inception_4d/output_0_split_3
I0403 15:38:35.588997 13846 net.cpp:399] inception_4e/5x5_reduce -> inception_4e/5x5_reduce
I0403 15:38:35.590070 13846 net.cpp:141] Setting up inception_4e/5x5_reduce
I0403 15:38:35.590098 13846 net.cpp:148] Top shape: 24 32 14 14 (150528)
I0403 15:38:35.590112 13846 net.cpp:156] Memory required for data: 1236731424
I0403 15:38:35.590149 13846 layer_factory.hpp:77] Creating layer inception_4e/relu_5x5_reduce
I0403 15:38:35.590175 13846 net.cpp:91] Creating Layer inception_4e/relu_5x5_reduce
I0403 15:38:35.590204 13846 net.cpp:425] inception_4e/relu_5x5_reduce <- inception_4e/5x5_reduce
I0403 15:38:35.590221 13846 net.cpp:386] inception_4e/relu_5x5_reduce -> inception_4e/5x5_reduce (in-place)
I0403 15:38:35.590528 13846 net.cpp:141] Setting up inception_4e/relu_5x5_reduce
I0403 15:38:35.590554 13846 net.cpp:148] Top shape: 24 32 14 14 (150528)
I0403 15:38:35.590570 13846 net.cpp:156] Memory required for data: 1237333536
I0403 15:38:35.590585 13846 layer_factory.hpp:77] Creating layer inception_4e/5x5
I0403 15:38:35.590623 13846 net.cpp:91] Creating Layer inception_4e/5x5
I0403 15:38:35.590644 13846 net.cpp:425] inception_4e/5x5 <- inception_4e/5x5_reduce
I0403 15:38:35.590664 13846 net.cpp:399] inception_4e/5x5 -> inception_4e/5x5
I0403 15:38:35.592617 13846 net.cpp:141] Setting up inception_4e/5x5
I0403 15:38:35.592648 13846 net.cpp:148] Top shape: 24 128 14 14 (602112)
I0403 15:38:35.592675 13846 net.cpp:156] Memory required for data: 1239741984
I0403 15:38:35.592695 13846 layer_factory.hpp:77] Creating layer inception_4e/relu_5x5
I0403 15:38:35.592715 13846 net.cpp:91] Creating Layer inception_4e/relu_5x5
I0403 15:38:35.592743 13846 net.cpp:425] inception_4e/relu_5x5 <- inception_4e/5x5
I0403 15:38:35.592763 13846 net.cpp:386] inception_4e/relu_5x5 -> inception_4e/5x5 (in-place)
I0403 15:38:35.592973 13846 net.cpp:141] Setting up inception_4e/relu_5x5
I0403 15:38:35.593000 13846 net.cpp:148] Top shape: 24 128 14 14 (602112)
I0403 15:38:35.593015 13846 net.cpp:156] Memory required for data: 1242150432
I0403 15:38:35.593030 13846 layer_factory.hpp:77] Creating layer inception_4e/pool
I0403 15:38:35.593052 13846 net.cpp:91] Creating Layer inception_4e/pool
I0403 15:38:35.593070 13846 net.cpp:425] inception_4e/pool <- inception_4d/output_inception_4d/output_0_split_4
I0403 15:38:35.593088 13846 net.cpp:399] inception_4e/pool -> inception_4e/pool
I0403 15:38:35.593171 13846 net.cpp:141] Setting up inception_4e/pool
I0403 15:38:35.593197 13846 net.cpp:148] Top shape: 24 528 14 14 (2483712)
I0403 15:38:35.593212 13846 net.cpp:156] Memory required for data: 1252085280
I0403 15:38:35.593228 13846 layer_factory.hpp:77] Creating layer inception_4e/pool_proj
I0403 15:38:35.593251 13846 net.cpp:91] Creating Layer inception_4e/pool_proj
I0403 15:38:35.593269 13846 net.cpp:425] inception_4e/pool_proj <- inception_4e/pool
I0403 15:38:35.593291 13846 net.cpp:399] inception_4e/pool_proj -> inception_4e/pool_proj
I0403 15:38:35.594876 13846 net.cpp:141] Setting up inception_4e/pool_proj
I0403 15:38:35.594904 13846 net.cpp:148] Top shape: 24 128 14 14 (602112)
I0403 15:38:35.594935 13846 net.cpp:156] Memory required for data: 1254493728
I0403 15:38:35.594955 13846 layer_factory.hpp:77] Creating layer inception_4e/relu_pool_proj
I0403 15:38:35.594974 13846 net.cpp:91] Creating Layer inception_4e/relu_pool_proj
I0403 15:38:35.594990 13846 net.cpp:425] inception_4e/relu_pool_proj <- inception_4e/pool_proj
I0403 15:38:35.595007 13846 net.cpp:386] inception_4e/relu_pool_proj -> inception_4e/pool_proj (in-place)
I0403 15:38:35.595319 13846 net.cpp:141] Setting up inception_4e/relu_pool_proj
I0403 15:38:35.595346 13846 net.cpp:148] Top shape: 24 128 14 14 (602112)
I0403 15:38:35.595362 13846 net.cpp:156] Memory required for data: 1256902176
I0403 15:38:35.595378 13846 layer_factory.hpp:77] Creating layer inception_4e/output
I0403 15:38:35.595396 13846 net.cpp:91] Creating Layer inception_4e/output
I0403 15:38:35.595410 13846 net.cpp:425] inception_4e/output <- inception_4e/1x1
I0403 15:38:35.595427 13846 net.cpp:425] inception_4e/output <- inception_4e/3x3
I0403 15:38:35.595443 13846 net.cpp:425] inception_4e/output <- inception_4e/5x5
I0403 15:38:35.595459 13846 net.cpp:425] inception_4e/output <- inception_4e/pool_proj
I0403 15:38:35.595479 13846 net.cpp:399] inception_4e/output -> inception_4e/output
I0403 15:38:35.595530 13846 net.cpp:141] Setting up inception_4e/output
I0403 15:38:35.595557 13846 net.cpp:148] Top shape: 24 832 14 14 (3913728)
I0403 15:38:35.595573 13846 net.cpp:156] Memory required for data: 1272557088
I0403 15:38:35.595588 13846 layer_factory.hpp:77] Creating layer pool4/3x3_s2
I0403 15:38:35.595607 13846 net.cpp:91] Creating Layer pool4/3x3_s2
I0403 15:38:35.595623 13846 net.cpp:425] pool4/3x3_s2 <- inception_4e/output
I0403 15:38:35.595640 13846 net.cpp:399] pool4/3x3_s2 -> pool4/3x3_s2
I0403 15:38:35.595710 13846 net.cpp:141] Setting up pool4/3x3_s2
I0403 15:38:35.595736 13846 net.cpp:148] Top shape: 24 832 7 7 (978432)
I0403 15:38:35.595751 13846 net.cpp:156] Memory required for data: 1276470816
I0403 15:38:35.595765 13846 layer_factory.hpp:77] Creating layer pool4/3x3_s2_pool4/3x3_s2_0_split
I0403 15:38:35.595782 13846 net.cpp:91] Creating Layer pool4/3x3_s2_pool4/3x3_s2_0_split
I0403 15:38:35.595798 13846 net.cpp:425] pool4/3x3_s2_pool4/3x3_s2_0_split <- pool4/3x3_s2
I0403 15:38:35.595816 13846 net.cpp:399] pool4/3x3_s2_pool4/3x3_s2_0_split -> pool4/3x3_s2_pool4/3x3_s2_0_split_0
I0403 15:38:35.595837 13846 net.cpp:399] pool4/3x3_s2_pool4/3x3_s2_0_split -> pool4/3x3_s2_pool4/3x3_s2_0_split_1
I0403 15:38:35.595857 13846 net.cpp:399] pool4/3x3_s2_pool4/3x3_s2_0_split -> pool4/3x3_s2_pool4/3x3_s2_0_split_2
I0403 15:38:35.595878 13846 net.cpp:399] pool4/3x3_s2_pool4/3x3_s2_0_split -> pool4/3x3_s2_pool4/3x3_s2_0_split_3
I0403 15:38:35.595976 13846 net.cpp:141] Setting up pool4/3x3_s2_pool4/3x3_s2_0_split
I0403 15:38:35.596000 13846 net.cpp:148] Top shape: 24 832 7 7 (978432)
I0403 15:38:35.596016 13846 net.cpp:148] Top shape: 24 832 7 7 (978432)
I0403 15:38:35.596032 13846 net.cpp:148] Top shape: 24 832 7 7 (978432)
I0403 15:38:35.596048 13846 net.cpp:148] Top shape: 24 832 7 7 (978432)
I0403 15:38:35.596062 13846 net.cpp:156] Memory required for data: 1292125728
I0403 15:38:35.596077 13846 layer_factory.hpp:77] Creating layer inception_5a/1x1
I0403 15:38:35.596099 13846 net.cpp:91] Creating Layer inception_5a/1x1
I0403 15:38:35.596117 13846 net.cpp:425] inception_5a/1x1 <- pool4/3x3_s2_pool4/3x3_s2_0_split_0
I0403 15:38:35.596144 13846 net.cpp:399] inception_5a/1x1 -> inception_5a/1x1
I0403 15:38:35.599097 13846 net.cpp:141] Setting up inception_5a/1x1
I0403 15:38:35.599133 13846 net.cpp:148] Top shape: 24 256 7 7 (301056)
I0403 15:38:35.599151 13846 net.cpp:156] Memory required for data: 1293329952
I0403 15:38:35.599171 13846 layer_factory.hpp:77] Creating layer inception_5a/relu_1x1
I0403 15:38:35.599194 13846 net.cpp:91] Creating Layer inception_5a/relu_1x1
I0403 15:38:35.599211 13846 net.cpp:425] inception_5a/relu_1x1 <- inception_5a/1x1
I0403 15:38:35.599230 13846 net.cpp:386] inception_5a/relu_1x1 -> inception_5a/1x1 (in-place)
I0403 15:38:35.599566 13846 net.cpp:141] Setting up inception_5a/relu_1x1
I0403 15:38:35.599593 13846 net.cpp:148] Top shape: 24 256 7 7 (301056)
I0403 15:38:35.599608 13846 net.cpp:156] Memory required for data: 1294534176
I0403 15:38:35.599624 13846 layer_factory.hpp:77] Creating layer inception_5a/3x3_reduce
I0403 15:38:35.599647 13846 net.cpp:91] Creating Layer inception_5a/3x3_reduce
I0403 15:38:35.599664 13846 net.cpp:425] inception_5a/3x3_reduce <- pool4/3x3_s2_pool4/3x3_s2_0_split_1
I0403 15:38:35.599686 13846 net.cpp:399] inception_5a/3x3_reduce -> inception_5a/3x3_reduce
I0403 15:38:35.604431 13846 net.cpp:141] Setting up inception_5a/3x3_reduce
I0403 15:38:35.604463 13846 net.cpp:148] Top shape: 24 160 7 7 (188160)
I0403 15:38:35.604480 13846 net.cpp:156] Memory required for data: 1295286816
I0403 15:38:35.604501 13846 layer_factory.hpp:77] Creating layer inception_5a/relu_3x3_reduce
I0403 15:38:35.604518 13846 net.cpp:91] Creating Layer inception_5a/relu_3x3_reduce
I0403 15:38:35.604535 13846 net.cpp:425] inception_5a/relu_3x3_reduce <- inception_5a/3x3_reduce
I0403 15:38:35.604554 13846 net.cpp:386] inception_5a/relu_3x3_reduce -> inception_5a/3x3_reduce (in-place)
I0403 15:38:35.604753 13846 net.cpp:141] Setting up inception_5a/relu_3x3_reduce
I0403 15:38:35.604779 13846 net.cpp:148] Top shape: 24 160 7 7 (188160)
I0403 15:38:35.604794 13846 net.cpp:156] Memory required for data: 1296039456
I0403 15:38:35.604809 13846 layer_factory.hpp:77] Creating layer inception_5a/3x3
I0403 15:38:35.604831 13846 net.cpp:91] Creating Layer inception_5a/3x3
I0403 15:38:35.604851 13846 net.cpp:425] inception_5a/3x3 <- inception_5a/3x3_reduce
I0403 15:38:35.604872 13846 net.cpp:399] inception_5a/3x3 -> inception_5a/3x3
I0403 15:38:35.610123 13846 net.cpp:141] Setting up inception_5a/3x3
I0403 15:38:35.610159 13846 net.cpp:148] Top shape: 24 320 7 7 (376320)
I0403 15:38:35.610177 13846 net.cpp:156] Memory required for data: 1297544736
I0403 15:38:35.610196 13846 layer_factory.hpp:77] Creating layer inception_5a/relu_3x3
I0403 15:38:35.610214 13846 net.cpp:91] Creating Layer inception_5a/relu_3x3
I0403 15:38:35.610230 13846 net.cpp:425] inception_5a/relu_3x3 <- inception_5a/3x3
I0403 15:38:35.610251 13846 net.cpp:386] inception_5a/relu_3x3 -> inception_5a/3x3 (in-place)
I0403 15:38:35.610566 13846 net.cpp:141] Setting up inception_5a/relu_3x3
I0403 15:38:35.610594 13846 net.cpp:148] Top shape: 24 320 7 7 (376320)
I0403 15:38:35.610611 13846 net.cpp:156] Memory required for data: 1299050016
I0403 15:38:35.610627 13846 layer_factory.hpp:77] Creating layer inception_5a/5x5_reduce
I0403 15:38:35.610649 13846 net.cpp:91] Creating Layer inception_5a/5x5_reduce
I0403 15:38:35.610668 13846 net.cpp:425] inception_5a/5x5_reduce <- pool4/3x3_s2_pool4/3x3_s2_0_split_2
I0403 15:38:35.610692 13846 net.cpp:399] inception_5a/5x5_reduce -> inception_5a/5x5_reduce
I0403 15:38:35.611892 13846 net.cpp:141] Setting up inception_5a/5x5_reduce
I0403 15:38:35.611924 13846 net.cpp:148] Top shape: 24 32 7 7 (37632)
I0403 15:38:35.611942 13846 net.cpp:156] Memory required for data: 1299200544
I0403 15:38:35.611961 13846 layer_factory.hpp:77] Creating layer inception_5a/relu_5x5_reduce
I0403 15:38:35.611979 13846 net.cpp:91] Creating Layer inception_5a/relu_5x5_reduce
I0403 15:38:35.611995 13846 net.cpp:425] inception_5a/relu_5x5_reduce <- inception_5a/5x5_reduce
I0403 15:38:35.612013 13846 net.cpp:386] inception_5a/relu_5x5_reduce -> inception_5a/5x5_reduce (in-place)
I0403 15:38:35.612318 13846 net.cpp:141] Setting up inception_5a/relu_5x5_reduce
I0403 15:38:35.612345 13846 net.cpp:148] Top shape: 24 32 7 7 (37632)
I0403 15:38:35.612361 13846 net.cpp:156] Memory required for data: 1299351072
I0403 15:38:35.612377 13846 layer_factory.hpp:77] Creating layer inception_5a/5x5
I0403 15:38:35.612399 13846 net.cpp:91] Creating Layer inception_5a/5x5
I0403 15:38:35.612418 13846 net.cpp:425] inception_5a/5x5 <- inception_5a/5x5_reduce
I0403 15:38:35.612449 13846 net.cpp:399] inception_5a/5x5 -> inception_5a/5x5
I0403 15:38:35.614187 13846 net.cpp:141] Setting up inception_5a/5x5
I0403 15:38:35.614228 13846 net.cpp:148] Top shape: 24 128 7 7 (150528)
I0403 15:38:35.614244 13846 net.cpp:156] Memory required for data: 1299953184
I0403 15:38:35.614262 13846 layer_factory.hpp:77] Creating layer inception_5a/relu_5x5
I0403 15:38:35.614280 13846 net.cpp:91] Creating Layer inception_5a/relu_5x5
I0403 15:38:35.614297 13846 net.cpp:425] inception_5a/relu_5x5 <- inception_5a/5x5
I0403 15:38:35.614316 13846 net.cpp:386] inception_5a/relu_5x5 -> inception_5a/5x5 (in-place)
I0403 15:38:35.614512 13846 net.cpp:141] Setting up inception_5a/relu_5x5
I0403 15:38:35.614537 13846 net.cpp:148] Top shape: 24 128 7 7 (150528)
I0403 15:38:35.614552 13846 net.cpp:156] Memory required for data: 1300555296
I0403 15:38:35.614565 13846 layer_factory.hpp:77] Creating layer inception_5a/pool
I0403 15:38:35.614584 13846 net.cpp:91] Creating Layer inception_5a/pool
I0403 15:38:35.614601 13846 net.cpp:425] inception_5a/pool <- pool4/3x3_s2_pool4/3x3_s2_0_split_3
I0403 15:38:35.614619 13846 net.cpp:399] inception_5a/pool -> inception_5a/pool
I0403 15:38:35.614691 13846 net.cpp:141] Setting up inception_5a/pool
I0403 15:38:35.614714 13846 net.cpp:148] Top shape: 24 832 7 7 (978432)
I0403 15:38:35.614729 13846 net.cpp:156] Memory required for data: 1304469024
I0403 15:38:35.614743 13846 layer_factory.hpp:77] Creating layer inception_5a/pool_proj
I0403 15:38:35.614765 13846 net.cpp:91] Creating Layer inception_5a/pool_proj
I0403 15:38:35.614784 13846 net.cpp:425] inception_5a/pool_proj <- inception_5a/pool
I0403 15:38:35.614805 13846 net.cpp:399] inception_5a/pool_proj -> inception_5a/pool_proj
I0403 15:38:35.617218 13846 net.cpp:141] Setting up inception_5a/pool_proj
I0403 15:38:35.617249 13846 net.cpp:148] Top shape: 24 128 7 7 (150528)
I0403 15:38:35.617266 13846 net.cpp:156] Memory required for data: 1305071136
I0403 15:38:35.617285 13846 layer_factory.hpp:77] Creating layer inception_5a/relu_pool_proj
I0403 15:38:35.617303 13846 net.cpp:91] Creating Layer inception_5a/relu_pool_proj
I0403 15:38:35.617321 13846 net.cpp:425] inception_5a/relu_pool_proj <- inception_5a/pool_proj
I0403 15:38:35.617339 13846 net.cpp:386] inception_5a/relu_pool_proj -> inception_5a/pool_proj (in-place)
I0403 15:38:35.617635 13846 net.cpp:141] Setting up inception_5a/relu_pool_proj
I0403 15:38:35.617665 13846 net.cpp:148] Top shape: 24 128 7 7 (150528)
I0403 15:38:35.617681 13846 net.cpp:156] Memory required for data: 1305673248
I0403 15:38:35.617697 13846 layer_factory.hpp:77] Creating layer inception_5a/output
I0403 15:38:35.617713 13846 net.cpp:91] Creating Layer inception_5a/output
I0403 15:38:35.617729 13846 net.cpp:425] inception_5a/output <- inception_5a/1x1
I0403 15:38:35.617745 13846 net.cpp:425] inception_5a/output <- inception_5a/3x3
I0403 15:38:35.617760 13846 net.cpp:425] inception_5a/output <- inception_5a/5x5
I0403 15:38:35.617776 13846 net.cpp:425] inception_5a/output <- inception_5a/pool_proj
I0403 15:38:35.617795 13846 net.cpp:399] inception_5a/output -> inception_5a/output
I0403 15:38:35.617846 13846 net.cpp:141] Setting up inception_5a/output
I0403 15:38:35.617869 13846 net.cpp:148] Top shape: 24 832 7 7 (978432)
I0403 15:38:35.617884 13846 net.cpp:156] Memory required for data: 1309586976
I0403 15:38:35.617898 13846 layer_factory.hpp:77] Creating layer inception_5a/output_inception_5a/output_0_split
I0403 15:38:35.617918 13846 net.cpp:91] Creating Layer inception_5a/output_inception_5a/output_0_split
I0403 15:38:35.617936 13846 net.cpp:425] inception_5a/output_inception_5a/output_0_split <- inception_5a/output
I0403 15:38:35.617954 13846 net.cpp:399] inception_5a/output_inception_5a/output_0_split -> inception_5a/output_inception_5a/output_0_split_0
I0403 15:38:35.617972 13846 net.cpp:399] inception_5a/output_inception_5a/output_0_split -> inception_5a/output_inception_5a/output_0_split_1
I0403 15:38:35.617997 13846 net.cpp:399] inception_5a/output_inception_5a/output_0_split -> inception_5a/output_inception_5a/output_0_split_2
I0403 15:38:35.618018 13846 net.cpp:399] inception_5a/output_inception_5a/output_0_split -> inception_5a/output_inception_5a/output_0_split_3
I0403 15:38:35.618139 13846 net.cpp:141] Setting up inception_5a/output_inception_5a/output_0_split
I0403 15:38:35.618165 13846 net.cpp:148] Top shape: 24 832 7 7 (978432)
I0403 15:38:35.618181 13846 net.cpp:148] Top shape: 24 832 7 7 (978432)
I0403 15:38:35.618197 13846 net.cpp:148] Top shape: 24 832 7 7 (978432)
I0403 15:38:35.618212 13846 net.cpp:148] Top shape: 24 832 7 7 (978432)
I0403 15:38:35.618226 13846 net.cpp:156] Memory required for data: 1325241888
I0403 15:38:35.618238 13846 layer_factory.hpp:77] Creating layer inception_5b/1x1
I0403 15:38:35.618260 13846 net.cpp:91] Creating Layer inception_5b/1x1
I0403 15:38:35.618278 13846 net.cpp:425] inception_5b/1x1 <- inception_5a/output_inception_5a/output_0_split_0
I0403 15:38:35.618299 13846 net.cpp:399] inception_5b/1x1 -> inception_5b/1x1
I0403 15:38:35.622076 13846 net.cpp:141] Setting up inception_5b/1x1
I0403 15:38:35.622109 13846 net.cpp:148] Top shape: 24 384 7 7 (451584)
I0403 15:38:35.622130 13846 net.cpp:156] Memory required for data: 1327048224
I0403 15:38:35.622151 13846 layer_factory.hpp:77] Creating layer inception_5b/relu_1x1
I0403 15:38:35.622170 13846 net.cpp:91] Creating Layer inception_5b/relu_1x1
I0403 15:38:35.622186 13846 net.cpp:425] inception_5b/relu_1x1 <- inception_5b/1x1
I0403 15:38:35.622203 13846 net.cpp:386] inception_5b/relu_1x1 -> inception_5b/1x1 (in-place)
I0403 15:38:35.622516 13846 net.cpp:141] Setting up inception_5b/relu_1x1
I0403 15:38:35.622545 13846 net.cpp:148] Top shape: 24 384 7 7 (451584)
I0403 15:38:35.622563 13846 net.cpp:156] Memory required for data: 1328854560
I0403 15:38:35.622578 13846 layer_factory.hpp:77] Creating layer inception_5b/3x3_reduce
I0403 15:38:35.622599 13846 net.cpp:91] Creating Layer inception_5b/3x3_reduce
I0403 15:38:35.622618 13846 net.cpp:425] inception_5b/3x3_reduce <- inception_5a/output_inception_5a/output_0_split_1
I0403 15:38:35.622637 13846 net.cpp:399] inception_5b/3x3_reduce -> inception_5b/3x3_reduce
I0403 15:38:35.625319 13846 net.cpp:141] Setting up inception_5b/3x3_reduce
I0403 15:38:35.625352 13846 net.cpp:148] Top shape: 24 192 7 7 (225792)
I0403 15:38:35.625370 13846 net.cpp:156] Memory required for data: 1329757728
I0403 15:38:35.625388 13846 layer_factory.hpp:77] Creating layer inception_5b/relu_3x3_reduce
I0403 15:38:35.625406 13846 net.cpp:91] Creating Layer inception_5b/relu_3x3_reduce
I0403 15:38:35.625422 13846 net.cpp:425] inception_5b/relu_3x3_reduce <- inception_5b/3x3_reduce
I0403 15:38:35.625444 13846 net.cpp:386] inception_5b/relu_3x3_reduce -> inception_5b/3x3_reduce (in-place)
I0403 15:38:35.625635 13846 net.cpp:141] Setting up inception_5b/relu_3x3_reduce
I0403 15:38:35.625660 13846 net.cpp:148] Top shape: 24 192 7 7 (225792)
I0403 15:38:35.625675 13846 net.cpp:156] Memory required for data: 1330660896
I0403 15:38:35.625689 13846 layer_factory.hpp:77] Creating layer inception_5b/3x3
I0403 15:38:35.625710 13846 net.cpp:91] Creating Layer inception_5b/3x3
I0403 15:38:35.625728 13846 net.cpp:425] inception_5b/3x3 <- inception_5b/3x3_reduce
I0403 15:38:35.625751 13846 net.cpp:399] inception_5b/3x3 -> inception_5b/3x3
I0403 15:38:35.632565 13846 net.cpp:141] Setting up inception_5b/3x3
I0403 15:38:35.632598 13846 net.cpp:148] Top shape: 24 384 7 7 (451584)
I0403 15:38:35.632616 13846 net.cpp:156] Memory required for data: 1332467232
I0403 15:38:35.632634 13846 layer_factory.hpp:77] Creating layer inception_5b/relu_3x3
I0403 15:38:35.632653 13846 net.cpp:91] Creating Layer inception_5b/relu_3x3
I0403 15:38:35.632669 13846 net.cpp:425] inception_5b/relu_3x3 <- inception_5b/3x3
I0403 15:38:35.632688 13846 net.cpp:386] inception_5b/relu_3x3 -> inception_5b/3x3 (in-place)
I0403 15:38:35.632988 13846 net.cpp:141] Setting up inception_5b/relu_3x3
I0403 15:38:35.633018 13846 net.cpp:148] Top shape: 24 384 7 7 (451584)
I0403 15:38:35.633034 13846 net.cpp:156] Memory required for data: 1334273568
I0403 15:38:35.633049 13846 layer_factory.hpp:77] Creating layer inception_5b/5x5_reduce
I0403 15:38:35.633088 13846 net.cpp:91] Creating Layer inception_5b/5x5_reduce
I0403 15:38:35.633106 13846 net.cpp:425] inception_5b/5x5_reduce <- inception_5a/output_inception_5a/output_0_split_2
I0403 15:38:35.633138 13846 net.cpp:399] inception_5b/5x5_reduce -> inception_5b/5x5_reduce
I0403 15:38:35.634423 13846 net.cpp:141] Setting up inception_5b/5x5_reduce
I0403 15:38:35.634450 13846 net.cpp:148] Top shape: 24 48 7 7 (56448)
I0403 15:38:35.634466 13846 net.cpp:156] Memory required for data: 1334499360
I0403 15:38:35.634485 13846 layer_factory.hpp:77] Creating layer inception_5b/relu_5x5_reduce
I0403 15:38:35.634503 13846 net.cpp:91] Creating Layer inception_5b/relu_5x5_reduce
I0403 15:38:35.634519 13846 net.cpp:425] inception_5b/relu_5x5_reduce <- inception_5b/5x5_reduce
I0403 15:38:35.634538 13846 net.cpp:386] inception_5b/relu_5x5_reduce -> inception_5b/5x5_reduce (in-place)
I0403 15:38:35.634913 13846 net.cpp:141] Setting up inception_5b/relu_5x5_reduce
I0403 15:38:35.634940 13846 net.cpp:148] Top shape: 24 48 7 7 (56448)
I0403 15:38:35.634955 13846 net.cpp:156] Memory required for data: 1334725152
I0403 15:38:35.634969 13846 layer_factory.hpp:77] Creating layer inception_5b/5x5
I0403 15:38:35.634990 13846 net.cpp:91] Creating Layer inception_5b/5x5
I0403 15:38:35.635007 13846 net.cpp:425] inception_5b/5x5 <- inception_5b/5x5_reduce
I0403 15:38:35.635026 13846 net.cpp:399] inception_5b/5x5 -> inception_5b/5x5
I0403 15:38:35.637096 13846 net.cpp:141] Setting up inception_5b/5x5
I0403 15:38:35.637130 13846 net.cpp:148] Top shape: 24 128 7 7 (150528)
I0403 15:38:35.637147 13846 net.cpp:156] Memory required for data: 1335327264
I0403 15:38:35.637168 13846 layer_factory.hpp:77] Creating layer inception_5b/relu_5x5
I0403 15:38:35.637187 13846 net.cpp:91] Creating Layer inception_5b/relu_5x5
I0403 15:38:35.637204 13846 net.cpp:425] inception_5b/relu_5x5 <- inception_5b/5x5
I0403 15:38:35.637222 13846 net.cpp:386] inception_5b/relu_5x5 -> inception_5b/5x5 (in-place)
I0403 15:38:35.637418 13846 net.cpp:141] Setting up inception_5b/relu_5x5
I0403 15:38:35.637444 13846 net.cpp:148] Top shape: 24 128 7 7 (150528)
I0403 15:38:35.637457 13846 net.cpp:156] Memory required for data: 1335929376
I0403 15:38:35.637472 13846 layer_factory.hpp:77] Creating layer inception_5b/pool
I0403 15:38:35.637492 13846 net.cpp:91] Creating Layer inception_5b/pool
I0403 15:38:35.637511 13846 net.cpp:425] inception_5b/pool <- inception_5a/output_inception_5a/output_0_split_3
I0403 15:38:35.637527 13846 net.cpp:399] inception_5b/pool -> inception_5b/pool
I0403 15:38:35.637601 13846 net.cpp:141] Setting up inception_5b/pool
I0403 15:38:35.637626 13846 net.cpp:148] Top shape: 24 832 7 7 (978432)
I0403 15:38:35.637641 13846 net.cpp:156] Memory required for data: 1339843104
I0403 15:38:35.637656 13846 layer_factory.hpp:77] Creating layer inception_5b/pool_proj
I0403 15:38:35.637679 13846 net.cpp:91] Creating Layer inception_5b/pool_proj
I0403 15:38:35.637697 13846 net.cpp:425] inception_5b/pool_proj <- inception_5b/pool
I0403 15:38:35.637717 13846 net.cpp:399] inception_5b/pool_proj -> inception_5b/pool_proj
I0403 15:38:35.640050 13846 net.cpp:141] Setting up inception_5b/pool_proj
I0403 15:38:35.640080 13846 net.cpp:148] Top shape: 24 128 7 7 (150528)
I0403 15:38:35.640095 13846 net.cpp:156] Memory required for data: 1340445216
I0403 15:38:35.640113 13846 layer_factory.hpp:77] Creating layer inception_5b/relu_pool_proj
I0403 15:38:35.640136 13846 net.cpp:91] Creating Layer inception_5b/relu_pool_proj
I0403 15:38:35.640156 13846 net.cpp:425] inception_5b/relu_pool_proj <- inception_5b/pool_proj
I0403 15:38:35.640177 13846 net.cpp:386] inception_5b/relu_pool_proj -> inception_5b/pool_proj (in-place)
I0403 15:38:35.640481 13846 net.cpp:141] Setting up inception_5b/relu_pool_proj
I0403 15:38:35.640509 13846 net.cpp:148] Top shape: 24 128 7 7 (150528)
I0403 15:38:35.640524 13846 net.cpp:156] Memory required for data: 1341047328
I0403 15:38:35.640538 13846 layer_factory.hpp:77] Creating layer inception_5b/output
I0403 15:38:35.640555 13846 net.cpp:91] Creating Layer inception_5b/output
I0403 15:38:35.640585 13846 net.cpp:425] inception_5b/output <- inception_5b/1x1
I0403 15:38:35.640604 13846 net.cpp:425] inception_5b/output <- inception_5b/3x3
I0403 15:38:35.640620 13846 net.cpp:425] inception_5b/output <- inception_5b/5x5
I0403 15:38:35.640635 13846 net.cpp:425] inception_5b/output <- inception_5b/pool_proj
I0403 15:38:35.640655 13846 net.cpp:399] inception_5b/output -> inception_5b/output
I0403 15:38:35.640708 13846 net.cpp:141] Setting up inception_5b/output
I0403 15:38:35.640735 13846 net.cpp:148] Top shape: 24 1024 7 7 (1204224)
I0403 15:38:35.640751 13846 net.cpp:156] Memory required for data: 1345864224
I0403 15:38:35.640768 13846 layer_factory.hpp:77] Creating layer pool5/7x7_s1
I0403 15:38:35.640784 13846 net.cpp:91] Creating Layer pool5/7x7_s1
I0403 15:38:35.640799 13846 net.cpp:425] pool5/7x7_s1 <- inception_5b/output
I0403 15:38:35.640817 13846 net.cpp:399] pool5/7x7_s1 -> pool5/7x7_s1
I0403 15:38:35.641037 13846 net.cpp:141] Setting up pool5/7x7_s1
I0403 15:38:35.641063 13846 net.cpp:148] Top shape: 24 1024 1 1 (24576)
I0403 15:38:35.641093 13846 net.cpp:156] Memory required for data: 1345962528
I0403 15:38:35.641109 13846 layer_factory.hpp:77] Creating layer pool5/drop_7x7_s1
I0403 15:38:35.641131 13846 net.cpp:91] Creating Layer pool5/drop_7x7_s1
I0403 15:38:35.641149 13846 net.cpp:425] pool5/drop_7x7_s1 <- pool5/7x7_s1
I0403 15:38:35.641170 13846 net.cpp:386] pool5/drop_7x7_s1 -> pool5/7x7_s1 (in-place)
I0403 15:38:35.641223 13846 net.cpp:141] Setting up pool5/drop_7x7_s1
I0403 15:38:35.641252 13846 net.cpp:148] Top shape: 24 1024 1 1 (24576)
I0403 15:38:35.641268 13846 net.cpp:156] Memory required for data: 1346060832
I0403 15:38:35.641283 13846 layer_factory.hpp:77] Creating layer loss3/classifier_plantvillage
I0403 15:38:35.641302 13846 net.cpp:91] Creating Layer loss3/classifier_plantvillage
I0403 15:38:35.641319 13846 net.cpp:425] loss3/classifier_plantvillage <- pool5/7x7_s1
I0403 15:38:35.641340 13846 net.cpp:399] loss3/classifier_plantvillage -> loss3/classifier_plantvillage
I0403 15:38:35.641782 13846 net.cpp:141] Setting up loss3/classifier_plantvillage
I0403 15:38:35.641806 13846 net.cpp:148] Top shape: 24 38 (912)
I0403 15:38:35.641820 13846 net.cpp:156] Memory required for data: 1346064480
I0403 15:38:35.641837 13846 layer_factory.hpp:77] Creating layer loss3/classifier_plantvillage_loss3/classifier_plantvillage_0_split
I0403 15:38:35.641860 13846 net.cpp:91] Creating Layer loss3/classifier_plantvillage_loss3/classifier_plantvillage_0_split
I0403 15:38:35.641877 13846 net.cpp:425] loss3/classifier_plantvillage_loss3/classifier_plantvillage_0_split <- loss3/classifier_plantvillage
I0403 15:38:35.641894 13846 net.cpp:399] loss3/classifier_plantvillage_loss3/classifier_plantvillage_0_split -> loss3/classifier_plantvillage_loss3/classifier_plantvillage_0_split_0
I0403 15:38:35.641917 13846 net.cpp:399] loss3/classifier_plantvillage_loss3/classifier_plantvillage_0_split -> loss3/classifier_plantvillage_loss3/classifier_plantvillage_0_split_1
I0403 15:38:35.641937 13846 net.cpp:399] loss3/classifier_plantvillage_loss3/classifier_plantvillage_0_split -> loss3/classifier_plantvillage_loss3/classifier_plantvillage_0_split_2
I0403 15:38:35.641957 13846 net.cpp:399] loss3/classifier_plantvillage_loss3/classifier_plantvillage_0_split -> loss3/classifier_plantvillage_loss3/classifier_plantvillage_0_split_3
I0403 15:38:35.642057 13846 net.cpp:141] Setting up loss3/classifier_plantvillage_loss3/classifier_plantvillage_0_split
I0403 15:38:35.642081 13846 net.cpp:148] Top shape: 24 38 (912)
I0403 15:38:35.642097 13846 net.cpp:148] Top shape: 24 38 (912)
I0403 15:38:35.642113 13846 net.cpp:148] Top shape: 24 38 (912)
I0403 15:38:35.642134 13846 net.cpp:148] Top shape: 24 38 (912)
I0403 15:38:35.642149 13846 net.cpp:156] Memory required for data: 1346079072
I0403 15:38:35.642166 13846 layer_factory.hpp:77] Creating layer loss1/loss
I0403 15:38:35.642187 13846 net.cpp:91] Creating Layer loss1/loss
I0403 15:38:35.642204 13846 net.cpp:425] loss1/loss <- loss1/classifier_plantvillage_loss1/classifier_plantvillage_0_split_0
I0403 15:38:35.642236 13846 net.cpp:425] loss1/loss <- label_data_1_split_0
…
