…
I0403 15:54:11.062077 14821 net.cpp:313] The NetState phase (1) differed from the phase (0) specified by a rule in layer data
I0403 15:54:11.063351 14821 net.cpp:49] Initializing net from parameters: 
state {
  phase: TEST
}
layer {
  name: "data"
  type: "Data"
  top: "data"
  top: "label"
  include {
    phase: TEST
  }
  transform_param {
    mirror: false
    crop_size: 224
    mean_file: "/home/mohanty/data/final_dataset/lmdb/color-80-20/mean.binaryproto"
  }
  data_param {
    source: "/home/mohanty/data/final_dataset/lmdb/color-80-20/test_db"
    batch_size: 24
    backend: LMDB
  }
}
layer {
  name: "conv1/7x7_s2"
  type: "Convolution"
  bottom: "data"
  top: "conv1/7x7_s2"
  param {
    lr_mult: 1
    decay_mult: 1
  }
  param {
    lr_mult: 2
    decay_mult: 0
  }
  convolution_param {
    num_output: 64
    pad: 3
    kernel_size: 7
    stride: 2
    weight_filler {
      type: "xavier"
      std: 0.1
    }
    bias_filler {
      type: "constant"
      value: 0.2
    }
  }
}
layer {
  name: "conv1/relu_7x7"
  type: "ReLU"
  bottom: "conv1/7x7_s2"
  top: "conv1/7x7_s2"
}
layer {
  name: "pool1/3x3_s2"
  type: "Pooling"
  bottom: "conv1/7x7_s2"
  top: "pool1/3x3_s2"
  pooling_param {
    pool: MAX
    kernel_size: 3
    stride: 2
  }
}
layer {
  name: "pool1/norm1"
  type: "LRN"
  bottom: "pool1/3x3_s2"
  top: "pool1/norm1"
  lrn_param {
    local_size: 5
    alpha: 0.0001
    beta: 0.75
  }
}
layer {
  name: "conv2/3x3_reduce"
  type: "Convolution"
  bottom: "pool1/norm1"
  top: "conv2/3x3_reduce"
  param {
    lr_mult: 1
    decay_mult: 1
  }
  param {
    lr_mult: 2
    decay_mult: 0
  }
  convolution_param {
    num_output: 64
    kernel_size: 1
    weight_filler {
      type: "xavier"
      std: 0.1
    }
    bias_filler {
      type: "constant"
      value: 0.2
    }
  }
}
layer {
  name: "conv2/relu_3x3_reduce"
  type: "ReLU"
  bottom: "conv2/3x3_reduce"
  top: "conv2/3x3_reduce"
}
layer {
  name: "conv2/3x3"
  type: "Convolution"
  bottom: "conv2/3x3_reduce"
  top: "conv2/3x3"
  param {
    lr_mult: 1
    decay_mult: 1
  }
  param {
    lr_mult: 2
    decay_mult: 0
  }
  convolution_param {
    num_output: 192
    pad: 1
    kernel_size: 3
    weight_filler {
      type: "xavier"
      std: 0.03
    }
    bias_filler {
      type: "constant"
      value: 0.2
    }
  }
}
layer {
  name: "conv2/relu_3x3"
  type: "ReLU"
  bottom: "conv2/3x3"
  top: "conv2/3x3"
}
layer {
  name: "conv2/norm2"
  type: "LRN"
  bottom: "conv2/3x3"
  top: "conv2/norm2"
  lrn_param {
    local_size: 5
    alpha: 0.0001
    beta: 0.75
  }
}
layer {
  name: "pool2/3x3_s2"
  type: "Pooling"
  bottom: "conv2/norm2"
  top: "pool2/3x3_s2"
  pooling_param {
    pool: MAX
    kernel_size: 3
    stride: 2
  }
}
layer {
  name: "inception_3a/1x1"
  type: "Convolution"
  bottom: "pool2/3x3_s2"
  top: "inception_3a/1x1"
  param {
    lr_mult: 1
    decay_mult: 1
  }
  param {
    lr_mult: 2
    decay_mult: 0
  }
  convolution_param {
    num_output: 64
    kernel_size: 1
    weight_filler {
      type: "xavier"
      std: 0.03
    }
    bias_filler {
      type: "constant"
      value: 0.2
    }
  }
}
layer {
  name: "inception_3a/relu_1x1"
  type: "ReLU"
  bottom: "inception_3a/1x1"
  top: "inception_3a/1x1"
}
layer {
  name: "inception_3a/3x3_reduce"
  type: "Convolution"
  bottom: "pool2/3x3_s2"
  top: "inception_3a/3x3_reduce"
  param {
    lr_mult: 1
    decay_mult: 1
  }
  param {
    lr_mult: 2
    decay_mult: 0
  }
  convolution_param {
    num_output: 96
    kernel_size: 1
    weight_filler {
      type: "xavier"
      std: 0.09
    }
    bias_filler {
      type: "constant"
      value: 0.2
    }
  }
}
layer {
  name: "inception_3a/relu_3x3_reduce"
  type: "ReLU"
  bottom: "inception_3a/3x3_reduce"
  top: "inception_3a/3x3_reduce"
}
layer {
  name: "inception_3a/3x3"
  type: "Convolution"
  bottom: "inception_3a/3x3_reduce"
  top: "inception_3a/3x3"
  param {
    lr_mult: 1
    decay_mult: 1
  }
  param {
    lr_mult: 2
    decay_mult: 0
  }
  convolution_param {
    num_output: 128
    pad: 1
    kernel_size: 3
    weight_filler {
      type: "xavier"
      std: 0.03
    }
    bias_filler {
      type: "constant"
      value: 0.2
    }
  }
}
layer {
  name: "inception_3a/relu_3x3"
  type: "ReLU"
  bottom: "inception_3a/3x3"
  top: "inception_3a/3x3"
}
layer {
  name: "inception_3a/5x5_reduce"
  type: "Convolution"
  bottom: "pool2/3x3_s2"
  top: "inception_3a/5x5_reduce"
  param {
    lr_mult: 1
    decay_mult: 1
  }
  param {
    lr_mult: 2
    decay_mult: 0
  }
  convolution_param {
    num_output: 16
    kernel_size: 1
    weight_filler {
      type: "xavier"
      std: 0.2
    }
    bias_filler {
      type: "constant"
      value: 0.2
    }
  }
}
layer {
  name: "inception_3a/relu_5x5_reduce"
  type: "ReLU"
  bottom: "inception_3a/5x5_reduce"
  top: "inception_3a/5x5_reduce"
}
layer {
  name: "inception_3a/5x5"
  type: "Convolution"
  bottom: "inception_3a/5x5_reduce"
  top: "inception_3a/5x5"
  param {
    lr_mult: 1
    decay_mult: 1
  }
  param {
    lr_mult: 2
    decay_mult: 0
  }
  convolution_param {
    num_output: 32
    pad: 2
    kernel_size: 5
    weight_filler {
      type: "xavier"
      std: 0.03
    }
    bias_filler {
      type: "constant"
      value: 0.2
    }
  }
}
layer {
  name: "inception_3a/relu_5x5"
  type: "ReLU"
  bottom: "inception_3a/5x5"
  top: "inception_3a/5x5"
}
layer {
  name: "inception_3a/pool"
  type: "Pooling"
  bottom: "pool2/3x3_s2"
  top: "inception_3a/pool"
  pooling_param {
    pool: MAX
    kernel_size: 3
    stride: 1
    pad: 1
  }
}
layer {
  name: "inception_3a/pool_proj"
  type: "Convolution"
  bottom: "inception_3a/pool"
  top: "inception_3a/pool_proj"
  param {
    lr_mult: 1
    decay_mult: 1
  }
  param {
    lr_mult: 2
    decay_mult: 0
  }
  convolution_param {
    num_output: 32
    kernel_size: 1
    weight_filler {
      type: "xavier"
      std: 0.1
    }
    bias_filler {
      type: "constant"
      value: 0.2
    }
  }
}
layer {
  name: "inception_3a/relu_pool_proj"
  type: "ReLU"
  bottom: "inception_3a/pool_proj"
  top: "inception_3a/pool_proj"
}
layer {
  name: "inception_3a/output"
  type: "Concat"
  bottom: "inception_3a/1x1"
  bottom: "inception_3a/3x3"
  bottom: "inception_3a/5x5"
  bottom: "inception_3a/pool_proj"
  top: "inception_3a/output"
}
layer {
  name: "inception_3b/1x1"
  type: "Convolution"
  bottom: "inception_3a/output"
  top: "inception_3b/1x1"
  param {
    lr_mult: 1
    decay_mult: 1
  }
  param {
    lr_mult: 2
    decay_mult: 0
  }
  convolution_param {
    num_output: 128
    kernel_size: 1
    weight_filler {
      type: "xavier"
      std: 0.03
    }
    bias_filler {
      type: "constant"
      value: 0.2
    }
  }
}
layer {
  name: "inception_3b/relu_1x1"
  type: "ReLU"
  bottom: "inception_3b/1x1"
  top: "inception_3b/1x1"
}
layer {
  name: "inception_3b/3x3_reduce"
  type: "Convolution"
  bottom: "inception_3a/output"
  top: "inception_3b/3x3_reduce"
  param {
    lr_mult: 1
    decay_mult: 1
  }
  param {
    lr_mult: 2
    decay_mult: 0
  }
  convolution_param {
    num_output: 128
    kernel_size: 1
    weight_filler {
      type: "xavier"
      std: 0.09
    }
    bias_filler {
      type: "constant"
      value: 0.2
    }
  }
}
layer {
  name: "inception_3b/relu_3x3_reduce"
  type: "ReLU"
  bottom: "inception_3b/3x3_reduce"
  top: "inception_3b/3x3_reduce"
}
layer {
  name: "inception_3b/3x3"
  type: "Convolution"
  bottom: "inception_3b/3x3_reduce"
  top: "inception_3b/3x3"
  param {
    lr_mult: 1
    decay_mult: 1
  }
  param {
    lr_mult: 2
    decay_mult: 0
  }
  convolution_param {
    num_output: 192
    pad: 1
    kernel_size: 3
    weight_filler {
      type: "xavier"
      std: 0.03
    }
    bias_filler {
      type: "constant"
      value: 0.2
    }
  }
}
layer {
  name: "inception_3b/relu_3x3"
  type: "ReLU"
  bottom: "inception_3b/3x3"
  top: "inception_3b/3x3"
}
layer {
  name: "inception_3b/5x5_reduce"
  type: "Convolution"
  bottom: "inception_3a/output"
  top: "inception_3b/5x5_reduce"
  param {
    lr_mult: 1
    decay_mult: 1
  }
  param {
    lr_mult: 2
    decay_mult: 0
  }
  convolution_param {
    num_output: 32
    kernel_size: 1
    weight_filler {
      type: "xavier"
      std: 0.2
    }
    bias_filler {
      type: "constant"
      value: 0.2
    }
  }
}
layer {
  name: "inception_3b/relu_5x5_reduce"
  type: "ReLU"
  bottom: "inception_3b/5x5_reduce"
  top: "inception_3b/5x5_reduce"
}
layer {
  name: "inception_3b/5x5"
  type: "Convolution"
  bottom: "inception_3b/5x5_reduce"
  top: "inception_3b/5x5"
  param {
    lr_mult: 1
    decay_mult: 1
  }
  param {
    lr_mult: 2
    decay_mult: 0
  }
  convolution_param {
    num_output: 96
    pad: 2
    kernel_size: 5
    weight_filler {
      type: "xavier"
      std: 0.03
    }
    bias_filler {
      type: "constant"
      value: 0.2
    }
  }
}
layer {
  name: "inception_3b/relu_5x5"
  type: "ReLU"
  bottom: "inception_3b/5x5"
  top: "inception_3b/5x5"
}
layer {
  name: "inception_3b/pool"
  type: "Pooling"
  bottom: "inception_3a/output"
  top: "inception_3b/pool"
  pooling_param {
    pool: MAX
    kernel_size: 3
    stride: 1
    pad: 1
  }
}
layer {
  name: "inception_3b/pool_proj"
  type: "Convolution"
  bottom: "inception_3b/pool"
  top: "inception_3b/pool_proj"
  param {
    lr_mult: 1
    decay_mult: 1
  }
  param {
    lr_mult: 2
    decay_mult: 0
  }
  convolution_param {
    num_output: 64
    kernel_size: 1
    weight_filler {
      type: "xavier"
      std: 0.1
    }
    bias_filler {
      type: "constant"
      value: 0.2
    }
  }
}
layer {
  name: "inception_3b/relu_pool_proj"
  type: "ReLU"
  bottom: "inception_3b/pool_proj"
  top: "inception_3b/pool_proj"
}
layer {
  name: "inception_3b/output"
  type: "Concat"
  bottom: "inception_3b/1x1"
  bottom: "inception_3b/3x3"
  bottom: "inception_3b/5x5"
  bottom: "inception_3b/pool_proj"
  top: "inception_3b/output"
}
layer {
  name: "pool3/3x3_s2"
  type: "Pooling"
  bottom: "inception_3b/output"
  top: "pool3/3x3_s2"
  pooling_param {
    pool: MAX
    kernel_size: 3
    stride: 2
  }
}
layer {
  name: "inception_4a/1x1"
  type: "Convolution"
  bottom: "pool3/3x3_s2"
  top: "inception_4a/1x1"
  param {
    lr_mult: 1
    decay_mult: 1
  }
  param {
    lr_mult: 2
    decay_mult: 0
  }
  convolution_param {
    num_output: 192
    kernel_size: 1
    weight_filler {
      type: "xavier"
      std: 0.03
    }
    bias_filler {
      type: "constant"
      value: 0.2
    }
  }
}
layer {
  name: "inception_4a/relu_1x1"
  type: "ReLU"
  bottom: "inception_4a/1x1"
  top: "inception_4a/1x1"
}
layer {
  name: "inception_4a/3x3_reduce"
  type: "Convolution"
  bottom: "pool3/3x3_s2"
  top: "inception_4a/3x3_reduce"
  param {
    lr_mult: 1
    decay_mult: 1
  }
  param {
    lr_mult: 2
    decay_mult: 0
  }
  convolution_param {
    num_output: 96
    kernel_size: 1
    weight_filler {
      type: "xavier"
      std: 0.09
    }
    bias_filler {
      type: "constant"
      value: 0.2
    }
  }
}
layer {
  name: "inception_4a/relu_3x3_reduce"
  type: "ReLU"
  bottom: "inception_4a/3x3_reduce"
  top: "inception_4a/3x3_reduce"
}
layer {
  name: "inception_4a/3x3"
  type: "Convolution"
  bottom: "inception_4a/3x3_reduce"
  top: "inception_4a/3x3"
  param {
    lr_mult: 1
    decay_mult: 1
  }
  param {
    lr_mult: 2
    decay_mult: 0
  }
  convolution_param {
    num_output: 208
    pad: 1
    kernel_size: 3
    weight_filler {
      type: "xavier"
      std: 0.03
    }
    bias_filler {
      type: "constant"
      value: 0.2
    }
  }
}
layer {
  name: "inception_4a/relu_3x3"
  type: "ReLU"
  bottom: "inception_4a/3x3"
  top: "inception_4a/3x3"
}
layer {
  name: "inception_4a/5x5_reduce"
  type: "Convolution"
  bottom: "pool3/3x3_s2"
  top: "inception_4a/5x5_reduce"
  param {
    lr_mult: 1
    decay_mult: 1
  }
  param {
    lr_mult: 2
    decay_mult: 0
  }
  convolution_param {
    num_output: 16
    kernel_size: 1
    weight_filler {
      type: "xavier"
      std: 0.2
    }
    bias_filler {
      type: "constant"
      value: 0.2
    }
  }
}
layer {
  name: "inception_4a/relu_5x5_reduce"
  type: "ReLU"
  bottom: "inception_4a/5x5_reduce"
  top: "inception_4a/5x5_reduce"
}
layer {
  name: "inception_4a/5x5"
  type: "Convolution"
  bottom: "inception_4a/5x5_reduce"
  top: "inception_4a/5x5"
  param {
    lr_mult: 1
    decay_mult: 1
  }
  param {
    lr_mult: 2
    decay_mult: 0
  }
  convolution_param {
    num_output: 48
    pad: 2
    kernel_size: 5
    weight_filler {
      type: "xavier"
      std: 0.03
    }
    bias_filler {
      type: "constant"
      value: 0.2
    }
  }
}
layer {
  name: "inception_4a/relu_5x5"
  type: "ReLU"
  bottom: "inception_4a/5x5"
  top: "inception_4a/5x5"
}
layer {
  name: "inception_4a/pool"
  type: "Pooling"
  bottom: "pool3/3x3_s2"
  top: "inception_4a/pool"
  pooling_param {
    pool: MAX
    kernel_size: 3
    stride: 1
    pad: 1
  }
}
layer {
  name: "inception_4a/pool_proj"
  type: "Convolution"
  bottom: "inception_4a/pool"
  top: "inception_4a/pool_proj"
  param {
    lr_mult: 1
    decay_mult: 1
  }
  param {
    lr_mult: 2
    decay_mult: 0
  }
  convolution_param {
    num_output: 64
    kernel_size: 1
    weight_filler {
      type: "xavier"
      std: 0.1
    }
    bias_filler {
      type: "constant"
      value: 0.2
    }
  }
}
layer {
  name: "inception_4a/relu_pool_proj"
  type: "ReLU"
  bottom: "inception_4a/pool_proj"
  top: "inception_4a/pool_proj"
}
layer {
  name: "inception_4a/output"
  type: "Concat"
  bottom: "inception_4a/1x1"
  bottom: "inception_4a/3x3"
  bottom: "inception_4a/5x5"
  bottom: "inception_4a/pool_proj"
  top: "inception_4a/output"
}
layer {
  name: "loss1/ave_pool"
  type: "Pooling"
  bottom: "inception_4a/output"
  top: "loss1/ave_pool"
  pooling_param {
    pool: AVE
    kernel_size: 5
    stride: 3
  }
}
layer {
  name: "loss1/conv"
  type: "Convolution"
  bottom: "loss1/ave_pool"
  top: "loss1/conv"
  param {
    lr_mult: 1
    decay_mult: 1
  }
  param {
    lr_mult: 2
    decay_mult: 0
  }
  convolution_param {
    num_output: 128
    kernel_size: 1
    weight_filler {
      type: "xavier"
      std: 0.08
    }
    bias_filler {
      type: "constant"
      value: 0.2
    }
  }
}
layer {
  name: "loss1/relu_conv"
  type: "ReLU"
  bottom: "loss1/conv"
  top: "loss1/conv"
}
layer {
  name: "loss1/fc"
  type: "InnerProduct"
  bottom: "loss1/conv"
  top: "loss1/fc"
  param {
    lr_mult: 1
    decay_mult: 1
  }
  param {
    lr_mult: 2
    decay_mult: 0
  }
  inner_product_param {
    num_output: 1024
    weight_filler {
      type: "xavier"
      std: 0.02
    }
    bias_filler {
      type: "constant"
      value: 0.2
    }
  }
}
layer {
  name: "loss1/relu_fc"
  type: "ReLU"
  bottom: "loss1/fc"
  top: "loss1/fc"
}
layer {
  name: "loss1/drop_fc"
  type: "Dropout"
  bottom: "loss1/fc"
  top: "loss1/fc"
  dropout_param {
    dropout_ratio: 0.7
  }
}
layer {
  name: "loss1/classifier_plantvillage"
  type: "InnerProduct"
  bottom: "loss1/fc"
  top: "loss1/classifier_plantvillage"
  param {
    lr_mult: 1
    decay_mult: 1
  }
  param {
    lr_mult: 2
    decay_mult: 0
  }
  inner_product_param {
    num_output: 38
    weight_filler {
      type: "xavier"
      std: 0.0009765625
    }
    bias_filler {
      type: "constant"
      value: 0
    }
  }
}
layer {
  name: "inception_4b/1x1"
  type: "Convolution"
  bottom: "inception_4a/output"
  top: "inception_4b/1x1"
  param {
    lr_mult: 1
    decay_mult: 1
  }
  param {
    lr_mult: 2
    decay_mult: 0
  }
  convolution_param {
    num_output: 160
    kernel_size: 1
    weight_filler {
      type: "xavier"
      std: 0.03
    }
    bias_filler {
      type: "constant"
      value: 0.2
    }
  }
}
layer {
  name: "inception_4b/relu_1x1"
  type: "ReLU"
  bottom: "inception_4b/1x1"
  top: "inception_4b/1x1"
}
layer {
  name: "inception_4b/3x3_reduce"
  type: "Convolution"
  bottom: "inception_4a/output"
  top: "inception_4b/3x3_reduce"
  param {
    lr_mult: 1
    decay_mult: 1
  }
  param {
    lr_mult: 2
    decay_mult: 0
  }
  convolution_param {
    num_output: 112
    kernel_size: 1
    weight_filler {
      type: "xavier"
      std: 0.09
    }
    bias_filler {
      type: "constant"
      value: 0.2
    }
  }
}
layer {
  name: "inception_4b/relu_3x3_reduce"
  type: "ReLU"
  bottom: "inception_4b/3x3_reduce"
  top: "inception_4b/3x3_reduce"
}
layer {
  name: "inception_4b/3x3"
  type: "Convolution"
  bottom: "inception_4b/3x3_reduce"
  top: "inception_4b/3x3"
  param {
    lr_mult: 1
    decay_mult: 1
  }
  param {
    lr_mult: 2
    decay_mult: 0
  }
  convolution_param {
    num_output: 224
    pad: 1
    kernel_size: 3
    weight_filler {
      type: "xavier"
      std: 0.03
    }
    bias_filler {
      type: "constant"
      value: 0.2
    }
  }
}
layer {
  name: "inception_4b/relu_3x3"
  type: "ReLU"
  bottom: "inception_4b/3x3"
  top: "inception_4b/3x3"
}
layer {
  name: "inception_4b/5x5_reduce"
  type: "Convolution"
  bottom: "inception_4a/output"
  top: "inception_4b/5x5_reduce"
  param {
    lr_mult: 1
    decay_mult: 1
  }
  param {
    lr_mult: 2
    decay_mult: 0
  }
  convolution_param {
    num_output: 24
    kernel_size: 1
    weight_filler {
      type: "xavier"
      std: 0.2
    }
    bias_filler {
      type: "constant"
      value: 0.2
    }
  }
}
layer {
  name: "inception_4b/relu_5x5_reduce"
  type: "ReLU"
  bottom: "inception_4b/5x5_reduce"
  top: "inception_4b/5x5_reduce"
}
layer {
  name: "inception_4b/5x5"
  type: "Convolution"
  bottom: "inception_4b/5x5_reduce"
  top: "inception_4b/5x5"
  param {
    lr_mult: 1
    decay_mult: 1
  }
  param {
    lr_mult: 2
    decay_mult: 0
  }
  convolution_param {
    num_output: 64
    pad: 2
    kernel_size: 5
    weight_filler {
      type: "xavier"
      std: 0.03
    }
    bias_filler {
      type: "constant"
      value: 0.2
    }
  }
}
layer {
  name: "inception_4b/relu_5x5"
  type: "ReLU"
  bottom: "inception_4b/5x5"
  top: "inception_4b/5x5"
}
layer {
  name: "inception_4b/pool"
  type: "Pooling"
  bottom: "inception_4a/output"
  top: "inception_4b/pool"
  pooling_param {
    pool: MAX
    kernel_size: 3
    stride: 1
    pad: 1
  }
}
layer {
  name: "inception_4b/pool_proj"
  type: "Convolution"
  bottom: "inception_4b/pool"
  top: "inception_4b/pool_proj"
  param {
    lr_mult: 1
    decay_mult: 1
  }
  param {
    lr_mult: 2
    decay_mult: 0
  }
  convolution_param {
    num_output: 64
    kernel_size: 1
    weight_filler {
      type: "xavier"
      std: 0.1
    }
    bias_filler {
      type: "constant"
      value: 0.2
    }
  }
}
layer {
  name: "inception_4b/relu_pool_proj"
  type: "ReLU"
  bottom: "inception_4b/pool_proj"
  top: "inception_4b/pool_proj"
}
layer {
  name: "inception_4b/output"
  type: "Concat"
  bottom: "inception_4b/1x1"
  bottom: "inception_4b/3x3"
  bottom: "inception_4b/5x5"
  bottom: "inception_4b/pool_proj"
  top: "inception_4b/output"
}
layer {
  name: "inception_4c/1x1"
  type: "Convolution"
  bottom: "inception_4b/output"
  top: "inception_4c/1x1"
  param {
    lr_mult: 1
    decay_mult: 1
  }
  param {
    lr_mult: 2
    decay_mult: 0
  }
  convolution_param {
    num_output: 128
    kernel_size: 1
    weight_filler {
      type: "xavier"
      std: 0.03
    }
    bias_filler {
      type: "constant"
      value: 0.2
    }
  }
}
layer {
  name: "inception_4c/relu_1x1"
  type: "ReLU"
  bottom: "inception_4c/1x1"
  top: "inception_4c/1x1"
}
layer {
  name: "inception_4c/3x3_reduce"
  type: "Convolution"
  bottom: "inception_4b/output"
  top: "inception_4c/3x3_reduce"
  param {
    lr_mult: 1
    decay_mult: 1
  }
  param {
    lr_mult: 2
    decay_mult: 0
  }
  convolution_param {
    num_output: 128
    kernel_size: 1
    weight_filler {
      type: "xavier"
      std: 0.09
    }
    bias_filler {
      type: "constant"
      value: 0.2
    }
  }
}
layer {
  name: "inception_4c/relu_3x3_reduce"
  type: "ReLU"
  bottom: "inception_4c/3x3_reduce"
  top: "inception_4c/3x3_reduce"
}
layer {
  name: "inception_4c/3x3"
  type: "Convolution"
  bottom: "inception_4c/3x3_reduce"
  top: "inception_4c/3x3"
  param {
    lr_mult: 1
    decay_mult: 1
  }
  param {
    lr_mult: 2
    decay_mult: 0
  }
  convolution_param {
    num_output: 256
    pad: 1
    kernel_size: 3
    weight_filler {
      type: "xavier"
      std: 0.03
    }
    bias_filler {
      type: "constant"
      value: 0.2
    }
  }
}
layer {
  name: "inception_4c/relu_3x3"
  type: "ReLU"
  bottom: "inception_4c/3x3"
  top: "inception_4c/3x3"
}
layer {
  name: "inception_4c/5x5_reduce"
  type: "Convolution"
  bottom: "inception_4b/output"
  top: "inception_4c/5x5_reduce"
  param {
    lr_mult: 1
    decay_mult: 1
  }
  param {
    lr_mult: 2
    decay_mult: 0
  }
  convolution_param {
    num_output: 24
    kernel_size: 1
    weight_filler {
      type: "xavier"
      std: 0.2
    }
    bias_filler {
      type: "constant"
      value: 0.2
    }
  }
}
layer {
  name: "inception_4c/relu_5x5_reduce"
  type: "ReLU"
  bottom: "inception_4c/5x5_reduce"
  top: "inception_4c/5x5_reduce"
}
layer {
  name: "inception_4c/5x5"
  type: "Convolution"
  bottom: "inception_4c/5x5_reduce"
  top: "inception_4c/5x5"
  param {
    lr_mult: 1
    decay_mult: 1
  }
  param {
    lr_mult: 2
    decay_mult: 0
  }
  convolution_param {
    num_output: 64
    pad: 2
    kernel_size: 5
    weight_filler {
      type: "xavier"
      std: 0.03
    }
    bias_filler {
      type: "constant"
      value: 0.2
    }
  }
}
layer {
  name: "inception_4c/relu_5x5"
  type: "ReLU"
  bottom: "inception_4c/5x5"
  top: "inception_4c/5x5"
}
layer {
  name: "inception_4c/pool"
  type: "Pooling"
  bottom: "inception_4b/output"
  top: "inception_4c/pool"
  pooling_param {
    pool: MAX
    kernel_size: 3
    stride: 1
    pad: 1
  }
}
layer {
  name: "inception_4c/pool_proj"
  type: "Convolution"
  bottom: "inception_4c/pool"
  top: "inception_4c/pool_proj"
  param {
    lr_mult: 1
    decay_mult: 1
  }
  param {
    lr_mult: 2
    decay_mult: 0
  }
  convolution_param {
    num_output: 64
    kernel_size: 1
    weight_filler {
      type: "xavier"
      std: 0.1
    }
    bias_filler {
      type: "constant"
      value: 0.2
    }
  }
}
layer {
  name: "inception_4c/relu_pool_proj"
  type: "ReLU"
  bottom: "inception_4c/pool_proj"
  top: "inception_4c/pool_proj"
}
layer {
  name: "inception_4c/output"
  type: "Concat"
  bottom: "inception_4c/1x1"
  bottom: "inception_4c/3x3"
  bottom: "inception_4c/5x5"
  bottom: "inception_4c/pool_proj"
  top: "inception_4c/output"
}
layer {
  name: "inception_4d/1x1"
  type: "Convolution"
  bottom: "inception_4c/output"
  top: "inception_4d/1x1"
  param {
    lr_mult: 1
    decay_mult: 1
  }
  param {
    lr_mult: 2
    decay_mult: 0
  }
  convolution_param {
    num_output: 112
    kernel_size: 1
    weight_filler {
      type: "xavier"
      std: 0.03
    }
    bias_filler {
      type: "constant"
      value: 0.2
    }
  }
}
layer {
  name: "inception_4d/relu_1x1"
  type: "ReLU"
  bottom: "inception_4d/1x1"
  top: "inception_4d/1x1"
}
layer {
  name: "inception_4d/3x3_reduce"
  type: "Convolution"
  bottom: "inception_4c/output"
  top: "inception_4d/3x3_reduce"
  param {
    lr_mult: 1
    decay_mult: 1
  }
  param {
    lr_mult: 2
    decay_mult: 0
  }
  convolution_param {
    num_output: 144
    kernel_size: 1
    weight_filler {
      type: "xavier"
      std: 0.09
    }
    bias_filler {
      type: "constant"
      value: 0.2
    }
  }
}
layer {
  name: "inception_4d/relu_3x3_reduce"
  type: "ReLU"
  bottom: "inception_4d/3x3_reduce"
  top: "inception_4d/3x3_reduce"
}
layer {
  name: "inception_4d/3x3"
  type: "Convolution"
  bottom: "inception_4d/3x3_reduce"
  top: "inception_4d/3x3"
  param {
    lr_mult: 1
    decay_mult: 1
  }
  param {
    lr_mult: 2
    decay_mult: 0
  }
  convolution_param {
    num_output: 288
    pad: 1
    kernel_size: 3
    weight_filler {
      type: "xavier"
      std: 0.03
    }
    bias_filler {
      type: "constant"
      value: 0.2
    }
  }
}
layer {
  name: "inception_4d/relu_3x3"
  type: "ReLU"
  bottom: "inception_4d/3x3"
  top: "inception_4d/3x3"
}
layer {
  name: "inception_4d/5x5_reduce"
  type: "Convolution"
  bottom: "inception_4c/output"
  top: "inception_4d/5x5_reduce"
  param {
    lr_mult: 1
    decay_mult: 1
  }
  param {
    lr_mult: 2
    decay_mult: 0
  }
  convolution_param {
    num_output: 32
    kernel_size: 1
    weight_filler {
      type: "xavier"
      std: 0.2
    }
    bias_filler {
      type: "constant"
      value: 0.2
    }
  }
}
layer {
  name: "inception_4d/relu_5x5_reduce"
  type: "ReLU"
  bottom: "inception_4d/5x5_reduce"
  top: "inception_4d/5x5_reduce"
}
layer {
  name: "inception_4d/5x5"
  type: "Convolution"
  bottom: "inception_4d/5x5_reduce"
  top: "inception_4d/5x5"
  param {
    lr_mult: 1
    decay_mult: 1
  }
  param {
    lr_mult: 2
    decay_mult: 0
  }
  convolution_param {
    num_output: 64
    pad: 2
    kernel_size: 5
    weight_filler {
      type: "xavier"
      std: 0.03
    }
    bias_filler {
      type: "constant"
      value: 0.2
    }
  }
}
layer {
  name: "inception_4d/relu_5x5"
  type: "ReLU"
  bottom: "inception_4d/5x5"
  top: "inception_4d/5x5"
}
layer {
  name: "inception_4d/pool"
  type: "Pooling"
  bottom: "inception_4c/output"
  top: "inception_4d/pool"
  pooling_param {
    pool: MAX
    kernel_size: 3
    stride: 1
    pad: 1
  }
}
layer {
  name: "inception_4d/pool_proj"
  type: "Convolution"
  bottom: "inception_4d/pool"
  top: "inception_4d/pool_proj"
  param {
    lr_mult: 1
    decay_mult: 1
  }
  param {
    lr_mult: 2
    decay_mult: 0
  }
  convolution_param {
    num_output: 64
    kernel_size: 1
    weight_filler {
      type: "xavier"
      std: 0.1
    }
    bias_filler {
      type: "constant"
      value: 0.2
    }
  }
}
layer {
  name: "inception_4d/relu_pool_proj"
  type: "ReLU"
  bottom: "inception_4d/pool_proj"
  top: "inception_4d/pool_proj"
}
layer {
  name: "inception_4d/output"
  type: "Concat"
  bottom: "inception_4d/1x1"
  bottom: "inception_4d/3x3"
  bottom: "inception_4d/5x5"
  bottom: "inception_4d/pool_proj"
  top: "inception_4d/output"
}
layer {
  name: "loss2/ave_pool"
  type: "Pooling"
  bottom: "inception_4d/output"
  top: "loss2/ave_pool"
  pooling_param {
    pool: AVE
    kernel_size: 5
    stride: 3
  }
}
layer {
  name: "loss2/conv"
  type: "Convolution"
  bottom: "loss2/ave_pool"
  top: "loss2/conv"
  param {
    lr_mult: 1
    decay_mult: 1
  }
  param {
    lr_mult: 2
    decay_mult: 0
  }
  convolution_param {
    num_output: 128
    kernel_size: 1
    weight_filler {
      type: "xavier"
      std: 0.08
    }
    bias_filler {
      type: "constant"
      value: 0.2
    }
  }
}
layer {
  name: "loss2/relu_conv"
  type: "ReLU"
  bottom: "loss2/conv"
  top: "loss2/conv"
}
layer {
  name: "loss2/fc"
  type: "InnerProduct"
  bottom: "loss2/conv"
  top: "loss2/fc"
  param {
    lr_mult: 1
    decay_mult: 1
  }
  param {
    lr_mult: 2
    decay_mult: 0
  }
  inner_product_param {
    num_output: 1024
    weight_filler {
      type: "xavier"
      std: 0.02
    }
    bias_filler {
      type: "constant"
      value: 0.2
    }
  }
}
layer {
  name: "loss2/relu_fc"
  type: "ReLU"
  bottom: "loss2/fc"
  top: "loss2/fc"
}
layer {
  name: "loss2/drop_fc"
  type: "Dropout"
  bottom: "loss2/fc"
  top: "loss2/fc"
  dropout_param {
    dropout_ratio: 0.7
  }
}
layer {
  name: "loss2/classifier_plantvillage"
  type: "InnerProduct"
  bottom: "loss2/fc"
  top: "loss2/classifier_plantvillage"
  param {
    lr_mult: 1
    decay_mult: 1
  }
  param {
    lr_mult: 2
    decay_mult: 0
  }
  inner_product_param {
    num_output: 38
    weight_filler {
      type: "xavier"
      std: 0.0009765625
    }
    bias_filler {
      type: "constant"
      value: 0
    }
  }
}
layer {
  name: "inception_4e/1x1"
  type: "Convolution"
  bottom: "inception_4d/output"
  top: "inception_4e/1x1"
  param {
    lr_mult: 1
    decay_mult: 1
  }
  param {
    lr_mult: 2
    decay_mult: 0
  }
  convolution_param {
    num_output: 256
    kernel_size: 1
    weight_filler {
      type: "xavier"
      std: 0.03
    }
    bias_filler {
      type: "constant"
      value: 0.2
    }
  }
}
layer {
  name: "inception_4e/relu_1x1"
  type: "ReLU"
  bottom: "inception_4e/1x1"
  top: "inception_4e/1x1"
}
layer {
  name: "inception_4e/3x3_reduce"
  type: "Convolution"
  bottom: "inception_4d/output"
  top: "inception_4e/3x3_reduce"
  param {
    lr_mult: 1
    decay_mult: 1
  }
  param {
    lr_mult: 2
    decay_mult: 0
  }
  convolution_param {
    num_output: 160
    kernel_size: 1
    weight_filler {
      type: "xavier"
      std: 0.09
    }
    bias_filler {
      type: "constant"
      value: 0.2
    }
  }
}
layer {
  name: "inception_4e/relu_3x3_reduce"
  type: "ReLU"
  bottom: "inception_4e/3x3_reduce"
  top: "inception_4e/3x3_reduce"
}
layer {
  name: "inception_4e/3x3"
  type: "Convolution"
  bottom: "inception_4e/3x3_reduce"
  top: "inception_4e/3x3"
  param {
    lr_mult: 1
    decay_mult: 1
  }
  param {
    lr_mult: 2
    decay_mult: 0
  }
  convolution_param {
    num_output: 320
    pad: 1
    kernel_size: 3
    weight_filler {
      type: "xavier"
      std: 0.03
    }
    bias_filler {
      type: "constant"
      value: 0.2
    }
  }
}
layer {
  name: "inception_4e/relu_3x3"
  type: "ReLU"
  bottom: "inception_4e/3x3"
  top: "inception_4e/3x3"
}
layer {
  name: "inception_4e/5x5_reduce"
  type: "Convolution"
  bottom: "inception_4d/output"
  top: "inception_4e/5x5_reduce"
  param {
    lr_mult: 1
    decay_mult: 1
  }
  param {
    lr_mult: 2
    decay_mult: 0
  }
  convolution_param {
    num_output: 32
    kernel_size: 1
    weight_filler {
      type: "xavier"
      std: 0.2
    }
    bias_filler {
      type: "constant"
      value: 0.2
    }
  }
}
layer {
  name: "inception_4e/relu_5x5_reduce"
  type: "ReLU"
  bottom: "inception_4e/5x5_reduce"
  top: "inception_4e/5x5_reduce"
}
layer {
  name: "inception_4e/5x5"
  type: "Convolution"
  bottom: "inception_4e/5x5_reduce"
  top: "inception_4e/5x5"
  p
I0403 15:54:11.064596 14821 layer_factory.hpp:77] Creating layer data
I0403 15:54:11.065235 14821 net.cpp:91] Creating Layer data
I0403 15:54:11.065269 14821 net.cpp:399] data -> data
I0403 15:54:11.065323 14821 net.cpp:399] data -> label
I0403 15:54:11.065364 14821 data_transformer.cpp:25] Loading mean file from: /home/mohanty/data/final_dataset/lmdb/color-80-20/mean.binaryproto
I0403 15:54:11.067908 14825 db_lmdb.cpp:38] Opened lmdb /home/mohanty/data/final_dataset/lmdb/color-80-20/test_db
I0403 15:54:11.078796 14821 data_layer.cpp:41] output data size: 24,3,224,224
I0403 15:54:11.106446 14821 net.cpp:141] Setting up data
I0403 15:54:11.106550 14821 net.cpp:148] Top shape: 24 3 224 224 (3612672)
I0403 15:54:11.106575 14821 net.cpp:148] Top shape: 24 (24)
I0403 15:54:11.106590 14821 net.cpp:156] Memory required for data: 14450784
I0403 15:54:11.106618 14821 layer_factory.hpp:77] Creating layer label_data_1_split
I0403 15:54:11.106645 14821 net.cpp:91] Creating Layer label_data_1_split
I0403 15:54:11.106664 14821 net.cpp:425] label_data_1_split <- label
I0403 15:54:11.106696 14821 net.cpp:399] label_data_1_split -> label_data_1_split_0
I0403 15:54:11.106726 14821 net.cpp:399] label_data_1_split -> label_data_1_split_1
I0403 15:54:11.106748 14821 net.cpp:399] label_data_1_split -> label_data_1_split_2
I0403 15:54:11.106772 14821 net.cpp:399] label_data_1_split -> label_data_1_split_3
I0403 15:54:11.106796 14821 net.cpp:399] label_data_1_split -> label_data_1_split_4
I0403 15:54:11.106817 14821 net.cpp:399] label_data_1_split -> label_data_1_split_5
I0403 15:54:11.106837 14821 net.cpp:399] label_data_1_split -> label_data_1_split_6
I0403 15:54:11.106856 14821 net.cpp:399] label_data_1_split -> label_data_1_split_7
I0403 15:54:11.106875 14821 net.cpp:399] label_data_1_split -> label_data_1_split_8
I0403 15:54:11.106896 14821 net.cpp:399] label_data_1_split -> label_data_1_split_9
I0403 15:54:11.107017 14821 net.cpp:141] Setting up label_data_1_split
I0403 15:54:11.107045 14821 net.cpp:148] Top shape: 24 (24)
I0403 15:54:11.107064 14821 net.cpp:148] Top shape: 24 (24)
I0403 15:54:11.107082 14821 net.cpp:148] Top shape: 24 (24)
I0403 15:54:11.107101 14821 net.cpp:148] Top shape: 24 (24)
I0403 15:54:11.107120 14821 net.cpp:148] Top shape: 24 (24)
I0403 15:54:11.107141 14821 net.cpp:148] Top shape: 24 (24)
I0403 15:54:11.107158 14821 net.cpp:148] Top shape: 24 (24)
I0403 15:54:11.107173 14821 net.cpp:148] Top shape: 24 (24)
I0403 15:54:11.107189 14821 net.cpp:148] Top shape: 24 (24)
I0403 15:54:11.107205 14821 net.cpp:148] Top shape: 24 (24)
I0403 15:54:11.107251 14821 net.cpp:156] Memory required for data: 14451744
I0403 15:54:11.107269 14821 layer_factory.hpp:77] Creating layer conv1/7x7_s2
I0403 15:54:11.107300 14821 net.cpp:91] Creating Layer conv1/7x7_s2
I0403 15:54:11.107319 14821 net.cpp:425] conv1/7x7_s2 <- data
I0403 15:54:11.107339 14821 net.cpp:399] conv1/7x7_s2 -> conv1/7x7_s2
I0403 15:54:11.255386 14821 net.cpp:141] Setting up conv1/7x7_s2
I0403 15:54:11.255475 14821 net.cpp:148] Top shape: 24 64 112 112 (19267584)
I0403 15:54:11.255493 14821 net.cpp:156] Memory required for data: 91522080
I0403 15:54:11.255524 14821 layer_factory.hpp:77] Creating layer conv1/relu_7x7
I0403 15:54:11.255553 14821 net.cpp:91] Creating Layer conv1/relu_7x7
I0403 15:54:11.255573 14821 net.cpp:425] conv1/relu_7x7 <- conv1/7x7_s2
I0403 15:54:11.255591 14821 net.cpp:386] conv1/relu_7x7 -> conv1/7x7_s2 (in-place)
I0403 15:54:11.255858 14821 net.cpp:141] Setting up conv1/relu_7x7
I0403 15:54:11.255887 14821 net.cpp:148] Top shape: 24 64 112 112 (19267584)
I0403 15:54:11.255904 14821 net.cpp:156] Memory required for data: 168592416
I0403 15:54:11.255919 14821 layer_factory.hpp:77] Creating layer pool1/3x3_s2
I0403 15:54:11.255945 14821 net.cpp:91] Creating Layer pool1/3x3_s2
I0403 15:54:11.255965 14821 net.cpp:425] pool1/3x3_s2 <- conv1/7x7_s2
I0403 15:54:11.255985 14821 net.cpp:399] pool1/3x3_s2 -> pool1/3x3_s2
I0403 15:54:11.256062 14821 net.cpp:141] Setting up pool1/3x3_s2
I0403 15:54:11.256088 14821 net.cpp:148] Top shape: 24 64 56 56 (4816896)
I0403 15:54:11.256104 14821 net.cpp:156] Memory required for data: 187860000
I0403 15:54:11.256119 14821 layer_factory.hpp:77] Creating layer pool1/norm1
I0403 15:54:11.256151 14821 net.cpp:91] Creating Layer pool1/norm1
I0403 15:54:11.256170 14821 net.cpp:425] pool1/norm1 <- pool1/3x3_s2
I0403 15:54:11.256189 14821 net.cpp:399] pool1/norm1 -> pool1/norm1
I0403 15:54:11.256542 14821 net.cpp:141] Setting up pool1/norm1
I0403 15:54:11.256572 14821 net.cpp:148] Top shape: 24 64 56 56 (4816896)
I0403 15:54:11.256588 14821 net.cpp:156] Memory required for data: 207127584
I0403 15:54:11.256604 14821 layer_factory.hpp:77] Creating layer conv2/3x3_reduce
I0403 15:54:11.256630 14821 net.cpp:91] Creating Layer conv2/3x3_reduce
I0403 15:54:11.256649 14821 net.cpp:425] conv2/3x3_reduce <- pool1/norm1
I0403 15:54:11.256669 14821 net.cpp:399] conv2/3x3_reduce -> conv2/3x3_reduce
I0403 15:54:11.258077 14821 net.cpp:141] Setting up conv2/3x3_reduce
I0403 15:54:11.258110 14821 net.cpp:148] Top shape: 24 64 56 56 (4816896)
I0403 15:54:11.258131 14821 net.cpp:156] Memory required for data: 226395168
I0403 15:54:11.258155 14821 layer_factory.hpp:77] Creating layer conv2/relu_3x3_reduce
I0403 15:54:11.258175 14821 net.cpp:91] Creating Layer conv2/relu_3x3_reduce
I0403 15:54:11.258195 14821 net.cpp:425] conv2/relu_3x3_reduce <- conv2/3x3_reduce
I0403 15:54:11.258213 14821 net.cpp:386] conv2/relu_3x3_reduce -> conv2/3x3_reduce (in-place)
I0403 15:54:11.258474 14821 net.cpp:141] Setting up conv2/relu_3x3_reduce
I0403 15:54:11.258502 14821 net.cpp:148] Top shape: 24 64 56 56 (4816896)
I0403 15:54:11.258519 14821 net.cpp:156] Memory required for data: 245662752
I0403 15:54:11.258535 14821 layer_factory.hpp:77] Creating layer conv2/3x3
I0403 15:54:11.258558 14821 net.cpp:91] Creating Layer conv2/3x3
I0403 15:54:11.258576 14821 net.cpp:425] conv2/3x3 <- conv2/3x3_reduce
I0403 15:54:11.258596 14821 net.cpp:399] conv2/3x3 -> conv2/3x3
I0403 15:54:11.260949 14821 net.cpp:141] Setting up conv2/3x3
I0403 15:54:11.260982 14821 net.cpp:148] Top shape: 24 192 56 56 (14450688)
I0403 15:54:11.260999 14821 net.cpp:156] Memory required for data: 303465504
I0403 15:54:11.261023 14821 layer_factory.hpp:77] Creating layer conv2/relu_3x3
I0403 15:54:11.261042 14821 net.cpp:91] Creating Layer conv2/relu_3x3
I0403 15:54:11.261059 14821 net.cpp:425] conv2/relu_3x3 <- conv2/3x3
I0403 15:54:11.261077 14821 net.cpp:386] conv2/relu_3x3 -> conv2/3x3 (in-place)
I0403 15:54:11.261250 14821 net.cpp:141] Setting up conv2/relu_3x3
I0403 15:54:11.261278 14821 net.cpp:148] Top shape: 24 192 56 56 (14450688)
I0403 15:54:11.261327 14821 net.cpp:156] Memory required for data: 361268256
I0403 15:54:11.261343 14821 layer_factory.hpp:77] Creating layer conv2/norm2
I0403 15:54:11.261363 14821 net.cpp:91] Creating Layer conv2/norm2
I0403 15:54:11.261380 14821 net.cpp:425] conv2/norm2 <- conv2/3x3
I0403 15:54:11.261399 14821 net.cpp:399] conv2/norm2 -> conv2/norm2
I0403 15:54:11.261694 14821 net.cpp:141] Setting up conv2/norm2
I0403 15:54:11.261723 14821 net.cpp:148] Top shape: 24 192 56 56 (14450688)
I0403 15:54:11.261739 14821 net.cpp:156] Memory required for data: 419071008
I0403 15:54:11.261754 14821 layer_factory.hpp:77] Creating layer pool2/3x3_s2
I0403 15:54:11.261772 14821 net.cpp:91] Creating Layer pool2/3x3_s2
I0403 15:54:11.261790 14821 net.cpp:425] pool2/3x3_s2 <- conv2/norm2
I0403 15:54:11.261807 14821 net.cpp:399] pool2/3x3_s2 -> pool2/3x3_s2
I0403 15:54:11.261858 14821 net.cpp:141] Setting up pool2/3x3_s2
I0403 15:54:11.261883 14821 net.cpp:148] Top shape: 24 192 28 28 (3612672)
I0403 15:54:11.261898 14821 net.cpp:156] Memory required for data: 433521696
I0403 15:54:11.261912 14821 layer_factory.hpp:77] Creating layer pool2/3x3_s2_pool2/3x3_s2_0_split
I0403 15:54:11.261930 14821 net.cpp:91] Creating Layer pool2/3x3_s2_pool2/3x3_s2_0_split
I0403 15:54:11.261946 14821 net.cpp:425] pool2/3x3_s2_pool2/3x3_s2_0_split <- pool2/3x3_s2
I0403 15:54:11.261965 14821 net.cpp:399] pool2/3x3_s2_pool2/3x3_s2_0_split -> pool2/3x3_s2_pool2/3x3_s2_0_split_0
I0403 15:54:11.261984 14821 net.cpp:399] pool2/3x3_s2_pool2/3x3_s2_0_split -> pool2/3x3_s2_pool2/3x3_s2_0_split_1
I0403 15:54:11.262004 14821 net.cpp:399] pool2/3x3_s2_pool2/3x3_s2_0_split -> pool2/3x3_s2_pool2/3x3_s2_0_split_2
I0403 15:54:11.262025 14821 net.cpp:399] pool2/3x3_s2_pool2/3x3_s2_0_split -> pool2/3x3_s2_pool2/3x3_s2_0_split_3
I0403 15:54:11.262092 14821 net.cpp:141] Setting up pool2/3x3_s2_pool2/3x3_s2_0_split
I0403 15:54:11.262117 14821 net.cpp:148] Top shape: 24 192 28 28 (3612672)
I0403 15:54:11.262140 14821 net.cpp:148] Top shape: 24 192 28 28 (3612672)
I0403 15:54:11.262159 14821 net.cpp:148] Top shape: 24 192 28 28 (3612672)
I0403 15:54:11.262176 14821 net.cpp:148] Top shape: 24 192 28 28 (3612672)
I0403 15:54:11.262192 14821 net.cpp:156] Memory required for data: 491324448
I0403 15:54:11.262207 14821 layer_factory.hpp:77] Creating layer inception_3a/1x1
I0403 15:54:11.262228 14821 net.cpp:91] Creating Layer inception_3a/1x1
I0403 15:54:11.262246 14821 net.cpp:425] inception_3a/1x1 <- pool2/3x3_s2_pool2/3x3_s2_0_split_0
I0403 15:54:11.262266 14821 net.cpp:399] inception_3a/1x1 -> inception_3a/1x1
I0403 15:54:11.263840 14821 net.cpp:141] Setting up inception_3a/1x1
I0403 15:54:11.263871 14821 net.cpp:148] Top shape: 24 64 28 28 (1204224)
I0403 15:54:11.263888 14821 net.cpp:156] Memory required for data: 496141344
I0403 15:54:11.263907 14821 layer_factory.hpp:77] Creating layer inception_3a/relu_1x1
I0403 15:54:11.263929 14821 net.cpp:91] Creating Layer inception_3a/relu_1x1
I0403 15:54:11.263947 14821 net.cpp:425] inception_3a/relu_1x1 <- inception_3a/1x1
I0403 15:54:11.263965 14821 net.cpp:386] inception_3a/relu_1x1 -> inception_3a/1x1 (in-place)
I0403 15:54:11.264156 14821 net.cpp:141] Setting up inception_3a/relu_1x1
I0403 15:54:11.264184 14821 net.cpp:148] Top shape: 24 64 28 28 (1204224)
I0403 15:54:11.264201 14821 net.cpp:156] Memory required for data: 500958240
I0403 15:54:11.264217 14821 layer_factory.hpp:77] Creating layer inception_3a/3x3_reduce
I0403 15:54:11.264241 14821 net.cpp:91] Creating Layer inception_3a/3x3_reduce
I0403 15:54:11.264261 14821 net.cpp:425] inception_3a/3x3_reduce <- pool2/3x3_s2_pool2/3x3_s2_0_split_1
I0403 15:54:11.264282 14821 net.cpp:399] inception_3a/3x3_reduce -> inception_3a/3x3_reduce
I0403 15:54:11.266022 14821 net.cpp:141] Setting up inception_3a/3x3_reduce
I0403 15:54:11.266057 14821 net.cpp:148] Top shape: 24 96 28 28 (1806336)
I0403 15:54:11.266074 14821 net.cpp:156] Memory required for data: 508183584
I0403 15:54:11.266098 14821 layer_factory.hpp:77] Creating layer inception_3a/relu_3x3_reduce
I0403 15:54:11.266140 14821 net.cpp:91] Creating Layer inception_3a/relu_3x3_reduce
I0403 15:54:11.266160 14821 net.cpp:425] inception_3a/relu_3x3_reduce <- inception_3a/3x3_reduce
I0403 15:54:11.266181 14821 net.cpp:386] inception_3a/relu_3x3_reduce -> inception_3a/3x3_reduce (in-place)
I0403 15:54:11.266371 14821 net.cpp:141] Setting up inception_3a/relu_3x3_reduce
I0403 15:54:11.266398 14821 net.cpp:148] Top shape: 24 96 28 28 (1806336)
I0403 15:54:11.266414 14821 net.cpp:156] Memory required for data: 515408928
I0403 15:54:11.266429 14821 layer_factory.hpp:77] Creating layer inception_3a/3x3
I0403 15:54:11.266453 14821 net.cpp:91] Creating Layer inception_3a/3x3
I0403 15:54:11.266471 14821 net.cpp:425] inception_3a/3x3 <- inception_3a/3x3_reduce
I0403 15:54:11.266495 14821 net.cpp:399] inception_3a/3x3 -> inception_3a/3x3
I0403 15:54:11.268227 14821 net.cpp:141] Setting up inception_3a/3x3
I0403 15:54:11.268260 14821 net.cpp:148] Top shape: 24 128 28 28 (2408448)
I0403 15:54:11.268277 14821 net.cpp:156] Memory required for data: 525042720
I0403 15:54:11.268297 14821 layer_factory.hpp:77] Creating layer inception_3a/relu_3x3
I0403 15:54:11.268317 14821 net.cpp:91] Creating Layer inception_3a/relu_3x3
I0403 15:54:11.268334 14821 net.cpp:425] inception_3a/relu_3x3 <- inception_3a/3x3
I0403 15:54:11.268355 14821 net.cpp:386] inception_3a/relu_3x3 -> inception_3a/3x3 (in-place)
I0403 15:54:11.268640 14821 net.cpp:141] Setting up inception_3a/relu_3x3
I0403 15:54:11.268671 14821 net.cpp:148] Top shape: 24 128 28 28 (2408448)
I0403 15:54:11.268687 14821 net.cpp:156] Memory required for data: 534676512
I0403 15:54:11.268703 14821 layer_factory.hpp:77] Creating layer inception_3a/5x5_reduce
I0403 15:54:11.268728 14821 net.cpp:91] Creating Layer inception_3a/5x5_reduce
I0403 15:54:11.268745 14821 net.cpp:425] inception_3a/5x5_reduce <- pool2/3x3_s2_pool2/3x3_s2_0_split_2
I0403 15:54:11.268764 14821 net.cpp:399] inception_3a/5x5_reduce -> inception_3a/5x5_reduce
I0403 15:54:11.269767 14821 net.cpp:141] Setting up inception_3a/5x5_reduce
I0403 15:54:11.269796 14821 net.cpp:148] Top shape: 24 16 28 28 (301056)
I0403 15:54:11.269814 14821 net.cpp:156] Memory required for data: 535880736
I0403 15:54:11.269832 14821 layer_factory.hpp:77] Creating layer inception_3a/relu_5x5_reduce
I0403 15:54:11.269851 14821 net.cpp:91] Creating Layer inception_3a/relu_5x5_reduce
I0403 15:54:11.269867 14821 net.cpp:425] inception_3a/relu_5x5_reduce <- inception_3a/5x5_reduce
I0403 15:54:11.269888 14821 net.cpp:386] inception_3a/relu_5x5_reduce -> inception_3a/5x5_reduce (in-place)
I0403 15:54:11.270206 14821 net.cpp:141] Setting up inception_3a/relu_5x5_reduce
I0403 15:54:11.270236 14821 net.cpp:148] Top shape: 24 16 28 28 (301056)
I0403 15:54:11.270251 14821 net.cpp:156] Memory required for data: 537084960
I0403 15:54:11.270269 14821 layer_factory.hpp:77] Creating layer inception_3a/5x5
I0403 15:54:11.270292 14821 net.cpp:91] Creating Layer inception_3a/5x5
I0403 15:54:11.270309 14821 net.cpp:425] inception_3a/5x5 <- inception_3a/5x5_reduce
I0403 15:54:11.270333 14821 net.cpp:399] inception_3a/5x5 -> inception_3a/5x5
I0403 15:54:11.271390 14821 net.cpp:141] Setting up inception_3a/5x5
I0403 15:54:11.271422 14821 net.cpp:148] Top shape: 24 32 28 28 (602112)
I0403 15:54:11.271440 14821 net.cpp:156] Memory required for data: 539493408
I0403 15:54:11.271461 14821 layer_factory.hpp:77] Creating layer inception_3a/relu_5x5
I0403 15:54:11.271479 14821 net.cpp:91] Creating Layer inception_3a/relu_5x5
I0403 15:54:11.271495 14821 net.cpp:425] inception_3a/relu_5x5 <- inception_3a/5x5
I0403 15:54:11.271515 14821 net.cpp:386] inception_3a/relu_5x5 -> inception_3a/5x5 (in-place)
I0403 15:54:11.271694 14821 net.cpp:141] Setting up inception_3a/relu_5x5
I0403 15:54:11.271723 14821 net.cpp:148] Top shape: 24 32 28 28 (602112)
I0403 15:54:11.271739 14821 net.cpp:156] Memory required for data: 541901856
I0403 15:54:11.271754 14821 layer_factory.hpp:77] Creating layer inception_3a/pool
I0403 15:54:11.271772 14821 net.cpp:91] Creating Layer inception_3a/pool
I0403 15:54:11.271788 14821 net.cpp:425] inception_3a/pool <- pool2/3x3_s2_pool2/3x3_s2_0_split_3
I0403 15:54:11.271826 14821 net.cpp:399] inception_3a/pool -> inception_3a/pool
I0403 15:54:11.271888 14821 net.cpp:141] Setting up inception_3a/pool
I0403 15:54:11.271914 14821 net.cpp:148] Top shape: 24 192 28 28 (3612672)
I0403 15:54:11.271929 14821 net.cpp:156] Memory required for data: 556352544
I0403 15:54:11.271944 14821 layer_factory.hpp:77] Creating layer inception_3a/pool_proj
I0403 15:54:11.271973 14821 net.cpp:91] Creating Layer inception_3a/pool_proj
I0403 15:54:11.271992 14821 net.cpp:425] inception_3a/pool_proj <- inception_3a/pool
I0403 15:54:11.272012 14821 net.cpp:399] inception_3a/pool_proj -> inception_3a/pool_proj
I0403 15:54:11.273028 14821 net.cpp:141] Setting up inception_3a/pool_proj
I0403 15:54:11.273058 14821 net.cpp:148] Top shape: 24 32 28 28 (602112)
I0403 15:54:11.273075 14821 net.cpp:156] Memory required for data: 558760992
I0403 15:54:11.273100 14821 layer_factory.hpp:77] Creating layer inception_3a/relu_pool_proj
I0403 15:54:11.273123 14821 net.cpp:91] Creating Layer inception_3a/relu_pool_proj
I0403 15:54:11.273154 14821 net.cpp:425] inception_3a/relu_pool_proj <- inception_3a/pool_proj
I0403 15:54:11.273175 14821 net.cpp:386] inception_3a/relu_pool_proj -> inception_3a/pool_proj (in-place)
I0403 15:54:11.273466 14821 net.cpp:141] Setting up inception_3a/relu_pool_proj
I0403 15:54:11.273497 14821 net.cpp:148] Top shape: 24 32 28 28 (602112)
I0403 15:54:11.273514 14821 net.cpp:156] Memory required for data: 561169440
I0403 15:54:11.273530 14821 layer_factory.hpp:77] Creating layer inception_3a/output
I0403 15:54:11.273550 14821 net.cpp:91] Creating Layer inception_3a/output
I0403 15:54:11.273566 14821 net.cpp:425] inception_3a/output <- inception_3a/1x1
I0403 15:54:11.273582 14821 net.cpp:425] inception_3a/output <- inception_3a/3x3
I0403 15:54:11.273599 14821 net.cpp:425] inception_3a/output <- inception_3a/5x5
I0403 15:54:11.273615 14821 net.cpp:425] inception_3a/output <- inception_3a/pool_proj
I0403 15:54:11.273635 14821 net.cpp:399] inception_3a/output -> inception_3a/output
I0403 15:54:11.273684 14821 net.cpp:141] Setting up inception_3a/output
I0403 15:54:11.273710 14821 net.cpp:148] Top shape: 24 256 28 28 (4816896)
I0403 15:54:11.273725 14821 net.cpp:156] Memory required for data: 580437024
I0403 15:54:11.273741 14821 layer_factory.hpp:77] Creating layer inception_3a/output_inception_3a/output_0_split
I0403 15:54:11.273761 14821 net.cpp:91] Creating Layer inception_3a/output_inception_3a/output_0_split
I0403 15:54:11.273779 14821 net.cpp:425] inception_3a/output_inception_3a/output_0_split <- inception_3a/output
I0403 15:54:11.273797 14821 net.cpp:399] inception_3a/output_inception_3a/output_0_split -> inception_3a/output_inception_3a/output_0_split_0
I0403 15:54:11.273818 14821 net.cpp:399] inception_3a/output_inception_3a/output_0_split -> inception_3a/output_inception_3a/output_0_split_1
I0403 15:54:11.273845 14821 net.cpp:399] inception_3a/output_inception_3a/output_0_split -> inception_3a/output_inception_3a/output_0_split_2
I0403 15:54:11.273869 14821 net.cpp:399] inception_3a/output_inception_3a/output_0_split -> inception_3a/output_inception_3a/output_0_split_3
I0403 15:54:11.273944 14821 net.cpp:141] Setting up inception_3a/output_inception_3a/output_0_split
I0403 15:54:11.273972 14821 net.cpp:148] Top shape: 24 256 28 28 (4816896)
I0403 15:54:11.273991 14821 net.cpp:148] Top shape: 24 256 28 28 (4816896)
I0403 15:54:11.274008 14821 net.cpp:148] Top shape: 24 256 28 28 (4816896)
I0403 15:54:11.274024 14821 net.cpp:148] Top shape: 24 256 28 28 (4816896)
I0403 15:54:11.274039 14821 net.cpp:156] Memory required for data: 657507360
I0403 15:54:11.274055 14821 layer_factory.hpp:77] Creating layer inception_3b/1x1
I0403 15:54:11.274078 14821 net.cpp:91] Creating Layer inception_3b/1x1
I0403 15:54:11.274096 14821 net.cpp:425] inception_3b/1x1 <- inception_3a/output_inception_3a/output_0_split_0
I0403 15:54:11.274116 14821 net.cpp:399] inception_3b/1x1 -> inception_3b/1x1
I0403 15:54:11.275307 14821 net.cpp:141] Setting up inception_3b/1x1
I0403 15:54:11.275349 14821 net.cpp:148] Top shape: 24 128 28 28 (2408448)
I0403 15:54:11.275372 14821 net.cpp:156] Memory required for data: 667141152
I0403 15:54:11.275390 14821 layer_factory.hpp:77] Creating layer inception_3b/relu_1x1
I0403 15:54:11.275409 14821 net.cpp:91] Creating Layer inception_3b/relu_1x1
I0403 15:54:11.275426 14821 net.cpp:425] inception_3b/relu_1x1 <- inception_3b/1x1
I0403 15:54:11.275444 14821 net.cpp:386] inception_3b/relu_1x1 -> inception_3b/1x1 (in-place)
I0403 15:54:11.275632 14821 net.cpp:141] Setting up inception_3b/relu_1x1
I0403 15:54:11.275661 14821 net.cpp:148] Top shape: 24 128 28 28 (2408448)
I0403 15:54:11.275678 14821 net.cpp:156] Memory required for data: 676774944
I0403 15:54:11.275693 14821 layer_factory.hpp:77] Creating layer inception_3b/3x3_reduce
I0403 15:54:11.275717 14821 net.cpp:91] Creating Layer inception_3b/3x3_reduce
I0403 15:54:11.275737 14821 net.cpp:425] inception_3b/3x3_reduce <- inception_3a/output_inception_3a/output_0_split_1
I0403 15:54:11.275756 14821 net.cpp:399] inception_3b/3x3_reduce -> inception_3b/3x3_reduce
I0403 15:54:11.276942 14821 net.cpp:141] Setting up inception_3b/3x3_reduce
I0403 15:54:11.276973 14821 net.cpp:148] Top shape: 24 128 28 28 (2408448)
I0403 15:54:11.276988 14821 net.cpp:156] Memory required for data: 686408736
I0403 15:54:11.277007 14821 layer_factory.hpp:77] Creating layer inception_3b/relu_3x3_reduce
I0403 15:54:11.277029 14821 net.cpp:91] Creating Layer inception_3b/relu_3x3_reduce
I0403 15:54:11.277047 14821 net.cpp:425] inception_3b/relu_3x3_reduce <- inception_3b/3x3_reduce
I0403 15:54:11.277066 14821 net.cpp:386] inception_3b/relu_3x3_reduce -> inception_3b/3x3_reduce (in-place)
I0403 15:54:11.277251 14821 net.cpp:141] Setting up inception_3b/relu_3x3_reduce
I0403 15:54:11.277277 14821 net.cpp:148] Top shape: 24 128 28 28 (2408448)
I0403 15:54:11.277293 14821 net.cpp:156] Memory required for data: 696042528
I0403 15:54:11.277309 14821 layer_factory.hpp:77] Creating layer inception_3b/3x3
I0403 15:54:11.277335 14821 net.cpp:91] Creating Layer inception_3b/3x3
I0403 15:54:11.277355 14821 net.cpp:425] inception_3b/3x3 <- inception_3b/3x3_reduce
I0403 15:54:11.277379 14821 net.cpp:399] inception_3b/3x3 -> inception_3b/3x3
I0403 15:54:11.280391 14821 net.cpp:141] Setting up inception_3b/3x3
I0403 15:54:11.280436 14821 net.cpp:148] Top shape: 24 192 28 28 (3612672)
I0403 15:54:11.280452 14821 net.cpp:156] Memory required for data: 710493216
I0403 15:54:11.280472 14821 layer_factory.hpp:77] Creating layer inception_3b/relu_3x3
I0403 15:54:11.280489 14821 net.cpp:91] Creating Layer inception_3b/relu_3x3
I0403 15:54:11.280506 14821 net.cpp:425] inception_3b/relu_3x3 <- inception_3b/3x3
I0403 15:54:11.280526 14821 net.cpp:386] inception_3b/relu_3x3 -> inception_3b/3x3 (in-place)
I0403 15:54:11.280805 14821 net.cpp:141] Setting up inception_3b/relu_3x3
I0403 15:54:11.280835 14821 net.cpp:148] Top shape: 24 192 28 28 (3612672)
I0403 15:54:11.280851 14821 net.cpp:156] Memory required for data: 724943904
I0403 15:54:11.280867 14821 layer_factory.hpp:77] Creating layer inception_3b/5x5_reduce
I0403 15:54:11.280892 14821 net.cpp:91] Creating Layer inception_3b/5x5_reduce
I0403 15:54:11.280910 14821 net.cpp:425] inception_3b/5x5_reduce <- inception_3a/output_inception_3a/output_0_split_2
I0403 15:54:11.280930 14821 net.cpp:399] inception_3b/5x5_reduce -> inception_3b/5x5_reduce
I0403 15:54:11.281934 14821 net.cpp:141] Setting up inception_3b/5x5_reduce
I0403 15:54:11.281966 14821 net.cpp:148] Top shape: 24 32 28 28 (602112)
I0403 15:54:11.281985 14821 net.cpp:156] Memory required for data: 727352352
I0403 15:54:11.282003 14821 layer_factory.hpp:77] Creating layer inception_3b/relu_5x5_reduce
I0403 15:54:11.282021 14821 net.cpp:91] Creating Layer inception_3b/relu_5x5_reduce
I0403 15:54:11.282037 14821 net.cpp:425] inception_3b/relu_5x5_reduce <- inception_3b/5x5_reduce
I0403 15:54:11.282058 14821 net.cpp:386] inception_3b/relu_5x5_reduce -> inception_3b/5x5_reduce (in-place)
I0403 15:54:11.282266 14821 net.cpp:141] Setting up inception_3b/relu_5x5_reduce
I0403 15:54:11.282306 14821 net.cpp:148] Top shape: 24 32 28 28 (602112)
I0403 15:54:11.282322 14821 net.cpp:156] Memory required for data: 729760800
I0403 15:54:11.282338 14821 layer_factory.hpp:77] Creating layer inception_3b/5x5
I0403 15:54:11.282362 14821 net.cpp:91] Creating Layer inception_3b/5x5
I0403 15:54:11.282393 14821 net.cpp:425] inception_3b/5x5 <- inception_3b/5x5_reduce
I0403 15:54:11.282415 14821 net.cpp:399] inception_3b/5x5 -> inception_3b/5x5
I0403 15:54:11.284411 14821 net.cpp:141] Setting up inception_3b/5x5
I0403 15:54:11.284443 14821 net.cpp:148] Top shape: 24 96 28 28 (1806336)
I0403 15:54:11.284459 14821 net.cpp:156] Memory required for data: 736986144
I0403 15:54:11.284478 14821 layer_factory.hpp:77] Creating layer inception_3b/relu_5x5
I0403 15:54:11.284499 14821 net.cpp:91] Creating Layer inception_3b/relu_5x5
I0403 15:54:11.284518 14821 net.cpp:425] inception_3b/relu_5x5 <- inception_3b/5x5
I0403 15:54:11.284535 14821 net.cpp:386] inception_3b/relu_5x5 -> inception_3b/5x5 (in-place)
I0403 15:54:11.284730 14821 net.cpp:141] Setting up inception_3b/relu_5x5
I0403 15:54:11.284756 14821 net.cpp:148] Top shape: 24 96 28 28 (1806336)
I0403 15:54:11.284772 14821 net.cpp:156] Memory required for data: 744211488
I0403 15:54:11.284787 14821 layer_factory.hpp:77] Creating layer inception_3b/pool
I0403 15:54:11.284806 14821 net.cpp:91] Creating Layer inception_3b/pool
I0403 15:54:11.284822 14821 net.cpp:425] inception_3b/pool <- inception_3a/output_inception_3a/output_0_split_3
I0403 15:54:11.284840 14821 net.cpp:399] inception_3b/pool -> inception_3b/pool
I0403 15:54:11.284898 14821 net.cpp:141] Setting up inception_3b/pool
I0403 15:54:11.284922 14821 net.cpp:148] Top shape: 24 256 28 28 (4816896)
I0403 15:54:11.284936 14821 net.cpp:156] Memory required for data: 763479072
I0403 15:54:11.284951 14821 layer_factory.hpp:77] Creating layer inception_3b/pool_proj
I0403 15:54:11.284975 14821 net.cpp:91] Creating Layer inception_3b/pool_proj
I0403 15:54:11.284993 14821 net.cpp:425] inception_3b/pool_proj <- inception_3b/pool
I0403 15:54:11.285012 14821 net.cpp:399] inception_3b/pool_proj -> inception_3b/pool_proj
I0403 15:54:11.286095 14821 net.cpp:141] Setting up inception_3b/pool_proj
I0403 15:54:11.286123 14821 net.cpp:148] Top shape: 24 64 28 28 (1204224)
I0403 15:54:11.286145 14821 net.cpp:156] Memory required for data: 768295968
I0403 15:54:11.286164 14821 layer_factory.hpp:77] Creating layer inception_3b/relu_pool_proj
I0403 15:54:11.286182 14821 net.cpp:91] Creating Layer inception_3b/relu_pool_proj
I0403 15:54:11.286200 14821 net.cpp:425] inception_3b/relu_pool_proj <- inception_3b/pool_proj
I0403 15:54:11.286219 14821 net.cpp:386] inception_3b/relu_pool_proj -> inception_3b/pool_proj (in-place)
I0403 15:54:11.286628 14821 net.cpp:141] Setting up inception_3b/relu_pool_proj
I0403 15:54:11.286656 14821 net.cpp:148] Top shape: 24 64 28 28 (1204224)
I0403 15:54:11.286672 14821 net.cpp:156] Memory required for data: 773112864
I0403 15:54:11.286687 14821 layer_factory.hpp:77] Creating layer inception_3b/output
I0403 15:54:11.286705 14821 net.cpp:91] Creating Layer inception_3b/output
I0403 15:54:11.286720 14821 net.cpp:425] inception_3b/output <- inception_3b/1x1
I0403 15:54:11.286737 14821 net.cpp:425] inception_3b/output <- inception_3b/3x3
I0403 15:54:11.286753 14821 net.cpp:425] inception_3b/output <- inception_3b/5x5
I0403 15:54:11.286769 14821 net.cpp:425] inception_3b/output <- inception_3b/pool_proj
I0403 15:54:11.286788 14821 net.cpp:399] inception_3b/output -> inception_3b/output
I0403 15:54:11.286834 14821 net.cpp:141] Setting up inception_3b/output
I0403 15:54:11.286861 14821 net.cpp:148] Top shape: 24 480 28 28 (9031680)
I0403 15:54:11.286876 14821 net.cpp:156] Memory required for data: 809239584
I0403 15:54:11.286891 14821 layer_factory.hpp:77] Creating layer pool3/3x3_s2
I0403 15:54:11.286908 14821 net.cpp:91] Creating Layer pool3/3x3_s2
I0403 15:54:11.286926 14821 net.cpp:425] pool3/3x3_s2 <- inception_3b/output
I0403 15:54:11.286945 14821 net.cpp:399] pool3/3x3_s2 -> pool3/3x3_s2
I0403 15:54:11.287019 14821 net.cpp:141] Setting up pool3/3x3_s2
I0403 15:54:11.287042 14821 net.cpp:148] Top shape: 24 480 14 14 (2257920)
I0403 15:54:11.287057 14821 net.cpp:156] Memory required for data: 818271264
I0403 15:54:11.287071 14821 layer_factory.hpp:77] Creating layer pool3/3x3_s2_pool3/3x3_s2_0_split
I0403 15:54:11.287091 14821 net.cpp:91] Creating Layer pool3/3x3_s2_pool3/3x3_s2_0_split
I0403 15:54:11.287107 14821 net.cpp:425] pool3/3x3_s2_pool3/3x3_s2_0_split <- pool3/3x3_s2
I0403 15:54:11.287128 14821 net.cpp:399] pool3/3x3_s2_pool3/3x3_s2_0_split -> pool3/3x3_s2_pool3/3x3_s2_0_split_0
I0403 15:54:11.287150 14821 net.cpp:399] pool3/3x3_s2_pool3/3x3_s2_0_split -> pool3/3x3_s2_pool3/3x3_s2_0_split_1
I0403 15:54:11.287170 14821 net.cpp:399] pool3/3x3_s2_pool3/3x3_s2_0_split -> pool3/3x3_s2_pool3/3x3_s2_0_split_2
I0403 15:54:11.287189 14821 net.cpp:399] pool3/3x3_s2_pool3/3x3_s2_0_split -> pool3/3x3_s2_pool3/3x3_s2_0_split_3
I0403 15:54:11.287267 14821 net.cpp:141] Setting up pool3/3x3_s2_pool3/3x3_s2_0_split
I0403 15:54:11.287292 14821 net.cpp:148] Top shape: 24 480 14 14 (2257920)
I0403 15:54:11.287308 14821 net.cpp:148] Top shape: 24 480 14 14 (2257920)
I0403 15:54:11.287324 14821 net.cpp:148] Top shape: 24 480 14 14 (2257920)
I0403 15:54:11.287339 14821 net.cpp:148] Top shape: 24 480 14 14 (2257920)
I0403 15:54:11.287353 14821 net.cpp:156] Memory required for data: 854397984
I0403 15:54:11.287367 14821 layer_factory.hpp:77] Creating layer inception_4a/1x1
I0403 15:54:11.287390 14821 net.cpp:91] Creating Layer inception_4a/1x1
I0403 15:54:11.287408 14821 net.cpp:425] inception_4a/1x1 <- pool3/3x3_s2_pool3/3x3_s2_0_split_0
I0403 15:54:11.287431 14821 net.cpp:399] inception_4a/1x1 -> inception_4a/1x1
I0403 15:54:11.289037 14821 net.cpp:141] Setting up inception_4a/1x1
I0403 15:54:11.289067 14821 net.cpp:148] Top shape: 24 192 14 14 (903168)
I0403 15:54:11.289083 14821 net.cpp:156] Memory required for data: 858010656
I0403 15:54:11.289100 14821 layer_factory.hpp:77] Creating layer inception_4a/relu_1x1
I0403 15:54:11.289121 14821 net.cpp:91] Creating Layer inception_4a/relu_1x1
I0403 15:54:11.289145 14821 net.cpp:425] inception_4a/relu_1x1 <- inception_4a/1x1
I0403 15:54:11.289163 14821 net.cpp:386] inception_4a/relu_1x1 -> inception_4a/1x1 (in-place)
I0403 15:54:11.289340 14821 net.cpp:141] Setting up inception_4a/relu_1x1
I0403 15:54:11.289371 14821 net.cpp:148] Top shape: 24 192 14 14 (903168)
I0403 15:54:11.289386 14821 net.cpp:156] Memory required for data: 861623328
I0403 15:54:11.289402 14821 layer_factory.hpp:77] Creating layer inception_4a/3x3_reduce
I0403 15:54:11.289424 14821 net.cpp:91] Creating Layer inception_4a/3x3_reduce
I0403 15:54:11.289443 14821 net.cpp:425] inception_4a/3x3_reduce <- pool3/3x3_s2_pool3/3x3_s2_0_split_1
I0403 15:54:11.289463 14821 net.cpp:399] inception_4a/3x3_reduce -> inception_4a/3x3_reduce
I0403 15:54:11.290755 14821 net.cpp:141] Setting up inception_4a/3x3_reduce
I0403 15:54:11.290784 14821 net.cpp:148] Top shape: 24 96 14 14 (451584)
I0403 15:54:11.290799 14821 net.cpp:156] Memory required for data: 863429664
I0403 15:54:11.290824 14821 layer_factory.hpp:77] Creating layer inception_4a/relu_3x3_reduce
I0403 15:54:11.290845 14821 net.cpp:91] Creating Layer inception_4a/relu_3x3_reduce
I0403 15:54:11.290879 14821 net.cpp:425] inception_4a/relu_3x3_reduce <- inception_4a/3x3_reduce
I0403 15:54:11.290899 14821 net.cpp:386] inception_4a/relu_3x3_reduce -> inception_4a/3x3_reduce (in-place)
I0403 15:54:11.291087 14821 net.cpp:141] Setting up inception_4a/relu_3x3_reduce
I0403 15:54:11.291115 14821 net.cpp:148] Top shape: 24 96 14 14 (451584)
I0403 15:54:11.291134 14821 net.cpp:156] Memory required for data: 865236000
I0403 15:54:11.291164 14821 layer_factory.hpp:77] Creating layer inception_4a/3x3
I0403 15:54:11.291196 14821 net.cpp:91] Creating Layer inception_4a/3x3
I0403 15:54:11.291213 14821 net.cpp:425] inception_4a/3x3 <- inception_4a/3x3_reduce
I0403 15:54:11.291235 14821 net.cpp:399] inception_4a/3x3 -> inception_4a/3x3
I0403 15:54:11.293962 14821 net.cpp:141] Setting up inception_4a/3x3
I0403 15:54:11.293992 14821 net.cpp:148] Top shape: 24 208 14 14 (978432)
I0403 15:54:11.294008 14821 net.cpp:156] Memory required for data: 869149728
I0403 15:54:11.294028 14821 layer_factory.hpp:77] Creating layer inception_4a/relu_3x3
I0403 15:54:11.294049 14821 net.cpp:91] Creating Layer inception_4a/relu_3x3
I0403 15:54:11.294066 14821 net.cpp:425] inception_4a/relu_3x3 <- inception_4a/3x3
I0403 15:54:11.294085 14821 net.cpp:386] inception_4a/relu_3x3 -> inception_4a/3x3 (in-place)
I0403 15:54:11.294373 14821 net.cpp:141] Setting up inception_4a/relu_3x3
I0403 15:54:11.294400 14821 net.cpp:148] Top shape: 24 208 14 14 (978432)
I0403 15:54:11.294416 14821 net.cpp:156] Memory required for data: 873063456
I0403 15:54:11.294431 14821 layer_factory.hpp:77] Creating layer inception_4a/5x5_reduce
I0403 15:54:11.294458 14821 net.cpp:91] Creating Layer inception_4a/5x5_reduce
I0403 15:54:11.294476 14821 net.cpp:425] inception_4a/5x5_reduce <- pool3/3x3_s2_pool3/3x3_s2_0_split_2
I0403 15:54:11.294497 14821 net.cpp:399] inception_4a/5x5_reduce -> inception_4a/5x5_reduce
I0403 15:54:11.295531 14821 net.cpp:141] Setting up inception_4a/5x5_reduce
I0403 15:54:11.295562 14821 net.cpp:148] Top shape: 24 16 14 14 (75264)
I0403 15:54:11.295578 14821 net.cpp:156] Memory required for data: 873364512
I0403 15:54:11.295598 14821 layer_factory.hpp:77] Creating layer inception_4a/relu_5x5_reduce
I0403 15:54:11.295616 14821 net.cpp:91] Creating Layer inception_4a/relu_5x5_reduce
I0403 15:54:11.295632 14821 net.cpp:425] inception_4a/relu_5x5_reduce <- inception_4a/5x5_reduce
I0403 15:54:11.295653 14821 net.cpp:386] inception_4a/relu_5x5_reduce -> inception_4a/5x5_reduce (in-place)
I0403 15:54:11.295835 14821 net.cpp:141] Setting up inception_4a/relu_5x5_reduce
I0403 15:54:11.295862 14821 net.cpp:148] Top shape: 24 16 14 14 (75264)
I0403 15:54:11.295877 14821 net.cpp:156] Memory required for data: 873665568
I0403 15:54:11.295892 14821 layer_factory.hpp:77] Creating layer inception_4a/5x5
I0403 15:54:11.295915 14821 net.cpp:91] Creating Layer inception_4a/5x5
I0403 15:54:11.295933 14821 net.cpp:425] inception_4a/5x5 <- inception_4a/5x5_reduce
I0403 15:54:11.295955 14821 net.cpp:399] inception_4a/5x5 -> inception_4a/5x5
I0403 15:54:11.297060 14821 net.cpp:141] Setting up inception_4a/5x5
I0403 15:54:11.297089 14821 net.cpp:148] Top shape: 24 48 14 14 (225792)
I0403 15:54:11.297104 14821 net.cpp:156] Memory required for data: 874568736
I0403 15:54:11.297123 14821 layer_factory.hpp:77] Creating layer inception_4a/relu_5x5
I0403 15:54:11.297149 14821 net.cpp:91] Creating Layer inception_4a/relu_5x5
I0403 15:54:11.297168 14821 net.cpp:425] inception_4a/relu_5x5 <- inception_4a/5x5
I0403 15:54:11.297186 14821 net.cpp:386] inception_4a/relu_5x5 -> inception_4a/5x5 (in-place)
I0403 15:54:11.297366 14821 net.cpp:141] Setting up inception_4a/relu_5x5
I0403 15:54:11.297392 14821 net.cpp:148] Top shape: 24 48 14 14 (225792)
I0403 15:54:11.297408 14821 net.cpp:156] Memory required for data: 875471904
I0403 15:54:11.297422 14821 layer_factory.hpp:77] Creating layer inception_4a/pool
I0403 15:54:11.297443 14821 net.cpp:91] Creating Layer inception_4a/pool
I0403 15:54:11.297461 14821 net.cpp:425] inception_4a/pool <- pool3/3x3_s2_pool3/3x3_s2_0_split_3
I0403 15:54:11.297479 14821 net.cpp:399] inception_4a/pool -> inception_4a/pool
I0403 15:54:11.297544 14821 net.cpp:141] Setting up inception_4a/pool
I0403 15:54:11.297569 14821 net.cpp:148] Top shape: 24 480 14 14 (2257920)
I0403 15:54:11.297585 14821 net.cpp:156] Memory required for data: 884503584
I0403 15:54:11.297600 14821 layer_factory.hpp:77] Creating layer inception_4a/pool_proj
I0403 15:54:11.297621 14821 net.cpp:91] Creating Layer inception_4a/pool_proj
I0403 15:54:11.297641 14821 net.cpp:425] inception_4a/pool_proj <- inception_4a/pool
I0403 15:54:11.297662 14821 net.cpp:399] inception_4a/pool_proj -> inception_4a/pool_proj
I0403 15:54:11.298846 14821 net.cpp:141] Setting up inception_4a/pool_proj
I0403 15:54:11.298876 14821 net.cpp:148] Top shape: 24 64 14 14 (301056)
I0403 15:54:11.298907 14821 net.cpp:156] Memory required for data: 885707808
I0403 15:54:11.298928 14821 layer_factory.hpp:77] Creating layer inception_4a/relu_pool_proj
I0403 15:54:11.298949 14821 net.cpp:91] Creating Layer inception_4a/relu_pool_proj
I0403 15:54:11.298969 14821 net.cpp:425] inception_4a/relu_pool_proj <- inception_4a/pool_proj
I0403 15:54:11.298985 14821 net.cpp:386] inception_4a/relu_pool_proj -> inception_4a/pool_proj (in-place)
I0403 15:54:11.299293 14821 net.cpp:141] Setting up inception_4a/relu_pool_proj
I0403 15:54:11.299319 14821 net.cpp:148] Top shape: 24 64 14 14 (301056)
I0403 15:54:11.299335 14821 net.cpp:156] Memory required for data: 886912032
I0403 15:54:11.299351 14821 layer_factory.hpp:77] Creating layer inception_4a/output
I0403 15:54:11.299370 14821 net.cpp:91] Creating Layer inception_4a/output
I0403 15:54:11.299389 14821 net.cpp:425] inception_4a/output <- inception_4a/1x1
I0403 15:54:11.299408 14821 net.cpp:425] inception_4a/output <- inception_4a/3x3
I0403 15:54:11.299425 14821 net.cpp:425] inception_4a/output <- inception_4a/5x5
I0403 15:54:11.299442 14821 net.cpp:425] inception_4a/output <- inception_4a/pool_proj
I0403 15:54:11.299459 14821 net.cpp:399] inception_4a/output -> inception_4a/output
I0403 15:54:11.299504 14821 net.cpp:141] Setting up inception_4a/output
I0403 15:54:11.299531 14821 net.cpp:148] Top shape: 24 512 14 14 (2408448)
I0403 15:54:11.299559 14821 net.cpp:156] Memory required for data: 896545824
I0403 15:54:11.299573 14821 layer_factory.hpp:77] Creating layer inception_4a/output_inception_4a/output_0_split
I0403 15:54:11.299592 14821 net.cpp:91] Creating Layer inception_4a/output_inception_4a/output_0_split
I0403 15:54:11.299607 14821 net.cpp:425] inception_4a/output_inception_4a/output_0_split <- inception_4a/output
I0403 15:54:11.299626 14821 net.cpp:399] inception_4a/output_inception_4a/output_0_split -> inception_4a/output_inception_4a/output_0_split_0
I0403 15:54:11.299649 14821 net.cpp:399] inception_4a/output_inception_4a/output_0_split -> inception_4a/output_inception_4a/output_0_split_1
I0403 15:54:11.299669 14821 net.cpp:399] inception_4a/output_inception_4a/output_0_split -> inception_4a/output_inception_4a/output_0_split_2
I0403 15:54:11.299690 14821 net.cpp:399] inception_4a/output_inception_4a/output_0_split -> inception_4a/output_inception_4a/output_0_split_3
I0403 15:54:11.299710 14821 net.cpp:399] inception_4a/output_inception_4a/output_0_split -> inception_4a/output_inception_4a/output_0_split_4
I0403 15:54:11.299801 14821 net.cpp:141] Setting up inception_4a/output_inception_4a/output_0_split
I0403 15:54:11.299825 14821 net.cpp:148] Top shape: 24 512 14 14 (2408448)
I0403 15:54:11.299845 14821 net.cpp:148] Top shape: 24 512 14 14 (2408448)
I0403 15:54:11.299861 14821 net.cpp:148] Top shape: 24 512 14 14 (2408448)
I0403 15:54:11.299877 14821 net.cpp:148] Top shape: 24 512 14 14 (2408448)
I0403 15:54:11.299893 14821 net.cpp:148] Top shape: 24 512 14 14 (2408448)
I0403 15:54:11.299906 14821 net.cpp:156] Memory required for data: 944714784
I0403 15:54:11.299921 14821 layer_factory.hpp:77] Creating layer loss1/ave_pool
I0403 15:54:11.299939 14821 net.cpp:91] Creating Layer loss1/ave_pool
I0403 15:54:11.299954 14821 net.cpp:425] loss1/ave_pool <- inception_4a/output_inception_4a/output_0_split_0
I0403 15:54:11.299975 14821 net.cpp:399] loss1/ave_pool -> loss1/ave_pool
I0403 15:54:11.300187 14821 net.cpp:141] Setting up loss1/ave_pool
I0403 15:54:11.300215 14821 net.cpp:148] Top shape: 24 512 4 4 (196608)
I0403 15:54:11.300230 14821 net.cpp:156] Memory required for data: 945501216
I0403 15:54:11.300246 14821 layer_factory.hpp:77] Creating layer loss1/conv
I0403 15:54:11.300268 14821 net.cpp:91] Creating Layer loss1/conv
I0403 15:54:11.300287 14821 net.cpp:425] loss1/conv <- loss1/ave_pool
I0403 15:54:11.300308 14821 net.cpp:399] loss1/conv -> loss1/conv
I0403 15:54:11.301748 14821 net.cpp:141] Setting up loss1/conv
I0403 15:54:11.301776 14821 net.cpp:148] Top shape: 24 128 4 4 (49152)
I0403 15:54:11.301794 14821 net.cpp:156] Memory required for data: 945697824
I0403 15:54:11.301827 14821 layer_factory.hpp:77] Creating layer loss1/relu_conv
I0403 15:54:11.301852 14821 net.cpp:91] Creating Layer loss1/relu_conv
I0403 15:54:11.301872 14821 net.cpp:425] loss1/relu_conv <- loss1/conv
I0403 15:54:11.301889 14821 net.cpp:386] loss1/relu_conv -> loss1/conv (in-place)
I0403 15:54:11.302186 14821 net.cpp:141] Setting up loss1/relu_conv
I0403 15:54:11.302222 14821 net.cpp:148] Top shape: 24 128 4 4 (49152)
I0403 15:54:11.302237 14821 net.cpp:156] Memory required for data: 945894432
I0403 15:54:11.302253 14821 layer_factory.hpp:77] Creating layer loss1/fc
I0403 15:54:11.302278 14821 net.cpp:91] Creating Layer loss1/fc
I0403 15:54:11.302297 14821 net.cpp:425] loss1/fc <- loss1/conv
I0403 15:54:11.302319 14821 net.cpp:399] loss1/fc -> loss1/fc
I0403 15:54:11.320528 14821 net.cpp:141] Setting up loss1/fc
I0403 15:54:11.320564 14821 net.cpp:148] Top shape: 24 1024 (24576)
I0403 15:54:11.320580 14821 net.cpp:156] Memory required for data: 945992736
I0403 15:54:11.320600 14821 layer_factory.hpp:77] Creating layer loss1/relu_fc
I0403 15:54:11.320619 14821 net.cpp:91] Creating Layer loss1/relu_fc
I0403 15:54:11.320636 14821 net.cpp:425] loss1/relu_fc <- loss1/fc
I0403 15:54:11.320658 14821 net.cpp:386] loss1/relu_fc -> loss1/fc (in-place)
I0403 15:54:11.320863 14821 net.cpp:141] Setting up loss1/relu_fc
I0403 15:54:11.320891 14821 net.cpp:148] Top shape: 24 1024 (24576)
I0403 15:54:11.320909 14821 net.cpp:156] Memory required for data: 946091040
I0403 15:54:11.320924 14821 layer_factory.hpp:77] Creating layer loss1/drop_fc
I0403 15:54:11.320950 14821 net.cpp:91] Creating Layer loss1/drop_fc
I0403 15:54:11.320969 14821 net.cpp:425] loss1/drop_fc <- loss1/fc
I0403 15:54:11.320987 14821 net.cpp:386] loss1/drop_fc -> loss1/fc (in-place)
I0403 15:54:11.321043 14821 net.cpp:141] Setting up loss1/drop_fc
I0403 15:54:11.321069 14821 net.cpp:148] Top shape: 24 1024 (24576)
I0403 15:54:11.321082 14821 net.cpp:156] Memory required for data: 946189344
I0403 15:54:11.321099 14821 layer_factory.hpp:77] Creating layer loss1/classifier_plantvillage
I0403 15:54:11.321117 14821 net.cpp:91] Creating Layer loss1/classifier_plantvillage
I0403 15:54:11.321138 14821 net.cpp:425] loss1/classifier_plantvillage <- loss1/fc
I0403 15:54:11.321162 14821 net.cpp:399] loss1/classifier_plantvillage -> loss1/classifier_plantvillage
I0403 15:54:11.322083 14821 net.cpp:141] Setting up loss1/classifier_plantvillage
I0403 15:54:11.322113 14821 net.cpp:148] Top shape: 24 38 (912)
I0403 15:54:11.322134 14821 net.cpp:156] Memory required for data: 946192992
I0403 15:54:11.322154 14821 layer_factory.hpp:77] Creating layer loss1/classifier_plantvillage_loss1/classifier_plantvillage_0_split
I0403 15:54:11.322175 14821 net.cpp:91] Creating Layer loss1/classifier_plantvillage_loss1/classifier_plantvillage_0_split
I0403 15:54:11.322192 14821 net.cpp:425] loss1/classifier_plantvillage_loss1/classifier_plantvillage_0_split <- loss1/classifier_plantvillage
I0403 15:54:11.322211 14821 net.cpp:399] loss1/classifier_plantvillage_loss1/classifier_plantvillage_0_split -> loss1/classifier_plantvillage_loss1/classifier_plantvillage_0_split_0
I0403 15:54:11.322232 14821 net.cpp:399] loss1/classifier_plantvillage_loss1/classifier_plantvillage_0_split -> loss1/classifier_plantvillage_loss1/classifier_plantvillage_0_split_1
I0403 15:54:11.322252 14821 net.cpp:399] loss1/classifier_plantvillage_loss1/classifier_plantvillage_0_split -> loss1/classifier_plantvillage_loss1/classifier_plantvillage_0_split_2
I0403 15:54:11.322322 14821 net.cpp:141] Setting up loss1/classifier_plantvillage_loss1/classifier_plantvillage_0_split
I0403 15:54:11.322348 14821 net.cpp:148] Top shape: 24 38 (912)
I0403 15:54:11.322365 14821 net.cpp:148] Top shape: 24 38 (912)
I0403 15:54:11.322379 14821 net.cpp:148] Top shape: 24 38 (912)
I0403 15:54:11.322394 14821 net.cpp:156] Memory required for data: 946203936
I0403 15:54:11.322408 14821 layer_factory.hpp:77] Creating layer inception_4b/1x1
I0403 15:54:11.322432 14821 net.cpp:91] Creating Layer inception_4b/1x1
I0403 15:54:11.322465 14821 net.cpp:425] inception_4b/1x1 <- inception_4a/output_inception_4a/output_0_split_1
I0403 15:54:11.322486 14821 net.cpp:399] inception_4b/1x1 -> inception_4b/1x1
I0403 15:54:11.324165 14821 net.cpp:141] Setting up inception_4b/1x1
I0403 15:54:11.324198 14821 net.cpp:148] Top shape: 24 160 14 14 (752640)
I0403 15:54:11.324215 14821 net.cpp:156] Memory required for data: 949214496
I0403 15:54:11.324234 14821 layer_factory.hpp:77] Creating layer inception_4b/relu_1x1
I0403 15:54:11.324252 14821 net.cpp:91] Creating Layer inception_4b/relu_1x1
I0403 15:54:11.324270 14821 net.cpp:425] inception_4b/relu_1x1 <- inception_4b/1x1
I0403 15:54:11.324290 14821 net.cpp:386] inception_4b/relu_1x1 -> inception_4b/1x1 (in-place)
I0403 15:54:11.324475 14821 net.cpp:141] Setting up inception_4b/relu_1x1
I0403 15:54:11.324501 14821 net.cpp:148] Top shape: 24 160 14 14 (752640)
I0403 15:54:11.324517 14821 net.cpp:156] Memory required for data: 952225056
I0403 15:54:11.324530 14821 layer_factory.hpp:77] Creating layer inception_4b/3x3_reduce
I0403 15:54:11.324554 14821 net.cpp:91] Creating Layer inception_4b/3x3_reduce
I0403 15:54:11.324573 14821 net.cpp:425] inception_4b/3x3_reduce <- inception_4a/output_inception_4a/output_0_split_2
I0403 15:54:11.324594 14821 net.cpp:399] inception_4b/3x3_reduce -> inception_4b/3x3_reduce
I0403 15:54:11.326020 14821 net.cpp:141] Setting up inception_4b/3x3_reduce
I0403 15:54:11.326050 14821 net.cpp:148] Top shape: 24 112 14 14 (526848)
I0403 15:54:11.326066 14821 net.cpp:156] Memory required for data: 954332448
I0403 15:54:11.326084 14821 layer_factory.hpp:77] Creating layer inception_4b/relu_3x3_reduce
I0403 15:54:11.326102 14821 net.cpp:91] Creating Layer inception_4b/relu_3x3_reduce
I0403 15:54:11.326119 14821 net.cpp:425] inception_4b/relu_3x3_reduce <- inception_4b/3x3_reduce
I0403 15:54:11.326145 14821 net.cpp:386] inception_4b/relu_3x3_reduce -> inception_4b/3x3_reduce (in-place)
I0403 15:54:11.326436 14821 net.cpp:141] Setting up inception_4b/relu_3x3_reduce
I0403 15:54:11.326464 14821 net.cpp:148] Top shape: 24 112 14 14 (526848)
I0403 15:54:11.326480 14821 net.cpp:156] Memory required for data: 956439840
I0403 15:54:11.326495 14821 layer_factory.hpp:77] Creating layer inception_4b/3x3
I0403 15:54:11.326519 14821 net.cpp:91] Creating Layer inception_4b/3x3
I0403 15:54:11.326536 14821 net.cpp:425] inception_4b/3x3 <- inception_4b/3x3_reduce
I0403 15:54:11.326557 14821 net.cpp:399] inception_4b/3x3 -> inception_4b/3x3
I0403 15:54:11.329596 14821 net.cpp:141] Setting up inception_4b/3x3
I0403 15:54:11.329627 14821 net.cpp:148] Top shape: 24 224 14 14 (1053696)
I0403 15:54:11.329644 14821 net.cpp:156] Memory required for data: 960654624
I0403 15:54:11.329663 14821 layer_factory.hpp:77] Creating layer inception_4b/relu_3x3
I0403 15:54:11.329684 14821 net.cpp:91] Creating Layer inception_4b/relu_3x3
I0403 15:54:11.329702 14821 net.cpp:425] inception_4b/relu_3x3 <- inception_4b/3x3
I0403 15:54:11.329720 14821 net.cpp:386] inception_4b/relu_3x3 -> inception_4b/3x3 (in-place)
I0403 15:54:11.329905 14821 net.cpp:141] Setting up inception_4b/relu_3x3
I0403 15:54:11.329934 14821 net.cpp:148] Top shape: 24 224 14 14 (1053696)
I0403 15:54:11.329951 14821 net.cpp:156] Memory required for data: 964869408
I0403 15:54:11.329965 14821 layer_factory.hpp:77] Creating layer inception_4b/5x5_reduce
I0403 15:54:11.329988 14821 net.cpp:91] Creating Layer inception_4b/5x5_reduce
I0403 15:54:11.330008 14821 net.cpp:425] inception_4b/5x5_reduce <- inception_4a/output_inception_4a/output_0_split_3
I0403 15:54:11.330026 14821 net.cpp:399] inception_4b/5x5_reduce -> inception_4b/5x5_reduce
I0403 15:54:11.331146 14821 net.cpp:141] Setting up inception_4b/5x5_reduce
I0403 15:54:11.331176 14821 net.cpp:148] Top shape: 24 24 14 14 (112896)
I0403 15:54:11.331194 14821 net.cpp:156] Memory required for data: 965320992
I0403 15:54:11.331214 14821 layer_factory.hpp:77] Creating layer inception_4b/relu_5x5_reduce
I0403 15:54:11.331233 14821 net.cpp:91] Creating Layer inception_4b/relu_5x5_reduce
I0403 15:54:11.331264 14821 net.cpp:425] inception_4b/relu_5x5_reduce <- inception_4b/5x5_reduce
I0403 15:54:11.331286 14821 net.cpp:386] inception_4b/relu_5x5_reduce -> inception_4b/5x5_reduce (in-place)
I0403 15:54:11.331475 14821 net.cpp:141] Setting up inception_4b/relu_5x5_reduce
I0403 15:54:11.331501 14821 net.cpp:148] Top shape: 24 24 14 14 (112896)
I0403 15:54:11.331516 14821 net.cpp:156] Memory required for data: 965772576
I0403 15:54:11.331532 14821 layer_factory.hpp:77] Creating layer inception_4b/5x5
I0403 15:54:11.331554 14821 net.cpp:91] Creating Layer inception_4b/5x5
I0403 15:54:11.331573 14821 net.cpp:425] inception_4b/5x5 <- inception_4b/5x5_reduce
I0403 15:54:11.331595 14821 net.cpp:399] inception_4b/5x5 -> inception_4b/5x5
I0403 15:54:11.332854 14821 net.cpp:141] Setting up inception_4b/5x5
I0403 15:54:11.332885 14821 net.cpp:148] Top shape: 24 64 14 14 (301056)
I0403 15:54:11.332902 14821 net.cpp:156] Memory required for data: 966976800
I0403 15:54:11.332921 14821 layer_factory.hpp:77] Creating layer inception_4b/relu_5x5
I0403 15:54:11.332939 14821 net.cpp:91] Creating Layer inception_4b/relu_5x5
I0403 15:54:11.332957 14821 net.cpp:425] inception_4b/relu_5x5 <- inception_4b/5x5
I0403 15:54:11.332976 14821 net.cpp:386] inception_4b/relu_5x5 -> inception_4b/5x5 (in-place)
I0403 15:54:11.333283 14821 net.cpp:141] Setting up inception_4b/relu_5x5
I0403 15:54:11.333315 14821 net.cpp:148] Top shape: 24 64 14 14 (301056)
I0403 15:54:11.333333 14821 net.cpp:156] Memory required for data: 968181024
I0403 15:54:11.333349 14821 layer_factory.hpp:77] Creating layer inception_4b/pool
I0403 15:54:11.333366 14821 net.cpp:91] Creating Layer inception_4b/pool
I0403 15:54:11.333384 14821 net.cpp:425] inception_4b/pool <- inception_4a/output_inception_4a/output_0_split_4
I0403 15:54:11.333403 14821 net.cpp:399] inception_4b/pool -> inception_4b/pool
I0403 15:54:11.333468 14821 net.cpp:141] Setting up inception_4b/pool
I0403 15:54:11.333494 14821 net.cpp:148] Top shape: 24 512 14 14 (2408448)
I0403 15:54:11.333508 14821 net.cpp:156] Memory required for data: 977814816
I0403 15:54:11.333523 14821 layer_factory.hpp:77] Creating layer inception_4b/pool_proj
I0403 15:54:11.333546 14821 net.cpp:91] Creating Layer inception_4b/pool_proj
I0403 15:54:11.333564 14821 net.cpp:425] inception_4b/pool_proj <- inception_4b/pool
I0403 15:54:11.333585 14821 net.cpp:399] inception_4b/pool_proj -> inception_4b/pool_proj
I0403 15:54:11.334815 14821 net.cpp:141] Setting up inception_4b/pool_proj
I0403 15:54:11.334846 14821 net.cpp:148] Top shape: 24 64 14 14 (301056)
I0403 15:54:11.334863 14821 net.cpp:156] Memory required for data: 979019040
I0403 15:54:11.334883 14821 layer_factory.hpp:77] Creating layer inception_4b/relu_pool_proj
I0403 15:54:11.334902 14821 net.cpp:91] Creating Layer inception_4b/relu_pool_proj
I0403 15:54:11.334918 14821 net.cpp:425] inception_4b/relu_pool_proj <- inception_4b/pool_proj
I0403 15:54:11.334939 14821 net.cpp:386] inception_4b/relu_pool_proj -> inception_4b/pool_proj (in-place)
I0403 15:54:11.335121 14821 net.cpp:141] Setting up inception_4b/relu_pool_proj
I0403 15:54:11.335152 14821 net.cpp:148] Top shape: 24 64 14 14 (301056)
I0403 15:54:11.335167 14821 net.cpp:156] Memory required for data: 980223264
I0403 15:54:11.335183 14821 layer_factory.hpp:77] Creating layer inception_4b/output
I0403 15:54:11.335201 14821 net.cpp:91] Creating Layer inception_4b/output
I0403 15:54:11.335218 14821 net.cpp:425] inception_4b/output <- inception_4b/1x1
I0403 15:54:11.335234 14821 net.cpp:425] inception_4b/output <- inception_4b/3x3
I0403 15:54:11.335252 14821 net.cpp:425] inception_4b/output <- inception_4b/5x5
I0403 15:54:11.335268 14821 net.cpp:425] inception_4b/output <- inception_4b/pool_proj
I0403 15:54:11.335288 14821 net.cpp:399] inception_4b/output -> inception_4b/output
I0403 15:54:11.335333 14821 net.cpp:141] Setting up inception_4b/output
I0403 15:54:11.335361 14821 net.cpp:148] Top shape: 24 512 14 14 (2408448)
I0403 15:54:11.335377 14821 net.cpp:156] Memory required for data: 989857056
I0403 15:54:11.335407 14821 layer_factory.hpp:77] Creating layer inception_4b/output_inception_4b/output_0_split
I0403 15:54:11.335425 14821 net.cpp:91] Creating Layer inception_4b/output_inception_4b/output_0_split
I0403 15:54:11.335443 14821 net.cpp:425] inception_4b/output_inception_4b/output_0_split <- inception_4b/output
I0403 15:54:11.335460 14821 net.cpp:399] inception_4b/output_inception_4b/output_0_split -> inception_4b/output_inception_4b/output_0_split_0
I0403 15:54:11.335484 14821 net.cpp:399] inception_4b/output_inception_4b/output_0_split -> inception_4b/output_inception_4b/output_0_split_1
I0403 15:54:11.335506 14821 net.cpp:399] inception_4b/output_inception_4b/output_0_split -> inception_4b/output_inception_4b/output_0_split_2
I0403 15:54:11.335526 14821 net.cpp:399] inception_4b/output_inception_4b/output_0_split -> inception_4b/output_inception_4b/output_0_split_3
I0403 15:54:11.335611 14821 net.cpp:141] Setting up inception_4b/output_inception_4b/output_0_split
I0403 15:54:11.335635 14821 net.cpp:148] Top shape: 24 512 14 14 (2408448)
I0403 15:54:11.335652 14821 net.cpp:148] Top shape: 24 512 14 14 (2408448)
I0403 15:54:11.335667 14821 net.cpp:148] Top shape: 24 512 14 14 (2408448)
I0403 15:54:11.335683 14821 net.cpp:148] Top shape: 24 512 14 14 (2408448)
I0403 15:54:11.335697 14821 net.cpp:156] Memory required for data: 1028392224
I0403 15:54:11.335712 14821 layer_factory.hpp:77] Creating layer inception_4c/1x1
I0403 15:54:11.335736 14821 net.cpp:91] Creating Layer inception_4c/1x1
I0403 15:54:11.335755 14821 net.cpp:425] inception_4c/1x1 <- inception_4b/output_inception_4b/output_0_split_0
I0403 15:54:11.335774 14821 net.cpp:399] inception_4c/1x1 -> inception_4c/1x1
I0403 15:54:11.337245 14821 net.cpp:141] Setting up inception_4c/1x1
I0403 15:54:11.337275 14821 net.cpp:148] Top shape: 24 128 14 14 (602112)
I0403 15:54:11.337291 14821 net.cpp:156] Memory required for data: 1030800672
I0403 15:54:11.337308 14821 layer_factory.hpp:77] Creating layer inception_4c/relu_1x1
I0403 15:54:11.337329 14821 net.cpp:91] Creating Layer inception_4c/relu_1x1
I0403 15:54:11.337347 14821 net.cpp:425] inception_4c/relu_1x1 <- inception_4c/1x1
I0403 15:54:11.337365 14821 net.cpp:386] inception_4c/relu_1x1 -> inception_4c/1x1 (in-place)
I0403 15:54:11.337549 14821 net.cpp:141] Setting up inception_4c/relu_1x1
I0403 15:54:11.337575 14821 net.cpp:148] Top shape: 24 128 14 14 (602112)
I0403 15:54:11.337594 14821 net.cpp:156] Memory required for data: 1033209120
I0403 15:54:11.337610 14821 layer_factory.hpp:77] Creating layer inception_4c/3x3_reduce
I0403 15:54:11.337630 14821 net.cpp:91] Creating Layer inception_4c/3x3_reduce
I0403 15:54:11.337648 14821 net.cpp:425] inception_4c/3x3_reduce <- inception_4b/output_inception_4b/output_0_split_1
I0403 15:54:11.337672 14821 net.cpp:399] inception_4c/3x3_reduce -> inception_4c/3x3_reduce
I0403 15:54:11.339658 14821 net.cpp:141] Setting up inception_4c/3x3_reduce
I0403 15:54:11.339690 14821 net.cpp:148] Top shape: 24 128 14 14 (602112)
I0403 15:54:11.339709 14821 net.cpp:156] Memory required for data: 1035617568
I0403 15:54:11.339726 14821 layer_factory.hpp:77] Creating layer inception_4c/relu_3x3_reduce
I0403 15:54:11.339745 14821 net.cpp:91] Creating Layer inception_4c/relu_3x3_reduce
I0403 15:54:11.339761 14821 net.cpp:425] inception_4c/relu_3x3_reduce <- inception_4c/3x3_reduce
I0403 15:54:11.339779 14821 net.cpp:386] inception_4c/relu_3x3_reduce -> inception_4c/3x3_reduce (in-place)
I0403 15:54:11.340070 14821 net.cpp:141] Setting up inception_4c/relu_3x3_reduce
I0403 15:54:11.340100 14821 net.cpp:148] Top shape: 24 128 14 14 (602112)
I0403 15:54:11.340116 14821 net.cpp:156] Memory required for data: 1038026016
I0403 15:54:11.340136 14821 layer_factory.hpp:77] Creating layer inception_4c/3x3
I0403 15:54:11.340160 14821 net.cpp:91] Creating Layer inception_4c/3x3
I0403 15:54:11.340179 14821 net.cpp:425] inception_4c/3x3 <- inception_4c/3x3_reduce
I0403 15:54:11.340198 14821 net.cpp:399] inception_4c/3x3 -> inception_4c/3x3
I0403 15:54:11.343890 14821 net.cpp:141] Setting up inception_4c/3x3
I0403 15:54:11.343936 14821 net.cpp:148] Top shape: 24 256 14 14 (1204224)
I0403 15:54:11.343955 14821 net.cpp:156] Memory required for data: 1042842912
I0403 15:54:11.343987 14821 layer_factory.hpp:77] Creating layer inception_4c/relu_3x3
I0403 15:54:11.344008 14821 net.cpp:91] Creating Layer inception_4c/relu_3x3
I0403 15:54:11.344024 14821 net.cpp:425] inception_4c/relu_3x3 <- inception_4c/3x3
I0403 15:54:11.344043 14821 net.cpp:386] inception_4c/relu_3x3 -> inception_4c/3x3 (in-place)
I0403 15:54:11.344231 14821 net.cpp:141] Setting up inception_4c/relu_3x3
I0403 15:54:11.344260 14821 net.cpp:148] Top shape: 24 256 14 14 (1204224)
I0403 15:54:11.344275 14821 net.cpp:156] Memory required for data: 1047659808
I0403 15:54:11.344291 14821 layer_factory.hpp:77] Creating layer inception_4c/5x5_reduce
I0403 15:54:11.344316 14821 net.cpp:91] Creating Layer inception_4c/5x5_reduce
I0403 15:54:11.344334 14821 net.cpp:425] inception_4c/5x5_reduce <- inception_4b/output_inception_4b/output_0_split_2
I0403 15:54:11.344357 14821 net.cpp:399] inception_4c/5x5_reduce -> inception_4c/5x5_reduce
I0403 15:54:11.345474 14821 net.cpp:141] Setting up inception_4c/5x5_reduce
I0403 15:54:11.345506 14821 net.cpp:148] Top shape: 24 24 14 14 (112896)
I0403 15:54:11.345525 14821 net.cpp:156] Memory required for data: 1048111392
I0403 15:54:11.345543 14821 layer_factory.hpp:77] Creating layer inception_4c/relu_5x5_reduce
I0403 15:54:11.345561 14821 net.cpp:91] Creating Layer inception_4c/relu_5x5_reduce
I0403 15:54:11.345578 14821 net.cpp:425] inception_4c/relu_5x5_reduce <- inception_4c/5x5_reduce
I0403 15:54:11.345597 14821 net.cpp:386] inception_4c/relu_5x5_reduce -> inception_4c/5x5_reduce (in-place)
I0403 15:54:11.345789 14821 net.cpp:141] Setting up inception_4c/relu_5x5_reduce
I0403 15:54:11.345815 14821 net.cpp:148] Top shape: 24 24 14 14 (112896)
I0403 15:54:11.345830 14821 net.cpp:156] Memory required for data: 1048562976
I0403 15:54:11.345845 14821 layer_factory.hpp:77] Creating layer inception_4c/5x5
I0403 15:54:11.345868 14821 net.cpp:91] Creating Layer inception_4c/5x5
I0403 15:54:11.345887 14821 net.cpp:425] inception_4c/5x5 <- inception_4c/5x5_reduce
I0403 15:54:11.345909 14821 net.cpp:399] inception_4c/5x5 -> inception_4c/5x5
I0403 15:54:11.347198 14821 net.cpp:141] Setting up inception_4c/5x5
I0403 15:54:11.347228 14821 net.cpp:148] Top shape: 24 64 14 14 (301056)
I0403 15:54:11.347244 14821 net.cpp:156] Memory required for data: 1049767200
I0403 15:54:11.347260 14821 layer_factory.hpp:77] Creating layer inception_4c/relu_5x5
I0403 15:54:11.347280 14821 net.cpp:91] Creating Layer inception_4c/relu_5x5
I0403 15:54:11.347295 14821 net.cpp:425] inception_4c/relu_5x5 <- inception_4c/5x5
I0403 15:54:11.347316 14821 net.cpp:386] inception_4c/relu_5x5 -> inception_4c/5x5 (in-place)
I0403 15:54:11.347615 14821 net.cpp:141] Setting up inception_4c/relu_5x5
I0403 15:54:11.347645 14821 net.cpp:148] Top shape: 24 64 14 14 (301056)
I0403 15:54:11.347661 14821 net.cpp:156] Memory required for data: 1050971424
I0403 15:54:11.347674 14821 layer_factory.hpp:77] Creating layer inception_4c/pool
I0403 15:54:11.347692 14821 net.cpp:91] Creating Layer inception_4c/pool
I0403 15:54:11.347709 14821 net.cpp:425] inception_4c/pool <- inception_4b/output_inception_4b/output_0_split_3
I0403 15:54:11.347730 14821 net.cpp:399] inception_4c/pool -> inception_4c/pool
I0403 15:54:11.347798 14821 net.cpp:141] Setting up inception_4c/pool
I0403 15:54:11.347823 14821 net.cpp:148] Top shape: 24 512 14 14 (2408448)
I0403 15:54:11.347839 14821 net.cpp:156] Memory required for data: 1060605216
I0403 15:54:11.347853 14821 layer_factory.hpp:77] Creating layer inception_4c/pool_proj
I0403 15:54:11.347877 14821 net.cpp:91] Creating Layer inception_4c/pool_proj
I0403 15:54:11.347897 14821 net.cpp:425] inception_4c/pool_proj <- inception_4c/pool
I0403 15:54:11.347915 14821 net.cpp:399] inception_4c/pool_proj -> inception_4c/pool_proj
I0403 15:54:11.349186 14821 net.cpp:141] Setting up inception_4c/pool_proj
I0403 15:54:11.349217 14821 net.cpp:148] Top shape: 24 64 14 14 (301056)
I0403 15:54:11.349248 14821 net.cpp:156] Memory required for data: 1061809440
I0403 15:54:11.349268 14821 layer_factory.hpp:77] Creating layer inception_4c/relu_pool_proj
I0403 15:54:11.349287 14821 net.cpp:91] Creating Layer inception_4c/relu_pool_proj
I0403 15:54:11.349304 14821 net.cpp:425] inception_4c/relu_pool_proj <- inception_4c/pool_proj
I0403 15:54:11.349324 14821 net.cpp:386] inception_4c/relu_pool_proj -> inception_4c/pool_proj (in-place)
I0403 15:54:11.349515 14821 net.cpp:141] Setting up inception_4c/relu_pool_proj
I0403 15:54:11.349542 14821 net.cpp:148] Top shape: 24 64 14 14 (301056)
I0403 15:54:11.349557 14821 net.cpp:156] Memory required for data: 1063013664
I0403 15:54:11.349573 14821 layer_factory.hpp:77] Creating layer inception_4c/output
I0403 15:54:11.349591 14821 net.cpp:91] Creating Layer inception_4c/output
I0403 15:54:11.349606 14821 net.cpp:425] inception_4c/output <- inception_4c/1x1
I0403 15:54:11.349622 14821 net.cpp:425] inception_4c/output <- inception_4c/3x3
I0403 15:54:11.349638 14821 net.cpp:425] inception_4c/output <- inception_4c/5x5
I0403 15:54:11.349654 14821 net.cpp:425] inception_4c/output <- inception_4c/pool_proj
I0403 15:54:11.349673 14821 net.cpp:399] inception_4c/output -> inception_4c/output
I0403 15:54:11.349721 14821 net.cpp:141] Setting up inception_4c/output
I0403 15:54:11.349748 14821 net.cpp:148] Top shape: 24 512 14 14 (2408448)
I0403 15:54:11.349764 14821 net.cpp:156] Memory required for data: 1072647456
I0403 15:54:11.349779 14821 layer_factory.hpp:77] Creating layer inception_4c/output_inception_4c/output_0_split
I0403 15:54:11.349797 14821 net.cpp:91] Creating Layer inception_4c/output_inception_4c/output_0_split
I0403 15:54:11.349812 14821 net.cpp:425] inception_4c/output_inception_4c/output_0_split <- inception_4c/output
I0403 15:54:11.349829 14821 net.cpp:399] inception_4c/output_inception_4c/output_0_split -> inception_4c/output_inception_4c/output_0_split_0
I0403 15:54:11.349851 14821 net.cpp:399] inception_4c/output_inception_4c/output_0_split -> inception_4c/output_inception_4c/output_0_split_1
I0403 15:54:11.349872 14821 net.cpp:399] inception_4c/output_inception_4c/output_0_split -> inception_4c/output_inception_4c/output_0_split_2
I0403 15:54:11.349892 14821 net.cpp:399] inception_4c/output_inception_4c/output_0_split -> inception_4c/output_inception_4c/output_0_split_3
I0403 15:54:11.349982 14821 net.cpp:141] Setting up inception_4c/output_inception_4c/output_0_split
I0403 15:54:11.350006 14821 net.cpp:148] Top shape: 24 512 14 14 (2408448)
I0403 15:54:11.350023 14821 net.cpp:148] Top shape: 24 512 14 14 (2408448)
I0403 15:54:11.350039 14821 net.cpp:148] Top shape: 24 512 14 14 (2408448)
I0403 15:54:11.350056 14821 net.cpp:148] Top shape: 24 512 14 14 (2408448)
I0403 15:54:11.350070 14821 net.cpp:156] Memory required for data: 1111182624
I0403 15:54:11.350085 14821 layer_factory.hpp:77] Creating layer inception_4d/1x1
I0403 15:54:11.350111 14821 net.cpp:91] Creating Layer inception_4d/1x1
I0403 15:54:11.350133 14821 net.cpp:425] inception_4d/1x1 <- inception_4c/output_inception_4c/output_0_split_0
I0403 15:54:11.350154 14821 net.cpp:399] inception_4d/1x1 -> inception_4d/1x1
I0403 15:54:11.351572 14821 net.cpp:141] Setting up inception_4d/1x1
I0403 15:54:11.351601 14821 net.cpp:148] Top shape: 24 112 14 14 (526848)
I0403 15:54:11.351618 14821 net.cpp:156] Memory required for data: 1113290016
I0403 15:54:11.351636 14821 layer_factory.hpp:77] Creating layer inception_4d/relu_1x1
I0403 15:54:11.351657 14821 net.cpp:91] Creating Layer inception_4d/relu_1x1
I0403 15:54:11.351675 14821 net.cpp:425] inception_4d/relu_1x1 <- inception_4d/1x1
I0403 15:54:11.351694 14821 net.cpp:386] inception_4d/relu_1x1 -> inception_4d/1x1 (in-place)
I0403 15:54:11.351882 14821 net.cpp:141] Setting up inception_4d/relu_1x1
I0403 15:54:11.351910 14821 net.cpp:148] Top shape: 24 112 14 14 (526848)
I0403 15:54:11.351927 14821 net.cpp:156] Memory required for data: 1115397408
I0403 15:54:11.351941 14821 layer_factory.hpp:77] Creating layer inception_4d/3x3_reduce
I0403 15:54:11.351979 14821 net.cpp:91] Creating Layer inception_4d/3x3_reduce
I0403 15:54:11.351997 14821 net.cpp:425] inception_4d/3x3_reduce <- inception_4c/output_inception_4c/output_0_split_1
I0403 15:54:11.352017 14821 net.cpp:399] inception_4d/3x3_reduce -> inception_4d/3x3_reduce
I0403 15:54:11.353598 14821 net.cpp:141] Setting up inception_4d/3x3_reduce
I0403 15:54:11.353626 14821 net.cpp:148] Top shape: 24 144 14 14 (677376)
I0403 15:54:11.353642 14821 net.cpp:156] Memory required for data: 1118106912
I0403 15:54:11.353662 14821 layer_factory.hpp:77] Creating layer inception_4d/relu_3x3_reduce
I0403 15:54:11.353682 14821 net.cpp:91] Creating Layer inception_4d/relu_3x3_reduce
I0403 15:54:11.353700 14821 net.cpp:425] inception_4d/relu_3x3_reduce <- inception_4d/3x3_reduce
I0403 15:54:11.353718 14821 net.cpp:386] inception_4d/relu_3x3_reduce -> inception_4d/3x3_reduce (in-place)
I0403 15:54:11.354007 14821 net.cpp:141] Setting up inception_4d/relu_3x3_reduce
I0403 15:54:11.354035 14821 net.cpp:148] Top shape: 24 144 14 14 (677376)
I0403 15:54:11.354049 14821 net.cpp:156] Memory required for data: 1120816416
I0403 15:54:11.354064 14821 layer_factory.hpp:77] Creating layer inception_4d/3x3
I0403 15:54:11.354086 14821 net.cpp:91] Creating Layer inception_4d/3x3
I0403 15:54:11.354104 14821 net.cpp:425] inception_4d/3x3 <- inception_4d/3x3_reduce
I0403 15:54:11.354125 14821 net.cpp:399] inception_4d/3x3 -> inception_4d/3x3
I0403 15:54:11.358515 14821 net.cpp:141] Setting up inception_4d/3x3
I0403 15:54:11.358546 14821 net.cpp:148] Top shape: 24 288 14 14 (1354752)
I0403 15:54:11.358561 14821 net.cpp:156] Memory required for data: 1126235424
I0403 15:54:11.358580 14821 layer_factory.hpp:77] Creating layer inception_4d/relu_3x3
I0403 15:54:11.358613 14821 net.cpp:91] Creating Layer inception_4d/relu_3x3
I0403 15:54:11.358629 14821 net.cpp:425] inception_4d/relu_3x3 <- inception_4d/3x3
I0403 15:54:11.358645 14821 net.cpp:386] inception_4d/relu_3x3 -> inception_4d/3x3 (in-place)
I0403 15:54:11.358829 14821 net.cpp:141] Setting up inception_4d/relu_3x3
I0403 15:54:11.358856 14821 net.cpp:148] Top shape: 24 288 14 14 (1354752)
I0403 15:54:11.358871 14821 net.cpp:156] Memory required for data: 1131654432
I0403 15:54:11.358886 14821 layer_factory.hpp:77] Creating layer inception_4d/5x5_reduce
I0403 15:54:11.358907 14821 net.cpp:91] Creating Layer inception_4d/5x5_reduce
I0403 15:54:11.358925 14821 net.cpp:425] inception_4d/5x5_reduce <- inception_4c/output_inception_4c/output_0_split_2
I0403 15:54:11.358943 14821 net.cpp:399] inception_4d/5x5_reduce -> inception_4d/5x5_reduce
I0403 15:54:11.360118 14821 net.cpp:141] Setting up inception_4d/5x5_reduce
I0403 15:54:11.360151 14821 net.cpp:148] Top shape: 24 32 14 14 (150528)
I0403 15:54:11.360165 14821 net.cpp:156] Memory required for data: 1132256544
I0403 15:54:11.360183 14821 layer_factory.hpp:77] Creating layer inception_4d/relu_5x5_reduce
I0403 15:54:11.360204 14821 net.cpp:91] Creating Layer inception_4d/relu_5x5_reduce
I0403 15:54:11.360221 14821 net.cpp:425] inception_4d/relu_5x5_reduce <- inception_4d/5x5_reduce
I0403 15:54:11.360239 14821 net.cpp:386] inception_4d/relu_5x5_reduce -> inception_4d/5x5_reduce (in-place)
I0403 15:54:11.360438 14821 net.cpp:141] Setting up inception_4d/relu_5x5_reduce
I0403 15:54:11.360466 14821 net.cpp:148] Top shape: 24 32 14 14 (150528)
I0403 15:54:11.360481 14821 net.cpp:156] Memory required for data: 1132858656
I0403 15:54:11.360496 14821 layer_factory.hpp:77] Creating layer inception_4d/5x5
I0403 15:54:11.360517 14821 net.cpp:91] Creating Layer inception_4d/5x5
I0403 15:54:11.360537 14821 net.cpp:425] inception_4d/5x5 <- inception_4d/5x5_reduce
I0403 15:54:11.360558 14821 net.cpp:399] inception_4d/5x5 -> inception_4d/5x5
I0403 15:54:11.362087 14821 net.cpp:141] Setting up inception_4d/5x5
I0403 15:54:11.362114 14821 net.cpp:148] Top shape: 24 64 14 14 (301056)
I0403 15:54:11.362154 14821 net.cpp:156] Memory required for data: 1134062880
I0403 15:54:11.362175 14821 layer_factory.hpp:77] Creating layer inception_4d/relu_5x5
I0403 15:54:11.362210 14821 net.cpp:91] Creating Layer inception_4d/relu_5x5
I0403 15:54:11.362226 14821 net.cpp:425] inception_4d/relu_5x5 <- inception_4d/5x5
I0403 15:54:11.362247 14821 net.cpp:386] inception_4d/relu_5x5 -> inception_4d/5x5 (in-place)
I0403 15:54:11.362576 14821 net.cpp:141] Setting up inception_4d/relu_5x5
I0403 15:54:11.362601 14821 net.cpp:148] Top shape: 24 64 14 14 (301056)
I0403 15:54:11.362617 14821 net.cpp:156] Memory required for data: 1135267104
I0403 15:54:11.362630 14821 layer_factory.hpp:77] Creating layer inception_4d/pool
I0403 15:54:11.362646 14821 net.cpp:91] Creating Layer inception_4d/pool
I0403 15:54:11.362661 14821 net.cpp:425] inception_4d/pool <- inception_4c/output_inception_4c/output_0_split_3
I0403 15:54:11.362681 14821 net.cpp:399] inception_4d/pool -> inception_4d/pool
I0403 15:54:11.362746 14821 net.cpp:141] Setting up inception_4d/pool
I0403 15:54:11.362768 14821 net.cpp:148] Top shape: 24 512 14 14 (2408448)
I0403 15:54:11.362782 14821 net.cpp:156] Memory required for data: 1144900896
I0403 15:54:11.362797 14821 layer_factory.hpp:77] Creating layer inception_4d/pool_proj
I0403 15:54:11.362818 14821 net.cpp:91] Creating Layer inception_4d/pool_proj
I0403 15:54:11.362835 14821 net.cpp:425] inception_4d/pool_proj <- inception_4d/pool
I0403 15:54:11.362853 14821 net.cpp:399] inception_4d/pool_proj -> inception_4d/pool_proj
I0403 15:54:11.364573 14821 net.cpp:141] Setting up inception_4d/pool_proj
I0403 15:54:11.364601 14821 net.cpp:148] Top shape: 24 64 14 14 (301056)
I0403 15:54:11.364619 14821 net.cpp:156] Memory required for data: 1146105120
I0403 15:54:11.364636 14821 layer_factory.hpp:77] Creating layer inception_4d/relu_pool_proj
I0403 15:54:11.364653 14821 net.cpp:91] Creating Layer inception_4d/relu_pool_proj
I0403 15:54:11.364670 14821 net.cpp:425] inception_4d/relu_pool_proj <- inception_4d/pool_proj
I0403 15:54:11.364684 14821 net.cpp:386] inception_4d/relu_pool_proj -> inception_4d/pool_proj (in-place)
I0403 15:54:11.364868 14821 net.cpp:141] Setting up inception_4d/relu_pool_proj
I0403 15:54:11.364894 14821 net.cpp:148] Top shape: 24 64 14 14 (301056)
I0403 15:54:11.364908 14821 net.cpp:156] Memory required for data: 1147309344
I0403 15:54:11.364923 14821 layer_factory.hpp:77] Creating layer inception_4d/output
I0403 15:54:11.364939 14821 net.cpp:91] Creating Layer inception_4d/output
I0403 15:54:11.364953 14821 net.cpp:425] inception_4d/output <- inception_4d/1x1
I0403 15:54:11.364969 14821 net.cpp:425] inception_4d/output <- inception_4d/3x3
I0403 15:54:11.364984 14821 net.cpp:425] inception_4d/output <- inception_4d/5x5
I0403 15:54:11.364998 14821 net.cpp:425] inception_4d/output <- inception_4d/pool_proj
I0403 15:54:11.365017 14821 net.cpp:399] inception_4d/output -> inception_4d/output
I0403 15:54:11.365063 14821 net.cpp:141] Setting up inception_4d/output
I0403 15:54:11.365085 14821 net.cpp:148] Top shape: 24 528 14 14 (2483712)
I0403 15:54:11.365099 14821 net.cpp:156] Memory required for data: 1157244192
I0403 15:54:11.365113 14821 layer_factory.hpp:77] Creating layer inception_4d/output_inception_4d/output_0_split
I0403 15:54:11.365135 14821 net.cpp:91] Creating Layer inception_4d/output_inception_4d/output_0_split
I0403 15:54:11.365152 14821 net.cpp:425] inception_4d/output_inception_4d/output_0_split <- inception_4d/output
I0403 15:54:11.365170 14821 net.cpp:399] inception_4d/output_inception_4d/output_0_split -> inception_4d/output_inception_4d/output_0_split_0
I0403 15:54:11.365192 14821 net.cpp:399] inception_4d/output_inception_4d/output_0_split -> inception_4d/output_inception_4d/output_0_split_1
I0403 15:54:11.365211 14821 net.cpp:399] inception_4d/output_inception_4d/output_0_split -> inception_4d/output_inception_4d/output_0_split_2
I0403 15:54:11.365231 14821 net.cpp:399] inception_4d/output_inception_4d/output_0_split -> inception_4d/output_inception_4d/output_0_split_3
I0403 15:54:11.365248 14821 net.cpp:399] inception_4d/output_inception_4d/output_0_split -> inception_4d/output_inception_4d/output_0_split_4
I0403 15:54:11.365347 14821 net.cpp:141] Setting up inception_4d/output_inception_4d/output_0_split
I0403 15:54:11.365382 14821 net.cpp:148] Top shape: 24 528 14 14 (2483712)
I0403 15:54:11.365398 14821 net.cpp:148] Top shape: 24 528 14 14 (2483712)
I0403 15:54:11.365412 14821 net.cpp:148] Top shape: 24 528 14 14 (2483712)
I0403 15:54:11.365427 14821 net.cpp:148] Top shape: 24 528 14 14 (2483712)
I0403 15:54:11.365440 14821 net.cpp:148] Top shape: 24 528 14 14 (2483712)
I0403 15:54:11.365453 14821 net.cpp:156] Memory required for data: 1206918432
I0403 15:54:11.365466 14821 layer_factory.hpp:77] Creating layer loss2/ave_pool
I0403 15:54:11.365485 14821 net.cpp:91] Creating Layer loss2/ave_pool
I0403 15:54:11.365502 14821 net.cpp:425] loss2/ave_pool <- inception_4d/output_inception_4d/output_0_split_0
I0403 15:54:11.365519 14821 net.cpp:399] loss2/ave_pool -> loss2/ave_pool
I0403 15:54:11.365820 14821 net.cpp:141] Setting up loss2/ave_pool
I0403 15:54:11.365849 14821 net.cpp:148] Top shape: 24 528 4 4 (202752)
I0403 15:54:11.365864 14821 net.cpp:156] Memory required for data: 1207729440
I0403 15:54:11.365878 14821 layer_factory.hpp:77] Creating layer loss2/conv
I0403 15:54:11.365896 14821 net.cpp:91] Creating Layer loss2/conv
I0403 15:54:11.365912 14821 net.cpp:425] loss2/conv <- loss2/ave_pool
I0403 15:54:11.365931 14821 net.cpp:399] loss2/conv -> loss2/conv
I0403 15:54:11.367779 14821 net.cpp:141] Setting up loss2/conv
I0403 15:54:11.367808 14821 net.cpp:148] Top shape: 24 128 4 4 (49152)
I0403 15:54:11.367823 14821 net.cpp:156] Memory required for data: 1207926048
I0403 15:54:11.367841 14821 layer_factory.hpp:77] Creating layer loss2/relu_conv
I0403 15:54:11.367858 14821 net.cpp:91] Creating Layer loss2/relu_conv
I0403 15:54:11.367873 14821 net.cpp:425] loss2/relu_conv <- loss2/conv
I0403 15:54:11.367892 14821 net.cpp:386] loss2/relu_conv -> loss2/conv (in-place)
I0403 15:54:11.368175 14821 net.cpp:141] Setting up loss2/relu_conv
I0403 15:54:11.368202 14821 net.cpp:148] Top shape: 24 128 4 4 (49152)
I0403 15:54:11.368216 14821 net.cpp:156] Memory required for data: 1208122656
I0403 15:54:11.368229 14821 layer_factory.hpp:77] Creating layer loss2/fc
I0403 15:54:11.368247 14821 net.cpp:91] Creating Layer loss2/fc
I0403 15:54:11.368263 14821 net.cpp:425] loss2/fc <- loss2/conv
I0403 15:54:11.368283 14821 net.cpp:399] loss2/fc -> loss2/fc
I0403 15:54:11.385509 14821 net.cpp:141] Setting up loss2/fc
I0403 15:54:11.385542 14821 net.cpp:148] Top shape: 24 1024 (24576)
I0403 15:54:11.385557 14821 net.cpp:156] Memory required for data: 1208220960
I0403 15:54:11.385576 14821 layer_factory.hpp:77] Creating layer loss2/relu_fc
I0403 15:54:11.385594 14821 net.cpp:91] Creating Layer loss2/relu_fc
I0403 15:54:11.385612 14821 net.cpp:425] loss2/relu_fc <- loss2/fc
I0403 15:54:11.385628 14821 net.cpp:386] loss2/relu_fc -> loss2/fc (in-place)
I0403 15:54:11.385915 14821 net.cpp:141] Setting up loss2/relu_fc
I0403 15:54:11.385941 14821 net.cpp:148] Top shape: 24 1024 (24576)
I0403 15:54:11.385957 14821 net.cpp:156] Memory required for data: 1208319264
I0403 15:54:11.385970 14821 layer_factory.hpp:77] Creating layer loss2/drop_fc
I0403 15:54:11.385987 14821 net.cpp:91] Creating Layer loss2/drop_fc
I0403 15:54:11.386003 14821 net.cpp:425] loss2/drop_fc <- loss2/fc
I0403 15:54:11.386019 14821 net.cpp:386] loss2/drop_fc -> loss2/fc (in-place)
I0403 15:54:11.386068 14821 net.cpp:141] Setting up loss2/drop_fc
I0403 15:54:11.386090 14821 net.cpp:148] Top shape: 24 1024 (24576)
I0403 15:54:11.386103 14821 net.cpp:156] Memory required for data: 1208417568
I0403 15:54:11.386118 14821 layer_factory.hpp:77] Creating layer loss2/classifier_plantvillage
I0403 15:54:11.386142 14821 net.cpp:91] Creating Layer loss2/classifier_plantvillage
I0403 15:54:11.386160 14821 net.cpp:425] loss2/classifier_plantvillage <- loss2/fc
I0403 15:54:11.386178 14821 net.cpp:399] loss2/classifier_plantvillage -> loss2/classifier_plantvillage
I0403 15:54:11.386571 14821 net.cpp:141] Setting up loss2/classifier_plantvillage
I0403 15:54:11.386596 14821 net.cpp:148] Top shape: 24 38 (912)
I0403 15:54:11.386610 14821 net.cpp:156] Memory required for data: 1208421216
I0403 15:54:11.386644 14821 layer_factory.hpp:77] Creating layer loss2/classifier_plantvillage_loss2/classifier_plantvillage_0_split
I0403 15:54:11.386662 14821 net.cpp:91] Creating Layer loss2/classifier_plantvillage_loss2/classifier_plantvillage_0_split
I0403 15:54:11.386677 14821 net.cpp:425] loss2/classifier_plantvillage_loss2/classifier_plantvillage_0_split <- loss2/classifier_plantvillage
I0403 15:54:11.386696 14821 net.cpp:399] loss2/classifier_plantvillage_loss2/classifier_plantvillage_0_split -> loss2/classifier_plantvillage_loss2/classifier_plantvillage_0_split_0
I0403 15:54:11.386718 14821 net.cpp:399] loss2/classifier_plantvillage_loss2/classifier_plantvillage_0_split -> loss2/classifier_plantvillage_loss2/classifier_plantvillage_0_split_1
I0403 15:54:11.386735 14821 net.cpp:399] loss2/classifier_plantvillage_loss2/classifier_plantvillage_0_split -> loss2/classifier_plantvillage_loss2/classifier_plantvillage_0_split_2
I0403 15:54:11.386811 14821 net.cpp:141] Setting up loss2/classifier_plantvillage_loss2/classifier_plantvillage_0_split
I0403 15:54:11.386836 14821 net.cpp:148] Top shape: 24 38 (912)
I0403 15:54:11.386850 14821 net.cpp:148] Top shape: 24 38 (912)
I0403 15:54:11.386865 14821 net.cpp:148] Top shape: 24 38 (912)
I0403 15:54:11.386878 14821 net.cpp:156] Memory required for data: 1208432160
I0403 15:54:11.386891 14821 layer_factory.hpp:77] Creating layer inception_4e/1x1
I0403 15:54:11.386910 14821 net.cpp:91] Creating Layer inception_4e/1x1
I0403 15:54:11.386925 14821 net.cpp:425] inception_4e/1x1 <- inception_4d/output_inception_4d/output_0_split_1
I0403 15:54:11.386942 14821 net.cpp:399] inception_4e/1x1 -> inception_4e/1x1
I0403 15:54:11.388722 14821 net.cpp:141] Setting up inception_4e/1x1
I0403 15:54:11.388748 14821 net.cpp:148] Top shape: 24 256 14 14 (1204224)
I0403 15:54:11.388763 14821 net.cpp:156] Memory required for data: 1213249056
I0403 15:54:11.388782 14821 layer_factory.hpp:77] Creating layer inception_4e/relu_1x1
I0403 15:54:11.388798 14821 net.cpp:91] Creating Layer inception_4e/relu_1x1
I0403 15:54:11.388813 14821 net.cpp:425] inception_4e/relu_1x1 <- inception_4e/1x1
I0403 15:54:11.388831 14821 net.cpp:386] inception_4e/relu_1x1 -> inception_4e/1x1 (in-place)
I0403 15:54:11.389135 14821 net.cpp:141] Setting up inception_4e/relu_1x1
I0403 15:54:11.389161 14821 net.cpp:148] Top shape: 24 256 14 14 (1204224)
I0403 15:54:11.389176 14821 net.cpp:156] Memory required for data: 1218065952
I0403 15:54:11.389190 14821 layer_factory.hpp:77] Creating layer inception_4e/3x3_reduce
I0403 15:54:11.389212 14821 net.cpp:91] Creating Layer inception_4e/3x3_reduce
I0403 15:54:11.389230 14821 net.cpp:425] inception_4e/3x3_reduce <- inception_4d/output_inception_4d/output_0_split_2
I0403 15:54:11.389250 14821 net.cpp:399] inception_4e/3x3_reduce -> inception_4e/3x3_reduce
I0403 15:54:11.391386 14821 net.cpp:141] Setting up inception_4e/3x3_reduce
I0403 15:54:11.391417 14821 net.cpp:148] Top shape: 24 160 14 14 (752640)
I0403 15:54:11.391433 14821 net.cpp:156] Memory required for data: 1221076512
I0403 15:54:11.391449 14821 layer_factory.hpp:77] Creating layer inception_4e/relu_3x3_reduce
I0403 15:54:11.391468 14821 net.cpp:91] Creating Layer inception_4e/relu_3x3_reduce
I0403 15:54:11.391482 14821 net.cpp:425] inception_4e/relu_3x3_reduce <- inception_4e/3x3_reduce
I0403 15:54:11.391500 14821 net.cpp:386] inception_4e/relu_3x3_reduce -> inception_4e/3x3_reduce (in-place)
I0403 15:54:11.391685 14821 net.cpp:141] Setting up inception_4e/relu_3x3_reduce
I0403 15:54:11.391708 14821 net.cpp:148] Top shape: 24 160 14 14 (752640)
I0403 15:54:11.391722 14821 net.cpp:156] Memory required for data: 1224087072
I0403 15:54:11.391736 14821 layer_factory.hpp:77] Creating layer inception_4e/3x3
I0403 15:54:11.391757 14821 net.cpp:91] Creating Layer inception_4e/3x3
I0403 15:54:11.391773 14821 net.cpp:425] inception_4e/3x3 <- inception_4e/3x3_reduce
I0403 15:54:11.391794 14821 net.cpp:399] inception_4e/3x3 -> inception_4e/3x3
I0403 15:54:11.396687 14821 net.cpp:141] Setting up inception_4e/3x3
I0403 15:54:11.396726 14821 net.cpp:148] Top shape: 24 320 14 14 (1505280)
I0403 15:54:11.396742 14821 net.cpp:156] Memory required for data: 1230108192
I0403 15:54:11.396760 14821 layer_factory.hpp:77] Creating layer inception_4e/relu_3x3
I0403 15:54:11.396780 14821 net.cpp:91] Creating Layer inception_4e/relu_3x3
I0403 15:54:11.396795 14821 net.cpp:425] inception_4e/relu_3x3 <- inception_4e/3x3
I0403 15:54:11.396811 14821 net.cpp:386] inception_4e/relu_3x3 -> inception_4e/3x3 (in-place)
I0403 15:54:11.397102 14821 net.cpp:141] Setting up inception_4e/relu_3x3
I0403 15:54:11.397131 14821 net.cpp:148] Top shape: 24 320 14 14 (1505280)
I0403 15:54:11.397147 14821 net.cpp:156] Memory required for data: 1236129312
I0403 15:54:11.397161 14821 layer_factory.hpp:77] Creating layer inception_4e/5x5_reduce
I0403 15:54:11.397182 14821 net.cpp:91] Creating Layer inception_4e/5x5_reduce
I0403 15:54:11.397203 14821 net.cpp:425] inception_4e/5x5_reduce <- inception_4d/output_inception_4d/output_0_split_3
I0403 15:54:11.397222 14821 net.cpp:399] inception_4e/5x5_reduce -> inception_4e/5x5_reduce
I0403 15:54:11.398270 14821 net.cpp:141] Setting up inception_4e/5x5_reduce
I0403 15:54:11.398296 14821 net.cpp:148] Top shape: 24 32 14 14 (150528)
I0403 15:54:11.398311 14821 net.cpp:156] Memory required for data: 1236731424
I0403 15:54:11.398327 14821 layer_factory.hpp:77] Creating layer inception_4e/relu_5x5_reduce
I0403 15:54:11.398344 14821 net.cpp:91] Creating Layer inception_4e/relu_5x5_reduce
I0403 15:54:11.398360 14821 net.cpp:425] inception_4e/relu_5x5_reduce <- inception_4e/5x5_reduce
I0403 15:54:11.398378 14821 net.cpp:386] inception_4e/relu_5x5_reduce -> inception_4e/5x5_reduce (in-place)
I0403 15:54:11.398666 14821 net.cpp:141] Setting up inception_4e/relu_5x5_reduce
I0403 15:54:11.398691 14821 net.cpp:148] Top shape: 24 32 14 14 (150528)
I0403 15:54:11.398705 14821 net.cpp:156] Memory required for data: 1237333536
I0403 15:54:11.398720 14821 layer_factory.hpp:77] Creating layer inception_4e/5x5
I0403 15:54:11.398756 14821 net.cpp:91] Creating Layer inception_4e/5x5
I0403 15:54:11.398774 14821 net.cpp:425] inception_4e/5x5 <- inception_4e/5x5_reduce
I0403 15:54:11.398792 14821 net.cpp:399] inception_4e/5x5 -> inception_4e/5x5
I0403 15:54:11.400583 14821 net.cpp:141] Setting up inception_4e/5x5
I0403 15:54:11.400611 14821 net.cpp:148] Top shape: 24 128 14 14 (602112)
I0403 15:54:11.400626 14821 net.cpp:156] Memory required for data: 1239741984
I0403 15:54:11.400645 14821 layer_factory.hpp:77] Creating layer inception_4e/relu_5x5
I0403 15:54:11.400661 14821 net.cpp:91] Creating Layer inception_4e/relu_5x5
I0403 15:54:11.400677 14821 net.cpp:425] inception_4e/relu_5x5 <- inception_4e/5x5
I0403 15:54:11.400693 14821 net.cpp:386] inception_4e/relu_5x5 -> inception_4e/5x5 (in-place)
I0403 15:54:11.400889 14821 net.cpp:141] Setting up inception_4e/relu_5x5
I0403 15:54:11.400913 14821 net.cpp:148] Top shape: 24 128 14 14 (602112)
I0403 15:54:11.400928 14821 net.cpp:156] Memory required for data: 1242150432
I0403 15:54:11.400940 14821 layer_factory.hpp:77] Creating layer inception_4e/pool
I0403 15:54:11.400957 14821 net.cpp:91] Creating Layer inception_4e/pool
I0403 15:54:11.400972 14821 net.cpp:425] inception_4e/pool <- inception_4d/output_inception_4d/output_0_split_4
I0403 15:54:11.400991 14821 net.cpp:399] inception_4e/pool -> inception_4e/pool
I0403 15:54:11.401057 14821 net.cpp:141] Setting up inception_4e/pool
I0403 15:54:11.401082 14821 net.cpp:148] Top shape: 24 528 14 14 (2483712)
I0403 15:54:11.401096 14821 net.cpp:156] Memory required for data: 1252085280
I0403 15:54:11.401110 14821 layer_factory.hpp:77] Creating layer inception_4e/pool_proj
I0403 15:54:11.401134 14821 net.cpp:91] Creating Layer inception_4e/pool_proj
I0403 15:54:11.401152 14821 net.cpp:425] inception_4e/pool_proj <- inception_4e/pool
I0403 15:54:11.401170 14821 net.cpp:399] inception_4e/pool_proj -> inception_4e/pool_proj
I0403 15:54:11.402631 14821 net.cpp:141] Setting up inception_4e/pool_proj
I0403 15:54:11.402660 14821 net.cpp:148] Top shape: 24 128 14 14 (602112)
I0403 15:54:11.402688 14821 net.cpp:156] Memory required for data: 1254493728
I0403 15:54:11.402706 14821 layer_factory.hpp:77] Creating layer inception_4e/relu_pool_proj
I0403 15:54:11.402724 14821 net.cpp:91] Creating Layer inception_4e/relu_pool_proj
I0403 15:54:11.402737 14821 net.cpp:425] inception_4e/relu_pool_proj <- inception_4e/pool_proj
I0403 15:54:11.402753 14821 net.cpp:386] inception_4e/relu_pool_proj -> inception_4e/pool_proj (in-place)
I0403 15:54:11.403038 14821 net.cpp:141] Setting up inception_4e/relu_pool_proj
I0403 15:54:11.403065 14821 net.cpp:148] Top shape: 24 128 14 14 (602112)
I0403 15:54:11.403080 14821 net.cpp:156] Memory required for data: 1256902176
I0403 15:54:11.403095 14821 layer_factory.hpp:77] Creating layer inception_4e/output
I0403 15:54:11.403110 14821 net.cpp:91] Creating Layer inception_4e/output
I0403 15:54:11.403134 14821 net.cpp:425] inception_4e/output <- inception_4e/1x1
I0403 15:54:11.403154 14821 net.cpp:425] inception_4e/output <- inception_4e/3x3
I0403 15:54:11.403169 14821 net.cpp:425] inception_4e/output <- inception_4e/5x5
I0403 15:54:11.403184 14821 net.cpp:425] inception_4e/output <- inception_4e/pool_proj
I0403 15:54:11.403201 14821 net.cpp:399] inception_4e/output -> inception_4e/output
I0403 15:54:11.403251 14821 net.cpp:141] Setting up inception_4e/output
I0403 15:54:11.403273 14821 net.cpp:148] Top shape: 24 832 14 14 (3913728)
I0403 15:54:11.403287 14821 net.cpp:156] Memory required for data: 1272557088
I0403 15:54:11.403301 14821 layer_factory.hpp:77] Creating layer pool4/3x3_s2
I0403 15:54:11.403321 14821 net.cpp:91] Creating Layer pool4/3x3_s2
I0403 15:54:11.403337 14821 net.cpp:425] pool4/3x3_s2 <- inception_4e/output
I0403 15:54:11.403353 14821 net.cpp:399] pool4/3x3_s2 -> pool4/3x3_s2
I0403 15:54:11.403419 14821 net.cpp:141] Setting up pool4/3x3_s2
I0403 15:54:11.403442 14821 net.cpp:148] Top shape: 24 832 7 7 (978432)
I0403 15:54:11.403455 14821 net.cpp:156] Memory required for data: 1276470816
I0403 15:54:11.403470 14821 layer_factory.hpp:77] Creating layer pool4/3x3_s2_pool4/3x3_s2_0_split
I0403 15:54:11.403486 14821 net.cpp:91] Creating Layer pool4/3x3_s2_pool4/3x3_s2_0_split
I0403 15:54:11.403501 14821 net.cpp:425] pool4/3x3_s2_pool4/3x3_s2_0_split <- pool4/3x3_s2
I0403 15:54:11.403518 14821 net.cpp:399] pool4/3x3_s2_pool4/3x3_s2_0_split -> pool4/3x3_s2_pool4/3x3_s2_0_split_0
I0403 15:54:11.403538 14821 net.cpp:399] pool4/3x3_s2_pool4/3x3_s2_0_split -> pool4/3x3_s2_pool4/3x3_s2_0_split_1
I0403 15:54:11.403558 14821 net.cpp:399] pool4/3x3_s2_pool4/3x3_s2_0_split -> pool4/3x3_s2_pool4/3x3_s2_0_split_2
I0403 15:54:11.403575 14821 net.cpp:399] pool4/3x3_s2_pool4/3x3_s2_0_split -> pool4/3x3_s2_pool4/3x3_s2_0_split_3
I0403 15:54:11.403666 14821 net.cpp:141] Setting up pool4/3x3_s2_pool4/3x3_s2_0_split
I0403 15:54:11.403690 14821 net.cpp:148] Top shape: 24 832 7 7 (978432)
I0403 15:54:11.403707 14821 net.cpp:148] Top shape: 24 832 7 7 (978432)
I0403 15:54:11.403720 14821 net.cpp:148] Top shape: 24 832 7 7 (978432)
I0403 15:54:11.403734 14821 net.cpp:148] Top shape: 24 832 7 7 (978432)
I0403 15:54:11.403748 14821 net.cpp:156] Memory required for data: 1292125728
I0403 15:54:11.403760 14821 layer_factory.hpp:77] Creating layer inception_5a/1x1
I0403 15:54:11.403784 14821 net.cpp:91] Creating Layer inception_5a/1x1
I0403 15:54:11.403801 14821 net.cpp:425] inception_5a/1x1 <- pool4/3x3_s2_pool4/3x3_s2_0_split_0
I0403 15:54:11.403820 14821 net.cpp:399] inception_5a/1x1 -> inception_5a/1x1
I0403 15:54:11.406599 14821 net.cpp:141] Setting up inception_5a/1x1
I0403 15:54:11.406630 14821 net.cpp:148] Top shape: 24 256 7 7 (301056)
I0403 15:54:11.406644 14821 net.cpp:156] Memory required for data: 1293329952
I0403 15:54:11.406661 14821 layer_factory.hpp:77] Creating layer inception_5a/relu_1x1
I0403 15:54:11.406678 14821 net.cpp:91] Creating Layer inception_5a/relu_1x1
I0403 15:54:11.406693 14821 net.cpp:425] inception_5a/relu_1x1 <- inception_5a/1x1
I0403 15:54:11.406711 14821 net.cpp:386] inception_5a/relu_1x1 -> inception_5a/1x1 (in-place)
I0403 15:54:11.407016 14821 net.cpp:141] Setting up inception_5a/relu_1x1
I0403 15:54:11.407042 14821 net.cpp:148] Top shape: 24 256 7 7 (301056)
I0403 15:54:11.407058 14821 net.cpp:156] Memory required for data: 1294534176
I0403 15:54:11.407071 14821 layer_factory.hpp:77] Creating layer inception_5a/3x3_reduce
I0403 15:54:11.407093 14821 net.cpp:91] Creating Layer inception_5a/3x3_reduce
I0403 15:54:11.407109 14821 net.cpp:425] inception_5a/3x3_reduce <- pool4/3x3_s2_pool4/3x3_s2_0_split_1
I0403 15:54:11.407130 14821 net.cpp:399] inception_5a/3x3_reduce -> inception_5a/3x3_reduce
I0403 15:54:11.409535 14821 net.cpp:141] Setting up inception_5a/3x3_reduce
I0403 15:54:11.409564 14821 net.cpp:148] Top shape: 24 160 7 7 (188160)
I0403 15:54:11.409579 14821 net.cpp:156] Memory required for data: 1295286816
I0403 15:54:11.409595 14821 layer_factory.hpp:77] Creating layer inception_5a/relu_3x3_reduce
I0403 15:54:11.409615 14821 net.cpp:91] Creating Layer inception_5a/relu_3x3_reduce
I0403 15:54:11.409631 14821 net.cpp:425] inception_5a/relu_3x3_reduce <- inception_5a/3x3_reduce
I0403 15:54:11.409648 14821 net.cpp:386] inception_5a/relu_3x3_reduce -> inception_5a/3x3_reduce (in-place)
I0403 15:54:11.409832 14821 net.cpp:141] Setting up inception_5a/relu_3x3_reduce
I0403 15:54:11.409858 14821 net.cpp:148] Top shape: 24 160 7 7 (188160)
I0403 15:54:11.409873 14821 net.cpp:156] Memory required for data: 1296039456
I0403 15:54:11.409886 14821 layer_factory.hpp:77] Creating layer inception_5a/3x3
I0403 15:54:11.409909 14821 net.cpp:91] Creating Layer inception_5a/3x3
I0403 15:54:11.409925 14821 net.cpp:425] inception_5a/3x3 <- inception_5a/3x3_reduce
I0403 15:54:11.409943 14821 net.cpp:399] inception_5a/3x3 -> inception_5a/3x3
I0403 15:54:11.414873 14821 net.cpp:141] Setting up inception_5a/3x3
I0403 15:54:11.414908 14821 net.cpp:148] Top shape: 24 320 7 7 (376320)
I0403 15:54:11.414924 14821 net.cpp:156] Memory required for data: 1297544736
I0403 15:54:11.414942 14821 layer_factory.hpp:77] Creating layer inception_5a/relu_3x3
I0403 15:54:11.414959 14821 net.cpp:91] Creating Layer inception_5a/relu_3x3
I0403 15:54:11.414974 14821 net.cpp:425] inception_5a/relu_3x3 <- inception_5a/3x3
I0403 15:54:11.414990 14821 net.cpp:386] inception_5a/relu_3x3 -> inception_5a/3x3 (in-place)
I0403 15:54:11.415280 14821 net.cpp:141] Setting up inception_5a/relu_3x3
I0403 15:54:11.415308 14821 net.cpp:148] Top shape: 24 320 7 7 (376320)
I0403 15:54:11.415323 14821 net.cpp:156] Memory required for data: 1299050016
I0403 15:54:11.415338 14821 layer_factory.hpp:77] Creating layer inception_5a/5x5_reduce
I0403 15:54:11.415359 14821 net.cpp:91] Creating Layer inception_5a/5x5_reduce
I0403 15:54:11.415375 14821 net.cpp:425] inception_5a/5x5_reduce <- pool4/3x3_s2_pool4/3x3_s2_0_split_2
I0403 15:54:11.415393 14821 net.cpp:399] inception_5a/5x5_reduce -> inception_5a/5x5_reduce
I0403 15:54:11.416539 14821 net.cpp:141] Setting up inception_5a/5x5_reduce
I0403 15:54:11.416569 14821 net.cpp:148] Top shape: 24 32 7 7 (37632)
I0403 15:54:11.416585 14821 net.cpp:156] Memory required for data: 1299200544
I0403 15:54:11.416604 14821 layer_factory.hpp:77] Creating layer inception_5a/relu_5x5_reduce
I0403 15:54:11.416620 14821 net.cpp:91] Creating Layer inception_5a/relu_5x5_reduce
I0403 15:54:11.416635 14821 net.cpp:425] inception_5a/relu_5x5_reduce <- inception_5a/5x5_reduce
I0403 15:54:11.416656 14821 net.cpp:386] inception_5a/relu_5x5_reduce -> inception_5a/5x5_reduce (in-place)
I0403 15:54:11.416949 14821 net.cpp:141] Setting up inception_5a/relu_5x5_reduce
I0403 15:54:11.416975 14821 net.cpp:148] Top shape: 24 32 7 7 (37632)
I0403 15:54:11.416988 14821 net.cpp:156] Memory required for data: 1299351072
I0403 15:54:11.417002 14821 layer_factory.hpp:77] Creating layer inception_5a/5x5
I0403 15:54:11.417024 14821 net.cpp:91] Creating Layer inception_5a/5x5
I0403 15:54:11.417040 14821 net.cpp:425] inception_5a/5x5 <- inception_5a/5x5_reduce
I0403 15:54:11.417060 14821 net.cpp:399] inception_5a/5x5 -> inception_5a/5x5
I0403 15:54:11.418743 14821 net.cpp:141] Setting up inception_5a/5x5
I0403 15:54:11.418783 14821 net.cpp:148] Top shape: 24 128 7 7 (150528)
I0403 15:54:11.418800 14821 net.cpp:156] Memory required for data: 1299953184
I0403 15:54:11.418817 14821 layer_factory.hpp:77] Creating layer inception_5a/relu_5x5
I0403 15:54:11.418834 14821 net.cpp:91] Creating Layer inception_5a/relu_5x5
I0403 15:54:11.418850 14821 net.cpp:425] inception_5a/relu_5x5 <- inception_5a/5x5
I0403 15:54:11.418866 14821 net.cpp:386] inception_5a/relu_5x5 -> inception_5a/5x5 (in-place)
I0403 15:54:11.419059 14821 net.cpp:141] Setting up inception_5a/relu_5x5
I0403 15:54:11.419085 14821 net.cpp:148] Top shape: 24 128 7 7 (150528)
I0403 15:54:11.419098 14821 net.cpp:156] Memory required for data: 1300555296
I0403 15:54:11.419112 14821 layer_factory.hpp:77] Creating layer inception_5a/pool
I0403 15:54:11.419132 14821 net.cpp:91] Creating Layer inception_5a/pool
I0403 15:54:11.419149 14821 net.cpp:425] inception_5a/pool <- pool4/3x3_s2_pool4/3x3_s2_0_split_3
I0403 15:54:11.419169 14821 net.cpp:399] inception_5a/pool -> inception_5a/pool
I0403 15:54:11.419237 14821 net.cpp:141] Setting up inception_5a/pool
I0403 15:54:11.419262 14821 net.cpp:148] Top shape: 24 832 7 7 (978432)
I0403 15:54:11.419276 14821 net.cpp:156] Memory required for data: 1304469024
I0403 15:54:11.419291 14821 layer_factory.hpp:77] Creating layer inception_5a/pool_proj
I0403 15:54:11.419312 14821 net.cpp:91] Creating Layer inception_5a/pool_proj
I0403 15:54:11.419328 14821 net.cpp:425] inception_5a/pool_proj <- inception_5a/pool
I0403 15:54:11.419347 14821 net.cpp:399] inception_5a/pool_proj -> inception_5a/pool_proj
I0403 15:54:11.421581 14821 net.cpp:141] Setting up inception_5a/pool_proj
I0403 15:54:11.421610 14821 net.cpp:148] Top shape: 24 128 7 7 (150528)
I0403 15:54:11.421625 14821 net.cpp:156] Memory required for data: 1305071136
I0403 15:54:11.421643 14821 layer_factory.hpp:77] Creating layer inception_5a/relu_pool_proj
I0403 15:54:11.421663 14821 net.cpp:91] Creating Layer inception_5a/relu_pool_proj
I0403 15:54:11.421679 14821 net.cpp:425] inception_5a/relu_pool_proj <- inception_5a/pool_proj
I0403 15:54:11.421695 14821 net.cpp:386] inception_5a/relu_pool_proj -> inception_5a/pool_proj (in-place)
I0403 15:54:11.421988 14821 net.cpp:141] Setting up inception_5a/relu_pool_proj
I0403 15:54:11.422013 14821 net.cpp:148] Top shape: 24 128 7 7 (150528)
I0403 15:54:11.422027 14821 net.cpp:156] Memory required for data: 1305673248
I0403 15:54:11.422041 14821 layer_factory.hpp:77] Creating layer inception_5a/output
I0403 15:54:11.422060 14821 net.cpp:91] Creating Layer inception_5a/output
I0403 15:54:11.422075 14821 net.cpp:425] inception_5a/output <- inception_5a/1x1
I0403 15:54:11.422091 14821 net.cpp:425] inception_5a/output <- inception_5a/3x3
I0403 15:54:11.422107 14821 net.cpp:425] inception_5a/output <- inception_5a/5x5
I0403 15:54:11.422122 14821 net.cpp:425] inception_5a/output <- inception_5a/pool_proj
I0403 15:54:11.422143 14821 net.cpp:399] inception_5a/output -> inception_5a/output
I0403 15:54:11.422194 14821 net.cpp:141] Setting up inception_5a/output
I0403 15:54:11.422217 14821 net.cpp:148] Top shape: 24 832 7 7 (978432)
I0403 15:54:11.422230 14821 net.cpp:156] Memory required for data: 1309586976
I0403 15:54:11.422245 14821 layer_factory.hpp:77] Creating layer inception_5a/output_inception_5a/output_0_split
I0403 15:54:11.422261 14821 net.cpp:91] Creating Layer inception_5a/output_inception_5a/output_0_split
I0403 15:54:11.422276 14821 net.cpp:425] inception_5a/output_inception_5a/output_0_split <- inception_5a/output
I0403 15:54:11.422294 14821 net.cpp:399] inception_5a/output_inception_5a/output_0_split -> inception_5a/output_inception_5a/output_0_split_0
I0403 15:54:11.422314 14821 net.cpp:399] inception_5a/output_inception_5a/output_0_split -> inception_5a/output_inception_5a/output_0_split_1
I0403 15:54:11.422333 14821 net.cpp:399] inception_5a/output_inception_5a/output_0_split -> inception_5a/output_inception_5a/output_0_split_2
I0403 15:54:11.422353 14821 net.cpp:399] inception_5a/output_inception_5a/output_0_split -> inception_5a/output_inception_5a/output_0_split_3
I0403 15:54:11.422466 14821 net.cpp:141] Setting up inception_5a/output_inception_5a/output_0_split
I0403 15:54:11.422489 14821 net.cpp:148] Top shape: 24 832 7 7 (978432)
I0403 15:54:11.422504 14821 net.cpp:148] Top shape: 24 832 7 7 (978432)
I0403 15:54:11.422519 14821 net.cpp:148] Top shape: 24 832 7 7 (978432)
I0403 15:54:11.422533 14821 net.cpp:148] Top shape: 24 832 7 7 (978432)
I0403 15:54:11.422546 14821 net.cpp:156] Memory required for data: 1325241888
I0403 15:54:11.422560 14821 layer_factory.hpp:77] Creating layer inception_5b/1x1
I0403 15:54:11.422581 14821 net.cpp:91] Creating Layer inception_5b/1x1
I0403 15:54:11.422598 14821 net.cpp:425] inception_5b/1x1 <- inception_5a/output_inception_5a/output_0_split_0
I0403 15:54:11.422618 14821 net.cpp:399] inception_5b/1x1 -> inception_5b/1x1
I0403 15:54:11.426287 14821 net.cpp:141] Setting up inception_5b/1x1
I0403 15:54:11.426316 14821 net.cpp:148] Top shape: 24 384 7 7 (451584)
I0403 15:54:11.426331 14821 net.cpp:156] Memory required for data: 1327048224
I0403 15:54:11.426349 14821 layer_factory.hpp:77] Creating layer inception_5b/relu_1x1
I0403 15:54:11.426369 14821 net.cpp:91] Creating Layer inception_5b/relu_1x1
I0403 15:54:11.426386 14821 net.cpp:425] inception_5b/relu_1x1 <- inception_5b/1x1
I0403 15:54:11.426403 14821 net.cpp:386] inception_5b/relu_1x1 -> inception_5b/1x1 (in-place)
I0403 15:54:11.426699 14821 net.cpp:141] Setting up inception_5b/relu_1x1
I0403 15:54:11.426724 14821 net.cpp:148] Top shape: 24 384 7 7 (451584)
I0403 15:54:11.426738 14821 net.cpp:156] Memory required for data: 1328854560
I0403 15:54:11.426753 14821 layer_factory.hpp:77] Creating layer inception_5b/3x3_reduce
I0403 15:54:11.426774 14821 net.cpp:91] Creating Layer inception_5b/3x3_reduce
I0403 15:54:11.426791 14821 net.cpp:425] inception_5b/3x3_reduce <- inception_5a/output_inception_5a/output_0_split_1
I0403 15:54:11.426811 14821 net.cpp:399] inception_5b/3x3_reduce -> inception_5b/3x3_reduce
I0403 15:54:11.429410 14821 net.cpp:141] Setting up inception_5b/3x3_reduce
I0403 15:54:11.429438 14821 net.cpp:148] Top shape: 24 192 7 7 (225792)
I0403 15:54:11.429453 14821 net.cpp:156] Memory required for data: 1329757728
I0403 15:54:11.429471 14821 layer_factory.hpp:77] Creating layer inception_5b/relu_3x3_reduce
I0403 15:54:11.429491 14821 net.cpp:91] Creating Layer inception_5b/relu_3x3_reduce
I0403 15:54:11.429507 14821 net.cpp:425] inception_5b/relu_3x3_reduce <- inception_5b/3x3_reduce
I0403 15:54:11.429522 14821 net.cpp:386] inception_5b/relu_3x3_reduce -> inception_5b/3x3_reduce (in-place)
I0403 15:54:11.429708 14821 net.cpp:141] Setting up inception_5b/relu_3x3_reduce
I0403 15:54:11.429733 14821 net.cpp:148] Top shape: 24 192 7 7 (225792)
I0403 15:54:11.429747 14821 net.cpp:156] Memory required for data: 1330660896
I0403 15:54:11.429760 14821 layer_factory.hpp:77] Creating layer inception_5b/3x3
I0403 15:54:11.429782 14821 net.cpp:91] Creating Layer inception_5b/3x3
I0403 15:54:11.429800 14821 net.cpp:425] inception_5b/3x3 <- inception_5b/3x3_reduce
I0403 15:54:11.429821 14821 net.cpp:399] inception_5b/3x3 -> inception_5b/3x3
I0403 15:54:11.436393 14821 net.cpp:141] Setting up inception_5b/3x3
I0403 15:54:11.436421 14821 net.cpp:148] Top shape: 24 384 7 7 (451584)
I0403 15:54:11.436436 14821 net.cpp:156] Memory required for data: 1332467232
I0403 15:54:11.436453 14821 layer_factory.hpp:77] Creating layer inception_5b/relu_3x3
I0403 15:54:11.436472 14821 net.cpp:91] Creating Layer inception_5b/relu_3x3
I0403 15:54:11.436488 14821 net.cpp:425] inception_5b/relu_3x3 <- inception_5b/3x3
I0403 15:54:11.436506 14821 net.cpp:386] inception_5b/relu_3x3 -> inception_5b/3x3 (in-place)
I0403 15:54:11.436802 14821 net.cpp:141] Setting up inception_5b/relu_3x3
I0403 15:54:11.436827 14821 net.cpp:148] Top shape: 24 384 7 7 (451584)
I0403 15:54:11.436841 14821 net.cpp:156] Memory required for data: 1334273568
I0403 15:54:11.436854 14821 layer_factory.hpp:77] Creating layer inception_5b/5x5_reduce
I0403 15:54:11.436893 14821 net.cpp:91] Creating Layer inception_5b/5x5_reduce
I0403 15:54:11.436911 14821 net.cpp:425] inception_5b/5x5_reduce <- inception_5a/output_inception_5a/output_0_split_2
I0403 15:54:11.436929 14821 net.cpp:399] inception_5b/5x5_reduce -> inception_5b/5x5_reduce
I0403 15:54:11.438189 14821 net.cpp:141] Setting up inception_5b/5x5_reduce
I0403 15:54:11.438220 14821 net.cpp:148] Top shape: 24 48 7 7 (56448)
I0403 15:54:11.438235 14821 net.cpp:156] Memory required for data: 1334499360
I0403 15:54:11.438252 14821 layer_factory.hpp:77] Creating layer inception_5b/relu_5x5_reduce
I0403 15:54:11.438269 14821 net.cpp:91] Creating Layer inception_5b/relu_5x5_reduce
I0403 15:54:11.438284 14821 net.cpp:425] inception_5b/relu_5x5_reduce <- inception_5b/5x5_reduce
I0403 15:54:11.438299 14821 net.cpp:386] inception_5b/relu_5x5_reduce -> inception_5b/5x5_reduce (in-place)
I0403 15:54:11.438670 14821 net.cpp:141] Setting up inception_5b/relu_5x5_reduce
I0403 15:54:11.438696 14821 net.cpp:148] Top shape: 24 48 7 7 (56448)
I0403 15:54:11.438710 14821 net.cpp:156] Memory required for data: 1334725152
I0403 15:54:11.438724 14821 layer_factory.hpp:77] Creating layer inception_5b/5x5
I0403 15:54:11.438745 14821 net.cpp:91] Creating Layer inception_5b/5x5
I0403 15:54:11.438760 14821 net.cpp:425] inception_5b/5x5 <- inception_5b/5x5_reduce
I0403 15:54:11.438777 14821 net.cpp:399] inception_5b/5x5 -> inception_5b/5x5
I0403 15:54:11.440785 14821 net.cpp:141] Setting up inception_5b/5x5
I0403 15:54:11.440814 14821 net.cpp:148] Top shape: 24 128 7 7 (150528)
I0403 15:54:11.440830 14821 net.cpp:156] Memory required for data: 1335327264
I0403 15:54:11.440847 14821 layer_factory.hpp:77] Creating layer inception_5b/relu_5x5
I0403 15:54:11.440863 14821 net.cpp:91] Creating Layer inception_5b/relu_5x5
I0403 15:54:11.440879 14821 net.cpp:425] inception_5b/relu_5x5 <- inception_5b/5x5
I0403 15:54:11.440901 14821 net.cpp:386] inception_5b/relu_5x5 -> inception_5b/5x5 (in-place)
I0403 15:54:11.441090 14821 net.cpp:141] Setting up inception_5b/relu_5x5
I0403 15:54:11.441114 14821 net.cpp:148] Top shape: 24 128 7 7 (150528)
I0403 15:54:11.441133 14821 net.cpp:156] Memory required for data: 1335929376
I0403 15:54:11.441148 14821 layer_factory.hpp:77] Creating layer inception_5b/pool
I0403 15:54:11.441164 14821 net.cpp:91] Creating Layer inception_5b/pool
I0403 15:54:11.441179 14821 net.cpp:425] inception_5b/pool <- inception_5a/output_inception_5a/output_0_split_3
I0403 15:54:11.441200 14821 net.cpp:399] inception_5b/pool -> inception_5b/pool
I0403 15:54:11.441272 14821 net.cpp:141] Setting up inception_5b/pool
I0403 15:54:11.441294 14821 net.cpp:148] Top shape: 24 832 7 7 (978432)
I0403 15:54:11.441308 14821 net.cpp:156] Memory required for data: 1339843104
I0403 15:54:11.441321 14821 layer_factory.hpp:77] Creating layer inception_5b/pool_proj
I0403 15:54:11.441344 14821 net.cpp:91] Creating Layer inception_5b/pool_proj
I0403 15:54:11.441361 14821 net.cpp:425] inception_5b/pool_proj <- inception_5b/pool
I0403 15:54:11.441380 14821 net.cpp:399] inception_5b/pool_proj -> inception_5b/pool_proj
I0403 15:54:11.443639 14821 net.cpp:141] Setting up inception_5b/pool_proj
I0403 15:54:11.443670 14821 net.cpp:148] Top shape: 24 128 7 7 (150528)
I0403 15:54:11.443686 14821 net.cpp:156] Memory required for data: 1340445216
I0403 15:54:11.443703 14821 layer_factory.hpp:77] Creating layer inception_5b/relu_pool_proj
I0403 15:54:11.443720 14821 net.cpp:91] Creating Layer inception_5b/relu_pool_proj
I0403 15:54:11.443737 14821 net.cpp:425] inception_5b/relu_pool_proj <- inception_5b/pool_proj
I0403 15:54:11.443753 14821 net.cpp:386] inception_5b/relu_pool_proj -> inception_5b/pool_proj (in-place)
I0403 15:54:11.444043 14821 net.cpp:141] Setting up inception_5b/relu_pool_proj
I0403 15:54:11.444073 14821 net.cpp:148] Top shape: 24 128 7 7 (150528)
I0403 15:54:11.444089 14821 net.cpp:156] Memory required for data: 1341047328
I0403 15:54:11.444103 14821 layer_factory.hpp:77] Creating layer inception_5b/output
I0403 15:54:11.444119 14821 net.cpp:91] Creating Layer inception_5b/output
I0403 15:54:11.444152 14821 net.cpp:425] inception_5b/output <- inception_5b/1x1
I0403 15:54:11.444169 14821 net.cpp:425] inception_5b/output <- inception_5b/3x3
I0403 15:54:11.444185 14821 net.cpp:425] inception_5b/output <- inception_5b/5x5
I0403 15:54:11.444200 14821 net.cpp:425] inception_5b/output <- inception_5b/pool_proj
I0403 15:54:11.444216 14821 net.cpp:399] inception_5b/output -> inception_5b/output
I0403 15:54:11.444267 14821 net.cpp:141] Setting up inception_5b/output
I0403 15:54:11.444291 14821 net.cpp:148] Top shape: 24 1024 7 7 (1204224)
I0403 15:54:11.444304 14821 net.cpp:156] Memory required for data: 1345864224
I0403 15:54:11.444319 14821 layer_factory.hpp:77] Creating layer pool5/7x7_s1
I0403 15:54:11.444337 14821 net.cpp:91] Creating Layer pool5/7x7_s1
I0403 15:54:11.444355 14821 net.cpp:425] pool5/7x7_s1 <- inception_5b/output
I0403 15:54:11.444370 14821 net.cpp:399] pool5/7x7_s1 -> pool5/7x7_s1
I0403 15:54:11.444581 14821 net.cpp:141] Setting up pool5/7x7_s1
I0403 15:54:11.444607 14821 net.cpp:148] Top shape: 24 1024 1 1 (24576)
I0403 15:54:11.444622 14821 net.cpp:156] Memory required for data: 1345962528
I0403 15:54:11.444635 14821 layer_factory.hpp:77] Creating layer pool5/drop_7x7_s1
I0403 15:54:11.444653 14821 net.cpp:91] Creating Layer pool5/drop_7x7_s1
I0403 15:54:11.444667 14821 net.cpp:425] pool5/drop_7x7_s1 <- pool5/7x7_s1
I0403 15:54:11.444684 14821 net.cpp:386] pool5/drop_7x7_s1 -> pool5/7x7_s1 (in-place)
I0403 15:54:11.444732 14821 net.cpp:141] Setting up pool5/drop_7x7_s1
I0403 15:54:11.444756 14821 net.cpp:148] Top shape: 24 1024 1 1 (24576)
I0403 15:54:11.444768 14821 net.cpp:156] Memory required for data: 1346060832
I0403 15:54:11.444782 14821 layer_factory.hpp:77] Creating layer loss3/classifier_plantvillage
I0403 15:54:11.444802 14821 net.cpp:91] Creating Layer loss3/classifier_plantvillage
I0403 15:54:11.444818 14821 net.cpp:425] loss3/classifier_plantvillage <- pool5/7x7_s1
I0403 15:54:11.444835 14821 net.cpp:399] loss3/classifier_plantvillage -> loss3/classifier_plantvillage
I0403 15:54:11.445255 14821 net.cpp:141] Setting up loss3/classifier_plantvillage
I0403 15:54:11.445278 14821 net.cpp:148] Top shape: 24 38 (912)
I0403 15:54:11.445291 14821 net.cpp:156] Memory required for data: 1346064480
I0403 15:54:11.445308 14821 layer_factory.hpp:77] Creating layer loss3/classifier_plantvillage_loss3/classifier_plantvillage_0_split
I0403 15:54:11.445327 14821 net.cpp:91] Creating Layer loss3/classifier_plantvillage_loss3/classifier_plantvillage_0_split
I0403 15:54:11.445341 14821 net.cpp:425] loss3/classifier_plantvillage_loss3/classifier_plantvillage_0_split <- loss3/classifier_plantvillage
I0403 15:54:11.445361 14821 net.cpp:399] loss3/classifier_plantvillage_loss3/classifier_plantvillage_0_split -> loss3/classifier_plantvillage_loss3/classifier_plantvillage_0_split_0
I0403 15:54:11.445381 14821 net.cpp:399] loss3/classifier_plantvillage_loss3/classifier_plantvillage_0_split -> loss3/classifier_plantvillage_loss3/classifier_plantvillage_0_split_1
I0403 15:54:11.445400 14821 net.cpp:399] loss3/classifier_plantvillage_loss3/classifier_plantvillage_0_split -> loss3/classifier_plantvillage_loss3/classifier_plantvillage_0_split_2
I0403 15:54:11.445418 14821 net.cpp:399] loss3/classifier_plantvillage_loss3/classifier_plantvillage_0_split -> loss3/classifier_plantvillage_loss3/classifier_plantvillage_0_split_3
I0403 15:54:11.445520 14821 net.cpp:141] Setting up loss3/classifier_plantvillage_loss3/classifier_plantvillage_0_split
I0403 15:54:11.445544 14821 net.cpp:148] Top shape: 24 38 (912)
I0403 15:54:11.445559 14821 net.cpp:148] Top shape: 24 38 (912)
I0403 15:54:11.445572 14821 net.cpp:148] Top shape: 24 38 (912)
I0403 15:54:11.445586 14821 net.cpp:148] Top shape: 24 38 (912)
I0403 15:54:11.445600 14821 net.cpp:156] Memory required for data: 1346079072
I0403 15:54:11.445613 14821 layer_factory.hpp:77] Creating layer loss1/loss
I0403 15:54:11.445633 14821 net.cpp:91] Creating Layer loss1/loss
I0403 15:54:11.445650 14821 net.cpp:425] loss1/loss <- loss1/classifier_plantvillage_loss1/classifier_plantvillage_0_split_0
I0403 15:54:11.445679 14821 net.cpp:425] loss1/loss <- label_data_1_split_0
…
