…
I0403 15:47:03.159313 14402 net.cpp:313] The NetState phase (1) differed from the phase (0) specified by a rule in layer data
I0403 15:47:03.160513 14402 net.cpp:49] Initializing net from parameters: 
state {
  phase: TEST
}
layer {
  name: "data"
  type: "Data"
  top: "data"
  top: "label"
  include {
    phase: TEST
  }
  transform_param {
    mirror: false
    crop_size: 224
    mean_file: "/home/mohanty/data/final_dataset/lmdb/color-80-20/mean.binaryproto"
  }
  data_param {
    source: "/home/mohanty/data/final_dataset/lmdb/color-80-20/test_db"
    batch_size: 24
    backend: LMDB
  }
}
layer {
  name: "conv1/7x7_s2"
  type: "Convolution"
  bottom: "data"
  top: "conv1/7x7_s2"
  param {
    lr_mult: 1
    decay_mult: 1
  }
  param {
    lr_mult: 2
    decay_mult: 0
  }
  convolution_param {
    num_output: 64
    pad: 3
    kernel_size: 7
    stride: 2
    weight_filler {
      type: "xavier"
      std: 0.1
    }
    bias_filler {
      type: "constant"
      value: 0.2
    }
  }
}
layer {
  name: "conv1/relu_7x7"
  type: "ReLU"
  bottom: "conv1/7x7_s2"
  top: "conv1/7x7_s2"
}
layer {
  name: "pool1/3x3_s2"
  type: "Pooling"
  bottom: "conv1/7x7_s2"
  top: "pool1/3x3_s2"
  pooling_param {
    pool: MAX
    kernel_size: 3
    stride: 2
  }
}
layer {
  name: "pool1/norm1"
  type: "LRN"
  bottom: "pool1/3x3_s2"
  top: "pool1/norm1"
  lrn_param {
    local_size: 5
    alpha: 0.0001
    beta: 0.75
  }
}
layer {
  name: "conv2/3x3_reduce"
  type: "Convolution"
  bottom: "pool1/norm1"
  top: "conv2/3x3_reduce"
  param {
    lr_mult: 1
    decay_mult: 1
  }
  param {
    lr_mult: 2
    decay_mult: 0
  }
  convolution_param {
    num_output: 64
    kernel_size: 1
    weight_filler {
      type: "xavier"
      std: 0.1
    }
    bias_filler {
      type: "constant"
      value: 0.2
    }
  }
}
layer {
  name: "conv2/relu_3x3_reduce"
  type: "ReLU"
  bottom: "conv2/3x3_reduce"
  top: "conv2/3x3_reduce"
}
layer {
  name: "conv2/3x3"
  type: "Convolution"
  bottom: "conv2/3x3_reduce"
  top: "conv2/3x3"
  param {
    lr_mult: 1
    decay_mult: 1
  }
  param {
    lr_mult: 2
    decay_mult: 0
  }
  convolution_param {
    num_output: 192
    pad: 1
    kernel_size: 3
    weight_filler {
      type: "xavier"
      std: 0.03
    }
    bias_filler {
      type: "constant"
      value: 0.2
    }
  }
}
layer {
  name: "conv2/relu_3x3"
  type: "ReLU"
  bottom: "conv2/3x3"
  top: "conv2/3x3"
}
layer {
  name: "conv2/norm2"
  type: "LRN"
  bottom: "conv2/3x3"
  top: "conv2/norm2"
  lrn_param {
    local_size: 5
    alpha: 0.0001
    beta: 0.75
  }
}
layer {
  name: "pool2/3x3_s2"
  type: "Pooling"
  bottom: "conv2/norm2"
  top: "pool2/3x3_s2"
  pooling_param {
    pool: MAX
    kernel_size: 3
    stride: 2
  }
}
layer {
  name: "inception_3a/1x1"
  type: "Convolution"
  bottom: "pool2/3x3_s2"
  top: "inception_3a/1x1"
  param {
    lr_mult: 1
    decay_mult: 1
  }
  param {
    lr_mult: 2
    decay_mult: 0
  }
  convolution_param {
    num_output: 64
    kernel_size: 1
    weight_filler {
      type: "xavier"
      std: 0.03
    }
    bias_filler {
      type: "constant"
      value: 0.2
    }
  }
}
layer {
  name: "inception_3a/relu_1x1"
  type: "ReLU"
  bottom: "inception_3a/1x1"
  top: "inception_3a/1x1"
}
layer {
  name: "inception_3a/3x3_reduce"
  type: "Convolution"
  bottom: "pool2/3x3_s2"
  top: "inception_3a/3x3_reduce"
  param {
    lr_mult: 1
    decay_mult: 1
  }
  param {
    lr_mult: 2
    decay_mult: 0
  }
  convolution_param {
    num_output: 96
    kernel_size: 1
    weight_filler {
      type: "xavier"
      std: 0.09
    }
    bias_filler {
      type: "constant"
      value: 0.2
    }
  }
}
layer {
  name: "inception_3a/relu_3x3_reduce"
  type: "ReLU"
  bottom: "inception_3a/3x3_reduce"
  top: "inception_3a/3x3_reduce"
}
layer {
  name: "inception_3a/3x3"
  type: "Convolution"
  bottom: "inception_3a/3x3_reduce"
  top: "inception_3a/3x3"
  param {
    lr_mult: 1
    decay_mult: 1
  }
  param {
    lr_mult: 2
    decay_mult: 0
  }
  convolution_param {
    num_output: 128
    pad: 1
    kernel_size: 3
    weight_filler {
      type: "xavier"
      std: 0.03
    }
    bias_filler {
      type: "constant"
      value: 0.2
    }
  }
}
layer {
  name: "inception_3a/relu_3x3"
  type: "ReLU"
  bottom: "inception_3a/3x3"
  top: "inception_3a/3x3"
}
layer {
  name: "inception_3a/5x5_reduce"
  type: "Convolution"
  bottom: "pool2/3x3_s2"
  top: "inception_3a/5x5_reduce"
  param {
    lr_mult: 1
    decay_mult: 1
  }
  param {
    lr_mult: 2
    decay_mult: 0
  }
  convolution_param {
    num_output: 16
    kernel_size: 1
    weight_filler {
      type: "xavier"
      std: 0.2
    }
    bias_filler {
      type: "constant"
      value: 0.2
    }
  }
}
layer {
  name: "inception_3a/relu_5x5_reduce"
  type: "ReLU"
  bottom: "inception_3a/5x5_reduce"
  top: "inception_3a/5x5_reduce"
}
layer {
  name: "inception_3a/5x5"
  type: "Convolution"
  bottom: "inception_3a/5x5_reduce"
  top: "inception_3a/5x5"
  param {
    lr_mult: 1
    decay_mult: 1
  }
  param {
    lr_mult: 2
    decay_mult: 0
  }
  convolution_param {
    num_output: 32
    pad: 2
    kernel_size: 5
    weight_filler {
      type: "xavier"
      std: 0.03
    }
    bias_filler {
      type: "constant"
      value: 0.2
    }
  }
}
layer {
  name: "inception_3a/relu_5x5"
  type: "ReLU"
  bottom: "inception_3a/5x5"
  top: "inception_3a/5x5"
}
layer {
  name: "inception_3a/pool"
  type: "Pooling"
  bottom: "pool2/3x3_s2"
  top: "inception_3a/pool"
  pooling_param {
    pool: MAX
    kernel_size: 3
    stride: 1
    pad: 1
  }
}
layer {
  name: "inception_3a/pool_proj"
  type: "Convolution"
  bottom: "inception_3a/pool"
  top: "inception_3a/pool_proj"
  param {
    lr_mult: 1
    decay_mult: 1
  }
  param {
    lr_mult: 2
    decay_mult: 0
  }
  convolution_param {
    num_output: 32
    kernel_size: 1
    weight_filler {
      type: "xavier"
      std: 0.1
    }
    bias_filler {
      type: "constant"
      value: 0.2
    }
  }
}
layer {
  name: "inception_3a/relu_pool_proj"
  type: "ReLU"
  bottom: "inception_3a/pool_proj"
  top: "inception_3a/pool_proj"
}
layer {
  name: "inception_3a/output"
  type: "Concat"
  bottom: "inception_3a/1x1"
  bottom: "inception_3a/3x3"
  bottom: "inception_3a/5x5"
  bottom: "inception_3a/pool_proj"
  top: "inception_3a/output"
}
layer {
  name: "inception_3b/1x1"
  type: "Convolution"
  bottom: "inception_3a/output"
  top: "inception_3b/1x1"
  param {
    lr_mult: 1
    decay_mult: 1
  }
  param {
    lr_mult: 2
    decay_mult: 0
  }
  convolution_param {
    num_output: 128
    kernel_size: 1
    weight_filler {
      type: "xavier"
      std: 0.03
    }
    bias_filler {
      type: "constant"
      value: 0.2
    }
  }
}
layer {
  name: "inception_3b/relu_1x1"
  type: "ReLU"
  bottom: "inception_3b/1x1"
  top: "inception_3b/1x1"
}
layer {
  name: "inception_3b/3x3_reduce"
  type: "Convolution"
  bottom: "inception_3a/output"
  top: "inception_3b/3x3_reduce"
  param {
    lr_mult: 1
    decay_mult: 1
  }
  param {
    lr_mult: 2
    decay_mult: 0
  }
  convolution_param {
    num_output: 128
    kernel_size: 1
    weight_filler {
      type: "xavier"
      std: 0.09
    }
    bias_filler {
      type: "constant"
      value: 0.2
    }
  }
}
layer {
  name: "inception_3b/relu_3x3_reduce"
  type: "ReLU"
  bottom: "inception_3b/3x3_reduce"
  top: "inception_3b/3x3_reduce"
}
layer {
  name: "inception_3b/3x3"
  type: "Convolution"
  bottom: "inception_3b/3x3_reduce"
  top: "inception_3b/3x3"
  param {
    lr_mult: 1
    decay_mult: 1
  }
  param {
    lr_mult: 2
    decay_mult: 0
  }
  convolution_param {
    num_output: 192
    pad: 1
    kernel_size: 3
    weight_filler {
      type: "xavier"
      std: 0.03
    }
    bias_filler {
      type: "constant"
      value: 0.2
    }
  }
}
layer {
  name: "inception_3b/relu_3x3"
  type: "ReLU"
  bottom: "inception_3b/3x3"
  top: "inception_3b/3x3"
}
layer {
  name: "inception_3b/5x5_reduce"
  type: "Convolution"
  bottom: "inception_3a/output"
  top: "inception_3b/5x5_reduce"
  param {
    lr_mult: 1
    decay_mult: 1
  }
  param {
    lr_mult: 2
    decay_mult: 0
  }
  convolution_param {
    num_output: 32
    kernel_size: 1
    weight_filler {
      type: "xavier"
      std: 0.2
    }
    bias_filler {
      type: "constant"
      value: 0.2
    }
  }
}
layer {
  name: "inception_3b/relu_5x5_reduce"
  type: "ReLU"
  bottom: "inception_3b/5x5_reduce"
  top: "inception_3b/5x5_reduce"
}
layer {
  name: "inception_3b/5x5"
  type: "Convolution"
  bottom: "inception_3b/5x5_reduce"
  top: "inception_3b/5x5"
  param {
    lr_mult: 1
    decay_mult: 1
  }
  param {
    lr_mult: 2
    decay_mult: 0
  }
  convolution_param {
    num_output: 96
    pad: 2
    kernel_size: 5
    weight_filler {
      type: "xavier"
      std: 0.03
    }
    bias_filler {
      type: "constant"
      value: 0.2
    }
  }
}
layer {
  name: "inception_3b/relu_5x5"
  type: "ReLU"
  bottom: "inception_3b/5x5"
  top: "inception_3b/5x5"
}
layer {
  name: "inception_3b/pool"
  type: "Pooling"
  bottom: "inception_3a/output"
  top: "inception_3b/pool"
  pooling_param {
    pool: MAX
    kernel_size: 3
    stride: 1
    pad: 1
  }
}
layer {
  name: "inception_3b/pool_proj"
  type: "Convolution"
  bottom: "inception_3b/pool"
  top: "inception_3b/pool_proj"
  param {
    lr_mult: 1
    decay_mult: 1
  }
  param {
    lr_mult: 2
    decay_mult: 0
  }
  convolution_param {
    num_output: 64
    kernel_size: 1
    weight_filler {
      type: "xavier"
      std: 0.1
    }
    bias_filler {
      type: "constant"
      value: 0.2
    }
  }
}
layer {
  name: "inception_3b/relu_pool_proj"
  type: "ReLU"
  bottom: "inception_3b/pool_proj"
  top: "inception_3b/pool_proj"
}
layer {
  name: "inception_3b/output"
  type: "Concat"
  bottom: "inception_3b/1x1"
  bottom: "inception_3b/3x3"
  bottom: "inception_3b/5x5"
  bottom: "inception_3b/pool_proj"
  top: "inception_3b/output"
}
layer {
  name: "pool3/3x3_s2"
  type: "Pooling"
  bottom: "inception_3b/output"
  top: "pool3/3x3_s2"
  pooling_param {
    pool: MAX
    kernel_size: 3
    stride: 2
  }
}
layer {
  name: "inception_4a/1x1"
  type: "Convolution"
  bottom: "pool3/3x3_s2"
  top: "inception_4a/1x1"
  param {
    lr_mult: 1
    decay_mult: 1
  }
  param {
    lr_mult: 2
    decay_mult: 0
  }
  convolution_param {
    num_output: 192
    kernel_size: 1
    weight_filler {
      type: "xavier"
      std: 0.03
    }
    bias_filler {
      type: "constant"
      value: 0.2
    }
  }
}
layer {
  name: "inception_4a/relu_1x1"
  type: "ReLU"
  bottom: "inception_4a/1x1"
  top: "inception_4a/1x1"
}
layer {
  name: "inception_4a/3x3_reduce"
  type: "Convolution"
  bottom: "pool3/3x3_s2"
  top: "inception_4a/3x3_reduce"
  param {
    lr_mult: 1
    decay_mult: 1
  }
  param {
    lr_mult: 2
    decay_mult: 0
  }
  convolution_param {
    num_output: 96
    kernel_size: 1
    weight_filler {
      type: "xavier"
      std: 0.09
    }
    bias_filler {
      type: "constant"
      value: 0.2
    }
  }
}
layer {
  name: "inception_4a/relu_3x3_reduce"
  type: "ReLU"
  bottom: "inception_4a/3x3_reduce"
  top: "inception_4a/3x3_reduce"
}
layer {
  name: "inception_4a/3x3"
  type: "Convolution"
  bottom: "inception_4a/3x3_reduce"
  top: "inception_4a/3x3"
  param {
    lr_mult: 1
    decay_mult: 1
  }
  param {
    lr_mult: 2
    decay_mult: 0
  }
  convolution_param {
    num_output: 208
    pad: 1
    kernel_size: 3
    weight_filler {
      type: "xavier"
      std: 0.03
    }
    bias_filler {
      type: "constant"
      value: 0.2
    }
  }
}
layer {
  name: "inception_4a/relu_3x3"
  type: "ReLU"
  bottom: "inception_4a/3x3"
  top: "inception_4a/3x3"
}
layer {
  name: "inception_4a/5x5_reduce"
  type: "Convolution"
  bottom: "pool3/3x3_s2"
  top: "inception_4a/5x5_reduce"
  param {
    lr_mult: 1
    decay_mult: 1
  }
  param {
    lr_mult: 2
    decay_mult: 0
  }
  convolution_param {
    num_output: 16
    kernel_size: 1
    weight_filler {
      type: "xavier"
      std: 0.2
    }
    bias_filler {
      type: "constant"
      value: 0.2
    }
  }
}
layer {
  name: "inception_4a/relu_5x5_reduce"
  type: "ReLU"
  bottom: "inception_4a/5x5_reduce"
  top: "inception_4a/5x5_reduce"
}
layer {
  name: "inception_4a/5x5"
  type: "Convolution"
  bottom: "inception_4a/5x5_reduce"
  top: "inception_4a/5x5"
  param {
    lr_mult: 1
    decay_mult: 1
  }
  param {
    lr_mult: 2
    decay_mult: 0
  }
  convolution_param {
    num_output: 48
    pad: 2
    kernel_size: 5
    weight_filler {
      type: "xavier"
      std: 0.03
    }
    bias_filler {
      type: "constant"
      value: 0.2
    }
  }
}
layer {
  name: "inception_4a/relu_5x5"
  type: "ReLU"
  bottom: "inception_4a/5x5"
  top: "inception_4a/5x5"
}
layer {
  name: "inception_4a/pool"
  type: "Pooling"
  bottom: "pool3/3x3_s2"
  top: "inception_4a/pool"
  pooling_param {
    pool: MAX
    kernel_size: 3
    stride: 1
    pad: 1
  }
}
layer {
  name: "inception_4a/pool_proj"
  type: "Convolution"
  bottom: "inception_4a/pool"
  top: "inception_4a/pool_proj"
  param {
    lr_mult: 1
    decay_mult: 1
  }
  param {
    lr_mult: 2
    decay_mult: 0
  }
  convolution_param {
    num_output: 64
    kernel_size: 1
    weight_filler {
      type: "xavier"
      std: 0.1
    }
    bias_filler {
      type: "constant"
      value: 0.2
    }
  }
}
layer {
  name: "inception_4a/relu_pool_proj"
  type: "ReLU"
  bottom: "inception_4a/pool_proj"
  top: "inception_4a/pool_proj"
}
layer {
  name: "inception_4a/output"
  type: "Concat"
  bottom: "inception_4a/1x1"
  bottom: "inception_4a/3x3"
  bottom: "inception_4a/5x5"
  bottom: "inception_4a/pool_proj"
  top: "inception_4a/output"
}
layer {
  name: "loss1/ave_pool"
  type: "Pooling"
  bottom: "inception_4a/output"
  top: "loss1/ave_pool"
  pooling_param {
    pool: AVE
    kernel_size: 5
    stride: 3
  }
}
layer {
  name: "loss1/conv"
  type: "Convolution"
  bottom: "loss1/ave_pool"
  top: "loss1/conv"
  param {
    lr_mult: 1
    decay_mult: 1
  }
  param {
    lr_mult: 2
    decay_mult: 0
  }
  convolution_param {
    num_output: 128
    kernel_size: 1
    weight_filler {
      type: "xavier"
      std: 0.08
    }
    bias_filler {
      type: "constant"
      value: 0.2
    }
  }
}
layer {
  name: "loss1/relu_conv"
  type: "ReLU"
  bottom: "loss1/conv"
  top: "loss1/conv"
}
layer {
  name: "loss1/fc"
  type: "InnerProduct"
  bottom: "loss1/conv"
  top: "loss1/fc"
  param {
    lr_mult: 1
    decay_mult: 1
  }
  param {
    lr_mult: 2
    decay_mult: 0
  }
  inner_product_param {
    num_output: 1024
    weight_filler {
      type: "xavier"
      std: 0.02
    }
    bias_filler {
      type: "constant"
      value: 0.2
    }
  }
}
layer {
  name: "loss1/relu_fc"
  type: "ReLU"
  bottom: "loss1/fc"
  top: "loss1/fc"
}
layer {
  name: "loss1/drop_fc"
  type: "Dropout"
  bottom: "loss1/fc"
  top: "loss1/fc"
  dropout_param {
    dropout_ratio: 0.7
  }
}
layer {
  name: "loss1/classifier_plantvillage"
  type: "InnerProduct"
  bottom: "loss1/fc"
  top: "loss1/classifier_plantvillage"
  param {
    lr_mult: 1
    decay_mult: 1
  }
  param {
    lr_mult: 2
    decay_mult: 0
  }
  inner_product_param {
    num_output: 38
    weight_filler {
      type: "xavier"
      std: 0.0009765625
    }
    bias_filler {
      type: "constant"
      value: 0
    }
  }
}
layer {
  name: "inception_4b/1x1"
  type: "Convolution"
  bottom: "inception_4a/output"
  top: "inception_4b/1x1"
  param {
    lr_mult: 1
    decay_mult: 1
  }
  param {
    lr_mult: 2
    decay_mult: 0
  }
  convolution_param {
    num_output: 160
    kernel_size: 1
    weight_filler {
      type: "xavier"
      std: 0.03
    }
    bias_filler {
      type: "constant"
      value: 0.2
    }
  }
}
layer {
  name: "inception_4b/relu_1x1"
  type: "ReLU"
  bottom: "inception_4b/1x1"
  top: "inception_4b/1x1"
}
layer {
  name: "inception_4b/3x3_reduce"
  type: "Convolution"
  bottom: "inception_4a/output"
  top: "inception_4b/3x3_reduce"
  param {
    lr_mult: 1
    decay_mult: 1
  }
  param {
    lr_mult: 2
    decay_mult: 0
  }
  convolution_param {
    num_output: 112
    kernel_size: 1
    weight_filler {
      type: "xavier"
      std: 0.09
    }
    bias_filler {
      type: "constant"
      value: 0.2
    }
  }
}
layer {
  name: "inception_4b/relu_3x3_reduce"
  type: "ReLU"
  bottom: "inception_4b/3x3_reduce"
  top: "inception_4b/3x3_reduce"
}
layer {
  name: "inception_4b/3x3"
  type: "Convolution"
  bottom: "inception_4b/3x3_reduce"
  top: "inception_4b/3x3"
  param {
    lr_mult: 1
    decay_mult: 1
  }
  param {
    lr_mult: 2
    decay_mult: 0
  }
  convolution_param {
    num_output: 224
    pad: 1
    kernel_size: 3
    weight_filler {
      type: "xavier"
      std: 0.03
    }
    bias_filler {
      type: "constant"
      value: 0.2
    }
  }
}
layer {
  name: "inception_4b/relu_3x3"
  type: "ReLU"
  bottom: "inception_4b/3x3"
  top: "inception_4b/3x3"
}
layer {
  name: "inception_4b/5x5_reduce"
  type: "Convolution"
  bottom: "inception_4a/output"
  top: "inception_4b/5x5_reduce"
  param {
    lr_mult: 1
    decay_mult: 1
  }
  param {
    lr_mult: 2
    decay_mult: 0
  }
  convolution_param {
    num_output: 24
    kernel_size: 1
    weight_filler {
      type: "xavier"
      std: 0.2
    }
    bias_filler {
      type: "constant"
      value: 0.2
    }
  }
}
layer {
  name: "inception_4b/relu_5x5_reduce"
  type: "ReLU"
  bottom: "inception_4b/5x5_reduce"
  top: "inception_4b/5x5_reduce"
}
layer {
  name: "inception_4b/5x5"
  type: "Convolution"
  bottom: "inception_4b/5x5_reduce"
  top: "inception_4b/5x5"
  param {
    lr_mult: 1
    decay_mult: 1
  }
  param {
    lr_mult: 2
    decay_mult: 0
  }
  convolution_param {
    num_output: 64
    pad: 2
    kernel_size: 5
    weight_filler {
      type: "xavier"
      std: 0.03
    }
    bias_filler {
      type: "constant"
      value: 0.2
    }
  }
}
layer {
  name: "inception_4b/relu_5x5"
  type: "ReLU"
  bottom: "inception_4b/5x5"
  top: "inception_4b/5x5"
}
layer {
  name: "inception_4b/pool"
  type: "Pooling"
  bottom: "inception_4a/output"
  top: "inception_4b/pool"
  pooling_param {
    pool: MAX
    kernel_size: 3
    stride: 1
    pad: 1
  }
}
layer {
  name: "inception_4b/pool_proj"
  type: "Convolution"
  bottom: "inception_4b/pool"
  top: "inception_4b/pool_proj"
  param {
    lr_mult: 1
    decay_mult: 1
  }
  param {
    lr_mult: 2
    decay_mult: 0
  }
  convolution_param {
    num_output: 64
    kernel_size: 1
    weight_filler {
      type: "xavier"
      std: 0.1
    }
    bias_filler {
      type: "constant"
      value: 0.2
    }
  }
}
layer {
  name: "inception_4b/relu_pool_proj"
  type: "ReLU"
  bottom: "inception_4b/pool_proj"
  top: "inception_4b/pool_proj"
}
layer {
  name: "inception_4b/output"
  type: "Concat"
  bottom: "inception_4b/1x1"
  bottom: "inception_4b/3x3"
  bottom: "inception_4b/5x5"
  bottom: "inception_4b/pool_proj"
  top: "inception_4b/output"
}
layer {
  name: "inception_4c/1x1"
  type: "Convolution"
  bottom: "inception_4b/output"
  top: "inception_4c/1x1"
  param {
    lr_mult: 1
    decay_mult: 1
  }
  param {
    lr_mult: 2
    decay_mult: 0
  }
  convolution_param {
    num_output: 128
    kernel_size: 1
    weight_filler {
      type: "xavier"
      std: 0.03
    }
    bias_filler {
      type: "constant"
      value: 0.2
    }
  }
}
layer {
  name: "inception_4c/relu_1x1"
  type: "ReLU"
  bottom: "inception_4c/1x1"
  top: "inception_4c/1x1"
}
layer {
  name: "inception_4c/3x3_reduce"
  type: "Convolution"
  bottom: "inception_4b/output"
  top: "inception_4c/3x3_reduce"
  param {
    lr_mult: 1
    decay_mult: 1
  }
  param {
    lr_mult: 2
    decay_mult: 0
  }
  convolution_param {
    num_output: 128
    kernel_size: 1
    weight_filler {
      type: "xavier"
      std: 0.09
    }
    bias_filler {
      type: "constant"
      value: 0.2
    }
  }
}
layer {
  name: "inception_4c/relu_3x3_reduce"
  type: "ReLU"
  bottom: "inception_4c/3x3_reduce"
  top: "inception_4c/3x3_reduce"
}
layer {
  name: "inception_4c/3x3"
  type: "Convolution"
  bottom: "inception_4c/3x3_reduce"
  top: "inception_4c/3x3"
  param {
    lr_mult: 1
    decay_mult: 1
  }
  param {
    lr_mult: 2
    decay_mult: 0
  }
  convolution_param {
    num_output: 256
    pad: 1
    kernel_size: 3
    weight_filler {
      type: "xavier"
      std: 0.03
    }
    bias_filler {
      type: "constant"
      value: 0.2
    }
  }
}
layer {
  name: "inception_4c/relu_3x3"
  type: "ReLU"
  bottom: "inception_4c/3x3"
  top: "inception_4c/3x3"
}
layer {
  name: "inception_4c/5x5_reduce"
  type: "Convolution"
  bottom: "inception_4b/output"
  top: "inception_4c/5x5_reduce"
  param {
    lr_mult: 1
    decay_mult: 1
  }
  param {
    lr_mult: 2
    decay_mult: 0
  }
  convolution_param {
    num_output: 24
    kernel_size: 1
    weight_filler {
      type: "xavier"
      std: 0.2
    }
    bias_filler {
      type: "constant"
      value: 0.2
    }
  }
}
layer {
  name: "inception_4c/relu_5x5_reduce"
  type: "ReLU"
  bottom: "inception_4c/5x5_reduce"
  top: "inception_4c/5x5_reduce"
}
layer {
  name: "inception_4c/5x5"
  type: "Convolution"
  bottom: "inception_4c/5x5_reduce"
  top: "inception_4c/5x5"
  param {
    lr_mult: 1
    decay_mult: 1
  }
  param {
    lr_mult: 2
    decay_mult: 0
  }
  convolution_param {
    num_output: 64
    pad: 2
    kernel_size: 5
    weight_filler {
      type: "xavier"
      std: 0.03
    }
    bias_filler {
      type: "constant"
      value: 0.2
    }
  }
}
layer {
  name: "inception_4c/relu_5x5"
  type: "ReLU"
  bottom: "inception_4c/5x5"
  top: "inception_4c/5x5"
}
layer {
  name: "inception_4c/pool"
  type: "Pooling"
  bottom: "inception_4b/output"
  top: "inception_4c/pool"
  pooling_param {
    pool: MAX
    kernel_size: 3
    stride: 1
    pad: 1
  }
}
layer {
  name: "inception_4c/pool_proj"
  type: "Convolution"
  bottom: "inception_4c/pool"
  top: "inception_4c/pool_proj"
  param {
    lr_mult: 1
    decay_mult: 1
  }
  param {
    lr_mult: 2
    decay_mult: 0
  }
  convolution_param {
    num_output: 64
    kernel_size: 1
    weight_filler {
      type: "xavier"
      std: 0.1
    }
    bias_filler {
      type: "constant"
      value: 0.2
    }
  }
}
layer {
  name: "inception_4c/relu_pool_proj"
  type: "ReLU"
  bottom: "inception_4c/pool_proj"
  top: "inception_4c/pool_proj"
}
layer {
  name: "inception_4c/output"
  type: "Concat"
  bottom: "inception_4c/1x1"
  bottom: "inception_4c/3x3"
  bottom: "inception_4c/5x5"
  bottom: "inception_4c/pool_proj"
  top: "inception_4c/output"
}
layer {
  name: "inception_4d/1x1"
  type: "Convolution"
  bottom: "inception_4c/output"
  top: "inception_4d/1x1"
  param {
    lr_mult: 1
    decay_mult: 1
  }
  param {
    lr_mult: 2
    decay_mult: 0
  }
  convolution_param {
    num_output: 112
    kernel_size: 1
    weight_filler {
      type: "xavier"
      std: 0.03
    }
    bias_filler {
      type: "constant"
      value: 0.2
    }
  }
}
layer {
  name: "inception_4d/relu_1x1"
  type: "ReLU"
  bottom: "inception_4d/1x1"
  top: "inception_4d/1x1"
}
layer {
  name: "inception_4d/3x3_reduce"
  type: "Convolution"
  bottom: "inception_4c/output"
  top: "inception_4d/3x3_reduce"
  param {
    lr_mult: 1
    decay_mult: 1
  }
  param {
    lr_mult: 2
    decay_mult: 0
  }
  convolution_param {
    num_output: 144
    kernel_size: 1
    weight_filler {
      type: "xavier"
      std: 0.09
    }
    bias_filler {
      type: "constant"
      value: 0.2
    }
  }
}
layer {
  name: "inception_4d/relu_3x3_reduce"
  type: "ReLU"
  bottom: "inception_4d/3x3_reduce"
  top: "inception_4d/3x3_reduce"
}
layer {
  name: "inception_4d/3x3"
  type: "Convolution"
  bottom: "inception_4d/3x3_reduce"
  top: "inception_4d/3x3"
  param {
    lr_mult: 1
    decay_mult: 1
  }
  param {
    lr_mult: 2
    decay_mult: 0
  }
  convolution_param {
    num_output: 288
    pad: 1
    kernel_size: 3
    weight_filler {
      type: "xavier"
      std: 0.03
    }
    bias_filler {
      type: "constant"
      value: 0.2
    }
  }
}
layer {
  name: "inception_4d/relu_3x3"
  type: "ReLU"
  bottom: "inception_4d/3x3"
  top: "inception_4d/3x3"
}
layer {
  name: "inception_4d/5x5_reduce"
  type: "Convolution"
  bottom: "inception_4c/output"
  top: "inception_4d/5x5_reduce"
  param {
    lr_mult: 1
    decay_mult: 1
  }
  param {
    lr_mult: 2
    decay_mult: 0
  }
  convolution_param {
    num_output: 32
    kernel_size: 1
    weight_filler {
      type: "xavier"
      std: 0.2
    }
    bias_filler {
      type: "constant"
      value: 0.2
    }
  }
}
layer {
  name: "inception_4d/relu_5x5_reduce"
  type: "ReLU"
  bottom: "inception_4d/5x5_reduce"
  top: "inception_4d/5x5_reduce"
}
layer {
  name: "inception_4d/5x5"
  type: "Convolution"
  bottom: "inception_4d/5x5_reduce"
  top: "inception_4d/5x5"
  param {
    lr_mult: 1
    decay_mult: 1
  }
  param {
    lr_mult: 2
    decay_mult: 0
  }
  convolution_param {
    num_output: 64
    pad: 2
    kernel_size: 5
    weight_filler {
      type: "xavier"
      std: 0.03
    }
    bias_filler {
      type: "constant"
      value: 0.2
    }
  }
}
layer {
  name: "inception_4d/relu_5x5"
  type: "ReLU"
  bottom: "inception_4d/5x5"
  top: "inception_4d/5x5"
}
layer {
  name: "inception_4d/pool"
  type: "Pooling"
  bottom: "inception_4c/output"
  top: "inception_4d/pool"
  pooling_param {
    pool: MAX
    kernel_size: 3
    stride: 1
    pad: 1
  }
}
layer {
  name: "inception_4d/pool_proj"
  type: "Convolution"
  bottom: "inception_4d/pool"
  top: "inception_4d/pool_proj"
  param {
    lr_mult: 1
    decay_mult: 1
  }
  param {
    lr_mult: 2
    decay_mult: 0
  }
  convolution_param {
    num_output: 64
    kernel_size: 1
    weight_filler {
      type: "xavier"
      std: 0.1
    }
    bias_filler {
      type: "constant"
      value: 0.2
    }
  }
}
layer {
  name: "inception_4d/relu_pool_proj"
  type: "ReLU"
  bottom: "inception_4d/pool_proj"
  top: "inception_4d/pool_proj"
}
layer {
  name: "inception_4d/output"
  type: "Concat"
  bottom: "inception_4d/1x1"
  bottom: "inception_4d/3x3"
  bottom: "inception_4d/5x5"
  bottom: "inception_4d/pool_proj"
  top: "inception_4d/output"
}
layer {
  name: "loss2/ave_pool"
  type: "Pooling"
  bottom: "inception_4d/output"
  top: "loss2/ave_pool"
  pooling_param {
    pool: AVE
    kernel_size: 5
    stride: 3
  }
}
layer {
  name: "loss2/conv"
  type: "Convolution"
  bottom: "loss2/ave_pool"
  top: "loss2/conv"
  param {
    lr_mult: 1
    decay_mult: 1
  }
  param {
    lr_mult: 2
    decay_mult: 0
  }
  convolution_param {
    num_output: 128
    kernel_size: 1
    weight_filler {
      type: "xavier"
      std: 0.08
    }
    bias_filler {
      type: "constant"
      value: 0.2
    }
  }
}
layer {
  name: "loss2/relu_conv"
  type: "ReLU"
  bottom: "loss2/conv"
  top: "loss2/conv"
}
layer {
  name: "loss2/fc"
  type: "InnerProduct"
  bottom: "loss2/conv"
  top: "loss2/fc"
  param {
    lr_mult: 1
    decay_mult: 1
  }
  param {
    lr_mult: 2
    decay_mult: 0
  }
  inner_product_param {
    num_output: 1024
    weight_filler {
      type: "xavier"
      std: 0.02
    }
    bias_filler {
      type: "constant"
      value: 0.2
    }
  }
}
layer {
  name: "loss2/relu_fc"
  type: "ReLU"
  bottom: "loss2/fc"
  top: "loss2/fc"
}
layer {
  name: "loss2/drop_fc"
  type: "Dropout"
  bottom: "loss2/fc"
  top: "loss2/fc"
  dropout_param {
    dropout_ratio: 0.7
  }
}
layer {
  name: "loss2/classifier_plantvillage"
  type: "InnerProduct"
  bottom: "loss2/fc"
  top: "loss2/classifier_plantvillage"
  param {
    lr_mult: 1
    decay_mult: 1
  }
  param {
    lr_mult: 2
    decay_mult: 0
  }
  inner_product_param {
    num_output: 38
    weight_filler {
      type: "xavier"
      std: 0.0009765625
    }
    bias_filler {
      type: "constant"
      value: 0
    }
  }
}
layer {
  name: "inception_4e/1x1"
  type: "Convolution"
  bottom: "inception_4d/output"
  top: "inception_4e/1x1"
  param {
    lr_mult: 1
    decay_mult: 1
  }
  param {
    lr_mult: 2
    decay_mult: 0
  }
  convolution_param {
    num_output: 256
    kernel_size: 1
    weight_filler {
      type: "xavier"
      std: 0.03
    }
    bias_filler {
      type: "constant"
      value: 0.2
    }
  }
}
layer {
  name: "inception_4e/relu_1x1"
  type: "ReLU"
  bottom: "inception_4e/1x1"
  top: "inception_4e/1x1"
}
layer {
  name: "inception_4e/3x3_reduce"
  type: "Convolution"
  bottom: "inception_4d/output"
  top: "inception_4e/3x3_reduce"
  param {
    lr_mult: 1
    decay_mult: 1
  }
  param {
    lr_mult: 2
    decay_mult: 0
  }
  convolution_param {
    num_output: 160
    kernel_size: 1
    weight_filler {
      type: "xavier"
      std: 0.09
    }
    bias_filler {
      type: "constant"
      value: 0.2
    }
  }
}
layer {
  name: "inception_4e/relu_3x3_reduce"
  type: "ReLU"
  bottom: "inception_4e/3x3_reduce"
  top: "inception_4e/3x3_reduce"
}
layer {
  name: "inception_4e/3x3"
  type: "Convolution"
  bottom: "inception_4e/3x3_reduce"
  top: "inception_4e/3x3"
  param {
    lr_mult: 1
    decay_mult: 1
  }
  param {
    lr_mult: 2
    decay_mult: 0
  }
  convolution_param {
    num_output: 320
    pad: 1
    kernel_size: 3
    weight_filler {
      type: "xavier"
      std: 0.03
    }
    bias_filler {
      type: "constant"
      value: 0.2
    }
  }
}
layer {
  name: "inception_4e/relu_3x3"
  type: "ReLU"
  bottom: "inception_4e/3x3"
  top: "inception_4e/3x3"
}
layer {
  name: "inception_4e/5x5_reduce"
  type: "Convolution"
  bottom: "inception_4d/output"
  top: "inception_4e/5x5_reduce"
  param {
    lr_mult: 1
    decay_mult: 1
  }
  param {
    lr_mult: 2
    decay_mult: 0
  }
  convolution_param {
    num_output: 32
    kernel_size: 1
    weight_filler {
      type: "xavier"
      std: 0.2
    }
    bias_filler {
      type: "constant"
      value: 0.2
    }
  }
}
layer {
  name: "inception_4e/relu_5x5_reduce"
  type: "ReLU"
  bottom: "inception_4e/5x5_reduce"
  top: "inception_4e/5x5_reduce"
}
layer {
  name: "inception_4e/5x5"
  type: "Convolution"
  bottom: "inception_4e/5x5_reduce"
  top: "inception_4e/5x5"
  p
I0403 15:47:03.161784 14402 layer_factory.hpp:77] Creating layer data
I0403 15:47:03.162389 14402 net.cpp:91] Creating Layer data
I0403 15:47:03.162432 14402 net.cpp:399] data -> data
I0403 15:47:03.162497 14402 net.cpp:399] data -> label
I0403 15:47:03.162534 14402 data_transformer.cpp:25] Loading mean file from: /home/mohanty/data/final_dataset/lmdb/color-80-20/mean.binaryproto
I0403 15:47:03.166110 14406 db_lmdb.cpp:38] Opened lmdb /home/mohanty/data/final_dataset/lmdb/color-80-20/test_db
I0403 15:47:03.176280 14402 data_layer.cpp:41] output data size: 24,3,224,224
I0403 15:47:03.204658 14402 net.cpp:141] Setting up data
I0403 15:47:03.204754 14402 net.cpp:148] Top shape: 24 3 224 224 (3612672)
I0403 15:47:03.204779 14402 net.cpp:148] Top shape: 24 (24)
I0403 15:47:03.204795 14402 net.cpp:156] Memory required for data: 14450784
I0403 15:47:03.204823 14402 layer_factory.hpp:77] Creating layer label_data_1_split
I0403 15:47:03.204850 14402 net.cpp:91] Creating Layer label_data_1_split
I0403 15:47:03.204869 14402 net.cpp:425] label_data_1_split <- label
I0403 15:47:03.204902 14402 net.cpp:399] label_data_1_split -> label_data_1_split_0
I0403 15:47:03.204931 14402 net.cpp:399] label_data_1_split -> label_data_1_split_1
I0403 15:47:03.204953 14402 net.cpp:399] label_data_1_split -> label_data_1_split_2
I0403 15:47:03.204974 14402 net.cpp:399] label_data_1_split -> label_data_1_split_3
I0403 15:47:03.204995 14402 net.cpp:399] label_data_1_split -> label_data_1_split_4
I0403 15:47:03.205015 14402 net.cpp:399] label_data_1_split -> label_data_1_split_5
I0403 15:47:03.205036 14402 net.cpp:399] label_data_1_split -> label_data_1_split_6
I0403 15:47:03.205057 14402 net.cpp:399] label_data_1_split -> label_data_1_split_7
I0403 15:47:03.205085 14402 net.cpp:399] label_data_1_split -> label_data_1_split_8
I0403 15:47:03.205114 14402 net.cpp:399] label_data_1_split -> label_data_1_split_9
I0403 15:47:03.205236 14402 net.cpp:141] Setting up label_data_1_split
I0403 15:47:03.205261 14402 net.cpp:148] Top shape: 24 (24)
I0403 15:47:03.205279 14402 net.cpp:148] Top shape: 24 (24)
I0403 15:47:03.205296 14402 net.cpp:148] Top shape: 24 (24)
I0403 15:47:03.205312 14402 net.cpp:148] Top shape: 24 (24)
I0403 15:47:03.205329 14402 net.cpp:148] Top shape: 24 (24)
I0403 15:47:03.205345 14402 net.cpp:148] Top shape: 24 (24)
I0403 15:47:03.205361 14402 net.cpp:148] Top shape: 24 (24)
I0403 15:47:03.205387 14402 net.cpp:148] Top shape: 24 (24)
I0403 15:47:03.205404 14402 net.cpp:148] Top shape: 24 (24)
I0403 15:47:03.205420 14402 net.cpp:148] Top shape: 24 (24)
I0403 15:47:03.205464 14402 net.cpp:156] Memory required for data: 14451744
I0403 15:47:03.205482 14402 layer_factory.hpp:77] Creating layer conv1/7x7_s2
I0403 15:47:03.205513 14402 net.cpp:91] Creating Layer conv1/7x7_s2
I0403 15:47:03.205534 14402 net.cpp:425] conv1/7x7_s2 <- data
I0403 15:47:03.205554 14402 net.cpp:399] conv1/7x7_s2 -> conv1/7x7_s2
I0403 15:47:03.351251 14402 net.cpp:141] Setting up conv1/7x7_s2
I0403 15:47:03.351326 14402 net.cpp:148] Top shape: 24 64 112 112 (19267584)
I0403 15:47:03.351346 14402 net.cpp:156] Memory required for data: 91522080
I0403 15:47:03.351377 14402 layer_factory.hpp:77] Creating layer conv1/relu_7x7
I0403 15:47:03.351405 14402 net.cpp:91] Creating Layer conv1/relu_7x7
I0403 15:47:03.351423 14402 net.cpp:425] conv1/relu_7x7 <- conv1/7x7_s2
I0403 15:47:03.351443 14402 net.cpp:386] conv1/relu_7x7 -> conv1/7x7_s2 (in-place)
I0403 15:47:03.351699 14402 net.cpp:141] Setting up conv1/relu_7x7
I0403 15:47:03.351728 14402 net.cpp:148] Top shape: 24 64 112 112 (19267584)
I0403 15:47:03.351744 14402 net.cpp:156] Memory required for data: 168592416
I0403 15:47:03.351760 14402 layer_factory.hpp:77] Creating layer pool1/3x3_s2
I0403 15:47:03.351785 14402 net.cpp:91] Creating Layer pool1/3x3_s2
I0403 15:47:03.351804 14402 net.cpp:425] pool1/3x3_s2 <- conv1/7x7_s2
I0403 15:47:03.351822 14402 net.cpp:399] pool1/3x3_s2 -> pool1/3x3_s2
I0403 15:47:03.351897 14402 net.cpp:141] Setting up pool1/3x3_s2
I0403 15:47:03.351922 14402 net.cpp:148] Top shape: 24 64 56 56 (4816896)
I0403 15:47:03.351938 14402 net.cpp:156] Memory required for data: 187860000
I0403 15:47:03.351954 14402 layer_factory.hpp:77] Creating layer pool1/norm1
I0403 15:47:03.351979 14402 net.cpp:91] Creating Layer pool1/norm1
I0403 15:47:03.351997 14402 net.cpp:425] pool1/norm1 <- pool1/3x3_s2
I0403 15:47:03.352015 14402 net.cpp:399] pool1/norm1 -> pool1/norm1
I0403 15:47:03.352335 14402 net.cpp:141] Setting up pool1/norm1
I0403 15:47:03.352365 14402 net.cpp:148] Top shape: 24 64 56 56 (4816896)
I0403 15:47:03.352381 14402 net.cpp:156] Memory required for data: 207127584
I0403 15:47:03.352397 14402 layer_factory.hpp:77] Creating layer conv2/3x3_reduce
I0403 15:47:03.352422 14402 net.cpp:91] Creating Layer conv2/3x3_reduce
I0403 15:47:03.352440 14402 net.cpp:425] conv2/3x3_reduce <- pool1/norm1
I0403 15:47:03.352460 14402 net.cpp:399] conv2/3x3_reduce -> conv2/3x3_reduce
I0403 15:47:03.353827 14402 net.cpp:141] Setting up conv2/3x3_reduce
I0403 15:47:03.353858 14402 net.cpp:148] Top shape: 24 64 56 56 (4816896)
I0403 15:47:03.353876 14402 net.cpp:156] Memory required for data: 226395168
I0403 15:47:03.353899 14402 layer_factory.hpp:77] Creating layer conv2/relu_3x3_reduce
I0403 15:47:03.353917 14402 net.cpp:91] Creating Layer conv2/relu_3x3_reduce
I0403 15:47:03.353935 14402 net.cpp:425] conv2/relu_3x3_reduce <- conv2/3x3_reduce
I0403 15:47:03.353952 14402 net.cpp:386] conv2/relu_3x3_reduce -> conv2/3x3_reduce (in-place)
I0403 15:47:03.354210 14402 net.cpp:141] Setting up conv2/relu_3x3_reduce
I0403 15:47:03.354238 14402 net.cpp:148] Top shape: 24 64 56 56 (4816896)
I0403 15:47:03.354254 14402 net.cpp:156] Memory required for data: 245662752
I0403 15:47:03.354269 14402 layer_factory.hpp:77] Creating layer conv2/3x3
I0403 15:47:03.354291 14402 net.cpp:91] Creating Layer conv2/3x3
I0403 15:47:03.354310 14402 net.cpp:425] conv2/3x3 <- conv2/3x3_reduce
I0403 15:47:03.354327 14402 net.cpp:399] conv2/3x3 -> conv2/3x3
I0403 15:47:03.356607 14402 net.cpp:141] Setting up conv2/3x3
I0403 15:47:03.356639 14402 net.cpp:148] Top shape: 24 192 56 56 (14450688)
I0403 15:47:03.356657 14402 net.cpp:156] Memory required for data: 303465504
I0403 15:47:03.356678 14402 layer_factory.hpp:77] Creating layer conv2/relu_3x3
I0403 15:47:03.356698 14402 net.cpp:91] Creating Layer conv2/relu_3x3
I0403 15:47:03.356714 14402 net.cpp:425] conv2/relu_3x3 <- conv2/3x3
I0403 15:47:03.356731 14402 net.cpp:386] conv2/relu_3x3 -> conv2/3x3 (in-place)
I0403 15:47:03.356895 14402 net.cpp:141] Setting up conv2/relu_3x3
I0403 15:47:03.356920 14402 net.cpp:148] Top shape: 24 192 56 56 (14450688)
I0403 15:47:03.356971 14402 net.cpp:156] Memory required for data: 361268256
I0403 15:47:03.356987 14402 layer_factory.hpp:77] Creating layer conv2/norm2
I0403 15:47:03.357007 14402 net.cpp:91] Creating Layer conv2/norm2
I0403 15:47:03.357023 14402 net.cpp:425] conv2/norm2 <- conv2/3x3
I0403 15:47:03.357041 14402 net.cpp:399] conv2/norm2 -> conv2/norm2
I0403 15:47:03.357414 14402 net.cpp:141] Setting up conv2/norm2
I0403 15:47:03.357442 14402 net.cpp:148] Top shape: 24 192 56 56 (14450688)
I0403 15:47:03.357460 14402 net.cpp:156] Memory required for data: 419071008
I0403 15:47:03.357475 14402 layer_factory.hpp:77] Creating layer pool2/3x3_s2
I0403 15:47:03.357492 14402 net.cpp:91] Creating Layer pool2/3x3_s2
I0403 15:47:03.357508 14402 net.cpp:425] pool2/3x3_s2 <- conv2/norm2
I0403 15:47:03.357527 14402 net.cpp:399] pool2/3x3_s2 -> pool2/3x3_s2
I0403 15:47:03.357578 14402 net.cpp:141] Setting up pool2/3x3_s2
I0403 15:47:03.357604 14402 net.cpp:148] Top shape: 24 192 28 28 (3612672)
I0403 15:47:03.357619 14402 net.cpp:156] Memory required for data: 433521696
I0403 15:47:03.357632 14402 layer_factory.hpp:77] Creating layer pool2/3x3_s2_pool2/3x3_s2_0_split
I0403 15:47:03.357650 14402 net.cpp:91] Creating Layer pool2/3x3_s2_pool2/3x3_s2_0_split
I0403 15:47:03.357666 14402 net.cpp:425] pool2/3x3_s2_pool2/3x3_s2_0_split <- pool2/3x3_s2
I0403 15:47:03.357682 14402 net.cpp:399] pool2/3x3_s2_pool2/3x3_s2_0_split -> pool2/3x3_s2_pool2/3x3_s2_0_split_0
I0403 15:47:03.357702 14402 net.cpp:399] pool2/3x3_s2_pool2/3x3_s2_0_split -> pool2/3x3_s2_pool2/3x3_s2_0_split_1
I0403 15:47:03.357723 14402 net.cpp:399] pool2/3x3_s2_pool2/3x3_s2_0_split -> pool2/3x3_s2_pool2/3x3_s2_0_split_2
I0403 15:47:03.357741 14402 net.cpp:399] pool2/3x3_s2_pool2/3x3_s2_0_split -> pool2/3x3_s2_pool2/3x3_s2_0_split_3
I0403 15:47:03.357805 14402 net.cpp:141] Setting up pool2/3x3_s2_pool2/3x3_s2_0_split
I0403 15:47:03.357830 14402 net.cpp:148] Top shape: 24 192 28 28 (3612672)
I0403 15:47:03.357846 14402 net.cpp:148] Top shape: 24 192 28 28 (3612672)
I0403 15:47:03.357862 14402 net.cpp:148] Top shape: 24 192 28 28 (3612672)
I0403 15:47:03.357878 14402 net.cpp:148] Top shape: 24 192 28 28 (3612672)
I0403 15:47:03.357892 14402 net.cpp:156] Memory required for data: 491324448
I0403 15:47:03.357908 14402 layer_factory.hpp:77] Creating layer inception_3a/1x1
I0403 15:47:03.357929 14402 net.cpp:91] Creating Layer inception_3a/1x1
I0403 15:47:03.357946 14402 net.cpp:425] inception_3a/1x1 <- pool2/3x3_s2_pool2/3x3_s2_0_split_0
I0403 15:47:03.357966 14402 net.cpp:399] inception_3a/1x1 -> inception_3a/1x1
I0403 15:47:03.359521 14402 net.cpp:141] Setting up inception_3a/1x1
I0403 15:47:03.359552 14402 net.cpp:148] Top shape: 24 64 28 28 (1204224)
I0403 15:47:03.359570 14402 net.cpp:156] Memory required for data: 496141344
I0403 15:47:03.359588 14402 layer_factory.hpp:77] Creating layer inception_3a/relu_1x1
I0403 15:47:03.359612 14402 net.cpp:91] Creating Layer inception_3a/relu_1x1
I0403 15:47:03.359630 14402 net.cpp:425] inception_3a/relu_1x1 <- inception_3a/1x1
I0403 15:47:03.359648 14402 net.cpp:386] inception_3a/relu_1x1 -> inception_3a/1x1 (in-place)
I0403 15:47:03.359825 14402 net.cpp:141] Setting up inception_3a/relu_1x1
I0403 15:47:03.359856 14402 net.cpp:148] Top shape: 24 64 28 28 (1204224)
I0403 15:47:03.359874 14402 net.cpp:156] Memory required for data: 500958240
I0403 15:47:03.359890 14402 layer_factory.hpp:77] Creating layer inception_3a/3x3_reduce
I0403 15:47:03.359913 14402 net.cpp:91] Creating Layer inception_3a/3x3_reduce
I0403 15:47:03.359931 14402 net.cpp:425] inception_3a/3x3_reduce <- pool2/3x3_s2_pool2/3x3_s2_0_split_1
I0403 15:47:03.359951 14402 net.cpp:399] inception_3a/3x3_reduce -> inception_3a/3x3_reduce
I0403 15:47:03.361781 14402 net.cpp:141] Setting up inception_3a/3x3_reduce
I0403 15:47:03.361814 14402 net.cpp:148] Top shape: 24 96 28 28 (1806336)
I0403 15:47:03.361831 14402 net.cpp:156] Memory required for data: 508183584
I0403 15:47:03.361857 14402 layer_factory.hpp:77] Creating layer inception_3a/relu_3x3_reduce
I0403 15:47:03.361896 14402 net.cpp:91] Creating Layer inception_3a/relu_3x3_reduce
I0403 15:47:03.361915 14402 net.cpp:425] inception_3a/relu_3x3_reduce <- inception_3a/3x3_reduce
I0403 15:47:03.361937 14402 net.cpp:386] inception_3a/relu_3x3_reduce -> inception_3a/3x3_reduce (in-place)
I0403 15:47:03.362140 14402 net.cpp:141] Setting up inception_3a/relu_3x3_reduce
I0403 15:47:03.362177 14402 net.cpp:148] Top shape: 24 96 28 28 (1806336)
I0403 15:47:03.362193 14402 net.cpp:156] Memory required for data: 515408928
I0403 15:47:03.362210 14402 layer_factory.hpp:77] Creating layer inception_3a/3x3
I0403 15:47:03.362234 14402 net.cpp:91] Creating Layer inception_3a/3x3
I0403 15:47:03.362253 14402 net.cpp:425] inception_3a/3x3 <- inception_3a/3x3_reduce
I0403 15:47:03.362277 14402 net.cpp:399] inception_3a/3x3 -> inception_3a/3x3
I0403 15:47:03.364104 14402 net.cpp:141] Setting up inception_3a/3x3
I0403 15:47:03.364141 14402 net.cpp:148] Top shape: 24 128 28 28 (2408448)
I0403 15:47:03.364161 14402 net.cpp:156] Memory required for data: 525042720
I0403 15:47:03.364179 14402 layer_factory.hpp:77] Creating layer inception_3a/relu_3x3
I0403 15:47:03.364202 14402 net.cpp:91] Creating Layer inception_3a/relu_3x3
I0403 15:47:03.364220 14402 net.cpp:425] inception_3a/relu_3x3 <- inception_3a/3x3
I0403 15:47:03.364239 14402 net.cpp:386] inception_3a/relu_3x3 -> inception_3a/3x3 (in-place)
I0403 15:47:03.364576 14402 net.cpp:141] Setting up inception_3a/relu_3x3
I0403 15:47:03.364605 14402 net.cpp:148] Top shape: 24 128 28 28 (2408448)
I0403 15:47:03.364622 14402 net.cpp:156] Memory required for data: 534676512
I0403 15:47:03.364637 14402 layer_factory.hpp:77] Creating layer inception_3a/5x5_reduce
I0403 15:47:03.364663 14402 net.cpp:91] Creating Layer inception_3a/5x5_reduce
I0403 15:47:03.364683 14402 net.cpp:425] inception_3a/5x5_reduce <- pool2/3x3_s2_pool2/3x3_s2_0_split_2
I0403 15:47:03.364703 14402 net.cpp:399] inception_3a/5x5_reduce -> inception_3a/5x5_reduce
I0403 15:47:03.365708 14402 net.cpp:141] Setting up inception_3a/5x5_reduce
I0403 15:47:03.365742 14402 net.cpp:148] Top shape: 24 16 28 28 (301056)
I0403 15:47:03.365761 14402 net.cpp:156] Memory required for data: 535880736
I0403 15:47:03.365782 14402 layer_factory.hpp:77] Creating layer inception_3a/relu_5x5_reduce
I0403 15:47:03.365800 14402 net.cpp:91] Creating Layer inception_3a/relu_5x5_reduce
I0403 15:47:03.365818 14402 net.cpp:425] inception_3a/relu_5x5_reduce <- inception_3a/5x5_reduce
I0403 15:47:03.365839 14402 net.cpp:386] inception_3a/relu_5x5_reduce -> inception_3a/5x5_reduce (in-place)
I0403 15:47:03.366148 14402 net.cpp:141] Setting up inception_3a/relu_5x5_reduce
I0403 15:47:03.366180 14402 net.cpp:148] Top shape: 24 16 28 28 (301056)
I0403 15:47:03.366252 14402 net.cpp:156] Memory required for data: 537084960
I0403 15:47:03.366276 14402 layer_factory.hpp:77] Creating layer inception_3a/5x5
I0403 15:47:03.366300 14402 net.cpp:91] Creating Layer inception_3a/5x5
I0403 15:47:03.366319 14402 net.cpp:425] inception_3a/5x5 <- inception_3a/5x5_reduce
I0403 15:47:03.366343 14402 net.cpp:399] inception_3a/5x5 -> inception_3a/5x5
I0403 15:47:03.367404 14402 net.cpp:141] Setting up inception_3a/5x5
I0403 15:47:03.367435 14402 net.cpp:148] Top shape: 24 32 28 28 (602112)
I0403 15:47:03.367452 14402 net.cpp:156] Memory required for data: 539493408
I0403 15:47:03.367471 14402 layer_factory.hpp:77] Creating layer inception_3a/relu_5x5
I0403 15:47:03.367492 14402 net.cpp:91] Creating Layer inception_3a/relu_5x5
I0403 15:47:03.367511 14402 net.cpp:425] inception_3a/relu_5x5 <- inception_3a/5x5
I0403 15:47:03.367529 14402 net.cpp:386] inception_3a/relu_5x5 -> inception_3a/5x5 (in-place)
I0403 15:47:03.367712 14402 net.cpp:141] Setting up inception_3a/relu_5x5
I0403 15:47:03.367740 14402 net.cpp:148] Top shape: 24 32 28 28 (602112)
I0403 15:47:03.367756 14402 net.cpp:156] Memory required for data: 541901856
I0403 15:47:03.367772 14402 layer_factory.hpp:77] Creating layer inception_3a/pool
I0403 15:47:03.367790 14402 net.cpp:91] Creating Layer inception_3a/pool
I0403 15:47:03.367808 14402 net.cpp:425] inception_3a/pool <- pool2/3x3_s2_pool2/3x3_s2_0_split_3
I0403 15:47:03.367846 14402 net.cpp:399] inception_3a/pool -> inception_3a/pool
I0403 15:47:03.367908 14402 net.cpp:141] Setting up inception_3a/pool
I0403 15:47:03.367933 14402 net.cpp:148] Top shape: 24 192 28 28 (3612672)
I0403 15:47:03.367949 14402 net.cpp:156] Memory required for data: 556352544
I0403 15:47:03.367964 14402 layer_factory.hpp:77] Creating layer inception_3a/pool_proj
I0403 15:47:03.367990 14402 net.cpp:91] Creating Layer inception_3a/pool_proj
I0403 15:47:03.368010 14402 net.cpp:425] inception_3a/pool_proj <- inception_3a/pool
I0403 15:47:03.368029 14402 net.cpp:399] inception_3a/pool_proj -> inception_3a/pool_proj
I0403 15:47:03.369040 14402 net.cpp:141] Setting up inception_3a/pool_proj
I0403 15:47:03.369070 14402 net.cpp:148] Top shape: 24 32 28 28 (602112)
I0403 15:47:03.369086 14402 net.cpp:156] Memory required for data: 558760992
I0403 15:47:03.369112 14402 layer_factory.hpp:77] Creating layer inception_3a/relu_pool_proj
I0403 15:47:03.369138 14402 net.cpp:91] Creating Layer inception_3a/relu_pool_proj
I0403 15:47:03.369156 14402 net.cpp:425] inception_3a/relu_pool_proj <- inception_3a/pool_proj
I0403 15:47:03.369179 14402 net.cpp:386] inception_3a/relu_pool_proj -> inception_3a/pool_proj (in-place)
I0403 15:47:03.369465 14402 net.cpp:141] Setting up inception_3a/relu_pool_proj
I0403 15:47:03.369494 14402 net.cpp:148] Top shape: 24 32 28 28 (602112)
I0403 15:47:03.369510 14402 net.cpp:156] Memory required for data: 561169440
I0403 15:47:03.369527 14402 layer_factory.hpp:77] Creating layer inception_3a/output
I0403 15:47:03.369547 14402 net.cpp:91] Creating Layer inception_3a/output
I0403 15:47:03.369565 14402 net.cpp:425] inception_3a/output <- inception_3a/1x1
I0403 15:47:03.369585 14402 net.cpp:425] inception_3a/output <- inception_3a/3x3
I0403 15:47:03.369601 14402 net.cpp:425] inception_3a/output <- inception_3a/5x5
I0403 15:47:03.369617 14402 net.cpp:425] inception_3a/output <- inception_3a/pool_proj
I0403 15:47:03.369635 14402 net.cpp:399] inception_3a/output -> inception_3a/output
I0403 15:47:03.369684 14402 net.cpp:141] Setting up inception_3a/output
I0403 15:47:03.369710 14402 net.cpp:148] Top shape: 24 256 28 28 (4816896)
I0403 15:47:03.369726 14402 net.cpp:156] Memory required for data: 580437024
I0403 15:47:03.369741 14402 layer_factory.hpp:77] Creating layer inception_3a/output_inception_3a/output_0_split
I0403 15:47:03.369760 14402 net.cpp:91] Creating Layer inception_3a/output_inception_3a/output_0_split
I0403 15:47:03.369776 14402 net.cpp:425] inception_3a/output_inception_3a/output_0_split <- inception_3a/output
I0403 15:47:03.369797 14402 net.cpp:399] inception_3a/output_inception_3a/output_0_split -> inception_3a/output_inception_3a/output_0_split_0
I0403 15:47:03.369818 14402 net.cpp:399] inception_3a/output_inception_3a/output_0_split -> inception_3a/output_inception_3a/output_0_split_1
I0403 15:47:03.369846 14402 net.cpp:399] inception_3a/output_inception_3a/output_0_split -> inception_3a/output_inception_3a/output_0_split_2
I0403 15:47:03.369870 14402 net.cpp:399] inception_3a/output_inception_3a/output_0_split -> inception_3a/output_inception_3a/output_0_split_3
I0403 15:47:03.369947 14402 net.cpp:141] Setting up inception_3a/output_inception_3a/output_0_split
I0403 15:47:03.369971 14402 net.cpp:148] Top shape: 24 256 28 28 (4816896)
I0403 15:47:03.369992 14402 net.cpp:148] Top shape: 24 256 28 28 (4816896)
I0403 15:47:03.370010 14402 net.cpp:148] Top shape: 24 256 28 28 (4816896)
I0403 15:47:03.370028 14402 net.cpp:148] Top shape: 24 256 28 28 (4816896)
I0403 15:47:03.370041 14402 net.cpp:156] Memory required for data: 657507360
I0403 15:47:03.370057 14402 layer_factory.hpp:77] Creating layer inception_3b/1x1
I0403 15:47:03.370079 14402 net.cpp:91] Creating Layer inception_3b/1x1
I0403 15:47:03.370098 14402 net.cpp:425] inception_3b/1x1 <- inception_3a/output_inception_3a/output_0_split_0
I0403 15:47:03.370120 14402 net.cpp:399] inception_3b/1x1 -> inception_3b/1x1
I0403 15:47:03.371314 14402 net.cpp:141] Setting up inception_3b/1x1
I0403 15:47:03.371356 14402 net.cpp:148] Top shape: 24 128 28 28 (2408448)
I0403 15:47:03.371373 14402 net.cpp:156] Memory required for data: 667141152
I0403 15:47:03.371392 14402 layer_factory.hpp:77] Creating layer inception_3b/relu_1x1
I0403 15:47:03.371415 14402 net.cpp:91] Creating Layer inception_3b/relu_1x1
I0403 15:47:03.371434 14402 net.cpp:425] inception_3b/relu_1x1 <- inception_3b/1x1
I0403 15:47:03.371454 14402 net.cpp:386] inception_3b/relu_1x1 -> inception_3b/1x1 (in-place)
I0403 15:47:03.371636 14402 net.cpp:141] Setting up inception_3b/relu_1x1
I0403 15:47:03.371662 14402 net.cpp:148] Top shape: 24 128 28 28 (2408448)
I0403 15:47:03.371678 14402 net.cpp:156] Memory required for data: 676774944
I0403 15:47:03.371693 14402 layer_factory.hpp:77] Creating layer inception_3b/3x3_reduce
I0403 15:47:03.371718 14402 net.cpp:91] Creating Layer inception_3b/3x3_reduce
I0403 15:47:03.371738 14402 net.cpp:425] inception_3b/3x3_reduce <- inception_3a/output_inception_3a/output_0_split_1
I0403 15:47:03.371758 14402 net.cpp:399] inception_3b/3x3_reduce -> inception_3b/3x3_reduce
I0403 15:47:03.372941 14402 net.cpp:141] Setting up inception_3b/3x3_reduce
I0403 15:47:03.372970 14402 net.cpp:148] Top shape: 24 128 28 28 (2408448)
I0403 15:47:03.372987 14402 net.cpp:156] Memory required for data: 686408736
I0403 15:47:03.373006 14402 layer_factory.hpp:77] Creating layer inception_3b/relu_3x3_reduce
I0403 15:47:03.373028 14402 net.cpp:91] Creating Layer inception_3b/relu_3x3_reduce
I0403 15:47:03.373047 14402 net.cpp:425] inception_3b/relu_3x3_reduce <- inception_3b/3x3_reduce
I0403 15:47:03.373066 14402 net.cpp:386] inception_3b/relu_3x3_reduce -> inception_3b/3x3_reduce (in-place)
I0403 15:47:03.373265 14402 net.cpp:141] Setting up inception_3b/relu_3x3_reduce
I0403 15:47:03.373294 14402 net.cpp:148] Top shape: 24 128 28 28 (2408448)
I0403 15:47:03.373311 14402 net.cpp:156] Memory required for data: 696042528
I0403 15:47:03.373327 14402 layer_factory.hpp:77] Creating layer inception_3b/3x3
I0403 15:47:03.373353 14402 net.cpp:91] Creating Layer inception_3b/3x3
I0403 15:47:03.373373 14402 net.cpp:425] inception_3b/3x3 <- inception_3b/3x3_reduce
I0403 15:47:03.373395 14402 net.cpp:399] inception_3b/3x3 -> inception_3b/3x3
I0403 15:47:03.376451 14402 net.cpp:141] Setting up inception_3b/3x3
I0403 15:47:03.376483 14402 net.cpp:148] Top shape: 24 192 28 28 (3612672)
I0403 15:47:03.376500 14402 net.cpp:156] Memory required for data: 710493216
I0403 15:47:03.376520 14402 layer_factory.hpp:77] Creating layer inception_3b/relu_3x3
I0403 15:47:03.376541 14402 net.cpp:91] Creating Layer inception_3b/relu_3x3
I0403 15:47:03.376560 14402 net.cpp:425] inception_3b/relu_3x3 <- inception_3b/3x3
I0403 15:47:03.376580 14402 net.cpp:386] inception_3b/relu_3x3 -> inception_3b/3x3 (in-place)
I0403 15:47:03.376874 14402 net.cpp:141] Setting up inception_3b/relu_3x3
I0403 15:47:03.376904 14402 net.cpp:148] Top shape: 24 192 28 28 (3612672)
I0403 15:47:03.376919 14402 net.cpp:156] Memory required for data: 724943904
I0403 15:47:03.376935 14402 layer_factory.hpp:77] Creating layer inception_3b/5x5_reduce
I0403 15:47:03.376960 14402 net.cpp:91] Creating Layer inception_3b/5x5_reduce
I0403 15:47:03.376981 14402 net.cpp:425] inception_3b/5x5_reduce <- inception_3a/output_inception_3a/output_0_split_2
I0403 15:47:03.377001 14402 net.cpp:399] inception_3b/5x5_reduce -> inception_3b/5x5_reduce
I0403 15:47:03.378054 14402 net.cpp:141] Setting up inception_3b/5x5_reduce
I0403 15:47:03.378085 14402 net.cpp:148] Top shape: 24 32 28 28 (602112)
I0403 15:47:03.378103 14402 net.cpp:156] Memory required for data: 727352352
I0403 15:47:03.378121 14402 layer_factory.hpp:77] Creating layer inception_3b/relu_5x5_reduce
I0403 15:47:03.378149 14402 net.cpp:91] Creating Layer inception_3b/relu_5x5_reduce
I0403 15:47:03.378168 14402 net.cpp:425] inception_3b/relu_5x5_reduce <- inception_3b/5x5_reduce
I0403 15:47:03.378187 14402 net.cpp:386] inception_3b/relu_5x5_reduce -> inception_3b/5x5_reduce (in-place)
I0403 15:47:03.378377 14402 net.cpp:141] Setting up inception_3b/relu_5x5_reduce
I0403 15:47:03.378417 14402 net.cpp:148] Top shape: 24 32 28 28 (602112)
I0403 15:47:03.378432 14402 net.cpp:156] Memory required for data: 729760800
I0403 15:47:03.378448 14402 layer_factory.hpp:77] Creating layer inception_3b/5x5
I0403 15:47:03.378473 14402 net.cpp:91] Creating Layer inception_3b/5x5
I0403 15:47:03.378490 14402 net.cpp:425] inception_3b/5x5 <- inception_3b/5x5_reduce
I0403 15:47:03.378514 14402 net.cpp:399] inception_3b/5x5 -> inception_3b/5x5
I0403 15:47:03.380583 14402 net.cpp:141] Setting up inception_3b/5x5
I0403 15:47:03.380614 14402 net.cpp:148] Top shape: 24 96 28 28 (1806336)
I0403 15:47:03.380631 14402 net.cpp:156] Memory required for data: 736986144
I0403 15:47:03.380650 14402 layer_factory.hpp:77] Creating layer inception_3b/relu_5x5
I0403 15:47:03.380671 14402 net.cpp:91] Creating Layer inception_3b/relu_5x5
I0403 15:47:03.380691 14402 net.cpp:425] inception_3b/relu_5x5 <- inception_3b/5x5
I0403 15:47:03.380708 14402 net.cpp:386] inception_3b/relu_5x5 -> inception_3b/5x5 (in-place)
I0403 15:47:03.380911 14402 net.cpp:141] Setting up inception_3b/relu_5x5
I0403 15:47:03.380939 14402 net.cpp:148] Top shape: 24 96 28 28 (1806336)
I0403 15:47:03.380954 14402 net.cpp:156] Memory required for data: 744211488
I0403 15:47:03.380970 14402 layer_factory.hpp:77] Creating layer inception_3b/pool
I0403 15:47:03.380997 14402 net.cpp:91] Creating Layer inception_3b/pool
I0403 15:47:03.381014 14402 net.cpp:425] inception_3b/pool <- inception_3a/output_inception_3a/output_0_split_3
I0403 15:47:03.381033 14402 net.cpp:399] inception_3b/pool -> inception_3b/pool
I0403 15:47:03.381091 14402 net.cpp:141] Setting up inception_3b/pool
I0403 15:47:03.381116 14402 net.cpp:148] Top shape: 24 256 28 28 (4816896)
I0403 15:47:03.381139 14402 net.cpp:156] Memory required for data: 763479072
I0403 15:47:03.381155 14402 layer_factory.hpp:77] Creating layer inception_3b/pool_proj
I0403 15:47:03.381178 14402 net.cpp:91] Creating Layer inception_3b/pool_proj
I0403 15:47:03.381197 14402 net.cpp:425] inception_3b/pool_proj <- inception_3b/pool
I0403 15:47:03.381219 14402 net.cpp:399] inception_3b/pool_proj -> inception_3b/pool_proj
I0403 15:47:03.382309 14402 net.cpp:141] Setting up inception_3b/pool_proj
I0403 15:47:03.382339 14402 net.cpp:148] Top shape: 24 64 28 28 (1204224)
I0403 15:47:03.382365 14402 net.cpp:156] Memory required for data: 768295968
I0403 15:47:03.382385 14402 layer_factory.hpp:77] Creating layer inception_3b/relu_pool_proj
I0403 15:47:03.382402 14402 net.cpp:91] Creating Layer inception_3b/relu_pool_proj
I0403 15:47:03.382418 14402 net.cpp:425] inception_3b/relu_pool_proj <- inception_3b/pool_proj
I0403 15:47:03.382438 14402 net.cpp:386] inception_3b/relu_pool_proj -> inception_3b/pool_proj (in-place)
I0403 15:47:03.382841 14402 net.cpp:141] Setting up inception_3b/relu_pool_proj
I0403 15:47:03.382870 14402 net.cpp:148] Top shape: 24 64 28 28 (1204224)
I0403 15:47:03.382887 14402 net.cpp:156] Memory required for data: 773112864
I0403 15:47:03.382904 14402 layer_factory.hpp:77] Creating layer inception_3b/output
I0403 15:47:03.382920 14402 net.cpp:91] Creating Layer inception_3b/output
I0403 15:47:03.382936 14402 net.cpp:425] inception_3b/output <- inception_3b/1x1
I0403 15:47:03.382951 14402 net.cpp:425] inception_3b/output <- inception_3b/3x3
I0403 15:47:03.382968 14402 net.cpp:425] inception_3b/output <- inception_3b/5x5
I0403 15:47:03.382984 14402 net.cpp:425] inception_3b/output <- inception_3b/pool_proj
I0403 15:47:03.383004 14402 net.cpp:399] inception_3b/output -> inception_3b/output
I0403 15:47:03.383049 14402 net.cpp:141] Setting up inception_3b/output
I0403 15:47:03.383071 14402 net.cpp:148] Top shape: 24 480 28 28 (9031680)
I0403 15:47:03.383086 14402 net.cpp:156] Memory required for data: 809239584
I0403 15:47:03.383101 14402 layer_factory.hpp:77] Creating layer pool3/3x3_s2
I0403 15:47:03.383122 14402 net.cpp:91] Creating Layer pool3/3x3_s2
I0403 15:47:03.383152 14402 net.cpp:425] pool3/3x3_s2 <- inception_3b/output
I0403 15:47:03.383172 14402 net.cpp:399] pool3/3x3_s2 -> pool3/3x3_s2
I0403 15:47:03.383245 14402 net.cpp:141] Setting up pool3/3x3_s2
I0403 15:47:03.383270 14402 net.cpp:148] Top shape: 24 480 14 14 (2257920)
I0403 15:47:03.383285 14402 net.cpp:156] Memory required for data: 818271264
I0403 15:47:03.383299 14402 layer_factory.hpp:77] Creating layer pool3/3x3_s2_pool3/3x3_s2_0_split
I0403 15:47:03.383316 14402 net.cpp:91] Creating Layer pool3/3x3_s2_pool3/3x3_s2_0_split
I0403 15:47:03.383332 14402 net.cpp:425] pool3/3x3_s2_pool3/3x3_s2_0_split <- pool3/3x3_s2
I0403 15:47:03.383352 14402 net.cpp:399] pool3/3x3_s2_pool3/3x3_s2_0_split -> pool3/3x3_s2_pool3/3x3_s2_0_split_0
I0403 15:47:03.383373 14402 net.cpp:399] pool3/3x3_s2_pool3/3x3_s2_0_split -> pool3/3x3_s2_pool3/3x3_s2_0_split_1
I0403 15:47:03.383394 14402 net.cpp:399] pool3/3x3_s2_pool3/3x3_s2_0_split -> pool3/3x3_s2_pool3/3x3_s2_0_split_2
I0403 15:47:03.383412 14402 net.cpp:399] pool3/3x3_s2_pool3/3x3_s2_0_split -> pool3/3x3_s2_pool3/3x3_s2_0_split_3
I0403 15:47:03.383488 14402 net.cpp:141] Setting up pool3/3x3_s2_pool3/3x3_s2_0_split
I0403 15:47:03.383513 14402 net.cpp:148] Top shape: 24 480 14 14 (2257920)
I0403 15:47:03.383528 14402 net.cpp:148] Top shape: 24 480 14 14 (2257920)
I0403 15:47:03.383543 14402 net.cpp:148] Top shape: 24 480 14 14 (2257920)
I0403 15:47:03.383558 14402 net.cpp:148] Top shape: 24 480 14 14 (2257920)
I0403 15:47:03.383571 14402 net.cpp:156] Memory required for data: 854397984
I0403 15:47:03.383586 14402 layer_factory.hpp:77] Creating layer inception_4a/1x1
I0403 15:47:03.383610 14402 net.cpp:91] Creating Layer inception_4a/1x1
I0403 15:47:03.383626 14402 net.cpp:425] inception_4a/1x1 <- pool3/3x3_s2_pool3/3x3_s2_0_split_0
I0403 15:47:03.383651 14402 net.cpp:399] inception_4a/1x1 -> inception_4a/1x1
I0403 15:47:03.385205 14402 net.cpp:141] Setting up inception_4a/1x1
I0403 15:47:03.385232 14402 net.cpp:148] Top shape: 24 192 14 14 (903168)
I0403 15:47:03.385248 14402 net.cpp:156] Memory required for data: 858010656
I0403 15:47:03.385267 14402 layer_factory.hpp:77] Creating layer inception_4a/relu_1x1
I0403 15:47:03.385285 14402 net.cpp:91] Creating Layer inception_4a/relu_1x1
I0403 15:47:03.385301 14402 net.cpp:425] inception_4a/relu_1x1 <- inception_4a/1x1
I0403 15:47:03.385323 14402 net.cpp:386] inception_4a/relu_1x1 -> inception_4a/1x1 (in-place)
I0403 15:47:03.385499 14402 net.cpp:141] Setting up inception_4a/relu_1x1
I0403 15:47:03.385525 14402 net.cpp:148] Top shape: 24 192 14 14 (903168)
I0403 15:47:03.385540 14402 net.cpp:156] Memory required for data: 861623328
I0403 15:47:03.385556 14402 layer_factory.hpp:77] Creating layer inception_4a/3x3_reduce
I0403 15:47:03.385578 14402 net.cpp:91] Creating Layer inception_4a/3x3_reduce
I0403 15:47:03.385596 14402 net.cpp:425] inception_4a/3x3_reduce <- pool3/3x3_s2_pool3/3x3_s2_0_split_1
I0403 15:47:03.385618 14402 net.cpp:399] inception_4a/3x3_reduce -> inception_4a/3x3_reduce
I0403 15:47:03.386915 14402 net.cpp:141] Setting up inception_4a/3x3_reduce
I0403 15:47:03.386943 14402 net.cpp:148] Top shape: 24 96 14 14 (451584)
I0403 15:47:03.386960 14402 net.cpp:156] Memory required for data: 863429664
I0403 15:47:03.386986 14402 layer_factory.hpp:77] Creating layer inception_4a/relu_3x3_reduce
I0403 15:47:03.387006 14402 net.cpp:91] Creating Layer inception_4a/relu_3x3_reduce
I0403 15:47:03.387022 14402 net.cpp:425] inception_4a/relu_3x3_reduce <- inception_4a/3x3_reduce
I0403 15:47:03.387042 14402 net.cpp:386] inception_4a/relu_3x3_reduce -> inception_4a/3x3_reduce (in-place)
I0403 15:47:03.387222 14402 net.cpp:141] Setting up inception_4a/relu_3x3_reduce
I0403 15:47:03.387248 14402 net.cpp:148] Top shape: 24 96 14 14 (451584)
I0403 15:47:03.387262 14402 net.cpp:156] Memory required for data: 865236000
I0403 15:47:03.387277 14402 layer_factory.hpp:77] Creating layer inception_4a/3x3
I0403 15:47:03.387300 14402 net.cpp:91] Creating Layer inception_4a/3x3
I0403 15:47:03.387318 14402 net.cpp:425] inception_4a/3x3 <- inception_4a/3x3_reduce
I0403 15:47:03.387339 14402 net.cpp:399] inception_4a/3x3 -> inception_4a/3x3
I0403 15:47:03.389981 14402 net.cpp:141] Setting up inception_4a/3x3
I0403 15:47:03.390012 14402 net.cpp:148] Top shape: 24 208 14 14 (978432)
I0403 15:47:03.390027 14402 net.cpp:156] Memory required for data: 869149728
I0403 15:47:03.390046 14402 layer_factory.hpp:77] Creating layer inception_4a/relu_3x3
I0403 15:47:03.390066 14402 net.cpp:91] Creating Layer inception_4a/relu_3x3
I0403 15:47:03.390084 14402 net.cpp:425] inception_4a/relu_3x3 <- inception_4a/3x3
I0403 15:47:03.390103 14402 net.cpp:386] inception_4a/relu_3x3 -> inception_4a/3x3 (in-place)
I0403 15:47:03.390393 14402 net.cpp:141] Setting up inception_4a/relu_3x3
I0403 15:47:03.390420 14402 net.cpp:148] Top shape: 24 208 14 14 (978432)
I0403 15:47:03.390435 14402 net.cpp:156] Memory required for data: 873063456
I0403 15:47:03.390450 14402 layer_factory.hpp:77] Creating layer inception_4a/5x5_reduce
I0403 15:47:03.390473 14402 net.cpp:91] Creating Layer inception_4a/5x5_reduce
I0403 15:47:03.390491 14402 net.cpp:425] inception_4a/5x5_reduce <- pool3/3x3_s2_pool3/3x3_s2_0_split_2
I0403 15:47:03.390516 14402 net.cpp:399] inception_4a/5x5_reduce -> inception_4a/5x5_reduce
I0403 15:47:03.391540 14402 net.cpp:141] Setting up inception_4a/5x5_reduce
I0403 15:47:03.391567 14402 net.cpp:148] Top shape: 24 16 14 14 (75264)
I0403 15:47:03.391582 14402 net.cpp:156] Memory required for data: 873364512
I0403 15:47:03.391600 14402 layer_factory.hpp:77] Creating layer inception_4a/relu_5x5_reduce
I0403 15:47:03.391620 14402 net.cpp:91] Creating Layer inception_4a/relu_5x5_reduce
I0403 15:47:03.391638 14402 net.cpp:425] inception_4a/relu_5x5_reduce <- inception_4a/5x5_reduce
I0403 15:47:03.391655 14402 net.cpp:386] inception_4a/relu_5x5_reduce -> inception_4a/5x5_reduce (in-place)
I0403 15:47:03.391830 14402 net.cpp:141] Setting up inception_4a/relu_5x5_reduce
I0403 15:47:03.391858 14402 net.cpp:148] Top shape: 24 16 14 14 (75264)
I0403 15:47:03.391873 14402 net.cpp:156] Memory required for data: 873665568
I0403 15:47:03.391887 14402 layer_factory.hpp:77] Creating layer inception_4a/5x5
I0403 15:47:03.391909 14402 net.cpp:91] Creating Layer inception_4a/5x5
I0403 15:47:03.391927 14402 net.cpp:425] inception_4a/5x5 <- inception_4a/5x5_reduce
I0403 15:47:03.391952 14402 net.cpp:399] inception_4a/5x5 -> inception_4a/5x5
I0403 15:47:03.393066 14402 net.cpp:141] Setting up inception_4a/5x5
I0403 15:47:03.393097 14402 net.cpp:148] Top shape: 24 48 14 14 (225792)
I0403 15:47:03.393115 14402 net.cpp:156] Memory required for data: 874568736
I0403 15:47:03.393146 14402 layer_factory.hpp:77] Creating layer inception_4a/relu_5x5
I0403 15:47:03.393169 14402 net.cpp:91] Creating Layer inception_4a/relu_5x5
I0403 15:47:03.393187 14402 net.cpp:425] inception_4a/relu_5x5 <- inception_4a/5x5
I0403 15:47:03.393206 14402 net.cpp:386] inception_4a/relu_5x5 -> inception_4a/5x5 (in-place)
I0403 15:47:03.393381 14402 net.cpp:141] Setting up inception_4a/relu_5x5
I0403 15:47:03.393407 14402 net.cpp:148] Top shape: 24 48 14 14 (225792)
I0403 15:47:03.393421 14402 net.cpp:156] Memory required for data: 875471904
I0403 15:47:03.393437 14402 layer_factory.hpp:77] Creating layer inception_4a/pool
I0403 15:47:03.393455 14402 net.cpp:91] Creating Layer inception_4a/pool
I0403 15:47:03.393470 14402 net.cpp:425] inception_4a/pool <- pool3/3x3_s2_pool3/3x3_s2_0_split_3
I0403 15:47:03.393491 14402 net.cpp:399] inception_4a/pool -> inception_4a/pool
I0403 15:47:03.393553 14402 net.cpp:141] Setting up inception_4a/pool
I0403 15:47:03.393578 14402 net.cpp:148] Top shape: 24 480 14 14 (2257920)
I0403 15:47:03.393591 14402 net.cpp:156] Memory required for data: 884503584
I0403 15:47:03.393606 14402 layer_factory.hpp:77] Creating layer inception_4a/pool_proj
I0403 15:47:03.393630 14402 net.cpp:91] Creating Layer inception_4a/pool_proj
I0403 15:47:03.393648 14402 net.cpp:425] inception_4a/pool_proj <- inception_4a/pool
I0403 15:47:03.393667 14402 net.cpp:399] inception_4a/pool_proj -> inception_4a/pool_proj
I0403 15:47:03.394865 14402 net.cpp:141] Setting up inception_4a/pool_proj
I0403 15:47:03.394896 14402 net.cpp:148] Top shape: 24 64 14 14 (301056)
I0403 15:47:03.394925 14402 net.cpp:156] Memory required for data: 885707808
I0403 15:47:03.394947 14402 layer_factory.hpp:77] Creating layer inception_4a/relu_pool_proj
I0403 15:47:03.394965 14402 net.cpp:91] Creating Layer inception_4a/relu_pool_proj
I0403 15:47:03.394984 14402 net.cpp:425] inception_4a/relu_pool_proj <- inception_4a/pool_proj
I0403 15:47:03.395002 14402 net.cpp:386] inception_4a/relu_pool_proj -> inception_4a/pool_proj (in-place)
I0403 15:47:03.395308 14402 net.cpp:141] Setting up inception_4a/relu_pool_proj
I0403 15:47:03.395336 14402 net.cpp:148] Top shape: 24 64 14 14 (301056)
I0403 15:47:03.395351 14402 net.cpp:156] Memory required for data: 886912032
I0403 15:47:03.395367 14402 layer_factory.hpp:77] Creating layer inception_4a/output
I0403 15:47:03.395385 14402 net.cpp:91] Creating Layer inception_4a/output
I0403 15:47:03.395402 14402 net.cpp:425] inception_4a/output <- inception_4a/1x1
I0403 15:47:03.395418 14402 net.cpp:425] inception_4a/output <- inception_4a/3x3
I0403 15:47:03.395436 14402 net.cpp:425] inception_4a/output <- inception_4a/5x5
I0403 15:47:03.395452 14402 net.cpp:425] inception_4a/output <- inception_4a/pool_proj
I0403 15:47:03.395480 14402 net.cpp:399] inception_4a/output -> inception_4a/output
I0403 15:47:03.395525 14402 net.cpp:141] Setting up inception_4a/output
I0403 15:47:03.395555 14402 net.cpp:148] Top shape: 24 512 14 14 (2408448)
I0403 15:47:03.395572 14402 net.cpp:156] Memory required for data: 896545824
I0403 15:47:03.395588 14402 layer_factory.hpp:77] Creating layer inception_4a/output_inception_4a/output_0_split
I0403 15:47:03.395606 14402 net.cpp:91] Creating Layer inception_4a/output_inception_4a/output_0_split
I0403 15:47:03.395622 14402 net.cpp:425] inception_4a/output_inception_4a/output_0_split <- inception_4a/output
I0403 15:47:03.395643 14402 net.cpp:399] inception_4a/output_inception_4a/output_0_split -> inception_4a/output_inception_4a/output_0_split_0
I0403 15:47:03.395664 14402 net.cpp:399] inception_4a/output_inception_4a/output_0_split -> inception_4a/output_inception_4a/output_0_split_1
I0403 15:47:03.395687 14402 net.cpp:399] inception_4a/output_inception_4a/output_0_split -> inception_4a/output_inception_4a/output_0_split_2
I0403 15:47:03.395711 14402 net.cpp:399] inception_4a/output_inception_4a/output_0_split -> inception_4a/output_inception_4a/output_0_split_3
I0403 15:47:03.395732 14402 net.cpp:399] inception_4a/output_inception_4a/output_0_split -> inception_4a/output_inception_4a/output_0_split_4
I0403 15:47:03.395826 14402 net.cpp:141] Setting up inception_4a/output_inception_4a/output_0_split
I0403 15:47:03.395853 14402 net.cpp:148] Top shape: 24 512 14 14 (2408448)
I0403 15:47:03.395869 14402 net.cpp:148] Top shape: 24 512 14 14 (2408448)
I0403 15:47:03.395884 14402 net.cpp:148] Top shape: 24 512 14 14 (2408448)
I0403 15:47:03.395900 14402 net.cpp:148] Top shape: 24 512 14 14 (2408448)
I0403 15:47:03.395915 14402 net.cpp:148] Top shape: 24 512 14 14 (2408448)
I0403 15:47:03.395930 14402 net.cpp:156] Memory required for data: 944714784
I0403 15:47:03.395944 14402 layer_factory.hpp:77] Creating layer loss1/ave_pool
I0403 15:47:03.395968 14402 net.cpp:91] Creating Layer loss1/ave_pool
I0403 15:47:03.395987 14402 net.cpp:425] loss1/ave_pool <- inception_4a/output_inception_4a/output_0_split_0
I0403 15:47:03.396005 14402 net.cpp:399] loss1/ave_pool -> loss1/ave_pool
I0403 15:47:03.396219 14402 net.cpp:141] Setting up loss1/ave_pool
I0403 15:47:03.396246 14402 net.cpp:148] Top shape: 24 512 4 4 (196608)
I0403 15:47:03.396262 14402 net.cpp:156] Memory required for data: 945501216
I0403 15:47:03.396277 14402 layer_factory.hpp:77] Creating layer loss1/conv
I0403 15:47:03.396301 14402 net.cpp:91] Creating Layer loss1/conv
I0403 15:47:03.396320 14402 net.cpp:425] loss1/conv <- loss1/ave_pool
I0403 15:47:03.396342 14402 net.cpp:399] loss1/conv -> loss1/conv
I0403 15:47:03.397783 14402 net.cpp:141] Setting up loss1/conv
I0403 15:47:03.397814 14402 net.cpp:148] Top shape: 24 128 4 4 (49152)
I0403 15:47:03.397830 14402 net.cpp:156] Memory required for data: 945697824
I0403 15:47:03.397864 14402 layer_factory.hpp:77] Creating layer loss1/relu_conv
I0403 15:47:03.397887 14402 net.cpp:91] Creating Layer loss1/relu_conv
I0403 15:47:03.397904 14402 net.cpp:425] loss1/relu_conv <- loss1/conv
I0403 15:47:03.397922 14402 net.cpp:386] loss1/relu_conv -> loss1/conv (in-place)
I0403 15:47:03.398210 14402 net.cpp:141] Setting up loss1/relu_conv
I0403 15:47:03.398237 14402 net.cpp:148] Top shape: 24 128 4 4 (49152)
I0403 15:47:03.398252 14402 net.cpp:156] Memory required for data: 945894432
I0403 15:47:03.398268 14402 layer_factory.hpp:77] Creating layer loss1/fc
I0403 15:47:03.398294 14402 net.cpp:91] Creating Layer loss1/fc
I0403 15:47:03.398313 14402 net.cpp:425] loss1/fc <- loss1/conv
I0403 15:47:03.398335 14402 net.cpp:399] loss1/fc -> loss1/fc
I0403 15:47:03.416646 14402 net.cpp:141] Setting up loss1/fc
I0403 15:47:03.416681 14402 net.cpp:148] Top shape: 24 1024 (24576)
I0403 15:47:03.416697 14402 net.cpp:156] Memory required for data: 945992736
I0403 15:47:03.416715 14402 layer_factory.hpp:77] Creating layer loss1/relu_fc
I0403 15:47:03.416734 14402 net.cpp:91] Creating Layer loss1/relu_fc
I0403 15:47:03.416751 14402 net.cpp:425] loss1/relu_fc <- loss1/fc
I0403 15:47:03.416771 14402 net.cpp:386] loss1/relu_fc -> loss1/fc (in-place)
I0403 15:47:03.416962 14402 net.cpp:141] Setting up loss1/relu_fc
I0403 15:47:03.416988 14402 net.cpp:148] Top shape: 24 1024 (24576)
I0403 15:47:03.417003 14402 net.cpp:156] Memory required for data: 946091040
I0403 15:47:03.417017 14402 layer_factory.hpp:77] Creating layer loss1/drop_fc
I0403 15:47:03.417045 14402 net.cpp:91] Creating Layer loss1/drop_fc
I0403 15:47:03.417064 14402 net.cpp:425] loss1/drop_fc <- loss1/fc
I0403 15:47:03.417083 14402 net.cpp:386] loss1/drop_fc -> loss1/fc (in-place)
I0403 15:47:03.417137 14402 net.cpp:141] Setting up loss1/drop_fc
I0403 15:47:03.417166 14402 net.cpp:148] Top shape: 24 1024 (24576)
I0403 15:47:03.417183 14402 net.cpp:156] Memory required for data: 946189344
I0403 15:47:03.417199 14402 layer_factory.hpp:77] Creating layer loss1/classifier_plantvillage
I0403 15:47:03.417218 14402 net.cpp:91] Creating Layer loss1/classifier_plantvillage
I0403 15:47:03.417234 14402 net.cpp:425] loss1/classifier_plantvillage <- loss1/fc
I0403 15:47:03.417256 14402 net.cpp:399] loss1/classifier_plantvillage -> loss1/classifier_plantvillage
I0403 15:47:03.418159 14402 net.cpp:141] Setting up loss1/classifier_plantvillage
I0403 15:47:03.418186 14402 net.cpp:148] Top shape: 24 38 (912)
I0403 15:47:03.418202 14402 net.cpp:156] Memory required for data: 946192992
I0403 15:47:03.418220 14402 layer_factory.hpp:77] Creating layer loss1/classifier_plantvillage_loss1/classifier_plantvillage_0_split
I0403 15:47:03.418238 14402 net.cpp:91] Creating Layer loss1/classifier_plantvillage_loss1/classifier_plantvillage_0_split
I0403 15:47:03.418254 14402 net.cpp:425] loss1/classifier_plantvillage_loss1/classifier_plantvillage_0_split <- loss1/classifier_plantvillage
I0403 15:47:03.418275 14402 net.cpp:399] loss1/classifier_plantvillage_loss1/classifier_plantvillage_0_split -> loss1/classifier_plantvillage_loss1/classifier_plantvillage_0_split_0
I0403 15:47:03.418298 14402 net.cpp:399] loss1/classifier_plantvillage_loss1/classifier_plantvillage_0_split -> loss1/classifier_plantvillage_loss1/classifier_plantvillage_0_split_1
I0403 15:47:03.418318 14402 net.cpp:399] loss1/classifier_plantvillage_loss1/classifier_plantvillage_0_split -> loss1/classifier_plantvillage_loss1/classifier_plantvillage_0_split_2
I0403 15:47:03.418401 14402 net.cpp:141] Setting up loss1/classifier_plantvillage_loss1/classifier_plantvillage_0_split
I0403 15:47:03.418426 14402 net.cpp:148] Top shape: 24 38 (912)
I0403 15:47:03.418442 14402 net.cpp:148] Top shape: 24 38 (912)
I0403 15:47:03.418458 14402 net.cpp:148] Top shape: 24 38 (912)
I0403 15:47:03.418473 14402 net.cpp:156] Memory required for data: 946203936
I0403 15:47:03.418488 14402 layer_factory.hpp:77] Creating layer inception_4b/1x1
I0403 15:47:03.418510 14402 net.cpp:91] Creating Layer inception_4b/1x1
I0403 15:47:03.418548 14402 net.cpp:425] inception_4b/1x1 <- inception_4a/output_inception_4a/output_0_split_1
I0403 15:47:03.418570 14402 net.cpp:399] inception_4b/1x1 -> inception_4b/1x1
I0403 15:47:03.420281 14402 net.cpp:141] Setting up inception_4b/1x1
I0403 15:47:03.420310 14402 net.cpp:148] Top shape: 24 160 14 14 (752640)
I0403 15:47:03.420327 14402 net.cpp:156] Memory required for data: 949214496
I0403 15:47:03.420344 14402 layer_factory.hpp:77] Creating layer inception_4b/relu_1x1
I0403 15:47:03.420366 14402 net.cpp:91] Creating Layer inception_4b/relu_1x1
I0403 15:47:03.420383 14402 net.cpp:425] inception_4b/relu_1x1 <- inception_4b/1x1
I0403 15:47:03.420402 14402 net.cpp:386] inception_4b/relu_1x1 -> inception_4b/1x1 (in-place)
I0403 15:47:03.420579 14402 net.cpp:141] Setting up inception_4b/relu_1x1
I0403 15:47:03.420608 14402 net.cpp:148] Top shape: 24 160 14 14 (752640)
I0403 15:47:03.420624 14402 net.cpp:156] Memory required for data: 952225056
I0403 15:47:03.420639 14402 layer_factory.hpp:77] Creating layer inception_4b/3x3_reduce
I0403 15:47:03.420660 14402 net.cpp:91] Creating Layer inception_4b/3x3_reduce
I0403 15:47:03.420678 14402 net.cpp:425] inception_4b/3x3_reduce <- inception_4a/output_inception_4a/output_0_split_2
I0403 15:47:03.420698 14402 net.cpp:399] inception_4b/3x3_reduce -> inception_4b/3x3_reduce
I0403 15:47:03.422049 14402 net.cpp:141] Setting up inception_4b/3x3_reduce
I0403 15:47:03.422080 14402 net.cpp:148] Top shape: 24 112 14 14 (526848)
I0403 15:47:03.422096 14402 net.cpp:156] Memory required for data: 954332448
I0403 15:47:03.422116 14402 layer_factory.hpp:77] Creating layer inception_4b/relu_3x3_reduce
I0403 15:47:03.422139 14402 net.cpp:91] Creating Layer inception_4b/relu_3x3_reduce
I0403 15:47:03.422158 14402 net.cpp:425] inception_4b/relu_3x3_reduce <- inception_4b/3x3_reduce
I0403 15:47:03.422175 14402 net.cpp:386] inception_4b/relu_3x3_reduce -> inception_4b/3x3_reduce (in-place)
I0403 15:47:03.422473 14402 net.cpp:141] Setting up inception_4b/relu_3x3_reduce
I0403 15:47:03.422503 14402 net.cpp:148] Top shape: 24 112 14 14 (526848)
I0403 15:47:03.422520 14402 net.cpp:156] Memory required for data: 956439840
I0403 15:47:03.422536 14402 layer_factory.hpp:77] Creating layer inception_4b/3x3
I0403 15:47:03.422559 14402 net.cpp:91] Creating Layer inception_4b/3x3
I0403 15:47:03.422577 14402 net.cpp:425] inception_4b/3x3 <- inception_4b/3x3_reduce
I0403 15:47:03.422597 14402 net.cpp:399] inception_4b/3x3 -> inception_4b/3x3
I0403 15:47:03.425621 14402 net.cpp:141] Setting up inception_4b/3x3
I0403 15:47:03.425652 14402 net.cpp:148] Top shape: 24 224 14 14 (1053696)
I0403 15:47:03.425668 14402 net.cpp:156] Memory required for data: 960654624
I0403 15:47:03.425685 14402 layer_factory.hpp:77] Creating layer inception_4b/relu_3x3
I0403 15:47:03.425704 14402 net.cpp:91] Creating Layer inception_4b/relu_3x3
I0403 15:47:03.425719 14402 net.cpp:425] inception_4b/relu_3x3 <- inception_4b/3x3
I0403 15:47:03.425739 14402 net.cpp:386] inception_4b/relu_3x3 -> inception_4b/3x3 (in-place)
I0403 15:47:03.425920 14402 net.cpp:141] Setting up inception_4b/relu_3x3
I0403 15:47:03.425945 14402 net.cpp:148] Top shape: 24 224 14 14 (1053696)
I0403 15:47:03.425959 14402 net.cpp:156] Memory required for data: 964869408
I0403 15:47:03.425974 14402 layer_factory.hpp:77] Creating layer inception_4b/5x5_reduce
I0403 15:47:03.425997 14402 net.cpp:91] Creating Layer inception_4b/5x5_reduce
I0403 15:47:03.426015 14402 net.cpp:425] inception_4b/5x5_reduce <- inception_4a/output_inception_4a/output_0_split_3
I0403 15:47:03.426038 14402 net.cpp:399] inception_4b/5x5_reduce -> inception_4b/5x5_reduce
I0403 15:47:03.427198 14402 net.cpp:141] Setting up inception_4b/5x5_reduce
I0403 15:47:03.427230 14402 net.cpp:148] Top shape: 24 24 14 14 (112896)
I0403 15:47:03.427248 14402 net.cpp:156] Memory required for data: 965320992
I0403 15:47:03.427268 14402 layer_factory.hpp:77] Creating layer inception_4b/relu_5x5_reduce
I0403 15:47:03.427287 14402 net.cpp:91] Creating Layer inception_4b/relu_5x5_reduce
I0403 15:47:03.427320 14402 net.cpp:425] inception_4b/relu_5x5_reduce <- inception_4b/5x5_reduce
I0403 15:47:03.427338 14402 net.cpp:386] inception_4b/relu_5x5_reduce -> inception_4b/5x5_reduce (in-place)
I0403 15:47:03.427527 14402 net.cpp:141] Setting up inception_4b/relu_5x5_reduce
I0403 15:47:03.427556 14402 net.cpp:148] Top shape: 24 24 14 14 (112896)
I0403 15:47:03.427572 14402 net.cpp:156] Memory required for data: 965772576
I0403 15:47:03.427587 14402 layer_factory.hpp:77] Creating layer inception_4b/5x5
I0403 15:47:03.427611 14402 net.cpp:91] Creating Layer inception_4b/5x5
I0403 15:47:03.427629 14402 net.cpp:425] inception_4b/5x5 <- inception_4b/5x5_reduce
I0403 15:47:03.427652 14402 net.cpp:399] inception_4b/5x5 -> inception_4b/5x5
I0403 15:47:03.428905 14402 net.cpp:141] Setting up inception_4b/5x5
I0403 15:47:03.428936 14402 net.cpp:148] Top shape: 24 64 14 14 (301056)
I0403 15:47:03.428951 14402 net.cpp:156] Memory required for data: 966976800
I0403 15:47:03.428971 14402 layer_factory.hpp:77] Creating layer inception_4b/relu_5x5
I0403 15:47:03.428990 14402 net.cpp:91] Creating Layer inception_4b/relu_5x5
I0403 15:47:03.429008 14402 net.cpp:425] inception_4b/relu_5x5 <- inception_4b/5x5
I0403 15:47:03.429025 14402 net.cpp:386] inception_4b/relu_5x5 -> inception_4b/5x5 (in-place)
I0403 15:47:03.429318 14402 net.cpp:141] Setting up inception_4b/relu_5x5
I0403 15:47:03.429347 14402 net.cpp:148] Top shape: 24 64 14 14 (301056)
I0403 15:47:03.429363 14402 net.cpp:156] Memory required for data: 968181024
I0403 15:47:03.429379 14402 layer_factory.hpp:77] Creating layer inception_4b/pool
I0403 15:47:03.429404 14402 net.cpp:91] Creating Layer inception_4b/pool
I0403 15:47:03.429422 14402 net.cpp:425] inception_4b/pool <- inception_4a/output_inception_4a/output_0_split_4
I0403 15:47:03.429441 14402 net.cpp:399] inception_4b/pool -> inception_4b/pool
I0403 15:47:03.429508 14402 net.cpp:141] Setting up inception_4b/pool
I0403 15:47:03.429533 14402 net.cpp:148] Top shape: 24 512 14 14 (2408448)
I0403 15:47:03.429549 14402 net.cpp:156] Memory required for data: 977814816
I0403 15:47:03.429565 14402 layer_factory.hpp:77] Creating layer inception_4b/pool_proj
I0403 15:47:03.429589 14402 net.cpp:91] Creating Layer inception_4b/pool_proj
I0403 15:47:03.429608 14402 net.cpp:425] inception_4b/pool_proj <- inception_4b/pool
I0403 15:47:03.429630 14402 net.cpp:399] inception_4b/pool_proj -> inception_4b/pool_proj
I0403 15:47:03.430886 14402 net.cpp:141] Setting up inception_4b/pool_proj
I0403 15:47:03.430915 14402 net.cpp:148] Top shape: 24 64 14 14 (301056)
I0403 15:47:03.430932 14402 net.cpp:156] Memory required for data: 979019040
I0403 15:47:03.430949 14402 layer_factory.hpp:77] Creating layer inception_4b/relu_pool_proj
I0403 15:47:03.430970 14402 net.cpp:91] Creating Layer inception_4b/relu_pool_proj
I0403 15:47:03.430989 14402 net.cpp:425] inception_4b/relu_pool_proj <- inception_4b/pool_proj
I0403 15:47:03.431006 14402 net.cpp:386] inception_4b/relu_pool_proj -> inception_4b/pool_proj (in-place)
I0403 15:47:03.431196 14402 net.cpp:141] Setting up inception_4b/relu_pool_proj
I0403 15:47:03.431223 14402 net.cpp:148] Top shape: 24 64 14 14 (301056)
I0403 15:47:03.431237 14402 net.cpp:156] Memory required for data: 980223264
I0403 15:47:03.431252 14402 layer_factory.hpp:77] Creating layer inception_4b/output
I0403 15:47:03.431272 14402 net.cpp:91] Creating Layer inception_4b/output
I0403 15:47:03.431288 14402 net.cpp:425] inception_4b/output <- inception_4b/1x1
I0403 15:47:03.431304 14402 net.cpp:425] inception_4b/output <- inception_4b/3x3
I0403 15:47:03.431320 14402 net.cpp:425] inception_4b/output <- inception_4b/5x5
I0403 15:47:03.431337 14402 net.cpp:425] inception_4b/output <- inception_4b/pool_proj
I0403 15:47:03.431357 14402 net.cpp:399] inception_4b/output -> inception_4b/output
I0403 15:47:03.431404 14402 net.cpp:141] Setting up inception_4b/output
I0403 15:47:03.431432 14402 net.cpp:148] Top shape: 24 512 14 14 (2408448)
I0403 15:47:03.431448 14402 net.cpp:156] Memory required for data: 989857056
I0403 15:47:03.431483 14402 layer_factory.hpp:77] Creating layer inception_4b/output_inception_4b/output_0_split
I0403 15:47:03.431502 14402 net.cpp:91] Creating Layer inception_4b/output_inception_4b/output_0_split
I0403 15:47:03.431517 14402 net.cpp:425] inception_4b/output_inception_4b/output_0_split <- inception_4b/output
I0403 15:47:03.431535 14402 net.cpp:399] inception_4b/output_inception_4b/output_0_split -> inception_4b/output_inception_4b/output_0_split_0
I0403 15:47:03.431556 14402 net.cpp:399] inception_4b/output_inception_4b/output_0_split -> inception_4b/output_inception_4b/output_0_split_1
I0403 15:47:03.431581 14402 net.cpp:399] inception_4b/output_inception_4b/output_0_split -> inception_4b/output_inception_4b/output_0_split_2
I0403 15:47:03.431605 14402 net.cpp:399] inception_4b/output_inception_4b/output_0_split -> inception_4b/output_inception_4b/output_0_split_3
I0403 15:47:03.431692 14402 net.cpp:141] Setting up inception_4b/output_inception_4b/output_0_split
I0403 15:47:03.431717 14402 net.cpp:148] Top shape: 24 512 14 14 (2408448)
I0403 15:47:03.431735 14402 net.cpp:148] Top shape: 24 512 14 14 (2408448)
I0403 15:47:03.431749 14402 net.cpp:148] Top shape: 24 512 14 14 (2408448)
I0403 15:47:03.431766 14402 net.cpp:148] Top shape: 24 512 14 14 (2408448)
I0403 15:47:03.431779 14402 net.cpp:156] Memory required for data: 1028392224
I0403 15:47:03.431794 14402 layer_factory.hpp:77] Creating layer inception_4c/1x1
I0403 15:47:03.431818 14402 net.cpp:91] Creating Layer inception_4c/1x1
I0403 15:47:03.431834 14402 net.cpp:425] inception_4c/1x1 <- inception_4b/output_inception_4b/output_0_split_0
I0403 15:47:03.431856 14402 net.cpp:399] inception_4c/1x1 -> inception_4c/1x1
I0403 15:47:03.433341 14402 net.cpp:141] Setting up inception_4c/1x1
I0403 15:47:03.433372 14402 net.cpp:148] Top shape: 24 128 14 14 (602112)
I0403 15:47:03.433388 14402 net.cpp:156] Memory required for data: 1030800672
I0403 15:47:03.433408 14402 layer_factory.hpp:77] Creating layer inception_4c/relu_1x1
I0403 15:47:03.433426 14402 net.cpp:91] Creating Layer inception_4c/relu_1x1
I0403 15:47:03.433444 14402 net.cpp:425] inception_4c/relu_1x1 <- inception_4c/1x1
I0403 15:47:03.433464 14402 net.cpp:386] inception_4c/relu_1x1 -> inception_4c/1x1 (in-place)
I0403 15:47:03.433650 14402 net.cpp:141] Setting up inception_4c/relu_1x1
I0403 15:47:03.433676 14402 net.cpp:148] Top shape: 24 128 14 14 (602112)
I0403 15:47:03.433691 14402 net.cpp:156] Memory required for data: 1033209120
I0403 15:47:03.433706 14402 layer_factory.hpp:77] Creating layer inception_4c/3x3_reduce
I0403 15:47:03.433729 14402 net.cpp:91] Creating Layer inception_4c/3x3_reduce
I0403 15:47:03.433748 14402 net.cpp:425] inception_4c/3x3_reduce <- inception_4b/output_inception_4b/output_0_split_1
I0403 15:47:03.433773 14402 net.cpp:399] inception_4c/3x3_reduce -> inception_4c/3x3_reduce
I0403 15:47:03.435786 14402 net.cpp:141] Setting up inception_4c/3x3_reduce
I0403 15:47:03.435816 14402 net.cpp:148] Top shape: 24 128 14 14 (602112)
I0403 15:47:03.435832 14402 net.cpp:156] Memory required for data: 1035617568
I0403 15:47:03.435850 14402 layer_factory.hpp:77] Creating layer inception_4c/relu_3x3_reduce
I0403 15:47:03.435873 14402 net.cpp:91] Creating Layer inception_4c/relu_3x3_reduce
I0403 15:47:03.435889 14402 net.cpp:425] inception_4c/relu_3x3_reduce <- inception_4c/3x3_reduce
I0403 15:47:03.435909 14402 net.cpp:386] inception_4c/relu_3x3_reduce -> inception_4c/3x3_reduce (in-place)
I0403 15:47:03.436203 14402 net.cpp:141] Setting up inception_4c/relu_3x3_reduce
I0403 15:47:03.436231 14402 net.cpp:148] Top shape: 24 128 14 14 (602112)
I0403 15:47:03.436246 14402 net.cpp:156] Memory required for data: 1038026016
I0403 15:47:03.436262 14402 layer_factory.hpp:77] Creating layer inception_4c/3x3
I0403 15:47:03.436285 14402 net.cpp:91] Creating Layer inception_4c/3x3
I0403 15:47:03.436305 14402 net.cpp:425] inception_4c/3x3 <- inception_4c/3x3_reduce
I0403 15:47:03.436327 14402 net.cpp:399] inception_4c/3x3 -> inception_4c/3x3
I0403 15:47:03.440073 14402 net.cpp:141] Setting up inception_4c/3x3
I0403 15:47:03.440116 14402 net.cpp:148] Top shape: 24 256 14 14 (1204224)
I0403 15:47:03.440138 14402 net.cpp:156] Memory required for data: 1042842912
I0403 15:47:03.440176 14402 layer_factory.hpp:77] Creating layer inception_4c/relu_3x3
I0403 15:47:03.440201 14402 net.cpp:91] Creating Layer inception_4c/relu_3x3
I0403 15:47:03.440219 14402 net.cpp:425] inception_4c/relu_3x3 <- inception_4c/3x3
I0403 15:47:03.440237 14402 net.cpp:386] inception_4c/relu_3x3 -> inception_4c/3x3 (in-place)
I0403 15:47:03.440425 14402 net.cpp:141] Setting up inception_4c/relu_3x3
I0403 15:47:03.440454 14402 net.cpp:148] Top shape: 24 256 14 14 (1204224)
I0403 15:47:03.440470 14402 net.cpp:156] Memory required for data: 1047659808
I0403 15:47:03.440485 14402 layer_factory.hpp:77] Creating layer inception_4c/5x5_reduce
I0403 15:47:03.440510 14402 net.cpp:91] Creating Layer inception_4c/5x5_reduce
I0403 15:47:03.440528 14402 net.cpp:425] inception_4c/5x5_reduce <- inception_4b/output_inception_4b/output_0_split_2
I0403 15:47:03.440548 14402 net.cpp:399] inception_4c/5x5_reduce -> inception_4c/5x5_reduce
I0403 15:47:03.441671 14402 net.cpp:141] Setting up inception_4c/5x5_reduce
I0403 15:47:03.441704 14402 net.cpp:148] Top shape: 24 24 14 14 (112896)
I0403 15:47:03.441720 14402 net.cpp:156] Memory required for data: 1048111392
I0403 15:47:03.441740 14402 layer_factory.hpp:77] Creating layer inception_4c/relu_5x5_reduce
I0403 15:47:03.441757 14402 net.cpp:91] Creating Layer inception_4c/relu_5x5_reduce
I0403 15:47:03.441773 14402 net.cpp:425] inception_4c/relu_5x5_reduce <- inception_4c/5x5_reduce
I0403 15:47:03.441790 14402 net.cpp:386] inception_4c/relu_5x5_reduce -> inception_4c/5x5_reduce (in-place)
I0403 15:47:03.441982 14402 net.cpp:141] Setting up inception_4c/relu_5x5_reduce
I0403 15:47:03.442011 14402 net.cpp:148] Top shape: 24 24 14 14 (112896)
I0403 15:47:03.442028 14402 net.cpp:156] Memory required for data: 1048562976
I0403 15:47:03.442044 14402 layer_factory.hpp:77] Creating layer inception_4c/5x5
I0403 15:47:03.442066 14402 net.cpp:91] Creating Layer inception_4c/5x5
I0403 15:47:03.442085 14402 net.cpp:425] inception_4c/5x5 <- inception_4c/5x5_reduce
I0403 15:47:03.442106 14402 net.cpp:399] inception_4c/5x5 -> inception_4c/5x5
I0403 15:47:03.443436 14402 net.cpp:141] Setting up inception_4c/5x5
I0403 15:47:03.443465 14402 net.cpp:148] Top shape: 24 64 14 14 (301056)
I0403 15:47:03.443481 14402 net.cpp:156] Memory required for data: 1049767200
I0403 15:47:03.443500 14402 layer_factory.hpp:77] Creating layer inception_4c/relu_5x5
I0403 15:47:03.443518 14402 net.cpp:91] Creating Layer inception_4c/relu_5x5
I0403 15:47:03.443534 14402 net.cpp:425] inception_4c/relu_5x5 <- inception_4c/5x5
I0403 15:47:03.443554 14402 net.cpp:386] inception_4c/relu_5x5 -> inception_4c/5x5 (in-place)
I0403 15:47:03.443855 14402 net.cpp:141] Setting up inception_4c/relu_5x5
I0403 15:47:03.443883 14402 net.cpp:148] Top shape: 24 64 14 14 (301056)
I0403 15:47:03.443897 14402 net.cpp:156] Memory required for data: 1050971424
I0403 15:47:03.443913 14402 layer_factory.hpp:77] Creating layer inception_4c/pool
I0403 15:47:03.443933 14402 net.cpp:91] Creating Layer inception_4c/pool
I0403 15:47:03.443949 14402 net.cpp:425] inception_4c/pool <- inception_4b/output_inception_4b/output_0_split_3
I0403 15:47:03.443970 14402 net.cpp:399] inception_4c/pool -> inception_4c/pool
I0403 15:47:03.444039 14402 net.cpp:141] Setting up inception_4c/pool
I0403 15:47:03.444064 14402 net.cpp:148] Top shape: 24 512 14 14 (2408448)
I0403 15:47:03.444080 14402 net.cpp:156] Memory required for data: 1060605216
I0403 15:47:03.444094 14402 layer_factory.hpp:77] Creating layer inception_4c/pool_proj
I0403 15:47:03.444119 14402 net.cpp:91] Creating Layer inception_4c/pool_proj
I0403 15:47:03.444144 14402 net.cpp:425] inception_4c/pool_proj <- inception_4c/pool
I0403 15:47:03.444164 14402 net.cpp:399] inception_4c/pool_proj -> inception_4c/pool_proj
I0403 15:47:03.445435 14402 net.cpp:141] Setting up inception_4c/pool_proj
I0403 15:47:03.445463 14402 net.cpp:148] Top shape: 24 64 14 14 (301056)
I0403 15:47:03.445493 14402 net.cpp:156] Memory required for data: 1061809440
I0403 15:47:03.445513 14402 layer_factory.hpp:77] Creating layer inception_4c/relu_pool_proj
I0403 15:47:03.445533 14402 net.cpp:91] Creating Layer inception_4c/relu_pool_proj
I0403 15:47:03.445550 14402 net.cpp:425] inception_4c/relu_pool_proj <- inception_4c/pool_proj
I0403 15:47:03.445569 14402 net.cpp:386] inception_4c/relu_pool_proj -> inception_4c/pool_proj (in-place)
I0403 15:47:03.445754 14402 net.cpp:141] Setting up inception_4c/relu_pool_proj
I0403 15:47:03.445778 14402 net.cpp:148] Top shape: 24 64 14 14 (301056)
I0403 15:47:03.445793 14402 net.cpp:156] Memory required for data: 1063013664
I0403 15:47:03.445808 14402 layer_factory.hpp:77] Creating layer inception_4c/output
I0403 15:47:03.445825 14402 net.cpp:91] Creating Layer inception_4c/output
I0403 15:47:03.445842 14402 net.cpp:425] inception_4c/output <- inception_4c/1x1
I0403 15:47:03.445858 14402 net.cpp:425] inception_4c/output <- inception_4c/3x3
I0403 15:47:03.445874 14402 net.cpp:425] inception_4c/output <- inception_4c/5x5
I0403 15:47:03.445890 14402 net.cpp:425] inception_4c/output <- inception_4c/pool_proj
I0403 15:47:03.445909 14402 net.cpp:399] inception_4c/output -> inception_4c/output
I0403 15:47:03.445956 14402 net.cpp:141] Setting up inception_4c/output
I0403 15:47:03.445981 14402 net.cpp:148] Top shape: 24 512 14 14 (2408448)
I0403 15:47:03.445999 14402 net.cpp:156] Memory required for data: 1072647456
I0403 15:47:03.446014 14402 layer_factory.hpp:77] Creating layer inception_4c/output_inception_4c/output_0_split
I0403 15:47:03.446032 14402 net.cpp:91] Creating Layer inception_4c/output_inception_4c/output_0_split
I0403 15:47:03.446048 14402 net.cpp:425] inception_4c/output_inception_4c/output_0_split <- inception_4c/output
I0403 15:47:03.446063 14402 net.cpp:399] inception_4c/output_inception_4c/output_0_split -> inception_4c/output_inception_4c/output_0_split_0
I0403 15:47:03.446084 14402 net.cpp:399] inception_4c/output_inception_4c/output_0_split -> inception_4c/output_inception_4c/output_0_split_1
I0403 15:47:03.446105 14402 net.cpp:399] inception_4c/output_inception_4c/output_0_split -> inception_4c/output_inception_4c/output_0_split_2
I0403 15:47:03.446130 14402 net.cpp:399] inception_4c/output_inception_4c/output_0_split -> inception_4c/output_inception_4c/output_0_split_3
I0403 15:47:03.446223 14402 net.cpp:141] Setting up inception_4c/output_inception_4c/output_0_split
I0403 15:47:03.446247 14402 net.cpp:148] Top shape: 24 512 14 14 (2408448)
I0403 15:47:03.446264 14402 net.cpp:148] Top shape: 24 512 14 14 (2408448)
I0403 15:47:03.446280 14402 net.cpp:148] Top shape: 24 512 14 14 (2408448)
I0403 15:47:03.446295 14402 net.cpp:148] Top shape: 24 512 14 14 (2408448)
I0403 15:47:03.446307 14402 net.cpp:156] Memory required for data: 1111182624
I0403 15:47:03.446322 14402 layer_factory.hpp:77] Creating layer inception_4d/1x1
I0403 15:47:03.446346 14402 net.cpp:91] Creating Layer inception_4d/1x1
I0403 15:47:03.446377 14402 net.cpp:425] inception_4d/1x1 <- inception_4c/output_inception_4c/output_0_split_0
I0403 15:47:03.446398 14402 net.cpp:399] inception_4d/1x1 -> inception_4d/1x1
I0403 15:47:03.447840 14402 net.cpp:141] Setting up inception_4d/1x1
I0403 15:47:03.447870 14402 net.cpp:148] Top shape: 24 112 14 14 (526848)
I0403 15:47:03.447886 14402 net.cpp:156] Memory required for data: 1113290016
I0403 15:47:03.447906 14402 layer_factory.hpp:77] Creating layer inception_4d/relu_1x1
I0403 15:47:03.447927 14402 net.cpp:91] Creating Layer inception_4d/relu_1x1
I0403 15:47:03.447945 14402 net.cpp:425] inception_4d/relu_1x1 <- inception_4d/1x1
I0403 15:47:03.447962 14402 net.cpp:386] inception_4d/relu_1x1 -> inception_4d/1x1 (in-place)
I0403 15:47:03.448159 14402 net.cpp:141] Setting up inception_4d/relu_1x1
I0403 15:47:03.448185 14402 net.cpp:148] Top shape: 24 112 14 14 (526848)
I0403 15:47:03.448204 14402 net.cpp:156] Memory required for data: 1115397408
I0403 15:47:03.448220 14402 layer_factory.hpp:77] Creating layer inception_4d/3x3_reduce
I0403 15:47:03.448256 14402 net.cpp:91] Creating Layer inception_4d/3x3_reduce
I0403 15:47:03.448273 14402 net.cpp:425] inception_4d/3x3_reduce <- inception_4c/output_inception_4c/output_0_split_1
I0403 15:47:03.448297 14402 net.cpp:399] inception_4d/3x3_reduce -> inception_4d/3x3_reduce
I0403 15:47:03.449859 14402 net.cpp:141] Setting up inception_4d/3x3_reduce
I0403 15:47:03.449888 14402 net.cpp:148] Top shape: 24 144 14 14 (677376)
I0403 15:47:03.449905 14402 net.cpp:156] Memory required for data: 1118106912
I0403 15:47:03.449924 14402 layer_factory.hpp:77] Creating layer inception_4d/relu_3x3_reduce
I0403 15:47:03.449942 14402 net.cpp:91] Creating Layer inception_4d/relu_3x3_reduce
I0403 15:47:03.449959 14402 net.cpp:425] inception_4d/relu_3x3_reduce <- inception_4d/3x3_reduce
I0403 15:47:03.449980 14402 net.cpp:386] inception_4d/relu_3x3_reduce -> inception_4d/3x3_reduce (in-place)
I0403 15:47:03.450284 14402 net.cpp:141] Setting up inception_4d/relu_3x3_reduce
I0403 15:47:03.450311 14402 net.cpp:148] Top shape: 24 144 14 14 (677376)
I0403 15:47:03.450328 14402 net.cpp:156] Memory required for data: 1120816416
I0403 15:47:03.450343 14402 layer_factory.hpp:77] Creating layer inception_4d/3x3
I0403 15:47:03.450379 14402 net.cpp:91] Creating Layer inception_4d/3x3
I0403 15:47:03.450399 14402 net.cpp:425] inception_4d/3x3 <- inception_4d/3x3_reduce
I0403 15:47:03.450423 14402 net.cpp:399] inception_4d/3x3 -> inception_4d/3x3
I0403 15:47:03.454869 14402 net.cpp:141] Setting up inception_4d/3x3
I0403 15:47:03.454900 14402 net.cpp:148] Top shape: 24 288 14 14 (1354752)
I0403 15:47:03.454917 14402 net.cpp:156] Memory required for data: 1126235424
I0403 15:47:03.454936 14402 layer_factory.hpp:77] Creating layer inception_4d/relu_3x3
I0403 15:47:03.454957 14402 net.cpp:91] Creating Layer inception_4d/relu_3x3
I0403 15:47:03.454977 14402 net.cpp:425] inception_4d/relu_3x3 <- inception_4d/3x3
I0403 15:47:03.454995 14402 net.cpp:386] inception_4d/relu_3x3 -> inception_4d/3x3 (in-place)
I0403 15:47:03.455191 14402 net.cpp:141] Setting up inception_4d/relu_3x3
I0403 15:47:03.455219 14402 net.cpp:148] Top shape: 24 288 14 14 (1354752)
I0403 15:47:03.455235 14402 net.cpp:156] Memory required for data: 1131654432
I0403 15:47:03.455250 14402 layer_factory.hpp:77] Creating layer inception_4d/5x5_reduce
I0403 15:47:03.455276 14402 net.cpp:91] Creating Layer inception_4d/5x5_reduce
I0403 15:47:03.455296 14402 net.cpp:425] inception_4d/5x5_reduce <- inception_4c/output_inception_4c/output_0_split_2
I0403 15:47:03.455317 14402 net.cpp:399] inception_4d/5x5_reduce -> inception_4d/5x5_reduce
I0403 15:47:03.456521 14402 net.cpp:141] Setting up inception_4d/5x5_reduce
I0403 15:47:03.456552 14402 net.cpp:148] Top shape: 24 32 14 14 (150528)
I0403 15:47:03.456568 14402 net.cpp:156] Memory required for data: 1132256544
I0403 15:47:03.456588 14402 layer_factory.hpp:77] Creating layer inception_4d/relu_5x5_reduce
I0403 15:47:03.456610 14402 net.cpp:91] Creating Layer inception_4d/relu_5x5_reduce
I0403 15:47:03.456630 14402 net.cpp:425] inception_4d/relu_5x5_reduce <- inception_4d/5x5_reduce
I0403 15:47:03.456661 14402 net.cpp:386] inception_4d/relu_5x5_reduce -> inception_4d/5x5_reduce (in-place)
I0403 15:47:03.456853 14402 net.cpp:141] Setting up inception_4d/relu_5x5_reduce
I0403 15:47:03.456883 14402 net.cpp:148] Top shape: 24 32 14 14 (150528)
I0403 15:47:03.456900 14402 net.cpp:156] Memory required for data: 1132858656
I0403 15:47:03.456917 14402 layer_factory.hpp:77] Creating layer inception_4d/5x5
I0403 15:47:03.456939 14402 net.cpp:91] Creating Layer inception_4d/5x5
I0403 15:47:03.456959 14402 net.cpp:425] inception_4d/5x5 <- inception_4d/5x5_reduce
I0403 15:47:03.456979 14402 net.cpp:399] inception_4d/5x5 -> inception_4d/5x5
I0403 15:47:03.458546 14402 net.cpp:141] Setting up inception_4d/5x5
I0403 15:47:03.458578 14402 net.cpp:148] Top shape: 24 64 14 14 (301056)
I0403 15:47:03.458597 14402 net.cpp:156] Memory required for data: 1134062880
I0403 15:47:03.458617 14402 layer_factory.hpp:77] Creating layer inception_4d/relu_5x5
I0403 15:47:03.458665 14402 net.cpp:91] Creating Layer inception_4d/relu_5x5
I0403 15:47:03.458684 14402 net.cpp:425] inception_4d/relu_5x5 <- inception_4d/5x5
I0403 15:47:03.458703 14402 net.cpp:386] inception_4d/relu_5x5 -> inception_4d/5x5 (in-place)
I0403 15:47:03.459012 14402 net.cpp:141] Setting up inception_4d/relu_5x5
I0403 15:47:03.459043 14402 net.cpp:148] Top shape: 24 64 14 14 (301056)
I0403 15:47:03.459059 14402 net.cpp:156] Memory required for data: 1135267104
I0403 15:47:03.459074 14402 layer_factory.hpp:77] Creating layer inception_4d/pool
I0403 15:47:03.459094 14402 net.cpp:91] Creating Layer inception_4d/pool
I0403 15:47:03.459110 14402 net.cpp:425] inception_4d/pool <- inception_4c/output_inception_4c/output_0_split_3
I0403 15:47:03.459133 14402 net.cpp:399] inception_4d/pool -> inception_4d/pool
I0403 15:47:03.459208 14402 net.cpp:141] Setting up inception_4d/pool
I0403 15:47:03.459234 14402 net.cpp:148] Top shape: 24 512 14 14 (2408448)
I0403 15:47:03.459249 14402 net.cpp:156] Memory required for data: 1144900896
I0403 15:47:03.459266 14402 layer_factory.hpp:77] Creating layer inception_4d/pool_proj
I0403 15:47:03.459290 14402 net.cpp:91] Creating Layer inception_4d/pool_proj
I0403 15:47:03.459308 14402 net.cpp:425] inception_4d/pool_proj <- inception_4d/pool
I0403 15:47:03.459331 14402 net.cpp:399] inception_4d/pool_proj -> inception_4d/pool_proj
I0403 15:47:03.461141 14402 net.cpp:141] Setting up inception_4d/pool_proj
I0403 15:47:03.461174 14402 net.cpp:148] Top shape: 24 64 14 14 (301056)
I0403 15:47:03.461191 14402 net.cpp:156] Memory required for data: 1146105120
I0403 15:47:03.461210 14402 layer_factory.hpp:77] Creating layer inception_4d/relu_pool_proj
I0403 15:47:03.461231 14402 net.cpp:91] Creating Layer inception_4d/relu_pool_proj
I0403 15:47:03.461251 14402 net.cpp:425] inception_4d/relu_pool_proj <- inception_4d/pool_proj
I0403 15:47:03.461268 14402 net.cpp:386] inception_4d/relu_pool_proj -> inception_4d/pool_proj (in-place)
I0403 15:47:03.461460 14402 net.cpp:141] Setting up inception_4d/relu_pool_proj
I0403 15:47:03.461486 14402 net.cpp:148] Top shape: 24 64 14 14 (301056)
I0403 15:47:03.461503 14402 net.cpp:156] Memory required for data: 1147309344
I0403 15:47:03.461519 14402 layer_factory.hpp:77] Creating layer inception_4d/output
I0403 15:47:03.461539 14402 net.cpp:91] Creating Layer inception_4d/output
I0403 15:47:03.461556 14402 net.cpp:425] inception_4d/output <- inception_4d/1x1
I0403 15:47:03.461573 14402 net.cpp:425] inception_4d/output <- inception_4d/3x3
I0403 15:47:03.461591 14402 net.cpp:425] inception_4d/output <- inception_4d/5x5
I0403 15:47:03.461606 14402 net.cpp:425] inception_4d/output <- inception_4d/pool_proj
I0403 15:47:03.461623 14402 net.cpp:399] inception_4d/output -> inception_4d/output
I0403 15:47:03.461674 14402 net.cpp:141] Setting up inception_4d/output
I0403 15:47:03.461699 14402 net.cpp:148] Top shape: 24 528 14 14 (2483712)
I0403 15:47:03.461714 14402 net.cpp:156] Memory required for data: 1157244192
I0403 15:47:03.461730 14402 layer_factory.hpp:77] Creating layer inception_4d/output_inception_4d/output_0_split
I0403 15:47:03.461747 14402 net.cpp:91] Creating Layer inception_4d/output_inception_4d/output_0_split
I0403 15:47:03.461763 14402 net.cpp:425] inception_4d/output_inception_4d/output_0_split <- inception_4d/output
I0403 15:47:03.461786 14402 net.cpp:399] inception_4d/output_inception_4d/output_0_split -> inception_4d/output_inception_4d/output_0_split_0
I0403 15:47:03.461808 14402 net.cpp:399] inception_4d/output_inception_4d/output_0_split -> inception_4d/output_inception_4d/output_0_split_1
I0403 15:47:03.461829 14402 net.cpp:399] inception_4d/output_inception_4d/output_0_split -> inception_4d/output_inception_4d/output_0_split_2
I0403 15:47:03.461856 14402 net.cpp:399] inception_4d/output_inception_4d/output_0_split -> inception_4d/output_inception_4d/output_0_split_3
I0403 15:47:03.461877 14402 net.cpp:399] inception_4d/output_inception_4d/output_0_split -> inception_4d/output_inception_4d/output_0_split_4
I0403 15:47:03.461984 14402 net.cpp:141] Setting up inception_4d/output_inception_4d/output_0_split
I0403 15:47:03.462021 14402 net.cpp:148] Top shape: 24 528 14 14 (2483712)
I0403 15:47:03.462039 14402 net.cpp:148] Top shape: 24 528 14 14 (2483712)
I0403 15:47:03.462057 14402 net.cpp:148] Top shape: 24 528 14 14 (2483712)
I0403 15:47:03.462072 14402 net.cpp:148] Top shape: 24 528 14 14 (2483712)
I0403 15:47:03.462090 14402 net.cpp:148] Top shape: 24 528 14 14 (2483712)
I0403 15:47:03.462103 14402 net.cpp:156] Memory required for data: 1206918432
I0403 15:47:03.462118 14402 layer_factory.hpp:77] Creating layer loss2/ave_pool
I0403 15:47:03.462141 14402 net.cpp:91] Creating Layer loss2/ave_pool
I0403 15:47:03.462162 14402 net.cpp:425] loss2/ave_pool <- inception_4d/output_inception_4d/output_0_split_0
I0403 15:47:03.462184 14402 net.cpp:399] loss2/ave_pool -> loss2/ave_pool
I0403 15:47:03.462527 14402 net.cpp:141] Setting up loss2/ave_pool
I0403 15:47:03.462558 14402 net.cpp:148] Top shape: 24 528 4 4 (202752)
I0403 15:47:03.462573 14402 net.cpp:156] Memory required for data: 1207729440
I0403 15:47:03.462589 14402 layer_factory.hpp:77] Creating layer loss2/conv
I0403 15:47:03.462612 14402 net.cpp:91] Creating Layer loss2/conv
I0403 15:47:03.462632 14402 net.cpp:425] loss2/conv <- loss2/ave_pool
I0403 15:47:03.462666 14402 net.cpp:399] loss2/conv -> loss2/conv
I0403 15:47:03.464627 14402 net.cpp:141] Setting up loss2/conv
I0403 15:47:03.464661 14402 net.cpp:148] Top shape: 24 128 4 4 (49152)
I0403 15:47:03.464679 14402 net.cpp:156] Memory required for data: 1207926048
I0403 15:47:03.464697 14402 layer_factory.hpp:77] Creating layer loss2/relu_conv
I0403 15:47:03.464716 14402 net.cpp:91] Creating Layer loss2/relu_conv
I0403 15:47:03.464732 14402 net.cpp:425] loss2/relu_conv <- loss2/conv
I0403 15:47:03.464752 14402 net.cpp:386] loss2/relu_conv -> loss2/conv (in-place)
I0403 15:47:03.465046 14402 net.cpp:141] Setting up loss2/relu_conv
I0403 15:47:03.465076 14402 net.cpp:148] Top shape: 24 128 4 4 (49152)
I0403 15:47:03.465093 14402 net.cpp:156] Memory required for data: 1208122656
I0403 15:47:03.465111 14402 layer_factory.hpp:77] Creating layer loss2/fc
I0403 15:47:03.465136 14402 net.cpp:91] Creating Layer loss2/fc
I0403 15:47:03.465153 14402 net.cpp:425] loss2/fc <- loss2/conv
I0403 15:47:03.465178 14402 net.cpp:399] loss2/fc -> loss2/fc
I0403 15:47:03.483067 14402 net.cpp:141] Setting up loss2/fc
I0403 15:47:03.483104 14402 net.cpp:148] Top shape: 24 1024 (24576)
I0403 15:47:03.483121 14402 net.cpp:156] Memory required for data: 1208220960
I0403 15:47:03.483145 14402 layer_factory.hpp:77] Creating layer loss2/relu_fc
I0403 15:47:03.483170 14402 net.cpp:91] Creating Layer loss2/relu_fc
I0403 15:47:03.483188 14402 net.cpp:425] loss2/relu_fc <- loss2/fc
I0403 15:47:03.483206 14402 net.cpp:386] loss2/relu_fc -> loss2/fc (in-place)
I0403 15:47:03.483506 14402 net.cpp:141] Setting up loss2/relu_fc
I0403 15:47:03.483533 14402 net.cpp:148] Top shape: 24 1024 (24576)
I0403 15:47:03.483548 14402 net.cpp:156] Memory required for data: 1208319264
I0403 15:47:03.483563 14402 layer_factory.hpp:77] Creating layer loss2/drop_fc
I0403 15:47:03.483583 14402 net.cpp:91] Creating Layer loss2/drop_fc
I0403 15:47:03.483603 14402 net.cpp:425] loss2/drop_fc <- loss2/fc
I0403 15:47:03.483619 14402 net.cpp:386] loss2/drop_fc -> loss2/fc (in-place)
I0403 15:47:03.483671 14402 net.cpp:141] Setting up loss2/drop_fc
I0403 15:47:03.483695 14402 net.cpp:148] Top shape: 24 1024 (24576)
I0403 15:47:03.483710 14402 net.cpp:156] Memory required for data: 1208417568
I0403 15:47:03.483724 14402 layer_factory.hpp:77] Creating layer loss2/classifier_plantvillage
I0403 15:47:03.483742 14402 net.cpp:91] Creating Layer loss2/classifier_plantvillage
I0403 15:47:03.483758 14402 net.cpp:425] loss2/classifier_plantvillage <- loss2/fc
I0403 15:47:03.483779 14402 net.cpp:399] loss2/classifier_plantvillage -> loss2/classifier_plantvillage
I0403 15:47:03.484191 14402 net.cpp:141] Setting up loss2/classifier_plantvillage
I0403 15:47:03.484216 14402 net.cpp:148] Top shape: 24 38 (912)
I0403 15:47:03.484232 14402 net.cpp:156] Memory required for data: 1208421216
I0403 15:47:03.484271 14402 layer_factory.hpp:77] Creating layer loss2/classifier_plantvillage_loss2/classifier_plantvillage_0_split
I0403 15:47:03.484289 14402 net.cpp:91] Creating Layer loss2/classifier_plantvillage_loss2/classifier_plantvillage_0_split
I0403 15:47:03.484304 14402 net.cpp:425] loss2/classifier_plantvillage_loss2/classifier_plantvillage_0_split <- loss2/classifier_plantvillage
I0403 15:47:03.484324 14402 net.cpp:399] loss2/classifier_plantvillage_loss2/classifier_plantvillage_0_split -> loss2/classifier_plantvillage_loss2/classifier_plantvillage_0_split_0
I0403 15:47:03.484346 14402 net.cpp:399] loss2/classifier_plantvillage_loss2/classifier_plantvillage_0_split -> loss2/classifier_plantvillage_loss2/classifier_plantvillage_0_split_1
I0403 15:47:03.484367 14402 net.cpp:399] loss2/classifier_plantvillage_loss2/classifier_plantvillage_0_split -> loss2/classifier_plantvillage_loss2/classifier_plantvillage_0_split_2
I0403 15:47:03.484446 14402 net.cpp:141] Setting up loss2/classifier_plantvillage_loss2/classifier_plantvillage_0_split
I0403 15:47:03.484469 14402 net.cpp:148] Top shape: 24 38 (912)
I0403 15:47:03.484484 14402 net.cpp:148] Top shape: 24 38 (912)
I0403 15:47:03.484499 14402 net.cpp:148] Top shape: 24 38 (912)
I0403 15:47:03.484513 14402 net.cpp:156] Memory required for data: 1208432160
I0403 15:47:03.484529 14402 layer_factory.hpp:77] Creating layer inception_4e/1x1
I0403 15:47:03.484550 14402 net.cpp:91] Creating Layer inception_4e/1x1
I0403 15:47:03.484567 14402 net.cpp:425] inception_4e/1x1 <- inception_4d/output_inception_4d/output_0_split_1
I0403 15:47:03.484587 14402 net.cpp:399] inception_4e/1x1 -> inception_4e/1x1
I0403 15:47:03.486438 14402 net.cpp:141] Setting up inception_4e/1x1
I0403 15:47:03.486470 14402 net.cpp:148] Top shape: 24 256 14 14 (1204224)
I0403 15:47:03.486486 14402 net.cpp:156] Memory required for data: 1213249056
I0403 15:47:03.486505 14402 layer_factory.hpp:77] Creating layer inception_4e/relu_1x1
I0403 15:47:03.486523 14402 net.cpp:91] Creating Layer inception_4e/relu_1x1
I0403 15:47:03.486539 14402 net.cpp:425] inception_4e/relu_1x1 <- inception_4e/1x1
I0403 15:47:03.486559 14402 net.cpp:386] inception_4e/relu_1x1 -> inception_4e/1x1 (in-place)
I0403 15:47:03.486870 14402 net.cpp:141] Setting up inception_4e/relu_1x1
I0403 15:47:03.486898 14402 net.cpp:148] Top shape: 24 256 14 14 (1204224)
I0403 15:47:03.486913 14402 net.cpp:156] Memory required for data: 1218065952
I0403 15:47:03.486929 14402 layer_factory.hpp:77] Creating layer inception_4e/3x3_reduce
I0403 15:47:03.486951 14402 net.cpp:91] Creating Layer inception_4e/3x3_reduce
I0403 15:47:03.486969 14402 net.cpp:425] inception_4e/3x3_reduce <- inception_4d/output_inception_4d/output_0_split_2
I0403 15:47:03.486991 14402 net.cpp:399] inception_4e/3x3_reduce -> inception_4e/3x3_reduce
I0403 15:47:03.489140 14402 net.cpp:141] Setting up inception_4e/3x3_reduce
I0403 15:47:03.489171 14402 net.cpp:148] Top shape: 24 160 14 14 (752640)
I0403 15:47:03.489187 14402 net.cpp:156] Memory required for data: 1221076512
I0403 15:47:03.489208 14402 layer_factory.hpp:77] Creating layer inception_4e/relu_3x3_reduce
I0403 15:47:03.489228 14402 net.cpp:91] Creating Layer inception_4e/relu_3x3_reduce
I0403 15:47:03.489244 14402 net.cpp:425] inception_4e/relu_3x3_reduce <- inception_4e/3x3_reduce
I0403 15:47:03.489261 14402 net.cpp:386] inception_4e/relu_3x3_reduce -> inception_4e/3x3_reduce (in-place)
I0403 15:47:03.489454 14402 net.cpp:141] Setting up inception_4e/relu_3x3_reduce
I0403 15:47:03.489480 14402 net.cpp:148] Top shape: 24 160 14 14 (752640)
I0403 15:47:03.489495 14402 net.cpp:156] Memory required for data: 1224087072
I0403 15:47:03.489511 14402 layer_factory.hpp:77] Creating layer inception_4e/3x3
I0403 15:47:03.489532 14402 net.cpp:91] Creating Layer inception_4e/3x3
I0403 15:47:03.489552 14402 net.cpp:425] inception_4e/3x3 <- inception_4e/3x3_reduce
I0403 15:47:03.489573 14402 net.cpp:399] inception_4e/3x3 -> inception_4e/3x3
I0403 15:47:03.494637 14402 net.cpp:141] Setting up inception_4e/3x3
I0403 15:47:03.494689 14402 net.cpp:148] Top shape: 24 320 14 14 (1505280)
I0403 15:47:03.494706 14402 net.cpp:156] Memory required for data: 1230108192
I0403 15:47:03.494725 14402 layer_factory.hpp:77] Creating layer inception_4e/relu_3x3
I0403 15:47:03.494743 14402 net.cpp:91] Creating Layer inception_4e/relu_3x3
I0403 15:47:03.494760 14402 net.cpp:425] inception_4e/relu_3x3 <- inception_4e/3x3
I0403 15:47:03.494779 14402 net.cpp:386] inception_4e/relu_3x3 -> inception_4e/3x3 (in-place)
I0403 15:47:03.495082 14402 net.cpp:141] Setting up inception_4e/relu_3x3
I0403 15:47:03.495110 14402 net.cpp:148] Top shape: 24 320 14 14 (1505280)
I0403 15:47:03.495123 14402 net.cpp:156] Memory required for data: 1236129312
I0403 15:47:03.495143 14402 layer_factory.hpp:77] Creating layer inception_4e/5x5_reduce
I0403 15:47:03.495168 14402 net.cpp:91] Creating Layer inception_4e/5x5_reduce
I0403 15:47:03.495187 14402 net.cpp:425] inception_4e/5x5_reduce <- inception_4d/output_inception_4d/output_0_split_3
I0403 15:47:03.495208 14402 net.cpp:399] inception_4e/5x5_reduce -> inception_4e/5x5_reduce
I0403 15:47:03.496285 14402 net.cpp:141] Setting up inception_4e/5x5_reduce
I0403 15:47:03.496316 14402 net.cpp:148] Top shape: 24 32 14 14 (150528)
I0403 15:47:03.496333 14402 net.cpp:156] Memory required for data: 1236731424
I0403 15:47:03.496352 14402 layer_factory.hpp:77] Creating layer inception_4e/relu_5x5_reduce
I0403 15:47:03.496369 14402 net.cpp:91] Creating Layer inception_4e/relu_5x5_reduce
I0403 15:47:03.496387 14402 net.cpp:425] inception_4e/relu_5x5_reduce <- inception_4e/5x5_reduce
I0403 15:47:03.496403 14402 net.cpp:386] inception_4e/relu_5x5_reduce -> inception_4e/5x5_reduce (in-place)
I0403 15:47:03.496702 14402 net.cpp:141] Setting up inception_4e/relu_5x5_reduce
I0403 15:47:03.496732 14402 net.cpp:148] Top shape: 24 32 14 14 (150528)
I0403 15:47:03.496749 14402 net.cpp:156] Memory required for data: 1237333536
I0403 15:47:03.496764 14402 layer_factory.hpp:77] Creating layer inception_4e/5x5
I0403 15:47:03.496804 14402 net.cpp:91] Creating Layer inception_4e/5x5
I0403 15:47:03.496825 14402 net.cpp:425] inception_4e/5x5 <- inception_4e/5x5_reduce
I0403 15:47:03.496845 14402 net.cpp:399] inception_4e/5x5 -> inception_4e/5x5
I0403 15:47:03.498739 14402 net.cpp:141] Setting up inception_4e/5x5
I0403 15:47:03.498769 14402 net.cpp:148] Top shape: 24 128 14 14 (602112)
I0403 15:47:03.498785 14402 net.cpp:156] Memory required for data: 1239741984
I0403 15:47:03.498803 14402 layer_factory.hpp:77] Creating layer inception_4e/relu_5x5
I0403 15:47:03.498826 14402 net.cpp:91] Creating Layer inception_4e/relu_5x5
I0403 15:47:03.498843 14402 net.cpp:425] inception_4e/relu_5x5 <- inception_4e/5x5
I0403 15:47:03.498860 14402 net.cpp:386] inception_4e/relu_5x5 -> inception_4e/5x5 (in-place)
I0403 15:47:03.499059 14402 net.cpp:141] Setting up inception_4e/relu_5x5
I0403 15:47:03.499088 14402 net.cpp:148] Top shape: 24 128 14 14 (602112)
I0403 15:47:03.499102 14402 net.cpp:156] Memory required for data: 1242150432
I0403 15:47:03.499117 14402 layer_factory.hpp:77] Creating layer inception_4e/pool
I0403 15:47:03.499140 14402 net.cpp:91] Creating Layer inception_4e/pool
I0403 15:47:03.499157 14402 net.cpp:425] inception_4e/pool <- inception_4d/output_inception_4d/output_0_split_4
I0403 15:47:03.499179 14402 net.cpp:399] inception_4e/pool -> inception_4e/pool
I0403 15:47:03.499250 14402 net.cpp:141] Setting up inception_4e/pool
I0403 15:47:03.499275 14402 net.cpp:148] Top shape: 24 528 14 14 (2483712)
I0403 15:47:03.499290 14402 net.cpp:156] Memory required for data: 1252085280
I0403 15:47:03.499305 14402 layer_factory.hpp:77] Creating layer inception_4e/pool_proj
I0403 15:47:03.499326 14402 net.cpp:91] Creating Layer inception_4e/pool_proj
I0403 15:47:03.499344 14402 net.cpp:425] inception_4e/pool_proj <- inception_4e/pool
I0403 15:47:03.499366 14402 net.cpp:399] inception_4e/pool_proj -> inception_4e/pool_proj
I0403 15:47:03.500890 14402 net.cpp:141] Setting up inception_4e/pool_proj
I0403 15:47:03.500918 14402 net.cpp:148] Top shape: 24 128 14 14 (602112)
I0403 15:47:03.500948 14402 net.cpp:156] Memory required for data: 1254493728
I0403 15:47:03.500968 14402 layer_factory.hpp:77] Creating layer inception_4e/relu_pool_proj
I0403 15:47:03.500988 14402 net.cpp:91] Creating Layer inception_4e/relu_pool_proj
I0403 15:47:03.501006 14402 net.cpp:425] inception_4e/relu_pool_proj <- inception_4e/pool_proj
I0403 15:47:03.501024 14402 net.cpp:386] inception_4e/relu_pool_proj -> inception_4e/pool_proj (in-place)
I0403 15:47:03.501327 14402 net.cpp:141] Setting up inception_4e/relu_pool_proj
I0403 15:47:03.501353 14402 net.cpp:148] Top shape: 24 128 14 14 (602112)
I0403 15:47:03.501368 14402 net.cpp:156] Memory required for data: 1256902176
I0403 15:47:03.501384 14402 layer_factory.hpp:77] Creating layer inception_4e/output
I0403 15:47:03.501402 14402 net.cpp:91] Creating Layer inception_4e/output
I0403 15:47:03.501420 14402 net.cpp:425] inception_4e/output <- inception_4e/1x1
I0403 15:47:03.501436 14402 net.cpp:425] inception_4e/output <- inception_4e/3x3
I0403 15:47:03.501452 14402 net.cpp:425] inception_4e/output <- inception_4e/5x5
I0403 15:47:03.501468 14402 net.cpp:425] inception_4e/output <- inception_4e/pool_proj
I0403 15:47:03.501485 14402 net.cpp:399] inception_4e/output -> inception_4e/output
I0403 15:47:03.501538 14402 net.cpp:141] Setting up inception_4e/output
I0403 15:47:03.501564 14402 net.cpp:148] Top shape: 24 832 14 14 (3913728)
I0403 15:47:03.501579 14402 net.cpp:156] Memory required for data: 1272557088
I0403 15:47:03.501593 14402 layer_factory.hpp:77] Creating layer pool4/3x3_s2
I0403 15:47:03.501610 14402 net.cpp:91] Creating Layer pool4/3x3_s2
I0403 15:47:03.501626 14402 net.cpp:425] pool4/3x3_s2 <- inception_4e/output
I0403 15:47:03.501646 14402 net.cpp:399] pool4/3x3_s2 -> pool4/3x3_s2
I0403 15:47:03.501715 14402 net.cpp:141] Setting up pool4/3x3_s2
I0403 15:47:03.501742 14402 net.cpp:148] Top shape: 24 832 7 7 (978432)
I0403 15:47:03.501757 14402 net.cpp:156] Memory required for data: 1276470816
I0403 15:47:03.501772 14402 layer_factory.hpp:77] Creating layer pool4/3x3_s2_pool4/3x3_s2_0_split
I0403 15:47:03.501791 14402 net.cpp:91] Creating Layer pool4/3x3_s2_pool4/3x3_s2_0_split
I0403 15:47:03.501806 14402 net.cpp:425] pool4/3x3_s2_pool4/3x3_s2_0_split <- pool4/3x3_s2
I0403 15:47:03.501823 14402 net.cpp:399] pool4/3x3_s2_pool4/3x3_s2_0_split -> pool4/3x3_s2_pool4/3x3_s2_0_split_0
I0403 15:47:03.501844 14402 net.cpp:399] pool4/3x3_s2_pool4/3x3_s2_0_split -> pool4/3x3_s2_pool4/3x3_s2_0_split_1
I0403 15:47:03.501866 14402 net.cpp:399] pool4/3x3_s2_pool4/3x3_s2_0_split -> pool4/3x3_s2_pool4/3x3_s2_0_split_2
I0403 15:47:03.501888 14402 net.cpp:399] pool4/3x3_s2_pool4/3x3_s2_0_split -> pool4/3x3_s2_pool4/3x3_s2_0_split_3
I0403 15:47:03.501982 14402 net.cpp:141] Setting up pool4/3x3_s2_pool4/3x3_s2_0_split
I0403 15:47:03.502007 14402 net.cpp:148] Top shape: 24 832 7 7 (978432)
I0403 15:47:03.502023 14402 net.cpp:148] Top shape: 24 832 7 7 (978432)
I0403 15:47:03.502039 14402 net.cpp:148] Top shape: 24 832 7 7 (978432)
I0403 15:47:03.502055 14402 net.cpp:148] Top shape: 24 832 7 7 (978432)
I0403 15:47:03.502068 14402 net.cpp:156] Memory required for data: 1292125728
I0403 15:47:03.502082 14402 layer_factory.hpp:77] Creating layer inception_5a/1x1
I0403 15:47:03.502104 14402 net.cpp:91] Creating Layer inception_5a/1x1
I0403 15:47:03.502122 14402 net.cpp:425] inception_5a/1x1 <- pool4/3x3_s2_pool4/3x3_s2_0_split_0
I0403 15:47:03.502151 14402 net.cpp:399] inception_5a/1x1 -> inception_5a/1x1
I0403 15:47:03.505118 14402 net.cpp:141] Setting up inception_5a/1x1
I0403 15:47:03.505153 14402 net.cpp:148] Top shape: 24 256 7 7 (301056)
I0403 15:47:03.505170 14402 net.cpp:156] Memory required for data: 1293329952
I0403 15:47:03.505188 14402 layer_factory.hpp:77] Creating layer inception_5a/relu_1x1
I0403 15:47:03.505209 14402 net.cpp:91] Creating Layer inception_5a/relu_1x1
I0403 15:47:03.505228 14402 net.cpp:425] inception_5a/relu_1x1 <- inception_5a/1x1
I0403 15:47:03.505246 14402 net.cpp:386] inception_5a/relu_1x1 -> inception_5a/1x1 (in-place)
I0403 15:47:03.505574 14402 net.cpp:141] Setting up inception_5a/relu_1x1
I0403 15:47:03.505604 14402 net.cpp:148] Top shape: 24 256 7 7 (301056)
I0403 15:47:03.505620 14402 net.cpp:156] Memory required for data: 1294534176
I0403 15:47:03.505635 14402 layer_factory.hpp:77] Creating layer inception_5a/3x3_reduce
I0403 15:47:03.505658 14402 net.cpp:91] Creating Layer inception_5a/3x3_reduce
I0403 15:47:03.505678 14402 net.cpp:425] inception_5a/3x3_reduce <- pool4/3x3_s2_pool4/3x3_s2_0_split_1
I0403 15:47:03.505698 14402 net.cpp:399] inception_5a/3x3_reduce -> inception_5a/3x3_reduce
I0403 15:47:03.508273 14402 net.cpp:141] Setting up inception_5a/3x3_reduce
I0403 15:47:03.508303 14402 net.cpp:148] Top shape: 24 160 7 7 (188160)
I0403 15:47:03.508319 14402 net.cpp:156] Memory required for data: 1295286816
I0403 15:47:03.508337 14402 layer_factory.hpp:77] Creating layer inception_5a/relu_3x3_reduce
I0403 15:47:03.508358 14402 net.cpp:91] Creating Layer inception_5a/relu_3x3_reduce
I0403 15:47:03.508376 14402 net.cpp:425] inception_5a/relu_3x3_reduce <- inception_5a/3x3_reduce
I0403 15:47:03.508395 14402 net.cpp:386] inception_5a/relu_3x3_reduce -> inception_5a/3x3_reduce (in-place)
I0403 15:47:03.508590 14402 net.cpp:141] Setting up inception_5a/relu_3x3_reduce
I0403 15:47:03.508617 14402 net.cpp:148] Top shape: 24 160 7 7 (188160)
I0403 15:47:03.508632 14402 net.cpp:156] Memory required for data: 1296039456
I0403 15:47:03.508647 14402 layer_factory.hpp:77] Creating layer inception_5a/3x3
I0403 15:47:03.508672 14402 net.cpp:91] Creating Layer inception_5a/3x3
I0403 15:47:03.508692 14402 net.cpp:425] inception_5a/3x3 <- inception_5a/3x3_reduce
I0403 15:47:03.508711 14402 net.cpp:399] inception_5a/3x3 -> inception_5a/3x3
I0403 15:47:03.513943 14402 net.cpp:141] Setting up inception_5a/3x3
I0403 15:47:03.513974 14402 net.cpp:148] Top shape: 24 320 7 7 (376320)
I0403 15:47:03.513995 14402 net.cpp:156] Memory required for data: 1297544736
I0403 15:47:03.514014 14402 layer_factory.hpp:77] Creating layer inception_5a/relu_3x3
I0403 15:47:03.514034 14402 net.cpp:91] Creating Layer inception_5a/relu_3x3
I0403 15:47:03.514050 14402 net.cpp:425] inception_5a/relu_3x3 <- inception_5a/3x3
I0403 15:47:03.514067 14402 net.cpp:386] inception_5a/relu_3x3 -> inception_5a/3x3 (in-place)
I0403 15:47:03.514390 14402 net.cpp:141] Setting up inception_5a/relu_3x3
I0403 15:47:03.514420 14402 net.cpp:148] Top shape: 24 320 7 7 (376320)
I0403 15:47:03.514438 14402 net.cpp:156] Memory required for data: 1299050016
I0403 15:47:03.514456 14402 layer_factory.hpp:77] Creating layer inception_5a/5x5_reduce
I0403 15:47:03.514477 14402 net.cpp:91] Creating Layer inception_5a/5x5_reduce
I0403 15:47:03.514494 14402 net.cpp:425] inception_5a/5x5_reduce <- pool4/3x3_s2_pool4/3x3_s2_0_split_2
I0403 15:47:03.514518 14402 net.cpp:399] inception_5a/5x5_reduce -> inception_5a/5x5_reduce
I0403 15:47:03.515766 14402 net.cpp:141] Setting up inception_5a/5x5_reduce
I0403 15:47:03.515799 14402 net.cpp:148] Top shape: 24 32 7 7 (37632)
I0403 15:47:03.515817 14402 net.cpp:156] Memory required for data: 1299200544
I0403 15:47:03.515836 14402 layer_factory.hpp:77] Creating layer inception_5a/relu_5x5_reduce
I0403 15:47:03.515854 14402 net.cpp:91] Creating Layer inception_5a/relu_5x5_reduce
I0403 15:47:03.515872 14402 net.cpp:425] inception_5a/relu_5x5_reduce <- inception_5a/5x5_reduce
I0403 15:47:03.515892 14402 net.cpp:386] inception_5a/relu_5x5_reduce -> inception_5a/5x5_reduce (in-place)
I0403 15:47:03.516212 14402 net.cpp:141] Setting up inception_5a/relu_5x5_reduce
I0403 15:47:03.516242 14402 net.cpp:148] Top shape: 24 32 7 7 (37632)
I0403 15:47:03.516259 14402 net.cpp:156] Memory required for data: 1299351072
I0403 15:47:03.516275 14402 layer_factory.hpp:77] Creating layer inception_5a/5x5
I0403 15:47:03.516299 14402 net.cpp:91] Creating Layer inception_5a/5x5
I0403 15:47:03.516317 14402 net.cpp:425] inception_5a/5x5 <- inception_5a/5x5_reduce
I0403 15:47:03.516336 14402 net.cpp:399] inception_5a/5x5 -> inception_5a/5x5
I0403 15:47:03.518131 14402 net.cpp:141] Setting up inception_5a/5x5
I0403 15:47:03.518173 14402 net.cpp:148] Top shape: 24 128 7 7 (150528)
I0403 15:47:03.518190 14402 net.cpp:156] Memory required for data: 1299953184
I0403 15:47:03.518209 14402 layer_factory.hpp:77] Creating layer inception_5a/relu_5x5
I0403 15:47:03.518231 14402 net.cpp:91] Creating Layer inception_5a/relu_5x5
I0403 15:47:03.518249 14402 net.cpp:425] inception_5a/relu_5x5 <- inception_5a/5x5
I0403 15:47:03.518266 14402 net.cpp:386] inception_5a/relu_5x5 -> inception_5a/5x5 (in-place)
I0403 15:47:03.518484 14402 net.cpp:141] Setting up inception_5a/relu_5x5
I0403 15:47:03.518514 14402 net.cpp:148] Top shape: 24 128 7 7 (150528)
I0403 15:47:03.518532 14402 net.cpp:156] Memory required for data: 1300555296
I0403 15:47:03.518548 14402 layer_factory.hpp:77] Creating layer inception_5a/pool
I0403 15:47:03.518568 14402 net.cpp:91] Creating Layer inception_5a/pool
I0403 15:47:03.518584 14402 net.cpp:425] inception_5a/pool <- pool4/3x3_s2_pool4/3x3_s2_0_split_3
I0403 15:47:03.518606 14402 net.cpp:399] inception_5a/pool -> inception_5a/pool
I0403 15:47:03.518694 14402 net.cpp:141] Setting up inception_5a/pool
I0403 15:47:03.518719 14402 net.cpp:148] Top shape: 24 832 7 7 (978432)
I0403 15:47:03.518734 14402 net.cpp:156] Memory required for data: 1304469024
I0403 15:47:03.518750 14402 layer_factory.hpp:77] Creating layer inception_5a/pool_proj
I0403 15:47:03.518772 14402 net.cpp:91] Creating Layer inception_5a/pool_proj
I0403 15:47:03.518792 14402 net.cpp:425] inception_5a/pool_proj <- inception_5a/pool
I0403 15:47:03.518813 14402 net.cpp:399] inception_5a/pool_proj -> inception_5a/pool_proj
I0403 15:47:03.521257 14402 net.cpp:141] Setting up inception_5a/pool_proj
I0403 15:47:03.521289 14402 net.cpp:148] Top shape: 24 128 7 7 (150528)
I0403 15:47:03.521306 14402 net.cpp:156] Memory required for data: 1305071136
I0403 15:47:03.521323 14402 layer_factory.hpp:77] Creating layer inception_5a/relu_pool_proj
I0403 15:47:03.521345 14402 net.cpp:91] Creating Layer inception_5a/relu_pool_proj
I0403 15:47:03.521363 14402 net.cpp:425] inception_5a/relu_pool_proj <- inception_5a/pool_proj
I0403 15:47:03.521381 14402 net.cpp:386] inception_5a/relu_pool_proj -> inception_5a/pool_proj (in-place)
I0403 15:47:03.521688 14402 net.cpp:141] Setting up inception_5a/relu_pool_proj
I0403 15:47:03.521728 14402 net.cpp:148] Top shape: 24 128 7 7 (150528)
I0403 15:47:03.521749 14402 net.cpp:156] Memory required for data: 1305673248
I0403 15:47:03.521764 14402 layer_factory.hpp:77] Creating layer inception_5a/output
I0403 15:47:03.521780 14402 net.cpp:91] Creating Layer inception_5a/output
I0403 15:47:03.521796 14402 net.cpp:425] inception_5a/output <- inception_5a/1x1
I0403 15:47:03.521816 14402 net.cpp:425] inception_5a/output <- inception_5a/3x3
I0403 15:47:03.521833 14402 net.cpp:425] inception_5a/output <- inception_5a/5x5
I0403 15:47:03.521849 14402 net.cpp:425] inception_5a/output <- inception_5a/pool_proj
I0403 15:47:03.521867 14402 net.cpp:399] inception_5a/output -> inception_5a/output
I0403 15:47:03.521919 14402 net.cpp:141] Setting up inception_5a/output
I0403 15:47:03.521944 14402 net.cpp:148] Top shape: 24 832 7 7 (978432)
I0403 15:47:03.521958 14402 net.cpp:156] Memory required for data: 1309586976
I0403 15:47:03.521973 14402 layer_factory.hpp:77] Creating layer inception_5a/output_inception_5a/output_0_split
I0403 15:47:03.521991 14402 net.cpp:91] Creating Layer inception_5a/output_inception_5a/output_0_split
I0403 15:47:03.522006 14402 net.cpp:425] inception_5a/output_inception_5a/output_0_split <- inception_5a/output
I0403 15:47:03.522027 14402 net.cpp:399] inception_5a/output_inception_5a/output_0_split -> inception_5a/output_inception_5a/output_0_split_0
I0403 15:47:03.522047 14402 net.cpp:399] inception_5a/output_inception_5a/output_0_split -> inception_5a/output_inception_5a/output_0_split_1
I0403 15:47:03.522068 14402 net.cpp:399] inception_5a/output_inception_5a/output_0_split -> inception_5a/output_inception_5a/output_0_split_2
I0403 15:47:03.522090 14402 net.cpp:399] inception_5a/output_inception_5a/output_0_split -> inception_5a/output_inception_5a/output_0_split_3
I0403 15:47:03.522212 14402 net.cpp:141] Setting up inception_5a/output_inception_5a/output_0_split
I0403 15:47:03.522239 14402 net.cpp:148] Top shape: 24 832 7 7 (978432)
I0403 15:47:03.522256 14402 net.cpp:148] Top shape: 24 832 7 7 (978432)
I0403 15:47:03.522272 14402 net.cpp:148] Top shape: 24 832 7 7 (978432)
I0403 15:47:03.522289 14402 net.cpp:148] Top shape: 24 832 7 7 (978432)
I0403 15:47:03.522301 14402 net.cpp:156] Memory required for data: 1325241888
I0403 15:47:03.522316 14402 layer_factory.hpp:77] Creating layer inception_5b/1x1
I0403 15:47:03.522338 14402 net.cpp:91] Creating Layer inception_5b/1x1
I0403 15:47:03.522368 14402 net.cpp:425] inception_5b/1x1 <- inception_5a/output_inception_5a/output_0_split_0
I0403 15:47:03.522388 14402 net.cpp:399] inception_5b/1x1 -> inception_5b/1x1
I0403 15:47:03.526199 14402 net.cpp:141] Setting up inception_5b/1x1
I0403 15:47:03.526231 14402 net.cpp:148] Top shape: 24 384 7 7 (451584)
I0403 15:47:03.526247 14402 net.cpp:156] Memory required for data: 1327048224
I0403 15:47:03.526265 14402 layer_factory.hpp:77] Creating layer inception_5b/relu_1x1
I0403 15:47:03.526286 14402 net.cpp:91] Creating Layer inception_5b/relu_1x1
I0403 15:47:03.526305 14402 net.cpp:425] inception_5b/relu_1x1 <- inception_5b/1x1
I0403 15:47:03.526324 14402 net.cpp:386] inception_5b/relu_1x1 -> inception_5b/1x1 (in-place)
I0403 15:47:03.526660 14402 net.cpp:141] Setting up inception_5b/relu_1x1
I0403 15:47:03.526686 14402 net.cpp:148] Top shape: 24 384 7 7 (451584)
I0403 15:47:03.526701 14402 net.cpp:156] Memory required for data: 1328854560
I0403 15:47:03.526716 14402 layer_factory.hpp:77] Creating layer inception_5b/3x3_reduce
I0403 15:47:03.526739 14402 net.cpp:91] Creating Layer inception_5b/3x3_reduce
I0403 15:47:03.526757 14402 net.cpp:425] inception_5b/3x3_reduce <- inception_5a/output_inception_5a/output_0_split_1
I0403 15:47:03.526780 14402 net.cpp:399] inception_5b/3x3_reduce -> inception_5b/3x3_reduce
I0403 15:47:03.529469 14402 net.cpp:141] Setting up inception_5b/3x3_reduce
I0403 15:47:03.529500 14402 net.cpp:148] Top shape: 24 192 7 7 (225792)
I0403 15:47:03.529515 14402 net.cpp:156] Memory required for data: 1329757728
I0403 15:47:03.529534 14402 layer_factory.hpp:77] Creating layer inception_5b/relu_3x3_reduce
I0403 15:47:03.529553 14402 net.cpp:91] Creating Layer inception_5b/relu_3x3_reduce
I0403 15:47:03.529570 14402 net.cpp:425] inception_5b/relu_3x3_reduce <- inception_5b/3x3_reduce
I0403 15:47:03.529588 14402 net.cpp:386] inception_5b/relu_3x3_reduce -> inception_5b/3x3_reduce (in-place)
I0403 15:47:03.529781 14402 net.cpp:141] Setting up inception_5b/relu_3x3_reduce
I0403 15:47:03.529813 14402 net.cpp:148] Top shape: 24 192 7 7 (225792)
I0403 15:47:03.529829 14402 net.cpp:156] Memory required for data: 1330660896
I0403 15:47:03.529844 14402 layer_factory.hpp:77] Creating layer inception_5b/3x3
I0403 15:47:03.529867 14402 net.cpp:91] Creating Layer inception_5b/3x3
I0403 15:47:03.529886 14402 net.cpp:425] inception_5b/3x3 <- inception_5b/3x3_reduce
I0403 15:47:03.529906 14402 net.cpp:399] inception_5b/3x3 -> inception_5b/3x3
I0403 15:47:03.536716 14402 net.cpp:141] Setting up inception_5b/3x3
I0403 15:47:03.536746 14402 net.cpp:148] Top shape: 24 384 7 7 (451584)
I0403 15:47:03.536762 14402 net.cpp:156] Memory required for data: 1332467232
I0403 15:47:03.536782 14402 layer_factory.hpp:77] Creating layer inception_5b/relu_3x3
I0403 15:47:03.536803 14402 net.cpp:91] Creating Layer inception_5b/relu_3x3
I0403 15:47:03.536819 14402 net.cpp:425] inception_5b/relu_3x3 <- inception_5b/3x3
I0403 15:47:03.536836 14402 net.cpp:386] inception_5b/relu_3x3 -> inception_5b/3x3 (in-place)
I0403 15:47:03.537145 14402 net.cpp:141] Setting up inception_5b/relu_3x3
I0403 15:47:03.537173 14402 net.cpp:148] Top shape: 24 384 7 7 (451584)
I0403 15:47:03.537189 14402 net.cpp:156] Memory required for data: 1334273568
I0403 15:47:03.537204 14402 layer_factory.hpp:77] Creating layer inception_5b/5x5_reduce
I0403 15:47:03.537242 14402 net.cpp:91] Creating Layer inception_5b/5x5_reduce
I0403 15:47:03.537262 14402 net.cpp:425] inception_5b/5x5_reduce <- inception_5a/output_inception_5a/output_0_split_2
I0403 15:47:03.537286 14402 net.cpp:399] inception_5b/5x5_reduce -> inception_5b/5x5_reduce
I0403 15:47:03.538599 14402 net.cpp:141] Setting up inception_5b/5x5_reduce
I0403 15:47:03.538630 14402 net.cpp:148] Top shape: 24 48 7 7 (56448)
I0403 15:47:03.538655 14402 net.cpp:156] Memory required for data: 1334499360
I0403 15:47:03.538673 14402 layer_factory.hpp:77] Creating layer inception_5b/relu_5x5_reduce
I0403 15:47:03.538694 14402 net.cpp:91] Creating Layer inception_5b/relu_5x5_reduce
I0403 15:47:03.538712 14402 net.cpp:425] inception_5b/relu_5x5_reduce <- inception_5b/5x5_reduce
I0403 15:47:03.538729 14402 net.cpp:386] inception_5b/relu_5x5_reduce -> inception_5b/5x5_reduce (in-place)
I0403 15:47:03.539106 14402 net.cpp:141] Setting up inception_5b/relu_5x5_reduce
I0403 15:47:03.539137 14402 net.cpp:148] Top shape: 24 48 7 7 (56448)
I0403 15:47:03.539155 14402 net.cpp:156] Memory required for data: 1334725152
I0403 15:47:03.539170 14402 layer_factory.hpp:77] Creating layer inception_5b/5x5
I0403 15:47:03.539191 14402 net.cpp:91] Creating Layer inception_5b/5x5
I0403 15:47:03.539207 14402 net.cpp:425] inception_5b/5x5 <- inception_5b/5x5_reduce
I0403 15:47:03.539227 14402 net.cpp:399] inception_5b/5x5 -> inception_5b/5x5
I0403 15:47:03.541301 14402 net.cpp:141] Setting up inception_5b/5x5
I0403 15:47:03.541328 14402 net.cpp:148] Top shape: 24 128 7 7 (150528)
I0403 15:47:03.541344 14402 net.cpp:156] Memory required for data: 1335327264
I0403 15:47:03.541363 14402 layer_factory.hpp:77] Creating layer inception_5b/relu_5x5
I0403 15:47:03.541385 14402 net.cpp:91] Creating Layer inception_5b/relu_5x5
I0403 15:47:03.541404 14402 net.cpp:425] inception_5b/relu_5x5 <- inception_5b/5x5
I0403 15:47:03.541421 14402 net.cpp:386] inception_5b/relu_5x5 -> inception_5b/5x5 (in-place)
I0403 15:47:03.541620 14402 net.cpp:141] Setting up inception_5b/relu_5x5
I0403 15:47:03.541646 14402 net.cpp:148] Top shape: 24 128 7 7 (150528)
I0403 15:47:03.541661 14402 net.cpp:156] Memory required for data: 1335929376
I0403 15:47:03.541676 14402 layer_factory.hpp:77] Creating layer inception_5b/pool
I0403 15:47:03.541692 14402 net.cpp:91] Creating Layer inception_5b/pool
I0403 15:47:03.541708 14402 net.cpp:425] inception_5b/pool <- inception_5a/output_inception_5a/output_0_split_3
I0403 15:47:03.541729 14402 net.cpp:399] inception_5b/pool -> inception_5b/pool
I0403 15:47:03.541805 14402 net.cpp:141] Setting up inception_5b/pool
I0403 15:47:03.541829 14402 net.cpp:148] Top shape: 24 832 7 7 (978432)
I0403 15:47:03.541843 14402 net.cpp:156] Memory required for data: 1339843104
I0403 15:47:03.541857 14402 layer_factory.hpp:77] Creating layer inception_5b/pool_proj
I0403 15:47:03.541879 14402 net.cpp:91] Creating Layer inception_5b/pool_proj
I0403 15:47:03.541899 14402 net.cpp:425] inception_5b/pool_proj <- inception_5b/pool
I0403 15:47:03.541918 14402 net.cpp:399] inception_5b/pool_proj -> inception_5b/pool_proj
I0403 15:47:03.544296 14402 net.cpp:141] Setting up inception_5b/pool_proj
I0403 15:47:03.544327 14402 net.cpp:148] Top shape: 24 128 7 7 (150528)
I0403 15:47:03.544343 14402 net.cpp:156] Memory required for data: 1340445216
I0403 15:47:03.544363 14402 layer_factory.hpp:77] Creating layer inception_5b/relu_pool_proj
I0403 15:47:03.544384 14402 net.cpp:91] Creating Layer inception_5b/relu_pool_proj
I0403 15:47:03.544401 14402 net.cpp:425] inception_5b/relu_pool_proj <- inception_5b/pool_proj
I0403 15:47:03.544420 14402 net.cpp:386] inception_5b/relu_pool_proj -> inception_5b/pool_proj (in-place)
I0403 15:47:03.544728 14402 net.cpp:141] Setting up inception_5b/relu_pool_proj
I0403 15:47:03.544755 14402 net.cpp:148] Top shape: 24 128 7 7 (150528)
I0403 15:47:03.544771 14402 net.cpp:156] Memory required for data: 1341047328
I0403 15:47:03.544785 14402 layer_factory.hpp:77] Creating layer inception_5b/output
I0403 15:47:03.544806 14402 net.cpp:91] Creating Layer inception_5b/output
I0403 15:47:03.544836 14402 net.cpp:425] inception_5b/output <- inception_5b/1x1
I0403 15:47:03.544854 14402 net.cpp:425] inception_5b/output <- inception_5b/3x3
I0403 15:47:03.544872 14402 net.cpp:425] inception_5b/output <- inception_5b/5x5
I0403 15:47:03.544885 14402 net.cpp:425] inception_5b/output <- inception_5b/pool_proj
I0403 15:47:03.544903 14402 net.cpp:399] inception_5b/output -> inception_5b/output
I0403 15:47:03.544956 14402 net.cpp:141] Setting up inception_5b/output
I0403 15:47:03.544981 14402 net.cpp:148] Top shape: 24 1024 7 7 (1204224)
I0403 15:47:03.544996 14402 net.cpp:156] Memory required for data: 1345864224
I0403 15:47:03.545011 14402 layer_factory.hpp:77] Creating layer pool5/7x7_s1
I0403 15:47:03.545028 14402 net.cpp:91] Creating Layer pool5/7x7_s1
I0403 15:47:03.545044 14402 net.cpp:425] pool5/7x7_s1 <- inception_5b/output
I0403 15:47:03.545064 14402 net.cpp:399] pool5/7x7_s1 -> pool5/7x7_s1
I0403 15:47:03.545289 14402 net.cpp:141] Setting up pool5/7x7_s1
I0403 15:47:03.545318 14402 net.cpp:148] Top shape: 24 1024 1 1 (24576)
I0403 15:47:03.545333 14402 net.cpp:156] Memory required for data: 1345962528
I0403 15:47:03.545347 14402 layer_factory.hpp:77] Creating layer pool5/drop_7x7_s1
I0403 15:47:03.545364 14402 net.cpp:91] Creating Layer pool5/drop_7x7_s1
I0403 15:47:03.545380 14402 net.cpp:425] pool5/drop_7x7_s1 <- pool5/7x7_s1
I0403 15:47:03.545398 14402 net.cpp:386] pool5/drop_7x7_s1 -> pool5/7x7_s1 (in-place)
I0403 15:47:03.545450 14402 net.cpp:141] Setting up pool5/drop_7x7_s1
I0403 15:47:03.545475 14402 net.cpp:148] Top shape: 24 1024 1 1 (24576)
I0403 15:47:03.545490 14402 net.cpp:156] Memory required for data: 1346060832
I0403 15:47:03.545503 14402 layer_factory.hpp:77] Creating layer loss3/classifier_plantvillage
I0403 15:47:03.545527 14402 net.cpp:91] Creating Layer loss3/classifier_plantvillage
I0403 15:47:03.545544 14402 net.cpp:425] loss3/classifier_plantvillage <- pool5/7x7_s1
I0403 15:47:03.545563 14402 net.cpp:399] loss3/classifier_plantvillage -> loss3/classifier_plantvillage
I0403 15:47:03.545989 14402 net.cpp:141] Setting up loss3/classifier_plantvillage
I0403 15:47:03.546015 14402 net.cpp:148] Top shape: 24 38 (912)
I0403 15:47:03.546030 14402 net.cpp:156] Memory required for data: 1346064480
I0403 15:47:03.546048 14402 layer_factory.hpp:77] Creating layer loss3/classifier_plantvillage_loss3/classifier_plantvillage_0_split
I0403 15:47:03.546067 14402 net.cpp:91] Creating Layer loss3/classifier_plantvillage_loss3/classifier_plantvillage_0_split
I0403 15:47:03.546084 14402 net.cpp:425] loss3/classifier_plantvillage_loss3/classifier_plantvillage_0_split <- loss3/classifier_plantvillage
I0403 15:47:03.546105 14402 net.cpp:399] loss3/classifier_plantvillage_loss3/classifier_plantvillage_0_split -> loss3/classifier_plantvillage_loss3/classifier_plantvillage_0_split_0
I0403 15:47:03.546131 14402 net.cpp:399] loss3/classifier_plantvillage_loss3/classifier_plantvillage_0_split -> loss3/classifier_plantvillage_loss3/classifier_plantvillage_0_split_1
I0403 15:47:03.546154 14402 net.cpp:399] loss3/classifier_plantvillage_loss3/classifier_plantvillage_0_split -> loss3/classifier_plantvillage_loss3/classifier_plantvillage_0_split_2
I0403 15:47:03.546175 14402 net.cpp:399] loss3/classifier_plantvillage_loss3/classifier_plantvillage_0_split -> loss3/classifier_plantvillage_loss3/classifier_plantvillage_0_split_3
I0403 15:47:03.546279 14402 net.cpp:141] Setting up loss3/classifier_plantvillage_loss3/classifier_plantvillage_0_split
I0403 15:47:03.546306 14402 net.cpp:148] Top shape: 24 38 (912)
I0403 15:47:03.546324 14402 net.cpp:148] Top shape: 24 38 (912)
I0403 15:47:03.546340 14402 net.cpp:148] Top shape: 24 38 (912)
I0403 15:47:03.546367 14402 net.cpp:148] Top shape: 24 38 (912)
I0403 15:47:03.546381 14402 net.cpp:156] Memory required for data: 1346079072
I0403 15:47:03.546396 14402 layer_factory.hpp:77] Creating layer loss1/loss
I0403 15:47:03.546418 14402 net.cpp:91] Creating Layer loss1/loss
I0403 15:47:03.546437 14402 net.cpp:425] loss1/loss <- loss1/classifier_plantvillage_loss1/classifier_plantvillage_0_split_0
I0403 15:47:03.546469 14402 net.cpp:425] loss1/loss <- label_data_1_split_0
…
