…
I0403 15:39:17.535046 13884 net.cpp:313] The NetState phase (1) differed from the phase (0) specified by a rule in layer data
I0403 15:39:17.536209 13884 net.cpp:49] Initializing net from parameters: 
state {
  phase: TEST
}
layer {
  name: "data"
  type: "Data"
  top: "data"
  top: "label"
  include {
    phase: TEST
  }
  transform_param {
    mirror: false
    crop_size: 224
    mean_file: "/home/mohanty/data/final_dataset/lmdb/color-80-20/mean.binaryproto"
  }
  data_param {
    source: "/home/mohanty/data/final_dataset/lmdb/color-80-20/test_db"
    batch_size: 24
    backend: LMDB
  }
}
layer {
  name: "conv1/7x7_s2"
  type: "Convolution"
  bottom: "data"
  top: "conv1/7x7_s2"
  param {
    lr_mult: 1
    decay_mult: 1
  }
  param {
    lr_mult: 2
    decay_mult: 0
  }
  convolution_param {
    num_output: 64
    pad: 3
    kernel_size: 7
    stride: 2
    weight_filler {
      type: "xavier"
      std: 0.1
    }
    bias_filler {
      type: "constant"
      value: 0.2
    }
  }
}
layer {
  name: "conv1/relu_7x7"
  type: "ReLU"
  bottom: "conv1/7x7_s2"
  top: "conv1/7x7_s2"
}
layer {
  name: "pool1/3x3_s2"
  type: "Pooling"
  bottom: "conv1/7x7_s2"
  top: "pool1/3x3_s2"
  pooling_param {
    pool: MAX
    kernel_size: 3
    stride: 2
  }
}
layer {
  name: "pool1/norm1"
  type: "LRN"
  bottom: "pool1/3x3_s2"
  top: "pool1/norm1"
  lrn_param {
    local_size: 5
    alpha: 0.0001
    beta: 0.75
  }
}
layer {
  name: "conv2/3x3_reduce"
  type: "Convolution"
  bottom: "pool1/norm1"
  top: "conv2/3x3_reduce"
  param {
    lr_mult: 1
    decay_mult: 1
  }
  param {
    lr_mult: 2
    decay_mult: 0
  }
  convolution_param {
    num_output: 64
    kernel_size: 1
    weight_filler {
      type: "xavier"
      std: 0.1
    }
    bias_filler {
      type: "constant"
      value: 0.2
    }
  }
}
layer {
  name: "conv2/relu_3x3_reduce"
  type: "ReLU"
  bottom: "conv2/3x3_reduce"
  top: "conv2/3x3_reduce"
}
layer {
  name: "conv2/3x3"
  type: "Convolution"
  bottom: "conv2/3x3_reduce"
  top: "conv2/3x3"
  param {
    lr_mult: 1
    decay_mult: 1
  }
  param {
    lr_mult: 2
    decay_mult: 0
  }
  convolution_param {
    num_output: 192
    pad: 1
    kernel_size: 3
    weight_filler {
      type: "xavier"
      std: 0.03
    }
    bias_filler {
      type: "constant"
      value: 0.2
    }
  }
}
layer {
  name: "conv2/relu_3x3"
  type: "ReLU"
  bottom: "conv2/3x3"
  top: "conv2/3x3"
}
layer {
  name: "conv2/norm2"
  type: "LRN"
  bottom: "conv2/3x3"
  top: "conv2/norm2"
  lrn_param {
    local_size: 5
    alpha: 0.0001
    beta: 0.75
  }
}
layer {
  name: "pool2/3x3_s2"
  type: "Pooling"
  bottom: "conv2/norm2"
  top: "pool2/3x3_s2"
  pooling_param {
    pool: MAX
    kernel_size: 3
    stride: 2
  }
}
layer {
  name: "inception_3a/1x1"
  type: "Convolution"
  bottom: "pool2/3x3_s2"
  top: "inception_3a/1x1"
  param {
    lr_mult: 1
    decay_mult: 1
  }
  param {
    lr_mult: 2
    decay_mult: 0
  }
  convolution_param {
    num_output: 64
    kernel_size: 1
    weight_filler {
      type: "xavier"
      std: 0.03
    }
    bias_filler {
      type: "constant"
      value: 0.2
    }
  }
}
layer {
  name: "inception_3a/relu_1x1"
  type: "ReLU"
  bottom: "inception_3a/1x1"
  top: "inception_3a/1x1"
}
layer {
  name: "inception_3a/3x3_reduce"
  type: "Convolution"
  bottom: "pool2/3x3_s2"
  top: "inception_3a/3x3_reduce"
  param {
    lr_mult: 1
    decay_mult: 1
  }
  param {
    lr_mult: 2
    decay_mult: 0
  }
  convolution_param {
    num_output: 96
    kernel_size: 1
    weight_filler {
      type: "xavier"
      std: 0.09
    }
    bias_filler {
      type: "constant"
      value: 0.2
    }
  }
}
layer {
  name: "inception_3a/relu_3x3_reduce"
  type: "ReLU"
  bottom: "inception_3a/3x3_reduce"
  top: "inception_3a/3x3_reduce"
}
layer {
  name: "inception_3a/3x3"
  type: "Convolution"
  bottom: "inception_3a/3x3_reduce"
  top: "inception_3a/3x3"
  param {
    lr_mult: 1
    decay_mult: 1
  }
  param {
    lr_mult: 2
    decay_mult: 0
  }
  convolution_param {
    num_output: 128
    pad: 1
    kernel_size: 3
    weight_filler {
      type: "xavier"
      std: 0.03
    }
    bias_filler {
      type: "constant"
      value: 0.2
    }
  }
}
layer {
  name: "inception_3a/relu_3x3"
  type: "ReLU"
  bottom: "inception_3a/3x3"
  top: "inception_3a/3x3"
}
layer {
  name: "inception_3a/5x5_reduce"
  type: "Convolution"
  bottom: "pool2/3x3_s2"
  top: "inception_3a/5x5_reduce"
  param {
    lr_mult: 1
    decay_mult: 1
  }
  param {
    lr_mult: 2
    decay_mult: 0
  }
  convolution_param {
    num_output: 16
    kernel_size: 1
    weight_filler {
      type: "xavier"
      std: 0.2
    }
    bias_filler {
      type: "constant"
      value: 0.2
    }
  }
}
layer {
  name: "inception_3a/relu_5x5_reduce"
  type: "ReLU"
  bottom: "inception_3a/5x5_reduce"
  top: "inception_3a/5x5_reduce"
}
layer {
  name: "inception_3a/5x5"
  type: "Convolution"
  bottom: "inception_3a/5x5_reduce"
  top: "inception_3a/5x5"
  param {
    lr_mult: 1
    decay_mult: 1
  }
  param {
    lr_mult: 2
    decay_mult: 0
  }
  convolution_param {
    num_output: 32
    pad: 2
    kernel_size: 5
    weight_filler {
      type: "xavier"
      std: 0.03
    }
    bias_filler {
      type: "constant"
      value: 0.2
    }
  }
}
layer {
  name: "inception_3a/relu_5x5"
  type: "ReLU"
  bottom: "inception_3a/5x5"
  top: "inception_3a/5x5"
}
layer {
  name: "inception_3a/pool"
  type: "Pooling"
  bottom: "pool2/3x3_s2"
  top: "inception_3a/pool"
  pooling_param {
    pool: MAX
    kernel_size: 3
    stride: 1
    pad: 1
  }
}
layer {
  name: "inception_3a/pool_proj"
  type: "Convolution"
  bottom: "inception_3a/pool"
  top: "inception_3a/pool_proj"
  param {
    lr_mult: 1
    decay_mult: 1
  }
  param {
    lr_mult: 2
    decay_mult: 0
  }
  convolution_param {
    num_output: 32
    kernel_size: 1
    weight_filler {
      type: "xavier"
      std: 0.1
    }
    bias_filler {
      type: "constant"
      value: 0.2
    }
  }
}
layer {
  name: "inception_3a/relu_pool_proj"
  type: "ReLU"
  bottom: "inception_3a/pool_proj"
  top: "inception_3a/pool_proj"
}
layer {
  name: "inception_3a/output"
  type: "Concat"
  bottom: "inception_3a/1x1"
  bottom: "inception_3a/3x3"
  bottom: "inception_3a/5x5"
  bottom: "inception_3a/pool_proj"
  top: "inception_3a/output"
}
layer {
  name: "inception_3b/1x1"
  type: "Convolution"
  bottom: "inception_3a/output"
  top: "inception_3b/1x1"
  param {
    lr_mult: 1
    decay_mult: 1
  }
  param {
    lr_mult: 2
    decay_mult: 0
  }
  convolution_param {
    num_output: 128
    kernel_size: 1
    weight_filler {
      type: "xavier"
      std: 0.03
    }
    bias_filler {
      type: "constant"
      value: 0.2
    }
  }
}
layer {
  name: "inception_3b/relu_1x1"
  type: "ReLU"
  bottom: "inception_3b/1x1"
  top: "inception_3b/1x1"
}
layer {
  name: "inception_3b/3x3_reduce"
  type: "Convolution"
  bottom: "inception_3a/output"
  top: "inception_3b/3x3_reduce"
  param {
    lr_mult: 1
    decay_mult: 1
  }
  param {
    lr_mult: 2
    decay_mult: 0
  }
  convolution_param {
    num_output: 128
    kernel_size: 1
    weight_filler {
      type: "xavier"
      std: 0.09
    }
    bias_filler {
      type: "constant"
      value: 0.2
    }
  }
}
layer {
  name: "inception_3b/relu_3x3_reduce"
  type: "ReLU"
  bottom: "inception_3b/3x3_reduce"
  top: "inception_3b/3x3_reduce"
}
layer {
  name: "inception_3b/3x3"
  type: "Convolution"
  bottom: "inception_3b/3x3_reduce"
  top: "inception_3b/3x3"
  param {
    lr_mult: 1
    decay_mult: 1
  }
  param {
    lr_mult: 2
    decay_mult: 0
  }
  convolution_param {
    num_output: 192
    pad: 1
    kernel_size: 3
    weight_filler {
      type: "xavier"
      std: 0.03
    }
    bias_filler {
      type: "constant"
      value: 0.2
    }
  }
}
layer {
  name: "inception_3b/relu_3x3"
  type: "ReLU"
  bottom: "inception_3b/3x3"
  top: "inception_3b/3x3"
}
layer {
  name: "inception_3b/5x5_reduce"
  type: "Convolution"
  bottom: "inception_3a/output"
  top: "inception_3b/5x5_reduce"
  param {
    lr_mult: 1
    decay_mult: 1
  }
  param {
    lr_mult: 2
    decay_mult: 0
  }
  convolution_param {
    num_output: 32
    kernel_size: 1
    weight_filler {
      type: "xavier"
      std: 0.2
    }
    bias_filler {
      type: "constant"
      value: 0.2
    }
  }
}
layer {
  name: "inception_3b/relu_5x5_reduce"
  type: "ReLU"
  bottom: "inception_3b/5x5_reduce"
  top: "inception_3b/5x5_reduce"
}
layer {
  name: "inception_3b/5x5"
  type: "Convolution"
  bottom: "inception_3b/5x5_reduce"
  top: "inception_3b/5x5"
  param {
    lr_mult: 1
    decay_mult: 1
  }
  param {
    lr_mult: 2
    decay_mult: 0
  }
  convolution_param {
    num_output: 96
    pad: 2
    kernel_size: 5
    weight_filler {
      type: "xavier"
      std: 0.03
    }
    bias_filler {
      type: "constant"
      value: 0.2
    }
  }
}
layer {
  name: "inception_3b/relu_5x5"
  type: "ReLU"
  bottom: "inception_3b/5x5"
  top: "inception_3b/5x5"
}
layer {
  name: "inception_3b/pool"
  type: "Pooling"
  bottom: "inception_3a/output"
  top: "inception_3b/pool"
  pooling_param {
    pool: MAX
    kernel_size: 3
    stride: 1
    pad: 1
  }
}
layer {
  name: "inception_3b/pool_proj"
  type: "Convolution"
  bottom: "inception_3b/pool"
  top: "inception_3b/pool_proj"
  param {
    lr_mult: 1
    decay_mult: 1
  }
  param {
    lr_mult: 2
    decay_mult: 0
  }
  convolution_param {
    num_output: 64
    kernel_size: 1
    weight_filler {
      type: "xavier"
      std: 0.1
    }
    bias_filler {
      type: "constant"
      value: 0.2
    }
  }
}
layer {
  name: "inception_3b/relu_pool_proj"
  type: "ReLU"
  bottom: "inception_3b/pool_proj"
  top: "inception_3b/pool_proj"
}
layer {
  name: "inception_3b/output"
  type: "Concat"
  bottom: "inception_3b/1x1"
  bottom: "inception_3b/3x3"
  bottom: "inception_3b/5x5"
  bottom: "inception_3b/pool_proj"
  top: "inception_3b/output"
}
layer {
  name: "pool3/3x3_s2"
  type: "Pooling"
  bottom: "inception_3b/output"
  top: "pool3/3x3_s2"
  pooling_param {
    pool: MAX
    kernel_size: 3
    stride: 2
  }
}
layer {
  name: "inception_4a/1x1"
  type: "Convolution"
  bottom: "pool3/3x3_s2"
  top: "inception_4a/1x1"
  param {
    lr_mult: 1
    decay_mult: 1
  }
  param {
    lr_mult: 2
    decay_mult: 0
  }
  convolution_param {
    num_output: 192
    kernel_size: 1
    weight_filler {
      type: "xavier"
      std: 0.03
    }
    bias_filler {
      type: "constant"
      value: 0.2
    }
  }
}
layer {
  name: "inception_4a/relu_1x1"
  type: "ReLU"
  bottom: "inception_4a/1x1"
  top: "inception_4a/1x1"
}
layer {
  name: "inception_4a/3x3_reduce"
  type: "Convolution"
  bottom: "pool3/3x3_s2"
  top: "inception_4a/3x3_reduce"
  param {
    lr_mult: 1
    decay_mult: 1
  }
  param {
    lr_mult: 2
    decay_mult: 0
  }
  convolution_param {
    num_output: 96
    kernel_size: 1
    weight_filler {
      type: "xavier"
      std: 0.09
    }
    bias_filler {
      type: "constant"
      value: 0.2
    }
  }
}
layer {
  name: "inception_4a/relu_3x3_reduce"
  type: "ReLU"
  bottom: "inception_4a/3x3_reduce"
  top: "inception_4a/3x3_reduce"
}
layer {
  name: "inception_4a/3x3"
  type: "Convolution"
  bottom: "inception_4a/3x3_reduce"
  top: "inception_4a/3x3"
  param {
    lr_mult: 1
    decay_mult: 1
  }
  param {
    lr_mult: 2
    decay_mult: 0
  }
  convolution_param {
    num_output: 208
    pad: 1
    kernel_size: 3
    weight_filler {
      type: "xavier"
      std: 0.03
    }
    bias_filler {
      type: "constant"
      value: 0.2
    }
  }
}
layer {
  name: "inception_4a/relu_3x3"
  type: "ReLU"
  bottom: "inception_4a/3x3"
  top: "inception_4a/3x3"
}
layer {
  name: "inception_4a/5x5_reduce"
  type: "Convolution"
  bottom: "pool3/3x3_s2"
  top: "inception_4a/5x5_reduce"
  param {
    lr_mult: 1
    decay_mult: 1
  }
  param {
    lr_mult: 2
    decay_mult: 0
  }
  convolution_param {
    num_output: 16
    kernel_size: 1
    weight_filler {
      type: "xavier"
      std: 0.2
    }
    bias_filler {
      type: "constant"
      value: 0.2
    }
  }
}
layer {
  name: "inception_4a/relu_5x5_reduce"
  type: "ReLU"
  bottom: "inception_4a/5x5_reduce"
  top: "inception_4a/5x5_reduce"
}
layer {
  name: "inception_4a/5x5"
  type: "Convolution"
  bottom: "inception_4a/5x5_reduce"
  top: "inception_4a/5x5"
  param {
    lr_mult: 1
    decay_mult: 1
  }
  param {
    lr_mult: 2
    decay_mult: 0
  }
  convolution_param {
    num_output: 48
    pad: 2
    kernel_size: 5
    weight_filler {
      type: "xavier"
      std: 0.03
    }
    bias_filler {
      type: "constant"
      value: 0.2
    }
  }
}
layer {
  name: "inception_4a/relu_5x5"
  type: "ReLU"
  bottom: "inception_4a/5x5"
  top: "inception_4a/5x5"
}
layer {
  name: "inception_4a/pool"
  type: "Pooling"
  bottom: "pool3/3x3_s2"
  top: "inception_4a/pool"
  pooling_param {
    pool: MAX
    kernel_size: 3
    stride: 1
    pad: 1
  }
}
layer {
  name: "inception_4a/pool_proj"
  type: "Convolution"
  bottom: "inception_4a/pool"
  top: "inception_4a/pool_proj"
  param {
    lr_mult: 1
    decay_mult: 1
  }
  param {
    lr_mult: 2
    decay_mult: 0
  }
  convolution_param {
    num_output: 64
    kernel_size: 1
    weight_filler {
      type: "xavier"
      std: 0.1
    }
    bias_filler {
      type: "constant"
      value: 0.2
    }
  }
}
layer {
  name: "inception_4a/relu_pool_proj"
  type: "ReLU"
  bottom: "inception_4a/pool_proj"
  top: "inception_4a/pool_proj"
}
layer {
  name: "inception_4a/output"
  type: "Concat"
  bottom: "inception_4a/1x1"
  bottom: "inception_4a/3x3"
  bottom: "inception_4a/5x5"
  bottom: "inception_4a/pool_proj"
  top: "inception_4a/output"
}
layer {
  name: "loss1/ave_pool"
  type: "Pooling"
  bottom: "inception_4a/output"
  top: "loss1/ave_pool"
  pooling_param {
    pool: AVE
    kernel_size: 5
    stride: 3
  }
}
layer {
  name: "loss1/conv"
  type: "Convolution"
  bottom: "loss1/ave_pool"
  top: "loss1/conv"
  param {
    lr_mult: 1
    decay_mult: 1
  }
  param {
    lr_mult: 2
    decay_mult: 0
  }
  convolution_param {
    num_output: 128
    kernel_size: 1
    weight_filler {
      type: "xavier"
      std: 0.08
    }
    bias_filler {
      type: "constant"
      value: 0.2
    }
  }
}
layer {
  name: "loss1/relu_conv"
  type: "ReLU"
  bottom: "loss1/conv"
  top: "loss1/conv"
}
layer {
  name: "loss1/fc"
  type: "InnerProduct"
  bottom: "loss1/conv"
  top: "loss1/fc"
  param {
    lr_mult: 1
    decay_mult: 1
  }
  param {
    lr_mult: 2
    decay_mult: 0
  }
  inner_product_param {
    num_output: 1024
    weight_filler {
      type: "xavier"
      std: 0.02
    }
    bias_filler {
      type: "constant"
      value: 0.2
    }
  }
}
layer {
  name: "loss1/relu_fc"
  type: "ReLU"
  bottom: "loss1/fc"
  top: "loss1/fc"
}
layer {
  name: "loss1/drop_fc"
  type: "Dropout"
  bottom: "loss1/fc"
  top: "loss1/fc"
  dropout_param {
    dropout_ratio: 0.7
  }
}
layer {
  name: "loss1/classifier_plantvillage"
  type: "InnerProduct"
  bottom: "loss1/fc"
  top: "loss1/classifier_plantvillage"
  param {
    lr_mult: 1
    decay_mult: 1
  }
  param {
    lr_mult: 2
    decay_mult: 0
  }
  inner_product_param {
    num_output: 38
    weight_filler {
      type: "xavier"
      std: 0.0009765625
    }
    bias_filler {
      type: "constant"
      value: 0
    }
  }
}
layer {
  name: "inception_4b/1x1"
  type: "Convolution"
  bottom: "inception_4a/output"
  top: "inception_4b/1x1"
  param {
    lr_mult: 1
    decay_mult: 1
  }
  param {
    lr_mult: 2
    decay_mult: 0
  }
  convolution_param {
    num_output: 160
    kernel_size: 1
    weight_filler {
      type: "xavier"
      std: 0.03
    }
    bias_filler {
      type: "constant"
      value: 0.2
    }
  }
}
layer {
  name: "inception_4b/relu_1x1"
  type: "ReLU"
  bottom: "inception_4b/1x1"
  top: "inception_4b/1x1"
}
layer {
  name: "inception_4b/3x3_reduce"
  type: "Convolution"
  bottom: "inception_4a/output"
  top: "inception_4b/3x3_reduce"
  param {
    lr_mult: 1
    decay_mult: 1
  }
  param {
    lr_mult: 2
    decay_mult: 0
  }
  convolution_param {
    num_output: 112
    kernel_size: 1
    weight_filler {
      type: "xavier"
      std: 0.09
    }
    bias_filler {
      type: "constant"
      value: 0.2
    }
  }
}
layer {
  name: "inception_4b/relu_3x3_reduce"
  type: "ReLU"
  bottom: "inception_4b/3x3_reduce"
  top: "inception_4b/3x3_reduce"
}
layer {
  name: "inception_4b/3x3"
  type: "Convolution"
  bottom: "inception_4b/3x3_reduce"
  top: "inception_4b/3x3"
  param {
    lr_mult: 1
    decay_mult: 1
  }
  param {
    lr_mult: 2
    decay_mult: 0
  }
  convolution_param {
    num_output: 224
    pad: 1
    kernel_size: 3
    weight_filler {
      type: "xavier"
      std: 0.03
    }
    bias_filler {
      type: "constant"
      value: 0.2
    }
  }
}
layer {
  name: "inception_4b/relu_3x3"
  type: "ReLU"
  bottom: "inception_4b/3x3"
  top: "inception_4b/3x3"
}
layer {
  name: "inception_4b/5x5_reduce"
  type: "Convolution"
  bottom: "inception_4a/output"
  top: "inception_4b/5x5_reduce"
  param {
    lr_mult: 1
    decay_mult: 1
  }
  param {
    lr_mult: 2
    decay_mult: 0
  }
  convolution_param {
    num_output: 24
    kernel_size: 1
    weight_filler {
      type: "xavier"
      std: 0.2
    }
    bias_filler {
      type: "constant"
      value: 0.2
    }
  }
}
layer {
  name: "inception_4b/relu_5x5_reduce"
  type: "ReLU"
  bottom: "inception_4b/5x5_reduce"
  top: "inception_4b/5x5_reduce"
}
layer {
  name: "inception_4b/5x5"
  type: "Convolution"
  bottom: "inception_4b/5x5_reduce"
  top: "inception_4b/5x5"
  param {
    lr_mult: 1
    decay_mult: 1
  }
  param {
    lr_mult: 2
    decay_mult: 0
  }
  convolution_param {
    num_output: 64
    pad: 2
    kernel_size: 5
    weight_filler {
      type: "xavier"
      std: 0.03
    }
    bias_filler {
      type: "constant"
      value: 0.2
    }
  }
}
layer {
  name: "inception_4b/relu_5x5"
  type: "ReLU"
  bottom: "inception_4b/5x5"
  top: "inception_4b/5x5"
}
layer {
  name: "inception_4b/pool"
  type: "Pooling"
  bottom: "inception_4a/output"
  top: "inception_4b/pool"
  pooling_param {
    pool: MAX
    kernel_size: 3
    stride: 1
    pad: 1
  }
}
layer {
  name: "inception_4b/pool_proj"
  type: "Convolution"
  bottom: "inception_4b/pool"
  top: "inception_4b/pool_proj"
  param {
    lr_mult: 1
    decay_mult: 1
  }
  param {
    lr_mult: 2
    decay_mult: 0
  }
  convolution_param {
    num_output: 64
    kernel_size: 1
    weight_filler {
      type: "xavier"
      std: 0.1
    }
    bias_filler {
      type: "constant"
      value: 0.2
    }
  }
}
layer {
  name: "inception_4b/relu_pool_proj"
  type: "ReLU"
  bottom: "inception_4b/pool_proj"
  top: "inception_4b/pool_proj"
}
layer {
  name: "inception_4b/output"
  type: "Concat"
  bottom: "inception_4b/1x1"
  bottom: "inception_4b/3x3"
  bottom: "inception_4b/5x5"
  bottom: "inception_4b/pool_proj"
  top: "inception_4b/output"
}
layer {
  name: "inception_4c/1x1"
  type: "Convolution"
  bottom: "inception_4b/output"
  top: "inception_4c/1x1"
  param {
    lr_mult: 1
    decay_mult: 1
  }
  param {
    lr_mult: 2
    decay_mult: 0
  }
  convolution_param {
    num_output: 128
    kernel_size: 1
    weight_filler {
      type: "xavier"
      std: 0.03
    }
    bias_filler {
      type: "constant"
      value: 0.2
    }
  }
}
layer {
  name: "inception_4c/relu_1x1"
  type: "ReLU"
  bottom: "inception_4c/1x1"
  top: "inception_4c/1x1"
}
layer {
  name: "inception_4c/3x3_reduce"
  type: "Convolution"
  bottom: "inception_4b/output"
  top: "inception_4c/3x3_reduce"
  param {
    lr_mult: 1
    decay_mult: 1
  }
  param {
    lr_mult: 2
    decay_mult: 0
  }
  convolution_param {
    num_output: 128
    kernel_size: 1
    weight_filler {
      type: "xavier"
      std: 0.09
    }
    bias_filler {
      type: "constant"
      value: 0.2
    }
  }
}
layer {
  name: "inception_4c/relu_3x3_reduce"
  type: "ReLU"
  bottom: "inception_4c/3x3_reduce"
  top: "inception_4c/3x3_reduce"
}
layer {
  name: "inception_4c/3x3"
  type: "Convolution"
  bottom: "inception_4c/3x3_reduce"
  top: "inception_4c/3x3"
  param {
    lr_mult: 1
    decay_mult: 1
  }
  param {
    lr_mult: 2
    decay_mult: 0
  }
  convolution_param {
    num_output: 256
    pad: 1
    kernel_size: 3
    weight_filler {
      type: "xavier"
      std: 0.03
    }
    bias_filler {
      type: "constant"
      value: 0.2
    }
  }
}
layer {
  name: "inception_4c/relu_3x3"
  type: "ReLU"
  bottom: "inception_4c/3x3"
  top: "inception_4c/3x3"
}
layer {
  name: "inception_4c/5x5_reduce"
  type: "Convolution"
  bottom: "inception_4b/output"
  top: "inception_4c/5x5_reduce"
  param {
    lr_mult: 1
    decay_mult: 1
  }
  param {
    lr_mult: 2
    decay_mult: 0
  }
  convolution_param {
    num_output: 24
    kernel_size: 1
    weight_filler {
      type: "xavier"
      std: 0.2
    }
    bias_filler {
      type: "constant"
      value: 0.2
    }
  }
}
layer {
  name: "inception_4c/relu_5x5_reduce"
  type: "ReLU"
  bottom: "inception_4c/5x5_reduce"
  top: "inception_4c/5x5_reduce"
}
layer {
  name: "inception_4c/5x5"
  type: "Convolution"
  bottom: "inception_4c/5x5_reduce"
  top: "inception_4c/5x5"
  param {
    lr_mult: 1
    decay_mult: 1
  }
  param {
    lr_mult: 2
    decay_mult: 0
  }
  convolution_param {
    num_output: 64
    pad: 2
    kernel_size: 5
    weight_filler {
      type: "xavier"
      std: 0.03
    }
    bias_filler {
      type: "constant"
      value: 0.2
    }
  }
}
layer {
  name: "inception_4c/relu_5x5"
  type: "ReLU"
  bottom: "inception_4c/5x5"
  top: "inception_4c/5x5"
}
layer {
  name: "inception_4c/pool"
  type: "Pooling"
  bottom: "inception_4b/output"
  top: "inception_4c/pool"
  pooling_param {
    pool: MAX
    kernel_size: 3
    stride: 1
    pad: 1
  }
}
layer {
  name: "inception_4c/pool_proj"
  type: "Convolution"
  bottom: "inception_4c/pool"
  top: "inception_4c/pool_proj"
  param {
    lr_mult: 1
    decay_mult: 1
  }
  param {
    lr_mult: 2
    decay_mult: 0
  }
  convolution_param {
    num_output: 64
    kernel_size: 1
    weight_filler {
      type: "xavier"
      std: 0.1
    }
    bias_filler {
      type: "constant"
      value: 0.2
    }
  }
}
layer {
  name: "inception_4c/relu_pool_proj"
  type: "ReLU"
  bottom: "inception_4c/pool_proj"
  top: "inception_4c/pool_proj"
}
layer {
  name: "inception_4c/output"
  type: "Concat"
  bottom: "inception_4c/1x1"
  bottom: "inception_4c/3x3"
  bottom: "inception_4c/5x5"
  bottom: "inception_4c/pool_proj"
  top: "inception_4c/output"
}
layer {
  name: "inception_4d/1x1"
  type: "Convolution"
  bottom: "inception_4c/output"
  top: "inception_4d/1x1"
  param {
    lr_mult: 1
    decay_mult: 1
  }
  param {
    lr_mult: 2
    decay_mult: 0
  }
  convolution_param {
    num_output: 112
    kernel_size: 1
    weight_filler {
      type: "xavier"
      std: 0.03
    }
    bias_filler {
      type: "constant"
      value: 0.2
    }
  }
}
layer {
  name: "inception_4d/relu_1x1"
  type: "ReLU"
  bottom: "inception_4d/1x1"
  top: "inception_4d/1x1"
}
layer {
  name: "inception_4d/3x3_reduce"
  type: "Convolution"
  bottom: "inception_4c/output"
  top: "inception_4d/3x3_reduce"
  param {
    lr_mult: 1
    decay_mult: 1
  }
  param {
    lr_mult: 2
    decay_mult: 0
  }
  convolution_param {
    num_output: 144
    kernel_size: 1
    weight_filler {
      type: "xavier"
      std: 0.09
    }
    bias_filler {
      type: "constant"
      value: 0.2
    }
  }
}
layer {
  name: "inception_4d/relu_3x3_reduce"
  type: "ReLU"
  bottom: "inception_4d/3x3_reduce"
  top: "inception_4d/3x3_reduce"
}
layer {
  name: "inception_4d/3x3"
  type: "Convolution"
  bottom: "inception_4d/3x3_reduce"
  top: "inception_4d/3x3"
  param {
    lr_mult: 1
    decay_mult: 1
  }
  param {
    lr_mult: 2
    decay_mult: 0
  }
  convolution_param {
    num_output: 288
    pad: 1
    kernel_size: 3
    weight_filler {
      type: "xavier"
      std: 0.03
    }
    bias_filler {
      type: "constant"
      value: 0.2
    }
  }
}
layer {
  name: "inception_4d/relu_3x3"
  type: "ReLU"
  bottom: "inception_4d/3x3"
  top: "inception_4d/3x3"
}
layer {
  name: "inception_4d/5x5_reduce"
  type: "Convolution"
  bottom: "inception_4c/output"
  top: "inception_4d/5x5_reduce"
  param {
    lr_mult: 1
    decay_mult: 1
  }
  param {
    lr_mult: 2
    decay_mult: 0
  }
  convolution_param {
    num_output: 32
    kernel_size: 1
    weight_filler {
      type: "xavier"
      std: 0.2
    }
    bias_filler {
      type: "constant"
      value: 0.2
    }
  }
}
layer {
  name: "inception_4d/relu_5x5_reduce"
  type: "ReLU"
  bottom: "inception_4d/5x5_reduce"
  top: "inception_4d/5x5_reduce"
}
layer {
  name: "inception_4d/5x5"
  type: "Convolution"
  bottom: "inception_4d/5x5_reduce"
  top: "inception_4d/5x5"
  param {
    lr_mult: 1
    decay_mult: 1
  }
  param {
    lr_mult: 2
    decay_mult: 0
  }
  convolution_param {
    num_output: 64
    pad: 2
    kernel_size: 5
    weight_filler {
      type: "xavier"
      std: 0.03
    }
    bias_filler {
      type: "constant"
      value: 0.2
    }
  }
}
layer {
  name: "inception_4d/relu_5x5"
  type: "ReLU"
  bottom: "inception_4d/5x5"
  top: "inception_4d/5x5"
}
layer {
  name: "inception_4d/pool"
  type: "Pooling"
  bottom: "inception_4c/output"
  top: "inception_4d/pool"
  pooling_param {
    pool: MAX
    kernel_size: 3
    stride: 1
    pad: 1
  }
}
layer {
  name: "inception_4d/pool_proj"
  type: "Convolution"
  bottom: "inception_4d/pool"
  top: "inception_4d/pool_proj"
  param {
    lr_mult: 1
    decay_mult: 1
  }
  param {
    lr_mult: 2
    decay_mult: 0
  }
  convolution_param {
    num_output: 64
    kernel_size: 1
    weight_filler {
      type: "xavier"
      std: 0.1
    }
    bias_filler {
      type: "constant"
      value: 0.2
    }
  }
}
layer {
  name: "inception_4d/relu_pool_proj"
  type: "ReLU"
  bottom: "inception_4d/pool_proj"
  top: "inception_4d/pool_proj"
}
layer {
  name: "inception_4d/output"
  type: "Concat"
  bottom: "inception_4d/1x1"
  bottom: "inception_4d/3x3"
  bottom: "inception_4d/5x5"
  bottom: "inception_4d/pool_proj"
  top: "inception_4d/output"
}
layer {
  name: "loss2/ave_pool"
  type: "Pooling"
  bottom: "inception_4d/output"
  top: "loss2/ave_pool"
  pooling_param {
    pool: AVE
    kernel_size: 5
    stride: 3
  }
}
layer {
  name: "loss2/conv"
  type: "Convolution"
  bottom: "loss2/ave_pool"
  top: "loss2/conv"
  param {
    lr_mult: 1
    decay_mult: 1
  }
  param {
    lr_mult: 2
    decay_mult: 0
  }
  convolution_param {
    num_output: 128
    kernel_size: 1
    weight_filler {
      type: "xavier"
      std: 0.08
    }
    bias_filler {
      type: "constant"
      value: 0.2
    }
  }
}
layer {
  name: "loss2/relu_conv"
  type: "ReLU"
  bottom: "loss2/conv"
  top: "loss2/conv"
}
layer {
  name: "loss2/fc"
  type: "InnerProduct"
  bottom: "loss2/conv"
  top: "loss2/fc"
  param {
    lr_mult: 1
    decay_mult: 1
  }
  param {
    lr_mult: 2
    decay_mult: 0
  }
  inner_product_param {
    num_output: 1024
    weight_filler {
      type: "xavier"
      std: 0.02
    }
    bias_filler {
      type: "constant"
      value: 0.2
    }
  }
}
layer {
  name: "loss2/relu_fc"
  type: "ReLU"
  bottom: "loss2/fc"
  top: "loss2/fc"
}
layer {
  name: "loss2/drop_fc"
  type: "Dropout"
  bottom: "loss2/fc"
  top: "loss2/fc"
  dropout_param {
    dropout_ratio: 0.7
  }
}
layer {
  name: "loss2/classifier_plantvillage"
  type: "InnerProduct"
  bottom: "loss2/fc"
  top: "loss2/classifier_plantvillage"
  param {
    lr_mult: 1
    decay_mult: 1
  }
  param {
    lr_mult: 2
    decay_mult: 0
  }
  inner_product_param {
    num_output: 38
    weight_filler {
      type: "xavier"
      std: 0.0009765625
    }
    bias_filler {
      type: "constant"
      value: 0
    }
  }
}
layer {
  name: "inception_4e/1x1"
  type: "Convolution"
  bottom: "inception_4d/output"
  top: "inception_4e/1x1"
  param {
    lr_mult: 1
    decay_mult: 1
  }
  param {
    lr_mult: 2
    decay_mult: 0
  }
  convolution_param {
    num_output: 256
    kernel_size: 1
    weight_filler {
      type: "xavier"
      std: 0.03
    }
    bias_filler {
      type: "constant"
      value: 0.2
    }
  }
}
layer {
  name: "inception_4e/relu_1x1"
  type: "ReLU"
  bottom: "inception_4e/1x1"
  top: "inception_4e/1x1"
}
layer {
  name: "inception_4e/3x3_reduce"
  type: "Convolution"
  bottom: "inception_4d/output"
  top: "inception_4e/3x3_reduce"
  param {
    lr_mult: 1
    decay_mult: 1
  }
  param {
    lr_mult: 2
    decay_mult: 0
  }
  convolution_param {
    num_output: 160
    kernel_size: 1
    weight_filler {
      type: "xavier"
      std: 0.09
    }
    bias_filler {
      type: "constant"
      value: 0.2
    }
  }
}
layer {
  name: "inception_4e/relu_3x3_reduce"
  type: "ReLU"
  bottom: "inception_4e/3x3_reduce"
  top: "inception_4e/3x3_reduce"
}
layer {
  name: "inception_4e/3x3"
  type: "Convolution"
  bottom: "inception_4e/3x3_reduce"
  top: "inception_4e/3x3"
  param {
    lr_mult: 1
    decay_mult: 1
  }
  param {
    lr_mult: 2
    decay_mult: 0
  }
  convolution_param {
    num_output: 320
    pad: 1
    kernel_size: 3
    weight_filler {
      type: "xavier"
      std: 0.03
    }
    bias_filler {
      type: "constant"
      value: 0.2
    }
  }
}
layer {
  name: "inception_4e/relu_3x3"
  type: "ReLU"
  bottom: "inception_4e/3x3"
  top: "inception_4e/3x3"
}
layer {
  name: "inception_4e/5x5_reduce"
  type: "Convolution"
  bottom: "inception_4d/output"
  top: "inception_4e/5x5_reduce"
  param {
    lr_mult: 1
    decay_mult: 1
  }
  param {
    lr_mult: 2
    decay_mult: 0
  }
  convolution_param {
    num_output: 32
    kernel_size: 1
    weight_filler {
      type: "xavier"
      std: 0.2
    }
    bias_filler {
      type: "constant"
      value: 0.2
    }
  }
}
layer {
  name: "inception_4e/relu_5x5_reduce"
  type: "ReLU"
  bottom: "inception_4e/5x5_reduce"
  top: "inception_4e/5x5_reduce"
}
layer {
  name: "inception_4e/5x5"
  type: "Convolution"
  bottom: "inception_4e/5x5_reduce"
  top: "inception_4e/5x5"
  p
I0403 15:39:17.537467 13884 layer_factory.hpp:77] Creating layer data
I0403 15:39:17.538056 13884 net.cpp:91] Creating Layer data
I0403 15:39:17.538089 13884 net.cpp:399] data -> data
I0403 15:39:17.538144 13884 net.cpp:399] data -> label
I0403 15:39:17.538183 13884 data_transformer.cpp:25] Loading mean file from: /home/mohanty/data/final_dataset/lmdb/color-80-20/mean.binaryproto
I0403 15:39:17.541424 13886 db_lmdb.cpp:38] Opened lmdb /home/mohanty/data/final_dataset/lmdb/color-80-20/test_db
I0403 15:39:17.551522 13884 data_layer.cpp:41] output data size: 24,3,224,224
I0403 15:39:17.578599 13884 net.cpp:141] Setting up data
I0403 15:39:17.578676 13884 net.cpp:148] Top shape: 24 3 224 224 (3612672)
I0403 15:39:17.578699 13884 net.cpp:148] Top shape: 24 (24)
I0403 15:39:17.578714 13884 net.cpp:156] Memory required for data: 14450784
I0403 15:39:17.578742 13884 layer_factory.hpp:77] Creating layer label_data_1_split
I0403 15:39:17.578768 13884 net.cpp:91] Creating Layer label_data_1_split
I0403 15:39:17.578786 13884 net.cpp:425] label_data_1_split <- label
I0403 15:39:17.578817 13884 net.cpp:399] label_data_1_split -> label_data_1_split_0
I0403 15:39:17.578845 13884 net.cpp:399] label_data_1_split -> label_data_1_split_1
I0403 15:39:17.578866 13884 net.cpp:399] label_data_1_split -> label_data_1_split_2
I0403 15:39:17.578887 13884 net.cpp:399] label_data_1_split -> label_data_1_split_3
I0403 15:39:17.578907 13884 net.cpp:399] label_data_1_split -> label_data_1_split_4
I0403 15:39:17.578927 13884 net.cpp:399] label_data_1_split -> label_data_1_split_5
I0403 15:39:17.578945 13884 net.cpp:399] label_data_1_split -> label_data_1_split_6
I0403 15:39:17.578965 13884 net.cpp:399] label_data_1_split -> label_data_1_split_7
I0403 15:39:17.578985 13884 net.cpp:399] label_data_1_split -> label_data_1_split_8
I0403 15:39:17.579005 13884 net.cpp:399] label_data_1_split -> label_data_1_split_9
I0403 15:39:17.579119 13884 net.cpp:141] Setting up label_data_1_split
I0403 15:39:17.579147 13884 net.cpp:148] Top shape: 24 (24)
I0403 15:39:17.579166 13884 net.cpp:148] Top shape: 24 (24)
I0403 15:39:17.579182 13884 net.cpp:148] Top shape: 24 (24)
I0403 15:39:17.579198 13884 net.cpp:148] Top shape: 24 (24)
I0403 15:39:17.579213 13884 net.cpp:148] Top shape: 24 (24)
I0403 15:39:17.579228 13884 net.cpp:148] Top shape: 24 (24)
I0403 15:39:17.579243 13884 net.cpp:148] Top shape: 24 (24)
I0403 15:39:17.579259 13884 net.cpp:148] Top shape: 24 (24)
I0403 15:39:17.579275 13884 net.cpp:148] Top shape: 24 (24)
I0403 15:39:17.579290 13884 net.cpp:148] Top shape: 24 (24)
I0403 15:39:17.579329 13884 net.cpp:156] Memory required for data: 14451744
I0403 15:39:17.579345 13884 layer_factory.hpp:77] Creating layer conv1/7x7_s2
I0403 15:39:17.579377 13884 net.cpp:91] Creating Layer conv1/7x7_s2
I0403 15:39:17.579396 13884 net.cpp:425] conv1/7x7_s2 <- data
I0403 15:39:17.579416 13884 net.cpp:399] conv1/7x7_s2 -> conv1/7x7_s2
I0403 15:39:17.717265 13884 net.cpp:141] Setting up conv1/7x7_s2
I0403 15:39:17.717332 13884 net.cpp:148] Top shape: 24 64 112 112 (19267584)
I0403 15:39:17.717352 13884 net.cpp:156] Memory required for data: 91522080
I0403 15:39:17.717384 13884 layer_factory.hpp:77] Creating layer conv1/relu_7x7
I0403 15:39:17.717412 13884 net.cpp:91] Creating Layer conv1/relu_7x7
I0403 15:39:17.717432 13884 net.cpp:425] conv1/relu_7x7 <- conv1/7x7_s2
I0403 15:39:17.717452 13884 net.cpp:386] conv1/relu_7x7 -> conv1/7x7_s2 (in-place)
I0403 15:39:17.717716 13884 net.cpp:141] Setting up conv1/relu_7x7
I0403 15:39:17.717747 13884 net.cpp:148] Top shape: 24 64 112 112 (19267584)
I0403 15:39:17.717766 13884 net.cpp:156] Memory required for data: 168592416
I0403 15:39:17.717784 13884 layer_factory.hpp:77] Creating layer pool1/3x3_s2
I0403 15:39:17.717811 13884 net.cpp:91] Creating Layer pool1/3x3_s2
I0403 15:39:17.717829 13884 net.cpp:425] pool1/3x3_s2 <- conv1/7x7_s2
I0403 15:39:17.717849 13884 net.cpp:399] pool1/3x3_s2 -> pool1/3x3_s2
I0403 15:39:17.717923 13884 net.cpp:141] Setting up pool1/3x3_s2
I0403 15:39:17.717949 13884 net.cpp:148] Top shape: 24 64 56 56 (4816896)
I0403 15:39:17.717965 13884 net.cpp:156] Memory required for data: 187860000
I0403 15:39:17.717981 13884 layer_factory.hpp:77] Creating layer pool1/norm1
I0403 15:39:17.718005 13884 net.cpp:91] Creating Layer pool1/norm1
I0403 15:39:17.718024 13884 net.cpp:425] pool1/norm1 <- pool1/3x3_s2
I0403 15:39:17.718041 13884 net.cpp:399] pool1/norm1 -> pool1/norm1
I0403 15:39:17.718343 13884 net.cpp:141] Setting up pool1/norm1
I0403 15:39:17.718371 13884 net.cpp:148] Top shape: 24 64 56 56 (4816896)
I0403 15:39:17.718389 13884 net.cpp:156] Memory required for data: 207127584
I0403 15:39:17.718405 13884 layer_factory.hpp:77] Creating layer conv2/3x3_reduce
I0403 15:39:17.718430 13884 net.cpp:91] Creating Layer conv2/3x3_reduce
I0403 15:39:17.718448 13884 net.cpp:425] conv2/3x3_reduce <- pool1/norm1
I0403 15:39:17.718467 13884 net.cpp:399] conv2/3x3_reduce -> conv2/3x3_reduce
I0403 15:39:17.719859 13884 net.cpp:141] Setting up conv2/3x3_reduce
I0403 15:39:17.719892 13884 net.cpp:148] Top shape: 24 64 56 56 (4816896)
I0403 15:39:17.719908 13884 net.cpp:156] Memory required for data: 226395168
I0403 15:39:17.719931 13884 layer_factory.hpp:77] Creating layer conv2/relu_3x3_reduce
I0403 15:39:17.719952 13884 net.cpp:91] Creating Layer conv2/relu_3x3_reduce
I0403 15:39:17.719970 13884 net.cpp:425] conv2/relu_3x3_reduce <- conv2/3x3_reduce
I0403 15:39:17.719988 13884 net.cpp:386] conv2/relu_3x3_reduce -> conv2/3x3_reduce (in-place)
I0403 15:39:17.720257 13884 net.cpp:141] Setting up conv2/relu_3x3_reduce
I0403 15:39:17.720285 13884 net.cpp:148] Top shape: 24 64 56 56 (4816896)
I0403 15:39:17.720301 13884 net.cpp:156] Memory required for data: 245662752
I0403 15:39:17.720317 13884 layer_factory.hpp:77] Creating layer conv2/3x3
I0403 15:39:17.720341 13884 net.cpp:91] Creating Layer conv2/3x3
I0403 15:39:17.720360 13884 net.cpp:425] conv2/3x3 <- conv2/3x3_reduce
I0403 15:39:17.720379 13884 net.cpp:399] conv2/3x3 -> conv2/3x3
I0403 15:39:17.722708 13884 net.cpp:141] Setting up conv2/3x3
I0403 15:39:17.722741 13884 net.cpp:148] Top shape: 24 192 56 56 (14450688)
I0403 15:39:17.722759 13884 net.cpp:156] Memory required for data: 303465504
I0403 15:39:17.722781 13884 layer_factory.hpp:77] Creating layer conv2/relu_3x3
I0403 15:39:17.722801 13884 net.cpp:91] Creating Layer conv2/relu_3x3
I0403 15:39:17.722820 13884 net.cpp:425] conv2/relu_3x3 <- conv2/3x3
I0403 15:39:17.722837 13884 net.cpp:386] conv2/relu_3x3 -> conv2/3x3 (in-place)
I0403 15:39:17.723016 13884 net.cpp:141] Setting up conv2/relu_3x3
I0403 15:39:17.723047 13884 net.cpp:148] Top shape: 24 192 56 56 (14450688)
I0403 15:39:17.723106 13884 net.cpp:156] Memory required for data: 361268256
I0403 15:39:17.723129 13884 layer_factory.hpp:77] Creating layer conv2/norm2
I0403 15:39:17.723148 13884 net.cpp:91] Creating Layer conv2/norm2
I0403 15:39:17.723166 13884 net.cpp:425] conv2/norm2 <- conv2/3x3
I0403 15:39:17.723186 13884 net.cpp:399] conv2/norm2 -> conv2/norm2
I0403 15:39:17.723487 13884 net.cpp:141] Setting up conv2/norm2
I0403 15:39:17.723517 13884 net.cpp:148] Top shape: 24 192 56 56 (14450688)
I0403 15:39:17.723534 13884 net.cpp:156] Memory required for data: 419071008
I0403 15:39:17.723551 13884 layer_factory.hpp:77] Creating layer pool2/3x3_s2
I0403 15:39:17.723569 13884 net.cpp:91] Creating Layer pool2/3x3_s2
I0403 15:39:17.723587 13884 net.cpp:425] pool2/3x3_s2 <- conv2/norm2
I0403 15:39:17.723604 13884 net.cpp:399] pool2/3x3_s2 -> pool2/3x3_s2
I0403 15:39:17.723657 13884 net.cpp:141] Setting up pool2/3x3_s2
I0403 15:39:17.723683 13884 net.cpp:148] Top shape: 24 192 28 28 (3612672)
I0403 15:39:17.723700 13884 net.cpp:156] Memory required for data: 433521696
I0403 15:39:17.723714 13884 layer_factory.hpp:77] Creating layer pool2/3x3_s2_pool2/3x3_s2_0_split
I0403 15:39:17.723733 13884 net.cpp:91] Creating Layer pool2/3x3_s2_pool2/3x3_s2_0_split
I0403 15:39:17.723749 13884 net.cpp:425] pool2/3x3_s2_pool2/3x3_s2_0_split <- pool2/3x3_s2
I0403 15:39:17.723767 13884 net.cpp:399] pool2/3x3_s2_pool2/3x3_s2_0_split -> pool2/3x3_s2_pool2/3x3_s2_0_split_0
I0403 15:39:17.723788 13884 net.cpp:399] pool2/3x3_s2_pool2/3x3_s2_0_split -> pool2/3x3_s2_pool2/3x3_s2_0_split_1
I0403 15:39:17.723809 13884 net.cpp:399] pool2/3x3_s2_pool2/3x3_s2_0_split -> pool2/3x3_s2_pool2/3x3_s2_0_split_2
I0403 15:39:17.723831 13884 net.cpp:399] pool2/3x3_s2_pool2/3x3_s2_0_split -> pool2/3x3_s2_pool2/3x3_s2_0_split_3
I0403 15:39:17.723898 13884 net.cpp:141] Setting up pool2/3x3_s2_pool2/3x3_s2_0_split
I0403 15:39:17.723923 13884 net.cpp:148] Top shape: 24 192 28 28 (3612672)
I0403 15:39:17.723940 13884 net.cpp:148] Top shape: 24 192 28 28 (3612672)
I0403 15:39:17.723958 13884 net.cpp:148] Top shape: 24 192 28 28 (3612672)
I0403 15:39:17.723975 13884 net.cpp:148] Top shape: 24 192 28 28 (3612672)
I0403 15:39:17.723990 13884 net.cpp:156] Memory required for data: 491324448
I0403 15:39:17.724005 13884 layer_factory.hpp:77] Creating layer inception_3a/1x1
I0403 15:39:17.724026 13884 net.cpp:91] Creating Layer inception_3a/1x1
I0403 15:39:17.724045 13884 net.cpp:425] inception_3a/1x1 <- pool2/3x3_s2_pool2/3x3_s2_0_split_0
I0403 15:39:17.724063 13884 net.cpp:399] inception_3a/1x1 -> inception_3a/1x1
I0403 15:39:17.725589 13884 net.cpp:141] Setting up inception_3a/1x1
I0403 15:39:17.725620 13884 net.cpp:148] Top shape: 24 64 28 28 (1204224)
I0403 15:39:17.725637 13884 net.cpp:156] Memory required for data: 496141344
I0403 15:39:17.725658 13884 layer_factory.hpp:77] Creating layer inception_3a/relu_1x1
I0403 15:39:17.725677 13884 net.cpp:91] Creating Layer inception_3a/relu_1x1
I0403 15:39:17.725694 13884 net.cpp:425] inception_3a/relu_1x1 <- inception_3a/1x1
I0403 15:39:17.725713 13884 net.cpp:386] inception_3a/relu_1x1 -> inception_3a/1x1 (in-place)
I0403 15:39:17.725883 13884 net.cpp:141] Setting up inception_3a/relu_1x1
I0403 15:39:17.725911 13884 net.cpp:148] Top shape: 24 64 28 28 (1204224)
I0403 15:39:17.725929 13884 net.cpp:156] Memory required for data: 500958240
I0403 15:39:17.725944 13884 layer_factory.hpp:77] Creating layer inception_3a/3x3_reduce
I0403 15:39:17.725965 13884 net.cpp:91] Creating Layer inception_3a/3x3_reduce
I0403 15:39:17.725983 13884 net.cpp:425] inception_3a/3x3_reduce <- pool2/3x3_s2_pool2/3x3_s2_0_split_1
I0403 15:39:17.726002 13884 net.cpp:399] inception_3a/3x3_reduce -> inception_3a/3x3_reduce
I0403 15:39:17.727777 13884 net.cpp:141] Setting up inception_3a/3x3_reduce
I0403 15:39:17.727808 13884 net.cpp:148] Top shape: 24 96 28 28 (1806336)
I0403 15:39:17.727826 13884 net.cpp:156] Memory required for data: 508183584
I0403 15:39:17.727849 13884 layer_factory.hpp:77] Creating layer inception_3a/relu_3x3_reduce
I0403 15:39:17.727890 13884 net.cpp:91] Creating Layer inception_3a/relu_3x3_reduce
I0403 15:39:17.727910 13884 net.cpp:425] inception_3a/relu_3x3_reduce <- inception_3a/3x3_reduce
I0403 15:39:17.727931 13884 net.cpp:386] inception_3a/relu_3x3_reduce -> inception_3a/3x3_reduce (in-place)
I0403 15:39:17.728133 13884 net.cpp:141] Setting up inception_3a/relu_3x3_reduce
I0403 15:39:17.728162 13884 net.cpp:148] Top shape: 24 96 28 28 (1806336)
I0403 15:39:17.728178 13884 net.cpp:156] Memory required for data: 515408928
I0403 15:39:17.728193 13884 layer_factory.hpp:77] Creating layer inception_3a/3x3
I0403 15:39:17.728217 13884 net.cpp:91] Creating Layer inception_3a/3x3
I0403 15:39:17.728237 13884 net.cpp:425] inception_3a/3x3 <- inception_3a/3x3_reduce
I0403 15:39:17.728260 13884 net.cpp:399] inception_3a/3x3 -> inception_3a/3x3
I0403 15:39:17.730008 13884 net.cpp:141] Setting up inception_3a/3x3
I0403 15:39:17.730039 13884 net.cpp:148] Top shape: 24 128 28 28 (2408448)
I0403 15:39:17.730057 13884 net.cpp:156] Memory required for data: 525042720
I0403 15:39:17.730075 13884 layer_factory.hpp:77] Creating layer inception_3a/relu_3x3
I0403 15:39:17.730103 13884 net.cpp:91] Creating Layer inception_3a/relu_3x3
I0403 15:39:17.730123 13884 net.cpp:425] inception_3a/relu_3x3 <- inception_3a/3x3
I0403 15:39:17.730140 13884 net.cpp:386] inception_3a/relu_3x3 -> inception_3a/3x3 (in-place)
I0403 15:39:17.730444 13884 net.cpp:141] Setting up inception_3a/relu_3x3
I0403 15:39:17.730473 13884 net.cpp:148] Top shape: 24 128 28 28 (2408448)
I0403 15:39:17.730489 13884 net.cpp:156] Memory required for data: 534676512
I0403 15:39:17.730505 13884 layer_factory.hpp:77] Creating layer inception_3a/5x5_reduce
I0403 15:39:17.730530 13884 net.cpp:91] Creating Layer inception_3a/5x5_reduce
I0403 15:39:17.730548 13884 net.cpp:425] inception_3a/5x5_reduce <- pool2/3x3_s2_pool2/3x3_s2_0_split_2
I0403 15:39:17.730571 13884 net.cpp:399] inception_3a/5x5_reduce -> inception_3a/5x5_reduce
I0403 15:39:17.731590 13884 net.cpp:141] Setting up inception_3a/5x5_reduce
I0403 15:39:17.731624 13884 net.cpp:148] Top shape: 24 16 28 28 (301056)
I0403 15:39:17.731642 13884 net.cpp:156] Memory required for data: 535880736
I0403 15:39:17.731662 13884 layer_factory.hpp:77] Creating layer inception_3a/relu_5x5_reduce
I0403 15:39:17.731683 13884 net.cpp:91] Creating Layer inception_3a/relu_5x5_reduce
I0403 15:39:17.731699 13884 net.cpp:425] inception_3a/relu_5x5_reduce <- inception_3a/5x5_reduce
I0403 15:39:17.731717 13884 net.cpp:386] inception_3a/relu_5x5_reduce -> inception_3a/5x5_reduce (in-place)
I0403 15:39:17.732029 13884 net.cpp:141] Setting up inception_3a/relu_5x5_reduce
I0403 15:39:17.732060 13884 net.cpp:148] Top shape: 24 16 28 28 (301056)
I0403 15:39:17.732077 13884 net.cpp:156] Memory required for data: 537084960
I0403 15:39:17.732096 13884 layer_factory.hpp:77] Creating layer inception_3a/5x5
I0403 15:39:17.732123 13884 net.cpp:91] Creating Layer inception_3a/5x5
I0403 15:39:17.732142 13884 net.cpp:425] inception_3a/5x5 <- inception_3a/5x5_reduce
I0403 15:39:17.732166 13884 net.cpp:399] inception_3a/5x5 -> inception_3a/5x5
I0403 15:39:17.733284 13884 net.cpp:141] Setting up inception_3a/5x5
I0403 15:39:17.733315 13884 net.cpp:148] Top shape: 24 32 28 28 (602112)
I0403 15:39:17.733333 13884 net.cpp:156] Memory required for data: 539493408
I0403 15:39:17.733352 13884 layer_factory.hpp:77] Creating layer inception_3a/relu_5x5
I0403 15:39:17.733376 13884 net.cpp:91] Creating Layer inception_3a/relu_5x5
I0403 15:39:17.733393 13884 net.cpp:425] inception_3a/relu_5x5 <- inception_3a/5x5
I0403 15:39:17.733412 13884 net.cpp:386] inception_3a/relu_5x5 -> inception_3a/5x5 (in-place)
I0403 15:39:17.733598 13884 net.cpp:141] Setting up inception_3a/relu_5x5
I0403 15:39:17.733628 13884 net.cpp:148] Top shape: 24 32 28 28 (602112)
I0403 15:39:17.733645 13884 net.cpp:156] Memory required for data: 541901856
I0403 15:39:17.733661 13884 layer_factory.hpp:77] Creating layer inception_3a/pool
I0403 15:39:17.733680 13884 net.cpp:91] Creating Layer inception_3a/pool
I0403 15:39:17.733697 13884 net.cpp:425] inception_3a/pool <- pool2/3x3_s2_pool2/3x3_s2_0_split_3
I0403 15:39:17.733736 13884 net.cpp:399] inception_3a/pool -> inception_3a/pool
I0403 15:39:17.733798 13884 net.cpp:141] Setting up inception_3a/pool
I0403 15:39:17.733824 13884 net.cpp:148] Top shape: 24 192 28 28 (3612672)
I0403 15:39:17.733839 13884 net.cpp:156] Memory required for data: 556352544
I0403 15:39:17.733855 13884 layer_factory.hpp:77] Creating layer inception_3a/pool_proj
I0403 15:39:17.733880 13884 net.cpp:91] Creating Layer inception_3a/pool_proj
I0403 15:39:17.733899 13884 net.cpp:425] inception_3a/pool_proj <- inception_3a/pool
I0403 15:39:17.733922 13884 net.cpp:399] inception_3a/pool_proj -> inception_3a/pool_proj
I0403 15:39:17.734937 13884 net.cpp:141] Setting up inception_3a/pool_proj
I0403 15:39:17.734967 13884 net.cpp:148] Top shape: 24 32 28 28 (602112)
I0403 15:39:17.734985 13884 net.cpp:156] Memory required for data: 558760992
I0403 15:39:17.735010 13884 layer_factory.hpp:77] Creating layer inception_3a/relu_pool_proj
I0403 15:39:17.735033 13884 net.cpp:91] Creating Layer inception_3a/relu_pool_proj
I0403 15:39:17.735049 13884 net.cpp:425] inception_3a/relu_pool_proj <- inception_3a/pool_proj
I0403 15:39:17.735067 13884 net.cpp:386] inception_3a/relu_pool_proj -> inception_3a/pool_proj (in-place)
I0403 15:39:17.735363 13884 net.cpp:141] Setting up inception_3a/relu_pool_proj
I0403 15:39:17.735391 13884 net.cpp:148] Top shape: 24 32 28 28 (602112)
I0403 15:39:17.735409 13884 net.cpp:156] Memory required for data: 561169440
I0403 15:39:17.735424 13884 layer_factory.hpp:77] Creating layer inception_3a/output
I0403 15:39:17.735445 13884 net.cpp:91] Creating Layer inception_3a/output
I0403 15:39:17.735463 13884 net.cpp:425] inception_3a/output <- inception_3a/1x1
I0403 15:39:17.735481 13884 net.cpp:425] inception_3a/output <- inception_3a/3x3
I0403 15:39:17.735499 13884 net.cpp:425] inception_3a/output <- inception_3a/5x5
I0403 15:39:17.735515 13884 net.cpp:425] inception_3a/output <- inception_3a/pool_proj
I0403 15:39:17.735533 13884 net.cpp:399] inception_3a/output -> inception_3a/output
I0403 15:39:17.735584 13884 net.cpp:141] Setting up inception_3a/output
I0403 15:39:17.735610 13884 net.cpp:148] Top shape: 24 256 28 28 (4816896)
I0403 15:39:17.735625 13884 net.cpp:156] Memory required for data: 580437024
I0403 15:39:17.735641 13884 layer_factory.hpp:77] Creating layer inception_3a/output_inception_3a/output_0_split
I0403 15:39:17.735659 13884 net.cpp:91] Creating Layer inception_3a/output_inception_3a/output_0_split
I0403 15:39:17.735676 13884 net.cpp:425] inception_3a/output_inception_3a/output_0_split <- inception_3a/output
I0403 15:39:17.735695 13884 net.cpp:399] inception_3a/output_inception_3a/output_0_split -> inception_3a/output_inception_3a/output_0_split_0
I0403 15:39:17.735718 13884 net.cpp:399] inception_3a/output_inception_3a/output_0_split -> inception_3a/output_inception_3a/output_0_split_1
I0403 15:39:17.735743 13884 net.cpp:399] inception_3a/output_inception_3a/output_0_split -> inception_3a/output_inception_3a/output_0_split_2
I0403 15:39:17.735767 13884 net.cpp:399] inception_3a/output_inception_3a/output_0_split -> inception_3a/output_inception_3a/output_0_split_3
I0403 15:39:17.735848 13884 net.cpp:141] Setting up inception_3a/output_inception_3a/output_0_split
I0403 15:39:17.735873 13884 net.cpp:148] Top shape: 24 256 28 28 (4816896)
I0403 15:39:17.735890 13884 net.cpp:148] Top shape: 24 256 28 28 (4816896)
I0403 15:39:17.735908 13884 net.cpp:148] Top shape: 24 256 28 28 (4816896)
I0403 15:39:17.735924 13884 net.cpp:148] Top shape: 24 256 28 28 (4816896)
I0403 15:39:17.735939 13884 net.cpp:156] Memory required for data: 657507360
I0403 15:39:17.735954 13884 layer_factory.hpp:77] Creating layer inception_3b/1x1
I0403 15:39:17.735978 13884 net.cpp:91] Creating Layer inception_3b/1x1
I0403 15:39:17.735998 13884 net.cpp:425] inception_3b/1x1 <- inception_3a/output_inception_3a/output_0_split_0
I0403 15:39:17.736021 13884 net.cpp:399] inception_3b/1x1 -> inception_3b/1x1
I0403 15:39:17.737217 13884 net.cpp:141] Setting up inception_3b/1x1
I0403 15:39:17.737260 13884 net.cpp:148] Top shape: 24 128 28 28 (2408448)
I0403 15:39:17.737278 13884 net.cpp:156] Memory required for data: 667141152
I0403 15:39:17.737298 13884 layer_factory.hpp:77] Creating layer inception_3b/relu_1x1
I0403 15:39:17.737321 13884 net.cpp:91] Creating Layer inception_3b/relu_1x1
I0403 15:39:17.737340 13884 net.cpp:425] inception_3b/relu_1x1 <- inception_3b/1x1
I0403 15:39:17.737360 13884 net.cpp:386] inception_3b/relu_1x1 -> inception_3b/1x1 (in-place)
I0403 15:39:17.737542 13884 net.cpp:141] Setting up inception_3b/relu_1x1
I0403 15:39:17.737570 13884 net.cpp:148] Top shape: 24 128 28 28 (2408448)
I0403 15:39:17.737584 13884 net.cpp:156] Memory required for data: 676774944
I0403 15:39:17.737599 13884 layer_factory.hpp:77] Creating layer inception_3b/3x3_reduce
I0403 15:39:17.737624 13884 net.cpp:91] Creating Layer inception_3b/3x3_reduce
I0403 15:39:17.737643 13884 net.cpp:425] inception_3b/3x3_reduce <- inception_3a/output_inception_3a/output_0_split_1
I0403 15:39:17.737665 13884 net.cpp:399] inception_3b/3x3_reduce -> inception_3b/3x3_reduce
I0403 15:39:17.738862 13884 net.cpp:141] Setting up inception_3b/3x3_reduce
I0403 15:39:17.738893 13884 net.cpp:148] Top shape: 24 128 28 28 (2408448)
I0403 15:39:17.738910 13884 net.cpp:156] Memory required for data: 686408736
I0403 15:39:17.738930 13884 layer_factory.hpp:77] Creating layer inception_3b/relu_3x3_reduce
I0403 15:39:17.738952 13884 net.cpp:91] Creating Layer inception_3b/relu_3x3_reduce
I0403 15:39:17.738971 13884 net.cpp:425] inception_3b/relu_3x3_reduce <- inception_3b/3x3_reduce
I0403 15:39:17.738989 13884 net.cpp:386] inception_3b/relu_3x3_reduce -> inception_3b/3x3_reduce (in-place)
I0403 15:39:17.739179 13884 net.cpp:141] Setting up inception_3b/relu_3x3_reduce
I0403 15:39:17.739207 13884 net.cpp:148] Top shape: 24 128 28 28 (2408448)
I0403 15:39:17.739223 13884 net.cpp:156] Memory required for data: 696042528
I0403 15:39:17.739238 13884 layer_factory.hpp:77] Creating layer inception_3b/3x3
I0403 15:39:17.739266 13884 net.cpp:91] Creating Layer inception_3b/3x3
I0403 15:39:17.739285 13884 net.cpp:425] inception_3b/3x3 <- inception_3b/3x3_reduce
I0403 15:39:17.739306 13884 net.cpp:399] inception_3b/3x3 -> inception_3b/3x3
I0403 15:39:17.742249 13884 net.cpp:141] Setting up inception_3b/3x3
I0403 15:39:17.742277 13884 net.cpp:148] Top shape: 24 192 28 28 (3612672)
I0403 15:39:17.742295 13884 net.cpp:156] Memory required for data: 710493216
I0403 15:39:17.742313 13884 layer_factory.hpp:77] Creating layer inception_3b/relu_3x3
I0403 15:39:17.742333 13884 net.cpp:91] Creating Layer inception_3b/relu_3x3
I0403 15:39:17.742352 13884 net.cpp:425] inception_3b/relu_3x3 <- inception_3b/3x3
I0403 15:39:17.742369 13884 net.cpp:386] inception_3b/relu_3x3 -> inception_3b/3x3 (in-place)
I0403 15:39:17.742645 13884 net.cpp:141] Setting up inception_3b/relu_3x3
I0403 15:39:17.742671 13884 net.cpp:148] Top shape: 24 192 28 28 (3612672)
I0403 15:39:17.742686 13884 net.cpp:156] Memory required for data: 724943904
I0403 15:39:17.742702 13884 layer_factory.hpp:77] Creating layer inception_3b/5x5_reduce
I0403 15:39:17.742724 13884 net.cpp:91] Creating Layer inception_3b/5x5_reduce
I0403 15:39:17.742743 13884 net.cpp:425] inception_3b/5x5_reduce <- inception_3a/output_inception_3a/output_0_split_2
I0403 15:39:17.742765 13884 net.cpp:399] inception_3b/5x5_reduce -> inception_3b/5x5_reduce
I0403 15:39:17.743762 13884 net.cpp:141] Setting up inception_3b/5x5_reduce
I0403 15:39:17.743791 13884 net.cpp:148] Top shape: 24 32 28 28 (602112)
I0403 15:39:17.743808 13884 net.cpp:156] Memory required for data: 727352352
I0403 15:39:17.743826 13884 layer_factory.hpp:77] Creating layer inception_3b/relu_5x5_reduce
I0403 15:39:17.743846 13884 net.cpp:91] Creating Layer inception_3b/relu_5x5_reduce
I0403 15:39:17.743863 13884 net.cpp:425] inception_3b/relu_5x5_reduce <- inception_3b/5x5_reduce
I0403 15:39:17.743881 13884 net.cpp:386] inception_3b/relu_5x5_reduce -> inception_3b/5x5_reduce (in-place)
I0403 15:39:17.744055 13884 net.cpp:141] Setting up inception_3b/relu_5x5_reduce
I0403 15:39:17.744098 13884 net.cpp:148] Top shape: 24 32 28 28 (602112)
I0403 15:39:17.744117 13884 net.cpp:156] Memory required for data: 729760800
I0403 15:39:17.744133 13884 layer_factory.hpp:77] Creating layer inception_3b/5x5
I0403 15:39:17.744156 13884 net.cpp:91] Creating Layer inception_3b/5x5
I0403 15:39:17.744175 13884 net.cpp:425] inception_3b/5x5 <- inception_3b/5x5_reduce
I0403 15:39:17.744195 13884 net.cpp:399] inception_3b/5x5 -> inception_3b/5x5
I0403 15:39:17.746150 13884 net.cpp:141] Setting up inception_3b/5x5
I0403 15:39:17.746181 13884 net.cpp:148] Top shape: 24 96 28 28 (1806336)
I0403 15:39:17.746197 13884 net.cpp:156] Memory required for data: 736986144
I0403 15:39:17.746217 13884 layer_factory.hpp:77] Creating layer inception_3b/relu_5x5
I0403 15:39:17.746238 13884 net.cpp:91] Creating Layer inception_3b/relu_5x5
I0403 15:39:17.746256 13884 net.cpp:425] inception_3b/relu_5x5 <- inception_3b/5x5
I0403 15:39:17.746273 13884 net.cpp:386] inception_3b/relu_5x5 -> inception_3b/5x5 (in-place)
I0403 15:39:17.746469 13884 net.cpp:141] Setting up inception_3b/relu_5x5
I0403 15:39:17.746495 13884 net.cpp:148] Top shape: 24 96 28 28 (1806336)
I0403 15:39:17.746510 13884 net.cpp:156] Memory required for data: 744211488
I0403 15:39:17.746525 13884 layer_factory.hpp:77] Creating layer inception_3b/pool
I0403 15:39:17.746541 13884 net.cpp:91] Creating Layer inception_3b/pool
I0403 15:39:17.746557 13884 net.cpp:425] inception_3b/pool <- inception_3a/output_inception_3a/output_0_split_3
I0403 15:39:17.746575 13884 net.cpp:399] inception_3b/pool -> inception_3b/pool
I0403 15:39:17.746633 13884 net.cpp:141] Setting up inception_3b/pool
I0403 15:39:17.746656 13884 net.cpp:148] Top shape: 24 256 28 28 (4816896)
I0403 15:39:17.746670 13884 net.cpp:156] Memory required for data: 763479072
I0403 15:39:17.746685 13884 layer_factory.hpp:77] Creating layer inception_3b/pool_proj
I0403 15:39:17.746708 13884 net.cpp:91] Creating Layer inception_3b/pool_proj
I0403 15:39:17.746726 13884 net.cpp:425] inception_3b/pool_proj <- inception_3b/pool
I0403 15:39:17.746747 13884 net.cpp:399] inception_3b/pool_proj -> inception_3b/pool_proj
I0403 15:39:17.747800 13884 net.cpp:141] Setting up inception_3b/pool_proj
I0403 15:39:17.747831 13884 net.cpp:148] Top shape: 24 64 28 28 (1204224)
I0403 15:39:17.747848 13884 net.cpp:156] Memory required for data: 768295968
I0403 15:39:17.747867 13884 layer_factory.hpp:77] Creating layer inception_3b/relu_pool_proj
I0403 15:39:17.747885 13884 net.cpp:91] Creating Layer inception_3b/relu_pool_proj
I0403 15:39:17.747901 13884 net.cpp:425] inception_3b/relu_pool_proj <- inception_3b/pool_proj
I0403 15:39:17.747921 13884 net.cpp:386] inception_3b/relu_pool_proj -> inception_3b/pool_proj (in-place)
I0403 15:39:17.748311 13884 net.cpp:141] Setting up inception_3b/relu_pool_proj
I0403 15:39:17.748339 13884 net.cpp:148] Top shape: 24 64 28 28 (1204224)
I0403 15:39:17.748356 13884 net.cpp:156] Memory required for data: 773112864
I0403 15:39:17.748371 13884 layer_factory.hpp:77] Creating layer inception_3b/output
I0403 15:39:17.748389 13884 net.cpp:91] Creating Layer inception_3b/output
I0403 15:39:17.748404 13884 net.cpp:425] inception_3b/output <- inception_3b/1x1
I0403 15:39:17.748421 13884 net.cpp:425] inception_3b/output <- inception_3b/3x3
I0403 15:39:17.748437 13884 net.cpp:425] inception_3b/output <- inception_3b/5x5
I0403 15:39:17.748453 13884 net.cpp:425] inception_3b/output <- inception_3b/pool_proj
I0403 15:39:17.748469 13884 net.cpp:399] inception_3b/output -> inception_3b/output
I0403 15:39:17.748514 13884 net.cpp:141] Setting up inception_3b/output
I0403 15:39:17.748538 13884 net.cpp:148] Top shape: 24 480 28 28 (9031680)
I0403 15:39:17.748553 13884 net.cpp:156] Memory required for data: 809239584
I0403 15:39:17.748569 13884 layer_factory.hpp:77] Creating layer pool3/3x3_s2
I0403 15:39:17.748589 13884 net.cpp:91] Creating Layer pool3/3x3_s2
I0403 15:39:17.748605 13884 net.cpp:425] pool3/3x3_s2 <- inception_3b/output
I0403 15:39:17.748623 13884 net.cpp:399] pool3/3x3_s2 -> pool3/3x3_s2
I0403 15:39:17.748697 13884 net.cpp:141] Setting up pool3/3x3_s2
I0403 15:39:17.748723 13884 net.cpp:148] Top shape: 24 480 14 14 (2257920)
I0403 15:39:17.748736 13884 net.cpp:156] Memory required for data: 818271264
I0403 15:39:17.748750 13884 layer_factory.hpp:77] Creating layer pool3/3x3_s2_pool3/3x3_s2_0_split
I0403 15:39:17.748769 13884 net.cpp:91] Creating Layer pool3/3x3_s2_pool3/3x3_s2_0_split
I0403 15:39:17.748783 13884 net.cpp:425] pool3/3x3_s2_pool3/3x3_s2_0_split <- pool3/3x3_s2
I0403 15:39:17.748802 13884 net.cpp:399] pool3/3x3_s2_pool3/3x3_s2_0_split -> pool3/3x3_s2_pool3/3x3_s2_0_split_0
I0403 15:39:17.748822 13884 net.cpp:399] pool3/3x3_s2_pool3/3x3_s2_0_split -> pool3/3x3_s2_pool3/3x3_s2_0_split_1
I0403 15:39:17.748842 13884 net.cpp:399] pool3/3x3_s2_pool3/3x3_s2_0_split -> pool3/3x3_s2_pool3/3x3_s2_0_split_2
I0403 15:39:17.748862 13884 net.cpp:399] pool3/3x3_s2_pool3/3x3_s2_0_split -> pool3/3x3_s2_pool3/3x3_s2_0_split_3
I0403 15:39:17.748942 13884 net.cpp:141] Setting up pool3/3x3_s2_pool3/3x3_s2_0_split
I0403 15:39:17.748968 13884 net.cpp:148] Top shape: 24 480 14 14 (2257920)
I0403 15:39:17.748986 13884 net.cpp:148] Top shape: 24 480 14 14 (2257920)
I0403 15:39:17.749001 13884 net.cpp:148] Top shape: 24 480 14 14 (2257920)
I0403 15:39:17.749017 13884 net.cpp:148] Top shape: 24 480 14 14 (2257920)
I0403 15:39:17.749029 13884 net.cpp:156] Memory required for data: 854397984
I0403 15:39:17.749044 13884 layer_factory.hpp:77] Creating layer inception_4a/1x1
I0403 15:39:17.749066 13884 net.cpp:91] Creating Layer inception_4a/1x1
I0403 15:39:17.749083 13884 net.cpp:425] inception_4a/1x1 <- pool3/3x3_s2_pool3/3x3_s2_0_split_0
I0403 15:39:17.749107 13884 net.cpp:399] inception_4a/1x1 -> inception_4a/1x1
I0403 15:39:17.750658 13884 net.cpp:141] Setting up inception_4a/1x1
I0403 15:39:17.750689 13884 net.cpp:148] Top shape: 24 192 14 14 (903168)
I0403 15:39:17.750707 13884 net.cpp:156] Memory required for data: 858010656
I0403 15:39:17.750726 13884 layer_factory.hpp:77] Creating layer inception_4a/relu_1x1
I0403 15:39:17.750744 13884 net.cpp:91] Creating Layer inception_4a/relu_1x1
I0403 15:39:17.750761 13884 net.cpp:425] inception_4a/relu_1x1 <- inception_4a/1x1
I0403 15:39:17.750779 13884 net.cpp:386] inception_4a/relu_1x1 -> inception_4a/1x1 (in-place)
I0403 15:39:17.750954 13884 net.cpp:141] Setting up inception_4a/relu_1x1
I0403 15:39:17.750979 13884 net.cpp:148] Top shape: 24 192 14 14 (903168)
I0403 15:39:17.750995 13884 net.cpp:156] Memory required for data: 861623328
I0403 15:39:17.751010 13884 layer_factory.hpp:77] Creating layer inception_4a/3x3_reduce
I0403 15:39:17.751034 13884 net.cpp:91] Creating Layer inception_4a/3x3_reduce
I0403 15:39:17.751051 13884 net.cpp:425] inception_4a/3x3_reduce <- pool3/3x3_s2_pool3/3x3_s2_0_split_1
I0403 15:39:17.751073 13884 net.cpp:399] inception_4a/3x3_reduce -> inception_4a/3x3_reduce
I0403 15:39:17.752388 13884 net.cpp:141] Setting up inception_4a/3x3_reduce
I0403 15:39:17.752421 13884 net.cpp:148] Top shape: 24 96 14 14 (451584)
I0403 15:39:17.752439 13884 net.cpp:156] Memory required for data: 863429664
I0403 15:39:17.752465 13884 layer_factory.hpp:77] Creating layer inception_4a/relu_3x3_reduce
I0403 15:39:17.752488 13884 net.cpp:91] Creating Layer inception_4a/relu_3x3_reduce
I0403 15:39:17.752509 13884 net.cpp:425] inception_4a/relu_3x3_reduce <- inception_4a/3x3_reduce
I0403 15:39:17.752532 13884 net.cpp:386] inception_4a/relu_3x3_reduce -> inception_4a/3x3_reduce (in-place)
I0403 15:39:17.752720 13884 net.cpp:141] Setting up inception_4a/relu_3x3_reduce
I0403 15:39:17.752748 13884 net.cpp:148] Top shape: 24 96 14 14 (451584)
I0403 15:39:17.752763 13884 net.cpp:156] Memory required for data: 865236000
I0403 15:39:17.752780 13884 layer_factory.hpp:77] Creating layer inception_4a/3x3
I0403 15:39:17.752804 13884 net.cpp:91] Creating Layer inception_4a/3x3
I0403 15:39:17.752835 13884 net.cpp:425] inception_4a/3x3 <- inception_4a/3x3_reduce
I0403 15:39:17.752856 13884 net.cpp:399] inception_4a/3x3 -> inception_4a/3x3
I0403 15:39:17.755723 13884 net.cpp:141] Setting up inception_4a/3x3
I0403 15:39:17.755754 13884 net.cpp:148] Top shape: 24 208 14 14 (978432)
I0403 15:39:17.755771 13884 net.cpp:156] Memory required for data: 869149728
I0403 15:39:17.755791 13884 layer_factory.hpp:77] Creating layer inception_4a/relu_3x3
I0403 15:39:17.755813 13884 net.cpp:91] Creating Layer inception_4a/relu_3x3
I0403 15:39:17.755832 13884 net.cpp:425] inception_4a/relu_3x3 <- inception_4a/3x3
I0403 15:39:17.755851 13884 net.cpp:386] inception_4a/relu_3x3 -> inception_4a/3x3 (in-place)
I0403 15:39:17.756144 13884 net.cpp:141] Setting up inception_4a/relu_3x3
I0403 15:39:17.756173 13884 net.cpp:148] Top shape: 24 208 14 14 (978432)
I0403 15:39:17.756191 13884 net.cpp:156] Memory required for data: 873063456
I0403 15:39:17.756206 13884 layer_factory.hpp:77] Creating layer inception_4a/5x5_reduce
I0403 15:39:17.756230 13884 net.cpp:91] Creating Layer inception_4a/5x5_reduce
I0403 15:39:17.756249 13884 net.cpp:425] inception_4a/5x5_reduce <- pool3/3x3_s2_pool3/3x3_s2_0_split_2
I0403 15:39:17.756273 13884 net.cpp:399] inception_4a/5x5_reduce -> inception_4a/5x5_reduce
I0403 15:39:17.757344 13884 net.cpp:141] Setting up inception_4a/5x5_reduce
I0403 15:39:17.757375 13884 net.cpp:148] Top shape: 24 16 14 14 (75264)
I0403 15:39:17.757392 13884 net.cpp:156] Memory required for data: 873364512
I0403 15:39:17.757412 13884 layer_factory.hpp:77] Creating layer inception_4a/relu_5x5_reduce
I0403 15:39:17.757434 13884 net.cpp:91] Creating Layer inception_4a/relu_5x5_reduce
I0403 15:39:17.757454 13884 net.cpp:425] inception_4a/relu_5x5_reduce <- inception_4a/5x5_reduce
I0403 15:39:17.757473 13884 net.cpp:386] inception_4a/relu_5x5_reduce -> inception_4a/5x5_reduce (in-place)
I0403 15:39:17.757665 13884 net.cpp:141] Setting up inception_4a/relu_5x5_reduce
I0403 15:39:17.757694 13884 net.cpp:148] Top shape: 24 16 14 14 (75264)
I0403 15:39:17.757711 13884 net.cpp:156] Memory required for data: 873665568
I0403 15:39:17.757727 13884 layer_factory.hpp:77] Creating layer inception_4a/5x5
I0403 15:39:17.757752 13884 net.cpp:91] Creating Layer inception_4a/5x5
I0403 15:39:17.757772 13884 net.cpp:425] inception_4a/5x5 <- inception_4a/5x5_reduce
I0403 15:39:17.757792 13884 net.cpp:399] inception_4a/5x5 -> inception_4a/5x5
I0403 15:39:17.758936 13884 net.cpp:141] Setting up inception_4a/5x5
I0403 15:39:17.758970 13884 net.cpp:148] Top shape: 24 48 14 14 (225792)
I0403 15:39:17.758988 13884 net.cpp:156] Memory required for data: 874568736
I0403 15:39:17.759008 13884 layer_factory.hpp:77] Creating layer inception_4a/relu_5x5
I0403 15:39:17.759027 13884 net.cpp:91] Creating Layer inception_4a/relu_5x5
I0403 15:39:17.759045 13884 net.cpp:425] inception_4a/relu_5x5 <- inception_4a/5x5
I0403 15:39:17.759064 13884 net.cpp:386] inception_4a/relu_5x5 -> inception_4a/5x5 (in-place)
I0403 15:39:17.759261 13884 net.cpp:141] Setting up inception_4a/relu_5x5
I0403 15:39:17.759289 13884 net.cpp:148] Top shape: 24 48 14 14 (225792)
I0403 15:39:17.759305 13884 net.cpp:156] Memory required for data: 875471904
I0403 15:39:17.759320 13884 layer_factory.hpp:77] Creating layer inception_4a/pool
I0403 15:39:17.759340 13884 net.cpp:91] Creating Layer inception_4a/pool
I0403 15:39:17.759356 13884 net.cpp:425] inception_4a/pool <- pool3/3x3_s2_pool3/3x3_s2_0_split_3
I0403 15:39:17.759377 13884 net.cpp:399] inception_4a/pool -> inception_4a/pool
I0403 15:39:17.759443 13884 net.cpp:141] Setting up inception_4a/pool
I0403 15:39:17.759470 13884 net.cpp:148] Top shape: 24 480 14 14 (2257920)
I0403 15:39:17.759488 13884 net.cpp:156] Memory required for data: 884503584
I0403 15:39:17.759505 13884 layer_factory.hpp:77] Creating layer inception_4a/pool_proj
I0403 15:39:17.759526 13884 net.cpp:91] Creating Layer inception_4a/pool_proj
I0403 15:39:17.759546 13884 net.cpp:425] inception_4a/pool_proj <- inception_4a/pool
I0403 15:39:17.759565 13884 net.cpp:399] inception_4a/pool_proj -> inception_4a/pool_proj
I0403 15:39:17.760802 13884 net.cpp:141] Setting up inception_4a/pool_proj
I0403 15:39:17.760831 13884 net.cpp:148] Top shape: 24 64 14 14 (301056)
I0403 15:39:17.760864 13884 net.cpp:156] Memory required for data: 885707808
I0403 15:39:17.760885 13884 layer_factory.hpp:77] Creating layer inception_4a/relu_pool_proj
I0403 15:39:17.760902 13884 net.cpp:91] Creating Layer inception_4a/relu_pool_proj
I0403 15:39:17.760920 13884 net.cpp:425] inception_4a/relu_pool_proj <- inception_4a/pool_proj
I0403 15:39:17.760941 13884 net.cpp:386] inception_4a/relu_pool_proj -> inception_4a/pool_proj (in-place)
I0403 15:39:17.761239 13884 net.cpp:141] Setting up inception_4a/relu_pool_proj
I0403 15:39:17.761267 13884 net.cpp:148] Top shape: 24 64 14 14 (301056)
I0403 15:39:17.761283 13884 net.cpp:156] Memory required for data: 886912032
I0403 15:39:17.761298 13884 layer_factory.hpp:77] Creating layer inception_4a/output
I0403 15:39:17.761317 13884 net.cpp:91] Creating Layer inception_4a/output
I0403 15:39:17.761332 13884 net.cpp:425] inception_4a/output <- inception_4a/1x1
I0403 15:39:17.761349 13884 net.cpp:425] inception_4a/output <- inception_4a/3x3
I0403 15:39:17.761366 13884 net.cpp:425] inception_4a/output <- inception_4a/5x5
I0403 15:39:17.761382 13884 net.cpp:425] inception_4a/output <- inception_4a/pool_proj
I0403 15:39:17.761402 13884 net.cpp:399] inception_4a/output -> inception_4a/output
I0403 15:39:17.761448 13884 net.cpp:141] Setting up inception_4a/output
I0403 15:39:17.761473 13884 net.cpp:148] Top shape: 24 512 14 14 (2408448)
I0403 15:39:17.761492 13884 net.cpp:156] Memory required for data: 896545824
I0403 15:39:17.761507 13884 layer_factory.hpp:77] Creating layer inception_4a/output_inception_4a/output_0_split
I0403 15:39:17.761525 13884 net.cpp:91] Creating Layer inception_4a/output_inception_4a/output_0_split
I0403 15:39:17.761540 13884 net.cpp:425] inception_4a/output_inception_4a/output_0_split <- inception_4a/output
I0403 15:39:17.761557 13884 net.cpp:399] inception_4a/output_inception_4a/output_0_split -> inception_4a/output_inception_4a/output_0_split_0
I0403 15:39:17.761579 13884 net.cpp:399] inception_4a/output_inception_4a/output_0_split -> inception_4a/output_inception_4a/output_0_split_1
I0403 15:39:17.761603 13884 net.cpp:399] inception_4a/output_inception_4a/output_0_split -> inception_4a/output_inception_4a/output_0_split_2
I0403 15:39:17.761626 13884 net.cpp:399] inception_4a/output_inception_4a/output_0_split -> inception_4a/output_inception_4a/output_0_split_3
I0403 15:39:17.761647 13884 net.cpp:399] inception_4a/output_inception_4a/output_0_split -> inception_4a/output_inception_4a/output_0_split_4
I0403 15:39:17.761742 13884 net.cpp:141] Setting up inception_4a/output_inception_4a/output_0_split
I0403 15:39:17.761766 13884 net.cpp:148] Top shape: 24 512 14 14 (2408448)
I0403 15:39:17.761783 13884 net.cpp:148] Top shape: 24 512 14 14 (2408448)
I0403 15:39:17.761800 13884 net.cpp:148] Top shape: 24 512 14 14 (2408448)
I0403 15:39:17.761816 13884 net.cpp:148] Top shape: 24 512 14 14 (2408448)
I0403 15:39:17.761831 13884 net.cpp:148] Top shape: 24 512 14 14 (2408448)
I0403 15:39:17.761847 13884 net.cpp:156] Memory required for data: 944714784
I0403 15:39:17.761862 13884 layer_factory.hpp:77] Creating layer loss1/ave_pool
I0403 15:39:17.761883 13884 net.cpp:91] Creating Layer loss1/ave_pool
I0403 15:39:17.761900 13884 net.cpp:425] loss1/ave_pool <- inception_4a/output_inception_4a/output_0_split_0
I0403 15:39:17.761919 13884 net.cpp:399] loss1/ave_pool -> loss1/ave_pool
I0403 15:39:17.762133 13884 net.cpp:141] Setting up loss1/ave_pool
I0403 15:39:17.762161 13884 net.cpp:148] Top shape: 24 512 4 4 (196608)
I0403 15:39:17.762177 13884 net.cpp:156] Memory required for data: 945501216
I0403 15:39:17.762192 13884 layer_factory.hpp:77] Creating layer loss1/conv
I0403 15:39:17.762215 13884 net.cpp:91] Creating Layer loss1/conv
I0403 15:39:17.762233 13884 net.cpp:425] loss1/conv <- loss1/ave_pool
I0403 15:39:17.762255 13884 net.cpp:399] loss1/conv -> loss1/conv
I0403 15:39:17.763706 13884 net.cpp:141] Setting up loss1/conv
I0403 15:39:17.763736 13884 net.cpp:148] Top shape: 24 128 4 4 (49152)
I0403 15:39:17.763752 13884 net.cpp:156] Memory required for data: 945697824
I0403 15:39:17.763787 13884 layer_factory.hpp:77] Creating layer loss1/relu_conv
I0403 15:39:17.763811 13884 net.cpp:91] Creating Layer loss1/relu_conv
I0403 15:39:17.763830 13884 net.cpp:425] loss1/relu_conv <- loss1/conv
I0403 15:39:17.763849 13884 net.cpp:386] loss1/relu_conv -> loss1/conv (in-place)
I0403 15:39:17.764147 13884 net.cpp:141] Setting up loss1/relu_conv
I0403 15:39:17.764176 13884 net.cpp:148] Top shape: 24 128 4 4 (49152)
I0403 15:39:17.764192 13884 net.cpp:156] Memory required for data: 945894432
I0403 15:39:17.764209 13884 layer_factory.hpp:77] Creating layer loss1/fc
I0403 15:39:17.764235 13884 net.cpp:91] Creating Layer loss1/fc
I0403 15:39:17.764255 13884 net.cpp:425] loss1/fc <- loss1/conv
I0403 15:39:17.764272 13884 net.cpp:399] loss1/fc -> loss1/fc
I0403 15:39:17.782184 13884 net.cpp:141] Setting up loss1/fc
I0403 15:39:17.782219 13884 net.cpp:148] Top shape: 24 1024 (24576)
I0403 15:39:17.782235 13884 net.cpp:156] Memory required for data: 945992736
I0403 15:39:17.782254 13884 layer_factory.hpp:77] Creating layer loss1/relu_fc
I0403 15:39:17.782272 13884 net.cpp:91] Creating Layer loss1/relu_fc
I0403 15:39:17.782289 13884 net.cpp:425] loss1/relu_fc <- loss1/fc
I0403 15:39:17.782310 13884 net.cpp:386] loss1/relu_fc -> loss1/fc (in-place)
I0403 15:39:17.782500 13884 net.cpp:141] Setting up loss1/relu_fc
I0403 15:39:17.782526 13884 net.cpp:148] Top shape: 24 1024 (24576)
I0403 15:39:17.782541 13884 net.cpp:156] Memory required for data: 946091040
I0403 15:39:17.782557 13884 layer_factory.hpp:77] Creating layer loss1/drop_fc
I0403 15:39:17.782584 13884 net.cpp:91] Creating Layer loss1/drop_fc
I0403 15:39:17.782604 13884 net.cpp:425] loss1/drop_fc <- loss1/fc
I0403 15:39:17.782623 13884 net.cpp:386] loss1/drop_fc -> loss1/fc (in-place)
I0403 15:39:17.782673 13884 net.cpp:141] Setting up loss1/drop_fc
I0403 15:39:17.782701 13884 net.cpp:148] Top shape: 24 1024 (24576)
I0403 15:39:17.782716 13884 net.cpp:156] Memory required for data: 946189344
I0403 15:39:17.782732 13884 layer_factory.hpp:77] Creating layer loss1/classifier_plantvillage
I0403 15:39:17.782750 13884 net.cpp:91] Creating Layer loss1/classifier_plantvillage
I0403 15:39:17.782765 13884 net.cpp:425] loss1/classifier_plantvillage <- loss1/fc
I0403 15:39:17.782786 13884 net.cpp:399] loss1/classifier_plantvillage -> loss1/classifier_plantvillage
I0403 15:39:17.783694 13884 net.cpp:141] Setting up loss1/classifier_plantvillage
I0403 15:39:17.783723 13884 net.cpp:148] Top shape: 24 38 (912)
I0403 15:39:17.783740 13884 net.cpp:156] Memory required for data: 946192992
I0403 15:39:17.783758 13884 layer_factory.hpp:77] Creating layer loss1/classifier_plantvillage_loss1/classifier_plantvillage_0_split
I0403 15:39:17.783776 13884 net.cpp:91] Creating Layer loss1/classifier_plantvillage_loss1/classifier_plantvillage_0_split
I0403 15:39:17.783792 13884 net.cpp:425] loss1/classifier_plantvillage_loss1/classifier_plantvillage_0_split <- loss1/classifier_plantvillage
I0403 15:39:17.783814 13884 net.cpp:399] loss1/classifier_plantvillage_loss1/classifier_plantvillage_0_split -> loss1/classifier_plantvillage_loss1/classifier_plantvillage_0_split_0
I0403 15:39:17.783835 13884 net.cpp:399] loss1/classifier_plantvillage_loss1/classifier_plantvillage_0_split -> loss1/classifier_plantvillage_loss1/classifier_plantvillage_0_split_1
I0403 15:39:17.783856 13884 net.cpp:399] loss1/classifier_plantvillage_loss1/classifier_plantvillage_0_split -> loss1/classifier_plantvillage_loss1/classifier_plantvillage_0_split_2
I0403 15:39:17.783926 13884 net.cpp:141] Setting up loss1/classifier_plantvillage_loss1/classifier_plantvillage_0_split
I0403 15:39:17.783951 13884 net.cpp:148] Top shape: 24 38 (912)
I0403 15:39:17.783969 13884 net.cpp:148] Top shape: 24 38 (912)
I0403 15:39:17.783987 13884 net.cpp:148] Top shape: 24 38 (912)
I0403 15:39:17.784000 13884 net.cpp:156] Memory required for data: 946203936
I0403 15:39:17.784015 13884 layer_factory.hpp:77] Creating layer inception_4b/1x1
I0403 15:39:17.784036 13884 net.cpp:91] Creating Layer inception_4b/1x1
I0403 15:39:17.784070 13884 net.cpp:425] inception_4b/1x1 <- inception_4a/output_inception_4a/output_0_split_1
I0403 15:39:17.784090 13884 net.cpp:399] inception_4b/1x1 -> inception_4b/1x1
I0403 15:39:17.785734 13884 net.cpp:141] Setting up inception_4b/1x1
I0403 15:39:17.785764 13884 net.cpp:148] Top shape: 24 160 14 14 (752640)
I0403 15:39:17.785780 13884 net.cpp:156] Memory required for data: 949214496
I0403 15:39:17.785799 13884 layer_factory.hpp:77] Creating layer inception_4b/relu_1x1
I0403 15:39:17.785820 13884 net.cpp:91] Creating Layer inception_4b/relu_1x1
I0403 15:39:17.785836 13884 net.cpp:425] inception_4b/relu_1x1 <- inception_4b/1x1
I0403 15:39:17.785856 13884 net.cpp:386] inception_4b/relu_1x1 -> inception_4b/1x1 (in-place)
I0403 15:39:17.786034 13884 net.cpp:141] Setting up inception_4b/relu_1x1
I0403 15:39:17.786062 13884 net.cpp:148] Top shape: 24 160 14 14 (752640)
I0403 15:39:17.786078 13884 net.cpp:156] Memory required for data: 952225056
I0403 15:39:17.786098 13884 layer_factory.hpp:77] Creating layer inception_4b/3x3_reduce
I0403 15:39:17.786121 13884 net.cpp:91] Creating Layer inception_4b/3x3_reduce
I0403 15:39:17.786139 13884 net.cpp:425] inception_4b/3x3_reduce <- inception_4a/output_inception_4a/output_0_split_2
I0403 15:39:17.786159 13884 net.cpp:399] inception_4b/3x3_reduce -> inception_4b/3x3_reduce
I0403 15:39:17.787513 13884 net.cpp:141] Setting up inception_4b/3x3_reduce
I0403 15:39:17.787541 13884 net.cpp:148] Top shape: 24 112 14 14 (526848)
I0403 15:39:17.787556 13884 net.cpp:156] Memory required for data: 954332448
I0403 15:39:17.787575 13884 layer_factory.hpp:77] Creating layer inception_4b/relu_3x3_reduce
I0403 15:39:17.787597 13884 net.cpp:91] Creating Layer inception_4b/relu_3x3_reduce
I0403 15:39:17.787616 13884 net.cpp:425] inception_4b/relu_3x3_reduce <- inception_4b/3x3_reduce
I0403 15:39:17.787634 13884 net.cpp:386] inception_4b/relu_3x3_reduce -> inception_4b/3x3_reduce (in-place)
I0403 15:39:17.787914 13884 net.cpp:141] Setting up inception_4b/relu_3x3_reduce
I0403 15:39:17.787941 13884 net.cpp:148] Top shape: 24 112 14 14 (526848)
I0403 15:39:17.787957 13884 net.cpp:156] Memory required for data: 956439840
I0403 15:39:17.787972 13884 layer_factory.hpp:77] Creating layer inception_4b/3x3
I0403 15:39:17.787997 13884 net.cpp:91] Creating Layer inception_4b/3x3
I0403 15:39:17.788015 13884 net.cpp:425] inception_4b/3x3 <- inception_4b/3x3_reduce
I0403 15:39:17.788034 13884 net.cpp:399] inception_4b/3x3 -> inception_4b/3x3
I0403 15:39:17.790997 13884 net.cpp:141] Setting up inception_4b/3x3
I0403 15:39:17.791026 13884 net.cpp:148] Top shape: 24 224 14 14 (1053696)
I0403 15:39:17.791043 13884 net.cpp:156] Memory required for data: 960654624
I0403 15:39:17.791061 13884 layer_factory.hpp:77] Creating layer inception_4b/relu_3x3
I0403 15:39:17.791081 13884 net.cpp:91] Creating Layer inception_4b/relu_3x3
I0403 15:39:17.791102 13884 net.cpp:425] inception_4b/relu_3x3 <- inception_4b/3x3
I0403 15:39:17.791126 13884 net.cpp:386] inception_4b/relu_3x3 -> inception_4b/3x3 (in-place)
I0403 15:39:17.791309 13884 net.cpp:141] Setting up inception_4b/relu_3x3
I0403 15:39:17.791335 13884 net.cpp:148] Top shape: 24 224 14 14 (1053696)
I0403 15:39:17.791352 13884 net.cpp:156] Memory required for data: 964869408
I0403 15:39:17.791368 13884 layer_factory.hpp:77] Creating layer inception_4b/5x5_reduce
I0403 15:39:17.791389 13884 net.cpp:91] Creating Layer inception_4b/5x5_reduce
I0403 15:39:17.791409 13884 net.cpp:425] inception_4b/5x5_reduce <- inception_4a/output_inception_4a/output_0_split_3
I0403 15:39:17.791430 13884 net.cpp:399] inception_4b/5x5_reduce -> inception_4b/5x5_reduce
I0403 15:39:17.792516 13884 net.cpp:141] Setting up inception_4b/5x5_reduce
I0403 15:39:17.792546 13884 net.cpp:148] Top shape: 24 24 14 14 (112896)
I0403 15:39:17.792562 13884 net.cpp:156] Memory required for data: 965320992
I0403 15:39:17.792582 13884 layer_factory.hpp:77] Creating layer inception_4b/relu_5x5_reduce
I0403 15:39:17.792603 13884 net.cpp:91] Creating Layer inception_4b/relu_5x5_reduce
I0403 15:39:17.792634 13884 net.cpp:425] inception_4b/relu_5x5_reduce <- inception_4b/5x5_reduce
I0403 15:39:17.792654 13884 net.cpp:386] inception_4b/relu_5x5_reduce -> inception_4b/5x5_reduce (in-place)
I0403 15:39:17.792840 13884 net.cpp:141] Setting up inception_4b/relu_5x5_reduce
I0403 15:39:17.792867 13884 net.cpp:148] Top shape: 24 24 14 14 (112896)
I0403 15:39:17.792884 13884 net.cpp:156] Memory required for data: 965772576
I0403 15:39:17.792901 13884 layer_factory.hpp:77] Creating layer inception_4b/5x5
I0403 15:39:17.792922 13884 net.cpp:91] Creating Layer inception_4b/5x5
I0403 15:39:17.792939 13884 net.cpp:425] inception_4b/5x5 <- inception_4b/5x5_reduce
I0403 15:39:17.792959 13884 net.cpp:399] inception_4b/5x5 -> inception_4b/5x5
I0403 15:39:17.794195 13884 net.cpp:141] Setting up inception_4b/5x5
I0403 15:39:17.794224 13884 net.cpp:148] Top shape: 24 64 14 14 (301056)
I0403 15:39:17.794240 13884 net.cpp:156] Memory required for data: 966976800
I0403 15:39:17.794258 13884 layer_factory.hpp:77] Creating layer inception_4b/relu_5x5
I0403 15:39:17.794280 13884 net.cpp:91] Creating Layer inception_4b/relu_5x5
I0403 15:39:17.794297 13884 net.cpp:425] inception_4b/relu_5x5 <- inception_4b/5x5
I0403 15:39:17.794315 13884 net.cpp:386] inception_4b/relu_5x5 -> inception_4b/5x5 (in-place)
I0403 15:39:17.794601 13884 net.cpp:141] Setting up inception_4b/relu_5x5
I0403 15:39:17.794628 13884 net.cpp:148] Top shape: 24 64 14 14 (301056)
I0403 15:39:17.794643 13884 net.cpp:156] Memory required for data: 968181024
I0403 15:39:17.794658 13884 layer_factory.hpp:77] Creating layer inception_4b/pool
I0403 15:39:17.794679 13884 net.cpp:91] Creating Layer inception_4b/pool
I0403 15:39:17.794697 13884 net.cpp:425] inception_4b/pool <- inception_4a/output_inception_4a/output_0_split_4
I0403 15:39:17.794715 13884 net.cpp:399] inception_4b/pool -> inception_4b/pool
I0403 15:39:17.794780 13884 net.cpp:141] Setting up inception_4b/pool
I0403 15:39:17.794806 13884 net.cpp:148] Top shape: 24 512 14 14 (2408448)
I0403 15:39:17.794821 13884 net.cpp:156] Memory required for data: 977814816
I0403 15:39:17.794836 13884 layer_factory.hpp:77] Creating layer inception_4b/pool_proj
I0403 15:39:17.794857 13884 net.cpp:91] Creating Layer inception_4b/pool_proj
I0403 15:39:17.794875 13884 net.cpp:425] inception_4b/pool_proj <- inception_4b/pool
I0403 15:39:17.794898 13884 net.cpp:399] inception_4b/pool_proj -> inception_4b/pool_proj
I0403 15:39:17.796162 13884 net.cpp:141] Setting up inception_4b/pool_proj
I0403 15:39:17.796192 13884 net.cpp:148] Top shape: 24 64 14 14 (301056)
I0403 15:39:17.796208 13884 net.cpp:156] Memory required for data: 979019040
I0403 15:39:17.796229 13884 layer_factory.hpp:77] Creating layer inception_4b/relu_pool_proj
I0403 15:39:17.796252 13884 net.cpp:91] Creating Layer inception_4b/relu_pool_proj
I0403 15:39:17.796270 13884 net.cpp:425] inception_4b/relu_pool_proj <- inception_4b/pool_proj
I0403 15:39:17.796288 13884 net.cpp:386] inception_4b/relu_pool_proj -> inception_4b/pool_proj (in-place)
I0403 15:39:17.796485 13884 net.cpp:141] Setting up inception_4b/relu_pool_proj
I0403 15:39:17.796516 13884 net.cpp:148] Top shape: 24 64 14 14 (301056)
I0403 15:39:17.796533 13884 net.cpp:156] Memory required for data: 980223264
I0403 15:39:17.796548 13884 layer_factory.hpp:77] Creating layer inception_4b/output
I0403 15:39:17.796566 13884 net.cpp:91] Creating Layer inception_4b/output
I0403 15:39:17.796582 13884 net.cpp:425] inception_4b/output <- inception_4b/1x1
I0403 15:39:17.796598 13884 net.cpp:425] inception_4b/output <- inception_4b/3x3
I0403 15:39:17.796615 13884 net.cpp:425] inception_4b/output <- inception_4b/5x5
I0403 15:39:17.796632 13884 net.cpp:425] inception_4b/output <- inception_4b/pool_proj
I0403 15:39:17.796650 13884 net.cpp:399] inception_4b/output -> inception_4b/output
I0403 15:39:17.796696 13884 net.cpp:141] Setting up inception_4b/output
I0403 15:39:17.796720 13884 net.cpp:148] Top shape: 24 512 14 14 (2408448)
I0403 15:39:17.796735 13884 net.cpp:156] Memory required for data: 989857056
I0403 15:39:17.796764 13884 layer_factory.hpp:77] Creating layer inception_4b/output_inception_4b/output_0_split
I0403 15:39:17.796787 13884 net.cpp:91] Creating Layer inception_4b/output_inception_4b/output_0_split
I0403 15:39:17.796804 13884 net.cpp:425] inception_4b/output_inception_4b/output_0_split <- inception_4b/output
I0403 15:39:17.796823 13884 net.cpp:399] inception_4b/output_inception_4b/output_0_split -> inception_4b/output_inception_4b/output_0_split_0
I0403 15:39:17.796841 13884 net.cpp:399] inception_4b/output_inception_4b/output_0_split -> inception_4b/output_inception_4b/output_0_split_1
I0403 15:39:17.796862 13884 net.cpp:399] inception_4b/output_inception_4b/output_0_split -> inception_4b/output_inception_4b/output_0_split_2
I0403 15:39:17.796886 13884 net.cpp:399] inception_4b/output_inception_4b/output_0_split -> inception_4b/output_inception_4b/output_0_split_3
I0403 15:39:17.796972 13884 net.cpp:141] Setting up inception_4b/output_inception_4b/output_0_split
I0403 15:39:17.796996 13884 net.cpp:148] Top shape: 24 512 14 14 (2408448)
I0403 15:39:17.797013 13884 net.cpp:148] Top shape: 24 512 14 14 (2408448)
I0403 15:39:17.797027 13884 net.cpp:148] Top shape: 24 512 14 14 (2408448)
I0403 15:39:17.797044 13884 net.cpp:148] Top shape: 24 512 14 14 (2408448)
I0403 15:39:17.797056 13884 net.cpp:156] Memory required for data: 1028392224
I0403 15:39:17.797070 13884 layer_factory.hpp:77] Creating layer inception_4c/1x1
I0403 15:39:17.797099 13884 net.cpp:91] Creating Layer inception_4c/1x1
I0403 15:39:17.797119 13884 net.cpp:425] inception_4c/1x1 <- inception_4b/output_inception_4b/output_0_split_0
I0403 15:39:17.797142 13884 net.cpp:399] inception_4c/1x1 -> inception_4c/1x1
I0403 15:39:17.798601 13884 net.cpp:141] Setting up inception_4c/1x1
I0403 15:39:17.798635 13884 net.cpp:148] Top shape: 24 128 14 14 (602112)
I0403 15:39:17.798652 13884 net.cpp:156] Memory required for data: 1030800672
I0403 15:39:17.798673 13884 layer_factory.hpp:77] Creating layer inception_4c/relu_1x1
I0403 15:39:17.798693 13884 net.cpp:91] Creating Layer inception_4c/relu_1x1
I0403 15:39:17.798709 13884 net.cpp:425] inception_4c/relu_1x1 <- inception_4c/1x1
I0403 15:39:17.798729 13884 net.cpp:386] inception_4c/relu_1x1 -> inception_4c/1x1 (in-place)
I0403 15:39:17.798918 13884 net.cpp:141] Setting up inception_4c/relu_1x1
I0403 15:39:17.798945 13884 net.cpp:148] Top shape: 24 128 14 14 (602112)
I0403 15:39:17.798961 13884 net.cpp:156] Memory required for data: 1033209120
I0403 15:39:17.798977 13884 layer_factory.hpp:77] Creating layer inception_4c/3x3_reduce
I0403 15:39:17.799000 13884 net.cpp:91] Creating Layer inception_4c/3x3_reduce
I0403 15:39:17.799020 13884 net.cpp:425] inception_4c/3x3_reduce <- inception_4b/output_inception_4b/output_0_split_1
I0403 15:39:17.799041 13884 net.cpp:399] inception_4c/3x3_reduce -> inception_4c/3x3_reduce
I0403 15:39:17.801069 13884 net.cpp:141] Setting up inception_4c/3x3_reduce
I0403 15:39:17.801105 13884 net.cpp:148] Top shape: 24 128 14 14 (602112)
I0403 15:39:17.801125 13884 net.cpp:156] Memory required for data: 1035617568
I0403 15:39:17.801144 13884 layer_factory.hpp:77] Creating layer inception_4c/relu_3x3_reduce
I0403 15:39:17.801167 13884 net.cpp:91] Creating Layer inception_4c/relu_3x3_reduce
I0403 15:39:17.801187 13884 net.cpp:425] inception_4c/relu_3x3_reduce <- inception_4c/3x3_reduce
I0403 15:39:17.801205 13884 net.cpp:386] inception_4c/relu_3x3_reduce -> inception_4c/3x3_reduce (in-place)
I0403 15:39:17.801508 13884 net.cpp:141] Setting up inception_4c/relu_3x3_reduce
I0403 15:39:17.801537 13884 net.cpp:148] Top shape: 24 128 14 14 (602112)
I0403 15:39:17.801553 13884 net.cpp:156] Memory required for data: 1038026016
I0403 15:39:17.801569 13884 layer_factory.hpp:77] Creating layer inception_4c/3x3
I0403 15:39:17.801594 13884 net.cpp:91] Creating Layer inception_4c/3x3
I0403 15:39:17.801612 13884 net.cpp:425] inception_4c/3x3 <- inception_4c/3x3_reduce
I0403 15:39:17.801636 13884 net.cpp:399] inception_4c/3x3 -> inception_4c/3x3
I0403 15:39:17.805474 13884 net.cpp:141] Setting up inception_4c/3x3
I0403 15:39:17.805518 13884 net.cpp:148] Top shape: 24 256 14 14 (1204224)
I0403 15:39:17.805536 13884 net.cpp:156] Memory required for data: 1042842912
I0403 15:39:17.805570 13884 layer_factory.hpp:77] Creating layer inception_4c/relu_3x3
I0403 15:39:17.805595 13884 net.cpp:91] Creating Layer inception_4c/relu_3x3
I0403 15:39:17.805613 13884 net.cpp:425] inception_4c/relu_3x3 <- inception_4c/3x3
I0403 15:39:17.805634 13884 net.cpp:386] inception_4c/relu_3x3 -> inception_4c/3x3 (in-place)
I0403 15:39:17.805829 13884 net.cpp:141] Setting up inception_4c/relu_3x3
I0403 15:39:17.805855 13884 net.cpp:148] Top shape: 24 256 14 14 (1204224)
I0403 15:39:17.805871 13884 net.cpp:156] Memory required for data: 1047659808
I0403 15:39:17.805886 13884 layer_factory.hpp:77] Creating layer inception_4c/5x5_reduce
I0403 15:39:17.805910 13884 net.cpp:91] Creating Layer inception_4c/5x5_reduce
I0403 15:39:17.805933 13884 net.cpp:425] inception_4c/5x5_reduce <- inception_4b/output_inception_4b/output_0_split_2
I0403 15:39:17.805954 13884 net.cpp:399] inception_4c/5x5_reduce -> inception_4c/5x5_reduce
I0403 15:39:17.807132 13884 net.cpp:141] Setting up inception_4c/5x5_reduce
I0403 15:39:17.807163 13884 net.cpp:148] Top shape: 24 24 14 14 (112896)
I0403 15:39:17.807179 13884 net.cpp:156] Memory required for data: 1048111392
I0403 15:39:17.807199 13884 layer_factory.hpp:77] Creating layer inception_4c/relu_5x5_reduce
I0403 15:39:17.807222 13884 net.cpp:91] Creating Layer inception_4c/relu_5x5_reduce
I0403 15:39:17.807242 13884 net.cpp:425] inception_4c/relu_5x5_reduce <- inception_4c/5x5_reduce
I0403 15:39:17.807261 13884 net.cpp:386] inception_4c/relu_5x5_reduce -> inception_4c/5x5_reduce (in-place)
I0403 15:39:17.807459 13884 net.cpp:141] Setting up inception_4c/relu_5x5_reduce
I0403 15:39:17.807489 13884 net.cpp:148] Top shape: 24 24 14 14 (112896)
I0403 15:39:17.807507 13884 net.cpp:156] Memory required for data: 1048562976
I0403 15:39:17.807523 13884 layer_factory.hpp:77] Creating layer inception_4c/5x5
I0403 15:39:17.807546 13884 net.cpp:91] Creating Layer inception_4c/5x5
I0403 15:39:17.807565 13884 net.cpp:425] inception_4c/5x5 <- inception_4c/5x5_reduce
I0403 15:39:17.807585 13884 net.cpp:399] inception_4c/5x5 -> inception_4c/5x5
I0403 15:39:17.808914 13884 net.cpp:141] Setting up inception_4c/5x5
I0403 15:39:17.808949 13884 net.cpp:148] Top shape: 24 64 14 14 (301056)
I0403 15:39:17.808967 13884 net.cpp:156] Memory required for data: 1049767200
I0403 15:39:17.808989 13884 layer_factory.hpp:77] Creating layer inception_4c/relu_5x5
I0403 15:39:17.809006 13884 net.cpp:91] Creating Layer inception_4c/relu_5x5
I0403 15:39:17.809022 13884 net.cpp:425] inception_4c/relu_5x5 <- inception_4c/5x5
I0403 15:39:17.809043 13884 net.cpp:386] inception_4c/relu_5x5 -> inception_4c/5x5 (in-place)
I0403 15:39:17.809355 13884 net.cpp:141] Setting up inception_4c/relu_5x5
I0403 15:39:17.809386 13884 net.cpp:148] Top shape: 24 64 14 14 (301056)
I0403 15:39:17.809404 13884 net.cpp:156] Memory required for data: 1050971424
I0403 15:39:17.809420 13884 layer_factory.hpp:77] Creating layer inception_4c/pool
I0403 15:39:17.809439 13884 net.cpp:91] Creating Layer inception_4c/pool
I0403 15:39:17.809458 13884 net.cpp:425] inception_4c/pool <- inception_4b/output_inception_4b/output_0_split_3
I0403 15:39:17.809479 13884 net.cpp:399] inception_4c/pool -> inception_4c/pool
I0403 15:39:17.809548 13884 net.cpp:141] Setting up inception_4c/pool
I0403 15:39:17.809576 13884 net.cpp:148] Top shape: 24 512 14 14 (2408448)
I0403 15:39:17.809592 13884 net.cpp:156] Memory required for data: 1060605216
I0403 15:39:17.809607 13884 layer_factory.hpp:77] Creating layer inception_4c/pool_proj
I0403 15:39:17.809630 13884 net.cpp:91] Creating Layer inception_4c/pool_proj
I0403 15:39:17.809649 13884 net.cpp:425] inception_4c/pool_proj <- inception_4c/pool
I0403 15:39:17.809671 13884 net.cpp:399] inception_4c/pool_proj -> inception_4c/pool_proj
I0403 15:39:17.810978 13884 net.cpp:141] Setting up inception_4c/pool_proj
I0403 15:39:17.811009 13884 net.cpp:148] Top shape: 24 64 14 14 (301056)
I0403 15:39:17.811043 13884 net.cpp:156] Memory required for data: 1061809440
I0403 15:39:17.811064 13884 layer_factory.hpp:77] Creating layer inception_4c/relu_pool_proj
I0403 15:39:17.811086 13884 net.cpp:91] Creating Layer inception_4c/relu_pool_proj
I0403 15:39:17.811111 13884 net.cpp:425] inception_4c/relu_pool_proj <- inception_4c/pool_proj
I0403 15:39:17.811131 13884 net.cpp:386] inception_4c/relu_pool_proj -> inception_4c/pool_proj (in-place)
I0403 15:39:17.811329 13884 net.cpp:141] Setting up inception_4c/relu_pool_proj
I0403 15:39:17.811359 13884 net.cpp:148] Top shape: 24 64 14 14 (301056)
I0403 15:39:17.811377 13884 net.cpp:156] Memory required for data: 1063013664
I0403 15:39:17.811393 13884 layer_factory.hpp:77] Creating layer inception_4c/output
I0403 15:39:17.811411 13884 net.cpp:91] Creating Layer inception_4c/output
I0403 15:39:17.811429 13884 net.cpp:425] inception_4c/output <- inception_4c/1x1
I0403 15:39:17.811446 13884 net.cpp:425] inception_4c/output <- inception_4c/3x3
I0403 15:39:17.811465 13884 net.cpp:425] inception_4c/output <- inception_4c/5x5
I0403 15:39:17.811480 13884 net.cpp:425] inception_4c/output <- inception_4c/pool_proj
I0403 15:39:17.811499 13884 net.cpp:399] inception_4c/output -> inception_4c/output
I0403 15:39:17.811553 13884 net.cpp:141] Setting up inception_4c/output
I0403 15:39:17.811578 13884 net.cpp:148] Top shape: 24 512 14 14 (2408448)
I0403 15:39:17.811594 13884 net.cpp:156] Memory required for data: 1072647456
I0403 15:39:17.811610 13884 layer_factory.hpp:77] Creating layer inception_4c/output_inception_4c/output_0_split
I0403 15:39:17.811628 13884 net.cpp:91] Creating Layer inception_4c/output_inception_4c/output_0_split
I0403 15:39:17.811645 13884 net.cpp:425] inception_4c/output_inception_4c/output_0_split <- inception_4c/output
I0403 15:39:17.811667 13884 net.cpp:399] inception_4c/output_inception_4c/output_0_split -> inception_4c/output_inception_4c/output_0_split_0
I0403 15:39:17.811689 13884 net.cpp:399] inception_4c/output_inception_4c/output_0_split -> inception_4c/output_inception_4c/output_0_split_1
I0403 15:39:17.811712 13884 net.cpp:399] inception_4c/output_inception_4c/output_0_split -> inception_4c/output_inception_4c/output_0_split_2
I0403 15:39:17.811738 13884 net.cpp:399] inception_4c/output_inception_4c/output_0_split -> inception_4c/output_inception_4c/output_0_split_3
I0403 15:39:17.811836 13884 net.cpp:141] Setting up inception_4c/output_inception_4c/output_0_split
I0403 15:39:17.811861 13884 net.cpp:148] Top shape: 24 512 14 14 (2408448)
I0403 15:39:17.811878 13884 net.cpp:148] Top shape: 24 512 14 14 (2408448)
I0403 15:39:17.811894 13884 net.cpp:148] Top shape: 24 512 14 14 (2408448)
I0403 15:39:17.811910 13884 net.cpp:148] Top shape: 24 512 14 14 (2408448)
I0403 15:39:17.811925 13884 net.cpp:156] Memory required for data: 1111182624
I0403 15:39:17.811940 13884 layer_factory.hpp:77] Creating layer inception_4d/1x1
I0403 15:39:17.811964 13884 net.cpp:91] Creating Layer inception_4d/1x1
I0403 15:39:17.811982 13884 net.cpp:425] inception_4d/1x1 <- inception_4c/output_inception_4c/output_0_split_0
I0403 15:39:17.812005 13884 net.cpp:399] inception_4d/1x1 -> inception_4d/1x1
I0403 15:39:17.813485 13884 net.cpp:141] Setting up inception_4d/1x1
I0403 15:39:17.813516 13884 net.cpp:148] Top shape: 24 112 14 14 (526848)
I0403 15:39:17.813534 13884 net.cpp:156] Memory required for data: 1113290016
I0403 15:39:17.813554 13884 layer_factory.hpp:77] Creating layer inception_4d/relu_1x1
I0403 15:39:17.813572 13884 net.cpp:91] Creating Layer inception_4d/relu_1x1
I0403 15:39:17.813593 13884 net.cpp:425] inception_4d/relu_1x1 <- inception_4d/1x1
I0403 15:39:17.813612 13884 net.cpp:386] inception_4d/relu_1x1 -> inception_4d/1x1 (in-place)
I0403 15:39:17.813808 13884 net.cpp:141] Setting up inception_4d/relu_1x1
I0403 15:39:17.813837 13884 net.cpp:148] Top shape: 24 112 14 14 (526848)
I0403 15:39:17.813851 13884 net.cpp:156] Memory required for data: 1115397408
I0403 15:39:17.813868 13884 layer_factory.hpp:77] Creating layer inception_4d/3x3_reduce
I0403 15:39:17.813906 13884 net.cpp:91] Creating Layer inception_4d/3x3_reduce
I0403 15:39:17.813928 13884 net.cpp:425] inception_4d/3x3_reduce <- inception_4c/output_inception_4c/output_0_split_1
I0403 15:39:17.813951 13884 net.cpp:399] inception_4d/3x3_reduce -> inception_4d/3x3_reduce
I0403 15:39:17.815559 13884 net.cpp:141] Setting up inception_4d/3x3_reduce
I0403 15:39:17.815593 13884 net.cpp:148] Top shape: 24 144 14 14 (677376)
I0403 15:39:17.815609 13884 net.cpp:156] Memory required for data: 1118106912
I0403 15:39:17.815630 13884 layer_factory.hpp:77] Creating layer inception_4d/relu_3x3_reduce
I0403 15:39:17.815649 13884 net.cpp:91] Creating Layer inception_4d/relu_3x3_reduce
I0403 15:39:17.815667 13884 net.cpp:425] inception_4d/relu_3x3_reduce <- inception_4d/3x3_reduce
I0403 15:39:17.815687 13884 net.cpp:386] inception_4d/relu_3x3_reduce -> inception_4d/3x3_reduce (in-place)
I0403 15:39:17.815992 13884 net.cpp:141] Setting up inception_4d/relu_3x3_reduce
I0403 15:39:17.816023 13884 net.cpp:148] Top shape: 24 144 14 14 (677376)
I0403 15:39:17.816040 13884 net.cpp:156] Memory required for data: 1120816416
I0403 15:39:17.816056 13884 layer_factory.hpp:77] Creating layer inception_4d/3x3
I0403 15:39:17.816081 13884 net.cpp:91] Creating Layer inception_4d/3x3
I0403 15:39:17.816105 13884 net.cpp:425] inception_4d/3x3 <- inception_4d/3x3_reduce
I0403 15:39:17.816130 13884 net.cpp:399] inception_4d/3x3 -> inception_4d/3x3
I0403 15:39:17.820654 13884 net.cpp:141] Setting up inception_4d/3x3
I0403 15:39:17.820684 13884 net.cpp:148] Top shape: 24 288 14 14 (1354752)
I0403 15:39:17.820701 13884 net.cpp:156] Memory required for data: 1126235424
I0403 15:39:17.820720 13884 layer_factory.hpp:77] Creating layer inception_4d/relu_3x3
I0403 15:39:17.820739 13884 net.cpp:91] Creating Layer inception_4d/relu_3x3
I0403 15:39:17.820755 13884 net.cpp:425] inception_4d/relu_3x3 <- inception_4d/3x3
I0403 15:39:17.820775 13884 net.cpp:386] inception_4d/relu_3x3 -> inception_4d/3x3 (in-place)
I0403 15:39:17.820960 13884 net.cpp:141] Setting up inception_4d/relu_3x3
I0403 15:39:17.820986 13884 net.cpp:148] Top shape: 24 288 14 14 (1354752)
I0403 15:39:17.821001 13884 net.cpp:156] Memory required for data: 1131654432
I0403 15:39:17.821015 13884 layer_factory.hpp:77] Creating layer inception_4d/5x5_reduce
I0403 15:39:17.821039 13884 net.cpp:91] Creating Layer inception_4d/5x5_reduce
I0403 15:39:17.821058 13884 net.cpp:425] inception_4d/5x5_reduce <- inception_4c/output_inception_4c/output_0_split_2
I0403 15:39:17.821079 13884 net.cpp:399] inception_4d/5x5_reduce -> inception_4d/5x5_reduce
I0403 15:39:17.822233 13884 net.cpp:141] Setting up inception_4d/5x5_reduce
I0403 15:39:17.822263 13884 net.cpp:148] Top shape: 24 32 14 14 (150528)
I0403 15:39:17.822278 13884 net.cpp:156] Memory required for data: 1132256544
I0403 15:39:17.822298 13884 layer_factory.hpp:77] Creating layer inception_4d/relu_5x5_reduce
I0403 15:39:17.822319 13884 net.cpp:91] Creating Layer inception_4d/relu_5x5_reduce
I0403 15:39:17.822335 13884 net.cpp:425] inception_4d/relu_5x5_reduce <- inception_4d/5x5_reduce
I0403 15:39:17.822355 13884 net.cpp:386] inception_4d/relu_5x5_reduce -> inception_4d/5x5_reduce (in-place)
I0403 15:39:17.822541 13884 net.cpp:141] Setting up inception_4d/relu_5x5_reduce
I0403 15:39:17.822567 13884 net.cpp:148] Top shape: 24 32 14 14 (150528)
I0403 15:39:17.822582 13884 net.cpp:156] Memory required for data: 1132858656
I0403 15:39:17.822597 13884 layer_factory.hpp:77] Creating layer inception_4d/5x5
I0403 15:39:17.822619 13884 net.cpp:91] Creating Layer inception_4d/5x5
I0403 15:39:17.822639 13884 net.cpp:425] inception_4d/5x5 <- inception_4d/5x5_reduce
I0403 15:39:17.822660 13884 net.cpp:399] inception_4d/5x5 -> inception_4d/5x5
I0403 15:39:17.824137 13884 net.cpp:141] Setting up inception_4d/5x5
I0403 15:39:17.824167 13884 net.cpp:148] Top shape: 24 64 14 14 (301056)
I0403 15:39:17.824182 13884 net.cpp:156] Memory required for data: 1134062880
I0403 15:39:17.824201 13884 layer_factory.hpp:77] Creating layer inception_4d/relu_5x5
I0403 15:39:17.824237 13884 net.cpp:91] Creating Layer inception_4d/relu_5x5
I0403 15:39:17.824256 13884 net.cpp:425] inception_4d/relu_5x5 <- inception_4d/5x5
I0403 15:39:17.824275 13884 net.cpp:386] inception_4d/relu_5x5 -> inception_4d/5x5 (in-place)
I0403 15:39:17.824575 13884 net.cpp:141] Setting up inception_4d/relu_5x5
I0403 15:39:17.824602 13884 net.cpp:148] Top shape: 24 64 14 14 (301056)
I0403 15:39:17.824617 13884 net.cpp:156] Memory required for data: 1135267104
I0403 15:39:17.824632 13884 layer_factory.hpp:77] Creating layer inception_4d/pool
I0403 15:39:17.824652 13884 net.cpp:91] Creating Layer inception_4d/pool
I0403 15:39:17.824671 13884 net.cpp:425] inception_4d/pool <- inception_4c/output_inception_4c/output_0_split_3
I0403 15:39:17.824688 13884 net.cpp:399] inception_4d/pool -> inception_4d/pool
I0403 15:39:17.824756 13884 net.cpp:141] Setting up inception_4d/pool
I0403 15:39:17.824781 13884 net.cpp:148] Top shape: 24 512 14 14 (2408448)
I0403 15:39:17.824795 13884 net.cpp:156] Memory required for data: 1144900896
I0403 15:39:17.824811 13884 layer_factory.hpp:77] Creating layer inception_4d/pool_proj
I0403 15:39:17.824833 13884 net.cpp:91] Creating Layer inception_4d/pool_proj
I0403 15:39:17.824851 13884 net.cpp:425] inception_4d/pool_proj <- inception_4d/pool
I0403 15:39:17.824872 13884 net.cpp:399] inception_4d/pool_proj -> inception_4d/pool_proj
I0403 15:39:17.826629 13884 net.cpp:141] Setting up inception_4d/pool_proj
I0403 15:39:17.826660 13884 net.cpp:148] Top shape: 24 64 14 14 (301056)
I0403 15:39:17.826676 13884 net.cpp:156] Memory required for data: 1146105120
I0403 15:39:17.826695 13884 layer_factory.hpp:77] Creating layer inception_4d/relu_pool_proj
I0403 15:39:17.826714 13884 net.cpp:91] Creating Layer inception_4d/relu_pool_proj
I0403 15:39:17.826730 13884 net.cpp:425] inception_4d/relu_pool_proj <- inception_4d/pool_proj
I0403 15:39:17.826750 13884 net.cpp:386] inception_4d/relu_pool_proj -> inception_4d/pool_proj (in-place)
I0403 15:39:17.826937 13884 net.cpp:141] Setting up inception_4d/relu_pool_proj
I0403 15:39:17.826963 13884 net.cpp:148] Top shape: 24 64 14 14 (301056)
I0403 15:39:17.826978 13884 net.cpp:156] Memory required for data: 1147309344
I0403 15:39:17.826993 13884 layer_factory.hpp:77] Creating layer inception_4d/output
I0403 15:39:17.827013 13884 net.cpp:91] Creating Layer inception_4d/output
I0403 15:39:17.827028 13884 net.cpp:425] inception_4d/output <- inception_4d/1x1
I0403 15:39:17.827046 13884 net.cpp:425] inception_4d/output <- inception_4d/3x3
I0403 15:39:17.827061 13884 net.cpp:425] inception_4d/output <- inception_4d/5x5
I0403 15:39:17.827078 13884 net.cpp:425] inception_4d/output <- inception_4d/pool_proj
I0403 15:39:17.827100 13884 net.cpp:399] inception_4d/output -> inception_4d/output
I0403 15:39:17.827150 13884 net.cpp:141] Setting up inception_4d/output
I0403 15:39:17.827175 13884 net.cpp:148] Top shape: 24 528 14 14 (2483712)
I0403 15:39:17.827190 13884 net.cpp:156] Memory required for data: 1157244192
I0403 15:39:17.827205 13884 layer_factory.hpp:77] Creating layer inception_4d/output_inception_4d/output_0_split
I0403 15:39:17.827224 13884 net.cpp:91] Creating Layer inception_4d/output_inception_4d/output_0_split
I0403 15:39:17.827239 13884 net.cpp:425] inception_4d/output_inception_4d/output_0_split <- inception_4d/output
I0403 15:39:17.827260 13884 net.cpp:399] inception_4d/output_inception_4d/output_0_split -> inception_4d/output_inception_4d/output_0_split_0
I0403 15:39:17.827281 13884 net.cpp:399] inception_4d/output_inception_4d/output_0_split -> inception_4d/output_inception_4d/output_0_split_1
I0403 15:39:17.827303 13884 net.cpp:399] inception_4d/output_inception_4d/output_0_split -> inception_4d/output_inception_4d/output_0_split_2
I0403 15:39:17.827324 13884 net.cpp:399] inception_4d/output_inception_4d/output_0_split -> inception_4d/output_inception_4d/output_0_split_3
I0403 15:39:17.827345 13884 net.cpp:399] inception_4d/output_inception_4d/output_0_split -> inception_4d/output_inception_4d/output_0_split_4
I0403 15:39:17.827451 13884 net.cpp:141] Setting up inception_4d/output_inception_4d/output_0_split
I0403 15:39:17.827491 13884 net.cpp:148] Top shape: 24 528 14 14 (2483712)
I0403 15:39:17.827509 13884 net.cpp:148] Top shape: 24 528 14 14 (2483712)
I0403 15:39:17.827525 13884 net.cpp:148] Top shape: 24 528 14 14 (2483712)
I0403 15:39:17.827541 13884 net.cpp:148] Top shape: 24 528 14 14 (2483712)
I0403 15:39:17.827558 13884 net.cpp:148] Top shape: 24 528 14 14 (2483712)
I0403 15:39:17.827571 13884 net.cpp:156] Memory required for data: 1206918432
I0403 15:39:17.827586 13884 layer_factory.hpp:77] Creating layer loss2/ave_pool
I0403 15:39:17.827603 13884 net.cpp:91] Creating Layer loss2/ave_pool
I0403 15:39:17.827620 13884 net.cpp:425] loss2/ave_pool <- inception_4d/output_inception_4d/output_0_split_0
I0403 15:39:17.827641 13884 net.cpp:399] loss2/ave_pool -> loss2/ave_pool
I0403 15:39:17.827955 13884 net.cpp:141] Setting up loss2/ave_pool
I0403 15:39:17.827983 13884 net.cpp:148] Top shape: 24 528 4 4 (202752)
I0403 15:39:17.827999 13884 net.cpp:156] Memory required for data: 1207729440
I0403 15:39:17.828014 13884 layer_factory.hpp:77] Creating layer loss2/conv
I0403 15:39:17.828037 13884 net.cpp:91] Creating Layer loss2/conv
I0403 15:39:17.828055 13884 net.cpp:425] loss2/conv <- loss2/ave_pool
I0403 15:39:17.828076 13884 net.cpp:399] loss2/conv -> loss2/conv
I0403 15:39:17.829968 13884 net.cpp:141] Setting up loss2/conv
I0403 15:39:17.830000 13884 net.cpp:148] Top shape: 24 128 4 4 (49152)
I0403 15:39:17.830018 13884 net.cpp:156] Memory required for data: 1207926048
I0403 15:39:17.830036 13884 layer_factory.hpp:77] Creating layer loss2/relu_conv
I0403 15:39:17.830055 13884 net.cpp:91] Creating Layer loss2/relu_conv
I0403 15:39:17.830072 13884 net.cpp:425] loss2/relu_conv <- loss2/conv
I0403 15:39:17.830090 13884 net.cpp:386] loss2/relu_conv -> loss2/conv (in-place)
I0403 15:39:17.830381 13884 net.cpp:141] Setting up loss2/relu_conv
I0403 15:39:17.830411 13884 net.cpp:148] Top shape: 24 128 4 4 (49152)
I0403 15:39:17.830427 13884 net.cpp:156] Memory required for data: 1208122656
I0403 15:39:17.830442 13884 layer_factory.hpp:77] Creating layer loss2/fc
I0403 15:39:17.830462 13884 net.cpp:91] Creating Layer loss2/fc
I0403 15:39:17.830479 13884 net.cpp:425] loss2/fc <- loss2/conv
I0403 15:39:17.830502 13884 net.cpp:399] loss2/fc -> loss2/fc
I0403 15:39:17.848342 13884 net.cpp:141] Setting up loss2/fc
I0403 15:39:17.848379 13884 net.cpp:148] Top shape: 24 1024 (24576)
I0403 15:39:17.848395 13884 net.cpp:156] Memory required for data: 1208220960
I0403 15:39:17.848413 13884 layer_factory.hpp:77] Creating layer loss2/relu_fc
I0403 15:39:17.848440 13884 net.cpp:91] Creating Layer loss2/relu_fc
I0403 15:39:17.848459 13884 net.cpp:425] loss2/relu_fc <- loss2/fc
I0403 15:39:17.848477 13884 net.cpp:386] loss2/relu_fc -> loss2/fc (in-place)
I0403 15:39:17.848789 13884 net.cpp:141] Setting up loss2/relu_fc
I0403 15:39:17.848817 13884 net.cpp:148] Top shape: 24 1024 (24576)
I0403 15:39:17.848832 13884 net.cpp:156] Memory required for data: 1208319264
I0403 15:39:17.848848 13884 layer_factory.hpp:77] Creating layer loss2/drop_fc
I0403 15:39:17.848868 13884 net.cpp:91] Creating Layer loss2/drop_fc
I0403 15:39:17.848886 13884 net.cpp:425] loss2/drop_fc <- loss2/fc
I0403 15:39:17.848904 13884 net.cpp:386] loss2/drop_fc -> loss2/fc (in-place)
I0403 15:39:17.848953 13884 net.cpp:141] Setting up loss2/drop_fc
I0403 15:39:17.848978 13884 net.cpp:148] Top shape: 24 1024 (24576)
I0403 15:39:17.848994 13884 net.cpp:156] Memory required for data: 1208417568
I0403 15:39:17.849009 13884 layer_factory.hpp:77] Creating layer loss2/classifier_plantvillage
I0403 15:39:17.849028 13884 net.cpp:91] Creating Layer loss2/classifier_plantvillage
I0403 15:39:17.849045 13884 net.cpp:425] loss2/classifier_plantvillage <- loss2/fc
I0403 15:39:17.849066 13884 net.cpp:399] loss2/classifier_plantvillage -> loss2/classifier_plantvillage
I0403 15:39:17.849475 13884 net.cpp:141] Setting up loss2/classifier_plantvillage
I0403 15:39:17.849503 13884 net.cpp:148] Top shape: 24 38 (912)
I0403 15:39:17.849516 13884 net.cpp:156] Memory required for data: 1208421216
I0403 15:39:17.849552 13884 layer_factory.hpp:77] Creating layer loss2/classifier_plantvillage_loss2/classifier_plantvillage_0_split
I0403 15:39:17.849573 13884 net.cpp:91] Creating Layer loss2/classifier_plantvillage_loss2/classifier_plantvillage_0_split
I0403 15:39:17.849591 13884 net.cpp:425] loss2/classifier_plantvillage_loss2/classifier_plantvillage_0_split <- loss2/classifier_plantvillage
I0403 15:39:17.849608 13884 net.cpp:399] loss2/classifier_plantvillage_loss2/classifier_plantvillage_0_split -> loss2/classifier_plantvillage_loss2/classifier_plantvillage_0_split_0
I0403 15:39:17.849632 13884 net.cpp:399] loss2/classifier_plantvillage_loss2/classifier_plantvillage_0_split -> loss2/classifier_plantvillage_loss2/classifier_plantvillage_0_split_1
I0403 15:39:17.849654 13884 net.cpp:399] loss2/classifier_plantvillage_loss2/classifier_plantvillage_0_split -> loss2/classifier_plantvillage_loss2/classifier_plantvillage_0_split_2
I0403 15:39:17.849732 13884 net.cpp:141] Setting up loss2/classifier_plantvillage_loss2/classifier_plantvillage_0_split
I0403 15:39:17.849757 13884 net.cpp:148] Top shape: 24 38 (912)
I0403 15:39:17.849776 13884 net.cpp:148] Top shape: 24 38 (912)
I0403 15:39:17.849791 13884 net.cpp:148] Top shape: 24 38 (912)
I0403 15:39:17.849803 13884 net.cpp:156] Memory required for data: 1208432160
I0403 15:39:17.849819 13884 layer_factory.hpp:77] Creating layer inception_4e/1x1
I0403 15:39:17.849843 13884 net.cpp:91] Creating Layer inception_4e/1x1
I0403 15:39:17.849861 13884 net.cpp:425] inception_4e/1x1 <- inception_4d/output_inception_4d/output_0_split_1
I0403 15:39:17.849882 13884 net.cpp:399] inception_4e/1x1 -> inception_4e/1x1
I0403 15:39:17.851716 13884 net.cpp:141] Setting up inception_4e/1x1
I0403 15:39:17.851748 13884 net.cpp:148] Top shape: 24 256 14 14 (1204224)
I0403 15:39:17.851765 13884 net.cpp:156] Memory required for data: 1213249056
I0403 15:39:17.851785 13884 layer_factory.hpp:77] Creating layer inception_4e/relu_1x1
I0403 15:39:17.851804 13884 net.cpp:91] Creating Layer inception_4e/relu_1x1
I0403 15:39:17.851821 13884 net.cpp:425] inception_4e/relu_1x1 <- inception_4e/1x1
I0403 15:39:17.851843 13884 net.cpp:386] inception_4e/relu_1x1 -> inception_4e/1x1 (in-place)
I0403 15:39:17.852151 13884 net.cpp:141] Setting up inception_4e/relu_1x1
I0403 15:39:17.852181 13884 net.cpp:148] Top shape: 24 256 14 14 (1204224)
I0403 15:39:17.852198 13884 net.cpp:156] Memory required for data: 1218065952
I0403 15:39:17.852213 13884 layer_factory.hpp:77] Creating layer inception_4e/3x3_reduce
I0403 15:39:17.852236 13884 net.cpp:91] Creating Layer inception_4e/3x3_reduce
I0403 15:39:17.852253 13884 net.cpp:425] inception_4e/3x3_reduce <- inception_4d/output_inception_4d/output_0_split_2
I0403 15:39:17.852272 13884 net.cpp:399] inception_4e/3x3_reduce -> inception_4e/3x3_reduce
I0403 15:39:17.854403 13884 net.cpp:141] Setting up inception_4e/3x3_reduce
I0403 15:39:17.854434 13884 net.cpp:148] Top shape: 24 160 14 14 (752640)
I0403 15:39:17.854450 13884 net.cpp:156] Memory required for data: 1221076512
I0403 15:39:17.854470 13884 layer_factory.hpp:77] Creating layer inception_4e/relu_3x3_reduce
I0403 15:39:17.854491 13884 net.cpp:91] Creating Layer inception_4e/relu_3x3_reduce
I0403 15:39:17.854506 13884 net.cpp:425] inception_4e/relu_3x3_reduce <- inception_4e/3x3_reduce
I0403 15:39:17.854523 13884 net.cpp:386] inception_4e/relu_3x3_reduce -> inception_4e/3x3_reduce (in-place)
I0403 15:39:17.854713 13884 net.cpp:141] Setting up inception_4e/relu_3x3_reduce
I0403 15:39:17.854740 13884 net.cpp:148] Top shape: 24 160 14 14 (752640)
I0403 15:39:17.854758 13884 net.cpp:156] Memory required for data: 1224087072
I0403 15:39:17.854773 13884 layer_factory.hpp:77] Creating layer inception_4e/3x3
I0403 15:39:17.854794 13884 net.cpp:91] Creating Layer inception_4e/3x3
I0403 15:39:17.854812 13884 net.cpp:425] inception_4e/3x3 <- inception_4e/3x3_reduce
I0403 15:39:17.854831 13884 net.cpp:399] inception_4e/3x3 -> inception_4e/3x3
I0403 15:39:17.859997 13884 net.cpp:141] Setting up inception_4e/3x3
I0403 15:39:17.860044 13884 net.cpp:148] Top shape: 24 320 14 14 (1505280)
I0403 15:39:17.860064 13884 net.cpp:156] Memory required for data: 1230108192
I0403 15:39:17.860100 13884 layer_factory.hpp:77] Creating layer inception_4e/relu_3x3
I0403 15:39:17.860122 13884 net.cpp:91] Creating Layer inception_4e/relu_3x3
I0403 15:39:17.860141 13884 net.cpp:425] inception_4e/relu_3x3 <- inception_4e/3x3
I0403 15:39:17.860162 13884 net.cpp:386] inception_4e/relu_3x3 -> inception_4e/3x3 (in-place)
I0403 15:39:17.860491 13884 net.cpp:141] Setting up inception_4e/relu_3x3
I0403 15:39:17.860520 13884 net.cpp:148] Top shape: 24 320 14 14 (1505280)
I0403 15:39:17.860537 13884 net.cpp:156] Memory required for data: 1236129312
I0403 15:39:17.860553 13884 layer_factory.hpp:77] Creating layer inception_4e/5x5_reduce
I0403 15:39:17.860576 13884 net.cpp:91] Creating Layer inception_4e/5x5_reduce
I0403 15:39:17.860596 13884 net.cpp:425] inception_4e/5x5_reduce <- inception_4d/output_inception_4d/output_0_split_3
I0403 15:39:17.860618 13884 net.cpp:399] inception_4e/5x5_reduce -> inception_4e/5x5_reduce
I0403 15:39:17.861726 13884 net.cpp:141] Setting up inception_4e/5x5_reduce
I0403 15:39:17.861757 13884 net.cpp:148] Top shape: 24 32 14 14 (150528)
I0403 15:39:17.861773 13884 net.cpp:156] Memory required for data: 1236731424
I0403 15:39:17.861791 13884 layer_factory.hpp:77] Creating layer inception_4e/relu_5x5_reduce
I0403 15:39:17.861812 13884 net.cpp:91] Creating Layer inception_4e/relu_5x5_reduce
I0403 15:39:17.861830 13884 net.cpp:425] inception_4e/relu_5x5_reduce <- inception_4e/5x5_reduce
I0403 15:39:17.861850 13884 net.cpp:386] inception_4e/relu_5x5_reduce -> inception_4e/5x5_reduce (in-place)
I0403 15:39:17.862160 13884 net.cpp:141] Setting up inception_4e/relu_5x5_reduce
I0403 15:39:17.862188 13884 net.cpp:148] Top shape: 24 32 14 14 (150528)
I0403 15:39:17.862203 13884 net.cpp:156] Memory required for data: 1237333536
I0403 15:39:17.862220 13884 layer_factory.hpp:77] Creating layer inception_4e/5x5
I0403 15:39:17.862259 13884 net.cpp:91] Creating Layer inception_4e/5x5
I0403 15:39:17.862280 13884 net.cpp:425] inception_4e/5x5 <- inception_4e/5x5_reduce
I0403 15:39:17.862300 13884 net.cpp:399] inception_4e/5x5 -> inception_4e/5x5
I0403 15:39:17.864213 13884 net.cpp:141] Setting up inception_4e/5x5
I0403 15:39:17.864243 13884 net.cpp:148] Top shape: 24 128 14 14 (602112)
I0403 15:39:17.864261 13884 net.cpp:156] Memory required for data: 1239741984
I0403 15:39:17.864281 13884 layer_factory.hpp:77] Creating layer inception_4e/relu_5x5
I0403 15:39:17.864302 13884 net.cpp:91] Creating Layer inception_4e/relu_5x5
I0403 15:39:17.864320 13884 net.cpp:425] inception_4e/relu_5x5 <- inception_4e/5x5
I0403 15:39:17.864338 13884 net.cpp:386] inception_4e/relu_5x5 -> inception_4e/5x5 (in-place)
I0403 15:39:17.864543 13884 net.cpp:141] Setting up inception_4e/relu_5x5
I0403 15:39:17.864573 13884 net.cpp:148] Top shape: 24 128 14 14 (602112)
I0403 15:39:17.864588 13884 net.cpp:156] Memory required for data: 1242150432
I0403 15:39:17.864604 13884 layer_factory.hpp:77] Creating layer inception_4e/pool
I0403 15:39:17.864624 13884 net.cpp:91] Creating Layer inception_4e/pool
I0403 15:39:17.864639 13884 net.cpp:425] inception_4e/pool <- inception_4d/output_inception_4d/output_0_split_4
I0403 15:39:17.864658 13884 net.cpp:399] inception_4e/pool -> inception_4e/pool
I0403 15:39:17.864732 13884 net.cpp:141] Setting up inception_4e/pool
I0403 15:39:17.864759 13884 net.cpp:148] Top shape: 24 528 14 14 (2483712)
I0403 15:39:17.864774 13884 net.cpp:156] Memory required for data: 1252085280
I0403 15:39:17.864789 13884 layer_factory.hpp:77] Creating layer inception_4e/pool_proj
I0403 15:39:17.864811 13884 net.cpp:91] Creating Layer inception_4e/pool_proj
I0403 15:39:17.864830 13884 net.cpp:425] inception_4e/pool_proj <- inception_4e/pool
I0403 15:39:17.864852 13884 net.cpp:399] inception_4e/pool_proj -> inception_4e/pool_proj
I0403 15:39:17.866411 13884 net.cpp:141] Setting up inception_4e/pool_proj
I0403 15:39:17.866441 13884 net.cpp:148] Top shape: 24 128 14 14 (602112)
I0403 15:39:17.866474 13884 net.cpp:156] Memory required for data: 1254493728
I0403 15:39:17.866494 13884 layer_factory.hpp:77] Creating layer inception_4e/relu_pool_proj
I0403 15:39:17.866516 13884 net.cpp:91] Creating Layer inception_4e/relu_pool_proj
I0403 15:39:17.866535 13884 net.cpp:425] inception_4e/relu_pool_proj <- inception_4e/pool_proj
I0403 15:39:17.866554 13884 net.cpp:386] inception_4e/relu_pool_proj -> inception_4e/pool_proj (in-place)
I0403 15:39:17.866858 13884 net.cpp:141] Setting up inception_4e/relu_pool_proj
I0403 15:39:17.866886 13884 net.cpp:148] Top shape: 24 128 14 14 (602112)
I0403 15:39:17.866902 13884 net.cpp:156] Memory required for data: 1256902176
I0403 15:39:17.866917 13884 layer_factory.hpp:77] Creating layer inception_4e/output
I0403 15:39:17.866935 13884 net.cpp:91] Creating Layer inception_4e/output
I0403 15:39:17.866952 13884 net.cpp:425] inception_4e/output <- inception_4e/1x1
I0403 15:39:17.866969 13884 net.cpp:425] inception_4e/output <- inception_4e/3x3
I0403 15:39:17.866986 13884 net.cpp:425] inception_4e/output <- inception_4e/5x5
I0403 15:39:17.867002 13884 net.cpp:425] inception_4e/output <- inception_4e/pool_proj
I0403 15:39:17.867022 13884 net.cpp:399] inception_4e/output -> inception_4e/output
I0403 15:39:17.867075 13884 net.cpp:141] Setting up inception_4e/output
I0403 15:39:17.867106 13884 net.cpp:148] Top shape: 24 832 14 14 (3913728)
I0403 15:39:17.867125 13884 net.cpp:156] Memory required for data: 1272557088
I0403 15:39:17.867139 13884 layer_factory.hpp:77] Creating layer pool4/3x3_s2
I0403 15:39:17.867157 13884 net.cpp:91] Creating Layer pool4/3x3_s2
I0403 15:39:17.867173 13884 net.cpp:425] pool4/3x3_s2 <- inception_4e/output
I0403 15:39:17.867195 13884 net.cpp:399] pool4/3x3_s2 -> pool4/3x3_s2
I0403 15:39:17.867265 13884 net.cpp:141] Setting up pool4/3x3_s2
I0403 15:39:17.867291 13884 net.cpp:148] Top shape: 24 832 7 7 (978432)
I0403 15:39:17.867306 13884 net.cpp:156] Memory required for data: 1276470816
I0403 15:39:17.867322 13884 layer_factory.hpp:77] Creating layer pool4/3x3_s2_pool4/3x3_s2_0_split
I0403 15:39:17.867343 13884 net.cpp:91] Creating Layer pool4/3x3_s2_pool4/3x3_s2_0_split
I0403 15:39:17.867362 13884 net.cpp:425] pool4/3x3_s2_pool4/3x3_s2_0_split <- pool4/3x3_s2
I0403 15:39:17.867379 13884 net.cpp:399] pool4/3x3_s2_pool4/3x3_s2_0_split -> pool4/3x3_s2_pool4/3x3_s2_0_split_0
I0403 15:39:17.867400 13884 net.cpp:399] pool4/3x3_s2_pool4/3x3_s2_0_split -> pool4/3x3_s2_pool4/3x3_s2_0_split_1
I0403 15:39:17.867425 13884 net.cpp:399] pool4/3x3_s2_pool4/3x3_s2_0_split -> pool4/3x3_s2_pool4/3x3_s2_0_split_2
I0403 15:39:17.867446 13884 net.cpp:399] pool4/3x3_s2_pool4/3x3_s2_0_split -> pool4/3x3_s2_pool4/3x3_s2_0_split_3
I0403 15:39:17.867538 13884 net.cpp:141] Setting up pool4/3x3_s2_pool4/3x3_s2_0_split
I0403 15:39:17.867563 13884 net.cpp:148] Top shape: 24 832 7 7 (978432)
I0403 15:39:17.867580 13884 net.cpp:148] Top shape: 24 832 7 7 (978432)
I0403 15:39:17.867596 13884 net.cpp:148] Top shape: 24 832 7 7 (978432)
I0403 15:39:17.867612 13884 net.cpp:148] Top shape: 24 832 7 7 (978432)
I0403 15:39:17.867629 13884 net.cpp:156] Memory required for data: 1292125728
I0403 15:39:17.867642 13884 layer_factory.hpp:77] Creating layer inception_5a/1x1
I0403 15:39:17.867666 13884 net.cpp:91] Creating Layer inception_5a/1x1
I0403 15:39:17.867684 13884 net.cpp:425] inception_5a/1x1 <- pool4/3x3_s2_pool4/3x3_s2_0_split_0
I0403 15:39:17.867707 13884 net.cpp:399] inception_5a/1x1 -> inception_5a/1x1
I0403 15:39:17.870695 13884 net.cpp:141] Setting up inception_5a/1x1
I0403 15:39:17.870726 13884 net.cpp:148] Top shape: 24 256 7 7 (301056)
I0403 15:39:17.870744 13884 net.cpp:156] Memory required for data: 1293329952
I0403 15:39:17.870764 13884 layer_factory.hpp:77] Creating layer inception_5a/relu_1x1
I0403 15:39:17.870786 13884 net.cpp:91] Creating Layer inception_5a/relu_1x1
I0403 15:39:17.870805 13884 net.cpp:425] inception_5a/relu_1x1 <- inception_5a/1x1
I0403 15:39:17.870823 13884 net.cpp:386] inception_5a/relu_1x1 -> inception_5a/1x1 (in-place)
I0403 15:39:17.871188 13884 net.cpp:141] Setting up inception_5a/relu_1x1
I0403 15:39:17.871217 13884 net.cpp:148] Top shape: 24 256 7 7 (301056)
I0403 15:39:17.871233 13884 net.cpp:156] Memory required for data: 1294534176
I0403 15:39:17.871249 13884 layer_factory.hpp:77] Creating layer inception_5a/3x3_reduce
I0403 15:39:17.871274 13884 net.cpp:91] Creating Layer inception_5a/3x3_reduce
I0403 15:39:17.871294 13884 net.cpp:425] inception_5a/3x3_reduce <- pool4/3x3_s2_pool4/3x3_s2_0_split_1
I0403 15:39:17.871317 13884 net.cpp:399] inception_5a/3x3_reduce -> inception_5a/3x3_reduce
I0403 15:39:17.873875 13884 net.cpp:141] Setting up inception_5a/3x3_reduce
I0403 15:39:17.873906 13884 net.cpp:148] Top shape: 24 160 7 7 (188160)
I0403 15:39:17.873922 13884 net.cpp:156] Memory required for data: 1295286816
I0403 15:39:17.873941 13884 layer_factory.hpp:77] Creating layer inception_5a/relu_3x3_reduce
I0403 15:39:17.873961 13884 net.cpp:91] Creating Layer inception_5a/relu_3x3_reduce
I0403 15:39:17.873978 13884 net.cpp:425] inception_5a/relu_3x3_reduce <- inception_5a/3x3_reduce
I0403 15:39:17.874001 13884 net.cpp:386] inception_5a/relu_3x3_reduce -> inception_5a/3x3_reduce (in-place)
I0403 15:39:17.874200 13884 net.cpp:141] Setting up inception_5a/relu_3x3_reduce
I0403 15:39:17.874228 13884 net.cpp:148] Top shape: 24 160 7 7 (188160)
I0403 15:39:17.874243 13884 net.cpp:156] Memory required for data: 1296039456
I0403 15:39:17.874258 13884 layer_factory.hpp:77] Creating layer inception_5a/3x3
I0403 15:39:17.874281 13884 net.cpp:91] Creating Layer inception_5a/3x3
I0403 15:39:17.874300 13884 net.cpp:425] inception_5a/3x3 <- inception_5a/3x3_reduce
I0403 15:39:17.874327 13884 net.cpp:399] inception_5a/3x3 -> inception_5a/3x3
I0403 15:39:17.879446 13884 net.cpp:141] Setting up inception_5a/3x3
I0403 15:39:17.879477 13884 net.cpp:148] Top shape: 24 320 7 7 (376320)
I0403 15:39:17.879492 13884 net.cpp:156] Memory required for data: 1297544736
I0403 15:39:17.879511 13884 layer_factory.hpp:77] Creating layer inception_5a/relu_3x3
I0403 15:39:17.879533 13884 net.cpp:91] Creating Layer inception_5a/relu_3x3
I0403 15:39:17.879550 13884 net.cpp:425] inception_5a/relu_3x3 <- inception_5a/3x3
I0403 15:39:17.879567 13884 net.cpp:386] inception_5a/relu_3x3 -> inception_5a/3x3 (in-place)
I0403 15:39:17.879864 13884 net.cpp:141] Setting up inception_5a/relu_3x3
I0403 15:39:17.879891 13884 net.cpp:148] Top shape: 24 320 7 7 (376320)
I0403 15:39:17.879906 13884 net.cpp:156] Memory required for data: 1299050016
I0403 15:39:17.879922 13884 layer_factory.hpp:77] Creating layer inception_5a/5x5_reduce
I0403 15:39:17.879945 13884 net.cpp:91] Creating Layer inception_5a/5x5_reduce
I0403 15:39:17.879963 13884 net.cpp:425] inception_5a/5x5_reduce <- pool4/3x3_s2_pool4/3x3_s2_0_split_2
I0403 15:39:17.879989 13884 net.cpp:399] inception_5a/5x5_reduce -> inception_5a/5x5_reduce
I0403 15:39:17.881181 13884 net.cpp:141] Setting up inception_5a/5x5_reduce
I0403 15:39:17.881213 13884 net.cpp:148] Top shape: 24 32 7 7 (37632)
I0403 15:39:17.881229 13884 net.cpp:156] Memory required for data: 1299200544
I0403 15:39:17.881249 13884 layer_factory.hpp:77] Creating layer inception_5a/relu_5x5_reduce
I0403 15:39:17.881268 13884 net.cpp:91] Creating Layer inception_5a/relu_5x5_reduce
I0403 15:39:17.881285 13884 net.cpp:425] inception_5a/relu_5x5_reduce <- inception_5a/5x5_reduce
I0403 15:39:17.881304 13884 net.cpp:386] inception_5a/relu_5x5_reduce -> inception_5a/5x5_reduce (in-place)
I0403 15:39:17.881610 13884 net.cpp:141] Setting up inception_5a/relu_5x5_reduce
I0403 15:39:17.881639 13884 net.cpp:148] Top shape: 24 32 7 7 (37632)
I0403 15:39:17.881656 13884 net.cpp:156] Memory required for data: 1299351072
I0403 15:39:17.881671 13884 layer_factory.hpp:77] Creating layer inception_5a/5x5
I0403 15:39:17.881695 13884 net.cpp:91] Creating Layer inception_5a/5x5
I0403 15:39:17.881713 13884 net.cpp:425] inception_5a/5x5 <- inception_5a/5x5_reduce
I0403 15:39:17.881733 13884 net.cpp:399] inception_5a/5x5 -> inception_5a/5x5
I0403 15:39:17.883554 13884 net.cpp:141] Setting up inception_5a/5x5
I0403 15:39:17.883595 13884 net.cpp:148] Top shape: 24 128 7 7 (150528)
I0403 15:39:17.883611 13884 net.cpp:156] Memory required for data: 1299953184
I0403 15:39:17.883631 13884 layer_factory.hpp:77] Creating layer inception_5a/relu_5x5
I0403 15:39:17.883652 13884 net.cpp:91] Creating Layer inception_5a/relu_5x5
I0403 15:39:17.883671 13884 net.cpp:425] inception_5a/relu_5x5 <- inception_5a/5x5
I0403 15:39:17.883687 13884 net.cpp:386] inception_5a/relu_5x5 -> inception_5a/5x5 (in-place)
I0403 15:39:17.883879 13884 net.cpp:141] Setting up inception_5a/relu_5x5
I0403 15:39:17.883908 13884 net.cpp:148] Top shape: 24 128 7 7 (150528)
I0403 15:39:17.883924 13884 net.cpp:156] Memory required for data: 1300555296
I0403 15:39:17.883939 13884 layer_factory.hpp:77] Creating layer inception_5a/pool
I0403 15:39:17.883955 13884 net.cpp:91] Creating Layer inception_5a/pool
I0403 15:39:17.883971 13884 net.cpp:425] inception_5a/pool <- pool4/3x3_s2_pool4/3x3_s2_0_split_3
I0403 15:39:17.883988 13884 net.cpp:399] inception_5a/pool -> inception_5a/pool
I0403 15:39:17.884059 13884 net.cpp:141] Setting up inception_5a/pool
I0403 15:39:17.884084 13884 net.cpp:148] Top shape: 24 832 7 7 (978432)
I0403 15:39:17.884105 13884 net.cpp:156] Memory required for data: 1304469024
I0403 15:39:17.884121 13884 layer_factory.hpp:77] Creating layer inception_5a/pool_proj
I0403 15:39:17.884146 13884 net.cpp:91] Creating Layer inception_5a/pool_proj
I0403 15:39:17.884167 13884 net.cpp:425] inception_5a/pool_proj <- inception_5a/pool
I0403 15:39:17.884188 13884 net.cpp:399] inception_5a/pool_proj -> inception_5a/pool_proj
I0403 15:39:17.886502 13884 net.cpp:141] Setting up inception_5a/pool_proj
I0403 15:39:17.886531 13884 net.cpp:148] Top shape: 24 128 7 7 (150528)
I0403 15:39:17.886548 13884 net.cpp:156] Memory required for data: 1305071136
I0403 15:39:17.886569 13884 layer_factory.hpp:77] Creating layer inception_5a/relu_pool_proj
I0403 15:39:17.886589 13884 net.cpp:91] Creating Layer inception_5a/relu_pool_proj
I0403 15:39:17.886607 13884 net.cpp:425] inception_5a/relu_pool_proj <- inception_5a/pool_proj
I0403 15:39:17.886625 13884 net.cpp:386] inception_5a/relu_pool_proj -> inception_5a/pool_proj (in-place)
I0403 15:39:17.886921 13884 net.cpp:141] Setting up inception_5a/relu_pool_proj
I0403 15:39:17.886950 13884 net.cpp:148] Top shape: 24 128 7 7 (150528)
I0403 15:39:17.886965 13884 net.cpp:156] Memory required for data: 1305673248
I0403 15:39:17.886979 13884 layer_factory.hpp:77] Creating layer inception_5a/output
I0403 15:39:17.886996 13884 net.cpp:91] Creating Layer inception_5a/output
I0403 15:39:17.887012 13884 net.cpp:425] inception_5a/output <- inception_5a/1x1
I0403 15:39:17.887029 13884 net.cpp:425] inception_5a/output <- inception_5a/3x3
I0403 15:39:17.887050 13884 net.cpp:425] inception_5a/output <- inception_5a/5x5
I0403 15:39:17.887068 13884 net.cpp:425] inception_5a/output <- inception_5a/pool_proj
I0403 15:39:17.887101 13884 net.cpp:399] inception_5a/output -> inception_5a/output
I0403 15:39:17.887156 13884 net.cpp:141] Setting up inception_5a/output
I0403 15:39:17.887183 13884 net.cpp:148] Top shape: 24 832 7 7 (978432)
I0403 15:39:17.887199 13884 net.cpp:156] Memory required for data: 1309586976
I0403 15:39:17.887215 13884 layer_factory.hpp:77] Creating layer inception_5a/output_inception_5a/output_0_split
I0403 15:39:17.887233 13884 net.cpp:91] Creating Layer inception_5a/output_inception_5a/output_0_split
I0403 15:39:17.887248 13884 net.cpp:425] inception_5a/output_inception_5a/output_0_split <- inception_5a/output
I0403 15:39:17.887270 13884 net.cpp:399] inception_5a/output_inception_5a/output_0_split -> inception_5a/output_inception_5a/output_0_split_0
I0403 15:39:17.887292 13884 net.cpp:399] inception_5a/output_inception_5a/output_0_split -> inception_5a/output_inception_5a/output_0_split_1
I0403 15:39:17.887315 13884 net.cpp:399] inception_5a/output_inception_5a/output_0_split -> inception_5a/output_inception_5a/output_0_split_2
I0403 15:39:17.887336 13884 net.cpp:399] inception_5a/output_inception_5a/output_0_split -> inception_5a/output_inception_5a/output_0_split_3
I0403 15:39:17.887460 13884 net.cpp:141] Setting up inception_5a/output_inception_5a/output_0_split
I0403 15:39:17.887487 13884 net.cpp:148] Top shape: 24 832 7 7 (978432)
I0403 15:39:17.887506 13884 net.cpp:148] Top shape: 24 832 7 7 (978432)
I0403 15:39:17.887521 13884 net.cpp:148] Top shape: 24 832 7 7 (978432)
I0403 15:39:17.887537 13884 net.cpp:148] Top shape: 24 832 7 7 (978432)
I0403 15:39:17.887552 13884 net.cpp:156] Memory required for data: 1325241888
I0403 15:39:17.887567 13884 layer_factory.hpp:77] Creating layer inception_5b/1x1
I0403 15:39:17.887588 13884 net.cpp:91] Creating Layer inception_5b/1x1
I0403 15:39:17.887603 13884 net.cpp:425] inception_5b/1x1 <- inception_5a/output_inception_5a/output_0_split_0
I0403 15:39:17.887624 13884 net.cpp:399] inception_5b/1x1 -> inception_5b/1x1
I0403 15:39:17.891408 13884 net.cpp:141] Setting up inception_5b/1x1
I0403 15:39:17.891451 13884 net.cpp:148] Top shape: 24 384 7 7 (451584)
I0403 15:39:17.891469 13884 net.cpp:156] Memory required for data: 1327048224
I0403 15:39:17.891487 13884 layer_factory.hpp:77] Creating layer inception_5b/relu_1x1
I0403 15:39:17.891505 13884 net.cpp:91] Creating Layer inception_5b/relu_1x1
I0403 15:39:17.891522 13884 net.cpp:425] inception_5b/relu_1x1 <- inception_5b/1x1
I0403 15:39:17.891542 13884 net.cpp:386] inception_5b/relu_1x1 -> inception_5b/1x1 (in-place)
I0403 15:39:17.891868 13884 net.cpp:141] Setting up inception_5b/relu_1x1
I0403 15:39:17.891896 13884 net.cpp:148] Top shape: 24 384 7 7 (451584)
I0403 15:39:17.891912 13884 net.cpp:156] Memory required for data: 1328854560
I0403 15:39:17.891927 13884 layer_factory.hpp:77] Creating layer inception_5b/3x3_reduce
I0403 15:39:17.891949 13884 net.cpp:91] Creating Layer inception_5b/3x3_reduce
I0403 15:39:17.891968 13884 net.cpp:425] inception_5b/3x3_reduce <- inception_5a/output_inception_5a/output_0_split_1
I0403 15:39:17.891990 13884 net.cpp:399] inception_5b/3x3_reduce -> inception_5b/3x3_reduce
I0403 15:39:17.894673 13884 net.cpp:141] Setting up inception_5b/3x3_reduce
I0403 15:39:17.894704 13884 net.cpp:148] Top shape: 24 192 7 7 (225792)
I0403 15:39:17.894721 13884 net.cpp:156] Memory required for data: 1329757728
I0403 15:39:17.894739 13884 layer_factory.hpp:77] Creating layer inception_5b/relu_3x3_reduce
I0403 15:39:17.894759 13884 net.cpp:91] Creating Layer inception_5b/relu_3x3_reduce
I0403 15:39:17.894778 13884 net.cpp:425] inception_5b/relu_3x3_reduce <- inception_5b/3x3_reduce
I0403 15:39:17.894795 13884 net.cpp:386] inception_5b/relu_3x3_reduce -> inception_5b/3x3_reduce (in-place)
I0403 15:39:17.894989 13884 net.cpp:141] Setting up inception_5b/relu_3x3_reduce
I0403 15:39:17.895015 13884 net.cpp:148] Top shape: 24 192 7 7 (225792)
I0403 15:39:17.895030 13884 net.cpp:156] Memory required for data: 1330660896
I0403 15:39:17.895043 13884 layer_factory.hpp:77] Creating layer inception_5b/3x3
I0403 15:39:17.895066 13884 net.cpp:91] Creating Layer inception_5b/3x3
I0403 15:39:17.895087 13884 net.cpp:425] inception_5b/3x3 <- inception_5b/3x3_reduce
I0403 15:39:17.895112 13884 net.cpp:399] inception_5b/3x3 -> inception_5b/3x3
I0403 15:39:17.901900 13884 net.cpp:141] Setting up inception_5b/3x3
I0403 15:39:17.901929 13884 net.cpp:148] Top shape: 24 384 7 7 (451584)
I0403 15:39:17.901945 13884 net.cpp:156] Memory required for data: 1332467232
I0403 15:39:17.901964 13884 layer_factory.hpp:77] Creating layer inception_5b/relu_3x3
I0403 15:39:17.901985 13884 net.cpp:91] Creating Layer inception_5b/relu_3x3
I0403 15:39:17.902003 13884 net.cpp:425] inception_5b/relu_3x3 <- inception_5b/3x3
I0403 15:39:17.902020 13884 net.cpp:386] inception_5b/relu_3x3 -> inception_5b/3x3 (in-place)
I0403 15:39:17.902323 13884 net.cpp:141] Setting up inception_5b/relu_3x3
I0403 15:39:17.902349 13884 net.cpp:148] Top shape: 24 384 7 7 (451584)
I0403 15:39:17.902365 13884 net.cpp:156] Memory required for data: 1334273568
I0403 15:39:17.902380 13884 layer_factory.hpp:77] Creating layer inception_5b/5x5_reduce
I0403 15:39:17.902420 13884 net.cpp:91] Creating Layer inception_5b/5x5_reduce
I0403 15:39:17.902439 13884 net.cpp:425] inception_5b/5x5_reduce <- inception_5a/output_inception_5a/output_0_split_2
I0403 15:39:17.902462 13884 net.cpp:399] inception_5b/5x5_reduce -> inception_5b/5x5_reduce
I0403 15:39:17.903789 13884 net.cpp:141] Setting up inception_5b/5x5_reduce
I0403 15:39:17.903818 13884 net.cpp:148] Top shape: 24 48 7 7 (56448)
I0403 15:39:17.903834 13884 net.cpp:156] Memory required for data: 1334499360
I0403 15:39:17.903852 13884 layer_factory.hpp:77] Creating layer inception_5b/relu_5x5_reduce
I0403 15:39:17.903872 13884 net.cpp:91] Creating Layer inception_5b/relu_5x5_reduce
I0403 15:39:17.903890 13884 net.cpp:425] inception_5b/relu_5x5_reduce <- inception_5b/5x5_reduce
I0403 15:39:17.903908 13884 net.cpp:386] inception_5b/relu_5x5_reduce -> inception_5b/5x5_reduce (in-place)
I0403 15:39:17.904290 13884 net.cpp:141] Setting up inception_5b/relu_5x5_reduce
I0403 15:39:17.904319 13884 net.cpp:148] Top shape: 24 48 7 7 (56448)
I0403 15:39:17.904333 13884 net.cpp:156] Memory required for data: 1334725152
I0403 15:39:17.904348 13884 layer_factory.hpp:77] Creating layer inception_5b/5x5
I0403 15:39:17.904369 13884 net.cpp:91] Creating Layer inception_5b/5x5
I0403 15:39:17.904387 13884 net.cpp:425] inception_5b/5x5 <- inception_5b/5x5_reduce
I0403 15:39:17.904407 13884 net.cpp:399] inception_5b/5x5 -> inception_5b/5x5
I0403 15:39:17.906479 13884 net.cpp:141] Setting up inception_5b/5x5
I0403 15:39:17.906509 13884 net.cpp:148] Top shape: 24 128 7 7 (150528)
I0403 15:39:17.906525 13884 net.cpp:156] Memory required for data: 1335327264
I0403 15:39:17.906543 13884 layer_factory.hpp:77] Creating layer inception_5b/relu_5x5
I0403 15:39:17.906564 13884 net.cpp:91] Creating Layer inception_5b/relu_5x5
I0403 15:39:17.906582 13884 net.cpp:425] inception_5b/relu_5x5 <- inception_5b/5x5
I0403 15:39:17.906601 13884 net.cpp:386] inception_5b/relu_5x5 -> inception_5b/5x5 (in-place)
I0403 15:39:17.906798 13884 net.cpp:141] Setting up inception_5b/relu_5x5
I0403 15:39:17.906826 13884 net.cpp:148] Top shape: 24 128 7 7 (150528)
I0403 15:39:17.906842 13884 net.cpp:156] Memory required for data: 1335929376
I0403 15:39:17.906857 13884 layer_factory.hpp:77] Creating layer inception_5b/pool
I0403 15:39:17.906875 13884 net.cpp:91] Creating Layer inception_5b/pool
I0403 15:39:17.906893 13884 net.cpp:425] inception_5b/pool <- inception_5a/output_inception_5a/output_0_split_3
I0403 15:39:17.906914 13884 net.cpp:399] inception_5b/pool -> inception_5b/pool
I0403 15:39:17.906987 13884 net.cpp:141] Setting up inception_5b/pool
I0403 15:39:17.907012 13884 net.cpp:148] Top shape: 24 832 7 7 (978432)
I0403 15:39:17.907028 13884 net.cpp:156] Memory required for data: 1339843104
I0403 15:39:17.907043 13884 layer_factory.hpp:77] Creating layer inception_5b/pool_proj
I0403 15:39:17.907068 13884 net.cpp:91] Creating Layer inception_5b/pool_proj
I0403 15:39:17.907088 13884 net.cpp:425] inception_5b/pool_proj <- inception_5b/pool
I0403 15:39:17.907114 13884 net.cpp:399] inception_5b/pool_proj -> inception_5b/pool_proj
I0403 15:39:17.909446 13884 net.cpp:141] Setting up inception_5b/pool_proj
I0403 15:39:17.909476 13884 net.cpp:148] Top shape: 24 128 7 7 (150528)
I0403 15:39:17.909490 13884 net.cpp:156] Memory required for data: 1340445216
I0403 15:39:17.909509 13884 layer_factory.hpp:77] Creating layer inception_5b/relu_pool_proj
I0403 15:39:17.909530 13884 net.cpp:91] Creating Layer inception_5b/relu_pool_proj
I0403 15:39:17.909549 13884 net.cpp:425] inception_5b/relu_pool_proj <- inception_5b/pool_proj
I0403 15:39:17.909567 13884 net.cpp:386] inception_5b/relu_pool_proj -> inception_5b/pool_proj (in-place)
I0403 15:39:17.909873 13884 net.cpp:141] Setting up inception_5b/relu_pool_proj
I0403 15:39:17.909899 13884 net.cpp:148] Top shape: 24 128 7 7 (150528)
I0403 15:39:17.909915 13884 net.cpp:156] Memory required for data: 1341047328
I0403 15:39:17.909931 13884 layer_factory.hpp:77] Creating layer inception_5b/output
I0403 15:39:17.909948 13884 net.cpp:91] Creating Layer inception_5b/output
I0403 15:39:17.909979 13884 net.cpp:425] inception_5b/output <- inception_5b/1x1
I0403 15:39:17.909997 13884 net.cpp:425] inception_5b/output <- inception_5b/3x3
I0403 15:39:17.910014 13884 net.cpp:425] inception_5b/output <- inception_5b/5x5
I0403 15:39:17.910032 13884 net.cpp:425] inception_5b/output <- inception_5b/pool_proj
I0403 15:39:17.910051 13884 net.cpp:399] inception_5b/output -> inception_5b/output
I0403 15:39:17.910111 13884 net.cpp:141] Setting up inception_5b/output
I0403 15:39:17.910137 13884 net.cpp:148] Top shape: 24 1024 7 7 (1204224)
I0403 15:39:17.910152 13884 net.cpp:156] Memory required for data: 1345864224
I0403 15:39:17.910166 13884 layer_factory.hpp:77] Creating layer pool5/7x7_s1
I0403 15:39:17.910184 13884 net.cpp:91] Creating Layer pool5/7x7_s1
I0403 15:39:17.910202 13884 net.cpp:425] pool5/7x7_s1 <- inception_5b/output
I0403 15:39:17.910223 13884 net.cpp:399] pool5/7x7_s1 -> pool5/7x7_s1
I0403 15:39:17.910445 13884 net.cpp:141] Setting up pool5/7x7_s1
I0403 15:39:17.910472 13884 net.cpp:148] Top shape: 24 1024 1 1 (24576)
I0403 15:39:17.910486 13884 net.cpp:156] Memory required for data: 1345962528
I0403 15:39:17.910501 13884 layer_factory.hpp:77] Creating layer pool5/drop_7x7_s1
I0403 15:39:17.910521 13884 net.cpp:91] Creating Layer pool5/drop_7x7_s1
I0403 15:39:17.910539 13884 net.cpp:425] pool5/drop_7x7_s1 <- pool5/7x7_s1
I0403 15:39:17.910558 13884 net.cpp:386] pool5/drop_7x7_s1 -> pool5/7x7_s1 (in-place)
I0403 15:39:17.910610 13884 net.cpp:141] Setting up pool5/drop_7x7_s1
I0403 15:39:17.910634 13884 net.cpp:148] Top shape: 24 1024 1 1 (24576)
I0403 15:39:17.910648 13884 net.cpp:156] Memory required for data: 1346060832
I0403 15:39:17.910663 13884 layer_factory.hpp:77] Creating layer loss3/classifier_plantvillage
I0403 15:39:17.910683 13884 net.cpp:91] Creating Layer loss3/classifier_plantvillage
I0403 15:39:17.910701 13884 net.cpp:425] loss3/classifier_plantvillage <- pool5/7x7_s1
I0403 15:39:17.910722 13884 net.cpp:399] loss3/classifier_plantvillage -> loss3/classifier_plantvillage
I0403 15:39:17.911180 13884 net.cpp:141] Setting up loss3/classifier_plantvillage
I0403 15:39:17.911206 13884 net.cpp:148] Top shape: 24 38 (912)
I0403 15:39:17.911221 13884 net.cpp:156] Memory required for data: 1346064480
I0403 15:39:17.911239 13884 layer_factory.hpp:77] Creating layer loss3/classifier_plantvillage_loss3/classifier_plantvillage_0_split
I0403 15:39:17.911257 13884 net.cpp:91] Creating Layer loss3/classifier_plantvillage_loss3/classifier_plantvillage_0_split
I0403 15:39:17.911274 13884 net.cpp:425] loss3/classifier_plantvillage_loss3/classifier_plantvillage_0_split <- loss3/classifier_plantvillage
I0403 15:39:17.911294 13884 net.cpp:399] loss3/classifier_plantvillage_loss3/classifier_plantvillage_0_split -> loss3/classifier_plantvillage_loss3/classifier_plantvillage_0_split_0
I0403 15:39:17.911317 13884 net.cpp:399] loss3/classifier_plantvillage_loss3/classifier_plantvillage_0_split -> loss3/classifier_plantvillage_loss3/classifier_plantvillage_0_split_1
I0403 15:39:17.911337 13884 net.cpp:399] loss3/classifier_plantvillage_loss3/classifier_plantvillage_0_split -> loss3/classifier_plantvillage_loss3/classifier_plantvillage_0_split_2
I0403 15:39:17.911360 13884 net.cpp:399] loss3/classifier_plantvillage_loss3/classifier_plantvillage_0_split -> loss3/classifier_plantvillage_loss3/classifier_plantvillage_0_split_3
I0403 15:39:17.911464 13884 net.cpp:141] Setting up loss3/classifier_plantvillage_loss3/classifier_plantvillage_0_split
I0403 15:39:17.911489 13884 net.cpp:148] Top shape: 24 38 (912)
I0403 15:39:17.911506 13884 net.cpp:148] Top shape: 24 38 (912)
I0403 15:39:17.911522 13884 net.cpp:148] Top shape: 24 38 (912)
I0403 15:39:17.911538 13884 net.cpp:148] Top shape: 24 38 (912)
I0403 15:39:17.911552 13884 net.cpp:156] Memory required for data: 1346079072
I0403 15:39:17.911567 13884 layer_factory.hpp:77] Creating layer loss1/loss
I0403 15:39:17.911589 13884 net.cpp:91] Creating Layer loss1/loss
I0403 15:39:17.911607 13884 net.cpp:425] loss1/loss <- loss1/classifier_plantvillage_loss1/classifier_plantvillage_0_split_0
I0403 15:39:17.911641 13884 net.cpp:425] loss1/loss <- label_data_1_split_0
…
