…
I0403 15:53:28.726045 14810 net.cpp:313] The NetState phase (1) differed from the phase (0) specified by a rule in layer data
I0403 15:53:28.727156 14810 net.cpp:49] Initializing net from parameters: 
state {
  phase: TEST
}
layer {
  name: "data"
  type: "Data"
  top: "data"
  top: "label"
  include {
    phase: TEST
  }
  transform_param {
    mirror: false
    crop_size: 224
    mean_file: "/home/mohanty/data/final_dataset/lmdb/color-80-20/mean.binaryproto"
  }
  data_param {
    source: "/home/mohanty/data/final_dataset/lmdb/color-80-20/test_db"
    batch_size: 24
    backend: LMDB
  }
}
layer {
  name: "conv1/7x7_s2"
  type: "Convolution"
  bottom: "data"
  top: "conv1/7x7_s2"
  param {
    lr_mult: 1
    decay_mult: 1
  }
  param {
    lr_mult: 2
    decay_mult: 0
  }
  convolution_param {
    num_output: 64
    pad: 3
    kernel_size: 7
    stride: 2
    weight_filler {
      type: "xavier"
      std: 0.1
    }
    bias_filler {
      type: "constant"
      value: 0.2
    }
  }
}
layer {
  name: "conv1/relu_7x7"
  type: "ReLU"
  bottom: "conv1/7x7_s2"
  top: "conv1/7x7_s2"
}
layer {
  name: "pool1/3x3_s2"
  type: "Pooling"
  bottom: "conv1/7x7_s2"
  top: "pool1/3x3_s2"
  pooling_param {
    pool: MAX
    kernel_size: 3
    stride: 2
  }
}
layer {
  name: "pool1/norm1"
  type: "LRN"
  bottom: "pool1/3x3_s2"
  top: "pool1/norm1"
  lrn_param {
    local_size: 5
    alpha: 0.0001
    beta: 0.75
  }
}
layer {
  name: "conv2/3x3_reduce"
  type: "Convolution"
  bottom: "pool1/norm1"
  top: "conv2/3x3_reduce"
  param {
    lr_mult: 1
    decay_mult: 1
  }
  param {
    lr_mult: 2
    decay_mult: 0
  }
  convolution_param {
    num_output: 64
    kernel_size: 1
    weight_filler {
      type: "xavier"
      std: 0.1
    }
    bias_filler {
      type: "constant"
      value: 0.2
    }
  }
}
layer {
  name: "conv2/relu_3x3_reduce"
  type: "ReLU"
  bottom: "conv2/3x3_reduce"
  top: "conv2/3x3_reduce"
}
layer {
  name: "conv2/3x3"
  type: "Convolution"
  bottom: "conv2/3x3_reduce"
  top: "conv2/3x3"
  param {
    lr_mult: 1
    decay_mult: 1
  }
  param {
    lr_mult: 2
    decay_mult: 0
  }
  convolution_param {
    num_output: 192
    pad: 1
    kernel_size: 3
    weight_filler {
      type: "xavier"
      std: 0.03
    }
    bias_filler {
      type: "constant"
      value: 0.2
    }
  }
}
layer {
  name: "conv2/relu_3x3"
  type: "ReLU"
  bottom: "conv2/3x3"
  top: "conv2/3x3"
}
layer {
  name: "conv2/norm2"
  type: "LRN"
  bottom: "conv2/3x3"
  top: "conv2/norm2"
  lrn_param {
    local_size: 5
    alpha: 0.0001
    beta: 0.75
  }
}
layer {
  name: "pool2/3x3_s2"
  type: "Pooling"
  bottom: "conv2/norm2"
  top: "pool2/3x3_s2"
  pooling_param {
    pool: MAX
    kernel_size: 3
    stride: 2
  }
}
layer {
  name: "inception_3a/1x1"
  type: "Convolution"
  bottom: "pool2/3x3_s2"
  top: "inception_3a/1x1"
  param {
    lr_mult: 1
    decay_mult: 1
  }
  param {
    lr_mult: 2
    decay_mult: 0
  }
  convolution_param {
    num_output: 64
    kernel_size: 1
    weight_filler {
      type: "xavier"
      std: 0.03
    }
    bias_filler {
      type: "constant"
      value: 0.2
    }
  }
}
layer {
  name: "inception_3a/relu_1x1"
  type: "ReLU"
  bottom: "inception_3a/1x1"
  top: "inception_3a/1x1"
}
layer {
  name: "inception_3a/3x3_reduce"
  type: "Convolution"
  bottom: "pool2/3x3_s2"
  top: "inception_3a/3x3_reduce"
  param {
    lr_mult: 1
    decay_mult: 1
  }
  param {
    lr_mult: 2
    decay_mult: 0
  }
  convolution_param {
    num_output: 96
    kernel_size: 1
    weight_filler {
      type: "xavier"
      std: 0.09
    }
    bias_filler {
      type: "constant"
      value: 0.2
    }
  }
}
layer {
  name: "inception_3a/relu_3x3_reduce"
  type: "ReLU"
  bottom: "inception_3a/3x3_reduce"
  top: "inception_3a/3x3_reduce"
}
layer {
  name: "inception_3a/3x3"
  type: "Convolution"
  bottom: "inception_3a/3x3_reduce"
  top: "inception_3a/3x3"
  param {
    lr_mult: 1
    decay_mult: 1
  }
  param {
    lr_mult: 2
    decay_mult: 0
  }
  convolution_param {
    num_output: 128
    pad: 1
    kernel_size: 3
    weight_filler {
      type: "xavier"
      std: 0.03
    }
    bias_filler {
      type: "constant"
      value: 0.2
    }
  }
}
layer {
  name: "inception_3a/relu_3x3"
  type: "ReLU"
  bottom: "inception_3a/3x3"
  top: "inception_3a/3x3"
}
layer {
  name: "inception_3a/5x5_reduce"
  type: "Convolution"
  bottom: "pool2/3x3_s2"
  top: "inception_3a/5x5_reduce"
  param {
    lr_mult: 1
    decay_mult: 1
  }
  param {
    lr_mult: 2
    decay_mult: 0
  }
  convolution_param {
    num_output: 16
    kernel_size: 1
    weight_filler {
      type: "xavier"
      std: 0.2
    }
    bias_filler {
      type: "constant"
      value: 0.2
    }
  }
}
layer {
  name: "inception_3a/relu_5x5_reduce"
  type: "ReLU"
  bottom: "inception_3a/5x5_reduce"
  top: "inception_3a/5x5_reduce"
}
layer {
  name: "inception_3a/5x5"
  type: "Convolution"
  bottom: "inception_3a/5x5_reduce"
  top: "inception_3a/5x5"
  param {
    lr_mult: 1
    decay_mult: 1
  }
  param {
    lr_mult: 2
    decay_mult: 0
  }
  convolution_param {
    num_output: 32
    pad: 2
    kernel_size: 5
    weight_filler {
      type: "xavier"
      std: 0.03
    }
    bias_filler {
      type: "constant"
      value: 0.2
    }
  }
}
layer {
  name: "inception_3a/relu_5x5"
  type: "ReLU"
  bottom: "inception_3a/5x5"
  top: "inception_3a/5x5"
}
layer {
  name: "inception_3a/pool"
  type: "Pooling"
  bottom: "pool2/3x3_s2"
  top: "inception_3a/pool"
  pooling_param {
    pool: MAX
    kernel_size: 3
    stride: 1
    pad: 1
  }
}
layer {
  name: "inception_3a/pool_proj"
  type: "Convolution"
  bottom: "inception_3a/pool"
  top: "inception_3a/pool_proj"
  param {
    lr_mult: 1
    decay_mult: 1
  }
  param {
    lr_mult: 2
    decay_mult: 0
  }
  convolution_param {
    num_output: 32
    kernel_size: 1
    weight_filler {
      type: "xavier"
      std: 0.1
    }
    bias_filler {
      type: "constant"
      value: 0.2
    }
  }
}
layer {
  name: "inception_3a/relu_pool_proj"
  type: "ReLU"
  bottom: "inception_3a/pool_proj"
  top: "inception_3a/pool_proj"
}
layer {
  name: "inception_3a/output"
  type: "Concat"
  bottom: "inception_3a/1x1"
  bottom: "inception_3a/3x3"
  bottom: "inception_3a/5x5"
  bottom: "inception_3a/pool_proj"
  top: "inception_3a/output"
}
layer {
  name: "inception_3b/1x1"
  type: "Convolution"
  bottom: "inception_3a/output"
  top: "inception_3b/1x1"
  param {
    lr_mult: 1
    decay_mult: 1
  }
  param {
    lr_mult: 2
    decay_mult: 0
  }
  convolution_param {
    num_output: 128
    kernel_size: 1
    weight_filler {
      type: "xavier"
      std: 0.03
    }
    bias_filler {
      type: "constant"
      value: 0.2
    }
  }
}
layer {
  name: "inception_3b/relu_1x1"
  type: "ReLU"
  bottom: "inception_3b/1x1"
  top: "inception_3b/1x1"
}
layer {
  name: "inception_3b/3x3_reduce"
  type: "Convolution"
  bottom: "inception_3a/output"
  top: "inception_3b/3x3_reduce"
  param {
    lr_mult: 1
    decay_mult: 1
  }
  param {
    lr_mult: 2
    decay_mult: 0
  }
  convolution_param {
    num_output: 128
    kernel_size: 1
    weight_filler {
      type: "xavier"
      std: 0.09
    }
    bias_filler {
      type: "constant"
      value: 0.2
    }
  }
}
layer {
  name: "inception_3b/relu_3x3_reduce"
  type: "ReLU"
  bottom: "inception_3b/3x3_reduce"
  top: "inception_3b/3x3_reduce"
}
layer {
  name: "inception_3b/3x3"
  type: "Convolution"
  bottom: "inception_3b/3x3_reduce"
  top: "inception_3b/3x3"
  param {
    lr_mult: 1
    decay_mult: 1
  }
  param {
    lr_mult: 2
    decay_mult: 0
  }
  convolution_param {
    num_output: 192
    pad: 1
    kernel_size: 3
    weight_filler {
      type: "xavier"
      std: 0.03
    }
    bias_filler {
      type: "constant"
      value: 0.2
    }
  }
}
layer {
  name: "inception_3b/relu_3x3"
  type: "ReLU"
  bottom: "inception_3b/3x3"
  top: "inception_3b/3x3"
}
layer {
  name: "inception_3b/5x5_reduce"
  type: "Convolution"
  bottom: "inception_3a/output"
  top: "inception_3b/5x5_reduce"
  param {
    lr_mult: 1
    decay_mult: 1
  }
  param {
    lr_mult: 2
    decay_mult: 0
  }
  convolution_param {
    num_output: 32
    kernel_size: 1
    weight_filler {
      type: "xavier"
      std: 0.2
    }
    bias_filler {
      type: "constant"
      value: 0.2
    }
  }
}
layer {
  name: "inception_3b/relu_5x5_reduce"
  type: "ReLU"
  bottom: "inception_3b/5x5_reduce"
  top: "inception_3b/5x5_reduce"
}
layer {
  name: "inception_3b/5x5"
  type: "Convolution"
  bottom: "inception_3b/5x5_reduce"
  top: "inception_3b/5x5"
  param {
    lr_mult: 1
    decay_mult: 1
  }
  param {
    lr_mult: 2
    decay_mult: 0
  }
  convolution_param {
    num_output: 96
    pad: 2
    kernel_size: 5
    weight_filler {
      type: "xavier"
      std: 0.03
    }
    bias_filler {
      type: "constant"
      value: 0.2
    }
  }
}
layer {
  name: "inception_3b/relu_5x5"
  type: "ReLU"
  bottom: "inception_3b/5x5"
  top: "inception_3b/5x5"
}
layer {
  name: "inception_3b/pool"
  type: "Pooling"
  bottom: "inception_3a/output"
  top: "inception_3b/pool"
  pooling_param {
    pool: MAX
    kernel_size: 3
    stride: 1
    pad: 1
  }
}
layer {
  name: "inception_3b/pool_proj"
  type: "Convolution"
  bottom: "inception_3b/pool"
  top: "inception_3b/pool_proj"
  param {
    lr_mult: 1
    decay_mult: 1
  }
  param {
    lr_mult: 2
    decay_mult: 0
  }
  convolution_param {
    num_output: 64
    kernel_size: 1
    weight_filler {
      type: "xavier"
      std: 0.1
    }
    bias_filler {
      type: "constant"
      value: 0.2
    }
  }
}
layer {
  name: "inception_3b/relu_pool_proj"
  type: "ReLU"
  bottom: "inception_3b/pool_proj"
  top: "inception_3b/pool_proj"
}
layer {
  name: "inception_3b/output"
  type: "Concat"
  bottom: "inception_3b/1x1"
  bottom: "inception_3b/3x3"
  bottom: "inception_3b/5x5"
  bottom: "inception_3b/pool_proj"
  top: "inception_3b/output"
}
layer {
  name: "pool3/3x3_s2"
  type: "Pooling"
  bottom: "inception_3b/output"
  top: "pool3/3x3_s2"
  pooling_param {
    pool: MAX
    kernel_size: 3
    stride: 2
  }
}
layer {
  name: "inception_4a/1x1"
  type: "Convolution"
  bottom: "pool3/3x3_s2"
  top: "inception_4a/1x1"
  param {
    lr_mult: 1
    decay_mult: 1
  }
  param {
    lr_mult: 2
    decay_mult: 0
  }
  convolution_param {
    num_output: 192
    kernel_size: 1
    weight_filler {
      type: "xavier"
      std: 0.03
    }
    bias_filler {
      type: "constant"
      value: 0.2
    }
  }
}
layer {
  name: "inception_4a/relu_1x1"
  type: "ReLU"
  bottom: "inception_4a/1x1"
  top: "inception_4a/1x1"
}
layer {
  name: "inception_4a/3x3_reduce"
  type: "Convolution"
  bottom: "pool3/3x3_s2"
  top: "inception_4a/3x3_reduce"
  param {
    lr_mult: 1
    decay_mult: 1
  }
  param {
    lr_mult: 2
    decay_mult: 0
  }
  convolution_param {
    num_output: 96
    kernel_size: 1
    weight_filler {
      type: "xavier"
      std: 0.09
    }
    bias_filler {
      type: "constant"
      value: 0.2
    }
  }
}
layer {
  name: "inception_4a/relu_3x3_reduce"
  type: "ReLU"
  bottom: "inception_4a/3x3_reduce"
  top: "inception_4a/3x3_reduce"
}
layer {
  name: "inception_4a/3x3"
  type: "Convolution"
  bottom: "inception_4a/3x3_reduce"
  top: "inception_4a/3x3"
  param {
    lr_mult: 1
    decay_mult: 1
  }
  param {
    lr_mult: 2
    decay_mult: 0
  }
  convolution_param {
    num_output: 208
    pad: 1
    kernel_size: 3
    weight_filler {
      type: "xavier"
      std: 0.03
    }
    bias_filler {
      type: "constant"
      value: 0.2
    }
  }
}
layer {
  name: "inception_4a/relu_3x3"
  type: "ReLU"
  bottom: "inception_4a/3x3"
  top: "inception_4a/3x3"
}
layer {
  name: "inception_4a/5x5_reduce"
  type: "Convolution"
  bottom: "pool3/3x3_s2"
  top: "inception_4a/5x5_reduce"
  param {
    lr_mult: 1
    decay_mult: 1
  }
  param {
    lr_mult: 2
    decay_mult: 0
  }
  convolution_param {
    num_output: 16
    kernel_size: 1
    weight_filler {
      type: "xavier"
      std: 0.2
    }
    bias_filler {
      type: "constant"
      value: 0.2
    }
  }
}
layer {
  name: "inception_4a/relu_5x5_reduce"
  type: "ReLU"
  bottom: "inception_4a/5x5_reduce"
  top: "inception_4a/5x5_reduce"
}
layer {
  name: "inception_4a/5x5"
  type: "Convolution"
  bottom: "inception_4a/5x5_reduce"
  top: "inception_4a/5x5"
  param {
    lr_mult: 1
    decay_mult: 1
  }
  param {
    lr_mult: 2
    decay_mult: 0
  }
  convolution_param {
    num_output: 48
    pad: 2
    kernel_size: 5
    weight_filler {
      type: "xavier"
      std: 0.03
    }
    bias_filler {
      type: "constant"
      value: 0.2
    }
  }
}
layer {
  name: "inception_4a/relu_5x5"
  type: "ReLU"
  bottom: "inception_4a/5x5"
  top: "inception_4a/5x5"
}
layer {
  name: "inception_4a/pool"
  type: "Pooling"
  bottom: "pool3/3x3_s2"
  top: "inception_4a/pool"
  pooling_param {
    pool: MAX
    kernel_size: 3
    stride: 1
    pad: 1
  }
}
layer {
  name: "inception_4a/pool_proj"
  type: "Convolution"
  bottom: "inception_4a/pool"
  top: "inception_4a/pool_proj"
  param {
    lr_mult: 1
    decay_mult: 1
  }
  param {
    lr_mult: 2
    decay_mult: 0
  }
  convolution_param {
    num_output: 64
    kernel_size: 1
    weight_filler {
      type: "xavier"
      std: 0.1
    }
    bias_filler {
      type: "constant"
      value: 0.2
    }
  }
}
layer {
  name: "inception_4a/relu_pool_proj"
  type: "ReLU"
  bottom: "inception_4a/pool_proj"
  top: "inception_4a/pool_proj"
}
layer {
  name: "inception_4a/output"
  type: "Concat"
  bottom: "inception_4a/1x1"
  bottom: "inception_4a/3x3"
  bottom: "inception_4a/5x5"
  bottom: "inception_4a/pool_proj"
  top: "inception_4a/output"
}
layer {
  name: "loss1/ave_pool"
  type: "Pooling"
  bottom: "inception_4a/output"
  top: "loss1/ave_pool"
  pooling_param {
    pool: AVE
    kernel_size: 5
    stride: 3
  }
}
layer {
  name: "loss1/conv"
  type: "Convolution"
  bottom: "loss1/ave_pool"
  top: "loss1/conv"
  param {
    lr_mult: 1
    decay_mult: 1
  }
  param {
    lr_mult: 2
    decay_mult: 0
  }
  convolution_param {
    num_output: 128
    kernel_size: 1
    weight_filler {
      type: "xavier"
      std: 0.08
    }
    bias_filler {
      type: "constant"
      value: 0.2
    }
  }
}
layer {
  name: "loss1/relu_conv"
  type: "ReLU"
  bottom: "loss1/conv"
  top: "loss1/conv"
}
layer {
  name: "loss1/fc"
  type: "InnerProduct"
  bottom: "loss1/conv"
  top: "loss1/fc"
  param {
    lr_mult: 1
    decay_mult: 1
  }
  param {
    lr_mult: 2
    decay_mult: 0
  }
  inner_product_param {
    num_output: 1024
    weight_filler {
      type: "xavier"
      std: 0.02
    }
    bias_filler {
      type: "constant"
      value: 0.2
    }
  }
}
layer {
  name: "loss1/relu_fc"
  type: "ReLU"
  bottom: "loss1/fc"
  top: "loss1/fc"
}
layer {
  name: "loss1/drop_fc"
  type: "Dropout"
  bottom: "loss1/fc"
  top: "loss1/fc"
  dropout_param {
    dropout_ratio: 0.7
  }
}
layer {
  name: "loss1/classifier_plantvillage"
  type: "InnerProduct"
  bottom: "loss1/fc"
  top: "loss1/classifier_plantvillage"
  param {
    lr_mult: 1
    decay_mult: 1
  }
  param {
    lr_mult: 2
    decay_mult: 0
  }
  inner_product_param {
    num_output: 38
    weight_filler {
      type: "xavier"
      std: 0.0009765625
    }
    bias_filler {
      type: "constant"
      value: 0
    }
  }
}
layer {
  name: "inception_4b/1x1"
  type: "Convolution"
  bottom: "inception_4a/output"
  top: "inception_4b/1x1"
  param {
    lr_mult: 1
    decay_mult: 1
  }
  param {
    lr_mult: 2
    decay_mult: 0
  }
  convolution_param {
    num_output: 160
    kernel_size: 1
    weight_filler {
      type: "xavier"
      std: 0.03
    }
    bias_filler {
      type: "constant"
      value: 0.2
    }
  }
}
layer {
  name: "inception_4b/relu_1x1"
  type: "ReLU"
  bottom: "inception_4b/1x1"
  top: "inception_4b/1x1"
}
layer {
  name: "inception_4b/3x3_reduce"
  type: "Convolution"
  bottom: "inception_4a/output"
  top: "inception_4b/3x3_reduce"
  param {
    lr_mult: 1
    decay_mult: 1
  }
  param {
    lr_mult: 2
    decay_mult: 0
  }
  convolution_param {
    num_output: 112
    kernel_size: 1
    weight_filler {
      type: "xavier"
      std: 0.09
    }
    bias_filler {
      type: "constant"
      value: 0.2
    }
  }
}
layer {
  name: "inception_4b/relu_3x3_reduce"
  type: "ReLU"
  bottom: "inception_4b/3x3_reduce"
  top: "inception_4b/3x3_reduce"
}
layer {
  name: "inception_4b/3x3"
  type: "Convolution"
  bottom: "inception_4b/3x3_reduce"
  top: "inception_4b/3x3"
  param {
    lr_mult: 1
    decay_mult: 1
  }
  param {
    lr_mult: 2
    decay_mult: 0
  }
  convolution_param {
    num_output: 224
    pad: 1
    kernel_size: 3
    weight_filler {
      type: "xavier"
      std: 0.03
    }
    bias_filler {
      type: "constant"
      value: 0.2
    }
  }
}
layer {
  name: "inception_4b/relu_3x3"
  type: "ReLU"
  bottom: "inception_4b/3x3"
  top: "inception_4b/3x3"
}
layer {
  name: "inception_4b/5x5_reduce"
  type: "Convolution"
  bottom: "inception_4a/output"
  top: "inception_4b/5x5_reduce"
  param {
    lr_mult: 1
    decay_mult: 1
  }
  param {
    lr_mult: 2
    decay_mult: 0
  }
  convolution_param {
    num_output: 24
    kernel_size: 1
    weight_filler {
      type: "xavier"
      std: 0.2
    }
    bias_filler {
      type: "constant"
      value: 0.2
    }
  }
}
layer {
  name: "inception_4b/relu_5x5_reduce"
  type: "ReLU"
  bottom: "inception_4b/5x5_reduce"
  top: "inception_4b/5x5_reduce"
}
layer {
  name: "inception_4b/5x5"
  type: "Convolution"
  bottom: "inception_4b/5x5_reduce"
  top: "inception_4b/5x5"
  param {
    lr_mult: 1
    decay_mult: 1
  }
  param {
    lr_mult: 2
    decay_mult: 0
  }
  convolution_param {
    num_output: 64
    pad: 2
    kernel_size: 5
    weight_filler {
      type: "xavier"
      std: 0.03
    }
    bias_filler {
      type: "constant"
      value: 0.2
    }
  }
}
layer {
  name: "inception_4b/relu_5x5"
  type: "ReLU"
  bottom: "inception_4b/5x5"
  top: "inception_4b/5x5"
}
layer {
  name: "inception_4b/pool"
  type: "Pooling"
  bottom: "inception_4a/output"
  top: "inception_4b/pool"
  pooling_param {
    pool: MAX
    kernel_size: 3
    stride: 1
    pad: 1
  }
}
layer {
  name: "inception_4b/pool_proj"
  type: "Convolution"
  bottom: "inception_4b/pool"
  top: "inception_4b/pool_proj"
  param {
    lr_mult: 1
    decay_mult: 1
  }
  param {
    lr_mult: 2
    decay_mult: 0
  }
  convolution_param {
    num_output: 64
    kernel_size: 1
    weight_filler {
      type: "xavier"
      std: 0.1
    }
    bias_filler {
      type: "constant"
      value: 0.2
    }
  }
}
layer {
  name: "inception_4b/relu_pool_proj"
  type: "ReLU"
  bottom: "inception_4b/pool_proj"
  top: "inception_4b/pool_proj"
}
layer {
  name: "inception_4b/output"
  type: "Concat"
  bottom: "inception_4b/1x1"
  bottom: "inception_4b/3x3"
  bottom: "inception_4b/5x5"
  bottom: "inception_4b/pool_proj"
  top: "inception_4b/output"
}
layer {
  name: "inception_4c/1x1"
  type: "Convolution"
  bottom: "inception_4b/output"
  top: "inception_4c/1x1"
  param {
    lr_mult: 1
    decay_mult: 1
  }
  param {
    lr_mult: 2
    decay_mult: 0
  }
  convolution_param {
    num_output: 128
    kernel_size: 1
    weight_filler {
      type: "xavier"
      std: 0.03
    }
    bias_filler {
      type: "constant"
      value: 0.2
    }
  }
}
layer {
  name: "inception_4c/relu_1x1"
  type: "ReLU"
  bottom: "inception_4c/1x1"
  top: "inception_4c/1x1"
}
layer {
  name: "inception_4c/3x3_reduce"
  type: "Convolution"
  bottom: "inception_4b/output"
  top: "inception_4c/3x3_reduce"
  param {
    lr_mult: 1
    decay_mult: 1
  }
  param {
    lr_mult: 2
    decay_mult: 0
  }
  convolution_param {
    num_output: 128
    kernel_size: 1
    weight_filler {
      type: "xavier"
      std: 0.09
    }
    bias_filler {
      type: "constant"
      value: 0.2
    }
  }
}
layer {
  name: "inception_4c/relu_3x3_reduce"
  type: "ReLU"
  bottom: "inception_4c/3x3_reduce"
  top: "inception_4c/3x3_reduce"
}
layer {
  name: "inception_4c/3x3"
  type: "Convolution"
  bottom: "inception_4c/3x3_reduce"
  top: "inception_4c/3x3"
  param {
    lr_mult: 1
    decay_mult: 1
  }
  param {
    lr_mult: 2
    decay_mult: 0
  }
  convolution_param {
    num_output: 256
    pad: 1
    kernel_size: 3
    weight_filler {
      type: "xavier"
      std: 0.03
    }
    bias_filler {
      type: "constant"
      value: 0.2
    }
  }
}
layer {
  name: "inception_4c/relu_3x3"
  type: "ReLU"
  bottom: "inception_4c/3x3"
  top: "inception_4c/3x3"
}
layer {
  name: "inception_4c/5x5_reduce"
  type: "Convolution"
  bottom: "inception_4b/output"
  top: "inception_4c/5x5_reduce"
  param {
    lr_mult: 1
    decay_mult: 1
  }
  param {
    lr_mult: 2
    decay_mult: 0
  }
  convolution_param {
    num_output: 24
    kernel_size: 1
    weight_filler {
      type: "xavier"
      std: 0.2
    }
    bias_filler {
      type: "constant"
      value: 0.2
    }
  }
}
layer {
  name: "inception_4c/relu_5x5_reduce"
  type: "ReLU"
  bottom: "inception_4c/5x5_reduce"
  top: "inception_4c/5x5_reduce"
}
layer {
  name: "inception_4c/5x5"
  type: "Convolution"
  bottom: "inception_4c/5x5_reduce"
  top: "inception_4c/5x5"
  param {
    lr_mult: 1
    decay_mult: 1
  }
  param {
    lr_mult: 2
    decay_mult: 0
  }
  convolution_param {
    num_output: 64
    pad: 2
    kernel_size: 5
    weight_filler {
      type: "xavier"
      std: 0.03
    }
    bias_filler {
      type: "constant"
      value: 0.2
    }
  }
}
layer {
  name: "inception_4c/relu_5x5"
  type: "ReLU"
  bottom: "inception_4c/5x5"
  top: "inception_4c/5x5"
}
layer {
  name: "inception_4c/pool"
  type: "Pooling"
  bottom: "inception_4b/output"
  top: "inception_4c/pool"
  pooling_param {
    pool: MAX
    kernel_size: 3
    stride: 1
    pad: 1
  }
}
layer {
  name: "inception_4c/pool_proj"
  type: "Convolution"
  bottom: "inception_4c/pool"
  top: "inception_4c/pool_proj"
  param {
    lr_mult: 1
    decay_mult: 1
  }
  param {
    lr_mult: 2
    decay_mult: 0
  }
  convolution_param {
    num_output: 64
    kernel_size: 1
    weight_filler {
      type: "xavier"
      std: 0.1
    }
    bias_filler {
      type: "constant"
      value: 0.2
    }
  }
}
layer {
  name: "inception_4c/relu_pool_proj"
  type: "ReLU"
  bottom: "inception_4c/pool_proj"
  top: "inception_4c/pool_proj"
}
layer {
  name: "inception_4c/output"
  type: "Concat"
  bottom: "inception_4c/1x1"
  bottom: "inception_4c/3x3"
  bottom: "inception_4c/5x5"
  bottom: "inception_4c/pool_proj"
  top: "inception_4c/output"
}
layer {
  name: "inception_4d/1x1"
  type: "Convolution"
  bottom: "inception_4c/output"
  top: "inception_4d/1x1"
  param {
    lr_mult: 1
    decay_mult: 1
  }
  param {
    lr_mult: 2
    decay_mult: 0
  }
  convolution_param {
    num_output: 112
    kernel_size: 1
    weight_filler {
      type: "xavier"
      std: 0.03
    }
    bias_filler {
      type: "constant"
      value: 0.2
    }
  }
}
layer {
  name: "inception_4d/relu_1x1"
  type: "ReLU"
  bottom: "inception_4d/1x1"
  top: "inception_4d/1x1"
}
layer {
  name: "inception_4d/3x3_reduce"
  type: "Convolution"
  bottom: "inception_4c/output"
  top: "inception_4d/3x3_reduce"
  param {
    lr_mult: 1
    decay_mult: 1
  }
  param {
    lr_mult: 2
    decay_mult: 0
  }
  convolution_param {
    num_output: 144
    kernel_size: 1
    weight_filler {
      type: "xavier"
      std: 0.09
    }
    bias_filler {
      type: "constant"
      value: 0.2
    }
  }
}
layer {
  name: "inception_4d/relu_3x3_reduce"
  type: "ReLU"
  bottom: "inception_4d/3x3_reduce"
  top: "inception_4d/3x3_reduce"
}
layer {
  name: "inception_4d/3x3"
  type: "Convolution"
  bottom: "inception_4d/3x3_reduce"
  top: "inception_4d/3x3"
  param {
    lr_mult: 1
    decay_mult: 1
  }
  param {
    lr_mult: 2
    decay_mult: 0
  }
  convolution_param {
    num_output: 288
    pad: 1
    kernel_size: 3
    weight_filler {
      type: "xavier"
      std: 0.03
    }
    bias_filler {
      type: "constant"
      value: 0.2
    }
  }
}
layer {
  name: "inception_4d/relu_3x3"
  type: "ReLU"
  bottom: "inception_4d/3x3"
  top: "inception_4d/3x3"
}
layer {
  name: "inception_4d/5x5_reduce"
  type: "Convolution"
  bottom: "inception_4c/output"
  top: "inception_4d/5x5_reduce"
  param {
    lr_mult: 1
    decay_mult: 1
  }
  param {
    lr_mult: 2
    decay_mult: 0
  }
  convolution_param {
    num_output: 32
    kernel_size: 1
    weight_filler {
      type: "xavier"
      std: 0.2
    }
    bias_filler {
      type: "constant"
      value: 0.2
    }
  }
}
layer {
  name: "inception_4d/relu_5x5_reduce"
  type: "ReLU"
  bottom: "inception_4d/5x5_reduce"
  top: "inception_4d/5x5_reduce"
}
layer {
  name: "inception_4d/5x5"
  type: "Convolution"
  bottom: "inception_4d/5x5_reduce"
  top: "inception_4d/5x5"
  param {
    lr_mult: 1
    decay_mult: 1
  }
  param {
    lr_mult: 2
    decay_mult: 0
  }
  convolution_param {
    num_output: 64
    pad: 2
    kernel_size: 5
    weight_filler {
      type: "xavier"
      std: 0.03
    }
    bias_filler {
      type: "constant"
      value: 0.2
    }
  }
}
layer {
  name: "inception_4d/relu_5x5"
  type: "ReLU"
  bottom: "inception_4d/5x5"
  top: "inception_4d/5x5"
}
layer {
  name: "inception_4d/pool"
  type: "Pooling"
  bottom: "inception_4c/output"
  top: "inception_4d/pool"
  pooling_param {
    pool: MAX
    kernel_size: 3
    stride: 1
    pad: 1
  }
}
layer {
  name: "inception_4d/pool_proj"
  type: "Convolution"
  bottom: "inception_4d/pool"
  top: "inception_4d/pool_proj"
  param {
    lr_mult: 1
    decay_mult: 1
  }
  param {
    lr_mult: 2
    decay_mult: 0
  }
  convolution_param {
    num_output: 64
    kernel_size: 1
    weight_filler {
      type: "xavier"
      std: 0.1
    }
    bias_filler {
      type: "constant"
      value: 0.2
    }
  }
}
layer {
  name: "inception_4d/relu_pool_proj"
  type: "ReLU"
  bottom: "inception_4d/pool_proj"
  top: "inception_4d/pool_proj"
}
layer {
  name: "inception_4d/output"
  type: "Concat"
  bottom: "inception_4d/1x1"
  bottom: "inception_4d/3x3"
  bottom: "inception_4d/5x5"
  bottom: "inception_4d/pool_proj"
  top: "inception_4d/output"
}
layer {
  name: "loss2/ave_pool"
  type: "Pooling"
  bottom: "inception_4d/output"
  top: "loss2/ave_pool"
  pooling_param {
    pool: AVE
    kernel_size: 5
    stride: 3
  }
}
layer {
  name: "loss2/conv"
  type: "Convolution"
  bottom: "loss2/ave_pool"
  top: "loss2/conv"
  param {
    lr_mult: 1
    decay_mult: 1
  }
  param {
    lr_mult: 2
    decay_mult: 0
  }
  convolution_param {
    num_output: 128
    kernel_size: 1
    weight_filler {
      type: "xavier"
      std: 0.08
    }
    bias_filler {
      type: "constant"
      value: 0.2
    }
  }
}
layer {
  name: "loss2/relu_conv"
  type: "ReLU"
  bottom: "loss2/conv"
  top: "loss2/conv"
}
layer {
  name: "loss2/fc"
  type: "InnerProduct"
  bottom: "loss2/conv"
  top: "loss2/fc"
  param {
    lr_mult: 1
    decay_mult: 1
  }
  param {
    lr_mult: 2
    decay_mult: 0
  }
  inner_product_param {
    num_output: 1024
    weight_filler {
      type: "xavier"
      std: 0.02
    }
    bias_filler {
      type: "constant"
      value: 0.2
    }
  }
}
layer {
  name: "loss2/relu_fc"
  type: "ReLU"
  bottom: "loss2/fc"
  top: "loss2/fc"
}
layer {
  name: "loss2/drop_fc"
  type: "Dropout"
  bottom: "loss2/fc"
  top: "loss2/fc"
  dropout_param {
    dropout_ratio: 0.7
  }
}
layer {
  name: "loss2/classifier_plantvillage"
  type: "InnerProduct"
  bottom: "loss2/fc"
  top: "loss2/classifier_plantvillage"
  param {
    lr_mult: 1
    decay_mult: 1
  }
  param {
    lr_mult: 2
    decay_mult: 0
  }
  inner_product_param {
    num_output: 38
    weight_filler {
      type: "xavier"
      std: 0.0009765625
    }
    bias_filler {
      type: "constant"
      value: 0
    }
  }
}
layer {
  name: "inception_4e/1x1"
  type: "Convolution"
  bottom: "inception_4d/output"
  top: "inception_4e/1x1"
  param {
    lr_mult: 1
    decay_mult: 1
  }
  param {
    lr_mult: 2
    decay_mult: 0
  }
  convolution_param {
    num_output: 256
    kernel_size: 1
    weight_filler {
      type: "xavier"
      std: 0.03
    }
    bias_filler {
      type: "constant"
      value: 0.2
    }
  }
}
layer {
  name: "inception_4e/relu_1x1"
  type: "ReLU"
  bottom: "inception_4e/1x1"
  top: "inception_4e/1x1"
}
layer {
  name: "inception_4e/3x3_reduce"
  type: "Convolution"
  bottom: "inception_4d/output"
  top: "inception_4e/3x3_reduce"
  param {
    lr_mult: 1
    decay_mult: 1
  }
  param {
    lr_mult: 2
    decay_mult: 0
  }
  convolution_param {
    num_output: 160
    kernel_size: 1
    weight_filler {
      type: "xavier"
      std: 0.09
    }
    bias_filler {
      type: "constant"
      value: 0.2
    }
  }
}
layer {
  name: "inception_4e/relu_3x3_reduce"
  type: "ReLU"
  bottom: "inception_4e/3x3_reduce"
  top: "inception_4e/3x3_reduce"
}
layer {
  name: "inception_4e/3x3"
  type: "Convolution"
  bottom: "inception_4e/3x3_reduce"
  top: "inception_4e/3x3"
  param {
    lr_mult: 1
    decay_mult: 1
  }
  param {
    lr_mult: 2
    decay_mult: 0
  }
  convolution_param {
    num_output: 320
    pad: 1
    kernel_size: 3
    weight_filler {
      type: "xavier"
      std: 0.03
    }
    bias_filler {
      type: "constant"
      value: 0.2
    }
  }
}
layer {
  name: "inception_4e/relu_3x3"
  type: "ReLU"
  bottom: "inception_4e/3x3"
  top: "inception_4e/3x3"
}
layer {
  name: "inception_4e/5x5_reduce"
  type: "Convolution"
  bottom: "inception_4d/output"
  top: "inception_4e/5x5_reduce"
  param {
    lr_mult: 1
    decay_mult: 1
  }
  param {
    lr_mult: 2
    decay_mult: 0
  }
  convolution_param {
    num_output: 32
    kernel_size: 1
    weight_filler {
      type: "xavier"
      std: 0.2
    }
    bias_filler {
      type: "constant"
      value: 0.2
    }
  }
}
layer {
  name: "inception_4e/relu_5x5_reduce"
  type: "ReLU"
  bottom: "inception_4e/5x5_reduce"
  top: "inception_4e/5x5_reduce"
}
layer {
  name: "inception_4e/5x5"
  type: "Convolution"
  bottom: "inception_4e/5x5_reduce"
  top: "inception_4e/5x5"
  p
I0403 15:53:28.728368 14810 layer_factory.hpp:77] Creating layer data
I0403 15:53:28.728937 14810 net.cpp:91] Creating Layer data
I0403 15:53:28.728968 14810 net.cpp:399] data -> data
I0403 15:53:28.729017 14810 net.cpp:399] data -> label
I0403 15:53:28.729055 14810 data_transformer.cpp:25] Loading mean file from: /home/mohanty/data/final_dataset/lmdb/color-80-20/mean.binaryproto
I0403 15:53:28.731998 14812 db_lmdb.cpp:38] Opened lmdb /home/mohanty/data/final_dataset/lmdb/color-80-20/test_db
I0403 15:53:28.741916 14810 data_layer.cpp:41] output data size: 24,3,224,224
I0403 15:53:28.768508 14810 net.cpp:141] Setting up data
I0403 15:53:28.768585 14810 net.cpp:148] Top shape: 24 3 224 224 (3612672)
I0403 15:53:28.768609 14810 net.cpp:148] Top shape: 24 (24)
I0403 15:53:28.768623 14810 net.cpp:156] Memory required for data: 14450784
I0403 15:53:28.768651 14810 layer_factory.hpp:77] Creating layer label_data_1_split
I0403 15:53:28.768676 14810 net.cpp:91] Creating Layer label_data_1_split
I0403 15:53:28.768693 14810 net.cpp:425] label_data_1_split <- label
I0403 15:53:28.768723 14810 net.cpp:399] label_data_1_split -> label_data_1_split_0
I0403 15:53:28.768750 14810 net.cpp:399] label_data_1_split -> label_data_1_split_1
I0403 15:53:28.768772 14810 net.cpp:399] label_data_1_split -> label_data_1_split_2
I0403 15:53:28.768792 14810 net.cpp:399] label_data_1_split -> label_data_1_split_3
I0403 15:53:28.768810 14810 net.cpp:399] label_data_1_split -> label_data_1_split_4
I0403 15:53:28.768829 14810 net.cpp:399] label_data_1_split -> label_data_1_split_5
I0403 15:53:28.768848 14810 net.cpp:399] label_data_1_split -> label_data_1_split_6
I0403 15:53:28.768867 14810 net.cpp:399] label_data_1_split -> label_data_1_split_7
I0403 15:53:28.768888 14810 net.cpp:399] label_data_1_split -> label_data_1_split_8
I0403 15:53:28.768909 14810 net.cpp:399] label_data_1_split -> label_data_1_split_9
I0403 15:53:28.769019 14810 net.cpp:141] Setting up label_data_1_split
I0403 15:53:28.769042 14810 net.cpp:148] Top shape: 24 (24)
I0403 15:53:28.769058 14810 net.cpp:148] Top shape: 24 (24)
I0403 15:53:28.769074 14810 net.cpp:148] Top shape: 24 (24)
I0403 15:53:28.769093 14810 net.cpp:148] Top shape: 24 (24)
I0403 15:53:28.769109 14810 net.cpp:148] Top shape: 24 (24)
I0403 15:53:28.769124 14810 net.cpp:148] Top shape: 24 (24)
I0403 15:53:28.769145 14810 net.cpp:148] Top shape: 24 (24)
I0403 15:53:28.769160 14810 net.cpp:148] Top shape: 24 (24)
I0403 15:53:28.769176 14810 net.cpp:148] Top shape: 24 (24)
I0403 15:53:28.769191 14810 net.cpp:148] Top shape: 24 (24)
I0403 15:53:28.769234 14810 net.cpp:156] Memory required for data: 14451744
I0403 15:53:28.769250 14810 layer_factory.hpp:77] Creating layer conv1/7x7_s2
I0403 15:53:28.769280 14810 net.cpp:91] Creating Layer conv1/7x7_s2
I0403 15:53:28.769299 14810 net.cpp:425] conv1/7x7_s2 <- data
I0403 15:53:28.769318 14810 net.cpp:399] conv1/7x7_s2 -> conv1/7x7_s2
I0403 15:53:28.906956 14810 net.cpp:141] Setting up conv1/7x7_s2
I0403 15:53:28.907027 14810 net.cpp:148] Top shape: 24 64 112 112 (19267584)
I0403 15:53:28.907045 14810 net.cpp:156] Memory required for data: 91522080
I0403 15:53:28.907075 14810 layer_factory.hpp:77] Creating layer conv1/relu_7x7
I0403 15:53:28.907104 14810 net.cpp:91] Creating Layer conv1/relu_7x7
I0403 15:53:28.907124 14810 net.cpp:425] conv1/relu_7x7 <- conv1/7x7_s2
I0403 15:53:28.907147 14810 net.cpp:386] conv1/relu_7x7 -> conv1/7x7_s2 (in-place)
I0403 15:53:28.907405 14810 net.cpp:141] Setting up conv1/relu_7x7
I0403 15:53:28.907433 14810 net.cpp:148] Top shape: 24 64 112 112 (19267584)
I0403 15:53:28.907449 14810 net.cpp:156] Memory required for data: 168592416
I0403 15:53:28.907462 14810 layer_factory.hpp:77] Creating layer pool1/3x3_s2
I0403 15:53:28.907486 14810 net.cpp:91] Creating Layer pool1/3x3_s2
I0403 15:53:28.907505 14810 net.cpp:425] pool1/3x3_s2 <- conv1/7x7_s2
I0403 15:53:28.907523 14810 net.cpp:399] pool1/3x3_s2 -> pool1/3x3_s2
I0403 15:53:28.907598 14810 net.cpp:141] Setting up pool1/3x3_s2
I0403 15:53:28.907623 14810 net.cpp:148] Top shape: 24 64 56 56 (4816896)
I0403 15:53:28.907637 14810 net.cpp:156] Memory required for data: 187860000
I0403 15:53:28.907651 14810 layer_factory.hpp:77] Creating layer pool1/norm1
I0403 15:53:28.907675 14810 net.cpp:91] Creating Layer pool1/norm1
I0403 15:53:28.907692 14810 net.cpp:425] pool1/norm1 <- pool1/3x3_s2
I0403 15:53:28.907711 14810 net.cpp:399] pool1/norm1 -> pool1/norm1
I0403 15:53:28.907995 14810 net.cpp:141] Setting up pool1/norm1
I0403 15:53:28.908025 14810 net.cpp:148] Top shape: 24 64 56 56 (4816896)
I0403 15:53:28.908041 14810 net.cpp:156] Memory required for data: 207127584
I0403 15:53:28.908059 14810 layer_factory.hpp:77] Creating layer conv2/3x3_reduce
I0403 15:53:28.908084 14810 net.cpp:91] Creating Layer conv2/3x3_reduce
I0403 15:53:28.908100 14810 net.cpp:425] conv2/3x3_reduce <- pool1/norm1
I0403 15:53:28.908119 14810 net.cpp:399] conv2/3x3_reduce -> conv2/3x3_reduce
I0403 15:53:28.909430 14810 net.cpp:141] Setting up conv2/3x3_reduce
I0403 15:53:28.909464 14810 net.cpp:148] Top shape: 24 64 56 56 (4816896)
I0403 15:53:28.909482 14810 net.cpp:156] Memory required for data: 226395168
I0403 15:53:28.909503 14810 layer_factory.hpp:77] Creating layer conv2/relu_3x3_reduce
I0403 15:53:28.909523 14810 net.cpp:91] Creating Layer conv2/relu_3x3_reduce
I0403 15:53:28.909538 14810 net.cpp:425] conv2/relu_3x3_reduce <- conv2/3x3_reduce
I0403 15:53:28.909559 14810 net.cpp:386] conv2/relu_3x3_reduce -> conv2/3x3_reduce (in-place)
I0403 15:53:28.909835 14810 net.cpp:141] Setting up conv2/relu_3x3_reduce
I0403 15:53:28.909864 14810 net.cpp:148] Top shape: 24 64 56 56 (4816896)
I0403 15:53:28.909881 14810 net.cpp:156] Memory required for data: 245662752
I0403 15:53:28.909896 14810 layer_factory.hpp:77] Creating layer conv2/3x3
I0403 15:53:28.909920 14810 net.cpp:91] Creating Layer conv2/3x3
I0403 15:53:28.909940 14810 net.cpp:425] conv2/3x3 <- conv2/3x3_reduce
I0403 15:53:28.909961 14810 net.cpp:399] conv2/3x3 -> conv2/3x3
I0403 15:53:28.912223 14810 net.cpp:141] Setting up conv2/3x3
I0403 15:53:28.912256 14810 net.cpp:148] Top shape: 24 192 56 56 (14450688)
I0403 15:53:28.912272 14810 net.cpp:156] Memory required for data: 303465504
I0403 15:53:28.912293 14810 layer_factory.hpp:77] Creating layer conv2/relu_3x3
I0403 15:53:28.912312 14810 net.cpp:91] Creating Layer conv2/relu_3x3
I0403 15:53:28.912328 14810 net.cpp:425] conv2/relu_3x3 <- conv2/3x3
I0403 15:53:28.912348 14810 net.cpp:386] conv2/relu_3x3 -> conv2/3x3 (in-place)
I0403 15:53:28.912523 14810 net.cpp:141] Setting up conv2/relu_3x3
I0403 15:53:28.912549 14810 net.cpp:148] Top shape: 24 192 56 56 (14450688)
I0403 15:53:28.912595 14810 net.cpp:156] Memory required for data: 361268256
I0403 15:53:28.912611 14810 layer_factory.hpp:77] Creating layer conv2/norm2
I0403 15:53:28.912631 14810 net.cpp:91] Creating Layer conv2/norm2
I0403 15:53:28.912647 14810 net.cpp:425] conv2/norm2 <- conv2/3x3
I0403 15:53:28.912664 14810 net.cpp:399] conv2/norm2 -> conv2/norm2
I0403 15:53:28.912961 14810 net.cpp:141] Setting up conv2/norm2
I0403 15:53:28.912989 14810 net.cpp:148] Top shape: 24 192 56 56 (14450688)
I0403 15:53:28.913005 14810 net.cpp:156] Memory required for data: 419071008
I0403 15:53:28.913019 14810 layer_factory.hpp:77] Creating layer pool2/3x3_s2
I0403 15:53:28.913039 14810 net.cpp:91] Creating Layer pool2/3x3_s2
I0403 15:53:28.913055 14810 net.cpp:425] pool2/3x3_s2 <- conv2/norm2
I0403 15:53:28.913072 14810 net.cpp:399] pool2/3x3_s2 -> pool2/3x3_s2
I0403 15:53:28.913136 14810 net.cpp:141] Setting up pool2/3x3_s2
I0403 15:53:28.913162 14810 net.cpp:148] Top shape: 24 192 28 28 (3612672)
I0403 15:53:28.913179 14810 net.cpp:156] Memory required for data: 433521696
I0403 15:53:28.913195 14810 layer_factory.hpp:77] Creating layer pool2/3x3_s2_pool2/3x3_s2_0_split
I0403 15:53:28.913216 14810 net.cpp:91] Creating Layer pool2/3x3_s2_pool2/3x3_s2_0_split
I0403 15:53:28.913233 14810 net.cpp:425] pool2/3x3_s2_pool2/3x3_s2_0_split <- pool2/3x3_s2
I0403 15:53:28.913252 14810 net.cpp:399] pool2/3x3_s2_pool2/3x3_s2_0_split -> pool2/3x3_s2_pool2/3x3_s2_0_split_0
I0403 15:53:28.913274 14810 net.cpp:399] pool2/3x3_s2_pool2/3x3_s2_0_split -> pool2/3x3_s2_pool2/3x3_s2_0_split_1
I0403 15:53:28.913295 14810 net.cpp:399] pool2/3x3_s2_pool2/3x3_s2_0_split -> pool2/3x3_s2_pool2/3x3_s2_0_split_2
I0403 15:53:28.913314 14810 net.cpp:399] pool2/3x3_s2_pool2/3x3_s2_0_split -> pool2/3x3_s2_pool2/3x3_s2_0_split_3
I0403 15:53:28.913384 14810 net.cpp:141] Setting up pool2/3x3_s2_pool2/3x3_s2_0_split
I0403 15:53:28.913408 14810 net.cpp:148] Top shape: 24 192 28 28 (3612672)
I0403 15:53:28.913422 14810 net.cpp:148] Top shape: 24 192 28 28 (3612672)
I0403 15:53:28.913439 14810 net.cpp:148] Top shape: 24 192 28 28 (3612672)
I0403 15:53:28.913453 14810 net.cpp:148] Top shape: 24 192 28 28 (3612672)
I0403 15:53:28.913466 14810 net.cpp:156] Memory required for data: 491324448
I0403 15:53:28.913480 14810 layer_factory.hpp:77] Creating layer inception_3a/1x1
I0403 15:53:28.913503 14810 net.cpp:91] Creating Layer inception_3a/1x1
I0403 15:53:28.913521 14810 net.cpp:425] inception_3a/1x1 <- pool2/3x3_s2_pool2/3x3_s2_0_split_0
I0403 15:53:28.913542 14810 net.cpp:399] inception_3a/1x1 -> inception_3a/1x1
I0403 15:53:28.915045 14810 net.cpp:141] Setting up inception_3a/1x1
I0403 15:53:28.915078 14810 net.cpp:148] Top shape: 24 64 28 28 (1204224)
I0403 15:53:28.915096 14810 net.cpp:156] Memory required for data: 496141344
I0403 15:53:28.915114 14810 layer_factory.hpp:77] Creating layer inception_3a/relu_1x1
I0403 15:53:28.915138 14810 net.cpp:91] Creating Layer inception_3a/relu_1x1
I0403 15:53:28.915155 14810 net.cpp:425] inception_3a/relu_1x1 <- inception_3a/1x1
I0403 15:53:28.915174 14810 net.cpp:386] inception_3a/relu_1x1 -> inception_3a/1x1 (in-place)
I0403 15:53:28.915346 14810 net.cpp:141] Setting up inception_3a/relu_1x1
I0403 15:53:28.915374 14810 net.cpp:148] Top shape: 24 64 28 28 (1204224)
I0403 15:53:28.915390 14810 net.cpp:156] Memory required for data: 500958240
I0403 15:53:28.915405 14810 layer_factory.hpp:77] Creating layer inception_3a/3x3_reduce
I0403 15:53:28.915427 14810 net.cpp:91] Creating Layer inception_3a/3x3_reduce
I0403 15:53:28.915444 14810 net.cpp:425] inception_3a/3x3_reduce <- pool2/3x3_s2_pool2/3x3_s2_0_split_1
I0403 15:53:28.915465 14810 net.cpp:399] inception_3a/3x3_reduce -> inception_3a/3x3_reduce
I0403 15:53:28.917135 14810 net.cpp:141] Setting up inception_3a/3x3_reduce
I0403 15:53:28.917166 14810 net.cpp:148] Top shape: 24 96 28 28 (1806336)
I0403 15:53:28.917181 14810 net.cpp:156] Memory required for data: 508183584
I0403 15:53:28.917207 14810 layer_factory.hpp:77] Creating layer inception_3a/relu_3x3_reduce
I0403 15:53:28.917254 14810 net.cpp:91] Creating Layer inception_3a/relu_3x3_reduce
I0403 15:53:28.917271 14810 net.cpp:425] inception_3a/relu_3x3_reduce <- inception_3a/3x3_reduce
I0403 15:53:28.917291 14810 net.cpp:386] inception_3a/relu_3x3_reduce -> inception_3a/3x3_reduce (in-place)
I0403 15:53:28.917479 14810 net.cpp:141] Setting up inception_3a/relu_3x3_reduce
I0403 15:53:28.917503 14810 net.cpp:148] Top shape: 24 96 28 28 (1806336)
I0403 15:53:28.917531 14810 net.cpp:156] Memory required for data: 515408928
I0403 15:53:28.917546 14810 layer_factory.hpp:77] Creating layer inception_3a/3x3
I0403 15:53:28.917568 14810 net.cpp:91] Creating Layer inception_3a/3x3
I0403 15:53:28.917587 14810 net.cpp:425] inception_3a/3x3 <- inception_3a/3x3_reduce
I0403 15:53:28.917608 14810 net.cpp:399] inception_3a/3x3 -> inception_3a/3x3
I0403 15:53:28.919280 14810 net.cpp:141] Setting up inception_3a/3x3
I0403 15:53:28.919313 14810 net.cpp:148] Top shape: 24 128 28 28 (2408448)
I0403 15:53:28.919332 14810 net.cpp:156] Memory required for data: 525042720
I0403 15:53:28.919351 14810 layer_factory.hpp:77] Creating layer inception_3a/relu_3x3
I0403 15:53:28.919370 14810 net.cpp:91] Creating Layer inception_3a/relu_3x3
I0403 15:53:28.919386 14810 net.cpp:425] inception_3a/relu_3x3 <- inception_3a/3x3
I0403 15:53:28.919407 14810 net.cpp:386] inception_3a/relu_3x3 -> inception_3a/3x3 (in-place)
I0403 15:53:28.919699 14810 net.cpp:141] Setting up inception_3a/relu_3x3
I0403 15:53:28.919730 14810 net.cpp:148] Top shape: 24 128 28 28 (2408448)
I0403 15:53:28.919746 14810 net.cpp:156] Memory required for data: 534676512
I0403 15:53:28.919761 14810 layer_factory.hpp:77] Creating layer inception_3a/5x5_reduce
I0403 15:53:28.919785 14810 net.cpp:91] Creating Layer inception_3a/5x5_reduce
I0403 15:53:28.919803 14810 net.cpp:425] inception_3a/5x5_reduce <- pool2/3x3_s2_pool2/3x3_s2_0_split_2
I0403 15:53:28.919824 14810 net.cpp:399] inception_3a/5x5_reduce -> inception_3a/5x5_reduce
I0403 15:53:28.920809 14810 net.cpp:141] Setting up inception_3a/5x5_reduce
I0403 15:53:28.920837 14810 net.cpp:148] Top shape: 24 16 28 28 (301056)
I0403 15:53:28.920855 14810 net.cpp:156] Memory required for data: 535880736
I0403 15:53:28.920873 14810 layer_factory.hpp:77] Creating layer inception_3a/relu_5x5_reduce
I0403 15:53:28.920892 14810 net.cpp:91] Creating Layer inception_3a/relu_5x5_reduce
I0403 15:53:28.920907 14810 net.cpp:425] inception_3a/relu_5x5_reduce <- inception_3a/5x5_reduce
I0403 15:53:28.920928 14810 net.cpp:386] inception_3a/relu_5x5_reduce -> inception_3a/5x5_reduce (in-place)
I0403 15:53:28.921239 14810 net.cpp:141] Setting up inception_3a/relu_5x5_reduce
I0403 15:53:28.921267 14810 net.cpp:148] Top shape: 24 16 28 28 (301056)
I0403 15:53:28.921282 14810 net.cpp:156] Memory required for data: 537084960
I0403 15:53:28.921296 14810 layer_factory.hpp:77] Creating layer inception_3a/5x5
I0403 15:53:28.921320 14810 net.cpp:91] Creating Layer inception_3a/5x5
I0403 15:53:28.921339 14810 net.cpp:425] inception_3a/5x5 <- inception_3a/5x5_reduce
I0403 15:53:28.921361 14810 net.cpp:399] inception_3a/5x5 -> inception_3a/5x5
I0403 15:53:28.922411 14810 net.cpp:141] Setting up inception_3a/5x5
I0403 15:53:28.922444 14810 net.cpp:148] Top shape: 24 32 28 28 (602112)
I0403 15:53:28.922462 14810 net.cpp:156] Memory required for data: 539493408
I0403 15:53:28.922482 14810 layer_factory.hpp:77] Creating layer inception_3a/relu_5x5
I0403 15:53:28.922500 14810 net.cpp:91] Creating Layer inception_3a/relu_5x5
I0403 15:53:28.922518 14810 net.cpp:425] inception_3a/relu_5x5 <- inception_3a/5x5
I0403 15:53:28.922535 14810 net.cpp:386] inception_3a/relu_5x5 -> inception_3a/5x5 (in-place)
I0403 15:53:28.922711 14810 net.cpp:141] Setting up inception_3a/relu_5x5
I0403 15:53:28.922736 14810 net.cpp:148] Top shape: 24 32 28 28 (602112)
I0403 15:53:28.922752 14810 net.cpp:156] Memory required for data: 541901856
I0403 15:53:28.922766 14810 layer_factory.hpp:77] Creating layer inception_3a/pool
I0403 15:53:28.922783 14810 net.cpp:91] Creating Layer inception_3a/pool
I0403 15:53:28.922799 14810 net.cpp:425] inception_3a/pool <- pool2/3x3_s2_pool2/3x3_s2_0_split_3
I0403 15:53:28.922837 14810 net.cpp:399] inception_3a/pool -> inception_3a/pool
I0403 15:53:28.922896 14810 net.cpp:141] Setting up inception_3a/pool
I0403 15:53:28.922924 14810 net.cpp:148] Top shape: 24 192 28 28 (3612672)
I0403 15:53:28.922938 14810 net.cpp:156] Memory required for data: 556352544
I0403 15:53:28.922953 14810 layer_factory.hpp:77] Creating layer inception_3a/pool_proj
I0403 15:53:28.922976 14810 net.cpp:91] Creating Layer inception_3a/pool_proj
I0403 15:53:28.922992 14810 net.cpp:425] inception_3a/pool_proj <- inception_3a/pool
I0403 15:53:28.923012 14810 net.cpp:399] inception_3a/pool_proj -> inception_3a/pool_proj
I0403 15:53:28.924029 14810 net.cpp:141] Setting up inception_3a/pool_proj
I0403 15:53:28.924060 14810 net.cpp:148] Top shape: 24 32 28 28 (602112)
I0403 15:53:28.924077 14810 net.cpp:156] Memory required for data: 558760992
I0403 15:53:28.924103 14810 layer_factory.hpp:77] Creating layer inception_3a/relu_pool_proj
I0403 15:53:28.924123 14810 net.cpp:91] Creating Layer inception_3a/relu_pool_proj
I0403 15:53:28.924145 14810 net.cpp:425] inception_3a/relu_pool_proj <- inception_3a/pool_proj
I0403 15:53:28.924166 14810 net.cpp:386] inception_3a/relu_pool_proj -> inception_3a/pool_proj (in-place)
I0403 15:53:28.924443 14810 net.cpp:141] Setting up inception_3a/relu_pool_proj
I0403 15:53:28.924475 14810 net.cpp:148] Top shape: 24 32 28 28 (602112)
I0403 15:53:28.924494 14810 net.cpp:156] Memory required for data: 561169440
I0403 15:53:28.924509 14810 layer_factory.hpp:77] Creating layer inception_3a/output
I0403 15:53:28.924526 14810 net.cpp:91] Creating Layer inception_3a/output
I0403 15:53:28.924542 14810 net.cpp:425] inception_3a/output <- inception_3a/1x1
I0403 15:53:28.924561 14810 net.cpp:425] inception_3a/output <- inception_3a/3x3
I0403 15:53:28.924576 14810 net.cpp:425] inception_3a/output <- inception_3a/5x5
I0403 15:53:28.924592 14810 net.cpp:425] inception_3a/output <- inception_3a/pool_proj
I0403 15:53:28.924608 14810 net.cpp:399] inception_3a/output -> inception_3a/output
I0403 15:53:28.924659 14810 net.cpp:141] Setting up inception_3a/output
I0403 15:53:28.924685 14810 net.cpp:148] Top shape: 24 256 28 28 (4816896)
I0403 15:53:28.924698 14810 net.cpp:156] Memory required for data: 580437024
I0403 15:53:28.924713 14810 layer_factory.hpp:77] Creating layer inception_3a/output_inception_3a/output_0_split
I0403 15:53:28.924733 14810 net.cpp:91] Creating Layer inception_3a/output_inception_3a/output_0_split
I0403 15:53:28.924751 14810 net.cpp:425] inception_3a/output_inception_3a/output_0_split <- inception_3a/output
I0403 15:53:28.924768 14810 net.cpp:399] inception_3a/output_inception_3a/output_0_split -> inception_3a/output_inception_3a/output_0_split_0
I0403 15:53:28.924788 14810 net.cpp:399] inception_3a/output_inception_3a/output_0_split -> inception_3a/output_inception_3a/output_0_split_1
I0403 15:53:28.924815 14810 net.cpp:399] inception_3a/output_inception_3a/output_0_split -> inception_3a/output_inception_3a/output_0_split_2
I0403 15:53:28.924839 14810 net.cpp:399] inception_3a/output_inception_3a/output_0_split -> inception_3a/output_inception_3a/output_0_split_3
I0403 15:53:28.924916 14810 net.cpp:141] Setting up inception_3a/output_inception_3a/output_0_split
I0403 15:53:28.924939 14810 net.cpp:148] Top shape: 24 256 28 28 (4816896)
I0403 15:53:28.924957 14810 net.cpp:148] Top shape: 24 256 28 28 (4816896)
I0403 15:53:28.924973 14810 net.cpp:148] Top shape: 24 256 28 28 (4816896)
I0403 15:53:28.924988 14810 net.cpp:148] Top shape: 24 256 28 28 (4816896)
I0403 15:53:28.925003 14810 net.cpp:156] Memory required for data: 657507360
I0403 15:53:28.925017 14810 layer_factory.hpp:77] Creating layer inception_3b/1x1
I0403 15:53:28.925042 14810 net.cpp:91] Creating Layer inception_3b/1x1
I0403 15:53:28.925061 14810 net.cpp:425] inception_3b/1x1 <- inception_3a/output_inception_3a/output_0_split_0
I0403 15:53:28.925081 14810 net.cpp:399] inception_3b/1x1 -> inception_3b/1x1
I0403 15:53:28.926255 14810 net.cpp:141] Setting up inception_3b/1x1
I0403 15:53:28.926298 14810 net.cpp:148] Top shape: 24 128 28 28 (2408448)
I0403 15:53:28.926316 14810 net.cpp:156] Memory required for data: 667141152
I0403 15:53:28.926336 14810 layer_factory.hpp:77] Creating layer inception_3b/relu_1x1
I0403 15:53:28.926357 14810 net.cpp:91] Creating Layer inception_3b/relu_1x1
I0403 15:53:28.926373 14810 net.cpp:425] inception_3b/relu_1x1 <- inception_3b/1x1
I0403 15:53:28.926390 14810 net.cpp:386] inception_3b/relu_1x1 -> inception_3b/1x1 (in-place)
I0403 15:53:28.926571 14810 net.cpp:141] Setting up inception_3b/relu_1x1
I0403 15:53:28.926599 14810 net.cpp:148] Top shape: 24 128 28 28 (2408448)
I0403 15:53:28.926614 14810 net.cpp:156] Memory required for data: 676774944
I0403 15:53:28.926630 14810 layer_factory.hpp:77] Creating layer inception_3b/3x3_reduce
I0403 15:53:28.926651 14810 net.cpp:91] Creating Layer inception_3b/3x3_reduce
I0403 15:53:28.926671 14810 net.cpp:425] inception_3b/3x3_reduce <- inception_3a/output_inception_3a/output_0_split_1
I0403 15:53:28.926693 14810 net.cpp:399] inception_3b/3x3_reduce -> inception_3b/3x3_reduce
I0403 15:53:28.927896 14810 net.cpp:141] Setting up inception_3b/3x3_reduce
I0403 15:53:28.927925 14810 net.cpp:148] Top shape: 24 128 28 28 (2408448)
I0403 15:53:28.927942 14810 net.cpp:156] Memory required for data: 686408736
I0403 15:53:28.927961 14810 layer_factory.hpp:77] Creating layer inception_3b/relu_3x3_reduce
I0403 15:53:28.927983 14810 net.cpp:91] Creating Layer inception_3b/relu_3x3_reduce
I0403 15:53:28.928000 14810 net.cpp:425] inception_3b/relu_3x3_reduce <- inception_3b/3x3_reduce
I0403 15:53:28.928019 14810 net.cpp:386] inception_3b/relu_3x3_reduce -> inception_3b/3x3_reduce (in-place)
I0403 15:53:28.928201 14810 net.cpp:141] Setting up inception_3b/relu_3x3_reduce
I0403 15:53:28.928231 14810 net.cpp:148] Top shape: 24 128 28 28 (2408448)
I0403 15:53:28.928247 14810 net.cpp:156] Memory required for data: 696042528
I0403 15:53:28.928263 14810 layer_factory.hpp:77] Creating layer inception_3b/3x3
I0403 15:53:28.928290 14810 net.cpp:91] Creating Layer inception_3b/3x3
I0403 15:53:28.928309 14810 net.cpp:425] inception_3b/3x3 <- inception_3b/3x3_reduce
I0403 15:53:28.928330 14810 net.cpp:399] inception_3b/3x3 -> inception_3b/3x3
I0403 15:53:28.931327 14810 net.cpp:141] Setting up inception_3b/3x3
I0403 15:53:28.931367 14810 net.cpp:148] Top shape: 24 192 28 28 (3612672)
I0403 15:53:28.931385 14810 net.cpp:156] Memory required for data: 710493216
I0403 15:53:28.931404 14810 layer_factory.hpp:77] Creating layer inception_3b/relu_3x3
I0403 15:53:28.931424 14810 net.cpp:91] Creating Layer inception_3b/relu_3x3
I0403 15:53:28.931442 14810 net.cpp:425] inception_3b/relu_3x3 <- inception_3b/3x3
I0403 15:53:28.931463 14810 net.cpp:386] inception_3b/relu_3x3 -> inception_3b/3x3 (in-place)
I0403 15:53:28.931740 14810 net.cpp:141] Setting up inception_3b/relu_3x3
I0403 15:53:28.931771 14810 net.cpp:148] Top shape: 24 192 28 28 (3612672)
I0403 15:53:28.931787 14810 net.cpp:156] Memory required for data: 724943904
I0403 15:53:28.931800 14810 layer_factory.hpp:77] Creating layer inception_3b/5x5_reduce
I0403 15:53:28.931823 14810 net.cpp:91] Creating Layer inception_3b/5x5_reduce
I0403 15:53:28.931841 14810 net.cpp:425] inception_3b/5x5_reduce <- inception_3a/output_inception_3a/output_0_split_2
I0403 15:53:28.931861 14810 net.cpp:399] inception_3b/5x5_reduce -> inception_3b/5x5_reduce
I0403 15:53:28.932871 14810 net.cpp:141] Setting up inception_3b/5x5_reduce
I0403 15:53:28.932903 14810 net.cpp:148] Top shape: 24 32 28 28 (602112)
I0403 15:53:28.932919 14810 net.cpp:156] Memory required for data: 727352352
I0403 15:53:28.932939 14810 layer_factory.hpp:77] Creating layer inception_3b/relu_5x5_reduce
I0403 15:53:28.932956 14810 net.cpp:91] Creating Layer inception_3b/relu_5x5_reduce
I0403 15:53:28.932973 14810 net.cpp:425] inception_3b/relu_5x5_reduce <- inception_3b/5x5_reduce
I0403 15:53:28.932991 14810 net.cpp:386] inception_3b/relu_5x5_reduce -> inception_3b/5x5_reduce (in-place)
I0403 15:53:28.933189 14810 net.cpp:141] Setting up inception_3b/relu_5x5_reduce
I0403 15:53:28.933240 14810 net.cpp:148] Top shape: 24 32 28 28 (602112)
I0403 15:53:28.933256 14810 net.cpp:156] Memory required for data: 729760800
I0403 15:53:28.933271 14810 layer_factory.hpp:77] Creating layer inception_3b/5x5
I0403 15:53:28.933295 14810 net.cpp:91] Creating Layer inception_3b/5x5
I0403 15:53:28.933312 14810 net.cpp:425] inception_3b/5x5 <- inception_3b/5x5_reduce
I0403 15:53:28.933334 14810 net.cpp:399] inception_3b/5x5 -> inception_3b/5x5
I0403 15:53:28.935353 14810 net.cpp:141] Setting up inception_3b/5x5
I0403 15:53:28.935384 14810 net.cpp:148] Top shape: 24 96 28 28 (1806336)
I0403 15:53:28.935401 14810 net.cpp:156] Memory required for data: 736986144
I0403 15:53:28.935420 14810 layer_factory.hpp:77] Creating layer inception_3b/relu_5x5
I0403 15:53:28.935441 14810 net.cpp:91] Creating Layer inception_3b/relu_5x5
I0403 15:53:28.935459 14810 net.cpp:425] inception_3b/relu_5x5 <- inception_3b/5x5
I0403 15:53:28.935477 14810 net.cpp:386] inception_3b/relu_5x5 -> inception_3b/5x5 (in-place)
I0403 15:53:28.935673 14810 net.cpp:141] Setting up inception_3b/relu_5x5
I0403 15:53:28.935700 14810 net.cpp:148] Top shape: 24 96 28 28 (1806336)
I0403 15:53:28.935715 14810 net.cpp:156] Memory required for data: 744211488
I0403 15:53:28.935730 14810 layer_factory.hpp:77] Creating layer inception_3b/pool
I0403 15:53:28.935750 14810 net.cpp:91] Creating Layer inception_3b/pool
I0403 15:53:28.935765 14810 net.cpp:425] inception_3b/pool <- inception_3a/output_inception_3a/output_0_split_3
I0403 15:53:28.935783 14810 net.cpp:399] inception_3b/pool -> inception_3b/pool
I0403 15:53:28.935842 14810 net.cpp:141] Setting up inception_3b/pool
I0403 15:53:28.935866 14810 net.cpp:148] Top shape: 24 256 28 28 (4816896)
I0403 15:53:28.935881 14810 net.cpp:156] Memory required for data: 763479072
I0403 15:53:28.935896 14810 layer_factory.hpp:77] Creating layer inception_3b/pool_proj
I0403 15:53:28.935920 14810 net.cpp:91] Creating Layer inception_3b/pool_proj
I0403 15:53:28.935937 14810 net.cpp:425] inception_3b/pool_proj <- inception_3b/pool
I0403 15:53:28.935958 14810 net.cpp:399] inception_3b/pool_proj -> inception_3b/pool_proj
I0403 15:53:28.937046 14810 net.cpp:141] Setting up inception_3b/pool_proj
I0403 15:53:28.937074 14810 net.cpp:148] Top shape: 24 64 28 28 (1204224)
I0403 15:53:28.937091 14810 net.cpp:156] Memory required for data: 768295968
I0403 15:53:28.937110 14810 layer_factory.hpp:77] Creating layer inception_3b/relu_pool_proj
I0403 15:53:28.937134 14810 net.cpp:91] Creating Layer inception_3b/relu_pool_proj
I0403 15:53:28.937153 14810 net.cpp:425] inception_3b/relu_pool_proj <- inception_3b/pool_proj
I0403 15:53:28.937171 14810 net.cpp:386] inception_3b/relu_pool_proj -> inception_3b/pool_proj (in-place)
I0403 15:53:28.937582 14810 net.cpp:141] Setting up inception_3b/relu_pool_proj
I0403 15:53:28.937610 14810 net.cpp:148] Top shape: 24 64 28 28 (1204224)
I0403 15:53:28.937625 14810 net.cpp:156] Memory required for data: 773112864
I0403 15:53:28.937641 14810 layer_factory.hpp:77] Creating layer inception_3b/output
I0403 15:53:28.937659 14810 net.cpp:91] Creating Layer inception_3b/output
I0403 15:53:28.937676 14810 net.cpp:425] inception_3b/output <- inception_3b/1x1
I0403 15:53:28.937693 14810 net.cpp:425] inception_3b/output <- inception_3b/3x3
I0403 15:53:28.937711 14810 net.cpp:425] inception_3b/output <- inception_3b/5x5
I0403 15:53:28.937726 14810 net.cpp:425] inception_3b/output <- inception_3b/pool_proj
I0403 15:53:28.937746 14810 net.cpp:399] inception_3b/output -> inception_3b/output
I0403 15:53:28.937791 14810 net.cpp:141] Setting up inception_3b/output
I0403 15:53:28.937819 14810 net.cpp:148] Top shape: 24 480 28 28 (9031680)
I0403 15:53:28.937834 14810 net.cpp:156] Memory required for data: 809239584
I0403 15:53:28.937849 14810 layer_factory.hpp:77] Creating layer pool3/3x3_s2
I0403 15:53:28.937866 14810 net.cpp:91] Creating Layer pool3/3x3_s2
I0403 15:53:28.937881 14810 net.cpp:425] pool3/3x3_s2 <- inception_3b/output
I0403 15:53:28.937901 14810 net.cpp:399] pool3/3x3_s2 -> pool3/3x3_s2
I0403 15:53:28.937979 14810 net.cpp:141] Setting up pool3/3x3_s2
I0403 15:53:28.938004 14810 net.cpp:148] Top shape: 24 480 14 14 (2257920)
I0403 15:53:28.938019 14810 net.cpp:156] Memory required for data: 818271264
I0403 15:53:28.938035 14810 layer_factory.hpp:77] Creating layer pool3/3x3_s2_pool3/3x3_s2_0_split
I0403 15:53:28.938065 14810 net.cpp:91] Creating Layer pool3/3x3_s2_pool3/3x3_s2_0_split
I0403 15:53:28.938079 14810 net.cpp:425] pool3/3x3_s2_pool3/3x3_s2_0_split <- pool3/3x3_s2
I0403 15:53:28.938098 14810 net.cpp:399] pool3/3x3_s2_pool3/3x3_s2_0_split -> pool3/3x3_s2_pool3/3x3_s2_0_split_0
I0403 15:53:28.938120 14810 net.cpp:399] pool3/3x3_s2_pool3/3x3_s2_0_split -> pool3/3x3_s2_pool3/3x3_s2_0_split_1
I0403 15:53:28.938148 14810 net.cpp:399] pool3/3x3_s2_pool3/3x3_s2_0_split -> pool3/3x3_s2_pool3/3x3_s2_0_split_2
I0403 15:53:28.938172 14810 net.cpp:399] pool3/3x3_s2_pool3/3x3_s2_0_split -> pool3/3x3_s2_pool3/3x3_s2_0_split_3
I0403 15:53:28.938256 14810 net.cpp:141] Setting up pool3/3x3_s2_pool3/3x3_s2_0_split
I0403 15:53:28.938282 14810 net.cpp:148] Top shape: 24 480 14 14 (2257920)
I0403 15:53:28.938298 14810 net.cpp:148] Top shape: 24 480 14 14 (2257920)
I0403 15:53:28.938313 14810 net.cpp:148] Top shape: 24 480 14 14 (2257920)
I0403 15:53:28.938329 14810 net.cpp:148] Top shape: 24 480 14 14 (2257920)
I0403 15:53:28.938355 14810 net.cpp:156] Memory required for data: 854397984
I0403 15:53:28.938369 14810 layer_factory.hpp:77] Creating layer inception_4a/1x1
I0403 15:53:28.938392 14810 net.cpp:91] Creating Layer inception_4a/1x1
I0403 15:53:28.938422 14810 net.cpp:425] inception_4a/1x1 <- pool3/3x3_s2_pool3/3x3_s2_0_split_0
I0403 15:53:28.938446 14810 net.cpp:399] inception_4a/1x1 -> inception_4a/1x1
I0403 15:53:28.939976 14810 net.cpp:141] Setting up inception_4a/1x1
I0403 15:53:28.940003 14810 net.cpp:148] Top shape: 24 192 14 14 (903168)
I0403 15:53:28.940018 14810 net.cpp:156] Memory required for data: 858010656
I0403 15:53:28.940037 14810 layer_factory.hpp:77] Creating layer inception_4a/relu_1x1
I0403 15:53:28.940057 14810 net.cpp:91] Creating Layer inception_4a/relu_1x1
I0403 15:53:28.940073 14810 net.cpp:425] inception_4a/relu_1x1 <- inception_4a/1x1
I0403 15:53:28.940101 14810 net.cpp:386] inception_4a/relu_1x1 -> inception_4a/1x1 (in-place)
I0403 15:53:28.940281 14810 net.cpp:141] Setting up inception_4a/relu_1x1
I0403 15:53:28.940307 14810 net.cpp:148] Top shape: 24 192 14 14 (903168)
I0403 15:53:28.940322 14810 net.cpp:156] Memory required for data: 861623328
I0403 15:53:28.940337 14810 layer_factory.hpp:77] Creating layer inception_4a/3x3_reduce
I0403 15:53:28.940362 14810 net.cpp:91] Creating Layer inception_4a/3x3_reduce
I0403 15:53:28.940392 14810 net.cpp:425] inception_4a/3x3_reduce <- pool3/3x3_s2_pool3/3x3_s2_0_split_1
I0403 15:53:28.940410 14810 net.cpp:399] inception_4a/3x3_reduce -> inception_4a/3x3_reduce
I0403 15:53:28.941639 14810 net.cpp:141] Setting up inception_4a/3x3_reduce
I0403 15:53:28.941666 14810 net.cpp:148] Top shape: 24 96 14 14 (451584)
I0403 15:53:28.941682 14810 net.cpp:156] Memory required for data: 863429664
I0403 15:53:28.941709 14810 layer_factory.hpp:77] Creating layer inception_4a/relu_3x3_reduce
I0403 15:53:28.941730 14810 net.cpp:91] Creating Layer inception_4a/relu_3x3_reduce
I0403 15:53:28.941745 14810 net.cpp:425] inception_4a/relu_3x3_reduce <- inception_4a/3x3_reduce
I0403 15:53:28.941763 14810 net.cpp:386] inception_4a/relu_3x3_reduce -> inception_4a/3x3_reduce (in-place)
I0403 15:53:28.941932 14810 net.cpp:141] Setting up inception_4a/relu_3x3_reduce
I0403 15:53:28.941957 14810 net.cpp:148] Top shape: 24 96 14 14 (451584)
I0403 15:53:28.941972 14810 net.cpp:156] Memory required for data: 865236000
I0403 15:53:28.941987 14810 layer_factory.hpp:77] Creating layer inception_4a/3x3
I0403 15:53:28.942008 14810 net.cpp:91] Creating Layer inception_4a/3x3
I0403 15:53:28.942026 14810 net.cpp:425] inception_4a/3x3 <- inception_4a/3x3_reduce
I0403 15:53:28.942046 14810 net.cpp:399] inception_4a/3x3 -> inception_4a/3x3
I0403 15:53:28.944669 14810 net.cpp:141] Setting up inception_4a/3x3
I0403 15:53:28.944700 14810 net.cpp:148] Top shape: 24 208 14 14 (978432)
I0403 15:53:28.944718 14810 net.cpp:156] Memory required for data: 869149728
I0403 15:53:28.944736 14810 layer_factory.hpp:77] Creating layer inception_4a/relu_3x3
I0403 15:53:28.944754 14810 net.cpp:91] Creating Layer inception_4a/relu_3x3
I0403 15:53:28.944769 14810 net.cpp:425] inception_4a/relu_3x3 <- inception_4a/3x3
I0403 15:53:28.944787 14810 net.cpp:386] inception_4a/relu_3x3 -> inception_4a/3x3 (in-place)
I0403 15:53:28.945055 14810 net.cpp:141] Setting up inception_4a/relu_3x3
I0403 15:53:28.945081 14810 net.cpp:148] Top shape: 24 208 14 14 (978432)
I0403 15:53:28.945098 14810 net.cpp:156] Memory required for data: 873063456
I0403 15:53:28.945113 14810 layer_factory.hpp:77] Creating layer inception_4a/5x5_reduce
I0403 15:53:28.945137 14810 net.cpp:91] Creating Layer inception_4a/5x5_reduce
I0403 15:53:28.945153 14810 net.cpp:425] inception_4a/5x5_reduce <- pool3/3x3_s2_pool3/3x3_s2_0_split_2
I0403 15:53:28.945174 14810 net.cpp:399] inception_4a/5x5_reduce -> inception_4a/5x5_reduce
I0403 15:53:28.946156 14810 net.cpp:141] Setting up inception_4a/5x5_reduce
I0403 15:53:28.946185 14810 net.cpp:148] Top shape: 24 16 14 14 (75264)
I0403 15:53:28.946202 14810 net.cpp:156] Memory required for data: 873364512
I0403 15:53:28.946219 14810 layer_factory.hpp:77] Creating layer inception_4a/relu_5x5_reduce
I0403 15:53:28.946238 14810 net.cpp:91] Creating Layer inception_4a/relu_5x5_reduce
I0403 15:53:28.946254 14810 net.cpp:425] inception_4a/relu_5x5_reduce <- inception_4a/5x5_reduce
I0403 15:53:28.946269 14810 net.cpp:386] inception_4a/relu_5x5_reduce -> inception_4a/5x5_reduce (in-place)
I0403 15:53:28.946441 14810 net.cpp:141] Setting up inception_4a/relu_5x5_reduce
I0403 15:53:28.946466 14810 net.cpp:148] Top shape: 24 16 14 14 (75264)
I0403 15:53:28.946480 14810 net.cpp:156] Memory required for data: 873665568
I0403 15:53:28.946494 14810 layer_factory.hpp:77] Creating layer inception_4a/5x5
I0403 15:53:28.946516 14810 net.cpp:91] Creating Layer inception_4a/5x5
I0403 15:53:28.946532 14810 net.cpp:425] inception_4a/5x5 <- inception_4a/5x5_reduce
I0403 15:53:28.946555 14810 net.cpp:399] inception_4a/5x5 -> inception_4a/5x5
I0403 15:53:28.947602 14810 net.cpp:141] Setting up inception_4a/5x5
I0403 15:53:28.947628 14810 net.cpp:148] Top shape: 24 48 14 14 (225792)
I0403 15:53:28.947643 14810 net.cpp:156] Memory required for data: 874568736
I0403 15:53:28.947661 14810 layer_factory.hpp:77] Creating layer inception_4a/relu_5x5
I0403 15:53:28.947679 14810 net.cpp:91] Creating Layer inception_4a/relu_5x5
I0403 15:53:28.947695 14810 net.cpp:425] inception_4a/relu_5x5 <- inception_4a/5x5
I0403 15:53:28.947713 14810 net.cpp:386] inception_4a/relu_5x5 -> inception_4a/5x5 (in-place)
I0403 15:53:28.947885 14810 net.cpp:141] Setting up inception_4a/relu_5x5
I0403 15:53:28.947908 14810 net.cpp:148] Top shape: 24 48 14 14 (225792)
I0403 15:53:28.947922 14810 net.cpp:156] Memory required for data: 875471904
I0403 15:53:28.947937 14810 layer_factory.hpp:77] Creating layer inception_4a/pool
I0403 15:53:28.947957 14810 net.cpp:91] Creating Layer inception_4a/pool
I0403 15:53:28.947973 14810 net.cpp:425] inception_4a/pool <- pool3/3x3_s2_pool3/3x3_s2_0_split_3
I0403 15:53:28.947990 14810 net.cpp:399] inception_4a/pool -> inception_4a/pool
I0403 15:53:28.948050 14810 net.cpp:141] Setting up inception_4a/pool
I0403 15:53:28.948074 14810 net.cpp:148] Top shape: 24 480 14 14 (2257920)
I0403 15:53:28.948088 14810 net.cpp:156] Memory required for data: 884503584
I0403 15:53:28.948103 14810 layer_factory.hpp:77] Creating layer inception_4a/pool_proj
I0403 15:53:28.948127 14810 net.cpp:91] Creating Layer inception_4a/pool_proj
I0403 15:53:28.948148 14810 net.cpp:425] inception_4a/pool_proj <- inception_4a/pool
I0403 15:53:28.948168 14810 net.cpp:399] inception_4a/pool_proj -> inception_4a/pool_proj
I0403 15:53:28.949301 14810 net.cpp:141] Setting up inception_4a/pool_proj
I0403 15:53:28.949329 14810 net.cpp:148] Top shape: 24 64 14 14 (301056)
I0403 15:53:28.949373 14810 net.cpp:156] Memory required for data: 885707808
I0403 15:53:28.949393 14810 layer_factory.hpp:77] Creating layer inception_4a/relu_pool_proj
I0403 15:53:28.949412 14810 net.cpp:91] Creating Layer inception_4a/relu_pool_proj
I0403 15:53:28.949429 14810 net.cpp:425] inception_4a/relu_pool_proj <- inception_4a/pool_proj
I0403 15:53:28.949446 14810 net.cpp:386] inception_4a/relu_pool_proj -> inception_4a/pool_proj (in-place)
I0403 15:53:28.949720 14810 net.cpp:141] Setting up inception_4a/relu_pool_proj
I0403 15:53:28.949748 14810 net.cpp:148] Top shape: 24 64 14 14 (301056)
I0403 15:53:28.949761 14810 net.cpp:156] Memory required for data: 886912032
I0403 15:53:28.949776 14810 layer_factory.hpp:77] Creating layer inception_4a/output
I0403 15:53:28.949793 14810 net.cpp:91] Creating Layer inception_4a/output
I0403 15:53:28.949807 14810 net.cpp:425] inception_4a/output <- inception_4a/1x1
I0403 15:53:28.949823 14810 net.cpp:425] inception_4a/output <- inception_4a/3x3
I0403 15:53:28.949839 14810 net.cpp:425] inception_4a/output <- inception_4a/5x5
I0403 15:53:28.949854 14810 net.cpp:425] inception_4a/output <- inception_4a/pool_proj
I0403 15:53:28.949873 14810 net.cpp:399] inception_4a/output -> inception_4a/output
I0403 15:53:28.949921 14810 net.cpp:141] Setting up inception_4a/output
I0403 15:53:28.949945 14810 net.cpp:148] Top shape: 24 512 14 14 (2408448)
I0403 15:53:28.949959 14810 net.cpp:156] Memory required for data: 896545824
I0403 15:53:28.949973 14810 layer_factory.hpp:77] Creating layer inception_4a/output_inception_4a/output_0_split
I0403 15:53:28.949990 14810 net.cpp:91] Creating Layer inception_4a/output_inception_4a/output_0_split
I0403 15:53:28.950004 14810 net.cpp:425] inception_4a/output_inception_4a/output_0_split <- inception_4a/output
I0403 15:53:28.950026 14810 net.cpp:399] inception_4a/output_inception_4a/output_0_split -> inception_4a/output_inception_4a/output_0_split_0
I0403 15:53:28.950048 14810 net.cpp:399] inception_4a/output_inception_4a/output_0_split -> inception_4a/output_inception_4a/output_0_split_1
I0403 15:53:28.950069 14810 net.cpp:399] inception_4a/output_inception_4a/output_0_split -> inception_4a/output_inception_4a/output_0_split_2
I0403 15:53:28.950089 14810 net.cpp:399] inception_4a/output_inception_4a/output_0_split -> inception_4a/output_inception_4a/output_0_split_3
I0403 15:53:28.950110 14810 net.cpp:399] inception_4a/output_inception_4a/output_0_split -> inception_4a/output_inception_4a/output_0_split_4
I0403 15:53:28.950235 14810 net.cpp:141] Setting up inception_4a/output_inception_4a/output_0_split
I0403 15:53:28.950263 14810 net.cpp:148] Top shape: 24 512 14 14 (2408448)
I0403 15:53:28.950281 14810 net.cpp:148] Top shape: 24 512 14 14 (2408448)
I0403 15:53:28.950299 14810 net.cpp:148] Top shape: 24 512 14 14 (2408448)
I0403 15:53:28.950314 14810 net.cpp:148] Top shape: 24 512 14 14 (2408448)
I0403 15:53:28.950330 14810 net.cpp:148] Top shape: 24 512 14 14 (2408448)
I0403 15:53:28.950345 14810 net.cpp:156] Memory required for data: 944714784
I0403 15:53:28.950361 14810 layer_factory.hpp:77] Creating layer loss1/ave_pool
I0403 15:53:28.950378 14810 net.cpp:91] Creating Layer loss1/ave_pool
I0403 15:53:28.950395 14810 net.cpp:425] loss1/ave_pool <- inception_4a/output_inception_4a/output_0_split_0
I0403 15:53:28.950417 14810 net.cpp:399] loss1/ave_pool -> loss1/ave_pool
I0403 15:53:28.950654 14810 net.cpp:141] Setting up loss1/ave_pool
I0403 15:53:28.950680 14810 net.cpp:148] Top shape: 24 512 4 4 (196608)
I0403 15:53:28.950695 14810 net.cpp:156] Memory required for data: 945501216
I0403 15:53:28.950709 14810 layer_factory.hpp:77] Creating layer loss1/conv
I0403 15:53:28.950731 14810 net.cpp:91] Creating Layer loss1/conv
I0403 15:53:28.950749 14810 net.cpp:425] loss1/conv <- loss1/ave_pool
I0403 15:53:28.950770 14810 net.cpp:399] loss1/conv -> loss1/conv
I0403 15:53:28.952190 14810 net.cpp:141] Setting up loss1/conv
I0403 15:53:28.952221 14810 net.cpp:148] Top shape: 24 128 4 4 (49152)
I0403 15:53:28.952237 14810 net.cpp:156] Memory required for data: 945697824
I0403 15:53:28.952271 14810 layer_factory.hpp:77] Creating layer loss1/relu_conv
I0403 15:53:28.952291 14810 net.cpp:91] Creating Layer loss1/relu_conv
I0403 15:53:28.952307 14810 net.cpp:425] loss1/relu_conv <- loss1/conv
I0403 15:53:28.952325 14810 net.cpp:386] loss1/relu_conv -> loss1/conv (in-place)
I0403 15:53:28.952625 14810 net.cpp:141] Setting up loss1/relu_conv
I0403 15:53:28.952656 14810 net.cpp:148] Top shape: 24 128 4 4 (49152)
I0403 15:53:28.952673 14810 net.cpp:156] Memory required for data: 945894432
I0403 15:53:28.952688 14810 layer_factory.hpp:77] Creating layer loss1/fc
I0403 15:53:28.952713 14810 net.cpp:91] Creating Layer loss1/fc
I0403 15:53:28.952731 14810 net.cpp:425] loss1/fc <- loss1/conv
I0403 15:53:28.952754 14810 net.cpp:399] loss1/fc -> loss1/fc
I0403 15:53:28.970636 14810 net.cpp:141] Setting up loss1/fc
I0403 15:53:28.970682 14810 net.cpp:148] Top shape: 24 1024 (24576)
I0403 15:53:28.970697 14810 net.cpp:156] Memory required for data: 945992736
I0403 15:53:28.970715 14810 layer_factory.hpp:77] Creating layer loss1/relu_fc
I0403 15:53:28.970736 14810 net.cpp:91] Creating Layer loss1/relu_fc
I0403 15:53:28.970752 14810 net.cpp:425] loss1/relu_fc <- loss1/fc
I0403 15:53:28.970769 14810 net.cpp:386] loss1/relu_fc -> loss1/fc (in-place)
I0403 15:53:28.970964 14810 net.cpp:141] Setting up loss1/relu_fc
I0403 15:53:28.970989 14810 net.cpp:148] Top shape: 24 1024 (24576)
I0403 15:53:28.971004 14810 net.cpp:156] Memory required for data: 946091040
I0403 15:53:28.971016 14810 layer_factory.hpp:77] Creating layer loss1/drop_fc
I0403 15:53:28.971046 14810 net.cpp:91] Creating Layer loss1/drop_fc
I0403 15:53:28.971063 14810 net.cpp:425] loss1/drop_fc <- loss1/fc
I0403 15:53:28.971081 14810 net.cpp:386] loss1/drop_fc -> loss1/fc (in-place)
I0403 15:53:28.971138 14810 net.cpp:141] Setting up loss1/drop_fc
I0403 15:53:28.971160 14810 net.cpp:148] Top shape: 24 1024 (24576)
I0403 15:53:28.971174 14810 net.cpp:156] Memory required for data: 946189344
I0403 15:53:28.971189 14810 layer_factory.hpp:77] Creating layer loss1/classifier_plantvillage
I0403 15:53:28.971206 14810 net.cpp:91] Creating Layer loss1/classifier_plantvillage
I0403 15:53:28.971221 14810 net.cpp:425] loss1/classifier_plantvillage <- loss1/fc
I0403 15:53:28.971243 14810 net.cpp:399] loss1/classifier_plantvillage -> loss1/classifier_plantvillage
I0403 15:53:28.972121 14810 net.cpp:141] Setting up loss1/classifier_plantvillage
I0403 15:53:28.972169 14810 net.cpp:148] Top shape: 24 38 (912)
I0403 15:53:28.972187 14810 net.cpp:156] Memory required for data: 946192992
I0403 15:53:28.972205 14810 layer_factory.hpp:77] Creating layer loss1/classifier_plantvillage_loss1/classifier_plantvillage_0_split
I0403 15:53:28.972223 14810 net.cpp:91] Creating Layer loss1/classifier_plantvillage_loss1/classifier_plantvillage_0_split
I0403 15:53:28.972239 14810 net.cpp:425] loss1/classifier_plantvillage_loss1/classifier_plantvillage_0_split <- loss1/classifier_plantvillage
I0403 15:53:28.972255 14810 net.cpp:399] loss1/classifier_plantvillage_loss1/classifier_plantvillage_0_split -> loss1/classifier_plantvillage_loss1/classifier_plantvillage_0_split_0
I0403 15:53:28.972276 14810 net.cpp:399] loss1/classifier_plantvillage_loss1/classifier_plantvillage_0_split -> loss1/classifier_plantvillage_loss1/classifier_plantvillage_0_split_1
I0403 15:53:28.972297 14810 net.cpp:399] loss1/classifier_plantvillage_loss1/classifier_plantvillage_0_split -> loss1/classifier_plantvillage_loss1/classifier_plantvillage_0_split_2
I0403 15:53:28.972365 14810 net.cpp:141] Setting up loss1/classifier_plantvillage_loss1/classifier_plantvillage_0_split
I0403 15:53:28.972388 14810 net.cpp:148] Top shape: 24 38 (912)
I0403 15:53:28.972404 14810 net.cpp:148] Top shape: 24 38 (912)
I0403 15:53:28.972419 14810 net.cpp:148] Top shape: 24 38 (912)
I0403 15:53:28.972445 14810 net.cpp:156] Memory required for data: 946203936
I0403 15:53:28.972458 14810 layer_factory.hpp:77] Creating layer inception_4b/1x1
I0403 15:53:28.972478 14810 net.cpp:91] Creating Layer inception_4b/1x1
I0403 15:53:28.972513 14810 net.cpp:425] inception_4b/1x1 <- inception_4a/output_inception_4a/output_0_split_1
I0403 15:53:28.972535 14810 net.cpp:399] inception_4b/1x1 -> inception_4b/1x1
I0403 15:53:28.974164 14810 net.cpp:141] Setting up inception_4b/1x1
I0403 15:53:28.974200 14810 net.cpp:148] Top shape: 24 160 14 14 (752640)
I0403 15:53:28.974216 14810 net.cpp:156] Memory required for data: 949214496
I0403 15:53:28.974234 14810 layer_factory.hpp:77] Creating layer inception_4b/relu_1x1
I0403 15:53:28.974251 14810 net.cpp:91] Creating Layer inception_4b/relu_1x1
I0403 15:53:28.974267 14810 net.cpp:425] inception_4b/relu_1x1 <- inception_4b/1x1
I0403 15:53:28.974283 14810 net.cpp:386] inception_4b/relu_1x1 -> inception_4b/1x1 (in-place)
I0403 15:53:28.974459 14810 net.cpp:141] Setting up inception_4b/relu_1x1
I0403 15:53:28.974484 14810 net.cpp:148] Top shape: 24 160 14 14 (752640)
I0403 15:53:28.974499 14810 net.cpp:156] Memory required for data: 952225056
I0403 15:53:28.974514 14810 layer_factory.hpp:77] Creating layer inception_4b/3x3_reduce
I0403 15:53:28.974535 14810 net.cpp:91] Creating Layer inception_4b/3x3_reduce
I0403 15:53:28.974553 14810 net.cpp:425] inception_4b/3x3_reduce <- inception_4a/output_inception_4a/output_0_split_2
I0403 15:53:28.974572 14810 net.cpp:399] inception_4b/3x3_reduce -> inception_4b/3x3_reduce
I0403 15:53:28.975885 14810 net.cpp:141] Setting up inception_4b/3x3_reduce
I0403 15:53:28.975916 14810 net.cpp:148] Top shape: 24 112 14 14 (526848)
I0403 15:53:28.975934 14810 net.cpp:156] Memory required for data: 954332448
I0403 15:53:28.975952 14810 layer_factory.hpp:77] Creating layer inception_4b/relu_3x3_reduce
I0403 15:53:28.975968 14810 net.cpp:91] Creating Layer inception_4b/relu_3x3_reduce
I0403 15:53:28.975983 14810 net.cpp:425] inception_4b/relu_3x3_reduce <- inception_4b/3x3_reduce
I0403 15:53:28.976001 14810 net.cpp:386] inception_4b/relu_3x3_reduce -> inception_4b/3x3_reduce (in-place)
I0403 15:53:28.976279 14810 net.cpp:141] Setting up inception_4b/relu_3x3_reduce
I0403 15:53:28.976306 14810 net.cpp:148] Top shape: 24 112 14 14 (526848)
I0403 15:53:28.976321 14810 net.cpp:156] Memory required for data: 956439840
I0403 15:53:28.976336 14810 layer_factory.hpp:77] Creating layer inception_4b/3x3
I0403 15:53:28.976358 14810 net.cpp:91] Creating Layer inception_4b/3x3
I0403 15:53:28.976374 14810 net.cpp:425] inception_4b/3x3 <- inception_4b/3x3_reduce
I0403 15:53:28.976397 14810 net.cpp:399] inception_4b/3x3 -> inception_4b/3x3
I0403 15:53:28.979270 14810 net.cpp:141] Setting up inception_4b/3x3
I0403 15:53:28.979298 14810 net.cpp:148] Top shape: 24 224 14 14 (1053696)
I0403 15:53:28.979315 14810 net.cpp:156] Memory required for data: 960654624
I0403 15:53:28.979332 14810 layer_factory.hpp:77] Creating layer inception_4b/relu_3x3
I0403 15:53:28.979352 14810 net.cpp:91] Creating Layer inception_4b/relu_3x3
I0403 15:53:28.979368 14810 net.cpp:425] inception_4b/relu_3x3 <- inception_4b/3x3
I0403 15:53:28.979385 14810 net.cpp:386] inception_4b/relu_3x3 -> inception_4b/3x3 (in-place)
I0403 15:53:28.979562 14810 net.cpp:141] Setting up inception_4b/relu_3x3
I0403 15:53:28.979586 14810 net.cpp:148] Top shape: 24 224 14 14 (1053696)
I0403 15:53:28.979601 14810 net.cpp:156] Memory required for data: 964869408
I0403 15:53:28.979615 14810 layer_factory.hpp:77] Creating layer inception_4b/5x5_reduce
I0403 15:53:28.979640 14810 net.cpp:91] Creating Layer inception_4b/5x5_reduce
I0403 15:53:28.979657 14810 net.cpp:425] inception_4b/5x5_reduce <- inception_4a/output_inception_4a/output_0_split_3
I0403 15:53:28.979676 14810 net.cpp:399] inception_4b/5x5_reduce -> inception_4b/5x5_reduce
I0403 15:53:28.980729 14810 net.cpp:141] Setting up inception_4b/5x5_reduce
I0403 15:53:28.980761 14810 net.cpp:148] Top shape: 24 24 14 14 (112896)
I0403 15:53:28.980777 14810 net.cpp:156] Memory required for data: 965320992
I0403 15:53:28.980795 14810 layer_factory.hpp:77] Creating layer inception_4b/relu_5x5_reduce
I0403 15:53:28.980813 14810 net.cpp:91] Creating Layer inception_4b/relu_5x5_reduce
I0403 15:53:28.980844 14810 net.cpp:425] inception_4b/relu_5x5_reduce <- inception_4b/5x5_reduce
I0403 15:53:28.980865 14810 net.cpp:386] inception_4b/relu_5x5_reduce -> inception_4b/5x5_reduce (in-place)
I0403 15:53:28.981041 14810 net.cpp:141] Setting up inception_4b/relu_5x5_reduce
I0403 15:53:28.981066 14810 net.cpp:148] Top shape: 24 24 14 14 (112896)
I0403 15:53:28.981081 14810 net.cpp:156] Memory required for data: 965772576
I0403 15:53:28.981094 14810 layer_factory.hpp:77] Creating layer inception_4b/5x5
I0403 15:53:28.981117 14810 net.cpp:91] Creating Layer inception_4b/5x5
I0403 15:53:28.981137 14810 net.cpp:425] inception_4b/5x5 <- inception_4b/5x5_reduce
I0403 15:53:28.981161 14810 net.cpp:399] inception_4b/5x5 -> inception_4b/5x5
I0403 15:53:28.982353 14810 net.cpp:141] Setting up inception_4b/5x5
I0403 15:53:28.982384 14810 net.cpp:148] Top shape: 24 64 14 14 (301056)
I0403 15:53:28.982400 14810 net.cpp:156] Memory required for data: 966976800
I0403 15:53:28.982419 14810 layer_factory.hpp:77] Creating layer inception_4b/relu_5x5
I0403 15:53:28.982436 14810 net.cpp:91] Creating Layer inception_4b/relu_5x5
I0403 15:53:28.982452 14810 net.cpp:425] inception_4b/relu_5x5 <- inception_4b/5x5
I0403 15:53:28.982468 14810 net.cpp:386] inception_4b/relu_5x5 -> inception_4b/5x5 (in-place)
I0403 15:53:28.982746 14810 net.cpp:141] Setting up inception_4b/relu_5x5
I0403 15:53:28.982775 14810 net.cpp:148] Top shape: 24 64 14 14 (301056)
I0403 15:53:28.982790 14810 net.cpp:156] Memory required for data: 968181024
I0403 15:53:28.982805 14810 layer_factory.hpp:77] Creating layer inception_4b/pool
I0403 15:53:28.982822 14810 net.cpp:91] Creating Layer inception_4b/pool
I0403 15:53:28.982837 14810 net.cpp:425] inception_4b/pool <- inception_4a/output_inception_4a/output_0_split_4
I0403 15:53:28.982854 14810 net.cpp:399] inception_4b/pool -> inception_4b/pool
I0403 15:53:28.982920 14810 net.cpp:141] Setting up inception_4b/pool
I0403 15:53:28.982944 14810 net.cpp:148] Top shape: 24 512 14 14 (2408448)
I0403 15:53:28.982959 14810 net.cpp:156] Memory required for data: 977814816
I0403 15:53:28.982974 14810 layer_factory.hpp:77] Creating layer inception_4b/pool_proj
I0403 15:53:28.982995 14810 net.cpp:91] Creating Layer inception_4b/pool_proj
I0403 15:53:28.983013 14810 net.cpp:425] inception_4b/pool_proj <- inception_4b/pool
I0403 15:53:28.983033 14810 net.cpp:399] inception_4b/pool_proj -> inception_4b/pool_proj
I0403 15:53:28.984220 14810 net.cpp:141] Setting up inception_4b/pool_proj
I0403 15:53:28.984251 14810 net.cpp:148] Top shape: 24 64 14 14 (301056)
I0403 15:53:28.984267 14810 net.cpp:156] Memory required for data: 979019040
I0403 15:53:28.984285 14810 layer_factory.hpp:77] Creating layer inception_4b/relu_pool_proj
I0403 15:53:28.984302 14810 net.cpp:91] Creating Layer inception_4b/relu_pool_proj
I0403 15:53:28.984319 14810 net.cpp:425] inception_4b/relu_pool_proj <- inception_4b/pool_proj
I0403 15:53:28.984338 14810 net.cpp:386] inception_4b/relu_pool_proj -> inception_4b/pool_proj (in-place)
I0403 15:53:28.984515 14810 net.cpp:141] Setting up inception_4b/relu_pool_proj
I0403 15:53:28.984540 14810 net.cpp:148] Top shape: 24 64 14 14 (301056)
I0403 15:53:28.984555 14810 net.cpp:156] Memory required for data: 980223264
I0403 15:53:28.984570 14810 layer_factory.hpp:77] Creating layer inception_4b/output
I0403 15:53:28.984586 14810 net.cpp:91] Creating Layer inception_4b/output
I0403 15:53:28.984601 14810 net.cpp:425] inception_4b/output <- inception_4b/1x1
I0403 15:53:28.984617 14810 net.cpp:425] inception_4b/output <- inception_4b/3x3
I0403 15:53:28.984633 14810 net.cpp:425] inception_4b/output <- inception_4b/5x5
I0403 15:53:28.984647 14810 net.cpp:425] inception_4b/output <- inception_4b/pool_proj
I0403 15:53:28.984666 14810 net.cpp:399] inception_4b/output -> inception_4b/output
I0403 15:53:28.984711 14810 net.cpp:141] Setting up inception_4b/output
I0403 15:53:28.984737 14810 net.cpp:148] Top shape: 24 512 14 14 (2408448)
I0403 15:53:28.984752 14810 net.cpp:156] Memory required for data: 989857056
I0403 15:53:28.984783 14810 layer_factory.hpp:77] Creating layer inception_4b/output_inception_4b/output_0_split
I0403 15:53:28.984800 14810 net.cpp:91] Creating Layer inception_4b/output_inception_4b/output_0_split
I0403 15:53:28.984815 14810 net.cpp:425] inception_4b/output_inception_4b/output_0_split <- inception_4b/output
I0403 15:53:28.984835 14810 net.cpp:399] inception_4b/output_inception_4b/output_0_split -> inception_4b/output_inception_4b/output_0_split_0
I0403 15:53:28.984856 14810 net.cpp:399] inception_4b/output_inception_4b/output_0_split -> inception_4b/output_inception_4b/output_0_split_1
I0403 15:53:28.984875 14810 net.cpp:399] inception_4b/output_inception_4b/output_0_split -> inception_4b/output_inception_4b/output_0_split_2
I0403 15:53:28.984894 14810 net.cpp:399] inception_4b/output_inception_4b/output_0_split -> inception_4b/output_inception_4b/output_0_split_3
I0403 15:53:28.984972 14810 net.cpp:141] Setting up inception_4b/output_inception_4b/output_0_split
I0403 15:53:28.984995 14810 net.cpp:148] Top shape: 24 512 14 14 (2408448)
I0403 15:53:28.985010 14810 net.cpp:148] Top shape: 24 512 14 14 (2408448)
I0403 15:53:28.985025 14810 net.cpp:148] Top shape: 24 512 14 14 (2408448)
I0403 15:53:28.985040 14810 net.cpp:148] Top shape: 24 512 14 14 (2408448)
I0403 15:53:28.985054 14810 net.cpp:156] Memory required for data: 1028392224
I0403 15:53:28.985067 14810 layer_factory.hpp:77] Creating layer inception_4c/1x1
I0403 15:53:28.985090 14810 net.cpp:91] Creating Layer inception_4c/1x1
I0403 15:53:28.985106 14810 net.cpp:425] inception_4c/1x1 <- inception_4b/output_inception_4b/output_0_split_0
I0403 15:53:28.985131 14810 net.cpp:399] inception_4c/1x1 -> inception_4c/1x1
I0403 15:53:28.986533 14810 net.cpp:141] Setting up inception_4c/1x1
I0403 15:53:28.986562 14810 net.cpp:148] Top shape: 24 128 14 14 (602112)
I0403 15:53:28.986577 14810 net.cpp:156] Memory required for data: 1030800672
I0403 15:53:28.986594 14810 layer_factory.hpp:77] Creating layer inception_4c/relu_1x1
I0403 15:53:28.986615 14810 net.cpp:91] Creating Layer inception_4c/relu_1x1
I0403 15:53:28.986634 14810 net.cpp:425] inception_4c/relu_1x1 <- inception_4c/1x1
I0403 15:53:28.986650 14810 net.cpp:386] inception_4c/relu_1x1 -> inception_4c/1x1 (in-place)
I0403 15:53:28.986837 14810 net.cpp:141] Setting up inception_4c/relu_1x1
I0403 15:53:28.986861 14810 net.cpp:148] Top shape: 24 128 14 14 (602112)
I0403 15:53:28.986876 14810 net.cpp:156] Memory required for data: 1033209120
I0403 15:53:28.986891 14810 layer_factory.hpp:77] Creating layer inception_4c/3x3_reduce
I0403 15:53:28.986912 14810 net.cpp:91] Creating Layer inception_4c/3x3_reduce
I0403 15:53:28.986929 14810 net.cpp:425] inception_4c/3x3_reduce <- inception_4b/output_inception_4b/output_0_split_1
I0403 15:53:28.986949 14810 net.cpp:399] inception_4c/3x3_reduce -> inception_4c/3x3_reduce
I0403 15:53:28.988827 14810 net.cpp:141] Setting up inception_4c/3x3_reduce
I0403 15:53:28.988857 14810 net.cpp:148] Top shape: 24 128 14 14 (602112)
I0403 15:53:28.988872 14810 net.cpp:156] Memory required for data: 1035617568
I0403 15:53:28.988889 14810 layer_factory.hpp:77] Creating layer inception_4c/relu_3x3_reduce
I0403 15:53:28.988909 14810 net.cpp:91] Creating Layer inception_4c/relu_3x3_reduce
I0403 15:53:28.988927 14810 net.cpp:425] inception_4c/relu_3x3_reduce <- inception_4c/3x3_reduce
I0403 15:53:28.988943 14810 net.cpp:386] inception_4c/relu_3x3_reduce -> inception_4c/3x3_reduce (in-place)
I0403 15:53:28.989224 14810 net.cpp:141] Setting up inception_4c/relu_3x3_reduce
I0403 15:53:28.989251 14810 net.cpp:148] Top shape: 24 128 14 14 (602112)
I0403 15:53:28.989266 14810 net.cpp:156] Memory required for data: 1038026016
I0403 15:53:28.989280 14810 layer_factory.hpp:77] Creating layer inception_4c/3x3
I0403 15:53:28.989305 14810 net.cpp:91] Creating Layer inception_4c/3x3
I0403 15:53:28.989322 14810 net.cpp:425] inception_4c/3x3 <- inception_4c/3x3_reduce
I0403 15:53:28.989341 14810 net.cpp:399] inception_4c/3x3 -> inception_4c/3x3
I0403 15:53:28.992813 14810 net.cpp:141] Setting up inception_4c/3x3
I0403 15:53:28.992856 14810 net.cpp:148] Top shape: 24 256 14 14 (1204224)
I0403 15:53:28.992873 14810 net.cpp:156] Memory required for data: 1042842912
I0403 15:53:28.992907 14810 layer_factory.hpp:77] Creating layer inception_4c/relu_3x3
I0403 15:53:28.992926 14810 net.cpp:91] Creating Layer inception_4c/relu_3x3
I0403 15:53:28.992941 14810 net.cpp:425] inception_4c/relu_3x3 <- inception_4c/3x3
I0403 15:53:28.992957 14810 net.cpp:386] inception_4c/relu_3x3 -> inception_4c/3x3 (in-place)
I0403 15:53:28.993144 14810 net.cpp:141] Setting up inception_4c/relu_3x3
I0403 15:53:28.993171 14810 net.cpp:148] Top shape: 24 256 14 14 (1204224)
I0403 15:53:28.993187 14810 net.cpp:156] Memory required for data: 1047659808
I0403 15:53:28.993203 14810 layer_factory.hpp:77] Creating layer inception_4c/5x5_reduce
I0403 15:53:28.993227 14810 net.cpp:91] Creating Layer inception_4c/5x5_reduce
I0403 15:53:28.993244 14810 net.cpp:425] inception_4c/5x5_reduce <- inception_4b/output_inception_4b/output_0_split_2
I0403 15:53:28.993263 14810 net.cpp:399] inception_4c/5x5_reduce -> inception_4c/5x5_reduce
I0403 15:53:28.994308 14810 net.cpp:141] Setting up inception_4c/5x5_reduce
I0403 15:53:28.994338 14810 net.cpp:148] Top shape: 24 24 14 14 (112896)
I0403 15:53:28.994356 14810 net.cpp:156] Memory required for data: 1048111392
I0403 15:53:28.994374 14810 layer_factory.hpp:77] Creating layer inception_4c/relu_5x5_reduce
I0403 15:53:28.994391 14810 net.cpp:91] Creating Layer inception_4c/relu_5x5_reduce
I0403 15:53:28.994406 14810 net.cpp:425] inception_4c/relu_5x5_reduce <- inception_4c/5x5_reduce
I0403 15:53:28.994426 14810 net.cpp:386] inception_4c/relu_5x5_reduce -> inception_4c/5x5_reduce (in-place)
I0403 15:53:28.994606 14810 net.cpp:141] Setting up inception_4c/relu_5x5_reduce
I0403 15:53:28.994629 14810 net.cpp:148] Top shape: 24 24 14 14 (112896)
I0403 15:53:28.994644 14810 net.cpp:156] Memory required for data: 1048562976
I0403 15:53:28.994658 14810 layer_factory.hpp:77] Creating layer inception_4c/5x5
I0403 15:53:28.994678 14810 net.cpp:91] Creating Layer inception_4c/5x5
I0403 15:53:28.994696 14810 net.cpp:425] inception_4c/5x5 <- inception_4c/5x5_reduce
I0403 15:53:28.994716 14810 net.cpp:399] inception_4c/5x5 -> inception_4c/5x5
I0403 15:53:28.995926 14810 net.cpp:141] Setting up inception_4c/5x5
I0403 15:53:28.995954 14810 net.cpp:148] Top shape: 24 64 14 14 (301056)
I0403 15:53:28.995970 14810 net.cpp:156] Memory required for data: 1049767200
I0403 15:53:28.995987 14810 layer_factory.hpp:77] Creating layer inception_4c/relu_5x5
I0403 15:53:28.996007 14810 net.cpp:91] Creating Layer inception_4c/relu_5x5
I0403 15:53:28.996023 14810 net.cpp:425] inception_4c/relu_5x5 <- inception_4c/5x5
I0403 15:53:28.996039 14810 net.cpp:386] inception_4c/relu_5x5 -> inception_4c/5x5 (in-place)
I0403 15:53:28.996332 14810 net.cpp:141] Setting up inception_4c/relu_5x5
I0403 15:53:28.996358 14810 net.cpp:148] Top shape: 24 64 14 14 (301056)
I0403 15:53:28.996373 14810 net.cpp:156] Memory required for data: 1050971424
I0403 15:53:28.996387 14810 layer_factory.hpp:77] Creating layer inception_4c/pool
I0403 15:53:28.996404 14810 net.cpp:91] Creating Layer inception_4c/pool
I0403 15:53:28.996419 14810 net.cpp:425] inception_4c/pool <- inception_4b/output_inception_4b/output_0_split_3
I0403 15:53:28.996438 14810 net.cpp:399] inception_4c/pool -> inception_4c/pool
I0403 15:53:28.996503 14810 net.cpp:141] Setting up inception_4c/pool
I0403 15:53:28.996527 14810 net.cpp:148] Top shape: 24 512 14 14 (2408448)
I0403 15:53:28.996541 14810 net.cpp:156] Memory required for data: 1060605216
I0403 15:53:28.996556 14810 layer_factory.hpp:77] Creating layer inception_4c/pool_proj
I0403 15:53:28.996577 14810 net.cpp:91] Creating Layer inception_4c/pool_proj
I0403 15:53:28.996595 14810 net.cpp:425] inception_4c/pool_proj <- inception_4c/pool
I0403 15:53:28.996615 14810 net.cpp:399] inception_4c/pool_proj -> inception_4c/pool_proj
I0403 15:53:28.997799 14810 net.cpp:141] Setting up inception_4c/pool_proj
I0403 15:53:28.997831 14810 net.cpp:148] Top shape: 24 64 14 14 (301056)
I0403 15:53:28.997860 14810 net.cpp:156] Memory required for data: 1061809440
I0403 15:53:28.997879 14810 layer_factory.hpp:77] Creating layer inception_4c/relu_pool_proj
I0403 15:53:28.997895 14810 net.cpp:91] Creating Layer inception_4c/relu_pool_proj
I0403 15:53:28.997911 14810 net.cpp:425] inception_4c/relu_pool_proj <- inception_4c/pool_proj
I0403 15:53:28.997927 14810 net.cpp:386] inception_4c/relu_pool_proj -> inception_4c/pool_proj (in-place)
I0403 15:53:28.998108 14810 net.cpp:141] Setting up inception_4c/relu_pool_proj
I0403 15:53:28.998137 14810 net.cpp:148] Top shape: 24 64 14 14 (301056)
I0403 15:53:28.998153 14810 net.cpp:156] Memory required for data: 1063013664
I0403 15:53:28.998167 14810 layer_factory.hpp:77] Creating layer inception_4c/output
I0403 15:53:28.998183 14810 net.cpp:91] Creating Layer inception_4c/output
I0403 15:53:28.998200 14810 net.cpp:425] inception_4c/output <- inception_4c/1x1
I0403 15:53:28.998216 14810 net.cpp:425] inception_4c/output <- inception_4c/3x3
I0403 15:53:28.998232 14810 net.cpp:425] inception_4c/output <- inception_4c/5x5
I0403 15:53:28.998247 14810 net.cpp:425] inception_4c/output <- inception_4c/pool_proj
I0403 15:53:28.998266 14810 net.cpp:399] inception_4c/output -> inception_4c/output
I0403 15:53:28.998311 14810 net.cpp:141] Setting up inception_4c/output
I0403 15:53:28.998337 14810 net.cpp:148] Top shape: 24 512 14 14 (2408448)
I0403 15:53:28.998353 14810 net.cpp:156] Memory required for data: 1072647456
I0403 15:53:28.998366 14810 layer_factory.hpp:77] Creating layer inception_4c/output_inception_4c/output_0_split
I0403 15:53:28.998383 14810 net.cpp:91] Creating Layer inception_4c/output_inception_4c/output_0_split
I0403 15:53:28.998399 14810 net.cpp:425] inception_4c/output_inception_4c/output_0_split <- inception_4c/output
I0403 15:53:28.998417 14810 net.cpp:399] inception_4c/output_inception_4c/output_0_split -> inception_4c/output_inception_4c/output_0_split_0
I0403 15:53:28.998438 14810 net.cpp:399] inception_4c/output_inception_4c/output_0_split -> inception_4c/output_inception_4c/output_0_split_1
I0403 15:53:28.998459 14810 net.cpp:399] inception_4c/output_inception_4c/output_0_split -> inception_4c/output_inception_4c/output_0_split_2
I0403 15:53:28.998479 14810 net.cpp:399] inception_4c/output_inception_4c/output_0_split -> inception_4c/output_inception_4c/output_0_split_3
I0403 15:53:28.998560 14810 net.cpp:141] Setting up inception_4c/output_inception_4c/output_0_split
I0403 15:53:28.998584 14810 net.cpp:148] Top shape: 24 512 14 14 (2408448)
I0403 15:53:28.998600 14810 net.cpp:148] Top shape: 24 512 14 14 (2408448)
I0403 15:53:28.998613 14810 net.cpp:148] Top shape: 24 512 14 14 (2408448)
I0403 15:53:28.998628 14810 net.cpp:148] Top shape: 24 512 14 14 (2408448)
I0403 15:53:28.998641 14810 net.cpp:156] Memory required for data: 1111182624
I0403 15:53:28.998654 14810 layer_factory.hpp:77] Creating layer inception_4d/1x1
I0403 15:53:28.998677 14810 net.cpp:91] Creating Layer inception_4d/1x1
I0403 15:53:28.998693 14810 net.cpp:425] inception_4d/1x1 <- inception_4c/output_inception_4c/output_0_split_0
I0403 15:53:28.998713 14810 net.cpp:399] inception_4d/1x1 -> inception_4d/1x1
I0403 15:53:29.000051 14810 net.cpp:141] Setting up inception_4d/1x1
I0403 15:53:29.000079 14810 net.cpp:148] Top shape: 24 112 14 14 (526848)
I0403 15:53:29.000095 14810 net.cpp:156] Memory required for data: 1113290016
I0403 15:53:29.000113 14810 layer_factory.hpp:77] Creating layer inception_4d/relu_1x1
I0403 15:53:29.000151 14810 net.cpp:91] Creating Layer inception_4d/relu_1x1
I0403 15:53:29.000174 14810 net.cpp:425] inception_4d/relu_1x1 <- inception_4d/1x1
I0403 15:53:29.000191 14810 net.cpp:386] inception_4d/relu_1x1 -> inception_4d/1x1 (in-place)
I0403 15:53:29.000377 14810 net.cpp:141] Setting up inception_4d/relu_1x1
I0403 15:53:29.000404 14810 net.cpp:148] Top shape: 24 112 14 14 (526848)
I0403 15:53:29.000419 14810 net.cpp:156] Memory required for data: 1115397408
I0403 15:53:29.000435 14810 layer_factory.hpp:77] Creating layer inception_4d/3x3_reduce
I0403 15:53:29.000473 14810 net.cpp:91] Creating Layer inception_4d/3x3_reduce
I0403 15:53:29.000493 14810 net.cpp:425] inception_4d/3x3_reduce <- inception_4c/output_inception_4c/output_0_split_1
I0403 15:53:29.000511 14810 net.cpp:399] inception_4d/3x3_reduce -> inception_4d/3x3_reduce
I0403 15:53:29.002015 14810 net.cpp:141] Setting up inception_4d/3x3_reduce
I0403 15:53:29.002043 14810 net.cpp:148] Top shape: 24 144 14 14 (677376)
I0403 15:53:29.002058 14810 net.cpp:156] Memory required for data: 1118106912
I0403 15:53:29.002076 14810 layer_factory.hpp:77] Creating layer inception_4d/relu_3x3_reduce
I0403 15:53:29.002099 14810 net.cpp:91] Creating Layer inception_4d/relu_3x3_reduce
I0403 15:53:29.002116 14810 net.cpp:425] inception_4d/relu_3x3_reduce <- inception_4d/3x3_reduce
I0403 15:53:29.002140 14810 net.cpp:386] inception_4d/relu_3x3_reduce -> inception_4d/3x3_reduce (in-place)
I0403 15:53:29.002430 14810 net.cpp:141] Setting up inception_4d/relu_3x3_reduce
I0403 15:53:29.002457 14810 net.cpp:148] Top shape: 24 144 14 14 (677376)
I0403 15:53:29.002472 14810 net.cpp:156] Memory required for data: 1120816416
I0403 15:53:29.002487 14810 layer_factory.hpp:77] Creating layer inception_4d/3x3
I0403 15:53:29.002509 14810 net.cpp:91] Creating Layer inception_4d/3x3
I0403 15:53:29.002527 14810 net.cpp:425] inception_4d/3x3 <- inception_4d/3x3_reduce
I0403 15:53:29.002548 14810 net.cpp:399] inception_4d/3x3 -> inception_4d/3x3
I0403 15:53:29.006800 14810 net.cpp:141] Setting up inception_4d/3x3
I0403 15:53:29.006830 14810 net.cpp:148] Top shape: 24 288 14 14 (1354752)
I0403 15:53:29.006845 14810 net.cpp:156] Memory required for data: 1126235424
I0403 15:53:29.006863 14810 layer_factory.hpp:77] Creating layer inception_4d/relu_3x3
I0403 15:53:29.006885 14810 net.cpp:91] Creating Layer inception_4d/relu_3x3
I0403 15:53:29.006902 14810 net.cpp:425] inception_4d/relu_3x3 <- inception_4d/3x3
I0403 15:53:29.006919 14810 net.cpp:386] inception_4d/relu_3x3 -> inception_4d/3x3 (in-place)
I0403 15:53:29.007104 14810 net.cpp:141] Setting up inception_4d/relu_3x3
I0403 15:53:29.007135 14810 net.cpp:148] Top shape: 24 288 14 14 (1354752)
I0403 15:53:29.007153 14810 net.cpp:156] Memory required for data: 1131654432
I0403 15:53:29.007167 14810 layer_factory.hpp:77] Creating layer inception_4d/5x5_reduce
I0403 15:53:29.007191 14810 net.cpp:91] Creating Layer inception_4d/5x5_reduce
I0403 15:53:29.007210 14810 net.cpp:425] inception_4d/5x5_reduce <- inception_4c/output_inception_4c/output_0_split_2
I0403 15:53:29.007232 14810 net.cpp:399] inception_4d/5x5_reduce -> inception_4d/5x5_reduce
I0403 15:53:29.008383 14810 net.cpp:141] Setting up inception_4d/5x5_reduce
I0403 15:53:29.008412 14810 net.cpp:148] Top shape: 24 32 14 14 (150528)
I0403 15:53:29.008429 14810 net.cpp:156] Memory required for data: 1132256544
I0403 15:53:29.008447 14810 layer_factory.hpp:77] Creating layer inception_4d/relu_5x5_reduce
I0403 15:53:29.008468 14810 net.cpp:91] Creating Layer inception_4d/relu_5x5_reduce
I0403 15:53:29.008486 14810 net.cpp:425] inception_4d/relu_5x5_reduce <- inception_4d/5x5_reduce
I0403 15:53:29.008503 14810 net.cpp:386] inception_4d/relu_5x5_reduce -> inception_4d/5x5_reduce (in-place)
I0403 15:53:29.008692 14810 net.cpp:141] Setting up inception_4d/relu_5x5_reduce
I0403 15:53:29.008719 14810 net.cpp:148] Top shape: 24 32 14 14 (150528)
I0403 15:53:29.008735 14810 net.cpp:156] Memory required for data: 1132858656
I0403 15:53:29.008750 14810 layer_factory.hpp:77] Creating layer inception_4d/5x5
I0403 15:53:29.008772 14810 net.cpp:91] Creating Layer inception_4d/5x5
I0403 15:53:29.008791 14810 net.cpp:425] inception_4d/5x5 <- inception_4d/5x5_reduce
I0403 15:53:29.008810 14810 net.cpp:399] inception_4d/5x5 -> inception_4d/5x5
I0403 15:53:29.010277 14810 net.cpp:141] Setting up inception_4d/5x5
I0403 15:53:29.010306 14810 net.cpp:148] Top shape: 24 64 14 14 (301056)
I0403 15:53:29.010324 14810 net.cpp:156] Memory required for data: 1134062880
I0403 15:53:29.010342 14810 layer_factory.hpp:77] Creating layer inception_4d/relu_5x5
I0403 15:53:29.010376 14810 net.cpp:91] Creating Layer inception_4d/relu_5x5
I0403 15:53:29.010393 14810 net.cpp:425] inception_4d/relu_5x5 <- inception_4d/5x5
I0403 15:53:29.010413 14810 net.cpp:386] inception_4d/relu_5x5 -> inception_4d/5x5 (in-place)
I0403 15:53:29.010720 14810 net.cpp:141] Setting up inception_4d/relu_5x5
I0403 15:53:29.010747 14810 net.cpp:148] Top shape: 24 64 14 14 (301056)
I0403 15:53:29.010763 14810 net.cpp:156] Memory required for data: 1135267104
I0403 15:53:29.010777 14810 layer_factory.hpp:77] Creating layer inception_4d/pool
I0403 15:53:29.010795 14810 net.cpp:91] Creating Layer inception_4d/pool
I0403 15:53:29.010812 14810 net.cpp:425] inception_4d/pool <- inception_4c/output_inception_4c/output_0_split_3
I0403 15:53:29.010833 14810 net.cpp:399] inception_4d/pool -> inception_4d/pool
I0403 15:53:29.010900 14810 net.cpp:141] Setting up inception_4d/pool
I0403 15:53:29.010926 14810 net.cpp:148] Top shape: 24 512 14 14 (2408448)
I0403 15:53:29.010942 14810 net.cpp:156] Memory required for data: 1144900896
I0403 15:53:29.010957 14810 layer_factory.hpp:77] Creating layer inception_4d/pool_proj
I0403 15:53:29.010979 14810 net.cpp:91] Creating Layer inception_4d/pool_proj
I0403 15:53:29.010996 14810 net.cpp:425] inception_4d/pool_proj <- inception_4d/pool
I0403 15:53:29.011015 14810 net.cpp:399] inception_4d/pool_proj -> inception_4d/pool_proj
I0403 15:53:29.012776 14810 net.cpp:141] Setting up inception_4d/pool_proj
I0403 15:53:29.012806 14810 net.cpp:148] Top shape: 24 64 14 14 (301056)
I0403 15:53:29.012822 14810 net.cpp:156] Memory required for data: 1146105120
I0403 15:53:29.012841 14810 layer_factory.hpp:77] Creating layer inception_4d/relu_pool_proj
I0403 15:53:29.012862 14810 net.cpp:91] Creating Layer inception_4d/relu_pool_proj
I0403 15:53:29.012881 14810 net.cpp:425] inception_4d/relu_pool_proj <- inception_4d/pool_proj
I0403 15:53:29.012897 14810 net.cpp:386] inception_4d/relu_pool_proj -> inception_4d/pool_proj (in-place)
I0403 15:53:29.013083 14810 net.cpp:141] Setting up inception_4d/relu_pool_proj
I0403 15:53:29.013110 14810 net.cpp:148] Top shape: 24 64 14 14 (301056)
I0403 15:53:29.013134 14810 net.cpp:156] Memory required for data: 1147309344
I0403 15:53:29.013154 14810 layer_factory.hpp:77] Creating layer inception_4d/output
I0403 15:53:29.013172 14810 net.cpp:91] Creating Layer inception_4d/output
I0403 15:53:29.013187 14810 net.cpp:425] inception_4d/output <- inception_4d/1x1
I0403 15:53:29.013206 14810 net.cpp:425] inception_4d/output <- inception_4d/3x3
I0403 15:53:29.013221 14810 net.cpp:425] inception_4d/output <- inception_4d/5x5
I0403 15:53:29.013237 14810 net.cpp:425] inception_4d/output <- inception_4d/pool_proj
I0403 15:53:29.013254 14810 net.cpp:399] inception_4d/output -> inception_4d/output
I0403 15:53:29.013304 14810 net.cpp:141] Setting up inception_4d/output
I0403 15:53:29.013329 14810 net.cpp:148] Top shape: 24 528 14 14 (2483712)
I0403 15:53:29.013342 14810 net.cpp:156] Memory required for data: 1157244192
I0403 15:53:29.013357 14810 layer_factory.hpp:77] Creating layer inception_4d/output_inception_4d/output_0_split
I0403 15:53:29.013377 14810 net.cpp:91] Creating Layer inception_4d/output_inception_4d/output_0_split
I0403 15:53:29.013393 14810 net.cpp:425] inception_4d/output_inception_4d/output_0_split <- inception_4d/output
I0403 15:53:29.013411 14810 net.cpp:399] inception_4d/output_inception_4d/output_0_split -> inception_4d/output_inception_4d/output_0_split_0
I0403 15:53:29.013430 14810 net.cpp:399] inception_4d/output_inception_4d/output_0_split -> inception_4d/output_inception_4d/output_0_split_1
I0403 15:53:29.013453 14810 net.cpp:399] inception_4d/output_inception_4d/output_0_split -> inception_4d/output_inception_4d/output_0_split_2
I0403 15:53:29.013476 14810 net.cpp:399] inception_4d/output_inception_4d/output_0_split -> inception_4d/output_inception_4d/output_0_split_3
I0403 15:53:29.013497 14810 net.cpp:399] inception_4d/output_inception_4d/output_0_split -> inception_4d/output_inception_4d/output_0_split_4
I0403 15:53:29.013598 14810 net.cpp:141] Setting up inception_4d/output_inception_4d/output_0_split
I0403 15:53:29.013635 14810 net.cpp:148] Top shape: 24 528 14 14 (2483712)
I0403 15:53:29.013653 14810 net.cpp:148] Top shape: 24 528 14 14 (2483712)
I0403 15:53:29.013667 14810 net.cpp:148] Top shape: 24 528 14 14 (2483712)
I0403 15:53:29.013682 14810 net.cpp:148] Top shape: 24 528 14 14 (2483712)
I0403 15:53:29.013698 14810 net.cpp:148] Top shape: 24 528 14 14 (2483712)
I0403 15:53:29.013711 14810 net.cpp:156] Memory required for data: 1206918432
I0403 15:53:29.013726 14810 layer_factory.hpp:77] Creating layer loss2/ave_pool
I0403 15:53:29.013746 14810 net.cpp:91] Creating Layer loss2/ave_pool
I0403 15:53:29.013763 14810 net.cpp:425] loss2/ave_pool <- inception_4d/output_inception_4d/output_0_split_0
I0403 15:53:29.013782 14810 net.cpp:399] loss2/ave_pool -> loss2/ave_pool
I0403 15:53:29.014104 14810 net.cpp:141] Setting up loss2/ave_pool
I0403 15:53:29.014135 14810 net.cpp:148] Top shape: 24 528 4 4 (202752)
I0403 15:53:29.014153 14810 net.cpp:156] Memory required for data: 1207729440
I0403 15:53:29.014168 14810 layer_factory.hpp:77] Creating layer loss2/conv
I0403 15:53:29.014190 14810 net.cpp:91] Creating Layer loss2/conv
I0403 15:53:29.014209 14810 net.cpp:425] loss2/conv <- loss2/ave_pool
I0403 15:53:29.014227 14810 net.cpp:399] loss2/conv -> loss2/conv
I0403 15:53:29.016094 14810 net.cpp:141] Setting up loss2/conv
I0403 15:53:29.016124 14810 net.cpp:148] Top shape: 24 128 4 4 (49152)
I0403 15:53:29.016145 14810 net.cpp:156] Memory required for data: 1207926048
I0403 15:53:29.016165 14810 layer_factory.hpp:77] Creating layer loss2/relu_conv
I0403 15:53:29.016182 14810 net.cpp:91] Creating Layer loss2/relu_conv
I0403 15:53:29.016201 14810 net.cpp:425] loss2/relu_conv <- loss2/conv
I0403 15:53:29.016222 14810 net.cpp:386] loss2/relu_conv -> loss2/conv (in-place)
I0403 15:53:29.016508 14810 net.cpp:141] Setting up loss2/relu_conv
I0403 15:53:29.016535 14810 net.cpp:148] Top shape: 24 128 4 4 (49152)
I0403 15:53:29.016549 14810 net.cpp:156] Memory required for data: 1208122656
I0403 15:53:29.016564 14810 layer_factory.hpp:77] Creating layer loss2/fc
I0403 15:53:29.016584 14810 net.cpp:91] Creating Layer loss2/fc
I0403 15:53:29.016600 14810 net.cpp:425] loss2/fc <- loss2/conv
I0403 15:53:29.016620 14810 net.cpp:399] loss2/fc -> loss2/fc
I0403 15:53:29.033941 14810 net.cpp:141] Setting up loss2/fc
I0403 15:53:29.033977 14810 net.cpp:148] Top shape: 24 1024 (24576)
I0403 15:53:29.033993 14810 net.cpp:156] Memory required for data: 1208220960
I0403 15:53:29.034013 14810 layer_factory.hpp:77] Creating layer loss2/relu_fc
I0403 15:53:29.034029 14810 net.cpp:91] Creating Layer loss2/relu_fc
I0403 15:53:29.034044 14810 net.cpp:425] loss2/relu_fc <- loss2/fc
I0403 15:53:29.034060 14810 net.cpp:386] loss2/relu_fc -> loss2/fc (in-place)
I0403 15:53:29.034355 14810 net.cpp:141] Setting up loss2/relu_fc
I0403 15:53:29.034384 14810 net.cpp:148] Top shape: 24 1024 (24576)
I0403 15:53:29.034399 14810 net.cpp:156] Memory required for data: 1208319264
I0403 15:53:29.034415 14810 layer_factory.hpp:77] Creating layer loss2/drop_fc
I0403 15:53:29.034431 14810 net.cpp:91] Creating Layer loss2/drop_fc
I0403 15:53:29.034447 14810 net.cpp:425] loss2/drop_fc <- loss2/fc
I0403 15:53:29.034463 14810 net.cpp:386] loss2/drop_fc -> loss2/fc (in-place)
I0403 15:53:29.034513 14810 net.cpp:141] Setting up loss2/drop_fc
I0403 15:53:29.034538 14810 net.cpp:148] Top shape: 24 1024 (24576)
I0403 15:53:29.034551 14810 net.cpp:156] Memory required for data: 1208417568
I0403 15:53:29.034565 14810 layer_factory.hpp:77] Creating layer loss2/classifier_plantvillage
I0403 15:53:29.034584 14810 net.cpp:91] Creating Layer loss2/classifier_plantvillage
I0403 15:53:29.034602 14810 net.cpp:425] loss2/classifier_plantvillage <- loss2/fc
I0403 15:53:29.034620 14810 net.cpp:399] loss2/classifier_plantvillage -> loss2/classifier_plantvillage
I0403 15:53:29.035007 14810 net.cpp:141] Setting up loss2/classifier_plantvillage
I0403 15:53:29.035032 14810 net.cpp:148] Top shape: 24 38 (912)
I0403 15:53:29.035046 14810 net.cpp:156] Memory required for data: 1208421216
I0403 15:53:29.035080 14810 layer_factory.hpp:77] Creating layer loss2/classifier_plantvillage_loss2/classifier_plantvillage_0_split
I0403 15:53:29.035100 14810 net.cpp:91] Creating Layer loss2/classifier_plantvillage_loss2/classifier_plantvillage_0_split
I0403 15:53:29.035115 14810 net.cpp:425] loss2/classifier_plantvillage_loss2/classifier_plantvillage_0_split <- loss2/classifier_plantvillage
I0403 15:53:29.035140 14810 net.cpp:399] loss2/classifier_plantvillage_loss2/classifier_plantvillage_0_split -> loss2/classifier_plantvillage_loss2/classifier_plantvillage_0_split_0
I0403 15:53:29.035162 14810 net.cpp:399] loss2/classifier_plantvillage_loss2/classifier_plantvillage_0_split -> loss2/classifier_plantvillage_loss2/classifier_plantvillage_0_split_1
I0403 15:53:29.035181 14810 net.cpp:399] loss2/classifier_plantvillage_loss2/classifier_plantvillage_0_split -> loss2/classifier_plantvillage_loss2/classifier_plantvillage_0_split_2
I0403 15:53:29.035257 14810 net.cpp:141] Setting up loss2/classifier_plantvillage_loss2/classifier_plantvillage_0_split
I0403 15:53:29.035281 14810 net.cpp:148] Top shape: 24 38 (912)
I0403 15:53:29.035296 14810 net.cpp:148] Top shape: 24 38 (912)
I0403 15:53:29.035312 14810 net.cpp:148] Top shape: 24 38 (912)
I0403 15:53:29.035326 14810 net.cpp:156] Memory required for data: 1208432160
I0403 15:53:29.035339 14810 layer_factory.hpp:77] Creating layer inception_4e/1x1
I0403 15:53:29.035361 14810 net.cpp:91] Creating Layer inception_4e/1x1
I0403 15:53:29.035378 14810 net.cpp:425] inception_4e/1x1 <- inception_4d/output_inception_4d/output_0_split_1
I0403 15:53:29.035397 14810 net.cpp:399] inception_4e/1x1 -> inception_4e/1x1
I0403 15:53:29.037158 14810 net.cpp:141] Setting up inception_4e/1x1
I0403 15:53:29.037188 14810 net.cpp:148] Top shape: 24 256 14 14 (1204224)
I0403 15:53:29.037204 14810 net.cpp:156] Memory required for data: 1213249056
I0403 15:53:29.037222 14810 layer_factory.hpp:77] Creating layer inception_4e/relu_1x1
I0403 15:53:29.037240 14810 net.cpp:91] Creating Layer inception_4e/relu_1x1
I0403 15:53:29.037259 14810 net.cpp:425] inception_4e/relu_1x1 <- inception_4e/1x1
I0403 15:53:29.037277 14810 net.cpp:386] inception_4e/relu_1x1 -> inception_4e/1x1 (in-place)
I0403 15:53:29.037569 14810 net.cpp:141] Setting up inception_4e/relu_1x1
I0403 15:53:29.037595 14810 net.cpp:148] Top shape: 24 256 14 14 (1204224)
I0403 15:53:29.037609 14810 net.cpp:156] Memory required for data: 1218065952
I0403 15:53:29.037623 14810 layer_factory.hpp:77] Creating layer inception_4e/3x3_reduce
I0403 15:53:29.037645 14810 net.cpp:91] Creating Layer inception_4e/3x3_reduce
I0403 15:53:29.037663 14810 net.cpp:425] inception_4e/3x3_reduce <- inception_4d/output_inception_4d/output_0_split_2
I0403 15:53:29.037683 14810 net.cpp:399] inception_4e/3x3_reduce -> inception_4e/3x3_reduce
I0403 15:53:29.039734 14810 net.cpp:141] Setting up inception_4e/3x3_reduce
I0403 15:53:29.039765 14810 net.cpp:148] Top shape: 24 160 14 14 (752640)
I0403 15:53:29.039780 14810 net.cpp:156] Memory required for data: 1221076512
I0403 15:53:29.039798 14810 layer_factory.hpp:77] Creating layer inception_4e/relu_3x3_reduce
I0403 15:53:29.039816 14810 net.cpp:91] Creating Layer inception_4e/relu_3x3_reduce
I0403 15:53:29.039831 14810 net.cpp:425] inception_4e/relu_3x3_reduce <- inception_4e/3x3_reduce
I0403 15:53:29.039849 14810 net.cpp:386] inception_4e/relu_3x3_reduce -> inception_4e/3x3_reduce (in-place)
I0403 15:53:29.040030 14810 net.cpp:141] Setting up inception_4e/relu_3x3_reduce
I0403 15:53:29.040056 14810 net.cpp:148] Top shape: 24 160 14 14 (752640)
I0403 15:53:29.040071 14810 net.cpp:156] Memory required for data: 1224087072
I0403 15:53:29.040086 14810 layer_factory.hpp:77] Creating layer inception_4e/3x3
I0403 15:53:29.040107 14810 net.cpp:91] Creating Layer inception_4e/3x3
I0403 15:53:29.040128 14810 net.cpp:425] inception_4e/3x3 <- inception_4e/3x3_reduce
I0403 15:53:29.040151 14810 net.cpp:399] inception_4e/3x3 -> inception_4e/3x3
I0403 15:53:29.045013 14810 net.cpp:141] Setting up inception_4e/3x3
I0403 15:53:29.045054 14810 net.cpp:148] Top shape: 24 320 14 14 (1505280)
I0403 15:53:29.045071 14810 net.cpp:156] Memory required for data: 1230108192
I0403 15:53:29.045089 14810 layer_factory.hpp:77] Creating layer inception_4e/relu_3x3
I0403 15:53:29.045109 14810 net.cpp:91] Creating Layer inception_4e/relu_3x3
I0403 15:53:29.045131 14810 net.cpp:425] inception_4e/relu_3x3 <- inception_4e/3x3
I0403 15:53:29.045150 14810 net.cpp:386] inception_4e/relu_3x3 -> inception_4e/3x3 (in-place)
I0403 15:53:29.045441 14810 net.cpp:141] Setting up inception_4e/relu_3x3
I0403 15:53:29.045469 14810 net.cpp:148] Top shape: 24 320 14 14 (1505280)
I0403 15:53:29.045483 14810 net.cpp:156] Memory required for data: 1236129312
I0403 15:53:29.045498 14810 layer_factory.hpp:77] Creating layer inception_4e/5x5_reduce
I0403 15:53:29.045519 14810 net.cpp:91] Creating Layer inception_4e/5x5_reduce
I0403 15:53:29.045537 14810 net.cpp:425] inception_4e/5x5_reduce <- inception_4d/output_inception_4d/output_0_split_3
I0403 15:53:29.045558 14810 net.cpp:399] inception_4e/5x5_reduce -> inception_4e/5x5_reduce
I0403 15:53:29.046593 14810 net.cpp:141] Setting up inception_4e/5x5_reduce
I0403 15:53:29.046623 14810 net.cpp:148] Top shape: 24 32 14 14 (150528)
I0403 15:53:29.046639 14810 net.cpp:156] Memory required for data: 1236731424
I0403 15:53:29.046658 14810 layer_factory.hpp:77] Creating layer inception_4e/relu_5x5_reduce
I0403 15:53:29.046675 14810 net.cpp:91] Creating Layer inception_4e/relu_5x5_reduce
I0403 15:53:29.046690 14810 net.cpp:425] inception_4e/relu_5x5_reduce <- inception_4e/5x5_reduce
I0403 15:53:29.046710 14810 net.cpp:386] inception_4e/relu_5x5_reduce -> inception_4e/5x5_reduce (in-place)
I0403 15:53:29.047001 14810 net.cpp:141] Setting up inception_4e/relu_5x5_reduce
I0403 15:53:29.047029 14810 net.cpp:148] Top shape: 24 32 14 14 (150528)
I0403 15:53:29.047045 14810 net.cpp:156] Memory required for data: 1237333536
I0403 15:53:29.047060 14810 layer_factory.hpp:77] Creating layer inception_4e/5x5
I0403 15:53:29.047096 14810 net.cpp:91] Creating Layer inception_4e/5x5
I0403 15:53:29.047116 14810 net.cpp:425] inception_4e/5x5 <- inception_4e/5x5_reduce
I0403 15:53:29.047142 14810 net.cpp:399] inception_4e/5x5 -> inception_4e/5x5
I0403 15:53:29.048923 14810 net.cpp:141] Setting up inception_4e/5x5
I0403 15:53:29.048950 14810 net.cpp:148] Top shape: 24 128 14 14 (602112)
I0403 15:53:29.048965 14810 net.cpp:156] Memory required for data: 1239741984
I0403 15:53:29.048985 14810 layer_factory.hpp:77] Creating layer inception_4e/relu_5x5
I0403 15:53:29.049005 14810 net.cpp:91] Creating Layer inception_4e/relu_5x5
I0403 15:53:29.049021 14810 net.cpp:425] inception_4e/relu_5x5 <- inception_4e/5x5
I0403 15:53:29.049037 14810 net.cpp:386] inception_4e/relu_5x5 -> inception_4e/5x5 (in-place)
I0403 15:53:29.049234 14810 net.cpp:141] Setting up inception_4e/relu_5x5
I0403 15:53:29.049260 14810 net.cpp:148] Top shape: 24 128 14 14 (602112)
I0403 15:53:29.049274 14810 net.cpp:156] Memory required for data: 1242150432
I0403 15:53:29.049288 14810 layer_factory.hpp:77] Creating layer inception_4e/pool
I0403 15:53:29.049305 14810 net.cpp:91] Creating Layer inception_4e/pool
I0403 15:53:29.049321 14810 net.cpp:425] inception_4e/pool <- inception_4d/output_inception_4d/output_0_split_4
I0403 15:53:29.049340 14810 net.cpp:399] inception_4e/pool -> inception_4e/pool
I0403 15:53:29.049408 14810 net.cpp:141] Setting up inception_4e/pool
I0403 15:53:29.049432 14810 net.cpp:148] Top shape: 24 528 14 14 (2483712)
I0403 15:53:29.049448 14810 net.cpp:156] Memory required for data: 1252085280
I0403 15:53:29.049463 14810 layer_factory.hpp:77] Creating layer inception_4e/pool_proj
I0403 15:53:29.049485 14810 net.cpp:91] Creating Layer inception_4e/pool_proj
I0403 15:53:29.049504 14810 net.cpp:425] inception_4e/pool_proj <- inception_4e/pool
I0403 15:53:29.049520 14810 net.cpp:399] inception_4e/pool_proj -> inception_4e/pool_proj
I0403 15:53:29.050969 14810 net.cpp:141] Setting up inception_4e/pool_proj
I0403 15:53:29.050997 14810 net.cpp:148] Top shape: 24 128 14 14 (602112)
I0403 15:53:29.051028 14810 net.cpp:156] Memory required for data: 1254493728
I0403 15:53:29.051045 14810 layer_factory.hpp:77] Creating layer inception_4e/relu_pool_proj
I0403 15:53:29.051065 14810 net.cpp:91] Creating Layer inception_4e/relu_pool_proj
I0403 15:53:29.051082 14810 net.cpp:425] inception_4e/relu_pool_proj <- inception_4e/pool_proj
I0403 15:53:29.051107 14810 net.cpp:386] inception_4e/relu_pool_proj -> inception_4e/pool_proj (in-place)
I0403 15:53:29.051408 14810 net.cpp:141] Setting up inception_4e/relu_pool_proj
I0403 15:53:29.051434 14810 net.cpp:148] Top shape: 24 128 14 14 (602112)
I0403 15:53:29.051450 14810 net.cpp:156] Memory required for data: 1256902176
I0403 15:53:29.051463 14810 layer_factory.hpp:77] Creating layer inception_4e/output
I0403 15:53:29.051482 14810 net.cpp:91] Creating Layer inception_4e/output
I0403 15:53:29.051498 14810 net.cpp:425] inception_4e/output <- inception_4e/1x1
I0403 15:53:29.051514 14810 net.cpp:425] inception_4e/output <- inception_4e/3x3
I0403 15:53:29.051530 14810 net.cpp:425] inception_4e/output <- inception_4e/5x5
I0403 15:53:29.051547 14810 net.cpp:425] inception_4e/output <- inception_4e/pool_proj
I0403 15:53:29.051563 14810 net.cpp:399] inception_4e/output -> inception_4e/output
I0403 15:53:29.051614 14810 net.cpp:141] Setting up inception_4e/output
I0403 15:53:29.051636 14810 net.cpp:148] Top shape: 24 832 14 14 (3913728)
I0403 15:53:29.051651 14810 net.cpp:156] Memory required for data: 1272557088
I0403 15:53:29.051666 14810 layer_factory.hpp:77] Creating layer pool4/3x3_s2
I0403 15:53:29.051682 14810 net.cpp:91] Creating Layer pool4/3x3_s2
I0403 15:53:29.051697 14810 net.cpp:425] pool4/3x3_s2 <- inception_4e/output
I0403 15:53:29.051717 14810 net.cpp:399] pool4/3x3_s2 -> pool4/3x3_s2
I0403 15:53:29.051780 14810 net.cpp:141] Setting up pool4/3x3_s2
I0403 15:53:29.051805 14810 net.cpp:148] Top shape: 24 832 7 7 (978432)
I0403 15:53:29.051820 14810 net.cpp:156] Memory required for data: 1276470816
I0403 15:53:29.051833 14810 layer_factory.hpp:77] Creating layer pool4/3x3_s2_pool4/3x3_s2_0_split
I0403 15:53:29.051853 14810 net.cpp:91] Creating Layer pool4/3x3_s2_pool4/3x3_s2_0_split
I0403 15:53:29.051870 14810 net.cpp:425] pool4/3x3_s2_pool4/3x3_s2_0_split <- pool4/3x3_s2
I0403 15:53:29.051888 14810 net.cpp:399] pool4/3x3_s2_pool4/3x3_s2_0_split -> pool4/3x3_s2_pool4/3x3_s2_0_split_0
I0403 15:53:29.051910 14810 net.cpp:399] pool4/3x3_s2_pool4/3x3_s2_0_split -> pool4/3x3_s2_pool4/3x3_s2_0_split_1
I0403 15:53:29.051930 14810 net.cpp:399] pool4/3x3_s2_pool4/3x3_s2_0_split -> pool4/3x3_s2_pool4/3x3_s2_0_split_2
I0403 15:53:29.051950 14810 net.cpp:399] pool4/3x3_s2_pool4/3x3_s2_0_split -> pool4/3x3_s2_pool4/3x3_s2_0_split_3
I0403 15:53:29.052037 14810 net.cpp:141] Setting up pool4/3x3_s2_pool4/3x3_s2_0_split
I0403 15:53:29.052062 14810 net.cpp:148] Top shape: 24 832 7 7 (978432)
I0403 15:53:29.052079 14810 net.cpp:148] Top shape: 24 832 7 7 (978432)
I0403 15:53:29.052094 14810 net.cpp:148] Top shape: 24 832 7 7 (978432)
I0403 15:53:29.052109 14810 net.cpp:148] Top shape: 24 832 7 7 (978432)
I0403 15:53:29.052122 14810 net.cpp:156] Memory required for data: 1292125728
I0403 15:53:29.052141 14810 layer_factory.hpp:77] Creating layer inception_5a/1x1
I0403 15:53:29.052162 14810 net.cpp:91] Creating Layer inception_5a/1x1
I0403 15:53:29.052181 14810 net.cpp:425] inception_5a/1x1 <- pool4/3x3_s2_pool4/3x3_s2_0_split_0
I0403 15:53:29.052202 14810 net.cpp:399] inception_5a/1x1 -> inception_5a/1x1
I0403 15:53:29.055069 14810 net.cpp:141] Setting up inception_5a/1x1
I0403 15:53:29.055101 14810 net.cpp:148] Top shape: 24 256 7 7 (301056)
I0403 15:53:29.055119 14810 net.cpp:156] Memory required for data: 1293329952
I0403 15:53:29.055142 14810 layer_factory.hpp:77] Creating layer inception_5a/relu_1x1
I0403 15:53:29.055161 14810 net.cpp:91] Creating Layer inception_5a/relu_1x1
I0403 15:53:29.055178 14810 net.cpp:425] inception_5a/relu_1x1 <- inception_5a/1x1
I0403 15:53:29.055197 14810 net.cpp:386] inception_5a/relu_1x1 -> inception_5a/1x1 (in-place)
I0403 15:53:29.055513 14810 net.cpp:141] Setting up inception_5a/relu_1x1
I0403 15:53:29.055542 14810 net.cpp:148] Top shape: 24 256 7 7 (301056)
I0403 15:53:29.055558 14810 net.cpp:156] Memory required for data: 1294534176
I0403 15:53:29.055574 14810 layer_factory.hpp:77] Creating layer inception_5a/3x3_reduce
I0403 15:53:29.055596 14810 net.cpp:91] Creating Layer inception_5a/3x3_reduce
I0403 15:53:29.055614 14810 net.cpp:425] inception_5a/3x3_reduce <- pool4/3x3_s2_pool4/3x3_s2_0_split_1
I0403 15:53:29.055632 14810 net.cpp:399] inception_5a/3x3_reduce -> inception_5a/3x3_reduce
I0403 15:53:29.058091 14810 net.cpp:141] Setting up inception_5a/3x3_reduce
I0403 15:53:29.058121 14810 net.cpp:148] Top shape: 24 160 7 7 (188160)
I0403 15:53:29.058143 14810 net.cpp:156] Memory required for data: 1295286816
I0403 15:53:29.058162 14810 layer_factory.hpp:77] Creating layer inception_5a/relu_3x3_reduce
I0403 15:53:29.058184 14810 net.cpp:91] Creating Layer inception_5a/relu_3x3_reduce
I0403 15:53:29.058204 14810 net.cpp:425] inception_5a/relu_3x3_reduce <- inception_5a/3x3_reduce
I0403 15:53:29.058223 14810 net.cpp:386] inception_5a/relu_3x3_reduce -> inception_5a/3x3_reduce (in-place)
I0403 15:53:29.058408 14810 net.cpp:141] Setting up inception_5a/relu_3x3_reduce
I0403 15:53:29.058435 14810 net.cpp:148] Top shape: 24 160 7 7 (188160)
I0403 15:53:29.058450 14810 net.cpp:156] Memory required for data: 1296039456
I0403 15:53:29.058465 14810 layer_factory.hpp:77] Creating layer inception_5a/3x3
I0403 15:53:29.058487 14810 net.cpp:91] Creating Layer inception_5a/3x3
I0403 15:53:29.058506 14810 net.cpp:425] inception_5a/3x3 <- inception_5a/3x3_reduce
I0403 15:53:29.058526 14810 net.cpp:399] inception_5a/3x3 -> inception_5a/3x3
I0403 15:53:29.063571 14810 net.cpp:141] Setting up inception_5a/3x3
I0403 15:53:29.063604 14810 net.cpp:148] Top shape: 24 320 7 7 (376320)
I0403 15:53:29.063621 14810 net.cpp:156] Memory required for data: 1297544736
I0403 15:53:29.063640 14810 layer_factory.hpp:77] Creating layer inception_5a/relu_3x3
I0403 15:53:29.063657 14810 net.cpp:91] Creating Layer inception_5a/relu_3x3
I0403 15:53:29.063673 14810 net.cpp:425] inception_5a/relu_3x3 <- inception_5a/3x3
I0403 15:53:29.063693 14810 net.cpp:386] inception_5a/relu_3x3 -> inception_5a/3x3 (in-place)
I0403 15:53:29.063987 14810 net.cpp:141] Setting up inception_5a/relu_3x3
I0403 15:53:29.064018 14810 net.cpp:148] Top shape: 24 320 7 7 (376320)
I0403 15:53:29.064033 14810 net.cpp:156] Memory required for data: 1299050016
I0403 15:53:29.064049 14810 layer_factory.hpp:77] Creating layer inception_5a/5x5_reduce
I0403 15:53:29.064072 14810 net.cpp:91] Creating Layer inception_5a/5x5_reduce
I0403 15:53:29.064091 14810 net.cpp:425] inception_5a/5x5_reduce <- pool4/3x3_s2_pool4/3x3_s2_0_split_2
I0403 15:53:29.064110 14810 net.cpp:399] inception_5a/5x5_reduce -> inception_5a/5x5_reduce
I0403 15:53:29.065284 14810 net.cpp:141] Setting up inception_5a/5x5_reduce
I0403 15:53:29.065316 14810 net.cpp:148] Top shape: 24 32 7 7 (37632)
I0403 15:53:29.065335 14810 net.cpp:156] Memory required for data: 1299200544
I0403 15:53:29.065352 14810 layer_factory.hpp:77] Creating layer inception_5a/relu_5x5_reduce
I0403 15:53:29.065371 14810 net.cpp:91] Creating Layer inception_5a/relu_5x5_reduce
I0403 15:53:29.065387 14810 net.cpp:425] inception_5a/relu_5x5_reduce <- inception_5a/5x5_reduce
I0403 15:53:29.065407 14810 net.cpp:386] inception_5a/relu_5x5_reduce -> inception_5a/5x5_reduce (in-place)
I0403 15:53:29.065709 14810 net.cpp:141] Setting up inception_5a/relu_5x5_reduce
I0403 15:53:29.065737 14810 net.cpp:148] Top shape: 24 32 7 7 (37632)
I0403 15:53:29.065752 14810 net.cpp:156] Memory required for data: 1299351072
I0403 15:53:29.065767 14810 layer_factory.hpp:77] Creating layer inception_5a/5x5
I0403 15:53:29.065788 14810 net.cpp:91] Creating Layer inception_5a/5x5
I0403 15:53:29.065806 14810 net.cpp:425] inception_5a/5x5 <- inception_5a/5x5_reduce
I0403 15:53:29.065829 14810 net.cpp:399] inception_5a/5x5 -> inception_5a/5x5
I0403 15:53:29.067554 14810 net.cpp:141] Setting up inception_5a/5x5
I0403 15:53:29.067597 14810 net.cpp:148] Top shape: 24 128 7 7 (150528)
I0403 15:53:29.067616 14810 net.cpp:156] Memory required for data: 1299953184
I0403 15:53:29.067636 14810 layer_factory.hpp:77] Creating layer inception_5a/relu_5x5
I0403 15:53:29.067653 14810 net.cpp:91] Creating Layer inception_5a/relu_5x5
I0403 15:53:29.067668 14810 net.cpp:425] inception_5a/relu_5x5 <- inception_5a/5x5
I0403 15:53:29.067688 14810 net.cpp:386] inception_5a/relu_5x5 -> inception_5a/5x5 (in-place)
I0403 15:53:29.067879 14810 net.cpp:141] Setting up inception_5a/relu_5x5
I0403 15:53:29.067905 14810 net.cpp:148] Top shape: 24 128 7 7 (150528)
I0403 15:53:29.067920 14810 net.cpp:156] Memory required for data: 1300555296
I0403 15:53:29.067935 14810 layer_factory.hpp:77] Creating layer inception_5a/pool
I0403 15:53:29.067952 14810 net.cpp:91] Creating Layer inception_5a/pool
I0403 15:53:29.067968 14810 net.cpp:425] inception_5a/pool <- pool4/3x3_s2_pool4/3x3_s2_0_split_3
I0403 15:53:29.067988 14810 net.cpp:399] inception_5a/pool -> inception_5a/pool
I0403 15:53:29.068060 14810 net.cpp:141] Setting up inception_5a/pool
I0403 15:53:29.068085 14810 net.cpp:148] Top shape: 24 832 7 7 (978432)
I0403 15:53:29.068099 14810 net.cpp:156] Memory required for data: 1304469024
I0403 15:53:29.068112 14810 layer_factory.hpp:77] Creating layer inception_5a/pool_proj
I0403 15:53:29.068140 14810 net.cpp:91] Creating Layer inception_5a/pool_proj
I0403 15:53:29.068159 14810 net.cpp:425] inception_5a/pool_proj <- inception_5a/pool
I0403 15:53:29.068178 14810 net.cpp:399] inception_5a/pool_proj -> inception_5a/pool_proj
I0403 15:53:29.070467 14810 net.cpp:141] Setting up inception_5a/pool_proj
I0403 15:53:29.070498 14810 net.cpp:148] Top shape: 24 128 7 7 (150528)
I0403 15:53:29.070518 14810 net.cpp:156] Memory required for data: 1305071136
I0403 15:53:29.070536 14810 layer_factory.hpp:77] Creating layer inception_5a/relu_pool_proj
I0403 15:53:29.070554 14810 net.cpp:91] Creating Layer inception_5a/relu_pool_proj
I0403 15:53:29.070569 14810 net.cpp:425] inception_5a/relu_pool_proj <- inception_5a/pool_proj
I0403 15:53:29.070585 14810 net.cpp:386] inception_5a/relu_pool_proj -> inception_5a/pool_proj (in-place)
I0403 15:53:29.070880 14810 net.cpp:141] Setting up inception_5a/relu_pool_proj
I0403 15:53:29.070907 14810 net.cpp:148] Top shape: 24 128 7 7 (150528)
I0403 15:53:29.070926 14810 net.cpp:156] Memory required for data: 1305673248
I0403 15:53:29.070942 14810 layer_factory.hpp:77] Creating layer inception_5a/output
I0403 15:53:29.070960 14810 net.cpp:91] Creating Layer inception_5a/output
I0403 15:53:29.070976 14810 net.cpp:425] inception_5a/output <- inception_5a/1x1
I0403 15:53:29.070991 14810 net.cpp:425] inception_5a/output <- inception_5a/3x3
I0403 15:53:29.071007 14810 net.cpp:425] inception_5a/output <- inception_5a/5x5
I0403 15:53:29.071022 14810 net.cpp:425] inception_5a/output <- inception_5a/pool_proj
I0403 15:53:29.071038 14810 net.cpp:399] inception_5a/output -> inception_5a/output
I0403 15:53:29.071090 14810 net.cpp:141] Setting up inception_5a/output
I0403 15:53:29.071115 14810 net.cpp:148] Top shape: 24 832 7 7 (978432)
I0403 15:53:29.071133 14810 net.cpp:156] Memory required for data: 1309586976
I0403 15:53:29.071149 14810 layer_factory.hpp:77] Creating layer inception_5a/output_inception_5a/output_0_split
I0403 15:53:29.071167 14810 net.cpp:91] Creating Layer inception_5a/output_inception_5a/output_0_split
I0403 15:53:29.071183 14810 net.cpp:425] inception_5a/output_inception_5a/output_0_split <- inception_5a/output
I0403 15:53:29.071205 14810 net.cpp:399] inception_5a/output_inception_5a/output_0_split -> inception_5a/output_inception_5a/output_0_split_0
I0403 15:53:29.071226 14810 net.cpp:399] inception_5a/output_inception_5a/output_0_split -> inception_5a/output_inception_5a/output_0_split_1
I0403 15:53:29.071247 14810 net.cpp:399] inception_5a/output_inception_5a/output_0_split -> inception_5a/output_inception_5a/output_0_split_2
I0403 15:53:29.071267 14810 net.cpp:399] inception_5a/output_inception_5a/output_0_split -> inception_5a/output_inception_5a/output_0_split_3
I0403 15:53:29.071378 14810 net.cpp:141] Setting up inception_5a/output_inception_5a/output_0_split
I0403 15:53:29.071403 14810 net.cpp:148] Top shape: 24 832 7 7 (978432)
I0403 15:53:29.071419 14810 net.cpp:148] Top shape: 24 832 7 7 (978432)
I0403 15:53:29.071435 14810 net.cpp:148] Top shape: 24 832 7 7 (978432)
I0403 15:53:29.071462 14810 net.cpp:148] Top shape: 24 832 7 7 (978432)
I0403 15:53:29.071476 14810 net.cpp:156] Memory required for data: 1325241888
I0403 15:53:29.071491 14810 layer_factory.hpp:77] Creating layer inception_5b/1x1
I0403 15:53:29.071513 14810 net.cpp:91] Creating Layer inception_5b/1x1
I0403 15:53:29.071532 14810 net.cpp:425] inception_5b/1x1 <- inception_5a/output_inception_5a/output_0_split_0
I0403 15:53:29.071553 14810 net.cpp:399] inception_5b/1x1 -> inception_5b/1x1
I0403 15:53:29.075336 14810 net.cpp:141] Setting up inception_5b/1x1
I0403 15:53:29.075366 14810 net.cpp:148] Top shape: 24 384 7 7 (451584)
I0403 15:53:29.075381 14810 net.cpp:156] Memory required for data: 1327048224
I0403 15:53:29.075399 14810 layer_factory.hpp:77] Creating layer inception_5b/relu_1x1
I0403 15:53:29.075423 14810 net.cpp:91] Creating Layer inception_5b/relu_1x1
I0403 15:53:29.075440 14810 net.cpp:425] inception_5b/relu_1x1 <- inception_5b/1x1
I0403 15:53:29.075458 14810 net.cpp:386] inception_5b/relu_1x1 -> inception_5b/1x1 (in-place)
I0403 15:53:29.075755 14810 net.cpp:141] Setting up inception_5b/relu_1x1
I0403 15:53:29.075781 14810 net.cpp:148] Top shape: 24 384 7 7 (451584)
I0403 15:53:29.075795 14810 net.cpp:156] Memory required for data: 1328854560
I0403 15:53:29.075809 14810 layer_factory.hpp:77] Creating layer inception_5b/3x3_reduce
I0403 15:53:29.075831 14810 net.cpp:91] Creating Layer inception_5b/3x3_reduce
I0403 15:53:29.075850 14810 net.cpp:425] inception_5b/3x3_reduce <- inception_5a/output_inception_5a/output_0_split_1
I0403 15:53:29.075872 14810 net.cpp:399] inception_5b/3x3_reduce -> inception_5b/3x3_reduce
I0403 15:53:29.078471 14810 net.cpp:141] Setting up inception_5b/3x3_reduce
I0403 15:53:29.078501 14810 net.cpp:148] Top shape: 24 192 7 7 (225792)
I0403 15:53:29.078517 14810 net.cpp:156] Memory required for data: 1329757728
I0403 15:53:29.078536 14810 layer_factory.hpp:77] Creating layer inception_5b/relu_3x3_reduce
I0403 15:53:29.078555 14810 net.cpp:91] Creating Layer inception_5b/relu_3x3_reduce
I0403 15:53:29.078572 14810 net.cpp:425] inception_5b/relu_3x3_reduce <- inception_5b/3x3_reduce
I0403 15:53:29.078588 14810 net.cpp:386] inception_5b/relu_3x3_reduce -> inception_5b/3x3_reduce (in-place)
I0403 15:53:29.078773 14810 net.cpp:141] Setting up inception_5b/relu_3x3_reduce
I0403 15:53:29.078801 14810 net.cpp:148] Top shape: 24 192 7 7 (225792)
I0403 15:53:29.078819 14810 net.cpp:156] Memory required for data: 1330660896
I0403 15:53:29.078833 14810 layer_factory.hpp:77] Creating layer inception_5b/3x3
I0403 15:53:29.078853 14810 net.cpp:91] Creating Layer inception_5b/3x3
I0403 15:53:29.078871 14810 net.cpp:425] inception_5b/3x3 <- inception_5b/3x3_reduce
I0403 15:53:29.078889 14810 net.cpp:399] inception_5b/3x3 -> inception_5b/3x3
I0403 15:53:29.085433 14810 net.cpp:141] Setting up inception_5b/3x3
I0403 15:53:29.085461 14810 net.cpp:148] Top shape: 24 384 7 7 (451584)
I0403 15:53:29.085481 14810 net.cpp:156] Memory required for data: 1332467232
I0403 15:53:29.085500 14810 layer_factory.hpp:77] Creating layer inception_5b/relu_3x3
I0403 15:53:29.085517 14810 net.cpp:91] Creating Layer inception_5b/relu_3x3
I0403 15:53:29.085533 14810 net.cpp:425] inception_5b/relu_3x3 <- inception_5b/3x3
I0403 15:53:29.085549 14810 net.cpp:386] inception_5b/relu_3x3 -> inception_5b/3x3 (in-place)
I0403 15:53:29.085844 14810 net.cpp:141] Setting up inception_5b/relu_3x3
I0403 15:53:29.085870 14810 net.cpp:148] Top shape: 24 384 7 7 (451584)
I0403 15:53:29.085889 14810 net.cpp:156] Memory required for data: 1334273568
I0403 15:53:29.085906 14810 layer_factory.hpp:77] Creating layer inception_5b/5x5_reduce
I0403 15:53:29.085940 14810 net.cpp:91] Creating Layer inception_5b/5x5_reduce
I0403 15:53:29.085960 14810 net.cpp:425] inception_5b/5x5_reduce <- inception_5a/output_inception_5a/output_0_split_2
I0403 15:53:29.085981 14810 net.cpp:399] inception_5b/5x5_reduce -> inception_5b/5x5_reduce
I0403 15:53:29.087234 14810 net.cpp:141] Setting up inception_5b/5x5_reduce
I0403 15:53:29.087262 14810 net.cpp:148] Top shape: 24 48 7 7 (56448)
I0403 15:53:29.087277 14810 net.cpp:156] Memory required for data: 1334499360
I0403 15:53:29.087294 14810 layer_factory.hpp:77] Creating layer inception_5b/relu_5x5_reduce
I0403 15:53:29.087314 14810 net.cpp:91] Creating Layer inception_5b/relu_5x5_reduce
I0403 15:53:29.087332 14810 net.cpp:425] inception_5b/relu_5x5_reduce <- inception_5b/5x5_reduce
I0403 15:53:29.087348 14810 net.cpp:386] inception_5b/relu_5x5_reduce -> inception_5b/5x5_reduce (in-place)
I0403 15:53:29.087718 14810 net.cpp:141] Setting up inception_5b/relu_5x5_reduce
I0403 15:53:29.087744 14810 net.cpp:148] Top shape: 24 48 7 7 (56448)
I0403 15:53:29.087759 14810 net.cpp:156] Memory required for data: 1334725152
I0403 15:53:29.087774 14810 layer_factory.hpp:77] Creating layer inception_5b/5x5
I0403 15:53:29.087793 14810 net.cpp:91] Creating Layer inception_5b/5x5
I0403 15:53:29.087810 14810 net.cpp:425] inception_5b/5x5 <- inception_5b/5x5_reduce
I0403 15:53:29.087827 14810 net.cpp:399] inception_5b/5x5 -> inception_5b/5x5
I0403 15:53:29.089838 14810 net.cpp:141] Setting up inception_5b/5x5
I0403 15:53:29.089869 14810 net.cpp:148] Top shape: 24 128 7 7 (150528)
I0403 15:53:29.089884 14810 net.cpp:156] Memory required for data: 1335327264
I0403 15:53:29.089902 14810 layer_factory.hpp:77] Creating layer inception_5b/relu_5x5
I0403 15:53:29.089920 14810 net.cpp:91] Creating Layer inception_5b/relu_5x5
I0403 15:53:29.089934 14810 net.cpp:425] inception_5b/relu_5x5 <- inception_5b/5x5
I0403 15:53:29.089951 14810 net.cpp:386] inception_5b/relu_5x5 -> inception_5b/5x5 (in-place)
I0403 15:53:29.090145 14810 net.cpp:141] Setting up inception_5b/relu_5x5
I0403 15:53:29.090170 14810 net.cpp:148] Top shape: 24 128 7 7 (150528)
I0403 15:53:29.090185 14810 net.cpp:156] Memory required for data: 1335929376
I0403 15:53:29.090201 14810 layer_factory.hpp:77] Creating layer inception_5b/pool
I0403 15:53:29.090219 14810 net.cpp:91] Creating Layer inception_5b/pool
I0403 15:53:29.090234 14810 net.cpp:425] inception_5b/pool <- inception_5a/output_inception_5a/output_0_split_3
I0403 15:53:29.090253 14810 net.cpp:399] inception_5b/pool -> inception_5b/pool
I0403 15:53:29.090325 14810 net.cpp:141] Setting up inception_5b/pool
I0403 15:53:29.090351 14810 net.cpp:148] Top shape: 24 832 7 7 (978432)
I0403 15:53:29.090365 14810 net.cpp:156] Memory required for data: 1339843104
I0403 15:53:29.090378 14810 layer_factory.hpp:77] Creating layer inception_5b/pool_proj
I0403 15:53:29.090399 14810 net.cpp:91] Creating Layer inception_5b/pool_proj
I0403 15:53:29.090416 14810 net.cpp:425] inception_5b/pool_proj <- inception_5b/pool
I0403 15:53:29.090435 14810 net.cpp:399] inception_5b/pool_proj -> inception_5b/pool_proj
I0403 15:53:29.092684 14810 net.cpp:141] Setting up inception_5b/pool_proj
I0403 15:53:29.092712 14810 net.cpp:148] Top shape: 24 128 7 7 (150528)
I0403 15:53:29.092728 14810 net.cpp:156] Memory required for data: 1340445216
I0403 15:53:29.092746 14810 layer_factory.hpp:77] Creating layer inception_5b/relu_pool_proj
I0403 15:53:29.092766 14810 net.cpp:91] Creating Layer inception_5b/relu_pool_proj
I0403 15:53:29.092782 14810 net.cpp:425] inception_5b/relu_pool_proj <- inception_5b/pool_proj
I0403 15:53:29.092800 14810 net.cpp:386] inception_5b/relu_pool_proj -> inception_5b/pool_proj (in-place)
I0403 15:53:29.093104 14810 net.cpp:141] Setting up inception_5b/relu_pool_proj
I0403 15:53:29.093142 14810 net.cpp:148] Top shape: 24 128 7 7 (150528)
I0403 15:53:29.093161 14810 net.cpp:156] Memory required for data: 1341047328
I0403 15:53:29.093176 14810 layer_factory.hpp:77] Creating layer inception_5b/output
I0403 15:53:29.093195 14810 net.cpp:91] Creating Layer inception_5b/output
I0403 15:53:29.093226 14810 net.cpp:425] inception_5b/output <- inception_5b/1x1
I0403 15:53:29.093245 14810 net.cpp:425] inception_5b/output <- inception_5b/3x3
I0403 15:53:29.093261 14810 net.cpp:425] inception_5b/output <- inception_5b/5x5
I0403 15:53:29.093276 14810 net.cpp:425] inception_5b/output <- inception_5b/pool_proj
I0403 15:53:29.093293 14810 net.cpp:399] inception_5b/output -> inception_5b/output
I0403 15:53:29.093348 14810 net.cpp:141] Setting up inception_5b/output
I0403 15:53:29.093374 14810 net.cpp:148] Top shape: 24 1024 7 7 (1204224)
I0403 15:53:29.093389 14810 net.cpp:156] Memory required for data: 1345864224
I0403 15:53:29.093402 14810 layer_factory.hpp:77] Creating layer pool5/7x7_s1
I0403 15:53:29.093420 14810 net.cpp:91] Creating Layer pool5/7x7_s1
I0403 15:53:29.093436 14810 net.cpp:425] pool5/7x7_s1 <- inception_5b/output
I0403 15:53:29.093457 14810 net.cpp:399] pool5/7x7_s1 -> pool5/7x7_s1
I0403 15:53:29.093675 14810 net.cpp:141] Setting up pool5/7x7_s1
I0403 15:53:29.093703 14810 net.cpp:148] Top shape: 24 1024 1 1 (24576)
I0403 15:53:29.093720 14810 net.cpp:156] Memory required for data: 1345962528
I0403 15:53:29.093734 14810 layer_factory.hpp:77] Creating layer pool5/drop_7x7_s1
I0403 15:53:29.093752 14810 net.cpp:91] Creating Layer pool5/drop_7x7_s1
I0403 15:53:29.093767 14810 net.cpp:425] pool5/drop_7x7_s1 <- pool5/7x7_s1
I0403 15:53:29.093786 14810 net.cpp:386] pool5/drop_7x7_s1 -> pool5/7x7_s1 (in-place)
I0403 15:53:29.093837 14810 net.cpp:141] Setting up pool5/drop_7x7_s1
I0403 15:53:29.093859 14810 net.cpp:148] Top shape: 24 1024 1 1 (24576)
I0403 15:53:29.093873 14810 net.cpp:156] Memory required for data: 1346060832
I0403 15:53:29.093888 14810 layer_factory.hpp:77] Creating layer loss3/classifier_plantvillage
I0403 15:53:29.093911 14810 net.cpp:91] Creating Layer loss3/classifier_plantvillage
I0403 15:53:29.093930 14810 net.cpp:425] loss3/classifier_plantvillage <- pool5/7x7_s1
I0403 15:53:29.093950 14810 net.cpp:399] loss3/classifier_plantvillage -> loss3/classifier_plantvillage
I0403 15:53:29.094379 14810 net.cpp:141] Setting up loss3/classifier_plantvillage
I0403 15:53:29.094404 14810 net.cpp:148] Top shape: 24 38 (912)
I0403 15:53:29.094419 14810 net.cpp:156] Memory required for data: 1346064480
I0403 15:53:29.094437 14810 layer_factory.hpp:77] Creating layer loss3/classifier_plantvillage_loss3/classifier_plantvillage_0_split
I0403 15:53:29.094455 14810 net.cpp:91] Creating Layer loss3/classifier_plantvillage_loss3/classifier_plantvillage_0_split
I0403 15:53:29.094477 14810 net.cpp:425] loss3/classifier_plantvillage_loss3/classifier_plantvillage_0_split <- loss3/classifier_plantvillage
I0403 15:53:29.094496 14810 net.cpp:399] loss3/classifier_plantvillage_loss3/classifier_plantvillage_0_split -> loss3/classifier_plantvillage_loss3/classifier_plantvillage_0_split_0
I0403 15:53:29.094516 14810 net.cpp:399] loss3/classifier_plantvillage_loss3/classifier_plantvillage_0_split -> loss3/classifier_plantvillage_loss3/classifier_plantvillage_0_split_1
I0403 15:53:29.094535 14810 net.cpp:399] loss3/classifier_plantvillage_loss3/classifier_plantvillage_0_split -> loss3/classifier_plantvillage_loss3/classifier_plantvillage_0_split_2
I0403 15:53:29.094557 14810 net.cpp:399] loss3/classifier_plantvillage_loss3/classifier_plantvillage_0_split -> loss3/classifier_plantvillage_loss3/classifier_plantvillage_0_split_3
I0403 15:53:29.094657 14810 net.cpp:141] Setting up loss3/classifier_plantvillage_loss3/classifier_plantvillage_0_split
I0403 15:53:29.094681 14810 net.cpp:148] Top shape: 24 38 (912)
I0403 15:53:29.094697 14810 net.cpp:148] Top shape: 24 38 (912)
I0403 15:53:29.094713 14810 net.cpp:148] Top shape: 24 38 (912)
I0403 15:53:29.094728 14810 net.cpp:148] Top shape: 24 38 (912)
I0403 15:53:29.094743 14810 net.cpp:156] Memory required for data: 1346079072
I0403 15:53:29.094758 14810 layer_factory.hpp:77] Creating layer loss1/loss
I0403 15:53:29.094779 14810 net.cpp:91] Creating Layer loss1/loss
I0403 15:53:29.094795 14810 net.cpp:425] loss1/loss <- loss1/classifier_plantvillage_loss1/classifier_plantvillage_0_split_0
I0403 15:53:29.094826 14810 net.cpp:425] loss1/loss <- label_data_1_split_0
…
