…
I0403 15:44:13.551707 14283 net.cpp:313] The NetState phase (1) differed from the phase (0) specified by a rule in layer data
I0403 15:44:13.552969 14283 net.cpp:49] Initializing net from parameters: 
state {
  phase: TEST
}
layer {
  name: "data"
  type: "Data"
  top: "data"
  top: "label"
  include {
    phase: TEST
  }
  transform_param {
    mirror: false
    crop_size: 224
    mean_file: "/home/mohanty/data/final_dataset/lmdb/color-80-20/mean.binaryproto"
  }
  data_param {
    source: "/home/mohanty/data/final_dataset/lmdb/color-80-20/test_db"
    batch_size: 24
    backend: LMDB
  }
}
layer {
  name: "conv1/7x7_s2"
  type: "Convolution"
  bottom: "data"
  top: "conv1/7x7_s2"
  param {
    lr_mult: 1
    decay_mult: 1
  }
  param {
    lr_mult: 2
    decay_mult: 0
  }
  convolution_param {
    num_output: 64
    pad: 3
    kernel_size: 7
    stride: 2
    weight_filler {
      type: "xavier"
      std: 0.1
    }
    bias_filler {
      type: "constant"
      value: 0.2
    }
  }
}
layer {
  name: "conv1/relu_7x7"
  type: "ReLU"
  bottom: "conv1/7x7_s2"
  top: "conv1/7x7_s2"
}
layer {
  name: "pool1/3x3_s2"
  type: "Pooling"
  bottom: "conv1/7x7_s2"
  top: "pool1/3x3_s2"
  pooling_param {
    pool: MAX
    kernel_size: 3
    stride: 2
  }
}
layer {
  name: "pool1/norm1"
  type: "LRN"
  bottom: "pool1/3x3_s2"
  top: "pool1/norm1"
  lrn_param {
    local_size: 5
    alpha: 0.0001
    beta: 0.75
  }
}
layer {
  name: "conv2/3x3_reduce"
  type: "Convolution"
  bottom: "pool1/norm1"
  top: "conv2/3x3_reduce"
  param {
    lr_mult: 1
    decay_mult: 1
  }
  param {
    lr_mult: 2
    decay_mult: 0
  }
  convolution_param {
    num_output: 64
    kernel_size: 1
    weight_filler {
      type: "xavier"
      std: 0.1
    }
    bias_filler {
      type: "constant"
      value: 0.2
    }
  }
}
layer {
  name: "conv2/relu_3x3_reduce"
  type: "ReLU"
  bottom: "conv2/3x3_reduce"
  top: "conv2/3x3_reduce"
}
layer {
  name: "conv2/3x3"
  type: "Convolution"
  bottom: "conv2/3x3_reduce"
  top: "conv2/3x3"
  param {
    lr_mult: 1
    decay_mult: 1
  }
  param {
    lr_mult: 2
    decay_mult: 0
  }
  convolution_param {
    num_output: 192
    pad: 1
    kernel_size: 3
    weight_filler {
      type: "xavier"
      std: 0.03
    }
    bias_filler {
      type: "constant"
      value: 0.2
    }
  }
}
layer {
  name: "conv2/relu_3x3"
  type: "ReLU"
  bottom: "conv2/3x3"
  top: "conv2/3x3"
}
layer {
  name: "conv2/norm2"
  type: "LRN"
  bottom: "conv2/3x3"
  top: "conv2/norm2"
  lrn_param {
    local_size: 5
    alpha: 0.0001
    beta: 0.75
  }
}
layer {
  name: "pool2/3x3_s2"
  type: "Pooling"
  bottom: "conv2/norm2"
  top: "pool2/3x3_s2"
  pooling_param {
    pool: MAX
    kernel_size: 3
    stride: 2
  }
}
layer {
  name: "inception_3a/1x1"
  type: "Convolution"
  bottom: "pool2/3x3_s2"
  top: "inception_3a/1x1"
  param {
    lr_mult: 1
    decay_mult: 1
  }
  param {
    lr_mult: 2
    decay_mult: 0
  }
  convolution_param {
    num_output: 64
    kernel_size: 1
    weight_filler {
      type: "xavier"
      std: 0.03
    }
    bias_filler {
      type: "constant"
      value: 0.2
    }
  }
}
layer {
  name: "inception_3a/relu_1x1"
  type: "ReLU"
  bottom: "inception_3a/1x1"
  top: "inception_3a/1x1"
}
layer {
  name: "inception_3a/3x3_reduce"
  type: "Convolution"
  bottom: "pool2/3x3_s2"
  top: "inception_3a/3x3_reduce"
  param {
    lr_mult: 1
    decay_mult: 1
  }
  param {
    lr_mult: 2
    decay_mult: 0
  }
  convolution_param {
    num_output: 96
    kernel_size: 1
    weight_filler {
      type: "xavier"
      std: 0.09
    }
    bias_filler {
      type: "constant"
      value: 0.2
    }
  }
}
layer {
  name: "inception_3a/relu_3x3_reduce"
  type: "ReLU"
  bottom: "inception_3a/3x3_reduce"
  top: "inception_3a/3x3_reduce"
}
layer {
  name: "inception_3a/3x3"
  type: "Convolution"
  bottom: "inception_3a/3x3_reduce"
  top: "inception_3a/3x3"
  param {
    lr_mult: 1
    decay_mult: 1
  }
  param {
    lr_mult: 2
    decay_mult: 0
  }
  convolution_param {
    num_output: 128
    pad: 1
    kernel_size: 3
    weight_filler {
      type: "xavier"
      std: 0.03
    }
    bias_filler {
      type: "constant"
      value: 0.2
    }
  }
}
layer {
  name: "inception_3a/relu_3x3"
  type: "ReLU"
  bottom: "inception_3a/3x3"
  top: "inception_3a/3x3"
}
layer {
  name: "inception_3a/5x5_reduce"
  type: "Convolution"
  bottom: "pool2/3x3_s2"
  top: "inception_3a/5x5_reduce"
  param {
    lr_mult: 1
    decay_mult: 1
  }
  param {
    lr_mult: 2
    decay_mult: 0
  }
  convolution_param {
    num_output: 16
    kernel_size: 1
    weight_filler {
      type: "xavier"
      std: 0.2
    }
    bias_filler {
      type: "constant"
      value: 0.2
    }
  }
}
layer {
  name: "inception_3a/relu_5x5_reduce"
  type: "ReLU"
  bottom: "inception_3a/5x5_reduce"
  top: "inception_3a/5x5_reduce"
}
layer {
  name: "inception_3a/5x5"
  type: "Convolution"
  bottom: "inception_3a/5x5_reduce"
  top: "inception_3a/5x5"
  param {
    lr_mult: 1
    decay_mult: 1
  }
  param {
    lr_mult: 2
    decay_mult: 0
  }
  convolution_param {
    num_output: 32
    pad: 2
    kernel_size: 5
    weight_filler {
      type: "xavier"
      std: 0.03
    }
    bias_filler {
      type: "constant"
      value: 0.2
    }
  }
}
layer {
  name: "inception_3a/relu_5x5"
  type: "ReLU"
  bottom: "inception_3a/5x5"
  top: "inception_3a/5x5"
}
layer {
  name: "inception_3a/pool"
  type: "Pooling"
  bottom: "pool2/3x3_s2"
  top: "inception_3a/pool"
  pooling_param {
    pool: MAX
    kernel_size: 3
    stride: 1
    pad: 1
  }
}
layer {
  name: "inception_3a/pool_proj"
  type: "Convolution"
  bottom: "inception_3a/pool"
  top: "inception_3a/pool_proj"
  param {
    lr_mult: 1
    decay_mult: 1
  }
  param {
    lr_mult: 2
    decay_mult: 0
  }
  convolution_param {
    num_output: 32
    kernel_size: 1
    weight_filler {
      type: "xavier"
      std: 0.1
    }
    bias_filler {
      type: "constant"
      value: 0.2
    }
  }
}
layer {
  name: "inception_3a/relu_pool_proj"
  type: "ReLU"
  bottom: "inception_3a/pool_proj"
  top: "inception_3a/pool_proj"
}
layer {
  name: "inception_3a/output"
  type: "Concat"
  bottom: "inception_3a/1x1"
  bottom: "inception_3a/3x3"
  bottom: "inception_3a/5x5"
  bottom: "inception_3a/pool_proj"
  top: "inception_3a/output"
}
layer {
  name: "inception_3b/1x1"
  type: "Convolution"
  bottom: "inception_3a/output"
  top: "inception_3b/1x1"
  param {
    lr_mult: 1
    decay_mult: 1
  }
  param {
    lr_mult: 2
    decay_mult: 0
  }
  convolution_param {
    num_output: 128
    kernel_size: 1
    weight_filler {
      type: "xavier"
      std: 0.03
    }
    bias_filler {
      type: "constant"
      value: 0.2
    }
  }
}
layer {
  name: "inception_3b/relu_1x1"
  type: "ReLU"
  bottom: "inception_3b/1x1"
  top: "inception_3b/1x1"
}
layer {
  name: "inception_3b/3x3_reduce"
  type: "Convolution"
  bottom: "inception_3a/output"
  top: "inception_3b/3x3_reduce"
  param {
    lr_mult: 1
    decay_mult: 1
  }
  param {
    lr_mult: 2
    decay_mult: 0
  }
  convolution_param {
    num_output: 128
    kernel_size: 1
    weight_filler {
      type: "xavier"
      std: 0.09
    }
    bias_filler {
      type: "constant"
      value: 0.2
    }
  }
}
layer {
  name: "inception_3b/relu_3x3_reduce"
  type: "ReLU"
  bottom: "inception_3b/3x3_reduce"
  top: "inception_3b/3x3_reduce"
}
layer {
  name: "inception_3b/3x3"
  type: "Convolution"
  bottom: "inception_3b/3x3_reduce"
  top: "inception_3b/3x3"
  param {
    lr_mult: 1
    decay_mult: 1
  }
  param {
    lr_mult: 2
    decay_mult: 0
  }
  convolution_param {
    num_output: 192
    pad: 1
    kernel_size: 3
    weight_filler {
      type: "xavier"
      std: 0.03
    }
    bias_filler {
      type: "constant"
      value: 0.2
    }
  }
}
layer {
  name: "inception_3b/relu_3x3"
  type: "ReLU"
  bottom: "inception_3b/3x3"
  top: "inception_3b/3x3"
}
layer {
  name: "inception_3b/5x5_reduce"
  type: "Convolution"
  bottom: "inception_3a/output"
  top: "inception_3b/5x5_reduce"
  param {
    lr_mult: 1
    decay_mult: 1
  }
  param {
    lr_mult: 2
    decay_mult: 0
  }
  convolution_param {
    num_output: 32
    kernel_size: 1
    weight_filler {
      type: "xavier"
      std: 0.2
    }
    bias_filler {
      type: "constant"
      value: 0.2
    }
  }
}
layer {
  name: "inception_3b/relu_5x5_reduce"
  type: "ReLU"
  bottom: "inception_3b/5x5_reduce"
  top: "inception_3b/5x5_reduce"
}
layer {
  name: "inception_3b/5x5"
  type: "Convolution"
  bottom: "inception_3b/5x5_reduce"
  top: "inception_3b/5x5"
  param {
    lr_mult: 1
    decay_mult: 1
  }
  param {
    lr_mult: 2
    decay_mult: 0
  }
  convolution_param {
    num_output: 96
    pad: 2
    kernel_size: 5
    weight_filler {
      type: "xavier"
      std: 0.03
    }
    bias_filler {
      type: "constant"
      value: 0.2
    }
  }
}
layer {
  name: "inception_3b/relu_5x5"
  type: "ReLU"
  bottom: "inception_3b/5x5"
  top: "inception_3b/5x5"
}
layer {
  name: "inception_3b/pool"
  type: "Pooling"
  bottom: "inception_3a/output"
  top: "inception_3b/pool"
  pooling_param {
    pool: MAX
    kernel_size: 3
    stride: 1
    pad: 1
  }
}
layer {
  name: "inception_3b/pool_proj"
  type: "Convolution"
  bottom: "inception_3b/pool"
  top: "inception_3b/pool_proj"
  param {
    lr_mult: 1
    decay_mult: 1
  }
  param {
    lr_mult: 2
    decay_mult: 0
  }
  convolution_param {
    num_output: 64
    kernel_size: 1
    weight_filler {
      type: "xavier"
      std: 0.1
    }
    bias_filler {
      type: "constant"
      value: 0.2
    }
  }
}
layer {
  name: "inception_3b/relu_pool_proj"
  type: "ReLU"
  bottom: "inception_3b/pool_proj"
  top: "inception_3b/pool_proj"
}
layer {
  name: "inception_3b/output"
  type: "Concat"
  bottom: "inception_3b/1x1"
  bottom: "inception_3b/3x3"
  bottom: "inception_3b/5x5"
  bottom: "inception_3b/pool_proj"
  top: "inception_3b/output"
}
layer {
  name: "pool3/3x3_s2"
  type: "Pooling"
  bottom: "inception_3b/output"
  top: "pool3/3x3_s2"
  pooling_param {
    pool: MAX
    kernel_size: 3
    stride: 2
  }
}
layer {
  name: "inception_4a/1x1"
  type: "Convolution"
  bottom: "pool3/3x3_s2"
  top: "inception_4a/1x1"
  param {
    lr_mult: 1
    decay_mult: 1
  }
  param {
    lr_mult: 2
    decay_mult: 0
  }
  convolution_param {
    num_output: 192
    kernel_size: 1
    weight_filler {
      type: "xavier"
      std: 0.03
    }
    bias_filler {
      type: "constant"
      value: 0.2
    }
  }
}
layer {
  name: "inception_4a/relu_1x1"
  type: "ReLU"
  bottom: "inception_4a/1x1"
  top: "inception_4a/1x1"
}
layer {
  name: "inception_4a/3x3_reduce"
  type: "Convolution"
  bottom: "pool3/3x3_s2"
  top: "inception_4a/3x3_reduce"
  param {
    lr_mult: 1
    decay_mult: 1
  }
  param {
    lr_mult: 2
    decay_mult: 0
  }
  convolution_param {
    num_output: 96
    kernel_size: 1
    weight_filler {
      type: "xavier"
      std: 0.09
    }
    bias_filler {
      type: "constant"
      value: 0.2
    }
  }
}
layer {
  name: "inception_4a/relu_3x3_reduce"
  type: "ReLU"
  bottom: "inception_4a/3x3_reduce"
  top: "inception_4a/3x3_reduce"
}
layer {
  name: "inception_4a/3x3"
  type: "Convolution"
  bottom: "inception_4a/3x3_reduce"
  top: "inception_4a/3x3"
  param {
    lr_mult: 1
    decay_mult: 1
  }
  param {
    lr_mult: 2
    decay_mult: 0
  }
  convolution_param {
    num_output: 208
    pad: 1
    kernel_size: 3
    weight_filler {
      type: "xavier"
      std: 0.03
    }
    bias_filler {
      type: "constant"
      value: 0.2
    }
  }
}
layer {
  name: "inception_4a/relu_3x3"
  type: "ReLU"
  bottom: "inception_4a/3x3"
  top: "inception_4a/3x3"
}
layer {
  name: "inception_4a/5x5_reduce"
  type: "Convolution"
  bottom: "pool3/3x3_s2"
  top: "inception_4a/5x5_reduce"
  param {
    lr_mult: 1
    decay_mult: 1
  }
  param {
    lr_mult: 2
    decay_mult: 0
  }
  convolution_param {
    num_output: 16
    kernel_size: 1
    weight_filler {
      type: "xavier"
      std: 0.2
    }
    bias_filler {
      type: "constant"
      value: 0.2
    }
  }
}
layer {
  name: "inception_4a/relu_5x5_reduce"
  type: "ReLU"
  bottom: "inception_4a/5x5_reduce"
  top: "inception_4a/5x5_reduce"
}
layer {
  name: "inception_4a/5x5"
  type: "Convolution"
  bottom: "inception_4a/5x5_reduce"
  top: "inception_4a/5x5"
  param {
    lr_mult: 1
    decay_mult: 1
  }
  param {
    lr_mult: 2
    decay_mult: 0
  }
  convolution_param {
    num_output: 48
    pad: 2
    kernel_size: 5
    weight_filler {
      type: "xavier"
      std: 0.03
    }
    bias_filler {
      type: "constant"
      value: 0.2
    }
  }
}
layer {
  name: "inception_4a/relu_5x5"
  type: "ReLU"
  bottom: "inception_4a/5x5"
  top: "inception_4a/5x5"
}
layer {
  name: "inception_4a/pool"
  type: "Pooling"
  bottom: "pool3/3x3_s2"
  top: "inception_4a/pool"
  pooling_param {
    pool: MAX
    kernel_size: 3
    stride: 1
    pad: 1
  }
}
layer {
  name: "inception_4a/pool_proj"
  type: "Convolution"
  bottom: "inception_4a/pool"
  top: "inception_4a/pool_proj"
  param {
    lr_mult: 1
    decay_mult: 1
  }
  param {
    lr_mult: 2
    decay_mult: 0
  }
  convolution_param {
    num_output: 64
    kernel_size: 1
    weight_filler {
      type: "xavier"
      std: 0.1
    }
    bias_filler {
      type: "constant"
      value: 0.2
    }
  }
}
layer {
  name: "inception_4a/relu_pool_proj"
  type: "ReLU"
  bottom: "inception_4a/pool_proj"
  top: "inception_4a/pool_proj"
}
layer {
  name: "inception_4a/output"
  type: "Concat"
  bottom: "inception_4a/1x1"
  bottom: "inception_4a/3x3"
  bottom: "inception_4a/5x5"
  bottom: "inception_4a/pool_proj"
  top: "inception_4a/output"
}
layer {
  name: "loss1/ave_pool"
  type: "Pooling"
  bottom: "inception_4a/output"
  top: "loss1/ave_pool"
  pooling_param {
    pool: AVE
    kernel_size: 5
    stride: 3
  }
}
layer {
  name: "loss1/conv"
  type: "Convolution"
  bottom: "loss1/ave_pool"
  top: "loss1/conv"
  param {
    lr_mult: 1
    decay_mult: 1
  }
  param {
    lr_mult: 2
    decay_mult: 0
  }
  convolution_param {
    num_output: 128
    kernel_size: 1
    weight_filler {
      type: "xavier"
      std: 0.08
    }
    bias_filler {
      type: "constant"
      value: 0.2
    }
  }
}
layer {
  name: "loss1/relu_conv"
  type: "ReLU"
  bottom: "loss1/conv"
  top: "loss1/conv"
}
layer {
  name: "loss1/fc"
  type: "InnerProduct"
  bottom: "loss1/conv"
  top: "loss1/fc"
  param {
    lr_mult: 1
    decay_mult: 1
  }
  param {
    lr_mult: 2
    decay_mult: 0
  }
  inner_product_param {
    num_output: 1024
    weight_filler {
      type: "xavier"
      std: 0.02
    }
    bias_filler {
      type: "constant"
      value: 0.2
    }
  }
}
layer {
  name: "loss1/relu_fc"
  type: "ReLU"
  bottom: "loss1/fc"
  top: "loss1/fc"
}
layer {
  name: "loss1/drop_fc"
  type: "Dropout"
  bottom: "loss1/fc"
  top: "loss1/fc"
  dropout_param {
    dropout_ratio: 0.7
  }
}
layer {
  name: "loss1/classifier_plantvillage"
  type: "InnerProduct"
  bottom: "loss1/fc"
  top: "loss1/classifier_plantvillage"
  param {
    lr_mult: 1
    decay_mult: 1
  }
  param {
    lr_mult: 2
    decay_mult: 0
  }
  inner_product_param {
    num_output: 38
    weight_filler {
      type: "xavier"
      std: 0.0009765625
    }
    bias_filler {
      type: "constant"
      value: 0
    }
  }
}
layer {
  name: "inception_4b/1x1"
  type: "Convolution"
  bottom: "inception_4a/output"
  top: "inception_4b/1x1"
  param {
    lr_mult: 1
    decay_mult: 1
  }
  param {
    lr_mult: 2
    decay_mult: 0
  }
  convolution_param {
    num_output: 160
    kernel_size: 1
    weight_filler {
      type: "xavier"
      std: 0.03
    }
    bias_filler {
      type: "constant"
      value: 0.2
    }
  }
}
layer {
  name: "inception_4b/relu_1x1"
  type: "ReLU"
  bottom: "inception_4b/1x1"
  top: "inception_4b/1x1"
}
layer {
  name: "inception_4b/3x3_reduce"
  type: "Convolution"
  bottom: "inception_4a/output"
  top: "inception_4b/3x3_reduce"
  param {
    lr_mult: 1
    decay_mult: 1
  }
  param {
    lr_mult: 2
    decay_mult: 0
  }
  convolution_param {
    num_output: 112
    kernel_size: 1
    weight_filler {
      type: "xavier"
      std: 0.09
    }
    bias_filler {
      type: "constant"
      value: 0.2
    }
  }
}
layer {
  name: "inception_4b/relu_3x3_reduce"
  type: "ReLU"
  bottom: "inception_4b/3x3_reduce"
  top: "inception_4b/3x3_reduce"
}
layer {
  name: "inception_4b/3x3"
  type: "Convolution"
  bottom: "inception_4b/3x3_reduce"
  top: "inception_4b/3x3"
  param {
    lr_mult: 1
    decay_mult: 1
  }
  param {
    lr_mult: 2
    decay_mult: 0
  }
  convolution_param {
    num_output: 224
    pad: 1
    kernel_size: 3
    weight_filler {
      type: "xavier"
      std: 0.03
    }
    bias_filler {
      type: "constant"
      value: 0.2
    }
  }
}
layer {
  name: "inception_4b/relu_3x3"
  type: "ReLU"
  bottom: "inception_4b/3x3"
  top: "inception_4b/3x3"
}
layer {
  name: "inception_4b/5x5_reduce"
  type: "Convolution"
  bottom: "inception_4a/output"
  top: "inception_4b/5x5_reduce"
  param {
    lr_mult: 1
    decay_mult: 1
  }
  param {
    lr_mult: 2
    decay_mult: 0
  }
  convolution_param {
    num_output: 24
    kernel_size: 1
    weight_filler {
      type: "xavier"
      std: 0.2
    }
    bias_filler {
      type: "constant"
      value: 0.2
    }
  }
}
layer {
  name: "inception_4b/relu_5x5_reduce"
  type: "ReLU"
  bottom: "inception_4b/5x5_reduce"
  top: "inception_4b/5x5_reduce"
}
layer {
  name: "inception_4b/5x5"
  type: "Convolution"
  bottom: "inception_4b/5x5_reduce"
  top: "inception_4b/5x5"
  param {
    lr_mult: 1
    decay_mult: 1
  }
  param {
    lr_mult: 2
    decay_mult: 0
  }
  convolution_param {
    num_output: 64
    pad: 2
    kernel_size: 5
    weight_filler {
      type: "xavier"
      std: 0.03
    }
    bias_filler {
      type: "constant"
      value: 0.2
    }
  }
}
layer {
  name: "inception_4b/relu_5x5"
  type: "ReLU"
  bottom: "inception_4b/5x5"
  top: "inception_4b/5x5"
}
layer {
  name: "inception_4b/pool"
  type: "Pooling"
  bottom: "inception_4a/output"
  top: "inception_4b/pool"
  pooling_param {
    pool: MAX
    kernel_size: 3
    stride: 1
    pad: 1
  }
}
layer {
  name: "inception_4b/pool_proj"
  type: "Convolution"
  bottom: "inception_4b/pool"
  top: "inception_4b/pool_proj"
  param {
    lr_mult: 1
    decay_mult: 1
  }
  param {
    lr_mult: 2
    decay_mult: 0
  }
  convolution_param {
    num_output: 64
    kernel_size: 1
    weight_filler {
      type: "xavier"
      std: 0.1
    }
    bias_filler {
      type: "constant"
      value: 0.2
    }
  }
}
layer {
  name: "inception_4b/relu_pool_proj"
  type: "ReLU"
  bottom: "inception_4b/pool_proj"
  top: "inception_4b/pool_proj"
}
layer {
  name: "inception_4b/output"
  type: "Concat"
  bottom: "inception_4b/1x1"
  bottom: "inception_4b/3x3"
  bottom: "inception_4b/5x5"
  bottom: "inception_4b/pool_proj"
  top: "inception_4b/output"
}
layer {
  name: "inception_4c/1x1"
  type: "Convolution"
  bottom: "inception_4b/output"
  top: "inception_4c/1x1"
  param {
    lr_mult: 1
    decay_mult: 1
  }
  param {
    lr_mult: 2
    decay_mult: 0
  }
  convolution_param {
    num_output: 128
    kernel_size: 1
    weight_filler {
      type: "xavier"
      std: 0.03
    }
    bias_filler {
      type: "constant"
      value: 0.2
    }
  }
}
layer {
  name: "inception_4c/relu_1x1"
  type: "ReLU"
  bottom: "inception_4c/1x1"
  top: "inception_4c/1x1"
}
layer {
  name: "inception_4c/3x3_reduce"
  type: "Convolution"
  bottom: "inception_4b/output"
  top: "inception_4c/3x3_reduce"
  param {
    lr_mult: 1
    decay_mult: 1
  }
  param {
    lr_mult: 2
    decay_mult: 0
  }
  convolution_param {
    num_output: 128
    kernel_size: 1
    weight_filler {
      type: "xavier"
      std: 0.09
    }
    bias_filler {
      type: "constant"
      value: 0.2
    }
  }
}
layer {
  name: "inception_4c/relu_3x3_reduce"
  type: "ReLU"
  bottom: "inception_4c/3x3_reduce"
  top: "inception_4c/3x3_reduce"
}
layer {
  name: "inception_4c/3x3"
  type: "Convolution"
  bottom: "inception_4c/3x3_reduce"
  top: "inception_4c/3x3"
  param {
    lr_mult: 1
    decay_mult: 1
  }
  param {
    lr_mult: 2
    decay_mult: 0
  }
  convolution_param {
    num_output: 256
    pad: 1
    kernel_size: 3
    weight_filler {
      type: "xavier"
      std: 0.03
    }
    bias_filler {
      type: "constant"
      value: 0.2
    }
  }
}
layer {
  name: "inception_4c/relu_3x3"
  type: "ReLU"
  bottom: "inception_4c/3x3"
  top: "inception_4c/3x3"
}
layer {
  name: "inception_4c/5x5_reduce"
  type: "Convolution"
  bottom: "inception_4b/output"
  top: "inception_4c/5x5_reduce"
  param {
    lr_mult: 1
    decay_mult: 1
  }
  param {
    lr_mult: 2
    decay_mult: 0
  }
  convolution_param {
    num_output: 24
    kernel_size: 1
    weight_filler {
      type: "xavier"
      std: 0.2
    }
    bias_filler {
      type: "constant"
      value: 0.2
    }
  }
}
layer {
  name: "inception_4c/relu_5x5_reduce"
  type: "ReLU"
  bottom: "inception_4c/5x5_reduce"
  top: "inception_4c/5x5_reduce"
}
layer {
  name: "inception_4c/5x5"
  type: "Convolution"
  bottom: "inception_4c/5x5_reduce"
  top: "inception_4c/5x5"
  param {
    lr_mult: 1
    decay_mult: 1
  }
  param {
    lr_mult: 2
    decay_mult: 0
  }
  convolution_param {
    num_output: 64
    pad: 2
    kernel_size: 5
    weight_filler {
      type: "xavier"
      std: 0.03
    }
    bias_filler {
      type: "constant"
      value: 0.2
    }
  }
}
layer {
  name: "inception_4c/relu_5x5"
  type: "ReLU"
  bottom: "inception_4c/5x5"
  top: "inception_4c/5x5"
}
layer {
  name: "inception_4c/pool"
  type: "Pooling"
  bottom: "inception_4b/output"
  top: "inception_4c/pool"
  pooling_param {
    pool: MAX
    kernel_size: 3
    stride: 1
    pad: 1
  }
}
layer {
  name: "inception_4c/pool_proj"
  type: "Convolution"
  bottom: "inception_4c/pool"
  top: "inception_4c/pool_proj"
  param {
    lr_mult: 1
    decay_mult: 1
  }
  param {
    lr_mult: 2
    decay_mult: 0
  }
  convolution_param {
    num_output: 64
    kernel_size: 1
    weight_filler {
      type: "xavier"
      std: 0.1
    }
    bias_filler {
      type: "constant"
      value: 0.2
    }
  }
}
layer {
  name: "inception_4c/relu_pool_proj"
  type: "ReLU"
  bottom: "inception_4c/pool_proj"
  top: "inception_4c/pool_proj"
}
layer {
  name: "inception_4c/output"
  type: "Concat"
  bottom: "inception_4c/1x1"
  bottom: "inception_4c/3x3"
  bottom: "inception_4c/5x5"
  bottom: "inception_4c/pool_proj"
  top: "inception_4c/output"
}
layer {
  name: "inception_4d/1x1"
  type: "Convolution"
  bottom: "inception_4c/output"
  top: "inception_4d/1x1"
  param {
    lr_mult: 1
    decay_mult: 1
  }
  param {
    lr_mult: 2
    decay_mult: 0
  }
  convolution_param {
    num_output: 112
    kernel_size: 1
    weight_filler {
      type: "xavier"
      std: 0.03
    }
    bias_filler {
      type: "constant"
      value: 0.2
    }
  }
}
layer {
  name: "inception_4d/relu_1x1"
  type: "ReLU"
  bottom: "inception_4d/1x1"
  top: "inception_4d/1x1"
}
layer {
  name: "inception_4d/3x3_reduce"
  type: "Convolution"
  bottom: "inception_4c/output"
  top: "inception_4d/3x3_reduce"
  param {
    lr_mult: 1
    decay_mult: 1
  }
  param {
    lr_mult: 2
    decay_mult: 0
  }
  convolution_param {
    num_output: 144
    kernel_size: 1
    weight_filler {
      type: "xavier"
      std: 0.09
    }
    bias_filler {
      type: "constant"
      value: 0.2
    }
  }
}
layer {
  name: "inception_4d/relu_3x3_reduce"
  type: "ReLU"
  bottom: "inception_4d/3x3_reduce"
  top: "inception_4d/3x3_reduce"
}
layer {
  name: "inception_4d/3x3"
  type: "Convolution"
  bottom: "inception_4d/3x3_reduce"
  top: "inception_4d/3x3"
  param {
    lr_mult: 1
    decay_mult: 1
  }
  param {
    lr_mult: 2
    decay_mult: 0
  }
  convolution_param {
    num_output: 288
    pad: 1
    kernel_size: 3
    weight_filler {
      type: "xavier"
      std: 0.03
    }
    bias_filler {
      type: "constant"
      value: 0.2
    }
  }
}
layer {
  name: "inception_4d/relu_3x3"
  type: "ReLU"
  bottom: "inception_4d/3x3"
  top: "inception_4d/3x3"
}
layer {
  name: "inception_4d/5x5_reduce"
  type: "Convolution"
  bottom: "inception_4c/output"
  top: "inception_4d/5x5_reduce"
  param {
    lr_mult: 1
    decay_mult: 1
  }
  param {
    lr_mult: 2
    decay_mult: 0
  }
  convolution_param {
    num_output: 32
    kernel_size: 1
    weight_filler {
      type: "xavier"
      std: 0.2
    }
    bias_filler {
      type: "constant"
      value: 0.2
    }
  }
}
layer {
  name: "inception_4d/relu_5x5_reduce"
  type: "ReLU"
  bottom: "inception_4d/5x5_reduce"
  top: "inception_4d/5x5_reduce"
}
layer {
  name: "inception_4d/5x5"
  type: "Convolution"
  bottom: "inception_4d/5x5_reduce"
  top: "inception_4d/5x5"
  param {
    lr_mult: 1
    decay_mult: 1
  }
  param {
    lr_mult: 2
    decay_mult: 0
  }
  convolution_param {
    num_output: 64
    pad: 2
    kernel_size: 5
    weight_filler {
      type: "xavier"
      std: 0.03
    }
    bias_filler {
      type: "constant"
      value: 0.2
    }
  }
}
layer {
  name: "inception_4d/relu_5x5"
  type: "ReLU"
  bottom: "inception_4d/5x5"
  top: "inception_4d/5x5"
}
layer {
  name: "inception_4d/pool"
  type: "Pooling"
  bottom: "inception_4c/output"
  top: "inception_4d/pool"
  pooling_param {
    pool: MAX
    kernel_size: 3
    stride: 1
    pad: 1
  }
}
layer {
  name: "inception_4d/pool_proj"
  type: "Convolution"
  bottom: "inception_4d/pool"
  top: "inception_4d/pool_proj"
  param {
    lr_mult: 1
    decay_mult: 1
  }
  param {
    lr_mult: 2
    decay_mult: 0
  }
  convolution_param {
    num_output: 64
    kernel_size: 1
    weight_filler {
      type: "xavier"
      std: 0.1
    }
    bias_filler {
      type: "constant"
      value: 0.2
    }
  }
}
layer {
  name: "inception_4d/relu_pool_proj"
  type: "ReLU"
  bottom: "inception_4d/pool_proj"
  top: "inception_4d/pool_proj"
}
layer {
  name: "inception_4d/output"
  type: "Concat"
  bottom: "inception_4d/1x1"
  bottom: "inception_4d/3x3"
  bottom: "inception_4d/5x5"
  bottom: "inception_4d/pool_proj"
  top: "inception_4d/output"
}
layer {
  name: "loss2/ave_pool"
  type: "Pooling"
  bottom: "inception_4d/output"
  top: "loss2/ave_pool"
  pooling_param {
    pool: AVE
    kernel_size: 5
    stride: 3
  }
}
layer {
  name: "loss2/conv"
  type: "Convolution"
  bottom: "loss2/ave_pool"
  top: "loss2/conv"
  param {
    lr_mult: 1
    decay_mult: 1
  }
  param {
    lr_mult: 2
    decay_mult: 0
  }
  convolution_param {
    num_output: 128
    kernel_size: 1
    weight_filler {
      type: "xavier"
      std: 0.08
    }
    bias_filler {
      type: "constant"
      value: 0.2
    }
  }
}
layer {
  name: "loss2/relu_conv"
  type: "ReLU"
  bottom: "loss2/conv"
  top: "loss2/conv"
}
layer {
  name: "loss2/fc"
  type: "InnerProduct"
  bottom: "loss2/conv"
  top: "loss2/fc"
  param {
    lr_mult: 1
    decay_mult: 1
  }
  param {
    lr_mult: 2
    decay_mult: 0
  }
  inner_product_param {
    num_output: 1024
    weight_filler {
      type: "xavier"
      std: 0.02
    }
    bias_filler {
      type: "constant"
      value: 0.2
    }
  }
}
layer {
  name: "loss2/relu_fc"
  type: "ReLU"
  bottom: "loss2/fc"
  top: "loss2/fc"
}
layer {
  name: "loss2/drop_fc"
  type: "Dropout"
  bottom: "loss2/fc"
  top: "loss2/fc"
  dropout_param {
    dropout_ratio: 0.7
  }
}
layer {
  name: "loss2/classifier_plantvillage"
  type: "InnerProduct"
  bottom: "loss2/fc"
  top: "loss2/classifier_plantvillage"
  param {
    lr_mult: 1
    decay_mult: 1
  }
  param {
    lr_mult: 2
    decay_mult: 0
  }
  inner_product_param {
    num_output: 38
    weight_filler {
      type: "xavier"
      std: 0.0009765625
    }
    bias_filler {
      type: "constant"
      value: 0
    }
  }
}
layer {
  name: "inception_4e/1x1"
  type: "Convolution"
  bottom: "inception_4d/output"
  top: "inception_4e/1x1"
  param {
    lr_mult: 1
    decay_mult: 1
  }
  param {
    lr_mult: 2
    decay_mult: 0
  }
  convolution_param {
    num_output: 256
    kernel_size: 1
    weight_filler {
      type: "xavier"
      std: 0.03
    }
    bias_filler {
      type: "constant"
      value: 0.2
    }
  }
}
layer {
  name: "inception_4e/relu_1x1"
  type: "ReLU"
  bottom: "inception_4e/1x1"
  top: "inception_4e/1x1"
}
layer {
  name: "inception_4e/3x3_reduce"
  type: "Convolution"
  bottom: "inception_4d/output"
  top: "inception_4e/3x3_reduce"
  param {
    lr_mult: 1
    decay_mult: 1
  }
  param {
    lr_mult: 2
    decay_mult: 0
  }
  convolution_param {
    num_output: 160
    kernel_size: 1
    weight_filler {
      type: "xavier"
      std: 0.09
    }
    bias_filler {
      type: "constant"
      value: 0.2
    }
  }
}
layer {
  name: "inception_4e/relu_3x3_reduce"
  type: "ReLU"
  bottom: "inception_4e/3x3_reduce"
  top: "inception_4e/3x3_reduce"
}
layer {
  name: "inception_4e/3x3"
  type: "Convolution"
  bottom: "inception_4e/3x3_reduce"
  top: "inception_4e/3x3"
  param {
    lr_mult: 1
    decay_mult: 1
  }
  param {
    lr_mult: 2
    decay_mult: 0
  }
  convolution_param {
    num_output: 320
    pad: 1
    kernel_size: 3
    weight_filler {
      type: "xavier"
      std: 0.03
    }
    bias_filler {
      type: "constant"
      value: 0.2
    }
  }
}
layer {
  name: "inception_4e/relu_3x3"
  type: "ReLU"
  bottom: "inception_4e/3x3"
  top: "inception_4e/3x3"
}
layer {
  name: "inception_4e/5x5_reduce"
  type: "Convolution"
  bottom: "inception_4d/output"
  top: "inception_4e/5x5_reduce"
  param {
    lr_mult: 1
    decay_mult: 1
  }
  param {
    lr_mult: 2
    decay_mult: 0
  }
  convolution_param {
    num_output: 32
    kernel_size: 1
    weight_filler {
      type: "xavier"
      std: 0.2
    }
    bias_filler {
      type: "constant"
      value: 0.2
    }
  }
}
layer {
  name: "inception_4e/relu_5x5_reduce"
  type: "ReLU"
  bottom: "inception_4e/5x5_reduce"
  top: "inception_4e/5x5_reduce"
}
layer {
  name: "inception_4e/5x5"
  type: "Convolution"
  bottom: "inception_4e/5x5_reduce"
  top: "inception_4e/5x5"
  p
I0403 15:44:13.554169 14283 layer_factory.hpp:77] Creating layer data
I0403 15:44:13.554759 14283 net.cpp:91] Creating Layer data
I0403 15:44:13.554788 14283 net.cpp:399] data -> data
I0403 15:44:13.554841 14283 net.cpp:399] data -> label
I0403 15:44:13.554877 14283 data_transformer.cpp:25] Loading mean file from: /home/mohanty/data/final_dataset/lmdb/color-80-20/mean.binaryproto
I0403 15:44:13.557543 14285 db_lmdb.cpp:38] Opened lmdb /home/mohanty/data/final_dataset/lmdb/color-80-20/test_db
I0403 15:44:13.567991 14283 data_layer.cpp:41] output data size: 24,3,224,224
I0403 15:44:13.595242 14283 net.cpp:141] Setting up data
I0403 15:44:13.595316 14283 net.cpp:148] Top shape: 24 3 224 224 (3612672)
I0403 15:44:13.595340 14283 net.cpp:148] Top shape: 24 (24)
I0403 15:44:13.595355 14283 net.cpp:156] Memory required for data: 14450784
I0403 15:44:13.595381 14283 layer_factory.hpp:77] Creating layer label_data_1_split
I0403 15:44:13.595407 14283 net.cpp:91] Creating Layer label_data_1_split
I0403 15:44:13.595427 14283 net.cpp:425] label_data_1_split <- label
I0403 15:44:13.595458 14283 net.cpp:399] label_data_1_split -> label_data_1_split_0
I0403 15:44:13.595485 14283 net.cpp:399] label_data_1_split -> label_data_1_split_1
I0403 15:44:13.595505 14283 net.cpp:399] label_data_1_split -> label_data_1_split_2
I0403 15:44:13.595526 14283 net.cpp:399] label_data_1_split -> label_data_1_split_3
I0403 15:44:13.595546 14283 net.cpp:399] label_data_1_split -> label_data_1_split_4
I0403 15:44:13.595566 14283 net.cpp:399] label_data_1_split -> label_data_1_split_5
I0403 15:44:13.595585 14283 net.cpp:399] label_data_1_split -> label_data_1_split_6
I0403 15:44:13.595605 14283 net.cpp:399] label_data_1_split -> label_data_1_split_7
I0403 15:44:13.595625 14283 net.cpp:399] label_data_1_split -> label_data_1_split_8
I0403 15:44:13.595643 14283 net.cpp:399] label_data_1_split -> label_data_1_split_9
I0403 15:44:13.595763 14283 net.cpp:141] Setting up label_data_1_split
I0403 15:44:13.595788 14283 net.cpp:148] Top shape: 24 (24)
I0403 15:44:13.595805 14283 net.cpp:148] Top shape: 24 (24)
I0403 15:44:13.595821 14283 net.cpp:148] Top shape: 24 (24)
I0403 15:44:13.595837 14283 net.cpp:148] Top shape: 24 (24)
I0403 15:44:13.595852 14283 net.cpp:148] Top shape: 24 (24)
I0403 15:44:13.595868 14283 net.cpp:148] Top shape: 24 (24)
I0403 15:44:13.595882 14283 net.cpp:148] Top shape: 24 (24)
I0403 15:44:13.595898 14283 net.cpp:148] Top shape: 24 (24)
I0403 15:44:13.595913 14283 net.cpp:148] Top shape: 24 (24)
I0403 15:44:13.595928 14283 net.cpp:148] Top shape: 24 (24)
I0403 15:44:13.595975 14283 net.cpp:156] Memory required for data: 14451744
I0403 15:44:13.595993 14283 layer_factory.hpp:77] Creating layer conv1/7x7_s2
I0403 15:44:13.596024 14283 net.cpp:91] Creating Layer conv1/7x7_s2
I0403 15:44:13.596042 14283 net.cpp:425] conv1/7x7_s2 <- data
I0403 15:44:13.596063 14283 net.cpp:399] conv1/7x7_s2 -> conv1/7x7_s2
I0403 15:44:13.736618 14283 net.cpp:141] Setting up conv1/7x7_s2
I0403 15:44:13.736707 14283 net.cpp:148] Top shape: 24 64 112 112 (19267584)
I0403 15:44:13.736726 14283 net.cpp:156] Memory required for data: 91522080
I0403 15:44:13.736757 14283 layer_factory.hpp:77] Creating layer conv1/relu_7x7
I0403 15:44:13.736785 14283 net.cpp:91] Creating Layer conv1/relu_7x7
I0403 15:44:13.736804 14283 net.cpp:425] conv1/relu_7x7 <- conv1/7x7_s2
I0403 15:44:13.736824 14283 net.cpp:386] conv1/relu_7x7 -> conv1/7x7_s2 (in-place)
I0403 15:44:13.737123 14283 net.cpp:141] Setting up conv1/relu_7x7
I0403 15:44:13.737152 14283 net.cpp:148] Top shape: 24 64 112 112 (19267584)
I0403 15:44:13.737167 14283 net.cpp:156] Memory required for data: 168592416
I0403 15:44:13.737182 14283 layer_factory.hpp:77] Creating layer pool1/3x3_s2
I0403 15:44:13.737210 14283 net.cpp:91] Creating Layer pool1/3x3_s2
I0403 15:44:13.737228 14283 net.cpp:425] pool1/3x3_s2 <- conv1/7x7_s2
I0403 15:44:13.737247 14283 net.cpp:399] pool1/3x3_s2 -> pool1/3x3_s2
I0403 15:44:13.737320 14283 net.cpp:141] Setting up pool1/3x3_s2
I0403 15:44:13.737345 14283 net.cpp:148] Top shape: 24 64 56 56 (4816896)
I0403 15:44:13.737360 14283 net.cpp:156] Memory required for data: 187860000
I0403 15:44:13.737375 14283 layer_factory.hpp:77] Creating layer pool1/norm1
I0403 15:44:13.737399 14283 net.cpp:91] Creating Layer pool1/norm1
I0403 15:44:13.737417 14283 net.cpp:425] pool1/norm1 <- pool1/3x3_s2
I0403 15:44:13.737435 14283 net.cpp:399] pool1/norm1 -> pool1/norm1
I0403 15:44:13.737715 14283 net.cpp:141] Setting up pool1/norm1
I0403 15:44:13.737742 14283 net.cpp:148] Top shape: 24 64 56 56 (4816896)
I0403 15:44:13.737758 14283 net.cpp:156] Memory required for data: 207127584
I0403 15:44:13.737773 14283 layer_factory.hpp:77] Creating layer conv2/3x3_reduce
I0403 15:44:13.737798 14283 net.cpp:91] Creating Layer conv2/3x3_reduce
I0403 15:44:13.737815 14283 net.cpp:425] conv2/3x3_reduce <- pool1/norm1
I0403 15:44:13.737834 14283 net.cpp:399] conv2/3x3_reduce -> conv2/3x3_reduce
I0403 15:44:13.739153 14283 net.cpp:141] Setting up conv2/3x3_reduce
I0403 15:44:13.739183 14283 net.cpp:148] Top shape: 24 64 56 56 (4816896)
I0403 15:44:13.739200 14283 net.cpp:156] Memory required for data: 226395168
I0403 15:44:13.739222 14283 layer_factory.hpp:77] Creating layer conv2/relu_3x3_reduce
I0403 15:44:13.739239 14283 net.cpp:91] Creating Layer conv2/relu_3x3_reduce
I0403 15:44:13.739254 14283 net.cpp:425] conv2/relu_3x3_reduce <- conv2/3x3_reduce
I0403 15:44:13.739272 14283 net.cpp:386] conv2/relu_3x3_reduce -> conv2/3x3_reduce (in-place)
I0403 15:44:13.739532 14283 net.cpp:141] Setting up conv2/relu_3x3_reduce
I0403 15:44:13.739559 14283 net.cpp:148] Top shape: 24 64 56 56 (4816896)
I0403 15:44:13.739574 14283 net.cpp:156] Memory required for data: 245662752
I0403 15:44:13.739588 14283 layer_factory.hpp:77] Creating layer conv2/3x3
I0403 15:44:13.739611 14283 net.cpp:91] Creating Layer conv2/3x3
I0403 15:44:13.739629 14283 net.cpp:425] conv2/3x3 <- conv2/3x3_reduce
I0403 15:44:13.739650 14283 net.cpp:399] conv2/3x3 -> conv2/3x3
I0403 15:44:13.742043 14283 net.cpp:141] Setting up conv2/3x3
I0403 15:44:13.742074 14283 net.cpp:148] Top shape: 24 192 56 56 (14450688)
I0403 15:44:13.742089 14283 net.cpp:156] Memory required for data: 303465504
I0403 15:44:13.742115 14283 layer_factory.hpp:77] Creating layer conv2/relu_3x3
I0403 15:44:13.742136 14283 net.cpp:91] Creating Layer conv2/relu_3x3
I0403 15:44:13.742151 14283 net.cpp:425] conv2/relu_3x3 <- conv2/3x3
I0403 15:44:13.742172 14283 net.cpp:386] conv2/relu_3x3 -> conv2/3x3 (in-place)
I0403 15:44:13.742346 14283 net.cpp:141] Setting up conv2/relu_3x3
I0403 15:44:13.742372 14283 net.cpp:148] Top shape: 24 192 56 56 (14450688)
I0403 15:44:13.742416 14283 net.cpp:156] Memory required for data: 361268256
I0403 15:44:13.742432 14283 layer_factory.hpp:77] Creating layer conv2/norm2
I0403 15:44:13.742455 14283 net.cpp:91] Creating Layer conv2/norm2
I0403 15:44:13.742471 14283 net.cpp:425] conv2/norm2 <- conv2/3x3
I0403 15:44:13.742488 14283 net.cpp:399] conv2/norm2 -> conv2/norm2
I0403 15:44:13.742790 14283 net.cpp:141] Setting up conv2/norm2
I0403 15:44:13.742820 14283 net.cpp:148] Top shape: 24 192 56 56 (14450688)
I0403 15:44:13.742836 14283 net.cpp:156] Memory required for data: 419071008
I0403 15:44:13.742851 14283 layer_factory.hpp:77] Creating layer pool2/3x3_s2
I0403 15:44:13.742869 14283 net.cpp:91] Creating Layer pool2/3x3_s2
I0403 15:44:13.742883 14283 net.cpp:425] pool2/3x3_s2 <- conv2/norm2
I0403 15:44:13.742902 14283 net.cpp:399] pool2/3x3_s2 -> pool2/3x3_s2
I0403 15:44:13.742955 14283 net.cpp:141] Setting up pool2/3x3_s2
I0403 15:44:13.742979 14283 net.cpp:148] Top shape: 24 192 28 28 (3612672)
I0403 15:44:13.742993 14283 net.cpp:156] Memory required for data: 433521696
I0403 15:44:13.743008 14283 layer_factory.hpp:77] Creating layer pool2/3x3_s2_pool2/3x3_s2_0_split
I0403 15:44:13.743027 14283 net.cpp:91] Creating Layer pool2/3x3_s2_pool2/3x3_s2_0_split
I0403 15:44:13.743043 14283 net.cpp:425] pool2/3x3_s2_pool2/3x3_s2_0_split <- pool2/3x3_s2
I0403 15:44:13.743062 14283 net.cpp:399] pool2/3x3_s2_pool2/3x3_s2_0_split -> pool2/3x3_s2_pool2/3x3_s2_0_split_0
I0403 15:44:13.743082 14283 net.cpp:399] pool2/3x3_s2_pool2/3x3_s2_0_split -> pool2/3x3_s2_pool2/3x3_s2_0_split_1
I0403 15:44:13.743113 14283 net.cpp:399] pool2/3x3_s2_pool2/3x3_s2_0_split -> pool2/3x3_s2_pool2/3x3_s2_0_split_2
I0403 15:44:13.743142 14283 net.cpp:399] pool2/3x3_s2_pool2/3x3_s2_0_split -> pool2/3x3_s2_pool2/3x3_s2_0_split_3
I0403 15:44:13.743213 14283 net.cpp:141] Setting up pool2/3x3_s2_pool2/3x3_s2_0_split
I0403 15:44:13.743237 14283 net.cpp:148] Top shape: 24 192 28 28 (3612672)
I0403 15:44:13.743253 14283 net.cpp:148] Top shape: 24 192 28 28 (3612672)
I0403 15:44:13.743268 14283 net.cpp:148] Top shape: 24 192 28 28 (3612672)
I0403 15:44:13.743283 14283 net.cpp:148] Top shape: 24 192 28 28 (3612672)
I0403 15:44:13.743297 14283 net.cpp:156] Memory required for data: 491324448
I0403 15:44:13.743312 14283 layer_factory.hpp:77] Creating layer inception_3a/1x1
I0403 15:44:13.743335 14283 net.cpp:91] Creating Layer inception_3a/1x1
I0403 15:44:13.743351 14283 net.cpp:425] inception_3a/1x1 <- pool2/3x3_s2_pool2/3x3_s2_0_split_0
I0403 15:44:13.743373 14283 net.cpp:399] inception_3a/1x1 -> inception_3a/1x1
I0403 15:44:13.744959 14283 net.cpp:141] Setting up inception_3a/1x1
I0403 15:44:13.744992 14283 net.cpp:148] Top shape: 24 64 28 28 (1204224)
I0403 15:44:13.745009 14283 net.cpp:156] Memory required for data: 496141344
I0403 15:44:13.745028 14283 layer_factory.hpp:77] Creating layer inception_3a/relu_1x1
I0403 15:44:13.745046 14283 net.cpp:91] Creating Layer inception_3a/relu_1x1
I0403 15:44:13.745062 14283 net.cpp:425] inception_3a/relu_1x1 <- inception_3a/1x1
I0403 15:44:13.745081 14283 net.cpp:386] inception_3a/relu_1x1 -> inception_3a/1x1 (in-place)
I0403 15:44:13.745257 14283 net.cpp:141] Setting up inception_3a/relu_1x1
I0403 15:44:13.745285 14283 net.cpp:148] Top shape: 24 64 28 28 (1204224)
I0403 15:44:13.745297 14283 net.cpp:156] Memory required for data: 500958240
I0403 15:44:13.745312 14283 layer_factory.hpp:77] Creating layer inception_3a/3x3_reduce
I0403 15:44:13.745333 14283 net.cpp:91] Creating Layer inception_3a/3x3_reduce
I0403 15:44:13.745353 14283 net.cpp:425] inception_3a/3x3_reduce <- pool2/3x3_s2_pool2/3x3_s2_0_split_1
I0403 15:44:13.745406 14283 net.cpp:399] inception_3a/3x3_reduce -> inception_3a/3x3_reduce
I0403 15:44:13.747105 14283 net.cpp:141] Setting up inception_3a/3x3_reduce
I0403 15:44:13.747135 14283 net.cpp:148] Top shape: 24 96 28 28 (1806336)
I0403 15:44:13.747151 14283 net.cpp:156] Memory required for data: 508183584
I0403 15:44:13.747174 14283 layer_factory.hpp:77] Creating layer inception_3a/relu_3x3_reduce
I0403 15:44:13.747258 14283 net.cpp:91] Creating Layer inception_3a/relu_3x3_reduce
I0403 15:44:13.747282 14283 net.cpp:425] inception_3a/relu_3x3_reduce <- inception_3a/3x3_reduce
I0403 15:44:13.747299 14283 net.cpp:386] inception_3a/relu_3x3_reduce -> inception_3a/3x3_reduce (in-place)
I0403 15:44:13.747478 14283 net.cpp:141] Setting up inception_3a/relu_3x3_reduce
I0403 15:44:13.747505 14283 net.cpp:148] Top shape: 24 96 28 28 (1806336)
I0403 15:44:13.747521 14283 net.cpp:156] Memory required for data: 515408928
I0403 15:44:13.747537 14283 layer_factory.hpp:77] Creating layer inception_3a/3x3
I0403 15:44:13.747560 14283 net.cpp:91] Creating Layer inception_3a/3x3
I0403 15:44:13.747577 14283 net.cpp:425] inception_3a/3x3 <- inception_3a/3x3_reduce
I0403 15:44:13.747596 14283 net.cpp:399] inception_3a/3x3 -> inception_3a/3x3
I0403 15:44:13.749330 14283 net.cpp:141] Setting up inception_3a/3x3
I0403 15:44:13.749358 14283 net.cpp:148] Top shape: 24 128 28 28 (2408448)
I0403 15:44:13.749374 14283 net.cpp:156] Memory required for data: 525042720
I0403 15:44:13.749392 14283 layer_factory.hpp:77] Creating layer inception_3a/relu_3x3
I0403 15:44:13.749413 14283 net.cpp:91] Creating Layer inception_3a/relu_3x3
I0403 15:44:13.749430 14283 net.cpp:425] inception_3a/relu_3x3 <- inception_3a/3x3
I0403 15:44:13.749449 14283 net.cpp:386] inception_3a/relu_3x3 -> inception_3a/3x3 (in-place)
I0403 15:44:13.749727 14283 net.cpp:141] Setting up inception_3a/relu_3x3
I0403 15:44:13.749753 14283 net.cpp:148] Top shape: 24 128 28 28 (2408448)
I0403 15:44:13.749768 14283 net.cpp:156] Memory required for data: 534676512
I0403 15:44:13.749783 14283 layer_factory.hpp:77] Creating layer inception_3a/5x5_reduce
I0403 15:44:13.749805 14283 net.cpp:91] Creating Layer inception_3a/5x5_reduce
I0403 15:44:13.749824 14283 net.cpp:425] inception_3a/5x5_reduce <- pool2/3x3_s2_pool2/3x3_s2_0_split_2
I0403 15:44:13.749845 14283 net.cpp:399] inception_3a/5x5_reduce -> inception_3a/5x5_reduce
I0403 15:44:13.750872 14283 net.cpp:141] Setting up inception_3a/5x5_reduce
I0403 15:44:13.750901 14283 net.cpp:148] Top shape: 24 16 28 28 (301056)
I0403 15:44:13.750917 14283 net.cpp:156] Memory required for data: 535880736
I0403 15:44:13.750934 14283 layer_factory.hpp:77] Creating layer inception_3a/relu_5x5_reduce
I0403 15:44:13.750954 14283 net.cpp:91] Creating Layer inception_3a/relu_5x5_reduce
I0403 15:44:13.750972 14283 net.cpp:425] inception_3a/relu_5x5_reduce <- inception_3a/5x5_reduce
I0403 15:44:13.750989 14283 net.cpp:386] inception_3a/relu_5x5_reduce -> inception_3a/5x5_reduce (in-place)
I0403 15:44:13.751287 14283 net.cpp:141] Setting up inception_3a/relu_5x5_reduce
I0403 15:44:13.751314 14283 net.cpp:148] Top shape: 24 16 28 28 (301056)
I0403 15:44:13.751329 14283 net.cpp:156] Memory required for data: 537084960
I0403 15:44:13.751344 14283 layer_factory.hpp:77] Creating layer inception_3a/5x5
I0403 15:44:13.751368 14283 net.cpp:91] Creating Layer inception_3a/5x5
I0403 15:44:13.751386 14283 net.cpp:425] inception_3a/5x5 <- inception_3a/5x5_reduce
I0403 15:44:13.751407 14283 net.cpp:399] inception_3a/5x5 -> inception_3a/5x5
I0403 15:44:13.752434 14283 net.cpp:141] Setting up inception_3a/5x5
I0403 15:44:13.752465 14283 net.cpp:148] Top shape: 24 32 28 28 (602112)
I0403 15:44:13.752481 14283 net.cpp:156] Memory required for data: 539493408
I0403 15:44:13.752499 14283 layer_factory.hpp:77] Creating layer inception_3a/relu_5x5
I0403 15:44:13.752518 14283 net.cpp:91] Creating Layer inception_3a/relu_5x5
I0403 15:44:13.752537 14283 net.cpp:425] inception_3a/relu_5x5 <- inception_3a/5x5
I0403 15:44:13.752557 14283 net.cpp:386] inception_3a/relu_5x5 -> inception_3a/5x5 (in-place)
I0403 15:44:13.752748 14283 net.cpp:141] Setting up inception_3a/relu_5x5
I0403 15:44:13.752773 14283 net.cpp:148] Top shape: 24 32 28 28 (602112)
I0403 15:44:13.752786 14283 net.cpp:156] Memory required for data: 541901856
I0403 15:44:13.752801 14283 layer_factory.hpp:77] Creating layer inception_3a/pool
I0403 15:44:13.752821 14283 net.cpp:91] Creating Layer inception_3a/pool
I0403 15:44:13.752840 14283 net.cpp:425] inception_3a/pool <- pool2/3x3_s2_pool2/3x3_s2_0_split_3
I0403 15:44:13.752871 14283 net.cpp:399] inception_3a/pool -> inception_3a/pool
I0403 15:44:13.752931 14283 net.cpp:141] Setting up inception_3a/pool
I0403 15:44:13.752955 14283 net.cpp:148] Top shape: 24 192 28 28 (3612672)
I0403 15:44:13.752970 14283 net.cpp:156] Memory required for data: 556352544
I0403 15:44:13.752985 14283 layer_factory.hpp:77] Creating layer inception_3a/pool_proj
I0403 15:44:13.753007 14283 net.cpp:91] Creating Layer inception_3a/pool_proj
I0403 15:44:13.753026 14283 net.cpp:425] inception_3a/pool_proj <- inception_3a/pool
I0403 15:44:13.753046 14283 net.cpp:399] inception_3a/pool_proj -> inception_3a/pool_proj
I0403 15:44:13.753995 14283 net.cpp:141] Setting up inception_3a/pool_proj
I0403 15:44:13.754024 14283 net.cpp:148] Top shape: 24 32 28 28 (602112)
I0403 15:44:13.754040 14283 net.cpp:156] Memory required for data: 558760992
I0403 15:44:13.754065 14283 layer_factory.hpp:77] Creating layer inception_3a/relu_pool_proj
I0403 15:44:13.754086 14283 net.cpp:91] Creating Layer inception_3a/relu_pool_proj
I0403 15:44:13.754107 14283 net.cpp:425] inception_3a/relu_pool_proj <- inception_3a/pool_proj
I0403 15:44:13.754125 14283 net.cpp:386] inception_3a/relu_pool_proj -> inception_3a/pool_proj (in-place)
I0403 15:44:13.754387 14283 net.cpp:141] Setting up inception_3a/relu_pool_proj
I0403 15:44:13.754415 14283 net.cpp:148] Top shape: 24 32 28 28 (602112)
I0403 15:44:13.754428 14283 net.cpp:156] Memory required for data: 561169440
I0403 15:44:13.754443 14283 layer_factory.hpp:77] Creating layer inception_3a/output
I0403 15:44:13.754461 14283 net.cpp:91] Creating Layer inception_3a/output
I0403 15:44:13.754475 14283 net.cpp:425] inception_3a/output <- inception_3a/1x1
I0403 15:44:13.754490 14283 net.cpp:425] inception_3a/output <- inception_3a/3x3
I0403 15:44:13.754505 14283 net.cpp:425] inception_3a/output <- inception_3a/5x5
I0403 15:44:13.754521 14283 net.cpp:425] inception_3a/output <- inception_3a/pool_proj
I0403 15:44:13.754539 14283 net.cpp:399] inception_3a/output -> inception_3a/output
I0403 15:44:13.754585 14283 net.cpp:141] Setting up inception_3a/output
I0403 15:44:13.754611 14283 net.cpp:148] Top shape: 24 256 28 28 (4816896)
I0403 15:44:13.754627 14283 net.cpp:156] Memory required for data: 580437024
I0403 15:44:13.754642 14283 layer_factory.hpp:77] Creating layer inception_3a/output_inception_3a/output_0_split
I0403 15:44:13.754659 14283 net.cpp:91] Creating Layer inception_3a/output_inception_3a/output_0_split
I0403 15:44:13.754674 14283 net.cpp:425] inception_3a/output_inception_3a/output_0_split <- inception_3a/output
I0403 15:44:13.754693 14283 net.cpp:399] inception_3a/output_inception_3a/output_0_split -> inception_3a/output_inception_3a/output_0_split_0
I0403 15:44:13.754714 14283 net.cpp:399] inception_3a/output_inception_3a/output_0_split -> inception_3a/output_inception_3a/output_0_split_1
I0403 15:44:13.754736 14283 net.cpp:399] inception_3a/output_inception_3a/output_0_split -> inception_3a/output_inception_3a/output_0_split_2
I0403 15:44:13.754756 14283 net.cpp:399] inception_3a/output_inception_3a/output_0_split -> inception_3a/output_inception_3a/output_0_split_3
I0403 15:44:13.754830 14283 net.cpp:141] Setting up inception_3a/output_inception_3a/output_0_split
I0403 15:44:13.754853 14283 net.cpp:148] Top shape: 24 256 28 28 (4816896)
I0403 15:44:13.754869 14283 net.cpp:148] Top shape: 24 256 28 28 (4816896)
I0403 15:44:13.754884 14283 net.cpp:148] Top shape: 24 256 28 28 (4816896)
I0403 15:44:13.754899 14283 net.cpp:148] Top shape: 24 256 28 28 (4816896)
I0403 15:44:13.754910 14283 net.cpp:156] Memory required for data: 657507360
I0403 15:44:13.754925 14283 layer_factory.hpp:77] Creating layer inception_3b/1x1
I0403 15:44:13.754950 14283 net.cpp:91] Creating Layer inception_3b/1x1
I0403 15:44:13.754966 14283 net.cpp:425] inception_3b/1x1 <- inception_3a/output_inception_3a/output_0_split_0
I0403 15:44:13.754987 14283 net.cpp:399] inception_3b/1x1 -> inception_3b/1x1
I0403 15:44:13.756078 14283 net.cpp:141] Setting up inception_3b/1x1
I0403 15:44:13.756122 14283 net.cpp:148] Top shape: 24 128 28 28 (2408448)
I0403 15:44:13.756139 14283 net.cpp:156] Memory required for data: 667141152
I0403 15:44:13.756157 14283 layer_factory.hpp:77] Creating layer inception_3b/relu_1x1
I0403 15:44:13.756175 14283 net.cpp:91] Creating Layer inception_3b/relu_1x1
I0403 15:44:13.756189 14283 net.cpp:425] inception_3b/relu_1x1 <- inception_3b/1x1
I0403 15:44:13.756208 14283 net.cpp:386] inception_3b/relu_1x1 -> inception_3b/1x1 (in-place)
I0403 15:44:13.756377 14283 net.cpp:141] Setting up inception_3b/relu_1x1
I0403 15:44:13.756414 14283 net.cpp:148] Top shape: 24 128 28 28 (2408448)
I0403 15:44:13.756429 14283 net.cpp:156] Memory required for data: 676774944
I0403 15:44:13.756444 14283 layer_factory.hpp:77] Creating layer inception_3b/3x3_reduce
I0403 15:44:13.756466 14283 net.cpp:91] Creating Layer inception_3b/3x3_reduce
I0403 15:44:13.756484 14283 net.cpp:425] inception_3b/3x3_reduce <- inception_3a/output_inception_3a/output_0_split_1
I0403 15:44:13.756505 14283 net.cpp:399] inception_3b/3x3_reduce -> inception_3b/3x3_reduce
I0403 15:44:13.757609 14283 net.cpp:141] Setting up inception_3b/3x3_reduce
I0403 15:44:13.757639 14283 net.cpp:148] Top shape: 24 128 28 28 (2408448)
I0403 15:44:13.757657 14283 net.cpp:156] Memory required for data: 686408736
I0403 15:44:13.757673 14283 layer_factory.hpp:77] Creating layer inception_3b/relu_3x3_reduce
I0403 15:44:13.757691 14283 net.cpp:91] Creating Layer inception_3b/relu_3x3_reduce
I0403 15:44:13.757707 14283 net.cpp:425] inception_3b/relu_3x3_reduce <- inception_3b/3x3_reduce
I0403 15:44:13.757726 14283 net.cpp:386] inception_3b/relu_3x3_reduce -> inception_3b/3x3_reduce (in-place)
I0403 15:44:13.757892 14283 net.cpp:141] Setting up inception_3b/relu_3x3_reduce
I0403 15:44:13.757917 14283 net.cpp:148] Top shape: 24 128 28 28 (2408448)
I0403 15:44:13.757932 14283 net.cpp:156] Memory required for data: 696042528
I0403 15:44:13.757947 14283 layer_factory.hpp:77] Creating layer inception_3b/3x3
I0403 15:44:13.757972 14283 net.cpp:91] Creating Layer inception_3b/3x3
I0403 15:44:13.757990 14283 net.cpp:425] inception_3b/3x3 <- inception_3b/3x3_reduce
I0403 15:44:13.758009 14283 net.cpp:399] inception_3b/3x3 -> inception_3b/3x3
I0403 15:44:13.760848 14283 net.cpp:141] Setting up inception_3b/3x3
I0403 15:44:13.760876 14283 net.cpp:148] Top shape: 24 192 28 28 (3612672)
I0403 15:44:13.760890 14283 net.cpp:156] Memory required for data: 710493216
I0403 15:44:13.760908 14283 layer_factory.hpp:77] Creating layer inception_3b/relu_3x3
I0403 15:44:13.760929 14283 net.cpp:91] Creating Layer inception_3b/relu_3x3
I0403 15:44:13.760946 14283 net.cpp:425] inception_3b/relu_3x3 <- inception_3b/3x3
I0403 15:44:13.760962 14283 net.cpp:386] inception_3b/relu_3x3 -> inception_3b/3x3 (in-place)
I0403 15:44:13.761234 14283 net.cpp:141] Setting up inception_3b/relu_3x3
I0403 15:44:13.761260 14283 net.cpp:148] Top shape: 24 192 28 28 (3612672)
I0403 15:44:13.761276 14283 net.cpp:156] Memory required for data: 724943904
I0403 15:44:13.761289 14283 layer_factory.hpp:77] Creating layer inception_3b/5x5_reduce
I0403 15:44:13.761312 14283 net.cpp:91] Creating Layer inception_3b/5x5_reduce
I0403 15:44:13.761329 14283 net.cpp:425] inception_3b/5x5_reduce <- inception_3a/output_inception_3a/output_0_split_2
I0403 15:44:13.761350 14283 net.cpp:399] inception_3b/5x5_reduce -> inception_3b/5x5_reduce
I0403 15:44:13.762337 14283 net.cpp:141] Setting up inception_3b/5x5_reduce
I0403 15:44:13.762365 14283 net.cpp:148] Top shape: 24 32 28 28 (602112)
I0403 15:44:13.762379 14283 net.cpp:156] Memory required for data: 727352352
I0403 15:44:13.762398 14283 layer_factory.hpp:77] Creating layer inception_3b/relu_5x5_reduce
I0403 15:44:13.762415 14283 net.cpp:91] Creating Layer inception_3b/relu_5x5_reduce
I0403 15:44:13.762434 14283 net.cpp:425] inception_3b/relu_5x5_reduce <- inception_3b/5x5_reduce
I0403 15:44:13.762451 14283 net.cpp:386] inception_3b/relu_5x5_reduce -> inception_3b/5x5_reduce (in-place)
I0403 15:44:13.762619 14283 net.cpp:141] Setting up inception_3b/relu_5x5_reduce
I0403 15:44:13.762658 14283 net.cpp:148] Top shape: 24 32 28 28 (602112)
I0403 15:44:13.762673 14283 net.cpp:156] Memory required for data: 729760800
I0403 15:44:13.762688 14283 layer_factory.hpp:77] Creating layer inception_3b/5x5
I0403 15:44:13.762711 14283 net.cpp:91] Creating Layer inception_3b/5x5
I0403 15:44:13.762728 14283 net.cpp:425] inception_3b/5x5 <- inception_3b/5x5_reduce
I0403 15:44:13.762748 14283 net.cpp:399] inception_3b/5x5 -> inception_3b/5x5
I0403 15:44:13.764690 14283 net.cpp:141] Setting up inception_3b/5x5
I0403 15:44:13.764721 14283 net.cpp:148] Top shape: 24 96 28 28 (1806336)
I0403 15:44:13.764739 14283 net.cpp:156] Memory required for data: 736986144
I0403 15:44:13.764755 14283 layer_factory.hpp:77] Creating layer inception_3b/relu_5x5
I0403 15:44:13.764773 14283 net.cpp:91] Creating Layer inception_3b/relu_5x5
I0403 15:44:13.764788 14283 net.cpp:425] inception_3b/relu_5x5 <- inception_3b/5x5
I0403 15:44:13.764808 14283 net.cpp:386] inception_3b/relu_5x5 -> inception_3b/5x5 (in-place)
I0403 15:44:13.764993 14283 net.cpp:141] Setting up inception_3b/relu_5x5
I0403 15:44:13.765018 14283 net.cpp:148] Top shape: 24 96 28 28 (1806336)
I0403 15:44:13.765033 14283 net.cpp:156] Memory required for data: 744211488
I0403 15:44:13.765046 14283 layer_factory.hpp:77] Creating layer inception_3b/pool
I0403 15:44:13.765064 14283 net.cpp:91] Creating Layer inception_3b/pool
I0403 15:44:13.765080 14283 net.cpp:425] inception_3b/pool <- inception_3a/output_inception_3a/output_0_split_3
I0403 15:44:13.765100 14283 net.cpp:399] inception_3b/pool -> inception_3b/pool
I0403 15:44:13.765156 14283 net.cpp:141] Setting up inception_3b/pool
I0403 15:44:13.765178 14283 net.cpp:148] Top shape: 24 256 28 28 (4816896)
I0403 15:44:13.765193 14283 net.cpp:156] Memory required for data: 763479072
I0403 15:44:13.765208 14283 layer_factory.hpp:77] Creating layer inception_3b/pool_proj
I0403 15:44:13.765229 14283 net.cpp:91] Creating Layer inception_3b/pool_proj
I0403 15:44:13.765247 14283 net.cpp:425] inception_3b/pool_proj <- inception_3b/pool
I0403 15:44:13.765265 14283 net.cpp:399] inception_3b/pool_proj -> inception_3b/pool_proj
I0403 15:44:13.766305 14283 net.cpp:141] Setting up inception_3b/pool_proj
I0403 15:44:13.766333 14283 net.cpp:148] Top shape: 24 64 28 28 (1204224)
I0403 15:44:13.766348 14283 net.cpp:156] Memory required for data: 768295968
I0403 15:44:13.766366 14283 layer_factory.hpp:77] Creating layer inception_3b/relu_pool_proj
I0403 15:44:13.766386 14283 net.cpp:91] Creating Layer inception_3b/relu_pool_proj
I0403 15:44:13.766403 14283 net.cpp:425] inception_3b/relu_pool_proj <- inception_3b/pool_proj
I0403 15:44:13.766420 14283 net.cpp:386] inception_3b/relu_pool_proj -> inception_3b/pool_proj (in-place)
I0403 15:44:13.766808 14283 net.cpp:141] Setting up inception_3b/relu_pool_proj
I0403 15:44:13.766834 14283 net.cpp:148] Top shape: 24 64 28 28 (1204224)
I0403 15:44:13.766849 14283 net.cpp:156] Memory required for data: 773112864
I0403 15:44:13.766863 14283 layer_factory.hpp:77] Creating layer inception_3b/output
I0403 15:44:13.766882 14283 net.cpp:91] Creating Layer inception_3b/output
I0403 15:44:13.766898 14283 net.cpp:425] inception_3b/output <- inception_3b/1x1
I0403 15:44:13.766916 14283 net.cpp:425] inception_3b/output <- inception_3b/3x3
I0403 15:44:13.766932 14283 net.cpp:425] inception_3b/output <- inception_3b/5x5
I0403 15:44:13.766947 14283 net.cpp:425] inception_3b/output <- inception_3b/pool_proj
I0403 15:44:13.766963 14283 net.cpp:399] inception_3b/output -> inception_3b/output
I0403 15:44:13.767004 14283 net.cpp:141] Setting up inception_3b/output
I0403 15:44:13.767030 14283 net.cpp:148] Top shape: 24 480 28 28 (9031680)
I0403 15:44:13.767045 14283 net.cpp:156] Memory required for data: 809239584
I0403 15:44:13.767057 14283 layer_factory.hpp:77] Creating layer pool3/3x3_s2
I0403 15:44:13.767074 14283 net.cpp:91] Creating Layer pool3/3x3_s2
I0403 15:44:13.767089 14283 net.cpp:425] pool3/3x3_s2 <- inception_3b/output
I0403 15:44:13.767114 14283 net.cpp:399] pool3/3x3_s2 -> pool3/3x3_s2
I0403 15:44:13.767185 14283 net.cpp:141] Setting up pool3/3x3_s2
I0403 15:44:13.767211 14283 net.cpp:148] Top shape: 24 480 14 14 (2257920)
I0403 15:44:13.767227 14283 net.cpp:156] Memory required for data: 818271264
I0403 15:44:13.767241 14283 layer_factory.hpp:77] Creating layer pool3/3x3_s2_pool3/3x3_s2_0_split
I0403 15:44:13.767257 14283 net.cpp:91] Creating Layer pool3/3x3_s2_pool3/3x3_s2_0_split
I0403 15:44:13.767272 14283 net.cpp:425] pool3/3x3_s2_pool3/3x3_s2_0_split <- pool3/3x3_s2
I0403 15:44:13.767290 14283 net.cpp:399] pool3/3x3_s2_pool3/3x3_s2_0_split -> pool3/3x3_s2_pool3/3x3_s2_0_split_0
I0403 15:44:13.767308 14283 net.cpp:399] pool3/3x3_s2_pool3/3x3_s2_0_split -> pool3/3x3_s2_pool3/3x3_s2_0_split_1
I0403 15:44:13.767330 14283 net.cpp:399] pool3/3x3_s2_pool3/3x3_s2_0_split -> pool3/3x3_s2_pool3/3x3_s2_0_split_2
I0403 15:44:13.767351 14283 net.cpp:399] pool3/3x3_s2_pool3/3x3_s2_0_split -> pool3/3x3_s2_pool3/3x3_s2_0_split_3
I0403 15:44:13.767426 14283 net.cpp:141] Setting up pool3/3x3_s2_pool3/3x3_s2_0_split
I0403 15:44:13.767449 14283 net.cpp:148] Top shape: 24 480 14 14 (2257920)
I0403 15:44:13.767465 14283 net.cpp:148] Top shape: 24 480 14 14 (2257920)
I0403 15:44:13.767480 14283 net.cpp:148] Top shape: 24 480 14 14 (2257920)
I0403 15:44:13.767494 14283 net.cpp:148] Top shape: 24 480 14 14 (2257920)
I0403 15:44:13.767506 14283 net.cpp:156] Memory required for data: 854397984
I0403 15:44:13.767519 14283 layer_factory.hpp:77] Creating layer inception_4a/1x1
I0403 15:44:13.767540 14283 net.cpp:91] Creating Layer inception_4a/1x1
I0403 15:44:13.767557 14283 net.cpp:425] inception_4a/1x1 <- pool3/3x3_s2_pool3/3x3_s2_0_split_0
I0403 15:44:13.767580 14283 net.cpp:399] inception_4a/1x1 -> inception_4a/1x1
I0403 15:44:13.769116 14283 net.cpp:141] Setting up inception_4a/1x1
I0403 15:44:13.769145 14283 net.cpp:148] Top shape: 24 192 14 14 (903168)
I0403 15:44:13.769160 14283 net.cpp:156] Memory required for data: 858010656
I0403 15:44:13.769176 14283 layer_factory.hpp:77] Creating layer inception_4a/relu_1x1
I0403 15:44:13.769197 14283 net.cpp:91] Creating Layer inception_4a/relu_1x1
I0403 15:44:13.769214 14283 net.cpp:425] inception_4a/relu_1x1 <- inception_4a/1x1
I0403 15:44:13.769232 14283 net.cpp:386] inception_4a/relu_1x1 -> inception_4a/1x1 (in-place)
I0403 15:44:13.769402 14283 net.cpp:141] Setting up inception_4a/relu_1x1
I0403 15:44:13.769426 14283 net.cpp:148] Top shape: 24 192 14 14 (903168)
I0403 15:44:13.769441 14283 net.cpp:156] Memory required for data: 861623328
I0403 15:44:13.769455 14283 layer_factory.hpp:77] Creating layer inception_4a/3x3_reduce
I0403 15:44:13.769476 14283 net.cpp:91] Creating Layer inception_4a/3x3_reduce
I0403 15:44:13.769495 14283 net.cpp:425] inception_4a/3x3_reduce <- pool3/3x3_s2_pool3/3x3_s2_0_split_1
I0403 15:44:13.769515 14283 net.cpp:399] inception_4a/3x3_reduce -> inception_4a/3x3_reduce
I0403 15:44:13.770864 14283 net.cpp:141] Setting up inception_4a/3x3_reduce
I0403 15:44:13.770892 14283 net.cpp:148] Top shape: 24 96 14 14 (451584)
I0403 15:44:13.770908 14283 net.cpp:156] Memory required for data: 863429664
I0403 15:44:13.770932 14283 layer_factory.hpp:77] Creating layer inception_4a/relu_3x3_reduce
I0403 15:44:13.770956 14283 net.cpp:91] Creating Layer inception_4a/relu_3x3_reduce
I0403 15:44:13.770973 14283 net.cpp:425] inception_4a/relu_3x3_reduce <- inception_4a/3x3_reduce
I0403 15:44:13.770992 14283 net.cpp:386] inception_4a/relu_3x3_reduce -> inception_4a/3x3_reduce (in-place)
I0403 15:44:13.771168 14283 net.cpp:141] Setting up inception_4a/relu_3x3_reduce
I0403 15:44:13.771198 14283 net.cpp:148] Top shape: 24 96 14 14 (451584)
I0403 15:44:13.771214 14283 net.cpp:156] Memory required for data: 865236000
I0403 15:44:13.771229 14283 layer_factory.hpp:77] Creating layer inception_4a/3x3
I0403 15:44:13.771251 14283 net.cpp:91] Creating Layer inception_4a/3x3
I0403 15:44:13.771270 14283 net.cpp:425] inception_4a/3x3 <- inception_4a/3x3_reduce
I0403 15:44:13.771287 14283 net.cpp:399] inception_4a/3x3 -> inception_4a/3x3
I0403 15:44:13.773977 14283 net.cpp:141] Setting up inception_4a/3x3
I0403 15:44:13.774009 14283 net.cpp:148] Top shape: 24 208 14 14 (978432)
I0403 15:44:13.774026 14283 net.cpp:156] Memory required for data: 869149728
I0403 15:44:13.774044 14283 layer_factory.hpp:77] Creating layer inception_4a/relu_3x3
I0403 15:44:13.774061 14283 net.cpp:91] Creating Layer inception_4a/relu_3x3
I0403 15:44:13.774077 14283 net.cpp:425] inception_4a/relu_3x3 <- inception_4a/3x3
I0403 15:44:13.774103 14283 net.cpp:386] inception_4a/relu_3x3 -> inception_4a/3x3 (in-place)
I0403 15:44:13.774389 14283 net.cpp:141] Setting up inception_4a/relu_3x3
I0403 15:44:13.774417 14283 net.cpp:148] Top shape: 24 208 14 14 (978432)
I0403 15:44:13.774433 14283 net.cpp:156] Memory required for data: 873063456
I0403 15:44:13.774448 14283 layer_factory.hpp:77] Creating layer inception_4a/5x5_reduce
I0403 15:44:13.774471 14283 net.cpp:91] Creating Layer inception_4a/5x5_reduce
I0403 15:44:13.774489 14283 net.cpp:425] inception_4a/5x5_reduce <- pool3/3x3_s2_pool3/3x3_s2_0_split_2
I0403 15:44:13.774508 14283 net.cpp:399] inception_4a/5x5_reduce -> inception_4a/5x5_reduce
I0403 15:44:13.775530 14283 net.cpp:141] Setting up inception_4a/5x5_reduce
I0403 15:44:13.775557 14283 net.cpp:148] Top shape: 24 16 14 14 (75264)
I0403 15:44:13.775573 14283 net.cpp:156] Memory required for data: 873364512
I0403 15:44:13.775589 14283 layer_factory.hpp:77] Creating layer inception_4a/relu_5x5_reduce
I0403 15:44:13.775607 14283 net.cpp:91] Creating Layer inception_4a/relu_5x5_reduce
I0403 15:44:13.775622 14283 net.cpp:425] inception_4a/relu_5x5_reduce <- inception_4a/5x5_reduce
I0403 15:44:13.775641 14283 net.cpp:386] inception_4a/relu_5x5_reduce -> inception_4a/5x5_reduce (in-place)
I0403 15:44:13.775812 14283 net.cpp:141] Setting up inception_4a/relu_5x5_reduce
I0403 15:44:13.775837 14283 net.cpp:148] Top shape: 24 16 14 14 (75264)
I0403 15:44:13.775851 14283 net.cpp:156] Memory required for data: 873665568
I0403 15:44:13.775866 14283 layer_factory.hpp:77] Creating layer inception_4a/5x5
I0403 15:44:13.775887 14283 net.cpp:91] Creating Layer inception_4a/5x5
I0403 15:44:13.775903 14283 net.cpp:425] inception_4a/5x5 <- inception_4a/5x5_reduce
I0403 15:44:13.775924 14283 net.cpp:399] inception_4a/5x5 -> inception_4a/5x5
I0403 15:44:13.777030 14283 net.cpp:141] Setting up inception_4a/5x5
I0403 15:44:13.777058 14283 net.cpp:148] Top shape: 24 48 14 14 (225792)
I0403 15:44:13.777073 14283 net.cpp:156] Memory required for data: 874568736
I0403 15:44:13.777091 14283 layer_factory.hpp:77] Creating layer inception_4a/relu_5x5
I0403 15:44:13.777117 14283 net.cpp:91] Creating Layer inception_4a/relu_5x5
I0403 15:44:13.777134 14283 net.cpp:425] inception_4a/relu_5x5 <- inception_4a/5x5
I0403 15:44:13.777151 14283 net.cpp:386] inception_4a/relu_5x5 -> inception_4a/5x5 (in-place)
I0403 15:44:13.777340 14283 net.cpp:141] Setting up inception_4a/relu_5x5
I0403 15:44:13.777369 14283 net.cpp:148] Top shape: 24 48 14 14 (225792)
I0403 15:44:13.777385 14283 net.cpp:156] Memory required for data: 875471904
I0403 15:44:13.777400 14283 layer_factory.hpp:77] Creating layer inception_4a/pool
I0403 15:44:13.777418 14283 net.cpp:91] Creating Layer inception_4a/pool
I0403 15:44:13.777433 14283 net.cpp:425] inception_4a/pool <- pool3/3x3_s2_pool3/3x3_s2_0_split_3
I0403 15:44:13.777453 14283 net.cpp:399] inception_4a/pool -> inception_4a/pool
I0403 15:44:13.777526 14283 net.cpp:141] Setting up inception_4a/pool
I0403 15:44:13.777549 14283 net.cpp:148] Top shape: 24 480 14 14 (2257920)
I0403 15:44:13.777565 14283 net.cpp:156] Memory required for data: 884503584
I0403 15:44:13.777580 14283 layer_factory.hpp:77] Creating layer inception_4a/pool_proj
I0403 15:44:13.777601 14283 net.cpp:91] Creating Layer inception_4a/pool_proj
I0403 15:44:13.777618 14283 net.cpp:425] inception_4a/pool_proj <- inception_4a/pool
I0403 15:44:13.777638 14283 net.cpp:399] inception_4a/pool_proj -> inception_4a/pool_proj
I0403 15:44:13.778795 14283 net.cpp:141] Setting up inception_4a/pool_proj
I0403 15:44:13.778822 14283 net.cpp:148] Top shape: 24 64 14 14 (301056)
I0403 15:44:13.778852 14283 net.cpp:156] Memory required for data: 885707808
I0403 15:44:13.778870 14283 layer_factory.hpp:77] Creating layer inception_4a/relu_pool_proj
I0403 15:44:13.778893 14283 net.cpp:91] Creating Layer inception_4a/relu_pool_proj
I0403 15:44:13.778908 14283 net.cpp:425] inception_4a/relu_pool_proj <- inception_4a/pool_proj
I0403 15:44:13.778925 14283 net.cpp:386] inception_4a/relu_pool_proj -> inception_4a/pool_proj (in-place)
I0403 15:44:13.779204 14283 net.cpp:141] Setting up inception_4a/relu_pool_proj
I0403 15:44:13.779230 14283 net.cpp:148] Top shape: 24 64 14 14 (301056)
I0403 15:44:13.779244 14283 net.cpp:156] Memory required for data: 886912032
I0403 15:44:13.779258 14283 layer_factory.hpp:77] Creating layer inception_4a/output
I0403 15:44:13.779278 14283 net.cpp:91] Creating Layer inception_4a/output
I0403 15:44:13.779294 14283 net.cpp:425] inception_4a/output <- inception_4a/1x1
I0403 15:44:13.779309 14283 net.cpp:425] inception_4a/output <- inception_4a/3x3
I0403 15:44:13.779325 14283 net.cpp:425] inception_4a/output <- inception_4a/5x5
I0403 15:44:13.779341 14283 net.cpp:425] inception_4a/output <- inception_4a/pool_proj
I0403 15:44:13.779358 14283 net.cpp:399] inception_4a/output -> inception_4a/output
I0403 15:44:13.779403 14283 net.cpp:141] Setting up inception_4a/output
I0403 15:44:13.779427 14283 net.cpp:148] Top shape: 24 512 14 14 (2408448)
I0403 15:44:13.779440 14283 net.cpp:156] Memory required for data: 896545824
I0403 15:44:13.779455 14283 layer_factory.hpp:77] Creating layer inception_4a/output_inception_4a/output_0_split
I0403 15:44:13.779471 14283 net.cpp:91] Creating Layer inception_4a/output_inception_4a/output_0_split
I0403 15:44:13.779487 14283 net.cpp:425] inception_4a/output_inception_4a/output_0_split <- inception_4a/output
I0403 15:44:13.779506 14283 net.cpp:399] inception_4a/output_inception_4a/output_0_split -> inception_4a/output_inception_4a/output_0_split_0
I0403 15:44:13.779527 14283 net.cpp:399] inception_4a/output_inception_4a/output_0_split -> inception_4a/output_inception_4a/output_0_split_1
I0403 15:44:13.779546 14283 net.cpp:399] inception_4a/output_inception_4a/output_0_split -> inception_4a/output_inception_4a/output_0_split_2
I0403 15:44:13.779567 14283 net.cpp:399] inception_4a/output_inception_4a/output_0_split -> inception_4a/output_inception_4a/output_0_split_3
I0403 15:44:13.779587 14283 net.cpp:399] inception_4a/output_inception_4a/output_0_split -> inception_4a/output_inception_4a/output_0_split_4
I0403 15:44:13.779680 14283 net.cpp:141] Setting up inception_4a/output_inception_4a/output_0_split
I0403 15:44:13.779702 14283 net.cpp:148] Top shape: 24 512 14 14 (2408448)
I0403 15:44:13.779718 14283 net.cpp:148] Top shape: 24 512 14 14 (2408448)
I0403 15:44:13.779733 14283 net.cpp:148] Top shape: 24 512 14 14 (2408448)
I0403 15:44:13.779748 14283 net.cpp:148] Top shape: 24 512 14 14 (2408448)
I0403 15:44:13.779763 14283 net.cpp:148] Top shape: 24 512 14 14 (2408448)
I0403 15:44:13.779778 14283 net.cpp:156] Memory required for data: 944714784
I0403 15:44:13.779791 14283 layer_factory.hpp:77] Creating layer loss1/ave_pool
I0403 15:44:13.779808 14283 net.cpp:91] Creating Layer loss1/ave_pool
I0403 15:44:13.779824 14283 net.cpp:425] loss1/ave_pool <- inception_4a/output_inception_4a/output_0_split_0
I0403 15:44:13.779844 14283 net.cpp:399] loss1/ave_pool -> loss1/ave_pool
I0403 15:44:13.780042 14283 net.cpp:141] Setting up loss1/ave_pool
I0403 15:44:13.780068 14283 net.cpp:148] Top shape: 24 512 4 4 (196608)
I0403 15:44:13.780086 14283 net.cpp:156] Memory required for data: 945501216
I0403 15:44:13.780105 14283 layer_factory.hpp:77] Creating layer loss1/conv
I0403 15:44:13.780125 14283 net.cpp:91] Creating Layer loss1/conv
I0403 15:44:13.780143 14283 net.cpp:425] loss1/conv <- loss1/ave_pool
I0403 15:44:13.780164 14283 net.cpp:399] loss1/conv -> loss1/conv
I0403 15:44:13.781558 14283 net.cpp:141] Setting up loss1/conv
I0403 15:44:13.781587 14283 net.cpp:148] Top shape: 24 128 4 4 (49152)
I0403 15:44:13.781605 14283 net.cpp:156] Memory required for data: 945697824
I0403 15:44:13.781636 14283 layer_factory.hpp:77] Creating layer loss1/relu_conv
I0403 15:44:13.781656 14283 net.cpp:91] Creating Layer loss1/relu_conv
I0403 15:44:13.781672 14283 net.cpp:425] loss1/relu_conv <- loss1/conv
I0403 15:44:13.781692 14283 net.cpp:386] loss1/relu_conv -> loss1/conv (in-place)
I0403 15:44:13.781963 14283 net.cpp:141] Setting up loss1/relu_conv
I0403 15:44:13.781991 14283 net.cpp:148] Top shape: 24 128 4 4 (49152)
I0403 15:44:13.782006 14283 net.cpp:156] Memory required for data: 945894432
I0403 15:44:13.782021 14283 layer_factory.hpp:77] Creating layer loss1/fc
I0403 15:44:13.782043 14283 net.cpp:91] Creating Layer loss1/fc
I0403 15:44:13.782061 14283 net.cpp:425] loss1/fc <- loss1/conv
I0403 15:44:13.782083 14283 net.cpp:399] loss1/fc -> loss1/fc
I0403 15:44:13.799726 14283 net.cpp:141] Setting up loss1/fc
I0403 15:44:13.799762 14283 net.cpp:148] Top shape: 24 1024 (24576)
I0403 15:44:13.799777 14283 net.cpp:156] Memory required for data: 945992736
I0403 15:44:13.799794 14283 layer_factory.hpp:77] Creating layer loss1/relu_fc
I0403 15:44:13.799814 14283 net.cpp:91] Creating Layer loss1/relu_fc
I0403 15:44:13.799830 14283 net.cpp:425] loss1/relu_fc <- loss1/fc
I0403 15:44:13.799847 14283 net.cpp:386] loss1/relu_fc -> loss1/fc (in-place)
I0403 15:44:13.800030 14283 net.cpp:141] Setting up loss1/relu_fc
I0403 15:44:13.800055 14283 net.cpp:148] Top shape: 24 1024 (24576)
I0403 15:44:13.800071 14283 net.cpp:156] Memory required for data: 946091040
I0403 15:44:13.800086 14283 layer_factory.hpp:77] Creating layer loss1/drop_fc
I0403 15:44:13.800114 14283 net.cpp:91] Creating Layer loss1/drop_fc
I0403 15:44:13.800133 14283 net.cpp:425] loss1/drop_fc <- loss1/fc
I0403 15:44:13.800151 14283 net.cpp:386] loss1/drop_fc -> loss1/fc (in-place)
I0403 15:44:13.800202 14283 net.cpp:141] Setting up loss1/drop_fc
I0403 15:44:13.800226 14283 net.cpp:148] Top shape: 24 1024 (24576)
I0403 15:44:13.800240 14283 net.cpp:156] Memory required for data: 946189344
I0403 15:44:13.800256 14283 layer_factory.hpp:77] Creating layer loss1/classifier_plantvillage
I0403 15:44:13.800276 14283 net.cpp:91] Creating Layer loss1/classifier_plantvillage
I0403 15:44:13.800293 14283 net.cpp:425] loss1/classifier_plantvillage <- loss1/fc
I0403 15:44:13.800312 14283 net.cpp:399] loss1/classifier_plantvillage -> loss1/classifier_plantvillage
I0403 15:44:13.801220 14283 net.cpp:141] Setting up loss1/classifier_plantvillage
I0403 15:44:13.801249 14283 net.cpp:148] Top shape: 24 38 (912)
I0403 15:44:13.801264 14283 net.cpp:156] Memory required for data: 946192992
I0403 15:44:13.801281 14283 layer_factory.hpp:77] Creating layer loss1/classifier_plantvillage_loss1/classifier_plantvillage_0_split
I0403 15:44:13.801301 14283 net.cpp:91] Creating Layer loss1/classifier_plantvillage_loss1/classifier_plantvillage_0_split
I0403 15:44:13.801317 14283 net.cpp:425] loss1/classifier_plantvillage_loss1/classifier_plantvillage_0_split <- loss1/classifier_plantvillage
I0403 15:44:13.801336 14283 net.cpp:399] loss1/classifier_plantvillage_loss1/classifier_plantvillage_0_split -> loss1/classifier_plantvillage_loss1/classifier_plantvillage_0_split_0
I0403 15:44:13.801358 14283 net.cpp:399] loss1/classifier_plantvillage_loss1/classifier_plantvillage_0_split -> loss1/classifier_plantvillage_loss1/classifier_plantvillage_0_split_1
I0403 15:44:13.801379 14283 net.cpp:399] loss1/classifier_plantvillage_loss1/classifier_plantvillage_0_split -> loss1/classifier_plantvillage_loss1/classifier_plantvillage_0_split_2
I0403 15:44:13.801445 14283 net.cpp:141] Setting up loss1/classifier_plantvillage_loss1/classifier_plantvillage_0_split
I0403 15:44:13.801467 14283 net.cpp:148] Top shape: 24 38 (912)
I0403 15:44:13.801483 14283 net.cpp:148] Top shape: 24 38 (912)
I0403 15:44:13.801498 14283 net.cpp:148] Top shape: 24 38 (912)
I0403 15:44:13.801512 14283 net.cpp:156] Memory required for data: 946203936
I0403 15:44:13.801527 14283 layer_factory.hpp:77] Creating layer inception_4b/1x1
I0403 15:44:13.801548 14283 net.cpp:91] Creating Layer inception_4b/1x1
I0403 15:44:13.801581 14283 net.cpp:425] inception_4b/1x1 <- inception_4a/output_inception_4a/output_0_split_1
I0403 15:44:13.801600 14283 net.cpp:399] inception_4b/1x1 -> inception_4b/1x1
I0403 15:44:13.803199 14283 net.cpp:141] Setting up inception_4b/1x1
I0403 15:44:13.803230 14283 net.cpp:148] Top shape: 24 160 14 14 (752640)
I0403 15:44:13.803246 14283 net.cpp:156] Memory required for data: 949214496
I0403 15:44:13.803263 14283 layer_factory.hpp:77] Creating layer inception_4b/relu_1x1
I0403 15:44:13.803280 14283 net.cpp:91] Creating Layer inception_4b/relu_1x1
I0403 15:44:13.803297 14283 net.cpp:425] inception_4b/relu_1x1 <- inception_4b/1x1
I0403 15:44:13.803316 14283 net.cpp:386] inception_4b/relu_1x1 -> inception_4b/1x1 (in-place)
I0403 15:44:13.803491 14283 net.cpp:141] Setting up inception_4b/relu_1x1
I0403 15:44:13.803515 14283 net.cpp:148] Top shape: 24 160 14 14 (752640)
I0403 15:44:13.803529 14283 net.cpp:156] Memory required for data: 952225056
I0403 15:44:13.803544 14283 layer_factory.hpp:77] Creating layer inception_4b/3x3_reduce
I0403 15:44:13.803566 14283 net.cpp:91] Creating Layer inception_4b/3x3_reduce
I0403 15:44:13.803585 14283 net.cpp:425] inception_4b/3x3_reduce <- inception_4a/output_inception_4a/output_0_split_2
I0403 15:44:13.803606 14283 net.cpp:399] inception_4b/3x3_reduce -> inception_4b/3x3_reduce
I0403 15:44:13.804934 14283 net.cpp:141] Setting up inception_4b/3x3_reduce
I0403 15:44:13.804960 14283 net.cpp:148] Top shape: 24 112 14 14 (526848)
I0403 15:44:13.804975 14283 net.cpp:156] Memory required for data: 954332448
I0403 15:44:13.804993 14283 layer_factory.hpp:77] Creating layer inception_4b/relu_3x3_reduce
I0403 15:44:13.805013 14283 net.cpp:91] Creating Layer inception_4b/relu_3x3_reduce
I0403 15:44:13.805029 14283 net.cpp:425] inception_4b/relu_3x3_reduce <- inception_4b/3x3_reduce
I0403 15:44:13.805047 14283 net.cpp:386] inception_4b/relu_3x3_reduce -> inception_4b/3x3_reduce (in-place)
I0403 15:44:13.805320 14283 net.cpp:141] Setting up inception_4b/relu_3x3_reduce
I0403 15:44:13.805346 14283 net.cpp:148] Top shape: 24 112 14 14 (526848)
I0403 15:44:13.805361 14283 net.cpp:156] Memory required for data: 956439840
I0403 15:44:13.805376 14283 layer_factory.hpp:77] Creating layer inception_4b/3x3
I0403 15:44:13.805397 14283 net.cpp:91] Creating Layer inception_4b/3x3
I0403 15:44:13.805414 14283 net.cpp:425] inception_4b/3x3 <- inception_4b/3x3_reduce
I0403 15:44:13.805435 14283 net.cpp:399] inception_4b/3x3 -> inception_4b/3x3
I0403 15:44:13.808302 14283 net.cpp:141] Setting up inception_4b/3x3
I0403 15:44:13.808331 14283 net.cpp:148] Top shape: 24 224 14 14 (1053696)
I0403 15:44:13.808346 14283 net.cpp:156] Memory required for data: 960654624
I0403 15:44:13.808364 14283 layer_factory.hpp:77] Creating layer inception_4b/relu_3x3
I0403 15:44:13.808398 14283 net.cpp:91] Creating Layer inception_4b/relu_3x3
I0403 15:44:13.808416 14283 net.cpp:425] inception_4b/relu_3x3 <- inception_4b/3x3
I0403 15:44:13.808434 14283 net.cpp:386] inception_4b/relu_3x3 -> inception_4b/3x3 (in-place)
I0403 15:44:13.808617 14283 net.cpp:141] Setting up inception_4b/relu_3x3
I0403 15:44:13.808643 14283 net.cpp:148] Top shape: 24 224 14 14 (1053696)
I0403 15:44:13.808657 14283 net.cpp:156] Memory required for data: 964869408
I0403 15:44:13.808683 14283 layer_factory.hpp:77] Creating layer inception_4b/5x5_reduce
I0403 15:44:13.808706 14283 net.cpp:91] Creating Layer inception_4b/5x5_reduce
I0403 15:44:13.808722 14283 net.cpp:425] inception_4b/5x5_reduce <- inception_4a/output_inception_4a/output_0_split_3
I0403 15:44:13.808743 14283 net.cpp:399] inception_4b/5x5_reduce -> inception_4b/5x5_reduce
I0403 15:44:13.809798 14283 net.cpp:141] Setting up inception_4b/5x5_reduce
I0403 15:44:13.809825 14283 net.cpp:148] Top shape: 24 24 14 14 (112896)
I0403 15:44:13.809841 14283 net.cpp:156] Memory required for data: 965320992
I0403 15:44:13.809859 14283 layer_factory.hpp:77] Creating layer inception_4b/relu_5x5_reduce
I0403 15:44:13.809876 14283 net.cpp:91] Creating Layer inception_4b/relu_5x5_reduce
I0403 15:44:13.809906 14283 net.cpp:425] inception_4b/relu_5x5_reduce <- inception_4b/5x5_reduce
I0403 15:44:13.809928 14283 net.cpp:386] inception_4b/relu_5x5_reduce -> inception_4b/5x5_reduce (in-place)
I0403 15:44:13.810111 14283 net.cpp:141] Setting up inception_4b/relu_5x5_reduce
I0403 15:44:13.810137 14283 net.cpp:148] Top shape: 24 24 14 14 (112896)
I0403 15:44:13.810150 14283 net.cpp:156] Memory required for data: 965772576
I0403 15:44:13.810164 14283 layer_factory.hpp:77] Creating layer inception_4b/5x5
I0403 15:44:13.810185 14283 net.cpp:91] Creating Layer inception_4b/5x5
I0403 15:44:13.810204 14283 net.cpp:425] inception_4b/5x5 <- inception_4b/5x5_reduce
I0403 15:44:13.810225 14283 net.cpp:399] inception_4b/5x5 -> inception_4b/5x5
I0403 15:44:13.811411 14283 net.cpp:141] Setting up inception_4b/5x5
I0403 15:44:13.811440 14283 net.cpp:148] Top shape: 24 64 14 14 (301056)
I0403 15:44:13.811457 14283 net.cpp:156] Memory required for data: 966976800
I0403 15:44:13.811475 14283 layer_factory.hpp:77] Creating layer inception_4b/relu_5x5
I0403 15:44:13.811491 14283 net.cpp:91] Creating Layer inception_4b/relu_5x5
I0403 15:44:13.811508 14283 net.cpp:425] inception_4b/relu_5x5 <- inception_4b/5x5
I0403 15:44:13.811527 14283 net.cpp:386] inception_4b/relu_5x5 -> inception_4b/5x5 (in-place)
I0403 15:44:13.811811 14283 net.cpp:141] Setting up inception_4b/relu_5x5
I0403 15:44:13.811839 14283 net.cpp:148] Top shape: 24 64 14 14 (301056)
I0403 15:44:13.811856 14283 net.cpp:156] Memory required for data: 968181024
I0403 15:44:13.811869 14283 layer_factory.hpp:77] Creating layer inception_4b/pool
I0403 15:44:13.811887 14283 net.cpp:91] Creating Layer inception_4b/pool
I0403 15:44:13.811904 14283 net.cpp:425] inception_4b/pool <- inception_4a/output_inception_4a/output_0_split_4
I0403 15:44:13.811924 14283 net.cpp:399] inception_4b/pool -> inception_4b/pool
I0403 15:44:13.811985 14283 net.cpp:141] Setting up inception_4b/pool
I0403 15:44:13.812011 14283 net.cpp:148] Top shape: 24 512 14 14 (2408448)
I0403 15:44:13.812026 14283 net.cpp:156] Memory required for data: 977814816
I0403 15:44:13.812039 14283 layer_factory.hpp:77] Creating layer inception_4b/pool_proj
I0403 15:44:13.812062 14283 net.cpp:91] Creating Layer inception_4b/pool_proj
I0403 15:44:13.812079 14283 net.cpp:425] inception_4b/pool_proj <- inception_4b/pool
I0403 15:44:13.812101 14283 net.cpp:399] inception_4b/pool_proj -> inception_4b/pool_proj
I0403 15:44:13.813302 14283 net.cpp:141] Setting up inception_4b/pool_proj
I0403 15:44:13.813330 14283 net.cpp:148] Top shape: 24 64 14 14 (301056)
I0403 15:44:13.813344 14283 net.cpp:156] Memory required for data: 979019040
I0403 15:44:13.813362 14283 layer_factory.hpp:77] Creating layer inception_4b/relu_pool_proj
I0403 15:44:13.813381 14283 net.cpp:91] Creating Layer inception_4b/relu_pool_proj
I0403 15:44:13.813400 14283 net.cpp:425] inception_4b/relu_pool_proj <- inception_4b/pool_proj
I0403 15:44:13.813416 14283 net.cpp:386] inception_4b/relu_pool_proj -> inception_4b/pool_proj (in-place)
I0403 15:44:13.813590 14283 net.cpp:141] Setting up inception_4b/relu_pool_proj
I0403 15:44:13.813614 14283 net.cpp:148] Top shape: 24 64 14 14 (301056)
I0403 15:44:13.813629 14283 net.cpp:156] Memory required for data: 980223264
I0403 15:44:13.813643 14283 layer_factory.hpp:77] Creating layer inception_4b/output
I0403 15:44:13.813662 14283 net.cpp:91] Creating Layer inception_4b/output
I0403 15:44:13.813678 14283 net.cpp:425] inception_4b/output <- inception_4b/1x1
I0403 15:44:13.813694 14283 net.cpp:425] inception_4b/output <- inception_4b/3x3
I0403 15:44:13.813709 14283 net.cpp:425] inception_4b/output <- inception_4b/5x5
I0403 15:44:13.813729 14283 net.cpp:425] inception_4b/output <- inception_4b/pool_proj
I0403 15:44:13.813760 14283 net.cpp:399] inception_4b/output -> inception_4b/output
I0403 15:44:13.813807 14283 net.cpp:141] Setting up inception_4b/output
I0403 15:44:13.813832 14283 net.cpp:148] Top shape: 24 512 14 14 (2408448)
I0403 15:44:13.813845 14283 net.cpp:156] Memory required for data: 989857056
I0403 15:44:13.813874 14283 layer_factory.hpp:77] Creating layer inception_4b/output_inception_4b/output_0_split
I0403 15:44:13.813892 14283 net.cpp:91] Creating Layer inception_4b/output_inception_4b/output_0_split
I0403 15:44:13.813908 14283 net.cpp:425] inception_4b/output_inception_4b/output_0_split <- inception_4b/output
I0403 15:44:13.813928 14283 net.cpp:399] inception_4b/output_inception_4b/output_0_split -> inception_4b/output_inception_4b/output_0_split_0
I0403 15:44:13.813949 14283 net.cpp:399] inception_4b/output_inception_4b/output_0_split -> inception_4b/output_inception_4b/output_0_split_1
I0403 15:44:13.813969 14283 net.cpp:399] inception_4b/output_inception_4b/output_0_split -> inception_4b/output_inception_4b/output_0_split_2
I0403 15:44:13.813989 14283 net.cpp:399] inception_4b/output_inception_4b/output_0_split -> inception_4b/output_inception_4b/output_0_split_3
I0403 15:44:13.814084 14283 net.cpp:141] Setting up inception_4b/output_inception_4b/output_0_split
I0403 15:44:13.814113 14283 net.cpp:148] Top shape: 24 512 14 14 (2408448)
I0403 15:44:13.814132 14283 net.cpp:148] Top shape: 24 512 14 14 (2408448)
I0403 15:44:13.814146 14283 net.cpp:148] Top shape: 24 512 14 14 (2408448)
I0403 15:44:13.814160 14283 net.cpp:148] Top shape: 24 512 14 14 (2408448)
I0403 15:44:13.814173 14283 net.cpp:156] Memory required for data: 1028392224
I0403 15:44:13.814188 14283 layer_factory.hpp:77] Creating layer inception_4c/1x1
I0403 15:44:13.814210 14283 net.cpp:91] Creating Layer inception_4c/1x1
I0403 15:44:13.814226 14283 net.cpp:425] inception_4c/1x1 <- inception_4b/output_inception_4b/output_0_split_0
I0403 15:44:13.814245 14283 net.cpp:399] inception_4c/1x1 -> inception_4c/1x1
I0403 15:44:13.815626 14283 net.cpp:141] Setting up inception_4c/1x1
I0403 15:44:13.815654 14283 net.cpp:148] Top shape: 24 128 14 14 (602112)
I0403 15:44:13.815668 14283 net.cpp:156] Memory required for data: 1030800672
I0403 15:44:13.815685 14283 layer_factory.hpp:77] Creating layer inception_4c/relu_1x1
I0403 15:44:13.815706 14283 net.cpp:91] Creating Layer inception_4c/relu_1x1
I0403 15:44:13.815722 14283 net.cpp:425] inception_4c/relu_1x1 <- inception_4c/1x1
I0403 15:44:13.815739 14283 net.cpp:386] inception_4c/relu_1x1 -> inception_4c/1x1 (in-place)
I0403 15:44:13.815912 14283 net.cpp:141] Setting up inception_4c/relu_1x1
I0403 15:44:13.815939 14283 net.cpp:148] Top shape: 24 128 14 14 (602112)
I0403 15:44:13.815955 14283 net.cpp:156] Memory required for data: 1033209120
I0403 15:44:13.815969 14283 layer_factory.hpp:77] Creating layer inception_4c/3x3_reduce
I0403 15:44:13.815990 14283 net.cpp:91] Creating Layer inception_4c/3x3_reduce
I0403 15:44:13.816007 14283 net.cpp:425] inception_4c/3x3_reduce <- inception_4b/output_inception_4b/output_0_split_1
I0403 15:44:13.816026 14283 net.cpp:399] inception_4c/3x3_reduce -> inception_4c/3x3_reduce
I0403 15:44:13.817927 14283 net.cpp:141] Setting up inception_4c/3x3_reduce
I0403 15:44:13.817955 14283 net.cpp:148] Top shape: 24 128 14 14 (602112)
I0403 15:44:13.817970 14283 net.cpp:156] Memory required for data: 1035617568
I0403 15:44:13.817987 14283 layer_factory.hpp:77] Creating layer inception_4c/relu_3x3_reduce
I0403 15:44:13.818004 14283 net.cpp:91] Creating Layer inception_4c/relu_3x3_reduce
I0403 15:44:13.818019 14283 net.cpp:425] inception_4c/relu_3x3_reduce <- inception_4c/3x3_reduce
I0403 15:44:13.818038 14283 net.cpp:386] inception_4c/relu_3x3_reduce -> inception_4c/3x3_reduce (in-place)
I0403 15:44:13.818320 14283 net.cpp:141] Setting up inception_4c/relu_3x3_reduce
I0403 15:44:13.818347 14283 net.cpp:148] Top shape: 24 128 14 14 (602112)
I0403 15:44:13.818362 14283 net.cpp:156] Memory required for data: 1038026016
I0403 15:44:13.818377 14283 layer_factory.hpp:77] Creating layer inception_4c/3x3
I0403 15:44:13.818399 14283 net.cpp:91] Creating Layer inception_4c/3x3
I0403 15:44:13.818416 14283 net.cpp:425] inception_4c/3x3 <- inception_4c/3x3_reduce
I0403 15:44:13.818438 14283 net.cpp:399] inception_4c/3x3 -> inception_4c/3x3
I0403 15:44:13.821941 14283 net.cpp:141] Setting up inception_4c/3x3
I0403 15:44:13.821980 14283 net.cpp:148] Top shape: 24 256 14 14 (1204224)
I0403 15:44:13.821995 14283 net.cpp:156] Memory required for data: 1042842912
I0403 15:44:13.822026 14283 layer_factory.hpp:77] Creating layer inception_4c/relu_3x3
I0403 15:44:13.822046 14283 net.cpp:91] Creating Layer inception_4c/relu_3x3
I0403 15:44:13.822062 14283 net.cpp:425] inception_4c/relu_3x3 <- inception_4c/3x3
I0403 15:44:13.822082 14283 net.cpp:386] inception_4c/relu_3x3 -> inception_4c/3x3 (in-place)
I0403 15:44:13.822264 14283 net.cpp:141] Setting up inception_4c/relu_3x3
I0403 15:44:13.822289 14283 net.cpp:148] Top shape: 24 256 14 14 (1204224)
I0403 15:44:13.822304 14283 net.cpp:156] Memory required for data: 1047659808
I0403 15:44:13.822316 14283 layer_factory.hpp:77] Creating layer inception_4c/5x5_reduce
I0403 15:44:13.822340 14283 net.cpp:91] Creating Layer inception_4c/5x5_reduce
I0403 15:44:13.822356 14283 net.cpp:425] inception_4c/5x5_reduce <- inception_4b/output_inception_4b/output_0_split_2
I0403 15:44:13.822377 14283 net.cpp:399] inception_4c/5x5_reduce -> inception_4c/5x5_reduce
I0403 15:44:13.823433 14283 net.cpp:141] Setting up inception_4c/5x5_reduce
I0403 15:44:13.823462 14283 net.cpp:148] Top shape: 24 24 14 14 (112896)
I0403 15:44:13.823477 14283 net.cpp:156] Memory required for data: 1048111392
I0403 15:44:13.823494 14283 layer_factory.hpp:77] Creating layer inception_4c/relu_5x5_reduce
I0403 15:44:13.823513 14283 net.cpp:91] Creating Layer inception_4c/relu_5x5_reduce
I0403 15:44:13.823529 14283 net.cpp:425] inception_4c/relu_5x5_reduce <- inception_4c/5x5_reduce
I0403 15:44:13.823549 14283 net.cpp:386] inception_4c/relu_5x5_reduce -> inception_4c/5x5_reduce (in-place)
I0403 15:44:13.823725 14283 net.cpp:141] Setting up inception_4c/relu_5x5_reduce
I0403 15:44:13.823750 14283 net.cpp:148] Top shape: 24 24 14 14 (112896)
I0403 15:44:13.823765 14283 net.cpp:156] Memory required for data: 1048562976
I0403 15:44:13.823778 14283 layer_factory.hpp:77] Creating layer inception_4c/5x5
I0403 15:44:13.823799 14283 net.cpp:91] Creating Layer inception_4c/5x5
I0403 15:44:13.823817 14283 net.cpp:425] inception_4c/5x5 <- inception_4c/5x5_reduce
I0403 15:44:13.823838 14283 net.cpp:399] inception_4c/5x5 -> inception_4c/5x5
I0403 15:44:13.825147 14283 net.cpp:141] Setting up inception_4c/5x5
I0403 15:44:13.825175 14283 net.cpp:148] Top shape: 24 64 14 14 (301056)
I0403 15:44:13.825189 14283 net.cpp:156] Memory required for data: 1049767200
I0403 15:44:13.825207 14283 layer_factory.hpp:77] Creating layer inception_4c/relu_5x5
I0403 15:44:13.825228 14283 net.cpp:91] Creating Layer inception_4c/relu_5x5
I0403 15:44:13.825244 14283 net.cpp:425] inception_4c/relu_5x5 <- inception_4c/5x5
I0403 15:44:13.825263 14283 net.cpp:386] inception_4c/relu_5x5 -> inception_4c/5x5 (in-place)
I0403 15:44:13.825548 14283 net.cpp:141] Setting up inception_4c/relu_5x5
I0403 15:44:13.825574 14283 net.cpp:148] Top shape: 24 64 14 14 (301056)
I0403 15:44:13.825588 14283 net.cpp:156] Memory required for data: 1050971424
I0403 15:44:13.825601 14283 layer_factory.hpp:77] Creating layer inception_4c/pool
I0403 15:44:13.825621 14283 net.cpp:91] Creating Layer inception_4c/pool
I0403 15:44:13.825637 14283 net.cpp:425] inception_4c/pool <- inception_4b/output_inception_4b/output_0_split_3
I0403 15:44:13.825654 14283 net.cpp:399] inception_4c/pool -> inception_4c/pool
I0403 15:44:13.825721 14283 net.cpp:141] Setting up inception_4c/pool
I0403 15:44:13.825745 14283 net.cpp:148] Top shape: 24 512 14 14 (2408448)
I0403 15:44:13.825758 14283 net.cpp:156] Memory required for data: 1060605216
I0403 15:44:13.825772 14283 layer_factory.hpp:77] Creating layer inception_4c/pool_proj
I0403 15:44:13.825793 14283 net.cpp:91] Creating Layer inception_4c/pool_proj
I0403 15:44:13.825810 14283 net.cpp:425] inception_4c/pool_proj <- inception_4c/pool
I0403 15:44:13.825831 14283 net.cpp:399] inception_4c/pool_proj -> inception_4c/pool_proj
I0403 15:44:13.827018 14283 net.cpp:141] Setting up inception_4c/pool_proj
I0403 15:44:13.827046 14283 net.cpp:148] Top shape: 24 64 14 14 (301056)
I0403 15:44:13.827075 14283 net.cpp:156] Memory required for data: 1061809440
I0403 15:44:13.827097 14283 layer_factory.hpp:77] Creating layer inception_4c/relu_pool_proj
I0403 15:44:13.827116 14283 net.cpp:91] Creating Layer inception_4c/relu_pool_proj
I0403 15:44:13.827133 14283 net.cpp:425] inception_4c/relu_pool_proj <- inception_4c/pool_proj
I0403 15:44:13.827153 14283 net.cpp:386] inception_4c/relu_pool_proj -> inception_4c/pool_proj (in-place)
I0403 15:44:13.827328 14283 net.cpp:141] Setting up inception_4c/relu_pool_proj
I0403 15:44:13.827353 14283 net.cpp:148] Top shape: 24 64 14 14 (301056)
I0403 15:44:13.827368 14283 net.cpp:156] Memory required for data: 1063013664
I0403 15:44:13.827383 14283 layer_factory.hpp:77] Creating layer inception_4c/output
I0403 15:44:13.827399 14283 net.cpp:91] Creating Layer inception_4c/output
I0403 15:44:13.827414 14283 net.cpp:425] inception_4c/output <- inception_4c/1x1
I0403 15:44:13.827432 14283 net.cpp:425] inception_4c/output <- inception_4c/3x3
I0403 15:44:13.827450 14283 net.cpp:425] inception_4c/output <- inception_4c/5x5
I0403 15:44:13.827466 14283 net.cpp:425] inception_4c/output <- inception_4c/pool_proj
I0403 15:44:13.827482 14283 net.cpp:399] inception_4c/output -> inception_4c/output
I0403 15:44:13.827529 14283 net.cpp:141] Setting up inception_4c/output
I0403 15:44:13.827553 14283 net.cpp:148] Top shape: 24 512 14 14 (2408448)
I0403 15:44:13.827566 14283 net.cpp:156] Memory required for data: 1072647456
I0403 15:44:13.827580 14283 layer_factory.hpp:77] Creating layer inception_4c/output_inception_4c/output_0_split
I0403 15:44:13.827596 14283 net.cpp:91] Creating Layer inception_4c/output_inception_4c/output_0_split
I0403 15:44:13.827611 14283 net.cpp:425] inception_4c/output_inception_4c/output_0_split <- inception_4c/output
I0403 15:44:13.827630 14283 net.cpp:399] inception_4c/output_inception_4c/output_0_split -> inception_4c/output_inception_4c/output_0_split_0
I0403 15:44:13.827651 14283 net.cpp:399] inception_4c/output_inception_4c/output_0_split -> inception_4c/output_inception_4c/output_0_split_1
I0403 15:44:13.827671 14283 net.cpp:399] inception_4c/output_inception_4c/output_0_split -> inception_4c/output_inception_4c/output_0_split_2
I0403 15:44:13.827688 14283 net.cpp:399] inception_4c/output_inception_4c/output_0_split -> inception_4c/output_inception_4c/output_0_split_3
I0403 15:44:13.827774 14283 net.cpp:141] Setting up inception_4c/output_inception_4c/output_0_split
I0403 15:44:13.827798 14283 net.cpp:148] Top shape: 24 512 14 14 (2408448)
I0403 15:44:13.827814 14283 net.cpp:148] Top shape: 24 512 14 14 (2408448)
I0403 15:44:13.827831 14283 net.cpp:148] Top shape: 24 512 14 14 (2408448)
I0403 15:44:13.827846 14283 net.cpp:148] Top shape: 24 512 14 14 (2408448)
I0403 15:44:13.827858 14283 net.cpp:156] Memory required for data: 1111182624
I0403 15:44:13.827872 14283 layer_factory.hpp:77] Creating layer inception_4d/1x1
I0403 15:44:13.827893 14283 net.cpp:91] Creating Layer inception_4d/1x1
I0403 15:44:13.827910 14283 net.cpp:425] inception_4d/1x1 <- inception_4c/output_inception_4c/output_0_split_0
I0403 15:44:13.827929 14283 net.cpp:399] inception_4d/1x1 -> inception_4d/1x1
I0403 15:44:13.829298 14283 net.cpp:141] Setting up inception_4d/1x1
I0403 15:44:13.829329 14283 net.cpp:148] Top shape: 24 112 14 14 (526848)
I0403 15:44:13.829344 14283 net.cpp:156] Memory required for data: 1113290016
I0403 15:44:13.829361 14283 layer_factory.hpp:77] Creating layer inception_4d/relu_1x1
I0403 15:44:13.829378 14283 net.cpp:91] Creating Layer inception_4d/relu_1x1
I0403 15:44:13.829393 14283 net.cpp:425] inception_4d/relu_1x1 <- inception_4d/1x1
I0403 15:44:13.829412 14283 net.cpp:386] inception_4d/relu_1x1 -> inception_4d/1x1 (in-place)
I0403 15:44:13.829592 14283 net.cpp:141] Setting up inception_4d/relu_1x1
I0403 15:44:13.829617 14283 net.cpp:148] Top shape: 24 112 14 14 (526848)
I0403 15:44:13.829632 14283 net.cpp:156] Memory required for data: 1115397408
I0403 15:44:13.829645 14283 layer_factory.hpp:77] Creating layer inception_4d/3x3_reduce
I0403 15:44:13.829681 14283 net.cpp:91] Creating Layer inception_4d/3x3_reduce
I0403 15:44:13.829700 14283 net.cpp:425] inception_4d/3x3_reduce <- inception_4c/output_inception_4c/output_0_split_1
I0403 15:44:13.829721 14283 net.cpp:399] inception_4d/3x3_reduce -> inception_4d/3x3_reduce
I0403 15:44:13.831199 14283 net.cpp:141] Setting up inception_4d/3x3_reduce
I0403 15:44:13.831226 14283 net.cpp:148] Top shape: 24 144 14 14 (677376)
I0403 15:44:13.831241 14283 net.cpp:156] Memory required for data: 1118106912
I0403 15:44:13.831259 14283 layer_factory.hpp:77] Creating layer inception_4d/relu_3x3_reduce
I0403 15:44:13.831277 14283 net.cpp:91] Creating Layer inception_4d/relu_3x3_reduce
I0403 15:44:13.831295 14283 net.cpp:425] inception_4d/relu_3x3_reduce <- inception_4d/3x3_reduce
I0403 15:44:13.831311 14283 net.cpp:386] inception_4d/relu_3x3_reduce -> inception_4d/3x3_reduce (in-place)
I0403 15:44:13.831589 14283 net.cpp:141] Setting up inception_4d/relu_3x3_reduce
I0403 15:44:13.831615 14283 net.cpp:148] Top shape: 24 144 14 14 (677376)
I0403 15:44:13.831629 14283 net.cpp:156] Memory required for data: 1120816416
I0403 15:44:13.831643 14283 layer_factory.hpp:77] Creating layer inception_4d/3x3
I0403 15:44:13.831665 14283 net.cpp:91] Creating Layer inception_4d/3x3
I0403 15:44:13.831682 14283 net.cpp:425] inception_4d/3x3 <- inception_4d/3x3_reduce
I0403 15:44:13.831703 14283 net.cpp:399] inception_4d/3x3 -> inception_4d/3x3
I0403 15:44:13.835896 14283 net.cpp:141] Setting up inception_4d/3x3
I0403 15:44:13.835927 14283 net.cpp:148] Top shape: 24 288 14 14 (1354752)
I0403 15:44:13.835943 14283 net.cpp:156] Memory required for data: 1126235424
I0403 15:44:13.835961 14283 layer_factory.hpp:77] Creating layer inception_4d/relu_3x3
I0403 15:44:13.835979 14283 net.cpp:91] Creating Layer inception_4d/relu_3x3
I0403 15:44:13.835995 14283 net.cpp:425] inception_4d/relu_3x3 <- inception_4d/3x3
I0403 15:44:13.836010 14283 net.cpp:386] inception_4d/relu_3x3 -> inception_4d/3x3 (in-place)
I0403 15:44:13.836195 14283 net.cpp:141] Setting up inception_4d/relu_3x3
I0403 15:44:13.836220 14283 net.cpp:148] Top shape: 24 288 14 14 (1354752)
I0403 15:44:13.836235 14283 net.cpp:156] Memory required for data: 1131654432
I0403 15:44:13.836248 14283 layer_factory.hpp:77] Creating layer inception_4d/5x5_reduce
I0403 15:44:13.836271 14283 net.cpp:91] Creating Layer inception_4d/5x5_reduce
I0403 15:44:13.836287 14283 net.cpp:425] inception_4d/5x5_reduce <- inception_4c/output_inception_4c/output_0_split_2
I0403 15:44:13.836309 14283 net.cpp:399] inception_4d/5x5_reduce -> inception_4d/5x5_reduce
I0403 15:44:13.837457 14283 net.cpp:141] Setting up inception_4d/5x5_reduce
I0403 15:44:13.837488 14283 net.cpp:148] Top shape: 24 32 14 14 (150528)
I0403 15:44:13.837504 14283 net.cpp:156] Memory required for data: 1132256544
I0403 15:44:13.837520 14283 layer_factory.hpp:77] Creating layer inception_4d/relu_5x5_reduce
I0403 15:44:13.837538 14283 net.cpp:91] Creating Layer inception_4d/relu_5x5_reduce
I0403 15:44:13.837553 14283 net.cpp:425] inception_4d/relu_5x5_reduce <- inception_4d/5x5_reduce
I0403 15:44:13.837573 14283 net.cpp:386] inception_4d/relu_5x5_reduce -> inception_4d/5x5_reduce (in-place)
I0403 15:44:13.837756 14283 net.cpp:141] Setting up inception_4d/relu_5x5_reduce
I0403 15:44:13.837782 14283 net.cpp:148] Top shape: 24 32 14 14 (150528)
I0403 15:44:13.837795 14283 net.cpp:156] Memory required for data: 1132858656
I0403 15:44:13.837808 14283 layer_factory.hpp:77] Creating layer inception_4d/5x5
I0403 15:44:13.837829 14283 net.cpp:91] Creating Layer inception_4d/5x5
I0403 15:44:13.837848 14283 net.cpp:425] inception_4d/5x5 <- inception_4d/5x5_reduce
I0403 15:44:13.837868 14283 net.cpp:399] inception_4d/5x5 -> inception_4d/5x5
I0403 15:44:13.839305 14283 net.cpp:141] Setting up inception_4d/5x5
I0403 15:44:13.839334 14283 net.cpp:148] Top shape: 24 64 14 14 (301056)
I0403 15:44:13.839349 14283 net.cpp:156] Memory required for data: 1134062880
I0403 15:44:13.839365 14283 layer_factory.hpp:77] Creating layer inception_4d/relu_5x5
I0403 15:44:13.839401 14283 net.cpp:91] Creating Layer inception_4d/relu_5x5
I0403 15:44:13.839418 14283 net.cpp:425] inception_4d/relu_5x5 <- inception_4d/5x5
I0403 15:44:13.839435 14283 net.cpp:386] inception_4d/relu_5x5 -> inception_4d/5x5 (in-place)
I0403 15:44:13.839731 14283 net.cpp:141] Setting up inception_4d/relu_5x5
I0403 15:44:13.839757 14283 net.cpp:148] Top shape: 24 64 14 14 (301056)
I0403 15:44:13.839772 14283 net.cpp:156] Memory required for data: 1135267104
I0403 15:44:13.839787 14283 layer_factory.hpp:77] Creating layer inception_4d/pool
I0403 15:44:13.839803 14283 net.cpp:91] Creating Layer inception_4d/pool
I0403 15:44:13.839819 14283 net.cpp:425] inception_4d/pool <- inception_4c/output_inception_4c/output_0_split_3
I0403 15:44:13.839839 14283 net.cpp:399] inception_4d/pool -> inception_4d/pool
I0403 15:44:13.839905 14283 net.cpp:141] Setting up inception_4d/pool
I0403 15:44:13.839931 14283 net.cpp:148] Top shape: 24 512 14 14 (2408448)
I0403 15:44:13.839944 14283 net.cpp:156] Memory required for data: 1144900896
I0403 15:44:13.839958 14283 layer_factory.hpp:77] Creating layer inception_4d/pool_proj
I0403 15:44:13.839980 14283 net.cpp:91] Creating Layer inception_4d/pool_proj
I0403 15:44:13.839998 14283 net.cpp:425] inception_4d/pool_proj <- inception_4d/pool
I0403 15:44:13.840016 14283 net.cpp:399] inception_4d/pool_proj -> inception_4d/pool_proj
I0403 15:44:13.841796 14283 net.cpp:141] Setting up inception_4d/pool_proj
I0403 15:44:13.841827 14283 net.cpp:148] Top shape: 24 64 14 14 (301056)
I0403 15:44:13.841845 14283 net.cpp:156] Memory required for data: 1146105120
I0403 15:44:13.841863 14283 layer_factory.hpp:77] Creating layer inception_4d/relu_pool_proj
I0403 15:44:13.841881 14283 net.cpp:91] Creating Layer inception_4d/relu_pool_proj
I0403 15:44:13.841897 14283 net.cpp:425] inception_4d/relu_pool_proj <- inception_4d/pool_proj
I0403 15:44:13.841914 14283 net.cpp:386] inception_4d/relu_pool_proj -> inception_4d/pool_proj (in-place)
I0403 15:44:13.842097 14283 net.cpp:141] Setting up inception_4d/relu_pool_proj
I0403 15:44:13.842123 14283 net.cpp:148] Top shape: 24 64 14 14 (301056)
I0403 15:44:13.842138 14283 net.cpp:156] Memory required for data: 1147309344
I0403 15:44:13.842150 14283 layer_factory.hpp:77] Creating layer inception_4d/output
I0403 15:44:13.842167 14283 net.cpp:91] Creating Layer inception_4d/output
I0403 15:44:13.842182 14283 net.cpp:425] inception_4d/output <- inception_4d/1x1
I0403 15:44:13.842200 14283 net.cpp:425] inception_4d/output <- inception_4d/3x3
I0403 15:44:13.842216 14283 net.cpp:425] inception_4d/output <- inception_4d/5x5
I0403 15:44:13.842231 14283 net.cpp:425] inception_4d/output <- inception_4d/pool_proj
I0403 15:44:13.842250 14283 net.cpp:399] inception_4d/output -> inception_4d/output
I0403 15:44:13.842296 14283 net.cpp:141] Setting up inception_4d/output
I0403 15:44:13.842322 14283 net.cpp:148] Top shape: 24 528 14 14 (2483712)
I0403 15:44:13.842337 14283 net.cpp:156] Memory required for data: 1157244192
I0403 15:44:13.842351 14283 layer_factory.hpp:77] Creating layer inception_4d/output_inception_4d/output_0_split
I0403 15:44:13.842368 14283 net.cpp:91] Creating Layer inception_4d/output_inception_4d/output_0_split
I0403 15:44:13.842383 14283 net.cpp:425] inception_4d/output_inception_4d/output_0_split <- inception_4d/output
I0403 15:44:13.842403 14283 net.cpp:399] inception_4d/output_inception_4d/output_0_split -> inception_4d/output_inception_4d/output_0_split_0
I0403 15:44:13.842425 14283 net.cpp:399] inception_4d/output_inception_4d/output_0_split -> inception_4d/output_inception_4d/output_0_split_1
I0403 15:44:13.842445 14283 net.cpp:399] inception_4d/output_inception_4d/output_0_split -> inception_4d/output_inception_4d/output_0_split_2
I0403 15:44:13.842465 14283 net.cpp:399] inception_4d/output_inception_4d/output_0_split -> inception_4d/output_inception_4d/output_0_split_3
I0403 15:44:13.842484 14283 net.cpp:399] inception_4d/output_inception_4d/output_0_split -> inception_4d/output_inception_4d/output_0_split_4
I0403 15:44:13.842581 14283 net.cpp:141] Setting up inception_4d/output_inception_4d/output_0_split
I0403 15:44:13.842617 14283 net.cpp:148] Top shape: 24 528 14 14 (2483712)
I0403 15:44:13.842633 14283 net.cpp:148] Top shape: 24 528 14 14 (2483712)
I0403 15:44:13.842648 14283 net.cpp:148] Top shape: 24 528 14 14 (2483712)
I0403 15:44:13.842663 14283 net.cpp:148] Top shape: 24 528 14 14 (2483712)
I0403 15:44:13.842677 14283 net.cpp:148] Top shape: 24 528 14 14 (2483712)
I0403 15:44:13.842690 14283 net.cpp:156] Memory required for data: 1206918432
I0403 15:44:13.842705 14283 layer_factory.hpp:77] Creating layer loss2/ave_pool
I0403 15:44:13.842725 14283 net.cpp:91] Creating Layer loss2/ave_pool
I0403 15:44:13.842741 14283 net.cpp:425] loss2/ave_pool <- inception_4d/output_inception_4d/output_0_split_0
I0403 15:44:13.842758 14283 net.cpp:399] loss2/ave_pool -> loss2/ave_pool
I0403 15:44:13.843066 14283 net.cpp:141] Setting up loss2/ave_pool
I0403 15:44:13.843103 14283 net.cpp:148] Top shape: 24 528 4 4 (202752)
I0403 15:44:13.843122 14283 net.cpp:156] Memory required for data: 1207729440
I0403 15:44:13.843137 14283 layer_factory.hpp:77] Creating layer loss2/conv
I0403 15:44:13.843159 14283 net.cpp:91] Creating Layer loss2/conv
I0403 15:44:13.843178 14283 net.cpp:425] loss2/conv <- loss2/ave_pool
I0403 15:44:13.843199 14283 net.cpp:399] loss2/conv -> loss2/conv
I0403 15:44:13.845060 14283 net.cpp:141] Setting up loss2/conv
I0403 15:44:13.845088 14283 net.cpp:148] Top shape: 24 128 4 4 (49152)
I0403 15:44:13.845108 14283 net.cpp:156] Memory required for data: 1207926048
I0403 15:44:13.845125 14283 layer_factory.hpp:77] Creating layer loss2/relu_conv
I0403 15:44:13.845144 14283 net.cpp:91] Creating Layer loss2/relu_conv
I0403 15:44:13.845161 14283 net.cpp:425] loss2/relu_conv <- loss2/conv
I0403 15:44:13.845178 14283 net.cpp:386] loss2/relu_conv -> loss2/conv (in-place)
I0403 15:44:13.845453 14283 net.cpp:141] Setting up loss2/relu_conv
I0403 15:44:13.845479 14283 net.cpp:148] Top shape: 24 128 4 4 (49152)
I0403 15:44:13.845494 14283 net.cpp:156] Memory required for data: 1208122656
I0403 15:44:13.845510 14283 layer_factory.hpp:77] Creating layer loss2/fc
I0403 15:44:13.845530 14283 net.cpp:91] Creating Layer loss2/fc
I0403 15:44:13.845549 14283 net.cpp:425] loss2/fc <- loss2/conv
I0403 15:44:13.845566 14283 net.cpp:399] loss2/fc -> loss2/fc
I0403 15:44:13.863016 14283 net.cpp:141] Setting up loss2/fc
I0403 15:44:13.863051 14283 net.cpp:148] Top shape: 24 1024 (24576)
I0403 15:44:13.863066 14283 net.cpp:156] Memory required for data: 1208220960
I0403 15:44:13.863083 14283 layer_factory.hpp:77] Creating layer loss2/relu_fc
I0403 15:44:13.863112 14283 net.cpp:91] Creating Layer loss2/relu_fc
I0403 15:44:13.863131 14283 net.cpp:425] loss2/relu_fc <- loss2/fc
I0403 15:44:13.863152 14283 net.cpp:386] loss2/relu_fc -> loss2/fc (in-place)
I0403 15:44:13.863445 14283 net.cpp:141] Setting up loss2/relu_fc
I0403 15:44:13.863472 14283 net.cpp:148] Top shape: 24 1024 (24576)
I0403 15:44:13.863488 14283 net.cpp:156] Memory required for data: 1208319264
I0403 15:44:13.863502 14283 layer_factory.hpp:77] Creating layer loss2/drop_fc
I0403 15:44:13.863519 14283 net.cpp:91] Creating Layer loss2/drop_fc
I0403 15:44:13.863534 14283 net.cpp:425] loss2/drop_fc <- loss2/fc
I0403 15:44:13.863554 14283 net.cpp:386] loss2/drop_fc -> loss2/fc (in-place)
I0403 15:44:13.863601 14283 net.cpp:141] Setting up loss2/drop_fc
I0403 15:44:13.863625 14283 net.cpp:148] Top shape: 24 1024 (24576)
I0403 15:44:13.863638 14283 net.cpp:156] Memory required for data: 1208417568
I0403 15:44:13.863651 14283 layer_factory.hpp:77] Creating layer loss2/classifier_plantvillage
I0403 15:44:13.863670 14283 net.cpp:91] Creating Layer loss2/classifier_plantvillage
I0403 15:44:13.863687 14283 net.cpp:425] loss2/classifier_plantvillage <- loss2/fc
I0403 15:44:13.863706 14283 net.cpp:399] loss2/classifier_plantvillage -> loss2/classifier_plantvillage
I0403 15:44:13.864104 14283 net.cpp:141] Setting up loss2/classifier_plantvillage
I0403 15:44:13.864130 14283 net.cpp:148] Top shape: 24 38 (912)
I0403 15:44:13.864145 14283 net.cpp:156] Memory required for data: 1208421216
I0403 15:44:13.864179 14283 layer_factory.hpp:77] Creating layer loss2/classifier_plantvillage_loss2/classifier_plantvillage_0_split
I0403 15:44:13.864199 14283 net.cpp:91] Creating Layer loss2/classifier_plantvillage_loss2/classifier_plantvillage_0_split
I0403 15:44:13.864217 14283 net.cpp:425] loss2/classifier_plantvillage_loss2/classifier_plantvillage_0_split <- loss2/classifier_plantvillage
I0403 15:44:13.864233 14283 net.cpp:399] loss2/classifier_plantvillage_loss2/classifier_plantvillage_0_split -> loss2/classifier_plantvillage_loss2/classifier_plantvillage_0_split_0
I0403 15:44:13.864253 14283 net.cpp:399] loss2/classifier_plantvillage_loss2/classifier_plantvillage_0_split -> loss2/classifier_plantvillage_loss2/classifier_plantvillage_0_split_1
I0403 15:44:13.864271 14283 net.cpp:399] loss2/classifier_plantvillage_loss2/classifier_plantvillage_0_split -> loss2/classifier_plantvillage_loss2/classifier_plantvillage_0_split_2
I0403 15:44:13.864348 14283 net.cpp:141] Setting up loss2/classifier_plantvillage_loss2/classifier_plantvillage_0_split
I0403 15:44:13.864372 14283 net.cpp:148] Top shape: 24 38 (912)
I0403 15:44:13.864398 14283 net.cpp:148] Top shape: 24 38 (912)
I0403 15:44:13.864413 14283 net.cpp:148] Top shape: 24 38 (912)
I0403 15:44:13.864426 14283 net.cpp:156] Memory required for data: 1208432160
I0403 15:44:13.864440 14283 layer_factory.hpp:77] Creating layer inception_4e/1x1
I0403 15:44:13.864459 14283 net.cpp:91] Creating Layer inception_4e/1x1
I0403 15:44:13.864476 14283 net.cpp:425] inception_4e/1x1 <- inception_4d/output_inception_4d/output_0_split_1
I0403 15:44:13.864497 14283 net.cpp:399] inception_4e/1x1 -> inception_4e/1x1
I0403 15:44:13.867914 14283 net.cpp:141] Setting up inception_4e/1x1
I0403 15:44:13.867947 14283 net.cpp:148] Top shape: 24 256 14 14 (1204224)
I0403 15:44:13.867962 14283 net.cpp:156] Memory required for data: 1213249056
I0403 15:44:13.867980 14283 layer_factory.hpp:77] Creating layer inception_4e/relu_1x1
I0403 15:44:13.868000 14283 net.cpp:91] Creating Layer inception_4e/relu_1x1
I0403 15:44:13.868017 14283 net.cpp:425] inception_4e/relu_1x1 <- inception_4e/1x1
I0403 15:44:13.868036 14283 net.cpp:386] inception_4e/relu_1x1 -> inception_4e/1x1 (in-place)
I0403 15:44:13.868327 14283 net.cpp:141] Setting up inception_4e/relu_1x1
I0403 15:44:13.868353 14283 net.cpp:148] Top shape: 24 256 14 14 (1204224)
I0403 15:44:13.868368 14283 net.cpp:156] Memory required for data: 1218065952
I0403 15:44:13.868393 14283 layer_factory.hpp:77] Creating layer inception_4e/3x3_reduce
I0403 15:44:13.868417 14283 net.cpp:91] Creating Layer inception_4e/3x3_reduce
I0403 15:44:13.868434 14283 net.cpp:425] inception_4e/3x3_reduce <- inception_4d/output_inception_4d/output_0_split_2
I0403 15:44:13.868456 14283 net.cpp:399] inception_4e/3x3_reduce -> inception_4e/3x3_reduce
I0403 15:44:13.870576 14283 net.cpp:141] Setting up inception_4e/3x3_reduce
I0403 15:44:13.870607 14283 net.cpp:148] Top shape: 24 160 14 14 (752640)
I0403 15:44:13.870622 14283 net.cpp:156] Memory required for data: 1221076512
I0403 15:44:13.870640 14283 layer_factory.hpp:77] Creating layer inception_4e/relu_3x3_reduce
I0403 15:44:13.870661 14283 net.cpp:91] Creating Layer inception_4e/relu_3x3_reduce
I0403 15:44:13.870677 14283 net.cpp:425] inception_4e/relu_3x3_reduce <- inception_4e/3x3_reduce
I0403 15:44:13.870694 14283 net.cpp:386] inception_4e/relu_3x3_reduce -> inception_4e/3x3_reduce (in-place)
I0403 15:44:13.870874 14283 net.cpp:141] Setting up inception_4e/relu_3x3_reduce
I0403 15:44:13.870898 14283 net.cpp:148] Top shape: 24 160 14 14 (752640)
I0403 15:44:13.870913 14283 net.cpp:156] Memory required for data: 1224087072
I0403 15:44:13.870926 14283 layer_factory.hpp:77] Creating layer inception_4e/3x3
I0403 15:44:13.870949 14283 net.cpp:91] Creating Layer inception_4e/3x3
I0403 15:44:13.870966 14283 net.cpp:425] inception_4e/3x3 <- inception_4e/3x3_reduce
I0403 15:44:13.870985 14283 net.cpp:399] inception_4e/3x3 -> inception_4e/3x3
I0403 15:44:13.875972 14283 net.cpp:141] Setting up inception_4e/3x3
I0403 15:44:13.876049 14283 net.cpp:148] Top shape: 24 320 14 14 (1505280)
I0403 15:44:13.876065 14283 net.cpp:156] Memory required for data: 1230108192
I0403 15:44:13.876083 14283 layer_factory.hpp:77] Creating layer inception_4e/relu_3x3
I0403 15:44:13.876109 14283 net.cpp:91] Creating Layer inception_4e/relu_3x3
I0403 15:44:13.876130 14283 net.cpp:425] inception_4e/relu_3x3 <- inception_4e/3x3
I0403 15:44:13.876147 14283 net.cpp:386] inception_4e/relu_3x3 -> inception_4e/3x3 (in-place)
I0403 15:44:13.876454 14283 net.cpp:141] Setting up inception_4e/relu_3x3
I0403 15:44:13.876483 14283 net.cpp:148] Top shape: 24 320 14 14 (1505280)
I0403 15:44:13.876500 14283 net.cpp:156] Memory required for data: 1236129312
I0403 15:44:13.876515 14283 layer_factory.hpp:77] Creating layer inception_4e/5x5_reduce
I0403 15:44:13.876540 14283 net.cpp:91] Creating Layer inception_4e/5x5_reduce
I0403 15:44:13.876559 14283 net.cpp:425] inception_4e/5x5_reduce <- inception_4d/output_inception_4d/output_0_split_3
I0403 15:44:13.876579 14283 net.cpp:399] inception_4e/5x5_reduce -> inception_4e/5x5_reduce
I0403 15:44:13.877658 14283 net.cpp:141] Setting up inception_4e/5x5_reduce
I0403 15:44:13.877686 14283 net.cpp:148] Top shape: 24 32 14 14 (150528)
I0403 15:44:13.877701 14283 net.cpp:156] Memory required for data: 1236731424
I0403 15:44:13.877719 14283 layer_factory.hpp:77] Creating layer inception_4e/relu_5x5_reduce
I0403 15:44:13.877738 14283 net.cpp:91] Creating Layer inception_4e/relu_5x5_reduce
I0403 15:44:13.877755 14283 net.cpp:425] inception_4e/relu_5x5_reduce <- inception_4e/5x5_reduce
I0403 15:44:13.877771 14283 net.cpp:386] inception_4e/relu_5x5_reduce -> inception_4e/5x5_reduce (in-place)
I0403 15:44:13.878063 14283 net.cpp:141] Setting up inception_4e/relu_5x5_reduce
I0403 15:44:13.878090 14283 net.cpp:148] Top shape: 24 32 14 14 (150528)
I0403 15:44:13.878110 14283 net.cpp:156] Memory required for data: 1237333536
I0403 15:44:13.878125 14283 layer_factory.hpp:77] Creating layer inception_4e/5x5
I0403 15:44:13.878166 14283 net.cpp:91] Creating Layer inception_4e/5x5
I0403 15:44:13.878186 14283 net.cpp:425] inception_4e/5x5 <- inception_4e/5x5_reduce
I0403 15:44:13.878206 14283 net.cpp:399] inception_4e/5x5 -> inception_4e/5x5
I0403 15:44:13.880024 14283 net.cpp:141] Setting up inception_4e/5x5
I0403 15:44:13.880053 14283 net.cpp:148] Top shape: 24 128 14 14 (602112)
I0403 15:44:13.880067 14283 net.cpp:156] Memory required for data: 1239741984
I0403 15:44:13.880084 14283 layer_factory.hpp:77] Creating layer inception_4e/relu_5x5
I0403 15:44:13.880107 14283 net.cpp:91] Creating Layer inception_4e/relu_5x5
I0403 15:44:13.880123 14283 net.cpp:425] inception_4e/relu_5x5 <- inception_4e/5x5
I0403 15:44:13.880143 14283 net.cpp:386] inception_4e/relu_5x5 -> inception_4e/5x5 (in-place)
I0403 15:44:13.880336 14283 net.cpp:141] Setting up inception_4e/relu_5x5
I0403 15:44:13.880362 14283 net.cpp:148] Top shape: 24 128 14 14 (602112)
I0403 15:44:13.880375 14283 net.cpp:156] Memory required for data: 1242150432
I0403 15:44:13.880401 14283 layer_factory.hpp:77] Creating layer inception_4e/pool
I0403 15:44:13.880424 14283 net.cpp:91] Creating Layer inception_4e/pool
I0403 15:44:13.880440 14283 net.cpp:425] inception_4e/pool <- inception_4d/output_inception_4d/output_0_split_4
I0403 15:44:13.880460 14283 net.cpp:399] inception_4e/pool -> inception_4e/pool
I0403 15:44:13.880532 14283 net.cpp:141] Setting up inception_4e/pool
I0403 15:44:13.880556 14283 net.cpp:148] Top shape: 24 528 14 14 (2483712)
I0403 15:44:13.880570 14283 net.cpp:156] Memory required for data: 1252085280
I0403 15:44:13.880584 14283 layer_factory.hpp:77] Creating layer inception_4e/pool_proj
I0403 15:44:13.880606 14283 net.cpp:91] Creating Layer inception_4e/pool_proj
I0403 15:44:13.880625 14283 net.cpp:425] inception_4e/pool_proj <- inception_4e/pool
I0403 15:44:13.880646 14283 net.cpp:399] inception_4e/pool_proj -> inception_4e/pool_proj
I0403 15:44:13.882175 14283 net.cpp:141] Setting up inception_4e/pool_proj
I0403 15:44:13.882206 14283 net.cpp:148] Top shape: 24 128 14 14 (602112)
I0403 15:44:13.882246 14283 net.cpp:156] Memory required for data: 1254493728
I0403 15:44:13.882264 14283 layer_factory.hpp:77] Creating layer inception_4e/relu_pool_proj
I0403 15:44:13.882283 14283 net.cpp:91] Creating Layer inception_4e/relu_pool_proj
I0403 15:44:13.882299 14283 net.cpp:425] inception_4e/relu_pool_proj <- inception_4e/pool_proj
I0403 15:44:13.882318 14283 net.cpp:386] inception_4e/relu_pool_proj -> inception_4e/pool_proj (in-place)
I0403 15:44:13.882601 14283 net.cpp:141] Setting up inception_4e/relu_pool_proj
I0403 15:44:13.882633 14283 net.cpp:148] Top shape: 24 128 14 14 (602112)
I0403 15:44:13.882647 14283 net.cpp:156] Memory required for data: 1256902176
I0403 15:44:13.882663 14283 layer_factory.hpp:77] Creating layer inception_4e/output
I0403 15:44:13.882680 14283 net.cpp:91] Creating Layer inception_4e/output
I0403 15:44:13.882695 14283 net.cpp:425] inception_4e/output <- inception_4e/1x1
I0403 15:44:13.882711 14283 net.cpp:425] inception_4e/output <- inception_4e/3x3
I0403 15:44:13.882726 14283 net.cpp:425] inception_4e/output <- inception_4e/5x5
I0403 15:44:13.882741 14283 net.cpp:425] inception_4e/output <- inception_4e/pool_proj
I0403 15:44:13.882758 14283 net.cpp:399] inception_4e/output -> inception_4e/output
I0403 15:44:13.882807 14283 net.cpp:141] Setting up inception_4e/output
I0403 15:44:13.882832 14283 net.cpp:148] Top shape: 24 832 14 14 (3913728)
I0403 15:44:13.882845 14283 net.cpp:156] Memory required for data: 1272557088
I0403 15:44:13.882859 14283 layer_factory.hpp:77] Creating layer pool4/3x3_s2
I0403 15:44:13.882877 14283 net.cpp:91] Creating Layer pool4/3x3_s2
I0403 15:44:13.882894 14283 net.cpp:425] pool4/3x3_s2 <- inception_4e/output
I0403 15:44:13.882911 14283 net.cpp:399] pool4/3x3_s2 -> pool4/3x3_s2
I0403 15:44:13.882978 14283 net.cpp:141] Setting up pool4/3x3_s2
I0403 15:44:13.883002 14283 net.cpp:148] Top shape: 24 832 7 7 (978432)
I0403 15:44:13.883016 14283 net.cpp:156] Memory required for data: 1276470816
I0403 15:44:13.883030 14283 layer_factory.hpp:77] Creating layer pool4/3x3_s2_pool4/3x3_s2_0_split
I0403 15:44:13.883047 14283 net.cpp:91] Creating Layer pool4/3x3_s2_pool4/3x3_s2_0_split
I0403 15:44:13.883062 14283 net.cpp:425] pool4/3x3_s2_pool4/3x3_s2_0_split <- pool4/3x3_s2
I0403 15:44:13.883082 14283 net.cpp:399] pool4/3x3_s2_pool4/3x3_s2_0_split -> pool4/3x3_s2_pool4/3x3_s2_0_split_0
I0403 15:44:13.883116 14283 net.cpp:399] pool4/3x3_s2_pool4/3x3_s2_0_split -> pool4/3x3_s2_pool4/3x3_s2_0_split_1
I0403 15:44:13.883139 14283 net.cpp:399] pool4/3x3_s2_pool4/3x3_s2_0_split -> pool4/3x3_s2_pool4/3x3_s2_0_split_2
I0403 15:44:13.883158 14283 net.cpp:399] pool4/3x3_s2_pool4/3x3_s2_0_split -> pool4/3x3_s2_pool4/3x3_s2_0_split_3
I0403 15:44:13.883249 14283 net.cpp:141] Setting up pool4/3x3_s2_pool4/3x3_s2_0_split
I0403 15:44:13.883275 14283 net.cpp:148] Top shape: 24 832 7 7 (978432)
I0403 15:44:13.883291 14283 net.cpp:148] Top shape: 24 832 7 7 (978432)
I0403 15:44:13.883306 14283 net.cpp:148] Top shape: 24 832 7 7 (978432)
I0403 15:44:13.883319 14283 net.cpp:148] Top shape: 24 832 7 7 (978432)
I0403 15:44:13.883332 14283 net.cpp:156] Memory required for data: 1292125728
I0403 15:44:13.883347 14283 layer_factory.hpp:77] Creating layer inception_5a/1x1
I0403 15:44:13.883368 14283 net.cpp:91] Creating Layer inception_5a/1x1
I0403 15:44:13.883386 14283 net.cpp:425] inception_5a/1x1 <- pool4/3x3_s2_pool4/3x3_s2_0_split_0
I0403 15:44:13.883404 14283 net.cpp:399] inception_5a/1x1 -> inception_5a/1x1
I0403 15:44:13.886268 14283 net.cpp:141] Setting up inception_5a/1x1
I0403 15:44:13.886298 14283 net.cpp:148] Top shape: 24 256 7 7 (301056)
I0403 15:44:13.886313 14283 net.cpp:156] Memory required for data: 1293329952
I0403 15:44:13.886332 14283 layer_factory.hpp:77] Creating layer inception_5a/relu_1x1
I0403 15:44:13.886348 14283 net.cpp:91] Creating Layer inception_5a/relu_1x1
I0403 15:44:13.886369 14283 net.cpp:425] inception_5a/relu_1x1 <- inception_5a/1x1
I0403 15:44:13.886386 14283 net.cpp:386] inception_5a/relu_1x1 -> inception_5a/1x1 (in-place)
I0403 15:44:13.886693 14283 net.cpp:141] Setting up inception_5a/relu_1x1
I0403 15:44:13.886718 14283 net.cpp:148] Top shape: 24 256 7 7 (301056)
I0403 15:44:13.886732 14283 net.cpp:156] Memory required for data: 1294534176
I0403 15:44:13.886746 14283 layer_factory.hpp:77] Creating layer inception_5a/3x3_reduce
I0403 15:44:13.886767 14283 net.cpp:91] Creating Layer inception_5a/3x3_reduce
I0403 15:44:13.886785 14283 net.cpp:425] inception_5a/3x3_reduce <- pool4/3x3_s2_pool4/3x3_s2_0_split_1
I0403 15:44:13.886806 14283 net.cpp:399] inception_5a/3x3_reduce -> inception_5a/3x3_reduce
I0403 15:44:13.889259 14283 net.cpp:141] Setting up inception_5a/3x3_reduce
I0403 15:44:13.889291 14283 net.cpp:148] Top shape: 24 160 7 7 (188160)
I0403 15:44:13.889307 14283 net.cpp:156] Memory required for data: 1295286816
I0403 15:44:13.889324 14283 layer_factory.hpp:77] Creating layer inception_5a/relu_3x3_reduce
I0403 15:44:13.889341 14283 net.cpp:91] Creating Layer inception_5a/relu_3x3_reduce
I0403 15:44:13.889358 14283 net.cpp:425] inception_5a/relu_3x3_reduce <- inception_5a/3x3_reduce
I0403 15:44:13.889374 14283 net.cpp:386] inception_5a/relu_3x3_reduce -> inception_5a/3x3_reduce (in-place)
I0403 15:44:13.889557 14283 net.cpp:141] Setting up inception_5a/relu_3x3_reduce
I0403 15:44:13.889581 14283 net.cpp:148] Top shape: 24 160 7 7 (188160)
I0403 15:44:13.889596 14283 net.cpp:156] Memory required for data: 1296039456
I0403 15:44:13.889617 14283 layer_factory.hpp:77] Creating layer inception_5a/3x3
I0403 15:44:13.889639 14283 net.cpp:91] Creating Layer inception_5a/3x3
I0403 15:44:13.889657 14283 net.cpp:425] inception_5a/3x3 <- inception_5a/3x3_reduce
I0403 15:44:13.889678 14283 net.cpp:399] inception_5a/3x3 -> inception_5a/3x3
I0403 15:44:13.894678 14283 net.cpp:141] Setting up inception_5a/3x3
I0403 15:44:13.894723 14283 net.cpp:148] Top shape: 24 320 7 7 (376320)
I0403 15:44:13.894739 14283 net.cpp:156] Memory required for data: 1297544736
I0403 15:44:13.894757 14283 layer_factory.hpp:77] Creating layer inception_5a/relu_3x3
I0403 15:44:13.894776 14283 net.cpp:91] Creating Layer inception_5a/relu_3x3
I0403 15:44:13.894793 14283 net.cpp:425] inception_5a/relu_3x3 <- inception_5a/3x3
I0403 15:44:13.894812 14283 net.cpp:386] inception_5a/relu_3x3 -> inception_5a/3x3 (in-place)
I0403 15:44:13.895107 14283 net.cpp:141] Setting up inception_5a/relu_3x3
I0403 15:44:13.895133 14283 net.cpp:148] Top shape: 24 320 7 7 (376320)
I0403 15:44:13.895148 14283 net.cpp:156] Memory required for data: 1299050016
I0403 15:44:13.895161 14283 layer_factory.hpp:77] Creating layer inception_5a/5x5_reduce
I0403 15:44:13.895184 14283 net.cpp:91] Creating Layer inception_5a/5x5_reduce
I0403 15:44:13.895205 14283 net.cpp:425] inception_5a/5x5_reduce <- pool4/3x3_s2_pool4/3x3_s2_0_split_2
I0403 15:44:13.895227 14283 net.cpp:399] inception_5a/5x5_reduce -> inception_5a/5x5_reduce
I0403 15:44:13.896379 14283 net.cpp:141] Setting up inception_5a/5x5_reduce
I0403 15:44:13.896420 14283 net.cpp:148] Top shape: 24 32 7 7 (37632)
I0403 15:44:13.896437 14283 net.cpp:156] Memory required for data: 1299200544
I0403 15:44:13.896456 14283 layer_factory.hpp:77] Creating layer inception_5a/relu_5x5_reduce
I0403 15:44:13.896477 14283 net.cpp:91] Creating Layer inception_5a/relu_5x5_reduce
I0403 15:44:13.896494 14283 net.cpp:425] inception_5a/relu_5x5_reduce <- inception_5a/5x5_reduce
I0403 15:44:13.896512 14283 net.cpp:386] inception_5a/relu_5x5_reduce -> inception_5a/5x5_reduce (in-place)
I0403 15:44:13.896821 14283 net.cpp:141] Setting up inception_5a/relu_5x5_reduce
I0403 15:44:13.896847 14283 net.cpp:148] Top shape: 24 32 7 7 (37632)
I0403 15:44:13.896862 14283 net.cpp:156] Memory required for data: 1299351072
I0403 15:44:13.896877 14283 layer_factory.hpp:77] Creating layer inception_5a/5x5
I0403 15:44:13.896898 14283 net.cpp:91] Creating Layer inception_5a/5x5
I0403 15:44:13.896916 14283 net.cpp:425] inception_5a/5x5 <- inception_5a/5x5_reduce
I0403 15:44:13.896939 14283 net.cpp:399] inception_5a/5x5 -> inception_5a/5x5
I0403 15:44:13.898638 14283 net.cpp:141] Setting up inception_5a/5x5
I0403 15:44:13.898690 14283 net.cpp:148] Top shape: 24 128 7 7 (150528)
I0403 15:44:13.898707 14283 net.cpp:156] Memory required for data: 1299953184
I0403 15:44:13.898725 14283 layer_factory.hpp:77] Creating layer inception_5a/relu_5x5
I0403 15:44:13.898741 14283 net.cpp:91] Creating Layer inception_5a/relu_5x5
I0403 15:44:13.898757 14283 net.cpp:425] inception_5a/relu_5x5 <- inception_5a/5x5
I0403 15:44:13.898777 14283 net.cpp:386] inception_5a/relu_5x5 -> inception_5a/5x5 (in-place)
I0403 15:44:13.898962 14283 net.cpp:141] Setting up inception_5a/relu_5x5
I0403 15:44:13.898986 14283 net.cpp:148] Top shape: 24 128 7 7 (150528)
I0403 15:44:13.899000 14283 net.cpp:156] Memory required for data: 1300555296
I0403 15:44:13.899014 14283 layer_factory.hpp:77] Creating layer inception_5a/pool
I0403 15:44:13.899034 14283 net.cpp:91] Creating Layer inception_5a/pool
I0403 15:44:13.899050 14283 net.cpp:425] inception_5a/pool <- pool4/3x3_s2_pool4/3x3_s2_0_split_3
I0403 15:44:13.899067 14283 net.cpp:399] inception_5a/pool -> inception_5a/pool
I0403 15:44:13.899142 14283 net.cpp:141] Setting up inception_5a/pool
I0403 15:44:13.899166 14283 net.cpp:148] Top shape: 24 832 7 7 (978432)
I0403 15:44:13.899180 14283 net.cpp:156] Memory required for data: 1304469024
I0403 15:44:13.899195 14283 layer_factory.hpp:77] Creating layer inception_5a/pool_proj
I0403 15:44:13.899217 14283 net.cpp:91] Creating Layer inception_5a/pool_proj
I0403 15:44:13.899235 14283 net.cpp:425] inception_5a/pool_proj <- inception_5a/pool
I0403 15:44:13.899255 14283 net.cpp:399] inception_5a/pool_proj -> inception_5a/pool_proj
I0403 15:44:13.901546 14283 net.cpp:141] Setting up inception_5a/pool_proj
I0403 15:44:13.901576 14283 net.cpp:148] Top shape: 24 128 7 7 (150528)
I0403 15:44:13.901593 14283 net.cpp:156] Memory required for data: 1305071136
I0403 15:44:13.901612 14283 layer_factory.hpp:77] Creating layer inception_5a/relu_pool_proj
I0403 15:44:13.901629 14283 net.cpp:91] Creating Layer inception_5a/relu_pool_proj
I0403 15:44:13.901644 14283 net.cpp:425] inception_5a/relu_pool_proj <- inception_5a/pool_proj
I0403 15:44:13.901664 14283 net.cpp:386] inception_5a/relu_pool_proj -> inception_5a/pool_proj (in-place)
I0403 15:44:13.901957 14283 net.cpp:141] Setting up inception_5a/relu_pool_proj
I0403 15:44:13.901985 14283 net.cpp:148] Top shape: 24 128 7 7 (150528)
I0403 15:44:13.902001 14283 net.cpp:156] Memory required for data: 1305673248
I0403 15:44:13.902016 14283 layer_factory.hpp:77] Creating layer inception_5a/output
I0403 15:44:13.902034 14283 net.cpp:91] Creating Layer inception_5a/output
I0403 15:44:13.902050 14283 net.cpp:425] inception_5a/output <- inception_5a/1x1
I0403 15:44:13.902065 14283 net.cpp:425] inception_5a/output <- inception_5a/3x3
I0403 15:44:13.902081 14283 net.cpp:425] inception_5a/output <- inception_5a/5x5
I0403 15:44:13.902101 14283 net.cpp:425] inception_5a/output <- inception_5a/pool_proj
I0403 15:44:13.902122 14283 net.cpp:399] inception_5a/output -> inception_5a/output
I0403 15:44:13.902170 14283 net.cpp:141] Setting up inception_5a/output
I0403 15:44:13.902194 14283 net.cpp:148] Top shape: 24 832 7 7 (978432)
I0403 15:44:13.902209 14283 net.cpp:156] Memory required for data: 1309586976
I0403 15:44:13.902222 14283 layer_factory.hpp:77] Creating layer inception_5a/output_inception_5a/output_0_split
I0403 15:44:13.902242 14283 net.cpp:91] Creating Layer inception_5a/output_inception_5a/output_0_split
I0403 15:44:13.902258 14283 net.cpp:425] inception_5a/output_inception_5a/output_0_split <- inception_5a/output
I0403 15:44:13.902276 14283 net.cpp:399] inception_5a/output_inception_5a/output_0_split -> inception_5a/output_inception_5a/output_0_split_0
I0403 15:44:13.902295 14283 net.cpp:399] inception_5a/output_inception_5a/output_0_split -> inception_5a/output_inception_5a/output_0_split_1
I0403 15:44:13.902318 14283 net.cpp:399] inception_5a/output_inception_5a/output_0_split -> inception_5a/output_inception_5a/output_0_split_2
I0403 15:44:13.902338 14283 net.cpp:399] inception_5a/output_inception_5a/output_0_split -> inception_5a/output_inception_5a/output_0_split_3
I0403 15:44:13.902446 14283 net.cpp:141] Setting up inception_5a/output_inception_5a/output_0_split
I0403 15:44:13.902468 14283 net.cpp:148] Top shape: 24 832 7 7 (978432)
I0403 15:44:13.902483 14283 net.cpp:148] Top shape: 24 832 7 7 (978432)
I0403 15:44:13.902498 14283 net.cpp:148] Top shape: 24 832 7 7 (978432)
I0403 15:44:13.902513 14283 net.cpp:148] Top shape: 24 832 7 7 (978432)
I0403 15:44:13.902525 14283 net.cpp:156] Memory required for data: 1325241888
I0403 15:44:13.902539 14283 layer_factory.hpp:77] Creating layer inception_5b/1x1
I0403 15:44:13.902561 14283 net.cpp:91] Creating Layer inception_5b/1x1
I0403 15:44:13.902578 14283 net.cpp:425] inception_5b/1x1 <- inception_5a/output_inception_5a/output_0_split_0
I0403 15:44:13.902598 14283 net.cpp:399] inception_5b/1x1 -> inception_5b/1x1
I0403 15:44:13.906311 14283 net.cpp:141] Setting up inception_5b/1x1
I0403 15:44:13.906342 14283 net.cpp:148] Top shape: 24 384 7 7 (451584)
I0403 15:44:13.906359 14283 net.cpp:156] Memory required for data: 1327048224
I0403 15:44:13.906376 14283 layer_factory.hpp:77] Creating layer inception_5b/relu_1x1
I0403 15:44:13.906394 14283 net.cpp:91] Creating Layer inception_5b/relu_1x1
I0403 15:44:13.906411 14283 net.cpp:425] inception_5b/relu_1x1 <- inception_5b/1x1
I0403 15:44:13.906429 14283 net.cpp:386] inception_5b/relu_1x1 -> inception_5b/1x1 (in-place)
I0403 15:44:13.906728 14283 net.cpp:141] Setting up inception_5b/relu_1x1
I0403 15:44:13.906755 14283 net.cpp:148] Top shape: 24 384 7 7 (451584)
I0403 15:44:13.906771 14283 net.cpp:156] Memory required for data: 1328854560
I0403 15:44:13.906785 14283 layer_factory.hpp:77] Creating layer inception_5b/3x3_reduce
I0403 15:44:13.906806 14283 net.cpp:91] Creating Layer inception_5b/3x3_reduce
I0403 15:44:13.906824 14283 net.cpp:425] inception_5b/3x3_reduce <- inception_5a/output_inception_5a/output_0_split_1
I0403 15:44:13.906844 14283 net.cpp:399] inception_5b/3x3_reduce -> inception_5b/3x3_reduce
I0403 15:44:13.909500 14283 net.cpp:141] Setting up inception_5b/3x3_reduce
I0403 15:44:13.909530 14283 net.cpp:148] Top shape: 24 192 7 7 (225792)
I0403 15:44:13.909548 14283 net.cpp:156] Memory required for data: 1329757728
I0403 15:44:13.909564 14283 layer_factory.hpp:77] Creating layer inception_5b/relu_3x3_reduce
I0403 15:44:13.909582 14283 net.cpp:91] Creating Layer inception_5b/relu_3x3_reduce
I0403 15:44:13.909600 14283 net.cpp:425] inception_5b/relu_3x3_reduce <- inception_5b/3x3_reduce
I0403 15:44:13.909620 14283 net.cpp:386] inception_5b/relu_3x3_reduce -> inception_5b/3x3_reduce (in-place)
I0403 15:44:13.909804 14283 net.cpp:141] Setting up inception_5b/relu_3x3_reduce
I0403 15:44:13.909828 14283 net.cpp:148] Top shape: 24 192 7 7 (225792)
I0403 15:44:13.909842 14283 net.cpp:156] Memory required for data: 1330660896
I0403 15:44:13.909857 14283 layer_factory.hpp:77] Creating layer inception_5b/3x3
I0403 15:44:13.909878 14283 net.cpp:91] Creating Layer inception_5b/3x3
I0403 15:44:13.909894 14283 net.cpp:425] inception_5b/3x3 <- inception_5b/3x3_reduce
I0403 15:44:13.909916 14283 net.cpp:399] inception_5b/3x3 -> inception_5b/3x3
I0403 15:44:13.916586 14283 net.cpp:141] Setting up inception_5b/3x3
I0403 15:44:13.916617 14283 net.cpp:148] Top shape: 24 384 7 7 (451584)
I0403 15:44:13.916633 14283 net.cpp:156] Memory required for data: 1332467232
I0403 15:44:13.916652 14283 layer_factory.hpp:77] Creating layer inception_5b/relu_3x3
I0403 15:44:13.916682 14283 net.cpp:91] Creating Layer inception_5b/relu_3x3
I0403 15:44:13.916697 14283 net.cpp:425] inception_5b/relu_3x3 <- inception_5b/3x3
I0403 15:44:13.916714 14283 net.cpp:386] inception_5b/relu_3x3 -> inception_5b/3x3 (in-place)
I0403 15:44:13.917008 14283 net.cpp:141] Setting up inception_5b/relu_3x3
I0403 15:44:13.917039 14283 net.cpp:148] Top shape: 24 384 7 7 (451584)
I0403 15:44:13.917055 14283 net.cpp:156] Memory required for data: 1334273568
I0403 15:44:13.917070 14283 layer_factory.hpp:77] Creating layer inception_5b/5x5_reduce
I0403 15:44:13.917110 14283 net.cpp:91] Creating Layer inception_5b/5x5_reduce
I0403 15:44:13.917129 14283 net.cpp:425] inception_5b/5x5_reduce <- inception_5a/output_inception_5a/output_0_split_2
I0403 15:44:13.917150 14283 net.cpp:399] inception_5b/5x5_reduce -> inception_5b/5x5_reduce
I0403 15:44:13.918404 14283 net.cpp:141] Setting up inception_5b/5x5_reduce
I0403 15:44:13.918434 14283 net.cpp:148] Top shape: 24 48 7 7 (56448)
I0403 15:44:13.918452 14283 net.cpp:156] Memory required for data: 1334499360
I0403 15:44:13.918469 14283 layer_factory.hpp:77] Creating layer inception_5b/relu_5x5_reduce
I0403 15:44:13.918486 14283 net.cpp:91] Creating Layer inception_5b/relu_5x5_reduce
I0403 15:44:13.918501 14283 net.cpp:425] inception_5b/relu_5x5_reduce <- inception_5b/5x5_reduce
I0403 15:44:13.918520 14283 net.cpp:386] inception_5b/relu_5x5_reduce -> inception_5b/5x5_reduce (in-place)
I0403 15:44:13.918886 14283 net.cpp:141] Setting up inception_5b/relu_5x5_reduce
I0403 15:44:13.918913 14283 net.cpp:148] Top shape: 24 48 7 7 (56448)
I0403 15:44:13.918927 14283 net.cpp:156] Memory required for data: 1334725152
I0403 15:44:13.918941 14283 layer_factory.hpp:77] Creating layer inception_5b/5x5
I0403 15:44:13.918961 14283 net.cpp:91] Creating Layer inception_5b/5x5
I0403 15:44:13.918977 14283 net.cpp:425] inception_5b/5x5 <- inception_5b/5x5_reduce
I0403 15:44:13.918995 14283 net.cpp:399] inception_5b/5x5 -> inception_5b/5x5
I0403 15:44:13.921149 14283 net.cpp:141] Setting up inception_5b/5x5
I0403 15:44:13.921177 14283 net.cpp:148] Top shape: 24 128 7 7 (150528)
I0403 15:44:13.921195 14283 net.cpp:156] Memory required for data: 1335327264
I0403 15:44:13.921211 14283 layer_factory.hpp:77] Creating layer inception_5b/relu_5x5
I0403 15:44:13.921229 14283 net.cpp:91] Creating Layer inception_5b/relu_5x5
I0403 15:44:13.921248 14283 net.cpp:425] inception_5b/relu_5x5 <- inception_5b/5x5
I0403 15:44:13.921265 14283 net.cpp:386] inception_5b/relu_5x5 -> inception_5b/5x5 (in-place)
I0403 15:44:13.921454 14283 net.cpp:141] Setting up inception_5b/relu_5x5
I0403 15:44:13.921478 14283 net.cpp:148] Top shape: 24 128 7 7 (150528)
I0403 15:44:13.921492 14283 net.cpp:156] Memory required for data: 1335929376
I0403 15:44:13.921506 14283 layer_factory.hpp:77] Creating layer inception_5b/pool
I0403 15:44:13.921525 14283 net.cpp:91] Creating Layer inception_5b/pool
I0403 15:44:13.921542 14283 net.cpp:425] inception_5b/pool <- inception_5a/output_inception_5a/output_0_split_3
I0403 15:44:13.921561 14283 net.cpp:399] inception_5b/pool -> inception_5b/pool
I0403 15:44:13.921633 14283 net.cpp:141] Setting up inception_5b/pool
I0403 15:44:13.921658 14283 net.cpp:148] Top shape: 24 832 7 7 (978432)
I0403 15:44:13.921672 14283 net.cpp:156] Memory required for data: 1339843104
I0403 15:44:13.921686 14283 layer_factory.hpp:77] Creating layer inception_5b/pool_proj
I0403 15:44:13.921707 14283 net.cpp:91] Creating Layer inception_5b/pool_proj
I0403 15:44:13.921725 14283 net.cpp:425] inception_5b/pool_proj <- inception_5b/pool
I0403 15:44:13.921744 14283 net.cpp:399] inception_5b/pool_proj -> inception_5b/pool_proj
I0403 15:44:13.924005 14283 net.cpp:141] Setting up inception_5b/pool_proj
I0403 15:44:13.924034 14283 net.cpp:148] Top shape: 24 128 7 7 (150528)
I0403 15:44:13.924052 14283 net.cpp:156] Memory required for data: 1340445216
I0403 15:44:13.924068 14283 layer_factory.hpp:77] Creating layer inception_5b/relu_pool_proj
I0403 15:44:13.924087 14283 net.cpp:91] Creating Layer inception_5b/relu_pool_proj
I0403 15:44:13.924108 14283 net.cpp:425] inception_5b/relu_pool_proj <- inception_5b/pool_proj
I0403 15:44:13.924129 14283 net.cpp:386] inception_5b/relu_pool_proj -> inception_5b/pool_proj (in-place)
I0403 15:44:13.924434 14283 net.cpp:141] Setting up inception_5b/relu_pool_proj
I0403 15:44:13.924461 14283 net.cpp:148] Top shape: 24 128 7 7 (150528)
I0403 15:44:13.924476 14283 net.cpp:156] Memory required for data: 1341047328
I0403 15:44:13.924491 14283 layer_factory.hpp:77] Creating layer inception_5b/output
I0403 15:44:13.924509 14283 net.cpp:91] Creating Layer inception_5b/output
I0403 15:44:13.924540 14283 net.cpp:425] inception_5b/output <- inception_5b/1x1
I0403 15:44:13.924558 14283 net.cpp:425] inception_5b/output <- inception_5b/3x3
I0403 15:44:13.924576 14283 net.cpp:425] inception_5b/output <- inception_5b/5x5
I0403 15:44:13.924592 14283 net.cpp:425] inception_5b/output <- inception_5b/pool_proj
I0403 15:44:13.924612 14283 net.cpp:399] inception_5b/output -> inception_5b/output
I0403 15:44:13.924664 14283 net.cpp:141] Setting up inception_5b/output
I0403 15:44:13.924698 14283 net.cpp:148] Top shape: 24 1024 7 7 (1204224)
I0403 15:44:13.924716 14283 net.cpp:156] Memory required for data: 1345864224
I0403 15:44:13.924731 14283 layer_factory.hpp:77] Creating layer pool5/7x7_s1
I0403 15:44:13.924748 14283 net.cpp:91] Creating Layer pool5/7x7_s1
I0403 15:44:13.924763 14283 net.cpp:425] pool5/7x7_s1 <- inception_5b/output
I0403 15:44:13.924780 14283 net.cpp:399] pool5/7x7_s1 -> pool5/7x7_s1
I0403 15:44:13.924994 14283 net.cpp:141] Setting up pool5/7x7_s1
I0403 15:44:13.925019 14283 net.cpp:148] Top shape: 24 1024 1 1 (24576)
I0403 15:44:13.925034 14283 net.cpp:156] Memory required for data: 1345962528
I0403 15:44:13.925047 14283 layer_factory.hpp:77] Creating layer pool5/drop_7x7_s1
I0403 15:44:13.925065 14283 net.cpp:91] Creating Layer pool5/drop_7x7_s1
I0403 15:44:13.925079 14283 net.cpp:425] pool5/drop_7x7_s1 <- pool5/7x7_s1
I0403 15:44:13.925102 14283 net.cpp:386] pool5/drop_7x7_s1 -> pool5/7x7_s1 (in-place)
I0403 15:44:13.925154 14283 net.cpp:141] Setting up pool5/drop_7x7_s1
I0403 15:44:13.925180 14283 net.cpp:148] Top shape: 24 1024 1 1 (24576)
I0403 15:44:13.925199 14283 net.cpp:156] Memory required for data: 1346060832
I0403 15:44:13.925212 14283 layer_factory.hpp:77] Creating layer loss3/classifier_plantvillage
I0403 15:44:13.925231 14283 net.cpp:91] Creating Layer loss3/classifier_plantvillage
I0403 15:44:13.925246 14283 net.cpp:425] loss3/classifier_plantvillage <- pool5/7x7_s1
I0403 15:44:13.925266 14283 net.cpp:399] loss3/classifier_plantvillage -> loss3/classifier_plantvillage
I0403 15:44:13.925685 14283 net.cpp:141] Setting up loss3/classifier_plantvillage
I0403 15:44:13.925710 14283 net.cpp:148] Top shape: 24 38 (912)
I0403 15:44:13.925724 14283 net.cpp:156] Memory required for data: 1346064480
I0403 15:44:13.925741 14283 layer_factory.hpp:77] Creating layer loss3/classifier_plantvillage_loss3/classifier_plantvillage_0_split
I0403 15:44:13.925762 14283 net.cpp:91] Creating Layer loss3/classifier_plantvillage_loss3/classifier_plantvillage_0_split
I0403 15:44:13.925779 14283 net.cpp:425] loss3/classifier_plantvillage_loss3/classifier_plantvillage_0_split <- loss3/classifier_plantvillage
I0403 15:44:13.925796 14283 net.cpp:399] loss3/classifier_plantvillage_loss3/classifier_plantvillage_0_split -> loss3/classifier_plantvillage_loss3/classifier_plantvillage_0_split_0
I0403 15:44:13.925817 14283 net.cpp:399] loss3/classifier_plantvillage_loss3/classifier_plantvillage_0_split -> loss3/classifier_plantvillage_loss3/classifier_plantvillage_0_split_1
I0403 15:44:13.925842 14283 net.cpp:399] loss3/classifier_plantvillage_loss3/classifier_plantvillage_0_split -> loss3/classifier_plantvillage_loss3/classifier_plantvillage_0_split_2
I0403 15:44:13.925861 14283 net.cpp:399] loss3/classifier_plantvillage_loss3/classifier_plantvillage_0_split -> loss3/classifier_plantvillage_loss3/classifier_plantvillage_0_split_3
I0403 15:44:13.925962 14283 net.cpp:141] Setting up loss3/classifier_plantvillage_loss3/classifier_plantvillage_0_split
I0403 15:44:13.925987 14283 net.cpp:148] Top shape: 24 38 (912)
I0403 15:44:13.926002 14283 net.cpp:148] Top shape: 24 38 (912)
I0403 15:44:13.926017 14283 net.cpp:148] Top shape: 24 38 (912)
I0403 15:44:13.926031 14283 net.cpp:148] Top shape: 24 38 (912)
I0403 15:44:13.926045 14283 net.cpp:156] Memory required for data: 1346079072
I0403 15:44:13.926059 14283 layer_factory.hpp:77] Creating layer loss1/loss
I0403 15:44:13.926080 14283 net.cpp:91] Creating Layer loss1/loss
I0403 15:44:13.926101 14283 net.cpp:425] loss1/loss <- loss1/classifier_plantvillage_loss1/classifier_plantvillage_0_split_0
I0403 15:44:13.926133 14283 net.cpp:425] loss1/loss <- label_data_1_split_0
…
