…
I0403 15:42:48.746737 14209 net.cpp:313] The NetState phase (1) differed from the phase (0) specified by a rule in layer data
I0403 15:42:48.748173 14209 net.cpp:49] Initializing net from parameters: 
state {
  phase: TEST
}
layer {
  name: "data"
  type: "Data"
  top: "data"
  top: "label"
  include {
    phase: TEST
  }
  transform_param {
    mirror: false
    crop_size: 224
    mean_file: "/home/mohanty/data/final_dataset/lmdb/color-80-20/mean.binaryproto"
  }
  data_param {
    source: "/home/mohanty/data/final_dataset/lmdb/color-80-20/test_db"
    batch_size: 24
    backend: LMDB
  }
}
layer {
  name: "conv1/7x7_s2"
  type: "Convolution"
  bottom: "data"
  top: "conv1/7x7_s2"
  param {
    lr_mult: 1
    decay_mult: 1
  }
  param {
    lr_mult: 2
    decay_mult: 0
  }
  convolution_param {
    num_output: 64
    pad: 3
    kernel_size: 7
    stride: 2
    weight_filler {
      type: "xavier"
      std: 0.1
    }
    bias_filler {
      type: "constant"
      value: 0.2
    }
  }
}
layer {
  name: "conv1/relu_7x7"
  type: "ReLU"
  bottom: "conv1/7x7_s2"
  top: "conv1/7x7_s2"
}
layer {
  name: "pool1/3x3_s2"
  type: "Pooling"
  bottom: "conv1/7x7_s2"
  top: "pool1/3x3_s2"
  pooling_param {
    pool: MAX
    kernel_size: 3
    stride: 2
  }
}
layer {
  name: "pool1/norm1"
  type: "LRN"
  bottom: "pool1/3x3_s2"
  top: "pool1/norm1"
  lrn_param {
    local_size: 5
    alpha: 0.0001
    beta: 0.75
  }
}
layer {
  name: "conv2/3x3_reduce"
  type: "Convolution"
  bottom: "pool1/norm1"
  top: "conv2/3x3_reduce"
  param {
    lr_mult: 1
    decay_mult: 1
  }
  param {
    lr_mult: 2
    decay_mult: 0
  }
  convolution_param {
    num_output: 64
    kernel_size: 1
    weight_filler {
      type: "xavier"
      std: 0.1
    }
    bias_filler {
      type: "constant"
      value: 0.2
    }
  }
}
layer {
  name: "conv2/relu_3x3_reduce"
  type: "ReLU"
  bottom: "conv2/3x3_reduce"
  top: "conv2/3x3_reduce"
}
layer {
  name: "conv2/3x3"
  type: "Convolution"
  bottom: "conv2/3x3_reduce"
  top: "conv2/3x3"
  param {
    lr_mult: 1
    decay_mult: 1
  }
  param {
    lr_mult: 2
    decay_mult: 0
  }
  convolution_param {
    num_output: 192
    pad: 1
    kernel_size: 3
    weight_filler {
      type: "xavier"
      std: 0.03
    }
    bias_filler {
      type: "constant"
      value: 0.2
    }
  }
}
layer {
  name: "conv2/relu_3x3"
  type: "ReLU"
  bottom: "conv2/3x3"
  top: "conv2/3x3"
}
layer {
  name: "conv2/norm2"
  type: "LRN"
  bottom: "conv2/3x3"
  top: "conv2/norm2"
  lrn_param {
    local_size: 5
    alpha: 0.0001
    beta: 0.75
  }
}
layer {
  name: "pool2/3x3_s2"
  type: "Pooling"
  bottom: "conv2/norm2"
  top: "pool2/3x3_s2"
  pooling_param {
    pool: MAX
    kernel_size: 3
    stride: 2
  }
}
layer {
  name: "inception_3a/1x1"
  type: "Convolution"
  bottom: "pool2/3x3_s2"
  top: "inception_3a/1x1"
  param {
    lr_mult: 1
    decay_mult: 1
  }
  param {
    lr_mult: 2
    decay_mult: 0
  }
  convolution_param {
    num_output: 64
    kernel_size: 1
    weight_filler {
      type: "xavier"
      std: 0.03
    }
    bias_filler {
      type: "constant"
      value: 0.2
    }
  }
}
layer {
  name: "inception_3a/relu_1x1"
  type: "ReLU"
  bottom: "inception_3a/1x1"
  top: "inception_3a/1x1"
}
layer {
  name: "inception_3a/3x3_reduce"
  type: "Convolution"
  bottom: "pool2/3x3_s2"
  top: "inception_3a/3x3_reduce"
  param {
    lr_mult: 1
    decay_mult: 1
  }
  param {
    lr_mult: 2
    decay_mult: 0
  }
  convolution_param {
    num_output: 96
    kernel_size: 1
    weight_filler {
      type: "xavier"
      std: 0.09
    }
    bias_filler {
      type: "constant"
      value: 0.2
    }
  }
}
layer {
  name: "inception_3a/relu_3x3_reduce"
  type: "ReLU"
  bottom: "inception_3a/3x3_reduce"
  top: "inception_3a/3x3_reduce"
}
layer {
  name: "inception_3a/3x3"
  type: "Convolution"
  bottom: "inception_3a/3x3_reduce"
  top: "inception_3a/3x3"
  param {
    lr_mult: 1
    decay_mult: 1
  }
  param {
    lr_mult: 2
    decay_mult: 0
  }
  convolution_param {
    num_output: 128
    pad: 1
    kernel_size: 3
    weight_filler {
      type: "xavier"
      std: 0.03
    }
    bias_filler {
      type: "constant"
      value: 0.2
    }
  }
}
layer {
  name: "inception_3a/relu_3x3"
  type: "ReLU"
  bottom: "inception_3a/3x3"
  top: "inception_3a/3x3"
}
layer {
  name: "inception_3a/5x5_reduce"
  type: "Convolution"
  bottom: "pool2/3x3_s2"
  top: "inception_3a/5x5_reduce"
  param {
    lr_mult: 1
    decay_mult: 1
  }
  param {
    lr_mult: 2
    decay_mult: 0
  }
  convolution_param {
    num_output: 16
    kernel_size: 1
    weight_filler {
      type: "xavier"
      std: 0.2
    }
    bias_filler {
      type: "constant"
      value: 0.2
    }
  }
}
layer {
  name: "inception_3a/relu_5x5_reduce"
  type: "ReLU"
  bottom: "inception_3a/5x5_reduce"
  top: "inception_3a/5x5_reduce"
}
layer {
  name: "inception_3a/5x5"
  type: "Convolution"
  bottom: "inception_3a/5x5_reduce"
  top: "inception_3a/5x5"
  param {
    lr_mult: 1
    decay_mult: 1
  }
  param {
    lr_mult: 2
    decay_mult: 0
  }
  convolution_param {
    num_output: 32
    pad: 2
    kernel_size: 5
    weight_filler {
      type: "xavier"
      std: 0.03
    }
    bias_filler {
      type: "constant"
      value: 0.2
    }
  }
}
layer {
  name: "inception_3a/relu_5x5"
  type: "ReLU"
  bottom: "inception_3a/5x5"
  top: "inception_3a/5x5"
}
layer {
  name: "inception_3a/pool"
  type: "Pooling"
  bottom: "pool2/3x3_s2"
  top: "inception_3a/pool"
  pooling_param {
    pool: MAX
    kernel_size: 3
    stride: 1
    pad: 1
  }
}
layer {
  name: "inception_3a/pool_proj"
  type: "Convolution"
  bottom: "inception_3a/pool"
  top: "inception_3a/pool_proj"
  param {
    lr_mult: 1
    decay_mult: 1
  }
  param {
    lr_mult: 2
    decay_mult: 0
  }
  convolution_param {
    num_output: 32
    kernel_size: 1
    weight_filler {
      type: "xavier"
      std: 0.1
    }
    bias_filler {
      type: "constant"
      value: 0.2
    }
  }
}
layer {
  name: "inception_3a/relu_pool_proj"
  type: "ReLU"
  bottom: "inception_3a/pool_proj"
  top: "inception_3a/pool_proj"
}
layer {
  name: "inception_3a/output"
  type: "Concat"
  bottom: "inception_3a/1x1"
  bottom: "inception_3a/3x3"
  bottom: "inception_3a/5x5"
  bottom: "inception_3a/pool_proj"
  top: "inception_3a/output"
}
layer {
  name: "inception_3b/1x1"
  type: "Convolution"
  bottom: "inception_3a/output"
  top: "inception_3b/1x1"
  param {
    lr_mult: 1
    decay_mult: 1
  }
  param {
    lr_mult: 2
    decay_mult: 0
  }
  convolution_param {
    num_output: 128
    kernel_size: 1
    weight_filler {
      type: "xavier"
      std: 0.03
    }
    bias_filler {
      type: "constant"
      value: 0.2
    }
  }
}
layer {
  name: "inception_3b/relu_1x1"
  type: "ReLU"
  bottom: "inception_3b/1x1"
  top: "inception_3b/1x1"
}
layer {
  name: "inception_3b/3x3_reduce"
  type: "Convolution"
  bottom: "inception_3a/output"
  top: "inception_3b/3x3_reduce"
  param {
    lr_mult: 1
    decay_mult: 1
  }
  param {
    lr_mult: 2
    decay_mult: 0
  }
  convolution_param {
    num_output: 128
    kernel_size: 1
    weight_filler {
      type: "xavier"
      std: 0.09
    }
    bias_filler {
      type: "constant"
      value: 0.2
    }
  }
}
layer {
  name: "inception_3b/relu_3x3_reduce"
  type: "ReLU"
  bottom: "inception_3b/3x3_reduce"
  top: "inception_3b/3x3_reduce"
}
layer {
  name: "inception_3b/3x3"
  type: "Convolution"
  bottom: "inception_3b/3x3_reduce"
  top: "inception_3b/3x3"
  param {
    lr_mult: 1
    decay_mult: 1
  }
  param {
    lr_mult: 2
    decay_mult: 0
  }
  convolution_param {
    num_output: 192
    pad: 1
    kernel_size: 3
    weight_filler {
      type: "xavier"
      std: 0.03
    }
    bias_filler {
      type: "constant"
      value: 0.2
    }
  }
}
layer {
  name: "inception_3b/relu_3x3"
  type: "ReLU"
  bottom: "inception_3b/3x3"
  top: "inception_3b/3x3"
}
layer {
  name: "inception_3b/5x5_reduce"
  type: "Convolution"
  bottom: "inception_3a/output"
  top: "inception_3b/5x5_reduce"
  param {
    lr_mult: 1
    decay_mult: 1
  }
  param {
    lr_mult: 2
    decay_mult: 0
  }
  convolution_param {
    num_output: 32
    kernel_size: 1
    weight_filler {
      type: "xavier"
      std: 0.2
    }
    bias_filler {
      type: "constant"
      value: 0.2
    }
  }
}
layer {
  name: "inception_3b/relu_5x5_reduce"
  type: "ReLU"
  bottom: "inception_3b/5x5_reduce"
  top: "inception_3b/5x5_reduce"
}
layer {
  name: "inception_3b/5x5"
  type: "Convolution"
  bottom: "inception_3b/5x5_reduce"
  top: "inception_3b/5x5"
  param {
    lr_mult: 1
    decay_mult: 1
  }
  param {
    lr_mult: 2
    decay_mult: 0
  }
  convolution_param {
    num_output: 96
    pad: 2
    kernel_size: 5
    weight_filler {
      type: "xavier"
      std: 0.03
    }
    bias_filler {
      type: "constant"
      value: 0.2
    }
  }
}
layer {
  name: "inception_3b/relu_5x5"
  type: "ReLU"
  bottom: "inception_3b/5x5"
  top: "inception_3b/5x5"
}
layer {
  name: "inception_3b/pool"
  type: "Pooling"
  bottom: "inception_3a/output"
  top: "inception_3b/pool"
  pooling_param {
    pool: MAX
    kernel_size: 3
    stride: 1
    pad: 1
  }
}
layer {
  name: "inception_3b/pool_proj"
  type: "Convolution"
  bottom: "inception_3b/pool"
  top: "inception_3b/pool_proj"
  param {
    lr_mult: 1
    decay_mult: 1
  }
  param {
    lr_mult: 2
    decay_mult: 0
  }
  convolution_param {
    num_output: 64
    kernel_size: 1
    weight_filler {
      type: "xavier"
      std: 0.1
    }
    bias_filler {
      type: "constant"
      value: 0.2
    }
  }
}
layer {
  name: "inception_3b/relu_pool_proj"
  type: "ReLU"
  bottom: "inception_3b/pool_proj"
  top: "inception_3b/pool_proj"
}
layer {
  name: "inception_3b/output"
  type: "Concat"
  bottom: "inception_3b/1x1"
  bottom: "inception_3b/3x3"
  bottom: "inception_3b/5x5"
  bottom: "inception_3b/pool_proj"
  top: "inception_3b/output"
}
layer {
  name: "pool3/3x3_s2"
  type: "Pooling"
  bottom: "inception_3b/output"
  top: "pool3/3x3_s2"
  pooling_param {
    pool: MAX
    kernel_size: 3
    stride: 2
  }
}
layer {
  name: "inception_4a/1x1"
  type: "Convolution"
  bottom: "pool3/3x3_s2"
  top: "inception_4a/1x1"
  param {
    lr_mult: 1
    decay_mult: 1
  }
  param {
    lr_mult: 2
    decay_mult: 0
  }
  convolution_param {
    num_output: 192
    kernel_size: 1
    weight_filler {
      type: "xavier"
      std: 0.03
    }
    bias_filler {
      type: "constant"
      value: 0.2
    }
  }
}
layer {
  name: "inception_4a/relu_1x1"
  type: "ReLU"
  bottom: "inception_4a/1x1"
  top: "inception_4a/1x1"
}
layer {
  name: "inception_4a/3x3_reduce"
  type: "Convolution"
  bottom: "pool3/3x3_s2"
  top: "inception_4a/3x3_reduce"
  param {
    lr_mult: 1
    decay_mult: 1
  }
  param {
    lr_mult: 2
    decay_mult: 0
  }
  convolution_param {
    num_output: 96
    kernel_size: 1
    weight_filler {
      type: "xavier"
      std: 0.09
    }
    bias_filler {
      type: "constant"
      value: 0.2
    }
  }
}
layer {
  name: "inception_4a/relu_3x3_reduce"
  type: "ReLU"
  bottom: "inception_4a/3x3_reduce"
  top: "inception_4a/3x3_reduce"
}
layer {
  name: "inception_4a/3x3"
  type: "Convolution"
  bottom: "inception_4a/3x3_reduce"
  top: "inception_4a/3x3"
  param {
    lr_mult: 1
    decay_mult: 1
  }
  param {
    lr_mult: 2
    decay_mult: 0
  }
  convolution_param {
    num_output: 208
    pad: 1
    kernel_size: 3
    weight_filler {
      type: "xavier"
      std: 0.03
    }
    bias_filler {
      type: "constant"
      value: 0.2
    }
  }
}
layer {
  name: "inception_4a/relu_3x3"
  type: "ReLU"
  bottom: "inception_4a/3x3"
  top: "inception_4a/3x3"
}
layer {
  name: "inception_4a/5x5_reduce"
  type: "Convolution"
  bottom: "pool3/3x3_s2"
  top: "inception_4a/5x5_reduce"
  param {
    lr_mult: 1
    decay_mult: 1
  }
  param {
    lr_mult: 2
    decay_mult: 0
  }
  convolution_param {
    num_output: 16
    kernel_size: 1
    weight_filler {
      type: "xavier"
      std: 0.2
    }
    bias_filler {
      type: "constant"
      value: 0.2
    }
  }
}
layer {
  name: "inception_4a/relu_5x5_reduce"
  type: "ReLU"
  bottom: "inception_4a/5x5_reduce"
  top: "inception_4a/5x5_reduce"
}
layer {
  name: "inception_4a/5x5"
  type: "Convolution"
  bottom: "inception_4a/5x5_reduce"
  top: "inception_4a/5x5"
  param {
    lr_mult: 1
    decay_mult: 1
  }
  param {
    lr_mult: 2
    decay_mult: 0
  }
  convolution_param {
    num_output: 48
    pad: 2
    kernel_size: 5
    weight_filler {
      type: "xavier"
      std: 0.03
    }
    bias_filler {
      type: "constant"
      value: 0.2
    }
  }
}
layer {
  name: "inception_4a/relu_5x5"
  type: "ReLU"
  bottom: "inception_4a/5x5"
  top: "inception_4a/5x5"
}
layer {
  name: "inception_4a/pool"
  type: "Pooling"
  bottom: "pool3/3x3_s2"
  top: "inception_4a/pool"
  pooling_param {
    pool: MAX
    kernel_size: 3
    stride: 1
    pad: 1
  }
}
layer {
  name: "inception_4a/pool_proj"
  type: "Convolution"
  bottom: "inception_4a/pool"
  top: "inception_4a/pool_proj"
  param {
    lr_mult: 1
    decay_mult: 1
  }
  param {
    lr_mult: 2
    decay_mult: 0
  }
  convolution_param {
    num_output: 64
    kernel_size: 1
    weight_filler {
      type: "xavier"
      std: 0.1
    }
    bias_filler {
      type: "constant"
      value: 0.2
    }
  }
}
layer {
  name: "inception_4a/relu_pool_proj"
  type: "ReLU"
  bottom: "inception_4a/pool_proj"
  top: "inception_4a/pool_proj"
}
layer {
  name: "inception_4a/output"
  type: "Concat"
  bottom: "inception_4a/1x1"
  bottom: "inception_4a/3x3"
  bottom: "inception_4a/5x5"
  bottom: "inception_4a/pool_proj"
  top: "inception_4a/output"
}
layer {
  name: "loss1/ave_pool"
  type: "Pooling"
  bottom: "inception_4a/output"
  top: "loss1/ave_pool"
  pooling_param {
    pool: AVE
    kernel_size: 5
    stride: 3
  }
}
layer {
  name: "loss1/conv"
  type: "Convolution"
  bottom: "loss1/ave_pool"
  top: "loss1/conv"
  param {
    lr_mult: 1
    decay_mult: 1
  }
  param {
    lr_mult: 2
    decay_mult: 0
  }
  convolution_param {
    num_output: 128
    kernel_size: 1
    weight_filler {
      type: "xavier"
      std: 0.08
    }
    bias_filler {
      type: "constant"
      value: 0.2
    }
  }
}
layer {
  name: "loss1/relu_conv"
  type: "ReLU"
  bottom: "loss1/conv"
  top: "loss1/conv"
}
layer {
  name: "loss1/fc"
  type: "InnerProduct"
  bottom: "loss1/conv"
  top: "loss1/fc"
  param {
    lr_mult: 1
    decay_mult: 1
  }
  param {
    lr_mult: 2
    decay_mult: 0
  }
  inner_product_param {
    num_output: 1024
    weight_filler {
      type: "xavier"
      std: 0.02
    }
    bias_filler {
      type: "constant"
      value: 0.2
    }
  }
}
layer {
  name: "loss1/relu_fc"
  type: "ReLU"
  bottom: "loss1/fc"
  top: "loss1/fc"
}
layer {
  name: "loss1/drop_fc"
  type: "Dropout"
  bottom: "loss1/fc"
  top: "loss1/fc"
  dropout_param {
    dropout_ratio: 0.7
  }
}
layer {
  name: "loss1/classifier_plantvillage"
  type: "InnerProduct"
  bottom: "loss1/fc"
  top: "loss1/classifier_plantvillage"
  param {
    lr_mult: 1
    decay_mult: 1
  }
  param {
    lr_mult: 2
    decay_mult: 0
  }
  inner_product_param {
    num_output: 38
    weight_filler {
      type: "xavier"
      std: 0.0009765625
    }
    bias_filler {
      type: "constant"
      value: 0
    }
  }
}
layer {
  name: "inception_4b/1x1"
  type: "Convolution"
  bottom: "inception_4a/output"
  top: "inception_4b/1x1"
  param {
    lr_mult: 1
    decay_mult: 1
  }
  param {
    lr_mult: 2
    decay_mult: 0
  }
  convolution_param {
    num_output: 160
    kernel_size: 1
    weight_filler {
      type: "xavier"
      std: 0.03
    }
    bias_filler {
      type: "constant"
      value: 0.2
    }
  }
}
layer {
  name: "inception_4b/relu_1x1"
  type: "ReLU"
  bottom: "inception_4b/1x1"
  top: "inception_4b/1x1"
}
layer {
  name: "inception_4b/3x3_reduce"
  type: "Convolution"
  bottom: "inception_4a/output"
  top: "inception_4b/3x3_reduce"
  param {
    lr_mult: 1
    decay_mult: 1
  }
  param {
    lr_mult: 2
    decay_mult: 0
  }
  convolution_param {
    num_output: 112
    kernel_size: 1
    weight_filler {
      type: "xavier"
      std: 0.09
    }
    bias_filler {
      type: "constant"
      value: 0.2
    }
  }
}
layer {
  name: "inception_4b/relu_3x3_reduce"
  type: "ReLU"
  bottom: "inception_4b/3x3_reduce"
  top: "inception_4b/3x3_reduce"
}
layer {
  name: "inception_4b/3x3"
  type: "Convolution"
  bottom: "inception_4b/3x3_reduce"
  top: "inception_4b/3x3"
  param {
    lr_mult: 1
    decay_mult: 1
  }
  param {
    lr_mult: 2
    decay_mult: 0
  }
  convolution_param {
    num_output: 224
    pad: 1
    kernel_size: 3
    weight_filler {
      type: "xavier"
      std: 0.03
    }
    bias_filler {
      type: "constant"
      value: 0.2
    }
  }
}
layer {
  name: "inception_4b/relu_3x3"
  type: "ReLU"
  bottom: "inception_4b/3x3"
  top: "inception_4b/3x3"
}
layer {
  name: "inception_4b/5x5_reduce"
  type: "Convolution"
  bottom: "inception_4a/output"
  top: "inception_4b/5x5_reduce"
  param {
    lr_mult: 1
    decay_mult: 1
  }
  param {
    lr_mult: 2
    decay_mult: 0
  }
  convolution_param {
    num_output: 24
    kernel_size: 1
    weight_filler {
      type: "xavier"
      std: 0.2
    }
    bias_filler {
      type: "constant"
      value: 0.2
    }
  }
}
layer {
  name: "inception_4b/relu_5x5_reduce"
  type: "ReLU"
  bottom: "inception_4b/5x5_reduce"
  top: "inception_4b/5x5_reduce"
}
layer {
  name: "inception_4b/5x5"
  type: "Convolution"
  bottom: "inception_4b/5x5_reduce"
  top: "inception_4b/5x5"
  param {
    lr_mult: 1
    decay_mult: 1
  }
  param {
    lr_mult: 2
    decay_mult: 0
  }
  convolution_param {
    num_output: 64
    pad: 2
    kernel_size: 5
    weight_filler {
      type: "xavier"
      std: 0.03
    }
    bias_filler {
      type: "constant"
      value: 0.2
    }
  }
}
layer {
  name: "inception_4b/relu_5x5"
  type: "ReLU"
  bottom: "inception_4b/5x5"
  top: "inception_4b/5x5"
}
layer {
  name: "inception_4b/pool"
  type: "Pooling"
  bottom: "inception_4a/output"
  top: "inception_4b/pool"
  pooling_param {
    pool: MAX
    kernel_size: 3
    stride: 1
    pad: 1
  }
}
layer {
  name: "inception_4b/pool_proj"
  type: "Convolution"
  bottom: "inception_4b/pool"
  top: "inception_4b/pool_proj"
  param {
    lr_mult: 1
    decay_mult: 1
  }
  param {
    lr_mult: 2
    decay_mult: 0
  }
  convolution_param {
    num_output: 64
    kernel_size: 1
    weight_filler {
      type: "xavier"
      std: 0.1
    }
    bias_filler {
      type: "constant"
      value: 0.2
    }
  }
}
layer {
  name: "inception_4b/relu_pool_proj"
  type: "ReLU"
  bottom: "inception_4b/pool_proj"
  top: "inception_4b/pool_proj"
}
layer {
  name: "inception_4b/output"
  type: "Concat"
  bottom: "inception_4b/1x1"
  bottom: "inception_4b/3x3"
  bottom: "inception_4b/5x5"
  bottom: "inception_4b/pool_proj"
  top: "inception_4b/output"
}
layer {
  name: "inception_4c/1x1"
  type: "Convolution"
  bottom: "inception_4b/output"
  top: "inception_4c/1x1"
  param {
    lr_mult: 1
    decay_mult: 1
  }
  param {
    lr_mult: 2
    decay_mult: 0
  }
  convolution_param {
    num_output: 128
    kernel_size: 1
    weight_filler {
      type: "xavier"
      std: 0.03
    }
    bias_filler {
      type: "constant"
      value: 0.2
    }
  }
}
layer {
  name: "inception_4c/relu_1x1"
  type: "ReLU"
  bottom: "inception_4c/1x1"
  top: "inception_4c/1x1"
}
layer {
  name: "inception_4c/3x3_reduce"
  type: "Convolution"
  bottom: "inception_4b/output"
  top: "inception_4c/3x3_reduce"
  param {
    lr_mult: 1
    decay_mult: 1
  }
  param {
    lr_mult: 2
    decay_mult: 0
  }
  convolution_param {
    num_output: 128
    kernel_size: 1
    weight_filler {
      type: "xavier"
      std: 0.09
    }
    bias_filler {
      type: "constant"
      value: 0.2
    }
  }
}
layer {
  name: "inception_4c/relu_3x3_reduce"
  type: "ReLU"
  bottom: "inception_4c/3x3_reduce"
  top: "inception_4c/3x3_reduce"
}
layer {
  name: "inception_4c/3x3"
  type: "Convolution"
  bottom: "inception_4c/3x3_reduce"
  top: "inception_4c/3x3"
  param {
    lr_mult: 1
    decay_mult: 1
  }
  param {
    lr_mult: 2
    decay_mult: 0
  }
  convolution_param {
    num_output: 256
    pad: 1
    kernel_size: 3
    weight_filler {
      type: "xavier"
      std: 0.03
    }
    bias_filler {
      type: "constant"
      value: 0.2
    }
  }
}
layer {
  name: "inception_4c/relu_3x3"
  type: "ReLU"
  bottom: "inception_4c/3x3"
  top: "inception_4c/3x3"
}
layer {
  name: "inception_4c/5x5_reduce"
  type: "Convolution"
  bottom: "inception_4b/output"
  top: "inception_4c/5x5_reduce"
  param {
    lr_mult: 1
    decay_mult: 1
  }
  param {
    lr_mult: 2
    decay_mult: 0
  }
  convolution_param {
    num_output: 24
    kernel_size: 1
    weight_filler {
      type: "xavier"
      std: 0.2
    }
    bias_filler {
      type: "constant"
      value: 0.2
    }
  }
}
layer {
  name: "inception_4c/relu_5x5_reduce"
  type: "ReLU"
  bottom: "inception_4c/5x5_reduce"
  top: "inception_4c/5x5_reduce"
}
layer {
  name: "inception_4c/5x5"
  type: "Convolution"
  bottom: "inception_4c/5x5_reduce"
  top: "inception_4c/5x5"
  param {
    lr_mult: 1
    decay_mult: 1
  }
  param {
    lr_mult: 2
    decay_mult: 0
  }
  convolution_param {
    num_output: 64
    pad: 2
    kernel_size: 5
    weight_filler {
      type: "xavier"
      std: 0.03
    }
    bias_filler {
      type: "constant"
      value: 0.2
    }
  }
}
layer {
  name: "inception_4c/relu_5x5"
  type: "ReLU"
  bottom: "inception_4c/5x5"
  top: "inception_4c/5x5"
}
layer {
  name: "inception_4c/pool"
  type: "Pooling"
  bottom: "inception_4b/output"
  top: "inception_4c/pool"
  pooling_param {
    pool: MAX
    kernel_size: 3
    stride: 1
    pad: 1
  }
}
layer {
  name: "inception_4c/pool_proj"
  type: "Convolution"
  bottom: "inception_4c/pool"
  top: "inception_4c/pool_proj"
  param {
    lr_mult: 1
    decay_mult: 1
  }
  param {
    lr_mult: 2
    decay_mult: 0
  }
  convolution_param {
    num_output: 64
    kernel_size: 1
    weight_filler {
      type: "xavier"
      std: 0.1
    }
    bias_filler {
      type: "constant"
      value: 0.2
    }
  }
}
layer {
  name: "inception_4c/relu_pool_proj"
  type: "ReLU"
  bottom: "inception_4c/pool_proj"
  top: "inception_4c/pool_proj"
}
layer {
  name: "inception_4c/output"
  type: "Concat"
  bottom: "inception_4c/1x1"
  bottom: "inception_4c/3x3"
  bottom: "inception_4c/5x5"
  bottom: "inception_4c/pool_proj"
  top: "inception_4c/output"
}
layer {
  name: "inception_4d/1x1"
  type: "Convolution"
  bottom: "inception_4c/output"
  top: "inception_4d/1x1"
  param {
    lr_mult: 1
    decay_mult: 1
  }
  param {
    lr_mult: 2
    decay_mult: 0
  }
  convolution_param {
    num_output: 112
    kernel_size: 1
    weight_filler {
      type: "xavier"
      std: 0.03
    }
    bias_filler {
      type: "constant"
      value: 0.2
    }
  }
}
layer {
  name: "inception_4d/relu_1x1"
  type: "ReLU"
  bottom: "inception_4d/1x1"
  top: "inception_4d/1x1"
}
layer {
  name: "inception_4d/3x3_reduce"
  type: "Convolution"
  bottom: "inception_4c/output"
  top: "inception_4d/3x3_reduce"
  param {
    lr_mult: 1
    decay_mult: 1
  }
  param {
    lr_mult: 2
    decay_mult: 0
  }
  convolution_param {
    num_output: 144
    kernel_size: 1
    weight_filler {
      type: "xavier"
      std: 0.09
    }
    bias_filler {
      type: "constant"
      value: 0.2
    }
  }
}
layer {
  name: "inception_4d/relu_3x3_reduce"
  type: "ReLU"
  bottom: "inception_4d/3x3_reduce"
  top: "inception_4d/3x3_reduce"
}
layer {
  name: "inception_4d/3x3"
  type: "Convolution"
  bottom: "inception_4d/3x3_reduce"
  top: "inception_4d/3x3"
  param {
    lr_mult: 1
    decay_mult: 1
  }
  param {
    lr_mult: 2
    decay_mult: 0
  }
  convolution_param {
    num_output: 288
    pad: 1
    kernel_size: 3
    weight_filler {
      type: "xavier"
      std: 0.03
    }
    bias_filler {
      type: "constant"
      value: 0.2
    }
  }
}
layer {
  name: "inception_4d/relu_3x3"
  type: "ReLU"
  bottom: "inception_4d/3x3"
  top: "inception_4d/3x3"
}
layer {
  name: "inception_4d/5x5_reduce"
  type: "Convolution"
  bottom: "inception_4c/output"
  top: "inception_4d/5x5_reduce"
  param {
    lr_mult: 1
    decay_mult: 1
  }
  param {
    lr_mult: 2
    decay_mult: 0
  }
  convolution_param {
    num_output: 32
    kernel_size: 1
    weight_filler {
      type: "xavier"
      std: 0.2
    }
    bias_filler {
      type: "constant"
      value: 0.2
    }
  }
}
layer {
  name: "inception_4d/relu_5x5_reduce"
  type: "ReLU"
  bottom: "inception_4d/5x5_reduce"
  top: "inception_4d/5x5_reduce"
}
layer {
  name: "inception_4d/5x5"
  type: "Convolution"
  bottom: "inception_4d/5x5_reduce"
  top: "inception_4d/5x5"
  param {
    lr_mult: 1
    decay_mult: 1
  }
  param {
    lr_mult: 2
    decay_mult: 0
  }
  convolution_param {
    num_output: 64
    pad: 2
    kernel_size: 5
    weight_filler {
      type: "xavier"
      std: 0.03
    }
    bias_filler {
      type: "constant"
      value: 0.2
    }
  }
}
layer {
  name: "inception_4d/relu_5x5"
  type: "ReLU"
  bottom: "inception_4d/5x5"
  top: "inception_4d/5x5"
}
layer {
  name: "inception_4d/pool"
  type: "Pooling"
  bottom: "inception_4c/output"
  top: "inception_4d/pool"
  pooling_param {
    pool: MAX
    kernel_size: 3
    stride: 1
    pad: 1
  }
}
layer {
  name: "inception_4d/pool_proj"
  type: "Convolution"
  bottom: "inception_4d/pool"
  top: "inception_4d/pool_proj"
  param {
    lr_mult: 1
    decay_mult: 1
  }
  param {
    lr_mult: 2
    decay_mult: 0
  }
  convolution_param {
    num_output: 64
    kernel_size: 1
    weight_filler {
      type: "xavier"
      std: 0.1
    }
    bias_filler {
      type: "constant"
      value: 0.2
    }
  }
}
layer {
  name: "inception_4d/relu_pool_proj"
  type: "ReLU"
  bottom: "inception_4d/pool_proj"
  top: "inception_4d/pool_proj"
}
layer {
  name: "inception_4d/output"
  type: "Concat"
  bottom: "inception_4d/1x1"
  bottom: "inception_4d/3x3"
  bottom: "inception_4d/5x5"
  bottom: "inception_4d/pool_proj"
  top: "inception_4d/output"
}
layer {
  name: "loss2/ave_pool"
  type: "Pooling"
  bottom: "inception_4d/output"
  top: "loss2/ave_pool"
  pooling_param {
    pool: AVE
    kernel_size: 5
    stride: 3
  }
}
layer {
  name: "loss2/conv"
  type: "Convolution"
  bottom: "loss2/ave_pool"
  top: "loss2/conv"
  param {
    lr_mult: 1
    decay_mult: 1
  }
  param {
    lr_mult: 2
    decay_mult: 0
  }
  convolution_param {
    num_output: 128
    kernel_size: 1
    weight_filler {
      type: "xavier"
      std: 0.08
    }
    bias_filler {
      type: "constant"
      value: 0.2
    }
  }
}
layer {
  name: "loss2/relu_conv"
  type: "ReLU"
  bottom: "loss2/conv"
  top: "loss2/conv"
}
layer {
  name: "loss2/fc"
  type: "InnerProduct"
  bottom: "loss2/conv"
  top: "loss2/fc"
  param {
    lr_mult: 1
    decay_mult: 1
  }
  param {
    lr_mult: 2
    decay_mult: 0
  }
  inner_product_param {
    num_output: 1024
    weight_filler {
      type: "xavier"
      std: 0.02
    }
    bias_filler {
      type: "constant"
      value: 0.2
    }
  }
}
layer {
  name: "loss2/relu_fc"
  type: "ReLU"
  bottom: "loss2/fc"
  top: "loss2/fc"
}
layer {
  name: "loss2/drop_fc"
  type: "Dropout"
  bottom: "loss2/fc"
  top: "loss2/fc"
  dropout_param {
    dropout_ratio: 0.7
  }
}
layer {
  name: "loss2/classifier_plantvillage"
  type: "InnerProduct"
  bottom: "loss2/fc"
  top: "loss2/classifier_plantvillage"
  param {
    lr_mult: 1
    decay_mult: 1
  }
  param {
    lr_mult: 2
    decay_mult: 0
  }
  inner_product_param {
    num_output: 38
    weight_filler {
      type: "xavier"
      std: 0.0009765625
    }
    bias_filler {
      type: "constant"
      value: 0
    }
  }
}
layer {
  name: "inception_4e/1x1"
  type: "Convolution"
  bottom: "inception_4d/output"
  top: "inception_4e/1x1"
  param {
    lr_mult: 1
    decay_mult: 1
  }
  param {
    lr_mult: 2
    decay_mult: 0
  }
  convolution_param {
    num_output: 256
    kernel_size: 1
    weight_filler {
      type: "xavier"
      std: 0.03
    }
    bias_filler {
      type: "constant"
      value: 0.2
    }
  }
}
layer {
  name: "inception_4e/relu_1x1"
  type: "ReLU"
  bottom: "inception_4e/1x1"
  top: "inception_4e/1x1"
}
layer {
  name: "inception_4e/3x3_reduce"
  type: "Convolution"
  bottom: "inception_4d/output"
  top: "inception_4e/3x3_reduce"
  param {
    lr_mult: 1
    decay_mult: 1
  }
  param {
    lr_mult: 2
    decay_mult: 0
  }
  convolution_param {
    num_output: 160
    kernel_size: 1
    weight_filler {
      type: "xavier"
      std: 0.09
    }
    bias_filler {
      type: "constant"
      value: 0.2
    }
  }
}
layer {
  name: "inception_4e/relu_3x3_reduce"
  type: "ReLU"
  bottom: "inception_4e/3x3_reduce"
  top: "inception_4e/3x3_reduce"
}
layer {
  name: "inception_4e/3x3"
  type: "Convolution"
  bottom: "inception_4e/3x3_reduce"
  top: "inception_4e/3x3"
  param {
    lr_mult: 1
    decay_mult: 1
  }
  param {
    lr_mult: 2
    decay_mult: 0
  }
  convolution_param {
    num_output: 320
    pad: 1
    kernel_size: 3
    weight_filler {
      type: "xavier"
      std: 0.03
    }
    bias_filler {
      type: "constant"
      value: 0.2
    }
  }
}
layer {
  name: "inception_4e/relu_3x3"
  type: "ReLU"
  bottom: "inception_4e/3x3"
  top: "inception_4e/3x3"
}
layer {
  name: "inception_4e/5x5_reduce"
  type: "Convolution"
  bottom: "inception_4d/output"
  top: "inception_4e/5x5_reduce"
  param {
    lr_mult: 1
    decay_mult: 1
  }
  param {
    lr_mult: 2
    decay_mult: 0
  }
  convolution_param {
    num_output: 32
    kernel_size: 1
    weight_filler {
      type: "xavier"
      std: 0.2
    }
    bias_filler {
      type: "constant"
      value: 0.2
    }
  }
}
layer {
  name: "inception_4e/relu_5x5_reduce"
  type: "ReLU"
  bottom: "inception_4e/5x5_reduce"
  top: "inception_4e/5x5_reduce"
}
layer {
  name: "inception_4e/5x5"
  type: "Convolution"
  bottom: "inception_4e/5x5_reduce"
  top: "inception_4e/5x5"
  p
I0403 15:42:48.749670 14209 layer_factory.hpp:77] Creating layer data
I0403 15:42:48.750392 14209 net.cpp:91] Creating Layer data
I0403 15:42:48.750432 14209 net.cpp:399] data -> data
I0403 15:42:48.750494 14209 net.cpp:399] data -> label
I0403 15:42:48.750538 14209 data_transformer.cpp:25] Loading mean file from: /home/mohanty/data/final_dataset/lmdb/color-80-20/mean.binaryproto
I0403 15:42:48.753108 14229 db_lmdb.cpp:38] Opened lmdb /home/mohanty/data/final_dataset/lmdb/color-80-20/test_db
I0403 15:42:48.766022 14209 data_layer.cpp:41] output data size: 24,3,224,224
I0403 15:42:48.797643 14209 net.cpp:141] Setting up data
I0403 15:42:48.797730 14209 net.cpp:148] Top shape: 24 3 224 224 (3612672)
I0403 15:42:48.797757 14209 net.cpp:148] Top shape: 24 (24)
I0403 15:42:48.797776 14209 net.cpp:156] Memory required for data: 14450784
I0403 15:42:48.797808 14209 layer_factory.hpp:77] Creating layer label_data_1_split
I0403 15:42:48.797839 14209 net.cpp:91] Creating Layer label_data_1_split
I0403 15:42:48.797863 14209 net.cpp:425] label_data_1_split <- label
I0403 15:42:48.797899 14209 net.cpp:399] label_data_1_split -> label_data_1_split_0
I0403 15:42:48.797931 14209 net.cpp:399] label_data_1_split -> label_data_1_split_1
I0403 15:42:48.797956 14209 net.cpp:399] label_data_1_split -> label_data_1_split_2
I0403 15:42:48.797983 14209 net.cpp:399] label_data_1_split -> label_data_1_split_3
I0403 15:42:48.798007 14209 net.cpp:399] label_data_1_split -> label_data_1_split_4
I0403 15:42:48.798032 14209 net.cpp:399] label_data_1_split -> label_data_1_split_5
I0403 15:42:48.798056 14209 net.cpp:399] label_data_1_split -> label_data_1_split_6
I0403 15:42:48.798081 14209 net.cpp:399] label_data_1_split -> label_data_1_split_7
I0403 15:42:48.798105 14209 net.cpp:399] label_data_1_split -> label_data_1_split_8
I0403 15:42:48.798133 14209 net.cpp:399] label_data_1_split -> label_data_1_split_9
I0403 15:42:48.798277 14209 net.cpp:141] Setting up label_data_1_split
I0403 15:42:48.798307 14209 net.cpp:148] Top shape: 24 (24)
I0403 15:42:48.798328 14209 net.cpp:148] Top shape: 24 (24)
I0403 15:42:48.798349 14209 net.cpp:148] Top shape: 24 (24)
I0403 15:42:48.798369 14209 net.cpp:148] Top shape: 24 (24)
I0403 15:42:48.798387 14209 net.cpp:148] Top shape: 24 (24)
I0403 15:42:48.798404 14209 net.cpp:148] Top shape: 24 (24)
I0403 15:42:48.798424 14209 net.cpp:148] Top shape: 24 (24)
I0403 15:42:48.798441 14209 net.cpp:148] Top shape: 24 (24)
I0403 15:42:48.798460 14209 net.cpp:148] Top shape: 24 (24)
I0403 15:42:48.798478 14209 net.cpp:148] Top shape: 24 (24)
I0403 15:42:48.798532 14209 net.cpp:156] Memory required for data: 14451744
I0403 15:42:48.798552 14209 layer_factory.hpp:77] Creating layer conv1/7x7_s2
I0403 15:42:48.798589 14209 net.cpp:91] Creating Layer conv1/7x7_s2
I0403 15:42:48.798612 14209 net.cpp:425] conv1/7x7_s2 <- data
I0403 15:42:48.798635 14209 net.cpp:399] conv1/7x7_s2 -> conv1/7x7_s2
I0403 15:42:48.964507 14209 net.cpp:141] Setting up conv1/7x7_s2
I0403 15:42:48.964587 14209 net.cpp:148] Top shape: 24 64 112 112 (19267584)
I0403 15:42:48.964610 14209 net.cpp:156] Memory required for data: 91522080
I0403 15:42:48.964648 14209 layer_factory.hpp:77] Creating layer conv1/relu_7x7
I0403 15:42:48.964680 14209 net.cpp:91] Creating Layer conv1/relu_7x7
I0403 15:42:48.964704 14209 net.cpp:425] conv1/relu_7x7 <- conv1/7x7_s2
I0403 15:42:48.964726 14209 net.cpp:386] conv1/relu_7x7 -> conv1/7x7_s2 (in-place)
I0403 15:42:48.965100 14209 net.cpp:141] Setting up conv1/relu_7x7
I0403 15:42:48.965133 14209 net.cpp:148] Top shape: 24 64 112 112 (19267584)
I0403 15:42:48.965152 14209 net.cpp:156] Memory required for data: 168592416
I0403 15:42:48.965173 14209 layer_factory.hpp:77] Creating layer pool1/3x3_s2
I0403 15:42:48.965203 14209 net.cpp:91] Creating Layer pool1/3x3_s2
I0403 15:42:48.965224 14209 net.cpp:425] pool1/3x3_s2 <- conv1/7x7_s2
I0403 15:42:48.965246 14209 net.cpp:399] pool1/3x3_s2 -> pool1/3x3_s2
I0403 15:42:48.965337 14209 net.cpp:141] Setting up pool1/3x3_s2
I0403 15:42:48.965366 14209 net.cpp:148] Top shape: 24 64 56 56 (4816896)
I0403 15:42:48.965384 14209 net.cpp:156] Memory required for data: 187860000
I0403 15:42:48.965402 14209 layer_factory.hpp:77] Creating layer pool1/norm1
I0403 15:42:48.965431 14209 net.cpp:91] Creating Layer pool1/norm1
I0403 15:42:48.965452 14209 net.cpp:425] pool1/norm1 <- pool1/3x3_s2
I0403 15:42:48.965473 14209 net.cpp:399] pool1/norm1 -> pool1/norm1
I0403 15:42:48.965818 14209 net.cpp:141] Setting up pool1/norm1
I0403 15:42:48.965852 14209 net.cpp:148] Top shape: 24 64 56 56 (4816896)
I0403 15:42:48.965870 14209 net.cpp:156] Memory required for data: 207127584
I0403 15:42:48.965888 14209 layer_factory.hpp:77] Creating layer conv2/3x3_reduce
I0403 15:42:48.965917 14209 net.cpp:91] Creating Layer conv2/3x3_reduce
I0403 15:42:48.965937 14209 net.cpp:425] conv2/3x3_reduce <- pool1/norm1
I0403 15:42:48.965960 14209 net.cpp:399] conv2/3x3_reduce -> conv2/3x3_reduce
I0403 15:42:48.967633 14209 net.cpp:141] Setting up conv2/3x3_reduce
I0403 15:42:48.967670 14209 net.cpp:148] Top shape: 24 64 56 56 (4816896)
I0403 15:42:48.967689 14209 net.cpp:156] Memory required for data: 226395168
I0403 15:42:48.967715 14209 layer_factory.hpp:77] Creating layer conv2/relu_3x3_reduce
I0403 15:42:48.967741 14209 net.cpp:91] Creating Layer conv2/relu_3x3_reduce
I0403 15:42:48.967762 14209 net.cpp:425] conv2/relu_3x3_reduce <- conv2/3x3_reduce
I0403 15:42:48.967783 14209 net.cpp:386] conv2/relu_3x3_reduce -> conv2/3x3_reduce (in-place)
I0403 15:42:48.968109 14209 net.cpp:141] Setting up conv2/relu_3x3_reduce
I0403 15:42:48.968142 14209 net.cpp:148] Top shape: 24 64 56 56 (4816896)
I0403 15:42:48.968163 14209 net.cpp:156] Memory required for data: 245662752
I0403 15:42:48.968181 14209 layer_factory.hpp:77] Creating layer conv2/3x3
I0403 15:42:48.968214 14209 net.cpp:91] Creating Layer conv2/3x3
I0403 15:42:48.968235 14209 net.cpp:425] conv2/3x3 <- conv2/3x3_reduce
I0403 15:42:48.968258 14209 net.cpp:399] conv2/3x3 -> conv2/3x3
I0403 15:42:48.971056 14209 net.cpp:141] Setting up conv2/3x3
I0403 15:42:48.971103 14209 net.cpp:148] Top shape: 24 192 56 56 (14450688)
I0403 15:42:48.971127 14209 net.cpp:156] Memory required for data: 303465504
I0403 15:42:48.971153 14209 layer_factory.hpp:77] Creating layer conv2/relu_3x3
I0403 15:42:48.971177 14209 net.cpp:91] Creating Layer conv2/relu_3x3
I0403 15:42:48.971196 14209 net.cpp:425] conv2/relu_3x3 <- conv2/3x3
I0403 15:42:48.971220 14209 net.cpp:386] conv2/relu_3x3 -> conv2/3x3 (in-place)
I0403 15:42:48.971503 14209 net.cpp:141] Setting up conv2/relu_3x3
I0403 15:42:48.971535 14209 net.cpp:148] Top shape: 24 192 56 56 (14450688)
I0403 15:42:48.971591 14209 net.cpp:156] Memory required for data: 361268256
I0403 15:42:48.971611 14209 layer_factory.hpp:77] Creating layer conv2/norm2
I0403 15:42:48.971635 14209 net.cpp:91] Creating Layer conv2/norm2
I0403 15:42:48.971655 14209 net.cpp:425] conv2/norm2 <- conv2/3x3
I0403 15:42:48.971676 14209 net.cpp:399] conv2/norm2 -> conv2/norm2
I0403 15:42:48.972044 14209 net.cpp:141] Setting up conv2/norm2
I0403 15:42:48.972079 14209 net.cpp:148] Top shape: 24 192 56 56 (14450688)
I0403 15:42:48.972102 14209 net.cpp:156] Memory required for data: 419071008
I0403 15:42:48.972122 14209 layer_factory.hpp:77] Creating layer pool2/3x3_s2
I0403 15:42:48.972148 14209 net.cpp:91] Creating Layer pool2/3x3_s2
I0403 15:42:48.972170 14209 net.cpp:425] pool2/3x3_s2 <- conv2/norm2
I0403 15:42:48.972192 14209 net.cpp:399] pool2/3x3_s2 -> pool2/3x3_s2
I0403 15:42:48.972257 14209 net.cpp:141] Setting up pool2/3x3_s2
I0403 15:42:48.972285 14209 net.cpp:148] Top shape: 24 192 28 28 (3612672)
I0403 15:42:48.972303 14209 net.cpp:156] Memory required for data: 433521696
I0403 15:42:48.972321 14209 layer_factory.hpp:77] Creating layer pool2/3x3_s2_pool2/3x3_s2_0_split
I0403 15:42:48.972342 14209 net.cpp:91] Creating Layer pool2/3x3_s2_pool2/3x3_s2_0_split
I0403 15:42:48.972360 14209 net.cpp:425] pool2/3x3_s2_pool2/3x3_s2_0_split <- pool2/3x3_s2
I0403 15:42:48.972384 14209 net.cpp:399] pool2/3x3_s2_pool2/3x3_s2_0_split -> pool2/3x3_s2_pool2/3x3_s2_0_split_0
I0403 15:42:48.972409 14209 net.cpp:399] pool2/3x3_s2_pool2/3x3_s2_0_split -> pool2/3x3_s2_pool2/3x3_s2_0_split_1
I0403 15:42:48.972434 14209 net.cpp:399] pool2/3x3_s2_pool2/3x3_s2_0_split -> pool2/3x3_s2_pool2/3x3_s2_0_split_2
I0403 15:42:48.972456 14209 net.cpp:399] pool2/3x3_s2_pool2/3x3_s2_0_split -> pool2/3x3_s2_pool2/3x3_s2_0_split_3
I0403 15:42:48.972543 14209 net.cpp:141] Setting up pool2/3x3_s2_pool2/3x3_s2_0_split
I0403 15:42:48.972570 14209 net.cpp:148] Top shape: 24 192 28 28 (3612672)
I0403 15:42:48.972590 14209 net.cpp:148] Top shape: 24 192 28 28 (3612672)
I0403 15:42:48.972609 14209 net.cpp:148] Top shape: 24 192 28 28 (3612672)
I0403 15:42:48.972627 14209 net.cpp:148] Top shape: 24 192 28 28 (3612672)
I0403 15:42:48.972645 14209 net.cpp:156] Memory required for data: 491324448
I0403 15:42:48.972661 14209 layer_factory.hpp:77] Creating layer inception_3a/1x1
I0403 15:42:48.972688 14209 net.cpp:91] Creating Layer inception_3a/1x1
I0403 15:42:48.972710 14209 net.cpp:425] inception_3a/1x1 <- pool2/3x3_s2_pool2/3x3_s2_0_split_0
I0403 15:42:48.972738 14209 net.cpp:399] inception_3a/1x1 -> inception_3a/1x1
I0403 15:42:48.974699 14209 net.cpp:141] Setting up inception_3a/1x1
I0403 15:42:48.974737 14209 net.cpp:148] Top shape: 24 64 28 28 (1204224)
I0403 15:42:48.974758 14209 net.cpp:156] Memory required for data: 496141344
I0403 15:42:48.974781 14209 layer_factory.hpp:77] Creating layer inception_3a/relu_1x1
I0403 15:42:48.974803 14209 net.cpp:91] Creating Layer inception_3a/relu_1x1
I0403 15:42:48.974822 14209 net.cpp:425] inception_3a/relu_1x1 <- inception_3a/1x1
I0403 15:42:48.974841 14209 net.cpp:386] inception_3a/relu_1x1 -> inception_3a/1x1 (in-place)
I0403 15:42:48.975059 14209 net.cpp:141] Setting up inception_3a/relu_1x1
I0403 15:42:48.975097 14209 net.cpp:148] Top shape: 24 64 28 28 (1204224)
I0403 15:42:48.975119 14209 net.cpp:156] Memory required for data: 500958240
I0403 15:42:48.975137 14209 layer_factory.hpp:77] Creating layer inception_3a/3x3_reduce
I0403 15:42:48.975165 14209 net.cpp:91] Creating Layer inception_3a/3x3_reduce
I0403 15:42:48.975186 14209 net.cpp:425] inception_3a/3x3_reduce <- pool2/3x3_s2_pool2/3x3_s2_0_split_1
I0403 15:42:48.975209 14209 net.cpp:399] inception_3a/3x3_reduce -> inception_3a/3x3_reduce
I0403 15:42:48.977210 14209 net.cpp:141] Setting up inception_3a/3x3_reduce
I0403 15:42:48.977247 14209 net.cpp:148] Top shape: 24 96 28 28 (1806336)
I0403 15:42:48.977267 14209 net.cpp:156] Memory required for data: 508183584
I0403 15:42:48.977296 14209 layer_factory.hpp:77] Creating layer inception_3a/relu_3x3_reduce
I0403 15:42:48.977339 14209 net.cpp:91] Creating Layer inception_3a/relu_3x3_reduce
I0403 15:42:48.977361 14209 net.cpp:425] inception_3a/relu_3x3_reduce <- inception_3a/3x3_reduce
I0403 15:42:48.977386 14209 net.cpp:386] inception_3a/relu_3x3_reduce -> inception_3a/3x3_reduce (in-place)
I0403 15:42:48.977607 14209 net.cpp:141] Setting up inception_3a/relu_3x3_reduce
I0403 15:42:48.977638 14209 net.cpp:148] Top shape: 24 96 28 28 (1806336)
I0403 15:42:48.977656 14209 net.cpp:156] Memory required for data: 515408928
I0403 15:42:48.977674 14209 layer_factory.hpp:77] Creating layer inception_3a/3x3
I0403 15:42:48.977701 14209 net.cpp:91] Creating Layer inception_3a/3x3
I0403 15:42:48.977723 14209 net.cpp:425] inception_3a/3x3 <- inception_3a/3x3_reduce
I0403 15:42:48.977751 14209 net.cpp:399] inception_3a/3x3 -> inception_3a/3x3
I0403 15:42:48.979768 14209 net.cpp:141] Setting up inception_3a/3x3
I0403 15:42:48.979805 14209 net.cpp:148] Top shape: 24 128 28 28 (2408448)
I0403 15:42:48.979827 14209 net.cpp:156] Memory required for data: 525042720
I0403 15:42:48.979853 14209 layer_factory.hpp:77] Creating layer inception_3a/relu_3x3
I0403 15:42:48.979876 14209 net.cpp:91] Creating Layer inception_3a/relu_3x3
I0403 15:42:48.979895 14209 net.cpp:425] inception_3a/relu_3x3 <- inception_3a/3x3
I0403 15:42:48.979918 14209 net.cpp:386] inception_3a/relu_3x3 -> inception_3a/3x3 (in-place)
I0403 15:42:48.980263 14209 net.cpp:141] Setting up inception_3a/relu_3x3
I0403 15:42:48.980300 14209 net.cpp:148] Top shape: 24 128 28 28 (2408448)
I0403 15:42:48.980320 14209 net.cpp:156] Memory required for data: 534676512
I0403 15:42:48.980339 14209 layer_factory.hpp:77] Creating layer inception_3a/5x5_reduce
I0403 15:42:48.980365 14209 net.cpp:91] Creating Layer inception_3a/5x5_reduce
I0403 15:42:48.980387 14209 net.cpp:425] inception_3a/5x5_reduce <- pool2/3x3_s2_pool2/3x3_s2_0_split_2
I0403 15:42:48.980413 14209 net.cpp:399] inception_3a/5x5_reduce -> inception_3a/5x5_reduce
I0403 15:42:48.981595 14209 net.cpp:141] Setting up inception_3a/5x5_reduce
I0403 15:42:48.981628 14209 net.cpp:148] Top shape: 24 16 28 28 (301056)
I0403 15:42:48.981647 14209 net.cpp:156] Memory required for data: 535880736
I0403 15:42:48.981668 14209 layer_factory.hpp:77] Creating layer inception_3a/relu_5x5_reduce
I0403 15:42:48.981690 14209 net.cpp:91] Creating Layer inception_3a/relu_5x5_reduce
I0403 15:42:48.981710 14209 net.cpp:425] inception_3a/relu_5x5_reduce <- inception_3a/5x5_reduce
I0403 15:42:48.981735 14209 net.cpp:386] inception_3a/relu_5x5_reduce -> inception_3a/5x5_reduce (in-place)
I0403 15:42:48.982089 14209 net.cpp:141] Setting up inception_3a/relu_5x5_reduce
I0403 15:42:48.982131 14209 net.cpp:148] Top shape: 24 16 28 28 (301056)
I0403 15:42:48.982151 14209 net.cpp:156] Memory required for data: 537084960
I0403 15:42:48.982168 14209 layer_factory.hpp:77] Creating layer inception_3a/5x5
I0403 15:42:48.982197 14209 net.cpp:91] Creating Layer inception_3a/5x5
I0403 15:42:48.982218 14209 net.cpp:425] inception_3a/5x5 <- inception_3a/5x5_reduce
I0403 15:42:48.982244 14209 net.cpp:399] inception_3a/5x5 -> inception_3a/5x5
I0403 15:42:48.983476 14209 net.cpp:141] Setting up inception_3a/5x5
I0403 15:42:48.983513 14209 net.cpp:148] Top shape: 24 32 28 28 (602112)
I0403 15:42:48.983533 14209 net.cpp:156] Memory required for data: 539493408
I0403 15:42:48.983556 14209 layer_factory.hpp:77] Creating layer inception_3a/relu_5x5
I0403 15:42:48.983577 14209 net.cpp:91] Creating Layer inception_3a/relu_5x5
I0403 15:42:48.983597 14209 net.cpp:425] inception_3a/relu_5x5 <- inception_3a/5x5
I0403 15:42:48.983618 14209 net.cpp:386] inception_3a/relu_5x5 -> inception_3a/5x5 (in-place)
I0403 15:42:48.983834 14209 net.cpp:141] Setting up inception_3a/relu_5x5
I0403 15:42:48.983865 14209 net.cpp:148] Top shape: 24 32 28 28 (602112)
I0403 15:42:48.983883 14209 net.cpp:156] Memory required for data: 541901856
I0403 15:42:48.983901 14209 layer_factory.hpp:77] Creating layer inception_3a/pool
I0403 15:42:48.983923 14209 net.cpp:91] Creating Layer inception_3a/pool
I0403 15:42:48.983942 14209 net.cpp:425] inception_3a/pool <- pool2/3x3_s2_pool2/3x3_s2_0_split_3
I0403 15:42:48.983985 14209 net.cpp:399] inception_3a/pool -> inception_3a/pool
I0403 15:42:48.984060 14209 net.cpp:141] Setting up inception_3a/pool
I0403 15:42:48.984091 14209 net.cpp:148] Top shape: 24 192 28 28 (3612672)
I0403 15:42:48.984117 14209 net.cpp:156] Memory required for data: 556352544
I0403 15:42:48.984136 14209 layer_factory.hpp:77] Creating layer inception_3a/pool_proj
I0403 15:42:48.984164 14209 net.cpp:91] Creating Layer inception_3a/pool_proj
I0403 15:42:48.984186 14209 net.cpp:425] inception_3a/pool_proj <- inception_3a/pool
I0403 15:42:48.984210 14209 net.cpp:399] inception_3a/pool_proj -> inception_3a/pool_proj
I0403 15:42:48.985388 14209 net.cpp:141] Setting up inception_3a/pool_proj
I0403 15:42:48.985424 14209 net.cpp:148] Top shape: 24 32 28 28 (602112)
I0403 15:42:48.985442 14209 net.cpp:156] Memory required for data: 558760992
I0403 15:42:48.985471 14209 layer_factory.hpp:77] Creating layer inception_3a/relu_pool_proj
I0403 15:42:48.985497 14209 net.cpp:91] Creating Layer inception_3a/relu_pool_proj
I0403 15:42:48.985517 14209 net.cpp:425] inception_3a/relu_pool_proj <- inception_3a/pool_proj
I0403 15:42:48.985540 14209 net.cpp:386] inception_3a/relu_pool_proj -> inception_3a/pool_proj (in-place)
I0403 15:42:48.985898 14209 net.cpp:141] Setting up inception_3a/relu_pool_proj
I0403 15:42:48.985935 14209 net.cpp:148] Top shape: 24 32 28 28 (602112)
I0403 15:42:48.985955 14209 net.cpp:156] Memory required for data: 561169440
I0403 15:42:48.985975 14209 layer_factory.hpp:77] Creating layer inception_3a/output
I0403 15:42:48.985996 14209 net.cpp:91] Creating Layer inception_3a/output
I0403 15:42:48.986016 14209 net.cpp:425] inception_3a/output <- inception_3a/1x1
I0403 15:42:48.986035 14209 net.cpp:425] inception_3a/output <- inception_3a/3x3
I0403 15:42:48.986053 14209 net.cpp:425] inception_3a/output <- inception_3a/5x5
I0403 15:42:48.986073 14209 net.cpp:425] inception_3a/output <- inception_3a/pool_proj
I0403 15:42:48.986098 14209 net.cpp:399] inception_3a/output -> inception_3a/output
I0403 15:42:48.986160 14209 net.cpp:141] Setting up inception_3a/output
I0403 15:42:48.986188 14209 net.cpp:148] Top shape: 24 256 28 28 (4816896)
I0403 15:42:48.986207 14209 net.cpp:156] Memory required for data: 580437024
I0403 15:42:48.986224 14209 layer_factory.hpp:77] Creating layer inception_3a/output_inception_3a/output_0_split
I0403 15:42:48.986248 14209 net.cpp:91] Creating Layer inception_3a/output_inception_3a/output_0_split
I0403 15:42:48.986268 14209 net.cpp:425] inception_3a/output_inception_3a/output_0_split <- inception_3a/output
I0403 15:42:48.986289 14209 net.cpp:399] inception_3a/output_inception_3a/output_0_split -> inception_3a/output_inception_3a/output_0_split_0
I0403 15:42:48.986312 14209 net.cpp:399] inception_3a/output_inception_3a/output_0_split -> inception_3a/output_inception_3a/output_0_split_1
I0403 15:42:48.986342 14209 net.cpp:399] inception_3a/output_inception_3a/output_0_split -> inception_3a/output_inception_3a/output_0_split_2
I0403 15:42:48.986371 14209 net.cpp:399] inception_3a/output_inception_3a/output_0_split -> inception_3a/output_inception_3a/output_0_split_3
I0403 15:42:48.986461 14209 net.cpp:141] Setting up inception_3a/output_inception_3a/output_0_split
I0403 15:42:48.986488 14209 net.cpp:148] Top shape: 24 256 28 28 (4816896)
I0403 15:42:48.986508 14209 net.cpp:148] Top shape: 24 256 28 28 (4816896)
I0403 15:42:48.986527 14209 net.cpp:148] Top shape: 24 256 28 28 (4816896)
I0403 15:42:48.986546 14209 net.cpp:148] Top shape: 24 256 28 28 (4816896)
I0403 15:42:48.986562 14209 net.cpp:156] Memory required for data: 657507360
I0403 15:42:48.986579 14209 layer_factory.hpp:77] Creating layer inception_3b/1x1
I0403 15:42:48.986608 14209 net.cpp:91] Creating Layer inception_3b/1x1
I0403 15:42:48.986629 14209 net.cpp:425] inception_3b/1x1 <- inception_3a/output_inception_3a/output_0_split_0
I0403 15:42:48.986651 14209 net.cpp:399] inception_3b/1x1 -> inception_3b/1x1
I0403 15:42:48.988034 14209 net.cpp:141] Setting up inception_3b/1x1
I0403 15:42:48.988081 14209 net.cpp:148] Top shape: 24 128 28 28 (2408448)
I0403 15:42:48.988107 14209 net.cpp:156] Memory required for data: 667141152
I0403 15:42:48.988131 14209 layer_factory.hpp:77] Creating layer inception_3b/relu_1x1
I0403 15:42:48.988157 14209 net.cpp:91] Creating Layer inception_3b/relu_1x1
I0403 15:42:48.988178 14209 net.cpp:425] inception_3b/relu_1x1 <- inception_3b/1x1
I0403 15:42:48.988198 14209 net.cpp:386] inception_3b/relu_1x1 -> inception_3b/1x1 (in-place)
I0403 15:42:48.988420 14209 net.cpp:141] Setting up inception_3b/relu_1x1
I0403 15:42:48.988454 14209 net.cpp:148] Top shape: 24 128 28 28 (2408448)
I0403 15:42:48.988473 14209 net.cpp:156] Memory required for data: 676774944
I0403 15:42:48.988492 14209 layer_factory.hpp:77] Creating layer inception_3b/3x3_reduce
I0403 15:42:48.988518 14209 net.cpp:91] Creating Layer inception_3b/3x3_reduce
I0403 15:42:48.988541 14209 net.cpp:425] inception_3b/3x3_reduce <- inception_3a/output_inception_3a/output_0_split_1
I0403 15:42:48.988565 14209 net.cpp:399] inception_3b/3x3_reduce -> inception_3b/3x3_reduce
I0403 15:42:48.989940 14209 net.cpp:141] Setting up inception_3b/3x3_reduce
I0403 15:42:48.989975 14209 net.cpp:148] Top shape: 24 128 28 28 (2408448)
I0403 15:42:48.989995 14209 net.cpp:156] Memory required for data: 686408736
I0403 15:42:48.990015 14209 layer_factory.hpp:77] Creating layer inception_3b/relu_3x3_reduce
I0403 15:42:48.990041 14209 net.cpp:91] Creating Layer inception_3b/relu_3x3_reduce
I0403 15:42:48.990061 14209 net.cpp:425] inception_3b/relu_3x3_reduce <- inception_3b/3x3_reduce
I0403 15:42:48.990082 14209 net.cpp:386] inception_3b/relu_3x3_reduce -> inception_3b/3x3_reduce (in-place)
I0403 15:42:48.990303 14209 net.cpp:141] Setting up inception_3b/relu_3x3_reduce
I0403 15:42:48.990339 14209 net.cpp:148] Top shape: 24 128 28 28 (2408448)
I0403 15:42:48.990357 14209 net.cpp:156] Memory required for data: 696042528
I0403 15:42:48.990376 14209 layer_factory.hpp:77] Creating layer inception_3b/3x3
I0403 15:42:48.990406 14209 net.cpp:91] Creating Layer inception_3b/3x3
I0403 15:42:48.990427 14209 net.cpp:425] inception_3b/3x3 <- inception_3b/3x3_reduce
I0403 15:42:48.990454 14209 net.cpp:399] inception_3b/3x3 -> inception_3b/3x3
I0403 15:42:48.993988 14209 net.cpp:141] Setting up inception_3b/3x3
I0403 15:42:48.994029 14209 net.cpp:148] Top shape: 24 192 28 28 (3612672)
I0403 15:42:48.994050 14209 net.cpp:156] Memory required for data: 710493216
I0403 15:42:48.994071 14209 layer_factory.hpp:77] Creating layer inception_3b/relu_3x3
I0403 15:42:48.994098 14209 net.cpp:91] Creating Layer inception_3b/relu_3x3
I0403 15:42:48.994122 14209 net.cpp:425] inception_3b/relu_3x3 <- inception_3b/3x3
I0403 15:42:48.994143 14209 net.cpp:386] inception_3b/relu_3x3 -> inception_3b/3x3 (in-place)
I0403 15:42:48.994488 14209 net.cpp:141] Setting up inception_3b/relu_3x3
I0403 15:42:48.994524 14209 net.cpp:148] Top shape: 24 192 28 28 (3612672)
I0403 15:42:48.994544 14209 net.cpp:156] Memory required for data: 724943904
I0403 15:42:48.994561 14209 layer_factory.hpp:77] Creating layer inception_3b/5x5_reduce
I0403 15:42:48.994588 14209 net.cpp:91] Creating Layer inception_3b/5x5_reduce
I0403 15:42:48.994611 14209 net.cpp:425] inception_3b/5x5_reduce <- inception_3a/output_inception_3a/output_0_split_2
I0403 15:42:48.994634 14209 net.cpp:399] inception_3b/5x5_reduce -> inception_3b/5x5_reduce
I0403 15:42:48.995857 14209 net.cpp:141] Setting up inception_3b/5x5_reduce
I0403 15:42:48.995895 14209 net.cpp:148] Top shape: 24 32 28 28 (602112)
I0403 15:42:48.995915 14209 net.cpp:156] Memory required for data: 727352352
I0403 15:42:48.995939 14209 layer_factory.hpp:77] Creating layer inception_3b/relu_5x5_reduce
I0403 15:42:48.995960 14209 net.cpp:91] Creating Layer inception_3b/relu_5x5_reduce
I0403 15:42:48.995980 14209 net.cpp:425] inception_3b/relu_5x5_reduce <- inception_3b/5x5_reduce
I0403 15:42:48.996000 14209 net.cpp:386] inception_3b/relu_5x5_reduce -> inception_3b/5x5_reduce (in-place)
I0403 15:42:48.996230 14209 net.cpp:141] Setting up inception_3b/relu_5x5_reduce
I0403 15:42:48.996276 14209 net.cpp:148] Top shape: 24 32 28 28 (602112)
I0403 15:42:48.996295 14209 net.cpp:156] Memory required for data: 729760800
I0403 15:42:48.996314 14209 layer_factory.hpp:77] Creating layer inception_3b/5x5
I0403 15:42:48.996341 14209 net.cpp:91] Creating Layer inception_3b/5x5
I0403 15:42:48.996364 14209 net.cpp:425] inception_3b/5x5 <- inception_3b/5x5_reduce
I0403 15:42:48.996390 14209 net.cpp:399] inception_3b/5x5 -> inception_3b/5x5
I0403 15:42:48.998767 14209 net.cpp:141] Setting up inception_3b/5x5
I0403 15:42:48.998805 14209 net.cpp:148] Top shape: 24 96 28 28 (1806336)
I0403 15:42:48.998824 14209 net.cpp:156] Memory required for data: 736986144
I0403 15:42:48.998847 14209 layer_factory.hpp:77] Creating layer inception_3b/relu_5x5
I0403 15:42:48.998872 14209 net.cpp:91] Creating Layer inception_3b/relu_5x5
I0403 15:42:48.998893 14209 net.cpp:425] inception_3b/relu_5x5 <- inception_3b/5x5
I0403 15:42:48.998914 14209 net.cpp:386] inception_3b/relu_5x5 -> inception_3b/5x5 (in-place)
I0403 15:42:48.999155 14209 net.cpp:141] Setting up inception_3b/relu_5x5
I0403 15:42:48.999188 14209 net.cpp:148] Top shape: 24 96 28 28 (1806336)
I0403 15:42:48.999207 14209 net.cpp:156] Memory required for data: 744211488
I0403 15:42:48.999225 14209 layer_factory.hpp:77] Creating layer inception_3b/pool
I0403 15:42:48.999246 14209 net.cpp:91] Creating Layer inception_3b/pool
I0403 15:42:48.999266 14209 net.cpp:425] inception_3b/pool <- inception_3a/output_inception_3a/output_0_split_3
I0403 15:42:48.999287 14209 net.cpp:399] inception_3b/pool -> inception_3b/pool
I0403 15:42:48.999354 14209 net.cpp:141] Setting up inception_3b/pool
I0403 15:42:48.999383 14209 net.cpp:148] Top shape: 24 256 28 28 (4816896)
I0403 15:42:48.999402 14209 net.cpp:156] Memory required for data: 763479072
I0403 15:42:48.999419 14209 layer_factory.hpp:77] Creating layer inception_3b/pool_proj
I0403 15:42:48.999447 14209 net.cpp:91] Creating Layer inception_3b/pool_proj
I0403 15:42:48.999470 14209 net.cpp:425] inception_3b/pool_proj <- inception_3b/pool
I0403 15:42:48.999496 14209 net.cpp:399] inception_3b/pool_proj -> inception_3b/pool_proj
I0403 15:42:49.000788 14209 net.cpp:141] Setting up inception_3b/pool_proj
I0403 15:42:49.000823 14209 net.cpp:148] Top shape: 24 64 28 28 (1204224)
I0403 15:42:49.000843 14209 net.cpp:156] Memory required for data: 768295968
I0403 15:42:49.000864 14209 layer_factory.hpp:77] Creating layer inception_3b/relu_pool_proj
I0403 15:42:49.000890 14209 net.cpp:91] Creating Layer inception_3b/relu_pool_proj
I0403 15:42:49.000911 14209 net.cpp:425] inception_3b/relu_pool_proj <- inception_3b/pool_proj
I0403 15:42:49.000932 14209 net.cpp:386] inception_3b/relu_pool_proj -> inception_3b/pool_proj (in-place)
I0403 15:42:49.001402 14209 net.cpp:141] Setting up inception_3b/relu_pool_proj
I0403 15:42:49.001435 14209 net.cpp:148] Top shape: 24 64 28 28 (1204224)
I0403 15:42:49.001454 14209 net.cpp:156] Memory required for data: 773112864
I0403 15:42:49.001473 14209 layer_factory.hpp:77] Creating layer inception_3b/output
I0403 15:42:49.001494 14209 net.cpp:91] Creating Layer inception_3b/output
I0403 15:42:49.001513 14209 net.cpp:425] inception_3b/output <- inception_3b/1x1
I0403 15:42:49.001533 14209 net.cpp:425] inception_3b/output <- inception_3b/3x3
I0403 15:42:49.001551 14209 net.cpp:425] inception_3b/output <- inception_3b/5x5
I0403 15:42:49.001570 14209 net.cpp:425] inception_3b/output <- inception_3b/pool_proj
I0403 15:42:49.001595 14209 net.cpp:399] inception_3b/output -> inception_3b/output
I0403 15:42:49.001648 14209 net.cpp:141] Setting up inception_3b/output
I0403 15:42:49.001680 14209 net.cpp:148] Top shape: 24 480 28 28 (9031680)
I0403 15:42:49.001699 14209 net.cpp:156] Memory required for data: 809239584
I0403 15:42:49.001716 14209 layer_factory.hpp:77] Creating layer pool3/3x3_s2
I0403 15:42:49.001737 14209 net.cpp:91] Creating Layer pool3/3x3_s2
I0403 15:42:49.001756 14209 net.cpp:425] pool3/3x3_s2 <- inception_3b/output
I0403 15:42:49.001777 14209 net.cpp:399] pool3/3x3_s2 -> pool3/3x3_s2
I0403 15:42:49.001868 14209 net.cpp:141] Setting up pool3/3x3_s2
I0403 15:42:49.001898 14209 net.cpp:148] Top shape: 24 480 14 14 (2257920)
I0403 15:42:49.001916 14209 net.cpp:156] Memory required for data: 818271264
I0403 15:42:49.001935 14209 layer_factory.hpp:77] Creating layer pool3/3x3_s2_pool3/3x3_s2_0_split
I0403 15:42:49.001955 14209 net.cpp:91] Creating Layer pool3/3x3_s2_pool3/3x3_s2_0_split
I0403 15:42:49.001972 14209 net.cpp:425] pool3/3x3_s2_pool3/3x3_s2_0_split <- pool3/3x3_s2
I0403 15:42:49.001996 14209 net.cpp:399] pool3/3x3_s2_pool3/3x3_s2_0_split -> pool3/3x3_s2_pool3/3x3_s2_0_split_0
I0403 15:42:49.002020 14209 net.cpp:399] pool3/3x3_s2_pool3/3x3_s2_0_split -> pool3/3x3_s2_pool3/3x3_s2_0_split_1
I0403 15:42:49.002044 14209 net.cpp:399] pool3/3x3_s2_pool3/3x3_s2_0_split -> pool3/3x3_s2_pool3/3x3_s2_0_split_2
I0403 15:42:49.002070 14209 net.cpp:399] pool3/3x3_s2_pool3/3x3_s2_0_split -> pool3/3x3_s2_pool3/3x3_s2_0_split_3
I0403 15:42:49.002171 14209 net.cpp:141] Setting up pool3/3x3_s2_pool3/3x3_s2_0_split
I0403 15:42:49.002200 14209 net.cpp:148] Top shape: 24 480 14 14 (2257920)
I0403 15:42:49.002219 14209 net.cpp:148] Top shape: 24 480 14 14 (2257920)
I0403 15:42:49.002238 14209 net.cpp:148] Top shape: 24 480 14 14 (2257920)
I0403 15:42:49.002255 14209 net.cpp:148] Top shape: 24 480 14 14 (2257920)
I0403 15:42:49.002271 14209 net.cpp:156] Memory required for data: 854397984
I0403 15:42:49.002290 14209 layer_factory.hpp:77] Creating layer inception_4a/1x1
I0403 15:42:49.002316 14209 net.cpp:91] Creating Layer inception_4a/1x1
I0403 15:42:49.002337 14209 net.cpp:425] inception_4a/1x1 <- pool3/3x3_s2_pool3/3x3_s2_0_split_0
I0403 15:42:49.002363 14209 net.cpp:399] inception_4a/1x1 -> inception_4a/1x1
I0403 15:42:49.004300 14209 net.cpp:141] Setting up inception_4a/1x1
I0403 15:42:49.004335 14209 net.cpp:148] Top shape: 24 192 14 14 (903168)
I0403 15:42:49.004354 14209 net.cpp:156] Memory required for data: 858010656
I0403 15:42:49.004376 14209 layer_factory.hpp:77] Creating layer inception_4a/relu_1x1
I0403 15:42:49.004401 14209 net.cpp:91] Creating Layer inception_4a/relu_1x1
I0403 15:42:49.004422 14209 net.cpp:425] inception_4a/relu_1x1 <- inception_4a/1x1
I0403 15:42:49.004443 14209 net.cpp:386] inception_4a/relu_1x1 -> inception_4a/1x1 (in-place)
I0403 15:42:49.004660 14209 net.cpp:141] Setting up inception_4a/relu_1x1
I0403 15:42:49.004693 14209 net.cpp:148] Top shape: 24 192 14 14 (903168)
I0403 15:42:49.004710 14209 net.cpp:156] Memory required for data: 861623328
I0403 15:42:49.004727 14209 layer_factory.hpp:77] Creating layer inception_4a/3x3_reduce
I0403 15:42:49.004758 14209 net.cpp:91] Creating Layer inception_4a/3x3_reduce
I0403 15:42:49.004781 14209 net.cpp:425] inception_4a/3x3_reduce <- pool3/3x3_s2_pool3/3x3_s2_0_split_1
I0403 15:42:49.004804 14209 net.cpp:399] inception_4a/3x3_reduce -> inception_4a/3x3_reduce
I0403 15:42:49.006386 14209 net.cpp:141] Setting up inception_4a/3x3_reduce
I0403 15:42:49.006420 14209 net.cpp:148] Top shape: 24 96 14 14 (451584)
I0403 15:42:49.006439 14209 net.cpp:156] Memory required for data: 863429664
I0403 15:42:49.006469 14209 layer_factory.hpp:77] Creating layer inception_4a/relu_3x3_reduce
I0403 15:42:49.006494 14209 net.cpp:91] Creating Layer inception_4a/relu_3x3_reduce
I0403 15:42:49.006513 14209 net.cpp:425] inception_4a/relu_3x3_reduce <- inception_4a/3x3_reduce
I0403 15:42:49.006537 14209 net.cpp:386] inception_4a/relu_3x3_reduce -> inception_4a/3x3_reduce (in-place)
I0403 15:42:49.006759 14209 net.cpp:141] Setting up inception_4a/relu_3x3_reduce
I0403 15:42:49.006790 14209 net.cpp:148] Top shape: 24 96 14 14 (451584)
I0403 15:42:49.006809 14209 net.cpp:156] Memory required for data: 865236000
I0403 15:42:49.006826 14209 layer_factory.hpp:77] Creating layer inception_4a/3x3
I0403 15:42:49.006853 14209 net.cpp:91] Creating Layer inception_4a/3x3
I0403 15:42:49.006875 14209 net.cpp:425] inception_4a/3x3 <- inception_4a/3x3_reduce
I0403 15:42:49.006901 14209 net.cpp:399] inception_4a/3x3 -> inception_4a/3x3
I0403 15:42:49.010154 14209 net.cpp:141] Setting up inception_4a/3x3
I0403 15:42:49.010191 14209 net.cpp:148] Top shape: 24 208 14 14 (978432)
I0403 15:42:49.010211 14209 net.cpp:156] Memory required for data: 869149728
I0403 15:42:49.010234 14209 layer_factory.hpp:77] Creating layer inception_4a/relu_3x3
I0403 15:42:49.010260 14209 net.cpp:91] Creating Layer inception_4a/relu_3x3
I0403 15:42:49.010280 14209 net.cpp:425] inception_4a/relu_3x3 <- inception_4a/3x3
I0403 15:42:49.010301 14209 net.cpp:386] inception_4a/relu_3x3 -> inception_4a/3x3 (in-place)
I0403 15:42:49.010640 14209 net.cpp:141] Setting up inception_4a/relu_3x3
I0403 15:42:49.010674 14209 net.cpp:148] Top shape: 24 208 14 14 (978432)
I0403 15:42:49.010692 14209 net.cpp:156] Memory required for data: 873063456
I0403 15:42:49.010711 14209 layer_factory.hpp:77] Creating layer inception_4a/5x5_reduce
I0403 15:42:49.010740 14209 net.cpp:91] Creating Layer inception_4a/5x5_reduce
I0403 15:42:49.010761 14209 net.cpp:425] inception_4a/5x5_reduce <- pool3/3x3_s2_pool3/3x3_s2_0_split_2
I0403 15:42:49.010788 14209 net.cpp:399] inception_4a/5x5_reduce -> inception_4a/5x5_reduce
I0403 15:42:49.012045 14209 net.cpp:141] Setting up inception_4a/5x5_reduce
I0403 15:42:49.012084 14209 net.cpp:148] Top shape: 24 16 14 14 (75264)
I0403 15:42:49.012109 14209 net.cpp:156] Memory required for data: 873364512
I0403 15:42:49.012133 14209 layer_factory.hpp:77] Creating layer inception_4a/relu_5x5_reduce
I0403 15:42:49.012154 14209 net.cpp:91] Creating Layer inception_4a/relu_5x5_reduce
I0403 15:42:49.012176 14209 net.cpp:425] inception_4a/relu_5x5_reduce <- inception_4a/5x5_reduce
I0403 15:42:49.012197 14209 net.cpp:386] inception_4a/relu_5x5_reduce -> inception_4a/5x5_reduce (in-place)
I0403 15:42:49.012418 14209 net.cpp:141] Setting up inception_4a/relu_5x5_reduce
I0403 15:42:49.012447 14209 net.cpp:148] Top shape: 24 16 14 14 (75264)
I0403 15:42:49.012465 14209 net.cpp:156] Memory required for data: 873665568
I0403 15:42:49.012482 14209 layer_factory.hpp:77] Creating layer inception_4a/5x5
I0403 15:42:49.012509 14209 net.cpp:91] Creating Layer inception_4a/5x5
I0403 15:42:49.012532 14209 net.cpp:425] inception_4a/5x5 <- inception_4a/5x5_reduce
I0403 15:42:49.012558 14209 net.cpp:399] inception_4a/5x5 -> inception_4a/5x5
I0403 15:42:49.013888 14209 net.cpp:141] Setting up inception_4a/5x5
I0403 15:42:49.013922 14209 net.cpp:148] Top shape: 24 48 14 14 (225792)
I0403 15:42:49.013942 14209 net.cpp:156] Memory required for data: 874568736
I0403 15:42:49.013964 14209 layer_factory.hpp:77] Creating layer inception_4a/relu_5x5
I0403 15:42:49.013986 14209 net.cpp:91] Creating Layer inception_4a/relu_5x5
I0403 15:42:49.014008 14209 net.cpp:425] inception_4a/relu_5x5 <- inception_4a/5x5
I0403 15:42:49.014031 14209 net.cpp:386] inception_4a/relu_5x5 -> inception_4a/5x5 (in-place)
I0403 15:42:49.014256 14209 net.cpp:141] Setting up inception_4a/relu_5x5
I0403 15:42:49.014287 14209 net.cpp:148] Top shape: 24 48 14 14 (225792)
I0403 15:42:49.014305 14209 net.cpp:156] Memory required for data: 875471904
I0403 15:42:49.014324 14209 layer_factory.hpp:77] Creating layer inception_4a/pool
I0403 15:42:49.014348 14209 net.cpp:91] Creating Layer inception_4a/pool
I0403 15:42:49.014369 14209 net.cpp:425] inception_4a/pool <- pool3/3x3_s2_pool3/3x3_s2_0_split_3
I0403 15:42:49.014391 14209 net.cpp:399] inception_4a/pool -> inception_4a/pool
I0403 15:42:49.014467 14209 net.cpp:141] Setting up inception_4a/pool
I0403 15:42:49.014495 14209 net.cpp:148] Top shape: 24 480 14 14 (2257920)
I0403 15:42:49.014513 14209 net.cpp:156] Memory required for data: 884503584
I0403 15:42:49.014530 14209 layer_factory.hpp:77] Creating layer inception_4a/pool_proj
I0403 15:42:49.014557 14209 net.cpp:91] Creating Layer inception_4a/pool_proj
I0403 15:42:49.014578 14209 net.cpp:425] inception_4a/pool_proj <- inception_4a/pool
I0403 15:42:49.014605 14209 net.cpp:399] inception_4a/pool_proj -> inception_4a/pool_proj
I0403 15:42:49.016024 14209 net.cpp:141] Setting up inception_4a/pool_proj
I0403 15:42:49.016059 14209 net.cpp:148] Top shape: 24 64 14 14 (301056)
I0403 15:42:49.016101 14209 net.cpp:156] Memory required for data: 885707808
I0403 15:42:49.016127 14209 layer_factory.hpp:77] Creating layer inception_4a/relu_pool_proj
I0403 15:42:49.016155 14209 net.cpp:91] Creating Layer inception_4a/relu_pool_proj
I0403 15:42:49.016177 14209 net.cpp:425] inception_4a/relu_pool_proj <- inception_4a/pool_proj
I0403 15:42:49.016198 14209 net.cpp:386] inception_4a/relu_pool_proj -> inception_4a/pool_proj (in-place)
I0403 15:42:49.016540 14209 net.cpp:141] Setting up inception_4a/relu_pool_proj
I0403 15:42:49.016572 14209 net.cpp:148] Top shape: 24 64 14 14 (301056)
I0403 15:42:49.016592 14209 net.cpp:156] Memory required for data: 886912032
I0403 15:42:49.016609 14209 layer_factory.hpp:77] Creating layer inception_4a/output
I0403 15:42:49.016630 14209 net.cpp:91] Creating Layer inception_4a/output
I0403 15:42:49.016649 14209 net.cpp:425] inception_4a/output <- inception_4a/1x1
I0403 15:42:49.016669 14209 net.cpp:425] inception_4a/output <- inception_4a/3x3
I0403 15:42:49.016688 14209 net.cpp:425] inception_4a/output <- inception_4a/5x5
I0403 15:42:49.016707 14209 net.cpp:425] inception_4a/output <- inception_4a/pool_proj
I0403 15:42:49.016731 14209 net.cpp:399] inception_4a/output -> inception_4a/output
I0403 15:42:49.016785 14209 net.cpp:141] Setting up inception_4a/output
I0403 15:42:49.016819 14209 net.cpp:148] Top shape: 24 512 14 14 (2408448)
I0403 15:42:49.016835 14209 net.cpp:156] Memory required for data: 896545824
I0403 15:42:49.016854 14209 layer_factory.hpp:77] Creating layer inception_4a/output_inception_4a/output_0_split
I0403 15:42:49.016875 14209 net.cpp:91] Creating Layer inception_4a/output_inception_4a/output_0_split
I0403 15:42:49.016893 14209 net.cpp:425] inception_4a/output_inception_4a/output_0_split <- inception_4a/output
I0403 15:42:49.016917 14209 net.cpp:399] inception_4a/output_inception_4a/output_0_split -> inception_4a/output_inception_4a/output_0_split_0
I0403 15:42:49.016943 14209 net.cpp:399] inception_4a/output_inception_4a/output_0_split -> inception_4a/output_inception_4a/output_0_split_1
I0403 15:42:49.016969 14209 net.cpp:399] inception_4a/output_inception_4a/output_0_split -> inception_4a/output_inception_4a/output_0_split_2
I0403 15:42:49.016994 14209 net.cpp:399] inception_4a/output_inception_4a/output_0_split -> inception_4a/output_inception_4a/output_0_split_3
I0403 15:42:49.017019 14209 net.cpp:399] inception_4a/output_inception_4a/output_0_split -> inception_4a/output_inception_4a/output_0_split_4
I0403 15:42:49.017139 14209 net.cpp:141] Setting up inception_4a/output_inception_4a/output_0_split
I0403 15:42:49.017171 14209 net.cpp:148] Top shape: 24 512 14 14 (2408448)
I0403 15:42:49.017192 14209 net.cpp:148] Top shape: 24 512 14 14 (2408448)
I0403 15:42:49.017211 14209 net.cpp:148] Top shape: 24 512 14 14 (2408448)
I0403 15:42:49.017231 14209 net.cpp:148] Top shape: 24 512 14 14 (2408448)
I0403 15:42:49.017249 14209 net.cpp:148] Top shape: 24 512 14 14 (2408448)
I0403 15:42:49.017266 14209 net.cpp:156] Memory required for data: 944714784
I0403 15:42:49.017284 14209 layer_factory.hpp:77] Creating layer loss1/ave_pool
I0403 15:42:49.017305 14209 net.cpp:91] Creating Layer loss1/ave_pool
I0403 15:42:49.017324 14209 net.cpp:425] loss1/ave_pool <- inception_4a/output_inception_4a/output_0_split_0
I0403 15:42:49.017345 14209 net.cpp:399] loss1/ave_pool -> loss1/ave_pool
I0403 15:42:49.017596 14209 net.cpp:141] Setting up loss1/ave_pool
I0403 15:42:49.017628 14209 net.cpp:148] Top shape: 24 512 4 4 (196608)
I0403 15:42:49.017647 14209 net.cpp:156] Memory required for data: 945501216
I0403 15:42:49.017666 14209 layer_factory.hpp:77] Creating layer loss1/conv
I0403 15:42:49.017693 14209 net.cpp:91] Creating Layer loss1/conv
I0403 15:42:49.017715 14209 net.cpp:425] loss1/conv <- loss1/ave_pool
I0403 15:42:49.017740 14209 net.cpp:399] loss1/conv -> loss1/conv
I0403 15:42:49.019462 14209 net.cpp:141] Setting up loss1/conv
I0403 15:42:49.019497 14209 net.cpp:148] Top shape: 24 128 4 4 (49152)
I0403 15:42:49.019521 14209 net.cpp:156] Memory required for data: 945697824
I0403 15:42:49.019565 14209 layer_factory.hpp:77] Creating layer loss1/relu_conv
I0403 15:42:49.019590 14209 net.cpp:91] Creating Layer loss1/relu_conv
I0403 15:42:49.019609 14209 net.cpp:425] loss1/relu_conv <- loss1/conv
I0403 15:42:49.019631 14209 net.cpp:386] loss1/relu_conv -> loss1/conv (in-place)
I0403 15:42:49.019968 14209 net.cpp:141] Setting up loss1/relu_conv
I0403 15:42:49.020001 14209 net.cpp:148] Top shape: 24 128 4 4 (49152)
I0403 15:42:49.020026 14209 net.cpp:156] Memory required for data: 945894432
I0403 15:42:49.020045 14209 layer_factory.hpp:77] Creating layer loss1/fc
I0403 15:42:49.020073 14209 net.cpp:91] Creating Layer loss1/fc
I0403 15:42:49.020102 14209 net.cpp:425] loss1/fc <- loss1/conv
I0403 15:42:49.020131 14209 net.cpp:399] loss1/fc -> loss1/fc
I0403 15:42:49.042071 14209 net.cpp:141] Setting up loss1/fc
I0403 15:42:49.042124 14209 net.cpp:148] Top shape: 24 1024 (24576)
I0403 15:42:49.042145 14209 net.cpp:156] Memory required for data: 945992736
I0403 15:42:49.042171 14209 layer_factory.hpp:77] Creating layer loss1/relu_fc
I0403 15:42:49.042196 14209 net.cpp:91] Creating Layer loss1/relu_fc
I0403 15:42:49.042217 14209 net.cpp:425] loss1/relu_fc <- loss1/fc
I0403 15:42:49.042239 14209 net.cpp:386] loss1/relu_fc -> loss1/fc (in-place)
I0403 15:42:49.042481 14209 net.cpp:141] Setting up loss1/relu_fc
I0403 15:42:49.042511 14209 net.cpp:148] Top shape: 24 1024 (24576)
I0403 15:42:49.042531 14209 net.cpp:156] Memory required for data: 946091040
I0403 15:42:49.042547 14209 layer_factory.hpp:77] Creating layer loss1/drop_fc
I0403 15:42:49.042582 14209 net.cpp:91] Creating Layer loss1/drop_fc
I0403 15:42:49.042603 14209 net.cpp:425] loss1/drop_fc <- loss1/fc
I0403 15:42:49.042625 14209 net.cpp:386] loss1/drop_fc -> loss1/fc (in-place)
I0403 15:42:49.042688 14209 net.cpp:141] Setting up loss1/drop_fc
I0403 15:42:49.042719 14209 net.cpp:148] Top shape: 24 1024 (24576)
I0403 15:42:49.042739 14209 net.cpp:156] Memory required for data: 946189344
I0403 15:42:49.042757 14209 layer_factory.hpp:77] Creating layer loss1/classifier_plantvillage
I0403 15:42:49.042891 14209 net.cpp:91] Creating Layer loss1/classifier_plantvillage
I0403 15:42:49.042914 14209 net.cpp:425] loss1/classifier_plantvillage <- loss1/fc
I0403 15:42:49.042943 14209 net.cpp:399] loss1/classifier_plantvillage -> loss1/classifier_plantvillage
I0403 15:42:49.044045 14209 net.cpp:141] Setting up loss1/classifier_plantvillage
I0403 15:42:49.044085 14209 net.cpp:148] Top shape: 24 38 (912)
I0403 15:42:49.044111 14209 net.cpp:156] Memory required for data: 946192992
I0403 15:42:49.044133 14209 layer_factory.hpp:77] Creating layer loss1/classifier_plantvillage_loss1/classifier_plantvillage_0_split
I0403 15:42:49.044155 14209 net.cpp:91] Creating Layer loss1/classifier_plantvillage_loss1/classifier_plantvillage_0_split
I0403 15:42:49.044175 14209 net.cpp:425] loss1/classifier_plantvillage_loss1/classifier_plantvillage_0_split <- loss1/classifier_plantvillage
I0403 15:42:49.044198 14209 net.cpp:399] loss1/classifier_plantvillage_loss1/classifier_plantvillage_0_split -> loss1/classifier_plantvillage_loss1/classifier_plantvillage_0_split_0
I0403 15:42:49.044221 14209 net.cpp:399] loss1/classifier_plantvillage_loss1/classifier_plantvillage_0_split -> loss1/classifier_plantvillage_loss1/classifier_plantvillage_0_split_1
I0403 15:42:49.044247 14209 net.cpp:399] loss1/classifier_plantvillage_loss1/classifier_plantvillage_0_split -> loss1/classifier_plantvillage_loss1/classifier_plantvillage_0_split_2
I0403 15:42:49.044330 14209 net.cpp:141] Setting up loss1/classifier_plantvillage_loss1/classifier_plantvillage_0_split
I0403 15:42:49.044359 14209 net.cpp:148] Top shape: 24 38 (912)
I0403 15:42:49.044378 14209 net.cpp:148] Top shape: 24 38 (912)
I0403 15:42:49.044399 14209 net.cpp:148] Top shape: 24 38 (912)
I0403 15:42:49.044415 14209 net.cpp:156] Memory required for data: 946203936
I0403 15:42:49.044432 14209 layer_factory.hpp:77] Creating layer inception_4b/1x1
I0403 15:42:49.044456 14209 net.cpp:91] Creating Layer inception_4b/1x1
I0403 15:42:49.044498 14209 net.cpp:425] inception_4b/1x1 <- inception_4a/output_inception_4a/output_0_split_1
I0403 15:42:49.044526 14209 net.cpp:399] inception_4b/1x1 -> inception_4b/1x1
I0403 15:42:49.046546 14209 net.cpp:141] Setting up inception_4b/1x1
I0403 15:42:49.046586 14209 net.cpp:148] Top shape: 24 160 14 14 (752640)
I0403 15:42:49.046607 14209 net.cpp:156] Memory required for data: 949214496
I0403 15:42:49.046629 14209 layer_factory.hpp:77] Creating layer inception_4b/relu_1x1
I0403 15:42:49.046650 14209 net.cpp:91] Creating Layer inception_4b/relu_1x1
I0403 15:42:49.046670 14209 net.cpp:425] inception_4b/relu_1x1 <- inception_4b/1x1
I0403 15:42:49.046692 14209 net.cpp:386] inception_4b/relu_1x1 -> inception_4b/1x1 (in-place)
I0403 15:42:49.046914 14209 net.cpp:141] Setting up inception_4b/relu_1x1
I0403 15:42:49.046948 14209 net.cpp:148] Top shape: 24 160 14 14 (752640)
I0403 15:42:49.046967 14209 net.cpp:156] Memory required for data: 952225056
I0403 15:42:49.046984 14209 layer_factory.hpp:77] Creating layer inception_4b/3x3_reduce
I0403 15:42:49.047013 14209 net.cpp:91] Creating Layer inception_4b/3x3_reduce
I0403 15:42:49.047034 14209 net.cpp:425] inception_4b/3x3_reduce <- inception_4a/output_inception_4a/output_0_split_2
I0403 15:42:49.047061 14209 net.cpp:399] inception_4b/3x3_reduce -> inception_4b/3x3_reduce
I0403 15:42:49.048707 14209 net.cpp:141] Setting up inception_4b/3x3_reduce
I0403 15:42:49.048744 14209 net.cpp:148] Top shape: 24 112 14 14 (526848)
I0403 15:42:49.048766 14209 net.cpp:156] Memory required for data: 954332448
I0403 15:42:49.048789 14209 layer_factory.hpp:77] Creating layer inception_4b/relu_3x3_reduce
I0403 15:42:49.048810 14209 net.cpp:91] Creating Layer inception_4b/relu_3x3_reduce
I0403 15:42:49.048830 14209 net.cpp:425] inception_4b/relu_3x3_reduce <- inception_4b/3x3_reduce
I0403 15:42:49.048853 14209 net.cpp:386] inception_4b/relu_3x3_reduce -> inception_4b/3x3_reduce (in-place)
I0403 15:42:49.049201 14209 net.cpp:141] Setting up inception_4b/relu_3x3_reduce
I0403 15:42:49.049237 14209 net.cpp:148] Top shape: 24 112 14 14 (526848)
I0403 15:42:49.049255 14209 net.cpp:156] Memory required for data: 956439840
I0403 15:42:49.049273 14209 layer_factory.hpp:77] Creating layer inception_4b/3x3
I0403 15:42:49.049300 14209 net.cpp:91] Creating Layer inception_4b/3x3
I0403 15:42:49.049322 14209 net.cpp:425] inception_4b/3x3 <- inception_4b/3x3_reduce
I0403 15:42:49.049345 14209 net.cpp:399] inception_4b/3x3 -> inception_4b/3x3
I0403 15:42:49.052965 14209 net.cpp:141] Setting up inception_4b/3x3
I0403 15:42:49.053001 14209 net.cpp:148] Top shape: 24 224 14 14 (1053696)
I0403 15:42:49.053021 14209 net.cpp:156] Memory required for data: 960654624
I0403 15:42:49.053043 14209 layer_factory.hpp:77] Creating layer inception_4b/relu_3x3
I0403 15:42:49.053068 14209 net.cpp:91] Creating Layer inception_4b/relu_3x3
I0403 15:42:49.053089 14209 net.cpp:425] inception_4b/relu_3x3 <- inception_4b/3x3
I0403 15:42:49.053127 14209 net.cpp:386] inception_4b/relu_3x3 -> inception_4b/3x3 (in-place)
I0403 15:42:49.053355 14209 net.cpp:141] Setting up inception_4b/relu_3x3
I0403 15:42:49.053386 14209 net.cpp:148] Top shape: 24 224 14 14 (1053696)
I0403 15:42:49.053405 14209 net.cpp:156] Memory required for data: 964869408
I0403 15:42:49.053422 14209 layer_factory.hpp:77] Creating layer inception_4b/5x5_reduce
I0403 15:42:49.053452 14209 net.cpp:91] Creating Layer inception_4b/5x5_reduce
I0403 15:42:49.053475 14209 net.cpp:425] inception_4b/5x5_reduce <- inception_4a/output_inception_4a/output_0_split_3
I0403 15:42:49.053499 14209 net.cpp:399] inception_4b/5x5_reduce -> inception_4b/5x5_reduce
I0403 15:42:49.054893 14209 net.cpp:141] Setting up inception_4b/5x5_reduce
I0403 15:42:49.054930 14209 net.cpp:148] Top shape: 24 24 14 14 (112896)
I0403 15:42:49.054950 14209 net.cpp:156] Memory required for data: 965320992
I0403 15:42:49.054973 14209 layer_factory.hpp:77] Creating layer inception_4b/relu_5x5_reduce
I0403 15:42:49.054996 14209 net.cpp:91] Creating Layer inception_4b/relu_5x5_reduce
I0403 15:42:49.055033 14209 net.cpp:425] inception_4b/relu_5x5_reduce <- inception_4b/5x5_reduce
I0403 15:42:49.055059 14209 net.cpp:386] inception_4b/relu_5x5_reduce -> inception_4b/5x5_reduce (in-place)
I0403 15:42:49.055290 14209 net.cpp:141] Setting up inception_4b/relu_5x5_reduce
I0403 15:42:49.055322 14209 net.cpp:148] Top shape: 24 24 14 14 (112896)
I0403 15:42:49.055341 14209 net.cpp:156] Memory required for data: 965772576
I0403 15:42:49.055358 14209 layer_factory.hpp:77] Creating layer inception_4b/5x5
I0403 15:42:49.055385 14209 net.cpp:91] Creating Layer inception_4b/5x5
I0403 15:42:49.055408 14209 net.cpp:425] inception_4b/5x5 <- inception_4b/5x5_reduce
I0403 15:42:49.055434 14209 net.cpp:399] inception_4b/5x5 -> inception_4b/5x5
I0403 15:42:49.056942 14209 net.cpp:141] Setting up inception_4b/5x5
I0403 15:42:49.056980 14209 net.cpp:148] Top shape: 24 64 14 14 (301056)
I0403 15:42:49.057000 14209 net.cpp:156] Memory required for data: 966976800
I0403 15:42:49.057023 14209 layer_factory.hpp:77] Creating layer inception_4b/relu_5x5
I0403 15:42:49.057044 14209 net.cpp:91] Creating Layer inception_4b/relu_5x5
I0403 15:42:49.057065 14209 net.cpp:425] inception_4b/relu_5x5 <- inception_4b/5x5
I0403 15:42:49.057085 14209 net.cpp:386] inception_4b/relu_5x5 -> inception_4b/5x5 (in-place)
I0403 15:42:49.057446 14209 net.cpp:141] Setting up inception_4b/relu_5x5
I0403 15:42:49.057482 14209 net.cpp:148] Top shape: 24 64 14 14 (301056)
I0403 15:42:49.057503 14209 net.cpp:156] Memory required for data: 968181024
I0403 15:42:49.057521 14209 layer_factory.hpp:77] Creating layer inception_4b/pool
I0403 15:42:49.057543 14209 net.cpp:91] Creating Layer inception_4b/pool
I0403 15:42:49.057564 14209 net.cpp:425] inception_4b/pool <- inception_4a/output_inception_4a/output_0_split_4
I0403 15:42:49.057586 14209 net.cpp:399] inception_4b/pool -> inception_4b/pool
I0403 15:42:49.057667 14209 net.cpp:141] Setting up inception_4b/pool
I0403 15:42:49.057698 14209 net.cpp:148] Top shape: 24 512 14 14 (2408448)
I0403 15:42:49.057714 14209 net.cpp:156] Memory required for data: 977814816
I0403 15:42:49.057731 14209 layer_factory.hpp:77] Creating layer inception_4b/pool_proj
I0403 15:42:49.057759 14209 net.cpp:91] Creating Layer inception_4b/pool_proj
I0403 15:42:49.057780 14209 net.cpp:425] inception_4b/pool_proj <- inception_4b/pool
I0403 15:42:49.057806 14209 net.cpp:399] inception_4b/pool_proj -> inception_4b/pool_proj
I0403 15:42:49.059290 14209 net.cpp:141] Setting up inception_4b/pool_proj
I0403 15:42:49.059329 14209 net.cpp:148] Top shape: 24 64 14 14 (301056)
I0403 15:42:49.059350 14209 net.cpp:156] Memory required for data: 979019040
I0403 15:42:49.059372 14209 layer_factory.hpp:77] Creating layer inception_4b/relu_pool_proj
I0403 15:42:49.059396 14209 net.cpp:91] Creating Layer inception_4b/relu_pool_proj
I0403 15:42:49.059415 14209 net.cpp:425] inception_4b/relu_pool_proj <- inception_4b/pool_proj
I0403 15:42:49.059437 14209 net.cpp:386] inception_4b/relu_pool_proj -> inception_4b/pool_proj (in-place)
I0403 15:42:49.059662 14209 net.cpp:141] Setting up inception_4b/relu_pool_proj
I0403 15:42:49.059694 14209 net.cpp:148] Top shape: 24 64 14 14 (301056)
I0403 15:42:49.059711 14209 net.cpp:156] Memory required for data: 980223264
I0403 15:42:49.059730 14209 layer_factory.hpp:77] Creating layer inception_4b/output
I0403 15:42:49.059751 14209 net.cpp:91] Creating Layer inception_4b/output
I0403 15:42:49.059769 14209 net.cpp:425] inception_4b/output <- inception_4b/1x1
I0403 15:42:49.059788 14209 net.cpp:425] inception_4b/output <- inception_4b/3x3
I0403 15:42:49.059808 14209 net.cpp:425] inception_4b/output <- inception_4b/5x5
I0403 15:42:49.059828 14209 net.cpp:425] inception_4b/output <- inception_4b/pool_proj
I0403 15:42:49.059851 14209 net.cpp:399] inception_4b/output -> inception_4b/output
I0403 15:42:49.059909 14209 net.cpp:141] Setting up inception_4b/output
I0403 15:42:49.059940 14209 net.cpp:148] Top shape: 24 512 14 14 (2408448)
I0403 15:42:49.059958 14209 net.cpp:156] Memory required for data: 989857056
I0403 15:42:49.059994 14209 layer_factory.hpp:77] Creating layer inception_4b/output_inception_4b/output_0_split
I0403 15:42:49.060015 14209 net.cpp:91] Creating Layer inception_4b/output_inception_4b/output_0_split
I0403 15:42:49.060034 14209 net.cpp:425] inception_4b/output_inception_4b/output_0_split <- inception_4b/output
I0403 15:42:49.060060 14209 net.cpp:399] inception_4b/output_inception_4b/output_0_split -> inception_4b/output_inception_4b/output_0_split_0
I0403 15:42:49.060086 14209 net.cpp:399] inception_4b/output_inception_4b/output_0_split -> inception_4b/output_inception_4b/output_0_split_1
I0403 15:42:49.060117 14209 net.cpp:399] inception_4b/output_inception_4b/output_0_split -> inception_4b/output_inception_4b/output_0_split_2
I0403 15:42:49.060143 14209 net.cpp:399] inception_4b/output_inception_4b/output_0_split -> inception_4b/output_inception_4b/output_0_split_3
I0403 15:42:49.060246 14209 net.cpp:141] Setting up inception_4b/output_inception_4b/output_0_split
I0403 15:42:49.060276 14209 net.cpp:148] Top shape: 24 512 14 14 (2408448)
I0403 15:42:49.060294 14209 net.cpp:148] Top shape: 24 512 14 14 (2408448)
I0403 15:42:49.060313 14209 net.cpp:148] Top shape: 24 512 14 14 (2408448)
I0403 15:42:49.060331 14209 net.cpp:148] Top shape: 24 512 14 14 (2408448)
I0403 15:42:49.060348 14209 net.cpp:156] Memory required for data: 1028392224
I0403 15:42:49.060366 14209 layer_factory.hpp:77] Creating layer inception_4c/1x1
I0403 15:42:49.060394 14209 net.cpp:91] Creating Layer inception_4c/1x1
I0403 15:42:49.060416 14209 net.cpp:425] inception_4c/1x1 <- inception_4b/output_inception_4b/output_0_split_0
I0403 15:42:49.060442 14209 net.cpp:399] inception_4c/1x1 -> inception_4c/1x1
I0403 15:42:49.062206 14209 net.cpp:141] Setting up inception_4c/1x1
I0403 15:42:49.062242 14209 net.cpp:148] Top shape: 24 128 14 14 (602112)
I0403 15:42:49.062260 14209 net.cpp:156] Memory required for data: 1030800672
I0403 15:42:49.062283 14209 layer_factory.hpp:77] Creating layer inception_4c/relu_1x1
I0403 15:42:49.062307 14209 net.cpp:91] Creating Layer inception_4c/relu_1x1
I0403 15:42:49.062328 14209 net.cpp:425] inception_4c/relu_1x1 <- inception_4c/1x1
I0403 15:42:49.062350 14209 net.cpp:386] inception_4c/relu_1x1 -> inception_4c/1x1 (in-place)
I0403 15:42:49.062574 14209 net.cpp:141] Setting up inception_4c/relu_1x1
I0403 15:42:49.062605 14209 net.cpp:148] Top shape: 24 128 14 14 (602112)
I0403 15:42:49.062623 14209 net.cpp:156] Memory required for data: 1033209120
I0403 15:42:49.062640 14209 layer_factory.hpp:77] Creating layer inception_4c/3x3_reduce
I0403 15:42:49.062669 14209 net.cpp:91] Creating Layer inception_4c/3x3_reduce
I0403 15:42:49.062692 14209 net.cpp:425] inception_4c/3x3_reduce <- inception_4b/output_inception_4b/output_0_split_1
I0403 15:42:49.062716 14209 net.cpp:399] inception_4c/3x3_reduce -> inception_4c/3x3_reduce
I0403 15:42:49.065116 14209 net.cpp:141] Setting up inception_4c/3x3_reduce
I0403 15:42:49.065153 14209 net.cpp:148] Top shape: 24 128 14 14 (602112)
I0403 15:42:49.065173 14209 net.cpp:156] Memory required for data: 1035617568
I0403 15:42:49.065196 14209 layer_factory.hpp:77] Creating layer inception_4c/relu_3x3_reduce
I0403 15:42:49.065222 14209 net.cpp:91] Creating Layer inception_4c/relu_3x3_reduce
I0403 15:42:49.065243 14209 net.cpp:425] inception_4c/relu_3x3_reduce <- inception_4c/3x3_reduce
I0403 15:42:49.065264 14209 net.cpp:386] inception_4c/relu_3x3_reduce -> inception_4c/3x3_reduce (in-place)
I0403 15:42:49.065610 14209 net.cpp:141] Setting up inception_4c/relu_3x3_reduce
I0403 15:42:49.065644 14209 net.cpp:148] Top shape: 24 128 14 14 (602112)
I0403 15:42:49.065662 14209 net.cpp:156] Memory required for data: 1038026016
I0403 15:42:49.065680 14209 layer_factory.hpp:77] Creating layer inception_4c/3x3
I0403 15:42:49.065711 14209 net.cpp:91] Creating Layer inception_4c/3x3
I0403 15:42:49.065733 14209 net.cpp:425] inception_4c/3x3 <- inception_4c/3x3_reduce
I0403 15:42:49.065757 14209 net.cpp:399] inception_4c/3x3 -> inception_4c/3x3
I0403 15:42:49.070168 14209 net.cpp:141] Setting up inception_4c/3x3
I0403 15:42:49.070221 14209 net.cpp:148] Top shape: 24 256 14 14 (1204224)
I0403 15:42:49.070243 14209 net.cpp:156] Memory required for data: 1042842912
I0403 15:42:49.070283 14209 layer_factory.hpp:77] Creating layer inception_4c/relu_3x3
I0403 15:42:49.070308 14209 net.cpp:91] Creating Layer inception_4c/relu_3x3
I0403 15:42:49.070329 14209 net.cpp:425] inception_4c/relu_3x3 <- inception_4c/3x3
I0403 15:42:49.070350 14209 net.cpp:386] inception_4c/relu_3x3 -> inception_4c/3x3 (in-place)
I0403 15:42:49.070577 14209 net.cpp:141] Setting up inception_4c/relu_3x3
I0403 15:42:49.070611 14209 net.cpp:148] Top shape: 24 256 14 14 (1204224)
I0403 15:42:49.070631 14209 net.cpp:156] Memory required for data: 1047659808
I0403 15:42:49.070647 14209 layer_factory.hpp:77] Creating layer inception_4c/5x5_reduce
I0403 15:42:49.070677 14209 net.cpp:91] Creating Layer inception_4c/5x5_reduce
I0403 15:42:49.070698 14209 net.cpp:425] inception_4c/5x5_reduce <- inception_4b/output_inception_4b/output_0_split_2
I0403 15:42:49.070721 14209 net.cpp:399] inception_4c/5x5_reduce -> inception_4c/5x5_reduce
I0403 15:42:49.072058 14209 net.cpp:141] Setting up inception_4c/5x5_reduce
I0403 15:42:49.072100 14209 net.cpp:148] Top shape: 24 24 14 14 (112896)
I0403 15:42:49.072124 14209 net.cpp:156] Memory required for data: 1048111392
I0403 15:42:49.072146 14209 layer_factory.hpp:77] Creating layer inception_4c/relu_5x5_reduce
I0403 15:42:49.072170 14209 net.cpp:91] Creating Layer inception_4c/relu_5x5_reduce
I0403 15:42:49.072190 14209 net.cpp:425] inception_4c/relu_5x5_reduce <- inception_4c/5x5_reduce
I0403 15:42:49.072213 14209 net.cpp:386] inception_4c/relu_5x5_reduce -> inception_4c/5x5_reduce (in-place)
I0403 15:42:49.072445 14209 net.cpp:141] Setting up inception_4c/relu_5x5_reduce
I0403 15:42:49.072477 14209 net.cpp:148] Top shape: 24 24 14 14 (112896)
I0403 15:42:49.072495 14209 net.cpp:156] Memory required for data: 1048562976
I0403 15:42:49.072513 14209 layer_factory.hpp:77] Creating layer inception_4c/5x5
I0403 15:42:49.072540 14209 net.cpp:91] Creating Layer inception_4c/5x5
I0403 15:42:49.072563 14209 net.cpp:425] inception_4c/5x5 <- inception_4c/5x5_reduce
I0403 15:42:49.072589 14209 net.cpp:399] inception_4c/5x5 -> inception_4c/5x5
I0403 15:42:49.074146 14209 net.cpp:141] Setting up inception_4c/5x5
I0403 15:42:49.074183 14209 net.cpp:148] Top shape: 24 64 14 14 (301056)
I0403 15:42:49.074201 14209 net.cpp:156] Memory required for data: 1049767200
I0403 15:42:49.074224 14209 layer_factory.hpp:77] Creating layer inception_4c/relu_5x5
I0403 15:42:49.074249 14209 net.cpp:91] Creating Layer inception_4c/relu_5x5
I0403 15:42:49.074270 14209 net.cpp:425] inception_4c/relu_5x5 <- inception_4c/5x5
I0403 15:42:49.074292 14209 net.cpp:386] inception_4c/relu_5x5 -> inception_4c/5x5 (in-place)
I0403 15:42:49.074645 14209 net.cpp:141] Setting up inception_4c/relu_5x5
I0403 15:42:49.074677 14209 net.cpp:148] Top shape: 24 64 14 14 (301056)
I0403 15:42:49.074697 14209 net.cpp:156] Memory required for data: 1050971424
I0403 15:42:49.074714 14209 layer_factory.hpp:77] Creating layer inception_4c/pool
I0403 15:42:49.074735 14209 net.cpp:91] Creating Layer inception_4c/pool
I0403 15:42:49.074756 14209 net.cpp:425] inception_4c/pool <- inception_4b/output_inception_4b/output_0_split_3
I0403 15:42:49.074781 14209 net.cpp:399] inception_4c/pool -> inception_4c/pool
I0403 15:42:49.074863 14209 net.cpp:141] Setting up inception_4c/pool
I0403 15:42:49.074895 14209 net.cpp:148] Top shape: 24 512 14 14 (2408448)
I0403 15:42:49.074914 14209 net.cpp:156] Memory required for data: 1060605216
I0403 15:42:49.074933 14209 layer_factory.hpp:77] Creating layer inception_4c/pool_proj
I0403 15:42:49.074959 14209 net.cpp:91] Creating Layer inception_4c/pool_proj
I0403 15:42:49.074980 14209 net.cpp:425] inception_4c/pool_proj <- inception_4c/pool
I0403 15:42:49.075003 14209 net.cpp:399] inception_4c/pool_proj -> inception_4c/pool_proj
I0403 15:42:49.076499 14209 net.cpp:141] Setting up inception_4c/pool_proj
I0403 15:42:49.076539 14209 net.cpp:148] Top shape: 24 64 14 14 (301056)
I0403 15:42:49.076576 14209 net.cpp:156] Memory required for data: 1061809440
I0403 15:42:49.076601 14209 layer_factory.hpp:77] Creating layer inception_4c/relu_pool_proj
I0403 15:42:49.076622 14209 net.cpp:91] Creating Layer inception_4c/relu_pool_proj
I0403 15:42:49.076642 14209 net.cpp:425] inception_4c/relu_pool_proj <- inception_4c/pool_proj
I0403 15:42:49.076663 14209 net.cpp:386] inception_4c/relu_pool_proj -> inception_4c/pool_proj (in-place)
I0403 15:42:49.076897 14209 net.cpp:141] Setting up inception_4c/relu_pool_proj
I0403 15:42:49.076928 14209 net.cpp:148] Top shape: 24 64 14 14 (301056)
I0403 15:42:49.076946 14209 net.cpp:156] Memory required for data: 1063013664
I0403 15:42:49.076963 14209 layer_factory.hpp:77] Creating layer inception_4c/output
I0403 15:42:49.076984 14209 net.cpp:91] Creating Layer inception_4c/output
I0403 15:42:49.077003 14209 net.cpp:425] inception_4c/output <- inception_4c/1x1
I0403 15:42:49.077023 14209 net.cpp:425] inception_4c/output <- inception_4c/3x3
I0403 15:42:49.077042 14209 net.cpp:425] inception_4c/output <- inception_4c/5x5
I0403 15:42:49.077060 14209 net.cpp:425] inception_4c/output <- inception_4c/pool_proj
I0403 15:42:49.077083 14209 net.cpp:399] inception_4c/output -> inception_4c/output
I0403 15:42:49.077147 14209 net.cpp:141] Setting up inception_4c/output
I0403 15:42:49.077180 14209 net.cpp:148] Top shape: 24 512 14 14 (2408448)
I0403 15:42:49.077200 14209 net.cpp:156] Memory required for data: 1072647456
I0403 15:42:49.077219 14209 layer_factory.hpp:77] Creating layer inception_4c/output_inception_4c/output_0_split
I0403 15:42:49.077239 14209 net.cpp:91] Creating Layer inception_4c/output_inception_4c/output_0_split
I0403 15:42:49.077256 14209 net.cpp:425] inception_4c/output_inception_4c/output_0_split <- inception_4c/output
I0403 15:42:49.077277 14209 net.cpp:399] inception_4c/output_inception_4c/output_0_split -> inception_4c/output_inception_4c/output_0_split_0
I0403 15:42:49.077306 14209 net.cpp:399] inception_4c/output_inception_4c/output_0_split -> inception_4c/output_inception_4c/output_0_split_1
I0403 15:42:49.077332 14209 net.cpp:399] inception_4c/output_inception_4c/output_0_split -> inception_4c/output_inception_4c/output_0_split_2
I0403 15:42:49.077356 14209 net.cpp:399] inception_4c/output_inception_4c/output_0_split -> inception_4c/output_inception_4c/output_0_split_3
I0403 15:42:49.077460 14209 net.cpp:141] Setting up inception_4c/output_inception_4c/output_0_split
I0403 15:42:49.077488 14209 net.cpp:148] Top shape: 24 512 14 14 (2408448)
I0403 15:42:49.077507 14209 net.cpp:148] Top shape: 24 512 14 14 (2408448)
I0403 15:42:49.077525 14209 net.cpp:148] Top shape: 24 512 14 14 (2408448)
I0403 15:42:49.077543 14209 net.cpp:148] Top shape: 24 512 14 14 (2408448)
I0403 15:42:49.077560 14209 net.cpp:156] Memory required for data: 1111182624
I0403 15:42:49.077579 14209 layer_factory.hpp:77] Creating layer inception_4d/1x1
I0403 15:42:49.077605 14209 net.cpp:91] Creating Layer inception_4d/1x1
I0403 15:42:49.077627 14209 net.cpp:425] inception_4d/1x1 <- inception_4c/output_inception_4c/output_0_split_0
I0403 15:42:49.077653 14209 net.cpp:399] inception_4d/1x1 -> inception_4d/1x1
I0403 15:42:49.079351 14209 net.cpp:141] Setting up inception_4d/1x1
I0403 15:42:49.079386 14209 net.cpp:148] Top shape: 24 112 14 14 (526848)
I0403 15:42:49.079406 14209 net.cpp:156] Memory required for data: 1113290016
I0403 15:42:49.079427 14209 layer_factory.hpp:77] Creating layer inception_4d/relu_1x1
I0403 15:42:49.079452 14209 net.cpp:91] Creating Layer inception_4d/relu_1x1
I0403 15:42:49.079473 14209 net.cpp:425] inception_4d/relu_1x1 <- inception_4d/1x1
I0403 15:42:49.079495 14209 net.cpp:386] inception_4d/relu_1x1 -> inception_4d/1x1 (in-place)
I0403 15:42:49.079725 14209 net.cpp:141] Setting up inception_4d/relu_1x1
I0403 15:42:49.079759 14209 net.cpp:148] Top shape: 24 112 14 14 (526848)
I0403 15:42:49.079779 14209 net.cpp:156] Memory required for data: 1115397408
I0403 15:42:49.079797 14209 layer_factory.hpp:77] Creating layer inception_4d/3x3_reduce
I0403 15:42:49.079844 14209 net.cpp:91] Creating Layer inception_4d/3x3_reduce
I0403 15:42:49.079869 14209 net.cpp:425] inception_4d/3x3_reduce <- inception_4c/output_inception_4c/output_0_split_1
I0403 15:42:49.079892 14209 net.cpp:399] inception_4d/3x3_reduce -> inception_4d/3x3_reduce
I0403 15:42:49.081753 14209 net.cpp:141] Setting up inception_4d/3x3_reduce
I0403 15:42:49.081787 14209 net.cpp:148] Top shape: 24 144 14 14 (677376)
I0403 15:42:49.081806 14209 net.cpp:156] Memory required for data: 1118106912
I0403 15:42:49.081828 14209 layer_factory.hpp:77] Creating layer inception_4d/relu_3x3_reduce
I0403 15:42:49.081850 14209 net.cpp:91] Creating Layer inception_4d/relu_3x3_reduce
I0403 15:42:49.081869 14209 net.cpp:425] inception_4d/relu_3x3_reduce <- inception_4d/3x3_reduce
I0403 15:42:49.081893 14209 net.cpp:386] inception_4d/relu_3x3_reduce -> inception_4d/3x3_reduce (in-place)
I0403 15:42:49.082255 14209 net.cpp:141] Setting up inception_4d/relu_3x3_reduce
I0403 15:42:49.082288 14209 net.cpp:148] Top shape: 24 144 14 14 (677376)
I0403 15:42:49.082307 14209 net.cpp:156] Memory required for data: 1120816416
I0403 15:42:49.082326 14209 layer_factory.hpp:77] Creating layer inception_4d/3x3
I0403 15:42:49.082353 14209 net.cpp:91] Creating Layer inception_4d/3x3
I0403 15:42:49.082376 14209 net.cpp:425] inception_4d/3x3 <- inception_4d/3x3_reduce
I0403 15:42:49.082402 14209 net.cpp:399] inception_4d/3x3 -> inception_4d/3x3
I0403 15:42:49.087673 14209 net.cpp:141] Setting up inception_4d/3x3
I0403 15:42:49.087710 14209 net.cpp:148] Top shape: 24 288 14 14 (1354752)
I0403 15:42:49.087728 14209 net.cpp:156] Memory required for data: 1126235424
I0403 15:42:49.087750 14209 layer_factory.hpp:77] Creating layer inception_4d/relu_3x3
I0403 15:42:49.087776 14209 net.cpp:91] Creating Layer inception_4d/relu_3x3
I0403 15:42:49.087798 14209 net.cpp:425] inception_4d/relu_3x3 <- inception_4d/3x3
I0403 15:42:49.087820 14209 net.cpp:386] inception_4d/relu_3x3 -> inception_4d/3x3 (in-place)
I0403 15:42:49.088047 14209 net.cpp:141] Setting up inception_4d/relu_3x3
I0403 15:42:49.088081 14209 net.cpp:148] Top shape: 24 288 14 14 (1354752)
I0403 15:42:49.088107 14209 net.cpp:156] Memory required for data: 1131654432
I0403 15:42:49.088126 14209 layer_factory.hpp:77] Creating layer inception_4d/5x5_reduce
I0403 15:42:49.088155 14209 net.cpp:91] Creating Layer inception_4d/5x5_reduce
I0403 15:42:49.088177 14209 net.cpp:425] inception_4d/5x5_reduce <- inception_4c/output_inception_4c/output_0_split_2
I0403 15:42:49.088201 14209 net.cpp:399] inception_4d/5x5_reduce -> inception_4d/5x5_reduce
I0403 15:42:49.089617 14209 net.cpp:141] Setting up inception_4d/5x5_reduce
I0403 15:42:49.089653 14209 net.cpp:148] Top shape: 24 32 14 14 (150528)
I0403 15:42:49.089671 14209 net.cpp:156] Memory required for data: 1132256544
I0403 15:42:49.089694 14209 layer_factory.hpp:77] Creating layer inception_4d/relu_5x5_reduce
I0403 15:42:49.089718 14209 net.cpp:91] Creating Layer inception_4d/relu_5x5_reduce
I0403 15:42:49.089738 14209 net.cpp:425] inception_4d/relu_5x5_reduce <- inception_4d/5x5_reduce
I0403 15:42:49.089759 14209 net.cpp:386] inception_4d/relu_5x5_reduce -> inception_4d/5x5_reduce (in-place)
I0403 15:42:49.089994 14209 net.cpp:141] Setting up inception_4d/relu_5x5_reduce
I0403 15:42:49.090028 14209 net.cpp:148] Top shape: 24 32 14 14 (150528)
I0403 15:42:49.090047 14209 net.cpp:156] Memory required for data: 1132858656
I0403 15:42:49.090065 14209 layer_factory.hpp:77] Creating layer inception_4d/5x5
I0403 15:42:49.090092 14209 net.cpp:91] Creating Layer inception_4d/5x5
I0403 15:42:49.090121 14209 net.cpp:425] inception_4d/5x5 <- inception_4d/5x5_reduce
I0403 15:42:49.090144 14209 net.cpp:399] inception_4d/5x5 -> inception_4d/5x5
I0403 15:42:49.091945 14209 net.cpp:141] Setting up inception_4d/5x5
I0403 15:42:49.091982 14209 net.cpp:148] Top shape: 24 64 14 14 (301056)
I0403 15:42:49.092002 14209 net.cpp:156] Memory required for data: 1134062880
I0403 15:42:49.092025 14209 layer_factory.hpp:77] Creating layer inception_4d/relu_5x5
I0403 15:42:49.092067 14209 net.cpp:91] Creating Layer inception_4d/relu_5x5
I0403 15:42:49.092088 14209 net.cpp:425] inception_4d/relu_5x5 <- inception_4d/5x5
I0403 15:42:49.092119 14209 net.cpp:386] inception_4d/relu_5x5 -> inception_4d/5x5 (in-place)
I0403 15:42:49.092489 14209 net.cpp:141] Setting up inception_4d/relu_5x5
I0403 15:42:49.092525 14209 net.cpp:148] Top shape: 24 64 14 14 (301056)
I0403 15:42:49.092545 14209 net.cpp:156] Memory required for data: 1135267104
I0403 15:42:49.092562 14209 layer_factory.hpp:77] Creating layer inception_4d/pool
I0403 15:42:49.092584 14209 net.cpp:91] Creating Layer inception_4d/pool
I0403 15:42:49.092602 14209 net.cpp:425] inception_4d/pool <- inception_4c/output_inception_4c/output_0_split_3
I0403 15:42:49.092628 14209 net.cpp:399] inception_4d/pool -> inception_4d/pool
I0403 15:42:49.092710 14209 net.cpp:141] Setting up inception_4d/pool
I0403 15:42:49.092742 14209 net.cpp:148] Top shape: 24 512 14 14 (2408448)
I0403 15:42:49.092762 14209 net.cpp:156] Memory required for data: 1144900896
I0403 15:42:49.092779 14209 layer_factory.hpp:77] Creating layer inception_4d/pool_proj
I0403 15:42:49.092803 14209 net.cpp:91] Creating Layer inception_4d/pool_proj
I0403 15:42:49.092824 14209 net.cpp:425] inception_4d/pool_proj <- inception_4d/pool
I0403 15:42:49.092849 14209 net.cpp:399] inception_4d/pool_proj -> inception_4d/pool_proj
I0403 15:42:49.094995 14209 net.cpp:141] Setting up inception_4d/pool_proj
I0403 15:42:49.095031 14209 net.cpp:148] Top shape: 24 64 14 14 (301056)
I0403 15:42:49.095051 14209 net.cpp:156] Memory required for data: 1146105120
I0403 15:42:49.095074 14209 layer_factory.hpp:77] Creating layer inception_4d/relu_pool_proj
I0403 15:42:49.095103 14209 net.cpp:91] Creating Layer inception_4d/relu_pool_proj
I0403 15:42:49.095126 14209 net.cpp:425] inception_4d/relu_pool_proj <- inception_4d/pool_proj
I0403 15:42:49.095147 14209 net.cpp:386] inception_4d/relu_pool_proj -> inception_4d/pool_proj (in-place)
I0403 15:42:49.095382 14209 net.cpp:141] Setting up inception_4d/relu_pool_proj
I0403 15:42:49.095417 14209 net.cpp:148] Top shape: 24 64 14 14 (301056)
I0403 15:42:49.095438 14209 net.cpp:156] Memory required for data: 1147309344
I0403 15:42:49.095455 14209 layer_factory.hpp:77] Creating layer inception_4d/output
I0403 15:42:49.095476 14209 net.cpp:91] Creating Layer inception_4d/output
I0403 15:42:49.095495 14209 net.cpp:425] inception_4d/output <- inception_4d/1x1
I0403 15:42:49.095515 14209 net.cpp:425] inception_4d/output <- inception_4d/3x3
I0403 15:42:49.095535 14209 net.cpp:425] inception_4d/output <- inception_4d/5x5
I0403 15:42:49.095556 14209 net.cpp:425] inception_4d/output <- inception_4d/pool_proj
I0403 15:42:49.095577 14209 net.cpp:399] inception_4d/output -> inception_4d/output
I0403 15:42:49.095636 14209 net.cpp:141] Setting up inception_4d/output
I0403 15:42:49.095665 14209 net.cpp:148] Top shape: 24 528 14 14 (2483712)
I0403 15:42:49.095684 14209 net.cpp:156] Memory required for data: 1157244192
I0403 15:42:49.095700 14209 layer_factory.hpp:77] Creating layer inception_4d/output_inception_4d/output_0_split
I0403 15:42:49.095726 14209 net.cpp:91] Creating Layer inception_4d/output_inception_4d/output_0_split
I0403 15:42:49.095746 14209 net.cpp:425] inception_4d/output_inception_4d/output_0_split <- inception_4d/output
I0403 15:42:49.095767 14209 net.cpp:399] inception_4d/output_inception_4d/output_0_split -> inception_4d/output_inception_4d/output_0_split_0
I0403 15:42:49.095793 14209 net.cpp:399] inception_4d/output_inception_4d/output_0_split -> inception_4d/output_inception_4d/output_0_split_1
I0403 15:42:49.095818 14209 net.cpp:399] inception_4d/output_inception_4d/output_0_split -> inception_4d/output_inception_4d/output_0_split_2
I0403 15:42:49.095846 14209 net.cpp:399] inception_4d/output_inception_4d/output_0_split -> inception_4d/output_inception_4d/output_0_split_3
I0403 15:42:49.095872 14209 net.cpp:399] inception_4d/output_inception_4d/output_0_split -> inception_4d/output_inception_4d/output_0_split_4
I0403 15:42:49.095999 14209 net.cpp:141] Setting up inception_4d/output_inception_4d/output_0_split
I0403 15:42:49.096045 14209 net.cpp:148] Top shape: 24 528 14 14 (2483712)
I0403 15:42:49.096065 14209 net.cpp:148] Top shape: 24 528 14 14 (2483712)
I0403 15:42:49.096083 14209 net.cpp:148] Top shape: 24 528 14 14 (2483712)
I0403 15:42:49.096109 14209 net.cpp:148] Top shape: 24 528 14 14 (2483712)
I0403 15:42:49.096129 14209 net.cpp:148] Top shape: 24 528 14 14 (2483712)
I0403 15:42:49.096146 14209 net.cpp:156] Memory required for data: 1206918432
I0403 15:42:49.096165 14209 layer_factory.hpp:77] Creating layer loss2/ave_pool
I0403 15:42:49.096189 14209 net.cpp:91] Creating Layer loss2/ave_pool
I0403 15:42:49.096210 14209 net.cpp:425] loss2/ave_pool <- inception_4d/output_inception_4d/output_0_split_0
I0403 15:42:49.096232 14209 net.cpp:399] loss2/ave_pool -> loss2/ave_pool
I0403 15:42:49.096616 14209 net.cpp:141] Setting up loss2/ave_pool
I0403 15:42:49.096648 14209 net.cpp:148] Top shape: 24 528 4 4 (202752)
I0403 15:42:49.096668 14209 net.cpp:156] Memory required for data: 1207729440
I0403 15:42:49.096685 14209 layer_factory.hpp:77] Creating layer loss2/conv
I0403 15:42:49.096714 14209 net.cpp:91] Creating Layer loss2/conv
I0403 15:42:49.096737 14209 net.cpp:425] loss2/conv <- loss2/ave_pool
I0403 15:42:49.096761 14209 net.cpp:399] loss2/conv -> loss2/conv
I0403 15:42:49.099067 14209 net.cpp:141] Setting up loss2/conv
I0403 15:42:49.099107 14209 net.cpp:148] Top shape: 24 128 4 4 (49152)
I0403 15:42:49.099128 14209 net.cpp:156] Memory required for data: 1207926048
I0403 15:42:49.099150 14209 layer_factory.hpp:77] Creating layer loss2/relu_conv
I0403 15:42:49.099175 14209 net.cpp:91] Creating Layer loss2/relu_conv
I0403 15:42:49.099195 14209 net.cpp:425] loss2/relu_conv <- loss2/conv
I0403 15:42:49.099218 14209 net.cpp:386] loss2/relu_conv -> loss2/conv (in-place)
I0403 15:42:49.099568 14209 net.cpp:141] Setting up loss2/relu_conv
I0403 15:42:49.099601 14209 net.cpp:148] Top shape: 24 128 4 4 (49152)
I0403 15:42:49.099620 14209 net.cpp:156] Memory required for data: 1208122656
I0403 15:42:49.099638 14209 layer_factory.hpp:77] Creating layer loss2/fc
I0403 15:42:49.099660 14209 net.cpp:91] Creating Layer loss2/fc
I0403 15:42:49.099681 14209 net.cpp:425] loss2/fc <- loss2/conv
I0403 15:42:49.099707 14209 net.cpp:399] loss2/fc -> loss2/fc
I0403 15:42:49.121523 14209 net.cpp:141] Setting up loss2/fc
I0403 15:42:49.121568 14209 net.cpp:148] Top shape: 24 1024 (24576)
I0403 15:42:49.121589 14209 net.cpp:156] Memory required for data: 1208220960
I0403 15:42:49.121611 14209 layer_factory.hpp:77] Creating layer loss2/relu_fc
I0403 15:42:49.121634 14209 net.cpp:91] Creating Layer loss2/relu_fc
I0403 15:42:49.121654 14209 net.cpp:425] loss2/relu_fc <- loss2/fc
I0403 15:42:49.121676 14209 net.cpp:386] loss2/relu_fc -> loss2/fc (in-place)
I0403 15:42:49.122047 14209 net.cpp:141] Setting up loss2/relu_fc
I0403 15:42:49.122083 14209 net.cpp:148] Top shape: 24 1024 (24576)
I0403 15:42:49.122109 14209 net.cpp:156] Memory required for data: 1208319264
I0403 15:42:49.122128 14209 layer_factory.hpp:77] Creating layer loss2/drop_fc
I0403 15:42:49.122150 14209 net.cpp:91] Creating Layer loss2/drop_fc
I0403 15:42:49.122172 14209 net.cpp:425] loss2/drop_fc <- loss2/fc
I0403 15:42:49.122195 14209 net.cpp:386] loss2/drop_fc -> loss2/fc (in-place)
I0403 15:42:49.122256 14209 net.cpp:141] Setting up loss2/drop_fc
I0403 15:42:49.122285 14209 net.cpp:148] Top shape: 24 1024 (24576)
I0403 15:42:49.122303 14209 net.cpp:156] Memory required for data: 1208417568
I0403 15:42:49.122319 14209 layer_factory.hpp:77] Creating layer loss2/classifier_plantvillage
I0403 15:42:49.122344 14209 net.cpp:91] Creating Layer loss2/classifier_plantvillage
I0403 15:42:49.122365 14209 net.cpp:425] loss2/classifier_plantvillage <- loss2/fc
I0403 15:42:49.122388 14209 net.cpp:399] loss2/classifier_plantvillage -> loss2/classifier_plantvillage
I0403 15:42:49.122889 14209 net.cpp:141] Setting up loss2/classifier_plantvillage
I0403 15:42:49.122921 14209 net.cpp:148] Top shape: 24 38 (912)
I0403 15:42:49.122939 14209 net.cpp:156] Memory required for data: 1208421216
I0403 15:42:49.122983 14209 layer_factory.hpp:77] Creating layer loss2/classifier_plantvillage_loss2/classifier_plantvillage_0_split
I0403 15:42:49.123008 14209 net.cpp:91] Creating Layer loss2/classifier_plantvillage_loss2/classifier_plantvillage_0_split
I0403 15:42:49.123028 14209 net.cpp:425] loss2/classifier_plantvillage_loss2/classifier_plantvillage_0_split <- loss2/classifier_plantvillage
I0403 15:42:49.123050 14209 net.cpp:399] loss2/classifier_plantvillage_loss2/classifier_plantvillage_0_split -> loss2/classifier_plantvillage_loss2/classifier_plantvillage_0_split_0
I0403 15:42:49.123077 14209 net.cpp:399] loss2/classifier_plantvillage_loss2/classifier_plantvillage_0_split -> loss2/classifier_plantvillage_loss2/classifier_plantvillage_0_split_1
I0403 15:42:49.123116 14209 net.cpp:399] loss2/classifier_plantvillage_loss2/classifier_plantvillage_0_split -> loss2/classifier_plantvillage_loss2/classifier_plantvillage_0_split_2
I0403 15:42:49.123214 14209 net.cpp:141] Setting up loss2/classifier_plantvillage_loss2/classifier_plantvillage_0_split
I0403 15:42:49.123245 14209 net.cpp:148] Top shape: 24 38 (912)
I0403 15:42:49.123265 14209 net.cpp:148] Top shape: 24 38 (912)
I0403 15:42:49.123282 14209 net.cpp:148] Top shape: 24 38 (912)
I0403 15:42:49.123299 14209 net.cpp:156] Memory required for data: 1208432160
I0403 15:42:49.123317 14209 layer_factory.hpp:77] Creating layer inception_4e/1x1
I0403 15:42:49.123342 14209 net.cpp:91] Creating Layer inception_4e/1x1
I0403 15:42:49.123364 14209 net.cpp:425] inception_4e/1x1 <- inception_4d/output_inception_4d/output_0_split_1
I0403 15:42:49.123389 14209 net.cpp:399] inception_4e/1x1 -> inception_4e/1x1
I0403 15:42:49.125643 14209 net.cpp:141] Setting up inception_4e/1x1
I0403 15:42:49.125679 14209 net.cpp:148] Top shape: 24 256 14 14 (1204224)
I0403 15:42:49.125697 14209 net.cpp:156] Memory required for data: 1213249056
I0403 15:42:49.125720 14209 layer_factory.hpp:77] Creating layer inception_4e/relu_1x1
I0403 15:42:49.125741 14209 net.cpp:91] Creating Layer inception_4e/relu_1x1
I0403 15:42:49.125762 14209 net.cpp:425] inception_4e/relu_1x1 <- inception_4e/1x1
I0403 15:42:49.125787 14209 net.cpp:386] inception_4e/relu_1x1 -> inception_4e/1x1 (in-place)
I0403 15:42:49.126155 14209 net.cpp:141] Setting up inception_4e/relu_1x1
I0403 15:42:49.126189 14209 net.cpp:148] Top shape: 24 256 14 14 (1204224)
I0403 15:42:49.126207 14209 net.cpp:156] Memory required for data: 1218065952
I0403 15:42:49.126225 14209 layer_factory.hpp:77] Creating layer inception_4e/3x3_reduce
I0403 15:42:49.126252 14209 net.cpp:91] Creating Layer inception_4e/3x3_reduce
I0403 15:42:49.126274 14209 net.cpp:425] inception_4e/3x3_reduce <- inception_4d/output_inception_4d/output_0_split_2
I0403 15:42:49.126301 14209 net.cpp:399] inception_4e/3x3_reduce -> inception_4e/3x3_reduce
I0403 15:42:49.128880 14209 net.cpp:141] Setting up inception_4e/3x3_reduce
I0403 15:42:49.128918 14209 net.cpp:148] Top shape: 24 160 14 14 (752640)
I0403 15:42:49.128939 14209 net.cpp:156] Memory required for data: 1221076512
I0403 15:42:49.128962 14209 layer_factory.hpp:77] Creating layer inception_4e/relu_3x3_reduce
I0403 15:42:49.128985 14209 net.cpp:91] Creating Layer inception_4e/relu_3x3_reduce
I0403 15:42:49.129005 14209 net.cpp:425] inception_4e/relu_3x3_reduce <- inception_4e/3x3_reduce
I0403 15:42:49.129029 14209 net.cpp:386] inception_4e/relu_3x3_reduce -> inception_4e/3x3_reduce (in-place)
I0403 15:42:49.129272 14209 net.cpp:141] Setting up inception_4e/relu_3x3_reduce
I0403 15:42:49.129304 14209 net.cpp:148] Top shape: 24 160 14 14 (752640)
I0403 15:42:49.129323 14209 net.cpp:156] Memory required for data: 1224087072
I0403 15:42:49.129343 14209 layer_factory.hpp:77] Creating layer inception_4e/3x3
I0403 15:42:49.129369 14209 net.cpp:91] Creating Layer inception_4e/3x3
I0403 15:42:49.129391 14209 net.cpp:425] inception_4e/3x3 <- inception_4e/3x3_reduce
I0403 15:42:49.129417 14209 net.cpp:399] inception_4e/3x3 -> inception_4e/3x3
I0403 15:42:49.135612 14209 net.cpp:141] Setting up inception_4e/3x3
I0403 15:42:49.135664 14209 net.cpp:148] Top shape: 24 320 14 14 (1505280)
I0403 15:42:49.135685 14209 net.cpp:156] Memory required for data: 1230108192
I0403 15:42:49.135707 14209 layer_factory.hpp:77] Creating layer inception_4e/relu_3x3
I0403 15:42:49.135735 14209 net.cpp:91] Creating Layer inception_4e/relu_3x3
I0403 15:42:49.135756 14209 net.cpp:425] inception_4e/relu_3x3 <- inception_4e/3x3
I0403 15:42:49.135777 14209 net.cpp:386] inception_4e/relu_3x3 -> inception_4e/3x3 (in-place)
I0403 15:42:49.136152 14209 net.cpp:141] Setting up inception_4e/relu_3x3
I0403 15:42:49.136185 14209 net.cpp:148] Top shape: 24 320 14 14 (1505280)
I0403 15:42:49.136204 14209 net.cpp:156] Memory required for data: 1236129312
I0403 15:42:49.136221 14209 layer_factory.hpp:77] Creating layer inception_4e/5x5_reduce
I0403 15:42:49.136248 14209 net.cpp:91] Creating Layer inception_4e/5x5_reduce
I0403 15:42:49.136271 14209 net.cpp:425] inception_4e/5x5_reduce <- inception_4d/output_inception_4d/output_0_split_3
I0403 15:42:49.136298 14209 net.cpp:399] inception_4e/5x5_reduce -> inception_4e/5x5_reduce
I0403 15:42:49.137620 14209 net.cpp:141] Setting up inception_4e/5x5_reduce
I0403 15:42:49.137658 14209 net.cpp:148] Top shape: 24 32 14 14 (150528)
I0403 15:42:49.137678 14209 net.cpp:156] Memory required for data: 1236731424
I0403 15:42:49.137701 14209 layer_factory.hpp:77] Creating layer inception_4e/relu_5x5_reduce
I0403 15:42:49.137724 14209 net.cpp:91] Creating Layer inception_4e/relu_5x5_reduce
I0403 15:42:49.137744 14209 net.cpp:425] inception_4e/relu_5x5_reduce <- inception_4e/5x5_reduce
I0403 15:42:49.137768 14209 net.cpp:386] inception_4e/relu_5x5_reduce -> inception_4e/5x5_reduce (in-place)
I0403 15:42:49.138139 14209 net.cpp:141] Setting up inception_4e/relu_5x5_reduce
I0403 15:42:49.138177 14209 net.cpp:148] Top shape: 24 32 14 14 (150528)
I0403 15:42:49.138197 14209 net.cpp:156] Memory required for data: 1237333536
I0403 15:42:49.138216 14209 layer_factory.hpp:77] Creating layer inception_4e/5x5
I0403 15:42:49.138264 14209 net.cpp:91] Creating Layer inception_4e/5x5
I0403 15:42:49.138289 14209 net.cpp:425] inception_4e/5x5 <- inception_4e/5x5_reduce
I0403 15:42:49.138314 14209 net.cpp:399] inception_4e/5x5 -> inception_4e/5x5
I0403 15:42:49.140568 14209 net.cpp:141] Setting up inception_4e/5x5
I0403 15:42:49.140604 14209 net.cpp:148] Top shape: 24 128 14 14 (602112)
I0403 15:42:49.140622 14209 net.cpp:156] Memory required for data: 1239741984
I0403 15:42:49.140645 14209 layer_factory.hpp:77] Creating layer inception_4e/relu_5x5
I0403 15:42:49.140671 14209 net.cpp:91] Creating Layer inception_4e/relu_5x5
I0403 15:42:49.140691 14209 net.cpp:425] inception_4e/relu_5x5 <- inception_4e/5x5
I0403 15:42:49.140713 14209 net.cpp:386] inception_4e/relu_5x5 -> inception_4e/5x5 (in-place)
I0403 15:42:49.140962 14209 net.cpp:141] Setting up inception_4e/relu_5x5
I0403 15:42:49.140995 14209 net.cpp:148] Top shape: 24 128 14 14 (602112)
I0403 15:42:49.141012 14209 net.cpp:156] Memory required for data: 1242150432
I0403 15:42:49.141031 14209 layer_factory.hpp:77] Creating layer inception_4e/pool
I0403 15:42:49.141052 14209 net.cpp:91] Creating Layer inception_4e/pool
I0403 15:42:49.141072 14209 net.cpp:425] inception_4e/pool <- inception_4d/output_inception_4d/output_0_split_4
I0403 15:42:49.141101 14209 net.cpp:399] inception_4e/pool -> inception_4e/pool
I0403 15:42:49.141191 14209 net.cpp:141] Setting up inception_4e/pool
I0403 15:42:49.141222 14209 net.cpp:148] Top shape: 24 528 14 14 (2483712)
I0403 15:42:49.141240 14209 net.cpp:156] Memory required for data: 1252085280
I0403 15:42:49.141258 14209 layer_factory.hpp:77] Creating layer inception_4e/pool_proj
I0403 15:42:49.141285 14209 net.cpp:91] Creating Layer inception_4e/pool_proj
I0403 15:42:49.141307 14209 net.cpp:425] inception_4e/pool_proj <- inception_4e/pool
I0403 15:42:49.141330 14209 net.cpp:399] inception_4e/pool_proj -> inception_4e/pool_proj
I0403 15:42:49.143190 14209 net.cpp:141] Setting up inception_4e/pool_proj
I0403 15:42:49.143226 14209 net.cpp:148] Top shape: 24 128 14 14 (602112)
I0403 15:42:49.143263 14209 net.cpp:156] Memory required for data: 1254493728
I0403 15:42:49.143287 14209 layer_factory.hpp:77] Creating layer inception_4e/relu_pool_proj
I0403 15:42:49.143313 14209 net.cpp:91] Creating Layer inception_4e/relu_pool_proj
I0403 15:42:49.143334 14209 net.cpp:425] inception_4e/relu_pool_proj <- inception_4e/pool_proj
I0403 15:42:49.143355 14209 net.cpp:386] inception_4e/relu_pool_proj -> inception_4e/pool_proj (in-place)
I0403 15:42:49.143710 14209 net.cpp:141] Setting up inception_4e/relu_pool_proj
I0403 15:42:49.143743 14209 net.cpp:148] Top shape: 24 128 14 14 (602112)
I0403 15:42:49.143762 14209 net.cpp:156] Memory required for data: 1256902176
I0403 15:42:49.143780 14209 layer_factory.hpp:77] Creating layer inception_4e/output
I0403 15:42:49.143805 14209 net.cpp:91] Creating Layer inception_4e/output
I0403 15:42:49.143824 14209 net.cpp:425] inception_4e/output <- inception_4e/1x1
I0403 15:42:49.143846 14209 net.cpp:425] inception_4e/output <- inception_4e/3x3
I0403 15:42:49.143865 14209 net.cpp:425] inception_4e/output <- inception_4e/5x5
I0403 15:42:49.143884 14209 net.cpp:425] inception_4e/output <- inception_4e/pool_proj
I0403 15:42:49.143905 14209 net.cpp:399] inception_4e/output -> inception_4e/output
I0403 15:42:49.143968 14209 net.cpp:141] Setting up inception_4e/output
I0403 15:42:49.143998 14209 net.cpp:148] Top shape: 24 832 14 14 (3913728)
I0403 15:42:49.144016 14209 net.cpp:156] Memory required for data: 1272557088
I0403 15:42:49.144034 14209 layer_factory.hpp:77] Creating layer pool4/3x3_s2
I0403 15:42:49.144055 14209 net.cpp:91] Creating Layer pool4/3x3_s2
I0403 15:42:49.144074 14209 net.cpp:425] pool4/3x3_s2 <- inception_4e/output
I0403 15:42:49.144104 14209 net.cpp:399] pool4/3x3_s2 -> pool4/3x3_s2
I0403 15:42:49.144189 14209 net.cpp:141] Setting up pool4/3x3_s2
I0403 15:42:49.144219 14209 net.cpp:148] Top shape: 24 832 7 7 (978432)
I0403 15:42:49.144237 14209 net.cpp:156] Memory required for data: 1276470816
I0403 15:42:49.144253 14209 layer_factory.hpp:77] Creating layer pool4/3x3_s2_pool4/3x3_s2_0_split
I0403 15:42:49.144279 14209 net.cpp:91] Creating Layer pool4/3x3_s2_pool4/3x3_s2_0_split
I0403 15:42:49.144299 14209 net.cpp:425] pool4/3x3_s2_pool4/3x3_s2_0_split <- pool4/3x3_s2
I0403 15:42:49.144323 14209 net.cpp:399] pool4/3x3_s2_pool4/3x3_s2_0_split -> pool4/3x3_s2_pool4/3x3_s2_0_split_0
I0403 15:42:49.144350 14209 net.cpp:399] pool4/3x3_s2_pool4/3x3_s2_0_split -> pool4/3x3_s2_pool4/3x3_s2_0_split_1
I0403 15:42:49.144376 14209 net.cpp:399] pool4/3x3_s2_pool4/3x3_s2_0_split -> pool4/3x3_s2_pool4/3x3_s2_0_split_2
I0403 15:42:49.144400 14209 net.cpp:399] pool4/3x3_s2_pool4/3x3_s2_0_split -> pool4/3x3_s2_pool4/3x3_s2_0_split_3
I0403 15:42:49.144511 14209 net.cpp:141] Setting up pool4/3x3_s2_pool4/3x3_s2_0_split
I0403 15:42:49.144543 14209 net.cpp:148] Top shape: 24 832 7 7 (978432)
I0403 15:42:49.144564 14209 net.cpp:148] Top shape: 24 832 7 7 (978432)
I0403 15:42:49.144583 14209 net.cpp:148] Top shape: 24 832 7 7 (978432)
I0403 15:42:49.144601 14209 net.cpp:148] Top shape: 24 832 7 7 (978432)
I0403 15:42:49.144618 14209 net.cpp:156] Memory required for data: 1292125728
I0403 15:42:49.144635 14209 layer_factory.hpp:77] Creating layer inception_5a/1x1
I0403 15:42:49.144665 14209 net.cpp:91] Creating Layer inception_5a/1x1
I0403 15:42:49.144687 14209 net.cpp:425] inception_5a/1x1 <- pool4/3x3_s2_pool4/3x3_s2_0_split_0
I0403 15:42:49.144711 14209 net.cpp:399] inception_5a/1x1 -> inception_5a/1x1
I0403 15:42:49.148211 14209 net.cpp:141] Setting up inception_5a/1x1
I0403 15:42:49.148250 14209 net.cpp:148] Top shape: 24 256 7 7 (301056)
I0403 15:42:49.148272 14209 net.cpp:156] Memory required for data: 1293329952
I0403 15:42:49.148294 14209 layer_factory.hpp:77] Creating layer inception_5a/relu_1x1
I0403 15:42:49.148316 14209 net.cpp:91] Creating Layer inception_5a/relu_1x1
I0403 15:42:49.148337 14209 net.cpp:425] inception_5a/relu_1x1 <- inception_5a/1x1
I0403 15:42:49.148358 14209 net.cpp:386] inception_5a/relu_1x1 -> inception_5a/1x1 (in-place)
I0403 15:42:49.148744 14209 net.cpp:141] Setting up inception_5a/relu_1x1
I0403 15:42:49.148782 14209 net.cpp:148] Top shape: 24 256 7 7 (301056)
I0403 15:42:49.148802 14209 net.cpp:156] Memory required for data: 1294534176
I0403 15:42:49.148819 14209 layer_factory.hpp:77] Creating layer inception_5a/3x3_reduce
I0403 15:42:49.148847 14209 net.cpp:91] Creating Layer inception_5a/3x3_reduce
I0403 15:42:49.148869 14209 net.cpp:425] inception_5a/3x3_reduce <- pool4/3x3_s2_pool4/3x3_s2_0_split_1
I0403 15:42:49.148896 14209 net.cpp:399] inception_5a/3x3_reduce -> inception_5a/3x3_reduce
I0403 15:42:49.151902 14209 net.cpp:141] Setting up inception_5a/3x3_reduce
I0403 15:42:49.151939 14209 net.cpp:148] Top shape: 24 160 7 7 (188160)
I0403 15:42:49.151959 14209 net.cpp:156] Memory required for data: 1295286816
I0403 15:42:49.151981 14209 layer_factory.hpp:77] Creating layer inception_5a/relu_3x3_reduce
I0403 15:42:49.152006 14209 net.cpp:91] Creating Layer inception_5a/relu_3x3_reduce
I0403 15:42:49.152027 14209 net.cpp:425] inception_5a/relu_3x3_reduce <- inception_5a/3x3_reduce
I0403 15:42:49.152050 14209 net.cpp:386] inception_5a/relu_3x3_reduce -> inception_5a/3x3_reduce (in-place)
I0403 15:42:49.152292 14209 net.cpp:141] Setting up inception_5a/relu_3x3_reduce
I0403 15:42:49.152326 14209 net.cpp:148] Top shape: 24 160 7 7 (188160)
I0403 15:42:49.152346 14209 net.cpp:156] Memory required for data: 1296039456
I0403 15:42:49.152364 14209 layer_factory.hpp:77] Creating layer inception_5a/3x3
I0403 15:42:49.152393 14209 net.cpp:91] Creating Layer inception_5a/3x3
I0403 15:42:49.152415 14209 net.cpp:425] inception_5a/3x3 <- inception_5a/3x3_reduce
I0403 15:42:49.152439 14209 net.cpp:399] inception_5a/3x3 -> inception_5a/3x3
I0403 15:42:49.158675 14209 net.cpp:141] Setting up inception_5a/3x3
I0403 15:42:49.158715 14209 net.cpp:148] Top shape: 24 320 7 7 (376320)
I0403 15:42:49.158737 14209 net.cpp:156] Memory required for data: 1297544736
I0403 15:42:49.158759 14209 layer_factory.hpp:77] Creating layer inception_5a/relu_3x3
I0403 15:42:49.158782 14209 net.cpp:91] Creating Layer inception_5a/relu_3x3
I0403 15:42:49.158802 14209 net.cpp:425] inception_5a/relu_3x3 <- inception_5a/3x3
I0403 15:42:49.158826 14209 net.cpp:386] inception_5a/relu_3x3 -> inception_5a/3x3 (in-place)
I0403 15:42:49.159190 14209 net.cpp:141] Setting up inception_5a/relu_3x3
I0403 15:42:49.159229 14209 net.cpp:148] Top shape: 24 320 7 7 (376320)
I0403 15:42:49.159250 14209 net.cpp:156] Memory required for data: 1299050016
I0403 15:42:49.159267 14209 layer_factory.hpp:77] Creating layer inception_5a/5x5_reduce
I0403 15:42:49.159296 14209 net.cpp:91] Creating Layer inception_5a/5x5_reduce
I0403 15:42:49.159319 14209 net.cpp:425] inception_5a/5x5_reduce <- pool4/3x3_s2_pool4/3x3_s2_0_split_2
I0403 15:42:49.159343 14209 net.cpp:399] inception_5a/5x5_reduce -> inception_5a/5x5_reduce
I0403 15:42:49.160799 14209 net.cpp:141] Setting up inception_5a/5x5_reduce
I0403 15:42:49.160836 14209 net.cpp:148] Top shape: 24 32 7 7 (37632)
I0403 15:42:49.160857 14209 net.cpp:156] Memory required for data: 1299200544
I0403 15:42:49.160881 14209 layer_factory.hpp:77] Creating layer inception_5a/relu_5x5_reduce
I0403 15:42:49.160902 14209 net.cpp:91] Creating Layer inception_5a/relu_5x5_reduce
I0403 15:42:49.160922 14209 net.cpp:425] inception_5a/relu_5x5_reduce <- inception_5a/5x5_reduce
I0403 15:42:49.160944 14209 net.cpp:386] inception_5a/relu_5x5_reduce -> inception_5a/5x5_reduce (in-place)
I0403 15:42:49.161329 14209 net.cpp:141] Setting up inception_5a/relu_5x5_reduce
I0403 15:42:49.161360 14209 net.cpp:148] Top shape: 24 32 7 7 (37632)
I0403 15:42:49.161380 14209 net.cpp:156] Memory required for data: 1299351072
I0403 15:42:49.161398 14209 layer_factory.hpp:77] Creating layer inception_5a/5x5
I0403 15:42:49.161425 14209 net.cpp:91] Creating Layer inception_5a/5x5
I0403 15:42:49.161448 14209 net.cpp:425] inception_5a/5x5 <- inception_5a/5x5_reduce
I0403 15:42:49.161475 14209 net.cpp:399] inception_5a/5x5 -> inception_5a/5x5
I0403 15:42:49.163619 14209 net.cpp:141] Setting up inception_5a/5x5
I0403 15:42:49.163674 14209 net.cpp:148] Top shape: 24 128 7 7 (150528)
I0403 15:42:49.163697 14209 net.cpp:156] Memory required for data: 1299953184
I0403 15:42:49.163719 14209 layer_factory.hpp:77] Creating layer inception_5a/relu_5x5
I0403 15:42:49.163743 14209 net.cpp:91] Creating Layer inception_5a/relu_5x5
I0403 15:42:49.163763 14209 net.cpp:425] inception_5a/relu_5x5 <- inception_5a/5x5
I0403 15:42:49.163786 14209 net.cpp:386] inception_5a/relu_5x5 -> inception_5a/5x5 (in-place)
I0403 15:42:49.164027 14209 net.cpp:141] Setting up inception_5a/relu_5x5
I0403 15:42:49.164059 14209 net.cpp:148] Top shape: 24 128 7 7 (150528)
I0403 15:42:49.164077 14209 net.cpp:156] Memory required for data: 1300555296
I0403 15:42:49.164099 14209 layer_factory.hpp:77] Creating layer inception_5a/pool
I0403 15:42:49.164124 14209 net.cpp:91] Creating Layer inception_5a/pool
I0403 15:42:49.164144 14209 net.cpp:425] inception_5a/pool <- pool4/3x3_s2_pool4/3x3_s2_0_split_3
I0403 15:42:49.164170 14209 net.cpp:399] inception_5a/pool -> inception_5a/pool
I0403 15:42:49.164259 14209 net.cpp:141] Setting up inception_5a/pool
I0403 15:42:49.164289 14209 net.cpp:148] Top shape: 24 832 7 7 (978432)
I0403 15:42:49.164306 14209 net.cpp:156] Memory required for data: 1304469024
I0403 15:42:49.164324 14209 layer_factory.hpp:77] Creating layer inception_5a/pool_proj
I0403 15:42:49.164352 14209 net.cpp:91] Creating Layer inception_5a/pool_proj
I0403 15:42:49.164374 14209 net.cpp:425] inception_5a/pool_proj <- inception_5a/pool
I0403 15:42:49.164397 14209 net.cpp:399] inception_5a/pool_proj -> inception_5a/pool_proj
I0403 15:42:49.167192 14209 net.cpp:141] Setting up inception_5a/pool_proj
I0403 15:42:49.167230 14209 net.cpp:148] Top shape: 24 128 7 7 (150528)
I0403 15:42:49.167249 14209 net.cpp:156] Memory required for data: 1305071136
I0403 15:42:49.167271 14209 layer_factory.hpp:77] Creating layer inception_5a/relu_pool_proj
I0403 15:42:49.167297 14209 net.cpp:91] Creating Layer inception_5a/relu_pool_proj
I0403 15:42:49.167317 14209 net.cpp:425] inception_5a/relu_pool_proj <- inception_5a/pool_proj
I0403 15:42:49.167340 14209 net.cpp:386] inception_5a/relu_pool_proj -> inception_5a/pool_proj (in-place)
I0403 15:42:49.167703 14209 net.cpp:141] Setting up inception_5a/relu_pool_proj
I0403 15:42:49.167737 14209 net.cpp:148] Top shape: 24 128 7 7 (150528)
I0403 15:42:49.167755 14209 net.cpp:156] Memory required for data: 1305673248
I0403 15:42:49.167773 14209 layer_factory.hpp:77] Creating layer inception_5a/output
I0403 15:42:49.167796 14209 net.cpp:91] Creating Layer inception_5a/output
I0403 15:42:49.167817 14209 net.cpp:425] inception_5a/output <- inception_5a/1x1
I0403 15:42:49.167839 14209 net.cpp:425] inception_5a/output <- inception_5a/3x3
I0403 15:42:49.167858 14209 net.cpp:425] inception_5a/output <- inception_5a/5x5
I0403 15:42:49.167877 14209 net.cpp:425] inception_5a/output <- inception_5a/pool_proj
I0403 15:42:49.167898 14209 net.cpp:399] inception_5a/output -> inception_5a/output
I0403 15:42:49.167963 14209 net.cpp:141] Setting up inception_5a/output
I0403 15:42:49.167991 14209 net.cpp:148] Top shape: 24 832 7 7 (978432)
I0403 15:42:49.168009 14209 net.cpp:156] Memory required for data: 1309586976
I0403 15:42:49.168027 14209 layer_factory.hpp:77] Creating layer inception_5a/output_inception_5a/output_0_split
I0403 15:42:49.168047 14209 net.cpp:91] Creating Layer inception_5a/output_inception_5a/output_0_split
I0403 15:42:49.168066 14209 net.cpp:425] inception_5a/output_inception_5a/output_0_split <- inception_5a/output
I0403 15:42:49.168092 14209 net.cpp:399] inception_5a/output_inception_5a/output_0_split -> inception_5a/output_inception_5a/output_0_split_0
I0403 15:42:49.168124 14209 net.cpp:399] inception_5a/output_inception_5a/output_0_split -> inception_5a/output_inception_5a/output_0_split_1
I0403 15:42:49.168151 14209 net.cpp:399] inception_5a/output_inception_5a/output_0_split -> inception_5a/output_inception_5a/output_0_split_2
I0403 15:42:49.168179 14209 net.cpp:399] inception_5a/output_inception_5a/output_0_split -> inception_5a/output_inception_5a/output_0_split_3
I0403 15:42:49.168320 14209 net.cpp:141] Setting up inception_5a/output_inception_5a/output_0_split
I0403 15:42:49.168350 14209 net.cpp:148] Top shape: 24 832 7 7 (978432)
I0403 15:42:49.168371 14209 net.cpp:148] Top shape: 24 832 7 7 (978432)
I0403 15:42:49.168390 14209 net.cpp:148] Top shape: 24 832 7 7 (978432)
I0403 15:42:49.168408 14209 net.cpp:148] Top shape: 24 832 7 7 (978432)
I0403 15:42:49.168426 14209 net.cpp:156] Memory required for data: 1325241888
I0403 15:42:49.168442 14209 layer_factory.hpp:77] Creating layer inception_5b/1x1
I0403 15:42:49.168470 14209 net.cpp:91] Creating Layer inception_5b/1x1
I0403 15:42:49.168493 14209 net.cpp:425] inception_5b/1x1 <- inception_5a/output_inception_5a/output_0_split_0
I0403 15:42:49.168519 14209 net.cpp:399] inception_5b/1x1 -> inception_5b/1x1
I0403 15:42:49.173171 14209 net.cpp:141] Setting up inception_5b/1x1
I0403 15:42:49.173208 14209 net.cpp:148] Top shape: 24 384 7 7 (451584)
I0403 15:42:49.173228 14209 net.cpp:156] Memory required for data: 1327048224
I0403 15:42:49.173250 14209 layer_factory.hpp:77] Creating layer inception_5b/relu_1x1
I0403 15:42:49.173275 14209 net.cpp:91] Creating Layer inception_5b/relu_1x1
I0403 15:42:49.173297 14209 net.cpp:425] inception_5b/relu_1x1 <- inception_5b/1x1
I0403 15:42:49.173319 14209 net.cpp:386] inception_5b/relu_1x1 -> inception_5b/1x1 (in-place)
I0403 15:42:49.173697 14209 net.cpp:141] Setting up inception_5b/relu_1x1
I0403 15:42:49.173730 14209 net.cpp:148] Top shape: 24 384 7 7 (451584)
I0403 15:42:49.173748 14209 net.cpp:156] Memory required for data: 1328854560
I0403 15:42:49.173766 14209 layer_factory.hpp:77] Creating layer inception_5b/3x3_reduce
I0403 15:42:49.173794 14209 net.cpp:91] Creating Layer inception_5b/3x3_reduce
I0403 15:42:49.173817 14209 net.cpp:425] inception_5b/3x3_reduce <- inception_5a/output_inception_5a/output_0_split_1
I0403 15:42:49.173846 14209 net.cpp:399] inception_5b/3x3_reduce -> inception_5b/3x3_reduce
I0403 15:42:49.177124 14209 net.cpp:141] Setting up inception_5b/3x3_reduce
I0403 15:42:49.177161 14209 net.cpp:148] Top shape: 24 192 7 7 (225792)
I0403 15:42:49.177181 14209 net.cpp:156] Memory required for data: 1329757728
I0403 15:42:49.177203 14209 layer_factory.hpp:77] Creating layer inception_5b/relu_3x3_reduce
I0403 15:42:49.177228 14209 net.cpp:91] Creating Layer inception_5b/relu_3x3_reduce
I0403 15:42:49.177250 14209 net.cpp:425] inception_5b/relu_3x3_reduce <- inception_5b/3x3_reduce
I0403 15:42:49.177273 14209 net.cpp:386] inception_5b/relu_3x3_reduce -> inception_5b/3x3_reduce (in-place)
I0403 15:42:49.177510 14209 net.cpp:141] Setting up inception_5b/relu_3x3_reduce
I0403 15:42:49.177544 14209 net.cpp:148] Top shape: 24 192 7 7 (225792)
I0403 15:42:49.177564 14209 net.cpp:156] Memory required for data: 1330660896
I0403 15:42:49.177583 14209 layer_factory.hpp:77] Creating layer inception_5b/3x3
I0403 15:42:49.177610 14209 net.cpp:91] Creating Layer inception_5b/3x3
I0403 15:42:49.177633 14209 net.cpp:425] inception_5b/3x3 <- inception_5b/3x3_reduce
I0403 15:42:49.177655 14209 net.cpp:399] inception_5b/3x3 -> inception_5b/3x3
I0403 15:42:49.185991 14209 net.cpp:141] Setting up inception_5b/3x3
I0403 15:42:49.186027 14209 net.cpp:148] Top shape: 24 384 7 7 (451584)
I0403 15:42:49.186045 14209 net.cpp:156] Memory required for data: 1332467232
I0403 15:42:49.186069 14209 layer_factory.hpp:77] Creating layer inception_5b/relu_3x3
I0403 15:42:49.186100 14209 net.cpp:91] Creating Layer inception_5b/relu_3x3
I0403 15:42:49.186121 14209 net.cpp:425] inception_5b/relu_3x3 <- inception_5b/3x3
I0403 15:42:49.186144 14209 net.cpp:386] inception_5b/relu_3x3 -> inception_5b/3x3 (in-place)
I0403 15:42:49.186513 14209 net.cpp:141] Setting up inception_5b/relu_3x3
I0403 15:42:49.186547 14209 net.cpp:148] Top shape: 24 384 7 7 (451584)
I0403 15:42:49.186571 14209 net.cpp:156] Memory required for data: 1334273568
I0403 15:42:49.186590 14209 layer_factory.hpp:77] Creating layer inception_5b/5x5_reduce
I0403 15:42:49.186635 14209 net.cpp:91] Creating Layer inception_5b/5x5_reduce
I0403 15:42:49.186658 14209 net.cpp:425] inception_5b/5x5_reduce <- inception_5a/output_inception_5a/output_0_split_2
I0403 15:42:49.186686 14209 net.cpp:399] inception_5b/5x5_reduce -> inception_5b/5x5_reduce
I0403 15:42:49.188282 14209 net.cpp:141] Setting up inception_5b/5x5_reduce
I0403 15:42:49.188316 14209 net.cpp:148] Top shape: 24 48 7 7 (56448)
I0403 15:42:49.188336 14209 net.cpp:156] Memory required for data: 1334499360
I0403 15:42:49.188359 14209 layer_factory.hpp:77] Creating layer inception_5b/relu_5x5_reduce
I0403 15:42:49.188385 14209 net.cpp:91] Creating Layer inception_5b/relu_5x5_reduce
I0403 15:42:49.188406 14209 net.cpp:425] inception_5b/relu_5x5_reduce <- inception_5b/5x5_reduce
I0403 15:42:49.188428 14209 net.cpp:386] inception_5b/relu_5x5_reduce -> inception_5b/5x5_reduce (in-place)
I0403 15:42:49.188885 14209 net.cpp:141] Setting up inception_5b/relu_5x5_reduce
I0403 15:42:49.188920 14209 net.cpp:148] Top shape: 24 48 7 7 (56448)
I0403 15:42:49.188938 14209 net.cpp:156] Memory required for data: 1334725152
I0403 15:42:49.188957 14209 layer_factory.hpp:77] Creating layer inception_5b/5x5
I0403 15:42:49.188982 14209 net.cpp:91] Creating Layer inception_5b/5x5
I0403 15:42:49.189003 14209 net.cpp:425] inception_5b/5x5 <- inception_5b/5x5_reduce
I0403 15:42:49.189028 14209 net.cpp:399] inception_5b/5x5 -> inception_5b/5x5
I0403 15:42:49.191581 14209 net.cpp:141] Setting up inception_5b/5x5
I0403 15:42:49.191618 14209 net.cpp:148] Top shape: 24 128 7 7 (150528)
I0403 15:42:49.191638 14209 net.cpp:156] Memory required for data: 1335327264
I0403 15:42:49.191661 14209 layer_factory.hpp:77] Creating layer inception_5b/relu_5x5
I0403 15:42:49.191682 14209 net.cpp:91] Creating Layer inception_5b/relu_5x5
I0403 15:42:49.191704 14209 net.cpp:425] inception_5b/relu_5x5 <- inception_5b/5x5
I0403 15:42:49.191725 14209 net.cpp:386] inception_5b/relu_5x5 -> inception_5b/5x5 (in-place)
I0403 15:42:49.191973 14209 net.cpp:141] Setting up inception_5b/relu_5x5
I0403 15:42:49.192004 14209 net.cpp:148] Top shape: 24 128 7 7 (150528)
I0403 15:42:49.192023 14209 net.cpp:156] Memory required for data: 1335929376
I0403 15:42:49.192041 14209 layer_factory.hpp:77] Creating layer inception_5b/pool
I0403 15:42:49.192064 14209 net.cpp:91] Creating Layer inception_5b/pool
I0403 15:42:49.192083 14209 net.cpp:425] inception_5b/pool <- inception_5a/output_inception_5a/output_0_split_3
I0403 15:42:49.192114 14209 net.cpp:399] inception_5b/pool -> inception_5b/pool
I0403 15:42:49.192206 14209 net.cpp:141] Setting up inception_5b/pool
I0403 15:42:49.192239 14209 net.cpp:148] Top shape: 24 832 7 7 (978432)
I0403 15:42:49.192258 14209 net.cpp:156] Memory required for data: 1339843104
I0403 15:42:49.192276 14209 layer_factory.hpp:77] Creating layer inception_5b/pool_proj
I0403 15:42:49.192302 14209 net.cpp:91] Creating Layer inception_5b/pool_proj
I0403 15:42:49.192325 14209 net.cpp:425] inception_5b/pool_proj <- inception_5b/pool
I0403 15:42:49.192348 14209 net.cpp:399] inception_5b/pool_proj -> inception_5b/pool_proj
I0403 15:42:49.195196 14209 net.cpp:141] Setting up inception_5b/pool_proj
I0403 15:42:49.195235 14209 net.cpp:148] Top shape: 24 128 7 7 (150528)
I0403 15:42:49.195255 14209 net.cpp:156] Memory required for data: 1340445216
I0403 15:42:49.195276 14209 layer_factory.hpp:77] Creating layer inception_5b/relu_pool_proj
I0403 15:42:49.195302 14209 net.cpp:91] Creating Layer inception_5b/relu_pool_proj
I0403 15:42:49.195323 14209 net.cpp:425] inception_5b/relu_pool_proj <- inception_5b/pool_proj
I0403 15:42:49.195345 14209 net.cpp:386] inception_5b/relu_pool_proj -> inception_5b/pool_proj (in-place)
I0403 15:42:49.195714 14209 net.cpp:141] Setting up inception_5b/relu_pool_proj
I0403 15:42:49.195749 14209 net.cpp:148] Top shape: 24 128 7 7 (150528)
I0403 15:42:49.195767 14209 net.cpp:156] Memory required for data: 1341047328
I0403 15:42:49.195785 14209 layer_factory.hpp:77] Creating layer inception_5b/output
I0403 15:42:49.195811 14209 net.cpp:91] Creating Layer inception_5b/output
I0403 15:42:49.195849 14209 net.cpp:425] inception_5b/output <- inception_5b/1x1
I0403 15:42:49.195873 14209 net.cpp:425] inception_5b/output <- inception_5b/3x3
I0403 15:42:49.195894 14209 net.cpp:425] inception_5b/output <- inception_5b/5x5
I0403 15:42:49.195914 14209 net.cpp:425] inception_5b/output <- inception_5b/pool_proj
I0403 15:42:49.195935 14209 net.cpp:399] inception_5b/output -> inception_5b/output
I0403 15:42:49.196001 14209 net.cpp:141] Setting up inception_5b/output
I0403 15:42:49.196032 14209 net.cpp:148] Top shape: 24 1024 7 7 (1204224)
I0403 15:42:49.196049 14209 net.cpp:156] Memory required for data: 1345864224
I0403 15:42:49.196068 14209 layer_factory.hpp:77] Creating layer pool5/7x7_s1
I0403 15:42:49.196087 14209 net.cpp:91] Creating Layer pool5/7x7_s1
I0403 15:42:49.196115 14209 net.cpp:425] pool5/7x7_s1 <- inception_5b/output
I0403 15:42:49.196141 14209 net.cpp:399] pool5/7x7_s1 -> pool5/7x7_s1
I0403 15:42:49.196413 14209 net.cpp:141] Setting up pool5/7x7_s1
I0403 15:42:49.196449 14209 net.cpp:148] Top shape: 24 1024 1 1 (24576)
I0403 15:42:49.196468 14209 net.cpp:156] Memory required for data: 1345962528
I0403 15:42:49.196487 14209 layer_factory.hpp:77] Creating layer pool5/drop_7x7_s1
I0403 15:42:49.196508 14209 net.cpp:91] Creating Layer pool5/drop_7x7_s1
I0403 15:42:49.196527 14209 net.cpp:425] pool5/drop_7x7_s1 <- pool5/7x7_s1
I0403 15:42:49.196548 14209 net.cpp:386] pool5/drop_7x7_s1 -> pool5/7x7_s1 (in-place)
I0403 15:42:49.196612 14209 net.cpp:141] Setting up pool5/drop_7x7_s1
I0403 15:42:49.196641 14209 net.cpp:148] Top shape: 24 1024 1 1 (24576)
I0403 15:42:49.196660 14209 net.cpp:156] Memory required for data: 1346060832
I0403 15:42:49.196677 14209 layer_factory.hpp:77] Creating layer loss3/classifier_plantvillage
I0403 15:42:49.196704 14209 net.cpp:91] Creating Layer loss3/classifier_plantvillage
I0403 15:42:49.196727 14209 net.cpp:425] loss3/classifier_plantvillage <- pool5/7x7_s1
I0403 15:42:49.196749 14209 net.cpp:399] loss3/classifier_plantvillage -> loss3/classifier_plantvillage
I0403 15:42:49.197286 14209 net.cpp:141] Setting up loss3/classifier_plantvillage
I0403 15:42:49.197319 14209 net.cpp:148] Top shape: 24 38 (912)
I0403 15:42:49.197336 14209 net.cpp:156] Memory required for data: 1346064480
I0403 15:42:49.197357 14209 layer_factory.hpp:77] Creating layer loss3/classifier_plantvillage_loss3/classifier_plantvillage_0_split
I0403 15:42:49.197381 14209 net.cpp:91] Creating Layer loss3/classifier_plantvillage_loss3/classifier_plantvillage_0_split
I0403 15:42:49.197401 14209 net.cpp:425] loss3/classifier_plantvillage_loss3/classifier_plantvillage_0_split <- loss3/classifier_plantvillage
I0403 15:42:49.197427 14209 net.cpp:399] loss3/classifier_plantvillage_loss3/classifier_plantvillage_0_split -> loss3/classifier_plantvillage_loss3/classifier_plantvillage_0_split_0
I0403 15:42:49.197453 14209 net.cpp:399] loss3/classifier_plantvillage_loss3/classifier_plantvillage_0_split -> loss3/classifier_plantvillage_loss3/classifier_plantvillage_0_split_1
I0403 15:42:49.197479 14209 net.cpp:399] loss3/classifier_plantvillage_loss3/classifier_plantvillage_0_split -> loss3/classifier_plantvillage_loss3/classifier_plantvillage_0_split_2
I0403 15:42:49.197502 14209 net.cpp:399] loss3/classifier_plantvillage_loss3/classifier_plantvillage_0_split -> loss3/classifier_plantvillage_loss3/classifier_plantvillage_0_split_3
I0403 15:42:49.197628 14209 net.cpp:141] Setting up loss3/classifier_plantvillage_loss3/classifier_plantvillage_0_split
I0403 15:42:49.197657 14209 net.cpp:148] Top shape: 24 38 (912)
I0403 15:42:49.197677 14209 net.cpp:148] Top shape: 24 38 (912)
I0403 15:42:49.197695 14209 net.cpp:148] Top shape: 24 38 (912)
I0403 15:42:49.197715 14209 net.cpp:148] Top shape: 24 38 (912)
I0403 15:42:49.197731 14209 net.cpp:156] Memory required for data: 1346079072
I0403 15:42:49.197747 14209 layer_factory.hpp:77] Creating layer loss1/loss
I0403 15:42:49.197774 14209 net.cpp:91] Creating Layer loss1/loss
I0403 15:42:49.197795 14209 net.cpp:425] loss1/loss <- loss1/classifier_plantvillage_loss1/classifier_plantvillage_0_split_0
I0403 15:42:49.197834 14209 net.cpp:425] loss1/loss <- label_data_1_split_0
…
