…
I0403 15:54:53.255465 14844 net.cpp:313] The NetState phase (1) differed from the phase (0) specified by a rule in layer data
I0403 15:54:53.256609 14844 net.cpp:49] Initializing net from parameters: 
state {
  phase: TEST
}
layer {
  name: "data"
  type: "Data"
  top: "data"
  top: "label"
  include {
    phase: TEST
  }
  transform_param {
    mirror: false
    crop_size: 224
    mean_file: "/home/mohanty/data/final_dataset/lmdb/color-80-20/mean.binaryproto"
  }
  data_param {
    source: "/home/mohanty/data/final_dataset/lmdb/color-80-20/test_db"
    batch_size: 24
    backend: LMDB
  }
}
layer {
  name: "conv1/7x7_s2"
  type: "Convolution"
  bottom: "data"
  top: "conv1/7x7_s2"
  param {
    lr_mult: 1
    decay_mult: 1
  }
  param {
    lr_mult: 2
    decay_mult: 0
  }
  convolution_param {
    num_output: 64
    pad: 3
    kernel_size: 7
    stride: 2
    weight_filler {
      type: "xavier"
      std: 0.1
    }
    bias_filler {
      type: "constant"
      value: 0.2
    }
  }
}
layer {
  name: "conv1/relu_7x7"
  type: "ReLU"
  bottom: "conv1/7x7_s2"
  top: "conv1/7x7_s2"
}
layer {
  name: "pool1/3x3_s2"
  type: "Pooling"
  bottom: "conv1/7x7_s2"
  top: "pool1/3x3_s2"
  pooling_param {
    pool: MAX
    kernel_size: 3
    stride: 2
  }
}
layer {
  name: "pool1/norm1"
  type: "LRN"
  bottom: "pool1/3x3_s2"
  top: "pool1/norm1"
  lrn_param {
    local_size: 5
    alpha: 0.0001
    beta: 0.75
  }
}
layer {
  name: "conv2/3x3_reduce"
  type: "Convolution"
  bottom: "pool1/norm1"
  top: "conv2/3x3_reduce"
  param {
    lr_mult: 1
    decay_mult: 1
  }
  param {
    lr_mult: 2
    decay_mult: 0
  }
  convolution_param {
    num_output: 64
    kernel_size: 1
    weight_filler {
      type: "xavier"
      std: 0.1
    }
    bias_filler {
      type: "constant"
      value: 0.2
    }
  }
}
layer {
  name: "conv2/relu_3x3_reduce"
  type: "ReLU"
  bottom: "conv2/3x3_reduce"
  top: "conv2/3x3_reduce"
}
layer {
  name: "conv2/3x3"
  type: "Convolution"
  bottom: "conv2/3x3_reduce"
  top: "conv2/3x3"
  param {
    lr_mult: 1
    decay_mult: 1
  }
  param {
    lr_mult: 2
    decay_mult: 0
  }
  convolution_param {
    num_output: 192
    pad: 1
    kernel_size: 3
    weight_filler {
      type: "xavier"
      std: 0.03
    }
    bias_filler {
      type: "constant"
      value: 0.2
    }
  }
}
layer {
  name: "conv2/relu_3x3"
  type: "ReLU"
  bottom: "conv2/3x3"
  top: "conv2/3x3"
}
layer {
  name: "conv2/norm2"
  type: "LRN"
  bottom: "conv2/3x3"
  top: "conv2/norm2"
  lrn_param {
    local_size: 5
    alpha: 0.0001
    beta: 0.75
  }
}
layer {
  name: "pool2/3x3_s2"
  type: "Pooling"
  bottom: "conv2/norm2"
  top: "pool2/3x3_s2"
  pooling_param {
    pool: MAX
    kernel_size: 3
    stride: 2
  }
}
layer {
  name: "inception_3a/1x1"
  type: "Convolution"
  bottom: "pool2/3x3_s2"
  top: "inception_3a/1x1"
  param {
    lr_mult: 1
    decay_mult: 1
  }
  param {
    lr_mult: 2
    decay_mult: 0
  }
  convolution_param {
    num_output: 64
    kernel_size: 1
    weight_filler {
      type: "xavier"
      std: 0.03
    }
    bias_filler {
      type: "constant"
      value: 0.2
    }
  }
}
layer {
  name: "inception_3a/relu_1x1"
  type: "ReLU"
  bottom: "inception_3a/1x1"
  top: "inception_3a/1x1"
}
layer {
  name: "inception_3a/3x3_reduce"
  type: "Convolution"
  bottom: "pool2/3x3_s2"
  top: "inception_3a/3x3_reduce"
  param {
    lr_mult: 1
    decay_mult: 1
  }
  param {
    lr_mult: 2
    decay_mult: 0
  }
  convolution_param {
    num_output: 96
    kernel_size: 1
    weight_filler {
      type: "xavier"
      std: 0.09
    }
    bias_filler {
      type: "constant"
      value: 0.2
    }
  }
}
layer {
  name: "inception_3a/relu_3x3_reduce"
  type: "ReLU"
  bottom: "inception_3a/3x3_reduce"
  top: "inception_3a/3x3_reduce"
}
layer {
  name: "inception_3a/3x3"
  type: "Convolution"
  bottom: "inception_3a/3x3_reduce"
  top: "inception_3a/3x3"
  param {
    lr_mult: 1
    decay_mult: 1
  }
  param {
    lr_mult: 2
    decay_mult: 0
  }
  convolution_param {
    num_output: 128
    pad: 1
    kernel_size: 3
    weight_filler {
      type: "xavier"
      std: 0.03
    }
    bias_filler {
      type: "constant"
      value: 0.2
    }
  }
}
layer {
  name: "inception_3a/relu_3x3"
  type: "ReLU"
  bottom: "inception_3a/3x3"
  top: "inception_3a/3x3"
}
layer {
  name: "inception_3a/5x5_reduce"
  type: "Convolution"
  bottom: "pool2/3x3_s2"
  top: "inception_3a/5x5_reduce"
  param {
    lr_mult: 1
    decay_mult: 1
  }
  param {
    lr_mult: 2
    decay_mult: 0
  }
  convolution_param {
    num_output: 16
    kernel_size: 1
    weight_filler {
      type: "xavier"
      std: 0.2
    }
    bias_filler {
      type: "constant"
      value: 0.2
    }
  }
}
layer {
  name: "inception_3a/relu_5x5_reduce"
  type: "ReLU"
  bottom: "inception_3a/5x5_reduce"
  top: "inception_3a/5x5_reduce"
}
layer {
  name: "inception_3a/5x5"
  type: "Convolution"
  bottom: "inception_3a/5x5_reduce"
  top: "inception_3a/5x5"
  param {
    lr_mult: 1
    decay_mult: 1
  }
  param {
    lr_mult: 2
    decay_mult: 0
  }
  convolution_param {
    num_output: 32
    pad: 2
    kernel_size: 5
    weight_filler {
      type: "xavier"
      std: 0.03
    }
    bias_filler {
      type: "constant"
      value: 0.2
    }
  }
}
layer {
  name: "inception_3a/relu_5x5"
  type: "ReLU"
  bottom: "inception_3a/5x5"
  top: "inception_3a/5x5"
}
layer {
  name: "inception_3a/pool"
  type: "Pooling"
  bottom: "pool2/3x3_s2"
  top: "inception_3a/pool"
  pooling_param {
    pool: MAX
    kernel_size: 3
    stride: 1
    pad: 1
  }
}
layer {
  name: "inception_3a/pool_proj"
  type: "Convolution"
  bottom: "inception_3a/pool"
  top: "inception_3a/pool_proj"
  param {
    lr_mult: 1
    decay_mult: 1
  }
  param {
    lr_mult: 2
    decay_mult: 0
  }
  convolution_param {
    num_output: 32
    kernel_size: 1
    weight_filler {
      type: "xavier"
      std: 0.1
    }
    bias_filler {
      type: "constant"
      value: 0.2
    }
  }
}
layer {
  name: "inception_3a/relu_pool_proj"
  type: "ReLU"
  bottom: "inception_3a/pool_proj"
  top: "inception_3a/pool_proj"
}
layer {
  name: "inception_3a/output"
  type: "Concat"
  bottom: "inception_3a/1x1"
  bottom: "inception_3a/3x3"
  bottom: "inception_3a/5x5"
  bottom: "inception_3a/pool_proj"
  top: "inception_3a/output"
}
layer {
  name: "inception_3b/1x1"
  type: "Convolution"
  bottom: "inception_3a/output"
  top: "inception_3b/1x1"
  param {
    lr_mult: 1
    decay_mult: 1
  }
  param {
    lr_mult: 2
    decay_mult: 0
  }
  convolution_param {
    num_output: 128
    kernel_size: 1
    weight_filler {
      type: "xavier"
      std: 0.03
    }
    bias_filler {
      type: "constant"
      value: 0.2
    }
  }
}
layer {
  name: "inception_3b/relu_1x1"
  type: "ReLU"
  bottom: "inception_3b/1x1"
  top: "inception_3b/1x1"
}
layer {
  name: "inception_3b/3x3_reduce"
  type: "Convolution"
  bottom: "inception_3a/output"
  top: "inception_3b/3x3_reduce"
  param {
    lr_mult: 1
    decay_mult: 1
  }
  param {
    lr_mult: 2
    decay_mult: 0
  }
  convolution_param {
    num_output: 128
    kernel_size: 1
    weight_filler {
      type: "xavier"
      std: 0.09
    }
    bias_filler {
      type: "constant"
      value: 0.2
    }
  }
}
layer {
  name: "inception_3b/relu_3x3_reduce"
  type: "ReLU"
  bottom: "inception_3b/3x3_reduce"
  top: "inception_3b/3x3_reduce"
}
layer {
  name: "inception_3b/3x3"
  type: "Convolution"
  bottom: "inception_3b/3x3_reduce"
  top: "inception_3b/3x3"
  param {
    lr_mult: 1
    decay_mult: 1
  }
  param {
    lr_mult: 2
    decay_mult: 0
  }
  convolution_param {
    num_output: 192
    pad: 1
    kernel_size: 3
    weight_filler {
      type: "xavier"
      std: 0.03
    }
    bias_filler {
      type: "constant"
      value: 0.2
    }
  }
}
layer {
  name: "inception_3b/relu_3x3"
  type: "ReLU"
  bottom: "inception_3b/3x3"
  top: "inception_3b/3x3"
}
layer {
  name: "inception_3b/5x5_reduce"
  type: "Convolution"
  bottom: "inception_3a/output"
  top: "inception_3b/5x5_reduce"
  param {
    lr_mult: 1
    decay_mult: 1
  }
  param {
    lr_mult: 2
    decay_mult: 0
  }
  convolution_param {
    num_output: 32
    kernel_size: 1
    weight_filler {
      type: "xavier"
      std: 0.2
    }
    bias_filler {
      type: "constant"
      value: 0.2
    }
  }
}
layer {
  name: "inception_3b/relu_5x5_reduce"
  type: "ReLU"
  bottom: "inception_3b/5x5_reduce"
  top: "inception_3b/5x5_reduce"
}
layer {
  name: "inception_3b/5x5"
  type: "Convolution"
  bottom: "inception_3b/5x5_reduce"
  top: "inception_3b/5x5"
  param {
    lr_mult: 1
    decay_mult: 1
  }
  param {
    lr_mult: 2
    decay_mult: 0
  }
  convolution_param {
    num_output: 96
    pad: 2
    kernel_size: 5
    weight_filler {
      type: "xavier"
      std: 0.03
    }
    bias_filler {
      type: "constant"
      value: 0.2
    }
  }
}
layer {
  name: "inception_3b/relu_5x5"
  type: "ReLU"
  bottom: "inception_3b/5x5"
  top: "inception_3b/5x5"
}
layer {
  name: "inception_3b/pool"
  type: "Pooling"
  bottom: "inception_3a/output"
  top: "inception_3b/pool"
  pooling_param {
    pool: MAX
    kernel_size: 3
    stride: 1
    pad: 1
  }
}
layer {
  name: "inception_3b/pool_proj"
  type: "Convolution"
  bottom: "inception_3b/pool"
  top: "inception_3b/pool_proj"
  param {
    lr_mult: 1
    decay_mult: 1
  }
  param {
    lr_mult: 2
    decay_mult: 0
  }
  convolution_param {
    num_output: 64
    kernel_size: 1
    weight_filler {
      type: "xavier"
      std: 0.1
    }
    bias_filler {
      type: "constant"
      value: 0.2
    }
  }
}
layer {
  name: "inception_3b/relu_pool_proj"
  type: "ReLU"
  bottom: "inception_3b/pool_proj"
  top: "inception_3b/pool_proj"
}
layer {
  name: "inception_3b/output"
  type: "Concat"
  bottom: "inception_3b/1x1"
  bottom: "inception_3b/3x3"
  bottom: "inception_3b/5x5"
  bottom: "inception_3b/pool_proj"
  top: "inception_3b/output"
}
layer {
  name: "pool3/3x3_s2"
  type: "Pooling"
  bottom: "inception_3b/output"
  top: "pool3/3x3_s2"
  pooling_param {
    pool: MAX
    kernel_size: 3
    stride: 2
  }
}
layer {
  name: "inception_4a/1x1"
  type: "Convolution"
  bottom: "pool3/3x3_s2"
  top: "inception_4a/1x1"
  param {
    lr_mult: 1
    decay_mult: 1
  }
  param {
    lr_mult: 2
    decay_mult: 0
  }
  convolution_param {
    num_output: 192
    kernel_size: 1
    weight_filler {
      type: "xavier"
      std: 0.03
    }
    bias_filler {
      type: "constant"
      value: 0.2
    }
  }
}
layer {
  name: "inception_4a/relu_1x1"
  type: "ReLU"
  bottom: "inception_4a/1x1"
  top: "inception_4a/1x1"
}
layer {
  name: "inception_4a/3x3_reduce"
  type: "Convolution"
  bottom: "pool3/3x3_s2"
  top: "inception_4a/3x3_reduce"
  param {
    lr_mult: 1
    decay_mult: 1
  }
  param {
    lr_mult: 2
    decay_mult: 0
  }
  convolution_param {
    num_output: 96
    kernel_size: 1
    weight_filler {
      type: "xavier"
      std: 0.09
    }
    bias_filler {
      type: "constant"
      value: 0.2
    }
  }
}
layer {
  name: "inception_4a/relu_3x3_reduce"
  type: "ReLU"
  bottom: "inception_4a/3x3_reduce"
  top: "inception_4a/3x3_reduce"
}
layer {
  name: "inception_4a/3x3"
  type: "Convolution"
  bottom: "inception_4a/3x3_reduce"
  top: "inception_4a/3x3"
  param {
    lr_mult: 1
    decay_mult: 1
  }
  param {
    lr_mult: 2
    decay_mult: 0
  }
  convolution_param {
    num_output: 208
    pad: 1
    kernel_size: 3
    weight_filler {
      type: "xavier"
      std: 0.03
    }
    bias_filler {
      type: "constant"
      value: 0.2
    }
  }
}
layer {
  name: "inception_4a/relu_3x3"
  type: "ReLU"
  bottom: "inception_4a/3x3"
  top: "inception_4a/3x3"
}
layer {
  name: "inception_4a/5x5_reduce"
  type: "Convolution"
  bottom: "pool3/3x3_s2"
  top: "inception_4a/5x5_reduce"
  param {
    lr_mult: 1
    decay_mult: 1
  }
  param {
    lr_mult: 2
    decay_mult: 0
  }
  convolution_param {
    num_output: 16
    kernel_size: 1
    weight_filler {
      type: "xavier"
      std: 0.2
    }
    bias_filler {
      type: "constant"
      value: 0.2
    }
  }
}
layer {
  name: "inception_4a/relu_5x5_reduce"
  type: "ReLU"
  bottom: "inception_4a/5x5_reduce"
  top: "inception_4a/5x5_reduce"
}
layer {
  name: "inception_4a/5x5"
  type: "Convolution"
  bottom: "inception_4a/5x5_reduce"
  top: "inception_4a/5x5"
  param {
    lr_mult: 1
    decay_mult: 1
  }
  param {
    lr_mult: 2
    decay_mult: 0
  }
  convolution_param {
    num_output: 48
    pad: 2
    kernel_size: 5
    weight_filler {
      type: "xavier"
      std: 0.03
    }
    bias_filler {
      type: "constant"
      value: 0.2
    }
  }
}
layer {
  name: "inception_4a/relu_5x5"
  type: "ReLU"
  bottom: "inception_4a/5x5"
  top: "inception_4a/5x5"
}
layer {
  name: "inception_4a/pool"
  type: "Pooling"
  bottom: "pool3/3x3_s2"
  top: "inception_4a/pool"
  pooling_param {
    pool: MAX
    kernel_size: 3
    stride: 1
    pad: 1
  }
}
layer {
  name: "inception_4a/pool_proj"
  type: "Convolution"
  bottom: "inception_4a/pool"
  top: "inception_4a/pool_proj"
  param {
    lr_mult: 1
    decay_mult: 1
  }
  param {
    lr_mult: 2
    decay_mult: 0
  }
  convolution_param {
    num_output: 64
    kernel_size: 1
    weight_filler {
      type: "xavier"
      std: 0.1
    }
    bias_filler {
      type: "constant"
      value: 0.2
    }
  }
}
layer {
  name: "inception_4a/relu_pool_proj"
  type: "ReLU"
  bottom: "inception_4a/pool_proj"
  top: "inception_4a/pool_proj"
}
layer {
  name: "inception_4a/output"
  type: "Concat"
  bottom: "inception_4a/1x1"
  bottom: "inception_4a/3x3"
  bottom: "inception_4a/5x5"
  bottom: "inception_4a/pool_proj"
  top: "inception_4a/output"
}
layer {
  name: "loss1/ave_pool"
  type: "Pooling"
  bottom: "inception_4a/output"
  top: "loss1/ave_pool"
  pooling_param {
    pool: AVE
    kernel_size: 5
    stride: 3
  }
}
layer {
  name: "loss1/conv"
  type: "Convolution"
  bottom: "loss1/ave_pool"
  top: "loss1/conv"
  param {
    lr_mult: 1
    decay_mult: 1
  }
  param {
    lr_mult: 2
    decay_mult: 0
  }
  convolution_param {
    num_output: 128
    kernel_size: 1
    weight_filler {
      type: "xavier"
      std: 0.08
    }
    bias_filler {
      type: "constant"
      value: 0.2
    }
  }
}
layer {
  name: "loss1/relu_conv"
  type: "ReLU"
  bottom: "loss1/conv"
  top: "loss1/conv"
}
layer {
  name: "loss1/fc"
  type: "InnerProduct"
  bottom: "loss1/conv"
  top: "loss1/fc"
  param {
    lr_mult: 1
    decay_mult: 1
  }
  param {
    lr_mult: 2
    decay_mult: 0
  }
  inner_product_param {
    num_output: 1024
    weight_filler {
      type: "xavier"
      std: 0.02
    }
    bias_filler {
      type: "constant"
      value: 0.2
    }
  }
}
layer {
  name: "loss1/relu_fc"
  type: "ReLU"
  bottom: "loss1/fc"
  top: "loss1/fc"
}
layer {
  name: "loss1/drop_fc"
  type: "Dropout"
  bottom: "loss1/fc"
  top: "loss1/fc"
  dropout_param {
    dropout_ratio: 0.7
  }
}
layer {
  name: "loss1/classifier_plantvillage"
  type: "InnerProduct"
  bottom: "loss1/fc"
  top: "loss1/classifier_plantvillage"
  param {
    lr_mult: 1
    decay_mult: 1
  }
  param {
    lr_mult: 2
    decay_mult: 0
  }
  inner_product_param {
    num_output: 38
    weight_filler {
      type: "xavier"
      std: 0.0009765625
    }
    bias_filler {
      type: "constant"
      value: 0
    }
  }
}
layer {
  name: "inception_4b/1x1"
  type: "Convolution"
  bottom: "inception_4a/output"
  top: "inception_4b/1x1"
  param {
    lr_mult: 1
    decay_mult: 1
  }
  param {
    lr_mult: 2
    decay_mult: 0
  }
  convolution_param {
    num_output: 160
    kernel_size: 1
    weight_filler {
      type: "xavier"
      std: 0.03
    }
    bias_filler {
      type: "constant"
      value: 0.2
    }
  }
}
layer {
  name: "inception_4b/relu_1x1"
  type: "ReLU"
  bottom: "inception_4b/1x1"
  top: "inception_4b/1x1"
}
layer {
  name: "inception_4b/3x3_reduce"
  type: "Convolution"
  bottom: "inception_4a/output"
  top: "inception_4b/3x3_reduce"
  param {
    lr_mult: 1
    decay_mult: 1
  }
  param {
    lr_mult: 2
    decay_mult: 0
  }
  convolution_param {
    num_output: 112
    kernel_size: 1
    weight_filler {
      type: "xavier"
      std: 0.09
    }
    bias_filler {
      type: "constant"
      value: 0.2
    }
  }
}
layer {
  name: "inception_4b/relu_3x3_reduce"
  type: "ReLU"
  bottom: "inception_4b/3x3_reduce"
  top: "inception_4b/3x3_reduce"
}
layer {
  name: "inception_4b/3x3"
  type: "Convolution"
  bottom: "inception_4b/3x3_reduce"
  top: "inception_4b/3x3"
  param {
    lr_mult: 1
    decay_mult: 1
  }
  param {
    lr_mult: 2
    decay_mult: 0
  }
  convolution_param {
    num_output: 224
    pad: 1
    kernel_size: 3
    weight_filler {
      type: "xavier"
      std: 0.03
    }
    bias_filler {
      type: "constant"
      value: 0.2
    }
  }
}
layer {
  name: "inception_4b/relu_3x3"
  type: "ReLU"
  bottom: "inception_4b/3x3"
  top: "inception_4b/3x3"
}
layer {
  name: "inception_4b/5x5_reduce"
  type: "Convolution"
  bottom: "inception_4a/output"
  top: "inception_4b/5x5_reduce"
  param {
    lr_mult: 1
    decay_mult: 1
  }
  param {
    lr_mult: 2
    decay_mult: 0
  }
  convolution_param {
    num_output: 24
    kernel_size: 1
    weight_filler {
      type: "xavier"
      std: 0.2
    }
    bias_filler {
      type: "constant"
      value: 0.2
    }
  }
}
layer {
  name: "inception_4b/relu_5x5_reduce"
  type: "ReLU"
  bottom: "inception_4b/5x5_reduce"
  top: "inception_4b/5x5_reduce"
}
layer {
  name: "inception_4b/5x5"
  type: "Convolution"
  bottom: "inception_4b/5x5_reduce"
  top: "inception_4b/5x5"
  param {
    lr_mult: 1
    decay_mult: 1
  }
  param {
    lr_mult: 2
    decay_mult: 0
  }
  convolution_param {
    num_output: 64
    pad: 2
    kernel_size: 5
    weight_filler {
      type: "xavier"
      std: 0.03
    }
    bias_filler {
      type: "constant"
      value: 0.2
    }
  }
}
layer {
  name: "inception_4b/relu_5x5"
  type: "ReLU"
  bottom: "inception_4b/5x5"
  top: "inception_4b/5x5"
}
layer {
  name: "inception_4b/pool"
  type: "Pooling"
  bottom: "inception_4a/output"
  top: "inception_4b/pool"
  pooling_param {
    pool: MAX
    kernel_size: 3
    stride: 1
    pad: 1
  }
}
layer {
  name: "inception_4b/pool_proj"
  type: "Convolution"
  bottom: "inception_4b/pool"
  top: "inception_4b/pool_proj"
  param {
    lr_mult: 1
    decay_mult: 1
  }
  param {
    lr_mult: 2
    decay_mult: 0
  }
  convolution_param {
    num_output: 64
    kernel_size: 1
    weight_filler {
      type: "xavier"
      std: 0.1
    }
    bias_filler {
      type: "constant"
      value: 0.2
    }
  }
}
layer {
  name: "inception_4b/relu_pool_proj"
  type: "ReLU"
  bottom: "inception_4b/pool_proj"
  top: "inception_4b/pool_proj"
}
layer {
  name: "inception_4b/output"
  type: "Concat"
  bottom: "inception_4b/1x1"
  bottom: "inception_4b/3x3"
  bottom: "inception_4b/5x5"
  bottom: "inception_4b/pool_proj"
  top: "inception_4b/output"
}
layer {
  name: "inception_4c/1x1"
  type: "Convolution"
  bottom: "inception_4b/output"
  top: "inception_4c/1x1"
  param {
    lr_mult: 1
    decay_mult: 1
  }
  param {
    lr_mult: 2
    decay_mult: 0
  }
  convolution_param {
    num_output: 128
    kernel_size: 1
    weight_filler {
      type: "xavier"
      std: 0.03
    }
    bias_filler {
      type: "constant"
      value: 0.2
    }
  }
}
layer {
  name: "inception_4c/relu_1x1"
  type: "ReLU"
  bottom: "inception_4c/1x1"
  top: "inception_4c/1x1"
}
layer {
  name: "inception_4c/3x3_reduce"
  type: "Convolution"
  bottom: "inception_4b/output"
  top: "inception_4c/3x3_reduce"
  param {
    lr_mult: 1
    decay_mult: 1
  }
  param {
    lr_mult: 2
    decay_mult: 0
  }
  convolution_param {
    num_output: 128
    kernel_size: 1
    weight_filler {
      type: "xavier"
      std: 0.09
    }
    bias_filler {
      type: "constant"
      value: 0.2
    }
  }
}
layer {
  name: "inception_4c/relu_3x3_reduce"
  type: "ReLU"
  bottom: "inception_4c/3x3_reduce"
  top: "inception_4c/3x3_reduce"
}
layer {
  name: "inception_4c/3x3"
  type: "Convolution"
  bottom: "inception_4c/3x3_reduce"
  top: "inception_4c/3x3"
  param {
    lr_mult: 1
    decay_mult: 1
  }
  param {
    lr_mult: 2
    decay_mult: 0
  }
  convolution_param {
    num_output: 256
    pad: 1
    kernel_size: 3
    weight_filler {
      type: "xavier"
      std: 0.03
    }
    bias_filler {
      type: "constant"
      value: 0.2
    }
  }
}
layer {
  name: "inception_4c/relu_3x3"
  type: "ReLU"
  bottom: "inception_4c/3x3"
  top: "inception_4c/3x3"
}
layer {
  name: "inception_4c/5x5_reduce"
  type: "Convolution"
  bottom: "inception_4b/output"
  top: "inception_4c/5x5_reduce"
  param {
    lr_mult: 1
    decay_mult: 1
  }
  param {
    lr_mult: 2
    decay_mult: 0
  }
  convolution_param {
    num_output: 24
    kernel_size: 1
    weight_filler {
      type: "xavier"
      std: 0.2
    }
    bias_filler {
      type: "constant"
      value: 0.2
    }
  }
}
layer {
  name: "inception_4c/relu_5x5_reduce"
  type: "ReLU"
  bottom: "inception_4c/5x5_reduce"
  top: "inception_4c/5x5_reduce"
}
layer {
  name: "inception_4c/5x5"
  type: "Convolution"
  bottom: "inception_4c/5x5_reduce"
  top: "inception_4c/5x5"
  param {
    lr_mult: 1
    decay_mult: 1
  }
  param {
    lr_mult: 2
    decay_mult: 0
  }
  convolution_param {
    num_output: 64
    pad: 2
    kernel_size: 5
    weight_filler {
      type: "xavier"
      std: 0.03
    }
    bias_filler {
      type: "constant"
      value: 0.2
    }
  }
}
layer {
  name: "inception_4c/relu_5x5"
  type: "ReLU"
  bottom: "inception_4c/5x5"
  top: "inception_4c/5x5"
}
layer {
  name: "inception_4c/pool"
  type: "Pooling"
  bottom: "inception_4b/output"
  top: "inception_4c/pool"
  pooling_param {
    pool: MAX
    kernel_size: 3
    stride: 1
    pad: 1
  }
}
layer {
  name: "inception_4c/pool_proj"
  type: "Convolution"
  bottom: "inception_4c/pool"
  top: "inception_4c/pool_proj"
  param {
    lr_mult: 1
    decay_mult: 1
  }
  param {
    lr_mult: 2
    decay_mult: 0
  }
  convolution_param {
    num_output: 64
    kernel_size: 1
    weight_filler {
      type: "xavier"
      std: 0.1
    }
    bias_filler {
      type: "constant"
      value: 0.2
    }
  }
}
layer {
  name: "inception_4c/relu_pool_proj"
  type: "ReLU"
  bottom: "inception_4c/pool_proj"
  top: "inception_4c/pool_proj"
}
layer {
  name: "inception_4c/output"
  type: "Concat"
  bottom: "inception_4c/1x1"
  bottom: "inception_4c/3x3"
  bottom: "inception_4c/5x5"
  bottom: "inception_4c/pool_proj"
  top: "inception_4c/output"
}
layer {
  name: "inception_4d/1x1"
  type: "Convolution"
  bottom: "inception_4c/output"
  top: "inception_4d/1x1"
  param {
    lr_mult: 1
    decay_mult: 1
  }
  param {
    lr_mult: 2
    decay_mult: 0
  }
  convolution_param {
    num_output: 112
    kernel_size: 1
    weight_filler {
      type: "xavier"
      std: 0.03
    }
    bias_filler {
      type: "constant"
      value: 0.2
    }
  }
}
layer {
  name: "inception_4d/relu_1x1"
  type: "ReLU"
  bottom: "inception_4d/1x1"
  top: "inception_4d/1x1"
}
layer {
  name: "inception_4d/3x3_reduce"
  type: "Convolution"
  bottom: "inception_4c/output"
  top: "inception_4d/3x3_reduce"
  param {
    lr_mult: 1
    decay_mult: 1
  }
  param {
    lr_mult: 2
    decay_mult: 0
  }
  convolution_param {
    num_output: 144
    kernel_size: 1
    weight_filler {
      type: "xavier"
      std: 0.09
    }
    bias_filler {
      type: "constant"
      value: 0.2
    }
  }
}
layer {
  name: "inception_4d/relu_3x3_reduce"
  type: "ReLU"
  bottom: "inception_4d/3x3_reduce"
  top: "inception_4d/3x3_reduce"
}
layer {
  name: "inception_4d/3x3"
  type: "Convolution"
  bottom: "inception_4d/3x3_reduce"
  top: "inception_4d/3x3"
  param {
    lr_mult: 1
    decay_mult: 1
  }
  param {
    lr_mult: 2
    decay_mult: 0
  }
  convolution_param {
    num_output: 288
    pad: 1
    kernel_size: 3
    weight_filler {
      type: "xavier"
      std: 0.03
    }
    bias_filler {
      type: "constant"
      value: 0.2
    }
  }
}
layer {
  name: "inception_4d/relu_3x3"
  type: "ReLU"
  bottom: "inception_4d/3x3"
  top: "inception_4d/3x3"
}
layer {
  name: "inception_4d/5x5_reduce"
  type: "Convolution"
  bottom: "inception_4c/output"
  top: "inception_4d/5x5_reduce"
  param {
    lr_mult: 1
    decay_mult: 1
  }
  param {
    lr_mult: 2
    decay_mult: 0
  }
  convolution_param {
    num_output: 32
    kernel_size: 1
    weight_filler {
      type: "xavier"
      std: 0.2
    }
    bias_filler {
      type: "constant"
      value: 0.2
    }
  }
}
layer {
  name: "inception_4d/relu_5x5_reduce"
  type: "ReLU"
  bottom: "inception_4d/5x5_reduce"
  top: "inception_4d/5x5_reduce"
}
layer {
  name: "inception_4d/5x5"
  type: "Convolution"
  bottom: "inception_4d/5x5_reduce"
  top: "inception_4d/5x5"
  param {
    lr_mult: 1
    decay_mult: 1
  }
  param {
    lr_mult: 2
    decay_mult: 0
  }
  convolution_param {
    num_output: 64
    pad: 2
    kernel_size: 5
    weight_filler {
      type: "xavier"
      std: 0.03
    }
    bias_filler {
      type: "constant"
      value: 0.2
    }
  }
}
layer {
  name: "inception_4d/relu_5x5"
  type: "ReLU"
  bottom: "inception_4d/5x5"
  top: "inception_4d/5x5"
}
layer {
  name: "inception_4d/pool"
  type: "Pooling"
  bottom: "inception_4c/output"
  top: "inception_4d/pool"
  pooling_param {
    pool: MAX
    kernel_size: 3
    stride: 1
    pad: 1
  }
}
layer {
  name: "inception_4d/pool_proj"
  type: "Convolution"
  bottom: "inception_4d/pool"
  top: "inception_4d/pool_proj"
  param {
    lr_mult: 1
    decay_mult: 1
  }
  param {
    lr_mult: 2
    decay_mult: 0
  }
  convolution_param {
    num_output: 64
    kernel_size: 1
    weight_filler {
      type: "xavier"
      std: 0.1
    }
    bias_filler {
      type: "constant"
      value: 0.2
    }
  }
}
layer {
  name: "inception_4d/relu_pool_proj"
  type: "ReLU"
  bottom: "inception_4d/pool_proj"
  top: "inception_4d/pool_proj"
}
layer {
  name: "inception_4d/output"
  type: "Concat"
  bottom: "inception_4d/1x1"
  bottom: "inception_4d/3x3"
  bottom: "inception_4d/5x5"
  bottom: "inception_4d/pool_proj"
  top: "inception_4d/output"
}
layer {
  name: "loss2/ave_pool"
  type: "Pooling"
  bottom: "inception_4d/output"
  top: "loss2/ave_pool"
  pooling_param {
    pool: AVE
    kernel_size: 5
    stride: 3
  }
}
layer {
  name: "loss2/conv"
  type: "Convolution"
  bottom: "loss2/ave_pool"
  top: "loss2/conv"
  param {
    lr_mult: 1
    decay_mult: 1
  }
  param {
    lr_mult: 2
    decay_mult: 0
  }
  convolution_param {
    num_output: 128
    kernel_size: 1
    weight_filler {
      type: "xavier"
      std: 0.08
    }
    bias_filler {
      type: "constant"
      value: 0.2
    }
  }
}
layer {
  name: "loss2/relu_conv"
  type: "ReLU"
  bottom: "loss2/conv"
  top: "loss2/conv"
}
layer {
  name: "loss2/fc"
  type: "InnerProduct"
  bottom: "loss2/conv"
  top: "loss2/fc"
  param {
    lr_mult: 1
    decay_mult: 1
  }
  param {
    lr_mult: 2
    decay_mult: 0
  }
  inner_product_param {
    num_output: 1024
    weight_filler {
      type: "xavier"
      std: 0.02
    }
    bias_filler {
      type: "constant"
      value: 0.2
    }
  }
}
layer {
  name: "loss2/relu_fc"
  type: "ReLU"
  bottom: "loss2/fc"
  top: "loss2/fc"
}
layer {
  name: "loss2/drop_fc"
  type: "Dropout"
  bottom: "loss2/fc"
  top: "loss2/fc"
  dropout_param {
    dropout_ratio: 0.7
  }
}
layer {
  name: "loss2/classifier_plantvillage"
  type: "InnerProduct"
  bottom: "loss2/fc"
  top: "loss2/classifier_plantvillage"
  param {
    lr_mult: 1
    decay_mult: 1
  }
  param {
    lr_mult: 2
    decay_mult: 0
  }
  inner_product_param {
    num_output: 38
    weight_filler {
      type: "xavier"
      std: 0.0009765625
    }
    bias_filler {
      type: "constant"
      value: 0
    }
  }
}
layer {
  name: "inception_4e/1x1"
  type: "Convolution"
  bottom: "inception_4d/output"
  top: "inception_4e/1x1"
  param {
    lr_mult: 1
    decay_mult: 1
  }
  param {
    lr_mult: 2
    decay_mult: 0
  }
  convolution_param {
    num_output: 256
    kernel_size: 1
    weight_filler {
      type: "xavier"
      std: 0.03
    }
    bias_filler {
      type: "constant"
      value: 0.2
    }
  }
}
layer {
  name: "inception_4e/relu_1x1"
  type: "ReLU"
  bottom: "inception_4e/1x1"
  top: "inception_4e/1x1"
}
layer {
  name: "inception_4e/3x3_reduce"
  type: "Convolution"
  bottom: "inception_4d/output"
  top: "inception_4e/3x3_reduce"
  param {
    lr_mult: 1
    decay_mult: 1
  }
  param {
    lr_mult: 2
    decay_mult: 0
  }
  convolution_param {
    num_output: 160
    kernel_size: 1
    weight_filler {
      type: "xavier"
      std: 0.09
    }
    bias_filler {
      type: "constant"
      value: 0.2
    }
  }
}
layer {
  name: "inception_4e/relu_3x3_reduce"
  type: "ReLU"
  bottom: "inception_4e/3x3_reduce"
  top: "inception_4e/3x3_reduce"
}
layer {
  name: "inception_4e/3x3"
  type: "Convolution"
  bottom: "inception_4e/3x3_reduce"
  top: "inception_4e/3x3"
  param {
    lr_mult: 1
    decay_mult: 1
  }
  param {
    lr_mult: 2
    decay_mult: 0
  }
  convolution_param {
    num_output: 320
    pad: 1
    kernel_size: 3
    weight_filler {
      type: "xavier"
      std: 0.03
    }
    bias_filler {
      type: "constant"
      value: 0.2
    }
  }
}
layer {
  name: "inception_4e/relu_3x3"
  type: "ReLU"
  bottom: "inception_4e/3x3"
  top: "inception_4e/3x3"
}
layer {
  name: "inception_4e/5x5_reduce"
  type: "Convolution"
  bottom: "inception_4d/output"
  top: "inception_4e/5x5_reduce"
  param {
    lr_mult: 1
    decay_mult: 1
  }
  param {
    lr_mult: 2
    decay_mult: 0
  }
  convolution_param {
    num_output: 32
    kernel_size: 1
    weight_filler {
      type: "xavier"
      std: 0.2
    }
    bias_filler {
      type: "constant"
      value: 0.2
    }
  }
}
layer {
  name: "inception_4e/relu_5x5_reduce"
  type: "ReLU"
  bottom: "inception_4e/5x5_reduce"
  top: "inception_4e/5x5_reduce"
}
layer {
  name: "inception_4e/5x5"
  type: "Convolution"
  bottom: "inception_4e/5x5_reduce"
  top: "inception_4e/5x5"
  p
I0403 15:54:53.257889 14844 layer_factory.hpp:77] Creating layer data
I0403 15:54:53.258508 14844 net.cpp:91] Creating Layer data
I0403 15:54:53.258541 14844 net.cpp:399] data -> data
I0403 15:54:53.258597 14844 net.cpp:399] data -> label
I0403 15:54:53.258635 14844 data_transformer.cpp:25] Loading mean file from: /home/mohanty/data/final_dataset/lmdb/color-80-20/mean.binaryproto
I0403 15:54:53.261368 14847 db_lmdb.cpp:38] Opened lmdb /home/mohanty/data/final_dataset/lmdb/color-80-20/test_db
I0403 15:54:53.272335 14844 data_layer.cpp:41] output data size: 24,3,224,224
I0403 15:54:53.301930 14844 net.cpp:141] Setting up data
I0403 15:54:53.302011 14844 net.cpp:148] Top shape: 24 3 224 224 (3612672)
I0403 15:54:53.302034 14844 net.cpp:148] Top shape: 24 (24)
I0403 15:54:53.302050 14844 net.cpp:156] Memory required for data: 14450784
I0403 15:54:53.302080 14844 layer_factory.hpp:77] Creating layer label_data_1_split
I0403 15:54:53.302106 14844 net.cpp:91] Creating Layer label_data_1_split
I0403 15:54:53.302139 14844 net.cpp:425] label_data_1_split <- label
I0403 15:54:53.302177 14844 net.cpp:399] label_data_1_split -> label_data_1_split_0
I0403 15:54:53.302206 14844 net.cpp:399] label_data_1_split -> label_data_1_split_1
I0403 15:54:53.302230 14844 net.cpp:399] label_data_1_split -> label_data_1_split_2
I0403 15:54:53.302251 14844 net.cpp:399] label_data_1_split -> label_data_1_split_3
I0403 15:54:53.302271 14844 net.cpp:399] label_data_1_split -> label_data_1_split_4
I0403 15:54:53.302292 14844 net.cpp:399] label_data_1_split -> label_data_1_split_5
I0403 15:54:53.302312 14844 net.cpp:399] label_data_1_split -> label_data_1_split_6
I0403 15:54:53.302335 14844 net.cpp:399] label_data_1_split -> label_data_1_split_7
I0403 15:54:53.302356 14844 net.cpp:399] label_data_1_split -> label_data_1_split_8
I0403 15:54:53.302377 14844 net.cpp:399] label_data_1_split -> label_data_1_split_9
I0403 15:54:53.302496 14844 net.cpp:141] Setting up label_data_1_split
I0403 15:54:53.302520 14844 net.cpp:148] Top shape: 24 (24)
I0403 15:54:53.302537 14844 net.cpp:148] Top shape: 24 (24)
I0403 15:54:53.302554 14844 net.cpp:148] Top shape: 24 (24)
I0403 15:54:53.302570 14844 net.cpp:148] Top shape: 24 (24)
I0403 15:54:53.302587 14844 net.cpp:148] Top shape: 24 (24)
I0403 15:54:53.302603 14844 net.cpp:148] Top shape: 24 (24)
I0403 15:54:53.302619 14844 net.cpp:148] Top shape: 24 (24)
I0403 15:54:53.302635 14844 net.cpp:148] Top shape: 24 (24)
I0403 15:54:53.302650 14844 net.cpp:148] Top shape: 24 (24)
I0403 15:54:53.302667 14844 net.cpp:148] Top shape: 24 (24)
I0403 15:54:53.302714 14844 net.cpp:156] Memory required for data: 14451744
I0403 15:54:53.302731 14844 layer_factory.hpp:77] Creating layer conv1/7x7_s2
I0403 15:54:53.302763 14844 net.cpp:91] Creating Layer conv1/7x7_s2
I0403 15:54:53.302783 14844 net.cpp:425] conv1/7x7_s2 <- data
I0403 15:54:53.302804 14844 net.cpp:399] conv1/7x7_s2 -> conv1/7x7_s2
I0403 15:54:53.447854 14844 net.cpp:141] Setting up conv1/7x7_s2
I0403 15:54:53.447917 14844 net.cpp:148] Top shape: 24 64 112 112 (19267584)
I0403 15:54:53.447935 14844 net.cpp:156] Memory required for data: 91522080
I0403 15:54:53.447968 14844 layer_factory.hpp:77] Creating layer conv1/relu_7x7
I0403 15:54:53.447995 14844 net.cpp:91] Creating Layer conv1/relu_7x7
I0403 15:54:53.448015 14844 net.cpp:425] conv1/relu_7x7 <- conv1/7x7_s2
I0403 15:54:53.448035 14844 net.cpp:386] conv1/relu_7x7 -> conv1/7x7_s2 (in-place)
I0403 15:54:53.448309 14844 net.cpp:141] Setting up conv1/relu_7x7
I0403 15:54:53.448338 14844 net.cpp:148] Top shape: 24 64 112 112 (19267584)
I0403 15:54:53.448354 14844 net.cpp:156] Memory required for data: 168592416
I0403 15:54:53.448369 14844 layer_factory.hpp:77] Creating layer pool1/3x3_s2
I0403 15:54:53.448396 14844 net.cpp:91] Creating Layer pool1/3x3_s2
I0403 15:54:53.448415 14844 net.cpp:425] pool1/3x3_s2 <- conv1/7x7_s2
I0403 15:54:53.448434 14844 net.cpp:399] pool1/3x3_s2 -> pool1/3x3_s2
I0403 15:54:53.448511 14844 net.cpp:141] Setting up pool1/3x3_s2
I0403 15:54:53.448537 14844 net.cpp:148] Top shape: 24 64 56 56 (4816896)
I0403 15:54:53.448557 14844 net.cpp:156] Memory required for data: 187860000
I0403 15:54:53.448573 14844 layer_factory.hpp:77] Creating layer pool1/norm1
I0403 15:54:53.448599 14844 net.cpp:91] Creating Layer pool1/norm1
I0403 15:54:53.448618 14844 net.cpp:425] pool1/norm1 <- pool1/3x3_s2
I0403 15:54:53.448637 14844 net.cpp:399] pool1/norm1 -> pool1/norm1
I0403 15:54:53.449005 14844 net.cpp:141] Setting up pool1/norm1
I0403 15:54:53.449035 14844 net.cpp:148] Top shape: 24 64 56 56 (4816896)
I0403 15:54:53.449051 14844 net.cpp:156] Memory required for data: 207127584
I0403 15:54:53.449066 14844 layer_factory.hpp:77] Creating layer conv2/3x3_reduce
I0403 15:54:53.449091 14844 net.cpp:91] Creating Layer conv2/3x3_reduce
I0403 15:54:53.449110 14844 net.cpp:425] conv2/3x3_reduce <- pool1/norm1
I0403 15:54:53.449133 14844 net.cpp:399] conv2/3x3_reduce -> conv2/3x3_reduce
I0403 15:54:53.450562 14844 net.cpp:141] Setting up conv2/3x3_reduce
I0403 15:54:53.450594 14844 net.cpp:148] Top shape: 24 64 56 56 (4816896)
I0403 15:54:53.450611 14844 net.cpp:156] Memory required for data: 226395168
I0403 15:54:53.450634 14844 layer_factory.hpp:77] Creating layer conv2/relu_3x3_reduce
I0403 15:54:53.450654 14844 net.cpp:91] Creating Layer conv2/relu_3x3_reduce
I0403 15:54:53.450670 14844 net.cpp:425] conv2/relu_3x3_reduce <- conv2/3x3_reduce
I0403 15:54:53.450687 14844 net.cpp:386] conv2/relu_3x3_reduce -> conv2/3x3_reduce (in-place)
I0403 15:54:53.450952 14844 net.cpp:141] Setting up conv2/relu_3x3_reduce
I0403 15:54:53.450979 14844 net.cpp:148] Top shape: 24 64 56 56 (4816896)
I0403 15:54:53.450995 14844 net.cpp:156] Memory required for data: 245662752
I0403 15:54:53.451011 14844 layer_factory.hpp:77] Creating layer conv2/3x3
I0403 15:54:53.451035 14844 net.cpp:91] Creating Layer conv2/3x3
I0403 15:54:53.451052 14844 net.cpp:425] conv2/3x3 <- conv2/3x3_reduce
I0403 15:54:53.451072 14844 net.cpp:399] conv2/3x3 -> conv2/3x3
I0403 15:54:53.453477 14844 net.cpp:141] Setting up conv2/3x3
I0403 15:54:53.453510 14844 net.cpp:148] Top shape: 24 192 56 56 (14450688)
I0403 15:54:53.453528 14844 net.cpp:156] Memory required for data: 303465504
I0403 15:54:53.453554 14844 layer_factory.hpp:77] Creating layer conv2/relu_3x3
I0403 15:54:53.453575 14844 net.cpp:91] Creating Layer conv2/relu_3x3
I0403 15:54:53.453593 14844 net.cpp:425] conv2/relu_3x3 <- conv2/3x3
I0403 15:54:53.453610 14844 net.cpp:386] conv2/relu_3x3 -> conv2/3x3 (in-place)
I0403 15:54:53.453802 14844 net.cpp:141] Setting up conv2/relu_3x3
I0403 15:54:53.453832 14844 net.cpp:148] Top shape: 24 192 56 56 (14450688)
I0403 15:54:53.453881 14844 net.cpp:156] Memory required for data: 361268256
I0403 15:54:53.453898 14844 layer_factory.hpp:77] Creating layer conv2/norm2
I0403 15:54:53.453920 14844 net.cpp:91] Creating Layer conv2/norm2
I0403 15:54:53.453939 14844 net.cpp:425] conv2/norm2 <- conv2/3x3
I0403 15:54:53.453958 14844 net.cpp:399] conv2/norm2 -> conv2/norm2
I0403 15:54:53.454340 14844 net.cpp:141] Setting up conv2/norm2
I0403 15:54:53.454382 14844 net.cpp:148] Top shape: 24 192 56 56 (14450688)
I0403 15:54:53.454398 14844 net.cpp:156] Memory required for data: 419071008
I0403 15:54:53.454413 14844 layer_factory.hpp:77] Creating layer pool2/3x3_s2
I0403 15:54:53.454437 14844 net.cpp:91] Creating Layer pool2/3x3_s2
I0403 15:54:53.454454 14844 net.cpp:425] pool2/3x3_s2 <- conv2/norm2
I0403 15:54:53.454473 14844 net.cpp:399] pool2/3x3_s2 -> pool2/3x3_s2
I0403 15:54:53.454529 14844 net.cpp:141] Setting up pool2/3x3_s2
I0403 15:54:53.454552 14844 net.cpp:148] Top shape: 24 192 28 28 (3612672)
I0403 15:54:53.454567 14844 net.cpp:156] Memory required for data: 433521696
I0403 15:54:53.454583 14844 layer_factory.hpp:77] Creating layer pool2/3x3_s2_pool2/3x3_s2_0_split
I0403 15:54:53.454602 14844 net.cpp:91] Creating Layer pool2/3x3_s2_pool2/3x3_s2_0_split
I0403 15:54:53.454615 14844 net.cpp:425] pool2/3x3_s2_pool2/3x3_s2_0_split <- pool2/3x3_s2
I0403 15:54:53.454635 14844 net.cpp:399] pool2/3x3_s2_pool2/3x3_s2_0_split -> pool2/3x3_s2_pool2/3x3_s2_0_split_0
I0403 15:54:53.454656 14844 net.cpp:399] pool2/3x3_s2_pool2/3x3_s2_0_split -> pool2/3x3_s2_pool2/3x3_s2_0_split_1
I0403 15:54:53.454679 14844 net.cpp:399] pool2/3x3_s2_pool2/3x3_s2_0_split -> pool2/3x3_s2_pool2/3x3_s2_0_split_2
I0403 15:54:53.454699 14844 net.cpp:399] pool2/3x3_s2_pool2/3x3_s2_0_split -> pool2/3x3_s2_pool2/3x3_s2_0_split_3
I0403 15:54:53.454773 14844 net.cpp:141] Setting up pool2/3x3_s2_pool2/3x3_s2_0_split
I0403 15:54:53.454799 14844 net.cpp:148] Top shape: 24 192 28 28 (3612672)
I0403 15:54:53.454818 14844 net.cpp:148] Top shape: 24 192 28 28 (3612672)
I0403 15:54:53.454833 14844 net.cpp:148] Top shape: 24 192 28 28 (3612672)
I0403 15:54:53.454849 14844 net.cpp:148] Top shape: 24 192 28 28 (3612672)
I0403 15:54:53.454864 14844 net.cpp:156] Memory required for data: 491324448
I0403 15:54:53.454879 14844 layer_factory.hpp:77] Creating layer inception_3a/1x1
I0403 15:54:53.454900 14844 net.cpp:91] Creating Layer inception_3a/1x1
I0403 15:54:53.454917 14844 net.cpp:425] inception_3a/1x1 <- pool2/3x3_s2_pool2/3x3_s2_0_split_0
I0403 15:54:53.454937 14844 net.cpp:399] inception_3a/1x1 -> inception_3a/1x1
I0403 15:54:53.456574 14844 net.cpp:141] Setting up inception_3a/1x1
I0403 15:54:53.456606 14844 net.cpp:148] Top shape: 24 64 28 28 (1204224)
I0403 15:54:53.456635 14844 net.cpp:156] Memory required for data: 496141344
I0403 15:54:53.456655 14844 layer_factory.hpp:77] Creating layer inception_3a/relu_1x1
I0403 15:54:53.456681 14844 net.cpp:91] Creating Layer inception_3a/relu_1x1
I0403 15:54:53.456712 14844 net.cpp:425] inception_3a/relu_1x1 <- inception_3a/1x1
I0403 15:54:53.456730 14844 net.cpp:386] inception_3a/relu_1x1 -> inception_3a/1x1 (in-place)
I0403 15:54:53.456923 14844 net.cpp:141] Setting up inception_3a/relu_1x1
I0403 15:54:53.456953 14844 net.cpp:148] Top shape: 24 64 28 28 (1204224)
I0403 15:54:53.456969 14844 net.cpp:156] Memory required for data: 500958240
I0403 15:54:53.456990 14844 layer_factory.hpp:77] Creating layer inception_3a/3x3_reduce
I0403 15:54:53.457015 14844 net.cpp:91] Creating Layer inception_3a/3x3_reduce
I0403 15:54:53.457034 14844 net.cpp:425] inception_3a/3x3_reduce <- pool2/3x3_s2_pool2/3x3_s2_0_split_1
I0403 15:54:53.457056 14844 net.cpp:399] inception_3a/3x3_reduce -> inception_3a/3x3_reduce
I0403 15:54:53.458849 14844 net.cpp:141] Setting up inception_3a/3x3_reduce
I0403 15:54:53.458880 14844 net.cpp:148] Top shape: 24 96 28 28 (1806336)
I0403 15:54:53.458897 14844 net.cpp:156] Memory required for data: 508183584
I0403 15:54:53.458922 14844 layer_factory.hpp:77] Creating layer inception_3a/relu_3x3_reduce
I0403 15:54:53.458959 14844 net.cpp:91] Creating Layer inception_3a/relu_3x3_reduce
I0403 15:54:53.458977 14844 net.cpp:425] inception_3a/relu_3x3_reduce <- inception_3a/3x3_reduce
I0403 15:54:53.458998 14844 net.cpp:386] inception_3a/relu_3x3_reduce -> inception_3a/3x3_reduce (in-place)
I0403 15:54:53.459193 14844 net.cpp:141] Setting up inception_3a/relu_3x3_reduce
I0403 15:54:53.459220 14844 net.cpp:148] Top shape: 24 96 28 28 (1806336)
I0403 15:54:53.459235 14844 net.cpp:156] Memory required for data: 515408928
I0403 15:54:53.459250 14844 layer_factory.hpp:77] Creating layer inception_3a/3x3
I0403 15:54:53.459273 14844 net.cpp:91] Creating Layer inception_3a/3x3
I0403 15:54:53.459290 14844 net.cpp:425] inception_3a/3x3 <- inception_3a/3x3_reduce
I0403 15:54:53.459311 14844 net.cpp:399] inception_3a/3x3 -> inception_3a/3x3
I0403 15:54:53.461009 14844 net.cpp:141] Setting up inception_3a/3x3
I0403 15:54:53.461040 14844 net.cpp:148] Top shape: 24 128 28 28 (2408448)
I0403 15:54:53.461055 14844 net.cpp:156] Memory required for data: 525042720
I0403 15:54:53.461074 14844 layer_factory.hpp:77] Creating layer inception_3a/relu_3x3
I0403 15:54:53.461096 14844 net.cpp:91] Creating Layer inception_3a/relu_3x3
I0403 15:54:53.461113 14844 net.cpp:425] inception_3a/relu_3x3 <- inception_3a/3x3
I0403 15:54:53.461135 14844 net.cpp:386] inception_3a/relu_3x3 -> inception_3a/3x3 (in-place)
I0403 15:54:53.461415 14844 net.cpp:141] Setting up inception_3a/relu_3x3
I0403 15:54:53.461441 14844 net.cpp:148] Top shape: 24 128 28 28 (2408448)
I0403 15:54:53.461457 14844 net.cpp:156] Memory required for data: 534676512
I0403 15:54:53.461472 14844 layer_factory.hpp:77] Creating layer inception_3a/5x5_reduce
I0403 15:54:53.461496 14844 net.cpp:91] Creating Layer inception_3a/5x5_reduce
I0403 15:54:53.461513 14844 net.cpp:425] inception_3a/5x5_reduce <- pool2/3x3_s2_pool2/3x3_s2_0_split_2
I0403 15:54:53.461534 14844 net.cpp:399] inception_3a/5x5_reduce -> inception_3a/5x5_reduce
I0403 15:54:53.462519 14844 net.cpp:141] Setting up inception_3a/5x5_reduce
I0403 15:54:53.462551 14844 net.cpp:148] Top shape: 24 16 28 28 (301056)
I0403 15:54:53.462568 14844 net.cpp:156] Memory required for data: 535880736
I0403 15:54:53.462587 14844 layer_factory.hpp:77] Creating layer inception_3a/relu_5x5_reduce
I0403 15:54:53.462605 14844 net.cpp:91] Creating Layer inception_3a/relu_5x5_reduce
I0403 15:54:53.462621 14844 net.cpp:425] inception_3a/relu_5x5_reduce <- inception_3a/5x5_reduce
I0403 15:54:53.462641 14844 net.cpp:386] inception_3a/relu_5x5_reduce -> inception_3a/5x5_reduce (in-place)
I0403 15:54:53.462937 14844 net.cpp:141] Setting up inception_3a/relu_5x5_reduce
I0403 15:54:53.462967 14844 net.cpp:148] Top shape: 24 16 28 28 (301056)
I0403 15:54:53.462985 14844 net.cpp:156] Memory required for data: 537084960
I0403 15:54:53.463001 14844 layer_factory.hpp:77] Creating layer inception_3a/5x5
I0403 15:54:53.463024 14844 net.cpp:91] Creating Layer inception_3a/5x5
I0403 15:54:53.463042 14844 net.cpp:425] inception_3a/5x5 <- inception_3a/5x5_reduce
I0403 15:54:53.463063 14844 net.cpp:399] inception_3a/5x5 -> inception_3a/5x5
I0403 15:54:53.464110 14844 net.cpp:141] Setting up inception_3a/5x5
I0403 15:54:53.464144 14844 net.cpp:148] Top shape: 24 32 28 28 (602112)
I0403 15:54:53.464161 14844 net.cpp:156] Memory required for data: 539493408
I0403 15:54:53.464180 14844 layer_factory.hpp:77] Creating layer inception_3a/relu_5x5
I0403 15:54:53.464203 14844 net.cpp:91] Creating Layer inception_3a/relu_5x5
I0403 15:54:53.464221 14844 net.cpp:425] inception_3a/relu_5x5 <- inception_3a/5x5
I0403 15:54:53.464238 14844 net.cpp:386] inception_3a/relu_5x5 -> inception_3a/5x5 (in-place)
I0403 15:54:53.464418 14844 net.cpp:141] Setting up inception_3a/relu_5x5
I0403 15:54:53.464447 14844 net.cpp:148] Top shape: 24 32 28 28 (602112)
I0403 15:54:53.464464 14844 net.cpp:156] Memory required for data: 541901856
I0403 15:54:53.464480 14844 layer_factory.hpp:77] Creating layer inception_3a/pool
I0403 15:54:53.464498 14844 net.cpp:91] Creating Layer inception_3a/pool
I0403 15:54:53.464514 14844 net.cpp:425] inception_3a/pool <- pool2/3x3_s2_pool2/3x3_s2_0_split_3
I0403 15:54:53.464551 14844 net.cpp:399] inception_3a/pool -> inception_3a/pool
I0403 15:54:53.464612 14844 net.cpp:141] Setting up inception_3a/pool
I0403 15:54:53.464637 14844 net.cpp:148] Top shape: 24 192 28 28 (3612672)
I0403 15:54:53.464651 14844 net.cpp:156] Memory required for data: 556352544
I0403 15:54:53.464665 14844 layer_factory.hpp:77] Creating layer inception_3a/pool_proj
I0403 15:54:53.464689 14844 net.cpp:91] Creating Layer inception_3a/pool_proj
I0403 15:54:53.464709 14844 net.cpp:425] inception_3a/pool_proj <- inception_3a/pool
I0403 15:54:53.464727 14844 net.cpp:399] inception_3a/pool_proj -> inception_3a/pool_proj
I0403 15:54:53.465726 14844 net.cpp:141] Setting up inception_3a/pool_proj
I0403 15:54:53.465754 14844 net.cpp:148] Top shape: 24 32 28 28 (602112)
I0403 15:54:53.465770 14844 net.cpp:156] Memory required for data: 558760992
I0403 15:54:53.465793 14844 layer_factory.hpp:77] Creating layer inception_3a/relu_pool_proj
I0403 15:54:53.465812 14844 net.cpp:91] Creating Layer inception_3a/relu_pool_proj
I0403 15:54:53.465828 14844 net.cpp:425] inception_3a/relu_pool_proj <- inception_3a/pool_proj
I0403 15:54:53.465847 14844 net.cpp:386] inception_3a/relu_pool_proj -> inception_3a/pool_proj (in-place)
I0403 15:54:53.466111 14844 net.cpp:141] Setting up inception_3a/relu_pool_proj
I0403 15:54:53.466142 14844 net.cpp:148] Top shape: 24 32 28 28 (602112)
I0403 15:54:53.466159 14844 net.cpp:156] Memory required for data: 561169440
I0403 15:54:53.466176 14844 layer_factory.hpp:77] Creating layer inception_3a/output
I0403 15:54:53.466194 14844 net.cpp:91] Creating Layer inception_3a/output
I0403 15:54:53.466212 14844 net.cpp:425] inception_3a/output <- inception_3a/1x1
I0403 15:54:53.466228 14844 net.cpp:425] inception_3a/output <- inception_3a/3x3
I0403 15:54:53.466243 14844 net.cpp:425] inception_3a/output <- inception_3a/5x5
I0403 15:54:53.466259 14844 net.cpp:425] inception_3a/output <- inception_3a/pool_proj
I0403 15:54:53.466275 14844 net.cpp:399] inception_3a/output -> inception_3a/output
I0403 15:54:53.466323 14844 net.cpp:141] Setting up inception_3a/output
I0403 15:54:53.466347 14844 net.cpp:148] Top shape: 24 256 28 28 (4816896)
I0403 15:54:53.466361 14844 net.cpp:156] Memory required for data: 580437024
I0403 15:54:53.466375 14844 layer_factory.hpp:77] Creating layer inception_3a/output_inception_3a/output_0_split
I0403 15:54:53.466392 14844 net.cpp:91] Creating Layer inception_3a/output_inception_3a/output_0_split
I0403 15:54:53.466405 14844 net.cpp:425] inception_3a/output_inception_3a/output_0_split <- inception_3a/output
I0403 15:54:53.466425 14844 net.cpp:399] inception_3a/output_inception_3a/output_0_split -> inception_3a/output_inception_3a/output_0_split_0
I0403 15:54:53.466447 14844 net.cpp:399] inception_3a/output_inception_3a/output_0_split -> inception_3a/output_inception_3a/output_0_split_1
I0403 15:54:53.466475 14844 net.cpp:399] inception_3a/output_inception_3a/output_0_split -> inception_3a/output_inception_3a/output_0_split_2
I0403 15:54:53.466496 14844 net.cpp:399] inception_3a/output_inception_3a/output_0_split -> inception_3a/output_inception_3a/output_0_split_3
I0403 15:54:53.466568 14844 net.cpp:141] Setting up inception_3a/output_inception_3a/output_0_split
I0403 15:54:53.466591 14844 net.cpp:148] Top shape: 24 256 28 28 (4816896)
I0403 15:54:53.466611 14844 net.cpp:148] Top shape: 24 256 28 28 (4816896)
I0403 15:54:53.466629 14844 net.cpp:148] Top shape: 24 256 28 28 (4816896)
I0403 15:54:53.466642 14844 net.cpp:148] Top shape: 24 256 28 28 (4816896)
I0403 15:54:53.466655 14844 net.cpp:156] Memory required for data: 657507360
I0403 15:54:53.466670 14844 layer_factory.hpp:77] Creating layer inception_3b/1x1
I0403 15:54:53.466689 14844 net.cpp:91] Creating Layer inception_3b/1x1
I0403 15:54:53.466706 14844 net.cpp:425] inception_3b/1x1 <- inception_3a/output_inception_3a/output_0_split_0
I0403 15:54:53.466727 14844 net.cpp:399] inception_3b/1x1 -> inception_3b/1x1
I0403 15:54:53.467841 14844 net.cpp:141] Setting up inception_3b/1x1
I0403 15:54:53.467881 14844 net.cpp:148] Top shape: 24 128 28 28 (2408448)
I0403 15:54:53.467896 14844 net.cpp:156] Memory required for data: 667141152
I0403 15:54:53.467914 14844 layer_factory.hpp:77] Creating layer inception_3b/relu_1x1
I0403 15:54:53.467936 14844 net.cpp:91] Creating Layer inception_3b/relu_1x1
I0403 15:54:53.467952 14844 net.cpp:425] inception_3b/relu_1x1 <- inception_3b/1x1
I0403 15:54:53.467968 14844 net.cpp:386] inception_3b/relu_1x1 -> inception_3b/1x1 (in-place)
I0403 15:54:53.468143 14844 net.cpp:141] Setting up inception_3b/relu_1x1
I0403 15:54:53.468168 14844 net.cpp:148] Top shape: 24 128 28 28 (2408448)
I0403 15:54:53.468183 14844 net.cpp:156] Memory required for data: 676774944
I0403 15:54:53.468199 14844 layer_factory.hpp:77] Creating layer inception_3b/3x3_reduce
I0403 15:54:53.468222 14844 net.cpp:91] Creating Layer inception_3b/3x3_reduce
I0403 15:54:53.468240 14844 net.cpp:425] inception_3b/3x3_reduce <- inception_3a/output_inception_3a/output_0_split_1
I0403 15:54:53.468257 14844 net.cpp:399] inception_3b/3x3_reduce -> inception_3b/3x3_reduce
I0403 15:54:53.469360 14844 net.cpp:141] Setting up inception_3b/3x3_reduce
I0403 15:54:53.469388 14844 net.cpp:148] Top shape: 24 128 28 28 (2408448)
I0403 15:54:53.469403 14844 net.cpp:156] Memory required for data: 686408736
I0403 15:54:53.469421 14844 layer_factory.hpp:77] Creating layer inception_3b/relu_3x3_reduce
I0403 15:54:53.469441 14844 net.cpp:91] Creating Layer inception_3b/relu_3x3_reduce
I0403 15:54:53.469458 14844 net.cpp:425] inception_3b/relu_3x3_reduce <- inception_3b/3x3_reduce
I0403 15:54:53.469475 14844 net.cpp:386] inception_3b/relu_3x3_reduce -> inception_3b/3x3_reduce (in-place)
I0403 15:54:53.469645 14844 net.cpp:141] Setting up inception_3b/relu_3x3_reduce
I0403 15:54:53.469671 14844 net.cpp:148] Top shape: 24 128 28 28 (2408448)
I0403 15:54:53.469686 14844 net.cpp:156] Memory required for data: 696042528
I0403 15:54:53.469702 14844 layer_factory.hpp:77] Creating layer inception_3b/3x3
I0403 15:54:53.469724 14844 net.cpp:91] Creating Layer inception_3b/3x3
I0403 15:54:53.469743 14844 net.cpp:425] inception_3b/3x3 <- inception_3b/3x3_reduce
I0403 15:54:53.469763 14844 net.cpp:399] inception_3b/3x3 -> inception_3b/3x3
I0403 15:54:53.472569 14844 net.cpp:141] Setting up inception_3b/3x3
I0403 15:54:53.472597 14844 net.cpp:148] Top shape: 24 192 28 28 (3612672)
I0403 15:54:53.472614 14844 net.cpp:156] Memory required for data: 710493216
I0403 15:54:53.472631 14844 layer_factory.hpp:77] Creating layer inception_3b/relu_3x3
I0403 15:54:53.472651 14844 net.cpp:91] Creating Layer inception_3b/relu_3x3
I0403 15:54:53.472667 14844 net.cpp:425] inception_3b/relu_3x3 <- inception_3b/3x3
I0403 15:54:53.472684 14844 net.cpp:386] inception_3b/relu_3x3 -> inception_3b/3x3 (in-place)
I0403 15:54:53.472951 14844 net.cpp:141] Setting up inception_3b/relu_3x3
I0403 15:54:53.472977 14844 net.cpp:148] Top shape: 24 192 28 28 (3612672)
I0403 15:54:53.472991 14844 net.cpp:156] Memory required for data: 724943904
I0403 15:54:53.473006 14844 layer_factory.hpp:77] Creating layer inception_3b/5x5_reduce
I0403 15:54:53.473031 14844 net.cpp:91] Creating Layer inception_3b/5x5_reduce
I0403 15:54:53.473047 14844 net.cpp:425] inception_3b/5x5_reduce <- inception_3a/output_inception_3a/output_0_split_2
I0403 15:54:53.473065 14844 net.cpp:399] inception_3b/5x5_reduce -> inception_3b/5x5_reduce
I0403 15:54:53.474061 14844 net.cpp:141] Setting up inception_3b/5x5_reduce
I0403 15:54:53.474088 14844 net.cpp:148] Top shape: 24 32 28 28 (602112)
I0403 15:54:53.474104 14844 net.cpp:156] Memory required for data: 727352352
I0403 15:54:53.474123 14844 layer_factory.hpp:77] Creating layer inception_3b/relu_5x5_reduce
I0403 15:54:53.474148 14844 net.cpp:91] Creating Layer inception_3b/relu_5x5_reduce
I0403 15:54:53.474165 14844 net.cpp:425] inception_3b/relu_5x5_reduce <- inception_3b/5x5_reduce
I0403 15:54:53.474182 14844 net.cpp:386] inception_3b/relu_5x5_reduce -> inception_3b/5x5_reduce (in-place)
I0403 15:54:53.474359 14844 net.cpp:141] Setting up inception_3b/relu_5x5_reduce
I0403 15:54:53.474396 14844 net.cpp:148] Top shape: 24 32 28 28 (602112)
I0403 15:54:53.474411 14844 net.cpp:156] Memory required for data: 729760800
I0403 15:54:53.474426 14844 layer_factory.hpp:77] Creating layer inception_3b/5x5
I0403 15:54:53.474447 14844 net.cpp:91] Creating Layer inception_3b/5x5
I0403 15:54:53.474463 14844 net.cpp:425] inception_3b/5x5 <- inception_3b/5x5_reduce
I0403 15:54:53.474483 14844 net.cpp:399] inception_3b/5x5 -> inception_3b/5x5
I0403 15:54:53.476382 14844 net.cpp:141] Setting up inception_3b/5x5
I0403 15:54:53.476410 14844 net.cpp:148] Top shape: 24 96 28 28 (1806336)
I0403 15:54:53.476426 14844 net.cpp:156] Memory required for data: 736986144
I0403 15:54:53.476444 14844 layer_factory.hpp:77] Creating layer inception_3b/relu_5x5
I0403 15:54:53.476464 14844 net.cpp:91] Creating Layer inception_3b/relu_5x5
I0403 15:54:53.476481 14844 net.cpp:425] inception_3b/relu_5x5 <- inception_3b/5x5
I0403 15:54:53.476498 14844 net.cpp:386] inception_3b/relu_5x5 -> inception_3b/5x5 (in-place)
I0403 15:54:53.476686 14844 net.cpp:141] Setting up inception_3b/relu_5x5
I0403 15:54:53.476711 14844 net.cpp:148] Top shape: 24 96 28 28 (1806336)
I0403 15:54:53.476725 14844 net.cpp:156] Memory required for data: 744211488
I0403 15:54:53.476739 14844 layer_factory.hpp:77] Creating layer inception_3b/pool
I0403 15:54:53.476757 14844 net.cpp:91] Creating Layer inception_3b/pool
I0403 15:54:53.476771 14844 net.cpp:425] inception_3b/pool <- inception_3a/output_inception_3a/output_0_split_3
I0403 15:54:53.476789 14844 net.cpp:399] inception_3b/pool -> inception_3b/pool
I0403 15:54:53.476845 14844 net.cpp:141] Setting up inception_3b/pool
I0403 15:54:53.476867 14844 net.cpp:148] Top shape: 24 256 28 28 (4816896)
I0403 15:54:53.476881 14844 net.cpp:156] Memory required for data: 763479072
I0403 15:54:53.476896 14844 layer_factory.hpp:77] Creating layer inception_3b/pool_proj
I0403 15:54:53.476917 14844 net.cpp:91] Creating Layer inception_3b/pool_proj
I0403 15:54:53.476933 14844 net.cpp:425] inception_3b/pool_proj <- inception_3b/pool
I0403 15:54:53.476953 14844 net.cpp:399] inception_3b/pool_proj -> inception_3b/pool_proj
I0403 15:54:53.477977 14844 net.cpp:141] Setting up inception_3b/pool_proj
I0403 15:54:53.478004 14844 net.cpp:148] Top shape: 24 64 28 28 (1204224)
I0403 15:54:53.478020 14844 net.cpp:156] Memory required for data: 768295968
I0403 15:54:53.478039 14844 layer_factory.hpp:77] Creating layer inception_3b/relu_pool_proj
I0403 15:54:53.478055 14844 net.cpp:91] Creating Layer inception_3b/relu_pool_proj
I0403 15:54:53.478071 14844 net.cpp:425] inception_3b/relu_pool_proj <- inception_3b/pool_proj
I0403 15:54:53.478091 14844 net.cpp:386] inception_3b/relu_pool_proj -> inception_3b/pool_proj (in-place)
I0403 15:54:53.478471 14844 net.cpp:141] Setting up inception_3b/relu_pool_proj
I0403 15:54:53.478499 14844 net.cpp:148] Top shape: 24 64 28 28 (1204224)
I0403 15:54:53.478514 14844 net.cpp:156] Memory required for data: 773112864
I0403 15:54:53.478529 14844 layer_factory.hpp:77] Creating layer inception_3b/output
I0403 15:54:53.478546 14844 net.cpp:91] Creating Layer inception_3b/output
I0403 15:54:53.478560 14844 net.cpp:425] inception_3b/output <- inception_3b/1x1
I0403 15:54:53.478577 14844 net.cpp:425] inception_3b/output <- inception_3b/3x3
I0403 15:54:53.478593 14844 net.cpp:425] inception_3b/output <- inception_3b/5x5
I0403 15:54:53.478611 14844 net.cpp:425] inception_3b/output <- inception_3b/pool_proj
I0403 15:54:53.478631 14844 net.cpp:399] inception_3b/output -> inception_3b/output
I0403 15:54:53.478673 14844 net.cpp:141] Setting up inception_3b/output
I0403 15:54:53.478696 14844 net.cpp:148] Top shape: 24 480 28 28 (9031680)
I0403 15:54:53.478710 14844 net.cpp:156] Memory required for data: 809239584
I0403 15:54:53.478724 14844 layer_factory.hpp:77] Creating layer pool3/3x3_s2
I0403 15:54:53.478744 14844 net.cpp:91] Creating Layer pool3/3x3_s2
I0403 15:54:53.478761 14844 net.cpp:425] pool3/3x3_s2 <- inception_3b/output
I0403 15:54:53.478780 14844 net.cpp:399] pool3/3x3_s2 -> pool3/3x3_s2
I0403 15:54:53.478850 14844 net.cpp:141] Setting up pool3/3x3_s2
I0403 15:54:53.478874 14844 net.cpp:148] Top shape: 24 480 14 14 (2257920)
I0403 15:54:53.478889 14844 net.cpp:156] Memory required for data: 818271264
I0403 15:54:53.478904 14844 layer_factory.hpp:77] Creating layer pool3/3x3_s2_pool3/3x3_s2_0_split
I0403 15:54:53.478920 14844 net.cpp:91] Creating Layer pool3/3x3_s2_pool3/3x3_s2_0_split
I0403 15:54:53.478935 14844 net.cpp:425] pool3/3x3_s2_pool3/3x3_s2_0_split <- pool3/3x3_s2
I0403 15:54:53.478953 14844 net.cpp:399] pool3/3x3_s2_pool3/3x3_s2_0_split -> pool3/3x3_s2_pool3/3x3_s2_0_split_0
I0403 15:54:53.478973 14844 net.cpp:399] pool3/3x3_s2_pool3/3x3_s2_0_split -> pool3/3x3_s2_pool3/3x3_s2_0_split_1
I0403 15:54:53.478993 14844 net.cpp:399] pool3/3x3_s2_pool3/3x3_s2_0_split -> pool3/3x3_s2_pool3/3x3_s2_0_split_2
I0403 15:54:53.479012 14844 net.cpp:399] pool3/3x3_s2_pool3/3x3_s2_0_split -> pool3/3x3_s2_pool3/3x3_s2_0_split_3
I0403 15:54:53.479087 14844 net.cpp:141] Setting up pool3/3x3_s2_pool3/3x3_s2_0_split
I0403 15:54:53.479110 14844 net.cpp:148] Top shape: 24 480 14 14 (2257920)
I0403 15:54:53.479130 14844 net.cpp:148] Top shape: 24 480 14 14 (2257920)
I0403 15:54:53.479146 14844 net.cpp:148] Top shape: 24 480 14 14 (2257920)
I0403 15:54:53.479162 14844 net.cpp:148] Top shape: 24 480 14 14 (2257920)
I0403 15:54:53.479176 14844 net.cpp:156] Memory required for data: 854397984
I0403 15:54:53.479190 14844 layer_factory.hpp:77] Creating layer inception_4a/1x1
I0403 15:54:53.479210 14844 net.cpp:91] Creating Layer inception_4a/1x1
I0403 15:54:53.479228 14844 net.cpp:425] inception_4a/1x1 <- pool3/3x3_s2_pool3/3x3_s2_0_split_0
I0403 15:54:53.479249 14844 net.cpp:399] inception_4a/1x1 -> inception_4a/1x1
I0403 15:54:53.480793 14844 net.cpp:141] Setting up inception_4a/1x1
I0403 15:54:53.480823 14844 net.cpp:148] Top shape: 24 192 14 14 (903168)
I0403 15:54:53.480839 14844 net.cpp:156] Memory required for data: 858010656
I0403 15:54:53.480857 14844 layer_factory.hpp:77] Creating layer inception_4a/relu_1x1
I0403 15:54:53.480875 14844 net.cpp:91] Creating Layer inception_4a/relu_1x1
I0403 15:54:53.480891 14844 net.cpp:425] inception_4a/relu_1x1 <- inception_4a/1x1
I0403 15:54:53.480911 14844 net.cpp:386] inception_4a/relu_1x1 -> inception_4a/1x1 (in-place)
I0403 15:54:53.481091 14844 net.cpp:141] Setting up inception_4a/relu_1x1
I0403 15:54:53.481117 14844 net.cpp:148] Top shape: 24 192 14 14 (903168)
I0403 15:54:53.481137 14844 net.cpp:156] Memory required for data: 861623328
I0403 15:54:53.481153 14844 layer_factory.hpp:77] Creating layer inception_4a/3x3_reduce
I0403 15:54:53.481174 14844 net.cpp:91] Creating Layer inception_4a/3x3_reduce
I0403 15:54:53.481191 14844 net.cpp:425] inception_4a/3x3_reduce <- pool3/3x3_s2_pool3/3x3_s2_0_split_1
I0403 15:54:53.481212 14844 net.cpp:399] inception_4a/3x3_reduce -> inception_4a/3x3_reduce
I0403 15:54:53.482493 14844 net.cpp:141] Setting up inception_4a/3x3_reduce
I0403 15:54:53.482522 14844 net.cpp:148] Top shape: 24 96 14 14 (451584)
I0403 15:54:53.482538 14844 net.cpp:156] Memory required for data: 863429664
I0403 15:54:53.482563 14844 layer_factory.hpp:77] Creating layer inception_4a/relu_3x3_reduce
I0403 15:54:53.482583 14844 net.cpp:91] Creating Layer inception_4a/relu_3x3_reduce
I0403 15:54:53.482599 14844 net.cpp:425] inception_4a/relu_3x3_reduce <- inception_4a/3x3_reduce
I0403 15:54:53.482619 14844 net.cpp:386] inception_4a/relu_3x3_reduce -> inception_4a/3x3_reduce (in-place)
I0403 15:54:53.482792 14844 net.cpp:141] Setting up inception_4a/relu_3x3_reduce
I0403 15:54:53.482817 14844 net.cpp:148] Top shape: 24 96 14 14 (451584)
I0403 15:54:53.482832 14844 net.cpp:156] Memory required for data: 865236000
I0403 15:54:53.482847 14844 layer_factory.hpp:77] Creating layer inception_4a/3x3
I0403 15:54:53.482870 14844 net.cpp:91] Creating Layer inception_4a/3x3
I0403 15:54:53.482887 14844 net.cpp:425] inception_4a/3x3 <- inception_4a/3x3_reduce
I0403 15:54:53.482908 14844 net.cpp:399] inception_4a/3x3 -> inception_4a/3x3
I0403 15:54:53.485586 14844 net.cpp:141] Setting up inception_4a/3x3
I0403 15:54:53.485616 14844 net.cpp:148] Top shape: 24 208 14 14 (978432)
I0403 15:54:53.485633 14844 net.cpp:156] Memory required for data: 869149728
I0403 15:54:53.485651 14844 layer_factory.hpp:77] Creating layer inception_4a/relu_3x3
I0403 15:54:53.485671 14844 net.cpp:91] Creating Layer inception_4a/relu_3x3
I0403 15:54:53.485689 14844 net.cpp:425] inception_4a/relu_3x3 <- inception_4a/3x3
I0403 15:54:53.485707 14844 net.cpp:386] inception_4a/relu_3x3 -> inception_4a/3x3 (in-place)
I0403 15:54:53.485990 14844 net.cpp:141] Setting up inception_4a/relu_3x3
I0403 15:54:53.486016 14844 net.cpp:148] Top shape: 24 208 14 14 (978432)
I0403 15:54:53.486032 14844 net.cpp:156] Memory required for data: 873063456
I0403 15:54:53.486047 14844 layer_factory.hpp:77] Creating layer inception_4a/5x5_reduce
I0403 15:54:53.486069 14844 net.cpp:91] Creating Layer inception_4a/5x5_reduce
I0403 15:54:53.486099 14844 net.cpp:425] inception_4a/5x5_reduce <- pool3/3x3_s2_pool3/3x3_s2_0_split_2
I0403 15:54:53.486124 14844 net.cpp:399] inception_4a/5x5_reduce -> inception_4a/5x5_reduce
I0403 15:54:53.487202 14844 net.cpp:141] Setting up inception_4a/5x5_reduce
I0403 15:54:53.487231 14844 net.cpp:148] Top shape: 24 16 14 14 (75264)
I0403 15:54:53.487246 14844 net.cpp:156] Memory required for data: 873364512
I0403 15:54:53.487264 14844 layer_factory.hpp:77] Creating layer inception_4a/relu_5x5_reduce
I0403 15:54:53.487285 14844 net.cpp:91] Creating Layer inception_4a/relu_5x5_reduce
I0403 15:54:53.487303 14844 net.cpp:425] inception_4a/relu_5x5_reduce <- inception_4a/5x5_reduce
I0403 15:54:53.487320 14844 net.cpp:386] inception_4a/relu_5x5_reduce -> inception_4a/5x5_reduce (in-place)
I0403 15:54:53.487499 14844 net.cpp:141] Setting up inception_4a/relu_5x5_reduce
I0403 15:54:53.487526 14844 net.cpp:148] Top shape: 24 16 14 14 (75264)
I0403 15:54:53.487543 14844 net.cpp:156] Memory required for data: 873665568
I0403 15:54:53.487558 14844 layer_factory.hpp:77] Creating layer inception_4a/5x5
I0403 15:54:53.487581 14844 net.cpp:91] Creating Layer inception_4a/5x5
I0403 15:54:53.487597 14844 net.cpp:425] inception_4a/5x5 <- inception_4a/5x5_reduce
I0403 15:54:53.487617 14844 net.cpp:399] inception_4a/5x5 -> inception_4a/5x5
I0403 15:54:53.488700 14844 net.cpp:141] Setting up inception_4a/5x5
I0403 15:54:53.488732 14844 net.cpp:148] Top shape: 24 48 14 14 (225792)
I0403 15:54:53.488750 14844 net.cpp:156] Memory required for data: 874568736
I0403 15:54:53.488770 14844 layer_factory.hpp:77] Creating layer inception_4a/relu_5x5
I0403 15:54:53.488786 14844 net.cpp:91] Creating Layer inception_4a/relu_5x5
I0403 15:54:53.488802 14844 net.cpp:425] inception_4a/relu_5x5 <- inception_4a/5x5
I0403 15:54:53.488821 14844 net.cpp:386] inception_4a/relu_5x5 -> inception_4a/5x5 (in-place)
I0403 15:54:53.488999 14844 net.cpp:141] Setting up inception_4a/relu_5x5
I0403 15:54:53.489024 14844 net.cpp:148] Top shape: 24 48 14 14 (225792)
I0403 15:54:53.489039 14844 net.cpp:156] Memory required for data: 875471904
I0403 15:54:53.489054 14844 layer_factory.hpp:77] Creating layer inception_4a/pool
I0403 15:54:53.489071 14844 net.cpp:91] Creating Layer inception_4a/pool
I0403 15:54:53.489087 14844 net.cpp:425] inception_4a/pool <- pool3/3x3_s2_pool3/3x3_s2_0_split_3
I0403 15:54:53.489107 14844 net.cpp:399] inception_4a/pool -> inception_4a/pool
I0403 15:54:53.489172 14844 net.cpp:141] Setting up inception_4a/pool
I0403 15:54:53.489198 14844 net.cpp:148] Top shape: 24 480 14 14 (2257920)
I0403 15:54:53.489213 14844 net.cpp:156] Memory required for data: 884503584
I0403 15:54:53.489226 14844 layer_factory.hpp:77] Creating layer inception_4a/pool_proj
I0403 15:54:53.489249 14844 net.cpp:91] Creating Layer inception_4a/pool_proj
I0403 15:54:53.489269 14844 net.cpp:425] inception_4a/pool_proj <- inception_4a/pool
I0403 15:54:53.489286 14844 net.cpp:399] inception_4a/pool_proj -> inception_4a/pool_proj
I0403 15:54:53.490448 14844 net.cpp:141] Setting up inception_4a/pool_proj
I0403 15:54:53.490476 14844 net.cpp:148] Top shape: 24 64 14 14 (301056)
I0403 15:54:53.490509 14844 net.cpp:156] Memory required for data: 885707808
I0403 15:54:53.490530 14844 layer_factory.hpp:77] Creating layer inception_4a/relu_pool_proj
I0403 15:54:53.490547 14844 net.cpp:91] Creating Layer inception_4a/relu_pool_proj
I0403 15:54:53.490564 14844 net.cpp:425] inception_4a/relu_pool_proj <- inception_4a/pool_proj
I0403 15:54:53.490584 14844 net.cpp:386] inception_4a/relu_pool_proj -> inception_4a/pool_proj (in-place)
I0403 15:54:53.490867 14844 net.cpp:141] Setting up inception_4a/relu_pool_proj
I0403 15:54:53.490895 14844 net.cpp:148] Top shape: 24 64 14 14 (301056)
I0403 15:54:53.490912 14844 net.cpp:156] Memory required for data: 886912032
I0403 15:54:53.490926 14844 layer_factory.hpp:77] Creating layer inception_4a/output
I0403 15:54:53.490943 14844 net.cpp:91] Creating Layer inception_4a/output
I0403 15:54:53.490959 14844 net.cpp:425] inception_4a/output <- inception_4a/1x1
I0403 15:54:53.490977 14844 net.cpp:425] inception_4a/output <- inception_4a/3x3
I0403 15:54:53.490993 14844 net.cpp:425] inception_4a/output <- inception_4a/5x5
I0403 15:54:53.491008 14844 net.cpp:425] inception_4a/output <- inception_4a/pool_proj
I0403 15:54:53.491027 14844 net.cpp:399] inception_4a/output -> inception_4a/output
I0403 15:54:53.491070 14844 net.cpp:141] Setting up inception_4a/output
I0403 15:54:53.491097 14844 net.cpp:148] Top shape: 24 512 14 14 (2408448)
I0403 15:54:53.491112 14844 net.cpp:156] Memory required for data: 896545824
I0403 15:54:53.491132 14844 layer_factory.hpp:77] Creating layer inception_4a/output_inception_4a/output_0_split
I0403 15:54:53.491152 14844 net.cpp:91] Creating Layer inception_4a/output_inception_4a/output_0_split
I0403 15:54:53.491168 14844 net.cpp:425] inception_4a/output_inception_4a/output_0_split <- inception_4a/output
I0403 15:54:53.491190 14844 net.cpp:399] inception_4a/output_inception_4a/output_0_split -> inception_4a/output_inception_4a/output_0_split_0
I0403 15:54:53.491211 14844 net.cpp:399] inception_4a/output_inception_4a/output_0_split -> inception_4a/output_inception_4a/output_0_split_1
I0403 15:54:53.491231 14844 net.cpp:399] inception_4a/output_inception_4a/output_0_split -> inception_4a/output_inception_4a/output_0_split_2
I0403 15:54:53.491252 14844 net.cpp:399] inception_4a/output_inception_4a/output_0_split -> inception_4a/output_inception_4a/output_0_split_3
I0403 15:54:53.491272 14844 net.cpp:399] inception_4a/output_inception_4a/output_0_split -> inception_4a/output_inception_4a/output_0_split_4
I0403 15:54:53.491369 14844 net.cpp:141] Setting up inception_4a/output_inception_4a/output_0_split
I0403 15:54:53.491394 14844 net.cpp:148] Top shape: 24 512 14 14 (2408448)
I0403 15:54:53.491410 14844 net.cpp:148] Top shape: 24 512 14 14 (2408448)
I0403 15:54:53.491425 14844 net.cpp:148] Top shape: 24 512 14 14 (2408448)
I0403 15:54:53.491439 14844 net.cpp:148] Top shape: 24 512 14 14 (2408448)
I0403 15:54:53.491454 14844 net.cpp:148] Top shape: 24 512 14 14 (2408448)
I0403 15:54:53.491468 14844 net.cpp:156] Memory required for data: 944714784
I0403 15:54:53.491483 14844 layer_factory.hpp:77] Creating layer loss1/ave_pool
I0403 15:54:53.491503 14844 net.cpp:91] Creating Layer loss1/ave_pool
I0403 15:54:53.491520 14844 net.cpp:425] loss1/ave_pool <- inception_4a/output_inception_4a/output_0_split_0
I0403 15:54:53.491539 14844 net.cpp:399] loss1/ave_pool -> loss1/ave_pool
I0403 15:54:53.491742 14844 net.cpp:141] Setting up loss1/ave_pool
I0403 15:54:53.491770 14844 net.cpp:148] Top shape: 24 512 4 4 (196608)
I0403 15:54:53.491785 14844 net.cpp:156] Memory required for data: 945501216
I0403 15:54:53.491801 14844 layer_factory.hpp:77] Creating layer loss1/conv
I0403 15:54:53.491822 14844 net.cpp:91] Creating Layer loss1/conv
I0403 15:54:53.491838 14844 net.cpp:425] loss1/conv <- loss1/ave_pool
I0403 15:54:53.491859 14844 net.cpp:399] loss1/conv -> loss1/conv
I0403 15:54:53.493273 14844 net.cpp:141] Setting up loss1/conv
I0403 15:54:53.493301 14844 net.cpp:148] Top shape: 24 128 4 4 (49152)
I0403 15:54:53.493317 14844 net.cpp:156] Memory required for data: 945697824
I0403 15:54:53.493350 14844 layer_factory.hpp:77] Creating layer loss1/relu_conv
I0403 15:54:53.493371 14844 net.cpp:91] Creating Layer loss1/relu_conv
I0403 15:54:53.493389 14844 net.cpp:425] loss1/relu_conv <- loss1/conv
I0403 15:54:53.493407 14844 net.cpp:386] loss1/relu_conv -> loss1/conv (in-place)
I0403 15:54:53.493683 14844 net.cpp:141] Setting up loss1/relu_conv
I0403 15:54:53.493710 14844 net.cpp:148] Top shape: 24 128 4 4 (49152)
I0403 15:54:53.493726 14844 net.cpp:156] Memory required for data: 945894432
I0403 15:54:53.493741 14844 layer_factory.hpp:77] Creating layer loss1/fc
I0403 15:54:53.493767 14844 net.cpp:91] Creating Layer loss1/fc
I0403 15:54:53.493785 14844 net.cpp:425] loss1/fc <- loss1/conv
I0403 15:54:53.493805 14844 net.cpp:399] loss1/fc -> loss1/fc
I0403 15:54:53.511234 14844 net.cpp:141] Setting up loss1/fc
I0403 15:54:53.511270 14844 net.cpp:148] Top shape: 24 1024 (24576)
I0403 15:54:53.511284 14844 net.cpp:156] Memory required for data: 945992736
I0403 15:54:53.511303 14844 layer_factory.hpp:77] Creating layer loss1/relu_fc
I0403 15:54:53.511320 14844 net.cpp:91] Creating Layer loss1/relu_fc
I0403 15:54:53.511337 14844 net.cpp:425] loss1/relu_fc <- loss1/fc
I0403 15:54:53.511358 14844 net.cpp:386] loss1/relu_fc -> loss1/fc (in-place)
I0403 15:54:53.511539 14844 net.cpp:141] Setting up loss1/relu_fc
I0403 15:54:53.511564 14844 net.cpp:148] Top shape: 24 1024 (24576)
I0403 15:54:53.511580 14844 net.cpp:156] Memory required for data: 946091040
I0403 15:54:53.511595 14844 layer_factory.hpp:77] Creating layer loss1/drop_fc
I0403 15:54:53.511623 14844 net.cpp:91] Creating Layer loss1/drop_fc
I0403 15:54:53.511641 14844 net.cpp:425] loss1/drop_fc <- loss1/fc
I0403 15:54:53.511657 14844 net.cpp:386] loss1/drop_fc -> loss1/fc (in-place)
I0403 15:54:53.511708 14844 net.cpp:141] Setting up loss1/drop_fc
I0403 15:54:53.511734 14844 net.cpp:148] Top shape: 24 1024 (24576)
I0403 15:54:53.511750 14844 net.cpp:156] Memory required for data: 946189344
I0403 15:54:53.511765 14844 layer_factory.hpp:77] Creating layer loss1/classifier_plantvillage
I0403 15:54:53.511782 14844 net.cpp:91] Creating Layer loss1/classifier_plantvillage
I0403 15:54:53.511797 14844 net.cpp:425] loss1/classifier_plantvillage <- loss1/fc
I0403 15:54:53.511817 14844 net.cpp:399] loss1/classifier_plantvillage -> loss1/classifier_plantvillage
I0403 15:54:53.512698 14844 net.cpp:141] Setting up loss1/classifier_plantvillage
I0403 15:54:53.512725 14844 net.cpp:148] Top shape: 24 38 (912)
I0403 15:54:53.512740 14844 net.cpp:156] Memory required for data: 946192992
I0403 15:54:53.512758 14844 layer_factory.hpp:77] Creating layer loss1/classifier_plantvillage_loss1/classifier_plantvillage_0_split
I0403 15:54:53.512774 14844 net.cpp:91] Creating Layer loss1/classifier_plantvillage_loss1/classifier_plantvillage_0_split
I0403 15:54:53.512789 14844 net.cpp:425] loss1/classifier_plantvillage_loss1/classifier_plantvillage_0_split <- loss1/classifier_plantvillage
I0403 15:54:53.512809 14844 net.cpp:399] loss1/classifier_plantvillage_loss1/classifier_plantvillage_0_split -> loss1/classifier_plantvillage_loss1/classifier_plantvillage_0_split_0
I0403 15:54:53.512830 14844 net.cpp:399] loss1/classifier_plantvillage_loss1/classifier_plantvillage_0_split -> loss1/classifier_plantvillage_loss1/classifier_plantvillage_0_split_1
I0403 15:54:53.512850 14844 net.cpp:399] loss1/classifier_plantvillage_loss1/classifier_plantvillage_0_split -> loss1/classifier_plantvillage_loss1/classifier_plantvillage_0_split_2
I0403 15:54:53.512917 14844 net.cpp:141] Setting up loss1/classifier_plantvillage_loss1/classifier_plantvillage_0_split
I0403 15:54:53.512940 14844 net.cpp:148] Top shape: 24 38 (912)
I0403 15:54:53.512955 14844 net.cpp:148] Top shape: 24 38 (912)
I0403 15:54:53.512969 14844 net.cpp:148] Top shape: 24 38 (912)
I0403 15:54:53.512984 14844 net.cpp:156] Memory required for data: 946203936
I0403 15:54:53.512997 14844 layer_factory.hpp:77] Creating layer inception_4b/1x1
I0403 15:54:53.513018 14844 net.cpp:91] Creating Layer inception_4b/1x1
I0403 15:54:53.513052 14844 net.cpp:425] inception_4b/1x1 <- inception_4a/output_inception_4a/output_0_split_1
I0403 15:54:53.513072 14844 net.cpp:399] inception_4b/1x1 -> inception_4b/1x1
I0403 15:54:53.514680 14844 net.cpp:141] Setting up inception_4b/1x1
I0403 15:54:53.514708 14844 net.cpp:148] Top shape: 24 160 14 14 (752640)
I0403 15:54:53.514724 14844 net.cpp:156] Memory required for data: 949214496
I0403 15:54:53.514742 14844 layer_factory.hpp:77] Creating layer inception_4b/relu_1x1
I0403 15:54:53.514762 14844 net.cpp:91] Creating Layer inception_4b/relu_1x1
I0403 15:54:53.514780 14844 net.cpp:425] inception_4b/relu_1x1 <- inception_4b/1x1
I0403 15:54:53.514797 14844 net.cpp:386] inception_4b/relu_1x1 -> inception_4b/1x1 (in-place)
I0403 15:54:53.514976 14844 net.cpp:141] Setting up inception_4b/relu_1x1
I0403 15:54:53.515002 14844 net.cpp:148] Top shape: 24 160 14 14 (752640)
I0403 15:54:53.515017 14844 net.cpp:156] Memory required for data: 952225056
I0403 15:54:53.515033 14844 layer_factory.hpp:77] Creating layer inception_4b/3x3_reduce
I0403 15:54:53.515053 14844 net.cpp:91] Creating Layer inception_4b/3x3_reduce
I0403 15:54:53.515069 14844 net.cpp:425] inception_4b/3x3_reduce <- inception_4a/output_inception_4a/output_0_split_2
I0403 15:54:53.515089 14844 net.cpp:399] inception_4b/3x3_reduce -> inception_4b/3x3_reduce
I0403 15:54:53.516409 14844 net.cpp:141] Setting up inception_4b/3x3_reduce
I0403 15:54:53.516440 14844 net.cpp:148] Top shape: 24 112 14 14 (526848)
I0403 15:54:53.516458 14844 net.cpp:156] Memory required for data: 954332448
I0403 15:54:53.516475 14844 layer_factory.hpp:77] Creating layer inception_4b/relu_3x3_reduce
I0403 15:54:53.516494 14844 net.cpp:91] Creating Layer inception_4b/relu_3x3_reduce
I0403 15:54:53.516508 14844 net.cpp:425] inception_4b/relu_3x3_reduce <- inception_4b/3x3_reduce
I0403 15:54:53.516526 14844 net.cpp:386] inception_4b/relu_3x3_reduce -> inception_4b/3x3_reduce (in-place)
I0403 15:54:53.516800 14844 net.cpp:141] Setting up inception_4b/relu_3x3_reduce
I0403 15:54:53.516829 14844 net.cpp:148] Top shape: 24 112 14 14 (526848)
I0403 15:54:53.516847 14844 net.cpp:156] Memory required for data: 956439840
I0403 15:54:53.516862 14844 layer_factory.hpp:77] Creating layer inception_4b/3x3
I0403 15:54:53.516883 14844 net.cpp:91] Creating Layer inception_4b/3x3
I0403 15:54:53.516901 14844 net.cpp:425] inception_4b/3x3 <- inception_4b/3x3_reduce
I0403 15:54:53.516921 14844 net.cpp:399] inception_4b/3x3 -> inception_4b/3x3
I0403 15:54:53.519800 14844 net.cpp:141] Setting up inception_4b/3x3
I0403 15:54:53.519829 14844 net.cpp:148] Top shape: 24 224 14 14 (1053696)
I0403 15:54:53.519845 14844 net.cpp:156] Memory required for data: 960654624
I0403 15:54:53.519862 14844 layer_factory.hpp:77] Creating layer inception_4b/relu_3x3
I0403 15:54:53.519881 14844 net.cpp:91] Creating Layer inception_4b/relu_3x3
I0403 15:54:53.519896 14844 net.cpp:425] inception_4b/relu_3x3 <- inception_4b/3x3
I0403 15:54:53.519915 14844 net.cpp:386] inception_4b/relu_3x3 -> inception_4b/3x3 (in-place)
I0403 15:54:53.520092 14844 net.cpp:141] Setting up inception_4b/relu_3x3
I0403 15:54:53.520117 14844 net.cpp:148] Top shape: 24 224 14 14 (1053696)
I0403 15:54:53.520138 14844 net.cpp:156] Memory required for data: 964869408
I0403 15:54:53.520153 14844 layer_factory.hpp:77] Creating layer inception_4b/5x5_reduce
I0403 15:54:53.520174 14844 net.cpp:91] Creating Layer inception_4b/5x5_reduce
I0403 15:54:53.520191 14844 net.cpp:425] inception_4b/5x5_reduce <- inception_4a/output_inception_4a/output_0_split_3
I0403 15:54:53.520213 14844 net.cpp:399] inception_4b/5x5_reduce -> inception_4b/5x5_reduce
I0403 15:54:53.521270 14844 net.cpp:141] Setting up inception_4b/5x5_reduce
I0403 15:54:53.521301 14844 net.cpp:148] Top shape: 24 24 14 14 (112896)
I0403 15:54:53.521317 14844 net.cpp:156] Memory required for data: 965320992
I0403 15:54:53.521335 14844 layer_factory.hpp:77] Creating layer inception_4b/relu_5x5_reduce
I0403 15:54:53.521353 14844 net.cpp:91] Creating Layer inception_4b/relu_5x5_reduce
I0403 15:54:53.521384 14844 net.cpp:425] inception_4b/relu_5x5_reduce <- inception_4b/5x5_reduce
I0403 15:54:53.521404 14844 net.cpp:386] inception_4b/relu_5x5_reduce -> inception_4b/5x5_reduce (in-place)
I0403 15:54:53.521582 14844 net.cpp:141] Setting up inception_4b/relu_5x5_reduce
I0403 15:54:53.521610 14844 net.cpp:148] Top shape: 24 24 14 14 (112896)
I0403 15:54:53.521625 14844 net.cpp:156] Memory required for data: 965772576
I0403 15:54:53.521639 14844 layer_factory.hpp:77] Creating layer inception_4b/5x5
I0403 15:54:53.521661 14844 net.cpp:91] Creating Layer inception_4b/5x5
I0403 15:54:53.521677 14844 net.cpp:425] inception_4b/5x5 <- inception_4b/5x5_reduce
I0403 15:54:53.521699 14844 net.cpp:399] inception_4b/5x5 -> inception_4b/5x5
I0403 15:54:53.522886 14844 net.cpp:141] Setting up inception_4b/5x5
I0403 15:54:53.522913 14844 net.cpp:148] Top shape: 24 64 14 14 (301056)
I0403 15:54:53.522928 14844 net.cpp:156] Memory required for data: 966976800
I0403 15:54:53.522946 14844 layer_factory.hpp:77] Creating layer inception_4b/relu_5x5
I0403 15:54:53.522969 14844 net.cpp:91] Creating Layer inception_4b/relu_5x5
I0403 15:54:53.522987 14844 net.cpp:425] inception_4b/relu_5x5 <- inception_4b/5x5
I0403 15:54:53.523005 14844 net.cpp:386] inception_4b/relu_5x5 -> inception_4b/5x5 (in-place)
I0403 15:54:53.523291 14844 net.cpp:141] Setting up inception_4b/relu_5x5
I0403 15:54:53.523318 14844 net.cpp:148] Top shape: 24 64 14 14 (301056)
I0403 15:54:53.523332 14844 net.cpp:156] Memory required for data: 968181024
I0403 15:54:53.523346 14844 layer_factory.hpp:77] Creating layer inception_4b/pool
I0403 15:54:53.523367 14844 net.cpp:91] Creating Layer inception_4b/pool
I0403 15:54:53.523386 14844 net.cpp:425] inception_4b/pool <- inception_4a/output_inception_4a/output_0_split_4
I0403 15:54:53.523402 14844 net.cpp:399] inception_4b/pool -> inception_4b/pool
I0403 15:54:53.523465 14844 net.cpp:141] Setting up inception_4b/pool
I0403 15:54:53.523489 14844 net.cpp:148] Top shape: 24 512 14 14 (2408448)
I0403 15:54:53.523504 14844 net.cpp:156] Memory required for data: 977814816
I0403 15:54:53.523516 14844 layer_factory.hpp:77] Creating layer inception_4b/pool_proj
I0403 15:54:53.523537 14844 net.cpp:91] Creating Layer inception_4b/pool_proj
I0403 15:54:53.523555 14844 net.cpp:425] inception_4b/pool_proj <- inception_4b/pool
I0403 15:54:53.523576 14844 net.cpp:399] inception_4b/pool_proj -> inception_4b/pool_proj
I0403 15:54:53.524739 14844 net.cpp:141] Setting up inception_4b/pool_proj
I0403 15:54:53.524766 14844 net.cpp:148] Top shape: 24 64 14 14 (301056)
I0403 15:54:53.524781 14844 net.cpp:156] Memory required for data: 979019040
I0403 15:54:53.524798 14844 layer_factory.hpp:77] Creating layer inception_4b/relu_pool_proj
I0403 15:54:53.524818 14844 net.cpp:91] Creating Layer inception_4b/relu_pool_proj
I0403 15:54:53.524837 14844 net.cpp:425] inception_4b/relu_pool_proj <- inception_4b/pool_proj
I0403 15:54:53.524853 14844 net.cpp:386] inception_4b/relu_pool_proj -> inception_4b/pool_proj (in-place)
I0403 15:54:53.525030 14844 net.cpp:141] Setting up inception_4b/relu_pool_proj
I0403 15:54:53.525054 14844 net.cpp:148] Top shape: 24 64 14 14 (301056)
I0403 15:54:53.525068 14844 net.cpp:156] Memory required for data: 980223264
I0403 15:54:53.525082 14844 layer_factory.hpp:77] Creating layer inception_4b/output
I0403 15:54:53.525099 14844 net.cpp:91] Creating Layer inception_4b/output
I0403 15:54:53.525115 14844 net.cpp:425] inception_4b/output <- inception_4b/1x1
I0403 15:54:53.525137 14844 net.cpp:425] inception_4b/output <- inception_4b/3x3
I0403 15:54:53.525154 14844 net.cpp:425] inception_4b/output <- inception_4b/5x5
I0403 15:54:53.525169 14844 net.cpp:425] inception_4b/output <- inception_4b/pool_proj
I0403 15:54:53.525187 14844 net.cpp:399] inception_4b/output -> inception_4b/output
I0403 15:54:53.525233 14844 net.cpp:141] Setting up inception_4b/output
I0403 15:54:53.525259 14844 net.cpp:148] Top shape: 24 512 14 14 (2408448)
I0403 15:54:53.525274 14844 net.cpp:156] Memory required for data: 989857056
I0403 15:54:53.525302 14844 layer_factory.hpp:77] Creating layer inception_4b/output_inception_4b/output_0_split
I0403 15:54:53.525321 14844 net.cpp:91] Creating Layer inception_4b/output_inception_4b/output_0_split
I0403 15:54:53.525336 14844 net.cpp:425] inception_4b/output_inception_4b/output_0_split <- inception_4b/output
I0403 15:54:53.525352 14844 net.cpp:399] inception_4b/output_inception_4b/output_0_split -> inception_4b/output_inception_4b/output_0_split_0
I0403 15:54:53.525370 14844 net.cpp:399] inception_4b/output_inception_4b/output_0_split -> inception_4b/output_inception_4b/output_0_split_1
I0403 15:54:53.525393 14844 net.cpp:399] inception_4b/output_inception_4b/output_0_split -> inception_4b/output_inception_4b/output_0_split_2
I0403 15:54:53.525413 14844 net.cpp:399] inception_4b/output_inception_4b/output_0_split -> inception_4b/output_inception_4b/output_0_split_3
I0403 15:54:53.525497 14844 net.cpp:141] Setting up inception_4b/output_inception_4b/output_0_split
I0403 15:54:53.525521 14844 net.cpp:148] Top shape: 24 512 14 14 (2408448)
I0403 15:54:53.525537 14844 net.cpp:148] Top shape: 24 512 14 14 (2408448)
I0403 15:54:53.525552 14844 net.cpp:148] Top shape: 24 512 14 14 (2408448)
I0403 15:54:53.525566 14844 net.cpp:148] Top shape: 24 512 14 14 (2408448)
I0403 15:54:53.525580 14844 net.cpp:156] Memory required for data: 1028392224
I0403 15:54:53.525593 14844 layer_factory.hpp:77] Creating layer inception_4c/1x1
I0403 15:54:53.525614 14844 net.cpp:91] Creating Layer inception_4c/1x1
I0403 15:54:53.525631 14844 net.cpp:425] inception_4c/1x1 <- inception_4b/output_inception_4b/output_0_split_0
I0403 15:54:53.525651 14844 net.cpp:399] inception_4c/1x1 -> inception_4c/1x1
I0403 15:54:53.527083 14844 net.cpp:141] Setting up inception_4c/1x1
I0403 15:54:53.527112 14844 net.cpp:148] Top shape: 24 128 14 14 (602112)
I0403 15:54:53.527133 14844 net.cpp:156] Memory required for data: 1030800672
I0403 15:54:53.527153 14844 layer_factory.hpp:77] Creating layer inception_4c/relu_1x1
I0403 15:54:53.527170 14844 net.cpp:91] Creating Layer inception_4c/relu_1x1
I0403 15:54:53.527187 14844 net.cpp:425] inception_4c/relu_1x1 <- inception_4c/1x1
I0403 15:54:53.527207 14844 net.cpp:386] inception_4c/relu_1x1 -> inception_4c/1x1 (in-place)
I0403 15:54:53.527389 14844 net.cpp:141] Setting up inception_4c/relu_1x1
I0403 15:54:53.527413 14844 net.cpp:148] Top shape: 24 128 14 14 (602112)
I0403 15:54:53.527427 14844 net.cpp:156] Memory required for data: 1033209120
I0403 15:54:53.527442 14844 layer_factory.hpp:77] Creating layer inception_4c/3x3_reduce
I0403 15:54:53.527463 14844 net.cpp:91] Creating Layer inception_4c/3x3_reduce
I0403 15:54:53.527482 14844 net.cpp:425] inception_4c/3x3_reduce <- inception_4b/output_inception_4b/output_0_split_1
I0403 15:54:53.527504 14844 net.cpp:399] inception_4c/3x3_reduce -> inception_4c/3x3_reduce
I0403 15:54:53.529450 14844 net.cpp:141] Setting up inception_4c/3x3_reduce
I0403 15:54:53.529480 14844 net.cpp:148] Top shape: 24 128 14 14 (602112)
I0403 15:54:53.529496 14844 net.cpp:156] Memory required for data: 1035617568
I0403 15:54:53.529515 14844 layer_factory.hpp:77] Creating layer inception_4c/relu_3x3_reduce
I0403 15:54:53.529534 14844 net.cpp:91] Creating Layer inception_4c/relu_3x3_reduce
I0403 15:54:53.529552 14844 net.cpp:425] inception_4c/relu_3x3_reduce <- inception_4c/3x3_reduce
I0403 15:54:53.529570 14844 net.cpp:386] inception_4c/relu_3x3_reduce -> inception_4c/3x3_reduce (in-place)
I0403 15:54:53.529861 14844 net.cpp:141] Setting up inception_4c/relu_3x3_reduce
I0403 15:54:53.529888 14844 net.cpp:148] Top shape: 24 128 14 14 (602112)
I0403 15:54:53.529903 14844 net.cpp:156] Memory required for data: 1038026016
I0403 15:54:53.529918 14844 layer_factory.hpp:77] Creating layer inception_4c/3x3
I0403 15:54:53.529942 14844 net.cpp:91] Creating Layer inception_4c/3x3
I0403 15:54:53.529958 14844 net.cpp:425] inception_4c/3x3 <- inception_4c/3x3_reduce
I0403 15:54:53.529980 14844 net.cpp:399] inception_4c/3x3 -> inception_4c/3x3
I0403 15:54:53.533576 14844 net.cpp:141] Setting up inception_4c/3x3
I0403 15:54:53.533618 14844 net.cpp:148] Top shape: 24 256 14 14 (1204224)
I0403 15:54:53.533635 14844 net.cpp:156] Memory required for data: 1042842912
I0403 15:54:53.533666 14844 layer_factory.hpp:77] Creating layer inception_4c/relu_3x3
I0403 15:54:53.533690 14844 net.cpp:91] Creating Layer inception_4c/relu_3x3
I0403 15:54:53.533709 14844 net.cpp:425] inception_4c/relu_3x3 <- inception_4c/3x3
I0403 15:54:53.533726 14844 net.cpp:386] inception_4c/relu_3x3 -> inception_4c/3x3 (in-place)
I0403 15:54:53.533910 14844 net.cpp:141] Setting up inception_4c/relu_3x3
I0403 15:54:53.533938 14844 net.cpp:148] Top shape: 24 256 14 14 (1204224)
I0403 15:54:53.533954 14844 net.cpp:156] Memory required for data: 1047659808
I0403 15:54:53.533969 14844 layer_factory.hpp:77] Creating layer inception_4c/5x5_reduce
I0403 15:54:53.533993 14844 net.cpp:91] Creating Layer inception_4c/5x5_reduce
I0403 15:54:53.534009 14844 net.cpp:425] inception_4c/5x5_reduce <- inception_4b/output_inception_4b/output_0_split_2
I0403 15:54:53.534029 14844 net.cpp:399] inception_4c/5x5_reduce -> inception_4c/5x5_reduce
I0403 15:54:53.535132 14844 net.cpp:141] Setting up inception_4c/5x5_reduce
I0403 15:54:53.535161 14844 net.cpp:148] Top shape: 24 24 14 14 (112896)
I0403 15:54:53.535181 14844 net.cpp:156] Memory required for data: 1048111392
I0403 15:54:53.535200 14844 layer_factory.hpp:77] Creating layer inception_4c/relu_5x5_reduce
I0403 15:54:53.535219 14844 net.cpp:91] Creating Layer inception_4c/relu_5x5_reduce
I0403 15:54:53.535235 14844 net.cpp:425] inception_4c/relu_5x5_reduce <- inception_4c/5x5_reduce
I0403 15:54:53.535251 14844 net.cpp:386] inception_4c/relu_5x5_reduce -> inception_4c/5x5_reduce (in-place)
I0403 15:54:53.535437 14844 net.cpp:141] Setting up inception_4c/relu_5x5_reduce
I0403 15:54:53.535465 14844 net.cpp:148] Top shape: 24 24 14 14 (112896)
I0403 15:54:53.535480 14844 net.cpp:156] Memory required for data: 1048562976
I0403 15:54:53.535496 14844 layer_factory.hpp:77] Creating layer inception_4c/5x5
I0403 15:54:53.535517 14844 net.cpp:91] Creating Layer inception_4c/5x5
I0403 15:54:53.535537 14844 net.cpp:425] inception_4c/5x5 <- inception_4c/5x5_reduce
I0403 15:54:53.535555 14844 net.cpp:399] inception_4c/5x5 -> inception_4c/5x5
I0403 15:54:53.536823 14844 net.cpp:141] Setting up inception_4c/5x5
I0403 15:54:53.536851 14844 net.cpp:148] Top shape: 24 64 14 14 (301056)
I0403 15:54:53.536867 14844 net.cpp:156] Memory required for data: 1049767200
I0403 15:54:53.536897 14844 layer_factory.hpp:77] Creating layer inception_4c/relu_5x5
I0403 15:54:53.536916 14844 net.cpp:91] Creating Layer inception_4c/relu_5x5
I0403 15:54:53.536932 14844 net.cpp:425] inception_4c/relu_5x5 <- inception_4c/5x5
I0403 15:54:53.536952 14844 net.cpp:386] inception_4c/relu_5x5 -> inception_4c/5x5 (in-place)
I0403 15:54:53.537250 14844 net.cpp:141] Setting up inception_4c/relu_5x5
I0403 15:54:53.537276 14844 net.cpp:148] Top shape: 24 64 14 14 (301056)
I0403 15:54:53.537292 14844 net.cpp:156] Memory required for data: 1050971424
I0403 15:54:53.537307 14844 layer_factory.hpp:77] Creating layer inception_4c/pool
I0403 15:54:53.537324 14844 net.cpp:91] Creating Layer inception_4c/pool
I0403 15:54:53.537339 14844 net.cpp:425] inception_4c/pool <- inception_4b/output_inception_4b/output_0_split_3
I0403 15:54:53.537360 14844 net.cpp:399] inception_4c/pool -> inception_4c/pool
I0403 15:54:53.537425 14844 net.cpp:141] Setting up inception_4c/pool
I0403 15:54:53.537451 14844 net.cpp:148] Top shape: 24 512 14 14 (2408448)
I0403 15:54:53.537464 14844 net.cpp:156] Memory required for data: 1060605216
I0403 15:54:53.537479 14844 layer_factory.hpp:77] Creating layer inception_4c/pool_proj
I0403 15:54:53.537503 14844 net.cpp:91] Creating Layer inception_4c/pool_proj
I0403 15:54:53.537519 14844 net.cpp:425] inception_4c/pool_proj <- inception_4c/pool
I0403 15:54:53.537538 14844 net.cpp:399] inception_4c/pool_proj -> inception_4c/pool_proj
I0403 15:54:53.538760 14844 net.cpp:141] Setting up inception_4c/pool_proj
I0403 15:54:53.538789 14844 net.cpp:148] Top shape: 24 64 14 14 (301056)
I0403 15:54:53.538818 14844 net.cpp:156] Memory required for data: 1061809440
I0403 15:54:53.538839 14844 layer_factory.hpp:77] Creating layer inception_4c/relu_pool_proj
I0403 15:54:53.538861 14844 net.cpp:91] Creating Layer inception_4c/relu_pool_proj
I0403 15:54:53.538877 14844 net.cpp:425] inception_4c/relu_pool_proj <- inception_4c/pool_proj
I0403 15:54:53.538895 14844 net.cpp:386] inception_4c/relu_pool_proj -> inception_4c/pool_proj (in-place)
I0403 15:54:53.539080 14844 net.cpp:141] Setting up inception_4c/relu_pool_proj
I0403 15:54:53.539106 14844 net.cpp:148] Top shape: 24 64 14 14 (301056)
I0403 15:54:53.539121 14844 net.cpp:156] Memory required for data: 1063013664
I0403 15:54:53.539144 14844 layer_factory.hpp:77] Creating layer inception_4c/output
I0403 15:54:53.539160 14844 net.cpp:91] Creating Layer inception_4c/output
I0403 15:54:53.539175 14844 net.cpp:425] inception_4c/output <- inception_4c/1x1
I0403 15:54:53.539191 14844 net.cpp:425] inception_4c/output <- inception_4c/3x3
I0403 15:54:53.539207 14844 net.cpp:425] inception_4c/output <- inception_4c/5x5
I0403 15:54:53.539223 14844 net.cpp:425] inception_4c/output <- inception_4c/pool_proj
I0403 15:54:53.539243 14844 net.cpp:399] inception_4c/output -> inception_4c/output
I0403 15:54:53.539288 14844 net.cpp:141] Setting up inception_4c/output
I0403 15:54:53.539312 14844 net.cpp:148] Top shape: 24 512 14 14 (2408448)
I0403 15:54:53.539330 14844 net.cpp:156] Memory required for data: 1072647456
I0403 15:54:53.539345 14844 layer_factory.hpp:77] Creating layer inception_4c/output_inception_4c/output_0_split
I0403 15:54:53.539363 14844 net.cpp:91] Creating Layer inception_4c/output_inception_4c/output_0_split
I0403 15:54:53.539379 14844 net.cpp:425] inception_4c/output_inception_4c/output_0_split <- inception_4c/output
I0403 15:54:53.539397 14844 net.cpp:399] inception_4c/output_inception_4c/output_0_split -> inception_4c/output_inception_4c/output_0_split_0
I0403 15:54:53.539417 14844 net.cpp:399] inception_4c/output_inception_4c/output_0_split -> inception_4c/output_inception_4c/output_0_split_1
I0403 15:54:53.539435 14844 net.cpp:399] inception_4c/output_inception_4c/output_0_split -> inception_4c/output_inception_4c/output_0_split_2
I0403 15:54:53.539458 14844 net.cpp:399] inception_4c/output_inception_4c/output_0_split -> inception_4c/output_inception_4c/output_0_split_3
I0403 15:54:53.539546 14844 net.cpp:141] Setting up inception_4c/output_inception_4c/output_0_split
I0403 15:54:53.539571 14844 net.cpp:148] Top shape: 24 512 14 14 (2408448)
I0403 15:54:53.539587 14844 net.cpp:148] Top shape: 24 512 14 14 (2408448)
I0403 15:54:53.539602 14844 net.cpp:148] Top shape: 24 512 14 14 (2408448)
I0403 15:54:53.539616 14844 net.cpp:148] Top shape: 24 512 14 14 (2408448)
I0403 15:54:53.539630 14844 net.cpp:156] Memory required for data: 1111182624
I0403 15:54:53.539645 14844 layer_factory.hpp:77] Creating layer inception_4d/1x1
I0403 15:54:53.539666 14844 net.cpp:91] Creating Layer inception_4d/1x1
I0403 15:54:53.539683 14844 net.cpp:425] inception_4d/1x1 <- inception_4c/output_inception_4c/output_0_split_0
I0403 15:54:53.539705 14844 net.cpp:399] inception_4d/1x1 -> inception_4d/1x1
I0403 15:54:53.541088 14844 net.cpp:141] Setting up inception_4d/1x1
I0403 15:54:53.541117 14844 net.cpp:148] Top shape: 24 112 14 14 (526848)
I0403 15:54:53.541137 14844 net.cpp:156] Memory required for data: 1113290016
I0403 15:54:53.541157 14844 layer_factory.hpp:77] Creating layer inception_4d/relu_1x1
I0403 15:54:53.541177 14844 net.cpp:91] Creating Layer inception_4d/relu_1x1
I0403 15:54:53.541194 14844 net.cpp:425] inception_4d/relu_1x1 <- inception_4d/1x1
I0403 15:54:53.541213 14844 net.cpp:386] inception_4d/relu_1x1 -> inception_4d/1x1 (in-place)
I0403 15:54:53.541399 14844 net.cpp:141] Setting up inception_4d/relu_1x1
I0403 15:54:53.541424 14844 net.cpp:148] Top shape: 24 112 14 14 (526848)
I0403 15:54:53.541441 14844 net.cpp:156] Memory required for data: 1115397408
I0403 15:54:53.541457 14844 layer_factory.hpp:77] Creating layer inception_4d/3x3_reduce
I0403 15:54:53.541491 14844 net.cpp:91] Creating Layer inception_4d/3x3_reduce
I0403 15:54:53.541509 14844 net.cpp:425] inception_4d/3x3_reduce <- inception_4c/output_inception_4c/output_0_split_1
I0403 15:54:53.541532 14844 net.cpp:399] inception_4d/3x3_reduce -> inception_4d/3x3_reduce
I0403 15:54:53.543117 14844 net.cpp:141] Setting up inception_4d/3x3_reduce
I0403 15:54:53.543151 14844 net.cpp:148] Top shape: 24 144 14 14 (677376)
I0403 15:54:53.543169 14844 net.cpp:156] Memory required for data: 1118106912
I0403 15:54:53.543186 14844 layer_factory.hpp:77] Creating layer inception_4d/relu_3x3_reduce
I0403 15:54:53.543205 14844 net.cpp:91] Creating Layer inception_4d/relu_3x3_reduce
I0403 15:54:53.543222 14844 net.cpp:425] inception_4d/relu_3x3_reduce <- inception_4d/3x3_reduce
I0403 15:54:53.543242 14844 net.cpp:386] inception_4d/relu_3x3_reduce -> inception_4d/3x3_reduce (in-place)
I0403 15:54:53.543534 14844 net.cpp:141] Setting up inception_4d/relu_3x3_reduce
I0403 15:54:53.543560 14844 net.cpp:148] Top shape: 24 144 14 14 (677376)
I0403 15:54:53.543576 14844 net.cpp:156] Memory required for data: 1120816416
I0403 15:54:53.543591 14844 layer_factory.hpp:77] Creating layer inception_4d/3x3
I0403 15:54:53.543613 14844 net.cpp:91] Creating Layer inception_4d/3x3
I0403 15:54:53.543630 14844 net.cpp:425] inception_4d/3x3 <- inception_4d/3x3_reduce
I0403 15:54:53.543651 14844 net.cpp:399] inception_4d/3x3 -> inception_4d/3x3
I0403 15:54:53.547840 14844 net.cpp:141] Setting up inception_4d/3x3
I0403 15:54:53.547869 14844 net.cpp:148] Top shape: 24 288 14 14 (1354752)
I0403 15:54:53.547885 14844 net.cpp:156] Memory required for data: 1126235424
I0403 15:54:53.547904 14844 layer_factory.hpp:77] Creating layer inception_4d/relu_3x3
I0403 15:54:53.547924 14844 net.cpp:91] Creating Layer inception_4d/relu_3x3
I0403 15:54:53.547941 14844 net.cpp:425] inception_4d/relu_3x3 <- inception_4d/3x3
I0403 15:54:53.547957 14844 net.cpp:386] inception_4d/relu_3x3 -> inception_4d/3x3 (in-place)
I0403 15:54:53.548144 14844 net.cpp:141] Setting up inception_4d/relu_3x3
I0403 15:54:53.548169 14844 net.cpp:148] Top shape: 24 288 14 14 (1354752)
I0403 15:54:53.548183 14844 net.cpp:156] Memory required for data: 1131654432
I0403 15:54:53.548197 14844 layer_factory.hpp:77] Creating layer inception_4d/5x5_reduce
I0403 15:54:53.548220 14844 net.cpp:91] Creating Layer inception_4d/5x5_reduce
I0403 15:54:53.548238 14844 net.cpp:425] inception_4d/5x5_reduce <- inception_4c/output_inception_4c/output_0_split_2
I0403 15:54:53.548256 14844 net.cpp:399] inception_4d/5x5_reduce -> inception_4d/5x5_reduce
I0403 15:54:53.549372 14844 net.cpp:141] Setting up inception_4d/5x5_reduce
I0403 15:54:53.549401 14844 net.cpp:148] Top shape: 24 32 14 14 (150528)
I0403 15:54:53.549414 14844 net.cpp:156] Memory required for data: 1132256544
I0403 15:54:53.549432 14844 layer_factory.hpp:77] Creating layer inception_4d/relu_5x5_reduce
I0403 15:54:53.549453 14844 net.cpp:91] Creating Layer inception_4d/relu_5x5_reduce
I0403 15:54:53.549470 14844 net.cpp:425] inception_4d/relu_5x5_reduce <- inception_4d/5x5_reduce
I0403 15:54:53.549486 14844 net.cpp:386] inception_4d/relu_5x5_reduce -> inception_4d/5x5_reduce (in-place)
I0403 15:54:53.549669 14844 net.cpp:141] Setting up inception_4d/relu_5x5_reduce
I0403 15:54:53.549696 14844 net.cpp:148] Top shape: 24 32 14 14 (150528)
I0403 15:54:53.549712 14844 net.cpp:156] Memory required for data: 1132858656
I0403 15:54:53.549727 14844 layer_factory.hpp:77] Creating layer inception_4d/5x5
I0403 15:54:53.549749 14844 net.cpp:91] Creating Layer inception_4d/5x5
I0403 15:54:53.549767 14844 net.cpp:425] inception_4d/5x5 <- inception_4d/5x5_reduce
I0403 15:54:53.549785 14844 net.cpp:399] inception_4d/5x5 -> inception_4d/5x5
I0403 15:54:53.551221 14844 net.cpp:141] Setting up inception_4d/5x5
I0403 15:54:53.551251 14844 net.cpp:148] Top shape: 24 64 14 14 (301056)
I0403 15:54:53.551270 14844 net.cpp:156] Memory required for data: 1134062880
I0403 15:54:53.551288 14844 layer_factory.hpp:77] Creating layer inception_4d/relu_5x5
I0403 15:54:53.551321 14844 net.cpp:91] Creating Layer inception_4d/relu_5x5
I0403 15:54:53.551337 14844 net.cpp:425] inception_4d/relu_5x5 <- inception_4d/5x5
I0403 15:54:53.551354 14844 net.cpp:386] inception_4d/relu_5x5 -> inception_4d/5x5 (in-place)
I0403 15:54:53.551648 14844 net.cpp:141] Setting up inception_4d/relu_5x5
I0403 15:54:53.551677 14844 net.cpp:148] Top shape: 24 64 14 14 (301056)
I0403 15:54:53.551694 14844 net.cpp:156] Memory required for data: 1135267104
I0403 15:54:53.551710 14844 layer_factory.hpp:77] Creating layer inception_4d/pool
I0403 15:54:53.551728 14844 net.cpp:91] Creating Layer inception_4d/pool
I0403 15:54:53.551744 14844 net.cpp:425] inception_4d/pool <- inception_4c/output_inception_4c/output_0_split_3
I0403 15:54:53.551761 14844 net.cpp:399] inception_4d/pool -> inception_4d/pool
I0403 15:54:53.551827 14844 net.cpp:141] Setting up inception_4d/pool
I0403 15:54:53.551851 14844 net.cpp:148] Top shape: 24 512 14 14 (2408448)
I0403 15:54:53.551865 14844 net.cpp:156] Memory required for data: 1144900896
I0403 15:54:53.551879 14844 layer_factory.hpp:77] Creating layer inception_4d/pool_proj
I0403 15:54:53.551900 14844 net.cpp:91] Creating Layer inception_4d/pool_proj
I0403 15:54:53.551918 14844 net.cpp:425] inception_4d/pool_proj <- inception_4d/pool
I0403 15:54:53.551939 14844 net.cpp:399] inception_4d/pool_proj -> inception_4d/pool_proj
I0403 15:54:53.553700 14844 net.cpp:141] Setting up inception_4d/pool_proj
I0403 15:54:53.553730 14844 net.cpp:148] Top shape: 24 64 14 14 (301056)
I0403 15:54:53.553745 14844 net.cpp:156] Memory required for data: 1146105120
I0403 15:54:53.553763 14844 layer_factory.hpp:77] Creating layer inception_4d/relu_pool_proj
I0403 15:54:53.553782 14844 net.cpp:91] Creating Layer inception_4d/relu_pool_proj
I0403 15:54:53.553799 14844 net.cpp:425] inception_4d/relu_pool_proj <- inception_4d/pool_proj
I0403 15:54:53.553815 14844 net.cpp:386] inception_4d/relu_pool_proj -> inception_4d/pool_proj (in-place)
I0403 15:54:53.553997 14844 net.cpp:141] Setting up inception_4d/relu_pool_proj
I0403 15:54:53.554023 14844 net.cpp:148] Top shape: 24 64 14 14 (301056)
I0403 15:54:53.554039 14844 net.cpp:156] Memory required for data: 1147309344
I0403 15:54:53.554052 14844 layer_factory.hpp:77] Creating layer inception_4d/output
I0403 15:54:53.554071 14844 net.cpp:91] Creating Layer inception_4d/output
I0403 15:54:53.554087 14844 net.cpp:425] inception_4d/output <- inception_4d/1x1
I0403 15:54:53.554103 14844 net.cpp:425] inception_4d/output <- inception_4d/3x3
I0403 15:54:53.554118 14844 net.cpp:425] inception_4d/output <- inception_4d/5x5
I0403 15:54:53.554141 14844 net.cpp:425] inception_4d/output <- inception_4d/pool_proj
I0403 15:54:53.554158 14844 net.cpp:399] inception_4d/output -> inception_4d/output
I0403 15:54:53.554208 14844 net.cpp:141] Setting up inception_4d/output
I0403 15:54:53.554230 14844 net.cpp:148] Top shape: 24 528 14 14 (2483712)
I0403 15:54:53.554244 14844 net.cpp:156] Memory required for data: 1157244192
I0403 15:54:53.554260 14844 layer_factory.hpp:77] Creating layer inception_4d/output_inception_4d/output_0_split
I0403 15:54:53.554276 14844 net.cpp:91] Creating Layer inception_4d/output_inception_4d/output_0_split
I0403 15:54:53.554292 14844 net.cpp:425] inception_4d/output_inception_4d/output_0_split <- inception_4d/output
I0403 15:54:53.554311 14844 net.cpp:399] inception_4d/output_inception_4d/output_0_split -> inception_4d/output_inception_4d/output_0_split_0
I0403 15:54:53.554332 14844 net.cpp:399] inception_4d/output_inception_4d/output_0_split -> inception_4d/output_inception_4d/output_0_split_1
I0403 15:54:53.554352 14844 net.cpp:399] inception_4d/output_inception_4d/output_0_split -> inception_4d/output_inception_4d/output_0_split_2
I0403 15:54:53.554378 14844 net.cpp:399] inception_4d/output_inception_4d/output_0_split -> inception_4d/output_inception_4d/output_0_split_3
I0403 15:54:53.554399 14844 net.cpp:399] inception_4d/output_inception_4d/output_0_split -> inception_4d/output_inception_4d/output_0_split_4
I0403 15:54:53.554497 14844 net.cpp:141] Setting up inception_4d/output_inception_4d/output_0_split
I0403 15:54:53.554533 14844 net.cpp:148] Top shape: 24 528 14 14 (2483712)
I0403 15:54:53.554549 14844 net.cpp:148] Top shape: 24 528 14 14 (2483712)
I0403 15:54:53.554564 14844 net.cpp:148] Top shape: 24 528 14 14 (2483712)
I0403 15:54:53.554579 14844 net.cpp:148] Top shape: 24 528 14 14 (2483712)
I0403 15:54:53.554594 14844 net.cpp:148] Top shape: 24 528 14 14 (2483712)
I0403 15:54:53.554607 14844 net.cpp:156] Memory required for data: 1206918432
I0403 15:54:53.554622 14844 layer_factory.hpp:77] Creating layer loss2/ave_pool
I0403 15:54:53.554638 14844 net.cpp:91] Creating Layer loss2/ave_pool
I0403 15:54:53.554654 14844 net.cpp:425] loss2/ave_pool <- inception_4d/output_inception_4d/output_0_split_0
I0403 15:54:53.554675 14844 net.cpp:399] loss2/ave_pool -> loss2/ave_pool
I0403 15:54:53.554980 14844 net.cpp:141] Setting up loss2/ave_pool
I0403 15:54:53.555006 14844 net.cpp:148] Top shape: 24 528 4 4 (202752)
I0403 15:54:53.555022 14844 net.cpp:156] Memory required for data: 1207729440
I0403 15:54:53.555039 14844 layer_factory.hpp:77] Creating layer loss2/conv
I0403 15:54:53.555060 14844 net.cpp:91] Creating Layer loss2/conv
I0403 15:54:53.555078 14844 net.cpp:425] loss2/conv <- loss2/ave_pool
I0403 15:54:53.555099 14844 net.cpp:399] loss2/conv -> loss2/conv
I0403 15:54:53.556937 14844 net.cpp:141] Setting up loss2/conv
I0403 15:54:53.556968 14844 net.cpp:148] Top shape: 24 128 4 4 (49152)
I0403 15:54:53.556988 14844 net.cpp:156] Memory required for data: 1207926048
I0403 15:54:53.557006 14844 layer_factory.hpp:77] Creating layer loss2/relu_conv
I0403 15:54:53.557024 14844 net.cpp:91] Creating Layer loss2/relu_conv
I0403 15:54:53.557039 14844 net.cpp:425] loss2/relu_conv <- loss2/conv
I0403 15:54:53.557057 14844 net.cpp:386] loss2/relu_conv -> loss2/conv (in-place)
I0403 15:54:53.557339 14844 net.cpp:141] Setting up loss2/relu_conv
I0403 15:54:53.557368 14844 net.cpp:148] Top shape: 24 128 4 4 (49152)
I0403 15:54:53.557384 14844 net.cpp:156] Memory required for data: 1208122656
I0403 15:54:53.557399 14844 layer_factory.hpp:77] Creating layer loss2/fc
I0403 15:54:53.557418 14844 net.cpp:91] Creating Layer loss2/fc
I0403 15:54:53.557432 14844 net.cpp:425] loss2/fc <- loss2/conv
I0403 15:54:53.557453 14844 net.cpp:399] loss2/fc -> loss2/fc
I0403 15:54:53.574565 14844 net.cpp:141] Setting up loss2/fc
I0403 15:54:53.574597 14844 net.cpp:148] Top shape: 24 1024 (24576)
I0403 15:54:53.574614 14844 net.cpp:156] Memory required for data: 1208220960
I0403 15:54:53.574630 14844 layer_factory.hpp:77] Creating layer loss2/relu_fc
I0403 15:54:53.574651 14844 net.cpp:91] Creating Layer loss2/relu_fc
I0403 15:54:53.574667 14844 net.cpp:425] loss2/relu_fc <- loss2/fc
I0403 15:54:53.574686 14844 net.cpp:386] loss2/relu_fc -> loss2/fc (in-place)
I0403 15:54:53.574982 14844 net.cpp:141] Setting up loss2/relu_fc
I0403 15:54:53.575008 14844 net.cpp:148] Top shape: 24 1024 (24576)
I0403 15:54:53.575023 14844 net.cpp:156] Memory required for data: 1208319264
I0403 15:54:53.575038 14844 layer_factory.hpp:77] Creating layer loss2/drop_fc
I0403 15:54:53.575057 14844 net.cpp:91] Creating Layer loss2/drop_fc
I0403 15:54:53.575074 14844 net.cpp:425] loss2/drop_fc <- loss2/fc
I0403 15:54:53.575090 14844 net.cpp:386] loss2/drop_fc -> loss2/fc (in-place)
I0403 15:54:53.575144 14844 net.cpp:141] Setting up loss2/drop_fc
I0403 15:54:53.575166 14844 net.cpp:148] Top shape: 24 1024 (24576)
I0403 15:54:53.575181 14844 net.cpp:156] Memory required for data: 1208417568
I0403 15:54:53.575196 14844 layer_factory.hpp:77] Creating layer loss2/classifier_plantvillage
I0403 15:54:53.575213 14844 net.cpp:91] Creating Layer loss2/classifier_plantvillage
I0403 15:54:53.575228 14844 net.cpp:425] loss2/classifier_plantvillage <- loss2/fc
I0403 15:54:53.575248 14844 net.cpp:399] loss2/classifier_plantvillage -> loss2/classifier_plantvillage
I0403 15:54:53.575640 14844 net.cpp:141] Setting up loss2/classifier_plantvillage
I0403 15:54:53.575666 14844 net.cpp:148] Top shape: 24 38 (912)
I0403 15:54:53.575681 14844 net.cpp:156] Memory required for data: 1208421216
I0403 15:54:53.575717 14844 layer_factory.hpp:77] Creating layer loss2/classifier_plantvillage_loss2/classifier_plantvillage_0_split
I0403 15:54:53.575736 14844 net.cpp:91] Creating Layer loss2/classifier_plantvillage_loss2/classifier_plantvillage_0_split
I0403 15:54:53.575752 14844 net.cpp:425] loss2/classifier_plantvillage_loss2/classifier_plantvillage_0_split <- loss2/classifier_plantvillage
I0403 15:54:53.575772 14844 net.cpp:399] loss2/classifier_plantvillage_loss2/classifier_plantvillage_0_split -> loss2/classifier_plantvillage_loss2/classifier_plantvillage_0_split_0
I0403 15:54:53.575790 14844 net.cpp:399] loss2/classifier_plantvillage_loss2/classifier_plantvillage_0_split -> loss2/classifier_plantvillage_loss2/classifier_plantvillage_0_split_1
I0403 15:54:53.575811 14844 net.cpp:399] loss2/classifier_plantvillage_loss2/classifier_plantvillage_0_split -> loss2/classifier_plantvillage_loss2/classifier_plantvillage_0_split_2
I0403 15:54:53.575887 14844 net.cpp:141] Setting up loss2/classifier_plantvillage_loss2/classifier_plantvillage_0_split
I0403 15:54:53.575911 14844 net.cpp:148] Top shape: 24 38 (912)
I0403 15:54:53.575927 14844 net.cpp:148] Top shape: 24 38 (912)
I0403 15:54:53.575942 14844 net.cpp:148] Top shape: 24 38 (912)
I0403 15:54:53.575954 14844 net.cpp:156] Memory required for data: 1208432160
I0403 15:54:53.575969 14844 layer_factory.hpp:77] Creating layer inception_4e/1x1
I0403 15:54:53.575990 14844 net.cpp:91] Creating Layer inception_4e/1x1
I0403 15:54:53.576007 14844 net.cpp:425] inception_4e/1x1 <- inception_4d/output_inception_4d/output_0_split_1
I0403 15:54:53.576025 14844 net.cpp:399] inception_4e/1x1 -> inception_4e/1x1
I0403 15:54:53.577842 14844 net.cpp:141] Setting up inception_4e/1x1
I0403 15:54:53.577872 14844 net.cpp:148] Top shape: 24 256 14 14 (1204224)
I0403 15:54:53.577888 14844 net.cpp:156] Memory required for data: 1213249056
I0403 15:54:53.577904 14844 layer_factory.hpp:77] Creating layer inception_4e/relu_1x1
I0403 15:54:53.577924 14844 net.cpp:91] Creating Layer inception_4e/relu_1x1
I0403 15:54:53.577940 14844 net.cpp:425] inception_4e/relu_1x1 <- inception_4e/1x1
I0403 15:54:53.577960 14844 net.cpp:386] inception_4e/relu_1x1 -> inception_4e/1x1 (in-place)
I0403 15:54:53.578260 14844 net.cpp:141] Setting up inception_4e/relu_1x1
I0403 15:54:53.578289 14844 net.cpp:148] Top shape: 24 256 14 14 (1204224)
I0403 15:54:53.578305 14844 net.cpp:156] Memory required for data: 1218065952
I0403 15:54:53.578320 14844 layer_factory.hpp:77] Creating layer inception_4e/3x3_reduce
I0403 15:54:53.578341 14844 net.cpp:91] Creating Layer inception_4e/3x3_reduce
I0403 15:54:53.578359 14844 net.cpp:425] inception_4e/3x3_reduce <- inception_4d/output_inception_4d/output_0_split_2
I0403 15:54:53.578382 14844 net.cpp:399] inception_4e/3x3_reduce -> inception_4e/3x3_reduce
I0403 15:54:53.580498 14844 net.cpp:141] Setting up inception_4e/3x3_reduce
I0403 15:54:53.580528 14844 net.cpp:148] Top shape: 24 160 14 14 (752640)
I0403 15:54:53.580543 14844 net.cpp:156] Memory required for data: 1221076512
I0403 15:54:53.580561 14844 layer_factory.hpp:77] Creating layer inception_4e/relu_3x3_reduce
I0403 15:54:53.580582 14844 net.cpp:91] Creating Layer inception_4e/relu_3x3_reduce
I0403 15:54:53.580600 14844 net.cpp:425] inception_4e/relu_3x3_reduce <- inception_4e/3x3_reduce
I0403 15:54:53.580618 14844 net.cpp:386] inception_4e/relu_3x3_reduce -> inception_4e/3x3_reduce (in-place)
I0403 15:54:53.580807 14844 net.cpp:141] Setting up inception_4e/relu_3x3_reduce
I0403 15:54:53.580833 14844 net.cpp:148] Top shape: 24 160 14 14 (752640)
I0403 15:54:53.580848 14844 net.cpp:156] Memory required for data: 1224087072
I0403 15:54:53.580862 14844 layer_factory.hpp:77] Creating layer inception_4e/3x3
I0403 15:54:53.580884 14844 net.cpp:91] Creating Layer inception_4e/3x3
I0403 15:54:53.580902 14844 net.cpp:425] inception_4e/3x3 <- inception_4e/3x3_reduce
I0403 15:54:53.580924 14844 net.cpp:399] inception_4e/3x3 -> inception_4e/3x3
I0403 15:54:53.585934 14844 net.cpp:141] Setting up inception_4e/3x3
I0403 15:54:53.585976 14844 net.cpp:148] Top shape: 24 320 14 14 (1505280)
I0403 15:54:53.585994 14844 net.cpp:156] Memory required for data: 1230108192
I0403 15:54:53.586012 14844 layer_factory.hpp:77] Creating layer inception_4e/relu_3x3
I0403 15:54:53.586030 14844 net.cpp:91] Creating Layer inception_4e/relu_3x3
I0403 15:54:53.586047 14844 net.cpp:425] inception_4e/relu_3x3 <- inception_4e/3x3
I0403 15:54:53.586066 14844 net.cpp:386] inception_4e/relu_3x3 -> inception_4e/3x3 (in-place)
I0403 15:54:53.586372 14844 net.cpp:141] Setting up inception_4e/relu_3x3
I0403 15:54:53.586400 14844 net.cpp:148] Top shape: 24 320 14 14 (1505280)
I0403 15:54:53.586415 14844 net.cpp:156] Memory required for data: 1236129312
I0403 15:54:53.586429 14844 layer_factory.hpp:77] Creating layer inception_4e/5x5_reduce
I0403 15:54:53.586453 14844 net.cpp:91] Creating Layer inception_4e/5x5_reduce
I0403 15:54:53.586470 14844 net.cpp:425] inception_4e/5x5_reduce <- inception_4d/output_inception_4d/output_0_split_3
I0403 15:54:53.586493 14844 net.cpp:399] inception_4e/5x5_reduce -> inception_4e/5x5_reduce
I0403 15:54:53.587570 14844 net.cpp:141] Setting up inception_4e/5x5_reduce
I0403 15:54:53.587601 14844 net.cpp:148] Top shape: 24 32 14 14 (150528)
I0403 15:54:53.587618 14844 net.cpp:156] Memory required for data: 1236731424
I0403 15:54:53.587637 14844 layer_factory.hpp:77] Creating layer inception_4e/relu_5x5_reduce
I0403 15:54:53.587654 14844 net.cpp:91] Creating Layer inception_4e/relu_5x5_reduce
I0403 15:54:53.587671 14844 net.cpp:425] inception_4e/relu_5x5_reduce <- inception_4e/5x5_reduce
I0403 15:54:53.587687 14844 net.cpp:386] inception_4e/relu_5x5_reduce -> inception_4e/5x5_reduce (in-place)
I0403 15:54:53.587988 14844 net.cpp:141] Setting up inception_4e/relu_5x5_reduce
I0403 15:54:53.588018 14844 net.cpp:148] Top shape: 24 32 14 14 (150528)
I0403 15:54:53.588035 14844 net.cpp:156] Memory required for data: 1237333536
I0403 15:54:53.588050 14844 layer_factory.hpp:77] Creating layer inception_4e/5x5
I0403 15:54:53.588090 14844 net.cpp:91] Creating Layer inception_4e/5x5
I0403 15:54:53.588109 14844 net.cpp:425] inception_4e/5x5 <- inception_4e/5x5_reduce
I0403 15:54:53.588132 14844 net.cpp:399] inception_4e/5x5 -> inception_4e/5x5
I0403 15:54:53.589987 14844 net.cpp:141] Setting up inception_4e/5x5
I0403 15:54:53.590016 14844 net.cpp:148] Top shape: 24 128 14 14 (602112)
I0403 15:54:53.590032 14844 net.cpp:156] Memory required for data: 1239741984
I0403 15:54:53.590051 14844 layer_factory.hpp:77] Creating layer inception_4e/relu_5x5
I0403 15:54:53.590072 14844 net.cpp:91] Creating Layer inception_4e/relu_5x5
I0403 15:54:53.590090 14844 net.cpp:425] inception_4e/relu_5x5 <- inception_4e/5x5
I0403 15:54:53.590107 14844 net.cpp:386] inception_4e/relu_5x5 -> inception_4e/5x5 (in-place)
I0403 15:54:53.590308 14844 net.cpp:141] Setting up inception_4e/relu_5x5
I0403 15:54:53.590337 14844 net.cpp:148] Top shape: 24 128 14 14 (602112)
I0403 15:54:53.590353 14844 net.cpp:156] Memory required for data: 1242150432
I0403 15:54:53.590368 14844 layer_factory.hpp:77] Creating layer inception_4e/pool
I0403 15:54:53.590386 14844 net.cpp:91] Creating Layer inception_4e/pool
I0403 15:54:53.590401 14844 net.cpp:425] inception_4e/pool <- inception_4d/output_inception_4d/output_0_split_4
I0403 15:54:53.590422 14844 net.cpp:399] inception_4e/pool -> inception_4e/pool
I0403 15:54:53.590493 14844 net.cpp:141] Setting up inception_4e/pool
I0403 15:54:53.590517 14844 net.cpp:148] Top shape: 24 528 14 14 (2483712)
I0403 15:54:53.590533 14844 net.cpp:156] Memory required for data: 1252085280
I0403 15:54:53.590548 14844 layer_factory.hpp:77] Creating layer inception_4e/pool_proj
I0403 15:54:53.590569 14844 net.cpp:91] Creating Layer inception_4e/pool_proj
I0403 15:54:53.590586 14844 net.cpp:425] inception_4e/pool_proj <- inception_4e/pool
I0403 15:54:53.590606 14844 net.cpp:399] inception_4e/pool_proj -> inception_4e/pool_proj
I0403 15:54:53.592118 14844 net.cpp:141] Setting up inception_4e/pool_proj
I0403 15:54:53.592151 14844 net.cpp:148] Top shape: 24 128 14 14 (602112)
I0403 15:54:53.592182 14844 net.cpp:156] Memory required for data: 1254493728
I0403 15:54:53.592203 14844 layer_factory.hpp:77] Creating layer inception_4e/relu_pool_proj
I0403 15:54:53.592224 14844 net.cpp:91] Creating Layer inception_4e/relu_pool_proj
I0403 15:54:53.592242 14844 net.cpp:425] inception_4e/relu_pool_proj <- inception_4e/pool_proj
I0403 15:54:53.592259 14844 net.cpp:386] inception_4e/relu_pool_proj -> inception_4e/pool_proj (in-place)
I0403 15:54:53.592556 14844 net.cpp:141] Setting up inception_4e/relu_pool_proj
I0403 15:54:53.592583 14844 net.cpp:148] Top shape: 24 128 14 14 (602112)
I0403 15:54:53.592599 14844 net.cpp:156] Memory required for data: 1256902176
I0403 15:54:53.592614 14844 layer_factory.hpp:77] Creating layer inception_4e/output
I0403 15:54:53.592635 14844 net.cpp:91] Creating Layer inception_4e/output
I0403 15:54:53.592651 14844 net.cpp:425] inception_4e/output <- inception_4e/1x1
I0403 15:54:53.592667 14844 net.cpp:425] inception_4e/output <- inception_4e/3x3
I0403 15:54:53.592684 14844 net.cpp:425] inception_4e/output <- inception_4e/5x5
I0403 15:54:53.592700 14844 net.cpp:425] inception_4e/output <- inception_4e/pool_proj
I0403 15:54:53.592715 14844 net.cpp:399] inception_4e/output -> inception_4e/output
I0403 15:54:53.592767 14844 net.cpp:141] Setting up inception_4e/output
I0403 15:54:53.592792 14844 net.cpp:148] Top shape: 24 832 14 14 (3913728)
I0403 15:54:53.592806 14844 net.cpp:156] Memory required for data: 1272557088
I0403 15:54:53.592820 14844 layer_factory.hpp:77] Creating layer pool4/3x3_s2
I0403 15:54:53.592838 14844 net.cpp:91] Creating Layer pool4/3x3_s2
I0403 15:54:53.592852 14844 net.cpp:425] pool4/3x3_s2 <- inception_4e/output
I0403 15:54:53.592874 14844 net.cpp:399] pool4/3x3_s2 -> pool4/3x3_s2
I0403 15:54:53.592941 14844 net.cpp:141] Setting up pool4/3x3_s2
I0403 15:54:53.592968 14844 net.cpp:148] Top shape: 24 832 7 7 (978432)
I0403 15:54:53.592984 14844 net.cpp:156] Memory required for data: 1276470816
I0403 15:54:53.592999 14844 layer_factory.hpp:77] Creating layer pool4/3x3_s2_pool4/3x3_s2_0_split
I0403 15:54:53.593016 14844 net.cpp:91] Creating Layer pool4/3x3_s2_pool4/3x3_s2_0_split
I0403 15:54:53.593030 14844 net.cpp:425] pool4/3x3_s2_pool4/3x3_s2_0_split <- pool4/3x3_s2
I0403 15:54:53.593047 14844 net.cpp:399] pool4/3x3_s2_pool4/3x3_s2_0_split -> pool4/3x3_s2_pool4/3x3_s2_0_split_0
I0403 15:54:53.593066 14844 net.cpp:399] pool4/3x3_s2_pool4/3x3_s2_0_split -> pool4/3x3_s2_pool4/3x3_s2_0_split_1
I0403 15:54:53.593088 14844 net.cpp:399] pool4/3x3_s2_pool4/3x3_s2_0_split -> pool4/3x3_s2_pool4/3x3_s2_0_split_2
I0403 15:54:53.593111 14844 net.cpp:399] pool4/3x3_s2_pool4/3x3_s2_0_split -> pool4/3x3_s2_pool4/3x3_s2_0_split_3
I0403 15:54:53.593214 14844 net.cpp:141] Setting up pool4/3x3_s2_pool4/3x3_s2_0_split
I0403 15:54:53.593240 14844 net.cpp:148] Top shape: 24 832 7 7 (978432)
I0403 15:54:53.593255 14844 net.cpp:148] Top shape: 24 832 7 7 (978432)
I0403 15:54:53.593271 14844 net.cpp:148] Top shape: 24 832 7 7 (978432)
I0403 15:54:53.593286 14844 net.cpp:148] Top shape: 24 832 7 7 (978432)
I0403 15:54:53.593299 14844 net.cpp:156] Memory required for data: 1292125728
I0403 15:54:53.593314 14844 layer_factory.hpp:77] Creating layer inception_5a/1x1
I0403 15:54:53.593336 14844 net.cpp:91] Creating Layer inception_5a/1x1
I0403 15:54:53.593354 14844 net.cpp:425] inception_5a/1x1 <- pool4/3x3_s2_pool4/3x3_s2_0_split_0
I0403 15:54:53.593376 14844 net.cpp:399] inception_5a/1x1 -> inception_5a/1x1
I0403 15:54:53.596261 14844 net.cpp:141] Setting up inception_5a/1x1
I0403 15:54:53.596290 14844 net.cpp:148] Top shape: 24 256 7 7 (301056)
I0403 15:54:53.596305 14844 net.cpp:156] Memory required for data: 1293329952
I0403 15:54:53.596323 14844 layer_factory.hpp:77] Creating layer inception_5a/relu_1x1
I0403 15:54:53.596343 14844 net.cpp:91] Creating Layer inception_5a/relu_1x1
I0403 15:54:53.596359 14844 net.cpp:425] inception_5a/relu_1x1 <- inception_5a/1x1
I0403 15:54:53.596376 14844 net.cpp:386] inception_5a/relu_1x1 -> inception_5a/1x1 (in-place)
I0403 15:54:53.596684 14844 net.cpp:141] Setting up inception_5a/relu_1x1
I0403 15:54:53.596711 14844 net.cpp:148] Top shape: 24 256 7 7 (301056)
I0403 15:54:53.596726 14844 net.cpp:156] Memory required for data: 1294534176
I0403 15:54:53.596740 14844 layer_factory.hpp:77] Creating layer inception_5a/3x3_reduce
I0403 15:54:53.596763 14844 net.cpp:91] Creating Layer inception_5a/3x3_reduce
I0403 15:54:53.596781 14844 net.cpp:425] inception_5a/3x3_reduce <- pool4/3x3_s2_pool4/3x3_s2_0_split_1
I0403 15:54:53.596801 14844 net.cpp:399] inception_5a/3x3_reduce -> inception_5a/3x3_reduce
I0403 15:54:53.599197 14844 net.cpp:141] Setting up inception_5a/3x3_reduce
I0403 15:54:53.599227 14844 net.cpp:148] Top shape: 24 160 7 7 (188160)
I0403 15:54:53.599242 14844 net.cpp:156] Memory required for data: 1295286816
I0403 15:54:53.599261 14844 layer_factory.hpp:77] Creating layer inception_5a/relu_3x3_reduce
I0403 15:54:53.599282 14844 net.cpp:91] Creating Layer inception_5a/relu_3x3_reduce
I0403 15:54:53.599299 14844 net.cpp:425] inception_5a/relu_3x3_reduce <- inception_5a/3x3_reduce
I0403 15:54:53.599316 14844 net.cpp:386] inception_5a/relu_3x3_reduce -> inception_5a/3x3_reduce (in-place)
I0403 15:54:53.599498 14844 net.cpp:141] Setting up inception_5a/relu_3x3_reduce
I0403 15:54:53.599524 14844 net.cpp:148] Top shape: 24 160 7 7 (188160)
I0403 15:54:53.599539 14844 net.cpp:156] Memory required for data: 1296039456
I0403 15:54:53.599553 14844 layer_factory.hpp:77] Creating layer inception_5a/3x3
I0403 15:54:53.599577 14844 net.cpp:91] Creating Layer inception_5a/3x3
I0403 15:54:53.599594 14844 net.cpp:425] inception_5a/3x3 <- inception_5a/3x3_reduce
I0403 15:54:53.599613 14844 net.cpp:399] inception_5a/3x3 -> inception_5a/3x3
I0403 15:54:53.604526 14844 net.cpp:141] Setting up inception_5a/3x3
I0403 15:54:53.604557 14844 net.cpp:148] Top shape: 24 320 7 7 (376320)
I0403 15:54:53.604573 14844 net.cpp:156] Memory required for data: 1297544736
I0403 15:54:53.604590 14844 layer_factory.hpp:77] Creating layer inception_5a/relu_3x3
I0403 15:54:53.604611 14844 net.cpp:91] Creating Layer inception_5a/relu_3x3
I0403 15:54:53.604627 14844 net.cpp:425] inception_5a/relu_3x3 <- inception_5a/3x3
I0403 15:54:53.604643 14844 net.cpp:386] inception_5a/relu_3x3 -> inception_5a/3x3 (in-place)
I0403 15:54:53.604933 14844 net.cpp:141] Setting up inception_5a/relu_3x3
I0403 15:54:53.604959 14844 net.cpp:148] Top shape: 24 320 7 7 (376320)
I0403 15:54:53.604976 14844 net.cpp:156] Memory required for data: 1299050016
I0403 15:54:53.604991 14844 layer_factory.hpp:77] Creating layer inception_5a/5x5_reduce
I0403 15:54:53.605010 14844 net.cpp:91] Creating Layer inception_5a/5x5_reduce
I0403 15:54:53.605027 14844 net.cpp:425] inception_5a/5x5_reduce <- pool4/3x3_s2_pool4/3x3_s2_0_split_2
I0403 15:54:53.605047 14844 net.cpp:399] inception_5a/5x5_reduce -> inception_5a/5x5_reduce
I0403 15:54:53.606204 14844 net.cpp:141] Setting up inception_5a/5x5_reduce
I0403 15:54:53.606235 14844 net.cpp:148] Top shape: 24 32 7 7 (37632)
I0403 15:54:53.606252 14844 net.cpp:156] Memory required for data: 1299200544
I0403 15:54:53.606271 14844 layer_factory.hpp:77] Creating layer inception_5a/relu_5x5_reduce
I0403 15:54:53.606287 14844 net.cpp:91] Creating Layer inception_5a/relu_5x5_reduce
I0403 15:54:53.606303 14844 net.cpp:425] inception_5a/relu_5x5_reduce <- inception_5a/5x5_reduce
I0403 15:54:53.606323 14844 net.cpp:386] inception_5a/relu_5x5_reduce -> inception_5a/5x5_reduce (in-place)
I0403 15:54:53.606621 14844 net.cpp:141] Setting up inception_5a/relu_5x5_reduce
I0403 15:54:53.606652 14844 net.cpp:148] Top shape: 24 32 7 7 (37632)
I0403 15:54:53.606667 14844 net.cpp:156] Memory required for data: 1299351072
I0403 15:54:53.606683 14844 layer_factory.hpp:77] Creating layer inception_5a/5x5
I0403 15:54:53.606704 14844 net.cpp:91] Creating Layer inception_5a/5x5
I0403 15:54:53.606722 14844 net.cpp:425] inception_5a/5x5 <- inception_5a/5x5_reduce
I0403 15:54:53.606740 14844 net.cpp:399] inception_5a/5x5 -> inception_5a/5x5
I0403 15:54:53.608456 14844 net.cpp:141] Setting up inception_5a/5x5
I0403 15:54:53.608495 14844 net.cpp:148] Top shape: 24 128 7 7 (150528)
I0403 15:54:53.608511 14844 net.cpp:156] Memory required for data: 1299953184
I0403 15:54:53.608530 14844 layer_factory.hpp:77] Creating layer inception_5a/relu_5x5
I0403 15:54:53.608549 14844 net.cpp:91] Creating Layer inception_5a/relu_5x5
I0403 15:54:53.608566 14844 net.cpp:425] inception_5a/relu_5x5 <- inception_5a/5x5
I0403 15:54:53.608582 14844 net.cpp:386] inception_5a/relu_5x5 -> inception_5a/5x5 (in-place)
I0403 15:54:53.608769 14844 net.cpp:141] Setting up inception_5a/relu_5x5
I0403 15:54:53.608798 14844 net.cpp:148] Top shape: 24 128 7 7 (150528)
I0403 15:54:53.608813 14844 net.cpp:156] Memory required for data: 1300555296
I0403 15:54:53.608826 14844 layer_factory.hpp:77] Creating layer inception_5a/pool
I0403 15:54:53.608844 14844 net.cpp:91] Creating Layer inception_5a/pool
I0403 15:54:53.608860 14844 net.cpp:425] inception_5a/pool <- pool4/3x3_s2_pool4/3x3_s2_0_split_3
I0403 15:54:53.608878 14844 net.cpp:399] inception_5a/pool -> inception_5a/pool
I0403 15:54:53.608947 14844 net.cpp:141] Setting up inception_5a/pool
I0403 15:54:53.608973 14844 net.cpp:148] Top shape: 24 832 7 7 (978432)
I0403 15:54:53.608986 14844 net.cpp:156] Memory required for data: 1304469024
I0403 15:54:53.609000 14844 layer_factory.hpp:77] Creating layer inception_5a/pool_proj
I0403 15:54:53.609021 14844 net.cpp:91] Creating Layer inception_5a/pool_proj
I0403 15:54:53.609038 14844 net.cpp:425] inception_5a/pool_proj <- inception_5a/pool
I0403 15:54:53.609060 14844 net.cpp:399] inception_5a/pool_proj -> inception_5a/pool_proj
I0403 15:54:53.611296 14844 net.cpp:141] Setting up inception_5a/pool_proj
I0403 15:54:53.611326 14844 net.cpp:148] Top shape: 24 128 7 7 (150528)
I0403 15:54:53.611342 14844 net.cpp:156] Memory required for data: 1305071136
I0403 15:54:53.611359 14844 layer_factory.hpp:77] Creating layer inception_5a/relu_pool_proj
I0403 15:54:53.611379 14844 net.cpp:91] Creating Layer inception_5a/relu_pool_proj
I0403 15:54:53.611397 14844 net.cpp:425] inception_5a/relu_pool_proj <- inception_5a/pool_proj
I0403 15:54:53.611415 14844 net.cpp:386] inception_5a/relu_pool_proj -> inception_5a/pool_proj (in-place)
I0403 15:54:53.611703 14844 net.cpp:141] Setting up inception_5a/relu_pool_proj
I0403 15:54:53.611731 14844 net.cpp:148] Top shape: 24 128 7 7 (150528)
I0403 15:54:53.611744 14844 net.cpp:156] Memory required for data: 1305673248
I0403 15:54:53.611759 14844 layer_factory.hpp:77] Creating layer inception_5a/output
I0403 15:54:53.611775 14844 net.cpp:91] Creating Layer inception_5a/output
I0403 15:54:53.611790 14844 net.cpp:425] inception_5a/output <- inception_5a/1x1
I0403 15:54:53.611809 14844 net.cpp:425] inception_5a/output <- inception_5a/3x3
I0403 15:54:53.611825 14844 net.cpp:425] inception_5a/output <- inception_5a/5x5
I0403 15:54:53.611841 14844 net.cpp:425] inception_5a/output <- inception_5a/pool_proj
I0403 15:54:53.611858 14844 net.cpp:399] inception_5a/output -> inception_5a/output
I0403 15:54:53.611909 14844 net.cpp:141] Setting up inception_5a/output
I0403 15:54:53.611933 14844 net.cpp:148] Top shape: 24 832 7 7 (978432)
I0403 15:54:53.611948 14844 net.cpp:156] Memory required for data: 1309586976
I0403 15:54:53.611961 14844 layer_factory.hpp:77] Creating layer inception_5a/output_inception_5a/output_0_split
I0403 15:54:53.611976 14844 net.cpp:91] Creating Layer inception_5a/output_inception_5a/output_0_split
I0403 15:54:53.611991 14844 net.cpp:425] inception_5a/output_inception_5a/output_0_split <- inception_5a/output
I0403 15:54:53.612010 14844 net.cpp:399] inception_5a/output_inception_5a/output_0_split -> inception_5a/output_inception_5a/output_0_split_0
I0403 15:54:53.612032 14844 net.cpp:399] inception_5a/output_inception_5a/output_0_split -> inception_5a/output_inception_5a/output_0_split_1
I0403 15:54:53.612051 14844 net.cpp:399] inception_5a/output_inception_5a/output_0_split -> inception_5a/output_inception_5a/output_0_split_2
I0403 15:54:53.612071 14844 net.cpp:399] inception_5a/output_inception_5a/output_0_split -> inception_5a/output_inception_5a/output_0_split_3
I0403 15:54:53.612187 14844 net.cpp:141] Setting up inception_5a/output_inception_5a/output_0_split
I0403 15:54:53.612215 14844 net.cpp:148] Top shape: 24 832 7 7 (978432)
I0403 15:54:53.612231 14844 net.cpp:148] Top shape: 24 832 7 7 (978432)
I0403 15:54:53.612246 14844 net.cpp:148] Top shape: 24 832 7 7 (978432)
I0403 15:54:53.612260 14844 net.cpp:148] Top shape: 24 832 7 7 (978432)
I0403 15:54:53.612273 14844 net.cpp:156] Memory required for data: 1325241888
I0403 15:54:53.612287 14844 layer_factory.hpp:77] Creating layer inception_5b/1x1
I0403 15:54:53.612308 14844 net.cpp:91] Creating Layer inception_5b/1x1
I0403 15:54:53.612324 14844 net.cpp:425] inception_5b/1x1 <- inception_5a/output_inception_5a/output_0_split_0
I0403 15:54:53.612344 14844 net.cpp:399] inception_5b/1x1 -> inception_5b/1x1
I0403 15:54:53.616014 14844 net.cpp:141] Setting up inception_5b/1x1
I0403 15:54:53.616044 14844 net.cpp:148] Top shape: 24 384 7 7 (451584)
I0403 15:54:53.616060 14844 net.cpp:156] Memory required for data: 1327048224
I0403 15:54:53.616078 14844 layer_factory.hpp:77] Creating layer inception_5b/relu_1x1
I0403 15:54:53.616097 14844 net.cpp:91] Creating Layer inception_5b/relu_1x1
I0403 15:54:53.616113 14844 net.cpp:425] inception_5b/relu_1x1 <- inception_5b/1x1
I0403 15:54:53.616137 14844 net.cpp:386] inception_5b/relu_1x1 -> inception_5b/1x1 (in-place)
I0403 15:54:53.616439 14844 net.cpp:141] Setting up inception_5b/relu_1x1
I0403 15:54:53.616466 14844 net.cpp:148] Top shape: 24 384 7 7 (451584)
I0403 15:54:53.616482 14844 net.cpp:156] Memory required for data: 1328854560
I0403 15:54:53.616497 14844 layer_factory.hpp:77] Creating layer inception_5b/3x3_reduce
I0403 15:54:53.616519 14844 net.cpp:91] Creating Layer inception_5b/3x3_reduce
I0403 15:54:53.616538 14844 net.cpp:425] inception_5b/3x3_reduce <- inception_5a/output_inception_5a/output_0_split_1
I0403 15:54:53.616559 14844 net.cpp:399] inception_5b/3x3_reduce -> inception_5b/3x3_reduce
I0403 15:54:53.619173 14844 net.cpp:141] Setting up inception_5b/3x3_reduce
I0403 15:54:53.619202 14844 net.cpp:148] Top shape: 24 192 7 7 (225792)
I0403 15:54:53.619218 14844 net.cpp:156] Memory required for data: 1329757728
I0403 15:54:53.619235 14844 layer_factory.hpp:77] Creating layer inception_5b/relu_3x3_reduce
I0403 15:54:53.619256 14844 net.cpp:91] Creating Layer inception_5b/relu_3x3_reduce
I0403 15:54:53.619273 14844 net.cpp:425] inception_5b/relu_3x3_reduce <- inception_5b/3x3_reduce
I0403 15:54:53.619290 14844 net.cpp:386] inception_5b/relu_3x3_reduce -> inception_5b/3x3_reduce (in-place)
I0403 15:54:53.619477 14844 net.cpp:141] Setting up inception_5b/relu_3x3_reduce
I0403 15:54:53.619504 14844 net.cpp:148] Top shape: 24 192 7 7 (225792)
I0403 15:54:53.619519 14844 net.cpp:156] Memory required for data: 1330660896
I0403 15:54:53.619534 14844 layer_factory.hpp:77] Creating layer inception_5b/3x3
I0403 15:54:53.619556 14844 net.cpp:91] Creating Layer inception_5b/3x3
I0403 15:54:53.619572 14844 net.cpp:425] inception_5b/3x3 <- inception_5b/3x3_reduce
I0403 15:54:53.619590 14844 net.cpp:399] inception_5b/3x3 -> inception_5b/3x3
I0403 15:54:53.626147 14844 net.cpp:141] Setting up inception_5b/3x3
I0403 15:54:53.626178 14844 net.cpp:148] Top shape: 24 384 7 7 (451584)
I0403 15:54:53.626194 14844 net.cpp:156] Memory required for data: 1332467232
I0403 15:54:53.626211 14844 layer_factory.hpp:77] Creating layer inception_5b/relu_3x3
I0403 15:54:53.626231 14844 net.cpp:91] Creating Layer inception_5b/relu_3x3
I0403 15:54:53.626248 14844 net.cpp:425] inception_5b/relu_3x3 <- inception_5b/3x3
I0403 15:54:53.626266 14844 net.cpp:386] inception_5b/relu_3x3 -> inception_5b/3x3 (in-place)
I0403 15:54:53.626562 14844 net.cpp:141] Setting up inception_5b/relu_3x3
I0403 15:54:53.626588 14844 net.cpp:148] Top shape: 24 384 7 7 (451584)
I0403 15:54:53.626603 14844 net.cpp:156] Memory required for data: 1334273568
I0403 15:54:53.626617 14844 layer_factory.hpp:77] Creating layer inception_5b/5x5_reduce
I0403 15:54:53.626655 14844 net.cpp:91] Creating Layer inception_5b/5x5_reduce
I0403 15:54:53.626674 14844 net.cpp:425] inception_5b/5x5_reduce <- inception_5a/output_inception_5a/output_0_split_2
I0403 15:54:53.626698 14844 net.cpp:399] inception_5b/5x5_reduce -> inception_5b/5x5_reduce
I0403 15:54:53.627944 14844 net.cpp:141] Setting up inception_5b/5x5_reduce
I0403 15:54:53.627972 14844 net.cpp:148] Top shape: 24 48 7 7 (56448)
I0403 15:54:53.627990 14844 net.cpp:156] Memory required for data: 1334499360
I0403 15:54:53.628007 14844 layer_factory.hpp:77] Creating layer inception_5b/relu_5x5_reduce
I0403 15:54:53.628027 14844 net.cpp:91] Creating Layer inception_5b/relu_5x5_reduce
I0403 15:54:53.628043 14844 net.cpp:425] inception_5b/relu_5x5_reduce <- inception_5b/5x5_reduce
I0403 15:54:53.628059 14844 net.cpp:386] inception_5b/relu_5x5_reduce -> inception_5b/5x5_reduce (in-place)
I0403 15:54:53.628429 14844 net.cpp:141] Setting up inception_5b/relu_5x5_reduce
I0403 15:54:53.628456 14844 net.cpp:148] Top shape: 24 48 7 7 (56448)
I0403 15:54:53.628471 14844 net.cpp:156] Memory required for data: 1334725152
I0403 15:54:53.628486 14844 layer_factory.hpp:77] Creating layer inception_5b/5x5
I0403 15:54:53.628506 14844 net.cpp:91] Creating Layer inception_5b/5x5
I0403 15:54:53.628522 14844 net.cpp:425] inception_5b/5x5 <- inception_5b/5x5_reduce
I0403 15:54:53.628540 14844 net.cpp:399] inception_5b/5x5 -> inception_5b/5x5
I0403 15:54:53.630605 14844 net.cpp:141] Setting up inception_5b/5x5
I0403 15:54:53.630635 14844 net.cpp:148] Top shape: 24 128 7 7 (150528)
I0403 15:54:53.630650 14844 net.cpp:156] Memory required for data: 1335327264
I0403 15:54:53.630667 14844 layer_factory.hpp:77] Creating layer inception_5b/relu_5x5
I0403 15:54:53.630687 14844 net.cpp:91] Creating Layer inception_5b/relu_5x5
I0403 15:54:53.630705 14844 net.cpp:425] inception_5b/relu_5x5 <- inception_5b/5x5
I0403 15:54:53.630722 14844 net.cpp:386] inception_5b/relu_5x5 -> inception_5b/5x5 (in-place)
I0403 15:54:53.630919 14844 net.cpp:141] Setting up inception_5b/relu_5x5
I0403 15:54:53.630945 14844 net.cpp:148] Top shape: 24 128 7 7 (150528)
I0403 15:54:53.630960 14844 net.cpp:156] Memory required for data: 1335929376
I0403 15:54:53.630975 14844 layer_factory.hpp:77] Creating layer inception_5b/pool
I0403 15:54:53.630992 14844 net.cpp:91] Creating Layer inception_5b/pool
I0403 15:54:53.631007 14844 net.cpp:425] inception_5b/pool <- inception_5a/output_inception_5a/output_0_split_3
I0403 15:54:53.631028 14844 net.cpp:399] inception_5b/pool -> inception_5b/pool
I0403 15:54:53.631103 14844 net.cpp:141] Setting up inception_5b/pool
I0403 15:54:53.631130 14844 net.cpp:148] Top shape: 24 832 7 7 (978432)
I0403 15:54:53.631147 14844 net.cpp:156] Memory required for data: 1339843104
I0403 15:54:53.631163 14844 layer_factory.hpp:77] Creating layer inception_5b/pool_proj
I0403 15:54:53.631186 14844 net.cpp:91] Creating Layer inception_5b/pool_proj
I0403 15:54:53.631204 14844 net.cpp:425] inception_5b/pool_proj <- inception_5b/pool
I0403 15:54:53.631223 14844 net.cpp:399] inception_5b/pool_proj -> inception_5b/pool_proj
I0403 15:54:53.633564 14844 net.cpp:141] Setting up inception_5b/pool_proj
I0403 15:54:53.633595 14844 net.cpp:148] Top shape: 24 128 7 7 (150528)
I0403 15:54:53.633612 14844 net.cpp:156] Memory required for data: 1340445216
I0403 15:54:53.633632 14844 layer_factory.hpp:77] Creating layer inception_5b/relu_pool_proj
I0403 15:54:53.633652 14844 net.cpp:91] Creating Layer inception_5b/relu_pool_proj
I0403 15:54:53.633671 14844 net.cpp:425] inception_5b/relu_pool_proj <- inception_5b/pool_proj
I0403 15:54:53.633687 14844 net.cpp:386] inception_5b/relu_pool_proj -> inception_5b/pool_proj (in-place)
I0403 15:54:53.633994 14844 net.cpp:141] Setting up inception_5b/relu_pool_proj
I0403 15:54:53.634021 14844 net.cpp:148] Top shape: 24 128 7 7 (150528)
I0403 15:54:53.634037 14844 net.cpp:156] Memory required for data: 1341047328
I0403 15:54:53.634052 14844 layer_factory.hpp:77] Creating layer inception_5b/output
I0403 15:54:53.634071 14844 net.cpp:91] Creating Layer inception_5b/output
I0403 15:54:53.634104 14844 net.cpp:425] inception_5b/output <- inception_5b/1x1
I0403 15:54:53.634121 14844 net.cpp:425] inception_5b/output <- inception_5b/3x3
I0403 15:54:53.634145 14844 net.cpp:425] inception_5b/output <- inception_5b/5x5
I0403 15:54:53.634161 14844 net.cpp:425] inception_5b/output <- inception_5b/pool_proj
I0403 15:54:53.634178 14844 net.cpp:399] inception_5b/output -> inception_5b/output
I0403 15:54:53.634232 14844 net.cpp:141] Setting up inception_5b/output
I0403 15:54:53.634258 14844 net.cpp:148] Top shape: 24 1024 7 7 (1204224)
I0403 15:54:53.634271 14844 net.cpp:156] Memory required for data: 1345864224
I0403 15:54:53.634287 14844 layer_factory.hpp:77] Creating layer pool5/7x7_s1
I0403 15:54:53.634305 14844 net.cpp:91] Creating Layer pool5/7x7_s1
I0403 15:54:53.634320 14844 net.cpp:425] pool5/7x7_s1 <- inception_5b/output
I0403 15:54:53.634340 14844 net.cpp:399] pool5/7x7_s1 -> pool5/7x7_s1
I0403 15:54:53.634559 14844 net.cpp:141] Setting up pool5/7x7_s1
I0403 15:54:53.634588 14844 net.cpp:148] Top shape: 24 1024 1 1 (24576)
I0403 15:54:53.634603 14844 net.cpp:156] Memory required for data: 1345962528
I0403 15:54:53.634619 14844 layer_factory.hpp:77] Creating layer pool5/drop_7x7_s1
I0403 15:54:53.634637 14844 net.cpp:91] Creating Layer pool5/drop_7x7_s1
I0403 15:54:53.634654 14844 net.cpp:425] pool5/drop_7x7_s1 <- pool5/7x7_s1
I0403 15:54:53.634670 14844 net.cpp:386] pool5/drop_7x7_s1 -> pool5/7x7_s1 (in-place)
I0403 15:54:53.634722 14844 net.cpp:141] Setting up pool5/drop_7x7_s1
I0403 15:54:53.634745 14844 net.cpp:148] Top shape: 24 1024 1 1 (24576)
I0403 15:54:53.634760 14844 net.cpp:156] Memory required for data: 1346060832
I0403 15:54:53.634775 14844 layer_factory.hpp:77] Creating layer loss3/classifier_plantvillage
I0403 15:54:53.634796 14844 net.cpp:91] Creating Layer loss3/classifier_plantvillage
I0403 15:54:53.634814 14844 net.cpp:425] loss3/classifier_plantvillage <- pool5/7x7_s1
I0403 15:54:53.634831 14844 net.cpp:399] loss3/classifier_plantvillage -> loss3/classifier_plantvillage
I0403 15:54:53.635264 14844 net.cpp:141] Setting up loss3/classifier_plantvillage
I0403 15:54:53.635290 14844 net.cpp:148] Top shape: 24 38 (912)
I0403 15:54:53.635306 14844 net.cpp:156] Memory required for data: 1346064480
I0403 15:54:53.635324 14844 layer_factory.hpp:77] Creating layer loss3/classifier_plantvillage_loss3/classifier_plantvillage_0_split
I0403 15:54:53.635342 14844 net.cpp:91] Creating Layer loss3/classifier_plantvillage_loss3/classifier_plantvillage_0_split
I0403 15:54:53.635360 14844 net.cpp:425] loss3/classifier_plantvillage_loss3/classifier_plantvillage_0_split <- loss3/classifier_plantvillage
I0403 15:54:53.635380 14844 net.cpp:399] loss3/classifier_plantvillage_loss3/classifier_plantvillage_0_split -> loss3/classifier_plantvillage_loss3/classifier_plantvillage_0_split_0
I0403 15:54:53.635401 14844 net.cpp:399] loss3/classifier_plantvillage_loss3/classifier_plantvillage_0_split -> loss3/classifier_plantvillage_loss3/classifier_plantvillage_0_split_1
I0403 15:54:53.635421 14844 net.cpp:399] loss3/classifier_plantvillage_loss3/classifier_plantvillage_0_split -> loss3/classifier_plantvillage_loss3/classifier_plantvillage_0_split_2
I0403 15:54:53.635442 14844 net.cpp:399] loss3/classifier_plantvillage_loss3/classifier_plantvillage_0_split -> loss3/classifier_plantvillage_loss3/classifier_plantvillage_0_split_3
I0403 15:54:53.635545 14844 net.cpp:141] Setting up loss3/classifier_plantvillage_loss3/classifier_plantvillage_0_split
I0403 15:54:53.635572 14844 net.cpp:148] Top shape: 24 38 (912)
I0403 15:54:53.635589 14844 net.cpp:148] Top shape: 24 38 (912)
I0403 15:54:53.635607 14844 net.cpp:148] Top shape: 24 38 (912)
I0403 15:54:53.635622 14844 net.cpp:148] Top shape: 24 38 (912)
I0403 15:54:53.635637 14844 net.cpp:156] Memory required for data: 1346079072
I0403 15:54:53.635650 14844 layer_factory.hpp:77] Creating layer loss1/loss
I0403 15:54:53.635671 14844 net.cpp:91] Creating Layer loss1/loss
I0403 15:54:53.635689 14844 net.cpp:425] loss1/loss <- loss1/classifier_plantvillage_loss1/classifier_plantvillage_0_split_0
I0403 15:54:53.635720 14844 net.cpp:425] loss1/loss <- label_data_1_split_0
…
