…
I0403 15:40:41.914542 13977 net.cpp:313] The NetState phase (1) differed from the phase (0) specified by a rule in layer data
I0403 15:40:41.915714 13977 net.cpp:49] Initializing net from parameters: 
state {
  phase: TEST
}
layer {
  name: "data"
  type: "Data"
  top: "data"
  top: "label"
  include {
    phase: TEST
  }
  transform_param {
    mirror: false
    crop_size: 224
    mean_file: "/home/mohanty/data/final_dataset/lmdb/color-80-20/mean.binaryproto"
  }
  data_param {
    source: "/home/mohanty/data/final_dataset/lmdb/color-80-20/test_db"
    batch_size: 24
    backend: LMDB
  }
}
layer {
  name: "conv1/7x7_s2"
  type: "Convolution"
  bottom: "data"
  top: "conv1/7x7_s2"
  param {
    lr_mult: 1
    decay_mult: 1
  }
  param {
    lr_mult: 2
    decay_mult: 0
  }
  convolution_param {
    num_output: 64
    pad: 3
    kernel_size: 7
    stride: 2
    weight_filler {
      type: "xavier"
      std: 0.1
    }
    bias_filler {
      type: "constant"
      value: 0.2
    }
  }
}
layer {
  name: "conv1/relu_7x7"
  type: "ReLU"
  bottom: "conv1/7x7_s2"
  top: "conv1/7x7_s2"
}
layer {
  name: "pool1/3x3_s2"
  type: "Pooling"
  bottom: "conv1/7x7_s2"
  top: "pool1/3x3_s2"
  pooling_param {
    pool: MAX
    kernel_size: 3
    stride: 2
  }
}
layer {
  name: "pool1/norm1"
  type: "LRN"
  bottom: "pool1/3x3_s2"
  top: "pool1/norm1"
  lrn_param {
    local_size: 5
    alpha: 0.0001
    beta: 0.75
  }
}
layer {
  name: "conv2/3x3_reduce"
  type: "Convolution"
  bottom: "pool1/norm1"
  top: "conv2/3x3_reduce"
  param {
    lr_mult: 1
    decay_mult: 1
  }
  param {
    lr_mult: 2
    decay_mult: 0
  }
  convolution_param {
    num_output: 64
    kernel_size: 1
    weight_filler {
      type: "xavier"
      std: 0.1
    }
    bias_filler {
      type: "constant"
      value: 0.2
    }
  }
}
layer {
  name: "conv2/relu_3x3_reduce"
  type: "ReLU"
  bottom: "conv2/3x3_reduce"
  top: "conv2/3x3_reduce"
}
layer {
  name: "conv2/3x3"
  type: "Convolution"
  bottom: "conv2/3x3_reduce"
  top: "conv2/3x3"
  param {
    lr_mult: 1
    decay_mult: 1
  }
  param {
    lr_mult: 2
    decay_mult: 0
  }
  convolution_param {
    num_output: 192
    pad: 1
    kernel_size: 3
    weight_filler {
      type: "xavier"
      std: 0.03
    }
    bias_filler {
      type: "constant"
      value: 0.2
    }
  }
}
layer {
  name: "conv2/relu_3x3"
  type: "ReLU"
  bottom: "conv2/3x3"
  top: "conv2/3x3"
}
layer {
  name: "conv2/norm2"
  type: "LRN"
  bottom: "conv2/3x3"
  top: "conv2/norm2"
  lrn_param {
    local_size: 5
    alpha: 0.0001
    beta: 0.75
  }
}
layer {
  name: "pool2/3x3_s2"
  type: "Pooling"
  bottom: "conv2/norm2"
  top: "pool2/3x3_s2"
  pooling_param {
    pool: MAX
    kernel_size: 3
    stride: 2
  }
}
layer {
  name: "inception_3a/1x1"
  type: "Convolution"
  bottom: "pool2/3x3_s2"
  top: "inception_3a/1x1"
  param {
    lr_mult: 1
    decay_mult: 1
  }
  param {
    lr_mult: 2
    decay_mult: 0
  }
  convolution_param {
    num_output: 64
    kernel_size: 1
    weight_filler {
      type: "xavier"
      std: 0.03
    }
    bias_filler {
      type: "constant"
      value: 0.2
    }
  }
}
layer {
  name: "inception_3a/relu_1x1"
  type: "ReLU"
  bottom: "inception_3a/1x1"
  top: "inception_3a/1x1"
}
layer {
  name: "inception_3a/3x3_reduce"
  type: "Convolution"
  bottom: "pool2/3x3_s2"
  top: "inception_3a/3x3_reduce"
  param {
    lr_mult: 1
    decay_mult: 1
  }
  param {
    lr_mult: 2
    decay_mult: 0
  }
  convolution_param {
    num_output: 96
    kernel_size: 1
    weight_filler {
      type: "xavier"
      std: 0.09
    }
    bias_filler {
      type: "constant"
      value: 0.2
    }
  }
}
layer {
  name: "inception_3a/relu_3x3_reduce"
  type: "ReLU"
  bottom: "inception_3a/3x3_reduce"
  top: "inception_3a/3x3_reduce"
}
layer {
  name: "inception_3a/3x3"
  type: "Convolution"
  bottom: "inception_3a/3x3_reduce"
  top: "inception_3a/3x3"
  param {
    lr_mult: 1
    decay_mult: 1
  }
  param {
    lr_mult: 2
    decay_mult: 0
  }
  convolution_param {
    num_output: 128
    pad: 1
    kernel_size: 3
    weight_filler {
      type: "xavier"
      std: 0.03
    }
    bias_filler {
      type: "constant"
      value: 0.2
    }
  }
}
layer {
  name: "inception_3a/relu_3x3"
  type: "ReLU"
  bottom: "inception_3a/3x3"
  top: "inception_3a/3x3"
}
layer {
  name: "inception_3a/5x5_reduce"
  type: "Convolution"
  bottom: "pool2/3x3_s2"
  top: "inception_3a/5x5_reduce"
  param {
    lr_mult: 1
    decay_mult: 1
  }
  param {
    lr_mult: 2
    decay_mult: 0
  }
  convolution_param {
    num_output: 16
    kernel_size: 1
    weight_filler {
      type: "xavier"
      std: 0.2
    }
    bias_filler {
      type: "constant"
      value: 0.2
    }
  }
}
layer {
  name: "inception_3a/relu_5x5_reduce"
  type: "ReLU"
  bottom: "inception_3a/5x5_reduce"
  top: "inception_3a/5x5_reduce"
}
layer {
  name: "inception_3a/5x5"
  type: "Convolution"
  bottom: "inception_3a/5x5_reduce"
  top: "inception_3a/5x5"
  param {
    lr_mult: 1
    decay_mult: 1
  }
  param {
    lr_mult: 2
    decay_mult: 0
  }
  convolution_param {
    num_output: 32
    pad: 2
    kernel_size: 5
    weight_filler {
      type: "xavier"
      std: 0.03
    }
    bias_filler {
      type: "constant"
      value: 0.2
    }
  }
}
layer {
  name: "inception_3a/relu_5x5"
  type: "ReLU"
  bottom: "inception_3a/5x5"
  top: "inception_3a/5x5"
}
layer {
  name: "inception_3a/pool"
  type: "Pooling"
  bottom: "pool2/3x3_s2"
  top: "inception_3a/pool"
  pooling_param {
    pool: MAX
    kernel_size: 3
    stride: 1
    pad: 1
  }
}
layer {
  name: "inception_3a/pool_proj"
  type: "Convolution"
  bottom: "inception_3a/pool"
  top: "inception_3a/pool_proj"
  param {
    lr_mult: 1
    decay_mult: 1
  }
  param {
    lr_mult: 2
    decay_mult: 0
  }
  convolution_param {
    num_output: 32
    kernel_size: 1
    weight_filler {
      type: "xavier"
      std: 0.1
    }
    bias_filler {
      type: "constant"
      value: 0.2
    }
  }
}
layer {
  name: "inception_3a/relu_pool_proj"
  type: "ReLU"
  bottom: "inception_3a/pool_proj"
  top: "inception_3a/pool_proj"
}
layer {
  name: "inception_3a/output"
  type: "Concat"
  bottom: "inception_3a/1x1"
  bottom: "inception_3a/3x3"
  bottom: "inception_3a/5x5"
  bottom: "inception_3a/pool_proj"
  top: "inception_3a/output"
}
layer {
  name: "inception_3b/1x1"
  type: "Convolution"
  bottom: "inception_3a/output"
  top: "inception_3b/1x1"
  param {
    lr_mult: 1
    decay_mult: 1
  }
  param {
    lr_mult: 2
    decay_mult: 0
  }
  convolution_param {
    num_output: 128
    kernel_size: 1
    weight_filler {
      type: "xavier"
      std: 0.03
    }
    bias_filler {
      type: "constant"
      value: 0.2
    }
  }
}
layer {
  name: "inception_3b/relu_1x1"
  type: "ReLU"
  bottom: "inception_3b/1x1"
  top: "inception_3b/1x1"
}
layer {
  name: "inception_3b/3x3_reduce"
  type: "Convolution"
  bottom: "inception_3a/output"
  top: "inception_3b/3x3_reduce"
  param {
    lr_mult: 1
    decay_mult: 1
  }
  param {
    lr_mult: 2
    decay_mult: 0
  }
  convolution_param {
    num_output: 128
    kernel_size: 1
    weight_filler {
      type: "xavier"
      std: 0.09
    }
    bias_filler {
      type: "constant"
      value: 0.2
    }
  }
}
layer {
  name: "inception_3b/relu_3x3_reduce"
  type: "ReLU"
  bottom: "inception_3b/3x3_reduce"
  top: "inception_3b/3x3_reduce"
}
layer {
  name: "inception_3b/3x3"
  type: "Convolution"
  bottom: "inception_3b/3x3_reduce"
  top: "inception_3b/3x3"
  param {
    lr_mult: 1
    decay_mult: 1
  }
  param {
    lr_mult: 2
    decay_mult: 0
  }
  convolution_param {
    num_output: 192
    pad: 1
    kernel_size: 3
    weight_filler {
      type: "xavier"
      std: 0.03
    }
    bias_filler {
      type: "constant"
      value: 0.2
    }
  }
}
layer {
  name: "inception_3b/relu_3x3"
  type: "ReLU"
  bottom: "inception_3b/3x3"
  top: "inception_3b/3x3"
}
layer {
  name: "inception_3b/5x5_reduce"
  type: "Convolution"
  bottom: "inception_3a/output"
  top: "inception_3b/5x5_reduce"
  param {
    lr_mult: 1
    decay_mult: 1
  }
  param {
    lr_mult: 2
    decay_mult: 0
  }
  convolution_param {
    num_output: 32
    kernel_size: 1
    weight_filler {
      type: "xavier"
      std: 0.2
    }
    bias_filler {
      type: "constant"
      value: 0.2
    }
  }
}
layer {
  name: "inception_3b/relu_5x5_reduce"
  type: "ReLU"
  bottom: "inception_3b/5x5_reduce"
  top: "inception_3b/5x5_reduce"
}
layer {
  name: "inception_3b/5x5"
  type: "Convolution"
  bottom: "inception_3b/5x5_reduce"
  top: "inception_3b/5x5"
  param {
    lr_mult: 1
    decay_mult: 1
  }
  param {
    lr_mult: 2
    decay_mult: 0
  }
  convolution_param {
    num_output: 96
    pad: 2
    kernel_size: 5
    weight_filler {
      type: "xavier"
      std: 0.03
    }
    bias_filler {
      type: "constant"
      value: 0.2
    }
  }
}
layer {
  name: "inception_3b/relu_5x5"
  type: "ReLU"
  bottom: "inception_3b/5x5"
  top: "inception_3b/5x5"
}
layer {
  name: "inception_3b/pool"
  type: "Pooling"
  bottom: "inception_3a/output"
  top: "inception_3b/pool"
  pooling_param {
    pool: MAX
    kernel_size: 3
    stride: 1
    pad: 1
  }
}
layer {
  name: "inception_3b/pool_proj"
  type: "Convolution"
  bottom: "inception_3b/pool"
  top: "inception_3b/pool_proj"
  param {
    lr_mult: 1
    decay_mult: 1
  }
  param {
    lr_mult: 2
    decay_mult: 0
  }
  convolution_param {
    num_output: 64
    kernel_size: 1
    weight_filler {
      type: "xavier"
      std: 0.1
    }
    bias_filler {
      type: "constant"
      value: 0.2
    }
  }
}
layer {
  name: "inception_3b/relu_pool_proj"
  type: "ReLU"
  bottom: "inception_3b/pool_proj"
  top: "inception_3b/pool_proj"
}
layer {
  name: "inception_3b/output"
  type: "Concat"
  bottom: "inception_3b/1x1"
  bottom: "inception_3b/3x3"
  bottom: "inception_3b/5x5"
  bottom: "inception_3b/pool_proj"
  top: "inception_3b/output"
}
layer {
  name: "pool3/3x3_s2"
  type: "Pooling"
  bottom: "inception_3b/output"
  top: "pool3/3x3_s2"
  pooling_param {
    pool: MAX
    kernel_size: 3
    stride: 2
  }
}
layer {
  name: "inception_4a/1x1"
  type: "Convolution"
  bottom: "pool3/3x3_s2"
  top: "inception_4a/1x1"
  param {
    lr_mult: 1
    decay_mult: 1
  }
  param {
    lr_mult: 2
    decay_mult: 0
  }
  convolution_param {
    num_output: 192
    kernel_size: 1
    weight_filler {
      type: "xavier"
      std: 0.03
    }
    bias_filler {
      type: "constant"
      value: 0.2
    }
  }
}
layer {
  name: "inception_4a/relu_1x1"
  type: "ReLU"
  bottom: "inception_4a/1x1"
  top: "inception_4a/1x1"
}
layer {
  name: "inception_4a/3x3_reduce"
  type: "Convolution"
  bottom: "pool3/3x3_s2"
  top: "inception_4a/3x3_reduce"
  param {
    lr_mult: 1
    decay_mult: 1
  }
  param {
    lr_mult: 2
    decay_mult: 0
  }
  convolution_param {
    num_output: 96
    kernel_size: 1
    weight_filler {
      type: "xavier"
      std: 0.09
    }
    bias_filler {
      type: "constant"
      value: 0.2
    }
  }
}
layer {
  name: "inception_4a/relu_3x3_reduce"
  type: "ReLU"
  bottom: "inception_4a/3x3_reduce"
  top: "inception_4a/3x3_reduce"
}
layer {
  name: "inception_4a/3x3"
  type: "Convolution"
  bottom: "inception_4a/3x3_reduce"
  top: "inception_4a/3x3"
  param {
    lr_mult: 1
    decay_mult: 1
  }
  param {
    lr_mult: 2
    decay_mult: 0
  }
  convolution_param {
    num_output: 208
    pad: 1
    kernel_size: 3
    weight_filler {
      type: "xavier"
      std: 0.03
    }
    bias_filler {
      type: "constant"
      value: 0.2
    }
  }
}
layer {
  name: "inception_4a/relu_3x3"
  type: "ReLU"
  bottom: "inception_4a/3x3"
  top: "inception_4a/3x3"
}
layer {
  name: "inception_4a/5x5_reduce"
  type: "Convolution"
  bottom: "pool3/3x3_s2"
  top: "inception_4a/5x5_reduce"
  param {
    lr_mult: 1
    decay_mult: 1
  }
  param {
    lr_mult: 2
    decay_mult: 0
  }
  convolution_param {
    num_output: 16
    kernel_size: 1
    weight_filler {
      type: "xavier"
      std: 0.2
    }
    bias_filler {
      type: "constant"
      value: 0.2
    }
  }
}
layer {
  name: "inception_4a/relu_5x5_reduce"
  type: "ReLU"
  bottom: "inception_4a/5x5_reduce"
  top: "inception_4a/5x5_reduce"
}
layer {
  name: "inception_4a/5x5"
  type: "Convolution"
  bottom: "inception_4a/5x5_reduce"
  top: "inception_4a/5x5"
  param {
    lr_mult: 1
    decay_mult: 1
  }
  param {
    lr_mult: 2
    decay_mult: 0
  }
  convolution_param {
    num_output: 48
    pad: 2
    kernel_size: 5
    weight_filler {
      type: "xavier"
      std: 0.03
    }
    bias_filler {
      type: "constant"
      value: 0.2
    }
  }
}
layer {
  name: "inception_4a/relu_5x5"
  type: "ReLU"
  bottom: "inception_4a/5x5"
  top: "inception_4a/5x5"
}
layer {
  name: "inception_4a/pool"
  type: "Pooling"
  bottom: "pool3/3x3_s2"
  top: "inception_4a/pool"
  pooling_param {
    pool: MAX
    kernel_size: 3
    stride: 1
    pad: 1
  }
}
layer {
  name: "inception_4a/pool_proj"
  type: "Convolution"
  bottom: "inception_4a/pool"
  top: "inception_4a/pool_proj"
  param {
    lr_mult: 1
    decay_mult: 1
  }
  param {
    lr_mult: 2
    decay_mult: 0
  }
  convolution_param {
    num_output: 64
    kernel_size: 1
    weight_filler {
      type: "xavier"
      std: 0.1
    }
    bias_filler {
      type: "constant"
      value: 0.2
    }
  }
}
layer {
  name: "inception_4a/relu_pool_proj"
  type: "ReLU"
  bottom: "inception_4a/pool_proj"
  top: "inception_4a/pool_proj"
}
layer {
  name: "inception_4a/output"
  type: "Concat"
  bottom: "inception_4a/1x1"
  bottom: "inception_4a/3x3"
  bottom: "inception_4a/5x5"
  bottom: "inception_4a/pool_proj"
  top: "inception_4a/output"
}
layer {
  name: "loss1/ave_pool"
  type: "Pooling"
  bottom: "inception_4a/output"
  top: "loss1/ave_pool"
  pooling_param {
    pool: AVE
    kernel_size: 5
    stride: 3
  }
}
layer {
  name: "loss1/conv"
  type: "Convolution"
  bottom: "loss1/ave_pool"
  top: "loss1/conv"
  param {
    lr_mult: 1
    decay_mult: 1
  }
  param {
    lr_mult: 2
    decay_mult: 0
  }
  convolution_param {
    num_output: 128
    kernel_size: 1
    weight_filler {
      type: "xavier"
      std: 0.08
    }
    bias_filler {
      type: "constant"
      value: 0.2
    }
  }
}
layer {
  name: "loss1/relu_conv"
  type: "ReLU"
  bottom: "loss1/conv"
  top: "loss1/conv"
}
layer {
  name: "loss1/fc"
  type: "InnerProduct"
  bottom: "loss1/conv"
  top: "loss1/fc"
  param {
    lr_mult: 1
    decay_mult: 1
  }
  param {
    lr_mult: 2
    decay_mult: 0
  }
  inner_product_param {
    num_output: 1024
    weight_filler {
      type: "xavier"
      std: 0.02
    }
    bias_filler {
      type: "constant"
      value: 0.2
    }
  }
}
layer {
  name: "loss1/relu_fc"
  type: "ReLU"
  bottom: "loss1/fc"
  top: "loss1/fc"
}
layer {
  name: "loss1/drop_fc"
  type: "Dropout"
  bottom: "loss1/fc"
  top: "loss1/fc"
  dropout_param {
    dropout_ratio: 0.7
  }
}
layer {
  name: "loss1/classifier_plantvillage"
  type: "InnerProduct"
  bottom: "loss1/fc"
  top: "loss1/classifier_plantvillage"
  param {
    lr_mult: 1
    decay_mult: 1
  }
  param {
    lr_mult: 2
    decay_mult: 0
  }
  inner_product_param {
    num_output: 38
    weight_filler {
      type: "xavier"
      std: 0.0009765625
    }
    bias_filler {
      type: "constant"
      value: 0
    }
  }
}
layer {
  name: "inception_4b/1x1"
  type: "Convolution"
  bottom: "inception_4a/output"
  top: "inception_4b/1x1"
  param {
    lr_mult: 1
    decay_mult: 1
  }
  param {
    lr_mult: 2
    decay_mult: 0
  }
  convolution_param {
    num_output: 160
    kernel_size: 1
    weight_filler {
      type: "xavier"
      std: 0.03
    }
    bias_filler {
      type: "constant"
      value: 0.2
    }
  }
}
layer {
  name: "inception_4b/relu_1x1"
  type: "ReLU"
  bottom: "inception_4b/1x1"
  top: "inception_4b/1x1"
}
layer {
  name: "inception_4b/3x3_reduce"
  type: "Convolution"
  bottom: "inception_4a/output"
  top: "inception_4b/3x3_reduce"
  param {
    lr_mult: 1
    decay_mult: 1
  }
  param {
    lr_mult: 2
    decay_mult: 0
  }
  convolution_param {
    num_output: 112
    kernel_size: 1
    weight_filler {
      type: "xavier"
      std: 0.09
    }
    bias_filler {
      type: "constant"
      value: 0.2
    }
  }
}
layer {
  name: "inception_4b/relu_3x3_reduce"
  type: "ReLU"
  bottom: "inception_4b/3x3_reduce"
  top: "inception_4b/3x3_reduce"
}
layer {
  name: "inception_4b/3x3"
  type: "Convolution"
  bottom: "inception_4b/3x3_reduce"
  top: "inception_4b/3x3"
  param {
    lr_mult: 1
    decay_mult: 1
  }
  param {
    lr_mult: 2
    decay_mult: 0
  }
  convolution_param {
    num_output: 224
    pad: 1
    kernel_size: 3
    weight_filler {
      type: "xavier"
      std: 0.03
    }
    bias_filler {
      type: "constant"
      value: 0.2
    }
  }
}
layer {
  name: "inception_4b/relu_3x3"
  type: "ReLU"
  bottom: "inception_4b/3x3"
  top: "inception_4b/3x3"
}
layer {
  name: "inception_4b/5x5_reduce"
  type: "Convolution"
  bottom: "inception_4a/output"
  top: "inception_4b/5x5_reduce"
  param {
    lr_mult: 1
    decay_mult: 1
  }
  param {
    lr_mult: 2
    decay_mult: 0
  }
  convolution_param {
    num_output: 24
    kernel_size: 1
    weight_filler {
      type: "xavier"
      std: 0.2
    }
    bias_filler {
      type: "constant"
      value: 0.2
    }
  }
}
layer {
  name: "inception_4b/relu_5x5_reduce"
  type: "ReLU"
  bottom: "inception_4b/5x5_reduce"
  top: "inception_4b/5x5_reduce"
}
layer {
  name: "inception_4b/5x5"
  type: "Convolution"
  bottom: "inception_4b/5x5_reduce"
  top: "inception_4b/5x5"
  param {
    lr_mult: 1
    decay_mult: 1
  }
  param {
    lr_mult: 2
    decay_mult: 0
  }
  convolution_param {
    num_output: 64
    pad: 2
    kernel_size: 5
    weight_filler {
      type: "xavier"
      std: 0.03
    }
    bias_filler {
      type: "constant"
      value: 0.2
    }
  }
}
layer {
  name: "inception_4b/relu_5x5"
  type: "ReLU"
  bottom: "inception_4b/5x5"
  top: "inception_4b/5x5"
}
layer {
  name: "inception_4b/pool"
  type: "Pooling"
  bottom: "inception_4a/output"
  top: "inception_4b/pool"
  pooling_param {
    pool: MAX
    kernel_size: 3
    stride: 1
    pad: 1
  }
}
layer {
  name: "inception_4b/pool_proj"
  type: "Convolution"
  bottom: "inception_4b/pool"
  top: "inception_4b/pool_proj"
  param {
    lr_mult: 1
    decay_mult: 1
  }
  param {
    lr_mult: 2
    decay_mult: 0
  }
  convolution_param {
    num_output: 64
    kernel_size: 1
    weight_filler {
      type: "xavier"
      std: 0.1
    }
    bias_filler {
      type: "constant"
      value: 0.2
    }
  }
}
layer {
  name: "inception_4b/relu_pool_proj"
  type: "ReLU"
  bottom: "inception_4b/pool_proj"
  top: "inception_4b/pool_proj"
}
layer {
  name: "inception_4b/output"
  type: "Concat"
  bottom: "inception_4b/1x1"
  bottom: "inception_4b/3x3"
  bottom: "inception_4b/5x5"
  bottom: "inception_4b/pool_proj"
  top: "inception_4b/output"
}
layer {
  name: "inception_4c/1x1"
  type: "Convolution"
  bottom: "inception_4b/output"
  top: "inception_4c/1x1"
  param {
    lr_mult: 1
    decay_mult: 1
  }
  param {
    lr_mult: 2
    decay_mult: 0
  }
  convolution_param {
    num_output: 128
    kernel_size: 1
    weight_filler {
      type: "xavier"
      std: 0.03
    }
    bias_filler {
      type: "constant"
      value: 0.2
    }
  }
}
layer {
  name: "inception_4c/relu_1x1"
  type: "ReLU"
  bottom: "inception_4c/1x1"
  top: "inception_4c/1x1"
}
layer {
  name: "inception_4c/3x3_reduce"
  type: "Convolution"
  bottom: "inception_4b/output"
  top: "inception_4c/3x3_reduce"
  param {
    lr_mult: 1
    decay_mult: 1
  }
  param {
    lr_mult: 2
    decay_mult: 0
  }
  convolution_param {
    num_output: 128
    kernel_size: 1
    weight_filler {
      type: "xavier"
      std: 0.09
    }
    bias_filler {
      type: "constant"
      value: 0.2
    }
  }
}
layer {
  name: "inception_4c/relu_3x3_reduce"
  type: "ReLU"
  bottom: "inception_4c/3x3_reduce"
  top: "inception_4c/3x3_reduce"
}
layer {
  name: "inception_4c/3x3"
  type: "Convolution"
  bottom: "inception_4c/3x3_reduce"
  top: "inception_4c/3x3"
  param {
    lr_mult: 1
    decay_mult: 1
  }
  param {
    lr_mult: 2
    decay_mult: 0
  }
  convolution_param {
    num_output: 256
    pad: 1
    kernel_size: 3
    weight_filler {
      type: "xavier"
      std: 0.03
    }
    bias_filler {
      type: "constant"
      value: 0.2
    }
  }
}
layer {
  name: "inception_4c/relu_3x3"
  type: "ReLU"
  bottom: "inception_4c/3x3"
  top: "inception_4c/3x3"
}
layer {
  name: "inception_4c/5x5_reduce"
  type: "Convolution"
  bottom: "inception_4b/output"
  top: "inception_4c/5x5_reduce"
  param {
    lr_mult: 1
    decay_mult: 1
  }
  param {
    lr_mult: 2
    decay_mult: 0
  }
  convolution_param {
    num_output: 24
    kernel_size: 1
    weight_filler {
      type: "xavier"
      std: 0.2
    }
    bias_filler {
      type: "constant"
      value: 0.2
    }
  }
}
layer {
  name: "inception_4c/relu_5x5_reduce"
  type: "ReLU"
  bottom: "inception_4c/5x5_reduce"
  top: "inception_4c/5x5_reduce"
}
layer {
  name: "inception_4c/5x5"
  type: "Convolution"
  bottom: "inception_4c/5x5_reduce"
  top: "inception_4c/5x5"
  param {
    lr_mult: 1
    decay_mult: 1
  }
  param {
    lr_mult: 2
    decay_mult: 0
  }
  convolution_param {
    num_output: 64
    pad: 2
    kernel_size: 5
    weight_filler {
      type: "xavier"
      std: 0.03
    }
    bias_filler {
      type: "constant"
      value: 0.2
    }
  }
}
layer {
  name: "inception_4c/relu_5x5"
  type: "ReLU"
  bottom: "inception_4c/5x5"
  top: "inception_4c/5x5"
}
layer {
  name: "inception_4c/pool"
  type: "Pooling"
  bottom: "inception_4b/output"
  top: "inception_4c/pool"
  pooling_param {
    pool: MAX
    kernel_size: 3
    stride: 1
    pad: 1
  }
}
layer {
  name: "inception_4c/pool_proj"
  type: "Convolution"
  bottom: "inception_4c/pool"
  top: "inception_4c/pool_proj"
  param {
    lr_mult: 1
    decay_mult: 1
  }
  param {
    lr_mult: 2
    decay_mult: 0
  }
  convolution_param {
    num_output: 64
    kernel_size: 1
    weight_filler {
      type: "xavier"
      std: 0.1
    }
    bias_filler {
      type: "constant"
      value: 0.2
    }
  }
}
layer {
  name: "inception_4c/relu_pool_proj"
  type: "ReLU"
  bottom: "inception_4c/pool_proj"
  top: "inception_4c/pool_proj"
}
layer {
  name: "inception_4c/output"
  type: "Concat"
  bottom: "inception_4c/1x1"
  bottom: "inception_4c/3x3"
  bottom: "inception_4c/5x5"
  bottom: "inception_4c/pool_proj"
  top: "inception_4c/output"
}
layer {
  name: "inception_4d/1x1"
  type: "Convolution"
  bottom: "inception_4c/output"
  top: "inception_4d/1x1"
  param {
    lr_mult: 1
    decay_mult: 1
  }
  param {
    lr_mult: 2
    decay_mult: 0
  }
  convolution_param {
    num_output: 112
    kernel_size: 1
    weight_filler {
      type: "xavier"
      std: 0.03
    }
    bias_filler {
      type: "constant"
      value: 0.2
    }
  }
}
layer {
  name: "inception_4d/relu_1x1"
  type: "ReLU"
  bottom: "inception_4d/1x1"
  top: "inception_4d/1x1"
}
layer {
  name: "inception_4d/3x3_reduce"
  type: "Convolution"
  bottom: "inception_4c/output"
  top: "inception_4d/3x3_reduce"
  param {
    lr_mult: 1
    decay_mult: 1
  }
  param {
    lr_mult: 2
    decay_mult: 0
  }
  convolution_param {
    num_output: 144
    kernel_size: 1
    weight_filler {
      type: "xavier"
      std: 0.09
    }
    bias_filler {
      type: "constant"
      value: 0.2
    }
  }
}
layer {
  name: "inception_4d/relu_3x3_reduce"
  type: "ReLU"
  bottom: "inception_4d/3x3_reduce"
  top: "inception_4d/3x3_reduce"
}
layer {
  name: "inception_4d/3x3"
  type: "Convolution"
  bottom: "inception_4d/3x3_reduce"
  top: "inception_4d/3x3"
  param {
    lr_mult: 1
    decay_mult: 1
  }
  param {
    lr_mult: 2
    decay_mult: 0
  }
  convolution_param {
    num_output: 288
    pad: 1
    kernel_size: 3
    weight_filler {
      type: "xavier"
      std: 0.03
    }
    bias_filler {
      type: "constant"
      value: 0.2
    }
  }
}
layer {
  name: "inception_4d/relu_3x3"
  type: "ReLU"
  bottom: "inception_4d/3x3"
  top: "inception_4d/3x3"
}
layer {
  name: "inception_4d/5x5_reduce"
  type: "Convolution"
  bottom: "inception_4c/output"
  top: "inception_4d/5x5_reduce"
  param {
    lr_mult: 1
    decay_mult: 1
  }
  param {
    lr_mult: 2
    decay_mult: 0
  }
  convolution_param {
    num_output: 32
    kernel_size: 1
    weight_filler {
      type: "xavier"
      std: 0.2
    }
    bias_filler {
      type: "constant"
      value: 0.2
    }
  }
}
layer {
  name: "inception_4d/relu_5x5_reduce"
  type: "ReLU"
  bottom: "inception_4d/5x5_reduce"
  top: "inception_4d/5x5_reduce"
}
layer {
  name: "inception_4d/5x5"
  type: "Convolution"
  bottom: "inception_4d/5x5_reduce"
  top: "inception_4d/5x5"
  param {
    lr_mult: 1
    decay_mult: 1
  }
  param {
    lr_mult: 2
    decay_mult: 0
  }
  convolution_param {
    num_output: 64
    pad: 2
    kernel_size: 5
    weight_filler {
      type: "xavier"
      std: 0.03
    }
    bias_filler {
      type: "constant"
      value: 0.2
    }
  }
}
layer {
  name: "inception_4d/relu_5x5"
  type: "ReLU"
  bottom: "inception_4d/5x5"
  top: "inception_4d/5x5"
}
layer {
  name: "inception_4d/pool"
  type: "Pooling"
  bottom: "inception_4c/output"
  top: "inception_4d/pool"
  pooling_param {
    pool: MAX
    kernel_size: 3
    stride: 1
    pad: 1
  }
}
layer {
  name: "inception_4d/pool_proj"
  type: "Convolution"
  bottom: "inception_4d/pool"
  top: "inception_4d/pool_proj"
  param {
    lr_mult: 1
    decay_mult: 1
  }
  param {
    lr_mult: 2
    decay_mult: 0
  }
  convolution_param {
    num_output: 64
    kernel_size: 1
    weight_filler {
      type: "xavier"
      std: 0.1
    }
    bias_filler {
      type: "constant"
      value: 0.2
    }
  }
}
layer {
  name: "inception_4d/relu_pool_proj"
  type: "ReLU"
  bottom: "inception_4d/pool_proj"
  top: "inception_4d/pool_proj"
}
layer {
  name: "inception_4d/output"
  type: "Concat"
  bottom: "inception_4d/1x1"
  bottom: "inception_4d/3x3"
  bottom: "inception_4d/5x5"
  bottom: "inception_4d/pool_proj"
  top: "inception_4d/output"
}
layer {
  name: "loss2/ave_pool"
  type: "Pooling"
  bottom: "inception_4d/output"
  top: "loss2/ave_pool"
  pooling_param {
    pool: AVE
    kernel_size: 5
    stride: 3
  }
}
layer {
  name: "loss2/conv"
  type: "Convolution"
  bottom: "loss2/ave_pool"
  top: "loss2/conv"
  param {
    lr_mult: 1
    decay_mult: 1
  }
  param {
    lr_mult: 2
    decay_mult: 0
  }
  convolution_param {
    num_output: 128
    kernel_size: 1
    weight_filler {
      type: "xavier"
      std: 0.08
    }
    bias_filler {
      type: "constant"
      value: 0.2
    }
  }
}
layer {
  name: "loss2/relu_conv"
  type: "ReLU"
  bottom: "loss2/conv"
  top: "loss2/conv"
}
layer {
  name: "loss2/fc"
  type: "InnerProduct"
  bottom: "loss2/conv"
  top: "loss2/fc"
  param {
    lr_mult: 1
    decay_mult: 1
  }
  param {
    lr_mult: 2
    decay_mult: 0
  }
  inner_product_param {
    num_output: 1024
    weight_filler {
      type: "xavier"
      std: 0.02
    }
    bias_filler {
      type: "constant"
      value: 0.2
    }
  }
}
layer {
  name: "loss2/relu_fc"
  type: "ReLU"
  bottom: "loss2/fc"
  top: "loss2/fc"
}
layer {
  name: "loss2/drop_fc"
  type: "Dropout"
  bottom: "loss2/fc"
  top: "loss2/fc"
  dropout_param {
    dropout_ratio: 0.7
  }
}
layer {
  name: "loss2/classifier_plantvillage"
  type: "InnerProduct"
  bottom: "loss2/fc"
  top: "loss2/classifier_plantvillage"
  param {
    lr_mult: 1
    decay_mult: 1
  }
  param {
    lr_mult: 2
    decay_mult: 0
  }
  inner_product_param {
    num_output: 38
    weight_filler {
      type: "xavier"
      std: 0.0009765625
    }
    bias_filler {
      type: "constant"
      value: 0
    }
  }
}
layer {
  name: "inception_4e/1x1"
  type: "Convolution"
  bottom: "inception_4d/output"
  top: "inception_4e/1x1"
  param {
    lr_mult: 1
    decay_mult: 1
  }
  param {
    lr_mult: 2
    decay_mult: 0
  }
  convolution_param {
    num_output: 256
    kernel_size: 1
    weight_filler {
      type: "xavier"
      std: 0.03
    }
    bias_filler {
      type: "constant"
      value: 0.2
    }
  }
}
layer {
  name: "inception_4e/relu_1x1"
  type: "ReLU"
  bottom: "inception_4e/1x1"
  top: "inception_4e/1x1"
}
layer {
  name: "inception_4e/3x3_reduce"
  type: "Convolution"
  bottom: "inception_4d/output"
  top: "inception_4e/3x3_reduce"
  param {
    lr_mult: 1
    decay_mult: 1
  }
  param {
    lr_mult: 2
    decay_mult: 0
  }
  convolution_param {
    num_output: 160
    kernel_size: 1
    weight_filler {
      type: "xavier"
      std: 0.09
    }
    bias_filler {
      type: "constant"
      value: 0.2
    }
  }
}
layer {
  name: "inception_4e/relu_3x3_reduce"
  type: "ReLU"
  bottom: "inception_4e/3x3_reduce"
  top: "inception_4e/3x3_reduce"
}
layer {
  name: "inception_4e/3x3"
  type: "Convolution"
  bottom: "inception_4e/3x3_reduce"
  top: "inception_4e/3x3"
  param {
    lr_mult: 1
    decay_mult: 1
  }
  param {
    lr_mult: 2
    decay_mult: 0
  }
  convolution_param {
    num_output: 320
    pad: 1
    kernel_size: 3
    weight_filler {
      type: "xavier"
      std: 0.03
    }
    bias_filler {
      type: "constant"
      value: 0.2
    }
  }
}
layer {
  name: "inception_4e/relu_3x3"
  type: "ReLU"
  bottom: "inception_4e/3x3"
  top: "inception_4e/3x3"
}
layer {
  name: "inception_4e/5x5_reduce"
  type: "Convolution"
  bottom: "inception_4d/output"
  top: "inception_4e/5x5_reduce"
  param {
    lr_mult: 1
    decay_mult: 1
  }
  param {
    lr_mult: 2
    decay_mult: 0
  }
  convolution_param {
    num_output: 32
    kernel_size: 1
    weight_filler {
      type: "xavier"
      std: 0.2
    }
    bias_filler {
      type: "constant"
      value: 0.2
    }
  }
}
layer {
  name: "inception_4e/relu_5x5_reduce"
  type: "ReLU"
  bottom: "inception_4e/5x5_reduce"
  top: "inception_4e/5x5_reduce"
}
layer {
  name: "inception_4e/5x5"
  type: "Convolution"
  bottom: "inception_4e/5x5_reduce"
  top: "inception_4e/5x5"
  p
I0403 15:40:41.917003 13977 layer_factory.hpp:77] Creating layer data
I0403 15:40:41.917624 13977 net.cpp:91] Creating Layer data
I0403 15:40:41.917672 13977 net.cpp:399] data -> data
I0403 15:40:41.917724 13977 net.cpp:399] data -> label
I0403 15:40:41.917762 13977 data_transformer.cpp:25] Loading mean file from: /home/mohanty/data/final_dataset/lmdb/color-80-20/mean.binaryproto
I0403 15:40:41.920058 13979 db_lmdb.cpp:38] Opened lmdb /home/mohanty/data/final_dataset/lmdb/color-80-20/test_db
I0403 15:40:41.931041 13977 data_layer.cpp:41] output data size: 24,3,224,224
I0403 15:40:41.958910 13977 net.cpp:141] Setting up data
I0403 15:40:41.958988 13977 net.cpp:148] Top shape: 24 3 224 224 (3612672)
I0403 15:40:41.959012 13977 net.cpp:148] Top shape: 24 (24)
I0403 15:40:41.959028 13977 net.cpp:156] Memory required for data: 14450784
I0403 15:40:41.959055 13977 layer_factory.hpp:77] Creating layer label_data_1_split
I0403 15:40:41.959082 13977 net.cpp:91] Creating Layer label_data_1_split
I0403 15:40:41.959100 13977 net.cpp:425] label_data_1_split <- label
I0403 15:40:41.959134 13977 net.cpp:399] label_data_1_split -> label_data_1_split_0
I0403 15:40:41.959163 13977 net.cpp:399] label_data_1_split -> label_data_1_split_1
I0403 15:40:41.959185 13977 net.cpp:399] label_data_1_split -> label_data_1_split_2
I0403 15:40:41.959208 13977 net.cpp:399] label_data_1_split -> label_data_1_split_3
I0403 15:40:41.959228 13977 net.cpp:399] label_data_1_split -> label_data_1_split_4
I0403 15:40:41.959247 13977 net.cpp:399] label_data_1_split -> label_data_1_split_5
I0403 15:40:41.959266 13977 net.cpp:399] label_data_1_split -> label_data_1_split_6
I0403 15:40:41.959286 13977 net.cpp:399] label_data_1_split -> label_data_1_split_7
I0403 15:40:41.959306 13977 net.cpp:399] label_data_1_split -> label_data_1_split_8
I0403 15:40:41.959326 13977 net.cpp:399] label_data_1_split -> label_data_1_split_9
I0403 15:40:41.959442 13977 net.cpp:141] Setting up label_data_1_split
I0403 15:40:41.959465 13977 net.cpp:148] Top shape: 24 (24)
I0403 15:40:41.959482 13977 net.cpp:148] Top shape: 24 (24)
I0403 15:40:41.959497 13977 net.cpp:148] Top shape: 24 (24)
I0403 15:40:41.959512 13977 net.cpp:148] Top shape: 24 (24)
I0403 15:40:41.959528 13977 net.cpp:148] Top shape: 24 (24)
I0403 15:40:41.959543 13977 net.cpp:148] Top shape: 24 (24)
I0403 15:40:41.959559 13977 net.cpp:148] Top shape: 24 (24)
I0403 15:40:41.959574 13977 net.cpp:148] Top shape: 24 (24)
I0403 15:40:41.959590 13977 net.cpp:148] Top shape: 24 (24)
I0403 15:40:41.959605 13977 net.cpp:148] Top shape: 24 (24)
I0403 15:40:41.959650 13977 net.cpp:156] Memory required for data: 14451744
I0403 15:40:41.959666 13977 layer_factory.hpp:77] Creating layer conv1/7x7_s2
I0403 15:40:41.959699 13977 net.cpp:91] Creating Layer conv1/7x7_s2
I0403 15:40:41.959719 13977 net.cpp:425] conv1/7x7_s2 <- data
I0403 15:40:41.959738 13977 net.cpp:399] conv1/7x7_s2 -> conv1/7x7_s2
I0403 15:40:42.100222 13977 net.cpp:141] Setting up conv1/7x7_s2
I0403 15:40:42.100298 13977 net.cpp:148] Top shape: 24 64 112 112 (19267584)
I0403 15:40:42.100317 13977 net.cpp:156] Memory required for data: 91522080
I0403 15:40:42.100347 13977 layer_factory.hpp:77] Creating layer conv1/relu_7x7
I0403 15:40:42.100374 13977 net.cpp:91] Creating Layer conv1/relu_7x7
I0403 15:40:42.100394 13977 net.cpp:425] conv1/relu_7x7 <- conv1/7x7_s2
I0403 15:40:42.100412 13977 net.cpp:386] conv1/relu_7x7 -> conv1/7x7_s2 (in-place)
I0403 15:40:42.100673 13977 net.cpp:141] Setting up conv1/relu_7x7
I0403 15:40:42.100702 13977 net.cpp:148] Top shape: 24 64 112 112 (19267584)
I0403 15:40:42.100718 13977 net.cpp:156] Memory required for data: 168592416
I0403 15:40:42.100733 13977 layer_factory.hpp:77] Creating layer pool1/3x3_s2
I0403 15:40:42.100759 13977 net.cpp:91] Creating Layer pool1/3x3_s2
I0403 15:40:42.100776 13977 net.cpp:425] pool1/3x3_s2 <- conv1/7x7_s2
I0403 15:40:42.100795 13977 net.cpp:399] pool1/3x3_s2 -> pool1/3x3_s2
I0403 15:40:42.100868 13977 net.cpp:141] Setting up pool1/3x3_s2
I0403 15:40:42.100894 13977 net.cpp:148] Top shape: 24 64 56 56 (4816896)
I0403 15:40:42.100910 13977 net.cpp:156] Memory required for data: 187860000
I0403 15:40:42.100925 13977 layer_factory.hpp:77] Creating layer pool1/norm1
I0403 15:40:42.100950 13977 net.cpp:91] Creating Layer pool1/norm1
I0403 15:40:42.100967 13977 net.cpp:425] pool1/norm1 <- pool1/3x3_s2
I0403 15:40:42.100986 13977 net.cpp:399] pool1/norm1 -> pool1/norm1
I0403 15:40:42.101279 13977 net.cpp:141] Setting up pool1/norm1
I0403 15:40:42.101307 13977 net.cpp:148] Top shape: 24 64 56 56 (4816896)
I0403 15:40:42.101323 13977 net.cpp:156] Memory required for data: 207127584
I0403 15:40:42.101339 13977 layer_factory.hpp:77] Creating layer conv2/3x3_reduce
I0403 15:40:42.101366 13977 net.cpp:91] Creating Layer conv2/3x3_reduce
I0403 15:40:42.101382 13977 net.cpp:425] conv2/3x3_reduce <- pool1/norm1
I0403 15:40:42.101426 13977 net.cpp:399] conv2/3x3_reduce -> conv2/3x3_reduce
I0403 15:40:42.102807 13977 net.cpp:141] Setting up conv2/3x3_reduce
I0403 15:40:42.102840 13977 net.cpp:148] Top shape: 24 64 56 56 (4816896)
I0403 15:40:42.102859 13977 net.cpp:156] Memory required for data: 226395168
I0403 15:40:42.102880 13977 layer_factory.hpp:77] Creating layer conv2/relu_3x3_reduce
I0403 15:40:42.102898 13977 net.cpp:91] Creating Layer conv2/relu_3x3_reduce
I0403 15:40:42.102915 13977 net.cpp:425] conv2/relu_3x3_reduce <- conv2/3x3_reduce
I0403 15:40:42.102934 13977 net.cpp:386] conv2/relu_3x3_reduce -> conv2/3x3_reduce (in-place)
I0403 15:40:42.103298 13977 net.cpp:141] Setting up conv2/relu_3x3_reduce
I0403 15:40:42.103327 13977 net.cpp:148] Top shape: 24 64 56 56 (4816896)
I0403 15:40:42.103343 13977 net.cpp:156] Memory required for data: 245662752
I0403 15:40:42.103358 13977 layer_factory.hpp:77] Creating layer conv2/3x3
I0403 15:40:42.103384 13977 net.cpp:91] Creating Layer conv2/3x3
I0403 15:40:42.103402 13977 net.cpp:425] conv2/3x3 <- conv2/3x3_reduce
I0403 15:40:42.103425 13977 net.cpp:399] conv2/3x3 -> conv2/3x3
I0403 15:40:42.105880 13977 net.cpp:141] Setting up conv2/3x3
I0403 15:40:42.105912 13977 net.cpp:148] Top shape: 24 192 56 56 (14450688)
I0403 15:40:42.105931 13977 net.cpp:156] Memory required for data: 303465504
I0403 15:40:42.105952 13977 layer_factory.hpp:77] Creating layer conv2/relu_3x3
I0403 15:40:42.105973 13977 net.cpp:91] Creating Layer conv2/relu_3x3
I0403 15:40:42.105993 13977 net.cpp:425] conv2/relu_3x3 <- conv2/3x3
I0403 15:40:42.106012 13977 net.cpp:386] conv2/relu_3x3 -> conv2/3x3 (in-place)
I0403 15:40:42.106201 13977 net.cpp:141] Setting up conv2/relu_3x3
I0403 15:40:42.106230 13977 net.cpp:148] Top shape: 24 192 56 56 (14450688)
I0403 15:40:42.106276 13977 net.cpp:156] Memory required for data: 361268256
I0403 15:40:42.106293 13977 layer_factory.hpp:77] Creating layer conv2/norm2
I0403 15:40:42.106314 13977 net.cpp:91] Creating Layer conv2/norm2
I0403 15:40:42.106333 13977 net.cpp:425] conv2/norm2 <- conv2/3x3
I0403 15:40:42.106353 13977 net.cpp:399] conv2/norm2 -> conv2/norm2
I0403 15:40:42.106756 13977 net.cpp:141] Setting up conv2/norm2
I0403 15:40:42.106788 13977 net.cpp:148] Top shape: 24 192 56 56 (14450688)
I0403 15:40:42.106806 13977 net.cpp:156] Memory required for data: 419071008
I0403 15:40:42.106822 13977 layer_factory.hpp:77] Creating layer pool2/3x3_s2
I0403 15:40:42.106840 13977 net.cpp:91] Creating Layer pool2/3x3_s2
I0403 15:40:42.106856 13977 net.cpp:425] pool2/3x3_s2 <- conv2/norm2
I0403 15:40:42.106878 13977 net.cpp:399] pool2/3x3_s2 -> pool2/3x3_s2
I0403 15:40:42.106932 13977 net.cpp:141] Setting up pool2/3x3_s2
I0403 15:40:42.106957 13977 net.cpp:148] Top shape: 24 192 28 28 (3612672)
I0403 15:40:42.106973 13977 net.cpp:156] Memory required for data: 433521696
I0403 15:40:42.106988 13977 layer_factory.hpp:77] Creating layer pool2/3x3_s2_pool2/3x3_s2_0_split
I0403 15:40:42.107009 13977 net.cpp:91] Creating Layer pool2/3x3_s2_pool2/3x3_s2_0_split
I0403 15:40:42.107028 13977 net.cpp:425] pool2/3x3_s2_pool2/3x3_s2_0_split <- pool2/3x3_s2
I0403 15:40:42.107046 13977 net.cpp:399] pool2/3x3_s2_pool2/3x3_s2_0_split -> pool2/3x3_s2_pool2/3x3_s2_0_split_0
I0403 15:40:42.107067 13977 net.cpp:399] pool2/3x3_s2_pool2/3x3_s2_0_split -> pool2/3x3_s2_pool2/3x3_s2_0_split_1
I0403 15:40:42.107087 13977 net.cpp:399] pool2/3x3_s2_pool2/3x3_s2_0_split -> pool2/3x3_s2_pool2/3x3_s2_0_split_2
I0403 15:40:42.107110 13977 net.cpp:399] pool2/3x3_s2_pool2/3x3_s2_0_split -> pool2/3x3_s2_pool2/3x3_s2_0_split_3
I0403 15:40:42.107190 13977 net.cpp:141] Setting up pool2/3x3_s2_pool2/3x3_s2_0_split
I0403 15:40:42.107215 13977 net.cpp:148] Top shape: 24 192 28 28 (3612672)
I0403 15:40:42.107231 13977 net.cpp:148] Top shape: 24 192 28 28 (3612672)
I0403 15:40:42.107247 13977 net.cpp:148] Top shape: 24 192 28 28 (3612672)
I0403 15:40:42.107262 13977 net.cpp:148] Top shape: 24 192 28 28 (3612672)
I0403 15:40:42.107277 13977 net.cpp:156] Memory required for data: 491324448
I0403 15:40:42.107291 13977 layer_factory.hpp:77] Creating layer inception_3a/1x1
I0403 15:40:42.107316 13977 net.cpp:91] Creating Layer inception_3a/1x1
I0403 15:40:42.107334 13977 net.cpp:425] inception_3a/1x1 <- pool2/3x3_s2_pool2/3x3_s2_0_split_0
I0403 15:40:42.107357 13977 net.cpp:399] inception_3a/1x1 -> inception_3a/1x1
I0403 15:40:42.109004 13977 net.cpp:141] Setting up inception_3a/1x1
I0403 15:40:42.109037 13977 net.cpp:148] Top shape: 24 64 28 28 (1204224)
I0403 15:40:42.109055 13977 net.cpp:156] Memory required for data: 496141344
I0403 15:40:42.109073 13977 layer_factory.hpp:77] Creating layer inception_3a/relu_1x1
I0403 15:40:42.109099 13977 net.cpp:91] Creating Layer inception_3a/relu_1x1
I0403 15:40:42.109117 13977 net.cpp:425] inception_3a/relu_1x1 <- inception_3a/1x1
I0403 15:40:42.109146 13977 net.cpp:386] inception_3a/relu_1x1 -> inception_3a/1x1 (in-place)
I0403 15:40:42.109335 13977 net.cpp:141] Setting up inception_3a/relu_1x1
I0403 15:40:42.109362 13977 net.cpp:148] Top shape: 24 64 28 28 (1204224)
I0403 15:40:42.109379 13977 net.cpp:156] Memory required for data: 500958240
I0403 15:40:42.109400 13977 layer_factory.hpp:77] Creating layer inception_3a/3x3_reduce
I0403 15:40:42.109423 13977 net.cpp:91] Creating Layer inception_3a/3x3_reduce
I0403 15:40:42.109442 13977 net.cpp:425] inception_3a/3x3_reduce <- pool2/3x3_s2_pool2/3x3_s2_0_split_1
I0403 15:40:42.109463 13977 net.cpp:399] inception_3a/3x3_reduce -> inception_3a/3x3_reduce
I0403 15:40:42.111245 13977 net.cpp:141] Setting up inception_3a/3x3_reduce
I0403 15:40:42.111280 13977 net.cpp:148] Top shape: 24 96 28 28 (1806336)
I0403 15:40:42.111299 13977 net.cpp:156] Memory required for data: 508183584
I0403 15:40:42.111321 13977 layer_factory.hpp:77] Creating layer inception_3a/relu_3x3_reduce
I0403 15:40:42.111362 13977 net.cpp:91] Creating Layer inception_3a/relu_3x3_reduce
I0403 15:40:42.111382 13977 net.cpp:425] inception_3a/relu_3x3_reduce <- inception_3a/3x3_reduce
I0403 15:40:42.111399 13977 net.cpp:386] inception_3a/relu_3x3_reduce -> inception_3a/3x3_reduce (in-place)
I0403 15:40:42.111594 13977 net.cpp:141] Setting up inception_3a/relu_3x3_reduce
I0403 15:40:42.111624 13977 net.cpp:148] Top shape: 24 96 28 28 (1806336)
I0403 15:40:42.111640 13977 net.cpp:156] Memory required for data: 515408928
I0403 15:40:42.111655 13977 layer_factory.hpp:77] Creating layer inception_3a/3x3
I0403 15:40:42.111680 13977 net.cpp:91] Creating Layer inception_3a/3x3
I0403 15:40:42.111698 13977 net.cpp:425] inception_3a/3x3 <- inception_3a/3x3_reduce
I0403 15:40:42.111718 13977 net.cpp:399] inception_3a/3x3 -> inception_3a/3x3
I0403 15:40:42.113510 13977 net.cpp:141] Setting up inception_3a/3x3
I0403 15:40:42.113541 13977 net.cpp:148] Top shape: 24 128 28 28 (2408448)
I0403 15:40:42.113556 13977 net.cpp:156] Memory required for data: 525042720
I0403 15:40:42.113575 13977 layer_factory.hpp:77] Creating layer inception_3a/relu_3x3
I0403 15:40:42.113595 13977 net.cpp:91] Creating Layer inception_3a/relu_3x3
I0403 15:40:42.113611 13977 net.cpp:425] inception_3a/relu_3x3 <- inception_3a/3x3
I0403 15:40:42.113632 13977 net.cpp:386] inception_3a/relu_3x3 -> inception_3a/3x3 (in-place)
I0403 15:40:42.113968 13977 net.cpp:141] Setting up inception_3a/relu_3x3
I0403 15:40:42.113996 13977 net.cpp:148] Top shape: 24 128 28 28 (2408448)
I0403 15:40:42.114013 13977 net.cpp:156] Memory required for data: 534676512
I0403 15:40:42.114028 13977 layer_factory.hpp:77] Creating layer inception_3a/5x5_reduce
I0403 15:40:42.114053 13977 net.cpp:91] Creating Layer inception_3a/5x5_reduce
I0403 15:40:42.114071 13977 net.cpp:425] inception_3a/5x5_reduce <- pool2/3x3_s2_pool2/3x3_s2_0_split_2
I0403 15:40:42.114094 13977 net.cpp:399] inception_3a/5x5_reduce -> inception_3a/5x5_reduce
I0403 15:40:42.115103 13977 net.cpp:141] Setting up inception_3a/5x5_reduce
I0403 15:40:42.115136 13977 net.cpp:148] Top shape: 24 16 28 28 (301056)
I0403 15:40:42.115154 13977 net.cpp:156] Memory required for data: 535880736
I0403 15:40:42.115175 13977 layer_factory.hpp:77] Creating layer inception_3a/relu_5x5_reduce
I0403 15:40:42.115196 13977 net.cpp:91] Creating Layer inception_3a/relu_5x5_reduce
I0403 15:40:42.115214 13977 net.cpp:425] inception_3a/relu_5x5_reduce <- inception_3a/5x5_reduce
I0403 15:40:42.115233 13977 net.cpp:386] inception_3a/relu_5x5_reduce -> inception_3a/5x5_reduce (in-place)
I0403 15:40:42.115542 13977 net.cpp:141] Setting up inception_3a/relu_5x5_reduce
I0403 15:40:42.115571 13977 net.cpp:148] Top shape: 24 16 28 28 (301056)
I0403 15:40:42.115586 13977 net.cpp:156] Memory required for data: 537084960
I0403 15:40:42.115602 13977 layer_factory.hpp:77] Creating layer inception_3a/5x5
I0403 15:40:42.115625 13977 net.cpp:91] Creating Layer inception_3a/5x5
I0403 15:40:42.115646 13977 net.cpp:425] inception_3a/5x5 <- inception_3a/5x5_reduce
I0403 15:40:42.115666 13977 net.cpp:399] inception_3a/5x5 -> inception_3a/5x5
I0403 15:40:42.116793 13977 net.cpp:141] Setting up inception_3a/5x5
I0403 15:40:42.116823 13977 net.cpp:148] Top shape: 24 32 28 28 (602112)
I0403 15:40:42.116840 13977 net.cpp:156] Memory required for data: 539493408
I0403 15:40:42.116859 13977 layer_factory.hpp:77] Creating layer inception_3a/relu_5x5
I0403 15:40:42.116878 13977 net.cpp:91] Creating Layer inception_3a/relu_5x5
I0403 15:40:42.116894 13977 net.cpp:425] inception_3a/relu_5x5 <- inception_3a/5x5
I0403 15:40:42.116914 13977 net.cpp:386] inception_3a/relu_5x5 -> inception_3a/5x5 (in-place)
I0403 15:40:42.117099 13977 net.cpp:141] Setting up inception_3a/relu_5x5
I0403 15:40:42.117130 13977 net.cpp:148] Top shape: 24 32 28 28 (602112)
I0403 15:40:42.117148 13977 net.cpp:156] Memory required for data: 541901856
I0403 15:40:42.117163 13977 layer_factory.hpp:77] Creating layer inception_3a/pool
I0403 15:40:42.117184 13977 net.cpp:91] Creating Layer inception_3a/pool
I0403 15:40:42.117202 13977 net.cpp:425] inception_3a/pool <- pool2/3x3_s2_pool2/3x3_s2_0_split_3
I0403 15:40:42.117238 13977 net.cpp:399] inception_3a/pool -> inception_3a/pool
I0403 15:40:42.117300 13977 net.cpp:141] Setting up inception_3a/pool
I0403 15:40:42.117326 13977 net.cpp:148] Top shape: 24 192 28 28 (3612672)
I0403 15:40:42.117341 13977 net.cpp:156] Memory required for data: 556352544
I0403 15:40:42.117355 13977 layer_factory.hpp:77] Creating layer inception_3a/pool_proj
I0403 15:40:42.117378 13977 net.cpp:91] Creating Layer inception_3a/pool_proj
I0403 15:40:42.117398 13977 net.cpp:425] inception_3a/pool_proj <- inception_3a/pool
I0403 15:40:42.117420 13977 net.cpp:399] inception_3a/pool_proj -> inception_3a/pool_proj
I0403 15:40:42.118409 13977 net.cpp:141] Setting up inception_3a/pool_proj
I0403 15:40:42.118443 13977 net.cpp:148] Top shape: 24 32 28 28 (602112)
I0403 15:40:42.118459 13977 net.cpp:156] Memory required for data: 558760992
I0403 15:40:42.118481 13977 layer_factory.hpp:77] Creating layer inception_3a/relu_pool_proj
I0403 15:40:42.118505 13977 net.cpp:91] Creating Layer inception_3a/relu_pool_proj
I0403 15:40:42.118523 13977 net.cpp:425] inception_3a/relu_pool_proj <- inception_3a/pool_proj
I0403 15:40:42.118542 13977 net.cpp:386] inception_3a/relu_pool_proj -> inception_3a/pool_proj (in-place)
I0403 15:40:42.118819 13977 net.cpp:141] Setting up inception_3a/relu_pool_proj
I0403 15:40:42.118846 13977 net.cpp:148] Top shape: 24 32 28 28 (602112)
I0403 15:40:42.118861 13977 net.cpp:156] Memory required for data: 561169440
I0403 15:40:42.118876 13977 layer_factory.hpp:77] Creating layer inception_3a/output
I0403 15:40:42.118893 13977 net.cpp:91] Creating Layer inception_3a/output
I0403 15:40:42.118908 13977 net.cpp:425] inception_3a/output <- inception_3a/1x1
I0403 15:40:42.118926 13977 net.cpp:425] inception_3a/output <- inception_3a/3x3
I0403 15:40:42.118942 13977 net.cpp:425] inception_3a/output <- inception_3a/5x5
I0403 15:40:42.118957 13977 net.cpp:425] inception_3a/output <- inception_3a/pool_proj
I0403 15:40:42.118976 13977 net.cpp:399] inception_3a/output -> inception_3a/output
I0403 15:40:42.119024 13977 net.cpp:141] Setting up inception_3a/output
I0403 15:40:42.119051 13977 net.cpp:148] Top shape: 24 256 28 28 (4816896)
I0403 15:40:42.119067 13977 net.cpp:156] Memory required for data: 580437024
I0403 15:40:42.119083 13977 layer_factory.hpp:77] Creating layer inception_3a/output_inception_3a/output_0_split
I0403 15:40:42.119102 13977 net.cpp:91] Creating Layer inception_3a/output_inception_3a/output_0_split
I0403 15:40:42.119117 13977 net.cpp:425] inception_3a/output_inception_3a/output_0_split <- inception_3a/output
I0403 15:40:42.119139 13977 net.cpp:399] inception_3a/output_inception_3a/output_0_split -> inception_3a/output_inception_3a/output_0_split_0
I0403 15:40:42.119163 13977 net.cpp:399] inception_3a/output_inception_3a/output_0_split -> inception_3a/output_inception_3a/output_0_split_1
I0403 15:40:42.119189 13977 net.cpp:399] inception_3a/output_inception_3a/output_0_split -> inception_3a/output_inception_3a/output_0_split_2
I0403 15:40:42.119210 13977 net.cpp:399] inception_3a/output_inception_3a/output_0_split -> inception_3a/output_inception_3a/output_0_split_3
I0403 15:40:42.119288 13977 net.cpp:141] Setting up inception_3a/output_inception_3a/output_0_split
I0403 15:40:42.119314 13977 net.cpp:148] Top shape: 24 256 28 28 (4816896)
I0403 15:40:42.119331 13977 net.cpp:148] Top shape: 24 256 28 28 (4816896)
I0403 15:40:42.119348 13977 net.cpp:148] Top shape: 24 256 28 28 (4816896)
I0403 15:40:42.119362 13977 net.cpp:148] Top shape: 24 256 28 28 (4816896)
I0403 15:40:42.119376 13977 net.cpp:156] Memory required for data: 657507360
I0403 15:40:42.119391 13977 layer_factory.hpp:77] Creating layer inception_3b/1x1
I0403 15:40:42.119415 13977 net.cpp:91] Creating Layer inception_3b/1x1
I0403 15:40:42.119433 13977 net.cpp:425] inception_3b/1x1 <- inception_3a/output_inception_3a/output_0_split_0
I0403 15:40:42.119453 13977 net.cpp:399] inception_3b/1x1 -> inception_3b/1x1
I0403 15:40:42.120631 13977 net.cpp:141] Setting up inception_3b/1x1
I0403 15:40:42.120687 13977 net.cpp:148] Top shape: 24 128 28 28 (2408448)
I0403 15:40:42.120707 13977 net.cpp:156] Memory required for data: 667141152
I0403 15:40:42.120724 13977 layer_factory.hpp:77] Creating layer inception_3b/relu_1x1
I0403 15:40:42.120743 13977 net.cpp:91] Creating Layer inception_3b/relu_1x1
I0403 15:40:42.120759 13977 net.cpp:425] inception_3b/relu_1x1 <- inception_3b/1x1
I0403 15:40:42.120780 13977 net.cpp:386] inception_3b/relu_1x1 -> inception_3b/1x1 (in-place)
I0403 15:40:42.120957 13977 net.cpp:141] Setting up inception_3b/relu_1x1
I0403 15:40:42.120983 13977 net.cpp:148] Top shape: 24 128 28 28 (2408448)
I0403 15:40:42.120998 13977 net.cpp:156] Memory required for data: 676774944
I0403 15:40:42.121013 13977 layer_factory.hpp:77] Creating layer inception_3b/3x3_reduce
I0403 15:40:42.121036 13977 net.cpp:91] Creating Layer inception_3b/3x3_reduce
I0403 15:40:42.121054 13977 net.cpp:425] inception_3b/3x3_reduce <- inception_3a/output_inception_3a/output_0_split_1
I0403 15:40:42.121075 13977 net.cpp:399] inception_3b/3x3_reduce -> inception_3b/3x3_reduce
I0403 15:40:42.122247 13977 net.cpp:141] Setting up inception_3b/3x3_reduce
I0403 15:40:42.122280 13977 net.cpp:148] Top shape: 24 128 28 28 (2408448)
I0403 15:40:42.122298 13977 net.cpp:156] Memory required for data: 686408736
I0403 15:40:42.122316 13977 layer_factory.hpp:77] Creating layer inception_3b/relu_3x3_reduce
I0403 15:40:42.122335 13977 net.cpp:91] Creating Layer inception_3b/relu_3x3_reduce
I0403 15:40:42.122352 13977 net.cpp:425] inception_3b/relu_3x3_reduce <- inception_3b/3x3_reduce
I0403 15:40:42.122372 13977 net.cpp:386] inception_3b/relu_3x3_reduce -> inception_3b/3x3_reduce (in-place)
I0403 15:40:42.122550 13977 net.cpp:141] Setting up inception_3b/relu_3x3_reduce
I0403 15:40:42.122576 13977 net.cpp:148] Top shape: 24 128 28 28 (2408448)
I0403 15:40:42.122591 13977 net.cpp:156] Memory required for data: 696042528
I0403 15:40:42.122606 13977 layer_factory.hpp:77] Creating layer inception_3b/3x3
I0403 15:40:42.122632 13977 net.cpp:91] Creating Layer inception_3b/3x3
I0403 15:40:42.122650 13977 net.cpp:425] inception_3b/3x3 <- inception_3b/3x3_reduce
I0403 15:40:42.122670 13977 net.cpp:399] inception_3b/3x3 -> inception_3b/3x3
I0403 15:40:42.125644 13977 net.cpp:141] Setting up inception_3b/3x3
I0403 15:40:42.125674 13977 net.cpp:148] Top shape: 24 192 28 28 (3612672)
I0403 15:40:42.125690 13977 net.cpp:156] Memory required for data: 710493216
I0403 15:40:42.125707 13977 layer_factory.hpp:77] Creating layer inception_3b/relu_3x3
I0403 15:40:42.125726 13977 net.cpp:91] Creating Layer inception_3b/relu_3x3
I0403 15:40:42.125742 13977 net.cpp:425] inception_3b/relu_3x3 <- inception_3b/3x3
I0403 15:40:42.125761 13977 net.cpp:386] inception_3b/relu_3x3 -> inception_3b/3x3 (in-place)
I0403 15:40:42.126036 13977 net.cpp:141] Setting up inception_3b/relu_3x3
I0403 15:40:42.126063 13977 net.cpp:148] Top shape: 24 192 28 28 (3612672)
I0403 15:40:42.126078 13977 net.cpp:156] Memory required for data: 724943904
I0403 15:40:42.126092 13977 layer_factory.hpp:77] Creating layer inception_3b/5x5_reduce
I0403 15:40:42.126114 13977 net.cpp:91] Creating Layer inception_3b/5x5_reduce
I0403 15:40:42.126138 13977 net.cpp:425] inception_3b/5x5_reduce <- inception_3a/output_inception_3a/output_0_split_2
I0403 15:40:42.126163 13977 net.cpp:399] inception_3b/5x5_reduce -> inception_3b/5x5_reduce
I0403 15:40:42.127146 13977 net.cpp:141] Setting up inception_3b/5x5_reduce
I0403 15:40:42.127174 13977 net.cpp:148] Top shape: 24 32 28 28 (602112)
I0403 15:40:42.127189 13977 net.cpp:156] Memory required for data: 727352352
I0403 15:40:42.127207 13977 layer_factory.hpp:77] Creating layer inception_3b/relu_5x5_reduce
I0403 15:40:42.127224 13977 net.cpp:91] Creating Layer inception_3b/relu_5x5_reduce
I0403 15:40:42.127240 13977 net.cpp:425] inception_3b/relu_5x5_reduce <- inception_3b/5x5_reduce
I0403 15:40:42.127259 13977 net.cpp:386] inception_3b/relu_5x5_reduce -> inception_3b/5x5_reduce (in-place)
I0403 15:40:42.127435 13977 net.cpp:141] Setting up inception_3b/relu_5x5_reduce
I0403 15:40:42.127473 13977 net.cpp:148] Top shape: 24 32 28 28 (602112)
I0403 15:40:42.127490 13977 net.cpp:156] Memory required for data: 729760800
I0403 15:40:42.127503 13977 layer_factory.hpp:77] Creating layer inception_3b/5x5
I0403 15:40:42.127526 13977 net.cpp:91] Creating Layer inception_3b/5x5
I0403 15:40:42.127544 13977 net.cpp:425] inception_3b/5x5 <- inception_3b/5x5_reduce
I0403 15:40:42.127565 13977 net.cpp:399] inception_3b/5x5 -> inception_3b/5x5
I0403 15:40:42.129541 13977 net.cpp:141] Setting up inception_3b/5x5
I0403 15:40:42.129573 13977 net.cpp:148] Top shape: 24 96 28 28 (1806336)
I0403 15:40:42.129590 13977 net.cpp:156] Memory required for data: 736986144
I0403 15:40:42.129607 13977 layer_factory.hpp:77] Creating layer inception_3b/relu_5x5
I0403 15:40:42.129626 13977 net.cpp:91] Creating Layer inception_3b/relu_5x5
I0403 15:40:42.129642 13977 net.cpp:425] inception_3b/relu_5x5 <- inception_3b/5x5
I0403 15:40:42.129658 13977 net.cpp:386] inception_3b/relu_5x5 -> inception_3b/5x5 (in-place)
I0403 15:40:42.129850 13977 net.cpp:141] Setting up inception_3b/relu_5x5
I0403 15:40:42.129876 13977 net.cpp:148] Top shape: 24 96 28 28 (1806336)
I0403 15:40:42.129889 13977 net.cpp:156] Memory required for data: 744211488
I0403 15:40:42.129904 13977 layer_factory.hpp:77] Creating layer inception_3b/pool
I0403 15:40:42.129921 13977 net.cpp:91] Creating Layer inception_3b/pool
I0403 15:40:42.129936 13977 net.cpp:425] inception_3b/pool <- inception_3a/output_inception_3a/output_0_split_3
I0403 15:40:42.129953 13977 net.cpp:399] inception_3b/pool -> inception_3b/pool
I0403 15:40:42.130009 13977 net.cpp:141] Setting up inception_3b/pool
I0403 15:40:42.130035 13977 net.cpp:148] Top shape: 24 256 28 28 (4816896)
I0403 15:40:42.130049 13977 net.cpp:156] Memory required for data: 763479072
I0403 15:40:42.130064 13977 layer_factory.hpp:77] Creating layer inception_3b/pool_proj
I0403 15:40:42.130086 13977 net.cpp:91] Creating Layer inception_3b/pool_proj
I0403 15:40:42.130103 13977 net.cpp:425] inception_3b/pool_proj <- inception_3b/pool
I0403 15:40:42.130125 13977 net.cpp:399] inception_3b/pool_proj -> inception_3b/pool_proj
I0403 15:40:42.131172 13977 net.cpp:141] Setting up inception_3b/pool_proj
I0403 15:40:42.131201 13977 net.cpp:148] Top shape: 24 64 28 28 (1204224)
I0403 15:40:42.131217 13977 net.cpp:156] Memory required for data: 768295968
I0403 15:40:42.131235 13977 layer_factory.hpp:77] Creating layer inception_3b/relu_pool_proj
I0403 15:40:42.131255 13977 net.cpp:91] Creating Layer inception_3b/relu_pool_proj
I0403 15:40:42.131271 13977 net.cpp:425] inception_3b/relu_pool_proj <- inception_3b/pool_proj
I0403 15:40:42.131289 13977 net.cpp:386] inception_3b/relu_pool_proj -> inception_3b/pool_proj (in-place)
I0403 15:40:42.131672 13977 net.cpp:141] Setting up inception_3b/relu_pool_proj
I0403 15:40:42.131700 13977 net.cpp:148] Top shape: 24 64 28 28 (1204224)
I0403 15:40:42.131714 13977 net.cpp:156] Memory required for data: 773112864
I0403 15:40:42.131728 13977 layer_factory.hpp:77] Creating layer inception_3b/output
I0403 15:40:42.131745 13977 net.cpp:91] Creating Layer inception_3b/output
I0403 15:40:42.131762 13977 net.cpp:425] inception_3b/output <- inception_3b/1x1
I0403 15:40:42.131789 13977 net.cpp:425] inception_3b/output <- inception_3b/3x3
I0403 15:40:42.131808 13977 net.cpp:425] inception_3b/output <- inception_3b/5x5
I0403 15:40:42.131824 13977 net.cpp:425] inception_3b/output <- inception_3b/pool_proj
I0403 15:40:42.131840 13977 net.cpp:399] inception_3b/output -> inception_3b/output
I0403 15:40:42.131886 13977 net.cpp:141] Setting up inception_3b/output
I0403 15:40:42.131907 13977 net.cpp:148] Top shape: 24 480 28 28 (9031680)
I0403 15:40:42.131922 13977 net.cpp:156] Memory required for data: 809239584
I0403 15:40:42.131937 13977 layer_factory.hpp:77] Creating layer pool3/3x3_s2
I0403 15:40:42.131953 13977 net.cpp:91] Creating Layer pool3/3x3_s2
I0403 15:40:42.131968 13977 net.cpp:425] pool3/3x3_s2 <- inception_3b/output
I0403 15:40:42.131989 13977 net.cpp:399] pool3/3x3_s2 -> pool3/3x3_s2
I0403 15:40:42.132063 13977 net.cpp:141] Setting up pool3/3x3_s2
I0403 15:40:42.132087 13977 net.cpp:148] Top shape: 24 480 14 14 (2257920)
I0403 15:40:42.132102 13977 net.cpp:156] Memory required for data: 818271264
I0403 15:40:42.132117 13977 layer_factory.hpp:77] Creating layer pool3/3x3_s2_pool3/3x3_s2_0_split
I0403 15:40:42.132140 13977 net.cpp:91] Creating Layer pool3/3x3_s2_pool3/3x3_s2_0_split
I0403 15:40:42.132158 13977 net.cpp:425] pool3/3x3_s2_pool3/3x3_s2_0_split <- pool3/3x3_s2
I0403 15:40:42.132175 13977 net.cpp:399] pool3/3x3_s2_pool3/3x3_s2_0_split -> pool3/3x3_s2_pool3/3x3_s2_0_split_0
I0403 15:40:42.132199 13977 net.cpp:399] pool3/3x3_s2_pool3/3x3_s2_0_split -> pool3/3x3_s2_pool3/3x3_s2_0_split_1
I0403 15:40:42.132218 13977 net.cpp:399] pool3/3x3_s2_pool3/3x3_s2_0_split -> pool3/3x3_s2_pool3/3x3_s2_0_split_2
I0403 15:40:42.132237 13977 net.cpp:399] pool3/3x3_s2_pool3/3x3_s2_0_split -> pool3/3x3_s2_pool3/3x3_s2_0_split_3
I0403 15:40:42.132311 13977 net.cpp:141] Setting up pool3/3x3_s2_pool3/3x3_s2_0_split
I0403 15:40:42.132335 13977 net.cpp:148] Top shape: 24 480 14 14 (2257920)
I0403 15:40:42.132350 13977 net.cpp:148] Top shape: 24 480 14 14 (2257920)
I0403 15:40:42.132378 13977 net.cpp:148] Top shape: 24 480 14 14 (2257920)
I0403 15:40:42.132393 13977 net.cpp:148] Top shape: 24 480 14 14 (2257920)
I0403 15:40:42.132406 13977 net.cpp:156] Memory required for data: 854397984
I0403 15:40:42.132421 13977 layer_factory.hpp:77] Creating layer inception_4a/1x1
I0403 15:40:42.132443 13977 net.cpp:91] Creating Layer inception_4a/1x1
I0403 15:40:42.132460 13977 net.cpp:425] inception_4a/1x1 <- pool3/3x3_s2_pool3/3x3_s2_0_split_0
I0403 15:40:42.132483 13977 net.cpp:399] inception_4a/1x1 -> inception_4a/1x1
I0403 15:40:42.134050 13977 net.cpp:141] Setting up inception_4a/1x1
I0403 15:40:42.134079 13977 net.cpp:148] Top shape: 24 192 14 14 (903168)
I0403 15:40:42.134095 13977 net.cpp:156] Memory required for data: 858010656
I0403 15:40:42.134114 13977 layer_factory.hpp:77] Creating layer inception_4a/relu_1x1
I0403 15:40:42.134133 13977 net.cpp:91] Creating Layer inception_4a/relu_1x1
I0403 15:40:42.134150 13977 net.cpp:425] inception_4a/relu_1x1 <- inception_4a/1x1
I0403 15:40:42.134166 13977 net.cpp:386] inception_4a/relu_1x1 -> inception_4a/1x1 (in-place)
I0403 15:40:42.134336 13977 net.cpp:141] Setting up inception_4a/relu_1x1
I0403 15:40:42.134366 13977 net.cpp:148] Top shape: 24 192 14 14 (903168)
I0403 15:40:42.134380 13977 net.cpp:156] Memory required for data: 861623328
I0403 15:40:42.134395 13977 layer_factory.hpp:77] Creating layer inception_4a/3x3_reduce
I0403 15:40:42.134416 13977 net.cpp:91] Creating Layer inception_4a/3x3_reduce
I0403 15:40:42.134433 13977 net.cpp:425] inception_4a/3x3_reduce <- pool3/3x3_s2_pool3/3x3_s2_0_split_1
I0403 15:40:42.134451 13977 net.cpp:399] inception_4a/3x3_reduce -> inception_4a/3x3_reduce
I0403 15:40:42.135690 13977 net.cpp:141] Setting up inception_4a/3x3_reduce
I0403 15:40:42.135718 13977 net.cpp:148] Top shape: 24 96 14 14 (451584)
I0403 15:40:42.135733 13977 net.cpp:156] Memory required for data: 863429664
I0403 15:40:42.135758 13977 layer_factory.hpp:77] Creating layer inception_4a/relu_3x3_reduce
I0403 15:40:42.135778 13977 net.cpp:91] Creating Layer inception_4a/relu_3x3_reduce
I0403 15:40:42.135794 13977 net.cpp:425] inception_4a/relu_3x3_reduce <- inception_4a/3x3_reduce
I0403 15:40:42.135812 13977 net.cpp:386] inception_4a/relu_3x3_reduce -> inception_4a/3x3_reduce (in-place)
I0403 15:40:42.135979 13977 net.cpp:141] Setting up inception_4a/relu_3x3_reduce
I0403 15:40:42.136008 13977 net.cpp:148] Top shape: 24 96 14 14 (451584)
I0403 15:40:42.136024 13977 net.cpp:156] Memory required for data: 865236000
I0403 15:40:42.136039 13977 layer_factory.hpp:77] Creating layer inception_4a/3x3
I0403 15:40:42.136061 13977 net.cpp:91] Creating Layer inception_4a/3x3
I0403 15:40:42.136078 13977 net.cpp:425] inception_4a/3x3 <- inception_4a/3x3_reduce
I0403 15:40:42.136096 13977 net.cpp:399] inception_4a/3x3 -> inception_4a/3x3
I0403 15:40:42.138803 13977 net.cpp:141] Setting up inception_4a/3x3
I0403 15:40:42.138833 13977 net.cpp:148] Top shape: 24 208 14 14 (978432)
I0403 15:40:42.138849 13977 net.cpp:156] Memory required for data: 869149728
I0403 15:40:42.138866 13977 layer_factory.hpp:77] Creating layer inception_4a/relu_3x3
I0403 15:40:42.138885 13977 net.cpp:91] Creating Layer inception_4a/relu_3x3
I0403 15:40:42.138900 13977 net.cpp:425] inception_4a/relu_3x3 <- inception_4a/3x3
I0403 15:40:42.138921 13977 net.cpp:386] inception_4a/relu_3x3 -> inception_4a/3x3 (in-place)
I0403 15:40:42.139205 13977 net.cpp:141] Setting up inception_4a/relu_3x3
I0403 15:40:42.139233 13977 net.cpp:148] Top shape: 24 208 14 14 (978432)
I0403 15:40:42.139248 13977 net.cpp:156] Memory required for data: 873063456
I0403 15:40:42.139262 13977 layer_factory.hpp:77] Creating layer inception_4a/5x5_reduce
I0403 15:40:42.139284 13977 net.cpp:91] Creating Layer inception_4a/5x5_reduce
I0403 15:40:42.139302 13977 net.cpp:425] inception_4a/5x5_reduce <- pool3/3x3_s2_pool3/3x3_s2_0_split_2
I0403 15:40:42.139325 13977 net.cpp:399] inception_4a/5x5_reduce -> inception_4a/5x5_reduce
I0403 15:40:42.140339 13977 net.cpp:141] Setting up inception_4a/5x5_reduce
I0403 15:40:42.140380 13977 net.cpp:148] Top shape: 24 16 14 14 (75264)
I0403 15:40:42.140398 13977 net.cpp:156] Memory required for data: 873364512
I0403 15:40:42.140416 13977 layer_factory.hpp:77] Creating layer inception_4a/relu_5x5_reduce
I0403 15:40:42.140434 13977 net.cpp:91] Creating Layer inception_4a/relu_5x5_reduce
I0403 15:40:42.140450 13977 net.cpp:425] inception_4a/relu_5x5_reduce <- inception_4a/5x5_reduce
I0403 15:40:42.140472 13977 net.cpp:386] inception_4a/relu_5x5_reduce -> inception_4a/5x5_reduce (in-place)
I0403 15:40:42.140671 13977 net.cpp:141] Setting up inception_4a/relu_5x5_reduce
I0403 15:40:42.140696 13977 net.cpp:148] Top shape: 24 16 14 14 (75264)
I0403 15:40:42.140710 13977 net.cpp:156] Memory required for data: 873665568
I0403 15:40:42.140724 13977 layer_factory.hpp:77] Creating layer inception_4a/5x5
I0403 15:40:42.140748 13977 net.cpp:91] Creating Layer inception_4a/5x5
I0403 15:40:42.140764 13977 net.cpp:425] inception_4a/5x5 <- inception_4a/5x5_reduce
I0403 15:40:42.140785 13977 net.cpp:399] inception_4a/5x5 -> inception_4a/5x5
I0403 15:40:42.141860 13977 net.cpp:141] Setting up inception_4a/5x5
I0403 15:40:42.141888 13977 net.cpp:148] Top shape: 24 48 14 14 (225792)
I0403 15:40:42.141903 13977 net.cpp:156] Memory required for data: 874568736
I0403 15:40:42.141922 13977 layer_factory.hpp:77] Creating layer inception_4a/relu_5x5
I0403 15:40:42.141942 13977 net.cpp:91] Creating Layer inception_4a/relu_5x5
I0403 15:40:42.141959 13977 net.cpp:425] inception_4a/relu_5x5 <- inception_4a/5x5
I0403 15:40:42.141976 13977 net.cpp:386] inception_4a/relu_5x5 -> inception_4a/5x5 (in-place)
I0403 15:40:42.142156 13977 net.cpp:141] Setting up inception_4a/relu_5x5
I0403 15:40:42.142185 13977 net.cpp:148] Top shape: 24 48 14 14 (225792)
I0403 15:40:42.142201 13977 net.cpp:156] Memory required for data: 875471904
I0403 15:40:42.142216 13977 layer_factory.hpp:77] Creating layer inception_4a/pool
I0403 15:40:42.142233 13977 net.cpp:91] Creating Layer inception_4a/pool
I0403 15:40:42.142249 13977 net.cpp:425] inception_4a/pool <- pool3/3x3_s2_pool3/3x3_s2_0_split_3
I0403 15:40:42.142266 13977 net.cpp:399] inception_4a/pool -> inception_4a/pool
I0403 15:40:42.142328 13977 net.cpp:141] Setting up inception_4a/pool
I0403 15:40:42.142352 13977 net.cpp:148] Top shape: 24 480 14 14 (2257920)
I0403 15:40:42.142366 13977 net.cpp:156] Memory required for data: 884503584
I0403 15:40:42.142379 13977 layer_factory.hpp:77] Creating layer inception_4a/pool_proj
I0403 15:40:42.142402 13977 net.cpp:91] Creating Layer inception_4a/pool_proj
I0403 15:40:42.142419 13977 net.cpp:425] inception_4a/pool_proj <- inception_4a/pool
I0403 15:40:42.142441 13977 net.cpp:399] inception_4a/pool_proj -> inception_4a/pool_proj
I0403 15:40:42.143609 13977 net.cpp:141] Setting up inception_4a/pool_proj
I0403 15:40:42.143638 13977 net.cpp:148] Top shape: 24 64 14 14 (301056)
I0403 15:40:42.143671 13977 net.cpp:156] Memory required for data: 885707808
I0403 15:40:42.143690 13977 layer_factory.hpp:77] Creating layer inception_4a/relu_pool_proj
I0403 15:40:42.143712 13977 net.cpp:91] Creating Layer inception_4a/relu_pool_proj
I0403 15:40:42.143728 13977 net.cpp:425] inception_4a/relu_pool_proj <- inception_4a/pool_proj
I0403 15:40:42.143748 13977 net.cpp:386] inception_4a/relu_pool_proj -> inception_4a/pool_proj (in-place)
I0403 15:40:42.144028 13977 net.cpp:141] Setting up inception_4a/relu_pool_proj
I0403 15:40:42.144054 13977 net.cpp:148] Top shape: 24 64 14 14 (301056)
I0403 15:40:42.144069 13977 net.cpp:156] Memory required for data: 886912032
I0403 15:40:42.144083 13977 layer_factory.hpp:77] Creating layer inception_4a/output
I0403 15:40:42.144104 13977 net.cpp:91] Creating Layer inception_4a/output
I0403 15:40:42.144119 13977 net.cpp:425] inception_4a/output <- inception_4a/1x1
I0403 15:40:42.144141 13977 net.cpp:425] inception_4a/output <- inception_4a/3x3
I0403 15:40:42.144158 13977 net.cpp:425] inception_4a/output <- inception_4a/5x5
I0403 15:40:42.144173 13977 net.cpp:425] inception_4a/output <- inception_4a/pool_proj
I0403 15:40:42.144189 13977 net.cpp:399] inception_4a/output -> inception_4a/output
I0403 15:40:42.144237 13977 net.cpp:141] Setting up inception_4a/output
I0403 15:40:42.144260 13977 net.cpp:148] Top shape: 24 512 14 14 (2408448)
I0403 15:40:42.144275 13977 net.cpp:156] Memory required for data: 896545824
I0403 15:40:42.144290 13977 layer_factory.hpp:77] Creating layer inception_4a/output_inception_4a/output_0_split
I0403 15:40:42.144306 13977 net.cpp:91] Creating Layer inception_4a/output_inception_4a/output_0_split
I0403 15:40:42.144321 13977 net.cpp:425] inception_4a/output_inception_4a/output_0_split <- inception_4a/output
I0403 15:40:42.144340 13977 net.cpp:399] inception_4a/output_inception_4a/output_0_split -> inception_4a/output_inception_4a/output_0_split_0
I0403 15:40:42.144376 13977 net.cpp:399] inception_4a/output_inception_4a/output_0_split -> inception_4a/output_inception_4a/output_0_split_1
I0403 15:40:42.144397 13977 net.cpp:399] inception_4a/output_inception_4a/output_0_split -> inception_4a/output_inception_4a/output_0_split_2
I0403 15:40:42.144419 13977 net.cpp:399] inception_4a/output_inception_4a/output_0_split -> inception_4a/output_inception_4a/output_0_split_3
I0403 15:40:42.144443 13977 net.cpp:399] inception_4a/output_inception_4a/output_0_split -> inception_4a/output_inception_4a/output_0_split_4
I0403 15:40:42.144536 13977 net.cpp:141] Setting up inception_4a/output_inception_4a/output_0_split
I0403 15:40:42.144562 13977 net.cpp:148] Top shape: 24 512 14 14 (2408448)
I0403 15:40:42.144578 13977 net.cpp:148] Top shape: 24 512 14 14 (2408448)
I0403 15:40:42.144594 13977 net.cpp:148] Top shape: 24 512 14 14 (2408448)
I0403 15:40:42.144610 13977 net.cpp:148] Top shape: 24 512 14 14 (2408448)
I0403 15:40:42.144625 13977 net.cpp:148] Top shape: 24 512 14 14 (2408448)
I0403 15:40:42.144651 13977 net.cpp:156] Memory required for data: 944714784
I0403 15:40:42.144665 13977 layer_factory.hpp:77] Creating layer loss1/ave_pool
I0403 15:40:42.144683 13977 net.cpp:91] Creating Layer loss1/ave_pool
I0403 15:40:42.144698 13977 net.cpp:425] loss1/ave_pool <- inception_4a/output_inception_4a/output_0_split_0
I0403 15:40:42.144718 13977 net.cpp:399] loss1/ave_pool -> loss1/ave_pool
I0403 15:40:42.144922 13977 net.cpp:141] Setting up loss1/ave_pool
I0403 15:40:42.144949 13977 net.cpp:148] Top shape: 24 512 4 4 (196608)
I0403 15:40:42.144964 13977 net.cpp:156] Memory required for data: 945501216
I0403 15:40:42.144979 13977 layer_factory.hpp:77] Creating layer loss1/conv
I0403 15:40:42.145002 13977 net.cpp:91] Creating Layer loss1/conv
I0403 15:40:42.145020 13977 net.cpp:425] loss1/conv <- loss1/ave_pool
I0403 15:40:42.145038 13977 net.cpp:399] loss1/conv -> loss1/conv
I0403 15:40:42.146476 13977 net.cpp:141] Setting up loss1/conv
I0403 15:40:42.146503 13977 net.cpp:148] Top shape: 24 128 4 4 (49152)
I0403 15:40:42.146519 13977 net.cpp:156] Memory required for data: 945697824
I0403 15:40:42.146553 13977 layer_factory.hpp:77] Creating layer loss1/relu_conv
I0403 15:40:42.146572 13977 net.cpp:91] Creating Layer loss1/relu_conv
I0403 15:40:42.146589 13977 net.cpp:425] loss1/relu_conv <- loss1/conv
I0403 15:40:42.146608 13977 net.cpp:386] loss1/relu_conv -> loss1/conv (in-place)
I0403 15:40:42.146886 13977 net.cpp:141] Setting up loss1/relu_conv
I0403 15:40:42.146914 13977 net.cpp:148] Top shape: 24 128 4 4 (49152)
I0403 15:40:42.146929 13977 net.cpp:156] Memory required for data: 945894432
I0403 15:40:42.146944 13977 layer_factory.hpp:77] Creating layer loss1/fc
I0403 15:40:42.146966 13977 net.cpp:91] Creating Layer loss1/fc
I0403 15:40:42.146984 13977 net.cpp:425] loss1/fc <- loss1/conv
I0403 15:40:42.147006 13977 net.cpp:399] loss1/fc -> loss1/fc
I0403 15:40:42.164549 13977 net.cpp:141] Setting up loss1/fc
I0403 15:40:42.164588 13977 net.cpp:148] Top shape: 24 1024 (24576)
I0403 15:40:42.164605 13977 net.cpp:156] Memory required for data: 945992736
I0403 15:40:42.164624 13977 layer_factory.hpp:77] Creating layer loss1/relu_fc
I0403 15:40:42.164654 13977 net.cpp:91] Creating Layer loss1/relu_fc
I0403 15:40:42.164669 13977 net.cpp:425] loss1/relu_fc <- loss1/fc
I0403 15:40:42.164685 13977 net.cpp:386] loss1/relu_fc -> loss1/fc (in-place)
I0403 15:40:42.164865 13977 net.cpp:141] Setting up loss1/relu_fc
I0403 15:40:42.164892 13977 net.cpp:148] Top shape: 24 1024 (24576)
I0403 15:40:42.164907 13977 net.cpp:156] Memory required for data: 946091040
I0403 15:40:42.164921 13977 layer_factory.hpp:77] Creating layer loss1/drop_fc
I0403 15:40:42.164947 13977 net.cpp:91] Creating Layer loss1/drop_fc
I0403 15:40:42.164965 13977 net.cpp:425] loss1/drop_fc <- loss1/fc
I0403 15:40:42.164981 13977 net.cpp:386] loss1/drop_fc -> loss1/fc (in-place)
I0403 15:40:42.165033 13977 net.cpp:141] Setting up loss1/drop_fc
I0403 15:40:42.165056 13977 net.cpp:148] Top shape: 24 1024 (24576)
I0403 15:40:42.165071 13977 net.cpp:156] Memory required for data: 946189344
I0403 15:40:42.165084 13977 layer_factory.hpp:77] Creating layer loss1/classifier_plantvillage
I0403 15:40:42.165105 13977 net.cpp:91] Creating Layer loss1/classifier_plantvillage
I0403 15:40:42.165122 13977 net.cpp:425] loss1/classifier_plantvillage <- loss1/fc
I0403 15:40:42.165143 13977 net.cpp:399] loss1/classifier_plantvillage -> loss1/classifier_plantvillage
I0403 15:40:42.166019 13977 net.cpp:141] Setting up loss1/classifier_plantvillage
I0403 15:40:42.166049 13977 net.cpp:148] Top shape: 24 38 (912)
I0403 15:40:42.166065 13977 net.cpp:156] Memory required for data: 946192992
I0403 15:40:42.166084 13977 layer_factory.hpp:77] Creating layer loss1/classifier_plantvillage_loss1/classifier_plantvillage_0_split
I0403 15:40:42.166101 13977 net.cpp:91] Creating Layer loss1/classifier_plantvillage_loss1/classifier_plantvillage_0_split
I0403 15:40:42.166116 13977 net.cpp:425] loss1/classifier_plantvillage_loss1/classifier_plantvillage_0_split <- loss1/classifier_plantvillage
I0403 15:40:42.166141 13977 net.cpp:399] loss1/classifier_plantvillage_loss1/classifier_plantvillage_0_split -> loss1/classifier_plantvillage_loss1/classifier_plantvillage_0_split_0
I0403 15:40:42.166167 13977 net.cpp:399] loss1/classifier_plantvillage_loss1/classifier_plantvillage_0_split -> loss1/classifier_plantvillage_loss1/classifier_plantvillage_0_split_1
I0403 15:40:42.166188 13977 net.cpp:399] loss1/classifier_plantvillage_loss1/classifier_plantvillage_0_split -> loss1/classifier_plantvillage_loss1/classifier_plantvillage_0_split_2
I0403 15:40:42.166251 13977 net.cpp:141] Setting up loss1/classifier_plantvillage_loss1/classifier_plantvillage_0_split
I0403 15:40:42.166275 13977 net.cpp:148] Top shape: 24 38 (912)
I0403 15:40:42.166290 13977 net.cpp:148] Top shape: 24 38 (912)
I0403 15:40:42.166306 13977 net.cpp:148] Top shape: 24 38 (912)
I0403 15:40:42.166319 13977 net.cpp:156] Memory required for data: 946203936
I0403 15:40:42.166332 13977 layer_factory.hpp:77] Creating layer inception_4b/1x1
I0403 15:40:42.166352 13977 net.cpp:91] Creating Layer inception_4b/1x1
I0403 15:40:42.166385 13977 net.cpp:425] inception_4b/1x1 <- inception_4a/output_inception_4a/output_0_split_1
I0403 15:40:42.166409 13977 net.cpp:399] inception_4b/1x1 -> inception_4b/1x1
I0403 15:40:42.168007 13977 net.cpp:141] Setting up inception_4b/1x1
I0403 15:40:42.168035 13977 net.cpp:148] Top shape: 24 160 14 14 (752640)
I0403 15:40:42.168051 13977 net.cpp:156] Memory required for data: 949214496
I0403 15:40:42.168068 13977 layer_factory.hpp:77] Creating layer inception_4b/relu_1x1
I0403 15:40:42.168087 13977 net.cpp:91] Creating Layer inception_4b/relu_1x1
I0403 15:40:42.168102 13977 net.cpp:425] inception_4b/relu_1x1 <- inception_4b/1x1
I0403 15:40:42.168122 13977 net.cpp:386] inception_4b/relu_1x1 -> inception_4b/1x1 (in-place)
I0403 15:40:42.168301 13977 net.cpp:141] Setting up inception_4b/relu_1x1
I0403 15:40:42.168326 13977 net.cpp:148] Top shape: 24 160 14 14 (752640)
I0403 15:40:42.168339 13977 net.cpp:156] Memory required for data: 952225056
I0403 15:40:42.168366 13977 layer_factory.hpp:77] Creating layer inception_4b/3x3_reduce
I0403 15:40:42.168388 13977 net.cpp:91] Creating Layer inception_4b/3x3_reduce
I0403 15:40:42.168406 13977 net.cpp:425] inception_4b/3x3_reduce <- inception_4a/output_inception_4a/output_0_split_2
I0403 15:40:42.168426 13977 net.cpp:399] inception_4b/3x3_reduce -> inception_4b/3x3_reduce
I0403 15:40:42.169749 13977 net.cpp:141] Setting up inception_4b/3x3_reduce
I0403 15:40:42.169776 13977 net.cpp:148] Top shape: 24 112 14 14 (526848)
I0403 15:40:42.169791 13977 net.cpp:156] Memory required for data: 954332448
I0403 15:40:42.169809 13977 layer_factory.hpp:77] Creating layer inception_4b/relu_3x3_reduce
I0403 15:40:42.169829 13977 net.cpp:91] Creating Layer inception_4b/relu_3x3_reduce
I0403 15:40:42.169847 13977 net.cpp:425] inception_4b/relu_3x3_reduce <- inception_4b/3x3_reduce
I0403 15:40:42.169863 13977 net.cpp:386] inception_4b/relu_3x3_reduce -> inception_4b/3x3_reduce (in-place)
I0403 15:40:42.170138 13977 net.cpp:141] Setting up inception_4b/relu_3x3_reduce
I0403 15:40:42.170164 13977 net.cpp:148] Top shape: 24 112 14 14 (526848)
I0403 15:40:42.170179 13977 net.cpp:156] Memory required for data: 956439840
I0403 15:40:42.170194 13977 layer_factory.hpp:77] Creating layer inception_4b/3x3
I0403 15:40:42.170218 13977 net.cpp:91] Creating Layer inception_4b/3x3
I0403 15:40:42.170236 13977 net.cpp:425] inception_4b/3x3 <- inception_4b/3x3_reduce
I0403 15:40:42.170258 13977 net.cpp:399] inception_4b/3x3 -> inception_4b/3x3
I0403 15:40:42.173195 13977 net.cpp:141] Setting up inception_4b/3x3
I0403 15:40:42.173229 13977 net.cpp:148] Top shape: 24 224 14 14 (1053696)
I0403 15:40:42.173248 13977 net.cpp:156] Memory required for data: 960654624
I0403 15:40:42.173267 13977 layer_factory.hpp:77] Creating layer inception_4b/relu_3x3
I0403 15:40:42.173285 13977 net.cpp:91] Creating Layer inception_4b/relu_3x3
I0403 15:40:42.173302 13977 net.cpp:425] inception_4b/relu_3x3 <- inception_4b/3x3
I0403 15:40:42.173319 13977 net.cpp:386] inception_4b/relu_3x3 -> inception_4b/3x3 (in-place)
I0403 15:40:42.173516 13977 net.cpp:141] Setting up inception_4b/relu_3x3
I0403 15:40:42.173542 13977 net.cpp:148] Top shape: 24 224 14 14 (1053696)
I0403 15:40:42.173558 13977 net.cpp:156] Memory required for data: 964869408
I0403 15:40:42.173573 13977 layer_factory.hpp:77] Creating layer inception_4b/5x5_reduce
I0403 15:40:42.173595 13977 net.cpp:91] Creating Layer inception_4b/5x5_reduce
I0403 15:40:42.173614 13977 net.cpp:425] inception_4b/5x5_reduce <- inception_4a/output_inception_4a/output_0_split_3
I0403 15:40:42.173647 13977 net.cpp:399] inception_4b/5x5_reduce -> inception_4b/5x5_reduce
I0403 15:40:42.174736 13977 net.cpp:141] Setting up inception_4b/5x5_reduce
I0403 15:40:42.174763 13977 net.cpp:148] Top shape: 24 24 14 14 (112896)
I0403 15:40:42.174778 13977 net.cpp:156] Memory required for data: 965320992
I0403 15:40:42.174795 13977 layer_factory.hpp:77] Creating layer inception_4b/relu_5x5_reduce
I0403 15:40:42.174815 13977 net.cpp:91] Creating Layer inception_4b/relu_5x5_reduce
I0403 15:40:42.174846 13977 net.cpp:425] inception_4b/relu_5x5_reduce <- inception_4b/5x5_reduce
I0403 15:40:42.174865 13977 net.cpp:386] inception_4b/relu_5x5_reduce -> inception_4b/5x5_reduce (in-place)
I0403 15:40:42.175041 13977 net.cpp:141] Setting up inception_4b/relu_5x5_reduce
I0403 15:40:42.175066 13977 net.cpp:148] Top shape: 24 24 14 14 (112896)
I0403 15:40:42.175079 13977 net.cpp:156] Memory required for data: 965772576
I0403 15:40:42.175094 13977 layer_factory.hpp:77] Creating layer inception_4b/5x5
I0403 15:40:42.175115 13977 net.cpp:91] Creating Layer inception_4b/5x5
I0403 15:40:42.175137 13977 net.cpp:425] inception_4b/5x5 <- inception_4b/5x5_reduce
I0403 15:40:42.175158 13977 net.cpp:399] inception_4b/5x5 -> inception_4b/5x5
I0403 15:40:42.176364 13977 net.cpp:141] Setting up inception_4b/5x5
I0403 15:40:42.176393 13977 net.cpp:148] Top shape: 24 64 14 14 (301056)
I0403 15:40:42.176409 13977 net.cpp:156] Memory required for data: 966976800
I0403 15:40:42.176426 13977 layer_factory.hpp:77] Creating layer inception_4b/relu_5x5
I0403 15:40:42.176443 13977 net.cpp:91] Creating Layer inception_4b/relu_5x5
I0403 15:40:42.176460 13977 net.cpp:425] inception_4b/relu_5x5 <- inception_4b/5x5
I0403 15:40:42.176478 13977 net.cpp:386] inception_4b/relu_5x5 -> inception_4b/5x5 (in-place)
I0403 15:40:42.176769 13977 net.cpp:141] Setting up inception_4b/relu_5x5
I0403 15:40:42.176795 13977 net.cpp:148] Top shape: 24 64 14 14 (301056)
I0403 15:40:42.176810 13977 net.cpp:156] Memory required for data: 968181024
I0403 15:40:42.176825 13977 layer_factory.hpp:77] Creating layer inception_4b/pool
I0403 15:40:42.176842 13977 net.cpp:91] Creating Layer inception_4b/pool
I0403 15:40:42.176858 13977 net.cpp:425] inception_4b/pool <- inception_4a/output_inception_4a/output_0_split_4
I0403 15:40:42.176880 13977 net.cpp:399] inception_4b/pool -> inception_4b/pool
I0403 15:40:42.176942 13977 net.cpp:141] Setting up inception_4b/pool
I0403 15:40:42.176965 13977 net.cpp:148] Top shape: 24 512 14 14 (2408448)
I0403 15:40:42.176980 13977 net.cpp:156] Memory required for data: 977814816
I0403 15:40:42.176993 13977 layer_factory.hpp:77] Creating layer inception_4b/pool_proj
I0403 15:40:42.177016 13977 net.cpp:91] Creating Layer inception_4b/pool_proj
I0403 15:40:42.177033 13977 net.cpp:425] inception_4b/pool_proj <- inception_4b/pool
I0403 15:40:42.177052 13977 net.cpp:399] inception_4b/pool_proj -> inception_4b/pool_proj
I0403 15:40:42.178248 13977 net.cpp:141] Setting up inception_4b/pool_proj
I0403 15:40:42.178277 13977 net.cpp:148] Top shape: 24 64 14 14 (301056)
I0403 15:40:42.178292 13977 net.cpp:156] Memory required for data: 979019040
I0403 15:40:42.178308 13977 layer_factory.hpp:77] Creating layer inception_4b/relu_pool_proj
I0403 15:40:42.178324 13977 net.cpp:91] Creating Layer inception_4b/relu_pool_proj
I0403 15:40:42.178340 13977 net.cpp:425] inception_4b/relu_pool_proj <- inception_4b/pool_proj
I0403 15:40:42.178359 13977 net.cpp:386] inception_4b/relu_pool_proj -> inception_4b/pool_proj (in-place)
I0403 15:40:42.178551 13977 net.cpp:141] Setting up inception_4b/relu_pool_proj
I0403 15:40:42.178576 13977 net.cpp:148] Top shape: 24 64 14 14 (301056)
I0403 15:40:42.178591 13977 net.cpp:156] Memory required for data: 980223264
I0403 15:40:42.178604 13977 layer_factory.hpp:77] Creating layer inception_4b/output
I0403 15:40:42.178623 13977 net.cpp:91] Creating Layer inception_4b/output
I0403 15:40:42.178639 13977 net.cpp:425] inception_4b/output <- inception_4b/1x1
I0403 15:40:42.178656 13977 net.cpp:425] inception_4b/output <- inception_4b/3x3
I0403 15:40:42.178671 13977 net.cpp:425] inception_4b/output <- inception_4b/5x5
I0403 15:40:42.178688 13977 net.cpp:425] inception_4b/output <- inception_4b/pool_proj
I0403 15:40:42.178704 13977 net.cpp:399] inception_4b/output -> inception_4b/output
I0403 15:40:42.178761 13977 net.cpp:141] Setting up inception_4b/output
I0403 15:40:42.178783 13977 net.cpp:148] Top shape: 24 512 14 14 (2408448)
I0403 15:40:42.178797 13977 net.cpp:156] Memory required for data: 989857056
I0403 15:40:42.178838 13977 layer_factory.hpp:77] Creating layer inception_4b/output_inception_4b/output_0_split
I0403 15:40:42.178855 13977 net.cpp:91] Creating Layer inception_4b/output_inception_4b/output_0_split
I0403 15:40:42.178870 13977 net.cpp:425] inception_4b/output_inception_4b/output_0_split <- inception_4b/output
I0403 15:40:42.178889 13977 net.cpp:399] inception_4b/output_inception_4b/output_0_split -> inception_4b/output_inception_4b/output_0_split_0
I0403 15:40:42.178911 13977 net.cpp:399] inception_4b/output_inception_4b/output_0_split -> inception_4b/output_inception_4b/output_0_split_1
I0403 15:40:42.178932 13977 net.cpp:399] inception_4b/output_inception_4b/output_0_split -> inception_4b/output_inception_4b/output_0_split_2
I0403 15:40:42.178953 13977 net.cpp:399] inception_4b/output_inception_4b/output_0_split -> inception_4b/output_inception_4b/output_0_split_3
I0403 15:40:42.179033 13977 net.cpp:141] Setting up inception_4b/output_inception_4b/output_0_split
I0403 15:40:42.179059 13977 net.cpp:148] Top shape: 24 512 14 14 (2408448)
I0403 15:40:42.179075 13977 net.cpp:148] Top shape: 24 512 14 14 (2408448)
I0403 15:40:42.179090 13977 net.cpp:148] Top shape: 24 512 14 14 (2408448)
I0403 15:40:42.179116 13977 net.cpp:148] Top shape: 24 512 14 14 (2408448)
I0403 15:40:42.179134 13977 net.cpp:156] Memory required for data: 1028392224
I0403 15:40:42.179149 13977 layer_factory.hpp:77] Creating layer inception_4c/1x1
I0403 15:40:42.179170 13977 net.cpp:91] Creating Layer inception_4c/1x1
I0403 15:40:42.179188 13977 net.cpp:425] inception_4c/1x1 <- inception_4b/output_inception_4b/output_0_split_0
I0403 15:40:42.179221 13977 net.cpp:399] inception_4c/1x1 -> inception_4c/1x1
I0403 15:40:42.180682 13977 net.cpp:141] Setting up inception_4c/1x1
I0403 15:40:42.180711 13977 net.cpp:148] Top shape: 24 128 14 14 (602112)
I0403 15:40:42.180726 13977 net.cpp:156] Memory required for data: 1030800672
I0403 15:40:42.180743 13977 layer_factory.hpp:77] Creating layer inception_4c/relu_1x1
I0403 15:40:42.180764 13977 net.cpp:91] Creating Layer inception_4c/relu_1x1
I0403 15:40:42.180783 13977 net.cpp:425] inception_4c/relu_1x1 <- inception_4c/1x1
I0403 15:40:42.180799 13977 net.cpp:386] inception_4c/relu_1x1 -> inception_4c/1x1 (in-place)
I0403 15:40:42.180990 13977 net.cpp:141] Setting up inception_4c/relu_1x1
I0403 15:40:42.181020 13977 net.cpp:148] Top shape: 24 128 14 14 (602112)
I0403 15:40:42.181035 13977 net.cpp:156] Memory required for data: 1033209120
I0403 15:40:42.181047 13977 layer_factory.hpp:77] Creating layer inception_4c/3x3_reduce
I0403 15:40:42.181068 13977 net.cpp:91] Creating Layer inception_4c/3x3_reduce
I0403 15:40:42.181085 13977 net.cpp:425] inception_4c/3x3_reduce <- inception_4b/output_inception_4b/output_0_split_1
I0403 15:40:42.181104 13977 net.cpp:399] inception_4c/3x3_reduce -> inception_4c/3x3_reduce
I0403 15:40:42.183058 13977 net.cpp:141] Setting up inception_4c/3x3_reduce
I0403 15:40:42.183089 13977 net.cpp:148] Top shape: 24 128 14 14 (602112)
I0403 15:40:42.183105 13977 net.cpp:156] Memory required for data: 1035617568
I0403 15:40:42.183123 13977 layer_factory.hpp:77] Creating layer inception_4c/relu_3x3_reduce
I0403 15:40:42.183154 13977 net.cpp:91] Creating Layer inception_4c/relu_3x3_reduce
I0403 15:40:42.183171 13977 net.cpp:425] inception_4c/relu_3x3_reduce <- inception_4c/3x3_reduce
I0403 15:40:42.183192 13977 net.cpp:386] inception_4c/relu_3x3_reduce -> inception_4c/3x3_reduce (in-place)
I0403 15:40:42.183475 13977 net.cpp:141] Setting up inception_4c/relu_3x3_reduce
I0403 15:40:42.183503 13977 net.cpp:148] Top shape: 24 128 14 14 (602112)
I0403 15:40:42.183519 13977 net.cpp:156] Memory required for data: 1038026016
I0403 15:40:42.183533 13977 layer_factory.hpp:77] Creating layer inception_4c/3x3
I0403 15:40:42.183557 13977 net.cpp:91] Creating Layer inception_4c/3x3
I0403 15:40:42.183575 13977 net.cpp:425] inception_4c/3x3 <- inception_4c/3x3_reduce
I0403 15:40:42.183595 13977 net.cpp:399] inception_4c/3x3 -> inception_4c/3x3
I0403 15:40:42.187232 13977 net.cpp:141] Setting up inception_4c/3x3
I0403 15:40:42.187274 13977 net.cpp:148] Top shape: 24 256 14 14 (1204224)
I0403 15:40:42.187290 13977 net.cpp:156] Memory required for data: 1042842912
I0403 15:40:42.187322 13977 layer_factory.hpp:77] Creating layer inception_4c/relu_3x3
I0403 15:40:42.187342 13977 net.cpp:91] Creating Layer inception_4c/relu_3x3
I0403 15:40:42.187358 13977 net.cpp:425] inception_4c/relu_3x3 <- inception_4c/3x3
I0403 15:40:42.187378 13977 net.cpp:386] inception_4c/relu_3x3 -> inception_4c/3x3 (in-place)
I0403 15:40:42.187563 13977 net.cpp:141] Setting up inception_4c/relu_3x3
I0403 15:40:42.187588 13977 net.cpp:148] Top shape: 24 256 14 14 (1204224)
I0403 15:40:42.187603 13977 net.cpp:156] Memory required for data: 1047659808
I0403 15:40:42.187618 13977 layer_factory.hpp:77] Creating layer inception_4c/5x5_reduce
I0403 15:40:42.187640 13977 net.cpp:91] Creating Layer inception_4c/5x5_reduce
I0403 15:40:42.187657 13977 net.cpp:425] inception_4c/5x5_reduce <- inception_4b/output_inception_4b/output_0_split_2
I0403 15:40:42.187680 13977 net.cpp:399] inception_4c/5x5_reduce -> inception_4c/5x5_reduce
I0403 15:40:42.188803 13977 net.cpp:141] Setting up inception_4c/5x5_reduce
I0403 15:40:42.188832 13977 net.cpp:148] Top shape: 24 24 14 14 (112896)
I0403 15:40:42.188846 13977 net.cpp:156] Memory required for data: 1048111392
I0403 15:40:42.188864 13977 layer_factory.hpp:77] Creating layer inception_4c/relu_5x5_reduce
I0403 15:40:42.188884 13977 net.cpp:91] Creating Layer inception_4c/relu_5x5_reduce
I0403 15:40:42.188900 13977 net.cpp:425] inception_4c/relu_5x5_reduce <- inception_4c/5x5_reduce
I0403 15:40:42.188917 13977 net.cpp:386] inception_4c/relu_5x5_reduce -> inception_4c/5x5_reduce (in-place)
I0403 15:40:42.189102 13977 net.cpp:141] Setting up inception_4c/relu_5x5_reduce
I0403 15:40:42.189131 13977 net.cpp:148] Top shape: 24 24 14 14 (112896)
I0403 15:40:42.189147 13977 net.cpp:156] Memory required for data: 1048562976
I0403 15:40:42.189162 13977 layer_factory.hpp:77] Creating layer inception_4c/5x5
I0403 15:40:42.189185 13977 net.cpp:91] Creating Layer inception_4c/5x5
I0403 15:40:42.189206 13977 net.cpp:425] inception_4c/5x5 <- inception_4c/5x5_reduce
I0403 15:40:42.189229 13977 net.cpp:399] inception_4c/5x5 -> inception_4c/5x5
I0403 15:40:42.190465 13977 net.cpp:141] Setting up inception_4c/5x5
I0403 15:40:42.190493 13977 net.cpp:148] Top shape: 24 64 14 14 (301056)
I0403 15:40:42.190508 13977 net.cpp:156] Memory required for data: 1049767200
I0403 15:40:42.190526 13977 layer_factory.hpp:77] Creating layer inception_4c/relu_5x5
I0403 15:40:42.190546 13977 net.cpp:91] Creating Layer inception_4c/relu_5x5
I0403 15:40:42.190563 13977 net.cpp:425] inception_4c/relu_5x5 <- inception_4c/5x5
I0403 15:40:42.190582 13977 net.cpp:386] inception_4c/relu_5x5 -> inception_4c/5x5 (in-place)
I0403 15:40:42.190870 13977 net.cpp:141] Setting up inception_4c/relu_5x5
I0403 15:40:42.190896 13977 net.cpp:148] Top shape: 24 64 14 14 (301056)
I0403 15:40:42.190910 13977 net.cpp:156] Memory required for data: 1050971424
I0403 15:40:42.190925 13977 layer_factory.hpp:77] Creating layer inception_4c/pool
I0403 15:40:42.190945 13977 net.cpp:91] Creating Layer inception_4c/pool
I0403 15:40:42.190960 13977 net.cpp:425] inception_4c/pool <- inception_4b/output_inception_4b/output_0_split_3
I0403 15:40:42.190978 13977 net.cpp:399] inception_4c/pool -> inception_4c/pool
I0403 15:40:42.191043 13977 net.cpp:141] Setting up inception_4c/pool
I0403 15:40:42.191067 13977 net.cpp:148] Top shape: 24 512 14 14 (2408448)
I0403 15:40:42.191082 13977 net.cpp:156] Memory required for data: 1060605216
I0403 15:40:42.191097 13977 layer_factory.hpp:77] Creating layer inception_4c/pool_proj
I0403 15:40:42.191118 13977 net.cpp:91] Creating Layer inception_4c/pool_proj
I0403 15:40:42.191140 13977 net.cpp:425] inception_4c/pool_proj <- inception_4c/pool
I0403 15:40:42.191162 13977 net.cpp:399] inception_4c/pool_proj -> inception_4c/pool_proj
I0403 15:40:42.192397 13977 net.cpp:141] Setting up inception_4c/pool_proj
I0403 15:40:42.192425 13977 net.cpp:148] Top shape: 24 64 14 14 (301056)
I0403 15:40:42.192457 13977 net.cpp:156] Memory required for data: 1061809440
I0403 15:40:42.192477 13977 layer_factory.hpp:77] Creating layer inception_4c/relu_pool_proj
I0403 15:40:42.192495 13977 net.cpp:91] Creating Layer inception_4c/relu_pool_proj
I0403 15:40:42.192512 13977 net.cpp:425] inception_4c/relu_pool_proj <- inception_4c/pool_proj
I0403 15:40:42.192533 13977 net.cpp:386] inception_4c/relu_pool_proj -> inception_4c/pool_proj (in-place)
I0403 15:40:42.192731 13977 net.cpp:141] Setting up inception_4c/relu_pool_proj
I0403 15:40:42.192757 13977 net.cpp:148] Top shape: 24 64 14 14 (301056)
I0403 15:40:42.192771 13977 net.cpp:156] Memory required for data: 1063013664
I0403 15:40:42.192785 13977 layer_factory.hpp:77] Creating layer inception_4c/output
I0403 15:40:42.192806 13977 net.cpp:91] Creating Layer inception_4c/output
I0403 15:40:42.192821 13977 net.cpp:425] inception_4c/output <- inception_4c/1x1
I0403 15:40:42.192837 13977 net.cpp:425] inception_4c/output <- inception_4c/3x3
I0403 15:40:42.192853 13977 net.cpp:425] inception_4c/output <- inception_4c/5x5
I0403 15:40:42.192869 13977 net.cpp:425] inception_4c/output <- inception_4c/pool_proj
I0403 15:40:42.192886 13977 net.cpp:399] inception_4c/output -> inception_4c/output
I0403 15:40:42.192935 13977 net.cpp:141] Setting up inception_4c/output
I0403 15:40:42.192958 13977 net.cpp:148] Top shape: 24 512 14 14 (2408448)
I0403 15:40:42.192972 13977 net.cpp:156] Memory required for data: 1072647456
I0403 15:40:42.192987 13977 layer_factory.hpp:77] Creating layer inception_4c/output_inception_4c/output_0_split
I0403 15:40:42.193003 13977 net.cpp:91] Creating Layer inception_4c/output_inception_4c/output_0_split
I0403 15:40:42.193019 13977 net.cpp:425] inception_4c/output_inception_4c/output_0_split <- inception_4c/output
I0403 15:40:42.193038 13977 net.cpp:399] inception_4c/output_inception_4c/output_0_split -> inception_4c/output_inception_4c/output_0_split_0
I0403 15:40:42.193060 13977 net.cpp:399] inception_4c/output_inception_4c/output_0_split -> inception_4c/output_inception_4c/output_0_split_1
I0403 15:40:42.193080 13977 net.cpp:399] inception_4c/output_inception_4c/output_0_split -> inception_4c/output_inception_4c/output_0_split_2
I0403 15:40:42.193100 13977 net.cpp:399] inception_4c/output_inception_4c/output_0_split -> inception_4c/output_inception_4c/output_0_split_3
I0403 15:40:42.193194 13977 net.cpp:141] Setting up inception_4c/output_inception_4c/output_0_split
I0403 15:40:42.193222 13977 net.cpp:148] Top shape: 24 512 14 14 (2408448)
I0403 15:40:42.193239 13977 net.cpp:148] Top shape: 24 512 14 14 (2408448)
I0403 15:40:42.193254 13977 net.cpp:148] Top shape: 24 512 14 14 (2408448)
I0403 15:40:42.193269 13977 net.cpp:148] Top shape: 24 512 14 14 (2408448)
I0403 15:40:42.193282 13977 net.cpp:156] Memory required for data: 1111182624
I0403 15:40:42.193297 13977 layer_factory.hpp:77] Creating layer inception_4d/1x1
I0403 15:40:42.193320 13977 net.cpp:91] Creating Layer inception_4d/1x1
I0403 15:40:42.193337 13977 net.cpp:425] inception_4d/1x1 <- inception_4c/output_inception_4c/output_0_split_0
I0403 15:40:42.193356 13977 net.cpp:399] inception_4d/1x1 -> inception_4d/1x1
I0403 15:40:42.194739 13977 net.cpp:141] Setting up inception_4d/1x1
I0403 15:40:42.194771 13977 net.cpp:148] Top shape: 24 112 14 14 (526848)
I0403 15:40:42.194787 13977 net.cpp:156] Memory required for data: 1113290016
I0403 15:40:42.194805 13977 layer_factory.hpp:77] Creating layer inception_4d/relu_1x1
I0403 15:40:42.194823 13977 net.cpp:91] Creating Layer inception_4d/relu_1x1
I0403 15:40:42.194839 13977 net.cpp:425] inception_4d/relu_1x1 <- inception_4d/1x1
I0403 15:40:42.194854 13977 net.cpp:386] inception_4d/relu_1x1 -> inception_4d/1x1 (in-place)
I0403 15:40:42.195039 13977 net.cpp:141] Setting up inception_4d/relu_1x1
I0403 15:40:42.195063 13977 net.cpp:148] Top shape: 24 112 14 14 (526848)
I0403 15:40:42.195078 13977 net.cpp:156] Memory required for data: 1115397408
I0403 15:40:42.195092 13977 layer_factory.hpp:77] Creating layer inception_4d/3x3_reduce
I0403 15:40:42.195132 13977 net.cpp:91] Creating Layer inception_4d/3x3_reduce
I0403 15:40:42.195153 13977 net.cpp:425] inception_4d/3x3_reduce <- inception_4c/output_inception_4c/output_0_split_1
I0403 15:40:42.195175 13977 net.cpp:399] inception_4d/3x3_reduce -> inception_4d/3x3_reduce
I0403 15:40:42.196729 13977 net.cpp:141] Setting up inception_4d/3x3_reduce
I0403 15:40:42.196758 13977 net.cpp:148] Top shape: 24 144 14 14 (677376)
I0403 15:40:42.196774 13977 net.cpp:156] Memory required for data: 1118106912
I0403 15:40:42.196792 13977 layer_factory.hpp:77] Creating layer inception_4d/relu_3x3_reduce
I0403 15:40:42.196813 13977 net.cpp:91] Creating Layer inception_4d/relu_3x3_reduce
I0403 15:40:42.196830 13977 net.cpp:425] inception_4d/relu_3x3_reduce <- inception_4d/3x3_reduce
I0403 15:40:42.196846 13977 net.cpp:386] inception_4d/relu_3x3_reduce -> inception_4d/3x3_reduce (in-place)
I0403 15:40:42.197142 13977 net.cpp:141] Setting up inception_4d/relu_3x3_reduce
I0403 15:40:42.197170 13977 net.cpp:148] Top shape: 24 144 14 14 (677376)
I0403 15:40:42.197185 13977 net.cpp:156] Memory required for data: 1120816416
I0403 15:40:42.197201 13977 layer_factory.hpp:77] Creating layer inception_4d/3x3
I0403 15:40:42.197223 13977 net.cpp:91] Creating Layer inception_4d/3x3
I0403 15:40:42.197244 13977 net.cpp:425] inception_4d/3x3 <- inception_4d/3x3_reduce
I0403 15:40:42.197263 13977 net.cpp:399] inception_4d/3x3 -> inception_4d/3x3
I0403 15:40:42.201539 13977 net.cpp:141] Setting up inception_4d/3x3
I0403 15:40:42.201572 13977 net.cpp:148] Top shape: 24 288 14 14 (1354752)
I0403 15:40:42.201588 13977 net.cpp:156] Memory required for data: 1126235424
I0403 15:40:42.201606 13977 layer_factory.hpp:77] Creating layer inception_4d/relu_3x3
I0403 15:40:42.201624 13977 net.cpp:91] Creating Layer inception_4d/relu_3x3
I0403 15:40:42.201640 13977 net.cpp:425] inception_4d/relu_3x3 <- inception_4d/3x3
I0403 15:40:42.201663 13977 net.cpp:386] inception_4d/relu_3x3 -> inception_4d/3x3 (in-place)
I0403 15:40:42.201848 13977 net.cpp:141] Setting up inception_4d/relu_3x3
I0403 15:40:42.201874 13977 net.cpp:148] Top shape: 24 288 14 14 (1354752)
I0403 15:40:42.201887 13977 net.cpp:156] Memory required for data: 1131654432
I0403 15:40:42.201901 13977 layer_factory.hpp:77] Creating layer inception_4d/5x5_reduce
I0403 15:40:42.201922 13977 net.cpp:91] Creating Layer inception_4d/5x5_reduce
I0403 15:40:42.201941 13977 net.cpp:425] inception_4d/5x5_reduce <- inception_4c/output_inception_4c/output_0_split_2
I0403 15:40:42.201961 13977 net.cpp:399] inception_4d/5x5_reduce -> inception_4d/5x5_reduce
I0403 15:40:42.203140 13977 net.cpp:141] Setting up inception_4d/5x5_reduce
I0403 15:40:42.203171 13977 net.cpp:148] Top shape: 24 32 14 14 (150528)
I0403 15:40:42.203186 13977 net.cpp:156] Memory required for data: 1132256544
I0403 15:40:42.203203 13977 layer_factory.hpp:77] Creating layer inception_4d/relu_5x5_reduce
I0403 15:40:42.203222 13977 net.cpp:91] Creating Layer inception_4d/relu_5x5_reduce
I0403 15:40:42.203238 13977 net.cpp:425] inception_4d/relu_5x5_reduce <- inception_4d/5x5_reduce
I0403 15:40:42.203256 13977 net.cpp:386] inception_4d/relu_5x5_reduce -> inception_4d/5x5_reduce (in-place)
I0403 15:40:42.203439 13977 net.cpp:141] Setting up inception_4d/relu_5x5_reduce
I0403 15:40:42.203464 13977 net.cpp:148] Top shape: 24 32 14 14 (150528)
I0403 15:40:42.203479 13977 net.cpp:156] Memory required for data: 1132858656
I0403 15:40:42.203492 13977 layer_factory.hpp:77] Creating layer inception_4d/5x5
I0403 15:40:42.203513 13977 net.cpp:91] Creating Layer inception_4d/5x5
I0403 15:40:42.203529 13977 net.cpp:425] inception_4d/5x5 <- inception_4d/5x5_reduce
I0403 15:40:42.203552 13977 net.cpp:399] inception_4d/5x5 -> inception_4d/5x5
I0403 15:40:42.205011 13977 net.cpp:141] Setting up inception_4d/5x5
I0403 15:40:42.205039 13977 net.cpp:148] Top shape: 24 64 14 14 (301056)
I0403 15:40:42.205054 13977 net.cpp:156] Memory required for data: 1134062880
I0403 15:40:42.205071 13977 layer_factory.hpp:77] Creating layer inception_4d/relu_5x5
I0403 15:40:42.205106 13977 net.cpp:91] Creating Layer inception_4d/relu_5x5
I0403 15:40:42.205123 13977 net.cpp:425] inception_4d/relu_5x5 <- inception_4d/5x5
I0403 15:40:42.205145 13977 net.cpp:386] inception_4d/relu_5x5 -> inception_4d/5x5 (in-place)
I0403 15:40:42.205441 13977 net.cpp:141] Setting up inception_4d/relu_5x5
I0403 15:40:42.205467 13977 net.cpp:148] Top shape: 24 64 14 14 (301056)
I0403 15:40:42.205482 13977 net.cpp:156] Memory required for data: 1135267104
I0403 15:40:42.205497 13977 layer_factory.hpp:77] Creating layer inception_4d/pool
I0403 15:40:42.205515 13977 net.cpp:91] Creating Layer inception_4d/pool
I0403 15:40:42.205534 13977 net.cpp:425] inception_4d/pool <- inception_4c/output_inception_4c/output_0_split_3
I0403 15:40:42.205551 13977 net.cpp:399] inception_4d/pool -> inception_4d/pool
I0403 15:40:42.205616 13977 net.cpp:141] Setting up inception_4d/pool
I0403 15:40:42.205641 13977 net.cpp:148] Top shape: 24 512 14 14 (2408448)
I0403 15:40:42.205653 13977 net.cpp:156] Memory required for data: 1144900896
I0403 15:40:42.205667 13977 layer_factory.hpp:77] Creating layer inception_4d/pool_proj
I0403 15:40:42.205689 13977 net.cpp:91] Creating Layer inception_4d/pool_proj
I0403 15:40:42.205708 13977 net.cpp:425] inception_4d/pool_proj <- inception_4d/pool
I0403 15:40:42.205729 13977 net.cpp:399] inception_4d/pool_proj -> inception_4d/pool_proj
I0403 15:40:42.207442 13977 net.cpp:141] Setting up inception_4d/pool_proj
I0403 15:40:42.207473 13977 net.cpp:148] Top shape: 24 64 14 14 (301056)
I0403 15:40:42.207489 13977 net.cpp:156] Memory required for data: 1146105120
I0403 15:40:42.207507 13977 layer_factory.hpp:77] Creating layer inception_4d/relu_pool_proj
I0403 15:40:42.207525 13977 net.cpp:91] Creating Layer inception_4d/relu_pool_proj
I0403 15:40:42.207541 13977 net.cpp:425] inception_4d/relu_pool_proj <- inception_4d/pool_proj
I0403 15:40:42.207561 13977 net.cpp:386] inception_4d/relu_pool_proj -> inception_4d/pool_proj (in-place)
I0403 15:40:42.207738 13977 net.cpp:141] Setting up inception_4d/relu_pool_proj
I0403 15:40:42.207764 13977 net.cpp:148] Top shape: 24 64 14 14 (301056)
I0403 15:40:42.207778 13977 net.cpp:156] Memory required for data: 1147309344
I0403 15:40:42.207792 13977 layer_factory.hpp:77] Creating layer inception_4d/output
I0403 15:40:42.207808 13977 net.cpp:91] Creating Layer inception_4d/output
I0403 15:40:42.207823 13977 net.cpp:425] inception_4d/output <- inception_4d/1x1
I0403 15:40:42.207839 13977 net.cpp:425] inception_4d/output <- inception_4d/3x3
I0403 15:40:42.207854 13977 net.cpp:425] inception_4d/output <- inception_4d/5x5
I0403 15:40:42.207870 13977 net.cpp:425] inception_4d/output <- inception_4d/pool_proj
I0403 15:40:42.207888 13977 net.cpp:399] inception_4d/output -> inception_4d/output
I0403 15:40:42.207936 13977 net.cpp:141] Setting up inception_4d/output
I0403 15:40:42.207964 13977 net.cpp:148] Top shape: 24 528 14 14 (2483712)
I0403 15:40:42.207979 13977 net.cpp:156] Memory required for data: 1157244192
I0403 15:40:42.207994 13977 layer_factory.hpp:77] Creating layer inception_4d/output_inception_4d/output_0_split
I0403 15:40:42.208011 13977 net.cpp:91] Creating Layer inception_4d/output_inception_4d/output_0_split
I0403 15:40:42.208026 13977 net.cpp:425] inception_4d/output_inception_4d/output_0_split <- inception_4d/output
I0403 15:40:42.208045 13977 net.cpp:399] inception_4d/output_inception_4d/output_0_split -> inception_4d/output_inception_4d/output_0_split_0
I0403 15:40:42.208067 13977 net.cpp:399] inception_4d/output_inception_4d/output_0_split -> inception_4d/output_inception_4d/output_0_split_1
I0403 15:40:42.208087 13977 net.cpp:399] inception_4d/output_inception_4d/output_0_split -> inception_4d/output_inception_4d/output_0_split_2
I0403 15:40:42.208107 13977 net.cpp:399] inception_4d/output_inception_4d/output_0_split -> inception_4d/output_inception_4d/output_0_split_3
I0403 15:40:42.208129 13977 net.cpp:399] inception_4d/output_inception_4d/output_0_split -> inception_4d/output_inception_4d/output_0_split_4
I0403 15:40:42.208230 13977 net.cpp:141] Setting up inception_4d/output_inception_4d/output_0_split
I0403 15:40:42.208267 13977 net.cpp:148] Top shape: 24 528 14 14 (2483712)
I0403 15:40:42.208284 13977 net.cpp:148] Top shape: 24 528 14 14 (2483712)
I0403 15:40:42.208300 13977 net.cpp:148] Top shape: 24 528 14 14 (2483712)
I0403 15:40:42.208315 13977 net.cpp:148] Top shape: 24 528 14 14 (2483712)
I0403 15:40:42.208329 13977 net.cpp:148] Top shape: 24 528 14 14 (2483712)
I0403 15:40:42.208341 13977 net.cpp:156] Memory required for data: 1206918432
I0403 15:40:42.208367 13977 layer_factory.hpp:77] Creating layer loss2/ave_pool
I0403 15:40:42.208385 13977 net.cpp:91] Creating Layer loss2/ave_pool
I0403 15:40:42.208401 13977 net.cpp:425] loss2/ave_pool <- inception_4d/output_inception_4d/output_0_split_0
I0403 15:40:42.208418 13977 net.cpp:399] loss2/ave_pool -> loss2/ave_pool
I0403 15:40:42.208736 13977 net.cpp:141] Setting up loss2/ave_pool
I0403 15:40:42.208765 13977 net.cpp:148] Top shape: 24 528 4 4 (202752)
I0403 15:40:42.208781 13977 net.cpp:156] Memory required for data: 1207729440
I0403 15:40:42.208794 13977 layer_factory.hpp:77] Creating layer loss2/conv
I0403 15:40:42.208816 13977 net.cpp:91] Creating Layer loss2/conv
I0403 15:40:42.208832 13977 net.cpp:425] loss2/conv <- loss2/ave_pool
I0403 15:40:42.208852 13977 net.cpp:399] loss2/conv -> loss2/conv
I0403 15:40:42.210772 13977 net.cpp:141] Setting up loss2/conv
I0403 15:40:42.210800 13977 net.cpp:148] Top shape: 24 128 4 4 (49152)
I0403 15:40:42.210815 13977 net.cpp:156] Memory required for data: 1207926048
I0403 15:40:42.210834 13977 layer_factory.hpp:77] Creating layer loss2/relu_conv
I0403 15:40:42.210853 13977 net.cpp:91] Creating Layer loss2/relu_conv
I0403 15:40:42.210870 13977 net.cpp:425] loss2/relu_conv <- loss2/conv
I0403 15:40:42.210886 13977 net.cpp:386] loss2/relu_conv -> loss2/conv (in-place)
I0403 15:40:42.211174 13977 net.cpp:141] Setting up loss2/relu_conv
I0403 15:40:42.211202 13977 net.cpp:148] Top shape: 24 128 4 4 (49152)
I0403 15:40:42.211216 13977 net.cpp:156] Memory required for data: 1208122656
I0403 15:40:42.211230 13977 layer_factory.hpp:77] Creating layer loss2/fc
I0403 15:40:42.211251 13977 net.cpp:91] Creating Layer loss2/fc
I0403 15:40:42.211268 13977 net.cpp:425] loss2/fc <- loss2/conv
I0403 15:40:42.211285 13977 net.cpp:399] loss2/fc -> loss2/fc
I0403 15:40:42.228696 13977 net.cpp:141] Setting up loss2/fc
I0403 15:40:42.228729 13977 net.cpp:148] Top shape: 24 1024 (24576)
I0403 15:40:42.228744 13977 net.cpp:156] Memory required for data: 1208220960
I0403 15:40:42.228762 13977 layer_factory.hpp:77] Creating layer loss2/relu_fc
I0403 15:40:42.228780 13977 net.cpp:91] Creating Layer loss2/relu_fc
I0403 15:40:42.228796 13977 net.cpp:425] loss2/relu_fc <- loss2/fc
I0403 15:40:42.228816 13977 net.cpp:386] loss2/relu_fc -> loss2/fc (in-place)
I0403 15:40:42.229111 13977 net.cpp:141] Setting up loss2/relu_fc
I0403 15:40:42.229141 13977 net.cpp:148] Top shape: 24 1024 (24576)
I0403 15:40:42.229157 13977 net.cpp:156] Memory required for data: 1208319264
I0403 15:40:42.229171 13977 layer_factory.hpp:77] Creating layer loss2/drop_fc
I0403 15:40:42.229188 13977 net.cpp:91] Creating Layer loss2/drop_fc
I0403 15:40:42.229203 13977 net.cpp:425] loss2/drop_fc <- loss2/fc
I0403 15:40:42.229221 13977 net.cpp:386] loss2/drop_fc -> loss2/fc (in-place)
I0403 15:40:42.229269 13977 net.cpp:141] Setting up loss2/drop_fc
I0403 15:40:42.229295 13977 net.cpp:148] Top shape: 24 1024 (24576)
I0403 15:40:42.229308 13977 net.cpp:156] Memory required for data: 1208417568
I0403 15:40:42.229323 13977 layer_factory.hpp:77] Creating layer loss2/classifier_plantvillage
I0403 15:40:42.229341 13977 net.cpp:91] Creating Layer loss2/classifier_plantvillage
I0403 15:40:42.229357 13977 net.cpp:425] loss2/classifier_plantvillage <- loss2/fc
I0403 15:40:42.229377 13977 net.cpp:399] loss2/classifier_plantvillage -> loss2/classifier_plantvillage
I0403 15:40:42.229769 13977 net.cpp:141] Setting up loss2/classifier_plantvillage
I0403 15:40:42.229794 13977 net.cpp:148] Top shape: 24 38 (912)
I0403 15:40:42.229807 13977 net.cpp:156] Memory required for data: 1208421216
I0403 15:40:42.229842 13977 layer_factory.hpp:77] Creating layer loss2/classifier_plantvillage_loss2/classifier_plantvillage_0_split
I0403 15:40:42.229862 13977 net.cpp:91] Creating Layer loss2/classifier_plantvillage_loss2/classifier_plantvillage_0_split
I0403 15:40:42.229879 13977 net.cpp:425] loss2/classifier_plantvillage_loss2/classifier_plantvillage_0_split <- loss2/classifier_plantvillage
I0403 15:40:42.229897 13977 net.cpp:399] loss2/classifier_plantvillage_loss2/classifier_plantvillage_0_split -> loss2/classifier_plantvillage_loss2/classifier_plantvillage_0_split_0
I0403 15:40:42.229917 13977 net.cpp:399] loss2/classifier_plantvillage_loss2/classifier_plantvillage_0_split -> loss2/classifier_plantvillage_loss2/classifier_plantvillage_0_split_1
I0403 15:40:42.229936 13977 net.cpp:399] loss2/classifier_plantvillage_loss2/classifier_plantvillage_0_split -> loss2/classifier_plantvillage_loss2/classifier_plantvillage_0_split_2
I0403 15:40:42.230017 13977 net.cpp:141] Setting up loss2/classifier_plantvillage_loss2/classifier_plantvillage_0_split
I0403 15:40:42.230041 13977 net.cpp:148] Top shape: 24 38 (912)
I0403 15:40:42.230056 13977 net.cpp:148] Top shape: 24 38 (912)
I0403 15:40:42.230070 13977 net.cpp:148] Top shape: 24 38 (912)
I0403 15:40:42.230083 13977 net.cpp:156] Memory required for data: 1208432160
I0403 15:40:42.230096 13977 layer_factory.hpp:77] Creating layer inception_4e/1x1
I0403 15:40:42.230118 13977 net.cpp:91] Creating Layer inception_4e/1x1
I0403 15:40:42.230139 13977 net.cpp:425] inception_4e/1x1 <- inception_4d/output_inception_4d/output_0_split_1
I0403 15:40:42.230157 13977 net.cpp:399] inception_4e/1x1 -> inception_4e/1x1
I0403 15:40:42.231915 13977 net.cpp:141] Setting up inception_4e/1x1
I0403 15:40:42.231943 13977 net.cpp:148] Top shape: 24 256 14 14 (1204224)
I0403 15:40:42.231958 13977 net.cpp:156] Memory required for data: 1213249056
I0403 15:40:42.231976 13977 layer_factory.hpp:77] Creating layer inception_4e/relu_1x1
I0403 15:40:42.231998 13977 net.cpp:91] Creating Layer inception_4e/relu_1x1
I0403 15:40:42.232015 13977 net.cpp:425] inception_4e/relu_1x1 <- inception_4e/1x1
I0403 15:40:42.232031 13977 net.cpp:386] inception_4e/relu_1x1 -> inception_4e/1x1 (in-place)
I0403 15:40:42.232322 13977 net.cpp:141] Setting up inception_4e/relu_1x1
I0403 15:40:42.232349 13977 net.cpp:148] Top shape: 24 256 14 14 (1204224)
I0403 15:40:42.232377 13977 net.cpp:156] Memory required for data: 1218065952
I0403 15:40:42.232390 13977 layer_factory.hpp:77] Creating layer inception_4e/3x3_reduce
I0403 15:40:42.232414 13977 net.cpp:91] Creating Layer inception_4e/3x3_reduce
I0403 15:40:42.232431 13977 net.cpp:425] inception_4e/3x3_reduce <- inception_4d/output_inception_4d/output_0_split_2
I0403 15:40:42.232453 13977 net.cpp:399] inception_4e/3x3_reduce -> inception_4e/3x3_reduce
I0403 15:40:42.234529 13977 net.cpp:141] Setting up inception_4e/3x3_reduce
I0403 15:40:42.234558 13977 net.cpp:148] Top shape: 24 160 14 14 (752640)
I0403 15:40:42.234575 13977 net.cpp:156] Memory required for data: 1221076512
I0403 15:40:42.234592 13977 layer_factory.hpp:77] Creating layer inception_4e/relu_3x3_reduce
I0403 15:40:42.234609 13977 net.cpp:91] Creating Layer inception_4e/relu_3x3_reduce
I0403 15:40:42.234624 13977 net.cpp:425] inception_4e/relu_3x3_reduce <- inception_4e/3x3_reduce
I0403 15:40:42.234642 13977 net.cpp:386] inception_4e/relu_3x3_reduce -> inception_4e/3x3_reduce (in-place)
I0403 15:40:42.234822 13977 net.cpp:141] Setting up inception_4e/relu_3x3_reduce
I0403 15:40:42.234848 13977 net.cpp:148] Top shape: 24 160 14 14 (752640)
I0403 15:40:42.234863 13977 net.cpp:156] Memory required for data: 1224087072
I0403 15:40:42.234877 13977 layer_factory.hpp:77] Creating layer inception_4e/3x3
I0403 15:40:42.234901 13977 net.cpp:91] Creating Layer inception_4e/3x3
I0403 15:40:42.234920 13977 net.cpp:425] inception_4e/3x3 <- inception_4e/3x3_reduce
I0403 15:40:42.234940 13977 net.cpp:399] inception_4e/3x3 -> inception_4e/3x3
I0403 15:40:42.239856 13977 net.cpp:141] Setting up inception_4e/3x3
I0403 15:40:42.239897 13977 net.cpp:148] Top shape: 24 320 14 14 (1505280)
I0403 15:40:42.239915 13977 net.cpp:156] Memory required for data: 1230108192
I0403 15:40:42.239933 13977 layer_factory.hpp:77] Creating layer inception_4e/relu_3x3
I0403 15:40:42.239953 13977 net.cpp:91] Creating Layer inception_4e/relu_3x3
I0403 15:40:42.239969 13977 net.cpp:425] inception_4e/relu_3x3 <- inception_4e/3x3
I0403 15:40:42.239985 13977 net.cpp:386] inception_4e/relu_3x3 -> inception_4e/3x3 (in-place)
I0403 15:40:42.240289 13977 net.cpp:141] Setting up inception_4e/relu_3x3
I0403 15:40:42.240317 13977 net.cpp:148] Top shape: 24 320 14 14 (1505280)
I0403 15:40:42.240332 13977 net.cpp:156] Memory required for data: 1236129312
I0403 15:40:42.240347 13977 layer_factory.hpp:77] Creating layer inception_4e/5x5_reduce
I0403 15:40:42.240382 13977 net.cpp:91] Creating Layer inception_4e/5x5_reduce
I0403 15:40:42.240399 13977 net.cpp:425] inception_4e/5x5_reduce <- inception_4d/output_inception_4d/output_0_split_3
I0403 15:40:42.240418 13977 net.cpp:399] inception_4e/5x5_reduce -> inception_4e/5x5_reduce
I0403 15:40:42.241525 13977 net.cpp:141] Setting up inception_4e/5x5_reduce
I0403 15:40:42.241555 13977 net.cpp:148] Top shape: 24 32 14 14 (150528)
I0403 15:40:42.241571 13977 net.cpp:156] Memory required for data: 1236731424
I0403 15:40:42.241590 13977 layer_factory.hpp:77] Creating layer inception_4e/relu_5x5_reduce
I0403 15:40:42.241611 13977 net.cpp:91] Creating Layer inception_4e/relu_5x5_reduce
I0403 15:40:42.241627 13977 net.cpp:425] inception_4e/relu_5x5_reduce <- inception_4e/5x5_reduce
I0403 15:40:42.241657 13977 net.cpp:386] inception_4e/relu_5x5_reduce -> inception_4e/5x5_reduce (in-place)
I0403 15:40:42.241951 13977 net.cpp:141] Setting up inception_4e/relu_5x5_reduce
I0403 15:40:42.241978 13977 net.cpp:148] Top shape: 24 32 14 14 (150528)
I0403 15:40:42.241993 13977 net.cpp:156] Memory required for data: 1237333536
I0403 15:40:42.242008 13977 layer_factory.hpp:77] Creating layer inception_4e/5x5
I0403 15:40:42.242048 13977 net.cpp:91] Creating Layer inception_4e/5x5
I0403 15:40:42.242069 13977 net.cpp:425] inception_4e/5x5 <- inception_4e/5x5_reduce
I0403 15:40:42.242087 13977 net.cpp:399] inception_4e/5x5 -> inception_4e/5x5
I0403 15:40:42.243947 13977 net.cpp:141] Setting up inception_4e/5x5
I0403 15:40:42.243978 13977 net.cpp:148] Top shape: 24 128 14 14 (602112)
I0403 15:40:42.243994 13977 net.cpp:156] Memory required for data: 1239741984
I0403 15:40:42.244012 13977 layer_factory.hpp:77] Creating layer inception_4e/relu_5x5
I0403 15:40:42.244030 13977 net.cpp:91] Creating Layer inception_4e/relu_5x5
I0403 15:40:42.244045 13977 net.cpp:425] inception_4e/relu_5x5 <- inception_4e/5x5
I0403 15:40:42.244065 13977 net.cpp:386] inception_4e/relu_5x5 -> inception_4e/5x5 (in-place)
I0403 15:40:42.244266 13977 net.cpp:141] Setting up inception_4e/relu_5x5
I0403 15:40:42.244292 13977 net.cpp:148] Top shape: 24 128 14 14 (602112)
I0403 15:40:42.244307 13977 net.cpp:156] Memory required for data: 1242150432
I0403 15:40:42.244321 13977 layer_factory.hpp:77] Creating layer inception_4e/pool
I0403 15:40:42.244345 13977 net.cpp:91] Creating Layer inception_4e/pool
I0403 15:40:42.244375 13977 net.cpp:425] inception_4e/pool <- inception_4d/output_inception_4d/output_0_split_4
I0403 15:40:42.244393 13977 net.cpp:399] inception_4e/pool -> inception_4e/pool
I0403 15:40:42.244467 13977 net.cpp:141] Setting up inception_4e/pool
I0403 15:40:42.244493 13977 net.cpp:148] Top shape: 24 528 14 14 (2483712)
I0403 15:40:42.244508 13977 net.cpp:156] Memory required for data: 1252085280
I0403 15:40:42.244523 13977 layer_factory.hpp:77] Creating layer inception_4e/pool_proj
I0403 15:40:42.244544 13977 net.cpp:91] Creating Layer inception_4e/pool_proj
I0403 15:40:42.244562 13977 net.cpp:425] inception_4e/pool_proj <- inception_4e/pool
I0403 15:40:42.244585 13977 net.cpp:399] inception_4e/pool_proj -> inception_4e/pool_proj
I0403 15:40:42.246093 13977 net.cpp:141] Setting up inception_4e/pool_proj
I0403 15:40:42.246122 13977 net.cpp:148] Top shape: 24 128 14 14 (602112)
I0403 15:40:42.246157 13977 net.cpp:156] Memory required for data: 1254493728
I0403 15:40:42.246177 13977 layer_factory.hpp:77] Creating layer inception_4e/relu_pool_proj
I0403 15:40:42.246198 13977 net.cpp:91] Creating Layer inception_4e/relu_pool_proj
I0403 15:40:42.246215 13977 net.cpp:425] inception_4e/relu_pool_proj <- inception_4e/pool_proj
I0403 15:40:42.246235 13977 net.cpp:386] inception_4e/relu_pool_proj -> inception_4e/pool_proj (in-place)
I0403 15:40:42.246529 13977 net.cpp:141] Setting up inception_4e/relu_pool_proj
I0403 15:40:42.246558 13977 net.cpp:148] Top shape: 24 128 14 14 (602112)
I0403 15:40:42.246574 13977 net.cpp:156] Memory required for data: 1256902176
I0403 15:40:42.246589 13977 layer_factory.hpp:77] Creating layer inception_4e/output
I0403 15:40:42.246606 13977 net.cpp:91] Creating Layer inception_4e/output
I0403 15:40:42.246623 13977 net.cpp:425] inception_4e/output <- inception_4e/1x1
I0403 15:40:42.246639 13977 net.cpp:425] inception_4e/output <- inception_4e/3x3
I0403 15:40:42.246655 13977 net.cpp:425] inception_4e/output <- inception_4e/5x5
I0403 15:40:42.246671 13977 net.cpp:425] inception_4e/output <- inception_4e/pool_proj
I0403 15:40:42.246690 13977 net.cpp:399] inception_4e/output -> inception_4e/output
I0403 15:40:42.246739 13977 net.cpp:141] Setting up inception_4e/output
I0403 15:40:42.246763 13977 net.cpp:148] Top shape: 24 832 14 14 (3913728)
I0403 15:40:42.246778 13977 net.cpp:156] Memory required for data: 1272557088
I0403 15:40:42.246791 13977 layer_factory.hpp:77] Creating layer pool4/3x3_s2
I0403 15:40:42.246811 13977 net.cpp:91] Creating Layer pool4/3x3_s2
I0403 15:40:42.246827 13977 net.cpp:425] pool4/3x3_s2 <- inception_4e/output
I0403 15:40:42.246846 13977 net.cpp:399] pool4/3x3_s2 -> pool4/3x3_s2
I0403 15:40:42.246914 13977 net.cpp:141] Setting up pool4/3x3_s2
I0403 15:40:42.246938 13977 net.cpp:148] Top shape: 24 832 7 7 (978432)
I0403 15:40:42.246953 13977 net.cpp:156] Memory required for data: 1276470816
I0403 15:40:42.246966 13977 layer_factory.hpp:77] Creating layer pool4/3x3_s2_pool4/3x3_s2_0_split
I0403 15:40:42.246984 13977 net.cpp:91] Creating Layer pool4/3x3_s2_pool4/3x3_s2_0_split
I0403 15:40:42.246999 13977 net.cpp:425] pool4/3x3_s2_pool4/3x3_s2_0_split <- pool4/3x3_s2
I0403 15:40:42.247019 13977 net.cpp:399] pool4/3x3_s2_pool4/3x3_s2_0_split -> pool4/3x3_s2_pool4/3x3_s2_0_split_0
I0403 15:40:42.247040 13977 net.cpp:399] pool4/3x3_s2_pool4/3x3_s2_0_split -> pool4/3x3_s2_pool4/3x3_s2_0_split_1
I0403 15:40:42.247061 13977 net.cpp:399] pool4/3x3_s2_pool4/3x3_s2_0_split -> pool4/3x3_s2_pool4/3x3_s2_0_split_2
I0403 15:40:42.247081 13977 net.cpp:399] pool4/3x3_s2_pool4/3x3_s2_0_split -> pool4/3x3_s2_pool4/3x3_s2_0_split_3
I0403 15:40:42.247176 13977 net.cpp:141] Setting up pool4/3x3_s2_pool4/3x3_s2_0_split
I0403 15:40:42.247202 13977 net.cpp:148] Top shape: 24 832 7 7 (978432)
I0403 15:40:42.247218 13977 net.cpp:148] Top shape: 24 832 7 7 (978432)
I0403 15:40:42.247233 13977 net.cpp:148] Top shape: 24 832 7 7 (978432)
I0403 15:40:42.247248 13977 net.cpp:148] Top shape: 24 832 7 7 (978432)
I0403 15:40:42.247262 13977 net.cpp:156] Memory required for data: 1292125728
I0403 15:40:42.247275 13977 layer_factory.hpp:77] Creating layer inception_5a/1x1
I0403 15:40:42.247298 13977 net.cpp:91] Creating Layer inception_5a/1x1
I0403 15:40:42.247315 13977 net.cpp:425] inception_5a/1x1 <- pool4/3x3_s2_pool4/3x3_s2_0_split_0
I0403 15:40:42.247337 13977 net.cpp:399] inception_5a/1x1 -> inception_5a/1x1
I0403 15:40:42.250221 13977 net.cpp:141] Setting up inception_5a/1x1
I0403 15:40:42.250252 13977 net.cpp:148] Top shape: 24 256 7 7 (301056)
I0403 15:40:42.250267 13977 net.cpp:156] Memory required for data: 1293329952
I0403 15:40:42.250285 13977 layer_factory.hpp:77] Creating layer inception_5a/relu_1x1
I0403 15:40:42.250303 13977 net.cpp:91] Creating Layer inception_5a/relu_1x1
I0403 15:40:42.250319 13977 net.cpp:425] inception_5a/relu_1x1 <- inception_5a/1x1
I0403 15:40:42.250339 13977 net.cpp:386] inception_5a/relu_1x1 -> inception_5a/1x1 (in-place)
I0403 15:40:42.250658 13977 net.cpp:141] Setting up inception_5a/relu_1x1
I0403 15:40:42.250684 13977 net.cpp:148] Top shape: 24 256 7 7 (301056)
I0403 15:40:42.250699 13977 net.cpp:156] Memory required for data: 1294534176
I0403 15:40:42.250715 13977 layer_factory.hpp:77] Creating layer inception_5a/3x3_reduce
I0403 15:40:42.250736 13977 net.cpp:91] Creating Layer inception_5a/3x3_reduce
I0403 15:40:42.250754 13977 net.cpp:425] inception_5a/3x3_reduce <- pool4/3x3_s2_pool4/3x3_s2_0_split_1
I0403 15:40:42.250777 13977 net.cpp:399] inception_5a/3x3_reduce -> inception_5a/3x3_reduce
I0403 15:40:42.253309 13977 net.cpp:141] Setting up inception_5a/3x3_reduce
I0403 15:40:42.253342 13977 net.cpp:148] Top shape: 24 160 7 7 (188160)
I0403 15:40:42.253360 13977 net.cpp:156] Memory required for data: 1295286816
I0403 15:40:42.253377 13977 layer_factory.hpp:77] Creating layer inception_5a/relu_3x3_reduce
I0403 15:40:42.253396 13977 net.cpp:91] Creating Layer inception_5a/relu_3x3_reduce
I0403 15:40:42.253412 13977 net.cpp:425] inception_5a/relu_3x3_reduce <- inception_5a/3x3_reduce
I0403 15:40:42.253432 13977 net.cpp:386] inception_5a/relu_3x3_reduce -> inception_5a/3x3_reduce (in-place)
I0403 15:40:42.253621 13977 net.cpp:141] Setting up inception_5a/relu_3x3_reduce
I0403 15:40:42.253648 13977 net.cpp:148] Top shape: 24 160 7 7 (188160)
I0403 15:40:42.253661 13977 net.cpp:156] Memory required for data: 1296039456
I0403 15:40:42.253676 13977 layer_factory.hpp:77] Creating layer inception_5a/3x3
I0403 15:40:42.253698 13977 net.cpp:91] Creating Layer inception_5a/3x3
I0403 15:40:42.253715 13977 net.cpp:425] inception_5a/3x3 <- inception_5a/3x3_reduce
I0403 15:40:42.253738 13977 net.cpp:399] inception_5a/3x3 -> inception_5a/3x3
I0403 15:40:42.258807 13977 net.cpp:141] Setting up inception_5a/3x3
I0403 15:40:42.258838 13977 net.cpp:148] Top shape: 24 320 7 7 (376320)
I0403 15:40:42.258854 13977 net.cpp:156] Memory required for data: 1297544736
I0403 15:40:42.258872 13977 layer_factory.hpp:77] Creating layer inception_5a/relu_3x3
I0403 15:40:42.258889 13977 net.cpp:91] Creating Layer inception_5a/relu_3x3
I0403 15:40:42.258909 13977 net.cpp:425] inception_5a/relu_3x3 <- inception_5a/3x3
I0403 15:40:42.258929 13977 net.cpp:386] inception_5a/relu_3x3 -> inception_5a/3x3 (in-place)
I0403 15:40:42.259263 13977 net.cpp:141] Setting up inception_5a/relu_3x3
I0403 15:40:42.259289 13977 net.cpp:148] Top shape: 24 320 7 7 (376320)
I0403 15:40:42.259312 13977 net.cpp:156] Memory required for data: 1299050016
I0403 15:40:42.259327 13977 layer_factory.hpp:77] Creating layer inception_5a/5x5_reduce
I0403 15:40:42.259351 13977 net.cpp:91] Creating Layer inception_5a/5x5_reduce
I0403 15:40:42.259369 13977 net.cpp:425] inception_5a/5x5_reduce <- pool4/3x3_s2_pool4/3x3_s2_0_split_2
I0403 15:40:42.259390 13977 net.cpp:399] inception_5a/5x5_reduce -> inception_5a/5x5_reduce
I0403 15:40:42.260567 13977 net.cpp:141] Setting up inception_5a/5x5_reduce
I0403 15:40:42.260596 13977 net.cpp:148] Top shape: 24 32 7 7 (37632)
I0403 15:40:42.260612 13977 net.cpp:156] Memory required for data: 1299200544
I0403 15:40:42.260630 13977 layer_factory.hpp:77] Creating layer inception_5a/relu_5x5_reduce
I0403 15:40:42.260661 13977 net.cpp:91] Creating Layer inception_5a/relu_5x5_reduce
I0403 15:40:42.260678 13977 net.cpp:425] inception_5a/relu_5x5_reduce <- inception_5a/5x5_reduce
I0403 15:40:42.260695 13977 net.cpp:386] inception_5a/relu_5x5_reduce -> inception_5a/5x5_reduce (in-place)
I0403 15:40:42.260983 13977 net.cpp:141] Setting up inception_5a/relu_5x5_reduce
I0403 15:40:42.261009 13977 net.cpp:148] Top shape: 24 32 7 7 (37632)
I0403 15:40:42.261023 13977 net.cpp:156] Memory required for data: 1299351072
I0403 15:40:42.261039 13977 layer_factory.hpp:77] Creating layer inception_5a/5x5
I0403 15:40:42.261060 13977 net.cpp:91] Creating Layer inception_5a/5x5
I0403 15:40:42.261077 13977 net.cpp:425] inception_5a/5x5 <- inception_5a/5x5_reduce
I0403 15:40:42.261097 13977 net.cpp:399] inception_5a/5x5 -> inception_5a/5x5
I0403 15:40:42.262774 13977 net.cpp:141] Setting up inception_5a/5x5
I0403 15:40:42.262814 13977 net.cpp:148] Top shape: 24 128 7 7 (150528)
I0403 15:40:42.262830 13977 net.cpp:156] Memory required for data: 1299953184
I0403 15:40:42.262848 13977 layer_factory.hpp:77] Creating layer inception_5a/relu_5x5
I0403 15:40:42.262866 13977 net.cpp:91] Creating Layer inception_5a/relu_5x5
I0403 15:40:42.262881 13977 net.cpp:425] inception_5a/relu_5x5 <- inception_5a/5x5
I0403 15:40:42.262899 13977 net.cpp:386] inception_5a/relu_5x5 -> inception_5a/5x5 (in-place)
I0403 15:40:42.263087 13977 net.cpp:141] Setting up inception_5a/relu_5x5
I0403 15:40:42.263110 13977 net.cpp:148] Top shape: 24 128 7 7 (150528)
I0403 15:40:42.263134 13977 net.cpp:156] Memory required for data: 1300555296
I0403 15:40:42.263151 13977 layer_factory.hpp:77] Creating layer inception_5a/pool
I0403 15:40:42.263171 13977 net.cpp:91] Creating Layer inception_5a/pool
I0403 15:40:42.263186 13977 net.cpp:425] inception_5a/pool <- pool4/3x3_s2_pool4/3x3_s2_0_split_3
I0403 15:40:42.263205 13977 net.cpp:399] inception_5a/pool -> inception_5a/pool
I0403 15:40:42.263274 13977 net.cpp:141] Setting up inception_5a/pool
I0403 15:40:42.263299 13977 net.cpp:148] Top shape: 24 832 7 7 (978432)
I0403 15:40:42.263312 13977 net.cpp:156] Memory required for data: 1304469024
I0403 15:40:42.263326 13977 layer_factory.hpp:77] Creating layer inception_5a/pool_proj
I0403 15:40:42.263347 13977 net.cpp:91] Creating Layer inception_5a/pool_proj
I0403 15:40:42.263365 13977 net.cpp:425] inception_5a/pool_proj <- inception_5a/pool
I0403 15:40:42.263386 13977 net.cpp:399] inception_5a/pool_proj -> inception_5a/pool_proj
I0403 15:40:42.265661 13977 net.cpp:141] Setting up inception_5a/pool_proj
I0403 15:40:42.265691 13977 net.cpp:148] Top shape: 24 128 7 7 (150528)
I0403 15:40:42.265707 13977 net.cpp:156] Memory required for data: 1305071136
I0403 15:40:42.265723 13977 layer_factory.hpp:77] Creating layer inception_5a/relu_pool_proj
I0403 15:40:42.265741 13977 net.cpp:91] Creating Layer inception_5a/relu_pool_proj
I0403 15:40:42.265758 13977 net.cpp:425] inception_5a/relu_pool_proj <- inception_5a/pool_proj
I0403 15:40:42.265776 13977 net.cpp:386] inception_5a/relu_pool_proj -> inception_5a/pool_proj (in-place)
I0403 15:40:42.266065 13977 net.cpp:141] Setting up inception_5a/relu_pool_proj
I0403 15:40:42.266091 13977 net.cpp:148] Top shape: 24 128 7 7 (150528)
I0403 15:40:42.266106 13977 net.cpp:156] Memory required for data: 1305673248
I0403 15:40:42.266119 13977 layer_factory.hpp:77] Creating layer inception_5a/output
I0403 15:40:42.266142 13977 net.cpp:91] Creating Layer inception_5a/output
I0403 15:40:42.266158 13977 net.cpp:425] inception_5a/output <- inception_5a/1x1
I0403 15:40:42.266175 13977 net.cpp:425] inception_5a/output <- inception_5a/3x3
I0403 15:40:42.266191 13977 net.cpp:425] inception_5a/output <- inception_5a/5x5
I0403 15:40:42.266206 13977 net.cpp:425] inception_5a/output <- inception_5a/pool_proj
I0403 15:40:42.266222 13977 net.cpp:399] inception_5a/output -> inception_5a/output
I0403 15:40:42.266273 13977 net.cpp:141] Setting up inception_5a/output
I0403 15:40:42.266297 13977 net.cpp:148] Top shape: 24 832 7 7 (978432)
I0403 15:40:42.266311 13977 net.cpp:156] Memory required for data: 1309586976
I0403 15:40:42.266325 13977 layer_factory.hpp:77] Creating layer inception_5a/output_inception_5a/output_0_split
I0403 15:40:42.266345 13977 net.cpp:91] Creating Layer inception_5a/output_inception_5a/output_0_split
I0403 15:40:42.266358 13977 net.cpp:425] inception_5a/output_inception_5a/output_0_split <- inception_5a/output
I0403 15:40:42.266376 13977 net.cpp:399] inception_5a/output_inception_5a/output_0_split -> inception_5a/output_inception_5a/output_0_split_0
I0403 15:40:42.266396 13977 net.cpp:399] inception_5a/output_inception_5a/output_0_split -> inception_5a/output_inception_5a/output_0_split_1
I0403 15:40:42.266415 13977 net.cpp:399] inception_5a/output_inception_5a/output_0_split -> inception_5a/output_inception_5a/output_0_split_2
I0403 15:40:42.266438 13977 net.cpp:399] inception_5a/output_inception_5a/output_0_split -> inception_5a/output_inception_5a/output_0_split_3
I0403 15:40:42.266551 13977 net.cpp:141] Setting up inception_5a/output_inception_5a/output_0_split
I0403 15:40:42.266574 13977 net.cpp:148] Top shape: 24 832 7 7 (978432)
I0403 15:40:42.266590 13977 net.cpp:148] Top shape: 24 832 7 7 (978432)
I0403 15:40:42.266605 13977 net.cpp:148] Top shape: 24 832 7 7 (978432)
I0403 15:40:42.266620 13977 net.cpp:148] Top shape: 24 832 7 7 (978432)
I0403 15:40:42.266633 13977 net.cpp:156] Memory required for data: 1325241888
I0403 15:40:42.266647 13977 layer_factory.hpp:77] Creating layer inception_5b/1x1
I0403 15:40:42.266669 13977 net.cpp:91] Creating Layer inception_5b/1x1
I0403 15:40:42.266685 13977 net.cpp:425] inception_5b/1x1 <- inception_5a/output_inception_5a/output_0_split_0
I0403 15:40:42.266706 13977 net.cpp:399] inception_5b/1x1 -> inception_5b/1x1
I0403 15:40:42.270448 13977 net.cpp:141] Setting up inception_5b/1x1
I0403 15:40:42.270480 13977 net.cpp:148] Top shape: 24 384 7 7 (451584)
I0403 15:40:42.270496 13977 net.cpp:156] Memory required for data: 1327048224
I0403 15:40:42.270514 13977 layer_factory.hpp:77] Creating layer inception_5b/relu_1x1
I0403 15:40:42.270531 13977 net.cpp:91] Creating Layer inception_5b/relu_1x1
I0403 15:40:42.270546 13977 net.cpp:425] inception_5b/relu_1x1 <- inception_5b/1x1
I0403 15:40:42.270565 13977 net.cpp:386] inception_5b/relu_1x1 -> inception_5b/1x1 (in-place)
I0403 15:40:42.270865 13977 net.cpp:141] Setting up inception_5b/relu_1x1
I0403 15:40:42.270895 13977 net.cpp:148] Top shape: 24 384 7 7 (451584)
I0403 15:40:42.270910 13977 net.cpp:156] Memory required for data: 1328854560
I0403 15:40:42.270925 13977 layer_factory.hpp:77] Creating layer inception_5b/3x3_reduce
I0403 15:40:42.270946 13977 net.cpp:91] Creating Layer inception_5b/3x3_reduce
I0403 15:40:42.270963 13977 net.cpp:425] inception_5b/3x3_reduce <- inception_5a/output_inception_5a/output_0_split_1
I0403 15:40:42.270982 13977 net.cpp:399] inception_5b/3x3_reduce -> inception_5b/3x3_reduce
I0403 15:40:42.273692 13977 net.cpp:141] Setting up inception_5b/3x3_reduce
I0403 15:40:42.273725 13977 net.cpp:148] Top shape: 24 192 7 7 (225792)
I0403 15:40:42.273741 13977 net.cpp:156] Memory required for data: 1329757728
I0403 15:40:42.273758 13977 layer_factory.hpp:77] Creating layer inception_5b/relu_3x3_reduce
I0403 15:40:42.273775 13977 net.cpp:91] Creating Layer inception_5b/relu_3x3_reduce
I0403 15:40:42.273790 13977 net.cpp:425] inception_5b/relu_3x3_reduce <- inception_5b/3x3_reduce
I0403 15:40:42.273811 13977 net.cpp:386] inception_5b/relu_3x3_reduce -> inception_5b/3x3_reduce (in-place)
I0403 15:40:42.273998 13977 net.cpp:141] Setting up inception_5b/relu_3x3_reduce
I0403 15:40:42.274024 13977 net.cpp:148] Top shape: 24 192 7 7 (225792)
I0403 15:40:42.274037 13977 net.cpp:156] Memory required for data: 1330660896
I0403 15:40:42.274051 13977 layer_factory.hpp:77] Creating layer inception_5b/3x3
I0403 15:40:42.274073 13977 net.cpp:91] Creating Layer inception_5b/3x3
I0403 15:40:42.274091 13977 net.cpp:425] inception_5b/3x3 <- inception_5b/3x3_reduce
I0403 15:40:42.274111 13977 net.cpp:399] inception_5b/3x3 -> inception_5b/3x3
I0403 15:40:42.280710 13977 net.cpp:141] Setting up inception_5b/3x3
I0403 15:40:42.280740 13977 net.cpp:148] Top shape: 24 384 7 7 (451584)
I0403 15:40:42.280755 13977 net.cpp:156] Memory required for data: 1332467232
I0403 15:40:42.280773 13977 layer_factory.hpp:77] Creating layer inception_5b/relu_3x3
I0403 15:40:42.280792 13977 net.cpp:91] Creating Layer inception_5b/relu_3x3
I0403 15:40:42.280808 13977 net.cpp:425] inception_5b/relu_3x3 <- inception_5b/3x3
I0403 15:40:42.280827 13977 net.cpp:386] inception_5b/relu_3x3 -> inception_5b/3x3 (in-place)
I0403 15:40:42.281118 13977 net.cpp:141] Setting up inception_5b/relu_3x3
I0403 15:40:42.281148 13977 net.cpp:148] Top shape: 24 384 7 7 (451584)
I0403 15:40:42.281163 13977 net.cpp:156] Memory required for data: 1334273568
I0403 15:40:42.281177 13977 layer_factory.hpp:77] Creating layer inception_5b/5x5_reduce
I0403 15:40:42.281215 13977 net.cpp:91] Creating Layer inception_5b/5x5_reduce
I0403 15:40:42.281235 13977 net.cpp:425] inception_5b/5x5_reduce <- inception_5a/output_inception_5a/output_0_split_2
I0403 15:40:42.281255 13977 net.cpp:399] inception_5b/5x5_reduce -> inception_5b/5x5_reduce
I0403 15:40:42.282491 13977 net.cpp:141] Setting up inception_5b/5x5_reduce
I0403 15:40:42.282521 13977 net.cpp:148] Top shape: 24 48 7 7 (56448)
I0403 15:40:42.282537 13977 net.cpp:156] Memory required for data: 1334499360
I0403 15:40:42.282554 13977 layer_factory.hpp:77] Creating layer inception_5b/relu_5x5_reduce
I0403 15:40:42.282572 13977 net.cpp:91] Creating Layer inception_5b/relu_5x5_reduce
I0403 15:40:42.282588 13977 net.cpp:425] inception_5b/relu_5x5_reduce <- inception_5b/5x5_reduce
I0403 15:40:42.282608 13977 net.cpp:386] inception_5b/relu_5x5_reduce -> inception_5b/5x5_reduce (in-place)
I0403 15:40:42.282973 13977 net.cpp:141] Setting up inception_5b/relu_5x5_reduce
I0403 15:40:42.282999 13977 net.cpp:148] Top shape: 24 48 7 7 (56448)
I0403 15:40:42.283013 13977 net.cpp:156] Memory required for data: 1334725152
I0403 15:40:42.283027 13977 layer_factory.hpp:77] Creating layer inception_5b/5x5
I0403 15:40:42.283046 13977 net.cpp:91] Creating Layer inception_5b/5x5
I0403 15:40:42.283063 13977 net.cpp:425] inception_5b/5x5 <- inception_5b/5x5_reduce
I0403 15:40:42.283082 13977 net.cpp:399] inception_5b/5x5 -> inception_5b/5x5
I0403 15:40:42.285120 13977 net.cpp:141] Setting up inception_5b/5x5
I0403 15:40:42.285152 13977 net.cpp:148] Top shape: 24 128 7 7 (150528)
I0403 15:40:42.285166 13977 net.cpp:156] Memory required for data: 1335327264
I0403 15:40:42.285184 13977 layer_factory.hpp:77] Creating layer inception_5b/relu_5x5
I0403 15:40:42.285203 13977 net.cpp:91] Creating Layer inception_5b/relu_5x5
I0403 15:40:42.285219 13977 net.cpp:425] inception_5b/relu_5x5 <- inception_5b/5x5
I0403 15:40:42.285238 13977 net.cpp:386] inception_5b/relu_5x5 -> inception_5b/5x5 (in-place)
I0403 15:40:42.285429 13977 net.cpp:141] Setting up inception_5b/relu_5x5
I0403 15:40:42.285454 13977 net.cpp:148] Top shape: 24 128 7 7 (150528)
I0403 15:40:42.285468 13977 net.cpp:156] Memory required for data: 1335929376
I0403 15:40:42.285482 13977 layer_factory.hpp:77] Creating layer inception_5b/pool
I0403 15:40:42.285502 13977 net.cpp:91] Creating Layer inception_5b/pool
I0403 15:40:42.285518 13977 net.cpp:425] inception_5b/pool <- inception_5a/output_inception_5a/output_0_split_3
I0403 15:40:42.285536 13977 net.cpp:399] inception_5b/pool -> inception_5b/pool
I0403 15:40:42.285606 13977 net.cpp:141] Setting up inception_5b/pool
I0403 15:40:42.285630 13977 net.cpp:148] Top shape: 24 832 7 7 (978432)
I0403 15:40:42.285645 13977 net.cpp:156] Memory required for data: 1339843104
I0403 15:40:42.285660 13977 layer_factory.hpp:77] Creating layer inception_5b/pool_proj
I0403 15:40:42.285681 13977 net.cpp:91] Creating Layer inception_5b/pool_proj
I0403 15:40:42.285699 13977 net.cpp:425] inception_5b/pool_proj <- inception_5b/pool
I0403 15:40:42.285719 13977 net.cpp:399] inception_5b/pool_proj -> inception_5b/pool_proj
I0403 15:40:42.288009 13977 net.cpp:141] Setting up inception_5b/pool_proj
I0403 15:40:42.288040 13977 net.cpp:148] Top shape: 24 128 7 7 (150528)
I0403 15:40:42.288058 13977 net.cpp:156] Memory required for data: 1340445216
I0403 15:40:42.288074 13977 layer_factory.hpp:77] Creating layer inception_5b/relu_pool_proj
I0403 15:40:42.288092 13977 net.cpp:91] Creating Layer inception_5b/relu_pool_proj
I0403 15:40:42.288110 13977 net.cpp:425] inception_5b/relu_pool_proj <- inception_5b/pool_proj
I0403 15:40:42.288132 13977 net.cpp:386] inception_5b/relu_pool_proj -> inception_5b/pool_proj (in-place)
I0403 15:40:42.288439 13977 net.cpp:141] Setting up inception_5b/relu_pool_proj
I0403 15:40:42.288467 13977 net.cpp:148] Top shape: 24 128 7 7 (150528)
I0403 15:40:42.288483 13977 net.cpp:156] Memory required for data: 1341047328
I0403 15:40:42.288498 13977 layer_factory.hpp:77] Creating layer inception_5b/output
I0403 15:40:42.288516 13977 net.cpp:91] Creating Layer inception_5b/output
I0403 15:40:42.288547 13977 net.cpp:425] inception_5b/output <- inception_5b/1x1
I0403 15:40:42.288564 13977 net.cpp:425] inception_5b/output <- inception_5b/3x3
I0403 15:40:42.288580 13977 net.cpp:425] inception_5b/output <- inception_5b/5x5
I0403 15:40:42.288595 13977 net.cpp:425] inception_5b/output <- inception_5b/pool_proj
I0403 15:40:42.288615 13977 net.cpp:399] inception_5b/output -> inception_5b/output
I0403 15:40:42.288679 13977 net.cpp:141] Setting up inception_5b/output
I0403 15:40:42.288703 13977 net.cpp:148] Top shape: 24 1024 7 7 (1204224)
I0403 15:40:42.288717 13977 net.cpp:156] Memory required for data: 1345864224
I0403 15:40:42.288732 13977 layer_factory.hpp:77] Creating layer pool5/7x7_s1
I0403 15:40:42.288751 13977 net.cpp:91] Creating Layer pool5/7x7_s1
I0403 15:40:42.288769 13977 net.cpp:425] pool5/7x7_s1 <- inception_5b/output
I0403 15:40:42.288787 13977 net.cpp:399] pool5/7x7_s1 -> pool5/7x7_s1
I0403 15:40:42.289000 13977 net.cpp:141] Setting up pool5/7x7_s1
I0403 15:40:42.289024 13977 net.cpp:148] Top shape: 24 1024 1 1 (24576)
I0403 15:40:42.289038 13977 net.cpp:156] Memory required for data: 1345962528
I0403 15:40:42.289052 13977 layer_factory.hpp:77] Creating layer pool5/drop_7x7_s1
I0403 15:40:42.289068 13977 net.cpp:91] Creating Layer pool5/drop_7x7_s1
I0403 15:40:42.289084 13977 net.cpp:425] pool5/drop_7x7_s1 <- pool5/7x7_s1
I0403 15:40:42.289103 13977 net.cpp:386] pool5/drop_7x7_s1 -> pool5/7x7_s1 (in-place)
I0403 15:40:42.289156 13977 net.cpp:141] Setting up pool5/drop_7x7_s1
I0403 15:40:42.289182 13977 net.cpp:148] Top shape: 24 1024 1 1 (24576)
I0403 15:40:42.289199 13977 net.cpp:156] Memory required for data: 1346060832
I0403 15:40:42.289213 13977 layer_factory.hpp:77] Creating layer loss3/classifier_plantvillage
I0403 15:40:42.289232 13977 net.cpp:91] Creating Layer loss3/classifier_plantvillage
I0403 15:40:42.289248 13977 net.cpp:425] loss3/classifier_plantvillage <- pool5/7x7_s1
I0403 15:40:42.289269 13977 net.cpp:399] loss3/classifier_plantvillage -> loss3/classifier_plantvillage
I0403 15:40:42.289682 13977 net.cpp:141] Setting up loss3/classifier_plantvillage
I0403 15:40:42.289710 13977 net.cpp:148] Top shape: 24 38 (912)
I0403 15:40:42.289726 13977 net.cpp:156] Memory required for data: 1346064480
I0403 15:40:42.289743 13977 layer_factory.hpp:77] Creating layer loss3/classifier_plantvillage_loss3/classifier_plantvillage_0_split
I0403 15:40:42.289762 13977 net.cpp:91] Creating Layer loss3/classifier_plantvillage_loss3/classifier_plantvillage_0_split
I0403 15:40:42.289777 13977 net.cpp:425] loss3/classifier_plantvillage_loss3/classifier_plantvillage_0_split <- loss3/classifier_plantvillage
I0403 15:40:42.289793 13977 net.cpp:399] loss3/classifier_plantvillage_loss3/classifier_plantvillage_0_split -> loss3/classifier_plantvillage_loss3/classifier_plantvillage_0_split_0
I0403 15:40:42.289813 13977 net.cpp:399] loss3/classifier_plantvillage_loss3/classifier_plantvillage_0_split -> loss3/classifier_plantvillage_loss3/classifier_plantvillage_0_split_1
I0403 15:40:42.289832 13977 net.cpp:399] loss3/classifier_plantvillage_loss3/classifier_plantvillage_0_split -> loss3/classifier_plantvillage_loss3/classifier_plantvillage_0_split_2
I0403 15:40:42.289855 13977 net.cpp:399] loss3/classifier_plantvillage_loss3/classifier_plantvillage_0_split -> loss3/classifier_plantvillage_loss3/classifier_plantvillage_0_split_3
I0403 15:40:42.289952 13977 net.cpp:141] Setting up loss3/classifier_plantvillage_loss3/classifier_plantvillage_0_split
I0403 15:40:42.289976 13977 net.cpp:148] Top shape: 24 38 (912)
I0403 15:40:42.289993 13977 net.cpp:148] Top shape: 24 38 (912)
I0403 15:40:42.290006 13977 net.cpp:148] Top shape: 24 38 (912)
I0403 15:40:42.290021 13977 net.cpp:148] Top shape: 24 38 (912)
I0403 15:40:42.290035 13977 net.cpp:156] Memory required for data: 1346079072
I0403 15:40:42.290047 13977 layer_factory.hpp:77] Creating layer loss1/loss
I0403 15:40:42.290068 13977 net.cpp:91] Creating Layer loss1/loss
I0403 15:40:42.290086 13977 net.cpp:425] loss1/loss <- loss1/classifier_plantvillage_loss1/classifier_plantvillage_0_split_0
I0403 15:40:42.290117 13977 net.cpp:425] loss1/loss <- label_data_1_split_0
…
