…
I0403 15:44:55.873497 14326 net.cpp:313] The NetState phase (1) differed from the phase (0) specified by a rule in layer data
I0403 15:44:55.874631 14326 net.cpp:49] Initializing net from parameters: 
state {
  phase: TEST
}
layer {
  name: "data"
  type: "Data"
  top: "data"
  top: "label"
  include {
    phase: TEST
  }
  transform_param {
    mirror: false
    crop_size: 224
    mean_file: "/home/mohanty/data/final_dataset/lmdb/color-80-20/mean.binaryproto"
  }
  data_param {
    source: "/home/mohanty/data/final_dataset/lmdb/color-80-20/test_db"
    batch_size: 24
    backend: LMDB
  }
}
layer {
  name: "conv1/7x7_s2"
  type: "Convolution"
  bottom: "data"
  top: "conv1/7x7_s2"
  param {
    lr_mult: 1
    decay_mult: 1
  }
  param {
    lr_mult: 2
    decay_mult: 0
  }
  convolution_param {
    num_output: 64
    pad: 3
    kernel_size: 7
    stride: 2
    weight_filler {
      type: "xavier"
      std: 0.1
    }
    bias_filler {
      type: "constant"
      value: 0.2
    }
  }
}
layer {
  name: "conv1/relu_7x7"
  type: "ReLU"
  bottom: "conv1/7x7_s2"
  top: "conv1/7x7_s2"
}
layer {
  name: "pool1/3x3_s2"
  type: "Pooling"
  bottom: "conv1/7x7_s2"
  top: "pool1/3x3_s2"
  pooling_param {
    pool: MAX
    kernel_size: 3
    stride: 2
  }
}
layer {
  name: "pool1/norm1"
  type: "LRN"
  bottom: "pool1/3x3_s2"
  top: "pool1/norm1"
  lrn_param {
    local_size: 5
    alpha: 0.0001
    beta: 0.75
  }
}
layer {
  name: "conv2/3x3_reduce"
  type: "Convolution"
  bottom: "pool1/norm1"
  top: "conv2/3x3_reduce"
  param {
    lr_mult: 1
    decay_mult: 1
  }
  param {
    lr_mult: 2
    decay_mult: 0
  }
  convolution_param {
    num_output: 64
    kernel_size: 1
    weight_filler {
      type: "xavier"
      std: 0.1
    }
    bias_filler {
      type: "constant"
      value: 0.2
    }
  }
}
layer {
  name: "conv2/relu_3x3_reduce"
  type: "ReLU"
  bottom: "conv2/3x3_reduce"
  top: "conv2/3x3_reduce"
}
layer {
  name: "conv2/3x3"
  type: "Convolution"
  bottom: "conv2/3x3_reduce"
  top: "conv2/3x3"
  param {
    lr_mult: 1
    decay_mult: 1
  }
  param {
    lr_mult: 2
    decay_mult: 0
  }
  convolution_param {
    num_output: 192
    pad: 1
    kernel_size: 3
    weight_filler {
      type: "xavier"
      std: 0.03
    }
    bias_filler {
      type: "constant"
      value: 0.2
    }
  }
}
layer {
  name: "conv2/relu_3x3"
  type: "ReLU"
  bottom: "conv2/3x3"
  top: "conv2/3x3"
}
layer {
  name: "conv2/norm2"
  type: "LRN"
  bottom: "conv2/3x3"
  top: "conv2/norm2"
  lrn_param {
    local_size: 5
    alpha: 0.0001
    beta: 0.75
  }
}
layer {
  name: "pool2/3x3_s2"
  type: "Pooling"
  bottom: "conv2/norm2"
  top: "pool2/3x3_s2"
  pooling_param {
    pool: MAX
    kernel_size: 3
    stride: 2
  }
}
layer {
  name: "inception_3a/1x1"
  type: "Convolution"
  bottom: "pool2/3x3_s2"
  top: "inception_3a/1x1"
  param {
    lr_mult: 1
    decay_mult: 1
  }
  param {
    lr_mult: 2
    decay_mult: 0
  }
  convolution_param {
    num_output: 64
    kernel_size: 1
    weight_filler {
      type: "xavier"
      std: 0.03
    }
    bias_filler {
      type: "constant"
      value: 0.2
    }
  }
}
layer {
  name: "inception_3a/relu_1x1"
  type: "ReLU"
  bottom: "inception_3a/1x1"
  top: "inception_3a/1x1"
}
layer {
  name: "inception_3a/3x3_reduce"
  type: "Convolution"
  bottom: "pool2/3x3_s2"
  top: "inception_3a/3x3_reduce"
  param {
    lr_mult: 1
    decay_mult: 1
  }
  param {
    lr_mult: 2
    decay_mult: 0
  }
  convolution_param {
    num_output: 96
    kernel_size: 1
    weight_filler {
      type: "xavier"
      std: 0.09
    }
    bias_filler {
      type: "constant"
      value: 0.2
    }
  }
}
layer {
  name: "inception_3a/relu_3x3_reduce"
  type: "ReLU"
  bottom: "inception_3a/3x3_reduce"
  top: "inception_3a/3x3_reduce"
}
layer {
  name: "inception_3a/3x3"
  type: "Convolution"
  bottom: "inception_3a/3x3_reduce"
  top: "inception_3a/3x3"
  param {
    lr_mult: 1
    decay_mult: 1
  }
  param {
    lr_mult: 2
    decay_mult: 0
  }
  convolution_param {
    num_output: 128
    pad: 1
    kernel_size: 3
    weight_filler {
      type: "xavier"
      std: 0.03
    }
    bias_filler {
      type: "constant"
      value: 0.2
    }
  }
}
layer {
  name: "inception_3a/relu_3x3"
  type: "ReLU"
  bottom: "inception_3a/3x3"
  top: "inception_3a/3x3"
}
layer {
  name: "inception_3a/5x5_reduce"
  type: "Convolution"
  bottom: "pool2/3x3_s2"
  top: "inception_3a/5x5_reduce"
  param {
    lr_mult: 1
    decay_mult: 1
  }
  param {
    lr_mult: 2
    decay_mult: 0
  }
  convolution_param {
    num_output: 16
    kernel_size: 1
    weight_filler {
      type: "xavier"
      std: 0.2
    }
    bias_filler {
      type: "constant"
      value: 0.2
    }
  }
}
layer {
  name: "inception_3a/relu_5x5_reduce"
  type: "ReLU"
  bottom: "inception_3a/5x5_reduce"
  top: "inception_3a/5x5_reduce"
}
layer {
  name: "inception_3a/5x5"
  type: "Convolution"
  bottom: "inception_3a/5x5_reduce"
  top: "inception_3a/5x5"
  param {
    lr_mult: 1
    decay_mult: 1
  }
  param {
    lr_mult: 2
    decay_mult: 0
  }
  convolution_param {
    num_output: 32
    pad: 2
    kernel_size: 5
    weight_filler {
      type: "xavier"
      std: 0.03
    }
    bias_filler {
      type: "constant"
      value: 0.2
    }
  }
}
layer {
  name: "inception_3a/relu_5x5"
  type: "ReLU"
  bottom: "inception_3a/5x5"
  top: "inception_3a/5x5"
}
layer {
  name: "inception_3a/pool"
  type: "Pooling"
  bottom: "pool2/3x3_s2"
  top: "inception_3a/pool"
  pooling_param {
    pool: MAX
    kernel_size: 3
    stride: 1
    pad: 1
  }
}
layer {
  name: "inception_3a/pool_proj"
  type: "Convolution"
  bottom: "inception_3a/pool"
  top: "inception_3a/pool_proj"
  param {
    lr_mult: 1
    decay_mult: 1
  }
  param {
    lr_mult: 2
    decay_mult: 0
  }
  convolution_param {
    num_output: 32
    kernel_size: 1
    weight_filler {
      type: "xavier"
      std: 0.1
    }
    bias_filler {
      type: "constant"
      value: 0.2
    }
  }
}
layer {
  name: "inception_3a/relu_pool_proj"
  type: "ReLU"
  bottom: "inception_3a/pool_proj"
  top: "inception_3a/pool_proj"
}
layer {
  name: "inception_3a/output"
  type: "Concat"
  bottom: "inception_3a/1x1"
  bottom: "inception_3a/3x3"
  bottom: "inception_3a/5x5"
  bottom: "inception_3a/pool_proj"
  top: "inception_3a/output"
}
layer {
  name: "inception_3b/1x1"
  type: "Convolution"
  bottom: "inception_3a/output"
  top: "inception_3b/1x1"
  param {
    lr_mult: 1
    decay_mult: 1
  }
  param {
    lr_mult: 2
    decay_mult: 0
  }
  convolution_param {
    num_output: 128
    kernel_size: 1
    weight_filler {
      type: "xavier"
      std: 0.03
    }
    bias_filler {
      type: "constant"
      value: 0.2
    }
  }
}
layer {
  name: "inception_3b/relu_1x1"
  type: "ReLU"
  bottom: "inception_3b/1x1"
  top: "inception_3b/1x1"
}
layer {
  name: "inception_3b/3x3_reduce"
  type: "Convolution"
  bottom: "inception_3a/output"
  top: "inception_3b/3x3_reduce"
  param {
    lr_mult: 1
    decay_mult: 1
  }
  param {
    lr_mult: 2
    decay_mult: 0
  }
  convolution_param {
    num_output: 128
    kernel_size: 1
    weight_filler {
      type: "xavier"
      std: 0.09
    }
    bias_filler {
      type: "constant"
      value: 0.2
    }
  }
}
layer {
  name: "inception_3b/relu_3x3_reduce"
  type: "ReLU"
  bottom: "inception_3b/3x3_reduce"
  top: "inception_3b/3x3_reduce"
}
layer {
  name: "inception_3b/3x3"
  type: "Convolution"
  bottom: "inception_3b/3x3_reduce"
  top: "inception_3b/3x3"
  param {
    lr_mult: 1
    decay_mult: 1
  }
  param {
    lr_mult: 2
    decay_mult: 0
  }
  convolution_param {
    num_output: 192
    pad: 1
    kernel_size: 3
    weight_filler {
      type: "xavier"
      std: 0.03
    }
    bias_filler {
      type: "constant"
      value: 0.2
    }
  }
}
layer {
  name: "inception_3b/relu_3x3"
  type: "ReLU"
  bottom: "inception_3b/3x3"
  top: "inception_3b/3x3"
}
layer {
  name: "inception_3b/5x5_reduce"
  type: "Convolution"
  bottom: "inception_3a/output"
  top: "inception_3b/5x5_reduce"
  param {
    lr_mult: 1
    decay_mult: 1
  }
  param {
    lr_mult: 2
    decay_mult: 0
  }
  convolution_param {
    num_output: 32
    kernel_size: 1
    weight_filler {
      type: "xavier"
      std: 0.2
    }
    bias_filler {
      type: "constant"
      value: 0.2
    }
  }
}
layer {
  name: "inception_3b/relu_5x5_reduce"
  type: "ReLU"
  bottom: "inception_3b/5x5_reduce"
  top: "inception_3b/5x5_reduce"
}
layer {
  name: "inception_3b/5x5"
  type: "Convolution"
  bottom: "inception_3b/5x5_reduce"
  top: "inception_3b/5x5"
  param {
    lr_mult: 1
    decay_mult: 1
  }
  param {
    lr_mult: 2
    decay_mult: 0
  }
  convolution_param {
    num_output: 96
    pad: 2
    kernel_size: 5
    weight_filler {
      type: "xavier"
      std: 0.03
    }
    bias_filler {
      type: "constant"
      value: 0.2
    }
  }
}
layer {
  name: "inception_3b/relu_5x5"
  type: "ReLU"
  bottom: "inception_3b/5x5"
  top: "inception_3b/5x5"
}
layer {
  name: "inception_3b/pool"
  type: "Pooling"
  bottom: "inception_3a/output"
  top: "inception_3b/pool"
  pooling_param {
    pool: MAX
    kernel_size: 3
    stride: 1
    pad: 1
  }
}
layer {
  name: "inception_3b/pool_proj"
  type: "Convolution"
  bottom: "inception_3b/pool"
  top: "inception_3b/pool_proj"
  param {
    lr_mult: 1
    decay_mult: 1
  }
  param {
    lr_mult: 2
    decay_mult: 0
  }
  convolution_param {
    num_output: 64
    kernel_size: 1
    weight_filler {
      type: "xavier"
      std: 0.1
    }
    bias_filler {
      type: "constant"
      value: 0.2
    }
  }
}
layer {
  name: "inception_3b/relu_pool_proj"
  type: "ReLU"
  bottom: "inception_3b/pool_proj"
  top: "inception_3b/pool_proj"
}
layer {
  name: "inception_3b/output"
  type: "Concat"
  bottom: "inception_3b/1x1"
  bottom: "inception_3b/3x3"
  bottom: "inception_3b/5x5"
  bottom: "inception_3b/pool_proj"
  top: "inception_3b/output"
}
layer {
  name: "pool3/3x3_s2"
  type: "Pooling"
  bottom: "inception_3b/output"
  top: "pool3/3x3_s2"
  pooling_param {
    pool: MAX
    kernel_size: 3
    stride: 2
  }
}
layer {
  name: "inception_4a/1x1"
  type: "Convolution"
  bottom: "pool3/3x3_s2"
  top: "inception_4a/1x1"
  param {
    lr_mult: 1
    decay_mult: 1
  }
  param {
    lr_mult: 2
    decay_mult: 0
  }
  convolution_param {
    num_output: 192
    kernel_size: 1
    weight_filler {
      type: "xavier"
      std: 0.03
    }
    bias_filler {
      type: "constant"
      value: 0.2
    }
  }
}
layer {
  name: "inception_4a/relu_1x1"
  type: "ReLU"
  bottom: "inception_4a/1x1"
  top: "inception_4a/1x1"
}
layer {
  name: "inception_4a/3x3_reduce"
  type: "Convolution"
  bottom: "pool3/3x3_s2"
  top: "inception_4a/3x3_reduce"
  param {
    lr_mult: 1
    decay_mult: 1
  }
  param {
    lr_mult: 2
    decay_mult: 0
  }
  convolution_param {
    num_output: 96
    kernel_size: 1
    weight_filler {
      type: "xavier"
      std: 0.09
    }
    bias_filler {
      type: "constant"
      value: 0.2
    }
  }
}
layer {
  name: "inception_4a/relu_3x3_reduce"
  type: "ReLU"
  bottom: "inception_4a/3x3_reduce"
  top: "inception_4a/3x3_reduce"
}
layer {
  name: "inception_4a/3x3"
  type: "Convolution"
  bottom: "inception_4a/3x3_reduce"
  top: "inception_4a/3x3"
  param {
    lr_mult: 1
    decay_mult: 1
  }
  param {
    lr_mult: 2
    decay_mult: 0
  }
  convolution_param {
    num_output: 208
    pad: 1
    kernel_size: 3
    weight_filler {
      type: "xavier"
      std: 0.03
    }
    bias_filler {
      type: "constant"
      value: 0.2
    }
  }
}
layer {
  name: "inception_4a/relu_3x3"
  type: "ReLU"
  bottom: "inception_4a/3x3"
  top: "inception_4a/3x3"
}
layer {
  name: "inception_4a/5x5_reduce"
  type: "Convolution"
  bottom: "pool3/3x3_s2"
  top: "inception_4a/5x5_reduce"
  param {
    lr_mult: 1
    decay_mult: 1
  }
  param {
    lr_mult: 2
    decay_mult: 0
  }
  convolution_param {
    num_output: 16
    kernel_size: 1
    weight_filler {
      type: "xavier"
      std: 0.2
    }
    bias_filler {
      type: "constant"
      value: 0.2
    }
  }
}
layer {
  name: "inception_4a/relu_5x5_reduce"
  type: "ReLU"
  bottom: "inception_4a/5x5_reduce"
  top: "inception_4a/5x5_reduce"
}
layer {
  name: "inception_4a/5x5"
  type: "Convolution"
  bottom: "inception_4a/5x5_reduce"
  top: "inception_4a/5x5"
  param {
    lr_mult: 1
    decay_mult: 1
  }
  param {
    lr_mult: 2
    decay_mult: 0
  }
  convolution_param {
    num_output: 48
    pad: 2
    kernel_size: 5
    weight_filler {
      type: "xavier"
      std: 0.03
    }
    bias_filler {
      type: "constant"
      value: 0.2
    }
  }
}
layer {
  name: "inception_4a/relu_5x5"
  type: "ReLU"
  bottom: "inception_4a/5x5"
  top: "inception_4a/5x5"
}
layer {
  name: "inception_4a/pool"
  type: "Pooling"
  bottom: "pool3/3x3_s2"
  top: "inception_4a/pool"
  pooling_param {
    pool: MAX
    kernel_size: 3
    stride: 1
    pad: 1
  }
}
layer {
  name: "inception_4a/pool_proj"
  type: "Convolution"
  bottom: "inception_4a/pool"
  top: "inception_4a/pool_proj"
  param {
    lr_mult: 1
    decay_mult: 1
  }
  param {
    lr_mult: 2
    decay_mult: 0
  }
  convolution_param {
    num_output: 64
    kernel_size: 1
    weight_filler {
      type: "xavier"
      std: 0.1
    }
    bias_filler {
      type: "constant"
      value: 0.2
    }
  }
}
layer {
  name: "inception_4a/relu_pool_proj"
  type: "ReLU"
  bottom: "inception_4a/pool_proj"
  top: "inception_4a/pool_proj"
}
layer {
  name: "inception_4a/output"
  type: "Concat"
  bottom: "inception_4a/1x1"
  bottom: "inception_4a/3x3"
  bottom: "inception_4a/5x5"
  bottom: "inception_4a/pool_proj"
  top: "inception_4a/output"
}
layer {
  name: "loss1/ave_pool"
  type: "Pooling"
  bottom: "inception_4a/output"
  top: "loss1/ave_pool"
  pooling_param {
    pool: AVE
    kernel_size: 5
    stride: 3
  }
}
layer {
  name: "loss1/conv"
  type: "Convolution"
  bottom: "loss1/ave_pool"
  top: "loss1/conv"
  param {
    lr_mult: 1
    decay_mult: 1
  }
  param {
    lr_mult: 2
    decay_mult: 0
  }
  convolution_param {
    num_output: 128
    kernel_size: 1
    weight_filler {
      type: "xavier"
      std: 0.08
    }
    bias_filler {
      type: "constant"
      value: 0.2
    }
  }
}
layer {
  name: "loss1/relu_conv"
  type: "ReLU"
  bottom: "loss1/conv"
  top: "loss1/conv"
}
layer {
  name: "loss1/fc"
  type: "InnerProduct"
  bottom: "loss1/conv"
  top: "loss1/fc"
  param {
    lr_mult: 1
    decay_mult: 1
  }
  param {
    lr_mult: 2
    decay_mult: 0
  }
  inner_product_param {
    num_output: 1024
    weight_filler {
      type: "xavier"
      std: 0.02
    }
    bias_filler {
      type: "constant"
      value: 0.2
    }
  }
}
layer {
  name: "loss1/relu_fc"
  type: "ReLU"
  bottom: "loss1/fc"
  top: "loss1/fc"
}
layer {
  name: "loss1/drop_fc"
  type: "Dropout"
  bottom: "loss1/fc"
  top: "loss1/fc"
  dropout_param {
    dropout_ratio: 0.7
  }
}
layer {
  name: "loss1/classifier_plantvillage"
  type: "InnerProduct"
  bottom: "loss1/fc"
  top: "loss1/classifier_plantvillage"
  param {
    lr_mult: 1
    decay_mult: 1
  }
  param {
    lr_mult: 2
    decay_mult: 0
  }
  inner_product_param {
    num_output: 38
    weight_filler {
      type: "xavier"
      std: 0.0009765625
    }
    bias_filler {
      type: "constant"
      value: 0
    }
  }
}
layer {
  name: "inception_4b/1x1"
  type: "Convolution"
  bottom: "inception_4a/output"
  top: "inception_4b/1x1"
  param {
    lr_mult: 1
    decay_mult: 1
  }
  param {
    lr_mult: 2
    decay_mult: 0
  }
  convolution_param {
    num_output: 160
    kernel_size: 1
    weight_filler {
      type: "xavier"
      std: 0.03
    }
    bias_filler {
      type: "constant"
      value: 0.2
    }
  }
}
layer {
  name: "inception_4b/relu_1x1"
  type: "ReLU"
  bottom: "inception_4b/1x1"
  top: "inception_4b/1x1"
}
layer {
  name: "inception_4b/3x3_reduce"
  type: "Convolution"
  bottom: "inception_4a/output"
  top: "inception_4b/3x3_reduce"
  param {
    lr_mult: 1
    decay_mult: 1
  }
  param {
    lr_mult: 2
    decay_mult: 0
  }
  convolution_param {
    num_output: 112
    kernel_size: 1
    weight_filler {
      type: "xavier"
      std: 0.09
    }
    bias_filler {
      type: "constant"
      value: 0.2
    }
  }
}
layer {
  name: "inception_4b/relu_3x3_reduce"
  type: "ReLU"
  bottom: "inception_4b/3x3_reduce"
  top: "inception_4b/3x3_reduce"
}
layer {
  name: "inception_4b/3x3"
  type: "Convolution"
  bottom: "inception_4b/3x3_reduce"
  top: "inception_4b/3x3"
  param {
    lr_mult: 1
    decay_mult: 1
  }
  param {
    lr_mult: 2
    decay_mult: 0
  }
  convolution_param {
    num_output: 224
    pad: 1
    kernel_size: 3
    weight_filler {
      type: "xavier"
      std: 0.03
    }
    bias_filler {
      type: "constant"
      value: 0.2
    }
  }
}
layer {
  name: "inception_4b/relu_3x3"
  type: "ReLU"
  bottom: "inception_4b/3x3"
  top: "inception_4b/3x3"
}
layer {
  name: "inception_4b/5x5_reduce"
  type: "Convolution"
  bottom: "inception_4a/output"
  top: "inception_4b/5x5_reduce"
  param {
    lr_mult: 1
    decay_mult: 1
  }
  param {
    lr_mult: 2
    decay_mult: 0
  }
  convolution_param {
    num_output: 24
    kernel_size: 1
    weight_filler {
      type: "xavier"
      std: 0.2
    }
    bias_filler {
      type: "constant"
      value: 0.2
    }
  }
}
layer {
  name: "inception_4b/relu_5x5_reduce"
  type: "ReLU"
  bottom: "inception_4b/5x5_reduce"
  top: "inception_4b/5x5_reduce"
}
layer {
  name: "inception_4b/5x5"
  type: "Convolution"
  bottom: "inception_4b/5x5_reduce"
  top: "inception_4b/5x5"
  param {
    lr_mult: 1
    decay_mult: 1
  }
  param {
    lr_mult: 2
    decay_mult: 0
  }
  convolution_param {
    num_output: 64
    pad: 2
    kernel_size: 5
    weight_filler {
      type: "xavier"
      std: 0.03
    }
    bias_filler {
      type: "constant"
      value: 0.2
    }
  }
}
layer {
  name: "inception_4b/relu_5x5"
  type: "ReLU"
  bottom: "inception_4b/5x5"
  top: "inception_4b/5x5"
}
layer {
  name: "inception_4b/pool"
  type: "Pooling"
  bottom: "inception_4a/output"
  top: "inception_4b/pool"
  pooling_param {
    pool: MAX
    kernel_size: 3
    stride: 1
    pad: 1
  }
}
layer {
  name: "inception_4b/pool_proj"
  type: "Convolution"
  bottom: "inception_4b/pool"
  top: "inception_4b/pool_proj"
  param {
    lr_mult: 1
    decay_mult: 1
  }
  param {
    lr_mult: 2
    decay_mult: 0
  }
  convolution_param {
    num_output: 64
    kernel_size: 1
    weight_filler {
      type: "xavier"
      std: 0.1
    }
    bias_filler {
      type: "constant"
      value: 0.2
    }
  }
}
layer {
  name: "inception_4b/relu_pool_proj"
  type: "ReLU"
  bottom: "inception_4b/pool_proj"
  top: "inception_4b/pool_proj"
}
layer {
  name: "inception_4b/output"
  type: "Concat"
  bottom: "inception_4b/1x1"
  bottom: "inception_4b/3x3"
  bottom: "inception_4b/5x5"
  bottom: "inception_4b/pool_proj"
  top: "inception_4b/output"
}
layer {
  name: "inception_4c/1x1"
  type: "Convolution"
  bottom: "inception_4b/output"
  top: "inception_4c/1x1"
  param {
    lr_mult: 1
    decay_mult: 1
  }
  param {
    lr_mult: 2
    decay_mult: 0
  }
  convolution_param {
    num_output: 128
    kernel_size: 1
    weight_filler {
      type: "xavier"
      std: 0.03
    }
    bias_filler {
      type: "constant"
      value: 0.2
    }
  }
}
layer {
  name: "inception_4c/relu_1x1"
  type: "ReLU"
  bottom: "inception_4c/1x1"
  top: "inception_4c/1x1"
}
layer {
  name: "inception_4c/3x3_reduce"
  type: "Convolution"
  bottom: "inception_4b/output"
  top: "inception_4c/3x3_reduce"
  param {
    lr_mult: 1
    decay_mult: 1
  }
  param {
    lr_mult: 2
    decay_mult: 0
  }
  convolution_param {
    num_output: 128
    kernel_size: 1
    weight_filler {
      type: "xavier"
      std: 0.09
    }
    bias_filler {
      type: "constant"
      value: 0.2
    }
  }
}
layer {
  name: "inception_4c/relu_3x3_reduce"
  type: "ReLU"
  bottom: "inception_4c/3x3_reduce"
  top: "inception_4c/3x3_reduce"
}
layer {
  name: "inception_4c/3x3"
  type: "Convolution"
  bottom: "inception_4c/3x3_reduce"
  top: "inception_4c/3x3"
  param {
    lr_mult: 1
    decay_mult: 1
  }
  param {
    lr_mult: 2
    decay_mult: 0
  }
  convolution_param {
    num_output: 256
    pad: 1
    kernel_size: 3
    weight_filler {
      type: "xavier"
      std: 0.03
    }
    bias_filler {
      type: "constant"
      value: 0.2
    }
  }
}
layer {
  name: "inception_4c/relu_3x3"
  type: "ReLU"
  bottom: "inception_4c/3x3"
  top: "inception_4c/3x3"
}
layer {
  name: "inception_4c/5x5_reduce"
  type: "Convolution"
  bottom: "inception_4b/output"
  top: "inception_4c/5x5_reduce"
  param {
    lr_mult: 1
    decay_mult: 1
  }
  param {
    lr_mult: 2
    decay_mult: 0
  }
  convolution_param {
    num_output: 24
    kernel_size: 1
    weight_filler {
      type: "xavier"
      std: 0.2
    }
    bias_filler {
      type: "constant"
      value: 0.2
    }
  }
}
layer {
  name: "inception_4c/relu_5x5_reduce"
  type: "ReLU"
  bottom: "inception_4c/5x5_reduce"
  top: "inception_4c/5x5_reduce"
}
layer {
  name: "inception_4c/5x5"
  type: "Convolution"
  bottom: "inception_4c/5x5_reduce"
  top: "inception_4c/5x5"
  param {
    lr_mult: 1
    decay_mult: 1
  }
  param {
    lr_mult: 2
    decay_mult: 0
  }
  convolution_param {
    num_output: 64
    pad: 2
    kernel_size: 5
    weight_filler {
      type: "xavier"
      std: 0.03
    }
    bias_filler {
      type: "constant"
      value: 0.2
    }
  }
}
layer {
  name: "inception_4c/relu_5x5"
  type: "ReLU"
  bottom: "inception_4c/5x5"
  top: "inception_4c/5x5"
}
layer {
  name: "inception_4c/pool"
  type: "Pooling"
  bottom: "inception_4b/output"
  top: "inception_4c/pool"
  pooling_param {
    pool: MAX
    kernel_size: 3
    stride: 1
    pad: 1
  }
}
layer {
  name: "inception_4c/pool_proj"
  type: "Convolution"
  bottom: "inception_4c/pool"
  top: "inception_4c/pool_proj"
  param {
    lr_mult: 1
    decay_mult: 1
  }
  param {
    lr_mult: 2
    decay_mult: 0
  }
  convolution_param {
    num_output: 64
    kernel_size: 1
    weight_filler {
      type: "xavier"
      std: 0.1
    }
    bias_filler {
      type: "constant"
      value: 0.2
    }
  }
}
layer {
  name: "inception_4c/relu_pool_proj"
  type: "ReLU"
  bottom: "inception_4c/pool_proj"
  top: "inception_4c/pool_proj"
}
layer {
  name: "inception_4c/output"
  type: "Concat"
  bottom: "inception_4c/1x1"
  bottom: "inception_4c/3x3"
  bottom: "inception_4c/5x5"
  bottom: "inception_4c/pool_proj"
  top: "inception_4c/output"
}
layer {
  name: "inception_4d/1x1"
  type: "Convolution"
  bottom: "inception_4c/output"
  top: "inception_4d/1x1"
  param {
    lr_mult: 1
    decay_mult: 1
  }
  param {
    lr_mult: 2
    decay_mult: 0
  }
  convolution_param {
    num_output: 112
    kernel_size: 1
    weight_filler {
      type: "xavier"
      std: 0.03
    }
    bias_filler {
      type: "constant"
      value: 0.2
    }
  }
}
layer {
  name: "inception_4d/relu_1x1"
  type: "ReLU"
  bottom: "inception_4d/1x1"
  top: "inception_4d/1x1"
}
layer {
  name: "inception_4d/3x3_reduce"
  type: "Convolution"
  bottom: "inception_4c/output"
  top: "inception_4d/3x3_reduce"
  param {
    lr_mult: 1
    decay_mult: 1
  }
  param {
    lr_mult: 2
    decay_mult: 0
  }
  convolution_param {
    num_output: 144
    kernel_size: 1
    weight_filler {
      type: "xavier"
      std: 0.09
    }
    bias_filler {
      type: "constant"
      value: 0.2
    }
  }
}
layer {
  name: "inception_4d/relu_3x3_reduce"
  type: "ReLU"
  bottom: "inception_4d/3x3_reduce"
  top: "inception_4d/3x3_reduce"
}
layer {
  name: "inception_4d/3x3"
  type: "Convolution"
  bottom: "inception_4d/3x3_reduce"
  top: "inception_4d/3x3"
  param {
    lr_mult: 1
    decay_mult: 1
  }
  param {
    lr_mult: 2
    decay_mult: 0
  }
  convolution_param {
    num_output: 288
    pad: 1
    kernel_size: 3
    weight_filler {
      type: "xavier"
      std: 0.03
    }
    bias_filler {
      type: "constant"
      value: 0.2
    }
  }
}
layer {
  name: "inception_4d/relu_3x3"
  type: "ReLU"
  bottom: "inception_4d/3x3"
  top: "inception_4d/3x3"
}
layer {
  name: "inception_4d/5x5_reduce"
  type: "Convolution"
  bottom: "inception_4c/output"
  top: "inception_4d/5x5_reduce"
  param {
    lr_mult: 1
    decay_mult: 1
  }
  param {
    lr_mult: 2
    decay_mult: 0
  }
  convolution_param {
    num_output: 32
    kernel_size: 1
    weight_filler {
      type: "xavier"
      std: 0.2
    }
    bias_filler {
      type: "constant"
      value: 0.2
    }
  }
}
layer {
  name: "inception_4d/relu_5x5_reduce"
  type: "ReLU"
  bottom: "inception_4d/5x5_reduce"
  top: "inception_4d/5x5_reduce"
}
layer {
  name: "inception_4d/5x5"
  type: "Convolution"
  bottom: "inception_4d/5x5_reduce"
  top: "inception_4d/5x5"
  param {
    lr_mult: 1
    decay_mult: 1
  }
  param {
    lr_mult: 2
    decay_mult: 0
  }
  convolution_param {
    num_output: 64
    pad: 2
    kernel_size: 5
    weight_filler {
      type: "xavier"
      std: 0.03
    }
    bias_filler {
      type: "constant"
      value: 0.2
    }
  }
}
layer {
  name: "inception_4d/relu_5x5"
  type: "ReLU"
  bottom: "inception_4d/5x5"
  top: "inception_4d/5x5"
}
layer {
  name: "inception_4d/pool"
  type: "Pooling"
  bottom: "inception_4c/output"
  top: "inception_4d/pool"
  pooling_param {
    pool: MAX
    kernel_size: 3
    stride: 1
    pad: 1
  }
}
layer {
  name: "inception_4d/pool_proj"
  type: "Convolution"
  bottom: "inception_4d/pool"
  top: "inception_4d/pool_proj"
  param {
    lr_mult: 1
    decay_mult: 1
  }
  param {
    lr_mult: 2
    decay_mult: 0
  }
  convolution_param {
    num_output: 64
    kernel_size: 1
    weight_filler {
      type: "xavier"
      std: 0.1
    }
    bias_filler {
      type: "constant"
      value: 0.2
    }
  }
}
layer {
  name: "inception_4d/relu_pool_proj"
  type: "ReLU"
  bottom: "inception_4d/pool_proj"
  top: "inception_4d/pool_proj"
}
layer {
  name: "inception_4d/output"
  type: "Concat"
  bottom: "inception_4d/1x1"
  bottom: "inception_4d/3x3"
  bottom: "inception_4d/5x5"
  bottom: "inception_4d/pool_proj"
  top: "inception_4d/output"
}
layer {
  name: "loss2/ave_pool"
  type: "Pooling"
  bottom: "inception_4d/output"
  top: "loss2/ave_pool"
  pooling_param {
    pool: AVE
    kernel_size: 5
    stride: 3
  }
}
layer {
  name: "loss2/conv"
  type: "Convolution"
  bottom: "loss2/ave_pool"
  top: "loss2/conv"
  param {
    lr_mult: 1
    decay_mult: 1
  }
  param {
    lr_mult: 2
    decay_mult: 0
  }
  convolution_param {
    num_output: 128
    kernel_size: 1
    weight_filler {
      type: "xavier"
      std: 0.08
    }
    bias_filler {
      type: "constant"
      value: 0.2
    }
  }
}
layer {
  name: "loss2/relu_conv"
  type: "ReLU"
  bottom: "loss2/conv"
  top: "loss2/conv"
}
layer {
  name: "loss2/fc"
  type: "InnerProduct"
  bottom: "loss2/conv"
  top: "loss2/fc"
  param {
    lr_mult: 1
    decay_mult: 1
  }
  param {
    lr_mult: 2
    decay_mult: 0
  }
  inner_product_param {
    num_output: 1024
    weight_filler {
      type: "xavier"
      std: 0.02
    }
    bias_filler {
      type: "constant"
      value: 0.2
    }
  }
}
layer {
  name: "loss2/relu_fc"
  type: "ReLU"
  bottom: "loss2/fc"
  top: "loss2/fc"
}
layer {
  name: "loss2/drop_fc"
  type: "Dropout"
  bottom: "loss2/fc"
  top: "loss2/fc"
  dropout_param {
    dropout_ratio: 0.7
  }
}
layer {
  name: "loss2/classifier_plantvillage"
  type: "InnerProduct"
  bottom: "loss2/fc"
  top: "loss2/classifier_plantvillage"
  param {
    lr_mult: 1
    decay_mult: 1
  }
  param {
    lr_mult: 2
    decay_mult: 0
  }
  inner_product_param {
    num_output: 38
    weight_filler {
      type: "xavier"
      std: 0.0009765625
    }
    bias_filler {
      type: "constant"
      value: 0
    }
  }
}
layer {
  name: "inception_4e/1x1"
  type: "Convolution"
  bottom: "inception_4d/output"
  top: "inception_4e/1x1"
  param {
    lr_mult: 1
    decay_mult: 1
  }
  param {
    lr_mult: 2
    decay_mult: 0
  }
  convolution_param {
    num_output: 256
    kernel_size: 1
    weight_filler {
      type: "xavier"
      std: 0.03
    }
    bias_filler {
      type: "constant"
      value: 0.2
    }
  }
}
layer {
  name: "inception_4e/relu_1x1"
  type: "ReLU"
  bottom: "inception_4e/1x1"
  top: "inception_4e/1x1"
}
layer {
  name: "inception_4e/3x3_reduce"
  type: "Convolution"
  bottom: "inception_4d/output"
  top: "inception_4e/3x3_reduce"
  param {
    lr_mult: 1
    decay_mult: 1
  }
  param {
    lr_mult: 2
    decay_mult: 0
  }
  convolution_param {
    num_output: 160
    kernel_size: 1
    weight_filler {
      type: "xavier"
      std: 0.09
    }
    bias_filler {
      type: "constant"
      value: 0.2
    }
  }
}
layer {
  name: "inception_4e/relu_3x3_reduce"
  type: "ReLU"
  bottom: "inception_4e/3x3_reduce"
  top: "inception_4e/3x3_reduce"
}
layer {
  name: "inception_4e/3x3"
  type: "Convolution"
  bottom: "inception_4e/3x3_reduce"
  top: "inception_4e/3x3"
  param {
    lr_mult: 1
    decay_mult: 1
  }
  param {
    lr_mult: 2
    decay_mult: 0
  }
  convolution_param {
    num_output: 320
    pad: 1
    kernel_size: 3
    weight_filler {
      type: "xavier"
      std: 0.03
    }
    bias_filler {
      type: "constant"
      value: 0.2
    }
  }
}
layer {
  name: "inception_4e/relu_3x3"
  type: "ReLU"
  bottom: "inception_4e/3x3"
  top: "inception_4e/3x3"
}
layer {
  name: "inception_4e/5x5_reduce"
  type: "Convolution"
  bottom: "inception_4d/output"
  top: "inception_4e/5x5_reduce"
  param {
    lr_mult: 1
    decay_mult: 1
  }
  param {
    lr_mult: 2
    decay_mult: 0
  }
  convolution_param {
    num_output: 32
    kernel_size: 1
    weight_filler {
      type: "xavier"
      std: 0.2
    }
    bias_filler {
      type: "constant"
      value: 0.2
    }
  }
}
layer {
  name: "inception_4e/relu_5x5_reduce"
  type: "ReLU"
  bottom: "inception_4e/5x5_reduce"
  top: "inception_4e/5x5_reduce"
}
layer {
  name: "inception_4e/5x5"
  type: "Convolution"
  bottom: "inception_4e/5x5_reduce"
  top: "inception_4e/5x5"
  p
I0403 15:44:55.875847 14326 layer_factory.hpp:77] Creating layer data
I0403 15:44:55.876451 14326 net.cpp:91] Creating Layer data
I0403 15:44:55.876485 14326 net.cpp:399] data -> data
I0403 15:44:55.876538 14326 net.cpp:399] data -> label
I0403 15:44:55.876579 14326 data_transformer.cpp:25] Loading mean file from: /home/mohanty/data/final_dataset/lmdb/color-80-20/mean.binaryproto
I0403 15:44:55.879269 14328 db_lmdb.cpp:38] Opened lmdb /home/mohanty/data/final_dataset/lmdb/color-80-20/test_db
I0403 15:44:55.890007 14326 data_layer.cpp:41] output data size: 24,3,224,224
I0403 15:44:55.917611 14326 net.cpp:141] Setting up data
I0403 15:44:55.917701 14326 net.cpp:148] Top shape: 24 3 224 224 (3612672)
I0403 15:44:55.917724 14326 net.cpp:148] Top shape: 24 (24)
I0403 15:44:55.917739 14326 net.cpp:156] Memory required for data: 14450784
I0403 15:44:55.917765 14326 layer_factory.hpp:77] Creating layer label_data_1_split
I0403 15:44:55.917793 14326 net.cpp:91] Creating Layer label_data_1_split
I0403 15:44:55.917809 14326 net.cpp:425] label_data_1_split <- label
I0403 15:44:55.917840 14326 net.cpp:399] label_data_1_split -> label_data_1_split_0
I0403 15:44:55.917867 14326 net.cpp:399] label_data_1_split -> label_data_1_split_1
I0403 15:44:55.917888 14326 net.cpp:399] label_data_1_split -> label_data_1_split_2
I0403 15:44:55.917908 14326 net.cpp:399] label_data_1_split -> label_data_1_split_3
I0403 15:44:55.917927 14326 net.cpp:399] label_data_1_split -> label_data_1_split_4
I0403 15:44:55.917945 14326 net.cpp:399] label_data_1_split -> label_data_1_split_5
I0403 15:44:55.917963 14326 net.cpp:399] label_data_1_split -> label_data_1_split_6
I0403 15:44:55.917984 14326 net.cpp:399] label_data_1_split -> label_data_1_split_7
I0403 15:44:55.918004 14326 net.cpp:399] label_data_1_split -> label_data_1_split_8
I0403 15:44:55.918025 14326 net.cpp:399] label_data_1_split -> label_data_1_split_9
I0403 15:44:55.918143 14326 net.cpp:141] Setting up label_data_1_split
I0403 15:44:55.918167 14326 net.cpp:148] Top shape: 24 (24)
I0403 15:44:55.918184 14326 net.cpp:148] Top shape: 24 (24)
I0403 15:44:55.918200 14326 net.cpp:148] Top shape: 24 (24)
I0403 15:44:55.918215 14326 net.cpp:148] Top shape: 24 (24)
I0403 15:44:55.918231 14326 net.cpp:148] Top shape: 24 (24)
I0403 15:44:55.918246 14326 net.cpp:148] Top shape: 24 (24)
I0403 15:44:55.918262 14326 net.cpp:148] Top shape: 24 (24)
I0403 15:44:55.918277 14326 net.cpp:148] Top shape: 24 (24)
I0403 15:44:55.918292 14326 net.cpp:148] Top shape: 24 (24)
I0403 15:44:55.918308 14326 net.cpp:148] Top shape: 24 (24)
I0403 15:44:55.918352 14326 net.cpp:156] Memory required for data: 14451744
I0403 15:44:55.918367 14326 layer_factory.hpp:77] Creating layer conv1/7x7_s2
I0403 15:44:55.918398 14326 net.cpp:91] Creating Layer conv1/7x7_s2
I0403 15:44:55.918417 14326 net.cpp:425] conv1/7x7_s2 <- data
I0403 15:44:55.918437 14326 net.cpp:399] conv1/7x7_s2 -> conv1/7x7_s2
I0403 15:44:56.062925 14326 net.cpp:141] Setting up conv1/7x7_s2
I0403 15:44:56.062996 14326 net.cpp:148] Top shape: 24 64 112 112 (19267584)
I0403 15:44:56.063015 14326 net.cpp:156] Memory required for data: 91522080
I0403 15:44:56.063047 14326 layer_factory.hpp:77] Creating layer conv1/relu_7x7
I0403 15:44:56.063076 14326 net.cpp:91] Creating Layer conv1/relu_7x7
I0403 15:44:56.063108 14326 net.cpp:425] conv1/relu_7x7 <- conv1/7x7_s2
I0403 15:44:56.063133 14326 net.cpp:386] conv1/relu_7x7 -> conv1/7x7_s2 (in-place)
I0403 15:44:56.063400 14326 net.cpp:141] Setting up conv1/relu_7x7
I0403 15:44:56.063431 14326 net.cpp:148] Top shape: 24 64 112 112 (19267584)
I0403 15:44:56.063446 14326 net.cpp:156] Memory required for data: 168592416
I0403 15:44:56.063462 14326 layer_factory.hpp:77] Creating layer pool1/3x3_s2
I0403 15:44:56.063488 14326 net.cpp:91] Creating Layer pool1/3x3_s2
I0403 15:44:56.063506 14326 net.cpp:425] pool1/3x3_s2 <- conv1/7x7_s2
I0403 15:44:56.063526 14326 net.cpp:399] pool1/3x3_s2 -> pool1/3x3_s2
I0403 15:44:56.063602 14326 net.cpp:141] Setting up pool1/3x3_s2
I0403 15:44:56.063628 14326 net.cpp:148] Top shape: 24 64 56 56 (4816896)
I0403 15:44:56.063645 14326 net.cpp:156] Memory required for data: 187860000
I0403 15:44:56.063664 14326 layer_factory.hpp:77] Creating layer pool1/norm1
I0403 15:44:56.063689 14326 net.cpp:91] Creating Layer pool1/norm1
I0403 15:44:56.063711 14326 net.cpp:425] pool1/norm1 <- pool1/3x3_s2
I0403 15:44:56.063730 14326 net.cpp:399] pool1/norm1 -> pool1/norm1
I0403 15:44:56.064028 14326 net.cpp:141] Setting up pool1/norm1
I0403 15:44:56.064057 14326 net.cpp:148] Top shape: 24 64 56 56 (4816896)
I0403 15:44:56.064074 14326 net.cpp:156] Memory required for data: 207127584
I0403 15:44:56.064090 14326 layer_factory.hpp:77] Creating layer conv2/3x3_reduce
I0403 15:44:56.064121 14326 net.cpp:91] Creating Layer conv2/3x3_reduce
I0403 15:44:56.064139 14326 net.cpp:425] conv2/3x3_reduce <- pool1/norm1
I0403 15:44:56.064157 14326 net.cpp:399] conv2/3x3_reduce -> conv2/3x3_reduce
I0403 15:44:56.065529 14326 net.cpp:141] Setting up conv2/3x3_reduce
I0403 15:44:56.065562 14326 net.cpp:148] Top shape: 24 64 56 56 (4816896)
I0403 15:44:56.065582 14326 net.cpp:156] Memory required for data: 226395168
I0403 15:44:56.065606 14326 layer_factory.hpp:77] Creating layer conv2/relu_3x3_reduce
I0403 15:44:56.065628 14326 net.cpp:91] Creating Layer conv2/relu_3x3_reduce
I0403 15:44:56.065644 14326 net.cpp:425] conv2/relu_3x3_reduce <- conv2/3x3_reduce
I0403 15:44:56.065664 14326 net.cpp:386] conv2/relu_3x3_reduce -> conv2/3x3_reduce (in-place)
I0403 15:44:56.065928 14326 net.cpp:141] Setting up conv2/relu_3x3_reduce
I0403 15:44:56.065956 14326 net.cpp:148] Top shape: 24 64 56 56 (4816896)
I0403 15:44:56.065973 14326 net.cpp:156] Memory required for data: 245662752
I0403 15:44:56.065987 14326 layer_factory.hpp:77] Creating layer conv2/3x3
I0403 15:44:56.066010 14326 net.cpp:91] Creating Layer conv2/3x3
I0403 15:44:56.066028 14326 net.cpp:425] conv2/3x3 <- conv2/3x3_reduce
I0403 15:44:56.066047 14326 net.cpp:399] conv2/3x3 -> conv2/3x3
I0403 15:44:56.068529 14326 net.cpp:141] Setting up conv2/3x3
I0403 15:44:56.068564 14326 net.cpp:148] Top shape: 24 192 56 56 (14450688)
I0403 15:44:56.068583 14326 net.cpp:156] Memory required for data: 303465504
I0403 15:44:56.068605 14326 layer_factory.hpp:77] Creating layer conv2/relu_3x3
I0403 15:44:56.068625 14326 net.cpp:91] Creating Layer conv2/relu_3x3
I0403 15:44:56.068642 14326 net.cpp:425] conv2/relu_3x3 <- conv2/3x3
I0403 15:44:56.068660 14326 net.cpp:386] conv2/relu_3x3 -> conv2/3x3 (in-place)
I0403 15:44:56.068853 14326 net.cpp:141] Setting up conv2/relu_3x3
I0403 15:44:56.068881 14326 net.cpp:148] Top shape: 24 192 56 56 (14450688)
I0403 15:44:56.068929 14326 net.cpp:156] Memory required for data: 361268256
I0403 15:44:56.068946 14326 layer_factory.hpp:77] Creating layer conv2/norm2
I0403 15:44:56.068969 14326 net.cpp:91] Creating Layer conv2/norm2
I0403 15:44:56.068987 14326 net.cpp:425] conv2/norm2 <- conv2/3x3
I0403 15:44:56.069006 14326 net.cpp:399] conv2/norm2 -> conv2/norm2
I0403 15:44:56.069334 14326 net.cpp:141] Setting up conv2/norm2
I0403 15:44:56.069363 14326 net.cpp:148] Top shape: 24 192 56 56 (14450688)
I0403 15:44:56.069380 14326 net.cpp:156] Memory required for data: 419071008
I0403 15:44:56.069394 14326 layer_factory.hpp:77] Creating layer pool2/3x3_s2
I0403 15:44:56.069416 14326 net.cpp:91] Creating Layer pool2/3x3_s2
I0403 15:44:56.069433 14326 net.cpp:425] pool2/3x3_s2 <- conv2/norm2
I0403 15:44:56.069453 14326 net.cpp:399] pool2/3x3_s2 -> pool2/3x3_s2
I0403 15:44:56.069510 14326 net.cpp:141] Setting up pool2/3x3_s2
I0403 15:44:56.069535 14326 net.cpp:148] Top shape: 24 192 28 28 (3612672)
I0403 15:44:56.069550 14326 net.cpp:156] Memory required for data: 433521696
I0403 15:44:56.069566 14326 layer_factory.hpp:77] Creating layer pool2/3x3_s2_pool2/3x3_s2_0_split
I0403 15:44:56.069586 14326 net.cpp:91] Creating Layer pool2/3x3_s2_pool2/3x3_s2_0_split
I0403 15:44:56.069602 14326 net.cpp:425] pool2/3x3_s2_pool2/3x3_s2_0_split <- pool2/3x3_s2
I0403 15:44:56.069622 14326 net.cpp:399] pool2/3x3_s2_pool2/3x3_s2_0_split -> pool2/3x3_s2_pool2/3x3_s2_0_split_0
I0403 15:44:56.069643 14326 net.cpp:399] pool2/3x3_s2_pool2/3x3_s2_0_split -> pool2/3x3_s2_pool2/3x3_s2_0_split_1
I0403 15:44:56.069664 14326 net.cpp:399] pool2/3x3_s2_pool2/3x3_s2_0_split -> pool2/3x3_s2_pool2/3x3_s2_0_split_2
I0403 15:44:56.069685 14326 net.cpp:399] pool2/3x3_s2_pool2/3x3_s2_0_split -> pool2/3x3_s2_pool2/3x3_s2_0_split_3
I0403 15:44:56.069761 14326 net.cpp:141] Setting up pool2/3x3_s2_pool2/3x3_s2_0_split
I0403 15:44:56.069792 14326 net.cpp:148] Top shape: 24 192 28 28 (3612672)
I0403 15:44:56.069810 14326 net.cpp:148] Top shape: 24 192 28 28 (3612672)
I0403 15:44:56.069828 14326 net.cpp:148] Top shape: 24 192 28 28 (3612672)
I0403 15:44:56.069844 14326 net.cpp:148] Top shape: 24 192 28 28 (3612672)
I0403 15:44:56.069859 14326 net.cpp:156] Memory required for data: 491324448
I0403 15:44:56.069875 14326 layer_factory.hpp:77] Creating layer inception_3a/1x1
I0403 15:44:56.069897 14326 net.cpp:91] Creating Layer inception_3a/1x1
I0403 15:44:56.069916 14326 net.cpp:425] inception_3a/1x1 <- pool2/3x3_s2_pool2/3x3_s2_0_split_0
I0403 15:44:56.069936 14326 net.cpp:399] inception_3a/1x1 -> inception_3a/1x1
I0403 15:44:56.071554 14326 net.cpp:141] Setting up inception_3a/1x1
I0403 15:44:56.071585 14326 net.cpp:148] Top shape: 24 64 28 28 (1204224)
I0403 15:44:56.071602 14326 net.cpp:156] Memory required for data: 496141344
I0403 15:44:56.071622 14326 layer_factory.hpp:77] Creating layer inception_3a/relu_1x1
I0403 15:44:56.071643 14326 net.cpp:91] Creating Layer inception_3a/relu_1x1
I0403 15:44:56.071660 14326 net.cpp:425] inception_3a/relu_1x1 <- inception_3a/1x1
I0403 15:44:56.071678 14326 net.cpp:386] inception_3a/relu_1x1 -> inception_3a/1x1 (in-place)
I0403 15:44:56.071861 14326 net.cpp:141] Setting up inception_3a/relu_1x1
I0403 15:44:56.071890 14326 net.cpp:148] Top shape: 24 64 28 28 (1204224)
I0403 15:44:56.071907 14326 net.cpp:156] Memory required for data: 500958240
I0403 15:44:56.071923 14326 layer_factory.hpp:77] Creating layer inception_3a/3x3_reduce
I0403 15:44:56.071948 14326 net.cpp:91] Creating Layer inception_3a/3x3_reduce
I0403 15:44:56.071966 14326 net.cpp:425] inception_3a/3x3_reduce <- pool2/3x3_s2_pool2/3x3_s2_0_split_1
I0403 15:44:56.071985 14326 net.cpp:399] inception_3a/3x3_reduce -> inception_3a/3x3_reduce
I0403 15:44:56.073753 14326 net.cpp:141] Setting up inception_3a/3x3_reduce
I0403 15:44:56.073786 14326 net.cpp:148] Top shape: 24 96 28 28 (1806336)
I0403 15:44:56.073802 14326 net.cpp:156] Memory required for data: 508183584
I0403 15:44:56.073827 14326 layer_factory.hpp:77] Creating layer inception_3a/relu_3x3_reduce
I0403 15:44:56.073865 14326 net.cpp:91] Creating Layer inception_3a/relu_3x3_reduce
I0403 15:44:56.073884 14326 net.cpp:425] inception_3a/relu_3x3_reduce <- inception_3a/3x3_reduce
I0403 15:44:56.073904 14326 net.cpp:386] inception_3a/relu_3x3_reduce -> inception_3a/3x3_reduce (in-place)
I0403 15:44:56.074100 14326 net.cpp:141] Setting up inception_3a/relu_3x3_reduce
I0403 15:44:56.074127 14326 net.cpp:148] Top shape: 24 96 28 28 (1806336)
I0403 15:44:56.074144 14326 net.cpp:156] Memory required for data: 515408928
I0403 15:44:56.074161 14326 layer_factory.hpp:77] Creating layer inception_3a/3x3
I0403 15:44:56.074185 14326 net.cpp:91] Creating Layer inception_3a/3x3
I0403 15:44:56.074203 14326 net.cpp:425] inception_3a/3x3 <- inception_3a/3x3_reduce
I0403 15:44:56.074226 14326 net.cpp:399] inception_3a/3x3 -> inception_3a/3x3
I0403 15:44:56.075954 14326 net.cpp:141] Setting up inception_3a/3x3
I0403 15:44:56.075985 14326 net.cpp:148] Top shape: 24 128 28 28 (2408448)
I0403 15:44:56.076001 14326 net.cpp:156] Memory required for data: 525042720
I0403 15:44:56.076023 14326 layer_factory.hpp:77] Creating layer inception_3a/relu_3x3
I0403 15:44:56.076043 14326 net.cpp:91] Creating Layer inception_3a/relu_3x3
I0403 15:44:56.076061 14326 net.cpp:425] inception_3a/relu_3x3 <- inception_3a/3x3
I0403 15:44:56.076081 14326 net.cpp:386] inception_3a/relu_3x3 -> inception_3a/3x3 (in-place)
I0403 15:44:56.076375 14326 net.cpp:141] Setting up inception_3a/relu_3x3
I0403 15:44:56.076406 14326 net.cpp:148] Top shape: 24 128 28 28 (2408448)
I0403 15:44:56.076423 14326 net.cpp:156] Memory required for data: 534676512
I0403 15:44:56.076441 14326 layer_factory.hpp:77] Creating layer inception_3a/5x5_reduce
I0403 15:44:56.076463 14326 net.cpp:91] Creating Layer inception_3a/5x5_reduce
I0403 15:44:56.076481 14326 net.cpp:425] inception_3a/5x5_reduce <- pool2/3x3_s2_pool2/3x3_s2_0_split_2
I0403 15:44:56.076501 14326 net.cpp:399] inception_3a/5x5_reduce -> inception_3a/5x5_reduce
I0403 15:44:56.077510 14326 net.cpp:141] Setting up inception_3a/5x5_reduce
I0403 15:44:56.077543 14326 net.cpp:148] Top shape: 24 16 28 28 (301056)
I0403 15:44:56.077561 14326 net.cpp:156] Memory required for data: 535880736
I0403 15:44:56.077580 14326 layer_factory.hpp:77] Creating layer inception_3a/relu_5x5_reduce
I0403 15:44:56.077600 14326 net.cpp:91] Creating Layer inception_3a/relu_5x5_reduce
I0403 15:44:56.077615 14326 net.cpp:425] inception_3a/relu_5x5_reduce <- inception_3a/5x5_reduce
I0403 15:44:56.077637 14326 net.cpp:386] inception_3a/relu_5x5_reduce -> inception_3a/5x5_reduce (in-place)
I0403 15:44:56.077941 14326 net.cpp:141] Setting up inception_3a/relu_5x5_reduce
I0403 15:44:56.077970 14326 net.cpp:148] Top shape: 24 16 28 28 (301056)
I0403 15:44:56.077986 14326 net.cpp:156] Memory required for data: 537084960
I0403 15:44:56.078002 14326 layer_factory.hpp:77] Creating layer inception_3a/5x5
I0403 15:44:56.078027 14326 net.cpp:91] Creating Layer inception_3a/5x5
I0403 15:44:56.078045 14326 net.cpp:425] inception_3a/5x5 <- inception_3a/5x5_reduce
I0403 15:44:56.078068 14326 net.cpp:399] inception_3a/5x5 -> inception_3a/5x5
I0403 15:44:56.079140 14326 net.cpp:141] Setting up inception_3a/5x5
I0403 15:44:56.079170 14326 net.cpp:148] Top shape: 24 32 28 28 (602112)
I0403 15:44:56.079186 14326 net.cpp:156] Memory required for data: 539493408
I0403 15:44:56.079206 14326 layer_factory.hpp:77] Creating layer inception_3a/relu_5x5
I0403 15:44:56.079227 14326 net.cpp:91] Creating Layer inception_3a/relu_5x5
I0403 15:44:56.079244 14326 net.cpp:425] inception_3a/relu_5x5 <- inception_3a/5x5
I0403 15:44:56.079263 14326 net.cpp:386] inception_3a/relu_5x5 -> inception_3a/5x5 (in-place)
I0403 15:44:56.079448 14326 net.cpp:141] Setting up inception_3a/relu_5x5
I0403 15:44:56.079476 14326 net.cpp:148] Top shape: 24 32 28 28 (602112)
I0403 15:44:56.079493 14326 net.cpp:156] Memory required for data: 541901856
I0403 15:44:56.079509 14326 layer_factory.hpp:77] Creating layer inception_3a/pool
I0403 15:44:56.079526 14326 net.cpp:91] Creating Layer inception_3a/pool
I0403 15:44:56.079545 14326 net.cpp:425] inception_3a/pool <- pool2/3x3_s2_pool2/3x3_s2_0_split_3
I0403 15:44:56.079581 14326 net.cpp:399] inception_3a/pool -> inception_3a/pool
I0403 15:44:56.079645 14326 net.cpp:141] Setting up inception_3a/pool
I0403 15:44:56.079671 14326 net.cpp:148] Top shape: 24 192 28 28 (3612672)
I0403 15:44:56.079687 14326 net.cpp:156] Memory required for data: 556352544
I0403 15:44:56.079702 14326 layer_factory.hpp:77] Creating layer inception_3a/pool_proj
I0403 15:44:56.079731 14326 net.cpp:91] Creating Layer inception_3a/pool_proj
I0403 15:44:56.079751 14326 net.cpp:425] inception_3a/pool_proj <- inception_3a/pool
I0403 15:44:56.079771 14326 net.cpp:399] inception_3a/pool_proj -> inception_3a/pool_proj
I0403 15:44:56.080785 14326 net.cpp:141] Setting up inception_3a/pool_proj
I0403 15:44:56.080816 14326 net.cpp:148] Top shape: 24 32 28 28 (602112)
I0403 15:44:56.080832 14326 net.cpp:156] Memory required for data: 558760992
I0403 15:44:56.080857 14326 layer_factory.hpp:77] Creating layer inception_3a/relu_pool_proj
I0403 15:44:56.080878 14326 net.cpp:91] Creating Layer inception_3a/relu_pool_proj
I0403 15:44:56.080895 14326 net.cpp:425] inception_3a/relu_pool_proj <- inception_3a/pool_proj
I0403 15:44:56.080916 14326 net.cpp:386] inception_3a/relu_pool_proj -> inception_3a/pool_proj (in-place)
I0403 15:44:56.081204 14326 net.cpp:141] Setting up inception_3a/relu_pool_proj
I0403 15:44:56.081233 14326 net.cpp:148] Top shape: 24 32 28 28 (602112)
I0403 15:44:56.081249 14326 net.cpp:156] Memory required for data: 561169440
I0403 15:44:56.081264 14326 layer_factory.hpp:77] Creating layer inception_3a/output
I0403 15:44:56.081285 14326 net.cpp:91] Creating Layer inception_3a/output
I0403 15:44:56.081303 14326 net.cpp:425] inception_3a/output <- inception_3a/1x1
I0403 15:44:56.081321 14326 net.cpp:425] inception_3a/output <- inception_3a/3x3
I0403 15:44:56.081338 14326 net.cpp:425] inception_3a/output <- inception_3a/5x5
I0403 15:44:56.081356 14326 net.cpp:425] inception_3a/output <- inception_3a/pool_proj
I0403 15:44:56.081373 14326 net.cpp:399] inception_3a/output -> inception_3a/output
I0403 15:44:56.081423 14326 net.cpp:141] Setting up inception_3a/output
I0403 15:44:56.081449 14326 net.cpp:148] Top shape: 24 256 28 28 (4816896)
I0403 15:44:56.081465 14326 net.cpp:156] Memory required for data: 580437024
I0403 15:44:56.081480 14326 layer_factory.hpp:77] Creating layer inception_3a/output_inception_3a/output_0_split
I0403 15:44:56.081498 14326 net.cpp:91] Creating Layer inception_3a/output_inception_3a/output_0_split
I0403 15:44:56.081516 14326 net.cpp:425] inception_3a/output_inception_3a/output_0_split <- inception_3a/output
I0403 15:44:56.081535 14326 net.cpp:399] inception_3a/output_inception_3a/output_0_split -> inception_3a/output_inception_3a/output_0_split_0
I0403 15:44:56.081559 14326 net.cpp:399] inception_3a/output_inception_3a/output_0_split -> inception_3a/output_inception_3a/output_0_split_1
I0403 15:44:56.081585 14326 net.cpp:399] inception_3a/output_inception_3a/output_0_split -> inception_3a/output_inception_3a/output_0_split_2
I0403 15:44:56.081609 14326 net.cpp:399] inception_3a/output_inception_3a/output_0_split -> inception_3a/output_inception_3a/output_0_split_3
I0403 15:44:56.081687 14326 net.cpp:141] Setting up inception_3a/output_inception_3a/output_0_split
I0403 15:44:56.081712 14326 net.cpp:148] Top shape: 24 256 28 28 (4816896)
I0403 15:44:56.081732 14326 net.cpp:148] Top shape: 24 256 28 28 (4816896)
I0403 15:44:56.081749 14326 net.cpp:148] Top shape: 24 256 28 28 (4816896)
I0403 15:44:56.081766 14326 net.cpp:148] Top shape: 24 256 28 28 (4816896)
I0403 15:44:56.081781 14326 net.cpp:156] Memory required for data: 657507360
I0403 15:44:56.081796 14326 layer_factory.hpp:77] Creating layer inception_3b/1x1
I0403 15:44:56.081817 14326 net.cpp:91] Creating Layer inception_3b/1x1
I0403 15:44:56.081835 14326 net.cpp:425] inception_3b/1x1 <- inception_3a/output_inception_3a/output_0_split_0
I0403 15:44:56.081857 14326 net.cpp:399] inception_3b/1x1 -> inception_3b/1x1
I0403 15:44:56.083051 14326 net.cpp:141] Setting up inception_3b/1x1
I0403 15:44:56.083103 14326 net.cpp:148] Top shape: 24 128 28 28 (2408448)
I0403 15:44:56.083125 14326 net.cpp:156] Memory required for data: 667141152
I0403 15:44:56.083145 14326 layer_factory.hpp:77] Creating layer inception_3b/relu_1x1
I0403 15:44:56.083168 14326 net.cpp:91] Creating Layer inception_3b/relu_1x1
I0403 15:44:56.083187 14326 net.cpp:425] inception_3b/relu_1x1 <- inception_3b/1x1
I0403 15:44:56.083205 14326 net.cpp:386] inception_3b/relu_1x1 -> inception_3b/1x1 (in-place)
I0403 15:44:56.083390 14326 net.cpp:141] Setting up inception_3b/relu_1x1
I0403 15:44:56.083422 14326 net.cpp:148] Top shape: 24 128 28 28 (2408448)
I0403 15:44:56.083439 14326 net.cpp:156] Memory required for data: 676774944
I0403 15:44:56.083454 14326 layer_factory.hpp:77] Creating layer inception_3b/3x3_reduce
I0403 15:44:56.083477 14326 net.cpp:91] Creating Layer inception_3b/3x3_reduce
I0403 15:44:56.083498 14326 net.cpp:425] inception_3b/3x3_reduce <- inception_3a/output_inception_3a/output_0_split_1
I0403 15:44:56.083518 14326 net.cpp:399] inception_3b/3x3_reduce -> inception_3b/3x3_reduce
I0403 15:44:56.084728 14326 net.cpp:141] Setting up inception_3b/3x3_reduce
I0403 15:44:56.084758 14326 net.cpp:148] Top shape: 24 128 28 28 (2408448)
I0403 15:44:56.084774 14326 net.cpp:156] Memory required for data: 686408736
I0403 15:44:56.084792 14326 layer_factory.hpp:77] Creating layer inception_3b/relu_3x3_reduce
I0403 15:44:56.084812 14326 net.cpp:91] Creating Layer inception_3b/relu_3x3_reduce
I0403 15:44:56.084831 14326 net.cpp:425] inception_3b/relu_3x3_reduce <- inception_3b/3x3_reduce
I0403 15:44:56.084849 14326 net.cpp:386] inception_3b/relu_3x3_reduce -> inception_3b/3x3_reduce (in-place)
I0403 15:44:56.085024 14326 net.cpp:141] Setting up inception_3b/relu_3x3_reduce
I0403 15:44:56.085053 14326 net.cpp:148] Top shape: 24 128 28 28 (2408448)
I0403 15:44:56.085070 14326 net.cpp:156] Memory required for data: 696042528
I0403 15:44:56.085086 14326 layer_factory.hpp:77] Creating layer inception_3b/3x3
I0403 15:44:56.085117 14326 net.cpp:91] Creating Layer inception_3b/3x3
I0403 15:44:56.085137 14326 net.cpp:425] inception_3b/3x3 <- inception_3b/3x3_reduce
I0403 15:44:56.085158 14326 net.cpp:399] inception_3b/3x3 -> inception_3b/3x3
I0403 15:44:56.088156 14326 net.cpp:141] Setting up inception_3b/3x3
I0403 15:44:56.088187 14326 net.cpp:148] Top shape: 24 192 28 28 (3612672)
I0403 15:44:56.088202 14326 net.cpp:156] Memory required for data: 710493216
I0403 15:44:56.088224 14326 layer_factory.hpp:77] Creating layer inception_3b/relu_3x3
I0403 15:44:56.088244 14326 net.cpp:91] Creating Layer inception_3b/relu_3x3
I0403 15:44:56.088263 14326 net.cpp:425] inception_3b/relu_3x3 <- inception_3b/3x3
I0403 15:44:56.088280 14326 net.cpp:386] inception_3b/relu_3x3 -> inception_3b/3x3 (in-place)
I0403 15:44:56.088565 14326 net.cpp:141] Setting up inception_3b/relu_3x3
I0403 15:44:56.088593 14326 net.cpp:148] Top shape: 24 192 28 28 (3612672)
I0403 15:44:56.088609 14326 net.cpp:156] Memory required for data: 724943904
I0403 15:44:56.088624 14326 layer_factory.hpp:77] Creating layer inception_3b/5x5_reduce
I0403 15:44:56.088650 14326 net.cpp:91] Creating Layer inception_3b/5x5_reduce
I0403 15:44:56.088670 14326 net.cpp:425] inception_3b/5x5_reduce <- inception_3a/output_inception_3a/output_0_split_2
I0403 15:44:56.088688 14326 net.cpp:399] inception_3b/5x5_reduce -> inception_3b/5x5_reduce
I0403 15:44:56.089706 14326 net.cpp:141] Setting up inception_3b/5x5_reduce
I0403 15:44:56.089735 14326 net.cpp:148] Top shape: 24 32 28 28 (602112)
I0403 15:44:56.089751 14326 net.cpp:156] Memory required for data: 727352352
I0403 15:44:56.089771 14326 layer_factory.hpp:77] Creating layer inception_3b/relu_5x5_reduce
I0403 15:44:56.089790 14326 net.cpp:91] Creating Layer inception_3b/relu_5x5_reduce
I0403 15:44:56.089807 14326 net.cpp:425] inception_3b/relu_5x5_reduce <- inception_3b/5x5_reduce
I0403 15:44:56.089825 14326 net.cpp:386] inception_3b/relu_5x5_reduce -> inception_3b/5x5_reduce (in-place)
I0403 15:44:56.090004 14326 net.cpp:141] Setting up inception_3b/relu_5x5_reduce
I0403 15:44:56.090044 14326 net.cpp:148] Top shape: 24 32 28 28 (602112)
I0403 15:44:56.090060 14326 net.cpp:156] Memory required for data: 729760800
I0403 15:44:56.090087 14326 layer_factory.hpp:77] Creating layer inception_3b/5x5
I0403 15:44:56.090118 14326 net.cpp:91] Creating Layer inception_3b/5x5
I0403 15:44:56.090138 14326 net.cpp:425] inception_3b/5x5 <- inception_3b/5x5_reduce
I0403 15:44:56.090160 14326 net.cpp:399] inception_3b/5x5 -> inception_3b/5x5
I0403 15:44:56.092190 14326 net.cpp:141] Setting up inception_3b/5x5
I0403 15:44:56.092221 14326 net.cpp:148] Top shape: 24 96 28 28 (1806336)
I0403 15:44:56.092236 14326 net.cpp:156] Memory required for data: 736986144
I0403 15:44:56.092255 14326 layer_factory.hpp:77] Creating layer inception_3b/relu_5x5
I0403 15:44:56.092275 14326 net.cpp:91] Creating Layer inception_3b/relu_5x5
I0403 15:44:56.092294 14326 net.cpp:425] inception_3b/relu_5x5 <- inception_3b/5x5
I0403 15:44:56.092314 14326 net.cpp:386] inception_3b/relu_5x5 -> inception_3b/5x5 (in-place)
I0403 15:44:56.092510 14326 net.cpp:141] Setting up inception_3b/relu_5x5
I0403 15:44:56.092536 14326 net.cpp:148] Top shape: 24 96 28 28 (1806336)
I0403 15:44:56.092551 14326 net.cpp:156] Memory required for data: 744211488
I0403 15:44:56.092566 14326 layer_factory.hpp:77] Creating layer inception_3b/pool
I0403 15:44:56.092583 14326 net.cpp:91] Creating Layer inception_3b/pool
I0403 15:44:56.092600 14326 net.cpp:425] inception_3b/pool <- inception_3a/output_inception_3a/output_0_split_3
I0403 15:44:56.092619 14326 net.cpp:399] inception_3b/pool -> inception_3b/pool
I0403 15:44:56.092676 14326 net.cpp:141] Setting up inception_3b/pool
I0403 15:44:56.092701 14326 net.cpp:148] Top shape: 24 256 28 28 (4816896)
I0403 15:44:56.092716 14326 net.cpp:156] Memory required for data: 763479072
I0403 15:44:56.092731 14326 layer_factory.hpp:77] Creating layer inception_3b/pool_proj
I0403 15:44:56.092753 14326 net.cpp:91] Creating Layer inception_3b/pool_proj
I0403 15:44:56.092772 14326 net.cpp:425] inception_3b/pool_proj <- inception_3b/pool
I0403 15:44:56.092793 14326 net.cpp:399] inception_3b/pool_proj -> inception_3b/pool_proj
I0403 15:44:56.093879 14326 net.cpp:141] Setting up inception_3b/pool_proj
I0403 15:44:56.093909 14326 net.cpp:148] Top shape: 24 64 28 28 (1204224)
I0403 15:44:56.093924 14326 net.cpp:156] Memory required for data: 768295968
I0403 15:44:56.093943 14326 layer_factory.hpp:77] Creating layer inception_3b/relu_pool_proj
I0403 15:44:56.093962 14326 net.cpp:91] Creating Layer inception_3b/relu_pool_proj
I0403 15:44:56.093978 14326 net.cpp:425] inception_3b/relu_pool_proj <- inception_3b/pool_proj
I0403 15:44:56.093997 14326 net.cpp:386] inception_3b/relu_pool_proj -> inception_3b/pool_proj (in-place)
I0403 15:44:56.094415 14326 net.cpp:141] Setting up inception_3b/relu_pool_proj
I0403 15:44:56.094446 14326 net.cpp:148] Top shape: 24 64 28 28 (1204224)
I0403 15:44:56.094463 14326 net.cpp:156] Memory required for data: 773112864
I0403 15:44:56.094480 14326 layer_factory.hpp:77] Creating layer inception_3b/output
I0403 15:44:56.094499 14326 net.cpp:91] Creating Layer inception_3b/output
I0403 15:44:56.094516 14326 net.cpp:425] inception_3b/output <- inception_3b/1x1
I0403 15:44:56.094534 14326 net.cpp:425] inception_3b/output <- inception_3b/3x3
I0403 15:44:56.094550 14326 net.cpp:425] inception_3b/output <- inception_3b/5x5
I0403 15:44:56.094568 14326 net.cpp:425] inception_3b/output <- inception_3b/pool_proj
I0403 15:44:56.094588 14326 net.cpp:399] inception_3b/output -> inception_3b/output
I0403 15:44:56.094635 14326 net.cpp:141] Setting up inception_3b/output
I0403 15:44:56.094671 14326 net.cpp:148] Top shape: 24 480 28 28 (9031680)
I0403 15:44:56.094686 14326 net.cpp:156] Memory required for data: 809239584
I0403 15:44:56.094701 14326 layer_factory.hpp:77] Creating layer pool3/3x3_s2
I0403 15:44:56.094722 14326 net.cpp:91] Creating Layer pool3/3x3_s2
I0403 15:44:56.094739 14326 net.cpp:425] pool3/3x3_s2 <- inception_3b/output
I0403 15:44:56.094759 14326 net.cpp:399] pool3/3x3_s2 -> pool3/3x3_s2
I0403 15:44:56.094835 14326 net.cpp:141] Setting up pool3/3x3_s2
I0403 15:44:56.094861 14326 net.cpp:148] Top shape: 24 480 14 14 (2257920)
I0403 15:44:56.094876 14326 net.cpp:156] Memory required for data: 818271264
I0403 15:44:56.094890 14326 layer_factory.hpp:77] Creating layer pool3/3x3_s2_pool3/3x3_s2_0_split
I0403 15:44:56.094907 14326 net.cpp:91] Creating Layer pool3/3x3_s2_pool3/3x3_s2_0_split
I0403 15:44:56.094923 14326 net.cpp:425] pool3/3x3_s2_pool3/3x3_s2_0_split <- pool3/3x3_s2
I0403 15:44:56.094943 14326 net.cpp:399] pool3/3x3_s2_pool3/3x3_s2_0_split -> pool3/3x3_s2_pool3/3x3_s2_0_split_0
I0403 15:44:56.094964 14326 net.cpp:399] pool3/3x3_s2_pool3/3x3_s2_0_split -> pool3/3x3_s2_pool3/3x3_s2_0_split_1
I0403 15:44:56.094985 14326 net.cpp:399] pool3/3x3_s2_pool3/3x3_s2_0_split -> pool3/3x3_s2_pool3/3x3_s2_0_split_2
I0403 15:44:56.095003 14326 net.cpp:399] pool3/3x3_s2_pool3/3x3_s2_0_split -> pool3/3x3_s2_pool3/3x3_s2_0_split_3
I0403 15:44:56.095082 14326 net.cpp:141] Setting up pool3/3x3_s2_pool3/3x3_s2_0_split
I0403 15:44:56.095111 14326 net.cpp:148] Top shape: 24 480 14 14 (2257920)
I0403 15:44:56.095129 14326 net.cpp:148] Top shape: 24 480 14 14 (2257920)
I0403 15:44:56.095145 14326 net.cpp:148] Top shape: 24 480 14 14 (2257920)
I0403 15:44:56.095160 14326 net.cpp:148] Top shape: 24 480 14 14 (2257920)
I0403 15:44:56.095175 14326 net.cpp:156] Memory required for data: 854397984
I0403 15:44:56.095190 14326 layer_factory.hpp:77] Creating layer inception_4a/1x1
I0403 15:44:56.095212 14326 net.cpp:91] Creating Layer inception_4a/1x1
I0403 15:44:56.095230 14326 net.cpp:425] inception_4a/1x1 <- pool3/3x3_s2_pool3/3x3_s2_0_split_0
I0403 15:44:56.095252 14326 net.cpp:399] inception_4a/1x1 -> inception_4a/1x1
I0403 15:44:56.096907 14326 net.cpp:141] Setting up inception_4a/1x1
I0403 15:44:56.096937 14326 net.cpp:148] Top shape: 24 192 14 14 (903168)
I0403 15:44:56.096954 14326 net.cpp:156] Memory required for data: 858010656
I0403 15:44:56.096973 14326 layer_factory.hpp:77] Creating layer inception_4a/relu_1x1
I0403 15:44:56.096993 14326 net.cpp:91] Creating Layer inception_4a/relu_1x1
I0403 15:44:56.097010 14326 net.cpp:425] inception_4a/relu_1x1 <- inception_4a/1x1
I0403 15:44:56.097031 14326 net.cpp:386] inception_4a/relu_1x1 -> inception_4a/1x1 (in-place)
I0403 15:44:56.097223 14326 net.cpp:141] Setting up inception_4a/relu_1x1
I0403 15:44:56.097252 14326 net.cpp:148] Top shape: 24 192 14 14 (903168)
I0403 15:44:56.097273 14326 net.cpp:156] Memory required for data: 861623328
I0403 15:44:56.097295 14326 layer_factory.hpp:77] Creating layer inception_4a/3x3_reduce
I0403 15:44:56.097322 14326 net.cpp:91] Creating Layer inception_4a/3x3_reduce
I0403 15:44:56.097342 14326 net.cpp:425] inception_4a/3x3_reduce <- pool3/3x3_s2_pool3/3x3_s2_0_split_1
I0403 15:44:56.097364 14326 net.cpp:399] inception_4a/3x3_reduce -> inception_4a/3x3_reduce
I0403 15:44:56.098711 14326 net.cpp:141] Setting up inception_4a/3x3_reduce
I0403 15:44:56.098742 14326 net.cpp:148] Top shape: 24 96 14 14 (451584)
I0403 15:44:56.098758 14326 net.cpp:156] Memory required for data: 863429664
I0403 15:44:56.098785 14326 layer_factory.hpp:77] Creating layer inception_4a/relu_3x3_reduce
I0403 15:44:56.098806 14326 net.cpp:91] Creating Layer inception_4a/relu_3x3_reduce
I0403 15:44:56.098824 14326 net.cpp:425] inception_4a/relu_3x3_reduce <- inception_4a/3x3_reduce
I0403 15:44:56.098844 14326 net.cpp:386] inception_4a/relu_3x3_reduce -> inception_4a/3x3_reduce (in-place)
I0403 15:44:56.099030 14326 net.cpp:141] Setting up inception_4a/relu_3x3_reduce
I0403 15:44:56.099057 14326 net.cpp:148] Top shape: 24 96 14 14 (451584)
I0403 15:44:56.099072 14326 net.cpp:156] Memory required for data: 865236000
I0403 15:44:56.099089 14326 layer_factory.hpp:77] Creating layer inception_4a/3x3
I0403 15:44:56.099118 14326 net.cpp:91] Creating Layer inception_4a/3x3
I0403 15:44:56.099138 14326 net.cpp:425] inception_4a/3x3 <- inception_4a/3x3_reduce
I0403 15:44:56.099160 14326 net.cpp:399] inception_4a/3x3 -> inception_4a/3x3
I0403 15:44:56.101987 14326 net.cpp:141] Setting up inception_4a/3x3
I0403 15:44:56.102018 14326 net.cpp:148] Top shape: 24 208 14 14 (978432)
I0403 15:44:56.102035 14326 net.cpp:156] Memory required for data: 869149728
I0403 15:44:56.102056 14326 layer_factory.hpp:77] Creating layer inception_4a/relu_3x3
I0403 15:44:56.102077 14326 net.cpp:91] Creating Layer inception_4a/relu_3x3
I0403 15:44:56.102098 14326 net.cpp:425] inception_4a/relu_3x3 <- inception_4a/3x3
I0403 15:44:56.102119 14326 net.cpp:386] inception_4a/relu_3x3 -> inception_4a/3x3 (in-place)
I0403 15:44:56.102418 14326 net.cpp:141] Setting up inception_4a/relu_3x3
I0403 15:44:56.102447 14326 net.cpp:148] Top shape: 24 208 14 14 (978432)
I0403 15:44:56.102463 14326 net.cpp:156] Memory required for data: 873063456
I0403 15:44:56.102478 14326 layer_factory.hpp:77] Creating layer inception_4a/5x5_reduce
I0403 15:44:56.102502 14326 net.cpp:91] Creating Layer inception_4a/5x5_reduce
I0403 15:44:56.102522 14326 net.cpp:425] inception_4a/5x5_reduce <- pool3/3x3_s2_pool3/3x3_s2_0_split_2
I0403 15:44:56.102546 14326 net.cpp:399] inception_4a/5x5_reduce -> inception_4a/5x5_reduce
I0403 15:44:56.103638 14326 net.cpp:141] Setting up inception_4a/5x5_reduce
I0403 15:44:56.103669 14326 net.cpp:148] Top shape: 24 16 14 14 (75264)
I0403 15:44:56.103685 14326 net.cpp:156] Memory required for data: 873364512
I0403 15:44:56.103704 14326 layer_factory.hpp:77] Creating layer inception_4a/relu_5x5_reduce
I0403 15:44:56.103725 14326 net.cpp:91] Creating Layer inception_4a/relu_5x5_reduce
I0403 15:44:56.103744 14326 net.cpp:425] inception_4a/relu_5x5_reduce <- inception_4a/5x5_reduce
I0403 15:44:56.103762 14326 net.cpp:386] inception_4a/relu_5x5_reduce -> inception_4a/5x5_reduce (in-place)
I0403 15:44:56.103950 14326 net.cpp:141] Setting up inception_4a/relu_5x5_reduce
I0403 15:44:56.103977 14326 net.cpp:148] Top shape: 24 16 14 14 (75264)
I0403 15:44:56.103993 14326 net.cpp:156] Memory required for data: 873665568
I0403 15:44:56.104009 14326 layer_factory.hpp:77] Creating layer inception_4a/5x5
I0403 15:44:56.104032 14326 net.cpp:91] Creating Layer inception_4a/5x5
I0403 15:44:56.104051 14326 net.cpp:425] inception_4a/5x5 <- inception_4a/5x5_reduce
I0403 15:44:56.104075 14326 net.cpp:399] inception_4a/5x5 -> inception_4a/5x5
I0403 15:44:56.105226 14326 net.cpp:141] Setting up inception_4a/5x5
I0403 15:44:56.105258 14326 net.cpp:148] Top shape: 24 48 14 14 (225792)
I0403 15:44:56.105276 14326 net.cpp:156] Memory required for data: 874568736
I0403 15:44:56.105295 14326 layer_factory.hpp:77] Creating layer inception_4a/relu_5x5
I0403 15:44:56.105315 14326 net.cpp:91] Creating Layer inception_4a/relu_5x5
I0403 15:44:56.105332 14326 net.cpp:425] inception_4a/relu_5x5 <- inception_4a/5x5
I0403 15:44:56.105355 14326 net.cpp:386] inception_4a/relu_5x5 -> inception_4a/5x5 (in-place)
I0403 15:44:56.105543 14326 net.cpp:141] Setting up inception_4a/relu_5x5
I0403 15:44:56.105571 14326 net.cpp:148] Top shape: 24 48 14 14 (225792)
I0403 15:44:56.105587 14326 net.cpp:156] Memory required for data: 875471904
I0403 15:44:56.105602 14326 layer_factory.hpp:77] Creating layer inception_4a/pool
I0403 15:44:56.105619 14326 net.cpp:91] Creating Layer inception_4a/pool
I0403 15:44:56.105635 14326 net.cpp:425] inception_4a/pool <- pool3/3x3_s2_pool3/3x3_s2_0_split_3
I0403 15:44:56.105657 14326 net.cpp:399] inception_4a/pool -> inception_4a/pool
I0403 15:44:56.105726 14326 net.cpp:141] Setting up inception_4a/pool
I0403 15:44:56.105751 14326 net.cpp:148] Top shape: 24 480 14 14 (2257920)
I0403 15:44:56.105767 14326 net.cpp:156] Memory required for data: 884503584
I0403 15:44:56.105782 14326 layer_factory.hpp:77] Creating layer inception_4a/pool_proj
I0403 15:44:56.105806 14326 net.cpp:91] Creating Layer inception_4a/pool_proj
I0403 15:44:56.105825 14326 net.cpp:425] inception_4a/pool_proj <- inception_4a/pool
I0403 15:44:56.105847 14326 net.cpp:399] inception_4a/pool_proj -> inception_4a/pool_proj
I0403 15:44:56.107086 14326 net.cpp:141] Setting up inception_4a/pool_proj
I0403 15:44:56.107121 14326 net.cpp:148] Top shape: 24 64 14 14 (301056)
I0403 15:44:56.107154 14326 net.cpp:156] Memory required for data: 885707808
I0403 15:44:56.107175 14326 layer_factory.hpp:77] Creating layer inception_4a/relu_pool_proj
I0403 15:44:56.107197 14326 net.cpp:91] Creating Layer inception_4a/relu_pool_proj
I0403 15:44:56.107214 14326 net.cpp:425] inception_4a/relu_pool_proj <- inception_4a/pool_proj
I0403 15:44:56.107234 14326 net.cpp:386] inception_4a/relu_pool_proj -> inception_4a/pool_proj (in-place)
I0403 15:44:56.107528 14326 net.cpp:141] Setting up inception_4a/relu_pool_proj
I0403 15:44:56.107558 14326 net.cpp:148] Top shape: 24 64 14 14 (301056)
I0403 15:44:56.107573 14326 net.cpp:156] Memory required for data: 886912032
I0403 15:44:56.107590 14326 layer_factory.hpp:77] Creating layer inception_4a/output
I0403 15:44:56.107609 14326 net.cpp:91] Creating Layer inception_4a/output
I0403 15:44:56.107625 14326 net.cpp:425] inception_4a/output <- inception_4a/1x1
I0403 15:44:56.107642 14326 net.cpp:425] inception_4a/output <- inception_4a/3x3
I0403 15:44:56.107659 14326 net.cpp:425] inception_4a/output <- inception_4a/5x5
I0403 15:44:56.107676 14326 net.cpp:425] inception_4a/output <- inception_4a/pool_proj
I0403 15:44:56.107697 14326 net.cpp:399] inception_4a/output -> inception_4a/output
I0403 15:44:56.107744 14326 net.cpp:141] Setting up inception_4a/output
I0403 15:44:56.107772 14326 net.cpp:148] Top shape: 24 512 14 14 (2408448)
I0403 15:44:56.107789 14326 net.cpp:156] Memory required for data: 896545824
I0403 15:44:56.107805 14326 layer_factory.hpp:77] Creating layer inception_4a/output_inception_4a/output_0_split
I0403 15:44:56.107823 14326 net.cpp:91] Creating Layer inception_4a/output_inception_4a/output_0_split
I0403 15:44:56.107839 14326 net.cpp:425] inception_4a/output_inception_4a/output_0_split <- inception_4a/output
I0403 15:44:56.107859 14326 net.cpp:399] inception_4a/output_inception_4a/output_0_split -> inception_4a/output_inception_4a/output_0_split_0
I0403 15:44:56.107882 14326 net.cpp:399] inception_4a/output_inception_4a/output_0_split -> inception_4a/output_inception_4a/output_0_split_1
I0403 15:44:56.107903 14326 net.cpp:399] inception_4a/output_inception_4a/output_0_split -> inception_4a/output_inception_4a/output_0_split_2
I0403 15:44:56.107925 14326 net.cpp:399] inception_4a/output_inception_4a/output_0_split -> inception_4a/output_inception_4a/output_0_split_3
I0403 15:44:56.107946 14326 net.cpp:399] inception_4a/output_inception_4a/output_0_split -> inception_4a/output_inception_4a/output_0_split_4
I0403 15:44:56.108047 14326 net.cpp:141] Setting up inception_4a/output_inception_4a/output_0_split
I0403 15:44:56.108072 14326 net.cpp:148] Top shape: 24 512 14 14 (2408448)
I0403 15:44:56.108089 14326 net.cpp:148] Top shape: 24 512 14 14 (2408448)
I0403 15:44:56.108113 14326 net.cpp:148] Top shape: 24 512 14 14 (2408448)
I0403 15:44:56.108129 14326 net.cpp:148] Top shape: 24 512 14 14 (2408448)
I0403 15:44:56.108146 14326 net.cpp:148] Top shape: 24 512 14 14 (2408448)
I0403 15:44:56.108161 14326 net.cpp:156] Memory required for data: 944714784
I0403 15:44:56.108177 14326 layer_factory.hpp:77] Creating layer loss1/ave_pool
I0403 15:44:56.108198 14326 net.cpp:91] Creating Layer loss1/ave_pool
I0403 15:44:56.108217 14326 net.cpp:425] loss1/ave_pool <- inception_4a/output_inception_4a/output_0_split_0
I0403 15:44:56.108238 14326 net.cpp:399] loss1/ave_pool -> loss1/ave_pool
I0403 15:44:56.108459 14326 net.cpp:141] Setting up loss1/ave_pool
I0403 15:44:56.108487 14326 net.cpp:148] Top shape: 24 512 4 4 (196608)
I0403 15:44:56.108503 14326 net.cpp:156] Memory required for data: 945501216
I0403 15:44:56.108521 14326 layer_factory.hpp:77] Creating layer loss1/conv
I0403 15:44:56.108546 14326 net.cpp:91] Creating Layer loss1/conv
I0403 15:44:56.108563 14326 net.cpp:425] loss1/conv <- loss1/ave_pool
I0403 15:44:56.108585 14326 net.cpp:399] loss1/conv -> loss1/conv
I0403 15:44:56.110075 14326 net.cpp:141] Setting up loss1/conv
I0403 15:44:56.110110 14326 net.cpp:148] Top shape: 24 128 4 4 (49152)
I0403 15:44:56.110127 14326 net.cpp:156] Memory required for data: 945697824
I0403 15:44:56.110163 14326 layer_factory.hpp:77] Creating layer loss1/relu_conv
I0403 15:44:56.110188 14326 net.cpp:91] Creating Layer loss1/relu_conv
I0403 15:44:56.110208 14326 net.cpp:425] loss1/relu_conv <- loss1/conv
I0403 15:44:56.110226 14326 net.cpp:386] loss1/relu_conv -> loss1/conv (in-place)
I0403 15:44:56.110524 14326 net.cpp:141] Setting up loss1/relu_conv
I0403 15:44:56.110553 14326 net.cpp:148] Top shape: 24 128 4 4 (49152)
I0403 15:44:56.110569 14326 net.cpp:156] Memory required for data: 945894432
I0403 15:44:56.110585 14326 layer_factory.hpp:77] Creating layer loss1/fc
I0403 15:44:56.110611 14326 net.cpp:91] Creating Layer loss1/fc
I0403 15:44:56.110631 14326 net.cpp:425] loss1/fc <- loss1/conv
I0403 15:44:56.110653 14326 net.cpp:399] loss1/fc -> loss1/fc
I0403 15:44:56.129462 14326 net.cpp:141] Setting up loss1/fc
I0403 15:44:56.129498 14326 net.cpp:148] Top shape: 24 1024 (24576)
I0403 15:44:56.129514 14326 net.cpp:156] Memory required for data: 945992736
I0403 15:44:56.129534 14326 layer_factory.hpp:77] Creating layer loss1/relu_fc
I0403 15:44:56.129554 14326 net.cpp:91] Creating Layer loss1/relu_fc
I0403 15:44:56.129571 14326 net.cpp:425] loss1/relu_fc <- loss1/fc
I0403 15:44:56.129592 14326 net.cpp:386] loss1/relu_fc -> loss1/fc (in-place)
I0403 15:44:56.129789 14326 net.cpp:141] Setting up loss1/relu_fc
I0403 15:44:56.129817 14326 net.cpp:148] Top shape: 24 1024 (24576)
I0403 15:44:56.129832 14326 net.cpp:156] Memory required for data: 946091040
I0403 15:44:56.129848 14326 layer_factory.hpp:77] Creating layer loss1/drop_fc
I0403 15:44:56.129878 14326 net.cpp:91] Creating Layer loss1/drop_fc
I0403 15:44:56.129895 14326 net.cpp:425] loss1/drop_fc <- loss1/fc
I0403 15:44:56.129914 14326 net.cpp:386] loss1/drop_fc -> loss1/fc (in-place)
I0403 15:44:56.129968 14326 net.cpp:141] Setting up loss1/drop_fc
I0403 15:44:56.129997 14326 net.cpp:148] Top shape: 24 1024 (24576)
I0403 15:44:56.130012 14326 net.cpp:156] Memory required for data: 946189344
I0403 15:44:56.130028 14326 layer_factory.hpp:77] Creating layer loss1/classifier_plantvillage
I0403 15:44:56.130048 14326 net.cpp:91] Creating Layer loss1/classifier_plantvillage
I0403 15:44:56.130064 14326 net.cpp:425] loss1/classifier_plantvillage <- loss1/fc
I0403 15:44:56.130086 14326 net.cpp:399] loss1/classifier_plantvillage -> loss1/classifier_plantvillage
I0403 15:44:56.131048 14326 net.cpp:141] Setting up loss1/classifier_plantvillage
I0403 15:44:56.131079 14326 net.cpp:148] Top shape: 24 38 (912)
I0403 15:44:56.131099 14326 net.cpp:156] Memory required for data: 946192992
I0403 15:44:56.131120 14326 layer_factory.hpp:77] Creating layer loss1/classifier_plantvillage_loss1/classifier_plantvillage_0_split
I0403 15:44:56.131142 14326 net.cpp:91] Creating Layer loss1/classifier_plantvillage_loss1/classifier_plantvillage_0_split
I0403 15:44:56.131160 14326 net.cpp:425] loss1/classifier_plantvillage_loss1/classifier_plantvillage_0_split <- loss1/classifier_plantvillage
I0403 15:44:56.131181 14326 net.cpp:399] loss1/classifier_plantvillage_loss1/classifier_plantvillage_0_split -> loss1/classifier_plantvillage_loss1/classifier_plantvillage_0_split_0
I0403 15:44:56.131201 14326 net.cpp:399] loss1/classifier_plantvillage_loss1/classifier_plantvillage_0_split -> loss1/classifier_plantvillage_loss1/classifier_plantvillage_0_split_1
I0403 15:44:56.131223 14326 net.cpp:399] loss1/classifier_plantvillage_loss1/classifier_plantvillage_0_split -> loss1/classifier_plantvillage_loss1/classifier_plantvillage_0_split_2
I0403 15:44:56.131296 14326 net.cpp:141] Setting up loss1/classifier_plantvillage_loss1/classifier_plantvillage_0_split
I0403 15:44:56.131321 14326 net.cpp:148] Top shape: 24 38 (912)
I0403 15:44:56.131338 14326 net.cpp:148] Top shape: 24 38 (912)
I0403 15:44:56.131356 14326 net.cpp:148] Top shape: 24 38 (912)
I0403 15:44:56.131371 14326 net.cpp:156] Memory required for data: 946203936
I0403 15:44:56.131386 14326 layer_factory.hpp:77] Creating layer inception_4b/1x1
I0403 15:44:56.131410 14326 net.cpp:91] Creating Layer inception_4b/1x1
I0403 15:44:56.131448 14326 net.cpp:425] inception_4b/1x1 <- inception_4a/output_inception_4a/output_0_split_1
I0403 15:44:56.131469 14326 net.cpp:399] inception_4b/1x1 -> inception_4b/1x1
I0403 15:44:56.133224 14326 net.cpp:141] Setting up inception_4b/1x1
I0403 15:44:56.133256 14326 net.cpp:148] Top shape: 24 160 14 14 (752640)
I0403 15:44:56.133272 14326 net.cpp:156] Memory required for data: 949214496
I0403 15:44:56.133291 14326 layer_factory.hpp:77] Creating layer inception_4b/relu_1x1
I0403 15:44:56.133313 14326 net.cpp:91] Creating Layer inception_4b/relu_1x1
I0403 15:44:56.133333 14326 net.cpp:425] inception_4b/relu_1x1 <- inception_4b/1x1
I0403 15:44:56.133353 14326 net.cpp:386] inception_4b/relu_1x1 -> inception_4b/1x1 (in-place)
I0403 15:44:56.133543 14326 net.cpp:141] Setting up inception_4b/relu_1x1
I0403 15:44:56.133572 14326 net.cpp:148] Top shape: 24 160 14 14 (752640)
I0403 15:44:56.133589 14326 net.cpp:156] Memory required for data: 952225056
I0403 15:44:56.133604 14326 layer_factory.hpp:77] Creating layer inception_4b/3x3_reduce
I0403 15:44:56.133630 14326 net.cpp:91] Creating Layer inception_4b/3x3_reduce
I0403 15:44:56.133649 14326 net.cpp:425] inception_4b/3x3_reduce <- inception_4a/output_inception_4a/output_0_split_2
I0403 15:44:56.133672 14326 net.cpp:399] inception_4b/3x3_reduce -> inception_4b/3x3_reduce
I0403 15:44:56.135114 14326 net.cpp:141] Setting up inception_4b/3x3_reduce
I0403 15:44:56.135148 14326 net.cpp:148] Top shape: 24 112 14 14 (526848)
I0403 15:44:56.135166 14326 net.cpp:156] Memory required for data: 954332448
I0403 15:44:56.135185 14326 layer_factory.hpp:77] Creating layer inception_4b/relu_3x3_reduce
I0403 15:44:56.135205 14326 net.cpp:91] Creating Layer inception_4b/relu_3x3_reduce
I0403 15:44:56.135222 14326 net.cpp:425] inception_4b/relu_3x3_reduce <- inception_4b/3x3_reduce
I0403 15:44:56.135243 14326 net.cpp:386] inception_4b/relu_3x3_reduce -> inception_4b/3x3_reduce (in-place)
I0403 15:44:56.135541 14326 net.cpp:141] Setting up inception_4b/relu_3x3_reduce
I0403 15:44:56.135573 14326 net.cpp:148] Top shape: 24 112 14 14 (526848)
I0403 15:44:56.135591 14326 net.cpp:156] Memory required for data: 956439840
I0403 15:44:56.135606 14326 layer_factory.hpp:77] Creating layer inception_4b/3x3
I0403 15:44:56.135629 14326 net.cpp:91] Creating Layer inception_4b/3x3
I0403 15:44:56.135648 14326 net.cpp:425] inception_4b/3x3 <- inception_4b/3x3_reduce
I0403 15:44:56.135668 14326 net.cpp:399] inception_4b/3x3 -> inception_4b/3x3
I0403 15:44:56.138845 14326 net.cpp:141] Setting up inception_4b/3x3
I0403 15:44:56.138876 14326 net.cpp:148] Top shape: 24 224 14 14 (1053696)
I0403 15:44:56.138893 14326 net.cpp:156] Memory required for data: 960654624
I0403 15:44:56.138912 14326 layer_factory.hpp:77] Creating layer inception_4b/relu_3x3
I0403 15:44:56.138931 14326 net.cpp:91] Creating Layer inception_4b/relu_3x3
I0403 15:44:56.138947 14326 net.cpp:425] inception_4b/relu_3x3 <- inception_4b/3x3
I0403 15:44:56.138967 14326 net.cpp:386] inception_4b/relu_3x3 -> inception_4b/3x3 (in-place)
I0403 15:44:56.139158 14326 net.cpp:141] Setting up inception_4b/relu_3x3
I0403 15:44:56.139185 14326 net.cpp:148] Top shape: 24 224 14 14 (1053696)
I0403 15:44:56.139200 14326 net.cpp:156] Memory required for data: 964869408
I0403 15:44:56.139216 14326 layer_factory.hpp:77] Creating layer inception_4b/5x5_reduce
I0403 15:44:56.139238 14326 net.cpp:91] Creating Layer inception_4b/5x5_reduce
I0403 15:44:56.139258 14326 net.cpp:425] inception_4b/5x5_reduce <- inception_4a/output_inception_4a/output_0_split_3
I0403 15:44:56.139281 14326 net.cpp:399] inception_4b/5x5_reduce -> inception_4b/5x5_reduce
I0403 15:44:56.140420 14326 net.cpp:141] Setting up inception_4b/5x5_reduce
I0403 15:44:56.140453 14326 net.cpp:148] Top shape: 24 24 14 14 (112896)
I0403 15:44:56.140470 14326 net.cpp:156] Memory required for data: 965320992
I0403 15:44:56.140491 14326 layer_factory.hpp:77] Creating layer inception_4b/relu_5x5_reduce
I0403 15:44:56.140509 14326 net.cpp:91] Creating Layer inception_4b/relu_5x5_reduce
I0403 15:44:56.140544 14326 net.cpp:425] inception_4b/relu_5x5_reduce <- inception_4b/5x5_reduce
I0403 15:44:56.140563 14326 net.cpp:386] inception_4b/relu_5x5_reduce -> inception_4b/5x5_reduce (in-place)
I0403 15:44:56.140771 14326 net.cpp:141] Setting up inception_4b/relu_5x5_reduce
I0403 15:44:56.140799 14326 net.cpp:148] Top shape: 24 24 14 14 (112896)
I0403 15:44:56.140813 14326 net.cpp:156] Memory required for data: 965772576
I0403 15:44:56.140828 14326 layer_factory.hpp:77] Creating layer inception_4b/5x5
I0403 15:44:56.140851 14326 net.cpp:91] Creating Layer inception_4b/5x5
I0403 15:44:56.140871 14326 net.cpp:425] inception_4b/5x5 <- inception_4b/5x5_reduce
I0403 15:44:56.140892 14326 net.cpp:399] inception_4b/5x5 -> inception_4b/5x5
I0403 15:44:56.142204 14326 net.cpp:141] Setting up inception_4b/5x5
I0403 15:44:56.142235 14326 net.cpp:148] Top shape: 24 64 14 14 (301056)
I0403 15:44:56.142251 14326 net.cpp:156] Memory required for data: 966976800
I0403 15:44:56.142271 14326 layer_factory.hpp:77] Creating layer inception_4b/relu_5x5
I0403 15:44:56.142292 14326 net.cpp:91] Creating Layer inception_4b/relu_5x5
I0403 15:44:56.142310 14326 net.cpp:425] inception_4b/relu_5x5 <- inception_4b/5x5
I0403 15:44:56.142330 14326 net.cpp:386] inception_4b/relu_5x5 -> inception_4b/5x5 (in-place)
I0403 15:44:56.142637 14326 net.cpp:141] Setting up inception_4b/relu_5x5
I0403 15:44:56.142664 14326 net.cpp:148] Top shape: 24 64 14 14 (301056)
I0403 15:44:56.142681 14326 net.cpp:156] Memory required for data: 968181024
I0403 15:44:56.142698 14326 layer_factory.hpp:77] Creating layer inception_4b/pool
I0403 15:44:56.142720 14326 net.cpp:91] Creating Layer inception_4b/pool
I0403 15:44:56.142740 14326 net.cpp:425] inception_4b/pool <- inception_4a/output_inception_4a/output_0_split_4
I0403 15:44:56.142771 14326 net.cpp:399] inception_4b/pool -> inception_4b/pool
I0403 15:44:56.142840 14326 net.cpp:141] Setting up inception_4b/pool
I0403 15:44:56.142868 14326 net.cpp:148] Top shape: 24 512 14 14 (2408448)
I0403 15:44:56.142882 14326 net.cpp:156] Memory required for data: 977814816
I0403 15:44:56.142897 14326 layer_factory.hpp:77] Creating layer inception_4b/pool_proj
I0403 15:44:56.142920 14326 net.cpp:91] Creating Layer inception_4b/pool_proj
I0403 15:44:56.142940 14326 net.cpp:425] inception_4b/pool_proj <- inception_4b/pool
I0403 15:44:56.142961 14326 net.cpp:399] inception_4b/pool_proj -> inception_4b/pool_proj
I0403 15:44:56.144240 14326 net.cpp:141] Setting up inception_4b/pool_proj
I0403 15:44:56.144270 14326 net.cpp:148] Top shape: 24 64 14 14 (301056)
I0403 15:44:56.144286 14326 net.cpp:156] Memory required for data: 979019040
I0403 15:44:56.144304 14326 layer_factory.hpp:77] Creating layer inception_4b/relu_pool_proj
I0403 15:44:56.144325 14326 net.cpp:91] Creating Layer inception_4b/relu_pool_proj
I0403 15:44:56.144342 14326 net.cpp:425] inception_4b/relu_pool_proj <- inception_4b/pool_proj
I0403 15:44:56.144372 14326 net.cpp:386] inception_4b/relu_pool_proj -> inception_4b/pool_proj (in-place)
I0403 15:44:56.144567 14326 net.cpp:141] Setting up inception_4b/relu_pool_proj
I0403 15:44:56.144594 14326 net.cpp:148] Top shape: 24 64 14 14 (301056)
I0403 15:44:56.144610 14326 net.cpp:156] Memory required for data: 980223264
I0403 15:44:56.144625 14326 layer_factory.hpp:77] Creating layer inception_4b/output
I0403 15:44:56.144655 14326 net.cpp:91] Creating Layer inception_4b/output
I0403 15:44:56.144670 14326 net.cpp:425] inception_4b/output <- inception_4b/1x1
I0403 15:44:56.144687 14326 net.cpp:425] inception_4b/output <- inception_4b/3x3
I0403 15:44:56.144703 14326 net.cpp:425] inception_4b/output <- inception_4b/5x5
I0403 15:44:56.144719 14326 net.cpp:425] inception_4b/output <- inception_4b/pool_proj
I0403 15:44:56.144739 14326 net.cpp:399] inception_4b/output -> inception_4b/output
I0403 15:44:56.144786 14326 net.cpp:141] Setting up inception_4b/output
I0403 15:44:56.144815 14326 net.cpp:148] Top shape: 24 512 14 14 (2408448)
I0403 15:44:56.144831 14326 net.cpp:156] Memory required for data: 989857056
I0403 15:44:56.144862 14326 layer_factory.hpp:77] Creating layer inception_4b/output_inception_4b/output_0_split
I0403 15:44:56.144881 14326 net.cpp:91] Creating Layer inception_4b/output_inception_4b/output_0_split
I0403 15:44:56.144896 14326 net.cpp:425] inception_4b/output_inception_4b/output_0_split <- inception_4b/output
I0403 15:44:56.144915 14326 net.cpp:399] inception_4b/output_inception_4b/output_0_split -> inception_4b/output_inception_4b/output_0_split_0
I0403 15:44:56.144935 14326 net.cpp:399] inception_4b/output_inception_4b/output_0_split -> inception_4b/output_inception_4b/output_0_split_1
I0403 15:44:56.144959 14326 net.cpp:399] inception_4b/output_inception_4b/output_0_split -> inception_4b/output_inception_4b/output_0_split_2
I0403 15:44:56.144982 14326 net.cpp:399] inception_4b/output_inception_4b/output_0_split -> inception_4b/output_inception_4b/output_0_split_3
I0403 15:44:56.145069 14326 net.cpp:141] Setting up inception_4b/output_inception_4b/output_0_split
I0403 15:44:56.145097 14326 net.cpp:148] Top shape: 24 512 14 14 (2408448)
I0403 15:44:56.145117 14326 net.cpp:148] Top shape: 24 512 14 14 (2408448)
I0403 15:44:56.145133 14326 net.cpp:148] Top shape: 24 512 14 14 (2408448)
I0403 15:44:56.145150 14326 net.cpp:148] Top shape: 24 512 14 14 (2408448)
I0403 15:44:56.145164 14326 net.cpp:156] Memory required for data: 1028392224
I0403 15:44:56.145179 14326 layer_factory.hpp:77] Creating layer inception_4c/1x1
I0403 15:44:56.145201 14326 net.cpp:91] Creating Layer inception_4c/1x1
I0403 15:44:56.145220 14326 net.cpp:425] inception_4c/1x1 <- inception_4b/output_inception_4b/output_0_split_0
I0403 15:44:56.145242 14326 net.cpp:399] inception_4c/1x1 -> inception_4c/1x1
I0403 15:44:56.146842 14326 net.cpp:141] Setting up inception_4c/1x1
I0403 15:44:56.146873 14326 net.cpp:148] Top shape: 24 128 14 14 (602112)
I0403 15:44:56.146890 14326 net.cpp:156] Memory required for data: 1030800672
I0403 15:44:56.146909 14326 layer_factory.hpp:77] Creating layer inception_4c/relu_1x1
I0403 15:44:56.146929 14326 net.cpp:91] Creating Layer inception_4c/relu_1x1
I0403 15:44:56.146945 14326 net.cpp:425] inception_4c/relu_1x1 <- inception_4c/1x1
I0403 15:44:56.146965 14326 net.cpp:386] inception_4c/relu_1x1 -> inception_4c/1x1 (in-place)
I0403 15:44:56.147167 14326 net.cpp:141] Setting up inception_4c/relu_1x1
I0403 15:44:56.147194 14326 net.cpp:148] Top shape: 24 128 14 14 (602112)
I0403 15:44:56.147210 14326 net.cpp:156] Memory required for data: 1033209120
I0403 15:44:56.147227 14326 layer_factory.hpp:77] Creating layer inception_4c/3x3_reduce
I0403 15:44:56.147251 14326 net.cpp:91] Creating Layer inception_4c/3x3_reduce
I0403 15:44:56.147270 14326 net.cpp:425] inception_4c/3x3_reduce <- inception_4b/output_inception_4b/output_0_split_1
I0403 15:44:56.147294 14326 net.cpp:399] inception_4c/3x3_reduce -> inception_4c/3x3_reduce
I0403 15:44:56.149349 14326 net.cpp:141] Setting up inception_4c/3x3_reduce
I0403 15:44:56.149381 14326 net.cpp:148] Top shape: 24 128 14 14 (602112)
I0403 15:44:56.149397 14326 net.cpp:156] Memory required for data: 1035617568
I0403 15:44:56.149416 14326 layer_factory.hpp:77] Creating layer inception_4c/relu_3x3_reduce
I0403 15:44:56.149438 14326 net.cpp:91] Creating Layer inception_4c/relu_3x3_reduce
I0403 15:44:56.149456 14326 net.cpp:425] inception_4c/relu_3x3_reduce <- inception_4c/3x3_reduce
I0403 15:44:56.149477 14326 net.cpp:386] inception_4c/relu_3x3_reduce -> inception_4c/3x3_reduce (in-place)
I0403 15:44:56.149776 14326 net.cpp:141] Setting up inception_4c/relu_3x3_reduce
I0403 15:44:56.149806 14326 net.cpp:148] Top shape: 24 128 14 14 (602112)
I0403 15:44:56.149821 14326 net.cpp:156] Memory required for data: 1038026016
I0403 15:44:56.149837 14326 layer_factory.hpp:77] Creating layer inception_4c/3x3
I0403 15:44:56.149862 14326 net.cpp:91] Creating Layer inception_4c/3x3
I0403 15:44:56.149880 14326 net.cpp:425] inception_4c/3x3 <- inception_4c/3x3_reduce
I0403 15:44:56.149904 14326 net.cpp:399] inception_4c/3x3 -> inception_4c/3x3
I0403 15:44:56.153733 14326 net.cpp:141] Setting up inception_4c/3x3
I0403 15:44:56.153777 14326 net.cpp:148] Top shape: 24 256 14 14 (1204224)
I0403 15:44:56.153795 14326 net.cpp:156] Memory required for data: 1042842912
I0403 15:44:56.153830 14326 layer_factory.hpp:77] Creating layer inception_4c/relu_3x3
I0403 15:44:56.153853 14326 net.cpp:91] Creating Layer inception_4c/relu_3x3
I0403 15:44:56.153872 14326 net.cpp:425] inception_4c/relu_3x3 <- inception_4c/3x3
I0403 15:44:56.153892 14326 net.cpp:386] inception_4c/relu_3x3 -> inception_4c/3x3 (in-place)
I0403 15:44:56.154085 14326 net.cpp:141] Setting up inception_4c/relu_3x3
I0403 15:44:56.154119 14326 net.cpp:148] Top shape: 24 256 14 14 (1204224)
I0403 15:44:56.154137 14326 net.cpp:156] Memory required for data: 1047659808
I0403 15:44:56.154155 14326 layer_factory.hpp:77] Creating layer inception_4c/5x5_reduce
I0403 15:44:56.154180 14326 net.cpp:91] Creating Layer inception_4c/5x5_reduce
I0403 15:44:56.154198 14326 net.cpp:425] inception_4c/5x5_reduce <- inception_4b/output_inception_4b/output_0_split_2
I0403 15:44:56.154219 14326 net.cpp:399] inception_4c/5x5_reduce -> inception_4c/5x5_reduce
I0403 15:44:56.155378 14326 net.cpp:141] Setting up inception_4c/5x5_reduce
I0403 15:44:56.155411 14326 net.cpp:148] Top shape: 24 24 14 14 (112896)
I0403 15:44:56.155429 14326 net.cpp:156] Memory required for data: 1048111392
I0403 15:44:56.155449 14326 layer_factory.hpp:77] Creating layer inception_4c/relu_5x5_reduce
I0403 15:44:56.155467 14326 net.cpp:91] Creating Layer inception_4c/relu_5x5_reduce
I0403 15:44:56.155483 14326 net.cpp:425] inception_4c/relu_5x5_reduce <- inception_4c/5x5_reduce
I0403 15:44:56.155501 14326 net.cpp:386] inception_4c/relu_5x5_reduce -> inception_4c/5x5_reduce (in-place)
I0403 15:44:56.155699 14326 net.cpp:141] Setting up inception_4c/relu_5x5_reduce
I0403 15:44:56.155728 14326 net.cpp:148] Top shape: 24 24 14 14 (112896)
I0403 15:44:56.155745 14326 net.cpp:156] Memory required for data: 1048562976
I0403 15:44:56.155761 14326 layer_factory.hpp:77] Creating layer inception_4c/5x5
I0403 15:44:56.155786 14326 net.cpp:91] Creating Layer inception_4c/5x5
I0403 15:44:56.155804 14326 net.cpp:425] inception_4c/5x5 <- inception_4c/5x5_reduce
I0403 15:44:56.155827 14326 net.cpp:399] inception_4c/5x5 -> inception_4c/5x5
I0403 15:44:56.157160 14326 net.cpp:141] Setting up inception_4c/5x5
I0403 15:44:56.157191 14326 net.cpp:148] Top shape: 24 64 14 14 (301056)
I0403 15:44:56.157207 14326 net.cpp:156] Memory required for data: 1049767200
I0403 15:44:56.157227 14326 layer_factory.hpp:77] Creating layer inception_4c/relu_5x5
I0403 15:44:56.157245 14326 net.cpp:91] Creating Layer inception_4c/relu_5x5
I0403 15:44:56.157263 14326 net.cpp:425] inception_4c/relu_5x5 <- inception_4c/5x5
I0403 15:44:56.157284 14326 net.cpp:386] inception_4c/relu_5x5 -> inception_4c/5x5 (in-place)
I0403 15:44:56.157589 14326 net.cpp:141] Setting up inception_4c/relu_5x5
I0403 15:44:56.157618 14326 net.cpp:148] Top shape: 24 64 14 14 (301056)
I0403 15:44:56.157634 14326 net.cpp:156] Memory required for data: 1050971424
I0403 15:44:56.157649 14326 layer_factory.hpp:77] Creating layer inception_4c/pool
I0403 15:44:56.157666 14326 net.cpp:91] Creating Layer inception_4c/pool
I0403 15:44:56.157683 14326 net.cpp:425] inception_4c/pool <- inception_4b/output_inception_4b/output_0_split_3
I0403 15:44:56.157706 14326 net.cpp:399] inception_4c/pool -> inception_4c/pool
I0403 15:44:56.157775 14326 net.cpp:141] Setting up inception_4c/pool
I0403 15:44:56.157801 14326 net.cpp:148] Top shape: 24 512 14 14 (2408448)
I0403 15:44:56.157816 14326 net.cpp:156] Memory required for data: 1060605216
I0403 15:44:56.157831 14326 layer_factory.hpp:77] Creating layer inception_4c/pool_proj
I0403 15:44:56.157856 14326 net.cpp:91] Creating Layer inception_4c/pool_proj
I0403 15:44:56.157874 14326 net.cpp:425] inception_4c/pool_proj <- inception_4c/pool
I0403 15:44:56.157894 14326 net.cpp:399] inception_4c/pool_proj -> inception_4c/pool_proj
I0403 15:44:56.159209 14326 net.cpp:141] Setting up inception_4c/pool_proj
I0403 15:44:56.159240 14326 net.cpp:148] Top shape: 24 64 14 14 (301056)
I0403 15:44:56.159271 14326 net.cpp:156] Memory required for data: 1061809440
I0403 15:44:56.159292 14326 layer_factory.hpp:77] Creating layer inception_4c/relu_pool_proj
I0403 15:44:56.159314 14326 net.cpp:91] Creating Layer inception_4c/relu_pool_proj
I0403 15:44:56.159333 14326 net.cpp:425] inception_4c/relu_pool_proj <- inception_4c/pool_proj
I0403 15:44:56.159353 14326 net.cpp:386] inception_4c/relu_pool_proj -> inception_4c/pool_proj (in-place)
I0403 15:44:56.159551 14326 net.cpp:141] Setting up inception_4c/relu_pool_proj
I0403 15:44:56.159579 14326 net.cpp:148] Top shape: 24 64 14 14 (301056)
I0403 15:44:56.159595 14326 net.cpp:156] Memory required for data: 1063013664
I0403 15:44:56.159610 14326 layer_factory.hpp:77] Creating layer inception_4c/output
I0403 15:44:56.159627 14326 net.cpp:91] Creating Layer inception_4c/output
I0403 15:44:56.159644 14326 net.cpp:425] inception_4c/output <- inception_4c/1x1
I0403 15:44:56.159662 14326 net.cpp:425] inception_4c/output <- inception_4c/3x3
I0403 15:44:56.159678 14326 net.cpp:425] inception_4c/output <- inception_4c/5x5
I0403 15:44:56.159694 14326 net.cpp:425] inception_4c/output <- inception_4c/pool_proj
I0403 15:44:56.159714 14326 net.cpp:399] inception_4c/output -> inception_4c/output
I0403 15:44:56.159765 14326 net.cpp:141] Setting up inception_4c/output
I0403 15:44:56.159792 14326 net.cpp:148] Top shape: 24 512 14 14 (2408448)
I0403 15:44:56.159808 14326 net.cpp:156] Memory required for data: 1072647456
I0403 15:44:56.159823 14326 layer_factory.hpp:77] Creating layer inception_4c/output_inception_4c/output_0_split
I0403 15:44:56.159842 14326 net.cpp:91] Creating Layer inception_4c/output_inception_4c/output_0_split
I0403 15:44:56.159857 14326 net.cpp:425] inception_4c/output_inception_4c/output_0_split <- inception_4c/output
I0403 15:44:56.159876 14326 net.cpp:399] inception_4c/output_inception_4c/output_0_split -> inception_4c/output_inception_4c/output_0_split_0
I0403 15:44:56.159898 14326 net.cpp:399] inception_4c/output_inception_4c/output_0_split -> inception_4c/output_inception_4c/output_0_split_1
I0403 15:44:56.159919 14326 net.cpp:399] inception_4c/output_inception_4c/output_0_split -> inception_4c/output_inception_4c/output_0_split_2
I0403 15:44:56.159942 14326 net.cpp:399] inception_4c/output_inception_4c/output_0_split -> inception_4c/output_inception_4c/output_0_split_3
I0403 15:44:56.160038 14326 net.cpp:141] Setting up inception_4c/output_inception_4c/output_0_split
I0403 15:44:56.160063 14326 net.cpp:148] Top shape: 24 512 14 14 (2408448)
I0403 15:44:56.160080 14326 net.cpp:148] Top shape: 24 512 14 14 (2408448)
I0403 15:44:56.160104 14326 net.cpp:148] Top shape: 24 512 14 14 (2408448)
I0403 15:44:56.160121 14326 net.cpp:148] Top shape: 24 512 14 14 (2408448)
I0403 15:44:56.160136 14326 net.cpp:156] Memory required for data: 1111182624
I0403 15:44:56.160151 14326 layer_factory.hpp:77] Creating layer inception_4d/1x1
I0403 15:44:56.160176 14326 net.cpp:91] Creating Layer inception_4d/1x1
I0403 15:44:56.160193 14326 net.cpp:425] inception_4d/1x1 <- inception_4c/output_inception_4c/output_0_split_0
I0403 15:44:56.160215 14326 net.cpp:399] inception_4d/1x1 -> inception_4d/1x1
I0403 15:44:56.161702 14326 net.cpp:141] Setting up inception_4d/1x1
I0403 15:44:56.161732 14326 net.cpp:148] Top shape: 24 112 14 14 (526848)
I0403 15:44:56.161748 14326 net.cpp:156] Memory required for data: 1113290016
I0403 15:44:56.161768 14326 layer_factory.hpp:77] Creating layer inception_4d/relu_1x1
I0403 15:44:56.161789 14326 net.cpp:91] Creating Layer inception_4d/relu_1x1
I0403 15:44:56.161808 14326 net.cpp:425] inception_4d/relu_1x1 <- inception_4d/1x1
I0403 15:44:56.161826 14326 net.cpp:386] inception_4d/relu_1x1 -> inception_4d/1x1 (in-place)
I0403 15:44:56.162022 14326 net.cpp:141] Setting up inception_4d/relu_1x1
I0403 15:44:56.162051 14326 net.cpp:148] Top shape: 24 112 14 14 (526848)
I0403 15:44:56.162068 14326 net.cpp:156] Memory required for data: 1115397408
I0403 15:44:56.162084 14326 layer_factory.hpp:77] Creating layer inception_4d/3x3_reduce
I0403 15:44:56.162135 14326 net.cpp:91] Creating Layer inception_4d/3x3_reduce
I0403 15:44:56.162158 14326 net.cpp:425] inception_4d/3x3_reduce <- inception_4c/output_inception_4c/output_0_split_1
I0403 15:44:56.162179 14326 net.cpp:399] inception_4d/3x3_reduce -> inception_4d/3x3_reduce
I0403 15:44:56.163789 14326 net.cpp:141] Setting up inception_4d/3x3_reduce
I0403 15:44:56.163818 14326 net.cpp:148] Top shape: 24 144 14 14 (677376)
I0403 15:44:56.163836 14326 net.cpp:156] Memory required for data: 1118106912
I0403 15:44:56.163854 14326 layer_factory.hpp:77] Creating layer inception_4d/relu_3x3_reduce
I0403 15:44:56.163873 14326 net.cpp:91] Creating Layer inception_4d/relu_3x3_reduce
I0403 15:44:56.163890 14326 net.cpp:425] inception_4d/relu_3x3_reduce <- inception_4d/3x3_reduce
I0403 15:44:56.163913 14326 net.cpp:386] inception_4d/relu_3x3_reduce -> inception_4d/3x3_reduce (in-place)
I0403 15:44:56.164232 14326 net.cpp:141] Setting up inception_4d/relu_3x3_reduce
I0403 15:44:56.164260 14326 net.cpp:148] Top shape: 24 144 14 14 (677376)
I0403 15:44:56.164276 14326 net.cpp:156] Memory required for data: 1120816416
I0403 15:44:56.164291 14326 layer_factory.hpp:77] Creating layer inception_4d/3x3
I0403 15:44:56.164316 14326 net.cpp:91] Creating Layer inception_4d/3x3
I0403 15:44:56.164335 14326 net.cpp:425] inception_4d/3x3 <- inception_4d/3x3_reduce
I0403 15:44:56.164358 14326 net.cpp:399] inception_4d/3x3 -> inception_4d/3x3
I0403 15:44:56.168886 14326 net.cpp:141] Setting up inception_4d/3x3
I0403 15:44:56.168916 14326 net.cpp:148] Top shape: 24 288 14 14 (1354752)
I0403 15:44:56.168932 14326 net.cpp:156] Memory required for data: 1126235424
I0403 15:44:56.168951 14326 layer_factory.hpp:77] Creating layer inception_4d/relu_3x3
I0403 15:44:56.168972 14326 net.cpp:91] Creating Layer inception_4d/relu_3x3
I0403 15:44:56.168989 14326 net.cpp:425] inception_4d/relu_3x3 <- inception_4d/3x3
I0403 15:44:56.169008 14326 net.cpp:386] inception_4d/relu_3x3 -> inception_4d/3x3 (in-place)
I0403 15:44:56.169205 14326 net.cpp:141] Setting up inception_4d/relu_3x3
I0403 15:44:56.169247 14326 net.cpp:148] Top shape: 24 288 14 14 (1354752)
I0403 15:44:56.169265 14326 net.cpp:156] Memory required for data: 1131654432
I0403 15:44:56.169280 14326 layer_factory.hpp:77] Creating layer inception_4d/5x5_reduce
I0403 15:44:56.169303 14326 net.cpp:91] Creating Layer inception_4d/5x5_reduce
I0403 15:44:56.169322 14326 net.cpp:425] inception_4d/5x5_reduce <- inception_4c/output_inception_4c/output_0_split_2
I0403 15:44:56.169343 14326 net.cpp:399] inception_4d/5x5_reduce -> inception_4d/5x5_reduce
I0403 15:44:56.170572 14326 net.cpp:141] Setting up inception_4d/5x5_reduce
I0403 15:44:56.170601 14326 net.cpp:148] Top shape: 24 32 14 14 (150528)
I0403 15:44:56.170617 14326 net.cpp:156] Memory required for data: 1132256544
I0403 15:44:56.170635 14326 layer_factory.hpp:77] Creating layer inception_4d/relu_5x5_reduce
I0403 15:44:56.170656 14326 net.cpp:91] Creating Layer inception_4d/relu_5x5_reduce
I0403 15:44:56.170675 14326 net.cpp:425] inception_4d/relu_5x5_reduce <- inception_4d/5x5_reduce
I0403 15:44:56.170694 14326 net.cpp:386] inception_4d/relu_5x5_reduce -> inception_4d/5x5_reduce (in-place)
I0403 15:44:56.170882 14326 net.cpp:141] Setting up inception_4d/relu_5x5_reduce
I0403 15:44:56.170912 14326 net.cpp:148] Top shape: 24 32 14 14 (150528)
I0403 15:44:56.170928 14326 net.cpp:156] Memory required for data: 1132858656
I0403 15:44:56.170943 14326 layer_factory.hpp:77] Creating layer inception_4d/5x5
I0403 15:44:56.170965 14326 net.cpp:91] Creating Layer inception_4d/5x5
I0403 15:44:56.170984 14326 net.cpp:425] inception_4d/5x5 <- inception_4d/5x5_reduce
I0403 15:44:56.171002 14326 net.cpp:399] inception_4d/5x5 -> inception_4d/5x5
I0403 15:44:56.172566 14326 net.cpp:141] Setting up inception_4d/5x5
I0403 15:44:56.172601 14326 net.cpp:148] Top shape: 24 64 14 14 (301056)
I0403 15:44:56.172618 14326 net.cpp:156] Memory required for data: 1134062880
I0403 15:44:56.172638 14326 layer_factory.hpp:77] Creating layer inception_4d/relu_5x5
I0403 15:44:56.172672 14326 net.cpp:91] Creating Layer inception_4d/relu_5x5
I0403 15:44:56.172690 14326 net.cpp:425] inception_4d/relu_5x5 <- inception_4d/5x5
I0403 15:44:56.172708 14326 net.cpp:386] inception_4d/relu_5x5 -> inception_4d/5x5 (in-place)
I0403 15:44:56.173035 14326 net.cpp:141] Setting up inception_4d/relu_5x5
I0403 15:44:56.173066 14326 net.cpp:148] Top shape: 24 64 14 14 (301056)
I0403 15:44:56.173102 14326 net.cpp:156] Memory required for data: 1135267104
I0403 15:44:56.173120 14326 layer_factory.hpp:77] Creating layer inception_4d/pool
I0403 15:44:56.173141 14326 net.cpp:91] Creating Layer inception_4d/pool
I0403 15:44:56.173157 14326 net.cpp:425] inception_4d/pool <- inception_4c/output_inception_4c/output_0_split_3
I0403 15:44:56.173178 14326 net.cpp:399] inception_4d/pool -> inception_4d/pool
I0403 15:44:56.173249 14326 net.cpp:141] Setting up inception_4d/pool
I0403 15:44:56.173274 14326 net.cpp:148] Top shape: 24 512 14 14 (2408448)
I0403 15:44:56.173290 14326 net.cpp:156] Memory required for data: 1144900896
I0403 15:44:56.173305 14326 layer_factory.hpp:77] Creating layer inception_4d/pool_proj
I0403 15:44:56.173327 14326 net.cpp:91] Creating Layer inception_4d/pool_proj
I0403 15:44:56.173346 14326 net.cpp:425] inception_4d/pool_proj <- inception_4d/pool
I0403 15:44:56.173367 14326 net.cpp:399] inception_4d/pool_proj -> inception_4d/pool_proj
I0403 15:44:56.175232 14326 net.cpp:141] Setting up inception_4d/pool_proj
I0403 15:44:56.175262 14326 net.cpp:148] Top shape: 24 64 14 14 (301056)
I0403 15:44:56.175279 14326 net.cpp:156] Memory required for data: 1146105120
I0403 15:44:56.175297 14326 layer_factory.hpp:77] Creating layer inception_4d/relu_pool_proj
I0403 15:44:56.175319 14326 net.cpp:91] Creating Layer inception_4d/relu_pool_proj
I0403 15:44:56.175338 14326 net.cpp:425] inception_4d/relu_pool_proj <- inception_4d/pool_proj
I0403 15:44:56.175355 14326 net.cpp:386] inception_4d/relu_pool_proj -> inception_4d/pool_proj (in-place)
I0403 15:44:56.175549 14326 net.cpp:141] Setting up inception_4d/relu_pool_proj
I0403 15:44:56.175577 14326 net.cpp:148] Top shape: 24 64 14 14 (301056)
I0403 15:44:56.175595 14326 net.cpp:156] Memory required for data: 1147309344
I0403 15:44:56.175609 14326 layer_factory.hpp:77] Creating layer inception_4d/output
I0403 15:44:56.175627 14326 net.cpp:91] Creating Layer inception_4d/output
I0403 15:44:56.175643 14326 net.cpp:425] inception_4d/output <- inception_4d/1x1
I0403 15:44:56.175660 14326 net.cpp:425] inception_4d/output <- inception_4d/3x3
I0403 15:44:56.175676 14326 net.cpp:425] inception_4d/output <- inception_4d/5x5
I0403 15:44:56.175693 14326 net.cpp:425] inception_4d/output <- inception_4d/pool_proj
I0403 15:44:56.175710 14326 net.cpp:399] inception_4d/output -> inception_4d/output
I0403 15:44:56.175760 14326 net.cpp:141] Setting up inception_4d/output
I0403 15:44:56.175784 14326 net.cpp:148] Top shape: 24 528 14 14 (2483712)
I0403 15:44:56.175801 14326 net.cpp:156] Memory required for data: 1157244192
I0403 15:44:56.175815 14326 layer_factory.hpp:77] Creating layer inception_4d/output_inception_4d/output_0_split
I0403 15:44:56.175833 14326 net.cpp:91] Creating Layer inception_4d/output_inception_4d/output_0_split
I0403 15:44:56.175850 14326 net.cpp:425] inception_4d/output_inception_4d/output_0_split <- inception_4d/output
I0403 15:44:56.175871 14326 net.cpp:399] inception_4d/output_inception_4d/output_0_split -> inception_4d/output_inception_4d/output_0_split_0
I0403 15:44:56.175894 14326 net.cpp:399] inception_4d/output_inception_4d/output_0_split -> inception_4d/output_inception_4d/output_0_split_1
I0403 15:44:56.175915 14326 net.cpp:399] inception_4d/output_inception_4d/output_0_split -> inception_4d/output_inception_4d/output_0_split_2
I0403 15:44:56.175942 14326 net.cpp:399] inception_4d/output_inception_4d/output_0_split -> inception_4d/output_inception_4d/output_0_split_3
I0403 15:44:56.175963 14326 net.cpp:399] inception_4d/output_inception_4d/output_0_split -> inception_4d/output_inception_4d/output_0_split_4
I0403 15:44:56.176069 14326 net.cpp:141] Setting up inception_4d/output_inception_4d/output_0_split
I0403 15:44:56.176126 14326 net.cpp:148] Top shape: 24 528 14 14 (2483712)
I0403 15:44:56.176146 14326 net.cpp:148] Top shape: 24 528 14 14 (2483712)
I0403 15:44:56.176162 14326 net.cpp:148] Top shape: 24 528 14 14 (2483712)
I0403 15:44:56.176179 14326 net.cpp:148] Top shape: 24 528 14 14 (2483712)
I0403 15:44:56.176195 14326 net.cpp:148] Top shape: 24 528 14 14 (2483712)
I0403 15:44:56.176210 14326 net.cpp:156] Memory required for data: 1206918432
I0403 15:44:56.176225 14326 layer_factory.hpp:77] Creating layer loss2/ave_pool
I0403 15:44:56.176244 14326 net.cpp:91] Creating Layer loss2/ave_pool
I0403 15:44:56.176261 14326 net.cpp:425] loss2/ave_pool <- inception_4d/output_inception_4d/output_0_split_0
I0403 15:44:56.176283 14326 net.cpp:399] loss2/ave_pool -> loss2/ave_pool
I0403 15:44:56.176620 14326 net.cpp:141] Setting up loss2/ave_pool
I0403 15:44:56.176646 14326 net.cpp:148] Top shape: 24 528 4 4 (202752)
I0403 15:44:56.176662 14326 net.cpp:156] Memory required for data: 1207729440
I0403 15:44:56.176677 14326 layer_factory.hpp:77] Creating layer loss2/conv
I0403 15:44:56.176700 14326 net.cpp:91] Creating Layer loss2/conv
I0403 15:44:56.176719 14326 net.cpp:425] loss2/conv <- loss2/ave_pool
I0403 15:44:56.176740 14326 net.cpp:399] loss2/conv -> loss2/conv
I0403 15:44:56.178647 14326 net.cpp:141] Setting up loss2/conv
I0403 15:44:56.178679 14326 net.cpp:148] Top shape: 24 128 4 4 (49152)
I0403 15:44:56.178697 14326 net.cpp:156] Memory required for data: 1207926048
I0403 15:44:56.178716 14326 layer_factory.hpp:77] Creating layer loss2/relu_conv
I0403 15:44:56.178733 14326 net.cpp:91] Creating Layer loss2/relu_conv
I0403 15:44:56.178750 14326 net.cpp:425] loss2/relu_conv <- loss2/conv
I0403 15:44:56.178769 14326 net.cpp:386] loss2/relu_conv -> loss2/conv (in-place)
I0403 15:44:56.179054 14326 net.cpp:141] Setting up loss2/relu_conv
I0403 15:44:56.179082 14326 net.cpp:148] Top shape: 24 128 4 4 (49152)
I0403 15:44:56.179105 14326 net.cpp:156] Memory required for data: 1208122656
I0403 15:44:56.179122 14326 layer_factory.hpp:77] Creating layer loss2/fc
I0403 15:44:56.179141 14326 net.cpp:91] Creating Layer loss2/fc
I0403 15:44:56.179158 14326 net.cpp:425] loss2/fc <- loss2/conv
I0403 15:44:56.179179 14326 net.cpp:399] loss2/fc -> loss2/fc
I0403 15:44:56.196985 14326 net.cpp:141] Setting up loss2/fc
I0403 15:44:56.197018 14326 net.cpp:148] Top shape: 24 1024 (24576)
I0403 15:44:56.197034 14326 net.cpp:156] Memory required for data: 1208220960
I0403 15:44:56.197053 14326 layer_factory.hpp:77] Creating layer loss2/relu_fc
I0403 15:44:56.197074 14326 net.cpp:91] Creating Layer loss2/relu_fc
I0403 15:44:56.197093 14326 net.cpp:425] loss2/relu_fc <- loss2/fc
I0403 15:44:56.197118 14326 net.cpp:386] loss2/relu_fc -> loss2/fc (in-place)
I0403 15:44:56.197455 14326 net.cpp:141] Setting up loss2/relu_fc
I0403 15:44:56.197484 14326 net.cpp:148] Top shape: 24 1024 (24576)
I0403 15:44:56.197511 14326 net.cpp:156] Memory required for data: 1208319264
I0403 15:44:56.197526 14326 layer_factory.hpp:77] Creating layer loss2/drop_fc
I0403 15:44:56.197548 14326 net.cpp:91] Creating Layer loss2/drop_fc
I0403 15:44:56.197577 14326 net.cpp:425] loss2/drop_fc <- loss2/fc
I0403 15:44:56.197595 14326 net.cpp:386] loss2/drop_fc -> loss2/fc (in-place)
I0403 15:44:56.197648 14326 net.cpp:141] Setting up loss2/drop_fc
I0403 15:44:56.197671 14326 net.cpp:148] Top shape: 24 1024 (24576)
I0403 15:44:56.197685 14326 net.cpp:156] Memory required for data: 1208417568
I0403 15:44:56.197701 14326 layer_factory.hpp:77] Creating layer loss2/classifier_plantvillage
I0403 15:44:56.197720 14326 net.cpp:91] Creating Layer loss2/classifier_plantvillage
I0403 15:44:56.197736 14326 net.cpp:425] loss2/classifier_plantvillage <- loss2/fc
I0403 15:44:56.197757 14326 net.cpp:399] loss2/classifier_plantvillage -> loss2/classifier_plantvillage
I0403 15:44:56.198215 14326 net.cpp:141] Setting up loss2/classifier_plantvillage
I0403 15:44:56.198241 14326 net.cpp:148] Top shape: 24 38 (912)
I0403 15:44:56.198259 14326 net.cpp:156] Memory required for data: 1208421216
I0403 15:44:56.198297 14326 layer_factory.hpp:77] Creating layer loss2/classifier_plantvillage_loss2/classifier_plantvillage_0_split
I0403 15:44:56.198330 14326 net.cpp:91] Creating Layer loss2/classifier_plantvillage_loss2/classifier_plantvillage_0_split
I0403 15:44:56.198346 14326 net.cpp:425] loss2/classifier_plantvillage_loss2/classifier_plantvillage_0_split <- loss2/classifier_plantvillage
I0403 15:44:56.198379 14326 net.cpp:399] loss2/classifier_plantvillage_loss2/classifier_plantvillage_0_split -> loss2/classifier_plantvillage_loss2/classifier_plantvillage_0_split_0
I0403 15:44:56.198400 14326 net.cpp:399] loss2/classifier_plantvillage_loss2/classifier_plantvillage_0_split -> loss2/classifier_plantvillage_loss2/classifier_plantvillage_0_split_1
I0403 15:44:56.198422 14326 net.cpp:399] loss2/classifier_plantvillage_loss2/classifier_plantvillage_0_split -> loss2/classifier_plantvillage_loss2/classifier_plantvillage_0_split_2
I0403 15:44:56.198498 14326 net.cpp:141] Setting up loss2/classifier_plantvillage_loss2/classifier_plantvillage_0_split
I0403 15:44:56.198525 14326 net.cpp:148] Top shape: 24 38 (912)
I0403 15:44:56.198542 14326 net.cpp:148] Top shape: 24 38 (912)
I0403 15:44:56.198559 14326 net.cpp:148] Top shape: 24 38 (912)
I0403 15:44:56.198572 14326 net.cpp:156] Memory required for data: 1208432160
I0403 15:44:56.198586 14326 layer_factory.hpp:77] Creating layer inception_4e/1x1
I0403 15:44:56.198606 14326 net.cpp:91] Creating Layer inception_4e/1x1
I0403 15:44:56.198623 14326 net.cpp:425] inception_4e/1x1 <- inception_4d/output_inception_4d/output_0_split_1
I0403 15:44:56.198642 14326 net.cpp:399] inception_4e/1x1 -> inception_4e/1x1
I0403 15:44:56.200563 14326 net.cpp:141] Setting up inception_4e/1x1
I0403 15:44:56.200593 14326 net.cpp:148] Top shape: 24 256 14 14 (1204224)
I0403 15:44:56.200609 14326 net.cpp:156] Memory required for data: 1213249056
I0403 15:44:56.200628 14326 layer_factory.hpp:77] Creating layer inception_4e/relu_1x1
I0403 15:44:56.200646 14326 net.cpp:91] Creating Layer inception_4e/relu_1x1
I0403 15:44:56.200661 14326 net.cpp:425] inception_4e/relu_1x1 <- inception_4e/1x1
I0403 15:44:56.200680 14326 net.cpp:386] inception_4e/relu_1x1 -> inception_4e/1x1 (in-place)
I0403 15:44:56.200987 14326 net.cpp:141] Setting up inception_4e/relu_1x1
I0403 15:44:56.201015 14326 net.cpp:148] Top shape: 24 256 14 14 (1204224)
I0403 15:44:56.201031 14326 net.cpp:156] Memory required for data: 1218065952
I0403 15:44:56.201046 14326 layer_factory.hpp:77] Creating layer inception_4e/3x3_reduce
I0403 15:44:56.201071 14326 net.cpp:91] Creating Layer inception_4e/3x3_reduce
I0403 15:44:56.201089 14326 net.cpp:425] inception_4e/3x3_reduce <- inception_4d/output_inception_4d/output_0_split_2
I0403 15:44:56.201118 14326 net.cpp:399] inception_4e/3x3_reduce -> inception_4e/3x3_reduce
I0403 15:44:56.203306 14326 net.cpp:141] Setting up inception_4e/3x3_reduce
I0403 15:44:56.203338 14326 net.cpp:148] Top shape: 24 160 14 14 (752640)
I0403 15:44:56.203356 14326 net.cpp:156] Memory required for data: 1221076512
I0403 15:44:56.203377 14326 layer_factory.hpp:77] Creating layer inception_4e/relu_3x3_reduce
I0403 15:44:56.203395 14326 net.cpp:91] Creating Layer inception_4e/relu_3x3_reduce
I0403 15:44:56.203413 14326 net.cpp:425] inception_4e/relu_3x3_reduce <- inception_4e/3x3_reduce
I0403 15:44:56.203433 14326 net.cpp:386] inception_4e/relu_3x3_reduce -> inception_4e/3x3_reduce (in-place)
I0403 15:44:56.203624 14326 net.cpp:141] Setting up inception_4e/relu_3x3_reduce
I0403 15:44:56.203652 14326 net.cpp:148] Top shape: 24 160 14 14 (752640)
I0403 15:44:56.203667 14326 net.cpp:156] Memory required for data: 1224087072
I0403 15:44:56.203683 14326 layer_factory.hpp:77] Creating layer inception_4e/3x3
I0403 15:44:56.203706 14326 net.cpp:91] Creating Layer inception_4e/3x3
I0403 15:44:56.203725 14326 net.cpp:425] inception_4e/3x3 <- inception_4e/3x3_reduce
I0403 15:44:56.203747 14326 net.cpp:399] inception_4e/3x3 -> inception_4e/3x3
I0403 15:44:56.208972 14326 net.cpp:141] Setting up inception_4e/3x3
I0403 15:44:56.209017 14326 net.cpp:148] Top shape: 24 320 14 14 (1505280)
I0403 15:44:56.209033 14326 net.cpp:156] Memory required for data: 1230108192
I0403 15:44:56.209053 14326 layer_factory.hpp:77] Creating layer inception_4e/relu_3x3
I0403 15:44:56.209071 14326 net.cpp:91] Creating Layer inception_4e/relu_3x3
I0403 15:44:56.209089 14326 net.cpp:425] inception_4e/relu_3x3 <- inception_4e/3x3
I0403 15:44:56.209115 14326 net.cpp:386] inception_4e/relu_3x3 -> inception_4e/3x3 (in-place)
I0403 15:44:56.209430 14326 net.cpp:141] Setting up inception_4e/relu_3x3
I0403 15:44:56.209460 14326 net.cpp:148] Top shape: 24 320 14 14 (1505280)
I0403 15:44:56.209475 14326 net.cpp:156] Memory required for data: 1236129312
I0403 15:44:56.209492 14326 layer_factory.hpp:77] Creating layer inception_4e/5x5_reduce
I0403 15:44:56.209518 14326 net.cpp:91] Creating Layer inception_4e/5x5_reduce
I0403 15:44:56.209537 14326 net.cpp:425] inception_4e/5x5_reduce <- inception_4d/output_inception_4d/output_0_split_3
I0403 15:44:56.209559 14326 net.cpp:399] inception_4e/5x5_reduce -> inception_4e/5x5_reduce
I0403 15:44:56.210665 14326 net.cpp:141] Setting up inception_4e/5x5_reduce
I0403 15:44:56.210697 14326 net.cpp:148] Top shape: 24 32 14 14 (150528)
I0403 15:44:56.210716 14326 net.cpp:156] Memory required for data: 1236731424
I0403 15:44:56.210734 14326 layer_factory.hpp:77] Creating layer inception_4e/relu_5x5_reduce
I0403 15:44:56.210752 14326 net.cpp:91] Creating Layer inception_4e/relu_5x5_reduce
I0403 15:44:56.210768 14326 net.cpp:425] inception_4e/relu_5x5_reduce <- inception_4e/5x5_reduce
I0403 15:44:56.210786 14326 net.cpp:386] inception_4e/relu_5x5_reduce -> inception_4e/5x5_reduce (in-place)
I0403 15:44:56.211091 14326 net.cpp:141] Setting up inception_4e/relu_5x5_reduce
I0403 15:44:56.211127 14326 net.cpp:148] Top shape: 24 32 14 14 (150528)
I0403 15:44:56.211143 14326 net.cpp:156] Memory required for data: 1237333536
I0403 15:44:56.211159 14326 layer_factory.hpp:77] Creating layer inception_4e/5x5
I0403 15:44:56.211199 14326 net.cpp:91] Creating Layer inception_4e/5x5
I0403 15:44:56.211220 14326 net.cpp:425] inception_4e/5x5 <- inception_4e/5x5_reduce
I0403 15:44:56.211241 14326 net.cpp:399] inception_4e/5x5 -> inception_4e/5x5
I0403 15:44:56.213193 14326 net.cpp:141] Setting up inception_4e/5x5
I0403 15:44:56.213223 14326 net.cpp:148] Top shape: 24 128 14 14 (602112)
I0403 15:44:56.213239 14326 net.cpp:156] Memory required for data: 1239741984
I0403 15:44:56.213258 14326 layer_factory.hpp:77] Creating layer inception_4e/relu_5x5
I0403 15:44:56.213279 14326 net.cpp:91] Creating Layer inception_4e/relu_5x5
I0403 15:44:56.213297 14326 net.cpp:425] inception_4e/relu_5x5 <- inception_4e/5x5
I0403 15:44:56.213315 14326 net.cpp:386] inception_4e/relu_5x5 -> inception_4e/5x5 (in-place)
I0403 15:44:56.213521 14326 net.cpp:141] Setting up inception_4e/relu_5x5
I0403 15:44:56.213549 14326 net.cpp:148] Top shape: 24 128 14 14 (602112)
I0403 15:44:56.213565 14326 net.cpp:156] Memory required for data: 1242150432
I0403 15:44:56.213582 14326 layer_factory.hpp:77] Creating layer inception_4e/pool
I0403 15:44:56.213599 14326 net.cpp:91] Creating Layer inception_4e/pool
I0403 15:44:56.213616 14326 net.cpp:425] inception_4e/pool <- inception_4d/output_inception_4d/output_0_split_4
I0403 15:44:56.213639 14326 net.cpp:399] inception_4e/pool -> inception_4e/pool
I0403 15:44:56.213709 14326 net.cpp:141] Setting up inception_4e/pool
I0403 15:44:56.213734 14326 net.cpp:148] Top shape: 24 528 14 14 (2483712)
I0403 15:44:56.213749 14326 net.cpp:156] Memory required for data: 1252085280
I0403 15:44:56.213764 14326 layer_factory.hpp:77] Creating layer inception_4e/pool_proj
I0403 15:44:56.213788 14326 net.cpp:91] Creating Layer inception_4e/pool_proj
I0403 15:44:56.213806 14326 net.cpp:425] inception_4e/pool_proj <- inception_4e/pool
I0403 15:44:56.213827 14326 net.cpp:399] inception_4e/pool_proj -> inception_4e/pool_proj
I0403 15:44:56.215396 14326 net.cpp:141] Setting up inception_4e/pool_proj
I0403 15:44:56.215430 14326 net.cpp:148] Top shape: 24 128 14 14 (602112)
I0403 15:44:56.215463 14326 net.cpp:156] Memory required for data: 1254493728
I0403 15:44:56.215484 14326 layer_factory.hpp:77] Creating layer inception_4e/relu_pool_proj
I0403 15:44:56.215507 14326 net.cpp:91] Creating Layer inception_4e/relu_pool_proj
I0403 15:44:56.215524 14326 net.cpp:425] inception_4e/relu_pool_proj <- inception_4e/pool_proj
I0403 15:44:56.215543 14326 net.cpp:386] inception_4e/relu_pool_proj -> inception_4e/pool_proj (in-place)
I0403 15:44:56.215859 14326 net.cpp:141] Setting up inception_4e/relu_pool_proj
I0403 15:44:56.215888 14326 net.cpp:148] Top shape: 24 128 14 14 (602112)
I0403 15:44:56.215903 14326 net.cpp:156] Memory required for data: 1256902176
I0403 15:44:56.215919 14326 layer_factory.hpp:77] Creating layer inception_4e/output
I0403 15:44:56.215939 14326 net.cpp:91] Creating Layer inception_4e/output
I0403 15:44:56.215956 14326 net.cpp:425] inception_4e/output <- inception_4e/1x1
I0403 15:44:56.215972 14326 net.cpp:425] inception_4e/output <- inception_4e/3x3
I0403 15:44:56.215991 14326 net.cpp:425] inception_4e/output <- inception_4e/5x5
I0403 15:44:56.216006 14326 net.cpp:425] inception_4e/output <- inception_4e/pool_proj
I0403 15:44:56.216023 14326 net.cpp:399] inception_4e/output -> inception_4e/output
I0403 15:44:56.216076 14326 net.cpp:141] Setting up inception_4e/output
I0403 15:44:56.216120 14326 net.cpp:148] Top shape: 24 832 14 14 (3913728)
I0403 15:44:56.216137 14326 net.cpp:156] Memory required for data: 1272557088
I0403 15:44:56.216152 14326 layer_factory.hpp:77] Creating layer pool4/3x3_s2
I0403 15:44:56.216171 14326 net.cpp:91] Creating Layer pool4/3x3_s2
I0403 15:44:56.216188 14326 net.cpp:425] pool4/3x3_s2 <- inception_4e/output
I0403 15:44:56.216210 14326 net.cpp:399] pool4/3x3_s2 -> pool4/3x3_s2
I0403 15:44:56.216281 14326 net.cpp:141] Setting up pool4/3x3_s2
I0403 15:44:56.216310 14326 net.cpp:148] Top shape: 24 832 7 7 (978432)
I0403 15:44:56.216326 14326 net.cpp:156] Memory required for data: 1276470816
I0403 15:44:56.216341 14326 layer_factory.hpp:77] Creating layer pool4/3x3_s2_pool4/3x3_s2_0_split
I0403 15:44:56.216359 14326 net.cpp:91] Creating Layer pool4/3x3_s2_pool4/3x3_s2_0_split
I0403 15:44:56.216375 14326 net.cpp:425] pool4/3x3_s2_pool4/3x3_s2_0_split <- pool4/3x3_s2
I0403 15:44:56.216405 14326 net.cpp:399] pool4/3x3_s2_pool4/3x3_s2_0_split -> pool4/3x3_s2_pool4/3x3_s2_0_split_0
I0403 15:44:56.216428 14326 net.cpp:399] pool4/3x3_s2_pool4/3x3_s2_0_split -> pool4/3x3_s2_pool4/3x3_s2_0_split_1
I0403 15:44:56.216451 14326 net.cpp:399] pool4/3x3_s2_pool4/3x3_s2_0_split -> pool4/3x3_s2_pool4/3x3_s2_0_split_2
I0403 15:44:56.216471 14326 net.cpp:399] pool4/3x3_s2_pool4/3x3_s2_0_split -> pool4/3x3_s2_pool4/3x3_s2_0_split_3
I0403 15:44:56.216567 14326 net.cpp:141] Setting up pool4/3x3_s2_pool4/3x3_s2_0_split
I0403 15:44:56.216591 14326 net.cpp:148] Top shape: 24 832 7 7 (978432)
I0403 15:44:56.216608 14326 net.cpp:148] Top shape: 24 832 7 7 (978432)
I0403 15:44:56.216624 14326 net.cpp:148] Top shape: 24 832 7 7 (978432)
I0403 15:44:56.216639 14326 net.cpp:148] Top shape: 24 832 7 7 (978432)
I0403 15:44:56.216653 14326 net.cpp:156] Memory required for data: 1292125728
I0403 15:44:56.216668 14326 layer_factory.hpp:77] Creating layer inception_5a/1x1
I0403 15:44:56.216691 14326 net.cpp:91] Creating Layer inception_5a/1x1
I0403 15:44:56.216711 14326 net.cpp:425] inception_5a/1x1 <- pool4/3x3_s2_pool4/3x3_s2_0_split_0
I0403 15:44:56.216730 14326 net.cpp:399] inception_5a/1x1 -> inception_5a/1x1
I0403 15:44:56.219753 14326 net.cpp:141] Setting up inception_5a/1x1
I0403 15:44:56.219784 14326 net.cpp:148] Top shape: 24 256 7 7 (301056)
I0403 15:44:56.219799 14326 net.cpp:156] Memory required for data: 1293329952
I0403 15:44:56.219820 14326 layer_factory.hpp:77] Creating layer inception_5a/relu_1x1
I0403 15:44:56.219838 14326 net.cpp:91] Creating Layer inception_5a/relu_1x1
I0403 15:44:56.219856 14326 net.cpp:425] inception_5a/relu_1x1 <- inception_5a/1x1
I0403 15:44:56.219872 14326 net.cpp:386] inception_5a/relu_1x1 -> inception_5a/1x1 (in-place)
I0403 15:44:56.220211 14326 net.cpp:141] Setting up inception_5a/relu_1x1
I0403 15:44:56.220239 14326 net.cpp:148] Top shape: 24 256 7 7 (301056)
I0403 15:44:56.220255 14326 net.cpp:156] Memory required for data: 1294534176
I0403 15:44:56.220270 14326 layer_factory.hpp:77] Creating layer inception_5a/3x3_reduce
I0403 15:44:56.220295 14326 net.cpp:91] Creating Layer inception_5a/3x3_reduce
I0403 15:44:56.220314 14326 net.cpp:425] inception_5a/3x3_reduce <- pool4/3x3_s2_pool4/3x3_s2_0_split_1
I0403 15:44:56.220335 14326 net.cpp:399] inception_5a/3x3_reduce -> inception_5a/3x3_reduce
I0403 15:44:56.222831 14326 net.cpp:141] Setting up inception_5a/3x3_reduce
I0403 15:44:56.222862 14326 net.cpp:148] Top shape: 24 160 7 7 (188160)
I0403 15:44:56.222877 14326 net.cpp:156] Memory required for data: 1295286816
I0403 15:44:56.222897 14326 layer_factory.hpp:77] Creating layer inception_5a/relu_3x3_reduce
I0403 15:44:56.222916 14326 net.cpp:91] Creating Layer inception_5a/relu_3x3_reduce
I0403 15:44:56.222934 14326 net.cpp:425] inception_5a/relu_3x3_reduce <- inception_5a/3x3_reduce
I0403 15:44:56.222951 14326 net.cpp:386] inception_5a/relu_3x3_reduce -> inception_5a/3x3_reduce (in-place)
I0403 15:44:56.223145 14326 net.cpp:141] Setting up inception_5a/relu_3x3_reduce
I0403 15:44:56.223171 14326 net.cpp:148] Top shape: 24 160 7 7 (188160)
I0403 15:44:56.223187 14326 net.cpp:156] Memory required for data: 1296039456
I0403 15:44:56.223202 14326 layer_factory.hpp:77] Creating layer inception_5a/3x3
I0403 15:44:56.223227 14326 net.cpp:91] Creating Layer inception_5a/3x3
I0403 15:44:56.223245 14326 net.cpp:425] inception_5a/3x3 <- inception_5a/3x3_reduce
I0403 15:44:56.223264 14326 net.cpp:399] inception_5a/3x3 -> inception_5a/3x3
I0403 15:44:56.228539 14326 net.cpp:141] Setting up inception_5a/3x3
I0403 15:44:56.228575 14326 net.cpp:148] Top shape: 24 320 7 7 (376320)
I0403 15:44:56.228593 14326 net.cpp:156] Memory required for data: 1297544736
I0403 15:44:56.228613 14326 layer_factory.hpp:77] Creating layer inception_5a/relu_3x3
I0403 15:44:56.228631 14326 net.cpp:91] Creating Layer inception_5a/relu_3x3
I0403 15:44:56.228648 14326 net.cpp:425] inception_5a/relu_3x3 <- inception_5a/3x3
I0403 15:44:56.228665 14326 net.cpp:386] inception_5a/relu_3x3 -> inception_5a/3x3 (in-place)
I0403 15:44:56.228970 14326 net.cpp:141] Setting up inception_5a/relu_3x3
I0403 15:44:56.229001 14326 net.cpp:148] Top shape: 24 320 7 7 (376320)
I0403 15:44:56.229017 14326 net.cpp:156] Memory required for data: 1299050016
I0403 15:44:56.229032 14326 layer_factory.hpp:77] Creating layer inception_5a/5x5_reduce
I0403 15:44:56.229053 14326 net.cpp:91] Creating Layer inception_5a/5x5_reduce
I0403 15:44:56.229070 14326 net.cpp:425] inception_5a/5x5_reduce <- pool4/3x3_s2_pool4/3x3_s2_0_split_2
I0403 15:44:56.229092 14326 net.cpp:399] inception_5a/5x5_reduce -> inception_5a/5x5_reduce
I0403 15:44:56.230329 14326 net.cpp:141] Setting up inception_5a/5x5_reduce
I0403 15:44:56.230362 14326 net.cpp:148] Top shape: 24 32 7 7 (37632)
I0403 15:44:56.230381 14326 net.cpp:156] Memory required for data: 1299200544
I0403 15:44:56.230412 14326 layer_factory.hpp:77] Creating layer inception_5a/relu_5x5_reduce
I0403 15:44:56.230430 14326 net.cpp:91] Creating Layer inception_5a/relu_5x5_reduce
I0403 15:44:56.230446 14326 net.cpp:425] inception_5a/relu_5x5_reduce <- inception_5a/5x5_reduce
I0403 15:44:56.230466 14326 net.cpp:386] inception_5a/relu_5x5_reduce -> inception_5a/5x5_reduce (in-place)
I0403 15:44:56.230793 14326 net.cpp:141] Setting up inception_5a/relu_5x5_reduce
I0403 15:44:56.230824 14326 net.cpp:148] Top shape: 24 32 7 7 (37632)
I0403 15:44:56.230841 14326 net.cpp:156] Memory required for data: 1299351072
I0403 15:44:56.230868 14326 layer_factory.hpp:77] Creating layer inception_5a/5x5
I0403 15:44:56.230891 14326 net.cpp:91] Creating Layer inception_5a/5x5
I0403 15:44:56.230909 14326 net.cpp:425] inception_5a/5x5 <- inception_5a/5x5_reduce
I0403 15:44:56.230929 14326 net.cpp:399] inception_5a/5x5 -> inception_5a/5x5
I0403 15:44:56.232786 14326 net.cpp:141] Setting up inception_5a/5x5
I0403 15:44:56.232828 14326 net.cpp:148] Top shape: 24 128 7 7 (150528)
I0403 15:44:56.232849 14326 net.cpp:156] Memory required for data: 1299953184
I0403 15:44:56.232868 14326 layer_factory.hpp:77] Creating layer inception_5a/relu_5x5
I0403 15:44:56.232887 14326 net.cpp:91] Creating Layer inception_5a/relu_5x5
I0403 15:44:56.232904 14326 net.cpp:425] inception_5a/relu_5x5 <- inception_5a/5x5
I0403 15:44:56.232923 14326 net.cpp:386] inception_5a/relu_5x5 -> inception_5a/5x5 (in-place)
I0403 15:44:56.233134 14326 net.cpp:141] Setting up inception_5a/relu_5x5
I0403 15:44:56.233161 14326 net.cpp:148] Top shape: 24 128 7 7 (150528)
I0403 15:44:56.233177 14326 net.cpp:156] Memory required for data: 1300555296
I0403 15:44:56.233192 14326 layer_factory.hpp:77] Creating layer inception_5a/pool
I0403 15:44:56.233211 14326 net.cpp:91] Creating Layer inception_5a/pool
I0403 15:44:56.233227 14326 net.cpp:425] inception_5a/pool <- pool4/3x3_s2_pool4/3x3_s2_0_split_3
I0403 15:44:56.233248 14326 net.cpp:399] inception_5a/pool -> inception_5a/pool
I0403 15:44:56.233319 14326 net.cpp:141] Setting up inception_5a/pool
I0403 15:44:56.233347 14326 net.cpp:148] Top shape: 24 832 7 7 (978432)
I0403 15:44:56.233363 14326 net.cpp:156] Memory required for data: 1304469024
I0403 15:44:56.233378 14326 layer_factory.hpp:77] Creating layer inception_5a/pool_proj
I0403 15:44:56.233398 14326 net.cpp:91] Creating Layer inception_5a/pool_proj
I0403 15:44:56.233415 14326 net.cpp:425] inception_5a/pool_proj <- inception_5a/pool
I0403 15:44:56.233438 14326 net.cpp:399] inception_5a/pool_proj -> inception_5a/pool_proj
I0403 15:44:56.235791 14326 net.cpp:141] Setting up inception_5a/pool_proj
I0403 15:44:56.235822 14326 net.cpp:148] Top shape: 24 128 7 7 (150528)
I0403 15:44:56.235839 14326 net.cpp:156] Memory required for data: 1305071136
I0403 15:44:56.235857 14326 layer_factory.hpp:77] Creating layer inception_5a/relu_pool_proj
I0403 15:44:56.235879 14326 net.cpp:91] Creating Layer inception_5a/relu_pool_proj
I0403 15:44:56.235898 14326 net.cpp:425] inception_5a/relu_pool_proj <- inception_5a/pool_proj
I0403 15:44:56.235916 14326 net.cpp:386] inception_5a/relu_pool_proj -> inception_5a/pool_proj (in-place)
I0403 15:44:56.236248 14326 net.cpp:141] Setting up inception_5a/relu_pool_proj
I0403 15:44:56.236277 14326 net.cpp:148] Top shape: 24 128 7 7 (150528)
I0403 15:44:56.236294 14326 net.cpp:156] Memory required for data: 1305673248
I0403 15:44:56.236310 14326 layer_factory.hpp:77] Creating layer inception_5a/output
I0403 15:44:56.236332 14326 net.cpp:91] Creating Layer inception_5a/output
I0403 15:44:56.236351 14326 net.cpp:425] inception_5a/output <- inception_5a/1x1
I0403 15:44:56.236369 14326 net.cpp:425] inception_5a/output <- inception_5a/3x3
I0403 15:44:56.236387 14326 net.cpp:425] inception_5a/output <- inception_5a/5x5
I0403 15:44:56.236414 14326 net.cpp:425] inception_5a/output <- inception_5a/pool_proj
I0403 15:44:56.236433 14326 net.cpp:399] inception_5a/output -> inception_5a/output
I0403 15:44:56.236485 14326 net.cpp:141] Setting up inception_5a/output
I0403 15:44:56.236523 14326 net.cpp:148] Top shape: 24 832 7 7 (978432)
I0403 15:44:56.236538 14326 net.cpp:156] Memory required for data: 1309586976
I0403 15:44:56.236552 14326 layer_factory.hpp:77] Creating layer inception_5a/output_inception_5a/output_0_split
I0403 15:44:56.236569 14326 net.cpp:91] Creating Layer inception_5a/output_inception_5a/output_0_split
I0403 15:44:56.236585 14326 net.cpp:425] inception_5a/output_inception_5a/output_0_split <- inception_5a/output
I0403 15:44:56.236606 14326 net.cpp:399] inception_5a/output_inception_5a/output_0_split -> inception_5a/output_inception_5a/output_0_split_0
I0403 15:44:56.236627 14326 net.cpp:399] inception_5a/output_inception_5a/output_0_split -> inception_5a/output_inception_5a/output_0_split_1
I0403 15:44:56.236649 14326 net.cpp:399] inception_5a/output_inception_5a/output_0_split -> inception_5a/output_inception_5a/output_0_split_2
I0403 15:44:56.236668 14326 net.cpp:399] inception_5a/output_inception_5a/output_0_split -> inception_5a/output_inception_5a/output_0_split_3
I0403 15:44:56.236783 14326 net.cpp:141] Setting up inception_5a/output_inception_5a/output_0_split
I0403 15:44:56.236809 14326 net.cpp:148] Top shape: 24 832 7 7 (978432)
I0403 15:44:56.236827 14326 net.cpp:148] Top shape: 24 832 7 7 (978432)
I0403 15:44:56.236843 14326 net.cpp:148] Top shape: 24 832 7 7 (978432)
I0403 15:44:56.236860 14326 net.cpp:148] Top shape: 24 832 7 7 (978432)
I0403 15:44:56.236873 14326 net.cpp:156] Memory required for data: 1325241888
I0403 15:44:56.236888 14326 layer_factory.hpp:77] Creating layer inception_5b/1x1
I0403 15:44:56.236910 14326 net.cpp:91] Creating Layer inception_5b/1x1
I0403 15:44:56.236927 14326 net.cpp:425] inception_5b/1x1 <- inception_5a/output_inception_5a/output_0_split_0
I0403 15:44:56.236946 14326 net.cpp:399] inception_5b/1x1 -> inception_5b/1x1
I0403 15:44:56.240963 14326 net.cpp:141] Setting up inception_5b/1x1
I0403 15:44:56.240993 14326 net.cpp:148] Top shape: 24 384 7 7 (451584)
I0403 15:44:56.241009 14326 net.cpp:156] Memory required for data: 1327048224
I0403 15:44:56.241027 14326 layer_factory.hpp:77] Creating layer inception_5b/relu_1x1
I0403 15:44:56.241049 14326 net.cpp:91] Creating Layer inception_5b/relu_1x1
I0403 15:44:56.241066 14326 net.cpp:425] inception_5b/relu_1x1 <- inception_5b/1x1
I0403 15:44:56.241083 14326 net.cpp:386] inception_5b/relu_1x1 -> inception_5b/1x1 (in-place)
I0403 15:44:56.241394 14326 net.cpp:141] Setting up inception_5b/relu_1x1
I0403 15:44:56.241422 14326 net.cpp:148] Top shape: 24 384 7 7 (451584)
I0403 15:44:56.241437 14326 net.cpp:156] Memory required for data: 1328854560
I0403 15:44:56.241452 14326 layer_factory.hpp:77] Creating layer inception_5b/3x3_reduce
I0403 15:44:56.241474 14326 net.cpp:91] Creating Layer inception_5b/3x3_reduce
I0403 15:44:56.241492 14326 net.cpp:425] inception_5b/3x3_reduce <- inception_5a/output_inception_5a/output_0_split_1
I0403 15:44:56.241514 14326 net.cpp:399] inception_5b/3x3_reduce -> inception_5b/3x3_reduce
I0403 15:44:56.244266 14326 net.cpp:141] Setting up inception_5b/3x3_reduce
I0403 15:44:56.244299 14326 net.cpp:148] Top shape: 24 192 7 7 (225792)
I0403 15:44:56.244316 14326 net.cpp:156] Memory required for data: 1329757728
I0403 15:44:56.244335 14326 layer_factory.hpp:77] Creating layer inception_5b/relu_3x3_reduce
I0403 15:44:56.244369 14326 net.cpp:91] Creating Layer inception_5b/relu_3x3_reduce
I0403 15:44:56.244388 14326 net.cpp:425] inception_5b/relu_3x3_reduce <- inception_5b/3x3_reduce
I0403 15:44:56.244406 14326 net.cpp:386] inception_5b/relu_3x3_reduce -> inception_5b/3x3_reduce (in-place)
I0403 15:44:56.244611 14326 net.cpp:141] Setting up inception_5b/relu_3x3_reduce
I0403 15:44:56.244639 14326 net.cpp:148] Top shape: 24 192 7 7 (225792)
I0403 15:44:56.244654 14326 net.cpp:156] Memory required for data: 1330660896
I0403 15:44:56.244670 14326 layer_factory.hpp:77] Creating layer inception_5b/3x3
I0403 15:44:56.244693 14326 net.cpp:91] Creating Layer inception_5b/3x3
I0403 15:44:56.244710 14326 net.cpp:425] inception_5b/3x3 <- inception_5b/3x3_reduce
I0403 15:44:56.244730 14326 net.cpp:399] inception_5b/3x3 -> inception_5b/3x3
I0403 15:44:56.251641 14326 net.cpp:141] Setting up inception_5b/3x3
I0403 15:44:56.251669 14326 net.cpp:148] Top shape: 24 384 7 7 (451584)
I0403 15:44:56.251685 14326 net.cpp:156] Memory required for data: 1332467232
I0403 15:44:56.251703 14326 layer_factory.hpp:77] Creating layer inception_5b/relu_3x3
I0403 15:44:56.251724 14326 net.cpp:91] Creating Layer inception_5b/relu_3x3
I0403 15:44:56.251742 14326 net.cpp:425] inception_5b/relu_3x3 <- inception_5b/3x3
I0403 15:44:56.251760 14326 net.cpp:386] inception_5b/relu_3x3 -> inception_5b/3x3 (in-place)
I0403 15:44:56.252060 14326 net.cpp:141] Setting up inception_5b/relu_3x3
I0403 15:44:56.252087 14326 net.cpp:148] Top shape: 24 384 7 7 (451584)
I0403 15:44:56.252130 14326 net.cpp:156] Memory required for data: 1334273568
I0403 15:44:56.252148 14326 layer_factory.hpp:77] Creating layer inception_5b/5x5_reduce
I0403 15:44:56.252192 14326 net.cpp:91] Creating Layer inception_5b/5x5_reduce
I0403 15:44:56.252213 14326 net.cpp:425] inception_5b/5x5_reduce <- inception_5a/output_inception_5a/output_0_split_2
I0403 15:44:56.252236 14326 net.cpp:399] inception_5b/5x5_reduce -> inception_5b/5x5_reduce
I0403 15:44:56.253584 14326 net.cpp:141] Setting up inception_5b/5x5_reduce
I0403 15:44:56.253614 14326 net.cpp:148] Top shape: 24 48 7 7 (56448)
I0403 15:44:56.253630 14326 net.cpp:156] Memory required for data: 1334499360
I0403 15:44:56.253649 14326 layer_factory.hpp:77] Creating layer inception_5b/relu_5x5_reduce
I0403 15:44:56.253670 14326 net.cpp:91] Creating Layer inception_5b/relu_5x5_reduce
I0403 15:44:56.253689 14326 net.cpp:425] inception_5b/relu_5x5_reduce <- inception_5b/5x5_reduce
I0403 15:44:56.253707 14326 net.cpp:386] inception_5b/relu_5x5_reduce -> inception_5b/5x5_reduce (in-place)
I0403 15:44:56.254118 14326 net.cpp:141] Setting up inception_5b/relu_5x5_reduce
I0403 15:44:56.254147 14326 net.cpp:148] Top shape: 24 48 7 7 (56448)
I0403 15:44:56.254163 14326 net.cpp:156] Memory required for data: 1334725152
I0403 15:44:56.254179 14326 layer_factory.hpp:77] Creating layer inception_5b/5x5
I0403 15:44:56.254200 14326 net.cpp:91] Creating Layer inception_5b/5x5
I0403 15:44:56.254218 14326 net.cpp:425] inception_5b/5x5 <- inception_5b/5x5_reduce
I0403 15:44:56.254238 14326 net.cpp:399] inception_5b/5x5 -> inception_5b/5x5
I0403 15:44:56.256422 14326 net.cpp:141] Setting up inception_5b/5x5
I0403 15:44:56.256451 14326 net.cpp:148] Top shape: 24 128 7 7 (150528)
I0403 15:44:56.256469 14326 net.cpp:156] Memory required for data: 1335327264
I0403 15:44:56.256487 14326 layer_factory.hpp:77] Creating layer inception_5b/relu_5x5
I0403 15:44:56.256507 14326 net.cpp:91] Creating Layer inception_5b/relu_5x5
I0403 15:44:56.256525 14326 net.cpp:425] inception_5b/relu_5x5 <- inception_5b/5x5
I0403 15:44:56.256542 14326 net.cpp:386] inception_5b/relu_5x5 -> inception_5b/5x5 (in-place)
I0403 15:44:56.256749 14326 net.cpp:141] Setting up inception_5b/relu_5x5
I0403 15:44:56.256775 14326 net.cpp:148] Top shape: 24 128 7 7 (150528)
I0403 15:44:56.256791 14326 net.cpp:156] Memory required for data: 1335929376
I0403 15:44:56.256806 14326 layer_factory.hpp:77] Creating layer inception_5b/pool
I0403 15:44:56.256824 14326 net.cpp:91] Creating Layer inception_5b/pool
I0403 15:44:56.256842 14326 net.cpp:425] inception_5b/pool <- inception_5a/output_inception_5a/output_0_split_3
I0403 15:44:56.256862 14326 net.cpp:399] inception_5b/pool -> inception_5b/pool
I0403 15:44:56.256937 14326 net.cpp:141] Setting up inception_5b/pool
I0403 15:44:56.256963 14326 net.cpp:148] Top shape: 24 832 7 7 (978432)
I0403 15:44:56.256978 14326 net.cpp:156] Memory required for data: 1339843104
I0403 15:44:56.256994 14326 layer_factory.hpp:77] Creating layer inception_5b/pool_proj
I0403 15:44:56.257019 14326 net.cpp:91] Creating Layer inception_5b/pool_proj
I0403 15:44:56.257037 14326 net.cpp:425] inception_5b/pool_proj <- inception_5b/pool
I0403 15:44:56.257056 14326 net.cpp:399] inception_5b/pool_proj -> inception_5b/pool_proj
I0403 15:44:56.259482 14326 net.cpp:141] Setting up inception_5b/pool_proj
I0403 15:44:56.259513 14326 net.cpp:148] Top shape: 24 128 7 7 (150528)
I0403 15:44:56.259533 14326 net.cpp:156] Memory required for data: 1340445216
I0403 15:44:56.259552 14326 layer_factory.hpp:77] Creating layer inception_5b/relu_pool_proj
I0403 15:44:56.259573 14326 net.cpp:91] Creating Layer inception_5b/relu_pool_proj
I0403 15:44:56.259591 14326 net.cpp:425] inception_5b/relu_pool_proj <- inception_5b/pool_proj
I0403 15:44:56.259609 14326 net.cpp:386] inception_5b/relu_pool_proj -> inception_5b/pool_proj (in-place)
I0403 15:44:56.259915 14326 net.cpp:141] Setting up inception_5b/relu_pool_proj
I0403 15:44:56.259943 14326 net.cpp:148] Top shape: 24 128 7 7 (150528)
I0403 15:44:56.259959 14326 net.cpp:156] Memory required for data: 1341047328
I0403 15:44:56.259975 14326 layer_factory.hpp:77] Creating layer inception_5b/output
I0403 15:44:56.259994 14326 net.cpp:91] Creating Layer inception_5b/output
I0403 15:44:56.260030 14326 net.cpp:425] inception_5b/output <- inception_5b/1x1
I0403 15:44:56.260048 14326 net.cpp:425] inception_5b/output <- inception_5b/3x3
I0403 15:44:56.260066 14326 net.cpp:425] inception_5b/output <- inception_5b/5x5
I0403 15:44:56.260082 14326 net.cpp:425] inception_5b/output <- inception_5b/pool_proj
I0403 15:44:56.260118 14326 net.cpp:399] inception_5b/output -> inception_5b/output
I0403 15:44:56.260177 14326 net.cpp:141] Setting up inception_5b/output
I0403 15:44:56.260205 14326 net.cpp:148] Top shape: 24 1024 7 7 (1204224)
I0403 15:44:56.260220 14326 net.cpp:156] Memory required for data: 1345864224
I0403 15:44:56.260236 14326 layer_factory.hpp:77] Creating layer pool5/7x7_s1
I0403 15:44:56.260253 14326 net.cpp:91] Creating Layer pool5/7x7_s1
I0403 15:44:56.260272 14326 net.cpp:425] pool5/7x7_s1 <- inception_5b/output
I0403 15:44:56.260293 14326 net.cpp:399] pool5/7x7_s1 -> pool5/7x7_s1
I0403 15:44:56.260534 14326 net.cpp:141] Setting up pool5/7x7_s1
I0403 15:44:56.260563 14326 net.cpp:148] Top shape: 24 1024 1 1 (24576)
I0403 15:44:56.260579 14326 net.cpp:156] Memory required for data: 1345962528
I0403 15:44:56.260594 14326 layer_factory.hpp:77] Creating layer pool5/drop_7x7_s1
I0403 15:44:56.260612 14326 net.cpp:91] Creating Layer pool5/drop_7x7_s1
I0403 15:44:56.260629 14326 net.cpp:425] pool5/drop_7x7_s1 <- pool5/7x7_s1
I0403 15:44:56.260648 14326 net.cpp:386] pool5/drop_7x7_s1 -> pool5/7x7_s1 (in-place)
I0403 15:44:56.260701 14326 net.cpp:141] Setting up pool5/drop_7x7_s1
I0403 15:44:56.260725 14326 net.cpp:148] Top shape: 24 1024 1 1 (24576)
I0403 15:44:56.260740 14326 net.cpp:156] Memory required for data: 1346060832
I0403 15:44:56.260756 14326 layer_factory.hpp:77] Creating layer loss3/classifier_plantvillage
I0403 15:44:56.260777 14326 net.cpp:91] Creating Layer loss3/classifier_plantvillage
I0403 15:44:56.260794 14326 net.cpp:425] loss3/classifier_plantvillage <- pool5/7x7_s1
I0403 15:44:56.260813 14326 net.cpp:399] loss3/classifier_plantvillage -> loss3/classifier_plantvillage
I0403 15:44:56.261262 14326 net.cpp:141] Setting up loss3/classifier_plantvillage
I0403 15:44:56.261289 14326 net.cpp:148] Top shape: 24 38 (912)
I0403 15:44:56.261304 14326 net.cpp:156] Memory required for data: 1346064480
I0403 15:44:56.261324 14326 layer_factory.hpp:77] Creating layer loss3/classifier_plantvillage_loss3/classifier_plantvillage_0_split
I0403 15:44:56.261342 14326 net.cpp:91] Creating Layer loss3/classifier_plantvillage_loss3/classifier_plantvillage_0_split
I0403 15:44:56.261358 14326 net.cpp:425] loss3/classifier_plantvillage_loss3/classifier_plantvillage_0_split <- loss3/classifier_plantvillage
I0403 15:44:56.261379 14326 net.cpp:399] loss3/classifier_plantvillage_loss3/classifier_plantvillage_0_split -> loss3/classifier_plantvillage_loss3/classifier_plantvillage_0_split_0
I0403 15:44:56.261401 14326 net.cpp:399] loss3/classifier_plantvillage_loss3/classifier_plantvillage_0_split -> loss3/classifier_plantvillage_loss3/classifier_plantvillage_0_split_1
I0403 15:44:56.261422 14326 net.cpp:399] loss3/classifier_plantvillage_loss3/classifier_plantvillage_0_split -> loss3/classifier_plantvillage_loss3/classifier_plantvillage_0_split_2
I0403 15:44:56.261443 14326 net.cpp:399] loss3/classifier_plantvillage_loss3/classifier_plantvillage_0_split -> loss3/classifier_plantvillage_loss3/classifier_plantvillage_0_split_3
I0403 15:44:56.261550 14326 net.cpp:141] Setting up loss3/classifier_plantvillage_loss3/classifier_plantvillage_0_split
I0403 15:44:56.261577 14326 net.cpp:148] Top shape: 24 38 (912)
I0403 15:44:56.261595 14326 net.cpp:148] Top shape: 24 38 (912)
I0403 15:44:56.261610 14326 net.cpp:148] Top shape: 24 38 (912)
I0403 15:44:56.261626 14326 net.cpp:148] Top shape: 24 38 (912)
I0403 15:44:56.261641 14326 net.cpp:156] Memory required for data: 1346079072
I0403 15:44:56.261656 14326 layer_factory.hpp:77] Creating layer loss1/loss
I0403 15:44:56.261677 14326 net.cpp:91] Creating Layer loss1/loss
I0403 15:44:56.261696 14326 net.cpp:425] loss1/loss <- loss1/classifier_plantvillage_loss1/classifier_plantvillage_0_split_0
I0403 15:44:56.261729 14326 net.cpp:425] loss1/loss <- label_data_1_split_0
…
