…
I0403 15:58:24.886049 15031 net.cpp:313] The NetState phase (1) differed from the phase (0) specified by a rule in layer data
I0403 15:58:24.887455 15031 net.cpp:49] Initializing net from parameters: 
state {
  phase: TEST
}
layer {
  name: "data"
  type: "Data"
  top: "data"
  top: "label"
  include {
    phase: TEST
  }
  transform_param {
    mirror: false
    crop_size: 224
    mean_file: "/home/mohanty/data/final_dataset/lmdb/color-80-20/mean.binaryproto"
  }
  data_param {
    source: "/home/mohanty/data/final_dataset/lmdb/color-80-20/test_db"
    batch_size: 24
    backend: LMDB
  }
}
layer {
  name: "conv1/7x7_s2"
  type: "Convolution"
  bottom: "data"
  top: "conv1/7x7_s2"
  param {
    lr_mult: 1
    decay_mult: 1
  }
  param {
    lr_mult: 2
    decay_mult: 0
  }
  convolution_param {
    num_output: 64
    pad: 3
    kernel_size: 7
    stride: 2
    weight_filler {
      type: "xavier"
      std: 0.1
    }
    bias_filler {
      type: "constant"
      value: 0.2
    }
  }
}
layer {
  name: "conv1/relu_7x7"
  type: "ReLU"
  bottom: "conv1/7x7_s2"
  top: "conv1/7x7_s2"
}
layer {
  name: "pool1/3x3_s2"
  type: "Pooling"
  bottom: "conv1/7x7_s2"
  top: "pool1/3x3_s2"
  pooling_param {
    pool: MAX
    kernel_size: 3
    stride: 2
  }
}
layer {
  name: "pool1/norm1"
  type: "LRN"
  bottom: "pool1/3x3_s2"
  top: "pool1/norm1"
  lrn_param {
    local_size: 5
    alpha: 0.0001
    beta: 0.75
  }
}
layer {
  name: "conv2/3x3_reduce"
  type: "Convolution"
  bottom: "pool1/norm1"
  top: "conv2/3x3_reduce"
  param {
    lr_mult: 1
    decay_mult: 1
  }
  param {
    lr_mult: 2
    decay_mult: 0
  }
  convolution_param {
    num_output: 64
    kernel_size: 1
    weight_filler {
      type: "xavier"
      std: 0.1
    }
    bias_filler {
      type: "constant"
      value: 0.2
    }
  }
}
layer {
  name: "conv2/relu_3x3_reduce"
  type: "ReLU"
  bottom: "conv2/3x3_reduce"
  top: "conv2/3x3_reduce"
}
layer {
  name: "conv2/3x3"
  type: "Convolution"
  bottom: "conv2/3x3_reduce"
  top: "conv2/3x3"
  param {
    lr_mult: 1
    decay_mult: 1
  }
  param {
    lr_mult: 2
    decay_mult: 0
  }
  convolution_param {
    num_output: 192
    pad: 1
    kernel_size: 3
    weight_filler {
      type: "xavier"
      std: 0.03
    }
    bias_filler {
      type: "constant"
      value: 0.2
    }
  }
}
layer {
  name: "conv2/relu_3x3"
  type: "ReLU"
  bottom: "conv2/3x3"
  top: "conv2/3x3"
}
layer {
  name: "conv2/norm2"
  type: "LRN"
  bottom: "conv2/3x3"
  top: "conv2/norm2"
  lrn_param {
    local_size: 5
    alpha: 0.0001
    beta: 0.75
  }
}
layer {
  name: "pool2/3x3_s2"
  type: "Pooling"
  bottom: "conv2/norm2"
  top: "pool2/3x3_s2"
  pooling_param {
    pool: MAX
    kernel_size: 3
    stride: 2
  }
}
layer {
  name: "inception_3a/1x1"
  type: "Convolution"
  bottom: "pool2/3x3_s2"
  top: "inception_3a/1x1"
  param {
    lr_mult: 1
    decay_mult: 1
  }
  param {
    lr_mult: 2
    decay_mult: 0
  }
  convolution_param {
    num_output: 64
    kernel_size: 1
    weight_filler {
      type: "xavier"
      std: 0.03
    }
    bias_filler {
      type: "constant"
      value: 0.2
    }
  }
}
layer {
  name: "inception_3a/relu_1x1"
  type: "ReLU"
  bottom: "inception_3a/1x1"
  top: "inception_3a/1x1"
}
layer {
  name: "inception_3a/3x3_reduce"
  type: "Convolution"
  bottom: "pool2/3x3_s2"
  top: "inception_3a/3x3_reduce"
  param {
    lr_mult: 1
    decay_mult: 1
  }
  param {
    lr_mult: 2
    decay_mult: 0
  }
  convolution_param {
    num_output: 96
    kernel_size: 1
    weight_filler {
      type: "xavier"
      std: 0.09
    }
    bias_filler {
      type: "constant"
      value: 0.2
    }
  }
}
layer {
  name: "inception_3a/relu_3x3_reduce"
  type: "ReLU"
  bottom: "inception_3a/3x3_reduce"
  top: "inception_3a/3x3_reduce"
}
layer {
  name: "inception_3a/3x3"
  type: "Convolution"
  bottom: "inception_3a/3x3_reduce"
  top: "inception_3a/3x3"
  param {
    lr_mult: 1
    decay_mult: 1
  }
  param {
    lr_mult: 2
    decay_mult: 0
  }
  convolution_param {
    num_output: 128
    pad: 1
    kernel_size: 3
    weight_filler {
      type: "xavier"
      std: 0.03
    }
    bias_filler {
      type: "constant"
      value: 0.2
    }
  }
}
layer {
  name: "inception_3a/relu_3x3"
  type: "ReLU"
  bottom: "inception_3a/3x3"
  top: "inception_3a/3x3"
}
layer {
  name: "inception_3a/5x5_reduce"
  type: "Convolution"
  bottom: "pool2/3x3_s2"
  top: "inception_3a/5x5_reduce"
  param {
    lr_mult: 1
    decay_mult: 1
  }
  param {
    lr_mult: 2
    decay_mult: 0
  }
  convolution_param {
    num_output: 16
    kernel_size: 1
    weight_filler {
      type: "xavier"
      std: 0.2
    }
    bias_filler {
      type: "constant"
      value: 0.2
    }
  }
}
layer {
  name: "inception_3a/relu_5x5_reduce"
  type: "ReLU"
  bottom: "inception_3a/5x5_reduce"
  top: "inception_3a/5x5_reduce"
}
layer {
  name: "inception_3a/5x5"
  type: "Convolution"
  bottom: "inception_3a/5x5_reduce"
  top: "inception_3a/5x5"
  param {
    lr_mult: 1
    decay_mult: 1
  }
  param {
    lr_mult: 2
    decay_mult: 0
  }
  convolution_param {
    num_output: 32
    pad: 2
    kernel_size: 5
    weight_filler {
      type: "xavier"
      std: 0.03
    }
    bias_filler {
      type: "constant"
      value: 0.2
    }
  }
}
layer {
  name: "inception_3a/relu_5x5"
  type: "ReLU"
  bottom: "inception_3a/5x5"
  top: "inception_3a/5x5"
}
layer {
  name: "inception_3a/pool"
  type: "Pooling"
  bottom: "pool2/3x3_s2"
  top: "inception_3a/pool"
  pooling_param {
    pool: MAX
    kernel_size: 3
    stride: 1
    pad: 1
  }
}
layer {
  name: "inception_3a/pool_proj"
  type: "Convolution"
  bottom: "inception_3a/pool"
  top: "inception_3a/pool_proj"
  param {
    lr_mult: 1
    decay_mult: 1
  }
  param {
    lr_mult: 2
    decay_mult: 0
  }
  convolution_param {
    num_output: 32
    kernel_size: 1
    weight_filler {
      type: "xavier"
      std: 0.1
    }
    bias_filler {
      type: "constant"
      value: 0.2
    }
  }
}
layer {
  name: "inception_3a/relu_pool_proj"
  type: "ReLU"
  bottom: "inception_3a/pool_proj"
  top: "inception_3a/pool_proj"
}
layer {
  name: "inception_3a/output"
  type: "Concat"
  bottom: "inception_3a/1x1"
  bottom: "inception_3a/3x3"
  bottom: "inception_3a/5x5"
  bottom: "inception_3a/pool_proj"
  top: "inception_3a/output"
}
layer {
  name: "inception_3b/1x1"
  type: "Convolution"
  bottom: "inception_3a/output"
  top: "inception_3b/1x1"
  param {
    lr_mult: 1
    decay_mult: 1
  }
  param {
    lr_mult: 2
    decay_mult: 0
  }
  convolution_param {
    num_output: 128
    kernel_size: 1
    weight_filler {
      type: "xavier"
      std: 0.03
    }
    bias_filler {
      type: "constant"
      value: 0.2
    }
  }
}
layer {
  name: "inception_3b/relu_1x1"
  type: "ReLU"
  bottom: "inception_3b/1x1"
  top: "inception_3b/1x1"
}
layer {
  name: "inception_3b/3x3_reduce"
  type: "Convolution"
  bottom: "inception_3a/output"
  top: "inception_3b/3x3_reduce"
  param {
    lr_mult: 1
    decay_mult: 1
  }
  param {
    lr_mult: 2
    decay_mult: 0
  }
  convolution_param {
    num_output: 128
    kernel_size: 1
    weight_filler {
      type: "xavier"
      std: 0.09
    }
    bias_filler {
      type: "constant"
      value: 0.2
    }
  }
}
layer {
  name: "inception_3b/relu_3x3_reduce"
  type: "ReLU"
  bottom: "inception_3b/3x3_reduce"
  top: "inception_3b/3x3_reduce"
}
layer {
  name: "inception_3b/3x3"
  type: "Convolution"
  bottom: "inception_3b/3x3_reduce"
  top: "inception_3b/3x3"
  param {
    lr_mult: 1
    decay_mult: 1
  }
  param {
    lr_mult: 2
    decay_mult: 0
  }
  convolution_param {
    num_output: 192
    pad: 1
    kernel_size: 3
    weight_filler {
      type: "xavier"
      std: 0.03
    }
    bias_filler {
      type: "constant"
      value: 0.2
    }
  }
}
layer {
  name: "inception_3b/relu_3x3"
  type: "ReLU"
  bottom: "inception_3b/3x3"
  top: "inception_3b/3x3"
}
layer {
  name: "inception_3b/5x5_reduce"
  type: "Convolution"
  bottom: "inception_3a/output"
  top: "inception_3b/5x5_reduce"
  param {
    lr_mult: 1
    decay_mult: 1
  }
  param {
    lr_mult: 2
    decay_mult: 0
  }
  convolution_param {
    num_output: 32
    kernel_size: 1
    weight_filler {
      type: "xavier"
      std: 0.2
    }
    bias_filler {
      type: "constant"
      value: 0.2
    }
  }
}
layer {
  name: "inception_3b/relu_5x5_reduce"
  type: "ReLU"
  bottom: "inception_3b/5x5_reduce"
  top: "inception_3b/5x5_reduce"
}
layer {
  name: "inception_3b/5x5"
  type: "Convolution"
  bottom: "inception_3b/5x5_reduce"
  top: "inception_3b/5x5"
  param {
    lr_mult: 1
    decay_mult: 1
  }
  param {
    lr_mult: 2
    decay_mult: 0
  }
  convolution_param {
    num_output: 96
    pad: 2
    kernel_size: 5
    weight_filler {
      type: "xavier"
      std: 0.03
    }
    bias_filler {
      type: "constant"
      value: 0.2
    }
  }
}
layer {
  name: "inception_3b/relu_5x5"
  type: "ReLU"
  bottom: "inception_3b/5x5"
  top: "inception_3b/5x5"
}
layer {
  name: "inception_3b/pool"
  type: "Pooling"
  bottom: "inception_3a/output"
  top: "inception_3b/pool"
  pooling_param {
    pool: MAX
    kernel_size: 3
    stride: 1
    pad: 1
  }
}
layer {
  name: "inception_3b/pool_proj"
  type: "Convolution"
  bottom: "inception_3b/pool"
  top: "inception_3b/pool_proj"
  param {
    lr_mult: 1
    decay_mult: 1
  }
  param {
    lr_mult: 2
    decay_mult: 0
  }
  convolution_param {
    num_output: 64
    kernel_size: 1
    weight_filler {
      type: "xavier"
      std: 0.1
    }
    bias_filler {
      type: "constant"
      value: 0.2
    }
  }
}
layer {
  name: "inception_3b/relu_pool_proj"
  type: "ReLU"
  bottom: "inception_3b/pool_proj"
  top: "inception_3b/pool_proj"
}
layer {
  name: "inception_3b/output"
  type: "Concat"
  bottom: "inception_3b/1x1"
  bottom: "inception_3b/3x3"
  bottom: "inception_3b/5x5"
  bottom: "inception_3b/pool_proj"
  top: "inception_3b/output"
}
layer {
  name: "pool3/3x3_s2"
  type: "Pooling"
  bottom: "inception_3b/output"
  top: "pool3/3x3_s2"
  pooling_param {
    pool: MAX
    kernel_size: 3
    stride: 2
  }
}
layer {
  name: "inception_4a/1x1"
  type: "Convolution"
  bottom: "pool3/3x3_s2"
  top: "inception_4a/1x1"
  param {
    lr_mult: 1
    decay_mult: 1
  }
  param {
    lr_mult: 2
    decay_mult: 0
  }
  convolution_param {
    num_output: 192
    kernel_size: 1
    weight_filler {
      type: "xavier"
      std: 0.03
    }
    bias_filler {
      type: "constant"
      value: 0.2
    }
  }
}
layer {
  name: "inception_4a/relu_1x1"
  type: "ReLU"
  bottom: "inception_4a/1x1"
  top: "inception_4a/1x1"
}
layer {
  name: "inception_4a/3x3_reduce"
  type: "Convolution"
  bottom: "pool3/3x3_s2"
  top: "inception_4a/3x3_reduce"
  param {
    lr_mult: 1
    decay_mult: 1
  }
  param {
    lr_mult: 2
    decay_mult: 0
  }
  convolution_param {
    num_output: 96
    kernel_size: 1
    weight_filler {
      type: "xavier"
      std: 0.09
    }
    bias_filler {
      type: "constant"
      value: 0.2
    }
  }
}
layer {
  name: "inception_4a/relu_3x3_reduce"
  type: "ReLU"
  bottom: "inception_4a/3x3_reduce"
  top: "inception_4a/3x3_reduce"
}
layer {
  name: "inception_4a/3x3"
  type: "Convolution"
  bottom: "inception_4a/3x3_reduce"
  top: "inception_4a/3x3"
  param {
    lr_mult: 1
    decay_mult: 1
  }
  param {
    lr_mult: 2
    decay_mult: 0
  }
  convolution_param {
    num_output: 208
    pad: 1
    kernel_size: 3
    weight_filler {
      type: "xavier"
      std: 0.03
    }
    bias_filler {
      type: "constant"
      value: 0.2
    }
  }
}
layer {
  name: "inception_4a/relu_3x3"
  type: "ReLU"
  bottom: "inception_4a/3x3"
  top: "inception_4a/3x3"
}
layer {
  name: "inception_4a/5x5_reduce"
  type: "Convolution"
  bottom: "pool3/3x3_s2"
  top: "inception_4a/5x5_reduce"
  param {
    lr_mult: 1
    decay_mult: 1
  }
  param {
    lr_mult: 2
    decay_mult: 0
  }
  convolution_param {
    num_output: 16
    kernel_size: 1
    weight_filler {
      type: "xavier"
      std: 0.2
    }
    bias_filler {
      type: "constant"
      value: 0.2
    }
  }
}
layer {
  name: "inception_4a/relu_5x5_reduce"
  type: "ReLU"
  bottom: "inception_4a/5x5_reduce"
  top: "inception_4a/5x5_reduce"
}
layer {
  name: "inception_4a/5x5"
  type: "Convolution"
  bottom: "inception_4a/5x5_reduce"
  top: "inception_4a/5x5"
  param {
    lr_mult: 1
    decay_mult: 1
  }
  param {
    lr_mult: 2
    decay_mult: 0
  }
  convolution_param {
    num_output: 48
    pad: 2
    kernel_size: 5
    weight_filler {
      type: "xavier"
      std: 0.03
    }
    bias_filler {
      type: "constant"
      value: 0.2
    }
  }
}
layer {
  name: "inception_4a/relu_5x5"
  type: "ReLU"
  bottom: "inception_4a/5x5"
  top: "inception_4a/5x5"
}
layer {
  name: "inception_4a/pool"
  type: "Pooling"
  bottom: "pool3/3x3_s2"
  top: "inception_4a/pool"
  pooling_param {
    pool: MAX
    kernel_size: 3
    stride: 1
    pad: 1
  }
}
layer {
  name: "inception_4a/pool_proj"
  type: "Convolution"
  bottom: "inception_4a/pool"
  top: "inception_4a/pool_proj"
  param {
    lr_mult: 1
    decay_mult: 1
  }
  param {
    lr_mult: 2
    decay_mult: 0
  }
  convolution_param {
    num_output: 64
    kernel_size: 1
    weight_filler {
      type: "xavier"
      std: 0.1
    }
    bias_filler {
      type: "constant"
      value: 0.2
    }
  }
}
layer {
  name: "inception_4a/relu_pool_proj"
  type: "ReLU"
  bottom: "inception_4a/pool_proj"
  top: "inception_4a/pool_proj"
}
layer {
  name: "inception_4a/output"
  type: "Concat"
  bottom: "inception_4a/1x1"
  bottom: "inception_4a/3x3"
  bottom: "inception_4a/5x5"
  bottom: "inception_4a/pool_proj"
  top: "inception_4a/output"
}
layer {
  name: "loss1/ave_pool"
  type: "Pooling"
  bottom: "inception_4a/output"
  top: "loss1/ave_pool"
  pooling_param {
    pool: AVE
    kernel_size: 5
    stride: 3
  }
}
layer {
  name: "loss1/conv"
  type: "Convolution"
  bottom: "loss1/ave_pool"
  top: "loss1/conv"
  param {
    lr_mult: 1
    decay_mult: 1
  }
  param {
    lr_mult: 2
    decay_mult: 0
  }
  convolution_param {
    num_output: 128
    kernel_size: 1
    weight_filler {
      type: "xavier"
      std: 0.08
    }
    bias_filler {
      type: "constant"
      value: 0.2
    }
  }
}
layer {
  name: "loss1/relu_conv"
  type: "ReLU"
  bottom: "loss1/conv"
  top: "loss1/conv"
}
layer {
  name: "loss1/fc"
  type: "InnerProduct"
  bottom: "loss1/conv"
  top: "loss1/fc"
  param {
    lr_mult: 1
    decay_mult: 1
  }
  param {
    lr_mult: 2
    decay_mult: 0
  }
  inner_product_param {
    num_output: 1024
    weight_filler {
      type: "xavier"
      std: 0.02
    }
    bias_filler {
      type: "constant"
      value: 0.2
    }
  }
}
layer {
  name: "loss1/relu_fc"
  type: "ReLU"
  bottom: "loss1/fc"
  top: "loss1/fc"
}
layer {
  name: "loss1/drop_fc"
  type: "Dropout"
  bottom: "loss1/fc"
  top: "loss1/fc"
  dropout_param {
    dropout_ratio: 0.7
  }
}
layer {
  name: "loss1/classifier_plantvillage"
  type: "InnerProduct"
  bottom: "loss1/fc"
  top: "loss1/classifier_plantvillage"
  param {
    lr_mult: 1
    decay_mult: 1
  }
  param {
    lr_mult: 2
    decay_mult: 0
  }
  inner_product_param {
    num_output: 38
    weight_filler {
      type: "xavier"
      std: 0.0009765625
    }
    bias_filler {
      type: "constant"
      value: 0
    }
  }
}
layer {
  name: "inception_4b/1x1"
  type: "Convolution"
  bottom: "inception_4a/output"
  top: "inception_4b/1x1"
  param {
    lr_mult: 1
    decay_mult: 1
  }
  param {
    lr_mult: 2
    decay_mult: 0
  }
  convolution_param {
    num_output: 160
    kernel_size: 1
    weight_filler {
      type: "xavier"
      std: 0.03
    }
    bias_filler {
      type: "constant"
      value: 0.2
    }
  }
}
layer {
  name: "inception_4b/relu_1x1"
  type: "ReLU"
  bottom: "inception_4b/1x1"
  top: "inception_4b/1x1"
}
layer {
  name: "inception_4b/3x3_reduce"
  type: "Convolution"
  bottom: "inception_4a/output"
  top: "inception_4b/3x3_reduce"
  param {
    lr_mult: 1
    decay_mult: 1
  }
  param {
    lr_mult: 2
    decay_mult: 0
  }
  convolution_param {
    num_output: 112
    kernel_size: 1
    weight_filler {
      type: "xavier"
      std: 0.09
    }
    bias_filler {
      type: "constant"
      value: 0.2
    }
  }
}
layer {
  name: "inception_4b/relu_3x3_reduce"
  type: "ReLU"
  bottom: "inception_4b/3x3_reduce"
  top: "inception_4b/3x3_reduce"
}
layer {
  name: "inception_4b/3x3"
  type: "Convolution"
  bottom: "inception_4b/3x3_reduce"
  top: "inception_4b/3x3"
  param {
    lr_mult: 1
    decay_mult: 1
  }
  param {
    lr_mult: 2
    decay_mult: 0
  }
  convolution_param {
    num_output: 224
    pad: 1
    kernel_size: 3
    weight_filler {
      type: "xavier"
      std: 0.03
    }
    bias_filler {
      type: "constant"
      value: 0.2
    }
  }
}
layer {
  name: "inception_4b/relu_3x3"
  type: "ReLU"
  bottom: "inception_4b/3x3"
  top: "inception_4b/3x3"
}
layer {
  name: "inception_4b/5x5_reduce"
  type: "Convolution"
  bottom: "inception_4a/output"
  top: "inception_4b/5x5_reduce"
  param {
    lr_mult: 1
    decay_mult: 1
  }
  param {
    lr_mult: 2
    decay_mult: 0
  }
  convolution_param {
    num_output: 24
    kernel_size: 1
    weight_filler {
      type: "xavier"
      std: 0.2
    }
    bias_filler {
      type: "constant"
      value: 0.2
    }
  }
}
layer {
  name: "inception_4b/relu_5x5_reduce"
  type: "ReLU"
  bottom: "inception_4b/5x5_reduce"
  top: "inception_4b/5x5_reduce"
}
layer {
  name: "inception_4b/5x5"
  type: "Convolution"
  bottom: "inception_4b/5x5_reduce"
  top: "inception_4b/5x5"
  param {
    lr_mult: 1
    decay_mult: 1
  }
  param {
    lr_mult: 2
    decay_mult: 0
  }
  convolution_param {
    num_output: 64
    pad: 2
    kernel_size: 5
    weight_filler {
      type: "xavier"
      std: 0.03
    }
    bias_filler {
      type: "constant"
      value: 0.2
    }
  }
}
layer {
  name: "inception_4b/relu_5x5"
  type: "ReLU"
  bottom: "inception_4b/5x5"
  top: "inception_4b/5x5"
}
layer {
  name: "inception_4b/pool"
  type: "Pooling"
  bottom: "inception_4a/output"
  top: "inception_4b/pool"
  pooling_param {
    pool: MAX
    kernel_size: 3
    stride: 1
    pad: 1
  }
}
layer {
  name: "inception_4b/pool_proj"
  type: "Convolution"
  bottom: "inception_4b/pool"
  top: "inception_4b/pool_proj"
  param {
    lr_mult: 1
    decay_mult: 1
  }
  param {
    lr_mult: 2
    decay_mult: 0
  }
  convolution_param {
    num_output: 64
    kernel_size: 1
    weight_filler {
      type: "xavier"
      std: 0.1
    }
    bias_filler {
      type: "constant"
      value: 0.2
    }
  }
}
layer {
  name: "inception_4b/relu_pool_proj"
  type: "ReLU"
  bottom: "inception_4b/pool_proj"
  top: "inception_4b/pool_proj"
}
layer {
  name: "inception_4b/output"
  type: "Concat"
  bottom: "inception_4b/1x1"
  bottom: "inception_4b/3x3"
  bottom: "inception_4b/5x5"
  bottom: "inception_4b/pool_proj"
  top: "inception_4b/output"
}
layer {
  name: "inception_4c/1x1"
  type: "Convolution"
  bottom: "inception_4b/output"
  top: "inception_4c/1x1"
  param {
    lr_mult: 1
    decay_mult: 1
  }
  param {
    lr_mult: 2
    decay_mult: 0
  }
  convolution_param {
    num_output: 128
    kernel_size: 1
    weight_filler {
      type: "xavier"
      std: 0.03
    }
    bias_filler {
      type: "constant"
      value: 0.2
    }
  }
}
layer {
  name: "inception_4c/relu_1x1"
  type: "ReLU"
  bottom: "inception_4c/1x1"
  top: "inception_4c/1x1"
}
layer {
  name: "inception_4c/3x3_reduce"
  type: "Convolution"
  bottom: "inception_4b/output"
  top: "inception_4c/3x3_reduce"
  param {
    lr_mult: 1
    decay_mult: 1
  }
  param {
    lr_mult: 2
    decay_mult: 0
  }
  convolution_param {
    num_output: 128
    kernel_size: 1
    weight_filler {
      type: "xavier"
      std: 0.09
    }
    bias_filler {
      type: "constant"
      value: 0.2
    }
  }
}
layer {
  name: "inception_4c/relu_3x3_reduce"
  type: "ReLU"
  bottom: "inception_4c/3x3_reduce"
  top: "inception_4c/3x3_reduce"
}
layer {
  name: "inception_4c/3x3"
  type: "Convolution"
  bottom: "inception_4c/3x3_reduce"
  top: "inception_4c/3x3"
  param {
    lr_mult: 1
    decay_mult: 1
  }
  param {
    lr_mult: 2
    decay_mult: 0
  }
  convolution_param {
    num_output: 256
    pad: 1
    kernel_size: 3
    weight_filler {
      type: "xavier"
      std: 0.03
    }
    bias_filler {
      type: "constant"
      value: 0.2
    }
  }
}
layer {
  name: "inception_4c/relu_3x3"
  type: "ReLU"
  bottom: "inception_4c/3x3"
  top: "inception_4c/3x3"
}
layer {
  name: "inception_4c/5x5_reduce"
  type: "Convolution"
  bottom: "inception_4b/output"
  top: "inception_4c/5x5_reduce"
  param {
    lr_mult: 1
    decay_mult: 1
  }
  param {
    lr_mult: 2
    decay_mult: 0
  }
  convolution_param {
    num_output: 24
    kernel_size: 1
    weight_filler {
      type: "xavier"
      std: 0.2
    }
    bias_filler {
      type: "constant"
      value: 0.2
    }
  }
}
layer {
  name: "inception_4c/relu_5x5_reduce"
  type: "ReLU"
  bottom: "inception_4c/5x5_reduce"
  top: "inception_4c/5x5_reduce"
}
layer {
  name: "inception_4c/5x5"
  type: "Convolution"
  bottom: "inception_4c/5x5_reduce"
  top: "inception_4c/5x5"
  param {
    lr_mult: 1
    decay_mult: 1
  }
  param {
    lr_mult: 2
    decay_mult: 0
  }
  convolution_param {
    num_output: 64
    pad: 2
    kernel_size: 5
    weight_filler {
      type: "xavier"
      std: 0.03
    }
    bias_filler {
      type: "constant"
      value: 0.2
    }
  }
}
layer {
  name: "inception_4c/relu_5x5"
  type: "ReLU"
  bottom: "inception_4c/5x5"
  top: "inception_4c/5x5"
}
layer {
  name: "inception_4c/pool"
  type: "Pooling"
  bottom: "inception_4b/output"
  top: "inception_4c/pool"
  pooling_param {
    pool: MAX
    kernel_size: 3
    stride: 1
    pad: 1
  }
}
layer {
  name: "inception_4c/pool_proj"
  type: "Convolution"
  bottom: "inception_4c/pool"
  top: "inception_4c/pool_proj"
  param {
    lr_mult: 1
    decay_mult: 1
  }
  param {
    lr_mult: 2
    decay_mult: 0
  }
  convolution_param {
    num_output: 64
    kernel_size: 1
    weight_filler {
      type: "xavier"
      std: 0.1
    }
    bias_filler {
      type: "constant"
      value: 0.2
    }
  }
}
layer {
  name: "inception_4c/relu_pool_proj"
  type: "ReLU"
  bottom: "inception_4c/pool_proj"
  top: "inception_4c/pool_proj"
}
layer {
  name: "inception_4c/output"
  type: "Concat"
  bottom: "inception_4c/1x1"
  bottom: "inception_4c/3x3"
  bottom: "inception_4c/5x5"
  bottom: "inception_4c/pool_proj"
  top: "inception_4c/output"
}
layer {
  name: "inception_4d/1x1"
  type: "Convolution"
  bottom: "inception_4c/output"
  top: "inception_4d/1x1"
  param {
    lr_mult: 1
    decay_mult: 1
  }
  param {
    lr_mult: 2
    decay_mult: 0
  }
  convolution_param {
    num_output: 112
    kernel_size: 1
    weight_filler {
      type: "xavier"
      std: 0.03
    }
    bias_filler {
      type: "constant"
      value: 0.2
    }
  }
}
layer {
  name: "inception_4d/relu_1x1"
  type: "ReLU"
  bottom: "inception_4d/1x1"
  top: "inception_4d/1x1"
}
layer {
  name: "inception_4d/3x3_reduce"
  type: "Convolution"
  bottom: "inception_4c/output"
  top: "inception_4d/3x3_reduce"
  param {
    lr_mult: 1
    decay_mult: 1
  }
  param {
    lr_mult: 2
    decay_mult: 0
  }
  convolution_param {
    num_output: 144
    kernel_size: 1
    weight_filler {
      type: "xavier"
      std: 0.09
    }
    bias_filler {
      type: "constant"
      value: 0.2
    }
  }
}
layer {
  name: "inception_4d/relu_3x3_reduce"
  type: "ReLU"
  bottom: "inception_4d/3x3_reduce"
  top: "inception_4d/3x3_reduce"
}
layer {
  name: "inception_4d/3x3"
  type: "Convolution"
  bottom: "inception_4d/3x3_reduce"
  top: "inception_4d/3x3"
  param {
    lr_mult: 1
    decay_mult: 1
  }
  param {
    lr_mult: 2
    decay_mult: 0
  }
  convolution_param {
    num_output: 288
    pad: 1
    kernel_size: 3
    weight_filler {
      type: "xavier"
      std: 0.03
    }
    bias_filler {
      type: "constant"
      value: 0.2
    }
  }
}
layer {
  name: "inception_4d/relu_3x3"
  type: "ReLU"
  bottom: "inception_4d/3x3"
  top: "inception_4d/3x3"
}
layer {
  name: "inception_4d/5x5_reduce"
  type: "Convolution"
  bottom: "inception_4c/output"
  top: "inception_4d/5x5_reduce"
  param {
    lr_mult: 1
    decay_mult: 1
  }
  param {
    lr_mult: 2
    decay_mult: 0
  }
  convolution_param {
    num_output: 32
    kernel_size: 1
    weight_filler {
      type: "xavier"
      std: 0.2
    }
    bias_filler {
      type: "constant"
      value: 0.2
    }
  }
}
layer {
  name: "inception_4d/relu_5x5_reduce"
  type: "ReLU"
  bottom: "inception_4d/5x5_reduce"
  top: "inception_4d/5x5_reduce"
}
layer {
  name: "inception_4d/5x5"
  type: "Convolution"
  bottom: "inception_4d/5x5_reduce"
  top: "inception_4d/5x5"
  param {
    lr_mult: 1
    decay_mult: 1
  }
  param {
    lr_mult: 2
    decay_mult: 0
  }
  convolution_param {
    num_output: 64
    pad: 2
    kernel_size: 5
    weight_filler {
      type: "xavier"
      std: 0.03
    }
    bias_filler {
      type: "constant"
      value: 0.2
    }
  }
}
layer {
  name: "inception_4d/relu_5x5"
  type: "ReLU"
  bottom: "inception_4d/5x5"
  top: "inception_4d/5x5"
}
layer {
  name: "inception_4d/pool"
  type: "Pooling"
  bottom: "inception_4c/output"
  top: "inception_4d/pool"
  pooling_param {
    pool: MAX
    kernel_size: 3
    stride: 1
    pad: 1
  }
}
layer {
  name: "inception_4d/pool_proj"
  type: "Convolution"
  bottom: "inception_4d/pool"
  top: "inception_4d/pool_proj"
  param {
    lr_mult: 1
    decay_mult: 1
  }
  param {
    lr_mult: 2
    decay_mult: 0
  }
  convolution_param {
    num_output: 64
    kernel_size: 1
    weight_filler {
      type: "xavier"
      std: 0.1
    }
    bias_filler {
      type: "constant"
      value: 0.2
    }
  }
}
layer {
  name: "inception_4d/relu_pool_proj"
  type: "ReLU"
  bottom: "inception_4d/pool_proj"
  top: "inception_4d/pool_proj"
}
layer {
  name: "inception_4d/output"
  type: "Concat"
  bottom: "inception_4d/1x1"
  bottom: "inception_4d/3x3"
  bottom: "inception_4d/5x5"
  bottom: "inception_4d/pool_proj"
  top: "inception_4d/output"
}
layer {
  name: "loss2/ave_pool"
  type: "Pooling"
  bottom: "inception_4d/output"
  top: "loss2/ave_pool"
  pooling_param {
    pool: AVE
    kernel_size: 5
    stride: 3
  }
}
layer {
  name: "loss2/conv"
  type: "Convolution"
  bottom: "loss2/ave_pool"
  top: "loss2/conv"
  param {
    lr_mult: 1
    decay_mult: 1
  }
  param {
    lr_mult: 2
    decay_mult: 0
  }
  convolution_param {
    num_output: 128
    kernel_size: 1
    weight_filler {
      type: "xavier"
      std: 0.08
    }
    bias_filler {
      type: "constant"
      value: 0.2
    }
  }
}
layer {
  name: "loss2/relu_conv"
  type: "ReLU"
  bottom: "loss2/conv"
  top: "loss2/conv"
}
layer {
  name: "loss2/fc"
  type: "InnerProduct"
  bottom: "loss2/conv"
  top: "loss2/fc"
  param {
    lr_mult: 1
    decay_mult: 1
  }
  param {
    lr_mult: 2
    decay_mult: 0
  }
  inner_product_param {
    num_output: 1024
    weight_filler {
      type: "xavier"
      std: 0.02
    }
    bias_filler {
      type: "constant"
      value: 0.2
    }
  }
}
layer {
  name: "loss2/relu_fc"
  type: "ReLU"
  bottom: "loss2/fc"
  top: "loss2/fc"
}
layer {
  name: "loss2/drop_fc"
  type: "Dropout"
  bottom: "loss2/fc"
  top: "loss2/fc"
  dropout_param {
    dropout_ratio: 0.7
  }
}
layer {
  name: "loss2/classifier_plantvillage"
  type: "InnerProduct"
  bottom: "loss2/fc"
  top: "loss2/classifier_plantvillage"
  param {
    lr_mult: 1
    decay_mult: 1
  }
  param {
    lr_mult: 2
    decay_mult: 0
  }
  inner_product_param {
    num_output: 38
    weight_filler {
      type: "xavier"
      std: 0.0009765625
    }
    bias_filler {
      type: "constant"
      value: 0
    }
  }
}
layer {
  name: "inception_4e/1x1"
  type: "Convolution"
  bottom: "inception_4d/output"
  top: "inception_4e/1x1"
  param {
    lr_mult: 1
    decay_mult: 1
  }
  param {
    lr_mult: 2
    decay_mult: 0
  }
  convolution_param {
    num_output: 256
    kernel_size: 1
    weight_filler {
      type: "xavier"
      std: 0.03
    }
    bias_filler {
      type: "constant"
      value: 0.2
    }
  }
}
layer {
  name: "inception_4e/relu_1x1"
  type: "ReLU"
  bottom: "inception_4e/1x1"
  top: "inception_4e/1x1"
}
layer {
  name: "inception_4e/3x3_reduce"
  type: "Convolution"
  bottom: "inception_4d/output"
  top: "inception_4e/3x3_reduce"
  param {
    lr_mult: 1
    decay_mult: 1
  }
  param {
    lr_mult: 2
    decay_mult: 0
  }
  convolution_param {
    num_output: 160
    kernel_size: 1
    weight_filler {
      type: "xavier"
      std: 0.09
    }
    bias_filler {
      type: "constant"
      value: 0.2
    }
  }
}
layer {
  name: "inception_4e/relu_3x3_reduce"
  type: "ReLU"
  bottom: "inception_4e/3x3_reduce"
  top: "inception_4e/3x3_reduce"
}
layer {
  name: "inception_4e/3x3"
  type: "Convolution"
  bottom: "inception_4e/3x3_reduce"
  top: "inception_4e/3x3"
  param {
    lr_mult: 1
    decay_mult: 1
  }
  param {
    lr_mult: 2
    decay_mult: 0
  }
  convolution_param {
    num_output: 320
    pad: 1
    kernel_size: 3
    weight_filler {
      type: "xavier"
      std: 0.03
    }
    bias_filler {
      type: "constant"
      value: 0.2
    }
  }
}
layer {
  name: "inception_4e/relu_3x3"
  type: "ReLU"
  bottom: "inception_4e/3x3"
  top: "inception_4e/3x3"
}
layer {
  name: "inception_4e/5x5_reduce"
  type: "Convolution"
  bottom: "inception_4d/output"
  top: "inception_4e/5x5_reduce"
  param {
    lr_mult: 1
    decay_mult: 1
  }
  param {
    lr_mult: 2
    decay_mult: 0
  }
  convolution_param {
    num_output: 32
    kernel_size: 1
    weight_filler {
      type: "xavier"
      std: 0.2
    }
    bias_filler {
      type: "constant"
      value: 0.2
    }
  }
}
layer {
  name: "inception_4e/relu_5x5_reduce"
  type: "ReLU"
  bottom: "inception_4e/5x5_reduce"
  top: "inception_4e/5x5_reduce"
}
layer {
  name: "inception_4e/5x5"
  type: "Convolution"
  bottom: "inception_4e/5x5_reduce"
  top: "inception_4e/5x5"
  p
I0403 15:58:24.889183 15031 layer_factory.hpp:77] Creating layer data
I0403 15:58:24.889894 15031 net.cpp:91] Creating Layer data
I0403 15:58:24.889935 15031 net.cpp:399] data -> data
I0403 15:58:24.889997 15031 net.cpp:399] data -> label
I0403 15:58:24.890040 15031 data_transformer.cpp:25] Loading mean file from: /home/mohanty/data/final_dataset/lmdb/color-80-20/mean.binaryproto
I0403 15:58:24.892886 15034 db_lmdb.cpp:38] Opened lmdb /home/mohanty/data/final_dataset/lmdb/color-80-20/test_db
I0403 15:58:24.905587 15031 data_layer.cpp:41] output data size: 24,3,224,224
I0403 15:58:24.937153 15031 net.cpp:141] Setting up data
I0403 15:58:24.937244 15031 net.cpp:148] Top shape: 24 3 224 224 (3612672)
I0403 15:58:24.937273 15031 net.cpp:148] Top shape: 24 (24)
I0403 15:58:24.937290 15031 net.cpp:156] Memory required for data: 14450784
I0403 15:58:24.937324 15031 layer_factory.hpp:77] Creating layer label_data_1_split
I0403 15:58:24.937355 15031 net.cpp:91] Creating Layer label_data_1_split
I0403 15:58:24.937377 15031 net.cpp:425] label_data_1_split <- label
I0403 15:58:24.937414 15031 net.cpp:399] label_data_1_split -> label_data_1_split_0
I0403 15:58:24.937448 15031 net.cpp:399] label_data_1_split -> label_data_1_split_1
I0403 15:58:24.937474 15031 net.cpp:399] label_data_1_split -> label_data_1_split_2
I0403 15:58:24.937499 15031 net.cpp:399] label_data_1_split -> label_data_1_split_3
I0403 15:58:24.937522 15031 net.cpp:399] label_data_1_split -> label_data_1_split_4
I0403 15:58:24.937546 15031 net.cpp:399] label_data_1_split -> label_data_1_split_5
I0403 15:58:24.937567 15031 net.cpp:399] label_data_1_split -> label_data_1_split_6
I0403 15:58:24.937592 15031 net.cpp:399] label_data_1_split -> label_data_1_split_7
I0403 15:58:24.937613 15031 net.cpp:399] label_data_1_split -> label_data_1_split_8
I0403 15:58:24.937636 15031 net.cpp:399] label_data_1_split -> label_data_1_split_9
I0403 15:58:24.937779 15031 net.cpp:141] Setting up label_data_1_split
I0403 15:58:24.937808 15031 net.cpp:148] Top shape: 24 (24)
I0403 15:58:24.937827 15031 net.cpp:148] Top shape: 24 (24)
I0403 15:58:24.937846 15031 net.cpp:148] Top shape: 24 (24)
I0403 15:58:24.937865 15031 net.cpp:148] Top shape: 24 (24)
I0403 15:58:24.937882 15031 net.cpp:148] Top shape: 24 (24)
I0403 15:58:24.937901 15031 net.cpp:148] Top shape: 24 (24)
I0403 15:58:24.937918 15031 net.cpp:148] Top shape: 24 (24)
I0403 15:58:24.937937 15031 net.cpp:148] Top shape: 24 (24)
I0403 15:58:24.937954 15031 net.cpp:148] Top shape: 24 (24)
I0403 15:58:24.937973 15031 net.cpp:148] Top shape: 24 (24)
I0403 15:58:24.938026 15031 net.cpp:156] Memory required for data: 14451744
I0403 15:58:24.938046 15031 layer_factory.hpp:77] Creating layer conv1/7x7_s2
I0403 15:58:24.938084 15031 net.cpp:91] Creating Layer conv1/7x7_s2
I0403 15:58:24.938107 15031 net.cpp:425] conv1/7x7_s2 <- data
I0403 15:58:24.938134 15031 net.cpp:399] conv1/7x7_s2 -> conv1/7x7_s2
I0403 15:58:25.102982 15031 net.cpp:141] Setting up conv1/7x7_s2
I0403 15:58:25.103072 15031 net.cpp:148] Top shape: 24 64 112 112 (19267584)
I0403 15:58:25.103093 15031 net.cpp:156] Memory required for data: 91522080
I0403 15:58:25.103142 15031 layer_factory.hpp:77] Creating layer conv1/relu_7x7
I0403 15:58:25.103179 15031 net.cpp:91] Creating Layer conv1/relu_7x7
I0403 15:58:25.103204 15031 net.cpp:425] conv1/relu_7x7 <- conv1/7x7_s2
I0403 15:58:25.103225 15031 net.cpp:386] conv1/relu_7x7 -> conv1/7x7_s2 (in-place)
I0403 15:58:25.103534 15031 net.cpp:141] Setting up conv1/relu_7x7
I0403 15:58:25.103566 15031 net.cpp:148] Top shape: 24 64 112 112 (19267584)
I0403 15:58:25.103585 15031 net.cpp:156] Memory required for data: 168592416
I0403 15:58:25.103602 15031 layer_factory.hpp:77] Creating layer pool1/3x3_s2
I0403 15:58:25.103633 15031 net.cpp:91] Creating Layer pool1/3x3_s2
I0403 15:58:25.103657 15031 net.cpp:425] pool1/3x3_s2 <- conv1/7x7_s2
I0403 15:58:25.103678 15031 net.cpp:399] pool1/3x3_s2 -> pool1/3x3_s2
I0403 15:58:25.103767 15031 net.cpp:141] Setting up pool1/3x3_s2
I0403 15:58:25.103796 15031 net.cpp:148] Top shape: 24 64 56 56 (4816896)
I0403 15:58:25.103814 15031 net.cpp:156] Memory required for data: 187860000
I0403 15:58:25.103832 15031 layer_factory.hpp:77] Creating layer pool1/norm1
I0403 15:58:25.103859 15031 net.cpp:91] Creating Layer pool1/norm1
I0403 15:58:25.103881 15031 net.cpp:425] pool1/norm1 <- pool1/3x3_s2
I0403 15:58:25.103902 15031 net.cpp:399] pool1/norm1 -> pool1/norm1
I0403 15:58:25.104251 15031 net.cpp:141] Setting up pool1/norm1
I0403 15:58:25.104285 15031 net.cpp:148] Top shape: 24 64 56 56 (4816896)
I0403 15:58:25.104303 15031 net.cpp:156] Memory required for data: 207127584
I0403 15:58:25.104321 15031 layer_factory.hpp:77] Creating layer conv2/3x3_reduce
I0403 15:58:25.104349 15031 net.cpp:91] Creating Layer conv2/3x3_reduce
I0403 15:58:25.104372 15031 net.cpp:425] conv2/3x3_reduce <- pool1/norm1
I0403 15:58:25.104395 15031 net.cpp:399] conv2/3x3_reduce -> conv2/3x3_reduce
I0403 15:58:25.106063 15031 net.cpp:141] Setting up conv2/3x3_reduce
I0403 15:58:25.106099 15031 net.cpp:148] Top shape: 24 64 56 56 (4816896)
I0403 15:58:25.106119 15031 net.cpp:156] Memory required for data: 226395168
I0403 15:58:25.106153 15031 layer_factory.hpp:77] Creating layer conv2/relu_3x3_reduce
I0403 15:58:25.106180 15031 net.cpp:91] Creating Layer conv2/relu_3x3_reduce
I0403 15:58:25.106200 15031 net.cpp:425] conv2/relu_3x3_reduce <- conv2/3x3_reduce
I0403 15:58:25.106220 15031 net.cpp:386] conv2/relu_3x3_reduce -> conv2/3x3_reduce (in-place)
I0403 15:58:25.106571 15031 net.cpp:141] Setting up conv2/relu_3x3_reduce
I0403 15:58:25.106605 15031 net.cpp:148] Top shape: 24 64 56 56 (4816896)
I0403 15:58:25.106623 15031 net.cpp:156] Memory required for data: 245662752
I0403 15:58:25.106642 15031 layer_factory.hpp:77] Creating layer conv2/3x3
I0403 15:58:25.106673 15031 net.cpp:91] Creating Layer conv2/3x3
I0403 15:58:25.106693 15031 net.cpp:425] conv2/3x3 <- conv2/3x3_reduce
I0403 15:58:25.106716 15031 net.cpp:399] conv2/3x3 -> conv2/3x3
I0403 15:58:25.109498 15031 net.cpp:141] Setting up conv2/3x3
I0403 15:58:25.109539 15031 net.cpp:148] Top shape: 24 192 56 56 (14450688)
I0403 15:58:25.109561 15031 net.cpp:156] Memory required for data: 303465504
I0403 15:58:25.109587 15031 layer_factory.hpp:77] Creating layer conv2/relu_3x3
I0403 15:58:25.109611 15031 net.cpp:91] Creating Layer conv2/relu_3x3
I0403 15:58:25.109630 15031 net.cpp:425] conv2/relu_3x3 <- conv2/3x3
I0403 15:58:25.109654 15031 net.cpp:386] conv2/relu_3x3 -> conv2/3x3 (in-place)
I0403 15:58:25.109870 15031 net.cpp:141] Setting up conv2/relu_3x3
I0403 15:58:25.109902 15031 net.cpp:148] Top shape: 24 192 56 56 (14450688)
I0403 15:58:25.109956 15031 net.cpp:156] Memory required for data: 361268256
I0403 15:58:25.109974 15031 layer_factory.hpp:77] Creating layer conv2/norm2
I0403 15:58:25.109999 15031 net.cpp:91] Creating Layer conv2/norm2
I0403 15:58:25.110020 15031 net.cpp:425] conv2/norm2 <- conv2/3x3
I0403 15:58:25.110043 15031 net.cpp:399] conv2/norm2 -> conv2/norm2
I0403 15:58:25.110419 15031 net.cpp:141] Setting up conv2/norm2
I0403 15:58:25.110453 15031 net.cpp:148] Top shape: 24 192 56 56 (14450688)
I0403 15:58:25.110476 15031 net.cpp:156] Memory required for data: 419071008
I0403 15:58:25.110494 15031 layer_factory.hpp:77] Creating layer pool2/3x3_s2
I0403 15:58:25.110525 15031 net.cpp:91] Creating Layer pool2/3x3_s2
I0403 15:58:25.110551 15031 net.cpp:425] pool2/3x3_s2 <- conv2/norm2
I0403 15:58:25.110574 15031 net.cpp:399] pool2/3x3_s2 -> pool2/3x3_s2
I0403 15:58:25.110642 15031 net.cpp:141] Setting up pool2/3x3_s2
I0403 15:58:25.110671 15031 net.cpp:148] Top shape: 24 192 28 28 (3612672)
I0403 15:58:25.110688 15031 net.cpp:156] Memory required for data: 433521696
I0403 15:58:25.110707 15031 layer_factory.hpp:77] Creating layer pool2/3x3_s2_pool2/3x3_s2_0_split
I0403 15:58:25.110728 15031 net.cpp:91] Creating Layer pool2/3x3_s2_pool2/3x3_s2_0_split
I0403 15:58:25.110746 15031 net.cpp:425] pool2/3x3_s2_pool2/3x3_s2_0_split <- pool2/3x3_s2
I0403 15:58:25.110770 15031 net.cpp:399] pool2/3x3_s2_pool2/3x3_s2_0_split -> pool2/3x3_s2_pool2/3x3_s2_0_split_0
I0403 15:58:25.110795 15031 net.cpp:399] pool2/3x3_s2_pool2/3x3_s2_0_split -> pool2/3x3_s2_pool2/3x3_s2_0_split_1
I0403 15:58:25.110819 15031 net.cpp:399] pool2/3x3_s2_pool2/3x3_s2_0_split -> pool2/3x3_s2_pool2/3x3_s2_0_split_2
I0403 15:58:25.110843 15031 net.cpp:399] pool2/3x3_s2_pool2/3x3_s2_0_split -> pool2/3x3_s2_pool2/3x3_s2_0_split_3
I0403 15:58:25.110930 15031 net.cpp:141] Setting up pool2/3x3_s2_pool2/3x3_s2_0_split
I0403 15:58:25.110959 15031 net.cpp:148] Top shape: 24 192 28 28 (3612672)
I0403 15:58:25.110978 15031 net.cpp:148] Top shape: 24 192 28 28 (3612672)
I0403 15:58:25.110997 15031 net.cpp:148] Top shape: 24 192 28 28 (3612672)
I0403 15:58:25.111016 15031 net.cpp:148] Top shape: 24 192 28 28 (3612672)
I0403 15:58:25.111032 15031 net.cpp:156] Memory required for data: 491324448
I0403 15:58:25.111049 15031 layer_factory.hpp:77] Creating layer inception_3a/1x1
I0403 15:58:25.111075 15031 net.cpp:91] Creating Layer inception_3a/1x1
I0403 15:58:25.111098 15031 net.cpp:425] inception_3a/1x1 <- pool2/3x3_s2_pool2/3x3_s2_0_split_0
I0403 15:58:25.111124 15031 net.cpp:399] inception_3a/1x1 -> inception_3a/1x1
I0403 15:58:25.112973 15031 net.cpp:141] Setting up inception_3a/1x1
I0403 15:58:25.113013 15031 net.cpp:148] Top shape: 24 64 28 28 (1204224)
I0403 15:58:25.113034 15031 net.cpp:156] Memory required for data: 496141344
I0403 15:58:25.113056 15031 layer_factory.hpp:77] Creating layer inception_3a/relu_1x1
I0403 15:58:25.113078 15031 net.cpp:91] Creating Layer inception_3a/relu_1x1
I0403 15:58:25.113097 15031 net.cpp:425] inception_3a/relu_1x1 <- inception_3a/1x1
I0403 15:58:25.113118 15031 net.cpp:386] inception_3a/relu_1x1 -> inception_3a/1x1 (in-place)
I0403 15:58:25.113353 15031 net.cpp:141] Setting up inception_3a/relu_1x1
I0403 15:58:25.113389 15031 net.cpp:148] Top shape: 24 64 28 28 (1204224)
I0403 15:58:25.113407 15031 net.cpp:156] Memory required for data: 500958240
I0403 15:58:25.113425 15031 layer_factory.hpp:77] Creating layer inception_3a/3x3_reduce
I0403 15:58:25.113452 15031 net.cpp:91] Creating Layer inception_3a/3x3_reduce
I0403 15:58:25.113473 15031 net.cpp:425] inception_3a/3x3_reduce <- pool2/3x3_s2_pool2/3x3_s2_0_split_1
I0403 15:58:25.113499 15031 net.cpp:399] inception_3a/3x3_reduce -> inception_3a/3x3_reduce
I0403 15:58:25.115550 15031 net.cpp:141] Setting up inception_3a/3x3_reduce
I0403 15:58:25.115587 15031 net.cpp:148] Top shape: 24 96 28 28 (1806336)
I0403 15:58:25.115607 15031 net.cpp:156] Memory required for data: 508183584
I0403 15:58:25.115636 15031 layer_factory.hpp:77] Creating layer inception_3a/relu_3x3_reduce
I0403 15:58:25.115681 15031 net.cpp:91] Creating Layer inception_3a/relu_3x3_reduce
I0403 15:58:25.115703 15031 net.cpp:425] inception_3a/relu_3x3_reduce <- inception_3a/3x3_reduce
I0403 15:58:25.115727 15031 net.cpp:386] inception_3a/relu_3x3_reduce -> inception_3a/3x3_reduce (in-place)
I0403 15:58:25.115953 15031 net.cpp:141] Setting up inception_3a/relu_3x3_reduce
I0403 15:58:25.115984 15031 net.cpp:148] Top shape: 24 96 28 28 (1806336)
I0403 15:58:25.116003 15031 net.cpp:156] Memory required for data: 515408928
I0403 15:58:25.116021 15031 layer_factory.hpp:77] Creating layer inception_3a/3x3
I0403 15:58:25.116047 15031 net.cpp:91] Creating Layer inception_3a/3x3
I0403 15:58:25.116070 15031 net.cpp:425] inception_3a/3x3 <- inception_3a/3x3_reduce
I0403 15:58:25.116096 15031 net.cpp:399] inception_3a/3x3 -> inception_3a/3x3
I0403 15:58:25.118141 15031 net.cpp:141] Setting up inception_3a/3x3
I0403 15:58:25.118183 15031 net.cpp:148] Top shape: 24 128 28 28 (2408448)
I0403 15:58:25.118204 15031 net.cpp:156] Memory required for data: 525042720
I0403 15:58:25.118227 15031 layer_factory.hpp:77] Creating layer inception_3a/relu_3x3
I0403 15:58:25.118249 15031 net.cpp:91] Creating Layer inception_3a/relu_3x3
I0403 15:58:25.118269 15031 net.cpp:425] inception_3a/relu_3x3 <- inception_3a/3x3
I0403 15:58:25.118294 15031 net.cpp:386] inception_3a/relu_3x3 -> inception_3a/3x3 (in-place)
I0403 15:58:25.118620 15031 net.cpp:141] Setting up inception_3a/relu_3x3
I0403 15:58:25.118656 15031 net.cpp:148] Top shape: 24 128 28 28 (2408448)
I0403 15:58:25.118675 15031 net.cpp:156] Memory required for data: 534676512
I0403 15:58:25.118693 15031 layer_factory.hpp:77] Creating layer inception_3a/5x5_reduce
I0403 15:58:25.118719 15031 net.cpp:91] Creating Layer inception_3a/5x5_reduce
I0403 15:58:25.118741 15031 net.cpp:425] inception_3a/5x5_reduce <- pool2/3x3_s2_pool2/3x3_s2_0_split_2
I0403 15:58:25.118767 15031 net.cpp:399] inception_3a/5x5_reduce -> inception_3a/5x5_reduce
I0403 15:58:25.119966 15031 net.cpp:141] Setting up inception_3a/5x5_reduce
I0403 15:58:25.119999 15031 net.cpp:148] Top shape: 24 16 28 28 (301056)
I0403 15:58:25.120018 15031 net.cpp:156] Memory required for data: 535880736
I0403 15:58:25.120040 15031 layer_factory.hpp:77] Creating layer inception_3a/relu_5x5_reduce
I0403 15:58:25.120061 15031 net.cpp:91] Creating Layer inception_3a/relu_5x5_reduce
I0403 15:58:25.120079 15031 net.cpp:425] inception_3a/relu_5x5_reduce <- inception_3a/5x5_reduce
I0403 15:58:25.120103 15031 net.cpp:386] inception_3a/relu_5x5_reduce -> inception_3a/5x5_reduce (in-place)
I0403 15:58:25.120458 15031 net.cpp:141] Setting up inception_3a/relu_5x5_reduce
I0403 15:58:25.120491 15031 net.cpp:148] Top shape: 24 16 28 28 (301056)
I0403 15:58:25.120510 15031 net.cpp:156] Memory required for data: 537084960
I0403 15:58:25.120528 15031 layer_factory.hpp:77] Creating layer inception_3a/5x5
I0403 15:58:25.120555 15031 net.cpp:91] Creating Layer inception_3a/5x5
I0403 15:58:25.120576 15031 net.cpp:425] inception_3a/5x5 <- inception_3a/5x5_reduce
I0403 15:58:25.120602 15031 net.cpp:399] inception_3a/5x5 -> inception_3a/5x5
I0403 15:58:25.121868 15031 net.cpp:141] Setting up inception_3a/5x5
I0403 15:58:25.121908 15031 net.cpp:148] Top shape: 24 32 28 28 (602112)
I0403 15:58:25.121929 15031 net.cpp:156] Memory required for data: 539493408
I0403 15:58:25.121953 15031 layer_factory.hpp:77] Creating layer inception_3a/relu_5x5
I0403 15:58:25.121974 15031 net.cpp:91] Creating Layer inception_3a/relu_5x5
I0403 15:58:25.121994 15031 net.cpp:425] inception_3a/relu_5x5 <- inception_3a/5x5
I0403 15:58:25.122014 15031 net.cpp:386] inception_3a/relu_5x5 -> inception_3a/5x5 (in-place)
I0403 15:58:25.122241 15031 net.cpp:141] Setting up inception_3a/relu_5x5
I0403 15:58:25.122272 15031 net.cpp:148] Top shape: 24 32 28 28 (602112)
I0403 15:58:25.122289 15031 net.cpp:156] Memory required for data: 541901856
I0403 15:58:25.122308 15031 layer_factory.hpp:77] Creating layer inception_3a/pool
I0403 15:58:25.122328 15031 net.cpp:91] Creating Layer inception_3a/pool
I0403 15:58:25.122347 15031 net.cpp:425] inception_3a/pool <- pool2/3x3_s2_pool2/3x3_s2_0_split_3
I0403 15:58:25.122390 15031 net.cpp:399] inception_3a/pool -> inception_3a/pool
I0403 15:58:25.122462 15031 net.cpp:141] Setting up inception_3a/pool
I0403 15:58:25.122493 15031 net.cpp:148] Top shape: 24 192 28 28 (3612672)
I0403 15:58:25.122512 15031 net.cpp:156] Memory required for data: 556352544
I0403 15:58:25.122530 15031 layer_factory.hpp:77] Creating layer inception_3a/pool_proj
I0403 15:58:25.122557 15031 net.cpp:91] Creating Layer inception_3a/pool_proj
I0403 15:58:25.122580 15031 net.cpp:425] inception_3a/pool_proj <- inception_3a/pool
I0403 15:58:25.122602 15031 net.cpp:399] inception_3a/pool_proj -> inception_3a/pool_proj
I0403 15:58:25.123781 15031 net.cpp:141] Setting up inception_3a/pool_proj
I0403 15:58:25.123816 15031 net.cpp:148] Top shape: 24 32 28 28 (602112)
I0403 15:58:25.123836 15031 net.cpp:156] Memory required for data: 558760992
I0403 15:58:25.123867 15031 layer_factory.hpp:77] Creating layer inception_3a/relu_pool_proj
I0403 15:58:25.123891 15031 net.cpp:91] Creating Layer inception_3a/relu_pool_proj
I0403 15:58:25.123911 15031 net.cpp:425] inception_3a/relu_pool_proj <- inception_3a/pool_proj
I0403 15:58:25.123934 15031 net.cpp:386] inception_3a/relu_pool_proj -> inception_3a/pool_proj (in-place)
I0403 15:58:25.124265 15031 net.cpp:141] Setting up inception_3a/relu_pool_proj
I0403 15:58:25.124303 15031 net.cpp:148] Top shape: 24 32 28 28 (602112)
I0403 15:58:25.124323 15031 net.cpp:156] Memory required for data: 561169440
I0403 15:58:25.124341 15031 layer_factory.hpp:77] Creating layer inception_3a/output
I0403 15:58:25.124363 15031 net.cpp:91] Creating Layer inception_3a/output
I0403 15:58:25.124382 15031 net.cpp:425] inception_3a/output <- inception_3a/1x1
I0403 15:58:25.124402 15031 net.cpp:425] inception_3a/output <- inception_3a/3x3
I0403 15:58:25.124421 15031 net.cpp:425] inception_3a/output <- inception_3a/5x5
I0403 15:58:25.124440 15031 net.cpp:425] inception_3a/output <- inception_3a/pool_proj
I0403 15:58:25.124460 15031 net.cpp:399] inception_3a/output -> inception_3a/output
I0403 15:58:25.124519 15031 net.cpp:141] Setting up inception_3a/output
I0403 15:58:25.124547 15031 net.cpp:148] Top shape: 24 256 28 28 (4816896)
I0403 15:58:25.124564 15031 net.cpp:156] Memory required for data: 580437024
I0403 15:58:25.124583 15031 layer_factory.hpp:77] Creating layer inception_3a/output_inception_3a/output_0_split
I0403 15:58:25.124605 15031 net.cpp:91] Creating Layer inception_3a/output_inception_3a/output_0_split
I0403 15:58:25.124625 15031 net.cpp:425] inception_3a/output_inception_3a/output_0_split <- inception_3a/output
I0403 15:58:25.124645 15031 net.cpp:399] inception_3a/output_inception_3a/output_0_split -> inception_3a/output_inception_3a/output_0_split_0
I0403 15:58:25.124670 15031 net.cpp:399] inception_3a/output_inception_3a/output_0_split -> inception_3a/output_inception_3a/output_0_split_1
I0403 15:58:25.124698 15031 net.cpp:399] inception_3a/output_inception_3a/output_0_split -> inception_3a/output_inception_3a/output_0_split_2
I0403 15:58:25.124727 15031 net.cpp:399] inception_3a/output_inception_3a/output_0_split -> inception_3a/output_inception_3a/output_0_split_3
I0403 15:58:25.124822 15031 net.cpp:141] Setting up inception_3a/output_inception_3a/output_0_split
I0403 15:58:25.124851 15031 net.cpp:148] Top shape: 24 256 28 28 (4816896)
I0403 15:58:25.124871 15031 net.cpp:148] Top shape: 24 256 28 28 (4816896)
I0403 15:58:25.124888 15031 net.cpp:148] Top shape: 24 256 28 28 (4816896)
I0403 15:58:25.124907 15031 net.cpp:148] Top shape: 24 256 28 28 (4816896)
I0403 15:58:25.124922 15031 net.cpp:156] Memory required for data: 657507360
I0403 15:58:25.124939 15031 layer_factory.hpp:77] Creating layer inception_3b/1x1
I0403 15:58:25.124969 15031 net.cpp:91] Creating Layer inception_3b/1x1
I0403 15:58:25.124990 15031 net.cpp:425] inception_3b/1x1 <- inception_3a/output_inception_3a/output_0_split_0
I0403 15:58:25.125013 15031 net.cpp:399] inception_3b/1x1 -> inception_3b/1x1
I0403 15:58:25.126399 15031 net.cpp:141] Setting up inception_3b/1x1
I0403 15:58:25.126447 15031 net.cpp:148] Top shape: 24 128 28 28 (2408448)
I0403 15:58:25.126468 15031 net.cpp:156] Memory required for data: 667141152
I0403 15:58:25.126490 15031 layer_factory.hpp:77] Creating layer inception_3b/relu_1x1
I0403 15:58:25.126515 15031 net.cpp:91] Creating Layer inception_3b/relu_1x1
I0403 15:58:25.126535 15031 net.cpp:425] inception_3b/relu_1x1 <- inception_3b/1x1
I0403 15:58:25.126555 15031 net.cpp:386] inception_3b/relu_1x1 -> inception_3b/1x1 (in-place)
I0403 15:58:25.126768 15031 net.cpp:141] Setting up inception_3b/relu_1x1
I0403 15:58:25.126802 15031 net.cpp:148] Top shape: 24 128 28 28 (2408448)
I0403 15:58:25.126821 15031 net.cpp:156] Memory required for data: 676774944
I0403 15:58:25.126838 15031 layer_factory.hpp:77] Creating layer inception_3b/3x3_reduce
I0403 15:58:25.126864 15031 net.cpp:91] Creating Layer inception_3b/3x3_reduce
I0403 15:58:25.126886 15031 net.cpp:425] inception_3b/3x3_reduce <- inception_3a/output_inception_3a/output_0_split_1
I0403 15:58:25.126912 15031 net.cpp:399] inception_3b/3x3_reduce -> inception_3b/3x3_reduce
I0403 15:58:25.128290 15031 net.cpp:141] Setting up inception_3b/3x3_reduce
I0403 15:58:25.128325 15031 net.cpp:148] Top shape: 24 128 28 28 (2408448)
I0403 15:58:25.128345 15031 net.cpp:156] Memory required for data: 686408736
I0403 15:58:25.128366 15031 layer_factory.hpp:77] Creating layer inception_3b/relu_3x3_reduce
I0403 15:58:25.128396 15031 net.cpp:91] Creating Layer inception_3b/relu_3x3_reduce
I0403 15:58:25.128417 15031 net.cpp:425] inception_3b/relu_3x3_reduce <- inception_3b/3x3_reduce
I0403 15:58:25.128437 15031 net.cpp:386] inception_3b/relu_3x3_reduce -> inception_3b/3x3_reduce (in-place)
I0403 15:58:25.128649 15031 net.cpp:141] Setting up inception_3b/relu_3x3_reduce
I0403 15:58:25.128681 15031 net.cpp:148] Top shape: 24 128 28 28 (2408448)
I0403 15:58:25.128700 15031 net.cpp:156] Memory required for data: 696042528
I0403 15:58:25.128718 15031 layer_factory.hpp:77] Creating layer inception_3b/3x3
I0403 15:58:25.128747 15031 net.cpp:91] Creating Layer inception_3b/3x3
I0403 15:58:25.128769 15031 net.cpp:425] inception_3b/3x3 <- inception_3b/3x3_reduce
I0403 15:58:25.128795 15031 net.cpp:399] inception_3b/3x3 -> inception_3b/3x3
I0403 15:58:25.132321 15031 net.cpp:141] Setting up inception_3b/3x3
I0403 15:58:25.132361 15031 net.cpp:148] Top shape: 24 192 28 28 (3612672)
I0403 15:58:25.132382 15031 net.cpp:156] Memory required for data: 710493216
I0403 15:58:25.132403 15031 layer_factory.hpp:77] Creating layer inception_3b/relu_3x3
I0403 15:58:25.132426 15031 net.cpp:91] Creating Layer inception_3b/relu_3x3
I0403 15:58:25.132446 15031 net.cpp:425] inception_3b/relu_3x3 <- inception_3b/3x3
I0403 15:58:25.132469 15031 net.cpp:386] inception_3b/relu_3x3 -> inception_3b/3x3 (in-place)
I0403 15:58:25.132797 15031 net.cpp:141] Setting up inception_3b/relu_3x3
I0403 15:58:25.132833 15031 net.cpp:148] Top shape: 24 192 28 28 (3612672)
I0403 15:58:25.132853 15031 net.cpp:156] Memory required for data: 724943904
I0403 15:58:25.132870 15031 layer_factory.hpp:77] Creating layer inception_3b/5x5_reduce
I0403 15:58:25.132899 15031 net.cpp:91] Creating Layer inception_3b/5x5_reduce
I0403 15:58:25.132920 15031 net.cpp:425] inception_3b/5x5_reduce <- inception_3a/output_inception_3a/output_0_split_2
I0403 15:58:25.132943 15031 net.cpp:399] inception_3b/5x5_reduce -> inception_3b/5x5_reduce
I0403 15:58:25.134168 15031 net.cpp:141] Setting up inception_3b/5x5_reduce
I0403 15:58:25.134207 15031 net.cpp:148] Top shape: 24 32 28 28 (602112)
I0403 15:58:25.134227 15031 net.cpp:156] Memory required for data: 727352352
I0403 15:58:25.134248 15031 layer_factory.hpp:77] Creating layer inception_3b/relu_5x5_reduce
I0403 15:58:25.134270 15031 net.cpp:91] Creating Layer inception_3b/relu_5x5_reduce
I0403 15:58:25.134291 15031 net.cpp:425] inception_3b/relu_5x5_reduce <- inception_3b/5x5_reduce
I0403 15:58:25.134312 15031 net.cpp:386] inception_3b/relu_5x5_reduce -> inception_3b/5x5_reduce (in-place)
I0403 15:58:25.134533 15031 net.cpp:141] Setting up inception_3b/relu_5x5_reduce
I0403 15:58:25.134579 15031 net.cpp:148] Top shape: 24 32 28 28 (602112)
I0403 15:58:25.134598 15031 net.cpp:156] Memory required for data: 729760800
I0403 15:58:25.134615 15031 layer_factory.hpp:77] Creating layer inception_3b/5x5
I0403 15:58:25.134642 15031 net.cpp:91] Creating Layer inception_3b/5x5
I0403 15:58:25.134663 15031 net.cpp:425] inception_3b/5x5 <- inception_3b/5x5_reduce
I0403 15:58:25.134688 15031 net.cpp:399] inception_3b/5x5 -> inception_3b/5x5
I0403 15:58:25.137079 15031 net.cpp:141] Setting up inception_3b/5x5
I0403 15:58:25.137116 15031 net.cpp:148] Top shape: 24 96 28 28 (1806336)
I0403 15:58:25.137142 15031 net.cpp:156] Memory required for data: 736986144
I0403 15:58:25.137166 15031 layer_factory.hpp:77] Creating layer inception_3b/relu_5x5
I0403 15:58:25.137190 15031 net.cpp:91] Creating Layer inception_3b/relu_5x5
I0403 15:58:25.137212 15031 net.cpp:425] inception_3b/relu_5x5 <- inception_3b/5x5
I0403 15:58:25.137233 15031 net.cpp:386] inception_3b/relu_5x5 -> inception_3b/5x5 (in-place)
I0403 15:58:25.137468 15031 net.cpp:141] Setting up inception_3b/relu_5x5
I0403 15:58:25.137500 15031 net.cpp:148] Top shape: 24 96 28 28 (1806336)
I0403 15:58:25.137517 15031 net.cpp:156] Memory required for data: 744211488
I0403 15:58:25.137536 15031 layer_factory.hpp:77] Creating layer inception_3b/pool
I0403 15:58:25.137557 15031 net.cpp:91] Creating Layer inception_3b/pool
I0403 15:58:25.137578 15031 net.cpp:425] inception_3b/pool <- inception_3a/output_inception_3a/output_0_split_3
I0403 15:58:25.137599 15031 net.cpp:399] inception_3b/pool -> inception_3b/pool
I0403 15:58:25.137667 15031 net.cpp:141] Setting up inception_3b/pool
I0403 15:58:25.137696 15031 net.cpp:148] Top shape: 24 256 28 28 (4816896)
I0403 15:58:25.137714 15031 net.cpp:156] Memory required for data: 763479072
I0403 15:58:25.137732 15031 layer_factory.hpp:77] Creating layer inception_3b/pool_proj
I0403 15:58:25.137759 15031 net.cpp:91] Creating Layer inception_3b/pool_proj
I0403 15:58:25.137781 15031 net.cpp:425] inception_3b/pool_proj <- inception_3b/pool
I0403 15:58:25.137810 15031 net.cpp:399] inception_3b/pool_proj -> inception_3b/pool_proj
I0403 15:58:25.139086 15031 net.cpp:141] Setting up inception_3b/pool_proj
I0403 15:58:25.139119 15031 net.cpp:148] Top shape: 24 64 28 28 (1204224)
I0403 15:58:25.139147 15031 net.cpp:156] Memory required for data: 768295968
I0403 15:58:25.139169 15031 layer_factory.hpp:77] Creating layer inception_3b/relu_pool_proj
I0403 15:58:25.139195 15031 net.cpp:91] Creating Layer inception_3b/relu_pool_proj
I0403 15:58:25.139216 15031 net.cpp:425] inception_3b/relu_pool_proj <- inception_3b/pool_proj
I0403 15:58:25.139237 15031 net.cpp:386] inception_3b/relu_pool_proj -> inception_3b/pool_proj (in-place)
I0403 15:58:25.139698 15031 net.cpp:141] Setting up inception_3b/relu_pool_proj
I0403 15:58:25.139729 15031 net.cpp:148] Top shape: 24 64 28 28 (1204224)
I0403 15:58:25.139749 15031 net.cpp:156] Memory required for data: 773112864
I0403 15:58:25.139765 15031 layer_factory.hpp:77] Creating layer inception_3b/output
I0403 15:58:25.139787 15031 net.cpp:91] Creating Layer inception_3b/output
I0403 15:58:25.139806 15031 net.cpp:425] inception_3b/output <- inception_3b/1x1
I0403 15:58:25.139827 15031 net.cpp:425] inception_3b/output <- inception_3b/3x3
I0403 15:58:25.139845 15031 net.cpp:425] inception_3b/output <- inception_3b/5x5
I0403 15:58:25.139865 15031 net.cpp:425] inception_3b/output <- inception_3b/pool_proj
I0403 15:58:25.139889 15031 net.cpp:399] inception_3b/output -> inception_3b/output
I0403 15:58:25.139941 15031 net.cpp:141] Setting up inception_3b/output
I0403 15:58:25.139972 15031 net.cpp:148] Top shape: 24 480 28 28 (9031680)
I0403 15:58:25.139992 15031 net.cpp:156] Memory required for data: 809239584
I0403 15:58:25.140010 15031 layer_factory.hpp:77] Creating layer pool3/3x3_s2
I0403 15:58:25.140032 15031 net.cpp:91] Creating Layer pool3/3x3_s2
I0403 15:58:25.140050 15031 net.cpp:425] pool3/3x3_s2 <- inception_3b/output
I0403 15:58:25.140071 15031 net.cpp:399] pool3/3x3_s2 -> pool3/3x3_s2
I0403 15:58:25.140166 15031 net.cpp:141] Setting up pool3/3x3_s2
I0403 15:58:25.140194 15031 net.cpp:148] Top shape: 24 480 14 14 (2257920)
I0403 15:58:25.140213 15031 net.cpp:156] Memory required for data: 818271264
I0403 15:58:25.140231 15031 layer_factory.hpp:77] Creating layer pool3/3x3_s2_pool3/3x3_s2_0_split
I0403 15:58:25.140251 15031 net.cpp:91] Creating Layer pool3/3x3_s2_pool3/3x3_s2_0_split
I0403 15:58:25.140269 15031 net.cpp:425] pool3/3x3_s2_pool3/3x3_s2_0_split <- pool3/3x3_s2
I0403 15:58:25.140292 15031 net.cpp:399] pool3/3x3_s2_pool3/3x3_s2_0_split -> pool3/3x3_s2_pool3/3x3_s2_0_split_0
I0403 15:58:25.140318 15031 net.cpp:399] pool3/3x3_s2_pool3/3x3_s2_0_split -> pool3/3x3_s2_pool3/3x3_s2_0_split_1
I0403 15:58:25.140343 15031 net.cpp:399] pool3/3x3_s2_pool3/3x3_s2_0_split -> pool3/3x3_s2_pool3/3x3_s2_0_split_2
I0403 15:58:25.140370 15031 net.cpp:399] pool3/3x3_s2_pool3/3x3_s2_0_split -> pool3/3x3_s2_pool3/3x3_s2_0_split_3
I0403 15:58:25.140465 15031 net.cpp:141] Setting up pool3/3x3_s2_pool3/3x3_s2_0_split
I0403 15:58:25.140493 15031 net.cpp:148] Top shape: 24 480 14 14 (2257920)
I0403 15:58:25.140514 15031 net.cpp:148] Top shape: 24 480 14 14 (2257920)
I0403 15:58:25.140533 15031 net.cpp:148] Top shape: 24 480 14 14 (2257920)
I0403 15:58:25.140552 15031 net.cpp:148] Top shape: 24 480 14 14 (2257920)
I0403 15:58:25.140568 15031 net.cpp:156] Memory required for data: 854397984
I0403 15:58:25.140586 15031 layer_factory.hpp:77] Creating layer inception_4a/1x1
I0403 15:58:25.140614 15031 net.cpp:91] Creating Layer inception_4a/1x1
I0403 15:58:25.140635 15031 net.cpp:425] inception_4a/1x1 <- pool3/3x3_s2_pool3/3x3_s2_0_split_0
I0403 15:58:25.140661 15031 net.cpp:399] inception_4a/1x1 -> inception_4a/1x1
I0403 15:58:25.142562 15031 net.cpp:141] Setting up inception_4a/1x1
I0403 15:58:25.142597 15031 net.cpp:148] Top shape: 24 192 14 14 (903168)
I0403 15:58:25.142616 15031 net.cpp:156] Memory required for data: 858010656
I0403 15:58:25.142638 15031 layer_factory.hpp:77] Creating layer inception_4a/relu_1x1
I0403 15:58:25.142663 15031 net.cpp:91] Creating Layer inception_4a/relu_1x1
I0403 15:58:25.142684 15031 net.cpp:425] inception_4a/relu_1x1 <- inception_4a/1x1
I0403 15:58:25.142705 15031 net.cpp:386] inception_4a/relu_1x1 -> inception_4a/1x1 (in-place)
I0403 15:58:25.142926 15031 net.cpp:141] Setting up inception_4a/relu_1x1
I0403 15:58:25.142957 15031 net.cpp:148] Top shape: 24 192 14 14 (903168)
I0403 15:58:25.142976 15031 net.cpp:156] Memory required for data: 861623328
I0403 15:58:25.142993 15031 layer_factory.hpp:77] Creating layer inception_4a/3x3_reduce
I0403 15:58:25.143023 15031 net.cpp:91] Creating Layer inception_4a/3x3_reduce
I0403 15:58:25.143044 15031 net.cpp:425] inception_4a/3x3_reduce <- pool3/3x3_s2_pool3/3x3_s2_0_split_1
I0403 15:58:25.143067 15031 net.cpp:399] inception_4a/3x3_reduce -> inception_4a/3x3_reduce
I0403 15:58:25.144631 15031 net.cpp:141] Setting up inception_4a/3x3_reduce
I0403 15:58:25.144665 15031 net.cpp:148] Top shape: 24 96 14 14 (451584)
I0403 15:58:25.144685 15031 net.cpp:156] Memory required for data: 863429664
I0403 15:58:25.144716 15031 layer_factory.hpp:77] Creating layer inception_4a/relu_3x3_reduce
I0403 15:58:25.144740 15031 net.cpp:91] Creating Layer inception_4a/relu_3x3_reduce
I0403 15:58:25.144759 15031 net.cpp:425] inception_4a/relu_3x3_reduce <- inception_4a/3x3_reduce
I0403 15:58:25.144783 15031 net.cpp:386] inception_4a/relu_3x3_reduce -> inception_4a/3x3_reduce (in-place)
I0403 15:58:25.145000 15031 net.cpp:141] Setting up inception_4a/relu_3x3_reduce
I0403 15:58:25.145030 15031 net.cpp:148] Top shape: 24 96 14 14 (451584)
I0403 15:58:25.145048 15031 net.cpp:156] Memory required for data: 865236000
I0403 15:58:25.145066 15031 layer_factory.hpp:77] Creating layer inception_4a/3x3
I0403 15:58:25.145092 15031 net.cpp:91] Creating Layer inception_4a/3x3
I0403 15:58:25.145114 15031 net.cpp:425] inception_4a/3x3 <- inception_4a/3x3_reduce
I0403 15:58:25.145146 15031 net.cpp:399] inception_4a/3x3 -> inception_4a/3x3
I0403 15:58:25.148383 15031 net.cpp:141] Setting up inception_4a/3x3
I0403 15:58:25.148419 15031 net.cpp:148] Top shape: 24 208 14 14 (978432)
I0403 15:58:25.148448 15031 net.cpp:156] Memory required for data: 869149728
I0403 15:58:25.148471 15031 layer_factory.hpp:77] Creating layer inception_4a/relu_3x3
I0403 15:58:25.148494 15031 net.cpp:91] Creating Layer inception_4a/relu_3x3
I0403 15:58:25.148514 15031 net.cpp:425] inception_4a/relu_3x3 <- inception_4a/3x3
I0403 15:58:25.148535 15031 net.cpp:386] inception_4a/relu_3x3 -> inception_4a/3x3 (in-place)
I0403 15:58:25.148866 15031 net.cpp:141] Setting up inception_4a/relu_3x3
I0403 15:58:25.148898 15031 net.cpp:148] Top shape: 24 208 14 14 (978432)
I0403 15:58:25.148921 15031 net.cpp:156] Memory required for data: 873063456
I0403 15:58:25.148939 15031 layer_factory.hpp:77] Creating layer inception_4a/5x5_reduce
I0403 15:58:25.148964 15031 net.cpp:91] Creating Layer inception_4a/5x5_reduce
I0403 15:58:25.148985 15031 net.cpp:425] inception_4a/5x5_reduce <- pool3/3x3_s2_pool3/3x3_s2_0_split_2
I0403 15:58:25.149011 15031 net.cpp:399] inception_4a/5x5_reduce -> inception_4a/5x5_reduce
I0403 15:58:25.150256 15031 net.cpp:141] Setting up inception_4a/5x5_reduce
I0403 15:58:25.150292 15031 net.cpp:148] Top shape: 24 16 14 14 (75264)
I0403 15:58:25.150313 15031 net.cpp:156] Memory required for data: 873364512
I0403 15:58:25.150336 15031 layer_factory.hpp:77] Creating layer inception_4a/relu_5x5_reduce
I0403 15:58:25.150360 15031 net.cpp:91] Creating Layer inception_4a/relu_5x5_reduce
I0403 15:58:25.150380 15031 net.cpp:425] inception_4a/relu_5x5_reduce <- inception_4a/5x5_reduce
I0403 15:58:25.150401 15031 net.cpp:386] inception_4a/relu_5x5_reduce -> inception_4a/5x5_reduce (in-place)
I0403 15:58:25.150624 15031 net.cpp:141] Setting up inception_4a/relu_5x5_reduce
I0403 15:58:25.150655 15031 net.cpp:148] Top shape: 24 16 14 14 (75264)
I0403 15:58:25.150672 15031 net.cpp:156] Memory required for data: 873665568
I0403 15:58:25.150689 15031 layer_factory.hpp:77] Creating layer inception_4a/5x5
I0403 15:58:25.150717 15031 net.cpp:91] Creating Layer inception_4a/5x5
I0403 15:58:25.150738 15031 net.cpp:425] inception_4a/5x5 <- inception_4a/5x5_reduce
I0403 15:58:25.150763 15031 net.cpp:399] inception_4a/5x5 -> inception_4a/5x5
I0403 15:58:25.152081 15031 net.cpp:141] Setting up inception_4a/5x5
I0403 15:58:25.152115 15031 net.cpp:148] Top shape: 24 48 14 14 (225792)
I0403 15:58:25.152140 15031 net.cpp:156] Memory required for data: 874568736
I0403 15:58:25.152164 15031 layer_factory.hpp:77] Creating layer inception_4a/relu_5x5
I0403 15:58:25.152185 15031 net.cpp:91] Creating Layer inception_4a/relu_5x5
I0403 15:58:25.152204 15031 net.cpp:425] inception_4a/relu_5x5 <- inception_4a/5x5
I0403 15:58:25.152227 15031 net.cpp:386] inception_4a/relu_5x5 -> inception_4a/5x5 (in-place)
I0403 15:58:25.152451 15031 net.cpp:141] Setting up inception_4a/relu_5x5
I0403 15:58:25.152482 15031 net.cpp:148] Top shape: 24 48 14 14 (225792)
I0403 15:58:25.152499 15031 net.cpp:156] Memory required for data: 875471904
I0403 15:58:25.152518 15031 layer_factory.hpp:77] Creating layer inception_4a/pool
I0403 15:58:25.152541 15031 net.cpp:91] Creating Layer inception_4a/pool
I0403 15:58:25.152562 15031 net.cpp:425] inception_4a/pool <- pool3/3x3_s2_pool3/3x3_s2_0_split_3
I0403 15:58:25.152585 15031 net.cpp:399] inception_4a/pool -> inception_4a/pool
I0403 15:58:25.152660 15031 net.cpp:141] Setting up inception_4a/pool
I0403 15:58:25.152690 15031 net.cpp:148] Top shape: 24 480 14 14 (2257920)
I0403 15:58:25.152709 15031 net.cpp:156] Memory required for data: 884503584
I0403 15:58:25.152725 15031 layer_factory.hpp:77] Creating layer inception_4a/pool_proj
I0403 15:58:25.152752 15031 net.cpp:91] Creating Layer inception_4a/pool_proj
I0403 15:58:25.152775 15031 net.cpp:425] inception_4a/pool_proj <- inception_4a/pool
I0403 15:58:25.152801 15031 net.cpp:399] inception_4a/pool_proj -> inception_4a/pool_proj
I0403 15:58:25.154245 15031 net.cpp:141] Setting up inception_4a/pool_proj
I0403 15:58:25.154280 15031 net.cpp:148] Top shape: 24 64 14 14 (301056)
I0403 15:58:25.154320 15031 net.cpp:156] Memory required for data: 885707808
I0403 15:58:25.154343 15031 layer_factory.hpp:77] Creating layer inception_4a/relu_pool_proj
I0403 15:58:25.154371 15031 net.cpp:91] Creating Layer inception_4a/relu_pool_proj
I0403 15:58:25.154392 15031 net.cpp:425] inception_4a/relu_pool_proj <- inception_4a/pool_proj
I0403 15:58:25.154413 15031 net.cpp:386] inception_4a/relu_pool_proj -> inception_4a/pool_proj (in-place)
I0403 15:58:25.154752 15031 net.cpp:141] Setting up inception_4a/relu_pool_proj
I0403 15:58:25.154784 15031 net.cpp:148] Top shape: 24 64 14 14 (301056)
I0403 15:58:25.154803 15031 net.cpp:156] Memory required for data: 886912032
I0403 15:58:25.154820 15031 layer_factory.hpp:77] Creating layer inception_4a/output
I0403 15:58:25.154841 15031 net.cpp:91] Creating Layer inception_4a/output
I0403 15:58:25.154860 15031 net.cpp:425] inception_4a/output <- inception_4a/1x1
I0403 15:58:25.154881 15031 net.cpp:425] inception_4a/output <- inception_4a/3x3
I0403 15:58:25.154899 15031 net.cpp:425] inception_4a/output <- inception_4a/5x5
I0403 15:58:25.154918 15031 net.cpp:425] inception_4a/output <- inception_4a/pool_proj
I0403 15:58:25.154942 15031 net.cpp:399] inception_4a/output -> inception_4a/output
I0403 15:58:25.154999 15031 net.cpp:141] Setting up inception_4a/output
I0403 15:58:25.155028 15031 net.cpp:148] Top shape: 24 512 14 14 (2408448)
I0403 15:58:25.155046 15031 net.cpp:156] Memory required for data: 896545824
I0403 15:58:25.155064 15031 layer_factory.hpp:77] Creating layer inception_4a/output_inception_4a/output_0_split
I0403 15:58:25.155084 15031 net.cpp:91] Creating Layer inception_4a/output_inception_4a/output_0_split
I0403 15:58:25.155103 15031 net.cpp:425] inception_4a/output_inception_4a/output_0_split <- inception_4a/output
I0403 15:58:25.155133 15031 net.cpp:399] inception_4a/output_inception_4a/output_0_split -> inception_4a/output_inception_4a/output_0_split_0
I0403 15:58:25.155161 15031 net.cpp:399] inception_4a/output_inception_4a/output_0_split -> inception_4a/output_inception_4a/output_0_split_1
I0403 15:58:25.155187 15031 net.cpp:399] inception_4a/output_inception_4a/output_0_split -> inception_4a/output_inception_4a/output_0_split_2
I0403 15:58:25.155212 15031 net.cpp:399] inception_4a/output_inception_4a/output_0_split -> inception_4a/output_inception_4a/output_0_split_3
I0403 15:58:25.155236 15031 net.cpp:399] inception_4a/output_inception_4a/output_0_split -> inception_4a/output_inception_4a/output_0_split_4
I0403 15:58:25.155349 15031 net.cpp:141] Setting up inception_4a/output_inception_4a/output_0_split
I0403 15:58:25.155380 15031 net.cpp:148] Top shape: 24 512 14 14 (2408448)
I0403 15:58:25.155401 15031 net.cpp:148] Top shape: 24 512 14 14 (2408448)
I0403 15:58:25.155421 15031 net.cpp:148] Top shape: 24 512 14 14 (2408448)
I0403 15:58:25.155439 15031 net.cpp:148] Top shape: 24 512 14 14 (2408448)
I0403 15:58:25.155457 15031 net.cpp:148] Top shape: 24 512 14 14 (2408448)
I0403 15:58:25.155473 15031 net.cpp:156] Memory required for data: 944714784
I0403 15:58:25.155490 15031 layer_factory.hpp:77] Creating layer loss1/ave_pool
I0403 15:58:25.155513 15031 net.cpp:91] Creating Layer loss1/ave_pool
I0403 15:58:25.155531 15031 net.cpp:425] loss1/ave_pool <- inception_4a/output_inception_4a/output_0_split_0
I0403 15:58:25.155553 15031 net.cpp:399] loss1/ave_pool -> loss1/ave_pool
I0403 15:58:25.155808 15031 net.cpp:141] Setting up loss1/ave_pool
I0403 15:58:25.155840 15031 net.cpp:148] Top shape: 24 512 4 4 (196608)
I0403 15:58:25.155858 15031 net.cpp:156] Memory required for data: 945501216
I0403 15:58:25.155876 15031 layer_factory.hpp:77] Creating layer loss1/conv
I0403 15:58:25.155905 15031 net.cpp:91] Creating Layer loss1/conv
I0403 15:58:25.155925 15031 net.cpp:425] loss1/conv <- loss1/ave_pool
I0403 15:58:25.155951 15031 net.cpp:399] loss1/conv -> loss1/conv
I0403 15:58:25.157667 15031 net.cpp:141] Setting up loss1/conv
I0403 15:58:25.157706 15031 net.cpp:148] Top shape: 24 128 4 4 (49152)
I0403 15:58:25.157727 15031 net.cpp:156] Memory required for data: 945697824
I0403 15:58:25.157768 15031 layer_factory.hpp:77] Creating layer loss1/relu_conv
I0403 15:58:25.157791 15031 net.cpp:91] Creating Layer loss1/relu_conv
I0403 15:58:25.157812 15031 net.cpp:425] loss1/relu_conv <- loss1/conv
I0403 15:58:25.157835 15031 net.cpp:386] loss1/relu_conv -> loss1/conv (in-place)
I0403 15:58:25.158176 15031 net.cpp:141] Setting up loss1/relu_conv
I0403 15:58:25.158211 15031 net.cpp:148] Top shape: 24 128 4 4 (49152)
I0403 15:58:25.158232 15031 net.cpp:156] Memory required for data: 945894432
I0403 15:58:25.158251 15031 layer_factory.hpp:77] Creating layer loss1/fc
I0403 15:58:25.158278 15031 net.cpp:91] Creating Layer loss1/fc
I0403 15:58:25.158303 15031 net.cpp:425] loss1/fc <- loss1/conv
I0403 15:58:25.158326 15031 net.cpp:399] loss1/fc -> loss1/fc
I0403 15:58:25.180260 15031 net.cpp:141] Setting up loss1/fc
I0403 15:58:25.180300 15031 net.cpp:148] Top shape: 24 1024 (24576)
I0403 15:58:25.180320 15031 net.cpp:156] Memory required for data: 945992736
I0403 15:58:25.180342 15031 layer_factory.hpp:77] Creating layer loss1/relu_fc
I0403 15:58:25.180368 15031 net.cpp:91] Creating Layer loss1/relu_fc
I0403 15:58:25.180389 15031 net.cpp:425] loss1/relu_fc <- loss1/fc
I0403 15:58:25.180411 15031 net.cpp:386] loss1/relu_fc -> loss1/fc (in-place)
I0403 15:58:25.180640 15031 net.cpp:141] Setting up loss1/relu_fc
I0403 15:58:25.180671 15031 net.cpp:148] Top shape: 24 1024 (24576)
I0403 15:58:25.180690 15031 net.cpp:156] Memory required for data: 946091040
I0403 15:58:25.180707 15031 layer_factory.hpp:77] Creating layer loss1/drop_fc
I0403 15:58:25.180742 15031 net.cpp:91] Creating Layer loss1/drop_fc
I0403 15:58:25.180763 15031 net.cpp:425] loss1/drop_fc <- loss1/fc
I0403 15:58:25.180783 15031 net.cpp:386] loss1/drop_fc -> loss1/fc (in-place)
I0403 15:58:25.180847 15031 net.cpp:141] Setting up loss1/drop_fc
I0403 15:58:25.180877 15031 net.cpp:148] Top shape: 24 1024 (24576)
I0403 15:58:25.180894 15031 net.cpp:156] Memory required for data: 946189344
I0403 15:58:25.180913 15031 layer_factory.hpp:77] Creating layer loss1/classifier_plantvillage
I0403 15:58:25.180933 15031 net.cpp:91] Creating Layer loss1/classifier_plantvillage
I0403 15:58:25.180953 15031 net.cpp:425] loss1/classifier_plantvillage <- loss1/fc
I0403 15:58:25.180979 15031 net.cpp:399] loss1/classifier_plantvillage -> loss1/classifier_plantvillage
I0403 15:58:25.182063 15031 net.cpp:141] Setting up loss1/classifier_plantvillage
I0403 15:58:25.182101 15031 net.cpp:148] Top shape: 24 38 (912)
I0403 15:58:25.182121 15031 net.cpp:156] Memory required for data: 946192992
I0403 15:58:25.182148 15031 layer_factory.hpp:77] Creating layer loss1/classifier_plantvillage_loss1/classifier_plantvillage_0_split
I0403 15:58:25.182171 15031 net.cpp:91] Creating Layer loss1/classifier_plantvillage_loss1/classifier_plantvillage_0_split
I0403 15:58:25.182190 15031 net.cpp:425] loss1/classifier_plantvillage_loss1/classifier_plantvillage_0_split <- loss1/classifier_plantvillage
I0403 15:58:25.182211 15031 net.cpp:399] loss1/classifier_plantvillage_loss1/classifier_plantvillage_0_split -> loss1/classifier_plantvillage_loss1/classifier_plantvillage_0_split_0
I0403 15:58:25.182236 15031 net.cpp:399] loss1/classifier_plantvillage_loss1/classifier_plantvillage_0_split -> loss1/classifier_plantvillage_loss1/classifier_plantvillage_0_split_1
I0403 15:58:25.182261 15031 net.cpp:399] loss1/classifier_plantvillage_loss1/classifier_plantvillage_0_split -> loss1/classifier_plantvillage_loss1/classifier_plantvillage_0_split_2
I0403 15:58:25.182343 15031 net.cpp:141] Setting up loss1/classifier_plantvillage_loss1/classifier_plantvillage_0_split
I0403 15:58:25.182371 15031 net.cpp:148] Top shape: 24 38 (912)
I0403 15:58:25.182391 15031 net.cpp:148] Top shape: 24 38 (912)
I0403 15:58:25.182410 15031 net.cpp:148] Top shape: 24 38 (912)
I0403 15:58:25.182427 15031 net.cpp:156] Memory required for data: 946203936
I0403 15:58:25.182445 15031 layer_factory.hpp:77] Creating layer inception_4b/1x1
I0403 15:58:25.182468 15031 net.cpp:91] Creating Layer inception_4b/1x1
I0403 15:58:25.182509 15031 net.cpp:425] inception_4b/1x1 <- inception_4a/output_inception_4a/output_0_split_1
I0403 15:58:25.182538 15031 net.cpp:399] inception_4b/1x1 -> inception_4b/1x1
I0403 15:58:25.184527 15031 net.cpp:141] Setting up inception_4b/1x1
I0403 15:58:25.184566 15031 net.cpp:148] Top shape: 24 160 14 14 (752640)
I0403 15:58:25.184587 15031 net.cpp:156] Memory required for data: 949214496
I0403 15:58:25.184610 15031 layer_factory.hpp:77] Creating layer inception_4b/relu_1x1
I0403 15:58:25.184631 15031 net.cpp:91] Creating Layer inception_4b/relu_1x1
I0403 15:58:25.184650 15031 net.cpp:425] inception_4b/relu_1x1 <- inception_4b/1x1
I0403 15:58:25.184671 15031 net.cpp:386] inception_4b/relu_1x1 -> inception_4b/1x1 (in-place)
I0403 15:58:25.184896 15031 net.cpp:141] Setting up inception_4b/relu_1x1
I0403 15:58:25.184927 15031 net.cpp:148] Top shape: 24 160 14 14 (752640)
I0403 15:58:25.184945 15031 net.cpp:156] Memory required for data: 952225056
I0403 15:58:25.184963 15031 layer_factory.hpp:77] Creating layer inception_4b/3x3_reduce
I0403 15:58:25.184990 15031 net.cpp:91] Creating Layer inception_4b/3x3_reduce
I0403 15:58:25.185012 15031 net.cpp:425] inception_4b/3x3_reduce <- inception_4a/output_inception_4a/output_0_split_2
I0403 15:58:25.185040 15031 net.cpp:399] inception_4b/3x3_reduce -> inception_4b/3x3_reduce
I0403 15:58:25.186681 15031 net.cpp:141] Setting up inception_4b/3x3_reduce
I0403 15:58:25.186719 15031 net.cpp:148] Top shape: 24 112 14 14 (526848)
I0403 15:58:25.186741 15031 net.cpp:156] Memory required for data: 954332448
I0403 15:58:25.186764 15031 layer_factory.hpp:77] Creating layer inception_4b/relu_3x3_reduce
I0403 15:58:25.186786 15031 net.cpp:91] Creating Layer inception_4b/relu_3x3_reduce
I0403 15:58:25.186806 15031 net.cpp:425] inception_4b/relu_3x3_reduce <- inception_4b/3x3_reduce
I0403 15:58:25.186830 15031 net.cpp:386] inception_4b/relu_3x3_reduce -> inception_4b/3x3_reduce (in-place)
I0403 15:58:25.187175 15031 net.cpp:141] Setting up inception_4b/relu_3x3_reduce
I0403 15:58:25.187209 15031 net.cpp:148] Top shape: 24 112 14 14 (526848)
I0403 15:58:25.187229 15031 net.cpp:156] Memory required for data: 956439840
I0403 15:58:25.187247 15031 layer_factory.hpp:77] Creating layer inception_4b/3x3
I0403 15:58:25.187274 15031 net.cpp:91] Creating Layer inception_4b/3x3
I0403 15:58:25.187299 15031 net.cpp:425] inception_4b/3x3 <- inception_4b/3x3_reduce
I0403 15:58:25.187325 15031 net.cpp:399] inception_4b/3x3 -> inception_4b/3x3
I0403 15:58:25.190923 15031 net.cpp:141] Setting up inception_4b/3x3
I0403 15:58:25.190959 15031 net.cpp:148] Top shape: 24 224 14 14 (1053696)
I0403 15:58:25.190979 15031 net.cpp:156] Memory required for data: 960654624
I0403 15:58:25.191000 15031 layer_factory.hpp:77] Creating layer inception_4b/relu_3x3
I0403 15:58:25.191028 15031 net.cpp:91] Creating Layer inception_4b/relu_3x3
I0403 15:58:25.191050 15031 net.cpp:425] inception_4b/relu_3x3 <- inception_4b/3x3
I0403 15:58:25.191071 15031 net.cpp:386] inception_4b/relu_3x3 -> inception_4b/3x3 (in-place)
I0403 15:58:25.191299 15031 net.cpp:141] Setting up inception_4b/relu_3x3
I0403 15:58:25.191331 15031 net.cpp:148] Top shape: 24 224 14 14 (1053696)
I0403 15:58:25.191350 15031 net.cpp:156] Memory required for data: 964869408
I0403 15:58:25.191368 15031 layer_factory.hpp:77] Creating layer inception_4b/5x5_reduce
I0403 15:58:25.191397 15031 net.cpp:91] Creating Layer inception_4b/5x5_reduce
I0403 15:58:25.191421 15031 net.cpp:425] inception_4b/5x5_reduce <- inception_4a/output_inception_4a/output_0_split_3
I0403 15:58:25.191443 15031 net.cpp:399] inception_4b/5x5_reduce -> inception_4b/5x5_reduce
I0403 15:58:25.192761 15031 net.cpp:141] Setting up inception_4b/5x5_reduce
I0403 15:58:25.192800 15031 net.cpp:148] Top shape: 24 24 14 14 (112896)
I0403 15:58:25.192819 15031 net.cpp:156] Memory required for data: 965320992
I0403 15:58:25.192842 15031 layer_factory.hpp:77] Creating layer inception_4b/relu_5x5_reduce
I0403 15:58:25.192864 15031 net.cpp:91] Creating Layer inception_4b/relu_5x5_reduce
I0403 15:58:25.192905 15031 net.cpp:425] inception_4b/relu_5x5_reduce <- inception_4b/5x5_reduce
I0403 15:58:25.192931 15031 net.cpp:386] inception_4b/relu_5x5_reduce -> inception_4b/5x5_reduce (in-place)
I0403 15:58:25.193171 15031 net.cpp:141] Setting up inception_4b/relu_5x5_reduce
I0403 15:58:25.193202 15031 net.cpp:148] Top shape: 24 24 14 14 (112896)
I0403 15:58:25.193220 15031 net.cpp:156] Memory required for data: 965772576
I0403 15:58:25.193238 15031 layer_factory.hpp:77] Creating layer inception_4b/5x5
I0403 15:58:25.193265 15031 net.cpp:91] Creating Layer inception_4b/5x5
I0403 15:58:25.193286 15031 net.cpp:425] inception_4b/5x5 <- inception_4b/5x5_reduce
I0403 15:58:25.193311 15031 net.cpp:399] inception_4b/5x5 -> inception_4b/5x5
I0403 15:58:25.194803 15031 net.cpp:141] Setting up inception_4b/5x5
I0403 15:58:25.194840 15031 net.cpp:148] Top shape: 24 64 14 14 (301056)
I0403 15:58:25.194860 15031 net.cpp:156] Memory required for data: 966976800
I0403 15:58:25.194883 15031 layer_factory.hpp:77] Creating layer inception_4b/relu_5x5
I0403 15:58:25.194905 15031 net.cpp:91] Creating Layer inception_4b/relu_5x5
I0403 15:58:25.194924 15031 net.cpp:425] inception_4b/relu_5x5 <- inception_4b/5x5
I0403 15:58:25.194946 15031 net.cpp:386] inception_4b/relu_5x5 -> inception_4b/5x5 (in-place)
I0403 15:58:25.195299 15031 net.cpp:141] Setting up inception_4b/relu_5x5
I0403 15:58:25.195335 15031 net.cpp:148] Top shape: 24 64 14 14 (301056)
I0403 15:58:25.195356 15031 net.cpp:156] Memory required for data: 968181024
I0403 15:58:25.195375 15031 layer_factory.hpp:77] Creating layer inception_4b/pool
I0403 15:58:25.195397 15031 net.cpp:91] Creating Layer inception_4b/pool
I0403 15:58:25.195416 15031 net.cpp:425] inception_4b/pool <- inception_4a/output_inception_4a/output_0_split_4
I0403 15:58:25.195438 15031 net.cpp:399] inception_4b/pool -> inception_4b/pool
I0403 15:58:25.195518 15031 net.cpp:141] Setting up inception_4b/pool
I0403 15:58:25.195547 15031 net.cpp:148] Top shape: 24 512 14 14 (2408448)
I0403 15:58:25.195565 15031 net.cpp:156] Memory required for data: 977814816
I0403 15:58:25.195583 15031 layer_factory.hpp:77] Creating layer inception_4b/pool_proj
I0403 15:58:25.195608 15031 net.cpp:91] Creating Layer inception_4b/pool_proj
I0403 15:58:25.195631 15031 net.cpp:425] inception_4b/pool_proj <- inception_4b/pool
I0403 15:58:25.195655 15031 net.cpp:399] inception_4b/pool_proj -> inception_4b/pool_proj
I0403 15:58:25.197130 15031 net.cpp:141] Setting up inception_4b/pool_proj
I0403 15:58:25.197168 15031 net.cpp:148] Top shape: 24 64 14 14 (301056)
I0403 15:58:25.197190 15031 net.cpp:156] Memory required for data: 979019040
I0403 15:58:25.197212 15031 layer_factory.hpp:77] Creating layer inception_4b/relu_pool_proj
I0403 15:58:25.197234 15031 net.cpp:91] Creating Layer inception_4b/relu_pool_proj
I0403 15:58:25.197253 15031 net.cpp:425] inception_4b/relu_pool_proj <- inception_4b/pool_proj
I0403 15:58:25.197279 15031 net.cpp:386] inception_4b/relu_pool_proj -> inception_4b/pool_proj (in-place)
I0403 15:58:25.197502 15031 net.cpp:141] Setting up inception_4b/relu_pool_proj
I0403 15:58:25.197535 15031 net.cpp:148] Top shape: 24 64 14 14 (301056)
I0403 15:58:25.197552 15031 net.cpp:156] Memory required for data: 980223264
I0403 15:58:25.197569 15031 layer_factory.hpp:77] Creating layer inception_4b/output
I0403 15:58:25.197590 15031 net.cpp:91] Creating Layer inception_4b/output
I0403 15:58:25.197609 15031 net.cpp:425] inception_4b/output <- inception_4b/1x1
I0403 15:58:25.197629 15031 net.cpp:425] inception_4b/output <- inception_4b/3x3
I0403 15:58:25.197649 15031 net.cpp:425] inception_4b/output <- inception_4b/5x5
I0403 15:58:25.197667 15031 net.cpp:425] inception_4b/output <- inception_4b/pool_proj
I0403 15:58:25.197690 15031 net.cpp:399] inception_4b/output -> inception_4b/output
I0403 15:58:25.197747 15031 net.cpp:141] Setting up inception_4b/output
I0403 15:58:25.197778 15031 net.cpp:148] Top shape: 24 512 14 14 (2408448)
I0403 15:58:25.197798 15031 net.cpp:156] Memory required for data: 989857056
I0403 15:58:25.197834 15031 layer_factory.hpp:77] Creating layer inception_4b/output_inception_4b/output_0_split
I0403 15:58:25.197856 15031 net.cpp:91] Creating Layer inception_4b/output_inception_4b/output_0_split
I0403 15:58:25.197875 15031 net.cpp:425] inception_4b/output_inception_4b/output_0_split <- inception_4b/output
I0403 15:58:25.197897 15031 net.cpp:399] inception_4b/output_inception_4b/output_0_split -> inception_4b/output_inception_4b/output_0_split_0
I0403 15:58:25.197923 15031 net.cpp:399] inception_4b/output_inception_4b/output_0_split -> inception_4b/output_inception_4b/output_0_split_1
I0403 15:58:25.197948 15031 net.cpp:399] inception_4b/output_inception_4b/output_0_split -> inception_4b/output_inception_4b/output_0_split_2
I0403 15:58:25.197973 15031 net.cpp:399] inception_4b/output_inception_4b/output_0_split -> inception_4b/output_inception_4b/output_0_split_3
I0403 15:58:25.198074 15031 net.cpp:141] Setting up inception_4b/output_inception_4b/output_0_split
I0403 15:58:25.198103 15031 net.cpp:148] Top shape: 24 512 14 14 (2408448)
I0403 15:58:25.198122 15031 net.cpp:148] Top shape: 24 512 14 14 (2408448)
I0403 15:58:25.198148 15031 net.cpp:148] Top shape: 24 512 14 14 (2408448)
I0403 15:58:25.198168 15031 net.cpp:148] Top shape: 24 512 14 14 (2408448)
I0403 15:58:25.198184 15031 net.cpp:156] Memory required for data: 1028392224
I0403 15:58:25.198200 15031 layer_factory.hpp:77] Creating layer inception_4c/1x1
I0403 15:58:25.198228 15031 net.cpp:91] Creating Layer inception_4c/1x1
I0403 15:58:25.198251 15031 net.cpp:425] inception_4c/1x1 <- inception_4b/output_inception_4b/output_0_split_0
I0403 15:58:25.198276 15031 net.cpp:399] inception_4c/1x1 -> inception_4c/1x1
I0403 15:58:25.200023 15031 net.cpp:141] Setting up inception_4c/1x1
I0403 15:58:25.200058 15031 net.cpp:148] Top shape: 24 128 14 14 (602112)
I0403 15:58:25.200078 15031 net.cpp:156] Memory required for data: 1030800672
I0403 15:58:25.200099 15031 layer_factory.hpp:77] Creating layer inception_4c/relu_1x1
I0403 15:58:25.200130 15031 net.cpp:91] Creating Layer inception_4c/relu_1x1
I0403 15:58:25.200153 15031 net.cpp:425] inception_4c/relu_1x1 <- inception_4c/1x1
I0403 15:58:25.200175 15031 net.cpp:386] inception_4c/relu_1x1 -> inception_4c/1x1 (in-place)
I0403 15:58:25.200397 15031 net.cpp:141] Setting up inception_4c/relu_1x1
I0403 15:58:25.200428 15031 net.cpp:148] Top shape: 24 128 14 14 (602112)
I0403 15:58:25.200446 15031 net.cpp:156] Memory required for data: 1033209120
I0403 15:58:25.200464 15031 layer_factory.hpp:77] Creating layer inception_4c/3x3_reduce
I0403 15:58:25.200492 15031 net.cpp:91] Creating Layer inception_4c/3x3_reduce
I0403 15:58:25.200515 15031 net.cpp:425] inception_4c/3x3_reduce <- inception_4b/output_inception_4b/output_0_split_1
I0403 15:58:25.200539 15031 net.cpp:399] inception_4c/3x3_reduce -> inception_4c/3x3_reduce
I0403 15:58:25.202867 15031 net.cpp:141] Setting up inception_4c/3x3_reduce
I0403 15:58:25.202904 15031 net.cpp:148] Top shape: 24 128 14 14 (602112)
I0403 15:58:25.202924 15031 net.cpp:156] Memory required for data: 1035617568
I0403 15:58:25.202945 15031 layer_factory.hpp:77] Creating layer inception_4c/relu_3x3_reduce
I0403 15:58:25.202973 15031 net.cpp:91] Creating Layer inception_4c/relu_3x3_reduce
I0403 15:58:25.202996 15031 net.cpp:425] inception_4c/relu_3x3_reduce <- inception_4c/3x3_reduce
I0403 15:58:25.203016 15031 net.cpp:386] inception_4c/relu_3x3_reduce -> inception_4c/3x3_reduce (in-place)
I0403 15:58:25.203373 15031 net.cpp:141] Setting up inception_4c/relu_3x3_reduce
I0403 15:58:25.203407 15031 net.cpp:148] Top shape: 24 128 14 14 (602112)
I0403 15:58:25.203424 15031 net.cpp:156] Memory required for data: 1038026016
I0403 15:58:25.203444 15031 layer_factory.hpp:77] Creating layer inception_4c/3x3
I0403 15:58:25.203474 15031 net.cpp:91] Creating Layer inception_4c/3x3
I0403 15:58:25.203495 15031 net.cpp:425] inception_4c/3x3 <- inception_4c/3x3_reduce
I0403 15:58:25.203518 15031 net.cpp:399] inception_4c/3x3 -> inception_4c/3x3
I0403 15:58:25.207875 15031 net.cpp:141] Setting up inception_4c/3x3
I0403 15:58:25.207931 15031 net.cpp:148] Top shape: 24 256 14 14 (1204224)
I0403 15:58:25.207952 15031 net.cpp:156] Memory required for data: 1042842912
I0403 15:58:25.207990 15031 layer_factory.hpp:77] Creating layer inception_4c/relu_3x3
I0403 15:58:25.208015 15031 net.cpp:91] Creating Layer inception_4c/relu_3x3
I0403 15:58:25.208036 15031 net.cpp:425] inception_4c/relu_3x3 <- inception_4c/3x3
I0403 15:58:25.208057 15031 net.cpp:386] inception_4c/relu_3x3 -> inception_4c/3x3 (in-place)
I0403 15:58:25.208295 15031 net.cpp:141] Setting up inception_4c/relu_3x3
I0403 15:58:25.208329 15031 net.cpp:148] Top shape: 24 256 14 14 (1204224)
I0403 15:58:25.208350 15031 net.cpp:156] Memory required for data: 1047659808
I0403 15:58:25.208369 15031 layer_factory.hpp:77] Creating layer inception_4c/5x5_reduce
I0403 15:58:25.208396 15031 net.cpp:91] Creating Layer inception_4c/5x5_reduce
I0403 15:58:25.208418 15031 net.cpp:425] inception_4c/5x5_reduce <- inception_4b/output_inception_4b/output_0_split_2
I0403 15:58:25.208442 15031 net.cpp:399] inception_4c/5x5_reduce -> inception_4c/5x5_reduce
I0403 15:58:25.209772 15031 net.cpp:141] Setting up inception_4c/5x5_reduce
I0403 15:58:25.209810 15031 net.cpp:148] Top shape: 24 24 14 14 (112896)
I0403 15:58:25.209830 15031 net.cpp:156] Memory required for data: 1048111392
I0403 15:58:25.209852 15031 layer_factory.hpp:77] Creating layer inception_4c/relu_5x5_reduce
I0403 15:58:25.209874 15031 net.cpp:91] Creating Layer inception_4c/relu_5x5_reduce
I0403 15:58:25.209894 15031 net.cpp:425] inception_4c/relu_5x5_reduce <- inception_4c/5x5_reduce
I0403 15:58:25.209918 15031 net.cpp:386] inception_4c/relu_5x5_reduce -> inception_4c/5x5_reduce (in-place)
I0403 15:58:25.210150 15031 net.cpp:141] Setting up inception_4c/relu_5x5_reduce
I0403 15:58:25.210191 15031 net.cpp:148] Top shape: 24 24 14 14 (112896)
I0403 15:58:25.210211 15031 net.cpp:156] Memory required for data: 1048562976
I0403 15:58:25.210228 15031 layer_factory.hpp:77] Creating layer inception_4c/5x5
I0403 15:58:25.210254 15031 net.cpp:91] Creating Layer inception_4c/5x5
I0403 15:58:25.210278 15031 net.cpp:425] inception_4c/5x5 <- inception_4c/5x5_reduce
I0403 15:58:25.210304 15031 net.cpp:399] inception_4c/5x5 -> inception_4c/5x5
I0403 15:58:25.211835 15031 net.cpp:141] Setting up inception_4c/5x5
I0403 15:58:25.211869 15031 net.cpp:148] Top shape: 24 64 14 14 (301056)
I0403 15:58:25.211889 15031 net.cpp:156] Memory required for data: 1049767200
I0403 15:58:25.211911 15031 layer_factory.hpp:77] Creating layer inception_4c/relu_5x5
I0403 15:58:25.211935 15031 net.cpp:91] Creating Layer inception_4c/relu_5x5
I0403 15:58:25.211956 15031 net.cpp:425] inception_4c/relu_5x5 <- inception_4c/5x5
I0403 15:58:25.211977 15031 net.cpp:386] inception_4c/relu_5x5 -> inception_4c/5x5 (in-place)
I0403 15:58:25.212338 15031 net.cpp:141] Setting up inception_4c/relu_5x5
I0403 15:58:25.212373 15031 net.cpp:148] Top shape: 24 64 14 14 (301056)
I0403 15:58:25.212391 15031 net.cpp:156] Memory required for data: 1050971424
I0403 15:58:25.212409 15031 layer_factory.hpp:77] Creating layer inception_4c/pool
I0403 15:58:25.212431 15031 net.cpp:91] Creating Layer inception_4c/pool
I0403 15:58:25.212451 15031 net.cpp:425] inception_4c/pool <- inception_4b/output_inception_4b/output_0_split_3
I0403 15:58:25.212476 15031 net.cpp:399] inception_4c/pool -> inception_4c/pool
I0403 15:58:25.212556 15031 net.cpp:141] Setting up inception_4c/pool
I0403 15:58:25.212589 15031 net.cpp:148] Top shape: 24 512 14 14 (2408448)
I0403 15:58:25.212606 15031 net.cpp:156] Memory required for data: 1060605216
I0403 15:58:25.212623 15031 layer_factory.hpp:77] Creating layer inception_4c/pool_proj
I0403 15:58:25.212649 15031 net.cpp:91] Creating Layer inception_4c/pool_proj
I0403 15:58:25.212672 15031 net.cpp:425] inception_4c/pool_proj <- inception_4c/pool
I0403 15:58:25.212695 15031 net.cpp:399] inception_4c/pool_proj -> inception_4c/pool_proj
I0403 15:58:25.214205 15031 net.cpp:141] Setting up inception_4c/pool_proj
I0403 15:58:25.214243 15031 net.cpp:148] Top shape: 24 64 14 14 (301056)
I0403 15:58:25.214280 15031 net.cpp:156] Memory required for data: 1061809440
I0403 15:58:25.214304 15031 layer_factory.hpp:77] Creating layer inception_4c/relu_pool_proj
I0403 15:58:25.214328 15031 net.cpp:91] Creating Layer inception_4c/relu_pool_proj
I0403 15:58:25.214347 15031 net.cpp:425] inception_4c/relu_pool_proj <- inception_4c/pool_proj
I0403 15:58:25.214368 15031 net.cpp:386] inception_4c/relu_pool_proj -> inception_4c/pool_proj (in-place)
I0403 15:58:25.214596 15031 net.cpp:141] Setting up inception_4c/relu_pool_proj
I0403 15:58:25.214627 15031 net.cpp:148] Top shape: 24 64 14 14 (301056)
I0403 15:58:25.214645 15031 net.cpp:156] Memory required for data: 1063013664
I0403 15:58:25.214663 15031 layer_factory.hpp:77] Creating layer inception_4c/output
I0403 15:58:25.214684 15031 net.cpp:91] Creating Layer inception_4c/output
I0403 15:58:25.214704 15031 net.cpp:425] inception_4c/output <- inception_4c/1x1
I0403 15:58:25.214725 15031 net.cpp:425] inception_4c/output <- inception_4c/3x3
I0403 15:58:25.214743 15031 net.cpp:425] inception_4c/output <- inception_4c/5x5
I0403 15:58:25.214761 15031 net.cpp:425] inception_4c/output <- inception_4c/pool_proj
I0403 15:58:25.214786 15031 net.cpp:399] inception_4c/output -> inception_4c/output
I0403 15:58:25.214841 15031 net.cpp:141] Setting up inception_4c/output
I0403 15:58:25.214874 15031 net.cpp:148] Top shape: 24 512 14 14 (2408448)
I0403 15:58:25.214893 15031 net.cpp:156] Memory required for data: 1072647456
I0403 15:58:25.214911 15031 layer_factory.hpp:77] Creating layer inception_4c/output_inception_4c/output_0_split
I0403 15:58:25.214932 15031 net.cpp:91] Creating Layer inception_4c/output_inception_4c/output_0_split
I0403 15:58:25.214951 15031 net.cpp:425] inception_4c/output_inception_4c/output_0_split <- inception_4c/output
I0403 15:58:25.214972 15031 net.cpp:399] inception_4c/output_inception_4c/output_0_split -> inception_4c/output_inception_4c/output_0_split_0
I0403 15:58:25.215000 15031 net.cpp:399] inception_4c/output_inception_4c/output_0_split -> inception_4c/output_inception_4c/output_0_split_1
I0403 15:58:25.215028 15031 net.cpp:399] inception_4c/output_inception_4c/output_0_split -> inception_4c/output_inception_4c/output_0_split_2
I0403 15:58:25.215051 15031 net.cpp:399] inception_4c/output_inception_4c/output_0_split -> inception_4c/output_inception_4c/output_0_split_3
I0403 15:58:25.215160 15031 net.cpp:141] Setting up inception_4c/output_inception_4c/output_0_split
I0403 15:58:25.215189 15031 net.cpp:148] Top shape: 24 512 14 14 (2408448)
I0403 15:58:25.215209 15031 net.cpp:148] Top shape: 24 512 14 14 (2408448)
I0403 15:58:25.215227 15031 net.cpp:148] Top shape: 24 512 14 14 (2408448)
I0403 15:58:25.215245 15031 net.cpp:148] Top shape: 24 512 14 14 (2408448)
I0403 15:58:25.215263 15031 net.cpp:156] Memory required for data: 1111182624
I0403 15:58:25.215281 15031 layer_factory.hpp:77] Creating layer inception_4d/1x1
I0403 15:58:25.215307 15031 net.cpp:91] Creating Layer inception_4d/1x1
I0403 15:58:25.215329 15031 net.cpp:425] inception_4d/1x1 <- inception_4c/output_inception_4c/output_0_split_0
I0403 15:58:25.215354 15031 net.cpp:399] inception_4d/1x1 -> inception_4d/1x1
I0403 15:58:25.217053 15031 net.cpp:141] Setting up inception_4d/1x1
I0403 15:58:25.217087 15031 net.cpp:148] Top shape: 24 112 14 14 (526848)
I0403 15:58:25.217108 15031 net.cpp:156] Memory required for data: 1113290016
I0403 15:58:25.217134 15031 layer_factory.hpp:77] Creating layer inception_4d/relu_1x1
I0403 15:58:25.217162 15031 net.cpp:91] Creating Layer inception_4d/relu_1x1
I0403 15:58:25.217183 15031 net.cpp:425] inception_4d/relu_1x1 <- inception_4d/1x1
I0403 15:58:25.217203 15031 net.cpp:386] inception_4d/relu_1x1 -> inception_4d/1x1 (in-place)
I0403 15:58:25.217437 15031 net.cpp:141] Setting up inception_4d/relu_1x1
I0403 15:58:25.217471 15031 net.cpp:148] Top shape: 24 112 14 14 (526848)
I0403 15:58:25.217491 15031 net.cpp:156] Memory required for data: 1115397408
I0403 15:58:25.217510 15031 layer_factory.hpp:77] Creating layer inception_4d/3x3_reduce
I0403 15:58:25.217555 15031 net.cpp:91] Creating Layer inception_4d/3x3_reduce
I0403 15:58:25.217578 15031 net.cpp:425] inception_4d/3x3_reduce <- inception_4c/output_inception_4c/output_0_split_1
I0403 15:58:25.217603 15031 net.cpp:399] inception_4d/3x3_reduce -> inception_4d/3x3_reduce
I0403 15:58:25.219449 15031 net.cpp:141] Setting up inception_4d/3x3_reduce
I0403 15:58:25.219483 15031 net.cpp:148] Top shape: 24 144 14 14 (677376)
I0403 15:58:25.219502 15031 net.cpp:156] Memory required for data: 1118106912
I0403 15:58:25.219523 15031 layer_factory.hpp:77] Creating layer inception_4d/relu_3x3_reduce
I0403 15:58:25.219547 15031 net.cpp:91] Creating Layer inception_4d/relu_3x3_reduce
I0403 15:58:25.219568 15031 net.cpp:425] inception_4d/relu_3x3_reduce <- inception_4d/3x3_reduce
I0403 15:58:25.219590 15031 net.cpp:386] inception_4d/relu_3x3_reduce -> inception_4d/3x3_reduce (in-place)
I0403 15:58:25.219940 15031 net.cpp:141] Setting up inception_4d/relu_3x3_reduce
I0403 15:58:25.219972 15031 net.cpp:148] Top shape: 24 144 14 14 (677376)
I0403 15:58:25.219990 15031 net.cpp:156] Memory required for data: 1120816416
I0403 15:58:25.220010 15031 layer_factory.hpp:77] Creating layer inception_4d/3x3
I0403 15:58:25.220036 15031 net.cpp:91] Creating Layer inception_4d/3x3
I0403 15:58:25.220057 15031 net.cpp:425] inception_4d/3x3 <- inception_4d/3x3_reduce
I0403 15:58:25.220083 15031 net.cpp:399] inception_4d/3x3 -> inception_4d/3x3
I0403 15:58:25.225366 15031 net.cpp:141] Setting up inception_4d/3x3
I0403 15:58:25.225402 15031 net.cpp:148] Top shape: 24 288 14 14 (1354752)
I0403 15:58:25.225422 15031 net.cpp:156] Memory required for data: 1126235424
I0403 15:58:25.225445 15031 layer_factory.hpp:77] Creating layer inception_4d/relu_3x3
I0403 15:58:25.225471 15031 net.cpp:91] Creating Layer inception_4d/relu_3x3
I0403 15:58:25.225492 15031 net.cpp:425] inception_4d/relu_3x3 <- inception_4d/3x3
I0403 15:58:25.225512 15031 net.cpp:386] inception_4d/relu_3x3 -> inception_4d/3x3 (in-place)
I0403 15:58:25.225739 15031 net.cpp:141] Setting up inception_4d/relu_3x3
I0403 15:58:25.225774 15031 net.cpp:148] Top shape: 24 288 14 14 (1354752)
I0403 15:58:25.225792 15031 net.cpp:156] Memory required for data: 1131654432
I0403 15:58:25.225811 15031 layer_factory.hpp:77] Creating layer inception_4d/5x5_reduce
I0403 15:58:25.225836 15031 net.cpp:91] Creating Layer inception_4d/5x5_reduce
I0403 15:58:25.225858 15031 net.cpp:425] inception_4d/5x5_reduce <- inception_4c/output_inception_4c/output_0_split_2
I0403 15:58:25.225883 15031 net.cpp:399] inception_4d/5x5_reduce -> inception_4d/5x5_reduce
I0403 15:58:25.227308 15031 net.cpp:141] Setting up inception_4d/5x5_reduce
I0403 15:58:25.227342 15031 net.cpp:148] Top shape: 24 32 14 14 (150528)
I0403 15:58:25.227363 15031 net.cpp:156] Memory required for data: 1132256544
I0403 15:58:25.227385 15031 layer_factory.hpp:77] Creating layer inception_4d/relu_5x5_reduce
I0403 15:58:25.227411 15031 net.cpp:91] Creating Layer inception_4d/relu_5x5_reduce
I0403 15:58:25.227432 15031 net.cpp:425] inception_4d/relu_5x5_reduce <- inception_4d/5x5_reduce
I0403 15:58:25.227453 15031 net.cpp:386] inception_4d/relu_5x5_reduce -> inception_4d/5x5_reduce (in-place)
I0403 15:58:25.227689 15031 net.cpp:141] Setting up inception_4d/relu_5x5_reduce
I0403 15:58:25.227723 15031 net.cpp:148] Top shape: 24 32 14 14 (150528)
I0403 15:58:25.227744 15031 net.cpp:156] Memory required for data: 1132858656
I0403 15:58:25.227762 15031 layer_factory.hpp:77] Creating layer inception_4d/5x5
I0403 15:58:25.227789 15031 net.cpp:91] Creating Layer inception_4d/5x5
I0403 15:58:25.227812 15031 net.cpp:425] inception_4d/5x5 <- inception_4d/5x5_reduce
I0403 15:58:25.227833 15031 net.cpp:399] inception_4d/5x5 -> inception_4d/5x5
I0403 15:58:25.229635 15031 net.cpp:141] Setting up inception_4d/5x5
I0403 15:58:25.229671 15031 net.cpp:148] Top shape: 24 64 14 14 (301056)
I0403 15:58:25.229693 15031 net.cpp:156] Memory required for data: 1134062880
I0403 15:58:25.229717 15031 layer_factory.hpp:77] Creating layer inception_4d/relu_5x5
I0403 15:58:25.229756 15031 net.cpp:91] Creating Layer inception_4d/relu_5x5
I0403 15:58:25.229779 15031 net.cpp:425] inception_4d/relu_5x5 <- inception_4d/5x5
I0403 15:58:25.229804 15031 net.cpp:386] inception_4d/relu_5x5 -> inception_4d/5x5 (in-place)
I0403 15:58:25.230176 15031 net.cpp:141] Setting up inception_4d/relu_5x5
I0403 15:58:25.230212 15031 net.cpp:148] Top shape: 24 64 14 14 (301056)
I0403 15:58:25.230232 15031 net.cpp:156] Memory required for data: 1135267104
I0403 15:58:25.230252 15031 layer_factory.hpp:77] Creating layer inception_4d/pool
I0403 15:58:25.230271 15031 net.cpp:91] Creating Layer inception_4d/pool
I0403 15:58:25.230291 15031 net.cpp:425] inception_4d/pool <- inception_4c/output_inception_4c/output_0_split_3
I0403 15:58:25.230316 15031 net.cpp:399] inception_4d/pool -> inception_4d/pool
I0403 15:58:25.230398 15031 net.cpp:141] Setting up inception_4d/pool
I0403 15:58:25.230432 15031 net.cpp:148] Top shape: 24 512 14 14 (2408448)
I0403 15:58:25.230451 15031 net.cpp:156] Memory required for data: 1144900896
I0403 15:58:25.230469 15031 layer_factory.hpp:77] Creating layer inception_4d/pool_proj
I0403 15:58:25.230494 15031 net.cpp:91] Creating Layer inception_4d/pool_proj
I0403 15:58:25.230515 15031 net.cpp:425] inception_4d/pool_proj <- inception_4d/pool
I0403 15:58:25.230540 15031 net.cpp:399] inception_4d/pool_proj -> inception_4d/pool_proj
I0403 15:58:25.232677 15031 net.cpp:141] Setting up inception_4d/pool_proj
I0403 15:58:25.232713 15031 net.cpp:148] Top shape: 24 64 14 14 (301056)
I0403 15:58:25.232733 15031 net.cpp:156] Memory required for data: 1146105120
I0403 15:58:25.232754 15031 layer_factory.hpp:77] Creating layer inception_4d/relu_pool_proj
I0403 15:58:25.232781 15031 net.cpp:91] Creating Layer inception_4d/relu_pool_proj
I0403 15:58:25.232803 15031 net.cpp:425] inception_4d/relu_pool_proj <- inception_4d/pool_proj
I0403 15:58:25.232825 15031 net.cpp:386] inception_4d/relu_pool_proj -> inception_4d/pool_proj (in-place)
I0403 15:58:25.233052 15031 net.cpp:141] Setting up inception_4d/relu_pool_proj
I0403 15:58:25.233086 15031 net.cpp:148] Top shape: 24 64 14 14 (301056)
I0403 15:58:25.233104 15031 net.cpp:156] Memory required for data: 1147309344
I0403 15:58:25.233121 15031 layer_factory.hpp:77] Creating layer inception_4d/output
I0403 15:58:25.233157 15031 net.cpp:91] Creating Layer inception_4d/output
I0403 15:58:25.233178 15031 net.cpp:425] inception_4d/output <- inception_4d/1x1
I0403 15:58:25.233198 15031 net.cpp:425] inception_4d/output <- inception_4d/3x3
I0403 15:58:25.233217 15031 net.cpp:425] inception_4d/output <- inception_4d/5x5
I0403 15:58:25.233237 15031 net.cpp:425] inception_4d/output <- inception_4d/pool_proj
I0403 15:58:25.233258 15031 net.cpp:399] inception_4d/output -> inception_4d/output
I0403 15:58:25.233319 15031 net.cpp:141] Setting up inception_4d/output
I0403 15:58:25.233347 15031 net.cpp:148] Top shape: 24 528 14 14 (2483712)
I0403 15:58:25.233364 15031 net.cpp:156] Memory required for data: 1157244192
I0403 15:58:25.233381 15031 layer_factory.hpp:77] Creating layer inception_4d/output_inception_4d/output_0_split
I0403 15:58:25.233404 15031 net.cpp:91] Creating Layer inception_4d/output_inception_4d/output_0_split
I0403 15:58:25.233425 15031 net.cpp:425] inception_4d/output_inception_4d/output_0_split <- inception_4d/output
I0403 15:58:25.233448 15031 net.cpp:399] inception_4d/output_inception_4d/output_0_split -> inception_4d/output_inception_4d/output_0_split_0
I0403 15:58:25.233471 15031 net.cpp:399] inception_4d/output_inception_4d/output_0_split -> inception_4d/output_inception_4d/output_0_split_1
I0403 15:58:25.233500 15031 net.cpp:399] inception_4d/output_inception_4d/output_0_split -> inception_4d/output_inception_4d/output_0_split_2
I0403 15:58:25.233528 15031 net.cpp:399] inception_4d/output_inception_4d/output_0_split -> inception_4d/output_inception_4d/output_0_split_3
I0403 15:58:25.233553 15031 net.cpp:399] inception_4d/output_inception_4d/output_0_split -> inception_4d/output_inception_4d/output_0_split_4
I0403 15:58:25.233680 15031 net.cpp:141] Setting up inception_4d/output_inception_4d/output_0_split
I0403 15:58:25.233723 15031 net.cpp:148] Top shape: 24 528 14 14 (2483712)
I0403 15:58:25.233746 15031 net.cpp:148] Top shape: 24 528 14 14 (2483712)
I0403 15:58:25.233764 15031 net.cpp:148] Top shape: 24 528 14 14 (2483712)
I0403 15:58:25.233783 15031 net.cpp:148] Top shape: 24 528 14 14 (2483712)
I0403 15:58:25.233801 15031 net.cpp:148] Top shape: 24 528 14 14 (2483712)
I0403 15:58:25.233817 15031 net.cpp:156] Memory required for data: 1206918432
I0403 15:58:25.233835 15031 layer_factory.hpp:77] Creating layer loss2/ave_pool
I0403 15:58:25.233860 15031 net.cpp:91] Creating Layer loss2/ave_pool
I0403 15:58:25.233880 15031 net.cpp:425] loss2/ave_pool <- inception_4d/output_inception_4d/output_0_split_0
I0403 15:58:25.233902 15031 net.cpp:399] loss2/ave_pool -> loss2/ave_pool
I0403 15:58:25.234290 15031 net.cpp:141] Setting up loss2/ave_pool
I0403 15:58:25.234323 15031 net.cpp:148] Top shape: 24 528 4 4 (202752)
I0403 15:58:25.234343 15031 net.cpp:156] Memory required for data: 1207729440
I0403 15:58:25.234361 15031 layer_factory.hpp:77] Creating layer loss2/conv
I0403 15:58:25.234393 15031 net.cpp:91] Creating Layer loss2/conv
I0403 15:58:25.234416 15031 net.cpp:425] loss2/conv <- loss2/ave_pool
I0403 15:58:25.234438 15031 net.cpp:399] loss2/conv -> loss2/conv
I0403 15:58:25.236739 15031 net.cpp:141] Setting up loss2/conv
I0403 15:58:25.236775 15031 net.cpp:148] Top shape: 24 128 4 4 (49152)
I0403 15:58:25.236795 15031 net.cpp:156] Memory required for data: 1207926048
I0403 15:58:25.236817 15031 layer_factory.hpp:77] Creating layer loss2/relu_conv
I0403 15:58:25.236838 15031 net.cpp:91] Creating Layer loss2/relu_conv
I0403 15:58:25.236857 15031 net.cpp:425] loss2/relu_conv <- loss2/conv
I0403 15:58:25.236879 15031 net.cpp:386] loss2/relu_conv -> loss2/conv (in-place)
I0403 15:58:25.237231 15031 net.cpp:141] Setting up loss2/relu_conv
I0403 15:58:25.237264 15031 net.cpp:148] Top shape: 24 128 4 4 (49152)
I0403 15:58:25.237283 15031 net.cpp:156] Memory required for data: 1208122656
I0403 15:58:25.237301 15031 layer_factory.hpp:77] Creating layer loss2/fc
I0403 15:58:25.237324 15031 net.cpp:91] Creating Layer loss2/fc
I0403 15:58:25.237344 15031 net.cpp:425] loss2/fc <- loss2/conv
I0403 15:58:25.237370 15031 net.cpp:399] loss2/fc -> loss2/fc
I0403 15:58:25.259181 15031 net.cpp:141] Setting up loss2/fc
I0403 15:58:25.259227 15031 net.cpp:148] Top shape: 24 1024 (24576)
I0403 15:58:25.259248 15031 net.cpp:156] Memory required for data: 1208220960
I0403 15:58:25.259270 15031 layer_factory.hpp:77] Creating layer loss2/relu_fc
I0403 15:58:25.259290 15031 net.cpp:91] Creating Layer loss2/relu_fc
I0403 15:58:25.259310 15031 net.cpp:425] loss2/relu_fc <- loss2/fc
I0403 15:58:25.259331 15031 net.cpp:386] loss2/relu_fc -> loss2/fc (in-place)
I0403 15:58:25.259698 15031 net.cpp:141] Setting up loss2/relu_fc
I0403 15:58:25.259734 15031 net.cpp:148] Top shape: 24 1024 (24576)
I0403 15:58:25.259755 15031 net.cpp:156] Memory required for data: 1208319264
I0403 15:58:25.259773 15031 layer_factory.hpp:77] Creating layer loss2/drop_fc
I0403 15:58:25.259794 15031 net.cpp:91] Creating Layer loss2/drop_fc
I0403 15:58:25.259814 15031 net.cpp:425] loss2/drop_fc <- loss2/fc
I0403 15:58:25.259835 15031 net.cpp:386] loss2/drop_fc -> loss2/fc (in-place)
I0403 15:58:25.259897 15031 net.cpp:141] Setting up loss2/drop_fc
I0403 15:58:25.259925 15031 net.cpp:148] Top shape: 24 1024 (24576)
I0403 15:58:25.259943 15031 net.cpp:156] Memory required for data: 1208417568
I0403 15:58:25.259960 15031 layer_factory.hpp:77] Creating layer loss2/classifier_plantvillage
I0403 15:58:25.259985 15031 net.cpp:91] Creating Layer loss2/classifier_plantvillage
I0403 15:58:25.260006 15031 net.cpp:425] loss2/classifier_plantvillage <- loss2/fc
I0403 15:58:25.260030 15031 net.cpp:399] loss2/classifier_plantvillage -> loss2/classifier_plantvillage
I0403 15:58:25.260531 15031 net.cpp:141] Setting up loss2/classifier_plantvillage
I0403 15:58:25.260563 15031 net.cpp:148] Top shape: 24 38 (912)
I0403 15:58:25.260581 15031 net.cpp:156] Memory required for data: 1208421216
I0403 15:58:25.260625 15031 layer_factory.hpp:77] Creating layer loss2/classifier_plantvillage_loss2/classifier_plantvillage_0_split
I0403 15:58:25.260648 15031 net.cpp:91] Creating Layer loss2/classifier_plantvillage_loss2/classifier_plantvillage_0_split
I0403 15:58:25.260668 15031 net.cpp:425] loss2/classifier_plantvillage_loss2/classifier_plantvillage_0_split <- loss2/classifier_plantvillage
I0403 15:58:25.260694 15031 net.cpp:399] loss2/classifier_plantvillage_loss2/classifier_plantvillage_0_split -> loss2/classifier_plantvillage_loss2/classifier_plantvillage_0_split_0
I0403 15:58:25.260718 15031 net.cpp:399] loss2/classifier_plantvillage_loss2/classifier_plantvillage_0_split -> loss2/classifier_plantvillage_loss2/classifier_plantvillage_0_split_1
I0403 15:58:25.260745 15031 net.cpp:399] loss2/classifier_plantvillage_loss2/classifier_plantvillage_0_split -> loss2/classifier_plantvillage_loss2/classifier_plantvillage_0_split_2
I0403 15:58:25.260838 15031 net.cpp:141] Setting up loss2/classifier_plantvillage_loss2/classifier_plantvillage_0_split
I0403 15:58:25.260869 15031 net.cpp:148] Top shape: 24 38 (912)
I0403 15:58:25.260888 15031 net.cpp:148] Top shape: 24 38 (912)
I0403 15:58:25.260906 15031 net.cpp:148] Top shape: 24 38 (912)
I0403 15:58:25.260922 15031 net.cpp:156] Memory required for data: 1208432160
I0403 15:58:25.260941 15031 layer_factory.hpp:77] Creating layer inception_4e/1x1
I0403 15:58:25.260965 15031 net.cpp:91] Creating Layer inception_4e/1x1
I0403 15:58:25.260988 15031 net.cpp:425] inception_4e/1x1 <- inception_4d/output_inception_4d/output_0_split_1
I0403 15:58:25.261010 15031 net.cpp:399] inception_4e/1x1 -> inception_4e/1x1
I0403 15:58:25.263273 15031 net.cpp:141] Setting up inception_4e/1x1
I0403 15:58:25.263306 15031 net.cpp:148] Top shape: 24 256 14 14 (1204224)
I0403 15:58:25.263325 15031 net.cpp:156] Memory required for data: 1213249056
I0403 15:58:25.263346 15031 layer_factory.hpp:77] Creating layer inception_4e/relu_1x1
I0403 15:58:25.263370 15031 net.cpp:91] Creating Layer inception_4e/relu_1x1
I0403 15:58:25.263412 15031 net.cpp:425] inception_4e/relu_1x1 <- inception_4e/1x1
I0403 15:58:25.263433 15031 net.cpp:386] inception_4e/relu_1x1 -> inception_4e/1x1 (in-place)
I0403 15:58:25.263794 15031 net.cpp:141] Setting up inception_4e/relu_1x1
I0403 15:58:25.263826 15031 net.cpp:148] Top shape: 24 256 14 14 (1204224)
I0403 15:58:25.263844 15031 net.cpp:156] Memory required for data: 1218065952
I0403 15:58:25.263862 15031 layer_factory.hpp:77] Creating layer inception_4e/3x3_reduce
I0403 15:58:25.263890 15031 net.cpp:91] Creating Layer inception_4e/3x3_reduce
I0403 15:58:25.263912 15031 net.cpp:425] inception_4e/3x3_reduce <- inception_4d/output_inception_4d/output_0_split_2
I0403 15:58:25.263938 15031 net.cpp:399] inception_4e/3x3_reduce -> inception_4e/3x3_reduce
I0403 15:58:25.266521 15031 net.cpp:141] Setting up inception_4e/3x3_reduce
I0403 15:58:25.266559 15031 net.cpp:148] Top shape: 24 160 14 14 (752640)
I0403 15:58:25.266578 15031 net.cpp:156] Memory required for data: 1221076512
I0403 15:58:25.266599 15031 layer_factory.hpp:77] Creating layer inception_4e/relu_3x3_reduce
I0403 15:58:25.266623 15031 net.cpp:91] Creating Layer inception_4e/relu_3x3_reduce
I0403 15:58:25.266644 15031 net.cpp:425] inception_4e/relu_3x3_reduce <- inception_4e/3x3_reduce
I0403 15:58:25.266667 15031 net.cpp:386] inception_4e/relu_3x3_reduce -> inception_4e/3x3_reduce (in-place)
I0403 15:58:25.266899 15031 net.cpp:141] Setting up inception_4e/relu_3x3_reduce
I0403 15:58:25.266930 15031 net.cpp:148] Top shape: 24 160 14 14 (752640)
I0403 15:58:25.266947 15031 net.cpp:156] Memory required for data: 1224087072
I0403 15:58:25.266965 15031 layer_factory.hpp:77] Creating layer inception_4e/3x3
I0403 15:58:25.266991 15031 net.cpp:91] Creating Layer inception_4e/3x3
I0403 15:58:25.267014 15031 net.cpp:425] inception_4e/3x3 <- inception_4e/3x3_reduce
I0403 15:58:25.267038 15031 net.cpp:399] inception_4e/3x3 -> inception_4e/3x3
I0403 15:58:25.273237 15031 net.cpp:141] Setting up inception_4e/3x3
I0403 15:58:25.273288 15031 net.cpp:148] Top shape: 24 320 14 14 (1505280)
I0403 15:58:25.273308 15031 net.cpp:156] Memory required for data: 1230108192
I0403 15:58:25.273330 15031 layer_factory.hpp:77] Creating layer inception_4e/relu_3x3
I0403 15:58:25.273358 15031 net.cpp:91] Creating Layer inception_4e/relu_3x3
I0403 15:58:25.273380 15031 net.cpp:425] inception_4e/relu_3x3 <- inception_4e/3x3
I0403 15:58:25.273401 15031 net.cpp:386] inception_4e/relu_3x3 -> inception_4e/3x3 (in-place)
I0403 15:58:25.273769 15031 net.cpp:141] Setting up inception_4e/relu_3x3
I0403 15:58:25.273802 15031 net.cpp:148] Top shape: 24 320 14 14 (1505280)
I0403 15:58:25.273820 15031 net.cpp:156] Memory required for data: 1236129312
I0403 15:58:25.273839 15031 layer_factory.hpp:77] Creating layer inception_4e/5x5_reduce
I0403 15:58:25.273866 15031 net.cpp:91] Creating Layer inception_4e/5x5_reduce
I0403 15:58:25.273888 15031 net.cpp:425] inception_4e/5x5_reduce <- inception_4d/output_inception_4d/output_0_split_3
I0403 15:58:25.273915 15031 net.cpp:399] inception_4e/5x5_reduce -> inception_4e/5x5_reduce
I0403 15:58:25.275249 15031 net.cpp:141] Setting up inception_4e/5x5_reduce
I0403 15:58:25.275285 15031 net.cpp:148] Top shape: 24 32 14 14 (150528)
I0403 15:58:25.275305 15031 net.cpp:156] Memory required for data: 1236731424
I0403 15:58:25.275328 15031 layer_factory.hpp:77] Creating layer inception_4e/relu_5x5_reduce
I0403 15:58:25.275351 15031 net.cpp:91] Creating Layer inception_4e/relu_5x5_reduce
I0403 15:58:25.275369 15031 net.cpp:425] inception_4e/relu_5x5_reduce <- inception_4e/5x5_reduce
I0403 15:58:25.275393 15031 net.cpp:386] inception_4e/relu_5x5_reduce -> inception_4e/5x5_reduce (in-place)
I0403 15:58:25.275760 15031 net.cpp:141] Setting up inception_4e/relu_5x5_reduce
I0403 15:58:25.275795 15031 net.cpp:148] Top shape: 24 32 14 14 (150528)
I0403 15:58:25.275817 15031 net.cpp:156] Memory required for data: 1237333536
I0403 15:58:25.275835 15031 layer_factory.hpp:77] Creating layer inception_4e/5x5
I0403 15:58:25.275882 15031 net.cpp:91] Creating Layer inception_4e/5x5
I0403 15:58:25.275907 15031 net.cpp:425] inception_4e/5x5 <- inception_4e/5x5_reduce
I0403 15:58:25.275929 15031 net.cpp:399] inception_4e/5x5 -> inception_4e/5x5
I0403 15:58:25.278182 15031 net.cpp:141] Setting up inception_4e/5x5
I0403 15:58:25.278218 15031 net.cpp:148] Top shape: 24 128 14 14 (602112)
I0403 15:58:25.278236 15031 net.cpp:156] Memory required for data: 1239741984
I0403 15:58:25.278259 15031 layer_factory.hpp:77] Creating layer inception_4e/relu_5x5
I0403 15:58:25.278283 15031 net.cpp:91] Creating Layer inception_4e/relu_5x5
I0403 15:58:25.278304 15031 net.cpp:425] inception_4e/relu_5x5 <- inception_4e/5x5
I0403 15:58:25.278326 15031 net.cpp:386] inception_4e/relu_5x5 -> inception_4e/5x5 (in-place)
I0403 15:58:25.278573 15031 net.cpp:141] Setting up inception_4e/relu_5x5
I0403 15:58:25.278605 15031 net.cpp:148] Top shape: 24 128 14 14 (602112)
I0403 15:58:25.278622 15031 net.cpp:156] Memory required for data: 1242150432
I0403 15:58:25.278640 15031 layer_factory.hpp:77] Creating layer inception_4e/pool
I0403 15:58:25.278661 15031 net.cpp:91] Creating Layer inception_4e/pool
I0403 15:58:25.278681 15031 net.cpp:425] inception_4e/pool <- inception_4d/output_inception_4d/output_0_split_4
I0403 15:58:25.278707 15031 net.cpp:399] inception_4e/pool -> inception_4e/pool
I0403 15:58:25.278791 15031 net.cpp:141] Setting up inception_4e/pool
I0403 15:58:25.278821 15031 net.cpp:148] Top shape: 24 528 14 14 (2483712)
I0403 15:58:25.278839 15031 net.cpp:156] Memory required for data: 1252085280
I0403 15:58:25.278856 15031 layer_factory.hpp:77] Creating layer inception_4e/pool_proj
I0403 15:58:25.278885 15031 net.cpp:91] Creating Layer inception_4e/pool_proj
I0403 15:58:25.278908 15031 net.cpp:425] inception_4e/pool_proj <- inception_4e/pool
I0403 15:58:25.278931 15031 net.cpp:399] inception_4e/pool_proj -> inception_4e/pool_proj
I0403 15:58:25.280773 15031 net.cpp:141] Setting up inception_4e/pool_proj
I0403 15:58:25.280808 15031 net.cpp:148] Top shape: 24 128 14 14 (602112)
I0403 15:58:25.280844 15031 net.cpp:156] Memory required for data: 1254493728
I0403 15:58:25.280869 15031 layer_factory.hpp:77] Creating layer inception_4e/relu_pool_proj
I0403 15:58:25.280894 15031 net.cpp:91] Creating Layer inception_4e/relu_pool_proj
I0403 15:58:25.280916 15031 net.cpp:425] inception_4e/relu_pool_proj <- inception_4e/pool_proj
I0403 15:58:25.280938 15031 net.cpp:386] inception_4e/relu_pool_proj -> inception_4e/pool_proj (in-place)
I0403 15:58:25.281299 15031 net.cpp:141] Setting up inception_4e/relu_pool_proj
I0403 15:58:25.281332 15031 net.cpp:148] Top shape: 24 128 14 14 (602112)
I0403 15:58:25.281353 15031 net.cpp:156] Memory required for data: 1256902176
I0403 15:58:25.281371 15031 layer_factory.hpp:77] Creating layer inception_4e/output
I0403 15:58:25.281394 15031 net.cpp:91] Creating Layer inception_4e/output
I0403 15:58:25.281415 15031 net.cpp:425] inception_4e/output <- inception_4e/1x1
I0403 15:58:25.281435 15031 net.cpp:425] inception_4e/output <- inception_4e/3x3
I0403 15:58:25.281455 15031 net.cpp:425] inception_4e/output <- inception_4e/5x5
I0403 15:58:25.281473 15031 net.cpp:425] inception_4e/output <- inception_4e/pool_proj
I0403 15:58:25.281494 15031 net.cpp:399] inception_4e/output -> inception_4e/output
I0403 15:58:25.281558 15031 net.cpp:141] Setting up inception_4e/output
I0403 15:58:25.281587 15031 net.cpp:148] Top shape: 24 832 14 14 (3913728)
I0403 15:58:25.281605 15031 net.cpp:156] Memory required for data: 1272557088
I0403 15:58:25.281622 15031 layer_factory.hpp:77] Creating layer pool4/3x3_s2
I0403 15:58:25.281644 15031 net.cpp:91] Creating Layer pool4/3x3_s2
I0403 15:58:25.281664 15031 net.cpp:425] pool4/3x3_s2 <- inception_4e/output
I0403 15:58:25.281689 15031 net.cpp:399] pool4/3x3_s2 -> pool4/3x3_s2
I0403 15:58:25.281771 15031 net.cpp:141] Setting up pool4/3x3_s2
I0403 15:58:25.281801 15031 net.cpp:148] Top shape: 24 832 7 7 (978432)
I0403 15:58:25.281819 15031 net.cpp:156] Memory required for data: 1276470816
I0403 15:58:25.281836 15031 layer_factory.hpp:77] Creating layer pool4/3x3_s2_pool4/3x3_s2_0_split
I0403 15:58:25.281862 15031 net.cpp:91] Creating Layer pool4/3x3_s2_pool4/3x3_s2_0_split
I0403 15:58:25.281883 15031 net.cpp:425] pool4/3x3_s2_pool4/3x3_s2_0_split <- pool4/3x3_s2
I0403 15:58:25.281908 15031 net.cpp:399] pool4/3x3_s2_pool4/3x3_s2_0_split -> pool4/3x3_s2_pool4/3x3_s2_0_split_0
I0403 15:58:25.281932 15031 net.cpp:399] pool4/3x3_s2_pool4/3x3_s2_0_split -> pool4/3x3_s2_pool4/3x3_s2_0_split_1
I0403 15:58:25.281956 15031 net.cpp:399] pool4/3x3_s2_pool4/3x3_s2_0_split -> pool4/3x3_s2_pool4/3x3_s2_0_split_2
I0403 15:58:25.281980 15031 net.cpp:399] pool4/3x3_s2_pool4/3x3_s2_0_split -> pool4/3x3_s2_pool4/3x3_s2_0_split_3
I0403 15:58:25.282091 15031 net.cpp:141] Setting up pool4/3x3_s2_pool4/3x3_s2_0_split
I0403 15:58:25.282124 15031 net.cpp:148] Top shape: 24 832 7 7 (978432)
I0403 15:58:25.282151 15031 net.cpp:148] Top shape: 24 832 7 7 (978432)
I0403 15:58:25.282171 15031 net.cpp:148] Top shape: 24 832 7 7 (978432)
I0403 15:58:25.282189 15031 net.cpp:148] Top shape: 24 832 7 7 (978432)
I0403 15:58:25.282205 15031 net.cpp:156] Memory required for data: 1292125728
I0403 15:58:25.282223 15031 layer_factory.hpp:77] Creating layer inception_5a/1x1
I0403 15:58:25.282250 15031 net.cpp:91] Creating Layer inception_5a/1x1
I0403 15:58:25.282272 15031 net.cpp:425] inception_5a/1x1 <- pool4/3x3_s2_pool4/3x3_s2_0_split_0
I0403 15:58:25.282296 15031 net.cpp:399] inception_5a/1x1 -> inception_5a/1x1
I0403 15:58:25.285785 15031 net.cpp:141] Setting up inception_5a/1x1
I0403 15:58:25.285825 15031 net.cpp:148] Top shape: 24 256 7 7 (301056)
I0403 15:58:25.285846 15031 net.cpp:156] Memory required for data: 1293329952
I0403 15:58:25.285868 15031 layer_factory.hpp:77] Creating layer inception_5a/relu_1x1
I0403 15:58:25.285892 15031 net.cpp:91] Creating Layer inception_5a/relu_1x1
I0403 15:58:25.285912 15031 net.cpp:425] inception_5a/relu_1x1 <- inception_5a/1x1
I0403 15:58:25.285933 15031 net.cpp:386] inception_5a/relu_1x1 -> inception_5a/1x1 (in-place)
I0403 15:58:25.286329 15031 net.cpp:141] Setting up inception_5a/relu_1x1
I0403 15:58:25.286365 15031 net.cpp:148] Top shape: 24 256 7 7 (301056)
I0403 15:58:25.286384 15031 net.cpp:156] Memory required for data: 1294534176
I0403 15:58:25.286402 15031 layer_factory.hpp:77] Creating layer inception_5a/3x3_reduce
I0403 15:58:25.286429 15031 net.cpp:91] Creating Layer inception_5a/3x3_reduce
I0403 15:58:25.286450 15031 net.cpp:425] inception_5a/3x3_reduce <- pool4/3x3_s2_pool4/3x3_s2_0_split_1
I0403 15:58:25.286474 15031 net.cpp:399] inception_5a/3x3_reduce -> inception_5a/3x3_reduce
I0403 15:58:25.289487 15031 net.cpp:141] Setting up inception_5a/3x3_reduce
I0403 15:58:25.289525 15031 net.cpp:148] Top shape: 24 160 7 7 (188160)
I0403 15:58:25.289544 15031 net.cpp:156] Memory required for data: 1295286816
I0403 15:58:25.289566 15031 layer_factory.hpp:77] Creating layer inception_5a/relu_3x3_reduce
I0403 15:58:25.289592 15031 net.cpp:91] Creating Layer inception_5a/relu_3x3_reduce
I0403 15:58:25.289613 15031 net.cpp:425] inception_5a/relu_3x3_reduce <- inception_5a/3x3_reduce
I0403 15:58:25.289633 15031 net.cpp:386] inception_5a/relu_3x3_reduce -> inception_5a/3x3_reduce (in-place)
I0403 15:58:25.289867 15031 net.cpp:141] Setting up inception_5a/relu_3x3_reduce
I0403 15:58:25.289901 15031 net.cpp:148] Top shape: 24 160 7 7 (188160)
I0403 15:58:25.289921 15031 net.cpp:156] Memory required for data: 1296039456
I0403 15:58:25.289938 15031 layer_factory.hpp:77] Creating layer inception_5a/3x3
I0403 15:58:25.289965 15031 net.cpp:91] Creating Layer inception_5a/3x3
I0403 15:58:25.289988 15031 net.cpp:425] inception_5a/3x3 <- inception_5a/3x3_reduce
I0403 15:58:25.290010 15031 net.cpp:399] inception_5a/3x3 -> inception_5a/3x3
I0403 15:58:25.296222 15031 net.cpp:141] Setting up inception_5a/3x3
I0403 15:58:25.296262 15031 net.cpp:148] Top shape: 24 320 7 7 (376320)
I0403 15:58:25.296284 15031 net.cpp:156] Memory required for data: 1297544736
I0403 15:58:25.296306 15031 layer_factory.hpp:77] Creating layer inception_5a/relu_3x3
I0403 15:58:25.296329 15031 net.cpp:91] Creating Layer inception_5a/relu_3x3
I0403 15:58:25.296350 15031 net.cpp:425] inception_5a/relu_3x3 <- inception_5a/3x3
I0403 15:58:25.296375 15031 net.cpp:386] inception_5a/relu_3x3 -> inception_5a/3x3 (in-place)
I0403 15:58:25.296736 15031 net.cpp:141] Setting up inception_5a/relu_3x3
I0403 15:58:25.296772 15031 net.cpp:148] Top shape: 24 320 7 7 (376320)
I0403 15:58:25.296792 15031 net.cpp:156] Memory required for data: 1299050016
I0403 15:58:25.296809 15031 layer_factory.hpp:77] Creating layer inception_5a/5x5_reduce
I0403 15:58:25.296838 15031 net.cpp:91] Creating Layer inception_5a/5x5_reduce
I0403 15:58:25.296860 15031 net.cpp:425] inception_5a/5x5_reduce <- pool4/3x3_s2_pool4/3x3_s2_0_split_2
I0403 15:58:25.296883 15031 net.cpp:399] inception_5a/5x5_reduce -> inception_5a/5x5_reduce
I0403 15:58:25.298329 15031 net.cpp:141] Setting up inception_5a/5x5_reduce
I0403 15:58:25.298368 15031 net.cpp:148] Top shape: 24 32 7 7 (37632)
I0403 15:58:25.298388 15031 net.cpp:156] Memory required for data: 1299200544
I0403 15:58:25.298410 15031 layer_factory.hpp:77] Creating layer inception_5a/relu_5x5_reduce
I0403 15:58:25.298434 15031 net.cpp:91] Creating Layer inception_5a/relu_5x5_reduce
I0403 15:58:25.298452 15031 net.cpp:425] inception_5a/relu_5x5_reduce <- inception_5a/5x5_reduce
I0403 15:58:25.298476 15031 net.cpp:386] inception_5a/relu_5x5_reduce -> inception_5a/5x5_reduce (in-place)
I0403 15:58:25.298846 15031 net.cpp:141] Setting up inception_5a/relu_5x5_reduce
I0403 15:58:25.298877 15031 net.cpp:148] Top shape: 24 32 7 7 (37632)
I0403 15:58:25.298897 15031 net.cpp:156] Memory required for data: 1299351072
I0403 15:58:25.298913 15031 layer_factory.hpp:77] Creating layer inception_5a/5x5
I0403 15:58:25.298940 15031 net.cpp:91] Creating Layer inception_5a/5x5
I0403 15:58:25.298964 15031 net.cpp:425] inception_5a/5x5 <- inception_5a/5x5_reduce
I0403 15:58:25.298990 15031 net.cpp:399] inception_5a/5x5 -> inception_5a/5x5
I0403 15:58:25.301115 15031 net.cpp:141] Setting up inception_5a/5x5
I0403 15:58:25.301170 15031 net.cpp:148] Top shape: 24 128 7 7 (150528)
I0403 15:58:25.301192 15031 net.cpp:156] Memory required for data: 1299953184
I0403 15:58:25.301215 15031 layer_factory.hpp:77] Creating layer inception_5a/relu_5x5
I0403 15:58:25.301237 15031 net.cpp:91] Creating Layer inception_5a/relu_5x5
I0403 15:58:25.301259 15031 net.cpp:425] inception_5a/relu_5x5 <- inception_5a/5x5
I0403 15:58:25.301282 15031 net.cpp:386] inception_5a/relu_5x5 -> inception_5a/5x5 (in-place)
I0403 15:58:25.301520 15031 net.cpp:141] Setting up inception_5a/relu_5x5
I0403 15:58:25.301553 15031 net.cpp:148] Top shape: 24 128 7 7 (150528)
I0403 15:58:25.301570 15031 net.cpp:156] Memory required for data: 1300555296
I0403 15:58:25.301589 15031 layer_factory.hpp:77] Creating layer inception_5a/pool
I0403 15:58:25.301610 15031 net.cpp:91] Creating Layer inception_5a/pool
I0403 15:58:25.301630 15031 net.cpp:425] inception_5a/pool <- pool4/3x3_s2_pool4/3x3_s2_0_split_3
I0403 15:58:25.301654 15031 net.cpp:399] inception_5a/pool -> inception_5a/pool
I0403 15:58:25.301740 15031 net.cpp:141] Setting up inception_5a/pool
I0403 15:58:25.301770 15031 net.cpp:148] Top shape: 24 832 7 7 (978432)
I0403 15:58:25.301789 15031 net.cpp:156] Memory required for data: 1304469024
I0403 15:58:25.301805 15031 layer_factory.hpp:77] Creating layer inception_5a/pool_proj
I0403 15:58:25.301834 15031 net.cpp:91] Creating Layer inception_5a/pool_proj
I0403 15:58:25.301856 15031 net.cpp:425] inception_5a/pool_proj <- inception_5a/pool
I0403 15:58:25.301878 15031 net.cpp:399] inception_5a/pool_proj -> inception_5a/pool_proj
I0403 15:58:25.304688 15031 net.cpp:141] Setting up inception_5a/pool_proj
I0403 15:58:25.304724 15031 net.cpp:148] Top shape: 24 128 7 7 (150528)
I0403 15:58:25.304749 15031 net.cpp:156] Memory required for data: 1305071136
I0403 15:58:25.304771 15031 layer_factory.hpp:77] Creating layer inception_5a/relu_pool_proj
I0403 15:58:25.304793 15031 net.cpp:91] Creating Layer inception_5a/relu_pool_proj
I0403 15:58:25.304813 15031 net.cpp:425] inception_5a/relu_pool_proj <- inception_5a/pool_proj
I0403 15:58:25.304834 15031 net.cpp:386] inception_5a/relu_pool_proj -> inception_5a/pool_proj (in-place)
I0403 15:58:25.305198 15031 net.cpp:141] Setting up inception_5a/relu_pool_proj
I0403 15:58:25.305232 15031 net.cpp:148] Top shape: 24 128 7 7 (150528)
I0403 15:58:25.305254 15031 net.cpp:156] Memory required for data: 1305673248
I0403 15:58:25.305274 15031 layer_factory.hpp:77] Creating layer inception_5a/output
I0403 15:58:25.305295 15031 net.cpp:91] Creating Layer inception_5a/output
I0403 15:58:25.305315 15031 net.cpp:425] inception_5a/output <- inception_5a/1x1
I0403 15:58:25.305335 15031 net.cpp:425] inception_5a/output <- inception_5a/3x3
I0403 15:58:25.305356 15031 net.cpp:425] inception_5a/output <- inception_5a/5x5
I0403 15:58:25.305374 15031 net.cpp:425] inception_5a/output <- inception_5a/pool_proj
I0403 15:58:25.305394 15031 net.cpp:399] inception_5a/output -> inception_5a/output
I0403 15:58:25.305457 15031 net.cpp:141] Setting up inception_5a/output
I0403 15:58:25.305485 15031 net.cpp:148] Top shape: 24 832 7 7 (978432)
I0403 15:58:25.305503 15031 net.cpp:156] Memory required for data: 1309586976
I0403 15:58:25.305521 15031 layer_factory.hpp:77] Creating layer inception_5a/output_inception_5a/output_0_split
I0403 15:58:25.305541 15031 net.cpp:91] Creating Layer inception_5a/output_inception_5a/output_0_split
I0403 15:58:25.305560 15031 net.cpp:425] inception_5a/output_inception_5a/output_0_split <- inception_5a/output
I0403 15:58:25.305585 15031 net.cpp:399] inception_5a/output_inception_5a/output_0_split -> inception_5a/output_inception_5a/output_0_split_0
I0403 15:58:25.305611 15031 net.cpp:399] inception_5a/output_inception_5a/output_0_split -> inception_5a/output_inception_5a/output_0_split_1
I0403 15:58:25.305636 15031 net.cpp:399] inception_5a/output_inception_5a/output_0_split -> inception_5a/output_inception_5a/output_0_split_2
I0403 15:58:25.305660 15031 net.cpp:399] inception_5a/output_inception_5a/output_0_split -> inception_5a/output_inception_5a/output_0_split_3
I0403 15:58:25.305800 15031 net.cpp:141] Setting up inception_5a/output_inception_5a/output_0_split
I0403 15:58:25.305830 15031 net.cpp:148] Top shape: 24 832 7 7 (978432)
I0403 15:58:25.305850 15031 net.cpp:148] Top shape: 24 832 7 7 (978432)
I0403 15:58:25.305867 15031 net.cpp:148] Top shape: 24 832 7 7 (978432)
I0403 15:58:25.305886 15031 net.cpp:148] Top shape: 24 832 7 7 (978432)
I0403 15:58:25.305902 15031 net.cpp:156] Memory required for data: 1325241888
I0403 15:58:25.305922 15031 layer_factory.hpp:77] Creating layer inception_5b/1x1
I0403 15:58:25.305949 15031 net.cpp:91] Creating Layer inception_5b/1x1
I0403 15:58:25.305971 15031 net.cpp:425] inception_5b/1x1 <- inception_5a/output_inception_5a/output_0_split_0
I0403 15:58:25.305997 15031 net.cpp:399] inception_5b/1x1 -> inception_5b/1x1
I0403 15:58:25.310609 15031 net.cpp:141] Setting up inception_5b/1x1
I0403 15:58:25.310647 15031 net.cpp:148] Top shape: 24 384 7 7 (451584)
I0403 15:58:25.310665 15031 net.cpp:156] Memory required for data: 1327048224
I0403 15:58:25.310688 15031 layer_factory.hpp:77] Creating layer inception_5b/relu_1x1
I0403 15:58:25.310713 15031 net.cpp:91] Creating Layer inception_5b/relu_1x1
I0403 15:58:25.310734 15031 net.cpp:425] inception_5b/relu_1x1 <- inception_5b/1x1
I0403 15:58:25.310755 15031 net.cpp:386] inception_5b/relu_1x1 -> inception_5b/1x1 (in-place)
I0403 15:58:25.311136 15031 net.cpp:141] Setting up inception_5b/relu_1x1
I0403 15:58:25.311168 15031 net.cpp:148] Top shape: 24 384 7 7 (451584)
I0403 15:58:25.311187 15031 net.cpp:156] Memory required for data: 1328854560
I0403 15:58:25.311206 15031 layer_factory.hpp:77] Creating layer inception_5b/3x3_reduce
I0403 15:58:25.311233 15031 net.cpp:91] Creating Layer inception_5b/3x3_reduce
I0403 15:58:25.311255 15031 net.cpp:425] inception_5b/3x3_reduce <- inception_5a/output_inception_5a/output_0_split_1
I0403 15:58:25.311283 15031 net.cpp:399] inception_5b/3x3_reduce -> inception_5b/3x3_reduce
I0403 15:58:25.314535 15031 net.cpp:141] Setting up inception_5b/3x3_reduce
I0403 15:58:25.314573 15031 net.cpp:148] Top shape: 24 192 7 7 (225792)
I0403 15:58:25.314592 15031 net.cpp:156] Memory required for data: 1329757728
I0403 15:58:25.314615 15031 layer_factory.hpp:77] Creating layer inception_5b/relu_3x3_reduce
I0403 15:58:25.314641 15031 net.cpp:91] Creating Layer inception_5b/relu_3x3_reduce
I0403 15:58:25.314661 15031 net.cpp:425] inception_5b/relu_3x3_reduce <- inception_5b/3x3_reduce
I0403 15:58:25.314682 15031 net.cpp:386] inception_5b/relu_3x3_reduce -> inception_5b/3x3_reduce (in-place)
I0403 15:58:25.314919 15031 net.cpp:141] Setting up inception_5b/relu_3x3_reduce
I0403 15:58:25.314954 15031 net.cpp:148] Top shape: 24 192 7 7 (225792)
I0403 15:58:25.314973 15031 net.cpp:156] Memory required for data: 1330660896
I0403 15:58:25.314991 15031 layer_factory.hpp:77] Creating layer inception_5b/3x3
I0403 15:58:25.315018 15031 net.cpp:91] Creating Layer inception_5b/3x3
I0403 15:58:25.315040 15031 net.cpp:425] inception_5b/3x3 <- inception_5b/3x3_reduce
I0403 15:58:25.315063 15031 net.cpp:399] inception_5b/3x3 -> inception_5b/3x3
I0403 15:58:25.323386 15031 net.cpp:141] Setting up inception_5b/3x3
I0403 15:58:25.323422 15031 net.cpp:148] Top shape: 24 384 7 7 (451584)
I0403 15:58:25.323446 15031 net.cpp:156] Memory required for data: 1332467232
I0403 15:58:25.323468 15031 layer_factory.hpp:77] Creating layer inception_5b/relu_3x3
I0403 15:58:25.323490 15031 net.cpp:91] Creating Layer inception_5b/relu_3x3
I0403 15:58:25.323511 15031 net.cpp:425] inception_5b/relu_3x3 <- inception_5b/3x3
I0403 15:58:25.323532 15031 net.cpp:386] inception_5b/relu_3x3 -> inception_5b/3x3 (in-place)
I0403 15:58:25.323899 15031 net.cpp:141] Setting up inception_5b/relu_3x3
I0403 15:58:25.323932 15031 net.cpp:148] Top shape: 24 384 7 7 (451584)
I0403 15:58:25.323956 15031 net.cpp:156] Memory required for data: 1334273568
I0403 15:58:25.323974 15031 layer_factory.hpp:77] Creating layer inception_5b/5x5_reduce
I0403 15:58:25.324018 15031 net.cpp:91] Creating Layer inception_5b/5x5_reduce
I0403 15:58:25.324041 15031 net.cpp:425] inception_5b/5x5_reduce <- inception_5a/output_inception_5a/output_0_split_2
I0403 15:58:25.324067 15031 net.cpp:399] inception_5b/5x5_reduce -> inception_5b/5x5_reduce
I0403 15:58:25.325649 15031 net.cpp:141] Setting up inception_5b/5x5_reduce
I0403 15:58:25.325683 15031 net.cpp:148] Top shape: 24 48 7 7 (56448)
I0403 15:58:25.325702 15031 net.cpp:156] Memory required for data: 1334499360
I0403 15:58:25.325724 15031 layer_factory.hpp:77] Creating layer inception_5b/relu_5x5_reduce
I0403 15:58:25.325749 15031 net.cpp:91] Creating Layer inception_5b/relu_5x5_reduce
I0403 15:58:25.325773 15031 net.cpp:425] inception_5b/relu_5x5_reduce <- inception_5b/5x5_reduce
I0403 15:58:25.325794 15031 net.cpp:386] inception_5b/relu_5x5_reduce -> inception_5b/5x5_reduce (in-place)
I0403 15:58:25.326256 15031 net.cpp:141] Setting up inception_5b/relu_5x5_reduce
I0403 15:58:25.326288 15031 net.cpp:148] Top shape: 24 48 7 7 (56448)
I0403 15:58:25.326308 15031 net.cpp:156] Memory required for data: 1334725152
I0403 15:58:25.326326 15031 layer_factory.hpp:77] Creating layer inception_5b/5x5
I0403 15:58:25.326351 15031 net.cpp:91] Creating Layer inception_5b/5x5
I0403 15:58:25.326371 15031 net.cpp:425] inception_5b/5x5 <- inception_5b/5x5_reduce
I0403 15:58:25.326393 15031 net.cpp:399] inception_5b/5x5 -> inception_5b/5x5
I0403 15:58:25.328933 15031 net.cpp:141] Setting up inception_5b/5x5
I0403 15:58:25.328979 15031 net.cpp:148] Top shape: 24 128 7 7 (150528)
I0403 15:58:25.328999 15031 net.cpp:156] Memory required for data: 1335327264
I0403 15:58:25.329020 15031 layer_factory.hpp:77] Creating layer inception_5b/relu_5x5
I0403 15:58:25.329041 15031 net.cpp:91] Creating Layer inception_5b/relu_5x5
I0403 15:58:25.329062 15031 net.cpp:425] inception_5b/relu_5x5 <- inception_5b/5x5
I0403 15:58:25.329082 15031 net.cpp:386] inception_5b/relu_5x5 -> inception_5b/5x5 (in-place)
I0403 15:58:25.329337 15031 net.cpp:141] Setting up inception_5b/relu_5x5
I0403 15:58:25.329370 15031 net.cpp:148] Top shape: 24 128 7 7 (150528)
I0403 15:58:25.329387 15031 net.cpp:156] Memory required for data: 1335929376
I0403 15:58:25.329406 15031 layer_factory.hpp:77] Creating layer inception_5b/pool
I0403 15:58:25.329427 15031 net.cpp:91] Creating Layer inception_5b/pool
I0403 15:58:25.329447 15031 net.cpp:425] inception_5b/pool <- inception_5a/output_inception_5a/output_0_split_3
I0403 15:58:25.329470 15031 net.cpp:399] inception_5b/pool -> inception_5b/pool
I0403 15:58:25.329558 15031 net.cpp:141] Setting up inception_5b/pool
I0403 15:58:25.329591 15031 net.cpp:148] Top shape: 24 832 7 7 (978432)
I0403 15:58:25.329608 15031 net.cpp:156] Memory required for data: 1339843104
I0403 15:58:25.329627 15031 layer_factory.hpp:77] Creating layer inception_5b/pool_proj
I0403 15:58:25.329653 15031 net.cpp:91] Creating Layer inception_5b/pool_proj
I0403 15:58:25.329674 15031 net.cpp:425] inception_5b/pool_proj <- inception_5b/pool
I0403 15:58:25.329697 15031 net.cpp:399] inception_5b/pool_proj -> inception_5b/pool_proj
I0403 15:58:25.332545 15031 net.cpp:141] Setting up inception_5b/pool_proj
I0403 15:58:25.332582 15031 net.cpp:148] Top shape: 24 128 7 7 (150528)
I0403 15:58:25.332602 15031 net.cpp:156] Memory required for data: 1340445216
I0403 15:58:25.332625 15031 layer_factory.hpp:77] Creating layer inception_5b/relu_pool_proj
I0403 15:58:25.332651 15031 net.cpp:91] Creating Layer inception_5b/relu_pool_proj
I0403 15:58:25.332672 15031 net.cpp:425] inception_5b/relu_pool_proj <- inception_5b/pool_proj
I0403 15:58:25.332693 15031 net.cpp:386] inception_5b/relu_pool_proj -> inception_5b/pool_proj (in-place)
I0403 15:58:25.333061 15031 net.cpp:141] Setting up inception_5b/relu_pool_proj
I0403 15:58:25.333094 15031 net.cpp:148] Top shape: 24 128 7 7 (150528)
I0403 15:58:25.333113 15031 net.cpp:156] Memory required for data: 1341047328
I0403 15:58:25.333139 15031 layer_factory.hpp:77] Creating layer inception_5b/output
I0403 15:58:25.333165 15031 net.cpp:91] Creating Layer inception_5b/output
I0403 15:58:25.333204 15031 net.cpp:425] inception_5b/output <- inception_5b/1x1
I0403 15:58:25.333225 15031 net.cpp:425] inception_5b/output <- inception_5b/3x3
I0403 15:58:25.333246 15031 net.cpp:425] inception_5b/output <- inception_5b/5x5
I0403 15:58:25.333266 15031 net.cpp:425] inception_5b/output <- inception_5b/pool_proj
I0403 15:58:25.333287 15031 net.cpp:399] inception_5b/output -> inception_5b/output
I0403 15:58:25.333351 15031 net.cpp:141] Setting up inception_5b/output
I0403 15:58:25.333382 15031 net.cpp:148] Top shape: 24 1024 7 7 (1204224)
I0403 15:58:25.333400 15031 net.cpp:156] Memory required for data: 1345864224
I0403 15:58:25.333417 15031 layer_factory.hpp:77] Creating layer pool5/7x7_s1
I0403 15:58:25.333438 15031 net.cpp:91] Creating Layer pool5/7x7_s1
I0403 15:58:25.333457 15031 net.cpp:425] pool5/7x7_s1 <- inception_5b/output
I0403 15:58:25.333482 15031 net.cpp:399] pool5/7x7_s1 -> pool5/7x7_s1
I0403 15:58:25.333752 15031 net.cpp:141] Setting up pool5/7x7_s1
I0403 15:58:25.333786 15031 net.cpp:148] Top shape: 24 1024 1 1 (24576)
I0403 15:58:25.333806 15031 net.cpp:156] Memory required for data: 1345962528
I0403 15:58:25.333824 15031 layer_factory.hpp:77] Creating layer pool5/drop_7x7_s1
I0403 15:58:25.333847 15031 net.cpp:91] Creating Layer pool5/drop_7x7_s1
I0403 15:58:25.333866 15031 net.cpp:425] pool5/drop_7x7_s1 <- pool5/7x7_s1
I0403 15:58:25.333890 15031 net.cpp:386] pool5/drop_7x7_s1 -> pool5/7x7_s1 (in-place)
I0403 15:58:25.333952 15031 net.cpp:141] Setting up pool5/drop_7x7_s1
I0403 15:58:25.333981 15031 net.cpp:148] Top shape: 24 1024 1 1 (24576)
I0403 15:58:25.333999 15031 net.cpp:156] Memory required for data: 1346060832
I0403 15:58:25.334017 15031 layer_factory.hpp:77] Creating layer loss3/classifier_plantvillage
I0403 15:58:25.334043 15031 net.cpp:91] Creating Layer loss3/classifier_plantvillage
I0403 15:58:25.334063 15031 net.cpp:425] loss3/classifier_plantvillage <- pool5/7x7_s1
I0403 15:58:25.334087 15031 net.cpp:399] loss3/classifier_plantvillage -> loss3/classifier_plantvillage
I0403 15:58:25.334616 15031 net.cpp:141] Setting up loss3/classifier_plantvillage
I0403 15:58:25.334648 15031 net.cpp:148] Top shape: 24 38 (912)
I0403 15:58:25.334666 15031 net.cpp:156] Memory required for data: 1346064480
I0403 15:58:25.334687 15031 layer_factory.hpp:77] Creating layer loss3/classifier_plantvillage_loss3/classifier_plantvillage_0_split
I0403 15:58:25.334710 15031 net.cpp:91] Creating Layer loss3/classifier_plantvillage_loss3/classifier_plantvillage_0_split
I0403 15:58:25.334735 15031 net.cpp:425] loss3/classifier_plantvillage_loss3/classifier_plantvillage_0_split <- loss3/classifier_plantvillage
I0403 15:58:25.334758 15031 net.cpp:399] loss3/classifier_plantvillage_loss3/classifier_plantvillage_0_split -> loss3/classifier_plantvillage_loss3/classifier_plantvillage_0_split_0
I0403 15:58:25.334784 15031 net.cpp:399] loss3/classifier_plantvillage_loss3/classifier_plantvillage_0_split -> loss3/classifier_plantvillage_loss3/classifier_plantvillage_0_split_1
I0403 15:58:25.334807 15031 net.cpp:399] loss3/classifier_plantvillage_loss3/classifier_plantvillage_0_split -> loss3/classifier_plantvillage_loss3/classifier_plantvillage_0_split_2
I0403 15:58:25.334830 15031 net.cpp:399] loss3/classifier_plantvillage_loss3/classifier_plantvillage_0_split -> loss3/classifier_plantvillage_loss3/classifier_plantvillage_0_split_3
I0403 15:58:25.334959 15031 net.cpp:141] Setting up loss3/classifier_plantvillage_loss3/classifier_plantvillage_0_split
I0403 15:58:25.334987 15031 net.cpp:148] Top shape: 24 38 (912)
I0403 15:58:25.335007 15031 net.cpp:148] Top shape: 24 38 (912)
I0403 15:58:25.335026 15031 net.cpp:148] Top shape: 24 38 (912)
I0403 15:58:25.335044 15031 net.cpp:148] Top shape: 24 38 (912)
I0403 15:58:25.335060 15031 net.cpp:156] Memory required for data: 1346079072
I0403 15:58:25.335078 15031 layer_factory.hpp:77] Creating layer loss1/loss
I0403 15:58:25.335103 15031 net.cpp:91] Creating Layer loss1/loss
I0403 15:58:25.335132 15031 net.cpp:425] loss1/loss <- loss1/classifier_plantvillage_loss1/classifier_plantvillage_0_split_0
I0403 15:58:25.335172 15031 net.cpp:425] loss1/loss <- label_data_1_split_0
…
