…
I0403 15:49:54.068924 14547 net.cpp:313] The NetState phase (1) differed from the phase (0) specified by a rule in layer data
I0403 15:49:54.070111 14547 net.cpp:49] Initializing net from parameters: 
state {
  phase: TEST
}
layer {
  name: "data"
  type: "Data"
  top: "data"
  top: "label"
  include {
    phase: TEST
  }
  transform_param {
    mirror: false
    crop_size: 224
    mean_file: "/home/mohanty/data/final_dataset/lmdb/color-80-20/mean.binaryproto"
  }
  data_param {
    source: "/home/mohanty/data/final_dataset/lmdb/color-80-20/test_db"
    batch_size: 24
    backend: LMDB
  }
}
layer {
  name: "conv1/7x7_s2"
  type: "Convolution"
  bottom: "data"
  top: "conv1/7x7_s2"
  param {
    lr_mult: 1
    decay_mult: 1
  }
  param {
    lr_mult: 2
    decay_mult: 0
  }
  convolution_param {
    num_output: 64
    pad: 3
    kernel_size: 7
    stride: 2
    weight_filler {
      type: "xavier"
      std: 0.1
    }
    bias_filler {
      type: "constant"
      value: 0.2
    }
  }
}
layer {
  name: "conv1/relu_7x7"
  type: "ReLU"
  bottom: "conv1/7x7_s2"
  top: "conv1/7x7_s2"
}
layer {
  name: "pool1/3x3_s2"
  type: "Pooling"
  bottom: "conv1/7x7_s2"
  top: "pool1/3x3_s2"
  pooling_param {
    pool: MAX
    kernel_size: 3
    stride: 2
  }
}
layer {
  name: "pool1/norm1"
  type: "LRN"
  bottom: "pool1/3x3_s2"
  top: "pool1/norm1"
  lrn_param {
    local_size: 5
    alpha: 0.0001
    beta: 0.75
  }
}
layer {
  name: "conv2/3x3_reduce"
  type: "Convolution"
  bottom: "pool1/norm1"
  top: "conv2/3x3_reduce"
  param {
    lr_mult: 1
    decay_mult: 1
  }
  param {
    lr_mult: 2
    decay_mult: 0
  }
  convolution_param {
    num_output: 64
    kernel_size: 1
    weight_filler {
      type: "xavier"
      std: 0.1
    }
    bias_filler {
      type: "constant"
      value: 0.2
    }
  }
}
layer {
  name: "conv2/relu_3x3_reduce"
  type: "ReLU"
  bottom: "conv2/3x3_reduce"
  top: "conv2/3x3_reduce"
}
layer {
  name: "conv2/3x3"
  type: "Convolution"
  bottom: "conv2/3x3_reduce"
  top: "conv2/3x3"
  param {
    lr_mult: 1
    decay_mult: 1
  }
  param {
    lr_mult: 2
    decay_mult: 0
  }
  convolution_param {
    num_output: 192
    pad: 1
    kernel_size: 3
    weight_filler {
      type: "xavier"
      std: 0.03
    }
    bias_filler {
      type: "constant"
      value: 0.2
    }
  }
}
layer {
  name: "conv2/relu_3x3"
  type: "ReLU"
  bottom: "conv2/3x3"
  top: "conv2/3x3"
}
layer {
  name: "conv2/norm2"
  type: "LRN"
  bottom: "conv2/3x3"
  top: "conv2/norm2"
  lrn_param {
    local_size: 5
    alpha: 0.0001
    beta: 0.75
  }
}
layer {
  name: "pool2/3x3_s2"
  type: "Pooling"
  bottom: "conv2/norm2"
  top: "pool2/3x3_s2"
  pooling_param {
    pool: MAX
    kernel_size: 3
    stride: 2
  }
}
layer {
  name: "inception_3a/1x1"
  type: "Convolution"
  bottom: "pool2/3x3_s2"
  top: "inception_3a/1x1"
  param {
    lr_mult: 1
    decay_mult: 1
  }
  param {
    lr_mult: 2
    decay_mult: 0
  }
  convolution_param {
    num_output: 64
    kernel_size: 1
    weight_filler {
      type: "xavier"
      std: 0.03
    }
    bias_filler {
      type: "constant"
      value: 0.2
    }
  }
}
layer {
  name: "inception_3a/relu_1x1"
  type: "ReLU"
  bottom: "inception_3a/1x1"
  top: "inception_3a/1x1"
}
layer {
  name: "inception_3a/3x3_reduce"
  type: "Convolution"
  bottom: "pool2/3x3_s2"
  top: "inception_3a/3x3_reduce"
  param {
    lr_mult: 1
    decay_mult: 1
  }
  param {
    lr_mult: 2
    decay_mult: 0
  }
  convolution_param {
    num_output: 96
    kernel_size: 1
    weight_filler {
      type: "xavier"
      std: 0.09
    }
    bias_filler {
      type: "constant"
      value: 0.2
    }
  }
}
layer {
  name: "inception_3a/relu_3x3_reduce"
  type: "ReLU"
  bottom: "inception_3a/3x3_reduce"
  top: "inception_3a/3x3_reduce"
}
layer {
  name: "inception_3a/3x3"
  type: "Convolution"
  bottom: "inception_3a/3x3_reduce"
  top: "inception_3a/3x3"
  param {
    lr_mult: 1
    decay_mult: 1
  }
  param {
    lr_mult: 2
    decay_mult: 0
  }
  convolution_param {
    num_output: 128
    pad: 1
    kernel_size: 3
    weight_filler {
      type: "xavier"
      std: 0.03
    }
    bias_filler {
      type: "constant"
      value: 0.2
    }
  }
}
layer {
  name: "inception_3a/relu_3x3"
  type: "ReLU"
  bottom: "inception_3a/3x3"
  top: "inception_3a/3x3"
}
layer {
  name: "inception_3a/5x5_reduce"
  type: "Convolution"
  bottom: "pool2/3x3_s2"
  top: "inception_3a/5x5_reduce"
  param {
    lr_mult: 1
    decay_mult: 1
  }
  param {
    lr_mult: 2
    decay_mult: 0
  }
  convolution_param {
    num_output: 16
    kernel_size: 1
    weight_filler {
      type: "xavier"
      std: 0.2
    }
    bias_filler {
      type: "constant"
      value: 0.2
    }
  }
}
layer {
  name: "inception_3a/relu_5x5_reduce"
  type: "ReLU"
  bottom: "inception_3a/5x5_reduce"
  top: "inception_3a/5x5_reduce"
}
layer {
  name: "inception_3a/5x5"
  type: "Convolution"
  bottom: "inception_3a/5x5_reduce"
  top: "inception_3a/5x5"
  param {
    lr_mult: 1
    decay_mult: 1
  }
  param {
    lr_mult: 2
    decay_mult: 0
  }
  convolution_param {
    num_output: 32
    pad: 2
    kernel_size: 5
    weight_filler {
      type: "xavier"
      std: 0.03
    }
    bias_filler {
      type: "constant"
      value: 0.2
    }
  }
}
layer {
  name: "inception_3a/relu_5x5"
  type: "ReLU"
  bottom: "inception_3a/5x5"
  top: "inception_3a/5x5"
}
layer {
  name: "inception_3a/pool"
  type: "Pooling"
  bottom: "pool2/3x3_s2"
  top: "inception_3a/pool"
  pooling_param {
    pool: MAX
    kernel_size: 3
    stride: 1
    pad: 1
  }
}
layer {
  name: "inception_3a/pool_proj"
  type: "Convolution"
  bottom: "inception_3a/pool"
  top: "inception_3a/pool_proj"
  param {
    lr_mult: 1
    decay_mult: 1
  }
  param {
    lr_mult: 2
    decay_mult: 0
  }
  convolution_param {
    num_output: 32
    kernel_size: 1
    weight_filler {
      type: "xavier"
      std: 0.1
    }
    bias_filler {
      type: "constant"
      value: 0.2
    }
  }
}
layer {
  name: "inception_3a/relu_pool_proj"
  type: "ReLU"
  bottom: "inception_3a/pool_proj"
  top: "inception_3a/pool_proj"
}
layer {
  name: "inception_3a/output"
  type: "Concat"
  bottom: "inception_3a/1x1"
  bottom: "inception_3a/3x3"
  bottom: "inception_3a/5x5"
  bottom: "inception_3a/pool_proj"
  top: "inception_3a/output"
}
layer {
  name: "inception_3b/1x1"
  type: "Convolution"
  bottom: "inception_3a/output"
  top: "inception_3b/1x1"
  param {
    lr_mult: 1
    decay_mult: 1
  }
  param {
    lr_mult: 2
    decay_mult: 0
  }
  convolution_param {
    num_output: 128
    kernel_size: 1
    weight_filler {
      type: "xavier"
      std: 0.03
    }
    bias_filler {
      type: "constant"
      value: 0.2
    }
  }
}
layer {
  name: "inception_3b/relu_1x1"
  type: "ReLU"
  bottom: "inception_3b/1x1"
  top: "inception_3b/1x1"
}
layer {
  name: "inception_3b/3x3_reduce"
  type: "Convolution"
  bottom: "inception_3a/output"
  top: "inception_3b/3x3_reduce"
  param {
    lr_mult: 1
    decay_mult: 1
  }
  param {
    lr_mult: 2
    decay_mult: 0
  }
  convolution_param {
    num_output: 128
    kernel_size: 1
    weight_filler {
      type: "xavier"
      std: 0.09
    }
    bias_filler {
      type: "constant"
      value: 0.2
    }
  }
}
layer {
  name: "inception_3b/relu_3x3_reduce"
  type: "ReLU"
  bottom: "inception_3b/3x3_reduce"
  top: "inception_3b/3x3_reduce"
}
layer {
  name: "inception_3b/3x3"
  type: "Convolution"
  bottom: "inception_3b/3x3_reduce"
  top: "inception_3b/3x3"
  param {
    lr_mult: 1
    decay_mult: 1
  }
  param {
    lr_mult: 2
    decay_mult: 0
  }
  convolution_param {
    num_output: 192
    pad: 1
    kernel_size: 3
    weight_filler {
      type: "xavier"
      std: 0.03
    }
    bias_filler {
      type: "constant"
      value: 0.2
    }
  }
}
layer {
  name: "inception_3b/relu_3x3"
  type: "ReLU"
  bottom: "inception_3b/3x3"
  top: "inception_3b/3x3"
}
layer {
  name: "inception_3b/5x5_reduce"
  type: "Convolution"
  bottom: "inception_3a/output"
  top: "inception_3b/5x5_reduce"
  param {
    lr_mult: 1
    decay_mult: 1
  }
  param {
    lr_mult: 2
    decay_mult: 0
  }
  convolution_param {
    num_output: 32
    kernel_size: 1
    weight_filler {
      type: "xavier"
      std: 0.2
    }
    bias_filler {
      type: "constant"
      value: 0.2
    }
  }
}
layer {
  name: "inception_3b/relu_5x5_reduce"
  type: "ReLU"
  bottom: "inception_3b/5x5_reduce"
  top: "inception_3b/5x5_reduce"
}
layer {
  name: "inception_3b/5x5"
  type: "Convolution"
  bottom: "inception_3b/5x5_reduce"
  top: "inception_3b/5x5"
  param {
    lr_mult: 1
    decay_mult: 1
  }
  param {
    lr_mult: 2
    decay_mult: 0
  }
  convolution_param {
    num_output: 96
    pad: 2
    kernel_size: 5
    weight_filler {
      type: "xavier"
      std: 0.03
    }
    bias_filler {
      type: "constant"
      value: 0.2
    }
  }
}
layer {
  name: "inception_3b/relu_5x5"
  type: "ReLU"
  bottom: "inception_3b/5x5"
  top: "inception_3b/5x5"
}
layer {
  name: "inception_3b/pool"
  type: "Pooling"
  bottom: "inception_3a/output"
  top: "inception_3b/pool"
  pooling_param {
    pool: MAX
    kernel_size: 3
    stride: 1
    pad: 1
  }
}
layer {
  name: "inception_3b/pool_proj"
  type: "Convolution"
  bottom: "inception_3b/pool"
  top: "inception_3b/pool_proj"
  param {
    lr_mult: 1
    decay_mult: 1
  }
  param {
    lr_mult: 2
    decay_mult: 0
  }
  convolution_param {
    num_output: 64
    kernel_size: 1
    weight_filler {
      type: "xavier"
      std: 0.1
    }
    bias_filler {
      type: "constant"
      value: 0.2
    }
  }
}
layer {
  name: "inception_3b/relu_pool_proj"
  type: "ReLU"
  bottom: "inception_3b/pool_proj"
  top: "inception_3b/pool_proj"
}
layer {
  name: "inception_3b/output"
  type: "Concat"
  bottom: "inception_3b/1x1"
  bottom: "inception_3b/3x3"
  bottom: "inception_3b/5x5"
  bottom: "inception_3b/pool_proj"
  top: "inception_3b/output"
}
layer {
  name: "pool3/3x3_s2"
  type: "Pooling"
  bottom: "inception_3b/output"
  top: "pool3/3x3_s2"
  pooling_param {
    pool: MAX
    kernel_size: 3
    stride: 2
  }
}
layer {
  name: "inception_4a/1x1"
  type: "Convolution"
  bottom: "pool3/3x3_s2"
  top: "inception_4a/1x1"
  param {
    lr_mult: 1
    decay_mult: 1
  }
  param {
    lr_mult: 2
    decay_mult: 0
  }
  convolution_param {
    num_output: 192
    kernel_size: 1
    weight_filler {
      type: "xavier"
      std: 0.03
    }
    bias_filler {
      type: "constant"
      value: 0.2
    }
  }
}
layer {
  name: "inception_4a/relu_1x1"
  type: "ReLU"
  bottom: "inception_4a/1x1"
  top: "inception_4a/1x1"
}
layer {
  name: "inception_4a/3x3_reduce"
  type: "Convolution"
  bottom: "pool3/3x3_s2"
  top: "inception_4a/3x3_reduce"
  param {
    lr_mult: 1
    decay_mult: 1
  }
  param {
    lr_mult: 2
    decay_mult: 0
  }
  convolution_param {
    num_output: 96
    kernel_size: 1
    weight_filler {
      type: "xavier"
      std: 0.09
    }
    bias_filler {
      type: "constant"
      value: 0.2
    }
  }
}
layer {
  name: "inception_4a/relu_3x3_reduce"
  type: "ReLU"
  bottom: "inception_4a/3x3_reduce"
  top: "inception_4a/3x3_reduce"
}
layer {
  name: "inception_4a/3x3"
  type: "Convolution"
  bottom: "inception_4a/3x3_reduce"
  top: "inception_4a/3x3"
  param {
    lr_mult: 1
    decay_mult: 1
  }
  param {
    lr_mult: 2
    decay_mult: 0
  }
  convolution_param {
    num_output: 208
    pad: 1
    kernel_size: 3
    weight_filler {
      type: "xavier"
      std: 0.03
    }
    bias_filler {
      type: "constant"
      value: 0.2
    }
  }
}
layer {
  name: "inception_4a/relu_3x3"
  type: "ReLU"
  bottom: "inception_4a/3x3"
  top: "inception_4a/3x3"
}
layer {
  name: "inception_4a/5x5_reduce"
  type: "Convolution"
  bottom: "pool3/3x3_s2"
  top: "inception_4a/5x5_reduce"
  param {
    lr_mult: 1
    decay_mult: 1
  }
  param {
    lr_mult: 2
    decay_mult: 0
  }
  convolution_param {
    num_output: 16
    kernel_size: 1
    weight_filler {
      type: "xavier"
      std: 0.2
    }
    bias_filler {
      type: "constant"
      value: 0.2
    }
  }
}
layer {
  name: "inception_4a/relu_5x5_reduce"
  type: "ReLU"
  bottom: "inception_4a/5x5_reduce"
  top: "inception_4a/5x5_reduce"
}
layer {
  name: "inception_4a/5x5"
  type: "Convolution"
  bottom: "inception_4a/5x5_reduce"
  top: "inception_4a/5x5"
  param {
    lr_mult: 1
    decay_mult: 1
  }
  param {
    lr_mult: 2
    decay_mult: 0
  }
  convolution_param {
    num_output: 48
    pad: 2
    kernel_size: 5
    weight_filler {
      type: "xavier"
      std: 0.03
    }
    bias_filler {
      type: "constant"
      value: 0.2
    }
  }
}
layer {
  name: "inception_4a/relu_5x5"
  type: "ReLU"
  bottom: "inception_4a/5x5"
  top: "inception_4a/5x5"
}
layer {
  name: "inception_4a/pool"
  type: "Pooling"
  bottom: "pool3/3x3_s2"
  top: "inception_4a/pool"
  pooling_param {
    pool: MAX
    kernel_size: 3
    stride: 1
    pad: 1
  }
}
layer {
  name: "inception_4a/pool_proj"
  type: "Convolution"
  bottom: "inception_4a/pool"
  top: "inception_4a/pool_proj"
  param {
    lr_mult: 1
    decay_mult: 1
  }
  param {
    lr_mult: 2
    decay_mult: 0
  }
  convolution_param {
    num_output: 64
    kernel_size: 1
    weight_filler {
      type: "xavier"
      std: 0.1
    }
    bias_filler {
      type: "constant"
      value: 0.2
    }
  }
}
layer {
  name: "inception_4a/relu_pool_proj"
  type: "ReLU"
  bottom: "inception_4a/pool_proj"
  top: "inception_4a/pool_proj"
}
layer {
  name: "inception_4a/output"
  type: "Concat"
  bottom: "inception_4a/1x1"
  bottom: "inception_4a/3x3"
  bottom: "inception_4a/5x5"
  bottom: "inception_4a/pool_proj"
  top: "inception_4a/output"
}
layer {
  name: "loss1/ave_pool"
  type: "Pooling"
  bottom: "inception_4a/output"
  top: "loss1/ave_pool"
  pooling_param {
    pool: AVE
    kernel_size: 5
    stride: 3
  }
}
layer {
  name: "loss1/conv"
  type: "Convolution"
  bottom: "loss1/ave_pool"
  top: "loss1/conv"
  param {
    lr_mult: 1
    decay_mult: 1
  }
  param {
    lr_mult: 2
    decay_mult: 0
  }
  convolution_param {
    num_output: 128
    kernel_size: 1
    weight_filler {
      type: "xavier"
      std: 0.08
    }
    bias_filler {
      type: "constant"
      value: 0.2
    }
  }
}
layer {
  name: "loss1/relu_conv"
  type: "ReLU"
  bottom: "loss1/conv"
  top: "loss1/conv"
}
layer {
  name: "loss1/fc"
  type: "InnerProduct"
  bottom: "loss1/conv"
  top: "loss1/fc"
  param {
    lr_mult: 1
    decay_mult: 1
  }
  param {
    lr_mult: 2
    decay_mult: 0
  }
  inner_product_param {
    num_output: 1024
    weight_filler {
      type: "xavier"
      std: 0.02
    }
    bias_filler {
      type: "constant"
      value: 0.2
    }
  }
}
layer {
  name: "loss1/relu_fc"
  type: "ReLU"
  bottom: "loss1/fc"
  top: "loss1/fc"
}
layer {
  name: "loss1/drop_fc"
  type: "Dropout"
  bottom: "loss1/fc"
  top: "loss1/fc"
  dropout_param {
    dropout_ratio: 0.7
  }
}
layer {
  name: "loss1/classifier_plantvillage"
  type: "InnerProduct"
  bottom: "loss1/fc"
  top: "loss1/classifier_plantvillage"
  param {
    lr_mult: 1
    decay_mult: 1
  }
  param {
    lr_mult: 2
    decay_mult: 0
  }
  inner_product_param {
    num_output: 38
    weight_filler {
      type: "xavier"
      std: 0.0009765625
    }
    bias_filler {
      type: "constant"
      value: 0
    }
  }
}
layer {
  name: "inception_4b/1x1"
  type: "Convolution"
  bottom: "inception_4a/output"
  top: "inception_4b/1x1"
  param {
    lr_mult: 1
    decay_mult: 1
  }
  param {
    lr_mult: 2
    decay_mult: 0
  }
  convolution_param {
    num_output: 160
    kernel_size: 1
    weight_filler {
      type: "xavier"
      std: 0.03
    }
    bias_filler {
      type: "constant"
      value: 0.2
    }
  }
}
layer {
  name: "inception_4b/relu_1x1"
  type: "ReLU"
  bottom: "inception_4b/1x1"
  top: "inception_4b/1x1"
}
layer {
  name: "inception_4b/3x3_reduce"
  type: "Convolution"
  bottom: "inception_4a/output"
  top: "inception_4b/3x3_reduce"
  param {
    lr_mult: 1
    decay_mult: 1
  }
  param {
    lr_mult: 2
    decay_mult: 0
  }
  convolution_param {
    num_output: 112
    kernel_size: 1
    weight_filler {
      type: "xavier"
      std: 0.09
    }
    bias_filler {
      type: "constant"
      value: 0.2
    }
  }
}
layer {
  name: "inception_4b/relu_3x3_reduce"
  type: "ReLU"
  bottom: "inception_4b/3x3_reduce"
  top: "inception_4b/3x3_reduce"
}
layer {
  name: "inception_4b/3x3"
  type: "Convolution"
  bottom: "inception_4b/3x3_reduce"
  top: "inception_4b/3x3"
  param {
    lr_mult: 1
    decay_mult: 1
  }
  param {
    lr_mult: 2
    decay_mult: 0
  }
  convolution_param {
    num_output: 224
    pad: 1
    kernel_size: 3
    weight_filler {
      type: "xavier"
      std: 0.03
    }
    bias_filler {
      type: "constant"
      value: 0.2
    }
  }
}
layer {
  name: "inception_4b/relu_3x3"
  type: "ReLU"
  bottom: "inception_4b/3x3"
  top: "inception_4b/3x3"
}
layer {
  name: "inception_4b/5x5_reduce"
  type: "Convolution"
  bottom: "inception_4a/output"
  top: "inception_4b/5x5_reduce"
  param {
    lr_mult: 1
    decay_mult: 1
  }
  param {
    lr_mult: 2
    decay_mult: 0
  }
  convolution_param {
    num_output: 24
    kernel_size: 1
    weight_filler {
      type: "xavier"
      std: 0.2
    }
    bias_filler {
      type: "constant"
      value: 0.2
    }
  }
}
layer {
  name: "inception_4b/relu_5x5_reduce"
  type: "ReLU"
  bottom: "inception_4b/5x5_reduce"
  top: "inception_4b/5x5_reduce"
}
layer {
  name: "inception_4b/5x5"
  type: "Convolution"
  bottom: "inception_4b/5x5_reduce"
  top: "inception_4b/5x5"
  param {
    lr_mult: 1
    decay_mult: 1
  }
  param {
    lr_mult: 2
    decay_mult: 0
  }
  convolution_param {
    num_output: 64
    pad: 2
    kernel_size: 5
    weight_filler {
      type: "xavier"
      std: 0.03
    }
    bias_filler {
      type: "constant"
      value: 0.2
    }
  }
}
layer {
  name: "inception_4b/relu_5x5"
  type: "ReLU"
  bottom: "inception_4b/5x5"
  top: "inception_4b/5x5"
}
layer {
  name: "inception_4b/pool"
  type: "Pooling"
  bottom: "inception_4a/output"
  top: "inception_4b/pool"
  pooling_param {
    pool: MAX
    kernel_size: 3
    stride: 1
    pad: 1
  }
}
layer {
  name: "inception_4b/pool_proj"
  type: "Convolution"
  bottom: "inception_4b/pool"
  top: "inception_4b/pool_proj"
  param {
    lr_mult: 1
    decay_mult: 1
  }
  param {
    lr_mult: 2
    decay_mult: 0
  }
  convolution_param {
    num_output: 64
    kernel_size: 1
    weight_filler {
      type: "xavier"
      std: 0.1
    }
    bias_filler {
      type: "constant"
      value: 0.2
    }
  }
}
layer {
  name: "inception_4b/relu_pool_proj"
  type: "ReLU"
  bottom: "inception_4b/pool_proj"
  top: "inception_4b/pool_proj"
}
layer {
  name: "inception_4b/output"
  type: "Concat"
  bottom: "inception_4b/1x1"
  bottom: "inception_4b/3x3"
  bottom: "inception_4b/5x5"
  bottom: "inception_4b/pool_proj"
  top: "inception_4b/output"
}
layer {
  name: "inception_4c/1x1"
  type: "Convolution"
  bottom: "inception_4b/output"
  top: "inception_4c/1x1"
  param {
    lr_mult: 1
    decay_mult: 1
  }
  param {
    lr_mult: 2
    decay_mult: 0
  }
  convolution_param {
    num_output: 128
    kernel_size: 1
    weight_filler {
      type: "xavier"
      std: 0.03
    }
    bias_filler {
      type: "constant"
      value: 0.2
    }
  }
}
layer {
  name: "inception_4c/relu_1x1"
  type: "ReLU"
  bottom: "inception_4c/1x1"
  top: "inception_4c/1x1"
}
layer {
  name: "inception_4c/3x3_reduce"
  type: "Convolution"
  bottom: "inception_4b/output"
  top: "inception_4c/3x3_reduce"
  param {
    lr_mult: 1
    decay_mult: 1
  }
  param {
    lr_mult: 2
    decay_mult: 0
  }
  convolution_param {
    num_output: 128
    kernel_size: 1
    weight_filler {
      type: "xavier"
      std: 0.09
    }
    bias_filler {
      type: "constant"
      value: 0.2
    }
  }
}
layer {
  name: "inception_4c/relu_3x3_reduce"
  type: "ReLU"
  bottom: "inception_4c/3x3_reduce"
  top: "inception_4c/3x3_reduce"
}
layer {
  name: "inception_4c/3x3"
  type: "Convolution"
  bottom: "inception_4c/3x3_reduce"
  top: "inception_4c/3x3"
  param {
    lr_mult: 1
    decay_mult: 1
  }
  param {
    lr_mult: 2
    decay_mult: 0
  }
  convolution_param {
    num_output: 256
    pad: 1
    kernel_size: 3
    weight_filler {
      type: "xavier"
      std: 0.03
    }
    bias_filler {
      type: "constant"
      value: 0.2
    }
  }
}
layer {
  name: "inception_4c/relu_3x3"
  type: "ReLU"
  bottom: "inception_4c/3x3"
  top: "inception_4c/3x3"
}
layer {
  name: "inception_4c/5x5_reduce"
  type: "Convolution"
  bottom: "inception_4b/output"
  top: "inception_4c/5x5_reduce"
  param {
    lr_mult: 1
    decay_mult: 1
  }
  param {
    lr_mult: 2
    decay_mult: 0
  }
  convolution_param {
    num_output: 24
    kernel_size: 1
    weight_filler {
      type: "xavier"
      std: 0.2
    }
    bias_filler {
      type: "constant"
      value: 0.2
    }
  }
}
layer {
  name: "inception_4c/relu_5x5_reduce"
  type: "ReLU"
  bottom: "inception_4c/5x5_reduce"
  top: "inception_4c/5x5_reduce"
}
layer {
  name: "inception_4c/5x5"
  type: "Convolution"
  bottom: "inception_4c/5x5_reduce"
  top: "inception_4c/5x5"
  param {
    lr_mult: 1
    decay_mult: 1
  }
  param {
    lr_mult: 2
    decay_mult: 0
  }
  convolution_param {
    num_output: 64
    pad: 2
    kernel_size: 5
    weight_filler {
      type: "xavier"
      std: 0.03
    }
    bias_filler {
      type: "constant"
      value: 0.2
    }
  }
}
layer {
  name: "inception_4c/relu_5x5"
  type: "ReLU"
  bottom: "inception_4c/5x5"
  top: "inception_4c/5x5"
}
layer {
  name: "inception_4c/pool"
  type: "Pooling"
  bottom: "inception_4b/output"
  top: "inception_4c/pool"
  pooling_param {
    pool: MAX
    kernel_size: 3
    stride: 1
    pad: 1
  }
}
layer {
  name: "inception_4c/pool_proj"
  type: "Convolution"
  bottom: "inception_4c/pool"
  top: "inception_4c/pool_proj"
  param {
    lr_mult: 1
    decay_mult: 1
  }
  param {
    lr_mult: 2
    decay_mult: 0
  }
  convolution_param {
    num_output: 64
    kernel_size: 1
    weight_filler {
      type: "xavier"
      std: 0.1
    }
    bias_filler {
      type: "constant"
      value: 0.2
    }
  }
}
layer {
  name: "inception_4c/relu_pool_proj"
  type: "ReLU"
  bottom: "inception_4c/pool_proj"
  top: "inception_4c/pool_proj"
}
layer {
  name: "inception_4c/output"
  type: "Concat"
  bottom: "inception_4c/1x1"
  bottom: "inception_4c/3x3"
  bottom: "inception_4c/5x5"
  bottom: "inception_4c/pool_proj"
  top: "inception_4c/output"
}
layer {
  name: "inception_4d/1x1"
  type: "Convolution"
  bottom: "inception_4c/output"
  top: "inception_4d/1x1"
  param {
    lr_mult: 1
    decay_mult: 1
  }
  param {
    lr_mult: 2
    decay_mult: 0
  }
  convolution_param {
    num_output: 112
    kernel_size: 1
    weight_filler {
      type: "xavier"
      std: 0.03
    }
    bias_filler {
      type: "constant"
      value: 0.2
    }
  }
}
layer {
  name: "inception_4d/relu_1x1"
  type: "ReLU"
  bottom: "inception_4d/1x1"
  top: "inception_4d/1x1"
}
layer {
  name: "inception_4d/3x3_reduce"
  type: "Convolution"
  bottom: "inception_4c/output"
  top: "inception_4d/3x3_reduce"
  param {
    lr_mult: 1
    decay_mult: 1
  }
  param {
    lr_mult: 2
    decay_mult: 0
  }
  convolution_param {
    num_output: 144
    kernel_size: 1
    weight_filler {
      type: "xavier"
      std: 0.09
    }
    bias_filler {
      type: "constant"
      value: 0.2
    }
  }
}
layer {
  name: "inception_4d/relu_3x3_reduce"
  type: "ReLU"
  bottom: "inception_4d/3x3_reduce"
  top: "inception_4d/3x3_reduce"
}
layer {
  name: "inception_4d/3x3"
  type: "Convolution"
  bottom: "inception_4d/3x3_reduce"
  top: "inception_4d/3x3"
  param {
    lr_mult: 1
    decay_mult: 1
  }
  param {
    lr_mult: 2
    decay_mult: 0
  }
  convolution_param {
    num_output: 288
    pad: 1
    kernel_size: 3
    weight_filler {
      type: "xavier"
      std: 0.03
    }
    bias_filler {
      type: "constant"
      value: 0.2
    }
  }
}
layer {
  name: "inception_4d/relu_3x3"
  type: "ReLU"
  bottom: "inception_4d/3x3"
  top: "inception_4d/3x3"
}
layer {
  name: "inception_4d/5x5_reduce"
  type: "Convolution"
  bottom: "inception_4c/output"
  top: "inception_4d/5x5_reduce"
  param {
    lr_mult: 1
    decay_mult: 1
  }
  param {
    lr_mult: 2
    decay_mult: 0
  }
  convolution_param {
    num_output: 32
    kernel_size: 1
    weight_filler {
      type: "xavier"
      std: 0.2
    }
    bias_filler {
      type: "constant"
      value: 0.2
    }
  }
}
layer {
  name: "inception_4d/relu_5x5_reduce"
  type: "ReLU"
  bottom: "inception_4d/5x5_reduce"
  top: "inception_4d/5x5_reduce"
}
layer {
  name: "inception_4d/5x5"
  type: "Convolution"
  bottom: "inception_4d/5x5_reduce"
  top: "inception_4d/5x5"
  param {
    lr_mult: 1
    decay_mult: 1
  }
  param {
    lr_mult: 2
    decay_mult: 0
  }
  convolution_param {
    num_output: 64
    pad: 2
    kernel_size: 5
    weight_filler {
      type: "xavier"
      std: 0.03
    }
    bias_filler {
      type: "constant"
      value: 0.2
    }
  }
}
layer {
  name: "inception_4d/relu_5x5"
  type: "ReLU"
  bottom: "inception_4d/5x5"
  top: "inception_4d/5x5"
}
layer {
  name: "inception_4d/pool"
  type: "Pooling"
  bottom: "inception_4c/output"
  top: "inception_4d/pool"
  pooling_param {
    pool: MAX
    kernel_size: 3
    stride: 1
    pad: 1
  }
}
layer {
  name: "inception_4d/pool_proj"
  type: "Convolution"
  bottom: "inception_4d/pool"
  top: "inception_4d/pool_proj"
  param {
    lr_mult: 1
    decay_mult: 1
  }
  param {
    lr_mult: 2
    decay_mult: 0
  }
  convolution_param {
    num_output: 64
    kernel_size: 1
    weight_filler {
      type: "xavier"
      std: 0.1
    }
    bias_filler {
      type: "constant"
      value: 0.2
    }
  }
}
layer {
  name: "inception_4d/relu_pool_proj"
  type: "ReLU"
  bottom: "inception_4d/pool_proj"
  top: "inception_4d/pool_proj"
}
layer {
  name: "inception_4d/output"
  type: "Concat"
  bottom: "inception_4d/1x1"
  bottom: "inception_4d/3x3"
  bottom: "inception_4d/5x5"
  bottom: "inception_4d/pool_proj"
  top: "inception_4d/output"
}
layer {
  name: "loss2/ave_pool"
  type: "Pooling"
  bottom: "inception_4d/output"
  top: "loss2/ave_pool"
  pooling_param {
    pool: AVE
    kernel_size: 5
    stride: 3
  }
}
layer {
  name: "loss2/conv"
  type: "Convolution"
  bottom: "loss2/ave_pool"
  top: "loss2/conv"
  param {
    lr_mult: 1
    decay_mult: 1
  }
  param {
    lr_mult: 2
    decay_mult: 0
  }
  convolution_param {
    num_output: 128
    kernel_size: 1
    weight_filler {
      type: "xavier"
      std: 0.08
    }
    bias_filler {
      type: "constant"
      value: 0.2
    }
  }
}
layer {
  name: "loss2/relu_conv"
  type: "ReLU"
  bottom: "loss2/conv"
  top: "loss2/conv"
}
layer {
  name: "loss2/fc"
  type: "InnerProduct"
  bottom: "loss2/conv"
  top: "loss2/fc"
  param {
    lr_mult: 1
    decay_mult: 1
  }
  param {
    lr_mult: 2
    decay_mult: 0
  }
  inner_product_param {
    num_output: 1024
    weight_filler {
      type: "xavier"
      std: 0.02
    }
    bias_filler {
      type: "constant"
      value: 0.2
    }
  }
}
layer {
  name: "loss2/relu_fc"
  type: "ReLU"
  bottom: "loss2/fc"
  top: "loss2/fc"
}
layer {
  name: "loss2/drop_fc"
  type: "Dropout"
  bottom: "loss2/fc"
  top: "loss2/fc"
  dropout_param {
    dropout_ratio: 0.7
  }
}
layer {
  name: "loss2/classifier_plantvillage"
  type: "InnerProduct"
  bottom: "loss2/fc"
  top: "loss2/classifier_plantvillage"
  param {
    lr_mult: 1
    decay_mult: 1
  }
  param {
    lr_mult: 2
    decay_mult: 0
  }
  inner_product_param {
    num_output: 38
    weight_filler {
      type: "xavier"
      std: 0.0009765625
    }
    bias_filler {
      type: "constant"
      value: 0
    }
  }
}
layer {
  name: "inception_4e/1x1"
  type: "Convolution"
  bottom: "inception_4d/output"
  top: "inception_4e/1x1"
  param {
    lr_mult: 1
    decay_mult: 1
  }
  param {
    lr_mult: 2
    decay_mult: 0
  }
  convolution_param {
    num_output: 256
    kernel_size: 1
    weight_filler {
      type: "xavier"
      std: 0.03
    }
    bias_filler {
      type: "constant"
      value: 0.2
    }
  }
}
layer {
  name: "inception_4e/relu_1x1"
  type: "ReLU"
  bottom: "inception_4e/1x1"
  top: "inception_4e/1x1"
}
layer {
  name: "inception_4e/3x3_reduce"
  type: "Convolution"
  bottom: "inception_4d/output"
  top: "inception_4e/3x3_reduce"
  param {
    lr_mult: 1
    decay_mult: 1
  }
  param {
    lr_mult: 2
    decay_mult: 0
  }
  convolution_param {
    num_output: 160
    kernel_size: 1
    weight_filler {
      type: "xavier"
      std: 0.09
    }
    bias_filler {
      type: "constant"
      value: 0.2
    }
  }
}
layer {
  name: "inception_4e/relu_3x3_reduce"
  type: "ReLU"
  bottom: "inception_4e/3x3_reduce"
  top: "inception_4e/3x3_reduce"
}
layer {
  name: "inception_4e/3x3"
  type: "Convolution"
  bottom: "inception_4e/3x3_reduce"
  top: "inception_4e/3x3"
  param {
    lr_mult: 1
    decay_mult: 1
  }
  param {
    lr_mult: 2
    decay_mult: 0
  }
  convolution_param {
    num_output: 320
    pad: 1
    kernel_size: 3
    weight_filler {
      type: "xavier"
      std: 0.03
    }
    bias_filler {
      type: "constant"
      value: 0.2
    }
  }
}
layer {
  name: "inception_4e/relu_3x3"
  type: "ReLU"
  bottom: "inception_4e/3x3"
  top: "inception_4e/3x3"
}
layer {
  name: "inception_4e/5x5_reduce"
  type: "Convolution"
  bottom: "inception_4d/output"
  top: "inception_4e/5x5_reduce"
  param {
    lr_mult: 1
    decay_mult: 1
  }
  param {
    lr_mult: 2
    decay_mult: 0
  }
  convolution_param {
    num_output: 32
    kernel_size: 1
    weight_filler {
      type: "xavier"
      std: 0.2
    }
    bias_filler {
      type: "constant"
      value: 0.2
    }
  }
}
layer {
  name: "inception_4e/relu_5x5_reduce"
  type: "ReLU"
  bottom: "inception_4e/5x5_reduce"
  top: "inception_4e/5x5_reduce"
}
layer {
  name: "inception_4e/5x5"
  type: "Convolution"
  bottom: "inception_4e/5x5_reduce"
  top: "inception_4e/5x5"
  p
I0403 15:49:54.071370 14547 layer_factory.hpp:77] Creating layer data
I0403 15:49:54.071993 14547 net.cpp:91] Creating Layer data
I0403 15:49:54.072027 14547 net.cpp:399] data -> data
I0403 15:49:54.072082 14547 net.cpp:399] data -> label
I0403 15:49:54.072121 14547 data_transformer.cpp:25] Loading mean file from: /home/mohanty/data/final_dataset/lmdb/color-80-20/mean.binaryproto
I0403 15:49:54.075410 14549 db_lmdb.cpp:38] Opened lmdb /home/mohanty/data/final_dataset/lmdb/color-80-20/test_db
I0403 15:49:54.085619 14547 data_layer.cpp:41] output data size: 24,3,224,224
I0403 15:49:54.113196 14547 net.cpp:141] Setting up data
I0403 15:49:54.113277 14547 net.cpp:148] Top shape: 24 3 224 224 (3612672)
I0403 15:49:54.113301 14547 net.cpp:148] Top shape: 24 (24)
I0403 15:49:54.113317 14547 net.cpp:156] Memory required for data: 14450784
I0403 15:49:54.113345 14547 layer_factory.hpp:77] Creating layer label_data_1_split
I0403 15:49:54.113373 14547 net.cpp:91] Creating Layer label_data_1_split
I0403 15:49:54.113390 14547 net.cpp:425] label_data_1_split <- label
I0403 15:49:54.113422 14547 net.cpp:399] label_data_1_split -> label_data_1_split_0
I0403 15:49:54.113450 14547 net.cpp:399] label_data_1_split -> label_data_1_split_1
I0403 15:49:54.113471 14547 net.cpp:399] label_data_1_split -> label_data_1_split_2
I0403 15:49:54.113493 14547 net.cpp:399] label_data_1_split -> label_data_1_split_3
I0403 15:49:54.113513 14547 net.cpp:399] label_data_1_split -> label_data_1_split_4
I0403 15:49:54.113533 14547 net.cpp:399] label_data_1_split -> label_data_1_split_5
I0403 15:49:54.113554 14547 net.cpp:399] label_data_1_split -> label_data_1_split_6
I0403 15:49:54.113574 14547 net.cpp:399] label_data_1_split -> label_data_1_split_7
I0403 15:49:54.113595 14547 net.cpp:399] label_data_1_split -> label_data_1_split_8
I0403 15:49:54.113615 14547 net.cpp:399] label_data_1_split -> label_data_1_split_9
I0403 15:49:54.113736 14547 net.cpp:141] Setting up label_data_1_split
I0403 15:49:54.113761 14547 net.cpp:148] Top shape: 24 (24)
I0403 15:49:54.113778 14547 net.cpp:148] Top shape: 24 (24)
I0403 15:49:54.113795 14547 net.cpp:148] Top shape: 24 (24)
I0403 15:49:54.113811 14547 net.cpp:148] Top shape: 24 (24)
I0403 15:49:54.113826 14547 net.cpp:148] Top shape: 24 (24)
I0403 15:49:54.113842 14547 net.cpp:148] Top shape: 24 (24)
I0403 15:49:54.113858 14547 net.cpp:148] Top shape: 24 (24)
I0403 15:49:54.113873 14547 net.cpp:148] Top shape: 24 (24)
I0403 15:49:54.113888 14547 net.cpp:148] Top shape: 24 (24)
I0403 15:49:54.113904 14547 net.cpp:148] Top shape: 24 (24)
I0403 15:49:54.113950 14547 net.cpp:156] Memory required for data: 14451744
I0403 15:49:54.113966 14547 layer_factory.hpp:77] Creating layer conv1/7x7_s2
I0403 15:49:54.113999 14547 net.cpp:91] Creating Layer conv1/7x7_s2
I0403 15:49:54.114019 14547 net.cpp:425] conv1/7x7_s2 <- data
I0403 15:49:54.114039 14547 net.cpp:399] conv1/7x7_s2 -> conv1/7x7_s2
I0403 15:49:54.255703 14547 net.cpp:141] Setting up conv1/7x7_s2
I0403 15:49:54.255777 14547 net.cpp:148] Top shape: 24 64 112 112 (19267584)
I0403 15:49:54.255798 14547 net.cpp:156] Memory required for data: 91522080
I0403 15:49:54.255831 14547 layer_factory.hpp:77] Creating layer conv1/relu_7x7
I0403 15:49:54.255861 14547 net.cpp:91] Creating Layer conv1/relu_7x7
I0403 15:49:54.255879 14547 net.cpp:425] conv1/relu_7x7 <- conv1/7x7_s2
I0403 15:49:54.255899 14547 net.cpp:386] conv1/relu_7x7 -> conv1/7x7_s2 (in-place)
I0403 15:49:54.256173 14547 net.cpp:141] Setting up conv1/relu_7x7
I0403 15:49:54.256201 14547 net.cpp:148] Top shape: 24 64 112 112 (19267584)
I0403 15:49:54.256218 14547 net.cpp:156] Memory required for data: 168592416
I0403 15:49:54.256233 14547 layer_factory.hpp:77] Creating layer pool1/3x3_s2
I0403 15:49:54.256258 14547 net.cpp:91] Creating Layer pool1/3x3_s2
I0403 15:49:54.256276 14547 net.cpp:425] pool1/3x3_s2 <- conv1/7x7_s2
I0403 15:49:54.256296 14547 net.cpp:399] pool1/3x3_s2 -> pool1/3x3_s2
I0403 15:49:54.256371 14547 net.cpp:141] Setting up pool1/3x3_s2
I0403 15:49:54.256395 14547 net.cpp:148] Top shape: 24 64 56 56 (4816896)
I0403 15:49:54.256412 14547 net.cpp:156] Memory required for data: 187860000
I0403 15:49:54.256427 14547 layer_factory.hpp:77] Creating layer pool1/norm1
I0403 15:49:54.256451 14547 net.cpp:91] Creating Layer pool1/norm1
I0403 15:49:54.256469 14547 net.cpp:425] pool1/norm1 <- pool1/3x3_s2
I0403 15:49:54.256486 14547 net.cpp:399] pool1/norm1 -> pool1/norm1
I0403 15:49:54.256799 14547 net.cpp:141] Setting up pool1/norm1
I0403 15:49:54.256829 14547 net.cpp:148] Top shape: 24 64 56 56 (4816896)
I0403 15:49:54.256847 14547 net.cpp:156] Memory required for data: 207127584
I0403 15:49:54.256862 14547 layer_factory.hpp:77] Creating layer conv2/3x3_reduce
I0403 15:49:54.256891 14547 net.cpp:91] Creating Layer conv2/3x3_reduce
I0403 15:49:54.256908 14547 net.cpp:425] conv2/3x3_reduce <- pool1/norm1
I0403 15:49:54.256930 14547 net.cpp:399] conv2/3x3_reduce -> conv2/3x3_reduce
I0403 15:49:54.258419 14547 net.cpp:141] Setting up conv2/3x3_reduce
I0403 15:49:54.258450 14547 net.cpp:148] Top shape: 24 64 56 56 (4816896)
I0403 15:49:54.258468 14547 net.cpp:156] Memory required for data: 226395168
I0403 15:49:54.258493 14547 layer_factory.hpp:77] Creating layer conv2/relu_3x3_reduce
I0403 15:49:54.258514 14547 net.cpp:91] Creating Layer conv2/relu_3x3_reduce
I0403 15:49:54.258532 14547 net.cpp:425] conv2/relu_3x3_reduce <- conv2/3x3_reduce
I0403 15:49:54.258549 14547 net.cpp:386] conv2/relu_3x3_reduce -> conv2/3x3_reduce (in-place)
I0403 15:49:54.258827 14547 net.cpp:141] Setting up conv2/relu_3x3_reduce
I0403 15:49:54.258857 14547 net.cpp:148] Top shape: 24 64 56 56 (4816896)
I0403 15:49:54.258872 14547 net.cpp:156] Memory required for data: 245662752
I0403 15:49:54.258888 14547 layer_factory.hpp:77] Creating layer conv2/3x3
I0403 15:49:54.258913 14547 net.cpp:91] Creating Layer conv2/3x3
I0403 15:49:54.258934 14547 net.cpp:425] conv2/3x3 <- conv2/3x3_reduce
I0403 15:49:54.258954 14547 net.cpp:399] conv2/3x3 -> conv2/3x3
I0403 15:49:54.261366 14547 net.cpp:141] Setting up conv2/3x3
I0403 15:49:54.261402 14547 net.cpp:148] Top shape: 24 192 56 56 (14450688)
I0403 15:49:54.261423 14547 net.cpp:156] Memory required for data: 303465504
I0403 15:49:54.261445 14547 layer_factory.hpp:77] Creating layer conv2/relu_3x3
I0403 15:49:54.261467 14547 net.cpp:91] Creating Layer conv2/relu_3x3
I0403 15:49:54.261485 14547 net.cpp:425] conv2/relu_3x3 <- conv2/3x3
I0403 15:49:54.261503 14547 net.cpp:386] conv2/relu_3x3 -> conv2/3x3 (in-place)
I0403 15:49:54.261693 14547 net.cpp:141] Setting up conv2/relu_3x3
I0403 15:49:54.261720 14547 net.cpp:148] Top shape: 24 192 56 56 (14450688)
I0403 15:49:54.261770 14547 net.cpp:156] Memory required for data: 361268256
I0403 15:49:54.261785 14547 layer_factory.hpp:77] Creating layer conv2/norm2
I0403 15:49:54.261808 14547 net.cpp:91] Creating Layer conv2/norm2
I0403 15:49:54.261826 14547 net.cpp:425] conv2/norm2 <- conv2/3x3
I0403 15:49:54.261845 14547 net.cpp:399] conv2/norm2 -> conv2/norm2
I0403 15:49:54.262166 14547 net.cpp:141] Setting up conv2/norm2
I0403 15:49:54.262194 14547 net.cpp:148] Top shape: 24 192 56 56 (14450688)
I0403 15:49:54.262210 14547 net.cpp:156] Memory required for data: 419071008
I0403 15:49:54.262226 14547 layer_factory.hpp:77] Creating layer pool2/3x3_s2
I0403 15:49:54.262248 14547 net.cpp:91] Creating Layer pool2/3x3_s2
I0403 15:49:54.262264 14547 net.cpp:425] pool2/3x3_s2 <- conv2/norm2
I0403 15:49:54.262282 14547 net.cpp:399] pool2/3x3_s2 -> pool2/3x3_s2
I0403 15:49:54.262338 14547 net.cpp:141] Setting up pool2/3x3_s2
I0403 15:49:54.262363 14547 net.cpp:148] Top shape: 24 192 28 28 (3612672)
I0403 15:49:54.262379 14547 net.cpp:156] Memory required for data: 433521696
I0403 15:49:54.262395 14547 layer_factory.hpp:77] Creating layer pool2/3x3_s2_pool2/3x3_s2_0_split
I0403 15:49:54.262413 14547 net.cpp:91] Creating Layer pool2/3x3_s2_pool2/3x3_s2_0_split
I0403 15:49:54.262429 14547 net.cpp:425] pool2/3x3_s2_pool2/3x3_s2_0_split <- pool2/3x3_s2
I0403 15:49:54.262449 14547 net.cpp:399] pool2/3x3_s2_pool2/3x3_s2_0_split -> pool2/3x3_s2_pool2/3x3_s2_0_split_0
I0403 15:49:54.262470 14547 net.cpp:399] pool2/3x3_s2_pool2/3x3_s2_0_split -> pool2/3x3_s2_pool2/3x3_s2_0_split_1
I0403 15:49:54.262492 14547 net.cpp:399] pool2/3x3_s2_pool2/3x3_s2_0_split -> pool2/3x3_s2_pool2/3x3_s2_0_split_2
I0403 15:49:54.262513 14547 net.cpp:399] pool2/3x3_s2_pool2/3x3_s2_0_split -> pool2/3x3_s2_pool2/3x3_s2_0_split_3
I0403 15:49:54.262591 14547 net.cpp:141] Setting up pool2/3x3_s2_pool2/3x3_s2_0_split
I0403 15:49:54.262619 14547 net.cpp:148] Top shape: 24 192 28 28 (3612672)
I0403 15:49:54.262635 14547 net.cpp:148] Top shape: 24 192 28 28 (3612672)
I0403 15:49:54.262652 14547 net.cpp:148] Top shape: 24 192 28 28 (3612672)
I0403 15:49:54.262667 14547 net.cpp:148] Top shape: 24 192 28 28 (3612672)
I0403 15:49:54.262682 14547 net.cpp:156] Memory required for data: 491324448
I0403 15:49:54.262697 14547 layer_factory.hpp:77] Creating layer inception_3a/1x1
I0403 15:49:54.262722 14547 net.cpp:91] Creating Layer inception_3a/1x1
I0403 15:49:54.262739 14547 net.cpp:425] inception_3a/1x1 <- pool2/3x3_s2_pool2/3x3_s2_0_split_0
I0403 15:49:54.262759 14547 net.cpp:399] inception_3a/1x1 -> inception_3a/1x1
I0403 15:49:54.264400 14547 net.cpp:141] Setting up inception_3a/1x1
I0403 15:49:54.264432 14547 net.cpp:148] Top shape: 24 64 28 28 (1204224)
I0403 15:49:54.264449 14547 net.cpp:156] Memory required for data: 496141344
I0403 15:49:54.264467 14547 layer_factory.hpp:77] Creating layer inception_3a/relu_1x1
I0403 15:49:54.264489 14547 net.cpp:91] Creating Layer inception_3a/relu_1x1
I0403 15:49:54.264508 14547 net.cpp:425] inception_3a/relu_1x1 <- inception_3a/1x1
I0403 15:49:54.264525 14547 net.cpp:386] inception_3a/relu_1x1 -> inception_3a/1x1 (in-place)
I0403 15:49:54.264705 14547 net.cpp:141] Setting up inception_3a/relu_1x1
I0403 15:49:54.264734 14547 net.cpp:148] Top shape: 24 64 28 28 (1204224)
I0403 15:49:54.264751 14547 net.cpp:156] Memory required for data: 500958240
I0403 15:49:54.264766 14547 layer_factory.hpp:77] Creating layer inception_3a/3x3_reduce
I0403 15:49:54.264789 14547 net.cpp:91] Creating Layer inception_3a/3x3_reduce
I0403 15:49:54.264808 14547 net.cpp:425] inception_3a/3x3_reduce <- pool2/3x3_s2_pool2/3x3_s2_0_split_1
I0403 15:49:54.264828 14547 net.cpp:399] inception_3a/3x3_reduce -> inception_3a/3x3_reduce
I0403 15:49:54.266578 14547 net.cpp:141] Setting up inception_3a/3x3_reduce
I0403 15:49:54.266610 14547 net.cpp:148] Top shape: 24 96 28 28 (1806336)
I0403 15:49:54.266626 14547 net.cpp:156] Memory required for data: 508183584
I0403 15:49:54.266650 14547 layer_factory.hpp:77] Creating layer inception_3a/relu_3x3_reduce
I0403 15:49:54.266688 14547 net.cpp:91] Creating Layer inception_3a/relu_3x3_reduce
I0403 15:49:54.266708 14547 net.cpp:425] inception_3a/relu_3x3_reduce <- inception_3a/3x3_reduce
I0403 15:49:54.266729 14547 net.cpp:386] inception_3a/relu_3x3_reduce -> inception_3a/3x3_reduce (in-place)
I0403 15:49:54.266921 14547 net.cpp:141] Setting up inception_3a/relu_3x3_reduce
I0403 15:49:54.266948 14547 net.cpp:148] Top shape: 24 96 28 28 (1806336)
I0403 15:49:54.266964 14547 net.cpp:156] Memory required for data: 515408928
I0403 15:49:54.266980 14547 layer_factory.hpp:77] Creating layer inception_3a/3x3
I0403 15:49:54.267004 14547 net.cpp:91] Creating Layer inception_3a/3x3
I0403 15:49:54.267020 14547 net.cpp:425] inception_3a/3x3 <- inception_3a/3x3_reduce
I0403 15:49:54.267043 14547 net.cpp:399] inception_3a/3x3 -> inception_3a/3x3
I0403 15:49:54.268782 14547 net.cpp:141] Setting up inception_3a/3x3
I0403 15:49:54.268812 14547 net.cpp:148] Top shape: 24 128 28 28 (2408448)
I0403 15:49:54.268828 14547 net.cpp:156] Memory required for data: 525042720
I0403 15:49:54.268849 14547 layer_factory.hpp:77] Creating layer inception_3a/relu_3x3
I0403 15:49:54.268872 14547 net.cpp:91] Creating Layer inception_3a/relu_3x3
I0403 15:49:54.268887 14547 net.cpp:425] inception_3a/relu_3x3 <- inception_3a/3x3
I0403 15:49:54.268905 14547 net.cpp:386] inception_3a/relu_3x3 -> inception_3a/3x3 (in-place)
I0403 15:49:54.269206 14547 net.cpp:141] Setting up inception_3a/relu_3x3
I0403 15:49:54.269235 14547 net.cpp:148] Top shape: 24 128 28 28 (2408448)
I0403 15:49:54.269253 14547 net.cpp:156] Memory required for data: 534676512
I0403 15:49:54.269268 14547 layer_factory.hpp:77] Creating layer inception_3a/5x5_reduce
I0403 15:49:54.269294 14547 net.cpp:91] Creating Layer inception_3a/5x5_reduce
I0403 15:49:54.269314 14547 net.cpp:425] inception_3a/5x5_reduce <- pool2/3x3_s2_pool2/3x3_s2_0_split_2
I0403 15:49:54.269333 14547 net.cpp:399] inception_3a/5x5_reduce -> inception_3a/5x5_reduce
I0403 15:49:54.270349 14547 net.cpp:141] Setting up inception_3a/5x5_reduce
I0403 15:49:54.270392 14547 net.cpp:148] Top shape: 24 16 28 28 (301056)
I0403 15:49:54.270409 14547 net.cpp:156] Memory required for data: 535880736
I0403 15:49:54.270428 14547 layer_factory.hpp:77] Creating layer inception_3a/relu_5x5_reduce
I0403 15:49:54.270447 14547 net.cpp:91] Creating Layer inception_3a/relu_5x5_reduce
I0403 15:49:54.270463 14547 net.cpp:425] inception_3a/relu_5x5_reduce <- inception_3a/5x5_reduce
I0403 15:49:54.270484 14547 net.cpp:386] inception_3a/relu_5x5_reduce -> inception_3a/5x5_reduce (in-place)
I0403 15:49:54.270782 14547 net.cpp:141] Setting up inception_3a/relu_5x5_reduce
I0403 15:49:54.270809 14547 net.cpp:148] Top shape: 24 16 28 28 (301056)
I0403 15:49:54.270825 14547 net.cpp:156] Memory required for data: 537084960
I0403 15:49:54.270840 14547 layer_factory.hpp:77] Creating layer inception_3a/5x5
I0403 15:49:54.270862 14547 net.cpp:91] Creating Layer inception_3a/5x5
I0403 15:49:54.270880 14547 net.cpp:425] inception_3a/5x5 <- inception_3a/5x5_reduce
I0403 15:49:54.270902 14547 net.cpp:399] inception_3a/5x5 -> inception_3a/5x5
I0403 15:49:54.271939 14547 net.cpp:141] Setting up inception_3a/5x5
I0403 15:49:54.271968 14547 net.cpp:148] Top shape: 24 32 28 28 (602112)
I0403 15:49:54.271984 14547 net.cpp:156] Memory required for data: 539493408
I0403 15:49:54.272002 14547 layer_factory.hpp:77] Creating layer inception_3a/relu_5x5
I0403 15:49:54.272023 14547 net.cpp:91] Creating Layer inception_3a/relu_5x5
I0403 15:49:54.272042 14547 net.cpp:425] inception_3a/relu_5x5 <- inception_3a/5x5
I0403 15:49:54.272060 14547 net.cpp:386] inception_3a/relu_5x5 -> inception_3a/5x5 (in-place)
I0403 15:49:54.272244 14547 net.cpp:141] Setting up inception_3a/relu_5x5
I0403 15:49:54.272270 14547 net.cpp:148] Top shape: 24 32 28 28 (602112)
I0403 15:49:54.272285 14547 net.cpp:156] Memory required for data: 541901856
I0403 15:49:54.272300 14547 layer_factory.hpp:77] Creating layer inception_3a/pool
I0403 15:49:54.272318 14547 net.cpp:91] Creating Layer inception_3a/pool
I0403 15:49:54.272333 14547 net.cpp:425] inception_3a/pool <- pool2/3x3_s2_pool2/3x3_s2_0_split_3
I0403 15:49:54.272370 14547 net.cpp:399] inception_3a/pool -> inception_3a/pool
I0403 15:49:54.272433 14547 net.cpp:141] Setting up inception_3a/pool
I0403 15:49:54.272459 14547 net.cpp:148] Top shape: 24 192 28 28 (3612672)
I0403 15:49:54.272474 14547 net.cpp:156] Memory required for data: 556352544
I0403 15:49:54.272488 14547 layer_factory.hpp:77] Creating layer inception_3a/pool_proj
I0403 15:49:54.272513 14547 net.cpp:91] Creating Layer inception_3a/pool_proj
I0403 15:49:54.272531 14547 net.cpp:425] inception_3a/pool_proj <- inception_3a/pool
I0403 15:49:54.272550 14547 net.cpp:399] inception_3a/pool_proj -> inception_3a/pool_proj
I0403 15:49:54.273542 14547 net.cpp:141] Setting up inception_3a/pool_proj
I0403 15:49:54.273571 14547 net.cpp:148] Top shape: 24 32 28 28 (602112)
I0403 15:49:54.273587 14547 net.cpp:156] Memory required for data: 558760992
I0403 15:49:54.273612 14547 layer_factory.hpp:77] Creating layer inception_3a/relu_pool_proj
I0403 15:49:54.273633 14547 net.cpp:91] Creating Layer inception_3a/relu_pool_proj
I0403 15:49:54.273648 14547 net.cpp:425] inception_3a/relu_pool_proj <- inception_3a/pool_proj
I0403 15:49:54.273666 14547 net.cpp:386] inception_3a/relu_pool_proj -> inception_3a/pool_proj (in-place)
I0403 15:49:54.273947 14547 net.cpp:141] Setting up inception_3a/relu_pool_proj
I0403 15:49:54.273974 14547 net.cpp:148] Top shape: 24 32 28 28 (602112)
I0403 15:49:54.273989 14547 net.cpp:156] Memory required for data: 561169440
I0403 15:49:54.274004 14547 layer_factory.hpp:77] Creating layer inception_3a/output
I0403 15:49:54.274025 14547 net.cpp:91] Creating Layer inception_3a/output
I0403 15:49:54.274042 14547 net.cpp:425] inception_3a/output <- inception_3a/1x1
I0403 15:49:54.274060 14547 net.cpp:425] inception_3a/output <- inception_3a/3x3
I0403 15:49:54.274075 14547 net.cpp:425] inception_3a/output <- inception_3a/5x5
I0403 15:49:54.274092 14547 net.cpp:425] inception_3a/output <- inception_3a/pool_proj
I0403 15:49:54.274109 14547 net.cpp:399] inception_3a/output -> inception_3a/output
I0403 15:49:54.274161 14547 net.cpp:141] Setting up inception_3a/output
I0403 15:49:54.274186 14547 net.cpp:148] Top shape: 24 256 28 28 (4816896)
I0403 15:49:54.274201 14547 net.cpp:156] Memory required for data: 580437024
I0403 15:49:54.274217 14547 layer_factory.hpp:77] Creating layer inception_3a/output_inception_3a/output_0_split
I0403 15:49:54.274235 14547 net.cpp:91] Creating Layer inception_3a/output_inception_3a/output_0_split
I0403 15:49:54.274250 14547 net.cpp:425] inception_3a/output_inception_3a/output_0_split <- inception_3a/output
I0403 15:49:54.274271 14547 net.cpp:399] inception_3a/output_inception_3a/output_0_split -> inception_3a/output_inception_3a/output_0_split_0
I0403 15:49:54.274292 14547 net.cpp:399] inception_3a/output_inception_3a/output_0_split -> inception_3a/output_inception_3a/output_0_split_1
I0403 15:49:54.274318 14547 net.cpp:399] inception_3a/output_inception_3a/output_0_split -> inception_3a/output_inception_3a/output_0_split_2
I0403 15:49:54.274340 14547 net.cpp:399] inception_3a/output_inception_3a/output_0_split -> inception_3a/output_inception_3a/output_0_split_3
I0403 15:49:54.274415 14547 net.cpp:141] Setting up inception_3a/output_inception_3a/output_0_split
I0403 15:49:54.274440 14547 net.cpp:148] Top shape: 24 256 28 28 (4816896)
I0403 15:49:54.274458 14547 net.cpp:148] Top shape: 24 256 28 28 (4816896)
I0403 15:49:54.274476 14547 net.cpp:148] Top shape: 24 256 28 28 (4816896)
I0403 15:49:54.274490 14547 net.cpp:148] Top shape: 24 256 28 28 (4816896)
I0403 15:49:54.274503 14547 net.cpp:156] Memory required for data: 657507360
I0403 15:49:54.274518 14547 layer_factory.hpp:77] Creating layer inception_3b/1x1
I0403 15:49:54.274538 14547 net.cpp:91] Creating Layer inception_3b/1x1
I0403 15:49:54.274555 14547 net.cpp:425] inception_3b/1x1 <- inception_3a/output_inception_3a/output_0_split_0
I0403 15:49:54.274577 14547 net.cpp:399] inception_3b/1x1 -> inception_3b/1x1
I0403 15:49:54.275741 14547 net.cpp:141] Setting up inception_3b/1x1
I0403 15:49:54.275784 14547 net.cpp:148] Top shape: 24 128 28 28 (2408448)
I0403 15:49:54.275799 14547 net.cpp:156] Memory required for data: 667141152
I0403 15:49:54.275818 14547 layer_factory.hpp:77] Creating layer inception_3b/relu_1x1
I0403 15:49:54.275838 14547 net.cpp:91] Creating Layer inception_3b/relu_1x1
I0403 15:49:54.275856 14547 net.cpp:425] inception_3b/relu_1x1 <- inception_3b/1x1
I0403 15:49:54.275873 14547 net.cpp:386] inception_3b/relu_1x1 -> inception_3b/1x1 (in-place)
I0403 15:49:54.276053 14547 net.cpp:141] Setting up inception_3b/relu_1x1
I0403 15:49:54.276082 14547 net.cpp:148] Top shape: 24 128 28 28 (2408448)
I0403 15:49:54.276100 14547 net.cpp:156] Memory required for data: 676774944
I0403 15:49:54.276115 14547 layer_factory.hpp:77] Creating layer inception_3b/3x3_reduce
I0403 15:49:54.276144 14547 net.cpp:91] Creating Layer inception_3b/3x3_reduce
I0403 15:49:54.276163 14547 net.cpp:425] inception_3b/3x3_reduce <- inception_3a/output_inception_3a/output_0_split_1
I0403 15:49:54.276182 14547 net.cpp:399] inception_3b/3x3_reduce -> inception_3b/3x3_reduce
I0403 15:49:54.277341 14547 net.cpp:141] Setting up inception_3b/3x3_reduce
I0403 15:49:54.277371 14547 net.cpp:148] Top shape: 24 128 28 28 (2408448)
I0403 15:49:54.277387 14547 net.cpp:156] Memory required for data: 686408736
I0403 15:49:54.277406 14547 layer_factory.hpp:77] Creating layer inception_3b/relu_3x3_reduce
I0403 15:49:54.277427 14547 net.cpp:91] Creating Layer inception_3b/relu_3x3_reduce
I0403 15:49:54.277446 14547 net.cpp:425] inception_3b/relu_3x3_reduce <- inception_3b/3x3_reduce
I0403 15:49:54.277462 14547 net.cpp:386] inception_3b/relu_3x3_reduce -> inception_3b/3x3_reduce (in-place)
I0403 15:49:54.277642 14547 net.cpp:141] Setting up inception_3b/relu_3x3_reduce
I0403 15:49:54.277669 14547 net.cpp:148] Top shape: 24 128 28 28 (2408448)
I0403 15:49:54.277686 14547 net.cpp:156] Memory required for data: 696042528
I0403 15:49:54.277703 14547 layer_factory.hpp:77] Creating layer inception_3b/3x3
I0403 15:49:54.277727 14547 net.cpp:91] Creating Layer inception_3b/3x3
I0403 15:49:54.277746 14547 net.cpp:425] inception_3b/3x3 <- inception_3b/3x3_reduce
I0403 15:49:54.277767 14547 net.cpp:399] inception_3b/3x3 -> inception_3b/3x3
I0403 15:49:54.280710 14547 net.cpp:141] Setting up inception_3b/3x3
I0403 15:49:54.280740 14547 net.cpp:148] Top shape: 24 192 28 28 (3612672)
I0403 15:49:54.280755 14547 net.cpp:156] Memory required for data: 710493216
I0403 15:49:54.280776 14547 layer_factory.hpp:77] Creating layer inception_3b/relu_3x3
I0403 15:49:54.280794 14547 net.cpp:91] Creating Layer inception_3b/relu_3x3
I0403 15:49:54.280809 14547 net.cpp:425] inception_3b/relu_3x3 <- inception_3b/3x3
I0403 15:49:54.280827 14547 net.cpp:386] inception_3b/relu_3x3 -> inception_3b/3x3 (in-place)
I0403 15:49:54.281102 14547 net.cpp:141] Setting up inception_3b/relu_3x3
I0403 15:49:54.281132 14547 net.cpp:148] Top shape: 24 192 28 28 (3612672)
I0403 15:49:54.281149 14547 net.cpp:156] Memory required for data: 724943904
I0403 15:49:54.281163 14547 layer_factory.hpp:77] Creating layer inception_3b/5x5_reduce
I0403 15:49:54.281188 14547 net.cpp:91] Creating Layer inception_3b/5x5_reduce
I0403 15:49:54.281206 14547 net.cpp:425] inception_3b/5x5_reduce <- inception_3a/output_inception_3a/output_0_split_2
I0403 15:49:54.281225 14547 net.cpp:399] inception_3b/5x5_reduce -> inception_3b/5x5_reduce
I0403 15:49:54.282205 14547 net.cpp:141] Setting up inception_3b/5x5_reduce
I0403 15:49:54.282233 14547 net.cpp:148] Top shape: 24 32 28 28 (602112)
I0403 15:49:54.282249 14547 net.cpp:156] Memory required for data: 727352352
I0403 15:49:54.282266 14547 layer_factory.hpp:77] Creating layer inception_3b/relu_5x5_reduce
I0403 15:49:54.282286 14547 net.cpp:91] Creating Layer inception_3b/relu_5x5_reduce
I0403 15:49:54.282305 14547 net.cpp:425] inception_3b/relu_5x5_reduce <- inception_3b/5x5_reduce
I0403 15:49:54.282322 14547 net.cpp:386] inception_3b/relu_5x5_reduce -> inception_3b/5x5_reduce (in-place)
I0403 15:49:54.282496 14547 net.cpp:141] Setting up inception_3b/relu_5x5_reduce
I0403 15:49:54.282534 14547 net.cpp:148] Top shape: 24 32 28 28 (602112)
I0403 15:49:54.282551 14547 net.cpp:156] Memory required for data: 729760800
I0403 15:49:54.282565 14547 layer_factory.hpp:77] Creating layer inception_3b/5x5
I0403 15:49:54.282587 14547 net.cpp:91] Creating Layer inception_3b/5x5
I0403 15:49:54.282604 14547 net.cpp:425] inception_3b/5x5 <- inception_3b/5x5_reduce
I0403 15:49:54.282625 14547 net.cpp:399] inception_3b/5x5 -> inception_3b/5x5
I0403 15:49:54.284595 14547 net.cpp:141] Setting up inception_3b/5x5
I0403 15:49:54.284624 14547 net.cpp:148] Top shape: 24 96 28 28 (1806336)
I0403 15:49:54.284641 14547 net.cpp:156] Memory required for data: 736986144
I0403 15:49:54.284657 14547 layer_factory.hpp:77] Creating layer inception_3b/relu_5x5
I0403 15:49:54.284677 14547 net.cpp:91] Creating Layer inception_3b/relu_5x5
I0403 15:49:54.284695 14547 net.cpp:425] inception_3b/relu_5x5 <- inception_3b/5x5
I0403 15:49:54.284713 14547 net.cpp:386] inception_3b/relu_5x5 -> inception_3b/5x5 (in-place)
I0403 15:49:54.284904 14547 net.cpp:141] Setting up inception_3b/relu_5x5
I0403 15:49:54.284929 14547 net.cpp:148] Top shape: 24 96 28 28 (1806336)
I0403 15:49:54.284943 14547 net.cpp:156] Memory required for data: 744211488
I0403 15:49:54.284957 14547 layer_factory.hpp:77] Creating layer inception_3b/pool
I0403 15:49:54.284976 14547 net.cpp:91] Creating Layer inception_3b/pool
I0403 15:49:54.284991 14547 net.cpp:425] inception_3b/pool <- inception_3a/output_inception_3a/output_0_split_3
I0403 15:49:54.285009 14547 net.cpp:399] inception_3b/pool -> inception_3b/pool
I0403 15:49:54.285064 14547 net.cpp:141] Setting up inception_3b/pool
I0403 15:49:54.285086 14547 net.cpp:148] Top shape: 24 256 28 28 (4816896)
I0403 15:49:54.285101 14547 net.cpp:156] Memory required for data: 763479072
I0403 15:49:54.285115 14547 layer_factory.hpp:77] Creating layer inception_3b/pool_proj
I0403 15:49:54.285142 14547 net.cpp:91] Creating Layer inception_3b/pool_proj
I0403 15:49:54.285161 14547 net.cpp:425] inception_3b/pool_proj <- inception_3b/pool
I0403 15:49:54.285182 14547 net.cpp:399] inception_3b/pool_proj -> inception_3b/pool_proj
I0403 15:49:54.286242 14547 net.cpp:141] Setting up inception_3b/pool_proj
I0403 15:49:54.286270 14547 net.cpp:148] Top shape: 24 64 28 28 (1204224)
I0403 15:49:54.286285 14547 net.cpp:156] Memory required for data: 768295968
I0403 15:49:54.286304 14547 layer_factory.hpp:77] Creating layer inception_3b/relu_pool_proj
I0403 15:49:54.286322 14547 net.cpp:91] Creating Layer inception_3b/relu_pool_proj
I0403 15:49:54.286339 14547 net.cpp:425] inception_3b/relu_pool_proj <- inception_3b/pool_proj
I0403 15:49:54.286358 14547 net.cpp:386] inception_3b/relu_pool_proj -> inception_3b/pool_proj (in-place)
I0403 15:49:54.286763 14547 net.cpp:141] Setting up inception_3b/relu_pool_proj
I0403 15:49:54.286792 14547 net.cpp:148] Top shape: 24 64 28 28 (1204224)
I0403 15:49:54.286809 14547 net.cpp:156] Memory required for data: 773112864
I0403 15:49:54.286824 14547 layer_factory.hpp:77] Creating layer inception_3b/output
I0403 15:49:54.286841 14547 net.cpp:91] Creating Layer inception_3b/output
I0403 15:49:54.286856 14547 net.cpp:425] inception_3b/output <- inception_3b/1x1
I0403 15:49:54.286872 14547 net.cpp:425] inception_3b/output <- inception_3b/3x3
I0403 15:49:54.286888 14547 net.cpp:425] inception_3b/output <- inception_3b/5x5
I0403 15:49:54.286903 14547 net.cpp:425] inception_3b/output <- inception_3b/pool_proj
I0403 15:49:54.286922 14547 net.cpp:399] inception_3b/output -> inception_3b/output
I0403 15:49:54.286967 14547 net.cpp:141] Setting up inception_3b/output
I0403 15:49:54.286989 14547 net.cpp:148] Top shape: 24 480 28 28 (9031680)
I0403 15:49:54.287004 14547 net.cpp:156] Memory required for data: 809239584
I0403 15:49:54.287019 14547 layer_factory.hpp:77] Creating layer pool3/3x3_s2
I0403 15:49:54.287039 14547 net.cpp:91] Creating Layer pool3/3x3_s2
I0403 15:49:54.287055 14547 net.cpp:425] pool3/3x3_s2 <- inception_3b/output
I0403 15:49:54.287072 14547 net.cpp:399] pool3/3x3_s2 -> pool3/3x3_s2
I0403 15:49:54.287152 14547 net.cpp:141] Setting up pool3/3x3_s2
I0403 15:49:54.287176 14547 net.cpp:148] Top shape: 24 480 14 14 (2257920)
I0403 15:49:54.287191 14547 net.cpp:156] Memory required for data: 818271264
I0403 15:49:54.287205 14547 layer_factory.hpp:77] Creating layer pool3/3x3_s2_pool3/3x3_s2_0_split
I0403 15:49:54.287222 14547 net.cpp:91] Creating Layer pool3/3x3_s2_pool3/3x3_s2_0_split
I0403 15:49:54.287238 14547 net.cpp:425] pool3/3x3_s2_pool3/3x3_s2_0_split <- pool3/3x3_s2
I0403 15:49:54.287257 14547 net.cpp:399] pool3/3x3_s2_pool3/3x3_s2_0_split -> pool3/3x3_s2_pool3/3x3_s2_0_split_0
I0403 15:49:54.287277 14547 net.cpp:399] pool3/3x3_s2_pool3/3x3_s2_0_split -> pool3/3x3_s2_pool3/3x3_s2_0_split_1
I0403 15:49:54.287297 14547 net.cpp:399] pool3/3x3_s2_pool3/3x3_s2_0_split -> pool3/3x3_s2_pool3/3x3_s2_0_split_2
I0403 15:49:54.287315 14547 net.cpp:399] pool3/3x3_s2_pool3/3x3_s2_0_split -> pool3/3x3_s2_pool3/3x3_s2_0_split_3
I0403 15:49:54.287394 14547 net.cpp:141] Setting up pool3/3x3_s2_pool3/3x3_s2_0_split
I0403 15:49:54.287417 14547 net.cpp:148] Top shape: 24 480 14 14 (2257920)
I0403 15:49:54.287433 14547 net.cpp:148] Top shape: 24 480 14 14 (2257920)
I0403 15:49:54.287449 14547 net.cpp:148] Top shape: 24 480 14 14 (2257920)
I0403 15:49:54.287464 14547 net.cpp:148] Top shape: 24 480 14 14 (2257920)
I0403 15:49:54.287478 14547 net.cpp:156] Memory required for data: 854397984
I0403 15:49:54.287492 14547 layer_factory.hpp:77] Creating layer inception_4a/1x1
I0403 15:49:54.287513 14547 net.cpp:91] Creating Layer inception_4a/1x1
I0403 15:49:54.287530 14547 net.cpp:425] inception_4a/1x1 <- pool3/3x3_s2_pool3/3x3_s2_0_split_0
I0403 15:49:54.287551 14547 net.cpp:399] inception_4a/1x1 -> inception_4a/1x1
I0403 15:49:54.289109 14547 net.cpp:141] Setting up inception_4a/1x1
I0403 15:49:54.289156 14547 net.cpp:148] Top shape: 24 192 14 14 (903168)
I0403 15:49:54.289173 14547 net.cpp:156] Memory required for data: 858010656
I0403 15:49:54.289201 14547 layer_factory.hpp:77] Creating layer inception_4a/relu_1x1
I0403 15:49:54.289219 14547 net.cpp:91] Creating Layer inception_4a/relu_1x1
I0403 15:49:54.289237 14547 net.cpp:425] inception_4a/relu_1x1 <- inception_4a/1x1
I0403 15:49:54.289257 14547 net.cpp:386] inception_4a/relu_1x1 -> inception_4a/1x1 (in-place)
I0403 15:49:54.289438 14547 net.cpp:141] Setting up inception_4a/relu_1x1
I0403 15:49:54.289474 14547 net.cpp:148] Top shape: 24 192 14 14 (903168)
I0403 15:49:54.289489 14547 net.cpp:156] Memory required for data: 861623328
I0403 15:49:54.289505 14547 layer_factory.hpp:77] Creating layer inception_4a/3x3_reduce
I0403 15:49:54.289527 14547 net.cpp:91] Creating Layer inception_4a/3x3_reduce
I0403 15:49:54.289546 14547 net.cpp:425] inception_4a/3x3_reduce <- pool3/3x3_s2_pool3/3x3_s2_0_split_1
I0403 15:49:54.289567 14547 net.cpp:399] inception_4a/3x3_reduce -> inception_4a/3x3_reduce
I0403 15:49:54.290874 14547 net.cpp:141] Setting up inception_4a/3x3_reduce
I0403 15:49:54.290904 14547 net.cpp:148] Top shape: 24 96 14 14 (451584)
I0403 15:49:54.290920 14547 net.cpp:156] Memory required for data: 863429664
I0403 15:49:54.290945 14547 layer_factory.hpp:77] Creating layer inception_4a/relu_3x3_reduce
I0403 15:49:54.290966 14547 net.cpp:91] Creating Layer inception_4a/relu_3x3_reduce
I0403 15:49:54.290982 14547 net.cpp:425] inception_4a/relu_3x3_reduce <- inception_4a/3x3_reduce
I0403 15:49:54.291002 14547 net.cpp:386] inception_4a/relu_3x3_reduce -> inception_4a/3x3_reduce (in-place)
I0403 15:49:54.291193 14547 net.cpp:141] Setting up inception_4a/relu_3x3_reduce
I0403 15:49:54.291220 14547 net.cpp:148] Top shape: 24 96 14 14 (451584)
I0403 15:49:54.291235 14547 net.cpp:156] Memory required for data: 865236000
I0403 15:49:54.291250 14547 layer_factory.hpp:77] Creating layer inception_4a/3x3
I0403 15:49:54.291275 14547 net.cpp:91] Creating Layer inception_4a/3x3
I0403 15:49:54.291292 14547 net.cpp:425] inception_4a/3x3 <- inception_4a/3x3_reduce
I0403 15:49:54.291314 14547 net.cpp:399] inception_4a/3x3 -> inception_4a/3x3
I0403 15:49:54.294204 14547 net.cpp:141] Setting up inception_4a/3x3
I0403 15:49:54.294235 14547 net.cpp:148] Top shape: 24 208 14 14 (978432)
I0403 15:49:54.294252 14547 net.cpp:156] Memory required for data: 869149728
I0403 15:49:54.294283 14547 layer_factory.hpp:77] Creating layer inception_4a/relu_3x3
I0403 15:49:54.294303 14547 net.cpp:91] Creating Layer inception_4a/relu_3x3
I0403 15:49:54.294320 14547 net.cpp:425] inception_4a/relu_3x3 <- inception_4a/3x3
I0403 15:49:54.294337 14547 net.cpp:386] inception_4a/relu_3x3 -> inception_4a/3x3 (in-place)
I0403 15:49:54.294623 14547 net.cpp:141] Setting up inception_4a/relu_3x3
I0403 15:49:54.294651 14547 net.cpp:148] Top shape: 24 208 14 14 (978432)
I0403 15:49:54.294667 14547 net.cpp:156] Memory required for data: 873063456
I0403 15:49:54.294682 14547 layer_factory.hpp:77] Creating layer inception_4a/5x5_reduce
I0403 15:49:54.294704 14547 net.cpp:91] Creating Layer inception_4a/5x5_reduce
I0403 15:49:54.294723 14547 net.cpp:425] inception_4a/5x5_reduce <- pool3/3x3_s2_pool3/3x3_s2_0_split_2
I0403 15:49:54.294747 14547 net.cpp:399] inception_4a/5x5_reduce -> inception_4a/5x5_reduce
I0403 15:49:54.295831 14547 net.cpp:141] Setting up inception_4a/5x5_reduce
I0403 15:49:54.295861 14547 net.cpp:148] Top shape: 24 16 14 14 (75264)
I0403 15:49:54.295876 14547 net.cpp:156] Memory required for data: 873364512
I0403 15:49:54.295894 14547 layer_factory.hpp:77] Creating layer inception_4a/relu_5x5_reduce
I0403 15:49:54.295915 14547 net.cpp:91] Creating Layer inception_4a/relu_5x5_reduce
I0403 15:49:54.295931 14547 net.cpp:425] inception_4a/relu_5x5_reduce <- inception_4a/5x5_reduce
I0403 15:49:54.295949 14547 net.cpp:386] inception_4a/relu_5x5_reduce -> inception_4a/5x5_reduce (in-place)
I0403 15:49:54.296138 14547 net.cpp:141] Setting up inception_4a/relu_5x5_reduce
I0403 15:49:54.296164 14547 net.cpp:148] Top shape: 24 16 14 14 (75264)
I0403 15:49:54.296180 14547 net.cpp:156] Memory required for data: 873665568
I0403 15:49:54.296196 14547 layer_factory.hpp:77] Creating layer inception_4a/5x5
I0403 15:49:54.296218 14547 net.cpp:91] Creating Layer inception_4a/5x5
I0403 15:49:54.296236 14547 net.cpp:425] inception_4a/5x5 <- inception_4a/5x5_reduce
I0403 15:49:54.296258 14547 net.cpp:399] inception_4a/5x5 -> inception_4a/5x5
I0403 15:49:54.297377 14547 net.cpp:141] Setting up inception_4a/5x5
I0403 15:49:54.297408 14547 net.cpp:148] Top shape: 24 48 14 14 (225792)
I0403 15:49:54.297425 14547 net.cpp:156] Memory required for data: 874568736
I0403 15:49:54.297444 14547 layer_factory.hpp:77] Creating layer inception_4a/relu_5x5
I0403 15:49:54.297463 14547 net.cpp:91] Creating Layer inception_4a/relu_5x5
I0403 15:49:54.297479 14547 net.cpp:425] inception_4a/relu_5x5 <- inception_4a/5x5
I0403 15:49:54.297498 14547 net.cpp:386] inception_4a/relu_5x5 -> inception_4a/5x5 (in-place)
I0403 15:49:54.297683 14547 net.cpp:141] Setting up inception_4a/relu_5x5
I0403 15:49:54.297708 14547 net.cpp:148] Top shape: 24 48 14 14 (225792)
I0403 15:49:54.297724 14547 net.cpp:156] Memory required for data: 875471904
I0403 15:49:54.297737 14547 layer_factory.hpp:77] Creating layer inception_4a/pool
I0403 15:49:54.297755 14547 net.cpp:91] Creating Layer inception_4a/pool
I0403 15:49:54.297771 14547 net.cpp:425] inception_4a/pool <- pool3/3x3_s2_pool3/3x3_s2_0_split_3
I0403 15:49:54.297792 14547 net.cpp:399] inception_4a/pool -> inception_4a/pool
I0403 15:49:54.297857 14547 net.cpp:141] Setting up inception_4a/pool
I0403 15:49:54.297881 14547 net.cpp:148] Top shape: 24 480 14 14 (2257920)
I0403 15:49:54.297897 14547 net.cpp:156] Memory required for data: 884503584
I0403 15:49:54.297911 14547 layer_factory.hpp:77] Creating layer inception_4a/pool_proj
I0403 15:49:54.297933 14547 net.cpp:91] Creating Layer inception_4a/pool_proj
I0403 15:49:54.297951 14547 net.cpp:425] inception_4a/pool_proj <- inception_4a/pool
I0403 15:49:54.297976 14547 net.cpp:399] inception_4a/pool_proj -> inception_4a/pool_proj
I0403 15:49:54.299198 14547 net.cpp:141] Setting up inception_4a/pool_proj
I0403 15:49:54.299228 14547 net.cpp:148] Top shape: 24 64 14 14 (301056)
I0403 15:49:54.299260 14547 net.cpp:156] Memory required for data: 885707808
I0403 15:49:54.299280 14547 layer_factory.hpp:77] Creating layer inception_4a/relu_pool_proj
I0403 15:49:54.299301 14547 net.cpp:91] Creating Layer inception_4a/relu_pool_proj
I0403 15:49:54.299319 14547 net.cpp:425] inception_4a/relu_pool_proj <- inception_4a/pool_proj
I0403 15:49:54.299337 14547 net.cpp:386] inception_4a/relu_pool_proj -> inception_4a/pool_proj (in-place)
I0403 15:49:54.299659 14547 net.cpp:141] Setting up inception_4a/relu_pool_proj
I0403 15:49:54.299685 14547 net.cpp:148] Top shape: 24 64 14 14 (301056)
I0403 15:49:54.299700 14547 net.cpp:156] Memory required for data: 886912032
I0403 15:49:54.299715 14547 layer_factory.hpp:77] Creating layer inception_4a/output
I0403 15:49:54.299732 14547 net.cpp:91] Creating Layer inception_4a/output
I0403 15:49:54.299747 14547 net.cpp:425] inception_4a/output <- inception_4a/1x1
I0403 15:49:54.299764 14547 net.cpp:425] inception_4a/output <- inception_4a/3x3
I0403 15:49:54.299782 14547 net.cpp:425] inception_4a/output <- inception_4a/5x5
I0403 15:49:54.299798 14547 net.cpp:425] inception_4a/output <- inception_4a/pool_proj
I0403 15:49:54.299818 14547 net.cpp:399] inception_4a/output -> inception_4a/output
I0403 15:49:54.299862 14547 net.cpp:141] Setting up inception_4a/output
I0403 15:49:54.299890 14547 net.cpp:148] Top shape: 24 512 14 14 (2408448)
I0403 15:49:54.299906 14547 net.cpp:156] Memory required for data: 896545824
I0403 15:49:54.299921 14547 layer_factory.hpp:77] Creating layer inception_4a/output_inception_4a/output_0_split
I0403 15:49:54.299938 14547 net.cpp:91] Creating Layer inception_4a/output_inception_4a/output_0_split
I0403 15:49:54.299953 14547 net.cpp:425] inception_4a/output_inception_4a/output_0_split <- inception_4a/output
I0403 15:49:54.299974 14547 net.cpp:399] inception_4a/output_inception_4a/output_0_split -> inception_4a/output_inception_4a/output_0_split_0
I0403 15:49:54.299995 14547 net.cpp:399] inception_4a/output_inception_4a/output_0_split -> inception_4a/output_inception_4a/output_0_split_1
I0403 15:49:54.300015 14547 net.cpp:399] inception_4a/output_inception_4a/output_0_split -> inception_4a/output_inception_4a/output_0_split_2
I0403 15:49:54.300036 14547 net.cpp:399] inception_4a/output_inception_4a/output_0_split -> inception_4a/output_inception_4a/output_0_split_3
I0403 15:49:54.300056 14547 net.cpp:399] inception_4a/output_inception_4a/output_0_split -> inception_4a/output_inception_4a/output_0_split_4
I0403 15:49:54.300154 14547 net.cpp:141] Setting up inception_4a/output_inception_4a/output_0_split
I0403 15:49:54.300180 14547 net.cpp:148] Top shape: 24 512 14 14 (2408448)
I0403 15:49:54.300197 14547 net.cpp:148] Top shape: 24 512 14 14 (2408448)
I0403 15:49:54.300214 14547 net.cpp:148] Top shape: 24 512 14 14 (2408448)
I0403 15:49:54.300228 14547 net.cpp:148] Top shape: 24 512 14 14 (2408448)
I0403 15:49:54.300243 14547 net.cpp:148] Top shape: 24 512 14 14 (2408448)
I0403 15:49:54.300257 14547 net.cpp:156] Memory required for data: 944714784
I0403 15:49:54.300272 14547 layer_factory.hpp:77] Creating layer loss1/ave_pool
I0403 15:49:54.300292 14547 net.cpp:91] Creating Layer loss1/ave_pool
I0403 15:49:54.300310 14547 net.cpp:425] loss1/ave_pool <- inception_4a/output_inception_4a/output_0_split_0
I0403 15:49:54.300329 14547 net.cpp:399] loss1/ave_pool -> loss1/ave_pool
I0403 15:49:54.300540 14547 net.cpp:141] Setting up loss1/ave_pool
I0403 15:49:54.300567 14547 net.cpp:148] Top shape: 24 512 4 4 (196608)
I0403 15:49:54.300582 14547 net.cpp:156] Memory required for data: 945501216
I0403 15:49:54.300597 14547 layer_factory.hpp:77] Creating layer loss1/conv
I0403 15:49:54.300621 14547 net.cpp:91] Creating Layer loss1/conv
I0403 15:49:54.300637 14547 net.cpp:425] loss1/conv <- loss1/ave_pool
I0403 15:49:54.300658 14547 net.cpp:399] loss1/conv -> loss1/conv
I0403 15:49:54.302111 14547 net.cpp:141] Setting up loss1/conv
I0403 15:49:54.302145 14547 net.cpp:148] Top shape: 24 128 4 4 (49152)
I0403 15:49:54.302161 14547 net.cpp:156] Memory required for data: 945697824
I0403 15:49:54.302199 14547 layer_factory.hpp:77] Creating layer loss1/relu_conv
I0403 15:49:54.302222 14547 net.cpp:91] Creating Layer loss1/relu_conv
I0403 15:49:54.302240 14547 net.cpp:425] loss1/relu_conv <- loss1/conv
I0403 15:49:54.302258 14547 net.cpp:386] loss1/relu_conv -> loss1/conv (in-place)
I0403 15:49:54.302549 14547 net.cpp:141] Setting up loss1/relu_conv
I0403 15:49:54.302577 14547 net.cpp:148] Top shape: 24 128 4 4 (49152)
I0403 15:49:54.302592 14547 net.cpp:156] Memory required for data: 945894432
I0403 15:49:54.302606 14547 layer_factory.hpp:77] Creating layer loss1/fc
I0403 15:49:54.302633 14547 net.cpp:91] Creating Layer loss1/fc
I0403 15:49:54.302652 14547 net.cpp:425] loss1/fc <- loss1/conv
I0403 15:49:54.302673 14547 net.cpp:399] loss1/fc -> loss1/fc
I0403 15:49:54.320701 14547 net.cpp:141] Setting up loss1/fc
I0403 15:49:54.320736 14547 net.cpp:148] Top shape: 24 1024 (24576)
I0403 15:49:54.320752 14547 net.cpp:156] Memory required for data: 945992736
I0403 15:49:54.320771 14547 layer_factory.hpp:77] Creating layer loss1/relu_fc
I0403 15:49:54.320788 14547 net.cpp:91] Creating Layer loss1/relu_fc
I0403 15:49:54.320802 14547 net.cpp:425] loss1/relu_fc <- loss1/fc
I0403 15:49:54.320822 14547 net.cpp:386] loss1/relu_fc -> loss1/fc (in-place)
I0403 15:49:54.321007 14547 net.cpp:141] Setting up loss1/relu_fc
I0403 15:49:54.321033 14547 net.cpp:148] Top shape: 24 1024 (24576)
I0403 15:49:54.321048 14547 net.cpp:156] Memory required for data: 946091040
I0403 15:49:54.321063 14547 layer_factory.hpp:77] Creating layer loss1/drop_fc
I0403 15:49:54.321089 14547 net.cpp:91] Creating Layer loss1/drop_fc
I0403 15:49:54.321107 14547 net.cpp:425] loss1/drop_fc <- loss1/fc
I0403 15:49:54.321128 14547 net.cpp:386] loss1/drop_fc -> loss1/fc (in-place)
I0403 15:49:54.321180 14547 net.cpp:141] Setting up loss1/drop_fc
I0403 15:49:54.321208 14547 net.cpp:148] Top shape: 24 1024 (24576)
I0403 15:49:54.321224 14547 net.cpp:156] Memory required for data: 946189344
I0403 15:49:54.321239 14547 layer_factory.hpp:77] Creating layer loss1/classifier_plantvillage
I0403 15:49:54.321257 14547 net.cpp:91] Creating Layer loss1/classifier_plantvillage
I0403 15:49:54.321274 14547 net.cpp:425] loss1/classifier_plantvillage <- loss1/fc
I0403 15:49:54.321295 14547 net.cpp:399] loss1/classifier_plantvillage -> loss1/classifier_plantvillage
I0403 15:49:54.322196 14547 net.cpp:141] Setting up loss1/classifier_plantvillage
I0403 15:49:54.322224 14547 net.cpp:148] Top shape: 24 38 (912)
I0403 15:49:54.322239 14547 net.cpp:156] Memory required for data: 946192992
I0403 15:49:54.322257 14547 layer_factory.hpp:77] Creating layer loss1/classifier_plantvillage_loss1/classifier_plantvillage_0_split
I0403 15:49:54.322274 14547 net.cpp:91] Creating Layer loss1/classifier_plantvillage_loss1/classifier_plantvillage_0_split
I0403 15:49:54.322289 14547 net.cpp:425] loss1/classifier_plantvillage_loss1/classifier_plantvillage_0_split <- loss1/classifier_plantvillage
I0403 15:49:54.322309 14547 net.cpp:399] loss1/classifier_plantvillage_loss1/classifier_plantvillage_0_split -> loss1/classifier_plantvillage_loss1/classifier_plantvillage_0_split_0
I0403 15:49:54.322330 14547 net.cpp:399] loss1/classifier_plantvillage_loss1/classifier_plantvillage_0_split -> loss1/classifier_plantvillage_loss1/classifier_plantvillage_0_split_1
I0403 15:49:54.322350 14547 net.cpp:399] loss1/classifier_plantvillage_loss1/classifier_plantvillage_0_split -> loss1/classifier_plantvillage_loss1/classifier_plantvillage_0_split_2
I0403 15:49:54.322417 14547 net.cpp:141] Setting up loss1/classifier_plantvillage_loss1/classifier_plantvillage_0_split
I0403 15:49:54.322441 14547 net.cpp:148] Top shape: 24 38 (912)
I0403 15:49:54.322456 14547 net.cpp:148] Top shape: 24 38 (912)
I0403 15:49:54.322471 14547 net.cpp:148] Top shape: 24 38 (912)
I0403 15:49:54.322485 14547 net.cpp:156] Memory required for data: 946203936
I0403 15:49:54.322499 14547 layer_factory.hpp:77] Creating layer inception_4b/1x1
I0403 15:49:54.322520 14547 net.cpp:91] Creating Layer inception_4b/1x1
I0403 15:49:54.322553 14547 net.cpp:425] inception_4b/1x1 <- inception_4a/output_inception_4a/output_0_split_1
I0403 15:49:54.322574 14547 net.cpp:399] inception_4b/1x1 -> inception_4b/1x1
I0403 15:49:54.324254 14547 net.cpp:141] Setting up inception_4b/1x1
I0403 15:49:54.324283 14547 net.cpp:148] Top shape: 24 160 14 14 (752640)
I0403 15:49:54.324300 14547 net.cpp:156] Memory required for data: 949214496
I0403 15:49:54.324317 14547 layer_factory.hpp:77] Creating layer inception_4b/relu_1x1
I0403 15:49:54.324337 14547 net.cpp:91] Creating Layer inception_4b/relu_1x1
I0403 15:49:54.324355 14547 net.cpp:425] inception_4b/relu_1x1 <- inception_4b/1x1
I0403 15:49:54.324373 14547 net.cpp:386] inception_4b/relu_1x1 -> inception_4b/1x1 (in-place)
I0403 15:49:54.324550 14547 net.cpp:141] Setting up inception_4b/relu_1x1
I0403 15:49:54.324579 14547 net.cpp:148] Top shape: 24 160 14 14 (752640)
I0403 15:49:54.324592 14547 net.cpp:156] Memory required for data: 952225056
I0403 15:49:54.324607 14547 layer_factory.hpp:77] Creating layer inception_4b/3x3_reduce
I0403 15:49:54.324630 14547 net.cpp:91] Creating Layer inception_4b/3x3_reduce
I0403 15:49:54.324650 14547 net.cpp:425] inception_4b/3x3_reduce <- inception_4a/output_inception_4a/output_0_split_2
I0403 15:49:54.324671 14547 net.cpp:399] inception_4b/3x3_reduce -> inception_4b/3x3_reduce
I0403 15:49:54.326020 14547 net.cpp:141] Setting up inception_4b/3x3_reduce
I0403 15:49:54.326050 14547 net.cpp:148] Top shape: 24 112 14 14 (526848)
I0403 15:49:54.326067 14547 net.cpp:156] Memory required for data: 954332448
I0403 15:49:54.326084 14547 layer_factory.hpp:77] Creating layer inception_4b/relu_3x3_reduce
I0403 15:49:54.326102 14547 net.cpp:91] Creating Layer inception_4b/relu_3x3_reduce
I0403 15:49:54.326118 14547 net.cpp:425] inception_4b/relu_3x3_reduce <- inception_4b/3x3_reduce
I0403 15:49:54.326141 14547 net.cpp:386] inception_4b/relu_3x3_reduce -> inception_4b/3x3_reduce (in-place)
I0403 15:49:54.326427 14547 net.cpp:141] Setting up inception_4b/relu_3x3_reduce
I0403 15:49:54.326457 14547 net.cpp:148] Top shape: 24 112 14 14 (526848)
I0403 15:49:54.326473 14547 net.cpp:156] Memory required for data: 956439840
I0403 15:49:54.326488 14547 layer_factory.hpp:77] Creating layer inception_4b/3x3
I0403 15:49:54.326510 14547 net.cpp:91] Creating Layer inception_4b/3x3
I0403 15:49:54.326529 14547 net.cpp:425] inception_4b/3x3 <- inception_4b/3x3_reduce
I0403 15:49:54.326547 14547 net.cpp:399] inception_4b/3x3 -> inception_4b/3x3
I0403 15:49:54.329550 14547 net.cpp:141] Setting up inception_4b/3x3
I0403 15:49:54.329579 14547 net.cpp:148] Top shape: 24 224 14 14 (1053696)
I0403 15:49:54.329596 14547 net.cpp:156] Memory required for data: 960654624
I0403 15:49:54.329613 14547 layer_factory.hpp:77] Creating layer inception_4b/relu_3x3
I0403 15:49:54.329632 14547 net.cpp:91] Creating Layer inception_4b/relu_3x3
I0403 15:49:54.329649 14547 net.cpp:425] inception_4b/relu_3x3 <- inception_4b/3x3
I0403 15:49:54.329669 14547 net.cpp:386] inception_4b/relu_3x3 -> inception_4b/3x3 (in-place)
I0403 15:49:54.329852 14547 net.cpp:141] Setting up inception_4b/relu_3x3
I0403 15:49:54.329879 14547 net.cpp:148] Top shape: 24 224 14 14 (1053696)
I0403 15:49:54.329891 14547 net.cpp:156] Memory required for data: 964869408
I0403 15:49:54.329906 14547 layer_factory.hpp:77] Creating layer inception_4b/5x5_reduce
I0403 15:49:54.329928 14547 net.cpp:91] Creating Layer inception_4b/5x5_reduce
I0403 15:49:54.329946 14547 net.cpp:425] inception_4b/5x5_reduce <- inception_4a/output_inception_4a/output_0_split_3
I0403 15:49:54.329967 14547 net.cpp:399] inception_4b/5x5_reduce -> inception_4b/5x5_reduce
I0403 15:49:54.331084 14547 net.cpp:141] Setting up inception_4b/5x5_reduce
I0403 15:49:54.331115 14547 net.cpp:148] Top shape: 24 24 14 14 (112896)
I0403 15:49:54.331137 14547 net.cpp:156] Memory required for data: 965320992
I0403 15:49:54.331156 14547 layer_factory.hpp:77] Creating layer inception_4b/relu_5x5_reduce
I0403 15:49:54.331176 14547 net.cpp:91] Creating Layer inception_4b/relu_5x5_reduce
I0403 15:49:54.331208 14547 net.cpp:425] inception_4b/relu_5x5_reduce <- inception_4b/5x5_reduce
I0403 15:49:54.331228 14547 net.cpp:386] inception_4b/relu_5x5_reduce -> inception_4b/5x5_reduce (in-place)
I0403 15:49:54.331439 14547 net.cpp:141] Setting up inception_4b/relu_5x5_reduce
I0403 15:49:54.331466 14547 net.cpp:148] Top shape: 24 24 14 14 (112896)
I0403 15:49:54.331482 14547 net.cpp:156] Memory required for data: 965772576
I0403 15:49:54.331498 14547 layer_factory.hpp:77] Creating layer inception_4b/5x5
I0403 15:49:54.331521 14547 net.cpp:91] Creating Layer inception_4b/5x5
I0403 15:49:54.331538 14547 net.cpp:425] inception_4b/5x5 <- inception_4b/5x5_reduce
I0403 15:49:54.331560 14547 net.cpp:399] inception_4b/5x5 -> inception_4b/5x5
I0403 15:49:54.332804 14547 net.cpp:141] Setting up inception_4b/5x5
I0403 15:49:54.332834 14547 net.cpp:148] Top shape: 24 64 14 14 (301056)
I0403 15:49:54.332849 14547 net.cpp:156] Memory required for data: 966976800
I0403 15:49:54.332867 14547 layer_factory.hpp:77] Creating layer inception_4b/relu_5x5
I0403 15:49:54.332887 14547 net.cpp:91] Creating Layer inception_4b/relu_5x5
I0403 15:49:54.332904 14547 net.cpp:425] inception_4b/relu_5x5 <- inception_4b/5x5
I0403 15:49:54.332921 14547 net.cpp:386] inception_4b/relu_5x5 -> inception_4b/5x5 (in-place)
I0403 15:49:54.333216 14547 net.cpp:141] Setting up inception_4b/relu_5x5
I0403 15:49:54.333243 14547 net.cpp:148] Top shape: 24 64 14 14 (301056)
I0403 15:49:54.333259 14547 net.cpp:156] Memory required for data: 968181024
I0403 15:49:54.333276 14547 layer_factory.hpp:77] Creating layer inception_4b/pool
I0403 15:49:54.333295 14547 net.cpp:91] Creating Layer inception_4b/pool
I0403 15:49:54.333312 14547 net.cpp:425] inception_4b/pool <- inception_4a/output_inception_4a/output_0_split_4
I0403 15:49:54.333329 14547 net.cpp:399] inception_4b/pool -> inception_4b/pool
I0403 15:49:54.333394 14547 net.cpp:141] Setting up inception_4b/pool
I0403 15:49:54.333418 14547 net.cpp:148] Top shape: 24 512 14 14 (2408448)
I0403 15:49:54.333433 14547 net.cpp:156] Memory required for data: 977814816
I0403 15:49:54.333447 14547 layer_factory.hpp:77] Creating layer inception_4b/pool_proj
I0403 15:49:54.333469 14547 net.cpp:91] Creating Layer inception_4b/pool_proj
I0403 15:49:54.333487 14547 net.cpp:425] inception_4b/pool_proj <- inception_4b/pool
I0403 15:49:54.333509 14547 net.cpp:399] inception_4b/pool_proj -> inception_4b/pool_proj
I0403 15:49:54.334708 14547 net.cpp:141] Setting up inception_4b/pool_proj
I0403 15:49:54.334736 14547 net.cpp:148] Top shape: 24 64 14 14 (301056)
I0403 15:49:54.334751 14547 net.cpp:156] Memory required for data: 979019040
I0403 15:49:54.334770 14547 layer_factory.hpp:77] Creating layer inception_4b/relu_pool_proj
I0403 15:49:54.334789 14547 net.cpp:91] Creating Layer inception_4b/relu_pool_proj
I0403 15:49:54.334806 14547 net.cpp:425] inception_4b/relu_pool_proj <- inception_4b/pool_proj
I0403 15:49:54.334823 14547 net.cpp:386] inception_4b/relu_pool_proj -> inception_4b/pool_proj (in-place)
I0403 15:49:54.335005 14547 net.cpp:141] Setting up inception_4b/relu_pool_proj
I0403 15:49:54.335031 14547 net.cpp:148] Top shape: 24 64 14 14 (301056)
I0403 15:49:54.335046 14547 net.cpp:156] Memory required for data: 980223264
I0403 15:49:54.335060 14547 layer_factory.hpp:77] Creating layer inception_4b/output
I0403 15:49:54.335078 14547 net.cpp:91] Creating Layer inception_4b/output
I0403 15:49:54.335093 14547 net.cpp:425] inception_4b/output <- inception_4b/1x1
I0403 15:49:54.335109 14547 net.cpp:425] inception_4b/output <- inception_4b/3x3
I0403 15:49:54.335127 14547 net.cpp:425] inception_4b/output <- inception_4b/5x5
I0403 15:49:54.335146 14547 net.cpp:425] inception_4b/output <- inception_4b/pool_proj
I0403 15:49:54.335166 14547 net.cpp:399] inception_4b/output -> inception_4b/output
I0403 15:49:54.335212 14547 net.cpp:141] Setting up inception_4b/output
I0403 15:49:54.335238 14547 net.cpp:148] Top shape: 24 512 14 14 (2408448)
I0403 15:49:54.335253 14547 net.cpp:156] Memory required for data: 989857056
I0403 15:49:54.335283 14547 layer_factory.hpp:77] Creating layer inception_4b/output_inception_4b/output_0_split
I0403 15:49:54.335301 14547 net.cpp:91] Creating Layer inception_4b/output_inception_4b/output_0_split
I0403 15:49:54.335317 14547 net.cpp:425] inception_4b/output_inception_4b/output_0_split <- inception_4b/output
I0403 15:49:54.335335 14547 net.cpp:399] inception_4b/output_inception_4b/output_0_split -> inception_4b/output_inception_4b/output_0_split_0
I0403 15:49:54.335366 14547 net.cpp:399] inception_4b/output_inception_4b/output_0_split -> inception_4b/output_inception_4b/output_0_split_1
I0403 15:49:54.335388 14547 net.cpp:399] inception_4b/output_inception_4b/output_0_split -> inception_4b/output_inception_4b/output_0_split_2
I0403 15:49:54.335412 14547 net.cpp:399] inception_4b/output_inception_4b/output_0_split -> inception_4b/output_inception_4b/output_0_split_3
I0403 15:49:54.335499 14547 net.cpp:141] Setting up inception_4b/output_inception_4b/output_0_split
I0403 15:49:54.335523 14547 net.cpp:148] Top shape: 24 512 14 14 (2408448)
I0403 15:49:54.335541 14547 net.cpp:148] Top shape: 24 512 14 14 (2408448)
I0403 15:49:54.335556 14547 net.cpp:148] Top shape: 24 512 14 14 (2408448)
I0403 15:49:54.335572 14547 net.cpp:148] Top shape: 24 512 14 14 (2408448)
I0403 15:49:54.335584 14547 net.cpp:156] Memory required for data: 1028392224
I0403 15:49:54.335599 14547 layer_factory.hpp:77] Creating layer inception_4c/1x1
I0403 15:49:54.335623 14547 net.cpp:91] Creating Layer inception_4c/1x1
I0403 15:49:54.335652 14547 net.cpp:425] inception_4c/1x1 <- inception_4b/output_inception_4b/output_0_split_0
I0403 15:49:54.335674 14547 net.cpp:399] inception_4c/1x1 -> inception_4c/1x1
I0403 15:49:54.337105 14547 net.cpp:141] Setting up inception_4c/1x1
I0403 15:49:54.337152 14547 net.cpp:148] Top shape: 24 128 14 14 (602112)
I0403 15:49:54.337168 14547 net.cpp:156] Memory required for data: 1030800672
I0403 15:49:54.337198 14547 layer_factory.hpp:77] Creating layer inception_4c/relu_1x1
I0403 15:49:54.337216 14547 net.cpp:91] Creating Layer inception_4c/relu_1x1
I0403 15:49:54.337232 14547 net.cpp:425] inception_4c/relu_1x1 <- inception_4c/1x1
I0403 15:49:54.337252 14547 net.cpp:386] inception_4c/relu_1x1 -> inception_4c/1x1 (in-place)
I0403 15:49:54.337445 14547 net.cpp:141] Setting up inception_4c/relu_1x1
I0403 15:49:54.337481 14547 net.cpp:148] Top shape: 24 128 14 14 (602112)
I0403 15:49:54.337496 14547 net.cpp:156] Memory required for data: 1033209120
I0403 15:49:54.337510 14547 layer_factory.hpp:77] Creating layer inception_4c/3x3_reduce
I0403 15:49:54.337533 14547 net.cpp:91] Creating Layer inception_4c/3x3_reduce
I0403 15:49:54.337551 14547 net.cpp:425] inception_4c/3x3_reduce <- inception_4b/output_inception_4b/output_0_split_1
I0403 15:49:54.337574 14547 net.cpp:399] inception_4c/3x3_reduce -> inception_4c/3x3_reduce
I0403 15:49:54.339582 14547 net.cpp:141] Setting up inception_4c/3x3_reduce
I0403 15:49:54.339613 14547 net.cpp:148] Top shape: 24 128 14 14 (602112)
I0403 15:49:54.339630 14547 net.cpp:156] Memory required for data: 1035617568
I0403 15:49:54.339661 14547 layer_factory.hpp:77] Creating layer inception_4c/relu_3x3_reduce
I0403 15:49:54.339681 14547 net.cpp:91] Creating Layer inception_4c/relu_3x3_reduce
I0403 15:49:54.339699 14547 net.cpp:425] inception_4c/relu_3x3_reduce <- inception_4c/3x3_reduce
I0403 15:49:54.339715 14547 net.cpp:386] inception_4c/relu_3x3_reduce -> inception_4c/3x3_reduce (in-place)
I0403 15:49:54.340009 14547 net.cpp:141] Setting up inception_4c/relu_3x3_reduce
I0403 15:49:54.340037 14547 net.cpp:148] Top shape: 24 128 14 14 (602112)
I0403 15:49:54.340054 14547 net.cpp:156] Memory required for data: 1038026016
I0403 15:49:54.340070 14547 layer_factory.hpp:77] Creating layer inception_4c/3x3
I0403 15:49:54.340092 14547 net.cpp:91] Creating Layer inception_4c/3x3
I0403 15:49:54.340111 14547 net.cpp:425] inception_4c/3x3 <- inception_4c/3x3_reduce
I0403 15:49:54.340137 14547 net.cpp:399] inception_4c/3x3 -> inception_4c/3x3
I0403 15:49:54.343895 14547 net.cpp:141] Setting up inception_4c/3x3
I0403 15:49:54.343940 14547 net.cpp:148] Top shape: 24 256 14 14 (1204224)
I0403 15:49:54.343955 14547 net.cpp:156] Memory required for data: 1042842912
I0403 15:49:54.343988 14547 layer_factory.hpp:77] Creating layer inception_4c/relu_3x3
I0403 15:49:54.344012 14547 net.cpp:91] Creating Layer inception_4c/relu_3x3
I0403 15:49:54.344030 14547 net.cpp:425] inception_4c/relu_3x3 <- inception_4c/3x3
I0403 15:49:54.344048 14547 net.cpp:386] inception_4c/relu_3x3 -> inception_4c/3x3 (in-place)
I0403 15:49:54.344243 14547 net.cpp:141] Setting up inception_4c/relu_3x3
I0403 15:49:54.344270 14547 net.cpp:148] Top shape: 24 256 14 14 (1204224)
I0403 15:49:54.344286 14547 net.cpp:156] Memory required for data: 1047659808
I0403 15:49:54.344302 14547 layer_factory.hpp:77] Creating layer inception_4c/5x5_reduce
I0403 15:49:54.344326 14547 net.cpp:91] Creating Layer inception_4c/5x5_reduce
I0403 15:49:54.344344 14547 net.cpp:425] inception_4c/5x5_reduce <- inception_4b/output_inception_4b/output_0_split_2
I0403 15:49:54.344364 14547 net.cpp:399] inception_4c/5x5_reduce -> inception_4c/5x5_reduce
I0403 15:49:54.345502 14547 net.cpp:141] Setting up inception_4c/5x5_reduce
I0403 15:49:54.345535 14547 net.cpp:148] Top shape: 24 24 14 14 (112896)
I0403 15:49:54.345551 14547 net.cpp:156] Memory required for data: 1048111392
I0403 15:49:54.345569 14547 layer_factory.hpp:77] Creating layer inception_4c/relu_5x5_reduce
I0403 15:49:54.345587 14547 net.cpp:91] Creating Layer inception_4c/relu_5x5_reduce
I0403 15:49:54.345604 14547 net.cpp:425] inception_4c/relu_5x5_reduce <- inception_4c/5x5_reduce
I0403 15:49:54.345623 14547 net.cpp:386] inception_4c/relu_5x5_reduce -> inception_4c/5x5_reduce (in-place)
I0403 15:49:54.345818 14547 net.cpp:141] Setting up inception_4c/relu_5x5_reduce
I0403 15:49:54.345846 14547 net.cpp:148] Top shape: 24 24 14 14 (112896)
I0403 15:49:54.345862 14547 net.cpp:156] Memory required for data: 1048562976
I0403 15:49:54.345877 14547 layer_factory.hpp:77] Creating layer inception_4c/5x5
I0403 15:49:54.345899 14547 net.cpp:91] Creating Layer inception_4c/5x5
I0403 15:49:54.345917 14547 net.cpp:425] inception_4c/5x5 <- inception_4c/5x5_reduce
I0403 15:49:54.345937 14547 net.cpp:399] inception_4c/5x5 -> inception_4c/5x5
I0403 15:49:54.347231 14547 net.cpp:141] Setting up inception_4c/5x5
I0403 15:49:54.347260 14547 net.cpp:148] Top shape: 24 64 14 14 (301056)
I0403 15:49:54.347276 14547 net.cpp:156] Memory required for data: 1049767200
I0403 15:49:54.347295 14547 layer_factory.hpp:77] Creating layer inception_4c/relu_5x5
I0403 15:49:54.347313 14547 net.cpp:91] Creating Layer inception_4c/relu_5x5
I0403 15:49:54.347329 14547 net.cpp:425] inception_4c/relu_5x5 <- inception_4c/5x5
I0403 15:49:54.347349 14547 net.cpp:386] inception_4c/relu_5x5 -> inception_4c/5x5 (in-place)
I0403 15:49:54.347679 14547 net.cpp:141] Setting up inception_4c/relu_5x5
I0403 15:49:54.347707 14547 net.cpp:148] Top shape: 24 64 14 14 (301056)
I0403 15:49:54.347721 14547 net.cpp:156] Memory required for data: 1050971424
I0403 15:49:54.347738 14547 layer_factory.hpp:77] Creating layer inception_4c/pool
I0403 15:49:54.347755 14547 net.cpp:91] Creating Layer inception_4c/pool
I0403 15:49:54.347771 14547 net.cpp:425] inception_4c/pool <- inception_4b/output_inception_4b/output_0_split_3
I0403 15:49:54.347791 14547 net.cpp:399] inception_4c/pool -> inception_4c/pool
I0403 15:49:54.347859 14547 net.cpp:141] Setting up inception_4c/pool
I0403 15:49:54.347885 14547 net.cpp:148] Top shape: 24 512 14 14 (2408448)
I0403 15:49:54.347900 14547 net.cpp:156] Memory required for data: 1060605216
I0403 15:49:54.347915 14547 layer_factory.hpp:77] Creating layer inception_4c/pool_proj
I0403 15:49:54.347939 14547 net.cpp:91] Creating Layer inception_4c/pool_proj
I0403 15:49:54.347959 14547 net.cpp:425] inception_4c/pool_proj <- inception_4c/pool
I0403 15:49:54.347977 14547 net.cpp:399] inception_4c/pool_proj -> inception_4c/pool_proj
I0403 15:49:54.349242 14547 net.cpp:141] Setting up inception_4c/pool_proj
I0403 15:49:54.349272 14547 net.cpp:148] Top shape: 24 64 14 14 (301056)
I0403 15:49:54.349303 14547 net.cpp:156] Memory required for data: 1061809440
I0403 15:49:54.349323 14547 layer_factory.hpp:77] Creating layer inception_4c/relu_pool_proj
I0403 15:49:54.349344 14547 net.cpp:91] Creating Layer inception_4c/relu_pool_proj
I0403 15:49:54.349361 14547 net.cpp:425] inception_4c/relu_pool_proj <- inception_4c/pool_proj
I0403 15:49:54.349378 14547 net.cpp:386] inception_4c/relu_pool_proj -> inception_4c/pool_proj (in-place)
I0403 15:49:54.349571 14547 net.cpp:141] Setting up inception_4c/relu_pool_proj
I0403 15:49:54.349598 14547 net.cpp:148] Top shape: 24 64 14 14 (301056)
I0403 15:49:54.349613 14547 net.cpp:156] Memory required for data: 1063013664
I0403 15:49:54.349628 14547 layer_factory.hpp:77] Creating layer inception_4c/output
I0403 15:49:54.349645 14547 net.cpp:91] Creating Layer inception_4c/output
I0403 15:49:54.349660 14547 net.cpp:425] inception_4c/output <- inception_4c/1x1
I0403 15:49:54.349678 14547 net.cpp:425] inception_4c/output <- inception_4c/3x3
I0403 15:49:54.349694 14547 net.cpp:425] inception_4c/output <- inception_4c/5x5
I0403 15:49:54.349709 14547 net.cpp:425] inception_4c/output <- inception_4c/pool_proj
I0403 15:49:54.349730 14547 net.cpp:399] inception_4c/output -> inception_4c/output
I0403 15:49:54.349777 14547 net.cpp:141] Setting up inception_4c/output
I0403 15:49:54.349804 14547 net.cpp:148] Top shape: 24 512 14 14 (2408448)
I0403 15:49:54.349820 14547 net.cpp:156] Memory required for data: 1072647456
I0403 15:49:54.349836 14547 layer_factory.hpp:77] Creating layer inception_4c/output_inception_4c/output_0_split
I0403 15:49:54.349853 14547 net.cpp:91] Creating Layer inception_4c/output_inception_4c/output_0_split
I0403 15:49:54.349869 14547 net.cpp:425] inception_4c/output_inception_4c/output_0_split <- inception_4c/output
I0403 15:49:54.349886 14547 net.cpp:399] inception_4c/output_inception_4c/output_0_split -> inception_4c/output_inception_4c/output_0_split_0
I0403 15:49:54.349906 14547 net.cpp:399] inception_4c/output_inception_4c/output_0_split -> inception_4c/output_inception_4c/output_0_split_1
I0403 15:49:54.349927 14547 net.cpp:399] inception_4c/output_inception_4c/output_0_split -> inception_4c/output_inception_4c/output_0_split_2
I0403 15:49:54.349951 14547 net.cpp:399] inception_4c/output_inception_4c/output_0_split -> inception_4c/output_inception_4c/output_0_split_3
I0403 15:49:54.350044 14547 net.cpp:141] Setting up inception_4c/output_inception_4c/output_0_split
I0403 15:49:54.350067 14547 net.cpp:148] Top shape: 24 512 14 14 (2408448)
I0403 15:49:54.350083 14547 net.cpp:148] Top shape: 24 512 14 14 (2408448)
I0403 15:49:54.350100 14547 net.cpp:148] Top shape: 24 512 14 14 (2408448)
I0403 15:49:54.350114 14547 net.cpp:148] Top shape: 24 512 14 14 (2408448)
I0403 15:49:54.350132 14547 net.cpp:156] Memory required for data: 1111182624
I0403 15:49:54.350148 14547 layer_factory.hpp:77] Creating layer inception_4d/1x1
I0403 15:49:54.350172 14547 net.cpp:91] Creating Layer inception_4d/1x1
I0403 15:49:54.350190 14547 net.cpp:425] inception_4d/1x1 <- inception_4c/output_inception_4c/output_0_split_0
I0403 15:49:54.350211 14547 net.cpp:399] inception_4d/1x1 -> inception_4d/1x1
I0403 15:49:54.351666 14547 net.cpp:141] Setting up inception_4d/1x1
I0403 15:49:54.351696 14547 net.cpp:148] Top shape: 24 112 14 14 (526848)
I0403 15:49:54.351711 14547 net.cpp:156] Memory required for data: 1113290016
I0403 15:49:54.351729 14547 layer_factory.hpp:77] Creating layer inception_4d/relu_1x1
I0403 15:49:54.351750 14547 net.cpp:91] Creating Layer inception_4d/relu_1x1
I0403 15:49:54.351768 14547 net.cpp:425] inception_4d/relu_1x1 <- inception_4d/1x1
I0403 15:49:54.351786 14547 net.cpp:386] inception_4d/relu_1x1 -> inception_4d/1x1 (in-place)
I0403 15:49:54.351974 14547 net.cpp:141] Setting up inception_4d/relu_1x1
I0403 15:49:54.352001 14547 net.cpp:148] Top shape: 24 112 14 14 (526848)
I0403 15:49:54.352017 14547 net.cpp:156] Memory required for data: 1115397408
I0403 15:49:54.352032 14547 layer_factory.hpp:77] Creating layer inception_4d/3x3_reduce
I0403 15:49:54.352068 14547 net.cpp:91] Creating Layer inception_4d/3x3_reduce
I0403 15:49:54.352088 14547 net.cpp:425] inception_4d/3x3_reduce <- inception_4c/output_inception_4c/output_0_split_1
I0403 15:49:54.352110 14547 net.cpp:399] inception_4d/3x3_reduce -> inception_4d/3x3_reduce
I0403 15:49:54.353719 14547 net.cpp:141] Setting up inception_4d/3x3_reduce
I0403 15:49:54.353749 14547 net.cpp:148] Top shape: 24 144 14 14 (677376)
I0403 15:49:54.353765 14547 net.cpp:156] Memory required for data: 1118106912
I0403 15:49:54.353783 14547 layer_factory.hpp:77] Creating layer inception_4d/relu_3x3_reduce
I0403 15:49:54.353802 14547 net.cpp:91] Creating Layer inception_4d/relu_3x3_reduce
I0403 15:49:54.353819 14547 net.cpp:425] inception_4d/relu_3x3_reduce <- inception_4d/3x3_reduce
I0403 15:49:54.353839 14547 net.cpp:386] inception_4d/relu_3x3_reduce -> inception_4d/3x3_reduce (in-place)
I0403 15:49:54.354143 14547 net.cpp:141] Setting up inception_4d/relu_3x3_reduce
I0403 15:49:54.354171 14547 net.cpp:148] Top shape: 24 144 14 14 (677376)
I0403 15:49:54.354187 14547 net.cpp:156] Memory required for data: 1120816416
I0403 15:49:54.354202 14547 layer_factory.hpp:77] Creating layer inception_4d/3x3
I0403 15:49:54.354225 14547 net.cpp:91] Creating Layer inception_4d/3x3
I0403 15:49:54.354243 14547 net.cpp:425] inception_4d/3x3 <- inception_4d/3x3_reduce
I0403 15:49:54.354264 14547 net.cpp:399] inception_4d/3x3 -> inception_4d/3x3
I0403 15:49:54.358631 14547 net.cpp:141] Setting up inception_4d/3x3
I0403 15:49:54.358660 14547 net.cpp:148] Top shape: 24 288 14 14 (1354752)
I0403 15:49:54.358676 14547 net.cpp:156] Memory required for data: 1126235424
I0403 15:49:54.358695 14547 layer_factory.hpp:77] Creating layer inception_4d/relu_3x3
I0403 15:49:54.358716 14547 net.cpp:91] Creating Layer inception_4d/relu_3x3
I0403 15:49:54.358732 14547 net.cpp:425] inception_4d/relu_3x3 <- inception_4d/3x3
I0403 15:49:54.358750 14547 net.cpp:386] inception_4d/relu_3x3 -> inception_4d/3x3 (in-place)
I0403 15:49:54.358934 14547 net.cpp:141] Setting up inception_4d/relu_3x3
I0403 15:49:54.358960 14547 net.cpp:148] Top shape: 24 288 14 14 (1354752)
I0403 15:49:54.358975 14547 net.cpp:156] Memory required for data: 1131654432
I0403 15:49:54.358991 14547 layer_factory.hpp:77] Creating layer inception_4d/5x5_reduce
I0403 15:49:54.359014 14547 net.cpp:91] Creating Layer inception_4d/5x5_reduce
I0403 15:49:54.359031 14547 net.cpp:425] inception_4d/5x5_reduce <- inception_4c/output_inception_4c/output_0_split_2
I0403 15:49:54.359050 14547 net.cpp:399] inception_4d/5x5_reduce -> inception_4d/5x5_reduce
I0403 15:49:54.360247 14547 net.cpp:141] Setting up inception_4d/5x5_reduce
I0403 15:49:54.360276 14547 net.cpp:148] Top shape: 24 32 14 14 (150528)
I0403 15:49:54.360292 14547 net.cpp:156] Memory required for data: 1132256544
I0403 15:49:54.360311 14547 layer_factory.hpp:77] Creating layer inception_4d/relu_5x5_reduce
I0403 15:49:54.360330 14547 net.cpp:91] Creating Layer inception_4d/relu_5x5_reduce
I0403 15:49:54.360347 14547 net.cpp:425] inception_4d/relu_5x5_reduce <- inception_4d/5x5_reduce
I0403 15:49:54.360364 14547 net.cpp:386] inception_4d/relu_5x5_reduce -> inception_4d/5x5_reduce (in-place)
I0403 15:49:54.360553 14547 net.cpp:141] Setting up inception_4d/relu_5x5_reduce
I0403 15:49:54.360581 14547 net.cpp:148] Top shape: 24 32 14 14 (150528)
I0403 15:49:54.360597 14547 net.cpp:156] Memory required for data: 1132858656
I0403 15:49:54.360611 14547 layer_factory.hpp:77] Creating layer inception_4d/5x5
I0403 15:49:54.360635 14547 net.cpp:91] Creating Layer inception_4d/5x5
I0403 15:49:54.360653 14547 net.cpp:425] inception_4d/5x5 <- inception_4d/5x5_reduce
I0403 15:49:54.360671 14547 net.cpp:399] inception_4d/5x5 -> inception_4d/5x5
I0403 15:49:54.362184 14547 net.cpp:141] Setting up inception_4d/5x5
I0403 15:49:54.362215 14547 net.cpp:148] Top shape: 24 64 14 14 (301056)
I0403 15:49:54.362232 14547 net.cpp:156] Memory required for data: 1134062880
I0403 15:49:54.362251 14547 layer_factory.hpp:77] Creating layer inception_4d/relu_5x5
I0403 15:49:54.362287 14547 net.cpp:91] Creating Layer inception_4d/relu_5x5
I0403 15:49:54.362304 14547 net.cpp:425] inception_4d/relu_5x5 <- inception_4d/5x5
I0403 15:49:54.362323 14547 net.cpp:386] inception_4d/relu_5x5 -> inception_4d/5x5 (in-place)
I0403 15:49:54.362637 14547 net.cpp:141] Setting up inception_4d/relu_5x5
I0403 15:49:54.362668 14547 net.cpp:148] Top shape: 24 64 14 14 (301056)
I0403 15:49:54.362684 14547 net.cpp:156] Memory required for data: 1135267104
I0403 15:49:54.362699 14547 layer_factory.hpp:77] Creating layer inception_4d/pool
I0403 15:49:54.362717 14547 net.cpp:91] Creating Layer inception_4d/pool
I0403 15:49:54.362732 14547 net.cpp:425] inception_4d/pool <- inception_4c/output_inception_4c/output_0_split_3
I0403 15:49:54.362753 14547 net.cpp:399] inception_4d/pool -> inception_4d/pool
I0403 15:49:54.362819 14547 net.cpp:141] Setting up inception_4d/pool
I0403 15:49:54.362843 14547 net.cpp:148] Top shape: 24 512 14 14 (2408448)
I0403 15:49:54.362859 14547 net.cpp:156] Memory required for data: 1144900896
I0403 15:49:54.362874 14547 layer_factory.hpp:77] Creating layer inception_4d/pool_proj
I0403 15:49:54.362895 14547 net.cpp:91] Creating Layer inception_4d/pool_proj
I0403 15:49:54.362913 14547 net.cpp:425] inception_4d/pool_proj <- inception_4d/pool
I0403 15:49:54.362934 14547 net.cpp:399] inception_4d/pool_proj -> inception_4d/pool_proj
I0403 15:49:54.364728 14547 net.cpp:141] Setting up inception_4d/pool_proj
I0403 15:49:54.364758 14547 net.cpp:148] Top shape: 24 64 14 14 (301056)
I0403 15:49:54.364774 14547 net.cpp:156] Memory required for data: 1146105120
I0403 15:49:54.364792 14547 layer_factory.hpp:77] Creating layer inception_4d/relu_pool_proj
I0403 15:49:54.364812 14547 net.cpp:91] Creating Layer inception_4d/relu_pool_proj
I0403 15:49:54.364830 14547 net.cpp:425] inception_4d/relu_pool_proj <- inception_4d/pool_proj
I0403 15:49:54.364848 14547 net.cpp:386] inception_4d/relu_pool_proj -> inception_4d/pool_proj (in-place)
I0403 15:49:54.365037 14547 net.cpp:141] Setting up inception_4d/relu_pool_proj
I0403 15:49:54.365063 14547 net.cpp:148] Top shape: 24 64 14 14 (301056)
I0403 15:49:54.365077 14547 net.cpp:156] Memory required for data: 1147309344
I0403 15:49:54.365092 14547 layer_factory.hpp:77] Creating layer inception_4d/output
I0403 15:49:54.365111 14547 net.cpp:91] Creating Layer inception_4d/output
I0403 15:49:54.365130 14547 net.cpp:425] inception_4d/output <- inception_4d/1x1
I0403 15:49:54.365147 14547 net.cpp:425] inception_4d/output <- inception_4d/3x3
I0403 15:49:54.365164 14547 net.cpp:425] inception_4d/output <- inception_4d/5x5
I0403 15:49:54.365180 14547 net.cpp:425] inception_4d/output <- inception_4d/pool_proj
I0403 15:49:54.365198 14547 net.cpp:399] inception_4d/output -> inception_4d/output
I0403 15:49:54.365247 14547 net.cpp:141] Setting up inception_4d/output
I0403 15:49:54.365272 14547 net.cpp:148] Top shape: 24 528 14 14 (2483712)
I0403 15:49:54.365285 14547 net.cpp:156] Memory required for data: 1157244192
I0403 15:49:54.365299 14547 layer_factory.hpp:77] Creating layer inception_4d/output_inception_4d/output_0_split
I0403 15:49:54.365316 14547 net.cpp:91] Creating Layer inception_4d/output_inception_4d/output_0_split
I0403 15:49:54.365332 14547 net.cpp:425] inception_4d/output_inception_4d/output_0_split <- inception_4d/output
I0403 15:49:54.365353 14547 net.cpp:399] inception_4d/output_inception_4d/output_0_split -> inception_4d/output_inception_4d/output_0_split_0
I0403 15:49:54.365375 14547 net.cpp:399] inception_4d/output_inception_4d/output_0_split -> inception_4d/output_inception_4d/output_0_split_1
I0403 15:49:54.365396 14547 net.cpp:399] inception_4d/output_inception_4d/output_0_split -> inception_4d/output_inception_4d/output_0_split_2
I0403 15:49:54.365420 14547 net.cpp:399] inception_4d/output_inception_4d/output_0_split -> inception_4d/output_inception_4d/output_0_split_3
I0403 15:49:54.365442 14547 net.cpp:399] inception_4d/output_inception_4d/output_0_split -> inception_4d/output_inception_4d/output_0_split_4
I0403 15:49:54.365543 14547 net.cpp:141] Setting up inception_4d/output_inception_4d/output_0_split
I0403 15:49:54.365581 14547 net.cpp:148] Top shape: 24 528 14 14 (2483712)
I0403 15:49:54.365598 14547 net.cpp:148] Top shape: 24 528 14 14 (2483712)
I0403 15:49:54.365613 14547 net.cpp:148] Top shape: 24 528 14 14 (2483712)
I0403 15:49:54.365628 14547 net.cpp:148] Top shape: 24 528 14 14 (2483712)
I0403 15:49:54.365644 14547 net.cpp:148] Top shape: 24 528 14 14 (2483712)
I0403 15:49:54.365658 14547 net.cpp:156] Memory required for data: 1206918432
I0403 15:49:54.365671 14547 layer_factory.hpp:77] Creating layer loss2/ave_pool
I0403 15:49:54.365689 14547 net.cpp:91] Creating Layer loss2/ave_pool
I0403 15:49:54.365703 14547 net.cpp:425] loss2/ave_pool <- inception_4d/output_inception_4d/output_0_split_0
I0403 15:49:54.365723 14547 net.cpp:399] loss2/ave_pool -> loss2/ave_pool
I0403 15:49:54.366035 14547 net.cpp:141] Setting up loss2/ave_pool
I0403 15:49:54.366062 14547 net.cpp:148] Top shape: 24 528 4 4 (202752)
I0403 15:49:54.366078 14547 net.cpp:156] Memory required for data: 1207729440
I0403 15:49:54.366094 14547 layer_factory.hpp:77] Creating layer loss2/conv
I0403 15:49:54.366117 14547 net.cpp:91] Creating Layer loss2/conv
I0403 15:49:54.366139 14547 net.cpp:425] loss2/conv <- loss2/ave_pool
I0403 15:49:54.366161 14547 net.cpp:399] loss2/conv -> loss2/conv
I0403 15:49:54.368083 14547 net.cpp:141] Setting up loss2/conv
I0403 15:49:54.368115 14547 net.cpp:148] Top shape: 24 128 4 4 (49152)
I0403 15:49:54.368136 14547 net.cpp:156] Memory required for data: 1207926048
I0403 15:49:54.368156 14547 layer_factory.hpp:77] Creating layer loss2/relu_conv
I0403 15:49:54.368175 14547 net.cpp:91] Creating Layer loss2/relu_conv
I0403 15:49:54.368192 14547 net.cpp:425] loss2/relu_conv <- loss2/conv
I0403 15:49:54.368212 14547 net.cpp:386] loss2/relu_conv -> loss2/conv (in-place)
I0403 15:49:54.368499 14547 net.cpp:141] Setting up loss2/relu_conv
I0403 15:49:54.368527 14547 net.cpp:148] Top shape: 24 128 4 4 (49152)
I0403 15:49:54.368542 14547 net.cpp:156] Memory required for data: 1208122656
I0403 15:49:54.368557 14547 layer_factory.hpp:77] Creating layer loss2/fc
I0403 15:49:54.368577 14547 net.cpp:91] Creating Layer loss2/fc
I0403 15:49:54.368592 14547 net.cpp:425] loss2/fc <- loss2/conv
I0403 15:49:54.368614 14547 net.cpp:399] loss2/fc -> loss2/fc
I0403 15:49:54.386423 14547 net.cpp:141] Setting up loss2/fc
I0403 15:49:54.386458 14547 net.cpp:148] Top shape: 24 1024 (24576)
I0403 15:49:54.386474 14547 net.cpp:156] Memory required for data: 1208220960
I0403 15:49:54.386492 14547 layer_factory.hpp:77] Creating layer loss2/relu_fc
I0403 15:49:54.386513 14547 net.cpp:91] Creating Layer loss2/relu_fc
I0403 15:49:54.386530 14547 net.cpp:425] loss2/relu_fc <- loss2/fc
I0403 15:49:54.386548 14547 net.cpp:386] loss2/relu_fc -> loss2/fc (in-place)
I0403 15:49:54.386847 14547 net.cpp:141] Setting up loss2/relu_fc
I0403 15:49:54.386873 14547 net.cpp:148] Top shape: 24 1024 (24576)
I0403 15:49:54.386886 14547 net.cpp:156] Memory required for data: 1208319264
I0403 15:49:54.386901 14547 layer_factory.hpp:77] Creating layer loss2/drop_fc
I0403 15:49:54.386920 14547 net.cpp:91] Creating Layer loss2/drop_fc
I0403 15:49:54.386937 14547 net.cpp:425] loss2/drop_fc <- loss2/fc
I0403 15:49:54.386955 14547 net.cpp:386] loss2/drop_fc -> loss2/fc (in-place)
I0403 15:49:54.387006 14547 net.cpp:141] Setting up loss2/drop_fc
I0403 15:49:54.387028 14547 net.cpp:148] Top shape: 24 1024 (24576)
I0403 15:49:54.387043 14547 net.cpp:156] Memory required for data: 1208417568
I0403 15:49:54.387058 14547 layer_factory.hpp:77] Creating layer loss2/classifier_plantvillage
I0403 15:49:54.387074 14547 net.cpp:91] Creating Layer loss2/classifier_plantvillage
I0403 15:49:54.387089 14547 net.cpp:425] loss2/classifier_plantvillage <- loss2/fc
I0403 15:49:54.387111 14547 net.cpp:399] loss2/classifier_plantvillage -> loss2/classifier_plantvillage
I0403 15:49:54.387540 14547 net.cpp:141] Setting up loss2/classifier_plantvillage
I0403 15:49:54.387567 14547 net.cpp:148] Top shape: 24 38 (912)
I0403 15:49:54.387583 14547 net.cpp:156] Memory required for data: 1208421216
I0403 15:49:54.387620 14547 layer_factory.hpp:77] Creating layer loss2/classifier_plantvillage_loss2/classifier_plantvillage_0_split
I0403 15:49:54.387639 14547 net.cpp:91] Creating Layer loss2/classifier_plantvillage_loss2/classifier_plantvillage_0_split
I0403 15:49:54.387667 14547 net.cpp:425] loss2/classifier_plantvillage_loss2/classifier_plantvillage_0_split <- loss2/classifier_plantvillage
I0403 15:49:54.387688 14547 net.cpp:399] loss2/classifier_plantvillage_loss2/classifier_plantvillage_0_split -> loss2/classifier_plantvillage_loss2/classifier_plantvillage_0_split_0
I0403 15:49:54.387708 14547 net.cpp:399] loss2/classifier_plantvillage_loss2/classifier_plantvillage_0_split -> loss2/classifier_plantvillage_loss2/classifier_plantvillage_0_split_1
I0403 15:49:54.387730 14547 net.cpp:399] loss2/classifier_plantvillage_loss2/classifier_plantvillage_0_split -> loss2/classifier_plantvillage_loss2/classifier_plantvillage_0_split_2
I0403 15:49:54.387806 14547 net.cpp:141] Setting up loss2/classifier_plantvillage_loss2/classifier_plantvillage_0_split
I0403 15:49:54.387830 14547 net.cpp:148] Top shape: 24 38 (912)
I0403 15:49:54.387846 14547 net.cpp:148] Top shape: 24 38 (912)
I0403 15:49:54.387862 14547 net.cpp:148] Top shape: 24 38 (912)
I0403 15:49:54.387876 14547 net.cpp:156] Memory required for data: 1208432160
I0403 15:49:54.387889 14547 layer_factory.hpp:77] Creating layer inception_4e/1x1
I0403 15:49:54.387912 14547 net.cpp:91] Creating Layer inception_4e/1x1
I0403 15:49:54.387929 14547 net.cpp:425] inception_4e/1x1 <- inception_4d/output_inception_4d/output_0_split_1
I0403 15:49:54.387948 14547 net.cpp:399] inception_4e/1x1 -> inception_4e/1x1
I0403 15:49:54.389788 14547 net.cpp:141] Setting up inception_4e/1x1
I0403 15:49:54.389816 14547 net.cpp:148] Top shape: 24 256 14 14 (1204224)
I0403 15:49:54.389832 14547 net.cpp:156] Memory required for data: 1213249056
I0403 15:49:54.389849 14547 layer_factory.hpp:77] Creating layer inception_4e/relu_1x1
I0403 15:49:54.389868 14547 net.cpp:91] Creating Layer inception_4e/relu_1x1
I0403 15:49:54.389883 14547 net.cpp:425] inception_4e/relu_1x1 <- inception_4e/1x1
I0403 15:49:54.389902 14547 net.cpp:386] inception_4e/relu_1x1 -> inception_4e/1x1 (in-place)
I0403 15:49:54.390211 14547 net.cpp:141] Setting up inception_4e/relu_1x1
I0403 15:49:54.390239 14547 net.cpp:148] Top shape: 24 256 14 14 (1204224)
I0403 15:49:54.390254 14547 net.cpp:156] Memory required for data: 1218065952
I0403 15:49:54.390269 14547 layer_factory.hpp:77] Creating layer inception_4e/3x3_reduce
I0403 15:49:54.390292 14547 net.cpp:91] Creating Layer inception_4e/3x3_reduce
I0403 15:49:54.390310 14547 net.cpp:425] inception_4e/3x3_reduce <- inception_4d/output_inception_4d/output_0_split_2
I0403 15:49:54.390331 14547 net.cpp:399] inception_4e/3x3_reduce -> inception_4e/3x3_reduce
I0403 15:49:54.392541 14547 net.cpp:141] Setting up inception_4e/3x3_reduce
I0403 15:49:54.392575 14547 net.cpp:148] Top shape: 24 160 14 14 (752640)
I0403 15:49:54.392591 14547 net.cpp:156] Memory required for data: 1221076512
I0403 15:49:54.392611 14547 layer_factory.hpp:77] Creating layer inception_4e/relu_3x3_reduce
I0403 15:49:54.392629 14547 net.cpp:91] Creating Layer inception_4e/relu_3x3_reduce
I0403 15:49:54.392647 14547 net.cpp:425] inception_4e/relu_3x3_reduce <- inception_4e/3x3_reduce
I0403 15:49:54.392668 14547 net.cpp:386] inception_4e/relu_3x3_reduce -> inception_4e/3x3_reduce (in-place)
I0403 15:49:54.392864 14547 net.cpp:141] Setting up inception_4e/relu_3x3_reduce
I0403 15:49:54.392891 14547 net.cpp:148] Top shape: 24 160 14 14 (752640)
I0403 15:49:54.392905 14547 net.cpp:156] Memory required for data: 1224087072
I0403 15:49:54.392921 14547 layer_factory.hpp:77] Creating layer inception_4e/3x3
I0403 15:49:54.392943 14547 net.cpp:91] Creating Layer inception_4e/3x3
I0403 15:49:54.392961 14547 net.cpp:425] inception_4e/3x3 <- inception_4e/3x3_reduce
I0403 15:49:54.392984 14547 net.cpp:399] inception_4e/3x3 -> inception_4e/3x3
I0403 15:49:54.398216 14547 net.cpp:141] Setting up inception_4e/3x3
I0403 15:49:54.398259 14547 net.cpp:148] Top shape: 24 320 14 14 (1505280)
I0403 15:49:54.398277 14547 net.cpp:156] Memory required for data: 1230108192
I0403 15:49:54.398295 14547 layer_factory.hpp:77] Creating layer inception_4e/relu_3x3
I0403 15:49:54.398313 14547 net.cpp:91] Creating Layer inception_4e/relu_3x3
I0403 15:49:54.398329 14547 net.cpp:425] inception_4e/relu_3x3 <- inception_4e/3x3
I0403 15:49:54.398350 14547 net.cpp:386] inception_4e/relu_3x3 -> inception_4e/3x3 (in-place)
I0403 15:49:54.398663 14547 net.cpp:141] Setting up inception_4e/relu_3x3
I0403 15:49:54.398690 14547 net.cpp:148] Top shape: 24 320 14 14 (1505280)
I0403 15:49:54.398707 14547 net.cpp:156] Memory required for data: 1236129312
I0403 15:49:54.398722 14547 layer_factory.hpp:77] Creating layer inception_4e/5x5_reduce
I0403 15:49:54.398748 14547 net.cpp:91] Creating Layer inception_4e/5x5_reduce
I0403 15:49:54.398767 14547 net.cpp:425] inception_4e/5x5_reduce <- inception_4d/output_inception_4d/output_0_split_3
I0403 15:49:54.398790 14547 net.cpp:399] inception_4e/5x5_reduce -> inception_4e/5x5_reduce
I0403 15:49:54.399932 14547 net.cpp:141] Setting up inception_4e/5x5_reduce
I0403 15:49:54.399965 14547 net.cpp:148] Top shape: 24 32 14 14 (150528)
I0403 15:49:54.399981 14547 net.cpp:156] Memory required for data: 1236731424
I0403 15:49:54.399999 14547 layer_factory.hpp:77] Creating layer inception_4e/relu_5x5_reduce
I0403 15:49:54.400018 14547 net.cpp:91] Creating Layer inception_4e/relu_5x5_reduce
I0403 15:49:54.400034 14547 net.cpp:425] inception_4e/relu_5x5_reduce <- inception_4e/5x5_reduce
I0403 15:49:54.400051 14547 net.cpp:386] inception_4e/relu_5x5_reduce -> inception_4e/5x5_reduce (in-place)
I0403 15:49:54.400362 14547 net.cpp:141] Setting up inception_4e/relu_5x5_reduce
I0403 15:49:54.400393 14547 net.cpp:148] Top shape: 24 32 14 14 (150528)
I0403 15:49:54.400410 14547 net.cpp:156] Memory required for data: 1237333536
I0403 15:49:54.400425 14547 layer_factory.hpp:77] Creating layer inception_4e/5x5
I0403 15:49:54.400465 14547 net.cpp:91] Creating Layer inception_4e/5x5
I0403 15:49:54.400485 14547 net.cpp:425] inception_4e/5x5 <- inception_4e/5x5_reduce
I0403 15:49:54.400506 14547 net.cpp:399] inception_4e/5x5 -> inception_4e/5x5
I0403 15:49:54.402406 14547 net.cpp:141] Setting up inception_4e/5x5
I0403 15:49:54.402436 14547 net.cpp:148] Top shape: 24 128 14 14 (602112)
I0403 15:49:54.402451 14547 net.cpp:156] Memory required for data: 1239741984
I0403 15:49:54.402470 14547 layer_factory.hpp:77] Creating layer inception_4e/relu_5x5
I0403 15:49:54.402492 14547 net.cpp:91] Creating Layer inception_4e/relu_5x5
I0403 15:49:54.402510 14547 net.cpp:425] inception_4e/relu_5x5 <- inception_4e/5x5
I0403 15:49:54.402529 14547 net.cpp:386] inception_4e/relu_5x5 -> inception_4e/5x5 (in-place)
I0403 15:49:54.402735 14547 net.cpp:141] Setting up inception_4e/relu_5x5
I0403 15:49:54.402765 14547 net.cpp:148] Top shape: 24 128 14 14 (602112)
I0403 15:49:54.402781 14547 net.cpp:156] Memory required for data: 1242150432
I0403 15:49:54.402796 14547 layer_factory.hpp:77] Creating layer inception_4e/pool
I0403 15:49:54.402814 14547 net.cpp:91] Creating Layer inception_4e/pool
I0403 15:49:54.402829 14547 net.cpp:425] inception_4e/pool <- inception_4d/output_inception_4d/output_0_split_4
I0403 15:49:54.402850 14547 net.cpp:399] inception_4e/pool -> inception_4e/pool
I0403 15:49:54.402923 14547 net.cpp:141] Setting up inception_4e/pool
I0403 15:49:54.402948 14547 net.cpp:148] Top shape: 24 528 14 14 (2483712)
I0403 15:49:54.402963 14547 net.cpp:156] Memory required for data: 1252085280
I0403 15:49:54.402978 14547 layer_factory.hpp:77] Creating layer inception_4e/pool_proj
I0403 15:49:54.403000 14547 net.cpp:91] Creating Layer inception_4e/pool_proj
I0403 15:49:54.403019 14547 net.cpp:425] inception_4e/pool_proj <- inception_4e/pool
I0403 15:49:54.403040 14547 net.cpp:399] inception_4e/pool_proj -> inception_4e/pool_proj
I0403 15:49:54.404650 14547 net.cpp:141] Setting up inception_4e/pool_proj
I0403 15:49:54.404680 14547 net.cpp:148] Top shape: 24 128 14 14 (602112)
I0403 15:49:54.404711 14547 net.cpp:156] Memory required for data: 1254493728
I0403 15:49:54.404731 14547 layer_factory.hpp:77] Creating layer inception_4e/relu_pool_proj
I0403 15:49:54.404752 14547 net.cpp:91] Creating Layer inception_4e/relu_pool_proj
I0403 15:49:54.404770 14547 net.cpp:425] inception_4e/relu_pool_proj <- inception_4e/pool_proj
I0403 15:49:54.404788 14547 net.cpp:386] inception_4e/relu_pool_proj -> inception_4e/pool_proj (in-place)
I0403 15:49:54.405099 14547 net.cpp:141] Setting up inception_4e/relu_pool_proj
I0403 15:49:54.405131 14547 net.cpp:148] Top shape: 24 128 14 14 (602112)
I0403 15:49:54.405149 14547 net.cpp:156] Memory required for data: 1256902176
I0403 15:49:54.405164 14547 layer_factory.hpp:77] Creating layer inception_4e/output
I0403 15:49:54.405185 14547 net.cpp:91] Creating Layer inception_4e/output
I0403 15:49:54.405202 14547 net.cpp:425] inception_4e/output <- inception_4e/1x1
I0403 15:49:54.405220 14547 net.cpp:425] inception_4e/output <- inception_4e/3x3
I0403 15:49:54.405236 14547 net.cpp:425] inception_4e/output <- inception_4e/5x5
I0403 15:49:54.405252 14547 net.cpp:425] inception_4e/output <- inception_4e/pool_proj
I0403 15:49:54.405270 14547 net.cpp:399] inception_4e/output -> inception_4e/output
I0403 15:49:54.405323 14547 net.cpp:141] Setting up inception_4e/output
I0403 15:49:54.405349 14547 net.cpp:148] Top shape: 24 832 14 14 (3913728)
I0403 15:49:54.405364 14547 net.cpp:156] Memory required for data: 1272557088
I0403 15:49:54.405378 14547 layer_factory.hpp:77] Creating layer pool4/3x3_s2
I0403 15:49:54.405395 14547 net.cpp:91] Creating Layer pool4/3x3_s2
I0403 15:49:54.405411 14547 net.cpp:425] pool4/3x3_s2 <- inception_4e/output
I0403 15:49:54.405431 14547 net.cpp:399] pool4/3x3_s2 -> pool4/3x3_s2
I0403 15:49:54.405503 14547 net.cpp:141] Setting up pool4/3x3_s2
I0403 15:49:54.405530 14547 net.cpp:148] Top shape: 24 832 7 7 (978432)
I0403 15:49:54.405546 14547 net.cpp:156] Memory required for data: 1276470816
I0403 15:49:54.405562 14547 layer_factory.hpp:77] Creating layer pool4/3x3_s2_pool4/3x3_s2_0_split
I0403 15:49:54.405580 14547 net.cpp:91] Creating Layer pool4/3x3_s2_pool4/3x3_s2_0_split
I0403 15:49:54.405596 14547 net.cpp:425] pool4/3x3_s2_pool4/3x3_s2_0_split <- pool4/3x3_s2
I0403 15:49:54.405612 14547 net.cpp:399] pool4/3x3_s2_pool4/3x3_s2_0_split -> pool4/3x3_s2_pool4/3x3_s2_0_split_0
I0403 15:49:54.405635 14547 net.cpp:399] pool4/3x3_s2_pool4/3x3_s2_0_split -> pool4/3x3_s2_pool4/3x3_s2_0_split_1
I0403 15:49:54.405658 14547 net.cpp:399] pool4/3x3_s2_pool4/3x3_s2_0_split -> pool4/3x3_s2_pool4/3x3_s2_0_split_2
I0403 15:49:54.405679 14547 net.cpp:399] pool4/3x3_s2_pool4/3x3_s2_0_split -> pool4/3x3_s2_pool4/3x3_s2_0_split_3
I0403 15:49:54.405773 14547 net.cpp:141] Setting up pool4/3x3_s2_pool4/3x3_s2_0_split
I0403 15:49:54.405797 14547 net.cpp:148] Top shape: 24 832 7 7 (978432)
I0403 15:49:54.405814 14547 net.cpp:148] Top shape: 24 832 7 7 (978432)
I0403 15:49:54.405829 14547 net.cpp:148] Top shape: 24 832 7 7 (978432)
I0403 15:49:54.405844 14547 net.cpp:148] Top shape: 24 832 7 7 (978432)
I0403 15:49:54.405858 14547 net.cpp:156] Memory required for data: 1292125728
I0403 15:49:54.405874 14547 layer_factory.hpp:77] Creating layer inception_5a/1x1
I0403 15:49:54.405900 14547 net.cpp:91] Creating Layer inception_5a/1x1
I0403 15:49:54.405918 14547 net.cpp:425] inception_5a/1x1 <- pool4/3x3_s2_pool4/3x3_s2_0_split_0
I0403 15:49:54.405941 14547 net.cpp:399] inception_5a/1x1 -> inception_5a/1x1
I0403 15:49:54.408913 14547 net.cpp:141] Setting up inception_5a/1x1
I0403 15:49:54.408944 14547 net.cpp:148] Top shape: 24 256 7 7 (301056)
I0403 15:49:54.408960 14547 net.cpp:156] Memory required for data: 1293329952
I0403 15:49:54.408979 14547 layer_factory.hpp:77] Creating layer inception_5a/relu_1x1
I0403 15:49:54.409000 14547 net.cpp:91] Creating Layer inception_5a/relu_1x1
I0403 15:49:54.409016 14547 net.cpp:425] inception_5a/relu_1x1 <- inception_5a/1x1
I0403 15:49:54.409034 14547 net.cpp:386] inception_5a/relu_1x1 -> inception_5a/1x1 (in-place)
I0403 15:49:54.409358 14547 net.cpp:141] Setting up inception_5a/relu_1x1
I0403 15:49:54.409386 14547 net.cpp:148] Top shape: 24 256 7 7 (301056)
I0403 15:49:54.409401 14547 net.cpp:156] Memory required for data: 1294534176
I0403 15:49:54.409416 14547 layer_factory.hpp:77] Creating layer inception_5a/3x3_reduce
I0403 15:49:54.409440 14547 net.cpp:91] Creating Layer inception_5a/3x3_reduce
I0403 15:49:54.409461 14547 net.cpp:425] inception_5a/3x3_reduce <- pool4/3x3_s2_pool4/3x3_s2_0_split_1
I0403 15:49:54.409481 14547 net.cpp:399] inception_5a/3x3_reduce -> inception_5a/3x3_reduce
I0403 15:49:54.411986 14547 net.cpp:141] Setting up inception_5a/3x3_reduce
I0403 15:49:54.412015 14547 net.cpp:148] Top shape: 24 160 7 7 (188160)
I0403 15:49:54.412030 14547 net.cpp:156] Memory required for data: 1295286816
I0403 15:49:54.412047 14547 layer_factory.hpp:77] Creating layer inception_5a/relu_3x3_reduce
I0403 15:49:54.412067 14547 net.cpp:91] Creating Layer inception_5a/relu_3x3_reduce
I0403 15:49:54.412084 14547 net.cpp:425] inception_5a/relu_3x3_reduce <- inception_5a/3x3_reduce
I0403 15:49:54.412101 14547 net.cpp:386] inception_5a/relu_3x3_reduce -> inception_5a/3x3_reduce (in-place)
I0403 15:49:54.412287 14547 net.cpp:141] Setting up inception_5a/relu_3x3_reduce
I0403 15:49:54.412313 14547 net.cpp:148] Top shape: 24 160 7 7 (188160)
I0403 15:49:54.412328 14547 net.cpp:156] Memory required for data: 1296039456
I0403 15:49:54.412341 14547 layer_factory.hpp:77] Creating layer inception_5a/3x3
I0403 15:49:54.412364 14547 net.cpp:91] Creating Layer inception_5a/3x3
I0403 15:49:54.412384 14547 net.cpp:425] inception_5a/3x3 <- inception_5a/3x3_reduce
I0403 15:49:54.412401 14547 net.cpp:399] inception_5a/3x3 -> inception_5a/3x3
I0403 15:49:54.417340 14547 net.cpp:141] Setting up inception_5a/3x3
I0403 15:49:54.417369 14547 net.cpp:148] Top shape: 24 320 7 7 (376320)
I0403 15:49:54.417389 14547 net.cpp:156] Memory required for data: 1297544736
I0403 15:49:54.417407 14547 layer_factory.hpp:77] Creating layer inception_5a/relu_3x3
I0403 15:49:54.417424 14547 net.cpp:91] Creating Layer inception_5a/relu_3x3
I0403 15:49:54.417440 14547 net.cpp:425] inception_5a/relu_3x3 <- inception_5a/3x3
I0403 15:49:54.417457 14547 net.cpp:386] inception_5a/relu_3x3 -> inception_5a/3x3 (in-place)
I0403 15:49:54.417747 14547 net.cpp:141] Setting up inception_5a/relu_3x3
I0403 15:49:54.417774 14547 net.cpp:148] Top shape: 24 320 7 7 (376320)
I0403 15:49:54.417790 14547 net.cpp:156] Memory required for data: 1299050016
I0403 15:49:54.417804 14547 layer_factory.hpp:77] Creating layer inception_5a/5x5_reduce
I0403 15:49:54.417824 14547 net.cpp:91] Creating Layer inception_5a/5x5_reduce
I0403 15:49:54.417840 14547 net.cpp:425] inception_5a/5x5_reduce <- pool4/3x3_s2_pool4/3x3_s2_0_split_2
I0403 15:49:54.417861 14547 net.cpp:399] inception_5a/5x5_reduce -> inception_5a/5x5_reduce
I0403 15:49:54.419013 14547 net.cpp:141] Setting up inception_5a/5x5_reduce
I0403 15:49:54.419044 14547 net.cpp:148] Top shape: 24 32 7 7 (37632)
I0403 15:49:54.419059 14547 net.cpp:156] Memory required for data: 1299200544
I0403 15:49:54.419077 14547 layer_factory.hpp:77] Creating layer inception_5a/relu_5x5_reduce
I0403 15:49:54.419095 14547 net.cpp:91] Creating Layer inception_5a/relu_5x5_reduce
I0403 15:49:54.419111 14547 net.cpp:425] inception_5a/relu_5x5_reduce <- inception_5a/5x5_reduce
I0403 15:49:54.419133 14547 net.cpp:386] inception_5a/relu_5x5_reduce -> inception_5a/5x5_reduce (in-place)
I0403 15:49:54.419443 14547 net.cpp:141] Setting up inception_5a/relu_5x5_reduce
I0403 15:49:54.419472 14547 net.cpp:148] Top shape: 24 32 7 7 (37632)
I0403 15:49:54.419488 14547 net.cpp:156] Memory required for data: 1299351072
I0403 15:49:54.419503 14547 layer_factory.hpp:77] Creating layer inception_5a/5x5
I0403 15:49:54.419526 14547 net.cpp:91] Creating Layer inception_5a/5x5
I0403 15:49:54.419544 14547 net.cpp:425] inception_5a/5x5 <- inception_5a/5x5_reduce
I0403 15:49:54.419564 14547 net.cpp:399] inception_5a/5x5 -> inception_5a/5x5
I0403 15:49:54.421301 14547 net.cpp:141] Setting up inception_5a/5x5
I0403 15:49:54.421340 14547 net.cpp:148] Top shape: 24 128 7 7 (150528)
I0403 15:49:54.421362 14547 net.cpp:156] Memory required for data: 1299953184
I0403 15:49:54.421380 14547 layer_factory.hpp:77] Creating layer inception_5a/relu_5x5
I0403 15:49:54.421398 14547 net.cpp:91] Creating Layer inception_5a/relu_5x5
I0403 15:49:54.421416 14547 net.cpp:425] inception_5a/relu_5x5 <- inception_5a/5x5
I0403 15:49:54.421432 14547 net.cpp:386] inception_5a/relu_5x5 -> inception_5a/5x5 (in-place)
I0403 15:49:54.421622 14547 net.cpp:141] Setting up inception_5a/relu_5x5
I0403 15:49:54.421648 14547 net.cpp:148] Top shape: 24 128 7 7 (150528)
I0403 15:49:54.421663 14547 net.cpp:156] Memory required for data: 1300555296
I0403 15:49:54.421676 14547 layer_factory.hpp:77] Creating layer inception_5a/pool
I0403 15:49:54.421694 14547 net.cpp:91] Creating Layer inception_5a/pool
I0403 15:49:54.421710 14547 net.cpp:425] inception_5a/pool <- pool4/3x3_s2_pool4/3x3_s2_0_split_3
I0403 15:49:54.421730 14547 net.cpp:399] inception_5a/pool -> inception_5a/pool
I0403 15:49:54.421797 14547 net.cpp:141] Setting up inception_5a/pool
I0403 15:49:54.421823 14547 net.cpp:148] Top shape: 24 832 7 7 (978432)
I0403 15:49:54.421838 14547 net.cpp:156] Memory required for data: 1304469024
I0403 15:49:54.421854 14547 layer_factory.hpp:77] Creating layer inception_5a/pool_proj
I0403 15:49:54.421871 14547 net.cpp:91] Creating Layer inception_5a/pool_proj
I0403 15:49:54.421886 14547 net.cpp:425] inception_5a/pool_proj <- inception_5a/pool
I0403 15:49:54.421906 14547 net.cpp:399] inception_5a/pool_proj -> inception_5a/pool_proj
I0403 15:49:54.424180 14547 net.cpp:141] Setting up inception_5a/pool_proj
I0403 15:49:54.424209 14547 net.cpp:148] Top shape: 24 128 7 7 (150528)
I0403 15:49:54.424224 14547 net.cpp:156] Memory required for data: 1305071136
I0403 15:49:54.424243 14547 layer_factory.hpp:77] Creating layer inception_5a/relu_pool_proj
I0403 15:49:54.424263 14547 net.cpp:91] Creating Layer inception_5a/relu_pool_proj
I0403 15:49:54.424278 14547 net.cpp:425] inception_5a/relu_pool_proj <- inception_5a/pool_proj
I0403 15:49:54.424294 14547 net.cpp:386] inception_5a/relu_pool_proj -> inception_5a/pool_proj (in-place)
I0403 15:49:54.424583 14547 net.cpp:141] Setting up inception_5a/relu_pool_proj
I0403 15:49:54.424610 14547 net.cpp:148] Top shape: 24 128 7 7 (150528)
I0403 15:49:54.424625 14547 net.cpp:156] Memory required for data: 1305673248
I0403 15:49:54.424639 14547 layer_factory.hpp:77] Creating layer inception_5a/output
I0403 15:49:54.424659 14547 net.cpp:91] Creating Layer inception_5a/output
I0403 15:49:54.424676 14547 net.cpp:425] inception_5a/output <- inception_5a/1x1
I0403 15:49:54.424693 14547 net.cpp:425] inception_5a/output <- inception_5a/3x3
I0403 15:49:54.424708 14547 net.cpp:425] inception_5a/output <- inception_5a/5x5
I0403 15:49:54.424724 14547 net.cpp:425] inception_5a/output <- inception_5a/pool_proj
I0403 15:49:54.424741 14547 net.cpp:399] inception_5a/output -> inception_5a/output
I0403 15:49:54.424790 14547 net.cpp:141] Setting up inception_5a/output
I0403 15:49:54.424813 14547 net.cpp:148] Top shape: 24 832 7 7 (978432)
I0403 15:49:54.424828 14547 net.cpp:156] Memory required for data: 1309586976
I0403 15:49:54.424841 14547 layer_factory.hpp:77] Creating layer inception_5a/output_inception_5a/output_0_split
I0403 15:49:54.424857 14547 net.cpp:91] Creating Layer inception_5a/output_inception_5a/output_0_split
I0403 15:49:54.424872 14547 net.cpp:425] inception_5a/output_inception_5a/output_0_split <- inception_5a/output
I0403 15:49:54.424890 14547 net.cpp:399] inception_5a/output_inception_5a/output_0_split -> inception_5a/output_inception_5a/output_0_split_0
I0403 15:49:54.424911 14547 net.cpp:399] inception_5a/output_inception_5a/output_0_split -> inception_5a/output_inception_5a/output_0_split_1
I0403 15:49:54.424932 14547 net.cpp:399] inception_5a/output_inception_5a/output_0_split -> inception_5a/output_inception_5a/output_0_split_2
I0403 15:49:54.424950 14547 net.cpp:399] inception_5a/output_inception_5a/output_0_split -> inception_5a/output_inception_5a/output_0_split_3
I0403 15:49:54.425062 14547 net.cpp:141] Setting up inception_5a/output_inception_5a/output_0_split
I0403 15:49:54.425089 14547 net.cpp:148] Top shape: 24 832 7 7 (978432)
I0403 15:49:54.425107 14547 net.cpp:148] Top shape: 24 832 7 7 (978432)
I0403 15:49:54.425122 14547 net.cpp:148] Top shape: 24 832 7 7 (978432)
I0403 15:49:54.425142 14547 net.cpp:148] Top shape: 24 832 7 7 (978432)
I0403 15:49:54.425155 14547 net.cpp:156] Memory required for data: 1325241888
I0403 15:49:54.425169 14547 layer_factory.hpp:77] Creating layer inception_5b/1x1
I0403 15:49:54.425190 14547 net.cpp:91] Creating Layer inception_5b/1x1
I0403 15:49:54.425207 14547 net.cpp:425] inception_5b/1x1 <- inception_5a/output_inception_5a/output_0_split_0
I0403 15:49:54.425226 14547 net.cpp:399] inception_5b/1x1 -> inception_5b/1x1
I0403 15:49:54.428916 14547 net.cpp:141] Setting up inception_5b/1x1
I0403 15:49:54.428946 14547 net.cpp:148] Top shape: 24 384 7 7 (451584)
I0403 15:49:54.428961 14547 net.cpp:156] Memory required for data: 1327048224
I0403 15:49:54.428980 14547 layer_factory.hpp:77] Creating layer inception_5b/relu_1x1
I0403 15:49:54.428999 14547 net.cpp:91] Creating Layer inception_5b/relu_1x1
I0403 15:49:54.429015 14547 net.cpp:425] inception_5b/relu_1x1 <- inception_5b/1x1
I0403 15:49:54.429033 14547 net.cpp:386] inception_5b/relu_1x1 -> inception_5b/1x1 (in-place)
I0403 15:49:54.429332 14547 net.cpp:141] Setting up inception_5b/relu_1x1
I0403 15:49:54.429358 14547 net.cpp:148] Top shape: 24 384 7 7 (451584)
I0403 15:49:54.429373 14547 net.cpp:156] Memory required for data: 1328854560
I0403 15:49:54.429388 14547 layer_factory.hpp:77] Creating layer inception_5b/3x3_reduce
I0403 15:49:54.429410 14547 net.cpp:91] Creating Layer inception_5b/3x3_reduce
I0403 15:49:54.429428 14547 net.cpp:425] inception_5b/3x3_reduce <- inception_5a/output_inception_5a/output_0_split_1
I0403 15:49:54.429448 14547 net.cpp:399] inception_5b/3x3_reduce -> inception_5b/3x3_reduce
I0403 15:49:54.432111 14547 net.cpp:141] Setting up inception_5b/3x3_reduce
I0403 15:49:54.432144 14547 net.cpp:148] Top shape: 24 192 7 7 (225792)
I0403 15:49:54.432160 14547 net.cpp:156] Memory required for data: 1329757728
I0403 15:49:54.432178 14547 layer_factory.hpp:77] Creating layer inception_5b/relu_3x3_reduce
I0403 15:49:54.432199 14547 net.cpp:91] Creating Layer inception_5b/relu_3x3_reduce
I0403 15:49:54.432215 14547 net.cpp:425] inception_5b/relu_3x3_reduce <- inception_5b/3x3_reduce
I0403 15:49:54.432232 14547 net.cpp:386] inception_5b/relu_3x3_reduce -> inception_5b/3x3_reduce (in-place)
I0403 15:49:54.432416 14547 net.cpp:141] Setting up inception_5b/relu_3x3_reduce
I0403 15:49:54.432445 14547 net.cpp:148] Top shape: 24 192 7 7 (225792)
I0403 15:49:54.432459 14547 net.cpp:156] Memory required for data: 1330660896
I0403 15:49:54.432474 14547 layer_factory.hpp:77] Creating layer inception_5b/3x3
I0403 15:49:54.432495 14547 net.cpp:91] Creating Layer inception_5b/3x3
I0403 15:49:54.432512 14547 net.cpp:425] inception_5b/3x3 <- inception_5b/3x3_reduce
I0403 15:49:54.432531 14547 net.cpp:399] inception_5b/3x3 -> inception_5b/3x3
I0403 15:49:54.439100 14547 net.cpp:141] Setting up inception_5b/3x3
I0403 15:49:54.439131 14547 net.cpp:148] Top shape: 24 384 7 7 (451584)
I0403 15:49:54.439148 14547 net.cpp:156] Memory required for data: 1332467232
I0403 15:49:54.439167 14547 layer_factory.hpp:77] Creating layer inception_5b/relu_3x3
I0403 15:49:54.439188 14547 net.cpp:91] Creating Layer inception_5b/relu_3x3
I0403 15:49:54.439206 14547 net.cpp:425] inception_5b/relu_3x3 <- inception_5b/3x3
I0403 15:49:54.439223 14547 net.cpp:386] inception_5b/relu_3x3 -> inception_5b/3x3 (in-place)
I0403 15:49:54.439527 14547 net.cpp:141] Setting up inception_5b/relu_3x3
I0403 15:49:54.439555 14547 net.cpp:148] Top shape: 24 384 7 7 (451584)
I0403 15:49:54.439570 14547 net.cpp:156] Memory required for data: 1334273568
I0403 15:49:54.439585 14547 layer_factory.hpp:77] Creating layer inception_5b/5x5_reduce
I0403 15:49:54.439622 14547 net.cpp:91] Creating Layer inception_5b/5x5_reduce
I0403 15:49:54.439652 14547 net.cpp:425] inception_5b/5x5_reduce <- inception_5a/output_inception_5a/output_0_split_2
I0403 15:49:54.439674 14547 net.cpp:399] inception_5b/5x5_reduce -> inception_5b/5x5_reduce
I0403 15:49:54.440927 14547 net.cpp:141] Setting up inception_5b/5x5_reduce
I0403 15:49:54.440955 14547 net.cpp:148] Top shape: 24 48 7 7 (56448)
I0403 15:49:54.440971 14547 net.cpp:156] Memory required for data: 1334499360
I0403 15:49:54.440989 14547 layer_factory.hpp:77] Creating layer inception_5b/relu_5x5_reduce
I0403 15:49:54.441009 14547 net.cpp:91] Creating Layer inception_5b/relu_5x5_reduce
I0403 15:49:54.441025 14547 net.cpp:425] inception_5b/relu_5x5_reduce <- inception_5b/5x5_reduce
I0403 15:49:54.441042 14547 net.cpp:386] inception_5b/relu_5x5_reduce -> inception_5b/5x5_reduce (in-place)
I0403 15:49:54.441412 14547 net.cpp:141] Setting up inception_5b/relu_5x5_reduce
I0403 15:49:54.441438 14547 net.cpp:148] Top shape: 24 48 7 7 (56448)
I0403 15:49:54.441454 14547 net.cpp:156] Memory required for data: 1334725152
I0403 15:49:54.441468 14547 layer_factory.hpp:77] Creating layer inception_5b/5x5
I0403 15:49:54.441488 14547 net.cpp:91] Creating Layer inception_5b/5x5
I0403 15:49:54.441505 14547 net.cpp:425] inception_5b/5x5 <- inception_5b/5x5_reduce
I0403 15:49:54.441524 14547 net.cpp:399] inception_5b/5x5 -> inception_5b/5x5
I0403 15:49:54.443549 14547 net.cpp:141] Setting up inception_5b/5x5
I0403 15:49:54.443578 14547 net.cpp:148] Top shape: 24 128 7 7 (150528)
I0403 15:49:54.443594 14547 net.cpp:156] Memory required for data: 1335327264
I0403 15:49:54.443614 14547 layer_factory.hpp:77] Creating layer inception_5b/relu_5x5
I0403 15:49:54.443648 14547 net.cpp:91] Creating Layer inception_5b/relu_5x5
I0403 15:49:54.443665 14547 net.cpp:425] inception_5b/relu_5x5 <- inception_5b/5x5
I0403 15:49:54.443682 14547 net.cpp:386] inception_5b/relu_5x5 -> inception_5b/5x5 (in-place)
I0403 15:49:54.443873 14547 net.cpp:141] Setting up inception_5b/relu_5x5
I0403 15:49:54.443898 14547 net.cpp:148] Top shape: 24 128 7 7 (150528)
I0403 15:49:54.443912 14547 net.cpp:156] Memory required for data: 1335929376
I0403 15:49:54.443927 14547 layer_factory.hpp:77] Creating layer inception_5b/pool
I0403 15:49:54.443943 14547 net.cpp:91] Creating Layer inception_5b/pool
I0403 15:49:54.443958 14547 net.cpp:425] inception_5b/pool <- inception_5a/output_inception_5a/output_0_split_3
I0403 15:49:54.443979 14547 net.cpp:399] inception_5b/pool -> inception_5b/pool
I0403 15:49:54.444047 14547 net.cpp:141] Setting up inception_5b/pool
I0403 15:49:54.444072 14547 net.cpp:148] Top shape: 24 832 7 7 (978432)
I0403 15:49:54.444085 14547 net.cpp:156] Memory required for data: 1339843104
I0403 15:49:54.444099 14547 layer_factory.hpp:77] Creating layer inception_5b/pool_proj
I0403 15:49:54.444123 14547 net.cpp:91] Creating Layer inception_5b/pool_proj
I0403 15:49:54.444144 14547 net.cpp:425] inception_5b/pool_proj <- inception_5b/pool
I0403 15:49:54.444164 14547 net.cpp:399] inception_5b/pool_proj -> inception_5b/pool_proj
I0403 15:49:54.446470 14547 net.cpp:141] Setting up inception_5b/pool_proj
I0403 15:49:54.446499 14547 net.cpp:148] Top shape: 24 128 7 7 (150528)
I0403 15:49:54.446516 14547 net.cpp:156] Memory required for data: 1340445216
I0403 15:49:54.446533 14547 layer_factory.hpp:77] Creating layer inception_5b/relu_pool_proj
I0403 15:49:54.446554 14547 net.cpp:91] Creating Layer inception_5b/relu_pool_proj
I0403 15:49:54.446571 14547 net.cpp:425] inception_5b/relu_pool_proj <- inception_5b/pool_proj
I0403 15:49:54.446589 14547 net.cpp:386] inception_5b/relu_pool_proj -> inception_5b/pool_proj (in-place)
I0403 15:49:54.446892 14547 net.cpp:141] Setting up inception_5b/relu_pool_proj
I0403 15:49:54.446919 14547 net.cpp:148] Top shape: 24 128 7 7 (150528)
I0403 15:49:54.446934 14547 net.cpp:156] Memory required for data: 1341047328
I0403 15:49:54.446949 14547 layer_factory.hpp:77] Creating layer inception_5b/output
I0403 15:49:54.446969 14547 net.cpp:91] Creating Layer inception_5b/output
I0403 15:49:54.447000 14547 net.cpp:425] inception_5b/output <- inception_5b/1x1
I0403 15:49:54.447017 14547 net.cpp:425] inception_5b/output <- inception_5b/3x3
I0403 15:49:54.447033 14547 net.cpp:425] inception_5b/output <- inception_5b/5x5
I0403 15:49:54.447048 14547 net.cpp:425] inception_5b/output <- inception_5b/pool_proj
I0403 15:49:54.447065 14547 net.cpp:399] inception_5b/output -> inception_5b/output
I0403 15:49:54.447120 14547 net.cpp:141] Setting up inception_5b/output
I0403 15:49:54.447149 14547 net.cpp:148] Top shape: 24 1024 7 7 (1204224)
I0403 15:49:54.447165 14547 net.cpp:156] Memory required for data: 1345864224
I0403 15:49:54.447178 14547 layer_factory.hpp:77] Creating layer pool5/7x7_s1
I0403 15:49:54.447196 14547 net.cpp:91] Creating Layer pool5/7x7_s1
I0403 15:49:54.447211 14547 net.cpp:425] pool5/7x7_s1 <- inception_5b/output
I0403 15:49:54.447232 14547 net.cpp:399] pool5/7x7_s1 -> pool5/7x7_s1
I0403 15:49:54.447466 14547 net.cpp:141] Setting up pool5/7x7_s1
I0403 15:49:54.447495 14547 net.cpp:148] Top shape: 24 1024 1 1 (24576)
I0403 15:49:54.447512 14547 net.cpp:156] Memory required for data: 1345962528
I0403 15:49:54.447528 14547 layer_factory.hpp:77] Creating layer pool5/drop_7x7_s1
I0403 15:49:54.447546 14547 net.cpp:91] Creating Layer pool5/drop_7x7_s1
I0403 15:49:54.447562 14547 net.cpp:425] pool5/drop_7x7_s1 <- pool5/7x7_s1
I0403 15:49:54.447581 14547 net.cpp:386] pool5/drop_7x7_s1 -> pool5/7x7_s1 (in-place)
I0403 15:49:54.447633 14547 net.cpp:141] Setting up pool5/drop_7x7_s1
I0403 15:49:54.447669 14547 net.cpp:148] Top shape: 24 1024 1 1 (24576)
I0403 15:49:54.447684 14547 net.cpp:156] Memory required for data: 1346060832
I0403 15:49:54.447698 14547 layer_factory.hpp:77] Creating layer loss3/classifier_plantvillage
I0403 15:49:54.447720 14547 net.cpp:91] Creating Layer loss3/classifier_plantvillage
I0403 15:49:54.447736 14547 net.cpp:425] loss3/classifier_plantvillage <- pool5/7x7_s1
I0403 15:49:54.447756 14547 net.cpp:399] loss3/classifier_plantvillage -> loss3/classifier_plantvillage
I0403 15:49:54.448191 14547 net.cpp:141] Setting up loss3/classifier_plantvillage
I0403 15:49:54.448217 14547 net.cpp:148] Top shape: 24 38 (912)
I0403 15:49:54.448232 14547 net.cpp:156] Memory required for data: 1346064480
I0403 15:49:54.448251 14547 layer_factory.hpp:77] Creating layer loss3/classifier_plantvillage_loss3/classifier_plantvillage_0_split
I0403 15:49:54.448268 14547 net.cpp:91] Creating Layer loss3/classifier_plantvillage_loss3/classifier_plantvillage_0_split
I0403 15:49:54.448282 14547 net.cpp:425] loss3/classifier_plantvillage_loss3/classifier_plantvillage_0_split <- loss3/classifier_plantvillage
I0403 15:49:54.448303 14547 net.cpp:399] loss3/classifier_plantvillage_loss3/classifier_plantvillage_0_split -> loss3/classifier_plantvillage_loss3/classifier_plantvillage_0_split_0
I0403 15:49:54.448325 14547 net.cpp:399] loss3/classifier_plantvillage_loss3/classifier_plantvillage_0_split -> loss3/classifier_plantvillage_loss3/classifier_plantvillage_0_split_1
I0403 15:49:54.448346 14547 net.cpp:399] loss3/classifier_plantvillage_loss3/classifier_plantvillage_0_split -> loss3/classifier_plantvillage_loss3/classifier_plantvillage_0_split_2
I0403 15:49:54.448366 14547 net.cpp:399] loss3/classifier_plantvillage_loss3/classifier_plantvillage_0_split -> loss3/classifier_plantvillage_loss3/classifier_plantvillage_0_split_3
I0403 15:49:54.448469 14547 net.cpp:141] Setting up loss3/classifier_plantvillage_loss3/classifier_plantvillage_0_split
I0403 15:49:54.448495 14547 net.cpp:148] Top shape: 24 38 (912)
I0403 15:49:54.448513 14547 net.cpp:148] Top shape: 24 38 (912)
I0403 15:49:54.448528 14547 net.cpp:148] Top shape: 24 38 (912)
I0403 15:49:54.448544 14547 net.cpp:148] Top shape: 24 38 (912)
I0403 15:49:54.448557 14547 net.cpp:156] Memory required for data: 1346079072
I0403 15:49:54.448571 14547 layer_factory.hpp:77] Creating layer loss1/loss
I0403 15:49:54.448593 14547 net.cpp:91] Creating Layer loss1/loss
I0403 15:49:54.448611 14547 net.cpp:425] loss1/loss <- loss1/classifier_plantvillage_loss1/classifier_plantvillage_0_split_0
I0403 15:49:54.448642 14547 net.cpp:425] loss1/loss <- label_data_1_split_0
…
