…
I0403 15:47:45.831996 14433 net.cpp:313] The NetState phase (1) differed from the phase (0) specified by a rule in layer data
I0403 15:47:45.833151 14433 net.cpp:49] Initializing net from parameters: 
state {
  phase: TEST
}
layer {
  name: "data"
  type: "Data"
  top: "data"
  top: "label"
  include {
    phase: TEST
  }
  transform_param {
    mirror: false
    crop_size: 224
    mean_file: "/home/mohanty/data/final_dataset/lmdb/color-80-20/mean.binaryproto"
  }
  data_param {
    source: "/home/mohanty/data/final_dataset/lmdb/color-80-20/test_db"
    batch_size: 24
    backend: LMDB
  }
}
layer {
  name: "conv1/7x7_s2"
  type: "Convolution"
  bottom: "data"
  top: "conv1/7x7_s2"
  param {
    lr_mult: 1
    decay_mult: 1
  }
  param {
    lr_mult: 2
    decay_mult: 0
  }
  convolution_param {
    num_output: 64
    pad: 3
    kernel_size: 7
    stride: 2
    weight_filler {
      type: "xavier"
      std: 0.1
    }
    bias_filler {
      type: "constant"
      value: 0.2
    }
  }
}
layer {
  name: "conv1/relu_7x7"
  type: "ReLU"
  bottom: "conv1/7x7_s2"
  top: "conv1/7x7_s2"
}
layer {
  name: "pool1/3x3_s2"
  type: "Pooling"
  bottom: "conv1/7x7_s2"
  top: "pool1/3x3_s2"
  pooling_param {
    pool: MAX
    kernel_size: 3
    stride: 2
  }
}
layer {
  name: "pool1/norm1"
  type: "LRN"
  bottom: "pool1/3x3_s2"
  top: "pool1/norm1"
  lrn_param {
    local_size: 5
    alpha: 0.0001
    beta: 0.75
  }
}
layer {
  name: "conv2/3x3_reduce"
  type: "Convolution"
  bottom: "pool1/norm1"
  top: "conv2/3x3_reduce"
  param {
    lr_mult: 1
    decay_mult: 1
  }
  param {
    lr_mult: 2
    decay_mult: 0
  }
  convolution_param {
    num_output: 64
    kernel_size: 1
    weight_filler {
      type: "xavier"
      std: 0.1
    }
    bias_filler {
      type: "constant"
      value: 0.2
    }
  }
}
layer {
  name: "conv2/relu_3x3_reduce"
  type: "ReLU"
  bottom: "conv2/3x3_reduce"
  top: "conv2/3x3_reduce"
}
layer {
  name: "conv2/3x3"
  type: "Convolution"
  bottom: "conv2/3x3_reduce"
  top: "conv2/3x3"
  param {
    lr_mult: 1
    decay_mult: 1
  }
  param {
    lr_mult: 2
    decay_mult: 0
  }
  convolution_param {
    num_output: 192
    pad: 1
    kernel_size: 3
    weight_filler {
      type: "xavier"
      std: 0.03
    }
    bias_filler {
      type: "constant"
      value: 0.2
    }
  }
}
layer {
  name: "conv2/relu_3x3"
  type: "ReLU"
  bottom: "conv2/3x3"
  top: "conv2/3x3"
}
layer {
  name: "conv2/norm2"
  type: "LRN"
  bottom: "conv2/3x3"
  top: "conv2/norm2"
  lrn_param {
    local_size: 5
    alpha: 0.0001
    beta: 0.75
  }
}
layer {
  name: "pool2/3x3_s2"
  type: "Pooling"
  bottom: "conv2/norm2"
  top: "pool2/3x3_s2"
  pooling_param {
    pool: MAX
    kernel_size: 3
    stride: 2
  }
}
layer {
  name: "inception_3a/1x1"
  type: "Convolution"
  bottom: "pool2/3x3_s2"
  top: "inception_3a/1x1"
  param {
    lr_mult: 1
    decay_mult: 1
  }
  param {
    lr_mult: 2
    decay_mult: 0
  }
  convolution_param {
    num_output: 64
    kernel_size: 1
    weight_filler {
      type: "xavier"
      std: 0.03
    }
    bias_filler {
      type: "constant"
      value: 0.2
    }
  }
}
layer {
  name: "inception_3a/relu_1x1"
  type: "ReLU"
  bottom: "inception_3a/1x1"
  top: "inception_3a/1x1"
}
layer {
  name: "inception_3a/3x3_reduce"
  type: "Convolution"
  bottom: "pool2/3x3_s2"
  top: "inception_3a/3x3_reduce"
  param {
    lr_mult: 1
    decay_mult: 1
  }
  param {
    lr_mult: 2
    decay_mult: 0
  }
  convolution_param {
    num_output: 96
    kernel_size: 1
    weight_filler {
      type: "xavier"
      std: 0.09
    }
    bias_filler {
      type: "constant"
      value: 0.2
    }
  }
}
layer {
  name: "inception_3a/relu_3x3_reduce"
  type: "ReLU"
  bottom: "inception_3a/3x3_reduce"
  top: "inception_3a/3x3_reduce"
}
layer {
  name: "inception_3a/3x3"
  type: "Convolution"
  bottom: "inception_3a/3x3_reduce"
  top: "inception_3a/3x3"
  param {
    lr_mult: 1
    decay_mult: 1
  }
  param {
    lr_mult: 2
    decay_mult: 0
  }
  convolution_param {
    num_output: 128
    pad: 1
    kernel_size: 3
    weight_filler {
      type: "xavier"
      std: 0.03
    }
    bias_filler {
      type: "constant"
      value: 0.2
    }
  }
}
layer {
  name: "inception_3a/relu_3x3"
  type: "ReLU"
  bottom: "inception_3a/3x3"
  top: "inception_3a/3x3"
}
layer {
  name: "inception_3a/5x5_reduce"
  type: "Convolution"
  bottom: "pool2/3x3_s2"
  top: "inception_3a/5x5_reduce"
  param {
    lr_mult: 1
    decay_mult: 1
  }
  param {
    lr_mult: 2
    decay_mult: 0
  }
  convolution_param {
    num_output: 16
    kernel_size: 1
    weight_filler {
      type: "xavier"
      std: 0.2
    }
    bias_filler {
      type: "constant"
      value: 0.2
    }
  }
}
layer {
  name: "inception_3a/relu_5x5_reduce"
  type: "ReLU"
  bottom: "inception_3a/5x5_reduce"
  top: "inception_3a/5x5_reduce"
}
layer {
  name: "inception_3a/5x5"
  type: "Convolution"
  bottom: "inception_3a/5x5_reduce"
  top: "inception_3a/5x5"
  param {
    lr_mult: 1
    decay_mult: 1
  }
  param {
    lr_mult: 2
    decay_mult: 0
  }
  convolution_param {
    num_output: 32
    pad: 2
    kernel_size: 5
    weight_filler {
      type: "xavier"
      std: 0.03
    }
    bias_filler {
      type: "constant"
      value: 0.2
    }
  }
}
layer {
  name: "inception_3a/relu_5x5"
  type: "ReLU"
  bottom: "inception_3a/5x5"
  top: "inception_3a/5x5"
}
layer {
  name: "inception_3a/pool"
  type: "Pooling"
  bottom: "pool2/3x3_s2"
  top: "inception_3a/pool"
  pooling_param {
    pool: MAX
    kernel_size: 3
    stride: 1
    pad: 1
  }
}
layer {
  name: "inception_3a/pool_proj"
  type: "Convolution"
  bottom: "inception_3a/pool"
  top: "inception_3a/pool_proj"
  param {
    lr_mult: 1
    decay_mult: 1
  }
  param {
    lr_mult: 2
    decay_mult: 0
  }
  convolution_param {
    num_output: 32
    kernel_size: 1
    weight_filler {
      type: "xavier"
      std: 0.1
    }
    bias_filler {
      type: "constant"
      value: 0.2
    }
  }
}
layer {
  name: "inception_3a/relu_pool_proj"
  type: "ReLU"
  bottom: "inception_3a/pool_proj"
  top: "inception_3a/pool_proj"
}
layer {
  name: "inception_3a/output"
  type: "Concat"
  bottom: "inception_3a/1x1"
  bottom: "inception_3a/3x3"
  bottom: "inception_3a/5x5"
  bottom: "inception_3a/pool_proj"
  top: "inception_3a/output"
}
layer {
  name: "inception_3b/1x1"
  type: "Convolution"
  bottom: "inception_3a/output"
  top: "inception_3b/1x1"
  param {
    lr_mult: 1
    decay_mult: 1
  }
  param {
    lr_mult: 2
    decay_mult: 0
  }
  convolution_param {
    num_output: 128
    kernel_size: 1
    weight_filler {
      type: "xavier"
      std: 0.03
    }
    bias_filler {
      type: "constant"
      value: 0.2
    }
  }
}
layer {
  name: "inception_3b/relu_1x1"
  type: "ReLU"
  bottom: "inception_3b/1x1"
  top: "inception_3b/1x1"
}
layer {
  name: "inception_3b/3x3_reduce"
  type: "Convolution"
  bottom: "inception_3a/output"
  top: "inception_3b/3x3_reduce"
  param {
    lr_mult: 1
    decay_mult: 1
  }
  param {
    lr_mult: 2
    decay_mult: 0
  }
  convolution_param {
    num_output: 128
    kernel_size: 1
    weight_filler {
      type: "xavier"
      std: 0.09
    }
    bias_filler {
      type: "constant"
      value: 0.2
    }
  }
}
layer {
  name: "inception_3b/relu_3x3_reduce"
  type: "ReLU"
  bottom: "inception_3b/3x3_reduce"
  top: "inception_3b/3x3_reduce"
}
layer {
  name: "inception_3b/3x3"
  type: "Convolution"
  bottom: "inception_3b/3x3_reduce"
  top: "inception_3b/3x3"
  param {
    lr_mult: 1
    decay_mult: 1
  }
  param {
    lr_mult: 2
    decay_mult: 0
  }
  convolution_param {
    num_output: 192
    pad: 1
    kernel_size: 3
    weight_filler {
      type: "xavier"
      std: 0.03
    }
    bias_filler {
      type: "constant"
      value: 0.2
    }
  }
}
layer {
  name: "inception_3b/relu_3x3"
  type: "ReLU"
  bottom: "inception_3b/3x3"
  top: "inception_3b/3x3"
}
layer {
  name: "inception_3b/5x5_reduce"
  type: "Convolution"
  bottom: "inception_3a/output"
  top: "inception_3b/5x5_reduce"
  param {
    lr_mult: 1
    decay_mult: 1
  }
  param {
    lr_mult: 2
    decay_mult: 0
  }
  convolution_param {
    num_output: 32
    kernel_size: 1
    weight_filler {
      type: "xavier"
      std: 0.2
    }
    bias_filler {
      type: "constant"
      value: 0.2
    }
  }
}
layer {
  name: "inception_3b/relu_5x5_reduce"
  type: "ReLU"
  bottom: "inception_3b/5x5_reduce"
  top: "inception_3b/5x5_reduce"
}
layer {
  name: "inception_3b/5x5"
  type: "Convolution"
  bottom: "inception_3b/5x5_reduce"
  top: "inception_3b/5x5"
  param {
    lr_mult: 1
    decay_mult: 1
  }
  param {
    lr_mult: 2
    decay_mult: 0
  }
  convolution_param {
    num_output: 96
    pad: 2
    kernel_size: 5
    weight_filler {
      type: "xavier"
      std: 0.03
    }
    bias_filler {
      type: "constant"
      value: 0.2
    }
  }
}
layer {
  name: "inception_3b/relu_5x5"
  type: "ReLU"
  bottom: "inception_3b/5x5"
  top: "inception_3b/5x5"
}
layer {
  name: "inception_3b/pool"
  type: "Pooling"
  bottom: "inception_3a/output"
  top: "inception_3b/pool"
  pooling_param {
    pool: MAX
    kernel_size: 3
    stride: 1
    pad: 1
  }
}
layer {
  name: "inception_3b/pool_proj"
  type: "Convolution"
  bottom: "inception_3b/pool"
  top: "inception_3b/pool_proj"
  param {
    lr_mult: 1
    decay_mult: 1
  }
  param {
    lr_mult: 2
    decay_mult: 0
  }
  convolution_param {
    num_output: 64
    kernel_size: 1
    weight_filler {
      type: "xavier"
      std: 0.1
    }
    bias_filler {
      type: "constant"
      value: 0.2
    }
  }
}
layer {
  name: "inception_3b/relu_pool_proj"
  type: "ReLU"
  bottom: "inception_3b/pool_proj"
  top: "inception_3b/pool_proj"
}
layer {
  name: "inception_3b/output"
  type: "Concat"
  bottom: "inception_3b/1x1"
  bottom: "inception_3b/3x3"
  bottom: "inception_3b/5x5"
  bottom: "inception_3b/pool_proj"
  top: "inception_3b/output"
}
layer {
  name: "pool3/3x3_s2"
  type: "Pooling"
  bottom: "inception_3b/output"
  top: "pool3/3x3_s2"
  pooling_param {
    pool: MAX
    kernel_size: 3
    stride: 2
  }
}
layer {
  name: "inception_4a/1x1"
  type: "Convolution"
  bottom: "pool3/3x3_s2"
  top: "inception_4a/1x1"
  param {
    lr_mult: 1
    decay_mult: 1
  }
  param {
    lr_mult: 2
    decay_mult: 0
  }
  convolution_param {
    num_output: 192
    kernel_size: 1
    weight_filler {
      type: "xavier"
      std: 0.03
    }
    bias_filler {
      type: "constant"
      value: 0.2
    }
  }
}
layer {
  name: "inception_4a/relu_1x1"
  type: "ReLU"
  bottom: "inception_4a/1x1"
  top: "inception_4a/1x1"
}
layer {
  name: "inception_4a/3x3_reduce"
  type: "Convolution"
  bottom: "pool3/3x3_s2"
  top: "inception_4a/3x3_reduce"
  param {
    lr_mult: 1
    decay_mult: 1
  }
  param {
    lr_mult: 2
    decay_mult: 0
  }
  convolution_param {
    num_output: 96
    kernel_size: 1
    weight_filler {
      type: "xavier"
      std: 0.09
    }
    bias_filler {
      type: "constant"
      value: 0.2
    }
  }
}
layer {
  name: "inception_4a/relu_3x3_reduce"
  type: "ReLU"
  bottom: "inception_4a/3x3_reduce"
  top: "inception_4a/3x3_reduce"
}
layer {
  name: "inception_4a/3x3"
  type: "Convolution"
  bottom: "inception_4a/3x3_reduce"
  top: "inception_4a/3x3"
  param {
    lr_mult: 1
    decay_mult: 1
  }
  param {
    lr_mult: 2
    decay_mult: 0
  }
  convolution_param {
    num_output: 208
    pad: 1
    kernel_size: 3
    weight_filler {
      type: "xavier"
      std: 0.03
    }
    bias_filler {
      type: "constant"
      value: 0.2
    }
  }
}
layer {
  name: "inception_4a/relu_3x3"
  type: "ReLU"
  bottom: "inception_4a/3x3"
  top: "inception_4a/3x3"
}
layer {
  name: "inception_4a/5x5_reduce"
  type: "Convolution"
  bottom: "pool3/3x3_s2"
  top: "inception_4a/5x5_reduce"
  param {
    lr_mult: 1
    decay_mult: 1
  }
  param {
    lr_mult: 2
    decay_mult: 0
  }
  convolution_param {
    num_output: 16
    kernel_size: 1
    weight_filler {
      type: "xavier"
      std: 0.2
    }
    bias_filler {
      type: "constant"
      value: 0.2
    }
  }
}
layer {
  name: "inception_4a/relu_5x5_reduce"
  type: "ReLU"
  bottom: "inception_4a/5x5_reduce"
  top: "inception_4a/5x5_reduce"
}
layer {
  name: "inception_4a/5x5"
  type: "Convolution"
  bottom: "inception_4a/5x5_reduce"
  top: "inception_4a/5x5"
  param {
    lr_mult: 1
    decay_mult: 1
  }
  param {
    lr_mult: 2
    decay_mult: 0
  }
  convolution_param {
    num_output: 48
    pad: 2
    kernel_size: 5
    weight_filler {
      type: "xavier"
      std: 0.03
    }
    bias_filler {
      type: "constant"
      value: 0.2
    }
  }
}
layer {
  name: "inception_4a/relu_5x5"
  type: "ReLU"
  bottom: "inception_4a/5x5"
  top: "inception_4a/5x5"
}
layer {
  name: "inception_4a/pool"
  type: "Pooling"
  bottom: "pool3/3x3_s2"
  top: "inception_4a/pool"
  pooling_param {
    pool: MAX
    kernel_size: 3
    stride: 1
    pad: 1
  }
}
layer {
  name: "inception_4a/pool_proj"
  type: "Convolution"
  bottom: "inception_4a/pool"
  top: "inception_4a/pool_proj"
  param {
    lr_mult: 1
    decay_mult: 1
  }
  param {
    lr_mult: 2
    decay_mult: 0
  }
  convolution_param {
    num_output: 64
    kernel_size: 1
    weight_filler {
      type: "xavier"
      std: 0.1
    }
    bias_filler {
      type: "constant"
      value: 0.2
    }
  }
}
layer {
  name: "inception_4a/relu_pool_proj"
  type: "ReLU"
  bottom: "inception_4a/pool_proj"
  top: "inception_4a/pool_proj"
}
layer {
  name: "inception_4a/output"
  type: "Concat"
  bottom: "inception_4a/1x1"
  bottom: "inception_4a/3x3"
  bottom: "inception_4a/5x5"
  bottom: "inception_4a/pool_proj"
  top: "inception_4a/output"
}
layer {
  name: "loss1/ave_pool"
  type: "Pooling"
  bottom: "inception_4a/output"
  top: "loss1/ave_pool"
  pooling_param {
    pool: AVE
    kernel_size: 5
    stride: 3
  }
}
layer {
  name: "loss1/conv"
  type: "Convolution"
  bottom: "loss1/ave_pool"
  top: "loss1/conv"
  param {
    lr_mult: 1
    decay_mult: 1
  }
  param {
    lr_mult: 2
    decay_mult: 0
  }
  convolution_param {
    num_output: 128
    kernel_size: 1
    weight_filler {
      type: "xavier"
      std: 0.08
    }
    bias_filler {
      type: "constant"
      value: 0.2
    }
  }
}
layer {
  name: "loss1/relu_conv"
  type: "ReLU"
  bottom: "loss1/conv"
  top: "loss1/conv"
}
layer {
  name: "loss1/fc"
  type: "InnerProduct"
  bottom: "loss1/conv"
  top: "loss1/fc"
  param {
    lr_mult: 1
    decay_mult: 1
  }
  param {
    lr_mult: 2
    decay_mult: 0
  }
  inner_product_param {
    num_output: 1024
    weight_filler {
      type: "xavier"
      std: 0.02
    }
    bias_filler {
      type: "constant"
      value: 0.2
    }
  }
}
layer {
  name: "loss1/relu_fc"
  type: "ReLU"
  bottom: "loss1/fc"
  top: "loss1/fc"
}
layer {
  name: "loss1/drop_fc"
  type: "Dropout"
  bottom: "loss1/fc"
  top: "loss1/fc"
  dropout_param {
    dropout_ratio: 0.7
  }
}
layer {
  name: "loss1/classifier_plantvillage"
  type: "InnerProduct"
  bottom: "loss1/fc"
  top: "loss1/classifier_plantvillage"
  param {
    lr_mult: 1
    decay_mult: 1
  }
  param {
    lr_mult: 2
    decay_mult: 0
  }
  inner_product_param {
    num_output: 38
    weight_filler {
      type: "xavier"
      std: 0.0009765625
    }
    bias_filler {
      type: "constant"
      value: 0
    }
  }
}
layer {
  name: "inception_4b/1x1"
  type: "Convolution"
  bottom: "inception_4a/output"
  top: "inception_4b/1x1"
  param {
    lr_mult: 1
    decay_mult: 1
  }
  param {
    lr_mult: 2
    decay_mult: 0
  }
  convolution_param {
    num_output: 160
    kernel_size: 1
    weight_filler {
      type: "xavier"
      std: 0.03
    }
    bias_filler {
      type: "constant"
      value: 0.2
    }
  }
}
layer {
  name: "inception_4b/relu_1x1"
  type: "ReLU"
  bottom: "inception_4b/1x1"
  top: "inception_4b/1x1"
}
layer {
  name: "inception_4b/3x3_reduce"
  type: "Convolution"
  bottom: "inception_4a/output"
  top: "inception_4b/3x3_reduce"
  param {
    lr_mult: 1
    decay_mult: 1
  }
  param {
    lr_mult: 2
    decay_mult: 0
  }
  convolution_param {
    num_output: 112
    kernel_size: 1
    weight_filler {
      type: "xavier"
      std: 0.09
    }
    bias_filler {
      type: "constant"
      value: 0.2
    }
  }
}
layer {
  name: "inception_4b/relu_3x3_reduce"
  type: "ReLU"
  bottom: "inception_4b/3x3_reduce"
  top: "inception_4b/3x3_reduce"
}
layer {
  name: "inception_4b/3x3"
  type: "Convolution"
  bottom: "inception_4b/3x3_reduce"
  top: "inception_4b/3x3"
  param {
    lr_mult: 1
    decay_mult: 1
  }
  param {
    lr_mult: 2
    decay_mult: 0
  }
  convolution_param {
    num_output: 224
    pad: 1
    kernel_size: 3
    weight_filler {
      type: "xavier"
      std: 0.03
    }
    bias_filler {
      type: "constant"
      value: 0.2
    }
  }
}
layer {
  name: "inception_4b/relu_3x3"
  type: "ReLU"
  bottom: "inception_4b/3x3"
  top: "inception_4b/3x3"
}
layer {
  name: "inception_4b/5x5_reduce"
  type: "Convolution"
  bottom: "inception_4a/output"
  top: "inception_4b/5x5_reduce"
  param {
    lr_mult: 1
    decay_mult: 1
  }
  param {
    lr_mult: 2
    decay_mult: 0
  }
  convolution_param {
    num_output: 24
    kernel_size: 1
    weight_filler {
      type: "xavier"
      std: 0.2
    }
    bias_filler {
      type: "constant"
      value: 0.2
    }
  }
}
layer {
  name: "inception_4b/relu_5x5_reduce"
  type: "ReLU"
  bottom: "inception_4b/5x5_reduce"
  top: "inception_4b/5x5_reduce"
}
layer {
  name: "inception_4b/5x5"
  type: "Convolution"
  bottom: "inception_4b/5x5_reduce"
  top: "inception_4b/5x5"
  param {
    lr_mult: 1
    decay_mult: 1
  }
  param {
    lr_mult: 2
    decay_mult: 0
  }
  convolution_param {
    num_output: 64
    pad: 2
    kernel_size: 5
    weight_filler {
      type: "xavier"
      std: 0.03
    }
    bias_filler {
      type: "constant"
      value: 0.2
    }
  }
}
layer {
  name: "inception_4b/relu_5x5"
  type: "ReLU"
  bottom: "inception_4b/5x5"
  top: "inception_4b/5x5"
}
layer {
  name: "inception_4b/pool"
  type: "Pooling"
  bottom: "inception_4a/output"
  top: "inception_4b/pool"
  pooling_param {
    pool: MAX
    kernel_size: 3
    stride: 1
    pad: 1
  }
}
layer {
  name: "inception_4b/pool_proj"
  type: "Convolution"
  bottom: "inception_4b/pool"
  top: "inception_4b/pool_proj"
  param {
    lr_mult: 1
    decay_mult: 1
  }
  param {
    lr_mult: 2
    decay_mult: 0
  }
  convolution_param {
    num_output: 64
    kernel_size: 1
    weight_filler {
      type: "xavier"
      std: 0.1
    }
    bias_filler {
      type: "constant"
      value: 0.2
    }
  }
}
layer {
  name: "inception_4b/relu_pool_proj"
  type: "ReLU"
  bottom: "inception_4b/pool_proj"
  top: "inception_4b/pool_proj"
}
layer {
  name: "inception_4b/output"
  type: "Concat"
  bottom: "inception_4b/1x1"
  bottom: "inception_4b/3x3"
  bottom: "inception_4b/5x5"
  bottom: "inception_4b/pool_proj"
  top: "inception_4b/output"
}
layer {
  name: "inception_4c/1x1"
  type: "Convolution"
  bottom: "inception_4b/output"
  top: "inception_4c/1x1"
  param {
    lr_mult: 1
    decay_mult: 1
  }
  param {
    lr_mult: 2
    decay_mult: 0
  }
  convolution_param {
    num_output: 128
    kernel_size: 1
    weight_filler {
      type: "xavier"
      std: 0.03
    }
    bias_filler {
      type: "constant"
      value: 0.2
    }
  }
}
layer {
  name: "inception_4c/relu_1x1"
  type: "ReLU"
  bottom: "inception_4c/1x1"
  top: "inception_4c/1x1"
}
layer {
  name: "inception_4c/3x3_reduce"
  type: "Convolution"
  bottom: "inception_4b/output"
  top: "inception_4c/3x3_reduce"
  param {
    lr_mult: 1
    decay_mult: 1
  }
  param {
    lr_mult: 2
    decay_mult: 0
  }
  convolution_param {
    num_output: 128
    kernel_size: 1
    weight_filler {
      type: "xavier"
      std: 0.09
    }
    bias_filler {
      type: "constant"
      value: 0.2
    }
  }
}
layer {
  name: "inception_4c/relu_3x3_reduce"
  type: "ReLU"
  bottom: "inception_4c/3x3_reduce"
  top: "inception_4c/3x3_reduce"
}
layer {
  name: "inception_4c/3x3"
  type: "Convolution"
  bottom: "inception_4c/3x3_reduce"
  top: "inception_4c/3x3"
  param {
    lr_mult: 1
    decay_mult: 1
  }
  param {
    lr_mult: 2
    decay_mult: 0
  }
  convolution_param {
    num_output: 256
    pad: 1
    kernel_size: 3
    weight_filler {
      type: "xavier"
      std: 0.03
    }
    bias_filler {
      type: "constant"
      value: 0.2
    }
  }
}
layer {
  name: "inception_4c/relu_3x3"
  type: "ReLU"
  bottom: "inception_4c/3x3"
  top: "inception_4c/3x3"
}
layer {
  name: "inception_4c/5x5_reduce"
  type: "Convolution"
  bottom: "inception_4b/output"
  top: "inception_4c/5x5_reduce"
  param {
    lr_mult: 1
    decay_mult: 1
  }
  param {
    lr_mult: 2
    decay_mult: 0
  }
  convolution_param {
    num_output: 24
    kernel_size: 1
    weight_filler {
      type: "xavier"
      std: 0.2
    }
    bias_filler {
      type: "constant"
      value: 0.2
    }
  }
}
layer {
  name: "inception_4c/relu_5x5_reduce"
  type: "ReLU"
  bottom: "inception_4c/5x5_reduce"
  top: "inception_4c/5x5_reduce"
}
layer {
  name: "inception_4c/5x5"
  type: "Convolution"
  bottom: "inception_4c/5x5_reduce"
  top: "inception_4c/5x5"
  param {
    lr_mult: 1
    decay_mult: 1
  }
  param {
    lr_mult: 2
    decay_mult: 0
  }
  convolution_param {
    num_output: 64
    pad: 2
    kernel_size: 5
    weight_filler {
      type: "xavier"
      std: 0.03
    }
    bias_filler {
      type: "constant"
      value: 0.2
    }
  }
}
layer {
  name: "inception_4c/relu_5x5"
  type: "ReLU"
  bottom: "inception_4c/5x5"
  top: "inception_4c/5x5"
}
layer {
  name: "inception_4c/pool"
  type: "Pooling"
  bottom: "inception_4b/output"
  top: "inception_4c/pool"
  pooling_param {
    pool: MAX
    kernel_size: 3
    stride: 1
    pad: 1
  }
}
layer {
  name: "inception_4c/pool_proj"
  type: "Convolution"
  bottom: "inception_4c/pool"
  top: "inception_4c/pool_proj"
  param {
    lr_mult: 1
    decay_mult: 1
  }
  param {
    lr_mult: 2
    decay_mult: 0
  }
  convolution_param {
    num_output: 64
    kernel_size: 1
    weight_filler {
      type: "xavier"
      std: 0.1
    }
    bias_filler {
      type: "constant"
      value: 0.2
    }
  }
}
layer {
  name: "inception_4c/relu_pool_proj"
  type: "ReLU"
  bottom: "inception_4c/pool_proj"
  top: "inception_4c/pool_proj"
}
layer {
  name: "inception_4c/output"
  type: "Concat"
  bottom: "inception_4c/1x1"
  bottom: "inception_4c/3x3"
  bottom: "inception_4c/5x5"
  bottom: "inception_4c/pool_proj"
  top: "inception_4c/output"
}
layer {
  name: "inception_4d/1x1"
  type: "Convolution"
  bottom: "inception_4c/output"
  top: "inception_4d/1x1"
  param {
    lr_mult: 1
    decay_mult: 1
  }
  param {
    lr_mult: 2
    decay_mult: 0
  }
  convolution_param {
    num_output: 112
    kernel_size: 1
    weight_filler {
      type: "xavier"
      std: 0.03
    }
    bias_filler {
      type: "constant"
      value: 0.2
    }
  }
}
layer {
  name: "inception_4d/relu_1x1"
  type: "ReLU"
  bottom: "inception_4d/1x1"
  top: "inception_4d/1x1"
}
layer {
  name: "inception_4d/3x3_reduce"
  type: "Convolution"
  bottom: "inception_4c/output"
  top: "inception_4d/3x3_reduce"
  param {
    lr_mult: 1
    decay_mult: 1
  }
  param {
    lr_mult: 2
    decay_mult: 0
  }
  convolution_param {
    num_output: 144
    kernel_size: 1
    weight_filler {
      type: "xavier"
      std: 0.09
    }
    bias_filler {
      type: "constant"
      value: 0.2
    }
  }
}
layer {
  name: "inception_4d/relu_3x3_reduce"
  type: "ReLU"
  bottom: "inception_4d/3x3_reduce"
  top: "inception_4d/3x3_reduce"
}
layer {
  name: "inception_4d/3x3"
  type: "Convolution"
  bottom: "inception_4d/3x3_reduce"
  top: "inception_4d/3x3"
  param {
    lr_mult: 1
    decay_mult: 1
  }
  param {
    lr_mult: 2
    decay_mult: 0
  }
  convolution_param {
    num_output: 288
    pad: 1
    kernel_size: 3
    weight_filler {
      type: "xavier"
      std: 0.03
    }
    bias_filler {
      type: "constant"
      value: 0.2
    }
  }
}
layer {
  name: "inception_4d/relu_3x3"
  type: "ReLU"
  bottom: "inception_4d/3x3"
  top: "inception_4d/3x3"
}
layer {
  name: "inception_4d/5x5_reduce"
  type: "Convolution"
  bottom: "inception_4c/output"
  top: "inception_4d/5x5_reduce"
  param {
    lr_mult: 1
    decay_mult: 1
  }
  param {
    lr_mult: 2
    decay_mult: 0
  }
  convolution_param {
    num_output: 32
    kernel_size: 1
    weight_filler {
      type: "xavier"
      std: 0.2
    }
    bias_filler {
      type: "constant"
      value: 0.2
    }
  }
}
layer {
  name: "inception_4d/relu_5x5_reduce"
  type: "ReLU"
  bottom: "inception_4d/5x5_reduce"
  top: "inception_4d/5x5_reduce"
}
layer {
  name: "inception_4d/5x5"
  type: "Convolution"
  bottom: "inception_4d/5x5_reduce"
  top: "inception_4d/5x5"
  param {
    lr_mult: 1
    decay_mult: 1
  }
  param {
    lr_mult: 2
    decay_mult: 0
  }
  convolution_param {
    num_output: 64
    pad: 2
    kernel_size: 5
    weight_filler {
      type: "xavier"
      std: 0.03
    }
    bias_filler {
      type: "constant"
      value: 0.2
    }
  }
}
layer {
  name: "inception_4d/relu_5x5"
  type: "ReLU"
  bottom: "inception_4d/5x5"
  top: "inception_4d/5x5"
}
layer {
  name: "inception_4d/pool"
  type: "Pooling"
  bottom: "inception_4c/output"
  top: "inception_4d/pool"
  pooling_param {
    pool: MAX
    kernel_size: 3
    stride: 1
    pad: 1
  }
}
layer {
  name: "inception_4d/pool_proj"
  type: "Convolution"
  bottom: "inception_4d/pool"
  top: "inception_4d/pool_proj"
  param {
    lr_mult: 1
    decay_mult: 1
  }
  param {
    lr_mult: 2
    decay_mult: 0
  }
  convolution_param {
    num_output: 64
    kernel_size: 1
    weight_filler {
      type: "xavier"
      std: 0.1
    }
    bias_filler {
      type: "constant"
      value: 0.2
    }
  }
}
layer {
  name: "inception_4d/relu_pool_proj"
  type: "ReLU"
  bottom: "inception_4d/pool_proj"
  top: "inception_4d/pool_proj"
}
layer {
  name: "inception_4d/output"
  type: "Concat"
  bottom: "inception_4d/1x1"
  bottom: "inception_4d/3x3"
  bottom: "inception_4d/5x5"
  bottom: "inception_4d/pool_proj"
  top: "inception_4d/output"
}
layer {
  name: "loss2/ave_pool"
  type: "Pooling"
  bottom: "inception_4d/output"
  top: "loss2/ave_pool"
  pooling_param {
    pool: AVE
    kernel_size: 5
    stride: 3
  }
}
layer {
  name: "loss2/conv"
  type: "Convolution"
  bottom: "loss2/ave_pool"
  top: "loss2/conv"
  param {
    lr_mult: 1
    decay_mult: 1
  }
  param {
    lr_mult: 2
    decay_mult: 0
  }
  convolution_param {
    num_output: 128
    kernel_size: 1
    weight_filler {
      type: "xavier"
      std: 0.08
    }
    bias_filler {
      type: "constant"
      value: 0.2
    }
  }
}
layer {
  name: "loss2/relu_conv"
  type: "ReLU"
  bottom: "loss2/conv"
  top: "loss2/conv"
}
layer {
  name: "loss2/fc"
  type: "InnerProduct"
  bottom: "loss2/conv"
  top: "loss2/fc"
  param {
    lr_mult: 1
    decay_mult: 1
  }
  param {
    lr_mult: 2
    decay_mult: 0
  }
  inner_product_param {
    num_output: 1024
    weight_filler {
      type: "xavier"
      std: 0.02
    }
    bias_filler {
      type: "constant"
      value: 0.2
    }
  }
}
layer {
  name: "loss2/relu_fc"
  type: "ReLU"
  bottom: "loss2/fc"
  top: "loss2/fc"
}
layer {
  name: "loss2/drop_fc"
  type: "Dropout"
  bottom: "loss2/fc"
  top: "loss2/fc"
  dropout_param {
    dropout_ratio: 0.7
  }
}
layer {
  name: "loss2/classifier_plantvillage"
  type: "InnerProduct"
  bottom: "loss2/fc"
  top: "loss2/classifier_plantvillage"
  param {
    lr_mult: 1
    decay_mult: 1
  }
  param {
    lr_mult: 2
    decay_mult: 0
  }
  inner_product_param {
    num_output: 38
    weight_filler {
      type: "xavier"
      std: 0.0009765625
    }
    bias_filler {
      type: "constant"
      value: 0
    }
  }
}
layer {
  name: "inception_4e/1x1"
  type: "Convolution"
  bottom: "inception_4d/output"
  top: "inception_4e/1x1"
  param {
    lr_mult: 1
    decay_mult: 1
  }
  param {
    lr_mult: 2
    decay_mult: 0
  }
  convolution_param {
    num_output: 256
    kernel_size: 1
    weight_filler {
      type: "xavier"
      std: 0.03
    }
    bias_filler {
      type: "constant"
      value: 0.2
    }
  }
}
layer {
  name: "inception_4e/relu_1x1"
  type: "ReLU"
  bottom: "inception_4e/1x1"
  top: "inception_4e/1x1"
}
layer {
  name: "inception_4e/3x3_reduce"
  type: "Convolution"
  bottom: "inception_4d/output"
  top: "inception_4e/3x3_reduce"
  param {
    lr_mult: 1
    decay_mult: 1
  }
  param {
    lr_mult: 2
    decay_mult: 0
  }
  convolution_param {
    num_output: 160
    kernel_size: 1
    weight_filler {
      type: "xavier"
      std: 0.09
    }
    bias_filler {
      type: "constant"
      value: 0.2
    }
  }
}
layer {
  name: "inception_4e/relu_3x3_reduce"
  type: "ReLU"
  bottom: "inception_4e/3x3_reduce"
  top: "inception_4e/3x3_reduce"
}
layer {
  name: "inception_4e/3x3"
  type: "Convolution"
  bottom: "inception_4e/3x3_reduce"
  top: "inception_4e/3x3"
  param {
    lr_mult: 1
    decay_mult: 1
  }
  param {
    lr_mult: 2
    decay_mult: 0
  }
  convolution_param {
    num_output: 320
    pad: 1
    kernel_size: 3
    weight_filler {
      type: "xavier"
      std: 0.03
    }
    bias_filler {
      type: "constant"
      value: 0.2
    }
  }
}
layer {
  name: "inception_4e/relu_3x3"
  type: "ReLU"
  bottom: "inception_4e/3x3"
  top: "inception_4e/3x3"
}
layer {
  name: "inception_4e/5x5_reduce"
  type: "Convolution"
  bottom: "inception_4d/output"
  top: "inception_4e/5x5_reduce"
  param {
    lr_mult: 1
    decay_mult: 1
  }
  param {
    lr_mult: 2
    decay_mult: 0
  }
  convolution_param {
    num_output: 32
    kernel_size: 1
    weight_filler {
      type: "xavier"
      std: 0.2
    }
    bias_filler {
      type: "constant"
      value: 0.2
    }
  }
}
layer {
  name: "inception_4e/relu_5x5_reduce"
  type: "ReLU"
  bottom: "inception_4e/5x5_reduce"
  top: "inception_4e/5x5_reduce"
}
layer {
  name: "inception_4e/5x5"
  type: "Convolution"
  bottom: "inception_4e/5x5_reduce"
  top: "inception_4e/5x5"
  p
I0403 15:47:45.834427 14433 layer_factory.hpp:77] Creating layer data
I0403 15:47:45.835064 14433 net.cpp:91] Creating Layer data
I0403 15:47:45.835098 14433 net.cpp:399] data -> data
I0403 15:47:45.835155 14433 net.cpp:399] data -> label
I0403 15:47:45.835191 14433 data_transformer.cpp:25] Loading mean file from: /home/mohanty/data/final_dataset/lmdb/color-80-20/mean.binaryproto
I0403 15:47:45.837718 14437 db_lmdb.cpp:38] Opened lmdb /home/mohanty/data/final_dataset/lmdb/color-80-20/test_db
I0403 15:47:45.848532 14433 data_layer.cpp:41] output data size: 24,3,224,224
I0403 15:47:45.877105 14433 net.cpp:141] Setting up data
I0403 15:47:45.877192 14433 net.cpp:148] Top shape: 24 3 224 224 (3612672)
I0403 15:47:45.877216 14433 net.cpp:148] Top shape: 24 (24)
I0403 15:47:45.877233 14433 net.cpp:156] Memory required for data: 14450784
I0403 15:47:45.877259 14433 layer_factory.hpp:77] Creating layer label_data_1_split
I0403 15:47:45.877286 14433 net.cpp:91] Creating Layer label_data_1_split
I0403 15:47:45.877305 14433 net.cpp:425] label_data_1_split <- label
I0403 15:47:45.877336 14433 net.cpp:399] label_data_1_split -> label_data_1_split_0
I0403 15:47:45.877365 14433 net.cpp:399] label_data_1_split -> label_data_1_split_1
I0403 15:47:45.877388 14433 net.cpp:399] label_data_1_split -> label_data_1_split_2
I0403 15:47:45.877410 14433 net.cpp:399] label_data_1_split -> label_data_1_split_3
I0403 15:47:45.877430 14433 net.cpp:399] label_data_1_split -> label_data_1_split_4
I0403 15:47:45.877451 14433 net.cpp:399] label_data_1_split -> label_data_1_split_5
I0403 15:47:45.877471 14433 net.cpp:399] label_data_1_split -> label_data_1_split_6
I0403 15:47:45.877491 14433 net.cpp:399] label_data_1_split -> label_data_1_split_7
I0403 15:47:45.877513 14433 net.cpp:399] label_data_1_split -> label_data_1_split_8
I0403 15:47:45.877535 14433 net.cpp:399] label_data_1_split -> label_data_1_split_9
I0403 15:47:45.877657 14433 net.cpp:141] Setting up label_data_1_split
I0403 15:47:45.877682 14433 net.cpp:148] Top shape: 24 (24)
I0403 15:47:45.877699 14433 net.cpp:148] Top shape: 24 (24)
I0403 15:47:45.877715 14433 net.cpp:148] Top shape: 24 (24)
I0403 15:47:45.877732 14433 net.cpp:148] Top shape: 24 (24)
I0403 15:47:45.877748 14433 net.cpp:148] Top shape: 24 (24)
I0403 15:47:45.877764 14433 net.cpp:148] Top shape: 24 (24)
I0403 15:47:45.877780 14433 net.cpp:148] Top shape: 24 (24)
I0403 15:47:45.877796 14433 net.cpp:148] Top shape: 24 (24)
I0403 15:47:45.877812 14433 net.cpp:148] Top shape: 24 (24)
I0403 15:47:45.877828 14433 net.cpp:148] Top shape: 24 (24)
I0403 15:47:45.877876 14433 net.cpp:156] Memory required for data: 14451744
I0403 15:47:45.877892 14433 layer_factory.hpp:77] Creating layer conv1/7x7_s2
I0403 15:47:45.877925 14433 net.cpp:91] Creating Layer conv1/7x7_s2
I0403 15:47:45.877944 14433 net.cpp:425] conv1/7x7_s2 <- data
I0403 15:47:45.877965 14433 net.cpp:399] conv1/7x7_s2 -> conv1/7x7_s2
I0403 15:47:46.024121 14433 net.cpp:141] Setting up conv1/7x7_s2
I0403 15:47:46.024196 14433 net.cpp:148] Top shape: 24 64 112 112 (19267584)
I0403 15:47:46.024214 14433 net.cpp:156] Memory required for data: 91522080
I0403 15:47:46.024246 14433 layer_factory.hpp:77] Creating layer conv1/relu_7x7
I0403 15:47:46.024276 14433 net.cpp:91] Creating Layer conv1/relu_7x7
I0403 15:47:46.024294 14433 net.cpp:425] conv1/relu_7x7 <- conv1/7x7_s2
I0403 15:47:46.024313 14433 net.cpp:386] conv1/relu_7x7 -> conv1/7x7_s2 (in-place)
I0403 15:47:46.024585 14433 net.cpp:141] Setting up conv1/relu_7x7
I0403 15:47:46.024613 14433 net.cpp:148] Top shape: 24 64 112 112 (19267584)
I0403 15:47:46.024629 14433 net.cpp:156] Memory required for data: 168592416
I0403 15:47:46.024646 14433 layer_factory.hpp:77] Creating layer pool1/3x3_s2
I0403 15:47:46.024714 14433 net.cpp:91] Creating Layer pool1/3x3_s2
I0403 15:47:46.024739 14433 net.cpp:425] pool1/3x3_s2 <- conv1/7x7_s2
I0403 15:47:46.024757 14433 net.cpp:399] pool1/3x3_s2 -> pool1/3x3_s2
I0403 15:47:46.024835 14433 net.cpp:141] Setting up pool1/3x3_s2
I0403 15:47:46.024863 14433 net.cpp:148] Top shape: 24 64 56 56 (4816896)
I0403 15:47:46.024878 14433 net.cpp:156] Memory required for data: 187860000
I0403 15:47:46.024893 14433 layer_factory.hpp:77] Creating layer pool1/norm1
I0403 15:47:46.024919 14433 net.cpp:91] Creating Layer pool1/norm1
I0403 15:47:46.024937 14433 net.cpp:425] pool1/norm1 <- pool1/3x3_s2
I0403 15:47:46.024956 14433 net.cpp:399] pool1/norm1 -> pool1/norm1
I0403 15:47:46.025260 14433 net.cpp:141] Setting up pool1/norm1
I0403 15:47:46.025290 14433 net.cpp:148] Top shape: 24 64 56 56 (4816896)
I0403 15:47:46.025306 14433 net.cpp:156] Memory required for data: 207127584
I0403 15:47:46.025322 14433 layer_factory.hpp:77] Creating layer conv2/3x3_reduce
I0403 15:47:46.025347 14433 net.cpp:91] Creating Layer conv2/3x3_reduce
I0403 15:47:46.025365 14433 net.cpp:425] conv2/3x3_reduce <- pool1/norm1
I0403 15:47:46.025384 14433 net.cpp:399] conv2/3x3_reduce -> conv2/3x3_reduce
I0403 15:47:46.026803 14433 net.cpp:141] Setting up conv2/3x3_reduce
I0403 15:47:46.026835 14433 net.cpp:148] Top shape: 24 64 56 56 (4816896)
I0403 15:47:46.026852 14433 net.cpp:156] Memory required for data: 226395168
I0403 15:47:46.026875 14433 layer_factory.hpp:77] Creating layer conv2/relu_3x3_reduce
I0403 15:47:46.026895 14433 net.cpp:91] Creating Layer conv2/relu_3x3_reduce
I0403 15:47:46.026911 14433 net.cpp:425] conv2/relu_3x3_reduce <- conv2/3x3_reduce
I0403 15:47:46.026929 14433 net.cpp:386] conv2/relu_3x3_reduce -> conv2/3x3_reduce (in-place)
I0403 15:47:46.027197 14433 net.cpp:141] Setting up conv2/relu_3x3_reduce
I0403 15:47:46.027225 14433 net.cpp:148] Top shape: 24 64 56 56 (4816896)
I0403 15:47:46.027241 14433 net.cpp:156] Memory required for data: 245662752
I0403 15:47:46.027257 14433 layer_factory.hpp:77] Creating layer conv2/3x3
I0403 15:47:46.027279 14433 net.cpp:91] Creating Layer conv2/3x3
I0403 15:47:46.027297 14433 net.cpp:425] conv2/3x3 <- conv2/3x3_reduce
I0403 15:47:46.027318 14433 net.cpp:399] conv2/3x3 -> conv2/3x3
I0403 15:47:46.029685 14433 net.cpp:141] Setting up conv2/3x3
I0403 15:47:46.029718 14433 net.cpp:148] Top shape: 24 192 56 56 (14450688)
I0403 15:47:46.029736 14433 net.cpp:156] Memory required for data: 303465504
I0403 15:47:46.029757 14433 layer_factory.hpp:77] Creating layer conv2/relu_3x3
I0403 15:47:46.029778 14433 net.cpp:91] Creating Layer conv2/relu_3x3
I0403 15:47:46.029794 14433 net.cpp:425] conv2/relu_3x3 <- conv2/3x3
I0403 15:47:46.029813 14433 net.cpp:386] conv2/relu_3x3 -> conv2/3x3 (in-place)
I0403 15:47:46.029994 14433 net.cpp:141] Setting up conv2/relu_3x3
I0403 15:47:46.030020 14433 net.cpp:148] Top shape: 24 192 56 56 (14450688)
I0403 15:47:46.030069 14433 net.cpp:156] Memory required for data: 361268256
I0403 15:47:46.030086 14433 layer_factory.hpp:77] Creating layer conv2/norm2
I0403 15:47:46.030113 14433 net.cpp:91] Creating Layer conv2/norm2
I0403 15:47:46.030133 14433 net.cpp:425] conv2/norm2 <- conv2/3x3
I0403 15:47:46.030151 14433 net.cpp:399] conv2/norm2 -> conv2/norm2
I0403 15:47:46.030520 14433 net.cpp:141] Setting up conv2/norm2
I0403 15:47:46.030550 14433 net.cpp:148] Top shape: 24 192 56 56 (14450688)
I0403 15:47:46.030566 14433 net.cpp:156] Memory required for data: 419071008
I0403 15:47:46.030582 14433 layer_factory.hpp:77] Creating layer pool2/3x3_s2
I0403 15:47:46.030603 14433 net.cpp:91] Creating Layer pool2/3x3_s2
I0403 15:47:46.030622 14433 net.cpp:425] pool2/3x3_s2 <- conv2/norm2
I0403 15:47:46.030640 14433 net.cpp:399] pool2/3x3_s2 -> pool2/3x3_s2
I0403 15:47:46.030699 14433 net.cpp:141] Setting up pool2/3x3_s2
I0403 15:47:46.030724 14433 net.cpp:148] Top shape: 24 192 28 28 (3612672)
I0403 15:47:46.030740 14433 net.cpp:156] Memory required for data: 433521696
I0403 15:47:46.030755 14433 layer_factory.hpp:77] Creating layer pool2/3x3_s2_pool2/3x3_s2_0_split
I0403 15:47:46.030776 14433 net.cpp:91] Creating Layer pool2/3x3_s2_pool2/3x3_s2_0_split
I0403 15:47:46.030793 14433 net.cpp:425] pool2/3x3_s2_pool2/3x3_s2_0_split <- pool2/3x3_s2
I0403 15:47:46.030812 14433 net.cpp:399] pool2/3x3_s2_pool2/3x3_s2_0_split -> pool2/3x3_s2_pool2/3x3_s2_0_split_0
I0403 15:47:46.030832 14433 net.cpp:399] pool2/3x3_s2_pool2/3x3_s2_0_split -> pool2/3x3_s2_pool2/3x3_s2_0_split_1
I0403 15:47:46.030853 14433 net.cpp:399] pool2/3x3_s2_pool2/3x3_s2_0_split -> pool2/3x3_s2_pool2/3x3_s2_0_split_2
I0403 15:47:46.030874 14433 net.cpp:399] pool2/3x3_s2_pool2/3x3_s2_0_split -> pool2/3x3_s2_pool2/3x3_s2_0_split_3
I0403 15:47:46.030951 14433 net.cpp:141] Setting up pool2/3x3_s2_pool2/3x3_s2_0_split
I0403 15:47:46.030975 14433 net.cpp:148] Top shape: 24 192 28 28 (3612672)
I0403 15:47:46.030992 14433 net.cpp:148] Top shape: 24 192 28 28 (3612672)
I0403 15:47:46.031008 14433 net.cpp:148] Top shape: 24 192 28 28 (3612672)
I0403 15:47:46.031024 14433 net.cpp:148] Top shape: 24 192 28 28 (3612672)
I0403 15:47:46.031039 14433 net.cpp:156] Memory required for data: 491324448
I0403 15:47:46.031054 14433 layer_factory.hpp:77] Creating layer inception_3a/1x1
I0403 15:47:46.031077 14433 net.cpp:91] Creating Layer inception_3a/1x1
I0403 15:47:46.031100 14433 net.cpp:425] inception_3a/1x1 <- pool2/3x3_s2_pool2/3x3_s2_0_split_0
I0403 15:47:46.031126 14433 net.cpp:399] inception_3a/1x1 -> inception_3a/1x1
I0403 15:47:46.032744 14433 net.cpp:141] Setting up inception_3a/1x1
I0403 15:47:46.032779 14433 net.cpp:148] Top shape: 24 64 28 28 (1204224)
I0403 15:47:46.032798 14433 net.cpp:156] Memory required for data: 496141344
I0403 15:47:46.032819 14433 layer_factory.hpp:77] Creating layer inception_3a/relu_1x1
I0403 15:47:46.032840 14433 net.cpp:91] Creating Layer inception_3a/relu_1x1
I0403 15:47:46.032857 14433 net.cpp:425] inception_3a/relu_1x1 <- inception_3a/1x1
I0403 15:47:46.032876 14433 net.cpp:386] inception_3a/relu_1x1 -> inception_3a/1x1 (in-place)
I0403 15:47:46.033066 14433 net.cpp:141] Setting up inception_3a/relu_1x1
I0403 15:47:46.033104 14433 net.cpp:148] Top shape: 24 64 28 28 (1204224)
I0403 15:47:46.033125 14433 net.cpp:156] Memory required for data: 500958240
I0403 15:47:46.033141 14433 layer_factory.hpp:77] Creating layer inception_3a/3x3_reduce
I0403 15:47:46.033165 14433 net.cpp:91] Creating Layer inception_3a/3x3_reduce
I0403 15:47:46.033185 14433 net.cpp:425] inception_3a/3x3_reduce <- pool2/3x3_s2_pool2/3x3_s2_0_split_1
I0403 15:47:46.033210 14433 net.cpp:399] inception_3a/3x3_reduce -> inception_3a/3x3_reduce
I0403 15:47:46.034984 14433 net.cpp:141] Setting up inception_3a/3x3_reduce
I0403 15:47:46.035018 14433 net.cpp:148] Top shape: 24 96 28 28 (1806336)
I0403 15:47:46.035037 14433 net.cpp:156] Memory required for data: 508183584
I0403 15:47:46.035060 14433 layer_factory.hpp:77] Creating layer inception_3a/relu_3x3_reduce
I0403 15:47:46.035104 14433 net.cpp:91] Creating Layer inception_3a/relu_3x3_reduce
I0403 15:47:46.035126 14433 net.cpp:425] inception_3a/relu_3x3_reduce <- inception_3a/3x3_reduce
I0403 15:47:46.035145 14433 net.cpp:386] inception_3a/relu_3x3_reduce -> inception_3a/3x3_reduce (in-place)
I0403 15:47:46.035341 14433 net.cpp:141] Setting up inception_3a/relu_3x3_reduce
I0403 15:47:46.035369 14433 net.cpp:148] Top shape: 24 96 28 28 (1806336)
I0403 15:47:46.035385 14433 net.cpp:156] Memory required for data: 515408928
I0403 15:47:46.035400 14433 layer_factory.hpp:77] Creating layer inception_3a/3x3
I0403 15:47:46.035425 14433 net.cpp:91] Creating Layer inception_3a/3x3
I0403 15:47:46.035444 14433 net.cpp:425] inception_3a/3x3 <- inception_3a/3x3_reduce
I0403 15:47:46.035464 14433 net.cpp:399] inception_3a/3x3 -> inception_3a/3x3
I0403 15:47:46.037215 14433 net.cpp:141] Setting up inception_3a/3x3
I0403 15:47:46.037246 14433 net.cpp:148] Top shape: 24 128 28 28 (2408448)
I0403 15:47:46.037262 14433 net.cpp:156] Memory required for data: 525042720
I0403 15:47:46.037282 14433 layer_factory.hpp:77] Creating layer inception_3a/relu_3x3
I0403 15:47:46.037302 14433 net.cpp:91] Creating Layer inception_3a/relu_3x3
I0403 15:47:46.037319 14433 net.cpp:425] inception_3a/relu_3x3 <- inception_3a/3x3
I0403 15:47:46.037338 14433 net.cpp:386] inception_3a/relu_3x3 -> inception_3a/3x3 (in-place)
I0403 15:47:46.037627 14433 net.cpp:141] Setting up inception_3a/relu_3x3
I0403 15:47:46.037657 14433 net.cpp:148] Top shape: 24 128 28 28 (2408448)
I0403 15:47:46.037672 14433 net.cpp:156] Memory required for data: 534676512
I0403 15:47:46.037688 14433 layer_factory.hpp:77] Creating layer inception_3a/5x5_reduce
I0403 15:47:46.037711 14433 net.cpp:91] Creating Layer inception_3a/5x5_reduce
I0403 15:47:46.037730 14433 net.cpp:425] inception_3a/5x5_reduce <- pool2/3x3_s2_pool2/3x3_s2_0_split_2
I0403 15:47:46.037753 14433 net.cpp:399] inception_3a/5x5_reduce -> inception_3a/5x5_reduce
I0403 15:47:46.038774 14433 net.cpp:141] Setting up inception_3a/5x5_reduce
I0403 15:47:46.038805 14433 net.cpp:148] Top shape: 24 16 28 28 (301056)
I0403 15:47:46.038822 14433 net.cpp:156] Memory required for data: 535880736
I0403 15:47:46.038842 14433 layer_factory.hpp:77] Creating layer inception_3a/relu_5x5_reduce
I0403 15:47:46.038861 14433 net.cpp:91] Creating Layer inception_3a/relu_5x5_reduce
I0403 15:47:46.038877 14433 net.cpp:425] inception_3a/relu_5x5_reduce <- inception_3a/5x5_reduce
I0403 15:47:46.038898 14433 net.cpp:386] inception_3a/relu_5x5_reduce -> inception_3a/5x5_reduce (in-place)
I0403 15:47:46.039214 14433 net.cpp:141] Setting up inception_3a/relu_5x5_reduce
I0403 15:47:46.039243 14433 net.cpp:148] Top shape: 24 16 28 28 (301056)
I0403 15:47:46.039260 14433 net.cpp:156] Memory required for data: 537084960
I0403 15:47:46.039276 14433 layer_factory.hpp:77] Creating layer inception_3a/5x5
I0403 15:47:46.039300 14433 net.cpp:91] Creating Layer inception_3a/5x5
I0403 15:47:46.039319 14433 net.cpp:425] inception_3a/5x5 <- inception_3a/5x5_reduce
I0403 15:47:46.039341 14433 net.cpp:399] inception_3a/5x5 -> inception_3a/5x5
I0403 15:47:46.040416 14433 net.cpp:141] Setting up inception_3a/5x5
I0403 15:47:46.040449 14433 net.cpp:148] Top shape: 24 32 28 28 (602112)
I0403 15:47:46.040468 14433 net.cpp:156] Memory required for data: 539493408
I0403 15:47:46.040488 14433 layer_factory.hpp:77] Creating layer inception_3a/relu_5x5
I0403 15:47:46.040508 14433 net.cpp:91] Creating Layer inception_3a/relu_5x5
I0403 15:47:46.040524 14433 net.cpp:425] inception_3a/relu_5x5 <- inception_3a/5x5
I0403 15:47:46.040544 14433 net.cpp:386] inception_3a/relu_5x5 -> inception_3a/5x5 (in-place)
I0403 15:47:46.040730 14433 net.cpp:141] Setting up inception_3a/relu_5x5
I0403 15:47:46.040757 14433 net.cpp:148] Top shape: 24 32 28 28 (602112)
I0403 15:47:46.040771 14433 net.cpp:156] Memory required for data: 541901856
I0403 15:47:46.040787 14433 layer_factory.hpp:77] Creating layer inception_3a/pool
I0403 15:47:46.040807 14433 net.cpp:91] Creating Layer inception_3a/pool
I0403 15:47:46.040827 14433 net.cpp:425] inception_3a/pool <- pool2/3x3_s2_pool2/3x3_s2_0_split_3
I0403 15:47:46.040861 14433 net.cpp:399] inception_3a/pool -> inception_3a/pool
I0403 15:47:46.040927 14433 net.cpp:141] Setting up inception_3a/pool
I0403 15:47:46.040953 14433 net.cpp:148] Top shape: 24 192 28 28 (3612672)
I0403 15:47:46.040968 14433 net.cpp:156] Memory required for data: 556352544
I0403 15:47:46.040984 14433 layer_factory.hpp:77] Creating layer inception_3a/pool_proj
I0403 15:47:46.041008 14433 net.cpp:91] Creating Layer inception_3a/pool_proj
I0403 15:47:46.041028 14433 net.cpp:425] inception_3a/pool_proj <- inception_3a/pool
I0403 15:47:46.041050 14433 net.cpp:399] inception_3a/pool_proj -> inception_3a/pool_proj
I0403 15:47:46.042070 14433 net.cpp:141] Setting up inception_3a/pool_proj
I0403 15:47:46.042104 14433 net.cpp:148] Top shape: 24 32 28 28 (602112)
I0403 15:47:46.042124 14433 net.cpp:156] Memory required for data: 558760992
I0403 15:47:46.042150 14433 layer_factory.hpp:77] Creating layer inception_3a/relu_pool_proj
I0403 15:47:46.042171 14433 net.cpp:91] Creating Layer inception_3a/relu_pool_proj
I0403 15:47:46.042187 14433 net.cpp:425] inception_3a/relu_pool_proj <- inception_3a/pool_proj
I0403 15:47:46.042208 14433 net.cpp:386] inception_3a/relu_pool_proj -> inception_3a/pool_proj (in-place)
I0403 15:47:46.042497 14433 net.cpp:141] Setting up inception_3a/relu_pool_proj
I0403 15:47:46.042526 14433 net.cpp:148] Top shape: 24 32 28 28 (602112)
I0403 15:47:46.042542 14433 net.cpp:156] Memory required for data: 561169440
I0403 15:47:46.042558 14433 layer_factory.hpp:77] Creating layer inception_3a/output
I0403 15:47:46.042577 14433 net.cpp:91] Creating Layer inception_3a/output
I0403 15:47:46.042593 14433 net.cpp:425] inception_3a/output <- inception_3a/1x1
I0403 15:47:46.042610 14433 net.cpp:425] inception_3a/output <- inception_3a/3x3
I0403 15:47:46.042626 14433 net.cpp:425] inception_3a/output <- inception_3a/5x5
I0403 15:47:46.042644 14433 net.cpp:425] inception_3a/output <- inception_3a/pool_proj
I0403 15:47:46.042665 14433 net.cpp:399] inception_3a/output -> inception_3a/output
I0403 15:47:46.042713 14433 net.cpp:141] Setting up inception_3a/output
I0403 15:47:46.042742 14433 net.cpp:148] Top shape: 24 256 28 28 (4816896)
I0403 15:47:46.042758 14433 net.cpp:156] Memory required for data: 580437024
I0403 15:47:46.042774 14433 layer_factory.hpp:77] Creating layer inception_3a/output_inception_3a/output_0_split
I0403 15:47:46.042791 14433 net.cpp:91] Creating Layer inception_3a/output_inception_3a/output_0_split
I0403 15:47:46.042807 14433 net.cpp:425] inception_3a/output_inception_3a/output_0_split <- inception_3a/output
I0403 15:47:46.042825 14433 net.cpp:399] inception_3a/output_inception_3a/output_0_split -> inception_3a/output_inception_3a/output_0_split_0
I0403 15:47:46.042845 14433 net.cpp:399] inception_3a/output_inception_3a/output_0_split -> inception_3a/output_inception_3a/output_0_split_1
I0403 15:47:46.042872 14433 net.cpp:399] inception_3a/output_inception_3a/output_0_split -> inception_3a/output_inception_3a/output_0_split_2
I0403 15:47:46.042896 14433 net.cpp:399] inception_3a/output_inception_3a/output_0_split -> inception_3a/output_inception_3a/output_0_split_3
I0403 15:47:46.042976 14433 net.cpp:141] Setting up inception_3a/output_inception_3a/output_0_split
I0403 15:47:46.043004 14433 net.cpp:148] Top shape: 24 256 28 28 (4816896)
I0403 15:47:46.043022 14433 net.cpp:148] Top shape: 24 256 28 28 (4816896)
I0403 15:47:46.043040 14433 net.cpp:148] Top shape: 24 256 28 28 (4816896)
I0403 15:47:46.043056 14433 net.cpp:148] Top shape: 24 256 28 28 (4816896)
I0403 15:47:46.043068 14433 net.cpp:156] Memory required for data: 657507360
I0403 15:47:46.043084 14433 layer_factory.hpp:77] Creating layer inception_3b/1x1
I0403 15:47:46.043122 14433 net.cpp:91] Creating Layer inception_3b/1x1
I0403 15:47:46.043141 14433 net.cpp:425] inception_3b/1x1 <- inception_3a/output_inception_3a/output_0_split_0
I0403 15:47:46.043161 14433 net.cpp:399] inception_3b/1x1 -> inception_3b/1x1
I0403 15:47:46.044359 14433 net.cpp:141] Setting up inception_3b/1x1
I0403 15:47:46.044401 14433 net.cpp:148] Top shape: 24 128 28 28 (2408448)
I0403 15:47:46.044420 14433 net.cpp:156] Memory required for data: 667141152
I0403 15:47:46.044438 14433 layer_factory.hpp:77] Creating layer inception_3b/relu_1x1
I0403 15:47:46.044461 14433 net.cpp:91] Creating Layer inception_3b/relu_1x1
I0403 15:47:46.044477 14433 net.cpp:425] inception_3b/relu_1x1 <- inception_3b/1x1
I0403 15:47:46.044497 14433 net.cpp:386] inception_3b/relu_1x1 -> inception_3b/1x1 (in-place)
I0403 15:47:46.044689 14433 net.cpp:141] Setting up inception_3b/relu_1x1
I0403 15:47:46.044715 14433 net.cpp:148] Top shape: 24 128 28 28 (2408448)
I0403 15:47:46.044731 14433 net.cpp:156] Memory required for data: 676774944
I0403 15:47:46.044747 14433 layer_factory.hpp:77] Creating layer inception_3b/3x3_reduce
I0403 15:47:46.044770 14433 net.cpp:91] Creating Layer inception_3b/3x3_reduce
I0403 15:47:46.044788 14433 net.cpp:425] inception_3b/3x3_reduce <- inception_3a/output_inception_3a/output_0_split_1
I0403 15:47:46.044811 14433 net.cpp:399] inception_3b/3x3_reduce -> inception_3b/3x3_reduce
I0403 15:47:46.046006 14433 net.cpp:141] Setting up inception_3b/3x3_reduce
I0403 15:47:46.046041 14433 net.cpp:148] Top shape: 24 128 28 28 (2408448)
I0403 15:47:46.046058 14433 net.cpp:156] Memory required for data: 686408736
I0403 15:47:46.046079 14433 layer_factory.hpp:77] Creating layer inception_3b/relu_3x3_reduce
I0403 15:47:46.046103 14433 net.cpp:91] Creating Layer inception_3b/relu_3x3_reduce
I0403 15:47:46.046123 14433 net.cpp:425] inception_3b/relu_3x3_reduce <- inception_3b/3x3_reduce
I0403 15:47:46.046141 14433 net.cpp:386] inception_3b/relu_3x3_reduce -> inception_3b/3x3_reduce (in-place)
I0403 15:47:46.046329 14433 net.cpp:141] Setting up inception_3b/relu_3x3_reduce
I0403 15:47:46.046357 14433 net.cpp:148] Top shape: 24 128 28 28 (2408448)
I0403 15:47:46.046373 14433 net.cpp:156] Memory required for data: 696042528
I0403 15:47:46.046389 14433 layer_factory.hpp:77] Creating layer inception_3b/3x3
I0403 15:47:46.046414 14433 net.cpp:91] Creating Layer inception_3b/3x3
I0403 15:47:46.046434 14433 net.cpp:425] inception_3b/3x3 <- inception_3b/3x3_reduce
I0403 15:47:46.046458 14433 net.cpp:399] inception_3b/3x3 -> inception_3b/3x3
I0403 15:47:46.049530 14433 net.cpp:141] Setting up inception_3b/3x3
I0403 15:47:46.049561 14433 net.cpp:148] Top shape: 24 192 28 28 (3612672)
I0403 15:47:46.049578 14433 net.cpp:156] Memory required for data: 710493216
I0403 15:47:46.049597 14433 layer_factory.hpp:77] Creating layer inception_3b/relu_3x3
I0403 15:47:46.049617 14433 net.cpp:91] Creating Layer inception_3b/relu_3x3
I0403 15:47:46.049634 14433 net.cpp:425] inception_3b/relu_3x3 <- inception_3b/3x3
I0403 15:47:46.049654 14433 net.cpp:386] inception_3b/relu_3x3 -> inception_3b/3x3 (in-place)
I0403 15:47:46.049954 14433 net.cpp:141] Setting up inception_3b/relu_3x3
I0403 15:47:46.049983 14433 net.cpp:148] Top shape: 24 192 28 28 (3612672)
I0403 15:47:46.049998 14433 net.cpp:156] Memory required for data: 724943904
I0403 15:47:46.050014 14433 layer_factory.hpp:77] Creating layer inception_3b/5x5_reduce
I0403 15:47:46.050036 14433 net.cpp:91] Creating Layer inception_3b/5x5_reduce
I0403 15:47:46.050056 14433 net.cpp:425] inception_3b/5x5_reduce <- inception_3a/output_inception_3a/output_0_split_2
I0403 15:47:46.050081 14433 net.cpp:399] inception_3b/5x5_reduce -> inception_3b/5x5_reduce
I0403 15:47:46.051138 14433 net.cpp:141] Setting up inception_3b/5x5_reduce
I0403 15:47:46.051169 14433 net.cpp:148] Top shape: 24 32 28 28 (602112)
I0403 15:47:46.051185 14433 net.cpp:156] Memory required for data: 727352352
I0403 15:47:46.051205 14433 layer_factory.hpp:77] Creating layer inception_3b/relu_5x5_reduce
I0403 15:47:46.051224 14433 net.cpp:91] Creating Layer inception_3b/relu_5x5_reduce
I0403 15:47:46.051242 14433 net.cpp:425] inception_3b/relu_5x5_reduce <- inception_3b/5x5_reduce
I0403 15:47:46.051265 14433 net.cpp:386] inception_3b/relu_5x5_reduce -> inception_3b/5x5_reduce (in-place)
I0403 15:47:46.051455 14433 net.cpp:141] Setting up inception_3b/relu_5x5_reduce
I0403 15:47:46.051494 14433 net.cpp:148] Top shape: 24 32 28 28 (602112)
I0403 15:47:46.051511 14433 net.cpp:156] Memory required for data: 729760800
I0403 15:47:46.051527 14433 layer_factory.hpp:77] Creating layer inception_3b/5x5
I0403 15:47:46.051551 14433 net.cpp:91] Creating Layer inception_3b/5x5
I0403 15:47:46.051569 14433 net.cpp:425] inception_3b/5x5 <- inception_3b/5x5_reduce
I0403 15:47:46.051591 14433 net.cpp:399] inception_3b/5x5 -> inception_3b/5x5
I0403 15:47:46.053681 14433 net.cpp:141] Setting up inception_3b/5x5
I0403 15:47:46.053714 14433 net.cpp:148] Top shape: 24 96 28 28 (1806336)
I0403 15:47:46.053732 14433 net.cpp:156] Memory required for data: 736986144
I0403 15:47:46.053751 14433 layer_factory.hpp:77] Creating layer inception_3b/relu_5x5
I0403 15:47:46.053771 14433 net.cpp:91] Creating Layer inception_3b/relu_5x5
I0403 15:47:46.053787 14433 net.cpp:425] inception_3b/relu_5x5 <- inception_3b/5x5
I0403 15:47:46.053805 14433 net.cpp:386] inception_3b/relu_5x5 -> inception_3b/5x5 (in-place)
I0403 15:47:46.054011 14433 net.cpp:141] Setting up inception_3b/relu_5x5
I0403 15:47:46.054038 14433 net.cpp:148] Top shape: 24 96 28 28 (1806336)
I0403 15:47:46.054054 14433 net.cpp:156] Memory required for data: 744211488
I0403 15:47:46.054069 14433 layer_factory.hpp:77] Creating layer inception_3b/pool
I0403 15:47:46.054088 14433 net.cpp:91] Creating Layer inception_3b/pool
I0403 15:47:46.054111 14433 net.cpp:425] inception_3b/pool <- inception_3a/output_inception_3a/output_0_split_3
I0403 15:47:46.054131 14433 net.cpp:399] inception_3b/pool -> inception_3b/pool
I0403 15:47:46.054190 14433 net.cpp:141] Setting up inception_3b/pool
I0403 15:47:46.054219 14433 net.cpp:148] Top shape: 24 256 28 28 (4816896)
I0403 15:47:46.054234 14433 net.cpp:156] Memory required for data: 763479072
I0403 15:47:46.054250 14433 layer_factory.hpp:77] Creating layer inception_3b/pool_proj
I0403 15:47:46.054273 14433 net.cpp:91] Creating Layer inception_3b/pool_proj
I0403 15:47:46.054291 14433 net.cpp:425] inception_3b/pool_proj <- inception_3b/pool
I0403 15:47:46.054311 14433 net.cpp:399] inception_3b/pool_proj -> inception_3b/pool_proj
I0403 15:47:46.055438 14433 net.cpp:141] Setting up inception_3b/pool_proj
I0403 15:47:46.055467 14433 net.cpp:148] Top shape: 24 64 28 28 (1204224)
I0403 15:47:46.055485 14433 net.cpp:156] Memory required for data: 768295968
I0403 15:47:46.055503 14433 layer_factory.hpp:77] Creating layer inception_3b/relu_pool_proj
I0403 15:47:46.055526 14433 net.cpp:91] Creating Layer inception_3b/relu_pool_proj
I0403 15:47:46.055543 14433 net.cpp:425] inception_3b/relu_pool_proj <- inception_3b/pool_proj
I0403 15:47:46.055562 14433 net.cpp:386] inception_3b/relu_pool_proj -> inception_3b/pool_proj (in-place)
I0403 15:47:46.055979 14433 net.cpp:141] Setting up inception_3b/relu_pool_proj
I0403 15:47:46.056008 14433 net.cpp:148] Top shape: 24 64 28 28 (1204224)
I0403 15:47:46.056025 14433 net.cpp:156] Memory required for data: 773112864
I0403 15:47:46.056041 14433 layer_factory.hpp:77] Creating layer inception_3b/output
I0403 15:47:46.056059 14433 net.cpp:91] Creating Layer inception_3b/output
I0403 15:47:46.056077 14433 net.cpp:425] inception_3b/output <- inception_3b/1x1
I0403 15:47:46.056097 14433 net.cpp:425] inception_3b/output <- inception_3b/3x3
I0403 15:47:46.056115 14433 net.cpp:425] inception_3b/output <- inception_3b/5x5
I0403 15:47:46.056133 14433 net.cpp:425] inception_3b/output <- inception_3b/pool_proj
I0403 15:47:46.056154 14433 net.cpp:399] inception_3b/output -> inception_3b/output
I0403 15:47:46.056201 14433 net.cpp:141] Setting up inception_3b/output
I0403 15:47:46.056229 14433 net.cpp:148] Top shape: 24 480 28 28 (9031680)
I0403 15:47:46.056246 14433 net.cpp:156] Memory required for data: 809239584
I0403 15:47:46.056262 14433 layer_factory.hpp:77] Creating layer pool3/3x3_s2
I0403 15:47:46.056280 14433 net.cpp:91] Creating Layer pool3/3x3_s2
I0403 15:47:46.056298 14433 net.cpp:425] pool3/3x3_s2 <- inception_3b/output
I0403 15:47:46.056318 14433 net.cpp:399] pool3/3x3_s2 -> pool3/3x3_s2
I0403 15:47:46.056396 14433 net.cpp:141] Setting up pool3/3x3_s2
I0403 15:47:46.056447 14433 net.cpp:148] Top shape: 24 480 14 14 (2257920)
I0403 15:47:46.056464 14433 net.cpp:156] Memory required for data: 818271264
I0403 15:47:46.056480 14433 layer_factory.hpp:77] Creating layer pool3/3x3_s2_pool3/3x3_s2_0_split
I0403 15:47:46.056501 14433 net.cpp:91] Creating Layer pool3/3x3_s2_pool3/3x3_s2_0_split
I0403 15:47:46.056519 14433 net.cpp:425] pool3/3x3_s2_pool3/3x3_s2_0_split <- pool3/3x3_s2
I0403 15:47:46.056537 14433 net.cpp:399] pool3/3x3_s2_pool3/3x3_s2_0_split -> pool3/3x3_s2_pool3/3x3_s2_0_split_0
I0403 15:47:46.056558 14433 net.cpp:399] pool3/3x3_s2_pool3/3x3_s2_0_split -> pool3/3x3_s2_pool3/3x3_s2_0_split_1
I0403 15:47:46.056581 14433 net.cpp:399] pool3/3x3_s2_pool3/3x3_s2_0_split -> pool3/3x3_s2_pool3/3x3_s2_0_split_2
I0403 15:47:46.056604 14433 net.cpp:399] pool3/3x3_s2_pool3/3x3_s2_0_split -> pool3/3x3_s2_pool3/3x3_s2_0_split_3
I0403 15:47:46.056684 14433 net.cpp:141] Setting up pool3/3x3_s2_pool3/3x3_s2_0_split
I0403 15:47:46.056710 14433 net.cpp:148] Top shape: 24 480 14 14 (2257920)
I0403 15:47:46.056727 14433 net.cpp:148] Top shape: 24 480 14 14 (2257920)
I0403 15:47:46.056743 14433 net.cpp:148] Top shape: 24 480 14 14 (2257920)
I0403 15:47:46.056759 14433 net.cpp:148] Top shape: 24 480 14 14 (2257920)
I0403 15:47:46.056774 14433 net.cpp:156] Memory required for data: 854397984
I0403 15:47:46.056789 14433 layer_factory.hpp:77] Creating layer inception_4a/1x1
I0403 15:47:46.056813 14433 net.cpp:91] Creating Layer inception_4a/1x1
I0403 15:47:46.056833 14433 net.cpp:425] inception_4a/1x1 <- pool3/3x3_s2_pool3/3x3_s2_0_split_0
I0403 15:47:46.056855 14433 net.cpp:399] inception_4a/1x1 -> inception_4a/1x1
I0403 15:47:46.058526 14433 net.cpp:141] Setting up inception_4a/1x1
I0403 15:47:46.058555 14433 net.cpp:148] Top shape: 24 192 14 14 (903168)
I0403 15:47:46.058571 14433 net.cpp:156] Memory required for data: 858010656
I0403 15:47:46.058590 14433 layer_factory.hpp:77] Creating layer inception_4a/relu_1x1
I0403 15:47:46.058612 14433 net.cpp:91] Creating Layer inception_4a/relu_1x1
I0403 15:47:46.058631 14433 net.cpp:425] inception_4a/relu_1x1 <- inception_4a/1x1
I0403 15:47:46.058650 14433 net.cpp:386] inception_4a/relu_1x1 -> inception_4a/1x1 (in-place)
I0403 15:47:46.058841 14433 net.cpp:141] Setting up inception_4a/relu_1x1
I0403 15:47:46.058871 14433 net.cpp:148] Top shape: 24 192 14 14 (903168)
I0403 15:47:46.058889 14433 net.cpp:156] Memory required for data: 861623328
I0403 15:47:46.058904 14433 layer_factory.hpp:77] Creating layer inception_4a/3x3_reduce
I0403 15:47:46.058928 14433 net.cpp:91] Creating Layer inception_4a/3x3_reduce
I0403 15:47:46.058948 14433 net.cpp:425] inception_4a/3x3_reduce <- pool3/3x3_s2_pool3/3x3_s2_0_split_1
I0403 15:47:46.058967 14433 net.cpp:399] inception_4a/3x3_reduce -> inception_4a/3x3_reduce
I0403 15:47:46.060317 14433 net.cpp:141] Setting up inception_4a/3x3_reduce
I0403 15:47:46.060348 14433 net.cpp:148] Top shape: 24 96 14 14 (451584)
I0403 15:47:46.060364 14433 net.cpp:156] Memory required for data: 863429664
I0403 15:47:46.060390 14433 layer_factory.hpp:77] Creating layer inception_4a/relu_3x3_reduce
I0403 15:47:46.060415 14433 net.cpp:91] Creating Layer inception_4a/relu_3x3_reduce
I0403 15:47:46.060433 14433 net.cpp:425] inception_4a/relu_3x3_reduce <- inception_4a/3x3_reduce
I0403 15:47:46.060451 14433 net.cpp:386] inception_4a/relu_3x3_reduce -> inception_4a/3x3_reduce (in-place)
I0403 15:47:46.060641 14433 net.cpp:141] Setting up inception_4a/relu_3x3_reduce
I0403 15:47:46.060667 14433 net.cpp:148] Top shape: 24 96 14 14 (451584)
I0403 15:47:46.060683 14433 net.cpp:156] Memory required for data: 865236000
I0403 15:47:46.060698 14433 layer_factory.hpp:77] Creating layer inception_4a/3x3
I0403 15:47:46.060724 14433 net.cpp:91] Creating Layer inception_4a/3x3
I0403 15:47:46.060744 14433 net.cpp:425] inception_4a/3x3 <- inception_4a/3x3_reduce
I0403 15:47:46.060763 14433 net.cpp:399] inception_4a/3x3 -> inception_4a/3x3
I0403 15:47:46.063609 14433 net.cpp:141] Setting up inception_4a/3x3
I0403 15:47:46.063643 14433 net.cpp:148] Top shape: 24 208 14 14 (978432)
I0403 15:47:46.063662 14433 net.cpp:156] Memory required for data: 869149728
I0403 15:47:46.063680 14433 layer_factory.hpp:77] Creating layer inception_4a/relu_3x3
I0403 15:47:46.063701 14433 net.cpp:91] Creating Layer inception_4a/relu_3x3
I0403 15:47:46.063719 14433 net.cpp:425] inception_4a/relu_3x3 <- inception_4a/3x3
I0403 15:47:46.063737 14433 net.cpp:386] inception_4a/relu_3x3 -> inception_4a/3x3 (in-place)
I0403 15:47:46.064034 14433 net.cpp:141] Setting up inception_4a/relu_3x3
I0403 15:47:46.064064 14433 net.cpp:148] Top shape: 24 208 14 14 (978432)
I0403 15:47:46.064081 14433 net.cpp:156] Memory required for data: 873063456
I0403 15:47:46.064102 14433 layer_factory.hpp:77] Creating layer inception_4a/5x5_reduce
I0403 15:47:46.064127 14433 net.cpp:91] Creating Layer inception_4a/5x5_reduce
I0403 15:47:46.064147 14433 net.cpp:425] inception_4a/5x5_reduce <- pool3/3x3_s2_pool3/3x3_s2_0_split_2
I0403 15:47:46.064167 14433 net.cpp:399] inception_4a/5x5_reduce -> inception_4a/5x5_reduce
I0403 15:47:46.065268 14433 net.cpp:141] Setting up inception_4a/5x5_reduce
I0403 15:47:46.065300 14433 net.cpp:148] Top shape: 24 16 14 14 (75264)
I0403 15:47:46.065318 14433 net.cpp:156] Memory required for data: 873364512
I0403 15:47:46.065338 14433 layer_factory.hpp:77] Creating layer inception_4a/relu_5x5_reduce
I0403 15:47:46.065357 14433 net.cpp:91] Creating Layer inception_4a/relu_5x5_reduce
I0403 15:47:46.065376 14433 net.cpp:425] inception_4a/relu_5x5_reduce <- inception_4a/5x5_reduce
I0403 15:47:46.065395 14433 net.cpp:386] inception_4a/relu_5x5_reduce -> inception_4a/5x5_reduce (in-place)
I0403 15:47:46.065588 14433 net.cpp:141] Setting up inception_4a/relu_5x5_reduce
I0403 15:47:46.065615 14433 net.cpp:148] Top shape: 24 16 14 14 (75264)
I0403 15:47:46.065631 14433 net.cpp:156] Memory required for data: 873665568
I0403 15:47:46.065646 14433 layer_factory.hpp:77] Creating layer inception_4a/5x5
I0403 15:47:46.065670 14433 net.cpp:91] Creating Layer inception_4a/5x5
I0403 15:47:46.065690 14433 net.cpp:425] inception_4a/5x5 <- inception_4a/5x5_reduce
I0403 15:47:46.065711 14433 net.cpp:399] inception_4a/5x5 -> inception_4a/5x5
I0403 15:47:46.066867 14433 net.cpp:141] Setting up inception_4a/5x5
I0403 15:47:46.066897 14433 net.cpp:148] Top shape: 24 48 14 14 (225792)
I0403 15:47:46.066915 14433 net.cpp:156] Memory required for data: 874568736
I0403 15:47:46.066934 14433 layer_factory.hpp:77] Creating layer inception_4a/relu_5x5
I0403 15:47:46.066953 14433 net.cpp:91] Creating Layer inception_4a/relu_5x5
I0403 15:47:46.066969 14433 net.cpp:425] inception_4a/relu_5x5 <- inception_4a/5x5
I0403 15:47:46.066990 14433 net.cpp:386] inception_4a/relu_5x5 -> inception_4a/5x5 (in-place)
I0403 15:47:46.067185 14433 net.cpp:141] Setting up inception_4a/relu_5x5
I0403 15:47:46.067214 14433 net.cpp:148] Top shape: 24 48 14 14 (225792)
I0403 15:47:46.067229 14433 net.cpp:156] Memory required for data: 875471904
I0403 15:47:46.067245 14433 layer_factory.hpp:77] Creating layer inception_4a/pool
I0403 15:47:46.067265 14433 net.cpp:91] Creating Layer inception_4a/pool
I0403 15:47:46.067283 14433 net.cpp:425] inception_4a/pool <- pool3/3x3_s2_pool3/3x3_s2_0_split_3
I0403 15:47:46.067302 14433 net.cpp:399] inception_4a/pool -> inception_4a/pool
I0403 15:47:46.067369 14433 net.cpp:141] Setting up inception_4a/pool
I0403 15:47:46.067405 14433 net.cpp:148] Top shape: 24 480 14 14 (2257920)
I0403 15:47:46.067420 14433 net.cpp:156] Memory required for data: 884503584
I0403 15:47:46.067435 14433 layer_factory.hpp:77] Creating layer inception_4a/pool_proj
I0403 15:47:46.067457 14433 net.cpp:91] Creating Layer inception_4a/pool_proj
I0403 15:47:46.067476 14433 net.cpp:425] inception_4a/pool_proj <- inception_4a/pool
I0403 15:47:46.067497 14433 net.cpp:399] inception_4a/pool_proj -> inception_4a/pool_proj
I0403 15:47:46.068738 14433 net.cpp:141] Setting up inception_4a/pool_proj
I0403 15:47:46.068768 14433 net.cpp:148] Top shape: 24 64 14 14 (301056)
I0403 15:47:46.068800 14433 net.cpp:156] Memory required for data: 885707808
I0403 15:47:46.068820 14433 layer_factory.hpp:77] Creating layer inception_4a/relu_pool_proj
I0403 15:47:46.068842 14433 net.cpp:91] Creating Layer inception_4a/relu_pool_proj
I0403 15:47:46.068861 14433 net.cpp:425] inception_4a/relu_pool_proj <- inception_4a/pool_proj
I0403 15:47:46.068879 14433 net.cpp:386] inception_4a/relu_pool_proj -> inception_4a/pool_proj (in-place)
I0403 15:47:46.069175 14433 net.cpp:141] Setting up inception_4a/relu_pool_proj
I0403 15:47:46.069203 14433 net.cpp:148] Top shape: 24 64 14 14 (301056)
I0403 15:47:46.069219 14433 net.cpp:156] Memory required for data: 886912032
I0403 15:47:46.069234 14433 layer_factory.hpp:77] Creating layer inception_4a/output
I0403 15:47:46.069252 14433 net.cpp:91] Creating Layer inception_4a/output
I0403 15:47:46.069269 14433 net.cpp:425] inception_4a/output <- inception_4a/1x1
I0403 15:47:46.069289 14433 net.cpp:425] inception_4a/output <- inception_4a/3x3
I0403 15:47:46.069306 14433 net.cpp:425] inception_4a/output <- inception_4a/5x5
I0403 15:47:46.069322 14433 net.cpp:425] inception_4a/output <- inception_4a/pool_proj
I0403 15:47:46.069339 14433 net.cpp:399] inception_4a/output -> inception_4a/output
I0403 15:47:46.069387 14433 net.cpp:141] Setting up inception_4a/output
I0403 15:47:46.069411 14433 net.cpp:148] Top shape: 24 512 14 14 (2408448)
I0403 15:47:46.069427 14433 net.cpp:156] Memory required for data: 896545824
I0403 15:47:46.069442 14433 layer_factory.hpp:77] Creating layer inception_4a/output_inception_4a/output_0_split
I0403 15:47:46.069460 14433 net.cpp:91] Creating Layer inception_4a/output_inception_4a/output_0_split
I0403 15:47:46.069476 14433 net.cpp:425] inception_4a/output_inception_4a/output_0_split <- inception_4a/output
I0403 15:47:46.069496 14433 net.cpp:399] inception_4a/output_inception_4a/output_0_split -> inception_4a/output_inception_4a/output_0_split_0
I0403 15:47:46.069519 14433 net.cpp:399] inception_4a/output_inception_4a/output_0_split -> inception_4a/output_inception_4a/output_0_split_1
I0403 15:47:46.069542 14433 net.cpp:399] inception_4a/output_inception_4a/output_0_split -> inception_4a/output_inception_4a/output_0_split_2
I0403 15:47:46.069564 14433 net.cpp:399] inception_4a/output_inception_4a/output_0_split -> inception_4a/output_inception_4a/output_0_split_3
I0403 15:47:46.069586 14433 net.cpp:399] inception_4a/output_inception_4a/output_0_split -> inception_4a/output_inception_4a/output_0_split_4
I0403 15:47:46.069681 14433 net.cpp:141] Setting up inception_4a/output_inception_4a/output_0_split
I0403 15:47:46.069705 14433 net.cpp:148] Top shape: 24 512 14 14 (2408448)
I0403 15:47:46.069722 14433 net.cpp:148] Top shape: 24 512 14 14 (2408448)
I0403 15:47:46.069738 14433 net.cpp:148] Top shape: 24 512 14 14 (2408448)
I0403 15:47:46.069754 14433 net.cpp:148] Top shape: 24 512 14 14 (2408448)
I0403 15:47:46.069771 14433 net.cpp:148] Top shape: 24 512 14 14 (2408448)
I0403 15:47:46.069784 14433 net.cpp:156] Memory required for data: 944714784
I0403 15:47:46.069798 14433 layer_factory.hpp:77] Creating layer loss1/ave_pool
I0403 15:47:46.069816 14433 net.cpp:91] Creating Layer loss1/ave_pool
I0403 15:47:46.069833 14433 net.cpp:425] loss1/ave_pool <- inception_4a/output_inception_4a/output_0_split_0
I0403 15:47:46.069854 14433 net.cpp:399] loss1/ave_pool -> loss1/ave_pool
I0403 15:47:46.070067 14433 net.cpp:141] Setting up loss1/ave_pool
I0403 15:47:46.070098 14433 net.cpp:148] Top shape: 24 512 4 4 (196608)
I0403 15:47:46.070116 14433 net.cpp:156] Memory required for data: 945501216
I0403 15:47:46.070132 14433 layer_factory.hpp:77] Creating layer loss1/conv
I0403 15:47:46.070154 14433 net.cpp:91] Creating Layer loss1/conv
I0403 15:47:46.070173 14433 net.cpp:425] loss1/conv <- loss1/ave_pool
I0403 15:47:46.070195 14433 net.cpp:399] loss1/conv -> loss1/conv
I0403 15:47:46.071681 14433 net.cpp:141] Setting up loss1/conv
I0403 15:47:46.071713 14433 net.cpp:148] Top shape: 24 128 4 4 (49152)
I0403 15:47:46.071730 14433 net.cpp:156] Memory required for data: 945697824
I0403 15:47:46.071764 14433 layer_factory.hpp:77] Creating layer loss1/relu_conv
I0403 15:47:46.071785 14433 net.cpp:91] Creating Layer loss1/relu_conv
I0403 15:47:46.071805 14433 net.cpp:425] loss1/relu_conv <- loss1/conv
I0403 15:47:46.071822 14433 net.cpp:386] loss1/relu_conv -> loss1/conv (in-place)
I0403 15:47:46.072120 14433 net.cpp:141] Setting up loss1/relu_conv
I0403 15:47:46.072149 14433 net.cpp:148] Top shape: 24 128 4 4 (49152)
I0403 15:47:46.072165 14433 net.cpp:156] Memory required for data: 945894432
I0403 15:47:46.072181 14433 layer_factory.hpp:77] Creating layer loss1/fc
I0403 15:47:46.072206 14433 net.cpp:91] Creating Layer loss1/fc
I0403 15:47:46.072226 14433 net.cpp:425] loss1/fc <- loss1/conv
I0403 15:47:46.072247 14433 net.cpp:399] loss1/fc -> loss1/fc
I0403 15:47:46.090494 14433 net.cpp:141] Setting up loss1/fc
I0403 15:47:46.090533 14433 net.cpp:148] Top shape: 24 1024 (24576)
I0403 15:47:46.090548 14433 net.cpp:156] Memory required for data: 945992736
I0403 15:47:46.090602 14433 layer_factory.hpp:77] Creating layer loss1/relu_fc
I0403 15:47:46.090626 14433 net.cpp:91] Creating Layer loss1/relu_fc
I0403 15:47:46.090644 14433 net.cpp:425] loss1/relu_fc <- loss1/fc
I0403 15:47:46.090663 14433 net.cpp:386] loss1/relu_fc -> loss1/fc (in-place)
I0403 15:47:46.090880 14433 net.cpp:141] Setting up loss1/relu_fc
I0403 15:47:46.090908 14433 net.cpp:148] Top shape: 24 1024 (24576)
I0403 15:47:46.090924 14433 net.cpp:156] Memory required for data: 946091040
I0403 15:47:46.090939 14433 layer_factory.hpp:77] Creating layer loss1/drop_fc
I0403 15:47:46.090965 14433 net.cpp:91] Creating Layer loss1/drop_fc
I0403 15:47:46.090983 14433 net.cpp:425] loss1/drop_fc <- loss1/fc
I0403 15:47:46.091001 14433 net.cpp:386] loss1/drop_fc -> loss1/fc (in-place)
I0403 15:47:46.091054 14433 net.cpp:141] Setting up loss1/drop_fc
I0403 15:47:46.091078 14433 net.cpp:148] Top shape: 24 1024 (24576)
I0403 15:47:46.091092 14433 net.cpp:156] Memory required for data: 946189344
I0403 15:47:46.091111 14433 layer_factory.hpp:77] Creating layer loss1/classifier_plantvillage
I0403 15:47:46.091135 14433 net.cpp:91] Creating Layer loss1/classifier_plantvillage
I0403 15:47:46.091152 14433 net.cpp:425] loss1/classifier_plantvillage <- loss1/fc
I0403 15:47:46.091171 14433 net.cpp:399] loss1/classifier_plantvillage -> loss1/classifier_plantvillage
I0403 15:47:46.092068 14433 net.cpp:141] Setting up loss1/classifier_plantvillage
I0403 15:47:46.092103 14433 net.cpp:148] Top shape: 24 38 (912)
I0403 15:47:46.092119 14433 net.cpp:156] Memory required for data: 946192992
I0403 15:47:46.092139 14433 layer_factory.hpp:77] Creating layer loss1/classifier_plantvillage_loss1/classifier_plantvillage_0_split
I0403 15:47:46.092157 14433 net.cpp:91] Creating Layer loss1/classifier_plantvillage_loss1/classifier_plantvillage_0_split
I0403 15:47:46.092173 14433 net.cpp:425] loss1/classifier_plantvillage_loss1/classifier_plantvillage_0_split <- loss1/classifier_plantvillage
I0403 15:47:46.092190 14433 net.cpp:399] loss1/classifier_plantvillage_loss1/classifier_plantvillage_0_split -> loss1/classifier_plantvillage_loss1/classifier_plantvillage_0_split_0
I0403 15:47:46.092211 14433 net.cpp:399] loss1/classifier_plantvillage_loss1/classifier_plantvillage_0_split -> loss1/classifier_plantvillage_loss1/classifier_plantvillage_0_split_1
I0403 15:47:46.092231 14433 net.cpp:399] loss1/classifier_plantvillage_loss1/classifier_plantvillage_0_split -> loss1/classifier_plantvillage_loss1/classifier_plantvillage_0_split_2
I0403 15:47:46.092299 14433 net.cpp:141] Setting up loss1/classifier_plantvillage_loss1/classifier_plantvillage_0_split
I0403 15:47:46.092324 14433 net.cpp:148] Top shape: 24 38 (912)
I0403 15:47:46.092339 14433 net.cpp:148] Top shape: 24 38 (912)
I0403 15:47:46.092355 14433 net.cpp:148] Top shape: 24 38 (912)
I0403 15:47:46.092367 14433 net.cpp:156] Memory required for data: 946203936
I0403 15:47:46.092382 14433 layer_factory.hpp:77] Creating layer inception_4b/1x1
I0403 15:47:46.092401 14433 net.cpp:91] Creating Layer inception_4b/1x1
I0403 15:47:46.092434 14433 net.cpp:425] inception_4b/1x1 <- inception_4a/output_inception_4a/output_0_split_1
I0403 15:47:46.092458 14433 net.cpp:399] inception_4b/1x1 -> inception_4b/1x1
I0403 15:47:46.094122 14433 net.cpp:141] Setting up inception_4b/1x1
I0403 15:47:46.094154 14433 net.cpp:148] Top shape: 24 160 14 14 (752640)
I0403 15:47:46.094172 14433 net.cpp:156] Memory required for data: 949214496
I0403 15:47:46.094190 14433 layer_factory.hpp:77] Creating layer inception_4b/relu_1x1
I0403 15:47:46.094208 14433 net.cpp:91] Creating Layer inception_4b/relu_1x1
I0403 15:47:46.094223 14433 net.cpp:425] inception_4b/relu_1x1 <- inception_4b/1x1
I0403 15:47:46.094244 14433 net.cpp:386] inception_4b/relu_1x1 -> inception_4b/1x1 (in-place)
I0403 15:47:46.094429 14433 net.cpp:141] Setting up inception_4b/relu_1x1
I0403 15:47:46.094456 14433 net.cpp:148] Top shape: 24 160 14 14 (752640)
I0403 15:47:46.094470 14433 net.cpp:156] Memory required for data: 952225056
I0403 15:47:46.094485 14433 layer_factory.hpp:77] Creating layer inception_4b/3x3_reduce
I0403 15:47:46.094507 14433 net.cpp:91] Creating Layer inception_4b/3x3_reduce
I0403 15:47:46.094526 14433 net.cpp:425] inception_4b/3x3_reduce <- inception_4a/output_inception_4a/output_0_split_2
I0403 15:47:46.094547 14433 net.cpp:399] inception_4b/3x3_reduce -> inception_4b/3x3_reduce
I0403 15:47:46.095914 14433 net.cpp:141] Setting up inception_4b/3x3_reduce
I0403 15:47:46.095943 14433 net.cpp:148] Top shape: 24 112 14 14 (526848)
I0403 15:47:46.095958 14433 net.cpp:156] Memory required for data: 954332448
I0403 15:47:46.095978 14433 layer_factory.hpp:77] Creating layer inception_4b/relu_3x3_reduce
I0403 15:47:46.095995 14433 net.cpp:91] Creating Layer inception_4b/relu_3x3_reduce
I0403 15:47:46.096015 14433 net.cpp:425] inception_4b/relu_3x3_reduce <- inception_4b/3x3_reduce
I0403 15:47:46.096034 14433 net.cpp:386] inception_4b/relu_3x3_reduce -> inception_4b/3x3_reduce (in-place)
I0403 15:47:46.096330 14433 net.cpp:141] Setting up inception_4b/relu_3x3_reduce
I0403 15:47:46.096357 14433 net.cpp:148] Top shape: 24 112 14 14 (526848)
I0403 15:47:46.096374 14433 net.cpp:156] Memory required for data: 956439840
I0403 15:47:46.096388 14433 layer_factory.hpp:77] Creating layer inception_4b/3x3
I0403 15:47:46.096411 14433 net.cpp:91] Creating Layer inception_4b/3x3
I0403 15:47:46.096429 14433 net.cpp:425] inception_4b/3x3 <- inception_4b/3x3_reduce
I0403 15:47:46.096452 14433 net.cpp:399] inception_4b/3x3 -> inception_4b/3x3
I0403 15:47:46.099422 14433 net.cpp:141] Setting up inception_4b/3x3
I0403 15:47:46.099452 14433 net.cpp:148] Top shape: 24 224 14 14 (1053696)
I0403 15:47:46.099467 14433 net.cpp:156] Memory required for data: 960654624
I0403 15:47:46.099486 14433 layer_factory.hpp:77] Creating layer inception_4b/relu_3x3
I0403 15:47:46.099508 14433 net.cpp:91] Creating Layer inception_4b/relu_3x3
I0403 15:47:46.099525 14433 net.cpp:425] inception_4b/relu_3x3 <- inception_4b/3x3
I0403 15:47:46.099544 14433 net.cpp:386] inception_4b/relu_3x3 -> inception_4b/3x3 (in-place)
I0403 15:47:46.099728 14433 net.cpp:141] Setting up inception_4b/relu_3x3
I0403 15:47:46.099756 14433 net.cpp:148] Top shape: 24 224 14 14 (1053696)
I0403 15:47:46.099772 14433 net.cpp:156] Memory required for data: 964869408
I0403 15:47:46.099787 14433 layer_factory.hpp:77] Creating layer inception_4b/5x5_reduce
I0403 15:47:46.099809 14433 net.cpp:91] Creating Layer inception_4b/5x5_reduce
I0403 15:47:46.099828 14433 net.cpp:425] inception_4b/5x5_reduce <- inception_4a/output_inception_4a/output_0_split_3
I0403 15:47:46.099848 14433 net.cpp:399] inception_4b/5x5_reduce -> inception_4b/5x5_reduce
I0403 15:47:46.101019 14433 net.cpp:141] Setting up inception_4b/5x5_reduce
I0403 15:47:46.101050 14433 net.cpp:148] Top shape: 24 24 14 14 (112896)
I0403 15:47:46.101068 14433 net.cpp:156] Memory required for data: 965320992
I0403 15:47:46.101086 14433 layer_factory.hpp:77] Creating layer inception_4b/relu_5x5_reduce
I0403 15:47:46.101109 14433 net.cpp:91] Creating Layer inception_4b/relu_5x5_reduce
I0403 15:47:46.101141 14433 net.cpp:425] inception_4b/relu_5x5_reduce <- inception_4b/5x5_reduce
I0403 15:47:46.101164 14433 net.cpp:386] inception_4b/relu_5x5_reduce -> inception_4b/5x5_reduce (in-place)
I0403 15:47:46.101351 14433 net.cpp:141] Setting up inception_4b/relu_5x5_reduce
I0403 15:47:46.101377 14433 net.cpp:148] Top shape: 24 24 14 14 (112896)
I0403 15:47:46.101392 14433 net.cpp:156] Memory required for data: 965772576
I0403 15:47:46.101407 14433 layer_factory.hpp:77] Creating layer inception_4b/5x5
I0403 15:47:46.101428 14433 net.cpp:91] Creating Layer inception_4b/5x5
I0403 15:47:46.101446 14433 net.cpp:425] inception_4b/5x5 <- inception_4b/5x5_reduce
I0403 15:47:46.101467 14433 net.cpp:399] inception_4b/5x5 -> inception_4b/5x5
I0403 15:47:46.102699 14433 net.cpp:141] Setting up inception_4b/5x5
I0403 15:47:46.102730 14433 net.cpp:148] Top shape: 24 64 14 14 (301056)
I0403 15:47:46.102746 14433 net.cpp:156] Memory required for data: 966976800
I0403 15:47:46.102764 14433 layer_factory.hpp:77] Creating layer inception_4b/relu_5x5
I0403 15:47:46.102782 14433 net.cpp:91] Creating Layer inception_4b/relu_5x5
I0403 15:47:46.102798 14433 net.cpp:425] inception_4b/relu_5x5 <- inception_4b/5x5
I0403 15:47:46.102818 14433 net.cpp:386] inception_4b/relu_5x5 -> inception_4b/5x5 (in-place)
I0403 15:47:46.103116 14433 net.cpp:141] Setting up inception_4b/relu_5x5
I0403 15:47:46.103145 14433 net.cpp:148] Top shape: 24 64 14 14 (301056)
I0403 15:47:46.103162 14433 net.cpp:156] Memory required for data: 968181024
I0403 15:47:46.103176 14433 layer_factory.hpp:77] Creating layer inception_4b/pool
I0403 15:47:46.103195 14433 net.cpp:91] Creating Layer inception_4b/pool
I0403 15:47:46.103211 14433 net.cpp:425] inception_4b/pool <- inception_4a/output_inception_4a/output_0_split_4
I0403 15:47:46.103234 14433 net.cpp:399] inception_4b/pool -> inception_4b/pool
I0403 15:47:46.103299 14433 net.cpp:141] Setting up inception_4b/pool
I0403 15:47:46.103323 14433 net.cpp:148] Top shape: 24 512 14 14 (2408448)
I0403 15:47:46.103338 14433 net.cpp:156] Memory required for data: 977814816
I0403 15:47:46.103353 14433 layer_factory.hpp:77] Creating layer inception_4b/pool_proj
I0403 15:47:46.103375 14433 net.cpp:91] Creating Layer inception_4b/pool_proj
I0403 15:47:46.103395 14433 net.cpp:425] inception_4b/pool_proj <- inception_4b/pool
I0403 15:47:46.103415 14433 net.cpp:399] inception_4b/pool_proj -> inception_4b/pool_proj
I0403 15:47:46.104624 14433 net.cpp:141] Setting up inception_4b/pool_proj
I0403 15:47:46.104652 14433 net.cpp:148] Top shape: 24 64 14 14 (301056)
I0403 15:47:46.104670 14433 net.cpp:156] Memory required for data: 979019040
I0403 15:47:46.104687 14433 layer_factory.hpp:77] Creating layer inception_4b/relu_pool_proj
I0403 15:47:46.104706 14433 net.cpp:91] Creating Layer inception_4b/relu_pool_proj
I0403 15:47:46.104722 14433 net.cpp:425] inception_4b/relu_pool_proj <- inception_4b/pool_proj
I0403 15:47:46.104743 14433 net.cpp:386] inception_4b/relu_pool_proj -> inception_4b/pool_proj (in-place)
I0403 15:47:46.104926 14433 net.cpp:141] Setting up inception_4b/relu_pool_proj
I0403 15:47:46.104951 14433 net.cpp:148] Top shape: 24 64 14 14 (301056)
I0403 15:47:46.104967 14433 net.cpp:156] Memory required for data: 980223264
I0403 15:47:46.104982 14433 layer_factory.hpp:77] Creating layer inception_4b/output
I0403 15:47:46.105000 14433 net.cpp:91] Creating Layer inception_4b/output
I0403 15:47:46.105020 14433 net.cpp:425] inception_4b/output <- inception_4b/1x1
I0403 15:47:46.105036 14433 net.cpp:425] inception_4b/output <- inception_4b/3x3
I0403 15:47:46.105051 14433 net.cpp:425] inception_4b/output <- inception_4b/5x5
I0403 15:47:46.105067 14433 net.cpp:425] inception_4b/output <- inception_4b/pool_proj
I0403 15:47:46.105083 14433 net.cpp:399] inception_4b/output -> inception_4b/output
I0403 15:47:46.105132 14433 net.cpp:141] Setting up inception_4b/output
I0403 15:47:46.105159 14433 net.cpp:148] Top shape: 24 512 14 14 (2408448)
I0403 15:47:46.105175 14433 net.cpp:156] Memory required for data: 989857056
I0403 15:47:46.105203 14433 layer_factory.hpp:77] Creating layer inception_4b/output_inception_4b/output_0_split
I0403 15:47:46.105222 14433 net.cpp:91] Creating Layer inception_4b/output_inception_4b/output_0_split
I0403 15:47:46.105237 14433 net.cpp:425] inception_4b/output_inception_4b/output_0_split <- inception_4b/output
I0403 15:47:46.105257 14433 net.cpp:399] inception_4b/output_inception_4b/output_0_split -> inception_4b/output_inception_4b/output_0_split_0
I0403 15:47:46.105278 14433 net.cpp:399] inception_4b/output_inception_4b/output_0_split -> inception_4b/output_inception_4b/output_0_split_1
I0403 15:47:46.105298 14433 net.cpp:399] inception_4b/output_inception_4b/output_0_split -> inception_4b/output_inception_4b/output_0_split_2
I0403 15:47:46.105319 14433 net.cpp:399] inception_4b/output_inception_4b/output_0_split -> inception_4b/output_inception_4b/output_0_split_3
I0403 15:47:46.105402 14433 net.cpp:141] Setting up inception_4b/output_inception_4b/output_0_split
I0403 15:47:46.105429 14433 net.cpp:148] Top shape: 24 512 14 14 (2408448)
I0403 15:47:46.105446 14433 net.cpp:148] Top shape: 24 512 14 14 (2408448)
I0403 15:47:46.105463 14433 net.cpp:148] Top shape: 24 512 14 14 (2408448)
I0403 15:47:46.105478 14433 net.cpp:148] Top shape: 24 512 14 14 (2408448)
I0403 15:47:46.105491 14433 net.cpp:156] Memory required for data: 1028392224
I0403 15:47:46.105506 14433 layer_factory.hpp:77] Creating layer inception_4c/1x1
I0403 15:47:46.105530 14433 net.cpp:91] Creating Layer inception_4c/1x1
I0403 15:47:46.105547 14433 net.cpp:425] inception_4c/1x1 <- inception_4b/output_inception_4b/output_0_split_0
I0403 15:47:46.105567 14433 net.cpp:399] inception_4c/1x1 -> inception_4c/1x1
I0403 15:47:46.107008 14433 net.cpp:141] Setting up inception_4c/1x1
I0403 15:47:46.107036 14433 net.cpp:148] Top shape: 24 128 14 14 (602112)
I0403 15:47:46.107053 14433 net.cpp:156] Memory required for data: 1030800672
I0403 15:47:46.107070 14433 layer_factory.hpp:77] Creating layer inception_4c/relu_1x1
I0403 15:47:46.107091 14433 net.cpp:91] Creating Layer inception_4c/relu_1x1
I0403 15:47:46.107115 14433 net.cpp:425] inception_4c/relu_1x1 <- inception_4c/1x1
I0403 15:47:46.107132 14433 net.cpp:386] inception_4c/relu_1x1 -> inception_4c/1x1 (in-place)
I0403 15:47:46.107322 14433 net.cpp:141] Setting up inception_4c/relu_1x1
I0403 15:47:46.107349 14433 net.cpp:148] Top shape: 24 128 14 14 (602112)
I0403 15:47:46.107363 14433 net.cpp:156] Memory required for data: 1033209120
I0403 15:47:46.107379 14433 layer_factory.hpp:77] Creating layer inception_4c/3x3_reduce
I0403 15:47:46.107403 14433 net.cpp:91] Creating Layer inception_4c/3x3_reduce
I0403 15:47:46.107420 14433 net.cpp:425] inception_4c/3x3_reduce <- inception_4b/output_inception_4b/output_0_split_1
I0403 15:47:46.107439 14433 net.cpp:399] inception_4c/3x3_reduce -> inception_4c/3x3_reduce
I0403 15:47:46.109515 14433 net.cpp:141] Setting up inception_4c/3x3_reduce
I0403 15:47:46.109549 14433 net.cpp:148] Top shape: 24 128 14 14 (602112)
I0403 15:47:46.109565 14433 net.cpp:156] Memory required for data: 1035617568
I0403 15:47:46.109585 14433 layer_factory.hpp:77] Creating layer inception_4c/relu_3x3_reduce
I0403 15:47:46.109603 14433 net.cpp:91] Creating Layer inception_4c/relu_3x3_reduce
I0403 15:47:46.109621 14433 net.cpp:425] inception_4c/relu_3x3_reduce <- inception_4c/3x3_reduce
I0403 15:47:46.109640 14433 net.cpp:386] inception_4c/relu_3x3_reduce -> inception_4c/3x3_reduce (in-place)
I0403 15:47:46.109935 14433 net.cpp:141] Setting up inception_4c/relu_3x3_reduce
I0403 15:47:46.109964 14433 net.cpp:148] Top shape: 24 128 14 14 (602112)
I0403 15:47:46.109980 14433 net.cpp:156] Memory required for data: 1038026016
I0403 15:47:46.109995 14433 layer_factory.hpp:77] Creating layer inception_4c/3x3
I0403 15:47:46.110019 14433 net.cpp:91] Creating Layer inception_4c/3x3
I0403 15:47:46.110038 14433 net.cpp:425] inception_4c/3x3 <- inception_4c/3x3_reduce
I0403 15:47:46.110056 14433 net.cpp:399] inception_4c/3x3 -> inception_4c/3x3
I0403 15:47:46.113670 14433 net.cpp:141] Setting up inception_4c/3x3
I0403 15:47:46.113713 14433 net.cpp:148] Top shape: 24 256 14 14 (1204224)
I0403 15:47:46.113729 14433 net.cpp:156] Memory required for data: 1042842912
I0403 15:47:46.113762 14433 layer_factory.hpp:77] Creating layer inception_4c/relu_3x3
I0403 15:47:46.113785 14433 net.cpp:91] Creating Layer inception_4c/relu_3x3
I0403 15:47:46.113801 14433 net.cpp:425] inception_4c/relu_3x3 <- inception_4c/3x3
I0403 15:47:46.113821 14433 net.cpp:386] inception_4c/relu_3x3 -> inception_4c/3x3 (in-place)
I0403 15:47:46.114007 14433 net.cpp:141] Setting up inception_4c/relu_3x3
I0403 15:47:46.114035 14433 net.cpp:148] Top shape: 24 256 14 14 (1204224)
I0403 15:47:46.114051 14433 net.cpp:156] Memory required for data: 1047659808
I0403 15:47:46.114066 14433 layer_factory.hpp:77] Creating layer inception_4c/5x5_reduce
I0403 15:47:46.114089 14433 net.cpp:91] Creating Layer inception_4c/5x5_reduce
I0403 15:47:46.114112 14433 net.cpp:425] inception_4c/5x5_reduce <- inception_4b/output_inception_4b/output_0_split_2
I0403 15:47:46.114135 14433 net.cpp:399] inception_4c/5x5_reduce -> inception_4c/5x5_reduce
I0403 15:47:46.115227 14433 net.cpp:141] Setting up inception_4c/5x5_reduce
I0403 15:47:46.115258 14433 net.cpp:148] Top shape: 24 24 14 14 (112896)
I0403 15:47:46.115275 14433 net.cpp:156] Memory required for data: 1048111392
I0403 15:47:46.115293 14433 layer_factory.hpp:77] Creating layer inception_4c/relu_5x5_reduce
I0403 15:47:46.115310 14433 net.cpp:91] Creating Layer inception_4c/relu_5x5_reduce
I0403 15:47:46.115327 14433 net.cpp:425] inception_4c/relu_5x5_reduce <- inception_4c/5x5_reduce
I0403 15:47:46.115347 14433 net.cpp:386] inception_4c/relu_5x5_reduce -> inception_4c/5x5_reduce (in-place)
I0403 15:47:46.115537 14433 net.cpp:141] Setting up inception_4c/relu_5x5_reduce
I0403 15:47:46.115563 14433 net.cpp:148] Top shape: 24 24 14 14 (112896)
I0403 15:47:46.115577 14433 net.cpp:156] Memory required for data: 1048562976
I0403 15:47:46.115592 14433 layer_factory.hpp:77] Creating layer inception_4c/5x5
I0403 15:47:46.115614 14433 net.cpp:91] Creating Layer inception_4c/5x5
I0403 15:47:46.115631 14433 net.cpp:425] inception_4c/5x5 <- inception_4c/5x5_reduce
I0403 15:47:46.115654 14433 net.cpp:399] inception_4c/5x5 -> inception_4c/5x5
I0403 15:47:46.116899 14433 net.cpp:141] Setting up inception_4c/5x5
I0403 15:47:46.116927 14433 net.cpp:148] Top shape: 24 64 14 14 (301056)
I0403 15:47:46.116943 14433 net.cpp:156] Memory required for data: 1049767200
I0403 15:47:46.116961 14433 layer_factory.hpp:77] Creating layer inception_4c/relu_5x5
I0403 15:47:46.116981 14433 net.cpp:91] Creating Layer inception_4c/relu_5x5
I0403 15:47:46.116999 14433 net.cpp:425] inception_4c/relu_5x5 <- inception_4c/5x5
I0403 15:47:46.117017 14433 net.cpp:386] inception_4c/relu_5x5 -> inception_4c/5x5 (in-place)
I0403 15:47:46.117310 14433 net.cpp:141] Setting up inception_4c/relu_5x5
I0403 15:47:46.117336 14433 net.cpp:148] Top shape: 24 64 14 14 (301056)
I0403 15:47:46.117350 14433 net.cpp:156] Memory required for data: 1050971424
I0403 15:47:46.117365 14433 layer_factory.hpp:77] Creating layer inception_4c/pool
I0403 15:47:46.117385 14433 net.cpp:91] Creating Layer inception_4c/pool
I0403 15:47:46.117403 14433 net.cpp:425] inception_4c/pool <- inception_4b/output_inception_4b/output_0_split_3
I0403 15:47:46.117420 14433 net.cpp:399] inception_4c/pool -> inception_4c/pool
I0403 15:47:46.117489 14433 net.cpp:141] Setting up inception_4c/pool
I0403 15:47:46.117513 14433 net.cpp:148] Top shape: 24 512 14 14 (2408448)
I0403 15:47:46.117527 14433 net.cpp:156] Memory required for data: 1060605216
I0403 15:47:46.117542 14433 layer_factory.hpp:77] Creating layer inception_4c/pool_proj
I0403 15:47:46.117565 14433 net.cpp:91] Creating Layer inception_4c/pool_proj
I0403 15:47:46.117583 14433 net.cpp:425] inception_4c/pool_proj <- inception_4c/pool
I0403 15:47:46.117602 14433 net.cpp:399] inception_4c/pool_proj -> inception_4c/pool_proj
I0403 15:47:46.118834 14433 net.cpp:141] Setting up inception_4c/pool_proj
I0403 15:47:46.118861 14433 net.cpp:148] Top shape: 24 64 14 14 (301056)
I0403 15:47:46.118891 14433 net.cpp:156] Memory required for data: 1061809440
I0403 15:47:46.118911 14433 layer_factory.hpp:77] Creating layer inception_4c/relu_pool_proj
I0403 15:47:46.118928 14433 net.cpp:91] Creating Layer inception_4c/relu_pool_proj
I0403 15:47:46.118944 14433 net.cpp:425] inception_4c/relu_pool_proj <- inception_4c/pool_proj
I0403 15:47:46.118964 14433 net.cpp:386] inception_4c/relu_pool_proj -> inception_4c/pool_proj (in-place)
I0403 15:47:46.119156 14433 net.cpp:141] Setting up inception_4c/relu_pool_proj
I0403 15:47:46.119182 14433 net.cpp:148] Top shape: 24 64 14 14 (301056)
I0403 15:47:46.119197 14433 net.cpp:156] Memory required for data: 1063013664
I0403 15:47:46.119212 14433 layer_factory.hpp:77] Creating layer inception_4c/output
I0403 15:47:46.119230 14433 net.cpp:91] Creating Layer inception_4c/output
I0403 15:47:46.119246 14433 net.cpp:425] inception_4c/output <- inception_4c/1x1
I0403 15:47:46.119263 14433 net.cpp:425] inception_4c/output <- inception_4c/3x3
I0403 15:47:46.119280 14433 net.cpp:425] inception_4c/output <- inception_4c/5x5
I0403 15:47:46.119297 14433 net.cpp:425] inception_4c/output <- inception_4c/pool_proj
I0403 15:47:46.119314 14433 net.cpp:399] inception_4c/output -> inception_4c/output
I0403 15:47:46.119359 14433 net.cpp:141] Setting up inception_4c/output
I0403 15:47:46.119385 14433 net.cpp:148] Top shape: 24 512 14 14 (2408448)
I0403 15:47:46.119400 14433 net.cpp:156] Memory required for data: 1072647456
I0403 15:47:46.119415 14433 layer_factory.hpp:77] Creating layer inception_4c/output_inception_4c/output_0_split
I0403 15:47:46.119432 14433 net.cpp:91] Creating Layer inception_4c/output_inception_4c/output_0_split
I0403 15:47:46.119447 14433 net.cpp:425] inception_4c/output_inception_4c/output_0_split <- inception_4c/output
I0403 15:47:46.119468 14433 net.cpp:399] inception_4c/output_inception_4c/output_0_split -> inception_4c/output_inception_4c/output_0_split_0
I0403 15:47:46.119490 14433 net.cpp:399] inception_4c/output_inception_4c/output_0_split -> inception_4c/output_inception_4c/output_0_split_1
I0403 15:47:46.119511 14433 net.cpp:399] inception_4c/output_inception_4c/output_0_split -> inception_4c/output_inception_4c/output_0_split_2
I0403 15:47:46.119532 14433 net.cpp:399] inception_4c/output_inception_4c/output_0_split -> inception_4c/output_inception_4c/output_0_split_3
I0403 15:47:46.119617 14433 net.cpp:141] Setting up inception_4c/output_inception_4c/output_0_split
I0403 15:47:46.119645 14433 net.cpp:148] Top shape: 24 512 14 14 (2408448)
I0403 15:47:46.119664 14433 net.cpp:148] Top shape: 24 512 14 14 (2408448)
I0403 15:47:46.119680 14433 net.cpp:148] Top shape: 24 512 14 14 (2408448)
I0403 15:47:46.119695 14433 net.cpp:148] Top shape: 24 512 14 14 (2408448)
I0403 15:47:46.119709 14433 net.cpp:156] Memory required for data: 1111182624
I0403 15:47:46.119724 14433 layer_factory.hpp:77] Creating layer inception_4d/1x1
I0403 15:47:46.119745 14433 net.cpp:91] Creating Layer inception_4d/1x1
I0403 15:47:46.119763 14433 net.cpp:425] inception_4d/1x1 <- inception_4c/output_inception_4c/output_0_split_0
I0403 15:47:46.119781 14433 net.cpp:399] inception_4d/1x1 -> inception_4d/1x1
I0403 15:47:46.121206 14433 net.cpp:141] Setting up inception_4d/1x1
I0403 15:47:46.121237 14433 net.cpp:148] Top shape: 24 112 14 14 (526848)
I0403 15:47:46.121258 14433 net.cpp:156] Memory required for data: 1113290016
I0403 15:47:46.121278 14433 layer_factory.hpp:77] Creating layer inception_4d/relu_1x1
I0403 15:47:46.121296 14433 net.cpp:91] Creating Layer inception_4d/relu_1x1
I0403 15:47:46.121314 14433 net.cpp:425] inception_4d/relu_1x1 <- inception_4d/1x1
I0403 15:47:46.121331 14433 net.cpp:386] inception_4d/relu_1x1 -> inception_4d/1x1 (in-place)
I0403 15:47:46.121541 14433 net.cpp:141] Setting up inception_4d/relu_1x1
I0403 15:47:46.121569 14433 net.cpp:148] Top shape: 24 112 14 14 (526848)
I0403 15:47:46.121585 14433 net.cpp:156] Memory required for data: 1115397408
I0403 15:47:46.121600 14433 layer_factory.hpp:77] Creating layer inception_4d/3x3_reduce
I0403 15:47:46.121637 14433 net.cpp:91] Creating Layer inception_4d/3x3_reduce
I0403 15:47:46.121657 14433 net.cpp:425] inception_4d/3x3_reduce <- inception_4c/output_inception_4c/output_0_split_1
I0403 15:47:46.121677 14433 net.cpp:399] inception_4d/3x3_reduce -> inception_4d/3x3_reduce
I0403 15:47:46.123256 14433 net.cpp:141] Setting up inception_4d/3x3_reduce
I0403 15:47:46.123286 14433 net.cpp:148] Top shape: 24 144 14 14 (677376)
I0403 15:47:46.123303 14433 net.cpp:156] Memory required for data: 1118106912
I0403 15:47:46.123322 14433 layer_factory.hpp:77] Creating layer inception_4d/relu_3x3_reduce
I0403 15:47:46.123342 14433 net.cpp:91] Creating Layer inception_4d/relu_3x3_reduce
I0403 15:47:46.123361 14433 net.cpp:425] inception_4d/relu_3x3_reduce <- inception_4d/3x3_reduce
I0403 15:47:46.123379 14433 net.cpp:386] inception_4d/relu_3x3_reduce -> inception_4d/3x3_reduce (in-place)
I0403 15:47:46.123687 14433 net.cpp:141] Setting up inception_4d/relu_3x3_reduce
I0403 15:47:46.123714 14433 net.cpp:148] Top shape: 24 144 14 14 (677376)
I0403 15:47:46.123729 14433 net.cpp:156] Memory required for data: 1120816416
I0403 15:47:46.123745 14433 layer_factory.hpp:77] Creating layer inception_4d/3x3
I0403 15:47:46.123769 14433 net.cpp:91] Creating Layer inception_4d/3x3
I0403 15:47:46.123787 14433 net.cpp:425] inception_4d/3x3 <- inception_4d/3x3_reduce
I0403 15:47:46.123808 14433 net.cpp:399] inception_4d/3x3 -> inception_4d/3x3
I0403 15:47:46.128201 14433 net.cpp:141] Setting up inception_4d/3x3
I0403 15:47:46.128231 14433 net.cpp:148] Top shape: 24 288 14 14 (1354752)
I0403 15:47:46.128247 14433 net.cpp:156] Memory required for data: 1126235424
I0403 15:47:46.128265 14433 layer_factory.hpp:77] Creating layer inception_4d/relu_3x3
I0403 15:47:46.128288 14433 net.cpp:91] Creating Layer inception_4d/relu_3x3
I0403 15:47:46.128306 14433 net.cpp:425] inception_4d/relu_3x3 <- inception_4d/3x3
I0403 15:47:46.128324 14433 net.cpp:386] inception_4d/relu_3x3 -> inception_4d/3x3 (in-place)
I0403 15:47:46.128517 14433 net.cpp:141] Setting up inception_4d/relu_3x3
I0403 15:47:46.128545 14433 net.cpp:148] Top shape: 24 288 14 14 (1354752)
I0403 15:47:46.128559 14433 net.cpp:156] Memory required for data: 1131654432
I0403 15:47:46.128574 14433 layer_factory.hpp:77] Creating layer inception_4d/5x5_reduce
I0403 15:47:46.128597 14433 net.cpp:91] Creating Layer inception_4d/5x5_reduce
I0403 15:47:46.128615 14433 net.cpp:425] inception_4d/5x5_reduce <- inception_4c/output_inception_4c/output_0_split_2
I0403 15:47:46.128638 14433 net.cpp:399] inception_4d/5x5_reduce -> inception_4d/5x5_reduce
I0403 15:47:46.129827 14433 net.cpp:141] Setting up inception_4d/5x5_reduce
I0403 15:47:46.129858 14433 net.cpp:148] Top shape: 24 32 14 14 (150528)
I0403 15:47:46.129874 14433 net.cpp:156] Memory required for data: 1132256544
I0403 15:47:46.129894 14433 layer_factory.hpp:77] Creating layer inception_4d/relu_5x5_reduce
I0403 15:47:46.129912 14433 net.cpp:91] Creating Layer inception_4d/relu_5x5_reduce
I0403 15:47:46.129930 14433 net.cpp:425] inception_4d/relu_5x5_reduce <- inception_4d/5x5_reduce
I0403 15:47:46.129947 14433 net.cpp:386] inception_4d/relu_5x5_reduce -> inception_4d/5x5_reduce (in-place)
I0403 15:47:46.130148 14433 net.cpp:141] Setting up inception_4d/relu_5x5_reduce
I0403 15:47:46.130177 14433 net.cpp:148] Top shape: 24 32 14 14 (150528)
I0403 15:47:46.130195 14433 net.cpp:156] Memory required for data: 1132858656
I0403 15:47:46.130213 14433 layer_factory.hpp:77] Creating layer inception_4d/5x5
I0403 15:47:46.130259 14433 net.cpp:91] Creating Layer inception_4d/5x5
I0403 15:47:46.130280 14433 net.cpp:425] inception_4d/5x5 <- inception_4d/5x5_reduce
I0403 15:47:46.130303 14433 net.cpp:399] inception_4d/5x5 -> inception_4d/5x5
I0403 15:47:46.131829 14433 net.cpp:141] Setting up inception_4d/5x5
I0403 15:47:46.131860 14433 net.cpp:148] Top shape: 24 64 14 14 (301056)
I0403 15:47:46.131875 14433 net.cpp:156] Memory required for data: 1134062880
I0403 15:47:46.131894 14433 layer_factory.hpp:77] Creating layer inception_4d/relu_5x5
I0403 15:47:46.131929 14433 net.cpp:91] Creating Layer inception_4d/relu_5x5
I0403 15:47:46.131952 14433 net.cpp:425] inception_4d/relu_5x5 <- inception_4d/5x5
I0403 15:47:46.131969 14433 net.cpp:386] inception_4d/relu_5x5 -> inception_4d/5x5 (in-place)
I0403 15:47:46.132282 14433 net.cpp:141] Setting up inception_4d/relu_5x5
I0403 15:47:46.132310 14433 net.cpp:148] Top shape: 24 64 14 14 (301056)
I0403 15:47:46.132325 14433 net.cpp:156] Memory required for data: 1135267104
I0403 15:47:46.132340 14433 layer_factory.hpp:77] Creating layer inception_4d/pool
I0403 15:47:46.132359 14433 net.cpp:91] Creating Layer inception_4d/pool
I0403 15:47:46.132375 14433 net.cpp:425] inception_4d/pool <- inception_4c/output_inception_4c/output_0_split_3
I0403 15:47:46.132397 14433 net.cpp:399] inception_4d/pool -> inception_4d/pool
I0403 15:47:46.132467 14433 net.cpp:141] Setting up inception_4d/pool
I0403 15:47:46.132494 14433 net.cpp:148] Top shape: 24 512 14 14 (2408448)
I0403 15:47:46.132510 14433 net.cpp:156] Memory required for data: 1144900896
I0403 15:47:46.132525 14433 layer_factory.hpp:77] Creating layer inception_4d/pool_proj
I0403 15:47:46.132549 14433 net.cpp:91] Creating Layer inception_4d/pool_proj
I0403 15:47:46.132567 14433 net.cpp:425] inception_4d/pool_proj <- inception_4d/pool
I0403 15:47:46.132587 14433 net.cpp:399] inception_4d/pool_proj -> inception_4d/pool_proj
I0403 15:47:46.134403 14433 net.cpp:141] Setting up inception_4d/pool_proj
I0403 15:47:46.134434 14433 net.cpp:148] Top shape: 24 64 14 14 (301056)
I0403 15:47:46.134451 14433 net.cpp:156] Memory required for data: 1146105120
I0403 15:47:46.134469 14433 layer_factory.hpp:77] Creating layer inception_4d/relu_pool_proj
I0403 15:47:46.134490 14433 net.cpp:91] Creating Layer inception_4d/relu_pool_proj
I0403 15:47:46.134510 14433 net.cpp:425] inception_4d/relu_pool_proj <- inception_4d/pool_proj
I0403 15:47:46.134528 14433 net.cpp:386] inception_4d/relu_pool_proj -> inception_4d/pool_proj (in-place)
I0403 15:47:46.134724 14433 net.cpp:141] Setting up inception_4d/relu_pool_proj
I0403 15:47:46.134750 14433 net.cpp:148] Top shape: 24 64 14 14 (301056)
I0403 15:47:46.134765 14433 net.cpp:156] Memory required for data: 1147309344
I0403 15:47:46.134780 14433 layer_factory.hpp:77] Creating layer inception_4d/output
I0403 15:47:46.134798 14433 net.cpp:91] Creating Layer inception_4d/output
I0403 15:47:46.134814 14433 net.cpp:425] inception_4d/output <- inception_4d/1x1
I0403 15:47:46.134831 14433 net.cpp:425] inception_4d/output <- inception_4d/3x3
I0403 15:47:46.134848 14433 net.cpp:425] inception_4d/output <- inception_4d/5x5
I0403 15:47:46.134865 14433 net.cpp:425] inception_4d/output <- inception_4d/pool_proj
I0403 15:47:46.134883 14433 net.cpp:399] inception_4d/output -> inception_4d/output
I0403 15:47:46.134933 14433 net.cpp:141] Setting up inception_4d/output
I0403 15:47:46.134961 14433 net.cpp:148] Top shape: 24 528 14 14 (2483712)
I0403 15:47:46.134977 14433 net.cpp:156] Memory required for data: 1157244192
I0403 15:47:46.134994 14433 layer_factory.hpp:77] Creating layer inception_4d/output_inception_4d/output_0_split
I0403 15:47:46.135010 14433 net.cpp:91] Creating Layer inception_4d/output_inception_4d/output_0_split
I0403 15:47:46.135027 14433 net.cpp:425] inception_4d/output_inception_4d/output_0_split <- inception_4d/output
I0403 15:47:46.135046 14433 net.cpp:399] inception_4d/output_inception_4d/output_0_split -> inception_4d/output_inception_4d/output_0_split_0
I0403 15:47:46.135071 14433 net.cpp:399] inception_4d/output_inception_4d/output_0_split -> inception_4d/output_inception_4d/output_0_split_1
I0403 15:47:46.135097 14433 net.cpp:399] inception_4d/output_inception_4d/output_0_split -> inception_4d/output_inception_4d/output_0_split_2
I0403 15:47:46.135121 14433 net.cpp:399] inception_4d/output_inception_4d/output_0_split -> inception_4d/output_inception_4d/output_0_split_3
I0403 15:47:46.135143 14433 net.cpp:399] inception_4d/output_inception_4d/output_0_split -> inception_4d/output_inception_4d/output_0_split_4
I0403 15:47:46.135249 14433 net.cpp:141] Setting up inception_4d/output_inception_4d/output_0_split
I0403 15:47:46.135287 14433 net.cpp:148] Top shape: 24 528 14 14 (2483712)
I0403 15:47:46.135304 14433 net.cpp:148] Top shape: 24 528 14 14 (2483712)
I0403 15:47:46.135320 14433 net.cpp:148] Top shape: 24 528 14 14 (2483712)
I0403 15:47:46.135336 14433 net.cpp:148] Top shape: 24 528 14 14 (2483712)
I0403 15:47:46.135352 14433 net.cpp:148] Top shape: 24 528 14 14 (2483712)
I0403 15:47:46.135365 14433 net.cpp:156] Memory required for data: 1206918432
I0403 15:47:46.135380 14433 layer_factory.hpp:77] Creating layer loss2/ave_pool
I0403 15:47:46.135401 14433 net.cpp:91] Creating Layer loss2/ave_pool
I0403 15:47:46.135418 14433 net.cpp:425] loss2/ave_pool <- inception_4d/output_inception_4d/output_0_split_0
I0403 15:47:46.135438 14433 net.cpp:399] loss2/ave_pool -> loss2/ave_pool
I0403 15:47:46.135759 14433 net.cpp:141] Setting up loss2/ave_pool
I0403 15:47:46.135789 14433 net.cpp:148] Top shape: 24 528 4 4 (202752)
I0403 15:47:46.135807 14433 net.cpp:156] Memory required for data: 1207729440
I0403 15:47:46.135823 14433 layer_factory.hpp:77] Creating layer loss2/conv
I0403 15:47:46.135846 14433 net.cpp:91] Creating Layer loss2/conv
I0403 15:47:46.135864 14433 net.cpp:425] loss2/conv <- loss2/ave_pool
I0403 15:47:46.135885 14433 net.cpp:399] loss2/conv -> loss2/conv
I0403 15:47:46.137832 14433 net.cpp:141] Setting up loss2/conv
I0403 15:47:46.137863 14433 net.cpp:148] Top shape: 24 128 4 4 (49152)
I0403 15:47:46.137878 14433 net.cpp:156] Memory required for data: 1207926048
I0403 15:47:46.137898 14433 layer_factory.hpp:77] Creating layer loss2/relu_conv
I0403 15:47:46.137917 14433 net.cpp:91] Creating Layer loss2/relu_conv
I0403 15:47:46.137933 14433 net.cpp:425] loss2/relu_conv <- loss2/conv
I0403 15:47:46.137953 14433 net.cpp:386] loss2/relu_conv -> loss2/conv (in-place)
I0403 15:47:46.138252 14433 net.cpp:141] Setting up loss2/relu_conv
I0403 15:47:46.138279 14433 net.cpp:148] Top shape: 24 128 4 4 (49152)
I0403 15:47:46.138295 14433 net.cpp:156] Memory required for data: 1208122656
I0403 15:47:46.138310 14433 layer_factory.hpp:77] Creating layer loss2/fc
I0403 15:47:46.138330 14433 net.cpp:91] Creating Layer loss2/fc
I0403 15:47:46.138347 14433 net.cpp:425] loss2/fc <- loss2/conv
I0403 15:47:46.138370 14433 net.cpp:399] loss2/fc -> loss2/fc
I0403 15:47:46.156152 14433 net.cpp:141] Setting up loss2/fc
I0403 15:47:46.156189 14433 net.cpp:148] Top shape: 24 1024 (24576)
I0403 15:47:46.156205 14433 net.cpp:156] Memory required for data: 1208220960
I0403 15:47:46.156225 14433 layer_factory.hpp:77] Creating layer loss2/relu_fc
I0403 15:47:46.156244 14433 net.cpp:91] Creating Layer loss2/relu_fc
I0403 15:47:46.156261 14433 net.cpp:425] loss2/relu_fc <- loss2/fc
I0403 15:47:46.156280 14433 net.cpp:386] loss2/relu_fc -> loss2/fc (in-place)
I0403 15:47:46.156599 14433 net.cpp:141] Setting up loss2/relu_fc
I0403 15:47:46.156627 14433 net.cpp:148] Top shape: 24 1024 (24576)
I0403 15:47:46.156644 14433 net.cpp:156] Memory required for data: 1208319264
I0403 15:47:46.156659 14433 layer_factory.hpp:77] Creating layer loss2/drop_fc
I0403 15:47:46.156677 14433 net.cpp:91] Creating Layer loss2/drop_fc
I0403 15:47:46.156692 14433 net.cpp:425] loss2/drop_fc <- loss2/fc
I0403 15:47:46.156709 14433 net.cpp:386] loss2/drop_fc -> loss2/fc (in-place)
I0403 15:47:46.156760 14433 net.cpp:141] Setting up loss2/drop_fc
I0403 15:47:46.156785 14433 net.cpp:148] Top shape: 24 1024 (24576)
I0403 15:47:46.156800 14433 net.cpp:156] Memory required for data: 1208417568
I0403 15:47:46.156815 14433 layer_factory.hpp:77] Creating layer loss2/classifier_plantvillage
I0403 15:47:46.156834 14433 net.cpp:91] Creating Layer loss2/classifier_plantvillage
I0403 15:47:46.156853 14433 net.cpp:425] loss2/classifier_plantvillage <- loss2/fc
I0403 15:47:46.156872 14433 net.cpp:399] loss2/classifier_plantvillage -> loss2/classifier_plantvillage
I0403 15:47:46.157287 14433 net.cpp:141] Setting up loss2/classifier_plantvillage
I0403 15:47:46.157313 14433 net.cpp:148] Top shape: 24 38 (912)
I0403 15:47:46.157328 14433 net.cpp:156] Memory required for data: 1208421216
I0403 15:47:46.157367 14433 layer_factory.hpp:77] Creating layer loss2/classifier_plantvillage_loss2/classifier_plantvillage_0_split
I0403 15:47:46.157387 14433 net.cpp:91] Creating Layer loss2/classifier_plantvillage_loss2/classifier_plantvillage_0_split
I0403 15:47:46.157404 14433 net.cpp:425] loss2/classifier_plantvillage_loss2/classifier_plantvillage_0_split <- loss2/classifier_plantvillage
I0403 15:47:46.157424 14433 net.cpp:399] loss2/classifier_plantvillage_loss2/classifier_plantvillage_0_split -> loss2/classifier_plantvillage_loss2/classifier_plantvillage_0_split_0
I0403 15:47:46.157447 14433 net.cpp:399] loss2/classifier_plantvillage_loss2/classifier_plantvillage_0_split -> loss2/classifier_plantvillage_loss2/classifier_plantvillage_0_split_1
I0403 15:47:46.157469 14433 net.cpp:399] loss2/classifier_plantvillage_loss2/classifier_plantvillage_0_split -> loss2/classifier_plantvillage_loss2/classifier_plantvillage_0_split_2
I0403 15:47:46.157547 14433 net.cpp:141] Setting up loss2/classifier_plantvillage_loss2/classifier_plantvillage_0_split
I0403 15:47:46.157572 14433 net.cpp:148] Top shape: 24 38 (912)
I0403 15:47:46.157587 14433 net.cpp:148] Top shape: 24 38 (912)
I0403 15:47:46.157603 14433 net.cpp:148] Top shape: 24 38 (912)
I0403 15:47:46.157615 14433 net.cpp:156] Memory required for data: 1208432160
I0403 15:47:46.157630 14433 layer_factory.hpp:77] Creating layer inception_4e/1x1
I0403 15:47:46.157652 14433 net.cpp:91] Creating Layer inception_4e/1x1
I0403 15:47:46.157670 14433 net.cpp:425] inception_4e/1x1 <- inception_4d/output_inception_4d/output_0_split_1
I0403 15:47:46.157690 14433 net.cpp:399] inception_4e/1x1 -> inception_4e/1x1
I0403 15:47:46.159533 14433 net.cpp:141] Setting up inception_4e/1x1
I0403 15:47:46.159562 14433 net.cpp:148] Top shape: 24 256 14 14 (1204224)
I0403 15:47:46.159579 14433 net.cpp:156] Memory required for data: 1213249056
I0403 15:47:46.159596 14433 layer_factory.hpp:77] Creating layer inception_4e/relu_1x1
I0403 15:47:46.159617 14433 net.cpp:91] Creating Layer inception_4e/relu_1x1
I0403 15:47:46.159636 14433 net.cpp:425] inception_4e/relu_1x1 <- inception_4e/1x1
I0403 15:47:46.159653 14433 net.cpp:386] inception_4e/relu_1x1 -> inception_4e/1x1 (in-place)
I0403 15:47:46.159951 14433 net.cpp:141] Setting up inception_4e/relu_1x1
I0403 15:47:46.159978 14433 net.cpp:148] Top shape: 24 256 14 14 (1204224)
I0403 15:47:46.159993 14433 net.cpp:156] Memory required for data: 1218065952
I0403 15:47:46.160007 14433 layer_factory.hpp:77] Creating layer inception_4e/3x3_reduce
I0403 15:47:46.160029 14433 net.cpp:91] Creating Layer inception_4e/3x3_reduce
I0403 15:47:46.160048 14433 net.cpp:425] inception_4e/3x3_reduce <- inception_4d/output_inception_4d/output_0_split_2
I0403 15:47:46.160068 14433 net.cpp:399] inception_4e/3x3_reduce -> inception_4e/3x3_reduce
I0403 15:47:46.162199 14433 net.cpp:141] Setting up inception_4e/3x3_reduce
I0403 15:47:46.162228 14433 net.cpp:148] Top shape: 24 160 14 14 (752640)
I0403 15:47:46.162245 14433 net.cpp:156] Memory required for data: 1221076512
I0403 15:47:46.162263 14433 layer_factory.hpp:77] Creating layer inception_4e/relu_3x3_reduce
I0403 15:47:46.162281 14433 net.cpp:91] Creating Layer inception_4e/relu_3x3_reduce
I0403 15:47:46.162297 14433 net.cpp:425] inception_4e/relu_3x3_reduce <- inception_4e/3x3_reduce
I0403 15:47:46.162317 14433 net.cpp:386] inception_4e/relu_3x3_reduce -> inception_4e/3x3_reduce (in-place)
I0403 15:47:46.162508 14433 net.cpp:141] Setting up inception_4e/relu_3x3_reduce
I0403 15:47:46.162534 14433 net.cpp:148] Top shape: 24 160 14 14 (752640)
I0403 15:47:46.162549 14433 net.cpp:156] Memory required for data: 1224087072
I0403 15:47:46.162565 14433 layer_factory.hpp:77] Creating layer inception_4e/3x3
I0403 15:47:46.162587 14433 net.cpp:91] Creating Layer inception_4e/3x3
I0403 15:47:46.162606 14433 net.cpp:425] inception_4e/3x3 <- inception_4e/3x3_reduce
I0403 15:47:46.162626 14433 net.cpp:399] inception_4e/3x3 -> inception_4e/3x3
I0403 15:47:46.167757 14433 net.cpp:141] Setting up inception_4e/3x3
I0403 15:47:46.167798 14433 net.cpp:148] Top shape: 24 320 14 14 (1505280)
I0403 15:47:46.167815 14433 net.cpp:156] Memory required for data: 1230108192
I0403 15:47:46.167834 14433 layer_factory.hpp:77] Creating layer inception_4e/relu_3x3
I0403 15:47:46.167855 14433 net.cpp:91] Creating Layer inception_4e/relu_3x3
I0403 15:47:46.167872 14433 net.cpp:425] inception_4e/relu_3x3 <- inception_4e/3x3
I0403 15:47:46.167891 14433 net.cpp:386] inception_4e/relu_3x3 -> inception_4e/3x3 (in-place)
I0403 15:47:46.168200 14433 net.cpp:141] Setting up inception_4e/relu_3x3
I0403 15:47:46.168229 14433 net.cpp:148] Top shape: 24 320 14 14 (1505280)
I0403 15:47:46.168246 14433 net.cpp:156] Memory required for data: 1236129312
I0403 15:47:46.168262 14433 layer_factory.hpp:77] Creating layer inception_4e/5x5_reduce
I0403 15:47:46.168282 14433 net.cpp:91] Creating Layer inception_4e/5x5_reduce
I0403 15:47:46.168298 14433 net.cpp:425] inception_4e/5x5_reduce <- inception_4d/output_inception_4d/output_0_split_3
I0403 15:47:46.168320 14433 net.cpp:399] inception_4e/5x5_reduce -> inception_4e/5x5_reduce
I0403 15:47:46.169417 14433 net.cpp:141] Setting up inception_4e/5x5_reduce
I0403 15:47:46.169445 14433 net.cpp:148] Top shape: 24 32 14 14 (150528)
I0403 15:47:46.169461 14433 net.cpp:156] Memory required for data: 1236731424
I0403 15:47:46.169479 14433 layer_factory.hpp:77] Creating layer inception_4e/relu_5x5_reduce
I0403 15:47:46.169497 14433 net.cpp:91] Creating Layer inception_4e/relu_5x5_reduce
I0403 15:47:46.169517 14433 net.cpp:425] inception_4e/relu_5x5_reduce <- inception_4e/5x5_reduce
I0403 15:47:46.169534 14433 net.cpp:386] inception_4e/relu_5x5_reduce -> inception_4e/5x5_reduce (in-place)
I0403 15:47:46.169837 14433 net.cpp:141] Setting up inception_4e/relu_5x5_reduce
I0403 15:47:46.169863 14433 net.cpp:148] Top shape: 24 32 14 14 (150528)
I0403 15:47:46.169878 14433 net.cpp:156] Memory required for data: 1237333536
I0403 15:47:46.169893 14433 layer_factory.hpp:77] Creating layer inception_4e/5x5
I0403 15:47:46.169932 14433 net.cpp:91] Creating Layer inception_4e/5x5
I0403 15:47:46.169951 14433 net.cpp:425] inception_4e/5x5 <- inception_4e/5x5_reduce
I0403 15:47:46.169971 14433 net.cpp:399] inception_4e/5x5 -> inception_4e/5x5
I0403 15:47:46.171843 14433 net.cpp:141] Setting up inception_4e/5x5
I0403 15:47:46.171874 14433 net.cpp:148] Top shape: 24 128 14 14 (602112)
I0403 15:47:46.171891 14433 net.cpp:156] Memory required for data: 1239741984
I0403 15:47:46.171911 14433 layer_factory.hpp:77] Creating layer inception_4e/relu_5x5
I0403 15:47:46.171928 14433 net.cpp:91] Creating Layer inception_4e/relu_5x5
I0403 15:47:46.171944 14433 net.cpp:425] inception_4e/relu_5x5 <- inception_4e/5x5
I0403 15:47:46.171964 14433 net.cpp:386] inception_4e/relu_5x5 -> inception_4e/5x5 (in-place)
I0403 15:47:46.172171 14433 net.cpp:141] Setting up inception_4e/relu_5x5
I0403 15:47:46.172199 14433 net.cpp:148] Top shape: 24 128 14 14 (602112)
I0403 15:47:46.172214 14433 net.cpp:156] Memory required for data: 1242150432
I0403 15:47:46.172229 14433 layer_factory.hpp:77] Creating layer inception_4e/pool
I0403 15:47:46.172247 14433 net.cpp:91] Creating Layer inception_4e/pool
I0403 15:47:46.172263 14433 net.cpp:425] inception_4e/pool <- inception_4d/output_inception_4d/output_0_split_4
I0403 15:47:46.172284 14433 net.cpp:399] inception_4e/pool -> inception_4e/pool
I0403 15:47:46.172356 14433 net.cpp:141] Setting up inception_4e/pool
I0403 15:47:46.172381 14433 net.cpp:148] Top shape: 24 528 14 14 (2483712)
I0403 15:47:46.172395 14433 net.cpp:156] Memory required for data: 1252085280
I0403 15:47:46.172408 14433 layer_factory.hpp:77] Creating layer inception_4e/pool_proj
I0403 15:47:46.172432 14433 net.cpp:91] Creating Layer inception_4e/pool_proj
I0403 15:47:46.172451 14433 net.cpp:425] inception_4e/pool_proj <- inception_4e/pool
I0403 15:47:46.172469 14433 net.cpp:399] inception_4e/pool_proj -> inception_4e/pool_proj
I0403 15:47:46.173995 14433 net.cpp:141] Setting up inception_4e/pool_proj
I0403 15:47:46.174026 14433 net.cpp:148] Top shape: 24 128 14 14 (602112)
I0403 15:47:46.174055 14433 net.cpp:156] Memory required for data: 1254493728
I0403 15:47:46.174075 14433 layer_factory.hpp:77] Creating layer inception_4e/relu_pool_proj
I0403 15:47:46.174096 14433 net.cpp:91] Creating Layer inception_4e/relu_pool_proj
I0403 15:47:46.174114 14433 net.cpp:425] inception_4e/relu_pool_proj <- inception_4e/pool_proj
I0403 15:47:46.174135 14433 net.cpp:386] inception_4e/relu_pool_proj -> inception_4e/pool_proj (in-place)
I0403 15:47:46.174432 14433 net.cpp:141] Setting up inception_4e/relu_pool_proj
I0403 15:47:46.174460 14433 net.cpp:148] Top shape: 24 128 14 14 (602112)
I0403 15:47:46.174477 14433 net.cpp:156] Memory required for data: 1256902176
I0403 15:47:46.174492 14433 layer_factory.hpp:77] Creating layer inception_4e/output
I0403 15:47:46.174510 14433 net.cpp:91] Creating Layer inception_4e/output
I0403 15:47:46.174525 14433 net.cpp:425] inception_4e/output <- inception_4e/1x1
I0403 15:47:46.174542 14433 net.cpp:425] inception_4e/output <- inception_4e/3x3
I0403 15:47:46.174558 14433 net.cpp:425] inception_4e/output <- inception_4e/5x5
I0403 15:47:46.174576 14433 net.cpp:425] inception_4e/output <- inception_4e/pool_proj
I0403 15:47:46.174593 14433 net.cpp:399] inception_4e/output -> inception_4e/output
I0403 15:47:46.174644 14433 net.cpp:141] Setting up inception_4e/output
I0403 15:47:46.174667 14433 net.cpp:148] Top shape: 24 832 14 14 (3913728)
I0403 15:47:46.174682 14433 net.cpp:156] Memory required for data: 1272557088
I0403 15:47:46.174697 14433 layer_factory.hpp:77] Creating layer pool4/3x3_s2
I0403 15:47:46.174717 14433 net.cpp:91] Creating Layer pool4/3x3_s2
I0403 15:47:46.174734 14433 net.cpp:425] pool4/3x3_s2 <- inception_4e/output
I0403 15:47:46.174752 14433 net.cpp:399] pool4/3x3_s2 -> pool4/3x3_s2
I0403 15:47:46.174823 14433 net.cpp:141] Setting up pool4/3x3_s2
I0403 15:47:46.174847 14433 net.cpp:148] Top shape: 24 832 7 7 (978432)
I0403 15:47:46.174862 14433 net.cpp:156] Memory required for data: 1276470816
I0403 15:47:46.174876 14433 layer_factory.hpp:77] Creating layer pool4/3x3_s2_pool4/3x3_s2_0_split
I0403 15:47:46.174893 14433 net.cpp:91] Creating Layer pool4/3x3_s2_pool4/3x3_s2_0_split
I0403 15:47:46.174909 14433 net.cpp:425] pool4/3x3_s2_pool4/3x3_s2_0_split <- pool4/3x3_s2
I0403 15:47:46.174928 14433 net.cpp:399] pool4/3x3_s2_pool4/3x3_s2_0_split -> pool4/3x3_s2_pool4/3x3_s2_0_split_0
I0403 15:47:46.174949 14433 net.cpp:399] pool4/3x3_s2_pool4/3x3_s2_0_split -> pool4/3x3_s2_pool4/3x3_s2_0_split_1
I0403 15:47:46.174970 14433 net.cpp:399] pool4/3x3_s2_pool4/3x3_s2_0_split -> pool4/3x3_s2_pool4/3x3_s2_0_split_2
I0403 15:47:46.174990 14433 net.cpp:399] pool4/3x3_s2_pool4/3x3_s2_0_split -> pool4/3x3_s2_pool4/3x3_s2_0_split_3
I0403 15:47:46.175082 14433 net.cpp:141] Setting up pool4/3x3_s2_pool4/3x3_s2_0_split
I0403 15:47:46.175113 14433 net.cpp:148] Top shape: 24 832 7 7 (978432)
I0403 15:47:46.175132 14433 net.cpp:148] Top shape: 24 832 7 7 (978432)
I0403 15:47:46.175148 14433 net.cpp:148] Top shape: 24 832 7 7 (978432)
I0403 15:47:46.175163 14433 net.cpp:148] Top shape: 24 832 7 7 (978432)
I0403 15:47:46.175175 14433 net.cpp:156] Memory required for data: 1292125728
I0403 15:47:46.175189 14433 layer_factory.hpp:77] Creating layer inception_5a/1x1
I0403 15:47:46.175211 14433 net.cpp:91] Creating Layer inception_5a/1x1
I0403 15:47:46.175230 14433 net.cpp:425] inception_5a/1x1 <- pool4/3x3_s2_pool4/3x3_s2_0_split_0
I0403 15:47:46.175248 14433 net.cpp:399] inception_5a/1x1 -> inception_5a/1x1
I0403 15:47:46.178230 14433 net.cpp:141] Setting up inception_5a/1x1
I0403 15:47:46.178259 14433 net.cpp:148] Top shape: 24 256 7 7 (301056)
I0403 15:47:46.178275 14433 net.cpp:156] Memory required for data: 1293329952
I0403 15:47:46.178294 14433 layer_factory.hpp:77] Creating layer inception_5a/relu_1x1
I0403 15:47:46.178313 14433 net.cpp:91] Creating Layer inception_5a/relu_1x1
I0403 15:47:46.178328 14433 net.cpp:425] inception_5a/relu_1x1 <- inception_5a/1x1
I0403 15:47:46.178349 14433 net.cpp:386] inception_5a/relu_1x1 -> inception_5a/1x1 (in-place)
I0403 15:47:46.178676 14433 net.cpp:141] Setting up inception_5a/relu_1x1
I0403 15:47:46.178704 14433 net.cpp:148] Top shape: 24 256 7 7 (301056)
I0403 15:47:46.178719 14433 net.cpp:156] Memory required for data: 1294534176
I0403 15:47:46.178735 14433 layer_factory.hpp:77] Creating layer inception_5a/3x3_reduce
I0403 15:47:46.178758 14433 net.cpp:91] Creating Layer inception_5a/3x3_reduce
I0403 15:47:46.178777 14433 net.cpp:425] inception_5a/3x3_reduce <- pool4/3x3_s2_pool4/3x3_s2_0_split_1
I0403 15:47:46.178800 14433 net.cpp:399] inception_5a/3x3_reduce -> inception_5a/3x3_reduce
I0403 15:47:46.181339 14433 net.cpp:141] Setting up inception_5a/3x3_reduce
I0403 15:47:46.181368 14433 net.cpp:148] Top shape: 24 160 7 7 (188160)
I0403 15:47:46.181385 14433 net.cpp:156] Memory required for data: 1295286816
I0403 15:47:46.181404 14433 layer_factory.hpp:77] Creating layer inception_5a/relu_3x3_reduce
I0403 15:47:46.181427 14433 net.cpp:91] Creating Layer inception_5a/relu_3x3_reduce
I0403 15:47:46.181443 14433 net.cpp:425] inception_5a/relu_3x3_reduce <- inception_5a/3x3_reduce
I0403 15:47:46.181462 14433 net.cpp:386] inception_5a/relu_3x3_reduce -> inception_5a/3x3_reduce (in-place)
I0403 15:47:46.181658 14433 net.cpp:141] Setting up inception_5a/relu_3x3_reduce
I0403 15:47:46.181687 14433 net.cpp:148] Top shape: 24 160 7 7 (188160)
I0403 15:47:46.181701 14433 net.cpp:156] Memory required for data: 1296039456
I0403 15:47:46.181716 14433 layer_factory.hpp:77] Creating layer inception_5a/3x3
I0403 15:47:46.181740 14433 net.cpp:91] Creating Layer inception_5a/3x3
I0403 15:47:46.181759 14433 net.cpp:425] inception_5a/3x3 <- inception_5a/3x3_reduce
I0403 15:47:46.181782 14433 net.cpp:399] inception_5a/3x3 -> inception_5a/3x3
I0403 15:47:46.187026 14433 net.cpp:141] Setting up inception_5a/3x3
I0403 15:47:46.187062 14433 net.cpp:148] Top shape: 24 320 7 7 (376320)
I0403 15:47:46.187079 14433 net.cpp:156] Memory required for data: 1297544736
I0403 15:47:46.187103 14433 layer_factory.hpp:77] Creating layer inception_5a/relu_3x3
I0403 15:47:46.187124 14433 net.cpp:91] Creating Layer inception_5a/relu_3x3
I0403 15:47:46.187140 14433 net.cpp:425] inception_5a/relu_3x3 <- inception_5a/3x3
I0403 15:47:46.187161 14433 net.cpp:386] inception_5a/relu_3x3 -> inception_5a/3x3 (in-place)
I0403 15:47:46.187471 14433 net.cpp:141] Setting up inception_5a/relu_3x3
I0403 15:47:46.187501 14433 net.cpp:148] Top shape: 24 320 7 7 (376320)
I0403 15:47:46.187518 14433 net.cpp:156] Memory required for data: 1299050016
I0403 15:47:46.187533 14433 layer_factory.hpp:77] Creating layer inception_5a/5x5_reduce
I0403 15:47:46.187557 14433 net.cpp:91] Creating Layer inception_5a/5x5_reduce
I0403 15:47:46.187577 14433 net.cpp:425] inception_5a/5x5_reduce <- pool4/3x3_s2_pool4/3x3_s2_0_split_2
I0403 15:47:46.187597 14433 net.cpp:399] inception_5a/5x5_reduce -> inception_5a/5x5_reduce
I0403 15:47:46.188822 14433 net.cpp:141] Setting up inception_5a/5x5_reduce
I0403 15:47:46.188850 14433 net.cpp:148] Top shape: 24 32 7 7 (37632)
I0403 15:47:46.188866 14433 net.cpp:156] Memory required for data: 1299200544
I0403 15:47:46.188885 14433 layer_factory.hpp:77] Creating layer inception_5a/relu_5x5_reduce
I0403 15:47:46.188905 14433 net.cpp:91] Creating Layer inception_5a/relu_5x5_reduce
I0403 15:47:46.188921 14433 net.cpp:425] inception_5a/relu_5x5_reduce <- inception_5a/5x5_reduce
I0403 15:47:46.188941 14433 net.cpp:386] inception_5a/relu_5x5_reduce -> inception_5a/5x5_reduce (in-place)
I0403 15:47:46.189260 14433 net.cpp:141] Setting up inception_5a/relu_5x5_reduce
I0403 15:47:46.189288 14433 net.cpp:148] Top shape: 24 32 7 7 (37632)
I0403 15:47:46.189303 14433 net.cpp:156] Memory required for data: 1299351072
I0403 15:47:46.189317 14433 layer_factory.hpp:77] Creating layer inception_5a/5x5
I0403 15:47:46.189340 14433 net.cpp:91] Creating Layer inception_5a/5x5
I0403 15:47:46.189358 14433 net.cpp:425] inception_5a/5x5 <- inception_5a/5x5_reduce
I0403 15:47:46.189381 14433 net.cpp:399] inception_5a/5x5 -> inception_5a/5x5
I0403 15:47:46.191182 14433 net.cpp:141] Setting up inception_5a/5x5
I0403 15:47:46.191228 14433 net.cpp:148] Top shape: 24 128 7 7 (150528)
I0403 15:47:46.191246 14433 net.cpp:156] Memory required for data: 1299953184
I0403 15:47:46.191265 14433 layer_factory.hpp:77] Creating layer inception_5a/relu_5x5
I0403 15:47:46.191283 14433 net.cpp:91] Creating Layer inception_5a/relu_5x5
I0403 15:47:46.191300 14433 net.cpp:425] inception_5a/relu_5x5 <- inception_5a/5x5
I0403 15:47:46.191323 14433 net.cpp:386] inception_5a/relu_5x5 -> inception_5a/5x5 (in-place)
I0403 15:47:46.191526 14433 net.cpp:141] Setting up inception_5a/relu_5x5
I0403 15:47:46.191552 14433 net.cpp:148] Top shape: 24 128 7 7 (150528)
I0403 15:47:46.191567 14433 net.cpp:156] Memory required for data: 1300555296
I0403 15:47:46.191582 14433 layer_factory.hpp:77] Creating layer inception_5a/pool
I0403 15:47:46.191601 14433 net.cpp:91] Creating Layer inception_5a/pool
I0403 15:47:46.191617 14433 net.cpp:425] inception_5a/pool <- pool4/3x3_s2_pool4/3x3_s2_0_split_3
I0403 15:47:46.191639 14433 net.cpp:399] inception_5a/pool -> inception_5a/pool
I0403 15:47:46.191714 14433 net.cpp:141] Setting up inception_5a/pool
I0403 15:47:46.191738 14433 net.cpp:148] Top shape: 24 832 7 7 (978432)
I0403 15:47:46.191753 14433 net.cpp:156] Memory required for data: 1304469024
I0403 15:47:46.191768 14433 layer_factory.hpp:77] Creating layer inception_5a/pool_proj
I0403 15:47:46.191792 14433 net.cpp:91] Creating Layer inception_5a/pool_proj
I0403 15:47:46.191812 14433 net.cpp:425] inception_5a/pool_proj <- inception_5a/pool
I0403 15:47:46.191833 14433 net.cpp:399] inception_5a/pool_proj -> inception_5a/pool_proj
I0403 15:47:46.194216 14433 net.cpp:141] Setting up inception_5a/pool_proj
I0403 15:47:46.194250 14433 net.cpp:148] Top shape: 24 128 7 7 (150528)
I0403 15:47:46.194268 14433 net.cpp:156] Memory required for data: 1305071136
I0403 15:47:46.194286 14433 layer_factory.hpp:77] Creating layer inception_5a/relu_pool_proj
I0403 15:47:46.194306 14433 net.cpp:91] Creating Layer inception_5a/relu_pool_proj
I0403 15:47:46.194324 14433 net.cpp:425] inception_5a/relu_pool_proj <- inception_5a/pool_proj
I0403 15:47:46.194342 14433 net.cpp:386] inception_5a/relu_pool_proj -> inception_5a/pool_proj (in-place)
I0403 15:47:46.194670 14433 net.cpp:141] Setting up inception_5a/relu_pool_proj
I0403 15:47:46.194703 14433 net.cpp:148] Top shape: 24 128 7 7 (150528)
I0403 15:47:46.194721 14433 net.cpp:156] Memory required for data: 1305673248
I0403 15:47:46.194772 14433 layer_factory.hpp:77] Creating layer inception_5a/output
I0403 15:47:46.194794 14433 net.cpp:91] Creating Layer inception_5a/output
I0403 15:47:46.194810 14433 net.cpp:425] inception_5a/output <- inception_5a/1x1
I0403 15:47:46.194828 14433 net.cpp:425] inception_5a/output <- inception_5a/3x3
I0403 15:47:46.194844 14433 net.cpp:425] inception_5a/output <- inception_5a/5x5
I0403 15:47:46.194861 14433 net.cpp:425] inception_5a/output <- inception_5a/pool_proj
I0403 15:47:46.194880 14433 net.cpp:399] inception_5a/output -> inception_5a/output
I0403 15:47:46.194934 14433 net.cpp:141] Setting up inception_5a/output
I0403 15:47:46.194959 14433 net.cpp:148] Top shape: 24 832 7 7 (978432)
I0403 15:47:46.194973 14433 net.cpp:156] Memory required for data: 1309586976
I0403 15:47:46.194988 14433 layer_factory.hpp:77] Creating layer inception_5a/output_inception_5a/output_0_split
I0403 15:47:46.195008 14433 net.cpp:91] Creating Layer inception_5a/output_inception_5a/output_0_split
I0403 15:47:46.195036 14433 net.cpp:425] inception_5a/output_inception_5a/output_0_split <- inception_5a/output
I0403 15:47:46.195055 14433 net.cpp:399] inception_5a/output_inception_5a/output_0_split -> inception_5a/output_inception_5a/output_0_split_0
I0403 15:47:46.195075 14433 net.cpp:399] inception_5a/output_inception_5a/output_0_split -> inception_5a/output_inception_5a/output_0_split_1
I0403 15:47:46.195097 14433 net.cpp:399] inception_5a/output_inception_5a/output_0_split -> inception_5a/output_inception_5a/output_0_split_2
I0403 15:47:46.195119 14433 net.cpp:399] inception_5a/output_inception_5a/output_0_split -> inception_5a/output_inception_5a/output_0_split_3
I0403 15:47:46.195236 14433 net.cpp:141] Setting up inception_5a/output_inception_5a/output_0_split
I0403 15:47:46.195261 14433 net.cpp:148] Top shape: 24 832 7 7 (978432)
I0403 15:47:46.195277 14433 net.cpp:148] Top shape: 24 832 7 7 (978432)
I0403 15:47:46.195293 14433 net.cpp:148] Top shape: 24 832 7 7 (978432)
I0403 15:47:46.195308 14433 net.cpp:148] Top shape: 24 832 7 7 (978432)
I0403 15:47:46.195322 14433 net.cpp:156] Memory required for data: 1325241888
I0403 15:47:46.195335 14433 layer_factory.hpp:77] Creating layer inception_5b/1x1
I0403 15:47:46.195358 14433 net.cpp:91] Creating Layer inception_5b/1x1
I0403 15:47:46.195376 14433 net.cpp:425] inception_5b/1x1 <- inception_5a/output_inception_5a/output_0_split_0
I0403 15:47:46.195399 14433 net.cpp:399] inception_5b/1x1 -> inception_5b/1x1
I0403 15:47:46.199194 14433 net.cpp:141] Setting up inception_5b/1x1
I0403 15:47:46.199224 14433 net.cpp:148] Top shape: 24 384 7 7 (451584)
I0403 15:47:46.199240 14433 net.cpp:156] Memory required for data: 1327048224
I0403 15:47:46.199259 14433 layer_factory.hpp:77] Creating layer inception_5b/relu_1x1
I0403 15:47:46.199278 14433 net.cpp:91] Creating Layer inception_5b/relu_1x1
I0403 15:47:46.199296 14433 net.cpp:425] inception_5b/relu_1x1 <- inception_5b/1x1
I0403 15:47:46.199316 14433 net.cpp:386] inception_5b/relu_1x1 -> inception_5b/1x1 (in-place)
I0403 15:47:46.199625 14433 net.cpp:141] Setting up inception_5b/relu_1x1
I0403 15:47:46.199651 14433 net.cpp:148] Top shape: 24 384 7 7 (451584)
I0403 15:47:46.199666 14433 net.cpp:156] Memory required for data: 1328854560
I0403 15:47:46.199681 14433 layer_factory.hpp:77] Creating layer inception_5b/3x3_reduce
I0403 15:47:46.199704 14433 net.cpp:91] Creating Layer inception_5b/3x3_reduce
I0403 15:47:46.199723 14433 net.cpp:425] inception_5b/3x3_reduce <- inception_5a/output_inception_5a/output_0_split_1
I0403 15:47:46.199743 14433 net.cpp:399] inception_5b/3x3_reduce -> inception_5b/3x3_reduce
I0403 15:47:46.202440 14433 net.cpp:141] Setting up inception_5b/3x3_reduce
I0403 15:47:46.202473 14433 net.cpp:148] Top shape: 24 192 7 7 (225792)
I0403 15:47:46.202491 14433 net.cpp:156] Memory required for data: 1329757728
I0403 15:47:46.202509 14433 layer_factory.hpp:77] Creating layer inception_5b/relu_3x3_reduce
I0403 15:47:46.202527 14433 net.cpp:91] Creating Layer inception_5b/relu_3x3_reduce
I0403 15:47:46.202544 14433 net.cpp:425] inception_5b/relu_3x3_reduce <- inception_5b/3x3_reduce
I0403 15:47:46.202560 14433 net.cpp:386] inception_5b/relu_3x3_reduce -> inception_5b/3x3_reduce (in-place)
I0403 15:47:46.202755 14433 net.cpp:141] Setting up inception_5b/relu_3x3_reduce
I0403 15:47:46.202782 14433 net.cpp:148] Top shape: 24 192 7 7 (225792)
I0403 15:47:46.202798 14433 net.cpp:156] Memory required for data: 1330660896
I0403 15:47:46.202813 14433 layer_factory.hpp:77] Creating layer inception_5b/3x3
I0403 15:47:46.202836 14433 net.cpp:91] Creating Layer inception_5b/3x3
I0403 15:47:46.202853 14433 net.cpp:425] inception_5b/3x3 <- inception_5b/3x3_reduce
I0403 15:47:46.202875 14433 net.cpp:399] inception_5b/3x3 -> inception_5b/3x3
I0403 15:47:46.209631 14433 net.cpp:141] Setting up inception_5b/3x3
I0403 15:47:46.209664 14433 net.cpp:148] Top shape: 24 384 7 7 (451584)
I0403 15:47:46.209681 14433 net.cpp:156] Memory required for data: 1332467232
I0403 15:47:46.209699 14433 layer_factory.hpp:77] Creating layer inception_5b/relu_3x3
I0403 15:47:46.209717 14433 net.cpp:91] Creating Layer inception_5b/relu_3x3
I0403 15:47:46.209735 14433 net.cpp:425] inception_5b/relu_3x3 <- inception_5b/3x3
I0403 15:47:46.209753 14433 net.cpp:386] inception_5b/relu_3x3 -> inception_5b/3x3 (in-place)
I0403 15:47:46.210054 14433 net.cpp:141] Setting up inception_5b/relu_3x3
I0403 15:47:46.210083 14433 net.cpp:148] Top shape: 24 384 7 7 (451584)
I0403 15:47:46.210103 14433 net.cpp:156] Memory required for data: 1334273568
I0403 15:47:46.210119 14433 layer_factory.hpp:77] Creating layer inception_5b/5x5_reduce
I0403 15:47:46.210157 14433 net.cpp:91] Creating Layer inception_5b/5x5_reduce
I0403 15:47:46.210177 14433 net.cpp:425] inception_5b/5x5_reduce <- inception_5a/output_inception_5a/output_0_split_2
I0403 15:47:46.210199 14433 net.cpp:399] inception_5b/5x5_reduce -> inception_5b/5x5_reduce
I0403 15:47:46.211499 14433 net.cpp:141] Setting up inception_5b/5x5_reduce
I0403 15:47:46.211532 14433 net.cpp:148] Top shape: 24 48 7 7 (56448)
I0403 15:47:46.211550 14433 net.cpp:156] Memory required for data: 1334499360
I0403 15:47:46.211570 14433 layer_factory.hpp:77] Creating layer inception_5b/relu_5x5_reduce
I0403 15:47:46.211587 14433 net.cpp:91] Creating Layer inception_5b/relu_5x5_reduce
I0403 15:47:46.211606 14433 net.cpp:425] inception_5b/relu_5x5_reduce <- inception_5b/5x5_reduce
I0403 15:47:46.211624 14433 net.cpp:386] inception_5b/relu_5x5_reduce -> inception_5b/5x5_reduce (in-place)
I0403 15:47:46.212004 14433 net.cpp:141] Setting up inception_5b/relu_5x5_reduce
I0403 15:47:46.212031 14433 net.cpp:148] Top shape: 24 48 7 7 (56448)
I0403 15:47:46.212045 14433 net.cpp:156] Memory required for data: 1334725152
I0403 15:47:46.212060 14433 layer_factory.hpp:77] Creating layer inception_5b/5x5
I0403 15:47:46.212080 14433 net.cpp:91] Creating Layer inception_5b/5x5
I0403 15:47:46.212102 14433 net.cpp:425] inception_5b/5x5 <- inception_5b/5x5_reduce
I0403 15:47:46.212123 14433 net.cpp:399] inception_5b/5x5 -> inception_5b/5x5
I0403 15:47:46.214217 14433 net.cpp:141] Setting up inception_5b/5x5
I0403 15:47:46.214246 14433 net.cpp:148] Top shape: 24 128 7 7 (150528)
I0403 15:47:46.214262 14433 net.cpp:156] Memory required for data: 1335327264
I0403 15:47:46.214280 14433 layer_factory.hpp:77] Creating layer inception_5b/relu_5x5
I0403 15:47:46.214298 14433 net.cpp:91] Creating Layer inception_5b/relu_5x5
I0403 15:47:46.214315 14433 net.cpp:425] inception_5b/relu_5x5 <- inception_5b/5x5
I0403 15:47:46.214334 14433 net.cpp:386] inception_5b/relu_5x5 -> inception_5b/5x5 (in-place)
I0403 15:47:46.214536 14433 net.cpp:141] Setting up inception_5b/relu_5x5
I0403 15:47:46.214561 14433 net.cpp:148] Top shape: 24 128 7 7 (150528)
I0403 15:47:46.214577 14433 net.cpp:156] Memory required for data: 1335929376
I0403 15:47:46.214592 14433 layer_factory.hpp:77] Creating layer inception_5b/pool
I0403 15:47:46.214612 14433 net.cpp:91] Creating Layer inception_5b/pool
I0403 15:47:46.214630 14433 net.cpp:425] inception_5b/pool <- inception_5a/output_inception_5a/output_0_split_3
I0403 15:47:46.214648 14433 net.cpp:399] inception_5b/pool -> inception_5b/pool
I0403 15:47:46.214723 14433 net.cpp:141] Setting up inception_5b/pool
I0403 15:47:46.214748 14433 net.cpp:148] Top shape: 24 832 7 7 (978432)
I0403 15:47:46.214762 14433 net.cpp:156] Memory required for data: 1339843104
I0403 15:47:46.214776 14433 layer_factory.hpp:77] Creating layer inception_5b/pool_proj
I0403 15:47:46.214799 14433 net.cpp:91] Creating Layer inception_5b/pool_proj
I0403 15:47:46.214818 14433 net.cpp:425] inception_5b/pool_proj <- inception_5b/pool
I0403 15:47:46.214839 14433 net.cpp:399] inception_5b/pool_proj -> inception_5b/pool_proj
I0403 15:47:46.217188 14433 net.cpp:141] Setting up inception_5b/pool_proj
I0403 15:47:46.217219 14433 net.cpp:148] Top shape: 24 128 7 7 (150528)
I0403 15:47:46.217237 14433 net.cpp:156] Memory required for data: 1340445216
I0403 15:47:46.217255 14433 layer_factory.hpp:77] Creating layer inception_5b/relu_pool_proj
I0403 15:47:46.217273 14433 net.cpp:91] Creating Layer inception_5b/relu_pool_proj
I0403 15:47:46.217289 14433 net.cpp:425] inception_5b/relu_pool_proj <- inception_5b/pool_proj
I0403 15:47:46.217310 14433 net.cpp:386] inception_5b/relu_pool_proj -> inception_5b/pool_proj (in-place)
I0403 15:47:46.217617 14433 net.cpp:141] Setting up inception_5b/relu_pool_proj
I0403 15:47:46.217648 14433 net.cpp:148] Top shape: 24 128 7 7 (150528)
I0403 15:47:46.217665 14433 net.cpp:156] Memory required for data: 1341047328
I0403 15:47:46.217680 14433 layer_factory.hpp:77] Creating layer inception_5b/output
I0403 15:47:46.217697 14433 net.cpp:91] Creating Layer inception_5b/output
I0403 15:47:46.217728 14433 net.cpp:425] inception_5b/output <- inception_5b/1x1
I0403 15:47:46.217747 14433 net.cpp:425] inception_5b/output <- inception_5b/3x3
I0403 15:47:46.217763 14433 net.cpp:425] inception_5b/output <- inception_5b/5x5
I0403 15:47:46.217779 14433 net.cpp:425] inception_5b/output <- inception_5b/pool_proj
I0403 15:47:46.217797 14433 net.cpp:399] inception_5b/output -> inception_5b/output
I0403 15:47:46.217852 14433 net.cpp:141] Setting up inception_5b/output
I0403 15:47:46.217876 14433 net.cpp:148] Top shape: 24 1024 7 7 (1204224)
I0403 15:47:46.217891 14433 net.cpp:156] Memory required for data: 1345864224
I0403 15:47:46.217906 14433 layer_factory.hpp:77] Creating layer pool5/7x7_s1
I0403 15:47:46.217927 14433 net.cpp:91] Creating Layer pool5/7x7_s1
I0403 15:47:46.217947 14433 net.cpp:425] pool5/7x7_s1 <- inception_5b/output
I0403 15:47:46.217963 14433 net.cpp:399] pool5/7x7_s1 -> pool5/7x7_s1
I0403 15:47:46.218192 14433 net.cpp:141] Setting up pool5/7x7_s1
I0403 15:47:46.218221 14433 net.cpp:148] Top shape: 24 1024 1 1 (24576)
I0403 15:47:46.218238 14433 net.cpp:156] Memory required for data: 1345962528
I0403 15:47:46.218255 14433 layer_factory.hpp:77] Creating layer pool5/drop_7x7_s1
I0403 15:47:46.218271 14433 net.cpp:91] Creating Layer pool5/drop_7x7_s1
I0403 15:47:46.218287 14433 net.cpp:425] pool5/drop_7x7_s1 <- pool5/7x7_s1
I0403 15:47:46.218307 14433 net.cpp:386] pool5/drop_7x7_s1 -> pool5/7x7_s1 (in-place)
I0403 15:47:46.218359 14433 net.cpp:141] Setting up pool5/drop_7x7_s1
I0403 15:47:46.218384 14433 net.cpp:148] Top shape: 24 1024 1 1 (24576)
I0403 15:47:46.218399 14433 net.cpp:156] Memory required for data: 1346060832
I0403 15:47:46.218412 14433 layer_factory.hpp:77] Creating layer loss3/classifier_plantvillage
I0403 15:47:46.218435 14433 net.cpp:91] Creating Layer loss3/classifier_plantvillage
I0403 15:47:46.218451 14433 net.cpp:425] loss3/classifier_plantvillage <- pool5/7x7_s1
I0403 15:47:46.218473 14433 net.cpp:399] loss3/classifier_plantvillage -> loss3/classifier_plantvillage
I0403 15:47:46.218906 14433 net.cpp:141] Setting up loss3/classifier_plantvillage
I0403 15:47:46.218930 14433 net.cpp:148] Top shape: 24 38 (912)
I0403 15:47:46.218945 14433 net.cpp:156] Memory required for data: 1346064480
I0403 15:47:46.218962 14433 layer_factory.hpp:77] Creating layer loss3/classifier_plantvillage_loss3/classifier_plantvillage_0_split
I0403 15:47:46.218983 14433 net.cpp:91] Creating Layer loss3/classifier_plantvillage_loss3/classifier_plantvillage_0_split
I0403 15:47:46.219000 14433 net.cpp:425] loss3/classifier_plantvillage_loss3/classifier_plantvillage_0_split <- loss3/classifier_plantvillage
I0403 15:47:46.219018 14433 net.cpp:399] loss3/classifier_plantvillage_loss3/classifier_plantvillage_0_split -> loss3/classifier_plantvillage_loss3/classifier_plantvillage_0_split_0
I0403 15:47:46.219038 14433 net.cpp:399] loss3/classifier_plantvillage_loss3/classifier_plantvillage_0_split -> loss3/classifier_plantvillage_loss3/classifier_plantvillage_0_split_1
I0403 15:47:46.219058 14433 net.cpp:399] loss3/classifier_plantvillage_loss3/classifier_plantvillage_0_split -> loss3/classifier_plantvillage_loss3/classifier_plantvillage_0_split_2
I0403 15:47:46.219079 14433 net.cpp:399] loss3/classifier_plantvillage_loss3/classifier_plantvillage_0_split -> loss3/classifier_plantvillage_loss3/classifier_plantvillage_0_split_3
I0403 15:47:46.219184 14433 net.cpp:141] Setting up loss3/classifier_plantvillage_loss3/classifier_plantvillage_0_split
I0403 15:47:46.219209 14433 net.cpp:148] Top shape: 24 38 (912)
I0403 15:47:46.219225 14433 net.cpp:148] Top shape: 24 38 (912)
I0403 15:47:46.219240 14433 net.cpp:148] Top shape: 24 38 (912)
I0403 15:47:46.219255 14433 net.cpp:148] Top shape: 24 38 (912)
I0403 15:47:46.219269 14433 net.cpp:156] Memory required for data: 1346079072
I0403 15:47:46.219282 14433 layer_factory.hpp:77] Creating layer loss1/loss
I0403 15:47:46.219305 14433 net.cpp:91] Creating Layer loss1/loss
I0403 15:47:46.219322 14433 net.cpp:425] loss1/loss <- loss1/classifier_plantvillage_loss1/classifier_plantvillage_0_split_0
I0403 15:47:46.219354 14433 net.cpp:425] loss1/loss <- label_data_1_split_0
…
