…
I0403 15:43:31.174623 14260 net.cpp:313] The NetState phase (1) differed from the phase (0) specified by a rule in layer data
I0403 15:43:31.175755 14260 net.cpp:49] Initializing net from parameters: 
state {
  phase: TEST
}
layer {
  name: "data"
  type: "Data"
  top: "data"
  top: "label"
  include {
    phase: TEST
  }
  transform_param {
    mirror: false
    crop_size: 224
    mean_file: "/home/mohanty/data/final_dataset/lmdb/color-80-20/mean.binaryproto"
  }
  data_param {
    source: "/home/mohanty/data/final_dataset/lmdb/color-80-20/test_db"
    batch_size: 24
    backend: LMDB
  }
}
layer {
  name: "conv1/7x7_s2"
  type: "Convolution"
  bottom: "data"
  top: "conv1/7x7_s2"
  param {
    lr_mult: 1
    decay_mult: 1
  }
  param {
    lr_mult: 2
    decay_mult: 0
  }
  convolution_param {
    num_output: 64
    pad: 3
    kernel_size: 7
    stride: 2
    weight_filler {
      type: "xavier"
      std: 0.1
    }
    bias_filler {
      type: "constant"
      value: 0.2
    }
  }
}
layer {
  name: "conv1/relu_7x7"
  type: "ReLU"
  bottom: "conv1/7x7_s2"
  top: "conv1/7x7_s2"
}
layer {
  name: "pool1/3x3_s2"
  type: "Pooling"
  bottom: "conv1/7x7_s2"
  top: "pool1/3x3_s2"
  pooling_param {
    pool: MAX
    kernel_size: 3
    stride: 2
  }
}
layer {
  name: "pool1/norm1"
  type: "LRN"
  bottom: "pool1/3x3_s2"
  top: "pool1/norm1"
  lrn_param {
    local_size: 5
    alpha: 0.0001
    beta: 0.75
  }
}
layer {
  name: "conv2/3x3_reduce"
  type: "Convolution"
  bottom: "pool1/norm1"
  top: "conv2/3x3_reduce"
  param {
    lr_mult: 1
    decay_mult: 1
  }
  param {
    lr_mult: 2
    decay_mult: 0
  }
  convolution_param {
    num_output: 64
    kernel_size: 1
    weight_filler {
      type: "xavier"
      std: 0.1
    }
    bias_filler {
      type: "constant"
      value: 0.2
    }
  }
}
layer {
  name: "conv2/relu_3x3_reduce"
  type: "ReLU"
  bottom: "conv2/3x3_reduce"
  top: "conv2/3x3_reduce"
}
layer {
  name: "conv2/3x3"
  type: "Convolution"
  bottom: "conv2/3x3_reduce"
  top: "conv2/3x3"
  param {
    lr_mult: 1
    decay_mult: 1
  }
  param {
    lr_mult: 2
    decay_mult: 0
  }
  convolution_param {
    num_output: 192
    pad: 1
    kernel_size: 3
    weight_filler {
      type: "xavier"
      std: 0.03
    }
    bias_filler {
      type: "constant"
      value: 0.2
    }
  }
}
layer {
  name: "conv2/relu_3x3"
  type: "ReLU"
  bottom: "conv2/3x3"
  top: "conv2/3x3"
}
layer {
  name: "conv2/norm2"
  type: "LRN"
  bottom: "conv2/3x3"
  top: "conv2/norm2"
  lrn_param {
    local_size: 5
    alpha: 0.0001
    beta: 0.75
  }
}
layer {
  name: "pool2/3x3_s2"
  type: "Pooling"
  bottom: "conv2/norm2"
  top: "pool2/3x3_s2"
  pooling_param {
    pool: MAX
    kernel_size: 3
    stride: 2
  }
}
layer {
  name: "inception_3a/1x1"
  type: "Convolution"
  bottom: "pool2/3x3_s2"
  top: "inception_3a/1x1"
  param {
    lr_mult: 1
    decay_mult: 1
  }
  param {
    lr_mult: 2
    decay_mult: 0
  }
  convolution_param {
    num_output: 64
    kernel_size: 1
    weight_filler {
      type: "xavier"
      std: 0.03
    }
    bias_filler {
      type: "constant"
      value: 0.2
    }
  }
}
layer {
  name: "inception_3a/relu_1x1"
  type: "ReLU"
  bottom: "inception_3a/1x1"
  top: "inception_3a/1x1"
}
layer {
  name: "inception_3a/3x3_reduce"
  type: "Convolution"
  bottom: "pool2/3x3_s2"
  top: "inception_3a/3x3_reduce"
  param {
    lr_mult: 1
    decay_mult: 1
  }
  param {
    lr_mult: 2
    decay_mult: 0
  }
  convolution_param {
    num_output: 96
    kernel_size: 1
    weight_filler {
      type: "xavier"
      std: 0.09
    }
    bias_filler {
      type: "constant"
      value: 0.2
    }
  }
}
layer {
  name: "inception_3a/relu_3x3_reduce"
  type: "ReLU"
  bottom: "inception_3a/3x3_reduce"
  top: "inception_3a/3x3_reduce"
}
layer {
  name: "inception_3a/3x3"
  type: "Convolution"
  bottom: "inception_3a/3x3_reduce"
  top: "inception_3a/3x3"
  param {
    lr_mult: 1
    decay_mult: 1
  }
  param {
    lr_mult: 2
    decay_mult: 0
  }
  convolution_param {
    num_output: 128
    pad: 1
    kernel_size: 3
    weight_filler {
      type: "xavier"
      std: 0.03
    }
    bias_filler {
      type: "constant"
      value: 0.2
    }
  }
}
layer {
  name: "inception_3a/relu_3x3"
  type: "ReLU"
  bottom: "inception_3a/3x3"
  top: "inception_3a/3x3"
}
layer {
  name: "inception_3a/5x5_reduce"
  type: "Convolution"
  bottom: "pool2/3x3_s2"
  top: "inception_3a/5x5_reduce"
  param {
    lr_mult: 1
    decay_mult: 1
  }
  param {
    lr_mult: 2
    decay_mult: 0
  }
  convolution_param {
    num_output: 16
    kernel_size: 1
    weight_filler {
      type: "xavier"
      std: 0.2
    }
    bias_filler {
      type: "constant"
      value: 0.2
    }
  }
}
layer {
  name: "inception_3a/relu_5x5_reduce"
  type: "ReLU"
  bottom: "inception_3a/5x5_reduce"
  top: "inception_3a/5x5_reduce"
}
layer {
  name: "inception_3a/5x5"
  type: "Convolution"
  bottom: "inception_3a/5x5_reduce"
  top: "inception_3a/5x5"
  param {
    lr_mult: 1
    decay_mult: 1
  }
  param {
    lr_mult: 2
    decay_mult: 0
  }
  convolution_param {
    num_output: 32
    pad: 2
    kernel_size: 5
    weight_filler {
      type: "xavier"
      std: 0.03
    }
    bias_filler {
      type: "constant"
      value: 0.2
    }
  }
}
layer {
  name: "inception_3a/relu_5x5"
  type: "ReLU"
  bottom: "inception_3a/5x5"
  top: "inception_3a/5x5"
}
layer {
  name: "inception_3a/pool"
  type: "Pooling"
  bottom: "pool2/3x3_s2"
  top: "inception_3a/pool"
  pooling_param {
    pool: MAX
    kernel_size: 3
    stride: 1
    pad: 1
  }
}
layer {
  name: "inception_3a/pool_proj"
  type: "Convolution"
  bottom: "inception_3a/pool"
  top: "inception_3a/pool_proj"
  param {
    lr_mult: 1
    decay_mult: 1
  }
  param {
    lr_mult: 2
    decay_mult: 0
  }
  convolution_param {
    num_output: 32
    kernel_size: 1
    weight_filler {
      type: "xavier"
      std: 0.1
    }
    bias_filler {
      type: "constant"
      value: 0.2
    }
  }
}
layer {
  name: "inception_3a/relu_pool_proj"
  type: "ReLU"
  bottom: "inception_3a/pool_proj"
  top: "inception_3a/pool_proj"
}
layer {
  name: "inception_3a/output"
  type: "Concat"
  bottom: "inception_3a/1x1"
  bottom: "inception_3a/3x3"
  bottom: "inception_3a/5x5"
  bottom: "inception_3a/pool_proj"
  top: "inception_3a/output"
}
layer {
  name: "inception_3b/1x1"
  type: "Convolution"
  bottom: "inception_3a/output"
  top: "inception_3b/1x1"
  param {
    lr_mult: 1
    decay_mult: 1
  }
  param {
    lr_mult: 2
    decay_mult: 0
  }
  convolution_param {
    num_output: 128
    kernel_size: 1
    weight_filler {
      type: "xavier"
      std: 0.03
    }
    bias_filler {
      type: "constant"
      value: 0.2
    }
  }
}
layer {
  name: "inception_3b/relu_1x1"
  type: "ReLU"
  bottom: "inception_3b/1x1"
  top: "inception_3b/1x1"
}
layer {
  name: "inception_3b/3x3_reduce"
  type: "Convolution"
  bottom: "inception_3a/output"
  top: "inception_3b/3x3_reduce"
  param {
    lr_mult: 1
    decay_mult: 1
  }
  param {
    lr_mult: 2
    decay_mult: 0
  }
  convolution_param {
    num_output: 128
    kernel_size: 1
    weight_filler {
      type: "xavier"
      std: 0.09
    }
    bias_filler {
      type: "constant"
      value: 0.2
    }
  }
}
layer {
  name: "inception_3b/relu_3x3_reduce"
  type: "ReLU"
  bottom: "inception_3b/3x3_reduce"
  top: "inception_3b/3x3_reduce"
}
layer {
  name: "inception_3b/3x3"
  type: "Convolution"
  bottom: "inception_3b/3x3_reduce"
  top: "inception_3b/3x3"
  param {
    lr_mult: 1
    decay_mult: 1
  }
  param {
    lr_mult: 2
    decay_mult: 0
  }
  convolution_param {
    num_output: 192
    pad: 1
    kernel_size: 3
    weight_filler {
      type: "xavier"
      std: 0.03
    }
    bias_filler {
      type: "constant"
      value: 0.2
    }
  }
}
layer {
  name: "inception_3b/relu_3x3"
  type: "ReLU"
  bottom: "inception_3b/3x3"
  top: "inception_3b/3x3"
}
layer {
  name: "inception_3b/5x5_reduce"
  type: "Convolution"
  bottom: "inception_3a/output"
  top: "inception_3b/5x5_reduce"
  param {
    lr_mult: 1
    decay_mult: 1
  }
  param {
    lr_mult: 2
    decay_mult: 0
  }
  convolution_param {
    num_output: 32
    kernel_size: 1
    weight_filler {
      type: "xavier"
      std: 0.2
    }
    bias_filler {
      type: "constant"
      value: 0.2
    }
  }
}
layer {
  name: "inception_3b/relu_5x5_reduce"
  type: "ReLU"
  bottom: "inception_3b/5x5_reduce"
  top: "inception_3b/5x5_reduce"
}
layer {
  name: "inception_3b/5x5"
  type: "Convolution"
  bottom: "inception_3b/5x5_reduce"
  top: "inception_3b/5x5"
  param {
    lr_mult: 1
    decay_mult: 1
  }
  param {
    lr_mult: 2
    decay_mult: 0
  }
  convolution_param {
    num_output: 96
    pad: 2
    kernel_size: 5
    weight_filler {
      type: "xavier"
      std: 0.03
    }
    bias_filler {
      type: "constant"
      value: 0.2
    }
  }
}
layer {
  name: "inception_3b/relu_5x5"
  type: "ReLU"
  bottom: "inception_3b/5x5"
  top: "inception_3b/5x5"
}
layer {
  name: "inception_3b/pool"
  type: "Pooling"
  bottom: "inception_3a/output"
  top: "inception_3b/pool"
  pooling_param {
    pool: MAX
    kernel_size: 3
    stride: 1
    pad: 1
  }
}
layer {
  name: "inception_3b/pool_proj"
  type: "Convolution"
  bottom: "inception_3b/pool"
  top: "inception_3b/pool_proj"
  param {
    lr_mult: 1
    decay_mult: 1
  }
  param {
    lr_mult: 2
    decay_mult: 0
  }
  convolution_param {
    num_output: 64
    kernel_size: 1
    weight_filler {
      type: "xavier"
      std: 0.1
    }
    bias_filler {
      type: "constant"
      value: 0.2
    }
  }
}
layer {
  name: "inception_3b/relu_pool_proj"
  type: "ReLU"
  bottom: "inception_3b/pool_proj"
  top: "inception_3b/pool_proj"
}
layer {
  name: "inception_3b/output"
  type: "Concat"
  bottom: "inception_3b/1x1"
  bottom: "inception_3b/3x3"
  bottom: "inception_3b/5x5"
  bottom: "inception_3b/pool_proj"
  top: "inception_3b/output"
}
layer {
  name: "pool3/3x3_s2"
  type: "Pooling"
  bottom: "inception_3b/output"
  top: "pool3/3x3_s2"
  pooling_param {
    pool: MAX
    kernel_size: 3
    stride: 2
  }
}
layer {
  name: "inception_4a/1x1"
  type: "Convolution"
  bottom: "pool3/3x3_s2"
  top: "inception_4a/1x1"
  param {
    lr_mult: 1
    decay_mult: 1
  }
  param {
    lr_mult: 2
    decay_mult: 0
  }
  convolution_param {
    num_output: 192
    kernel_size: 1
    weight_filler {
      type: "xavier"
      std: 0.03
    }
    bias_filler {
      type: "constant"
      value: 0.2
    }
  }
}
layer {
  name: "inception_4a/relu_1x1"
  type: "ReLU"
  bottom: "inception_4a/1x1"
  top: "inception_4a/1x1"
}
layer {
  name: "inception_4a/3x3_reduce"
  type: "Convolution"
  bottom: "pool3/3x3_s2"
  top: "inception_4a/3x3_reduce"
  param {
    lr_mult: 1
    decay_mult: 1
  }
  param {
    lr_mult: 2
    decay_mult: 0
  }
  convolution_param {
    num_output: 96
    kernel_size: 1
    weight_filler {
      type: "xavier"
      std: 0.09
    }
    bias_filler {
      type: "constant"
      value: 0.2
    }
  }
}
layer {
  name: "inception_4a/relu_3x3_reduce"
  type: "ReLU"
  bottom: "inception_4a/3x3_reduce"
  top: "inception_4a/3x3_reduce"
}
layer {
  name: "inception_4a/3x3"
  type: "Convolution"
  bottom: "inception_4a/3x3_reduce"
  top: "inception_4a/3x3"
  param {
    lr_mult: 1
    decay_mult: 1
  }
  param {
    lr_mult: 2
    decay_mult: 0
  }
  convolution_param {
    num_output: 208
    pad: 1
    kernel_size: 3
    weight_filler {
      type: "xavier"
      std: 0.03
    }
    bias_filler {
      type: "constant"
      value: 0.2
    }
  }
}
layer {
  name: "inception_4a/relu_3x3"
  type: "ReLU"
  bottom: "inception_4a/3x3"
  top: "inception_4a/3x3"
}
layer {
  name: "inception_4a/5x5_reduce"
  type: "Convolution"
  bottom: "pool3/3x3_s2"
  top: "inception_4a/5x5_reduce"
  param {
    lr_mult: 1
    decay_mult: 1
  }
  param {
    lr_mult: 2
    decay_mult: 0
  }
  convolution_param {
    num_output: 16
    kernel_size: 1
    weight_filler {
      type: "xavier"
      std: 0.2
    }
    bias_filler {
      type: "constant"
      value: 0.2
    }
  }
}
layer {
  name: "inception_4a/relu_5x5_reduce"
  type: "ReLU"
  bottom: "inception_4a/5x5_reduce"
  top: "inception_4a/5x5_reduce"
}
layer {
  name: "inception_4a/5x5"
  type: "Convolution"
  bottom: "inception_4a/5x5_reduce"
  top: "inception_4a/5x5"
  param {
    lr_mult: 1
    decay_mult: 1
  }
  param {
    lr_mult: 2
    decay_mult: 0
  }
  convolution_param {
    num_output: 48
    pad: 2
    kernel_size: 5
    weight_filler {
      type: "xavier"
      std: 0.03
    }
    bias_filler {
      type: "constant"
      value: 0.2
    }
  }
}
layer {
  name: "inception_4a/relu_5x5"
  type: "ReLU"
  bottom: "inception_4a/5x5"
  top: "inception_4a/5x5"
}
layer {
  name: "inception_4a/pool"
  type: "Pooling"
  bottom: "pool3/3x3_s2"
  top: "inception_4a/pool"
  pooling_param {
    pool: MAX
    kernel_size: 3
    stride: 1
    pad: 1
  }
}
layer {
  name: "inception_4a/pool_proj"
  type: "Convolution"
  bottom: "inception_4a/pool"
  top: "inception_4a/pool_proj"
  param {
    lr_mult: 1
    decay_mult: 1
  }
  param {
    lr_mult: 2
    decay_mult: 0
  }
  convolution_param {
    num_output: 64
    kernel_size: 1
    weight_filler {
      type: "xavier"
      std: 0.1
    }
    bias_filler {
      type: "constant"
      value: 0.2
    }
  }
}
layer {
  name: "inception_4a/relu_pool_proj"
  type: "ReLU"
  bottom: "inception_4a/pool_proj"
  top: "inception_4a/pool_proj"
}
layer {
  name: "inception_4a/output"
  type: "Concat"
  bottom: "inception_4a/1x1"
  bottom: "inception_4a/3x3"
  bottom: "inception_4a/5x5"
  bottom: "inception_4a/pool_proj"
  top: "inception_4a/output"
}
layer {
  name: "loss1/ave_pool"
  type: "Pooling"
  bottom: "inception_4a/output"
  top: "loss1/ave_pool"
  pooling_param {
    pool: AVE
    kernel_size: 5
    stride: 3
  }
}
layer {
  name: "loss1/conv"
  type: "Convolution"
  bottom: "loss1/ave_pool"
  top: "loss1/conv"
  param {
    lr_mult: 1
    decay_mult: 1
  }
  param {
    lr_mult: 2
    decay_mult: 0
  }
  convolution_param {
    num_output: 128
    kernel_size: 1
    weight_filler {
      type: "xavier"
      std: 0.08
    }
    bias_filler {
      type: "constant"
      value: 0.2
    }
  }
}
layer {
  name: "loss1/relu_conv"
  type: "ReLU"
  bottom: "loss1/conv"
  top: "loss1/conv"
}
layer {
  name: "loss1/fc"
  type: "InnerProduct"
  bottom: "loss1/conv"
  top: "loss1/fc"
  param {
    lr_mult: 1
    decay_mult: 1
  }
  param {
    lr_mult: 2
    decay_mult: 0
  }
  inner_product_param {
    num_output: 1024
    weight_filler {
      type: "xavier"
      std: 0.02
    }
    bias_filler {
      type: "constant"
      value: 0.2
    }
  }
}
layer {
  name: "loss1/relu_fc"
  type: "ReLU"
  bottom: "loss1/fc"
  top: "loss1/fc"
}
layer {
  name: "loss1/drop_fc"
  type: "Dropout"
  bottom: "loss1/fc"
  top: "loss1/fc"
  dropout_param {
    dropout_ratio: 0.7
  }
}
layer {
  name: "loss1/classifier_plantvillage"
  type: "InnerProduct"
  bottom: "loss1/fc"
  top: "loss1/classifier_plantvillage"
  param {
    lr_mult: 1
    decay_mult: 1
  }
  param {
    lr_mult: 2
    decay_mult: 0
  }
  inner_product_param {
    num_output: 38
    weight_filler {
      type: "xavier"
      std: 0.0009765625
    }
    bias_filler {
      type: "constant"
      value: 0
    }
  }
}
layer {
  name: "inception_4b/1x1"
  type: "Convolution"
  bottom: "inception_4a/output"
  top: "inception_4b/1x1"
  param {
    lr_mult: 1
    decay_mult: 1
  }
  param {
    lr_mult: 2
    decay_mult: 0
  }
  convolution_param {
    num_output: 160
    kernel_size: 1
    weight_filler {
      type: "xavier"
      std: 0.03
    }
    bias_filler {
      type: "constant"
      value: 0.2
    }
  }
}
layer {
  name: "inception_4b/relu_1x1"
  type: "ReLU"
  bottom: "inception_4b/1x1"
  top: "inception_4b/1x1"
}
layer {
  name: "inception_4b/3x3_reduce"
  type: "Convolution"
  bottom: "inception_4a/output"
  top: "inception_4b/3x3_reduce"
  param {
    lr_mult: 1
    decay_mult: 1
  }
  param {
    lr_mult: 2
    decay_mult: 0
  }
  convolution_param {
    num_output: 112
    kernel_size: 1
    weight_filler {
      type: "xavier"
      std: 0.09
    }
    bias_filler {
      type: "constant"
      value: 0.2
    }
  }
}
layer {
  name: "inception_4b/relu_3x3_reduce"
  type: "ReLU"
  bottom: "inception_4b/3x3_reduce"
  top: "inception_4b/3x3_reduce"
}
layer {
  name: "inception_4b/3x3"
  type: "Convolution"
  bottom: "inception_4b/3x3_reduce"
  top: "inception_4b/3x3"
  param {
    lr_mult: 1
    decay_mult: 1
  }
  param {
    lr_mult: 2
    decay_mult: 0
  }
  convolution_param {
    num_output: 224
    pad: 1
    kernel_size: 3
    weight_filler {
      type: "xavier"
      std: 0.03
    }
    bias_filler {
      type: "constant"
      value: 0.2
    }
  }
}
layer {
  name: "inception_4b/relu_3x3"
  type: "ReLU"
  bottom: "inception_4b/3x3"
  top: "inception_4b/3x3"
}
layer {
  name: "inception_4b/5x5_reduce"
  type: "Convolution"
  bottom: "inception_4a/output"
  top: "inception_4b/5x5_reduce"
  param {
    lr_mult: 1
    decay_mult: 1
  }
  param {
    lr_mult: 2
    decay_mult: 0
  }
  convolution_param {
    num_output: 24
    kernel_size: 1
    weight_filler {
      type: "xavier"
      std: 0.2
    }
    bias_filler {
      type: "constant"
      value: 0.2
    }
  }
}
layer {
  name: "inception_4b/relu_5x5_reduce"
  type: "ReLU"
  bottom: "inception_4b/5x5_reduce"
  top: "inception_4b/5x5_reduce"
}
layer {
  name: "inception_4b/5x5"
  type: "Convolution"
  bottom: "inception_4b/5x5_reduce"
  top: "inception_4b/5x5"
  param {
    lr_mult: 1
    decay_mult: 1
  }
  param {
    lr_mult: 2
    decay_mult: 0
  }
  convolution_param {
    num_output: 64
    pad: 2
    kernel_size: 5
    weight_filler {
      type: "xavier"
      std: 0.03
    }
    bias_filler {
      type: "constant"
      value: 0.2
    }
  }
}
layer {
  name: "inception_4b/relu_5x5"
  type: "ReLU"
  bottom: "inception_4b/5x5"
  top: "inception_4b/5x5"
}
layer {
  name: "inception_4b/pool"
  type: "Pooling"
  bottom: "inception_4a/output"
  top: "inception_4b/pool"
  pooling_param {
    pool: MAX
    kernel_size: 3
    stride: 1
    pad: 1
  }
}
layer {
  name: "inception_4b/pool_proj"
  type: "Convolution"
  bottom: "inception_4b/pool"
  top: "inception_4b/pool_proj"
  param {
    lr_mult: 1
    decay_mult: 1
  }
  param {
    lr_mult: 2
    decay_mult: 0
  }
  convolution_param {
    num_output: 64
    kernel_size: 1
    weight_filler {
      type: "xavier"
      std: 0.1
    }
    bias_filler {
      type: "constant"
      value: 0.2
    }
  }
}
layer {
  name: "inception_4b/relu_pool_proj"
  type: "ReLU"
  bottom: "inception_4b/pool_proj"
  top: "inception_4b/pool_proj"
}
layer {
  name: "inception_4b/output"
  type: "Concat"
  bottom: "inception_4b/1x1"
  bottom: "inception_4b/3x3"
  bottom: "inception_4b/5x5"
  bottom: "inception_4b/pool_proj"
  top: "inception_4b/output"
}
layer {
  name: "inception_4c/1x1"
  type: "Convolution"
  bottom: "inception_4b/output"
  top: "inception_4c/1x1"
  param {
    lr_mult: 1
    decay_mult: 1
  }
  param {
    lr_mult: 2
    decay_mult: 0
  }
  convolution_param {
    num_output: 128
    kernel_size: 1
    weight_filler {
      type: "xavier"
      std: 0.03
    }
    bias_filler {
      type: "constant"
      value: 0.2
    }
  }
}
layer {
  name: "inception_4c/relu_1x1"
  type: "ReLU"
  bottom: "inception_4c/1x1"
  top: "inception_4c/1x1"
}
layer {
  name: "inception_4c/3x3_reduce"
  type: "Convolution"
  bottom: "inception_4b/output"
  top: "inception_4c/3x3_reduce"
  param {
    lr_mult: 1
    decay_mult: 1
  }
  param {
    lr_mult: 2
    decay_mult: 0
  }
  convolution_param {
    num_output: 128
    kernel_size: 1
    weight_filler {
      type: "xavier"
      std: 0.09
    }
    bias_filler {
      type: "constant"
      value: 0.2
    }
  }
}
layer {
  name: "inception_4c/relu_3x3_reduce"
  type: "ReLU"
  bottom: "inception_4c/3x3_reduce"
  top: "inception_4c/3x3_reduce"
}
layer {
  name: "inception_4c/3x3"
  type: "Convolution"
  bottom: "inception_4c/3x3_reduce"
  top: "inception_4c/3x3"
  param {
    lr_mult: 1
    decay_mult: 1
  }
  param {
    lr_mult: 2
    decay_mult: 0
  }
  convolution_param {
    num_output: 256
    pad: 1
    kernel_size: 3
    weight_filler {
      type: "xavier"
      std: 0.03
    }
    bias_filler {
      type: "constant"
      value: 0.2
    }
  }
}
layer {
  name: "inception_4c/relu_3x3"
  type: "ReLU"
  bottom: "inception_4c/3x3"
  top: "inception_4c/3x3"
}
layer {
  name: "inception_4c/5x5_reduce"
  type: "Convolution"
  bottom: "inception_4b/output"
  top: "inception_4c/5x5_reduce"
  param {
    lr_mult: 1
    decay_mult: 1
  }
  param {
    lr_mult: 2
    decay_mult: 0
  }
  convolution_param {
    num_output: 24
    kernel_size: 1
    weight_filler {
      type: "xavier"
      std: 0.2
    }
    bias_filler {
      type: "constant"
      value: 0.2
    }
  }
}
layer {
  name: "inception_4c/relu_5x5_reduce"
  type: "ReLU"
  bottom: "inception_4c/5x5_reduce"
  top: "inception_4c/5x5_reduce"
}
layer {
  name: "inception_4c/5x5"
  type: "Convolution"
  bottom: "inception_4c/5x5_reduce"
  top: "inception_4c/5x5"
  param {
    lr_mult: 1
    decay_mult: 1
  }
  param {
    lr_mult: 2
    decay_mult: 0
  }
  convolution_param {
    num_output: 64
    pad: 2
    kernel_size: 5
    weight_filler {
      type: "xavier"
      std: 0.03
    }
    bias_filler {
      type: "constant"
      value: 0.2
    }
  }
}
layer {
  name: "inception_4c/relu_5x5"
  type: "ReLU"
  bottom: "inception_4c/5x5"
  top: "inception_4c/5x5"
}
layer {
  name: "inception_4c/pool"
  type: "Pooling"
  bottom: "inception_4b/output"
  top: "inception_4c/pool"
  pooling_param {
    pool: MAX
    kernel_size: 3
    stride: 1
    pad: 1
  }
}
layer {
  name: "inception_4c/pool_proj"
  type: "Convolution"
  bottom: "inception_4c/pool"
  top: "inception_4c/pool_proj"
  param {
    lr_mult: 1
    decay_mult: 1
  }
  param {
    lr_mult: 2
    decay_mult: 0
  }
  convolution_param {
    num_output: 64
    kernel_size: 1
    weight_filler {
      type: "xavier"
      std: 0.1
    }
    bias_filler {
      type: "constant"
      value: 0.2
    }
  }
}
layer {
  name: "inception_4c/relu_pool_proj"
  type: "ReLU"
  bottom: "inception_4c/pool_proj"
  top: "inception_4c/pool_proj"
}
layer {
  name: "inception_4c/output"
  type: "Concat"
  bottom: "inception_4c/1x1"
  bottom: "inception_4c/3x3"
  bottom: "inception_4c/5x5"
  bottom: "inception_4c/pool_proj"
  top: "inception_4c/output"
}
layer {
  name: "inception_4d/1x1"
  type: "Convolution"
  bottom: "inception_4c/output"
  top: "inception_4d/1x1"
  param {
    lr_mult: 1
    decay_mult: 1
  }
  param {
    lr_mult: 2
    decay_mult: 0
  }
  convolution_param {
    num_output: 112
    kernel_size: 1
    weight_filler {
      type: "xavier"
      std: 0.03
    }
    bias_filler {
      type: "constant"
      value: 0.2
    }
  }
}
layer {
  name: "inception_4d/relu_1x1"
  type: "ReLU"
  bottom: "inception_4d/1x1"
  top: "inception_4d/1x1"
}
layer {
  name: "inception_4d/3x3_reduce"
  type: "Convolution"
  bottom: "inception_4c/output"
  top: "inception_4d/3x3_reduce"
  param {
    lr_mult: 1
    decay_mult: 1
  }
  param {
    lr_mult: 2
    decay_mult: 0
  }
  convolution_param {
    num_output: 144
    kernel_size: 1
    weight_filler {
      type: "xavier"
      std: 0.09
    }
    bias_filler {
      type: "constant"
      value: 0.2
    }
  }
}
layer {
  name: "inception_4d/relu_3x3_reduce"
  type: "ReLU"
  bottom: "inception_4d/3x3_reduce"
  top: "inception_4d/3x3_reduce"
}
layer {
  name: "inception_4d/3x3"
  type: "Convolution"
  bottom: "inception_4d/3x3_reduce"
  top: "inception_4d/3x3"
  param {
    lr_mult: 1
    decay_mult: 1
  }
  param {
    lr_mult: 2
    decay_mult: 0
  }
  convolution_param {
    num_output: 288
    pad: 1
    kernel_size: 3
    weight_filler {
      type: "xavier"
      std: 0.03
    }
    bias_filler {
      type: "constant"
      value: 0.2
    }
  }
}
layer {
  name: "inception_4d/relu_3x3"
  type: "ReLU"
  bottom: "inception_4d/3x3"
  top: "inception_4d/3x3"
}
layer {
  name: "inception_4d/5x5_reduce"
  type: "Convolution"
  bottom: "inception_4c/output"
  top: "inception_4d/5x5_reduce"
  param {
    lr_mult: 1
    decay_mult: 1
  }
  param {
    lr_mult: 2
    decay_mult: 0
  }
  convolution_param {
    num_output: 32
    kernel_size: 1
    weight_filler {
      type: "xavier"
      std: 0.2
    }
    bias_filler {
      type: "constant"
      value: 0.2
    }
  }
}
layer {
  name: "inception_4d/relu_5x5_reduce"
  type: "ReLU"
  bottom: "inception_4d/5x5_reduce"
  top: "inception_4d/5x5_reduce"
}
layer {
  name: "inception_4d/5x5"
  type: "Convolution"
  bottom: "inception_4d/5x5_reduce"
  top: "inception_4d/5x5"
  param {
    lr_mult: 1
    decay_mult: 1
  }
  param {
    lr_mult: 2
    decay_mult: 0
  }
  convolution_param {
    num_output: 64
    pad: 2
    kernel_size: 5
    weight_filler {
      type: "xavier"
      std: 0.03
    }
    bias_filler {
      type: "constant"
      value: 0.2
    }
  }
}
layer {
  name: "inception_4d/relu_5x5"
  type: "ReLU"
  bottom: "inception_4d/5x5"
  top: "inception_4d/5x5"
}
layer {
  name: "inception_4d/pool"
  type: "Pooling"
  bottom: "inception_4c/output"
  top: "inception_4d/pool"
  pooling_param {
    pool: MAX
    kernel_size: 3
    stride: 1
    pad: 1
  }
}
layer {
  name: "inception_4d/pool_proj"
  type: "Convolution"
  bottom: "inception_4d/pool"
  top: "inception_4d/pool_proj"
  param {
    lr_mult: 1
    decay_mult: 1
  }
  param {
    lr_mult: 2
    decay_mult: 0
  }
  convolution_param {
    num_output: 64
    kernel_size: 1
    weight_filler {
      type: "xavier"
      std: 0.1
    }
    bias_filler {
      type: "constant"
      value: 0.2
    }
  }
}
layer {
  name: "inception_4d/relu_pool_proj"
  type: "ReLU"
  bottom: "inception_4d/pool_proj"
  top: "inception_4d/pool_proj"
}
layer {
  name: "inception_4d/output"
  type: "Concat"
  bottom: "inception_4d/1x1"
  bottom: "inception_4d/3x3"
  bottom: "inception_4d/5x5"
  bottom: "inception_4d/pool_proj"
  top: "inception_4d/output"
}
layer {
  name: "loss2/ave_pool"
  type: "Pooling"
  bottom: "inception_4d/output"
  top: "loss2/ave_pool"
  pooling_param {
    pool: AVE
    kernel_size: 5
    stride: 3
  }
}
layer {
  name: "loss2/conv"
  type: "Convolution"
  bottom: "loss2/ave_pool"
  top: "loss2/conv"
  param {
    lr_mult: 1
    decay_mult: 1
  }
  param {
    lr_mult: 2
    decay_mult: 0
  }
  convolution_param {
    num_output: 128
    kernel_size: 1
    weight_filler {
      type: "xavier"
      std: 0.08
    }
    bias_filler {
      type: "constant"
      value: 0.2
    }
  }
}
layer {
  name: "loss2/relu_conv"
  type: "ReLU"
  bottom: "loss2/conv"
  top: "loss2/conv"
}
layer {
  name: "loss2/fc"
  type: "InnerProduct"
  bottom: "loss2/conv"
  top: "loss2/fc"
  param {
    lr_mult: 1
    decay_mult: 1
  }
  param {
    lr_mult: 2
    decay_mult: 0
  }
  inner_product_param {
    num_output: 1024
    weight_filler {
      type: "xavier"
      std: 0.02
    }
    bias_filler {
      type: "constant"
      value: 0.2
    }
  }
}
layer {
  name: "loss2/relu_fc"
  type: "ReLU"
  bottom: "loss2/fc"
  top: "loss2/fc"
}
layer {
  name: "loss2/drop_fc"
  type: "Dropout"
  bottom: "loss2/fc"
  top: "loss2/fc"
  dropout_param {
    dropout_ratio: 0.7
  }
}
layer {
  name: "loss2/classifier_plantvillage"
  type: "InnerProduct"
  bottom: "loss2/fc"
  top: "loss2/classifier_plantvillage"
  param {
    lr_mult: 1
    decay_mult: 1
  }
  param {
    lr_mult: 2
    decay_mult: 0
  }
  inner_product_param {
    num_output: 38
    weight_filler {
      type: "xavier"
      std: 0.0009765625
    }
    bias_filler {
      type: "constant"
      value: 0
    }
  }
}
layer {
  name: "inception_4e/1x1"
  type: "Convolution"
  bottom: "inception_4d/output"
  top: "inception_4e/1x1"
  param {
    lr_mult: 1
    decay_mult: 1
  }
  param {
    lr_mult: 2
    decay_mult: 0
  }
  convolution_param {
    num_output: 256
    kernel_size: 1
    weight_filler {
      type: "xavier"
      std: 0.03
    }
    bias_filler {
      type: "constant"
      value: 0.2
    }
  }
}
layer {
  name: "inception_4e/relu_1x1"
  type: "ReLU"
  bottom: "inception_4e/1x1"
  top: "inception_4e/1x1"
}
layer {
  name: "inception_4e/3x3_reduce"
  type: "Convolution"
  bottom: "inception_4d/output"
  top: "inception_4e/3x3_reduce"
  param {
    lr_mult: 1
    decay_mult: 1
  }
  param {
    lr_mult: 2
    decay_mult: 0
  }
  convolution_param {
    num_output: 160
    kernel_size: 1
    weight_filler {
      type: "xavier"
      std: 0.09
    }
    bias_filler {
      type: "constant"
      value: 0.2
    }
  }
}
layer {
  name: "inception_4e/relu_3x3_reduce"
  type: "ReLU"
  bottom: "inception_4e/3x3_reduce"
  top: "inception_4e/3x3_reduce"
}
layer {
  name: "inception_4e/3x3"
  type: "Convolution"
  bottom: "inception_4e/3x3_reduce"
  top: "inception_4e/3x3"
  param {
    lr_mult: 1
    decay_mult: 1
  }
  param {
    lr_mult: 2
    decay_mult: 0
  }
  convolution_param {
    num_output: 320
    pad: 1
    kernel_size: 3
    weight_filler {
      type: "xavier"
      std: 0.03
    }
    bias_filler {
      type: "constant"
      value: 0.2
    }
  }
}
layer {
  name: "inception_4e/relu_3x3"
  type: "ReLU"
  bottom: "inception_4e/3x3"
  top: "inception_4e/3x3"
}
layer {
  name: "inception_4e/5x5_reduce"
  type: "Convolution"
  bottom: "inception_4d/output"
  top: "inception_4e/5x5_reduce"
  param {
    lr_mult: 1
    decay_mult: 1
  }
  param {
    lr_mult: 2
    decay_mult: 0
  }
  convolution_param {
    num_output: 32
    kernel_size: 1
    weight_filler {
      type: "xavier"
      std: 0.2
    }
    bias_filler {
      type: "constant"
      value: 0.2
    }
  }
}
layer {
  name: "inception_4e/relu_5x5_reduce"
  type: "ReLU"
  bottom: "inception_4e/5x5_reduce"
  top: "inception_4e/5x5_reduce"
}
layer {
  name: "inception_4e/5x5"
  type: "Convolution"
  bottom: "inception_4e/5x5_reduce"
  top: "inception_4e/5x5"
  p
I0403 15:43:31.176930 14260 layer_factory.hpp:77] Creating layer data
I0403 15:43:31.177522 14260 net.cpp:91] Creating Layer data
I0403 15:43:31.177554 14260 net.cpp:399] data -> data
I0403 15:43:31.177606 14260 net.cpp:399] data -> label
I0403 15:43:31.177647 14260 data_transformer.cpp:25] Loading mean file from: /home/mohanty/data/final_dataset/lmdb/color-80-20/mean.binaryproto
I0403 15:43:31.180299 14262 db_lmdb.cpp:38] Opened lmdb /home/mohanty/data/final_dataset/lmdb/color-80-20/test_db
I0403 15:43:31.190955 14260 data_layer.cpp:41] output data size: 24,3,224,224
I0403 15:43:31.218725 14260 net.cpp:141] Setting up data
I0403 15:43:31.218807 14260 net.cpp:148] Top shape: 24 3 224 224 (3612672)
I0403 15:43:31.218832 14260 net.cpp:148] Top shape: 24 (24)
I0403 15:43:31.218845 14260 net.cpp:156] Memory required for data: 14450784
I0403 15:43:31.218873 14260 layer_factory.hpp:77] Creating layer label_data_1_split
I0403 15:43:31.218900 14260 net.cpp:91] Creating Layer label_data_1_split
I0403 15:43:31.218919 14260 net.cpp:425] label_data_1_split <- label
I0403 15:43:31.218950 14260 net.cpp:399] label_data_1_split -> label_data_1_split_0
I0403 15:43:31.218979 14260 net.cpp:399] label_data_1_split -> label_data_1_split_1
I0403 15:43:31.219002 14260 net.cpp:399] label_data_1_split -> label_data_1_split_2
I0403 15:43:31.219022 14260 net.cpp:399] label_data_1_split -> label_data_1_split_3
I0403 15:43:31.219043 14260 net.cpp:399] label_data_1_split -> label_data_1_split_4
I0403 15:43:31.219063 14260 net.cpp:399] label_data_1_split -> label_data_1_split_5
I0403 15:43:31.219084 14260 net.cpp:399] label_data_1_split -> label_data_1_split_6
I0403 15:43:31.219105 14260 net.cpp:399] label_data_1_split -> label_data_1_split_7
I0403 15:43:31.219123 14260 net.cpp:399] label_data_1_split -> label_data_1_split_8
I0403 15:43:31.219149 14260 net.cpp:399] label_data_1_split -> label_data_1_split_9
I0403 15:43:31.219269 14260 net.cpp:141] Setting up label_data_1_split
I0403 15:43:31.219295 14260 net.cpp:148] Top shape: 24 (24)
I0403 15:43:31.219311 14260 net.cpp:148] Top shape: 24 (24)
I0403 15:43:31.219327 14260 net.cpp:148] Top shape: 24 (24)
I0403 15:43:31.219343 14260 net.cpp:148] Top shape: 24 (24)
I0403 15:43:31.219358 14260 net.cpp:148] Top shape: 24 (24)
I0403 15:43:31.219374 14260 net.cpp:148] Top shape: 24 (24)
I0403 15:43:31.219399 14260 net.cpp:148] Top shape: 24 (24)
I0403 15:43:31.219414 14260 net.cpp:148] Top shape: 24 (24)
I0403 15:43:31.219429 14260 net.cpp:148] Top shape: 24 (24)
I0403 15:43:31.219446 14260 net.cpp:148] Top shape: 24 (24)
I0403 15:43:31.219491 14260 net.cpp:156] Memory required for data: 14451744
I0403 15:43:31.219507 14260 layer_factory.hpp:77] Creating layer conv1/7x7_s2
I0403 15:43:31.219539 14260 net.cpp:91] Creating Layer conv1/7x7_s2
I0403 15:43:31.219558 14260 net.cpp:425] conv1/7x7_s2 <- data
I0403 15:43:31.219579 14260 net.cpp:399] conv1/7x7_s2 -> conv1/7x7_s2
I0403 15:43:31.361847 14260 net.cpp:141] Setting up conv1/7x7_s2
I0403 15:43:31.361923 14260 net.cpp:148] Top shape: 24 64 112 112 (19267584)
I0403 15:43:31.361940 14260 net.cpp:156] Memory required for data: 91522080
I0403 15:43:31.361970 14260 layer_factory.hpp:77] Creating layer conv1/relu_7x7
I0403 15:43:31.361999 14260 net.cpp:91] Creating Layer conv1/relu_7x7
I0403 15:43:31.362016 14260 net.cpp:425] conv1/relu_7x7 <- conv1/7x7_s2
I0403 15:43:31.362035 14260 net.cpp:386] conv1/relu_7x7 -> conv1/7x7_s2 (in-place)
I0403 15:43:31.362337 14260 net.cpp:141] Setting up conv1/relu_7x7
I0403 15:43:31.362367 14260 net.cpp:148] Top shape: 24 64 112 112 (19267584)
I0403 15:43:31.362396 14260 net.cpp:156] Memory required for data: 168592416
I0403 15:43:31.362411 14260 layer_factory.hpp:77] Creating layer pool1/3x3_s2
I0403 15:43:31.362437 14260 net.cpp:91] Creating Layer pool1/3x3_s2
I0403 15:43:31.362468 14260 net.cpp:425] pool1/3x3_s2 <- conv1/7x7_s2
I0403 15:43:31.362485 14260 net.cpp:399] pool1/3x3_s2 -> pool1/3x3_s2
I0403 15:43:31.362558 14260 net.cpp:141] Setting up pool1/3x3_s2
I0403 15:43:31.362586 14260 net.cpp:148] Top shape: 24 64 56 56 (4816896)
I0403 15:43:31.362632 14260 net.cpp:156] Memory required for data: 187860000
I0403 15:43:31.362648 14260 layer_factory.hpp:77] Creating layer pool1/norm1
I0403 15:43:31.362673 14260 net.cpp:91] Creating Layer pool1/norm1
I0403 15:43:31.362690 14260 net.cpp:425] pool1/norm1 <- pool1/3x3_s2
I0403 15:43:31.362709 14260 net.cpp:399] pool1/norm1 -> pool1/norm1
I0403 15:43:31.362988 14260 net.cpp:141] Setting up pool1/norm1
I0403 15:43:31.363016 14260 net.cpp:148] Top shape: 24 64 56 56 (4816896)
I0403 15:43:31.363032 14260 net.cpp:156] Memory required for data: 207127584
I0403 15:43:31.363046 14260 layer_factory.hpp:77] Creating layer conv2/3x3_reduce
I0403 15:43:31.363070 14260 net.cpp:91] Creating Layer conv2/3x3_reduce
I0403 15:43:31.363087 14260 net.cpp:425] conv2/3x3_reduce <- pool1/norm1
I0403 15:43:31.363117 14260 net.cpp:399] conv2/3x3_reduce -> conv2/3x3_reduce
I0403 15:43:31.364575 14260 net.cpp:141] Setting up conv2/3x3_reduce
I0403 15:43:31.364606 14260 net.cpp:148] Top shape: 24 64 56 56 (4816896)
I0403 15:43:31.364622 14260 net.cpp:156] Memory required for data: 226395168
I0403 15:43:31.364644 14260 layer_factory.hpp:77] Creating layer conv2/relu_3x3_reduce
I0403 15:43:31.364662 14260 net.cpp:91] Creating Layer conv2/relu_3x3_reduce
I0403 15:43:31.364678 14260 net.cpp:425] conv2/relu_3x3_reduce <- conv2/3x3_reduce
I0403 15:43:31.364694 14260 net.cpp:386] conv2/relu_3x3_reduce -> conv2/3x3_reduce (in-place)
I0403 15:43:31.364946 14260 net.cpp:141] Setting up conv2/relu_3x3_reduce
I0403 15:43:31.364974 14260 net.cpp:148] Top shape: 24 64 56 56 (4816896)
I0403 15:43:31.364989 14260 net.cpp:156] Memory required for data: 245662752
I0403 15:43:31.365003 14260 layer_factory.hpp:77] Creating layer conv2/3x3
I0403 15:43:31.365025 14260 net.cpp:91] Creating Layer conv2/3x3
I0403 15:43:31.365042 14260 net.cpp:425] conv2/3x3 <- conv2/3x3_reduce
I0403 15:43:31.365061 14260 net.cpp:399] conv2/3x3 -> conv2/3x3
I0403 15:43:31.367365 14260 net.cpp:141] Setting up conv2/3x3
I0403 15:43:31.367408 14260 net.cpp:148] Top shape: 24 192 56 56 (14450688)
I0403 15:43:31.367424 14260 net.cpp:156] Memory required for data: 303465504
I0403 15:43:31.367445 14260 layer_factory.hpp:77] Creating layer conv2/relu_3x3
I0403 15:43:31.367465 14260 net.cpp:91] Creating Layer conv2/relu_3x3
I0403 15:43:31.367480 14260 net.cpp:425] conv2/relu_3x3 <- conv2/3x3
I0403 15:43:31.367497 14260 net.cpp:386] conv2/relu_3x3 -> conv2/3x3 (in-place)
I0403 15:43:31.367682 14260 net.cpp:141] Setting up conv2/relu_3x3
I0403 15:43:31.367708 14260 net.cpp:148] Top shape: 24 192 56 56 (14450688)
I0403 15:43:31.367754 14260 net.cpp:156] Memory required for data: 361268256
I0403 15:43:31.367770 14260 layer_factory.hpp:77] Creating layer conv2/norm2
I0403 15:43:31.367792 14260 net.cpp:91] Creating Layer conv2/norm2
I0403 15:43:31.367810 14260 net.cpp:425] conv2/norm2 <- conv2/3x3
I0403 15:43:31.367827 14260 net.cpp:399] conv2/norm2 -> conv2/norm2
I0403 15:43:31.368211 14260 net.cpp:141] Setting up conv2/norm2
I0403 15:43:31.368239 14260 net.cpp:148] Top shape: 24 192 56 56 (14450688)
I0403 15:43:31.368254 14260 net.cpp:156] Memory required for data: 419071008
I0403 15:43:31.368269 14260 layer_factory.hpp:77] Creating layer pool2/3x3_s2
I0403 15:43:31.368288 14260 net.cpp:91] Creating Layer pool2/3x3_s2
I0403 15:43:31.368304 14260 net.cpp:425] pool2/3x3_s2 <- conv2/norm2
I0403 15:43:31.368321 14260 net.cpp:399] pool2/3x3_s2 -> pool2/3x3_s2
I0403 15:43:31.368376 14260 net.cpp:141] Setting up pool2/3x3_s2
I0403 15:43:31.368399 14260 net.cpp:148] Top shape: 24 192 28 28 (3612672)
I0403 15:43:31.368413 14260 net.cpp:156] Memory required for data: 433521696
I0403 15:43:31.368428 14260 layer_factory.hpp:77] Creating layer pool2/3x3_s2_pool2/3x3_s2_0_split
I0403 15:43:31.368445 14260 net.cpp:91] Creating Layer pool2/3x3_s2_pool2/3x3_s2_0_split
I0403 15:43:31.368460 14260 net.cpp:425] pool2/3x3_s2_pool2/3x3_s2_0_split <- pool2/3x3_s2
I0403 15:43:31.368480 14260 net.cpp:399] pool2/3x3_s2_pool2/3x3_s2_0_split -> pool2/3x3_s2_pool2/3x3_s2_0_split_0
I0403 15:43:31.368501 14260 net.cpp:399] pool2/3x3_s2_pool2/3x3_s2_0_split -> pool2/3x3_s2_pool2/3x3_s2_0_split_1
I0403 15:43:31.368522 14260 net.cpp:399] pool2/3x3_s2_pool2/3x3_s2_0_split -> pool2/3x3_s2_pool2/3x3_s2_0_split_2
I0403 15:43:31.368542 14260 net.cpp:399] pool2/3x3_s2_pool2/3x3_s2_0_split -> pool2/3x3_s2_pool2/3x3_s2_0_split_3
I0403 15:43:31.368613 14260 net.cpp:141] Setting up pool2/3x3_s2_pool2/3x3_s2_0_split
I0403 15:43:31.368638 14260 net.cpp:148] Top shape: 24 192 28 28 (3612672)
I0403 15:43:31.368654 14260 net.cpp:148] Top shape: 24 192 28 28 (3612672)
I0403 15:43:31.368670 14260 net.cpp:148] Top shape: 24 192 28 28 (3612672)
I0403 15:43:31.368685 14260 net.cpp:148] Top shape: 24 192 28 28 (3612672)
I0403 15:43:31.368698 14260 net.cpp:156] Memory required for data: 491324448
I0403 15:43:31.368713 14260 layer_factory.hpp:77] Creating layer inception_3a/1x1
I0403 15:43:31.368737 14260 net.cpp:91] Creating Layer inception_3a/1x1
I0403 15:43:31.368754 14260 net.cpp:425] inception_3a/1x1 <- pool2/3x3_s2_pool2/3x3_s2_0_split_0
I0403 15:43:31.368773 14260 net.cpp:399] inception_3a/1x1 -> inception_3a/1x1
I0403 15:43:31.370302 14260 net.cpp:141] Setting up inception_3a/1x1
I0403 15:43:31.370332 14260 net.cpp:148] Top shape: 24 64 28 28 (1204224)
I0403 15:43:31.370347 14260 net.cpp:156] Memory required for data: 496141344
I0403 15:43:31.370367 14260 layer_factory.hpp:77] Creating layer inception_3a/relu_1x1
I0403 15:43:31.370386 14260 net.cpp:91] Creating Layer inception_3a/relu_1x1
I0403 15:43:31.370403 14260 net.cpp:425] inception_3a/relu_1x1 <- inception_3a/1x1
I0403 15:43:31.370419 14260 net.cpp:386] inception_3a/relu_1x1 -> inception_3a/1x1 (in-place)
I0403 15:43:31.370594 14260 net.cpp:141] Setting up inception_3a/relu_1x1
I0403 15:43:31.370620 14260 net.cpp:148] Top shape: 24 64 28 28 (1204224)
I0403 15:43:31.370635 14260 net.cpp:156] Memory required for data: 500958240
I0403 15:43:31.370651 14260 layer_factory.hpp:77] Creating layer inception_3a/3x3_reduce
I0403 15:43:31.370672 14260 net.cpp:91] Creating Layer inception_3a/3x3_reduce
I0403 15:43:31.370690 14260 net.cpp:425] inception_3a/3x3_reduce <- pool2/3x3_s2_pool2/3x3_s2_0_split_1
I0403 15:43:31.370712 14260 net.cpp:399] inception_3a/3x3_reduce -> inception_3a/3x3_reduce
I0403 15:43:31.372406 14260 net.cpp:141] Setting up inception_3a/3x3_reduce
I0403 15:43:31.372439 14260 net.cpp:148] Top shape: 24 96 28 28 (1806336)
I0403 15:43:31.372457 14260 net.cpp:156] Memory required for data: 508183584
I0403 15:43:31.372479 14260 layer_factory.hpp:77] Creating layer inception_3a/relu_3x3_reduce
I0403 15:43:31.372514 14260 net.cpp:91] Creating Layer inception_3a/relu_3x3_reduce
I0403 15:43:31.372532 14260 net.cpp:425] inception_3a/relu_3x3_reduce <- inception_3a/3x3_reduce
I0403 15:43:31.372552 14260 net.cpp:386] inception_3a/relu_3x3_reduce -> inception_3a/3x3_reduce (in-place)
I0403 15:43:31.372735 14260 net.cpp:141] Setting up inception_3a/relu_3x3_reduce
I0403 15:43:31.372761 14260 net.cpp:148] Top shape: 24 96 28 28 (1806336)
I0403 15:43:31.372776 14260 net.cpp:156] Memory required for data: 515408928
I0403 15:43:31.372792 14260 layer_factory.hpp:77] Creating layer inception_3a/3x3
I0403 15:43:31.372814 14260 net.cpp:91] Creating Layer inception_3a/3x3
I0403 15:43:31.372833 14260 net.cpp:425] inception_3a/3x3 <- inception_3a/3x3_reduce
I0403 15:43:31.372853 14260 net.cpp:399] inception_3a/3x3 -> inception_3a/3x3
I0403 15:43:31.374500 14260 net.cpp:141] Setting up inception_3a/3x3
I0403 15:43:31.374531 14260 net.cpp:148] Top shape: 24 128 28 28 (2408448)
I0403 15:43:31.374548 14260 net.cpp:156] Memory required for data: 525042720
I0403 15:43:31.374567 14260 layer_factory.hpp:77] Creating layer inception_3a/relu_3x3
I0403 15:43:31.374585 14260 net.cpp:91] Creating Layer inception_3a/relu_3x3
I0403 15:43:31.374601 14260 net.cpp:425] inception_3a/relu_3x3 <- inception_3a/3x3
I0403 15:43:31.374621 14260 net.cpp:386] inception_3a/relu_3x3 -> inception_3a/3x3 (in-place)
I0403 15:43:31.374896 14260 net.cpp:141] Setting up inception_3a/relu_3x3
I0403 15:43:31.374924 14260 net.cpp:148] Top shape: 24 128 28 28 (2408448)
I0403 15:43:31.374940 14260 net.cpp:156] Memory required for data: 534676512
I0403 15:43:31.374955 14260 layer_factory.hpp:77] Creating layer inception_3a/5x5_reduce
I0403 15:43:31.374979 14260 net.cpp:91] Creating Layer inception_3a/5x5_reduce
I0403 15:43:31.374996 14260 net.cpp:425] inception_3a/5x5_reduce <- pool2/3x3_s2_pool2/3x3_s2_0_split_2
I0403 15:43:31.375015 14260 net.cpp:399] inception_3a/5x5_reduce -> inception_3a/5x5_reduce
I0403 15:43:31.375980 14260 net.cpp:141] Setting up inception_3a/5x5_reduce
I0403 15:43:31.376011 14260 net.cpp:148] Top shape: 24 16 28 28 (301056)
I0403 15:43:31.376027 14260 net.cpp:156] Memory required for data: 535880736
I0403 15:43:31.376046 14260 layer_factory.hpp:77] Creating layer inception_3a/relu_5x5_reduce
I0403 15:43:31.376063 14260 net.cpp:91] Creating Layer inception_3a/relu_5x5_reduce
I0403 15:43:31.376080 14260 net.cpp:425] inception_3a/relu_5x5_reduce <- inception_3a/5x5_reduce
I0403 15:43:31.376101 14260 net.cpp:386] inception_3a/relu_5x5_reduce -> inception_3a/5x5_reduce (in-place)
I0403 15:43:31.376394 14260 net.cpp:141] Setting up inception_3a/relu_5x5_reduce
I0403 15:43:31.376420 14260 net.cpp:148] Top shape: 24 16 28 28 (301056)
I0403 15:43:31.376435 14260 net.cpp:156] Memory required for data: 537084960
I0403 15:43:31.376449 14260 layer_factory.hpp:77] Creating layer inception_3a/5x5
I0403 15:43:31.376472 14260 net.cpp:91] Creating Layer inception_3a/5x5
I0403 15:43:31.376490 14260 net.cpp:425] inception_3a/5x5 <- inception_3a/5x5_reduce
I0403 15:43:31.376512 14260 net.cpp:399] inception_3a/5x5 -> inception_3a/5x5
I0403 15:43:31.377521 14260 net.cpp:141] Setting up inception_3a/5x5
I0403 15:43:31.377552 14260 net.cpp:148] Top shape: 24 32 28 28 (602112)
I0403 15:43:31.377568 14260 net.cpp:156] Memory required for data: 539493408
I0403 15:43:31.377586 14260 layer_factory.hpp:77] Creating layer inception_3a/relu_5x5
I0403 15:43:31.377605 14260 net.cpp:91] Creating Layer inception_3a/relu_5x5
I0403 15:43:31.377622 14260 net.cpp:425] inception_3a/relu_5x5 <- inception_3a/5x5
I0403 15:43:31.377641 14260 net.cpp:386] inception_3a/relu_5x5 -> inception_3a/5x5 (in-place)
I0403 15:43:31.377816 14260 net.cpp:141] Setting up inception_3a/relu_5x5
I0403 15:43:31.377842 14260 net.cpp:148] Top shape: 24 32 28 28 (602112)
I0403 15:43:31.377856 14260 net.cpp:156] Memory required for data: 541901856
I0403 15:43:31.377871 14260 layer_factory.hpp:77] Creating layer inception_3a/pool
I0403 15:43:31.377887 14260 net.cpp:91] Creating Layer inception_3a/pool
I0403 15:43:31.377903 14260 net.cpp:425] inception_3a/pool <- pool2/3x3_s2_pool2/3x3_s2_0_split_3
I0403 15:43:31.377938 14260 net.cpp:399] inception_3a/pool -> inception_3a/pool
I0403 15:43:31.377997 14260 net.cpp:141] Setting up inception_3a/pool
I0403 15:43:31.378022 14260 net.cpp:148] Top shape: 24 192 28 28 (3612672)
I0403 15:43:31.378037 14260 net.cpp:156] Memory required for data: 556352544
I0403 15:43:31.378051 14260 layer_factory.hpp:77] Creating layer inception_3a/pool_proj
I0403 15:43:31.378077 14260 net.cpp:91] Creating Layer inception_3a/pool_proj
I0403 15:43:31.378094 14260 net.cpp:425] inception_3a/pool_proj <- inception_3a/pool
I0403 15:43:31.378113 14260 net.cpp:399] inception_3a/pool_proj -> inception_3a/pool_proj
I0403 15:43:31.379068 14260 net.cpp:141] Setting up inception_3a/pool_proj
I0403 15:43:31.379096 14260 net.cpp:148] Top shape: 24 32 28 28 (602112)
I0403 15:43:31.379112 14260 net.cpp:156] Memory required for data: 558760992
I0403 15:43:31.379140 14260 layer_factory.hpp:77] Creating layer inception_3a/relu_pool_proj
I0403 15:43:31.379161 14260 net.cpp:91] Creating Layer inception_3a/relu_pool_proj
I0403 15:43:31.379178 14260 net.cpp:425] inception_3a/relu_pool_proj <- inception_3a/pool_proj
I0403 15:43:31.379199 14260 net.cpp:386] inception_3a/relu_pool_proj -> inception_3a/pool_proj (in-place)
I0403 15:43:31.379468 14260 net.cpp:141] Setting up inception_3a/relu_pool_proj
I0403 15:43:31.379498 14260 net.cpp:148] Top shape: 24 32 28 28 (602112)
I0403 15:43:31.379514 14260 net.cpp:156] Memory required for data: 561169440
I0403 15:43:31.379529 14260 layer_factory.hpp:77] Creating layer inception_3a/output
I0403 15:43:31.379547 14260 net.cpp:91] Creating Layer inception_3a/output
I0403 15:43:31.379564 14260 net.cpp:425] inception_3a/output <- inception_3a/1x1
I0403 15:43:31.379580 14260 net.cpp:425] inception_3a/output <- inception_3a/3x3
I0403 15:43:31.379596 14260 net.cpp:425] inception_3a/output <- inception_3a/5x5
I0403 15:43:31.379613 14260 net.cpp:425] inception_3a/output <- inception_3a/pool_proj
I0403 15:43:31.379633 14260 net.cpp:399] inception_3a/output -> inception_3a/output
I0403 15:43:31.379679 14260 net.cpp:141] Setting up inception_3a/output
I0403 15:43:31.379703 14260 net.cpp:148] Top shape: 24 256 28 28 (4816896)
I0403 15:43:31.379717 14260 net.cpp:156] Memory required for data: 580437024
I0403 15:43:31.379731 14260 layer_factory.hpp:77] Creating layer inception_3a/output_inception_3a/output_0_split
I0403 15:43:31.379751 14260 net.cpp:91] Creating Layer inception_3a/output_inception_3a/output_0_split
I0403 15:43:31.379768 14260 net.cpp:425] inception_3a/output_inception_3a/output_0_split <- inception_3a/output
I0403 15:43:31.379786 14260 net.cpp:399] inception_3a/output_inception_3a/output_0_split -> inception_3a/output_inception_3a/output_0_split_0
I0403 15:43:31.379804 14260 net.cpp:399] inception_3a/output_inception_3a/output_0_split -> inception_3a/output_inception_3a/output_0_split_1
I0403 15:43:31.379829 14260 net.cpp:399] inception_3a/output_inception_3a/output_0_split -> inception_3a/output_inception_3a/output_0_split_2
I0403 15:43:31.379853 14260 net.cpp:399] inception_3a/output_inception_3a/output_0_split -> inception_3a/output_inception_3a/output_0_split_3
I0403 15:43:31.379925 14260 net.cpp:141] Setting up inception_3a/output_inception_3a/output_0_split
I0403 15:43:31.379951 14260 net.cpp:148] Top shape: 24 256 28 28 (4816896)
I0403 15:43:31.379971 14260 net.cpp:148] Top shape: 24 256 28 28 (4816896)
I0403 15:43:31.379987 14260 net.cpp:148] Top shape: 24 256 28 28 (4816896)
I0403 15:43:31.380000 14260 net.cpp:148] Top shape: 24 256 28 28 (4816896)
I0403 15:43:31.380014 14260 net.cpp:156] Memory required for data: 657507360
I0403 15:43:31.380029 14260 layer_factory.hpp:77] Creating layer inception_3b/1x1
I0403 15:43:31.380051 14260 net.cpp:91] Creating Layer inception_3b/1x1
I0403 15:43:31.380069 14260 net.cpp:425] inception_3b/1x1 <- inception_3a/output_inception_3a/output_0_split_0
I0403 15:43:31.380089 14260 net.cpp:399] inception_3b/1x1 -> inception_3b/1x1
I0403 15:43:31.381219 14260 net.cpp:141] Setting up inception_3b/1x1
I0403 15:43:31.381259 14260 net.cpp:148] Top shape: 24 128 28 28 (2408448)
I0403 15:43:31.381276 14260 net.cpp:156] Memory required for data: 667141152
I0403 15:43:31.381295 14260 layer_factory.hpp:77] Creating layer inception_3b/relu_1x1
I0403 15:43:31.381316 14260 net.cpp:91] Creating Layer inception_3b/relu_1x1
I0403 15:43:31.381332 14260 net.cpp:425] inception_3b/relu_1x1 <- inception_3b/1x1
I0403 15:43:31.381350 14260 net.cpp:386] inception_3b/relu_1x1 -> inception_3b/1x1 (in-place)
I0403 15:43:31.381525 14260 net.cpp:141] Setting up inception_3b/relu_1x1
I0403 15:43:31.381552 14260 net.cpp:148] Top shape: 24 128 28 28 (2408448)
I0403 15:43:31.381569 14260 net.cpp:156] Memory required for data: 676774944
I0403 15:43:31.381584 14260 layer_factory.hpp:77] Creating layer inception_3b/3x3_reduce
I0403 15:43:31.381611 14260 net.cpp:91] Creating Layer inception_3b/3x3_reduce
I0403 15:43:31.381629 14260 net.cpp:425] inception_3b/3x3_reduce <- inception_3a/output_inception_3a/output_0_split_1
I0403 15:43:31.381649 14260 net.cpp:399] inception_3b/3x3_reduce -> inception_3b/3x3_reduce
I0403 15:43:31.382773 14260 net.cpp:141] Setting up inception_3b/3x3_reduce
I0403 15:43:31.382802 14260 net.cpp:148] Top shape: 24 128 28 28 (2408448)
I0403 15:43:31.382817 14260 net.cpp:156] Memory required for data: 686408736
I0403 15:43:31.382835 14260 layer_factory.hpp:77] Creating layer inception_3b/relu_3x3_reduce
I0403 15:43:31.382856 14260 net.cpp:91] Creating Layer inception_3b/relu_3x3_reduce
I0403 15:43:31.382874 14260 net.cpp:425] inception_3b/relu_3x3_reduce <- inception_3b/3x3_reduce
I0403 15:43:31.382892 14260 net.cpp:386] inception_3b/relu_3x3_reduce -> inception_3b/3x3_reduce (in-place)
I0403 15:43:31.383065 14260 net.cpp:141] Setting up inception_3b/relu_3x3_reduce
I0403 15:43:31.383092 14260 net.cpp:148] Top shape: 24 128 28 28 (2408448)
I0403 15:43:31.383108 14260 net.cpp:156] Memory required for data: 696042528
I0403 15:43:31.383123 14260 layer_factory.hpp:77] Creating layer inception_3b/3x3
I0403 15:43:31.383160 14260 net.cpp:91] Creating Layer inception_3b/3x3
I0403 15:43:31.383180 14260 net.cpp:425] inception_3b/3x3 <- inception_3b/3x3_reduce
I0403 15:43:31.383203 14260 net.cpp:399] inception_3b/3x3 -> inception_3b/3x3
I0403 15:43:31.386088 14260 net.cpp:141] Setting up inception_3b/3x3
I0403 15:43:31.386121 14260 net.cpp:148] Top shape: 24 192 28 28 (3612672)
I0403 15:43:31.386144 14260 net.cpp:156] Memory required for data: 710493216
I0403 15:43:31.386163 14260 layer_factory.hpp:77] Creating layer inception_3b/relu_3x3
I0403 15:43:31.386180 14260 net.cpp:91] Creating Layer inception_3b/relu_3x3
I0403 15:43:31.386196 14260 net.cpp:425] inception_3b/relu_3x3 <- inception_3b/3x3
I0403 15:43:31.386216 14260 net.cpp:386] inception_3b/relu_3x3 -> inception_3b/3x3 (in-place)
I0403 15:43:31.386500 14260 net.cpp:141] Setting up inception_3b/relu_3x3
I0403 15:43:31.386529 14260 net.cpp:148] Top shape: 24 192 28 28 (3612672)
I0403 15:43:31.386545 14260 net.cpp:156] Memory required for data: 724943904
I0403 15:43:31.386560 14260 layer_factory.hpp:77] Creating layer inception_3b/5x5_reduce
I0403 15:43:31.386584 14260 net.cpp:91] Creating Layer inception_3b/5x5_reduce
I0403 15:43:31.386602 14260 net.cpp:425] inception_3b/5x5_reduce <- inception_3a/output_inception_3a/output_0_split_2
I0403 15:43:31.386620 14260 net.cpp:399] inception_3b/5x5_reduce -> inception_3b/5x5_reduce
I0403 15:43:31.387617 14260 net.cpp:141] Setting up inception_3b/5x5_reduce
I0403 15:43:31.387648 14260 net.cpp:148] Top shape: 24 32 28 28 (602112)
I0403 15:43:31.387673 14260 net.cpp:156] Memory required for data: 727352352
I0403 15:43:31.387692 14260 layer_factory.hpp:77] Creating layer inception_3b/relu_5x5_reduce
I0403 15:43:31.387709 14260 net.cpp:91] Creating Layer inception_3b/relu_5x5_reduce
I0403 15:43:31.387725 14260 net.cpp:425] inception_3b/relu_5x5_reduce <- inception_3b/5x5_reduce
I0403 15:43:31.387744 14260 net.cpp:386] inception_3b/relu_5x5_reduce -> inception_3b/5x5_reduce (in-place)
I0403 15:43:31.387919 14260 net.cpp:141] Setting up inception_3b/relu_5x5_reduce
I0403 15:43:31.387958 14260 net.cpp:148] Top shape: 24 32 28 28 (602112)
I0403 15:43:31.387974 14260 net.cpp:156] Memory required for data: 729760800
I0403 15:43:31.387989 14260 layer_factory.hpp:77] Creating layer inception_3b/5x5
I0403 15:43:31.388011 14260 net.cpp:91] Creating Layer inception_3b/5x5
I0403 15:43:31.388028 14260 net.cpp:425] inception_3b/5x5 <- inception_3b/5x5_reduce
I0403 15:43:31.388048 14260 net.cpp:399] inception_3b/5x5 -> inception_3b/5x5
I0403 15:43:31.390017 14260 net.cpp:141] Setting up inception_3b/5x5
I0403 15:43:31.390048 14260 net.cpp:148] Top shape: 24 96 28 28 (1806336)
I0403 15:43:31.390064 14260 net.cpp:156] Memory required for data: 736986144
I0403 15:43:31.390081 14260 layer_factory.hpp:77] Creating layer inception_3b/relu_5x5
I0403 15:43:31.390102 14260 net.cpp:91] Creating Layer inception_3b/relu_5x5
I0403 15:43:31.390120 14260 net.cpp:425] inception_3b/relu_5x5 <- inception_3b/5x5
I0403 15:43:31.390142 14260 net.cpp:386] inception_3b/relu_5x5 -> inception_3b/5x5 (in-place)
I0403 15:43:31.390336 14260 net.cpp:141] Setting up inception_3b/relu_5x5
I0403 15:43:31.390362 14260 net.cpp:148] Top shape: 24 96 28 28 (1806336)
I0403 15:43:31.390377 14260 net.cpp:156] Memory required for data: 744211488
I0403 15:43:31.390391 14260 layer_factory.hpp:77] Creating layer inception_3b/pool
I0403 15:43:31.390409 14260 net.cpp:91] Creating Layer inception_3b/pool
I0403 15:43:31.390426 14260 net.cpp:425] inception_3b/pool <- inception_3a/output_inception_3a/output_0_split_3
I0403 15:43:31.390444 14260 net.cpp:399] inception_3b/pool -> inception_3b/pool
I0403 15:43:31.390501 14260 net.cpp:141] Setting up inception_3b/pool
I0403 15:43:31.390524 14260 net.cpp:148] Top shape: 24 256 28 28 (4816896)
I0403 15:43:31.390539 14260 net.cpp:156] Memory required for data: 763479072
I0403 15:43:31.390553 14260 layer_factory.hpp:77] Creating layer inception_3b/pool_proj
I0403 15:43:31.390575 14260 net.cpp:91] Creating Layer inception_3b/pool_proj
I0403 15:43:31.390594 14260 net.cpp:425] inception_3b/pool_proj <- inception_3b/pool
I0403 15:43:31.390614 14260 net.cpp:399] inception_3b/pool_proj -> inception_3b/pool_proj
I0403 15:43:31.391664 14260 net.cpp:141] Setting up inception_3b/pool_proj
I0403 15:43:31.391692 14260 net.cpp:148] Top shape: 24 64 28 28 (1204224)
I0403 15:43:31.391708 14260 net.cpp:156] Memory required for data: 768295968
I0403 15:43:31.391726 14260 layer_factory.hpp:77] Creating layer inception_3b/relu_pool_proj
I0403 15:43:31.391744 14260 net.cpp:91] Creating Layer inception_3b/relu_pool_proj
I0403 15:43:31.391760 14260 net.cpp:425] inception_3b/relu_pool_proj <- inception_3b/pool_proj
I0403 15:43:31.391780 14260 net.cpp:386] inception_3b/relu_pool_proj -> inception_3b/pool_proj (in-place)
I0403 15:43:31.392174 14260 net.cpp:141] Setting up inception_3b/relu_pool_proj
I0403 15:43:31.392202 14260 net.cpp:148] Top shape: 24 64 28 28 (1204224)
I0403 15:43:31.392217 14260 net.cpp:156] Memory required for data: 773112864
I0403 15:43:31.392231 14260 layer_factory.hpp:77] Creating layer inception_3b/output
I0403 15:43:31.392248 14260 net.cpp:91] Creating Layer inception_3b/output
I0403 15:43:31.392264 14260 net.cpp:425] inception_3b/output <- inception_3b/1x1
I0403 15:43:31.392282 14260 net.cpp:425] inception_3b/output <- inception_3b/3x3
I0403 15:43:31.392297 14260 net.cpp:425] inception_3b/output <- inception_3b/5x5
I0403 15:43:31.392313 14260 net.cpp:425] inception_3b/output <- inception_3b/pool_proj
I0403 15:43:31.392331 14260 net.cpp:399] inception_3b/output -> inception_3b/output
I0403 15:43:31.392375 14260 net.cpp:141] Setting up inception_3b/output
I0403 15:43:31.392410 14260 net.cpp:148] Top shape: 24 480 28 28 (9031680)
I0403 15:43:31.392426 14260 net.cpp:156] Memory required for data: 809239584
I0403 15:43:31.392441 14260 layer_factory.hpp:77] Creating layer pool3/3x3_s2
I0403 15:43:31.392458 14260 net.cpp:91] Creating Layer pool3/3x3_s2
I0403 15:43:31.392473 14260 net.cpp:425] pool3/3x3_s2 <- inception_3b/output
I0403 15:43:31.392493 14260 net.cpp:399] pool3/3x3_s2 -> pool3/3x3_s2
I0403 15:43:31.392575 14260 net.cpp:141] Setting up pool3/3x3_s2
I0403 15:43:31.392598 14260 net.cpp:148] Top shape: 24 480 14 14 (2257920)
I0403 15:43:31.392612 14260 net.cpp:156] Memory required for data: 818271264
I0403 15:43:31.392627 14260 layer_factory.hpp:77] Creating layer pool3/3x3_s2_pool3/3x3_s2_0_split
I0403 15:43:31.392645 14260 net.cpp:91] Creating Layer pool3/3x3_s2_pool3/3x3_s2_0_split
I0403 15:43:31.392662 14260 net.cpp:425] pool3/3x3_s2_pool3/3x3_s2_0_split <- pool3/3x3_s2
I0403 15:43:31.392688 14260 net.cpp:399] pool3/3x3_s2_pool3/3x3_s2_0_split -> pool3/3x3_s2_pool3/3x3_s2_0_split_0
I0403 15:43:31.392709 14260 net.cpp:399] pool3/3x3_s2_pool3/3x3_s2_0_split -> pool3/3x3_s2_pool3/3x3_s2_0_split_1
I0403 15:43:31.392729 14260 net.cpp:399] pool3/3x3_s2_pool3/3x3_s2_0_split -> pool3/3x3_s2_pool3/3x3_s2_0_split_2
I0403 15:43:31.392747 14260 net.cpp:399] pool3/3x3_s2_pool3/3x3_s2_0_split -> pool3/3x3_s2_pool3/3x3_s2_0_split_3
I0403 15:43:31.392824 14260 net.cpp:141] Setting up pool3/3x3_s2_pool3/3x3_s2_0_split
I0403 15:43:31.392848 14260 net.cpp:148] Top shape: 24 480 14 14 (2257920)
I0403 15:43:31.392865 14260 net.cpp:148] Top shape: 24 480 14 14 (2257920)
I0403 15:43:31.392881 14260 net.cpp:148] Top shape: 24 480 14 14 (2257920)
I0403 15:43:31.392896 14260 net.cpp:148] Top shape: 24 480 14 14 (2257920)
I0403 15:43:31.392910 14260 net.cpp:156] Memory required for data: 854397984
I0403 15:43:31.392923 14260 layer_factory.hpp:77] Creating layer inception_4a/1x1
I0403 15:43:31.392946 14260 net.cpp:91] Creating Layer inception_4a/1x1
I0403 15:43:31.392963 14260 net.cpp:425] inception_4a/1x1 <- pool3/3x3_s2_pool3/3x3_s2_0_split_0
I0403 15:43:31.392985 14260 net.cpp:399] inception_4a/1x1 -> inception_4a/1x1
I0403 15:43:31.394553 14260 net.cpp:141] Setting up inception_4a/1x1
I0403 15:43:31.394582 14260 net.cpp:148] Top shape: 24 192 14 14 (903168)
I0403 15:43:31.394598 14260 net.cpp:156] Memory required for data: 858010656
I0403 15:43:31.394616 14260 layer_factory.hpp:77] Creating layer inception_4a/relu_1x1
I0403 15:43:31.394636 14260 net.cpp:91] Creating Layer inception_4a/relu_1x1
I0403 15:43:31.394654 14260 net.cpp:425] inception_4a/relu_1x1 <- inception_4a/1x1
I0403 15:43:31.394671 14260 net.cpp:386] inception_4a/relu_1x1 -> inception_4a/1x1 (in-place)
I0403 15:43:31.394846 14260 net.cpp:141] Setting up inception_4a/relu_1x1
I0403 15:43:31.394875 14260 net.cpp:148] Top shape: 24 192 14 14 (903168)
I0403 15:43:31.394891 14260 net.cpp:156] Memory required for data: 861623328
I0403 15:43:31.394906 14260 layer_factory.hpp:77] Creating layer inception_4a/3x3_reduce
I0403 15:43:31.394925 14260 net.cpp:91] Creating Layer inception_4a/3x3_reduce
I0403 15:43:31.394942 14260 net.cpp:425] inception_4a/3x3_reduce <- pool3/3x3_s2_pool3/3x3_s2_0_split_1
I0403 15:43:31.394963 14260 net.cpp:399] inception_4a/3x3_reduce -> inception_4a/3x3_reduce
I0403 15:43:31.396241 14260 net.cpp:141] Setting up inception_4a/3x3_reduce
I0403 15:43:31.396270 14260 net.cpp:148] Top shape: 24 96 14 14 (451584)
I0403 15:43:31.396286 14260 net.cpp:156] Memory required for data: 863429664
I0403 15:43:31.396311 14260 layer_factory.hpp:77] Creating layer inception_4a/relu_3x3_reduce
I0403 15:43:31.396330 14260 net.cpp:91] Creating Layer inception_4a/relu_3x3_reduce
I0403 15:43:31.396347 14260 net.cpp:425] inception_4a/relu_3x3_reduce <- inception_4a/3x3_reduce
I0403 15:43:31.396366 14260 net.cpp:386] inception_4a/relu_3x3_reduce -> inception_4a/3x3_reduce (in-place)
I0403 15:43:31.396548 14260 net.cpp:141] Setting up inception_4a/relu_3x3_reduce
I0403 15:43:31.396574 14260 net.cpp:148] Top shape: 24 96 14 14 (451584)
I0403 15:43:31.396589 14260 net.cpp:156] Memory required for data: 865236000
I0403 15:43:31.396603 14260 layer_factory.hpp:77] Creating layer inception_4a/3x3
I0403 15:43:31.396625 14260 net.cpp:91] Creating Layer inception_4a/3x3
I0403 15:43:31.396642 14260 net.cpp:425] inception_4a/3x3 <- inception_4a/3x3_reduce
I0403 15:43:31.396663 14260 net.cpp:399] inception_4a/3x3 -> inception_4a/3x3
I0403 15:43:31.399338 14260 net.cpp:141] Setting up inception_4a/3x3
I0403 15:43:31.399369 14260 net.cpp:148] Top shape: 24 208 14 14 (978432)
I0403 15:43:31.399384 14260 net.cpp:156] Memory required for data: 869149728
I0403 15:43:31.399407 14260 layer_factory.hpp:77] Creating layer inception_4a/relu_3x3
I0403 15:43:31.399427 14260 net.cpp:91] Creating Layer inception_4a/relu_3x3
I0403 15:43:31.399444 14260 net.cpp:425] inception_4a/relu_3x3 <- inception_4a/3x3
I0403 15:43:31.399462 14260 net.cpp:386] inception_4a/relu_3x3 -> inception_4a/3x3 (in-place)
I0403 15:43:31.399740 14260 net.cpp:141] Setting up inception_4a/relu_3x3
I0403 15:43:31.399767 14260 net.cpp:148] Top shape: 24 208 14 14 (978432)
I0403 15:43:31.399782 14260 net.cpp:156] Memory required for data: 873063456
I0403 15:43:31.399796 14260 layer_factory.hpp:77] Creating layer inception_4a/5x5_reduce
I0403 15:43:31.399821 14260 net.cpp:91] Creating Layer inception_4a/5x5_reduce
I0403 15:43:31.399838 14260 net.cpp:425] inception_4a/5x5_reduce <- pool3/3x3_s2_pool3/3x3_s2_0_split_2
I0403 15:43:31.399858 14260 net.cpp:399] inception_4a/5x5_reduce -> inception_4a/5x5_reduce
I0403 15:43:31.400892 14260 net.cpp:141] Setting up inception_4a/5x5_reduce
I0403 15:43:31.400921 14260 net.cpp:148] Top shape: 24 16 14 14 (75264)
I0403 15:43:31.400938 14260 net.cpp:156] Memory required for data: 873364512
I0403 15:43:31.400956 14260 layer_factory.hpp:77] Creating layer inception_4a/relu_5x5_reduce
I0403 15:43:31.400974 14260 net.cpp:91] Creating Layer inception_4a/relu_5x5_reduce
I0403 15:43:31.400991 14260 net.cpp:425] inception_4a/relu_5x5_reduce <- inception_4a/5x5_reduce
I0403 15:43:31.401011 14260 net.cpp:386] inception_4a/relu_5x5_reduce -> inception_4a/5x5_reduce (in-place)
I0403 15:43:31.401196 14260 net.cpp:141] Setting up inception_4a/relu_5x5_reduce
I0403 15:43:31.401221 14260 net.cpp:148] Top shape: 24 16 14 14 (75264)
I0403 15:43:31.401237 14260 net.cpp:156] Memory required for data: 873665568
I0403 15:43:31.401252 14260 layer_factory.hpp:77] Creating layer inception_4a/5x5
I0403 15:43:31.401273 14260 net.cpp:91] Creating Layer inception_4a/5x5
I0403 15:43:31.401291 14260 net.cpp:425] inception_4a/5x5 <- inception_4a/5x5_reduce
I0403 15:43:31.401312 14260 net.cpp:399] inception_4a/5x5 -> inception_4a/5x5
I0403 15:43:31.402408 14260 net.cpp:141] Setting up inception_4a/5x5
I0403 15:43:31.402436 14260 net.cpp:148] Top shape: 24 48 14 14 (225792)
I0403 15:43:31.402452 14260 net.cpp:156] Memory required for data: 874568736
I0403 15:43:31.402470 14260 layer_factory.hpp:77] Creating layer inception_4a/relu_5x5
I0403 15:43:31.402490 14260 net.cpp:91] Creating Layer inception_4a/relu_5x5
I0403 15:43:31.402509 14260 net.cpp:425] inception_4a/relu_5x5 <- inception_4a/5x5
I0403 15:43:31.402528 14260 net.cpp:386] inception_4a/relu_5x5 -> inception_4a/5x5 (in-place)
I0403 15:43:31.402706 14260 net.cpp:141] Setting up inception_4a/relu_5x5
I0403 15:43:31.402732 14260 net.cpp:148] Top shape: 24 48 14 14 (225792)
I0403 15:43:31.402746 14260 net.cpp:156] Memory required for data: 875471904
I0403 15:43:31.402761 14260 layer_factory.hpp:77] Creating layer inception_4a/pool
I0403 15:43:31.402781 14260 net.cpp:91] Creating Layer inception_4a/pool
I0403 15:43:31.402798 14260 net.cpp:425] inception_4a/pool <- pool3/3x3_s2_pool3/3x3_s2_0_split_3
I0403 15:43:31.402815 14260 net.cpp:399] inception_4a/pool -> inception_4a/pool
I0403 15:43:31.402878 14260 net.cpp:141] Setting up inception_4a/pool
I0403 15:43:31.402901 14260 net.cpp:148] Top shape: 24 480 14 14 (2257920)
I0403 15:43:31.402916 14260 net.cpp:156] Memory required for data: 884503584
I0403 15:43:31.402931 14260 layer_factory.hpp:77] Creating layer inception_4a/pool_proj
I0403 15:43:31.402952 14260 net.cpp:91] Creating Layer inception_4a/pool_proj
I0403 15:43:31.402969 14260 net.cpp:425] inception_4a/pool_proj <- inception_4a/pool
I0403 15:43:31.402990 14260 net.cpp:399] inception_4a/pool_proj -> inception_4a/pool_proj
I0403 15:43:31.404173 14260 net.cpp:141] Setting up inception_4a/pool_proj
I0403 15:43:31.404203 14260 net.cpp:148] Top shape: 24 64 14 14 (301056)
I0403 15:43:31.404235 14260 net.cpp:156] Memory required for data: 885707808
I0403 15:43:31.404255 14260 layer_factory.hpp:77] Creating layer inception_4a/relu_pool_proj
I0403 15:43:31.404279 14260 net.cpp:91] Creating Layer inception_4a/relu_pool_proj
I0403 15:43:31.404297 14260 net.cpp:425] inception_4a/relu_pool_proj <- inception_4a/pool_proj
I0403 15:43:31.404315 14260 net.cpp:386] inception_4a/relu_pool_proj -> inception_4a/pool_proj (in-place)
I0403 15:43:31.404599 14260 net.cpp:141] Setting up inception_4a/relu_pool_proj
I0403 15:43:31.404628 14260 net.cpp:148] Top shape: 24 64 14 14 (301056)
I0403 15:43:31.404642 14260 net.cpp:156] Memory required for data: 886912032
I0403 15:43:31.404657 14260 layer_factory.hpp:77] Creating layer inception_4a/output
I0403 15:43:31.404685 14260 net.cpp:91] Creating Layer inception_4a/output
I0403 15:43:31.404700 14260 net.cpp:425] inception_4a/output <- inception_4a/1x1
I0403 15:43:31.404718 14260 net.cpp:425] inception_4a/output <- inception_4a/3x3
I0403 15:43:31.404736 14260 net.cpp:425] inception_4a/output <- inception_4a/5x5
I0403 15:43:31.404752 14260 net.cpp:425] inception_4a/output <- inception_4a/pool_proj
I0403 15:43:31.404769 14260 net.cpp:399] inception_4a/output -> inception_4a/output
I0403 15:43:31.404814 14260 net.cpp:141] Setting up inception_4a/output
I0403 15:43:31.404839 14260 net.cpp:148] Top shape: 24 512 14 14 (2408448)
I0403 15:43:31.404855 14260 net.cpp:156] Memory required for data: 896545824
I0403 15:43:31.404870 14260 layer_factory.hpp:77] Creating layer inception_4a/output_inception_4a/output_0_split
I0403 15:43:31.404888 14260 net.cpp:91] Creating Layer inception_4a/output_inception_4a/output_0_split
I0403 15:43:31.404902 14260 net.cpp:425] inception_4a/output_inception_4a/output_0_split <- inception_4a/output
I0403 15:43:31.404922 14260 net.cpp:399] inception_4a/output_inception_4a/output_0_split -> inception_4a/output_inception_4a/output_0_split_0
I0403 15:43:31.404944 14260 net.cpp:399] inception_4a/output_inception_4a/output_0_split -> inception_4a/output_inception_4a/output_0_split_1
I0403 15:43:31.404965 14260 net.cpp:399] inception_4a/output_inception_4a/output_0_split -> inception_4a/output_inception_4a/output_0_split_2
I0403 15:43:31.404985 14260 net.cpp:399] inception_4a/output_inception_4a/output_0_split -> inception_4a/output_inception_4a/output_0_split_3
I0403 15:43:31.405006 14260 net.cpp:399] inception_4a/output_inception_4a/output_0_split -> inception_4a/output_inception_4a/output_0_split_4
I0403 15:43:31.405098 14260 net.cpp:141] Setting up inception_4a/output_inception_4a/output_0_split
I0403 15:43:31.405123 14260 net.cpp:148] Top shape: 24 512 14 14 (2408448)
I0403 15:43:31.405148 14260 net.cpp:148] Top shape: 24 512 14 14 (2408448)
I0403 15:43:31.405165 14260 net.cpp:148] Top shape: 24 512 14 14 (2408448)
I0403 15:43:31.405180 14260 net.cpp:148] Top shape: 24 512 14 14 (2408448)
I0403 15:43:31.405197 14260 net.cpp:148] Top shape: 24 512 14 14 (2408448)
I0403 15:43:31.405211 14260 net.cpp:156] Memory required for data: 944714784
I0403 15:43:31.405226 14260 layer_factory.hpp:77] Creating layer loss1/ave_pool
I0403 15:43:31.405243 14260 net.cpp:91] Creating Layer loss1/ave_pool
I0403 15:43:31.405259 14260 net.cpp:425] loss1/ave_pool <- inception_4a/output_inception_4a/output_0_split_0
I0403 15:43:31.405280 14260 net.cpp:399] loss1/ave_pool -> loss1/ave_pool
I0403 15:43:31.405488 14260 net.cpp:141] Setting up loss1/ave_pool
I0403 15:43:31.405514 14260 net.cpp:148] Top shape: 24 512 4 4 (196608)
I0403 15:43:31.405529 14260 net.cpp:156] Memory required for data: 945501216
I0403 15:43:31.405544 14260 layer_factory.hpp:77] Creating layer loss1/conv
I0403 15:43:31.405566 14260 net.cpp:91] Creating Layer loss1/conv
I0403 15:43:31.405585 14260 net.cpp:425] loss1/conv <- loss1/ave_pool
I0403 15:43:31.405604 14260 net.cpp:399] loss1/conv -> loss1/conv
I0403 15:43:31.407012 14260 net.cpp:141] Setting up loss1/conv
I0403 15:43:31.407042 14260 net.cpp:148] Top shape: 24 128 4 4 (49152)
I0403 15:43:31.407057 14260 net.cpp:156] Memory required for data: 945697824
I0403 15:43:31.407089 14260 layer_factory.hpp:77] Creating layer loss1/relu_conv
I0403 15:43:31.407112 14260 net.cpp:91] Creating Layer loss1/relu_conv
I0403 15:43:31.407133 14260 net.cpp:425] loss1/relu_conv <- loss1/conv
I0403 15:43:31.407152 14260 net.cpp:386] loss1/relu_conv -> loss1/conv (in-place)
I0403 15:43:31.407438 14260 net.cpp:141] Setting up loss1/relu_conv
I0403 15:43:31.407465 14260 net.cpp:148] Top shape: 24 128 4 4 (49152)
I0403 15:43:31.407480 14260 net.cpp:156] Memory required for data: 945894432
I0403 15:43:31.407495 14260 layer_factory.hpp:77] Creating layer loss1/fc
I0403 15:43:31.407519 14260 net.cpp:91] Creating Layer loss1/fc
I0403 15:43:31.407538 14260 net.cpp:425] loss1/fc <- loss1/conv
I0403 15:43:31.407559 14260 net.cpp:399] loss1/fc -> loss1/fc
I0403 15:43:31.425273 14260 net.cpp:141] Setting up loss1/fc
I0403 15:43:31.425308 14260 net.cpp:148] Top shape: 24 1024 (24576)
I0403 15:43:31.425324 14260 net.cpp:156] Memory required for data: 945992736
I0403 15:43:31.425343 14260 layer_factory.hpp:77] Creating layer loss1/relu_fc
I0403 15:43:31.425360 14260 net.cpp:91] Creating Layer loss1/relu_fc
I0403 15:43:31.425376 14260 net.cpp:425] loss1/relu_fc <- loss1/fc
I0403 15:43:31.425395 14260 net.cpp:386] loss1/relu_fc -> loss1/fc (in-place)
I0403 15:43:31.425580 14260 net.cpp:141] Setting up loss1/relu_fc
I0403 15:43:31.425608 14260 net.cpp:148] Top shape: 24 1024 (24576)
I0403 15:43:31.425624 14260 net.cpp:156] Memory required for data: 946091040
I0403 15:43:31.425639 14260 layer_factory.hpp:77] Creating layer loss1/drop_fc
I0403 15:43:31.425662 14260 net.cpp:91] Creating Layer loss1/drop_fc
I0403 15:43:31.425680 14260 net.cpp:425] loss1/drop_fc <- loss1/fc
I0403 15:43:31.425698 14260 net.cpp:386] loss1/drop_fc -> loss1/fc (in-place)
I0403 15:43:31.425751 14260 net.cpp:141] Setting up loss1/drop_fc
I0403 15:43:31.425775 14260 net.cpp:148] Top shape: 24 1024 (24576)
I0403 15:43:31.425789 14260 net.cpp:156] Memory required for data: 946189344
I0403 15:43:31.425804 14260 layer_factory.hpp:77] Creating layer loss1/classifier_plantvillage
I0403 15:43:31.425822 14260 net.cpp:91] Creating Layer loss1/classifier_plantvillage
I0403 15:43:31.425837 14260 net.cpp:425] loss1/classifier_plantvillage <- loss1/fc
I0403 15:43:31.425858 14260 net.cpp:399] loss1/classifier_plantvillage -> loss1/classifier_plantvillage
I0403 15:43:31.426743 14260 net.cpp:141] Setting up loss1/classifier_plantvillage
I0403 15:43:31.426771 14260 net.cpp:148] Top shape: 24 38 (912)
I0403 15:43:31.426786 14260 net.cpp:156] Memory required for data: 946192992
I0403 15:43:31.426803 14260 layer_factory.hpp:77] Creating layer loss1/classifier_plantvillage_loss1/classifier_plantvillage_0_split
I0403 15:43:31.426823 14260 net.cpp:91] Creating Layer loss1/classifier_plantvillage_loss1/classifier_plantvillage_0_split
I0403 15:43:31.426841 14260 net.cpp:425] loss1/classifier_plantvillage_loss1/classifier_plantvillage_0_split <- loss1/classifier_plantvillage
I0403 15:43:31.426857 14260 net.cpp:399] loss1/classifier_plantvillage_loss1/classifier_plantvillage_0_split -> loss1/classifier_plantvillage_loss1/classifier_plantvillage_0_split_0
I0403 15:43:31.426877 14260 net.cpp:399] loss1/classifier_plantvillage_loss1/classifier_plantvillage_0_split -> loss1/classifier_plantvillage_loss1/classifier_plantvillage_0_split_1
I0403 15:43:31.426898 14260 net.cpp:399] loss1/classifier_plantvillage_loss1/classifier_plantvillage_0_split -> loss1/classifier_plantvillage_loss1/classifier_plantvillage_0_split_2
I0403 15:43:31.426964 14260 net.cpp:141] Setting up loss1/classifier_plantvillage_loss1/classifier_plantvillage_0_split
I0403 15:43:31.426988 14260 net.cpp:148] Top shape: 24 38 (912)
I0403 15:43:31.427003 14260 net.cpp:148] Top shape: 24 38 (912)
I0403 15:43:31.427017 14260 net.cpp:148] Top shape: 24 38 (912)
I0403 15:43:31.427031 14260 net.cpp:156] Memory required for data: 946203936
I0403 15:43:31.427045 14260 layer_factory.hpp:77] Creating layer inception_4b/1x1
I0403 15:43:31.427067 14260 net.cpp:91] Creating Layer inception_4b/1x1
I0403 15:43:31.427103 14260 net.cpp:425] inception_4b/1x1 <- inception_4a/output_inception_4a/output_0_split_1
I0403 15:43:31.427121 14260 net.cpp:399] inception_4b/1x1 -> inception_4b/1x1
I0403 15:43:31.428725 14260 net.cpp:141] Setting up inception_4b/1x1
I0403 15:43:31.428755 14260 net.cpp:148] Top shape: 24 160 14 14 (752640)
I0403 15:43:31.428771 14260 net.cpp:156] Memory required for data: 949214496
I0403 15:43:31.428791 14260 layer_factory.hpp:77] Creating layer inception_4b/relu_1x1
I0403 15:43:31.428809 14260 net.cpp:91] Creating Layer inception_4b/relu_1x1
I0403 15:43:31.428824 14260 net.cpp:425] inception_4b/relu_1x1 <- inception_4b/1x1
I0403 15:43:31.428841 14260 net.cpp:386] inception_4b/relu_1x1 -> inception_4b/1x1 (in-place)
I0403 15:43:31.429023 14260 net.cpp:141] Setting up inception_4b/relu_1x1
I0403 15:43:31.429049 14260 net.cpp:148] Top shape: 24 160 14 14 (752640)
I0403 15:43:31.429062 14260 net.cpp:156] Memory required for data: 952225056
I0403 15:43:31.429076 14260 layer_factory.hpp:77] Creating layer inception_4b/3x3_reduce
I0403 15:43:31.429100 14260 net.cpp:91] Creating Layer inception_4b/3x3_reduce
I0403 15:43:31.429119 14260 net.cpp:425] inception_4b/3x3_reduce <- inception_4a/output_inception_4a/output_0_split_2
I0403 15:43:31.429147 14260 net.cpp:399] inception_4b/3x3_reduce -> inception_4b/3x3_reduce
I0403 15:43:31.430482 14260 net.cpp:141] Setting up inception_4b/3x3_reduce
I0403 15:43:31.430510 14260 net.cpp:148] Top shape: 24 112 14 14 (526848)
I0403 15:43:31.430524 14260 net.cpp:156] Memory required for data: 954332448
I0403 15:43:31.430543 14260 layer_factory.hpp:77] Creating layer inception_4b/relu_3x3_reduce
I0403 15:43:31.430562 14260 net.cpp:91] Creating Layer inception_4b/relu_3x3_reduce
I0403 15:43:31.430577 14260 net.cpp:425] inception_4b/relu_3x3_reduce <- inception_4b/3x3_reduce
I0403 15:43:31.430595 14260 net.cpp:386] inception_4b/relu_3x3_reduce -> inception_4b/3x3_reduce (in-place)
I0403 15:43:31.430877 14260 net.cpp:141] Setting up inception_4b/relu_3x3_reduce
I0403 15:43:31.430904 14260 net.cpp:148] Top shape: 24 112 14 14 (526848)
I0403 15:43:31.430930 14260 net.cpp:156] Memory required for data: 956439840
I0403 15:43:31.430946 14260 layer_factory.hpp:77] Creating layer inception_4b/3x3
I0403 15:43:31.430968 14260 net.cpp:91] Creating Layer inception_4b/3x3
I0403 15:43:31.430987 14260 net.cpp:425] inception_4b/3x3 <- inception_4b/3x3_reduce
I0403 15:43:31.431008 14260 net.cpp:399] inception_4b/3x3 -> inception_4b/3x3
I0403 15:43:31.433957 14260 net.cpp:141] Setting up inception_4b/3x3
I0403 15:43:31.433986 14260 net.cpp:148] Top shape: 24 224 14 14 (1053696)
I0403 15:43:31.434002 14260 net.cpp:156] Memory required for data: 960654624
I0403 15:43:31.434020 14260 layer_factory.hpp:77] Creating layer inception_4b/relu_3x3
I0403 15:43:31.434041 14260 net.cpp:91] Creating Layer inception_4b/relu_3x3
I0403 15:43:31.434057 14260 net.cpp:425] inception_4b/relu_3x3 <- inception_4b/3x3
I0403 15:43:31.434074 14260 net.cpp:386] inception_4b/relu_3x3 -> inception_4b/3x3 (in-place)
I0403 15:43:31.434259 14260 net.cpp:141] Setting up inception_4b/relu_3x3
I0403 15:43:31.434288 14260 net.cpp:148] Top shape: 24 224 14 14 (1053696)
I0403 15:43:31.434303 14260 net.cpp:156] Memory required for data: 964869408
I0403 15:43:31.434319 14260 layer_factory.hpp:77] Creating layer inception_4b/5x5_reduce
I0403 15:43:31.434340 14260 net.cpp:91] Creating Layer inception_4b/5x5_reduce
I0403 15:43:31.434358 14260 net.cpp:425] inception_4b/5x5_reduce <- inception_4a/output_inception_4a/output_0_split_3
I0403 15:43:31.434377 14260 net.cpp:399] inception_4b/5x5_reduce -> inception_4b/5x5_reduce
I0403 15:43:31.435461 14260 net.cpp:141] Setting up inception_4b/5x5_reduce
I0403 15:43:31.435495 14260 net.cpp:148] Top shape: 24 24 14 14 (112896)
I0403 15:43:31.435511 14260 net.cpp:156] Memory required for data: 965320992
I0403 15:43:31.435530 14260 layer_factory.hpp:77] Creating layer inception_4b/relu_5x5_reduce
I0403 15:43:31.435547 14260 net.cpp:91] Creating Layer inception_4b/relu_5x5_reduce
I0403 15:43:31.435578 14260 net.cpp:425] inception_4b/relu_5x5_reduce <- inception_4b/5x5_reduce
I0403 15:43:31.435600 14260 net.cpp:386] inception_4b/relu_5x5_reduce -> inception_4b/5x5_reduce (in-place)
I0403 15:43:31.435791 14260 net.cpp:141] Setting up inception_4b/relu_5x5_reduce
I0403 15:43:31.435817 14260 net.cpp:148] Top shape: 24 24 14 14 (112896)
I0403 15:43:31.435832 14260 net.cpp:156] Memory required for data: 965772576
I0403 15:43:31.435847 14260 layer_factory.hpp:77] Creating layer inception_4b/5x5
I0403 15:43:31.435868 14260 net.cpp:91] Creating Layer inception_4b/5x5
I0403 15:43:31.435886 14260 net.cpp:425] inception_4b/5x5 <- inception_4b/5x5_reduce
I0403 15:43:31.435907 14260 net.cpp:399] inception_4b/5x5 -> inception_4b/5x5
I0403 15:43:31.437103 14260 net.cpp:141] Setting up inception_4b/5x5
I0403 15:43:31.437134 14260 net.cpp:148] Top shape: 24 64 14 14 (301056)
I0403 15:43:31.437151 14260 net.cpp:156] Memory required for data: 966976800
I0403 15:43:31.437170 14260 layer_factory.hpp:77] Creating layer inception_4b/relu_5x5
I0403 15:43:31.437191 14260 net.cpp:91] Creating Layer inception_4b/relu_5x5
I0403 15:43:31.437208 14260 net.cpp:425] inception_4b/relu_5x5 <- inception_4b/5x5
I0403 15:43:31.437224 14260 net.cpp:386] inception_4b/relu_5x5 -> inception_4b/5x5 (in-place)
I0403 15:43:31.437502 14260 net.cpp:141] Setting up inception_4b/relu_5x5
I0403 15:43:31.437528 14260 net.cpp:148] Top shape: 24 64 14 14 (301056)
I0403 15:43:31.437543 14260 net.cpp:156] Memory required for data: 968181024
I0403 15:43:31.437557 14260 layer_factory.hpp:77] Creating layer inception_4b/pool
I0403 15:43:31.437577 14260 net.cpp:91] Creating Layer inception_4b/pool
I0403 15:43:31.437594 14260 net.cpp:425] inception_4b/pool <- inception_4a/output_inception_4a/output_0_split_4
I0403 15:43:31.437615 14260 net.cpp:399] inception_4b/pool -> inception_4b/pool
I0403 15:43:31.437677 14260 net.cpp:141] Setting up inception_4b/pool
I0403 15:43:31.437701 14260 net.cpp:148] Top shape: 24 512 14 14 (2408448)
I0403 15:43:31.437716 14260 net.cpp:156] Memory required for data: 977814816
I0403 15:43:31.437731 14260 layer_factory.hpp:77] Creating layer inception_4b/pool_proj
I0403 15:43:31.437752 14260 net.cpp:91] Creating Layer inception_4b/pool_proj
I0403 15:43:31.437767 14260 net.cpp:425] inception_4b/pool_proj <- inception_4b/pool
I0403 15:43:31.437788 14260 net.cpp:399] inception_4b/pool_proj -> inception_4b/pool_proj
I0403 15:43:31.438963 14260 net.cpp:141] Setting up inception_4b/pool_proj
I0403 15:43:31.438997 14260 net.cpp:148] Top shape: 24 64 14 14 (301056)
I0403 15:43:31.439013 14260 net.cpp:156] Memory required for data: 979019040
I0403 15:43:31.439030 14260 layer_factory.hpp:77] Creating layer inception_4b/relu_pool_proj
I0403 15:43:31.439048 14260 net.cpp:91] Creating Layer inception_4b/relu_pool_proj
I0403 15:43:31.439062 14260 net.cpp:425] inception_4b/relu_pool_proj <- inception_4b/pool_proj
I0403 15:43:31.439081 14260 net.cpp:386] inception_4b/relu_pool_proj -> inception_4b/pool_proj (in-place)
I0403 15:43:31.439262 14260 net.cpp:141] Setting up inception_4b/relu_pool_proj
I0403 15:43:31.439287 14260 net.cpp:148] Top shape: 24 64 14 14 (301056)
I0403 15:43:31.439302 14260 net.cpp:156] Memory required for data: 980223264
I0403 15:43:31.439317 14260 layer_factory.hpp:77] Creating layer inception_4b/output
I0403 15:43:31.439335 14260 net.cpp:91] Creating Layer inception_4b/output
I0403 15:43:31.439349 14260 net.cpp:425] inception_4b/output <- inception_4b/1x1
I0403 15:43:31.439364 14260 net.cpp:425] inception_4b/output <- inception_4b/3x3
I0403 15:43:31.439379 14260 net.cpp:425] inception_4b/output <- inception_4b/5x5
I0403 15:43:31.439395 14260 net.cpp:425] inception_4b/output <- inception_4b/pool_proj
I0403 15:43:31.439414 14260 net.cpp:399] inception_4b/output -> inception_4b/output
I0403 15:43:31.439458 14260 net.cpp:141] Setting up inception_4b/output
I0403 15:43:31.439484 14260 net.cpp:148] Top shape: 24 512 14 14 (2408448)
I0403 15:43:31.439499 14260 net.cpp:156] Memory required for data: 989857056
I0403 15:43:31.439528 14260 layer_factory.hpp:77] Creating layer inception_4b/output_inception_4b/output_0_split
I0403 15:43:31.439546 14260 net.cpp:91] Creating Layer inception_4b/output_inception_4b/output_0_split
I0403 15:43:31.439563 14260 net.cpp:425] inception_4b/output_inception_4b/output_0_split <- inception_4b/output
I0403 15:43:31.439579 14260 net.cpp:399] inception_4b/output_inception_4b/output_0_split -> inception_4b/output_inception_4b/output_0_split_0
I0403 15:43:31.439599 14260 net.cpp:399] inception_4b/output_inception_4b/output_0_split -> inception_4b/output_inception_4b/output_0_split_1
I0403 15:43:31.439621 14260 net.cpp:399] inception_4b/output_inception_4b/output_0_split -> inception_4b/output_inception_4b/output_0_split_2
I0403 15:43:31.439640 14260 net.cpp:399] inception_4b/output_inception_4b/output_0_split -> inception_4b/output_inception_4b/output_0_split_3
I0403 15:43:31.439723 14260 net.cpp:141] Setting up inception_4b/output_inception_4b/output_0_split
I0403 15:43:31.439746 14260 net.cpp:148] Top shape: 24 512 14 14 (2408448)
I0403 15:43:31.439762 14260 net.cpp:148] Top shape: 24 512 14 14 (2408448)
I0403 15:43:31.439779 14260 net.cpp:148] Top shape: 24 512 14 14 (2408448)
I0403 15:43:31.439792 14260 net.cpp:148] Top shape: 24 512 14 14 (2408448)
I0403 15:43:31.439805 14260 net.cpp:156] Memory required for data: 1028392224
I0403 15:43:31.439818 14260 layer_factory.hpp:77] Creating layer inception_4c/1x1
I0403 15:43:31.439841 14260 net.cpp:91] Creating Layer inception_4c/1x1
I0403 15:43:31.439858 14260 net.cpp:425] inception_4c/1x1 <- inception_4b/output_inception_4b/output_0_split_0
I0403 15:43:31.439875 14260 net.cpp:399] inception_4c/1x1 -> inception_4c/1x1
I0403 15:43:31.441274 14260 net.cpp:141] Setting up inception_4c/1x1
I0403 15:43:31.441303 14260 net.cpp:148] Top shape: 24 128 14 14 (602112)
I0403 15:43:31.441316 14260 net.cpp:156] Memory required for data: 1030800672
I0403 15:43:31.441334 14260 layer_factory.hpp:77] Creating layer inception_4c/relu_1x1
I0403 15:43:31.441351 14260 net.cpp:91] Creating Layer inception_4c/relu_1x1
I0403 15:43:31.441366 14260 net.cpp:425] inception_4c/relu_1x1 <- inception_4c/1x1
I0403 15:43:31.441385 14260 net.cpp:386] inception_4c/relu_1x1 -> inception_4c/1x1 (in-place)
I0403 15:43:31.441565 14260 net.cpp:141] Setting up inception_4c/relu_1x1
I0403 15:43:31.441591 14260 net.cpp:148] Top shape: 24 128 14 14 (602112)
I0403 15:43:31.441604 14260 net.cpp:156] Memory required for data: 1033209120
I0403 15:43:31.441619 14260 layer_factory.hpp:77] Creating layer inception_4c/3x3_reduce
I0403 15:43:31.441642 14260 net.cpp:91] Creating Layer inception_4c/3x3_reduce
I0403 15:43:31.441658 14260 net.cpp:425] inception_4c/3x3_reduce <- inception_4b/output_inception_4b/output_0_split_1
I0403 15:43:31.441679 14260 net.cpp:399] inception_4c/3x3_reduce -> inception_4c/3x3_reduce
I0403 15:43:31.443574 14260 net.cpp:141] Setting up inception_4c/3x3_reduce
I0403 15:43:31.443605 14260 net.cpp:148] Top shape: 24 128 14 14 (602112)
I0403 15:43:31.443624 14260 net.cpp:156] Memory required for data: 1035617568
I0403 15:43:31.443641 14260 layer_factory.hpp:77] Creating layer inception_4c/relu_3x3_reduce
I0403 15:43:31.443658 14260 net.cpp:91] Creating Layer inception_4c/relu_3x3_reduce
I0403 15:43:31.443673 14260 net.cpp:425] inception_4c/relu_3x3_reduce <- inception_4c/3x3_reduce
I0403 15:43:31.443689 14260 net.cpp:386] inception_4c/relu_3x3_reduce -> inception_4c/3x3_reduce (in-place)
I0403 15:43:31.443969 14260 net.cpp:141] Setting up inception_4c/relu_3x3_reduce
I0403 15:43:31.443999 14260 net.cpp:148] Top shape: 24 128 14 14 (602112)
I0403 15:43:31.444012 14260 net.cpp:156] Memory required for data: 1038026016
I0403 15:43:31.444028 14260 layer_factory.hpp:77] Creating layer inception_4c/3x3
I0403 15:43:31.444051 14260 net.cpp:91] Creating Layer inception_4c/3x3
I0403 15:43:31.444069 14260 net.cpp:425] inception_4c/3x3 <- inception_4c/3x3_reduce
I0403 15:43:31.444087 14260 net.cpp:399] inception_4c/3x3 -> inception_4c/3x3
I0403 15:43:31.447613 14260 net.cpp:141] Setting up inception_4c/3x3
I0403 15:43:31.447655 14260 net.cpp:148] Top shape: 24 256 14 14 (1204224)
I0403 15:43:31.447674 14260 net.cpp:156] Memory required for data: 1042842912
I0403 15:43:31.447705 14260 layer_factory.hpp:77] Creating layer inception_4c/relu_3x3
I0403 15:43:31.447724 14260 net.cpp:91] Creating Layer inception_4c/relu_3x3
I0403 15:43:31.447741 14260 net.cpp:425] inception_4c/relu_3x3 <- inception_4c/3x3
I0403 15:43:31.447758 14260 net.cpp:386] inception_4c/relu_3x3 -> inception_4c/3x3 (in-place)
I0403 15:43:31.447937 14260 net.cpp:141] Setting up inception_4c/relu_3x3
I0403 15:43:31.447964 14260 net.cpp:148] Top shape: 24 256 14 14 (1204224)
I0403 15:43:31.447979 14260 net.cpp:156] Memory required for data: 1047659808
I0403 15:43:31.447994 14260 layer_factory.hpp:77] Creating layer inception_4c/5x5_reduce
I0403 15:43:31.448016 14260 net.cpp:91] Creating Layer inception_4c/5x5_reduce
I0403 15:43:31.448035 14260 net.cpp:425] inception_4c/5x5_reduce <- inception_4b/output_inception_4b/output_0_split_2
I0403 15:43:31.448053 14260 net.cpp:399] inception_4c/5x5_reduce -> inception_4c/5x5_reduce
I0403 15:43:31.449128 14260 net.cpp:141] Setting up inception_4c/5x5_reduce
I0403 15:43:31.449158 14260 net.cpp:148] Top shape: 24 24 14 14 (112896)
I0403 15:43:31.449174 14260 net.cpp:156] Memory required for data: 1048111392
I0403 15:43:31.449193 14260 layer_factory.hpp:77] Creating layer inception_4c/relu_5x5_reduce
I0403 15:43:31.449209 14260 net.cpp:91] Creating Layer inception_4c/relu_5x5_reduce
I0403 15:43:31.449224 14260 net.cpp:425] inception_4c/relu_5x5_reduce <- inception_4c/5x5_reduce
I0403 15:43:31.449240 14260 net.cpp:386] inception_4c/relu_5x5_reduce -> inception_4c/5x5_reduce (in-place)
I0403 15:43:31.449426 14260 net.cpp:141] Setting up inception_4c/relu_5x5_reduce
I0403 15:43:31.449451 14260 net.cpp:148] Top shape: 24 24 14 14 (112896)
I0403 15:43:31.449466 14260 net.cpp:156] Memory required for data: 1048562976
I0403 15:43:31.449481 14260 layer_factory.hpp:77] Creating layer inception_4c/5x5
I0403 15:43:31.449502 14260 net.cpp:91] Creating Layer inception_4c/5x5
I0403 15:43:31.449519 14260 net.cpp:425] inception_4c/5x5 <- inception_4c/5x5_reduce
I0403 15:43:31.449539 14260 net.cpp:399] inception_4c/5x5 -> inception_4c/5x5
I0403 15:43:31.450757 14260 net.cpp:141] Setting up inception_4c/5x5
I0403 15:43:31.450785 14260 net.cpp:148] Top shape: 24 64 14 14 (301056)
I0403 15:43:31.450800 14260 net.cpp:156] Memory required for data: 1049767200
I0403 15:43:31.450819 14260 layer_factory.hpp:77] Creating layer inception_4c/relu_5x5
I0403 15:43:31.450836 14260 net.cpp:91] Creating Layer inception_4c/relu_5x5
I0403 15:43:31.450851 14260 net.cpp:425] inception_4c/relu_5x5 <- inception_4c/5x5
I0403 15:43:31.450871 14260 net.cpp:386] inception_4c/relu_5x5 -> inception_4c/5x5 (in-place)
I0403 15:43:31.451155 14260 net.cpp:141] Setting up inception_4c/relu_5x5
I0403 15:43:31.451182 14260 net.cpp:148] Top shape: 24 64 14 14 (301056)
I0403 15:43:31.451198 14260 net.cpp:156] Memory required for data: 1050971424
I0403 15:43:31.451211 14260 layer_factory.hpp:77] Creating layer inception_4c/pool
I0403 15:43:31.451230 14260 net.cpp:91] Creating Layer inception_4c/pool
I0403 15:43:31.451244 14260 net.cpp:425] inception_4c/pool <- inception_4b/output_inception_4b/output_0_split_3
I0403 15:43:31.451266 14260 net.cpp:399] inception_4c/pool -> inception_4c/pool
I0403 15:43:31.451329 14260 net.cpp:141] Setting up inception_4c/pool
I0403 15:43:31.451354 14260 net.cpp:148] Top shape: 24 512 14 14 (2408448)
I0403 15:43:31.451367 14260 net.cpp:156] Memory required for data: 1060605216
I0403 15:43:31.451380 14260 layer_factory.hpp:77] Creating layer inception_4c/pool_proj
I0403 15:43:31.451403 14260 net.cpp:91] Creating Layer inception_4c/pool_proj
I0403 15:43:31.451421 14260 net.cpp:425] inception_4c/pool_proj <- inception_4c/pool
I0403 15:43:31.451439 14260 net.cpp:399] inception_4c/pool_proj -> inception_4c/pool_proj
I0403 15:43:31.452633 14260 net.cpp:141] Setting up inception_4c/pool_proj
I0403 15:43:31.452662 14260 net.cpp:148] Top shape: 24 64 14 14 (301056)
I0403 15:43:31.452692 14260 net.cpp:156] Memory required for data: 1061809440
I0403 15:43:31.452710 14260 layer_factory.hpp:77] Creating layer inception_4c/relu_pool_proj
I0403 15:43:31.452728 14260 net.cpp:91] Creating Layer inception_4c/relu_pool_proj
I0403 15:43:31.452744 14260 net.cpp:425] inception_4c/relu_pool_proj <- inception_4c/pool_proj
I0403 15:43:31.452764 14260 net.cpp:386] inception_4c/relu_pool_proj -> inception_4c/pool_proj (in-place)
I0403 15:43:31.452945 14260 net.cpp:141] Setting up inception_4c/relu_pool_proj
I0403 15:43:31.452970 14260 net.cpp:148] Top shape: 24 64 14 14 (301056)
I0403 15:43:31.452986 14260 net.cpp:156] Memory required for data: 1063013664
I0403 15:43:31.452999 14260 layer_factory.hpp:77] Creating layer inception_4c/output
I0403 15:43:31.453016 14260 net.cpp:91] Creating Layer inception_4c/output
I0403 15:43:31.453030 14260 net.cpp:425] inception_4c/output <- inception_4c/1x1
I0403 15:43:31.453047 14260 net.cpp:425] inception_4c/output <- inception_4c/3x3
I0403 15:43:31.453063 14260 net.cpp:425] inception_4c/output <- inception_4c/5x5
I0403 15:43:31.453078 14260 net.cpp:425] inception_4c/output <- inception_4c/pool_proj
I0403 15:43:31.453096 14260 net.cpp:399] inception_4c/output -> inception_4c/output
I0403 15:43:31.453152 14260 net.cpp:141] Setting up inception_4c/output
I0403 15:43:31.453181 14260 net.cpp:148] Top shape: 24 512 14 14 (2408448)
I0403 15:43:31.453197 14260 net.cpp:156] Memory required for data: 1072647456
I0403 15:43:31.453212 14260 layer_factory.hpp:77] Creating layer inception_4c/output_inception_4c/output_0_split
I0403 15:43:31.453229 14260 net.cpp:91] Creating Layer inception_4c/output_inception_4c/output_0_split
I0403 15:43:31.453244 14260 net.cpp:425] inception_4c/output_inception_4c/output_0_split <- inception_4c/output
I0403 15:43:31.453261 14260 net.cpp:399] inception_4c/output_inception_4c/output_0_split -> inception_4c/output_inception_4c/output_0_split_0
I0403 15:43:31.453284 14260 net.cpp:399] inception_4c/output_inception_4c/output_0_split -> inception_4c/output_inception_4c/output_0_split_1
I0403 15:43:31.453306 14260 net.cpp:399] inception_4c/output_inception_4c/output_0_split -> inception_4c/output_inception_4c/output_0_split_2
I0403 15:43:31.453325 14260 net.cpp:399] inception_4c/output_inception_4c/output_0_split -> inception_4c/output_inception_4c/output_0_split_3
I0403 15:43:31.453410 14260 net.cpp:141] Setting up inception_4c/output_inception_4c/output_0_split
I0403 15:43:31.453433 14260 net.cpp:148] Top shape: 24 512 14 14 (2408448)
I0403 15:43:31.453449 14260 net.cpp:148] Top shape: 24 512 14 14 (2408448)
I0403 15:43:31.453464 14260 net.cpp:148] Top shape: 24 512 14 14 (2408448)
I0403 15:43:31.453479 14260 net.cpp:148] Top shape: 24 512 14 14 (2408448)
I0403 15:43:31.453492 14260 net.cpp:156] Memory required for data: 1111182624
I0403 15:43:31.453505 14260 layer_factory.hpp:77] Creating layer inception_4d/1x1
I0403 15:43:31.453526 14260 net.cpp:91] Creating Layer inception_4d/1x1
I0403 15:43:31.453544 14260 net.cpp:425] inception_4d/1x1 <- inception_4c/output_inception_4c/output_0_split_0
I0403 15:43:31.453565 14260 net.cpp:399] inception_4d/1x1 -> inception_4d/1x1
I0403 15:43:31.454918 14260 net.cpp:141] Setting up inception_4d/1x1
I0403 15:43:31.454946 14260 net.cpp:148] Top shape: 24 112 14 14 (526848)
I0403 15:43:31.454960 14260 net.cpp:156] Memory required for data: 1113290016
I0403 15:43:31.454978 14260 layer_factory.hpp:77] Creating layer inception_4d/relu_1x1
I0403 15:43:31.454998 14260 net.cpp:91] Creating Layer inception_4d/relu_1x1
I0403 15:43:31.455015 14260 net.cpp:425] inception_4d/relu_1x1 <- inception_4d/1x1
I0403 15:43:31.455031 14260 net.cpp:386] inception_4d/relu_1x1 -> inception_4d/1x1 (in-place)
I0403 15:43:31.455232 14260 net.cpp:141] Setting up inception_4d/relu_1x1
I0403 15:43:31.455260 14260 net.cpp:148] Top shape: 24 112 14 14 (526848)
I0403 15:43:31.455277 14260 net.cpp:156] Memory required for data: 1115397408
I0403 15:43:31.455291 14260 layer_factory.hpp:77] Creating layer inception_4d/3x3_reduce
I0403 15:43:31.455328 14260 net.cpp:91] Creating Layer inception_4d/3x3_reduce
I0403 15:43:31.455348 14260 net.cpp:425] inception_4d/3x3_reduce <- inception_4c/output_inception_4c/output_0_split_1
I0403 15:43:31.455368 14260 net.cpp:399] inception_4d/3x3_reduce -> inception_4d/3x3_reduce
I0403 15:43:31.456895 14260 net.cpp:141] Setting up inception_4d/3x3_reduce
I0403 15:43:31.456923 14260 net.cpp:148] Top shape: 24 144 14 14 (677376)
I0403 15:43:31.456939 14260 net.cpp:156] Memory required for data: 1118106912
I0403 15:43:31.456957 14260 layer_factory.hpp:77] Creating layer inception_4d/relu_3x3_reduce
I0403 15:43:31.456977 14260 net.cpp:91] Creating Layer inception_4d/relu_3x3_reduce
I0403 15:43:31.456995 14260 net.cpp:425] inception_4d/relu_3x3_reduce <- inception_4d/3x3_reduce
I0403 15:43:31.457012 14260 net.cpp:386] inception_4d/relu_3x3_reduce -> inception_4d/3x3_reduce (in-place)
I0403 15:43:31.457309 14260 net.cpp:141] Setting up inception_4d/relu_3x3_reduce
I0403 15:43:31.457336 14260 net.cpp:148] Top shape: 24 144 14 14 (677376)
I0403 15:43:31.457350 14260 net.cpp:156] Memory required for data: 1120816416
I0403 15:43:31.457365 14260 layer_factory.hpp:77] Creating layer inception_4d/3x3
I0403 15:43:31.457389 14260 net.cpp:91] Creating Layer inception_4d/3x3
I0403 15:43:31.457406 14260 net.cpp:425] inception_4d/3x3 <- inception_4d/3x3_reduce
I0403 15:43:31.457427 14260 net.cpp:399] inception_4d/3x3 -> inception_4d/3x3
I0403 15:43:31.461727 14260 net.cpp:141] Setting up inception_4d/3x3
I0403 15:43:31.461757 14260 net.cpp:148] Top shape: 24 288 14 14 (1354752)
I0403 15:43:31.461772 14260 net.cpp:156] Memory required for data: 1126235424
I0403 15:43:31.461789 14260 layer_factory.hpp:77] Creating layer inception_4d/relu_3x3
I0403 15:43:31.461810 14260 net.cpp:91] Creating Layer inception_4d/relu_3x3
I0403 15:43:31.461827 14260 net.cpp:425] inception_4d/relu_3x3 <- inception_4d/3x3
I0403 15:43:31.461843 14260 net.cpp:386] inception_4d/relu_3x3 -> inception_4d/3x3 (in-place)
I0403 15:43:31.462030 14260 net.cpp:141] Setting up inception_4d/relu_3x3
I0403 15:43:31.462059 14260 net.cpp:148] Top shape: 24 288 14 14 (1354752)
I0403 15:43:31.462075 14260 net.cpp:156] Memory required for data: 1131654432
I0403 15:43:31.462090 14260 layer_factory.hpp:77] Creating layer inception_4d/5x5_reduce
I0403 15:43:31.462112 14260 net.cpp:91] Creating Layer inception_4d/5x5_reduce
I0403 15:43:31.462134 14260 net.cpp:425] inception_4d/5x5_reduce <- inception_4c/output_inception_4c/output_0_split_2
I0403 15:43:31.462155 14260 net.cpp:399] inception_4d/5x5_reduce -> inception_4d/5x5_reduce
I0403 15:43:31.463325 14260 net.cpp:141] Setting up inception_4d/5x5_reduce
I0403 15:43:31.463353 14260 net.cpp:148] Top shape: 24 32 14 14 (150528)
I0403 15:43:31.463369 14260 net.cpp:156] Memory required for data: 1132256544
I0403 15:43:31.463387 14260 layer_factory.hpp:77] Creating layer inception_4d/relu_5x5_reduce
I0403 15:43:31.463407 14260 net.cpp:91] Creating Layer inception_4d/relu_5x5_reduce
I0403 15:43:31.463424 14260 net.cpp:425] inception_4d/relu_5x5_reduce <- inception_4d/5x5_reduce
I0403 15:43:31.463443 14260 net.cpp:386] inception_4d/relu_5x5_reduce -> inception_4d/5x5_reduce (in-place)
I0403 15:43:31.463629 14260 net.cpp:141] Setting up inception_4d/relu_5x5_reduce
I0403 15:43:31.463657 14260 net.cpp:148] Top shape: 24 32 14 14 (150528)
I0403 15:43:31.463675 14260 net.cpp:156] Memory required for data: 1132858656
I0403 15:43:31.463690 14260 layer_factory.hpp:77] Creating layer inception_4d/5x5
I0403 15:43:31.463711 14260 net.cpp:91] Creating Layer inception_4d/5x5
I0403 15:43:31.463728 14260 net.cpp:425] inception_4d/5x5 <- inception_4d/5x5_reduce
I0403 15:43:31.463747 14260 net.cpp:399] inception_4d/5x5 -> inception_4d/5x5
I0403 15:43:31.465232 14260 net.cpp:141] Setting up inception_4d/5x5
I0403 15:43:31.465261 14260 net.cpp:148] Top shape: 24 64 14 14 (301056)
I0403 15:43:31.465276 14260 net.cpp:156] Memory required for data: 1134062880
I0403 15:43:31.465294 14260 layer_factory.hpp:77] Creating layer inception_4d/relu_5x5
I0403 15:43:31.465330 14260 net.cpp:91] Creating Layer inception_4d/relu_5x5
I0403 15:43:31.465348 14260 net.cpp:425] inception_4d/relu_5x5 <- inception_4d/5x5
I0403 15:43:31.465368 14260 net.cpp:386] inception_4d/relu_5x5 -> inception_4d/5x5 (in-place)
I0403 15:43:31.465670 14260 net.cpp:141] Setting up inception_4d/relu_5x5
I0403 15:43:31.465698 14260 net.cpp:148] Top shape: 24 64 14 14 (301056)
I0403 15:43:31.465713 14260 net.cpp:156] Memory required for data: 1135267104
I0403 15:43:31.465728 14260 layer_factory.hpp:77] Creating layer inception_4d/pool
I0403 15:43:31.465746 14260 net.cpp:91] Creating Layer inception_4d/pool
I0403 15:43:31.465762 14260 net.cpp:425] inception_4d/pool <- inception_4c/output_inception_4c/output_0_split_3
I0403 15:43:31.465782 14260 net.cpp:399] inception_4d/pool -> inception_4d/pool
I0403 15:43:31.465849 14260 net.cpp:141] Setting up inception_4d/pool
I0403 15:43:31.465874 14260 net.cpp:148] Top shape: 24 512 14 14 (2408448)
I0403 15:43:31.465889 14260 net.cpp:156] Memory required for data: 1144900896
I0403 15:43:31.465904 14260 layer_factory.hpp:77] Creating layer inception_4d/pool_proj
I0403 15:43:31.465927 14260 net.cpp:91] Creating Layer inception_4d/pool_proj
I0403 15:43:31.465946 14260 net.cpp:425] inception_4d/pool_proj <- inception_4d/pool
I0403 15:43:31.465965 14260 net.cpp:399] inception_4d/pool_proj -> inception_4d/pool_proj
I0403 15:43:31.467751 14260 net.cpp:141] Setting up inception_4d/pool_proj
I0403 15:43:31.467782 14260 net.cpp:148] Top shape: 24 64 14 14 (301056)
I0403 15:43:31.467797 14260 net.cpp:156] Memory required for data: 1146105120
I0403 15:43:31.467816 14260 layer_factory.hpp:77] Creating layer inception_4d/relu_pool_proj
I0403 15:43:31.467838 14260 net.cpp:91] Creating Layer inception_4d/relu_pool_proj
I0403 15:43:31.467855 14260 net.cpp:425] inception_4d/relu_pool_proj <- inception_4d/pool_proj
I0403 15:43:31.467872 14260 net.cpp:386] inception_4d/relu_pool_proj -> inception_4d/pool_proj (in-place)
I0403 15:43:31.468063 14260 net.cpp:141] Setting up inception_4d/relu_pool_proj
I0403 15:43:31.468091 14260 net.cpp:148] Top shape: 24 64 14 14 (301056)
I0403 15:43:31.468108 14260 net.cpp:156] Memory required for data: 1147309344
I0403 15:43:31.468122 14260 layer_factory.hpp:77] Creating layer inception_4d/output
I0403 15:43:31.468145 14260 net.cpp:91] Creating Layer inception_4d/output
I0403 15:43:31.468161 14260 net.cpp:425] inception_4d/output <- inception_4d/1x1
I0403 15:43:31.468178 14260 net.cpp:425] inception_4d/output <- inception_4d/3x3
I0403 15:43:31.468195 14260 net.cpp:425] inception_4d/output <- inception_4d/5x5
I0403 15:43:31.468212 14260 net.cpp:425] inception_4d/output <- inception_4d/pool_proj
I0403 15:43:31.468231 14260 net.cpp:399] inception_4d/output -> inception_4d/output
I0403 15:43:31.468281 14260 net.cpp:141] Setting up inception_4d/output
I0403 15:43:31.468304 14260 net.cpp:148] Top shape: 24 528 14 14 (2483712)
I0403 15:43:31.468319 14260 net.cpp:156] Memory required for data: 1157244192
I0403 15:43:31.468334 14260 layer_factory.hpp:77] Creating layer inception_4d/output_inception_4d/output_0_split
I0403 15:43:31.468355 14260 net.cpp:91] Creating Layer inception_4d/output_inception_4d/output_0_split
I0403 15:43:31.468371 14260 net.cpp:425] inception_4d/output_inception_4d/output_0_split <- inception_4d/output
I0403 15:43:31.468389 14260 net.cpp:399] inception_4d/output_inception_4d/output_0_split -> inception_4d/output_inception_4d/output_0_split_0
I0403 15:43:31.468408 14260 net.cpp:399] inception_4d/output_inception_4d/output_0_split -> inception_4d/output_inception_4d/output_0_split_1
I0403 15:43:31.468435 14260 net.cpp:399] inception_4d/output_inception_4d/output_0_split -> inception_4d/output_inception_4d/output_0_split_2
I0403 15:43:31.468456 14260 net.cpp:399] inception_4d/output_inception_4d/output_0_split -> inception_4d/output_inception_4d/output_0_split_3
I0403 15:43:31.468477 14260 net.cpp:399] inception_4d/output_inception_4d/output_0_split -> inception_4d/output_inception_4d/output_0_split_4
I0403 15:43:31.468577 14260 net.cpp:141] Setting up inception_4d/output_inception_4d/output_0_split
I0403 15:43:31.468614 14260 net.cpp:148] Top shape: 24 528 14 14 (2483712)
I0403 15:43:31.468631 14260 net.cpp:148] Top shape: 24 528 14 14 (2483712)
I0403 15:43:31.468647 14260 net.cpp:148] Top shape: 24 528 14 14 (2483712)
I0403 15:43:31.468662 14260 net.cpp:148] Top shape: 24 528 14 14 (2483712)
I0403 15:43:31.468678 14260 net.cpp:148] Top shape: 24 528 14 14 (2483712)
I0403 15:43:31.468693 14260 net.cpp:156] Memory required for data: 1206918432
I0403 15:43:31.468706 14260 layer_factory.hpp:77] Creating layer loss2/ave_pool
I0403 15:43:31.468726 14260 net.cpp:91] Creating Layer loss2/ave_pool
I0403 15:43:31.468744 14260 net.cpp:425] loss2/ave_pool <- inception_4d/output_inception_4d/output_0_split_0
I0403 15:43:31.468762 14260 net.cpp:399] loss2/ave_pool -> loss2/ave_pool
I0403 15:43:31.469074 14260 net.cpp:141] Setting up loss2/ave_pool
I0403 15:43:31.469101 14260 net.cpp:148] Top shape: 24 528 4 4 (202752)
I0403 15:43:31.469116 14260 net.cpp:156] Memory required for data: 1207729440
I0403 15:43:31.469136 14260 layer_factory.hpp:77] Creating layer loss2/conv
I0403 15:43:31.469159 14260 net.cpp:91] Creating Layer loss2/conv
I0403 15:43:31.469177 14260 net.cpp:425] loss2/conv <- loss2/ave_pool
I0403 15:43:31.469199 14260 net.cpp:399] loss2/conv -> loss2/conv
I0403 15:43:31.471106 14260 net.cpp:141] Setting up loss2/conv
I0403 15:43:31.471141 14260 net.cpp:148] Top shape: 24 128 4 4 (49152)
I0403 15:43:31.471159 14260 net.cpp:156] Memory required for data: 1207926048
I0403 15:43:31.471179 14260 layer_factory.hpp:77] Creating layer loss2/relu_conv
I0403 15:43:31.471199 14260 net.cpp:91] Creating Layer loss2/relu_conv
I0403 15:43:31.471215 14260 net.cpp:425] loss2/relu_conv <- loss2/conv
I0403 15:43:31.471237 14260 net.cpp:386] loss2/relu_conv -> loss2/conv (in-place)
I0403 15:43:31.471523 14260 net.cpp:141] Setting up loss2/relu_conv
I0403 15:43:31.471552 14260 net.cpp:148] Top shape: 24 128 4 4 (49152)
I0403 15:43:31.471568 14260 net.cpp:156] Memory required for data: 1208122656
I0403 15:43:31.471583 14260 layer_factory.hpp:77] Creating layer loss2/fc
I0403 15:43:31.471602 14260 net.cpp:91] Creating Layer loss2/fc
I0403 15:43:31.471619 14260 net.cpp:425] loss2/fc <- loss2/conv
I0403 15:43:31.471642 14260 net.cpp:399] loss2/fc -> loss2/fc
I0403 15:43:31.488857 14260 net.cpp:141] Setting up loss2/fc
I0403 15:43:31.488890 14260 net.cpp:148] Top shape: 24 1024 (24576)
I0403 15:43:31.488905 14260 net.cpp:156] Memory required for data: 1208220960
I0403 15:43:31.488924 14260 layer_factory.hpp:77] Creating layer loss2/relu_fc
I0403 15:43:31.488943 14260 net.cpp:91] Creating Layer loss2/relu_fc
I0403 15:43:31.488961 14260 net.cpp:425] loss2/relu_fc <- loss2/fc
I0403 15:43:31.488978 14260 net.cpp:386] loss2/relu_fc -> loss2/fc (in-place)
I0403 15:43:31.489279 14260 net.cpp:141] Setting up loss2/relu_fc
I0403 15:43:31.489306 14260 net.cpp:148] Top shape: 24 1024 (24576)
I0403 15:43:31.489320 14260 net.cpp:156] Memory required for data: 1208319264
I0403 15:43:31.489334 14260 layer_factory.hpp:77] Creating layer loss2/drop_fc
I0403 15:43:31.489353 14260 net.cpp:91] Creating Layer loss2/drop_fc
I0403 15:43:31.489370 14260 net.cpp:425] loss2/drop_fc <- loss2/fc
I0403 15:43:31.489388 14260 net.cpp:386] loss2/drop_fc -> loss2/fc (in-place)
I0403 15:43:31.489439 14260 net.cpp:141] Setting up loss2/drop_fc
I0403 15:43:31.489462 14260 net.cpp:148] Top shape: 24 1024 (24576)
I0403 15:43:31.489476 14260 net.cpp:156] Memory required for data: 1208417568
I0403 15:43:31.489490 14260 layer_factory.hpp:77] Creating layer loss2/classifier_plantvillage
I0403 15:43:31.489511 14260 net.cpp:91] Creating Layer loss2/classifier_plantvillage
I0403 15:43:31.489528 14260 net.cpp:425] loss2/classifier_plantvillage <- loss2/fc
I0403 15:43:31.489547 14260 net.cpp:399] loss2/classifier_plantvillage -> loss2/classifier_plantvillage
I0403 15:43:31.489935 14260 net.cpp:141] Setting up loss2/classifier_plantvillage
I0403 15:43:31.489961 14260 net.cpp:148] Top shape: 24 38 (912)
I0403 15:43:31.489975 14260 net.cpp:156] Memory required for data: 1208421216
I0403 15:43:31.490012 14260 layer_factory.hpp:77] Creating layer loss2/classifier_plantvillage_loss2/classifier_plantvillage_0_split
I0403 15:43:31.490031 14260 net.cpp:91] Creating Layer loss2/classifier_plantvillage_loss2/classifier_plantvillage_0_split
I0403 15:43:31.490047 14260 net.cpp:425] loss2/classifier_plantvillage_loss2/classifier_plantvillage_0_split <- loss2/classifier_plantvillage
I0403 15:43:31.490069 14260 net.cpp:399] loss2/classifier_plantvillage_loss2/classifier_plantvillage_0_split -> loss2/classifier_plantvillage_loss2/classifier_plantvillage_0_split_0
I0403 15:43:31.490090 14260 net.cpp:399] loss2/classifier_plantvillage_loss2/classifier_plantvillage_0_split -> loss2/classifier_plantvillage_loss2/classifier_plantvillage_0_split_1
I0403 15:43:31.490110 14260 net.cpp:399] loss2/classifier_plantvillage_loss2/classifier_plantvillage_0_split -> loss2/classifier_plantvillage_loss2/classifier_plantvillage_0_split_2
I0403 15:43:31.490190 14260 net.cpp:141] Setting up loss2/classifier_plantvillage_loss2/classifier_plantvillage_0_split
I0403 15:43:31.490216 14260 net.cpp:148] Top shape: 24 38 (912)
I0403 15:43:31.490233 14260 net.cpp:148] Top shape: 24 38 (912)
I0403 15:43:31.490248 14260 net.cpp:148] Top shape: 24 38 (912)
I0403 15:43:31.490262 14260 net.cpp:156] Memory required for data: 1208432160
I0403 15:43:31.490275 14260 layer_factory.hpp:77] Creating layer inception_4e/1x1
I0403 15:43:31.490295 14260 net.cpp:91] Creating Layer inception_4e/1x1
I0403 15:43:31.490311 14260 net.cpp:425] inception_4e/1x1 <- inception_4d/output_inception_4d/output_0_split_1
I0403 15:43:31.490329 14260 net.cpp:399] inception_4e/1x1 -> inception_4e/1x1
I0403 15:43:31.492161 14260 net.cpp:141] Setting up inception_4e/1x1
I0403 15:43:31.492189 14260 net.cpp:148] Top shape: 24 256 14 14 (1204224)
I0403 15:43:31.492205 14260 net.cpp:156] Memory required for data: 1213249056
I0403 15:43:31.492223 14260 layer_factory.hpp:77] Creating layer inception_4e/relu_1x1
I0403 15:43:31.492240 14260 net.cpp:91] Creating Layer inception_4e/relu_1x1
I0403 15:43:31.492256 14260 net.cpp:425] inception_4e/relu_1x1 <- inception_4e/1x1
I0403 15:43:31.492275 14260 net.cpp:386] inception_4e/relu_1x1 -> inception_4e/1x1 (in-place)
I0403 15:43:31.492571 14260 net.cpp:141] Setting up inception_4e/relu_1x1
I0403 15:43:31.492599 14260 net.cpp:148] Top shape: 24 256 14 14 (1204224)
I0403 15:43:31.492612 14260 net.cpp:156] Memory required for data: 1218065952
I0403 15:43:31.492630 14260 layer_factory.hpp:77] Creating layer inception_4e/3x3_reduce
I0403 15:43:31.492650 14260 net.cpp:91] Creating Layer inception_4e/3x3_reduce
I0403 15:43:31.492668 14260 net.cpp:425] inception_4e/3x3_reduce <- inception_4d/output_inception_4d/output_0_split_2
I0403 15:43:31.492689 14260 net.cpp:399] inception_4e/3x3_reduce -> inception_4e/3x3_reduce
I0403 15:43:31.494783 14260 net.cpp:141] Setting up inception_4e/3x3_reduce
I0403 15:43:31.494815 14260 net.cpp:148] Top shape: 24 160 14 14 (752640)
I0403 15:43:31.494832 14260 net.cpp:156] Memory required for data: 1221076512
I0403 15:43:31.494851 14260 layer_factory.hpp:77] Creating layer inception_4e/relu_3x3_reduce
I0403 15:43:31.494880 14260 net.cpp:91] Creating Layer inception_4e/relu_3x3_reduce
I0403 15:43:31.494896 14260 net.cpp:425] inception_4e/relu_3x3_reduce <- inception_4e/3x3_reduce
I0403 15:43:31.494915 14260 net.cpp:386] inception_4e/relu_3x3_reduce -> inception_4e/3x3_reduce (in-place)
I0403 15:43:31.495107 14260 net.cpp:141] Setting up inception_4e/relu_3x3_reduce
I0403 15:43:31.495138 14260 net.cpp:148] Top shape: 24 160 14 14 (752640)
I0403 15:43:31.495154 14260 net.cpp:156] Memory required for data: 1224087072
I0403 15:43:31.495169 14260 layer_factory.hpp:77] Creating layer inception_4e/3x3
I0403 15:43:31.495190 14260 net.cpp:91] Creating Layer inception_4e/3x3
I0403 15:43:31.495209 14260 net.cpp:425] inception_4e/3x3 <- inception_4e/3x3_reduce
I0403 15:43:31.495230 14260 net.cpp:399] inception_4e/3x3 -> inception_4e/3x3
I0403 15:43:31.500198 14260 net.cpp:141] Setting up inception_4e/3x3
I0403 15:43:31.500239 14260 net.cpp:148] Top shape: 24 320 14 14 (1505280)
I0403 15:43:31.500255 14260 net.cpp:156] Memory required for data: 1230108192
I0403 15:43:31.500273 14260 layer_factory.hpp:77] Creating layer inception_4e/relu_3x3
I0403 15:43:31.500293 14260 net.cpp:91] Creating Layer inception_4e/relu_3x3
I0403 15:43:31.500310 14260 net.cpp:425] inception_4e/relu_3x3 <- inception_4e/3x3
I0403 15:43:31.500327 14260 net.cpp:386] inception_4e/relu_3x3 -> inception_4e/3x3 (in-place)
I0403 15:43:31.500625 14260 net.cpp:141] Setting up inception_4e/relu_3x3
I0403 15:43:31.500651 14260 net.cpp:148] Top shape: 24 320 14 14 (1505280)
I0403 15:43:31.500666 14260 net.cpp:156] Memory required for data: 1236129312
I0403 15:43:31.500680 14260 layer_factory.hpp:77] Creating layer inception_4e/5x5_reduce
I0403 15:43:31.500704 14260 net.cpp:91] Creating Layer inception_4e/5x5_reduce
I0403 15:43:31.500722 14260 net.cpp:425] inception_4e/5x5_reduce <- inception_4d/output_inception_4d/output_0_split_3
I0403 15:43:31.500746 14260 net.cpp:399] inception_4e/5x5_reduce -> inception_4e/5x5_reduce
I0403 15:43:31.501806 14260 net.cpp:141] Setting up inception_4e/5x5_reduce
I0403 15:43:31.501832 14260 net.cpp:148] Top shape: 24 32 14 14 (150528)
I0403 15:43:31.501848 14260 net.cpp:156] Memory required for data: 1236731424
I0403 15:43:31.501865 14260 layer_factory.hpp:77] Creating layer inception_4e/relu_5x5_reduce
I0403 15:43:31.501883 14260 net.cpp:91] Creating Layer inception_4e/relu_5x5_reduce
I0403 15:43:31.501900 14260 net.cpp:425] inception_4e/relu_5x5_reduce <- inception_4e/5x5_reduce
I0403 15:43:31.501919 14260 net.cpp:386] inception_4e/relu_5x5_reduce -> inception_4e/5x5_reduce (in-place)
I0403 15:43:31.502216 14260 net.cpp:141] Setting up inception_4e/relu_5x5_reduce
I0403 15:43:31.502243 14260 net.cpp:148] Top shape: 24 32 14 14 (150528)
I0403 15:43:31.502257 14260 net.cpp:156] Memory required for data: 1237333536
I0403 15:43:31.502272 14260 layer_factory.hpp:77] Creating layer inception_4e/5x5
I0403 15:43:31.502310 14260 net.cpp:91] Creating Layer inception_4e/5x5
I0403 15:43:31.502328 14260 net.cpp:425] inception_4e/5x5 <- inception_4e/5x5_reduce
I0403 15:43:31.502346 14260 net.cpp:399] inception_4e/5x5 -> inception_4e/5x5
I0403 15:43:31.504158 14260 net.cpp:141] Setting up inception_4e/5x5
I0403 15:43:31.504187 14260 net.cpp:148] Top shape: 24 128 14 14 (602112)
I0403 15:43:31.504204 14260 net.cpp:156] Memory required for data: 1239741984
I0403 15:43:31.504225 14260 layer_factory.hpp:77] Creating layer inception_4e/relu_5x5
I0403 15:43:31.504241 14260 net.cpp:91] Creating Layer inception_4e/relu_5x5
I0403 15:43:31.504257 14260 net.cpp:425] inception_4e/relu_5x5 <- inception_4e/5x5
I0403 15:43:31.504274 14260 net.cpp:386] inception_4e/relu_5x5 -> inception_4e/5x5 (in-place)
I0403 15:43:31.504472 14260 net.cpp:141] Setting up inception_4e/relu_5x5
I0403 15:43:31.504498 14260 net.cpp:148] Top shape: 24 128 14 14 (602112)
I0403 15:43:31.504511 14260 net.cpp:156] Memory required for data: 1242150432
I0403 15:43:31.504526 14260 layer_factory.hpp:77] Creating layer inception_4e/pool
I0403 15:43:31.504544 14260 net.cpp:91] Creating Layer inception_4e/pool
I0403 15:43:31.504559 14260 net.cpp:425] inception_4e/pool <- inception_4d/output_inception_4d/output_0_split_4
I0403 15:43:31.504578 14260 net.cpp:399] inception_4e/pool -> inception_4e/pool
I0403 15:43:31.504647 14260 net.cpp:141] Setting up inception_4e/pool
I0403 15:43:31.504673 14260 net.cpp:148] Top shape: 24 528 14 14 (2483712)
I0403 15:43:31.504689 14260 net.cpp:156] Memory required for data: 1252085280
I0403 15:43:31.504703 14260 layer_factory.hpp:77] Creating layer inception_4e/pool_proj
I0403 15:43:31.504725 14260 net.cpp:91] Creating Layer inception_4e/pool_proj
I0403 15:43:31.504744 14260 net.cpp:425] inception_4e/pool_proj <- inception_4e/pool
I0403 15:43:31.504762 14260 net.cpp:399] inception_4e/pool_proj -> inception_4e/pool_proj
I0403 15:43:31.506310 14260 net.cpp:141] Setting up inception_4e/pool_proj
I0403 15:43:31.506338 14260 net.cpp:148] Top shape: 24 128 14 14 (602112)
I0403 15:43:31.506371 14260 net.cpp:156] Memory required for data: 1254493728
I0403 15:43:31.506399 14260 layer_factory.hpp:77] Creating layer inception_4e/relu_pool_proj
I0403 15:43:31.506417 14260 net.cpp:91] Creating Layer inception_4e/relu_pool_proj
I0403 15:43:31.506433 14260 net.cpp:425] inception_4e/relu_pool_proj <- inception_4e/pool_proj
I0403 15:43:31.506449 14260 net.cpp:386] inception_4e/relu_pool_proj -> inception_4e/pool_proj (in-place)
I0403 15:43:31.506742 14260 net.cpp:141] Setting up inception_4e/relu_pool_proj
I0403 15:43:31.506768 14260 net.cpp:148] Top shape: 24 128 14 14 (602112)
I0403 15:43:31.506786 14260 net.cpp:156] Memory required for data: 1256902176
I0403 15:43:31.506801 14260 layer_factory.hpp:77] Creating layer inception_4e/output
I0403 15:43:31.506819 14260 net.cpp:91] Creating Layer inception_4e/output
I0403 15:43:31.506835 14260 net.cpp:425] inception_4e/output <- inception_4e/1x1
I0403 15:43:31.506850 14260 net.cpp:425] inception_4e/output <- inception_4e/3x3
I0403 15:43:31.506867 14260 net.cpp:425] inception_4e/output <- inception_4e/5x5
I0403 15:43:31.506882 14260 net.cpp:425] inception_4e/output <- inception_4e/pool_proj
I0403 15:43:31.506899 14260 net.cpp:399] inception_4e/output -> inception_4e/output
I0403 15:43:31.506949 14260 net.cpp:141] Setting up inception_4e/output
I0403 15:43:31.506973 14260 net.cpp:148] Top shape: 24 832 14 14 (3913728)
I0403 15:43:31.506988 14260 net.cpp:156] Memory required for data: 1272557088
I0403 15:43:31.507001 14260 layer_factory.hpp:77] Creating layer pool4/3x3_s2
I0403 15:43:31.507019 14260 net.cpp:91] Creating Layer pool4/3x3_s2
I0403 15:43:31.507035 14260 net.cpp:425] pool4/3x3_s2 <- inception_4e/output
I0403 15:43:31.507055 14260 net.cpp:399] pool4/3x3_s2 -> pool4/3x3_s2
I0403 15:43:31.507120 14260 net.cpp:141] Setting up pool4/3x3_s2
I0403 15:43:31.507148 14260 net.cpp:148] Top shape: 24 832 7 7 (978432)
I0403 15:43:31.507163 14260 net.cpp:156] Memory required for data: 1276470816
I0403 15:43:31.507177 14260 layer_factory.hpp:77] Creating layer pool4/3x3_s2_pool4/3x3_s2_0_split
I0403 15:43:31.507196 14260 net.cpp:91] Creating Layer pool4/3x3_s2_pool4/3x3_s2_0_split
I0403 15:43:31.507211 14260 net.cpp:425] pool4/3x3_s2_pool4/3x3_s2_0_split <- pool4/3x3_s2
I0403 15:43:31.507230 14260 net.cpp:399] pool4/3x3_s2_pool4/3x3_s2_0_split -> pool4/3x3_s2_pool4/3x3_s2_0_split_0
I0403 15:43:31.507252 14260 net.cpp:399] pool4/3x3_s2_pool4/3x3_s2_0_split -> pool4/3x3_s2_pool4/3x3_s2_0_split_1
I0403 15:43:31.507272 14260 net.cpp:399] pool4/3x3_s2_pool4/3x3_s2_0_split -> pool4/3x3_s2_pool4/3x3_s2_0_split_2
I0403 15:43:31.507293 14260 net.cpp:399] pool4/3x3_s2_pool4/3x3_s2_0_split -> pool4/3x3_s2_pool4/3x3_s2_0_split_3
I0403 15:43:31.507382 14260 net.cpp:141] Setting up pool4/3x3_s2_pool4/3x3_s2_0_split
I0403 15:43:31.507405 14260 net.cpp:148] Top shape: 24 832 7 7 (978432)
I0403 15:43:31.507421 14260 net.cpp:148] Top shape: 24 832 7 7 (978432)
I0403 15:43:31.507436 14260 net.cpp:148] Top shape: 24 832 7 7 (978432)
I0403 15:43:31.507450 14260 net.cpp:148] Top shape: 24 832 7 7 (978432)
I0403 15:43:31.507464 14260 net.cpp:156] Memory required for data: 1292125728
I0403 15:43:31.507478 14260 layer_factory.hpp:77] Creating layer inception_5a/1x1
I0403 15:43:31.507501 14260 net.cpp:91] Creating Layer inception_5a/1x1
I0403 15:43:31.507519 14260 net.cpp:425] inception_5a/1x1 <- pool4/3x3_s2_pool4/3x3_s2_0_split_0
I0403 15:43:31.507537 14260 net.cpp:399] inception_5a/1x1 -> inception_5a/1x1
I0403 15:43:31.510406 14260 net.cpp:141] Setting up inception_5a/1x1
I0403 15:43:31.510442 14260 net.cpp:148] Top shape: 24 256 7 7 (301056)
I0403 15:43:31.510458 14260 net.cpp:156] Memory required for data: 1293329952
I0403 15:43:31.510478 14260 layer_factory.hpp:77] Creating layer inception_5a/relu_1x1
I0403 15:43:31.510495 14260 net.cpp:91] Creating Layer inception_5a/relu_1x1
I0403 15:43:31.510510 14260 net.cpp:425] inception_5a/relu_1x1 <- inception_5a/1x1
I0403 15:43:31.510530 14260 net.cpp:386] inception_5a/relu_1x1 -> inception_5a/1x1 (in-place)
I0403 15:43:31.510843 14260 net.cpp:141] Setting up inception_5a/relu_1x1
I0403 15:43:31.510871 14260 net.cpp:148] Top shape: 24 256 7 7 (301056)
I0403 15:43:31.510887 14260 net.cpp:156] Memory required for data: 1294534176
I0403 15:43:31.510902 14260 layer_factory.hpp:77] Creating layer inception_5a/3x3_reduce
I0403 15:43:31.510926 14260 net.cpp:91] Creating Layer inception_5a/3x3_reduce
I0403 15:43:31.510943 14260 net.cpp:425] inception_5a/3x3_reduce <- pool4/3x3_s2_pool4/3x3_s2_0_split_1
I0403 15:43:31.510963 14260 net.cpp:399] inception_5a/3x3_reduce -> inception_5a/3x3_reduce
I0403 15:43:31.513449 14260 net.cpp:141] Setting up inception_5a/3x3_reduce
I0403 15:43:31.513479 14260 net.cpp:148] Top shape: 24 160 7 7 (188160)
I0403 15:43:31.513496 14260 net.cpp:156] Memory required for data: 1295286816
I0403 15:43:31.513514 14260 layer_factory.hpp:77] Creating layer inception_5a/relu_3x3_reduce
I0403 15:43:31.513535 14260 net.cpp:91] Creating Layer inception_5a/relu_3x3_reduce
I0403 15:43:31.513555 14260 net.cpp:425] inception_5a/relu_3x3_reduce <- inception_5a/3x3_reduce
I0403 15:43:31.513571 14260 net.cpp:386] inception_5a/relu_3x3_reduce -> inception_5a/3x3_reduce (in-place)
I0403 15:43:31.513769 14260 net.cpp:141] Setting up inception_5a/relu_3x3_reduce
I0403 15:43:31.513797 14260 net.cpp:148] Top shape: 24 160 7 7 (188160)
I0403 15:43:31.513813 14260 net.cpp:156] Memory required for data: 1296039456
I0403 15:43:31.513828 14260 layer_factory.hpp:77] Creating layer inception_5a/3x3
I0403 15:43:31.513851 14260 net.cpp:91] Creating Layer inception_5a/3x3
I0403 15:43:31.513867 14260 net.cpp:425] inception_5a/3x3 <- inception_5a/3x3_reduce
I0403 15:43:31.513885 14260 net.cpp:399] inception_5a/3x3 -> inception_5a/3x3
I0403 15:43:31.519012 14260 net.cpp:141] Setting up inception_5a/3x3
I0403 15:43:31.519045 14260 net.cpp:148] Top shape: 24 320 7 7 (376320)
I0403 15:43:31.519062 14260 net.cpp:156] Memory required for data: 1297544736
I0403 15:43:31.519081 14260 layer_factory.hpp:77] Creating layer inception_5a/relu_3x3
I0403 15:43:31.519098 14260 net.cpp:91] Creating Layer inception_5a/relu_3x3
I0403 15:43:31.519114 14260 net.cpp:425] inception_5a/relu_3x3 <- inception_5a/3x3
I0403 15:43:31.519134 14260 net.cpp:386] inception_5a/relu_3x3 -> inception_5a/3x3 (in-place)
I0403 15:43:31.519439 14260 net.cpp:141] Setting up inception_5a/relu_3x3
I0403 15:43:31.519469 14260 net.cpp:148] Top shape: 24 320 7 7 (376320)
I0403 15:43:31.519486 14260 net.cpp:156] Memory required for data: 1299050016
I0403 15:43:31.519501 14260 layer_factory.hpp:77] Creating layer inception_5a/5x5_reduce
I0403 15:43:31.519523 14260 net.cpp:91] Creating Layer inception_5a/5x5_reduce
I0403 15:43:31.519541 14260 net.cpp:425] inception_5a/5x5_reduce <- pool4/3x3_s2_pool4/3x3_s2_0_split_2
I0403 15:43:31.519561 14260 net.cpp:399] inception_5a/5x5_reduce -> inception_5a/5x5_reduce
I0403 15:43:31.520747 14260 net.cpp:141] Setting up inception_5a/5x5_reduce
I0403 15:43:31.520778 14260 net.cpp:148] Top shape: 24 32 7 7 (37632)
I0403 15:43:31.520797 14260 net.cpp:156] Memory required for data: 1299200544
I0403 15:43:31.520814 14260 layer_factory.hpp:77] Creating layer inception_5a/relu_5x5_reduce
I0403 15:43:31.520833 14260 net.cpp:91] Creating Layer inception_5a/relu_5x5_reduce
I0403 15:43:31.520849 14260 net.cpp:425] inception_5a/relu_5x5_reduce <- inception_5a/5x5_reduce
I0403 15:43:31.520880 14260 net.cpp:386] inception_5a/relu_5x5_reduce -> inception_5a/5x5_reduce (in-place)
I0403 15:43:31.521212 14260 net.cpp:141] Setting up inception_5a/relu_5x5_reduce
I0403 15:43:31.521241 14260 net.cpp:148] Top shape: 24 32 7 7 (37632)
I0403 15:43:31.521258 14260 net.cpp:156] Memory required for data: 1299351072
I0403 15:43:31.521272 14260 layer_factory.hpp:77] Creating layer inception_5a/5x5
I0403 15:43:31.521294 14260 net.cpp:91] Creating Layer inception_5a/5x5
I0403 15:43:31.521312 14260 net.cpp:425] inception_5a/5x5 <- inception_5a/5x5_reduce
I0403 15:43:31.521334 14260 net.cpp:399] inception_5a/5x5 -> inception_5a/5x5
I0403 15:43:31.523080 14260 net.cpp:141] Setting up inception_5a/5x5
I0403 15:43:31.523124 14260 net.cpp:148] Top shape: 24 128 7 7 (150528)
I0403 15:43:31.523154 14260 net.cpp:156] Memory required for data: 1299953184
I0403 15:43:31.523174 14260 layer_factory.hpp:77] Creating layer inception_5a/relu_5x5
I0403 15:43:31.523191 14260 net.cpp:91] Creating Layer inception_5a/relu_5x5
I0403 15:43:31.523208 14260 net.cpp:425] inception_5a/relu_5x5 <- inception_5a/5x5
I0403 15:43:31.523226 14260 net.cpp:386] inception_5a/relu_5x5 -> inception_5a/5x5 (in-place)
I0403 15:43:31.523428 14260 net.cpp:141] Setting up inception_5a/relu_5x5
I0403 15:43:31.523454 14260 net.cpp:148] Top shape: 24 128 7 7 (150528)
I0403 15:43:31.523468 14260 net.cpp:156] Memory required for data: 1300555296
I0403 15:43:31.523483 14260 layer_factory.hpp:77] Creating layer inception_5a/pool
I0403 15:43:31.523500 14260 net.cpp:91] Creating Layer inception_5a/pool
I0403 15:43:31.523516 14260 net.cpp:425] inception_5a/pool <- pool4/3x3_s2_pool4/3x3_s2_0_split_3
I0403 15:43:31.523537 14260 net.cpp:399] inception_5a/pool -> inception_5a/pool
I0403 15:43:31.523608 14260 net.cpp:141] Setting up inception_5a/pool
I0403 15:43:31.523634 14260 net.cpp:148] Top shape: 24 832 7 7 (978432)
I0403 15:43:31.523649 14260 net.cpp:156] Memory required for data: 1304469024
I0403 15:43:31.523664 14260 layer_factory.hpp:77] Creating layer inception_5a/pool_proj
I0403 15:43:31.523686 14260 net.cpp:91] Creating Layer inception_5a/pool_proj
I0403 15:43:31.523705 14260 net.cpp:425] inception_5a/pool_proj <- inception_5a/pool
I0403 15:43:31.523725 14260 net.cpp:399] inception_5a/pool_proj -> inception_5a/pool_proj
I0403 15:43:31.526023 14260 net.cpp:141] Setting up inception_5a/pool_proj
I0403 15:43:31.526053 14260 net.cpp:148] Top shape: 24 128 7 7 (150528)
I0403 15:43:31.526069 14260 net.cpp:156] Memory required for data: 1305071136
I0403 15:43:31.526088 14260 layer_factory.hpp:77] Creating layer inception_5a/relu_pool_proj
I0403 15:43:31.526109 14260 net.cpp:91] Creating Layer inception_5a/relu_pool_proj
I0403 15:43:31.526130 14260 net.cpp:425] inception_5a/relu_pool_proj <- inception_5a/pool_proj
I0403 15:43:31.526150 14260 net.cpp:386] inception_5a/relu_pool_proj -> inception_5a/pool_proj (in-place)
I0403 15:43:31.526451 14260 net.cpp:141] Setting up inception_5a/relu_pool_proj
I0403 15:43:31.526479 14260 net.cpp:148] Top shape: 24 128 7 7 (150528)
I0403 15:43:31.526494 14260 net.cpp:156] Memory required for data: 1305673248
I0403 15:43:31.526507 14260 layer_factory.hpp:77] Creating layer inception_5a/output
I0403 15:43:31.526526 14260 net.cpp:91] Creating Layer inception_5a/output
I0403 15:43:31.526545 14260 net.cpp:425] inception_5a/output <- inception_5a/1x1
I0403 15:43:31.526561 14260 net.cpp:425] inception_5a/output <- inception_5a/3x3
I0403 15:43:31.526582 14260 net.cpp:425] inception_5a/output <- inception_5a/5x5
I0403 15:43:31.526598 14260 net.cpp:425] inception_5a/output <- inception_5a/pool_proj
I0403 15:43:31.526614 14260 net.cpp:399] inception_5a/output -> inception_5a/output
I0403 15:43:31.526679 14260 net.cpp:141] Setting up inception_5a/output
I0403 15:43:31.526702 14260 net.cpp:148] Top shape: 24 832 7 7 (978432)
I0403 15:43:31.526717 14260 net.cpp:156] Memory required for data: 1309586976
I0403 15:43:31.526732 14260 layer_factory.hpp:77] Creating layer inception_5a/output_inception_5a/output_0_split
I0403 15:43:31.526749 14260 net.cpp:91] Creating Layer inception_5a/output_inception_5a/output_0_split
I0403 15:43:31.526764 14260 net.cpp:425] inception_5a/output_inception_5a/output_0_split <- inception_5a/output
I0403 15:43:31.526784 14260 net.cpp:399] inception_5a/output_inception_5a/output_0_split -> inception_5a/output_inception_5a/output_0_split_0
I0403 15:43:31.526806 14260 net.cpp:399] inception_5a/output_inception_5a/output_0_split -> inception_5a/output_inception_5a/output_0_split_1
I0403 15:43:31.526839 14260 net.cpp:399] inception_5a/output_inception_5a/output_0_split -> inception_5a/output_inception_5a/output_0_split_2
I0403 15:43:31.526860 14260 net.cpp:399] inception_5a/output_inception_5a/output_0_split -> inception_5a/output_inception_5a/output_0_split_3
I0403 15:43:31.526985 14260 net.cpp:141] Setting up inception_5a/output_inception_5a/output_0_split
I0403 15:43:31.527014 14260 net.cpp:148] Top shape: 24 832 7 7 (978432)
I0403 15:43:31.527031 14260 net.cpp:148] Top shape: 24 832 7 7 (978432)
I0403 15:43:31.527046 14260 net.cpp:148] Top shape: 24 832 7 7 (978432)
I0403 15:43:31.527061 14260 net.cpp:148] Top shape: 24 832 7 7 (978432)
I0403 15:43:31.527075 14260 net.cpp:156] Memory required for data: 1325241888
I0403 15:43:31.527088 14260 layer_factory.hpp:77] Creating layer inception_5b/1x1
I0403 15:43:31.527112 14260 net.cpp:91] Creating Layer inception_5b/1x1
I0403 15:43:31.527134 14260 net.cpp:425] inception_5b/1x1 <- inception_5a/output_inception_5a/output_0_split_0
I0403 15:43:31.527158 14260 net.cpp:399] inception_5b/1x1 -> inception_5b/1x1
I0403 15:43:31.530846 14260 net.cpp:141] Setting up inception_5b/1x1
I0403 15:43:31.530876 14260 net.cpp:148] Top shape: 24 384 7 7 (451584)
I0403 15:43:31.530891 14260 net.cpp:156] Memory required for data: 1327048224
I0403 15:43:31.530910 14260 layer_factory.hpp:77] Creating layer inception_5b/relu_1x1
I0403 15:43:31.530930 14260 net.cpp:91] Creating Layer inception_5b/relu_1x1
I0403 15:43:31.530947 14260 net.cpp:425] inception_5b/relu_1x1 <- inception_5b/1x1
I0403 15:43:31.530966 14260 net.cpp:386] inception_5b/relu_1x1 -> inception_5b/1x1 (in-place)
I0403 15:43:31.531268 14260 net.cpp:141] Setting up inception_5b/relu_1x1
I0403 15:43:31.531294 14260 net.cpp:148] Top shape: 24 384 7 7 (451584)
I0403 15:43:31.531309 14260 net.cpp:156] Memory required for data: 1328854560
I0403 15:43:31.531324 14260 layer_factory.hpp:77] Creating layer inception_5b/3x3_reduce
I0403 15:43:31.531347 14260 net.cpp:91] Creating Layer inception_5b/3x3_reduce
I0403 15:43:31.531364 14260 net.cpp:425] inception_5b/3x3_reduce <- inception_5a/output_inception_5a/output_0_split_1
I0403 15:43:31.531393 14260 net.cpp:399] inception_5b/3x3_reduce -> inception_5b/3x3_reduce
I0403 15:43:31.534080 14260 net.cpp:141] Setting up inception_5b/3x3_reduce
I0403 15:43:31.534111 14260 net.cpp:148] Top shape: 24 192 7 7 (225792)
I0403 15:43:31.534129 14260 net.cpp:156] Memory required for data: 1329757728
I0403 15:43:31.534148 14260 layer_factory.hpp:77] Creating layer inception_5b/relu_3x3_reduce
I0403 15:43:31.534169 14260 net.cpp:91] Creating Layer inception_5b/relu_3x3_reduce
I0403 15:43:31.534185 14260 net.cpp:425] inception_5b/relu_3x3_reduce <- inception_5b/3x3_reduce
I0403 15:43:31.534204 14260 net.cpp:386] inception_5b/relu_3x3_reduce -> inception_5b/3x3_reduce (in-place)
I0403 15:43:31.534396 14260 net.cpp:141] Setting up inception_5b/relu_3x3_reduce
I0403 15:43:31.534425 14260 net.cpp:148] Top shape: 24 192 7 7 (225792)
I0403 15:43:31.534440 14260 net.cpp:156] Memory required for data: 1330660896
I0403 15:43:31.534454 14260 layer_factory.hpp:77] Creating layer inception_5b/3x3
I0403 15:43:31.534476 14260 net.cpp:91] Creating Layer inception_5b/3x3
I0403 15:43:31.534493 14260 net.cpp:425] inception_5b/3x3 <- inception_5b/3x3_reduce
I0403 15:43:31.534513 14260 net.cpp:399] inception_5b/3x3 -> inception_5b/3x3
I0403 15:43:31.541080 14260 net.cpp:141] Setting up inception_5b/3x3
I0403 15:43:31.541108 14260 net.cpp:148] Top shape: 24 384 7 7 (451584)
I0403 15:43:31.541128 14260 net.cpp:156] Memory required for data: 1332467232
I0403 15:43:31.541148 14260 layer_factory.hpp:77] Creating layer inception_5b/relu_3x3
I0403 15:43:31.541169 14260 net.cpp:91] Creating Layer inception_5b/relu_3x3
I0403 15:43:31.541187 14260 net.cpp:425] inception_5b/relu_3x3 <- inception_5b/3x3
I0403 15:43:31.541205 14260 net.cpp:386] inception_5b/relu_3x3 -> inception_5b/3x3 (in-place)
I0403 15:43:31.541497 14260 net.cpp:141] Setting up inception_5b/relu_3x3
I0403 15:43:31.541524 14260 net.cpp:148] Top shape: 24 384 7 7 (451584)
I0403 15:43:31.541538 14260 net.cpp:156] Memory required for data: 1334273568
I0403 15:43:31.541553 14260 layer_factory.hpp:77] Creating layer inception_5b/5x5_reduce
I0403 15:43:31.541594 14260 net.cpp:91] Creating Layer inception_5b/5x5_reduce
I0403 15:43:31.541612 14260 net.cpp:425] inception_5b/5x5_reduce <- inception_5a/output_inception_5a/output_0_split_2
I0403 15:43:31.541632 14260 net.cpp:399] inception_5b/5x5_reduce -> inception_5b/5x5_reduce
I0403 15:43:31.542881 14260 net.cpp:141] Setting up inception_5b/5x5_reduce
I0403 15:43:31.542909 14260 net.cpp:148] Top shape: 24 48 7 7 (56448)
I0403 15:43:31.542927 14260 net.cpp:156] Memory required for data: 1334499360
I0403 15:43:31.542945 14260 layer_factory.hpp:77] Creating layer inception_5b/relu_5x5_reduce
I0403 15:43:31.542963 14260 net.cpp:91] Creating Layer inception_5b/relu_5x5_reduce
I0403 15:43:31.542979 14260 net.cpp:425] inception_5b/relu_5x5_reduce <- inception_5b/5x5_reduce
I0403 15:43:31.542996 14260 net.cpp:386] inception_5b/relu_5x5_reduce -> inception_5b/5x5_reduce (in-place)
I0403 15:43:31.543376 14260 net.cpp:141] Setting up inception_5b/relu_5x5_reduce
I0403 15:43:31.543403 14260 net.cpp:148] Top shape: 24 48 7 7 (56448)
I0403 15:43:31.543418 14260 net.cpp:156] Memory required for data: 1334725152
I0403 15:43:31.543431 14260 layer_factory.hpp:77] Creating layer inception_5b/5x5
I0403 15:43:31.543452 14260 net.cpp:91] Creating Layer inception_5b/5x5
I0403 15:43:31.543468 14260 net.cpp:425] inception_5b/5x5 <- inception_5b/5x5_reduce
I0403 15:43:31.543488 14260 net.cpp:399] inception_5b/5x5 -> inception_5b/5x5
I0403 15:43:31.545496 14260 net.cpp:141] Setting up inception_5b/5x5
I0403 15:43:31.545526 14260 net.cpp:148] Top shape: 24 128 7 7 (150528)
I0403 15:43:31.545543 14260 net.cpp:156] Memory required for data: 1335327264
I0403 15:43:31.545562 14260 layer_factory.hpp:77] Creating layer inception_5b/relu_5x5
I0403 15:43:31.545578 14260 net.cpp:91] Creating Layer inception_5b/relu_5x5
I0403 15:43:31.545595 14260 net.cpp:425] inception_5b/relu_5x5 <- inception_5b/5x5
I0403 15:43:31.545614 14260 net.cpp:386] inception_5b/relu_5x5 -> inception_5b/5x5 (in-place)
I0403 15:43:31.545809 14260 net.cpp:141] Setting up inception_5b/relu_5x5
I0403 15:43:31.545833 14260 net.cpp:148] Top shape: 24 128 7 7 (150528)
I0403 15:43:31.545848 14260 net.cpp:156] Memory required for data: 1335929376
I0403 15:43:31.545862 14260 layer_factory.hpp:77] Creating layer inception_5b/pool
I0403 15:43:31.545879 14260 net.cpp:91] Creating Layer inception_5b/pool
I0403 15:43:31.545895 14260 net.cpp:425] inception_5b/pool <- inception_5a/output_inception_5a/output_0_split_3
I0403 15:43:31.545915 14260 net.cpp:399] inception_5b/pool -> inception_5b/pool
I0403 15:43:31.545989 14260 net.cpp:141] Setting up inception_5b/pool
I0403 15:43:31.546012 14260 net.cpp:148] Top shape: 24 832 7 7 (978432)
I0403 15:43:31.546026 14260 net.cpp:156] Memory required for data: 1339843104
I0403 15:43:31.546041 14260 layer_factory.hpp:77] Creating layer inception_5b/pool_proj
I0403 15:43:31.546063 14260 net.cpp:91] Creating Layer inception_5b/pool_proj
I0403 15:43:31.546080 14260 net.cpp:425] inception_5b/pool_proj <- inception_5b/pool
I0403 15:43:31.546098 14260 net.cpp:399] inception_5b/pool_proj -> inception_5b/pool_proj
I0403 15:43:31.548384 14260 net.cpp:141] Setting up inception_5b/pool_proj
I0403 15:43:31.548415 14260 net.cpp:148] Top shape: 24 128 7 7 (150528)
I0403 15:43:31.548432 14260 net.cpp:156] Memory required for data: 1340445216
I0403 15:43:31.548451 14260 layer_factory.hpp:77] Creating layer inception_5b/relu_pool_proj
I0403 15:43:31.548468 14260 net.cpp:91] Creating Layer inception_5b/relu_pool_proj
I0403 15:43:31.548485 14260 net.cpp:425] inception_5b/relu_pool_proj <- inception_5b/pool_proj
I0403 15:43:31.548501 14260 net.cpp:386] inception_5b/relu_pool_proj -> inception_5b/pool_proj (in-place)
I0403 15:43:31.548795 14260 net.cpp:141] Setting up inception_5b/relu_pool_proj
I0403 15:43:31.548823 14260 net.cpp:148] Top shape: 24 128 7 7 (150528)
I0403 15:43:31.548840 14260 net.cpp:156] Memory required for data: 1341047328
I0403 15:43:31.548854 14260 layer_factory.hpp:77] Creating layer inception_5b/output
I0403 15:43:31.548872 14260 net.cpp:91] Creating Layer inception_5b/output
I0403 15:43:31.548903 14260 net.cpp:425] inception_5b/output <- inception_5b/1x1
I0403 15:43:31.548921 14260 net.cpp:425] inception_5b/output <- inception_5b/3x3
I0403 15:43:31.548938 14260 net.cpp:425] inception_5b/output <- inception_5b/5x5
I0403 15:43:31.548954 14260 net.cpp:425] inception_5b/output <- inception_5b/pool_proj
I0403 15:43:31.548970 14260 net.cpp:399] inception_5b/output -> inception_5b/output
I0403 15:43:31.549026 14260 net.cpp:141] Setting up inception_5b/output
I0403 15:43:31.549048 14260 net.cpp:148] Top shape: 24 1024 7 7 (1204224)
I0403 15:43:31.549062 14260 net.cpp:156] Memory required for data: 1345864224
I0403 15:43:31.549077 14260 layer_factory.hpp:77] Creating layer pool5/7x7_s1
I0403 15:43:31.549095 14260 net.cpp:91] Creating Layer pool5/7x7_s1
I0403 15:43:31.549113 14260 net.cpp:425] pool5/7x7_s1 <- inception_5b/output
I0403 15:43:31.549135 14260 net.cpp:399] pool5/7x7_s1 -> pool5/7x7_s1
I0403 15:43:31.549351 14260 net.cpp:141] Setting up pool5/7x7_s1
I0403 15:43:31.549379 14260 net.cpp:148] Top shape: 24 1024 1 1 (24576)
I0403 15:43:31.549401 14260 net.cpp:156] Memory required for data: 1345962528
I0403 15:43:31.549415 14260 layer_factory.hpp:77] Creating layer pool5/drop_7x7_s1
I0403 15:43:31.549432 14260 net.cpp:91] Creating Layer pool5/drop_7x7_s1
I0403 15:43:31.549448 14260 net.cpp:425] pool5/drop_7x7_s1 <- pool5/7x7_s1
I0403 15:43:31.549465 14260 net.cpp:386] pool5/drop_7x7_s1 -> pool5/7x7_s1 (in-place)
I0403 15:43:31.549515 14260 net.cpp:141] Setting up pool5/drop_7x7_s1
I0403 15:43:31.549538 14260 net.cpp:148] Top shape: 24 1024 1 1 (24576)
I0403 15:43:31.549552 14260 net.cpp:156] Memory required for data: 1346060832
I0403 15:43:31.549566 14260 layer_factory.hpp:77] Creating layer loss3/classifier_plantvillage
I0403 15:43:31.549587 14260 net.cpp:91] Creating Layer loss3/classifier_plantvillage
I0403 15:43:31.549604 14260 net.cpp:425] loss3/classifier_plantvillage <- pool5/7x7_s1
I0403 15:43:31.549621 14260 net.cpp:399] loss3/classifier_plantvillage -> loss3/classifier_plantvillage
I0403 15:43:31.550041 14260 net.cpp:141] Setting up loss3/classifier_plantvillage
I0403 15:43:31.550066 14260 net.cpp:148] Top shape: 24 38 (912)
I0403 15:43:31.550081 14260 net.cpp:156] Memory required for data: 1346064480
I0403 15:43:31.550098 14260 layer_factory.hpp:77] Creating layer loss3/classifier_plantvillage_loss3/classifier_plantvillage_0_split
I0403 15:43:31.550115 14260 net.cpp:91] Creating Layer loss3/classifier_plantvillage_loss3/classifier_plantvillage_0_split
I0403 15:43:31.550135 14260 net.cpp:425] loss3/classifier_plantvillage_loss3/classifier_plantvillage_0_split <- loss3/classifier_plantvillage
I0403 15:43:31.550158 14260 net.cpp:399] loss3/classifier_plantvillage_loss3/classifier_plantvillage_0_split -> loss3/classifier_plantvillage_loss3/classifier_plantvillage_0_split_0
I0403 15:43:31.550179 14260 net.cpp:399] loss3/classifier_plantvillage_loss3/classifier_plantvillage_0_split -> loss3/classifier_plantvillage_loss3/classifier_plantvillage_0_split_1
I0403 15:43:31.550200 14260 net.cpp:399] loss3/classifier_plantvillage_loss3/classifier_plantvillage_0_split -> loss3/classifier_plantvillage_loss3/classifier_plantvillage_0_split_2
I0403 15:43:31.550220 14260 net.cpp:399] loss3/classifier_plantvillage_loss3/classifier_plantvillage_0_split -> loss3/classifier_plantvillage_loss3/classifier_plantvillage_0_split_3
I0403 15:43:31.550324 14260 net.cpp:141] Setting up loss3/classifier_plantvillage_loss3/classifier_plantvillage_0_split
I0403 15:43:31.550348 14260 net.cpp:148] Top shape: 24 38 (912)
I0403 15:43:31.550364 14260 net.cpp:148] Top shape: 24 38 (912)
I0403 15:43:31.550379 14260 net.cpp:148] Top shape: 24 38 (912)
I0403 15:43:31.550403 14260 net.cpp:148] Top shape: 24 38 (912)
I0403 15:43:31.550416 14260 net.cpp:156] Memory required for data: 1346079072
I0403 15:43:31.550431 14260 layer_factory.hpp:77] Creating layer loss1/loss
I0403 15:43:31.550453 14260 net.cpp:91] Creating Layer loss1/loss
I0403 15:43:31.550470 14260 net.cpp:425] loss1/loss <- loss1/classifier_plantvillage_loss1/classifier_plantvillage_0_split_0
I0403 15:43:31.550501 14260 net.cpp:425] loss1/loss <- label_data_1_split_0
…
