…
I0403 15:52:45.843250 14799 net.cpp:313] The NetState phase (1) differed from the phase (0) specified by a rule in layer data
I0403 15:52:45.844466 14799 net.cpp:49] Initializing net from parameters: 
state {
  phase: TEST
}
layer {
  name: "data"
  type: "Data"
  top: "data"
  top: "label"
  include {
    phase: TEST
  }
  transform_param {
    mirror: false
    crop_size: 224
    mean_file: "/home/mohanty/data/final_dataset/lmdb/color-80-20/mean.binaryproto"
  }
  data_param {
    source: "/home/mohanty/data/final_dataset/lmdb/color-80-20/test_db"
    batch_size: 24
    backend: LMDB
  }
}
layer {
  name: "conv1/7x7_s2"
  type: "Convolution"
  bottom: "data"
  top: "conv1/7x7_s2"
  param {
    lr_mult: 1
    decay_mult: 1
  }
  param {
    lr_mult: 2
    decay_mult: 0
  }
  convolution_param {
    num_output: 64
    pad: 3
    kernel_size: 7
    stride: 2
    weight_filler {
      type: "xavier"
      std: 0.1
    }
    bias_filler {
      type: "constant"
      value: 0.2
    }
  }
}
layer {
  name: "conv1/relu_7x7"
  type: "ReLU"
  bottom: "conv1/7x7_s2"
  top: "conv1/7x7_s2"
}
layer {
  name: "pool1/3x3_s2"
  type: "Pooling"
  bottom: "conv1/7x7_s2"
  top: "pool1/3x3_s2"
  pooling_param {
    pool: MAX
    kernel_size: 3
    stride: 2
  }
}
layer {
  name: "pool1/norm1"
  type: "LRN"
  bottom: "pool1/3x3_s2"
  top: "pool1/norm1"
  lrn_param {
    local_size: 5
    alpha: 0.0001
    beta: 0.75
  }
}
layer {
  name: "conv2/3x3_reduce"
  type: "Convolution"
  bottom: "pool1/norm1"
  top: "conv2/3x3_reduce"
  param {
    lr_mult: 1
    decay_mult: 1
  }
  param {
    lr_mult: 2
    decay_mult: 0
  }
  convolution_param {
    num_output: 64
    kernel_size: 1
    weight_filler {
      type: "xavier"
      std: 0.1
    }
    bias_filler {
      type: "constant"
      value: 0.2
    }
  }
}
layer {
  name: "conv2/relu_3x3_reduce"
  type: "ReLU"
  bottom: "conv2/3x3_reduce"
  top: "conv2/3x3_reduce"
}
layer {
  name: "conv2/3x3"
  type: "Convolution"
  bottom: "conv2/3x3_reduce"
  top: "conv2/3x3"
  param {
    lr_mult: 1
    decay_mult: 1
  }
  param {
    lr_mult: 2
    decay_mult: 0
  }
  convolution_param {
    num_output: 192
    pad: 1
    kernel_size: 3
    weight_filler {
      type: "xavier"
      std: 0.03
    }
    bias_filler {
      type: "constant"
      value: 0.2
    }
  }
}
layer {
  name: "conv2/relu_3x3"
  type: "ReLU"
  bottom: "conv2/3x3"
  top: "conv2/3x3"
}
layer {
  name: "conv2/norm2"
  type: "LRN"
  bottom: "conv2/3x3"
  top: "conv2/norm2"
  lrn_param {
    local_size: 5
    alpha: 0.0001
    beta: 0.75
  }
}
layer {
  name: "pool2/3x3_s2"
  type: "Pooling"
  bottom: "conv2/norm2"
  top: "pool2/3x3_s2"
  pooling_param {
    pool: MAX
    kernel_size: 3
    stride: 2
  }
}
layer {
  name: "inception_3a/1x1"
  type: "Convolution"
  bottom: "pool2/3x3_s2"
  top: "inception_3a/1x1"
  param {
    lr_mult: 1
    decay_mult: 1
  }
  param {
    lr_mult: 2
    decay_mult: 0
  }
  convolution_param {
    num_output: 64
    kernel_size: 1
    weight_filler {
      type: "xavier"
      std: 0.03
    }
    bias_filler {
      type: "constant"
      value: 0.2
    }
  }
}
layer {
  name: "inception_3a/relu_1x1"
  type: "ReLU"
  bottom: "inception_3a/1x1"
  top: "inception_3a/1x1"
}
layer {
  name: "inception_3a/3x3_reduce"
  type: "Convolution"
  bottom: "pool2/3x3_s2"
  top: "inception_3a/3x3_reduce"
  param {
    lr_mult: 1
    decay_mult: 1
  }
  param {
    lr_mult: 2
    decay_mult: 0
  }
  convolution_param {
    num_output: 96
    kernel_size: 1
    weight_filler {
      type: "xavier"
      std: 0.09
    }
    bias_filler {
      type: "constant"
      value: 0.2
    }
  }
}
layer {
  name: "inception_3a/relu_3x3_reduce"
  type: "ReLU"
  bottom: "inception_3a/3x3_reduce"
  top: "inception_3a/3x3_reduce"
}
layer {
  name: "inception_3a/3x3"
  type: "Convolution"
  bottom: "inception_3a/3x3_reduce"
  top: "inception_3a/3x3"
  param {
    lr_mult: 1
    decay_mult: 1
  }
  param {
    lr_mult: 2
    decay_mult: 0
  }
  convolution_param {
    num_output: 128
    pad: 1
    kernel_size: 3
    weight_filler {
      type: "xavier"
      std: 0.03
    }
    bias_filler {
      type: "constant"
      value: 0.2
    }
  }
}
layer {
  name: "inception_3a/relu_3x3"
  type: "ReLU"
  bottom: "inception_3a/3x3"
  top: "inception_3a/3x3"
}
layer {
  name: "inception_3a/5x5_reduce"
  type: "Convolution"
  bottom: "pool2/3x3_s2"
  top: "inception_3a/5x5_reduce"
  param {
    lr_mult: 1
    decay_mult: 1
  }
  param {
    lr_mult: 2
    decay_mult: 0
  }
  convolution_param {
    num_output: 16
    kernel_size: 1
    weight_filler {
      type: "xavier"
      std: 0.2
    }
    bias_filler {
      type: "constant"
      value: 0.2
    }
  }
}
layer {
  name: "inception_3a/relu_5x5_reduce"
  type: "ReLU"
  bottom: "inception_3a/5x5_reduce"
  top: "inception_3a/5x5_reduce"
}
layer {
  name: "inception_3a/5x5"
  type: "Convolution"
  bottom: "inception_3a/5x5_reduce"
  top: "inception_3a/5x5"
  param {
    lr_mult: 1
    decay_mult: 1
  }
  param {
    lr_mult: 2
    decay_mult: 0
  }
  convolution_param {
    num_output: 32
    pad: 2
    kernel_size: 5
    weight_filler {
      type: "xavier"
      std: 0.03
    }
    bias_filler {
      type: "constant"
      value: 0.2
    }
  }
}
layer {
  name: "inception_3a/relu_5x5"
  type: "ReLU"
  bottom: "inception_3a/5x5"
  top: "inception_3a/5x5"
}
layer {
  name: "inception_3a/pool"
  type: "Pooling"
  bottom: "pool2/3x3_s2"
  top: "inception_3a/pool"
  pooling_param {
    pool: MAX
    kernel_size: 3
    stride: 1
    pad: 1
  }
}
layer {
  name: "inception_3a/pool_proj"
  type: "Convolution"
  bottom: "inception_3a/pool"
  top: "inception_3a/pool_proj"
  param {
    lr_mult: 1
    decay_mult: 1
  }
  param {
    lr_mult: 2
    decay_mult: 0
  }
  convolution_param {
    num_output: 32
    kernel_size: 1
    weight_filler {
      type: "xavier"
      std: 0.1
    }
    bias_filler {
      type: "constant"
      value: 0.2
    }
  }
}
layer {
  name: "inception_3a/relu_pool_proj"
  type: "ReLU"
  bottom: "inception_3a/pool_proj"
  top: "inception_3a/pool_proj"
}
layer {
  name: "inception_3a/output"
  type: "Concat"
  bottom: "inception_3a/1x1"
  bottom: "inception_3a/3x3"
  bottom: "inception_3a/5x5"
  bottom: "inception_3a/pool_proj"
  top: "inception_3a/output"
}
layer {
  name: "inception_3b/1x1"
  type: "Convolution"
  bottom: "inception_3a/output"
  top: "inception_3b/1x1"
  param {
    lr_mult: 1
    decay_mult: 1
  }
  param {
    lr_mult: 2
    decay_mult: 0
  }
  convolution_param {
    num_output: 128
    kernel_size: 1
    weight_filler {
      type: "xavier"
      std: 0.03
    }
    bias_filler {
      type: "constant"
      value: 0.2
    }
  }
}
layer {
  name: "inception_3b/relu_1x1"
  type: "ReLU"
  bottom: "inception_3b/1x1"
  top: "inception_3b/1x1"
}
layer {
  name: "inception_3b/3x3_reduce"
  type: "Convolution"
  bottom: "inception_3a/output"
  top: "inception_3b/3x3_reduce"
  param {
    lr_mult: 1
    decay_mult: 1
  }
  param {
    lr_mult: 2
    decay_mult: 0
  }
  convolution_param {
    num_output: 128
    kernel_size: 1
    weight_filler {
      type: "xavier"
      std: 0.09
    }
    bias_filler {
      type: "constant"
      value: 0.2
    }
  }
}
layer {
  name: "inception_3b/relu_3x3_reduce"
  type: "ReLU"
  bottom: "inception_3b/3x3_reduce"
  top: "inception_3b/3x3_reduce"
}
layer {
  name: "inception_3b/3x3"
  type: "Convolution"
  bottom: "inception_3b/3x3_reduce"
  top: "inception_3b/3x3"
  param {
    lr_mult: 1
    decay_mult: 1
  }
  param {
    lr_mult: 2
    decay_mult: 0
  }
  convolution_param {
    num_output: 192
    pad: 1
    kernel_size: 3
    weight_filler {
      type: "xavier"
      std: 0.03
    }
    bias_filler {
      type: "constant"
      value: 0.2
    }
  }
}
layer {
  name: "inception_3b/relu_3x3"
  type: "ReLU"
  bottom: "inception_3b/3x3"
  top: "inception_3b/3x3"
}
layer {
  name: "inception_3b/5x5_reduce"
  type: "Convolution"
  bottom: "inception_3a/output"
  top: "inception_3b/5x5_reduce"
  param {
    lr_mult: 1
    decay_mult: 1
  }
  param {
    lr_mult: 2
    decay_mult: 0
  }
  convolution_param {
    num_output: 32
    kernel_size: 1
    weight_filler {
      type: "xavier"
      std: 0.2
    }
    bias_filler {
      type: "constant"
      value: 0.2
    }
  }
}
layer {
  name: "inception_3b/relu_5x5_reduce"
  type: "ReLU"
  bottom: "inception_3b/5x5_reduce"
  top: "inception_3b/5x5_reduce"
}
layer {
  name: "inception_3b/5x5"
  type: "Convolution"
  bottom: "inception_3b/5x5_reduce"
  top: "inception_3b/5x5"
  param {
    lr_mult: 1
    decay_mult: 1
  }
  param {
    lr_mult: 2
    decay_mult: 0
  }
  convolution_param {
    num_output: 96
    pad: 2
    kernel_size: 5
    weight_filler {
      type: "xavier"
      std: 0.03
    }
    bias_filler {
      type: "constant"
      value: 0.2
    }
  }
}
layer {
  name: "inception_3b/relu_5x5"
  type: "ReLU"
  bottom: "inception_3b/5x5"
  top: "inception_3b/5x5"
}
layer {
  name: "inception_3b/pool"
  type: "Pooling"
  bottom: "inception_3a/output"
  top: "inception_3b/pool"
  pooling_param {
    pool: MAX
    kernel_size: 3
    stride: 1
    pad: 1
  }
}
layer {
  name: "inception_3b/pool_proj"
  type: "Convolution"
  bottom: "inception_3b/pool"
  top: "inception_3b/pool_proj"
  param {
    lr_mult: 1
    decay_mult: 1
  }
  param {
    lr_mult: 2
    decay_mult: 0
  }
  convolution_param {
    num_output: 64
    kernel_size: 1
    weight_filler {
      type: "xavier"
      std: 0.1
    }
    bias_filler {
      type: "constant"
      value: 0.2
    }
  }
}
layer {
  name: "inception_3b/relu_pool_proj"
  type: "ReLU"
  bottom: "inception_3b/pool_proj"
  top: "inception_3b/pool_proj"
}
layer {
  name: "inception_3b/output"
  type: "Concat"
  bottom: "inception_3b/1x1"
  bottom: "inception_3b/3x3"
  bottom: "inception_3b/5x5"
  bottom: "inception_3b/pool_proj"
  top: "inception_3b/output"
}
layer {
  name: "pool3/3x3_s2"
  type: "Pooling"
  bottom: "inception_3b/output"
  top: "pool3/3x3_s2"
  pooling_param {
    pool: MAX
    kernel_size: 3
    stride: 2
  }
}
layer {
  name: "inception_4a/1x1"
  type: "Convolution"
  bottom: "pool3/3x3_s2"
  top: "inception_4a/1x1"
  param {
    lr_mult: 1
    decay_mult: 1
  }
  param {
    lr_mult: 2
    decay_mult: 0
  }
  convolution_param {
    num_output: 192
    kernel_size: 1
    weight_filler {
      type: "xavier"
      std: 0.03
    }
    bias_filler {
      type: "constant"
      value: 0.2
    }
  }
}
layer {
  name: "inception_4a/relu_1x1"
  type: "ReLU"
  bottom: "inception_4a/1x1"
  top: "inception_4a/1x1"
}
layer {
  name: "inception_4a/3x3_reduce"
  type: "Convolution"
  bottom: "pool3/3x3_s2"
  top: "inception_4a/3x3_reduce"
  param {
    lr_mult: 1
    decay_mult: 1
  }
  param {
    lr_mult: 2
    decay_mult: 0
  }
  convolution_param {
    num_output: 96
    kernel_size: 1
    weight_filler {
      type: "xavier"
      std: 0.09
    }
    bias_filler {
      type: "constant"
      value: 0.2
    }
  }
}
layer {
  name: "inception_4a/relu_3x3_reduce"
  type: "ReLU"
  bottom: "inception_4a/3x3_reduce"
  top: "inception_4a/3x3_reduce"
}
layer {
  name: "inception_4a/3x3"
  type: "Convolution"
  bottom: "inception_4a/3x3_reduce"
  top: "inception_4a/3x3"
  param {
    lr_mult: 1
    decay_mult: 1
  }
  param {
    lr_mult: 2
    decay_mult: 0
  }
  convolution_param {
    num_output: 208
    pad: 1
    kernel_size: 3
    weight_filler {
      type: "xavier"
      std: 0.03
    }
    bias_filler {
      type: "constant"
      value: 0.2
    }
  }
}
layer {
  name: "inception_4a/relu_3x3"
  type: "ReLU"
  bottom: "inception_4a/3x3"
  top: "inception_4a/3x3"
}
layer {
  name: "inception_4a/5x5_reduce"
  type: "Convolution"
  bottom: "pool3/3x3_s2"
  top: "inception_4a/5x5_reduce"
  param {
    lr_mult: 1
    decay_mult: 1
  }
  param {
    lr_mult: 2
    decay_mult: 0
  }
  convolution_param {
    num_output: 16
    kernel_size: 1
    weight_filler {
      type: "xavier"
      std: 0.2
    }
    bias_filler {
      type: "constant"
      value: 0.2
    }
  }
}
layer {
  name: "inception_4a/relu_5x5_reduce"
  type: "ReLU"
  bottom: "inception_4a/5x5_reduce"
  top: "inception_4a/5x5_reduce"
}
layer {
  name: "inception_4a/5x5"
  type: "Convolution"
  bottom: "inception_4a/5x5_reduce"
  top: "inception_4a/5x5"
  param {
    lr_mult: 1
    decay_mult: 1
  }
  param {
    lr_mult: 2
    decay_mult: 0
  }
  convolution_param {
    num_output: 48
    pad: 2
    kernel_size: 5
    weight_filler {
      type: "xavier"
      std: 0.03
    }
    bias_filler {
      type: "constant"
      value: 0.2
    }
  }
}
layer {
  name: "inception_4a/relu_5x5"
  type: "ReLU"
  bottom: "inception_4a/5x5"
  top: "inception_4a/5x5"
}
layer {
  name: "inception_4a/pool"
  type: "Pooling"
  bottom: "pool3/3x3_s2"
  top: "inception_4a/pool"
  pooling_param {
    pool: MAX
    kernel_size: 3
    stride: 1
    pad: 1
  }
}
layer {
  name: "inception_4a/pool_proj"
  type: "Convolution"
  bottom: "inception_4a/pool"
  top: "inception_4a/pool_proj"
  param {
    lr_mult: 1
    decay_mult: 1
  }
  param {
    lr_mult: 2
    decay_mult: 0
  }
  convolution_param {
    num_output: 64
    kernel_size: 1
    weight_filler {
      type: "xavier"
      std: 0.1
    }
    bias_filler {
      type: "constant"
      value: 0.2
    }
  }
}
layer {
  name: "inception_4a/relu_pool_proj"
  type: "ReLU"
  bottom: "inception_4a/pool_proj"
  top: "inception_4a/pool_proj"
}
layer {
  name: "inception_4a/output"
  type: "Concat"
  bottom: "inception_4a/1x1"
  bottom: "inception_4a/3x3"
  bottom: "inception_4a/5x5"
  bottom: "inception_4a/pool_proj"
  top: "inception_4a/output"
}
layer {
  name: "loss1/ave_pool"
  type: "Pooling"
  bottom: "inception_4a/output"
  top: "loss1/ave_pool"
  pooling_param {
    pool: AVE
    kernel_size: 5
    stride: 3
  }
}
layer {
  name: "loss1/conv"
  type: "Convolution"
  bottom: "loss1/ave_pool"
  top: "loss1/conv"
  param {
    lr_mult: 1
    decay_mult: 1
  }
  param {
    lr_mult: 2
    decay_mult: 0
  }
  convolution_param {
    num_output: 128
    kernel_size: 1
    weight_filler {
      type: "xavier"
      std: 0.08
    }
    bias_filler {
      type: "constant"
      value: 0.2
    }
  }
}
layer {
  name: "loss1/relu_conv"
  type: "ReLU"
  bottom: "loss1/conv"
  top: "loss1/conv"
}
layer {
  name: "loss1/fc"
  type: "InnerProduct"
  bottom: "loss1/conv"
  top: "loss1/fc"
  param {
    lr_mult: 1
    decay_mult: 1
  }
  param {
    lr_mult: 2
    decay_mult: 0
  }
  inner_product_param {
    num_output: 1024
    weight_filler {
      type: "xavier"
      std: 0.02
    }
    bias_filler {
      type: "constant"
      value: 0.2
    }
  }
}
layer {
  name: "loss1/relu_fc"
  type: "ReLU"
  bottom: "loss1/fc"
  top: "loss1/fc"
}
layer {
  name: "loss1/drop_fc"
  type: "Dropout"
  bottom: "loss1/fc"
  top: "loss1/fc"
  dropout_param {
    dropout_ratio: 0.7
  }
}
layer {
  name: "loss1/classifier_plantvillage"
  type: "InnerProduct"
  bottom: "loss1/fc"
  top: "loss1/classifier_plantvillage"
  param {
    lr_mult: 1
    decay_mult: 1
  }
  param {
    lr_mult: 2
    decay_mult: 0
  }
  inner_product_param {
    num_output: 38
    weight_filler {
      type: "xavier"
      std: 0.0009765625
    }
    bias_filler {
      type: "constant"
      value: 0
    }
  }
}
layer {
  name: "inception_4b/1x1"
  type: "Convolution"
  bottom: "inception_4a/output"
  top: "inception_4b/1x1"
  param {
    lr_mult: 1
    decay_mult: 1
  }
  param {
    lr_mult: 2
    decay_mult: 0
  }
  convolution_param {
    num_output: 160
    kernel_size: 1
    weight_filler {
      type: "xavier"
      std: 0.03
    }
    bias_filler {
      type: "constant"
      value: 0.2
    }
  }
}
layer {
  name: "inception_4b/relu_1x1"
  type: "ReLU"
  bottom: "inception_4b/1x1"
  top: "inception_4b/1x1"
}
layer {
  name: "inception_4b/3x3_reduce"
  type: "Convolution"
  bottom: "inception_4a/output"
  top: "inception_4b/3x3_reduce"
  param {
    lr_mult: 1
    decay_mult: 1
  }
  param {
    lr_mult: 2
    decay_mult: 0
  }
  convolution_param {
    num_output: 112
    kernel_size: 1
    weight_filler {
      type: "xavier"
      std: 0.09
    }
    bias_filler {
      type: "constant"
      value: 0.2
    }
  }
}
layer {
  name: "inception_4b/relu_3x3_reduce"
  type: "ReLU"
  bottom: "inception_4b/3x3_reduce"
  top: "inception_4b/3x3_reduce"
}
layer {
  name: "inception_4b/3x3"
  type: "Convolution"
  bottom: "inception_4b/3x3_reduce"
  top: "inception_4b/3x3"
  param {
    lr_mult: 1
    decay_mult: 1
  }
  param {
    lr_mult: 2
    decay_mult: 0
  }
  convolution_param {
    num_output: 224
    pad: 1
    kernel_size: 3
    weight_filler {
      type: "xavier"
      std: 0.03
    }
    bias_filler {
      type: "constant"
      value: 0.2
    }
  }
}
layer {
  name: "inception_4b/relu_3x3"
  type: "ReLU"
  bottom: "inception_4b/3x3"
  top: "inception_4b/3x3"
}
layer {
  name: "inception_4b/5x5_reduce"
  type: "Convolution"
  bottom: "inception_4a/output"
  top: "inception_4b/5x5_reduce"
  param {
    lr_mult: 1
    decay_mult: 1
  }
  param {
    lr_mult: 2
    decay_mult: 0
  }
  convolution_param {
    num_output: 24
    kernel_size: 1
    weight_filler {
      type: "xavier"
      std: 0.2
    }
    bias_filler {
      type: "constant"
      value: 0.2
    }
  }
}
layer {
  name: "inception_4b/relu_5x5_reduce"
  type: "ReLU"
  bottom: "inception_4b/5x5_reduce"
  top: "inception_4b/5x5_reduce"
}
layer {
  name: "inception_4b/5x5"
  type: "Convolution"
  bottom: "inception_4b/5x5_reduce"
  top: "inception_4b/5x5"
  param {
    lr_mult: 1
    decay_mult: 1
  }
  param {
    lr_mult: 2
    decay_mult: 0
  }
  convolution_param {
    num_output: 64
    pad: 2
    kernel_size: 5
    weight_filler {
      type: "xavier"
      std: 0.03
    }
    bias_filler {
      type: "constant"
      value: 0.2
    }
  }
}
layer {
  name: "inception_4b/relu_5x5"
  type: "ReLU"
  bottom: "inception_4b/5x5"
  top: "inception_4b/5x5"
}
layer {
  name: "inception_4b/pool"
  type: "Pooling"
  bottom: "inception_4a/output"
  top: "inception_4b/pool"
  pooling_param {
    pool: MAX
    kernel_size: 3
    stride: 1
    pad: 1
  }
}
layer {
  name: "inception_4b/pool_proj"
  type: "Convolution"
  bottom: "inception_4b/pool"
  top: "inception_4b/pool_proj"
  param {
    lr_mult: 1
    decay_mult: 1
  }
  param {
    lr_mult: 2
    decay_mult: 0
  }
  convolution_param {
    num_output: 64
    kernel_size: 1
    weight_filler {
      type: "xavier"
      std: 0.1
    }
    bias_filler {
      type: "constant"
      value: 0.2
    }
  }
}
layer {
  name: "inception_4b/relu_pool_proj"
  type: "ReLU"
  bottom: "inception_4b/pool_proj"
  top: "inception_4b/pool_proj"
}
layer {
  name: "inception_4b/output"
  type: "Concat"
  bottom: "inception_4b/1x1"
  bottom: "inception_4b/3x3"
  bottom: "inception_4b/5x5"
  bottom: "inception_4b/pool_proj"
  top: "inception_4b/output"
}
layer {
  name: "inception_4c/1x1"
  type: "Convolution"
  bottom: "inception_4b/output"
  top: "inception_4c/1x1"
  param {
    lr_mult: 1
    decay_mult: 1
  }
  param {
    lr_mult: 2
    decay_mult: 0
  }
  convolution_param {
    num_output: 128
    kernel_size: 1
    weight_filler {
      type: "xavier"
      std: 0.03
    }
    bias_filler {
      type: "constant"
      value: 0.2
    }
  }
}
layer {
  name: "inception_4c/relu_1x1"
  type: "ReLU"
  bottom: "inception_4c/1x1"
  top: "inception_4c/1x1"
}
layer {
  name: "inception_4c/3x3_reduce"
  type: "Convolution"
  bottom: "inception_4b/output"
  top: "inception_4c/3x3_reduce"
  param {
    lr_mult: 1
    decay_mult: 1
  }
  param {
    lr_mult: 2
    decay_mult: 0
  }
  convolution_param {
    num_output: 128
    kernel_size: 1
    weight_filler {
      type: "xavier"
      std: 0.09
    }
    bias_filler {
      type: "constant"
      value: 0.2
    }
  }
}
layer {
  name: "inception_4c/relu_3x3_reduce"
  type: "ReLU"
  bottom: "inception_4c/3x3_reduce"
  top: "inception_4c/3x3_reduce"
}
layer {
  name: "inception_4c/3x3"
  type: "Convolution"
  bottom: "inception_4c/3x3_reduce"
  top: "inception_4c/3x3"
  param {
    lr_mult: 1
    decay_mult: 1
  }
  param {
    lr_mult: 2
    decay_mult: 0
  }
  convolution_param {
    num_output: 256
    pad: 1
    kernel_size: 3
    weight_filler {
      type: "xavier"
      std: 0.03
    }
    bias_filler {
      type: "constant"
      value: 0.2
    }
  }
}
layer {
  name: "inception_4c/relu_3x3"
  type: "ReLU"
  bottom: "inception_4c/3x3"
  top: "inception_4c/3x3"
}
layer {
  name: "inception_4c/5x5_reduce"
  type: "Convolution"
  bottom: "inception_4b/output"
  top: "inception_4c/5x5_reduce"
  param {
    lr_mult: 1
    decay_mult: 1
  }
  param {
    lr_mult: 2
    decay_mult: 0
  }
  convolution_param {
    num_output: 24
    kernel_size: 1
    weight_filler {
      type: "xavier"
      std: 0.2
    }
    bias_filler {
      type: "constant"
      value: 0.2
    }
  }
}
layer {
  name: "inception_4c/relu_5x5_reduce"
  type: "ReLU"
  bottom: "inception_4c/5x5_reduce"
  top: "inception_4c/5x5_reduce"
}
layer {
  name: "inception_4c/5x5"
  type: "Convolution"
  bottom: "inception_4c/5x5_reduce"
  top: "inception_4c/5x5"
  param {
    lr_mult: 1
    decay_mult: 1
  }
  param {
    lr_mult: 2
    decay_mult: 0
  }
  convolution_param {
    num_output: 64
    pad: 2
    kernel_size: 5
    weight_filler {
      type: "xavier"
      std: 0.03
    }
    bias_filler {
      type: "constant"
      value: 0.2
    }
  }
}
layer {
  name: "inception_4c/relu_5x5"
  type: "ReLU"
  bottom: "inception_4c/5x5"
  top: "inception_4c/5x5"
}
layer {
  name: "inception_4c/pool"
  type: "Pooling"
  bottom: "inception_4b/output"
  top: "inception_4c/pool"
  pooling_param {
    pool: MAX
    kernel_size: 3
    stride: 1
    pad: 1
  }
}
layer {
  name: "inception_4c/pool_proj"
  type: "Convolution"
  bottom: "inception_4c/pool"
  top: "inception_4c/pool_proj"
  param {
    lr_mult: 1
    decay_mult: 1
  }
  param {
    lr_mult: 2
    decay_mult: 0
  }
  convolution_param {
    num_output: 64
    kernel_size: 1
    weight_filler {
      type: "xavier"
      std: 0.1
    }
    bias_filler {
      type: "constant"
      value: 0.2
    }
  }
}
layer {
  name: "inception_4c/relu_pool_proj"
  type: "ReLU"
  bottom: "inception_4c/pool_proj"
  top: "inception_4c/pool_proj"
}
layer {
  name: "inception_4c/output"
  type: "Concat"
  bottom: "inception_4c/1x1"
  bottom: "inception_4c/3x3"
  bottom: "inception_4c/5x5"
  bottom: "inception_4c/pool_proj"
  top: "inception_4c/output"
}
layer {
  name: "inception_4d/1x1"
  type: "Convolution"
  bottom: "inception_4c/output"
  top: "inception_4d/1x1"
  param {
    lr_mult: 1
    decay_mult: 1
  }
  param {
    lr_mult: 2
    decay_mult: 0
  }
  convolution_param {
    num_output: 112
    kernel_size: 1
    weight_filler {
      type: "xavier"
      std: 0.03
    }
    bias_filler {
      type: "constant"
      value: 0.2
    }
  }
}
layer {
  name: "inception_4d/relu_1x1"
  type: "ReLU"
  bottom: "inception_4d/1x1"
  top: "inception_4d/1x1"
}
layer {
  name: "inception_4d/3x3_reduce"
  type: "Convolution"
  bottom: "inception_4c/output"
  top: "inception_4d/3x3_reduce"
  param {
    lr_mult: 1
    decay_mult: 1
  }
  param {
    lr_mult: 2
    decay_mult: 0
  }
  convolution_param {
    num_output: 144
    kernel_size: 1
    weight_filler {
      type: "xavier"
      std: 0.09
    }
    bias_filler {
      type: "constant"
      value: 0.2
    }
  }
}
layer {
  name: "inception_4d/relu_3x3_reduce"
  type: "ReLU"
  bottom: "inception_4d/3x3_reduce"
  top: "inception_4d/3x3_reduce"
}
layer {
  name: "inception_4d/3x3"
  type: "Convolution"
  bottom: "inception_4d/3x3_reduce"
  top: "inception_4d/3x3"
  param {
    lr_mult: 1
    decay_mult: 1
  }
  param {
    lr_mult: 2
    decay_mult: 0
  }
  convolution_param {
    num_output: 288
    pad: 1
    kernel_size: 3
    weight_filler {
      type: "xavier"
      std: 0.03
    }
    bias_filler {
      type: "constant"
      value: 0.2
    }
  }
}
layer {
  name: "inception_4d/relu_3x3"
  type: "ReLU"
  bottom: "inception_4d/3x3"
  top: "inception_4d/3x3"
}
layer {
  name: "inception_4d/5x5_reduce"
  type: "Convolution"
  bottom: "inception_4c/output"
  top: "inception_4d/5x5_reduce"
  param {
    lr_mult: 1
    decay_mult: 1
  }
  param {
    lr_mult: 2
    decay_mult: 0
  }
  convolution_param {
    num_output: 32
    kernel_size: 1
    weight_filler {
      type: "xavier"
      std: 0.2
    }
    bias_filler {
      type: "constant"
      value: 0.2
    }
  }
}
layer {
  name: "inception_4d/relu_5x5_reduce"
  type: "ReLU"
  bottom: "inception_4d/5x5_reduce"
  top: "inception_4d/5x5_reduce"
}
layer {
  name: "inception_4d/5x5"
  type: "Convolution"
  bottom: "inception_4d/5x5_reduce"
  top: "inception_4d/5x5"
  param {
    lr_mult: 1
    decay_mult: 1
  }
  param {
    lr_mult: 2
    decay_mult: 0
  }
  convolution_param {
    num_output: 64
    pad: 2
    kernel_size: 5
    weight_filler {
      type: "xavier"
      std: 0.03
    }
    bias_filler {
      type: "constant"
      value: 0.2
    }
  }
}
layer {
  name: "inception_4d/relu_5x5"
  type: "ReLU"
  bottom: "inception_4d/5x5"
  top: "inception_4d/5x5"
}
layer {
  name: "inception_4d/pool"
  type: "Pooling"
  bottom: "inception_4c/output"
  top: "inception_4d/pool"
  pooling_param {
    pool: MAX
    kernel_size: 3
    stride: 1
    pad: 1
  }
}
layer {
  name: "inception_4d/pool_proj"
  type: "Convolution"
  bottom: "inception_4d/pool"
  top: "inception_4d/pool_proj"
  param {
    lr_mult: 1
    decay_mult: 1
  }
  param {
    lr_mult: 2
    decay_mult: 0
  }
  convolution_param {
    num_output: 64
    kernel_size: 1
    weight_filler {
      type: "xavier"
      std: 0.1
    }
    bias_filler {
      type: "constant"
      value: 0.2
    }
  }
}
layer {
  name: "inception_4d/relu_pool_proj"
  type: "ReLU"
  bottom: "inception_4d/pool_proj"
  top: "inception_4d/pool_proj"
}
layer {
  name: "inception_4d/output"
  type: "Concat"
  bottom: "inception_4d/1x1"
  bottom: "inception_4d/3x3"
  bottom: "inception_4d/5x5"
  bottom: "inception_4d/pool_proj"
  top: "inception_4d/output"
}
layer {
  name: "loss2/ave_pool"
  type: "Pooling"
  bottom: "inception_4d/output"
  top: "loss2/ave_pool"
  pooling_param {
    pool: AVE
    kernel_size: 5
    stride: 3
  }
}
layer {
  name: "loss2/conv"
  type: "Convolution"
  bottom: "loss2/ave_pool"
  top: "loss2/conv"
  param {
    lr_mult: 1
    decay_mult: 1
  }
  param {
    lr_mult: 2
    decay_mult: 0
  }
  convolution_param {
    num_output: 128
    kernel_size: 1
    weight_filler {
      type: "xavier"
      std: 0.08
    }
    bias_filler {
      type: "constant"
      value: 0.2
    }
  }
}
layer {
  name: "loss2/relu_conv"
  type: "ReLU"
  bottom: "loss2/conv"
  top: "loss2/conv"
}
layer {
  name: "loss2/fc"
  type: "InnerProduct"
  bottom: "loss2/conv"
  top: "loss2/fc"
  param {
    lr_mult: 1
    decay_mult: 1
  }
  param {
    lr_mult: 2
    decay_mult: 0
  }
  inner_product_param {
    num_output: 1024
    weight_filler {
      type: "xavier"
      std: 0.02
    }
    bias_filler {
      type: "constant"
      value: 0.2
    }
  }
}
layer {
  name: "loss2/relu_fc"
  type: "ReLU"
  bottom: "loss2/fc"
  top: "loss2/fc"
}
layer {
  name: "loss2/drop_fc"
  type: "Dropout"
  bottom: "loss2/fc"
  top: "loss2/fc"
  dropout_param {
    dropout_ratio: 0.7
  }
}
layer {
  name: "loss2/classifier_plantvillage"
  type: "InnerProduct"
  bottom: "loss2/fc"
  top: "loss2/classifier_plantvillage"
  param {
    lr_mult: 1
    decay_mult: 1
  }
  param {
    lr_mult: 2
    decay_mult: 0
  }
  inner_product_param {
    num_output: 38
    weight_filler {
      type: "xavier"
      std: 0.0009765625
    }
    bias_filler {
      type: "constant"
      value: 0
    }
  }
}
layer {
  name: "inception_4e/1x1"
  type: "Convolution"
  bottom: "inception_4d/output"
  top: "inception_4e/1x1"
  param {
    lr_mult: 1
    decay_mult: 1
  }
  param {
    lr_mult: 2
    decay_mult: 0
  }
  convolution_param {
    num_output: 256
    kernel_size: 1
    weight_filler {
      type: "xavier"
      std: 0.03
    }
    bias_filler {
      type: "constant"
      value: 0.2
    }
  }
}
layer {
  name: "inception_4e/relu_1x1"
  type: "ReLU"
  bottom: "inception_4e/1x1"
  top: "inception_4e/1x1"
}
layer {
  name: "inception_4e/3x3_reduce"
  type: "Convolution"
  bottom: "inception_4d/output"
  top: "inception_4e/3x3_reduce"
  param {
    lr_mult: 1
    decay_mult: 1
  }
  param {
    lr_mult: 2
    decay_mult: 0
  }
  convolution_param {
    num_output: 160
    kernel_size: 1
    weight_filler {
      type: "xavier"
      std: 0.09
    }
    bias_filler {
      type: "constant"
      value: 0.2
    }
  }
}
layer {
  name: "inception_4e/relu_3x3_reduce"
  type: "ReLU"
  bottom: "inception_4e/3x3_reduce"
  top: "inception_4e/3x3_reduce"
}
layer {
  name: "inception_4e/3x3"
  type: "Convolution"
  bottom: "inception_4e/3x3_reduce"
  top: "inception_4e/3x3"
  param {
    lr_mult: 1
    decay_mult: 1
  }
  param {
    lr_mult: 2
    decay_mult: 0
  }
  convolution_param {
    num_output: 320
    pad: 1
    kernel_size: 3
    weight_filler {
      type: "xavier"
      std: 0.03
    }
    bias_filler {
      type: "constant"
      value: 0.2
    }
  }
}
layer {
  name: "inception_4e/relu_3x3"
  type: "ReLU"
  bottom: "inception_4e/3x3"
  top: "inception_4e/3x3"
}
layer {
  name: "inception_4e/5x5_reduce"
  type: "Convolution"
  bottom: "inception_4d/output"
  top: "inception_4e/5x5_reduce"
  param {
    lr_mult: 1
    decay_mult: 1
  }
  param {
    lr_mult: 2
    decay_mult: 0
  }
  convolution_param {
    num_output: 32
    kernel_size: 1
    weight_filler {
      type: "xavier"
      std: 0.2
    }
    bias_filler {
      type: "constant"
      value: 0.2
    }
  }
}
layer {
  name: "inception_4e/relu_5x5_reduce"
  type: "ReLU"
  bottom: "inception_4e/5x5_reduce"
  top: "inception_4e/5x5_reduce"
}
layer {
  name: "inception_4e/5x5"
  type: "Convolution"
  bottom: "inception_4e/5x5_reduce"
  top: "inception_4e/5x5"
  p
I0403 15:52:45.845753 14799 layer_factory.hpp:77] Creating layer data
I0403 15:52:45.846381 14799 net.cpp:91] Creating Layer data
I0403 15:52:45.846415 14799 net.cpp:399] data -> data
I0403 15:52:45.846474 14799 net.cpp:399] data -> label
I0403 15:52:45.846515 14799 data_transformer.cpp:25] Loading mean file from: /home/mohanty/data/final_dataset/lmdb/color-80-20/mean.binaryproto
I0403 15:52:45.849220 14801 db_lmdb.cpp:38] Opened lmdb /home/mohanty/data/final_dataset/lmdb/color-80-20/test_db
I0403 15:52:45.860887 14799 data_layer.cpp:41] output data size: 24,3,224,224
I0403 15:52:45.889633 14799 net.cpp:141] Setting up data
I0403 15:52:45.889724 14799 net.cpp:148] Top shape: 24 3 224 224 (3612672)
I0403 15:52:45.889750 14799 net.cpp:148] Top shape: 24 (24)
I0403 15:52:45.889766 14799 net.cpp:156] Memory required for data: 14450784
I0403 15:52:45.889796 14799 layer_factory.hpp:77] Creating layer label_data_1_split
I0403 15:52:45.889823 14799 net.cpp:91] Creating Layer label_data_1_split
I0403 15:52:45.889842 14799 net.cpp:425] label_data_1_split <- label
I0403 15:52:45.889874 14799 net.cpp:399] label_data_1_split -> label_data_1_split_0
I0403 15:52:45.889904 14799 net.cpp:399] label_data_1_split -> label_data_1_split_1
I0403 15:52:45.889926 14799 net.cpp:399] label_data_1_split -> label_data_1_split_2
I0403 15:52:45.889947 14799 net.cpp:399] label_data_1_split -> label_data_1_split_3
I0403 15:52:45.889968 14799 net.cpp:399] label_data_1_split -> label_data_1_split_4
I0403 15:52:45.889989 14799 net.cpp:399] label_data_1_split -> label_data_1_split_5
I0403 15:52:45.890008 14799 net.cpp:399] label_data_1_split -> label_data_1_split_6
I0403 15:52:45.890029 14799 net.cpp:399] label_data_1_split -> label_data_1_split_7
I0403 15:52:45.890049 14799 net.cpp:399] label_data_1_split -> label_data_1_split_8
I0403 15:52:45.890071 14799 net.cpp:399] label_data_1_split -> label_data_1_split_9
I0403 15:52:45.890205 14799 net.cpp:141] Setting up label_data_1_split
I0403 15:52:45.890233 14799 net.cpp:148] Top shape: 24 (24)
I0403 15:52:45.890250 14799 net.cpp:148] Top shape: 24 (24)
I0403 15:52:45.890266 14799 net.cpp:148] Top shape: 24 (24)
I0403 15:52:45.890282 14799 net.cpp:148] Top shape: 24 (24)
I0403 15:52:45.890298 14799 net.cpp:148] Top shape: 24 (24)
I0403 15:52:45.890316 14799 net.cpp:148] Top shape: 24 (24)
I0403 15:52:45.890331 14799 net.cpp:148] Top shape: 24 (24)
I0403 15:52:45.890348 14799 net.cpp:148] Top shape: 24 (24)
I0403 15:52:45.890372 14799 net.cpp:148] Top shape: 24 (24)
I0403 15:52:45.890389 14799 net.cpp:148] Top shape: 24 (24)
I0403 15:52:45.890429 14799 net.cpp:156] Memory required for data: 14451744
I0403 15:52:45.890445 14799 layer_factory.hpp:77] Creating layer conv1/7x7_s2
I0403 15:52:45.890477 14799 net.cpp:91] Creating Layer conv1/7x7_s2
I0403 15:52:45.890497 14799 net.cpp:425] conv1/7x7_s2 <- data
I0403 15:52:45.890517 14799 net.cpp:399] conv1/7x7_s2 -> conv1/7x7_s2
I0403 15:52:46.038982 14799 net.cpp:141] Setting up conv1/7x7_s2
I0403 15:52:46.039057 14799 net.cpp:148] Top shape: 24 64 112 112 (19267584)
I0403 15:52:46.039075 14799 net.cpp:156] Memory required for data: 91522080
I0403 15:52:46.039108 14799 layer_factory.hpp:77] Creating layer conv1/relu_7x7
I0403 15:52:46.039140 14799 net.cpp:91] Creating Layer conv1/relu_7x7
I0403 15:52:46.039162 14799 net.cpp:425] conv1/relu_7x7 <- conv1/7x7_s2
I0403 15:52:46.039183 14799 net.cpp:386] conv1/relu_7x7 -> conv1/7x7_s2 (in-place)
I0403 15:52:46.039465 14799 net.cpp:141] Setting up conv1/relu_7x7
I0403 15:52:46.039495 14799 net.cpp:148] Top shape: 24 64 112 112 (19267584)
I0403 15:52:46.039511 14799 net.cpp:156] Memory required for data: 168592416
I0403 15:52:46.039527 14799 layer_factory.hpp:77] Creating layer pool1/3x3_s2
I0403 15:52:46.039554 14799 net.cpp:91] Creating Layer pool1/3x3_s2
I0403 15:52:46.039574 14799 net.cpp:425] pool1/3x3_s2 <- conv1/7x7_s2
I0403 15:52:46.039594 14799 net.cpp:399] pool1/3x3_s2 -> pool1/3x3_s2
I0403 15:52:46.039674 14799 net.cpp:141] Setting up pool1/3x3_s2
I0403 15:52:46.039701 14799 net.cpp:148] Top shape: 24 64 56 56 (4816896)
I0403 15:52:46.039717 14799 net.cpp:156] Memory required for data: 187860000
I0403 15:52:46.039731 14799 layer_factory.hpp:77] Creating layer pool1/norm1
I0403 15:52:46.039757 14799 net.cpp:91] Creating Layer pool1/norm1
I0403 15:52:46.039775 14799 net.cpp:425] pool1/norm1 <- pool1/3x3_s2
I0403 15:52:46.039798 14799 net.cpp:399] pool1/norm1 -> pool1/norm1
I0403 15:52:46.040117 14799 net.cpp:141] Setting up pool1/norm1
I0403 15:52:46.040151 14799 net.cpp:148] Top shape: 24 64 56 56 (4816896)
I0403 15:52:46.040169 14799 net.cpp:156] Memory required for data: 207127584
I0403 15:52:46.040184 14799 layer_factory.hpp:77] Creating layer conv2/3x3_reduce
I0403 15:52:46.040213 14799 net.cpp:91] Creating Layer conv2/3x3_reduce
I0403 15:52:46.040232 14799 net.cpp:425] conv2/3x3_reduce <- pool1/norm1
I0403 15:52:46.040256 14799 net.cpp:399] conv2/3x3_reduce -> conv2/3x3_reduce
I0403 15:52:46.041748 14799 net.cpp:141] Setting up conv2/3x3_reduce
I0403 15:52:46.041781 14799 net.cpp:148] Top shape: 24 64 56 56 (4816896)
I0403 15:52:46.041800 14799 net.cpp:156] Memory required for data: 226395168
I0403 15:52:46.041822 14799 layer_factory.hpp:77] Creating layer conv2/relu_3x3_reduce
I0403 15:52:46.041841 14799 net.cpp:91] Creating Layer conv2/relu_3x3_reduce
I0403 15:52:46.041857 14799 net.cpp:425] conv2/relu_3x3_reduce <- conv2/3x3_reduce
I0403 15:52:46.041877 14799 net.cpp:386] conv2/relu_3x3_reduce -> conv2/3x3_reduce (in-place)
I0403 15:52:46.042165 14799 net.cpp:141] Setting up conv2/relu_3x3_reduce
I0403 15:52:46.042199 14799 net.cpp:148] Top shape: 24 64 56 56 (4816896)
I0403 15:52:46.042218 14799 net.cpp:156] Memory required for data: 245662752
I0403 15:52:46.042235 14799 layer_factory.hpp:77] Creating layer conv2/3x3
I0403 15:52:46.042261 14799 net.cpp:91] Creating Layer conv2/3x3
I0403 15:52:46.042280 14799 net.cpp:425] conv2/3x3 <- conv2/3x3_reduce
I0403 15:52:46.042301 14799 net.cpp:399] conv2/3x3 -> conv2/3x3
I0403 15:52:46.044708 14799 net.cpp:141] Setting up conv2/3x3
I0403 15:52:46.044742 14799 net.cpp:148] Top shape: 24 192 56 56 (14450688)
I0403 15:52:46.044761 14799 net.cpp:156] Memory required for data: 303465504
I0403 15:52:46.044783 14799 layer_factory.hpp:77] Creating layer conv2/relu_3x3
I0403 15:52:46.044805 14799 net.cpp:91] Creating Layer conv2/relu_3x3
I0403 15:52:46.044821 14799 net.cpp:425] conv2/relu_3x3 <- conv2/3x3
I0403 15:52:46.044842 14799 net.cpp:386] conv2/relu_3x3 -> conv2/3x3 (in-place)
I0403 15:52:46.045029 14799 net.cpp:141] Setting up conv2/relu_3x3
I0403 15:52:46.045058 14799 net.cpp:148] Top shape: 24 192 56 56 (14450688)
I0403 15:52:46.045122 14799 net.cpp:156] Memory required for data: 361268256
I0403 15:52:46.045145 14799 layer_factory.hpp:77] Creating layer conv2/norm2
I0403 15:52:46.045168 14799 net.cpp:91] Creating Layer conv2/norm2
I0403 15:52:46.045186 14799 net.cpp:425] conv2/norm2 <- conv2/3x3
I0403 15:52:46.045207 14799 net.cpp:399] conv2/norm2 -> conv2/norm2
I0403 15:52:46.045528 14799 net.cpp:141] Setting up conv2/norm2
I0403 15:52:46.045558 14799 net.cpp:148] Top shape: 24 192 56 56 (14450688)
I0403 15:52:46.045575 14799 net.cpp:156] Memory required for data: 419071008
I0403 15:52:46.045593 14799 layer_factory.hpp:77] Creating layer pool2/3x3_s2
I0403 15:52:46.045615 14799 net.cpp:91] Creating Layer pool2/3x3_s2
I0403 15:52:46.045634 14799 net.cpp:425] pool2/3x3_s2 <- conv2/norm2
I0403 15:52:46.045653 14799 net.cpp:399] pool2/3x3_s2 -> pool2/3x3_s2
I0403 15:52:46.045711 14799 net.cpp:141] Setting up pool2/3x3_s2
I0403 15:52:46.045737 14799 net.cpp:148] Top shape: 24 192 28 28 (3612672)
I0403 15:52:46.045753 14799 net.cpp:156] Memory required for data: 433521696
I0403 15:52:46.045768 14799 layer_factory.hpp:77] Creating layer pool2/3x3_s2_pool2/3x3_s2_0_split
I0403 15:52:46.045789 14799 net.cpp:91] Creating Layer pool2/3x3_s2_pool2/3x3_s2_0_split
I0403 15:52:46.045807 14799 net.cpp:425] pool2/3x3_s2_pool2/3x3_s2_0_split <- pool2/3x3_s2
I0403 15:52:46.045825 14799 net.cpp:399] pool2/3x3_s2_pool2/3x3_s2_0_split -> pool2/3x3_s2_pool2/3x3_s2_0_split_0
I0403 15:52:46.045845 14799 net.cpp:399] pool2/3x3_s2_pool2/3x3_s2_0_split -> pool2/3x3_s2_pool2/3x3_s2_0_split_1
I0403 15:52:46.045867 14799 net.cpp:399] pool2/3x3_s2_pool2/3x3_s2_0_split -> pool2/3x3_s2_pool2/3x3_s2_0_split_2
I0403 15:52:46.045887 14799 net.cpp:399] pool2/3x3_s2_pool2/3x3_s2_0_split -> pool2/3x3_s2_pool2/3x3_s2_0_split_3
I0403 15:52:46.045965 14799 net.cpp:141] Setting up pool2/3x3_s2_pool2/3x3_s2_0_split
I0403 15:52:46.045991 14799 net.cpp:148] Top shape: 24 192 28 28 (3612672)
I0403 15:52:46.046008 14799 net.cpp:148] Top shape: 24 192 28 28 (3612672)
I0403 15:52:46.046025 14799 net.cpp:148] Top shape: 24 192 28 28 (3612672)
I0403 15:52:46.046041 14799 net.cpp:148] Top shape: 24 192 28 28 (3612672)
I0403 15:52:46.046056 14799 net.cpp:156] Memory required for data: 491324448
I0403 15:52:46.046072 14799 layer_factory.hpp:77] Creating layer inception_3a/1x1
I0403 15:52:46.046095 14799 net.cpp:91] Creating Layer inception_3a/1x1
I0403 15:52:46.046115 14799 net.cpp:425] inception_3a/1x1 <- pool2/3x3_s2_pool2/3x3_s2_0_split_0
I0403 15:52:46.046144 14799 net.cpp:399] inception_3a/1x1 -> inception_3a/1x1
I0403 15:52:46.047746 14799 net.cpp:141] Setting up inception_3a/1x1
I0403 15:52:46.047781 14799 net.cpp:148] Top shape: 24 64 28 28 (1204224)
I0403 15:52:46.047801 14799 net.cpp:156] Memory required for data: 496141344
I0403 15:52:46.047824 14799 layer_factory.hpp:77] Creating layer inception_3a/relu_1x1
I0403 15:52:46.047844 14799 net.cpp:91] Creating Layer inception_3a/relu_1x1
I0403 15:52:46.047862 14799 net.cpp:425] inception_3a/relu_1x1 <- inception_3a/1x1
I0403 15:52:46.047879 14799 net.cpp:386] inception_3a/relu_1x1 -> inception_3a/1x1 (in-place)
I0403 15:52:46.048069 14799 net.cpp:141] Setting up inception_3a/relu_1x1
I0403 15:52:46.048096 14799 net.cpp:148] Top shape: 24 64 28 28 (1204224)
I0403 15:52:46.048112 14799 net.cpp:156] Memory required for data: 500958240
I0403 15:52:46.048131 14799 layer_factory.hpp:77] Creating layer inception_3a/3x3_reduce
I0403 15:52:46.048157 14799 net.cpp:91] Creating Layer inception_3a/3x3_reduce
I0403 15:52:46.048177 14799 net.cpp:425] inception_3a/3x3_reduce <- pool2/3x3_s2_pool2/3x3_s2_0_split_1
I0403 15:52:46.048200 14799 net.cpp:399] inception_3a/3x3_reduce -> inception_3a/3x3_reduce
I0403 15:52:46.049980 14799 net.cpp:141] Setting up inception_3a/3x3_reduce
I0403 15:52:46.050014 14799 net.cpp:148] Top shape: 24 96 28 28 (1806336)
I0403 15:52:46.050034 14799 net.cpp:156] Memory required for data: 508183584
I0403 15:52:46.050057 14799 layer_factory.hpp:77] Creating layer inception_3a/relu_3x3_reduce
I0403 15:52:46.050098 14799 net.cpp:91] Creating Layer inception_3a/relu_3x3_reduce
I0403 15:52:46.050118 14799 net.cpp:425] inception_3a/relu_3x3_reduce <- inception_3a/3x3_reduce
I0403 15:52:46.050142 14799 net.cpp:386] inception_3a/relu_3x3_reduce -> inception_3a/3x3_reduce (in-place)
I0403 15:52:46.050333 14799 net.cpp:141] Setting up inception_3a/relu_3x3_reduce
I0403 15:52:46.050361 14799 net.cpp:148] Top shape: 24 96 28 28 (1806336)
I0403 15:52:46.050377 14799 net.cpp:156] Memory required for data: 515408928
I0403 15:52:46.050391 14799 layer_factory.hpp:77] Creating layer inception_3a/3x3
I0403 15:52:46.050416 14799 net.cpp:91] Creating Layer inception_3a/3x3
I0403 15:52:46.050436 14799 net.cpp:425] inception_3a/3x3 <- inception_3a/3x3_reduce
I0403 15:52:46.050454 14799 net.cpp:399] inception_3a/3x3 -> inception_3a/3x3
I0403 15:52:46.052218 14799 net.cpp:141] Setting up inception_3a/3x3
I0403 15:52:46.052249 14799 net.cpp:148] Top shape: 24 128 28 28 (2408448)
I0403 15:52:46.052265 14799 net.cpp:156] Memory required for data: 525042720
I0403 15:52:46.052284 14799 layer_factory.hpp:77] Creating layer inception_3a/relu_3x3
I0403 15:52:46.052304 14799 net.cpp:91] Creating Layer inception_3a/relu_3x3
I0403 15:52:46.052320 14799 net.cpp:425] inception_3a/relu_3x3 <- inception_3a/3x3
I0403 15:52:46.052341 14799 net.cpp:386] inception_3a/relu_3x3 -> inception_3a/3x3 (in-place)
I0403 15:52:46.052634 14799 net.cpp:141] Setting up inception_3a/relu_3x3
I0403 15:52:46.052664 14799 net.cpp:148] Top shape: 24 128 28 28 (2408448)
I0403 15:52:46.052680 14799 net.cpp:156] Memory required for data: 534676512
I0403 15:52:46.052695 14799 layer_factory.hpp:77] Creating layer inception_3a/5x5_reduce
I0403 15:52:46.052722 14799 net.cpp:91] Creating Layer inception_3a/5x5_reduce
I0403 15:52:46.052742 14799 net.cpp:425] inception_3a/5x5_reduce <- pool2/3x3_s2_pool2/3x3_s2_0_split_2
I0403 15:52:46.052764 14799 net.cpp:399] inception_3a/5x5_reduce -> inception_3a/5x5_reduce
I0403 15:52:46.053786 14799 net.cpp:141] Setting up inception_3a/5x5_reduce
I0403 15:52:46.053817 14799 net.cpp:148] Top shape: 24 16 28 28 (301056)
I0403 15:52:46.053833 14799 net.cpp:156] Memory required for data: 535880736
I0403 15:52:46.053853 14799 layer_factory.hpp:77] Creating layer inception_3a/relu_5x5_reduce
I0403 15:52:46.053872 14799 net.cpp:91] Creating Layer inception_3a/relu_5x5_reduce
I0403 15:52:46.053889 14799 net.cpp:425] inception_3a/relu_5x5_reduce <- inception_3a/5x5_reduce
I0403 15:52:46.053910 14799 net.cpp:386] inception_3a/relu_5x5_reduce -> inception_3a/5x5_reduce (in-place)
I0403 15:52:46.055699 14799 net.cpp:141] Setting up inception_3a/relu_5x5_reduce
I0403 15:52:46.055727 14799 net.cpp:148] Top shape: 24 16 28 28 (301056)
I0403 15:52:46.055743 14799 net.cpp:156] Memory required for data: 537084960
I0403 15:52:46.055759 14799 layer_factory.hpp:77] Creating layer inception_3a/5x5
I0403 15:52:46.055783 14799 net.cpp:91] Creating Layer inception_3a/5x5
I0403 15:52:46.055801 14799 net.cpp:425] inception_3a/5x5 <- inception_3a/5x5_reduce
I0403 15:52:46.055824 14799 net.cpp:399] inception_3a/5x5 -> inception_3a/5x5
I0403 15:52:46.056895 14799 net.cpp:141] Setting up inception_3a/5x5
I0403 15:52:46.056928 14799 net.cpp:148] Top shape: 24 32 28 28 (602112)
I0403 15:52:46.056944 14799 net.cpp:156] Memory required for data: 539493408
I0403 15:52:46.056964 14799 layer_factory.hpp:77] Creating layer inception_3a/relu_5x5
I0403 15:52:46.056983 14799 net.cpp:91] Creating Layer inception_3a/relu_5x5
I0403 15:52:46.057000 14799 net.cpp:425] inception_3a/relu_5x5 <- inception_3a/5x5
I0403 15:52:46.057020 14799 net.cpp:386] inception_3a/relu_5x5 -> inception_3a/5x5 (in-place)
I0403 15:52:46.057220 14799 net.cpp:141] Setting up inception_3a/relu_5x5
I0403 15:52:46.057247 14799 net.cpp:148] Top shape: 24 32 28 28 (602112)
I0403 15:52:46.057263 14799 net.cpp:156] Memory required for data: 541901856
I0403 15:52:46.057279 14799 layer_factory.hpp:77] Creating layer inception_3a/pool
I0403 15:52:46.057301 14799 net.cpp:91] Creating Layer inception_3a/pool
I0403 15:52:46.057320 14799 net.cpp:425] inception_3a/pool <- pool2/3x3_s2_pool2/3x3_s2_0_split_3
I0403 15:52:46.057358 14799 net.cpp:399] inception_3a/pool -> inception_3a/pool
I0403 15:52:46.057423 14799 net.cpp:141] Setting up inception_3a/pool
I0403 15:52:46.057449 14799 net.cpp:148] Top shape: 24 192 28 28 (3612672)
I0403 15:52:46.057466 14799 net.cpp:156] Memory required for data: 556352544
I0403 15:52:46.057481 14799 layer_factory.hpp:77] Creating layer inception_3a/pool_proj
I0403 15:52:46.057504 14799 net.cpp:91] Creating Layer inception_3a/pool_proj
I0403 15:52:46.057523 14799 net.cpp:425] inception_3a/pool_proj <- inception_3a/pool
I0403 15:52:46.057546 14799 net.cpp:399] inception_3a/pool_proj -> inception_3a/pool_proj
I0403 15:52:46.058557 14799 net.cpp:141] Setting up inception_3a/pool_proj
I0403 15:52:46.058588 14799 net.cpp:148] Top shape: 24 32 28 28 (602112)
I0403 15:52:46.058607 14799 net.cpp:156] Memory required for data: 558760992
I0403 15:52:46.058630 14799 layer_factory.hpp:77] Creating layer inception_3a/relu_pool_proj
I0403 15:52:46.058651 14799 net.cpp:91] Creating Layer inception_3a/relu_pool_proj
I0403 15:52:46.058668 14799 net.cpp:425] inception_3a/relu_pool_proj <- inception_3a/pool_proj
I0403 15:52:46.058688 14799 net.cpp:386] inception_3a/relu_pool_proj -> inception_3a/pool_proj (in-place)
I0403 15:52:46.058984 14799 net.cpp:141] Setting up inception_3a/relu_pool_proj
I0403 15:52:46.059012 14799 net.cpp:148] Top shape: 24 32 28 28 (602112)
I0403 15:52:46.059027 14799 net.cpp:156] Memory required for data: 561169440
I0403 15:52:46.059042 14799 layer_factory.hpp:77] Creating layer inception_3a/output
I0403 15:52:46.059061 14799 net.cpp:91] Creating Layer inception_3a/output
I0403 15:52:46.059077 14799 net.cpp:425] inception_3a/output <- inception_3a/1x1
I0403 15:52:46.059094 14799 net.cpp:425] inception_3a/output <- inception_3a/3x3
I0403 15:52:46.059110 14799 net.cpp:425] inception_3a/output <- inception_3a/5x5
I0403 15:52:46.059131 14799 net.cpp:425] inception_3a/output <- inception_3a/pool_proj
I0403 15:52:46.059152 14799 net.cpp:399] inception_3a/output -> inception_3a/output
I0403 15:52:46.059202 14799 net.cpp:141] Setting up inception_3a/output
I0403 15:52:46.059229 14799 net.cpp:148] Top shape: 24 256 28 28 (4816896)
I0403 15:52:46.059245 14799 net.cpp:156] Memory required for data: 580437024
I0403 15:52:46.059262 14799 layer_factory.hpp:77] Creating layer inception_3a/output_inception_3a/output_0_split
I0403 15:52:46.059278 14799 net.cpp:91] Creating Layer inception_3a/output_inception_3a/output_0_split
I0403 15:52:46.059295 14799 net.cpp:425] inception_3a/output_inception_3a/output_0_split <- inception_3a/output
I0403 15:52:46.059314 14799 net.cpp:399] inception_3a/output_inception_3a/output_0_split -> inception_3a/output_inception_3a/output_0_split_0
I0403 15:52:46.059334 14799 net.cpp:399] inception_3a/output_inception_3a/output_0_split -> inception_3a/output_inception_3a/output_0_split_1
I0403 15:52:46.059360 14799 net.cpp:399] inception_3a/output_inception_3a/output_0_split -> inception_3a/output_inception_3a/output_0_split_2
I0403 15:52:46.059382 14799 net.cpp:399] inception_3a/output_inception_3a/output_0_split -> inception_3a/output_inception_3a/output_0_split_3
I0403 15:52:46.059460 14799 net.cpp:141] Setting up inception_3a/output_inception_3a/output_0_split
I0403 15:52:46.059486 14799 net.cpp:148] Top shape: 24 256 28 28 (4816896)
I0403 15:52:46.059504 14799 net.cpp:148] Top shape: 24 256 28 28 (4816896)
I0403 15:52:46.059521 14799 net.cpp:148] Top shape: 24 256 28 28 (4816896)
I0403 15:52:46.059536 14799 net.cpp:148] Top shape: 24 256 28 28 (4816896)
I0403 15:52:46.059551 14799 net.cpp:156] Memory required for data: 657507360
I0403 15:52:46.059566 14799 layer_factory.hpp:77] Creating layer inception_3b/1x1
I0403 15:52:46.059588 14799 net.cpp:91] Creating Layer inception_3b/1x1
I0403 15:52:46.059608 14799 net.cpp:425] inception_3b/1x1 <- inception_3a/output_inception_3a/output_0_split_0
I0403 15:52:46.059628 14799 net.cpp:399] inception_3b/1x1 -> inception_3b/1x1
I0403 15:52:46.060824 14799 net.cpp:141] Setting up inception_3b/1x1
I0403 15:52:46.060868 14799 net.cpp:148] Top shape: 24 128 28 28 (2408448)
I0403 15:52:46.060888 14799 net.cpp:156] Memory required for data: 667141152
I0403 15:52:46.060906 14799 layer_factory.hpp:77] Creating layer inception_3b/relu_1x1
I0403 15:52:46.060925 14799 net.cpp:91] Creating Layer inception_3b/relu_1x1
I0403 15:52:46.060941 14799 net.cpp:425] inception_3b/relu_1x1 <- inception_3b/1x1
I0403 15:52:46.060961 14799 net.cpp:386] inception_3b/relu_1x1 -> inception_3b/1x1 (in-place)
I0403 15:52:46.061146 14799 net.cpp:141] Setting up inception_3b/relu_1x1
I0403 15:52:46.061173 14799 net.cpp:148] Top shape: 24 128 28 28 (2408448)
I0403 15:52:46.061189 14799 net.cpp:156] Memory required for data: 676774944
I0403 15:52:46.061204 14799 layer_factory.hpp:77] Creating layer inception_3b/3x3_reduce
I0403 15:52:46.061228 14799 net.cpp:91] Creating Layer inception_3b/3x3_reduce
I0403 15:52:46.061249 14799 net.cpp:425] inception_3b/3x3_reduce <- inception_3a/output_inception_3a/output_0_split_1
I0403 15:52:46.061270 14799 net.cpp:399] inception_3b/3x3_reduce -> inception_3b/3x3_reduce
I0403 15:52:46.062433 14799 net.cpp:141] Setting up inception_3b/3x3_reduce
I0403 15:52:46.062465 14799 net.cpp:148] Top shape: 24 128 28 28 (2408448)
I0403 15:52:46.062484 14799 net.cpp:156] Memory required for data: 686408736
I0403 15:52:46.062501 14799 layer_factory.hpp:77] Creating layer inception_3b/relu_3x3_reduce
I0403 15:52:46.062520 14799 net.cpp:91] Creating Layer inception_3b/relu_3x3_reduce
I0403 15:52:46.062537 14799 net.cpp:425] inception_3b/relu_3x3_reduce <- inception_3b/3x3_reduce
I0403 15:52:46.062556 14799 net.cpp:386] inception_3b/relu_3x3_reduce -> inception_3b/3x3_reduce (in-place)
I0403 15:52:46.062734 14799 net.cpp:141] Setting up inception_3b/relu_3x3_reduce
I0403 15:52:46.062760 14799 net.cpp:148] Top shape: 24 128 28 28 (2408448)
I0403 15:52:46.062777 14799 net.cpp:156] Memory required for data: 696042528
I0403 15:52:46.062790 14799 layer_factory.hpp:77] Creating layer inception_3b/3x3
I0403 15:52:46.062816 14799 net.cpp:91] Creating Layer inception_3b/3x3
I0403 15:52:46.062835 14799 net.cpp:425] inception_3b/3x3 <- inception_3b/3x3_reduce
I0403 15:52:46.062857 14799 net.cpp:399] inception_3b/3x3 -> inception_3b/3x3
I0403 15:52:46.065871 14799 net.cpp:141] Setting up inception_3b/3x3
I0403 15:52:46.065901 14799 net.cpp:148] Top shape: 24 192 28 28 (3612672)
I0403 15:52:46.065917 14799 net.cpp:156] Memory required for data: 710493216
I0403 15:52:46.065935 14799 layer_factory.hpp:77] Creating layer inception_3b/relu_3x3
I0403 15:52:46.065953 14799 net.cpp:91] Creating Layer inception_3b/relu_3x3
I0403 15:52:46.065970 14799 net.cpp:425] inception_3b/relu_3x3 <- inception_3b/3x3
I0403 15:52:46.065994 14799 net.cpp:386] inception_3b/relu_3x3 -> inception_3b/3x3 (in-place)
I0403 15:52:46.066299 14799 net.cpp:141] Setting up inception_3b/relu_3x3
I0403 15:52:46.066328 14799 net.cpp:148] Top shape: 24 192 28 28 (3612672)
I0403 15:52:46.066344 14799 net.cpp:156] Memory required for data: 724943904
I0403 15:52:46.066360 14799 layer_factory.hpp:77] Creating layer inception_3b/5x5_reduce
I0403 15:52:46.066385 14799 net.cpp:91] Creating Layer inception_3b/5x5_reduce
I0403 15:52:46.066406 14799 net.cpp:425] inception_3b/5x5_reduce <- inception_3a/output_inception_3a/output_0_split_2
I0403 15:52:46.066442 14799 net.cpp:399] inception_3b/5x5_reduce -> inception_3b/5x5_reduce
I0403 15:52:46.067489 14799 net.cpp:141] Setting up inception_3b/5x5_reduce
I0403 15:52:46.067519 14799 net.cpp:148] Top shape: 24 32 28 28 (602112)
I0403 15:52:46.067535 14799 net.cpp:156] Memory required for data: 727352352
I0403 15:52:46.067554 14799 layer_factory.hpp:77] Creating layer inception_3b/relu_5x5_reduce
I0403 15:52:46.067574 14799 net.cpp:91] Creating Layer inception_3b/relu_5x5_reduce
I0403 15:52:46.067590 14799 net.cpp:425] inception_3b/relu_5x5_reduce <- inception_3b/5x5_reduce
I0403 15:52:46.067610 14799 net.cpp:386] inception_3b/relu_5x5_reduce -> inception_3b/5x5_reduce (in-place)
I0403 15:52:46.067790 14799 net.cpp:141] Setting up inception_3b/relu_5x5_reduce
I0403 15:52:46.067831 14799 net.cpp:148] Top shape: 24 32 28 28 (602112)
I0403 15:52:46.067847 14799 net.cpp:156] Memory required for data: 729760800
I0403 15:52:46.067862 14799 layer_factory.hpp:77] Creating layer inception_3b/5x5
I0403 15:52:46.067885 14799 net.cpp:91] Creating Layer inception_3b/5x5
I0403 15:52:46.067904 14799 net.cpp:425] inception_3b/5x5 <- inception_3b/5x5_reduce
I0403 15:52:46.067926 14799 net.cpp:399] inception_3b/5x5 -> inception_3b/5x5
I0403 15:52:46.069963 14799 net.cpp:141] Setting up inception_3b/5x5
I0403 15:52:46.069995 14799 net.cpp:148] Top shape: 24 96 28 28 (1806336)
I0403 15:52:46.070013 14799 net.cpp:156] Memory required for data: 736986144
I0403 15:52:46.070032 14799 layer_factory.hpp:77] Creating layer inception_3b/relu_5x5
I0403 15:52:46.070050 14799 net.cpp:91] Creating Layer inception_3b/relu_5x5
I0403 15:52:46.070065 14799 net.cpp:425] inception_3b/relu_5x5 <- inception_3b/5x5
I0403 15:52:46.070082 14799 net.cpp:386] inception_3b/relu_5x5 -> inception_3b/5x5 (in-place)
I0403 15:52:46.070281 14799 net.cpp:141] Setting up inception_3b/relu_5x5
I0403 15:52:46.070308 14799 net.cpp:148] Top shape: 24 96 28 28 (1806336)
I0403 15:52:46.070323 14799 net.cpp:156] Memory required for data: 744211488
I0403 15:52:46.070339 14799 layer_factory.hpp:77] Creating layer inception_3b/pool
I0403 15:52:46.070358 14799 net.cpp:91] Creating Layer inception_3b/pool
I0403 15:52:46.070374 14799 net.cpp:425] inception_3b/pool <- inception_3a/output_inception_3a/output_0_split_3
I0403 15:52:46.070392 14799 net.cpp:399] inception_3b/pool -> inception_3b/pool
I0403 15:52:46.070451 14799 net.cpp:141] Setting up inception_3b/pool
I0403 15:52:46.070478 14799 net.cpp:148] Top shape: 24 256 28 28 (4816896)
I0403 15:52:46.070495 14799 net.cpp:156] Memory required for data: 763479072
I0403 15:52:46.070510 14799 layer_factory.hpp:77] Creating layer inception_3b/pool_proj
I0403 15:52:46.070533 14799 net.cpp:91] Creating Layer inception_3b/pool_proj
I0403 15:52:46.070552 14799 net.cpp:425] inception_3b/pool_proj <- inception_3b/pool
I0403 15:52:46.070571 14799 net.cpp:399] inception_3b/pool_proj -> inception_3b/pool_proj
I0403 15:52:46.071645 14799 net.cpp:141] Setting up inception_3b/pool_proj
I0403 15:52:46.071676 14799 net.cpp:148] Top shape: 24 64 28 28 (1204224)
I0403 15:52:46.071691 14799 net.cpp:156] Memory required for data: 768295968
I0403 15:52:46.071709 14799 layer_factory.hpp:77] Creating layer inception_3b/relu_pool_proj
I0403 15:52:46.071730 14799 net.cpp:91] Creating Layer inception_3b/relu_pool_proj
I0403 15:52:46.071749 14799 net.cpp:425] inception_3b/relu_pool_proj <- inception_3b/pool_proj
I0403 15:52:46.071768 14799 net.cpp:386] inception_3b/relu_pool_proj -> inception_3b/pool_proj (in-place)
I0403 15:52:46.072172 14799 net.cpp:141] Setting up inception_3b/relu_pool_proj
I0403 15:52:46.072203 14799 net.cpp:148] Top shape: 24 64 28 28 (1204224)
I0403 15:52:46.072219 14799 net.cpp:156] Memory required for data: 773112864
I0403 15:52:46.072234 14799 layer_factory.hpp:77] Creating layer inception_3b/output
I0403 15:52:46.072252 14799 net.cpp:91] Creating Layer inception_3b/output
I0403 15:52:46.072268 14799 net.cpp:425] inception_3b/output <- inception_3b/1x1
I0403 15:52:46.072286 14799 net.cpp:425] inception_3b/output <- inception_3b/3x3
I0403 15:52:46.072304 14799 net.cpp:425] inception_3b/output <- inception_3b/5x5
I0403 15:52:46.072319 14799 net.cpp:425] inception_3b/output <- inception_3b/pool_proj
I0403 15:52:46.072338 14799 net.cpp:399] inception_3b/output -> inception_3b/output
I0403 15:52:46.072384 14799 net.cpp:141] Setting up inception_3b/output
I0403 15:52:46.072412 14799 net.cpp:148] Top shape: 24 480 28 28 (9031680)
I0403 15:52:46.072427 14799 net.cpp:156] Memory required for data: 809239584
I0403 15:52:46.072441 14799 layer_factory.hpp:77] Creating layer pool3/3x3_s2
I0403 15:52:46.072459 14799 net.cpp:91] Creating Layer pool3/3x3_s2
I0403 15:52:46.072475 14799 net.cpp:425] pool3/3x3_s2 <- inception_3b/output
I0403 15:52:46.072496 14799 net.cpp:399] pool3/3x3_s2 -> pool3/3x3_s2
I0403 15:52:46.072571 14799 net.cpp:141] Setting up pool3/3x3_s2
I0403 15:52:46.072595 14799 net.cpp:148] Top shape: 24 480 14 14 (2257920)
I0403 15:52:46.072612 14799 net.cpp:156] Memory required for data: 818271264
I0403 15:52:46.072626 14799 layer_factory.hpp:77] Creating layer pool3/3x3_s2_pool3/3x3_s2_0_split
I0403 15:52:46.072645 14799 net.cpp:91] Creating Layer pool3/3x3_s2_pool3/3x3_s2_0_split
I0403 15:52:46.072662 14799 net.cpp:425] pool3/3x3_s2_pool3/3x3_s2_0_split <- pool3/3x3_s2
I0403 15:52:46.072679 14799 net.cpp:399] pool3/3x3_s2_pool3/3x3_s2_0_split -> pool3/3x3_s2_pool3/3x3_s2_0_split_0
I0403 15:52:46.072700 14799 net.cpp:399] pool3/3x3_s2_pool3/3x3_s2_0_split -> pool3/3x3_s2_pool3/3x3_s2_0_split_1
I0403 15:52:46.072723 14799 net.cpp:399] pool3/3x3_s2_pool3/3x3_s2_0_split -> pool3/3x3_s2_pool3/3x3_s2_0_split_2
I0403 15:52:46.072746 14799 net.cpp:399] pool3/3x3_s2_pool3/3x3_s2_0_split -> pool3/3x3_s2_pool3/3x3_s2_0_split_3
I0403 15:52:46.072823 14799 net.cpp:141] Setting up pool3/3x3_s2_pool3/3x3_s2_0_split
I0403 15:52:46.072846 14799 net.cpp:148] Top shape: 24 480 14 14 (2257920)
I0403 15:52:46.072863 14799 net.cpp:148] Top shape: 24 480 14 14 (2257920)
I0403 15:52:46.072880 14799 net.cpp:148] Top shape: 24 480 14 14 (2257920)
I0403 15:52:46.072896 14799 net.cpp:148] Top shape: 24 480 14 14 (2257920)
I0403 15:52:46.072911 14799 net.cpp:156] Memory required for data: 854397984
I0403 15:52:46.072926 14799 layer_factory.hpp:77] Creating layer inception_4a/1x1
I0403 15:52:46.072948 14799 net.cpp:91] Creating Layer inception_4a/1x1
I0403 15:52:46.072967 14799 net.cpp:425] inception_4a/1x1 <- pool3/3x3_s2_pool3/3x3_s2_0_split_0
I0403 15:52:46.072989 14799 net.cpp:399] inception_4a/1x1 -> inception_4a/1x1
I0403 15:52:46.074635 14799 net.cpp:141] Setting up inception_4a/1x1
I0403 15:52:46.074666 14799 net.cpp:148] Top shape: 24 192 14 14 (903168)
I0403 15:52:46.074682 14799 net.cpp:156] Memory required for data: 858010656
I0403 15:52:46.074703 14799 layer_factory.hpp:77] Creating layer inception_4a/relu_1x1
I0403 15:52:46.074724 14799 net.cpp:91] Creating Layer inception_4a/relu_1x1
I0403 15:52:46.074743 14799 net.cpp:425] inception_4a/relu_1x1 <- inception_4a/1x1
I0403 15:52:46.074760 14799 net.cpp:386] inception_4a/relu_1x1 -> inception_4a/1x1 (in-place)
I0403 15:52:46.074947 14799 net.cpp:141] Setting up inception_4a/relu_1x1
I0403 15:52:46.074978 14799 net.cpp:148] Top shape: 24 192 14 14 (903168)
I0403 15:52:46.074995 14799 net.cpp:156] Memory required for data: 861623328
I0403 15:52:46.075009 14799 layer_factory.hpp:77] Creating layer inception_4a/3x3_reduce
I0403 15:52:46.075031 14799 net.cpp:91] Creating Layer inception_4a/3x3_reduce
I0403 15:52:46.075052 14799 net.cpp:425] inception_4a/3x3_reduce <- pool3/3x3_s2_pool3/3x3_s2_0_split_1
I0403 15:52:46.075072 14799 net.cpp:399] inception_4a/3x3_reduce -> inception_4a/3x3_reduce
I0403 15:52:46.076416 14799 net.cpp:141] Setting up inception_4a/3x3_reduce
I0403 15:52:46.076445 14799 net.cpp:148] Top shape: 24 96 14 14 (451584)
I0403 15:52:46.076462 14799 net.cpp:156] Memory required for data: 863429664
I0403 15:52:46.076486 14799 layer_factory.hpp:77] Creating layer inception_4a/relu_3x3_reduce
I0403 15:52:46.076510 14799 net.cpp:91] Creating Layer inception_4a/relu_3x3_reduce
I0403 15:52:46.076529 14799 net.cpp:425] inception_4a/relu_3x3_reduce <- inception_4a/3x3_reduce
I0403 15:52:46.076547 14799 net.cpp:386] inception_4a/relu_3x3_reduce -> inception_4a/3x3_reduce (in-place)
I0403 15:52:46.076737 14799 net.cpp:141] Setting up inception_4a/relu_3x3_reduce
I0403 15:52:46.076766 14799 net.cpp:148] Top shape: 24 96 14 14 (451584)
I0403 15:52:46.076781 14799 net.cpp:156] Memory required for data: 865236000
I0403 15:52:46.076795 14799 layer_factory.hpp:77] Creating layer inception_4a/3x3
I0403 15:52:46.076820 14799 net.cpp:91] Creating Layer inception_4a/3x3
I0403 15:52:46.076840 14799 net.cpp:425] inception_4a/3x3 <- inception_4a/3x3_reduce
I0403 15:52:46.076861 14799 net.cpp:399] inception_4a/3x3 -> inception_4a/3x3
I0403 15:52:46.079685 14799 net.cpp:141] Setting up inception_4a/3x3
I0403 15:52:46.079720 14799 net.cpp:148] Top shape: 24 208 14 14 (978432)
I0403 15:52:46.079737 14799 net.cpp:156] Memory required for data: 869149728
I0403 15:52:46.079756 14799 layer_factory.hpp:77] Creating layer inception_4a/relu_3x3
I0403 15:52:46.079776 14799 net.cpp:91] Creating Layer inception_4a/relu_3x3
I0403 15:52:46.079793 14799 net.cpp:425] inception_4a/relu_3x3 <- inception_4a/3x3
I0403 15:52:46.079812 14799 net.cpp:386] inception_4a/relu_3x3 -> inception_4a/3x3 (in-place)
I0403 15:52:46.080109 14799 net.cpp:141] Setting up inception_4a/relu_3x3
I0403 15:52:46.080145 14799 net.cpp:148] Top shape: 24 208 14 14 (978432)
I0403 15:52:46.080164 14799 net.cpp:156] Memory required for data: 873063456
I0403 15:52:46.080180 14799 layer_factory.hpp:77] Creating layer inception_4a/5x5_reduce
I0403 15:52:46.080209 14799 net.cpp:91] Creating Layer inception_4a/5x5_reduce
I0403 15:52:46.080229 14799 net.cpp:425] inception_4a/5x5_reduce <- pool3/3x3_s2_pool3/3x3_s2_0_split_2
I0403 15:52:46.080250 14799 net.cpp:399] inception_4a/5x5_reduce -> inception_4a/5x5_reduce
I0403 15:52:46.081339 14799 net.cpp:141] Setting up inception_4a/5x5_reduce
I0403 15:52:46.081372 14799 net.cpp:148] Top shape: 24 16 14 14 (75264)
I0403 15:52:46.081388 14799 net.cpp:156] Memory required for data: 873364512
I0403 15:52:46.081408 14799 layer_factory.hpp:77] Creating layer inception_4a/relu_5x5_reduce
I0403 15:52:46.081428 14799 net.cpp:91] Creating Layer inception_4a/relu_5x5_reduce
I0403 15:52:46.081444 14799 net.cpp:425] inception_4a/relu_5x5_reduce <- inception_4a/5x5_reduce
I0403 15:52:46.081465 14799 net.cpp:386] inception_4a/relu_5x5_reduce -> inception_4a/5x5_reduce (in-place)
I0403 15:52:46.081657 14799 net.cpp:141] Setting up inception_4a/relu_5x5_reduce
I0403 15:52:46.081686 14799 net.cpp:148] Top shape: 24 16 14 14 (75264)
I0403 15:52:46.081701 14799 net.cpp:156] Memory required for data: 873665568
I0403 15:52:46.081717 14799 layer_factory.hpp:77] Creating layer inception_4a/5x5
I0403 15:52:46.081739 14799 net.cpp:91] Creating Layer inception_4a/5x5
I0403 15:52:46.081759 14799 net.cpp:425] inception_4a/5x5 <- inception_4a/5x5_reduce
I0403 15:52:46.081781 14799 net.cpp:399] inception_4a/5x5 -> inception_4a/5x5
I0403 15:52:46.082944 14799 net.cpp:141] Setting up inception_4a/5x5
I0403 15:52:46.082974 14799 net.cpp:148] Top shape: 24 48 14 14 (225792)
I0403 15:52:46.082991 14799 net.cpp:156] Memory required for data: 874568736
I0403 15:52:46.083011 14799 layer_factory.hpp:77] Creating layer inception_4a/relu_5x5
I0403 15:52:46.083034 14799 net.cpp:91] Creating Layer inception_4a/relu_5x5
I0403 15:52:46.083050 14799 net.cpp:425] inception_4a/relu_5x5 <- inception_4a/5x5
I0403 15:52:46.083070 14799 net.cpp:386] inception_4a/relu_5x5 -> inception_4a/5x5 (in-place)
I0403 15:52:46.083271 14799 net.cpp:141] Setting up inception_4a/relu_5x5
I0403 15:52:46.083298 14799 net.cpp:148] Top shape: 24 48 14 14 (225792)
I0403 15:52:46.083318 14799 net.cpp:156] Memory required for data: 875471904
I0403 15:52:46.083335 14799 layer_factory.hpp:77] Creating layer inception_4a/pool
I0403 15:52:46.083355 14799 net.cpp:91] Creating Layer inception_4a/pool
I0403 15:52:46.083372 14799 net.cpp:425] inception_4a/pool <- pool3/3x3_s2_pool3/3x3_s2_0_split_3
I0403 15:52:46.083390 14799 net.cpp:399] inception_4a/pool -> inception_4a/pool
I0403 15:52:46.083457 14799 net.cpp:141] Setting up inception_4a/pool
I0403 15:52:46.083484 14799 net.cpp:148] Top shape: 24 480 14 14 (2257920)
I0403 15:52:46.083499 14799 net.cpp:156] Memory required for data: 884503584
I0403 15:52:46.083514 14799 layer_factory.hpp:77] Creating layer inception_4a/pool_proj
I0403 15:52:46.083537 14799 net.cpp:91] Creating Layer inception_4a/pool_proj
I0403 15:52:46.083557 14799 net.cpp:425] inception_4a/pool_proj <- inception_4a/pool
I0403 15:52:46.083582 14799 net.cpp:399] inception_4a/pool_proj -> inception_4a/pool_proj
I0403 15:52:46.084827 14799 net.cpp:141] Setting up inception_4a/pool_proj
I0403 15:52:46.084857 14799 net.cpp:148] Top shape: 24 64 14 14 (301056)
I0403 15:52:46.084892 14799 net.cpp:156] Memory required for data: 885707808
I0403 15:52:46.084913 14799 layer_factory.hpp:77] Creating layer inception_4a/relu_pool_proj
I0403 15:52:46.084934 14799 net.cpp:91] Creating Layer inception_4a/relu_pool_proj
I0403 15:52:46.084954 14799 net.cpp:425] inception_4a/relu_pool_proj <- inception_4a/pool_proj
I0403 15:52:46.084974 14799 net.cpp:386] inception_4a/relu_pool_proj -> inception_4a/pool_proj (in-place)
I0403 15:52:46.085273 14799 net.cpp:141] Setting up inception_4a/relu_pool_proj
I0403 15:52:46.085301 14799 net.cpp:148] Top shape: 24 64 14 14 (301056)
I0403 15:52:46.085319 14799 net.cpp:156] Memory required for data: 886912032
I0403 15:52:46.085333 14799 layer_factory.hpp:77] Creating layer inception_4a/output
I0403 15:52:46.085355 14799 net.cpp:91] Creating Layer inception_4a/output
I0403 15:52:46.085373 14799 net.cpp:425] inception_4a/output <- inception_4a/1x1
I0403 15:52:46.085392 14799 net.cpp:425] inception_4a/output <- inception_4a/3x3
I0403 15:52:46.085409 14799 net.cpp:425] inception_4a/output <- inception_4a/5x5
I0403 15:52:46.085425 14799 net.cpp:425] inception_4a/output <- inception_4a/pool_proj
I0403 15:52:46.085443 14799 net.cpp:399] inception_4a/output -> inception_4a/output
I0403 15:52:46.085494 14799 net.cpp:141] Setting up inception_4a/output
I0403 15:52:46.085520 14799 net.cpp:148] Top shape: 24 512 14 14 (2408448)
I0403 15:52:46.085536 14799 net.cpp:156] Memory required for data: 896545824
I0403 15:52:46.085551 14799 layer_factory.hpp:77] Creating layer inception_4a/output_inception_4a/output_0_split
I0403 15:52:46.085572 14799 net.cpp:91] Creating Layer inception_4a/output_inception_4a/output_0_split
I0403 15:52:46.085588 14799 net.cpp:425] inception_4a/output_inception_4a/output_0_split <- inception_4a/output
I0403 15:52:46.085609 14799 net.cpp:399] inception_4a/output_inception_4a/output_0_split -> inception_4a/output_inception_4a/output_0_split_0
I0403 15:52:46.085633 14799 net.cpp:399] inception_4a/output_inception_4a/output_0_split -> inception_4a/output_inception_4a/output_0_split_1
I0403 15:52:46.085656 14799 net.cpp:399] inception_4a/output_inception_4a/output_0_split -> inception_4a/output_inception_4a/output_0_split_2
I0403 15:52:46.085680 14799 net.cpp:399] inception_4a/output_inception_4a/output_0_split -> inception_4a/output_inception_4a/output_0_split_3
I0403 15:52:46.085700 14799 net.cpp:399] inception_4a/output_inception_4a/output_0_split -> inception_4a/output_inception_4a/output_0_split_4
I0403 15:52:46.085801 14799 net.cpp:141] Setting up inception_4a/output_inception_4a/output_0_split
I0403 15:52:46.085827 14799 net.cpp:148] Top shape: 24 512 14 14 (2408448)
I0403 15:52:46.085844 14799 net.cpp:148] Top shape: 24 512 14 14 (2408448)
I0403 15:52:46.085861 14799 net.cpp:148] Top shape: 24 512 14 14 (2408448)
I0403 15:52:46.085878 14799 net.cpp:148] Top shape: 24 512 14 14 (2408448)
I0403 15:52:46.085894 14799 net.cpp:148] Top shape: 24 512 14 14 (2408448)
I0403 15:52:46.085909 14799 net.cpp:156] Memory required for data: 944714784
I0403 15:52:46.085924 14799 layer_factory.hpp:77] Creating layer loss1/ave_pool
I0403 15:52:46.085942 14799 net.cpp:91] Creating Layer loss1/ave_pool
I0403 15:52:46.085959 14799 net.cpp:425] loss1/ave_pool <- inception_4a/output_inception_4a/output_0_split_0
I0403 15:52:46.085983 14799 net.cpp:399] loss1/ave_pool -> loss1/ave_pool
I0403 15:52:46.086204 14799 net.cpp:141] Setting up loss1/ave_pool
I0403 15:52:46.086232 14799 net.cpp:148] Top shape: 24 512 4 4 (196608)
I0403 15:52:46.086248 14799 net.cpp:156] Memory required for data: 945501216
I0403 15:52:46.086263 14799 layer_factory.hpp:77] Creating layer loss1/conv
I0403 15:52:46.086288 14799 net.cpp:91] Creating Layer loss1/conv
I0403 15:52:46.086308 14799 net.cpp:425] loss1/conv <- loss1/ave_pool
I0403 15:52:46.086330 14799 net.cpp:399] loss1/conv -> loss1/conv
I0403 15:52:46.087824 14799 net.cpp:141] Setting up loss1/conv
I0403 15:52:46.087860 14799 net.cpp:148] Top shape: 24 128 4 4 (49152)
I0403 15:52:46.087879 14799 net.cpp:156] Memory required for data: 945697824
I0403 15:52:46.087914 14799 layer_factory.hpp:77] Creating layer loss1/relu_conv
I0403 15:52:46.087936 14799 net.cpp:91] Creating Layer loss1/relu_conv
I0403 15:52:46.087954 14799 net.cpp:425] loss1/relu_conv <- loss1/conv
I0403 15:52:46.087973 14799 net.cpp:386] loss1/relu_conv -> loss1/conv (in-place)
I0403 15:52:46.088276 14799 net.cpp:141] Setting up loss1/relu_conv
I0403 15:52:46.088307 14799 net.cpp:148] Top shape: 24 128 4 4 (49152)
I0403 15:52:46.088325 14799 net.cpp:156] Memory required for data: 945894432
I0403 15:52:46.088341 14799 layer_factory.hpp:77] Creating layer loss1/fc
I0403 15:52:46.088366 14799 net.cpp:91] Creating Layer loss1/fc
I0403 15:52:46.088387 14799 net.cpp:425] loss1/fc <- loss1/conv
I0403 15:52:46.088409 14799 net.cpp:399] loss1/fc -> loss1/fc
I0403 15:52:46.107198 14799 net.cpp:141] Setting up loss1/fc
I0403 15:52:46.107240 14799 net.cpp:148] Top shape: 24 1024 (24576)
I0403 15:52:46.107259 14799 net.cpp:156] Memory required for data: 945992736
I0403 15:52:46.107278 14799 layer_factory.hpp:77] Creating layer loss1/relu_fc
I0403 15:52:46.107298 14799 net.cpp:91] Creating Layer loss1/relu_fc
I0403 15:52:46.107316 14799 net.cpp:425] loss1/relu_fc <- loss1/fc
I0403 15:52:46.107334 14799 net.cpp:386] loss1/relu_fc -> loss1/fc (in-place)
I0403 15:52:46.107537 14799 net.cpp:141] Setting up loss1/relu_fc
I0403 15:52:46.107568 14799 net.cpp:148] Top shape: 24 1024 (24576)
I0403 15:52:46.107585 14799 net.cpp:156] Memory required for data: 946091040
I0403 15:52:46.107600 14799 layer_factory.hpp:77] Creating layer loss1/drop_fc
I0403 15:52:46.107627 14799 net.cpp:91] Creating Layer loss1/drop_fc
I0403 15:52:46.107647 14799 net.cpp:425] loss1/drop_fc <- loss1/fc
I0403 15:52:46.107666 14799 net.cpp:386] loss1/drop_fc -> loss1/fc (in-place)
I0403 15:52:46.107723 14799 net.cpp:141] Setting up loss1/drop_fc
I0403 15:52:46.107749 14799 net.cpp:148] Top shape: 24 1024 (24576)
I0403 15:52:46.107764 14799 net.cpp:156] Memory required for data: 946189344
I0403 15:52:46.107780 14799 layer_factory.hpp:77] Creating layer loss1/classifier_plantvillage
I0403 15:52:46.107803 14799 net.cpp:91] Creating Layer loss1/classifier_plantvillage
I0403 15:52:46.107821 14799 net.cpp:425] loss1/classifier_plantvillage <- loss1/fc
I0403 15:52:46.107841 14799 net.cpp:399] loss1/classifier_plantvillage -> loss1/classifier_plantvillage
I0403 15:52:46.108798 14799 net.cpp:141] Setting up loss1/classifier_plantvillage
I0403 15:52:46.108831 14799 net.cpp:148] Top shape: 24 38 (912)
I0403 15:52:46.108850 14799 net.cpp:156] Memory required for data: 946192992
I0403 15:52:46.108870 14799 layer_factory.hpp:77] Creating layer loss1/classifier_plantvillage_loss1/classifier_plantvillage_0_split
I0403 15:52:46.108888 14799 net.cpp:91] Creating Layer loss1/classifier_plantvillage_loss1/classifier_plantvillage_0_split
I0403 15:52:46.108906 14799 net.cpp:425] loss1/classifier_plantvillage_loss1/classifier_plantvillage_0_split <- loss1/classifier_plantvillage
I0403 15:52:46.108923 14799 net.cpp:399] loss1/classifier_plantvillage_loss1/classifier_plantvillage_0_split -> loss1/classifier_plantvillage_loss1/classifier_plantvillage_0_split_0
I0403 15:52:46.108945 14799 net.cpp:399] loss1/classifier_plantvillage_loss1/classifier_plantvillage_0_split -> loss1/classifier_plantvillage_loss1/classifier_plantvillage_0_split_1
I0403 15:52:46.108968 14799 net.cpp:399] loss1/classifier_plantvillage_loss1/classifier_plantvillage_0_split -> loss1/classifier_plantvillage_loss1/classifier_plantvillage_0_split_2
I0403 15:52:46.109038 14799 net.cpp:141] Setting up loss1/classifier_plantvillage_loss1/classifier_plantvillage_0_split
I0403 15:52:46.109064 14799 net.cpp:148] Top shape: 24 38 (912)
I0403 15:52:46.109081 14799 net.cpp:148] Top shape: 24 38 (912)
I0403 15:52:46.109099 14799 net.cpp:148] Top shape: 24 38 (912)
I0403 15:52:46.109114 14799 net.cpp:156] Memory required for data: 946203936
I0403 15:52:46.109135 14799 layer_factory.hpp:77] Creating layer inception_4b/1x1
I0403 15:52:46.109158 14799 net.cpp:91] Creating Layer inception_4b/1x1
I0403 15:52:46.109195 14799 net.cpp:425] inception_4b/1x1 <- inception_4a/output_inception_4a/output_0_split_1
I0403 15:52:46.109220 14799 net.cpp:399] inception_4b/1x1 -> inception_4b/1x1
I0403 15:52:46.110991 14799 net.cpp:141] Setting up inception_4b/1x1
I0403 15:52:46.111026 14799 net.cpp:148] Top shape: 24 160 14 14 (752640)
I0403 15:52:46.111043 14799 net.cpp:156] Memory required for data: 949214496
I0403 15:52:46.111064 14799 layer_factory.hpp:77] Creating layer inception_4b/relu_1x1
I0403 15:52:46.111083 14799 net.cpp:91] Creating Layer inception_4b/relu_1x1
I0403 15:52:46.111099 14799 net.cpp:425] inception_4b/relu_1x1 <- inception_4b/1x1
I0403 15:52:46.111119 14799 net.cpp:386] inception_4b/relu_1x1 -> inception_4b/1x1 (in-place)
I0403 15:52:46.111321 14799 net.cpp:141] Setting up inception_4b/relu_1x1
I0403 15:52:46.111349 14799 net.cpp:148] Top shape: 24 160 14 14 (752640)
I0403 15:52:46.111366 14799 net.cpp:156] Memory required for data: 952225056
I0403 15:52:46.111380 14799 layer_factory.hpp:77] Creating layer inception_4b/3x3_reduce
I0403 15:52:46.111404 14799 net.cpp:91] Creating Layer inception_4b/3x3_reduce
I0403 15:52:46.111424 14799 net.cpp:425] inception_4b/3x3_reduce <- inception_4a/output_inception_4a/output_0_split_2
I0403 15:52:46.111449 14799 net.cpp:399] inception_4b/3x3_reduce -> inception_4b/3x3_reduce
I0403 15:52:46.112910 14799 net.cpp:141] Setting up inception_4b/3x3_reduce
I0403 15:52:46.112939 14799 net.cpp:148] Top shape: 24 112 14 14 (526848)
I0403 15:52:46.112957 14799 net.cpp:156] Memory required for data: 954332448
I0403 15:52:46.112977 14799 layer_factory.hpp:77] Creating layer inception_4b/relu_3x3_reduce
I0403 15:52:46.112998 14799 net.cpp:91] Creating Layer inception_4b/relu_3x3_reduce
I0403 15:52:46.113016 14799 net.cpp:425] inception_4b/relu_3x3_reduce <- inception_4b/3x3_reduce
I0403 15:52:46.113035 14799 net.cpp:386] inception_4b/relu_3x3_reduce -> inception_4b/3x3_reduce (in-place)
I0403 15:52:46.113348 14799 net.cpp:141] Setting up inception_4b/relu_3x3_reduce
I0403 15:52:46.113376 14799 net.cpp:148] Top shape: 24 112 14 14 (526848)
I0403 15:52:46.113392 14799 net.cpp:156] Memory required for data: 956439840
I0403 15:52:46.113407 14799 layer_factory.hpp:77] Creating layer inception_4b/3x3
I0403 15:52:46.113432 14799 net.cpp:91] Creating Layer inception_4b/3x3
I0403 15:52:46.113451 14799 net.cpp:425] inception_4b/3x3 <- inception_4b/3x3_reduce
I0403 15:52:46.113474 14799 net.cpp:399] inception_4b/3x3 -> inception_4b/3x3
I0403 15:52:46.116629 14799 net.cpp:141] Setting up inception_4b/3x3
I0403 15:52:46.116662 14799 net.cpp:148] Top shape: 24 224 14 14 (1053696)
I0403 15:52:46.116678 14799 net.cpp:156] Memory required for data: 960654624
I0403 15:52:46.116698 14799 layer_factory.hpp:77] Creating layer inception_4b/relu_3x3
I0403 15:52:46.116719 14799 net.cpp:91] Creating Layer inception_4b/relu_3x3
I0403 15:52:46.116739 14799 net.cpp:425] inception_4b/relu_3x3 <- inception_4b/3x3
I0403 15:52:46.116758 14799 net.cpp:386] inception_4b/relu_3x3 -> inception_4b/3x3 (in-place)
I0403 15:52:46.116952 14799 net.cpp:141] Setting up inception_4b/relu_3x3
I0403 15:52:46.116982 14799 net.cpp:148] Top shape: 24 224 14 14 (1053696)
I0403 15:52:46.116999 14799 net.cpp:156] Memory required for data: 964869408
I0403 15:52:46.117014 14799 layer_factory.hpp:77] Creating layer inception_4b/5x5_reduce
I0403 15:52:46.117041 14799 net.cpp:91] Creating Layer inception_4b/5x5_reduce
I0403 15:52:46.117060 14799 net.cpp:425] inception_4b/5x5_reduce <- inception_4a/output_inception_4a/output_0_split_3
I0403 15:52:46.117081 14799 net.cpp:399] inception_4b/5x5_reduce -> inception_4b/5x5_reduce
I0403 15:52:46.118248 14799 net.cpp:141] Setting up inception_4b/5x5_reduce
I0403 15:52:46.118280 14799 net.cpp:148] Top shape: 24 24 14 14 (112896)
I0403 15:52:46.118299 14799 net.cpp:156] Memory required for data: 965320992
I0403 15:52:46.118317 14799 layer_factory.hpp:77] Creating layer inception_4b/relu_5x5_reduce
I0403 15:52:46.118337 14799 net.cpp:91] Creating Layer inception_4b/relu_5x5_reduce
I0403 15:52:46.118371 14799 net.cpp:425] inception_4b/relu_5x5_reduce <- inception_4b/5x5_reduce
I0403 15:52:46.118393 14799 net.cpp:386] inception_4b/relu_5x5_reduce -> inception_4b/5x5_reduce (in-place)
I0403 15:52:46.118590 14799 net.cpp:141] Setting up inception_4b/relu_5x5_reduce
I0403 15:52:46.118619 14799 net.cpp:148] Top shape: 24 24 14 14 (112896)
I0403 15:52:46.118635 14799 net.cpp:156] Memory required for data: 965772576
I0403 15:52:46.118650 14799 layer_factory.hpp:77] Creating layer inception_4b/5x5
I0403 15:52:46.118674 14799 net.cpp:91] Creating Layer inception_4b/5x5
I0403 15:52:46.118692 14799 net.cpp:425] inception_4b/5x5 <- inception_4b/5x5_reduce
I0403 15:52:46.118716 14799 net.cpp:399] inception_4b/5x5 -> inception_4b/5x5
I0403 15:52:46.120026 14799 net.cpp:141] Setting up inception_4b/5x5
I0403 15:52:46.120059 14799 net.cpp:148] Top shape: 24 64 14 14 (301056)
I0403 15:52:46.120077 14799 net.cpp:156] Memory required for data: 966976800
I0403 15:52:46.120097 14799 layer_factory.hpp:77] Creating layer inception_4b/relu_5x5
I0403 15:52:46.120115 14799 net.cpp:91] Creating Layer inception_4b/relu_5x5
I0403 15:52:46.120137 14799 net.cpp:425] inception_4b/relu_5x5 <- inception_4b/5x5
I0403 15:52:46.120160 14799 net.cpp:386] inception_4b/relu_5x5 -> inception_4b/5x5 (in-place)
I0403 15:52:46.120463 14799 net.cpp:141] Setting up inception_4b/relu_5x5
I0403 15:52:46.120494 14799 net.cpp:148] Top shape: 24 64 14 14 (301056)
I0403 15:52:46.120512 14799 net.cpp:156] Memory required for data: 968181024
I0403 15:52:46.120527 14799 layer_factory.hpp:77] Creating layer inception_4b/pool
I0403 15:52:46.120548 14799 net.cpp:91] Creating Layer inception_4b/pool
I0403 15:52:46.120565 14799 net.cpp:425] inception_4b/pool <- inception_4a/output_inception_4a/output_0_split_4
I0403 15:52:46.120587 14799 net.cpp:399] inception_4b/pool -> inception_4b/pool
I0403 15:52:46.120657 14799 net.cpp:141] Setting up inception_4b/pool
I0403 15:52:46.120683 14799 net.cpp:148] Top shape: 24 512 14 14 (2408448)
I0403 15:52:46.120698 14799 net.cpp:156] Memory required for data: 977814816
I0403 15:52:46.120714 14799 layer_factory.hpp:77] Creating layer inception_4b/pool_proj
I0403 15:52:46.120743 14799 net.cpp:91] Creating Layer inception_4b/pool_proj
I0403 15:52:46.120761 14799 net.cpp:425] inception_4b/pool_proj <- inception_4b/pool
I0403 15:52:46.120781 14799 net.cpp:399] inception_4b/pool_proj -> inception_4b/pool_proj
I0403 15:52:46.122066 14799 net.cpp:141] Setting up inception_4b/pool_proj
I0403 15:52:46.122097 14799 net.cpp:148] Top shape: 24 64 14 14 (301056)
I0403 15:52:46.122113 14799 net.cpp:156] Memory required for data: 979019040
I0403 15:52:46.122138 14799 layer_factory.hpp:77] Creating layer inception_4b/relu_pool_proj
I0403 15:52:46.122159 14799 net.cpp:91] Creating Layer inception_4b/relu_pool_proj
I0403 15:52:46.122175 14799 net.cpp:425] inception_4b/relu_pool_proj <- inception_4b/pool_proj
I0403 15:52:46.122200 14799 net.cpp:386] inception_4b/relu_pool_proj -> inception_4b/pool_proj (in-place)
I0403 15:52:46.122395 14799 net.cpp:141] Setting up inception_4b/relu_pool_proj
I0403 15:52:46.122422 14799 net.cpp:148] Top shape: 24 64 14 14 (301056)
I0403 15:52:46.122438 14799 net.cpp:156] Memory required for data: 980223264
I0403 15:52:46.122453 14799 layer_factory.hpp:77] Creating layer inception_4b/output
I0403 15:52:46.122475 14799 net.cpp:91] Creating Layer inception_4b/output
I0403 15:52:46.122493 14799 net.cpp:425] inception_4b/output <- inception_4b/1x1
I0403 15:52:46.122510 14799 net.cpp:425] inception_4b/output <- inception_4b/3x3
I0403 15:52:46.122527 14799 net.cpp:425] inception_4b/output <- inception_4b/5x5
I0403 15:52:46.122545 14799 net.cpp:425] inception_4b/output <- inception_4b/pool_proj
I0403 15:52:46.122563 14799 net.cpp:399] inception_4b/output -> inception_4b/output
I0403 15:52:46.122611 14799 net.cpp:141] Setting up inception_4b/output
I0403 15:52:46.122639 14799 net.cpp:148] Top shape: 24 512 14 14 (2408448)
I0403 15:52:46.122656 14799 net.cpp:156] Memory required for data: 989857056
I0403 15:52:46.122689 14799 layer_factory.hpp:77] Creating layer inception_4b/output_inception_4b/output_0_split
I0403 15:52:46.122709 14799 net.cpp:91] Creating Layer inception_4b/output_inception_4b/output_0_split
I0403 15:52:46.122725 14799 net.cpp:425] inception_4b/output_inception_4b/output_0_split <- inception_4b/output
I0403 15:52:46.122745 14799 net.cpp:399] inception_4b/output_inception_4b/output_0_split -> inception_4b/output_inception_4b/output_0_split_0
I0403 15:52:46.122769 14799 net.cpp:399] inception_4b/output_inception_4b/output_0_split -> inception_4b/output_inception_4b/output_0_split_1
I0403 15:52:46.122792 14799 net.cpp:399] inception_4b/output_inception_4b/output_0_split -> inception_4b/output_inception_4b/output_0_split_2
I0403 15:52:46.122813 14799 net.cpp:399] inception_4b/output_inception_4b/output_0_split -> inception_4b/output_inception_4b/output_0_split_3
I0403 15:52:46.122902 14799 net.cpp:141] Setting up inception_4b/output_inception_4b/output_0_split
I0403 15:52:46.122930 14799 net.cpp:148] Top shape: 24 512 14 14 (2408448)
I0403 15:52:46.122948 14799 net.cpp:148] Top shape: 24 512 14 14 (2408448)
I0403 15:52:46.122967 14799 net.cpp:148] Top shape: 24 512 14 14 (2408448)
I0403 15:52:46.122982 14799 net.cpp:148] Top shape: 24 512 14 14 (2408448)
I0403 15:52:46.122997 14799 net.cpp:156] Memory required for data: 1028392224
I0403 15:52:46.123011 14799 layer_factory.hpp:77] Creating layer inception_4c/1x1
I0403 15:52:46.123036 14799 net.cpp:91] Creating Layer inception_4c/1x1
I0403 15:52:46.123056 14799 net.cpp:425] inception_4c/1x1 <- inception_4b/output_inception_4b/output_0_split_0
I0403 15:52:46.123077 14799 net.cpp:399] inception_4c/1x1 -> inception_4c/1x1
I0403 15:52:46.124636 14799 net.cpp:141] Setting up inception_4c/1x1
I0403 15:52:46.124666 14799 net.cpp:148] Top shape: 24 128 14 14 (602112)
I0403 15:52:46.124683 14799 net.cpp:156] Memory required for data: 1030800672
I0403 15:52:46.124703 14799 layer_factory.hpp:77] Creating layer inception_4c/relu_1x1
I0403 15:52:46.124725 14799 net.cpp:91] Creating Layer inception_4c/relu_1x1
I0403 15:52:46.124744 14799 net.cpp:425] inception_4c/relu_1x1 <- inception_4c/1x1
I0403 15:52:46.124763 14799 net.cpp:386] inception_4c/relu_1x1 -> inception_4c/1x1 (in-place)
I0403 15:52:46.124963 14799 net.cpp:141] Setting up inception_4c/relu_1x1
I0403 15:52:46.124991 14799 net.cpp:148] Top shape: 24 128 14 14 (602112)
I0403 15:52:46.125008 14799 net.cpp:156] Memory required for data: 1033209120
I0403 15:52:46.125025 14799 layer_factory.hpp:77] Creating layer inception_4c/3x3_reduce
I0403 15:52:46.125048 14799 net.cpp:91] Creating Layer inception_4c/3x3_reduce
I0403 15:52:46.125067 14799 net.cpp:425] inception_4c/3x3_reduce <- inception_4b/output_inception_4b/output_0_split_1
I0403 15:52:46.125087 14799 net.cpp:399] inception_4c/3x3_reduce -> inception_4c/3x3_reduce
I0403 15:52:46.127167 14799 net.cpp:141] Setting up inception_4c/3x3_reduce
I0403 15:52:46.127202 14799 net.cpp:148] Top shape: 24 128 14 14 (602112)
I0403 15:52:46.127219 14799 net.cpp:156] Memory required for data: 1035617568
I0403 15:52:46.127238 14799 layer_factory.hpp:77] Creating layer inception_4c/relu_3x3_reduce
I0403 15:52:46.127257 14799 net.cpp:91] Creating Layer inception_4c/relu_3x3_reduce
I0403 15:52:46.127274 14799 net.cpp:425] inception_4c/relu_3x3_reduce <- inception_4c/3x3_reduce
I0403 15:52:46.127296 14799 net.cpp:386] inception_4c/relu_3x3_reduce -> inception_4c/3x3_reduce (in-place)
I0403 15:52:46.127600 14799 net.cpp:141] Setting up inception_4c/relu_3x3_reduce
I0403 15:52:46.127631 14799 net.cpp:148] Top shape: 24 128 14 14 (602112)
I0403 15:52:46.127648 14799 net.cpp:156] Memory required for data: 1038026016
I0403 15:52:46.127665 14799 layer_factory.hpp:77] Creating layer inception_4c/3x3
I0403 15:52:46.127692 14799 net.cpp:91] Creating Layer inception_4c/3x3
I0403 15:52:46.127712 14799 net.cpp:425] inception_4c/3x3 <- inception_4c/3x3_reduce
I0403 15:52:46.127732 14799 net.cpp:399] inception_4c/3x3 -> inception_4c/3x3
I0403 15:52:46.131556 14799 net.cpp:141] Setting up inception_4c/3x3
I0403 15:52:46.131600 14799 net.cpp:148] Top shape: 24 256 14 14 (1204224)
I0403 15:52:46.131619 14799 net.cpp:156] Memory required for data: 1042842912
I0403 15:52:46.131654 14799 layer_factory.hpp:77] Creating layer inception_4c/relu_3x3
I0403 15:52:46.131675 14799 net.cpp:91] Creating Layer inception_4c/relu_3x3
I0403 15:52:46.131695 14799 net.cpp:425] inception_4c/relu_3x3 <- inception_4c/3x3
I0403 15:52:46.131714 14799 net.cpp:386] inception_4c/relu_3x3 -> inception_4c/3x3 (in-place)
I0403 15:52:46.131911 14799 net.cpp:141] Setting up inception_4c/relu_3x3
I0403 15:52:46.131939 14799 net.cpp:148] Top shape: 24 256 14 14 (1204224)
I0403 15:52:46.131955 14799 net.cpp:156] Memory required for data: 1047659808
I0403 15:52:46.131970 14799 layer_factory.hpp:77] Creating layer inception_4c/5x5_reduce
I0403 15:52:46.131994 14799 net.cpp:91] Creating Layer inception_4c/5x5_reduce
I0403 15:52:46.132014 14799 net.cpp:425] inception_4c/5x5_reduce <- inception_4b/output_inception_4b/output_0_split_2
I0403 15:52:46.132037 14799 net.cpp:399] inception_4c/5x5_reduce -> inception_4c/5x5_reduce
I0403 15:52:46.133224 14799 net.cpp:141] Setting up inception_4c/5x5_reduce
I0403 15:52:46.133257 14799 net.cpp:148] Top shape: 24 24 14 14 (112896)
I0403 15:52:46.133275 14799 net.cpp:156] Memory required for data: 1048111392
I0403 15:52:46.133296 14799 layer_factory.hpp:77] Creating layer inception_4c/relu_5x5_reduce
I0403 15:52:46.133313 14799 net.cpp:91] Creating Layer inception_4c/relu_5x5_reduce
I0403 15:52:46.133332 14799 net.cpp:425] inception_4c/relu_5x5_reduce <- inception_4c/5x5_reduce
I0403 15:52:46.133352 14799 net.cpp:386] inception_4c/relu_5x5_reduce -> inception_4c/5x5_reduce (in-place)
I0403 15:52:46.133553 14799 net.cpp:141] Setting up inception_4c/relu_5x5_reduce
I0403 15:52:46.133580 14799 net.cpp:148] Top shape: 24 24 14 14 (112896)
I0403 15:52:46.133596 14799 net.cpp:156] Memory required for data: 1048562976
I0403 15:52:46.133612 14799 layer_factory.hpp:77] Creating layer inception_4c/5x5
I0403 15:52:46.133636 14799 net.cpp:91] Creating Layer inception_4c/5x5
I0403 15:52:46.133656 14799 net.cpp:425] inception_4c/5x5 <- inception_4c/5x5_reduce
I0403 15:52:46.133678 14799 net.cpp:399] inception_4c/5x5 -> inception_4c/5x5
I0403 15:52:46.135009 14799 net.cpp:141] Setting up inception_4c/5x5
I0403 15:52:46.135038 14799 net.cpp:148] Top shape: 24 64 14 14 (301056)
I0403 15:52:46.135056 14799 net.cpp:156] Memory required for data: 1049767200
I0403 15:52:46.135076 14799 layer_factory.hpp:77] Creating layer inception_4c/relu_5x5
I0403 15:52:46.135097 14799 net.cpp:91] Creating Layer inception_4c/relu_5x5
I0403 15:52:46.135115 14799 net.cpp:425] inception_4c/relu_5x5 <- inception_4c/5x5
I0403 15:52:46.135139 14799 net.cpp:386] inception_4c/relu_5x5 -> inception_4c/5x5 (in-place)
I0403 15:52:46.135447 14799 net.cpp:141] Setting up inception_4c/relu_5x5
I0403 15:52:46.135476 14799 net.cpp:148] Top shape: 24 64 14 14 (301056)
I0403 15:52:46.135493 14799 net.cpp:156] Memory required for data: 1050971424
I0403 15:52:46.135509 14799 layer_factory.hpp:77] Creating layer inception_4c/pool
I0403 15:52:46.135529 14799 net.cpp:91] Creating Layer inception_4c/pool
I0403 15:52:46.135550 14799 net.cpp:425] inception_4c/pool <- inception_4b/output_inception_4b/output_0_split_3
I0403 15:52:46.135570 14799 net.cpp:399] inception_4c/pool -> inception_4c/pool
I0403 15:52:46.135640 14799 net.cpp:141] Setting up inception_4c/pool
I0403 15:52:46.135668 14799 net.cpp:148] Top shape: 24 512 14 14 (2408448)
I0403 15:52:46.135682 14799 net.cpp:156] Memory required for data: 1060605216
I0403 15:52:46.135696 14799 layer_factory.hpp:77] Creating layer inception_4c/pool_proj
I0403 15:52:46.135720 14799 net.cpp:91] Creating Layer inception_4c/pool_proj
I0403 15:52:46.135740 14799 net.cpp:425] inception_4c/pool_proj <- inception_4c/pool
I0403 15:52:46.135762 14799 net.cpp:399] inception_4c/pool_proj -> inception_4c/pool_proj
I0403 15:52:46.137078 14799 net.cpp:141] Setting up inception_4c/pool_proj
I0403 15:52:46.137109 14799 net.cpp:148] Top shape: 24 64 14 14 (301056)
I0403 15:52:46.137145 14799 net.cpp:156] Memory required for data: 1061809440
I0403 15:52:46.137167 14799 layer_factory.hpp:77] Creating layer inception_4c/relu_pool_proj
I0403 15:52:46.137187 14799 net.cpp:91] Creating Layer inception_4c/relu_pool_proj
I0403 15:52:46.137205 14799 net.cpp:425] inception_4c/relu_pool_proj <- inception_4c/pool_proj
I0403 15:52:46.137226 14799 net.cpp:386] inception_4c/relu_pool_proj -> inception_4c/pool_proj (in-place)
I0403 15:52:46.137423 14799 net.cpp:141] Setting up inception_4c/relu_pool_proj
I0403 15:52:46.137450 14799 net.cpp:148] Top shape: 24 64 14 14 (301056)
I0403 15:52:46.137466 14799 net.cpp:156] Memory required for data: 1063013664
I0403 15:52:46.137481 14799 layer_factory.hpp:77] Creating layer inception_4c/output
I0403 15:52:46.137501 14799 net.cpp:91] Creating Layer inception_4c/output
I0403 15:52:46.137516 14799 net.cpp:425] inception_4c/output <- inception_4c/1x1
I0403 15:52:46.137537 14799 net.cpp:425] inception_4c/output <- inception_4c/3x3
I0403 15:52:46.137553 14799 net.cpp:425] inception_4c/output <- inception_4c/5x5
I0403 15:52:46.137570 14799 net.cpp:425] inception_4c/output <- inception_4c/pool_proj
I0403 15:52:46.137588 14799 net.cpp:399] inception_4c/output -> inception_4c/output
I0403 15:52:46.137637 14799 net.cpp:141] Setting up inception_4c/output
I0403 15:52:46.137666 14799 net.cpp:148] Top shape: 24 512 14 14 (2408448)
I0403 15:52:46.137686 14799 net.cpp:156] Memory required for data: 1072647456
I0403 15:52:46.137701 14799 layer_factory.hpp:77] Creating layer inception_4c/output_inception_4c/output_0_split
I0403 15:52:46.137719 14799 net.cpp:91] Creating Layer inception_4c/output_inception_4c/output_0_split
I0403 15:52:46.137737 14799 net.cpp:425] inception_4c/output_inception_4c/output_0_split <- inception_4c/output
I0403 15:52:46.137758 14799 net.cpp:399] inception_4c/output_inception_4c/output_0_split -> inception_4c/output_inception_4c/output_0_split_0
I0403 15:52:46.137780 14799 net.cpp:399] inception_4c/output_inception_4c/output_0_split -> inception_4c/output_inception_4c/output_0_split_1
I0403 15:52:46.137802 14799 net.cpp:399] inception_4c/output_inception_4c/output_0_split -> inception_4c/output_inception_4c/output_0_split_2
I0403 15:52:46.137825 14799 net.cpp:399] inception_4c/output_inception_4c/output_0_split -> inception_4c/output_inception_4c/output_0_split_3
I0403 15:52:46.137913 14799 net.cpp:141] Setting up inception_4c/output_inception_4c/output_0_split
I0403 15:52:46.137943 14799 net.cpp:148] Top shape: 24 512 14 14 (2408448)
I0403 15:52:46.137962 14799 net.cpp:148] Top shape: 24 512 14 14 (2408448)
I0403 15:52:46.137979 14799 net.cpp:148] Top shape: 24 512 14 14 (2408448)
I0403 15:52:46.137996 14799 net.cpp:148] Top shape: 24 512 14 14 (2408448)
I0403 15:52:46.138011 14799 net.cpp:156] Memory required for data: 1111182624
I0403 15:52:46.138026 14799 layer_factory.hpp:77] Creating layer inception_4d/1x1
I0403 15:52:46.138051 14799 net.cpp:91] Creating Layer inception_4d/1x1
I0403 15:52:46.138070 14799 net.cpp:425] inception_4d/1x1 <- inception_4c/output_inception_4c/output_0_split_0
I0403 15:52:46.138090 14799 net.cpp:399] inception_4d/1x1 -> inception_4d/1x1
I0403 15:52:46.139575 14799 net.cpp:141] Setting up inception_4d/1x1
I0403 15:52:46.139605 14799 net.cpp:148] Top shape: 24 112 14 14 (526848)
I0403 15:52:46.139626 14799 net.cpp:156] Memory required for data: 1113290016
I0403 15:52:46.139645 14799 layer_factory.hpp:77] Creating layer inception_4d/relu_1x1
I0403 15:52:46.139664 14799 net.cpp:91] Creating Layer inception_4d/relu_1x1
I0403 15:52:46.139683 14799 net.cpp:425] inception_4d/relu_1x1 <- inception_4d/1x1
I0403 15:52:46.139700 14799 net.cpp:386] inception_4d/relu_1x1 -> inception_4d/1x1 (in-place)
I0403 15:52:46.139899 14799 net.cpp:141] Setting up inception_4d/relu_1x1
I0403 15:52:46.139927 14799 net.cpp:148] Top shape: 24 112 14 14 (526848)
I0403 15:52:46.139945 14799 net.cpp:156] Memory required for data: 1115397408
I0403 15:52:46.139960 14799 layer_factory.hpp:77] Creating layer inception_4d/3x3_reduce
I0403 15:52:46.139999 14799 net.cpp:91] Creating Layer inception_4d/3x3_reduce
I0403 15:52:46.140020 14799 net.cpp:425] inception_4d/3x3_reduce <- inception_4c/output_inception_4c/output_0_split_1
I0403 15:52:46.140041 14799 net.cpp:399] inception_4d/3x3_reduce -> inception_4d/3x3_reduce
I0403 15:52:46.141664 14799 net.cpp:141] Setting up inception_4d/3x3_reduce
I0403 15:52:46.141693 14799 net.cpp:148] Top shape: 24 144 14 14 (677376)
I0403 15:52:46.141710 14799 net.cpp:156] Memory required for data: 1118106912
I0403 15:52:46.141729 14799 layer_factory.hpp:77] Creating layer inception_4d/relu_3x3_reduce
I0403 15:52:46.141752 14799 net.cpp:91] Creating Layer inception_4d/relu_3x3_reduce
I0403 15:52:46.141770 14799 net.cpp:425] inception_4d/relu_3x3_reduce <- inception_4d/3x3_reduce
I0403 15:52:46.141789 14799 net.cpp:386] inception_4d/relu_3x3_reduce -> inception_4d/3x3_reduce (in-place)
I0403 15:52:46.142098 14799 net.cpp:141] Setting up inception_4d/relu_3x3_reduce
I0403 15:52:46.142133 14799 net.cpp:148] Top shape: 24 144 14 14 (677376)
I0403 15:52:46.142153 14799 net.cpp:156] Memory required for data: 1120816416
I0403 15:52:46.142168 14799 layer_factory.hpp:77] Creating layer inception_4d/3x3
I0403 15:52:46.142192 14799 net.cpp:91] Creating Layer inception_4d/3x3
I0403 15:52:46.142212 14799 net.cpp:425] inception_4d/3x3 <- inception_4d/3x3_reduce
I0403 15:52:46.142235 14799 net.cpp:399] inception_4d/3x3 -> inception_4d/3x3
I0403 15:52:46.146685 14799 net.cpp:141] Setting up inception_4d/3x3
I0403 15:52:46.146716 14799 net.cpp:148] Top shape: 24 288 14 14 (1354752)
I0403 15:52:46.146733 14799 net.cpp:156] Memory required for data: 1126235424
I0403 15:52:46.146751 14799 layer_factory.hpp:77] Creating layer inception_4d/relu_3x3
I0403 15:52:46.146772 14799 net.cpp:91] Creating Layer inception_4d/relu_3x3
I0403 15:52:46.146791 14799 net.cpp:425] inception_4d/relu_3x3 <- inception_4d/3x3
I0403 15:52:46.146808 14799 net.cpp:386] inception_4d/relu_3x3 -> inception_4d/3x3 (in-place)
I0403 15:52:46.147001 14799 net.cpp:141] Setting up inception_4d/relu_3x3
I0403 15:52:46.147028 14799 net.cpp:148] Top shape: 24 288 14 14 (1354752)
I0403 15:52:46.147043 14799 net.cpp:156] Memory required for data: 1131654432
I0403 15:52:46.147059 14799 layer_factory.hpp:77] Creating layer inception_4d/5x5_reduce
I0403 15:52:46.147083 14799 net.cpp:91] Creating Layer inception_4d/5x5_reduce
I0403 15:52:46.147101 14799 net.cpp:425] inception_4d/5x5_reduce <- inception_4c/output_inception_4c/output_0_split_2
I0403 15:52:46.147124 14799 net.cpp:399] inception_4d/5x5_reduce -> inception_4d/5x5_reduce
I0403 15:52:46.148315 14799 net.cpp:141] Setting up inception_4d/5x5_reduce
I0403 15:52:46.148347 14799 net.cpp:148] Top shape: 24 32 14 14 (150528)
I0403 15:52:46.148365 14799 net.cpp:156] Memory required for data: 1132256544
I0403 15:52:46.148386 14799 layer_factory.hpp:77] Creating layer inception_4d/relu_5x5_reduce
I0403 15:52:46.148403 14799 net.cpp:91] Creating Layer inception_4d/relu_5x5_reduce
I0403 15:52:46.148421 14799 net.cpp:425] inception_4d/relu_5x5_reduce <- inception_4d/5x5_reduce
I0403 15:52:46.148437 14799 net.cpp:386] inception_4d/relu_5x5_reduce -> inception_4d/5x5_reduce (in-place)
I0403 15:52:46.148633 14799 net.cpp:141] Setting up inception_4d/relu_5x5_reduce
I0403 15:52:46.148663 14799 net.cpp:148] Top shape: 24 32 14 14 (150528)
I0403 15:52:46.148679 14799 net.cpp:156] Memory required for data: 1132858656
I0403 15:52:46.148695 14799 layer_factory.hpp:77] Creating layer inception_4d/5x5
I0403 15:52:46.148718 14799 net.cpp:91] Creating Layer inception_4d/5x5
I0403 15:52:46.148737 14799 net.cpp:425] inception_4d/5x5 <- inception_4d/5x5_reduce
I0403 15:52:46.148761 14799 net.cpp:399] inception_4d/5x5 -> inception_4d/5x5
I0403 15:52:46.150307 14799 net.cpp:141] Setting up inception_4d/5x5
I0403 15:52:46.150337 14799 net.cpp:148] Top shape: 24 64 14 14 (301056)
I0403 15:52:46.150355 14799 net.cpp:156] Memory required for data: 1134062880
I0403 15:52:46.150375 14799 layer_factory.hpp:77] Creating layer inception_4d/relu_5x5
I0403 15:52:46.150414 14799 net.cpp:91] Creating Layer inception_4d/relu_5x5
I0403 15:52:46.150435 14799 net.cpp:425] inception_4d/relu_5x5 <- inception_4d/5x5
I0403 15:52:46.150454 14799 net.cpp:386] inception_4d/relu_5x5 -> inception_4d/5x5 (in-place)
I0403 15:52:46.150776 14799 net.cpp:141] Setting up inception_4d/relu_5x5
I0403 15:52:46.150804 14799 net.cpp:148] Top shape: 24 64 14 14 (301056)
I0403 15:52:46.150820 14799 net.cpp:156] Memory required for data: 1135267104
I0403 15:52:46.150836 14799 layer_factory.hpp:77] Creating layer inception_4d/pool
I0403 15:52:46.150853 14799 net.cpp:91] Creating Layer inception_4d/pool
I0403 15:52:46.150871 14799 net.cpp:425] inception_4d/pool <- inception_4c/output_inception_4c/output_0_split_3
I0403 15:52:46.150892 14799 net.cpp:399] inception_4d/pool -> inception_4d/pool
I0403 15:52:46.150960 14799 net.cpp:141] Setting up inception_4d/pool
I0403 15:52:46.150987 14799 net.cpp:148] Top shape: 24 512 14 14 (2408448)
I0403 15:52:46.151003 14799 net.cpp:156] Memory required for data: 1144900896
I0403 15:52:46.151020 14799 layer_factory.hpp:77] Creating layer inception_4d/pool_proj
I0403 15:52:46.151041 14799 net.cpp:91] Creating Layer inception_4d/pool_proj
I0403 15:52:46.151059 14799 net.cpp:425] inception_4d/pool_proj <- inception_4d/pool
I0403 15:52:46.151078 14799 net.cpp:399] inception_4d/pool_proj -> inception_4d/pool_proj
I0403 15:52:46.152915 14799 net.cpp:141] Setting up inception_4d/pool_proj
I0403 15:52:46.152946 14799 net.cpp:148] Top shape: 24 64 14 14 (301056)
I0403 15:52:46.152963 14799 net.cpp:156] Memory required for data: 1146105120
I0403 15:52:46.152982 14799 layer_factory.hpp:77] Creating layer inception_4d/relu_pool_proj
I0403 15:52:46.153003 14799 net.cpp:91] Creating Layer inception_4d/relu_pool_proj
I0403 15:52:46.153022 14799 net.cpp:425] inception_4d/relu_pool_proj <- inception_4d/pool_proj
I0403 15:52:46.153039 14799 net.cpp:386] inception_4d/relu_pool_proj -> inception_4d/pool_proj (in-place)
I0403 15:52:46.153245 14799 net.cpp:141] Setting up inception_4d/relu_pool_proj
I0403 15:52:46.153272 14799 net.cpp:148] Top shape: 24 64 14 14 (301056)
I0403 15:52:46.153288 14799 net.cpp:156] Memory required for data: 1147309344
I0403 15:52:46.153303 14799 layer_factory.hpp:77] Creating layer inception_4d/output
I0403 15:52:46.153321 14799 net.cpp:91] Creating Layer inception_4d/output
I0403 15:52:46.153338 14799 net.cpp:425] inception_4d/output <- inception_4d/1x1
I0403 15:52:46.153354 14799 net.cpp:425] inception_4d/output <- inception_4d/3x3
I0403 15:52:46.153372 14799 net.cpp:425] inception_4d/output <- inception_4d/5x5
I0403 15:52:46.153388 14799 net.cpp:425] inception_4d/output <- inception_4d/pool_proj
I0403 15:52:46.153408 14799 net.cpp:399] inception_4d/output -> inception_4d/output
I0403 15:52:46.153456 14799 net.cpp:141] Setting up inception_4d/output
I0403 15:52:46.153484 14799 net.cpp:148] Top shape: 24 528 14 14 (2483712)
I0403 15:52:46.153499 14799 net.cpp:156] Memory required for data: 1157244192
I0403 15:52:46.153514 14799 layer_factory.hpp:77] Creating layer inception_4d/output_inception_4d/output_0_split
I0403 15:52:46.153532 14799 net.cpp:91] Creating Layer inception_4d/output_inception_4d/output_0_split
I0403 15:52:46.153548 14799 net.cpp:425] inception_4d/output_inception_4d/output_0_split <- inception_4d/output
I0403 15:52:46.153566 14799 net.cpp:399] inception_4d/output_inception_4d/output_0_split -> inception_4d/output_inception_4d/output_0_split_0
I0403 15:52:46.153589 14799 net.cpp:399] inception_4d/output_inception_4d/output_0_split -> inception_4d/output_inception_4d/output_0_split_1
I0403 15:52:46.153611 14799 net.cpp:399] inception_4d/output_inception_4d/output_0_split -> inception_4d/output_inception_4d/output_0_split_2
I0403 15:52:46.153632 14799 net.cpp:399] inception_4d/output_inception_4d/output_0_split -> inception_4d/output_inception_4d/output_0_split_3
I0403 15:52:46.153653 14799 net.cpp:399] inception_4d/output_inception_4d/output_0_split -> inception_4d/output_inception_4d/output_0_split_4
I0403 15:52:46.153759 14799 net.cpp:141] Setting up inception_4d/output_inception_4d/output_0_split
I0403 15:52:46.153797 14799 net.cpp:148] Top shape: 24 528 14 14 (2483712)
I0403 15:52:46.153815 14799 net.cpp:148] Top shape: 24 528 14 14 (2483712)
I0403 15:52:46.153831 14799 net.cpp:148] Top shape: 24 528 14 14 (2483712)
I0403 15:52:46.153846 14799 net.cpp:148] Top shape: 24 528 14 14 (2483712)
I0403 15:52:46.153861 14799 net.cpp:148] Top shape: 24 528 14 14 (2483712)
I0403 15:52:46.153875 14799 net.cpp:156] Memory required for data: 1206918432
I0403 15:52:46.153890 14799 layer_factory.hpp:77] Creating layer loss2/ave_pool
I0403 15:52:46.153911 14799 net.cpp:91] Creating Layer loss2/ave_pool
I0403 15:52:46.153930 14799 net.cpp:425] loss2/ave_pool <- inception_4d/output_inception_4d/output_0_split_0
I0403 15:52:46.153949 14799 net.cpp:399] loss2/ave_pool -> loss2/ave_pool
I0403 15:52:46.154279 14799 net.cpp:141] Setting up loss2/ave_pool
I0403 15:52:46.154310 14799 net.cpp:148] Top shape: 24 528 4 4 (202752)
I0403 15:52:46.154327 14799 net.cpp:156] Memory required for data: 1207729440
I0403 15:52:46.154343 14799 layer_factory.hpp:77] Creating layer loss2/conv
I0403 15:52:46.154366 14799 net.cpp:91] Creating Layer loss2/conv
I0403 15:52:46.154386 14799 net.cpp:425] loss2/conv <- loss2/ave_pool
I0403 15:52:46.154404 14799 net.cpp:399] loss2/conv -> loss2/conv
I0403 15:52:46.156378 14799 net.cpp:141] Setting up loss2/conv
I0403 15:52:46.156409 14799 net.cpp:148] Top shape: 24 128 4 4 (49152)
I0403 15:52:46.156424 14799 net.cpp:156] Memory required for data: 1207926048
I0403 15:52:46.156443 14799 layer_factory.hpp:77] Creating layer loss2/relu_conv
I0403 15:52:46.156462 14799 net.cpp:91] Creating Layer loss2/relu_conv
I0403 15:52:46.156479 14799 net.cpp:425] loss2/relu_conv <- loss2/conv
I0403 15:52:46.156498 14799 net.cpp:386] loss2/relu_conv -> loss2/conv (in-place)
I0403 15:52:46.156798 14799 net.cpp:141] Setting up loss2/relu_conv
I0403 15:52:46.156826 14799 net.cpp:148] Top shape: 24 128 4 4 (49152)
I0403 15:52:46.156842 14799 net.cpp:156] Memory required for data: 1208122656
I0403 15:52:46.156857 14799 layer_factory.hpp:77] Creating layer loss2/fc
I0403 15:52:46.156877 14799 net.cpp:91] Creating Layer loss2/fc
I0403 15:52:46.156894 14799 net.cpp:425] loss2/fc <- loss2/conv
I0403 15:52:46.156915 14799 net.cpp:399] loss2/fc -> loss2/fc
I0403 15:52:46.175109 14799 net.cpp:141] Setting up loss2/fc
I0403 15:52:46.175153 14799 net.cpp:148] Top shape: 24 1024 (24576)
I0403 15:52:46.175169 14799 net.cpp:156] Memory required for data: 1208220960
I0403 15:52:46.175189 14799 layer_factory.hpp:77] Creating layer loss2/relu_fc
I0403 15:52:46.175207 14799 net.cpp:91] Creating Layer loss2/relu_fc
I0403 15:52:46.175225 14799 net.cpp:425] loss2/relu_fc <- loss2/fc
I0403 15:52:46.175242 14799 net.cpp:386] loss2/relu_fc -> loss2/fc (in-place)
I0403 15:52:46.175552 14799 net.cpp:141] Setting up loss2/relu_fc
I0403 15:52:46.175582 14799 net.cpp:148] Top shape: 24 1024 (24576)
I0403 15:52:46.175601 14799 net.cpp:156] Memory required for data: 1208319264
I0403 15:52:46.175616 14799 layer_factory.hpp:77] Creating layer loss2/drop_fc
I0403 15:52:46.175633 14799 net.cpp:91] Creating Layer loss2/drop_fc
I0403 15:52:46.175650 14799 net.cpp:425] loss2/drop_fc <- loss2/fc
I0403 15:52:46.175668 14799 net.cpp:386] loss2/drop_fc -> loss2/fc (in-place)
I0403 15:52:46.175721 14799 net.cpp:141] Setting up loss2/drop_fc
I0403 15:52:46.175745 14799 net.cpp:148] Top shape: 24 1024 (24576)
I0403 15:52:46.175760 14799 net.cpp:156] Memory required for data: 1208417568
I0403 15:52:46.175776 14799 layer_factory.hpp:77] Creating layer loss2/classifier_plantvillage
I0403 15:52:46.175796 14799 net.cpp:91] Creating Layer loss2/classifier_plantvillage
I0403 15:52:46.175813 14799 net.cpp:425] loss2/classifier_plantvillage <- loss2/fc
I0403 15:52:46.175832 14799 net.cpp:399] loss2/classifier_plantvillage -> loss2/classifier_plantvillage
I0403 15:52:46.176265 14799 net.cpp:141] Setting up loss2/classifier_plantvillage
I0403 15:52:46.176291 14799 net.cpp:148] Top shape: 24 38 (912)
I0403 15:52:46.176306 14799 net.cpp:156] Memory required for data: 1208421216
I0403 15:52:46.176344 14799 layer_factory.hpp:77] Creating layer loss2/classifier_plantvillage_loss2/classifier_plantvillage_0_split
I0403 15:52:46.176368 14799 net.cpp:91] Creating Layer loss2/classifier_plantvillage_loss2/classifier_plantvillage_0_split
I0403 15:52:46.176385 14799 net.cpp:425] loss2/classifier_plantvillage_loss2/classifier_plantvillage_0_split <- loss2/classifier_plantvillage
I0403 15:52:46.176405 14799 net.cpp:399] loss2/classifier_plantvillage_loss2/classifier_plantvillage_0_split -> loss2/classifier_plantvillage_loss2/classifier_plantvillage_0_split_0
I0403 15:52:46.176429 14799 net.cpp:399] loss2/classifier_plantvillage_loss2/classifier_plantvillage_0_split -> loss2/classifier_plantvillage_loss2/classifier_plantvillage_0_split_1
I0403 15:52:46.176450 14799 net.cpp:399] loss2/classifier_plantvillage_loss2/classifier_plantvillage_0_split -> loss2/classifier_plantvillage_loss2/classifier_plantvillage_0_split_2
I0403 15:52:46.176532 14799 net.cpp:141] Setting up loss2/classifier_plantvillage_loss2/classifier_plantvillage_0_split
I0403 15:52:46.176556 14799 net.cpp:148] Top shape: 24 38 (912)
I0403 15:52:46.176573 14799 net.cpp:148] Top shape: 24 38 (912)
I0403 15:52:46.176589 14799 net.cpp:148] Top shape: 24 38 (912)
I0403 15:52:46.176602 14799 net.cpp:156] Memory required for data: 1208432160
I0403 15:52:46.176616 14799 layer_factory.hpp:77] Creating layer inception_4e/1x1
I0403 15:52:46.176640 14799 net.cpp:91] Creating Layer inception_4e/1x1
I0403 15:52:46.176658 14799 net.cpp:425] inception_4e/1x1 <- inception_4d/output_inception_4d/output_0_split_1
I0403 15:52:46.176678 14799 net.cpp:399] inception_4e/1x1 -> inception_4e/1x1
I0403 15:52:46.178639 14799 net.cpp:141] Setting up inception_4e/1x1
I0403 15:52:46.178670 14799 net.cpp:148] Top shape: 24 256 14 14 (1204224)
I0403 15:52:46.178688 14799 net.cpp:156] Memory required for data: 1213249056
I0403 15:52:46.178707 14799 layer_factory.hpp:77] Creating layer inception_4e/relu_1x1
I0403 15:52:46.178730 14799 net.cpp:91] Creating Layer inception_4e/relu_1x1
I0403 15:52:46.178750 14799 net.cpp:425] inception_4e/relu_1x1 <- inception_4e/1x1
I0403 15:52:46.178768 14799 net.cpp:386] inception_4e/relu_1x1 -> inception_4e/1x1 (in-place)
I0403 15:52:46.179087 14799 net.cpp:141] Setting up inception_4e/relu_1x1
I0403 15:52:46.179116 14799 net.cpp:148] Top shape: 24 256 14 14 (1204224)
I0403 15:52:46.179139 14799 net.cpp:156] Memory required for data: 1218065952
I0403 15:52:46.179157 14799 layer_factory.hpp:77] Creating layer inception_4e/3x3_reduce
I0403 15:52:46.179182 14799 net.cpp:91] Creating Layer inception_4e/3x3_reduce
I0403 15:52:46.179200 14799 net.cpp:425] inception_4e/3x3_reduce <- inception_4d/output_inception_4d/output_0_split_2
I0403 15:52:46.179224 14799 net.cpp:399] inception_4e/3x3_reduce -> inception_4e/3x3_reduce
I0403 15:52:46.181486 14799 net.cpp:141] Setting up inception_4e/3x3_reduce
I0403 15:52:46.181517 14799 net.cpp:148] Top shape: 24 160 14 14 (752640)
I0403 15:52:46.181535 14799 net.cpp:156] Memory required for data: 1221076512
I0403 15:52:46.181555 14799 layer_factory.hpp:77] Creating layer inception_4e/relu_3x3_reduce
I0403 15:52:46.181573 14799 net.cpp:91] Creating Layer inception_4e/relu_3x3_reduce
I0403 15:52:46.181591 14799 net.cpp:425] inception_4e/relu_3x3_reduce <- inception_4e/3x3_reduce
I0403 15:52:46.181610 14799 net.cpp:386] inception_4e/relu_3x3_reduce -> inception_4e/3x3_reduce (in-place)
I0403 15:52:46.181813 14799 net.cpp:141] Setting up inception_4e/relu_3x3_reduce
I0403 15:52:46.181841 14799 net.cpp:148] Top shape: 24 160 14 14 (752640)
I0403 15:52:46.181857 14799 net.cpp:156] Memory required for data: 1224087072
I0403 15:52:46.181874 14799 layer_factory.hpp:77] Creating layer inception_4e/3x3
I0403 15:52:46.181898 14799 net.cpp:91] Creating Layer inception_4e/3x3
I0403 15:52:46.181918 14799 net.cpp:425] inception_4e/3x3 <- inception_4e/3x3_reduce
I0403 15:52:46.181941 14799 net.cpp:399] inception_4e/3x3 -> inception_4e/3x3
I0403 15:52:46.187278 14799 net.cpp:141] Setting up inception_4e/3x3
I0403 15:52:46.187324 14799 net.cpp:148] Top shape: 24 320 14 14 (1505280)
I0403 15:52:46.187340 14799 net.cpp:156] Memory required for data: 1230108192
I0403 15:52:46.187361 14799 layer_factory.hpp:77] Creating layer inception_4e/relu_3x3
I0403 15:52:46.187383 14799 net.cpp:91] Creating Layer inception_4e/relu_3x3
I0403 15:52:46.187402 14799 net.cpp:425] inception_4e/relu_3x3 <- inception_4e/3x3
I0403 15:52:46.187419 14799 net.cpp:386] inception_4e/relu_3x3 -> inception_4e/3x3 (in-place)
I0403 15:52:46.187747 14799 net.cpp:141] Setting up inception_4e/relu_3x3
I0403 15:52:46.187778 14799 net.cpp:148] Top shape: 24 320 14 14 (1505280)
I0403 15:52:46.187796 14799 net.cpp:156] Memory required for data: 1236129312
I0403 15:52:46.187813 14799 layer_factory.hpp:77] Creating layer inception_4e/5x5_reduce
I0403 15:52:46.187834 14799 net.cpp:91] Creating Layer inception_4e/5x5_reduce
I0403 15:52:46.187852 14799 net.cpp:425] inception_4e/5x5_reduce <- inception_4d/output_inception_4d/output_0_split_3
I0403 15:52:46.187877 14799 net.cpp:399] inception_4e/5x5_reduce -> inception_4e/5x5_reduce
I0403 15:52:46.189033 14799 net.cpp:141] Setting up inception_4e/5x5_reduce
I0403 15:52:46.189064 14799 net.cpp:148] Top shape: 24 32 14 14 (150528)
I0403 15:52:46.189080 14799 net.cpp:156] Memory required for data: 1236731424
I0403 15:52:46.189100 14799 layer_factory.hpp:77] Creating layer inception_4e/relu_5x5_reduce
I0403 15:52:46.189118 14799 net.cpp:91] Creating Layer inception_4e/relu_5x5_reduce
I0403 15:52:46.189147 14799 net.cpp:425] inception_4e/relu_5x5_reduce <- inception_4e/5x5_reduce
I0403 15:52:46.189167 14799 net.cpp:386] inception_4e/relu_5x5_reduce -> inception_4e/5x5_reduce (in-place)
I0403 15:52:46.189483 14799 net.cpp:141] Setting up inception_4e/relu_5x5_reduce
I0403 15:52:46.189512 14799 net.cpp:148] Top shape: 24 32 14 14 (150528)
I0403 15:52:46.189528 14799 net.cpp:156] Memory required for data: 1237333536
I0403 15:52:46.189545 14799 layer_factory.hpp:77] Creating layer inception_4e/5x5
I0403 15:52:46.189586 14799 net.cpp:91] Creating Layer inception_4e/5x5
I0403 15:52:46.189607 14799 net.cpp:425] inception_4e/5x5 <- inception_4e/5x5_reduce
I0403 15:52:46.189630 14799 net.cpp:399] inception_4e/5x5 -> inception_4e/5x5
I0403 15:52:46.191596 14799 net.cpp:141] Setting up inception_4e/5x5
I0403 15:52:46.191628 14799 net.cpp:148] Top shape: 24 128 14 14 (602112)
I0403 15:52:46.191647 14799 net.cpp:156] Memory required for data: 1239741984
I0403 15:52:46.191666 14799 layer_factory.hpp:77] Creating layer inception_4e/relu_5x5
I0403 15:52:46.191685 14799 net.cpp:91] Creating Layer inception_4e/relu_5x5
I0403 15:52:46.191704 14799 net.cpp:425] inception_4e/relu_5x5 <- inception_4e/5x5
I0403 15:52:46.191726 14799 net.cpp:386] inception_4e/relu_5x5 -> inception_4e/5x5 (in-place)
I0403 15:52:46.191941 14799 net.cpp:141] Setting up inception_4e/relu_5x5
I0403 15:52:46.191969 14799 net.cpp:148] Top shape: 24 128 14 14 (602112)
I0403 15:52:46.191985 14799 net.cpp:156] Memory required for data: 1242150432
I0403 15:52:46.192001 14799 layer_factory.hpp:77] Creating layer inception_4e/pool
I0403 15:52:46.192021 14799 net.cpp:91] Creating Layer inception_4e/pool
I0403 15:52:46.192037 14799 net.cpp:425] inception_4e/pool <- inception_4d/output_inception_4d/output_0_split_4
I0403 15:52:46.192059 14799 net.cpp:399] inception_4e/pool -> inception_4e/pool
I0403 15:52:46.192149 14799 net.cpp:141] Setting up inception_4e/pool
I0403 15:52:46.192178 14799 net.cpp:148] Top shape: 24 528 14 14 (2483712)
I0403 15:52:46.192193 14799 net.cpp:156] Memory required for data: 1252085280
I0403 15:52:46.192209 14799 layer_factory.hpp:77] Creating layer inception_4e/pool_proj
I0403 15:52:46.192234 14799 net.cpp:91] Creating Layer inception_4e/pool_proj
I0403 15:52:46.192255 14799 net.cpp:425] inception_4e/pool_proj <- inception_4e/pool
I0403 15:52:46.192273 14799 net.cpp:399] inception_4e/pool_proj -> inception_4e/pool_proj
I0403 15:52:46.193884 14799 net.cpp:141] Setting up inception_4e/pool_proj
I0403 15:52:46.193917 14799 net.cpp:148] Top shape: 24 128 14 14 (602112)
I0403 15:52:46.193949 14799 net.cpp:156] Memory required for data: 1254493728
I0403 15:52:46.193971 14799 layer_factory.hpp:77] Creating layer inception_4e/relu_pool_proj
I0403 15:52:46.193991 14799 net.cpp:91] Creating Layer inception_4e/relu_pool_proj
I0403 15:52:46.194008 14799 net.cpp:425] inception_4e/relu_pool_proj <- inception_4e/pool_proj
I0403 15:52:46.194028 14799 net.cpp:386] inception_4e/relu_pool_proj -> inception_4e/pool_proj (in-place)
I0403 15:52:46.194346 14799 net.cpp:141] Setting up inception_4e/relu_pool_proj
I0403 15:52:46.194377 14799 net.cpp:148] Top shape: 24 128 14 14 (602112)
I0403 15:52:46.194396 14799 net.cpp:156] Memory required for data: 1256902176
I0403 15:52:46.194412 14799 layer_factory.hpp:77] Creating layer inception_4e/output
I0403 15:52:46.194430 14799 net.cpp:91] Creating Layer inception_4e/output
I0403 15:52:46.194447 14799 net.cpp:425] inception_4e/output <- inception_4e/1x1
I0403 15:52:46.194464 14799 net.cpp:425] inception_4e/output <- inception_4e/3x3
I0403 15:52:46.194481 14799 net.cpp:425] inception_4e/output <- inception_4e/5x5
I0403 15:52:46.194499 14799 net.cpp:425] inception_4e/output <- inception_4e/pool_proj
I0403 15:52:46.194516 14799 net.cpp:399] inception_4e/output -> inception_4e/output
I0403 15:52:46.194571 14799 net.cpp:141] Setting up inception_4e/output
I0403 15:52:46.194597 14799 net.cpp:148] Top shape: 24 832 14 14 (3913728)
I0403 15:52:46.194613 14799 net.cpp:156] Memory required for data: 1272557088
I0403 15:52:46.194628 14799 layer_factory.hpp:77] Creating layer pool4/3x3_s2
I0403 15:52:46.194648 14799 net.cpp:91] Creating Layer pool4/3x3_s2
I0403 15:52:46.194667 14799 net.cpp:425] pool4/3x3_s2 <- inception_4e/output
I0403 15:52:46.194687 14799 net.cpp:399] pool4/3x3_s2 -> pool4/3x3_s2
I0403 15:52:46.194761 14799 net.cpp:141] Setting up pool4/3x3_s2
I0403 15:52:46.194787 14799 net.cpp:148] Top shape: 24 832 7 7 (978432)
I0403 15:52:46.194802 14799 net.cpp:156] Memory required for data: 1276470816
I0403 15:52:46.194818 14799 layer_factory.hpp:77] Creating layer pool4/3x3_s2_pool4/3x3_s2_0_split
I0403 15:52:46.194835 14799 net.cpp:91] Creating Layer pool4/3x3_s2_pool4/3x3_s2_0_split
I0403 15:52:46.194852 14799 net.cpp:425] pool4/3x3_s2_pool4/3x3_s2_0_split <- pool4/3x3_s2
I0403 15:52:46.194874 14799 net.cpp:399] pool4/3x3_s2_pool4/3x3_s2_0_split -> pool4/3x3_s2_pool4/3x3_s2_0_split_0
I0403 15:52:46.194896 14799 net.cpp:399] pool4/3x3_s2_pool4/3x3_s2_0_split -> pool4/3x3_s2_pool4/3x3_s2_0_split_1
I0403 15:52:46.194918 14799 net.cpp:399] pool4/3x3_s2_pool4/3x3_s2_0_split -> pool4/3x3_s2_pool4/3x3_s2_0_split_2
I0403 15:52:46.194939 14799 net.cpp:399] pool4/3x3_s2_pool4/3x3_s2_0_split -> pool4/3x3_s2_pool4/3x3_s2_0_split_3
I0403 15:52:46.195036 14799 net.cpp:141] Setting up pool4/3x3_s2_pool4/3x3_s2_0_split
I0403 15:52:46.195067 14799 net.cpp:148] Top shape: 24 832 7 7 (978432)
I0403 15:52:46.195086 14799 net.cpp:148] Top shape: 24 832 7 7 (978432)
I0403 15:52:46.195102 14799 net.cpp:148] Top shape: 24 832 7 7 (978432)
I0403 15:52:46.195118 14799 net.cpp:148] Top shape: 24 832 7 7 (978432)
I0403 15:52:46.195139 14799 net.cpp:156] Memory required for data: 1292125728
I0403 15:52:46.195158 14799 layer_factory.hpp:77] Creating layer inception_5a/1x1
I0403 15:52:46.195180 14799 net.cpp:91] Creating Layer inception_5a/1x1
I0403 15:52:46.195200 14799 net.cpp:425] inception_5a/1x1 <- pool4/3x3_s2_pool4/3x3_s2_0_split_0
I0403 15:52:46.195221 14799 net.cpp:399] inception_5a/1x1 -> inception_5a/1x1
I0403 15:52:46.198230 14799 net.cpp:141] Setting up inception_5a/1x1
I0403 15:52:46.198261 14799 net.cpp:148] Top shape: 24 256 7 7 (301056)
I0403 15:52:46.198276 14799 net.cpp:156] Memory required for data: 1293329952
I0403 15:52:46.198295 14799 layer_factory.hpp:77] Creating layer inception_5a/relu_1x1
I0403 15:52:46.198313 14799 net.cpp:91] Creating Layer inception_5a/relu_1x1
I0403 15:52:46.198330 14799 net.cpp:425] inception_5a/relu_1x1 <- inception_5a/1x1
I0403 15:52:46.198350 14799 net.cpp:386] inception_5a/relu_1x1 -> inception_5a/1x1 (in-place)
I0403 15:52:46.198675 14799 net.cpp:141] Setting up inception_5a/relu_1x1
I0403 15:52:46.198704 14799 net.cpp:148] Top shape: 24 256 7 7 (301056)
I0403 15:52:46.198719 14799 net.cpp:156] Memory required for data: 1294534176
I0403 15:52:46.198734 14799 layer_factory.hpp:77] Creating layer inception_5a/3x3_reduce
I0403 15:52:46.198757 14799 net.cpp:91] Creating Layer inception_5a/3x3_reduce
I0403 15:52:46.198776 14799 net.cpp:425] inception_5a/3x3_reduce <- pool4/3x3_s2_pool4/3x3_s2_0_split_1
I0403 15:52:46.198798 14799 net.cpp:399] inception_5a/3x3_reduce -> inception_5a/3x3_reduce
I0403 15:52:46.201360 14799 net.cpp:141] Setting up inception_5a/3x3_reduce
I0403 15:52:46.201390 14799 net.cpp:148] Top shape: 24 160 7 7 (188160)
I0403 15:52:46.201407 14799 net.cpp:156] Memory required for data: 1295286816
I0403 15:52:46.201427 14799 layer_factory.hpp:77] Creating layer inception_5a/relu_3x3_reduce
I0403 15:52:46.201448 14799 net.cpp:91] Creating Layer inception_5a/relu_3x3_reduce
I0403 15:52:46.201467 14799 net.cpp:425] inception_5a/relu_3x3_reduce <- inception_5a/3x3_reduce
I0403 15:52:46.201484 14799 net.cpp:386] inception_5a/relu_3x3_reduce -> inception_5a/3x3_reduce (in-place)
I0403 15:52:46.201679 14799 net.cpp:141] Setting up inception_5a/relu_3x3_reduce
I0403 15:52:46.201709 14799 net.cpp:148] Top shape: 24 160 7 7 (188160)
I0403 15:52:46.201725 14799 net.cpp:156] Memory required for data: 1296039456
I0403 15:52:46.201740 14799 layer_factory.hpp:77] Creating layer inception_5a/3x3
I0403 15:52:46.201762 14799 net.cpp:91] Creating Layer inception_5a/3x3
I0403 15:52:46.201782 14799 net.cpp:425] inception_5a/3x3 <- inception_5a/3x3_reduce
I0403 15:52:46.201804 14799 net.cpp:399] inception_5a/3x3 -> inception_5a/3x3
I0403 15:52:46.207017 14799 net.cpp:141] Setting up inception_5a/3x3
I0403 15:52:46.207051 14799 net.cpp:148] Top shape: 24 320 7 7 (376320)
I0403 15:52:46.207068 14799 net.cpp:156] Memory required for data: 1297544736
I0403 15:52:46.207087 14799 layer_factory.hpp:77] Creating layer inception_5a/relu_3x3
I0403 15:52:46.207105 14799 net.cpp:91] Creating Layer inception_5a/relu_3x3
I0403 15:52:46.207123 14799 net.cpp:425] inception_5a/relu_3x3 <- inception_5a/3x3
I0403 15:52:46.207151 14799 net.cpp:386] inception_5a/relu_3x3 -> inception_5a/3x3 (in-place)
I0403 15:52:46.207458 14799 net.cpp:141] Setting up inception_5a/relu_3x3
I0403 15:52:46.207489 14799 net.cpp:148] Top shape: 24 320 7 7 (376320)
I0403 15:52:46.207506 14799 net.cpp:156] Memory required for data: 1299050016
I0403 15:52:46.207521 14799 layer_factory.hpp:77] Creating layer inception_5a/5x5_reduce
I0403 15:52:46.207545 14799 net.cpp:91] Creating Layer inception_5a/5x5_reduce
I0403 15:52:46.207566 14799 net.cpp:425] inception_5a/5x5_reduce <- pool4/3x3_s2_pool4/3x3_s2_0_split_2
I0403 15:52:46.207587 14799 net.cpp:399] inception_5a/5x5_reduce -> inception_5a/5x5_reduce
I0403 15:52:46.208809 14799 net.cpp:141] Setting up inception_5a/5x5_reduce
I0403 15:52:46.208839 14799 net.cpp:148] Top shape: 24 32 7 7 (37632)
I0403 15:52:46.208856 14799 net.cpp:156] Memory required for data: 1299200544
I0403 15:52:46.208874 14799 layer_factory.hpp:77] Creating layer inception_5a/relu_5x5_reduce
I0403 15:52:46.208894 14799 net.cpp:91] Creating Layer inception_5a/relu_5x5_reduce
I0403 15:52:46.208911 14799 net.cpp:425] inception_5a/relu_5x5_reduce <- inception_5a/5x5_reduce
I0403 15:52:46.208932 14799 net.cpp:386] inception_5a/relu_5x5_reduce -> inception_5a/5x5_reduce (in-place)
I0403 15:52:46.209252 14799 net.cpp:141] Setting up inception_5a/relu_5x5_reduce
I0403 15:52:46.209280 14799 net.cpp:148] Top shape: 24 32 7 7 (37632)
I0403 15:52:46.209296 14799 net.cpp:156] Memory required for data: 1299351072
I0403 15:52:46.209312 14799 layer_factory.hpp:77] Creating layer inception_5a/5x5
I0403 15:52:46.209336 14799 net.cpp:91] Creating Layer inception_5a/5x5
I0403 15:52:46.209353 14799 net.cpp:425] inception_5a/5x5 <- inception_5a/5x5_reduce
I0403 15:52:46.209375 14799 net.cpp:399] inception_5a/5x5 -> inception_5a/5x5
I0403 15:52:46.211243 14799 net.cpp:141] Setting up inception_5a/5x5
I0403 15:52:46.211294 14799 net.cpp:148] Top shape: 24 128 7 7 (150528)
I0403 15:52:46.211313 14799 net.cpp:156] Memory required for data: 1299953184
I0403 15:52:46.211333 14799 layer_factory.hpp:77] Creating layer inception_5a/relu_5x5
I0403 15:52:46.211354 14799 net.cpp:91] Creating Layer inception_5a/relu_5x5
I0403 15:52:46.211370 14799 net.cpp:425] inception_5a/relu_5x5 <- inception_5a/5x5
I0403 15:52:46.211391 14799 net.cpp:386] inception_5a/relu_5x5 -> inception_5a/5x5 (in-place)
I0403 15:52:46.211626 14799 net.cpp:141] Setting up inception_5a/relu_5x5
I0403 15:52:46.211654 14799 net.cpp:148] Top shape: 24 128 7 7 (150528)
I0403 15:52:46.211670 14799 net.cpp:156] Memory required for data: 1300555296
I0403 15:52:46.211685 14799 layer_factory.hpp:77] Creating layer inception_5a/pool
I0403 15:52:46.211704 14799 net.cpp:91] Creating Layer inception_5a/pool
I0403 15:52:46.211724 14799 net.cpp:425] inception_5a/pool <- pool4/3x3_s2_pool4/3x3_s2_0_split_3
I0403 15:52:46.211745 14799 net.cpp:399] inception_5a/pool -> inception_5a/pool
I0403 15:52:46.211822 14799 net.cpp:141] Setting up inception_5a/pool
I0403 15:52:46.211848 14799 net.cpp:148] Top shape: 24 832 7 7 (978432)
I0403 15:52:46.211863 14799 net.cpp:156] Memory required for data: 1304469024
I0403 15:52:46.211879 14799 layer_factory.hpp:77] Creating layer inception_5a/pool_proj
I0403 15:52:46.211915 14799 net.cpp:91] Creating Layer inception_5a/pool_proj
I0403 15:52:46.211935 14799 net.cpp:425] inception_5a/pool_proj <- inception_5a/pool
I0403 15:52:46.211954 14799 net.cpp:399] inception_5a/pool_proj -> inception_5a/pool_proj
I0403 15:52:46.214421 14799 net.cpp:141] Setting up inception_5a/pool_proj
I0403 15:52:46.214462 14799 net.cpp:148] Top shape: 24 128 7 7 (150528)
I0403 15:52:46.214484 14799 net.cpp:156] Memory required for data: 1305071136
I0403 15:52:46.214504 14799 layer_factory.hpp:77] Creating layer inception_5a/relu_pool_proj
I0403 15:52:46.214524 14799 net.cpp:91] Creating Layer inception_5a/relu_pool_proj
I0403 15:52:46.214541 14799 net.cpp:425] inception_5a/relu_pool_proj <- inception_5a/pool_proj
I0403 15:52:46.214560 14799 net.cpp:386] inception_5a/relu_pool_proj -> inception_5a/pool_proj (in-place)
I0403 15:52:46.214885 14799 net.cpp:141] Setting up inception_5a/relu_pool_proj
I0403 15:52:46.214918 14799 net.cpp:148] Top shape: 24 128 7 7 (150528)
I0403 15:52:46.214936 14799 net.cpp:156] Memory required for data: 1305673248
I0403 15:52:46.214952 14799 layer_factory.hpp:77] Creating layer inception_5a/output
I0403 15:52:46.214972 14799 net.cpp:91] Creating Layer inception_5a/output
I0403 15:52:46.214989 14799 net.cpp:425] inception_5a/output <- inception_5a/1x1
I0403 15:52:46.215008 14799 net.cpp:425] inception_5a/output <- inception_5a/3x3
I0403 15:52:46.215025 14799 net.cpp:425] inception_5a/output <- inception_5a/5x5
I0403 15:52:46.215042 14799 net.cpp:425] inception_5a/output <- inception_5a/pool_proj
I0403 15:52:46.215060 14799 net.cpp:399] inception_5a/output -> inception_5a/output
I0403 15:52:46.215116 14799 net.cpp:141] Setting up inception_5a/output
I0403 15:52:46.215148 14799 net.cpp:148] Top shape: 24 832 7 7 (978432)
I0403 15:52:46.215164 14799 net.cpp:156] Memory required for data: 1309586976
I0403 15:52:46.215179 14799 layer_factory.hpp:77] Creating layer inception_5a/output_inception_5a/output_0_split
I0403 15:52:46.215200 14799 net.cpp:91] Creating Layer inception_5a/output_inception_5a/output_0_split
I0403 15:52:46.215220 14799 net.cpp:425] inception_5a/output_inception_5a/output_0_split <- inception_5a/output
I0403 15:52:46.215240 14799 net.cpp:399] inception_5a/output_inception_5a/output_0_split -> inception_5a/output_inception_5a/output_0_split_0
I0403 15:52:46.215261 14799 net.cpp:399] inception_5a/output_inception_5a/output_0_split -> inception_5a/output_inception_5a/output_0_split_1
I0403 15:52:46.215284 14799 net.cpp:399] inception_5a/output_inception_5a/output_0_split -> inception_5a/output_inception_5a/output_0_split_2
I0403 15:52:46.215306 14799 net.cpp:399] inception_5a/output_inception_5a/output_0_split -> inception_5a/output_inception_5a/output_0_split_3
I0403 15:52:46.215430 14799 net.cpp:141] Setting up inception_5a/output_inception_5a/output_0_split
I0403 15:52:46.215456 14799 net.cpp:148] Top shape: 24 832 7 7 (978432)
I0403 15:52:46.215473 14799 net.cpp:148] Top shape: 24 832 7 7 (978432)
I0403 15:52:46.215490 14799 net.cpp:148] Top shape: 24 832 7 7 (978432)
I0403 15:52:46.215507 14799 net.cpp:148] Top shape: 24 832 7 7 (978432)
I0403 15:52:46.215523 14799 net.cpp:156] Memory required for data: 1325241888
I0403 15:52:46.215538 14799 layer_factory.hpp:77] Creating layer inception_5b/1x1
I0403 15:52:46.215560 14799 net.cpp:91] Creating Layer inception_5b/1x1
I0403 15:52:46.215581 14799 net.cpp:425] inception_5b/1x1 <- inception_5a/output_inception_5a/output_0_split_0
I0403 15:52:46.215606 14799 net.cpp:399] inception_5b/1x1 -> inception_5b/1x1
I0403 15:52:46.219631 14799 net.cpp:141] Setting up inception_5b/1x1
I0403 15:52:46.219663 14799 net.cpp:148] Top shape: 24 384 7 7 (451584)
I0403 15:52:46.219681 14799 net.cpp:156] Memory required for data: 1327048224
I0403 15:52:46.219699 14799 layer_factory.hpp:77] Creating layer inception_5b/relu_1x1
I0403 15:52:46.219722 14799 net.cpp:91] Creating Layer inception_5b/relu_1x1
I0403 15:52:46.219739 14799 net.cpp:425] inception_5b/relu_1x1 <- inception_5b/1x1
I0403 15:52:46.219758 14799 net.cpp:386] inception_5b/relu_1x1 -> inception_5b/1x1 (in-place)
I0403 15:52:46.220070 14799 net.cpp:141] Setting up inception_5b/relu_1x1
I0403 15:52:46.220098 14799 net.cpp:148] Top shape: 24 384 7 7 (451584)
I0403 15:52:46.220113 14799 net.cpp:156] Memory required for data: 1328854560
I0403 15:52:46.220134 14799 layer_factory.hpp:77] Creating layer inception_5b/3x3_reduce
I0403 15:52:46.220163 14799 net.cpp:91] Creating Layer inception_5b/3x3_reduce
I0403 15:52:46.220183 14799 net.cpp:425] inception_5b/3x3_reduce <- inception_5a/output_inception_5a/output_0_split_1
I0403 15:52:46.220206 14799 net.cpp:399] inception_5b/3x3_reduce -> inception_5b/3x3_reduce
I0403 15:52:46.222972 14799 net.cpp:141] Setting up inception_5b/3x3_reduce
I0403 15:52:46.223006 14799 net.cpp:148] Top shape: 24 192 7 7 (225792)
I0403 15:52:46.223024 14799 net.cpp:156] Memory required for data: 1329757728
I0403 15:52:46.223043 14799 layer_factory.hpp:77] Creating layer inception_5b/relu_3x3_reduce
I0403 15:52:46.223062 14799 net.cpp:91] Creating Layer inception_5b/relu_3x3_reduce
I0403 15:52:46.223080 14799 net.cpp:425] inception_5b/relu_3x3_reduce <- inception_5b/3x3_reduce
I0403 15:52:46.223098 14799 net.cpp:386] inception_5b/relu_3x3_reduce -> inception_5b/3x3_reduce (in-place)
I0403 15:52:46.223304 14799 net.cpp:141] Setting up inception_5b/relu_3x3_reduce
I0403 15:52:46.223335 14799 net.cpp:148] Top shape: 24 192 7 7 (225792)
I0403 15:52:46.223351 14799 net.cpp:156] Memory required for data: 1330660896
I0403 15:52:46.223367 14799 layer_factory.hpp:77] Creating layer inception_5b/3x3
I0403 15:52:46.223392 14799 net.cpp:91] Creating Layer inception_5b/3x3
I0403 15:52:46.223410 14799 net.cpp:425] inception_5b/3x3 <- inception_5b/3x3_reduce
I0403 15:52:46.223433 14799 net.cpp:399] inception_5b/3x3 -> inception_5b/3x3
I0403 15:52:46.230615 14799 net.cpp:141] Setting up inception_5b/3x3
I0403 15:52:46.230649 14799 net.cpp:148] Top shape: 24 384 7 7 (451584)
I0403 15:52:46.230669 14799 net.cpp:156] Memory required for data: 1332467232
I0403 15:52:46.230690 14799 layer_factory.hpp:77] Creating layer inception_5b/relu_3x3
I0403 15:52:46.230710 14799 net.cpp:91] Creating Layer inception_5b/relu_3x3
I0403 15:52:46.230728 14799 net.cpp:425] inception_5b/relu_3x3 <- inception_5b/3x3
I0403 15:52:46.230746 14799 net.cpp:386] inception_5b/relu_3x3 -> inception_5b/3x3 (in-place)
I0403 15:52:46.231070 14799 net.cpp:141] Setting up inception_5b/relu_3x3
I0403 15:52:46.231101 14799 net.cpp:148] Top shape: 24 384 7 7 (451584)
I0403 15:52:46.231122 14799 net.cpp:156] Memory required for data: 1334273568
I0403 15:52:46.231142 14799 layer_factory.hpp:77] Creating layer inception_5b/5x5_reduce
I0403 15:52:46.231186 14799 net.cpp:91] Creating Layer inception_5b/5x5_reduce
I0403 15:52:46.231210 14799 net.cpp:425] inception_5b/5x5_reduce <- inception_5a/output_inception_5a/output_0_split_2
I0403 15:52:46.231232 14799 net.cpp:399] inception_5b/5x5_reduce -> inception_5b/5x5_reduce
I0403 15:52:46.232628 14799 net.cpp:141] Setting up inception_5b/5x5_reduce
I0403 15:52:46.232664 14799 net.cpp:148] Top shape: 24 48 7 7 (56448)
I0403 15:52:46.232688 14799 net.cpp:156] Memory required for data: 1334499360
I0403 15:52:46.232714 14799 layer_factory.hpp:77] Creating layer inception_5b/relu_5x5_reduce
I0403 15:52:46.232734 14799 net.cpp:91] Creating Layer inception_5b/relu_5x5_reduce
I0403 15:52:46.232755 14799 net.cpp:425] inception_5b/relu_5x5_reduce <- inception_5b/5x5_reduce
I0403 15:52:46.232780 14799 net.cpp:386] inception_5b/relu_5x5_reduce -> inception_5b/5x5_reduce (in-place)
I0403 15:52:46.233202 14799 net.cpp:141] Setting up inception_5b/relu_5x5_reduce
I0403 15:52:46.233243 14799 net.cpp:148] Top shape: 24 48 7 7 (56448)
I0403 15:52:46.233259 14799 net.cpp:156] Memory required for data: 1334725152
I0403 15:52:46.233276 14799 layer_factory.hpp:77] Creating layer inception_5b/5x5
I0403 15:52:46.233301 14799 net.cpp:91] Creating Layer inception_5b/5x5
I0403 15:52:46.233320 14799 net.cpp:425] inception_5b/5x5 <- inception_5b/5x5_reduce
I0403 15:52:46.233340 14799 net.cpp:399] inception_5b/5x5 -> inception_5b/5x5
I0403 15:52:46.235595 14799 net.cpp:141] Setting up inception_5b/5x5
I0403 15:52:46.235626 14799 net.cpp:148] Top shape: 24 128 7 7 (150528)
I0403 15:52:46.235646 14799 net.cpp:156] Memory required for data: 1335327264
I0403 15:52:46.235667 14799 layer_factory.hpp:77] Creating layer inception_5b/relu_5x5
I0403 15:52:46.235687 14799 net.cpp:91] Creating Layer inception_5b/relu_5x5
I0403 15:52:46.235704 14799 net.cpp:425] inception_5b/relu_5x5 <- inception_5b/5x5
I0403 15:52:46.235725 14799 net.cpp:386] inception_5b/relu_5x5 -> inception_5b/5x5 (in-place)
I0403 15:52:46.235934 14799 net.cpp:141] Setting up inception_5b/relu_5x5
I0403 15:52:46.235973 14799 net.cpp:148] Top shape: 24 128 7 7 (150528)
I0403 15:52:46.235988 14799 net.cpp:156] Memory required for data: 1335929376
I0403 15:52:46.236004 14799 layer_factory.hpp:77] Creating layer inception_5b/pool
I0403 15:52:46.236026 14799 net.cpp:91] Creating Layer inception_5b/pool
I0403 15:52:46.236045 14799 net.cpp:425] inception_5b/pool <- inception_5a/output_inception_5a/output_0_split_3
I0403 15:52:46.236064 14799 net.cpp:399] inception_5b/pool -> inception_5b/pool
I0403 15:52:46.236147 14799 net.cpp:141] Setting up inception_5b/pool
I0403 15:52:46.236186 14799 net.cpp:148] Top shape: 24 832 7 7 (978432)
I0403 15:52:46.236202 14799 net.cpp:156] Memory required for data: 1339843104
I0403 15:52:46.236219 14799 layer_factory.hpp:77] Creating layer inception_5b/pool_proj
I0403 15:52:46.236243 14799 net.cpp:91] Creating Layer inception_5b/pool_proj
I0403 15:52:46.236264 14799 net.cpp:425] inception_5b/pool_proj <- inception_5b/pool
I0403 15:52:46.236286 14799 net.cpp:399] inception_5b/pool_proj -> inception_5b/pool_proj
I0403 15:52:46.238756 14799 net.cpp:141] Setting up inception_5b/pool_proj
I0403 15:52:46.238795 14799 net.cpp:148] Top shape: 24 128 7 7 (150528)
I0403 15:52:46.238814 14799 net.cpp:156] Memory required for data: 1340445216
I0403 15:52:46.238836 14799 layer_factory.hpp:77] Creating layer inception_5b/relu_pool_proj
I0403 15:52:46.238855 14799 net.cpp:91] Creating Layer inception_5b/relu_pool_proj
I0403 15:52:46.238873 14799 net.cpp:425] inception_5b/relu_pool_proj <- inception_5b/pool_proj
I0403 15:52:46.238894 14799 net.cpp:386] inception_5b/relu_pool_proj -> inception_5b/pool_proj (in-place)
I0403 15:52:46.239222 14799 net.cpp:141] Setting up inception_5b/relu_pool_proj
I0403 15:52:46.239253 14799 net.cpp:148] Top shape: 24 128 7 7 (150528)
I0403 15:52:46.239271 14799 net.cpp:156] Memory required for data: 1341047328
I0403 15:52:46.239289 14799 layer_factory.hpp:77] Creating layer inception_5b/output
I0403 15:52:46.239306 14799 net.cpp:91] Creating Layer inception_5b/output
I0403 15:52:46.239341 14799 net.cpp:425] inception_5b/output <- inception_5b/1x1
I0403 15:52:46.239361 14799 net.cpp:425] inception_5b/output <- inception_5b/3x3
I0403 15:52:46.239378 14799 net.cpp:425] inception_5b/output <- inception_5b/5x5
I0403 15:52:46.239397 14799 net.cpp:425] inception_5b/output <- inception_5b/pool_proj
I0403 15:52:46.239418 14799 net.cpp:399] inception_5b/output -> inception_5b/output
I0403 15:52:46.239475 14799 net.cpp:141] Setting up inception_5b/output
I0403 15:52:46.239505 14799 net.cpp:148] Top shape: 24 1024 7 7 (1204224)
I0403 15:52:46.239522 14799 net.cpp:156] Memory required for data: 1345864224
I0403 15:52:46.239537 14799 layer_factory.hpp:77] Creating layer pool5/7x7_s1
I0403 15:52:46.239560 14799 net.cpp:91] Creating Layer pool5/7x7_s1
I0403 15:52:46.239580 14799 net.cpp:425] pool5/7x7_s1 <- inception_5b/output
I0403 15:52:46.239601 14799 net.cpp:399] pool5/7x7_s1 -> pool5/7x7_s1
I0403 15:52:46.239835 14799 net.cpp:141] Setting up pool5/7x7_s1
I0403 15:52:46.239864 14799 net.cpp:148] Top shape: 24 1024 1 1 (24576)
I0403 15:52:46.239882 14799 net.cpp:156] Memory required for data: 1345962528
I0403 15:52:46.239899 14799 layer_factory.hpp:77] Creating layer pool5/drop_7x7_s1
I0403 15:52:46.239920 14799 net.cpp:91] Creating Layer pool5/drop_7x7_s1
I0403 15:52:46.239938 14799 net.cpp:425] pool5/drop_7x7_s1 <- pool5/7x7_s1
I0403 15:52:46.239962 14799 net.cpp:386] pool5/drop_7x7_s1 -> pool5/7x7_s1 (in-place)
I0403 15:52:46.240022 14799 net.cpp:141] Setting up pool5/drop_7x7_s1
I0403 15:52:46.240051 14799 net.cpp:148] Top shape: 24 1024 1 1 (24576)
I0403 15:52:46.240072 14799 net.cpp:156] Memory required for data: 1346060832
I0403 15:52:46.240092 14799 layer_factory.hpp:77] Creating layer loss3/classifier_plantvillage
I0403 15:52:46.240121 14799 net.cpp:91] Creating Layer loss3/classifier_plantvillage
I0403 15:52:46.240154 14799 net.cpp:425] loss3/classifier_plantvillage <- pool5/7x7_s1
I0403 15:52:46.240180 14799 net.cpp:399] loss3/classifier_plantvillage -> loss3/classifier_plantvillage
I0403 15:52:46.240653 14799 net.cpp:141] Setting up loss3/classifier_plantvillage
I0403 15:52:46.240679 14799 net.cpp:148] Top shape: 24 38 (912)
I0403 15:52:46.240695 14799 net.cpp:156] Memory required for data: 1346064480
I0403 15:52:46.240715 14799 layer_factory.hpp:77] Creating layer loss3/classifier_plantvillage_loss3/classifier_plantvillage_0_split
I0403 15:52:46.240736 14799 net.cpp:91] Creating Layer loss3/classifier_plantvillage_loss3/classifier_plantvillage_0_split
I0403 15:52:46.240756 14799 net.cpp:425] loss3/classifier_plantvillage_loss3/classifier_plantvillage_0_split <- loss3/classifier_plantvillage
I0403 15:52:46.240773 14799 net.cpp:399] loss3/classifier_plantvillage_loss3/classifier_plantvillage_0_split -> loss3/classifier_plantvillage_loss3/classifier_plantvillage_0_split_0
I0403 15:52:46.240794 14799 net.cpp:399] loss3/classifier_plantvillage_loss3/classifier_plantvillage_0_split -> loss3/classifier_plantvillage_loss3/classifier_plantvillage_0_split_1
I0403 15:52:46.240815 14799 net.cpp:399] loss3/classifier_plantvillage_loss3/classifier_plantvillage_0_split -> loss3/classifier_plantvillage_loss3/classifier_plantvillage_0_split_2
I0403 15:52:46.240835 14799 net.cpp:399] loss3/classifier_plantvillage_loss3/classifier_plantvillage_0_split -> loss3/classifier_plantvillage_loss3/classifier_plantvillage_0_split_3
I0403 15:52:46.240947 14799 net.cpp:141] Setting up loss3/classifier_plantvillage_loss3/classifier_plantvillage_0_split
I0403 15:52:46.240972 14799 net.cpp:148] Top shape: 24 38 (912)
I0403 15:52:46.240989 14799 net.cpp:148] Top shape: 24 38 (912)
I0403 15:52:46.241005 14799 net.cpp:148] Top shape: 24 38 (912)
I0403 15:52:46.241022 14799 net.cpp:148] Top shape: 24 38 (912)
I0403 15:52:46.241035 14799 net.cpp:156] Memory required for data: 1346079072
I0403 15:52:46.241051 14799 layer_factory.hpp:77] Creating layer loss1/loss
I0403 15:52:46.241075 14799 net.cpp:91] Creating Layer loss1/loss
I0403 15:52:46.241093 14799 net.cpp:425] loss1/loss <- loss1/classifier_plantvillage_loss1/classifier_plantvillage_0_split_0
I0403 15:52:46.241133 14799 net.cpp:425] loss1/loss <- label_data_1_split_0
…
