…
I0403 15:39:59.834642 13937 net.cpp:313] The NetState phase (1) differed from the phase (0) specified by a rule in layer data
I0403 15:39:59.835865 13937 net.cpp:49] Initializing net from parameters: 
state {
  phase: TEST
}
layer {
  name: "data"
  type: "Data"
  top: "data"
  top: "label"
  include {
    phase: TEST
  }
  transform_param {
    mirror: false
    crop_size: 224
    mean_file: "/home/mohanty/data/final_dataset/lmdb/color-80-20/mean.binaryproto"
  }
  data_param {
    source: "/home/mohanty/data/final_dataset/lmdb/color-80-20/test_db"
    batch_size: 24
    backend: LMDB
  }
}
layer {
  name: "conv1/7x7_s2"
  type: "Convolution"
  bottom: "data"
  top: "conv1/7x7_s2"
  param {
    lr_mult: 1
    decay_mult: 1
  }
  param {
    lr_mult: 2
    decay_mult: 0
  }
  convolution_param {
    num_output: 64
    pad: 3
    kernel_size: 7
    stride: 2
    weight_filler {
      type: "xavier"
      std: 0.1
    }
    bias_filler {
      type: "constant"
      value: 0.2
    }
  }
}
layer {
  name: "conv1/relu_7x7"
  type: "ReLU"
  bottom: "conv1/7x7_s2"
  top: "conv1/7x7_s2"
}
layer {
  name: "pool1/3x3_s2"
  type: "Pooling"
  bottom: "conv1/7x7_s2"
  top: "pool1/3x3_s2"
  pooling_param {
    pool: MAX
    kernel_size: 3
    stride: 2
  }
}
layer {
  name: "pool1/norm1"
  type: "LRN"
  bottom: "pool1/3x3_s2"
  top: "pool1/norm1"
  lrn_param {
    local_size: 5
    alpha: 0.0001
    beta: 0.75
  }
}
layer {
  name: "conv2/3x3_reduce"
  type: "Convolution"
  bottom: "pool1/norm1"
  top: "conv2/3x3_reduce"
  param {
    lr_mult: 1
    decay_mult: 1
  }
  param {
    lr_mult: 2
    decay_mult: 0
  }
  convolution_param {
    num_output: 64
    kernel_size: 1
    weight_filler {
      type: "xavier"
      std: 0.1
    }
    bias_filler {
      type: "constant"
      value: 0.2
    }
  }
}
layer {
  name: "conv2/relu_3x3_reduce"
  type: "ReLU"
  bottom: "conv2/3x3_reduce"
  top: "conv2/3x3_reduce"
}
layer {
  name: "conv2/3x3"
  type: "Convolution"
  bottom: "conv2/3x3_reduce"
  top: "conv2/3x3"
  param {
    lr_mult: 1
    decay_mult: 1
  }
  param {
    lr_mult: 2
    decay_mult: 0
  }
  convolution_param {
    num_output: 192
    pad: 1
    kernel_size: 3
    weight_filler {
      type: "xavier"
      std: 0.03
    }
    bias_filler {
      type: "constant"
      value: 0.2
    }
  }
}
layer {
  name: "conv2/relu_3x3"
  type: "ReLU"
  bottom: "conv2/3x3"
  top: "conv2/3x3"
}
layer {
  name: "conv2/norm2"
  type: "LRN"
  bottom: "conv2/3x3"
  top: "conv2/norm2"
  lrn_param {
    local_size: 5
    alpha: 0.0001
    beta: 0.75
  }
}
layer {
  name: "pool2/3x3_s2"
  type: "Pooling"
  bottom: "conv2/norm2"
  top: "pool2/3x3_s2"
  pooling_param {
    pool: MAX
    kernel_size: 3
    stride: 2
  }
}
layer {
  name: "inception_3a/1x1"
  type: "Convolution"
  bottom: "pool2/3x3_s2"
  top: "inception_3a/1x1"
  param {
    lr_mult: 1
    decay_mult: 1
  }
  param {
    lr_mult: 2
    decay_mult: 0
  }
  convolution_param {
    num_output: 64
    kernel_size: 1
    weight_filler {
      type: "xavier"
      std: 0.03
    }
    bias_filler {
      type: "constant"
      value: 0.2
    }
  }
}
layer {
  name: "inception_3a/relu_1x1"
  type: "ReLU"
  bottom: "inception_3a/1x1"
  top: "inception_3a/1x1"
}
layer {
  name: "inception_3a/3x3_reduce"
  type: "Convolution"
  bottom: "pool2/3x3_s2"
  top: "inception_3a/3x3_reduce"
  param {
    lr_mult: 1
    decay_mult: 1
  }
  param {
    lr_mult: 2
    decay_mult: 0
  }
  convolution_param {
    num_output: 96
    kernel_size: 1
    weight_filler {
      type: "xavier"
      std: 0.09
    }
    bias_filler {
      type: "constant"
      value: 0.2
    }
  }
}
layer {
  name: "inception_3a/relu_3x3_reduce"
  type: "ReLU"
  bottom: "inception_3a/3x3_reduce"
  top: "inception_3a/3x3_reduce"
}
layer {
  name: "inception_3a/3x3"
  type: "Convolution"
  bottom: "inception_3a/3x3_reduce"
  top: "inception_3a/3x3"
  param {
    lr_mult: 1
    decay_mult: 1
  }
  param {
    lr_mult: 2
    decay_mult: 0
  }
  convolution_param {
    num_output: 128
    pad: 1
    kernel_size: 3
    weight_filler {
      type: "xavier"
      std: 0.03
    }
    bias_filler {
      type: "constant"
      value: 0.2
    }
  }
}
layer {
  name: "inception_3a/relu_3x3"
  type: "ReLU"
  bottom: "inception_3a/3x3"
  top: "inception_3a/3x3"
}
layer {
  name: "inception_3a/5x5_reduce"
  type: "Convolution"
  bottom: "pool2/3x3_s2"
  top: "inception_3a/5x5_reduce"
  param {
    lr_mult: 1
    decay_mult: 1
  }
  param {
    lr_mult: 2
    decay_mult: 0
  }
  convolution_param {
    num_output: 16
    kernel_size: 1
    weight_filler {
      type: "xavier"
      std: 0.2
    }
    bias_filler {
      type: "constant"
      value: 0.2
    }
  }
}
layer {
  name: "inception_3a/relu_5x5_reduce"
  type: "ReLU"
  bottom: "inception_3a/5x5_reduce"
  top: "inception_3a/5x5_reduce"
}
layer {
  name: "inception_3a/5x5"
  type: "Convolution"
  bottom: "inception_3a/5x5_reduce"
  top: "inception_3a/5x5"
  param {
    lr_mult: 1
    decay_mult: 1
  }
  param {
    lr_mult: 2
    decay_mult: 0
  }
  convolution_param {
    num_output: 32
    pad: 2
    kernel_size: 5
    weight_filler {
      type: "xavier"
      std: 0.03
    }
    bias_filler {
      type: "constant"
      value: 0.2
    }
  }
}
layer {
  name: "inception_3a/relu_5x5"
  type: "ReLU"
  bottom: "inception_3a/5x5"
  top: "inception_3a/5x5"
}
layer {
  name: "inception_3a/pool"
  type: "Pooling"
  bottom: "pool2/3x3_s2"
  top: "inception_3a/pool"
  pooling_param {
    pool: MAX
    kernel_size: 3
    stride: 1
    pad: 1
  }
}
layer {
  name: "inception_3a/pool_proj"
  type: "Convolution"
  bottom: "inception_3a/pool"
  top: "inception_3a/pool_proj"
  param {
    lr_mult: 1
    decay_mult: 1
  }
  param {
    lr_mult: 2
    decay_mult: 0
  }
  convolution_param {
    num_output: 32
    kernel_size: 1
    weight_filler {
      type: "xavier"
      std: 0.1
    }
    bias_filler {
      type: "constant"
      value: 0.2
    }
  }
}
layer {
  name: "inception_3a/relu_pool_proj"
  type: "ReLU"
  bottom: "inception_3a/pool_proj"
  top: "inception_3a/pool_proj"
}
layer {
  name: "inception_3a/output"
  type: "Concat"
  bottom: "inception_3a/1x1"
  bottom: "inception_3a/3x3"
  bottom: "inception_3a/5x5"
  bottom: "inception_3a/pool_proj"
  top: "inception_3a/output"
}
layer {
  name: "inception_3b/1x1"
  type: "Convolution"
  bottom: "inception_3a/output"
  top: "inception_3b/1x1"
  param {
    lr_mult: 1
    decay_mult: 1
  }
  param {
    lr_mult: 2
    decay_mult: 0
  }
  convolution_param {
    num_output: 128
    kernel_size: 1
    weight_filler {
      type: "xavier"
      std: 0.03
    }
    bias_filler {
      type: "constant"
      value: 0.2
    }
  }
}
layer {
  name: "inception_3b/relu_1x1"
  type: "ReLU"
  bottom: "inception_3b/1x1"
  top: "inception_3b/1x1"
}
layer {
  name: "inception_3b/3x3_reduce"
  type: "Convolution"
  bottom: "inception_3a/output"
  top: "inception_3b/3x3_reduce"
  param {
    lr_mult: 1
    decay_mult: 1
  }
  param {
    lr_mult: 2
    decay_mult: 0
  }
  convolution_param {
    num_output: 128
    kernel_size: 1
    weight_filler {
      type: "xavier"
      std: 0.09
    }
    bias_filler {
      type: "constant"
      value: 0.2
    }
  }
}
layer {
  name: "inception_3b/relu_3x3_reduce"
  type: "ReLU"
  bottom: "inception_3b/3x3_reduce"
  top: "inception_3b/3x3_reduce"
}
layer {
  name: "inception_3b/3x3"
  type: "Convolution"
  bottom: "inception_3b/3x3_reduce"
  top: "inception_3b/3x3"
  param {
    lr_mult: 1
    decay_mult: 1
  }
  param {
    lr_mult: 2
    decay_mult: 0
  }
  convolution_param {
    num_output: 192
    pad: 1
    kernel_size: 3
    weight_filler {
      type: "xavier"
      std: 0.03
    }
    bias_filler {
      type: "constant"
      value: 0.2
    }
  }
}
layer {
  name: "inception_3b/relu_3x3"
  type: "ReLU"
  bottom: "inception_3b/3x3"
  top: "inception_3b/3x3"
}
layer {
  name: "inception_3b/5x5_reduce"
  type: "Convolution"
  bottom: "inception_3a/output"
  top: "inception_3b/5x5_reduce"
  param {
    lr_mult: 1
    decay_mult: 1
  }
  param {
    lr_mult: 2
    decay_mult: 0
  }
  convolution_param {
    num_output: 32
    kernel_size: 1
    weight_filler {
      type: "xavier"
      std: 0.2
    }
    bias_filler {
      type: "constant"
      value: 0.2
    }
  }
}
layer {
  name: "inception_3b/relu_5x5_reduce"
  type: "ReLU"
  bottom: "inception_3b/5x5_reduce"
  top: "inception_3b/5x5_reduce"
}
layer {
  name: "inception_3b/5x5"
  type: "Convolution"
  bottom: "inception_3b/5x5_reduce"
  top: "inception_3b/5x5"
  param {
    lr_mult: 1
    decay_mult: 1
  }
  param {
    lr_mult: 2
    decay_mult: 0
  }
  convolution_param {
    num_output: 96
    pad: 2
    kernel_size: 5
    weight_filler {
      type: "xavier"
      std: 0.03
    }
    bias_filler {
      type: "constant"
      value: 0.2
    }
  }
}
layer {
  name: "inception_3b/relu_5x5"
  type: "ReLU"
  bottom: "inception_3b/5x5"
  top: "inception_3b/5x5"
}
layer {
  name: "inception_3b/pool"
  type: "Pooling"
  bottom: "inception_3a/output"
  top: "inception_3b/pool"
  pooling_param {
    pool: MAX
    kernel_size: 3
    stride: 1
    pad: 1
  }
}
layer {
  name: "inception_3b/pool_proj"
  type: "Convolution"
  bottom: "inception_3b/pool"
  top: "inception_3b/pool_proj"
  param {
    lr_mult: 1
    decay_mult: 1
  }
  param {
    lr_mult: 2
    decay_mult: 0
  }
  convolution_param {
    num_output: 64
    kernel_size: 1
    weight_filler {
      type: "xavier"
      std: 0.1
    }
    bias_filler {
      type: "constant"
      value: 0.2
    }
  }
}
layer {
  name: "inception_3b/relu_pool_proj"
  type: "ReLU"
  bottom: "inception_3b/pool_proj"
  top: "inception_3b/pool_proj"
}
layer {
  name: "inception_3b/output"
  type: "Concat"
  bottom: "inception_3b/1x1"
  bottom: "inception_3b/3x3"
  bottom: "inception_3b/5x5"
  bottom: "inception_3b/pool_proj"
  top: "inception_3b/output"
}
layer {
  name: "pool3/3x3_s2"
  type: "Pooling"
  bottom: "inception_3b/output"
  top: "pool3/3x3_s2"
  pooling_param {
    pool: MAX
    kernel_size: 3
    stride: 2
  }
}
layer {
  name: "inception_4a/1x1"
  type: "Convolution"
  bottom: "pool3/3x3_s2"
  top: "inception_4a/1x1"
  param {
    lr_mult: 1
    decay_mult: 1
  }
  param {
    lr_mult: 2
    decay_mult: 0
  }
  convolution_param {
    num_output: 192
    kernel_size: 1
    weight_filler {
      type: "xavier"
      std: 0.03
    }
    bias_filler {
      type: "constant"
      value: 0.2
    }
  }
}
layer {
  name: "inception_4a/relu_1x1"
  type: "ReLU"
  bottom: "inception_4a/1x1"
  top: "inception_4a/1x1"
}
layer {
  name: "inception_4a/3x3_reduce"
  type: "Convolution"
  bottom: "pool3/3x3_s2"
  top: "inception_4a/3x3_reduce"
  param {
    lr_mult: 1
    decay_mult: 1
  }
  param {
    lr_mult: 2
    decay_mult: 0
  }
  convolution_param {
    num_output: 96
    kernel_size: 1
    weight_filler {
      type: "xavier"
      std: 0.09
    }
    bias_filler {
      type: "constant"
      value: 0.2
    }
  }
}
layer {
  name: "inception_4a/relu_3x3_reduce"
  type: "ReLU"
  bottom: "inception_4a/3x3_reduce"
  top: "inception_4a/3x3_reduce"
}
layer {
  name: "inception_4a/3x3"
  type: "Convolution"
  bottom: "inception_4a/3x3_reduce"
  top: "inception_4a/3x3"
  param {
    lr_mult: 1
    decay_mult: 1
  }
  param {
    lr_mult: 2
    decay_mult: 0
  }
  convolution_param {
    num_output: 208
    pad: 1
    kernel_size: 3
    weight_filler {
      type: "xavier"
      std: 0.03
    }
    bias_filler {
      type: "constant"
      value: 0.2
    }
  }
}
layer {
  name: "inception_4a/relu_3x3"
  type: "ReLU"
  bottom: "inception_4a/3x3"
  top: "inception_4a/3x3"
}
layer {
  name: "inception_4a/5x5_reduce"
  type: "Convolution"
  bottom: "pool3/3x3_s2"
  top: "inception_4a/5x5_reduce"
  param {
    lr_mult: 1
    decay_mult: 1
  }
  param {
    lr_mult: 2
    decay_mult: 0
  }
  convolution_param {
    num_output: 16
    kernel_size: 1
    weight_filler {
      type: "xavier"
      std: 0.2
    }
    bias_filler {
      type: "constant"
      value: 0.2
    }
  }
}
layer {
  name: "inception_4a/relu_5x5_reduce"
  type: "ReLU"
  bottom: "inception_4a/5x5_reduce"
  top: "inception_4a/5x5_reduce"
}
layer {
  name: "inception_4a/5x5"
  type: "Convolution"
  bottom: "inception_4a/5x5_reduce"
  top: "inception_4a/5x5"
  param {
    lr_mult: 1
    decay_mult: 1
  }
  param {
    lr_mult: 2
    decay_mult: 0
  }
  convolution_param {
    num_output: 48
    pad: 2
    kernel_size: 5
    weight_filler {
      type: "xavier"
      std: 0.03
    }
    bias_filler {
      type: "constant"
      value: 0.2
    }
  }
}
layer {
  name: "inception_4a/relu_5x5"
  type: "ReLU"
  bottom: "inception_4a/5x5"
  top: "inception_4a/5x5"
}
layer {
  name: "inception_4a/pool"
  type: "Pooling"
  bottom: "pool3/3x3_s2"
  top: "inception_4a/pool"
  pooling_param {
    pool: MAX
    kernel_size: 3
    stride: 1
    pad: 1
  }
}
layer {
  name: "inception_4a/pool_proj"
  type: "Convolution"
  bottom: "inception_4a/pool"
  top: "inception_4a/pool_proj"
  param {
    lr_mult: 1
    decay_mult: 1
  }
  param {
    lr_mult: 2
    decay_mult: 0
  }
  convolution_param {
    num_output: 64
    kernel_size: 1
    weight_filler {
      type: "xavier"
      std: 0.1
    }
    bias_filler {
      type: "constant"
      value: 0.2
    }
  }
}
layer {
  name: "inception_4a/relu_pool_proj"
  type: "ReLU"
  bottom: "inception_4a/pool_proj"
  top: "inception_4a/pool_proj"
}
layer {
  name: "inception_4a/output"
  type: "Concat"
  bottom: "inception_4a/1x1"
  bottom: "inception_4a/3x3"
  bottom: "inception_4a/5x5"
  bottom: "inception_4a/pool_proj"
  top: "inception_4a/output"
}
layer {
  name: "loss1/ave_pool"
  type: "Pooling"
  bottom: "inception_4a/output"
  top: "loss1/ave_pool"
  pooling_param {
    pool: AVE
    kernel_size: 5
    stride: 3
  }
}
layer {
  name: "loss1/conv"
  type: "Convolution"
  bottom: "loss1/ave_pool"
  top: "loss1/conv"
  param {
    lr_mult: 1
    decay_mult: 1
  }
  param {
    lr_mult: 2
    decay_mult: 0
  }
  convolution_param {
    num_output: 128
    kernel_size: 1
    weight_filler {
      type: "xavier"
      std: 0.08
    }
    bias_filler {
      type: "constant"
      value: 0.2
    }
  }
}
layer {
  name: "loss1/relu_conv"
  type: "ReLU"
  bottom: "loss1/conv"
  top: "loss1/conv"
}
layer {
  name: "loss1/fc"
  type: "InnerProduct"
  bottom: "loss1/conv"
  top: "loss1/fc"
  param {
    lr_mult: 1
    decay_mult: 1
  }
  param {
    lr_mult: 2
    decay_mult: 0
  }
  inner_product_param {
    num_output: 1024
    weight_filler {
      type: "xavier"
      std: 0.02
    }
    bias_filler {
      type: "constant"
      value: 0.2
    }
  }
}
layer {
  name: "loss1/relu_fc"
  type: "ReLU"
  bottom: "loss1/fc"
  top: "loss1/fc"
}
layer {
  name: "loss1/drop_fc"
  type: "Dropout"
  bottom: "loss1/fc"
  top: "loss1/fc"
  dropout_param {
    dropout_ratio: 0.7
  }
}
layer {
  name: "loss1/classifier_plantvillage"
  type: "InnerProduct"
  bottom: "loss1/fc"
  top: "loss1/classifier_plantvillage"
  param {
    lr_mult: 1
    decay_mult: 1
  }
  param {
    lr_mult: 2
    decay_mult: 0
  }
  inner_product_param {
    num_output: 38
    weight_filler {
      type: "xavier"
      std: 0.0009765625
    }
    bias_filler {
      type: "constant"
      value: 0
    }
  }
}
layer {
  name: "inception_4b/1x1"
  type: "Convolution"
  bottom: "inception_4a/output"
  top: "inception_4b/1x1"
  param {
    lr_mult: 1
    decay_mult: 1
  }
  param {
    lr_mult: 2
    decay_mult: 0
  }
  convolution_param {
    num_output: 160
    kernel_size: 1
    weight_filler {
      type: "xavier"
      std: 0.03
    }
    bias_filler {
      type: "constant"
      value: 0.2
    }
  }
}
layer {
  name: "inception_4b/relu_1x1"
  type: "ReLU"
  bottom: "inception_4b/1x1"
  top: "inception_4b/1x1"
}
layer {
  name: "inception_4b/3x3_reduce"
  type: "Convolution"
  bottom: "inception_4a/output"
  top: "inception_4b/3x3_reduce"
  param {
    lr_mult: 1
    decay_mult: 1
  }
  param {
    lr_mult: 2
    decay_mult: 0
  }
  convolution_param {
    num_output: 112
    kernel_size: 1
    weight_filler {
      type: "xavier"
      std: 0.09
    }
    bias_filler {
      type: "constant"
      value: 0.2
    }
  }
}
layer {
  name: "inception_4b/relu_3x3_reduce"
  type: "ReLU"
  bottom: "inception_4b/3x3_reduce"
  top: "inception_4b/3x3_reduce"
}
layer {
  name: "inception_4b/3x3"
  type: "Convolution"
  bottom: "inception_4b/3x3_reduce"
  top: "inception_4b/3x3"
  param {
    lr_mult: 1
    decay_mult: 1
  }
  param {
    lr_mult: 2
    decay_mult: 0
  }
  convolution_param {
    num_output: 224
    pad: 1
    kernel_size: 3
    weight_filler {
      type: "xavier"
      std: 0.03
    }
    bias_filler {
      type: "constant"
      value: 0.2
    }
  }
}
layer {
  name: "inception_4b/relu_3x3"
  type: "ReLU"
  bottom: "inception_4b/3x3"
  top: "inception_4b/3x3"
}
layer {
  name: "inception_4b/5x5_reduce"
  type: "Convolution"
  bottom: "inception_4a/output"
  top: "inception_4b/5x5_reduce"
  param {
    lr_mult: 1
    decay_mult: 1
  }
  param {
    lr_mult: 2
    decay_mult: 0
  }
  convolution_param {
    num_output: 24
    kernel_size: 1
    weight_filler {
      type: "xavier"
      std: 0.2
    }
    bias_filler {
      type: "constant"
      value: 0.2
    }
  }
}
layer {
  name: "inception_4b/relu_5x5_reduce"
  type: "ReLU"
  bottom: "inception_4b/5x5_reduce"
  top: "inception_4b/5x5_reduce"
}
layer {
  name: "inception_4b/5x5"
  type: "Convolution"
  bottom: "inception_4b/5x5_reduce"
  top: "inception_4b/5x5"
  param {
    lr_mult: 1
    decay_mult: 1
  }
  param {
    lr_mult: 2
    decay_mult: 0
  }
  convolution_param {
    num_output: 64
    pad: 2
    kernel_size: 5
    weight_filler {
      type: "xavier"
      std: 0.03
    }
    bias_filler {
      type: "constant"
      value: 0.2
    }
  }
}
layer {
  name: "inception_4b/relu_5x5"
  type: "ReLU"
  bottom: "inception_4b/5x5"
  top: "inception_4b/5x5"
}
layer {
  name: "inception_4b/pool"
  type: "Pooling"
  bottom: "inception_4a/output"
  top: "inception_4b/pool"
  pooling_param {
    pool: MAX
    kernel_size: 3
    stride: 1
    pad: 1
  }
}
layer {
  name: "inception_4b/pool_proj"
  type: "Convolution"
  bottom: "inception_4b/pool"
  top: "inception_4b/pool_proj"
  param {
    lr_mult: 1
    decay_mult: 1
  }
  param {
    lr_mult: 2
    decay_mult: 0
  }
  convolution_param {
    num_output: 64
    kernel_size: 1
    weight_filler {
      type: "xavier"
      std: 0.1
    }
    bias_filler {
      type: "constant"
      value: 0.2
    }
  }
}
layer {
  name: "inception_4b/relu_pool_proj"
  type: "ReLU"
  bottom: "inception_4b/pool_proj"
  top: "inception_4b/pool_proj"
}
layer {
  name: "inception_4b/output"
  type: "Concat"
  bottom: "inception_4b/1x1"
  bottom: "inception_4b/3x3"
  bottom: "inception_4b/5x5"
  bottom: "inception_4b/pool_proj"
  top: "inception_4b/output"
}
layer {
  name: "inception_4c/1x1"
  type: "Convolution"
  bottom: "inception_4b/output"
  top: "inception_4c/1x1"
  param {
    lr_mult: 1
    decay_mult: 1
  }
  param {
    lr_mult: 2
    decay_mult: 0
  }
  convolution_param {
    num_output: 128
    kernel_size: 1
    weight_filler {
      type: "xavier"
      std: 0.03
    }
    bias_filler {
      type: "constant"
      value: 0.2
    }
  }
}
layer {
  name: "inception_4c/relu_1x1"
  type: "ReLU"
  bottom: "inception_4c/1x1"
  top: "inception_4c/1x1"
}
layer {
  name: "inception_4c/3x3_reduce"
  type: "Convolution"
  bottom: "inception_4b/output"
  top: "inception_4c/3x3_reduce"
  param {
    lr_mult: 1
    decay_mult: 1
  }
  param {
    lr_mult: 2
    decay_mult: 0
  }
  convolution_param {
    num_output: 128
    kernel_size: 1
    weight_filler {
      type: "xavier"
      std: 0.09
    }
    bias_filler {
      type: "constant"
      value: 0.2
    }
  }
}
layer {
  name: "inception_4c/relu_3x3_reduce"
  type: "ReLU"
  bottom: "inception_4c/3x3_reduce"
  top: "inception_4c/3x3_reduce"
}
layer {
  name: "inception_4c/3x3"
  type: "Convolution"
  bottom: "inception_4c/3x3_reduce"
  top: "inception_4c/3x3"
  param {
    lr_mult: 1
    decay_mult: 1
  }
  param {
    lr_mult: 2
    decay_mult: 0
  }
  convolution_param {
    num_output: 256
    pad: 1
    kernel_size: 3
    weight_filler {
      type: "xavier"
      std: 0.03
    }
    bias_filler {
      type: "constant"
      value: 0.2
    }
  }
}
layer {
  name: "inception_4c/relu_3x3"
  type: "ReLU"
  bottom: "inception_4c/3x3"
  top: "inception_4c/3x3"
}
layer {
  name: "inception_4c/5x5_reduce"
  type: "Convolution"
  bottom: "inception_4b/output"
  top: "inception_4c/5x5_reduce"
  param {
    lr_mult: 1
    decay_mult: 1
  }
  param {
    lr_mult: 2
    decay_mult: 0
  }
  convolution_param {
    num_output: 24
    kernel_size: 1
    weight_filler {
      type: "xavier"
      std: 0.2
    }
    bias_filler {
      type: "constant"
      value: 0.2
    }
  }
}
layer {
  name: "inception_4c/relu_5x5_reduce"
  type: "ReLU"
  bottom: "inception_4c/5x5_reduce"
  top: "inception_4c/5x5_reduce"
}
layer {
  name: "inception_4c/5x5"
  type: "Convolution"
  bottom: "inception_4c/5x5_reduce"
  top: "inception_4c/5x5"
  param {
    lr_mult: 1
    decay_mult: 1
  }
  param {
    lr_mult: 2
    decay_mult: 0
  }
  convolution_param {
    num_output: 64
    pad: 2
    kernel_size: 5
    weight_filler {
      type: "xavier"
      std: 0.03
    }
    bias_filler {
      type: "constant"
      value: 0.2
    }
  }
}
layer {
  name: "inception_4c/relu_5x5"
  type: "ReLU"
  bottom: "inception_4c/5x5"
  top: "inception_4c/5x5"
}
layer {
  name: "inception_4c/pool"
  type: "Pooling"
  bottom: "inception_4b/output"
  top: "inception_4c/pool"
  pooling_param {
    pool: MAX
    kernel_size: 3
    stride: 1
    pad: 1
  }
}
layer {
  name: "inception_4c/pool_proj"
  type: "Convolution"
  bottom: "inception_4c/pool"
  top: "inception_4c/pool_proj"
  param {
    lr_mult: 1
    decay_mult: 1
  }
  param {
    lr_mult: 2
    decay_mult: 0
  }
  convolution_param {
    num_output: 64
    kernel_size: 1
    weight_filler {
      type: "xavier"
      std: 0.1
    }
    bias_filler {
      type: "constant"
      value: 0.2
    }
  }
}
layer {
  name: "inception_4c/relu_pool_proj"
  type: "ReLU"
  bottom: "inception_4c/pool_proj"
  top: "inception_4c/pool_proj"
}
layer {
  name: "inception_4c/output"
  type: "Concat"
  bottom: "inception_4c/1x1"
  bottom: "inception_4c/3x3"
  bottom: "inception_4c/5x5"
  bottom: "inception_4c/pool_proj"
  top: "inception_4c/output"
}
layer {
  name: "inception_4d/1x1"
  type: "Convolution"
  bottom: "inception_4c/output"
  top: "inception_4d/1x1"
  param {
    lr_mult: 1
    decay_mult: 1
  }
  param {
    lr_mult: 2
    decay_mult: 0
  }
  convolution_param {
    num_output: 112
    kernel_size: 1
    weight_filler {
      type: "xavier"
      std: 0.03
    }
    bias_filler {
      type: "constant"
      value: 0.2
    }
  }
}
layer {
  name: "inception_4d/relu_1x1"
  type: "ReLU"
  bottom: "inception_4d/1x1"
  top: "inception_4d/1x1"
}
layer {
  name: "inception_4d/3x3_reduce"
  type: "Convolution"
  bottom: "inception_4c/output"
  top: "inception_4d/3x3_reduce"
  param {
    lr_mult: 1
    decay_mult: 1
  }
  param {
    lr_mult: 2
    decay_mult: 0
  }
  convolution_param {
    num_output: 144
    kernel_size: 1
    weight_filler {
      type: "xavier"
      std: 0.09
    }
    bias_filler {
      type: "constant"
      value: 0.2
    }
  }
}
layer {
  name: "inception_4d/relu_3x3_reduce"
  type: "ReLU"
  bottom: "inception_4d/3x3_reduce"
  top: "inception_4d/3x3_reduce"
}
layer {
  name: "inception_4d/3x3"
  type: "Convolution"
  bottom: "inception_4d/3x3_reduce"
  top: "inception_4d/3x3"
  param {
    lr_mult: 1
    decay_mult: 1
  }
  param {
    lr_mult: 2
    decay_mult: 0
  }
  convolution_param {
    num_output: 288
    pad: 1
    kernel_size: 3
    weight_filler {
      type: "xavier"
      std: 0.03
    }
    bias_filler {
      type: "constant"
      value: 0.2
    }
  }
}
layer {
  name: "inception_4d/relu_3x3"
  type: "ReLU"
  bottom: "inception_4d/3x3"
  top: "inception_4d/3x3"
}
layer {
  name: "inception_4d/5x5_reduce"
  type: "Convolution"
  bottom: "inception_4c/output"
  top: "inception_4d/5x5_reduce"
  param {
    lr_mult: 1
    decay_mult: 1
  }
  param {
    lr_mult: 2
    decay_mult: 0
  }
  convolution_param {
    num_output: 32
    kernel_size: 1
    weight_filler {
      type: "xavier"
      std: 0.2
    }
    bias_filler {
      type: "constant"
      value: 0.2
    }
  }
}
layer {
  name: "inception_4d/relu_5x5_reduce"
  type: "ReLU"
  bottom: "inception_4d/5x5_reduce"
  top: "inception_4d/5x5_reduce"
}
layer {
  name: "inception_4d/5x5"
  type: "Convolution"
  bottom: "inception_4d/5x5_reduce"
  top: "inception_4d/5x5"
  param {
    lr_mult: 1
    decay_mult: 1
  }
  param {
    lr_mult: 2
    decay_mult: 0
  }
  convolution_param {
    num_output: 64
    pad: 2
    kernel_size: 5
    weight_filler {
      type: "xavier"
      std: 0.03
    }
    bias_filler {
      type: "constant"
      value: 0.2
    }
  }
}
layer {
  name: "inception_4d/relu_5x5"
  type: "ReLU"
  bottom: "inception_4d/5x5"
  top: "inception_4d/5x5"
}
layer {
  name: "inception_4d/pool"
  type: "Pooling"
  bottom: "inception_4c/output"
  top: "inception_4d/pool"
  pooling_param {
    pool: MAX
    kernel_size: 3
    stride: 1
    pad: 1
  }
}
layer {
  name: "inception_4d/pool_proj"
  type: "Convolution"
  bottom: "inception_4d/pool"
  top: "inception_4d/pool_proj"
  param {
    lr_mult: 1
    decay_mult: 1
  }
  param {
    lr_mult: 2
    decay_mult: 0
  }
  convolution_param {
    num_output: 64
    kernel_size: 1
    weight_filler {
      type: "xavier"
      std: 0.1
    }
    bias_filler {
      type: "constant"
      value: 0.2
    }
  }
}
layer {
  name: "inception_4d/relu_pool_proj"
  type: "ReLU"
  bottom: "inception_4d/pool_proj"
  top: "inception_4d/pool_proj"
}
layer {
  name: "inception_4d/output"
  type: "Concat"
  bottom: "inception_4d/1x1"
  bottom: "inception_4d/3x3"
  bottom: "inception_4d/5x5"
  bottom: "inception_4d/pool_proj"
  top: "inception_4d/output"
}
layer {
  name: "loss2/ave_pool"
  type: "Pooling"
  bottom: "inception_4d/output"
  top: "loss2/ave_pool"
  pooling_param {
    pool: AVE
    kernel_size: 5
    stride: 3
  }
}
layer {
  name: "loss2/conv"
  type: "Convolution"
  bottom: "loss2/ave_pool"
  top: "loss2/conv"
  param {
    lr_mult: 1
    decay_mult: 1
  }
  param {
    lr_mult: 2
    decay_mult: 0
  }
  convolution_param {
    num_output: 128
    kernel_size: 1
    weight_filler {
      type: "xavier"
      std: 0.08
    }
    bias_filler {
      type: "constant"
      value: 0.2
    }
  }
}
layer {
  name: "loss2/relu_conv"
  type: "ReLU"
  bottom: "loss2/conv"
  top: "loss2/conv"
}
layer {
  name: "loss2/fc"
  type: "InnerProduct"
  bottom: "loss2/conv"
  top: "loss2/fc"
  param {
    lr_mult: 1
    decay_mult: 1
  }
  param {
    lr_mult: 2
    decay_mult: 0
  }
  inner_product_param {
    num_output: 1024
    weight_filler {
      type: "xavier"
      std: 0.02
    }
    bias_filler {
      type: "constant"
      value: 0.2
    }
  }
}
layer {
  name: "loss2/relu_fc"
  type: "ReLU"
  bottom: "loss2/fc"
  top: "loss2/fc"
}
layer {
  name: "loss2/drop_fc"
  type: "Dropout"
  bottom: "loss2/fc"
  top: "loss2/fc"
  dropout_param {
    dropout_ratio: 0.7
  }
}
layer {
  name: "loss2/classifier_plantvillage"
  type: "InnerProduct"
  bottom: "loss2/fc"
  top: "loss2/classifier_plantvillage"
  param {
    lr_mult: 1
    decay_mult: 1
  }
  param {
    lr_mult: 2
    decay_mult: 0
  }
  inner_product_param {
    num_output: 38
    weight_filler {
      type: "xavier"
      std: 0.0009765625
    }
    bias_filler {
      type: "constant"
      value: 0
    }
  }
}
layer {
  name: "inception_4e/1x1"
  type: "Convolution"
  bottom: "inception_4d/output"
  top: "inception_4e/1x1"
  param {
    lr_mult: 1
    decay_mult: 1
  }
  param {
    lr_mult: 2
    decay_mult: 0
  }
  convolution_param {
    num_output: 256
    kernel_size: 1
    weight_filler {
      type: "xavier"
      std: 0.03
    }
    bias_filler {
      type: "constant"
      value: 0.2
    }
  }
}
layer {
  name: "inception_4e/relu_1x1"
  type: "ReLU"
  bottom: "inception_4e/1x1"
  top: "inception_4e/1x1"
}
layer {
  name: "inception_4e/3x3_reduce"
  type: "Convolution"
  bottom: "inception_4d/output"
  top: "inception_4e/3x3_reduce"
  param {
    lr_mult: 1
    decay_mult: 1
  }
  param {
    lr_mult: 2
    decay_mult: 0
  }
  convolution_param {
    num_output: 160
    kernel_size: 1
    weight_filler {
      type: "xavier"
      std: 0.09
    }
    bias_filler {
      type: "constant"
      value: 0.2
    }
  }
}
layer {
  name: "inception_4e/relu_3x3_reduce"
  type: "ReLU"
  bottom: "inception_4e/3x3_reduce"
  top: "inception_4e/3x3_reduce"
}
layer {
  name: "inception_4e/3x3"
  type: "Convolution"
  bottom: "inception_4e/3x3_reduce"
  top: "inception_4e/3x3"
  param {
    lr_mult: 1
    decay_mult: 1
  }
  param {
    lr_mult: 2
    decay_mult: 0
  }
  convolution_param {
    num_output: 320
    pad: 1
    kernel_size: 3
    weight_filler {
      type: "xavier"
      std: 0.03
    }
    bias_filler {
      type: "constant"
      value: 0.2
    }
  }
}
layer {
  name: "inception_4e/relu_3x3"
  type: "ReLU"
  bottom: "inception_4e/3x3"
  top: "inception_4e/3x3"
}
layer {
  name: "inception_4e/5x5_reduce"
  type: "Convolution"
  bottom: "inception_4d/output"
  top: "inception_4e/5x5_reduce"
  param {
    lr_mult: 1
    decay_mult: 1
  }
  param {
    lr_mult: 2
    decay_mult: 0
  }
  convolution_param {
    num_output: 32
    kernel_size: 1
    weight_filler {
      type: "xavier"
      std: 0.2
    }
    bias_filler {
      type: "constant"
      value: 0.2
    }
  }
}
layer {
  name: "inception_4e/relu_5x5_reduce"
  type: "ReLU"
  bottom: "inception_4e/5x5_reduce"
  top: "inception_4e/5x5_reduce"
}
layer {
  name: "inception_4e/5x5"
  type: "Convolution"
  bottom: "inception_4e/5x5_reduce"
  top: "inception_4e/5x5"
  p
I0403 15:39:59.837075 13937 layer_factory.hpp:77] Creating layer data
I0403 15:39:59.837697 13937 net.cpp:91] Creating Layer data
I0403 15:39:59.837728 13937 net.cpp:399] data -> data
I0403 15:39:59.837785 13937 net.cpp:399] data -> label
I0403 15:39:59.837822 13937 data_transformer.cpp:25] Loading mean file from: /home/mohanty/data/final_dataset/lmdb/color-80-20/mean.binaryproto
I0403 15:39:59.840355 13939 db_lmdb.cpp:38] Opened lmdb /home/mohanty/data/final_dataset/lmdb/color-80-20/test_db
I0403 15:39:59.851789 13937 data_layer.cpp:41] output data size: 24,3,224,224
I0403 15:39:59.879609 13937 net.cpp:141] Setting up data
I0403 15:39:59.879704 13937 net.cpp:148] Top shape: 24 3 224 224 (3612672)
I0403 15:39:59.879729 13937 net.cpp:148] Top shape: 24 (24)
I0403 15:39:59.879744 13937 net.cpp:156] Memory required for data: 14450784
I0403 15:39:59.879770 13937 layer_factory.hpp:77] Creating layer label_data_1_split
I0403 15:39:59.879798 13937 net.cpp:91] Creating Layer label_data_1_split
I0403 15:39:59.879817 13937 net.cpp:425] label_data_1_split <- label
I0403 15:39:59.879849 13937 net.cpp:399] label_data_1_split -> label_data_1_split_0
I0403 15:39:59.879878 13937 net.cpp:399] label_data_1_split -> label_data_1_split_1
I0403 15:39:59.879899 13937 net.cpp:399] label_data_1_split -> label_data_1_split_2
I0403 15:39:59.879920 13937 net.cpp:399] label_data_1_split -> label_data_1_split_3
I0403 15:39:59.879940 13937 net.cpp:399] label_data_1_split -> label_data_1_split_4
I0403 15:39:59.879961 13937 net.cpp:399] label_data_1_split -> label_data_1_split_5
I0403 15:39:59.879981 13937 net.cpp:399] label_data_1_split -> label_data_1_split_6
I0403 15:39:59.880002 13937 net.cpp:399] label_data_1_split -> label_data_1_split_7
I0403 15:39:59.880022 13937 net.cpp:399] label_data_1_split -> label_data_1_split_8
I0403 15:39:59.880043 13937 net.cpp:399] label_data_1_split -> label_data_1_split_9
I0403 15:39:59.880178 13937 net.cpp:141] Setting up label_data_1_split
I0403 15:39:59.880204 13937 net.cpp:148] Top shape: 24 (24)
I0403 15:39:59.880223 13937 net.cpp:148] Top shape: 24 (24)
I0403 15:39:59.880239 13937 net.cpp:148] Top shape: 24 (24)
I0403 15:39:59.880255 13937 net.cpp:148] Top shape: 24 (24)
I0403 15:39:59.880270 13937 net.cpp:148] Top shape: 24 (24)
I0403 15:39:59.880286 13937 net.cpp:148] Top shape: 24 (24)
I0403 15:39:59.880301 13937 net.cpp:148] Top shape: 24 (24)
I0403 15:39:59.880317 13937 net.cpp:148] Top shape: 24 (24)
I0403 15:39:59.880333 13937 net.cpp:148] Top shape: 24 (24)
I0403 15:39:59.880349 13937 net.cpp:148] Top shape: 24 (24)
I0403 15:39:59.880396 13937 net.cpp:156] Memory required for data: 14451744
I0403 15:39:59.880414 13937 layer_factory.hpp:77] Creating layer conv1/7x7_s2
I0403 15:39:59.880458 13937 net.cpp:91] Creating Layer conv1/7x7_s2
I0403 15:39:59.880478 13937 net.cpp:425] conv1/7x7_s2 <- data
I0403 15:39:59.880497 13937 net.cpp:399] conv1/7x7_s2 -> conv1/7x7_s2
I0403 15:40:00.021528 13937 net.cpp:141] Setting up conv1/7x7_s2
I0403 15:40:00.021621 13937 net.cpp:148] Top shape: 24 64 112 112 (19267584)
I0403 15:40:00.021639 13937 net.cpp:156] Memory required for data: 91522080
I0403 15:40:00.021669 13937 layer_factory.hpp:77] Creating layer conv1/relu_7x7
I0403 15:40:00.021695 13937 net.cpp:91] Creating Layer conv1/relu_7x7
I0403 15:40:00.021713 13937 net.cpp:425] conv1/relu_7x7 <- conv1/7x7_s2
I0403 15:40:00.021733 13937 net.cpp:386] conv1/relu_7x7 -> conv1/7x7_s2 (in-place)
I0403 15:40:00.021987 13937 net.cpp:141] Setting up conv1/relu_7x7
I0403 15:40:00.022014 13937 net.cpp:148] Top shape: 24 64 112 112 (19267584)
I0403 15:40:00.022028 13937 net.cpp:156] Memory required for data: 168592416
I0403 15:40:00.022042 13937 layer_factory.hpp:77] Creating layer pool1/3x3_s2
I0403 15:40:00.022068 13937 net.cpp:91] Creating Layer pool1/3x3_s2
I0403 15:40:00.022085 13937 net.cpp:425] pool1/3x3_s2 <- conv1/7x7_s2
I0403 15:40:00.022109 13937 net.cpp:399] pool1/3x3_s2 -> pool1/3x3_s2
I0403 15:40:00.022184 13937 net.cpp:141] Setting up pool1/3x3_s2
I0403 15:40:00.022210 13937 net.cpp:148] Top shape: 24 64 56 56 (4816896)
I0403 15:40:00.022225 13937 net.cpp:156] Memory required for data: 187860000
I0403 15:40:00.022239 13937 layer_factory.hpp:77] Creating layer pool1/norm1
I0403 15:40:00.022264 13937 net.cpp:91] Creating Layer pool1/norm1
I0403 15:40:00.022280 13937 net.cpp:425] pool1/norm1 <- pool1/3x3_s2
I0403 15:40:00.022299 13937 net.cpp:399] pool1/norm1 -> pool1/norm1
I0403 15:40:00.022598 13937 net.cpp:141] Setting up pool1/norm1
I0403 15:40:00.022626 13937 net.cpp:148] Top shape: 24 64 56 56 (4816896)
I0403 15:40:00.022641 13937 net.cpp:156] Memory required for data: 207127584
I0403 15:40:00.022657 13937 layer_factory.hpp:77] Creating layer conv2/3x3_reduce
I0403 15:40:00.022682 13937 net.cpp:91] Creating Layer conv2/3x3_reduce
I0403 15:40:00.022701 13937 net.cpp:425] conv2/3x3_reduce <- pool1/norm1
I0403 15:40:00.022719 13937 net.cpp:399] conv2/3x3_reduce -> conv2/3x3_reduce
I0403 15:40:00.024072 13937 net.cpp:141] Setting up conv2/3x3_reduce
I0403 15:40:00.024108 13937 net.cpp:148] Top shape: 24 64 56 56 (4816896)
I0403 15:40:00.024127 13937 net.cpp:156] Memory required for data: 226395168
I0403 15:40:00.024149 13937 layer_factory.hpp:77] Creating layer conv2/relu_3x3_reduce
I0403 15:40:00.024168 13937 net.cpp:91] Creating Layer conv2/relu_3x3_reduce
I0403 15:40:00.024185 13937 net.cpp:425] conv2/relu_3x3_reduce <- conv2/3x3_reduce
I0403 15:40:00.024204 13937 net.cpp:386] conv2/relu_3x3_reduce -> conv2/3x3_reduce (in-place)
I0403 15:40:00.024467 13937 net.cpp:141] Setting up conv2/relu_3x3_reduce
I0403 15:40:00.024497 13937 net.cpp:148] Top shape: 24 64 56 56 (4816896)
I0403 15:40:00.024512 13937 net.cpp:156] Memory required for data: 245662752
I0403 15:40:00.024526 13937 layer_factory.hpp:77] Creating layer conv2/3x3
I0403 15:40:00.024549 13937 net.cpp:91] Creating Layer conv2/3x3
I0403 15:40:00.024566 13937 net.cpp:425] conv2/3x3 <- conv2/3x3_reduce
I0403 15:40:00.024586 13937 net.cpp:399] conv2/3x3 -> conv2/3x3
I0403 15:40:00.026865 13937 net.cpp:141] Setting up conv2/3x3
I0403 15:40:00.026895 13937 net.cpp:148] Top shape: 24 192 56 56 (14450688)
I0403 15:40:00.026911 13937 net.cpp:156] Memory required for data: 303465504
I0403 15:40:00.026935 13937 layer_factory.hpp:77] Creating layer conv2/relu_3x3
I0403 15:40:00.026954 13937 net.cpp:91] Creating Layer conv2/relu_3x3
I0403 15:40:00.026970 13937 net.cpp:425] conv2/relu_3x3 <- conv2/3x3
I0403 15:40:00.026988 13937 net.cpp:386] conv2/relu_3x3 -> conv2/3x3 (in-place)
I0403 15:40:00.027187 13937 net.cpp:141] Setting up conv2/relu_3x3
I0403 15:40:00.027217 13937 net.cpp:148] Top shape: 24 192 56 56 (14450688)
I0403 15:40:00.027264 13937 net.cpp:156] Memory required for data: 361268256
I0403 15:40:00.027281 13937 layer_factory.hpp:77] Creating layer conv2/norm2
I0403 15:40:00.027298 13937 net.cpp:91] Creating Layer conv2/norm2
I0403 15:40:00.027315 13937 net.cpp:425] conv2/norm2 <- conv2/3x3
I0403 15:40:00.027335 13937 net.cpp:399] conv2/norm2 -> conv2/norm2
I0403 15:40:00.027642 13937 net.cpp:141] Setting up conv2/norm2
I0403 15:40:00.027668 13937 net.cpp:148] Top shape: 24 192 56 56 (14450688)
I0403 15:40:00.027683 13937 net.cpp:156] Memory required for data: 419071008
I0403 15:40:00.027698 13937 layer_factory.hpp:77] Creating layer pool2/3x3_s2
I0403 15:40:00.027715 13937 net.cpp:91] Creating Layer pool2/3x3_s2
I0403 15:40:00.027731 13937 net.cpp:425] pool2/3x3_s2 <- conv2/norm2
I0403 15:40:00.027751 13937 net.cpp:399] pool2/3x3_s2 -> pool2/3x3_s2
I0403 15:40:00.027803 13937 net.cpp:141] Setting up pool2/3x3_s2
I0403 15:40:00.027830 13937 net.cpp:148] Top shape: 24 192 28 28 (3612672)
I0403 15:40:00.027843 13937 net.cpp:156] Memory required for data: 433521696
I0403 15:40:00.027858 13937 layer_factory.hpp:77] Creating layer pool2/3x3_s2_pool2/3x3_s2_0_split
I0403 15:40:00.027875 13937 net.cpp:91] Creating Layer pool2/3x3_s2_pool2/3x3_s2_0_split
I0403 15:40:00.027890 13937 net.cpp:425] pool2/3x3_s2_pool2/3x3_s2_0_split <- pool2/3x3_s2
I0403 15:40:00.027907 13937 net.cpp:399] pool2/3x3_s2_pool2/3x3_s2_0_split -> pool2/3x3_s2_pool2/3x3_s2_0_split_0
I0403 15:40:00.027930 13937 net.cpp:399] pool2/3x3_s2_pool2/3x3_s2_0_split -> pool2/3x3_s2_pool2/3x3_s2_0_split_1
I0403 15:40:00.027951 13937 net.cpp:399] pool2/3x3_s2_pool2/3x3_s2_0_split -> pool2/3x3_s2_pool2/3x3_s2_0_split_2
I0403 15:40:00.027971 13937 net.cpp:399] pool2/3x3_s2_pool2/3x3_s2_0_split -> pool2/3x3_s2_pool2/3x3_s2_0_split_3
I0403 15:40:00.028043 13937 net.cpp:141] Setting up pool2/3x3_s2_pool2/3x3_s2_0_split
I0403 15:40:00.028065 13937 net.cpp:148] Top shape: 24 192 28 28 (3612672)
I0403 15:40:00.028080 13937 net.cpp:148] Top shape: 24 192 28 28 (3612672)
I0403 15:40:00.028100 13937 net.cpp:148] Top shape: 24 192 28 28 (3612672)
I0403 15:40:00.028116 13937 net.cpp:148] Top shape: 24 192 28 28 (3612672)
I0403 15:40:00.028131 13937 net.cpp:156] Memory required for data: 491324448
I0403 15:40:00.028144 13937 layer_factory.hpp:77] Creating layer inception_3a/1x1
I0403 15:40:00.028168 13937 net.cpp:91] Creating Layer inception_3a/1x1
I0403 15:40:00.028187 13937 net.cpp:425] inception_3a/1x1 <- pool2/3x3_s2_pool2/3x3_s2_0_split_0
I0403 15:40:00.028205 13937 net.cpp:399] inception_3a/1x1 -> inception_3a/1x1
I0403 15:40:00.029713 13937 net.cpp:141] Setting up inception_3a/1x1
I0403 15:40:00.029744 13937 net.cpp:148] Top shape: 24 64 28 28 (1204224)
I0403 15:40:00.029760 13937 net.cpp:156] Memory required for data: 496141344
I0403 15:40:00.029778 13937 layer_factory.hpp:77] Creating layer inception_3a/relu_1x1
I0403 15:40:00.029799 13937 net.cpp:91] Creating Layer inception_3a/relu_1x1
I0403 15:40:00.029817 13937 net.cpp:425] inception_3a/relu_1x1 <- inception_3a/1x1
I0403 15:40:00.029834 13937 net.cpp:386] inception_3a/relu_1x1 -> inception_3a/1x1 (in-place)
I0403 15:40:00.030011 13937 net.cpp:141] Setting up inception_3a/relu_1x1
I0403 15:40:00.030040 13937 net.cpp:148] Top shape: 24 64 28 28 (1204224)
I0403 15:40:00.030055 13937 net.cpp:156] Memory required for data: 500958240
I0403 15:40:00.030068 13937 layer_factory.hpp:77] Creating layer inception_3a/3x3_reduce
I0403 15:40:00.030099 13937 net.cpp:91] Creating Layer inception_3a/3x3_reduce
I0403 15:40:00.030118 13937 net.cpp:425] inception_3a/3x3_reduce <- pool2/3x3_s2_pool2/3x3_s2_0_split_1
I0403 15:40:00.030140 13937 net.cpp:399] inception_3a/3x3_reduce -> inception_3a/3x3_reduce
I0403 15:40:00.031823 13937 net.cpp:141] Setting up inception_3a/3x3_reduce
I0403 15:40:00.031854 13937 net.cpp:148] Top shape: 24 96 28 28 (1806336)
I0403 15:40:00.031870 13937 net.cpp:156] Memory required for data: 508183584
I0403 15:40:00.031894 13937 layer_factory.hpp:77] Creating layer inception_3a/relu_3x3_reduce
I0403 15:40:00.031930 13937 net.cpp:91] Creating Layer inception_3a/relu_3x3_reduce
I0403 15:40:00.031949 13937 net.cpp:425] inception_3a/relu_3x3_reduce <- inception_3a/3x3_reduce
I0403 15:40:00.031966 13937 net.cpp:386] inception_3a/relu_3x3_reduce -> inception_3a/3x3_reduce (in-place)
I0403 15:40:00.032172 13937 net.cpp:141] Setting up inception_3a/relu_3x3_reduce
I0403 15:40:00.032199 13937 net.cpp:148] Top shape: 24 96 28 28 (1806336)
I0403 15:40:00.032213 13937 net.cpp:156] Memory required for data: 515408928
I0403 15:40:00.032227 13937 layer_factory.hpp:77] Creating layer inception_3a/3x3
I0403 15:40:00.032251 13937 net.cpp:91] Creating Layer inception_3a/3x3
I0403 15:40:00.032269 13937 net.cpp:425] inception_3a/3x3 <- inception_3a/3x3_reduce
I0403 15:40:00.032289 13937 net.cpp:399] inception_3a/3x3 -> inception_3a/3x3
I0403 15:40:00.033936 13937 net.cpp:141] Setting up inception_3a/3x3
I0403 15:40:00.033963 13937 net.cpp:148] Top shape: 24 128 28 28 (2408448)
I0403 15:40:00.033979 13937 net.cpp:156] Memory required for data: 525042720
I0403 15:40:00.033996 13937 layer_factory.hpp:77] Creating layer inception_3a/relu_3x3
I0403 15:40:00.034016 13937 net.cpp:91] Creating Layer inception_3a/relu_3x3
I0403 15:40:00.034034 13937 net.cpp:425] inception_3a/relu_3x3 <- inception_3a/3x3
I0403 15:40:00.034050 13937 net.cpp:386] inception_3a/relu_3x3 -> inception_3a/3x3 (in-place)
I0403 15:40:00.034335 13937 net.cpp:141] Setting up inception_3a/relu_3x3
I0403 15:40:00.034363 13937 net.cpp:148] Top shape: 24 128 28 28 (2408448)
I0403 15:40:00.034378 13937 net.cpp:156] Memory required for data: 534676512
I0403 15:40:00.034391 13937 layer_factory.hpp:77] Creating layer inception_3a/5x5_reduce
I0403 15:40:00.034415 13937 net.cpp:91] Creating Layer inception_3a/5x5_reduce
I0403 15:40:00.034432 13937 net.cpp:425] inception_3a/5x5_reduce <- pool2/3x3_s2_pool2/3x3_s2_0_split_2
I0403 15:40:00.034453 13937 net.cpp:399] inception_3a/5x5_reduce -> inception_3a/5x5_reduce
I0403 15:40:00.035429 13937 net.cpp:141] Setting up inception_3a/5x5_reduce
I0403 15:40:00.035457 13937 net.cpp:148] Top shape: 24 16 28 28 (301056)
I0403 15:40:00.035472 13937 net.cpp:156] Memory required for data: 535880736
I0403 15:40:00.035490 13937 layer_factory.hpp:77] Creating layer inception_3a/relu_5x5_reduce
I0403 15:40:00.035511 13937 net.cpp:91] Creating Layer inception_3a/relu_5x5_reduce
I0403 15:40:00.035528 13937 net.cpp:425] inception_3a/relu_5x5_reduce <- inception_3a/5x5_reduce
I0403 15:40:00.035547 13937 net.cpp:386] inception_3a/relu_5x5_reduce -> inception_3a/5x5_reduce (in-place)
I0403 15:40:00.035838 13937 net.cpp:141] Setting up inception_3a/relu_5x5_reduce
I0403 15:40:00.035867 13937 net.cpp:148] Top shape: 24 16 28 28 (301056)
I0403 15:40:00.035882 13937 net.cpp:156] Memory required for data: 537084960
I0403 15:40:00.035897 13937 layer_factory.hpp:77] Creating layer inception_3a/5x5
I0403 15:40:00.035920 13937 net.cpp:91] Creating Layer inception_3a/5x5
I0403 15:40:00.035938 13937 net.cpp:425] inception_3a/5x5 <- inception_3a/5x5_reduce
I0403 15:40:00.035956 13937 net.cpp:399] inception_3a/5x5 -> inception_3a/5x5
I0403 15:40:00.036978 13937 net.cpp:141] Setting up inception_3a/5x5
I0403 15:40:00.037006 13937 net.cpp:148] Top shape: 24 32 28 28 (602112)
I0403 15:40:00.037021 13937 net.cpp:156] Memory required for data: 539493408
I0403 15:40:00.037039 13937 layer_factory.hpp:77] Creating layer inception_3a/relu_5x5
I0403 15:40:00.037060 13937 net.cpp:91] Creating Layer inception_3a/relu_5x5
I0403 15:40:00.037077 13937 net.cpp:425] inception_3a/relu_5x5 <- inception_3a/5x5
I0403 15:40:00.037097 13937 net.cpp:386] inception_3a/relu_5x5 -> inception_3a/5x5 (in-place)
I0403 15:40:00.037276 13937 net.cpp:141] Setting up inception_3a/relu_5x5
I0403 15:40:00.037303 13937 net.cpp:148] Top shape: 24 32 28 28 (602112)
I0403 15:40:00.037319 13937 net.cpp:156] Memory required for data: 541901856
I0403 15:40:00.037334 13937 layer_factory.hpp:77] Creating layer inception_3a/pool
I0403 15:40:00.037351 13937 net.cpp:91] Creating Layer inception_3a/pool
I0403 15:40:00.037367 13937 net.cpp:425] inception_3a/pool <- pool2/3x3_s2_pool2/3x3_s2_0_split_3
I0403 15:40:00.037400 13937 net.cpp:399] inception_3a/pool -> inception_3a/pool
I0403 15:40:00.037459 13937 net.cpp:141] Setting up inception_3a/pool
I0403 15:40:00.037483 13937 net.cpp:148] Top shape: 24 192 28 28 (3612672)
I0403 15:40:00.037497 13937 net.cpp:156] Memory required for data: 556352544
I0403 15:40:00.037511 13937 layer_factory.hpp:77] Creating layer inception_3a/pool_proj
I0403 15:40:00.037533 13937 net.cpp:91] Creating Layer inception_3a/pool_proj
I0403 15:40:00.037552 13937 net.cpp:425] inception_3a/pool_proj <- inception_3a/pool
I0403 15:40:00.037575 13937 net.cpp:399] inception_3a/pool_proj -> inception_3a/pool_proj
I0403 15:40:00.038539 13937 net.cpp:141] Setting up inception_3a/pool_proj
I0403 15:40:00.038568 13937 net.cpp:148] Top shape: 24 32 28 28 (602112)
I0403 15:40:00.038583 13937 net.cpp:156] Memory required for data: 558760992
I0403 15:40:00.038605 13937 layer_factory.hpp:77] Creating layer inception_3a/relu_pool_proj
I0403 15:40:00.038626 13937 net.cpp:91] Creating Layer inception_3a/relu_pool_proj
I0403 15:40:00.038645 13937 net.cpp:425] inception_3a/relu_pool_proj <- inception_3a/pool_proj
I0403 15:40:00.038661 13937 net.cpp:386] inception_3a/relu_pool_proj -> inception_3a/pool_proj (in-place)
I0403 15:40:00.038938 13937 net.cpp:141] Setting up inception_3a/relu_pool_proj
I0403 15:40:00.038964 13937 net.cpp:148] Top shape: 24 32 28 28 (602112)
I0403 15:40:00.038978 13937 net.cpp:156] Memory required for data: 561169440
I0403 15:40:00.038992 13937 layer_factory.hpp:77] Creating layer inception_3a/output
I0403 15:40:00.039012 13937 net.cpp:91] Creating Layer inception_3a/output
I0403 15:40:00.039028 13937 net.cpp:425] inception_3a/output <- inception_3a/1x1
I0403 15:40:00.039046 13937 net.cpp:425] inception_3a/output <- inception_3a/3x3
I0403 15:40:00.039062 13937 net.cpp:425] inception_3a/output <- inception_3a/5x5
I0403 15:40:00.039078 13937 net.cpp:425] inception_3a/output <- inception_3a/pool_proj
I0403 15:40:00.039099 13937 net.cpp:399] inception_3a/output -> inception_3a/output
I0403 15:40:00.039149 13937 net.cpp:141] Setting up inception_3a/output
I0403 15:40:00.039173 13937 net.cpp:148] Top shape: 24 256 28 28 (4816896)
I0403 15:40:00.039188 13937 net.cpp:156] Memory required for data: 580437024
I0403 15:40:00.039203 13937 layer_factory.hpp:77] Creating layer inception_3a/output_inception_3a/output_0_split
I0403 15:40:00.039221 13937 net.cpp:91] Creating Layer inception_3a/output_inception_3a/output_0_split
I0403 15:40:00.039237 13937 net.cpp:425] inception_3a/output_inception_3a/output_0_split <- inception_3a/output
I0403 15:40:00.039255 13937 net.cpp:399] inception_3a/output_inception_3a/output_0_split -> inception_3a/output_inception_3a/output_0_split_0
I0403 15:40:00.039276 13937 net.cpp:399] inception_3a/output_inception_3a/output_0_split -> inception_3a/output_inception_3a/output_0_split_1
I0403 15:40:00.039304 13937 net.cpp:399] inception_3a/output_inception_3a/output_0_split -> inception_3a/output_inception_3a/output_0_split_2
I0403 15:40:00.039325 13937 net.cpp:399] inception_3a/output_inception_3a/output_0_split -> inception_3a/output_inception_3a/output_0_split_3
I0403 15:40:00.039400 13937 net.cpp:141] Setting up inception_3a/output_inception_3a/output_0_split
I0403 15:40:00.039424 13937 net.cpp:148] Top shape: 24 256 28 28 (4816896)
I0403 15:40:00.039440 13937 net.cpp:148] Top shape: 24 256 28 28 (4816896)
I0403 15:40:00.039455 13937 net.cpp:148] Top shape: 24 256 28 28 (4816896)
I0403 15:40:00.039469 13937 net.cpp:148] Top shape: 24 256 28 28 (4816896)
I0403 15:40:00.039484 13937 net.cpp:156] Memory required for data: 657507360
I0403 15:40:00.039499 13937 layer_factory.hpp:77] Creating layer inception_3b/1x1
I0403 15:40:00.039521 13937 net.cpp:91] Creating Layer inception_3b/1x1
I0403 15:40:00.039538 13937 net.cpp:425] inception_3b/1x1 <- inception_3a/output_inception_3a/output_0_split_0
I0403 15:40:00.039559 13937 net.cpp:399] inception_3b/1x1 -> inception_3b/1x1
I0403 15:40:00.040736 13937 net.cpp:141] Setting up inception_3b/1x1
I0403 15:40:00.040776 13937 net.cpp:148] Top shape: 24 128 28 28 (2408448)
I0403 15:40:00.040792 13937 net.cpp:156] Memory required for data: 667141152
I0403 15:40:00.040812 13937 layer_factory.hpp:77] Creating layer inception_3b/relu_1x1
I0403 15:40:00.040832 13937 net.cpp:91] Creating Layer inception_3b/relu_1x1
I0403 15:40:00.040849 13937 net.cpp:425] inception_3b/relu_1x1 <- inception_3b/1x1
I0403 15:40:00.040866 13937 net.cpp:386] inception_3b/relu_1x1 -> inception_3b/1x1 (in-place)
I0403 15:40:00.041040 13937 net.cpp:141] Setting up inception_3b/relu_1x1
I0403 15:40:00.041066 13937 net.cpp:148] Top shape: 24 128 28 28 (2408448)
I0403 15:40:00.041080 13937 net.cpp:156] Memory required for data: 676774944
I0403 15:40:00.041100 13937 layer_factory.hpp:77] Creating layer inception_3b/3x3_reduce
I0403 15:40:00.041124 13937 net.cpp:91] Creating Layer inception_3b/3x3_reduce
I0403 15:40:00.041144 13937 net.cpp:425] inception_3b/3x3_reduce <- inception_3a/output_inception_3a/output_0_split_1
I0403 15:40:00.041163 13937 net.cpp:399] inception_3b/3x3_reduce -> inception_3b/3x3_reduce
I0403 15:40:00.042296 13937 net.cpp:141] Setting up inception_3b/3x3_reduce
I0403 15:40:00.042325 13937 net.cpp:148] Top shape: 24 128 28 28 (2408448)
I0403 15:40:00.042340 13937 net.cpp:156] Memory required for data: 686408736
I0403 15:40:00.042358 13937 layer_factory.hpp:77] Creating layer inception_3b/relu_3x3_reduce
I0403 15:40:00.042376 13937 net.cpp:91] Creating Layer inception_3b/relu_3x3_reduce
I0403 15:40:00.042392 13937 net.cpp:425] inception_3b/relu_3x3_reduce <- inception_3b/3x3_reduce
I0403 15:40:00.042412 13937 net.cpp:386] inception_3b/relu_3x3_reduce -> inception_3b/3x3_reduce (in-place)
I0403 15:40:00.042588 13937 net.cpp:141] Setting up inception_3b/relu_3x3_reduce
I0403 15:40:00.042613 13937 net.cpp:148] Top shape: 24 128 28 28 (2408448)
I0403 15:40:00.042628 13937 net.cpp:156] Memory required for data: 696042528
I0403 15:40:00.042642 13937 layer_factory.hpp:77] Creating layer inception_3b/3x3
I0403 15:40:00.042667 13937 net.cpp:91] Creating Layer inception_3b/3x3
I0403 15:40:00.042686 13937 net.cpp:425] inception_3b/3x3 <- inception_3b/3x3_reduce
I0403 15:40:00.042708 13937 net.cpp:399] inception_3b/3x3 -> inception_3b/3x3
I0403 15:40:00.045604 13937 net.cpp:141] Setting up inception_3b/3x3
I0403 15:40:00.045634 13937 net.cpp:148] Top shape: 24 192 28 28 (3612672)
I0403 15:40:00.045650 13937 net.cpp:156] Memory required for data: 710493216
I0403 15:40:00.045667 13937 layer_factory.hpp:77] Creating layer inception_3b/relu_3x3
I0403 15:40:00.045688 13937 net.cpp:91] Creating Layer inception_3b/relu_3x3
I0403 15:40:00.045706 13937 net.cpp:425] inception_3b/relu_3x3 <- inception_3b/3x3
I0403 15:40:00.045722 13937 net.cpp:386] inception_3b/relu_3x3 -> inception_3b/3x3 (in-place)
I0403 15:40:00.045997 13937 net.cpp:141] Setting up inception_3b/relu_3x3
I0403 15:40:00.046025 13937 net.cpp:148] Top shape: 24 192 28 28 (3612672)
I0403 15:40:00.046039 13937 net.cpp:156] Memory required for data: 724943904
I0403 15:40:00.046054 13937 layer_factory.hpp:77] Creating layer inception_3b/5x5_reduce
I0403 15:40:00.046077 13937 net.cpp:91] Creating Layer inception_3b/5x5_reduce
I0403 15:40:00.046102 13937 net.cpp:425] inception_3b/5x5_reduce <- inception_3a/output_inception_3a/output_0_split_2
I0403 15:40:00.046125 13937 net.cpp:399] inception_3b/5x5_reduce -> inception_3b/5x5_reduce
I0403 15:40:00.047111 13937 net.cpp:141] Setting up inception_3b/5x5_reduce
I0403 15:40:00.047139 13937 net.cpp:148] Top shape: 24 32 28 28 (602112)
I0403 15:40:00.047154 13937 net.cpp:156] Memory required for data: 727352352
I0403 15:40:00.047173 13937 layer_factory.hpp:77] Creating layer inception_3b/relu_5x5_reduce
I0403 15:40:00.047194 13937 net.cpp:91] Creating Layer inception_3b/relu_5x5_reduce
I0403 15:40:00.047212 13937 net.cpp:425] inception_3b/relu_5x5_reduce <- inception_3b/5x5_reduce
I0403 15:40:00.047230 13937 net.cpp:386] inception_3b/relu_5x5_reduce -> inception_3b/5x5_reduce (in-place)
I0403 15:40:00.047406 13937 net.cpp:141] Setting up inception_3b/relu_5x5_reduce
I0403 15:40:00.047446 13937 net.cpp:148] Top shape: 24 32 28 28 (602112)
I0403 15:40:00.047461 13937 net.cpp:156] Memory required for data: 729760800
I0403 15:40:00.047477 13937 layer_factory.hpp:77] Creating layer inception_3b/5x5
I0403 15:40:00.047499 13937 net.cpp:91] Creating Layer inception_3b/5x5
I0403 15:40:00.047518 13937 net.cpp:425] inception_3b/5x5 <- inception_3b/5x5_reduce
I0403 15:40:00.047535 13937 net.cpp:399] inception_3b/5x5 -> inception_3b/5x5
I0403 15:40:00.049512 13937 net.cpp:141] Setting up inception_3b/5x5
I0403 15:40:00.049542 13937 net.cpp:148] Top shape: 24 96 28 28 (1806336)
I0403 15:40:00.049558 13937 net.cpp:156] Memory required for data: 736986144
I0403 15:40:00.049576 13937 layer_factory.hpp:77] Creating layer inception_3b/relu_5x5
I0403 15:40:00.049594 13937 net.cpp:91] Creating Layer inception_3b/relu_5x5
I0403 15:40:00.049609 13937 net.cpp:425] inception_3b/relu_5x5 <- inception_3b/5x5
I0403 15:40:00.049629 13937 net.cpp:386] inception_3b/relu_5x5 -> inception_3b/5x5 (in-place)
I0403 15:40:00.049826 13937 net.cpp:141] Setting up inception_3b/relu_5x5
I0403 15:40:00.049854 13937 net.cpp:148] Top shape: 24 96 28 28 (1806336)
I0403 15:40:00.049868 13937 net.cpp:156] Memory required for data: 744211488
I0403 15:40:00.049883 13937 layer_factory.hpp:77] Creating layer inception_3b/pool
I0403 15:40:00.049901 13937 net.cpp:91] Creating Layer inception_3b/pool
I0403 15:40:00.049917 13937 net.cpp:425] inception_3b/pool <- inception_3a/output_inception_3a/output_0_split_3
I0403 15:40:00.049934 13937 net.cpp:399] inception_3b/pool -> inception_3b/pool
I0403 15:40:00.049991 13937 net.cpp:141] Setting up inception_3b/pool
I0403 15:40:00.050015 13937 net.cpp:148] Top shape: 24 256 28 28 (4816896)
I0403 15:40:00.050030 13937 net.cpp:156] Memory required for data: 763479072
I0403 15:40:00.050045 13937 layer_factory.hpp:77] Creating layer inception_3b/pool_proj
I0403 15:40:00.050068 13937 net.cpp:91] Creating Layer inception_3b/pool_proj
I0403 15:40:00.050086 13937 net.cpp:425] inception_3b/pool_proj <- inception_3b/pool
I0403 15:40:00.050112 13937 net.cpp:399] inception_3b/pool_proj -> inception_3b/pool_proj
I0403 15:40:00.051172 13937 net.cpp:141] Setting up inception_3b/pool_proj
I0403 15:40:00.051204 13937 net.cpp:148] Top shape: 24 64 28 28 (1204224)
I0403 15:40:00.051220 13937 net.cpp:156] Memory required for data: 768295968
I0403 15:40:00.051239 13937 layer_factory.hpp:77] Creating layer inception_3b/relu_pool_proj
I0403 15:40:00.051257 13937 net.cpp:91] Creating Layer inception_3b/relu_pool_proj
I0403 15:40:00.051273 13937 net.cpp:425] inception_3b/relu_pool_proj <- inception_3b/pool_proj
I0403 15:40:00.051290 13937 net.cpp:386] inception_3b/relu_pool_proj -> inception_3b/pool_proj (in-place)
I0403 15:40:00.051681 13937 net.cpp:141] Setting up inception_3b/relu_pool_proj
I0403 15:40:00.051708 13937 net.cpp:148] Top shape: 24 64 28 28 (1204224)
I0403 15:40:00.051723 13937 net.cpp:156] Memory required for data: 773112864
I0403 15:40:00.051738 13937 layer_factory.hpp:77] Creating layer inception_3b/output
I0403 15:40:00.051758 13937 net.cpp:91] Creating Layer inception_3b/output
I0403 15:40:00.051774 13937 net.cpp:425] inception_3b/output <- inception_3b/1x1
I0403 15:40:00.051791 13937 net.cpp:425] inception_3b/output <- inception_3b/3x3
I0403 15:40:00.051806 13937 net.cpp:425] inception_3b/output <- inception_3b/5x5
I0403 15:40:00.051822 13937 net.cpp:425] inception_3b/output <- inception_3b/pool_proj
I0403 15:40:00.051838 13937 net.cpp:399] inception_3b/output -> inception_3b/output
I0403 15:40:00.051883 13937 net.cpp:141] Setting up inception_3b/output
I0403 15:40:00.051906 13937 net.cpp:148] Top shape: 24 480 28 28 (9031680)
I0403 15:40:00.051920 13937 net.cpp:156] Memory required for data: 809239584
I0403 15:40:00.051935 13937 layer_factory.hpp:77] Creating layer pool3/3x3_s2
I0403 15:40:00.051955 13937 net.cpp:91] Creating Layer pool3/3x3_s2
I0403 15:40:00.051973 13937 net.cpp:425] pool3/3x3_s2 <- inception_3b/output
I0403 15:40:00.051990 13937 net.cpp:399] pool3/3x3_s2 -> pool3/3x3_s2
I0403 15:40:00.052064 13937 net.cpp:141] Setting up pool3/3x3_s2
I0403 15:40:00.052101 13937 net.cpp:148] Top shape: 24 480 14 14 (2257920)
I0403 15:40:00.052119 13937 net.cpp:156] Memory required for data: 818271264
I0403 15:40:00.052134 13937 layer_factory.hpp:77] Creating layer pool3/3x3_s2_pool3/3x3_s2_0_split
I0403 15:40:00.052150 13937 net.cpp:91] Creating Layer pool3/3x3_s2_pool3/3x3_s2_0_split
I0403 15:40:00.052165 13937 net.cpp:425] pool3/3x3_s2_pool3/3x3_s2_0_split <- pool3/3x3_s2
I0403 15:40:00.052184 13937 net.cpp:399] pool3/3x3_s2_pool3/3x3_s2_0_split -> pool3/3x3_s2_pool3/3x3_s2_0_split_0
I0403 15:40:00.052206 13937 net.cpp:399] pool3/3x3_s2_pool3/3x3_s2_0_split -> pool3/3x3_s2_pool3/3x3_s2_0_split_1
I0403 15:40:00.052225 13937 net.cpp:399] pool3/3x3_s2_pool3/3x3_s2_0_split -> pool3/3x3_s2_pool3/3x3_s2_0_split_2
I0403 15:40:00.052245 13937 net.cpp:399] pool3/3x3_s2_pool3/3x3_s2_0_split -> pool3/3x3_s2_pool3/3x3_s2_0_split_3
I0403 15:40:00.052320 13937 net.cpp:141] Setting up pool3/3x3_s2_pool3/3x3_s2_0_split
I0403 15:40:00.052345 13937 net.cpp:148] Top shape: 24 480 14 14 (2257920)
I0403 15:40:00.052362 13937 net.cpp:148] Top shape: 24 480 14 14 (2257920)
I0403 15:40:00.052388 13937 net.cpp:148] Top shape: 24 480 14 14 (2257920)
I0403 15:40:00.052403 13937 net.cpp:148] Top shape: 24 480 14 14 (2257920)
I0403 15:40:00.052417 13937 net.cpp:156] Memory required for data: 854397984
I0403 15:40:00.052431 13937 layer_factory.hpp:77] Creating layer inception_4a/1x1
I0403 15:40:00.052453 13937 net.cpp:91] Creating Layer inception_4a/1x1
I0403 15:40:00.052471 13937 net.cpp:425] inception_4a/1x1 <- pool3/3x3_s2_pool3/3x3_s2_0_split_0
I0403 15:40:00.052490 13937 net.cpp:399] inception_4a/1x1 -> inception_4a/1x1
I0403 15:40:00.054052 13937 net.cpp:141] Setting up inception_4a/1x1
I0403 15:40:00.054081 13937 net.cpp:148] Top shape: 24 192 14 14 (903168)
I0403 15:40:00.054101 13937 net.cpp:156] Memory required for data: 858010656
I0403 15:40:00.054121 13937 layer_factory.hpp:77] Creating layer inception_4a/relu_1x1
I0403 15:40:00.054139 13937 net.cpp:91] Creating Layer inception_4a/relu_1x1
I0403 15:40:00.054155 13937 net.cpp:425] inception_4a/relu_1x1 <- inception_4a/1x1
I0403 15:40:00.054175 13937 net.cpp:386] inception_4a/relu_1x1 -> inception_4a/1x1 (in-place)
I0403 15:40:00.054359 13937 net.cpp:141] Setting up inception_4a/relu_1x1
I0403 15:40:00.054385 13937 net.cpp:148] Top shape: 24 192 14 14 (903168)
I0403 15:40:00.054400 13937 net.cpp:156] Memory required for data: 861623328
I0403 15:40:00.054414 13937 layer_factory.hpp:77] Creating layer inception_4a/3x3_reduce
I0403 15:40:00.054437 13937 net.cpp:91] Creating Layer inception_4a/3x3_reduce
I0403 15:40:00.054455 13937 net.cpp:425] inception_4a/3x3_reduce <- pool3/3x3_s2_pool3/3x3_s2_0_split_1
I0403 15:40:00.054477 13937 net.cpp:399] inception_4a/3x3_reduce -> inception_4a/3x3_reduce
I0403 15:40:00.055749 13937 net.cpp:141] Setting up inception_4a/3x3_reduce
I0403 15:40:00.055780 13937 net.cpp:148] Top shape: 24 96 14 14 (451584)
I0403 15:40:00.055796 13937 net.cpp:156] Memory required for data: 863429664
I0403 15:40:00.055821 13937 layer_factory.hpp:77] Creating layer inception_4a/relu_3x3_reduce
I0403 15:40:00.055842 13937 net.cpp:91] Creating Layer inception_4a/relu_3x3_reduce
I0403 15:40:00.055858 13937 net.cpp:425] inception_4a/relu_3x3_reduce <- inception_4a/3x3_reduce
I0403 15:40:00.055876 13937 net.cpp:386] inception_4a/relu_3x3_reduce -> inception_4a/3x3_reduce (in-place)
I0403 15:40:00.056056 13937 net.cpp:141] Setting up inception_4a/relu_3x3_reduce
I0403 15:40:00.056082 13937 net.cpp:148] Top shape: 24 96 14 14 (451584)
I0403 15:40:00.056102 13937 net.cpp:156] Memory required for data: 865236000
I0403 15:40:00.056118 13937 layer_factory.hpp:77] Creating layer inception_4a/3x3
I0403 15:40:00.056139 13937 net.cpp:91] Creating Layer inception_4a/3x3
I0403 15:40:00.056157 13937 net.cpp:425] inception_4a/3x3 <- inception_4a/3x3_reduce
I0403 15:40:00.056180 13937 net.cpp:399] inception_4a/3x3 -> inception_4a/3x3
I0403 15:40:00.058887 13937 net.cpp:141] Setting up inception_4a/3x3
I0403 15:40:00.058917 13937 net.cpp:148] Top shape: 24 208 14 14 (978432)
I0403 15:40:00.058933 13937 net.cpp:156] Memory required for data: 869149728
I0403 15:40:00.058950 13937 layer_factory.hpp:77] Creating layer inception_4a/relu_3x3
I0403 15:40:00.058969 13937 net.cpp:91] Creating Layer inception_4a/relu_3x3
I0403 15:40:00.058985 13937 net.cpp:425] inception_4a/relu_3x3 <- inception_4a/3x3
I0403 15:40:00.059005 13937 net.cpp:386] inception_4a/relu_3x3 -> inception_4a/3x3 (in-place)
I0403 15:40:00.059285 13937 net.cpp:141] Setting up inception_4a/relu_3x3
I0403 15:40:00.059312 13937 net.cpp:148] Top shape: 24 208 14 14 (978432)
I0403 15:40:00.059327 13937 net.cpp:156] Memory required for data: 873063456
I0403 15:40:00.059342 13937 layer_factory.hpp:77] Creating layer inception_4a/5x5_reduce
I0403 15:40:00.059365 13937 net.cpp:91] Creating Layer inception_4a/5x5_reduce
I0403 15:40:00.059382 13937 net.cpp:425] inception_4a/5x5_reduce <- pool3/3x3_s2_pool3/3x3_s2_0_split_2
I0403 15:40:00.059403 13937 net.cpp:399] inception_4a/5x5_reduce -> inception_4a/5x5_reduce
I0403 15:40:00.060420 13937 net.cpp:141] Setting up inception_4a/5x5_reduce
I0403 15:40:00.060449 13937 net.cpp:148] Top shape: 24 16 14 14 (75264)
I0403 15:40:00.060464 13937 net.cpp:156] Memory required for data: 873364512
I0403 15:40:00.060482 13937 layer_factory.hpp:77] Creating layer inception_4a/relu_5x5_reduce
I0403 15:40:00.060503 13937 net.cpp:91] Creating Layer inception_4a/relu_5x5_reduce
I0403 15:40:00.060519 13937 net.cpp:425] inception_4a/relu_5x5_reduce <- inception_4a/5x5_reduce
I0403 15:40:00.060536 13937 net.cpp:386] inception_4a/relu_5x5_reduce -> inception_4a/5x5_reduce (in-place)
I0403 15:40:00.060711 13937 net.cpp:141] Setting up inception_4a/relu_5x5_reduce
I0403 15:40:00.060740 13937 net.cpp:148] Top shape: 24 16 14 14 (75264)
I0403 15:40:00.060755 13937 net.cpp:156] Memory required for data: 873665568
I0403 15:40:00.060770 13937 layer_factory.hpp:77] Creating layer inception_4a/5x5
I0403 15:40:00.060792 13937 net.cpp:91] Creating Layer inception_4a/5x5
I0403 15:40:00.060809 13937 net.cpp:425] inception_4a/5x5 <- inception_4a/5x5_reduce
I0403 15:40:00.060828 13937 net.cpp:399] inception_4a/5x5 -> inception_4a/5x5
I0403 15:40:00.061907 13937 net.cpp:141] Setting up inception_4a/5x5
I0403 15:40:00.061939 13937 net.cpp:148] Top shape: 24 48 14 14 (225792)
I0403 15:40:00.061956 13937 net.cpp:156] Memory required for data: 874568736
I0403 15:40:00.061975 13937 layer_factory.hpp:77] Creating layer inception_4a/relu_5x5
I0403 15:40:00.061992 13937 net.cpp:91] Creating Layer inception_4a/relu_5x5
I0403 15:40:00.062007 13937 net.cpp:425] inception_4a/relu_5x5 <- inception_4a/5x5
I0403 15:40:00.062026 13937 net.cpp:386] inception_4a/relu_5x5 -> inception_4a/5x5 (in-place)
I0403 15:40:00.062211 13937 net.cpp:141] Setting up inception_4a/relu_5x5
I0403 15:40:00.062235 13937 net.cpp:148] Top shape: 24 48 14 14 (225792)
I0403 15:40:00.062250 13937 net.cpp:156] Memory required for data: 875471904
I0403 15:40:00.062265 13937 layer_factory.hpp:77] Creating layer inception_4a/pool
I0403 15:40:00.062283 13937 net.cpp:91] Creating Layer inception_4a/pool
I0403 15:40:00.062299 13937 net.cpp:425] inception_4a/pool <- pool3/3x3_s2_pool3/3x3_s2_0_split_3
I0403 15:40:00.062319 13937 net.cpp:399] inception_4a/pool -> inception_4a/pool
I0403 15:40:00.062381 13937 net.cpp:141] Setting up inception_4a/pool
I0403 15:40:00.062404 13937 net.cpp:148] Top shape: 24 480 14 14 (2257920)
I0403 15:40:00.062418 13937 net.cpp:156] Memory required for data: 884503584
I0403 15:40:00.062433 13937 layer_factory.hpp:77] Creating layer inception_4a/pool_proj
I0403 15:40:00.062456 13937 net.cpp:91] Creating Layer inception_4a/pool_proj
I0403 15:40:00.062474 13937 net.cpp:425] inception_4a/pool_proj <- inception_4a/pool
I0403 15:40:00.062492 13937 net.cpp:399] inception_4a/pool_proj -> inception_4a/pool_proj
I0403 15:40:00.063668 13937 net.cpp:141] Setting up inception_4a/pool_proj
I0403 15:40:00.063700 13937 net.cpp:148] Top shape: 24 64 14 14 (301056)
I0403 15:40:00.063731 13937 net.cpp:156] Memory required for data: 885707808
I0403 15:40:00.063751 13937 layer_factory.hpp:77] Creating layer inception_4a/relu_pool_proj
I0403 15:40:00.063769 13937 net.cpp:91] Creating Layer inception_4a/relu_pool_proj
I0403 15:40:00.063786 13937 net.cpp:425] inception_4a/relu_pool_proj <- inception_4a/pool_proj
I0403 15:40:00.063807 13937 net.cpp:386] inception_4a/relu_pool_proj -> inception_4a/pool_proj (in-place)
I0403 15:40:00.064090 13937 net.cpp:141] Setting up inception_4a/relu_pool_proj
I0403 15:40:00.064124 13937 net.cpp:148] Top shape: 24 64 14 14 (301056)
I0403 15:40:00.064139 13937 net.cpp:156] Memory required for data: 886912032
I0403 15:40:00.064153 13937 layer_factory.hpp:77] Creating layer inception_4a/output
I0403 15:40:00.064172 13937 net.cpp:91] Creating Layer inception_4a/output
I0403 15:40:00.064187 13937 net.cpp:425] inception_4a/output <- inception_4a/1x1
I0403 15:40:00.064203 13937 net.cpp:425] inception_4a/output <- inception_4a/3x3
I0403 15:40:00.064219 13937 net.cpp:425] inception_4a/output <- inception_4a/5x5
I0403 15:40:00.064234 13937 net.cpp:425] inception_4a/output <- inception_4a/pool_proj
I0403 15:40:00.064254 13937 net.cpp:399] inception_4a/output -> inception_4a/output
I0403 15:40:00.064298 13937 net.cpp:141] Setting up inception_4a/output
I0403 15:40:00.064321 13937 net.cpp:148] Top shape: 24 512 14 14 (2408448)
I0403 15:40:00.064337 13937 net.cpp:156] Memory required for data: 896545824
I0403 15:40:00.064350 13937 layer_factory.hpp:77] Creating layer inception_4a/output_inception_4a/output_0_split
I0403 15:40:00.064370 13937 net.cpp:91] Creating Layer inception_4a/output_inception_4a/output_0_split
I0403 15:40:00.064388 13937 net.cpp:425] inception_4a/output_inception_4a/output_0_split <- inception_4a/output
I0403 15:40:00.064404 13937 net.cpp:399] inception_4a/output_inception_4a/output_0_split -> inception_4a/output_inception_4a/output_0_split_0
I0403 15:40:00.064427 13937 net.cpp:399] inception_4a/output_inception_4a/output_0_split -> inception_4a/output_inception_4a/output_0_split_1
I0403 15:40:00.064450 13937 net.cpp:399] inception_4a/output_inception_4a/output_0_split -> inception_4a/output_inception_4a/output_0_split_2
I0403 15:40:00.064470 13937 net.cpp:399] inception_4a/output_inception_4a/output_0_split -> inception_4a/output_inception_4a/output_0_split_3
I0403 15:40:00.064488 13937 net.cpp:399] inception_4a/output_inception_4a/output_0_split -> inception_4a/output_inception_4a/output_0_split_4
I0403 15:40:00.064580 13937 net.cpp:141] Setting up inception_4a/output_inception_4a/output_0_split
I0403 15:40:00.064604 13937 net.cpp:148] Top shape: 24 512 14 14 (2408448)
I0403 15:40:00.064620 13937 net.cpp:148] Top shape: 24 512 14 14 (2408448)
I0403 15:40:00.064635 13937 net.cpp:148] Top shape: 24 512 14 14 (2408448)
I0403 15:40:00.064651 13937 net.cpp:148] Top shape: 24 512 14 14 (2408448)
I0403 15:40:00.064666 13937 net.cpp:148] Top shape: 24 512 14 14 (2408448)
I0403 15:40:00.064679 13937 net.cpp:156] Memory required for data: 944714784
I0403 15:40:00.064693 13937 layer_factory.hpp:77] Creating layer loss1/ave_pool
I0403 15:40:00.064713 13937 net.cpp:91] Creating Layer loss1/ave_pool
I0403 15:40:00.064730 13937 net.cpp:425] loss1/ave_pool <- inception_4a/output_inception_4a/output_0_split_0
I0403 15:40:00.064749 13937 net.cpp:399] loss1/ave_pool -> loss1/ave_pool
I0403 15:40:00.064954 13937 net.cpp:141] Setting up loss1/ave_pool
I0403 15:40:00.064983 13937 net.cpp:148] Top shape: 24 512 4 4 (196608)
I0403 15:40:00.064998 13937 net.cpp:156] Memory required for data: 945501216
I0403 15:40:00.065013 13937 layer_factory.hpp:77] Creating layer loss1/conv
I0403 15:40:00.065035 13937 net.cpp:91] Creating Layer loss1/conv
I0403 15:40:00.065052 13937 net.cpp:425] loss1/conv <- loss1/ave_pool
I0403 15:40:00.065070 13937 net.cpp:399] loss1/conv -> loss1/conv
I0403 15:40:00.066488 13937 net.cpp:141] Setting up loss1/conv
I0403 15:40:00.066516 13937 net.cpp:148] Top shape: 24 128 4 4 (49152)
I0403 15:40:00.066531 13937 net.cpp:156] Memory required for data: 945697824
I0403 15:40:00.066566 13937 layer_factory.hpp:77] Creating layer loss1/relu_conv
I0403 15:40:00.066588 13937 net.cpp:91] Creating Layer loss1/relu_conv
I0403 15:40:00.066606 13937 net.cpp:425] loss1/relu_conv <- loss1/conv
I0403 15:40:00.066623 13937 net.cpp:386] loss1/relu_conv -> loss1/conv (in-place)
I0403 15:40:00.066913 13937 net.cpp:141] Setting up loss1/relu_conv
I0403 15:40:00.066939 13937 net.cpp:148] Top shape: 24 128 4 4 (49152)
I0403 15:40:00.066954 13937 net.cpp:156] Memory required for data: 945894432
I0403 15:40:00.066969 13937 layer_factory.hpp:77] Creating layer loss1/fc
I0403 15:40:00.066995 13937 net.cpp:91] Creating Layer loss1/fc
I0403 15:40:00.067013 13937 net.cpp:425] loss1/fc <- loss1/conv
I0403 15:40:00.067033 13937 net.cpp:399] loss1/fc -> loss1/fc
I0403 15:40:00.084332 13937 net.cpp:141] Setting up loss1/fc
I0403 15:40:00.084377 13937 net.cpp:148] Top shape: 24 1024 (24576)
I0403 15:40:00.084391 13937 net.cpp:156] Memory required for data: 945992736
I0403 15:40:00.084409 13937 layer_factory.hpp:77] Creating layer loss1/relu_fc
I0403 15:40:00.084429 13937 net.cpp:91] Creating Layer loss1/relu_fc
I0403 15:40:00.084444 13937 net.cpp:425] loss1/relu_fc <- loss1/fc
I0403 15:40:00.084465 13937 net.cpp:386] loss1/relu_fc -> loss1/fc (in-place)
I0403 15:40:00.084655 13937 net.cpp:141] Setting up loss1/relu_fc
I0403 15:40:00.084678 13937 net.cpp:148] Top shape: 24 1024 (24576)
I0403 15:40:00.084693 13937 net.cpp:156] Memory required for data: 946091040
I0403 15:40:00.084708 13937 layer_factory.hpp:77] Creating layer loss1/drop_fc
I0403 15:40:00.084734 13937 net.cpp:91] Creating Layer loss1/drop_fc
I0403 15:40:00.084753 13937 net.cpp:425] loss1/drop_fc <- loss1/fc
I0403 15:40:00.084770 13937 net.cpp:386] loss1/drop_fc -> loss1/fc (in-place)
I0403 15:40:00.084821 13937 net.cpp:141] Setting up loss1/drop_fc
I0403 15:40:00.084847 13937 net.cpp:148] Top shape: 24 1024 (24576)
I0403 15:40:00.084862 13937 net.cpp:156] Memory required for data: 946189344
I0403 15:40:00.084877 13937 layer_factory.hpp:77] Creating layer loss1/classifier_plantvillage
I0403 15:40:00.084895 13937 net.cpp:91] Creating Layer loss1/classifier_plantvillage
I0403 15:40:00.084909 13937 net.cpp:425] loss1/classifier_plantvillage <- loss1/fc
I0403 15:40:00.084929 13937 net.cpp:399] loss1/classifier_plantvillage -> loss1/classifier_plantvillage
I0403 15:40:00.087157 13937 net.cpp:141] Setting up loss1/classifier_plantvillage
I0403 15:40:00.087184 13937 net.cpp:148] Top shape: 24 38 (912)
I0403 15:40:00.087201 13937 net.cpp:156] Memory required for data: 946192992
I0403 15:40:00.087219 13937 layer_factory.hpp:77] Creating layer loss1/classifier_plantvillage_loss1/classifier_plantvillage_0_split
I0403 15:40:00.087236 13937 net.cpp:91] Creating Layer loss1/classifier_plantvillage_loss1/classifier_plantvillage_0_split
I0403 15:40:00.087250 13937 net.cpp:425] loss1/classifier_plantvillage_loss1/classifier_plantvillage_0_split <- loss1/classifier_plantvillage
I0403 15:40:00.087270 13937 net.cpp:399] loss1/classifier_plantvillage_loss1/classifier_plantvillage_0_split -> loss1/classifier_plantvillage_loss1/classifier_plantvillage_0_split_0
I0403 15:40:00.087290 13937 net.cpp:399] loss1/classifier_plantvillage_loss1/classifier_plantvillage_0_split -> loss1/classifier_plantvillage_loss1/classifier_plantvillage_0_split_1
I0403 15:40:00.087309 13937 net.cpp:399] loss1/classifier_plantvillage_loss1/classifier_plantvillage_0_split -> loss1/classifier_plantvillage_loss1/classifier_plantvillage_0_split_2
I0403 15:40:00.087374 13937 net.cpp:141] Setting up loss1/classifier_plantvillage_loss1/classifier_plantvillage_0_split
I0403 15:40:00.087396 13937 net.cpp:148] Top shape: 24 38 (912)
I0403 15:40:00.087411 13937 net.cpp:148] Top shape: 24 38 (912)
I0403 15:40:00.087425 13937 net.cpp:148] Top shape: 24 38 (912)
I0403 15:40:00.087437 13937 net.cpp:156] Memory required for data: 946203936
I0403 15:40:00.087451 13937 layer_factory.hpp:77] Creating layer inception_4b/1x1
I0403 15:40:00.087472 13937 net.cpp:91] Creating Layer inception_4b/1x1
I0403 15:40:00.087507 13937 net.cpp:425] inception_4b/1x1 <- inception_4a/output_inception_4a/output_0_split_1
I0403 15:40:00.087527 13937 net.cpp:399] inception_4b/1x1 -> inception_4b/1x1
I0403 15:40:00.089157 13937 net.cpp:141] Setting up inception_4b/1x1
I0403 15:40:00.089186 13937 net.cpp:148] Top shape: 24 160 14 14 (752640)
I0403 15:40:00.089201 13937 net.cpp:156] Memory required for data: 949214496
I0403 15:40:00.089218 13937 layer_factory.hpp:77] Creating layer inception_4b/relu_1x1
I0403 15:40:00.089238 13937 net.cpp:91] Creating Layer inception_4b/relu_1x1
I0403 15:40:00.089254 13937 net.cpp:425] inception_4b/relu_1x1 <- inception_4b/1x1
I0403 15:40:00.089272 13937 net.cpp:386] inception_4b/relu_1x1 -> inception_4b/1x1 (in-place)
I0403 15:40:00.089465 13937 net.cpp:141] Setting up inception_4b/relu_1x1
I0403 15:40:00.089491 13937 net.cpp:148] Top shape: 24 160 14 14 (752640)
I0403 15:40:00.089506 13937 net.cpp:156] Memory required for data: 952225056
I0403 15:40:00.089520 13937 layer_factory.hpp:77] Creating layer inception_4b/3x3_reduce
I0403 15:40:00.089543 13937 net.cpp:91] Creating Layer inception_4b/3x3_reduce
I0403 15:40:00.089561 13937 net.cpp:425] inception_4b/3x3_reduce <- inception_4a/output_inception_4a/output_0_split_2
I0403 15:40:00.089579 13937 net.cpp:399] inception_4b/3x3_reduce -> inception_4b/3x3_reduce
I0403 15:40:00.090926 13937 net.cpp:141] Setting up inception_4b/3x3_reduce
I0403 15:40:00.090955 13937 net.cpp:148] Top shape: 24 112 14 14 (526848)
I0403 15:40:00.090972 13937 net.cpp:156] Memory required for data: 954332448
I0403 15:40:00.090989 13937 layer_factory.hpp:77] Creating layer inception_4b/relu_3x3_reduce
I0403 15:40:00.091007 13937 net.cpp:91] Creating Layer inception_4b/relu_3x3_reduce
I0403 15:40:00.091022 13937 net.cpp:425] inception_4b/relu_3x3_reduce <- inception_4b/3x3_reduce
I0403 15:40:00.091038 13937 net.cpp:386] inception_4b/relu_3x3_reduce -> inception_4b/3x3_reduce (in-place)
I0403 15:40:00.091316 13937 net.cpp:141] Setting up inception_4b/relu_3x3_reduce
I0403 15:40:00.091344 13937 net.cpp:148] Top shape: 24 112 14 14 (526848)
I0403 15:40:00.091359 13937 net.cpp:156] Memory required for data: 956439840
I0403 15:40:00.091373 13937 layer_factory.hpp:77] Creating layer inception_4b/3x3
I0403 15:40:00.091392 13937 net.cpp:91] Creating Layer inception_4b/3x3
I0403 15:40:00.091408 13937 net.cpp:425] inception_4b/3x3 <- inception_4b/3x3_reduce
I0403 15:40:00.091428 13937 net.cpp:399] inception_4b/3x3 -> inception_4b/3x3
I0403 15:40:00.094347 13937 net.cpp:141] Setting up inception_4b/3x3
I0403 15:40:00.094384 13937 net.cpp:148] Top shape: 24 224 14 14 (1053696)
I0403 15:40:00.094399 13937 net.cpp:156] Memory required for data: 960654624
I0403 15:40:00.094418 13937 layer_factory.hpp:77] Creating layer inception_4b/relu_3x3
I0403 15:40:00.094435 13937 net.cpp:91] Creating Layer inception_4b/relu_3x3
I0403 15:40:00.094450 13937 net.cpp:425] inception_4b/relu_3x3 <- inception_4b/3x3
I0403 15:40:00.094470 13937 net.cpp:386] inception_4b/relu_3x3 -> inception_4b/3x3 (in-place)
I0403 15:40:00.094646 13937 net.cpp:141] Setting up inception_4b/relu_3x3
I0403 15:40:00.094669 13937 net.cpp:148] Top shape: 24 224 14 14 (1053696)
I0403 15:40:00.094683 13937 net.cpp:156] Memory required for data: 964869408
I0403 15:40:00.094697 13937 layer_factory.hpp:77] Creating layer inception_4b/5x5_reduce
I0403 15:40:00.094718 13937 net.cpp:91] Creating Layer inception_4b/5x5_reduce
I0403 15:40:00.094735 13937 net.cpp:425] inception_4b/5x5_reduce <- inception_4a/output_inception_4a/output_0_split_3
I0403 15:40:00.094756 13937 net.cpp:399] inception_4b/5x5_reduce -> inception_4b/5x5_reduce
I0403 15:40:00.095821 13937 net.cpp:141] Setting up inception_4b/5x5_reduce
I0403 15:40:00.095849 13937 net.cpp:148] Top shape: 24 24 14 14 (112896)
I0403 15:40:00.095862 13937 net.cpp:156] Memory required for data: 965320992
I0403 15:40:00.095880 13937 layer_factory.hpp:77] Creating layer inception_4b/relu_5x5_reduce
I0403 15:40:00.095899 13937 net.cpp:91] Creating Layer inception_4b/relu_5x5_reduce
I0403 15:40:00.095932 13937 net.cpp:425] inception_4b/relu_5x5_reduce <- inception_4b/5x5_reduce
I0403 15:40:00.095949 13937 net.cpp:386] inception_4b/relu_5x5_reduce -> inception_4b/5x5_reduce (in-place)
I0403 15:40:00.096134 13937 net.cpp:141] Setting up inception_4b/relu_5x5_reduce
I0403 15:40:00.096160 13937 net.cpp:148] Top shape: 24 24 14 14 (112896)
I0403 15:40:00.096175 13937 net.cpp:156] Memory required for data: 965772576
I0403 15:40:00.096190 13937 layer_factory.hpp:77] Creating layer inception_4b/5x5
I0403 15:40:00.096211 13937 net.cpp:91] Creating Layer inception_4b/5x5
I0403 15:40:00.096230 13937 net.cpp:425] inception_4b/5x5 <- inception_4b/5x5_reduce
I0403 15:40:00.096247 13937 net.cpp:399] inception_4b/5x5 -> inception_4b/5x5
I0403 15:40:00.097455 13937 net.cpp:141] Setting up inception_4b/5x5
I0403 15:40:00.097482 13937 net.cpp:148] Top shape: 24 64 14 14 (301056)
I0403 15:40:00.097497 13937 net.cpp:156] Memory required for data: 966976800
I0403 15:40:00.097514 13937 layer_factory.hpp:77] Creating layer inception_4b/relu_5x5
I0403 15:40:00.097537 13937 net.cpp:91] Creating Layer inception_4b/relu_5x5
I0403 15:40:00.097553 13937 net.cpp:425] inception_4b/relu_5x5 <- inception_4b/5x5
I0403 15:40:00.097569 13937 net.cpp:386] inception_4b/relu_5x5 -> inception_4b/5x5 (in-place)
I0403 15:40:00.097844 13937 net.cpp:141] Setting up inception_4b/relu_5x5
I0403 15:40:00.097870 13937 net.cpp:148] Top shape: 24 64 14 14 (301056)
I0403 15:40:00.097884 13937 net.cpp:156] Memory required for data: 968181024
I0403 15:40:00.097898 13937 layer_factory.hpp:77] Creating layer inception_4b/pool
I0403 15:40:00.097915 13937 net.cpp:91] Creating Layer inception_4b/pool
I0403 15:40:00.097930 13937 net.cpp:425] inception_4b/pool <- inception_4a/output_inception_4a/output_0_split_4
I0403 15:40:00.097951 13937 net.cpp:399] inception_4b/pool -> inception_4b/pool
I0403 15:40:00.098016 13937 net.cpp:141] Setting up inception_4b/pool
I0403 15:40:00.098038 13937 net.cpp:148] Top shape: 24 512 14 14 (2408448)
I0403 15:40:00.098052 13937 net.cpp:156] Memory required for data: 977814816
I0403 15:40:00.098065 13937 layer_factory.hpp:77] Creating layer inception_4b/pool_proj
I0403 15:40:00.098086 13937 net.cpp:91] Creating Layer inception_4b/pool_proj
I0403 15:40:00.098109 13937 net.cpp:425] inception_4b/pool_proj <- inception_4b/pool
I0403 15:40:00.098130 13937 net.cpp:399] inception_4b/pool_proj -> inception_4b/pool_proj
I0403 15:40:00.099306 13937 net.cpp:141] Setting up inception_4b/pool_proj
I0403 15:40:00.099333 13937 net.cpp:148] Top shape: 24 64 14 14 (301056)
I0403 15:40:00.099347 13937 net.cpp:156] Memory required for data: 979019040
I0403 15:40:00.099364 13937 layer_factory.hpp:77] Creating layer inception_4b/relu_pool_proj
I0403 15:40:00.099383 13937 net.cpp:91] Creating Layer inception_4b/relu_pool_proj
I0403 15:40:00.099400 13937 net.cpp:425] inception_4b/relu_pool_proj <- inception_4b/pool_proj
I0403 15:40:00.099416 13937 net.cpp:386] inception_4b/relu_pool_proj -> inception_4b/pool_proj (in-place)
I0403 15:40:00.099589 13937 net.cpp:141] Setting up inception_4b/relu_pool_proj
I0403 15:40:00.099617 13937 net.cpp:148] Top shape: 24 64 14 14 (301056)
I0403 15:40:00.099632 13937 net.cpp:156] Memory required for data: 980223264
I0403 15:40:00.099647 13937 layer_factory.hpp:77] Creating layer inception_4b/output
I0403 15:40:00.099663 13937 net.cpp:91] Creating Layer inception_4b/output
I0403 15:40:00.099679 13937 net.cpp:425] inception_4b/output <- inception_4b/1x1
I0403 15:40:00.099696 13937 net.cpp:425] inception_4b/output <- inception_4b/3x3
I0403 15:40:00.099714 13937 net.cpp:425] inception_4b/output <- inception_4b/5x5
I0403 15:40:00.099730 13937 net.cpp:425] inception_4b/output <- inception_4b/pool_proj
I0403 15:40:00.099745 13937 net.cpp:399] inception_4b/output -> inception_4b/output
I0403 15:40:00.099792 13937 net.cpp:141] Setting up inception_4b/output
I0403 15:40:00.099813 13937 net.cpp:148] Top shape: 24 512 14 14 (2408448)
I0403 15:40:00.099827 13937 net.cpp:156] Memory required for data: 989857056
I0403 15:40:00.099853 13937 layer_factory.hpp:77] Creating layer inception_4b/output_inception_4b/output_0_split
I0403 15:40:00.099874 13937 net.cpp:91] Creating Layer inception_4b/output_inception_4b/output_0_split
I0403 15:40:00.099889 13937 net.cpp:425] inception_4b/output_inception_4b/output_0_split <- inception_4b/output
I0403 15:40:00.099905 13937 net.cpp:399] inception_4b/output_inception_4b/output_0_split -> inception_4b/output_inception_4b/output_0_split_0
I0403 15:40:00.099925 13937 net.cpp:399] inception_4b/output_inception_4b/output_0_split -> inception_4b/output_inception_4b/output_0_split_1
I0403 15:40:00.099943 13937 net.cpp:399] inception_4b/output_inception_4b/output_0_split -> inception_4b/output_inception_4b/output_0_split_2
I0403 15:40:00.099962 13937 net.cpp:399] inception_4b/output_inception_4b/output_0_split -> inception_4b/output_inception_4b/output_0_split_3
I0403 15:40:00.100044 13937 net.cpp:141] Setting up inception_4b/output_inception_4b/output_0_split
I0403 15:40:00.100065 13937 net.cpp:148] Top shape: 24 512 14 14 (2408448)
I0403 15:40:00.100080 13937 net.cpp:148] Top shape: 24 512 14 14 (2408448)
I0403 15:40:00.100098 13937 net.cpp:148] Top shape: 24 512 14 14 (2408448)
I0403 15:40:00.100116 13937 net.cpp:148] Top shape: 24 512 14 14 (2408448)
I0403 15:40:00.100131 13937 net.cpp:156] Memory required for data: 1028392224
I0403 15:40:00.100145 13937 layer_factory.hpp:77] Creating layer inception_4c/1x1
I0403 15:40:00.100169 13937 net.cpp:91] Creating Layer inception_4c/1x1
I0403 15:40:00.100186 13937 net.cpp:425] inception_4c/1x1 <- inception_4b/output_inception_4b/output_0_split_0
I0403 15:40:00.100208 13937 net.cpp:399] inception_4c/1x1 -> inception_4c/1x1
I0403 15:40:00.101611 13937 net.cpp:141] Setting up inception_4c/1x1
I0403 15:40:00.101642 13937 net.cpp:148] Top shape: 24 128 14 14 (602112)
I0403 15:40:00.101657 13937 net.cpp:156] Memory required for data: 1030800672
I0403 15:40:00.101675 13937 layer_factory.hpp:77] Creating layer inception_4c/relu_1x1
I0403 15:40:00.101691 13937 net.cpp:91] Creating Layer inception_4c/relu_1x1
I0403 15:40:00.101707 13937 net.cpp:425] inception_4c/relu_1x1 <- inception_4c/1x1
I0403 15:40:00.101725 13937 net.cpp:386] inception_4c/relu_1x1 -> inception_4c/1x1 (in-place)
I0403 15:40:00.101904 13937 net.cpp:141] Setting up inception_4c/relu_1x1
I0403 15:40:00.101928 13937 net.cpp:148] Top shape: 24 128 14 14 (602112)
I0403 15:40:00.101941 13937 net.cpp:156] Memory required for data: 1033209120
I0403 15:40:00.101955 13937 layer_factory.hpp:77] Creating layer inception_4c/3x3_reduce
I0403 15:40:00.101976 13937 net.cpp:91] Creating Layer inception_4c/3x3_reduce
I0403 15:40:00.101994 13937 net.cpp:425] inception_4c/3x3_reduce <- inception_4b/output_inception_4b/output_0_split_1
I0403 15:40:00.102012 13937 net.cpp:399] inception_4c/3x3_reduce -> inception_4c/3x3_reduce
I0403 15:40:00.103914 13937 net.cpp:141] Setting up inception_4c/3x3_reduce
I0403 15:40:00.103942 13937 net.cpp:148] Top shape: 24 128 14 14 (602112)
I0403 15:40:00.103956 13937 net.cpp:156] Memory required for data: 1035617568
I0403 15:40:00.103973 13937 layer_factory.hpp:77] Creating layer inception_4c/relu_3x3_reduce
I0403 15:40:00.103993 13937 net.cpp:91] Creating Layer inception_4c/relu_3x3_reduce
I0403 15:40:00.104009 13937 net.cpp:425] inception_4c/relu_3x3_reduce <- inception_4c/3x3_reduce
I0403 15:40:00.104025 13937 net.cpp:386] inception_4c/relu_3x3_reduce -> inception_4c/3x3_reduce (in-place)
I0403 15:40:00.104305 13937 net.cpp:141] Setting up inception_4c/relu_3x3_reduce
I0403 15:40:00.104332 13937 net.cpp:148] Top shape: 24 128 14 14 (602112)
I0403 15:40:00.104346 13937 net.cpp:156] Memory required for data: 1038026016
I0403 15:40:00.104360 13937 layer_factory.hpp:77] Creating layer inception_4c/3x3
I0403 15:40:00.104382 13937 net.cpp:91] Creating Layer inception_4c/3x3
I0403 15:40:00.104399 13937 net.cpp:425] inception_4c/3x3 <- inception_4c/3x3_reduce
I0403 15:40:00.104419 13937 net.cpp:399] inception_4c/3x3 -> inception_4c/3x3
I0403 15:40:00.107991 13937 net.cpp:141] Setting up inception_4c/3x3
I0403 15:40:00.108032 13937 net.cpp:148] Top shape: 24 256 14 14 (1204224)
I0403 15:40:00.108048 13937 net.cpp:156] Memory required for data: 1042842912
I0403 15:40:00.108079 13937 layer_factory.hpp:77] Creating layer inception_4c/relu_3x3
I0403 15:40:00.108108 13937 net.cpp:91] Creating Layer inception_4c/relu_3x3
I0403 15:40:00.108127 13937 net.cpp:425] inception_4c/relu_3x3 <- inception_4c/3x3
I0403 15:40:00.108144 13937 net.cpp:386] inception_4c/relu_3x3 -> inception_4c/3x3 (in-place)
I0403 15:40:00.108324 13937 net.cpp:141] Setting up inception_4c/relu_3x3
I0403 15:40:00.108348 13937 net.cpp:148] Top shape: 24 256 14 14 (1204224)
I0403 15:40:00.108361 13937 net.cpp:156] Memory required for data: 1047659808
I0403 15:40:00.108374 13937 layer_factory.hpp:77] Creating layer inception_4c/5x5_reduce
I0403 15:40:00.108395 13937 net.cpp:91] Creating Layer inception_4c/5x5_reduce
I0403 15:40:00.108412 13937 net.cpp:425] inception_4c/5x5_reduce <- inception_4b/output_inception_4b/output_0_split_2
I0403 15:40:00.108433 13937 net.cpp:399] inception_4c/5x5_reduce -> inception_4c/5x5_reduce
I0403 15:40:00.109499 13937 net.cpp:141] Setting up inception_4c/5x5_reduce
I0403 15:40:00.109529 13937 net.cpp:148] Top shape: 24 24 14 14 (112896)
I0403 15:40:00.109544 13937 net.cpp:156] Memory required for data: 1048111392
I0403 15:40:00.109560 13937 layer_factory.hpp:77] Creating layer inception_4c/relu_5x5_reduce
I0403 15:40:00.109580 13937 net.cpp:91] Creating Layer inception_4c/relu_5x5_reduce
I0403 15:40:00.109596 13937 net.cpp:425] inception_4c/relu_5x5_reduce <- inception_4c/5x5_reduce
I0403 15:40:00.109611 13937 net.cpp:386] inception_4c/relu_5x5_reduce -> inception_4c/5x5_reduce (in-place)
I0403 15:40:00.109792 13937 net.cpp:141] Setting up inception_4c/relu_5x5_reduce
I0403 15:40:00.109818 13937 net.cpp:148] Top shape: 24 24 14 14 (112896)
I0403 15:40:00.109834 13937 net.cpp:156] Memory required for data: 1048562976
I0403 15:40:00.109848 13937 layer_factory.hpp:77] Creating layer inception_4c/5x5
I0403 15:40:00.109869 13937 net.cpp:91] Creating Layer inception_4c/5x5
I0403 15:40:00.109889 13937 net.cpp:425] inception_4c/5x5 <- inception_4c/5x5_reduce
I0403 15:40:00.109906 13937 net.cpp:399] inception_4c/5x5 -> inception_4c/5x5
I0403 15:40:00.111119 13937 net.cpp:141] Setting up inception_4c/5x5
I0403 15:40:00.111148 13937 net.cpp:148] Top shape: 24 64 14 14 (301056)
I0403 15:40:00.111165 13937 net.cpp:156] Memory required for data: 1049767200
I0403 15:40:00.111183 13937 layer_factory.hpp:77] Creating layer inception_4c/relu_5x5
I0403 15:40:00.111202 13937 net.cpp:91] Creating Layer inception_4c/relu_5x5
I0403 15:40:00.111218 13937 net.cpp:425] inception_4c/relu_5x5 <- inception_4c/5x5
I0403 15:40:00.111234 13937 net.cpp:386] inception_4c/relu_5x5 -> inception_4c/5x5 (in-place)
I0403 15:40:00.111520 13937 net.cpp:141] Setting up inception_4c/relu_5x5
I0403 15:40:00.111549 13937 net.cpp:148] Top shape: 24 64 14 14 (301056)
I0403 15:40:00.111563 13937 net.cpp:156] Memory required for data: 1050971424
I0403 15:40:00.111577 13937 layer_factory.hpp:77] Creating layer inception_4c/pool
I0403 15:40:00.111595 13937 net.cpp:91] Creating Layer inception_4c/pool
I0403 15:40:00.111611 13937 net.cpp:425] inception_4c/pool <- inception_4b/output_inception_4b/output_0_split_3
I0403 15:40:00.111629 13937 net.cpp:399] inception_4c/pool -> inception_4c/pool
I0403 15:40:00.111693 13937 net.cpp:141] Setting up inception_4c/pool
I0403 15:40:00.111717 13937 net.cpp:148] Top shape: 24 512 14 14 (2408448)
I0403 15:40:00.111732 13937 net.cpp:156] Memory required for data: 1060605216
I0403 15:40:00.111745 13937 layer_factory.hpp:77] Creating layer inception_4c/pool_proj
I0403 15:40:00.111766 13937 net.cpp:91] Creating Layer inception_4c/pool_proj
I0403 15:40:00.111783 13937 net.cpp:425] inception_4c/pool_proj <- inception_4c/pool
I0403 15:40:00.111804 13937 net.cpp:399] inception_4c/pool_proj -> inception_4c/pool_proj
I0403 15:40:00.112993 13937 net.cpp:141] Setting up inception_4c/pool_proj
I0403 15:40:00.113020 13937 net.cpp:148] Top shape: 24 64 14 14 (301056)
I0403 15:40:00.113049 13937 net.cpp:156] Memory required for data: 1061809440
I0403 15:40:00.113066 13937 layer_factory.hpp:77] Creating layer inception_4c/relu_pool_proj
I0403 15:40:00.113086 13937 net.cpp:91] Creating Layer inception_4c/relu_pool_proj
I0403 15:40:00.113113 13937 net.cpp:425] inception_4c/relu_pool_proj <- inception_4c/pool_proj
I0403 15:40:00.113132 13937 net.cpp:386] inception_4c/relu_pool_proj -> inception_4c/pool_proj (in-place)
I0403 15:40:00.113311 13937 net.cpp:141] Setting up inception_4c/relu_pool_proj
I0403 15:40:00.113337 13937 net.cpp:148] Top shape: 24 64 14 14 (301056)
I0403 15:40:00.113353 13937 net.cpp:156] Memory required for data: 1063013664
I0403 15:40:00.113365 13937 layer_factory.hpp:77] Creating layer inception_4c/output
I0403 15:40:00.113381 13937 net.cpp:91] Creating Layer inception_4c/output
I0403 15:40:00.113396 13937 net.cpp:425] inception_4c/output <- inception_4c/1x1
I0403 15:40:00.113411 13937 net.cpp:425] inception_4c/output <- inception_4c/3x3
I0403 15:40:00.113426 13937 net.cpp:425] inception_4c/output <- inception_4c/5x5
I0403 15:40:00.113441 13937 net.cpp:425] inception_4c/output <- inception_4c/pool_proj
I0403 15:40:00.113456 13937 net.cpp:399] inception_4c/output -> inception_4c/output
I0403 15:40:00.113503 13937 net.cpp:141] Setting up inception_4c/output
I0403 15:40:00.113525 13937 net.cpp:148] Top shape: 24 512 14 14 (2408448)
I0403 15:40:00.113538 13937 net.cpp:156] Memory required for data: 1072647456
I0403 15:40:00.113551 13937 layer_factory.hpp:77] Creating layer inception_4c/output_inception_4c/output_0_split
I0403 15:40:00.113570 13937 net.cpp:91] Creating Layer inception_4c/output_inception_4c/output_0_split
I0403 15:40:00.113585 13937 net.cpp:425] inception_4c/output_inception_4c/output_0_split <- inception_4c/output
I0403 15:40:00.113602 13937 net.cpp:399] inception_4c/output_inception_4c/output_0_split -> inception_4c/output_inception_4c/output_0_split_0
I0403 15:40:00.113620 13937 net.cpp:399] inception_4c/output_inception_4c/output_0_split -> inception_4c/output_inception_4c/output_0_split_1
I0403 15:40:00.113639 13937 net.cpp:399] inception_4c/output_inception_4c/output_0_split -> inception_4c/output_inception_4c/output_0_split_2
I0403 15:40:00.113661 13937 net.cpp:399] inception_4c/output_inception_4c/output_0_split -> inception_4c/output_inception_4c/output_0_split_3
I0403 15:40:00.113746 13937 net.cpp:141] Setting up inception_4c/output_inception_4c/output_0_split
I0403 15:40:00.113770 13937 net.cpp:148] Top shape: 24 512 14 14 (2408448)
I0403 15:40:00.113785 13937 net.cpp:148] Top shape: 24 512 14 14 (2408448)
I0403 15:40:00.113798 13937 net.cpp:148] Top shape: 24 512 14 14 (2408448)
I0403 15:40:00.113813 13937 net.cpp:148] Top shape: 24 512 14 14 (2408448)
I0403 15:40:00.113826 13937 net.cpp:156] Memory required for data: 1111182624
I0403 15:40:00.113840 13937 layer_factory.hpp:77] Creating layer inception_4d/1x1
I0403 15:40:00.113862 13937 net.cpp:91] Creating Layer inception_4d/1x1
I0403 15:40:00.113880 13937 net.cpp:425] inception_4d/1x1 <- inception_4c/output_inception_4c/output_0_split_0
I0403 15:40:00.113900 13937 net.cpp:399] inception_4d/1x1 -> inception_4d/1x1
I0403 15:40:00.115278 13937 net.cpp:141] Setting up inception_4d/1x1
I0403 15:40:00.115308 13937 net.cpp:148] Top shape: 24 112 14 14 (526848)
I0403 15:40:00.115324 13937 net.cpp:156] Memory required for data: 1113290016
I0403 15:40:00.115340 13937 layer_factory.hpp:77] Creating layer inception_4d/relu_1x1
I0403 15:40:00.115358 13937 net.cpp:91] Creating Layer inception_4d/relu_1x1
I0403 15:40:00.115375 13937 net.cpp:425] inception_4d/relu_1x1 <- inception_4d/1x1
I0403 15:40:00.115393 13937 net.cpp:386] inception_4d/relu_1x1 -> inception_4d/1x1 (in-place)
I0403 15:40:00.115587 13937 net.cpp:141] Setting up inception_4d/relu_1x1
I0403 15:40:00.115612 13937 net.cpp:148] Top shape: 24 112 14 14 (526848)
I0403 15:40:00.115627 13937 net.cpp:156] Memory required for data: 1115397408
I0403 15:40:00.115639 13937 layer_factory.hpp:77] Creating layer inception_4d/3x3_reduce
I0403 15:40:00.115675 13937 net.cpp:91] Creating Layer inception_4d/3x3_reduce
I0403 15:40:00.115694 13937 net.cpp:425] inception_4d/3x3_reduce <- inception_4c/output_inception_4c/output_0_split_1
I0403 15:40:00.115715 13937 net.cpp:399] inception_4d/3x3_reduce -> inception_4d/3x3_reduce
I0403 15:40:00.117202 13937 net.cpp:141] Setting up inception_4d/3x3_reduce
I0403 15:40:00.117231 13937 net.cpp:148] Top shape: 24 144 14 14 (677376)
I0403 15:40:00.117246 13937 net.cpp:156] Memory required for data: 1118106912
I0403 15:40:00.117264 13937 layer_factory.hpp:77] Creating layer inception_4d/relu_3x3_reduce
I0403 15:40:00.117280 13937 net.cpp:91] Creating Layer inception_4d/relu_3x3_reduce
I0403 15:40:00.117296 13937 net.cpp:425] inception_4d/relu_3x3_reduce <- inception_4d/3x3_reduce
I0403 15:40:00.117314 13937 net.cpp:386] inception_4d/relu_3x3_reduce -> inception_4d/3x3_reduce (in-place)
I0403 15:40:00.117660 13937 net.cpp:141] Setting up inception_4d/relu_3x3_reduce
I0403 15:40:00.117688 13937 net.cpp:148] Top shape: 24 144 14 14 (677376)
I0403 15:40:00.117703 13937 net.cpp:156] Memory required for data: 1120816416
I0403 15:40:00.117717 13937 layer_factory.hpp:77] Creating layer inception_4d/3x3
I0403 15:40:00.117738 13937 net.cpp:91] Creating Layer inception_4d/3x3
I0403 15:40:00.117756 13937 net.cpp:425] inception_4d/3x3 <- inception_4d/3x3_reduce
I0403 15:40:00.117774 13937 net.cpp:399] inception_4d/3x3 -> inception_4d/3x3
I0403 15:40:00.121922 13937 net.cpp:141] Setting up inception_4d/3x3
I0403 15:40:00.121950 13937 net.cpp:148] Top shape: 24 288 14 14 (1354752)
I0403 15:40:00.121965 13937 net.cpp:156] Memory required for data: 1126235424
I0403 15:40:00.121984 13937 layer_factory.hpp:77] Creating layer inception_4d/relu_3x3
I0403 15:40:00.122004 13937 net.cpp:91] Creating Layer inception_4d/relu_3x3
I0403 15:40:00.122020 13937 net.cpp:425] inception_4d/relu_3x3 <- inception_4d/3x3
I0403 15:40:00.122036 13937 net.cpp:386] inception_4d/relu_3x3 -> inception_4d/3x3 (in-place)
I0403 15:40:00.122221 13937 net.cpp:141] Setting up inception_4d/relu_3x3
I0403 15:40:00.122246 13937 net.cpp:148] Top shape: 24 288 14 14 (1354752)
I0403 15:40:00.122259 13937 net.cpp:156] Memory required for data: 1131654432
I0403 15:40:00.122273 13937 layer_factory.hpp:77] Creating layer inception_4d/5x5_reduce
I0403 15:40:00.122295 13937 net.cpp:91] Creating Layer inception_4d/5x5_reduce
I0403 15:40:00.122313 13937 net.cpp:425] inception_4d/5x5_reduce <- inception_4c/output_inception_4c/output_0_split_2
I0403 15:40:00.122334 13937 net.cpp:399] inception_4d/5x5_reduce -> inception_4d/5x5_reduce
I0403 15:40:00.123471 13937 net.cpp:141] Setting up inception_4d/5x5_reduce
I0403 15:40:00.123498 13937 net.cpp:148] Top shape: 24 32 14 14 (150528)
I0403 15:40:00.123513 13937 net.cpp:156] Memory required for data: 1132256544
I0403 15:40:00.123530 13937 layer_factory.hpp:77] Creating layer inception_4d/relu_5x5_reduce
I0403 15:40:00.123548 13937 net.cpp:91] Creating Layer inception_4d/relu_5x5_reduce
I0403 15:40:00.123563 13937 net.cpp:425] inception_4d/relu_5x5_reduce <- inception_4d/5x5_reduce
I0403 15:40:00.123581 13937 net.cpp:386] inception_4d/relu_5x5_reduce -> inception_4d/5x5_reduce (in-place)
I0403 15:40:00.123764 13937 net.cpp:141] Setting up inception_4d/relu_5x5_reduce
I0403 15:40:00.123788 13937 net.cpp:148] Top shape: 24 32 14 14 (150528)
I0403 15:40:00.123802 13937 net.cpp:156] Memory required for data: 1132858656
I0403 15:40:00.123816 13937 layer_factory.hpp:77] Creating layer inception_4d/5x5
I0403 15:40:00.123836 13937 net.cpp:91] Creating Layer inception_4d/5x5
I0403 15:40:00.123853 13937 net.cpp:425] inception_4d/5x5 <- inception_4d/5x5_reduce
I0403 15:40:00.123873 13937 net.cpp:399] inception_4d/5x5 -> inception_4d/5x5
I0403 15:40:00.125322 13937 net.cpp:141] Setting up inception_4d/5x5
I0403 15:40:00.125349 13937 net.cpp:148] Top shape: 24 64 14 14 (301056)
I0403 15:40:00.125368 13937 net.cpp:156] Memory required for data: 1134062880
I0403 15:40:00.125386 13937 layer_factory.hpp:77] Creating layer inception_4d/relu_5x5
I0403 15:40:00.125419 13937 net.cpp:91] Creating Layer inception_4d/relu_5x5
I0403 15:40:00.125437 13937 net.cpp:425] inception_4d/relu_5x5 <- inception_4d/5x5
I0403 15:40:00.125454 13937 net.cpp:386] inception_4d/relu_5x5 -> inception_4d/5x5 (in-place)
I0403 15:40:00.125754 13937 net.cpp:141] Setting up inception_4d/relu_5x5
I0403 15:40:00.125779 13937 net.cpp:148] Top shape: 24 64 14 14 (301056)
I0403 15:40:00.125797 13937 net.cpp:156] Memory required for data: 1135267104
I0403 15:40:00.125811 13937 layer_factory.hpp:77] Creating layer inception_4d/pool
I0403 15:40:00.125828 13937 net.cpp:91] Creating Layer inception_4d/pool
I0403 15:40:00.125844 13937 net.cpp:425] inception_4d/pool <- inception_4c/output_inception_4c/output_0_split_3
I0403 15:40:00.125861 13937 net.cpp:399] inception_4d/pool -> inception_4d/pool
I0403 15:40:00.125926 13937 net.cpp:141] Setting up inception_4d/pool
I0403 15:40:00.125948 13937 net.cpp:148] Top shape: 24 512 14 14 (2408448)
I0403 15:40:00.125962 13937 net.cpp:156] Memory required for data: 1144900896
I0403 15:40:00.125975 13937 layer_factory.hpp:77] Creating layer inception_4d/pool_proj
I0403 15:40:00.125996 13937 net.cpp:91] Creating Layer inception_4d/pool_proj
I0403 15:40:00.126013 13937 net.cpp:425] inception_4d/pool_proj <- inception_4d/pool
I0403 15:40:00.126034 13937 net.cpp:399] inception_4d/pool_proj -> inception_4d/pool_proj
I0403 15:40:00.127766 13937 net.cpp:141] Setting up inception_4d/pool_proj
I0403 15:40:00.127795 13937 net.cpp:148] Top shape: 24 64 14 14 (301056)
I0403 15:40:00.127810 13937 net.cpp:156] Memory required for data: 1146105120
I0403 15:40:00.127828 13937 layer_factory.hpp:77] Creating layer inception_4d/relu_pool_proj
I0403 15:40:00.127847 13937 net.cpp:91] Creating Layer inception_4d/relu_pool_proj
I0403 15:40:00.127864 13937 net.cpp:425] inception_4d/relu_pool_proj <- inception_4d/pool_proj
I0403 15:40:00.127882 13937 net.cpp:386] inception_4d/relu_pool_proj -> inception_4d/pool_proj (in-place)
I0403 15:40:00.128060 13937 net.cpp:141] Setting up inception_4d/relu_pool_proj
I0403 15:40:00.128085 13937 net.cpp:148] Top shape: 24 64 14 14 (301056)
I0403 15:40:00.128105 13937 net.cpp:156] Memory required for data: 1147309344
I0403 15:40:00.128121 13937 layer_factory.hpp:77] Creating layer inception_4d/output
I0403 15:40:00.128141 13937 net.cpp:91] Creating Layer inception_4d/output
I0403 15:40:00.128159 13937 net.cpp:425] inception_4d/output <- inception_4d/1x1
I0403 15:40:00.128175 13937 net.cpp:425] inception_4d/output <- inception_4d/3x3
I0403 15:40:00.128190 13937 net.cpp:425] inception_4d/output <- inception_4d/5x5
I0403 15:40:00.128206 13937 net.cpp:425] inception_4d/output <- inception_4d/pool_proj
I0403 15:40:00.128222 13937 net.cpp:399] inception_4d/output -> inception_4d/output
I0403 15:40:00.128270 13937 net.cpp:141] Setting up inception_4d/output
I0403 15:40:00.128293 13937 net.cpp:148] Top shape: 24 528 14 14 (2483712)
I0403 15:40:00.128307 13937 net.cpp:156] Memory required for data: 1157244192
I0403 15:40:00.128320 13937 layer_factory.hpp:77] Creating layer inception_4d/output_inception_4d/output_0_split
I0403 15:40:00.128337 13937 net.cpp:91] Creating Layer inception_4d/output_inception_4d/output_0_split
I0403 15:40:00.128352 13937 net.cpp:425] inception_4d/output_inception_4d/output_0_split <- inception_4d/output
I0403 15:40:00.128371 13937 net.cpp:399] inception_4d/output_inception_4d/output_0_split -> inception_4d/output_inception_4d/output_0_split_0
I0403 15:40:00.128392 13937 net.cpp:399] inception_4d/output_inception_4d/output_0_split -> inception_4d/output_inception_4d/output_0_split_1
I0403 15:40:00.128412 13937 net.cpp:399] inception_4d/output_inception_4d/output_0_split -> inception_4d/output_inception_4d/output_0_split_2
I0403 15:40:00.128432 13937 net.cpp:399] inception_4d/output_inception_4d/output_0_split -> inception_4d/output_inception_4d/output_0_split_3
I0403 15:40:00.128451 13937 net.cpp:399] inception_4d/output_inception_4d/output_0_split -> inception_4d/output_inception_4d/output_0_split_4
I0403 15:40:00.128556 13937 net.cpp:141] Setting up inception_4d/output_inception_4d/output_0_split
I0403 15:40:00.128592 13937 net.cpp:148] Top shape: 24 528 14 14 (2483712)
I0403 15:40:00.128607 13937 net.cpp:148] Top shape: 24 528 14 14 (2483712)
I0403 15:40:00.128621 13937 net.cpp:148] Top shape: 24 528 14 14 (2483712)
I0403 15:40:00.128636 13937 net.cpp:148] Top shape: 24 528 14 14 (2483712)
I0403 15:40:00.128650 13937 net.cpp:148] Top shape: 24 528 14 14 (2483712)
I0403 15:40:00.128666 13937 net.cpp:156] Memory required for data: 1206918432
I0403 15:40:00.128681 13937 layer_factory.hpp:77] Creating layer loss2/ave_pool
I0403 15:40:00.128701 13937 net.cpp:91] Creating Layer loss2/ave_pool
I0403 15:40:00.128717 13937 net.cpp:425] loss2/ave_pool <- inception_4d/output_inception_4d/output_0_split_0
I0403 15:40:00.128737 13937 net.cpp:399] loss2/ave_pool -> loss2/ave_pool
I0403 15:40:00.129047 13937 net.cpp:141] Setting up loss2/ave_pool
I0403 15:40:00.129073 13937 net.cpp:148] Top shape: 24 528 4 4 (202752)
I0403 15:40:00.129088 13937 net.cpp:156] Memory required for data: 1207729440
I0403 15:40:00.129108 13937 layer_factory.hpp:77] Creating layer loss2/conv
I0403 15:40:00.129132 13937 net.cpp:91] Creating Layer loss2/conv
I0403 15:40:00.129150 13937 net.cpp:425] loss2/conv <- loss2/ave_pool
I0403 15:40:00.129171 13937 net.cpp:399] loss2/conv -> loss2/conv
I0403 15:40:00.131026 13937 net.cpp:141] Setting up loss2/conv
I0403 15:40:00.131055 13937 net.cpp:148] Top shape: 24 128 4 4 (49152)
I0403 15:40:00.131069 13937 net.cpp:156] Memory required for data: 1207926048
I0403 15:40:00.131088 13937 layer_factory.hpp:77] Creating layer loss2/relu_conv
I0403 15:40:00.131114 13937 net.cpp:91] Creating Layer loss2/relu_conv
I0403 15:40:00.131131 13937 net.cpp:425] loss2/relu_conv <- loss2/conv
I0403 15:40:00.131150 13937 net.cpp:386] loss2/relu_conv -> loss2/conv (in-place)
I0403 15:40:00.131434 13937 net.cpp:141] Setting up loss2/relu_conv
I0403 15:40:00.131460 13937 net.cpp:148] Top shape: 24 128 4 4 (49152)
I0403 15:40:00.131474 13937 net.cpp:156] Memory required for data: 1208122656
I0403 15:40:00.131489 13937 layer_factory.hpp:77] Creating layer loss2/fc
I0403 15:40:00.131510 13937 net.cpp:91] Creating Layer loss2/fc
I0403 15:40:00.131527 13937 net.cpp:425] loss2/fc <- loss2/conv
I0403 15:40:00.131548 13937 net.cpp:399] loss2/fc -> loss2/fc
I0403 15:40:00.149050 13937 net.cpp:141] Setting up loss2/fc
I0403 15:40:00.149091 13937 net.cpp:148] Top shape: 24 1024 (24576)
I0403 15:40:00.149111 13937 net.cpp:156] Memory required for data: 1208220960
I0403 15:40:00.149129 13937 layer_factory.hpp:77] Creating layer loss2/relu_fc
I0403 15:40:00.149147 13937 net.cpp:91] Creating Layer loss2/relu_fc
I0403 15:40:00.149164 13937 net.cpp:425] loss2/relu_fc <- loss2/fc
I0403 15:40:00.149183 13937 net.cpp:386] loss2/relu_fc -> loss2/fc (in-place)
I0403 15:40:00.149487 13937 net.cpp:141] Setting up loss2/relu_fc
I0403 15:40:00.149513 13937 net.cpp:148] Top shape: 24 1024 (24576)
I0403 15:40:00.149528 13937 net.cpp:156] Memory required for data: 1208319264
I0403 15:40:00.149541 13937 layer_factory.hpp:77] Creating layer loss2/drop_fc
I0403 15:40:00.149559 13937 net.cpp:91] Creating Layer loss2/drop_fc
I0403 15:40:00.149574 13937 net.cpp:425] loss2/drop_fc <- loss2/fc
I0403 15:40:00.149593 13937 net.cpp:386] loss2/drop_fc -> loss2/fc (in-place)
I0403 15:40:00.149646 13937 net.cpp:141] Setting up loss2/drop_fc
I0403 15:40:00.149667 13937 net.cpp:148] Top shape: 24 1024 (24576)
I0403 15:40:00.149682 13937 net.cpp:156] Memory required for data: 1208417568
I0403 15:40:00.149698 13937 layer_factory.hpp:77] Creating layer loss2/classifier_plantvillage
I0403 15:40:00.149716 13937 net.cpp:91] Creating Layer loss2/classifier_plantvillage
I0403 15:40:00.149732 13937 net.cpp:425] loss2/classifier_plantvillage <- loss2/fc
I0403 15:40:00.149752 13937 net.cpp:399] loss2/classifier_plantvillage -> loss2/classifier_plantvillage
I0403 15:40:00.150158 13937 net.cpp:141] Setting up loss2/classifier_plantvillage
I0403 15:40:00.150183 13937 net.cpp:148] Top shape: 24 38 (912)
I0403 15:40:00.150199 13937 net.cpp:156] Memory required for data: 1208421216
I0403 15:40:00.150236 13937 layer_factory.hpp:77] Creating layer loss2/classifier_plantvillage_loss2/classifier_plantvillage_0_split
I0403 15:40:00.150257 13937 net.cpp:91] Creating Layer loss2/classifier_plantvillage_loss2/classifier_plantvillage_0_split
I0403 15:40:00.150274 13937 net.cpp:425] loss2/classifier_plantvillage_loss2/classifier_plantvillage_0_split <- loss2/classifier_plantvillage
I0403 15:40:00.150290 13937 net.cpp:399] loss2/classifier_plantvillage_loss2/classifier_plantvillage_0_split -> loss2/classifier_plantvillage_loss2/classifier_plantvillage_0_split_0
I0403 15:40:00.150313 13937 net.cpp:399] loss2/classifier_plantvillage_loss2/classifier_plantvillage_0_split -> loss2/classifier_plantvillage_loss2/classifier_plantvillage_0_split_1
I0403 15:40:00.150334 13937 net.cpp:399] loss2/classifier_plantvillage_loss2/classifier_plantvillage_0_split -> loss2/classifier_plantvillage_loss2/classifier_plantvillage_0_split_2
I0403 15:40:00.150410 13937 net.cpp:141] Setting up loss2/classifier_plantvillage_loss2/classifier_plantvillage_0_split
I0403 15:40:00.150435 13937 net.cpp:148] Top shape: 24 38 (912)
I0403 15:40:00.150450 13937 net.cpp:148] Top shape: 24 38 (912)
I0403 15:40:00.150465 13937 net.cpp:148] Top shape: 24 38 (912)
I0403 15:40:00.150478 13937 net.cpp:156] Memory required for data: 1208432160
I0403 15:40:00.150492 13937 layer_factory.hpp:77] Creating layer inception_4e/1x1
I0403 15:40:00.150514 13937 net.cpp:91] Creating Layer inception_4e/1x1
I0403 15:40:00.150532 13937 net.cpp:425] inception_4e/1x1 <- inception_4d/output_inception_4d/output_0_split_1
I0403 15:40:00.150549 13937 net.cpp:399] inception_4e/1x1 -> inception_4e/1x1
I0403 15:40:00.152374 13937 net.cpp:141] Setting up inception_4e/1x1
I0403 15:40:00.152416 13937 net.cpp:148] Top shape: 24 256 14 14 (1204224)
I0403 15:40:00.152432 13937 net.cpp:156] Memory required for data: 1213249056
I0403 15:40:00.152451 13937 layer_factory.hpp:77] Creating layer inception_4e/relu_1x1
I0403 15:40:00.152469 13937 net.cpp:91] Creating Layer inception_4e/relu_1x1
I0403 15:40:00.152487 13937 net.cpp:425] inception_4e/relu_1x1 <- inception_4e/1x1
I0403 15:40:00.152505 13937 net.cpp:386] inception_4e/relu_1x1 -> inception_4e/1x1 (in-place)
I0403 15:40:00.152798 13937 net.cpp:141] Setting up inception_4e/relu_1x1
I0403 15:40:00.152827 13937 net.cpp:148] Top shape: 24 256 14 14 (1204224)
I0403 15:40:00.152842 13937 net.cpp:156] Memory required for data: 1218065952
I0403 15:40:00.152854 13937 layer_factory.hpp:77] Creating layer inception_4e/3x3_reduce
I0403 15:40:00.152875 13937 net.cpp:91] Creating Layer inception_4e/3x3_reduce
I0403 15:40:00.152894 13937 net.cpp:425] inception_4e/3x3_reduce <- inception_4d/output_inception_4d/output_0_split_2
I0403 15:40:00.152914 13937 net.cpp:399] inception_4e/3x3_reduce -> inception_4e/3x3_reduce
I0403 15:40:00.155010 13937 net.cpp:141] Setting up inception_4e/3x3_reduce
I0403 15:40:00.155040 13937 net.cpp:148] Top shape: 24 160 14 14 (752640)
I0403 15:40:00.155055 13937 net.cpp:156] Memory required for data: 1221076512
I0403 15:40:00.155073 13937 layer_factory.hpp:77] Creating layer inception_4e/relu_3x3_reduce
I0403 15:40:00.155097 13937 net.cpp:91] Creating Layer inception_4e/relu_3x3_reduce
I0403 15:40:00.155117 13937 net.cpp:425] inception_4e/relu_3x3_reduce <- inception_4e/3x3_reduce
I0403 15:40:00.155133 13937 net.cpp:386] inception_4e/relu_3x3_reduce -> inception_4e/3x3_reduce (in-place)
I0403 15:40:00.155314 13937 net.cpp:141] Setting up inception_4e/relu_3x3_reduce
I0403 15:40:00.155342 13937 net.cpp:148] Top shape: 24 160 14 14 (752640)
I0403 15:40:00.155359 13937 net.cpp:156] Memory required for data: 1224087072
I0403 15:40:00.155372 13937 layer_factory.hpp:77] Creating layer inception_4e/3x3
I0403 15:40:00.155395 13937 net.cpp:91] Creating Layer inception_4e/3x3
I0403 15:40:00.155411 13937 net.cpp:425] inception_4e/3x3 <- inception_4e/3x3_reduce
I0403 15:40:00.155429 13937 net.cpp:399] inception_4e/3x3 -> inception_4e/3x3
I0403 15:40:00.160356 13937 net.cpp:141] Setting up inception_4e/3x3
I0403 15:40:00.160399 13937 net.cpp:148] Top shape: 24 320 14 14 (1505280)
I0403 15:40:00.160415 13937 net.cpp:156] Memory required for data: 1230108192
I0403 15:40:00.160434 13937 layer_factory.hpp:77] Creating layer inception_4e/relu_3x3
I0403 15:40:00.160451 13937 net.cpp:91] Creating Layer inception_4e/relu_3x3
I0403 15:40:00.160467 13937 net.cpp:425] inception_4e/relu_3x3 <- inception_4e/3x3
I0403 15:40:00.160487 13937 net.cpp:386] inception_4e/relu_3x3 -> inception_4e/3x3 (in-place)
I0403 15:40:00.160784 13937 net.cpp:141] Setting up inception_4e/relu_3x3
I0403 15:40:00.160811 13937 net.cpp:148] Top shape: 24 320 14 14 (1505280)
I0403 15:40:00.160826 13937 net.cpp:156] Memory required for data: 1236129312
I0403 15:40:00.160840 13937 layer_factory.hpp:77] Creating layer inception_4e/5x5_reduce
I0403 15:40:00.160863 13937 net.cpp:91] Creating Layer inception_4e/5x5_reduce
I0403 15:40:00.160881 13937 net.cpp:425] inception_4e/5x5_reduce <- inception_4d/output_inception_4d/output_0_split_3
I0403 15:40:00.160902 13937 net.cpp:399] inception_4e/5x5_reduce -> inception_4e/5x5_reduce
I0403 15:40:00.161963 13937 net.cpp:141] Setting up inception_4e/5x5_reduce
I0403 15:40:00.161993 13937 net.cpp:148] Top shape: 24 32 14 14 (150528)
I0403 15:40:00.162010 13937 net.cpp:156] Memory required for data: 1236731424
I0403 15:40:00.162027 13937 layer_factory.hpp:77] Creating layer inception_4e/relu_5x5_reduce
I0403 15:40:00.162045 13937 net.cpp:91] Creating Layer inception_4e/relu_5x5_reduce
I0403 15:40:00.162060 13937 net.cpp:425] inception_4e/relu_5x5_reduce <- inception_4e/5x5_reduce
I0403 15:40:00.162078 13937 net.cpp:386] inception_4e/relu_5x5_reduce -> inception_4e/5x5_reduce (in-place)
I0403 15:40:00.162376 13937 net.cpp:141] Setting up inception_4e/relu_5x5_reduce
I0403 15:40:00.162402 13937 net.cpp:148] Top shape: 24 32 14 14 (150528)
I0403 15:40:00.162420 13937 net.cpp:156] Memory required for data: 1237333536
I0403 15:40:00.162434 13937 layer_factory.hpp:77] Creating layer inception_4e/5x5
I0403 15:40:00.162472 13937 net.cpp:91] Creating Layer inception_4e/5x5
I0403 15:40:00.162492 13937 net.cpp:425] inception_4e/5x5 <- inception_4e/5x5_reduce
I0403 15:40:00.162513 13937 net.cpp:399] inception_4e/5x5 -> inception_4e/5x5
I0403 15:40:00.164327 13937 net.cpp:141] Setting up inception_4e/5x5
I0403 15:40:00.164356 13937 net.cpp:148] Top shape: 24 128 14 14 (602112)
I0403 15:40:00.164371 13937 net.cpp:156] Memory required for data: 1239741984
I0403 15:40:00.164391 13937 layer_factory.hpp:77] Creating layer inception_4e/relu_5x5
I0403 15:40:00.164409 13937 net.cpp:91] Creating Layer inception_4e/relu_5x5
I0403 15:40:00.164427 13937 net.cpp:425] inception_4e/relu_5x5 <- inception_4e/5x5
I0403 15:40:00.164444 13937 net.cpp:386] inception_4e/relu_5x5 -> inception_4e/5x5 (in-place)
I0403 15:40:00.164638 13937 net.cpp:141] Setting up inception_4e/relu_5x5
I0403 15:40:00.164664 13937 net.cpp:148] Top shape: 24 128 14 14 (602112)
I0403 15:40:00.164677 13937 net.cpp:156] Memory required for data: 1242150432
I0403 15:40:00.164692 13937 layer_factory.hpp:77] Creating layer inception_4e/pool
I0403 15:40:00.164712 13937 net.cpp:91] Creating Layer inception_4e/pool
I0403 15:40:00.164728 13937 net.cpp:425] inception_4e/pool <- inception_4d/output_inception_4d/output_0_split_4
I0403 15:40:00.164746 13937 net.cpp:399] inception_4e/pool -> inception_4e/pool
I0403 15:40:00.164816 13937 net.cpp:141] Setting up inception_4e/pool
I0403 15:40:00.164840 13937 net.cpp:148] Top shape: 24 528 14 14 (2483712)
I0403 15:40:00.164855 13937 net.cpp:156] Memory required for data: 1252085280
I0403 15:40:00.164868 13937 layer_factory.hpp:77] Creating layer inception_4e/pool_proj
I0403 15:40:00.164891 13937 net.cpp:91] Creating Layer inception_4e/pool_proj
I0403 15:40:00.164909 13937 net.cpp:425] inception_4e/pool_proj <- inception_4e/pool
I0403 15:40:00.164930 13937 net.cpp:399] inception_4e/pool_proj -> inception_4e/pool_proj
I0403 15:40:00.166450 13937 net.cpp:141] Setting up inception_4e/pool_proj
I0403 15:40:00.166479 13937 net.cpp:148] Top shape: 24 128 14 14 (602112)
I0403 15:40:00.166510 13937 net.cpp:156] Memory required for data: 1254493728
I0403 15:40:00.166529 13937 layer_factory.hpp:77] Creating layer inception_4e/relu_pool_proj
I0403 15:40:00.166550 13937 net.cpp:91] Creating Layer inception_4e/relu_pool_proj
I0403 15:40:00.166566 13937 net.cpp:425] inception_4e/relu_pool_proj <- inception_4e/pool_proj
I0403 15:40:00.166584 13937 net.cpp:386] inception_4e/relu_pool_proj -> inception_4e/pool_proj (in-place)
I0403 15:40:00.166877 13937 net.cpp:141] Setting up inception_4e/relu_pool_proj
I0403 15:40:00.166903 13937 net.cpp:148] Top shape: 24 128 14 14 (602112)
I0403 15:40:00.166918 13937 net.cpp:156] Memory required for data: 1256902176
I0403 15:40:00.166932 13937 layer_factory.hpp:77] Creating layer inception_4e/output
I0403 15:40:00.166949 13937 net.cpp:91] Creating Layer inception_4e/output
I0403 15:40:00.166965 13937 net.cpp:425] inception_4e/output <- inception_4e/1x1
I0403 15:40:00.166981 13937 net.cpp:425] inception_4e/output <- inception_4e/3x3
I0403 15:40:00.166997 13937 net.cpp:425] inception_4e/output <- inception_4e/5x5
I0403 15:40:00.167012 13937 net.cpp:425] inception_4e/output <- inception_4e/pool_proj
I0403 15:40:00.167032 13937 net.cpp:399] inception_4e/output -> inception_4e/output
I0403 15:40:00.167080 13937 net.cpp:141] Setting up inception_4e/output
I0403 15:40:00.167114 13937 net.cpp:148] Top shape: 24 832 14 14 (3913728)
I0403 15:40:00.167131 13937 net.cpp:156] Memory required for data: 1272557088
I0403 15:40:00.167145 13937 layer_factory.hpp:77] Creating layer pool4/3x3_s2
I0403 15:40:00.167163 13937 net.cpp:91] Creating Layer pool4/3x3_s2
I0403 15:40:00.167178 13937 net.cpp:425] pool4/3x3_s2 <- inception_4e/output
I0403 15:40:00.167201 13937 net.cpp:399] pool4/3x3_s2 -> pool4/3x3_s2
I0403 15:40:00.167268 13937 net.cpp:141] Setting up pool4/3x3_s2
I0403 15:40:00.167291 13937 net.cpp:148] Top shape: 24 832 7 7 (978432)
I0403 15:40:00.167304 13937 net.cpp:156] Memory required for data: 1276470816
I0403 15:40:00.167317 13937 layer_factory.hpp:77] Creating layer pool4/3x3_s2_pool4/3x3_s2_0_split
I0403 15:40:00.167338 13937 net.cpp:91] Creating Layer pool4/3x3_s2_pool4/3x3_s2_0_split
I0403 15:40:00.167354 13937 net.cpp:425] pool4/3x3_s2_pool4/3x3_s2_0_split <- pool4/3x3_s2
I0403 15:40:00.167371 13937 net.cpp:399] pool4/3x3_s2_pool4/3x3_s2_0_split -> pool4/3x3_s2_pool4/3x3_s2_0_split_0
I0403 15:40:00.167392 13937 net.cpp:399] pool4/3x3_s2_pool4/3x3_s2_0_split -> pool4/3x3_s2_pool4/3x3_s2_0_split_1
I0403 15:40:00.167412 13937 net.cpp:399] pool4/3x3_s2_pool4/3x3_s2_0_split -> pool4/3x3_s2_pool4/3x3_s2_0_split_2
I0403 15:40:00.167433 13937 net.cpp:399] pool4/3x3_s2_pool4/3x3_s2_0_split -> pool4/3x3_s2_pool4/3x3_s2_0_split_3
I0403 15:40:00.167523 13937 net.cpp:141] Setting up pool4/3x3_s2_pool4/3x3_s2_0_split
I0403 15:40:00.167547 13937 net.cpp:148] Top shape: 24 832 7 7 (978432)
I0403 15:40:00.167562 13937 net.cpp:148] Top shape: 24 832 7 7 (978432)
I0403 15:40:00.167575 13937 net.cpp:148] Top shape: 24 832 7 7 (978432)
I0403 15:40:00.167590 13937 net.cpp:148] Top shape: 24 832 7 7 (978432)
I0403 15:40:00.167603 13937 net.cpp:156] Memory required for data: 1292125728
I0403 15:40:00.167618 13937 layer_factory.hpp:77] Creating layer inception_5a/1x1
I0403 15:40:00.167640 13937 net.cpp:91] Creating Layer inception_5a/1x1
I0403 15:40:00.167657 13937 net.cpp:425] inception_5a/1x1 <- pool4/3x3_s2_pool4/3x3_s2_0_split_0
I0403 15:40:00.167677 13937 net.cpp:399] inception_5a/1x1 -> inception_5a/1x1
I0403 15:40:00.170466 13937 net.cpp:141] Setting up inception_5a/1x1
I0403 15:40:00.170496 13937 net.cpp:148] Top shape: 24 256 7 7 (301056)
I0403 15:40:00.170511 13937 net.cpp:156] Memory required for data: 1293329952
I0403 15:40:00.170529 13937 layer_factory.hpp:77] Creating layer inception_5a/relu_1x1
I0403 15:40:00.170549 13937 net.cpp:91] Creating Layer inception_5a/relu_1x1
I0403 15:40:00.170567 13937 net.cpp:425] inception_5a/relu_1x1 <- inception_5a/1x1
I0403 15:40:00.170583 13937 net.cpp:386] inception_5a/relu_1x1 -> inception_5a/1x1 (in-place)
I0403 15:40:00.170902 13937 net.cpp:141] Setting up inception_5a/relu_1x1
I0403 15:40:00.170928 13937 net.cpp:148] Top shape: 24 256 7 7 (301056)
I0403 15:40:00.170943 13937 net.cpp:156] Memory required for data: 1294534176
I0403 15:40:00.170958 13937 layer_factory.hpp:77] Creating layer inception_5a/3x3_reduce
I0403 15:40:00.170979 13937 net.cpp:91] Creating Layer inception_5a/3x3_reduce
I0403 15:40:00.170997 13937 net.cpp:425] inception_5a/3x3_reduce <- pool4/3x3_s2_pool4/3x3_s2_0_split_1
I0403 15:40:00.171018 13937 net.cpp:399] inception_5a/3x3_reduce -> inception_5a/3x3_reduce
I0403 15:40:00.173473 13937 net.cpp:141] Setting up inception_5a/3x3_reduce
I0403 15:40:00.173502 13937 net.cpp:148] Top shape: 24 160 7 7 (188160)
I0403 15:40:00.173517 13937 net.cpp:156] Memory required for data: 1295286816
I0403 15:40:00.173534 13937 layer_factory.hpp:77] Creating layer inception_5a/relu_3x3_reduce
I0403 15:40:00.173553 13937 net.cpp:91] Creating Layer inception_5a/relu_3x3_reduce
I0403 15:40:00.173573 13937 net.cpp:425] inception_5a/relu_3x3_reduce <- inception_5a/3x3_reduce
I0403 15:40:00.173591 13937 net.cpp:386] inception_5a/relu_3x3_reduce -> inception_5a/3x3_reduce (in-place)
I0403 15:40:00.173779 13937 net.cpp:141] Setting up inception_5a/relu_3x3_reduce
I0403 15:40:00.173804 13937 net.cpp:148] Top shape: 24 160 7 7 (188160)
I0403 15:40:00.173820 13937 net.cpp:156] Memory required for data: 1296039456
I0403 15:40:00.173837 13937 layer_factory.hpp:77] Creating layer inception_5a/3x3
I0403 15:40:00.173861 13937 net.cpp:91] Creating Layer inception_5a/3x3
I0403 15:40:00.173878 13937 net.cpp:425] inception_5a/3x3 <- inception_5a/3x3_reduce
I0403 15:40:00.173902 13937 net.cpp:399] inception_5a/3x3 -> inception_5a/3x3
I0403 15:40:00.178802 13937 net.cpp:141] Setting up inception_5a/3x3
I0403 15:40:00.178831 13937 net.cpp:148] Top shape: 24 320 7 7 (376320)
I0403 15:40:00.178848 13937 net.cpp:156] Memory required for data: 1297544736
I0403 15:40:00.178865 13937 layer_factory.hpp:77] Creating layer inception_5a/relu_3x3
I0403 15:40:00.178885 13937 net.cpp:91] Creating Layer inception_5a/relu_3x3
I0403 15:40:00.178903 13937 net.cpp:425] inception_5a/relu_3x3 <- inception_5a/3x3
I0403 15:40:00.178920 13937 net.cpp:386] inception_5a/relu_3x3 -> inception_5a/3x3 (in-place)
I0403 15:40:00.179219 13937 net.cpp:141] Setting up inception_5a/relu_3x3
I0403 15:40:00.179246 13937 net.cpp:148] Top shape: 24 320 7 7 (376320)
I0403 15:40:00.179260 13937 net.cpp:156] Memory required for data: 1299050016
I0403 15:40:00.179273 13937 layer_factory.hpp:77] Creating layer inception_5a/5x5_reduce
I0403 15:40:00.179296 13937 net.cpp:91] Creating Layer inception_5a/5x5_reduce
I0403 15:40:00.179316 13937 net.cpp:425] inception_5a/5x5_reduce <- pool4/3x3_s2_pool4/3x3_s2_0_split_2
I0403 15:40:00.179337 13937 net.cpp:399] inception_5a/5x5_reduce -> inception_5a/5x5_reduce
I0403 15:40:00.180493 13937 net.cpp:141] Setting up inception_5a/5x5_reduce
I0403 15:40:00.180521 13937 net.cpp:148] Top shape: 24 32 7 7 (37632)
I0403 15:40:00.180536 13937 net.cpp:156] Memory required for data: 1299200544
I0403 15:40:00.180554 13937 layer_factory.hpp:77] Creating layer inception_5a/relu_5x5_reduce
I0403 15:40:00.180573 13937 net.cpp:91] Creating Layer inception_5a/relu_5x5_reduce
I0403 15:40:00.180591 13937 net.cpp:425] inception_5a/relu_5x5_reduce <- inception_5a/5x5_reduce
I0403 15:40:00.180610 13937 net.cpp:386] inception_5a/relu_5x5_reduce -> inception_5a/5x5_reduce (in-place)
I0403 15:40:00.180908 13937 net.cpp:141] Setting up inception_5a/relu_5x5_reduce
I0403 15:40:00.180934 13937 net.cpp:148] Top shape: 24 32 7 7 (37632)
I0403 15:40:00.180948 13937 net.cpp:156] Memory required for data: 1299351072
I0403 15:40:00.180963 13937 layer_factory.hpp:77] Creating layer inception_5a/5x5
I0403 15:40:00.180986 13937 net.cpp:91] Creating Layer inception_5a/5x5
I0403 15:40:00.181004 13937 net.cpp:425] inception_5a/5x5 <- inception_5a/5x5_reduce
I0403 15:40:00.181021 13937 net.cpp:399] inception_5a/5x5 -> inception_5a/5x5
I0403 15:40:00.182740 13937 net.cpp:141] Setting up inception_5a/5x5
I0403 15:40:00.182780 13937 net.cpp:148] Top shape: 24 128 7 7 (150528)
I0403 15:40:00.182797 13937 net.cpp:156] Memory required for data: 1299953184
I0403 15:40:00.182816 13937 layer_factory.hpp:77] Creating layer inception_5a/relu_5x5
I0403 15:40:00.182835 13937 net.cpp:91] Creating Layer inception_5a/relu_5x5
I0403 15:40:00.182852 13937 net.cpp:425] inception_5a/relu_5x5 <- inception_5a/5x5
I0403 15:40:00.182869 13937 net.cpp:386] inception_5a/relu_5x5 -> inception_5a/5x5 (in-place)
I0403 15:40:00.183059 13937 net.cpp:141] Setting up inception_5a/relu_5x5
I0403 15:40:00.183084 13937 net.cpp:148] Top shape: 24 128 7 7 (150528)
I0403 15:40:00.183109 13937 net.cpp:156] Memory required for data: 1300555296
I0403 15:40:00.183127 13937 layer_factory.hpp:77] Creating layer inception_5a/pool
I0403 15:40:00.183150 13937 net.cpp:91] Creating Layer inception_5a/pool
I0403 15:40:00.183166 13937 net.cpp:425] inception_5a/pool <- pool4/3x3_s2_pool4/3x3_s2_0_split_3
I0403 15:40:00.183187 13937 net.cpp:399] inception_5a/pool -> inception_5a/pool
I0403 15:40:00.183255 13937 net.cpp:141] Setting up inception_5a/pool
I0403 15:40:00.183279 13937 net.cpp:148] Top shape: 24 832 7 7 (978432)
I0403 15:40:00.183295 13937 net.cpp:156] Memory required for data: 1304469024
I0403 15:40:00.183307 13937 layer_factory.hpp:77] Creating layer inception_5a/pool_proj
I0403 15:40:00.183328 13937 net.cpp:91] Creating Layer inception_5a/pool_proj
I0403 15:40:00.183347 13937 net.cpp:425] inception_5a/pool_proj <- inception_5a/pool
I0403 15:40:00.183367 13937 net.cpp:399] inception_5a/pool_proj -> inception_5a/pool_proj
I0403 15:40:00.185680 13937 net.cpp:141] Setting up inception_5a/pool_proj
I0403 15:40:00.185711 13937 net.cpp:148] Top shape: 24 128 7 7 (150528)
I0403 15:40:00.185729 13937 net.cpp:156] Memory required for data: 1305071136
I0403 15:40:00.185747 13937 layer_factory.hpp:77] Creating layer inception_5a/relu_pool_proj
I0403 15:40:00.185765 13937 net.cpp:91] Creating Layer inception_5a/relu_pool_proj
I0403 15:40:00.185781 13937 net.cpp:425] inception_5a/relu_pool_proj <- inception_5a/pool_proj
I0403 15:40:00.185799 13937 net.cpp:386] inception_5a/relu_pool_proj -> inception_5a/pool_proj (in-place)
I0403 15:40:00.186091 13937 net.cpp:141] Setting up inception_5a/relu_pool_proj
I0403 15:40:00.186122 13937 net.cpp:148] Top shape: 24 128 7 7 (150528)
I0403 15:40:00.186137 13937 net.cpp:156] Memory required for data: 1305673248
I0403 15:40:00.186151 13937 layer_factory.hpp:77] Creating layer inception_5a/output
I0403 15:40:00.186168 13937 net.cpp:91] Creating Layer inception_5a/output
I0403 15:40:00.186183 13937 net.cpp:425] inception_5a/output <- inception_5a/1x1
I0403 15:40:00.186202 13937 net.cpp:425] inception_5a/output <- inception_5a/3x3
I0403 15:40:00.186218 13937 net.cpp:425] inception_5a/output <- inception_5a/5x5
I0403 15:40:00.186233 13937 net.cpp:425] inception_5a/output <- inception_5a/pool_proj
I0403 15:40:00.186251 13937 net.cpp:399] inception_5a/output -> inception_5a/output
I0403 15:40:00.186300 13937 net.cpp:141] Setting up inception_5a/output
I0403 15:40:00.186326 13937 net.cpp:148] Top shape: 24 832 7 7 (978432)
I0403 15:40:00.186341 13937 net.cpp:156] Memory required for data: 1309586976
I0403 15:40:00.186357 13937 layer_factory.hpp:77] Creating layer inception_5a/output_inception_5a/output_0_split
I0403 15:40:00.186374 13937 net.cpp:91] Creating Layer inception_5a/output_inception_5a/output_0_split
I0403 15:40:00.186390 13937 net.cpp:425] inception_5a/output_inception_5a/output_0_split <- inception_5a/output
I0403 15:40:00.186408 13937 net.cpp:399] inception_5a/output_inception_5a/output_0_split -> inception_5a/output_inception_5a/output_0_split_0
I0403 15:40:00.186429 13937 net.cpp:399] inception_5a/output_inception_5a/output_0_split -> inception_5a/output_inception_5a/output_0_split_1
I0403 15:40:00.186449 13937 net.cpp:399] inception_5a/output_inception_5a/output_0_split -> inception_5a/output_inception_5a/output_0_split_2
I0403 15:40:00.186467 13937 net.cpp:399] inception_5a/output_inception_5a/output_0_split -> inception_5a/output_inception_5a/output_0_split_3
I0403 15:40:00.186578 13937 net.cpp:141] Setting up inception_5a/output_inception_5a/output_0_split
I0403 15:40:00.186602 13937 net.cpp:148] Top shape: 24 832 7 7 (978432)
I0403 15:40:00.186617 13937 net.cpp:148] Top shape: 24 832 7 7 (978432)
I0403 15:40:00.186633 13937 net.cpp:148] Top shape: 24 832 7 7 (978432)
I0403 15:40:00.186650 13937 net.cpp:148] Top shape: 24 832 7 7 (978432)
I0403 15:40:00.186664 13937 net.cpp:156] Memory required for data: 1325241888
I0403 15:40:00.186678 13937 layer_factory.hpp:77] Creating layer inception_5b/1x1
I0403 15:40:00.186700 13937 net.cpp:91] Creating Layer inception_5b/1x1
I0403 15:40:00.186717 13937 net.cpp:425] inception_5b/1x1 <- inception_5a/output_inception_5a/output_0_split_0
I0403 15:40:00.186734 13937 net.cpp:399] inception_5b/1x1 -> inception_5b/1x1
I0403 15:40:00.190438 13937 net.cpp:141] Setting up inception_5b/1x1
I0403 15:40:00.190466 13937 net.cpp:148] Top shape: 24 384 7 7 (451584)
I0403 15:40:00.190484 13937 net.cpp:156] Memory required for data: 1327048224
I0403 15:40:00.190505 13937 layer_factory.hpp:77] Creating layer inception_5b/relu_1x1
I0403 15:40:00.190524 13937 net.cpp:91] Creating Layer inception_5b/relu_1x1
I0403 15:40:00.190539 13937 net.cpp:425] inception_5b/relu_1x1 <- inception_5b/1x1
I0403 15:40:00.190558 13937 net.cpp:386] inception_5b/relu_1x1 -> inception_5b/1x1 (in-place)
I0403 15:40:00.190862 13937 net.cpp:141] Setting up inception_5b/relu_1x1
I0403 15:40:00.190889 13937 net.cpp:148] Top shape: 24 384 7 7 (451584)
I0403 15:40:00.190903 13937 net.cpp:156] Memory required for data: 1328854560
I0403 15:40:00.190917 13937 layer_factory.hpp:77] Creating layer inception_5b/3x3_reduce
I0403 15:40:00.190939 13937 net.cpp:91] Creating Layer inception_5b/3x3_reduce
I0403 15:40:00.190958 13937 net.cpp:425] inception_5b/3x3_reduce <- inception_5a/output_inception_5a/output_0_split_1
I0403 15:40:00.190980 13937 net.cpp:399] inception_5b/3x3_reduce -> inception_5b/3x3_reduce
I0403 15:40:00.193599 13937 net.cpp:141] Setting up inception_5b/3x3_reduce
I0403 15:40:00.193630 13937 net.cpp:148] Top shape: 24 192 7 7 (225792)
I0403 15:40:00.193646 13937 net.cpp:156] Memory required for data: 1329757728
I0403 15:40:00.193665 13937 layer_factory.hpp:77] Creating layer inception_5b/relu_3x3_reduce
I0403 15:40:00.193682 13937 net.cpp:91] Creating Layer inception_5b/relu_3x3_reduce
I0403 15:40:00.193701 13937 net.cpp:425] inception_5b/relu_3x3_reduce <- inception_5b/3x3_reduce
I0403 15:40:00.193719 13937 net.cpp:386] inception_5b/relu_3x3_reduce -> inception_5b/3x3_reduce (in-place)
I0403 15:40:00.193922 13937 net.cpp:141] Setting up inception_5b/relu_3x3_reduce
I0403 15:40:00.193948 13937 net.cpp:148] Top shape: 24 192 7 7 (225792)
I0403 15:40:00.193963 13937 net.cpp:156] Memory required for data: 1330660896
I0403 15:40:00.193975 13937 layer_factory.hpp:77] Creating layer inception_5b/3x3
I0403 15:40:00.193999 13937 net.cpp:91] Creating Layer inception_5b/3x3
I0403 15:40:00.194015 13937 net.cpp:425] inception_5b/3x3 <- inception_5b/3x3_reduce
I0403 15:40:00.194036 13937 net.cpp:399] inception_5b/3x3 -> inception_5b/3x3
I0403 15:40:00.200613 13937 net.cpp:141] Setting up inception_5b/3x3
I0403 15:40:00.200641 13937 net.cpp:148] Top shape: 24 384 7 7 (451584)
I0403 15:40:00.200659 13937 net.cpp:156] Memory required for data: 1332467232
I0403 15:40:00.200677 13937 layer_factory.hpp:77] Creating layer inception_5b/relu_3x3
I0403 15:40:00.200695 13937 net.cpp:91] Creating Layer inception_5b/relu_3x3
I0403 15:40:00.200711 13937 net.cpp:425] inception_5b/relu_3x3 <- inception_5b/3x3
I0403 15:40:00.200731 13937 net.cpp:386] inception_5b/relu_3x3 -> inception_5b/3x3 (in-place)
I0403 15:40:00.201031 13937 net.cpp:141] Setting up inception_5b/relu_3x3
I0403 15:40:00.201057 13937 net.cpp:148] Top shape: 24 384 7 7 (451584)
I0403 15:40:00.201071 13937 net.cpp:156] Memory required for data: 1334273568
I0403 15:40:00.201086 13937 layer_factory.hpp:77] Creating layer inception_5b/5x5_reduce
I0403 15:40:00.201128 13937 net.cpp:91] Creating Layer inception_5b/5x5_reduce
I0403 15:40:00.201148 13937 net.cpp:425] inception_5b/5x5_reduce <- inception_5a/output_inception_5a/output_0_split_2
I0403 15:40:00.201170 13937 net.cpp:399] inception_5b/5x5_reduce -> inception_5b/5x5_reduce
I0403 15:40:00.202427 13937 net.cpp:141] Setting up inception_5b/5x5_reduce
I0403 15:40:00.202456 13937 net.cpp:148] Top shape: 24 48 7 7 (56448)
I0403 15:40:00.202471 13937 net.cpp:156] Memory required for data: 1334499360
I0403 15:40:00.202489 13937 layer_factory.hpp:77] Creating layer inception_5b/relu_5x5_reduce
I0403 15:40:00.202509 13937 net.cpp:91] Creating Layer inception_5b/relu_5x5_reduce
I0403 15:40:00.202529 13937 net.cpp:425] inception_5b/relu_5x5_reduce <- inception_5b/5x5_reduce
I0403 15:40:00.202548 13937 net.cpp:386] inception_5b/relu_5x5_reduce -> inception_5b/5x5_reduce (in-place)
I0403 15:40:00.202919 13937 net.cpp:141] Setting up inception_5b/relu_5x5_reduce
I0403 15:40:00.202947 13937 net.cpp:148] Top shape: 24 48 7 7 (56448)
I0403 15:40:00.202965 13937 net.cpp:156] Memory required for data: 1334725152
I0403 15:40:00.202980 13937 layer_factory.hpp:77] Creating layer inception_5b/5x5
I0403 15:40:00.202997 13937 net.cpp:91] Creating Layer inception_5b/5x5
I0403 15:40:00.203014 13937 net.cpp:425] inception_5b/5x5 <- inception_5b/5x5_reduce
I0403 15:40:00.203032 13937 net.cpp:399] inception_5b/5x5 -> inception_5b/5x5
I0403 15:40:00.205060 13937 net.cpp:141] Setting up inception_5b/5x5
I0403 15:40:00.205088 13937 net.cpp:148] Top shape: 24 128 7 7 (150528)
I0403 15:40:00.205111 13937 net.cpp:156] Memory required for data: 1335327264
I0403 15:40:00.205132 13937 layer_factory.hpp:77] Creating layer inception_5b/relu_5x5
I0403 15:40:00.205153 13937 net.cpp:91] Creating Layer inception_5b/relu_5x5
I0403 15:40:00.205170 13937 net.cpp:425] inception_5b/relu_5x5 <- inception_5b/5x5
I0403 15:40:00.205188 13937 net.cpp:386] inception_5b/relu_5x5 -> inception_5b/5x5 (in-place)
I0403 15:40:00.205382 13937 net.cpp:141] Setting up inception_5b/relu_5x5
I0403 15:40:00.205410 13937 net.cpp:148] Top shape: 24 128 7 7 (150528)
I0403 15:40:00.205425 13937 net.cpp:156] Memory required for data: 1335929376
I0403 15:40:00.205438 13937 layer_factory.hpp:77] Creating layer inception_5b/pool
I0403 15:40:00.205454 13937 net.cpp:91] Creating Layer inception_5b/pool
I0403 15:40:00.205469 13937 net.cpp:425] inception_5b/pool <- inception_5a/output_inception_5a/output_0_split_3
I0403 15:40:00.205487 13937 net.cpp:399] inception_5b/pool -> inception_5b/pool
I0403 15:40:00.205559 13937 net.cpp:141] Setting up inception_5b/pool
I0403 15:40:00.205584 13937 net.cpp:148] Top shape: 24 832 7 7 (978432)
I0403 15:40:00.205597 13937 net.cpp:156] Memory required for data: 1339843104
I0403 15:40:00.205611 13937 layer_factory.hpp:77] Creating layer inception_5b/pool_proj
I0403 15:40:00.205632 13937 net.cpp:91] Creating Layer inception_5b/pool_proj
I0403 15:40:00.205651 13937 net.cpp:425] inception_5b/pool_proj <- inception_5b/pool
I0403 15:40:00.205670 13937 net.cpp:399] inception_5b/pool_proj -> inception_5b/pool_proj
I0403 15:40:00.207975 13937 net.cpp:141] Setting up inception_5b/pool_proj
I0403 15:40:00.208005 13937 net.cpp:148] Top shape: 24 128 7 7 (150528)
I0403 15:40:00.208021 13937 net.cpp:156] Memory required for data: 1340445216
I0403 15:40:00.208039 13937 layer_factory.hpp:77] Creating layer inception_5b/relu_pool_proj
I0403 15:40:00.208060 13937 net.cpp:91] Creating Layer inception_5b/relu_pool_proj
I0403 15:40:00.208078 13937 net.cpp:425] inception_5b/relu_pool_proj <- inception_5b/pool_proj
I0403 15:40:00.208101 13937 net.cpp:386] inception_5b/relu_pool_proj -> inception_5b/pool_proj (in-place)
I0403 15:40:00.208400 13937 net.cpp:141] Setting up inception_5b/relu_pool_proj
I0403 15:40:00.208427 13937 net.cpp:148] Top shape: 24 128 7 7 (150528)
I0403 15:40:00.208441 13937 net.cpp:156] Memory required for data: 1341047328
I0403 15:40:00.208456 13937 layer_factory.hpp:77] Creating layer inception_5b/output
I0403 15:40:00.208474 13937 net.cpp:91] Creating Layer inception_5b/output
I0403 15:40:00.208503 13937 net.cpp:425] inception_5b/output <- inception_5b/1x1
I0403 15:40:00.208525 13937 net.cpp:425] inception_5b/output <- inception_5b/3x3
I0403 15:40:00.208541 13937 net.cpp:425] inception_5b/output <- inception_5b/5x5
I0403 15:40:00.208557 13937 net.cpp:425] inception_5b/output <- inception_5b/pool_proj
I0403 15:40:00.208573 13937 net.cpp:399] inception_5b/output -> inception_5b/output
I0403 15:40:00.208622 13937 net.cpp:141] Setting up inception_5b/output
I0403 15:40:00.208649 13937 net.cpp:148] Top shape: 24 1024 7 7 (1204224)
I0403 15:40:00.208665 13937 net.cpp:156] Memory required for data: 1345864224
I0403 15:40:00.208680 13937 layer_factory.hpp:77] Creating layer pool5/7x7_s1
I0403 15:40:00.208696 13937 net.cpp:91] Creating Layer pool5/7x7_s1
I0403 15:40:00.208714 13937 net.cpp:425] pool5/7x7_s1 <- inception_5b/output
I0403 15:40:00.208735 13937 net.cpp:399] pool5/7x7_s1 -> pool5/7x7_s1
I0403 15:40:00.208955 13937 net.cpp:141] Setting up pool5/7x7_s1
I0403 15:40:00.208981 13937 net.cpp:148] Top shape: 24 1024 1 1 (24576)
I0403 15:40:00.208997 13937 net.cpp:156] Memory required for data: 1345962528
I0403 15:40:00.209013 13937 layer_factory.hpp:77] Creating layer pool5/drop_7x7_s1
I0403 15:40:00.209033 13937 net.cpp:91] Creating Layer pool5/drop_7x7_s1
I0403 15:40:00.209048 13937 net.cpp:425] pool5/drop_7x7_s1 <- pool5/7x7_s1
I0403 15:40:00.209065 13937 net.cpp:386] pool5/drop_7x7_s1 -> pool5/7x7_s1 (in-place)
I0403 15:40:00.209120 13937 net.cpp:141] Setting up pool5/drop_7x7_s1
I0403 15:40:00.209143 13937 net.cpp:148] Top shape: 24 1024 1 1 (24576)
I0403 15:40:00.209157 13937 net.cpp:156] Memory required for data: 1346060832
I0403 15:40:00.209172 13937 layer_factory.hpp:77] Creating layer loss3/classifier_plantvillage
I0403 15:40:00.209189 13937 net.cpp:91] Creating Layer loss3/classifier_plantvillage
I0403 15:40:00.209205 13937 net.cpp:425] loss3/classifier_plantvillage <- pool5/7x7_s1
I0403 15:40:00.209226 13937 net.cpp:399] loss3/classifier_plantvillage -> loss3/classifier_plantvillage
I0403 15:40:00.209645 13937 net.cpp:141] Setting up loss3/classifier_plantvillage
I0403 15:40:00.209669 13937 net.cpp:148] Top shape: 24 38 (912)
I0403 15:40:00.209683 13937 net.cpp:156] Memory required for data: 1346064480
I0403 15:40:00.209702 13937 layer_factory.hpp:77] Creating layer loss3/classifier_plantvillage_loss3/classifier_plantvillage_0_split
I0403 15:40:00.209718 13937 net.cpp:91] Creating Layer loss3/classifier_plantvillage_loss3/classifier_plantvillage_0_split
I0403 15:40:00.209733 13937 net.cpp:425] loss3/classifier_plantvillage_loss3/classifier_plantvillage_0_split <- loss3/classifier_plantvillage
I0403 15:40:00.209753 13937 net.cpp:399] loss3/classifier_plantvillage_loss3/classifier_plantvillage_0_split -> loss3/classifier_plantvillage_loss3/classifier_plantvillage_0_split_0
I0403 15:40:00.209774 13937 net.cpp:399] loss3/classifier_plantvillage_loss3/classifier_plantvillage_0_split -> loss3/classifier_plantvillage_loss3/classifier_plantvillage_0_split_1
I0403 15:40:00.209794 13937 net.cpp:399] loss3/classifier_plantvillage_loss3/classifier_plantvillage_0_split -> loss3/classifier_plantvillage_loss3/classifier_plantvillage_0_split_2
I0403 15:40:00.209813 13937 net.cpp:399] loss3/classifier_plantvillage_loss3/classifier_plantvillage_0_split -> loss3/classifier_plantvillage_loss3/classifier_plantvillage_0_split_3
I0403 15:40:00.209911 13937 net.cpp:141] Setting up loss3/classifier_plantvillage_loss3/classifier_plantvillage_0_split
I0403 15:40:00.209935 13937 net.cpp:148] Top shape: 24 38 (912)
I0403 15:40:00.209950 13937 net.cpp:148] Top shape: 24 38 (912)
I0403 15:40:00.209967 13937 net.cpp:148] Top shape: 24 38 (912)
I0403 15:40:00.209985 13937 net.cpp:148] Top shape: 24 38 (912)
I0403 15:40:00.210000 13937 net.cpp:156] Memory required for data: 1346079072
I0403 15:40:00.210014 13937 layer_factory.hpp:77] Creating layer loss1/loss
I0403 15:40:00.210037 13937 net.cpp:91] Creating Layer loss1/loss
I0403 15:40:00.210054 13937 net.cpp:425] loss1/loss <- loss1/classifier_plantvillage_loss1/classifier_plantvillage_0_split_0
I0403 15:40:00.210085 13937 net.cpp:425] loss1/loss <- label_data_1_split_0
…
