…
I0403 15:48:28.575459 14465 net.cpp:313] The NetState phase (1) differed from the phase (0) specified by a rule in layer data
I0403 15:48:28.576582 14465 net.cpp:49] Initializing net from parameters: 
state {
  phase: TEST
}
layer {
  name: "data"
  type: "Data"
  top: "data"
  top: "label"
  include {
    phase: TEST
  }
  transform_param {
    mirror: false
    crop_size: 224
    mean_file: "/home/mohanty/data/final_dataset/lmdb/color-80-20/mean.binaryproto"
  }
  data_param {
    source: "/home/mohanty/data/final_dataset/lmdb/color-80-20/test_db"
    batch_size: 24
    backend: LMDB
  }
}
layer {
  name: "conv1/7x7_s2"
  type: "Convolution"
  bottom: "data"
  top: "conv1/7x7_s2"
  param {
    lr_mult: 1
    decay_mult: 1
  }
  param {
    lr_mult: 2
    decay_mult: 0
  }
  convolution_param {
    num_output: 64
    pad: 3
    kernel_size: 7
    stride: 2
    weight_filler {
      type: "xavier"
      std: 0.1
    }
    bias_filler {
      type: "constant"
      value: 0.2
    }
  }
}
layer {
  name: "conv1/relu_7x7"
  type: "ReLU"
  bottom: "conv1/7x7_s2"
  top: "conv1/7x7_s2"
}
layer {
  name: "pool1/3x3_s2"
  type: "Pooling"
  bottom: "conv1/7x7_s2"
  top: "pool1/3x3_s2"
  pooling_param {
    pool: MAX
    kernel_size: 3
    stride: 2
  }
}
layer {
  name: "pool1/norm1"
  type: "LRN"
  bottom: "pool1/3x3_s2"
  top: "pool1/norm1"
  lrn_param {
    local_size: 5
    alpha: 0.0001
    beta: 0.75
  }
}
layer {
  name: "conv2/3x3_reduce"
  type: "Convolution"
  bottom: "pool1/norm1"
  top: "conv2/3x3_reduce"
  param {
    lr_mult: 1
    decay_mult: 1
  }
  param {
    lr_mult: 2
    decay_mult: 0
  }
  convolution_param {
    num_output: 64
    kernel_size: 1
    weight_filler {
      type: "xavier"
      std: 0.1
    }
    bias_filler {
      type: "constant"
      value: 0.2
    }
  }
}
layer {
  name: "conv2/relu_3x3_reduce"
  type: "ReLU"
  bottom: "conv2/3x3_reduce"
  top: "conv2/3x3_reduce"
}
layer {
  name: "conv2/3x3"
  type: "Convolution"
  bottom: "conv2/3x3_reduce"
  top: "conv2/3x3"
  param {
    lr_mult: 1
    decay_mult: 1
  }
  param {
    lr_mult: 2
    decay_mult: 0
  }
  convolution_param {
    num_output: 192
    pad: 1
    kernel_size: 3
    weight_filler {
      type: "xavier"
      std: 0.03
    }
    bias_filler {
      type: "constant"
      value: 0.2
    }
  }
}
layer {
  name: "conv2/relu_3x3"
  type: "ReLU"
  bottom: "conv2/3x3"
  top: "conv2/3x3"
}
layer {
  name: "conv2/norm2"
  type: "LRN"
  bottom: "conv2/3x3"
  top: "conv2/norm2"
  lrn_param {
    local_size: 5
    alpha: 0.0001
    beta: 0.75
  }
}
layer {
  name: "pool2/3x3_s2"
  type: "Pooling"
  bottom: "conv2/norm2"
  top: "pool2/3x3_s2"
  pooling_param {
    pool: MAX
    kernel_size: 3
    stride: 2
  }
}
layer {
  name: "inception_3a/1x1"
  type: "Convolution"
  bottom: "pool2/3x3_s2"
  top: "inception_3a/1x1"
  param {
    lr_mult: 1
    decay_mult: 1
  }
  param {
    lr_mult: 2
    decay_mult: 0
  }
  convolution_param {
    num_output: 64
    kernel_size: 1
    weight_filler {
      type: "xavier"
      std: 0.03
    }
    bias_filler {
      type: "constant"
      value: 0.2
    }
  }
}
layer {
  name: "inception_3a/relu_1x1"
  type: "ReLU"
  bottom: "inception_3a/1x1"
  top: "inception_3a/1x1"
}
layer {
  name: "inception_3a/3x3_reduce"
  type: "Convolution"
  bottom: "pool2/3x3_s2"
  top: "inception_3a/3x3_reduce"
  param {
    lr_mult: 1
    decay_mult: 1
  }
  param {
    lr_mult: 2
    decay_mult: 0
  }
  convolution_param {
    num_output: 96
    kernel_size: 1
    weight_filler {
      type: "xavier"
      std: 0.09
    }
    bias_filler {
      type: "constant"
      value: 0.2
    }
  }
}
layer {
  name: "inception_3a/relu_3x3_reduce"
  type: "ReLU"
  bottom: "inception_3a/3x3_reduce"
  top: "inception_3a/3x3_reduce"
}
layer {
  name: "inception_3a/3x3"
  type: "Convolution"
  bottom: "inception_3a/3x3_reduce"
  top: "inception_3a/3x3"
  param {
    lr_mult: 1
    decay_mult: 1
  }
  param {
    lr_mult: 2
    decay_mult: 0
  }
  convolution_param {
    num_output: 128
    pad: 1
    kernel_size: 3
    weight_filler {
      type: "xavier"
      std: 0.03
    }
    bias_filler {
      type: "constant"
      value: 0.2
    }
  }
}
layer {
  name: "inception_3a/relu_3x3"
  type: "ReLU"
  bottom: "inception_3a/3x3"
  top: "inception_3a/3x3"
}
layer {
  name: "inception_3a/5x5_reduce"
  type: "Convolution"
  bottom: "pool2/3x3_s2"
  top: "inception_3a/5x5_reduce"
  param {
    lr_mult: 1
    decay_mult: 1
  }
  param {
    lr_mult: 2
    decay_mult: 0
  }
  convolution_param {
    num_output: 16
    kernel_size: 1
    weight_filler {
      type: "xavier"
      std: 0.2
    }
    bias_filler {
      type: "constant"
      value: 0.2
    }
  }
}
layer {
  name: "inception_3a/relu_5x5_reduce"
  type: "ReLU"
  bottom: "inception_3a/5x5_reduce"
  top: "inception_3a/5x5_reduce"
}
layer {
  name: "inception_3a/5x5"
  type: "Convolution"
  bottom: "inception_3a/5x5_reduce"
  top: "inception_3a/5x5"
  param {
    lr_mult: 1
    decay_mult: 1
  }
  param {
    lr_mult: 2
    decay_mult: 0
  }
  convolution_param {
    num_output: 32
    pad: 2
    kernel_size: 5
    weight_filler {
      type: "xavier"
      std: 0.03
    }
    bias_filler {
      type: "constant"
      value: 0.2
    }
  }
}
layer {
  name: "inception_3a/relu_5x5"
  type: "ReLU"
  bottom: "inception_3a/5x5"
  top: "inception_3a/5x5"
}
layer {
  name: "inception_3a/pool"
  type: "Pooling"
  bottom: "pool2/3x3_s2"
  top: "inception_3a/pool"
  pooling_param {
    pool: MAX
    kernel_size: 3
    stride: 1
    pad: 1
  }
}
layer {
  name: "inception_3a/pool_proj"
  type: "Convolution"
  bottom: "inception_3a/pool"
  top: "inception_3a/pool_proj"
  param {
    lr_mult: 1
    decay_mult: 1
  }
  param {
    lr_mult: 2
    decay_mult: 0
  }
  convolution_param {
    num_output: 32
    kernel_size: 1
    weight_filler {
      type: "xavier"
      std: 0.1
    }
    bias_filler {
      type: "constant"
      value: 0.2
    }
  }
}
layer {
  name: "inception_3a/relu_pool_proj"
  type: "ReLU"
  bottom: "inception_3a/pool_proj"
  top: "inception_3a/pool_proj"
}
layer {
  name: "inception_3a/output"
  type: "Concat"
  bottom: "inception_3a/1x1"
  bottom: "inception_3a/3x3"
  bottom: "inception_3a/5x5"
  bottom: "inception_3a/pool_proj"
  top: "inception_3a/output"
}
layer {
  name: "inception_3b/1x1"
  type: "Convolution"
  bottom: "inception_3a/output"
  top: "inception_3b/1x1"
  param {
    lr_mult: 1
    decay_mult: 1
  }
  param {
    lr_mult: 2
    decay_mult: 0
  }
  convolution_param {
    num_output: 128
    kernel_size: 1
    weight_filler {
      type: "xavier"
      std: 0.03
    }
    bias_filler {
      type: "constant"
      value: 0.2
    }
  }
}
layer {
  name: "inception_3b/relu_1x1"
  type: "ReLU"
  bottom: "inception_3b/1x1"
  top: "inception_3b/1x1"
}
layer {
  name: "inception_3b/3x3_reduce"
  type: "Convolution"
  bottom: "inception_3a/output"
  top: "inception_3b/3x3_reduce"
  param {
    lr_mult: 1
    decay_mult: 1
  }
  param {
    lr_mult: 2
    decay_mult: 0
  }
  convolution_param {
    num_output: 128
    kernel_size: 1
    weight_filler {
      type: "xavier"
      std: 0.09
    }
    bias_filler {
      type: "constant"
      value: 0.2
    }
  }
}
layer {
  name: "inception_3b/relu_3x3_reduce"
  type: "ReLU"
  bottom: "inception_3b/3x3_reduce"
  top: "inception_3b/3x3_reduce"
}
layer {
  name: "inception_3b/3x3"
  type: "Convolution"
  bottom: "inception_3b/3x3_reduce"
  top: "inception_3b/3x3"
  param {
    lr_mult: 1
    decay_mult: 1
  }
  param {
    lr_mult: 2
    decay_mult: 0
  }
  convolution_param {
    num_output: 192
    pad: 1
    kernel_size: 3
    weight_filler {
      type: "xavier"
      std: 0.03
    }
    bias_filler {
      type: "constant"
      value: 0.2
    }
  }
}
layer {
  name: "inception_3b/relu_3x3"
  type: "ReLU"
  bottom: "inception_3b/3x3"
  top: "inception_3b/3x3"
}
layer {
  name: "inception_3b/5x5_reduce"
  type: "Convolution"
  bottom: "inception_3a/output"
  top: "inception_3b/5x5_reduce"
  param {
    lr_mult: 1
    decay_mult: 1
  }
  param {
    lr_mult: 2
    decay_mult: 0
  }
  convolution_param {
    num_output: 32
    kernel_size: 1
    weight_filler {
      type: "xavier"
      std: 0.2
    }
    bias_filler {
      type: "constant"
      value: 0.2
    }
  }
}
layer {
  name: "inception_3b/relu_5x5_reduce"
  type: "ReLU"
  bottom: "inception_3b/5x5_reduce"
  top: "inception_3b/5x5_reduce"
}
layer {
  name: "inception_3b/5x5"
  type: "Convolution"
  bottom: "inception_3b/5x5_reduce"
  top: "inception_3b/5x5"
  param {
    lr_mult: 1
    decay_mult: 1
  }
  param {
    lr_mult: 2
    decay_mult: 0
  }
  convolution_param {
    num_output: 96
    pad: 2
    kernel_size: 5
    weight_filler {
      type: "xavier"
      std: 0.03
    }
    bias_filler {
      type: "constant"
      value: 0.2
    }
  }
}
layer {
  name: "inception_3b/relu_5x5"
  type: "ReLU"
  bottom: "inception_3b/5x5"
  top: "inception_3b/5x5"
}
layer {
  name: "inception_3b/pool"
  type: "Pooling"
  bottom: "inception_3a/output"
  top: "inception_3b/pool"
  pooling_param {
    pool: MAX
    kernel_size: 3
    stride: 1
    pad: 1
  }
}
layer {
  name: "inception_3b/pool_proj"
  type: "Convolution"
  bottom: "inception_3b/pool"
  top: "inception_3b/pool_proj"
  param {
    lr_mult: 1
    decay_mult: 1
  }
  param {
    lr_mult: 2
    decay_mult: 0
  }
  convolution_param {
    num_output: 64
    kernel_size: 1
    weight_filler {
      type: "xavier"
      std: 0.1
    }
    bias_filler {
      type: "constant"
      value: 0.2
    }
  }
}
layer {
  name: "inception_3b/relu_pool_proj"
  type: "ReLU"
  bottom: "inception_3b/pool_proj"
  top: "inception_3b/pool_proj"
}
layer {
  name: "inception_3b/output"
  type: "Concat"
  bottom: "inception_3b/1x1"
  bottom: "inception_3b/3x3"
  bottom: "inception_3b/5x5"
  bottom: "inception_3b/pool_proj"
  top: "inception_3b/output"
}
layer {
  name: "pool3/3x3_s2"
  type: "Pooling"
  bottom: "inception_3b/output"
  top: "pool3/3x3_s2"
  pooling_param {
    pool: MAX
    kernel_size: 3
    stride: 2
  }
}
layer {
  name: "inception_4a/1x1"
  type: "Convolution"
  bottom: "pool3/3x3_s2"
  top: "inception_4a/1x1"
  param {
    lr_mult: 1
    decay_mult: 1
  }
  param {
    lr_mult: 2
    decay_mult: 0
  }
  convolution_param {
    num_output: 192
    kernel_size: 1
    weight_filler {
      type: "xavier"
      std: 0.03
    }
    bias_filler {
      type: "constant"
      value: 0.2
    }
  }
}
layer {
  name: "inception_4a/relu_1x1"
  type: "ReLU"
  bottom: "inception_4a/1x1"
  top: "inception_4a/1x1"
}
layer {
  name: "inception_4a/3x3_reduce"
  type: "Convolution"
  bottom: "pool3/3x3_s2"
  top: "inception_4a/3x3_reduce"
  param {
    lr_mult: 1
    decay_mult: 1
  }
  param {
    lr_mult: 2
    decay_mult: 0
  }
  convolution_param {
    num_output: 96
    kernel_size: 1
    weight_filler {
      type: "xavier"
      std: 0.09
    }
    bias_filler {
      type: "constant"
      value: 0.2
    }
  }
}
layer {
  name: "inception_4a/relu_3x3_reduce"
  type: "ReLU"
  bottom: "inception_4a/3x3_reduce"
  top: "inception_4a/3x3_reduce"
}
layer {
  name: "inception_4a/3x3"
  type: "Convolution"
  bottom: "inception_4a/3x3_reduce"
  top: "inception_4a/3x3"
  param {
    lr_mult: 1
    decay_mult: 1
  }
  param {
    lr_mult: 2
    decay_mult: 0
  }
  convolution_param {
    num_output: 208
    pad: 1
    kernel_size: 3
    weight_filler {
      type: "xavier"
      std: 0.03
    }
    bias_filler {
      type: "constant"
      value: 0.2
    }
  }
}
layer {
  name: "inception_4a/relu_3x3"
  type: "ReLU"
  bottom: "inception_4a/3x3"
  top: "inception_4a/3x3"
}
layer {
  name: "inception_4a/5x5_reduce"
  type: "Convolution"
  bottom: "pool3/3x3_s2"
  top: "inception_4a/5x5_reduce"
  param {
    lr_mult: 1
    decay_mult: 1
  }
  param {
    lr_mult: 2
    decay_mult: 0
  }
  convolution_param {
    num_output: 16
    kernel_size: 1
    weight_filler {
      type: "xavier"
      std: 0.2
    }
    bias_filler {
      type: "constant"
      value: 0.2
    }
  }
}
layer {
  name: "inception_4a/relu_5x5_reduce"
  type: "ReLU"
  bottom: "inception_4a/5x5_reduce"
  top: "inception_4a/5x5_reduce"
}
layer {
  name: "inception_4a/5x5"
  type: "Convolution"
  bottom: "inception_4a/5x5_reduce"
  top: "inception_4a/5x5"
  param {
    lr_mult: 1
    decay_mult: 1
  }
  param {
    lr_mult: 2
    decay_mult: 0
  }
  convolution_param {
    num_output: 48
    pad: 2
    kernel_size: 5
    weight_filler {
      type: "xavier"
      std: 0.03
    }
    bias_filler {
      type: "constant"
      value: 0.2
    }
  }
}
layer {
  name: "inception_4a/relu_5x5"
  type: "ReLU"
  bottom: "inception_4a/5x5"
  top: "inception_4a/5x5"
}
layer {
  name: "inception_4a/pool"
  type: "Pooling"
  bottom: "pool3/3x3_s2"
  top: "inception_4a/pool"
  pooling_param {
    pool: MAX
    kernel_size: 3
    stride: 1
    pad: 1
  }
}
layer {
  name: "inception_4a/pool_proj"
  type: "Convolution"
  bottom: "inception_4a/pool"
  top: "inception_4a/pool_proj"
  param {
    lr_mult: 1
    decay_mult: 1
  }
  param {
    lr_mult: 2
    decay_mult: 0
  }
  convolution_param {
    num_output: 64
    kernel_size: 1
    weight_filler {
      type: "xavier"
      std: 0.1
    }
    bias_filler {
      type: "constant"
      value: 0.2
    }
  }
}
layer {
  name: "inception_4a/relu_pool_proj"
  type: "ReLU"
  bottom: "inception_4a/pool_proj"
  top: "inception_4a/pool_proj"
}
layer {
  name: "inception_4a/output"
  type: "Concat"
  bottom: "inception_4a/1x1"
  bottom: "inception_4a/3x3"
  bottom: "inception_4a/5x5"
  bottom: "inception_4a/pool_proj"
  top: "inception_4a/output"
}
layer {
  name: "loss1/ave_pool"
  type: "Pooling"
  bottom: "inception_4a/output"
  top: "loss1/ave_pool"
  pooling_param {
    pool: AVE
    kernel_size: 5
    stride: 3
  }
}
layer {
  name: "loss1/conv"
  type: "Convolution"
  bottom: "loss1/ave_pool"
  top: "loss1/conv"
  param {
    lr_mult: 1
    decay_mult: 1
  }
  param {
    lr_mult: 2
    decay_mult: 0
  }
  convolution_param {
    num_output: 128
    kernel_size: 1
    weight_filler {
      type: "xavier"
      std: 0.08
    }
    bias_filler {
      type: "constant"
      value: 0.2
    }
  }
}
layer {
  name: "loss1/relu_conv"
  type: "ReLU"
  bottom: "loss1/conv"
  top: "loss1/conv"
}
layer {
  name: "loss1/fc"
  type: "InnerProduct"
  bottom: "loss1/conv"
  top: "loss1/fc"
  param {
    lr_mult: 1
    decay_mult: 1
  }
  param {
    lr_mult: 2
    decay_mult: 0
  }
  inner_product_param {
    num_output: 1024
    weight_filler {
      type: "xavier"
      std: 0.02
    }
    bias_filler {
      type: "constant"
      value: 0.2
    }
  }
}
layer {
  name: "loss1/relu_fc"
  type: "ReLU"
  bottom: "loss1/fc"
  top: "loss1/fc"
}
layer {
  name: "loss1/drop_fc"
  type: "Dropout"
  bottom: "loss1/fc"
  top: "loss1/fc"
  dropout_param {
    dropout_ratio: 0.7
  }
}
layer {
  name: "loss1/classifier_plantvillage"
  type: "InnerProduct"
  bottom: "loss1/fc"
  top: "loss1/classifier_plantvillage"
  param {
    lr_mult: 1
    decay_mult: 1
  }
  param {
    lr_mult: 2
    decay_mult: 0
  }
  inner_product_param {
    num_output: 38
    weight_filler {
      type: "xavier"
      std: 0.0009765625
    }
    bias_filler {
      type: "constant"
      value: 0
    }
  }
}
layer {
  name: "inception_4b/1x1"
  type: "Convolution"
  bottom: "inception_4a/output"
  top: "inception_4b/1x1"
  param {
    lr_mult: 1
    decay_mult: 1
  }
  param {
    lr_mult: 2
    decay_mult: 0
  }
  convolution_param {
    num_output: 160
    kernel_size: 1
    weight_filler {
      type: "xavier"
      std: 0.03
    }
    bias_filler {
      type: "constant"
      value: 0.2
    }
  }
}
layer {
  name: "inception_4b/relu_1x1"
  type: "ReLU"
  bottom: "inception_4b/1x1"
  top: "inception_4b/1x1"
}
layer {
  name: "inception_4b/3x3_reduce"
  type: "Convolution"
  bottom: "inception_4a/output"
  top: "inception_4b/3x3_reduce"
  param {
    lr_mult: 1
    decay_mult: 1
  }
  param {
    lr_mult: 2
    decay_mult: 0
  }
  convolution_param {
    num_output: 112
    kernel_size: 1
    weight_filler {
      type: "xavier"
      std: 0.09
    }
    bias_filler {
      type: "constant"
      value: 0.2
    }
  }
}
layer {
  name: "inception_4b/relu_3x3_reduce"
  type: "ReLU"
  bottom: "inception_4b/3x3_reduce"
  top: "inception_4b/3x3_reduce"
}
layer {
  name: "inception_4b/3x3"
  type: "Convolution"
  bottom: "inception_4b/3x3_reduce"
  top: "inception_4b/3x3"
  param {
    lr_mult: 1
    decay_mult: 1
  }
  param {
    lr_mult: 2
    decay_mult: 0
  }
  convolution_param {
    num_output: 224
    pad: 1
    kernel_size: 3
    weight_filler {
      type: "xavier"
      std: 0.03
    }
    bias_filler {
      type: "constant"
      value: 0.2
    }
  }
}
layer {
  name: "inception_4b/relu_3x3"
  type: "ReLU"
  bottom: "inception_4b/3x3"
  top: "inception_4b/3x3"
}
layer {
  name: "inception_4b/5x5_reduce"
  type: "Convolution"
  bottom: "inception_4a/output"
  top: "inception_4b/5x5_reduce"
  param {
    lr_mult: 1
    decay_mult: 1
  }
  param {
    lr_mult: 2
    decay_mult: 0
  }
  convolution_param {
    num_output: 24
    kernel_size: 1
    weight_filler {
      type: "xavier"
      std: 0.2
    }
    bias_filler {
      type: "constant"
      value: 0.2
    }
  }
}
layer {
  name: "inception_4b/relu_5x5_reduce"
  type: "ReLU"
  bottom: "inception_4b/5x5_reduce"
  top: "inception_4b/5x5_reduce"
}
layer {
  name: "inception_4b/5x5"
  type: "Convolution"
  bottom: "inception_4b/5x5_reduce"
  top: "inception_4b/5x5"
  param {
    lr_mult: 1
    decay_mult: 1
  }
  param {
    lr_mult: 2
    decay_mult: 0
  }
  convolution_param {
    num_output: 64
    pad: 2
    kernel_size: 5
    weight_filler {
      type: "xavier"
      std: 0.03
    }
    bias_filler {
      type: "constant"
      value: 0.2
    }
  }
}
layer {
  name: "inception_4b/relu_5x5"
  type: "ReLU"
  bottom: "inception_4b/5x5"
  top: "inception_4b/5x5"
}
layer {
  name: "inception_4b/pool"
  type: "Pooling"
  bottom: "inception_4a/output"
  top: "inception_4b/pool"
  pooling_param {
    pool: MAX
    kernel_size: 3
    stride: 1
    pad: 1
  }
}
layer {
  name: "inception_4b/pool_proj"
  type: "Convolution"
  bottom: "inception_4b/pool"
  top: "inception_4b/pool_proj"
  param {
    lr_mult: 1
    decay_mult: 1
  }
  param {
    lr_mult: 2
    decay_mult: 0
  }
  convolution_param {
    num_output: 64
    kernel_size: 1
    weight_filler {
      type: "xavier"
      std: 0.1
    }
    bias_filler {
      type: "constant"
      value: 0.2
    }
  }
}
layer {
  name: "inception_4b/relu_pool_proj"
  type: "ReLU"
  bottom: "inception_4b/pool_proj"
  top: "inception_4b/pool_proj"
}
layer {
  name: "inception_4b/output"
  type: "Concat"
  bottom: "inception_4b/1x1"
  bottom: "inception_4b/3x3"
  bottom: "inception_4b/5x5"
  bottom: "inception_4b/pool_proj"
  top: "inception_4b/output"
}
layer {
  name: "inception_4c/1x1"
  type: "Convolution"
  bottom: "inception_4b/output"
  top: "inception_4c/1x1"
  param {
    lr_mult: 1
    decay_mult: 1
  }
  param {
    lr_mult: 2
    decay_mult: 0
  }
  convolution_param {
    num_output: 128
    kernel_size: 1
    weight_filler {
      type: "xavier"
      std: 0.03
    }
    bias_filler {
      type: "constant"
      value: 0.2
    }
  }
}
layer {
  name: "inception_4c/relu_1x1"
  type: "ReLU"
  bottom: "inception_4c/1x1"
  top: "inception_4c/1x1"
}
layer {
  name: "inception_4c/3x3_reduce"
  type: "Convolution"
  bottom: "inception_4b/output"
  top: "inception_4c/3x3_reduce"
  param {
    lr_mult: 1
    decay_mult: 1
  }
  param {
    lr_mult: 2
    decay_mult: 0
  }
  convolution_param {
    num_output: 128
    kernel_size: 1
    weight_filler {
      type: "xavier"
      std: 0.09
    }
    bias_filler {
      type: "constant"
      value: 0.2
    }
  }
}
layer {
  name: "inception_4c/relu_3x3_reduce"
  type: "ReLU"
  bottom: "inception_4c/3x3_reduce"
  top: "inception_4c/3x3_reduce"
}
layer {
  name: "inception_4c/3x3"
  type: "Convolution"
  bottom: "inception_4c/3x3_reduce"
  top: "inception_4c/3x3"
  param {
    lr_mult: 1
    decay_mult: 1
  }
  param {
    lr_mult: 2
    decay_mult: 0
  }
  convolution_param {
    num_output: 256
    pad: 1
    kernel_size: 3
    weight_filler {
      type: "xavier"
      std: 0.03
    }
    bias_filler {
      type: "constant"
      value: 0.2
    }
  }
}
layer {
  name: "inception_4c/relu_3x3"
  type: "ReLU"
  bottom: "inception_4c/3x3"
  top: "inception_4c/3x3"
}
layer {
  name: "inception_4c/5x5_reduce"
  type: "Convolution"
  bottom: "inception_4b/output"
  top: "inception_4c/5x5_reduce"
  param {
    lr_mult: 1
    decay_mult: 1
  }
  param {
    lr_mult: 2
    decay_mult: 0
  }
  convolution_param {
    num_output: 24
    kernel_size: 1
    weight_filler {
      type: "xavier"
      std: 0.2
    }
    bias_filler {
      type: "constant"
      value: 0.2
    }
  }
}
layer {
  name: "inception_4c/relu_5x5_reduce"
  type: "ReLU"
  bottom: "inception_4c/5x5_reduce"
  top: "inception_4c/5x5_reduce"
}
layer {
  name: "inception_4c/5x5"
  type: "Convolution"
  bottom: "inception_4c/5x5_reduce"
  top: "inception_4c/5x5"
  param {
    lr_mult: 1
    decay_mult: 1
  }
  param {
    lr_mult: 2
    decay_mult: 0
  }
  convolution_param {
    num_output: 64
    pad: 2
    kernel_size: 5
    weight_filler {
      type: "xavier"
      std: 0.03
    }
    bias_filler {
      type: "constant"
      value: 0.2
    }
  }
}
layer {
  name: "inception_4c/relu_5x5"
  type: "ReLU"
  bottom: "inception_4c/5x5"
  top: "inception_4c/5x5"
}
layer {
  name: "inception_4c/pool"
  type: "Pooling"
  bottom: "inception_4b/output"
  top: "inception_4c/pool"
  pooling_param {
    pool: MAX
    kernel_size: 3
    stride: 1
    pad: 1
  }
}
layer {
  name: "inception_4c/pool_proj"
  type: "Convolution"
  bottom: "inception_4c/pool"
  top: "inception_4c/pool_proj"
  param {
    lr_mult: 1
    decay_mult: 1
  }
  param {
    lr_mult: 2
    decay_mult: 0
  }
  convolution_param {
    num_output: 64
    kernel_size: 1
    weight_filler {
      type: "xavier"
      std: 0.1
    }
    bias_filler {
      type: "constant"
      value: 0.2
    }
  }
}
layer {
  name: "inception_4c/relu_pool_proj"
  type: "ReLU"
  bottom: "inception_4c/pool_proj"
  top: "inception_4c/pool_proj"
}
layer {
  name: "inception_4c/output"
  type: "Concat"
  bottom: "inception_4c/1x1"
  bottom: "inception_4c/3x3"
  bottom: "inception_4c/5x5"
  bottom: "inception_4c/pool_proj"
  top: "inception_4c/output"
}
layer {
  name: "inception_4d/1x1"
  type: "Convolution"
  bottom: "inception_4c/output"
  top: "inception_4d/1x1"
  param {
    lr_mult: 1
    decay_mult: 1
  }
  param {
    lr_mult: 2
    decay_mult: 0
  }
  convolution_param {
    num_output: 112
    kernel_size: 1
    weight_filler {
      type: "xavier"
      std: 0.03
    }
    bias_filler {
      type: "constant"
      value: 0.2
    }
  }
}
layer {
  name: "inception_4d/relu_1x1"
  type: "ReLU"
  bottom: "inception_4d/1x1"
  top: "inception_4d/1x1"
}
layer {
  name: "inception_4d/3x3_reduce"
  type: "Convolution"
  bottom: "inception_4c/output"
  top: "inception_4d/3x3_reduce"
  param {
    lr_mult: 1
    decay_mult: 1
  }
  param {
    lr_mult: 2
    decay_mult: 0
  }
  convolution_param {
    num_output: 144
    kernel_size: 1
    weight_filler {
      type: "xavier"
      std: 0.09
    }
    bias_filler {
      type: "constant"
      value: 0.2
    }
  }
}
layer {
  name: "inception_4d/relu_3x3_reduce"
  type: "ReLU"
  bottom: "inception_4d/3x3_reduce"
  top: "inception_4d/3x3_reduce"
}
layer {
  name: "inception_4d/3x3"
  type: "Convolution"
  bottom: "inception_4d/3x3_reduce"
  top: "inception_4d/3x3"
  param {
    lr_mult: 1
    decay_mult: 1
  }
  param {
    lr_mult: 2
    decay_mult: 0
  }
  convolution_param {
    num_output: 288
    pad: 1
    kernel_size: 3
    weight_filler {
      type: "xavier"
      std: 0.03
    }
    bias_filler {
      type: "constant"
      value: 0.2
    }
  }
}
layer {
  name: "inception_4d/relu_3x3"
  type: "ReLU"
  bottom: "inception_4d/3x3"
  top: "inception_4d/3x3"
}
layer {
  name: "inception_4d/5x5_reduce"
  type: "Convolution"
  bottom: "inception_4c/output"
  top: "inception_4d/5x5_reduce"
  param {
    lr_mult: 1
    decay_mult: 1
  }
  param {
    lr_mult: 2
    decay_mult: 0
  }
  convolution_param {
    num_output: 32
    kernel_size: 1
    weight_filler {
      type: "xavier"
      std: 0.2
    }
    bias_filler {
      type: "constant"
      value: 0.2
    }
  }
}
layer {
  name: "inception_4d/relu_5x5_reduce"
  type: "ReLU"
  bottom: "inception_4d/5x5_reduce"
  top: "inception_4d/5x5_reduce"
}
layer {
  name: "inception_4d/5x5"
  type: "Convolution"
  bottom: "inception_4d/5x5_reduce"
  top: "inception_4d/5x5"
  param {
    lr_mult: 1
    decay_mult: 1
  }
  param {
    lr_mult: 2
    decay_mult: 0
  }
  convolution_param {
    num_output: 64
    pad: 2
    kernel_size: 5
    weight_filler {
      type: "xavier"
      std: 0.03
    }
    bias_filler {
      type: "constant"
      value: 0.2
    }
  }
}
layer {
  name: "inception_4d/relu_5x5"
  type: "ReLU"
  bottom: "inception_4d/5x5"
  top: "inception_4d/5x5"
}
layer {
  name: "inception_4d/pool"
  type: "Pooling"
  bottom: "inception_4c/output"
  top: "inception_4d/pool"
  pooling_param {
    pool: MAX
    kernel_size: 3
    stride: 1
    pad: 1
  }
}
layer {
  name: "inception_4d/pool_proj"
  type: "Convolution"
  bottom: "inception_4d/pool"
  top: "inception_4d/pool_proj"
  param {
    lr_mult: 1
    decay_mult: 1
  }
  param {
    lr_mult: 2
    decay_mult: 0
  }
  convolution_param {
    num_output: 64
    kernel_size: 1
    weight_filler {
      type: "xavier"
      std: 0.1
    }
    bias_filler {
      type: "constant"
      value: 0.2
    }
  }
}
layer {
  name: "inception_4d/relu_pool_proj"
  type: "ReLU"
  bottom: "inception_4d/pool_proj"
  top: "inception_4d/pool_proj"
}
layer {
  name: "inception_4d/output"
  type: "Concat"
  bottom: "inception_4d/1x1"
  bottom: "inception_4d/3x3"
  bottom: "inception_4d/5x5"
  bottom: "inception_4d/pool_proj"
  top: "inception_4d/output"
}
layer {
  name: "loss2/ave_pool"
  type: "Pooling"
  bottom: "inception_4d/output"
  top: "loss2/ave_pool"
  pooling_param {
    pool: AVE
    kernel_size: 5
    stride: 3
  }
}
layer {
  name: "loss2/conv"
  type: "Convolution"
  bottom: "loss2/ave_pool"
  top: "loss2/conv"
  param {
    lr_mult: 1
    decay_mult: 1
  }
  param {
    lr_mult: 2
    decay_mult: 0
  }
  convolution_param {
    num_output: 128
    kernel_size: 1
    weight_filler {
      type: "xavier"
      std: 0.08
    }
    bias_filler {
      type: "constant"
      value: 0.2
    }
  }
}
layer {
  name: "loss2/relu_conv"
  type: "ReLU"
  bottom: "loss2/conv"
  top: "loss2/conv"
}
layer {
  name: "loss2/fc"
  type: "InnerProduct"
  bottom: "loss2/conv"
  top: "loss2/fc"
  param {
    lr_mult: 1
    decay_mult: 1
  }
  param {
    lr_mult: 2
    decay_mult: 0
  }
  inner_product_param {
    num_output: 1024
    weight_filler {
      type: "xavier"
      std: 0.02
    }
    bias_filler {
      type: "constant"
      value: 0.2
    }
  }
}
layer {
  name: "loss2/relu_fc"
  type: "ReLU"
  bottom: "loss2/fc"
  top: "loss2/fc"
}
layer {
  name: "loss2/drop_fc"
  type: "Dropout"
  bottom: "loss2/fc"
  top: "loss2/fc"
  dropout_param {
    dropout_ratio: 0.7
  }
}
layer {
  name: "loss2/classifier_plantvillage"
  type: "InnerProduct"
  bottom: "loss2/fc"
  top: "loss2/classifier_plantvillage"
  param {
    lr_mult: 1
    decay_mult: 1
  }
  param {
    lr_mult: 2
    decay_mult: 0
  }
  inner_product_param {
    num_output: 38
    weight_filler {
      type: "xavier"
      std: 0.0009765625
    }
    bias_filler {
      type: "constant"
      value: 0
    }
  }
}
layer {
  name: "inception_4e/1x1"
  type: "Convolution"
  bottom: "inception_4d/output"
  top: "inception_4e/1x1"
  param {
    lr_mult: 1
    decay_mult: 1
  }
  param {
    lr_mult: 2
    decay_mult: 0
  }
  convolution_param {
    num_output: 256
    kernel_size: 1
    weight_filler {
      type: "xavier"
      std: 0.03
    }
    bias_filler {
      type: "constant"
      value: 0.2
    }
  }
}
layer {
  name: "inception_4e/relu_1x1"
  type: "ReLU"
  bottom: "inception_4e/1x1"
  top: "inception_4e/1x1"
}
layer {
  name: "inception_4e/3x3_reduce"
  type: "Convolution"
  bottom: "inception_4d/output"
  top: "inception_4e/3x3_reduce"
  param {
    lr_mult: 1
    decay_mult: 1
  }
  param {
    lr_mult: 2
    decay_mult: 0
  }
  convolution_param {
    num_output: 160
    kernel_size: 1
    weight_filler {
      type: "xavier"
      std: 0.09
    }
    bias_filler {
      type: "constant"
      value: 0.2
    }
  }
}
layer {
  name: "inception_4e/relu_3x3_reduce"
  type: "ReLU"
  bottom: "inception_4e/3x3_reduce"
  top: "inception_4e/3x3_reduce"
}
layer {
  name: "inception_4e/3x3"
  type: "Convolution"
  bottom: "inception_4e/3x3_reduce"
  top: "inception_4e/3x3"
  param {
    lr_mult: 1
    decay_mult: 1
  }
  param {
    lr_mult: 2
    decay_mult: 0
  }
  convolution_param {
    num_output: 320
    pad: 1
    kernel_size: 3
    weight_filler {
      type: "xavier"
      std: 0.03
    }
    bias_filler {
      type: "constant"
      value: 0.2
    }
  }
}
layer {
  name: "inception_4e/relu_3x3"
  type: "ReLU"
  bottom: "inception_4e/3x3"
  top: "inception_4e/3x3"
}
layer {
  name: "inception_4e/5x5_reduce"
  type: "Convolution"
  bottom: "inception_4d/output"
  top: "inception_4e/5x5_reduce"
  param {
    lr_mult: 1
    decay_mult: 1
  }
  param {
    lr_mult: 2
    decay_mult: 0
  }
  convolution_param {
    num_output: 32
    kernel_size: 1
    weight_filler {
      type: "xavier"
      std: 0.2
    }
    bias_filler {
      type: "constant"
      value: 0.2
    }
  }
}
layer {
  name: "inception_4e/relu_5x5_reduce"
  type: "ReLU"
  bottom: "inception_4e/5x5_reduce"
  top: "inception_4e/5x5_reduce"
}
layer {
  name: "inception_4e/5x5"
  type: "Convolution"
  bottom: "inception_4e/5x5_reduce"
  top: "inception_4e/5x5"
  p
I0403 15:48:28.577812 14465 layer_factory.hpp:77] Creating layer data
I0403 15:48:28.578392 14465 net.cpp:91] Creating Layer data
I0403 15:48:28.578423 14465 net.cpp:399] data -> data
I0403 15:48:28.578474 14465 net.cpp:399] data -> label
I0403 15:48:28.578510 14465 data_transformer.cpp:25] Loading mean file from: /home/mohanty/data/final_dataset/lmdb/color-80-20/mean.binaryproto
I0403 15:48:28.581241 14467 db_lmdb.cpp:38] Opened lmdb /home/mohanty/data/final_dataset/lmdb/color-80-20/test_db
I0403 15:48:28.592078 14465 data_layer.cpp:41] output data size: 24,3,224,224
I0403 15:48:28.620041 14465 net.cpp:141] Setting up data
I0403 15:48:28.620141 14465 net.cpp:148] Top shape: 24 3 224 224 (3612672)
I0403 15:48:28.620165 14465 net.cpp:148] Top shape: 24 (24)
I0403 15:48:28.620182 14465 net.cpp:156] Memory required for data: 14450784
I0403 15:48:28.620209 14465 layer_factory.hpp:77] Creating layer label_data_1_split
I0403 15:48:28.620236 14465 net.cpp:91] Creating Layer label_data_1_split
I0403 15:48:28.620254 14465 net.cpp:425] label_data_1_split <- label
I0403 15:48:28.620286 14465 net.cpp:399] label_data_1_split -> label_data_1_split_0
I0403 15:48:28.620316 14465 net.cpp:399] label_data_1_split -> label_data_1_split_1
I0403 15:48:28.620362 14465 net.cpp:399] label_data_1_split -> label_data_1_split_2
I0403 15:48:28.620385 14465 net.cpp:399] label_data_1_split -> label_data_1_split_3
I0403 15:48:28.620405 14465 net.cpp:399] label_data_1_split -> label_data_1_split_4
I0403 15:48:28.620425 14465 net.cpp:399] label_data_1_split -> label_data_1_split_5
I0403 15:48:28.620445 14465 net.cpp:399] label_data_1_split -> label_data_1_split_6
I0403 15:48:28.620466 14465 net.cpp:399] label_data_1_split -> label_data_1_split_7
I0403 15:48:28.620486 14465 net.cpp:399] label_data_1_split -> label_data_1_split_8
I0403 15:48:28.620507 14465 net.cpp:399] label_data_1_split -> label_data_1_split_9
I0403 15:48:28.620623 14465 net.cpp:141] Setting up label_data_1_split
I0403 15:48:28.620646 14465 net.cpp:148] Top shape: 24 (24)
I0403 15:48:28.620664 14465 net.cpp:148] Top shape: 24 (24)
I0403 15:48:28.620681 14465 net.cpp:148] Top shape: 24 (24)
I0403 15:48:28.620695 14465 net.cpp:148] Top shape: 24 (24)
I0403 15:48:28.620710 14465 net.cpp:148] Top shape: 24 (24)
I0403 15:48:28.620725 14465 net.cpp:148] Top shape: 24 (24)
I0403 15:48:28.620741 14465 net.cpp:148] Top shape: 24 (24)
I0403 15:48:28.620756 14465 net.cpp:148] Top shape: 24 (24)
I0403 15:48:28.620772 14465 net.cpp:148] Top shape: 24 (24)
I0403 15:48:28.620789 14465 net.cpp:148] Top shape: 24 (24)
I0403 15:48:28.620825 14465 net.cpp:156] Memory required for data: 14451744
I0403 15:48:28.620841 14465 layer_factory.hpp:77] Creating layer conv1/7x7_s2
I0403 15:48:28.620874 14465 net.cpp:91] Creating Layer conv1/7x7_s2
I0403 15:48:28.620893 14465 net.cpp:425] conv1/7x7_s2 <- data
I0403 15:48:28.620913 14465 net.cpp:399] conv1/7x7_s2 -> conv1/7x7_s2
I0403 15:48:28.763145 14465 net.cpp:141] Setting up conv1/7x7_s2
I0403 15:48:28.763233 14465 net.cpp:148] Top shape: 24 64 112 112 (19267584)
I0403 15:48:28.763252 14465 net.cpp:156] Memory required for data: 91522080
I0403 15:48:28.763283 14465 layer_factory.hpp:77] Creating layer conv1/relu_7x7
I0403 15:48:28.763311 14465 net.cpp:91] Creating Layer conv1/relu_7x7
I0403 15:48:28.763331 14465 net.cpp:425] conv1/relu_7x7 <- conv1/7x7_s2
I0403 15:48:28.763355 14465 net.cpp:386] conv1/relu_7x7 -> conv1/7x7_s2 (in-place)
I0403 15:48:28.763628 14465 net.cpp:141] Setting up conv1/relu_7x7
I0403 15:48:28.763658 14465 net.cpp:148] Top shape: 24 64 112 112 (19267584)
I0403 15:48:28.763674 14465 net.cpp:156] Memory required for data: 168592416
I0403 15:48:28.763689 14465 layer_factory.hpp:77] Creating layer pool1/3x3_s2
I0403 15:48:28.763715 14465 net.cpp:91] Creating Layer pool1/3x3_s2
I0403 15:48:28.763736 14465 net.cpp:425] pool1/3x3_s2 <- conv1/7x7_s2
I0403 15:48:28.763754 14465 net.cpp:399] pool1/3x3_s2 -> pool1/3x3_s2
I0403 15:48:28.763831 14465 net.cpp:141] Setting up pool1/3x3_s2
I0403 15:48:28.763859 14465 net.cpp:148] Top shape: 24 64 56 56 (4816896)
I0403 15:48:28.763875 14465 net.cpp:156] Memory required for data: 187860000
I0403 15:48:28.763890 14465 layer_factory.hpp:77] Creating layer pool1/norm1
I0403 15:48:28.763913 14465 net.cpp:91] Creating Layer pool1/norm1
I0403 15:48:28.763932 14465 net.cpp:425] pool1/norm1 <- pool1/3x3_s2
I0403 15:48:28.763950 14465 net.cpp:399] pool1/norm1 -> pool1/norm1
I0403 15:48:28.764266 14465 net.cpp:141] Setting up pool1/norm1
I0403 15:48:28.764300 14465 net.cpp:148] Top shape: 24 64 56 56 (4816896)
I0403 15:48:28.764317 14465 net.cpp:156] Memory required for data: 207127584
I0403 15:48:28.764331 14465 layer_factory.hpp:77] Creating layer conv2/3x3_reduce
I0403 15:48:28.764359 14465 net.cpp:91] Creating Layer conv2/3x3_reduce
I0403 15:48:28.764379 14465 net.cpp:425] conv2/3x3_reduce <- pool1/norm1
I0403 15:48:28.764401 14465 net.cpp:399] conv2/3x3_reduce -> conv2/3x3_reduce
I0403 15:48:28.765848 14465 net.cpp:141] Setting up conv2/3x3_reduce
I0403 15:48:28.765883 14465 net.cpp:148] Top shape: 24 64 56 56 (4816896)
I0403 15:48:28.765907 14465 net.cpp:156] Memory required for data: 226395168
I0403 15:48:28.765928 14465 layer_factory.hpp:77] Creating layer conv2/relu_3x3_reduce
I0403 15:48:28.765950 14465 net.cpp:91] Creating Layer conv2/relu_3x3_reduce
I0403 15:48:28.765967 14465 net.cpp:425] conv2/relu_3x3_reduce <- conv2/3x3_reduce
I0403 15:48:28.765987 14465 net.cpp:386] conv2/relu_3x3_reduce -> conv2/3x3_reduce (in-place)
I0403 15:48:28.766276 14465 net.cpp:141] Setting up conv2/relu_3x3_reduce
I0403 15:48:28.766306 14465 net.cpp:148] Top shape: 24 64 56 56 (4816896)
I0403 15:48:28.766324 14465 net.cpp:156] Memory required for data: 245662752
I0403 15:48:28.766340 14465 layer_factory.hpp:77] Creating layer conv2/3x3
I0403 15:48:28.766366 14465 net.cpp:91] Creating Layer conv2/3x3
I0403 15:48:28.766384 14465 net.cpp:425] conv2/3x3 <- conv2/3x3_reduce
I0403 15:48:28.766407 14465 net.cpp:399] conv2/3x3 -> conv2/3x3
I0403 15:48:28.768805 14465 net.cpp:141] Setting up conv2/3x3
I0403 15:48:28.768839 14465 net.cpp:148] Top shape: 24 192 56 56 (14450688)
I0403 15:48:28.768859 14465 net.cpp:156] Memory required for data: 303465504
I0403 15:48:28.768880 14465 layer_factory.hpp:77] Creating layer conv2/relu_3x3
I0403 15:48:28.768900 14465 net.cpp:91] Creating Layer conv2/relu_3x3
I0403 15:48:28.768918 14465 net.cpp:425] conv2/relu_3x3 <- conv2/3x3
I0403 15:48:28.768939 14465 net.cpp:386] conv2/relu_3x3 -> conv2/3x3 (in-place)
I0403 15:48:28.769129 14465 net.cpp:141] Setting up conv2/relu_3x3
I0403 15:48:28.769155 14465 net.cpp:148] Top shape: 24 192 56 56 (14450688)
I0403 15:48:28.769203 14465 net.cpp:156] Memory required for data: 361268256
I0403 15:48:28.769220 14465 layer_factory.hpp:77] Creating layer conv2/norm2
I0403 15:48:28.769243 14465 net.cpp:91] Creating Layer conv2/norm2
I0403 15:48:28.769260 14465 net.cpp:425] conv2/norm2 <- conv2/3x3
I0403 15:48:28.769280 14465 net.cpp:399] conv2/norm2 -> conv2/norm2
I0403 15:48:28.769601 14465 net.cpp:141] Setting up conv2/norm2
I0403 15:48:28.769631 14465 net.cpp:148] Top shape: 24 192 56 56 (14450688)
I0403 15:48:28.769647 14465 net.cpp:156] Memory required for data: 419071008
I0403 15:48:28.769664 14465 layer_factory.hpp:77] Creating layer pool2/3x3_s2
I0403 15:48:28.769688 14465 net.cpp:91] Creating Layer pool2/3x3_s2
I0403 15:48:28.769706 14465 net.cpp:425] pool2/3x3_s2 <- conv2/norm2
I0403 15:48:28.769728 14465 net.cpp:399] pool2/3x3_s2 -> pool2/3x3_s2
I0403 15:48:28.769784 14465 net.cpp:141] Setting up pool2/3x3_s2
I0403 15:48:28.769809 14465 net.cpp:148] Top shape: 24 192 28 28 (3612672)
I0403 15:48:28.769826 14465 net.cpp:156] Memory required for data: 433521696
I0403 15:48:28.769845 14465 layer_factory.hpp:77] Creating layer pool2/3x3_s2_pool2/3x3_s2_0_split
I0403 15:48:28.769870 14465 net.cpp:91] Creating Layer pool2/3x3_s2_pool2/3x3_s2_0_split
I0403 15:48:28.769892 14465 net.cpp:425] pool2/3x3_s2_pool2/3x3_s2_0_split <- pool2/3x3_s2
I0403 15:48:28.769912 14465 net.cpp:399] pool2/3x3_s2_pool2/3x3_s2_0_split -> pool2/3x3_s2_pool2/3x3_s2_0_split_0
I0403 15:48:28.769933 14465 net.cpp:399] pool2/3x3_s2_pool2/3x3_s2_0_split -> pool2/3x3_s2_pool2/3x3_s2_0_split_1
I0403 15:48:28.769953 14465 net.cpp:399] pool2/3x3_s2_pool2/3x3_s2_0_split -> pool2/3x3_s2_pool2/3x3_s2_0_split_2
I0403 15:48:28.769973 14465 net.cpp:399] pool2/3x3_s2_pool2/3x3_s2_0_split -> pool2/3x3_s2_pool2/3x3_s2_0_split_3
I0403 15:48:28.770051 14465 net.cpp:141] Setting up pool2/3x3_s2_pool2/3x3_s2_0_split
I0403 15:48:28.770076 14465 net.cpp:148] Top shape: 24 192 28 28 (3612672)
I0403 15:48:28.770092 14465 net.cpp:148] Top shape: 24 192 28 28 (3612672)
I0403 15:48:28.770113 14465 net.cpp:148] Top shape: 24 192 28 28 (3612672)
I0403 15:48:28.770129 14465 net.cpp:148] Top shape: 24 192 28 28 (3612672)
I0403 15:48:28.770143 14465 net.cpp:156] Memory required for data: 491324448
I0403 15:48:28.770158 14465 layer_factory.hpp:77] Creating layer inception_3a/1x1
I0403 15:48:28.770180 14465 net.cpp:91] Creating Layer inception_3a/1x1
I0403 15:48:28.770198 14465 net.cpp:425] inception_3a/1x1 <- pool2/3x3_s2_pool2/3x3_s2_0_split_0
I0403 15:48:28.770220 14465 net.cpp:399] inception_3a/1x1 -> inception_3a/1x1
I0403 15:48:28.771823 14465 net.cpp:141] Setting up inception_3a/1x1
I0403 15:48:28.771857 14465 net.cpp:148] Top shape: 24 64 28 28 (1204224)
I0403 15:48:28.771875 14465 net.cpp:156] Memory required for data: 496141344
I0403 15:48:28.771894 14465 layer_factory.hpp:77] Creating layer inception_3a/relu_1x1
I0403 15:48:28.771914 14465 net.cpp:91] Creating Layer inception_3a/relu_1x1
I0403 15:48:28.771930 14465 net.cpp:425] inception_3a/relu_1x1 <- inception_3a/1x1
I0403 15:48:28.771951 14465 net.cpp:386] inception_3a/relu_1x1 -> inception_3a/1x1 (in-place)
I0403 15:48:28.772143 14465 net.cpp:141] Setting up inception_3a/relu_1x1
I0403 15:48:28.772171 14465 net.cpp:148] Top shape: 24 64 28 28 (1204224)
I0403 15:48:28.772186 14465 net.cpp:156] Memory required for data: 500958240
I0403 15:48:28.772202 14465 layer_factory.hpp:77] Creating layer inception_3a/3x3_reduce
I0403 15:48:28.772224 14465 net.cpp:91] Creating Layer inception_3a/3x3_reduce
I0403 15:48:28.772243 14465 net.cpp:425] inception_3a/3x3_reduce <- pool2/3x3_s2_pool2/3x3_s2_0_split_1
I0403 15:48:28.772265 14465 net.cpp:399] inception_3a/3x3_reduce -> inception_3a/3x3_reduce
I0403 15:48:28.774060 14465 net.cpp:141] Setting up inception_3a/3x3_reduce
I0403 15:48:28.774098 14465 net.cpp:148] Top shape: 24 96 28 28 (1806336)
I0403 15:48:28.774118 14465 net.cpp:156] Memory required for data: 508183584
I0403 15:48:28.774142 14465 layer_factory.hpp:77] Creating layer inception_3a/relu_3x3_reduce
I0403 15:48:28.774181 14465 net.cpp:91] Creating Layer inception_3a/relu_3x3_reduce
I0403 15:48:28.774202 14465 net.cpp:425] inception_3a/relu_3x3_reduce <- inception_3a/3x3_reduce
I0403 15:48:28.774220 14465 net.cpp:386] inception_3a/relu_3x3_reduce -> inception_3a/3x3_reduce (in-place)
I0403 15:48:28.774410 14465 net.cpp:141] Setting up inception_3a/relu_3x3_reduce
I0403 15:48:28.774438 14465 net.cpp:148] Top shape: 24 96 28 28 (1806336)
I0403 15:48:28.774454 14465 net.cpp:156] Memory required for data: 515408928
I0403 15:48:28.774471 14465 layer_factory.hpp:77] Creating layer inception_3a/3x3
I0403 15:48:28.774494 14465 net.cpp:91] Creating Layer inception_3a/3x3
I0403 15:48:28.774513 14465 net.cpp:425] inception_3a/3x3 <- inception_3a/3x3_reduce
I0403 15:48:28.774533 14465 net.cpp:399] inception_3a/3x3 -> inception_3a/3x3
I0403 15:48:28.776268 14465 net.cpp:141] Setting up inception_3a/3x3
I0403 15:48:28.776304 14465 net.cpp:148] Top shape: 24 128 28 28 (2408448)
I0403 15:48:28.776320 14465 net.cpp:156] Memory required for data: 525042720
I0403 15:48:28.776340 14465 layer_factory.hpp:77] Creating layer inception_3a/relu_3x3
I0403 15:48:28.776358 14465 net.cpp:91] Creating Layer inception_3a/relu_3x3
I0403 15:48:28.776376 14465 net.cpp:425] inception_3a/relu_3x3 <- inception_3a/3x3
I0403 15:48:28.776396 14465 net.cpp:386] inception_3a/relu_3x3 -> inception_3a/3x3 (in-place)
I0403 15:48:28.776690 14465 net.cpp:141] Setting up inception_3a/relu_3x3
I0403 15:48:28.776721 14465 net.cpp:148] Top shape: 24 128 28 28 (2408448)
I0403 15:48:28.776736 14465 net.cpp:156] Memory required for data: 534676512
I0403 15:48:28.776752 14465 layer_factory.hpp:77] Creating layer inception_3a/5x5_reduce
I0403 15:48:28.776777 14465 net.cpp:91] Creating Layer inception_3a/5x5_reduce
I0403 15:48:28.776794 14465 net.cpp:425] inception_3a/5x5_reduce <- pool2/3x3_s2_pool2/3x3_s2_0_split_2
I0403 15:48:28.776818 14465 net.cpp:399] inception_3a/5x5_reduce -> inception_3a/5x5_reduce
I0403 15:48:28.777837 14465 net.cpp:141] Setting up inception_3a/5x5_reduce
I0403 15:48:28.777868 14465 net.cpp:148] Top shape: 24 16 28 28 (301056)
I0403 15:48:28.777884 14465 net.cpp:156] Memory required for data: 535880736
I0403 15:48:28.777902 14465 layer_factory.hpp:77] Creating layer inception_3a/relu_5x5_reduce
I0403 15:48:28.777921 14465 net.cpp:91] Creating Layer inception_3a/relu_5x5_reduce
I0403 15:48:28.777938 14465 net.cpp:425] inception_3a/relu_5x5_reduce <- inception_3a/5x5_reduce
I0403 15:48:28.777959 14465 net.cpp:386] inception_3a/relu_5x5_reduce -> inception_3a/5x5_reduce (in-place)
I0403 15:48:28.778288 14465 net.cpp:141] Setting up inception_3a/relu_5x5_reduce
I0403 15:48:28.778317 14465 net.cpp:148] Top shape: 24 16 28 28 (301056)
I0403 15:48:28.778332 14465 net.cpp:156] Memory required for data: 537084960
I0403 15:48:28.778348 14465 layer_factory.hpp:77] Creating layer inception_3a/5x5
I0403 15:48:28.778373 14465 net.cpp:91] Creating Layer inception_3a/5x5
I0403 15:48:28.778400 14465 net.cpp:425] inception_3a/5x5 <- inception_3a/5x5_reduce
I0403 15:48:28.778424 14465 net.cpp:399] inception_3a/5x5 -> inception_3a/5x5
I0403 15:48:28.779503 14465 net.cpp:141] Setting up inception_3a/5x5
I0403 15:48:28.779533 14465 net.cpp:148] Top shape: 24 32 28 28 (602112)
I0403 15:48:28.779551 14465 net.cpp:156] Memory required for data: 539493408
I0403 15:48:28.779569 14465 layer_factory.hpp:77] Creating layer inception_3a/relu_5x5
I0403 15:48:28.779588 14465 net.cpp:91] Creating Layer inception_3a/relu_5x5
I0403 15:48:28.779606 14465 net.cpp:425] inception_3a/relu_5x5 <- inception_3a/5x5
I0403 15:48:28.779628 14465 net.cpp:386] inception_3a/relu_5x5 -> inception_3a/5x5 (in-place)
I0403 15:48:28.779814 14465 net.cpp:141] Setting up inception_3a/relu_5x5
I0403 15:48:28.779841 14465 net.cpp:148] Top shape: 24 32 28 28 (602112)
I0403 15:48:28.779856 14465 net.cpp:156] Memory required for data: 541901856
I0403 15:48:28.779871 14465 layer_factory.hpp:77] Creating layer inception_3a/pool
I0403 15:48:28.779892 14465 net.cpp:91] Creating Layer inception_3a/pool
I0403 15:48:28.779909 14465 net.cpp:425] inception_3a/pool <- pool2/3x3_s2_pool2/3x3_s2_0_split_3
I0403 15:48:28.779944 14465 net.cpp:399] inception_3a/pool -> inception_3a/pool
I0403 15:48:28.780006 14465 net.cpp:141] Setting up inception_3a/pool
I0403 15:48:28.780032 14465 net.cpp:148] Top shape: 24 192 28 28 (3612672)
I0403 15:48:28.780048 14465 net.cpp:156] Memory required for data: 556352544
I0403 15:48:28.780063 14465 layer_factory.hpp:77] Creating layer inception_3a/pool_proj
I0403 15:48:28.780086 14465 net.cpp:91] Creating Layer inception_3a/pool_proj
I0403 15:48:28.780112 14465 net.cpp:425] inception_3a/pool_proj <- inception_3a/pool
I0403 15:48:28.780135 14465 net.cpp:399] inception_3a/pool_proj -> inception_3a/pool_proj
I0403 15:48:28.781157 14465 net.cpp:141] Setting up inception_3a/pool_proj
I0403 15:48:28.781188 14465 net.cpp:148] Top shape: 24 32 28 28 (602112)
I0403 15:48:28.781206 14465 net.cpp:156] Memory required for data: 558760992
I0403 15:48:28.781231 14465 layer_factory.hpp:77] Creating layer inception_3a/relu_pool_proj
I0403 15:48:28.781251 14465 net.cpp:91] Creating Layer inception_3a/relu_pool_proj
I0403 15:48:28.781268 14465 net.cpp:425] inception_3a/relu_pool_proj <- inception_3a/pool_proj
I0403 15:48:28.781288 14465 net.cpp:386] inception_3a/relu_pool_proj -> inception_3a/pool_proj (in-place)
I0403 15:48:28.781580 14465 net.cpp:141] Setting up inception_3a/relu_pool_proj
I0403 15:48:28.781610 14465 net.cpp:148] Top shape: 24 32 28 28 (602112)
I0403 15:48:28.781625 14465 net.cpp:156] Memory required for data: 561169440
I0403 15:48:28.781641 14465 layer_factory.hpp:77] Creating layer inception_3a/output
I0403 15:48:28.781659 14465 net.cpp:91] Creating Layer inception_3a/output
I0403 15:48:28.781677 14465 net.cpp:425] inception_3a/output <- inception_3a/1x1
I0403 15:48:28.781693 14465 net.cpp:425] inception_3a/output <- inception_3a/3x3
I0403 15:48:28.781709 14465 net.cpp:425] inception_3a/output <- inception_3a/5x5
I0403 15:48:28.781726 14465 net.cpp:425] inception_3a/output <- inception_3a/pool_proj
I0403 15:48:28.781746 14465 net.cpp:399] inception_3a/output -> inception_3a/output
I0403 15:48:28.781793 14465 net.cpp:141] Setting up inception_3a/output
I0403 15:48:28.781822 14465 net.cpp:148] Top shape: 24 256 28 28 (4816896)
I0403 15:48:28.781838 14465 net.cpp:156] Memory required for data: 580437024
I0403 15:48:28.781854 14465 layer_factory.hpp:77] Creating layer inception_3a/output_inception_3a/output_0_split
I0403 15:48:28.781872 14465 net.cpp:91] Creating Layer inception_3a/output_inception_3a/output_0_split
I0403 15:48:28.781888 14465 net.cpp:425] inception_3a/output_inception_3a/output_0_split <- inception_3a/output
I0403 15:48:28.781905 14465 net.cpp:399] inception_3a/output_inception_3a/output_0_split -> inception_3a/output_inception_3a/output_0_split_0
I0403 15:48:28.781925 14465 net.cpp:399] inception_3a/output_inception_3a/output_0_split -> inception_3a/output_inception_3a/output_0_split_1
I0403 15:48:28.781951 14465 net.cpp:399] inception_3a/output_inception_3a/output_0_split -> inception_3a/output_inception_3a/output_0_split_2
I0403 15:48:28.781975 14465 net.cpp:399] inception_3a/output_inception_3a/output_0_split -> inception_3a/output_inception_3a/output_0_split_3
I0403 15:48:28.782053 14465 net.cpp:141] Setting up inception_3a/output_inception_3a/output_0_split
I0403 15:48:28.782081 14465 net.cpp:148] Top shape: 24 256 28 28 (4816896)
I0403 15:48:28.782105 14465 net.cpp:148] Top shape: 24 256 28 28 (4816896)
I0403 15:48:28.782122 14465 net.cpp:148] Top shape: 24 256 28 28 (4816896)
I0403 15:48:28.782137 14465 net.cpp:148] Top shape: 24 256 28 28 (4816896)
I0403 15:48:28.782151 14465 net.cpp:156] Memory required for data: 657507360
I0403 15:48:28.782167 14465 layer_factory.hpp:77] Creating layer inception_3b/1x1
I0403 15:48:28.782191 14465 net.cpp:91] Creating Layer inception_3b/1x1
I0403 15:48:28.782209 14465 net.cpp:425] inception_3b/1x1 <- inception_3a/output_inception_3a/output_0_split_0
I0403 15:48:28.782229 14465 net.cpp:399] inception_3b/1x1 -> inception_3b/1x1
I0403 15:48:28.783438 14465 net.cpp:141] Setting up inception_3b/1x1
I0403 15:48:28.783483 14465 net.cpp:148] Top shape: 24 128 28 28 (2408448)
I0403 15:48:28.783501 14465 net.cpp:156] Memory required for data: 667141152
I0403 15:48:28.783520 14465 layer_factory.hpp:77] Creating layer inception_3b/relu_1x1
I0403 15:48:28.783540 14465 net.cpp:91] Creating Layer inception_3b/relu_1x1
I0403 15:48:28.783556 14465 net.cpp:425] inception_3b/relu_1x1 <- inception_3b/1x1
I0403 15:48:28.783576 14465 net.cpp:386] inception_3b/relu_1x1 -> inception_3b/1x1 (in-place)
I0403 15:48:28.783766 14465 net.cpp:141] Setting up inception_3b/relu_1x1
I0403 15:48:28.783793 14465 net.cpp:148] Top shape: 24 128 28 28 (2408448)
I0403 15:48:28.783808 14465 net.cpp:156] Memory required for data: 676774944
I0403 15:48:28.783825 14465 layer_factory.hpp:77] Creating layer inception_3b/3x3_reduce
I0403 15:48:28.783849 14465 net.cpp:91] Creating Layer inception_3b/3x3_reduce
I0403 15:48:28.783867 14465 net.cpp:425] inception_3b/3x3_reduce <- inception_3a/output_inception_3a/output_0_split_1
I0403 15:48:28.783890 14465 net.cpp:399] inception_3b/3x3_reduce -> inception_3b/3x3_reduce
I0403 15:48:28.785086 14465 net.cpp:141] Setting up inception_3b/3x3_reduce
I0403 15:48:28.785125 14465 net.cpp:148] Top shape: 24 128 28 28 (2408448)
I0403 15:48:28.785142 14465 net.cpp:156] Memory required for data: 686408736
I0403 15:48:28.785162 14465 layer_factory.hpp:77] Creating layer inception_3b/relu_3x3_reduce
I0403 15:48:28.785182 14465 net.cpp:91] Creating Layer inception_3b/relu_3x3_reduce
I0403 15:48:28.785199 14465 net.cpp:425] inception_3b/relu_3x3_reduce <- inception_3b/3x3_reduce
I0403 15:48:28.785218 14465 net.cpp:386] inception_3b/relu_3x3_reduce -> inception_3b/3x3_reduce (in-place)
I0403 15:48:28.785403 14465 net.cpp:141] Setting up inception_3b/relu_3x3_reduce
I0403 15:48:28.785431 14465 net.cpp:148] Top shape: 24 128 28 28 (2408448)
I0403 15:48:28.785447 14465 net.cpp:156] Memory required for data: 696042528
I0403 15:48:28.785464 14465 layer_factory.hpp:77] Creating layer inception_3b/3x3
I0403 15:48:28.785490 14465 net.cpp:91] Creating Layer inception_3b/3x3
I0403 15:48:28.785508 14465 net.cpp:425] inception_3b/3x3 <- inception_3b/3x3_reduce
I0403 15:48:28.785531 14465 net.cpp:399] inception_3b/3x3 -> inception_3b/3x3
I0403 15:48:28.788614 14465 net.cpp:141] Setting up inception_3b/3x3
I0403 15:48:28.788646 14465 net.cpp:148] Top shape: 24 192 28 28 (3612672)
I0403 15:48:28.788664 14465 net.cpp:156] Memory required for data: 710493216
I0403 15:48:28.788684 14465 layer_factory.hpp:77] Creating layer inception_3b/relu_3x3
I0403 15:48:28.788709 14465 net.cpp:91] Creating Layer inception_3b/relu_3x3
I0403 15:48:28.788733 14465 net.cpp:425] inception_3b/relu_3x3 <- inception_3b/3x3
I0403 15:48:28.788758 14465 net.cpp:386] inception_3b/relu_3x3 -> inception_3b/3x3 (in-place)
I0403 15:48:28.789055 14465 net.cpp:141] Setting up inception_3b/relu_3x3
I0403 15:48:28.789085 14465 net.cpp:148] Top shape: 24 192 28 28 (3612672)
I0403 15:48:28.789108 14465 net.cpp:156] Memory required for data: 724943904
I0403 15:48:28.789124 14465 layer_factory.hpp:77] Creating layer inception_3b/5x5_reduce
I0403 15:48:28.789147 14465 net.cpp:91] Creating Layer inception_3b/5x5_reduce
I0403 15:48:28.789166 14465 net.cpp:425] inception_3b/5x5_reduce <- inception_3a/output_inception_3a/output_0_split_2
I0403 15:48:28.789191 14465 net.cpp:399] inception_3b/5x5_reduce -> inception_3b/5x5_reduce
I0403 15:48:28.790264 14465 net.cpp:141] Setting up inception_3b/5x5_reduce
I0403 15:48:28.790294 14465 net.cpp:148] Top shape: 24 32 28 28 (602112)
I0403 15:48:28.790310 14465 net.cpp:156] Memory required for data: 727352352
I0403 15:48:28.790328 14465 layer_factory.hpp:77] Creating layer inception_3b/relu_5x5_reduce
I0403 15:48:28.790348 14465 net.cpp:91] Creating Layer inception_3b/relu_5x5_reduce
I0403 15:48:28.790364 14465 net.cpp:425] inception_3b/relu_5x5_reduce <- inception_3b/5x5_reduce
I0403 15:48:28.790383 14465 net.cpp:386] inception_3b/relu_5x5_reduce -> inception_3b/5x5_reduce (in-place)
I0403 15:48:28.790567 14465 net.cpp:141] Setting up inception_3b/relu_5x5_reduce
I0403 15:48:28.790606 14465 net.cpp:148] Top shape: 24 32 28 28 (602112)
I0403 15:48:28.790622 14465 net.cpp:156] Memory required for data: 729760800
I0403 15:48:28.790638 14465 layer_factory.hpp:77] Creating layer inception_3b/5x5
I0403 15:48:28.790662 14465 net.cpp:91] Creating Layer inception_3b/5x5
I0403 15:48:28.790679 14465 net.cpp:425] inception_3b/5x5 <- inception_3b/5x5_reduce
I0403 15:48:28.790700 14465 net.cpp:399] inception_3b/5x5 -> inception_3b/5x5
I0403 15:48:28.792721 14465 net.cpp:141] Setting up inception_3b/5x5
I0403 15:48:28.792753 14465 net.cpp:148] Top shape: 24 96 28 28 (1806336)
I0403 15:48:28.792771 14465 net.cpp:156] Memory required for data: 736986144
I0403 15:48:28.792789 14465 layer_factory.hpp:77] Creating layer inception_3b/relu_5x5
I0403 15:48:28.792809 14465 net.cpp:91] Creating Layer inception_3b/relu_5x5
I0403 15:48:28.792825 14465 net.cpp:425] inception_3b/relu_5x5 <- inception_3b/5x5
I0403 15:48:28.792843 14465 net.cpp:386] inception_3b/relu_5x5 -> inception_3b/5x5 (in-place)
I0403 15:48:28.793040 14465 net.cpp:141] Setting up inception_3b/relu_5x5
I0403 15:48:28.793066 14465 net.cpp:148] Top shape: 24 96 28 28 (1806336)
I0403 15:48:28.793081 14465 net.cpp:156] Memory required for data: 744211488
I0403 15:48:28.793107 14465 layer_factory.hpp:77] Creating layer inception_3b/pool
I0403 15:48:28.793128 14465 net.cpp:91] Creating Layer inception_3b/pool
I0403 15:48:28.793145 14465 net.cpp:425] inception_3b/pool <- inception_3a/output_inception_3a/output_0_split_3
I0403 15:48:28.793164 14465 net.cpp:399] inception_3b/pool -> inception_3b/pool
I0403 15:48:28.793221 14465 net.cpp:141] Setting up inception_3b/pool
I0403 15:48:28.793248 14465 net.cpp:148] Top shape: 24 256 28 28 (4816896)
I0403 15:48:28.793264 14465 net.cpp:156] Memory required for data: 763479072
I0403 15:48:28.793279 14465 layer_factory.hpp:77] Creating layer inception_3b/pool_proj
I0403 15:48:28.793303 14465 net.cpp:91] Creating Layer inception_3b/pool_proj
I0403 15:48:28.793320 14465 net.cpp:425] inception_3b/pool_proj <- inception_3b/pool
I0403 15:48:28.793339 14465 net.cpp:399] inception_3b/pool_proj -> inception_3b/pool_proj
I0403 15:48:28.794430 14465 net.cpp:141] Setting up inception_3b/pool_proj
I0403 15:48:28.794459 14465 net.cpp:148] Top shape: 24 64 28 28 (1204224)
I0403 15:48:28.794476 14465 net.cpp:156] Memory required for data: 768295968
I0403 15:48:28.794493 14465 layer_factory.hpp:77] Creating layer inception_3b/relu_pool_proj
I0403 15:48:28.794515 14465 net.cpp:91] Creating Layer inception_3b/relu_pool_proj
I0403 15:48:28.794533 14465 net.cpp:425] inception_3b/relu_pool_proj <- inception_3b/pool_proj
I0403 15:48:28.794550 14465 net.cpp:386] inception_3b/relu_pool_proj -> inception_3b/pool_proj (in-place)
I0403 15:48:28.794960 14465 net.cpp:141] Setting up inception_3b/relu_pool_proj
I0403 15:48:28.794987 14465 net.cpp:148] Top shape: 24 64 28 28 (1204224)
I0403 15:48:28.795003 14465 net.cpp:156] Memory required for data: 773112864
I0403 15:48:28.795019 14465 layer_factory.hpp:77] Creating layer inception_3b/output
I0403 15:48:28.795037 14465 net.cpp:91] Creating Layer inception_3b/output
I0403 15:48:28.795053 14465 net.cpp:425] inception_3b/output <- inception_3b/1x1
I0403 15:48:28.795069 14465 net.cpp:425] inception_3b/output <- inception_3b/3x3
I0403 15:48:28.795086 14465 net.cpp:425] inception_3b/output <- inception_3b/5x5
I0403 15:48:28.795107 14465 net.cpp:425] inception_3b/output <- inception_3b/pool_proj
I0403 15:48:28.795130 14465 net.cpp:399] inception_3b/output -> inception_3b/output
I0403 15:48:28.795173 14465 net.cpp:141] Setting up inception_3b/output
I0403 15:48:28.795202 14465 net.cpp:148] Top shape: 24 480 28 28 (9031680)
I0403 15:48:28.795217 14465 net.cpp:156] Memory required for data: 809239584
I0403 15:48:28.795233 14465 layer_factory.hpp:77] Creating layer pool3/3x3_s2
I0403 15:48:28.795250 14465 net.cpp:91] Creating Layer pool3/3x3_s2
I0403 15:48:28.795265 14465 net.cpp:425] pool3/3x3_s2 <- inception_3b/output
I0403 15:48:28.795286 14465 net.cpp:399] pool3/3x3_s2 -> pool3/3x3_s2
I0403 15:48:28.795361 14465 net.cpp:141] Setting up pool3/3x3_s2
I0403 15:48:28.795385 14465 net.cpp:148] Top shape: 24 480 14 14 (2257920)
I0403 15:48:28.795400 14465 net.cpp:156] Memory required for data: 818271264
I0403 15:48:28.795415 14465 layer_factory.hpp:77] Creating layer pool3/3x3_s2_pool3/3x3_s2_0_split
I0403 15:48:28.795435 14465 net.cpp:91] Creating Layer pool3/3x3_s2_pool3/3x3_s2_0_split
I0403 15:48:28.795452 14465 net.cpp:425] pool3/3x3_s2_pool3/3x3_s2_0_split <- pool3/3x3_s2
I0403 15:48:28.795470 14465 net.cpp:399] pool3/3x3_s2_pool3/3x3_s2_0_split -> pool3/3x3_s2_pool3/3x3_s2_0_split_0
I0403 15:48:28.795490 14465 net.cpp:399] pool3/3x3_s2_pool3/3x3_s2_0_split -> pool3/3x3_s2_pool3/3x3_s2_0_split_1
I0403 15:48:28.795514 14465 net.cpp:399] pool3/3x3_s2_pool3/3x3_s2_0_split -> pool3/3x3_s2_pool3/3x3_s2_0_split_2
I0403 15:48:28.795534 14465 net.cpp:399] pool3/3x3_s2_pool3/3x3_s2_0_split -> pool3/3x3_s2_pool3/3x3_s2_0_split_3
I0403 15:48:28.795614 14465 net.cpp:141] Setting up pool3/3x3_s2_pool3/3x3_s2_0_split
I0403 15:48:28.795639 14465 net.cpp:148] Top shape: 24 480 14 14 (2257920)
I0403 15:48:28.795655 14465 net.cpp:148] Top shape: 24 480 14 14 (2257920)
I0403 15:48:28.795670 14465 net.cpp:148] Top shape: 24 480 14 14 (2257920)
I0403 15:48:28.795686 14465 net.cpp:148] Top shape: 24 480 14 14 (2257920)
I0403 15:48:28.795699 14465 net.cpp:156] Memory required for data: 854397984
I0403 15:48:28.795716 14465 layer_factory.hpp:77] Creating layer inception_4a/1x1
I0403 15:48:28.795738 14465 net.cpp:91] Creating Layer inception_4a/1x1
I0403 15:48:28.795756 14465 net.cpp:425] inception_4a/1x1 <- pool3/3x3_s2_pool3/3x3_s2_0_split_0
I0403 15:48:28.795778 14465 net.cpp:399] inception_4a/1x1 -> inception_4a/1x1
I0403 15:48:28.797456 14465 net.cpp:141] Setting up inception_4a/1x1
I0403 15:48:28.797485 14465 net.cpp:148] Top shape: 24 192 14 14 (903168)
I0403 15:48:28.797502 14465 net.cpp:156] Memory required for data: 858010656
I0403 15:48:28.797521 14465 layer_factory.hpp:77] Creating layer inception_4a/relu_1x1
I0403 15:48:28.797544 14465 net.cpp:91] Creating Layer inception_4a/relu_1x1
I0403 15:48:28.797562 14465 net.cpp:425] inception_4a/relu_1x1 <- inception_4a/1x1
I0403 15:48:28.797580 14465 net.cpp:386] inception_4a/relu_1x1 -> inception_4a/1x1 (in-place)
I0403 15:48:28.797770 14465 net.cpp:141] Setting up inception_4a/relu_1x1
I0403 15:48:28.797799 14465 net.cpp:148] Top shape: 24 192 14 14 (903168)
I0403 15:48:28.797816 14465 net.cpp:156] Memory required for data: 861623328
I0403 15:48:28.797830 14465 layer_factory.hpp:77] Creating layer inception_4a/3x3_reduce
I0403 15:48:28.797853 14465 net.cpp:91] Creating Layer inception_4a/3x3_reduce
I0403 15:48:28.797873 14465 net.cpp:425] inception_4a/3x3_reduce <- pool3/3x3_s2_pool3/3x3_s2_0_split_1
I0403 15:48:28.797891 14465 net.cpp:399] inception_4a/3x3_reduce -> inception_4a/3x3_reduce
I0403 15:48:28.799242 14465 net.cpp:141] Setting up inception_4a/3x3_reduce
I0403 15:48:28.799271 14465 net.cpp:148] Top shape: 24 96 14 14 (451584)
I0403 15:48:28.799288 14465 net.cpp:156] Memory required for data: 863429664
I0403 15:48:28.799314 14465 layer_factory.hpp:77] Creating layer inception_4a/relu_3x3_reduce
I0403 15:48:28.799337 14465 net.cpp:91] Creating Layer inception_4a/relu_3x3_reduce
I0403 15:48:28.799356 14465 net.cpp:425] inception_4a/relu_3x3_reduce <- inception_4a/3x3_reduce
I0403 15:48:28.799374 14465 net.cpp:386] inception_4a/relu_3x3_reduce -> inception_4a/3x3_reduce (in-place)
I0403 15:48:28.799561 14465 net.cpp:141] Setting up inception_4a/relu_3x3_reduce
I0403 15:48:28.799588 14465 net.cpp:148] Top shape: 24 96 14 14 (451584)
I0403 15:48:28.799603 14465 net.cpp:156] Memory required for data: 865236000
I0403 15:48:28.799619 14465 layer_factory.hpp:77] Creating layer inception_4a/3x3
I0403 15:48:28.799645 14465 net.cpp:91] Creating Layer inception_4a/3x3
I0403 15:48:28.799664 14465 net.cpp:425] inception_4a/3x3 <- inception_4a/3x3_reduce
I0403 15:48:28.799685 14465 net.cpp:399] inception_4a/3x3 -> inception_4a/3x3
I0403 15:48:28.802497 14465 net.cpp:141] Setting up inception_4a/3x3
I0403 15:48:28.802531 14465 net.cpp:148] Top shape: 24 208 14 14 (978432)
I0403 15:48:28.802549 14465 net.cpp:156] Memory required for data: 869149728
I0403 15:48:28.802569 14465 layer_factory.hpp:77] Creating layer inception_4a/relu_3x3
I0403 15:48:28.802589 14465 net.cpp:91] Creating Layer inception_4a/relu_3x3
I0403 15:48:28.802606 14465 net.cpp:425] inception_4a/relu_3x3 <- inception_4a/3x3
I0403 15:48:28.802623 14465 net.cpp:386] inception_4a/relu_3x3 -> inception_4a/3x3 (in-place)
I0403 15:48:28.802922 14465 net.cpp:141] Setting up inception_4a/relu_3x3
I0403 15:48:28.802953 14465 net.cpp:148] Top shape: 24 208 14 14 (978432)
I0403 15:48:28.802969 14465 net.cpp:156] Memory required for data: 873063456
I0403 15:48:28.802985 14465 layer_factory.hpp:77] Creating layer inception_4a/5x5_reduce
I0403 15:48:28.803009 14465 net.cpp:91] Creating Layer inception_4a/5x5_reduce
I0403 15:48:28.803027 14465 net.cpp:425] inception_4a/5x5_reduce <- pool3/3x3_s2_pool3/3x3_s2_0_split_2
I0403 15:48:28.803047 14465 net.cpp:399] inception_4a/5x5_reduce -> inception_4a/5x5_reduce
I0403 15:48:28.804142 14465 net.cpp:141] Setting up inception_4a/5x5_reduce
I0403 15:48:28.804174 14465 net.cpp:148] Top shape: 24 16 14 14 (75264)
I0403 15:48:28.804190 14465 net.cpp:156] Memory required for data: 873364512
I0403 15:48:28.804209 14465 layer_factory.hpp:77] Creating layer inception_4a/relu_5x5_reduce
I0403 15:48:28.804229 14465 net.cpp:91] Creating Layer inception_4a/relu_5x5_reduce
I0403 15:48:28.804246 14465 net.cpp:425] inception_4a/relu_5x5_reduce <- inception_4a/5x5_reduce
I0403 15:48:28.804267 14465 net.cpp:386] inception_4a/relu_5x5_reduce -> inception_4a/5x5_reduce (in-place)
I0403 15:48:28.804461 14465 net.cpp:141] Setting up inception_4a/relu_5x5_reduce
I0403 15:48:28.804488 14465 net.cpp:148] Top shape: 24 16 14 14 (75264)
I0403 15:48:28.804504 14465 net.cpp:156] Memory required for data: 873665568
I0403 15:48:28.804519 14465 layer_factory.hpp:77] Creating layer inception_4a/5x5
I0403 15:48:28.804543 14465 net.cpp:91] Creating Layer inception_4a/5x5
I0403 15:48:28.804561 14465 net.cpp:425] inception_4a/5x5 <- inception_4a/5x5_reduce
I0403 15:48:28.804584 14465 net.cpp:399] inception_4a/5x5 -> inception_4a/5x5
I0403 15:48:28.805728 14465 net.cpp:141] Setting up inception_4a/5x5
I0403 15:48:28.805758 14465 net.cpp:148] Top shape: 24 48 14 14 (225792)
I0403 15:48:28.805774 14465 net.cpp:156] Memory required for data: 874568736
I0403 15:48:28.805793 14465 layer_factory.hpp:77] Creating layer inception_4a/relu_5x5
I0403 15:48:28.805814 14465 net.cpp:91] Creating Layer inception_4a/relu_5x5
I0403 15:48:28.805831 14465 net.cpp:425] inception_4a/relu_5x5 <- inception_4a/5x5
I0403 15:48:28.805850 14465 net.cpp:386] inception_4a/relu_5x5 -> inception_4a/5x5 (in-place)
I0403 15:48:28.806035 14465 net.cpp:141] Setting up inception_4a/relu_5x5
I0403 15:48:28.806066 14465 net.cpp:148] Top shape: 24 48 14 14 (225792)
I0403 15:48:28.806084 14465 net.cpp:156] Memory required for data: 875471904
I0403 15:48:28.806104 14465 layer_factory.hpp:77] Creating layer inception_4a/pool
I0403 15:48:28.806125 14465 net.cpp:91] Creating Layer inception_4a/pool
I0403 15:48:28.806143 14465 net.cpp:425] inception_4a/pool <- pool3/3x3_s2_pool3/3x3_s2_0_split_3
I0403 15:48:28.806161 14465 net.cpp:399] inception_4a/pool -> inception_4a/pool
I0403 15:48:28.806228 14465 net.cpp:141] Setting up inception_4a/pool
I0403 15:48:28.806254 14465 net.cpp:148] Top shape: 24 480 14 14 (2257920)
I0403 15:48:28.806269 14465 net.cpp:156] Memory required for data: 884503584
I0403 15:48:28.806285 14465 layer_factory.hpp:77] Creating layer inception_4a/pool_proj
I0403 15:48:28.806308 14465 net.cpp:91] Creating Layer inception_4a/pool_proj
I0403 15:48:28.806326 14465 net.cpp:425] inception_4a/pool_proj <- inception_4a/pool
I0403 15:48:28.806347 14465 net.cpp:399] inception_4a/pool_proj -> inception_4a/pool_proj
I0403 15:48:28.807595 14465 net.cpp:141] Setting up inception_4a/pool_proj
I0403 15:48:28.807626 14465 net.cpp:148] Top shape: 24 64 14 14 (301056)
I0403 15:48:28.807659 14465 net.cpp:156] Memory required for data: 885707808
I0403 15:48:28.807679 14465 layer_factory.hpp:77] Creating layer inception_4a/relu_pool_proj
I0403 15:48:28.807703 14465 net.cpp:91] Creating Layer inception_4a/relu_pool_proj
I0403 15:48:28.807721 14465 net.cpp:425] inception_4a/relu_pool_proj <- inception_4a/pool_proj
I0403 15:48:28.807739 14465 net.cpp:386] inception_4a/relu_pool_proj -> inception_4a/pool_proj (in-place)
I0403 15:48:28.808040 14465 net.cpp:141] Setting up inception_4a/relu_pool_proj
I0403 15:48:28.808068 14465 net.cpp:148] Top shape: 24 64 14 14 (301056)
I0403 15:48:28.808084 14465 net.cpp:156] Memory required for data: 886912032
I0403 15:48:28.808105 14465 layer_factory.hpp:77] Creating layer inception_4a/output
I0403 15:48:28.808127 14465 net.cpp:91] Creating Layer inception_4a/output
I0403 15:48:28.808145 14465 net.cpp:425] inception_4a/output <- inception_4a/1x1
I0403 15:48:28.808161 14465 net.cpp:425] inception_4a/output <- inception_4a/3x3
I0403 15:48:28.808178 14465 net.cpp:425] inception_4a/output <- inception_4a/5x5
I0403 15:48:28.808195 14465 net.cpp:425] inception_4a/output <- inception_4a/pool_proj
I0403 15:48:28.808212 14465 net.cpp:399] inception_4a/output -> inception_4a/output
I0403 15:48:28.808261 14465 net.cpp:141] Setting up inception_4a/output
I0403 15:48:28.808287 14465 net.cpp:148] Top shape: 24 512 14 14 (2408448)
I0403 15:48:28.808302 14465 net.cpp:156] Memory required for data: 896545824
I0403 15:48:28.808317 14465 layer_factory.hpp:77] Creating layer inception_4a/output_inception_4a/output_0_split
I0403 15:48:28.808336 14465 net.cpp:91] Creating Layer inception_4a/output_inception_4a/output_0_split
I0403 15:48:28.808353 14465 net.cpp:425] inception_4a/output_inception_4a/output_0_split <- inception_4a/output
I0403 15:48:28.808375 14465 net.cpp:399] inception_4a/output_inception_4a/output_0_split -> inception_4a/output_inception_4a/output_0_split_0
I0403 15:48:28.808398 14465 net.cpp:399] inception_4a/output_inception_4a/output_0_split -> inception_4a/output_inception_4a/output_0_split_1
I0403 15:48:28.808419 14465 net.cpp:399] inception_4a/output_inception_4a/output_0_split -> inception_4a/output_inception_4a/output_0_split_2
I0403 15:48:28.808439 14465 net.cpp:399] inception_4a/output_inception_4a/output_0_split -> inception_4a/output_inception_4a/output_0_split_3
I0403 15:48:28.808460 14465 net.cpp:399] inception_4a/output_inception_4a/output_0_split -> inception_4a/output_inception_4a/output_0_split_4
I0403 15:48:28.808563 14465 net.cpp:141] Setting up inception_4a/output_inception_4a/output_0_split
I0403 15:48:28.808588 14465 net.cpp:148] Top shape: 24 512 14 14 (2408448)
I0403 15:48:28.808606 14465 net.cpp:148] Top shape: 24 512 14 14 (2408448)
I0403 15:48:28.808621 14465 net.cpp:148] Top shape: 24 512 14 14 (2408448)
I0403 15:48:28.808637 14465 net.cpp:148] Top shape: 24 512 14 14 (2408448)
I0403 15:48:28.808653 14465 net.cpp:148] Top shape: 24 512 14 14 (2408448)
I0403 15:48:28.808667 14465 net.cpp:156] Memory required for data: 944714784
I0403 15:48:28.808682 14465 layer_factory.hpp:77] Creating layer loss1/ave_pool
I0403 15:48:28.808701 14465 net.cpp:91] Creating Layer loss1/ave_pool
I0403 15:48:28.808717 14465 net.cpp:425] loss1/ave_pool <- inception_4a/output_inception_4a/output_0_split_0
I0403 15:48:28.808737 14465 net.cpp:399] loss1/ave_pool -> loss1/ave_pool
I0403 15:48:28.808954 14465 net.cpp:141] Setting up loss1/ave_pool
I0403 15:48:28.808984 14465 net.cpp:148] Top shape: 24 512 4 4 (196608)
I0403 15:48:28.809000 14465 net.cpp:156] Memory required for data: 945501216
I0403 15:48:28.809015 14465 layer_factory.hpp:77] Creating layer loss1/conv
I0403 15:48:28.809038 14465 net.cpp:91] Creating Layer loss1/conv
I0403 15:48:28.809056 14465 net.cpp:425] loss1/conv <- loss1/ave_pool
I0403 15:48:28.809080 14465 net.cpp:399] loss1/conv -> loss1/conv
I0403 15:48:28.810586 14465 net.cpp:141] Setting up loss1/conv
I0403 15:48:28.810619 14465 net.cpp:148] Top shape: 24 128 4 4 (49152)
I0403 15:48:28.810638 14465 net.cpp:156] Memory required for data: 945697824
I0403 15:48:28.810673 14465 layer_factory.hpp:77] Creating layer loss1/relu_conv
I0403 15:48:28.810693 14465 net.cpp:91] Creating Layer loss1/relu_conv
I0403 15:48:28.810710 14465 net.cpp:425] loss1/relu_conv <- loss1/conv
I0403 15:48:28.810729 14465 net.cpp:386] loss1/relu_conv -> loss1/conv (in-place)
I0403 15:48:28.811022 14465 net.cpp:141] Setting up loss1/relu_conv
I0403 15:48:28.811054 14465 net.cpp:148] Top shape: 24 128 4 4 (49152)
I0403 15:48:28.811071 14465 net.cpp:156] Memory required for data: 945894432
I0403 15:48:28.811087 14465 layer_factory.hpp:77] Creating layer loss1/fc
I0403 15:48:28.811117 14465 net.cpp:91] Creating Layer loss1/fc
I0403 15:48:28.811137 14465 net.cpp:425] loss1/fc <- loss1/conv
I0403 15:48:28.811159 14465 net.cpp:399] loss1/fc -> loss1/fc
I0403 15:48:28.829924 14465 net.cpp:141] Setting up loss1/fc
I0403 15:48:28.829967 14465 net.cpp:148] Top shape: 24 1024 (24576)
I0403 15:48:28.829983 14465 net.cpp:156] Memory required for data: 945992736
I0403 15:48:28.830003 14465 layer_factory.hpp:77] Creating layer loss1/relu_fc
I0403 15:48:28.830024 14465 net.cpp:91] Creating Layer loss1/relu_fc
I0403 15:48:28.830041 14465 net.cpp:425] loss1/relu_fc <- loss1/fc
I0403 15:48:28.830060 14465 net.cpp:386] loss1/relu_fc -> loss1/fc (in-place)
I0403 15:48:28.830265 14465 net.cpp:141] Setting up loss1/relu_fc
I0403 15:48:28.830294 14465 net.cpp:148] Top shape: 24 1024 (24576)
I0403 15:48:28.830312 14465 net.cpp:156] Memory required for data: 946091040
I0403 15:48:28.830327 14465 layer_factory.hpp:77] Creating layer loss1/drop_fc
I0403 15:48:28.830354 14465 net.cpp:91] Creating Layer loss1/drop_fc
I0403 15:48:28.830374 14465 net.cpp:425] loss1/drop_fc <- loss1/fc
I0403 15:48:28.830392 14465 net.cpp:386] loss1/drop_fc -> loss1/fc (in-place)
I0403 15:48:28.830449 14465 net.cpp:141] Setting up loss1/drop_fc
I0403 15:48:28.830476 14465 net.cpp:148] Top shape: 24 1024 (24576)
I0403 15:48:28.830492 14465 net.cpp:156] Memory required for data: 946189344
I0403 15:48:28.830507 14465 layer_factory.hpp:77] Creating layer loss1/classifier_plantvillage
I0403 15:48:28.830531 14465 net.cpp:91] Creating Layer loss1/classifier_plantvillage
I0403 15:48:28.830549 14465 net.cpp:425] loss1/classifier_plantvillage <- loss1/fc
I0403 15:48:28.830569 14465 net.cpp:399] loss1/classifier_plantvillage -> loss1/classifier_plantvillage
I0403 15:48:28.831516 14465 net.cpp:141] Setting up loss1/classifier_plantvillage
I0403 15:48:28.831548 14465 net.cpp:148] Top shape: 24 38 (912)
I0403 15:48:28.831565 14465 net.cpp:156] Memory required for data: 946192992
I0403 15:48:28.831584 14465 layer_factory.hpp:77] Creating layer loss1/classifier_plantvillage_loss1/classifier_plantvillage_0_split
I0403 15:48:28.831604 14465 net.cpp:91] Creating Layer loss1/classifier_plantvillage_loss1/classifier_plantvillage_0_split
I0403 15:48:28.831621 14465 net.cpp:425] loss1/classifier_plantvillage_loss1/classifier_plantvillage_0_split <- loss1/classifier_plantvillage
I0403 15:48:28.831640 14465 net.cpp:399] loss1/classifier_plantvillage_loss1/classifier_plantvillage_0_split -> loss1/classifier_plantvillage_loss1/classifier_plantvillage_0_split_0
I0403 15:48:28.831661 14465 net.cpp:399] loss1/classifier_plantvillage_loss1/classifier_plantvillage_0_split -> loss1/classifier_plantvillage_loss1/classifier_plantvillage_0_split_1
I0403 15:48:28.831681 14465 net.cpp:399] loss1/classifier_plantvillage_loss1/classifier_plantvillage_0_split -> loss1/classifier_plantvillage_loss1/classifier_plantvillage_0_split_2
I0403 15:48:28.831753 14465 net.cpp:141] Setting up loss1/classifier_plantvillage_loss1/classifier_plantvillage_0_split
I0403 15:48:28.831779 14465 net.cpp:148] Top shape: 24 38 (912)
I0403 15:48:28.831795 14465 net.cpp:148] Top shape: 24 38 (912)
I0403 15:48:28.831811 14465 net.cpp:148] Top shape: 24 38 (912)
I0403 15:48:28.831828 14465 net.cpp:156] Memory required for data: 946203936
I0403 15:48:28.831843 14465 layer_factory.hpp:77] Creating layer inception_4b/1x1
I0403 15:48:28.831864 14465 net.cpp:91] Creating Layer inception_4b/1x1
I0403 15:48:28.831899 14465 net.cpp:425] inception_4b/1x1 <- inception_4a/output_inception_4a/output_0_split_1
I0403 15:48:28.831923 14465 net.cpp:399] inception_4b/1x1 -> inception_4b/1x1
I0403 15:48:28.833693 14465 net.cpp:141] Setting up inception_4b/1x1
I0403 15:48:28.833727 14465 net.cpp:148] Top shape: 24 160 14 14 (752640)
I0403 15:48:28.833745 14465 net.cpp:156] Memory required for data: 949214496
I0403 15:48:28.833765 14465 layer_factory.hpp:77] Creating layer inception_4b/relu_1x1
I0403 15:48:28.833783 14465 net.cpp:91] Creating Layer inception_4b/relu_1x1
I0403 15:48:28.833801 14465 net.cpp:425] inception_4b/relu_1x1 <- inception_4b/1x1
I0403 15:48:28.833820 14465 net.cpp:386] inception_4b/relu_1x1 -> inception_4b/1x1 (in-place)
I0403 15:48:28.834015 14465 net.cpp:141] Setting up inception_4b/relu_1x1
I0403 15:48:28.834043 14465 net.cpp:148] Top shape: 24 160 14 14 (752640)
I0403 15:48:28.834061 14465 net.cpp:156] Memory required for data: 952225056
I0403 15:48:28.834077 14465 layer_factory.hpp:77] Creating layer inception_4b/3x3_reduce
I0403 15:48:28.834105 14465 net.cpp:91] Creating Layer inception_4b/3x3_reduce
I0403 15:48:28.834125 14465 net.cpp:425] inception_4b/3x3_reduce <- inception_4a/output_inception_4a/output_0_split_2
I0403 15:48:28.834147 14465 net.cpp:399] inception_4b/3x3_reduce -> inception_4b/3x3_reduce
I0403 15:48:28.835598 14465 net.cpp:141] Setting up inception_4b/3x3_reduce
I0403 15:48:28.835629 14465 net.cpp:148] Top shape: 24 112 14 14 (526848)
I0403 15:48:28.835645 14465 net.cpp:156] Memory required for data: 954332448
I0403 15:48:28.835664 14465 layer_factory.hpp:77] Creating layer inception_4b/relu_3x3_reduce
I0403 15:48:28.835687 14465 net.cpp:91] Creating Layer inception_4b/relu_3x3_reduce
I0403 15:48:28.835705 14465 net.cpp:425] inception_4b/relu_3x3_reduce <- inception_4b/3x3_reduce
I0403 15:48:28.835724 14465 net.cpp:386] inception_4b/relu_3x3_reduce -> inception_4b/3x3_reduce (in-place)
I0403 15:48:28.836024 14465 net.cpp:141] Setting up inception_4b/relu_3x3_reduce
I0403 15:48:28.836051 14465 net.cpp:148] Top shape: 24 112 14 14 (526848)
I0403 15:48:28.836067 14465 net.cpp:156] Memory required for data: 956439840
I0403 15:48:28.836083 14465 layer_factory.hpp:77] Creating layer inception_4b/3x3
I0403 15:48:28.836114 14465 net.cpp:91] Creating Layer inception_4b/3x3
I0403 15:48:28.836134 14465 net.cpp:425] inception_4b/3x3 <- inception_4b/3x3_reduce
I0403 15:48:28.836159 14465 net.cpp:399] inception_4b/3x3 -> inception_4b/3x3
I0403 15:48:28.839308 14465 net.cpp:141] Setting up inception_4b/3x3
I0403 15:48:28.839340 14465 net.cpp:148] Top shape: 24 224 14 14 (1053696)
I0403 15:48:28.839359 14465 net.cpp:156] Memory required for data: 960654624
I0403 15:48:28.839377 14465 layer_factory.hpp:77] Creating layer inception_4b/relu_3x3
I0403 15:48:28.839400 14465 net.cpp:91] Creating Layer inception_4b/relu_3x3
I0403 15:48:28.839418 14465 net.cpp:425] inception_4b/relu_3x3 <- inception_4b/3x3
I0403 15:48:28.839437 14465 net.cpp:386] inception_4b/relu_3x3 -> inception_4b/3x3 (in-place)
I0403 15:48:28.839635 14465 net.cpp:141] Setting up inception_4b/relu_3x3
I0403 15:48:28.839666 14465 net.cpp:148] Top shape: 24 224 14 14 (1053696)
I0403 15:48:28.839682 14465 net.cpp:156] Memory required for data: 964869408
I0403 15:48:28.839699 14465 layer_factory.hpp:77] Creating layer inception_4b/5x5_reduce
I0403 15:48:28.839721 14465 net.cpp:91] Creating Layer inception_4b/5x5_reduce
I0403 15:48:28.839740 14465 net.cpp:425] inception_4b/5x5_reduce <- inception_4a/output_inception_4a/output_0_split_3
I0403 15:48:28.839759 14465 net.cpp:399] inception_4b/5x5_reduce -> inception_4b/5x5_reduce
I0403 15:48:28.840934 14465 net.cpp:141] Setting up inception_4b/5x5_reduce
I0403 15:48:28.840963 14465 net.cpp:148] Top shape: 24 24 14 14 (112896)
I0403 15:48:28.840980 14465 net.cpp:156] Memory required for data: 965320992
I0403 15:48:28.840998 14465 layer_factory.hpp:77] Creating layer inception_4b/relu_5x5_reduce
I0403 15:48:28.841017 14465 net.cpp:91] Creating Layer inception_4b/relu_5x5_reduce
I0403 15:48:28.841050 14465 net.cpp:425] inception_4b/relu_5x5_reduce <- inception_4b/5x5_reduce
I0403 15:48:28.841073 14465 net.cpp:386] inception_4b/relu_5x5_reduce -> inception_4b/5x5_reduce (in-place)
I0403 15:48:28.841274 14465 net.cpp:141] Setting up inception_4b/relu_5x5_reduce
I0403 15:48:28.841301 14465 net.cpp:148] Top shape: 24 24 14 14 (112896)
I0403 15:48:28.841317 14465 net.cpp:156] Memory required for data: 965772576
I0403 15:48:28.841333 14465 layer_factory.hpp:77] Creating layer inception_4b/5x5
I0403 15:48:28.841356 14465 net.cpp:91] Creating Layer inception_4b/5x5
I0403 15:48:28.841375 14465 net.cpp:425] inception_4b/5x5 <- inception_4b/5x5_reduce
I0403 15:48:28.841398 14465 net.cpp:399] inception_4b/5x5 -> inception_4b/5x5
I0403 15:48:28.842700 14465 net.cpp:141] Setting up inception_4b/5x5
I0403 15:48:28.842732 14465 net.cpp:148] Top shape: 24 64 14 14 (301056)
I0403 15:48:28.842748 14465 net.cpp:156] Memory required for data: 966976800
I0403 15:48:28.842767 14465 layer_factory.hpp:77] Creating layer inception_4b/relu_5x5
I0403 15:48:28.842787 14465 net.cpp:91] Creating Layer inception_4b/relu_5x5
I0403 15:48:28.842805 14465 net.cpp:425] inception_4b/relu_5x5 <- inception_4b/5x5
I0403 15:48:28.842826 14465 net.cpp:386] inception_4b/relu_5x5 -> inception_4b/5x5 (in-place)
I0403 15:48:28.843137 14465 net.cpp:141] Setting up inception_4b/relu_5x5
I0403 15:48:28.843169 14465 net.cpp:148] Top shape: 24 64 14 14 (301056)
I0403 15:48:28.843185 14465 net.cpp:156] Memory required for data: 968181024
I0403 15:48:28.843201 14465 layer_factory.hpp:77] Creating layer inception_4b/pool
I0403 15:48:28.843219 14465 net.cpp:91] Creating Layer inception_4b/pool
I0403 15:48:28.843236 14465 net.cpp:425] inception_4b/pool <- inception_4a/output_inception_4a/output_0_split_4
I0403 15:48:28.843260 14465 net.cpp:399] inception_4b/pool -> inception_4b/pool
I0403 15:48:28.843328 14465 net.cpp:141] Setting up inception_4b/pool
I0403 15:48:28.843354 14465 net.cpp:148] Top shape: 24 512 14 14 (2408448)
I0403 15:48:28.843370 14465 net.cpp:156] Memory required for data: 977814816
I0403 15:48:28.843386 14465 layer_factory.hpp:77] Creating layer inception_4b/pool_proj
I0403 15:48:28.843411 14465 net.cpp:91] Creating Layer inception_4b/pool_proj
I0403 15:48:28.843430 14465 net.cpp:425] inception_4b/pool_proj <- inception_4b/pool
I0403 15:48:28.843451 14465 net.cpp:399] inception_4b/pool_proj -> inception_4b/pool_proj
I0403 15:48:28.844723 14465 net.cpp:141] Setting up inception_4b/pool_proj
I0403 15:48:28.844753 14465 net.cpp:148] Top shape: 24 64 14 14 (301056)
I0403 15:48:28.844770 14465 net.cpp:156] Memory required for data: 979019040
I0403 15:48:28.844789 14465 layer_factory.hpp:77] Creating layer inception_4b/relu_pool_proj
I0403 15:48:28.844808 14465 net.cpp:91] Creating Layer inception_4b/relu_pool_proj
I0403 15:48:28.844825 14465 net.cpp:425] inception_4b/relu_pool_proj <- inception_4b/pool_proj
I0403 15:48:28.844846 14465 net.cpp:386] inception_4b/relu_pool_proj -> inception_4b/pool_proj (in-place)
I0403 15:48:28.845038 14465 net.cpp:141] Setting up inception_4b/relu_pool_proj
I0403 15:48:28.845065 14465 net.cpp:148] Top shape: 24 64 14 14 (301056)
I0403 15:48:28.845082 14465 net.cpp:156] Memory required for data: 980223264
I0403 15:48:28.845101 14465 layer_factory.hpp:77] Creating layer inception_4b/output
I0403 15:48:28.845124 14465 net.cpp:91] Creating Layer inception_4b/output
I0403 15:48:28.845141 14465 net.cpp:425] inception_4b/output <- inception_4b/1x1
I0403 15:48:28.845158 14465 net.cpp:425] inception_4b/output <- inception_4b/3x3
I0403 15:48:28.845175 14465 net.cpp:425] inception_4b/output <- inception_4b/5x5
I0403 15:48:28.845192 14465 net.cpp:425] inception_4b/output <- inception_4b/pool_proj
I0403 15:48:28.845211 14465 net.cpp:399] inception_4b/output -> inception_4b/output
I0403 15:48:28.845257 14465 net.cpp:141] Setting up inception_4b/output
I0403 15:48:28.845285 14465 net.cpp:148] Top shape: 24 512 14 14 (2408448)
I0403 15:48:28.845302 14465 net.cpp:156] Memory required for data: 989857056
I0403 15:48:28.845332 14465 layer_factory.hpp:77] Creating layer inception_4b/output_inception_4b/output_0_split
I0403 15:48:28.845355 14465 net.cpp:91] Creating Layer inception_4b/output_inception_4b/output_0_split
I0403 15:48:28.845371 14465 net.cpp:425] inception_4b/output_inception_4b/output_0_split <- inception_4b/output
I0403 15:48:28.845392 14465 net.cpp:399] inception_4b/output_inception_4b/output_0_split -> inception_4b/output_inception_4b/output_0_split_0
I0403 15:48:28.845414 14465 net.cpp:399] inception_4b/output_inception_4b/output_0_split -> inception_4b/output_inception_4b/output_0_split_1
I0403 15:48:28.845435 14465 net.cpp:399] inception_4b/output_inception_4b/output_0_split -> inception_4b/output_inception_4b/output_0_split_2
I0403 15:48:28.845456 14465 net.cpp:399] inception_4b/output_inception_4b/output_0_split -> inception_4b/output_inception_4b/output_0_split_3
I0403 15:48:28.845544 14465 net.cpp:141] Setting up inception_4b/output_inception_4b/output_0_split
I0403 15:48:28.845572 14465 net.cpp:148] Top shape: 24 512 14 14 (2408448)
I0403 15:48:28.845590 14465 net.cpp:148] Top shape: 24 512 14 14 (2408448)
I0403 15:48:28.845605 14465 net.cpp:148] Top shape: 24 512 14 14 (2408448)
I0403 15:48:28.845621 14465 net.cpp:148] Top shape: 24 512 14 14 (2408448)
I0403 15:48:28.845634 14465 net.cpp:156] Memory required for data: 1028392224
I0403 15:48:28.845650 14465 layer_factory.hpp:77] Creating layer inception_4c/1x1
I0403 15:48:28.845674 14465 net.cpp:91] Creating Layer inception_4c/1x1
I0403 15:48:28.845693 14465 net.cpp:425] inception_4c/1x1 <- inception_4b/output_inception_4b/output_0_split_0
I0403 15:48:28.845712 14465 net.cpp:399] inception_4c/1x1 -> inception_4c/1x1
I0403 15:48:28.847250 14465 net.cpp:141] Setting up inception_4c/1x1
I0403 15:48:28.847280 14465 net.cpp:148] Top shape: 24 128 14 14 (602112)
I0403 15:48:28.847297 14465 net.cpp:156] Memory required for data: 1030800672
I0403 15:48:28.847317 14465 layer_factory.hpp:77] Creating layer inception_4c/relu_1x1
I0403 15:48:28.847338 14465 net.cpp:91] Creating Layer inception_4c/relu_1x1
I0403 15:48:28.847357 14465 net.cpp:425] inception_4c/relu_1x1 <- inception_4c/1x1
I0403 15:48:28.847375 14465 net.cpp:386] inception_4c/relu_1x1 -> inception_4c/1x1 (in-place)
I0403 15:48:28.847570 14465 net.cpp:141] Setting up inception_4c/relu_1x1
I0403 15:48:28.847599 14465 net.cpp:148] Top shape: 24 128 14 14 (602112)
I0403 15:48:28.847615 14465 net.cpp:156] Memory required for data: 1033209120
I0403 15:48:28.847632 14465 layer_factory.hpp:77] Creating layer inception_4c/3x3_reduce
I0403 15:48:28.847656 14465 net.cpp:91] Creating Layer inception_4c/3x3_reduce
I0403 15:48:28.847673 14465 net.cpp:425] inception_4c/3x3_reduce <- inception_4b/output_inception_4b/output_0_split_1
I0403 15:48:28.847693 14465 net.cpp:399] inception_4c/3x3_reduce -> inception_4c/3x3_reduce
I0403 15:48:28.849740 14465 net.cpp:141] Setting up inception_4c/3x3_reduce
I0403 15:48:28.849772 14465 net.cpp:148] Top shape: 24 128 14 14 (602112)
I0403 15:48:28.849792 14465 net.cpp:156] Memory required for data: 1035617568
I0403 15:48:28.849812 14465 layer_factory.hpp:77] Creating layer inception_4c/relu_3x3_reduce
I0403 15:48:28.849831 14465 net.cpp:91] Creating Layer inception_4c/relu_3x3_reduce
I0403 15:48:28.849848 14465 net.cpp:425] inception_4c/relu_3x3_reduce <- inception_4c/3x3_reduce
I0403 15:48:28.849869 14465 net.cpp:386] inception_4c/relu_3x3_reduce -> inception_4c/3x3_reduce (in-place)
I0403 15:48:28.850179 14465 net.cpp:141] Setting up inception_4c/relu_3x3_reduce
I0403 15:48:28.850210 14465 net.cpp:148] Top shape: 24 128 14 14 (602112)
I0403 15:48:28.850226 14465 net.cpp:156] Memory required for data: 1038026016
I0403 15:48:28.850242 14465 layer_factory.hpp:77] Creating layer inception_4c/3x3
I0403 15:48:28.850266 14465 net.cpp:91] Creating Layer inception_4c/3x3
I0403 15:48:28.850286 14465 net.cpp:425] inception_4c/3x3 <- inception_4c/3x3_reduce
I0403 15:48:28.850306 14465 net.cpp:399] inception_4c/3x3 -> inception_4c/3x3
I0403 15:48:28.854140 14465 net.cpp:141] Setting up inception_4c/3x3
I0403 15:48:28.854184 14465 net.cpp:148] Top shape: 24 256 14 14 (1204224)
I0403 15:48:28.854202 14465 net.cpp:156] Memory required for data: 1042842912
I0403 15:48:28.854238 14465 layer_factory.hpp:77] Creating layer inception_4c/relu_3x3
I0403 15:48:28.854261 14465 net.cpp:91] Creating Layer inception_4c/relu_3x3
I0403 15:48:28.854279 14465 net.cpp:425] inception_4c/relu_3x3 <- inception_4c/3x3
I0403 15:48:28.854298 14465 net.cpp:386] inception_4c/relu_3x3 -> inception_4c/3x3 (in-place)
I0403 15:48:28.854574 14465 net.cpp:141] Setting up inception_4c/relu_3x3
I0403 15:48:28.854604 14465 net.cpp:148] Top shape: 24 256 14 14 (1204224)
I0403 15:48:28.854619 14465 net.cpp:156] Memory required for data: 1047659808
I0403 15:48:28.854635 14465 layer_factory.hpp:77] Creating layer inception_4c/5x5_reduce
I0403 15:48:28.854660 14465 net.cpp:91] Creating Layer inception_4c/5x5_reduce
I0403 15:48:28.854678 14465 net.cpp:425] inception_4c/5x5_reduce <- inception_4b/output_inception_4b/output_0_split_2
I0403 15:48:28.854701 14465 net.cpp:399] inception_4c/5x5_reduce -> inception_4c/5x5_reduce
I0403 15:48:28.855873 14465 net.cpp:141] Setting up inception_4c/5x5_reduce
I0403 15:48:28.855906 14465 net.cpp:148] Top shape: 24 24 14 14 (112896)
I0403 15:48:28.855924 14465 net.cpp:156] Memory required for data: 1048111392
I0403 15:48:28.855944 14465 layer_factory.hpp:77] Creating layer inception_4c/relu_5x5_reduce
I0403 15:48:28.855963 14465 net.cpp:91] Creating Layer inception_4c/relu_5x5_reduce
I0403 15:48:28.855980 14465 net.cpp:425] inception_4c/relu_5x5_reduce <- inception_4c/5x5_reduce
I0403 15:48:28.856001 14465 net.cpp:386] inception_4c/relu_5x5_reduce -> inception_4c/5x5_reduce (in-place)
I0403 15:48:28.856202 14465 net.cpp:141] Setting up inception_4c/relu_5x5_reduce
I0403 15:48:28.856230 14465 net.cpp:148] Top shape: 24 24 14 14 (112896)
I0403 15:48:28.856245 14465 net.cpp:156] Memory required for data: 1048562976
I0403 15:48:28.856261 14465 layer_factory.hpp:77] Creating layer inception_4c/5x5
I0403 15:48:28.856284 14465 net.cpp:91] Creating Layer inception_4c/5x5
I0403 15:48:28.856303 14465 net.cpp:425] inception_4c/5x5 <- inception_4c/5x5_reduce
I0403 15:48:28.856325 14465 net.cpp:399] inception_4c/5x5 -> inception_4c/5x5
I0403 15:48:28.857643 14465 net.cpp:141] Setting up inception_4c/5x5
I0403 15:48:28.857673 14465 net.cpp:148] Top shape: 24 64 14 14 (301056)
I0403 15:48:28.857689 14465 net.cpp:156] Memory required for data: 1049767200
I0403 15:48:28.857708 14465 layer_factory.hpp:77] Creating layer inception_4c/relu_5x5
I0403 15:48:28.857730 14465 net.cpp:91] Creating Layer inception_4c/relu_5x5
I0403 15:48:28.857748 14465 net.cpp:425] inception_4c/relu_5x5 <- inception_4c/5x5
I0403 15:48:28.857766 14465 net.cpp:386] inception_4c/relu_5x5 -> inception_4c/5x5 (in-place)
I0403 15:48:28.858072 14465 net.cpp:141] Setting up inception_4c/relu_5x5
I0403 15:48:28.858103 14465 net.cpp:148] Top shape: 24 64 14 14 (301056)
I0403 15:48:28.858121 14465 net.cpp:156] Memory required for data: 1050971424
I0403 15:48:28.858137 14465 layer_factory.hpp:77] Creating layer inception_4c/pool
I0403 15:48:28.858158 14465 net.cpp:91] Creating Layer inception_4c/pool
I0403 15:48:28.858177 14465 net.cpp:425] inception_4c/pool <- inception_4b/output_inception_4b/output_0_split_3
I0403 15:48:28.858197 14465 net.cpp:399] inception_4c/pool -> inception_4c/pool
I0403 15:48:28.858268 14465 net.cpp:141] Setting up inception_4c/pool
I0403 15:48:28.858292 14465 net.cpp:148] Top shape: 24 512 14 14 (2408448)
I0403 15:48:28.858309 14465 net.cpp:156] Memory required for data: 1060605216
I0403 15:48:28.858324 14465 layer_factory.hpp:77] Creating layer inception_4c/pool_proj
I0403 15:48:28.858345 14465 net.cpp:91] Creating Layer inception_4c/pool_proj
I0403 15:48:28.858364 14465 net.cpp:425] inception_4c/pool_proj <- inception_4c/pool
I0403 15:48:28.858387 14465 net.cpp:399] inception_4c/pool_proj -> inception_4c/pool_proj
I0403 15:48:28.859690 14465 net.cpp:141] Setting up inception_4c/pool_proj
I0403 15:48:28.859720 14465 net.cpp:148] Top shape: 24 64 14 14 (301056)
I0403 15:48:28.859752 14465 net.cpp:156] Memory required for data: 1061809440
I0403 15:48:28.859773 14465 layer_factory.hpp:77] Creating layer inception_4c/relu_pool_proj
I0403 15:48:28.859793 14465 net.cpp:91] Creating Layer inception_4c/relu_pool_proj
I0403 15:48:28.859810 14465 net.cpp:425] inception_4c/relu_pool_proj <- inception_4c/pool_proj
I0403 15:48:28.859832 14465 net.cpp:386] inception_4c/relu_pool_proj -> inception_4c/pool_proj (in-place)
I0403 15:48:28.860025 14465 net.cpp:141] Setting up inception_4c/relu_pool_proj
I0403 15:48:28.860052 14465 net.cpp:148] Top shape: 24 64 14 14 (301056)
I0403 15:48:28.860069 14465 net.cpp:156] Memory required for data: 1063013664
I0403 15:48:28.860083 14465 layer_factory.hpp:77] Creating layer inception_4c/output
I0403 15:48:28.860110 14465 net.cpp:91] Creating Layer inception_4c/output
I0403 15:48:28.860128 14465 net.cpp:425] inception_4c/output <- inception_4c/1x1
I0403 15:48:28.860146 14465 net.cpp:425] inception_4c/output <- inception_4c/3x3
I0403 15:48:28.860162 14465 net.cpp:425] inception_4c/output <- inception_4c/5x5
I0403 15:48:28.860179 14465 net.cpp:425] inception_4c/output <- inception_4c/pool_proj
I0403 15:48:28.860198 14465 net.cpp:399] inception_4c/output -> inception_4c/output
I0403 15:48:28.860245 14465 net.cpp:141] Setting up inception_4c/output
I0403 15:48:28.860275 14465 net.cpp:148] Top shape: 24 512 14 14 (2408448)
I0403 15:48:28.860291 14465 net.cpp:156] Memory required for data: 1072647456
I0403 15:48:28.860307 14465 layer_factory.hpp:77] Creating layer inception_4c/output_inception_4c/output_0_split
I0403 15:48:28.860324 14465 net.cpp:91] Creating Layer inception_4c/output_inception_4c/output_0_split
I0403 15:48:28.860340 14465 net.cpp:425] inception_4c/output_inception_4c/output_0_split <- inception_4c/output
I0403 15:48:28.860363 14465 net.cpp:399] inception_4c/output_inception_4c/output_0_split -> inception_4c/output_inception_4c/output_0_split_0
I0403 15:48:28.860384 14465 net.cpp:399] inception_4c/output_inception_4c/output_0_split -> inception_4c/output_inception_4c/output_0_split_1
I0403 15:48:28.860404 14465 net.cpp:399] inception_4c/output_inception_4c/output_0_split -> inception_4c/output_inception_4c/output_0_split_2
I0403 15:48:28.860424 14465 net.cpp:399] inception_4c/output_inception_4c/output_0_split -> inception_4c/output_inception_4c/output_0_split_3
I0403 15:48:28.860517 14465 net.cpp:141] Setting up inception_4c/output_inception_4c/output_0_split
I0403 15:48:28.860544 14465 net.cpp:148] Top shape: 24 512 14 14 (2408448)
I0403 15:48:28.860564 14465 net.cpp:148] Top shape: 24 512 14 14 (2408448)
I0403 15:48:28.860581 14465 net.cpp:148] Top shape: 24 512 14 14 (2408448)
I0403 15:48:28.860597 14465 net.cpp:148] Top shape: 24 512 14 14 (2408448)
I0403 15:48:28.860612 14465 net.cpp:156] Memory required for data: 1111182624
I0403 15:48:28.860627 14465 layer_factory.hpp:77] Creating layer inception_4d/1x1
I0403 15:48:28.860651 14465 net.cpp:91] Creating Layer inception_4d/1x1
I0403 15:48:28.860671 14465 net.cpp:425] inception_4d/1x1 <- inception_4c/output_inception_4c/output_0_split_0
I0403 15:48:28.860690 14465 net.cpp:399] inception_4d/1x1 -> inception_4d/1x1
I0403 15:48:28.862162 14465 net.cpp:141] Setting up inception_4d/1x1
I0403 15:48:28.862195 14465 net.cpp:148] Top shape: 24 112 14 14 (526848)
I0403 15:48:28.862212 14465 net.cpp:156] Memory required for data: 1113290016
I0403 15:48:28.862231 14465 layer_factory.hpp:77] Creating layer inception_4d/relu_1x1
I0403 15:48:28.862251 14465 net.cpp:91] Creating Layer inception_4d/relu_1x1
I0403 15:48:28.862267 14465 net.cpp:425] inception_4d/relu_1x1 <- inception_4d/1x1
I0403 15:48:28.862285 14465 net.cpp:386] inception_4d/relu_1x1 -> inception_4d/1x1 (in-place)
I0403 15:48:28.862481 14465 net.cpp:141] Setting up inception_4d/relu_1x1
I0403 15:48:28.862510 14465 net.cpp:148] Top shape: 24 112 14 14 (526848)
I0403 15:48:28.862526 14465 net.cpp:156] Memory required for data: 1115397408
I0403 15:48:28.862542 14465 layer_factory.hpp:77] Creating layer inception_4d/3x3_reduce
I0403 15:48:28.862581 14465 net.cpp:91] Creating Layer inception_4d/3x3_reduce
I0403 15:48:28.862602 14465 net.cpp:425] inception_4d/3x3_reduce <- inception_4c/output_inception_4c/output_0_split_1
I0403 15:48:28.862624 14465 net.cpp:399] inception_4d/3x3_reduce -> inception_4d/3x3_reduce
I0403 15:48:28.864255 14465 net.cpp:141] Setting up inception_4d/3x3_reduce
I0403 15:48:28.864285 14465 net.cpp:148] Top shape: 24 144 14 14 (677376)
I0403 15:48:28.864301 14465 net.cpp:156] Memory required for data: 1118106912
I0403 15:48:28.864321 14465 layer_factory.hpp:77] Creating layer inception_4d/relu_3x3_reduce
I0403 15:48:28.864342 14465 net.cpp:91] Creating Layer inception_4d/relu_3x3_reduce
I0403 15:48:28.864362 14465 net.cpp:425] inception_4d/relu_3x3_reduce <- inception_4d/3x3_reduce
I0403 15:48:28.864380 14465 net.cpp:386] inception_4d/relu_3x3_reduce -> inception_4d/3x3_reduce (in-place)
I0403 15:48:28.864684 14465 net.cpp:141] Setting up inception_4d/relu_3x3_reduce
I0403 15:48:28.864712 14465 net.cpp:148] Top shape: 24 144 14 14 (677376)
I0403 15:48:28.864728 14465 net.cpp:156] Memory required for data: 1120816416
I0403 15:48:28.864744 14465 layer_factory.hpp:77] Creating layer inception_4d/3x3
I0403 15:48:28.864768 14465 net.cpp:91] Creating Layer inception_4d/3x3
I0403 15:48:28.864786 14465 net.cpp:425] inception_4d/3x3 <- inception_4d/3x3_reduce
I0403 15:48:28.864809 14465 net.cpp:399] inception_4d/3x3 -> inception_4d/3x3
I0403 15:48:28.869328 14465 net.cpp:141] Setting up inception_4d/3x3
I0403 15:48:28.869362 14465 net.cpp:148] Top shape: 24 288 14 14 (1354752)
I0403 15:48:28.869380 14465 net.cpp:156] Memory required for data: 1126235424
I0403 15:48:28.869400 14465 layer_factory.hpp:77] Creating layer inception_4d/relu_3x3
I0403 15:48:28.869420 14465 net.cpp:91] Creating Layer inception_4d/relu_3x3
I0403 15:48:28.869436 14465 net.cpp:425] inception_4d/relu_3x3 <- inception_4d/3x3
I0403 15:48:28.869458 14465 net.cpp:386] inception_4d/relu_3x3 -> inception_4d/3x3 (in-place)
I0403 15:48:28.869653 14465 net.cpp:141] Setting up inception_4d/relu_3x3
I0403 15:48:28.869680 14465 net.cpp:148] Top shape: 24 288 14 14 (1354752)
I0403 15:48:28.869698 14465 net.cpp:156] Memory required for data: 1131654432
I0403 15:48:28.869714 14465 layer_factory.hpp:77] Creating layer inception_4d/5x5_reduce
I0403 15:48:28.869736 14465 net.cpp:91] Creating Layer inception_4d/5x5_reduce
I0403 15:48:28.869755 14465 net.cpp:425] inception_4d/5x5_reduce <- inception_4c/output_inception_4c/output_0_split_2
I0403 15:48:28.869777 14465 net.cpp:399] inception_4d/5x5_reduce -> inception_4d/5x5_reduce
I0403 15:48:28.870997 14465 net.cpp:141] Setting up inception_4d/5x5_reduce
I0403 15:48:28.871031 14465 net.cpp:148] Top shape: 24 32 14 14 (150528)
I0403 15:48:28.871047 14465 net.cpp:156] Memory required for data: 1132256544
I0403 15:48:28.871067 14465 layer_factory.hpp:77] Creating layer inception_4d/relu_5x5_reduce
I0403 15:48:28.871086 14465 net.cpp:91] Creating Layer inception_4d/relu_5x5_reduce
I0403 15:48:28.871109 14465 net.cpp:425] inception_4d/relu_5x5_reduce <- inception_4d/5x5_reduce
I0403 15:48:28.871129 14465 net.cpp:386] inception_4d/relu_5x5_reduce -> inception_4d/5x5_reduce (in-place)
I0403 15:48:28.871335 14465 net.cpp:141] Setting up inception_4d/relu_5x5_reduce
I0403 15:48:28.871363 14465 net.cpp:148] Top shape: 24 32 14 14 (150528)
I0403 15:48:28.871377 14465 net.cpp:156] Memory required for data: 1132858656
I0403 15:48:28.871392 14465 layer_factory.hpp:77] Creating layer inception_4d/5x5
I0403 15:48:28.871415 14465 net.cpp:91] Creating Layer inception_4d/5x5
I0403 15:48:28.871434 14465 net.cpp:425] inception_4d/5x5 <- inception_4d/5x5_reduce
I0403 15:48:28.871457 14465 net.cpp:399] inception_4d/5x5 -> inception_4d/5x5
I0403 15:48:28.873018 14465 net.cpp:141] Setting up inception_4d/5x5
I0403 15:48:28.873047 14465 net.cpp:148] Top shape: 24 64 14 14 (301056)
I0403 15:48:28.873064 14465 net.cpp:156] Memory required for data: 1134062880
I0403 15:48:28.873085 14465 layer_factory.hpp:77] Creating layer inception_4d/relu_5x5
I0403 15:48:28.873133 14465 net.cpp:91] Creating Layer inception_4d/relu_5x5
I0403 15:48:28.873153 14465 net.cpp:425] inception_4d/relu_5x5 <- inception_4d/5x5
I0403 15:48:28.873172 14465 net.cpp:386] inception_4d/relu_5x5 -> inception_4d/5x5 (in-place)
I0403 15:48:28.873492 14465 net.cpp:141] Setting up inception_4d/relu_5x5
I0403 15:48:28.873520 14465 net.cpp:148] Top shape: 24 64 14 14 (301056)
I0403 15:48:28.873536 14465 net.cpp:156] Memory required for data: 1135267104
I0403 15:48:28.873553 14465 layer_factory.hpp:77] Creating layer inception_4d/pool
I0403 15:48:28.873570 14465 net.cpp:91] Creating Layer inception_4d/pool
I0403 15:48:28.873587 14465 net.cpp:425] inception_4d/pool <- inception_4c/output_inception_4c/output_0_split_3
I0403 15:48:28.873610 14465 net.cpp:399] inception_4d/pool -> inception_4d/pool
I0403 15:48:28.873680 14465 net.cpp:141] Setting up inception_4d/pool
I0403 15:48:28.873709 14465 net.cpp:148] Top shape: 24 512 14 14 (2408448)
I0403 15:48:28.873724 14465 net.cpp:156] Memory required for data: 1144900896
I0403 15:48:28.873739 14465 layer_factory.hpp:77] Creating layer inception_4d/pool_proj
I0403 15:48:28.873764 14465 net.cpp:91] Creating Layer inception_4d/pool_proj
I0403 15:48:28.873781 14465 net.cpp:425] inception_4d/pool_proj <- inception_4d/pool
I0403 15:48:28.873805 14465 net.cpp:399] inception_4d/pool_proj -> inception_4d/pool_proj
I0403 15:48:28.875721 14465 net.cpp:141] Setting up inception_4d/pool_proj
I0403 15:48:28.875756 14465 net.cpp:148] Top shape: 24 64 14 14 (301056)
I0403 15:48:28.875773 14465 net.cpp:156] Memory required for data: 1146105120
I0403 15:48:28.875792 14465 layer_factory.hpp:77] Creating layer inception_4d/relu_pool_proj
I0403 15:48:28.875813 14465 net.cpp:91] Creating Layer inception_4d/relu_pool_proj
I0403 15:48:28.875830 14465 net.cpp:425] inception_4d/relu_pool_proj <- inception_4d/pool_proj
I0403 15:48:28.875851 14465 net.cpp:386] inception_4d/relu_pool_proj -> inception_4d/pool_proj (in-place)
I0403 15:48:28.876050 14465 net.cpp:141] Setting up inception_4d/relu_pool_proj
I0403 15:48:28.876078 14465 net.cpp:148] Top shape: 24 64 14 14 (301056)
I0403 15:48:28.876097 14465 net.cpp:156] Memory required for data: 1147309344
I0403 15:48:28.876114 14465 layer_factory.hpp:77] Creating layer inception_4d/output
I0403 15:48:28.876132 14465 net.cpp:91] Creating Layer inception_4d/output
I0403 15:48:28.876149 14465 net.cpp:425] inception_4d/output <- inception_4d/1x1
I0403 15:48:28.876166 14465 net.cpp:425] inception_4d/output <- inception_4d/3x3
I0403 15:48:28.876183 14465 net.cpp:425] inception_4d/output <- inception_4d/5x5
I0403 15:48:28.876200 14465 net.cpp:425] inception_4d/output <- inception_4d/pool_proj
I0403 15:48:28.876220 14465 net.cpp:399] inception_4d/output -> inception_4d/output
I0403 15:48:28.876271 14465 net.cpp:141] Setting up inception_4d/output
I0403 15:48:28.876299 14465 net.cpp:148] Top shape: 24 528 14 14 (2483712)
I0403 15:48:28.876317 14465 net.cpp:156] Memory required for data: 1157244192
I0403 15:48:28.876332 14465 layer_factory.hpp:77] Creating layer inception_4d/output_inception_4d/output_0_split
I0403 15:48:28.876351 14465 net.cpp:91] Creating Layer inception_4d/output_inception_4d/output_0_split
I0403 15:48:28.876368 14465 net.cpp:425] inception_4d/output_inception_4d/output_0_split <- inception_4d/output
I0403 15:48:28.876385 14465 net.cpp:399] inception_4d/output_inception_4d/output_0_split -> inception_4d/output_inception_4d/output_0_split_0
I0403 15:48:28.876410 14465 net.cpp:399] inception_4d/output_inception_4d/output_0_split -> inception_4d/output_inception_4d/output_0_split_1
I0403 15:48:28.876433 14465 net.cpp:399] inception_4d/output_inception_4d/output_0_split -> inception_4d/output_inception_4d/output_0_split_2
I0403 15:48:28.876456 14465 net.cpp:399] inception_4d/output_inception_4d/output_0_split -> inception_4d/output_inception_4d/output_0_split_3
I0403 15:48:28.876477 14465 net.cpp:399] inception_4d/output_inception_4d/output_0_split -> inception_4d/output_inception_4d/output_0_split_4
I0403 15:48:28.876585 14465 net.cpp:141] Setting up inception_4d/output_inception_4d/output_0_split
I0403 15:48:28.876623 14465 net.cpp:148] Top shape: 24 528 14 14 (2483712)
I0403 15:48:28.876641 14465 net.cpp:148] Top shape: 24 528 14 14 (2483712)
I0403 15:48:28.876662 14465 net.cpp:148] Top shape: 24 528 14 14 (2483712)
I0403 15:48:28.876678 14465 net.cpp:148] Top shape: 24 528 14 14 (2483712)
I0403 15:48:28.876694 14465 net.cpp:148] Top shape: 24 528 14 14 (2483712)
I0403 15:48:28.876709 14465 net.cpp:156] Memory required for data: 1206918432
I0403 15:48:28.876724 14465 layer_factory.hpp:77] Creating layer loss2/ave_pool
I0403 15:48:28.876742 14465 net.cpp:91] Creating Layer loss2/ave_pool
I0403 15:48:28.876760 14465 net.cpp:425] loss2/ave_pool <- inception_4d/output_inception_4d/output_0_split_0
I0403 15:48:28.876778 14465 net.cpp:399] loss2/ave_pool -> loss2/ave_pool
I0403 15:48:28.877115 14465 net.cpp:141] Setting up loss2/ave_pool
I0403 15:48:28.877146 14465 net.cpp:148] Top shape: 24 528 4 4 (202752)
I0403 15:48:28.877162 14465 net.cpp:156] Memory required for data: 1207729440
I0403 15:48:28.877178 14465 layer_factory.hpp:77] Creating layer loss2/conv
I0403 15:48:28.877202 14465 net.cpp:91] Creating Layer loss2/conv
I0403 15:48:28.877220 14465 net.cpp:425] loss2/conv <- loss2/ave_pool
I0403 15:48:28.877240 14465 net.cpp:399] loss2/conv -> loss2/conv
I0403 15:48:28.879257 14465 net.cpp:141] Setting up loss2/conv
I0403 15:48:28.879289 14465 net.cpp:148] Top shape: 24 128 4 4 (49152)
I0403 15:48:28.879305 14465 net.cpp:156] Memory required for data: 1207926048
I0403 15:48:28.879325 14465 layer_factory.hpp:77] Creating layer loss2/relu_conv
I0403 15:48:28.879344 14465 net.cpp:91] Creating Layer loss2/relu_conv
I0403 15:48:28.879364 14465 net.cpp:425] loss2/relu_conv <- loss2/conv
I0403 15:48:28.879384 14465 net.cpp:386] loss2/relu_conv -> loss2/conv (in-place)
I0403 15:48:28.879686 14465 net.cpp:141] Setting up loss2/relu_conv
I0403 15:48:28.879715 14465 net.cpp:148] Top shape: 24 128 4 4 (49152)
I0403 15:48:28.879731 14465 net.cpp:156] Memory required for data: 1208122656
I0403 15:48:28.879747 14465 layer_factory.hpp:77] Creating layer loss2/fc
I0403 15:48:28.879767 14465 net.cpp:91] Creating Layer loss2/fc
I0403 15:48:28.879784 14465 net.cpp:425] loss2/fc <- loss2/conv
I0403 15:48:28.879806 14465 net.cpp:399] loss2/fc -> loss2/fc
I0403 15:48:28.898586 14465 net.cpp:141] Setting up loss2/fc
I0403 15:48:28.898627 14465 net.cpp:148] Top shape: 24 1024 (24576)
I0403 15:48:28.898643 14465 net.cpp:156] Memory required for data: 1208220960
I0403 15:48:28.898663 14465 layer_factory.hpp:77] Creating layer loss2/relu_fc
I0403 15:48:28.898682 14465 net.cpp:91] Creating Layer loss2/relu_fc
I0403 15:48:28.898700 14465 net.cpp:425] loss2/relu_fc <- loss2/fc
I0403 15:48:28.898718 14465 net.cpp:386] loss2/relu_fc -> loss2/fc (in-place)
I0403 15:48:28.899046 14465 net.cpp:141] Setting up loss2/relu_fc
I0403 15:48:28.899076 14465 net.cpp:148] Top shape: 24 1024 (24576)
I0403 15:48:28.899091 14465 net.cpp:156] Memory required for data: 1208319264
I0403 15:48:28.899112 14465 layer_factory.hpp:77] Creating layer loss2/drop_fc
I0403 15:48:28.899132 14465 net.cpp:91] Creating Layer loss2/drop_fc
I0403 15:48:28.899150 14465 net.cpp:425] loss2/drop_fc <- loss2/fc
I0403 15:48:28.899168 14465 net.cpp:386] loss2/drop_fc -> loss2/fc (in-place)
I0403 15:48:28.899225 14465 net.cpp:141] Setting up loss2/drop_fc
I0403 15:48:28.899251 14465 net.cpp:148] Top shape: 24 1024 (24576)
I0403 15:48:28.899266 14465 net.cpp:156] Memory required for data: 1208417568
I0403 15:48:28.899281 14465 layer_factory.hpp:77] Creating layer loss2/classifier_plantvillage
I0403 15:48:28.899303 14465 net.cpp:91] Creating Layer loss2/classifier_plantvillage
I0403 15:48:28.899322 14465 net.cpp:425] loss2/classifier_plantvillage <- loss2/fc
I0403 15:48:28.899341 14465 net.cpp:399] loss2/classifier_plantvillage -> loss2/classifier_plantvillage
I0403 15:48:28.899775 14465 net.cpp:141] Setting up loss2/classifier_plantvillage
I0403 15:48:28.899801 14465 net.cpp:148] Top shape: 24 38 (912)
I0403 15:48:28.899816 14465 net.cpp:156] Memory required for data: 1208421216
I0403 15:48:28.899854 14465 layer_factory.hpp:77] Creating layer loss2/classifier_plantvillage_loss2/classifier_plantvillage_0_split
I0403 15:48:28.899876 14465 net.cpp:91] Creating Layer loss2/classifier_plantvillage_loss2/classifier_plantvillage_0_split
I0403 15:48:28.899894 14465 net.cpp:425] loss2/classifier_plantvillage_loss2/classifier_plantvillage_0_split <- loss2/classifier_plantvillage
I0403 15:48:28.899915 14465 net.cpp:399] loss2/classifier_plantvillage_loss2/classifier_plantvillage_0_split -> loss2/classifier_plantvillage_loss2/classifier_plantvillage_0_split_0
I0403 15:48:28.899938 14465 net.cpp:399] loss2/classifier_plantvillage_loss2/classifier_plantvillage_0_split -> loss2/classifier_plantvillage_loss2/classifier_plantvillage_0_split_1
I0403 15:48:28.899960 14465 net.cpp:399] loss2/classifier_plantvillage_loss2/classifier_plantvillage_0_split -> loss2/classifier_plantvillage_loss2/classifier_plantvillage_0_split_2
I0403 15:48:28.900045 14465 net.cpp:141] Setting up loss2/classifier_plantvillage_loss2/classifier_plantvillage_0_split
I0403 15:48:28.900071 14465 net.cpp:148] Top shape: 24 38 (912)
I0403 15:48:28.900089 14465 net.cpp:148] Top shape: 24 38 (912)
I0403 15:48:28.900110 14465 net.cpp:148] Top shape: 24 38 (912)
I0403 15:48:28.900125 14465 net.cpp:156] Memory required for data: 1208432160
I0403 15:48:28.900141 14465 layer_factory.hpp:77] Creating layer inception_4e/1x1
I0403 15:48:28.900163 14465 net.cpp:91] Creating Layer inception_4e/1x1
I0403 15:48:28.900183 14465 net.cpp:425] inception_4e/1x1 <- inception_4d/output_inception_4d/output_0_split_1
I0403 15:48:28.900203 14465 net.cpp:399] inception_4e/1x1 -> inception_4e/1x1
I0403 15:48:28.902163 14465 net.cpp:141] Setting up inception_4e/1x1
I0403 15:48:28.902194 14465 net.cpp:148] Top shape: 24 256 14 14 (1204224)
I0403 15:48:28.902210 14465 net.cpp:156] Memory required for data: 1213249056
I0403 15:48:28.902230 14465 layer_factory.hpp:77] Creating layer inception_4e/relu_1x1
I0403 15:48:28.902253 14465 net.cpp:91] Creating Layer inception_4e/relu_1x1
I0403 15:48:28.902272 14465 net.cpp:425] inception_4e/relu_1x1 <- inception_4e/1x1
I0403 15:48:28.902290 14465 net.cpp:386] inception_4e/relu_1x1 -> inception_4e/1x1 (in-place)
I0403 15:48:28.902603 14465 net.cpp:141] Setting up inception_4e/relu_1x1
I0403 15:48:28.902632 14465 net.cpp:148] Top shape: 24 256 14 14 (1204224)
I0403 15:48:28.902647 14465 net.cpp:156] Memory required for data: 1218065952
I0403 15:48:28.902663 14465 layer_factory.hpp:77] Creating layer inception_4e/3x3_reduce
I0403 15:48:28.902686 14465 net.cpp:91] Creating Layer inception_4e/3x3_reduce
I0403 15:48:28.902705 14465 net.cpp:425] inception_4e/3x3_reduce <- inception_4d/output_inception_4d/output_0_split_2
I0403 15:48:28.902729 14465 net.cpp:399] inception_4e/3x3_reduce -> inception_4e/3x3_reduce
I0403 15:48:28.904978 14465 net.cpp:141] Setting up inception_4e/3x3_reduce
I0403 15:48:28.905009 14465 net.cpp:148] Top shape: 24 160 14 14 (752640)
I0403 15:48:28.905026 14465 net.cpp:156] Memory required for data: 1221076512
I0403 15:48:28.905045 14465 layer_factory.hpp:77] Creating layer inception_4e/relu_3x3_reduce
I0403 15:48:28.905066 14465 net.cpp:91] Creating Layer inception_4e/relu_3x3_reduce
I0403 15:48:28.905082 14465 net.cpp:425] inception_4e/relu_3x3_reduce <- inception_4e/3x3_reduce
I0403 15:48:28.905107 14465 net.cpp:386] inception_4e/relu_3x3_reduce -> inception_4e/3x3_reduce (in-place)
I0403 15:48:28.905306 14465 net.cpp:141] Setting up inception_4e/relu_3x3_reduce
I0403 15:48:28.905333 14465 net.cpp:148] Top shape: 24 160 14 14 (752640)
I0403 15:48:28.905349 14465 net.cpp:156] Memory required for data: 1224087072
I0403 15:48:28.905365 14465 layer_factory.hpp:77] Creating layer inception_4e/3x3
I0403 15:48:28.905390 14465 net.cpp:91] Creating Layer inception_4e/3x3
I0403 15:48:28.905407 14465 net.cpp:425] inception_4e/3x3 <- inception_4e/3x3_reduce
I0403 15:48:28.905429 14465 net.cpp:399] inception_4e/3x3 -> inception_4e/3x3
I0403 15:48:28.910737 14465 net.cpp:141] Setting up inception_4e/3x3
I0403 15:48:28.910783 14465 net.cpp:148] Top shape: 24 320 14 14 (1505280)
I0403 15:48:28.910799 14465 net.cpp:156] Memory required for data: 1230108192
I0403 15:48:28.910818 14465 layer_factory.hpp:77] Creating layer inception_4e/relu_3x3
I0403 15:48:28.910840 14465 net.cpp:91] Creating Layer inception_4e/relu_3x3
I0403 15:48:28.910859 14465 net.cpp:425] inception_4e/relu_3x3 <- inception_4e/3x3
I0403 15:48:28.910879 14465 net.cpp:386] inception_4e/relu_3x3 -> inception_4e/3x3 (in-place)
I0403 15:48:28.911203 14465 net.cpp:141] Setting up inception_4e/relu_3x3
I0403 15:48:28.911236 14465 net.cpp:148] Top shape: 24 320 14 14 (1505280)
I0403 15:48:28.911252 14465 net.cpp:156] Memory required for data: 1236129312
I0403 15:48:28.911268 14465 layer_factory.hpp:77] Creating layer inception_4e/5x5_reduce
I0403 15:48:28.911293 14465 net.cpp:91] Creating Layer inception_4e/5x5_reduce
I0403 15:48:28.911314 14465 net.cpp:425] inception_4e/5x5_reduce <- inception_4d/output_inception_4d/output_0_split_3
I0403 15:48:28.911334 14465 net.cpp:399] inception_4e/5x5_reduce -> inception_4e/5x5_reduce
I0403 15:48:28.912480 14465 net.cpp:141] Setting up inception_4e/5x5_reduce
I0403 15:48:28.912510 14465 net.cpp:148] Top shape: 24 32 14 14 (150528)
I0403 15:48:28.912528 14465 net.cpp:156] Memory required for data: 1236731424
I0403 15:48:28.912546 14465 layer_factory.hpp:77] Creating layer inception_4e/relu_5x5_reduce
I0403 15:48:28.912569 14465 net.cpp:91] Creating Layer inception_4e/relu_5x5_reduce
I0403 15:48:28.912587 14465 net.cpp:425] inception_4e/relu_5x5_reduce <- inception_4e/5x5_reduce
I0403 15:48:28.912606 14465 net.cpp:386] inception_4e/relu_5x5_reduce -> inception_4e/5x5_reduce (in-place)
I0403 15:48:28.912920 14465 net.cpp:141] Setting up inception_4e/relu_5x5_reduce
I0403 15:48:28.912950 14465 net.cpp:148] Top shape: 24 32 14 14 (150528)
I0403 15:48:28.912966 14465 net.cpp:156] Memory required for data: 1237333536
I0403 15:48:28.912981 14465 layer_factory.hpp:77] Creating layer inception_4e/5x5
I0403 15:48:28.913022 14465 net.cpp:91] Creating Layer inception_4e/5x5
I0403 15:48:28.913043 14465 net.cpp:425] inception_4e/5x5 <- inception_4e/5x5_reduce
I0403 15:48:28.913064 14465 net.cpp:399] inception_4e/5x5 -> inception_4e/5x5
I0403 15:48:28.915041 14465 net.cpp:141] Setting up inception_4e/5x5
I0403 15:48:28.915074 14465 net.cpp:148] Top shape: 24 128 14 14 (602112)
I0403 15:48:28.915092 14465 net.cpp:156] Memory required for data: 1239741984
I0403 15:48:28.915119 14465 layer_factory.hpp:77] Creating layer inception_4e/relu_5x5
I0403 15:48:28.915139 14465 net.cpp:91] Creating Layer inception_4e/relu_5x5
I0403 15:48:28.915156 14465 net.cpp:425] inception_4e/relu_5x5 <- inception_4e/5x5
I0403 15:48:28.915176 14465 net.cpp:386] inception_4e/relu_5x5 -> inception_4e/5x5 (in-place)
I0403 15:48:28.915390 14465 net.cpp:141] Setting up inception_4e/relu_5x5
I0403 15:48:28.915417 14465 net.cpp:148] Top shape: 24 128 14 14 (602112)
I0403 15:48:28.915432 14465 net.cpp:156] Memory required for data: 1242150432
I0403 15:48:28.915449 14465 layer_factory.hpp:77] Creating layer inception_4e/pool
I0403 15:48:28.915468 14465 net.cpp:91] Creating Layer inception_4e/pool
I0403 15:48:28.915484 14465 net.cpp:425] inception_4e/pool <- inception_4d/output_inception_4d/output_0_split_4
I0403 15:48:28.915504 14465 net.cpp:399] inception_4e/pool -> inception_4e/pool
I0403 15:48:28.915580 14465 net.cpp:141] Setting up inception_4e/pool
I0403 15:48:28.915606 14465 net.cpp:148] Top shape: 24 528 14 14 (2483712)
I0403 15:48:28.915621 14465 net.cpp:156] Memory required for data: 1252085280
I0403 15:48:28.915637 14465 layer_factory.hpp:77] Creating layer inception_4e/pool_proj
I0403 15:48:28.915663 14465 net.cpp:91] Creating Layer inception_4e/pool_proj
I0403 15:48:28.915681 14465 net.cpp:425] inception_4e/pool_proj <- inception_4e/pool
I0403 15:48:28.915700 14465 net.cpp:399] inception_4e/pool_proj -> inception_4e/pool_proj
I0403 15:48:28.917316 14465 net.cpp:141] Setting up inception_4e/pool_proj
I0403 15:48:28.917349 14465 net.cpp:148] Top shape: 24 128 14 14 (602112)
I0403 15:48:28.917382 14465 net.cpp:156] Memory required for data: 1254493728
I0403 15:48:28.917402 14465 layer_factory.hpp:77] Creating layer inception_4e/relu_pool_proj
I0403 15:48:28.917420 14465 net.cpp:91] Creating Layer inception_4e/relu_pool_proj
I0403 15:48:28.917438 14465 net.cpp:425] inception_4e/relu_pool_proj <- inception_4e/pool_proj
I0403 15:48:28.917459 14465 net.cpp:386] inception_4e/relu_pool_proj -> inception_4e/pool_proj (in-place)
I0403 15:48:28.917768 14465 net.cpp:141] Setting up inception_4e/relu_pool_proj
I0403 15:48:28.917799 14465 net.cpp:148] Top shape: 24 128 14 14 (602112)
I0403 15:48:28.917816 14465 net.cpp:156] Memory required for data: 1256902176
I0403 15:48:28.917832 14465 layer_factory.hpp:77] Creating layer inception_4e/output
I0403 15:48:28.917851 14465 net.cpp:91] Creating Layer inception_4e/output
I0403 15:48:28.917867 14465 net.cpp:425] inception_4e/output <- inception_4e/1x1
I0403 15:48:28.917886 14465 net.cpp:425] inception_4e/output <- inception_4e/3x3
I0403 15:48:28.917902 14465 net.cpp:425] inception_4e/output <- inception_4e/5x5
I0403 15:48:28.917919 14465 net.cpp:425] inception_4e/output <- inception_4e/pool_proj
I0403 15:48:28.917937 14465 net.cpp:399] inception_4e/output -> inception_4e/output
I0403 15:48:28.917992 14465 net.cpp:141] Setting up inception_4e/output
I0403 15:48:28.918018 14465 net.cpp:148] Top shape: 24 832 14 14 (3913728)
I0403 15:48:28.918035 14465 net.cpp:156] Memory required for data: 1272557088
I0403 15:48:28.918051 14465 layer_factory.hpp:77] Creating layer pool4/3x3_s2
I0403 15:48:28.918072 14465 net.cpp:91] Creating Layer pool4/3x3_s2
I0403 15:48:28.918089 14465 net.cpp:425] pool4/3x3_s2 <- inception_4e/output
I0403 15:48:28.918114 14465 net.cpp:399] pool4/3x3_s2 -> pool4/3x3_s2
I0403 15:48:28.918192 14465 net.cpp:141] Setting up pool4/3x3_s2
I0403 15:48:28.918218 14465 net.cpp:148] Top shape: 24 832 7 7 (978432)
I0403 15:48:28.918234 14465 net.cpp:156] Memory required for data: 1276470816
I0403 15:48:28.918249 14465 layer_factory.hpp:77] Creating layer pool4/3x3_s2_pool4/3x3_s2_0_split
I0403 15:48:28.918267 14465 net.cpp:91] Creating Layer pool4/3x3_s2_pool4/3x3_s2_0_split
I0403 15:48:28.918284 14465 net.cpp:425] pool4/3x3_s2_pool4/3x3_s2_0_split <- pool4/3x3_s2
I0403 15:48:28.918304 14465 net.cpp:399] pool4/3x3_s2_pool4/3x3_s2_0_split -> pool4/3x3_s2_pool4/3x3_s2_0_split_0
I0403 15:48:28.918326 14465 net.cpp:399] pool4/3x3_s2_pool4/3x3_s2_0_split -> pool4/3x3_s2_pool4/3x3_s2_0_split_1
I0403 15:48:28.918349 14465 net.cpp:399] pool4/3x3_s2_pool4/3x3_s2_0_split -> pool4/3x3_s2_pool4/3x3_s2_0_split_2
I0403 15:48:28.918370 14465 net.cpp:399] pool4/3x3_s2_pool4/3x3_s2_0_split -> pool4/3x3_s2_pool4/3x3_s2_0_split_3
I0403 15:48:28.918464 14465 net.cpp:141] Setting up pool4/3x3_s2_pool4/3x3_s2_0_split
I0403 15:48:28.918491 14465 net.cpp:148] Top shape: 24 832 7 7 (978432)
I0403 15:48:28.918508 14465 net.cpp:148] Top shape: 24 832 7 7 (978432)
I0403 15:48:28.918524 14465 net.cpp:148] Top shape: 24 832 7 7 (978432)
I0403 15:48:28.918539 14465 net.cpp:148] Top shape: 24 832 7 7 (978432)
I0403 15:48:28.918553 14465 net.cpp:156] Memory required for data: 1292125728
I0403 15:48:28.918568 14465 layer_factory.hpp:77] Creating layer inception_5a/1x1
I0403 15:48:28.918591 14465 net.cpp:91] Creating Layer inception_5a/1x1
I0403 15:48:28.918609 14465 net.cpp:425] inception_5a/1x1 <- pool4/3x3_s2_pool4/3x3_s2_0_split_0
I0403 15:48:28.918632 14465 net.cpp:399] inception_5a/1x1 -> inception_5a/1x1
I0403 15:48:28.921672 14465 net.cpp:141] Setting up inception_5a/1x1
I0403 15:48:28.921706 14465 net.cpp:148] Top shape: 24 256 7 7 (301056)
I0403 15:48:28.921723 14465 net.cpp:156] Memory required for data: 1293329952
I0403 15:48:28.921742 14465 layer_factory.hpp:77] Creating layer inception_5a/relu_1x1
I0403 15:48:28.921761 14465 net.cpp:91] Creating Layer inception_5a/relu_1x1
I0403 15:48:28.921778 14465 net.cpp:425] inception_5a/relu_1x1 <- inception_5a/1x1
I0403 15:48:28.921800 14465 net.cpp:386] inception_5a/relu_1x1 -> inception_5a/1x1 (in-place)
I0403 15:48:28.922142 14465 net.cpp:141] Setting up inception_5a/relu_1x1
I0403 15:48:28.922170 14465 net.cpp:148] Top shape: 24 256 7 7 (301056)
I0403 15:48:28.922186 14465 net.cpp:156] Memory required for data: 1294534176
I0403 15:48:28.922202 14465 layer_factory.hpp:77] Creating layer inception_5a/3x3_reduce
I0403 15:48:28.922225 14465 net.cpp:91] Creating Layer inception_5a/3x3_reduce
I0403 15:48:28.922245 14465 net.cpp:425] inception_5a/3x3_reduce <- pool4/3x3_s2_pool4/3x3_s2_0_split_1
I0403 15:48:28.922268 14465 net.cpp:399] inception_5a/3x3_reduce -> inception_5a/3x3_reduce
I0403 15:48:28.924890 14465 net.cpp:141] Setting up inception_5a/3x3_reduce
I0403 15:48:28.924922 14465 net.cpp:148] Top shape: 24 160 7 7 (188160)
I0403 15:48:28.924940 14465 net.cpp:156] Memory required for data: 1295286816
I0403 15:48:28.924960 14465 layer_factory.hpp:77] Creating layer inception_5a/relu_3x3_reduce
I0403 15:48:28.924981 14465 net.cpp:91] Creating Layer inception_5a/relu_3x3_reduce
I0403 15:48:28.924999 14465 net.cpp:425] inception_5a/relu_3x3_reduce <- inception_5a/3x3_reduce
I0403 15:48:28.925017 14465 net.cpp:386] inception_5a/relu_3x3_reduce -> inception_5a/3x3_reduce (in-place)
I0403 15:48:28.925225 14465 net.cpp:141] Setting up inception_5a/relu_3x3_reduce
I0403 15:48:28.925252 14465 net.cpp:148] Top shape: 24 160 7 7 (188160)
I0403 15:48:28.925268 14465 net.cpp:156] Memory required for data: 1296039456
I0403 15:48:28.925284 14465 layer_factory.hpp:77] Creating layer inception_5a/3x3
I0403 15:48:28.925309 14465 net.cpp:91] Creating Layer inception_5a/3x3
I0403 15:48:28.925328 14465 net.cpp:425] inception_5a/3x3 <- inception_5a/3x3_reduce
I0403 15:48:28.925351 14465 net.cpp:399] inception_5a/3x3 -> inception_5a/3x3
I0403 15:48:28.930724 14465 net.cpp:141] Setting up inception_5a/3x3
I0403 15:48:28.930760 14465 net.cpp:148] Top shape: 24 320 7 7 (376320)
I0403 15:48:28.930778 14465 net.cpp:156] Memory required for data: 1297544736
I0403 15:48:28.930799 14465 layer_factory.hpp:77] Creating layer inception_5a/relu_3x3
I0403 15:48:28.930819 14465 net.cpp:91] Creating Layer inception_5a/relu_3x3
I0403 15:48:28.930837 14465 net.cpp:425] inception_5a/relu_3x3 <- inception_5a/3x3
I0403 15:48:28.930857 14465 net.cpp:386] inception_5a/relu_3x3 -> inception_5a/3x3 (in-place)
I0403 15:48:28.931180 14465 net.cpp:141] Setting up inception_5a/relu_3x3
I0403 15:48:28.931211 14465 net.cpp:148] Top shape: 24 320 7 7 (376320)
I0403 15:48:28.931228 14465 net.cpp:156] Memory required for data: 1299050016
I0403 15:48:28.931244 14465 layer_factory.hpp:77] Creating layer inception_5a/5x5_reduce
I0403 15:48:28.931268 14465 net.cpp:91] Creating Layer inception_5a/5x5_reduce
I0403 15:48:28.931288 14465 net.cpp:425] inception_5a/5x5_reduce <- pool4/3x3_s2_pool4/3x3_s2_0_split_2
I0403 15:48:28.931308 14465 net.cpp:399] inception_5a/5x5_reduce -> inception_5a/5x5_reduce
I0403 15:48:28.932564 14465 net.cpp:141] Setting up inception_5a/5x5_reduce
I0403 15:48:28.932596 14465 net.cpp:148] Top shape: 24 32 7 7 (37632)
I0403 15:48:28.932612 14465 net.cpp:156] Memory required for data: 1299200544
I0403 15:48:28.932632 14465 layer_factory.hpp:77] Creating layer inception_5a/relu_5x5_reduce
I0403 15:48:28.932651 14465 net.cpp:91] Creating Layer inception_5a/relu_5x5_reduce
I0403 15:48:28.932669 14465 net.cpp:425] inception_5a/relu_5x5_reduce <- inception_5a/5x5_reduce
I0403 15:48:28.932690 14465 net.cpp:386] inception_5a/relu_5x5_reduce -> inception_5a/5x5_reduce (in-place)
I0403 15:48:28.933008 14465 net.cpp:141] Setting up inception_5a/relu_5x5_reduce
I0403 15:48:28.933037 14465 net.cpp:148] Top shape: 24 32 7 7 (37632)
I0403 15:48:28.933053 14465 net.cpp:156] Memory required for data: 1299351072
I0403 15:48:28.933068 14465 layer_factory.hpp:77] Creating layer inception_5a/5x5
I0403 15:48:28.933090 14465 net.cpp:91] Creating Layer inception_5a/5x5
I0403 15:48:28.933123 14465 net.cpp:425] inception_5a/5x5 <- inception_5a/5x5_reduce
I0403 15:48:28.933151 14465 net.cpp:399] inception_5a/5x5 -> inception_5a/5x5
I0403 15:48:28.935000 14465 net.cpp:141] Setting up inception_5a/5x5
I0403 15:48:28.935045 14465 net.cpp:148] Top shape: 24 128 7 7 (150528)
I0403 15:48:28.935065 14465 net.cpp:156] Memory required for data: 1299953184
I0403 15:48:28.935083 14465 layer_factory.hpp:77] Creating layer inception_5a/relu_5x5
I0403 15:48:28.935111 14465 net.cpp:91] Creating Layer inception_5a/relu_5x5
I0403 15:48:28.935129 14465 net.cpp:425] inception_5a/relu_5x5 <- inception_5a/5x5
I0403 15:48:28.935151 14465 net.cpp:386] inception_5a/relu_5x5 -> inception_5a/5x5 (in-place)
I0403 15:48:28.935359 14465 net.cpp:141] Setting up inception_5a/relu_5x5
I0403 15:48:28.935385 14465 net.cpp:148] Top shape: 24 128 7 7 (150528)
I0403 15:48:28.935400 14465 net.cpp:156] Memory required for data: 1300555296
I0403 15:48:28.935416 14465 layer_factory.hpp:77] Creating layer inception_5a/pool
I0403 15:48:28.935436 14465 net.cpp:91] Creating Layer inception_5a/pool
I0403 15:48:28.935451 14465 net.cpp:425] inception_5a/pool <- pool4/3x3_s2_pool4/3x3_s2_0_split_3
I0403 15:48:28.935472 14465 net.cpp:399] inception_5a/pool -> inception_5a/pool
I0403 15:48:28.935552 14465 net.cpp:141] Setting up inception_5a/pool
I0403 15:48:28.935577 14465 net.cpp:148] Top shape: 24 832 7 7 (978432)
I0403 15:48:28.935593 14465 net.cpp:156] Memory required for data: 1304469024
I0403 15:48:28.935609 14465 layer_factory.hpp:77] Creating layer inception_5a/pool_proj
I0403 15:48:28.935633 14465 net.cpp:91] Creating Layer inception_5a/pool_proj
I0403 15:48:28.935652 14465 net.cpp:425] inception_5a/pool_proj <- inception_5a/pool
I0403 15:48:28.935674 14465 net.cpp:399] inception_5a/pool_proj -> inception_5a/pool_proj
I0403 15:48:28.938107 14465 net.cpp:141] Setting up inception_5a/pool_proj
I0403 15:48:28.938141 14465 net.cpp:148] Top shape: 24 128 7 7 (150528)
I0403 15:48:28.938159 14465 net.cpp:156] Memory required for data: 1305071136
I0403 15:48:28.938180 14465 layer_factory.hpp:77] Creating layer inception_5a/relu_pool_proj
I0403 15:48:28.938199 14465 net.cpp:91] Creating Layer inception_5a/relu_pool_proj
I0403 15:48:28.938216 14465 net.cpp:425] inception_5a/relu_pool_proj <- inception_5a/pool_proj
I0403 15:48:28.938235 14465 net.cpp:386] inception_5a/relu_pool_proj -> inception_5a/pool_proj (in-place)
I0403 15:48:28.938550 14465 net.cpp:141] Setting up inception_5a/relu_pool_proj
I0403 15:48:28.938581 14465 net.cpp:148] Top shape: 24 128 7 7 (150528)
I0403 15:48:28.938601 14465 net.cpp:156] Memory required for data: 1305673248
I0403 15:48:28.938616 14465 layer_factory.hpp:77] Creating layer inception_5a/output
I0403 15:48:28.938633 14465 net.cpp:91] Creating Layer inception_5a/output
I0403 15:48:28.938650 14465 net.cpp:425] inception_5a/output <- inception_5a/1x1
I0403 15:48:28.938668 14465 net.cpp:425] inception_5a/output <- inception_5a/3x3
I0403 15:48:28.938685 14465 net.cpp:425] inception_5a/output <- inception_5a/5x5
I0403 15:48:28.938702 14465 net.cpp:425] inception_5a/output <- inception_5a/pool_proj
I0403 15:48:28.938719 14465 net.cpp:399] inception_5a/output -> inception_5a/output
I0403 15:48:28.938774 14465 net.cpp:141] Setting up inception_5a/output
I0403 15:48:28.938801 14465 net.cpp:148] Top shape: 24 832 7 7 (978432)
I0403 15:48:28.938815 14465 net.cpp:156] Memory required for data: 1309586976
I0403 15:48:28.938832 14465 layer_factory.hpp:77] Creating layer inception_5a/output_inception_5a/output_0_split
I0403 15:48:28.938853 14465 net.cpp:91] Creating Layer inception_5a/output_inception_5a/output_0_split
I0403 15:48:28.938870 14465 net.cpp:425] inception_5a/output_inception_5a/output_0_split <- inception_5a/output
I0403 15:48:28.938889 14465 net.cpp:399] inception_5a/output_inception_5a/output_0_split -> inception_5a/output_inception_5a/output_0_split_0
I0403 15:48:28.938910 14465 net.cpp:399] inception_5a/output_inception_5a/output_0_split -> inception_5a/output_inception_5a/output_0_split_1
I0403 15:48:28.938931 14465 net.cpp:399] inception_5a/output_inception_5a/output_0_split -> inception_5a/output_inception_5a/output_0_split_2
I0403 15:48:28.938952 14465 net.cpp:399] inception_5a/output_inception_5a/output_0_split -> inception_5a/output_inception_5a/output_0_split_3
I0403 15:48:28.939076 14465 net.cpp:141] Setting up inception_5a/output_inception_5a/output_0_split
I0403 15:48:28.939107 14465 net.cpp:148] Top shape: 24 832 7 7 (978432)
I0403 15:48:28.939124 14465 net.cpp:148] Top shape: 24 832 7 7 (978432)
I0403 15:48:28.939141 14465 net.cpp:148] Top shape: 24 832 7 7 (978432)
I0403 15:48:28.939157 14465 net.cpp:148] Top shape: 24 832 7 7 (978432)
I0403 15:48:28.939172 14465 net.cpp:156] Memory required for data: 1325241888
I0403 15:48:28.939188 14465 layer_factory.hpp:77] Creating layer inception_5b/1x1
I0403 15:48:28.939211 14465 net.cpp:91] Creating Layer inception_5b/1x1
I0403 15:48:28.939230 14465 net.cpp:425] inception_5b/1x1 <- inception_5a/output_inception_5a/output_0_split_0
I0403 15:48:28.939252 14465 net.cpp:399] inception_5b/1x1 -> inception_5b/1x1
I0403 15:48:28.943275 14465 net.cpp:141] Setting up inception_5b/1x1
I0403 15:48:28.943307 14465 net.cpp:148] Top shape: 24 384 7 7 (451584)
I0403 15:48:28.943325 14465 net.cpp:156] Memory required for data: 1327048224
I0403 15:48:28.943346 14465 layer_factory.hpp:77] Creating layer inception_5b/relu_1x1
I0403 15:48:28.943368 14465 net.cpp:91] Creating Layer inception_5b/relu_1x1
I0403 15:48:28.943387 14465 net.cpp:425] inception_5b/relu_1x1 <- inception_5b/1x1
I0403 15:48:28.943405 14465 net.cpp:386] inception_5b/relu_1x1 -> inception_5b/1x1 (in-place)
I0403 15:48:28.943735 14465 net.cpp:141] Setting up inception_5b/relu_1x1
I0403 15:48:28.943764 14465 net.cpp:148] Top shape: 24 384 7 7 (451584)
I0403 15:48:28.943780 14465 net.cpp:156] Memory required for data: 1328854560
I0403 15:48:28.943797 14465 layer_factory.hpp:77] Creating layer inception_5b/3x3_reduce
I0403 15:48:28.943824 14465 net.cpp:91] Creating Layer inception_5b/3x3_reduce
I0403 15:48:28.943842 14465 net.cpp:425] inception_5b/3x3_reduce <- inception_5a/output_inception_5a/output_0_split_1
I0403 15:48:28.943863 14465 net.cpp:399] inception_5b/3x3_reduce -> inception_5b/3x3_reduce
I0403 15:48:28.946724 14465 net.cpp:141] Setting up inception_5b/3x3_reduce
I0403 15:48:28.946759 14465 net.cpp:148] Top shape: 24 192 7 7 (225792)
I0403 15:48:28.946777 14465 net.cpp:156] Memory required for data: 1329757728
I0403 15:48:28.946797 14465 layer_factory.hpp:77] Creating layer inception_5b/relu_3x3_reduce
I0403 15:48:28.946816 14465 net.cpp:91] Creating Layer inception_5b/relu_3x3_reduce
I0403 15:48:28.946835 14465 net.cpp:425] inception_5b/relu_3x3_reduce <- inception_5b/3x3_reduce
I0403 15:48:28.946854 14465 net.cpp:386] inception_5b/relu_3x3_reduce -> inception_5b/3x3_reduce (in-place)
I0403 15:48:28.947062 14465 net.cpp:141] Setting up inception_5b/relu_3x3_reduce
I0403 15:48:28.947088 14465 net.cpp:148] Top shape: 24 192 7 7 (225792)
I0403 15:48:28.947108 14465 net.cpp:156] Memory required for data: 1330660896
I0403 15:48:28.947125 14465 layer_factory.hpp:77] Creating layer inception_5b/3x3
I0403 15:48:28.947149 14465 net.cpp:91] Creating Layer inception_5b/3x3
I0403 15:48:28.947167 14465 net.cpp:425] inception_5b/3x3 <- inception_5b/3x3_reduce
I0403 15:48:28.947190 14465 net.cpp:399] inception_5b/3x3 -> inception_5b/3x3
I0403 15:48:28.954356 14465 net.cpp:141] Setting up inception_5b/3x3
I0403 15:48:28.954391 14465 net.cpp:148] Top shape: 24 384 7 7 (451584)
I0403 15:48:28.954409 14465 net.cpp:156] Memory required for data: 1332467232
I0403 15:48:28.954429 14465 layer_factory.hpp:77] Creating layer inception_5b/relu_3x3
I0403 15:48:28.954448 14465 net.cpp:91] Creating Layer inception_5b/relu_3x3
I0403 15:48:28.954465 14465 net.cpp:425] inception_5b/relu_3x3 <- inception_5b/3x3
I0403 15:48:28.954484 14465 net.cpp:386] inception_5b/relu_3x3 -> inception_5b/3x3 (in-place)
I0403 15:48:28.954805 14465 net.cpp:141] Setting up inception_5b/relu_3x3
I0403 15:48:28.954836 14465 net.cpp:148] Top shape: 24 384 7 7 (451584)
I0403 15:48:28.954852 14465 net.cpp:156] Memory required for data: 1334273568
I0403 15:48:28.954869 14465 layer_factory.hpp:77] Creating layer inception_5b/5x5_reduce
I0403 15:48:28.954912 14465 net.cpp:91] Creating Layer inception_5b/5x5_reduce
I0403 15:48:28.954933 14465 net.cpp:425] inception_5b/5x5_reduce <- inception_5a/output_inception_5a/output_0_split_2
I0403 15:48:28.954954 14465 net.cpp:399] inception_5b/5x5_reduce -> inception_5b/5x5_reduce
I0403 15:48:28.956331 14465 net.cpp:141] Setting up inception_5b/5x5_reduce
I0403 15:48:28.956365 14465 net.cpp:148] Top shape: 24 48 7 7 (56448)
I0403 15:48:28.956383 14465 net.cpp:156] Memory required for data: 1334499360
I0403 15:48:28.956403 14465 layer_factory.hpp:77] Creating layer inception_5b/relu_5x5_reduce
I0403 15:48:28.956423 14465 net.cpp:91] Creating Layer inception_5b/relu_5x5_reduce
I0403 15:48:28.956440 14465 net.cpp:425] inception_5b/relu_5x5_reduce <- inception_5b/5x5_reduce
I0403 15:48:28.956461 14465 net.cpp:386] inception_5b/relu_5x5_reduce -> inception_5b/5x5_reduce (in-place)
I0403 15:48:28.956861 14465 net.cpp:141] Setting up inception_5b/relu_5x5_reduce
I0403 15:48:28.956892 14465 net.cpp:148] Top shape: 24 48 7 7 (56448)
I0403 15:48:28.956907 14465 net.cpp:156] Memory required for data: 1334725152
I0403 15:48:28.956923 14465 layer_factory.hpp:77] Creating layer inception_5b/5x5
I0403 15:48:28.956944 14465 net.cpp:91] Creating Layer inception_5b/5x5
I0403 15:48:28.956964 14465 net.cpp:425] inception_5b/5x5 <- inception_5b/5x5_reduce
I0403 15:48:28.956984 14465 net.cpp:399] inception_5b/5x5 -> inception_5b/5x5
I0403 15:48:28.959214 14465 net.cpp:141] Setting up inception_5b/5x5
I0403 15:48:28.959244 14465 net.cpp:148] Top shape: 24 128 7 7 (150528)
I0403 15:48:28.959260 14465 net.cpp:156] Memory required for data: 1335327264
I0403 15:48:28.959280 14465 layer_factory.hpp:77] Creating layer inception_5b/relu_5x5
I0403 15:48:28.959300 14465 net.cpp:91] Creating Layer inception_5b/relu_5x5
I0403 15:48:28.959316 14465 net.cpp:425] inception_5b/relu_5x5 <- inception_5b/5x5
I0403 15:48:28.959337 14465 net.cpp:386] inception_5b/relu_5x5 -> inception_5b/5x5 (in-place)
I0403 15:48:28.959549 14465 net.cpp:141] Setting up inception_5b/relu_5x5
I0403 15:48:28.959575 14465 net.cpp:148] Top shape: 24 128 7 7 (150528)
I0403 15:48:28.959591 14465 net.cpp:156] Memory required for data: 1335929376
I0403 15:48:28.959609 14465 layer_factory.hpp:77] Creating layer inception_5b/pool
I0403 15:48:28.959628 14465 net.cpp:91] Creating Layer inception_5b/pool
I0403 15:48:28.959646 14465 net.cpp:425] inception_5b/pool <- inception_5a/output_inception_5a/output_0_split_3
I0403 15:48:28.959666 14465 net.cpp:399] inception_5b/pool -> inception_5b/pool
I0403 15:48:28.959743 14465 net.cpp:141] Setting up inception_5b/pool
I0403 15:48:28.959770 14465 net.cpp:148] Top shape: 24 832 7 7 (978432)
I0403 15:48:28.959786 14465 net.cpp:156] Memory required for data: 1339843104
I0403 15:48:28.959802 14465 layer_factory.hpp:77] Creating layer inception_5b/pool_proj
I0403 15:48:28.959825 14465 net.cpp:91] Creating Layer inception_5b/pool_proj
I0403 15:48:28.959844 14465 net.cpp:425] inception_5b/pool_proj <- inception_5b/pool
I0403 15:48:28.959867 14465 net.cpp:399] inception_5b/pool_proj -> inception_5b/pool_proj
I0403 15:48:28.962349 14465 net.cpp:141] Setting up inception_5b/pool_proj
I0403 15:48:28.962384 14465 net.cpp:148] Top shape: 24 128 7 7 (150528)
I0403 15:48:28.962404 14465 net.cpp:156] Memory required for data: 1340445216
I0403 15:48:28.962422 14465 layer_factory.hpp:77] Creating layer inception_5b/relu_pool_proj
I0403 15:48:28.962441 14465 net.cpp:91] Creating Layer inception_5b/relu_pool_proj
I0403 15:48:28.962460 14465 net.cpp:425] inception_5b/relu_pool_proj <- inception_5b/pool_proj
I0403 15:48:28.962481 14465 net.cpp:386] inception_5b/relu_pool_proj -> inception_5b/pool_proj (in-place)
I0403 15:48:28.962803 14465 net.cpp:141] Setting up inception_5b/relu_pool_proj
I0403 15:48:28.962834 14465 net.cpp:148] Top shape: 24 128 7 7 (150528)
I0403 15:48:28.962852 14465 net.cpp:156] Memory required for data: 1341047328
I0403 15:48:28.962868 14465 layer_factory.hpp:77] Creating layer inception_5b/output
I0403 15:48:28.962887 14465 net.cpp:91] Creating Layer inception_5b/output
I0403 15:48:28.962919 14465 net.cpp:425] inception_5b/output <- inception_5b/1x1
I0403 15:48:28.962939 14465 net.cpp:425] inception_5b/output <- inception_5b/3x3
I0403 15:48:28.962956 14465 net.cpp:425] inception_5b/output <- inception_5b/5x5
I0403 15:48:28.962972 14465 net.cpp:425] inception_5b/output <- inception_5b/pool_proj
I0403 15:48:28.963021 14465 net.cpp:399] inception_5b/output -> inception_5b/output
I0403 15:48:28.963079 14465 net.cpp:141] Setting up inception_5b/output
I0403 15:48:28.963115 14465 net.cpp:148] Top shape: 24 1024 7 7 (1204224)
I0403 15:48:28.963134 14465 net.cpp:156] Memory required for data: 1345864224
I0403 15:48:28.963150 14465 layer_factory.hpp:77] Creating layer pool5/7x7_s1
I0403 15:48:28.963172 14465 net.cpp:91] Creating Layer pool5/7x7_s1
I0403 15:48:28.963191 14465 net.cpp:425] pool5/7x7_s1 <- inception_5b/output
I0403 15:48:28.963210 14465 net.cpp:399] pool5/7x7_s1 -> pool5/7x7_s1
I0403 15:48:28.963445 14465 net.cpp:141] Setting up pool5/7x7_s1
I0403 15:48:28.963474 14465 net.cpp:148] Top shape: 24 1024 1 1 (24576)
I0403 15:48:28.963490 14465 net.cpp:156] Memory required for data: 1345962528
I0403 15:48:28.963505 14465 layer_factory.hpp:77] Creating layer pool5/drop_7x7_s1
I0403 15:48:28.963523 14465 net.cpp:91] Creating Layer pool5/drop_7x7_s1
I0403 15:48:28.963539 14465 net.cpp:425] pool5/drop_7x7_s1 <- pool5/7x7_s1
I0403 15:48:28.963560 14465 net.cpp:386] pool5/drop_7x7_s1 -> pool5/7x7_s1 (in-place)
I0403 15:48:28.963613 14465 net.cpp:141] Setting up pool5/drop_7x7_s1
I0403 15:48:28.963639 14465 net.cpp:148] Top shape: 24 1024 1 1 (24576)
I0403 15:48:28.963654 14465 net.cpp:156] Memory required for data: 1346060832
I0403 15:48:28.963670 14465 layer_factory.hpp:77] Creating layer loss3/classifier_plantvillage
I0403 15:48:28.963693 14465 net.cpp:91] Creating Layer loss3/classifier_plantvillage
I0403 15:48:28.963712 14465 net.cpp:425] loss3/classifier_plantvillage <- pool5/7x7_s1
I0403 15:48:28.963733 14465 net.cpp:399] loss3/classifier_plantvillage -> loss3/classifier_plantvillage
I0403 15:48:28.964196 14465 net.cpp:141] Setting up loss3/classifier_plantvillage
I0403 15:48:28.964224 14465 net.cpp:148] Top shape: 24 38 (912)
I0403 15:48:28.964239 14465 net.cpp:156] Memory required for data: 1346064480
I0403 15:48:28.964257 14465 layer_factory.hpp:77] Creating layer loss3/classifier_plantvillage_loss3/classifier_plantvillage_0_split
I0403 15:48:28.964279 14465 net.cpp:91] Creating Layer loss3/classifier_plantvillage_loss3/classifier_plantvillage_0_split
I0403 15:48:28.964298 14465 net.cpp:425] loss3/classifier_plantvillage_loss3/classifier_plantvillage_0_split <- loss3/classifier_plantvillage
I0403 15:48:28.964316 14465 net.cpp:399] loss3/classifier_plantvillage_loss3/classifier_plantvillage_0_split -> loss3/classifier_plantvillage_loss3/classifier_plantvillage_0_split_0
I0403 15:48:28.964337 14465 net.cpp:399] loss3/classifier_plantvillage_loss3/classifier_plantvillage_0_split -> loss3/classifier_plantvillage_loss3/classifier_plantvillage_0_split_1
I0403 15:48:28.964360 14465 net.cpp:399] loss3/classifier_plantvillage_loss3/classifier_plantvillage_0_split -> loss3/classifier_plantvillage_loss3/classifier_plantvillage_0_split_2
I0403 15:48:28.964383 14465 net.cpp:399] loss3/classifier_plantvillage_loss3/classifier_plantvillage_0_split -> loss3/classifier_plantvillage_loss3/classifier_plantvillage_0_split_3
I0403 15:48:28.964491 14465 net.cpp:141] Setting up loss3/classifier_plantvillage_loss3/classifier_plantvillage_0_split
I0403 15:48:28.964516 14465 net.cpp:148] Top shape: 24 38 (912)
I0403 15:48:28.964534 14465 net.cpp:148] Top shape: 24 38 (912)
I0403 15:48:28.964550 14465 net.cpp:148] Top shape: 24 38 (912)
I0403 15:48:28.964566 14465 net.cpp:148] Top shape: 24 38 (912)
I0403 15:48:28.964581 14465 net.cpp:156] Memory required for data: 1346079072
I0403 15:48:28.964594 14465 layer_factory.hpp:77] Creating layer loss1/loss
I0403 15:48:28.964617 14465 net.cpp:91] Creating Layer loss1/loss
I0403 15:48:28.964635 14465 net.cpp:425] loss1/loss <- loss1/classifier_plantvillage_loss1/classifier_plantvillage_0_split_0
I0403 15:48:28.964670 14465 net.cpp:425] loss1/loss <- label_data_1_split_0
…
