…
I0403 15:55:35.557159 14855 net.cpp:313] The NetState phase (1) differed from the phase (0) specified by a rule in layer data
I0403 15:55:35.558378 14855 net.cpp:49] Initializing net from parameters: 
state {
  phase: TEST
}
layer {
  name: "data"
  type: "Data"
  top: "data"
  top: "label"
  include {
    phase: TEST
  }
  transform_param {
    mirror: false
    crop_size: 224
    mean_file: "/home/mohanty/data/final_dataset/lmdb/color-80-20/mean.binaryproto"
  }
  data_param {
    source: "/home/mohanty/data/final_dataset/lmdb/color-80-20/test_db"
    batch_size: 24
    backend: LMDB
  }
}
layer {
  name: "conv1/7x7_s2"
  type: "Convolution"
  bottom: "data"
  top: "conv1/7x7_s2"
  param {
    lr_mult: 1
    decay_mult: 1
  }
  param {
    lr_mult: 2
    decay_mult: 0
  }
  convolution_param {
    num_output: 64
    pad: 3
    kernel_size: 7
    stride: 2
    weight_filler {
      type: "xavier"
      std: 0.1
    }
    bias_filler {
      type: "constant"
      value: 0.2
    }
  }
}
layer {
  name: "conv1/relu_7x7"
  type: "ReLU"
  bottom: "conv1/7x7_s2"
  top: "conv1/7x7_s2"
}
layer {
  name: "pool1/3x3_s2"
  type: "Pooling"
  bottom: "conv1/7x7_s2"
  top: "pool1/3x3_s2"
  pooling_param {
    pool: MAX
    kernel_size: 3
    stride: 2
  }
}
layer {
  name: "pool1/norm1"
  type: "LRN"
  bottom: "pool1/3x3_s2"
  top: "pool1/norm1"
  lrn_param {
    local_size: 5
    alpha: 0.0001
    beta: 0.75
  }
}
layer {
  name: "conv2/3x3_reduce"
  type: "Convolution"
  bottom: "pool1/norm1"
  top: "conv2/3x3_reduce"
  param {
    lr_mult: 1
    decay_mult: 1
  }
  param {
    lr_mult: 2
    decay_mult: 0
  }
  convolution_param {
    num_output: 64
    kernel_size: 1
    weight_filler {
      type: "xavier"
      std: 0.1
    }
    bias_filler {
      type: "constant"
      value: 0.2
    }
  }
}
layer {
  name: "conv2/relu_3x3_reduce"
  type: "ReLU"
  bottom: "conv2/3x3_reduce"
  top: "conv2/3x3_reduce"
}
layer {
  name: "conv2/3x3"
  type: "Convolution"
  bottom: "conv2/3x3_reduce"
  top: "conv2/3x3"
  param {
    lr_mult: 1
    decay_mult: 1
  }
  param {
    lr_mult: 2
    decay_mult: 0
  }
  convolution_param {
    num_output: 192
    pad: 1
    kernel_size: 3
    weight_filler {
      type: "xavier"
      std: 0.03
    }
    bias_filler {
      type: "constant"
      value: 0.2
    }
  }
}
layer {
  name: "conv2/relu_3x3"
  type: "ReLU"
  bottom: "conv2/3x3"
  top: "conv2/3x3"
}
layer {
  name: "conv2/norm2"
  type: "LRN"
  bottom: "conv2/3x3"
  top: "conv2/norm2"
  lrn_param {
    local_size: 5
    alpha: 0.0001
    beta: 0.75
  }
}
layer {
  name: "pool2/3x3_s2"
  type: "Pooling"
  bottom: "conv2/norm2"
  top: "pool2/3x3_s2"
  pooling_param {
    pool: MAX
    kernel_size: 3
    stride: 2
  }
}
layer {
  name: "inception_3a/1x1"
  type: "Convolution"
  bottom: "pool2/3x3_s2"
  top: "inception_3a/1x1"
  param {
    lr_mult: 1
    decay_mult: 1
  }
  param {
    lr_mult: 2
    decay_mult: 0
  }
  convolution_param {
    num_output: 64
    kernel_size: 1
    weight_filler {
      type: "xavier"
      std: 0.03
    }
    bias_filler {
      type: "constant"
      value: 0.2
    }
  }
}
layer {
  name: "inception_3a/relu_1x1"
  type: "ReLU"
  bottom: "inception_3a/1x1"
  top: "inception_3a/1x1"
}
layer {
  name: "inception_3a/3x3_reduce"
  type: "Convolution"
  bottom: "pool2/3x3_s2"
  top: "inception_3a/3x3_reduce"
  param {
    lr_mult: 1
    decay_mult: 1
  }
  param {
    lr_mult: 2
    decay_mult: 0
  }
  convolution_param {
    num_output: 96
    kernel_size: 1
    weight_filler {
      type: "xavier"
      std: 0.09
    }
    bias_filler {
      type: "constant"
      value: 0.2
    }
  }
}
layer {
  name: "inception_3a/relu_3x3_reduce"
  type: "ReLU"
  bottom: "inception_3a/3x3_reduce"
  top: "inception_3a/3x3_reduce"
}
layer {
  name: "inception_3a/3x3"
  type: "Convolution"
  bottom: "inception_3a/3x3_reduce"
  top: "inception_3a/3x3"
  param {
    lr_mult: 1
    decay_mult: 1
  }
  param {
    lr_mult: 2
    decay_mult: 0
  }
  convolution_param {
    num_output: 128
    pad: 1
    kernel_size: 3
    weight_filler {
      type: "xavier"
      std: 0.03
    }
    bias_filler {
      type: "constant"
      value: 0.2
    }
  }
}
layer {
  name: "inception_3a/relu_3x3"
  type: "ReLU"
  bottom: "inception_3a/3x3"
  top: "inception_3a/3x3"
}
layer {
  name: "inception_3a/5x5_reduce"
  type: "Convolution"
  bottom: "pool2/3x3_s2"
  top: "inception_3a/5x5_reduce"
  param {
    lr_mult: 1
    decay_mult: 1
  }
  param {
    lr_mult: 2
    decay_mult: 0
  }
  convolution_param {
    num_output: 16
    kernel_size: 1
    weight_filler {
      type: "xavier"
      std: 0.2
    }
    bias_filler {
      type: "constant"
      value: 0.2
    }
  }
}
layer {
  name: "inception_3a/relu_5x5_reduce"
  type: "ReLU"
  bottom: "inception_3a/5x5_reduce"
  top: "inception_3a/5x5_reduce"
}
layer {
  name: "inception_3a/5x5"
  type: "Convolution"
  bottom: "inception_3a/5x5_reduce"
  top: "inception_3a/5x5"
  param {
    lr_mult: 1
    decay_mult: 1
  }
  param {
    lr_mult: 2
    decay_mult: 0
  }
  convolution_param {
    num_output: 32
    pad: 2
    kernel_size: 5
    weight_filler {
      type: "xavier"
      std: 0.03
    }
    bias_filler {
      type: "constant"
      value: 0.2
    }
  }
}
layer {
  name: "inception_3a/relu_5x5"
  type: "ReLU"
  bottom: "inception_3a/5x5"
  top: "inception_3a/5x5"
}
layer {
  name: "inception_3a/pool"
  type: "Pooling"
  bottom: "pool2/3x3_s2"
  top: "inception_3a/pool"
  pooling_param {
    pool: MAX
    kernel_size: 3
    stride: 1
    pad: 1
  }
}
layer {
  name: "inception_3a/pool_proj"
  type: "Convolution"
  bottom: "inception_3a/pool"
  top: "inception_3a/pool_proj"
  param {
    lr_mult: 1
    decay_mult: 1
  }
  param {
    lr_mult: 2
    decay_mult: 0
  }
  convolution_param {
    num_output: 32
    kernel_size: 1
    weight_filler {
      type: "xavier"
      std: 0.1
    }
    bias_filler {
      type: "constant"
      value: 0.2
    }
  }
}
layer {
  name: "inception_3a/relu_pool_proj"
  type: "ReLU"
  bottom: "inception_3a/pool_proj"
  top: "inception_3a/pool_proj"
}
layer {
  name: "inception_3a/output"
  type: "Concat"
  bottom: "inception_3a/1x1"
  bottom: "inception_3a/3x3"
  bottom: "inception_3a/5x5"
  bottom: "inception_3a/pool_proj"
  top: "inception_3a/output"
}
layer {
  name: "inception_3b/1x1"
  type: "Convolution"
  bottom: "inception_3a/output"
  top: "inception_3b/1x1"
  param {
    lr_mult: 1
    decay_mult: 1
  }
  param {
    lr_mult: 2
    decay_mult: 0
  }
  convolution_param {
    num_output: 128
    kernel_size: 1
    weight_filler {
      type: "xavier"
      std: 0.03
    }
    bias_filler {
      type: "constant"
      value: 0.2
    }
  }
}
layer {
  name: "inception_3b/relu_1x1"
  type: "ReLU"
  bottom: "inception_3b/1x1"
  top: "inception_3b/1x1"
}
layer {
  name: "inception_3b/3x3_reduce"
  type: "Convolution"
  bottom: "inception_3a/output"
  top: "inception_3b/3x3_reduce"
  param {
    lr_mult: 1
    decay_mult: 1
  }
  param {
    lr_mult: 2
    decay_mult: 0
  }
  convolution_param {
    num_output: 128
    kernel_size: 1
    weight_filler {
      type: "xavier"
      std: 0.09
    }
    bias_filler {
      type: "constant"
      value: 0.2
    }
  }
}
layer {
  name: "inception_3b/relu_3x3_reduce"
  type: "ReLU"
  bottom: "inception_3b/3x3_reduce"
  top: "inception_3b/3x3_reduce"
}
layer {
  name: "inception_3b/3x3"
  type: "Convolution"
  bottom: "inception_3b/3x3_reduce"
  top: "inception_3b/3x3"
  param {
    lr_mult: 1
    decay_mult: 1
  }
  param {
    lr_mult: 2
    decay_mult: 0
  }
  convolution_param {
    num_output: 192
    pad: 1
    kernel_size: 3
    weight_filler {
      type: "xavier"
      std: 0.03
    }
    bias_filler {
      type: "constant"
      value: 0.2
    }
  }
}
layer {
  name: "inception_3b/relu_3x3"
  type: "ReLU"
  bottom: "inception_3b/3x3"
  top: "inception_3b/3x3"
}
layer {
  name: "inception_3b/5x5_reduce"
  type: "Convolution"
  bottom: "inception_3a/output"
  top: "inception_3b/5x5_reduce"
  param {
    lr_mult: 1
    decay_mult: 1
  }
  param {
    lr_mult: 2
    decay_mult: 0
  }
  convolution_param {
    num_output: 32
    kernel_size: 1
    weight_filler {
      type: "xavier"
      std: 0.2
    }
    bias_filler {
      type: "constant"
      value: 0.2
    }
  }
}
layer {
  name: "inception_3b/relu_5x5_reduce"
  type: "ReLU"
  bottom: "inception_3b/5x5_reduce"
  top: "inception_3b/5x5_reduce"
}
layer {
  name: "inception_3b/5x5"
  type: "Convolution"
  bottom: "inception_3b/5x5_reduce"
  top: "inception_3b/5x5"
  param {
    lr_mult: 1
    decay_mult: 1
  }
  param {
    lr_mult: 2
    decay_mult: 0
  }
  convolution_param {
    num_output: 96
    pad: 2
    kernel_size: 5
    weight_filler {
      type: "xavier"
      std: 0.03
    }
    bias_filler {
      type: "constant"
      value: 0.2
    }
  }
}
layer {
  name: "inception_3b/relu_5x5"
  type: "ReLU"
  bottom: "inception_3b/5x5"
  top: "inception_3b/5x5"
}
layer {
  name: "inception_3b/pool"
  type: "Pooling"
  bottom: "inception_3a/output"
  top: "inception_3b/pool"
  pooling_param {
    pool: MAX
    kernel_size: 3
    stride: 1
    pad: 1
  }
}
layer {
  name: "inception_3b/pool_proj"
  type: "Convolution"
  bottom: "inception_3b/pool"
  top: "inception_3b/pool_proj"
  param {
    lr_mult: 1
    decay_mult: 1
  }
  param {
    lr_mult: 2
    decay_mult: 0
  }
  convolution_param {
    num_output: 64
    kernel_size: 1
    weight_filler {
      type: "xavier"
      std: 0.1
    }
    bias_filler {
      type: "constant"
      value: 0.2
    }
  }
}
layer {
  name: "inception_3b/relu_pool_proj"
  type: "ReLU"
  bottom: "inception_3b/pool_proj"
  top: "inception_3b/pool_proj"
}
layer {
  name: "inception_3b/output"
  type: "Concat"
  bottom: "inception_3b/1x1"
  bottom: "inception_3b/3x3"
  bottom: "inception_3b/5x5"
  bottom: "inception_3b/pool_proj"
  top: "inception_3b/output"
}
layer {
  name: "pool3/3x3_s2"
  type: "Pooling"
  bottom: "inception_3b/output"
  top: "pool3/3x3_s2"
  pooling_param {
    pool: MAX
    kernel_size: 3
    stride: 2
  }
}
layer {
  name: "inception_4a/1x1"
  type: "Convolution"
  bottom: "pool3/3x3_s2"
  top: "inception_4a/1x1"
  param {
    lr_mult: 1
    decay_mult: 1
  }
  param {
    lr_mult: 2
    decay_mult: 0
  }
  convolution_param {
    num_output: 192
    kernel_size: 1
    weight_filler {
      type: "xavier"
      std: 0.03
    }
    bias_filler {
      type: "constant"
      value: 0.2
    }
  }
}
layer {
  name: "inception_4a/relu_1x1"
  type: "ReLU"
  bottom: "inception_4a/1x1"
  top: "inception_4a/1x1"
}
layer {
  name: "inception_4a/3x3_reduce"
  type: "Convolution"
  bottom: "pool3/3x3_s2"
  top: "inception_4a/3x3_reduce"
  param {
    lr_mult: 1
    decay_mult: 1
  }
  param {
    lr_mult: 2
    decay_mult: 0
  }
  convolution_param {
    num_output: 96
    kernel_size: 1
    weight_filler {
      type: "xavier"
      std: 0.09
    }
    bias_filler {
      type: "constant"
      value: 0.2
    }
  }
}
layer {
  name: "inception_4a/relu_3x3_reduce"
  type: "ReLU"
  bottom: "inception_4a/3x3_reduce"
  top: "inception_4a/3x3_reduce"
}
layer {
  name: "inception_4a/3x3"
  type: "Convolution"
  bottom: "inception_4a/3x3_reduce"
  top: "inception_4a/3x3"
  param {
    lr_mult: 1
    decay_mult: 1
  }
  param {
    lr_mult: 2
    decay_mult: 0
  }
  convolution_param {
    num_output: 208
    pad: 1
    kernel_size: 3
    weight_filler {
      type: "xavier"
      std: 0.03
    }
    bias_filler {
      type: "constant"
      value: 0.2
    }
  }
}
layer {
  name: "inception_4a/relu_3x3"
  type: "ReLU"
  bottom: "inception_4a/3x3"
  top: "inception_4a/3x3"
}
layer {
  name: "inception_4a/5x5_reduce"
  type: "Convolution"
  bottom: "pool3/3x3_s2"
  top: "inception_4a/5x5_reduce"
  param {
    lr_mult: 1
    decay_mult: 1
  }
  param {
    lr_mult: 2
    decay_mult: 0
  }
  convolution_param {
    num_output: 16
    kernel_size: 1
    weight_filler {
      type: "xavier"
      std: 0.2
    }
    bias_filler {
      type: "constant"
      value: 0.2
    }
  }
}
layer {
  name: "inception_4a/relu_5x5_reduce"
  type: "ReLU"
  bottom: "inception_4a/5x5_reduce"
  top: "inception_4a/5x5_reduce"
}
layer {
  name: "inception_4a/5x5"
  type: "Convolution"
  bottom: "inception_4a/5x5_reduce"
  top: "inception_4a/5x5"
  param {
    lr_mult: 1
    decay_mult: 1
  }
  param {
    lr_mult: 2
    decay_mult: 0
  }
  convolution_param {
    num_output: 48
    pad: 2
    kernel_size: 5
    weight_filler {
      type: "xavier"
      std: 0.03
    }
    bias_filler {
      type: "constant"
      value: 0.2
    }
  }
}
layer {
  name: "inception_4a/relu_5x5"
  type: "ReLU"
  bottom: "inception_4a/5x5"
  top: "inception_4a/5x5"
}
layer {
  name: "inception_4a/pool"
  type: "Pooling"
  bottom: "pool3/3x3_s2"
  top: "inception_4a/pool"
  pooling_param {
    pool: MAX
    kernel_size: 3
    stride: 1
    pad: 1
  }
}
layer {
  name: "inception_4a/pool_proj"
  type: "Convolution"
  bottom: "inception_4a/pool"
  top: "inception_4a/pool_proj"
  param {
    lr_mult: 1
    decay_mult: 1
  }
  param {
    lr_mult: 2
    decay_mult: 0
  }
  convolution_param {
    num_output: 64
    kernel_size: 1
    weight_filler {
      type: "xavier"
      std: 0.1
    }
    bias_filler {
      type: "constant"
      value: 0.2
    }
  }
}
layer {
  name: "inception_4a/relu_pool_proj"
  type: "ReLU"
  bottom: "inception_4a/pool_proj"
  top: "inception_4a/pool_proj"
}
layer {
  name: "inception_4a/output"
  type: "Concat"
  bottom: "inception_4a/1x1"
  bottom: "inception_4a/3x3"
  bottom: "inception_4a/5x5"
  bottom: "inception_4a/pool_proj"
  top: "inception_4a/output"
}
layer {
  name: "loss1/ave_pool"
  type: "Pooling"
  bottom: "inception_4a/output"
  top: "loss1/ave_pool"
  pooling_param {
    pool: AVE
    kernel_size: 5
    stride: 3
  }
}
layer {
  name: "loss1/conv"
  type: "Convolution"
  bottom: "loss1/ave_pool"
  top: "loss1/conv"
  param {
    lr_mult: 1
    decay_mult: 1
  }
  param {
    lr_mult: 2
    decay_mult: 0
  }
  convolution_param {
    num_output: 128
    kernel_size: 1
    weight_filler {
      type: "xavier"
      std: 0.08
    }
    bias_filler {
      type: "constant"
      value: 0.2
    }
  }
}
layer {
  name: "loss1/relu_conv"
  type: "ReLU"
  bottom: "loss1/conv"
  top: "loss1/conv"
}
layer {
  name: "loss1/fc"
  type: "InnerProduct"
  bottom: "loss1/conv"
  top: "loss1/fc"
  param {
    lr_mult: 1
    decay_mult: 1
  }
  param {
    lr_mult: 2
    decay_mult: 0
  }
  inner_product_param {
    num_output: 1024
    weight_filler {
      type: "xavier"
      std: 0.02
    }
    bias_filler {
      type: "constant"
      value: 0.2
    }
  }
}
layer {
  name: "loss1/relu_fc"
  type: "ReLU"
  bottom: "loss1/fc"
  top: "loss1/fc"
}
layer {
  name: "loss1/drop_fc"
  type: "Dropout"
  bottom: "loss1/fc"
  top: "loss1/fc"
  dropout_param {
    dropout_ratio: 0.7
  }
}
layer {
  name: "loss1/classifier_plantvillage"
  type: "InnerProduct"
  bottom: "loss1/fc"
  top: "loss1/classifier_plantvillage"
  param {
    lr_mult: 1
    decay_mult: 1
  }
  param {
    lr_mult: 2
    decay_mult: 0
  }
  inner_product_param {
    num_output: 38
    weight_filler {
      type: "xavier"
      std: 0.0009765625
    }
    bias_filler {
      type: "constant"
      value: 0
    }
  }
}
layer {
  name: "inception_4b/1x1"
  type: "Convolution"
  bottom: "inception_4a/output"
  top: "inception_4b/1x1"
  param {
    lr_mult: 1
    decay_mult: 1
  }
  param {
    lr_mult: 2
    decay_mult: 0
  }
  convolution_param {
    num_output: 160
    kernel_size: 1
    weight_filler {
      type: "xavier"
      std: 0.03
    }
    bias_filler {
      type: "constant"
      value: 0.2
    }
  }
}
layer {
  name: "inception_4b/relu_1x1"
  type: "ReLU"
  bottom: "inception_4b/1x1"
  top: "inception_4b/1x1"
}
layer {
  name: "inception_4b/3x3_reduce"
  type: "Convolution"
  bottom: "inception_4a/output"
  top: "inception_4b/3x3_reduce"
  param {
    lr_mult: 1
    decay_mult: 1
  }
  param {
    lr_mult: 2
    decay_mult: 0
  }
  convolution_param {
    num_output: 112
    kernel_size: 1
    weight_filler {
      type: "xavier"
      std: 0.09
    }
    bias_filler {
      type: "constant"
      value: 0.2
    }
  }
}
layer {
  name: "inception_4b/relu_3x3_reduce"
  type: "ReLU"
  bottom: "inception_4b/3x3_reduce"
  top: "inception_4b/3x3_reduce"
}
layer {
  name: "inception_4b/3x3"
  type: "Convolution"
  bottom: "inception_4b/3x3_reduce"
  top: "inception_4b/3x3"
  param {
    lr_mult: 1
    decay_mult: 1
  }
  param {
    lr_mult: 2
    decay_mult: 0
  }
  convolution_param {
    num_output: 224
    pad: 1
    kernel_size: 3
    weight_filler {
      type: "xavier"
      std: 0.03
    }
    bias_filler {
      type: "constant"
      value: 0.2
    }
  }
}
layer {
  name: "inception_4b/relu_3x3"
  type: "ReLU"
  bottom: "inception_4b/3x3"
  top: "inception_4b/3x3"
}
layer {
  name: "inception_4b/5x5_reduce"
  type: "Convolution"
  bottom: "inception_4a/output"
  top: "inception_4b/5x5_reduce"
  param {
    lr_mult: 1
    decay_mult: 1
  }
  param {
    lr_mult: 2
    decay_mult: 0
  }
  convolution_param {
    num_output: 24
    kernel_size: 1
    weight_filler {
      type: "xavier"
      std: 0.2
    }
    bias_filler {
      type: "constant"
      value: 0.2
    }
  }
}
layer {
  name: "inception_4b/relu_5x5_reduce"
  type: "ReLU"
  bottom: "inception_4b/5x5_reduce"
  top: "inception_4b/5x5_reduce"
}
layer {
  name: "inception_4b/5x5"
  type: "Convolution"
  bottom: "inception_4b/5x5_reduce"
  top: "inception_4b/5x5"
  param {
    lr_mult: 1
    decay_mult: 1
  }
  param {
    lr_mult: 2
    decay_mult: 0
  }
  convolution_param {
    num_output: 64
    pad: 2
    kernel_size: 5
    weight_filler {
      type: "xavier"
      std: 0.03
    }
    bias_filler {
      type: "constant"
      value: 0.2
    }
  }
}
layer {
  name: "inception_4b/relu_5x5"
  type: "ReLU"
  bottom: "inception_4b/5x5"
  top: "inception_4b/5x5"
}
layer {
  name: "inception_4b/pool"
  type: "Pooling"
  bottom: "inception_4a/output"
  top: "inception_4b/pool"
  pooling_param {
    pool: MAX
    kernel_size: 3
    stride: 1
    pad: 1
  }
}
layer {
  name: "inception_4b/pool_proj"
  type: "Convolution"
  bottom: "inception_4b/pool"
  top: "inception_4b/pool_proj"
  param {
    lr_mult: 1
    decay_mult: 1
  }
  param {
    lr_mult: 2
    decay_mult: 0
  }
  convolution_param {
    num_output: 64
    kernel_size: 1
    weight_filler {
      type: "xavier"
      std: 0.1
    }
    bias_filler {
      type: "constant"
      value: 0.2
    }
  }
}
layer {
  name: "inception_4b/relu_pool_proj"
  type: "ReLU"
  bottom: "inception_4b/pool_proj"
  top: "inception_4b/pool_proj"
}
layer {
  name: "inception_4b/output"
  type: "Concat"
  bottom: "inception_4b/1x1"
  bottom: "inception_4b/3x3"
  bottom: "inception_4b/5x5"
  bottom: "inception_4b/pool_proj"
  top: "inception_4b/output"
}
layer {
  name: "inception_4c/1x1"
  type: "Convolution"
  bottom: "inception_4b/output"
  top: "inception_4c/1x1"
  param {
    lr_mult: 1
    decay_mult: 1
  }
  param {
    lr_mult: 2
    decay_mult: 0
  }
  convolution_param {
    num_output: 128
    kernel_size: 1
    weight_filler {
      type: "xavier"
      std: 0.03
    }
    bias_filler {
      type: "constant"
      value: 0.2
    }
  }
}
layer {
  name: "inception_4c/relu_1x1"
  type: "ReLU"
  bottom: "inception_4c/1x1"
  top: "inception_4c/1x1"
}
layer {
  name: "inception_4c/3x3_reduce"
  type: "Convolution"
  bottom: "inception_4b/output"
  top: "inception_4c/3x3_reduce"
  param {
    lr_mult: 1
    decay_mult: 1
  }
  param {
    lr_mult: 2
    decay_mult: 0
  }
  convolution_param {
    num_output: 128
    kernel_size: 1
    weight_filler {
      type: "xavier"
      std: 0.09
    }
    bias_filler {
      type: "constant"
      value: 0.2
    }
  }
}
layer {
  name: "inception_4c/relu_3x3_reduce"
  type: "ReLU"
  bottom: "inception_4c/3x3_reduce"
  top: "inception_4c/3x3_reduce"
}
layer {
  name: "inception_4c/3x3"
  type: "Convolution"
  bottom: "inception_4c/3x3_reduce"
  top: "inception_4c/3x3"
  param {
    lr_mult: 1
    decay_mult: 1
  }
  param {
    lr_mult: 2
    decay_mult: 0
  }
  convolution_param {
    num_output: 256
    pad: 1
    kernel_size: 3
    weight_filler {
      type: "xavier"
      std: 0.03
    }
    bias_filler {
      type: "constant"
      value: 0.2
    }
  }
}
layer {
  name: "inception_4c/relu_3x3"
  type: "ReLU"
  bottom: "inception_4c/3x3"
  top: "inception_4c/3x3"
}
layer {
  name: "inception_4c/5x5_reduce"
  type: "Convolution"
  bottom: "inception_4b/output"
  top: "inception_4c/5x5_reduce"
  param {
    lr_mult: 1
    decay_mult: 1
  }
  param {
    lr_mult: 2
    decay_mult: 0
  }
  convolution_param {
    num_output: 24
    kernel_size: 1
    weight_filler {
      type: "xavier"
      std: 0.2
    }
    bias_filler {
      type: "constant"
      value: 0.2
    }
  }
}
layer {
  name: "inception_4c/relu_5x5_reduce"
  type: "ReLU"
  bottom: "inception_4c/5x5_reduce"
  top: "inception_4c/5x5_reduce"
}
layer {
  name: "inception_4c/5x5"
  type: "Convolution"
  bottom: "inception_4c/5x5_reduce"
  top: "inception_4c/5x5"
  param {
    lr_mult: 1
    decay_mult: 1
  }
  param {
    lr_mult: 2
    decay_mult: 0
  }
  convolution_param {
    num_output: 64
    pad: 2
    kernel_size: 5
    weight_filler {
      type: "xavier"
      std: 0.03
    }
    bias_filler {
      type: "constant"
      value: 0.2
    }
  }
}
layer {
  name: "inception_4c/relu_5x5"
  type: "ReLU"
  bottom: "inception_4c/5x5"
  top: "inception_4c/5x5"
}
layer {
  name: "inception_4c/pool"
  type: "Pooling"
  bottom: "inception_4b/output"
  top: "inception_4c/pool"
  pooling_param {
    pool: MAX
    kernel_size: 3
    stride: 1
    pad: 1
  }
}
layer {
  name: "inception_4c/pool_proj"
  type: "Convolution"
  bottom: "inception_4c/pool"
  top: "inception_4c/pool_proj"
  param {
    lr_mult: 1
    decay_mult: 1
  }
  param {
    lr_mult: 2
    decay_mult: 0
  }
  convolution_param {
    num_output: 64
    kernel_size: 1
    weight_filler {
      type: "xavier"
      std: 0.1
    }
    bias_filler {
      type: "constant"
      value: 0.2
    }
  }
}
layer {
  name: "inception_4c/relu_pool_proj"
  type: "ReLU"
  bottom: "inception_4c/pool_proj"
  top: "inception_4c/pool_proj"
}
layer {
  name: "inception_4c/output"
  type: "Concat"
  bottom: "inception_4c/1x1"
  bottom: "inception_4c/3x3"
  bottom: "inception_4c/5x5"
  bottom: "inception_4c/pool_proj"
  top: "inception_4c/output"
}
layer {
  name: "inception_4d/1x1"
  type: "Convolution"
  bottom: "inception_4c/output"
  top: "inception_4d/1x1"
  param {
    lr_mult: 1
    decay_mult: 1
  }
  param {
    lr_mult: 2
    decay_mult: 0
  }
  convolution_param {
    num_output: 112
    kernel_size: 1
    weight_filler {
      type: "xavier"
      std: 0.03
    }
    bias_filler {
      type: "constant"
      value: 0.2
    }
  }
}
layer {
  name: "inception_4d/relu_1x1"
  type: "ReLU"
  bottom: "inception_4d/1x1"
  top: "inception_4d/1x1"
}
layer {
  name: "inception_4d/3x3_reduce"
  type: "Convolution"
  bottom: "inception_4c/output"
  top: "inception_4d/3x3_reduce"
  param {
    lr_mult: 1
    decay_mult: 1
  }
  param {
    lr_mult: 2
    decay_mult: 0
  }
  convolution_param {
    num_output: 144
    kernel_size: 1
    weight_filler {
      type: "xavier"
      std: 0.09
    }
    bias_filler {
      type: "constant"
      value: 0.2
    }
  }
}
layer {
  name: "inception_4d/relu_3x3_reduce"
  type: "ReLU"
  bottom: "inception_4d/3x3_reduce"
  top: "inception_4d/3x3_reduce"
}
layer {
  name: "inception_4d/3x3"
  type: "Convolution"
  bottom: "inception_4d/3x3_reduce"
  top: "inception_4d/3x3"
  param {
    lr_mult: 1
    decay_mult: 1
  }
  param {
    lr_mult: 2
    decay_mult: 0
  }
  convolution_param {
    num_output: 288
    pad: 1
    kernel_size: 3
    weight_filler {
      type: "xavier"
      std: 0.03
    }
    bias_filler {
      type: "constant"
      value: 0.2
    }
  }
}
layer {
  name: "inception_4d/relu_3x3"
  type: "ReLU"
  bottom: "inception_4d/3x3"
  top: "inception_4d/3x3"
}
layer {
  name: "inception_4d/5x5_reduce"
  type: "Convolution"
  bottom: "inception_4c/output"
  top: "inception_4d/5x5_reduce"
  param {
    lr_mult: 1
    decay_mult: 1
  }
  param {
    lr_mult: 2
    decay_mult: 0
  }
  convolution_param {
    num_output: 32
    kernel_size: 1
    weight_filler {
      type: "xavier"
      std: 0.2
    }
    bias_filler {
      type: "constant"
      value: 0.2
    }
  }
}
layer {
  name: "inception_4d/relu_5x5_reduce"
  type: "ReLU"
  bottom: "inception_4d/5x5_reduce"
  top: "inception_4d/5x5_reduce"
}
layer {
  name: "inception_4d/5x5"
  type: "Convolution"
  bottom: "inception_4d/5x5_reduce"
  top: "inception_4d/5x5"
  param {
    lr_mult: 1
    decay_mult: 1
  }
  param {
    lr_mult: 2
    decay_mult: 0
  }
  convolution_param {
    num_output: 64
    pad: 2
    kernel_size: 5
    weight_filler {
      type: "xavier"
      std: 0.03
    }
    bias_filler {
      type: "constant"
      value: 0.2
    }
  }
}
layer {
  name: "inception_4d/relu_5x5"
  type: "ReLU"
  bottom: "inception_4d/5x5"
  top: "inception_4d/5x5"
}
layer {
  name: "inception_4d/pool"
  type: "Pooling"
  bottom: "inception_4c/output"
  top: "inception_4d/pool"
  pooling_param {
    pool: MAX
    kernel_size: 3
    stride: 1
    pad: 1
  }
}
layer {
  name: "inception_4d/pool_proj"
  type: "Convolution"
  bottom: "inception_4d/pool"
  top: "inception_4d/pool_proj"
  param {
    lr_mult: 1
    decay_mult: 1
  }
  param {
    lr_mult: 2
    decay_mult: 0
  }
  convolution_param {
    num_output: 64
    kernel_size: 1
    weight_filler {
      type: "xavier"
      std: 0.1
    }
    bias_filler {
      type: "constant"
      value: 0.2
    }
  }
}
layer {
  name: "inception_4d/relu_pool_proj"
  type: "ReLU"
  bottom: "inception_4d/pool_proj"
  top: "inception_4d/pool_proj"
}
layer {
  name: "inception_4d/output"
  type: "Concat"
  bottom: "inception_4d/1x1"
  bottom: "inception_4d/3x3"
  bottom: "inception_4d/5x5"
  bottom: "inception_4d/pool_proj"
  top: "inception_4d/output"
}
layer {
  name: "loss2/ave_pool"
  type: "Pooling"
  bottom: "inception_4d/output"
  top: "loss2/ave_pool"
  pooling_param {
    pool: AVE
    kernel_size: 5
    stride: 3
  }
}
layer {
  name: "loss2/conv"
  type: "Convolution"
  bottom: "loss2/ave_pool"
  top: "loss2/conv"
  param {
    lr_mult: 1
    decay_mult: 1
  }
  param {
    lr_mult: 2
    decay_mult: 0
  }
  convolution_param {
    num_output: 128
    kernel_size: 1
    weight_filler {
      type: "xavier"
      std: 0.08
    }
    bias_filler {
      type: "constant"
      value: 0.2
    }
  }
}
layer {
  name: "loss2/relu_conv"
  type: "ReLU"
  bottom: "loss2/conv"
  top: "loss2/conv"
}
layer {
  name: "loss2/fc"
  type: "InnerProduct"
  bottom: "loss2/conv"
  top: "loss2/fc"
  param {
    lr_mult: 1
    decay_mult: 1
  }
  param {
    lr_mult: 2
    decay_mult: 0
  }
  inner_product_param {
    num_output: 1024
    weight_filler {
      type: "xavier"
      std: 0.02
    }
    bias_filler {
      type: "constant"
      value: 0.2
    }
  }
}
layer {
  name: "loss2/relu_fc"
  type: "ReLU"
  bottom: "loss2/fc"
  top: "loss2/fc"
}
layer {
  name: "loss2/drop_fc"
  type: "Dropout"
  bottom: "loss2/fc"
  top: "loss2/fc"
  dropout_param {
    dropout_ratio: 0.7
  }
}
layer {
  name: "loss2/classifier_plantvillage"
  type: "InnerProduct"
  bottom: "loss2/fc"
  top: "loss2/classifier_plantvillage"
  param {
    lr_mult: 1
    decay_mult: 1
  }
  param {
    lr_mult: 2
    decay_mult: 0
  }
  inner_product_param {
    num_output: 38
    weight_filler {
      type: "xavier"
      std: 0.0009765625
    }
    bias_filler {
      type: "constant"
      value: 0
    }
  }
}
layer {
  name: "inception_4e/1x1"
  type: "Convolution"
  bottom: "inception_4d/output"
  top: "inception_4e/1x1"
  param {
    lr_mult: 1
    decay_mult: 1
  }
  param {
    lr_mult: 2
    decay_mult: 0
  }
  convolution_param {
    num_output: 256
    kernel_size: 1
    weight_filler {
      type: "xavier"
      std: 0.03
    }
    bias_filler {
      type: "constant"
      value: 0.2
    }
  }
}
layer {
  name: "inception_4e/relu_1x1"
  type: "ReLU"
  bottom: "inception_4e/1x1"
  top: "inception_4e/1x1"
}
layer {
  name: "inception_4e/3x3_reduce"
  type: "Convolution"
  bottom: "inception_4d/output"
  top: "inception_4e/3x3_reduce"
  param {
    lr_mult: 1
    decay_mult: 1
  }
  param {
    lr_mult: 2
    decay_mult: 0
  }
  convolution_param {
    num_output: 160
    kernel_size: 1
    weight_filler {
      type: "xavier"
      std: 0.09
    }
    bias_filler {
      type: "constant"
      value: 0.2
    }
  }
}
layer {
  name: "inception_4e/relu_3x3_reduce"
  type: "ReLU"
  bottom: "inception_4e/3x3_reduce"
  top: "inception_4e/3x3_reduce"
}
layer {
  name: "inception_4e/3x3"
  type: "Convolution"
  bottom: "inception_4e/3x3_reduce"
  top: "inception_4e/3x3"
  param {
    lr_mult: 1
    decay_mult: 1
  }
  param {
    lr_mult: 2
    decay_mult: 0
  }
  convolution_param {
    num_output: 320
    pad: 1
    kernel_size: 3
    weight_filler {
      type: "xavier"
      std: 0.03
    }
    bias_filler {
      type: "constant"
      value: 0.2
    }
  }
}
layer {
  name: "inception_4e/relu_3x3"
  type: "ReLU"
  bottom: "inception_4e/3x3"
  top: "inception_4e/3x3"
}
layer {
  name: "inception_4e/5x5_reduce"
  type: "Convolution"
  bottom: "inception_4d/output"
  top: "inception_4e/5x5_reduce"
  param {
    lr_mult: 1
    decay_mult: 1
  }
  param {
    lr_mult: 2
    decay_mult: 0
  }
  convolution_param {
    num_output: 32
    kernel_size: 1
    weight_filler {
      type: "xavier"
      std: 0.2
    }
    bias_filler {
      type: "constant"
      value: 0.2
    }
  }
}
layer {
  name: "inception_4e/relu_5x5_reduce"
  type: "ReLU"
  bottom: "inception_4e/5x5_reduce"
  top: "inception_4e/5x5_reduce"
}
layer {
  name: "inception_4e/5x5"
  type: "Convolution"
  bottom: "inception_4e/5x5_reduce"
  top: "inception_4e/5x5"
  p
I0403 15:55:35.559602 14855 layer_factory.hpp:77] Creating layer data
I0403 15:55:35.560209 14855 net.cpp:91] Creating Layer data
I0403 15:55:35.560245 14855 net.cpp:399] data -> data
I0403 15:55:35.560297 14855 net.cpp:399] data -> label
I0403 15:55:35.560333 14855 data_transformer.cpp:25] Loading mean file from: /home/mohanty/data/final_dataset/lmdb/color-80-20/mean.binaryproto
I0403 15:55:35.563235 14860 db_lmdb.cpp:38] Opened lmdb /home/mohanty/data/final_dataset/lmdb/color-80-20/test_db
I0403 15:55:35.573657 14855 data_layer.cpp:41] output data size: 24,3,224,224
I0403 15:55:35.600842 14855 net.cpp:141] Setting up data
I0403 15:55:35.600915 14855 net.cpp:148] Top shape: 24 3 224 224 (3612672)
I0403 15:55:35.600939 14855 net.cpp:148] Top shape: 24 (24)
I0403 15:55:35.600955 14855 net.cpp:156] Memory required for data: 14450784
I0403 15:55:35.600980 14855 layer_factory.hpp:77] Creating layer label_data_1_split
I0403 15:55:35.601007 14855 net.cpp:91] Creating Layer label_data_1_split
I0403 15:55:35.601025 14855 net.cpp:425] label_data_1_split <- label
I0403 15:55:35.601057 14855 net.cpp:399] label_data_1_split -> label_data_1_split_0
I0403 15:55:35.601083 14855 net.cpp:399] label_data_1_split -> label_data_1_split_1
I0403 15:55:35.601105 14855 net.cpp:399] label_data_1_split -> label_data_1_split_2
I0403 15:55:35.601130 14855 net.cpp:399] label_data_1_split -> label_data_1_split_3
I0403 15:55:35.601152 14855 net.cpp:399] label_data_1_split -> label_data_1_split_4
I0403 15:55:35.601172 14855 net.cpp:399] label_data_1_split -> label_data_1_split_5
I0403 15:55:35.601192 14855 net.cpp:399] label_data_1_split -> label_data_1_split_6
I0403 15:55:35.601212 14855 net.cpp:399] label_data_1_split -> label_data_1_split_7
I0403 15:55:35.601232 14855 net.cpp:399] label_data_1_split -> label_data_1_split_8
I0403 15:55:35.601250 14855 net.cpp:399] label_data_1_split -> label_data_1_split_9
I0403 15:55:35.601366 14855 net.cpp:141] Setting up label_data_1_split
I0403 15:55:35.601390 14855 net.cpp:148] Top shape: 24 (24)
I0403 15:55:35.601407 14855 net.cpp:148] Top shape: 24 (24)
I0403 15:55:35.601423 14855 net.cpp:148] Top shape: 24 (24)
I0403 15:55:35.601438 14855 net.cpp:148] Top shape: 24 (24)
I0403 15:55:35.601454 14855 net.cpp:148] Top shape: 24 (24)
I0403 15:55:35.601469 14855 net.cpp:148] Top shape: 24 (24)
I0403 15:55:35.601507 14855 net.cpp:148] Top shape: 24 (24)
I0403 15:55:35.601528 14855 net.cpp:148] Top shape: 24 (24)
I0403 15:55:35.601546 14855 net.cpp:148] Top shape: 24 (24)
I0403 15:55:35.601562 14855 net.cpp:148] Top shape: 24 (24)
I0403 15:55:35.601605 14855 net.cpp:156] Memory required for data: 14451744
I0403 15:55:35.601621 14855 layer_factory.hpp:77] Creating layer conv1/7x7_s2
I0403 15:55:35.601651 14855 net.cpp:91] Creating Layer conv1/7x7_s2
I0403 15:55:35.601670 14855 net.cpp:425] conv1/7x7_s2 <- data
I0403 15:55:35.601691 14855 net.cpp:399] conv1/7x7_s2 -> conv1/7x7_s2
I0403 15:55:35.745002 14855 net.cpp:141] Setting up conv1/7x7_s2
I0403 15:55:35.745074 14855 net.cpp:148] Top shape: 24 64 112 112 (19267584)
I0403 15:55:35.745090 14855 net.cpp:156] Memory required for data: 91522080
I0403 15:55:35.745127 14855 layer_factory.hpp:77] Creating layer conv1/relu_7x7
I0403 15:55:35.745157 14855 net.cpp:91] Creating Layer conv1/relu_7x7
I0403 15:55:35.745175 14855 net.cpp:425] conv1/relu_7x7 <- conv1/7x7_s2
I0403 15:55:35.745198 14855 net.cpp:386] conv1/relu_7x7 -> conv1/7x7_s2 (in-place)
I0403 15:55:35.745455 14855 net.cpp:141] Setting up conv1/relu_7x7
I0403 15:55:35.745482 14855 net.cpp:148] Top shape: 24 64 112 112 (19267584)
I0403 15:55:35.745497 14855 net.cpp:156] Memory required for data: 168592416
I0403 15:55:35.745513 14855 layer_factory.hpp:77] Creating layer pool1/3x3_s2
I0403 15:55:35.745538 14855 net.cpp:91] Creating Layer pool1/3x3_s2
I0403 15:55:35.745556 14855 net.cpp:425] pool1/3x3_s2 <- conv1/7x7_s2
I0403 15:55:35.745575 14855 net.cpp:399] pool1/3x3_s2 -> pool1/3x3_s2
I0403 15:55:35.745650 14855 net.cpp:141] Setting up pool1/3x3_s2
I0403 15:55:35.745676 14855 net.cpp:148] Top shape: 24 64 56 56 (4816896)
I0403 15:55:35.745767 14855 net.cpp:156] Memory required for data: 187860000
I0403 15:55:35.745785 14855 layer_factory.hpp:77] Creating layer pool1/norm1
I0403 15:55:35.745810 14855 net.cpp:91] Creating Layer pool1/norm1
I0403 15:55:35.745828 14855 net.cpp:425] pool1/norm1 <- pool1/3x3_s2
I0403 15:55:35.745846 14855 net.cpp:399] pool1/norm1 -> pool1/norm1
I0403 15:55:35.746140 14855 net.cpp:141] Setting up pool1/norm1
I0403 15:55:35.746168 14855 net.cpp:148] Top shape: 24 64 56 56 (4816896)
I0403 15:55:35.746183 14855 net.cpp:156] Memory required for data: 207127584
I0403 15:55:35.746198 14855 layer_factory.hpp:77] Creating layer conv2/3x3_reduce
I0403 15:55:35.746222 14855 net.cpp:91] Creating Layer conv2/3x3_reduce
I0403 15:55:35.746239 14855 net.cpp:425] conv2/3x3_reduce <- pool1/norm1
I0403 15:55:35.746258 14855 net.cpp:399] conv2/3x3_reduce -> conv2/3x3_reduce
I0403 15:55:35.747634 14855 net.cpp:141] Setting up conv2/3x3_reduce
I0403 15:55:35.747665 14855 net.cpp:148] Top shape: 24 64 56 56 (4816896)
I0403 15:55:35.747681 14855 net.cpp:156] Memory required for data: 226395168
I0403 15:55:35.747702 14855 layer_factory.hpp:77] Creating layer conv2/relu_3x3_reduce
I0403 15:55:35.747721 14855 net.cpp:91] Creating Layer conv2/relu_3x3_reduce
I0403 15:55:35.747737 14855 net.cpp:425] conv2/relu_3x3_reduce <- conv2/3x3_reduce
I0403 15:55:35.747756 14855 net.cpp:386] conv2/relu_3x3_reduce -> conv2/3x3_reduce (in-place)
I0403 15:55:35.748009 14855 net.cpp:141] Setting up conv2/relu_3x3_reduce
I0403 15:55:35.748036 14855 net.cpp:148] Top shape: 24 64 56 56 (4816896)
I0403 15:55:35.748052 14855 net.cpp:156] Memory required for data: 245662752
I0403 15:55:35.748067 14855 layer_factory.hpp:77] Creating layer conv2/3x3
I0403 15:55:35.748090 14855 net.cpp:91] Creating Layer conv2/3x3
I0403 15:55:35.748114 14855 net.cpp:425] conv2/3x3 <- conv2/3x3_reduce
I0403 15:55:35.748133 14855 net.cpp:399] conv2/3x3 -> conv2/3x3
I0403 15:55:35.750459 14855 net.cpp:141] Setting up conv2/3x3
I0403 15:55:35.750494 14855 net.cpp:148] Top shape: 24 192 56 56 (14450688)
I0403 15:55:35.750512 14855 net.cpp:156] Memory required for data: 303465504
I0403 15:55:35.750533 14855 layer_factory.hpp:77] Creating layer conv2/relu_3x3
I0403 15:55:35.750552 14855 net.cpp:91] Creating Layer conv2/relu_3x3
I0403 15:55:35.750568 14855 net.cpp:425] conv2/relu_3x3 <- conv2/3x3
I0403 15:55:35.750586 14855 net.cpp:386] conv2/relu_3x3 -> conv2/3x3 (in-place)
I0403 15:55:35.750771 14855 net.cpp:141] Setting up conv2/relu_3x3
I0403 15:55:35.750797 14855 net.cpp:148] Top shape: 24 192 56 56 (14450688)
I0403 15:55:35.750844 14855 net.cpp:156] Memory required for data: 361268256
I0403 15:55:35.750860 14855 layer_factory.hpp:77] Creating layer conv2/norm2
I0403 15:55:35.750881 14855 net.cpp:91] Creating Layer conv2/norm2
I0403 15:55:35.750900 14855 net.cpp:425] conv2/norm2 <- conv2/3x3
I0403 15:55:35.750916 14855 net.cpp:399] conv2/norm2 -> conv2/norm2
I0403 15:55:35.751288 14855 net.cpp:141] Setting up conv2/norm2
I0403 15:55:35.751317 14855 net.cpp:148] Top shape: 24 192 56 56 (14450688)
I0403 15:55:35.751332 14855 net.cpp:156] Memory required for data: 419071008
I0403 15:55:35.751348 14855 layer_factory.hpp:77] Creating layer pool2/3x3_s2
I0403 15:55:35.751370 14855 net.cpp:91] Creating Layer pool2/3x3_s2
I0403 15:55:35.751387 14855 net.cpp:425] pool2/3x3_s2 <- conv2/norm2
I0403 15:55:35.751405 14855 net.cpp:399] pool2/3x3_s2 -> pool2/3x3_s2
I0403 15:55:35.751458 14855 net.cpp:141] Setting up pool2/3x3_s2
I0403 15:55:35.751483 14855 net.cpp:148] Top shape: 24 192 28 28 (3612672)
I0403 15:55:35.751498 14855 net.cpp:156] Memory required for data: 433521696
I0403 15:55:35.751513 14855 layer_factory.hpp:77] Creating layer pool2/3x3_s2_pool2/3x3_s2_0_split
I0403 15:55:35.751531 14855 net.cpp:91] Creating Layer pool2/3x3_s2_pool2/3x3_s2_0_split
I0403 15:55:35.751546 14855 net.cpp:425] pool2/3x3_s2_pool2/3x3_s2_0_split <- pool2/3x3_s2
I0403 15:55:35.751565 14855 net.cpp:399] pool2/3x3_s2_pool2/3x3_s2_0_split -> pool2/3x3_s2_pool2/3x3_s2_0_split_0
I0403 15:55:35.751586 14855 net.cpp:399] pool2/3x3_s2_pool2/3x3_s2_0_split -> pool2/3x3_s2_pool2/3x3_s2_0_split_1
I0403 15:55:35.751607 14855 net.cpp:399] pool2/3x3_s2_pool2/3x3_s2_0_split -> pool2/3x3_s2_pool2/3x3_s2_0_split_2
I0403 15:55:35.751627 14855 net.cpp:399] pool2/3x3_s2_pool2/3x3_s2_0_split -> pool2/3x3_s2_pool2/3x3_s2_0_split_3
I0403 15:55:35.751698 14855 net.cpp:141] Setting up pool2/3x3_s2_pool2/3x3_s2_0_split
I0403 15:55:35.751727 14855 net.cpp:148] Top shape: 24 192 28 28 (3612672)
I0403 15:55:35.751744 14855 net.cpp:148] Top shape: 24 192 28 28 (3612672)
I0403 15:55:35.751760 14855 net.cpp:148] Top shape: 24 192 28 28 (3612672)
I0403 15:55:35.751776 14855 net.cpp:148] Top shape: 24 192 28 28 (3612672)
I0403 15:55:35.751791 14855 net.cpp:156] Memory required for data: 491324448
I0403 15:55:35.751806 14855 layer_factory.hpp:77] Creating layer inception_3a/1x1
I0403 15:55:35.751828 14855 net.cpp:91] Creating Layer inception_3a/1x1
I0403 15:55:35.751847 14855 net.cpp:425] inception_3a/1x1 <- pool2/3x3_s2_pool2/3x3_s2_0_split_0
I0403 15:55:35.751865 14855 net.cpp:399] inception_3a/1x1 -> inception_3a/1x1
I0403 15:55:35.753473 14855 net.cpp:141] Setting up inception_3a/1x1
I0403 15:55:35.753504 14855 net.cpp:148] Top shape: 24 64 28 28 (1204224)
I0403 15:55:35.753520 14855 net.cpp:156] Memory required for data: 496141344
I0403 15:55:35.753538 14855 layer_factory.hpp:77] Creating layer inception_3a/relu_1x1
I0403 15:55:35.753559 14855 net.cpp:91] Creating Layer inception_3a/relu_1x1
I0403 15:55:35.753576 14855 net.cpp:425] inception_3a/relu_1x1 <- inception_3a/1x1
I0403 15:55:35.753594 14855 net.cpp:386] inception_3a/relu_1x1 -> inception_3a/1x1 (in-place)
I0403 15:55:35.753775 14855 net.cpp:141] Setting up inception_3a/relu_1x1
I0403 15:55:35.753801 14855 net.cpp:148] Top shape: 24 64 28 28 (1204224)
I0403 15:55:35.753815 14855 net.cpp:156] Memory required for data: 500958240
I0403 15:55:35.753830 14855 layer_factory.hpp:77] Creating layer inception_3a/3x3_reduce
I0403 15:55:35.753852 14855 net.cpp:91] Creating Layer inception_3a/3x3_reduce
I0403 15:55:35.753871 14855 net.cpp:425] inception_3a/3x3_reduce <- pool2/3x3_s2_pool2/3x3_s2_0_split_1
I0403 15:55:35.753893 14855 net.cpp:399] inception_3a/3x3_reduce -> inception_3a/3x3_reduce
I0403 15:55:35.755681 14855 net.cpp:141] Setting up inception_3a/3x3_reduce
I0403 15:55:35.755713 14855 net.cpp:148] Top shape: 24 96 28 28 (1806336)
I0403 15:55:35.755730 14855 net.cpp:156] Memory required for data: 508183584
I0403 15:55:35.755753 14855 layer_factory.hpp:77] Creating layer inception_3a/relu_3x3_reduce
I0403 15:55:35.755789 14855 net.cpp:91] Creating Layer inception_3a/relu_3x3_reduce
I0403 15:55:35.755807 14855 net.cpp:425] inception_3a/relu_3x3_reduce <- inception_3a/3x3_reduce
I0403 15:55:35.755828 14855 net.cpp:386] inception_3a/relu_3x3_reduce -> inception_3a/3x3_reduce (in-place)
I0403 15:55:35.756016 14855 net.cpp:141] Setting up inception_3a/relu_3x3_reduce
I0403 15:55:35.756042 14855 net.cpp:148] Top shape: 24 96 28 28 (1806336)
I0403 15:55:35.756057 14855 net.cpp:156] Memory required for data: 515408928
I0403 15:55:35.756072 14855 layer_factory.hpp:77] Creating layer inception_3a/3x3
I0403 15:55:35.756099 14855 net.cpp:91] Creating Layer inception_3a/3x3
I0403 15:55:35.756120 14855 net.cpp:425] inception_3a/3x3 <- inception_3a/3x3_reduce
I0403 15:55:35.756140 14855 net.cpp:399] inception_3a/3x3 -> inception_3a/3x3
I0403 15:55:35.757828 14855 net.cpp:141] Setting up inception_3a/3x3
I0403 15:55:35.757859 14855 net.cpp:148] Top shape: 24 128 28 28 (2408448)
I0403 15:55:35.757876 14855 net.cpp:156] Memory required for data: 525042720
I0403 15:55:35.757894 14855 layer_factory.hpp:77] Creating layer inception_3a/relu_3x3
I0403 15:55:35.757912 14855 net.cpp:91] Creating Layer inception_3a/relu_3x3
I0403 15:55:35.757930 14855 net.cpp:425] inception_3a/relu_3x3 <- inception_3a/3x3
I0403 15:55:35.757948 14855 net.cpp:386] inception_3a/relu_3x3 -> inception_3a/3x3 (in-place)
I0403 15:55:35.758229 14855 net.cpp:141] Setting up inception_3a/relu_3x3
I0403 15:55:35.758257 14855 net.cpp:148] Top shape: 24 128 28 28 (2408448)
I0403 15:55:35.758273 14855 net.cpp:156] Memory required for data: 534676512
I0403 15:55:35.758288 14855 layer_factory.hpp:77] Creating layer inception_3a/5x5_reduce
I0403 15:55:35.758311 14855 net.cpp:91] Creating Layer inception_3a/5x5_reduce
I0403 15:55:35.758327 14855 net.cpp:425] inception_3a/5x5_reduce <- pool2/3x3_s2_pool2/3x3_s2_0_split_2
I0403 15:55:35.758345 14855 net.cpp:399] inception_3a/5x5_reduce -> inception_3a/5x5_reduce
I0403 15:55:35.759305 14855 net.cpp:141] Setting up inception_3a/5x5_reduce
I0403 15:55:35.759335 14855 net.cpp:148] Top shape: 24 16 28 28 (301056)
I0403 15:55:35.759351 14855 net.cpp:156] Memory required for data: 535880736
I0403 15:55:35.759373 14855 layer_factory.hpp:77] Creating layer inception_3a/relu_5x5_reduce
I0403 15:55:35.759390 14855 net.cpp:91] Creating Layer inception_3a/relu_5x5_reduce
I0403 15:55:35.759405 14855 net.cpp:425] inception_3a/relu_5x5_reduce <- inception_3a/5x5_reduce
I0403 15:55:35.759424 14855 net.cpp:386] inception_3a/relu_5x5_reduce -> inception_3a/5x5_reduce (in-place)
I0403 15:55:35.759718 14855 net.cpp:141] Setting up inception_3a/relu_5x5_reduce
I0403 15:55:35.759745 14855 net.cpp:148] Top shape: 24 16 28 28 (301056)
I0403 15:55:35.759760 14855 net.cpp:156] Memory required for data: 537084960
I0403 15:55:35.759775 14855 layer_factory.hpp:77] Creating layer inception_3a/5x5
I0403 15:55:35.759799 14855 net.cpp:91] Creating Layer inception_3a/5x5
I0403 15:55:35.759815 14855 net.cpp:425] inception_3a/5x5 <- inception_3a/5x5_reduce
I0403 15:55:35.759835 14855 net.cpp:399] inception_3a/5x5 -> inception_3a/5x5
I0403 15:55:35.760838 14855 net.cpp:141] Setting up inception_3a/5x5
I0403 15:55:35.760867 14855 net.cpp:148] Top shape: 24 32 28 28 (602112)
I0403 15:55:35.760885 14855 net.cpp:156] Memory required for data: 539493408
I0403 15:55:35.760903 14855 layer_factory.hpp:77] Creating layer inception_3a/relu_5x5
I0403 15:55:35.760921 14855 net.cpp:91] Creating Layer inception_3a/relu_5x5
I0403 15:55:35.760936 14855 net.cpp:425] inception_3a/relu_5x5 <- inception_3a/5x5
I0403 15:55:35.760954 14855 net.cpp:386] inception_3a/relu_5x5 -> inception_3a/5x5 (in-place)
I0403 15:55:35.761135 14855 net.cpp:141] Setting up inception_3a/relu_5x5
I0403 15:55:35.761160 14855 net.cpp:148] Top shape: 24 32 28 28 (602112)
I0403 15:55:35.761175 14855 net.cpp:156] Memory required for data: 541901856
I0403 15:55:35.761190 14855 layer_factory.hpp:77] Creating layer inception_3a/pool
I0403 15:55:35.761209 14855 net.cpp:91] Creating Layer inception_3a/pool
I0403 15:55:35.761224 14855 net.cpp:425] inception_3a/pool <- pool2/3x3_s2_pool2/3x3_s2_0_split_3
I0403 15:55:35.761258 14855 net.cpp:399] inception_3a/pool -> inception_3a/pool
I0403 15:55:35.761317 14855 net.cpp:141] Setting up inception_3a/pool
I0403 15:55:35.761340 14855 net.cpp:148] Top shape: 24 192 28 28 (3612672)
I0403 15:55:35.761358 14855 net.cpp:156] Memory required for data: 556352544
I0403 15:55:35.761371 14855 layer_factory.hpp:77] Creating layer inception_3a/pool_proj
I0403 15:55:35.761394 14855 net.cpp:91] Creating Layer inception_3a/pool_proj
I0403 15:55:35.761410 14855 net.cpp:425] inception_3a/pool_proj <- inception_3a/pool
I0403 15:55:35.761428 14855 net.cpp:399] inception_3a/pool_proj -> inception_3a/pool_proj
I0403 15:55:35.762384 14855 net.cpp:141] Setting up inception_3a/pool_proj
I0403 15:55:35.762413 14855 net.cpp:148] Top shape: 24 32 28 28 (602112)
I0403 15:55:35.762428 14855 net.cpp:156] Memory required for data: 558760992
I0403 15:55:35.762451 14855 layer_factory.hpp:77] Creating layer inception_3a/relu_pool_proj
I0403 15:55:35.762471 14855 net.cpp:91] Creating Layer inception_3a/relu_pool_proj
I0403 15:55:35.762487 14855 net.cpp:425] inception_3a/relu_pool_proj <- inception_3a/pool_proj
I0403 15:55:35.762506 14855 net.cpp:386] inception_3a/relu_pool_proj -> inception_3a/pool_proj (in-place)
I0403 15:55:35.762776 14855 net.cpp:141] Setting up inception_3a/relu_pool_proj
I0403 15:55:35.762805 14855 net.cpp:148] Top shape: 24 32 28 28 (602112)
I0403 15:55:35.762821 14855 net.cpp:156] Memory required for data: 561169440
I0403 15:55:35.762835 14855 layer_factory.hpp:77] Creating layer inception_3a/output
I0403 15:55:35.762853 14855 net.cpp:91] Creating Layer inception_3a/output
I0403 15:55:35.762868 14855 net.cpp:425] inception_3a/output <- inception_3a/1x1
I0403 15:55:35.762884 14855 net.cpp:425] inception_3a/output <- inception_3a/3x3
I0403 15:55:35.762898 14855 net.cpp:425] inception_3a/output <- inception_3a/5x5
I0403 15:55:35.762914 14855 net.cpp:425] inception_3a/output <- inception_3a/pool_proj
I0403 15:55:35.762933 14855 net.cpp:399] inception_3a/output -> inception_3a/output
I0403 15:55:35.762977 14855 net.cpp:141] Setting up inception_3a/output
I0403 15:55:35.763000 14855 net.cpp:148] Top shape: 24 256 28 28 (4816896)
I0403 15:55:35.763015 14855 net.cpp:156] Memory required for data: 580437024
I0403 15:55:35.763028 14855 layer_factory.hpp:77] Creating layer inception_3a/output_inception_3a/output_0_split
I0403 15:55:35.763048 14855 net.cpp:91] Creating Layer inception_3a/output_inception_3a/output_0_split
I0403 15:55:35.763067 14855 net.cpp:425] inception_3a/output_inception_3a/output_0_split <- inception_3a/output
I0403 15:55:35.763083 14855 net.cpp:399] inception_3a/output_inception_3a/output_0_split -> inception_3a/output_inception_3a/output_0_split_0
I0403 15:55:35.763114 14855 net.cpp:399] inception_3a/output_inception_3a/output_0_split -> inception_3a/output_inception_3a/output_0_split_1
I0403 15:55:35.763142 14855 net.cpp:399] inception_3a/output_inception_3a/output_0_split -> inception_3a/output_inception_3a/output_0_split_2
I0403 15:55:35.763164 14855 net.cpp:399] inception_3a/output_inception_3a/output_0_split -> inception_3a/output_inception_3a/output_0_split_3
I0403 15:55:35.763238 14855 net.cpp:141] Setting up inception_3a/output_inception_3a/output_0_split
I0403 15:55:35.763263 14855 net.cpp:148] Top shape: 24 256 28 28 (4816896)
I0403 15:55:35.763280 14855 net.cpp:148] Top shape: 24 256 28 28 (4816896)
I0403 15:55:35.763298 14855 net.cpp:148] Top shape: 24 256 28 28 (4816896)
I0403 15:55:35.763311 14855 net.cpp:148] Top shape: 24 256 28 28 (4816896)
I0403 15:55:35.763325 14855 net.cpp:156] Memory required for data: 657507360
I0403 15:55:35.763339 14855 layer_factory.hpp:77] Creating layer inception_3b/1x1
I0403 15:55:35.763361 14855 net.cpp:91] Creating Layer inception_3b/1x1
I0403 15:55:35.763381 14855 net.cpp:425] inception_3b/1x1 <- inception_3a/output_inception_3a/output_0_split_0
I0403 15:55:35.763399 14855 net.cpp:399] inception_3b/1x1 -> inception_3b/1x1
I0403 15:55:35.764559 14855 net.cpp:141] Setting up inception_3b/1x1
I0403 15:55:35.764600 14855 net.cpp:148] Top shape: 24 128 28 28 (2408448)
I0403 15:55:35.764616 14855 net.cpp:156] Memory required for data: 667141152
I0403 15:55:35.764634 14855 layer_factory.hpp:77] Creating layer inception_3b/relu_1x1
I0403 15:55:35.764654 14855 net.cpp:91] Creating Layer inception_3b/relu_1x1
I0403 15:55:35.764670 14855 net.cpp:425] inception_3b/relu_1x1 <- inception_3b/1x1
I0403 15:55:35.764688 14855 net.cpp:386] inception_3b/relu_1x1 -> inception_3b/1x1 (in-place)
I0403 15:55:35.764863 14855 net.cpp:141] Setting up inception_3b/relu_1x1
I0403 15:55:35.764891 14855 net.cpp:148] Top shape: 24 128 28 28 (2408448)
I0403 15:55:35.764906 14855 net.cpp:156] Memory required for data: 676774944
I0403 15:55:35.764921 14855 layer_factory.hpp:77] Creating layer inception_3b/3x3_reduce
I0403 15:55:35.764942 14855 net.cpp:91] Creating Layer inception_3b/3x3_reduce
I0403 15:55:35.764961 14855 net.cpp:425] inception_3b/3x3_reduce <- inception_3a/output_inception_3a/output_0_split_1
I0403 15:55:35.764978 14855 net.cpp:399] inception_3b/3x3_reduce -> inception_3b/3x3_reduce
I0403 15:55:35.766170 14855 net.cpp:141] Setting up inception_3b/3x3_reduce
I0403 15:55:35.766199 14855 net.cpp:148] Top shape: 24 128 28 28 (2408448)
I0403 15:55:35.766216 14855 net.cpp:156] Memory required for data: 686408736
I0403 15:55:35.766232 14855 layer_factory.hpp:77] Creating layer inception_3b/relu_3x3_reduce
I0403 15:55:35.766253 14855 net.cpp:91] Creating Layer inception_3b/relu_3x3_reduce
I0403 15:55:35.766283 14855 net.cpp:425] inception_3b/relu_3x3_reduce <- inception_3b/3x3_reduce
I0403 15:55:35.766300 14855 net.cpp:386] inception_3b/relu_3x3_reduce -> inception_3b/3x3_reduce (in-place)
I0403 15:55:35.766472 14855 net.cpp:141] Setting up inception_3b/relu_3x3_reduce
I0403 15:55:35.766500 14855 net.cpp:148] Top shape: 24 128 28 28 (2408448)
I0403 15:55:35.766515 14855 net.cpp:156] Memory required for data: 696042528
I0403 15:55:35.766530 14855 layer_factory.hpp:77] Creating layer inception_3b/3x3
I0403 15:55:35.766556 14855 net.cpp:91] Creating Layer inception_3b/3x3
I0403 15:55:35.766573 14855 net.cpp:425] inception_3b/3x3 <- inception_3b/3x3_reduce
I0403 15:55:35.766594 14855 net.cpp:399] inception_3b/3x3 -> inception_3b/3x3
I0403 15:55:35.769489 14855 net.cpp:141] Setting up inception_3b/3x3
I0403 15:55:35.769520 14855 net.cpp:148] Top shape: 24 192 28 28 (3612672)
I0403 15:55:35.769537 14855 net.cpp:156] Memory required for data: 710493216
I0403 15:55:35.769556 14855 layer_factory.hpp:77] Creating layer inception_3b/relu_3x3
I0403 15:55:35.769587 14855 net.cpp:91] Creating Layer inception_3b/relu_3x3
I0403 15:55:35.769603 14855 net.cpp:425] inception_3b/relu_3x3 <- inception_3b/3x3
I0403 15:55:35.769623 14855 net.cpp:386] inception_3b/relu_3x3 -> inception_3b/3x3 (in-place)
I0403 15:55:35.769896 14855 net.cpp:141] Setting up inception_3b/relu_3x3
I0403 15:55:35.769924 14855 net.cpp:148] Top shape: 24 192 28 28 (3612672)
I0403 15:55:35.769942 14855 net.cpp:156] Memory required for data: 724943904
I0403 15:55:35.769955 14855 layer_factory.hpp:77] Creating layer inception_3b/5x5_reduce
I0403 15:55:35.769979 14855 net.cpp:91] Creating Layer inception_3b/5x5_reduce
I0403 15:55:35.769997 14855 net.cpp:425] inception_3b/5x5_reduce <- inception_3a/output_inception_3a/output_0_split_2
I0403 15:55:35.770016 14855 net.cpp:399] inception_3b/5x5_reduce -> inception_3b/5x5_reduce
I0403 15:55:35.771035 14855 net.cpp:141] Setting up inception_3b/5x5_reduce
I0403 15:55:35.771065 14855 net.cpp:148] Top shape: 24 32 28 28 (602112)
I0403 15:55:35.771083 14855 net.cpp:156] Memory required for data: 727352352
I0403 15:55:35.771106 14855 layer_factory.hpp:77] Creating layer inception_3b/relu_5x5_reduce
I0403 15:55:35.771126 14855 net.cpp:91] Creating Layer inception_3b/relu_5x5_reduce
I0403 15:55:35.771141 14855 net.cpp:425] inception_3b/relu_5x5_reduce <- inception_3b/5x5_reduce
I0403 15:55:35.771160 14855 net.cpp:386] inception_3b/relu_5x5_reduce -> inception_3b/5x5_reduce (in-place)
I0403 15:55:35.771332 14855 net.cpp:141] Setting up inception_3b/relu_5x5_reduce
I0403 15:55:35.771369 14855 net.cpp:148] Top shape: 24 32 28 28 (602112)
I0403 15:55:35.771385 14855 net.cpp:156] Memory required for data: 729760800
I0403 15:55:35.771399 14855 layer_factory.hpp:77] Creating layer inception_3b/5x5
I0403 15:55:35.771420 14855 net.cpp:91] Creating Layer inception_3b/5x5
I0403 15:55:35.771438 14855 net.cpp:425] inception_3b/5x5 <- inception_3b/5x5_reduce
I0403 15:55:35.771459 14855 net.cpp:399] inception_3b/5x5 -> inception_3b/5x5
I0403 15:55:35.773419 14855 net.cpp:141] Setting up inception_3b/5x5
I0403 15:55:35.773449 14855 net.cpp:148] Top shape: 24 96 28 28 (1806336)
I0403 15:55:35.773465 14855 net.cpp:156] Memory required for data: 736986144
I0403 15:55:35.773483 14855 layer_factory.hpp:77] Creating layer inception_3b/relu_5x5
I0403 15:55:35.773505 14855 net.cpp:91] Creating Layer inception_3b/relu_5x5
I0403 15:55:35.773522 14855 net.cpp:425] inception_3b/relu_5x5 <- inception_3b/5x5
I0403 15:55:35.773540 14855 net.cpp:386] inception_3b/relu_5x5 -> inception_3b/5x5 (in-place)
I0403 15:55:35.773733 14855 net.cpp:141] Setting up inception_3b/relu_5x5
I0403 15:55:35.773758 14855 net.cpp:148] Top shape: 24 96 28 28 (1806336)
I0403 15:55:35.773773 14855 net.cpp:156] Memory required for data: 744211488
I0403 15:55:35.773787 14855 layer_factory.hpp:77] Creating layer inception_3b/pool
I0403 15:55:35.773804 14855 net.cpp:91] Creating Layer inception_3b/pool
I0403 15:55:35.773821 14855 net.cpp:425] inception_3b/pool <- inception_3a/output_inception_3a/output_0_split_3
I0403 15:55:35.773838 14855 net.cpp:399] inception_3b/pool -> inception_3b/pool
I0403 15:55:35.773895 14855 net.cpp:141] Setting up inception_3b/pool
I0403 15:55:35.773918 14855 net.cpp:148] Top shape: 24 256 28 28 (4816896)
I0403 15:55:35.773932 14855 net.cpp:156] Memory required for data: 763479072
I0403 15:55:35.773947 14855 layer_factory.hpp:77] Creating layer inception_3b/pool_proj
I0403 15:55:35.773968 14855 net.cpp:91] Creating Layer inception_3b/pool_proj
I0403 15:55:35.773988 14855 net.cpp:425] inception_3b/pool_proj <- inception_3b/pool
I0403 15:55:35.774006 14855 net.cpp:399] inception_3b/pool_proj -> inception_3b/pool_proj
I0403 15:55:35.775056 14855 net.cpp:141] Setting up inception_3b/pool_proj
I0403 15:55:35.775084 14855 net.cpp:148] Top shape: 24 64 28 28 (1204224)
I0403 15:55:35.775104 14855 net.cpp:156] Memory required for data: 768295968
I0403 15:55:35.775122 14855 layer_factory.hpp:77] Creating layer inception_3b/relu_pool_proj
I0403 15:55:35.775141 14855 net.cpp:91] Creating Layer inception_3b/relu_pool_proj
I0403 15:55:35.775156 14855 net.cpp:425] inception_3b/relu_pool_proj <- inception_3b/pool_proj
I0403 15:55:35.775178 14855 net.cpp:386] inception_3b/relu_pool_proj -> inception_3b/pool_proj (in-place)
I0403 15:55:35.775568 14855 net.cpp:141] Setting up inception_3b/relu_pool_proj
I0403 15:55:35.775594 14855 net.cpp:148] Top shape: 24 64 28 28 (1204224)
I0403 15:55:35.775610 14855 net.cpp:156] Memory required for data: 773112864
I0403 15:55:35.775624 14855 layer_factory.hpp:77] Creating layer inception_3b/output
I0403 15:55:35.775641 14855 net.cpp:91] Creating Layer inception_3b/output
I0403 15:55:35.775656 14855 net.cpp:425] inception_3b/output <- inception_3b/1x1
I0403 15:55:35.775673 14855 net.cpp:425] inception_3b/output <- inception_3b/3x3
I0403 15:55:35.775688 14855 net.cpp:425] inception_3b/output <- inception_3b/5x5
I0403 15:55:35.775703 14855 net.cpp:425] inception_3b/output <- inception_3b/pool_proj
I0403 15:55:35.775722 14855 net.cpp:399] inception_3b/output -> inception_3b/output
I0403 15:55:35.775765 14855 net.cpp:141] Setting up inception_3b/output
I0403 15:55:35.775789 14855 net.cpp:148] Top shape: 24 480 28 28 (9031680)
I0403 15:55:35.775804 14855 net.cpp:156] Memory required for data: 809239584
I0403 15:55:35.775817 14855 layer_factory.hpp:77] Creating layer pool3/3x3_s2
I0403 15:55:35.775837 14855 net.cpp:91] Creating Layer pool3/3x3_s2
I0403 15:55:35.775854 14855 net.cpp:425] pool3/3x3_s2 <- inception_3b/output
I0403 15:55:35.775874 14855 net.cpp:399] pool3/3x3_s2 -> pool3/3x3_s2
I0403 15:55:35.775946 14855 net.cpp:141] Setting up pool3/3x3_s2
I0403 15:55:35.775969 14855 net.cpp:148] Top shape: 24 480 14 14 (2257920)
I0403 15:55:35.775985 14855 net.cpp:156] Memory required for data: 818271264
I0403 15:55:35.775998 14855 layer_factory.hpp:77] Creating layer pool3/3x3_s2_pool3/3x3_s2_0_split
I0403 15:55:35.776017 14855 net.cpp:91] Creating Layer pool3/3x3_s2_pool3/3x3_s2_0_split
I0403 15:55:35.776033 14855 net.cpp:425] pool3/3x3_s2_pool3/3x3_s2_0_split <- pool3/3x3_s2
I0403 15:55:35.776051 14855 net.cpp:399] pool3/3x3_s2_pool3/3x3_s2_0_split -> pool3/3x3_s2_pool3/3x3_s2_0_split_0
I0403 15:55:35.776069 14855 net.cpp:399] pool3/3x3_s2_pool3/3x3_s2_0_split -> pool3/3x3_s2_pool3/3x3_s2_0_split_1
I0403 15:55:35.776089 14855 net.cpp:399] pool3/3x3_s2_pool3/3x3_s2_0_split -> pool3/3x3_s2_pool3/3x3_s2_0_split_2
I0403 15:55:35.776114 14855 net.cpp:399] pool3/3x3_s2_pool3/3x3_s2_0_split -> pool3/3x3_s2_pool3/3x3_s2_0_split_3
I0403 15:55:35.776191 14855 net.cpp:141] Setting up pool3/3x3_s2_pool3/3x3_s2_0_split
I0403 15:55:35.776214 14855 net.cpp:148] Top shape: 24 480 14 14 (2257920)
I0403 15:55:35.776229 14855 net.cpp:148] Top shape: 24 480 14 14 (2257920)
I0403 15:55:35.776245 14855 net.cpp:148] Top shape: 24 480 14 14 (2257920)
I0403 15:55:35.776259 14855 net.cpp:148] Top shape: 24 480 14 14 (2257920)
I0403 15:55:35.776273 14855 net.cpp:156] Memory required for data: 854397984
I0403 15:55:35.776288 14855 layer_factory.hpp:77] Creating layer inception_4a/1x1
I0403 15:55:35.776310 14855 net.cpp:91] Creating Layer inception_4a/1x1
I0403 15:55:35.776327 14855 net.cpp:425] inception_4a/1x1 <- pool3/3x3_s2_pool3/3x3_s2_0_split_0
I0403 15:55:35.776348 14855 net.cpp:399] inception_4a/1x1 -> inception_4a/1x1
I0403 15:55:35.777899 14855 net.cpp:141] Setting up inception_4a/1x1
I0403 15:55:35.777926 14855 net.cpp:148] Top shape: 24 192 14 14 (903168)
I0403 15:55:35.777942 14855 net.cpp:156] Memory required for data: 858010656
I0403 15:55:35.777961 14855 layer_factory.hpp:77] Creating layer inception_4a/relu_1x1
I0403 15:55:35.777981 14855 net.cpp:91] Creating Layer inception_4a/relu_1x1
I0403 15:55:35.777999 14855 net.cpp:425] inception_4a/relu_1x1 <- inception_4a/1x1
I0403 15:55:35.778017 14855 net.cpp:386] inception_4a/relu_1x1 -> inception_4a/1x1 (in-place)
I0403 15:55:35.778194 14855 net.cpp:141] Setting up inception_4a/relu_1x1
I0403 15:55:35.778223 14855 net.cpp:148] Top shape: 24 192 14 14 (903168)
I0403 15:55:35.778237 14855 net.cpp:156] Memory required for data: 861623328
I0403 15:55:35.778252 14855 layer_factory.hpp:77] Creating layer inception_4a/3x3_reduce
I0403 15:55:35.778272 14855 net.cpp:91] Creating Layer inception_4a/3x3_reduce
I0403 15:55:35.778290 14855 net.cpp:425] inception_4a/3x3_reduce <- pool3/3x3_s2_pool3/3x3_s2_0_split_1
I0403 15:55:35.778309 14855 net.cpp:399] inception_4a/3x3_reduce -> inception_4a/3x3_reduce
I0403 15:55:35.779564 14855 net.cpp:141] Setting up inception_4a/3x3_reduce
I0403 15:55:35.779592 14855 net.cpp:148] Top shape: 24 96 14 14 (451584)
I0403 15:55:35.779608 14855 net.cpp:156] Memory required for data: 863429664
I0403 15:55:35.779633 14855 layer_factory.hpp:77] Creating layer inception_4a/relu_3x3_reduce
I0403 15:55:35.779652 14855 net.cpp:91] Creating Layer inception_4a/relu_3x3_reduce
I0403 15:55:35.779667 14855 net.cpp:425] inception_4a/relu_3x3_reduce <- inception_4a/3x3_reduce
I0403 15:55:35.779686 14855 net.cpp:386] inception_4a/relu_3x3_reduce -> inception_4a/3x3_reduce (in-place)
I0403 15:55:35.779862 14855 net.cpp:141] Setting up inception_4a/relu_3x3_reduce
I0403 15:55:35.779887 14855 net.cpp:148] Top shape: 24 96 14 14 (451584)
I0403 15:55:35.779901 14855 net.cpp:156] Memory required for data: 865236000
I0403 15:55:35.779917 14855 layer_factory.hpp:77] Creating layer inception_4a/3x3
I0403 15:55:35.779938 14855 net.cpp:91] Creating Layer inception_4a/3x3
I0403 15:55:35.779955 14855 net.cpp:425] inception_4a/3x3 <- inception_4a/3x3_reduce
I0403 15:55:35.779975 14855 net.cpp:399] inception_4a/3x3 -> inception_4a/3x3
I0403 15:55:35.782681 14855 net.cpp:141] Setting up inception_4a/3x3
I0403 15:55:35.782711 14855 net.cpp:148] Top shape: 24 208 14 14 (978432)
I0403 15:55:35.782727 14855 net.cpp:156] Memory required for data: 869149728
I0403 15:55:35.782757 14855 layer_factory.hpp:77] Creating layer inception_4a/relu_3x3
I0403 15:55:35.782778 14855 net.cpp:91] Creating Layer inception_4a/relu_3x3
I0403 15:55:35.782795 14855 net.cpp:425] inception_4a/relu_3x3 <- inception_4a/3x3
I0403 15:55:35.782812 14855 net.cpp:386] inception_4a/relu_3x3 -> inception_4a/3x3 (in-place)
I0403 15:55:35.783089 14855 net.cpp:141] Setting up inception_4a/relu_3x3
I0403 15:55:35.783125 14855 net.cpp:148] Top shape: 24 208 14 14 (978432)
I0403 15:55:35.783141 14855 net.cpp:156] Memory required for data: 873063456
I0403 15:55:35.783155 14855 layer_factory.hpp:77] Creating layer inception_4a/5x5_reduce
I0403 15:55:35.783179 14855 net.cpp:91] Creating Layer inception_4a/5x5_reduce
I0403 15:55:35.783200 14855 net.cpp:425] inception_4a/5x5_reduce <- pool3/3x3_s2_pool3/3x3_s2_0_split_2
I0403 15:55:35.783217 14855 net.cpp:399] inception_4a/5x5_reduce -> inception_4a/5x5_reduce
I0403 15:55:35.784221 14855 net.cpp:141] Setting up inception_4a/5x5_reduce
I0403 15:55:35.784251 14855 net.cpp:148] Top shape: 24 16 14 14 (75264)
I0403 15:55:35.784268 14855 net.cpp:156] Memory required for data: 873364512
I0403 15:55:35.784286 14855 layer_factory.hpp:77] Creating layer inception_4a/relu_5x5_reduce
I0403 15:55:35.784303 14855 net.cpp:91] Creating Layer inception_4a/relu_5x5_reduce
I0403 15:55:35.784320 14855 net.cpp:425] inception_4a/relu_5x5_reduce <- inception_4a/5x5_reduce
I0403 15:55:35.784338 14855 net.cpp:386] inception_4a/relu_5x5_reduce -> inception_4a/5x5_reduce (in-place)
I0403 15:55:35.784512 14855 net.cpp:141] Setting up inception_4a/relu_5x5_reduce
I0403 15:55:35.784538 14855 net.cpp:148] Top shape: 24 16 14 14 (75264)
I0403 15:55:35.784553 14855 net.cpp:156] Memory required for data: 873665568
I0403 15:55:35.784566 14855 layer_factory.hpp:77] Creating layer inception_4a/5x5
I0403 15:55:35.784589 14855 net.cpp:91] Creating Layer inception_4a/5x5
I0403 15:55:35.784606 14855 net.cpp:425] inception_4a/5x5 <- inception_4a/5x5_reduce
I0403 15:55:35.784627 14855 net.cpp:399] inception_4a/5x5 -> inception_4a/5x5
I0403 15:55:35.785694 14855 net.cpp:141] Setting up inception_4a/5x5
I0403 15:55:35.785722 14855 net.cpp:148] Top shape: 24 48 14 14 (225792)
I0403 15:55:35.785738 14855 net.cpp:156] Memory required for data: 874568736
I0403 15:55:35.785756 14855 layer_factory.hpp:77] Creating layer inception_4a/relu_5x5
I0403 15:55:35.785773 14855 net.cpp:91] Creating Layer inception_4a/relu_5x5
I0403 15:55:35.785818 14855 net.cpp:425] inception_4a/relu_5x5 <- inception_4a/5x5
I0403 15:55:35.785835 14855 net.cpp:386] inception_4a/relu_5x5 -> inception_4a/5x5 (in-place)
I0403 15:55:35.786018 14855 net.cpp:141] Setting up inception_4a/relu_5x5
I0403 15:55:35.786044 14855 net.cpp:148] Top shape: 24 48 14 14 (225792)
I0403 15:55:35.786058 14855 net.cpp:156] Memory required for data: 875471904
I0403 15:55:35.786085 14855 layer_factory.hpp:77] Creating layer inception_4a/pool
I0403 15:55:35.786110 14855 net.cpp:91] Creating Layer inception_4a/pool
I0403 15:55:35.786128 14855 net.cpp:425] inception_4a/pool <- pool3/3x3_s2_pool3/3x3_s2_0_split_3
I0403 15:55:35.786145 14855 net.cpp:399] inception_4a/pool -> inception_4a/pool
I0403 15:55:35.786206 14855 net.cpp:141] Setting up inception_4a/pool
I0403 15:55:35.786231 14855 net.cpp:148] Top shape: 24 480 14 14 (2257920)
I0403 15:55:35.786244 14855 net.cpp:156] Memory required for data: 884503584
I0403 15:55:35.786257 14855 layer_factory.hpp:77] Creating layer inception_4a/pool_proj
I0403 15:55:35.786278 14855 net.cpp:91] Creating Layer inception_4a/pool_proj
I0403 15:55:35.786295 14855 net.cpp:425] inception_4a/pool_proj <- inception_4a/pool
I0403 15:55:35.786316 14855 net.cpp:399] inception_4a/pool_proj -> inception_4a/pool_proj
I0403 15:55:35.787466 14855 net.cpp:141] Setting up inception_4a/pool_proj
I0403 15:55:35.787494 14855 net.cpp:148] Top shape: 24 64 14 14 (301056)
I0403 15:55:35.787523 14855 net.cpp:156] Memory required for data: 885707808
I0403 15:55:35.787544 14855 layer_factory.hpp:77] Creating layer inception_4a/relu_pool_proj
I0403 15:55:35.787564 14855 net.cpp:91] Creating Layer inception_4a/relu_pool_proj
I0403 15:55:35.787580 14855 net.cpp:425] inception_4a/relu_pool_proj <- inception_4a/pool_proj
I0403 15:55:35.787596 14855 net.cpp:386] inception_4a/relu_pool_proj -> inception_4a/pool_proj (in-place)
I0403 15:55:35.787873 14855 net.cpp:141] Setting up inception_4a/relu_pool_proj
I0403 15:55:35.787900 14855 net.cpp:148] Top shape: 24 64 14 14 (301056)
I0403 15:55:35.787915 14855 net.cpp:156] Memory required for data: 886912032
I0403 15:55:35.787930 14855 layer_factory.hpp:77] Creating layer inception_4a/output
I0403 15:55:35.787947 14855 net.cpp:91] Creating Layer inception_4a/output
I0403 15:55:35.787961 14855 net.cpp:425] inception_4a/output <- inception_4a/1x1
I0403 15:55:35.787977 14855 net.cpp:425] inception_4a/output <- inception_4a/3x3
I0403 15:55:35.787997 14855 net.cpp:425] inception_4a/output <- inception_4a/5x5
I0403 15:55:35.788012 14855 net.cpp:425] inception_4a/output <- inception_4a/pool_proj
I0403 15:55:35.788029 14855 net.cpp:399] inception_4a/output -> inception_4a/output
I0403 15:55:35.788071 14855 net.cpp:141] Setting up inception_4a/output
I0403 15:55:35.788102 14855 net.cpp:148] Top shape: 24 512 14 14 (2408448)
I0403 15:55:35.788120 14855 net.cpp:156] Memory required for data: 896545824
I0403 15:55:35.788135 14855 layer_factory.hpp:77] Creating layer inception_4a/output_inception_4a/output_0_split
I0403 15:55:35.788151 14855 net.cpp:91] Creating Layer inception_4a/output_inception_4a/output_0_split
I0403 15:55:35.788166 14855 net.cpp:425] inception_4a/output_inception_4a/output_0_split <- inception_4a/output
I0403 15:55:35.788187 14855 net.cpp:399] inception_4a/output_inception_4a/output_0_split -> inception_4a/output_inception_4a/output_0_split_0
I0403 15:55:35.788208 14855 net.cpp:399] inception_4a/output_inception_4a/output_0_split -> inception_4a/output_inception_4a/output_0_split_1
I0403 15:55:35.788228 14855 net.cpp:399] inception_4a/output_inception_4a/output_0_split -> inception_4a/output_inception_4a/output_0_split_2
I0403 15:55:35.788249 14855 net.cpp:399] inception_4a/output_inception_4a/output_0_split -> inception_4a/output_inception_4a/output_0_split_3
I0403 15:55:35.788269 14855 net.cpp:399] inception_4a/output_inception_4a/output_0_split -> inception_4a/output_inception_4a/output_0_split_4
I0403 15:55:35.788365 14855 net.cpp:141] Setting up inception_4a/output_inception_4a/output_0_split
I0403 15:55:35.788389 14855 net.cpp:148] Top shape: 24 512 14 14 (2408448)
I0403 15:55:35.788408 14855 net.cpp:148] Top shape: 24 512 14 14 (2408448)
I0403 15:55:35.788422 14855 net.cpp:148] Top shape: 24 512 14 14 (2408448)
I0403 15:55:35.788437 14855 net.cpp:148] Top shape: 24 512 14 14 (2408448)
I0403 15:55:35.788451 14855 net.cpp:148] Top shape: 24 512 14 14 (2408448)
I0403 15:55:35.788465 14855 net.cpp:156] Memory required for data: 944714784
I0403 15:55:35.788478 14855 layer_factory.hpp:77] Creating layer loss1/ave_pool
I0403 15:55:35.788496 14855 net.cpp:91] Creating Layer loss1/ave_pool
I0403 15:55:35.788511 14855 net.cpp:425] loss1/ave_pool <- inception_4a/output_inception_4a/output_0_split_0
I0403 15:55:35.788529 14855 net.cpp:399] loss1/ave_pool -> loss1/ave_pool
I0403 15:55:35.788736 14855 net.cpp:141] Setting up loss1/ave_pool
I0403 15:55:35.788763 14855 net.cpp:148] Top shape: 24 512 4 4 (196608)
I0403 15:55:35.788777 14855 net.cpp:156] Memory required for data: 945501216
I0403 15:55:35.788791 14855 layer_factory.hpp:77] Creating layer loss1/conv
I0403 15:55:35.788815 14855 net.cpp:91] Creating Layer loss1/conv
I0403 15:55:35.788835 14855 net.cpp:425] loss1/conv <- loss1/ave_pool
I0403 15:55:35.788856 14855 net.cpp:399] loss1/conv -> loss1/conv
I0403 15:55:35.790246 14855 net.cpp:141] Setting up loss1/conv
I0403 15:55:35.790276 14855 net.cpp:148] Top shape: 24 128 4 4 (49152)
I0403 15:55:35.790292 14855 net.cpp:156] Memory required for data: 945697824
I0403 15:55:35.790324 14855 layer_factory.hpp:77] Creating layer loss1/relu_conv
I0403 15:55:35.790346 14855 net.cpp:91] Creating Layer loss1/relu_conv
I0403 15:55:35.790364 14855 net.cpp:425] loss1/relu_conv <- loss1/conv
I0403 15:55:35.790381 14855 net.cpp:386] loss1/relu_conv -> loss1/conv (in-place)
I0403 15:55:35.790654 14855 net.cpp:141] Setting up loss1/relu_conv
I0403 15:55:35.790680 14855 net.cpp:148] Top shape: 24 128 4 4 (49152)
I0403 15:55:35.790695 14855 net.cpp:156] Memory required for data: 945894432
I0403 15:55:35.790710 14855 layer_factory.hpp:77] Creating layer loss1/fc
I0403 15:55:35.790735 14855 net.cpp:91] Creating Layer loss1/fc
I0403 15:55:35.790755 14855 net.cpp:425] loss1/fc <- loss1/conv
I0403 15:55:35.790774 14855 net.cpp:399] loss1/fc -> loss1/fc
I0403 15:55:35.808195 14855 net.cpp:141] Setting up loss1/fc
I0403 15:55:35.808228 14855 net.cpp:148] Top shape: 24 1024 (24576)
I0403 15:55:35.808243 14855 net.cpp:156] Memory required for data: 945992736
I0403 15:55:35.808259 14855 layer_factory.hpp:77] Creating layer loss1/relu_fc
I0403 15:55:35.808277 14855 net.cpp:91] Creating Layer loss1/relu_fc
I0403 15:55:35.808293 14855 net.cpp:425] loss1/relu_fc <- loss1/fc
I0403 15:55:35.808313 14855 net.cpp:386] loss1/relu_fc -> loss1/fc (in-place)
I0403 15:55:35.808490 14855 net.cpp:141] Setting up loss1/relu_fc
I0403 15:55:35.808516 14855 net.cpp:148] Top shape: 24 1024 (24576)
I0403 15:55:35.808531 14855 net.cpp:156] Memory required for data: 946091040
I0403 15:55:35.808547 14855 layer_factory.hpp:77] Creating layer loss1/drop_fc
I0403 15:55:35.808573 14855 net.cpp:91] Creating Layer loss1/drop_fc
I0403 15:55:35.808591 14855 net.cpp:425] loss1/drop_fc <- loss1/fc
I0403 15:55:35.808609 14855 net.cpp:386] loss1/drop_fc -> loss1/fc (in-place)
I0403 15:55:35.808660 14855 net.cpp:141] Setting up loss1/drop_fc
I0403 15:55:35.808681 14855 net.cpp:148] Top shape: 24 1024 (24576)
I0403 15:55:35.808696 14855 net.cpp:156] Memory required for data: 946189344
I0403 15:55:35.808709 14855 layer_factory.hpp:77] Creating layer loss1/classifier_plantvillage
I0403 15:55:35.808794 14855 net.cpp:91] Creating Layer loss1/classifier_plantvillage
I0403 15:55:35.808815 14855 net.cpp:425] loss1/classifier_plantvillage <- loss1/fc
I0403 15:55:35.808835 14855 net.cpp:399] loss1/classifier_plantvillage -> loss1/classifier_plantvillage
I0403 15:55:35.809739 14855 net.cpp:141] Setting up loss1/classifier_plantvillage
I0403 15:55:35.809767 14855 net.cpp:148] Top shape: 24 38 (912)
I0403 15:55:35.809782 14855 net.cpp:156] Memory required for data: 946192992
I0403 15:55:35.809800 14855 layer_factory.hpp:77] Creating layer loss1/classifier_plantvillage_loss1/classifier_plantvillage_0_split
I0403 15:55:35.809820 14855 net.cpp:91] Creating Layer loss1/classifier_plantvillage_loss1/classifier_plantvillage_0_split
I0403 15:55:35.809837 14855 net.cpp:425] loss1/classifier_plantvillage_loss1/classifier_plantvillage_0_split <- loss1/classifier_plantvillage
I0403 15:55:35.809854 14855 net.cpp:399] loss1/classifier_plantvillage_loss1/classifier_plantvillage_0_split -> loss1/classifier_plantvillage_loss1/classifier_plantvillage_0_split_0
I0403 15:55:35.809872 14855 net.cpp:399] loss1/classifier_plantvillage_loss1/classifier_plantvillage_0_split -> loss1/classifier_plantvillage_loss1/classifier_plantvillage_0_split_1
I0403 15:55:35.809892 14855 net.cpp:399] loss1/classifier_plantvillage_loss1/classifier_plantvillage_0_split -> loss1/classifier_plantvillage_loss1/classifier_plantvillage_0_split_2
I0403 15:55:35.809958 14855 net.cpp:141] Setting up loss1/classifier_plantvillage_loss1/classifier_plantvillage_0_split
I0403 15:55:35.809981 14855 net.cpp:148] Top shape: 24 38 (912)
I0403 15:55:35.809996 14855 net.cpp:148] Top shape: 24 38 (912)
I0403 15:55:35.810011 14855 net.cpp:148] Top shape: 24 38 (912)
I0403 15:55:35.810024 14855 net.cpp:156] Memory required for data: 946203936
I0403 15:55:35.810037 14855 layer_factory.hpp:77] Creating layer inception_4b/1x1
I0403 15:55:35.810058 14855 net.cpp:91] Creating Layer inception_4b/1x1
I0403 15:55:35.810092 14855 net.cpp:425] inception_4b/1x1 <- inception_4a/output_inception_4a/output_0_split_1
I0403 15:55:35.810117 14855 net.cpp:399] inception_4b/1x1 -> inception_4b/1x1
I0403 15:55:35.811699 14855 net.cpp:141] Setting up inception_4b/1x1
I0403 15:55:35.811728 14855 net.cpp:148] Top shape: 24 160 14 14 (752640)
I0403 15:55:35.811743 14855 net.cpp:156] Memory required for data: 949214496
I0403 15:55:35.811761 14855 layer_factory.hpp:77] Creating layer inception_4b/relu_1x1
I0403 15:55:35.811779 14855 net.cpp:91] Creating Layer inception_4b/relu_1x1
I0403 15:55:35.811796 14855 net.cpp:425] inception_4b/relu_1x1 <- inception_4b/1x1
I0403 15:55:35.811812 14855 net.cpp:386] inception_4b/relu_1x1 -> inception_4b/1x1 (in-place)
I0403 15:55:35.811985 14855 net.cpp:141] Setting up inception_4b/relu_1x1
I0403 15:55:35.812011 14855 net.cpp:148] Top shape: 24 160 14 14 (752640)
I0403 15:55:35.812024 14855 net.cpp:156] Memory required for data: 952225056
I0403 15:55:35.812038 14855 layer_factory.hpp:77] Creating layer inception_4b/3x3_reduce
I0403 15:55:35.812060 14855 net.cpp:91] Creating Layer inception_4b/3x3_reduce
I0403 15:55:35.812079 14855 net.cpp:425] inception_4b/3x3_reduce <- inception_4a/output_inception_4a/output_0_split_2
I0403 15:55:35.812106 14855 net.cpp:399] inception_4b/3x3_reduce -> inception_4b/3x3_reduce
I0403 15:55:35.813406 14855 net.cpp:141] Setting up inception_4b/3x3_reduce
I0403 15:55:35.813433 14855 net.cpp:148] Top shape: 24 112 14 14 (526848)
I0403 15:55:35.813448 14855 net.cpp:156] Memory required for data: 954332448
I0403 15:55:35.813465 14855 layer_factory.hpp:77] Creating layer inception_4b/relu_3x3_reduce
I0403 15:55:35.813483 14855 net.cpp:91] Creating Layer inception_4b/relu_3x3_reduce
I0403 15:55:35.813499 14855 net.cpp:425] inception_4b/relu_3x3_reduce <- inception_4b/3x3_reduce
I0403 15:55:35.813519 14855 net.cpp:386] inception_4b/relu_3x3_reduce -> inception_4b/3x3_reduce (in-place)
I0403 15:55:35.813792 14855 net.cpp:141] Setting up inception_4b/relu_3x3_reduce
I0403 15:55:35.813818 14855 net.cpp:148] Top shape: 24 112 14 14 (526848)
I0403 15:55:35.813832 14855 net.cpp:156] Memory required for data: 956439840
I0403 15:55:35.813846 14855 layer_factory.hpp:77] Creating layer inception_4b/3x3
I0403 15:55:35.813868 14855 net.cpp:91] Creating Layer inception_4b/3x3
I0403 15:55:35.813884 14855 net.cpp:425] inception_4b/3x3 <- inception_4b/3x3_reduce
I0403 15:55:35.813905 14855 net.cpp:399] inception_4b/3x3 -> inception_4b/3x3
I0403 15:55:35.816813 14855 net.cpp:141] Setting up inception_4b/3x3
I0403 15:55:35.816843 14855 net.cpp:148] Top shape: 24 224 14 14 (1053696)
I0403 15:55:35.816857 14855 net.cpp:156] Memory required for data: 960654624
I0403 15:55:35.816874 14855 layer_factory.hpp:77] Creating layer inception_4b/relu_3x3
I0403 15:55:35.816895 14855 net.cpp:91] Creating Layer inception_4b/relu_3x3
I0403 15:55:35.816912 14855 net.cpp:425] inception_4b/relu_3x3 <- inception_4b/3x3
I0403 15:55:35.816929 14855 net.cpp:386] inception_4b/relu_3x3 -> inception_4b/3x3 (in-place)
I0403 15:55:35.817107 14855 net.cpp:141] Setting up inception_4b/relu_3x3
I0403 15:55:35.817136 14855 net.cpp:148] Top shape: 24 224 14 14 (1053696)
I0403 15:55:35.817152 14855 net.cpp:156] Memory required for data: 964869408
I0403 15:55:35.817165 14855 layer_factory.hpp:77] Creating layer inception_4b/5x5_reduce
I0403 15:55:35.817186 14855 net.cpp:91] Creating Layer inception_4b/5x5_reduce
I0403 15:55:35.817206 14855 net.cpp:425] inception_4b/5x5_reduce <- inception_4a/output_inception_4a/output_0_split_3
I0403 15:55:35.817224 14855 net.cpp:399] inception_4b/5x5_reduce -> inception_4b/5x5_reduce
I0403 15:55:35.818274 14855 net.cpp:141] Setting up inception_4b/5x5_reduce
I0403 15:55:35.818305 14855 net.cpp:148] Top shape: 24 24 14 14 (112896)
I0403 15:55:35.818320 14855 net.cpp:156] Memory required for data: 965320992
I0403 15:55:35.818338 14855 layer_factory.hpp:77] Creating layer inception_4b/relu_5x5_reduce
I0403 15:55:35.818356 14855 net.cpp:91] Creating Layer inception_4b/relu_5x5_reduce
I0403 15:55:35.818387 14855 net.cpp:425] inception_4b/relu_5x5_reduce <- inception_4b/5x5_reduce
I0403 15:55:35.818406 14855 net.cpp:386] inception_4b/relu_5x5_reduce -> inception_4b/5x5_reduce (in-place)
I0403 15:55:35.818586 14855 net.cpp:141] Setting up inception_4b/relu_5x5_reduce
I0403 15:55:35.818611 14855 net.cpp:148] Top shape: 24 24 14 14 (112896)
I0403 15:55:35.818625 14855 net.cpp:156] Memory required for data: 965772576
I0403 15:55:35.818639 14855 layer_factory.hpp:77] Creating layer inception_4b/5x5
I0403 15:55:35.818661 14855 net.cpp:91] Creating Layer inception_4b/5x5
I0403 15:55:35.818678 14855 net.cpp:425] inception_4b/5x5 <- inception_4b/5x5_reduce
I0403 15:55:35.818697 14855 net.cpp:399] inception_4b/5x5 -> inception_4b/5x5
I0403 15:55:35.819886 14855 net.cpp:141] Setting up inception_4b/5x5
I0403 15:55:35.819913 14855 net.cpp:148] Top shape: 24 64 14 14 (301056)
I0403 15:55:35.819929 14855 net.cpp:156] Memory required for data: 966976800
I0403 15:55:35.819947 14855 layer_factory.hpp:77] Creating layer inception_4b/relu_5x5
I0403 15:55:35.819965 14855 net.cpp:91] Creating Layer inception_4b/relu_5x5
I0403 15:55:35.819982 14855 net.cpp:425] inception_4b/relu_5x5 <- inception_4b/5x5
I0403 15:55:35.819998 14855 net.cpp:386] inception_4b/relu_5x5 -> inception_4b/5x5 (in-place)
I0403 15:55:35.820281 14855 net.cpp:141] Setting up inception_4b/relu_5x5
I0403 15:55:35.820307 14855 net.cpp:148] Top shape: 24 64 14 14 (301056)
I0403 15:55:35.820322 14855 net.cpp:156] Memory required for data: 968181024
I0403 15:55:35.820338 14855 layer_factory.hpp:77] Creating layer inception_4b/pool
I0403 15:55:35.820368 14855 net.cpp:91] Creating Layer inception_4b/pool
I0403 15:55:35.820384 14855 net.cpp:425] inception_4b/pool <- inception_4a/output_inception_4a/output_0_split_4
I0403 15:55:35.820404 14855 net.cpp:399] inception_4b/pool -> inception_4b/pool
I0403 15:55:35.820466 14855 net.cpp:141] Setting up inception_4b/pool
I0403 15:55:35.820489 14855 net.cpp:148] Top shape: 24 512 14 14 (2408448)
I0403 15:55:35.820504 14855 net.cpp:156] Memory required for data: 977814816
I0403 15:55:35.820518 14855 layer_factory.hpp:77] Creating layer inception_4b/pool_proj
I0403 15:55:35.820538 14855 net.cpp:91] Creating Layer inception_4b/pool_proj
I0403 15:55:35.820555 14855 net.cpp:425] inception_4b/pool_proj <- inception_4b/pool
I0403 15:55:35.820574 14855 net.cpp:399] inception_4b/pool_proj -> inception_4b/pool_proj
I0403 15:55:35.821738 14855 net.cpp:141] Setting up inception_4b/pool_proj
I0403 15:55:35.821769 14855 net.cpp:148] Top shape: 24 64 14 14 (301056)
I0403 15:55:35.821784 14855 net.cpp:156] Memory required for data: 979019040
I0403 15:55:35.821801 14855 layer_factory.hpp:77] Creating layer inception_4b/relu_pool_proj
I0403 15:55:35.821820 14855 net.cpp:91] Creating Layer inception_4b/relu_pool_proj
I0403 15:55:35.821835 14855 net.cpp:425] inception_4b/relu_pool_proj <- inception_4b/pool_proj
I0403 15:55:35.821853 14855 net.cpp:386] inception_4b/relu_pool_proj -> inception_4b/pool_proj (in-place)
I0403 15:55:35.822026 14855 net.cpp:141] Setting up inception_4b/relu_pool_proj
I0403 15:55:35.822051 14855 net.cpp:148] Top shape: 24 64 14 14 (301056)
I0403 15:55:35.822063 14855 net.cpp:156] Memory required for data: 980223264
I0403 15:55:35.822077 14855 layer_factory.hpp:77] Creating layer inception_4b/output
I0403 15:55:35.822096 14855 net.cpp:91] Creating Layer inception_4b/output
I0403 15:55:35.822114 14855 net.cpp:425] inception_4b/output <- inception_4b/1x1
I0403 15:55:35.822130 14855 net.cpp:425] inception_4b/output <- inception_4b/3x3
I0403 15:55:35.822145 14855 net.cpp:425] inception_4b/output <- inception_4b/5x5
I0403 15:55:35.822160 14855 net.cpp:425] inception_4b/output <- inception_4b/pool_proj
I0403 15:55:35.822177 14855 net.cpp:399] inception_4b/output -> inception_4b/output
I0403 15:55:35.822226 14855 net.cpp:141] Setting up inception_4b/output
I0403 15:55:35.822252 14855 net.cpp:148] Top shape: 24 512 14 14 (2408448)
I0403 15:55:35.822268 14855 net.cpp:156] Memory required for data: 989857056
I0403 15:55:35.822295 14855 layer_factory.hpp:77] Creating layer inception_4b/output_inception_4b/output_0_split
I0403 15:55:35.822314 14855 net.cpp:91] Creating Layer inception_4b/output_inception_4b/output_0_split
I0403 15:55:35.822329 14855 net.cpp:425] inception_4b/output_inception_4b/output_0_split <- inception_4b/output
I0403 15:55:35.822345 14855 net.cpp:399] inception_4b/output_inception_4b/output_0_split -> inception_4b/output_inception_4b/output_0_split_0
I0403 15:55:35.822367 14855 net.cpp:399] inception_4b/output_inception_4b/output_0_split -> inception_4b/output_inception_4b/output_0_split_1
I0403 15:55:35.822389 14855 net.cpp:399] inception_4b/output_inception_4b/output_0_split -> inception_4b/output_inception_4b/output_0_split_2
I0403 15:55:35.822408 14855 net.cpp:399] inception_4b/output_inception_4b/output_0_split -> inception_4b/output_inception_4b/output_0_split_3
I0403 15:55:35.822492 14855 net.cpp:141] Setting up inception_4b/output_inception_4b/output_0_split
I0403 15:55:35.822515 14855 net.cpp:148] Top shape: 24 512 14 14 (2408448)
I0403 15:55:35.822531 14855 net.cpp:148] Top shape: 24 512 14 14 (2408448)
I0403 15:55:35.822546 14855 net.cpp:148] Top shape: 24 512 14 14 (2408448)
I0403 15:55:35.822561 14855 net.cpp:148] Top shape: 24 512 14 14 (2408448)
I0403 15:55:35.822574 14855 net.cpp:156] Memory required for data: 1028392224
I0403 15:55:35.822587 14855 layer_factory.hpp:77] Creating layer inception_4c/1x1
I0403 15:55:35.822610 14855 net.cpp:91] Creating Layer inception_4c/1x1
I0403 15:55:35.822628 14855 net.cpp:425] inception_4c/1x1 <- inception_4b/output_inception_4b/output_0_split_0
I0403 15:55:35.822646 14855 net.cpp:399] inception_4c/1x1 -> inception_4c/1x1
I0403 15:55:35.824038 14855 net.cpp:141] Setting up inception_4c/1x1
I0403 15:55:35.824066 14855 net.cpp:148] Top shape: 24 128 14 14 (602112)
I0403 15:55:35.824082 14855 net.cpp:156] Memory required for data: 1030800672
I0403 15:55:35.824103 14855 layer_factory.hpp:77] Creating layer inception_4c/relu_1x1
I0403 15:55:35.824122 14855 net.cpp:91] Creating Layer inception_4c/relu_1x1
I0403 15:55:35.824138 14855 net.cpp:425] inception_4c/relu_1x1 <- inception_4c/1x1
I0403 15:55:35.824157 14855 net.cpp:386] inception_4c/relu_1x1 -> inception_4c/1x1 (in-place)
I0403 15:55:35.824333 14855 net.cpp:141] Setting up inception_4c/relu_1x1
I0403 15:55:35.824357 14855 net.cpp:148] Top shape: 24 128 14 14 (602112)
I0403 15:55:35.824372 14855 net.cpp:156] Memory required for data: 1033209120
I0403 15:55:35.824386 14855 layer_factory.hpp:77] Creating layer inception_4c/3x3_reduce
I0403 15:55:35.824407 14855 net.cpp:91] Creating Layer inception_4c/3x3_reduce
I0403 15:55:35.824424 14855 net.cpp:425] inception_4c/3x3_reduce <- inception_4b/output_inception_4b/output_0_split_1
I0403 15:55:35.824443 14855 net.cpp:399] inception_4c/3x3_reduce -> inception_4c/3x3_reduce
I0403 15:55:35.826310 14855 net.cpp:141] Setting up inception_4c/3x3_reduce
I0403 15:55:35.826340 14855 net.cpp:148] Top shape: 24 128 14 14 (602112)
I0403 15:55:35.826356 14855 net.cpp:156] Memory required for data: 1035617568
I0403 15:55:35.826373 14855 layer_factory.hpp:77] Creating layer inception_4c/relu_3x3_reduce
I0403 15:55:35.826391 14855 net.cpp:91] Creating Layer inception_4c/relu_3x3_reduce
I0403 15:55:35.826409 14855 net.cpp:425] inception_4c/relu_3x3_reduce <- inception_4c/3x3_reduce
I0403 15:55:35.826426 14855 net.cpp:386] inception_4c/relu_3x3_reduce -> inception_4c/3x3_reduce (in-place)
I0403 15:55:35.826705 14855 net.cpp:141] Setting up inception_4c/relu_3x3_reduce
I0403 15:55:35.826733 14855 net.cpp:148] Top shape: 24 128 14 14 (602112)
I0403 15:55:35.826747 14855 net.cpp:156] Memory required for data: 1038026016
I0403 15:55:35.826761 14855 layer_factory.hpp:77] Creating layer inception_4c/3x3
I0403 15:55:35.826781 14855 net.cpp:91] Creating Layer inception_4c/3x3
I0403 15:55:35.826797 14855 net.cpp:425] inception_4c/3x3 <- inception_4c/3x3_reduce
I0403 15:55:35.826818 14855 net.cpp:399] inception_4c/3x3 -> inception_4c/3x3
I0403 15:55:35.830396 14855 net.cpp:141] Setting up inception_4c/3x3
I0403 15:55:35.830440 14855 net.cpp:148] Top shape: 24 256 14 14 (1204224)
I0403 15:55:35.830457 14855 net.cpp:156] Memory required for data: 1042842912
I0403 15:55:35.830487 14855 layer_factory.hpp:77] Creating layer inception_4c/relu_3x3
I0403 15:55:35.830508 14855 net.cpp:91] Creating Layer inception_4c/relu_3x3
I0403 15:55:35.830524 14855 net.cpp:425] inception_4c/relu_3x3 <- inception_4c/3x3
I0403 15:55:35.830543 14855 net.cpp:386] inception_4c/relu_3x3 -> inception_4c/3x3 (in-place)
I0403 15:55:35.830716 14855 net.cpp:141] Setting up inception_4c/relu_3x3
I0403 15:55:35.830744 14855 net.cpp:148] Top shape: 24 256 14 14 (1204224)
I0403 15:55:35.830760 14855 net.cpp:156] Memory required for data: 1047659808
I0403 15:55:35.830773 14855 layer_factory.hpp:77] Creating layer inception_4c/5x5_reduce
I0403 15:55:35.830796 14855 net.cpp:91] Creating Layer inception_4c/5x5_reduce
I0403 15:55:35.830813 14855 net.cpp:425] inception_4c/5x5_reduce <- inception_4b/output_inception_4b/output_0_split_2
I0403 15:55:35.830832 14855 net.cpp:399] inception_4c/5x5_reduce -> inception_4c/5x5_reduce
I0403 15:55:35.831900 14855 net.cpp:141] Setting up inception_4c/5x5_reduce
I0403 15:55:35.831931 14855 net.cpp:148] Top shape: 24 24 14 14 (112896)
I0403 15:55:35.831948 14855 net.cpp:156] Memory required for data: 1048111392
I0403 15:55:35.831965 14855 layer_factory.hpp:77] Creating layer inception_4c/relu_5x5_reduce
I0403 15:55:35.831984 14855 net.cpp:91] Creating Layer inception_4c/relu_5x5_reduce
I0403 15:55:35.831998 14855 net.cpp:425] inception_4c/relu_5x5_reduce <- inception_4c/5x5_reduce
I0403 15:55:35.832015 14855 net.cpp:386] inception_4c/relu_5x5_reduce -> inception_4c/5x5_reduce (in-place)
I0403 15:55:35.832201 14855 net.cpp:141] Setting up inception_4c/relu_5x5_reduce
I0403 15:55:35.832226 14855 net.cpp:148] Top shape: 24 24 14 14 (112896)
I0403 15:55:35.832240 14855 net.cpp:156] Memory required for data: 1048562976
I0403 15:55:35.832253 14855 layer_factory.hpp:77] Creating layer inception_4c/5x5
I0403 15:55:35.832274 14855 net.cpp:91] Creating Layer inception_4c/5x5
I0403 15:55:35.832291 14855 net.cpp:425] inception_4c/5x5 <- inception_4c/5x5_reduce
I0403 15:55:35.832312 14855 net.cpp:399] inception_4c/5x5 -> inception_4c/5x5
I0403 15:55:35.833531 14855 net.cpp:141] Setting up inception_4c/5x5
I0403 15:55:35.833559 14855 net.cpp:148] Top shape: 24 64 14 14 (301056)
I0403 15:55:35.833575 14855 net.cpp:156] Memory required for data: 1049767200
I0403 15:55:35.833592 14855 layer_factory.hpp:77] Creating layer inception_4c/relu_5x5
I0403 15:55:35.833611 14855 net.cpp:91] Creating Layer inception_4c/relu_5x5
I0403 15:55:35.833626 14855 net.cpp:425] inception_4c/relu_5x5 <- inception_4c/5x5
I0403 15:55:35.833644 14855 net.cpp:386] inception_4c/relu_5x5 -> inception_4c/5x5 (in-place)
I0403 15:55:35.833928 14855 net.cpp:141] Setting up inception_4c/relu_5x5
I0403 15:55:35.833956 14855 net.cpp:148] Top shape: 24 64 14 14 (301056)
I0403 15:55:35.833969 14855 net.cpp:156] Memory required for data: 1050971424
I0403 15:55:35.833983 14855 layer_factory.hpp:77] Creating layer inception_4c/pool
I0403 15:55:35.834000 14855 net.cpp:91] Creating Layer inception_4c/pool
I0403 15:55:35.834017 14855 net.cpp:425] inception_4c/pool <- inception_4b/output_inception_4b/output_0_split_3
I0403 15:55:35.834035 14855 net.cpp:399] inception_4c/pool -> inception_4c/pool
I0403 15:55:35.834103 14855 net.cpp:141] Setting up inception_4c/pool
I0403 15:55:35.834128 14855 net.cpp:148] Top shape: 24 512 14 14 (2408448)
I0403 15:55:35.834142 14855 net.cpp:156] Memory required for data: 1060605216
I0403 15:55:35.834159 14855 layer_factory.hpp:77] Creating layer inception_4c/pool_proj
I0403 15:55:35.834182 14855 net.cpp:91] Creating Layer inception_4c/pool_proj
I0403 15:55:35.834202 14855 net.cpp:425] inception_4c/pool_proj <- inception_4c/pool
I0403 15:55:35.834219 14855 net.cpp:399] inception_4c/pool_proj -> inception_4c/pool_proj
I0403 15:55:35.835403 14855 net.cpp:141] Setting up inception_4c/pool_proj
I0403 15:55:35.835433 14855 net.cpp:148] Top shape: 24 64 14 14 (301056)
I0403 15:55:35.835463 14855 net.cpp:156] Memory required for data: 1061809440
I0403 15:55:35.835481 14855 layer_factory.hpp:77] Creating layer inception_4c/relu_pool_proj
I0403 15:55:35.835500 14855 net.cpp:91] Creating Layer inception_4c/relu_pool_proj
I0403 15:55:35.835515 14855 net.cpp:425] inception_4c/relu_pool_proj <- inception_4c/pool_proj
I0403 15:55:35.835535 14855 net.cpp:386] inception_4c/relu_pool_proj -> inception_4c/pool_proj (in-place)
I0403 15:55:35.835711 14855 net.cpp:141] Setting up inception_4c/relu_pool_proj
I0403 15:55:35.835736 14855 net.cpp:148] Top shape: 24 64 14 14 (301056)
I0403 15:55:35.835749 14855 net.cpp:156] Memory required for data: 1063013664
I0403 15:55:35.835764 14855 layer_factory.hpp:77] Creating layer inception_4c/output
I0403 15:55:35.835780 14855 net.cpp:91] Creating Layer inception_4c/output
I0403 15:55:35.835795 14855 net.cpp:425] inception_4c/output <- inception_4c/1x1
I0403 15:55:35.835811 14855 net.cpp:425] inception_4c/output <- inception_4c/3x3
I0403 15:55:35.835826 14855 net.cpp:425] inception_4c/output <- inception_4c/5x5
I0403 15:55:35.835841 14855 net.cpp:425] inception_4c/output <- inception_4c/pool_proj
I0403 15:55:35.835858 14855 net.cpp:399] inception_4c/output -> inception_4c/output
I0403 15:55:35.835904 14855 net.cpp:141] Setting up inception_4c/output
I0403 15:55:35.835930 14855 net.cpp:148] Top shape: 24 512 14 14 (2408448)
I0403 15:55:35.835945 14855 net.cpp:156] Memory required for data: 1072647456
I0403 15:55:35.835960 14855 layer_factory.hpp:77] Creating layer inception_4c/output_inception_4c/output_0_split
I0403 15:55:35.835975 14855 net.cpp:91] Creating Layer inception_4c/output_inception_4c/output_0_split
I0403 15:55:35.835989 14855 net.cpp:425] inception_4c/output_inception_4c/output_0_split <- inception_4c/output
I0403 15:55:35.836005 14855 net.cpp:399] inception_4c/output_inception_4c/output_0_split -> inception_4c/output_inception_4c/output_0_split_0
I0403 15:55:35.836024 14855 net.cpp:399] inception_4c/output_inception_4c/output_0_split -> inception_4c/output_inception_4c/output_0_split_1
I0403 15:55:35.836048 14855 net.cpp:399] inception_4c/output_inception_4c/output_0_split -> inception_4c/output_inception_4c/output_0_split_2
I0403 15:55:35.836069 14855 net.cpp:399] inception_4c/output_inception_4c/output_0_split -> inception_4c/output_inception_4c/output_0_split_3
I0403 15:55:35.836158 14855 net.cpp:141] Setting up inception_4c/output_inception_4c/output_0_split
I0403 15:55:35.836181 14855 net.cpp:148] Top shape: 24 512 14 14 (2408448)
I0403 15:55:35.836200 14855 net.cpp:148] Top shape: 24 512 14 14 (2408448)
I0403 15:55:35.836215 14855 net.cpp:148] Top shape: 24 512 14 14 (2408448)
I0403 15:55:35.836230 14855 net.cpp:148] Top shape: 24 512 14 14 (2408448)
I0403 15:55:35.836242 14855 net.cpp:156] Memory required for data: 1111182624
I0403 15:55:35.836256 14855 layer_factory.hpp:77] Creating layer inception_4d/1x1
I0403 15:55:35.836278 14855 net.cpp:91] Creating Layer inception_4d/1x1
I0403 15:55:35.836295 14855 net.cpp:425] inception_4d/1x1 <- inception_4c/output_inception_4c/output_0_split_0
I0403 15:55:35.836315 14855 net.cpp:399] inception_4d/1x1 -> inception_4d/1x1
I0403 15:55:35.837653 14855 net.cpp:141] Setting up inception_4d/1x1
I0403 15:55:35.837682 14855 net.cpp:148] Top shape: 24 112 14 14 (526848)
I0403 15:55:35.837695 14855 net.cpp:156] Memory required for data: 1113290016
I0403 15:55:35.837713 14855 layer_factory.hpp:77] Creating layer inception_4d/relu_1x1
I0403 15:55:35.837733 14855 net.cpp:91] Creating Layer inception_4d/relu_1x1
I0403 15:55:35.837749 14855 net.cpp:425] inception_4d/relu_1x1 <- inception_4d/1x1
I0403 15:55:35.837765 14855 net.cpp:386] inception_4d/relu_1x1 -> inception_4d/1x1 (in-place)
I0403 15:55:35.837944 14855 net.cpp:141] Setting up inception_4d/relu_1x1
I0403 15:55:35.837971 14855 net.cpp:148] Top shape: 24 112 14 14 (526848)
I0403 15:55:35.837985 14855 net.cpp:156] Memory required for data: 1115397408
I0403 15:55:35.837999 14855 layer_factory.hpp:77] Creating layer inception_4d/3x3_reduce
I0403 15:55:35.838034 14855 net.cpp:91] Creating Layer inception_4d/3x3_reduce
I0403 15:55:35.838052 14855 net.cpp:425] inception_4d/3x3_reduce <- inception_4c/output_inception_4c/output_0_split_1
I0403 15:55:35.838071 14855 net.cpp:399] inception_4d/3x3_reduce -> inception_4d/3x3_reduce
I0403 15:55:35.839543 14855 net.cpp:141] Setting up inception_4d/3x3_reduce
I0403 15:55:35.839570 14855 net.cpp:148] Top shape: 24 144 14 14 (677376)
I0403 15:55:35.839586 14855 net.cpp:156] Memory required for data: 1118106912
I0403 15:55:35.839604 14855 layer_factory.hpp:77] Creating layer inception_4d/relu_3x3_reduce
I0403 15:55:35.839623 14855 net.cpp:91] Creating Layer inception_4d/relu_3x3_reduce
I0403 15:55:35.839640 14855 net.cpp:425] inception_4d/relu_3x3_reduce <- inception_4d/3x3_reduce
I0403 15:55:35.839656 14855 net.cpp:386] inception_4d/relu_3x3_reduce -> inception_4d/3x3_reduce (in-place)
I0403 15:55:35.839936 14855 net.cpp:141] Setting up inception_4d/relu_3x3_reduce
I0403 15:55:35.839962 14855 net.cpp:148] Top shape: 24 144 14 14 (677376)
I0403 15:55:35.839977 14855 net.cpp:156] Memory required for data: 1120816416
I0403 15:55:35.839992 14855 layer_factory.hpp:77] Creating layer inception_4d/3x3
I0403 15:55:35.840013 14855 net.cpp:91] Creating Layer inception_4d/3x3
I0403 15:55:35.840031 14855 net.cpp:425] inception_4d/3x3 <- inception_4d/3x3_reduce
I0403 15:55:35.840050 14855 net.cpp:399] inception_4d/3x3 -> inception_4d/3x3
I0403 15:55:35.844187 14855 net.cpp:141] Setting up inception_4d/3x3
I0403 15:55:35.844216 14855 net.cpp:148] Top shape: 24 288 14 14 (1354752)
I0403 15:55:35.844233 14855 net.cpp:156] Memory required for data: 1126235424
I0403 15:55:35.844249 14855 layer_factory.hpp:77] Creating layer inception_4d/relu_3x3
I0403 15:55:35.844270 14855 net.cpp:91] Creating Layer inception_4d/relu_3x3
I0403 15:55:35.844287 14855 net.cpp:425] inception_4d/relu_3x3 <- inception_4d/3x3
I0403 15:55:35.844305 14855 net.cpp:386] inception_4d/relu_3x3 -> inception_4d/3x3 (in-place)
I0403 15:55:35.844482 14855 net.cpp:141] Setting up inception_4d/relu_3x3
I0403 15:55:35.844508 14855 net.cpp:148] Top shape: 24 288 14 14 (1354752)
I0403 15:55:35.844523 14855 net.cpp:156] Memory required for data: 1131654432
I0403 15:55:35.844537 14855 layer_factory.hpp:77] Creating layer inception_4d/5x5_reduce
I0403 15:55:35.844558 14855 net.cpp:91] Creating Layer inception_4d/5x5_reduce
I0403 15:55:35.844575 14855 net.cpp:425] inception_4d/5x5_reduce <- inception_4c/output_inception_4c/output_0_split_2
I0403 15:55:35.844594 14855 net.cpp:399] inception_4d/5x5_reduce -> inception_4d/5x5_reduce
I0403 15:55:35.845707 14855 net.cpp:141] Setting up inception_4d/5x5_reduce
I0403 15:55:35.845736 14855 net.cpp:148] Top shape: 24 32 14 14 (150528)
I0403 15:55:35.845751 14855 net.cpp:156] Memory required for data: 1132256544
I0403 15:55:35.845768 14855 layer_factory.hpp:77] Creating layer inception_4d/relu_5x5_reduce
I0403 15:55:35.845788 14855 net.cpp:91] Creating Layer inception_4d/relu_5x5_reduce
I0403 15:55:35.845803 14855 net.cpp:425] inception_4d/relu_5x5_reduce <- inception_4d/5x5_reduce
I0403 15:55:35.845818 14855 net.cpp:386] inception_4d/relu_5x5_reduce -> inception_4d/5x5_reduce (in-place)
I0403 15:55:35.846000 14855 net.cpp:141] Setting up inception_4d/relu_5x5_reduce
I0403 15:55:35.846029 14855 net.cpp:148] Top shape: 24 32 14 14 (150528)
I0403 15:55:35.846043 14855 net.cpp:156] Memory required for data: 1132858656
I0403 15:55:35.846060 14855 layer_factory.hpp:77] Creating layer inception_4d/5x5
I0403 15:55:35.846081 14855 net.cpp:91] Creating Layer inception_4d/5x5
I0403 15:55:35.846103 14855 net.cpp:425] inception_4d/5x5 <- inception_4d/5x5_reduce
I0403 15:55:35.846123 14855 net.cpp:399] inception_4d/5x5 -> inception_4d/5x5
I0403 15:55:35.847605 14855 net.cpp:141] Setting up inception_4d/5x5
I0403 15:55:35.847633 14855 net.cpp:148] Top shape: 24 64 14 14 (301056)
I0403 15:55:35.847648 14855 net.cpp:156] Memory required for data: 1134062880
I0403 15:55:35.847666 14855 layer_factory.hpp:77] Creating layer inception_4d/relu_5x5
I0403 15:55:35.847699 14855 net.cpp:91] Creating Layer inception_4d/relu_5x5
I0403 15:55:35.847717 14855 net.cpp:425] inception_4d/relu_5x5 <- inception_4d/5x5
I0403 15:55:35.847736 14855 net.cpp:386] inception_4d/relu_5x5 -> inception_4d/5x5 (in-place)
I0403 15:55:35.848031 14855 net.cpp:141] Setting up inception_4d/relu_5x5
I0403 15:55:35.848058 14855 net.cpp:148] Top shape: 24 64 14 14 (301056)
I0403 15:55:35.848073 14855 net.cpp:156] Memory required for data: 1135267104
I0403 15:55:35.848086 14855 layer_factory.hpp:77] Creating layer inception_4d/pool
I0403 15:55:35.848109 14855 net.cpp:91] Creating Layer inception_4d/pool
I0403 15:55:35.848126 14855 net.cpp:425] inception_4d/pool <- inception_4c/output_inception_4c/output_0_split_3
I0403 15:55:35.848147 14855 net.cpp:399] inception_4d/pool -> inception_4d/pool
I0403 15:55:35.848212 14855 net.cpp:141] Setting up inception_4d/pool
I0403 15:55:35.848235 14855 net.cpp:148] Top shape: 24 512 14 14 (2408448)
I0403 15:55:35.848249 14855 net.cpp:156] Memory required for data: 1144900896
I0403 15:55:35.848264 14855 layer_factory.hpp:77] Creating layer inception_4d/pool_proj
I0403 15:55:35.848286 14855 net.cpp:91] Creating Layer inception_4d/pool_proj
I0403 15:55:35.848304 14855 net.cpp:425] inception_4d/pool_proj <- inception_4d/pool
I0403 15:55:35.848320 14855 net.cpp:399] inception_4d/pool_proj -> inception_4d/pool_proj
I0403 15:55:35.850038 14855 net.cpp:141] Setting up inception_4d/pool_proj
I0403 15:55:35.850066 14855 net.cpp:148] Top shape: 24 64 14 14 (301056)
I0403 15:55:35.850082 14855 net.cpp:156] Memory required for data: 1146105120
I0403 15:55:35.850103 14855 layer_factory.hpp:77] Creating layer inception_4d/relu_pool_proj
I0403 15:55:35.850126 14855 net.cpp:91] Creating Layer inception_4d/relu_pool_proj
I0403 15:55:35.850142 14855 net.cpp:425] inception_4d/relu_pool_proj <- inception_4d/pool_proj
I0403 15:55:35.850159 14855 net.cpp:386] inception_4d/relu_pool_proj -> inception_4d/pool_proj (in-place)
I0403 15:55:35.850342 14855 net.cpp:141] Setting up inception_4d/relu_pool_proj
I0403 15:55:35.850369 14855 net.cpp:148] Top shape: 24 64 14 14 (301056)
I0403 15:55:35.850384 14855 net.cpp:156] Memory required for data: 1147309344
I0403 15:55:35.850399 14855 layer_factory.hpp:77] Creating layer inception_4d/output
I0403 15:55:35.850414 14855 net.cpp:91] Creating Layer inception_4d/output
I0403 15:55:35.850430 14855 net.cpp:425] inception_4d/output <- inception_4d/1x1
I0403 15:55:35.850446 14855 net.cpp:425] inception_4d/output <- inception_4d/3x3
I0403 15:55:35.850461 14855 net.cpp:425] inception_4d/output <- inception_4d/5x5
I0403 15:55:35.850476 14855 net.cpp:425] inception_4d/output <- inception_4d/pool_proj
I0403 15:55:35.850494 14855 net.cpp:399] inception_4d/output -> inception_4d/output
I0403 15:55:35.850540 14855 net.cpp:141] Setting up inception_4d/output
I0403 15:55:35.850564 14855 net.cpp:148] Top shape: 24 528 14 14 (2483712)
I0403 15:55:35.850577 14855 net.cpp:156] Memory required for data: 1157244192
I0403 15:55:35.850591 14855 layer_factory.hpp:77] Creating layer inception_4d/output_inception_4d/output_0_split
I0403 15:55:35.850611 14855 net.cpp:91] Creating Layer inception_4d/output_inception_4d/output_0_split
I0403 15:55:35.850627 14855 net.cpp:425] inception_4d/output_inception_4d/output_0_split <- inception_4d/output
I0403 15:55:35.850644 14855 net.cpp:399] inception_4d/output_inception_4d/output_0_split -> inception_4d/output_inception_4d/output_0_split_0
I0403 15:55:35.850663 14855 net.cpp:399] inception_4d/output_inception_4d/output_0_split -> inception_4d/output_inception_4d/output_0_split_1
I0403 15:55:35.850688 14855 net.cpp:399] inception_4d/output_inception_4d/output_0_split -> inception_4d/output_inception_4d/output_0_split_2
I0403 15:55:35.850710 14855 net.cpp:399] inception_4d/output_inception_4d/output_0_split -> inception_4d/output_inception_4d/output_0_split_3
I0403 15:55:35.850728 14855 net.cpp:399] inception_4d/output_inception_4d/output_0_split -> inception_4d/output_inception_4d/output_0_split_4
I0403 15:55:35.850827 14855 net.cpp:141] Setting up inception_4d/output_inception_4d/output_0_split
I0403 15:55:35.850862 14855 net.cpp:148] Top shape: 24 528 14 14 (2483712)
I0403 15:55:35.850878 14855 net.cpp:148] Top shape: 24 528 14 14 (2483712)
I0403 15:55:35.850893 14855 net.cpp:148] Top shape: 24 528 14 14 (2483712)
I0403 15:55:35.850908 14855 net.cpp:148] Top shape: 24 528 14 14 (2483712)
I0403 15:55:35.850922 14855 net.cpp:148] Top shape: 24 528 14 14 (2483712)
I0403 15:55:35.850935 14855 net.cpp:156] Memory required for data: 1206918432
I0403 15:55:35.850949 14855 layer_factory.hpp:77] Creating layer loss2/ave_pool
I0403 15:55:35.850967 14855 net.cpp:91] Creating Layer loss2/ave_pool
I0403 15:55:35.850986 14855 net.cpp:425] loss2/ave_pool <- inception_4d/output_inception_4d/output_0_split_0
I0403 15:55:35.851002 14855 net.cpp:399] loss2/ave_pool -> loss2/ave_pool
I0403 15:55:35.851307 14855 net.cpp:141] Setting up loss2/ave_pool
I0403 15:55:35.851333 14855 net.cpp:148] Top shape: 24 528 4 4 (202752)
I0403 15:55:35.851348 14855 net.cpp:156] Memory required for data: 1207729440
I0403 15:55:35.851361 14855 layer_factory.hpp:77] Creating layer loss2/conv
I0403 15:55:35.851384 14855 net.cpp:91] Creating Layer loss2/conv
I0403 15:55:35.851402 14855 net.cpp:425] loss2/conv <- loss2/ave_pool
I0403 15:55:35.851423 14855 net.cpp:399] loss2/conv -> loss2/conv
I0403 15:55:35.853307 14855 net.cpp:141] Setting up loss2/conv
I0403 15:55:35.853337 14855 net.cpp:148] Top shape: 24 128 4 4 (49152)
I0403 15:55:35.853353 14855 net.cpp:156] Memory required for data: 1207926048
I0403 15:55:35.853369 14855 layer_factory.hpp:77] Creating layer loss2/relu_conv
I0403 15:55:35.853387 14855 net.cpp:91] Creating Layer loss2/relu_conv
I0403 15:55:35.853404 14855 net.cpp:425] loss2/relu_conv <- loss2/conv
I0403 15:55:35.853425 14855 net.cpp:386] loss2/relu_conv -> loss2/conv (in-place)
I0403 15:55:35.853701 14855 net.cpp:141] Setting up loss2/relu_conv
I0403 15:55:35.853730 14855 net.cpp:148] Top shape: 24 128 4 4 (49152)
I0403 15:55:35.853745 14855 net.cpp:156] Memory required for data: 1208122656
I0403 15:55:35.853760 14855 layer_factory.hpp:77] Creating layer loss2/fc
I0403 15:55:35.853778 14855 net.cpp:91] Creating Layer loss2/fc
I0403 15:55:35.853793 14855 net.cpp:425] loss2/fc <- loss2/conv
I0403 15:55:35.853814 14855 net.cpp:399] loss2/fc -> loss2/fc
I0403 15:55:35.871047 14855 net.cpp:141] Setting up loss2/fc
I0403 15:55:35.871079 14855 net.cpp:148] Top shape: 24 1024 (24576)
I0403 15:55:35.871098 14855 net.cpp:156] Memory required for data: 1208220960
I0403 15:55:35.871117 14855 layer_factory.hpp:77] Creating layer loss2/relu_fc
I0403 15:55:35.871136 14855 net.cpp:91] Creating Layer loss2/relu_fc
I0403 15:55:35.871153 14855 net.cpp:425] loss2/relu_fc <- loss2/fc
I0403 15:55:35.871170 14855 net.cpp:386] loss2/relu_fc -> loss2/fc (in-place)
I0403 15:55:35.871466 14855 net.cpp:141] Setting up loss2/relu_fc
I0403 15:55:35.871492 14855 net.cpp:148] Top shape: 24 1024 (24576)
I0403 15:55:35.871506 14855 net.cpp:156] Memory required for data: 1208319264
I0403 15:55:35.871520 14855 layer_factory.hpp:77] Creating layer loss2/drop_fc
I0403 15:55:35.871538 14855 net.cpp:91] Creating Layer loss2/drop_fc
I0403 15:55:35.871556 14855 net.cpp:425] loss2/drop_fc <- loss2/fc
I0403 15:55:35.871572 14855 net.cpp:386] loss2/drop_fc -> loss2/fc (in-place)
I0403 15:55:35.871621 14855 net.cpp:141] Setting up loss2/drop_fc
I0403 15:55:35.871644 14855 net.cpp:148] Top shape: 24 1024 (24576)
I0403 15:55:35.871659 14855 net.cpp:156] Memory required for data: 1208417568
I0403 15:55:35.871671 14855 layer_factory.hpp:77] Creating layer loss2/classifier_plantvillage
I0403 15:55:35.871692 14855 net.cpp:91] Creating Layer loss2/classifier_plantvillage
I0403 15:55:35.871709 14855 net.cpp:425] loss2/classifier_plantvillage <- loss2/fc
I0403 15:55:35.871727 14855 net.cpp:399] loss2/classifier_plantvillage -> loss2/classifier_plantvillage
I0403 15:55:35.872122 14855 net.cpp:141] Setting up loss2/classifier_plantvillage
I0403 15:55:35.872146 14855 net.cpp:148] Top shape: 24 38 (912)
I0403 15:55:35.872160 14855 net.cpp:156] Memory required for data: 1208421216
I0403 15:55:35.872195 14855 layer_factory.hpp:77] Creating layer loss2/classifier_plantvillage_loss2/classifier_plantvillage_0_split
I0403 15:55:35.872212 14855 net.cpp:91] Creating Layer loss2/classifier_plantvillage_loss2/classifier_plantvillage_0_split
I0403 15:55:35.872228 14855 net.cpp:425] loss2/classifier_plantvillage_loss2/classifier_plantvillage_0_split <- loss2/classifier_plantvillage
I0403 15:55:35.872247 14855 net.cpp:399] loss2/classifier_plantvillage_loss2/classifier_plantvillage_0_split -> loss2/classifier_plantvillage_loss2/classifier_plantvillage_0_split_0
I0403 15:55:35.872267 14855 net.cpp:399] loss2/classifier_plantvillage_loss2/classifier_plantvillage_0_split -> loss2/classifier_plantvillage_loss2/classifier_plantvillage_0_split_1
I0403 15:55:35.872287 14855 net.cpp:399] loss2/classifier_plantvillage_loss2/classifier_plantvillage_0_split -> loss2/classifier_plantvillage_loss2/classifier_plantvillage_0_split_2
I0403 15:55:35.872361 14855 net.cpp:141] Setting up loss2/classifier_plantvillage_loss2/classifier_plantvillage_0_split
I0403 15:55:35.872387 14855 net.cpp:148] Top shape: 24 38 (912)
I0403 15:55:35.872405 14855 net.cpp:148] Top shape: 24 38 (912)
I0403 15:55:35.872421 14855 net.cpp:148] Top shape: 24 38 (912)
I0403 15:55:35.872432 14855 net.cpp:156] Memory required for data: 1208432160
I0403 15:55:35.872447 14855 layer_factory.hpp:77] Creating layer inception_4e/1x1
I0403 15:55:35.872467 14855 net.cpp:91] Creating Layer inception_4e/1x1
I0403 15:55:35.872483 14855 net.cpp:425] inception_4e/1x1 <- inception_4d/output_inception_4d/output_0_split_1
I0403 15:55:35.872500 14855 net.cpp:399] inception_4e/1x1 -> inception_4e/1x1
I0403 15:55:35.874287 14855 net.cpp:141] Setting up inception_4e/1x1
I0403 15:55:35.874315 14855 net.cpp:148] Top shape: 24 256 14 14 (1204224)
I0403 15:55:35.874330 14855 net.cpp:156] Memory required for data: 1213249056
I0403 15:55:35.874347 14855 layer_factory.hpp:77] Creating layer inception_4e/relu_1x1
I0403 15:55:35.874366 14855 net.cpp:91] Creating Layer inception_4e/relu_1x1
I0403 15:55:35.874380 14855 net.cpp:425] inception_4e/relu_1x1 <- inception_4e/1x1
I0403 15:55:35.874397 14855 net.cpp:386] inception_4e/relu_1x1 -> inception_4e/1x1 (in-place)
I0403 15:55:35.874696 14855 net.cpp:141] Setting up inception_4e/relu_1x1
I0403 15:55:35.874722 14855 net.cpp:148] Top shape: 24 256 14 14 (1204224)
I0403 15:55:35.874737 14855 net.cpp:156] Memory required for data: 1218065952
I0403 15:55:35.874750 14855 layer_factory.hpp:77] Creating layer inception_4e/3x3_reduce
I0403 15:55:35.874771 14855 net.cpp:91] Creating Layer inception_4e/3x3_reduce
I0403 15:55:35.874788 14855 net.cpp:425] inception_4e/3x3_reduce <- inception_4d/output_inception_4d/output_0_split_2
I0403 15:55:35.874809 14855 net.cpp:399] inception_4e/3x3_reduce -> inception_4e/3x3_reduce
I0403 15:55:35.876884 14855 net.cpp:141] Setting up inception_4e/3x3_reduce
I0403 15:55:35.876916 14855 net.cpp:148] Top shape: 24 160 14 14 (752640)
I0403 15:55:35.876934 14855 net.cpp:156] Memory required for data: 1221076512
I0403 15:55:35.876951 14855 layer_factory.hpp:77] Creating layer inception_4e/relu_3x3_reduce
I0403 15:55:35.876970 14855 net.cpp:91] Creating Layer inception_4e/relu_3x3_reduce
I0403 15:55:35.876984 14855 net.cpp:425] inception_4e/relu_3x3_reduce <- inception_4e/3x3_reduce
I0403 15:55:35.877003 14855 net.cpp:386] inception_4e/relu_3x3_reduce -> inception_4e/3x3_reduce (in-place)
I0403 15:55:35.877192 14855 net.cpp:141] Setting up inception_4e/relu_3x3_reduce
I0403 15:55:35.877218 14855 net.cpp:148] Top shape: 24 160 14 14 (752640)
I0403 15:55:35.877231 14855 net.cpp:156] Memory required for data: 1224087072
I0403 15:55:35.877244 14855 layer_factory.hpp:77] Creating layer inception_4e/3x3
I0403 15:55:35.877265 14855 net.cpp:91] Creating Layer inception_4e/3x3
I0403 15:55:35.877282 14855 net.cpp:425] inception_4e/3x3 <- inception_4e/3x3_reduce
I0403 15:55:35.877302 14855 net.cpp:399] inception_4e/3x3 -> inception_4e/3x3
I0403 15:55:35.882184 14855 net.cpp:141] Setting up inception_4e/3x3
I0403 15:55:35.882227 14855 net.cpp:148] Top shape: 24 320 14 14 (1505280)
I0403 15:55:35.882244 14855 net.cpp:156] Memory required for data: 1230108192
I0403 15:55:35.882262 14855 layer_factory.hpp:77] Creating layer inception_4e/relu_3x3
I0403 15:55:35.882282 14855 net.cpp:91] Creating Layer inception_4e/relu_3x3
I0403 15:55:35.882299 14855 net.cpp:425] inception_4e/relu_3x3 <- inception_4e/3x3
I0403 15:55:35.882316 14855 net.cpp:386] inception_4e/relu_3x3 -> inception_4e/3x3 (in-place)
I0403 15:55:35.882609 14855 net.cpp:141] Setting up inception_4e/relu_3x3
I0403 15:55:35.882637 14855 net.cpp:148] Top shape: 24 320 14 14 (1505280)
I0403 15:55:35.882652 14855 net.cpp:156] Memory required for data: 1236129312
I0403 15:55:35.882665 14855 layer_factory.hpp:77] Creating layer inception_4e/5x5_reduce
I0403 15:55:35.882689 14855 net.cpp:91] Creating Layer inception_4e/5x5_reduce
I0403 15:55:35.882709 14855 net.cpp:425] inception_4e/5x5_reduce <- inception_4d/output_inception_4d/output_0_split_3
I0403 15:55:35.882730 14855 net.cpp:399] inception_4e/5x5_reduce -> inception_4e/5x5_reduce
I0403 15:55:35.883787 14855 net.cpp:141] Setting up inception_4e/5x5_reduce
I0403 15:55:35.883815 14855 net.cpp:148] Top shape: 24 32 14 14 (150528)
I0403 15:55:35.883829 14855 net.cpp:156] Memory required for data: 1236731424
I0403 15:55:35.883846 14855 layer_factory.hpp:77] Creating layer inception_4e/relu_5x5_reduce
I0403 15:55:35.883864 14855 net.cpp:91] Creating Layer inception_4e/relu_5x5_reduce
I0403 15:55:35.883879 14855 net.cpp:425] inception_4e/relu_5x5_reduce <- inception_4e/5x5_reduce
I0403 15:55:35.883898 14855 net.cpp:386] inception_4e/relu_5x5_reduce -> inception_4e/5x5_reduce (in-place)
I0403 15:55:35.884194 14855 net.cpp:141] Setting up inception_4e/relu_5x5_reduce
I0403 15:55:35.884222 14855 net.cpp:148] Top shape: 24 32 14 14 (150528)
I0403 15:55:35.884237 14855 net.cpp:156] Memory required for data: 1237333536
I0403 15:55:35.884251 14855 layer_factory.hpp:77] Creating layer inception_4e/5x5
I0403 15:55:35.884289 14855 net.cpp:91] Creating Layer inception_4e/5x5
I0403 15:55:35.884307 14855 net.cpp:425] inception_4e/5x5 <- inception_4e/5x5_reduce
I0403 15:55:35.884325 14855 net.cpp:399] inception_4e/5x5 -> inception_4e/5x5
I0403 15:55:35.886128 14855 net.cpp:141] Setting up inception_4e/5x5
I0403 15:55:35.886158 14855 net.cpp:148] Top shape: 24 128 14 14 (602112)
I0403 15:55:35.886178 14855 net.cpp:156] Memory required for data: 1239741984
I0403 15:55:35.886198 14855 layer_factory.hpp:77] Creating layer inception_4e/relu_5x5
I0403 15:55:35.886216 14855 net.cpp:91] Creating Layer inception_4e/relu_5x5
I0403 15:55:35.886232 14855 net.cpp:425] inception_4e/relu_5x5 <- inception_4e/5x5
I0403 15:55:35.886247 14855 net.cpp:386] inception_4e/relu_5x5 -> inception_4e/5x5 (in-place)
I0403 15:55:35.886440 14855 net.cpp:141] Setting up inception_4e/relu_5x5
I0403 15:55:35.886468 14855 net.cpp:148] Top shape: 24 128 14 14 (602112)
I0403 15:55:35.886483 14855 net.cpp:156] Memory required for data: 1242150432
I0403 15:55:35.886497 14855 layer_factory.hpp:77] Creating layer inception_4e/pool
I0403 15:55:35.886515 14855 net.cpp:91] Creating Layer inception_4e/pool
I0403 15:55:35.886531 14855 net.cpp:425] inception_4e/pool <- inception_4d/output_inception_4d/output_0_split_4
I0403 15:55:35.886550 14855 net.cpp:399] inception_4e/pool -> inception_4e/pool
I0403 15:55:35.886618 14855 net.cpp:141] Setting up inception_4e/pool
I0403 15:55:35.886644 14855 net.cpp:148] Top shape: 24 528 14 14 (2483712)
I0403 15:55:35.886661 14855 net.cpp:156] Memory required for data: 1252085280
I0403 15:55:35.886674 14855 layer_factory.hpp:77] Creating layer inception_4e/pool_proj
I0403 15:55:35.886695 14855 net.cpp:91] Creating Layer inception_4e/pool_proj
I0403 15:55:35.886713 14855 net.cpp:425] inception_4e/pool_proj <- inception_4e/pool
I0403 15:55:35.886729 14855 net.cpp:399] inception_4e/pool_proj -> inception_4e/pool_proj
I0403 15:55:35.888207 14855 net.cpp:141] Setting up inception_4e/pool_proj
I0403 15:55:35.888236 14855 net.cpp:148] Top shape: 24 128 14 14 (602112)
I0403 15:55:35.888265 14855 net.cpp:156] Memory required for data: 1254493728
I0403 15:55:35.888284 14855 layer_factory.hpp:77] Creating layer inception_4e/relu_pool_proj
I0403 15:55:35.888304 14855 net.cpp:91] Creating Layer inception_4e/relu_pool_proj
I0403 15:55:35.888320 14855 net.cpp:425] inception_4e/relu_pool_proj <- inception_4e/pool_proj
I0403 15:55:35.888337 14855 net.cpp:386] inception_4e/relu_pool_proj -> inception_4e/pool_proj (in-place)
I0403 15:55:35.888623 14855 net.cpp:141] Setting up inception_4e/relu_pool_proj
I0403 15:55:35.888649 14855 net.cpp:148] Top shape: 24 128 14 14 (602112)
I0403 15:55:35.888664 14855 net.cpp:156] Memory required for data: 1256902176
I0403 15:55:35.888677 14855 layer_factory.hpp:77] Creating layer inception_4e/output
I0403 15:55:35.888697 14855 net.cpp:91] Creating Layer inception_4e/output
I0403 15:55:35.888712 14855 net.cpp:425] inception_4e/output <- inception_4e/1x1
I0403 15:55:35.888728 14855 net.cpp:425] inception_4e/output <- inception_4e/3x3
I0403 15:55:35.888742 14855 net.cpp:425] inception_4e/output <- inception_4e/5x5
I0403 15:55:35.888757 14855 net.cpp:425] inception_4e/output <- inception_4e/pool_proj
I0403 15:55:35.888773 14855 net.cpp:399] inception_4e/output -> inception_4e/output
I0403 15:55:35.888823 14855 net.cpp:141] Setting up inception_4e/output
I0403 15:55:35.888847 14855 net.cpp:148] Top shape: 24 832 14 14 (3913728)
I0403 15:55:35.888861 14855 net.cpp:156] Memory required for data: 1272557088
I0403 15:55:35.888876 14855 layer_factory.hpp:77] Creating layer pool4/3x3_s2
I0403 15:55:35.888893 14855 net.cpp:91] Creating Layer pool4/3x3_s2
I0403 15:55:35.888911 14855 net.cpp:425] pool4/3x3_s2 <- inception_4e/output
I0403 15:55:35.888928 14855 net.cpp:399] pool4/3x3_s2 -> pool4/3x3_s2
I0403 15:55:35.888998 14855 net.cpp:141] Setting up pool4/3x3_s2
I0403 15:55:35.889022 14855 net.cpp:148] Top shape: 24 832 7 7 (978432)
I0403 15:55:35.889036 14855 net.cpp:156] Memory required for data: 1276470816
I0403 15:55:35.889050 14855 layer_factory.hpp:77] Creating layer pool4/3x3_s2_pool4/3x3_s2_0_split
I0403 15:55:35.889065 14855 net.cpp:91] Creating Layer pool4/3x3_s2_pool4/3x3_s2_0_split
I0403 15:55:35.889080 14855 net.cpp:425] pool4/3x3_s2_pool4/3x3_s2_0_split <- pool4/3x3_s2
I0403 15:55:35.889102 14855 net.cpp:399] pool4/3x3_s2_pool4/3x3_s2_0_split -> pool4/3x3_s2_pool4/3x3_s2_0_split_0
I0403 15:55:35.889123 14855 net.cpp:399] pool4/3x3_s2_pool4/3x3_s2_0_split -> pool4/3x3_s2_pool4/3x3_s2_0_split_1
I0403 15:55:35.889144 14855 net.cpp:399] pool4/3x3_s2_pool4/3x3_s2_0_split -> pool4/3x3_s2_pool4/3x3_s2_0_split_2
I0403 15:55:35.889163 14855 net.cpp:399] pool4/3x3_s2_pool4/3x3_s2_0_split -> pool4/3x3_s2_pool4/3x3_s2_0_split_3
I0403 15:55:35.889255 14855 net.cpp:141] Setting up pool4/3x3_s2_pool4/3x3_s2_0_split
I0403 15:55:35.889277 14855 net.cpp:148] Top shape: 24 832 7 7 (978432)
I0403 15:55:35.889292 14855 net.cpp:148] Top shape: 24 832 7 7 (978432)
I0403 15:55:35.889307 14855 net.cpp:148] Top shape: 24 832 7 7 (978432)
I0403 15:55:35.889322 14855 net.cpp:148] Top shape: 24 832 7 7 (978432)
I0403 15:55:35.889335 14855 net.cpp:156] Memory required for data: 1292125728
I0403 15:55:35.889348 14855 layer_factory.hpp:77] Creating layer inception_5a/1x1
I0403 15:55:35.889370 14855 net.cpp:91] Creating Layer inception_5a/1x1
I0403 15:55:35.889389 14855 net.cpp:425] inception_5a/1x1 <- pool4/3x3_s2_pool4/3x3_s2_0_split_0
I0403 15:55:35.889407 14855 net.cpp:399] inception_5a/1x1 -> inception_5a/1x1
I0403 15:55:35.892194 14855 net.cpp:141] Setting up inception_5a/1x1
I0403 15:55:35.892226 14855 net.cpp:148] Top shape: 24 256 7 7 (301056)
I0403 15:55:35.892242 14855 net.cpp:156] Memory required for data: 1293329952
I0403 15:55:35.892261 14855 layer_factory.hpp:77] Creating layer inception_5a/relu_1x1
I0403 15:55:35.892277 14855 net.cpp:91] Creating Layer inception_5a/relu_1x1
I0403 15:55:35.892292 14855 net.cpp:425] inception_5a/relu_1x1 <- inception_5a/1x1
I0403 15:55:35.892312 14855 net.cpp:386] inception_5a/relu_1x1 -> inception_5a/1x1 (in-place)
I0403 15:55:35.892619 14855 net.cpp:141] Setting up inception_5a/relu_1x1
I0403 15:55:35.892647 14855 net.cpp:148] Top shape: 24 256 7 7 (301056)
I0403 15:55:35.892663 14855 net.cpp:156] Memory required for data: 1294534176
I0403 15:55:35.892678 14855 layer_factory.hpp:77] Creating layer inception_5a/3x3_reduce
I0403 15:55:35.892699 14855 net.cpp:91] Creating Layer inception_5a/3x3_reduce
I0403 15:55:35.892717 14855 net.cpp:425] inception_5a/3x3_reduce <- pool4/3x3_s2_pool4/3x3_s2_0_split_1
I0403 15:55:35.892735 14855 net.cpp:399] inception_5a/3x3_reduce -> inception_5a/3x3_reduce
I0403 15:55:35.895156 14855 net.cpp:141] Setting up inception_5a/3x3_reduce
I0403 15:55:35.895186 14855 net.cpp:148] Top shape: 24 160 7 7 (188160)
I0403 15:55:35.895203 14855 net.cpp:156] Memory required for data: 1295286816
I0403 15:55:35.895221 14855 layer_factory.hpp:77] Creating layer inception_5a/relu_3x3_reduce
I0403 15:55:35.895242 14855 net.cpp:91] Creating Layer inception_5a/relu_3x3_reduce
I0403 15:55:35.895259 14855 net.cpp:425] inception_5a/relu_3x3_reduce <- inception_5a/3x3_reduce
I0403 15:55:35.895277 14855 net.cpp:386] inception_5a/relu_3x3_reduce -> inception_5a/3x3_reduce (in-place)
I0403 15:55:35.895460 14855 net.cpp:141] Setting up inception_5a/relu_3x3_reduce
I0403 15:55:35.895488 14855 net.cpp:148] Top shape: 24 160 7 7 (188160)
I0403 15:55:35.895503 14855 net.cpp:156] Memory required for data: 1296039456
I0403 15:55:35.895516 14855 layer_factory.hpp:77] Creating layer inception_5a/3x3
I0403 15:55:35.895537 14855 net.cpp:91] Creating Layer inception_5a/3x3
I0403 15:55:35.895555 14855 net.cpp:425] inception_5a/3x3 <- inception_5a/3x3_reduce
I0403 15:55:35.895572 14855 net.cpp:399] inception_5a/3x3 -> inception_5a/3x3
I0403 15:55:35.900470 14855 net.cpp:141] Setting up inception_5a/3x3
I0403 15:55:35.900501 14855 net.cpp:148] Top shape: 24 320 7 7 (376320)
I0403 15:55:35.900517 14855 net.cpp:156] Memory required for data: 1297544736
I0403 15:55:35.900535 14855 layer_factory.hpp:77] Creating layer inception_5a/relu_3x3
I0403 15:55:35.900553 14855 net.cpp:91] Creating Layer inception_5a/relu_3x3
I0403 15:55:35.900569 14855 net.cpp:425] inception_5a/relu_3x3 <- inception_5a/3x3
I0403 15:55:35.900586 14855 net.cpp:386] inception_5a/relu_3x3 -> inception_5a/3x3 (in-place)
I0403 15:55:35.900874 14855 net.cpp:141] Setting up inception_5a/relu_3x3
I0403 15:55:35.900902 14855 net.cpp:148] Top shape: 24 320 7 7 (376320)
I0403 15:55:35.900918 14855 net.cpp:156] Memory required for data: 1299050016
I0403 15:55:35.900931 14855 layer_factory.hpp:77] Creating layer inception_5a/5x5_reduce
I0403 15:55:35.900954 14855 net.cpp:91] Creating Layer inception_5a/5x5_reduce
I0403 15:55:35.900970 14855 net.cpp:425] inception_5a/5x5_reduce <- pool4/3x3_s2_pool4/3x3_s2_0_split_2
I0403 15:55:35.900990 14855 net.cpp:399] inception_5a/5x5_reduce -> inception_5a/5x5_reduce
I0403 15:55:35.902142 14855 net.cpp:141] Setting up inception_5a/5x5_reduce
I0403 15:55:35.902171 14855 net.cpp:148] Top shape: 24 32 7 7 (37632)
I0403 15:55:35.902189 14855 net.cpp:156] Memory required for data: 1299200544
I0403 15:55:35.902206 14855 layer_factory.hpp:77] Creating layer inception_5a/relu_5x5_reduce
I0403 15:55:35.902223 14855 net.cpp:91] Creating Layer inception_5a/relu_5x5_reduce
I0403 15:55:35.902237 14855 net.cpp:425] inception_5a/relu_5x5_reduce <- inception_5a/5x5_reduce
I0403 15:55:35.902256 14855 net.cpp:386] inception_5a/relu_5x5_reduce -> inception_5a/5x5_reduce (in-place)
I0403 15:55:35.902544 14855 net.cpp:141] Setting up inception_5a/relu_5x5_reduce
I0403 15:55:35.902575 14855 net.cpp:148] Top shape: 24 32 7 7 (37632)
I0403 15:55:35.902590 14855 net.cpp:156] Memory required for data: 1299351072
I0403 15:55:35.902604 14855 layer_factory.hpp:77] Creating layer inception_5a/5x5
I0403 15:55:35.902627 14855 net.cpp:91] Creating Layer inception_5a/5x5
I0403 15:55:35.902645 14855 net.cpp:425] inception_5a/5x5 <- inception_5a/5x5_reduce
I0403 15:55:35.902665 14855 net.cpp:399] inception_5a/5x5 -> inception_5a/5x5
I0403 15:55:35.904376 14855 net.cpp:141] Setting up inception_5a/5x5
I0403 15:55:35.904418 14855 net.cpp:148] Top shape: 24 128 7 7 (150528)
I0403 15:55:35.904448 14855 net.cpp:156] Memory required for data: 1299953184
I0403 15:55:35.904465 14855 layer_factory.hpp:77] Creating layer inception_5a/relu_5x5
I0403 15:55:35.904482 14855 net.cpp:91] Creating Layer inception_5a/relu_5x5
I0403 15:55:35.904497 14855 net.cpp:425] inception_5a/relu_5x5 <- inception_5a/5x5
I0403 15:55:35.904513 14855 net.cpp:386] inception_5a/relu_5x5 -> inception_5a/5x5 (in-place)
I0403 15:55:35.904702 14855 net.cpp:141] Setting up inception_5a/relu_5x5
I0403 15:55:35.904726 14855 net.cpp:148] Top shape: 24 128 7 7 (150528)
I0403 15:55:35.904739 14855 net.cpp:156] Memory required for data: 1300555296
I0403 15:55:35.904752 14855 layer_factory.hpp:77] Creating layer inception_5a/pool
I0403 15:55:35.904768 14855 net.cpp:91] Creating Layer inception_5a/pool
I0403 15:55:35.904783 14855 net.cpp:425] inception_5a/pool <- pool4/3x3_s2_pool4/3x3_s2_0_split_3
I0403 15:55:35.904803 14855 net.cpp:399] inception_5a/pool -> inception_5a/pool
I0403 15:55:35.904870 14855 net.cpp:141] Setting up inception_5a/pool
I0403 15:55:35.904896 14855 net.cpp:148] Top shape: 24 832 7 7 (978432)
I0403 15:55:35.904911 14855 net.cpp:156] Memory required for data: 1304469024
I0403 15:55:35.904924 14855 layer_factory.hpp:77] Creating layer inception_5a/pool_proj
I0403 15:55:35.904944 14855 net.cpp:91] Creating Layer inception_5a/pool_proj
I0403 15:55:35.904961 14855 net.cpp:425] inception_5a/pool_proj <- inception_5a/pool
I0403 15:55:35.904978 14855 net.cpp:399] inception_5a/pool_proj -> inception_5a/pool_proj
I0403 15:55:35.907223 14855 net.cpp:141] Setting up inception_5a/pool_proj
I0403 15:55:35.907251 14855 net.cpp:148] Top shape: 24 128 7 7 (150528)
I0403 15:55:35.907266 14855 net.cpp:156] Memory required for data: 1305071136
I0403 15:55:35.907284 14855 layer_factory.hpp:77] Creating layer inception_5a/relu_pool_proj
I0403 15:55:35.907302 14855 net.cpp:91] Creating Layer inception_5a/relu_pool_proj
I0403 15:55:35.907318 14855 net.cpp:425] inception_5a/relu_pool_proj <- inception_5a/pool_proj
I0403 15:55:35.907335 14855 net.cpp:386] inception_5a/relu_pool_proj -> inception_5a/pool_proj (in-place)
I0403 15:55:35.907629 14855 net.cpp:141] Setting up inception_5a/relu_pool_proj
I0403 15:55:35.907655 14855 net.cpp:148] Top shape: 24 128 7 7 (150528)
I0403 15:55:35.907670 14855 net.cpp:156] Memory required for data: 1305673248
I0403 15:55:35.907683 14855 layer_factory.hpp:77] Creating layer inception_5a/output
I0403 15:55:35.907701 14855 net.cpp:91] Creating Layer inception_5a/output
I0403 15:55:35.907718 14855 net.cpp:425] inception_5a/output <- inception_5a/1x1
I0403 15:55:35.907733 14855 net.cpp:425] inception_5a/output <- inception_5a/3x3
I0403 15:55:35.907748 14855 net.cpp:425] inception_5a/output <- inception_5a/5x5
I0403 15:55:35.907764 14855 net.cpp:425] inception_5a/output <- inception_5a/pool_proj
I0403 15:55:35.907780 14855 net.cpp:399] inception_5a/output -> inception_5a/output
I0403 15:55:35.907829 14855 net.cpp:141] Setting up inception_5a/output
I0403 15:55:35.907851 14855 net.cpp:148] Top shape: 24 832 7 7 (978432)
I0403 15:55:35.907866 14855 net.cpp:156] Memory required for data: 1309586976
I0403 15:55:35.907878 14855 layer_factory.hpp:77] Creating layer inception_5a/output_inception_5a/output_0_split
I0403 15:55:35.907894 14855 net.cpp:91] Creating Layer inception_5a/output_inception_5a/output_0_split
I0403 15:55:35.907908 14855 net.cpp:425] inception_5a/output_inception_5a/output_0_split <- inception_5a/output
I0403 15:55:35.907927 14855 net.cpp:399] inception_5a/output_inception_5a/output_0_split -> inception_5a/output_inception_5a/output_0_split_0
I0403 15:55:35.907946 14855 net.cpp:399] inception_5a/output_inception_5a/output_0_split -> inception_5a/output_inception_5a/output_0_split_1
I0403 15:55:35.907965 14855 net.cpp:399] inception_5a/output_inception_5a/output_0_split -> inception_5a/output_inception_5a/output_0_split_2
I0403 15:55:35.907985 14855 net.cpp:399] inception_5a/output_inception_5a/output_0_split -> inception_5a/output_inception_5a/output_0_split_3
I0403 15:55:35.908099 14855 net.cpp:141] Setting up inception_5a/output_inception_5a/output_0_split
I0403 15:55:35.908125 14855 net.cpp:148] Top shape: 24 832 7 7 (978432)
I0403 15:55:35.908141 14855 net.cpp:148] Top shape: 24 832 7 7 (978432)
I0403 15:55:35.908155 14855 net.cpp:148] Top shape: 24 832 7 7 (978432)
I0403 15:55:35.908179 14855 net.cpp:148] Top shape: 24 832 7 7 (978432)
I0403 15:55:35.908193 14855 net.cpp:156] Memory required for data: 1325241888
I0403 15:55:35.908206 14855 layer_factory.hpp:77] Creating layer inception_5b/1x1
I0403 15:55:35.908228 14855 net.cpp:91] Creating Layer inception_5b/1x1
I0403 15:55:35.908246 14855 net.cpp:425] inception_5b/1x1 <- inception_5a/output_inception_5a/output_0_split_0
I0403 15:55:35.908263 14855 net.cpp:399] inception_5b/1x1 -> inception_5b/1x1
I0403 15:55:35.911943 14855 net.cpp:141] Setting up inception_5b/1x1
I0403 15:55:35.911972 14855 net.cpp:148] Top shape: 24 384 7 7 (451584)
I0403 15:55:35.911988 14855 net.cpp:156] Memory required for data: 1327048224
I0403 15:55:35.912004 14855 layer_factory.hpp:77] Creating layer inception_5b/relu_1x1
I0403 15:55:35.912024 14855 net.cpp:91] Creating Layer inception_5b/relu_1x1
I0403 15:55:35.912040 14855 net.cpp:425] inception_5b/relu_1x1 <- inception_5b/1x1
I0403 15:55:35.912056 14855 net.cpp:386] inception_5b/relu_1x1 -> inception_5b/1x1 (in-place)
I0403 15:55:35.912356 14855 net.cpp:141] Setting up inception_5b/relu_1x1
I0403 15:55:35.912382 14855 net.cpp:148] Top shape: 24 384 7 7 (451584)
I0403 15:55:35.912396 14855 net.cpp:156] Memory required for data: 1328854560
I0403 15:55:35.912410 14855 layer_factory.hpp:77] Creating layer inception_5b/3x3_reduce
I0403 15:55:35.912431 14855 net.cpp:91] Creating Layer inception_5b/3x3_reduce
I0403 15:55:35.912448 14855 net.cpp:425] inception_5b/3x3_reduce <- inception_5a/output_inception_5a/output_0_split_1
I0403 15:55:35.912468 14855 net.cpp:399] inception_5b/3x3_reduce -> inception_5b/3x3_reduce
I0403 15:55:35.915109 14855 net.cpp:141] Setting up inception_5b/3x3_reduce
I0403 15:55:35.915138 14855 net.cpp:148] Top shape: 24 192 7 7 (225792)
I0403 15:55:35.915153 14855 net.cpp:156] Memory required for data: 1329757728
I0403 15:55:35.915171 14855 layer_factory.hpp:77] Creating layer inception_5b/relu_3x3_reduce
I0403 15:55:35.915190 14855 net.cpp:91] Creating Layer inception_5b/relu_3x3_reduce
I0403 15:55:35.915206 14855 net.cpp:425] inception_5b/relu_3x3_reduce <- inception_5b/3x3_reduce
I0403 15:55:35.915222 14855 net.cpp:386] inception_5b/relu_3x3_reduce -> inception_5b/3x3_reduce (in-place)
I0403 15:55:35.915411 14855 net.cpp:141] Setting up inception_5b/relu_3x3_reduce
I0403 15:55:35.915438 14855 net.cpp:148] Top shape: 24 192 7 7 (225792)
I0403 15:55:35.915452 14855 net.cpp:156] Memory required for data: 1330660896
I0403 15:55:35.915467 14855 layer_factory.hpp:77] Creating layer inception_5b/3x3
I0403 15:55:35.915488 14855 net.cpp:91] Creating Layer inception_5b/3x3
I0403 15:55:35.915504 14855 net.cpp:425] inception_5b/3x3 <- inception_5b/3x3_reduce
I0403 15:55:35.915523 14855 net.cpp:399] inception_5b/3x3 -> inception_5b/3x3
I0403 15:55:35.922135 14855 net.cpp:141] Setting up inception_5b/3x3
I0403 15:55:35.922164 14855 net.cpp:148] Top shape: 24 384 7 7 (451584)
I0403 15:55:35.922179 14855 net.cpp:156] Memory required for data: 1332467232
I0403 15:55:35.922199 14855 layer_factory.hpp:77] Creating layer inception_5b/relu_3x3
I0403 15:55:35.922219 14855 net.cpp:91] Creating Layer inception_5b/relu_3x3
I0403 15:55:35.922235 14855 net.cpp:425] inception_5b/relu_3x3 <- inception_5b/3x3
I0403 15:55:35.922252 14855 net.cpp:386] inception_5b/relu_3x3 -> inception_5b/3x3 (in-place)
I0403 15:55:35.922565 14855 net.cpp:141] Setting up inception_5b/relu_3x3
I0403 15:55:35.922590 14855 net.cpp:148] Top shape: 24 384 7 7 (451584)
I0403 15:55:35.922605 14855 net.cpp:156] Memory required for data: 1334273568
I0403 15:55:35.922617 14855 layer_factory.hpp:77] Creating layer inception_5b/5x5_reduce
I0403 15:55:35.922657 14855 net.cpp:91] Creating Layer inception_5b/5x5_reduce
I0403 15:55:35.922674 14855 net.cpp:425] inception_5b/5x5_reduce <- inception_5a/output_inception_5a/output_0_split_2
I0403 15:55:35.922693 14855 net.cpp:399] inception_5b/5x5_reduce -> inception_5b/5x5_reduce
I0403 15:55:35.923954 14855 net.cpp:141] Setting up inception_5b/5x5_reduce
I0403 15:55:35.923982 14855 net.cpp:148] Top shape: 24 48 7 7 (56448)
I0403 15:55:35.923996 14855 net.cpp:156] Memory required for data: 1334499360
I0403 15:55:35.924013 14855 layer_factory.hpp:77] Creating layer inception_5b/relu_5x5_reduce
I0403 15:55:35.924033 14855 net.cpp:91] Creating Layer inception_5b/relu_5x5_reduce
I0403 15:55:35.924049 14855 net.cpp:425] inception_5b/relu_5x5_reduce <- inception_5b/5x5_reduce
I0403 15:55:35.924065 14855 net.cpp:386] inception_5b/relu_5x5_reduce -> inception_5b/5x5_reduce (in-place)
I0403 15:55:35.924438 14855 net.cpp:141] Setting up inception_5b/relu_5x5_reduce
I0403 15:55:35.924463 14855 net.cpp:148] Top shape: 24 48 7 7 (56448)
I0403 15:55:35.924477 14855 net.cpp:156] Memory required for data: 1334725152
I0403 15:55:35.924491 14855 layer_factory.hpp:77] Creating layer inception_5b/5x5
I0403 15:55:35.924510 14855 net.cpp:91] Creating Layer inception_5b/5x5
I0403 15:55:35.924525 14855 net.cpp:425] inception_5b/5x5 <- inception_5b/5x5_reduce
I0403 15:55:35.924542 14855 net.cpp:399] inception_5b/5x5 -> inception_5b/5x5
I0403 15:55:35.926553 14855 net.cpp:141] Setting up inception_5b/5x5
I0403 15:55:35.926581 14855 net.cpp:148] Top shape: 24 128 7 7 (150528)
I0403 15:55:35.926597 14855 net.cpp:156] Memory required for data: 1335327264
I0403 15:55:35.926614 14855 layer_factory.hpp:77] Creating layer inception_5b/relu_5x5
I0403 15:55:35.926631 14855 net.cpp:91] Creating Layer inception_5b/relu_5x5
I0403 15:55:35.926647 14855 net.cpp:425] inception_5b/relu_5x5 <- inception_5b/5x5
I0403 15:55:35.926666 14855 net.cpp:386] inception_5b/relu_5x5 -> inception_5b/5x5 (in-place)
I0403 15:55:35.926856 14855 net.cpp:141] Setting up inception_5b/relu_5x5
I0403 15:55:35.926880 14855 net.cpp:148] Top shape: 24 128 7 7 (150528)
I0403 15:55:35.926893 14855 net.cpp:156] Memory required for data: 1335929376
I0403 15:55:35.926906 14855 layer_factory.hpp:77] Creating layer inception_5b/pool
I0403 15:55:35.926923 14855 net.cpp:91] Creating Layer inception_5b/pool
I0403 15:55:35.926939 14855 net.cpp:425] inception_5b/pool <- inception_5a/output_inception_5a/output_0_split_3
I0403 15:55:35.926957 14855 net.cpp:399] inception_5b/pool -> inception_5b/pool
I0403 15:55:35.927028 14855 net.cpp:141] Setting up inception_5b/pool
I0403 15:55:35.927052 14855 net.cpp:148] Top shape: 24 832 7 7 (978432)
I0403 15:55:35.927064 14855 net.cpp:156] Memory required for data: 1339843104
I0403 15:55:35.927078 14855 layer_factory.hpp:77] Creating layer inception_5b/pool_proj
I0403 15:55:35.927103 14855 net.cpp:91] Creating Layer inception_5b/pool_proj
I0403 15:55:35.927121 14855 net.cpp:425] inception_5b/pool_proj <- inception_5b/pool
I0403 15:55:35.927139 14855 net.cpp:399] inception_5b/pool_proj -> inception_5b/pool_proj
I0403 15:55:35.929421 14855 net.cpp:141] Setting up inception_5b/pool_proj
I0403 15:55:35.929452 14855 net.cpp:148] Top shape: 24 128 7 7 (150528)
I0403 15:55:35.929468 14855 net.cpp:156] Memory required for data: 1340445216
I0403 15:55:35.929486 14855 layer_factory.hpp:77] Creating layer inception_5b/relu_pool_proj
I0403 15:55:35.929503 14855 net.cpp:91] Creating Layer inception_5b/relu_pool_proj
I0403 15:55:35.929519 14855 net.cpp:425] inception_5b/relu_pool_proj <- inception_5b/pool_proj
I0403 15:55:35.929536 14855 net.cpp:386] inception_5b/relu_pool_proj -> inception_5b/pool_proj (in-place)
I0403 15:55:35.929839 14855 net.cpp:141] Setting up inception_5b/relu_pool_proj
I0403 15:55:35.929868 14855 net.cpp:148] Top shape: 24 128 7 7 (150528)
I0403 15:55:35.929883 14855 net.cpp:156] Memory required for data: 1341047328
I0403 15:55:35.929898 14855 layer_factory.hpp:77] Creating layer inception_5b/output
I0403 15:55:35.929913 14855 net.cpp:91] Creating Layer inception_5b/output
I0403 15:55:35.929944 14855 net.cpp:425] inception_5b/output <- inception_5b/1x1
I0403 15:55:35.929962 14855 net.cpp:425] inception_5b/output <- inception_5b/3x3
I0403 15:55:35.929978 14855 net.cpp:425] inception_5b/output <- inception_5b/5x5
I0403 15:55:35.929994 14855 net.cpp:425] inception_5b/output <- inception_5b/pool_proj
I0403 15:55:35.930011 14855 net.cpp:399] inception_5b/output -> inception_5b/output
I0403 15:55:35.930063 14855 net.cpp:141] Setting up inception_5b/output
I0403 15:55:35.930086 14855 net.cpp:148] Top shape: 24 1024 7 7 (1204224)
I0403 15:55:35.930105 14855 net.cpp:156] Memory required for data: 1345864224
I0403 15:55:35.930120 14855 layer_factory.hpp:77] Creating layer pool5/7x7_s1
I0403 15:55:35.930140 14855 net.cpp:91] Creating Layer pool5/7x7_s1
I0403 15:55:35.930155 14855 net.cpp:425] pool5/7x7_s1 <- inception_5b/output
I0403 15:55:35.930172 14855 net.cpp:399] pool5/7x7_s1 -> pool5/7x7_s1
I0403 15:55:35.930390 14855 net.cpp:141] Setting up pool5/7x7_s1
I0403 15:55:35.930418 14855 net.cpp:148] Top shape: 24 1024 1 1 (24576)
I0403 15:55:35.930433 14855 net.cpp:156] Memory required for data: 1345962528
I0403 15:55:35.930447 14855 layer_factory.hpp:77] Creating layer pool5/drop_7x7_s1
I0403 15:55:35.930464 14855 net.cpp:91] Creating Layer pool5/drop_7x7_s1
I0403 15:55:35.930480 14855 net.cpp:425] pool5/drop_7x7_s1 <- pool5/7x7_s1
I0403 15:55:35.930495 14855 net.cpp:386] pool5/drop_7x7_s1 -> pool5/7x7_s1 (in-place)
I0403 15:55:35.930546 14855 net.cpp:141] Setting up pool5/drop_7x7_s1
I0403 15:55:35.930569 14855 net.cpp:148] Top shape: 24 1024 1 1 (24576)
I0403 15:55:35.930583 14855 net.cpp:156] Memory required for data: 1346060832
I0403 15:55:35.930598 14855 layer_factory.hpp:77] Creating layer loss3/classifier_plantvillage
I0403 15:55:35.930618 14855 net.cpp:91] Creating Layer loss3/classifier_plantvillage
I0403 15:55:35.930634 14855 net.cpp:425] loss3/classifier_plantvillage <- pool5/7x7_s1
I0403 15:55:35.930650 14855 net.cpp:399] loss3/classifier_plantvillage -> loss3/classifier_plantvillage
I0403 15:55:35.931077 14855 net.cpp:141] Setting up loss3/classifier_plantvillage
I0403 15:55:35.931105 14855 net.cpp:148] Top shape: 24 38 (912)
I0403 15:55:35.931120 14855 net.cpp:156] Memory required for data: 1346064480
I0403 15:55:35.931138 14855 layer_factory.hpp:77] Creating layer loss3/classifier_plantvillage_loss3/classifier_plantvillage_0_split
I0403 15:55:35.931154 14855 net.cpp:91] Creating Layer loss3/classifier_plantvillage_loss3/classifier_plantvillage_0_split
I0403 15:55:35.931169 14855 net.cpp:425] loss3/classifier_plantvillage_loss3/classifier_plantvillage_0_split <- loss3/classifier_plantvillage
I0403 15:55:35.931190 14855 net.cpp:399] loss3/classifier_plantvillage_loss3/classifier_plantvillage_0_split -> loss3/classifier_plantvillage_loss3/classifier_plantvillage_0_split_0
I0403 15:55:35.931210 14855 net.cpp:399] loss3/classifier_plantvillage_loss3/classifier_plantvillage_0_split -> loss3/classifier_plantvillage_loss3/classifier_plantvillage_0_split_1
I0403 15:55:35.931231 14855 net.cpp:399] loss3/classifier_plantvillage_loss3/classifier_plantvillage_0_split -> loss3/classifier_plantvillage_loss3/classifier_plantvillage_0_split_2
I0403 15:55:35.931249 14855 net.cpp:399] loss3/classifier_plantvillage_loss3/classifier_plantvillage_0_split -> loss3/classifier_plantvillage_loss3/classifier_plantvillage_0_split_3
I0403 15:55:35.931354 14855 net.cpp:141] Setting up loss3/classifier_plantvillage_loss3/classifier_plantvillage_0_split
I0403 15:55:35.931375 14855 net.cpp:148] Top shape: 24 38 (912)
I0403 15:55:35.931391 14855 net.cpp:148] Top shape: 24 38 (912)
I0403 15:55:35.931406 14855 net.cpp:148] Top shape: 24 38 (912)
I0403 15:55:35.931421 14855 net.cpp:148] Top shape: 24 38 (912)
I0403 15:55:35.931433 14855 net.cpp:156] Memory required for data: 1346079072
I0403 15:55:35.931447 14855 layer_factory.hpp:77] Creating layer loss1/loss
I0403 15:55:35.931468 14855 net.cpp:91] Creating Layer loss1/loss
I0403 15:55:35.931485 14855 net.cpp:425] loss1/loss <- loss1/classifier_plantvillage_loss1/classifier_plantvillage_0_split_0
I0403 15:55:35.931515 14855 net.cpp:425] loss1/loss <- label_data_1_split_0
…
