…
I0403 15:51:20.388608 14613 net.cpp:313] The NetState phase (1) differed from the phase (0) specified by a rule in layer data
I0403 15:51:20.389822 14613 net.cpp:49] Initializing net from parameters: 
state {
  phase: TEST
}
layer {
  name: "data"
  type: "Data"
  top: "data"
  top: "label"
  include {
    phase: TEST
  }
  transform_param {
    mirror: false
    crop_size: 224
    mean_file: "/home/mohanty/data/final_dataset/lmdb/color-80-20/mean.binaryproto"
  }
  data_param {
    source: "/home/mohanty/data/final_dataset/lmdb/color-80-20/test_db"
    batch_size: 24
    backend: LMDB
  }
}
layer {
  name: "conv1/7x7_s2"
  type: "Convolution"
  bottom: "data"
  top: "conv1/7x7_s2"
  param {
    lr_mult: 1
    decay_mult: 1
  }
  param {
    lr_mult: 2
    decay_mult: 0
  }
  convolution_param {
    num_output: 64
    pad: 3
    kernel_size: 7
    stride: 2
    weight_filler {
      type: "xavier"
      std: 0.1
    }
    bias_filler {
      type: "constant"
      value: 0.2
    }
  }
}
layer {
  name: "conv1/relu_7x7"
  type: "ReLU"
  bottom: "conv1/7x7_s2"
  top: "conv1/7x7_s2"
}
layer {
  name: "pool1/3x3_s2"
  type: "Pooling"
  bottom: "conv1/7x7_s2"
  top: "pool1/3x3_s2"
  pooling_param {
    pool: MAX
    kernel_size: 3
    stride: 2
  }
}
layer {
  name: "pool1/norm1"
  type: "LRN"
  bottom: "pool1/3x3_s2"
  top: "pool1/norm1"
  lrn_param {
    local_size: 5
    alpha: 0.0001
    beta: 0.75
  }
}
layer {
  name: "conv2/3x3_reduce"
  type: "Convolution"
  bottom: "pool1/norm1"
  top: "conv2/3x3_reduce"
  param {
    lr_mult: 1
    decay_mult: 1
  }
  param {
    lr_mult: 2
    decay_mult: 0
  }
  convolution_param {
    num_output: 64
    kernel_size: 1
    weight_filler {
      type: "xavier"
      std: 0.1
    }
    bias_filler {
      type: "constant"
      value: 0.2
    }
  }
}
layer {
  name: "conv2/relu_3x3_reduce"
  type: "ReLU"
  bottom: "conv2/3x3_reduce"
  top: "conv2/3x3_reduce"
}
layer {
  name: "conv2/3x3"
  type: "Convolution"
  bottom: "conv2/3x3_reduce"
  top: "conv2/3x3"
  param {
    lr_mult: 1
    decay_mult: 1
  }
  param {
    lr_mult: 2
    decay_mult: 0
  }
  convolution_param {
    num_output: 192
    pad: 1
    kernel_size: 3
    weight_filler {
      type: "xavier"
      std: 0.03
    }
    bias_filler {
      type: "constant"
      value: 0.2
    }
  }
}
layer {
  name: "conv2/relu_3x3"
  type: "ReLU"
  bottom: "conv2/3x3"
  top: "conv2/3x3"
}
layer {
  name: "conv2/norm2"
  type: "LRN"
  bottom: "conv2/3x3"
  top: "conv2/norm2"
  lrn_param {
    local_size: 5
    alpha: 0.0001
    beta: 0.75
  }
}
layer {
  name: "pool2/3x3_s2"
  type: "Pooling"
  bottom: "conv2/norm2"
  top: "pool2/3x3_s2"
  pooling_param {
    pool: MAX
    kernel_size: 3
    stride: 2
  }
}
layer {
  name: "inception_3a/1x1"
  type: "Convolution"
  bottom: "pool2/3x3_s2"
  top: "inception_3a/1x1"
  param {
    lr_mult: 1
    decay_mult: 1
  }
  param {
    lr_mult: 2
    decay_mult: 0
  }
  convolution_param {
    num_output: 64
    kernel_size: 1
    weight_filler {
      type: "xavier"
      std: 0.03
    }
    bias_filler {
      type: "constant"
      value: 0.2
    }
  }
}
layer {
  name: "inception_3a/relu_1x1"
  type: "ReLU"
  bottom: "inception_3a/1x1"
  top: "inception_3a/1x1"
}
layer {
  name: "inception_3a/3x3_reduce"
  type: "Convolution"
  bottom: "pool2/3x3_s2"
  top: "inception_3a/3x3_reduce"
  param {
    lr_mult: 1
    decay_mult: 1
  }
  param {
    lr_mult: 2
    decay_mult: 0
  }
  convolution_param {
    num_output: 96
    kernel_size: 1
    weight_filler {
      type: "xavier"
      std: 0.09
    }
    bias_filler {
      type: "constant"
      value: 0.2
    }
  }
}
layer {
  name: "inception_3a/relu_3x3_reduce"
  type: "ReLU"
  bottom: "inception_3a/3x3_reduce"
  top: "inception_3a/3x3_reduce"
}
layer {
  name: "inception_3a/3x3"
  type: "Convolution"
  bottom: "inception_3a/3x3_reduce"
  top: "inception_3a/3x3"
  param {
    lr_mult: 1
    decay_mult: 1
  }
  param {
    lr_mult: 2
    decay_mult: 0
  }
  convolution_param {
    num_output: 128
    pad: 1
    kernel_size: 3
    weight_filler {
      type: "xavier"
      std: 0.03
    }
    bias_filler {
      type: "constant"
      value: 0.2
    }
  }
}
layer {
  name: "inception_3a/relu_3x3"
  type: "ReLU"
  bottom: "inception_3a/3x3"
  top: "inception_3a/3x3"
}
layer {
  name: "inception_3a/5x5_reduce"
  type: "Convolution"
  bottom: "pool2/3x3_s2"
  top: "inception_3a/5x5_reduce"
  param {
    lr_mult: 1
    decay_mult: 1
  }
  param {
    lr_mult: 2
    decay_mult: 0
  }
  convolution_param {
    num_output: 16
    kernel_size: 1
    weight_filler {
      type: "xavier"
      std: 0.2
    }
    bias_filler {
      type: "constant"
      value: 0.2
    }
  }
}
layer {
  name: "inception_3a/relu_5x5_reduce"
  type: "ReLU"
  bottom: "inception_3a/5x5_reduce"
  top: "inception_3a/5x5_reduce"
}
layer {
  name: "inception_3a/5x5"
  type: "Convolution"
  bottom: "inception_3a/5x5_reduce"
  top: "inception_3a/5x5"
  param {
    lr_mult: 1
    decay_mult: 1
  }
  param {
    lr_mult: 2
    decay_mult: 0
  }
  convolution_param {
    num_output: 32
    pad: 2
    kernel_size: 5
    weight_filler {
      type: "xavier"
      std: 0.03
    }
    bias_filler {
      type: "constant"
      value: 0.2
    }
  }
}
layer {
  name: "inception_3a/relu_5x5"
  type: "ReLU"
  bottom: "inception_3a/5x5"
  top: "inception_3a/5x5"
}
layer {
  name: "inception_3a/pool"
  type: "Pooling"
  bottom: "pool2/3x3_s2"
  top: "inception_3a/pool"
  pooling_param {
    pool: MAX
    kernel_size: 3
    stride: 1
    pad: 1
  }
}
layer {
  name: "inception_3a/pool_proj"
  type: "Convolution"
  bottom: "inception_3a/pool"
  top: "inception_3a/pool_proj"
  param {
    lr_mult: 1
    decay_mult: 1
  }
  param {
    lr_mult: 2
    decay_mult: 0
  }
  convolution_param {
    num_output: 32
    kernel_size: 1
    weight_filler {
      type: "xavier"
      std: 0.1
    }
    bias_filler {
      type: "constant"
      value: 0.2
    }
  }
}
layer {
  name: "inception_3a/relu_pool_proj"
  type: "ReLU"
  bottom: "inception_3a/pool_proj"
  top: "inception_3a/pool_proj"
}
layer {
  name: "inception_3a/output"
  type: "Concat"
  bottom: "inception_3a/1x1"
  bottom: "inception_3a/3x3"
  bottom: "inception_3a/5x5"
  bottom: "inception_3a/pool_proj"
  top: "inception_3a/output"
}
layer {
  name: "inception_3b/1x1"
  type: "Convolution"
  bottom: "inception_3a/output"
  top: "inception_3b/1x1"
  param {
    lr_mult: 1
    decay_mult: 1
  }
  param {
    lr_mult: 2
    decay_mult: 0
  }
  convolution_param {
    num_output: 128
    kernel_size: 1
    weight_filler {
      type: "xavier"
      std: 0.03
    }
    bias_filler {
      type: "constant"
      value: 0.2
    }
  }
}
layer {
  name: "inception_3b/relu_1x1"
  type: "ReLU"
  bottom: "inception_3b/1x1"
  top: "inception_3b/1x1"
}
layer {
  name: "inception_3b/3x3_reduce"
  type: "Convolution"
  bottom: "inception_3a/output"
  top: "inception_3b/3x3_reduce"
  param {
    lr_mult: 1
    decay_mult: 1
  }
  param {
    lr_mult: 2
    decay_mult: 0
  }
  convolution_param {
    num_output: 128
    kernel_size: 1
    weight_filler {
      type: "xavier"
      std: 0.09
    }
    bias_filler {
      type: "constant"
      value: 0.2
    }
  }
}
layer {
  name: "inception_3b/relu_3x3_reduce"
  type: "ReLU"
  bottom: "inception_3b/3x3_reduce"
  top: "inception_3b/3x3_reduce"
}
layer {
  name: "inception_3b/3x3"
  type: "Convolution"
  bottom: "inception_3b/3x3_reduce"
  top: "inception_3b/3x3"
  param {
    lr_mult: 1
    decay_mult: 1
  }
  param {
    lr_mult: 2
    decay_mult: 0
  }
  convolution_param {
    num_output: 192
    pad: 1
    kernel_size: 3
    weight_filler {
      type: "xavier"
      std: 0.03
    }
    bias_filler {
      type: "constant"
      value: 0.2
    }
  }
}
layer {
  name: "inception_3b/relu_3x3"
  type: "ReLU"
  bottom: "inception_3b/3x3"
  top: "inception_3b/3x3"
}
layer {
  name: "inception_3b/5x5_reduce"
  type: "Convolution"
  bottom: "inception_3a/output"
  top: "inception_3b/5x5_reduce"
  param {
    lr_mult: 1
    decay_mult: 1
  }
  param {
    lr_mult: 2
    decay_mult: 0
  }
  convolution_param {
    num_output: 32
    kernel_size: 1
    weight_filler {
      type: "xavier"
      std: 0.2
    }
    bias_filler {
      type: "constant"
      value: 0.2
    }
  }
}
layer {
  name: "inception_3b/relu_5x5_reduce"
  type: "ReLU"
  bottom: "inception_3b/5x5_reduce"
  top: "inception_3b/5x5_reduce"
}
layer {
  name: "inception_3b/5x5"
  type: "Convolution"
  bottom: "inception_3b/5x5_reduce"
  top: "inception_3b/5x5"
  param {
    lr_mult: 1
    decay_mult: 1
  }
  param {
    lr_mult: 2
    decay_mult: 0
  }
  convolution_param {
    num_output: 96
    pad: 2
    kernel_size: 5
    weight_filler {
      type: "xavier"
      std: 0.03
    }
    bias_filler {
      type: "constant"
      value: 0.2
    }
  }
}
layer {
  name: "inception_3b/relu_5x5"
  type: "ReLU"
  bottom: "inception_3b/5x5"
  top: "inception_3b/5x5"
}
layer {
  name: "inception_3b/pool"
  type: "Pooling"
  bottom: "inception_3a/output"
  top: "inception_3b/pool"
  pooling_param {
    pool: MAX
    kernel_size: 3
    stride: 1
    pad: 1
  }
}
layer {
  name: "inception_3b/pool_proj"
  type: "Convolution"
  bottom: "inception_3b/pool"
  top: "inception_3b/pool_proj"
  param {
    lr_mult: 1
    decay_mult: 1
  }
  param {
    lr_mult: 2
    decay_mult: 0
  }
  convolution_param {
    num_output: 64
    kernel_size: 1
    weight_filler {
      type: "xavier"
      std: 0.1
    }
    bias_filler {
      type: "constant"
      value: 0.2
    }
  }
}
layer {
  name: "inception_3b/relu_pool_proj"
  type: "ReLU"
  bottom: "inception_3b/pool_proj"
  top: "inception_3b/pool_proj"
}
layer {
  name: "inception_3b/output"
  type: "Concat"
  bottom: "inception_3b/1x1"
  bottom: "inception_3b/3x3"
  bottom: "inception_3b/5x5"
  bottom: "inception_3b/pool_proj"
  top: "inception_3b/output"
}
layer {
  name: "pool3/3x3_s2"
  type: "Pooling"
  bottom: "inception_3b/output"
  top: "pool3/3x3_s2"
  pooling_param {
    pool: MAX
    kernel_size: 3
    stride: 2
  }
}
layer {
  name: "inception_4a/1x1"
  type: "Convolution"
  bottom: "pool3/3x3_s2"
  top: "inception_4a/1x1"
  param {
    lr_mult: 1
    decay_mult: 1
  }
  param {
    lr_mult: 2
    decay_mult: 0
  }
  convolution_param {
    num_output: 192
    kernel_size: 1
    weight_filler {
      type: "xavier"
      std: 0.03
    }
    bias_filler {
      type: "constant"
      value: 0.2
    }
  }
}
layer {
  name: "inception_4a/relu_1x1"
  type: "ReLU"
  bottom: "inception_4a/1x1"
  top: "inception_4a/1x1"
}
layer {
  name: "inception_4a/3x3_reduce"
  type: "Convolution"
  bottom: "pool3/3x3_s2"
  top: "inception_4a/3x3_reduce"
  param {
    lr_mult: 1
    decay_mult: 1
  }
  param {
    lr_mult: 2
    decay_mult: 0
  }
  convolution_param {
    num_output: 96
    kernel_size: 1
    weight_filler {
      type: "xavier"
      std: 0.09
    }
    bias_filler {
      type: "constant"
      value: 0.2
    }
  }
}
layer {
  name: "inception_4a/relu_3x3_reduce"
  type: "ReLU"
  bottom: "inception_4a/3x3_reduce"
  top: "inception_4a/3x3_reduce"
}
layer {
  name: "inception_4a/3x3"
  type: "Convolution"
  bottom: "inception_4a/3x3_reduce"
  top: "inception_4a/3x3"
  param {
    lr_mult: 1
    decay_mult: 1
  }
  param {
    lr_mult: 2
    decay_mult: 0
  }
  convolution_param {
    num_output: 208
    pad: 1
    kernel_size: 3
    weight_filler {
      type: "xavier"
      std: 0.03
    }
    bias_filler {
      type: "constant"
      value: 0.2
    }
  }
}
layer {
  name: "inception_4a/relu_3x3"
  type: "ReLU"
  bottom: "inception_4a/3x3"
  top: "inception_4a/3x3"
}
layer {
  name: "inception_4a/5x5_reduce"
  type: "Convolution"
  bottom: "pool3/3x3_s2"
  top: "inception_4a/5x5_reduce"
  param {
    lr_mult: 1
    decay_mult: 1
  }
  param {
    lr_mult: 2
    decay_mult: 0
  }
  convolution_param {
    num_output: 16
    kernel_size: 1
    weight_filler {
      type: "xavier"
      std: 0.2
    }
    bias_filler {
      type: "constant"
      value: 0.2
    }
  }
}
layer {
  name: "inception_4a/relu_5x5_reduce"
  type: "ReLU"
  bottom: "inception_4a/5x5_reduce"
  top: "inception_4a/5x5_reduce"
}
layer {
  name: "inception_4a/5x5"
  type: "Convolution"
  bottom: "inception_4a/5x5_reduce"
  top: "inception_4a/5x5"
  param {
    lr_mult: 1
    decay_mult: 1
  }
  param {
    lr_mult: 2
    decay_mult: 0
  }
  convolution_param {
    num_output: 48
    pad: 2
    kernel_size: 5
    weight_filler {
      type: "xavier"
      std: 0.03
    }
    bias_filler {
      type: "constant"
      value: 0.2
    }
  }
}
layer {
  name: "inception_4a/relu_5x5"
  type: "ReLU"
  bottom: "inception_4a/5x5"
  top: "inception_4a/5x5"
}
layer {
  name: "inception_4a/pool"
  type: "Pooling"
  bottom: "pool3/3x3_s2"
  top: "inception_4a/pool"
  pooling_param {
    pool: MAX
    kernel_size: 3
    stride: 1
    pad: 1
  }
}
layer {
  name: "inception_4a/pool_proj"
  type: "Convolution"
  bottom: "inception_4a/pool"
  top: "inception_4a/pool_proj"
  param {
    lr_mult: 1
    decay_mult: 1
  }
  param {
    lr_mult: 2
    decay_mult: 0
  }
  convolution_param {
    num_output: 64
    kernel_size: 1
    weight_filler {
      type: "xavier"
      std: 0.1
    }
    bias_filler {
      type: "constant"
      value: 0.2
    }
  }
}
layer {
  name: "inception_4a/relu_pool_proj"
  type: "ReLU"
  bottom: "inception_4a/pool_proj"
  top: "inception_4a/pool_proj"
}
layer {
  name: "inception_4a/output"
  type: "Concat"
  bottom: "inception_4a/1x1"
  bottom: "inception_4a/3x3"
  bottom: "inception_4a/5x5"
  bottom: "inception_4a/pool_proj"
  top: "inception_4a/output"
}
layer {
  name: "loss1/ave_pool"
  type: "Pooling"
  bottom: "inception_4a/output"
  top: "loss1/ave_pool"
  pooling_param {
    pool: AVE
    kernel_size: 5
    stride: 3
  }
}
layer {
  name: "loss1/conv"
  type: "Convolution"
  bottom: "loss1/ave_pool"
  top: "loss1/conv"
  param {
    lr_mult: 1
    decay_mult: 1
  }
  param {
    lr_mult: 2
    decay_mult: 0
  }
  convolution_param {
    num_output: 128
    kernel_size: 1
    weight_filler {
      type: "xavier"
      std: 0.08
    }
    bias_filler {
      type: "constant"
      value: 0.2
    }
  }
}
layer {
  name: "loss1/relu_conv"
  type: "ReLU"
  bottom: "loss1/conv"
  top: "loss1/conv"
}
layer {
  name: "loss1/fc"
  type: "InnerProduct"
  bottom: "loss1/conv"
  top: "loss1/fc"
  param {
    lr_mult: 1
    decay_mult: 1
  }
  param {
    lr_mult: 2
    decay_mult: 0
  }
  inner_product_param {
    num_output: 1024
    weight_filler {
      type: "xavier"
      std: 0.02
    }
    bias_filler {
      type: "constant"
      value: 0.2
    }
  }
}
layer {
  name: "loss1/relu_fc"
  type: "ReLU"
  bottom: "loss1/fc"
  top: "loss1/fc"
}
layer {
  name: "loss1/drop_fc"
  type: "Dropout"
  bottom: "loss1/fc"
  top: "loss1/fc"
  dropout_param {
    dropout_ratio: 0.7
  }
}
layer {
  name: "loss1/classifier_plantvillage"
  type: "InnerProduct"
  bottom: "loss1/fc"
  top: "loss1/classifier_plantvillage"
  param {
    lr_mult: 1
    decay_mult: 1
  }
  param {
    lr_mult: 2
    decay_mult: 0
  }
  inner_product_param {
    num_output: 38
    weight_filler {
      type: "xavier"
      std: 0.0009765625
    }
    bias_filler {
      type: "constant"
      value: 0
    }
  }
}
layer {
  name: "inception_4b/1x1"
  type: "Convolution"
  bottom: "inception_4a/output"
  top: "inception_4b/1x1"
  param {
    lr_mult: 1
    decay_mult: 1
  }
  param {
    lr_mult: 2
    decay_mult: 0
  }
  convolution_param {
    num_output: 160
    kernel_size: 1
    weight_filler {
      type: "xavier"
      std: 0.03
    }
    bias_filler {
      type: "constant"
      value: 0.2
    }
  }
}
layer {
  name: "inception_4b/relu_1x1"
  type: "ReLU"
  bottom: "inception_4b/1x1"
  top: "inception_4b/1x1"
}
layer {
  name: "inception_4b/3x3_reduce"
  type: "Convolution"
  bottom: "inception_4a/output"
  top: "inception_4b/3x3_reduce"
  param {
    lr_mult: 1
    decay_mult: 1
  }
  param {
    lr_mult: 2
    decay_mult: 0
  }
  convolution_param {
    num_output: 112
    kernel_size: 1
    weight_filler {
      type: "xavier"
      std: 0.09
    }
    bias_filler {
      type: "constant"
      value: 0.2
    }
  }
}
layer {
  name: "inception_4b/relu_3x3_reduce"
  type: "ReLU"
  bottom: "inception_4b/3x3_reduce"
  top: "inception_4b/3x3_reduce"
}
layer {
  name: "inception_4b/3x3"
  type: "Convolution"
  bottom: "inception_4b/3x3_reduce"
  top: "inception_4b/3x3"
  param {
    lr_mult: 1
    decay_mult: 1
  }
  param {
    lr_mult: 2
    decay_mult: 0
  }
  convolution_param {
    num_output: 224
    pad: 1
    kernel_size: 3
    weight_filler {
      type: "xavier"
      std: 0.03
    }
    bias_filler {
      type: "constant"
      value: 0.2
    }
  }
}
layer {
  name: "inception_4b/relu_3x3"
  type: "ReLU"
  bottom: "inception_4b/3x3"
  top: "inception_4b/3x3"
}
layer {
  name: "inception_4b/5x5_reduce"
  type: "Convolution"
  bottom: "inception_4a/output"
  top: "inception_4b/5x5_reduce"
  param {
    lr_mult: 1
    decay_mult: 1
  }
  param {
    lr_mult: 2
    decay_mult: 0
  }
  convolution_param {
    num_output: 24
    kernel_size: 1
    weight_filler {
      type: "xavier"
      std: 0.2
    }
    bias_filler {
      type: "constant"
      value: 0.2
    }
  }
}
layer {
  name: "inception_4b/relu_5x5_reduce"
  type: "ReLU"
  bottom: "inception_4b/5x5_reduce"
  top: "inception_4b/5x5_reduce"
}
layer {
  name: "inception_4b/5x5"
  type: "Convolution"
  bottom: "inception_4b/5x5_reduce"
  top: "inception_4b/5x5"
  param {
    lr_mult: 1
    decay_mult: 1
  }
  param {
    lr_mult: 2
    decay_mult: 0
  }
  convolution_param {
    num_output: 64
    pad: 2
    kernel_size: 5
    weight_filler {
      type: "xavier"
      std: 0.03
    }
    bias_filler {
      type: "constant"
      value: 0.2
    }
  }
}
layer {
  name: "inception_4b/relu_5x5"
  type: "ReLU"
  bottom: "inception_4b/5x5"
  top: "inception_4b/5x5"
}
layer {
  name: "inception_4b/pool"
  type: "Pooling"
  bottom: "inception_4a/output"
  top: "inception_4b/pool"
  pooling_param {
    pool: MAX
    kernel_size: 3
    stride: 1
    pad: 1
  }
}
layer {
  name: "inception_4b/pool_proj"
  type: "Convolution"
  bottom: "inception_4b/pool"
  top: "inception_4b/pool_proj"
  param {
    lr_mult: 1
    decay_mult: 1
  }
  param {
    lr_mult: 2
    decay_mult: 0
  }
  convolution_param {
    num_output: 64
    kernel_size: 1
    weight_filler {
      type: "xavier"
      std: 0.1
    }
    bias_filler {
      type: "constant"
      value: 0.2
    }
  }
}
layer {
  name: "inception_4b/relu_pool_proj"
  type: "ReLU"
  bottom: "inception_4b/pool_proj"
  top: "inception_4b/pool_proj"
}
layer {
  name: "inception_4b/output"
  type: "Concat"
  bottom: "inception_4b/1x1"
  bottom: "inception_4b/3x3"
  bottom: "inception_4b/5x5"
  bottom: "inception_4b/pool_proj"
  top: "inception_4b/output"
}
layer {
  name: "inception_4c/1x1"
  type: "Convolution"
  bottom: "inception_4b/output"
  top: "inception_4c/1x1"
  param {
    lr_mult: 1
    decay_mult: 1
  }
  param {
    lr_mult: 2
    decay_mult: 0
  }
  convolution_param {
    num_output: 128
    kernel_size: 1
    weight_filler {
      type: "xavier"
      std: 0.03
    }
    bias_filler {
      type: "constant"
      value: 0.2
    }
  }
}
layer {
  name: "inception_4c/relu_1x1"
  type: "ReLU"
  bottom: "inception_4c/1x1"
  top: "inception_4c/1x1"
}
layer {
  name: "inception_4c/3x3_reduce"
  type: "Convolution"
  bottom: "inception_4b/output"
  top: "inception_4c/3x3_reduce"
  param {
    lr_mult: 1
    decay_mult: 1
  }
  param {
    lr_mult: 2
    decay_mult: 0
  }
  convolution_param {
    num_output: 128
    kernel_size: 1
    weight_filler {
      type: "xavier"
      std: 0.09
    }
    bias_filler {
      type: "constant"
      value: 0.2
    }
  }
}
layer {
  name: "inception_4c/relu_3x3_reduce"
  type: "ReLU"
  bottom: "inception_4c/3x3_reduce"
  top: "inception_4c/3x3_reduce"
}
layer {
  name: "inception_4c/3x3"
  type: "Convolution"
  bottom: "inception_4c/3x3_reduce"
  top: "inception_4c/3x3"
  param {
    lr_mult: 1
    decay_mult: 1
  }
  param {
    lr_mult: 2
    decay_mult: 0
  }
  convolution_param {
    num_output: 256
    pad: 1
    kernel_size: 3
    weight_filler {
      type: "xavier"
      std: 0.03
    }
    bias_filler {
      type: "constant"
      value: 0.2
    }
  }
}
layer {
  name: "inception_4c/relu_3x3"
  type: "ReLU"
  bottom: "inception_4c/3x3"
  top: "inception_4c/3x3"
}
layer {
  name: "inception_4c/5x5_reduce"
  type: "Convolution"
  bottom: "inception_4b/output"
  top: "inception_4c/5x5_reduce"
  param {
    lr_mult: 1
    decay_mult: 1
  }
  param {
    lr_mult: 2
    decay_mult: 0
  }
  convolution_param {
    num_output: 24
    kernel_size: 1
    weight_filler {
      type: "xavier"
      std: 0.2
    }
    bias_filler {
      type: "constant"
      value: 0.2
    }
  }
}
layer {
  name: "inception_4c/relu_5x5_reduce"
  type: "ReLU"
  bottom: "inception_4c/5x5_reduce"
  top: "inception_4c/5x5_reduce"
}
layer {
  name: "inception_4c/5x5"
  type: "Convolution"
  bottom: "inception_4c/5x5_reduce"
  top: "inception_4c/5x5"
  param {
    lr_mult: 1
    decay_mult: 1
  }
  param {
    lr_mult: 2
    decay_mult: 0
  }
  convolution_param {
    num_output: 64
    pad: 2
    kernel_size: 5
    weight_filler {
      type: "xavier"
      std: 0.03
    }
    bias_filler {
      type: "constant"
      value: 0.2
    }
  }
}
layer {
  name: "inception_4c/relu_5x5"
  type: "ReLU"
  bottom: "inception_4c/5x5"
  top: "inception_4c/5x5"
}
layer {
  name: "inception_4c/pool"
  type: "Pooling"
  bottom: "inception_4b/output"
  top: "inception_4c/pool"
  pooling_param {
    pool: MAX
    kernel_size: 3
    stride: 1
    pad: 1
  }
}
layer {
  name: "inception_4c/pool_proj"
  type: "Convolution"
  bottom: "inception_4c/pool"
  top: "inception_4c/pool_proj"
  param {
    lr_mult: 1
    decay_mult: 1
  }
  param {
    lr_mult: 2
    decay_mult: 0
  }
  convolution_param {
    num_output: 64
    kernel_size: 1
    weight_filler {
      type: "xavier"
      std: 0.1
    }
    bias_filler {
      type: "constant"
      value: 0.2
    }
  }
}
layer {
  name: "inception_4c/relu_pool_proj"
  type: "ReLU"
  bottom: "inception_4c/pool_proj"
  top: "inception_4c/pool_proj"
}
layer {
  name: "inception_4c/output"
  type: "Concat"
  bottom: "inception_4c/1x1"
  bottom: "inception_4c/3x3"
  bottom: "inception_4c/5x5"
  bottom: "inception_4c/pool_proj"
  top: "inception_4c/output"
}
layer {
  name: "inception_4d/1x1"
  type: "Convolution"
  bottom: "inception_4c/output"
  top: "inception_4d/1x1"
  param {
    lr_mult: 1
    decay_mult: 1
  }
  param {
    lr_mult: 2
    decay_mult: 0
  }
  convolution_param {
    num_output: 112
    kernel_size: 1
    weight_filler {
      type: "xavier"
      std: 0.03
    }
    bias_filler {
      type: "constant"
      value: 0.2
    }
  }
}
layer {
  name: "inception_4d/relu_1x1"
  type: "ReLU"
  bottom: "inception_4d/1x1"
  top: "inception_4d/1x1"
}
layer {
  name: "inception_4d/3x3_reduce"
  type: "Convolution"
  bottom: "inception_4c/output"
  top: "inception_4d/3x3_reduce"
  param {
    lr_mult: 1
    decay_mult: 1
  }
  param {
    lr_mult: 2
    decay_mult: 0
  }
  convolution_param {
    num_output: 144
    kernel_size: 1
    weight_filler {
      type: "xavier"
      std: 0.09
    }
    bias_filler {
      type: "constant"
      value: 0.2
    }
  }
}
layer {
  name: "inception_4d/relu_3x3_reduce"
  type: "ReLU"
  bottom: "inception_4d/3x3_reduce"
  top: "inception_4d/3x3_reduce"
}
layer {
  name: "inception_4d/3x3"
  type: "Convolution"
  bottom: "inception_4d/3x3_reduce"
  top: "inception_4d/3x3"
  param {
    lr_mult: 1
    decay_mult: 1
  }
  param {
    lr_mult: 2
    decay_mult: 0
  }
  convolution_param {
    num_output: 288
    pad: 1
    kernel_size: 3
    weight_filler {
      type: "xavier"
      std: 0.03
    }
    bias_filler {
      type: "constant"
      value: 0.2
    }
  }
}
layer {
  name: "inception_4d/relu_3x3"
  type: "ReLU"
  bottom: "inception_4d/3x3"
  top: "inception_4d/3x3"
}
layer {
  name: "inception_4d/5x5_reduce"
  type: "Convolution"
  bottom: "inception_4c/output"
  top: "inception_4d/5x5_reduce"
  param {
    lr_mult: 1
    decay_mult: 1
  }
  param {
    lr_mult: 2
    decay_mult: 0
  }
  convolution_param {
    num_output: 32
    kernel_size: 1
    weight_filler {
      type: "xavier"
      std: 0.2
    }
    bias_filler {
      type: "constant"
      value: 0.2
    }
  }
}
layer {
  name: "inception_4d/relu_5x5_reduce"
  type: "ReLU"
  bottom: "inception_4d/5x5_reduce"
  top: "inception_4d/5x5_reduce"
}
layer {
  name: "inception_4d/5x5"
  type: "Convolution"
  bottom: "inception_4d/5x5_reduce"
  top: "inception_4d/5x5"
  param {
    lr_mult: 1
    decay_mult: 1
  }
  param {
    lr_mult: 2
    decay_mult: 0
  }
  convolution_param {
    num_output: 64
    pad: 2
    kernel_size: 5
    weight_filler {
      type: "xavier"
      std: 0.03
    }
    bias_filler {
      type: "constant"
      value: 0.2
    }
  }
}
layer {
  name: "inception_4d/relu_5x5"
  type: "ReLU"
  bottom: "inception_4d/5x5"
  top: "inception_4d/5x5"
}
layer {
  name: "inception_4d/pool"
  type: "Pooling"
  bottom: "inception_4c/output"
  top: "inception_4d/pool"
  pooling_param {
    pool: MAX
    kernel_size: 3
    stride: 1
    pad: 1
  }
}
layer {
  name: "inception_4d/pool_proj"
  type: "Convolution"
  bottom: "inception_4d/pool"
  top: "inception_4d/pool_proj"
  param {
    lr_mult: 1
    decay_mult: 1
  }
  param {
    lr_mult: 2
    decay_mult: 0
  }
  convolution_param {
    num_output: 64
    kernel_size: 1
    weight_filler {
      type: "xavier"
      std: 0.1
    }
    bias_filler {
      type: "constant"
      value: 0.2
    }
  }
}
layer {
  name: "inception_4d/relu_pool_proj"
  type: "ReLU"
  bottom: "inception_4d/pool_proj"
  top: "inception_4d/pool_proj"
}
layer {
  name: "inception_4d/output"
  type: "Concat"
  bottom: "inception_4d/1x1"
  bottom: "inception_4d/3x3"
  bottom: "inception_4d/5x5"
  bottom: "inception_4d/pool_proj"
  top: "inception_4d/output"
}
layer {
  name: "loss2/ave_pool"
  type: "Pooling"
  bottom: "inception_4d/output"
  top: "loss2/ave_pool"
  pooling_param {
    pool: AVE
    kernel_size: 5
    stride: 3
  }
}
layer {
  name: "loss2/conv"
  type: "Convolution"
  bottom: "loss2/ave_pool"
  top: "loss2/conv"
  param {
    lr_mult: 1
    decay_mult: 1
  }
  param {
    lr_mult: 2
    decay_mult: 0
  }
  convolution_param {
    num_output: 128
    kernel_size: 1
    weight_filler {
      type: "xavier"
      std: 0.08
    }
    bias_filler {
      type: "constant"
      value: 0.2
    }
  }
}
layer {
  name: "loss2/relu_conv"
  type: "ReLU"
  bottom: "loss2/conv"
  top: "loss2/conv"
}
layer {
  name: "loss2/fc"
  type: "InnerProduct"
  bottom: "loss2/conv"
  top: "loss2/fc"
  param {
    lr_mult: 1
    decay_mult: 1
  }
  param {
    lr_mult: 2
    decay_mult: 0
  }
  inner_product_param {
    num_output: 1024
    weight_filler {
      type: "xavier"
      std: 0.02
    }
    bias_filler {
      type: "constant"
      value: 0.2
    }
  }
}
layer {
  name: "loss2/relu_fc"
  type: "ReLU"
  bottom: "loss2/fc"
  top: "loss2/fc"
}
layer {
  name: "loss2/drop_fc"
  type: "Dropout"
  bottom: "loss2/fc"
  top: "loss2/fc"
  dropout_param {
    dropout_ratio: 0.7
  }
}
layer {
  name: "loss2/classifier_plantvillage"
  type: "InnerProduct"
  bottom: "loss2/fc"
  top: "loss2/classifier_plantvillage"
  param {
    lr_mult: 1
    decay_mult: 1
  }
  param {
    lr_mult: 2
    decay_mult: 0
  }
  inner_product_param {
    num_output: 38
    weight_filler {
      type: "xavier"
      std: 0.0009765625
    }
    bias_filler {
      type: "constant"
      value: 0
    }
  }
}
layer {
  name: "inception_4e/1x1"
  type: "Convolution"
  bottom: "inception_4d/output"
  top: "inception_4e/1x1"
  param {
    lr_mult: 1
    decay_mult: 1
  }
  param {
    lr_mult: 2
    decay_mult: 0
  }
  convolution_param {
    num_output: 256
    kernel_size: 1
    weight_filler {
      type: "xavier"
      std: 0.03
    }
    bias_filler {
      type: "constant"
      value: 0.2
    }
  }
}
layer {
  name: "inception_4e/relu_1x1"
  type: "ReLU"
  bottom: "inception_4e/1x1"
  top: "inception_4e/1x1"
}
layer {
  name: "inception_4e/3x3_reduce"
  type: "Convolution"
  bottom: "inception_4d/output"
  top: "inception_4e/3x3_reduce"
  param {
    lr_mult: 1
    decay_mult: 1
  }
  param {
    lr_mult: 2
    decay_mult: 0
  }
  convolution_param {
    num_output: 160
    kernel_size: 1
    weight_filler {
      type: "xavier"
      std: 0.09
    }
    bias_filler {
      type: "constant"
      value: 0.2
    }
  }
}
layer {
  name: "inception_4e/relu_3x3_reduce"
  type: "ReLU"
  bottom: "inception_4e/3x3_reduce"
  top: "inception_4e/3x3_reduce"
}
layer {
  name: "inception_4e/3x3"
  type: "Convolution"
  bottom: "inception_4e/3x3_reduce"
  top: "inception_4e/3x3"
  param {
    lr_mult: 1
    decay_mult: 1
  }
  param {
    lr_mult: 2
    decay_mult: 0
  }
  convolution_param {
    num_output: 320
    pad: 1
    kernel_size: 3
    weight_filler {
      type: "xavier"
      std: 0.03
    }
    bias_filler {
      type: "constant"
      value: 0.2
    }
  }
}
layer {
  name: "inception_4e/relu_3x3"
  type: "ReLU"
  bottom: "inception_4e/3x3"
  top: "inception_4e/3x3"
}
layer {
  name: "inception_4e/5x5_reduce"
  type: "Convolution"
  bottom: "inception_4d/output"
  top: "inception_4e/5x5_reduce"
  param {
    lr_mult: 1
    decay_mult: 1
  }
  param {
    lr_mult: 2
    decay_mult: 0
  }
  convolution_param {
    num_output: 32
    kernel_size: 1
    weight_filler {
      type: "xavier"
      std: 0.2
    }
    bias_filler {
      type: "constant"
      value: 0.2
    }
  }
}
layer {
  name: "inception_4e/relu_5x5_reduce"
  type: "ReLU"
  bottom: "inception_4e/5x5_reduce"
  top: "inception_4e/5x5_reduce"
}
layer {
  name: "inception_4e/5x5"
  type: "Convolution"
  bottom: "inception_4e/5x5_reduce"
  top: "inception_4e/5x5"
  p
I0403 15:51:20.391129 14613 layer_factory.hpp:77] Creating layer data
I0403 15:51:20.391775 14613 net.cpp:91] Creating Layer data
I0403 15:51:20.391811 14613 net.cpp:399] data -> data
I0403 15:51:20.391872 14613 net.cpp:399] data -> label
I0403 15:51:20.391921 14613 data_transformer.cpp:25] Loading mean file from: /home/mohanty/data/final_dataset/lmdb/color-80-20/mean.binaryproto
I0403 15:51:20.394105 14617 db_lmdb.cpp:38] Opened lmdb /home/mohanty/data/final_dataset/lmdb/color-80-20/test_db
I0403 15:51:20.406054 14613 data_layer.cpp:41] output data size: 24,3,224,224
I0403 15:51:20.434655 14613 net.cpp:141] Setting up data
I0403 15:51:20.434748 14613 net.cpp:148] Top shape: 24 3 224 224 (3612672)
I0403 15:51:20.434772 14613 net.cpp:148] Top shape: 24 (24)
I0403 15:51:20.434789 14613 net.cpp:156] Memory required for data: 14450784
I0403 15:51:20.434818 14613 layer_factory.hpp:77] Creating layer label_data_1_split
I0403 15:51:20.434845 14613 net.cpp:91] Creating Layer label_data_1_split
I0403 15:51:20.434864 14613 net.cpp:425] label_data_1_split <- label
I0403 15:51:20.434896 14613 net.cpp:399] label_data_1_split -> label_data_1_split_0
I0403 15:51:20.434926 14613 net.cpp:399] label_data_1_split -> label_data_1_split_1
I0403 15:51:20.434950 14613 net.cpp:399] label_data_1_split -> label_data_1_split_2
I0403 15:51:20.434973 14613 net.cpp:399] label_data_1_split -> label_data_1_split_3
I0403 15:51:20.434993 14613 net.cpp:399] label_data_1_split -> label_data_1_split_4
I0403 15:51:20.435015 14613 net.cpp:399] label_data_1_split -> label_data_1_split_5
I0403 15:51:20.435036 14613 net.cpp:399] label_data_1_split -> label_data_1_split_6
I0403 15:51:20.435057 14613 net.cpp:399] label_data_1_split -> label_data_1_split_7
I0403 15:51:20.435081 14613 net.cpp:399] label_data_1_split -> label_data_1_split_8
I0403 15:51:20.435103 14613 net.cpp:399] label_data_1_split -> label_data_1_split_9
I0403 15:51:20.435233 14613 net.cpp:141] Setting up label_data_1_split
I0403 15:51:20.435259 14613 net.cpp:148] Top shape: 24 (24)
I0403 15:51:20.435278 14613 net.cpp:148] Top shape: 24 (24)
I0403 15:51:20.435295 14613 net.cpp:148] Top shape: 24 (24)
I0403 15:51:20.435312 14613 net.cpp:148] Top shape: 24 (24)
I0403 15:51:20.435329 14613 net.cpp:148] Top shape: 24 (24)
I0403 15:51:20.435346 14613 net.cpp:148] Top shape: 24 (24)
I0403 15:51:20.435362 14613 net.cpp:148] Top shape: 24 (24)
I0403 15:51:20.435386 14613 net.cpp:148] Top shape: 24 (24)
I0403 15:51:20.435402 14613 net.cpp:148] Top shape: 24 (24)
I0403 15:51:20.435420 14613 net.cpp:148] Top shape: 24 (24)
I0403 15:51:20.435475 14613 net.cpp:156] Memory required for data: 14451744
I0403 15:51:20.435492 14613 layer_factory.hpp:77] Creating layer conv1/7x7_s2
I0403 15:51:20.435525 14613 net.cpp:91] Creating Layer conv1/7x7_s2
I0403 15:51:20.435546 14613 net.cpp:425] conv1/7x7_s2 <- data
I0403 15:51:20.435567 14613 net.cpp:399] conv1/7x7_s2 -> conv1/7x7_s2
I0403 15:51:20.585038 14613 net.cpp:141] Setting up conv1/7x7_s2
I0403 15:51:20.585109 14613 net.cpp:148] Top shape: 24 64 112 112 (19267584)
I0403 15:51:20.585130 14613 net.cpp:156] Memory required for data: 91522080
I0403 15:51:20.585163 14613 layer_factory.hpp:77] Creating layer conv1/relu_7x7
I0403 15:51:20.585193 14613 net.cpp:91] Creating Layer conv1/relu_7x7
I0403 15:51:20.585213 14613 net.cpp:425] conv1/relu_7x7 <- conv1/7x7_s2
I0403 15:51:20.585233 14613 net.cpp:386] conv1/relu_7x7 -> conv1/7x7_s2 (in-place)
I0403 15:51:20.585506 14613 net.cpp:141] Setting up conv1/relu_7x7
I0403 15:51:20.585536 14613 net.cpp:148] Top shape: 24 64 112 112 (19267584)
I0403 15:51:20.585554 14613 net.cpp:156] Memory required for data: 168592416
I0403 15:51:20.585571 14613 layer_factory.hpp:77] Creating layer pool1/3x3_s2
I0403 15:51:20.585597 14613 net.cpp:91] Creating Layer pool1/3x3_s2
I0403 15:51:20.585616 14613 net.cpp:425] pool1/3x3_s2 <- conv1/7x7_s2
I0403 15:51:20.585636 14613 net.cpp:399] pool1/3x3_s2 -> pool1/3x3_s2
I0403 15:51:20.585714 14613 net.cpp:141] Setting up pool1/3x3_s2
I0403 15:51:20.585741 14613 net.cpp:148] Top shape: 24 64 56 56 (4816896)
I0403 15:51:20.585757 14613 net.cpp:156] Memory required for data: 187860000
I0403 15:51:20.585774 14613 layer_factory.hpp:77] Creating layer pool1/norm1
I0403 15:51:20.585800 14613 net.cpp:91] Creating Layer pool1/norm1
I0403 15:51:20.585822 14613 net.cpp:425] pool1/norm1 <- pool1/3x3_s2
I0403 15:51:20.585891 14613 net.cpp:399] pool1/norm1 -> pool1/norm1
I0403 15:51:20.586202 14613 net.cpp:141] Setting up pool1/norm1
I0403 15:51:20.586232 14613 net.cpp:148] Top shape: 24 64 56 56 (4816896)
I0403 15:51:20.586249 14613 net.cpp:156] Memory required for data: 207127584
I0403 15:51:20.586266 14613 layer_factory.hpp:77] Creating layer conv2/3x3_reduce
I0403 15:51:20.586292 14613 net.cpp:91] Creating Layer conv2/3x3_reduce
I0403 15:51:20.586309 14613 net.cpp:425] conv2/3x3_reduce <- pool1/norm1
I0403 15:51:20.586329 14613 net.cpp:399] conv2/3x3_reduce -> conv2/3x3_reduce
I0403 15:51:20.587748 14613 net.cpp:141] Setting up conv2/3x3_reduce
I0403 15:51:20.587779 14613 net.cpp:148] Top shape: 24 64 56 56 (4816896)
I0403 15:51:20.587797 14613 net.cpp:156] Memory required for data: 226395168
I0403 15:51:20.587820 14613 layer_factory.hpp:77] Creating layer conv2/relu_3x3_reduce
I0403 15:51:20.587841 14613 net.cpp:91] Creating Layer conv2/relu_3x3_reduce
I0403 15:51:20.587857 14613 net.cpp:425] conv2/relu_3x3_reduce <- conv2/3x3_reduce
I0403 15:51:20.587877 14613 net.cpp:386] conv2/relu_3x3_reduce -> conv2/3x3_reduce (in-place)
I0403 15:51:20.588145 14613 net.cpp:141] Setting up conv2/relu_3x3_reduce
I0403 15:51:20.588174 14613 net.cpp:148] Top shape: 24 64 56 56 (4816896)
I0403 15:51:20.588192 14613 net.cpp:156] Memory required for data: 245662752
I0403 15:51:20.588208 14613 layer_factory.hpp:77] Creating layer conv2/3x3
I0403 15:51:20.588232 14613 net.cpp:91] Creating Layer conv2/3x3
I0403 15:51:20.588251 14613 net.cpp:425] conv2/3x3 <- conv2/3x3_reduce
I0403 15:51:20.588273 14613 net.cpp:399] conv2/3x3 -> conv2/3x3
I0403 15:51:20.590667 14613 net.cpp:141] Setting up conv2/3x3
I0403 15:51:20.590699 14613 net.cpp:148] Top shape: 24 192 56 56 (14450688)
I0403 15:51:20.590718 14613 net.cpp:156] Memory required for data: 303465504
I0403 15:51:20.590744 14613 layer_factory.hpp:77] Creating layer conv2/relu_3x3
I0403 15:51:20.590765 14613 net.cpp:91] Creating Layer conv2/relu_3x3
I0403 15:51:20.590782 14613 net.cpp:425] conv2/relu_3x3 <- conv2/3x3
I0403 15:51:20.590801 14613 net.cpp:386] conv2/relu_3x3 -> conv2/3x3 (in-place)
I0403 15:51:20.590991 14613 net.cpp:141] Setting up conv2/relu_3x3
I0403 15:51:20.591019 14613 net.cpp:148] Top shape: 24 192 56 56 (14450688)
I0403 15:51:20.591068 14613 net.cpp:156] Memory required for data: 361268256
I0403 15:51:20.591085 14613 layer_factory.hpp:77] Creating layer conv2/norm2
I0403 15:51:20.591114 14613 net.cpp:91] Creating Layer conv2/norm2
I0403 15:51:20.591133 14613 net.cpp:425] conv2/norm2 <- conv2/3x3
I0403 15:51:20.591153 14613 net.cpp:399] conv2/norm2 -> conv2/norm2
I0403 15:51:20.591470 14613 net.cpp:141] Setting up conv2/norm2
I0403 15:51:20.591500 14613 net.cpp:148] Top shape: 24 192 56 56 (14450688)
I0403 15:51:20.591517 14613 net.cpp:156] Memory required for data: 419071008
I0403 15:51:20.591534 14613 layer_factory.hpp:77] Creating layer pool2/3x3_s2
I0403 15:51:20.591555 14613 net.cpp:91] Creating Layer pool2/3x3_s2
I0403 15:51:20.591573 14613 net.cpp:425] pool2/3x3_s2 <- conv2/norm2
I0403 15:51:20.591593 14613 net.cpp:399] pool2/3x3_s2 -> pool2/3x3_s2
I0403 15:51:20.591650 14613 net.cpp:141] Setting up pool2/3x3_s2
I0403 15:51:20.591676 14613 net.cpp:148] Top shape: 24 192 28 28 (3612672)
I0403 15:51:20.591691 14613 net.cpp:156] Memory required for data: 433521696
I0403 15:51:20.591707 14613 layer_factory.hpp:77] Creating layer pool2/3x3_s2_pool2/3x3_s2_0_split
I0403 15:51:20.591727 14613 net.cpp:91] Creating Layer pool2/3x3_s2_pool2/3x3_s2_0_split
I0403 15:51:20.591743 14613 net.cpp:425] pool2/3x3_s2_pool2/3x3_s2_0_split <- pool2/3x3_s2
I0403 15:51:20.591765 14613 net.cpp:399] pool2/3x3_s2_pool2/3x3_s2_0_split -> pool2/3x3_s2_pool2/3x3_s2_0_split_0
I0403 15:51:20.591789 14613 net.cpp:399] pool2/3x3_s2_pool2/3x3_s2_0_split -> pool2/3x3_s2_pool2/3x3_s2_0_split_1
I0403 15:51:20.591809 14613 net.cpp:399] pool2/3x3_s2_pool2/3x3_s2_0_split -> pool2/3x3_s2_pool2/3x3_s2_0_split_2
I0403 15:51:20.591830 14613 net.cpp:399] pool2/3x3_s2_pool2/3x3_s2_0_split -> pool2/3x3_s2_pool2/3x3_s2_0_split_3
I0403 15:51:20.591904 14613 net.cpp:141] Setting up pool2/3x3_s2_pool2/3x3_s2_0_split
I0403 15:51:20.591931 14613 net.cpp:148] Top shape: 24 192 28 28 (3612672)
I0403 15:51:20.591950 14613 net.cpp:148] Top shape: 24 192 28 28 (3612672)
I0403 15:51:20.591969 14613 net.cpp:148] Top shape: 24 192 28 28 (3612672)
I0403 15:51:20.591984 14613 net.cpp:148] Top shape: 24 192 28 28 (3612672)
I0403 15:51:20.592000 14613 net.cpp:156] Memory required for data: 491324448
I0403 15:51:20.592015 14613 layer_factory.hpp:77] Creating layer inception_3a/1x1
I0403 15:51:20.592038 14613 net.cpp:91] Creating Layer inception_3a/1x1
I0403 15:51:20.592056 14613 net.cpp:425] inception_3a/1x1 <- pool2/3x3_s2_pool2/3x3_s2_0_split_0
I0403 15:51:20.592077 14613 net.cpp:399] inception_3a/1x1 -> inception_3a/1x1
I0403 15:51:20.593688 14613 net.cpp:141] Setting up inception_3a/1x1
I0403 15:51:20.593720 14613 net.cpp:148] Top shape: 24 64 28 28 (1204224)
I0403 15:51:20.593737 14613 net.cpp:156] Memory required for data: 496141344
I0403 15:51:20.593757 14613 layer_factory.hpp:77] Creating layer inception_3a/relu_1x1
I0403 15:51:20.593780 14613 net.cpp:91] Creating Layer inception_3a/relu_1x1
I0403 15:51:20.593799 14613 net.cpp:425] inception_3a/relu_1x1 <- inception_3a/1x1
I0403 15:51:20.593819 14613 net.cpp:386] inception_3a/relu_1x1 -> inception_3a/1x1 (in-place)
I0403 15:51:20.594002 14613 net.cpp:141] Setting up inception_3a/relu_1x1
I0403 15:51:20.594032 14613 net.cpp:148] Top shape: 24 64 28 28 (1204224)
I0403 15:51:20.594049 14613 net.cpp:156] Memory required for data: 500958240
I0403 15:51:20.594065 14613 layer_factory.hpp:77] Creating layer inception_3a/3x3_reduce
I0403 15:51:20.594089 14613 net.cpp:91] Creating Layer inception_3a/3x3_reduce
I0403 15:51:20.594115 14613 net.cpp:425] inception_3a/3x3_reduce <- pool2/3x3_s2_pool2/3x3_s2_0_split_1
I0403 15:51:20.594135 14613 net.cpp:399] inception_3a/3x3_reduce -> inception_3a/3x3_reduce
I0403 15:51:20.595895 14613 net.cpp:141] Setting up inception_3a/3x3_reduce
I0403 15:51:20.595927 14613 net.cpp:148] Top shape: 24 96 28 28 (1806336)
I0403 15:51:20.595943 14613 net.cpp:156] Memory required for data: 508183584
I0403 15:51:20.595969 14613 layer_factory.hpp:77] Creating layer inception_3a/relu_3x3_reduce
I0403 15:51:20.596007 14613 net.cpp:91] Creating Layer inception_3a/relu_3x3_reduce
I0403 15:51:20.596027 14613 net.cpp:425] inception_3a/relu_3x3_reduce <- inception_3a/3x3_reduce
I0403 15:51:20.596050 14613 net.cpp:386] inception_3a/relu_3x3_reduce -> inception_3a/3x3_reduce (in-place)
I0403 15:51:20.596251 14613 net.cpp:141] Setting up inception_3a/relu_3x3_reduce
I0403 15:51:20.596278 14613 net.cpp:148] Top shape: 24 96 28 28 (1806336)
I0403 15:51:20.596294 14613 net.cpp:156] Memory required for data: 515408928
I0403 15:51:20.596309 14613 layer_factory.hpp:77] Creating layer inception_3a/3x3
I0403 15:51:20.596333 14613 net.cpp:91] Creating Layer inception_3a/3x3
I0403 15:51:20.596352 14613 net.cpp:425] inception_3a/3x3 <- inception_3a/3x3_reduce
I0403 15:51:20.596376 14613 net.cpp:399] inception_3a/3x3 -> inception_3a/3x3
I0403 15:51:20.598121 14613 net.cpp:141] Setting up inception_3a/3x3
I0403 15:51:20.598151 14613 net.cpp:148] Top shape: 24 128 28 28 (2408448)
I0403 15:51:20.598168 14613 net.cpp:156] Memory required for data: 525042720
I0403 15:51:20.598188 14613 layer_factory.hpp:77] Creating layer inception_3a/relu_3x3
I0403 15:51:20.598211 14613 net.cpp:91] Creating Layer inception_3a/relu_3x3
I0403 15:51:20.598230 14613 net.cpp:425] inception_3a/relu_3x3 <- inception_3a/3x3
I0403 15:51:20.598249 14613 net.cpp:386] inception_3a/relu_3x3 -> inception_3a/3x3 (in-place)
I0403 15:51:20.598537 14613 net.cpp:141] Setting up inception_3a/relu_3x3
I0403 15:51:20.598567 14613 net.cpp:148] Top shape: 24 128 28 28 (2408448)
I0403 15:51:20.598582 14613 net.cpp:156] Memory required for data: 534676512
I0403 15:51:20.598599 14613 layer_factory.hpp:77] Creating layer inception_3a/5x5_reduce
I0403 15:51:20.598624 14613 net.cpp:91] Creating Layer inception_3a/5x5_reduce
I0403 15:51:20.598644 14613 net.cpp:425] inception_3a/5x5_reduce <- pool2/3x3_s2_pool2/3x3_s2_0_split_2
I0403 15:51:20.598664 14613 net.cpp:399] inception_3a/5x5_reduce -> inception_3a/5x5_reduce
I0403 15:51:20.599688 14613 net.cpp:141] Setting up inception_3a/5x5_reduce
I0403 15:51:20.599720 14613 net.cpp:148] Top shape: 24 16 28 28 (301056)
I0403 15:51:20.599738 14613 net.cpp:156] Memory required for data: 535880736
I0403 15:51:20.599758 14613 layer_factory.hpp:77] Creating layer inception_3a/relu_5x5_reduce
I0403 15:51:20.599777 14613 net.cpp:91] Creating Layer inception_3a/relu_5x5_reduce
I0403 15:51:20.599794 14613 net.cpp:425] inception_3a/relu_5x5_reduce <- inception_3a/5x5_reduce
I0403 15:51:20.599817 14613 net.cpp:386] inception_3a/relu_5x5_reduce -> inception_3a/5x5_reduce (in-place)
I0403 15:51:20.600129 14613 net.cpp:141] Setting up inception_3a/relu_5x5_reduce
I0403 15:51:20.600158 14613 net.cpp:148] Top shape: 24 16 28 28 (301056)
I0403 15:51:20.600175 14613 net.cpp:156] Memory required for data: 537084960
I0403 15:51:20.600193 14613 layer_factory.hpp:77] Creating layer inception_3a/5x5
I0403 15:51:20.600217 14613 net.cpp:91] Creating Layer inception_3a/5x5
I0403 15:51:20.600236 14613 net.cpp:425] inception_3a/5x5 <- inception_3a/5x5_reduce
I0403 15:51:20.600258 14613 net.cpp:399] inception_3a/5x5 -> inception_3a/5x5
I0403 15:51:20.601331 14613 net.cpp:141] Setting up inception_3a/5x5
I0403 15:51:20.601361 14613 net.cpp:148] Top shape: 24 32 28 28 (602112)
I0403 15:51:20.601378 14613 net.cpp:156] Memory required for data: 539493408
I0403 15:51:20.601398 14613 layer_factory.hpp:77] Creating layer inception_3a/relu_5x5
I0403 15:51:20.601420 14613 net.cpp:91] Creating Layer inception_3a/relu_5x5
I0403 15:51:20.601438 14613 net.cpp:425] inception_3a/relu_5x5 <- inception_3a/5x5
I0403 15:51:20.601457 14613 net.cpp:386] inception_3a/relu_5x5 -> inception_3a/5x5 (in-place)
I0403 15:51:20.601640 14613 net.cpp:141] Setting up inception_3a/relu_5x5
I0403 15:51:20.601670 14613 net.cpp:148] Top shape: 24 32 28 28 (602112)
I0403 15:51:20.601686 14613 net.cpp:156] Memory required for data: 541901856
I0403 15:51:20.601701 14613 layer_factory.hpp:77] Creating layer inception_3a/pool
I0403 15:51:20.601721 14613 net.cpp:91] Creating Layer inception_3a/pool
I0403 15:51:20.601738 14613 net.cpp:425] inception_3a/pool <- pool2/3x3_s2_pool2/3x3_s2_0_split_3
I0403 15:51:20.601776 14613 net.cpp:399] inception_3a/pool -> inception_3a/pool
I0403 15:51:20.601840 14613 net.cpp:141] Setting up inception_3a/pool
I0403 15:51:20.601866 14613 net.cpp:148] Top shape: 24 192 28 28 (3612672)
I0403 15:51:20.601882 14613 net.cpp:156] Memory required for data: 556352544
I0403 15:51:20.601898 14613 layer_factory.hpp:77] Creating layer inception_3a/pool_proj
I0403 15:51:20.601925 14613 net.cpp:91] Creating Layer inception_3a/pool_proj
I0403 15:51:20.601944 14613 net.cpp:425] inception_3a/pool_proj <- inception_3a/pool
I0403 15:51:20.601964 14613 net.cpp:399] inception_3a/pool_proj -> inception_3a/pool_proj
I0403 15:51:20.602977 14613 net.cpp:141] Setting up inception_3a/pool_proj
I0403 15:51:20.603008 14613 net.cpp:148] Top shape: 24 32 28 28 (602112)
I0403 15:51:20.603024 14613 net.cpp:156] Memory required for data: 558760992
I0403 15:51:20.603049 14613 layer_factory.hpp:77] Creating layer inception_3a/relu_pool_proj
I0403 15:51:20.603070 14613 net.cpp:91] Creating Layer inception_3a/relu_pool_proj
I0403 15:51:20.603087 14613 net.cpp:425] inception_3a/relu_pool_proj <- inception_3a/pool_proj
I0403 15:51:20.603122 14613 net.cpp:386] inception_3a/relu_pool_proj -> inception_3a/pool_proj (in-place)
I0403 15:51:20.603415 14613 net.cpp:141] Setting up inception_3a/relu_pool_proj
I0403 15:51:20.603443 14613 net.cpp:148] Top shape: 24 32 28 28 (602112)
I0403 15:51:20.603461 14613 net.cpp:156] Memory required for data: 561169440
I0403 15:51:20.603477 14613 layer_factory.hpp:77] Creating layer inception_3a/output
I0403 15:51:20.603497 14613 net.cpp:91] Creating Layer inception_3a/output
I0403 15:51:20.603515 14613 net.cpp:425] inception_3a/output <- inception_3a/1x1
I0403 15:51:20.603533 14613 net.cpp:425] inception_3a/output <- inception_3a/3x3
I0403 15:51:20.603550 14613 net.cpp:425] inception_3a/output <- inception_3a/5x5
I0403 15:51:20.603569 14613 net.cpp:425] inception_3a/output <- inception_3a/pool_proj
I0403 15:51:20.603585 14613 net.cpp:399] inception_3a/output -> inception_3a/output
I0403 15:51:20.603636 14613 net.cpp:141] Setting up inception_3a/output
I0403 15:51:20.603662 14613 net.cpp:148] Top shape: 24 256 28 28 (4816896)
I0403 15:51:20.603678 14613 net.cpp:156] Memory required for data: 580437024
I0403 15:51:20.603694 14613 layer_factory.hpp:77] Creating layer inception_3a/output_inception_3a/output_0_split
I0403 15:51:20.603713 14613 net.cpp:91] Creating Layer inception_3a/output_inception_3a/output_0_split
I0403 15:51:20.603729 14613 net.cpp:425] inception_3a/output_inception_3a/output_0_split <- inception_3a/output
I0403 15:51:20.603750 14613 net.cpp:399] inception_3a/output_inception_3a/output_0_split -> inception_3a/output_inception_3a/output_0_split_0
I0403 15:51:20.603772 14613 net.cpp:399] inception_3a/output_inception_3a/output_0_split -> inception_3a/output_inception_3a/output_0_split_1
I0403 15:51:20.603801 14613 net.cpp:399] inception_3a/output_inception_3a/output_0_split -> inception_3a/output_inception_3a/output_0_split_2
I0403 15:51:20.603826 14613 net.cpp:399] inception_3a/output_inception_3a/output_0_split -> inception_3a/output_inception_3a/output_0_split_3
I0403 15:51:20.603904 14613 net.cpp:141] Setting up inception_3a/output_inception_3a/output_0_split
I0403 15:51:20.603929 14613 net.cpp:148] Top shape: 24 256 28 28 (4816896)
I0403 15:51:20.603950 14613 net.cpp:148] Top shape: 24 256 28 28 (4816896)
I0403 15:51:20.603968 14613 net.cpp:148] Top shape: 24 256 28 28 (4816896)
I0403 15:51:20.603986 14613 net.cpp:148] Top shape: 24 256 28 28 (4816896)
I0403 15:51:20.604001 14613 net.cpp:156] Memory required for data: 657507360
I0403 15:51:20.604017 14613 layer_factory.hpp:77] Creating layer inception_3b/1x1
I0403 15:51:20.604038 14613 net.cpp:91] Creating Layer inception_3b/1x1
I0403 15:51:20.604055 14613 net.cpp:425] inception_3b/1x1 <- inception_3a/output_inception_3a/output_0_split_0
I0403 15:51:20.604077 14613 net.cpp:399] inception_3b/1x1 -> inception_3b/1x1
I0403 15:51:20.605276 14613 net.cpp:141] Setting up inception_3b/1x1
I0403 15:51:20.605319 14613 net.cpp:148] Top shape: 24 128 28 28 (2408448)
I0403 15:51:20.605337 14613 net.cpp:156] Memory required for data: 667141152
I0403 15:51:20.605356 14613 layer_factory.hpp:77] Creating layer inception_3b/relu_1x1
I0403 15:51:20.605378 14613 net.cpp:91] Creating Layer inception_3b/relu_1x1
I0403 15:51:20.605397 14613 net.cpp:425] inception_3b/relu_1x1 <- inception_3b/1x1
I0403 15:51:20.605417 14613 net.cpp:386] inception_3b/relu_1x1 -> inception_3b/1x1 (in-place)
I0403 15:51:20.605602 14613 net.cpp:141] Setting up inception_3b/relu_1x1
I0403 15:51:20.605628 14613 net.cpp:148] Top shape: 24 128 28 28 (2408448)
I0403 15:51:20.605644 14613 net.cpp:156] Memory required for data: 676774944
I0403 15:51:20.605659 14613 layer_factory.hpp:77] Creating layer inception_3b/3x3_reduce
I0403 15:51:20.605684 14613 net.cpp:91] Creating Layer inception_3b/3x3_reduce
I0403 15:51:20.605705 14613 net.cpp:425] inception_3b/3x3_reduce <- inception_3a/output_inception_3a/output_0_split_1
I0403 15:51:20.605726 14613 net.cpp:399] inception_3b/3x3_reduce -> inception_3b/3x3_reduce
I0403 15:51:20.606921 14613 net.cpp:141] Setting up inception_3b/3x3_reduce
I0403 15:51:20.606951 14613 net.cpp:148] Top shape: 24 128 28 28 (2408448)
I0403 15:51:20.606969 14613 net.cpp:156] Memory required for data: 686408736
I0403 15:51:20.606987 14613 layer_factory.hpp:77] Creating layer inception_3b/relu_3x3_reduce
I0403 15:51:20.607009 14613 net.cpp:91] Creating Layer inception_3b/relu_3x3_reduce
I0403 15:51:20.607028 14613 net.cpp:425] inception_3b/relu_3x3_reduce <- inception_3b/3x3_reduce
I0403 15:51:20.607048 14613 net.cpp:386] inception_3b/relu_3x3_reduce -> inception_3b/3x3_reduce (in-place)
I0403 15:51:20.607236 14613 net.cpp:141] Setting up inception_3b/relu_3x3_reduce
I0403 15:51:20.607265 14613 net.cpp:148] Top shape: 24 128 28 28 (2408448)
I0403 15:51:20.607282 14613 net.cpp:156] Memory required for data: 696042528
I0403 15:51:20.607298 14613 layer_factory.hpp:77] Creating layer inception_3b/3x3
I0403 15:51:20.607324 14613 net.cpp:91] Creating Layer inception_3b/3x3
I0403 15:51:20.607344 14613 net.cpp:425] inception_3b/3x3 <- inception_3b/3x3_reduce
I0403 15:51:20.607367 14613 net.cpp:399] inception_3b/3x3 -> inception_3b/3x3
I0403 15:51:20.610419 14613 net.cpp:141] Setting up inception_3b/3x3
I0403 15:51:20.610450 14613 net.cpp:148] Top shape: 24 192 28 28 (3612672)
I0403 15:51:20.610467 14613 net.cpp:156] Memory required for data: 710493216
I0403 15:51:20.610487 14613 layer_factory.hpp:77] Creating layer inception_3b/relu_3x3
I0403 15:51:20.610509 14613 net.cpp:91] Creating Layer inception_3b/relu_3x3
I0403 15:51:20.610528 14613 net.cpp:425] inception_3b/relu_3x3 <- inception_3b/3x3
I0403 15:51:20.610548 14613 net.cpp:386] inception_3b/relu_3x3 -> inception_3b/3x3 (in-place)
I0403 15:51:20.610834 14613 net.cpp:141] Setting up inception_3b/relu_3x3
I0403 15:51:20.610862 14613 net.cpp:148] Top shape: 24 192 28 28 (3612672)
I0403 15:51:20.610877 14613 net.cpp:156] Memory required for data: 724943904
I0403 15:51:20.610893 14613 layer_factory.hpp:77] Creating layer inception_3b/5x5_reduce
I0403 15:51:20.610920 14613 net.cpp:91] Creating Layer inception_3b/5x5_reduce
I0403 15:51:20.610939 14613 net.cpp:425] inception_3b/5x5_reduce <- inception_3a/output_inception_3a/output_0_split_2
I0403 15:51:20.610960 14613 net.cpp:399] inception_3b/5x5_reduce -> inception_3b/5x5_reduce
I0403 15:51:20.612000 14613 net.cpp:141] Setting up inception_3b/5x5_reduce
I0403 15:51:20.612030 14613 net.cpp:148] Top shape: 24 32 28 28 (602112)
I0403 15:51:20.612049 14613 net.cpp:156] Memory required for data: 727352352
I0403 15:51:20.612069 14613 layer_factory.hpp:77] Creating layer inception_3b/relu_5x5_reduce
I0403 15:51:20.612098 14613 net.cpp:91] Creating Layer inception_3b/relu_5x5_reduce
I0403 15:51:20.612123 14613 net.cpp:425] inception_3b/relu_5x5_reduce <- inception_3b/5x5_reduce
I0403 15:51:20.612141 14613 net.cpp:386] inception_3b/relu_5x5_reduce -> inception_3b/5x5_reduce (in-place)
I0403 15:51:20.612328 14613 net.cpp:141] Setting up inception_3b/relu_5x5_reduce
I0403 15:51:20.612368 14613 net.cpp:148] Top shape: 24 32 28 28 (602112)
I0403 15:51:20.612385 14613 net.cpp:156] Memory required for data: 729760800
I0403 15:51:20.612401 14613 layer_factory.hpp:77] Creating layer inception_3b/5x5
I0403 15:51:20.612426 14613 net.cpp:91] Creating Layer inception_3b/5x5
I0403 15:51:20.612447 14613 net.cpp:425] inception_3b/5x5 <- inception_3b/5x5_reduce
I0403 15:51:20.612469 14613 net.cpp:399] inception_3b/5x5 -> inception_3b/5x5
I0403 15:51:20.614550 14613 net.cpp:141] Setting up inception_3b/5x5
I0403 15:51:20.614583 14613 net.cpp:148] Top shape: 24 96 28 28 (1806336)
I0403 15:51:20.614599 14613 net.cpp:156] Memory required for data: 736986144
I0403 15:51:20.614619 14613 layer_factory.hpp:77] Creating layer inception_3b/relu_5x5
I0403 15:51:20.614639 14613 net.cpp:91] Creating Layer inception_3b/relu_5x5
I0403 15:51:20.614658 14613 net.cpp:425] inception_3b/relu_5x5 <- inception_3b/5x5
I0403 15:51:20.614677 14613 net.cpp:386] inception_3b/relu_5x5 -> inception_3b/5x5 (in-place)
I0403 15:51:20.614883 14613 net.cpp:141] Setting up inception_3b/relu_5x5
I0403 15:51:20.614910 14613 net.cpp:148] Top shape: 24 96 28 28 (1806336)
I0403 15:51:20.614926 14613 net.cpp:156] Memory required for data: 744211488
I0403 15:51:20.614941 14613 layer_factory.hpp:77] Creating layer inception_3b/pool
I0403 15:51:20.614960 14613 net.cpp:91] Creating Layer inception_3b/pool
I0403 15:51:20.614979 14613 net.cpp:425] inception_3b/pool <- inception_3a/output_inception_3a/output_0_split_3
I0403 15:51:20.614997 14613 net.cpp:399] inception_3b/pool -> inception_3b/pool
I0403 15:51:20.615056 14613 net.cpp:141] Setting up inception_3b/pool
I0403 15:51:20.615082 14613 net.cpp:148] Top shape: 24 256 28 28 (4816896)
I0403 15:51:20.615103 14613 net.cpp:156] Memory required for data: 763479072
I0403 15:51:20.615119 14613 layer_factory.hpp:77] Creating layer inception_3b/pool_proj
I0403 15:51:20.615144 14613 net.cpp:91] Creating Layer inception_3b/pool_proj
I0403 15:51:20.615164 14613 net.cpp:425] inception_3b/pool_proj <- inception_3b/pool
I0403 15:51:20.615187 14613 net.cpp:399] inception_3b/pool_proj -> inception_3b/pool_proj
I0403 15:51:20.616304 14613 net.cpp:141] Setting up inception_3b/pool_proj
I0403 15:51:20.616334 14613 net.cpp:148] Top shape: 24 64 28 28 (1204224)
I0403 15:51:20.616351 14613 net.cpp:156] Memory required for data: 768295968
I0403 15:51:20.616371 14613 layer_factory.hpp:77] Creating layer inception_3b/relu_pool_proj
I0403 15:51:20.616392 14613 net.cpp:91] Creating Layer inception_3b/relu_pool_proj
I0403 15:51:20.616410 14613 net.cpp:425] inception_3b/relu_pool_proj <- inception_3b/pool_proj
I0403 15:51:20.616431 14613 net.cpp:386] inception_3b/relu_pool_proj -> inception_3b/pool_proj (in-place)
I0403 15:51:20.616847 14613 net.cpp:141] Setting up inception_3b/relu_pool_proj
I0403 15:51:20.616876 14613 net.cpp:148] Top shape: 24 64 28 28 (1204224)
I0403 15:51:20.616894 14613 net.cpp:156] Memory required for data: 773112864
I0403 15:51:20.616910 14613 layer_factory.hpp:77] Creating layer inception_3b/output
I0403 15:51:20.616928 14613 net.cpp:91] Creating Layer inception_3b/output
I0403 15:51:20.616945 14613 net.cpp:425] inception_3b/output <- inception_3b/1x1
I0403 15:51:20.616964 14613 net.cpp:425] inception_3b/output <- inception_3b/3x3
I0403 15:51:20.616981 14613 net.cpp:425] inception_3b/output <- inception_3b/5x5
I0403 15:51:20.616998 14613 net.cpp:425] inception_3b/output <- inception_3b/pool_proj
I0403 15:51:20.617019 14613 net.cpp:399] inception_3b/output -> inception_3b/output
I0403 15:51:20.617066 14613 net.cpp:141] Setting up inception_3b/output
I0403 15:51:20.617091 14613 net.cpp:148] Top shape: 24 480 28 28 (9031680)
I0403 15:51:20.617113 14613 net.cpp:156] Memory required for data: 809239584
I0403 15:51:20.617131 14613 layer_factory.hpp:77] Creating layer pool3/3x3_s2
I0403 15:51:20.617152 14613 net.cpp:91] Creating Layer pool3/3x3_s2
I0403 15:51:20.617172 14613 net.cpp:425] pool3/3x3_s2 <- inception_3b/output
I0403 15:51:20.617190 14613 net.cpp:399] pool3/3x3_s2 -> pool3/3x3_s2
I0403 15:51:20.617269 14613 net.cpp:141] Setting up pool3/3x3_s2
I0403 15:51:20.617295 14613 net.cpp:148] Top shape: 24 480 14 14 (2257920)
I0403 15:51:20.617311 14613 net.cpp:156] Memory required for data: 818271264
I0403 15:51:20.617327 14613 layer_factory.hpp:77] Creating layer pool3/3x3_s2_pool3/3x3_s2_0_split
I0403 15:51:20.617344 14613 net.cpp:91] Creating Layer pool3/3x3_s2_pool3/3x3_s2_0_split
I0403 15:51:20.617360 14613 net.cpp:425] pool3/3x3_s2_pool3/3x3_s2_0_split <- pool3/3x3_s2
I0403 15:51:20.617382 14613 net.cpp:399] pool3/3x3_s2_pool3/3x3_s2_0_split -> pool3/3x3_s2_pool3/3x3_s2_0_split_0
I0403 15:51:20.617403 14613 net.cpp:399] pool3/3x3_s2_pool3/3x3_s2_0_split -> pool3/3x3_s2_pool3/3x3_s2_0_split_1
I0403 15:51:20.617424 14613 net.cpp:399] pool3/3x3_s2_pool3/3x3_s2_0_split -> pool3/3x3_s2_pool3/3x3_s2_0_split_2
I0403 15:51:20.617444 14613 net.cpp:399] pool3/3x3_s2_pool3/3x3_s2_0_split -> pool3/3x3_s2_pool3/3x3_s2_0_split_3
I0403 15:51:20.617525 14613 net.cpp:141] Setting up pool3/3x3_s2_pool3/3x3_s2_0_split
I0403 15:51:20.617552 14613 net.cpp:148] Top shape: 24 480 14 14 (2257920)
I0403 15:51:20.617569 14613 net.cpp:148] Top shape: 24 480 14 14 (2257920)
I0403 15:51:20.617585 14613 net.cpp:148] Top shape: 24 480 14 14 (2257920)
I0403 15:51:20.617602 14613 net.cpp:148] Top shape: 24 480 14 14 (2257920)
I0403 15:51:20.617619 14613 net.cpp:156] Memory required for data: 854397984
I0403 15:51:20.617633 14613 layer_factory.hpp:77] Creating layer inception_4a/1x1
I0403 15:51:20.617660 14613 net.cpp:91] Creating Layer inception_4a/1x1
I0403 15:51:20.617679 14613 net.cpp:425] inception_4a/1x1 <- pool3/3x3_s2_pool3/3x3_s2_0_split_0
I0403 15:51:20.617702 14613 net.cpp:399] inception_4a/1x1 -> inception_4a/1x1
I0403 15:51:20.619356 14613 net.cpp:141] Setting up inception_4a/1x1
I0403 15:51:20.619386 14613 net.cpp:148] Top shape: 24 192 14 14 (903168)
I0403 15:51:20.619403 14613 net.cpp:156] Memory required for data: 858010656
I0403 15:51:20.619421 14613 layer_factory.hpp:77] Creating layer inception_4a/relu_1x1
I0403 15:51:20.619441 14613 net.cpp:91] Creating Layer inception_4a/relu_1x1
I0403 15:51:20.619458 14613 net.cpp:425] inception_4a/relu_1x1 <- inception_4a/1x1
I0403 15:51:20.619480 14613 net.cpp:386] inception_4a/relu_1x1 -> inception_4a/1x1 (in-place)
I0403 15:51:20.619666 14613 net.cpp:141] Setting up inception_4a/relu_1x1
I0403 15:51:20.619694 14613 net.cpp:148] Top shape: 24 192 14 14 (903168)
I0403 15:51:20.619710 14613 net.cpp:156] Memory required for data: 861623328
I0403 15:51:20.619725 14613 layer_factory.hpp:77] Creating layer inception_4a/3x3_reduce
I0403 15:51:20.619750 14613 net.cpp:91] Creating Layer inception_4a/3x3_reduce
I0403 15:51:20.619768 14613 net.cpp:425] inception_4a/3x3_reduce <- pool3/3x3_s2_pool3/3x3_s2_0_split_1
I0403 15:51:20.619791 14613 net.cpp:399] inception_4a/3x3_reduce -> inception_4a/3x3_reduce
I0403 15:51:20.621137 14613 net.cpp:141] Setting up inception_4a/3x3_reduce
I0403 15:51:20.621167 14613 net.cpp:148] Top shape: 24 96 14 14 (451584)
I0403 15:51:20.621183 14613 net.cpp:156] Memory required for data: 863429664
I0403 15:51:20.621212 14613 layer_factory.hpp:77] Creating layer inception_4a/relu_3x3_reduce
I0403 15:51:20.621234 14613 net.cpp:91] Creating Layer inception_4a/relu_3x3_reduce
I0403 15:51:20.621251 14613 net.cpp:425] inception_4a/relu_3x3_reduce <- inception_4a/3x3_reduce
I0403 15:51:20.621274 14613 net.cpp:386] inception_4a/relu_3x3_reduce -> inception_4a/3x3_reduce (in-place)
I0403 15:51:20.621460 14613 net.cpp:141] Setting up inception_4a/relu_3x3_reduce
I0403 15:51:20.621486 14613 net.cpp:148] Top shape: 24 96 14 14 (451584)
I0403 15:51:20.621503 14613 net.cpp:156] Memory required for data: 865236000
I0403 15:51:20.621520 14613 layer_factory.hpp:77] Creating layer inception_4a/3x3
I0403 15:51:20.621543 14613 net.cpp:91] Creating Layer inception_4a/3x3
I0403 15:51:20.621562 14613 net.cpp:425] inception_4a/3x3 <- inception_4a/3x3_reduce
I0403 15:51:20.621584 14613 net.cpp:399] inception_4a/3x3 -> inception_4a/3x3
I0403 15:51:20.624402 14613 net.cpp:141] Setting up inception_4a/3x3
I0403 15:51:20.624433 14613 net.cpp:148] Top shape: 24 208 14 14 (978432)
I0403 15:51:20.624449 14613 net.cpp:156] Memory required for data: 869149728
I0403 15:51:20.624469 14613 layer_factory.hpp:77] Creating layer inception_4a/relu_3x3
I0403 15:51:20.624490 14613 net.cpp:91] Creating Layer inception_4a/relu_3x3
I0403 15:51:20.624510 14613 net.cpp:425] inception_4a/relu_3x3 <- inception_4a/3x3
I0403 15:51:20.624528 14613 net.cpp:386] inception_4a/relu_3x3 -> inception_4a/3x3 (in-place)
I0403 15:51:20.624819 14613 net.cpp:141] Setting up inception_4a/relu_3x3
I0403 15:51:20.624847 14613 net.cpp:148] Top shape: 24 208 14 14 (978432)
I0403 15:51:20.624863 14613 net.cpp:156] Memory required for data: 873063456
I0403 15:51:20.624878 14613 layer_factory.hpp:77] Creating layer inception_4a/5x5_reduce
I0403 15:51:20.624903 14613 net.cpp:91] Creating Layer inception_4a/5x5_reduce
I0403 15:51:20.624923 14613 net.cpp:425] inception_4a/5x5_reduce <- pool3/3x3_s2_pool3/3x3_s2_0_split_2
I0403 15:51:20.624948 14613 net.cpp:399] inception_4a/5x5_reduce -> inception_4a/5x5_reduce
I0403 15:51:20.626020 14613 net.cpp:141] Setting up inception_4a/5x5_reduce
I0403 15:51:20.626050 14613 net.cpp:148] Top shape: 24 16 14 14 (75264)
I0403 15:51:20.626067 14613 net.cpp:156] Memory required for data: 873364512
I0403 15:51:20.626087 14613 layer_factory.hpp:77] Creating layer inception_4a/relu_5x5_reduce
I0403 15:51:20.626114 14613 net.cpp:91] Creating Layer inception_4a/relu_5x5_reduce
I0403 15:51:20.626133 14613 net.cpp:425] inception_4a/relu_5x5_reduce <- inception_4a/5x5_reduce
I0403 15:51:20.626152 14613 net.cpp:386] inception_4a/relu_5x5_reduce -> inception_4a/5x5_reduce (in-place)
I0403 15:51:20.626339 14613 net.cpp:141] Setting up inception_4a/relu_5x5_reduce
I0403 15:51:20.626368 14613 net.cpp:148] Top shape: 24 16 14 14 (75264)
I0403 15:51:20.626385 14613 net.cpp:156] Memory required for data: 873665568
I0403 15:51:20.626401 14613 layer_factory.hpp:77] Creating layer inception_4a/5x5
I0403 15:51:20.626426 14613 net.cpp:91] Creating Layer inception_4a/5x5
I0403 15:51:20.626447 14613 net.cpp:425] inception_4a/5x5 <- inception_4a/5x5_reduce
I0403 15:51:20.626469 14613 net.cpp:399] inception_4a/5x5 -> inception_4a/5x5
I0403 15:51:20.627610 14613 net.cpp:141] Setting up inception_4a/5x5
I0403 15:51:20.627642 14613 net.cpp:148] Top shape: 24 48 14 14 (225792)
I0403 15:51:20.627660 14613 net.cpp:156] Memory required for data: 874568736
I0403 15:51:20.627681 14613 layer_factory.hpp:77] Creating layer inception_4a/relu_5x5
I0403 15:51:20.627699 14613 net.cpp:91] Creating Layer inception_4a/relu_5x5
I0403 15:51:20.627717 14613 net.cpp:425] inception_4a/relu_5x5 <- inception_4a/5x5
I0403 15:51:20.627738 14613 net.cpp:386] inception_4a/relu_5x5 -> inception_4a/5x5 (in-place)
I0403 15:51:20.627926 14613 net.cpp:141] Setting up inception_4a/relu_5x5
I0403 15:51:20.627954 14613 net.cpp:148] Top shape: 24 48 14 14 (225792)
I0403 15:51:20.627970 14613 net.cpp:156] Memory required for data: 875471904
I0403 15:51:20.627986 14613 layer_factory.hpp:77] Creating layer inception_4a/pool
I0403 15:51:20.628005 14613 net.cpp:91] Creating Layer inception_4a/pool
I0403 15:51:20.628023 14613 net.cpp:425] inception_4a/pool <- pool3/3x3_s2_pool3/3x3_s2_0_split_3
I0403 15:51:20.628046 14613 net.cpp:399] inception_4a/pool -> inception_4a/pool
I0403 15:51:20.628118 14613 net.cpp:141] Setting up inception_4a/pool
I0403 15:51:20.628144 14613 net.cpp:148] Top shape: 24 480 14 14 (2257920)
I0403 15:51:20.628159 14613 net.cpp:156] Memory required for data: 884503584
I0403 15:51:20.628175 14613 layer_factory.hpp:77] Creating layer inception_4a/pool_proj
I0403 15:51:20.628201 14613 net.cpp:91] Creating Layer inception_4a/pool_proj
I0403 15:51:20.628221 14613 net.cpp:425] inception_4a/pool_proj <- inception_4a/pool
I0403 15:51:20.628242 14613 net.cpp:399] inception_4a/pool_proj -> inception_4a/pool_proj
I0403 15:51:20.629482 14613 net.cpp:141] Setting up inception_4a/pool_proj
I0403 15:51:20.629513 14613 net.cpp:148] Top shape: 24 64 14 14 (301056)
I0403 15:51:20.629546 14613 net.cpp:156] Memory required for data: 885707808
I0403 15:51:20.629567 14613 layer_factory.hpp:77] Creating layer inception_4a/relu_pool_proj
I0403 15:51:20.629587 14613 net.cpp:91] Creating Layer inception_4a/relu_pool_proj
I0403 15:51:20.629606 14613 net.cpp:425] inception_4a/relu_pool_proj <- inception_4a/pool_proj
I0403 15:51:20.629629 14613 net.cpp:386] inception_4a/relu_pool_proj -> inception_4a/pool_proj (in-place)
I0403 15:51:20.629928 14613 net.cpp:141] Setting up inception_4a/relu_pool_proj
I0403 15:51:20.629956 14613 net.cpp:148] Top shape: 24 64 14 14 (301056)
I0403 15:51:20.629973 14613 net.cpp:156] Memory required for data: 886912032
I0403 15:51:20.629988 14613 layer_factory.hpp:77] Creating layer inception_4a/output
I0403 15:51:20.630007 14613 net.cpp:91] Creating Layer inception_4a/output
I0403 15:51:20.630024 14613 net.cpp:425] inception_4a/output <- inception_4a/1x1
I0403 15:51:20.630043 14613 net.cpp:425] inception_4a/output <- inception_4a/3x3
I0403 15:51:20.630060 14613 net.cpp:425] inception_4a/output <- inception_4a/5x5
I0403 15:51:20.630077 14613 net.cpp:425] inception_4a/output <- inception_4a/pool_proj
I0403 15:51:20.630105 14613 net.cpp:399] inception_4a/output -> inception_4a/output
I0403 15:51:20.630156 14613 net.cpp:141] Setting up inception_4a/output
I0403 15:51:20.630183 14613 net.cpp:148] Top shape: 24 512 14 14 (2408448)
I0403 15:51:20.630203 14613 net.cpp:156] Memory required for data: 896545824
I0403 15:51:20.630219 14613 layer_factory.hpp:77] Creating layer inception_4a/output_inception_4a/output_0_split
I0403 15:51:20.630239 14613 net.cpp:91] Creating Layer inception_4a/output_inception_4a/output_0_split
I0403 15:51:20.630255 14613 net.cpp:425] inception_4a/output_inception_4a/output_0_split <- inception_4a/output
I0403 15:51:20.630277 14613 net.cpp:399] inception_4a/output_inception_4a/output_0_split -> inception_4a/output_inception_4a/output_0_split_0
I0403 15:51:20.630301 14613 net.cpp:399] inception_4a/output_inception_4a/output_0_split -> inception_4a/output_inception_4a/output_0_split_1
I0403 15:51:20.630324 14613 net.cpp:399] inception_4a/output_inception_4a/output_0_split -> inception_4a/output_inception_4a/output_0_split_2
I0403 15:51:20.630345 14613 net.cpp:399] inception_4a/output_inception_4a/output_0_split -> inception_4a/output_inception_4a/output_0_split_3
I0403 15:51:20.630367 14613 net.cpp:399] inception_4a/output_inception_4a/output_0_split -> inception_4a/output_inception_4a/output_0_split_4
I0403 15:51:20.630465 14613 net.cpp:141] Setting up inception_4a/output_inception_4a/output_0_split
I0403 15:51:20.630491 14613 net.cpp:148] Top shape: 24 512 14 14 (2408448)
I0403 15:51:20.630508 14613 net.cpp:148] Top shape: 24 512 14 14 (2408448)
I0403 15:51:20.630527 14613 net.cpp:148] Top shape: 24 512 14 14 (2408448)
I0403 15:51:20.630543 14613 net.cpp:148] Top shape: 24 512 14 14 (2408448)
I0403 15:51:20.630559 14613 net.cpp:148] Top shape: 24 512 14 14 (2408448)
I0403 15:51:20.630574 14613 net.cpp:156] Memory required for data: 944714784
I0403 15:51:20.630589 14613 layer_factory.hpp:77] Creating layer loss1/ave_pool
I0403 15:51:20.630610 14613 net.cpp:91] Creating Layer loss1/ave_pool
I0403 15:51:20.630630 14613 net.cpp:425] loss1/ave_pool <- inception_4a/output_inception_4a/output_0_split_0
I0403 15:51:20.630650 14613 net.cpp:399] loss1/ave_pool -> loss1/ave_pool
I0403 15:51:20.630867 14613 net.cpp:141] Setting up loss1/ave_pool
I0403 15:51:20.630894 14613 net.cpp:148] Top shape: 24 512 4 4 (196608)
I0403 15:51:20.630911 14613 net.cpp:156] Memory required for data: 945501216
I0403 15:51:20.630928 14613 layer_factory.hpp:77] Creating layer loss1/conv
I0403 15:51:20.630951 14613 net.cpp:91] Creating Layer loss1/conv
I0403 15:51:20.630970 14613 net.cpp:425] loss1/conv <- loss1/ave_pool
I0403 15:51:20.630992 14613 net.cpp:399] loss1/conv -> loss1/conv
I0403 15:51:20.632477 14613 net.cpp:141] Setting up loss1/conv
I0403 15:51:20.632508 14613 net.cpp:148] Top shape: 24 128 4 4 (49152)
I0403 15:51:20.632524 14613 net.cpp:156] Memory required for data: 945697824
I0403 15:51:20.632560 14613 layer_factory.hpp:77] Creating layer loss1/relu_conv
I0403 15:51:20.632586 14613 net.cpp:91] Creating Layer loss1/relu_conv
I0403 15:51:20.632604 14613 net.cpp:425] loss1/relu_conv <- loss1/conv
I0403 15:51:20.632623 14613 net.cpp:386] loss1/relu_conv -> loss1/conv (in-place)
I0403 15:51:20.632936 14613 net.cpp:141] Setting up loss1/relu_conv
I0403 15:51:20.632964 14613 net.cpp:148] Top shape: 24 128 4 4 (49152)
I0403 15:51:20.632982 14613 net.cpp:156] Memory required for data: 945894432
I0403 15:51:20.632997 14613 layer_factory.hpp:77] Creating layer loss1/fc
I0403 15:51:20.633025 14613 net.cpp:91] Creating Layer loss1/fc
I0403 15:51:20.633046 14613 net.cpp:425] loss1/fc <- loss1/conv
I0403 15:51:20.633069 14613 net.cpp:399] loss1/fc -> loss1/fc
I0403 15:51:20.651995 14613 net.cpp:141] Setting up loss1/fc
I0403 15:51:20.652034 14613 net.cpp:148] Top shape: 24 1024 (24576)
I0403 15:51:20.652051 14613 net.cpp:156] Memory required for data: 945992736
I0403 15:51:20.652071 14613 layer_factory.hpp:77] Creating layer loss1/relu_fc
I0403 15:51:20.652091 14613 net.cpp:91] Creating Layer loss1/relu_fc
I0403 15:51:20.652113 14613 net.cpp:425] loss1/relu_fc <- loss1/fc
I0403 15:51:20.652135 14613 net.cpp:386] loss1/relu_fc -> loss1/fc (in-place)
I0403 15:51:20.652333 14613 net.cpp:141] Setting up loss1/relu_fc
I0403 15:51:20.652360 14613 net.cpp:148] Top shape: 24 1024 (24576)
I0403 15:51:20.652376 14613 net.cpp:156] Memory required for data: 946091040
I0403 15:51:20.652392 14613 layer_factory.hpp:77] Creating layer loss1/drop_fc
I0403 15:51:20.652421 14613 net.cpp:91] Creating Layer loss1/drop_fc
I0403 15:51:20.652441 14613 net.cpp:425] loss1/drop_fc <- loss1/fc
I0403 15:51:20.652459 14613 net.cpp:386] loss1/drop_fc -> loss1/fc (in-place)
I0403 15:51:20.652513 14613 net.cpp:141] Setting up loss1/drop_fc
I0403 15:51:20.652541 14613 net.cpp:148] Top shape: 24 1024 (24576)
I0403 15:51:20.652559 14613 net.cpp:156] Memory required for data: 946189344
I0403 15:51:20.652576 14613 layer_factory.hpp:77] Creating layer loss1/classifier_plantvillage
I0403 15:51:20.652596 14613 net.cpp:91] Creating Layer loss1/classifier_plantvillage
I0403 15:51:20.652612 14613 net.cpp:425] loss1/classifier_plantvillage <- loss1/fc
I0403 15:51:20.652637 14613 net.cpp:399] loss1/classifier_plantvillage -> loss1/classifier_plantvillage
I0403 15:51:20.653591 14613 net.cpp:141] Setting up loss1/classifier_plantvillage
I0403 15:51:20.653622 14613 net.cpp:148] Top shape: 24 38 (912)
I0403 15:51:20.653640 14613 net.cpp:156] Memory required for data: 946192992
I0403 15:51:20.653658 14613 layer_factory.hpp:77] Creating layer loss1/classifier_plantvillage_loss1/classifier_plantvillage_0_split
I0403 15:51:20.653678 14613 net.cpp:91] Creating Layer loss1/classifier_plantvillage_loss1/classifier_plantvillage_0_split
I0403 15:51:20.653695 14613 net.cpp:425] loss1/classifier_plantvillage_loss1/classifier_plantvillage_0_split <- loss1/classifier_plantvillage
I0403 15:51:20.653717 14613 net.cpp:399] loss1/classifier_plantvillage_loss1/classifier_plantvillage_0_split -> loss1/classifier_plantvillage_loss1/classifier_plantvillage_0_split_0
I0403 15:51:20.653740 14613 net.cpp:399] loss1/classifier_plantvillage_loss1/classifier_plantvillage_0_split -> loss1/classifier_plantvillage_loss1/classifier_plantvillage_0_split_1
I0403 15:51:20.653764 14613 net.cpp:399] loss1/classifier_plantvillage_loss1/classifier_plantvillage_0_split -> loss1/classifier_plantvillage_loss1/classifier_plantvillage_0_split_2
I0403 15:51:20.653836 14613 net.cpp:141] Setting up loss1/classifier_plantvillage_loss1/classifier_plantvillage_0_split
I0403 15:51:20.653861 14613 net.cpp:148] Top shape: 24 38 (912)
I0403 15:51:20.653879 14613 net.cpp:148] Top shape: 24 38 (912)
I0403 15:51:20.653895 14613 net.cpp:148] Top shape: 24 38 (912)
I0403 15:51:20.653910 14613 net.cpp:156] Memory required for data: 946203936
I0403 15:51:20.653928 14613 layer_factory.hpp:77] Creating layer inception_4b/1x1
I0403 15:51:20.653954 14613 net.cpp:91] Creating Layer inception_4b/1x1
I0403 15:51:20.653990 14613 net.cpp:425] inception_4b/1x1 <- inception_4a/output_inception_4a/output_0_split_1
I0403 15:51:20.654013 14613 net.cpp:399] inception_4b/1x1 -> inception_4b/1x1
I0403 15:51:20.655750 14613 net.cpp:141] Setting up inception_4b/1x1
I0403 15:51:20.655781 14613 net.cpp:148] Top shape: 24 160 14 14 (752640)
I0403 15:51:20.655798 14613 net.cpp:156] Memory required for data: 949214496
I0403 15:51:20.655818 14613 layer_factory.hpp:77] Creating layer inception_4b/relu_1x1
I0403 15:51:20.655840 14613 net.cpp:91] Creating Layer inception_4b/relu_1x1
I0403 15:51:20.655859 14613 net.cpp:425] inception_4b/relu_1x1 <- inception_4b/1x1
I0403 15:51:20.655879 14613 net.cpp:386] inception_4b/relu_1x1 -> inception_4b/1x1 (in-place)
I0403 15:51:20.656070 14613 net.cpp:141] Setting up inception_4b/relu_1x1
I0403 15:51:20.656105 14613 net.cpp:148] Top shape: 24 160 14 14 (752640)
I0403 15:51:20.656124 14613 net.cpp:156] Memory required for data: 952225056
I0403 15:51:20.656141 14613 layer_factory.hpp:77] Creating layer inception_4b/3x3_reduce
I0403 15:51:20.656167 14613 net.cpp:91] Creating Layer inception_4b/3x3_reduce
I0403 15:51:20.656188 14613 net.cpp:425] inception_4b/3x3_reduce <- inception_4a/output_inception_4a/output_0_split_2
I0403 15:51:20.656209 14613 net.cpp:399] inception_4b/3x3_reduce -> inception_4b/3x3_reduce
I0403 15:51:20.657658 14613 net.cpp:141] Setting up inception_4b/3x3_reduce
I0403 15:51:20.657692 14613 net.cpp:148] Top shape: 24 112 14 14 (526848)
I0403 15:51:20.657711 14613 net.cpp:156] Memory required for data: 954332448
I0403 15:51:20.657730 14613 layer_factory.hpp:77] Creating layer inception_4b/relu_3x3_reduce
I0403 15:51:20.657750 14613 net.cpp:91] Creating Layer inception_4b/relu_3x3_reduce
I0403 15:51:20.657768 14613 net.cpp:425] inception_4b/relu_3x3_reduce <- inception_4b/3x3_reduce
I0403 15:51:20.657788 14613 net.cpp:386] inception_4b/relu_3x3_reduce -> inception_4b/3x3_reduce (in-place)
I0403 15:51:20.658090 14613 net.cpp:141] Setting up inception_4b/relu_3x3_reduce
I0403 15:51:20.658125 14613 net.cpp:148] Top shape: 24 112 14 14 (526848)
I0403 15:51:20.658144 14613 net.cpp:156] Memory required for data: 956439840
I0403 15:51:20.658160 14613 layer_factory.hpp:77] Creating layer inception_4b/3x3
I0403 15:51:20.658185 14613 net.cpp:91] Creating Layer inception_4b/3x3
I0403 15:51:20.658205 14613 net.cpp:425] inception_4b/3x3 <- inception_4b/3x3_reduce
I0403 15:51:20.658226 14613 net.cpp:399] inception_4b/3x3 -> inception_4b/3x3
I0403 15:51:20.661378 14613 net.cpp:141] Setting up inception_4b/3x3
I0403 15:51:20.661411 14613 net.cpp:148] Top shape: 24 224 14 14 (1053696)
I0403 15:51:20.661428 14613 net.cpp:156] Memory required for data: 960654624
I0403 15:51:20.661448 14613 layer_factory.hpp:77] Creating layer inception_4b/relu_3x3
I0403 15:51:20.661468 14613 net.cpp:91] Creating Layer inception_4b/relu_3x3
I0403 15:51:20.661487 14613 net.cpp:425] inception_4b/relu_3x3 <- inception_4b/3x3
I0403 15:51:20.661509 14613 net.cpp:386] inception_4b/relu_3x3 -> inception_4b/3x3 (in-place)
I0403 15:51:20.661702 14613 net.cpp:141] Setting up inception_4b/relu_3x3
I0403 15:51:20.661730 14613 net.cpp:148] Top shape: 24 224 14 14 (1053696)
I0403 15:51:20.661746 14613 net.cpp:156] Memory required for data: 964869408
I0403 15:51:20.661761 14613 layer_factory.hpp:77] Creating layer inception_4b/5x5_reduce
I0403 15:51:20.661784 14613 net.cpp:91] Creating Layer inception_4b/5x5_reduce
I0403 15:51:20.661803 14613 net.cpp:425] inception_4b/5x5_reduce <- inception_4a/output_inception_4a/output_0_split_3
I0403 15:51:20.661828 14613 net.cpp:399] inception_4b/5x5_reduce -> inception_4b/5x5_reduce
I0403 15:51:20.662971 14613 net.cpp:141] Setting up inception_4b/5x5_reduce
I0403 15:51:20.663002 14613 net.cpp:148] Top shape: 24 24 14 14 (112896)
I0403 15:51:20.663020 14613 net.cpp:156] Memory required for data: 965320992
I0403 15:51:20.663040 14613 layer_factory.hpp:77] Creating layer inception_4b/relu_5x5_reduce
I0403 15:51:20.663060 14613 net.cpp:91] Creating Layer inception_4b/relu_5x5_reduce
I0403 15:51:20.663103 14613 net.cpp:425] inception_4b/relu_5x5_reduce <- inception_4b/5x5_reduce
I0403 15:51:20.663128 14613 net.cpp:386] inception_4b/relu_5x5_reduce -> inception_4b/5x5_reduce (in-place)
I0403 15:51:20.663326 14613 net.cpp:141] Setting up inception_4b/relu_5x5_reduce
I0403 15:51:20.663357 14613 net.cpp:148] Top shape: 24 24 14 14 (112896)
I0403 15:51:20.663377 14613 net.cpp:156] Memory required for data: 965772576
I0403 15:51:20.663393 14613 layer_factory.hpp:77] Creating layer inception_4b/5x5
I0403 15:51:20.663417 14613 net.cpp:91] Creating Layer inception_4b/5x5
I0403 15:51:20.663437 14613 net.cpp:425] inception_4b/5x5 <- inception_4b/5x5_reduce
I0403 15:51:20.663460 14613 net.cpp:399] inception_4b/5x5 -> inception_4b/5x5
I0403 15:51:20.664752 14613 net.cpp:141] Setting up inception_4b/5x5
I0403 15:51:20.664782 14613 net.cpp:148] Top shape: 24 64 14 14 (301056)
I0403 15:51:20.664798 14613 net.cpp:156] Memory required for data: 966976800
I0403 15:51:20.664818 14613 layer_factory.hpp:77] Creating layer inception_4b/relu_5x5
I0403 15:51:20.664839 14613 net.cpp:91] Creating Layer inception_4b/relu_5x5
I0403 15:51:20.664856 14613 net.cpp:425] inception_4b/relu_5x5 <- inception_4b/5x5
I0403 15:51:20.664876 14613 net.cpp:386] inception_4b/relu_5x5 -> inception_4b/5x5 (in-place)
I0403 15:51:20.665189 14613 net.cpp:141] Setting up inception_4b/relu_5x5
I0403 15:51:20.665218 14613 net.cpp:148] Top shape: 24 64 14 14 (301056)
I0403 15:51:20.665235 14613 net.cpp:156] Memory required for data: 968181024
I0403 15:51:20.665251 14613 layer_factory.hpp:77] Creating layer inception_4b/pool
I0403 15:51:20.665273 14613 net.cpp:91] Creating Layer inception_4b/pool
I0403 15:51:20.665292 14613 net.cpp:425] inception_4b/pool <- inception_4a/output_inception_4a/output_0_split_4
I0403 15:51:20.665313 14613 net.cpp:399] inception_4b/pool -> inception_4b/pool
I0403 15:51:20.665382 14613 net.cpp:141] Setting up inception_4b/pool
I0403 15:51:20.665410 14613 net.cpp:148] Top shape: 24 512 14 14 (2408448)
I0403 15:51:20.665434 14613 net.cpp:156] Memory required for data: 977814816
I0403 15:51:20.665451 14613 layer_factory.hpp:77] Creating layer inception_4b/pool_proj
I0403 15:51:20.665474 14613 net.cpp:91] Creating Layer inception_4b/pool_proj
I0403 15:51:20.665494 14613 net.cpp:425] inception_4b/pool_proj <- inception_4b/pool
I0403 15:51:20.665518 14613 net.cpp:399] inception_4b/pool_proj -> inception_4b/pool_proj
I0403 15:51:20.666793 14613 net.cpp:141] Setting up inception_4b/pool_proj
I0403 15:51:20.666823 14613 net.cpp:148] Top shape: 24 64 14 14 (301056)
I0403 15:51:20.666841 14613 net.cpp:156] Memory required for data: 979019040
I0403 15:51:20.666860 14613 layer_factory.hpp:77] Creating layer inception_4b/relu_pool_proj
I0403 15:51:20.666882 14613 net.cpp:91] Creating Layer inception_4b/relu_pool_proj
I0403 15:51:20.666900 14613 net.cpp:425] inception_4b/relu_pool_proj <- inception_4b/pool_proj
I0403 15:51:20.666919 14613 net.cpp:386] inception_4b/relu_pool_proj -> inception_4b/pool_proj (in-place)
I0403 15:51:20.667116 14613 net.cpp:141] Setting up inception_4b/relu_pool_proj
I0403 15:51:20.667143 14613 net.cpp:148] Top shape: 24 64 14 14 (301056)
I0403 15:51:20.667160 14613 net.cpp:156] Memory required for data: 980223264
I0403 15:51:20.667176 14613 layer_factory.hpp:77] Creating layer inception_4b/output
I0403 15:51:20.667196 14613 net.cpp:91] Creating Layer inception_4b/output
I0403 15:51:20.667212 14613 net.cpp:425] inception_4b/output <- inception_4b/1x1
I0403 15:51:20.667229 14613 net.cpp:425] inception_4b/output <- inception_4b/3x3
I0403 15:51:20.667246 14613 net.cpp:425] inception_4b/output <- inception_4b/5x5
I0403 15:51:20.667263 14613 net.cpp:425] inception_4b/output <- inception_4b/pool_proj
I0403 15:51:20.667284 14613 net.cpp:399] inception_4b/output -> inception_4b/output
I0403 15:51:20.667332 14613 net.cpp:141] Setting up inception_4b/output
I0403 15:51:20.667363 14613 net.cpp:148] Top shape: 24 512 14 14 (2408448)
I0403 15:51:20.667382 14613 net.cpp:156] Memory required for data: 989857056
I0403 15:51:20.667412 14613 layer_factory.hpp:77] Creating layer inception_4b/output_inception_4b/output_0_split
I0403 15:51:20.667433 14613 net.cpp:91] Creating Layer inception_4b/output_inception_4b/output_0_split
I0403 15:51:20.667449 14613 net.cpp:425] inception_4b/output_inception_4b/output_0_split <- inception_4b/output
I0403 15:51:20.667469 14613 net.cpp:399] inception_4b/output_inception_4b/output_0_split -> inception_4b/output_inception_4b/output_0_split_0
I0403 15:51:20.667490 14613 net.cpp:399] inception_4b/output_inception_4b/output_0_split -> inception_4b/output_inception_4b/output_0_split_1
I0403 15:51:20.667515 14613 net.cpp:399] inception_4b/output_inception_4b/output_0_split -> inception_4b/output_inception_4b/output_0_split_2
I0403 15:51:20.667538 14613 net.cpp:399] inception_4b/output_inception_4b/output_0_split -> inception_4b/output_inception_4b/output_0_split_3
I0403 15:51:20.667629 14613 net.cpp:141] Setting up inception_4b/output_inception_4b/output_0_split
I0403 15:51:20.667654 14613 net.cpp:148] Top shape: 24 512 14 14 (2408448)
I0403 15:51:20.667672 14613 net.cpp:148] Top shape: 24 512 14 14 (2408448)
I0403 15:51:20.667688 14613 net.cpp:148] Top shape: 24 512 14 14 (2408448)
I0403 15:51:20.667706 14613 net.cpp:148] Top shape: 24 512 14 14 (2408448)
I0403 15:51:20.667721 14613 net.cpp:156] Memory required for data: 1028392224
I0403 15:51:20.667737 14613 layer_factory.hpp:77] Creating layer inception_4c/1x1
I0403 15:51:20.667759 14613 net.cpp:91] Creating Layer inception_4c/1x1
I0403 15:51:20.667778 14613 net.cpp:425] inception_4c/1x1 <- inception_4b/output_inception_4b/output_0_split_0
I0403 15:51:20.667801 14613 net.cpp:399] inception_4c/1x1 -> inception_4c/1x1
I0403 15:51:20.669353 14613 net.cpp:141] Setting up inception_4c/1x1
I0403 15:51:20.669384 14613 net.cpp:148] Top shape: 24 128 14 14 (602112)
I0403 15:51:20.669402 14613 net.cpp:156] Memory required for data: 1030800672
I0403 15:51:20.669431 14613 layer_factory.hpp:77] Creating layer inception_4c/relu_1x1
I0403 15:51:20.669450 14613 net.cpp:91] Creating Layer inception_4c/relu_1x1
I0403 15:51:20.669468 14613 net.cpp:425] inception_4c/relu_1x1 <- inception_4c/1x1
I0403 15:51:20.669489 14613 net.cpp:386] inception_4c/relu_1x1 -> inception_4c/1x1 (in-place)
I0403 15:51:20.669684 14613 net.cpp:141] Setting up inception_4c/relu_1x1
I0403 15:51:20.669711 14613 net.cpp:148] Top shape: 24 128 14 14 (602112)
I0403 15:51:20.669728 14613 net.cpp:156] Memory required for data: 1033209120
I0403 15:51:20.669744 14613 layer_factory.hpp:77] Creating layer inception_4c/3x3_reduce
I0403 15:51:20.669766 14613 net.cpp:91] Creating Layer inception_4c/3x3_reduce
I0403 15:51:20.669785 14613 net.cpp:425] inception_4c/3x3_reduce <- inception_4b/output_inception_4b/output_0_split_1
I0403 15:51:20.669809 14613 net.cpp:399] inception_4c/3x3_reduce -> inception_4c/3x3_reduce
I0403 15:51:20.671847 14613 net.cpp:141] Setting up inception_4c/3x3_reduce
I0403 15:51:20.671879 14613 net.cpp:148] Top shape: 24 128 14 14 (602112)
I0403 15:51:20.671895 14613 net.cpp:156] Memory required for data: 1035617568
I0403 15:51:20.671916 14613 layer_factory.hpp:77] Creating layer inception_4c/relu_3x3_reduce
I0403 15:51:20.671938 14613 net.cpp:91] Creating Layer inception_4c/relu_3x3_reduce
I0403 15:51:20.671957 14613 net.cpp:425] inception_4c/relu_3x3_reduce <- inception_4c/3x3_reduce
I0403 15:51:20.671977 14613 net.cpp:386] inception_4c/relu_3x3_reduce -> inception_4c/3x3_reduce (in-place)
I0403 15:51:20.672282 14613 net.cpp:141] Setting up inception_4c/relu_3x3_reduce
I0403 15:51:20.672312 14613 net.cpp:148] Top shape: 24 128 14 14 (602112)
I0403 15:51:20.672328 14613 net.cpp:156] Memory required for data: 1038026016
I0403 15:51:20.672344 14613 layer_factory.hpp:77] Creating layer inception_4c/3x3
I0403 15:51:20.672369 14613 net.cpp:91] Creating Layer inception_4c/3x3
I0403 15:51:20.672389 14613 net.cpp:425] inception_4c/3x3 <- inception_4c/3x3_reduce
I0403 15:51:20.672415 14613 net.cpp:399] inception_4c/3x3 -> inception_4c/3x3
I0403 15:51:20.676290 14613 net.cpp:141] Setting up inception_4c/3x3
I0403 15:51:20.676337 14613 net.cpp:148] Top shape: 24 256 14 14 (1204224)
I0403 15:51:20.676357 14613 net.cpp:156] Memory required for data: 1042842912
I0403 15:51:20.676391 14613 layer_factory.hpp:77] Creating layer inception_4c/relu_3x3
I0403 15:51:20.676416 14613 net.cpp:91] Creating Layer inception_4c/relu_3x3
I0403 15:51:20.676436 14613 net.cpp:425] inception_4c/relu_3x3 <- inception_4c/3x3
I0403 15:51:20.676456 14613 net.cpp:386] inception_4c/relu_3x3 -> inception_4c/3x3 (in-place)
I0403 15:51:20.676651 14613 net.cpp:141] Setting up inception_4c/relu_3x3
I0403 15:51:20.676681 14613 net.cpp:148] Top shape: 24 256 14 14 (1204224)
I0403 15:51:20.676699 14613 net.cpp:156] Memory required for data: 1047659808
I0403 15:51:20.676714 14613 layer_factory.hpp:77] Creating layer inception_4c/5x5_reduce
I0403 15:51:20.676738 14613 net.cpp:91] Creating Layer inception_4c/5x5_reduce
I0403 15:51:20.676759 14613 net.cpp:425] inception_4c/5x5_reduce <- inception_4b/output_inception_4b/output_0_split_2
I0403 15:51:20.676779 14613 net.cpp:399] inception_4c/5x5_reduce -> inception_4c/5x5_reduce
I0403 15:51:20.677930 14613 net.cpp:141] Setting up inception_4c/5x5_reduce
I0403 15:51:20.677961 14613 net.cpp:148] Top shape: 24 24 14 14 (112896)
I0403 15:51:20.677988 14613 net.cpp:156] Memory required for data: 1048111392
I0403 15:51:20.678007 14613 layer_factory.hpp:77] Creating layer inception_4c/relu_5x5_reduce
I0403 15:51:20.678028 14613 net.cpp:91] Creating Layer inception_4c/relu_5x5_reduce
I0403 15:51:20.678050 14613 net.cpp:425] inception_4c/relu_5x5_reduce <- inception_4c/5x5_reduce
I0403 15:51:20.678073 14613 net.cpp:386] inception_4c/relu_5x5_reduce -> inception_4c/5x5_reduce (in-place)
I0403 15:51:20.678275 14613 net.cpp:141] Setting up inception_4c/relu_5x5_reduce
I0403 15:51:20.678308 14613 net.cpp:148] Top shape: 24 24 14 14 (112896)
I0403 15:51:20.678325 14613 net.cpp:156] Memory required for data: 1048562976
I0403 15:51:20.678342 14613 layer_factory.hpp:77] Creating layer inception_4c/5x5
I0403 15:51:20.678367 14613 net.cpp:91] Creating Layer inception_4c/5x5
I0403 15:51:20.678390 14613 net.cpp:425] inception_4c/5x5 <- inception_4c/5x5_reduce
I0403 15:51:20.678411 14613 net.cpp:399] inception_4c/5x5 -> inception_4c/5x5
I0403 15:51:20.679726 14613 net.cpp:141] Setting up inception_4c/5x5
I0403 15:51:20.679766 14613 net.cpp:148] Top shape: 24 64 14 14 (301056)
I0403 15:51:20.679785 14613 net.cpp:156] Memory required for data: 1049767200
I0403 15:51:20.679805 14613 layer_factory.hpp:77] Creating layer inception_4c/relu_5x5
I0403 15:51:20.679823 14613 net.cpp:91] Creating Layer inception_4c/relu_5x5
I0403 15:51:20.679843 14613 net.cpp:425] inception_4c/relu_5x5 <- inception_4c/5x5
I0403 15:51:20.679869 14613 net.cpp:386] inception_4c/relu_5x5 -> inception_4c/5x5 (in-place)
I0403 15:51:20.680186 14613 net.cpp:141] Setting up inception_4c/relu_5x5
I0403 15:51:20.680215 14613 net.cpp:148] Top shape: 24 64 14 14 (301056)
I0403 15:51:20.680238 14613 net.cpp:156] Memory required for data: 1050971424
I0403 15:51:20.680256 14613 layer_factory.hpp:77] Creating layer inception_4c/pool
I0403 15:51:20.680275 14613 net.cpp:91] Creating Layer inception_4c/pool
I0403 15:51:20.680292 14613 net.cpp:425] inception_4c/pool <- inception_4b/output_inception_4b/output_0_split_3
I0403 15:51:20.680320 14613 net.cpp:399] inception_4c/pool -> inception_4c/pool
I0403 15:51:20.680392 14613 net.cpp:141] Setting up inception_4c/pool
I0403 15:51:20.680418 14613 net.cpp:148] Top shape: 24 512 14 14 (2408448)
I0403 15:51:20.680433 14613 net.cpp:156] Memory required for data: 1060605216
I0403 15:51:20.680452 14613 layer_factory.hpp:77] Creating layer inception_4c/pool_proj
I0403 15:51:20.680482 14613 net.cpp:91] Creating Layer inception_4c/pool_proj
I0403 15:51:20.680503 14613 net.cpp:425] inception_4c/pool_proj <- inception_4c/pool
I0403 15:51:20.680524 14613 net.cpp:399] inception_4c/pool_proj -> inception_4c/pool_proj
I0403 15:51:20.681826 14613 net.cpp:141] Setting up inception_4c/pool_proj
I0403 15:51:20.681856 14613 net.cpp:148] Top shape: 24 64 14 14 (301056)
I0403 15:51:20.681888 14613 net.cpp:156] Memory required for data: 1061809440
I0403 15:51:20.681910 14613 layer_factory.hpp:77] Creating layer inception_4c/relu_pool_proj
I0403 15:51:20.681932 14613 net.cpp:91] Creating Layer inception_4c/relu_pool_proj
I0403 15:51:20.681951 14613 net.cpp:425] inception_4c/relu_pool_proj <- inception_4c/pool_proj
I0403 15:51:20.681970 14613 net.cpp:386] inception_4c/relu_pool_proj -> inception_4c/pool_proj (in-place)
I0403 15:51:20.682171 14613 net.cpp:141] Setting up inception_4c/relu_pool_proj
I0403 15:51:20.682200 14613 net.cpp:148] Top shape: 24 64 14 14 (301056)
I0403 15:51:20.682216 14613 net.cpp:156] Memory required for data: 1063013664
I0403 15:51:20.682232 14613 layer_factory.hpp:77] Creating layer inception_4c/output
I0403 15:51:20.682251 14613 net.cpp:91] Creating Layer inception_4c/output
I0403 15:51:20.682267 14613 net.cpp:425] inception_4c/output <- inception_4c/1x1
I0403 15:51:20.682284 14613 net.cpp:425] inception_4c/output <- inception_4c/3x3
I0403 15:51:20.682301 14613 net.cpp:425] inception_4c/output <- inception_4c/5x5
I0403 15:51:20.682319 14613 net.cpp:425] inception_4c/output <- inception_4c/pool_proj
I0403 15:51:20.682342 14613 net.cpp:399] inception_4c/output -> inception_4c/output
I0403 15:51:20.682391 14613 net.cpp:141] Setting up inception_4c/output
I0403 15:51:20.682417 14613 net.cpp:148] Top shape: 24 512 14 14 (2408448)
I0403 15:51:20.682437 14613 net.cpp:156] Memory required for data: 1072647456
I0403 15:51:20.682453 14613 layer_factory.hpp:77] Creating layer inception_4c/output_inception_4c/output_0_split
I0403 15:51:20.682471 14613 net.cpp:91] Creating Layer inception_4c/output_inception_4c/output_0_split
I0403 15:51:20.682488 14613 net.cpp:425] inception_4c/output_inception_4c/output_0_split <- inception_4c/output
I0403 15:51:20.682507 14613 net.cpp:399] inception_4c/output_inception_4c/output_0_split -> inception_4c/output_inception_4c/output_0_split_0
I0403 15:51:20.682528 14613 net.cpp:399] inception_4c/output_inception_4c/output_0_split -> inception_4c/output_inception_4c/output_0_split_1
I0403 15:51:20.682548 14613 net.cpp:399] inception_4c/output_inception_4c/output_0_split -> inception_4c/output_inception_4c/output_0_split_2
I0403 15:51:20.682574 14613 net.cpp:399] inception_4c/output_inception_4c/output_0_split -> inception_4c/output_inception_4c/output_0_split_3
I0403 15:51:20.682668 14613 net.cpp:141] Setting up inception_4c/output_inception_4c/output_0_split
I0403 15:51:20.682695 14613 net.cpp:148] Top shape: 24 512 14 14 (2408448)
I0403 15:51:20.682713 14613 net.cpp:148] Top shape: 24 512 14 14 (2408448)
I0403 15:51:20.682730 14613 net.cpp:148] Top shape: 24 512 14 14 (2408448)
I0403 15:51:20.682746 14613 net.cpp:148] Top shape: 24 512 14 14 (2408448)
I0403 15:51:20.682761 14613 net.cpp:156] Memory required for data: 1111182624
I0403 15:51:20.682776 14613 layer_factory.hpp:77] Creating layer inception_4d/1x1
I0403 15:51:20.682801 14613 net.cpp:91] Creating Layer inception_4d/1x1
I0403 15:51:20.682819 14613 net.cpp:425] inception_4d/1x1 <- inception_4c/output_inception_4c/output_0_split_0
I0403 15:51:20.682845 14613 net.cpp:399] inception_4d/1x1 -> inception_4d/1x1
I0403 15:51:20.684340 14613 net.cpp:141] Setting up inception_4d/1x1
I0403 15:51:20.684371 14613 net.cpp:148] Top shape: 24 112 14 14 (526848)
I0403 15:51:20.684388 14613 net.cpp:156] Memory required for data: 1113290016
I0403 15:51:20.684408 14613 layer_factory.hpp:77] Creating layer inception_4d/relu_1x1
I0403 15:51:20.684432 14613 net.cpp:91] Creating Layer inception_4d/relu_1x1
I0403 15:51:20.684451 14613 net.cpp:425] inception_4d/relu_1x1 <- inception_4d/1x1
I0403 15:51:20.684470 14613 net.cpp:386] inception_4d/relu_1x1 -> inception_4d/1x1 (in-place)
I0403 15:51:20.684665 14613 net.cpp:141] Setting up inception_4d/relu_1x1
I0403 15:51:20.684692 14613 net.cpp:148] Top shape: 24 112 14 14 (526848)
I0403 15:51:20.684712 14613 net.cpp:156] Memory required for data: 1115397408
I0403 15:51:20.684730 14613 layer_factory.hpp:77] Creating layer inception_4d/3x3_reduce
I0403 15:51:20.684767 14613 net.cpp:91] Creating Layer inception_4d/3x3_reduce
I0403 15:51:20.684787 14613 net.cpp:425] inception_4d/3x3_reduce <- inception_4c/output_inception_4c/output_0_split_1
I0403 15:51:20.684810 14613 net.cpp:399] inception_4d/3x3_reduce -> inception_4d/3x3_reduce
I0403 15:51:20.686422 14613 net.cpp:141] Setting up inception_4d/3x3_reduce
I0403 15:51:20.686455 14613 net.cpp:148] Top shape: 24 144 14 14 (677376)
I0403 15:51:20.686473 14613 net.cpp:156] Memory required for data: 1118106912
I0403 15:51:20.686493 14613 layer_factory.hpp:77] Creating layer inception_4d/relu_3x3_reduce
I0403 15:51:20.686512 14613 net.cpp:91] Creating Layer inception_4d/relu_3x3_reduce
I0403 15:51:20.686529 14613 net.cpp:425] inception_4d/relu_3x3_reduce <- inception_4d/3x3_reduce
I0403 15:51:20.686550 14613 net.cpp:386] inception_4d/relu_3x3_reduce -> inception_4d/3x3_reduce (in-place)
I0403 15:51:20.686853 14613 net.cpp:141] Setting up inception_4d/relu_3x3_reduce
I0403 15:51:20.686885 14613 net.cpp:148] Top shape: 24 144 14 14 (677376)
I0403 15:51:20.686903 14613 net.cpp:156] Memory required for data: 1120816416
I0403 15:51:20.686920 14613 layer_factory.hpp:77] Creating layer inception_4d/3x3
I0403 15:51:20.686944 14613 net.cpp:91] Creating Layer inception_4d/3x3
I0403 15:51:20.686965 14613 net.cpp:425] inception_4d/3x3 <- inception_4d/3x3_reduce
I0403 15:51:20.686988 14613 net.cpp:399] inception_4d/3x3 -> inception_4d/3x3
I0403 15:51:20.691427 14613 net.cpp:141] Setting up inception_4d/3x3
I0403 15:51:20.691457 14613 net.cpp:148] Top shape: 24 288 14 14 (1354752)
I0403 15:51:20.691474 14613 net.cpp:156] Memory required for data: 1126235424
I0403 15:51:20.691494 14613 layer_factory.hpp:77] Creating layer inception_4d/relu_3x3
I0403 15:51:20.691515 14613 net.cpp:91] Creating Layer inception_4d/relu_3x3
I0403 15:51:20.691534 14613 net.cpp:425] inception_4d/relu_3x3 <- inception_4d/3x3
I0403 15:51:20.691551 14613 net.cpp:386] inception_4d/relu_3x3 -> inception_4d/3x3 (in-place)
I0403 15:51:20.691745 14613 net.cpp:141] Setting up inception_4d/relu_3x3
I0403 15:51:20.691771 14613 net.cpp:148] Top shape: 24 288 14 14 (1354752)
I0403 15:51:20.691787 14613 net.cpp:156] Memory required for data: 1131654432
I0403 15:51:20.691803 14613 layer_factory.hpp:77] Creating layer inception_4d/5x5_reduce
I0403 15:51:20.691828 14613 net.cpp:91] Creating Layer inception_4d/5x5_reduce
I0403 15:51:20.691848 14613 net.cpp:425] inception_4d/5x5_reduce <- inception_4c/output_inception_4c/output_0_split_2
I0403 15:51:20.691867 14613 net.cpp:399] inception_4d/5x5_reduce -> inception_4d/5x5_reduce
I0403 15:51:20.693047 14613 net.cpp:141] Setting up inception_4d/5x5_reduce
I0403 15:51:20.693076 14613 net.cpp:148] Top shape: 24 32 14 14 (150528)
I0403 15:51:20.693092 14613 net.cpp:156] Memory required for data: 1132256544
I0403 15:51:20.693125 14613 layer_factory.hpp:77] Creating layer inception_4d/relu_5x5_reduce
I0403 15:51:20.693147 14613 net.cpp:91] Creating Layer inception_4d/relu_5x5_reduce
I0403 15:51:20.693166 14613 net.cpp:425] inception_4d/relu_5x5_reduce <- inception_4d/5x5_reduce
I0403 15:51:20.693184 14613 net.cpp:386] inception_4d/relu_5x5_reduce -> inception_4d/5x5_reduce (in-place)
I0403 15:51:20.693378 14613 net.cpp:141] Setting up inception_4d/relu_5x5_reduce
I0403 15:51:20.693408 14613 net.cpp:148] Top shape: 24 32 14 14 (150528)
I0403 15:51:20.693425 14613 net.cpp:156] Memory required for data: 1132858656
I0403 15:51:20.693441 14613 layer_factory.hpp:77] Creating layer inception_4d/5x5
I0403 15:51:20.693461 14613 net.cpp:91] Creating Layer inception_4d/5x5
I0403 15:51:20.693480 14613 net.cpp:425] inception_4d/5x5 <- inception_4d/5x5_reduce
I0403 15:51:20.693503 14613 net.cpp:399] inception_4d/5x5 -> inception_4d/5x5
I0403 15:51:20.695006 14613 net.cpp:141] Setting up inception_4d/5x5
I0403 15:51:20.695039 14613 net.cpp:148] Top shape: 24 64 14 14 (301056)
I0403 15:51:20.695056 14613 net.cpp:156] Memory required for data: 1134062880
I0403 15:51:20.695076 14613 layer_factory.hpp:77] Creating layer inception_4d/relu_5x5
I0403 15:51:20.695130 14613 net.cpp:91] Creating Layer inception_4d/relu_5x5
I0403 15:51:20.695152 14613 net.cpp:425] inception_4d/relu_5x5 <- inception_4d/5x5
I0403 15:51:20.695170 14613 net.cpp:386] inception_4d/relu_5x5 -> inception_4d/5x5 (in-place)
I0403 15:51:20.695489 14613 net.cpp:141] Setting up inception_4d/relu_5x5
I0403 15:51:20.695520 14613 net.cpp:148] Top shape: 24 64 14 14 (301056)
I0403 15:51:20.695538 14613 net.cpp:156] Memory required for data: 1135267104
I0403 15:51:20.695555 14613 layer_factory.hpp:77] Creating layer inception_4d/pool
I0403 15:51:20.695574 14613 net.cpp:91] Creating Layer inception_4d/pool
I0403 15:51:20.695593 14613 net.cpp:425] inception_4d/pool <- inception_4c/output_inception_4c/output_0_split_3
I0403 15:51:20.695613 14613 net.cpp:399] inception_4d/pool -> inception_4d/pool
I0403 15:51:20.695688 14613 net.cpp:141] Setting up inception_4d/pool
I0403 15:51:20.695713 14613 net.cpp:148] Top shape: 24 512 14 14 (2408448)
I0403 15:51:20.695729 14613 net.cpp:156] Memory required for data: 1144900896
I0403 15:51:20.695744 14613 layer_factory.hpp:77] Creating layer inception_4d/pool_proj
I0403 15:51:20.695768 14613 net.cpp:91] Creating Layer inception_4d/pool_proj
I0403 15:51:20.695786 14613 net.cpp:425] inception_4d/pool_proj <- inception_4d/pool
I0403 15:51:20.695809 14613 net.cpp:399] inception_4d/pool_proj -> inception_4d/pool_proj
I0403 15:51:20.697659 14613 net.cpp:141] Setting up inception_4d/pool_proj
I0403 15:51:20.697690 14613 net.cpp:148] Top shape: 24 64 14 14 (301056)
I0403 15:51:20.697708 14613 net.cpp:156] Memory required for data: 1146105120
I0403 15:51:20.697729 14613 layer_factory.hpp:77] Creating layer inception_4d/relu_pool_proj
I0403 15:51:20.697751 14613 net.cpp:91] Creating Layer inception_4d/relu_pool_proj
I0403 15:51:20.697770 14613 net.cpp:425] inception_4d/relu_pool_proj <- inception_4d/pool_proj
I0403 15:51:20.697789 14613 net.cpp:386] inception_4d/relu_pool_proj -> inception_4d/pool_proj (in-place)
I0403 15:51:20.697986 14613 net.cpp:141] Setting up inception_4d/relu_pool_proj
I0403 15:51:20.698014 14613 net.cpp:148] Top shape: 24 64 14 14 (301056)
I0403 15:51:20.698029 14613 net.cpp:156] Memory required for data: 1147309344
I0403 15:51:20.698045 14613 layer_factory.hpp:77] Creating layer inception_4d/output
I0403 15:51:20.698066 14613 net.cpp:91] Creating Layer inception_4d/output
I0403 15:51:20.698084 14613 net.cpp:425] inception_4d/output <- inception_4d/1x1
I0403 15:51:20.698107 14613 net.cpp:425] inception_4d/output <- inception_4d/3x3
I0403 15:51:20.698127 14613 net.cpp:425] inception_4d/output <- inception_4d/5x5
I0403 15:51:20.698143 14613 net.cpp:425] inception_4d/output <- inception_4d/pool_proj
I0403 15:51:20.698163 14613 net.cpp:399] inception_4d/output -> inception_4d/output
I0403 15:51:20.698215 14613 net.cpp:141] Setting up inception_4d/output
I0403 15:51:20.698240 14613 net.cpp:148] Top shape: 24 528 14 14 (2483712)
I0403 15:51:20.698256 14613 net.cpp:156] Memory required for data: 1157244192
I0403 15:51:20.698271 14613 layer_factory.hpp:77] Creating layer inception_4d/output_inception_4d/output_0_split
I0403 15:51:20.698290 14613 net.cpp:91] Creating Layer inception_4d/output_inception_4d/output_0_split
I0403 15:51:20.698307 14613 net.cpp:425] inception_4d/output_inception_4d/output_0_split <- inception_4d/output
I0403 15:51:20.698328 14613 net.cpp:399] inception_4d/output_inception_4d/output_0_split -> inception_4d/output_inception_4d/output_0_split_0
I0403 15:51:20.698353 14613 net.cpp:399] inception_4d/output_inception_4d/output_0_split -> inception_4d/output_inception_4d/output_0_split_1
I0403 15:51:20.698375 14613 net.cpp:399] inception_4d/output_inception_4d/output_0_split -> inception_4d/output_inception_4d/output_0_split_2
I0403 15:51:20.698402 14613 net.cpp:399] inception_4d/output_inception_4d/output_0_split -> inception_4d/output_inception_4d/output_0_split_3
I0403 15:51:20.698426 14613 net.cpp:399] inception_4d/output_inception_4d/output_0_split -> inception_4d/output_inception_4d/output_0_split_4
I0403 15:51:20.698535 14613 net.cpp:141] Setting up inception_4d/output_inception_4d/output_0_split
I0403 15:51:20.698575 14613 net.cpp:148] Top shape: 24 528 14 14 (2483712)
I0403 15:51:20.698593 14613 net.cpp:148] Top shape: 24 528 14 14 (2483712)
I0403 15:51:20.698611 14613 net.cpp:148] Top shape: 24 528 14 14 (2483712)
I0403 15:51:20.698626 14613 net.cpp:148] Top shape: 24 528 14 14 (2483712)
I0403 15:51:20.698643 14613 net.cpp:148] Top shape: 24 528 14 14 (2483712)
I0403 15:51:20.698658 14613 net.cpp:156] Memory required for data: 1206918432
I0403 15:51:20.698674 14613 layer_factory.hpp:77] Creating layer loss2/ave_pool
I0403 15:51:20.698693 14613 net.cpp:91] Creating Layer loss2/ave_pool
I0403 15:51:20.698711 14613 net.cpp:425] loss2/ave_pool <- inception_4d/output_inception_4d/output_0_split_0
I0403 15:51:20.698736 14613 net.cpp:399] loss2/ave_pool -> loss2/ave_pool
I0403 15:51:20.699065 14613 net.cpp:141] Setting up loss2/ave_pool
I0403 15:51:20.699098 14613 net.cpp:148] Top shape: 24 528 4 4 (202752)
I0403 15:51:20.699117 14613 net.cpp:156] Memory required for data: 1207729440
I0403 15:51:20.699134 14613 layer_factory.hpp:77] Creating layer loss2/conv
I0403 15:51:20.699158 14613 net.cpp:91] Creating Layer loss2/conv
I0403 15:51:20.699177 14613 net.cpp:425] loss2/conv <- loss2/ave_pool
I0403 15:51:20.699200 14613 net.cpp:399] loss2/conv -> loss2/conv
I0403 15:51:20.701198 14613 net.cpp:141] Setting up loss2/conv
I0403 15:51:20.701231 14613 net.cpp:148] Top shape: 24 128 4 4 (49152)
I0403 15:51:20.701249 14613 net.cpp:156] Memory required for data: 1207926048
I0403 15:51:20.701268 14613 layer_factory.hpp:77] Creating layer loss2/relu_conv
I0403 15:51:20.701287 14613 net.cpp:91] Creating Layer loss2/relu_conv
I0403 15:51:20.701304 14613 net.cpp:425] loss2/relu_conv <- loss2/conv
I0403 15:51:20.701325 14613 net.cpp:386] loss2/relu_conv -> loss2/conv (in-place)
I0403 15:51:20.701619 14613 net.cpp:141] Setting up loss2/relu_conv
I0403 15:51:20.701649 14613 net.cpp:148] Top shape: 24 128 4 4 (49152)
I0403 15:51:20.701668 14613 net.cpp:156] Memory required for data: 1208122656
I0403 15:51:20.701683 14613 layer_factory.hpp:77] Creating layer loss2/fc
I0403 15:51:20.701704 14613 net.cpp:91] Creating Layer loss2/fc
I0403 15:51:20.701721 14613 net.cpp:425] loss2/fc <- loss2/conv
I0403 15:51:20.701745 14613 net.cpp:399] loss2/fc -> loss2/fc
I0403 15:51:20.719682 14613 net.cpp:141] Setting up loss2/fc
I0403 15:51:20.719719 14613 net.cpp:148] Top shape: 24 1024 (24576)
I0403 15:51:20.719737 14613 net.cpp:156] Memory required for data: 1208220960
I0403 15:51:20.719754 14613 layer_factory.hpp:77] Creating layer loss2/relu_fc
I0403 15:51:20.719775 14613 net.cpp:91] Creating Layer loss2/relu_fc
I0403 15:51:20.719794 14613 net.cpp:425] loss2/relu_fc <- loss2/fc
I0403 15:51:20.719812 14613 net.cpp:386] loss2/relu_fc -> loss2/fc (in-place)
I0403 15:51:20.720116 14613 net.cpp:141] Setting up loss2/relu_fc
I0403 15:51:20.720144 14613 net.cpp:148] Top shape: 24 1024 (24576)
I0403 15:51:20.720158 14613 net.cpp:156] Memory required for data: 1208319264
I0403 15:51:20.720173 14613 layer_factory.hpp:77] Creating layer loss2/drop_fc
I0403 15:51:20.720193 14613 net.cpp:91] Creating Layer loss2/drop_fc
I0403 15:51:20.720211 14613 net.cpp:425] loss2/drop_fc <- loss2/fc
I0403 15:51:20.720228 14613 net.cpp:386] loss2/drop_fc -> loss2/fc (in-place)
I0403 15:51:20.720278 14613 net.cpp:141] Setting up loss2/drop_fc
I0403 15:51:20.720301 14613 net.cpp:148] Top shape: 24 1024 (24576)
I0403 15:51:20.720315 14613 net.cpp:156] Memory required for data: 1208417568
I0403 15:51:20.720330 14613 layer_factory.hpp:77] Creating layer loss2/classifier_plantvillage
I0403 15:51:20.720347 14613 net.cpp:91] Creating Layer loss2/classifier_plantvillage
I0403 15:51:20.720363 14613 net.cpp:425] loss2/classifier_plantvillage <- loss2/fc
I0403 15:51:20.720386 14613 net.cpp:399] loss2/classifier_plantvillage -> loss2/classifier_plantvillage
I0403 15:51:20.720779 14613 net.cpp:141] Setting up loss2/classifier_plantvillage
I0403 15:51:20.720804 14613 net.cpp:148] Top shape: 24 38 (912)
I0403 15:51:20.720819 14613 net.cpp:156] Memory required for data: 1208421216
I0403 15:51:20.720856 14613 layer_factory.hpp:77] Creating layer loss2/classifier_plantvillage_loss2/classifier_plantvillage_0_split
I0403 15:51:20.720875 14613 net.cpp:91] Creating Layer loss2/classifier_plantvillage_loss2/classifier_plantvillage_0_split
I0403 15:51:20.720891 14613 net.cpp:425] loss2/classifier_plantvillage_loss2/classifier_plantvillage_0_split <- loss2/classifier_plantvillage
I0403 15:51:20.720911 14613 net.cpp:399] loss2/classifier_plantvillage_loss2/classifier_plantvillage_0_split -> loss2/classifier_plantvillage_loss2/classifier_plantvillage_0_split_0
I0403 15:51:20.720933 14613 net.cpp:399] loss2/classifier_plantvillage_loss2/classifier_plantvillage_0_split -> loss2/classifier_plantvillage_loss2/classifier_plantvillage_0_split_1
I0403 15:51:20.720954 14613 net.cpp:399] loss2/classifier_plantvillage_loss2/classifier_plantvillage_0_split -> loss2/classifier_plantvillage_loss2/classifier_plantvillage_0_split_2
I0403 15:51:20.721030 14613 net.cpp:141] Setting up loss2/classifier_plantvillage_loss2/classifier_plantvillage_0_split
I0403 15:51:20.721055 14613 net.cpp:148] Top shape: 24 38 (912)
I0403 15:51:20.721071 14613 net.cpp:148] Top shape: 24 38 (912)
I0403 15:51:20.721084 14613 net.cpp:148] Top shape: 24 38 (912)
I0403 15:51:20.721103 14613 net.cpp:156] Memory required for data: 1208432160
I0403 15:51:20.721118 14613 layer_factory.hpp:77] Creating layer inception_4e/1x1
I0403 15:51:20.721140 14613 net.cpp:91] Creating Layer inception_4e/1x1
I0403 15:51:20.721159 14613 net.cpp:425] inception_4e/1x1 <- inception_4d/output_inception_4d/output_0_split_1
I0403 15:51:20.721179 14613 net.cpp:399] inception_4e/1x1 -> inception_4e/1x1
I0403 15:51:20.722950 14613 net.cpp:141] Setting up inception_4e/1x1
I0403 15:51:20.722980 14613 net.cpp:148] Top shape: 24 256 14 14 (1204224)
I0403 15:51:20.722995 14613 net.cpp:156] Memory required for data: 1213249056
I0403 15:51:20.723013 14613 layer_factory.hpp:77] Creating layer inception_4e/relu_1x1
I0403 15:51:20.723031 14613 net.cpp:91] Creating Layer inception_4e/relu_1x1
I0403 15:51:20.723048 14613 net.cpp:425] inception_4e/relu_1x1 <- inception_4e/1x1
I0403 15:51:20.723067 14613 net.cpp:386] inception_4e/relu_1x1 -> inception_4e/1x1 (in-place)
I0403 15:51:20.723366 14613 net.cpp:141] Setting up inception_4e/relu_1x1
I0403 15:51:20.723394 14613 net.cpp:148] Top shape: 24 256 14 14 (1204224)
I0403 15:51:20.723410 14613 net.cpp:156] Memory required for data: 1218065952
I0403 15:51:20.723426 14613 layer_factory.hpp:77] Creating layer inception_4e/3x3_reduce
I0403 15:51:20.723448 14613 net.cpp:91] Creating Layer inception_4e/3x3_reduce
I0403 15:51:20.723466 14613 net.cpp:425] inception_4e/3x3_reduce <- inception_4d/output_inception_4d/output_0_split_2
I0403 15:51:20.723489 14613 net.cpp:399] inception_4e/3x3_reduce -> inception_4e/3x3_reduce
I0403 15:51:20.725539 14613 net.cpp:141] Setting up inception_4e/3x3_reduce
I0403 15:51:20.725569 14613 net.cpp:148] Top shape: 24 160 14 14 (752640)
I0403 15:51:20.725585 14613 net.cpp:156] Memory required for data: 1221076512
I0403 15:51:20.725605 14613 layer_factory.hpp:77] Creating layer inception_4e/relu_3x3_reduce
I0403 15:51:20.725625 14613 net.cpp:91] Creating Layer inception_4e/relu_3x3_reduce
I0403 15:51:20.725641 14613 net.cpp:425] inception_4e/relu_3x3_reduce <- inception_4e/3x3_reduce
I0403 15:51:20.725658 14613 net.cpp:386] inception_4e/relu_3x3_reduce -> inception_4e/3x3_reduce (in-place)
I0403 15:51:20.725842 14613 net.cpp:141] Setting up inception_4e/relu_3x3_reduce
I0403 15:51:20.725868 14613 net.cpp:148] Top shape: 24 160 14 14 (752640)
I0403 15:51:20.725883 14613 net.cpp:156] Memory required for data: 1224087072
I0403 15:51:20.725899 14613 layer_factory.hpp:77] Creating layer inception_4e/3x3
I0403 15:51:20.725921 14613 net.cpp:91] Creating Layer inception_4e/3x3
I0403 15:51:20.725940 14613 net.cpp:425] inception_4e/3x3 <- inception_4e/3x3_reduce
I0403 15:51:20.725962 14613 net.cpp:399] inception_4e/3x3 -> inception_4e/3x3
I0403 15:51:20.730818 14613 net.cpp:141] Setting up inception_4e/3x3
I0403 15:51:20.730859 14613 net.cpp:148] Top shape: 24 320 14 14 (1505280)
I0403 15:51:20.730876 14613 net.cpp:156] Memory required for data: 1230108192
I0403 15:51:20.730895 14613 layer_factory.hpp:77] Creating layer inception_4e/relu_3x3
I0403 15:51:20.730914 14613 net.cpp:91] Creating Layer inception_4e/relu_3x3
I0403 15:51:20.730931 14613 net.cpp:425] inception_4e/relu_3x3 <- inception_4e/3x3
I0403 15:51:20.730952 14613 net.cpp:386] inception_4e/relu_3x3 -> inception_4e/3x3 (in-place)
I0403 15:51:20.731248 14613 net.cpp:141] Setting up inception_4e/relu_3x3
I0403 15:51:20.731276 14613 net.cpp:148] Top shape: 24 320 14 14 (1505280)
I0403 15:51:20.731290 14613 net.cpp:156] Memory required for data: 1236129312
I0403 15:51:20.731305 14613 layer_factory.hpp:77] Creating layer inception_4e/5x5_reduce
I0403 15:51:20.731328 14613 net.cpp:91] Creating Layer inception_4e/5x5_reduce
I0403 15:51:20.731348 14613 net.cpp:425] inception_4e/5x5_reduce <- inception_4d/output_inception_4d/output_0_split_3
I0403 15:51:20.731369 14613 net.cpp:399] inception_4e/5x5_reduce -> inception_4e/5x5_reduce
I0403 15:51:20.732412 14613 net.cpp:141] Setting up inception_4e/5x5_reduce
I0403 15:51:20.732442 14613 net.cpp:148] Top shape: 24 32 14 14 (150528)
I0403 15:51:20.732460 14613 net.cpp:156] Memory required for data: 1236731424
I0403 15:51:20.732478 14613 layer_factory.hpp:77] Creating layer inception_4e/relu_5x5_reduce
I0403 15:51:20.732496 14613 net.cpp:91] Creating Layer inception_4e/relu_5x5_reduce
I0403 15:51:20.732512 14613 net.cpp:425] inception_4e/relu_5x5_reduce <- inception_4e/5x5_reduce
I0403 15:51:20.732529 14613 net.cpp:386] inception_4e/relu_5x5_reduce -> inception_4e/5x5_reduce (in-place)
I0403 15:51:20.732822 14613 net.cpp:141] Setting up inception_4e/relu_5x5_reduce
I0403 15:51:20.732851 14613 net.cpp:148] Top shape: 24 32 14 14 (150528)
I0403 15:51:20.732867 14613 net.cpp:156] Memory required for data: 1237333536
I0403 15:51:20.732882 14613 layer_factory.hpp:77] Creating layer inception_4e/5x5
I0403 15:51:20.732920 14613 net.cpp:91] Creating Layer inception_4e/5x5
I0403 15:51:20.732940 14613 net.cpp:425] inception_4e/5x5 <- inception_4e/5x5_reduce
I0403 15:51:20.732959 14613 net.cpp:399] inception_4e/5x5 -> inception_4e/5x5
I0403 15:51:20.734766 14613 net.cpp:141] Setting up inception_4e/5x5
I0403 15:51:20.734796 14613 net.cpp:148] Top shape: 24 128 14 14 (602112)
I0403 15:51:20.734810 14613 net.cpp:156] Memory required for data: 1239741984
I0403 15:51:20.734829 14613 layer_factory.hpp:77] Creating layer inception_4e/relu_5x5
I0403 15:51:20.734849 14613 net.cpp:91] Creating Layer inception_4e/relu_5x5
I0403 15:51:20.734869 14613 net.cpp:425] inception_4e/relu_5x5 <- inception_4e/5x5
I0403 15:51:20.734886 14613 net.cpp:386] inception_4e/relu_5x5 -> inception_4e/5x5 (in-place)
I0403 15:51:20.735080 14613 net.cpp:141] Setting up inception_4e/relu_5x5
I0403 15:51:20.735110 14613 net.cpp:148] Top shape: 24 128 14 14 (602112)
I0403 15:51:20.735127 14613 net.cpp:156] Memory required for data: 1242150432
I0403 15:51:20.735142 14613 layer_factory.hpp:77] Creating layer inception_4e/pool
I0403 15:51:20.735159 14613 net.cpp:91] Creating Layer inception_4e/pool
I0403 15:51:20.735175 14613 net.cpp:425] inception_4e/pool <- inception_4d/output_inception_4d/output_0_split_4
I0403 15:51:20.735196 14613 net.cpp:399] inception_4e/pool -> inception_4e/pool
I0403 15:51:20.735265 14613 net.cpp:141] Setting up inception_4e/pool
I0403 15:51:20.735288 14613 net.cpp:148] Top shape: 24 528 14 14 (2483712)
I0403 15:51:20.735304 14613 net.cpp:156] Memory required for data: 1252085280
I0403 15:51:20.735319 14613 layer_factory.hpp:77] Creating layer inception_4e/pool_proj
I0403 15:51:20.735340 14613 net.cpp:91] Creating Layer inception_4e/pool_proj
I0403 15:51:20.735358 14613 net.cpp:425] inception_4e/pool_proj <- inception_4e/pool
I0403 15:51:20.735379 14613 net.cpp:399] inception_4e/pool_proj -> inception_4e/pool_proj
I0403 15:51:20.736850 14613 net.cpp:141] Setting up inception_4e/pool_proj
I0403 15:51:20.736878 14613 net.cpp:148] Top shape: 24 128 14 14 (602112)
I0403 15:51:20.736908 14613 net.cpp:156] Memory required for data: 1254493728
I0403 15:51:20.736928 14613 layer_factory.hpp:77] Creating layer inception_4e/relu_pool_proj
I0403 15:51:20.736950 14613 net.cpp:91] Creating Layer inception_4e/relu_pool_proj
I0403 15:51:20.736968 14613 net.cpp:425] inception_4e/relu_pool_proj <- inception_4e/pool_proj
I0403 15:51:20.736985 14613 net.cpp:386] inception_4e/relu_pool_proj -> inception_4e/pool_proj (in-place)
I0403 15:51:20.737278 14613 net.cpp:141] Setting up inception_4e/relu_pool_proj
I0403 15:51:20.737304 14613 net.cpp:148] Top shape: 24 128 14 14 (602112)
I0403 15:51:20.737319 14613 net.cpp:156] Memory required for data: 1256902176
I0403 15:51:20.737335 14613 layer_factory.hpp:77] Creating layer inception_4e/output
I0403 15:51:20.737354 14613 net.cpp:91] Creating Layer inception_4e/output
I0403 15:51:20.737371 14613 net.cpp:425] inception_4e/output <- inception_4e/1x1
I0403 15:51:20.737388 14613 net.cpp:425] inception_4e/output <- inception_4e/3x3
I0403 15:51:20.737404 14613 net.cpp:425] inception_4e/output <- inception_4e/5x5
I0403 15:51:20.737421 14613 net.cpp:425] inception_4e/output <- inception_4e/pool_proj
I0403 15:51:20.737437 14613 net.cpp:399] inception_4e/output -> inception_4e/output
I0403 15:51:20.737485 14613 net.cpp:141] Setting up inception_4e/output
I0403 15:51:20.737509 14613 net.cpp:148] Top shape: 24 832 14 14 (3913728)
I0403 15:51:20.737524 14613 net.cpp:156] Memory required for data: 1272557088
I0403 15:51:20.737539 14613 layer_factory.hpp:77] Creating layer pool4/3x3_s2
I0403 15:51:20.737555 14613 net.cpp:91] Creating Layer pool4/3x3_s2
I0403 15:51:20.737571 14613 net.cpp:425] pool4/3x3_s2 <- inception_4e/output
I0403 15:51:20.737591 14613 net.cpp:399] pool4/3x3_s2 -> pool4/3x3_s2
I0403 15:51:20.737658 14613 net.cpp:141] Setting up pool4/3x3_s2
I0403 15:51:20.737684 14613 net.cpp:148] Top shape: 24 832 7 7 (978432)
I0403 15:51:20.737699 14613 net.cpp:156] Memory required for data: 1276470816
I0403 15:51:20.737714 14613 layer_factory.hpp:77] Creating layer pool4/3x3_s2_pool4/3x3_s2_0_split
I0403 15:51:20.737730 14613 net.cpp:91] Creating Layer pool4/3x3_s2_pool4/3x3_s2_0_split
I0403 15:51:20.737746 14613 net.cpp:425] pool4/3x3_s2_pool4/3x3_s2_0_split <- pool4/3x3_s2
I0403 15:51:20.737761 14613 net.cpp:399] pool4/3x3_s2_pool4/3x3_s2_0_split -> pool4/3x3_s2_pool4/3x3_s2_0_split_0
I0403 15:51:20.737782 14613 net.cpp:399] pool4/3x3_s2_pool4/3x3_s2_0_split -> pool4/3x3_s2_pool4/3x3_s2_0_split_1
I0403 15:51:20.737805 14613 net.cpp:399] pool4/3x3_s2_pool4/3x3_s2_0_split -> pool4/3x3_s2_pool4/3x3_s2_0_split_2
I0403 15:51:20.737828 14613 net.cpp:399] pool4/3x3_s2_pool4/3x3_s2_0_split -> pool4/3x3_s2_pool4/3x3_s2_0_split_3
I0403 15:51:20.737918 14613 net.cpp:141] Setting up pool4/3x3_s2_pool4/3x3_s2_0_split
I0403 15:51:20.737954 14613 net.cpp:148] Top shape: 24 832 7 7 (978432)
I0403 15:51:20.737972 14613 net.cpp:148] Top shape: 24 832 7 7 (978432)
I0403 15:51:20.737987 14613 net.cpp:148] Top shape: 24 832 7 7 (978432)
I0403 15:51:20.738003 14613 net.cpp:148] Top shape: 24 832 7 7 (978432)
I0403 15:51:20.738016 14613 net.cpp:156] Memory required for data: 1292125728
I0403 15:51:20.738032 14613 layer_factory.hpp:77] Creating layer inception_5a/1x1
I0403 15:51:20.738054 14613 net.cpp:91] Creating Layer inception_5a/1x1
I0403 15:51:20.738071 14613 net.cpp:425] inception_5a/1x1 <- pool4/3x3_s2_pool4/3x3_s2_0_split_0
I0403 15:51:20.738097 14613 net.cpp:399] inception_5a/1x1 -> inception_5a/1x1
I0403 15:51:20.740983 14613 net.cpp:141] Setting up inception_5a/1x1
I0403 15:51:20.741014 14613 net.cpp:148] Top shape: 24 256 7 7 (301056)
I0403 15:51:20.741029 14613 net.cpp:156] Memory required for data: 1293329952
I0403 15:51:20.741050 14613 layer_factory.hpp:77] Creating layer inception_5a/relu_1x1
I0403 15:51:20.741070 14613 net.cpp:91] Creating Layer inception_5a/relu_1x1
I0403 15:51:20.741086 14613 net.cpp:425] inception_5a/relu_1x1 <- inception_5a/1x1
I0403 15:51:20.741109 14613 net.cpp:386] inception_5a/relu_1x1 -> inception_5a/1x1 (in-place)
I0403 15:51:20.741427 14613 net.cpp:141] Setting up inception_5a/relu_1x1
I0403 15:51:20.741454 14613 net.cpp:148] Top shape: 24 256 7 7 (301056)
I0403 15:51:20.741469 14613 net.cpp:156] Memory required for data: 1294534176
I0403 15:51:20.741487 14613 layer_factory.hpp:77] Creating layer inception_5a/3x3_reduce
I0403 15:51:20.741509 14613 net.cpp:91] Creating Layer inception_5a/3x3_reduce
I0403 15:51:20.741528 14613 net.cpp:425] inception_5a/3x3_reduce <- pool4/3x3_s2_pool4/3x3_s2_0_split_1
I0403 15:51:20.741549 14613 net.cpp:399] inception_5a/3x3_reduce -> inception_5a/3x3_reduce
I0403 15:51:20.744041 14613 net.cpp:141] Setting up inception_5a/3x3_reduce
I0403 15:51:20.744071 14613 net.cpp:148] Top shape: 24 160 7 7 (188160)
I0403 15:51:20.744088 14613 net.cpp:156] Memory required for data: 1295286816
I0403 15:51:20.744112 14613 layer_factory.hpp:77] Creating layer inception_5a/relu_3x3_reduce
I0403 15:51:20.744133 14613 net.cpp:91] Creating Layer inception_5a/relu_3x3_reduce
I0403 15:51:20.744153 14613 net.cpp:425] inception_5a/relu_3x3_reduce <- inception_5a/3x3_reduce
I0403 15:51:20.744170 14613 net.cpp:386] inception_5a/relu_3x3_reduce -> inception_5a/3x3_reduce (in-place)
I0403 15:51:20.744361 14613 net.cpp:141] Setting up inception_5a/relu_3x3_reduce
I0403 15:51:20.744387 14613 net.cpp:148] Top shape: 24 160 7 7 (188160)
I0403 15:51:20.744402 14613 net.cpp:156] Memory required for data: 1296039456
I0403 15:51:20.744416 14613 layer_factory.hpp:77] Creating layer inception_5a/3x3
I0403 15:51:20.744441 14613 net.cpp:91] Creating Layer inception_5a/3x3
I0403 15:51:20.744459 14613 net.cpp:425] inception_5a/3x3 <- inception_5a/3x3_reduce
I0403 15:51:20.744478 14613 net.cpp:399] inception_5a/3x3 -> inception_5a/3x3
I0403 15:51:20.749516 14613 net.cpp:141] Setting up inception_5a/3x3
I0403 15:51:20.749547 14613 net.cpp:148] Top shape: 24 320 7 7 (376320)
I0403 15:51:20.749563 14613 net.cpp:156] Memory required for data: 1297544736
I0403 15:51:20.749582 14613 layer_factory.hpp:77] Creating layer inception_5a/relu_3x3
I0403 15:51:20.749603 14613 net.cpp:91] Creating Layer inception_5a/relu_3x3
I0403 15:51:20.749620 14613 net.cpp:425] inception_5a/relu_3x3 <- inception_5a/3x3
I0403 15:51:20.749640 14613 net.cpp:386] inception_5a/relu_3x3 -> inception_5a/3x3 (in-place)
I0403 15:51:20.749941 14613 net.cpp:141] Setting up inception_5a/relu_3x3
I0403 15:51:20.749969 14613 net.cpp:148] Top shape: 24 320 7 7 (376320)
I0403 15:51:20.749984 14613 net.cpp:156] Memory required for data: 1299050016
I0403 15:51:20.749999 14613 layer_factory.hpp:77] Creating layer inception_5a/5x5_reduce
I0403 15:51:20.750022 14613 net.cpp:91] Creating Layer inception_5a/5x5_reduce
I0403 15:51:20.750041 14613 net.cpp:425] inception_5a/5x5_reduce <- pool4/3x3_s2_pool4/3x3_s2_0_split_2
I0403 15:51:20.750063 14613 net.cpp:399] inception_5a/5x5_reduce -> inception_5a/5x5_reduce
I0403 15:51:20.751255 14613 net.cpp:141] Setting up inception_5a/5x5_reduce
I0403 15:51:20.751286 14613 net.cpp:148] Top shape: 24 32 7 7 (37632)
I0403 15:51:20.751302 14613 net.cpp:156] Memory required for data: 1299200544
I0403 15:51:20.751322 14613 layer_factory.hpp:77] Creating layer inception_5a/relu_5x5_reduce
I0403 15:51:20.751341 14613 net.cpp:91] Creating Layer inception_5a/relu_5x5_reduce
I0403 15:51:20.751359 14613 net.cpp:425] inception_5a/relu_5x5_reduce <- inception_5a/5x5_reduce
I0403 15:51:20.751380 14613 net.cpp:386] inception_5a/relu_5x5_reduce -> inception_5a/5x5_reduce (in-place)
I0403 15:51:20.751683 14613 net.cpp:141] Setting up inception_5a/relu_5x5_reduce
I0403 15:51:20.751713 14613 net.cpp:148] Top shape: 24 32 7 7 (37632)
I0403 15:51:20.751730 14613 net.cpp:156] Memory required for data: 1299351072
I0403 15:51:20.751746 14613 layer_factory.hpp:77] Creating layer inception_5a/5x5
I0403 15:51:20.751768 14613 net.cpp:91] Creating Layer inception_5a/5x5
I0403 15:51:20.751786 14613 net.cpp:425] inception_5a/5x5 <- inception_5a/5x5_reduce
I0403 15:51:20.751806 14613 net.cpp:399] inception_5a/5x5 -> inception_5a/5x5
I0403 15:51:20.753551 14613 net.cpp:141] Setting up inception_5a/5x5
I0403 15:51:20.753592 14613 net.cpp:148] Top shape: 24 128 7 7 (150528)
I0403 15:51:20.753608 14613 net.cpp:156] Memory required for data: 1299953184
I0403 15:51:20.753626 14613 layer_factory.hpp:77] Creating layer inception_5a/relu_5x5
I0403 15:51:20.753650 14613 net.cpp:91] Creating Layer inception_5a/relu_5x5
I0403 15:51:20.753669 14613 net.cpp:425] inception_5a/relu_5x5 <- inception_5a/5x5
I0403 15:51:20.753686 14613 net.cpp:386] inception_5a/relu_5x5 -> inception_5a/5x5 (in-place)
I0403 15:51:20.753881 14613 net.cpp:141] Setting up inception_5a/relu_5x5
I0403 15:51:20.753911 14613 net.cpp:148] Top shape: 24 128 7 7 (150528)
I0403 15:51:20.753927 14613 net.cpp:156] Memory required for data: 1300555296
I0403 15:51:20.753943 14613 layer_factory.hpp:77] Creating layer inception_5a/pool
I0403 15:51:20.753960 14613 net.cpp:91] Creating Layer inception_5a/pool
I0403 15:51:20.753976 14613 net.cpp:425] inception_5a/pool <- pool4/3x3_s2_pool4/3x3_s2_0_split_3
I0403 15:51:20.753998 14613 net.cpp:399] inception_5a/pool -> inception_5a/pool
I0403 15:51:20.754068 14613 net.cpp:141] Setting up inception_5a/pool
I0403 15:51:20.754097 14613 net.cpp:148] Top shape: 24 832 7 7 (978432)
I0403 15:51:20.754114 14613 net.cpp:156] Memory required for data: 1304469024
I0403 15:51:20.754130 14613 layer_factory.hpp:77] Creating layer inception_5a/pool_proj
I0403 15:51:20.754153 14613 net.cpp:91] Creating Layer inception_5a/pool_proj
I0403 15:51:20.754171 14613 net.cpp:425] inception_5a/pool_proj <- inception_5a/pool
I0403 15:51:20.754196 14613 net.cpp:399] inception_5a/pool_proj -> inception_5a/pool_proj
I0403 15:51:20.756549 14613 net.cpp:141] Setting up inception_5a/pool_proj
I0403 15:51:20.756580 14613 net.cpp:148] Top shape: 24 128 7 7 (150528)
I0403 15:51:20.756597 14613 net.cpp:156] Memory required for data: 1305071136
I0403 15:51:20.756616 14613 layer_factory.hpp:77] Creating layer inception_5a/relu_pool_proj
I0403 15:51:20.756639 14613 net.cpp:91] Creating Layer inception_5a/relu_pool_proj
I0403 15:51:20.756659 14613 net.cpp:425] inception_5a/relu_pool_proj <- inception_5a/pool_proj
I0403 15:51:20.756677 14613 net.cpp:386] inception_5a/relu_pool_proj -> inception_5a/pool_proj (in-place)
I0403 15:51:20.756984 14613 net.cpp:141] Setting up inception_5a/relu_pool_proj
I0403 15:51:20.757012 14613 net.cpp:148] Top shape: 24 128 7 7 (150528)
I0403 15:51:20.757028 14613 net.cpp:156] Memory required for data: 1305673248
I0403 15:51:20.757043 14613 layer_factory.hpp:77] Creating layer inception_5a/output
I0403 15:51:20.757061 14613 net.cpp:91] Creating Layer inception_5a/output
I0403 15:51:20.757079 14613 net.cpp:425] inception_5a/output <- inception_5a/1x1
I0403 15:51:20.757103 14613 net.cpp:425] inception_5a/output <- inception_5a/3x3
I0403 15:51:20.757124 14613 net.cpp:425] inception_5a/output <- inception_5a/5x5
I0403 15:51:20.757140 14613 net.cpp:425] inception_5a/output <- inception_5a/pool_proj
I0403 15:51:20.757158 14613 net.cpp:399] inception_5a/output -> inception_5a/output
I0403 15:51:20.757213 14613 net.cpp:141] Setting up inception_5a/output
I0403 15:51:20.757238 14613 net.cpp:148] Top shape: 24 832 7 7 (978432)
I0403 15:51:20.757254 14613 net.cpp:156] Memory required for data: 1309586976
I0403 15:51:20.757271 14613 layer_factory.hpp:77] Creating layer inception_5a/output_inception_5a/output_0_split
I0403 15:51:20.757288 14613 net.cpp:91] Creating Layer inception_5a/output_inception_5a/output_0_split
I0403 15:51:20.757305 14613 net.cpp:425] inception_5a/output_inception_5a/output_0_split <- inception_5a/output
I0403 15:51:20.757326 14613 net.cpp:399] inception_5a/output_inception_5a/output_0_split -> inception_5a/output_inception_5a/output_0_split_0
I0403 15:51:20.757349 14613 net.cpp:399] inception_5a/output_inception_5a/output_0_split -> inception_5a/output_inception_5a/output_0_split_1
I0403 15:51:20.757371 14613 net.cpp:399] inception_5a/output_inception_5a/output_0_split -> inception_5a/output_inception_5a/output_0_split_2
I0403 15:51:20.757393 14613 net.cpp:399] inception_5a/output_inception_5a/output_0_split -> inception_5a/output_inception_5a/output_0_split_3
I0403 15:51:20.757513 14613 net.cpp:141] Setting up inception_5a/output_inception_5a/output_0_split
I0403 15:51:20.757541 14613 net.cpp:148] Top shape: 24 832 7 7 (978432)
I0403 15:51:20.757560 14613 net.cpp:148] Top shape: 24 832 7 7 (978432)
I0403 15:51:20.757576 14613 net.cpp:148] Top shape: 24 832 7 7 (978432)
I0403 15:51:20.757592 14613 net.cpp:148] Top shape: 24 832 7 7 (978432)
I0403 15:51:20.757607 14613 net.cpp:156] Memory required for data: 1325241888
I0403 15:51:20.757623 14613 layer_factory.hpp:77] Creating layer inception_5b/1x1
I0403 15:51:20.757647 14613 net.cpp:91] Creating Layer inception_5b/1x1
I0403 15:51:20.757665 14613 net.cpp:425] inception_5b/1x1 <- inception_5a/output_inception_5a/output_0_split_0
I0403 15:51:20.757684 14613 net.cpp:399] inception_5b/1x1 -> inception_5b/1x1
I0403 15:51:20.761579 14613 net.cpp:141] Setting up inception_5b/1x1
I0403 15:51:20.761611 14613 net.cpp:148] Top shape: 24 384 7 7 (451584)
I0403 15:51:20.761628 14613 net.cpp:156] Memory required for data: 1327048224
I0403 15:51:20.761648 14613 layer_factory.hpp:77] Creating layer inception_5b/relu_1x1
I0403 15:51:20.761670 14613 net.cpp:91] Creating Layer inception_5b/relu_1x1
I0403 15:51:20.761689 14613 net.cpp:425] inception_5b/relu_1x1 <- inception_5b/1x1
I0403 15:51:20.761708 14613 net.cpp:386] inception_5b/relu_1x1 -> inception_5b/1x1 (in-place)
I0403 15:51:20.762023 14613 net.cpp:141] Setting up inception_5b/relu_1x1
I0403 15:51:20.762050 14613 net.cpp:148] Top shape: 24 384 7 7 (451584)
I0403 15:51:20.762066 14613 net.cpp:156] Memory required for data: 1328854560
I0403 15:51:20.762081 14613 layer_factory.hpp:77] Creating layer inception_5b/3x3_reduce
I0403 15:51:20.762110 14613 net.cpp:91] Creating Layer inception_5b/3x3_reduce
I0403 15:51:20.762130 14613 net.cpp:425] inception_5b/3x3_reduce <- inception_5a/output_inception_5a/output_0_split_1
I0403 15:51:20.762154 14613 net.cpp:399] inception_5b/3x3_reduce -> inception_5b/3x3_reduce
I0403 15:51:20.764921 14613 net.cpp:141] Setting up inception_5b/3x3_reduce
I0403 15:51:20.764951 14613 net.cpp:148] Top shape: 24 192 7 7 (225792)
I0403 15:51:20.764968 14613 net.cpp:156] Memory required for data: 1329757728
I0403 15:51:20.764987 14613 layer_factory.hpp:77] Creating layer inception_5b/relu_3x3_reduce
I0403 15:51:20.765009 14613 net.cpp:91] Creating Layer inception_5b/relu_3x3_reduce
I0403 15:51:20.765027 14613 net.cpp:425] inception_5b/relu_3x3_reduce <- inception_5b/3x3_reduce
I0403 15:51:20.765048 14613 net.cpp:386] inception_5b/relu_3x3_reduce -> inception_5b/3x3_reduce (in-place)
I0403 15:51:20.765254 14613 net.cpp:141] Setting up inception_5b/relu_3x3_reduce
I0403 15:51:20.765282 14613 net.cpp:148] Top shape: 24 192 7 7 (225792)
I0403 15:51:20.765300 14613 net.cpp:156] Memory required for data: 1330660896
I0403 15:51:20.765314 14613 layer_factory.hpp:77] Creating layer inception_5b/3x3
I0403 15:51:20.765337 14613 net.cpp:91] Creating Layer inception_5b/3x3
I0403 15:51:20.765357 14613 net.cpp:425] inception_5b/3x3 <- inception_5b/3x3_reduce
I0403 15:51:20.765377 14613 net.cpp:399] inception_5b/3x3 -> inception_5b/3x3
I0403 15:51:20.772341 14613 net.cpp:141] Setting up inception_5b/3x3
I0403 15:51:20.772372 14613 net.cpp:148] Top shape: 24 384 7 7 (451584)
I0403 15:51:20.772400 14613 net.cpp:156] Memory required for data: 1332467232
I0403 15:51:20.772419 14613 layer_factory.hpp:77] Creating layer inception_5b/relu_3x3
I0403 15:51:20.772441 14613 net.cpp:91] Creating Layer inception_5b/relu_3x3
I0403 15:51:20.772461 14613 net.cpp:425] inception_5b/relu_3x3 <- inception_5b/3x3
I0403 15:51:20.772480 14613 net.cpp:386] inception_5b/relu_3x3 -> inception_5b/3x3 (in-place)
I0403 15:51:20.772786 14613 net.cpp:141] Setting up inception_5b/relu_3x3
I0403 15:51:20.772814 14613 net.cpp:148] Top shape: 24 384 7 7 (451584)
I0403 15:51:20.772830 14613 net.cpp:156] Memory required for data: 1334273568
I0403 15:51:20.772846 14613 layer_factory.hpp:77] Creating layer inception_5b/5x5_reduce
I0403 15:51:20.772886 14613 net.cpp:91] Creating Layer inception_5b/5x5_reduce
I0403 15:51:20.772907 14613 net.cpp:425] inception_5b/5x5_reduce <- inception_5a/output_inception_5a/output_0_split_2
I0403 15:51:20.772930 14613 net.cpp:399] inception_5b/5x5_reduce -> inception_5b/5x5_reduce
I0403 15:51:20.774265 14613 net.cpp:141] Setting up inception_5b/5x5_reduce
I0403 15:51:20.774292 14613 net.cpp:148] Top shape: 24 48 7 7 (56448)
I0403 15:51:20.774309 14613 net.cpp:156] Memory required for data: 1334499360
I0403 15:51:20.774328 14613 layer_factory.hpp:77] Creating layer inception_5b/relu_5x5_reduce
I0403 15:51:20.774349 14613 net.cpp:91] Creating Layer inception_5b/relu_5x5_reduce
I0403 15:51:20.774369 14613 net.cpp:425] inception_5b/relu_5x5_reduce <- inception_5b/5x5_reduce
I0403 15:51:20.774386 14613 net.cpp:386] inception_5b/relu_5x5_reduce -> inception_5b/5x5_reduce (in-place)
I0403 15:51:20.774761 14613 net.cpp:141] Setting up inception_5b/relu_5x5_reduce
I0403 15:51:20.774790 14613 net.cpp:148] Top shape: 24 48 7 7 (56448)
I0403 15:51:20.774806 14613 net.cpp:156] Memory required for data: 1334725152
I0403 15:51:20.774822 14613 layer_factory.hpp:77] Creating layer inception_5b/5x5
I0403 15:51:20.774842 14613 net.cpp:91] Creating Layer inception_5b/5x5
I0403 15:51:20.774860 14613 net.cpp:425] inception_5b/5x5 <- inception_5b/5x5_reduce
I0403 15:51:20.774880 14613 net.cpp:399] inception_5b/5x5 -> inception_5b/5x5
I0403 15:51:20.776943 14613 net.cpp:141] Setting up inception_5b/5x5
I0403 15:51:20.776973 14613 net.cpp:148] Top shape: 24 128 7 7 (150528)
I0403 15:51:20.776988 14613 net.cpp:156] Memory required for data: 1335327264
I0403 15:51:20.777007 14613 layer_factory.hpp:77] Creating layer inception_5b/relu_5x5
I0403 15:51:20.777029 14613 net.cpp:91] Creating Layer inception_5b/relu_5x5
I0403 15:51:20.777046 14613 net.cpp:425] inception_5b/relu_5x5 <- inception_5b/5x5
I0403 15:51:20.777065 14613 net.cpp:386] inception_5b/relu_5x5 -> inception_5b/5x5 (in-place)
I0403 15:51:20.777266 14613 net.cpp:141] Setting up inception_5b/relu_5x5
I0403 15:51:20.777292 14613 net.cpp:148] Top shape: 24 128 7 7 (150528)
I0403 15:51:20.777307 14613 net.cpp:156] Memory required for data: 1335929376
I0403 15:51:20.777323 14613 layer_factory.hpp:77] Creating layer inception_5b/pool
I0403 15:51:20.777340 14613 net.cpp:91] Creating Layer inception_5b/pool
I0403 15:51:20.777357 14613 net.cpp:425] inception_5b/pool <- inception_5a/output_inception_5a/output_0_split_3
I0403 15:51:20.777379 14613 net.cpp:399] inception_5b/pool -> inception_5b/pool
I0403 15:51:20.777453 14613 net.cpp:141] Setting up inception_5b/pool
I0403 15:51:20.777477 14613 net.cpp:148] Top shape: 24 832 7 7 (978432)
I0403 15:51:20.777493 14613 net.cpp:156] Memory required for data: 1339843104
I0403 15:51:20.777506 14613 layer_factory.hpp:77] Creating layer inception_5b/pool_proj
I0403 15:51:20.777530 14613 net.cpp:91] Creating Layer inception_5b/pool_proj
I0403 15:51:20.777549 14613 net.cpp:425] inception_5b/pool_proj <- inception_5b/pool
I0403 15:51:20.777568 14613 net.cpp:399] inception_5b/pool_proj -> inception_5b/pool_proj
I0403 15:51:20.779889 14613 net.cpp:141] Setting up inception_5b/pool_proj
I0403 15:51:20.779918 14613 net.cpp:148] Top shape: 24 128 7 7 (150528)
I0403 15:51:20.779933 14613 net.cpp:156] Memory required for data: 1340445216
I0403 15:51:20.779953 14613 layer_factory.hpp:77] Creating layer inception_5b/relu_pool_proj
I0403 15:51:20.779973 14613 net.cpp:91] Creating Layer inception_5b/relu_pool_proj
I0403 15:51:20.779992 14613 net.cpp:425] inception_5b/relu_pool_proj <- inception_5b/pool_proj
I0403 15:51:20.780010 14613 net.cpp:386] inception_5b/relu_pool_proj -> inception_5b/pool_proj (in-place)
I0403 15:51:20.780318 14613 net.cpp:141] Setting up inception_5b/relu_pool_proj
I0403 15:51:20.780345 14613 net.cpp:148] Top shape: 24 128 7 7 (150528)
I0403 15:51:20.780361 14613 net.cpp:156] Memory required for data: 1341047328
I0403 15:51:20.780376 14613 layer_factory.hpp:77] Creating layer inception_5b/output
I0403 15:51:20.780397 14613 net.cpp:91] Creating Layer inception_5b/output
I0403 15:51:20.780428 14613 net.cpp:425] inception_5b/output <- inception_5b/1x1
I0403 15:51:20.780447 14613 net.cpp:425] inception_5b/output <- inception_5b/3x3
I0403 15:51:20.780463 14613 net.cpp:425] inception_5b/output <- inception_5b/5x5
I0403 15:51:20.780479 14613 net.cpp:425] inception_5b/output <- inception_5b/pool_proj
I0403 15:51:20.780498 14613 net.cpp:399] inception_5b/output -> inception_5b/output
I0403 15:51:20.780552 14613 net.cpp:141] Setting up inception_5b/output
I0403 15:51:20.780577 14613 net.cpp:148] Top shape: 24 1024 7 7 (1204224)
I0403 15:51:20.780592 14613 net.cpp:156] Memory required for data: 1345864224
I0403 15:51:20.780607 14613 layer_factory.hpp:77] Creating layer pool5/7x7_s1
I0403 15:51:20.780625 14613 net.cpp:91] Creating Layer pool5/7x7_s1
I0403 15:51:20.780642 14613 net.cpp:425] pool5/7x7_s1 <- inception_5b/output
I0403 15:51:20.780663 14613 net.cpp:399] pool5/7x7_s1 -> pool5/7x7_s1
I0403 15:51:20.780881 14613 net.cpp:141] Setting up pool5/7x7_s1
I0403 15:51:20.780911 14613 net.cpp:148] Top shape: 24 1024 1 1 (24576)
I0403 15:51:20.780927 14613 net.cpp:156] Memory required for data: 1345962528
I0403 15:51:20.780943 14613 layer_factory.hpp:77] Creating layer pool5/drop_7x7_s1
I0403 15:51:20.780961 14613 net.cpp:91] Creating Layer pool5/drop_7x7_s1
I0403 15:51:20.780977 14613 net.cpp:425] pool5/drop_7x7_s1 <- pool5/7x7_s1
I0403 15:51:20.780995 14613 net.cpp:386] pool5/drop_7x7_s1 -> pool5/7x7_s1 (in-place)
I0403 15:51:20.781049 14613 net.cpp:141] Setting up pool5/drop_7x7_s1
I0403 15:51:20.781074 14613 net.cpp:148] Top shape: 24 1024 1 1 (24576)
I0403 15:51:20.781090 14613 net.cpp:156] Memory required for data: 1346060832
I0403 15:51:20.781110 14613 layer_factory.hpp:77] Creating layer loss3/classifier_plantvillage
I0403 15:51:20.781132 14613 net.cpp:91] Creating Layer loss3/classifier_plantvillage
I0403 15:51:20.781152 14613 net.cpp:425] loss3/classifier_plantvillage <- pool5/7x7_s1
I0403 15:51:20.781172 14613 net.cpp:399] loss3/classifier_plantvillage -> loss3/classifier_plantvillage
I0403 15:51:20.781599 14613 net.cpp:141] Setting up loss3/classifier_plantvillage
I0403 15:51:20.781625 14613 net.cpp:148] Top shape: 24 38 (912)
I0403 15:51:20.781640 14613 net.cpp:156] Memory required for data: 1346064480
I0403 15:51:20.781658 14613 layer_factory.hpp:77] Creating layer loss3/classifier_plantvillage_loss3/classifier_plantvillage_0_split
I0403 15:51:20.781677 14613 net.cpp:91] Creating Layer loss3/classifier_plantvillage_loss3/classifier_plantvillage_0_split
I0403 15:51:20.781693 14613 net.cpp:425] loss3/classifier_plantvillage_loss3/classifier_plantvillage_0_split <- loss3/classifier_plantvillage
I0403 15:51:20.781715 14613 net.cpp:399] loss3/classifier_plantvillage_loss3/classifier_plantvillage_0_split -> loss3/classifier_plantvillage_loss3/classifier_plantvillage_0_split_0
I0403 15:51:20.781738 14613 net.cpp:399] loss3/classifier_plantvillage_loss3/classifier_plantvillage_0_split -> loss3/classifier_plantvillage_loss3/classifier_plantvillage_0_split_1
I0403 15:51:20.781759 14613 net.cpp:399] loss3/classifier_plantvillage_loss3/classifier_plantvillage_0_split -> loss3/classifier_plantvillage_loss3/classifier_plantvillage_0_split_2
I0403 15:51:20.781779 14613 net.cpp:399] loss3/classifier_plantvillage_loss3/classifier_plantvillage_0_split -> loss3/classifier_plantvillage_loss3/classifier_plantvillage_0_split_3
I0403 15:51:20.781883 14613 net.cpp:141] Setting up loss3/classifier_plantvillage_loss3/classifier_plantvillage_0_split
I0403 15:51:20.781909 14613 net.cpp:148] Top shape: 24 38 (912)
I0403 15:51:20.781927 14613 net.cpp:148] Top shape: 24 38 (912)
I0403 15:51:20.781942 14613 net.cpp:148] Top shape: 24 38 (912)
I0403 15:51:20.781958 14613 net.cpp:148] Top shape: 24 38 (912)
I0403 15:51:20.781971 14613 net.cpp:156] Memory required for data: 1346079072
I0403 15:51:20.781987 14613 layer_factory.hpp:77] Creating layer loss1/loss
I0403 15:51:20.782007 14613 net.cpp:91] Creating Layer loss1/loss
I0403 15:51:20.782027 14613 net.cpp:425] loss1/loss <- loss1/classifier_plantvillage_loss1/classifier_plantvillage_0_split_0
I0403 15:51:20.782058 14613 net.cpp:425] loss1/loss <- label_data_1_split_0
…
