…
I0403 15:45:38.142323 14347 net.cpp:313] The NetState phase (1) differed from the phase (0) specified by a rule in layer data
I0403 15:45:38.143543 14347 net.cpp:49] Initializing net from parameters: 
state {
  phase: TEST
}
layer {
  name: "data"
  type: "Data"
  top: "data"
  top: "label"
  include {
    phase: TEST
  }
  transform_param {
    mirror: false
    crop_size: 224
    mean_file: "/home/mohanty/data/final_dataset/lmdb/color-80-20/mean.binaryproto"
  }
  data_param {
    source: "/home/mohanty/data/final_dataset/lmdb/color-80-20/test_db"
    batch_size: 24
    backend: LMDB
  }
}
layer {
  name: "conv1/7x7_s2"
  type: "Convolution"
  bottom: "data"
  top: "conv1/7x7_s2"
  param {
    lr_mult: 1
    decay_mult: 1
  }
  param {
    lr_mult: 2
    decay_mult: 0
  }
  convolution_param {
    num_output: 64
    pad: 3
    kernel_size: 7
    stride: 2
    weight_filler {
      type: "xavier"
      std: 0.1
    }
    bias_filler {
      type: "constant"
      value: 0.2
    }
  }
}
layer {
  name: "conv1/relu_7x7"
  type: "ReLU"
  bottom: "conv1/7x7_s2"
  top: "conv1/7x7_s2"
}
layer {
  name: "pool1/3x3_s2"
  type: "Pooling"
  bottom: "conv1/7x7_s2"
  top: "pool1/3x3_s2"
  pooling_param {
    pool: MAX
    kernel_size: 3
    stride: 2
  }
}
layer {
  name: "pool1/norm1"
  type: "LRN"
  bottom: "pool1/3x3_s2"
  top: "pool1/norm1"
  lrn_param {
    local_size: 5
    alpha: 0.0001
    beta: 0.75
  }
}
layer {
  name: "conv2/3x3_reduce"
  type: "Convolution"
  bottom: "pool1/norm1"
  top: "conv2/3x3_reduce"
  param {
    lr_mult: 1
    decay_mult: 1
  }
  param {
    lr_mult: 2
    decay_mult: 0
  }
  convolution_param {
    num_output: 64
    kernel_size: 1
    weight_filler {
      type: "xavier"
      std: 0.1
    }
    bias_filler {
      type: "constant"
      value: 0.2
    }
  }
}
layer {
  name: "conv2/relu_3x3_reduce"
  type: "ReLU"
  bottom: "conv2/3x3_reduce"
  top: "conv2/3x3_reduce"
}
layer {
  name: "conv2/3x3"
  type: "Convolution"
  bottom: "conv2/3x3_reduce"
  top: "conv2/3x3"
  param {
    lr_mult: 1
    decay_mult: 1
  }
  param {
    lr_mult: 2
    decay_mult: 0
  }
  convolution_param {
    num_output: 192
    pad: 1
    kernel_size: 3
    weight_filler {
      type: "xavier"
      std: 0.03
    }
    bias_filler {
      type: "constant"
      value: 0.2
    }
  }
}
layer {
  name: "conv2/relu_3x3"
  type: "ReLU"
  bottom: "conv2/3x3"
  top: "conv2/3x3"
}
layer {
  name: "conv2/norm2"
  type: "LRN"
  bottom: "conv2/3x3"
  top: "conv2/norm2"
  lrn_param {
    local_size: 5
    alpha: 0.0001
    beta: 0.75
  }
}
layer {
  name: "pool2/3x3_s2"
  type: "Pooling"
  bottom: "conv2/norm2"
  top: "pool2/3x3_s2"
  pooling_param {
    pool: MAX
    kernel_size: 3
    stride: 2
  }
}
layer {
  name: "inception_3a/1x1"
  type: "Convolution"
  bottom: "pool2/3x3_s2"
  top: "inception_3a/1x1"
  param {
    lr_mult: 1
    decay_mult: 1
  }
  param {
    lr_mult: 2
    decay_mult: 0
  }
  convolution_param {
    num_output: 64
    kernel_size: 1
    weight_filler {
      type: "xavier"
      std: 0.03
    }
    bias_filler {
      type: "constant"
      value: 0.2
    }
  }
}
layer {
  name: "inception_3a/relu_1x1"
  type: "ReLU"
  bottom: "inception_3a/1x1"
  top: "inception_3a/1x1"
}
layer {
  name: "inception_3a/3x3_reduce"
  type: "Convolution"
  bottom: "pool2/3x3_s2"
  top: "inception_3a/3x3_reduce"
  param {
    lr_mult: 1
    decay_mult: 1
  }
  param {
    lr_mult: 2
    decay_mult: 0
  }
  convolution_param {
    num_output: 96
    kernel_size: 1
    weight_filler {
      type: "xavier"
      std: 0.09
    }
    bias_filler {
      type: "constant"
      value: 0.2
    }
  }
}
layer {
  name: "inception_3a/relu_3x3_reduce"
  type: "ReLU"
  bottom: "inception_3a/3x3_reduce"
  top: "inception_3a/3x3_reduce"
}
layer {
  name: "inception_3a/3x3"
  type: "Convolution"
  bottom: "inception_3a/3x3_reduce"
  top: "inception_3a/3x3"
  param {
    lr_mult: 1
    decay_mult: 1
  }
  param {
    lr_mult: 2
    decay_mult: 0
  }
  convolution_param {
    num_output: 128
    pad: 1
    kernel_size: 3
    weight_filler {
      type: "xavier"
      std: 0.03
    }
    bias_filler {
      type: "constant"
      value: 0.2
    }
  }
}
layer {
  name: "inception_3a/relu_3x3"
  type: "ReLU"
  bottom: "inception_3a/3x3"
  top: "inception_3a/3x3"
}
layer {
  name: "inception_3a/5x5_reduce"
  type: "Convolution"
  bottom: "pool2/3x3_s2"
  top: "inception_3a/5x5_reduce"
  param {
    lr_mult: 1
    decay_mult: 1
  }
  param {
    lr_mult: 2
    decay_mult: 0
  }
  convolution_param {
    num_output: 16
    kernel_size: 1
    weight_filler {
      type: "xavier"
      std: 0.2
    }
    bias_filler {
      type: "constant"
      value: 0.2
    }
  }
}
layer {
  name: "inception_3a/relu_5x5_reduce"
  type: "ReLU"
  bottom: "inception_3a/5x5_reduce"
  top: "inception_3a/5x5_reduce"
}
layer {
  name: "inception_3a/5x5"
  type: "Convolution"
  bottom: "inception_3a/5x5_reduce"
  top: "inception_3a/5x5"
  param {
    lr_mult: 1
    decay_mult: 1
  }
  param {
    lr_mult: 2
    decay_mult: 0
  }
  convolution_param {
    num_output: 32
    pad: 2
    kernel_size: 5
    weight_filler {
      type: "xavier"
      std: 0.03
    }
    bias_filler {
      type: "constant"
      value: 0.2
    }
  }
}
layer {
  name: "inception_3a/relu_5x5"
  type: "ReLU"
  bottom: "inception_3a/5x5"
  top: "inception_3a/5x5"
}
layer {
  name: "inception_3a/pool"
  type: "Pooling"
  bottom: "pool2/3x3_s2"
  top: "inception_3a/pool"
  pooling_param {
    pool: MAX
    kernel_size: 3
    stride: 1
    pad: 1
  }
}
layer {
  name: "inception_3a/pool_proj"
  type: "Convolution"
  bottom: "inception_3a/pool"
  top: "inception_3a/pool_proj"
  param {
    lr_mult: 1
    decay_mult: 1
  }
  param {
    lr_mult: 2
    decay_mult: 0
  }
  convolution_param {
    num_output: 32
    kernel_size: 1
    weight_filler {
      type: "xavier"
      std: 0.1
    }
    bias_filler {
      type: "constant"
      value: 0.2
    }
  }
}
layer {
  name: "inception_3a/relu_pool_proj"
  type: "ReLU"
  bottom: "inception_3a/pool_proj"
  top: "inception_3a/pool_proj"
}
layer {
  name: "inception_3a/output"
  type: "Concat"
  bottom: "inception_3a/1x1"
  bottom: "inception_3a/3x3"
  bottom: "inception_3a/5x5"
  bottom: "inception_3a/pool_proj"
  top: "inception_3a/output"
}
layer {
  name: "inception_3b/1x1"
  type: "Convolution"
  bottom: "inception_3a/output"
  top: "inception_3b/1x1"
  param {
    lr_mult: 1
    decay_mult: 1
  }
  param {
    lr_mult: 2
    decay_mult: 0
  }
  convolution_param {
    num_output: 128
    kernel_size: 1
    weight_filler {
      type: "xavier"
      std: 0.03
    }
    bias_filler {
      type: "constant"
      value: 0.2
    }
  }
}
layer {
  name: "inception_3b/relu_1x1"
  type: "ReLU"
  bottom: "inception_3b/1x1"
  top: "inception_3b/1x1"
}
layer {
  name: "inception_3b/3x3_reduce"
  type: "Convolution"
  bottom: "inception_3a/output"
  top: "inception_3b/3x3_reduce"
  param {
    lr_mult: 1
    decay_mult: 1
  }
  param {
    lr_mult: 2
    decay_mult: 0
  }
  convolution_param {
    num_output: 128
    kernel_size: 1
    weight_filler {
      type: "xavier"
      std: 0.09
    }
    bias_filler {
      type: "constant"
      value: 0.2
    }
  }
}
layer {
  name: "inception_3b/relu_3x3_reduce"
  type: "ReLU"
  bottom: "inception_3b/3x3_reduce"
  top: "inception_3b/3x3_reduce"
}
layer {
  name: "inception_3b/3x3"
  type: "Convolution"
  bottom: "inception_3b/3x3_reduce"
  top: "inception_3b/3x3"
  param {
    lr_mult: 1
    decay_mult: 1
  }
  param {
    lr_mult: 2
    decay_mult: 0
  }
  convolution_param {
    num_output: 192
    pad: 1
    kernel_size: 3
    weight_filler {
      type: "xavier"
      std: 0.03
    }
    bias_filler {
      type: "constant"
      value: 0.2
    }
  }
}
layer {
  name: "inception_3b/relu_3x3"
  type: "ReLU"
  bottom: "inception_3b/3x3"
  top: "inception_3b/3x3"
}
layer {
  name: "inception_3b/5x5_reduce"
  type: "Convolution"
  bottom: "inception_3a/output"
  top: "inception_3b/5x5_reduce"
  param {
    lr_mult: 1
    decay_mult: 1
  }
  param {
    lr_mult: 2
    decay_mult: 0
  }
  convolution_param {
    num_output: 32
    kernel_size: 1
    weight_filler {
      type: "xavier"
      std: 0.2
    }
    bias_filler {
      type: "constant"
      value: 0.2
    }
  }
}
layer {
  name: "inception_3b/relu_5x5_reduce"
  type: "ReLU"
  bottom: "inception_3b/5x5_reduce"
  top: "inception_3b/5x5_reduce"
}
layer {
  name: "inception_3b/5x5"
  type: "Convolution"
  bottom: "inception_3b/5x5_reduce"
  top: "inception_3b/5x5"
  param {
    lr_mult: 1
    decay_mult: 1
  }
  param {
    lr_mult: 2
    decay_mult: 0
  }
  convolution_param {
    num_output: 96
    pad: 2
    kernel_size: 5
    weight_filler {
      type: "xavier"
      std: 0.03
    }
    bias_filler {
      type: "constant"
      value: 0.2
    }
  }
}
layer {
  name: "inception_3b/relu_5x5"
  type: "ReLU"
  bottom: "inception_3b/5x5"
  top: "inception_3b/5x5"
}
layer {
  name: "inception_3b/pool"
  type: "Pooling"
  bottom: "inception_3a/output"
  top: "inception_3b/pool"
  pooling_param {
    pool: MAX
    kernel_size: 3
    stride: 1
    pad: 1
  }
}
layer {
  name: "inception_3b/pool_proj"
  type: "Convolution"
  bottom: "inception_3b/pool"
  top: "inception_3b/pool_proj"
  param {
    lr_mult: 1
    decay_mult: 1
  }
  param {
    lr_mult: 2
    decay_mult: 0
  }
  convolution_param {
    num_output: 64
    kernel_size: 1
    weight_filler {
      type: "xavier"
      std: 0.1
    }
    bias_filler {
      type: "constant"
      value: 0.2
    }
  }
}
layer {
  name: "inception_3b/relu_pool_proj"
  type: "ReLU"
  bottom: "inception_3b/pool_proj"
  top: "inception_3b/pool_proj"
}
layer {
  name: "inception_3b/output"
  type: "Concat"
  bottom: "inception_3b/1x1"
  bottom: "inception_3b/3x3"
  bottom: "inception_3b/5x5"
  bottom: "inception_3b/pool_proj"
  top: "inception_3b/output"
}
layer {
  name: "pool3/3x3_s2"
  type: "Pooling"
  bottom: "inception_3b/output"
  top: "pool3/3x3_s2"
  pooling_param {
    pool: MAX
    kernel_size: 3
    stride: 2
  }
}
layer {
  name: "inception_4a/1x1"
  type: "Convolution"
  bottom: "pool3/3x3_s2"
  top: "inception_4a/1x1"
  param {
    lr_mult: 1
    decay_mult: 1
  }
  param {
    lr_mult: 2
    decay_mult: 0
  }
  convolution_param {
    num_output: 192
    kernel_size: 1
    weight_filler {
      type: "xavier"
      std: 0.03
    }
    bias_filler {
      type: "constant"
      value: 0.2
    }
  }
}
layer {
  name: "inception_4a/relu_1x1"
  type: "ReLU"
  bottom: "inception_4a/1x1"
  top: "inception_4a/1x1"
}
layer {
  name: "inception_4a/3x3_reduce"
  type: "Convolution"
  bottom: "pool3/3x3_s2"
  top: "inception_4a/3x3_reduce"
  param {
    lr_mult: 1
    decay_mult: 1
  }
  param {
    lr_mult: 2
    decay_mult: 0
  }
  convolution_param {
    num_output: 96
    kernel_size: 1
    weight_filler {
      type: "xavier"
      std: 0.09
    }
    bias_filler {
      type: "constant"
      value: 0.2
    }
  }
}
layer {
  name: "inception_4a/relu_3x3_reduce"
  type: "ReLU"
  bottom: "inception_4a/3x3_reduce"
  top: "inception_4a/3x3_reduce"
}
layer {
  name: "inception_4a/3x3"
  type: "Convolution"
  bottom: "inception_4a/3x3_reduce"
  top: "inception_4a/3x3"
  param {
    lr_mult: 1
    decay_mult: 1
  }
  param {
    lr_mult: 2
    decay_mult: 0
  }
  convolution_param {
    num_output: 208
    pad: 1
    kernel_size: 3
    weight_filler {
      type: "xavier"
      std: 0.03
    }
    bias_filler {
      type: "constant"
      value: 0.2
    }
  }
}
layer {
  name: "inception_4a/relu_3x3"
  type: "ReLU"
  bottom: "inception_4a/3x3"
  top: "inception_4a/3x3"
}
layer {
  name: "inception_4a/5x5_reduce"
  type: "Convolution"
  bottom: "pool3/3x3_s2"
  top: "inception_4a/5x5_reduce"
  param {
    lr_mult: 1
    decay_mult: 1
  }
  param {
    lr_mult: 2
    decay_mult: 0
  }
  convolution_param {
    num_output: 16
    kernel_size: 1
    weight_filler {
      type: "xavier"
      std: 0.2
    }
    bias_filler {
      type: "constant"
      value: 0.2
    }
  }
}
layer {
  name: "inception_4a/relu_5x5_reduce"
  type: "ReLU"
  bottom: "inception_4a/5x5_reduce"
  top: "inception_4a/5x5_reduce"
}
layer {
  name: "inception_4a/5x5"
  type: "Convolution"
  bottom: "inception_4a/5x5_reduce"
  top: "inception_4a/5x5"
  param {
    lr_mult: 1
    decay_mult: 1
  }
  param {
    lr_mult: 2
    decay_mult: 0
  }
  convolution_param {
    num_output: 48
    pad: 2
    kernel_size: 5
    weight_filler {
      type: "xavier"
      std: 0.03
    }
    bias_filler {
      type: "constant"
      value: 0.2
    }
  }
}
layer {
  name: "inception_4a/relu_5x5"
  type: "ReLU"
  bottom: "inception_4a/5x5"
  top: "inception_4a/5x5"
}
layer {
  name: "inception_4a/pool"
  type: "Pooling"
  bottom: "pool3/3x3_s2"
  top: "inception_4a/pool"
  pooling_param {
    pool: MAX
    kernel_size: 3
    stride: 1
    pad: 1
  }
}
layer {
  name: "inception_4a/pool_proj"
  type: "Convolution"
  bottom: "inception_4a/pool"
  top: "inception_4a/pool_proj"
  param {
    lr_mult: 1
    decay_mult: 1
  }
  param {
    lr_mult: 2
    decay_mult: 0
  }
  convolution_param {
    num_output: 64
    kernel_size: 1
    weight_filler {
      type: "xavier"
      std: 0.1
    }
    bias_filler {
      type: "constant"
      value: 0.2
    }
  }
}
layer {
  name: "inception_4a/relu_pool_proj"
  type: "ReLU"
  bottom: "inception_4a/pool_proj"
  top: "inception_4a/pool_proj"
}
layer {
  name: "inception_4a/output"
  type: "Concat"
  bottom: "inception_4a/1x1"
  bottom: "inception_4a/3x3"
  bottom: "inception_4a/5x5"
  bottom: "inception_4a/pool_proj"
  top: "inception_4a/output"
}
layer {
  name: "loss1/ave_pool"
  type: "Pooling"
  bottom: "inception_4a/output"
  top: "loss1/ave_pool"
  pooling_param {
    pool: AVE
    kernel_size: 5
    stride: 3
  }
}
layer {
  name: "loss1/conv"
  type: "Convolution"
  bottom: "loss1/ave_pool"
  top: "loss1/conv"
  param {
    lr_mult: 1
    decay_mult: 1
  }
  param {
    lr_mult: 2
    decay_mult: 0
  }
  convolution_param {
    num_output: 128
    kernel_size: 1
    weight_filler {
      type: "xavier"
      std: 0.08
    }
    bias_filler {
      type: "constant"
      value: 0.2
    }
  }
}
layer {
  name: "loss1/relu_conv"
  type: "ReLU"
  bottom: "loss1/conv"
  top: "loss1/conv"
}
layer {
  name: "loss1/fc"
  type: "InnerProduct"
  bottom: "loss1/conv"
  top: "loss1/fc"
  param {
    lr_mult: 1
    decay_mult: 1
  }
  param {
    lr_mult: 2
    decay_mult: 0
  }
  inner_product_param {
    num_output: 1024
    weight_filler {
      type: "xavier"
      std: 0.02
    }
    bias_filler {
      type: "constant"
      value: 0.2
    }
  }
}
layer {
  name: "loss1/relu_fc"
  type: "ReLU"
  bottom: "loss1/fc"
  top: "loss1/fc"
}
layer {
  name: "loss1/drop_fc"
  type: "Dropout"
  bottom: "loss1/fc"
  top: "loss1/fc"
  dropout_param {
    dropout_ratio: 0.7
  }
}
layer {
  name: "loss1/classifier_plantvillage"
  type: "InnerProduct"
  bottom: "loss1/fc"
  top: "loss1/classifier_plantvillage"
  param {
    lr_mult: 1
    decay_mult: 1
  }
  param {
    lr_mult: 2
    decay_mult: 0
  }
  inner_product_param {
    num_output: 38
    weight_filler {
      type: "xavier"
      std: 0.0009765625
    }
    bias_filler {
      type: "constant"
      value: 0
    }
  }
}
layer {
  name: "inception_4b/1x1"
  type: "Convolution"
  bottom: "inception_4a/output"
  top: "inception_4b/1x1"
  param {
    lr_mult: 1
    decay_mult: 1
  }
  param {
    lr_mult: 2
    decay_mult: 0
  }
  convolution_param {
    num_output: 160
    kernel_size: 1
    weight_filler {
      type: "xavier"
      std: 0.03
    }
    bias_filler {
      type: "constant"
      value: 0.2
    }
  }
}
layer {
  name: "inception_4b/relu_1x1"
  type: "ReLU"
  bottom: "inception_4b/1x1"
  top: "inception_4b/1x1"
}
layer {
  name: "inception_4b/3x3_reduce"
  type: "Convolution"
  bottom: "inception_4a/output"
  top: "inception_4b/3x3_reduce"
  param {
    lr_mult: 1
    decay_mult: 1
  }
  param {
    lr_mult: 2
    decay_mult: 0
  }
  convolution_param {
    num_output: 112
    kernel_size: 1
    weight_filler {
      type: "xavier"
      std: 0.09
    }
    bias_filler {
      type: "constant"
      value: 0.2
    }
  }
}
layer {
  name: "inception_4b/relu_3x3_reduce"
  type: "ReLU"
  bottom: "inception_4b/3x3_reduce"
  top: "inception_4b/3x3_reduce"
}
layer {
  name: "inception_4b/3x3"
  type: "Convolution"
  bottom: "inception_4b/3x3_reduce"
  top: "inception_4b/3x3"
  param {
    lr_mult: 1
    decay_mult: 1
  }
  param {
    lr_mult: 2
    decay_mult: 0
  }
  convolution_param {
    num_output: 224
    pad: 1
    kernel_size: 3
    weight_filler {
      type: "xavier"
      std: 0.03
    }
    bias_filler {
      type: "constant"
      value: 0.2
    }
  }
}
layer {
  name: "inception_4b/relu_3x3"
  type: "ReLU"
  bottom: "inception_4b/3x3"
  top: "inception_4b/3x3"
}
layer {
  name: "inception_4b/5x5_reduce"
  type: "Convolution"
  bottom: "inception_4a/output"
  top: "inception_4b/5x5_reduce"
  param {
    lr_mult: 1
    decay_mult: 1
  }
  param {
    lr_mult: 2
    decay_mult: 0
  }
  convolution_param {
    num_output: 24
    kernel_size: 1
    weight_filler {
      type: "xavier"
      std: 0.2
    }
    bias_filler {
      type: "constant"
      value: 0.2
    }
  }
}
layer {
  name: "inception_4b/relu_5x5_reduce"
  type: "ReLU"
  bottom: "inception_4b/5x5_reduce"
  top: "inception_4b/5x5_reduce"
}
layer {
  name: "inception_4b/5x5"
  type: "Convolution"
  bottom: "inception_4b/5x5_reduce"
  top: "inception_4b/5x5"
  param {
    lr_mult: 1
    decay_mult: 1
  }
  param {
    lr_mult: 2
    decay_mult: 0
  }
  convolution_param {
    num_output: 64
    pad: 2
    kernel_size: 5
    weight_filler {
      type: "xavier"
      std: 0.03
    }
    bias_filler {
      type: "constant"
      value: 0.2
    }
  }
}
layer {
  name: "inception_4b/relu_5x5"
  type: "ReLU"
  bottom: "inception_4b/5x5"
  top: "inception_4b/5x5"
}
layer {
  name: "inception_4b/pool"
  type: "Pooling"
  bottom: "inception_4a/output"
  top: "inception_4b/pool"
  pooling_param {
    pool: MAX
    kernel_size: 3
    stride: 1
    pad: 1
  }
}
layer {
  name: "inception_4b/pool_proj"
  type: "Convolution"
  bottom: "inception_4b/pool"
  top: "inception_4b/pool_proj"
  param {
    lr_mult: 1
    decay_mult: 1
  }
  param {
    lr_mult: 2
    decay_mult: 0
  }
  convolution_param {
    num_output: 64
    kernel_size: 1
    weight_filler {
      type: "xavier"
      std: 0.1
    }
    bias_filler {
      type: "constant"
      value: 0.2
    }
  }
}
layer {
  name: "inception_4b/relu_pool_proj"
  type: "ReLU"
  bottom: "inception_4b/pool_proj"
  top: "inception_4b/pool_proj"
}
layer {
  name: "inception_4b/output"
  type: "Concat"
  bottom: "inception_4b/1x1"
  bottom: "inception_4b/3x3"
  bottom: "inception_4b/5x5"
  bottom: "inception_4b/pool_proj"
  top: "inception_4b/output"
}
layer {
  name: "inception_4c/1x1"
  type: "Convolution"
  bottom: "inception_4b/output"
  top: "inception_4c/1x1"
  param {
    lr_mult: 1
    decay_mult: 1
  }
  param {
    lr_mult: 2
    decay_mult: 0
  }
  convolution_param {
    num_output: 128
    kernel_size: 1
    weight_filler {
      type: "xavier"
      std: 0.03
    }
    bias_filler {
      type: "constant"
      value: 0.2
    }
  }
}
layer {
  name: "inception_4c/relu_1x1"
  type: "ReLU"
  bottom: "inception_4c/1x1"
  top: "inception_4c/1x1"
}
layer {
  name: "inception_4c/3x3_reduce"
  type: "Convolution"
  bottom: "inception_4b/output"
  top: "inception_4c/3x3_reduce"
  param {
    lr_mult: 1
    decay_mult: 1
  }
  param {
    lr_mult: 2
    decay_mult: 0
  }
  convolution_param {
    num_output: 128
    kernel_size: 1
    weight_filler {
      type: "xavier"
      std: 0.09
    }
    bias_filler {
      type: "constant"
      value: 0.2
    }
  }
}
layer {
  name: "inception_4c/relu_3x3_reduce"
  type: "ReLU"
  bottom: "inception_4c/3x3_reduce"
  top: "inception_4c/3x3_reduce"
}
layer {
  name: "inception_4c/3x3"
  type: "Convolution"
  bottom: "inception_4c/3x3_reduce"
  top: "inception_4c/3x3"
  param {
    lr_mult: 1
    decay_mult: 1
  }
  param {
    lr_mult: 2
    decay_mult: 0
  }
  convolution_param {
    num_output: 256
    pad: 1
    kernel_size: 3
    weight_filler {
      type: "xavier"
      std: 0.03
    }
    bias_filler {
      type: "constant"
      value: 0.2
    }
  }
}
layer {
  name: "inception_4c/relu_3x3"
  type: "ReLU"
  bottom: "inception_4c/3x3"
  top: "inception_4c/3x3"
}
layer {
  name: "inception_4c/5x5_reduce"
  type: "Convolution"
  bottom: "inception_4b/output"
  top: "inception_4c/5x5_reduce"
  param {
    lr_mult: 1
    decay_mult: 1
  }
  param {
    lr_mult: 2
    decay_mult: 0
  }
  convolution_param {
    num_output: 24
    kernel_size: 1
    weight_filler {
      type: "xavier"
      std: 0.2
    }
    bias_filler {
      type: "constant"
      value: 0.2
    }
  }
}
layer {
  name: "inception_4c/relu_5x5_reduce"
  type: "ReLU"
  bottom: "inception_4c/5x5_reduce"
  top: "inception_4c/5x5_reduce"
}
layer {
  name: "inception_4c/5x5"
  type: "Convolution"
  bottom: "inception_4c/5x5_reduce"
  top: "inception_4c/5x5"
  param {
    lr_mult: 1
    decay_mult: 1
  }
  param {
    lr_mult: 2
    decay_mult: 0
  }
  convolution_param {
    num_output: 64
    pad: 2
    kernel_size: 5
    weight_filler {
      type: "xavier"
      std: 0.03
    }
    bias_filler {
      type: "constant"
      value: 0.2
    }
  }
}
layer {
  name: "inception_4c/relu_5x5"
  type: "ReLU"
  bottom: "inception_4c/5x5"
  top: "inception_4c/5x5"
}
layer {
  name: "inception_4c/pool"
  type: "Pooling"
  bottom: "inception_4b/output"
  top: "inception_4c/pool"
  pooling_param {
    pool: MAX
    kernel_size: 3
    stride: 1
    pad: 1
  }
}
layer {
  name: "inception_4c/pool_proj"
  type: "Convolution"
  bottom: "inception_4c/pool"
  top: "inception_4c/pool_proj"
  param {
    lr_mult: 1
    decay_mult: 1
  }
  param {
    lr_mult: 2
    decay_mult: 0
  }
  convolution_param {
    num_output: 64
    kernel_size: 1
    weight_filler {
      type: "xavier"
      std: 0.1
    }
    bias_filler {
      type: "constant"
      value: 0.2
    }
  }
}
layer {
  name: "inception_4c/relu_pool_proj"
  type: "ReLU"
  bottom: "inception_4c/pool_proj"
  top: "inception_4c/pool_proj"
}
layer {
  name: "inception_4c/output"
  type: "Concat"
  bottom: "inception_4c/1x1"
  bottom: "inception_4c/3x3"
  bottom: "inception_4c/5x5"
  bottom: "inception_4c/pool_proj"
  top: "inception_4c/output"
}
layer {
  name: "inception_4d/1x1"
  type: "Convolution"
  bottom: "inception_4c/output"
  top: "inception_4d/1x1"
  param {
    lr_mult: 1
    decay_mult: 1
  }
  param {
    lr_mult: 2
    decay_mult: 0
  }
  convolution_param {
    num_output: 112
    kernel_size: 1
    weight_filler {
      type: "xavier"
      std: 0.03
    }
    bias_filler {
      type: "constant"
      value: 0.2
    }
  }
}
layer {
  name: "inception_4d/relu_1x1"
  type: "ReLU"
  bottom: "inception_4d/1x1"
  top: "inception_4d/1x1"
}
layer {
  name: "inception_4d/3x3_reduce"
  type: "Convolution"
  bottom: "inception_4c/output"
  top: "inception_4d/3x3_reduce"
  param {
    lr_mult: 1
    decay_mult: 1
  }
  param {
    lr_mult: 2
    decay_mult: 0
  }
  convolution_param {
    num_output: 144
    kernel_size: 1
    weight_filler {
      type: "xavier"
      std: 0.09
    }
    bias_filler {
      type: "constant"
      value: 0.2
    }
  }
}
layer {
  name: "inception_4d/relu_3x3_reduce"
  type: "ReLU"
  bottom: "inception_4d/3x3_reduce"
  top: "inception_4d/3x3_reduce"
}
layer {
  name: "inception_4d/3x3"
  type: "Convolution"
  bottom: "inception_4d/3x3_reduce"
  top: "inception_4d/3x3"
  param {
    lr_mult: 1
    decay_mult: 1
  }
  param {
    lr_mult: 2
    decay_mult: 0
  }
  convolution_param {
    num_output: 288
    pad: 1
    kernel_size: 3
    weight_filler {
      type: "xavier"
      std: 0.03
    }
    bias_filler {
      type: "constant"
      value: 0.2
    }
  }
}
layer {
  name: "inception_4d/relu_3x3"
  type: "ReLU"
  bottom: "inception_4d/3x3"
  top: "inception_4d/3x3"
}
layer {
  name: "inception_4d/5x5_reduce"
  type: "Convolution"
  bottom: "inception_4c/output"
  top: "inception_4d/5x5_reduce"
  param {
    lr_mult: 1
    decay_mult: 1
  }
  param {
    lr_mult: 2
    decay_mult: 0
  }
  convolution_param {
    num_output: 32
    kernel_size: 1
    weight_filler {
      type: "xavier"
      std: 0.2
    }
    bias_filler {
      type: "constant"
      value: 0.2
    }
  }
}
layer {
  name: "inception_4d/relu_5x5_reduce"
  type: "ReLU"
  bottom: "inception_4d/5x5_reduce"
  top: "inception_4d/5x5_reduce"
}
layer {
  name: "inception_4d/5x5"
  type: "Convolution"
  bottom: "inception_4d/5x5_reduce"
  top: "inception_4d/5x5"
  param {
    lr_mult: 1
    decay_mult: 1
  }
  param {
    lr_mult: 2
    decay_mult: 0
  }
  convolution_param {
    num_output: 64
    pad: 2
    kernel_size: 5
    weight_filler {
      type: "xavier"
      std: 0.03
    }
    bias_filler {
      type: "constant"
      value: 0.2
    }
  }
}
layer {
  name: "inception_4d/relu_5x5"
  type: "ReLU"
  bottom: "inception_4d/5x5"
  top: "inception_4d/5x5"
}
layer {
  name: "inception_4d/pool"
  type: "Pooling"
  bottom: "inception_4c/output"
  top: "inception_4d/pool"
  pooling_param {
    pool: MAX
    kernel_size: 3
    stride: 1
    pad: 1
  }
}
layer {
  name: "inception_4d/pool_proj"
  type: "Convolution"
  bottom: "inception_4d/pool"
  top: "inception_4d/pool_proj"
  param {
    lr_mult: 1
    decay_mult: 1
  }
  param {
    lr_mult: 2
    decay_mult: 0
  }
  convolution_param {
    num_output: 64
    kernel_size: 1
    weight_filler {
      type: "xavier"
      std: 0.1
    }
    bias_filler {
      type: "constant"
      value: 0.2
    }
  }
}
layer {
  name: "inception_4d/relu_pool_proj"
  type: "ReLU"
  bottom: "inception_4d/pool_proj"
  top: "inception_4d/pool_proj"
}
layer {
  name: "inception_4d/output"
  type: "Concat"
  bottom: "inception_4d/1x1"
  bottom: "inception_4d/3x3"
  bottom: "inception_4d/5x5"
  bottom: "inception_4d/pool_proj"
  top: "inception_4d/output"
}
layer {
  name: "loss2/ave_pool"
  type: "Pooling"
  bottom: "inception_4d/output"
  top: "loss2/ave_pool"
  pooling_param {
    pool: AVE
    kernel_size: 5
    stride: 3
  }
}
layer {
  name: "loss2/conv"
  type: "Convolution"
  bottom: "loss2/ave_pool"
  top: "loss2/conv"
  param {
    lr_mult: 1
    decay_mult: 1
  }
  param {
    lr_mult: 2
    decay_mult: 0
  }
  convolution_param {
    num_output: 128
    kernel_size: 1
    weight_filler {
      type: "xavier"
      std: 0.08
    }
    bias_filler {
      type: "constant"
      value: 0.2
    }
  }
}
layer {
  name: "loss2/relu_conv"
  type: "ReLU"
  bottom: "loss2/conv"
  top: "loss2/conv"
}
layer {
  name: "loss2/fc"
  type: "InnerProduct"
  bottom: "loss2/conv"
  top: "loss2/fc"
  param {
    lr_mult: 1
    decay_mult: 1
  }
  param {
    lr_mult: 2
    decay_mult: 0
  }
  inner_product_param {
    num_output: 1024
    weight_filler {
      type: "xavier"
      std: 0.02
    }
    bias_filler {
      type: "constant"
      value: 0.2
    }
  }
}
layer {
  name: "loss2/relu_fc"
  type: "ReLU"
  bottom: "loss2/fc"
  top: "loss2/fc"
}
layer {
  name: "loss2/drop_fc"
  type: "Dropout"
  bottom: "loss2/fc"
  top: "loss2/fc"
  dropout_param {
    dropout_ratio: 0.7
  }
}
layer {
  name: "loss2/classifier_plantvillage"
  type: "InnerProduct"
  bottom: "loss2/fc"
  top: "loss2/classifier_plantvillage"
  param {
    lr_mult: 1
    decay_mult: 1
  }
  param {
    lr_mult: 2
    decay_mult: 0
  }
  inner_product_param {
    num_output: 38
    weight_filler {
      type: "xavier"
      std: 0.0009765625
    }
    bias_filler {
      type: "constant"
      value: 0
    }
  }
}
layer {
  name: "inception_4e/1x1"
  type: "Convolution"
  bottom: "inception_4d/output"
  top: "inception_4e/1x1"
  param {
    lr_mult: 1
    decay_mult: 1
  }
  param {
    lr_mult: 2
    decay_mult: 0
  }
  convolution_param {
    num_output: 256
    kernel_size: 1
    weight_filler {
      type: "xavier"
      std: 0.03
    }
    bias_filler {
      type: "constant"
      value: 0.2
    }
  }
}
layer {
  name: "inception_4e/relu_1x1"
  type: "ReLU"
  bottom: "inception_4e/1x1"
  top: "inception_4e/1x1"
}
layer {
  name: "inception_4e/3x3_reduce"
  type: "Convolution"
  bottom: "inception_4d/output"
  top: "inception_4e/3x3_reduce"
  param {
    lr_mult: 1
    decay_mult: 1
  }
  param {
    lr_mult: 2
    decay_mult: 0
  }
  convolution_param {
    num_output: 160
    kernel_size: 1
    weight_filler {
      type: "xavier"
      std: 0.09
    }
    bias_filler {
      type: "constant"
      value: 0.2
    }
  }
}
layer {
  name: "inception_4e/relu_3x3_reduce"
  type: "ReLU"
  bottom: "inception_4e/3x3_reduce"
  top: "inception_4e/3x3_reduce"
}
layer {
  name: "inception_4e/3x3"
  type: "Convolution"
  bottom: "inception_4e/3x3_reduce"
  top: "inception_4e/3x3"
  param {
    lr_mult: 1
    decay_mult: 1
  }
  param {
    lr_mult: 2
    decay_mult: 0
  }
  convolution_param {
    num_output: 320
    pad: 1
    kernel_size: 3
    weight_filler {
      type: "xavier"
      std: 0.03
    }
    bias_filler {
      type: "constant"
      value: 0.2
    }
  }
}
layer {
  name: "inception_4e/relu_3x3"
  type: "ReLU"
  bottom: "inception_4e/3x3"
  top: "inception_4e/3x3"
}
layer {
  name: "inception_4e/5x5_reduce"
  type: "Convolution"
  bottom: "inception_4d/output"
  top: "inception_4e/5x5_reduce"
  param {
    lr_mult: 1
    decay_mult: 1
  }
  param {
    lr_mult: 2
    decay_mult: 0
  }
  convolution_param {
    num_output: 32
    kernel_size: 1
    weight_filler {
      type: "xavier"
      std: 0.2
    }
    bias_filler {
      type: "constant"
      value: 0.2
    }
  }
}
layer {
  name: "inception_4e/relu_5x5_reduce"
  type: "ReLU"
  bottom: "inception_4e/5x5_reduce"
  top: "inception_4e/5x5_reduce"
}
layer {
  name: "inception_4e/5x5"
  type: "Convolution"
  bottom: "inception_4e/5x5_reduce"
  top: "inception_4e/5x5"
  p
I0403 15:45:38.144788 14347 layer_factory.hpp:77] Creating layer data
I0403 15:45:38.145406 14347 net.cpp:91] Creating Layer data
I0403 15:45:38.145440 14347 net.cpp:399] data -> data
I0403 15:45:38.145495 14347 net.cpp:399] data -> label
I0403 15:45:38.145534 14347 data_transformer.cpp:25] Loading mean file from: /home/mohanty/data/final_dataset/lmdb/color-80-20/mean.binaryproto
I0403 15:45:38.147953 14350 db_lmdb.cpp:38] Opened lmdb /home/mohanty/data/final_dataset/lmdb/color-80-20/test_db
I0403 15:45:38.158944 14347 data_layer.cpp:41] output data size: 24,3,224,224
I0403 15:45:38.186966 14347 net.cpp:141] Setting up data
I0403 15:45:38.187046 14347 net.cpp:148] Top shape: 24 3 224 224 (3612672)
I0403 15:45:38.187069 14347 net.cpp:148] Top shape: 24 (24)
I0403 15:45:38.187086 14347 net.cpp:156] Memory required for data: 14450784
I0403 15:45:38.187119 14347 layer_factory.hpp:77] Creating layer label_data_1_split
I0403 15:45:38.187146 14347 net.cpp:91] Creating Layer label_data_1_split
I0403 15:45:38.187165 14347 net.cpp:425] label_data_1_split <- label
I0403 15:45:38.187197 14347 net.cpp:399] label_data_1_split -> label_data_1_split_0
I0403 15:45:38.187227 14347 net.cpp:399] label_data_1_split -> label_data_1_split_1
I0403 15:45:38.187270 14347 net.cpp:399] label_data_1_split -> label_data_1_split_2
I0403 15:45:38.187297 14347 net.cpp:399] label_data_1_split -> label_data_1_split_3
I0403 15:45:38.187319 14347 net.cpp:399] label_data_1_split -> label_data_1_split_4
I0403 15:45:38.187340 14347 net.cpp:399] label_data_1_split -> label_data_1_split_5
I0403 15:45:38.187361 14347 net.cpp:399] label_data_1_split -> label_data_1_split_6
I0403 15:45:38.187383 14347 net.cpp:399] label_data_1_split -> label_data_1_split_7
I0403 15:45:38.187405 14347 net.cpp:399] label_data_1_split -> label_data_1_split_8
I0403 15:45:38.187428 14347 net.cpp:399] label_data_1_split -> label_data_1_split_9
I0403 15:45:38.187551 14347 net.cpp:141] Setting up label_data_1_split
I0403 15:45:38.187577 14347 net.cpp:148] Top shape: 24 (24)
I0403 15:45:38.187594 14347 net.cpp:148] Top shape: 24 (24)
I0403 15:45:38.187610 14347 net.cpp:148] Top shape: 24 (24)
I0403 15:45:38.187628 14347 net.cpp:148] Top shape: 24 (24)
I0403 15:45:38.187643 14347 net.cpp:148] Top shape: 24 (24)
I0403 15:45:38.187659 14347 net.cpp:148] Top shape: 24 (24)
I0403 15:45:38.187674 14347 net.cpp:148] Top shape: 24 (24)
I0403 15:45:38.187690 14347 net.cpp:148] Top shape: 24 (24)
I0403 15:45:38.187706 14347 net.cpp:148] Top shape: 24 (24)
I0403 15:45:38.187722 14347 net.cpp:148] Top shape: 24 (24)
I0403 15:45:38.187770 14347 net.cpp:156] Memory required for data: 14451744
I0403 15:45:38.187788 14347 layer_factory.hpp:77] Creating layer conv1/7x7_s2
I0403 15:45:38.187820 14347 net.cpp:91] Creating Layer conv1/7x7_s2
I0403 15:45:38.187840 14347 net.cpp:425] conv1/7x7_s2 <- data
I0403 15:45:38.187861 14347 net.cpp:399] conv1/7x7_s2 -> conv1/7x7_s2
I0403 15:45:38.335088 14347 net.cpp:141] Setting up conv1/7x7_s2
I0403 15:45:38.335161 14347 net.cpp:148] Top shape: 24 64 112 112 (19267584)
I0403 15:45:38.335180 14347 net.cpp:156] Memory required for data: 91522080
I0403 15:45:38.335213 14347 layer_factory.hpp:77] Creating layer conv1/relu_7x7
I0403 15:45:38.335242 14347 net.cpp:91] Creating Layer conv1/relu_7x7
I0403 15:45:38.335263 14347 net.cpp:425] conv1/relu_7x7 <- conv1/7x7_s2
I0403 15:45:38.335283 14347 net.cpp:386] conv1/relu_7x7 -> conv1/7x7_s2 (in-place)
I0403 15:45:38.335572 14347 net.cpp:141] Setting up conv1/relu_7x7
I0403 15:45:38.335602 14347 net.cpp:148] Top shape: 24 64 112 112 (19267584)
I0403 15:45:38.335618 14347 net.cpp:156] Memory required for data: 168592416
I0403 15:45:38.335633 14347 layer_factory.hpp:77] Creating layer pool1/3x3_s2
I0403 15:45:38.335659 14347 net.cpp:91] Creating Layer pool1/3x3_s2
I0403 15:45:38.335678 14347 net.cpp:425] pool1/3x3_s2 <- conv1/7x7_s2
I0403 15:45:38.335698 14347 net.cpp:399] pool1/3x3_s2 -> pool1/3x3_s2
I0403 15:45:38.335782 14347 net.cpp:141] Setting up pool1/3x3_s2
I0403 15:45:38.335808 14347 net.cpp:148] Top shape: 24 64 56 56 (4816896)
I0403 15:45:38.335824 14347 net.cpp:156] Memory required for data: 187860000
I0403 15:45:38.335839 14347 layer_factory.hpp:77] Creating layer pool1/norm1
I0403 15:45:38.335866 14347 net.cpp:91] Creating Layer pool1/norm1
I0403 15:45:38.335886 14347 net.cpp:425] pool1/norm1 <- pool1/3x3_s2
I0403 15:45:38.335906 14347 net.cpp:399] pool1/norm1 -> pool1/norm1
I0403 15:45:38.336269 14347 net.cpp:141] Setting up pool1/norm1
I0403 15:45:38.336299 14347 net.cpp:148] Top shape: 24 64 56 56 (4816896)
I0403 15:45:38.336316 14347 net.cpp:156] Memory required for data: 207127584
I0403 15:45:38.336333 14347 layer_factory.hpp:77] Creating layer conv2/3x3_reduce
I0403 15:45:38.336361 14347 net.cpp:91] Creating Layer conv2/3x3_reduce
I0403 15:45:38.336380 14347 net.cpp:425] conv2/3x3_reduce <- pool1/norm1
I0403 15:45:38.336401 14347 net.cpp:399] conv2/3x3_reduce -> conv2/3x3_reduce
I0403 15:45:38.337837 14347 net.cpp:141] Setting up conv2/3x3_reduce
I0403 15:45:38.337872 14347 net.cpp:148] Top shape: 24 64 56 56 (4816896)
I0403 15:45:38.337889 14347 net.cpp:156] Memory required for data: 226395168
I0403 15:45:38.337913 14347 layer_factory.hpp:77] Creating layer conv2/relu_3x3_reduce
I0403 15:45:38.337931 14347 net.cpp:91] Creating Layer conv2/relu_3x3_reduce
I0403 15:45:38.337947 14347 net.cpp:425] conv2/relu_3x3_reduce <- conv2/3x3_reduce
I0403 15:45:38.337968 14347 net.cpp:386] conv2/relu_3x3_reduce -> conv2/3x3_reduce (in-place)
I0403 15:45:38.338316 14347 net.cpp:141] Setting up conv2/relu_3x3_reduce
I0403 15:45:38.338346 14347 net.cpp:148] Top shape: 24 64 56 56 (4816896)
I0403 15:45:38.338361 14347 net.cpp:156] Memory required for data: 245662752
I0403 15:45:38.338377 14347 layer_factory.hpp:77] Creating layer conv2/3x3
I0403 15:45:38.338405 14347 net.cpp:91] Creating Layer conv2/3x3
I0403 15:45:38.338425 14347 net.cpp:425] conv2/3x3 <- conv2/3x3_reduce
I0403 15:45:38.338449 14347 net.cpp:399] conv2/3x3 -> conv2/3x3
I0403 15:45:38.340885 14347 net.cpp:141] Setting up conv2/3x3
I0403 15:45:38.340919 14347 net.cpp:148] Top shape: 24 192 56 56 (14450688)
I0403 15:45:38.340936 14347 net.cpp:156] Memory required for data: 303465504
I0403 15:45:38.340960 14347 layer_factory.hpp:77] Creating layer conv2/relu_3x3
I0403 15:45:38.340980 14347 net.cpp:91] Creating Layer conv2/relu_3x3
I0403 15:45:38.341001 14347 net.cpp:425] conv2/relu_3x3 <- conv2/3x3
I0403 15:45:38.341019 14347 net.cpp:386] conv2/relu_3x3 -> conv2/3x3 (in-place)
I0403 15:45:38.341212 14347 net.cpp:141] Setting up conv2/relu_3x3
I0403 15:45:38.341238 14347 net.cpp:148] Top shape: 24 192 56 56 (14450688)
I0403 15:45:38.341287 14347 net.cpp:156] Memory required for data: 361268256
I0403 15:45:38.341305 14347 layer_factory.hpp:77] Creating layer conv2/norm2
I0403 15:45:38.341326 14347 net.cpp:91] Creating Layer conv2/norm2
I0403 15:45:38.341344 14347 net.cpp:425] conv2/norm2 <- conv2/3x3
I0403 15:45:38.341367 14347 net.cpp:399] conv2/norm2 -> conv2/norm2
I0403 15:45:38.341692 14347 net.cpp:141] Setting up conv2/norm2
I0403 15:45:38.341724 14347 net.cpp:148] Top shape: 24 192 56 56 (14450688)
I0403 15:45:38.341742 14347 net.cpp:156] Memory required for data: 419071008
I0403 15:45:38.341758 14347 layer_factory.hpp:77] Creating layer pool2/3x3_s2
I0403 15:45:38.341778 14347 net.cpp:91] Creating Layer pool2/3x3_s2
I0403 15:45:38.341851 14347 net.cpp:425] pool2/3x3_s2 <- conv2/norm2
I0403 15:45:38.341879 14347 net.cpp:399] pool2/3x3_s2 -> pool2/3x3_s2
I0403 15:45:38.341938 14347 net.cpp:141] Setting up pool2/3x3_s2
I0403 15:45:38.341964 14347 net.cpp:148] Top shape: 24 192 28 28 (3612672)
I0403 15:45:38.341979 14347 net.cpp:156] Memory required for data: 433521696
I0403 15:45:38.341995 14347 layer_factory.hpp:77] Creating layer pool2/3x3_s2_pool2/3x3_s2_0_split
I0403 15:45:38.342016 14347 net.cpp:91] Creating Layer pool2/3x3_s2_pool2/3x3_s2_0_split
I0403 15:45:38.342034 14347 net.cpp:425] pool2/3x3_s2_pool2/3x3_s2_0_split <- pool2/3x3_s2
I0403 15:45:38.342052 14347 net.cpp:399] pool2/3x3_s2_pool2/3x3_s2_0_split -> pool2/3x3_s2_pool2/3x3_s2_0_split_0
I0403 15:45:38.342074 14347 net.cpp:399] pool2/3x3_s2_pool2/3x3_s2_0_split -> pool2/3x3_s2_pool2/3x3_s2_0_split_1
I0403 15:45:38.342099 14347 net.cpp:399] pool2/3x3_s2_pool2/3x3_s2_0_split -> pool2/3x3_s2_pool2/3x3_s2_0_split_2
I0403 15:45:38.342125 14347 net.cpp:399] pool2/3x3_s2_pool2/3x3_s2_0_split -> pool2/3x3_s2_pool2/3x3_s2_0_split_3
I0403 15:45:38.342203 14347 net.cpp:141] Setting up pool2/3x3_s2_pool2/3x3_s2_0_split
I0403 15:45:38.342228 14347 net.cpp:148] Top shape: 24 192 28 28 (3612672)
I0403 15:45:38.342244 14347 net.cpp:148] Top shape: 24 192 28 28 (3612672)
I0403 15:45:38.342262 14347 net.cpp:148] Top shape: 24 192 28 28 (3612672)
I0403 15:45:38.342278 14347 net.cpp:148] Top shape: 24 192 28 28 (3612672)
I0403 15:45:38.342291 14347 net.cpp:156] Memory required for data: 491324448
I0403 15:45:38.342308 14347 layer_factory.hpp:77] Creating layer inception_3a/1x1
I0403 15:45:38.342331 14347 net.cpp:91] Creating Layer inception_3a/1x1
I0403 15:45:38.342350 14347 net.cpp:425] inception_3a/1x1 <- pool2/3x3_s2_pool2/3x3_s2_0_split_0
I0403 15:45:38.342372 14347 net.cpp:399] inception_3a/1x1 -> inception_3a/1x1
I0403 15:45:38.343966 14347 net.cpp:141] Setting up inception_3a/1x1
I0403 15:45:38.343998 14347 net.cpp:148] Top shape: 24 64 28 28 (1204224)
I0403 15:45:38.344017 14347 net.cpp:156] Memory required for data: 496141344
I0403 15:45:38.344035 14347 layer_factory.hpp:77] Creating layer inception_3a/relu_1x1
I0403 15:45:38.344054 14347 net.cpp:91] Creating Layer inception_3a/relu_1x1
I0403 15:45:38.344071 14347 net.cpp:425] inception_3a/relu_1x1 <- inception_3a/1x1
I0403 15:45:38.344096 14347 net.cpp:386] inception_3a/relu_1x1 -> inception_3a/1x1 (in-place)
I0403 15:45:38.344283 14347 net.cpp:141] Setting up inception_3a/relu_1x1
I0403 15:45:38.344310 14347 net.cpp:148] Top shape: 24 64 28 28 (1204224)
I0403 15:45:38.344326 14347 net.cpp:156] Memory required for data: 500958240
I0403 15:45:38.344341 14347 layer_factory.hpp:77] Creating layer inception_3a/3x3_reduce
I0403 15:45:38.344363 14347 net.cpp:91] Creating Layer inception_3a/3x3_reduce
I0403 15:45:38.344383 14347 net.cpp:425] inception_3a/3x3_reduce <- pool2/3x3_s2_pool2/3x3_s2_0_split_1
I0403 15:45:38.344406 14347 net.cpp:399] inception_3a/3x3_reduce -> inception_3a/3x3_reduce
I0403 15:45:38.346164 14347 net.cpp:141] Setting up inception_3a/3x3_reduce
I0403 15:45:38.346199 14347 net.cpp:148] Top shape: 24 96 28 28 (1806336)
I0403 15:45:38.346215 14347 net.cpp:156] Memory required for data: 508183584
I0403 15:45:38.346236 14347 layer_factory.hpp:77] Creating layer inception_3a/relu_3x3_reduce
I0403 15:45:38.346276 14347 net.cpp:91] Creating Layer inception_3a/relu_3x3_reduce
I0403 15:45:38.346297 14347 net.cpp:425] inception_3a/relu_3x3_reduce <- inception_3a/3x3_reduce
I0403 15:45:38.346317 14347 net.cpp:386] inception_3a/relu_3x3_reduce -> inception_3a/3x3_reduce (in-place)
I0403 15:45:38.346505 14347 net.cpp:141] Setting up inception_3a/relu_3x3_reduce
I0403 15:45:38.346534 14347 net.cpp:148] Top shape: 24 96 28 28 (1806336)
I0403 15:45:38.346551 14347 net.cpp:156] Memory required for data: 515408928
I0403 15:45:38.346567 14347 layer_factory.hpp:77] Creating layer inception_3a/3x3
I0403 15:45:38.346596 14347 net.cpp:91] Creating Layer inception_3a/3x3
I0403 15:45:38.346614 14347 net.cpp:425] inception_3a/3x3 <- inception_3a/3x3_reduce
I0403 15:45:38.346635 14347 net.cpp:399] inception_3a/3x3 -> inception_3a/3x3
I0403 15:45:38.348356 14347 net.cpp:141] Setting up inception_3a/3x3
I0403 15:45:38.348387 14347 net.cpp:148] Top shape: 24 128 28 28 (2408448)
I0403 15:45:38.348403 14347 net.cpp:156] Memory required for data: 525042720
I0403 15:45:38.348423 14347 layer_factory.hpp:77] Creating layer inception_3a/relu_3x3
I0403 15:45:38.348443 14347 net.cpp:91] Creating Layer inception_3a/relu_3x3
I0403 15:45:38.348459 14347 net.cpp:425] inception_3a/relu_3x3 <- inception_3a/3x3
I0403 15:45:38.348479 14347 net.cpp:386] inception_3a/relu_3x3 -> inception_3a/3x3 (in-place)
I0403 15:45:38.348763 14347 net.cpp:141] Setting up inception_3a/relu_3x3
I0403 15:45:38.348793 14347 net.cpp:148] Top shape: 24 128 28 28 (2408448)
I0403 15:45:38.348809 14347 net.cpp:156] Memory required for data: 534676512
I0403 15:45:38.348824 14347 layer_factory.hpp:77] Creating layer inception_3a/5x5_reduce
I0403 15:45:38.348850 14347 net.cpp:91] Creating Layer inception_3a/5x5_reduce
I0403 15:45:38.348868 14347 net.cpp:425] inception_3a/5x5_reduce <- pool2/3x3_s2_pool2/3x3_s2_0_split_2
I0403 15:45:38.348891 14347 net.cpp:399] inception_3a/5x5_reduce -> inception_3a/5x5_reduce
I0403 15:45:38.349885 14347 net.cpp:141] Setting up inception_3a/5x5_reduce
I0403 15:45:38.349916 14347 net.cpp:148] Top shape: 24 16 28 28 (301056)
I0403 15:45:38.349932 14347 net.cpp:156] Memory required for data: 535880736
I0403 15:45:38.349952 14347 layer_factory.hpp:77] Creating layer inception_3a/relu_5x5_reduce
I0403 15:45:38.349973 14347 net.cpp:91] Creating Layer inception_3a/relu_5x5_reduce
I0403 15:45:38.349992 14347 net.cpp:425] inception_3a/relu_5x5_reduce <- inception_3a/5x5_reduce
I0403 15:45:38.350011 14347 net.cpp:386] inception_3a/relu_5x5_reduce -> inception_3a/5x5_reduce (in-place)
I0403 15:45:38.350320 14347 net.cpp:141] Setting up inception_3a/relu_5x5_reduce
I0403 15:45:38.350349 14347 net.cpp:148] Top shape: 24 16 28 28 (301056)
I0403 15:45:38.350364 14347 net.cpp:156] Memory required for data: 537084960
I0403 15:45:38.350380 14347 layer_factory.hpp:77] Creating layer inception_3a/5x5
I0403 15:45:38.350409 14347 net.cpp:91] Creating Layer inception_3a/5x5
I0403 15:45:38.350427 14347 net.cpp:425] inception_3a/5x5 <- inception_3a/5x5_reduce
I0403 15:45:38.350448 14347 net.cpp:399] inception_3a/5x5 -> inception_3a/5x5
I0403 15:45:38.351501 14347 net.cpp:141] Setting up inception_3a/5x5
I0403 15:45:38.351531 14347 net.cpp:148] Top shape: 24 32 28 28 (602112)
I0403 15:45:38.351548 14347 net.cpp:156] Memory required for data: 539493408
I0403 15:45:38.351567 14347 layer_factory.hpp:77] Creating layer inception_3a/relu_5x5
I0403 15:45:38.351586 14347 net.cpp:91] Creating Layer inception_3a/relu_5x5
I0403 15:45:38.351603 14347 net.cpp:425] inception_3a/relu_5x5 <- inception_3a/5x5
I0403 15:45:38.351625 14347 net.cpp:386] inception_3a/relu_5x5 -> inception_3a/5x5 (in-place)
I0403 15:45:38.351804 14347 net.cpp:141] Setting up inception_3a/relu_5x5
I0403 15:45:38.351830 14347 net.cpp:148] Top shape: 24 32 28 28 (602112)
I0403 15:45:38.351846 14347 net.cpp:156] Memory required for data: 541901856
I0403 15:45:38.351861 14347 layer_factory.hpp:77] Creating layer inception_3a/pool
I0403 15:45:38.351882 14347 net.cpp:91] Creating Layer inception_3a/pool
I0403 15:45:38.351900 14347 net.cpp:425] inception_3a/pool <- pool2/3x3_s2_pool2/3x3_s2_0_split_3
I0403 15:45:38.351936 14347 net.cpp:399] inception_3a/pool -> inception_3a/pool
I0403 15:45:38.352000 14347 net.cpp:141] Setting up inception_3a/pool
I0403 15:45:38.352025 14347 net.cpp:148] Top shape: 24 192 28 28 (3612672)
I0403 15:45:38.352042 14347 net.cpp:156] Memory required for data: 556352544
I0403 15:45:38.352057 14347 layer_factory.hpp:77] Creating layer inception_3a/pool_proj
I0403 15:45:38.352082 14347 net.cpp:91] Creating Layer inception_3a/pool_proj
I0403 15:45:38.352105 14347 net.cpp:425] inception_3a/pool_proj <- inception_3a/pool
I0403 15:45:38.352130 14347 net.cpp:399] inception_3a/pool_proj -> inception_3a/pool_proj
I0403 15:45:38.353145 14347 net.cpp:141] Setting up inception_3a/pool_proj
I0403 15:45:38.353178 14347 net.cpp:148] Top shape: 24 32 28 28 (602112)
I0403 15:45:38.353199 14347 net.cpp:156] Memory required for data: 558760992
I0403 15:45:38.353222 14347 layer_factory.hpp:77] Creating layer inception_3a/relu_pool_proj
I0403 15:45:38.353245 14347 net.cpp:91] Creating Layer inception_3a/relu_pool_proj
I0403 15:45:38.353265 14347 net.cpp:425] inception_3a/relu_pool_proj <- inception_3a/pool_proj
I0403 15:45:38.353283 14347 net.cpp:386] inception_3a/relu_pool_proj -> inception_3a/pool_proj (in-place)
I0403 15:45:38.353567 14347 net.cpp:141] Setting up inception_3a/relu_pool_proj
I0403 15:45:38.353595 14347 net.cpp:148] Top shape: 24 32 28 28 (602112)
I0403 15:45:38.353611 14347 net.cpp:156] Memory required for data: 561169440
I0403 15:45:38.353627 14347 layer_factory.hpp:77] Creating layer inception_3a/output
I0403 15:45:38.353646 14347 net.cpp:91] Creating Layer inception_3a/output
I0403 15:45:38.353662 14347 net.cpp:425] inception_3a/output <- inception_3a/1x1
I0403 15:45:38.353679 14347 net.cpp:425] inception_3a/output <- inception_3a/3x3
I0403 15:45:38.353696 14347 net.cpp:425] inception_3a/output <- inception_3a/5x5
I0403 15:45:38.353713 14347 net.cpp:425] inception_3a/output <- inception_3a/pool_proj
I0403 15:45:38.353734 14347 net.cpp:399] inception_3a/output -> inception_3a/output
I0403 15:45:38.353785 14347 net.cpp:141] Setting up inception_3a/output
I0403 15:45:38.353814 14347 net.cpp:148] Top shape: 24 256 28 28 (4816896)
I0403 15:45:38.353832 14347 net.cpp:156] Memory required for data: 580437024
I0403 15:45:38.353847 14347 layer_factory.hpp:77] Creating layer inception_3a/output_inception_3a/output_0_split
I0403 15:45:38.353866 14347 net.cpp:91] Creating Layer inception_3a/output_inception_3a/output_0_split
I0403 15:45:38.353883 14347 net.cpp:425] inception_3a/output_inception_3a/output_0_split <- inception_3a/output
I0403 15:45:38.353902 14347 net.cpp:399] inception_3a/output_inception_3a/output_0_split -> inception_3a/output_inception_3a/output_0_split_0
I0403 15:45:38.353925 14347 net.cpp:399] inception_3a/output_inception_3a/output_0_split -> inception_3a/output_inception_3a/output_0_split_1
I0403 15:45:38.353951 14347 net.cpp:399] inception_3a/output_inception_3a/output_0_split -> inception_3a/output_inception_3a/output_0_split_2
I0403 15:45:38.353973 14347 net.cpp:399] inception_3a/output_inception_3a/output_0_split -> inception_3a/output_inception_3a/output_0_split_3
I0403 15:45:38.354054 14347 net.cpp:141] Setting up inception_3a/output_inception_3a/output_0_split
I0403 15:45:38.354081 14347 net.cpp:148] Top shape: 24 256 28 28 (4816896)
I0403 15:45:38.354106 14347 net.cpp:148] Top shape: 24 256 28 28 (4816896)
I0403 15:45:38.354125 14347 net.cpp:148] Top shape: 24 256 28 28 (4816896)
I0403 15:45:38.354141 14347 net.cpp:148] Top shape: 24 256 28 28 (4816896)
I0403 15:45:38.354156 14347 net.cpp:156] Memory required for data: 657507360
I0403 15:45:38.354171 14347 layer_factory.hpp:77] Creating layer inception_3b/1x1
I0403 15:45:38.354195 14347 net.cpp:91] Creating Layer inception_3b/1x1
I0403 15:45:38.354215 14347 net.cpp:425] inception_3b/1x1 <- inception_3a/output_inception_3a/output_0_split_0
I0403 15:45:38.354238 14347 net.cpp:399] inception_3b/1x1 -> inception_3b/1x1
I0403 15:45:38.355422 14347 net.cpp:141] Setting up inception_3b/1x1
I0403 15:45:38.355466 14347 net.cpp:148] Top shape: 24 128 28 28 (2408448)
I0403 15:45:38.355486 14347 net.cpp:156] Memory required for data: 667141152
I0403 15:45:38.355505 14347 layer_factory.hpp:77] Creating layer inception_3b/relu_1x1
I0403 15:45:38.355525 14347 net.cpp:91] Creating Layer inception_3b/relu_1x1
I0403 15:45:38.355542 14347 net.cpp:425] inception_3b/relu_1x1 <- inception_3b/1x1
I0403 15:45:38.355564 14347 net.cpp:386] inception_3b/relu_1x1 -> inception_3b/1x1 (in-place)
I0403 15:45:38.355748 14347 net.cpp:141] Setting up inception_3b/relu_1x1
I0403 15:45:38.355774 14347 net.cpp:148] Top shape: 24 128 28 28 (2408448)
I0403 15:45:38.355790 14347 net.cpp:156] Memory required for data: 676774944
I0403 15:45:38.355806 14347 layer_factory.hpp:77] Creating layer inception_3b/3x3_reduce
I0403 15:45:38.355829 14347 net.cpp:91] Creating Layer inception_3b/3x3_reduce
I0403 15:45:38.355849 14347 net.cpp:425] inception_3b/3x3_reduce <- inception_3a/output_inception_3a/output_0_split_1
I0403 15:45:38.355870 14347 net.cpp:399] inception_3b/3x3_reduce -> inception_3b/3x3_reduce
I0403 15:45:38.357058 14347 net.cpp:141] Setting up inception_3b/3x3_reduce
I0403 15:45:38.357089 14347 net.cpp:148] Top shape: 24 128 28 28 (2408448)
I0403 15:45:38.357115 14347 net.cpp:156] Memory required for data: 686408736
I0403 15:45:38.357136 14347 layer_factory.hpp:77] Creating layer inception_3b/relu_3x3_reduce
I0403 15:45:38.357167 14347 net.cpp:91] Creating Layer inception_3b/relu_3x3_reduce
I0403 15:45:38.357183 14347 net.cpp:425] inception_3b/relu_3x3_reduce <- inception_3b/3x3_reduce
I0403 15:45:38.357203 14347 net.cpp:386] inception_3b/relu_3x3_reduce -> inception_3b/3x3_reduce (in-place)
I0403 15:45:38.357384 14347 net.cpp:141] Setting up inception_3b/relu_3x3_reduce
I0403 15:45:38.357412 14347 net.cpp:148] Top shape: 24 128 28 28 (2408448)
I0403 15:45:38.357429 14347 net.cpp:156] Memory required for data: 696042528
I0403 15:45:38.357450 14347 layer_factory.hpp:77] Creating layer inception_3b/3x3
I0403 15:45:38.357480 14347 net.cpp:91] Creating Layer inception_3b/3x3
I0403 15:45:38.357499 14347 net.cpp:425] inception_3b/3x3 <- inception_3b/3x3_reduce
I0403 15:45:38.357519 14347 net.cpp:399] inception_3b/3x3 -> inception_3b/3x3
I0403 15:45:38.360575 14347 net.cpp:141] Setting up inception_3b/3x3
I0403 15:45:38.360606 14347 net.cpp:148] Top shape: 24 192 28 28 (3612672)
I0403 15:45:38.360623 14347 net.cpp:156] Memory required for data: 710493216
I0403 15:45:38.360643 14347 layer_factory.hpp:77] Creating layer inception_3b/relu_3x3
I0403 15:45:38.360662 14347 net.cpp:91] Creating Layer inception_3b/relu_3x3
I0403 15:45:38.360679 14347 net.cpp:425] inception_3b/relu_3x3 <- inception_3b/3x3
I0403 15:45:38.360702 14347 net.cpp:386] inception_3b/relu_3x3 -> inception_3b/3x3 (in-place)
I0403 15:45:38.360988 14347 net.cpp:141] Setting up inception_3b/relu_3x3
I0403 15:45:38.361017 14347 net.cpp:148] Top shape: 24 192 28 28 (3612672)
I0403 15:45:38.361033 14347 net.cpp:156] Memory required for data: 724943904
I0403 15:45:38.361049 14347 layer_factory.hpp:77] Creating layer inception_3b/5x5_reduce
I0403 15:45:38.361073 14347 net.cpp:91] Creating Layer inception_3b/5x5_reduce
I0403 15:45:38.361093 14347 net.cpp:425] inception_3b/5x5_reduce <- inception_3a/output_inception_3a/output_0_split_2
I0403 15:45:38.361122 14347 net.cpp:399] inception_3b/5x5_reduce -> inception_3b/5x5_reduce
I0403 15:45:38.362157 14347 net.cpp:141] Setting up inception_3b/5x5_reduce
I0403 15:45:38.362187 14347 net.cpp:148] Top shape: 24 32 28 28 (602112)
I0403 15:45:38.362203 14347 net.cpp:156] Memory required for data: 727352352
I0403 15:45:38.362222 14347 layer_factory.hpp:77] Creating layer inception_3b/relu_5x5_reduce
I0403 15:45:38.362242 14347 net.cpp:91] Creating Layer inception_3b/relu_5x5_reduce
I0403 15:45:38.362259 14347 net.cpp:425] inception_3b/relu_5x5_reduce <- inception_3b/5x5_reduce
I0403 15:45:38.362280 14347 net.cpp:386] inception_3b/relu_5x5_reduce -> inception_3b/5x5_reduce (in-place)
I0403 15:45:38.362476 14347 net.cpp:141] Setting up inception_3b/relu_5x5_reduce
I0403 15:45:38.362515 14347 net.cpp:148] Top shape: 24 32 28 28 (602112)
I0403 15:45:38.362531 14347 net.cpp:156] Memory required for data: 729760800
I0403 15:45:38.362547 14347 layer_factory.hpp:77] Creating layer inception_3b/5x5
I0403 15:45:38.362571 14347 net.cpp:91] Creating Layer inception_3b/5x5
I0403 15:45:38.362589 14347 net.cpp:425] inception_3b/5x5 <- inception_3b/5x5_reduce
I0403 15:45:38.362612 14347 net.cpp:399] inception_3b/5x5 -> inception_3b/5x5
I0403 15:45:38.364604 14347 net.cpp:141] Setting up inception_3b/5x5
I0403 15:45:38.364636 14347 net.cpp:148] Top shape: 24 96 28 28 (1806336)
I0403 15:45:38.364653 14347 net.cpp:156] Memory required for data: 736986144
I0403 15:45:38.364673 14347 layer_factory.hpp:77] Creating layer inception_3b/relu_5x5
I0403 15:45:38.364691 14347 net.cpp:91] Creating Layer inception_3b/relu_5x5
I0403 15:45:38.364707 14347 net.cpp:425] inception_3b/relu_5x5 <- inception_3b/5x5
I0403 15:45:38.364727 14347 net.cpp:386] inception_3b/relu_5x5 -> inception_3b/5x5 (in-place)
I0403 15:45:38.364922 14347 net.cpp:141] Setting up inception_3b/relu_5x5
I0403 15:45:38.364949 14347 net.cpp:148] Top shape: 24 96 28 28 (1806336)
I0403 15:45:38.364964 14347 net.cpp:156] Memory required for data: 744211488
I0403 15:45:38.364979 14347 layer_factory.hpp:77] Creating layer inception_3b/pool
I0403 15:45:38.364997 14347 net.cpp:91] Creating Layer inception_3b/pool
I0403 15:45:38.365015 14347 net.cpp:425] inception_3b/pool <- inception_3a/output_inception_3a/output_0_split_3
I0403 15:45:38.365033 14347 net.cpp:399] inception_3b/pool -> inception_3b/pool
I0403 15:45:38.365097 14347 net.cpp:141] Setting up inception_3b/pool
I0403 15:45:38.365123 14347 net.cpp:148] Top shape: 24 256 28 28 (4816896)
I0403 15:45:38.365137 14347 net.cpp:156] Memory required for data: 763479072
I0403 15:45:38.365152 14347 layer_factory.hpp:77] Creating layer inception_3b/pool_proj
I0403 15:45:38.365175 14347 net.cpp:91] Creating Layer inception_3b/pool_proj
I0403 15:45:38.365195 14347 net.cpp:425] inception_3b/pool_proj <- inception_3b/pool
I0403 15:45:38.365217 14347 net.cpp:399] inception_3b/pool_proj -> inception_3b/pool_proj
I0403 15:45:38.366286 14347 net.cpp:141] Setting up inception_3b/pool_proj
I0403 15:45:38.366314 14347 net.cpp:148] Top shape: 24 64 28 28 (1204224)
I0403 15:45:38.366330 14347 net.cpp:156] Memory required for data: 768295968
I0403 15:45:38.366348 14347 layer_factory.hpp:77] Creating layer inception_3b/relu_pool_proj
I0403 15:45:38.366369 14347 net.cpp:91] Creating Layer inception_3b/relu_pool_proj
I0403 15:45:38.366386 14347 net.cpp:425] inception_3b/relu_pool_proj <- inception_3b/pool_proj
I0403 15:45:38.366405 14347 net.cpp:386] inception_3b/relu_pool_proj -> inception_3b/pool_proj (in-place)
I0403 15:45:38.366796 14347 net.cpp:141] Setting up inception_3b/relu_pool_proj
I0403 15:45:38.366824 14347 net.cpp:148] Top shape: 24 64 28 28 (1204224)
I0403 15:45:38.366839 14347 net.cpp:156] Memory required for data: 773112864
I0403 15:45:38.366854 14347 layer_factory.hpp:77] Creating layer inception_3b/output
I0403 15:45:38.366873 14347 net.cpp:91] Creating Layer inception_3b/output
I0403 15:45:38.366888 14347 net.cpp:425] inception_3b/output <- inception_3b/1x1
I0403 15:45:38.366909 14347 net.cpp:425] inception_3b/output <- inception_3b/3x3
I0403 15:45:38.366928 14347 net.cpp:425] inception_3b/output <- inception_3b/5x5
I0403 15:45:38.366945 14347 net.cpp:425] inception_3b/output <- inception_3b/pool_proj
I0403 15:45:38.366963 14347 net.cpp:399] inception_3b/output -> inception_3b/output
I0403 15:45:38.367010 14347 net.cpp:141] Setting up inception_3b/output
I0403 15:45:38.367034 14347 net.cpp:148] Top shape: 24 480 28 28 (9031680)
I0403 15:45:38.367049 14347 net.cpp:156] Memory required for data: 809239584
I0403 15:45:38.367065 14347 layer_factory.hpp:77] Creating layer pool3/3x3_s2
I0403 15:45:38.367084 14347 net.cpp:91] Creating Layer pool3/3x3_s2
I0403 15:45:38.367105 14347 net.cpp:425] pool3/3x3_s2 <- inception_3b/output
I0403 15:45:38.367126 14347 net.cpp:399] pool3/3x3_s2 -> pool3/3x3_s2
I0403 15:45:38.367202 14347 net.cpp:141] Setting up pool3/3x3_s2
I0403 15:45:38.367226 14347 net.cpp:148] Top shape: 24 480 14 14 (2257920)
I0403 15:45:38.367241 14347 net.cpp:156] Memory required for data: 818271264
I0403 15:45:38.367255 14347 layer_factory.hpp:77] Creating layer pool3/3x3_s2_pool3/3x3_s2_0_split
I0403 15:45:38.367276 14347 net.cpp:91] Creating Layer pool3/3x3_s2_pool3/3x3_s2_0_split
I0403 15:45:38.367292 14347 net.cpp:425] pool3/3x3_s2_pool3/3x3_s2_0_split <- pool3/3x3_s2
I0403 15:45:38.367311 14347 net.cpp:399] pool3/3x3_s2_pool3/3x3_s2_0_split -> pool3/3x3_s2_pool3/3x3_s2_0_split_0
I0403 15:45:38.367334 14347 net.cpp:399] pool3/3x3_s2_pool3/3x3_s2_0_split -> pool3/3x3_s2_pool3/3x3_s2_0_split_1
I0403 15:45:38.367357 14347 net.cpp:399] pool3/3x3_s2_pool3/3x3_s2_0_split -> pool3/3x3_s2_pool3/3x3_s2_0_split_2
I0403 15:45:38.367377 14347 net.cpp:399] pool3/3x3_s2_pool3/3x3_s2_0_split -> pool3/3x3_s2_pool3/3x3_s2_0_split_3
I0403 15:45:38.367456 14347 net.cpp:141] Setting up pool3/3x3_s2_pool3/3x3_s2_0_split
I0403 15:45:38.367480 14347 net.cpp:148] Top shape: 24 480 14 14 (2257920)
I0403 15:45:38.367497 14347 net.cpp:148] Top shape: 24 480 14 14 (2257920)
I0403 15:45:38.367513 14347 net.cpp:148] Top shape: 24 480 14 14 (2257920)
I0403 15:45:38.367529 14347 net.cpp:148] Top shape: 24 480 14 14 (2257920)
I0403 15:45:38.367544 14347 net.cpp:156] Memory required for data: 854397984
I0403 15:45:38.367559 14347 layer_factory.hpp:77] Creating layer inception_4a/1x1
I0403 15:45:38.367583 14347 net.cpp:91] Creating Layer inception_4a/1x1
I0403 15:45:38.367601 14347 net.cpp:425] inception_4a/1x1 <- pool3/3x3_s2_pool3/3x3_s2_0_split_0
I0403 15:45:38.367622 14347 net.cpp:399] inception_4a/1x1 -> inception_4a/1x1
I0403 15:45:38.369225 14347 net.cpp:141] Setting up inception_4a/1x1
I0403 15:45:38.369256 14347 net.cpp:148] Top shape: 24 192 14 14 (903168)
I0403 15:45:38.369274 14347 net.cpp:156] Memory required for data: 858010656
I0403 15:45:38.369292 14347 layer_factory.hpp:77] Creating layer inception_4a/relu_1x1
I0403 15:45:38.369312 14347 net.cpp:91] Creating Layer inception_4a/relu_1x1
I0403 15:45:38.369328 14347 net.cpp:425] inception_4a/relu_1x1 <- inception_4a/1x1
I0403 15:45:38.369345 14347 net.cpp:386] inception_4a/relu_1x1 -> inception_4a/1x1 (in-place)
I0403 15:45:38.369527 14347 net.cpp:141] Setting up inception_4a/relu_1x1
I0403 15:45:38.369556 14347 net.cpp:148] Top shape: 24 192 14 14 (903168)
I0403 15:45:38.369571 14347 net.cpp:156] Memory required for data: 861623328
I0403 15:45:38.369586 14347 layer_factory.hpp:77] Creating layer inception_4a/3x3_reduce
I0403 15:45:38.369611 14347 net.cpp:91] Creating Layer inception_4a/3x3_reduce
I0403 15:45:38.369628 14347 net.cpp:425] inception_4a/3x3_reduce <- pool3/3x3_s2_pool3/3x3_s2_0_split_1
I0403 15:45:38.369650 14347 net.cpp:399] inception_4a/3x3_reduce -> inception_4a/3x3_reduce
I0403 15:45:38.370967 14347 net.cpp:141] Setting up inception_4a/3x3_reduce
I0403 15:45:38.370996 14347 net.cpp:148] Top shape: 24 96 14 14 (451584)
I0403 15:45:38.371012 14347 net.cpp:156] Memory required for data: 863429664
I0403 15:45:38.371038 14347 layer_factory.hpp:77] Creating layer inception_4a/relu_3x3_reduce
I0403 15:45:38.371059 14347 net.cpp:91] Creating Layer inception_4a/relu_3x3_reduce
I0403 15:45:38.371076 14347 net.cpp:425] inception_4a/relu_3x3_reduce <- inception_4a/3x3_reduce
I0403 15:45:38.371099 14347 net.cpp:386] inception_4a/relu_3x3_reduce -> inception_4a/3x3_reduce (in-place)
I0403 15:45:38.371279 14347 net.cpp:141] Setting up inception_4a/relu_3x3_reduce
I0403 15:45:38.371307 14347 net.cpp:148] Top shape: 24 96 14 14 (451584)
I0403 15:45:38.371325 14347 net.cpp:156] Memory required for data: 865236000
I0403 15:45:38.371340 14347 layer_factory.hpp:77] Creating layer inception_4a/3x3
I0403 15:45:38.371362 14347 net.cpp:91] Creating Layer inception_4a/3x3
I0403 15:45:38.371381 14347 net.cpp:425] inception_4a/3x3 <- inception_4a/3x3_reduce
I0403 15:45:38.371402 14347 net.cpp:399] inception_4a/3x3 -> inception_4a/3x3
I0403 15:45:38.374150 14347 net.cpp:141] Setting up inception_4a/3x3
I0403 15:45:38.374181 14347 net.cpp:148] Top shape: 24 208 14 14 (978432)
I0403 15:45:38.374200 14347 net.cpp:156] Memory required for data: 869149728
I0403 15:45:38.374218 14347 layer_factory.hpp:77] Creating layer inception_4a/relu_3x3
I0403 15:45:38.374238 14347 net.cpp:91] Creating Layer inception_4a/relu_3x3
I0403 15:45:38.374255 14347 net.cpp:425] inception_4a/relu_3x3 <- inception_4a/3x3
I0403 15:45:38.374276 14347 net.cpp:386] inception_4a/relu_3x3 -> inception_4a/3x3 (in-place)
I0403 15:45:38.374568 14347 net.cpp:141] Setting up inception_4a/relu_3x3
I0403 15:45:38.374596 14347 net.cpp:148] Top shape: 24 208 14 14 (978432)
I0403 15:45:38.374611 14347 net.cpp:156] Memory required for data: 873063456
I0403 15:45:38.374627 14347 layer_factory.hpp:77] Creating layer inception_4a/5x5_reduce
I0403 15:45:38.374651 14347 net.cpp:91] Creating Layer inception_4a/5x5_reduce
I0403 15:45:38.374670 14347 net.cpp:425] inception_4a/5x5_reduce <- pool3/3x3_s2_pool3/3x3_s2_0_split_2
I0403 15:45:38.374693 14347 net.cpp:399] inception_4a/5x5_reduce -> inception_4a/5x5_reduce
I0403 15:45:38.375746 14347 net.cpp:141] Setting up inception_4a/5x5_reduce
I0403 15:45:38.375776 14347 net.cpp:148] Top shape: 24 16 14 14 (75264)
I0403 15:45:38.375792 14347 net.cpp:156] Memory required for data: 873364512
I0403 15:45:38.375810 14347 layer_factory.hpp:77] Creating layer inception_4a/relu_5x5_reduce
I0403 15:45:38.375830 14347 net.cpp:91] Creating Layer inception_4a/relu_5x5_reduce
I0403 15:45:38.375847 14347 net.cpp:425] inception_4a/relu_5x5_reduce <- inception_4a/5x5_reduce
I0403 15:45:38.375867 14347 net.cpp:386] inception_4a/relu_5x5_reduce -> inception_4a/5x5_reduce (in-place)
I0403 15:45:38.376049 14347 net.cpp:141] Setting up inception_4a/relu_5x5_reduce
I0403 15:45:38.376075 14347 net.cpp:148] Top shape: 24 16 14 14 (75264)
I0403 15:45:38.376090 14347 net.cpp:156] Memory required for data: 873665568
I0403 15:45:38.376109 14347 layer_factory.hpp:77] Creating layer inception_4a/5x5
I0403 15:45:38.376134 14347 net.cpp:91] Creating Layer inception_4a/5x5
I0403 15:45:38.376152 14347 net.cpp:425] inception_4a/5x5 <- inception_4a/5x5_reduce
I0403 15:45:38.376174 14347 net.cpp:399] inception_4a/5x5 -> inception_4a/5x5
I0403 15:45:38.377292 14347 net.cpp:141] Setting up inception_4a/5x5
I0403 15:45:38.377321 14347 net.cpp:148] Top shape: 24 48 14 14 (225792)
I0403 15:45:38.377336 14347 net.cpp:156] Memory required for data: 874568736
I0403 15:45:38.377354 14347 layer_factory.hpp:77] Creating layer inception_4a/relu_5x5
I0403 15:45:38.377375 14347 net.cpp:91] Creating Layer inception_4a/relu_5x5
I0403 15:45:38.377393 14347 net.cpp:425] inception_4a/relu_5x5 <- inception_4a/5x5
I0403 15:45:38.377410 14347 net.cpp:386] inception_4a/relu_5x5 -> inception_4a/5x5 (in-place)
I0403 15:45:38.377586 14347 net.cpp:141] Setting up inception_4a/relu_5x5
I0403 15:45:38.377614 14347 net.cpp:148] Top shape: 24 48 14 14 (225792)
I0403 15:45:38.377631 14347 net.cpp:156] Memory required for data: 875471904
I0403 15:45:38.377647 14347 layer_factory.hpp:77] Creating layer inception_4a/pool
I0403 15:45:38.377665 14347 net.cpp:91] Creating Layer inception_4a/pool
I0403 15:45:38.377681 14347 net.cpp:425] inception_4a/pool <- pool3/3x3_s2_pool3/3x3_s2_0_split_3
I0403 15:45:38.377699 14347 net.cpp:399] inception_4a/pool -> inception_4a/pool
I0403 15:45:38.377763 14347 net.cpp:141] Setting up inception_4a/pool
I0403 15:45:38.377786 14347 net.cpp:148] Top shape: 24 480 14 14 (2257920)
I0403 15:45:38.377801 14347 net.cpp:156] Memory required for data: 884503584
I0403 15:45:38.377815 14347 layer_factory.hpp:77] Creating layer inception_4a/pool_proj
I0403 15:45:38.377837 14347 net.cpp:91] Creating Layer inception_4a/pool_proj
I0403 15:45:38.377856 14347 net.cpp:425] inception_4a/pool_proj <- inception_4a/pool
I0403 15:45:38.377878 14347 net.cpp:399] inception_4a/pool_proj -> inception_4a/pool_proj
I0403 15:45:38.379045 14347 net.cpp:141] Setting up inception_4a/pool_proj
I0403 15:45:38.379075 14347 net.cpp:148] Top shape: 24 64 14 14 (301056)
I0403 15:45:38.379111 14347 net.cpp:156] Memory required for data: 885707808
I0403 15:45:38.379130 14347 layer_factory.hpp:77] Creating layer inception_4a/relu_pool_proj
I0403 15:45:38.379153 14347 net.cpp:91] Creating Layer inception_4a/relu_pool_proj
I0403 15:45:38.379170 14347 net.cpp:425] inception_4a/relu_pool_proj <- inception_4a/pool_proj
I0403 15:45:38.379189 14347 net.cpp:386] inception_4a/relu_pool_proj -> inception_4a/pool_proj (in-place)
I0403 15:45:38.379472 14347 net.cpp:141] Setting up inception_4a/relu_pool_proj
I0403 15:45:38.379498 14347 net.cpp:148] Top shape: 24 64 14 14 (301056)
I0403 15:45:38.379514 14347 net.cpp:156] Memory required for data: 886912032
I0403 15:45:38.379529 14347 layer_factory.hpp:77] Creating layer inception_4a/output
I0403 15:45:38.379549 14347 net.cpp:91] Creating Layer inception_4a/output
I0403 15:45:38.379566 14347 net.cpp:425] inception_4a/output <- inception_4a/1x1
I0403 15:45:38.379582 14347 net.cpp:425] inception_4a/output <- inception_4a/3x3
I0403 15:45:38.379598 14347 net.cpp:425] inception_4a/output <- inception_4a/5x5
I0403 15:45:38.379616 14347 net.cpp:425] inception_4a/output <- inception_4a/pool_proj
I0403 15:45:38.379631 14347 net.cpp:399] inception_4a/output -> inception_4a/output
I0403 15:45:38.379680 14347 net.cpp:141] Setting up inception_4a/output
I0403 15:45:38.379704 14347 net.cpp:148] Top shape: 24 512 14 14 (2408448)
I0403 15:45:38.379719 14347 net.cpp:156] Memory required for data: 896545824
I0403 15:45:38.379734 14347 layer_factory.hpp:77] Creating layer inception_4a/output_inception_4a/output_0_split
I0403 15:45:38.379751 14347 net.cpp:91] Creating Layer inception_4a/output_inception_4a/output_0_split
I0403 15:45:38.379767 14347 net.cpp:425] inception_4a/output_inception_4a/output_0_split <- inception_4a/output
I0403 15:45:38.379787 14347 net.cpp:399] inception_4a/output_inception_4a/output_0_split -> inception_4a/output_inception_4a/output_0_split_0
I0403 15:45:38.379809 14347 net.cpp:399] inception_4a/output_inception_4a/output_0_split -> inception_4a/output_inception_4a/output_0_split_1
I0403 15:45:38.379832 14347 net.cpp:399] inception_4a/output_inception_4a/output_0_split -> inception_4a/output_inception_4a/output_0_split_2
I0403 15:45:38.379853 14347 net.cpp:399] inception_4a/output_inception_4a/output_0_split -> inception_4a/output_inception_4a/output_0_split_3
I0403 15:45:38.379875 14347 net.cpp:399] inception_4a/output_inception_4a/output_0_split -> inception_4a/output_inception_4a/output_0_split_4
I0403 15:45:38.379971 14347 net.cpp:141] Setting up inception_4a/output_inception_4a/output_0_split
I0403 15:45:38.379997 14347 net.cpp:148] Top shape: 24 512 14 14 (2408448)
I0403 15:45:38.380012 14347 net.cpp:148] Top shape: 24 512 14 14 (2408448)
I0403 15:45:38.380028 14347 net.cpp:148] Top shape: 24 512 14 14 (2408448)
I0403 15:45:38.380043 14347 net.cpp:148] Top shape: 24 512 14 14 (2408448)
I0403 15:45:38.380059 14347 net.cpp:148] Top shape: 24 512 14 14 (2408448)
I0403 15:45:38.380072 14347 net.cpp:156] Memory required for data: 944714784
I0403 15:45:38.380087 14347 layer_factory.hpp:77] Creating layer loss1/ave_pool
I0403 15:45:38.380110 14347 net.cpp:91] Creating Layer loss1/ave_pool
I0403 15:45:38.380126 14347 net.cpp:425] loss1/ave_pool <- inception_4a/output_inception_4a/output_0_split_0
I0403 15:45:38.380146 14347 net.cpp:399] loss1/ave_pool -> loss1/ave_pool
I0403 15:45:38.380352 14347 net.cpp:141] Setting up loss1/ave_pool
I0403 15:45:38.380378 14347 net.cpp:148] Top shape: 24 512 4 4 (196608)
I0403 15:45:38.380393 14347 net.cpp:156] Memory required for data: 945501216
I0403 15:45:38.380409 14347 layer_factory.hpp:77] Creating layer loss1/conv
I0403 15:45:38.380432 14347 net.cpp:91] Creating Layer loss1/conv
I0403 15:45:38.380450 14347 net.cpp:425] loss1/conv <- loss1/ave_pool
I0403 15:45:38.380470 14347 net.cpp:399] loss1/conv -> loss1/conv
I0403 15:45:38.381896 14347 net.cpp:141] Setting up loss1/conv
I0403 15:45:38.381924 14347 net.cpp:148] Top shape: 24 128 4 4 (49152)
I0403 15:45:38.381940 14347 net.cpp:156] Memory required for data: 945697824
I0403 15:45:38.381974 14347 layer_factory.hpp:77] Creating layer loss1/relu_conv
I0403 15:45:38.381994 14347 net.cpp:91] Creating Layer loss1/relu_conv
I0403 15:45:38.382010 14347 net.cpp:425] loss1/relu_conv <- loss1/conv
I0403 15:45:38.382030 14347 net.cpp:386] loss1/relu_conv -> loss1/conv (in-place)
I0403 15:45:38.382318 14347 net.cpp:141] Setting up loss1/relu_conv
I0403 15:45:38.382345 14347 net.cpp:148] Top shape: 24 128 4 4 (49152)
I0403 15:45:38.382360 14347 net.cpp:156] Memory required for data: 945894432
I0403 15:45:38.382375 14347 layer_factory.hpp:77] Creating layer loss1/fc
I0403 15:45:38.382397 14347 net.cpp:91] Creating Layer loss1/fc
I0403 15:45:38.382416 14347 net.cpp:425] loss1/fc <- loss1/conv
I0403 15:45:38.382437 14347 net.cpp:399] loss1/fc -> loss1/fc
I0403 15:45:38.400168 14347 net.cpp:141] Setting up loss1/fc
I0403 15:45:38.400205 14347 net.cpp:148] Top shape: 24 1024 (24576)
I0403 15:45:38.400223 14347 net.cpp:156] Memory required for data: 945992736
I0403 15:45:38.400243 14347 layer_factory.hpp:77] Creating layer loss1/relu_fc
I0403 15:45:38.400260 14347 net.cpp:91] Creating Layer loss1/relu_fc
I0403 15:45:38.400277 14347 net.cpp:425] loss1/relu_fc <- loss1/fc
I0403 15:45:38.400296 14347 net.cpp:386] loss1/relu_fc -> loss1/fc (in-place)
I0403 15:45:38.400485 14347 net.cpp:141] Setting up loss1/relu_fc
I0403 15:45:38.400509 14347 net.cpp:148] Top shape: 24 1024 (24576)
I0403 15:45:38.400524 14347 net.cpp:156] Memory required for data: 946091040
I0403 15:45:38.400540 14347 layer_factory.hpp:77] Creating layer loss1/drop_fc
I0403 15:45:38.400566 14347 net.cpp:91] Creating Layer loss1/drop_fc
I0403 15:45:38.400584 14347 net.cpp:425] loss1/drop_fc <- loss1/fc
I0403 15:45:38.400604 14347 net.cpp:386] loss1/drop_fc -> loss1/fc (in-place)
I0403 15:45:38.400656 14347 net.cpp:141] Setting up loss1/drop_fc
I0403 15:45:38.400681 14347 net.cpp:148] Top shape: 24 1024 (24576)
I0403 15:45:38.400694 14347 net.cpp:156] Memory required for data: 946189344
I0403 15:45:38.400710 14347 layer_factory.hpp:77] Creating layer loss1/classifier_plantvillage
I0403 15:45:38.400733 14347 net.cpp:91] Creating Layer loss1/classifier_plantvillage
I0403 15:45:38.400750 14347 net.cpp:425] loss1/classifier_plantvillage <- loss1/fc
I0403 15:45:38.400768 14347 net.cpp:399] loss1/classifier_plantvillage -> loss1/classifier_plantvillage
I0403 15:45:38.401667 14347 net.cpp:141] Setting up loss1/classifier_plantvillage
I0403 15:45:38.401697 14347 net.cpp:148] Top shape: 24 38 (912)
I0403 15:45:38.401715 14347 net.cpp:156] Memory required for data: 946192992
I0403 15:45:38.401733 14347 layer_factory.hpp:77] Creating layer loss1/classifier_plantvillage_loss1/classifier_plantvillage_0_split
I0403 15:45:38.401751 14347 net.cpp:91] Creating Layer loss1/classifier_plantvillage_loss1/classifier_plantvillage_0_split
I0403 15:45:38.401768 14347 net.cpp:425] loss1/classifier_plantvillage_loss1/classifier_plantvillage_0_split <- loss1/classifier_plantvillage
I0403 15:45:38.401787 14347 net.cpp:399] loss1/classifier_plantvillage_loss1/classifier_plantvillage_0_split -> loss1/classifier_plantvillage_loss1/classifier_plantvillage_0_split_0
I0403 15:45:38.401809 14347 net.cpp:399] loss1/classifier_plantvillage_loss1/classifier_plantvillage_0_split -> loss1/classifier_plantvillage_loss1/classifier_plantvillage_0_split_1
I0403 15:45:38.401831 14347 net.cpp:399] loss1/classifier_plantvillage_loss1/classifier_plantvillage_0_split -> loss1/classifier_plantvillage_loss1/classifier_plantvillage_0_split_2
I0403 15:45:38.401900 14347 net.cpp:141] Setting up loss1/classifier_plantvillage_loss1/classifier_plantvillage_0_split
I0403 15:45:38.401924 14347 net.cpp:148] Top shape: 24 38 (912)
I0403 15:45:38.401940 14347 net.cpp:148] Top shape: 24 38 (912)
I0403 15:45:38.401955 14347 net.cpp:148] Top shape: 24 38 (912)
I0403 15:45:38.401969 14347 net.cpp:156] Memory required for data: 946203936
I0403 15:45:38.401984 14347 layer_factory.hpp:77] Creating layer inception_4b/1x1
I0403 15:45:38.402004 14347 net.cpp:91] Creating Layer inception_4b/1x1
I0403 15:45:38.402040 14347 net.cpp:425] inception_4b/1x1 <- inception_4a/output_inception_4a/output_0_split_1
I0403 15:45:38.402063 14347 net.cpp:399] inception_4b/1x1 -> inception_4b/1x1
I0403 15:45:38.403728 14347 net.cpp:141] Setting up inception_4b/1x1
I0403 15:45:38.403756 14347 net.cpp:148] Top shape: 24 160 14 14 (752640)
I0403 15:45:38.403772 14347 net.cpp:156] Memory required for data: 949214496
I0403 15:45:38.403791 14347 layer_factory.hpp:77] Creating layer inception_4b/relu_1x1
I0403 15:45:38.403810 14347 net.cpp:91] Creating Layer inception_4b/relu_1x1
I0403 15:45:38.403825 14347 net.cpp:425] inception_4b/relu_1x1 <- inception_4b/1x1
I0403 15:45:38.403846 14347 net.cpp:386] inception_4b/relu_1x1 -> inception_4b/1x1 (in-place)
I0403 15:45:38.404029 14347 net.cpp:141] Setting up inception_4b/relu_1x1
I0403 15:45:38.404055 14347 net.cpp:148] Top shape: 24 160 14 14 (752640)
I0403 15:45:38.404070 14347 net.cpp:156] Memory required for data: 952225056
I0403 15:45:38.404086 14347 layer_factory.hpp:77] Creating layer inception_4b/3x3_reduce
I0403 15:45:38.404114 14347 net.cpp:91] Creating Layer inception_4b/3x3_reduce
I0403 15:45:38.404134 14347 net.cpp:425] inception_4b/3x3_reduce <- inception_4a/output_inception_4a/output_0_split_2
I0403 15:45:38.404156 14347 net.cpp:399] inception_4b/3x3_reduce -> inception_4b/3x3_reduce
I0403 15:45:38.405571 14347 net.cpp:141] Setting up inception_4b/3x3_reduce
I0403 15:45:38.405601 14347 net.cpp:148] Top shape: 24 112 14 14 (526848)
I0403 15:45:38.405617 14347 net.cpp:156] Memory required for data: 954332448
I0403 15:45:38.405637 14347 layer_factory.hpp:77] Creating layer inception_4b/relu_3x3_reduce
I0403 15:45:38.405659 14347 net.cpp:91] Creating Layer inception_4b/relu_3x3_reduce
I0403 15:45:38.405678 14347 net.cpp:425] inception_4b/relu_3x3_reduce <- inception_4b/3x3_reduce
I0403 15:45:38.405696 14347 net.cpp:386] inception_4b/relu_3x3_reduce -> inception_4b/3x3_reduce (in-place)
I0403 15:45:38.405994 14347 net.cpp:141] Setting up inception_4b/relu_3x3_reduce
I0403 15:45:38.406023 14347 net.cpp:148] Top shape: 24 112 14 14 (526848)
I0403 15:45:38.406038 14347 net.cpp:156] Memory required for data: 956439840
I0403 15:45:38.406054 14347 layer_factory.hpp:77] Creating layer inception_4b/3x3
I0403 15:45:38.406077 14347 net.cpp:91] Creating Layer inception_4b/3x3
I0403 15:45:38.406108 14347 net.cpp:425] inception_4b/3x3 <- inception_4b/3x3_reduce
I0403 15:45:38.406132 14347 net.cpp:399] inception_4b/3x3 -> inception_4b/3x3
I0403 15:45:38.409230 14347 net.cpp:141] Setting up inception_4b/3x3
I0403 15:45:38.409262 14347 net.cpp:148] Top shape: 24 224 14 14 (1053696)
I0403 15:45:38.409281 14347 net.cpp:156] Memory required for data: 960654624
I0403 15:45:38.409299 14347 layer_factory.hpp:77] Creating layer inception_4b/relu_3x3
I0403 15:45:38.409317 14347 net.cpp:91] Creating Layer inception_4b/relu_3x3
I0403 15:45:38.409335 14347 net.cpp:425] inception_4b/relu_3x3 <- inception_4b/3x3
I0403 15:45:38.409354 14347 net.cpp:386] inception_4b/relu_3x3 -> inception_4b/3x3 (in-place)
I0403 15:45:38.409543 14347 net.cpp:141] Setting up inception_4b/relu_3x3
I0403 15:45:38.409569 14347 net.cpp:148] Top shape: 24 224 14 14 (1053696)
I0403 15:45:38.409584 14347 net.cpp:156] Memory required for data: 964869408
I0403 15:45:38.409600 14347 layer_factory.hpp:77] Creating layer inception_4b/5x5_reduce
I0403 15:45:38.409624 14347 net.cpp:91] Creating Layer inception_4b/5x5_reduce
I0403 15:45:38.409643 14347 net.cpp:425] inception_4b/5x5_reduce <- inception_4a/output_inception_4a/output_0_split_3
I0403 15:45:38.409667 14347 net.cpp:399] inception_4b/5x5_reduce -> inception_4b/5x5_reduce
I0403 15:45:38.410780 14347 net.cpp:141] Setting up inception_4b/5x5_reduce
I0403 15:45:38.410809 14347 net.cpp:148] Top shape: 24 24 14 14 (112896)
I0403 15:45:38.410826 14347 net.cpp:156] Memory required for data: 965320992
I0403 15:45:38.410845 14347 layer_factory.hpp:77] Creating layer inception_4b/relu_5x5_reduce
I0403 15:45:38.410866 14347 net.cpp:91] Creating Layer inception_4b/relu_5x5_reduce
I0403 15:45:38.410899 14347 net.cpp:425] inception_4b/relu_5x5_reduce <- inception_4b/5x5_reduce
I0403 15:45:38.410919 14347 net.cpp:386] inception_4b/relu_5x5_reduce -> inception_4b/5x5_reduce (in-place)
I0403 15:45:38.411110 14347 net.cpp:141] Setting up inception_4b/relu_5x5_reduce
I0403 15:45:38.411137 14347 net.cpp:148] Top shape: 24 24 14 14 (112896)
I0403 15:45:38.411152 14347 net.cpp:156] Memory required for data: 965772576
I0403 15:45:38.411169 14347 layer_factory.hpp:77] Creating layer inception_4b/5x5
I0403 15:45:38.411191 14347 net.cpp:91] Creating Layer inception_4b/5x5
I0403 15:45:38.411211 14347 net.cpp:425] inception_4b/5x5 <- inception_4b/5x5_reduce
I0403 15:45:38.411232 14347 net.cpp:399] inception_4b/5x5 -> inception_4b/5x5
I0403 15:45:38.412503 14347 net.cpp:141] Setting up inception_4b/5x5
I0403 15:45:38.412533 14347 net.cpp:148] Top shape: 24 64 14 14 (301056)
I0403 15:45:38.412549 14347 net.cpp:156] Memory required for data: 966976800
I0403 15:45:38.412569 14347 layer_factory.hpp:77] Creating layer inception_4b/relu_5x5
I0403 15:45:38.412587 14347 net.cpp:91] Creating Layer inception_4b/relu_5x5
I0403 15:45:38.412605 14347 net.cpp:425] inception_4b/relu_5x5 <- inception_4b/5x5
I0403 15:45:38.412626 14347 net.cpp:386] inception_4b/relu_5x5 -> inception_4b/5x5 (in-place)
I0403 15:45:38.412919 14347 net.cpp:141] Setting up inception_4b/relu_5x5
I0403 15:45:38.412946 14347 net.cpp:148] Top shape: 24 64 14 14 (301056)
I0403 15:45:38.412962 14347 net.cpp:156] Memory required for data: 968181024
I0403 15:45:38.412977 14347 layer_factory.hpp:77] Creating layer inception_4b/pool
I0403 15:45:38.412997 14347 net.cpp:91] Creating Layer inception_4b/pool
I0403 15:45:38.413014 14347 net.cpp:425] inception_4b/pool <- inception_4a/output_inception_4a/output_0_split_4
I0403 15:45:38.413038 14347 net.cpp:399] inception_4b/pool -> inception_4b/pool
I0403 15:45:38.413117 14347 net.cpp:141] Setting up inception_4b/pool
I0403 15:45:38.413144 14347 net.cpp:148] Top shape: 24 512 14 14 (2408448)
I0403 15:45:38.413159 14347 net.cpp:156] Memory required for data: 977814816
I0403 15:45:38.413173 14347 layer_factory.hpp:77] Creating layer inception_4b/pool_proj
I0403 15:45:38.413198 14347 net.cpp:91] Creating Layer inception_4b/pool_proj
I0403 15:45:38.413218 14347 net.cpp:425] inception_4b/pool_proj <- inception_4b/pool
I0403 15:45:38.413238 14347 net.cpp:399] inception_4b/pool_proj -> inception_4b/pool_proj
I0403 15:45:38.414517 14347 net.cpp:141] Setting up inception_4b/pool_proj
I0403 15:45:38.414546 14347 net.cpp:148] Top shape: 24 64 14 14 (301056)
I0403 15:45:38.414562 14347 net.cpp:156] Memory required for data: 979019040
I0403 15:45:38.414582 14347 layer_factory.hpp:77] Creating layer inception_4b/relu_pool_proj
I0403 15:45:38.414600 14347 net.cpp:91] Creating Layer inception_4b/relu_pool_proj
I0403 15:45:38.414618 14347 net.cpp:425] inception_4b/relu_pool_proj <- inception_4b/pool_proj
I0403 15:45:38.414639 14347 net.cpp:386] inception_4b/relu_pool_proj -> inception_4b/pool_proj (in-place)
I0403 15:45:38.414826 14347 net.cpp:141] Setting up inception_4b/relu_pool_proj
I0403 15:45:38.414854 14347 net.cpp:148] Top shape: 24 64 14 14 (301056)
I0403 15:45:38.414867 14347 net.cpp:156] Memory required for data: 980223264
I0403 15:45:38.414883 14347 layer_factory.hpp:77] Creating layer inception_4b/output
I0403 15:45:38.414903 14347 net.cpp:91] Creating Layer inception_4b/output
I0403 15:45:38.414921 14347 net.cpp:425] inception_4b/output <- inception_4b/1x1
I0403 15:45:38.414937 14347 net.cpp:425] inception_4b/output <- inception_4b/3x3
I0403 15:45:38.414953 14347 net.cpp:425] inception_4b/output <- inception_4b/5x5
I0403 15:45:38.414969 14347 net.cpp:425] inception_4b/output <- inception_4b/pool_proj
I0403 15:45:38.414988 14347 net.cpp:399] inception_4b/output -> inception_4b/output
I0403 15:45:38.415036 14347 net.cpp:141] Setting up inception_4b/output
I0403 15:45:38.415061 14347 net.cpp:148] Top shape: 24 512 14 14 (2408448)
I0403 15:45:38.415077 14347 net.cpp:156] Memory required for data: 989857056
I0403 15:45:38.415112 14347 layer_factory.hpp:77] Creating layer inception_4b/output_inception_4b/output_0_split
I0403 15:45:38.415132 14347 net.cpp:91] Creating Layer inception_4b/output_inception_4b/output_0_split
I0403 15:45:38.415148 14347 net.cpp:425] inception_4b/output_inception_4b/output_0_split <- inception_4b/output
I0403 15:45:38.415169 14347 net.cpp:399] inception_4b/output_inception_4b/output_0_split -> inception_4b/output_inception_4b/output_0_split_0
I0403 15:45:38.415189 14347 net.cpp:399] inception_4b/output_inception_4b/output_0_split -> inception_4b/output_inception_4b/output_0_split_1
I0403 15:45:38.415211 14347 net.cpp:399] inception_4b/output_inception_4b/output_0_split -> inception_4b/output_inception_4b/output_0_split_2
I0403 15:45:38.415231 14347 net.cpp:399] inception_4b/output_inception_4b/output_0_split -> inception_4b/output_inception_4b/output_0_split_3
I0403 15:45:38.415321 14347 net.cpp:141] Setting up inception_4b/output_inception_4b/output_0_split
I0403 15:45:38.415348 14347 net.cpp:148] Top shape: 24 512 14 14 (2408448)
I0403 15:45:38.415364 14347 net.cpp:148] Top shape: 24 512 14 14 (2408448)
I0403 15:45:38.415381 14347 net.cpp:148] Top shape: 24 512 14 14 (2408448)
I0403 15:45:38.415396 14347 net.cpp:148] Top shape: 24 512 14 14 (2408448)
I0403 15:45:38.415410 14347 net.cpp:156] Memory required for data: 1028392224
I0403 15:45:38.415424 14347 layer_factory.hpp:77] Creating layer inception_4c/1x1
I0403 15:45:38.415446 14347 net.cpp:91] Creating Layer inception_4c/1x1
I0403 15:45:38.415465 14347 net.cpp:425] inception_4c/1x1 <- inception_4b/output_inception_4b/output_0_split_0
I0403 15:45:38.415488 14347 net.cpp:399] inception_4c/1x1 -> inception_4c/1x1
I0403 15:45:38.416965 14347 net.cpp:141] Setting up inception_4c/1x1
I0403 15:45:38.416995 14347 net.cpp:148] Top shape: 24 128 14 14 (602112)
I0403 15:45:38.417011 14347 net.cpp:156] Memory required for data: 1030800672
I0403 15:45:38.417031 14347 layer_factory.hpp:77] Creating layer inception_4c/relu_1x1
I0403 15:45:38.417053 14347 net.cpp:91] Creating Layer inception_4c/relu_1x1
I0403 15:45:38.417071 14347 net.cpp:425] inception_4c/relu_1x1 <- inception_4c/1x1
I0403 15:45:38.417090 14347 net.cpp:386] inception_4c/relu_1x1 -> inception_4c/1x1 (in-place)
I0403 15:45:38.417281 14347 net.cpp:141] Setting up inception_4c/relu_1x1
I0403 15:45:38.417310 14347 net.cpp:148] Top shape: 24 128 14 14 (602112)
I0403 15:45:38.417327 14347 net.cpp:156] Memory required for data: 1033209120
I0403 15:45:38.417342 14347 layer_factory.hpp:77] Creating layer inception_4c/3x3_reduce
I0403 15:45:38.417366 14347 net.cpp:91] Creating Layer inception_4c/3x3_reduce
I0403 15:45:38.417384 14347 net.cpp:425] inception_4c/3x3_reduce <- inception_4b/output_inception_4b/output_0_split_1
I0403 15:45:38.417405 14347 net.cpp:399] inception_4c/3x3_reduce -> inception_4c/3x3_reduce
I0403 15:45:38.419415 14347 net.cpp:141] Setting up inception_4c/3x3_reduce
I0403 15:45:38.419448 14347 net.cpp:148] Top shape: 24 128 14 14 (602112)
I0403 15:45:38.419466 14347 net.cpp:156] Memory required for data: 1035617568
I0403 15:45:38.419486 14347 layer_factory.hpp:77] Creating layer inception_4c/relu_3x3_reduce
I0403 15:45:38.419505 14347 net.cpp:91] Creating Layer inception_4c/relu_3x3_reduce
I0403 15:45:38.419522 14347 net.cpp:425] inception_4c/relu_3x3_reduce <- inception_4c/3x3_reduce
I0403 15:45:38.419543 14347 net.cpp:386] inception_4c/relu_3x3_reduce -> inception_4c/3x3_reduce (in-place)
I0403 15:45:38.419842 14347 net.cpp:141] Setting up inception_4c/relu_3x3_reduce
I0403 15:45:38.419869 14347 net.cpp:148] Top shape: 24 128 14 14 (602112)
I0403 15:45:38.419884 14347 net.cpp:156] Memory required for data: 1038026016
I0403 15:45:38.419900 14347 layer_factory.hpp:77] Creating layer inception_4c/3x3
I0403 15:45:38.419925 14347 net.cpp:91] Creating Layer inception_4c/3x3
I0403 15:45:38.419945 14347 net.cpp:425] inception_4c/3x3 <- inception_4c/3x3_reduce
I0403 15:45:38.419966 14347 net.cpp:399] inception_4c/3x3 -> inception_4c/3x3
I0403 15:45:38.423674 14347 net.cpp:141] Setting up inception_4c/3x3
I0403 15:45:38.423717 14347 net.cpp:148] Top shape: 24 256 14 14 (1204224)
I0403 15:45:38.423737 14347 net.cpp:156] Memory required for data: 1042842912
I0403 15:45:38.423768 14347 layer_factory.hpp:77] Creating layer inception_4c/relu_3x3
I0403 15:45:38.423790 14347 net.cpp:91] Creating Layer inception_4c/relu_3x3
I0403 15:45:38.423807 14347 net.cpp:425] inception_4c/relu_3x3 <- inception_4c/3x3
I0403 15:45:38.423830 14347 net.cpp:386] inception_4c/relu_3x3 -> inception_4c/3x3 (in-place)
I0403 15:45:38.424036 14347 net.cpp:141] Setting up inception_4c/relu_3x3
I0403 15:45:38.424062 14347 net.cpp:148] Top shape: 24 256 14 14 (1204224)
I0403 15:45:38.424077 14347 net.cpp:156] Memory required for data: 1047659808
I0403 15:45:38.424108 14347 layer_factory.hpp:77] Creating layer inception_4c/5x5_reduce
I0403 15:45:38.424132 14347 net.cpp:91] Creating Layer inception_4c/5x5_reduce
I0403 15:45:38.424160 14347 net.cpp:425] inception_4c/5x5_reduce <- inception_4b/output_inception_4b/output_0_split_2
I0403 15:45:38.424182 14347 net.cpp:399] inception_4c/5x5_reduce -> inception_4c/5x5_reduce
I0403 15:45:38.425300 14347 net.cpp:141] Setting up inception_4c/5x5_reduce
I0403 15:45:38.425331 14347 net.cpp:148] Top shape: 24 24 14 14 (112896)
I0403 15:45:38.425348 14347 net.cpp:156] Memory required for data: 1048111392
I0403 15:45:38.425365 14347 layer_factory.hpp:77] Creating layer inception_4c/relu_5x5_reduce
I0403 15:45:38.425386 14347 net.cpp:91] Creating Layer inception_4c/relu_5x5_reduce
I0403 15:45:38.425405 14347 net.cpp:425] inception_4c/relu_5x5_reduce <- inception_4c/5x5_reduce
I0403 15:45:38.425422 14347 net.cpp:386] inception_4c/relu_5x5_reduce -> inception_4c/5x5_reduce (in-place)
I0403 15:45:38.425621 14347 net.cpp:141] Setting up inception_4c/relu_5x5_reduce
I0403 15:45:38.425647 14347 net.cpp:148] Top shape: 24 24 14 14 (112896)
I0403 15:45:38.425662 14347 net.cpp:156] Memory required for data: 1048562976
I0403 15:45:38.425676 14347 layer_factory.hpp:77] Creating layer inception_4c/5x5
I0403 15:45:38.425699 14347 net.cpp:91] Creating Layer inception_4c/5x5
I0403 15:45:38.425717 14347 net.cpp:425] inception_4c/5x5 <- inception_4c/5x5_reduce
I0403 15:45:38.425740 14347 net.cpp:399] inception_4c/5x5 -> inception_4c/5x5
I0403 15:45:38.426988 14347 net.cpp:141] Setting up inception_4c/5x5
I0403 15:45:38.427016 14347 net.cpp:148] Top shape: 24 64 14 14 (301056)
I0403 15:45:38.427031 14347 net.cpp:156] Memory required for data: 1049767200
I0403 15:45:38.427124 14347 layer_factory.hpp:77] Creating layer inception_4c/relu_5x5
I0403 15:45:38.427147 14347 net.cpp:91] Creating Layer inception_4c/relu_5x5
I0403 15:45:38.427165 14347 net.cpp:425] inception_4c/relu_5x5 <- inception_4c/5x5
I0403 15:45:38.427182 14347 net.cpp:386] inception_4c/relu_5x5 -> inception_4c/5x5 (in-place)
I0403 15:45:38.427474 14347 net.cpp:141] Setting up inception_4c/relu_5x5
I0403 15:45:38.427500 14347 net.cpp:148] Top shape: 24 64 14 14 (301056)
I0403 15:45:38.427515 14347 net.cpp:156] Memory required for data: 1050971424
I0403 15:45:38.427530 14347 layer_factory.hpp:77] Creating layer inception_4c/pool
I0403 15:45:38.427551 14347 net.cpp:91] Creating Layer inception_4c/pool
I0403 15:45:38.427568 14347 net.cpp:425] inception_4c/pool <- inception_4b/output_inception_4b/output_0_split_3
I0403 15:45:38.427587 14347 net.cpp:399] inception_4c/pool -> inception_4c/pool
I0403 15:45:38.427654 14347 net.cpp:141] Setting up inception_4c/pool
I0403 15:45:38.427678 14347 net.cpp:148] Top shape: 24 512 14 14 (2408448)
I0403 15:45:38.427692 14347 net.cpp:156] Memory required for data: 1060605216
I0403 15:45:38.427707 14347 layer_factory.hpp:77] Creating layer inception_4c/pool_proj
I0403 15:45:38.427729 14347 net.cpp:91] Creating Layer inception_4c/pool_proj
I0403 15:45:38.427747 14347 net.cpp:425] inception_4c/pool_proj <- inception_4c/pool
I0403 15:45:38.427768 14347 net.cpp:399] inception_4c/pool_proj -> inception_4c/pool_proj
I0403 15:45:38.428998 14347 net.cpp:141] Setting up inception_4c/pool_proj
I0403 15:45:38.429028 14347 net.cpp:148] Top shape: 24 64 14 14 (301056)
I0403 15:45:38.429059 14347 net.cpp:156] Memory required for data: 1061809440
I0403 15:45:38.429077 14347 layer_factory.hpp:77] Creating layer inception_4c/relu_pool_proj
I0403 15:45:38.429100 14347 net.cpp:91] Creating Layer inception_4c/relu_pool_proj
I0403 15:45:38.429117 14347 net.cpp:425] inception_4c/relu_pool_proj <- inception_4c/pool_proj
I0403 15:45:38.429139 14347 net.cpp:386] inception_4c/relu_pool_proj -> inception_4c/pool_proj (in-place)
I0403 15:45:38.429325 14347 net.cpp:141] Setting up inception_4c/relu_pool_proj
I0403 15:45:38.429363 14347 net.cpp:148] Top shape: 24 64 14 14 (301056)
I0403 15:45:38.429378 14347 net.cpp:156] Memory required for data: 1063013664
I0403 15:45:38.429393 14347 layer_factory.hpp:77] Creating layer inception_4c/output
I0403 15:45:38.429414 14347 net.cpp:91] Creating Layer inception_4c/output
I0403 15:45:38.429430 14347 net.cpp:425] inception_4c/output <- inception_4c/1x1
I0403 15:45:38.429447 14347 net.cpp:425] inception_4c/output <- inception_4c/3x3
I0403 15:45:38.429463 14347 net.cpp:425] inception_4c/output <- inception_4c/5x5
I0403 15:45:38.429481 14347 net.cpp:425] inception_4c/output <- inception_4c/pool_proj
I0403 15:45:38.429497 14347 net.cpp:399] inception_4c/output -> inception_4c/output
I0403 15:45:38.429548 14347 net.cpp:141] Setting up inception_4c/output
I0403 15:45:38.429572 14347 net.cpp:148] Top shape: 24 512 14 14 (2408448)
I0403 15:45:38.429589 14347 net.cpp:156] Memory required for data: 1072647456
I0403 15:45:38.429605 14347 layer_factory.hpp:77] Creating layer inception_4c/output_inception_4c/output_0_split
I0403 15:45:38.429621 14347 net.cpp:91] Creating Layer inception_4c/output_inception_4c/output_0_split
I0403 15:45:38.429636 14347 net.cpp:425] inception_4c/output_inception_4c/output_0_split <- inception_4c/output
I0403 15:45:38.429668 14347 net.cpp:399] inception_4c/output_inception_4c/output_0_split -> inception_4c/output_inception_4c/output_0_split_0
I0403 15:45:38.429689 14347 net.cpp:399] inception_4c/output_inception_4c/output_0_split -> inception_4c/output_inception_4c/output_0_split_1
I0403 15:45:38.429710 14347 net.cpp:399] inception_4c/output_inception_4c/output_0_split -> inception_4c/output_inception_4c/output_0_split_2
I0403 15:45:38.429731 14347 net.cpp:399] inception_4c/output_inception_4c/output_0_split -> inception_4c/output_inception_4c/output_0_split_3
I0403 15:45:38.429816 14347 net.cpp:141] Setting up inception_4c/output_inception_4c/output_0_split
I0403 15:45:38.429841 14347 net.cpp:148] Top shape: 24 512 14 14 (2408448)
I0403 15:45:38.429857 14347 net.cpp:148] Top shape: 24 512 14 14 (2408448)
I0403 15:45:38.429872 14347 net.cpp:148] Top shape: 24 512 14 14 (2408448)
I0403 15:45:38.429888 14347 net.cpp:148] Top shape: 24 512 14 14 (2408448)
I0403 15:45:38.429901 14347 net.cpp:156] Memory required for data: 1111182624
I0403 15:45:38.429915 14347 layer_factory.hpp:77] Creating layer inception_4d/1x1
I0403 15:45:38.429939 14347 net.cpp:91] Creating Layer inception_4d/1x1
I0403 15:45:38.429958 14347 net.cpp:425] inception_4d/1x1 <- inception_4c/output_inception_4c/output_0_split_0
I0403 15:45:38.429980 14347 net.cpp:399] inception_4d/1x1 -> inception_4d/1x1
I0403 15:45:38.431371 14347 net.cpp:141] Setting up inception_4d/1x1
I0403 15:45:38.431402 14347 net.cpp:148] Top shape: 24 112 14 14 (526848)
I0403 15:45:38.431419 14347 net.cpp:156] Memory required for data: 1113290016
I0403 15:45:38.431438 14347 layer_factory.hpp:77] Creating layer inception_4d/relu_1x1
I0403 15:45:38.431457 14347 net.cpp:91] Creating Layer inception_4d/relu_1x1
I0403 15:45:38.431473 14347 net.cpp:425] inception_4d/relu_1x1 <- inception_4d/1x1
I0403 15:45:38.431491 14347 net.cpp:386] inception_4d/relu_1x1 -> inception_4d/1x1 (in-place)
I0403 15:45:38.431679 14347 net.cpp:141] Setting up inception_4d/relu_1x1
I0403 15:45:38.431705 14347 net.cpp:148] Top shape: 24 112 14 14 (526848)
I0403 15:45:38.431720 14347 net.cpp:156] Memory required for data: 1115397408
I0403 15:45:38.431735 14347 layer_factory.hpp:77] Creating layer inception_4d/3x3_reduce
I0403 15:45:38.431772 14347 net.cpp:91] Creating Layer inception_4d/3x3_reduce
I0403 15:45:38.431792 14347 net.cpp:425] inception_4d/3x3_reduce <- inception_4c/output_inception_4c/output_0_split_1
I0403 15:45:38.431814 14347 net.cpp:399] inception_4d/3x3_reduce -> inception_4d/3x3_reduce
I0403 15:45:38.433354 14347 net.cpp:141] Setting up inception_4d/3x3_reduce
I0403 15:45:38.433383 14347 net.cpp:148] Top shape: 24 144 14 14 (677376)
I0403 15:45:38.433398 14347 net.cpp:156] Memory required for data: 1118106912
I0403 15:45:38.433418 14347 layer_factory.hpp:77] Creating layer inception_4d/relu_3x3_reduce
I0403 15:45:38.433439 14347 net.cpp:91] Creating Layer inception_4d/relu_3x3_reduce
I0403 15:45:38.433455 14347 net.cpp:425] inception_4d/relu_3x3_reduce <- inception_4d/3x3_reduce
I0403 15:45:38.433475 14347 net.cpp:386] inception_4d/relu_3x3_reduce -> inception_4d/3x3_reduce (in-place)
I0403 15:45:38.433766 14347 net.cpp:141] Setting up inception_4d/relu_3x3_reduce
I0403 15:45:38.433794 14347 net.cpp:148] Top shape: 24 144 14 14 (677376)
I0403 15:45:38.433809 14347 net.cpp:156] Memory required for data: 1120816416
I0403 15:45:38.433823 14347 layer_factory.hpp:77] Creating layer inception_4d/3x3
I0403 15:45:38.433847 14347 net.cpp:91] Creating Layer inception_4d/3x3
I0403 15:45:38.433866 14347 net.cpp:425] inception_4d/3x3 <- inception_4d/3x3_reduce
I0403 15:45:38.433887 14347 net.cpp:399] inception_4d/3x3 -> inception_4d/3x3
I0403 15:45:38.438338 14347 net.cpp:141] Setting up inception_4d/3x3
I0403 15:45:38.438372 14347 net.cpp:148] Top shape: 24 288 14 14 (1354752)
I0403 15:45:38.438390 14347 net.cpp:156] Memory required for data: 1126235424
I0403 15:45:38.438408 14347 layer_factory.hpp:77] Creating layer inception_4d/relu_3x3
I0403 15:45:38.438427 14347 net.cpp:91] Creating Layer inception_4d/relu_3x3
I0403 15:45:38.438444 14347 net.cpp:425] inception_4d/relu_3x3 <- inception_4d/3x3
I0403 15:45:38.438465 14347 net.cpp:386] inception_4d/relu_3x3 -> inception_4d/3x3 (in-place)
I0403 15:45:38.438652 14347 net.cpp:141] Setting up inception_4d/relu_3x3
I0403 15:45:38.438678 14347 net.cpp:148] Top shape: 24 288 14 14 (1354752)
I0403 15:45:38.438693 14347 net.cpp:156] Memory required for data: 1131654432
I0403 15:45:38.438706 14347 layer_factory.hpp:77] Creating layer inception_4d/5x5_reduce
I0403 15:45:38.438729 14347 net.cpp:91] Creating Layer inception_4d/5x5_reduce
I0403 15:45:38.438747 14347 net.cpp:425] inception_4d/5x5_reduce <- inception_4c/output_inception_4c/output_0_split_2
I0403 15:45:38.438769 14347 net.cpp:399] inception_4d/5x5_reduce -> inception_4d/5x5_reduce
I0403 15:45:38.439924 14347 net.cpp:141] Setting up inception_4d/5x5_reduce
I0403 15:45:38.439955 14347 net.cpp:148] Top shape: 24 32 14 14 (150528)
I0403 15:45:38.439972 14347 net.cpp:156] Memory required for data: 1132256544
I0403 15:45:38.439990 14347 layer_factory.hpp:77] Creating layer inception_4d/relu_5x5_reduce
I0403 15:45:38.440009 14347 net.cpp:91] Creating Layer inception_4d/relu_5x5_reduce
I0403 15:45:38.440026 14347 net.cpp:425] inception_4d/relu_5x5_reduce <- inception_4d/5x5_reduce
I0403 15:45:38.440044 14347 net.cpp:386] inception_4d/relu_5x5_reduce -> inception_4d/5x5_reduce (in-place)
I0403 15:45:38.440239 14347 net.cpp:141] Setting up inception_4d/relu_5x5_reduce
I0403 15:45:38.440264 14347 net.cpp:148] Top shape: 24 32 14 14 (150528)
I0403 15:45:38.440280 14347 net.cpp:156] Memory required for data: 1132858656
I0403 15:45:38.440295 14347 layer_factory.hpp:77] Creating layer inception_4d/5x5
I0403 15:45:38.440317 14347 net.cpp:91] Creating Layer inception_4d/5x5
I0403 15:45:38.440336 14347 net.cpp:425] inception_4d/5x5 <- inception_4d/5x5_reduce
I0403 15:45:38.440357 14347 net.cpp:399] inception_4d/5x5 -> inception_4d/5x5
I0403 15:45:38.441833 14347 net.cpp:141] Setting up inception_4d/5x5
I0403 15:45:38.441861 14347 net.cpp:148] Top shape: 24 64 14 14 (301056)
I0403 15:45:38.441877 14347 net.cpp:156] Memory required for data: 1134062880
I0403 15:45:38.441896 14347 layer_factory.hpp:77] Creating layer inception_4d/relu_5x5
I0403 15:45:38.441932 14347 net.cpp:91] Creating Layer inception_4d/relu_5x5
I0403 15:45:38.441951 14347 net.cpp:425] inception_4d/relu_5x5 <- inception_4d/5x5
I0403 15:45:38.441968 14347 net.cpp:386] inception_4d/relu_5x5 -> inception_4d/5x5 (in-place)
I0403 15:45:38.442273 14347 net.cpp:141] Setting up inception_4d/relu_5x5
I0403 15:45:38.442301 14347 net.cpp:148] Top shape: 24 64 14 14 (301056)
I0403 15:45:38.442317 14347 net.cpp:156] Memory required for data: 1135267104
I0403 15:45:38.442332 14347 layer_factory.hpp:77] Creating layer inception_4d/pool
I0403 15:45:38.442353 14347 net.cpp:91] Creating Layer inception_4d/pool
I0403 15:45:38.442371 14347 net.cpp:425] inception_4d/pool <- inception_4c/output_inception_4c/output_0_split_3
I0403 15:45:38.442389 14347 net.cpp:399] inception_4d/pool -> inception_4d/pool
I0403 15:45:38.442458 14347 net.cpp:141] Setting up inception_4d/pool
I0403 15:45:38.442483 14347 net.cpp:148] Top shape: 24 512 14 14 (2408448)
I0403 15:45:38.442498 14347 net.cpp:156] Memory required for data: 1144900896
I0403 15:45:38.442512 14347 layer_factory.hpp:77] Creating layer inception_4d/pool_proj
I0403 15:45:38.442534 14347 net.cpp:91] Creating Layer inception_4d/pool_proj
I0403 15:45:38.442553 14347 net.cpp:425] inception_4d/pool_proj <- inception_4d/pool
I0403 15:45:38.442577 14347 net.cpp:399] inception_4d/pool_proj -> inception_4d/pool_proj
I0403 15:45:38.444346 14347 net.cpp:141] Setting up inception_4d/pool_proj
I0403 15:45:38.444378 14347 net.cpp:148] Top shape: 24 64 14 14 (301056)
I0403 15:45:38.444397 14347 net.cpp:156] Memory required for data: 1146105120
I0403 15:45:38.444417 14347 layer_factory.hpp:77] Creating layer inception_4d/relu_pool_proj
I0403 15:45:38.444437 14347 net.cpp:91] Creating Layer inception_4d/relu_pool_proj
I0403 15:45:38.444453 14347 net.cpp:425] inception_4d/relu_pool_proj <- inception_4d/pool_proj
I0403 15:45:38.444473 14347 net.cpp:386] inception_4d/relu_pool_proj -> inception_4d/pool_proj (in-place)
I0403 15:45:38.444660 14347 net.cpp:141] Setting up inception_4d/relu_pool_proj
I0403 15:45:38.444687 14347 net.cpp:148] Top shape: 24 64 14 14 (301056)
I0403 15:45:38.444702 14347 net.cpp:156] Memory required for data: 1147309344
I0403 15:45:38.444718 14347 layer_factory.hpp:77] Creating layer inception_4d/output
I0403 15:45:38.444736 14347 net.cpp:91] Creating Layer inception_4d/output
I0403 15:45:38.444751 14347 net.cpp:425] inception_4d/output <- inception_4d/1x1
I0403 15:45:38.444768 14347 net.cpp:425] inception_4d/output <- inception_4d/3x3
I0403 15:45:38.444784 14347 net.cpp:425] inception_4d/output <- inception_4d/5x5
I0403 15:45:38.444802 14347 net.cpp:425] inception_4d/output <- inception_4d/pool_proj
I0403 15:45:38.444820 14347 net.cpp:399] inception_4d/output -> inception_4d/output
I0403 15:45:38.444869 14347 net.cpp:141] Setting up inception_4d/output
I0403 15:45:38.444896 14347 net.cpp:148] Top shape: 24 528 14 14 (2483712)
I0403 15:45:38.444911 14347 net.cpp:156] Memory required for data: 1157244192
I0403 15:45:38.444926 14347 layer_factory.hpp:77] Creating layer inception_4d/output_inception_4d/output_0_split
I0403 15:45:38.444943 14347 net.cpp:91] Creating Layer inception_4d/output_inception_4d/output_0_split
I0403 15:45:38.444960 14347 net.cpp:425] inception_4d/output_inception_4d/output_0_split <- inception_4d/output
I0403 15:45:38.444983 14347 net.cpp:399] inception_4d/output_inception_4d/output_0_split -> inception_4d/output_inception_4d/output_0_split_0
I0403 15:45:38.445003 14347 net.cpp:399] inception_4d/output_inception_4d/output_0_split -> inception_4d/output_inception_4d/output_0_split_1
I0403 15:45:38.445024 14347 net.cpp:399] inception_4d/output_inception_4d/output_0_split -> inception_4d/output_inception_4d/output_0_split_2
I0403 15:45:38.445046 14347 net.cpp:399] inception_4d/output_inception_4d/output_0_split -> inception_4d/output_inception_4d/output_0_split_3
I0403 15:45:38.445066 14347 net.cpp:399] inception_4d/output_inception_4d/output_0_split -> inception_4d/output_inception_4d/output_0_split_4
I0403 15:45:38.445175 14347 net.cpp:141] Setting up inception_4d/output_inception_4d/output_0_split
I0403 15:45:38.445215 14347 net.cpp:148] Top shape: 24 528 14 14 (2483712)
I0403 15:45:38.445235 14347 net.cpp:148] Top shape: 24 528 14 14 (2483712)
I0403 15:45:38.445250 14347 net.cpp:148] Top shape: 24 528 14 14 (2483712)
I0403 15:45:38.445266 14347 net.cpp:148] Top shape: 24 528 14 14 (2483712)
I0403 15:45:38.445281 14347 net.cpp:148] Top shape: 24 528 14 14 (2483712)
I0403 15:45:38.445296 14347 net.cpp:156] Memory required for data: 1206918432
I0403 15:45:38.445310 14347 layer_factory.hpp:77] Creating layer loss2/ave_pool
I0403 15:45:38.445327 14347 net.cpp:91] Creating Layer loss2/ave_pool
I0403 15:45:38.445343 14347 net.cpp:425] loss2/ave_pool <- inception_4d/output_inception_4d/output_0_split_0
I0403 15:45:38.445374 14347 net.cpp:399] loss2/ave_pool -> loss2/ave_pool
I0403 15:45:38.445706 14347 net.cpp:141] Setting up loss2/ave_pool
I0403 15:45:38.445735 14347 net.cpp:148] Top shape: 24 528 4 4 (202752)
I0403 15:45:38.445752 14347 net.cpp:156] Memory required for data: 1207729440
I0403 15:45:38.445768 14347 layer_factory.hpp:77] Creating layer loss2/conv
I0403 15:45:38.445791 14347 net.cpp:91] Creating Layer loss2/conv
I0403 15:45:38.445811 14347 net.cpp:425] loss2/conv <- loss2/ave_pool
I0403 15:45:38.445828 14347 net.cpp:399] loss2/conv -> loss2/conv
I0403 15:45:38.447795 14347 net.cpp:141] Setting up loss2/conv
I0403 15:45:38.447825 14347 net.cpp:148] Top shape: 24 128 4 4 (49152)
I0403 15:45:38.447841 14347 net.cpp:156] Memory required for data: 1207926048
I0403 15:45:38.447860 14347 layer_factory.hpp:77] Creating layer loss2/relu_conv
I0403 15:45:38.447881 14347 net.cpp:91] Creating Layer loss2/relu_conv
I0403 15:45:38.447901 14347 net.cpp:425] loss2/relu_conv <- loss2/conv
I0403 15:45:38.447919 14347 net.cpp:386] loss2/relu_conv -> loss2/conv (in-place)
I0403 15:45:38.448221 14347 net.cpp:141] Setting up loss2/relu_conv
I0403 15:45:38.448249 14347 net.cpp:148] Top shape: 24 128 4 4 (49152)
I0403 15:45:38.448264 14347 net.cpp:156] Memory required for data: 1208122656
I0403 15:45:38.448279 14347 layer_factory.hpp:77] Creating layer loss2/fc
I0403 15:45:38.448302 14347 net.cpp:91] Creating Layer loss2/fc
I0403 15:45:38.448320 14347 net.cpp:425] loss2/fc <- loss2/conv
I0403 15:45:38.448340 14347 net.cpp:399] loss2/fc -> loss2/fc
I0403 15:45:38.466482 14347 net.cpp:141] Setting up loss2/fc
I0403 15:45:38.466521 14347 net.cpp:148] Top shape: 24 1024 (24576)
I0403 15:45:38.466537 14347 net.cpp:156] Memory required for data: 1208220960
I0403 15:45:38.466557 14347 layer_factory.hpp:77] Creating layer loss2/relu_fc
I0403 15:45:38.466577 14347 net.cpp:91] Creating Layer loss2/relu_fc
I0403 15:45:38.466593 14347 net.cpp:425] loss2/relu_fc <- loss2/fc
I0403 15:45:38.466612 14347 net.cpp:386] loss2/relu_fc -> loss2/fc (in-place)
I0403 15:45:38.466920 14347 net.cpp:141] Setting up loss2/relu_fc
I0403 15:45:38.466948 14347 net.cpp:148] Top shape: 24 1024 (24576)
I0403 15:45:38.466963 14347 net.cpp:156] Memory required for data: 1208319264
I0403 15:45:38.466977 14347 layer_factory.hpp:77] Creating layer loss2/drop_fc
I0403 15:45:38.466996 14347 net.cpp:91] Creating Layer loss2/drop_fc
I0403 15:45:38.467012 14347 net.cpp:425] loss2/drop_fc <- loss2/fc
I0403 15:45:38.467032 14347 net.cpp:386] loss2/drop_fc -> loss2/fc (in-place)
I0403 15:45:38.467083 14347 net.cpp:141] Setting up loss2/drop_fc
I0403 15:45:38.467113 14347 net.cpp:148] Top shape: 24 1024 (24576)
I0403 15:45:38.467131 14347 net.cpp:156] Memory required for data: 1208417568
I0403 15:45:38.467146 14347 layer_factory.hpp:77] Creating layer loss2/classifier_plantvillage
I0403 15:45:38.467164 14347 net.cpp:91] Creating Layer loss2/classifier_plantvillage
I0403 15:45:38.467181 14347 net.cpp:425] loss2/classifier_plantvillage <- loss2/fc
I0403 15:45:38.467206 14347 net.cpp:399] loss2/classifier_plantvillage -> loss2/classifier_plantvillage
I0403 15:45:38.467610 14347 net.cpp:141] Setting up loss2/classifier_plantvillage
I0403 15:45:38.467636 14347 net.cpp:148] Top shape: 24 38 (912)
I0403 15:45:38.467651 14347 net.cpp:156] Memory required for data: 1208421216
I0403 15:45:38.467689 14347 layer_factory.hpp:77] Creating layer loss2/classifier_plantvillage_loss2/classifier_plantvillage_0_split
I0403 15:45:38.467712 14347 net.cpp:91] Creating Layer loss2/classifier_plantvillage_loss2/classifier_plantvillage_0_split
I0403 15:45:38.467730 14347 net.cpp:425] loss2/classifier_plantvillage_loss2/classifier_plantvillage_0_split <- loss2/classifier_plantvillage
I0403 15:45:38.467747 14347 net.cpp:399] loss2/classifier_plantvillage_loss2/classifier_plantvillage_0_split -> loss2/classifier_plantvillage_loss2/classifier_plantvillage_0_split_0
I0403 15:45:38.467767 14347 net.cpp:399] loss2/classifier_plantvillage_loss2/classifier_plantvillage_0_split -> loss2/classifier_plantvillage_loss2/classifier_plantvillage_0_split_1
I0403 15:45:38.467788 14347 net.cpp:399] loss2/classifier_plantvillage_loss2/classifier_plantvillage_0_split -> loss2/classifier_plantvillage_loss2/classifier_plantvillage_0_split_2
I0403 15:45:38.467869 14347 net.cpp:141] Setting up loss2/classifier_plantvillage_loss2/classifier_plantvillage_0_split
I0403 15:45:38.467892 14347 net.cpp:148] Top shape: 24 38 (912)
I0403 15:45:38.467910 14347 net.cpp:148] Top shape: 24 38 (912)
I0403 15:45:38.467924 14347 net.cpp:148] Top shape: 24 38 (912)
I0403 15:45:38.467939 14347 net.cpp:156] Memory required for data: 1208432160
I0403 15:45:38.467954 14347 layer_factory.hpp:77] Creating layer inception_4e/1x1
I0403 15:45:38.467978 14347 net.cpp:91] Creating Layer inception_4e/1x1
I0403 15:45:38.467995 14347 net.cpp:425] inception_4e/1x1 <- inception_4d/output_inception_4d/output_0_split_1
I0403 15:45:38.468015 14347 net.cpp:399] inception_4e/1x1 -> inception_4e/1x1
I0403 15:45:38.469851 14347 net.cpp:141] Setting up inception_4e/1x1
I0403 15:45:38.469880 14347 net.cpp:148] Top shape: 24 256 14 14 (1204224)
I0403 15:45:38.469895 14347 net.cpp:156] Memory required for data: 1213249056
I0403 15:45:38.469914 14347 layer_factory.hpp:77] Creating layer inception_4e/relu_1x1
I0403 15:45:38.469935 14347 net.cpp:91] Creating Layer inception_4e/relu_1x1
I0403 15:45:38.469952 14347 net.cpp:425] inception_4e/relu_1x1 <- inception_4e/1x1
I0403 15:45:38.469970 14347 net.cpp:386] inception_4e/relu_1x1 -> inception_4e/1x1 (in-place)
I0403 15:45:38.470275 14347 net.cpp:141] Setting up inception_4e/relu_1x1
I0403 15:45:38.470302 14347 net.cpp:148] Top shape: 24 256 14 14 (1204224)
I0403 15:45:38.470317 14347 net.cpp:156] Memory required for data: 1218065952
I0403 15:45:38.470331 14347 layer_factory.hpp:77] Creating layer inception_4e/3x3_reduce
I0403 15:45:38.470355 14347 net.cpp:91] Creating Layer inception_4e/3x3_reduce
I0403 15:45:38.470372 14347 net.cpp:425] inception_4e/3x3_reduce <- inception_4d/output_inception_4d/output_0_split_2
I0403 15:45:38.470397 14347 net.cpp:399] inception_4e/3x3_reduce -> inception_4e/3x3_reduce
I0403 15:45:38.472520 14347 net.cpp:141] Setting up inception_4e/3x3_reduce
I0403 15:45:38.472550 14347 net.cpp:148] Top shape: 24 160 14 14 (752640)
I0403 15:45:38.472565 14347 net.cpp:156] Memory required for data: 1221076512
I0403 15:45:38.472584 14347 layer_factory.hpp:77] Creating layer inception_4e/relu_3x3_reduce
I0403 15:45:38.472604 14347 net.cpp:91] Creating Layer inception_4e/relu_3x3_reduce
I0403 15:45:38.472622 14347 net.cpp:425] inception_4e/relu_3x3_reduce <- inception_4e/3x3_reduce
I0403 15:45:38.472640 14347 net.cpp:386] inception_4e/relu_3x3_reduce -> inception_4e/3x3_reduce (in-place)
I0403 15:45:38.472829 14347 net.cpp:141] Setting up inception_4e/relu_3x3_reduce
I0403 15:45:38.472856 14347 net.cpp:148] Top shape: 24 160 14 14 (752640)
I0403 15:45:38.472872 14347 net.cpp:156] Memory required for data: 1224087072
I0403 15:45:38.472888 14347 layer_factory.hpp:77] Creating layer inception_4e/3x3
I0403 15:45:38.472908 14347 net.cpp:91] Creating Layer inception_4e/3x3
I0403 15:45:38.472925 14347 net.cpp:425] inception_4e/3x3 <- inception_4e/3x3_reduce
I0403 15:45:38.472949 14347 net.cpp:399] inception_4e/3x3 -> inception_4e/3x3
I0403 15:45:38.478024 14347 net.cpp:141] Setting up inception_4e/3x3
I0403 15:45:38.478067 14347 net.cpp:148] Top shape: 24 320 14 14 (1505280)
I0403 15:45:38.478086 14347 net.cpp:156] Memory required for data: 1230108192
I0403 15:45:38.478111 14347 layer_factory.hpp:77] Creating layer inception_4e/relu_3x3
I0403 15:45:38.478132 14347 net.cpp:91] Creating Layer inception_4e/relu_3x3
I0403 15:45:38.478148 14347 net.cpp:425] inception_4e/relu_3x3 <- inception_4e/3x3
I0403 15:45:38.478164 14347 net.cpp:386] inception_4e/relu_3x3 -> inception_4e/3x3 (in-place)
I0403 15:45:38.478471 14347 net.cpp:141] Setting up inception_4e/relu_3x3
I0403 15:45:38.478502 14347 net.cpp:148] Top shape: 24 320 14 14 (1505280)
I0403 15:45:38.478519 14347 net.cpp:156] Memory required for data: 1236129312
I0403 15:45:38.478534 14347 layer_factory.hpp:77] Creating layer inception_4e/5x5_reduce
I0403 15:45:38.478559 14347 net.cpp:91] Creating Layer inception_4e/5x5_reduce
I0403 15:45:38.478577 14347 net.cpp:425] inception_4e/5x5_reduce <- inception_4d/output_inception_4d/output_0_split_3
I0403 15:45:38.478596 14347 net.cpp:399] inception_4e/5x5_reduce -> inception_4e/5x5_reduce
I0403 15:45:38.479683 14347 net.cpp:141] Setting up inception_4e/5x5_reduce
I0403 15:45:38.479712 14347 net.cpp:148] Top shape: 24 32 14 14 (150528)
I0403 15:45:38.479727 14347 net.cpp:156] Memory required for data: 1236731424
I0403 15:45:38.479745 14347 layer_factory.hpp:77] Creating layer inception_4e/relu_5x5_reduce
I0403 15:45:38.479768 14347 net.cpp:91] Creating Layer inception_4e/relu_5x5_reduce
I0403 15:45:38.479785 14347 net.cpp:425] inception_4e/relu_5x5_reduce <- inception_4e/5x5_reduce
I0403 15:45:38.479804 14347 net.cpp:386] inception_4e/relu_5x5_reduce -> inception_4e/5x5_reduce (in-place)
I0403 15:45:38.480113 14347 net.cpp:141] Setting up inception_4e/relu_5x5_reduce
I0403 15:45:38.480139 14347 net.cpp:148] Top shape: 24 32 14 14 (150528)
I0403 15:45:38.480155 14347 net.cpp:156] Memory required for data: 1237333536
I0403 15:45:38.480170 14347 layer_factory.hpp:77] Creating layer inception_4e/5x5
I0403 15:45:38.480211 14347 net.cpp:91] Creating Layer inception_4e/5x5
I0403 15:45:38.480232 14347 net.cpp:425] inception_4e/5x5 <- inception_4e/5x5_reduce
I0403 15:45:38.480252 14347 net.cpp:399] inception_4e/5x5 -> inception_4e/5x5
I0403 15:45:38.482105 14347 net.cpp:141] Setting up inception_4e/5x5
I0403 15:45:38.482132 14347 net.cpp:148] Top shape: 24 128 14 14 (602112)
I0403 15:45:38.482148 14347 net.cpp:156] Memory required for data: 1239741984
I0403 15:45:38.482167 14347 layer_factory.hpp:77] Creating layer inception_4e/relu_5x5
I0403 15:45:38.482187 14347 net.cpp:91] Creating Layer inception_4e/relu_5x5
I0403 15:45:38.482203 14347 net.cpp:425] inception_4e/relu_5x5 <- inception_4e/5x5
I0403 15:45:38.482224 14347 net.cpp:386] inception_4e/relu_5x5 -> inception_4e/5x5 (in-place)
I0403 15:45:38.482422 14347 net.cpp:141] Setting up inception_4e/relu_5x5
I0403 15:45:38.482448 14347 net.cpp:148] Top shape: 24 128 14 14 (602112)
I0403 15:45:38.482462 14347 net.cpp:156] Memory required for data: 1242150432
I0403 15:45:38.482477 14347 layer_factory.hpp:77] Creating layer inception_4e/pool
I0403 15:45:38.482497 14347 net.cpp:91] Creating Layer inception_4e/pool
I0403 15:45:38.482517 14347 net.cpp:425] inception_4e/pool <- inception_4d/output_inception_4d/output_0_split_4
I0403 15:45:38.482535 14347 net.cpp:399] inception_4e/pool -> inception_4e/pool
I0403 15:45:38.482607 14347 net.cpp:141] Setting up inception_4e/pool
I0403 15:45:38.482632 14347 net.cpp:148] Top shape: 24 528 14 14 (2483712)
I0403 15:45:38.482647 14347 net.cpp:156] Memory required for data: 1252085280
I0403 15:45:38.482661 14347 layer_factory.hpp:77] Creating layer inception_4e/pool_proj
I0403 15:45:38.482684 14347 net.cpp:91] Creating Layer inception_4e/pool_proj
I0403 15:45:38.482702 14347 net.cpp:425] inception_4e/pool_proj <- inception_4e/pool
I0403 15:45:38.482723 14347 net.cpp:399] inception_4e/pool_proj -> inception_4e/pool_proj
I0403 15:45:38.484241 14347 net.cpp:141] Setting up inception_4e/pool_proj
I0403 15:45:38.484272 14347 net.cpp:148] Top shape: 24 128 14 14 (602112)
I0403 15:45:38.484302 14347 net.cpp:156] Memory required for data: 1254493728
I0403 15:45:38.484323 14347 layer_factory.hpp:77] Creating layer inception_4e/relu_pool_proj
I0403 15:45:38.484343 14347 net.cpp:91] Creating Layer inception_4e/relu_pool_proj
I0403 15:45:38.484359 14347 net.cpp:425] inception_4e/relu_pool_proj <- inception_4e/pool_proj
I0403 15:45:38.484379 14347 net.cpp:386] inception_4e/relu_pool_proj -> inception_4e/pool_proj (in-place)
I0403 15:45:38.484674 14347 net.cpp:141] Setting up inception_4e/relu_pool_proj
I0403 15:45:38.484704 14347 net.cpp:148] Top shape: 24 128 14 14 (602112)
I0403 15:45:38.484720 14347 net.cpp:156] Memory required for data: 1256902176
I0403 15:45:38.484736 14347 layer_factory.hpp:77] Creating layer inception_4e/output
I0403 15:45:38.484755 14347 net.cpp:91] Creating Layer inception_4e/output
I0403 15:45:38.484771 14347 net.cpp:425] inception_4e/output <- inception_4e/1x1
I0403 15:45:38.484788 14347 net.cpp:425] inception_4e/output <- inception_4e/3x3
I0403 15:45:38.484804 14347 net.cpp:425] inception_4e/output <- inception_4e/5x5
I0403 15:45:38.484822 14347 net.cpp:425] inception_4e/output <- inception_4e/pool_proj
I0403 15:45:38.484843 14347 net.cpp:399] inception_4e/output -> inception_4e/output
I0403 15:45:38.484892 14347 net.cpp:141] Setting up inception_4e/output
I0403 15:45:38.484917 14347 net.cpp:148] Top shape: 24 832 14 14 (3913728)
I0403 15:45:38.484932 14347 net.cpp:156] Memory required for data: 1272557088
I0403 15:45:38.484947 14347 layer_factory.hpp:77] Creating layer pool4/3x3_s2
I0403 15:45:38.484968 14347 net.cpp:91] Creating Layer pool4/3x3_s2
I0403 15:45:38.484987 14347 net.cpp:425] pool4/3x3_s2 <- inception_4e/output
I0403 15:45:38.485007 14347 net.cpp:399] pool4/3x3_s2 -> pool4/3x3_s2
I0403 15:45:38.485076 14347 net.cpp:141] Setting up pool4/3x3_s2
I0403 15:45:38.485105 14347 net.cpp:148] Top shape: 24 832 7 7 (978432)
I0403 15:45:38.485121 14347 net.cpp:156] Memory required for data: 1276470816
I0403 15:45:38.485136 14347 layer_factory.hpp:77] Creating layer pool4/3x3_s2_pool4/3x3_s2_0_split
I0403 15:45:38.485153 14347 net.cpp:91] Creating Layer pool4/3x3_s2_pool4/3x3_s2_0_split
I0403 15:45:38.485172 14347 net.cpp:425] pool4/3x3_s2_pool4/3x3_s2_0_split <- pool4/3x3_s2
I0403 15:45:38.485191 14347 net.cpp:399] pool4/3x3_s2_pool4/3x3_s2_0_split -> pool4/3x3_s2_pool4/3x3_s2_0_split_0
I0403 15:45:38.485213 14347 net.cpp:399] pool4/3x3_s2_pool4/3x3_s2_0_split -> pool4/3x3_s2_pool4/3x3_s2_0_split_1
I0403 15:45:38.485234 14347 net.cpp:399] pool4/3x3_s2_pool4/3x3_s2_0_split -> pool4/3x3_s2_pool4/3x3_s2_0_split_2
I0403 15:45:38.485255 14347 net.cpp:399] pool4/3x3_s2_pool4/3x3_s2_0_split -> pool4/3x3_s2_pool4/3x3_s2_0_split_3
I0403 15:45:38.485348 14347 net.cpp:141] Setting up pool4/3x3_s2_pool4/3x3_s2_0_split
I0403 15:45:38.485386 14347 net.cpp:148] Top shape: 24 832 7 7 (978432)
I0403 15:45:38.485402 14347 net.cpp:148] Top shape: 24 832 7 7 (978432)
I0403 15:45:38.485419 14347 net.cpp:148] Top shape: 24 832 7 7 (978432)
I0403 15:45:38.485433 14347 net.cpp:148] Top shape: 24 832 7 7 (978432)
I0403 15:45:38.485447 14347 net.cpp:156] Memory required for data: 1292125728
I0403 15:45:38.485463 14347 layer_factory.hpp:77] Creating layer inception_5a/1x1
I0403 15:45:38.485486 14347 net.cpp:91] Creating Layer inception_5a/1x1
I0403 15:45:38.485505 14347 net.cpp:425] inception_5a/1x1 <- pool4/3x3_s2_pool4/3x3_s2_0_split_0
I0403 15:45:38.485527 14347 net.cpp:399] inception_5a/1x1 -> inception_5a/1x1
I0403 15:45:38.488399 14347 net.cpp:141] Setting up inception_5a/1x1
I0403 15:45:38.488430 14347 net.cpp:148] Top shape: 24 256 7 7 (301056)
I0403 15:45:38.488445 14347 net.cpp:156] Memory required for data: 1293329952
I0403 15:45:38.488464 14347 layer_factory.hpp:77] Creating layer inception_5a/relu_1x1
I0403 15:45:38.488482 14347 net.cpp:91] Creating Layer inception_5a/relu_1x1
I0403 15:45:38.488499 14347 net.cpp:425] inception_5a/relu_1x1 <- inception_5a/1x1
I0403 15:45:38.488519 14347 net.cpp:386] inception_5a/relu_1x1 -> inception_5a/1x1 (in-place)
I0403 15:45:38.488836 14347 net.cpp:141] Setting up inception_5a/relu_1x1
I0403 15:45:38.488862 14347 net.cpp:148] Top shape: 24 256 7 7 (301056)
I0403 15:45:38.488878 14347 net.cpp:156] Memory required for data: 1294534176
I0403 15:45:38.488893 14347 layer_factory.hpp:77] Creating layer inception_5a/3x3_reduce
I0403 15:45:38.488915 14347 net.cpp:91] Creating Layer inception_5a/3x3_reduce
I0403 15:45:38.488934 14347 net.cpp:425] inception_5a/3x3_reduce <- pool4/3x3_s2_pool4/3x3_s2_0_split_1
I0403 15:45:38.488956 14347 net.cpp:399] inception_5a/3x3_reduce -> inception_5a/3x3_reduce
I0403 15:45:38.491418 14347 net.cpp:141] Setting up inception_5a/3x3_reduce
I0403 15:45:38.491451 14347 net.cpp:148] Top shape: 24 160 7 7 (188160)
I0403 15:45:38.491467 14347 net.cpp:156] Memory required for data: 1295286816
I0403 15:45:38.491485 14347 layer_factory.hpp:77] Creating layer inception_5a/relu_3x3_reduce
I0403 15:45:38.491503 14347 net.cpp:91] Creating Layer inception_5a/relu_3x3_reduce
I0403 15:45:38.491519 14347 net.cpp:425] inception_5a/relu_3x3_reduce <- inception_5a/3x3_reduce
I0403 15:45:38.491539 14347 net.cpp:386] inception_5a/relu_3x3_reduce -> inception_5a/3x3_reduce (in-place)
I0403 15:45:38.491727 14347 net.cpp:141] Setting up inception_5a/relu_3x3_reduce
I0403 15:45:38.491753 14347 net.cpp:148] Top shape: 24 160 7 7 (188160)
I0403 15:45:38.491768 14347 net.cpp:156] Memory required for data: 1296039456
I0403 15:45:38.491785 14347 layer_factory.hpp:77] Creating layer inception_5a/3x3
I0403 15:45:38.491807 14347 net.cpp:91] Creating Layer inception_5a/3x3
I0403 15:45:38.491827 14347 net.cpp:425] inception_5a/3x3 <- inception_5a/3x3_reduce
I0403 15:45:38.491849 14347 net.cpp:399] inception_5a/3x3 -> inception_5a/3x3
I0403 15:45:38.496937 14347 net.cpp:141] Setting up inception_5a/3x3
I0403 15:45:38.496966 14347 net.cpp:148] Top shape: 24 320 7 7 (376320)
I0403 15:45:38.496983 14347 net.cpp:156] Memory required for data: 1297544736
I0403 15:45:38.497001 14347 layer_factory.hpp:77] Creating layer inception_5a/relu_3x3
I0403 15:45:38.497022 14347 net.cpp:91] Creating Layer inception_5a/relu_3x3
I0403 15:45:38.497040 14347 net.cpp:425] inception_5a/relu_3x3 <- inception_5a/3x3
I0403 15:45:38.497057 14347 net.cpp:386] inception_5a/relu_3x3 -> inception_5a/3x3 (in-place)
I0403 15:45:38.497355 14347 net.cpp:141] Setting up inception_5a/relu_3x3
I0403 15:45:38.497383 14347 net.cpp:148] Top shape: 24 320 7 7 (376320)
I0403 15:45:38.497398 14347 net.cpp:156] Memory required for data: 1299050016
I0403 15:45:38.497414 14347 layer_factory.hpp:77] Creating layer inception_5a/5x5_reduce
I0403 15:45:38.497438 14347 net.cpp:91] Creating Layer inception_5a/5x5_reduce
I0403 15:45:38.497457 14347 net.cpp:425] inception_5a/5x5_reduce <- pool4/3x3_s2_pool4/3x3_s2_0_split_2
I0403 15:45:38.497478 14347 net.cpp:399] inception_5a/5x5_reduce -> inception_5a/5x5_reduce
I0403 15:45:38.498656 14347 net.cpp:141] Setting up inception_5a/5x5_reduce
I0403 15:45:38.498687 14347 net.cpp:148] Top shape: 24 32 7 7 (37632)
I0403 15:45:38.498703 14347 net.cpp:156] Memory required for data: 1299200544
I0403 15:45:38.498723 14347 layer_factory.hpp:77] Creating layer inception_5a/relu_5x5_reduce
I0403 15:45:38.498745 14347 net.cpp:91] Creating Layer inception_5a/relu_5x5_reduce
I0403 15:45:38.498762 14347 net.cpp:425] inception_5a/relu_5x5_reduce <- inception_5a/5x5_reduce
I0403 15:45:38.498781 14347 net.cpp:386] inception_5a/relu_5x5_reduce -> inception_5a/5x5_reduce (in-place)
I0403 15:45:38.499081 14347 net.cpp:141] Setting up inception_5a/relu_5x5_reduce
I0403 15:45:38.499112 14347 net.cpp:148] Top shape: 24 32 7 7 (37632)
I0403 15:45:38.499130 14347 net.cpp:156] Memory required for data: 1299351072
I0403 15:45:38.499145 14347 layer_factory.hpp:77] Creating layer inception_5a/5x5
I0403 15:45:38.499168 14347 net.cpp:91] Creating Layer inception_5a/5x5
I0403 15:45:38.499186 14347 net.cpp:425] inception_5a/5x5 <- inception_5a/5x5_reduce
I0403 15:45:38.499209 14347 net.cpp:399] inception_5a/5x5 -> inception_5a/5x5
I0403 15:45:38.500975 14347 net.cpp:141] Setting up inception_5a/5x5
I0403 15:45:38.501016 14347 net.cpp:148] Top shape: 24 128 7 7 (150528)
I0403 15:45:38.501032 14347 net.cpp:156] Memory required for data: 1299953184
I0403 15:45:38.501050 14347 layer_factory.hpp:77] Creating layer inception_5a/relu_5x5
I0403 15:45:38.501070 14347 net.cpp:91] Creating Layer inception_5a/relu_5x5
I0403 15:45:38.501091 14347 net.cpp:425] inception_5a/relu_5x5 <- inception_5a/5x5
I0403 15:45:38.501112 14347 net.cpp:386] inception_5a/relu_5x5 -> inception_5a/5x5 (in-place)
I0403 15:45:38.501307 14347 net.cpp:141] Setting up inception_5a/relu_5x5
I0403 15:45:38.501332 14347 net.cpp:148] Top shape: 24 128 7 7 (150528)
I0403 15:45:38.501348 14347 net.cpp:156] Memory required for data: 1300555296
I0403 15:45:38.501361 14347 layer_factory.hpp:77] Creating layer inception_5a/pool
I0403 15:45:38.501382 14347 net.cpp:91] Creating Layer inception_5a/pool
I0403 15:45:38.501399 14347 net.cpp:425] inception_5a/pool <- pool4/3x3_s2_pool4/3x3_s2_0_split_3
I0403 15:45:38.501418 14347 net.cpp:399] inception_5a/pool -> inception_5a/pool
I0403 15:45:38.501492 14347 net.cpp:141] Setting up inception_5a/pool
I0403 15:45:38.501516 14347 net.cpp:148] Top shape: 24 832 7 7 (978432)
I0403 15:45:38.501530 14347 net.cpp:156] Memory required for data: 1304469024
I0403 15:45:38.501545 14347 layer_factory.hpp:77] Creating layer inception_5a/pool_proj
I0403 15:45:38.501567 14347 net.cpp:91] Creating Layer inception_5a/pool_proj
I0403 15:45:38.501586 14347 net.cpp:425] inception_5a/pool_proj <- inception_5a/pool
I0403 15:45:38.501608 14347 net.cpp:399] inception_5a/pool_proj -> inception_5a/pool_proj
I0403 15:45:38.503903 14347 net.cpp:141] Setting up inception_5a/pool_proj
I0403 15:45:38.503933 14347 net.cpp:148] Top shape: 24 128 7 7 (150528)
I0403 15:45:38.503949 14347 net.cpp:156] Memory required for data: 1305071136
I0403 15:45:38.503968 14347 layer_factory.hpp:77] Creating layer inception_5a/relu_pool_proj
I0403 15:45:38.503986 14347 net.cpp:91] Creating Layer inception_5a/relu_pool_proj
I0403 15:45:38.504005 14347 net.cpp:425] inception_5a/relu_pool_proj <- inception_5a/pool_proj
I0403 15:45:38.504026 14347 net.cpp:386] inception_5a/relu_pool_proj -> inception_5a/pool_proj (in-place)
I0403 15:45:38.504326 14347 net.cpp:141] Setting up inception_5a/relu_pool_proj
I0403 15:45:38.504354 14347 net.cpp:148] Top shape: 24 128 7 7 (150528)
I0403 15:45:38.504369 14347 net.cpp:156] Memory required for data: 1305673248
I0403 15:45:38.504382 14347 layer_factory.hpp:77] Creating layer inception_5a/output
I0403 15:45:38.504400 14347 net.cpp:91] Creating Layer inception_5a/output
I0403 15:45:38.504416 14347 net.cpp:425] inception_5a/output <- inception_5a/1x1
I0403 15:45:38.504433 14347 net.cpp:425] inception_5a/output <- inception_5a/3x3
I0403 15:45:38.504449 14347 net.cpp:425] inception_5a/output <- inception_5a/5x5
I0403 15:45:38.504465 14347 net.cpp:425] inception_5a/output <- inception_5a/pool_proj
I0403 15:45:38.504487 14347 net.cpp:399] inception_5a/output -> inception_5a/output
I0403 15:45:38.504539 14347 net.cpp:141] Setting up inception_5a/output
I0403 15:45:38.504565 14347 net.cpp:148] Top shape: 24 832 7 7 (978432)
I0403 15:45:38.504580 14347 net.cpp:156] Memory required for data: 1309586976
I0403 15:45:38.504595 14347 layer_factory.hpp:77] Creating layer inception_5a/output_inception_5a/output_0_split
I0403 15:45:38.504612 14347 net.cpp:91] Creating Layer inception_5a/output_inception_5a/output_0_split
I0403 15:45:38.504628 14347 net.cpp:425] inception_5a/output_inception_5a/output_0_split <- inception_5a/output
I0403 15:45:38.504647 14347 net.cpp:399] inception_5a/output_inception_5a/output_0_split -> inception_5a/output_inception_5a/output_0_split_0
I0403 15:45:38.504667 14347 net.cpp:399] inception_5a/output_inception_5a/output_0_split -> inception_5a/output_inception_5a/output_0_split_1
I0403 15:45:38.504688 14347 net.cpp:399] inception_5a/output_inception_5a/output_0_split -> inception_5a/output_inception_5a/output_0_split_2
I0403 15:45:38.504710 14347 net.cpp:399] inception_5a/output_inception_5a/output_0_split -> inception_5a/output_inception_5a/output_0_split_3
I0403 15:45:38.504825 14347 net.cpp:141] Setting up inception_5a/output_inception_5a/output_0_split
I0403 15:45:38.504850 14347 net.cpp:148] Top shape: 24 832 7 7 (978432)
I0403 15:45:38.504868 14347 net.cpp:148] Top shape: 24 832 7 7 (978432)
I0403 15:45:38.504884 14347 net.cpp:148] Top shape: 24 832 7 7 (978432)
I0403 15:45:38.504899 14347 net.cpp:148] Top shape: 24 832 7 7 (978432)
I0403 15:45:38.504911 14347 net.cpp:156] Memory required for data: 1325241888
I0403 15:45:38.504926 14347 layer_factory.hpp:77] Creating layer inception_5b/1x1
I0403 15:45:38.504948 14347 net.cpp:91] Creating Layer inception_5b/1x1
I0403 15:45:38.504966 14347 net.cpp:425] inception_5b/1x1 <- inception_5a/output_inception_5a/output_0_split_0
I0403 15:45:38.504988 14347 net.cpp:399] inception_5b/1x1 -> inception_5b/1x1
I0403 15:45:38.508954 14347 net.cpp:141] Setting up inception_5b/1x1
I0403 15:45:38.508987 14347 net.cpp:148] Top shape: 24 384 7 7 (451584)
I0403 15:45:38.509006 14347 net.cpp:156] Memory required for data: 1327048224
I0403 15:45:38.509024 14347 layer_factory.hpp:77] Creating layer inception_5b/relu_1x1
I0403 15:45:38.509042 14347 net.cpp:91] Creating Layer inception_5b/relu_1x1
I0403 15:45:38.509060 14347 net.cpp:425] inception_5b/relu_1x1 <- inception_5b/1x1
I0403 15:45:38.509083 14347 net.cpp:386] inception_5b/relu_1x1 -> inception_5b/1x1 (in-place)
I0403 15:45:38.509419 14347 net.cpp:141] Setting up inception_5b/relu_1x1
I0403 15:45:38.509450 14347 net.cpp:148] Top shape: 24 384 7 7 (451584)
I0403 15:45:38.509467 14347 net.cpp:156] Memory required for data: 1328854560
I0403 15:45:38.509485 14347 layer_factory.hpp:77] Creating layer inception_5b/3x3_reduce
I0403 15:45:38.509508 14347 net.cpp:91] Creating Layer inception_5b/3x3_reduce
I0403 15:45:38.509527 14347 net.cpp:425] inception_5b/3x3_reduce <- inception_5a/output_inception_5a/output_0_split_1
I0403 15:45:38.509549 14347 net.cpp:399] inception_5b/3x3_reduce -> inception_5b/3x3_reduce
I0403 15:45:38.512323 14347 net.cpp:141] Setting up inception_5b/3x3_reduce
I0403 15:45:38.512356 14347 net.cpp:148] Top shape: 24 192 7 7 (225792)
I0403 15:45:38.512375 14347 net.cpp:156] Memory required for data: 1329757728
I0403 15:45:38.512394 14347 layer_factory.hpp:77] Creating layer inception_5b/relu_3x3_reduce
I0403 15:45:38.512413 14347 net.cpp:91] Creating Layer inception_5b/relu_3x3_reduce
I0403 15:45:38.512430 14347 net.cpp:425] inception_5b/relu_3x3_reduce <- inception_5b/3x3_reduce
I0403 15:45:38.512451 14347 net.cpp:386] inception_5b/relu_3x3_reduce -> inception_5b/3x3_reduce (in-place)
I0403 15:45:38.512651 14347 net.cpp:141] Setting up inception_5b/relu_3x3_reduce
I0403 15:45:38.512677 14347 net.cpp:148] Top shape: 24 192 7 7 (225792)
I0403 15:45:38.512692 14347 net.cpp:156] Memory required for data: 1330660896
I0403 15:45:38.512707 14347 layer_factory.hpp:77] Creating layer inception_5b/3x3
I0403 15:45:38.512730 14347 net.cpp:91] Creating Layer inception_5b/3x3
I0403 15:45:38.512749 14347 net.cpp:425] inception_5b/3x3 <- inception_5b/3x3_reduce
I0403 15:45:38.512775 14347 net.cpp:399] inception_5b/3x3 -> inception_5b/3x3
I0403 15:45:38.519759 14347 net.cpp:141] Setting up inception_5b/3x3
I0403 15:45:38.519789 14347 net.cpp:148] Top shape: 24 384 7 7 (451584)
I0403 15:45:38.519806 14347 net.cpp:156] Memory required for data: 1332467232
I0403 15:45:38.519826 14347 layer_factory.hpp:77] Creating layer inception_5b/relu_3x3
I0403 15:45:38.519845 14347 net.cpp:91] Creating Layer inception_5b/relu_3x3
I0403 15:45:38.519863 14347 net.cpp:425] inception_5b/relu_3x3 <- inception_5b/3x3
I0403 15:45:38.519884 14347 net.cpp:386] inception_5b/relu_3x3 -> inception_5b/3x3 (in-place)
I0403 15:45:38.520196 14347 net.cpp:141] Setting up inception_5b/relu_3x3
I0403 15:45:38.520225 14347 net.cpp:148] Top shape: 24 384 7 7 (451584)
I0403 15:45:38.520241 14347 net.cpp:156] Memory required for data: 1334273568
I0403 15:45:38.520256 14347 layer_factory.hpp:77] Creating layer inception_5b/5x5_reduce
I0403 15:45:38.520295 14347 net.cpp:91] Creating Layer inception_5b/5x5_reduce
I0403 15:45:38.520318 14347 net.cpp:425] inception_5b/5x5_reduce <- inception_5a/output_inception_5a/output_0_split_2
I0403 15:45:38.520340 14347 net.cpp:399] inception_5b/5x5_reduce -> inception_5b/5x5_reduce
I0403 15:45:38.521699 14347 net.cpp:141] Setting up inception_5b/5x5_reduce
I0403 15:45:38.521731 14347 net.cpp:148] Top shape: 24 48 7 7 (56448)
I0403 15:45:38.521749 14347 net.cpp:156] Memory required for data: 1334499360
I0403 15:45:38.521770 14347 layer_factory.hpp:77] Creating layer inception_5b/relu_5x5_reduce
I0403 15:45:38.521790 14347 net.cpp:91] Creating Layer inception_5b/relu_5x5_reduce
I0403 15:45:38.521806 14347 net.cpp:425] inception_5b/relu_5x5_reduce <- inception_5b/5x5_reduce
I0403 15:45:38.521827 14347 net.cpp:386] inception_5b/relu_5x5_reduce -> inception_5b/5x5_reduce (in-place)
I0403 15:45:38.522218 14347 net.cpp:141] Setting up inception_5b/relu_5x5_reduce
I0403 15:45:38.522246 14347 net.cpp:148] Top shape: 24 48 7 7 (56448)
I0403 15:45:38.522263 14347 net.cpp:156] Memory required for data: 1334725152
I0403 15:45:38.522279 14347 layer_factory.hpp:77] Creating layer inception_5b/5x5
I0403 15:45:38.522300 14347 net.cpp:91] Creating Layer inception_5b/5x5
I0403 15:45:38.522318 14347 net.cpp:425] inception_5b/5x5 <- inception_5b/5x5_reduce
I0403 15:45:38.522338 14347 net.cpp:399] inception_5b/5x5 -> inception_5b/5x5
I0403 15:45:38.524505 14347 net.cpp:141] Setting up inception_5b/5x5
I0403 15:45:38.524534 14347 net.cpp:148] Top shape: 24 128 7 7 (150528)
I0403 15:45:38.524550 14347 net.cpp:156] Memory required for data: 1335327264
I0403 15:45:38.524569 14347 layer_factory.hpp:77] Creating layer inception_5b/relu_5x5
I0403 15:45:38.524593 14347 net.cpp:91] Creating Layer inception_5b/relu_5x5
I0403 15:45:38.524610 14347 net.cpp:425] inception_5b/relu_5x5 <- inception_5b/5x5
I0403 15:45:38.524629 14347 net.cpp:386] inception_5b/relu_5x5 -> inception_5b/5x5 (in-place)
I0403 15:45:38.524827 14347 net.cpp:141] Setting up inception_5b/relu_5x5
I0403 15:45:38.524852 14347 net.cpp:148] Top shape: 24 128 7 7 (150528)
I0403 15:45:38.524868 14347 net.cpp:156] Memory required for data: 1335929376
I0403 15:45:38.524883 14347 layer_factory.hpp:77] Creating layer inception_5b/pool
I0403 15:45:38.524904 14347 net.cpp:91] Creating Layer inception_5b/pool
I0403 15:45:38.524921 14347 net.cpp:425] inception_5b/pool <- inception_5a/output_inception_5a/output_0_split_3
I0403 15:45:38.524940 14347 net.cpp:399] inception_5b/pool -> inception_5b/pool
I0403 15:45:38.525017 14347 net.cpp:141] Setting up inception_5b/pool
I0403 15:45:38.525041 14347 net.cpp:148] Top shape: 24 832 7 7 (978432)
I0403 15:45:38.525056 14347 net.cpp:156] Memory required for data: 1339843104
I0403 15:45:38.525071 14347 layer_factory.hpp:77] Creating layer inception_5b/pool_proj
I0403 15:45:38.525097 14347 net.cpp:91] Creating Layer inception_5b/pool_proj
I0403 15:45:38.525117 14347 net.cpp:425] inception_5b/pool_proj <- inception_5b/pool
I0403 15:45:38.525140 14347 net.cpp:399] inception_5b/pool_proj -> inception_5b/pool_proj
I0403 15:45:38.527498 14347 net.cpp:141] Setting up inception_5b/pool_proj
I0403 15:45:38.527529 14347 net.cpp:148] Top shape: 24 128 7 7 (150528)
I0403 15:45:38.527545 14347 net.cpp:156] Memory required for data: 1340445216
I0403 15:45:38.527565 14347 layer_factory.hpp:77] Creating layer inception_5b/relu_pool_proj
I0403 15:45:38.527582 14347 net.cpp:91] Creating Layer inception_5b/relu_pool_proj
I0403 15:45:38.527598 14347 net.cpp:425] inception_5b/relu_pool_proj <- inception_5b/pool_proj
I0403 15:45:38.527619 14347 net.cpp:386] inception_5b/relu_pool_proj -> inception_5b/pool_proj (in-place)
I0403 15:45:38.527918 14347 net.cpp:141] Setting up inception_5b/relu_pool_proj
I0403 15:45:38.527947 14347 net.cpp:148] Top shape: 24 128 7 7 (150528)
I0403 15:45:38.527963 14347 net.cpp:156] Memory required for data: 1341047328
I0403 15:45:38.527979 14347 layer_factory.hpp:77] Creating layer inception_5b/output
I0403 15:45:38.527997 14347 net.cpp:91] Creating Layer inception_5b/output
I0403 15:45:38.528028 14347 net.cpp:425] inception_5b/output <- inception_5b/1x1
I0403 15:45:38.528046 14347 net.cpp:425] inception_5b/output <- inception_5b/3x3
I0403 15:45:38.528064 14347 net.cpp:425] inception_5b/output <- inception_5b/5x5
I0403 15:45:38.528097 14347 net.cpp:425] inception_5b/output <- inception_5b/pool_proj
I0403 15:45:38.528121 14347 net.cpp:399] inception_5b/output -> inception_5b/output
I0403 15:45:38.528177 14347 net.cpp:141] Setting up inception_5b/output
I0403 15:45:38.528203 14347 net.cpp:148] Top shape: 24 1024 7 7 (1204224)
I0403 15:45:38.528218 14347 net.cpp:156] Memory required for data: 1345864224
I0403 15:45:38.528234 14347 layer_factory.hpp:77] Creating layer pool5/7x7_s1
I0403 15:45:38.528254 14347 net.cpp:91] Creating Layer pool5/7x7_s1
I0403 15:45:38.528272 14347 net.cpp:425] pool5/7x7_s1 <- inception_5b/output
I0403 15:45:38.528292 14347 net.cpp:399] pool5/7x7_s1 -> pool5/7x7_s1
I0403 15:45:38.528528 14347 net.cpp:141] Setting up pool5/7x7_s1
I0403 15:45:38.528554 14347 net.cpp:148] Top shape: 24 1024 1 1 (24576)
I0403 15:45:38.528569 14347 net.cpp:156] Memory required for data: 1345962528
I0403 15:45:38.528584 14347 layer_factory.hpp:77] Creating layer pool5/drop_7x7_s1
I0403 15:45:38.528602 14347 net.cpp:91] Creating Layer pool5/drop_7x7_s1
I0403 15:45:38.528620 14347 net.cpp:425] pool5/drop_7x7_s1 <- pool5/7x7_s1
I0403 15:45:38.528640 14347 net.cpp:386] pool5/drop_7x7_s1 -> pool5/7x7_s1 (in-place)
I0403 15:45:38.528692 14347 net.cpp:141] Setting up pool5/drop_7x7_s1
I0403 15:45:38.528717 14347 net.cpp:148] Top shape: 24 1024 1 1 (24576)
I0403 15:45:38.528733 14347 net.cpp:156] Memory required for data: 1346060832
I0403 15:45:38.528748 14347 layer_factory.hpp:77] Creating layer loss3/classifier_plantvillage
I0403 15:45:38.528767 14347 net.cpp:91] Creating Layer loss3/classifier_plantvillage
I0403 15:45:38.528784 14347 net.cpp:425] loss3/classifier_plantvillage <- pool5/7x7_s1
I0403 15:45:38.528805 14347 net.cpp:399] loss3/classifier_plantvillage -> loss3/classifier_plantvillage
I0403 15:45:38.529243 14347 net.cpp:141] Setting up loss3/classifier_plantvillage
I0403 15:45:38.529273 14347 net.cpp:148] Top shape: 24 38 (912)
I0403 15:45:38.529289 14347 net.cpp:156] Memory required for data: 1346064480
I0403 15:45:38.529307 14347 layer_factory.hpp:77] Creating layer loss3/classifier_plantvillage_loss3/classifier_plantvillage_0_split
I0403 15:45:38.529326 14347 net.cpp:91] Creating Layer loss3/classifier_plantvillage_loss3/classifier_plantvillage_0_split
I0403 15:45:38.529345 14347 net.cpp:425] loss3/classifier_plantvillage_loss3/classifier_plantvillage_0_split <- loss3/classifier_plantvillage
I0403 15:45:38.529361 14347 net.cpp:399] loss3/classifier_plantvillage_loss3/classifier_plantvillage_0_split -> loss3/classifier_plantvillage_loss3/classifier_plantvillage_0_split_0
I0403 15:45:38.529381 14347 net.cpp:399] loss3/classifier_plantvillage_loss3/classifier_plantvillage_0_split -> loss3/classifier_plantvillage_loss3/classifier_plantvillage_0_split_1
I0403 15:45:38.529404 14347 net.cpp:399] loss3/classifier_plantvillage_loss3/classifier_plantvillage_0_split -> loss3/classifier_plantvillage_loss3/classifier_plantvillage_0_split_2
I0403 15:45:38.529427 14347 net.cpp:399] loss3/classifier_plantvillage_loss3/classifier_plantvillage_0_split -> loss3/classifier_plantvillage_loss3/classifier_plantvillage_0_split_3
I0403 15:45:38.529532 14347 net.cpp:141] Setting up loss3/classifier_plantvillage_loss3/classifier_plantvillage_0_split
I0403 15:45:38.529557 14347 net.cpp:148] Top shape: 24 38 (912)
I0403 15:45:38.529573 14347 net.cpp:148] Top shape: 24 38 (912)
I0403 15:45:38.529589 14347 net.cpp:148] Top shape: 24 38 (912)
I0403 15:45:38.529603 14347 net.cpp:148] Top shape: 24 38 (912)
I0403 15:45:38.529618 14347 net.cpp:156] Memory required for data: 1346079072
I0403 15:45:38.529633 14347 layer_factory.hpp:77] Creating layer loss1/loss
I0403 15:45:38.529659 14347 net.cpp:91] Creating Layer loss1/loss
I0403 15:45:38.529676 14347 net.cpp:425] loss1/loss <- loss1/classifier_plantvillage_loss1/classifier_plantvillage_0_split_0
I0403 15:45:38.529708 14347 net.cpp:425] loss1/loss <- label_data_1_split_0
…
