…
I0403 15:49:11.208461 14501 net.cpp:313] The NetState phase (1) differed from the phase (0) specified by a rule in layer data
I0403 15:49:11.209640 14501 net.cpp:49] Initializing net from parameters: 
state {
  phase: TEST
}
layer {
  name: "data"
  type: "Data"
  top: "data"
  top: "label"
  include {
    phase: TEST
  }
  transform_param {
    mirror: false
    crop_size: 224
    mean_file: "/home/mohanty/data/final_dataset/lmdb/color-80-20/mean.binaryproto"
  }
  data_param {
    source: "/home/mohanty/data/final_dataset/lmdb/color-80-20/test_db"
    batch_size: 24
    backend: LMDB
  }
}
layer {
  name: "conv1/7x7_s2"
  type: "Convolution"
  bottom: "data"
  top: "conv1/7x7_s2"
  param {
    lr_mult: 1
    decay_mult: 1
  }
  param {
    lr_mult: 2
    decay_mult: 0
  }
  convolution_param {
    num_output: 64
    pad: 3
    kernel_size: 7
    stride: 2
    weight_filler {
      type: "xavier"
      std: 0.1
    }
    bias_filler {
      type: "constant"
      value: 0.2
    }
  }
}
layer {
  name: "conv1/relu_7x7"
  type: "ReLU"
  bottom: "conv1/7x7_s2"
  top: "conv1/7x7_s2"
}
layer {
  name: "pool1/3x3_s2"
  type: "Pooling"
  bottom: "conv1/7x7_s2"
  top: "pool1/3x3_s2"
  pooling_param {
    pool: MAX
    kernel_size: 3
    stride: 2
  }
}
layer {
  name: "pool1/norm1"
  type: "LRN"
  bottom: "pool1/3x3_s2"
  top: "pool1/norm1"
  lrn_param {
    local_size: 5
    alpha: 0.0001
    beta: 0.75
  }
}
layer {
  name: "conv2/3x3_reduce"
  type: "Convolution"
  bottom: "pool1/norm1"
  top: "conv2/3x3_reduce"
  param {
    lr_mult: 1
    decay_mult: 1
  }
  param {
    lr_mult: 2
    decay_mult: 0
  }
  convolution_param {
    num_output: 64
    kernel_size: 1
    weight_filler {
      type: "xavier"
      std: 0.1
    }
    bias_filler {
      type: "constant"
      value: 0.2
    }
  }
}
layer {
  name: "conv2/relu_3x3_reduce"
  type: "ReLU"
  bottom: "conv2/3x3_reduce"
  top: "conv2/3x3_reduce"
}
layer {
  name: "conv2/3x3"
  type: "Convolution"
  bottom: "conv2/3x3_reduce"
  top: "conv2/3x3"
  param {
    lr_mult: 1
    decay_mult: 1
  }
  param {
    lr_mult: 2
    decay_mult: 0
  }
  convolution_param {
    num_output: 192
    pad: 1
    kernel_size: 3
    weight_filler {
      type: "xavier"
      std: 0.03
    }
    bias_filler {
      type: "constant"
      value: 0.2
    }
  }
}
layer {
  name: "conv2/relu_3x3"
  type: "ReLU"
  bottom: "conv2/3x3"
  top: "conv2/3x3"
}
layer {
  name: "conv2/norm2"
  type: "LRN"
  bottom: "conv2/3x3"
  top: "conv2/norm2"
  lrn_param {
    local_size: 5
    alpha: 0.0001
    beta: 0.75
  }
}
layer {
  name: "pool2/3x3_s2"
  type: "Pooling"
  bottom: "conv2/norm2"
  top: "pool2/3x3_s2"
  pooling_param {
    pool: MAX
    kernel_size: 3
    stride: 2
  }
}
layer {
  name: "inception_3a/1x1"
  type: "Convolution"
  bottom: "pool2/3x3_s2"
  top: "inception_3a/1x1"
  param {
    lr_mult: 1
    decay_mult: 1
  }
  param {
    lr_mult: 2
    decay_mult: 0
  }
  convolution_param {
    num_output: 64
    kernel_size: 1
    weight_filler {
      type: "xavier"
      std: 0.03
    }
    bias_filler {
      type: "constant"
      value: 0.2
    }
  }
}
layer {
  name: "inception_3a/relu_1x1"
  type: "ReLU"
  bottom: "inception_3a/1x1"
  top: "inception_3a/1x1"
}
layer {
  name: "inception_3a/3x3_reduce"
  type: "Convolution"
  bottom: "pool2/3x3_s2"
  top: "inception_3a/3x3_reduce"
  param {
    lr_mult: 1
    decay_mult: 1
  }
  param {
    lr_mult: 2
    decay_mult: 0
  }
  convolution_param {
    num_output: 96
    kernel_size: 1
    weight_filler {
      type: "xavier"
      std: 0.09
    }
    bias_filler {
      type: "constant"
      value: 0.2
    }
  }
}
layer {
  name: "inception_3a/relu_3x3_reduce"
  type: "ReLU"
  bottom: "inception_3a/3x3_reduce"
  top: "inception_3a/3x3_reduce"
}
layer {
  name: "inception_3a/3x3"
  type: "Convolution"
  bottom: "inception_3a/3x3_reduce"
  top: "inception_3a/3x3"
  param {
    lr_mult: 1
    decay_mult: 1
  }
  param {
    lr_mult: 2
    decay_mult: 0
  }
  convolution_param {
    num_output: 128
    pad: 1
    kernel_size: 3
    weight_filler {
      type: "xavier"
      std: 0.03
    }
    bias_filler {
      type: "constant"
      value: 0.2
    }
  }
}
layer {
  name: "inception_3a/relu_3x3"
  type: "ReLU"
  bottom: "inception_3a/3x3"
  top: "inception_3a/3x3"
}
layer {
  name: "inception_3a/5x5_reduce"
  type: "Convolution"
  bottom: "pool2/3x3_s2"
  top: "inception_3a/5x5_reduce"
  param {
    lr_mult: 1
    decay_mult: 1
  }
  param {
    lr_mult: 2
    decay_mult: 0
  }
  convolution_param {
    num_output: 16
    kernel_size: 1
    weight_filler {
      type: "xavier"
      std: 0.2
    }
    bias_filler {
      type: "constant"
      value: 0.2
    }
  }
}
layer {
  name: "inception_3a/relu_5x5_reduce"
  type: "ReLU"
  bottom: "inception_3a/5x5_reduce"
  top: "inception_3a/5x5_reduce"
}
layer {
  name: "inception_3a/5x5"
  type: "Convolution"
  bottom: "inception_3a/5x5_reduce"
  top: "inception_3a/5x5"
  param {
    lr_mult: 1
    decay_mult: 1
  }
  param {
    lr_mult: 2
    decay_mult: 0
  }
  convolution_param {
    num_output: 32
    pad: 2
    kernel_size: 5
    weight_filler {
      type: "xavier"
      std: 0.03
    }
    bias_filler {
      type: "constant"
      value: 0.2
    }
  }
}
layer {
  name: "inception_3a/relu_5x5"
  type: "ReLU"
  bottom: "inception_3a/5x5"
  top: "inception_3a/5x5"
}
layer {
  name: "inception_3a/pool"
  type: "Pooling"
  bottom: "pool2/3x3_s2"
  top: "inception_3a/pool"
  pooling_param {
    pool: MAX
    kernel_size: 3
    stride: 1
    pad: 1
  }
}
layer {
  name: "inception_3a/pool_proj"
  type: "Convolution"
  bottom: "inception_3a/pool"
  top: "inception_3a/pool_proj"
  param {
    lr_mult: 1
    decay_mult: 1
  }
  param {
    lr_mult: 2
    decay_mult: 0
  }
  convolution_param {
    num_output: 32
    kernel_size: 1
    weight_filler {
      type: "xavier"
      std: 0.1
    }
    bias_filler {
      type: "constant"
      value: 0.2
    }
  }
}
layer {
  name: "inception_3a/relu_pool_proj"
  type: "ReLU"
  bottom: "inception_3a/pool_proj"
  top: "inception_3a/pool_proj"
}
layer {
  name: "inception_3a/output"
  type: "Concat"
  bottom: "inception_3a/1x1"
  bottom: "inception_3a/3x3"
  bottom: "inception_3a/5x5"
  bottom: "inception_3a/pool_proj"
  top: "inception_3a/output"
}
layer {
  name: "inception_3b/1x1"
  type: "Convolution"
  bottom: "inception_3a/output"
  top: "inception_3b/1x1"
  param {
    lr_mult: 1
    decay_mult: 1
  }
  param {
    lr_mult: 2
    decay_mult: 0
  }
  convolution_param {
    num_output: 128
    kernel_size: 1
    weight_filler {
      type: "xavier"
      std: 0.03
    }
    bias_filler {
      type: "constant"
      value: 0.2
    }
  }
}
layer {
  name: "inception_3b/relu_1x1"
  type: "ReLU"
  bottom: "inception_3b/1x1"
  top: "inception_3b/1x1"
}
layer {
  name: "inception_3b/3x3_reduce"
  type: "Convolution"
  bottom: "inception_3a/output"
  top: "inception_3b/3x3_reduce"
  param {
    lr_mult: 1
    decay_mult: 1
  }
  param {
    lr_mult: 2
    decay_mult: 0
  }
  convolution_param {
    num_output: 128
    kernel_size: 1
    weight_filler {
      type: "xavier"
      std: 0.09
    }
    bias_filler {
      type: "constant"
      value: 0.2
    }
  }
}
layer {
  name: "inception_3b/relu_3x3_reduce"
  type: "ReLU"
  bottom: "inception_3b/3x3_reduce"
  top: "inception_3b/3x3_reduce"
}
layer {
  name: "inception_3b/3x3"
  type: "Convolution"
  bottom: "inception_3b/3x3_reduce"
  top: "inception_3b/3x3"
  param {
    lr_mult: 1
    decay_mult: 1
  }
  param {
    lr_mult: 2
    decay_mult: 0
  }
  convolution_param {
    num_output: 192
    pad: 1
    kernel_size: 3
    weight_filler {
      type: "xavier"
      std: 0.03
    }
    bias_filler {
      type: "constant"
      value: 0.2
    }
  }
}
layer {
  name: "inception_3b/relu_3x3"
  type: "ReLU"
  bottom: "inception_3b/3x3"
  top: "inception_3b/3x3"
}
layer {
  name: "inception_3b/5x5_reduce"
  type: "Convolution"
  bottom: "inception_3a/output"
  top: "inception_3b/5x5_reduce"
  param {
    lr_mult: 1
    decay_mult: 1
  }
  param {
    lr_mult: 2
    decay_mult: 0
  }
  convolution_param {
    num_output: 32
    kernel_size: 1
    weight_filler {
      type: "xavier"
      std: 0.2
    }
    bias_filler {
      type: "constant"
      value: 0.2
    }
  }
}
layer {
  name: "inception_3b/relu_5x5_reduce"
  type: "ReLU"
  bottom: "inception_3b/5x5_reduce"
  top: "inception_3b/5x5_reduce"
}
layer {
  name: "inception_3b/5x5"
  type: "Convolution"
  bottom: "inception_3b/5x5_reduce"
  top: "inception_3b/5x5"
  param {
    lr_mult: 1
    decay_mult: 1
  }
  param {
    lr_mult: 2
    decay_mult: 0
  }
  convolution_param {
    num_output: 96
    pad: 2
    kernel_size: 5
    weight_filler {
      type: "xavier"
      std: 0.03
    }
    bias_filler {
      type: "constant"
      value: 0.2
    }
  }
}
layer {
  name: "inception_3b/relu_5x5"
  type: "ReLU"
  bottom: "inception_3b/5x5"
  top: "inception_3b/5x5"
}
layer {
  name: "inception_3b/pool"
  type: "Pooling"
  bottom: "inception_3a/output"
  top: "inception_3b/pool"
  pooling_param {
    pool: MAX
    kernel_size: 3
    stride: 1
    pad: 1
  }
}
layer {
  name: "inception_3b/pool_proj"
  type: "Convolution"
  bottom: "inception_3b/pool"
  top: "inception_3b/pool_proj"
  param {
    lr_mult: 1
    decay_mult: 1
  }
  param {
    lr_mult: 2
    decay_mult: 0
  }
  convolution_param {
    num_output: 64
    kernel_size: 1
    weight_filler {
      type: "xavier"
      std: 0.1
    }
    bias_filler {
      type: "constant"
      value: 0.2
    }
  }
}
layer {
  name: "inception_3b/relu_pool_proj"
  type: "ReLU"
  bottom: "inception_3b/pool_proj"
  top: "inception_3b/pool_proj"
}
layer {
  name: "inception_3b/output"
  type: "Concat"
  bottom: "inception_3b/1x1"
  bottom: "inception_3b/3x3"
  bottom: "inception_3b/5x5"
  bottom: "inception_3b/pool_proj"
  top: "inception_3b/output"
}
layer {
  name: "pool3/3x3_s2"
  type: "Pooling"
  bottom: "inception_3b/output"
  top: "pool3/3x3_s2"
  pooling_param {
    pool: MAX
    kernel_size: 3
    stride: 2
  }
}
layer {
  name: "inception_4a/1x1"
  type: "Convolution"
  bottom: "pool3/3x3_s2"
  top: "inception_4a/1x1"
  param {
    lr_mult: 1
    decay_mult: 1
  }
  param {
    lr_mult: 2
    decay_mult: 0
  }
  convolution_param {
    num_output: 192
    kernel_size: 1
    weight_filler {
      type: "xavier"
      std: 0.03
    }
    bias_filler {
      type: "constant"
      value: 0.2
    }
  }
}
layer {
  name: "inception_4a/relu_1x1"
  type: "ReLU"
  bottom: "inception_4a/1x1"
  top: "inception_4a/1x1"
}
layer {
  name: "inception_4a/3x3_reduce"
  type: "Convolution"
  bottom: "pool3/3x3_s2"
  top: "inception_4a/3x3_reduce"
  param {
    lr_mult: 1
    decay_mult: 1
  }
  param {
    lr_mult: 2
    decay_mult: 0
  }
  convolution_param {
    num_output: 96
    kernel_size: 1
    weight_filler {
      type: "xavier"
      std: 0.09
    }
    bias_filler {
      type: "constant"
      value: 0.2
    }
  }
}
layer {
  name: "inception_4a/relu_3x3_reduce"
  type: "ReLU"
  bottom: "inception_4a/3x3_reduce"
  top: "inception_4a/3x3_reduce"
}
layer {
  name: "inception_4a/3x3"
  type: "Convolution"
  bottom: "inception_4a/3x3_reduce"
  top: "inception_4a/3x3"
  param {
    lr_mult: 1
    decay_mult: 1
  }
  param {
    lr_mult: 2
    decay_mult: 0
  }
  convolution_param {
    num_output: 208
    pad: 1
    kernel_size: 3
    weight_filler {
      type: "xavier"
      std: 0.03
    }
    bias_filler {
      type: "constant"
      value: 0.2
    }
  }
}
layer {
  name: "inception_4a/relu_3x3"
  type: "ReLU"
  bottom: "inception_4a/3x3"
  top: "inception_4a/3x3"
}
layer {
  name: "inception_4a/5x5_reduce"
  type: "Convolution"
  bottom: "pool3/3x3_s2"
  top: "inception_4a/5x5_reduce"
  param {
    lr_mult: 1
    decay_mult: 1
  }
  param {
    lr_mult: 2
    decay_mult: 0
  }
  convolution_param {
    num_output: 16
    kernel_size: 1
    weight_filler {
      type: "xavier"
      std: 0.2
    }
    bias_filler {
      type: "constant"
      value: 0.2
    }
  }
}
layer {
  name: "inception_4a/relu_5x5_reduce"
  type: "ReLU"
  bottom: "inception_4a/5x5_reduce"
  top: "inception_4a/5x5_reduce"
}
layer {
  name: "inception_4a/5x5"
  type: "Convolution"
  bottom: "inception_4a/5x5_reduce"
  top: "inception_4a/5x5"
  param {
    lr_mult: 1
    decay_mult: 1
  }
  param {
    lr_mult: 2
    decay_mult: 0
  }
  convolution_param {
    num_output: 48
    pad: 2
    kernel_size: 5
    weight_filler {
      type: "xavier"
      std: 0.03
    }
    bias_filler {
      type: "constant"
      value: 0.2
    }
  }
}
layer {
  name: "inception_4a/relu_5x5"
  type: "ReLU"
  bottom: "inception_4a/5x5"
  top: "inception_4a/5x5"
}
layer {
  name: "inception_4a/pool"
  type: "Pooling"
  bottom: "pool3/3x3_s2"
  top: "inception_4a/pool"
  pooling_param {
    pool: MAX
    kernel_size: 3
    stride: 1
    pad: 1
  }
}
layer {
  name: "inception_4a/pool_proj"
  type: "Convolution"
  bottom: "inception_4a/pool"
  top: "inception_4a/pool_proj"
  param {
    lr_mult: 1
    decay_mult: 1
  }
  param {
    lr_mult: 2
    decay_mult: 0
  }
  convolution_param {
    num_output: 64
    kernel_size: 1
    weight_filler {
      type: "xavier"
      std: 0.1
    }
    bias_filler {
      type: "constant"
      value: 0.2
    }
  }
}
layer {
  name: "inception_4a/relu_pool_proj"
  type: "ReLU"
  bottom: "inception_4a/pool_proj"
  top: "inception_4a/pool_proj"
}
layer {
  name: "inception_4a/output"
  type: "Concat"
  bottom: "inception_4a/1x1"
  bottom: "inception_4a/3x3"
  bottom: "inception_4a/5x5"
  bottom: "inception_4a/pool_proj"
  top: "inception_4a/output"
}
layer {
  name: "loss1/ave_pool"
  type: "Pooling"
  bottom: "inception_4a/output"
  top: "loss1/ave_pool"
  pooling_param {
    pool: AVE
    kernel_size: 5
    stride: 3
  }
}
layer {
  name: "loss1/conv"
  type: "Convolution"
  bottom: "loss1/ave_pool"
  top: "loss1/conv"
  param {
    lr_mult: 1
    decay_mult: 1
  }
  param {
    lr_mult: 2
    decay_mult: 0
  }
  convolution_param {
    num_output: 128
    kernel_size: 1
    weight_filler {
      type: "xavier"
      std: 0.08
    }
    bias_filler {
      type: "constant"
      value: 0.2
    }
  }
}
layer {
  name: "loss1/relu_conv"
  type: "ReLU"
  bottom: "loss1/conv"
  top: "loss1/conv"
}
layer {
  name: "loss1/fc"
  type: "InnerProduct"
  bottom: "loss1/conv"
  top: "loss1/fc"
  param {
    lr_mult: 1
    decay_mult: 1
  }
  param {
    lr_mult: 2
    decay_mult: 0
  }
  inner_product_param {
    num_output: 1024
    weight_filler {
      type: "xavier"
      std: 0.02
    }
    bias_filler {
      type: "constant"
      value: 0.2
    }
  }
}
layer {
  name: "loss1/relu_fc"
  type: "ReLU"
  bottom: "loss1/fc"
  top: "loss1/fc"
}
layer {
  name: "loss1/drop_fc"
  type: "Dropout"
  bottom: "loss1/fc"
  top: "loss1/fc"
  dropout_param {
    dropout_ratio: 0.7
  }
}
layer {
  name: "loss1/classifier_plantvillage"
  type: "InnerProduct"
  bottom: "loss1/fc"
  top: "loss1/classifier_plantvillage"
  param {
    lr_mult: 1
    decay_mult: 1
  }
  param {
    lr_mult: 2
    decay_mult: 0
  }
  inner_product_param {
    num_output: 38
    weight_filler {
      type: "xavier"
      std: 0.0009765625
    }
    bias_filler {
      type: "constant"
      value: 0
    }
  }
}
layer {
  name: "inception_4b/1x1"
  type: "Convolution"
  bottom: "inception_4a/output"
  top: "inception_4b/1x1"
  param {
    lr_mult: 1
    decay_mult: 1
  }
  param {
    lr_mult: 2
    decay_mult: 0
  }
  convolution_param {
    num_output: 160
    kernel_size: 1
    weight_filler {
      type: "xavier"
      std: 0.03
    }
    bias_filler {
      type: "constant"
      value: 0.2
    }
  }
}
layer {
  name: "inception_4b/relu_1x1"
  type: "ReLU"
  bottom: "inception_4b/1x1"
  top: "inception_4b/1x1"
}
layer {
  name: "inception_4b/3x3_reduce"
  type: "Convolution"
  bottom: "inception_4a/output"
  top: "inception_4b/3x3_reduce"
  param {
    lr_mult: 1
    decay_mult: 1
  }
  param {
    lr_mult: 2
    decay_mult: 0
  }
  convolution_param {
    num_output: 112
    kernel_size: 1
    weight_filler {
      type: "xavier"
      std: 0.09
    }
    bias_filler {
      type: "constant"
      value: 0.2
    }
  }
}
layer {
  name: "inception_4b/relu_3x3_reduce"
  type: "ReLU"
  bottom: "inception_4b/3x3_reduce"
  top: "inception_4b/3x3_reduce"
}
layer {
  name: "inception_4b/3x3"
  type: "Convolution"
  bottom: "inception_4b/3x3_reduce"
  top: "inception_4b/3x3"
  param {
    lr_mult: 1
    decay_mult: 1
  }
  param {
    lr_mult: 2
    decay_mult: 0
  }
  convolution_param {
    num_output: 224
    pad: 1
    kernel_size: 3
    weight_filler {
      type: "xavier"
      std: 0.03
    }
    bias_filler {
      type: "constant"
      value: 0.2
    }
  }
}
layer {
  name: "inception_4b/relu_3x3"
  type: "ReLU"
  bottom: "inception_4b/3x3"
  top: "inception_4b/3x3"
}
layer {
  name: "inception_4b/5x5_reduce"
  type: "Convolution"
  bottom: "inception_4a/output"
  top: "inception_4b/5x5_reduce"
  param {
    lr_mult: 1
    decay_mult: 1
  }
  param {
    lr_mult: 2
    decay_mult: 0
  }
  convolution_param {
    num_output: 24
    kernel_size: 1
    weight_filler {
      type: "xavier"
      std: 0.2
    }
    bias_filler {
      type: "constant"
      value: 0.2
    }
  }
}
layer {
  name: "inception_4b/relu_5x5_reduce"
  type: "ReLU"
  bottom: "inception_4b/5x5_reduce"
  top: "inception_4b/5x5_reduce"
}
layer {
  name: "inception_4b/5x5"
  type: "Convolution"
  bottom: "inception_4b/5x5_reduce"
  top: "inception_4b/5x5"
  param {
    lr_mult: 1
    decay_mult: 1
  }
  param {
    lr_mult: 2
    decay_mult: 0
  }
  convolution_param {
    num_output: 64
    pad: 2
    kernel_size: 5
    weight_filler {
      type: "xavier"
      std: 0.03
    }
    bias_filler {
      type: "constant"
      value: 0.2
    }
  }
}
layer {
  name: "inception_4b/relu_5x5"
  type: "ReLU"
  bottom: "inception_4b/5x5"
  top: "inception_4b/5x5"
}
layer {
  name: "inception_4b/pool"
  type: "Pooling"
  bottom: "inception_4a/output"
  top: "inception_4b/pool"
  pooling_param {
    pool: MAX
    kernel_size: 3
    stride: 1
    pad: 1
  }
}
layer {
  name: "inception_4b/pool_proj"
  type: "Convolution"
  bottom: "inception_4b/pool"
  top: "inception_4b/pool_proj"
  param {
    lr_mult: 1
    decay_mult: 1
  }
  param {
    lr_mult: 2
    decay_mult: 0
  }
  convolution_param {
    num_output: 64
    kernel_size: 1
    weight_filler {
      type: "xavier"
      std: 0.1
    }
    bias_filler {
      type: "constant"
      value: 0.2
    }
  }
}
layer {
  name: "inception_4b/relu_pool_proj"
  type: "ReLU"
  bottom: "inception_4b/pool_proj"
  top: "inception_4b/pool_proj"
}
layer {
  name: "inception_4b/output"
  type: "Concat"
  bottom: "inception_4b/1x1"
  bottom: "inception_4b/3x3"
  bottom: "inception_4b/5x5"
  bottom: "inception_4b/pool_proj"
  top: "inception_4b/output"
}
layer {
  name: "inception_4c/1x1"
  type: "Convolution"
  bottom: "inception_4b/output"
  top: "inception_4c/1x1"
  param {
    lr_mult: 1
    decay_mult: 1
  }
  param {
    lr_mult: 2
    decay_mult: 0
  }
  convolution_param {
    num_output: 128
    kernel_size: 1
    weight_filler {
      type: "xavier"
      std: 0.03
    }
    bias_filler {
      type: "constant"
      value: 0.2
    }
  }
}
layer {
  name: "inception_4c/relu_1x1"
  type: "ReLU"
  bottom: "inception_4c/1x1"
  top: "inception_4c/1x1"
}
layer {
  name: "inception_4c/3x3_reduce"
  type: "Convolution"
  bottom: "inception_4b/output"
  top: "inception_4c/3x3_reduce"
  param {
    lr_mult: 1
    decay_mult: 1
  }
  param {
    lr_mult: 2
    decay_mult: 0
  }
  convolution_param {
    num_output: 128
    kernel_size: 1
    weight_filler {
      type: "xavier"
      std: 0.09
    }
    bias_filler {
      type: "constant"
      value: 0.2
    }
  }
}
layer {
  name: "inception_4c/relu_3x3_reduce"
  type: "ReLU"
  bottom: "inception_4c/3x3_reduce"
  top: "inception_4c/3x3_reduce"
}
layer {
  name: "inception_4c/3x3"
  type: "Convolution"
  bottom: "inception_4c/3x3_reduce"
  top: "inception_4c/3x3"
  param {
    lr_mult: 1
    decay_mult: 1
  }
  param {
    lr_mult: 2
    decay_mult: 0
  }
  convolution_param {
    num_output: 256
    pad: 1
    kernel_size: 3
    weight_filler {
      type: "xavier"
      std: 0.03
    }
    bias_filler {
      type: "constant"
      value: 0.2
    }
  }
}
layer {
  name: "inception_4c/relu_3x3"
  type: "ReLU"
  bottom: "inception_4c/3x3"
  top: "inception_4c/3x3"
}
layer {
  name: "inception_4c/5x5_reduce"
  type: "Convolution"
  bottom: "inception_4b/output"
  top: "inception_4c/5x5_reduce"
  param {
    lr_mult: 1
    decay_mult: 1
  }
  param {
    lr_mult: 2
    decay_mult: 0
  }
  convolution_param {
    num_output: 24
    kernel_size: 1
    weight_filler {
      type: "xavier"
      std: 0.2
    }
    bias_filler {
      type: "constant"
      value: 0.2
    }
  }
}
layer {
  name: "inception_4c/relu_5x5_reduce"
  type: "ReLU"
  bottom: "inception_4c/5x5_reduce"
  top: "inception_4c/5x5_reduce"
}
layer {
  name: "inception_4c/5x5"
  type: "Convolution"
  bottom: "inception_4c/5x5_reduce"
  top: "inception_4c/5x5"
  param {
    lr_mult: 1
    decay_mult: 1
  }
  param {
    lr_mult: 2
    decay_mult: 0
  }
  convolution_param {
    num_output: 64
    pad: 2
    kernel_size: 5
    weight_filler {
      type: "xavier"
      std: 0.03
    }
    bias_filler {
      type: "constant"
      value: 0.2
    }
  }
}
layer {
  name: "inception_4c/relu_5x5"
  type: "ReLU"
  bottom: "inception_4c/5x5"
  top: "inception_4c/5x5"
}
layer {
  name: "inception_4c/pool"
  type: "Pooling"
  bottom: "inception_4b/output"
  top: "inception_4c/pool"
  pooling_param {
    pool: MAX
    kernel_size: 3
    stride: 1
    pad: 1
  }
}
layer {
  name: "inception_4c/pool_proj"
  type: "Convolution"
  bottom: "inception_4c/pool"
  top: "inception_4c/pool_proj"
  param {
    lr_mult: 1
    decay_mult: 1
  }
  param {
    lr_mult: 2
    decay_mult: 0
  }
  convolution_param {
    num_output: 64
    kernel_size: 1
    weight_filler {
      type: "xavier"
      std: 0.1
    }
    bias_filler {
      type: "constant"
      value: 0.2
    }
  }
}
layer {
  name: "inception_4c/relu_pool_proj"
  type: "ReLU"
  bottom: "inception_4c/pool_proj"
  top: "inception_4c/pool_proj"
}
layer {
  name: "inception_4c/output"
  type: "Concat"
  bottom: "inception_4c/1x1"
  bottom: "inception_4c/3x3"
  bottom: "inception_4c/5x5"
  bottom: "inception_4c/pool_proj"
  top: "inception_4c/output"
}
layer {
  name: "inception_4d/1x1"
  type: "Convolution"
  bottom: "inception_4c/output"
  top: "inception_4d/1x1"
  param {
    lr_mult: 1
    decay_mult: 1
  }
  param {
    lr_mult: 2
    decay_mult: 0
  }
  convolution_param {
    num_output: 112
    kernel_size: 1
    weight_filler {
      type: "xavier"
      std: 0.03
    }
    bias_filler {
      type: "constant"
      value: 0.2
    }
  }
}
layer {
  name: "inception_4d/relu_1x1"
  type: "ReLU"
  bottom: "inception_4d/1x1"
  top: "inception_4d/1x1"
}
layer {
  name: "inception_4d/3x3_reduce"
  type: "Convolution"
  bottom: "inception_4c/output"
  top: "inception_4d/3x3_reduce"
  param {
    lr_mult: 1
    decay_mult: 1
  }
  param {
    lr_mult: 2
    decay_mult: 0
  }
  convolution_param {
    num_output: 144
    kernel_size: 1
    weight_filler {
      type: "xavier"
      std: 0.09
    }
    bias_filler {
      type: "constant"
      value: 0.2
    }
  }
}
layer {
  name: "inception_4d/relu_3x3_reduce"
  type: "ReLU"
  bottom: "inception_4d/3x3_reduce"
  top: "inception_4d/3x3_reduce"
}
layer {
  name: "inception_4d/3x3"
  type: "Convolution"
  bottom: "inception_4d/3x3_reduce"
  top: "inception_4d/3x3"
  param {
    lr_mult: 1
    decay_mult: 1
  }
  param {
    lr_mult: 2
    decay_mult: 0
  }
  convolution_param {
    num_output: 288
    pad: 1
    kernel_size: 3
    weight_filler {
      type: "xavier"
      std: 0.03
    }
    bias_filler {
      type: "constant"
      value: 0.2
    }
  }
}
layer {
  name: "inception_4d/relu_3x3"
  type: "ReLU"
  bottom: "inception_4d/3x3"
  top: "inception_4d/3x3"
}
layer {
  name: "inception_4d/5x5_reduce"
  type: "Convolution"
  bottom: "inception_4c/output"
  top: "inception_4d/5x5_reduce"
  param {
    lr_mult: 1
    decay_mult: 1
  }
  param {
    lr_mult: 2
    decay_mult: 0
  }
  convolution_param {
    num_output: 32
    kernel_size: 1
    weight_filler {
      type: "xavier"
      std: 0.2
    }
    bias_filler {
      type: "constant"
      value: 0.2
    }
  }
}
layer {
  name: "inception_4d/relu_5x5_reduce"
  type: "ReLU"
  bottom: "inception_4d/5x5_reduce"
  top: "inception_4d/5x5_reduce"
}
layer {
  name: "inception_4d/5x5"
  type: "Convolution"
  bottom: "inception_4d/5x5_reduce"
  top: "inception_4d/5x5"
  param {
    lr_mult: 1
    decay_mult: 1
  }
  param {
    lr_mult: 2
    decay_mult: 0
  }
  convolution_param {
    num_output: 64
    pad: 2
    kernel_size: 5
    weight_filler {
      type: "xavier"
      std: 0.03
    }
    bias_filler {
      type: "constant"
      value: 0.2
    }
  }
}
layer {
  name: "inception_4d/relu_5x5"
  type: "ReLU"
  bottom: "inception_4d/5x5"
  top: "inception_4d/5x5"
}
layer {
  name: "inception_4d/pool"
  type: "Pooling"
  bottom: "inception_4c/output"
  top: "inception_4d/pool"
  pooling_param {
    pool: MAX
    kernel_size: 3
    stride: 1
    pad: 1
  }
}
layer {
  name: "inception_4d/pool_proj"
  type: "Convolution"
  bottom: "inception_4d/pool"
  top: "inception_4d/pool_proj"
  param {
    lr_mult: 1
    decay_mult: 1
  }
  param {
    lr_mult: 2
    decay_mult: 0
  }
  convolution_param {
    num_output: 64
    kernel_size: 1
    weight_filler {
      type: "xavier"
      std: 0.1
    }
    bias_filler {
      type: "constant"
      value: 0.2
    }
  }
}
layer {
  name: "inception_4d/relu_pool_proj"
  type: "ReLU"
  bottom: "inception_4d/pool_proj"
  top: "inception_4d/pool_proj"
}
layer {
  name: "inception_4d/output"
  type: "Concat"
  bottom: "inception_4d/1x1"
  bottom: "inception_4d/3x3"
  bottom: "inception_4d/5x5"
  bottom: "inception_4d/pool_proj"
  top: "inception_4d/output"
}
layer {
  name: "loss2/ave_pool"
  type: "Pooling"
  bottom: "inception_4d/output"
  top: "loss2/ave_pool"
  pooling_param {
    pool: AVE
    kernel_size: 5
    stride: 3
  }
}
layer {
  name: "loss2/conv"
  type: "Convolution"
  bottom: "loss2/ave_pool"
  top: "loss2/conv"
  param {
    lr_mult: 1
    decay_mult: 1
  }
  param {
    lr_mult: 2
    decay_mult: 0
  }
  convolution_param {
    num_output: 128
    kernel_size: 1
    weight_filler {
      type: "xavier"
      std: 0.08
    }
    bias_filler {
      type: "constant"
      value: 0.2
    }
  }
}
layer {
  name: "loss2/relu_conv"
  type: "ReLU"
  bottom: "loss2/conv"
  top: "loss2/conv"
}
layer {
  name: "loss2/fc"
  type: "InnerProduct"
  bottom: "loss2/conv"
  top: "loss2/fc"
  param {
    lr_mult: 1
    decay_mult: 1
  }
  param {
    lr_mult: 2
    decay_mult: 0
  }
  inner_product_param {
    num_output: 1024
    weight_filler {
      type: "xavier"
      std: 0.02
    }
    bias_filler {
      type: "constant"
      value: 0.2
    }
  }
}
layer {
  name: "loss2/relu_fc"
  type: "ReLU"
  bottom: "loss2/fc"
  top: "loss2/fc"
}
layer {
  name: "loss2/drop_fc"
  type: "Dropout"
  bottom: "loss2/fc"
  top: "loss2/fc"
  dropout_param {
    dropout_ratio: 0.7
  }
}
layer {
  name: "loss2/classifier_plantvillage"
  type: "InnerProduct"
  bottom: "loss2/fc"
  top: "loss2/classifier_plantvillage"
  param {
    lr_mult: 1
    decay_mult: 1
  }
  param {
    lr_mult: 2
    decay_mult: 0
  }
  inner_product_param {
    num_output: 38
    weight_filler {
      type: "xavier"
      std: 0.0009765625
    }
    bias_filler {
      type: "constant"
      value: 0
    }
  }
}
layer {
  name: "inception_4e/1x1"
  type: "Convolution"
  bottom: "inception_4d/output"
  top: "inception_4e/1x1"
  param {
    lr_mult: 1
    decay_mult: 1
  }
  param {
    lr_mult: 2
    decay_mult: 0
  }
  convolution_param {
    num_output: 256
    kernel_size: 1
    weight_filler {
      type: "xavier"
      std: 0.03
    }
    bias_filler {
      type: "constant"
      value: 0.2
    }
  }
}
layer {
  name: "inception_4e/relu_1x1"
  type: "ReLU"
  bottom: "inception_4e/1x1"
  top: "inception_4e/1x1"
}
layer {
  name: "inception_4e/3x3_reduce"
  type: "Convolution"
  bottom: "inception_4d/output"
  top: "inception_4e/3x3_reduce"
  param {
    lr_mult: 1
    decay_mult: 1
  }
  param {
    lr_mult: 2
    decay_mult: 0
  }
  convolution_param {
    num_output: 160
    kernel_size: 1
    weight_filler {
      type: "xavier"
      std: 0.09
    }
    bias_filler {
      type: "constant"
      value: 0.2
    }
  }
}
layer {
  name: "inception_4e/relu_3x3_reduce"
  type: "ReLU"
  bottom: "inception_4e/3x3_reduce"
  top: "inception_4e/3x3_reduce"
}
layer {
  name: "inception_4e/3x3"
  type: "Convolution"
  bottom: "inception_4e/3x3_reduce"
  top: "inception_4e/3x3"
  param {
    lr_mult: 1
    decay_mult: 1
  }
  param {
    lr_mult: 2
    decay_mult: 0
  }
  convolution_param {
    num_output: 320
    pad: 1
    kernel_size: 3
    weight_filler {
      type: "xavier"
      std: 0.03
    }
    bias_filler {
      type: "constant"
      value: 0.2
    }
  }
}
layer {
  name: "inception_4e/relu_3x3"
  type: "ReLU"
  bottom: "inception_4e/3x3"
  top: "inception_4e/3x3"
}
layer {
  name: "inception_4e/5x5_reduce"
  type: "Convolution"
  bottom: "inception_4d/output"
  top: "inception_4e/5x5_reduce"
  param {
    lr_mult: 1
    decay_mult: 1
  }
  param {
    lr_mult: 2
    decay_mult: 0
  }
  convolution_param {
    num_output: 32
    kernel_size: 1
    weight_filler {
      type: "xavier"
      std: 0.2
    }
    bias_filler {
      type: "constant"
      value: 0.2
    }
  }
}
layer {
  name: "inception_4e/relu_5x5_reduce"
  type: "ReLU"
  bottom: "inception_4e/5x5_reduce"
  top: "inception_4e/5x5_reduce"
}
layer {
  name: "inception_4e/5x5"
  type: "Convolution"
  bottom: "inception_4e/5x5_reduce"
  top: "inception_4e/5x5"
  p
I0403 15:49:11.210875 14501 layer_factory.hpp:77] Creating layer data
I0403 15:49:11.211473 14501 net.cpp:91] Creating Layer data
I0403 15:49:11.211504 14501 net.cpp:399] data -> data
I0403 15:49:11.211555 14501 net.cpp:399] data -> label
I0403 15:49:11.211594 14501 data_transformer.cpp:25] Loading mean file from: /home/mohanty/data/final_dataset/lmdb/color-80-20/mean.binaryproto
I0403 15:49:11.214700 14505 db_lmdb.cpp:38] Opened lmdb /home/mohanty/data/final_dataset/lmdb/color-80-20/test_db
I0403 15:49:11.237551 14501 data_layer.cpp:41] output data size: 24,3,224,224
I0403 15:49:11.264996 14501 net.cpp:141] Setting up data
I0403 15:49:11.265074 14501 net.cpp:148] Top shape: 24 3 224 224 (3612672)
I0403 15:49:11.265097 14501 net.cpp:148] Top shape: 24 (24)
I0403 15:49:11.265113 14501 net.cpp:156] Memory required for data: 14450784
I0403 15:49:11.265148 14501 layer_factory.hpp:77] Creating layer label_data_1_split
I0403 15:49:11.265177 14501 net.cpp:91] Creating Layer label_data_1_split
I0403 15:49:11.265197 14501 net.cpp:425] label_data_1_split <- label
I0403 15:49:11.265226 14501 net.cpp:399] label_data_1_split -> label_data_1_split_0
I0403 15:49:11.265256 14501 net.cpp:399] label_data_1_split -> label_data_1_split_1
I0403 15:49:11.265277 14501 net.cpp:399] label_data_1_split -> label_data_1_split_2
I0403 15:49:11.265298 14501 net.cpp:399] label_data_1_split -> label_data_1_split_3
I0403 15:49:11.265319 14501 net.cpp:399] label_data_1_split -> label_data_1_split_4
I0403 15:49:11.265338 14501 net.cpp:399] label_data_1_split -> label_data_1_split_5
I0403 15:49:11.265357 14501 net.cpp:399] label_data_1_split -> label_data_1_split_6
I0403 15:49:11.265377 14501 net.cpp:399] label_data_1_split -> label_data_1_split_7
I0403 15:49:11.265396 14501 net.cpp:399] label_data_1_split -> label_data_1_split_8
I0403 15:49:11.265418 14501 net.cpp:399] label_data_1_split -> label_data_1_split_9
I0403 15:49:11.265533 14501 net.cpp:141] Setting up label_data_1_split
I0403 15:49:11.265559 14501 net.cpp:148] Top shape: 24 (24)
I0403 15:49:11.265578 14501 net.cpp:148] Top shape: 24 (24)
I0403 15:49:11.265593 14501 net.cpp:148] Top shape: 24 (24)
I0403 15:49:11.265609 14501 net.cpp:148] Top shape: 24 (24)
I0403 15:49:11.265624 14501 net.cpp:148] Top shape: 24 (24)
I0403 15:49:11.265638 14501 net.cpp:148] Top shape: 24 (24)
I0403 15:49:11.265655 14501 net.cpp:148] Top shape: 24 (24)
I0403 15:49:11.265669 14501 net.cpp:148] Top shape: 24 (24)
I0403 15:49:11.265686 14501 net.cpp:148] Top shape: 24 (24)
I0403 15:49:11.265702 14501 net.cpp:148] Top shape: 24 (24)
I0403 15:49:11.265745 14501 net.cpp:156] Memory required for data: 14451744
I0403 15:49:11.265763 14501 layer_factory.hpp:77] Creating layer conv1/7x7_s2
I0403 15:49:11.265794 14501 net.cpp:91] Creating Layer conv1/7x7_s2
I0403 15:49:11.265813 14501 net.cpp:425] conv1/7x7_s2 <- data
I0403 15:49:11.265833 14501 net.cpp:399] conv1/7x7_s2 -> conv1/7x7_s2
I0403 15:49:11.415024 14501 net.cpp:141] Setting up conv1/7x7_s2
I0403 15:49:11.415104 14501 net.cpp:148] Top shape: 24 64 112 112 (19267584)
I0403 15:49:11.415124 14501 net.cpp:156] Memory required for data: 91522080
I0403 15:49:11.415156 14501 layer_factory.hpp:77] Creating layer conv1/relu_7x7
I0403 15:49:11.415184 14501 net.cpp:91] Creating Layer conv1/relu_7x7
I0403 15:49:11.415205 14501 net.cpp:425] conv1/relu_7x7 <- conv1/7x7_s2
I0403 15:49:11.415225 14501 net.cpp:386] conv1/relu_7x7 -> conv1/7x7_s2 (in-place)
I0403 15:49:11.415491 14501 net.cpp:141] Setting up conv1/relu_7x7
I0403 15:49:11.415520 14501 net.cpp:148] Top shape: 24 64 112 112 (19267584)
I0403 15:49:11.415536 14501 net.cpp:156] Memory required for data: 168592416
I0403 15:49:11.415552 14501 layer_factory.hpp:77] Creating layer pool1/3x3_s2
I0403 15:49:11.415577 14501 net.cpp:91] Creating Layer pool1/3x3_s2
I0403 15:49:11.415596 14501 net.cpp:425] pool1/3x3_s2 <- conv1/7x7_s2
I0403 15:49:11.415614 14501 net.cpp:399] pool1/3x3_s2 -> pool1/3x3_s2
I0403 15:49:11.415688 14501 net.cpp:141] Setting up pool1/3x3_s2
I0403 15:49:11.415714 14501 net.cpp:148] Top shape: 24 64 56 56 (4816896)
I0403 15:49:11.415729 14501 net.cpp:156] Memory required for data: 187860000
I0403 15:49:11.415745 14501 layer_factory.hpp:77] Creating layer pool1/norm1
I0403 15:49:11.415769 14501 net.cpp:91] Creating Layer pool1/norm1
I0403 15:49:11.415787 14501 net.cpp:425] pool1/norm1 <- pool1/3x3_s2
I0403 15:49:11.415807 14501 net.cpp:399] pool1/norm1 -> pool1/norm1
I0403 15:49:11.416092 14501 net.cpp:141] Setting up pool1/norm1
I0403 15:49:11.416126 14501 net.cpp:148] Top shape: 24 64 56 56 (4816896)
I0403 15:49:11.416142 14501 net.cpp:156] Memory required for data: 207127584
I0403 15:49:11.416158 14501 layer_factory.hpp:77] Creating layer conv2/3x3_reduce
I0403 15:49:11.416183 14501 net.cpp:91] Creating Layer conv2/3x3_reduce
I0403 15:49:11.416203 14501 net.cpp:425] conv2/3x3_reduce <- pool1/norm1
I0403 15:49:11.416221 14501 net.cpp:399] conv2/3x3_reduce -> conv2/3x3_reduce
I0403 15:49:11.417552 14501 net.cpp:141] Setting up conv2/3x3_reduce
I0403 15:49:11.417584 14501 net.cpp:148] Top shape: 24 64 56 56 (4816896)
I0403 15:49:11.417600 14501 net.cpp:156] Memory required for data: 226395168
I0403 15:49:11.417623 14501 layer_factory.hpp:77] Creating layer conv2/relu_3x3_reduce
I0403 15:49:11.417641 14501 net.cpp:91] Creating Layer conv2/relu_3x3_reduce
I0403 15:49:11.417659 14501 net.cpp:425] conv2/relu_3x3_reduce <- conv2/3x3_reduce
I0403 15:49:11.417676 14501 net.cpp:386] conv2/relu_3x3_reduce -> conv2/3x3_reduce (in-place)
I0403 15:49:11.417938 14501 net.cpp:141] Setting up conv2/relu_3x3_reduce
I0403 15:49:11.417968 14501 net.cpp:148] Top shape: 24 64 56 56 (4816896)
I0403 15:49:11.417984 14501 net.cpp:156] Memory required for data: 245662752
I0403 15:49:11.417997 14501 layer_factory.hpp:77] Creating layer conv2/3x3
I0403 15:49:11.418020 14501 net.cpp:91] Creating Layer conv2/3x3
I0403 15:49:11.418037 14501 net.cpp:425] conv2/3x3 <- conv2/3x3_reduce
I0403 15:49:11.418056 14501 net.cpp:399] conv2/3x3 -> conv2/3x3
I0403 15:49:11.420373 14501 net.cpp:141] Setting up conv2/3x3
I0403 15:49:11.420405 14501 net.cpp:148] Top shape: 24 192 56 56 (14450688)
I0403 15:49:11.420423 14501 net.cpp:156] Memory required for data: 303465504
I0403 15:49:11.420444 14501 layer_factory.hpp:77] Creating layer conv2/relu_3x3
I0403 15:49:11.420464 14501 net.cpp:91] Creating Layer conv2/relu_3x3
I0403 15:49:11.420485 14501 net.cpp:425] conv2/relu_3x3 <- conv2/3x3
I0403 15:49:11.420502 14501 net.cpp:386] conv2/relu_3x3 -> conv2/3x3 (in-place)
I0403 15:49:11.420680 14501 net.cpp:141] Setting up conv2/relu_3x3
I0403 15:49:11.420707 14501 net.cpp:148] Top shape: 24 192 56 56 (14450688)
I0403 15:49:11.420755 14501 net.cpp:156] Memory required for data: 361268256
I0403 15:49:11.420773 14501 layer_factory.hpp:77] Creating layer conv2/norm2
I0403 15:49:11.420794 14501 net.cpp:91] Creating Layer conv2/norm2
I0403 15:49:11.420812 14501 net.cpp:425] conv2/norm2 <- conv2/3x3
I0403 15:49:11.420833 14501 net.cpp:399] conv2/norm2 -> conv2/norm2
I0403 15:49:11.421149 14501 net.cpp:141] Setting up conv2/norm2
I0403 15:49:11.421180 14501 net.cpp:148] Top shape: 24 192 56 56 (14450688)
I0403 15:49:11.421197 14501 net.cpp:156] Memory required for data: 419071008
I0403 15:49:11.421213 14501 layer_factory.hpp:77] Creating layer pool2/3x3_s2
I0403 15:49:11.421231 14501 net.cpp:91] Creating Layer pool2/3x3_s2
I0403 15:49:11.421247 14501 net.cpp:425] pool2/3x3_s2 <- conv2/norm2
I0403 15:49:11.421268 14501 net.cpp:399] pool2/3x3_s2 -> pool2/3x3_s2
I0403 15:49:11.421324 14501 net.cpp:141] Setting up pool2/3x3_s2
I0403 15:49:11.421347 14501 net.cpp:148] Top shape: 24 192 28 28 (3612672)
I0403 15:49:11.421362 14501 net.cpp:156] Memory required for data: 433521696
I0403 15:49:11.421376 14501 layer_factory.hpp:77] Creating layer pool2/3x3_s2_pool2/3x3_s2_0_split
I0403 15:49:11.421397 14501 net.cpp:91] Creating Layer pool2/3x3_s2_pool2/3x3_s2_0_split
I0403 15:49:11.421413 14501 net.cpp:425] pool2/3x3_s2_pool2/3x3_s2_0_split <- pool2/3x3_s2
I0403 15:49:11.421432 14501 net.cpp:399] pool2/3x3_s2_pool2/3x3_s2_0_split -> pool2/3x3_s2_pool2/3x3_s2_0_split_0
I0403 15:49:11.421452 14501 net.cpp:399] pool2/3x3_s2_pool2/3x3_s2_0_split -> pool2/3x3_s2_pool2/3x3_s2_0_split_1
I0403 15:49:11.421473 14501 net.cpp:399] pool2/3x3_s2_pool2/3x3_s2_0_split -> pool2/3x3_s2_pool2/3x3_s2_0_split_2
I0403 15:49:11.421497 14501 net.cpp:399] pool2/3x3_s2_pool2/3x3_s2_0_split -> pool2/3x3_s2_pool2/3x3_s2_0_split_3
I0403 15:49:11.421572 14501 net.cpp:141] Setting up pool2/3x3_s2_pool2/3x3_s2_0_split
I0403 15:49:11.421597 14501 net.cpp:148] Top shape: 24 192 28 28 (3612672)
I0403 15:49:11.421613 14501 net.cpp:148] Top shape: 24 192 28 28 (3612672)
I0403 15:49:11.421629 14501 net.cpp:148] Top shape: 24 192 28 28 (3612672)
I0403 15:49:11.421645 14501 net.cpp:148] Top shape: 24 192 28 28 (3612672)
I0403 15:49:11.421659 14501 net.cpp:156] Memory required for data: 491324448
I0403 15:49:11.421674 14501 layer_factory.hpp:77] Creating layer inception_3a/1x1
I0403 15:49:11.421696 14501 net.cpp:91] Creating Layer inception_3a/1x1
I0403 15:49:11.421717 14501 net.cpp:425] inception_3a/1x1 <- pool2/3x3_s2_pool2/3x3_s2_0_split_0
I0403 15:49:11.421739 14501 net.cpp:399] inception_3a/1x1 -> inception_3a/1x1
I0403 15:49:11.423305 14501 net.cpp:141] Setting up inception_3a/1x1
I0403 15:49:11.423336 14501 net.cpp:148] Top shape: 24 64 28 28 (1204224)
I0403 15:49:11.423352 14501 net.cpp:156] Memory required for data: 496141344
I0403 15:49:11.423372 14501 layer_factory.hpp:77] Creating layer inception_3a/relu_1x1
I0403 15:49:11.423390 14501 net.cpp:91] Creating Layer inception_3a/relu_1x1
I0403 15:49:11.423406 14501 net.cpp:425] inception_3a/relu_1x1 <- inception_3a/1x1
I0403 15:49:11.423426 14501 net.cpp:386] inception_3a/relu_1x1 -> inception_3a/1x1 (in-place)
I0403 15:49:11.423606 14501 net.cpp:141] Setting up inception_3a/relu_1x1
I0403 15:49:11.423634 14501 net.cpp:148] Top shape: 24 64 28 28 (1204224)
I0403 15:49:11.423648 14501 net.cpp:156] Memory required for data: 500958240
I0403 15:49:11.423665 14501 layer_factory.hpp:77] Creating layer inception_3a/3x3_reduce
I0403 15:49:11.423687 14501 net.cpp:91] Creating Layer inception_3a/3x3_reduce
I0403 15:49:11.423707 14501 net.cpp:425] inception_3a/3x3_reduce <- pool2/3x3_s2_pool2/3x3_s2_0_split_1
I0403 15:49:11.423728 14501 net.cpp:399] inception_3a/3x3_reduce -> inception_3a/3x3_reduce
I0403 15:49:11.425436 14501 net.cpp:141] Setting up inception_3a/3x3_reduce
I0403 15:49:11.425469 14501 net.cpp:148] Top shape: 24 96 28 28 (1806336)
I0403 15:49:11.425487 14501 net.cpp:156] Memory required for data: 508183584
I0403 15:49:11.425509 14501 layer_factory.hpp:77] Creating layer inception_3a/relu_3x3_reduce
I0403 15:49:11.425549 14501 net.cpp:91] Creating Layer inception_3a/relu_3x3_reduce
I0403 15:49:11.425567 14501 net.cpp:425] inception_3a/relu_3x3_reduce <- inception_3a/3x3_reduce
I0403 15:49:11.425585 14501 net.cpp:386] inception_3a/relu_3x3_reduce -> inception_3a/3x3_reduce (in-place)
I0403 15:49:11.425768 14501 net.cpp:141] Setting up inception_3a/relu_3x3_reduce
I0403 15:49:11.425797 14501 net.cpp:148] Top shape: 24 96 28 28 (1806336)
I0403 15:49:11.425814 14501 net.cpp:156] Memory required for data: 515408928
I0403 15:49:11.425830 14501 layer_factory.hpp:77] Creating layer inception_3a/3x3
I0403 15:49:11.425855 14501 net.cpp:91] Creating Layer inception_3a/3x3
I0403 15:49:11.425873 14501 net.cpp:425] inception_3a/3x3 <- inception_3a/3x3_reduce
I0403 15:49:11.425892 14501 net.cpp:399] inception_3a/3x3 -> inception_3a/3x3
I0403 15:49:11.427579 14501 net.cpp:141] Setting up inception_3a/3x3
I0403 15:49:11.427609 14501 net.cpp:148] Top shape: 24 128 28 28 (2408448)
I0403 15:49:11.427626 14501 net.cpp:156] Memory required for data: 525042720
I0403 15:49:11.427645 14501 layer_factory.hpp:77] Creating layer inception_3a/relu_3x3
I0403 15:49:11.427664 14501 net.cpp:91] Creating Layer inception_3a/relu_3x3
I0403 15:49:11.427680 14501 net.cpp:425] inception_3a/relu_3x3 <- inception_3a/3x3
I0403 15:49:11.427701 14501 net.cpp:386] inception_3a/relu_3x3 -> inception_3a/3x3 (in-place)
I0403 15:49:11.427985 14501 net.cpp:141] Setting up inception_3a/relu_3x3
I0403 15:49:11.428014 14501 net.cpp:148] Top shape: 24 128 28 28 (2408448)
I0403 15:49:11.428028 14501 net.cpp:156] Memory required for data: 534676512
I0403 15:49:11.428045 14501 layer_factory.hpp:77] Creating layer inception_3a/5x5_reduce
I0403 15:49:11.428069 14501 net.cpp:91] Creating Layer inception_3a/5x5_reduce
I0403 15:49:11.428089 14501 net.cpp:425] inception_3a/5x5_reduce <- pool2/3x3_s2_pool2/3x3_s2_0_split_2
I0403 15:49:11.428117 14501 net.cpp:399] inception_3a/5x5_reduce -> inception_3a/5x5_reduce
I0403 15:49:11.429107 14501 net.cpp:141] Setting up inception_3a/5x5_reduce
I0403 15:49:11.429136 14501 net.cpp:148] Top shape: 24 16 28 28 (301056)
I0403 15:49:11.429153 14501 net.cpp:156] Memory required for data: 535880736
I0403 15:49:11.429173 14501 layer_factory.hpp:77] Creating layer inception_3a/relu_5x5_reduce
I0403 15:49:11.429194 14501 net.cpp:91] Creating Layer inception_3a/relu_5x5_reduce
I0403 15:49:11.429214 14501 net.cpp:425] inception_3a/relu_5x5_reduce <- inception_3a/5x5_reduce
I0403 15:49:11.429231 14501 net.cpp:386] inception_3a/relu_5x5_reduce -> inception_3a/5x5_reduce (in-place)
I0403 15:49:11.429535 14501 net.cpp:141] Setting up inception_3a/relu_5x5_reduce
I0403 15:49:11.429563 14501 net.cpp:148] Top shape: 24 16 28 28 (301056)
I0403 15:49:11.429579 14501 net.cpp:156] Memory required for data: 537084960
I0403 15:49:11.429594 14501 layer_factory.hpp:77] Creating layer inception_3a/5x5
I0403 15:49:11.429620 14501 net.cpp:91] Creating Layer inception_3a/5x5
I0403 15:49:11.429638 14501 net.cpp:425] inception_3a/5x5 <- inception_3a/5x5_reduce
I0403 15:49:11.429657 14501 net.cpp:399] inception_3a/5x5 -> inception_3a/5x5
I0403 15:49:11.430686 14501 net.cpp:141] Setting up inception_3a/5x5
I0403 15:49:11.430716 14501 net.cpp:148] Top shape: 24 32 28 28 (602112)
I0403 15:49:11.430732 14501 net.cpp:156] Memory required for data: 539493408
I0403 15:49:11.430750 14501 layer_factory.hpp:77] Creating layer inception_3a/relu_5x5
I0403 15:49:11.430769 14501 net.cpp:91] Creating Layer inception_3a/relu_5x5
I0403 15:49:11.430786 14501 net.cpp:425] inception_3a/relu_5x5 <- inception_3a/5x5
I0403 15:49:11.430809 14501 net.cpp:386] inception_3a/relu_5x5 -> inception_3a/5x5 (in-place)
I0403 15:49:11.430989 14501 net.cpp:141] Setting up inception_3a/relu_5x5
I0403 15:49:11.431015 14501 net.cpp:148] Top shape: 24 32 28 28 (602112)
I0403 15:49:11.431030 14501 net.cpp:156] Memory required for data: 541901856
I0403 15:49:11.431046 14501 layer_factory.hpp:77] Creating layer inception_3a/pool
I0403 15:49:11.431066 14501 net.cpp:91] Creating Layer inception_3a/pool
I0403 15:49:11.431102 14501 net.cpp:425] inception_3a/pool <- pool2/3x3_s2_pool2/3x3_s2_0_split_3
I0403 15:49:11.431139 14501 net.cpp:399] inception_3a/pool -> inception_3a/pool
I0403 15:49:11.431205 14501 net.cpp:141] Setting up inception_3a/pool
I0403 15:49:11.431229 14501 net.cpp:148] Top shape: 24 192 28 28 (3612672)
I0403 15:49:11.431246 14501 net.cpp:156] Memory required for data: 556352544
I0403 15:49:11.431262 14501 layer_factory.hpp:77] Creating layer inception_3a/pool_proj
I0403 15:49:11.431285 14501 net.cpp:91] Creating Layer inception_3a/pool_proj
I0403 15:49:11.431304 14501 net.cpp:425] inception_3a/pool_proj <- inception_3a/pool
I0403 15:49:11.431327 14501 net.cpp:399] inception_3a/pool_proj -> inception_3a/pool_proj
I0403 15:49:11.432317 14501 net.cpp:141] Setting up inception_3a/pool_proj
I0403 15:49:11.432349 14501 net.cpp:148] Top shape: 24 32 28 28 (602112)
I0403 15:49:11.432368 14501 net.cpp:156] Memory required for data: 558760992
I0403 15:49:11.432390 14501 layer_factory.hpp:77] Creating layer inception_3a/relu_pool_proj
I0403 15:49:11.432412 14501 net.cpp:91] Creating Layer inception_3a/relu_pool_proj
I0403 15:49:11.432430 14501 net.cpp:425] inception_3a/relu_pool_proj <- inception_3a/pool_proj
I0403 15:49:11.432448 14501 net.cpp:386] inception_3a/relu_pool_proj -> inception_3a/pool_proj (in-place)
I0403 15:49:11.432729 14501 net.cpp:141] Setting up inception_3a/relu_pool_proj
I0403 15:49:11.432756 14501 net.cpp:148] Top shape: 24 32 28 28 (602112)
I0403 15:49:11.432772 14501 net.cpp:156] Memory required for data: 561169440
I0403 15:49:11.432788 14501 layer_factory.hpp:77] Creating layer inception_3a/output
I0403 15:49:11.432806 14501 net.cpp:91] Creating Layer inception_3a/output
I0403 15:49:11.432823 14501 net.cpp:425] inception_3a/output <- inception_3a/1x1
I0403 15:49:11.432840 14501 net.cpp:425] inception_3a/output <- inception_3a/3x3
I0403 15:49:11.432857 14501 net.cpp:425] inception_3a/output <- inception_3a/5x5
I0403 15:49:11.432873 14501 net.cpp:425] inception_3a/output <- inception_3a/pool_proj
I0403 15:49:11.432891 14501 net.cpp:399] inception_3a/output -> inception_3a/output
I0403 15:49:11.432940 14501 net.cpp:141] Setting up inception_3a/output
I0403 15:49:11.432968 14501 net.cpp:148] Top shape: 24 256 28 28 (4816896)
I0403 15:49:11.432986 14501 net.cpp:156] Memory required for data: 580437024
I0403 15:49:11.432999 14501 layer_factory.hpp:77] Creating layer inception_3a/output_inception_3a/output_0_split
I0403 15:49:11.433017 14501 net.cpp:91] Creating Layer inception_3a/output_inception_3a/output_0_split
I0403 15:49:11.433032 14501 net.cpp:425] inception_3a/output_inception_3a/output_0_split <- inception_3a/output
I0403 15:49:11.433050 14501 net.cpp:399] inception_3a/output_inception_3a/output_0_split -> inception_3a/output_inception_3a/output_0_split_0
I0403 15:49:11.433073 14501 net.cpp:399] inception_3a/output_inception_3a/output_0_split -> inception_3a/output_inception_3a/output_0_split_1
I0403 15:49:11.433107 14501 net.cpp:399] inception_3a/output_inception_3a/output_0_split -> inception_3a/output_inception_3a/output_0_split_2
I0403 15:49:11.433133 14501 net.cpp:399] inception_3a/output_inception_3a/output_0_split -> inception_3a/output_inception_3a/output_0_split_3
I0403 15:49:11.433212 14501 net.cpp:141] Setting up inception_3a/output_inception_3a/output_0_split
I0403 15:49:11.433238 14501 net.cpp:148] Top shape: 24 256 28 28 (4816896)
I0403 15:49:11.433257 14501 net.cpp:148] Top shape: 24 256 28 28 (4816896)
I0403 15:49:11.433274 14501 net.cpp:148] Top shape: 24 256 28 28 (4816896)
I0403 15:49:11.433290 14501 net.cpp:148] Top shape: 24 256 28 28 (4816896)
I0403 15:49:11.433303 14501 net.cpp:156] Memory required for data: 657507360
I0403 15:49:11.433318 14501 layer_factory.hpp:77] Creating layer inception_3b/1x1
I0403 15:49:11.433341 14501 net.cpp:91] Creating Layer inception_3b/1x1
I0403 15:49:11.433359 14501 net.cpp:425] inception_3b/1x1 <- inception_3a/output_inception_3a/output_0_split_0
I0403 15:49:11.433382 14501 net.cpp:399] inception_3b/1x1 -> inception_3b/1x1
I0403 15:49:11.434536 14501 net.cpp:141] Setting up inception_3b/1x1
I0403 15:49:11.434581 14501 net.cpp:148] Top shape: 24 128 28 28 (2408448)
I0403 15:49:11.434599 14501 net.cpp:156] Memory required for data: 667141152
I0403 15:49:11.434619 14501 layer_factory.hpp:77] Creating layer inception_3b/relu_1x1
I0403 15:49:11.434639 14501 net.cpp:91] Creating Layer inception_3b/relu_1x1
I0403 15:49:11.434656 14501 net.cpp:425] inception_3b/relu_1x1 <- inception_3b/1x1
I0403 15:49:11.434677 14501 net.cpp:386] inception_3b/relu_1x1 -> inception_3b/1x1 (in-place)
I0403 15:49:11.434857 14501 net.cpp:141] Setting up inception_3b/relu_1x1
I0403 15:49:11.434885 14501 net.cpp:148] Top shape: 24 128 28 28 (2408448)
I0403 15:49:11.434900 14501 net.cpp:156] Memory required for data: 676774944
I0403 15:49:11.434916 14501 layer_factory.hpp:77] Creating layer inception_3b/3x3_reduce
I0403 15:49:11.434938 14501 net.cpp:91] Creating Layer inception_3b/3x3_reduce
I0403 15:49:11.434957 14501 net.cpp:425] inception_3b/3x3_reduce <- inception_3a/output_inception_3a/output_0_split_1
I0403 15:49:11.434979 14501 net.cpp:399] inception_3b/3x3_reduce -> inception_3b/3x3_reduce
I0403 15:49:11.436141 14501 net.cpp:141] Setting up inception_3b/3x3_reduce
I0403 15:49:11.436173 14501 net.cpp:148] Top shape: 24 128 28 28 (2408448)
I0403 15:49:11.436192 14501 net.cpp:156] Memory required for data: 686408736
I0403 15:49:11.436213 14501 layer_factory.hpp:77] Creating layer inception_3b/relu_3x3_reduce
I0403 15:49:11.436231 14501 net.cpp:91] Creating Layer inception_3b/relu_3x3_reduce
I0403 15:49:11.436249 14501 net.cpp:425] inception_3b/relu_3x3_reduce <- inception_3b/3x3_reduce
I0403 15:49:11.436269 14501 net.cpp:386] inception_3b/relu_3x3_reduce -> inception_3b/3x3_reduce (in-place)
I0403 15:49:11.436447 14501 net.cpp:141] Setting up inception_3b/relu_3x3_reduce
I0403 15:49:11.436475 14501 net.cpp:148] Top shape: 24 128 28 28 (2408448)
I0403 15:49:11.436489 14501 net.cpp:156] Memory required for data: 696042528
I0403 15:49:11.436506 14501 layer_factory.hpp:77] Creating layer inception_3b/3x3
I0403 15:49:11.436532 14501 net.cpp:91] Creating Layer inception_3b/3x3
I0403 15:49:11.436553 14501 net.cpp:425] inception_3b/3x3 <- inception_3b/3x3_reduce
I0403 15:49:11.436571 14501 net.cpp:399] inception_3b/3x3 -> inception_3b/3x3
I0403 15:49:11.439522 14501 net.cpp:141] Setting up inception_3b/3x3
I0403 15:49:11.439553 14501 net.cpp:148] Top shape: 24 192 28 28 (3612672)
I0403 15:49:11.439569 14501 net.cpp:156] Memory required for data: 710493216
I0403 15:49:11.439589 14501 layer_factory.hpp:77] Creating layer inception_3b/relu_3x3
I0403 15:49:11.439607 14501 net.cpp:91] Creating Layer inception_3b/relu_3x3
I0403 15:49:11.439625 14501 net.cpp:425] inception_3b/relu_3x3 <- inception_3b/3x3
I0403 15:49:11.439649 14501 net.cpp:386] inception_3b/relu_3x3 -> inception_3b/3x3 (in-place)
I0403 15:49:11.439931 14501 net.cpp:141] Setting up inception_3b/relu_3x3
I0403 15:49:11.439960 14501 net.cpp:148] Top shape: 24 192 28 28 (3612672)
I0403 15:49:11.439975 14501 net.cpp:156] Memory required for data: 724943904
I0403 15:49:11.439991 14501 layer_factory.hpp:77] Creating layer inception_3b/5x5_reduce
I0403 15:49:11.440014 14501 net.cpp:91] Creating Layer inception_3b/5x5_reduce
I0403 15:49:11.440032 14501 net.cpp:425] inception_3b/5x5_reduce <- inception_3a/output_inception_3a/output_0_split_2
I0403 15:49:11.440055 14501 net.cpp:399] inception_3b/5x5_reduce -> inception_3b/5x5_reduce
I0403 15:49:11.441074 14501 net.cpp:141] Setting up inception_3b/5x5_reduce
I0403 15:49:11.441108 14501 net.cpp:148] Top shape: 24 32 28 28 (602112)
I0403 15:49:11.441126 14501 net.cpp:156] Memory required for data: 727352352
I0403 15:49:11.441145 14501 layer_factory.hpp:77] Creating layer inception_3b/relu_5x5_reduce
I0403 15:49:11.441164 14501 net.cpp:91] Creating Layer inception_3b/relu_5x5_reduce
I0403 15:49:11.441180 14501 net.cpp:425] inception_3b/relu_5x5_reduce <- inception_3b/5x5_reduce
I0403 15:49:11.441201 14501 net.cpp:386] inception_3b/relu_5x5_reduce -> inception_3b/5x5_reduce (in-place)
I0403 15:49:11.441381 14501 net.cpp:141] Setting up inception_3b/relu_5x5_reduce
I0403 15:49:11.441421 14501 net.cpp:148] Top shape: 24 32 28 28 (602112)
I0403 15:49:11.441437 14501 net.cpp:156] Memory required for data: 729760800
I0403 15:49:11.441452 14501 layer_factory.hpp:77] Creating layer inception_3b/5x5
I0403 15:49:11.441476 14501 net.cpp:91] Creating Layer inception_3b/5x5
I0403 15:49:11.441494 14501 net.cpp:425] inception_3b/5x5 <- inception_3b/5x5_reduce
I0403 15:49:11.441516 14501 net.cpp:399] inception_3b/5x5 -> inception_3b/5x5
I0403 15:49:11.443570 14501 net.cpp:141] Setting up inception_3b/5x5
I0403 15:49:11.443603 14501 net.cpp:148] Top shape: 24 96 28 28 (1806336)
I0403 15:49:11.443621 14501 net.cpp:156] Memory required for data: 736986144
I0403 15:49:11.443640 14501 layer_factory.hpp:77] Creating layer inception_3b/relu_5x5
I0403 15:49:11.443660 14501 net.cpp:91] Creating Layer inception_3b/relu_5x5
I0403 15:49:11.443677 14501 net.cpp:425] inception_3b/relu_5x5 <- inception_3b/5x5
I0403 15:49:11.443697 14501 net.cpp:386] inception_3b/relu_5x5 -> inception_3b/5x5 (in-place)
I0403 15:49:11.443897 14501 net.cpp:141] Setting up inception_3b/relu_5x5
I0403 15:49:11.443923 14501 net.cpp:148] Top shape: 24 96 28 28 (1806336)
I0403 15:49:11.443938 14501 net.cpp:156] Memory required for data: 744211488
I0403 15:49:11.443953 14501 layer_factory.hpp:77] Creating layer inception_3b/pool
I0403 15:49:11.443971 14501 net.cpp:91] Creating Layer inception_3b/pool
I0403 15:49:11.443987 14501 net.cpp:425] inception_3b/pool <- inception_3a/output_inception_3a/output_0_split_3
I0403 15:49:11.444006 14501 net.cpp:399] inception_3b/pool -> inception_3b/pool
I0403 15:49:11.444068 14501 net.cpp:141] Setting up inception_3b/pool
I0403 15:49:11.444097 14501 net.cpp:148] Top shape: 24 256 28 28 (4816896)
I0403 15:49:11.444116 14501 net.cpp:156] Memory required for data: 763479072
I0403 15:49:11.444131 14501 layer_factory.hpp:77] Creating layer inception_3b/pool_proj
I0403 15:49:11.444154 14501 net.cpp:91] Creating Layer inception_3b/pool_proj
I0403 15:49:11.444174 14501 net.cpp:425] inception_3b/pool_proj <- inception_3b/pool
I0403 15:49:11.444195 14501 net.cpp:399] inception_3b/pool_proj -> inception_3b/pool_proj
I0403 15:49:11.445279 14501 net.cpp:141] Setting up inception_3b/pool_proj
I0403 15:49:11.445308 14501 net.cpp:148] Top shape: 24 64 28 28 (1204224)
I0403 15:49:11.445324 14501 net.cpp:156] Memory required for data: 768295968
I0403 15:49:11.445343 14501 layer_factory.hpp:77] Creating layer inception_3b/relu_pool_proj
I0403 15:49:11.445364 14501 net.cpp:91] Creating Layer inception_3b/relu_pool_proj
I0403 15:49:11.445384 14501 net.cpp:425] inception_3b/relu_pool_proj <- inception_3b/pool_proj
I0403 15:49:11.445401 14501 net.cpp:386] inception_3b/relu_pool_proj -> inception_3b/pool_proj (in-place)
I0403 15:49:11.445801 14501 net.cpp:141] Setting up inception_3b/relu_pool_proj
I0403 15:49:11.445829 14501 net.cpp:148] Top shape: 24 64 28 28 (1204224)
I0403 15:49:11.445845 14501 net.cpp:156] Memory required for data: 773112864
I0403 15:49:11.445860 14501 layer_factory.hpp:77] Creating layer inception_3b/output
I0403 15:49:11.445878 14501 net.cpp:91] Creating Layer inception_3b/output
I0403 15:49:11.445895 14501 net.cpp:425] inception_3b/output <- inception_3b/1x1
I0403 15:49:11.445915 14501 net.cpp:425] inception_3b/output <- inception_3b/3x3
I0403 15:49:11.445933 14501 net.cpp:425] inception_3b/output <- inception_3b/5x5
I0403 15:49:11.445950 14501 net.cpp:425] inception_3b/output <- inception_3b/pool_proj
I0403 15:49:11.445967 14501 net.cpp:399] inception_3b/output -> inception_3b/output
I0403 15:49:11.446013 14501 net.cpp:141] Setting up inception_3b/output
I0403 15:49:11.446038 14501 net.cpp:148] Top shape: 24 480 28 28 (9031680)
I0403 15:49:11.446053 14501 net.cpp:156] Memory required for data: 809239584
I0403 15:49:11.446069 14501 layer_factory.hpp:77] Creating layer pool3/3x3_s2
I0403 15:49:11.446086 14501 net.cpp:91] Creating Layer pool3/3x3_s2
I0403 15:49:11.446107 14501 net.cpp:425] pool3/3x3_s2 <- inception_3b/output
I0403 15:49:11.446130 14501 net.cpp:399] pool3/3x3_s2 -> pool3/3x3_s2
I0403 15:49:11.446203 14501 net.cpp:141] Setting up pool3/3x3_s2
I0403 15:49:11.446229 14501 net.cpp:148] Top shape: 24 480 14 14 (2257920)
I0403 15:49:11.446244 14501 net.cpp:156] Memory required for data: 818271264
I0403 15:49:11.446259 14501 layer_factory.hpp:77] Creating layer pool3/3x3_s2_pool3/3x3_s2_0_split
I0403 15:49:11.446280 14501 net.cpp:91] Creating Layer pool3/3x3_s2_pool3/3x3_s2_0_split
I0403 15:49:11.446296 14501 net.cpp:425] pool3/3x3_s2_pool3/3x3_s2_0_split <- pool3/3x3_s2
I0403 15:49:11.446315 14501 net.cpp:399] pool3/3x3_s2_pool3/3x3_s2_0_split -> pool3/3x3_s2_pool3/3x3_s2_0_split_0
I0403 15:49:11.446338 14501 net.cpp:399] pool3/3x3_s2_pool3/3x3_s2_0_split -> pool3/3x3_s2_pool3/3x3_s2_0_split_1
I0403 15:49:11.446359 14501 net.cpp:399] pool3/3x3_s2_pool3/3x3_s2_0_split -> pool3/3x3_s2_pool3/3x3_s2_0_split_2
I0403 15:49:11.446378 14501 net.cpp:399] pool3/3x3_s2_pool3/3x3_s2_0_split -> pool3/3x3_s2_pool3/3x3_s2_0_split_3
I0403 15:49:11.446455 14501 net.cpp:141] Setting up pool3/3x3_s2_pool3/3x3_s2_0_split
I0403 15:49:11.446480 14501 net.cpp:148] Top shape: 24 480 14 14 (2257920)
I0403 15:49:11.446496 14501 net.cpp:148] Top shape: 24 480 14 14 (2257920)
I0403 15:49:11.446512 14501 net.cpp:148] Top shape: 24 480 14 14 (2257920)
I0403 15:49:11.446527 14501 net.cpp:148] Top shape: 24 480 14 14 (2257920)
I0403 15:49:11.446542 14501 net.cpp:156] Memory required for data: 854397984
I0403 15:49:11.446557 14501 layer_factory.hpp:77] Creating layer inception_4a/1x1
I0403 15:49:11.446580 14501 net.cpp:91] Creating Layer inception_4a/1x1
I0403 15:49:11.446599 14501 net.cpp:425] inception_4a/1x1 <- pool3/3x3_s2_pool3/3x3_s2_0_split_0
I0403 15:49:11.446620 14501 net.cpp:399] inception_4a/1x1 -> inception_4a/1x1
I0403 15:49:11.448230 14501 net.cpp:141] Setting up inception_4a/1x1
I0403 15:49:11.448261 14501 net.cpp:148] Top shape: 24 192 14 14 (903168)
I0403 15:49:11.448279 14501 net.cpp:156] Memory required for data: 858010656
I0403 15:49:11.448298 14501 layer_factory.hpp:77] Creating layer inception_4a/relu_1x1
I0403 15:49:11.448317 14501 net.cpp:91] Creating Layer inception_4a/relu_1x1
I0403 15:49:11.448333 14501 net.cpp:425] inception_4a/relu_1x1 <- inception_4a/1x1
I0403 15:49:11.448351 14501 net.cpp:386] inception_4a/relu_1x1 -> inception_4a/1x1 (in-place)
I0403 15:49:11.448532 14501 net.cpp:141] Setting up inception_4a/relu_1x1
I0403 15:49:11.448561 14501 net.cpp:148] Top shape: 24 192 14 14 (903168)
I0403 15:49:11.448578 14501 net.cpp:156] Memory required for data: 861623328
I0403 15:49:11.448595 14501 layer_factory.hpp:77] Creating layer inception_4a/3x3_reduce
I0403 15:49:11.448617 14501 net.cpp:91] Creating Layer inception_4a/3x3_reduce
I0403 15:49:11.448637 14501 net.cpp:425] inception_4a/3x3_reduce <- pool3/3x3_s2_pool3/3x3_s2_0_split_1
I0403 15:49:11.448655 14501 net.cpp:399] inception_4a/3x3_reduce -> inception_4a/3x3_reduce
I0403 15:49:11.449959 14501 net.cpp:141] Setting up inception_4a/3x3_reduce
I0403 15:49:11.449988 14501 net.cpp:148] Top shape: 24 96 14 14 (451584)
I0403 15:49:11.450004 14501 net.cpp:156] Memory required for data: 863429664
I0403 15:49:11.450031 14501 layer_factory.hpp:77] Creating layer inception_4a/relu_3x3_reduce
I0403 15:49:11.450052 14501 net.cpp:91] Creating Layer inception_4a/relu_3x3_reduce
I0403 15:49:11.450070 14501 net.cpp:425] inception_4a/relu_3x3_reduce <- inception_4a/3x3_reduce
I0403 15:49:11.450088 14501 net.cpp:386] inception_4a/relu_3x3_reduce -> inception_4a/3x3_reduce (in-place)
I0403 15:49:11.450279 14501 net.cpp:141] Setting up inception_4a/relu_3x3_reduce
I0403 15:49:11.450309 14501 net.cpp:148] Top shape: 24 96 14 14 (451584)
I0403 15:49:11.450325 14501 net.cpp:156] Memory required for data: 865236000
I0403 15:49:11.450340 14501 layer_factory.hpp:77] Creating layer inception_4a/3x3
I0403 15:49:11.450363 14501 net.cpp:91] Creating Layer inception_4a/3x3
I0403 15:49:11.450381 14501 net.cpp:425] inception_4a/3x3 <- inception_4a/3x3_reduce
I0403 15:49:11.450400 14501 net.cpp:399] inception_4a/3x3 -> inception_4a/3x3
I0403 15:49:11.453141 14501 net.cpp:141] Setting up inception_4a/3x3
I0403 15:49:11.453171 14501 net.cpp:148] Top shape: 24 208 14 14 (978432)
I0403 15:49:11.453188 14501 net.cpp:156] Memory required for data: 869149728
I0403 15:49:11.453208 14501 layer_factory.hpp:77] Creating layer inception_4a/relu_3x3
I0403 15:49:11.453227 14501 net.cpp:91] Creating Layer inception_4a/relu_3x3
I0403 15:49:11.453244 14501 net.cpp:425] inception_4a/relu_3x3 <- inception_4a/3x3
I0403 15:49:11.453265 14501 net.cpp:386] inception_4a/relu_3x3 -> inception_4a/3x3 (in-place)
I0403 15:49:11.453552 14501 net.cpp:141] Setting up inception_4a/relu_3x3
I0403 15:49:11.453580 14501 net.cpp:148] Top shape: 24 208 14 14 (978432)
I0403 15:49:11.453596 14501 net.cpp:156] Memory required for data: 873063456
I0403 15:49:11.453613 14501 layer_factory.hpp:77] Creating layer inception_4a/5x5_reduce
I0403 15:49:11.453637 14501 net.cpp:91] Creating Layer inception_4a/5x5_reduce
I0403 15:49:11.453656 14501 net.cpp:425] inception_4a/5x5_reduce <- pool3/3x3_s2_pool3/3x3_s2_0_split_2
I0403 15:49:11.453680 14501 net.cpp:399] inception_4a/5x5_reduce -> inception_4a/5x5_reduce
I0403 15:49:11.454727 14501 net.cpp:141] Setting up inception_4a/5x5_reduce
I0403 15:49:11.454757 14501 net.cpp:148] Top shape: 24 16 14 14 (75264)
I0403 15:49:11.454773 14501 net.cpp:156] Memory required for data: 873364512
I0403 15:49:11.454792 14501 layer_factory.hpp:77] Creating layer inception_4a/relu_5x5_reduce
I0403 15:49:11.454810 14501 net.cpp:91] Creating Layer inception_4a/relu_5x5_reduce
I0403 15:49:11.454828 14501 net.cpp:425] inception_4a/relu_5x5_reduce <- inception_4a/5x5_reduce
I0403 15:49:11.454849 14501 net.cpp:386] inception_4a/relu_5x5_reduce -> inception_4a/5x5_reduce (in-place)
I0403 15:49:11.455034 14501 net.cpp:141] Setting up inception_4a/relu_5x5_reduce
I0403 15:49:11.455060 14501 net.cpp:148] Top shape: 24 16 14 14 (75264)
I0403 15:49:11.455076 14501 net.cpp:156] Memory required for data: 873665568
I0403 15:49:11.455092 14501 layer_factory.hpp:77] Creating layer inception_4a/5x5
I0403 15:49:11.455134 14501 net.cpp:91] Creating Layer inception_4a/5x5
I0403 15:49:11.455153 14501 net.cpp:425] inception_4a/5x5 <- inception_4a/5x5_reduce
I0403 15:49:11.455176 14501 net.cpp:399] inception_4a/5x5 -> inception_4a/5x5
I0403 15:49:11.456305 14501 net.cpp:141] Setting up inception_4a/5x5
I0403 15:49:11.456334 14501 net.cpp:148] Top shape: 24 48 14 14 (225792)
I0403 15:49:11.456351 14501 net.cpp:156] Memory required for data: 874568736
I0403 15:49:11.456369 14501 layer_factory.hpp:77] Creating layer inception_4a/relu_5x5
I0403 15:49:11.456392 14501 net.cpp:91] Creating Layer inception_4a/relu_5x5
I0403 15:49:11.456410 14501 net.cpp:425] inception_4a/relu_5x5 <- inception_4a/5x5
I0403 15:49:11.456428 14501 net.cpp:386] inception_4a/relu_5x5 -> inception_4a/5x5 (in-place)
I0403 15:49:11.456611 14501 net.cpp:141] Setting up inception_4a/relu_5x5
I0403 15:49:11.456640 14501 net.cpp:148] Top shape: 24 48 14 14 (225792)
I0403 15:49:11.456656 14501 net.cpp:156] Memory required for data: 875471904
I0403 15:49:11.456673 14501 layer_factory.hpp:77] Creating layer inception_4a/pool
I0403 15:49:11.456691 14501 net.cpp:91] Creating Layer inception_4a/pool
I0403 15:49:11.456707 14501 net.cpp:425] inception_4a/pool <- pool3/3x3_s2_pool3/3x3_s2_0_split_3
I0403 15:49:11.456725 14501 net.cpp:399] inception_4a/pool -> inception_4a/pool
I0403 15:49:11.456789 14501 net.cpp:141] Setting up inception_4a/pool
I0403 15:49:11.456815 14501 net.cpp:148] Top shape: 24 480 14 14 (2257920)
I0403 15:49:11.456830 14501 net.cpp:156] Memory required for data: 884503584
I0403 15:49:11.456845 14501 layer_factory.hpp:77] Creating layer inception_4a/pool_proj
I0403 15:49:11.456868 14501 net.cpp:91] Creating Layer inception_4a/pool_proj
I0403 15:49:11.456887 14501 net.cpp:425] inception_4a/pool_proj <- inception_4a/pool
I0403 15:49:11.456910 14501 net.cpp:399] inception_4a/pool_proj -> inception_4a/pool_proj
I0403 15:49:11.458120 14501 net.cpp:141] Setting up inception_4a/pool_proj
I0403 15:49:11.458149 14501 net.cpp:148] Top shape: 24 64 14 14 (301056)
I0403 15:49:11.458180 14501 net.cpp:156] Memory required for data: 885707808
I0403 15:49:11.458202 14501 layer_factory.hpp:77] Creating layer inception_4a/relu_pool_proj
I0403 15:49:11.458225 14501 net.cpp:91] Creating Layer inception_4a/relu_pool_proj
I0403 15:49:11.458242 14501 net.cpp:425] inception_4a/relu_pool_proj <- inception_4a/pool_proj
I0403 15:49:11.458261 14501 net.cpp:386] inception_4a/relu_pool_proj -> inception_4a/pool_proj (in-place)
I0403 15:49:11.458552 14501 net.cpp:141] Setting up inception_4a/relu_pool_proj
I0403 15:49:11.458580 14501 net.cpp:148] Top shape: 24 64 14 14 (301056)
I0403 15:49:11.458596 14501 net.cpp:156] Memory required for data: 886912032
I0403 15:49:11.458612 14501 layer_factory.hpp:77] Creating layer inception_4a/output
I0403 15:49:11.458632 14501 net.cpp:91] Creating Layer inception_4a/output
I0403 15:49:11.458649 14501 net.cpp:425] inception_4a/output <- inception_4a/1x1
I0403 15:49:11.458665 14501 net.cpp:425] inception_4a/output <- inception_4a/3x3
I0403 15:49:11.458683 14501 net.cpp:425] inception_4a/output <- inception_4a/5x5
I0403 15:49:11.458699 14501 net.cpp:425] inception_4a/output <- inception_4a/pool_proj
I0403 15:49:11.458716 14501 net.cpp:399] inception_4a/output -> inception_4a/output
I0403 15:49:11.458763 14501 net.cpp:141] Setting up inception_4a/output
I0403 15:49:11.458788 14501 net.cpp:148] Top shape: 24 512 14 14 (2408448)
I0403 15:49:11.458804 14501 net.cpp:156] Memory required for data: 896545824
I0403 15:49:11.458819 14501 layer_factory.hpp:77] Creating layer inception_4a/output_inception_4a/output_0_split
I0403 15:49:11.458837 14501 net.cpp:91] Creating Layer inception_4a/output_inception_4a/output_0_split
I0403 15:49:11.458853 14501 net.cpp:425] inception_4a/output_inception_4a/output_0_split <- inception_4a/output
I0403 15:49:11.458873 14501 net.cpp:399] inception_4a/output_inception_4a/output_0_split -> inception_4a/output_inception_4a/output_0_split_0
I0403 15:49:11.458896 14501 net.cpp:399] inception_4a/output_inception_4a/output_0_split -> inception_4a/output_inception_4a/output_0_split_1
I0403 15:49:11.458919 14501 net.cpp:399] inception_4a/output_inception_4a/output_0_split -> inception_4a/output_inception_4a/output_0_split_2
I0403 15:49:11.458940 14501 net.cpp:399] inception_4a/output_inception_4a/output_0_split -> inception_4a/output_inception_4a/output_0_split_3
I0403 15:49:11.458963 14501 net.cpp:399] inception_4a/output_inception_4a/output_0_split -> inception_4a/output_inception_4a/output_0_split_4
I0403 15:49:11.459059 14501 net.cpp:141] Setting up inception_4a/output_inception_4a/output_0_split
I0403 15:49:11.459084 14501 net.cpp:148] Top shape: 24 512 14 14 (2408448)
I0403 15:49:11.459105 14501 net.cpp:148] Top shape: 24 512 14 14 (2408448)
I0403 15:49:11.459123 14501 net.cpp:148] Top shape: 24 512 14 14 (2408448)
I0403 15:49:11.459138 14501 net.cpp:148] Top shape: 24 512 14 14 (2408448)
I0403 15:49:11.459154 14501 net.cpp:148] Top shape: 24 512 14 14 (2408448)
I0403 15:49:11.459169 14501 net.cpp:156] Memory required for data: 944714784
I0403 15:49:11.459184 14501 layer_factory.hpp:77] Creating layer loss1/ave_pool
I0403 15:49:11.459203 14501 net.cpp:91] Creating Layer loss1/ave_pool
I0403 15:49:11.459219 14501 net.cpp:425] loss1/ave_pool <- inception_4a/output_inception_4a/output_0_split_0
I0403 15:49:11.459239 14501 net.cpp:399] loss1/ave_pool -> loss1/ave_pool
I0403 15:49:11.459460 14501 net.cpp:141] Setting up loss1/ave_pool
I0403 15:49:11.459487 14501 net.cpp:148] Top shape: 24 512 4 4 (196608)
I0403 15:49:11.459502 14501 net.cpp:156] Memory required for data: 945501216
I0403 15:49:11.459517 14501 layer_factory.hpp:77] Creating layer loss1/conv
I0403 15:49:11.459540 14501 net.cpp:91] Creating Layer loss1/conv
I0403 15:49:11.459558 14501 net.cpp:425] loss1/conv <- loss1/ave_pool
I0403 15:49:11.459578 14501 net.cpp:399] loss1/conv -> loss1/conv
I0403 15:49:11.460974 14501 net.cpp:141] Setting up loss1/conv
I0403 15:49:11.461004 14501 net.cpp:148] Top shape: 24 128 4 4 (49152)
I0403 15:49:11.461019 14501 net.cpp:156] Memory required for data: 945697824
I0403 15:49:11.461052 14501 layer_factory.hpp:77] Creating layer loss1/relu_conv
I0403 15:49:11.461072 14501 net.cpp:91] Creating Layer loss1/relu_conv
I0403 15:49:11.461088 14501 net.cpp:425] loss1/relu_conv <- loss1/conv
I0403 15:49:11.461114 14501 net.cpp:386] loss1/relu_conv -> loss1/conv (in-place)
I0403 15:49:11.461398 14501 net.cpp:141] Setting up loss1/relu_conv
I0403 15:49:11.461426 14501 net.cpp:148] Top shape: 24 128 4 4 (49152)
I0403 15:49:11.461441 14501 net.cpp:156] Memory required for data: 945894432
I0403 15:49:11.461455 14501 layer_factory.hpp:77] Creating layer loss1/fc
I0403 15:49:11.461479 14501 net.cpp:91] Creating Layer loss1/fc
I0403 15:49:11.461498 14501 net.cpp:425] loss1/fc <- loss1/conv
I0403 15:49:11.461519 14501 net.cpp:399] loss1/fc -> loss1/fc
I0403 15:49:11.479041 14501 net.cpp:141] Setting up loss1/fc
I0403 15:49:11.479077 14501 net.cpp:148] Top shape: 24 1024 (24576)
I0403 15:49:11.479097 14501 net.cpp:156] Memory required for data: 945992736
I0403 15:49:11.479118 14501 layer_factory.hpp:77] Creating layer loss1/relu_fc
I0403 15:49:11.479138 14501 net.cpp:91] Creating Layer loss1/relu_fc
I0403 15:49:11.479156 14501 net.cpp:425] loss1/relu_fc <- loss1/fc
I0403 15:49:11.479172 14501 net.cpp:386] loss1/relu_fc -> loss1/fc (in-place)
I0403 15:49:11.479356 14501 net.cpp:141] Setting up loss1/relu_fc
I0403 15:49:11.479382 14501 net.cpp:148] Top shape: 24 1024 (24576)
I0403 15:49:11.479398 14501 net.cpp:156] Memory required for data: 946091040
I0403 15:49:11.479413 14501 layer_factory.hpp:77] Creating layer loss1/drop_fc
I0403 15:49:11.479439 14501 net.cpp:91] Creating Layer loss1/drop_fc
I0403 15:49:11.479457 14501 net.cpp:425] loss1/drop_fc <- loss1/fc
I0403 15:49:11.479476 14501 net.cpp:386] loss1/drop_fc -> loss1/fc (in-place)
I0403 15:49:11.479528 14501 net.cpp:141] Setting up loss1/drop_fc
I0403 15:49:11.479552 14501 net.cpp:148] Top shape: 24 1024 (24576)
I0403 15:49:11.479567 14501 net.cpp:156] Memory required for data: 946189344
I0403 15:49:11.479583 14501 layer_factory.hpp:77] Creating layer loss1/classifier_plantvillage
I0403 15:49:11.479604 14501 net.cpp:91] Creating Layer loss1/classifier_plantvillage
I0403 15:49:11.479621 14501 net.cpp:425] loss1/classifier_plantvillage <- loss1/fc
I0403 15:49:11.479640 14501 net.cpp:399] loss1/classifier_plantvillage -> loss1/classifier_plantvillage
I0403 15:49:11.480515 14501 net.cpp:141] Setting up loss1/classifier_plantvillage
I0403 15:49:11.480546 14501 net.cpp:148] Top shape: 24 38 (912)
I0403 15:49:11.480562 14501 net.cpp:156] Memory required for data: 946192992
I0403 15:49:11.480581 14501 layer_factory.hpp:77] Creating layer loss1/classifier_plantvillage_loss1/classifier_plantvillage_0_split
I0403 15:49:11.480598 14501 net.cpp:91] Creating Layer loss1/classifier_plantvillage_loss1/classifier_plantvillage_0_split
I0403 15:49:11.480614 14501 net.cpp:425] loss1/classifier_plantvillage_loss1/classifier_plantvillage_0_split <- loss1/classifier_plantvillage
I0403 15:49:11.480631 14501 net.cpp:399] loss1/classifier_plantvillage_loss1/classifier_plantvillage_0_split -> loss1/classifier_plantvillage_loss1/classifier_plantvillage_0_split_0
I0403 15:49:11.480654 14501 net.cpp:399] loss1/classifier_plantvillage_loss1/classifier_plantvillage_0_split -> loss1/classifier_plantvillage_loss1/classifier_plantvillage_0_split_1
I0403 15:49:11.480675 14501 net.cpp:399] loss1/classifier_plantvillage_loss1/classifier_plantvillage_0_split -> loss1/classifier_plantvillage_loss1/classifier_plantvillage_0_split_2
I0403 15:49:11.480739 14501 net.cpp:141] Setting up loss1/classifier_plantvillage_loss1/classifier_plantvillage_0_split
I0403 15:49:11.480762 14501 net.cpp:148] Top shape: 24 38 (912)
I0403 15:49:11.480777 14501 net.cpp:148] Top shape: 24 38 (912)
I0403 15:49:11.480792 14501 net.cpp:148] Top shape: 24 38 (912)
I0403 15:49:11.480806 14501 net.cpp:156] Memory required for data: 946203936
I0403 15:49:11.480820 14501 layer_factory.hpp:77] Creating layer inception_4b/1x1
I0403 15:49:11.480840 14501 net.cpp:91] Creating Layer inception_4b/1x1
I0403 15:49:11.480873 14501 net.cpp:425] inception_4b/1x1 <- inception_4a/output_inception_4a/output_0_split_1
I0403 15:49:11.480895 14501 net.cpp:399] inception_4b/1x1 -> inception_4b/1x1
I0403 15:49:11.482491 14501 net.cpp:141] Setting up inception_4b/1x1
I0403 15:49:11.482520 14501 net.cpp:148] Top shape: 24 160 14 14 (752640)
I0403 15:49:11.482537 14501 net.cpp:156] Memory required for data: 949214496
I0403 15:49:11.482555 14501 layer_factory.hpp:77] Creating layer inception_4b/relu_1x1
I0403 15:49:11.482573 14501 net.cpp:91] Creating Layer inception_4b/relu_1x1
I0403 15:49:11.482589 14501 net.cpp:425] inception_4b/relu_1x1 <- inception_4b/1x1
I0403 15:49:11.482609 14501 net.cpp:386] inception_4b/relu_1x1 -> inception_4b/1x1 (in-place)
I0403 15:49:11.482785 14501 net.cpp:141] Setting up inception_4b/relu_1x1
I0403 15:49:11.482810 14501 net.cpp:148] Top shape: 24 160 14 14 (752640)
I0403 15:49:11.482825 14501 net.cpp:156] Memory required for data: 952225056
I0403 15:49:11.482839 14501 layer_factory.hpp:77] Creating layer inception_4b/3x3_reduce
I0403 15:49:11.482861 14501 net.cpp:91] Creating Layer inception_4b/3x3_reduce
I0403 15:49:11.482879 14501 net.cpp:425] inception_4b/3x3_reduce <- inception_4a/output_inception_4a/output_0_split_2
I0403 15:49:11.482903 14501 net.cpp:399] inception_4b/3x3_reduce -> inception_4b/3x3_reduce
I0403 15:49:11.484253 14501 net.cpp:141] Setting up inception_4b/3x3_reduce
I0403 15:49:11.484280 14501 net.cpp:148] Top shape: 24 112 14 14 (526848)
I0403 15:49:11.484297 14501 net.cpp:156] Memory required for data: 954332448
I0403 15:49:11.484313 14501 layer_factory.hpp:77] Creating layer inception_4b/relu_3x3_reduce
I0403 15:49:11.484334 14501 net.cpp:91] Creating Layer inception_4b/relu_3x3_reduce
I0403 15:49:11.484354 14501 net.cpp:425] inception_4b/relu_3x3_reduce <- inception_4b/3x3_reduce
I0403 15:49:11.484370 14501 net.cpp:386] inception_4b/relu_3x3_reduce -> inception_4b/3x3_reduce (in-place)
I0403 15:49:11.484649 14501 net.cpp:141] Setting up inception_4b/relu_3x3_reduce
I0403 15:49:11.484676 14501 net.cpp:148] Top shape: 24 112 14 14 (526848)
I0403 15:49:11.484690 14501 net.cpp:156] Memory required for data: 956439840
I0403 15:49:11.484704 14501 layer_factory.hpp:77] Creating layer inception_4b/3x3
I0403 15:49:11.484726 14501 net.cpp:91] Creating Layer inception_4b/3x3
I0403 15:49:11.484745 14501 net.cpp:425] inception_4b/3x3 <- inception_4b/3x3_reduce
I0403 15:49:11.484766 14501 net.cpp:399] inception_4b/3x3 -> inception_4b/3x3
I0403 15:49:11.487787 14501 net.cpp:141] Setting up inception_4b/3x3
I0403 15:49:11.487819 14501 net.cpp:148] Top shape: 24 224 14 14 (1053696)
I0403 15:49:11.487835 14501 net.cpp:156] Memory required for data: 960654624
I0403 15:49:11.487854 14501 layer_factory.hpp:77] Creating layer inception_4b/relu_3x3
I0403 15:49:11.487871 14501 net.cpp:91] Creating Layer inception_4b/relu_3x3
I0403 15:49:11.487887 14501 net.cpp:425] inception_4b/relu_3x3 <- inception_4b/3x3
I0403 15:49:11.487905 14501 net.cpp:386] inception_4b/relu_3x3 -> inception_4b/3x3 (in-place)
I0403 15:49:11.488083 14501 net.cpp:141] Setting up inception_4b/relu_3x3
I0403 15:49:11.488113 14501 net.cpp:148] Top shape: 24 224 14 14 (1053696)
I0403 15:49:11.488128 14501 net.cpp:156] Memory required for data: 964869408
I0403 15:49:11.488144 14501 layer_factory.hpp:77] Creating layer inception_4b/5x5_reduce
I0403 15:49:11.488169 14501 net.cpp:91] Creating Layer inception_4b/5x5_reduce
I0403 15:49:11.488188 14501 net.cpp:425] inception_4b/5x5_reduce <- inception_4a/output_inception_4a/output_0_split_3
I0403 15:49:11.488209 14501 net.cpp:399] inception_4b/5x5_reduce -> inception_4b/5x5_reduce
I0403 15:49:11.489267 14501 net.cpp:141] Setting up inception_4b/5x5_reduce
I0403 15:49:11.489295 14501 net.cpp:148] Top shape: 24 24 14 14 (112896)
I0403 15:49:11.489310 14501 net.cpp:156] Memory required for data: 965320992
I0403 15:49:11.489328 14501 layer_factory.hpp:77] Creating layer inception_4b/relu_5x5_reduce
I0403 15:49:11.489351 14501 net.cpp:91] Creating Layer inception_4b/relu_5x5_reduce
I0403 15:49:11.489382 14501 net.cpp:425] inception_4b/relu_5x5_reduce <- inception_4b/5x5_reduce
I0403 15:49:11.489399 14501 net.cpp:386] inception_4b/relu_5x5_reduce -> inception_4b/5x5_reduce (in-place)
I0403 15:49:11.489578 14501 net.cpp:141] Setting up inception_4b/relu_5x5_reduce
I0403 15:49:11.489604 14501 net.cpp:148] Top shape: 24 24 14 14 (112896)
I0403 15:49:11.489619 14501 net.cpp:156] Memory required for data: 965772576
I0403 15:49:11.489634 14501 layer_factory.hpp:77] Creating layer inception_4b/5x5
I0403 15:49:11.489655 14501 net.cpp:91] Creating Layer inception_4b/5x5
I0403 15:49:11.489672 14501 net.cpp:425] inception_4b/5x5 <- inception_4b/5x5_reduce
I0403 15:49:11.489694 14501 net.cpp:399] inception_4b/5x5 -> inception_4b/5x5
I0403 15:49:11.490885 14501 net.cpp:141] Setting up inception_4b/5x5
I0403 15:49:11.490913 14501 net.cpp:148] Top shape: 24 64 14 14 (301056)
I0403 15:49:11.490929 14501 net.cpp:156] Memory required for data: 966976800
I0403 15:49:11.490947 14501 layer_factory.hpp:77] Creating layer inception_4b/relu_5x5
I0403 15:49:11.490967 14501 net.cpp:91] Creating Layer inception_4b/relu_5x5
I0403 15:49:11.490983 14501 net.cpp:425] inception_4b/relu_5x5 <- inception_4b/5x5
I0403 15:49:11.491003 14501 net.cpp:386] inception_4b/relu_5x5 -> inception_4b/5x5 (in-place)
I0403 15:49:11.491284 14501 net.cpp:141] Setting up inception_4b/relu_5x5
I0403 15:49:11.491312 14501 net.cpp:148] Top shape: 24 64 14 14 (301056)
I0403 15:49:11.491325 14501 net.cpp:156] Memory required for data: 968181024
I0403 15:49:11.491340 14501 layer_factory.hpp:77] Creating layer inception_4b/pool
I0403 15:49:11.491358 14501 net.cpp:91] Creating Layer inception_4b/pool
I0403 15:49:11.491375 14501 net.cpp:425] inception_4b/pool <- inception_4a/output_inception_4a/output_0_split_4
I0403 15:49:11.491395 14501 net.cpp:399] inception_4b/pool -> inception_4b/pool
I0403 15:49:11.491458 14501 net.cpp:141] Setting up inception_4b/pool
I0403 15:49:11.491483 14501 net.cpp:148] Top shape: 24 512 14 14 (2408448)
I0403 15:49:11.491497 14501 net.cpp:156] Memory required for data: 977814816
I0403 15:49:11.491513 14501 layer_factory.hpp:77] Creating layer inception_4b/pool_proj
I0403 15:49:11.491539 14501 net.cpp:91] Creating Layer inception_4b/pool_proj
I0403 15:49:11.491557 14501 net.cpp:425] inception_4b/pool_proj <- inception_4b/pool
I0403 15:49:11.491575 14501 net.cpp:399] inception_4b/pool_proj -> inception_4b/pool_proj
I0403 15:49:11.492745 14501 net.cpp:141] Setting up inception_4b/pool_proj
I0403 15:49:11.492774 14501 net.cpp:148] Top shape: 24 64 14 14 (301056)
I0403 15:49:11.492789 14501 net.cpp:156] Memory required for data: 979019040
I0403 15:49:11.492805 14501 layer_factory.hpp:77] Creating layer inception_4b/relu_pool_proj
I0403 15:49:11.492823 14501 net.cpp:91] Creating Layer inception_4b/relu_pool_proj
I0403 15:49:11.492841 14501 net.cpp:425] inception_4b/relu_pool_proj <- inception_4b/pool_proj
I0403 15:49:11.492859 14501 net.cpp:386] inception_4b/relu_pool_proj -> inception_4b/pool_proj (in-place)
I0403 15:49:11.493036 14501 net.cpp:141] Setting up inception_4b/relu_pool_proj
I0403 15:49:11.493060 14501 net.cpp:148] Top shape: 24 64 14 14 (301056)
I0403 15:49:11.493074 14501 net.cpp:156] Memory required for data: 980223264
I0403 15:49:11.493089 14501 layer_factory.hpp:77] Creating layer inception_4b/output
I0403 15:49:11.493119 14501 net.cpp:91] Creating Layer inception_4b/output
I0403 15:49:11.493139 14501 net.cpp:425] inception_4b/output <- inception_4b/1x1
I0403 15:49:11.493155 14501 net.cpp:425] inception_4b/output <- inception_4b/3x3
I0403 15:49:11.493170 14501 net.cpp:425] inception_4b/output <- inception_4b/5x5
I0403 15:49:11.493186 14501 net.cpp:425] inception_4b/output <- inception_4b/pool_proj
I0403 15:49:11.493203 14501 net.cpp:399] inception_4b/output -> inception_4b/output
I0403 15:49:11.493248 14501 net.cpp:141] Setting up inception_4b/output
I0403 15:49:11.493273 14501 net.cpp:148] Top shape: 24 512 14 14 (2408448)
I0403 15:49:11.493288 14501 net.cpp:156] Memory required for data: 989857056
I0403 15:49:11.493315 14501 layer_factory.hpp:77] Creating layer inception_4b/output_inception_4b/output_0_split
I0403 15:49:11.493332 14501 net.cpp:91] Creating Layer inception_4b/output_inception_4b/output_0_split
I0403 15:49:11.493348 14501 net.cpp:425] inception_4b/output_inception_4b/output_0_split <- inception_4b/output
I0403 15:49:11.493368 14501 net.cpp:399] inception_4b/output_inception_4b/output_0_split -> inception_4b/output_inception_4b/output_0_split_0
I0403 15:49:11.493389 14501 net.cpp:399] inception_4b/output_inception_4b/output_0_split -> inception_4b/output_inception_4b/output_0_split_1
I0403 15:49:11.493408 14501 net.cpp:399] inception_4b/output_inception_4b/output_0_split -> inception_4b/output_inception_4b/output_0_split_2
I0403 15:49:11.493427 14501 net.cpp:399] inception_4b/output_inception_4b/output_0_split -> inception_4b/output_inception_4b/output_0_split_3
I0403 15:49:11.493506 14501 net.cpp:141] Setting up inception_4b/output_inception_4b/output_0_split
I0403 15:49:11.493533 14501 net.cpp:148] Top shape: 24 512 14 14 (2408448)
I0403 15:49:11.493548 14501 net.cpp:148] Top shape: 24 512 14 14 (2408448)
I0403 15:49:11.493563 14501 net.cpp:148] Top shape: 24 512 14 14 (2408448)
I0403 15:49:11.493577 14501 net.cpp:148] Top shape: 24 512 14 14 (2408448)
I0403 15:49:11.493592 14501 net.cpp:156] Memory required for data: 1028392224
I0403 15:49:11.493605 14501 layer_factory.hpp:77] Creating layer inception_4c/1x1
I0403 15:49:11.493628 14501 net.cpp:91] Creating Layer inception_4c/1x1
I0403 15:49:11.493644 14501 net.cpp:425] inception_4c/1x1 <- inception_4b/output_inception_4b/output_0_split_0
I0403 15:49:11.493665 14501 net.cpp:399] inception_4c/1x1 -> inception_4c/1x1
I0403 15:49:11.495055 14501 net.cpp:141] Setting up inception_4c/1x1
I0403 15:49:11.495082 14501 net.cpp:148] Top shape: 24 128 14 14 (602112)
I0403 15:49:11.495102 14501 net.cpp:156] Memory required for data: 1030800672
I0403 15:49:11.495121 14501 layer_factory.hpp:77] Creating layer inception_4c/relu_1x1
I0403 15:49:11.495144 14501 net.cpp:91] Creating Layer inception_4c/relu_1x1
I0403 15:49:11.495162 14501 net.cpp:425] inception_4c/relu_1x1 <- inception_4c/1x1
I0403 15:49:11.495178 14501 net.cpp:386] inception_4c/relu_1x1 -> inception_4c/1x1 (in-place)
I0403 15:49:11.495362 14501 net.cpp:141] Setting up inception_4c/relu_1x1
I0403 15:49:11.495388 14501 net.cpp:148] Top shape: 24 128 14 14 (602112)
I0403 15:49:11.495404 14501 net.cpp:156] Memory required for data: 1033209120
I0403 15:49:11.495419 14501 layer_factory.hpp:77] Creating layer inception_4c/3x3_reduce
I0403 15:49:11.495440 14501 net.cpp:91] Creating Layer inception_4c/3x3_reduce
I0403 15:49:11.495457 14501 net.cpp:425] inception_4c/3x3_reduce <- inception_4b/output_inception_4b/output_0_split_1
I0403 15:49:11.495476 14501 net.cpp:399] inception_4c/3x3_reduce -> inception_4c/3x3_reduce
I0403 15:49:11.497351 14501 net.cpp:141] Setting up inception_4c/3x3_reduce
I0403 15:49:11.497383 14501 net.cpp:148] Top shape: 24 128 14 14 (602112)
I0403 15:49:11.497400 14501 net.cpp:156] Memory required for data: 1035617568
I0403 15:49:11.497419 14501 layer_factory.hpp:77] Creating layer inception_4c/relu_3x3_reduce
I0403 15:49:11.497437 14501 net.cpp:91] Creating Layer inception_4c/relu_3x3_reduce
I0403 15:49:11.497452 14501 net.cpp:425] inception_4c/relu_3x3_reduce <- inception_4c/3x3_reduce
I0403 15:49:11.497472 14501 net.cpp:386] inception_4c/relu_3x3_reduce -> inception_4c/3x3_reduce (in-place)
I0403 15:49:11.497748 14501 net.cpp:141] Setting up inception_4c/relu_3x3_reduce
I0403 15:49:11.497778 14501 net.cpp:148] Top shape: 24 128 14 14 (602112)
I0403 15:49:11.497793 14501 net.cpp:156] Memory required for data: 1038026016
I0403 15:49:11.497808 14501 layer_factory.hpp:77] Creating layer inception_4c/3x3
I0403 15:49:11.497833 14501 net.cpp:91] Creating Layer inception_4c/3x3
I0403 15:49:11.497851 14501 net.cpp:425] inception_4c/3x3 <- inception_4c/3x3_reduce
I0403 15:49:11.497872 14501 net.cpp:399] inception_4c/3x3 -> inception_4c/3x3
I0403 15:49:11.501366 14501 net.cpp:141] Setting up inception_4c/3x3
I0403 15:49:11.501407 14501 net.cpp:148] Top shape: 24 256 14 14 (1204224)
I0403 15:49:11.501425 14501 net.cpp:156] Memory required for data: 1042842912
I0403 15:49:11.501456 14501 layer_factory.hpp:77] Creating layer inception_4c/relu_3x3
I0403 15:49:11.501476 14501 net.cpp:91] Creating Layer inception_4c/relu_3x3
I0403 15:49:11.501493 14501 net.cpp:425] inception_4c/relu_3x3 <- inception_4c/3x3
I0403 15:49:11.501513 14501 net.cpp:386] inception_4c/relu_3x3 -> inception_4c/3x3 (in-place)
I0403 15:49:11.501690 14501 net.cpp:141] Setting up inception_4c/relu_3x3
I0403 15:49:11.501715 14501 net.cpp:148] Top shape: 24 256 14 14 (1204224)
I0403 15:49:11.501729 14501 net.cpp:156] Memory required for data: 1047659808
I0403 15:49:11.501744 14501 layer_factory.hpp:77] Creating layer inception_4c/5x5_reduce
I0403 15:49:11.501766 14501 net.cpp:91] Creating Layer inception_4c/5x5_reduce
I0403 15:49:11.501785 14501 net.cpp:425] inception_4c/5x5_reduce <- inception_4b/output_inception_4b/output_0_split_2
I0403 15:49:11.501806 14501 net.cpp:399] inception_4c/5x5_reduce -> inception_4c/5x5_reduce
I0403 15:49:11.502876 14501 net.cpp:141] Setting up inception_4c/5x5_reduce
I0403 15:49:11.502903 14501 net.cpp:148] Top shape: 24 24 14 14 (112896)
I0403 15:49:11.502918 14501 net.cpp:156] Memory required for data: 1048111392
I0403 15:49:11.502936 14501 layer_factory.hpp:77] Creating layer inception_4c/relu_5x5_reduce
I0403 15:49:11.502955 14501 net.cpp:91] Creating Layer inception_4c/relu_5x5_reduce
I0403 15:49:11.502974 14501 net.cpp:425] inception_4c/relu_5x5_reduce <- inception_4c/5x5_reduce
I0403 15:49:11.502992 14501 net.cpp:386] inception_4c/relu_5x5_reduce -> inception_4c/5x5_reduce (in-place)
I0403 15:49:11.503185 14501 net.cpp:141] Setting up inception_4c/relu_5x5_reduce
I0403 15:49:11.503211 14501 net.cpp:148] Top shape: 24 24 14 14 (112896)
I0403 15:49:11.503226 14501 net.cpp:156] Memory required for data: 1048562976
I0403 15:49:11.503242 14501 layer_factory.hpp:77] Creating layer inception_4c/5x5
I0403 15:49:11.503263 14501 net.cpp:91] Creating Layer inception_4c/5x5
I0403 15:49:11.503279 14501 net.cpp:425] inception_4c/5x5 <- inception_4c/5x5_reduce
I0403 15:49:11.503300 14501 net.cpp:399] inception_4c/5x5 -> inception_4c/5x5
I0403 15:49:11.504559 14501 net.cpp:141] Setting up inception_4c/5x5
I0403 15:49:11.504587 14501 net.cpp:148] Top shape: 24 64 14 14 (301056)
I0403 15:49:11.504604 14501 net.cpp:156] Memory required for data: 1049767200
I0403 15:49:11.504622 14501 layer_factory.hpp:77] Creating layer inception_4c/relu_5x5
I0403 15:49:11.504643 14501 net.cpp:91] Creating Layer inception_4c/relu_5x5
I0403 15:49:11.504662 14501 net.cpp:425] inception_4c/relu_5x5 <- inception_4c/5x5
I0403 15:49:11.504678 14501 net.cpp:386] inception_4c/relu_5x5 -> inception_4c/5x5 (in-place)
I0403 15:49:11.504971 14501 net.cpp:141] Setting up inception_4c/relu_5x5
I0403 15:49:11.504998 14501 net.cpp:148] Top shape: 24 64 14 14 (301056)
I0403 15:49:11.505013 14501 net.cpp:156] Memory required for data: 1050971424
I0403 15:49:11.505028 14501 layer_factory.hpp:77] Creating layer inception_4c/pool
I0403 15:49:11.505048 14501 net.cpp:91] Creating Layer inception_4c/pool
I0403 15:49:11.505066 14501 net.cpp:425] inception_4c/pool <- inception_4b/output_inception_4b/output_0_split_3
I0403 15:49:11.505084 14501 net.cpp:399] inception_4c/pool -> inception_4c/pool
I0403 15:49:11.505156 14501 net.cpp:141] Setting up inception_4c/pool
I0403 15:49:11.505182 14501 net.cpp:148] Top shape: 24 512 14 14 (2408448)
I0403 15:49:11.505197 14501 net.cpp:156] Memory required for data: 1060605216
I0403 15:49:11.505211 14501 layer_factory.hpp:77] Creating layer inception_4c/pool_proj
I0403 15:49:11.505234 14501 net.cpp:91] Creating Layer inception_4c/pool_proj
I0403 15:49:11.505252 14501 net.cpp:425] inception_4c/pool_proj <- inception_4c/pool
I0403 15:49:11.505275 14501 net.cpp:399] inception_4c/pool_proj -> inception_4c/pool_proj
I0403 15:49:11.506496 14501 net.cpp:141] Setting up inception_4c/pool_proj
I0403 15:49:11.506525 14501 net.cpp:148] Top shape: 24 64 14 14 (301056)
I0403 15:49:11.506556 14501 net.cpp:156] Memory required for data: 1061809440
I0403 15:49:11.506574 14501 layer_factory.hpp:77] Creating layer inception_4c/relu_pool_proj
I0403 15:49:11.506593 14501 net.cpp:91] Creating Layer inception_4c/relu_pool_proj
I0403 15:49:11.506610 14501 net.cpp:425] inception_4c/relu_pool_proj <- inception_4c/pool_proj
I0403 15:49:11.506630 14501 net.cpp:386] inception_4c/relu_pool_proj -> inception_4c/pool_proj (in-place)
I0403 15:49:11.506819 14501 net.cpp:141] Setting up inception_4c/relu_pool_proj
I0403 15:49:11.506844 14501 net.cpp:148] Top shape: 24 64 14 14 (301056)
I0403 15:49:11.506860 14501 net.cpp:156] Memory required for data: 1063013664
I0403 15:49:11.506873 14501 layer_factory.hpp:77] Creating layer inception_4c/output
I0403 15:49:11.506893 14501 net.cpp:91] Creating Layer inception_4c/output
I0403 15:49:11.506911 14501 net.cpp:425] inception_4c/output <- inception_4c/1x1
I0403 15:49:11.506928 14501 net.cpp:425] inception_4c/output <- inception_4c/3x3
I0403 15:49:11.506944 14501 net.cpp:425] inception_4c/output <- inception_4c/5x5
I0403 15:49:11.506960 14501 net.cpp:425] inception_4c/output <- inception_4c/pool_proj
I0403 15:49:11.506978 14501 net.cpp:399] inception_4c/output -> inception_4c/output
I0403 15:49:11.507025 14501 net.cpp:141] Setting up inception_4c/output
I0403 15:49:11.507050 14501 net.cpp:148] Top shape: 24 512 14 14 (2408448)
I0403 15:49:11.507066 14501 net.cpp:156] Memory required for data: 1072647456
I0403 15:49:11.507081 14501 layer_factory.hpp:77] Creating layer inception_4c/output_inception_4c/output_0_split
I0403 15:49:11.507102 14501 net.cpp:91] Creating Layer inception_4c/output_inception_4c/output_0_split
I0403 15:49:11.507119 14501 net.cpp:425] inception_4c/output_inception_4c/output_0_split <- inception_4c/output
I0403 15:49:11.507138 14501 net.cpp:399] inception_4c/output_inception_4c/output_0_split -> inception_4c/output_inception_4c/output_0_split_0
I0403 15:49:11.507160 14501 net.cpp:399] inception_4c/output_inception_4c/output_0_split -> inception_4c/output_inception_4c/output_0_split_1
I0403 15:49:11.507181 14501 net.cpp:399] inception_4c/output_inception_4c/output_0_split -> inception_4c/output_inception_4c/output_0_split_2
I0403 15:49:11.507203 14501 net.cpp:399] inception_4c/output_inception_4c/output_0_split -> inception_4c/output_inception_4c/output_0_split_3
I0403 15:49:11.507287 14501 net.cpp:141] Setting up inception_4c/output_inception_4c/output_0_split
I0403 15:49:11.507313 14501 net.cpp:148] Top shape: 24 512 14 14 (2408448)
I0403 15:49:11.507333 14501 net.cpp:148] Top shape: 24 512 14 14 (2408448)
I0403 15:49:11.507347 14501 net.cpp:148] Top shape: 24 512 14 14 (2408448)
I0403 15:49:11.507364 14501 net.cpp:148] Top shape: 24 512 14 14 (2408448)
I0403 15:49:11.507377 14501 net.cpp:156] Memory required for data: 1111182624
I0403 15:49:11.507392 14501 layer_factory.hpp:77] Creating layer inception_4d/1x1
I0403 15:49:11.507416 14501 net.cpp:91] Creating Layer inception_4d/1x1
I0403 15:49:11.507434 14501 net.cpp:425] inception_4d/1x1 <- inception_4c/output_inception_4c/output_0_split_0
I0403 15:49:11.507453 14501 net.cpp:399] inception_4d/1x1 -> inception_4d/1x1
I0403 15:49:11.509060 14501 net.cpp:141] Setting up inception_4d/1x1
I0403 15:49:11.509093 14501 net.cpp:148] Top shape: 24 112 14 14 (526848)
I0403 15:49:11.509115 14501 net.cpp:156] Memory required for data: 1113290016
I0403 15:49:11.509135 14501 layer_factory.hpp:77] Creating layer inception_4d/relu_1x1
I0403 15:49:11.509155 14501 net.cpp:91] Creating Layer inception_4d/relu_1x1
I0403 15:49:11.509171 14501 net.cpp:425] inception_4d/relu_1x1 <- inception_4d/1x1
I0403 15:49:11.509189 14501 net.cpp:386] inception_4d/relu_1x1 -> inception_4d/1x1 (in-place)
I0403 15:49:11.509378 14501 net.cpp:141] Setting up inception_4d/relu_1x1
I0403 15:49:11.509404 14501 net.cpp:148] Top shape: 24 112 14 14 (526848)
I0403 15:49:11.509420 14501 net.cpp:156] Memory required for data: 1115397408
I0403 15:49:11.509435 14501 layer_factory.hpp:77] Creating layer inception_4d/3x3_reduce
I0403 15:49:11.509474 14501 net.cpp:91] Creating Layer inception_4d/3x3_reduce
I0403 15:49:11.509492 14501 net.cpp:425] inception_4d/3x3_reduce <- inception_4c/output_inception_4c/output_0_split_1
I0403 15:49:11.509516 14501 net.cpp:399] inception_4d/3x3_reduce -> inception_4d/3x3_reduce
I0403 15:49:11.511026 14501 net.cpp:141] Setting up inception_4d/3x3_reduce
I0403 15:49:11.511054 14501 net.cpp:148] Top shape: 24 144 14 14 (677376)
I0403 15:49:11.511070 14501 net.cpp:156] Memory required for data: 1118106912
I0403 15:49:11.511088 14501 layer_factory.hpp:77] Creating layer inception_4d/relu_3x3_reduce
I0403 15:49:11.511114 14501 net.cpp:91] Creating Layer inception_4d/relu_3x3_reduce
I0403 15:49:11.511134 14501 net.cpp:425] inception_4d/relu_3x3_reduce <- inception_4d/3x3_reduce
I0403 15:49:11.511152 14501 net.cpp:386] inception_4d/relu_3x3_reduce -> inception_4d/3x3_reduce (in-place)
I0403 15:49:11.511442 14501 net.cpp:141] Setting up inception_4d/relu_3x3_reduce
I0403 15:49:11.511469 14501 net.cpp:148] Top shape: 24 144 14 14 (677376)
I0403 15:49:11.511484 14501 net.cpp:156] Memory required for data: 1120816416
I0403 15:49:11.511499 14501 layer_factory.hpp:77] Creating layer inception_4d/3x3
I0403 15:49:11.511523 14501 net.cpp:91] Creating Layer inception_4d/3x3
I0403 15:49:11.511541 14501 net.cpp:425] inception_4d/3x3 <- inception_4d/3x3_reduce
I0403 15:49:11.511560 14501 net.cpp:399] inception_4d/3x3 -> inception_4d/3x3
I0403 15:49:11.515878 14501 net.cpp:141] Setting up inception_4d/3x3
I0403 15:49:11.515910 14501 net.cpp:148] Top shape: 24 288 14 14 (1354752)
I0403 15:49:11.515928 14501 net.cpp:156] Memory required for data: 1126235424
I0403 15:49:11.515949 14501 layer_factory.hpp:77] Creating layer inception_4d/relu_3x3
I0403 15:49:11.515967 14501 net.cpp:91] Creating Layer inception_4d/relu_3x3
I0403 15:49:11.515985 14501 net.cpp:425] inception_4d/relu_3x3 <- inception_4d/3x3
I0403 15:49:11.516006 14501 net.cpp:386] inception_4d/relu_3x3 -> inception_4d/3x3 (in-place)
I0403 15:49:11.516197 14501 net.cpp:141] Setting up inception_4d/relu_3x3
I0403 15:49:11.516223 14501 net.cpp:148] Top shape: 24 288 14 14 (1354752)
I0403 15:49:11.516238 14501 net.cpp:156] Memory required for data: 1131654432
I0403 15:49:11.516253 14501 layer_factory.hpp:77] Creating layer inception_4d/5x5_reduce
I0403 15:49:11.516276 14501 net.cpp:91] Creating Layer inception_4d/5x5_reduce
I0403 15:49:11.516294 14501 net.cpp:425] inception_4d/5x5_reduce <- inception_4c/output_inception_4c/output_0_split_2
I0403 15:49:11.516316 14501 net.cpp:399] inception_4d/5x5_reduce -> inception_4d/5x5_reduce
I0403 15:49:11.517472 14501 net.cpp:141] Setting up inception_4d/5x5_reduce
I0403 15:49:11.517503 14501 net.cpp:148] Top shape: 24 32 14 14 (150528)
I0403 15:49:11.517519 14501 net.cpp:156] Memory required for data: 1132256544
I0403 15:49:11.517537 14501 layer_factory.hpp:77] Creating layer inception_4d/relu_5x5_reduce
I0403 15:49:11.517555 14501 net.cpp:91] Creating Layer inception_4d/relu_5x5_reduce
I0403 15:49:11.517571 14501 net.cpp:425] inception_4d/relu_5x5_reduce <- inception_4d/5x5_reduce
I0403 15:49:11.517591 14501 net.cpp:386] inception_4d/relu_5x5_reduce -> inception_4d/5x5_reduce (in-place)
I0403 15:49:11.517781 14501 net.cpp:141] Setting up inception_4d/relu_5x5_reduce
I0403 15:49:11.517807 14501 net.cpp:148] Top shape: 24 32 14 14 (150528)
I0403 15:49:11.517822 14501 net.cpp:156] Memory required for data: 1132858656
I0403 15:49:11.517835 14501 layer_factory.hpp:77] Creating layer inception_4d/5x5
I0403 15:49:11.517858 14501 net.cpp:91] Creating Layer inception_4d/5x5
I0403 15:49:11.517875 14501 net.cpp:425] inception_4d/5x5 <- inception_4d/5x5_reduce
I0403 15:49:11.517899 14501 net.cpp:399] inception_4d/5x5 -> inception_4d/5x5
I0403 15:49:11.519390 14501 net.cpp:141] Setting up inception_4d/5x5
I0403 15:49:11.519418 14501 net.cpp:148] Top shape: 24 64 14 14 (301056)
I0403 15:49:11.519434 14501 net.cpp:156] Memory required for data: 1134062880
I0403 15:49:11.519453 14501 layer_factory.hpp:77] Creating layer inception_4d/relu_5x5
I0403 15:49:11.519489 14501 net.cpp:91] Creating Layer inception_4d/relu_5x5
I0403 15:49:11.519507 14501 net.cpp:425] inception_4d/relu_5x5 <- inception_4d/5x5
I0403 15:49:11.519526 14501 net.cpp:386] inception_4d/relu_5x5 -> inception_4d/5x5 (in-place)
I0403 15:49:11.519831 14501 net.cpp:141] Setting up inception_4d/relu_5x5
I0403 15:49:11.519858 14501 net.cpp:148] Top shape: 24 64 14 14 (301056)
I0403 15:49:11.519873 14501 net.cpp:156] Memory required for data: 1135267104
I0403 15:49:11.519889 14501 layer_factory.hpp:77] Creating layer inception_4d/pool
I0403 15:49:11.519909 14501 net.cpp:91] Creating Layer inception_4d/pool
I0403 15:49:11.519928 14501 net.cpp:425] inception_4d/pool <- inception_4c/output_inception_4c/output_0_split_3
I0403 15:49:11.519947 14501 net.cpp:399] inception_4d/pool -> inception_4d/pool
I0403 15:49:11.520015 14501 net.cpp:141] Setting up inception_4d/pool
I0403 15:49:11.520040 14501 net.cpp:148] Top shape: 24 512 14 14 (2408448)
I0403 15:49:11.520054 14501 net.cpp:156] Memory required for data: 1144900896
I0403 15:49:11.520069 14501 layer_factory.hpp:77] Creating layer inception_4d/pool_proj
I0403 15:49:11.520092 14501 net.cpp:91] Creating Layer inception_4d/pool_proj
I0403 15:49:11.520114 14501 net.cpp:425] inception_4d/pool_proj <- inception_4d/pool
I0403 15:49:11.520135 14501 net.cpp:399] inception_4d/pool_proj -> inception_4d/pool_proj
I0403 15:49:11.521920 14501 net.cpp:141] Setting up inception_4d/pool_proj
I0403 15:49:11.521952 14501 net.cpp:148] Top shape: 24 64 14 14 (301056)
I0403 15:49:11.521970 14501 net.cpp:156] Memory required for data: 1146105120
I0403 15:49:11.521987 14501 layer_factory.hpp:77] Creating layer inception_4d/relu_pool_proj
I0403 15:49:11.522006 14501 net.cpp:91] Creating Layer inception_4d/relu_pool_proj
I0403 15:49:11.522022 14501 net.cpp:425] inception_4d/relu_pool_proj <- inception_4d/pool_proj
I0403 15:49:11.522040 14501 net.cpp:386] inception_4d/relu_pool_proj -> inception_4d/pool_proj (in-place)
I0403 15:49:11.522230 14501 net.cpp:141] Setting up inception_4d/relu_pool_proj
I0403 15:49:11.522255 14501 net.cpp:148] Top shape: 24 64 14 14 (301056)
I0403 15:49:11.522270 14501 net.cpp:156] Memory required for data: 1147309344
I0403 15:49:11.522285 14501 layer_factory.hpp:77] Creating layer inception_4d/output
I0403 15:49:11.522302 14501 net.cpp:91] Creating Layer inception_4d/output
I0403 15:49:11.522317 14501 net.cpp:425] inception_4d/output <- inception_4d/1x1
I0403 15:49:11.522333 14501 net.cpp:425] inception_4d/output <- inception_4d/3x3
I0403 15:49:11.522349 14501 net.cpp:425] inception_4d/output <- inception_4d/5x5
I0403 15:49:11.522366 14501 net.cpp:425] inception_4d/output <- inception_4d/pool_proj
I0403 15:49:11.522383 14501 net.cpp:399] inception_4d/output -> inception_4d/output
I0403 15:49:11.522429 14501 net.cpp:141] Setting up inception_4d/output
I0403 15:49:11.522456 14501 net.cpp:148] Top shape: 24 528 14 14 (2483712)
I0403 15:49:11.522471 14501 net.cpp:156] Memory required for data: 1157244192
I0403 15:49:11.522485 14501 layer_factory.hpp:77] Creating layer inception_4d/output_inception_4d/output_0_split
I0403 15:49:11.522503 14501 net.cpp:91] Creating Layer inception_4d/output_inception_4d/output_0_split
I0403 15:49:11.522519 14501 net.cpp:425] inception_4d/output_inception_4d/output_0_split <- inception_4d/output
I0403 15:49:11.522541 14501 net.cpp:399] inception_4d/output_inception_4d/output_0_split -> inception_4d/output_inception_4d/output_0_split_0
I0403 15:49:11.522562 14501 net.cpp:399] inception_4d/output_inception_4d/output_0_split -> inception_4d/output_inception_4d/output_0_split_1
I0403 15:49:11.522583 14501 net.cpp:399] inception_4d/output_inception_4d/output_0_split -> inception_4d/output_inception_4d/output_0_split_2
I0403 15:49:11.522601 14501 net.cpp:399] inception_4d/output_inception_4d/output_0_split -> inception_4d/output_inception_4d/output_0_split_3
I0403 15:49:11.522621 14501 net.cpp:399] inception_4d/output_inception_4d/output_0_split -> inception_4d/output_inception_4d/output_0_split_4
I0403 15:49:11.522722 14501 net.cpp:141] Setting up inception_4d/output_inception_4d/output_0_split
I0403 15:49:11.522759 14501 net.cpp:148] Top shape: 24 528 14 14 (2483712)
I0403 15:49:11.522778 14501 net.cpp:148] Top shape: 24 528 14 14 (2483712)
I0403 15:49:11.522794 14501 net.cpp:148] Top shape: 24 528 14 14 (2483712)
I0403 15:49:11.522809 14501 net.cpp:148] Top shape: 24 528 14 14 (2483712)
I0403 15:49:11.522822 14501 net.cpp:148] Top shape: 24 528 14 14 (2483712)
I0403 15:49:11.522835 14501 net.cpp:156] Memory required for data: 1206918432
I0403 15:49:11.522850 14501 layer_factory.hpp:77] Creating layer loss2/ave_pool
I0403 15:49:11.522866 14501 net.cpp:91] Creating Layer loss2/ave_pool
I0403 15:49:11.522882 14501 net.cpp:425] loss2/ave_pool <- inception_4d/output_inception_4d/output_0_split_0
I0403 15:49:11.522900 14501 net.cpp:399] loss2/ave_pool -> loss2/ave_pool
I0403 15:49:11.523219 14501 net.cpp:141] Setting up loss2/ave_pool
I0403 15:49:11.523248 14501 net.cpp:148] Top shape: 24 528 4 4 (202752)
I0403 15:49:11.523265 14501 net.cpp:156] Memory required for data: 1207729440
I0403 15:49:11.523279 14501 layer_factory.hpp:77] Creating layer loss2/conv
I0403 15:49:11.523301 14501 net.cpp:91] Creating Layer loss2/conv
I0403 15:49:11.523319 14501 net.cpp:425] loss2/conv <- loss2/ave_pool
I0403 15:49:11.523337 14501 net.cpp:399] loss2/conv -> loss2/conv
I0403 15:49:11.525192 14501 net.cpp:141] Setting up loss2/conv
I0403 15:49:11.525223 14501 net.cpp:148] Top shape: 24 128 4 4 (49152)
I0403 15:49:11.525239 14501 net.cpp:156] Memory required for data: 1207926048
I0403 15:49:11.525257 14501 layer_factory.hpp:77] Creating layer loss2/relu_conv
I0403 15:49:11.525277 14501 net.cpp:91] Creating Layer loss2/relu_conv
I0403 15:49:11.525295 14501 net.cpp:425] loss2/relu_conv <- loss2/conv
I0403 15:49:11.525312 14501 net.cpp:386] loss2/relu_conv -> loss2/conv (in-place)
I0403 15:49:11.525593 14501 net.cpp:141] Setting up loss2/relu_conv
I0403 15:49:11.525619 14501 net.cpp:148] Top shape: 24 128 4 4 (49152)
I0403 15:49:11.525634 14501 net.cpp:156] Memory required for data: 1208122656
I0403 15:49:11.525647 14501 layer_factory.hpp:77] Creating layer loss2/fc
I0403 15:49:11.525668 14501 net.cpp:91] Creating Layer loss2/fc
I0403 15:49:11.525686 14501 net.cpp:425] loss2/fc <- loss2/conv
I0403 15:49:11.525703 14501 net.cpp:399] loss2/fc -> loss2/fc
I0403 15:49:11.542816 14501 net.cpp:141] Setting up loss2/fc
I0403 15:49:11.542850 14501 net.cpp:148] Top shape: 24 1024 (24576)
I0403 15:49:11.542866 14501 net.cpp:156] Memory required for data: 1208220960
I0403 15:49:11.542884 14501 layer_factory.hpp:77] Creating layer loss2/relu_fc
I0403 15:49:11.542901 14501 net.cpp:91] Creating Layer loss2/relu_fc
I0403 15:49:11.542917 14501 net.cpp:425] loss2/relu_fc <- loss2/fc
I0403 15:49:11.542937 14501 net.cpp:386] loss2/relu_fc -> loss2/fc (in-place)
I0403 15:49:11.543239 14501 net.cpp:141] Setting up loss2/relu_fc
I0403 15:49:11.543265 14501 net.cpp:148] Top shape: 24 1024 (24576)
I0403 15:49:11.543282 14501 net.cpp:156] Memory required for data: 1208319264
I0403 15:49:11.543297 14501 layer_factory.hpp:77] Creating layer loss2/drop_fc
I0403 15:49:11.543313 14501 net.cpp:91] Creating Layer loss2/drop_fc
I0403 15:49:11.543329 14501 net.cpp:425] loss2/drop_fc <- loss2/fc
I0403 15:49:11.543347 14501 net.cpp:386] loss2/drop_fc -> loss2/fc (in-place)
I0403 15:49:11.543404 14501 net.cpp:141] Setting up loss2/drop_fc
I0403 15:49:11.543431 14501 net.cpp:148] Top shape: 24 1024 (24576)
I0403 15:49:11.543447 14501 net.cpp:156] Memory required for data: 1208417568
I0403 15:49:11.543462 14501 layer_factory.hpp:77] Creating layer loss2/classifier_plantvillage
I0403 15:49:11.543479 14501 net.cpp:91] Creating Layer loss2/classifier_plantvillage
I0403 15:49:11.543495 14501 net.cpp:425] loss2/classifier_plantvillage <- loss2/fc
I0403 15:49:11.543516 14501 net.cpp:399] loss2/classifier_plantvillage -> loss2/classifier_plantvillage
I0403 15:49:11.543910 14501 net.cpp:141] Setting up loss2/classifier_plantvillage
I0403 15:49:11.543934 14501 net.cpp:148] Top shape: 24 38 (912)
I0403 15:49:11.543948 14501 net.cpp:156] Memory required for data: 1208421216
I0403 15:49:11.543982 14501 layer_factory.hpp:77] Creating layer loss2/classifier_plantvillage_loss2/classifier_plantvillage_0_split
I0403 15:49:11.544004 14501 net.cpp:91] Creating Layer loss2/classifier_plantvillage_loss2/classifier_plantvillage_0_split
I0403 15:49:11.544023 14501 net.cpp:425] loss2/classifier_plantvillage_loss2/classifier_plantvillage_0_split <- loss2/classifier_plantvillage
I0403 15:49:11.544039 14501 net.cpp:399] loss2/classifier_plantvillage_loss2/classifier_plantvillage_0_split -> loss2/classifier_plantvillage_loss2/classifier_plantvillage_0_split_0
I0403 15:49:11.544059 14501 net.cpp:399] loss2/classifier_plantvillage_loss2/classifier_plantvillage_0_split -> loss2/classifier_plantvillage_loss2/classifier_plantvillage_0_split_1
I0403 15:49:11.544080 14501 net.cpp:399] loss2/classifier_plantvillage_loss2/classifier_plantvillage_0_split -> loss2/classifier_plantvillage_loss2/classifier_plantvillage_0_split_2
I0403 15:49:11.544164 14501 net.cpp:141] Setting up loss2/classifier_plantvillage_loss2/classifier_plantvillage_0_split
I0403 15:49:11.544188 14501 net.cpp:148] Top shape: 24 38 (912)
I0403 15:49:11.544203 14501 net.cpp:148] Top shape: 24 38 (912)
I0403 15:49:11.544219 14501 net.cpp:148] Top shape: 24 38 (912)
I0403 15:49:11.544232 14501 net.cpp:156] Memory required for data: 1208432160
I0403 15:49:11.544246 14501 layer_factory.hpp:77] Creating layer inception_4e/1x1
I0403 15:49:11.544268 14501 net.cpp:91] Creating Layer inception_4e/1x1
I0403 15:49:11.544286 14501 net.cpp:425] inception_4e/1x1 <- inception_4d/output_inception_4d/output_0_split_1
I0403 15:49:11.544306 14501 net.cpp:399] inception_4e/1x1 -> inception_4e/1x1
I0403 15:49:11.546072 14501 net.cpp:141] Setting up inception_4e/1x1
I0403 15:49:11.546104 14501 net.cpp:148] Top shape: 24 256 14 14 (1204224)
I0403 15:49:11.546123 14501 net.cpp:156] Memory required for data: 1213249056
I0403 15:49:11.546141 14501 layer_factory.hpp:77] Creating layer inception_4e/relu_1x1
I0403 15:49:11.546162 14501 net.cpp:91] Creating Layer inception_4e/relu_1x1
I0403 15:49:11.546180 14501 net.cpp:425] inception_4e/relu_1x1 <- inception_4e/1x1
I0403 15:49:11.546198 14501 net.cpp:386] inception_4e/relu_1x1 -> inception_4e/1x1 (in-place)
I0403 15:49:11.546494 14501 net.cpp:141] Setting up inception_4e/relu_1x1
I0403 15:49:11.546521 14501 net.cpp:148] Top shape: 24 256 14 14 (1204224)
I0403 15:49:11.546536 14501 net.cpp:156] Memory required for data: 1218065952
I0403 15:49:11.546550 14501 layer_factory.hpp:77] Creating layer inception_4e/3x3_reduce
I0403 15:49:11.546572 14501 net.cpp:91] Creating Layer inception_4e/3x3_reduce
I0403 15:49:11.546589 14501 net.cpp:425] inception_4e/3x3_reduce <- inception_4d/output_inception_4d/output_0_split_2
I0403 15:49:11.546610 14501 net.cpp:399] inception_4e/3x3_reduce -> inception_4e/3x3_reduce
I0403 15:49:11.548689 14501 net.cpp:141] Setting up inception_4e/3x3_reduce
I0403 15:49:11.548719 14501 net.cpp:148] Top shape: 24 160 14 14 (752640)
I0403 15:49:11.548735 14501 net.cpp:156] Memory required for data: 1221076512
I0403 15:49:11.548753 14501 layer_factory.hpp:77] Creating layer inception_4e/relu_3x3_reduce
I0403 15:49:11.548770 14501 net.cpp:91] Creating Layer inception_4e/relu_3x3_reduce
I0403 15:49:11.548786 14501 net.cpp:425] inception_4e/relu_3x3_reduce <- inception_4e/3x3_reduce
I0403 15:49:11.548805 14501 net.cpp:386] inception_4e/relu_3x3_reduce -> inception_4e/3x3_reduce (in-place)
I0403 15:49:11.548991 14501 net.cpp:141] Setting up inception_4e/relu_3x3_reduce
I0403 15:49:11.549016 14501 net.cpp:148] Top shape: 24 160 14 14 (752640)
I0403 15:49:11.549031 14501 net.cpp:156] Memory required for data: 1224087072
I0403 15:49:11.549046 14501 layer_factory.hpp:77] Creating layer inception_4e/3x3
I0403 15:49:11.549068 14501 net.cpp:91] Creating Layer inception_4e/3x3
I0403 15:49:11.549088 14501 net.cpp:425] inception_4e/3x3 <- inception_4e/3x3_reduce
I0403 15:49:11.549113 14501 net.cpp:399] inception_4e/3x3 -> inception_4e/3x3
I0403 15:49:11.553977 14501 net.cpp:141] Setting up inception_4e/3x3
I0403 15:49:11.554019 14501 net.cpp:148] Top shape: 24 320 14 14 (1505280)
I0403 15:49:11.554036 14501 net.cpp:156] Memory required for data: 1230108192
I0403 15:49:11.554054 14501 layer_factory.hpp:77] Creating layer inception_4e/relu_3x3
I0403 15:49:11.554075 14501 net.cpp:91] Creating Layer inception_4e/relu_3x3
I0403 15:49:11.554096 14501 net.cpp:425] inception_4e/relu_3x3 <- inception_4e/3x3
I0403 15:49:11.554116 14501 net.cpp:386] inception_4e/relu_3x3 -> inception_4e/3x3 (in-place)
I0403 15:49:11.554414 14501 net.cpp:141] Setting up inception_4e/relu_3x3
I0403 15:49:11.554445 14501 net.cpp:148] Top shape: 24 320 14 14 (1505280)
I0403 15:49:11.554461 14501 net.cpp:156] Memory required for data: 1236129312
I0403 15:49:11.554474 14501 layer_factory.hpp:77] Creating layer inception_4e/5x5_reduce
I0403 15:49:11.554497 14501 net.cpp:91] Creating Layer inception_4e/5x5_reduce
I0403 15:49:11.554514 14501 net.cpp:425] inception_4e/5x5_reduce <- inception_4d/output_inception_4d/output_0_split_3
I0403 15:49:11.554533 14501 net.cpp:399] inception_4e/5x5_reduce -> inception_4e/5x5_reduce
I0403 15:49:11.555582 14501 net.cpp:141] Setting up inception_4e/5x5_reduce
I0403 15:49:11.555609 14501 net.cpp:148] Top shape: 24 32 14 14 (150528)
I0403 15:49:11.555624 14501 net.cpp:156] Memory required for data: 1236731424
I0403 15:49:11.555642 14501 layer_factory.hpp:77] Creating layer inception_4e/relu_5x5_reduce
I0403 15:49:11.555663 14501 net.cpp:91] Creating Layer inception_4e/relu_5x5_reduce
I0403 15:49:11.555681 14501 net.cpp:425] inception_4e/relu_5x5_reduce <- inception_4e/5x5_reduce
I0403 15:49:11.555698 14501 net.cpp:386] inception_4e/relu_5x5_reduce -> inception_4e/5x5_reduce (in-place)
I0403 15:49:11.555987 14501 net.cpp:141] Setting up inception_4e/relu_5x5_reduce
I0403 15:49:11.556013 14501 net.cpp:148] Top shape: 24 32 14 14 (150528)
I0403 15:49:11.556027 14501 net.cpp:156] Memory required for data: 1237333536
I0403 15:49:11.556042 14501 layer_factory.hpp:77] Creating layer inception_4e/5x5
I0403 15:49:11.556082 14501 net.cpp:91] Creating Layer inception_4e/5x5
I0403 15:49:11.556105 14501 net.cpp:425] inception_4e/5x5 <- inception_4e/5x5_reduce
I0403 15:49:11.556126 14501 net.cpp:399] inception_4e/5x5 -> inception_4e/5x5
I0403 15:49:11.557914 14501 net.cpp:141] Setting up inception_4e/5x5
I0403 15:49:11.557945 14501 net.cpp:148] Top shape: 24 128 14 14 (602112)
I0403 15:49:11.557962 14501 net.cpp:156] Memory required for data: 1239741984
I0403 15:49:11.557981 14501 layer_factory.hpp:77] Creating layer inception_4e/relu_5x5
I0403 15:49:11.557998 14501 net.cpp:91] Creating Layer inception_4e/relu_5x5
I0403 15:49:11.558017 14501 net.cpp:425] inception_4e/relu_5x5 <- inception_4e/5x5
I0403 15:49:11.558037 14501 net.cpp:386] inception_4e/relu_5x5 -> inception_4e/5x5 (in-place)
I0403 15:49:11.558238 14501 net.cpp:141] Setting up inception_4e/relu_5x5
I0403 15:49:11.558264 14501 net.cpp:148] Top shape: 24 128 14 14 (602112)
I0403 15:49:11.558279 14501 net.cpp:156] Memory required for data: 1242150432
I0403 15:49:11.558293 14501 layer_factory.hpp:77] Creating layer inception_4e/pool
I0403 15:49:11.558311 14501 net.cpp:91] Creating Layer inception_4e/pool
I0403 15:49:11.558327 14501 net.cpp:425] inception_4e/pool <- inception_4d/output_inception_4d/output_0_split_4
I0403 15:49:11.558347 14501 net.cpp:399] inception_4e/pool -> inception_4e/pool
I0403 15:49:11.558418 14501 net.cpp:141] Setting up inception_4e/pool
I0403 15:49:11.558442 14501 net.cpp:148] Top shape: 24 528 14 14 (2483712)
I0403 15:49:11.558456 14501 net.cpp:156] Memory required for data: 1252085280
I0403 15:49:11.558470 14501 layer_factory.hpp:77] Creating layer inception_4e/pool_proj
I0403 15:49:11.558492 14501 net.cpp:91] Creating Layer inception_4e/pool_proj
I0403 15:49:11.558509 14501 net.cpp:425] inception_4e/pool_proj <- inception_4e/pool
I0403 15:49:11.558529 14501 net.cpp:399] inception_4e/pool_proj -> inception_4e/pool_proj
I0403 15:49:11.560040 14501 net.cpp:141] Setting up inception_4e/pool_proj
I0403 15:49:11.560071 14501 net.cpp:148] Top shape: 24 128 14 14 (602112)
I0403 15:49:11.560106 14501 net.cpp:156] Memory required for data: 1254493728
I0403 15:49:11.560127 14501 layer_factory.hpp:77] Creating layer inception_4e/relu_pool_proj
I0403 15:49:11.560145 14501 net.cpp:91] Creating Layer inception_4e/relu_pool_proj
I0403 15:49:11.560163 14501 net.cpp:425] inception_4e/relu_pool_proj <- inception_4e/pool_proj
I0403 15:49:11.560181 14501 net.cpp:386] inception_4e/relu_pool_proj -> inception_4e/pool_proj (in-place)
I0403 15:49:11.560477 14501 net.cpp:141] Setting up inception_4e/relu_pool_proj
I0403 15:49:11.560505 14501 net.cpp:148] Top shape: 24 128 14 14 (602112)
I0403 15:49:11.560523 14501 net.cpp:156] Memory required for data: 1256902176
I0403 15:49:11.560539 14501 layer_factory.hpp:77] Creating layer inception_4e/output
I0403 15:49:11.560556 14501 net.cpp:91] Creating Layer inception_4e/output
I0403 15:49:11.560572 14501 net.cpp:425] inception_4e/output <- inception_4e/1x1
I0403 15:49:11.560588 14501 net.cpp:425] inception_4e/output <- inception_4e/3x3
I0403 15:49:11.560605 14501 net.cpp:425] inception_4e/output <- inception_4e/5x5
I0403 15:49:11.560621 14501 net.cpp:425] inception_4e/output <- inception_4e/pool_proj
I0403 15:49:11.560639 14501 net.cpp:399] inception_4e/output -> inception_4e/output
I0403 15:49:11.560688 14501 net.cpp:141] Setting up inception_4e/output
I0403 15:49:11.560714 14501 net.cpp:148] Top shape: 24 832 14 14 (3913728)
I0403 15:49:11.560727 14501 net.cpp:156] Memory required for data: 1272557088
I0403 15:49:11.560741 14501 layer_factory.hpp:77] Creating layer pool4/3x3_s2
I0403 15:49:11.560761 14501 net.cpp:91] Creating Layer pool4/3x3_s2
I0403 15:49:11.560780 14501 net.cpp:425] pool4/3x3_s2 <- inception_4e/output
I0403 15:49:11.560797 14501 net.cpp:399] pool4/3x3_s2 -> pool4/3x3_s2
I0403 15:49:11.560868 14501 net.cpp:141] Setting up pool4/3x3_s2
I0403 15:49:11.560892 14501 net.cpp:148] Top shape: 24 832 7 7 (978432)
I0403 15:49:11.560906 14501 net.cpp:156] Memory required for data: 1276470816
I0403 15:49:11.560920 14501 layer_factory.hpp:77] Creating layer pool4/3x3_s2_pool4/3x3_s2_0_split
I0403 15:49:11.560938 14501 net.cpp:91] Creating Layer pool4/3x3_s2_pool4/3x3_s2_0_split
I0403 15:49:11.560952 14501 net.cpp:425] pool4/3x3_s2_pool4/3x3_s2_0_split <- pool4/3x3_s2
I0403 15:49:11.560973 14501 net.cpp:399] pool4/3x3_s2_pool4/3x3_s2_0_split -> pool4/3x3_s2_pool4/3x3_s2_0_split_0
I0403 15:49:11.560995 14501 net.cpp:399] pool4/3x3_s2_pool4/3x3_s2_0_split -> pool4/3x3_s2_pool4/3x3_s2_0_split_1
I0403 15:49:11.561015 14501 net.cpp:399] pool4/3x3_s2_pool4/3x3_s2_0_split -> pool4/3x3_s2_pool4/3x3_s2_0_split_2
I0403 15:49:11.561035 14501 net.cpp:399] pool4/3x3_s2_pool4/3x3_s2_0_split -> pool4/3x3_s2_pool4/3x3_s2_0_split_3
I0403 15:49:11.561136 14501 net.cpp:141] Setting up pool4/3x3_s2_pool4/3x3_s2_0_split
I0403 15:49:11.561161 14501 net.cpp:148] Top shape: 24 832 7 7 (978432)
I0403 15:49:11.561175 14501 net.cpp:148] Top shape: 24 832 7 7 (978432)
I0403 15:49:11.561190 14501 net.cpp:148] Top shape: 24 832 7 7 (978432)
I0403 15:49:11.561206 14501 net.cpp:148] Top shape: 24 832 7 7 (978432)
I0403 15:49:11.561219 14501 net.cpp:156] Memory required for data: 1292125728
I0403 15:49:11.561233 14501 layer_factory.hpp:77] Creating layer inception_5a/1x1
I0403 15:49:11.561256 14501 net.cpp:91] Creating Layer inception_5a/1x1
I0403 15:49:11.561275 14501 net.cpp:425] inception_5a/1x1 <- pool4/3x3_s2_pool4/3x3_s2_0_split_0
I0403 15:49:11.561295 14501 net.cpp:399] inception_5a/1x1 -> inception_5a/1x1
I0403 15:49:11.564165 14501 net.cpp:141] Setting up inception_5a/1x1
I0403 15:49:11.564198 14501 net.cpp:148] Top shape: 24 256 7 7 (301056)
I0403 15:49:11.564215 14501 net.cpp:156] Memory required for data: 1293329952
I0403 15:49:11.564232 14501 layer_factory.hpp:77] Creating layer inception_5a/relu_1x1
I0403 15:49:11.564251 14501 net.cpp:91] Creating Layer inception_5a/relu_1x1
I0403 15:49:11.564267 14501 net.cpp:425] inception_5a/relu_1x1 <- inception_5a/1x1
I0403 15:49:11.564288 14501 net.cpp:386] inception_5a/relu_1x1 -> inception_5a/1x1 (in-place)
I0403 15:49:11.564611 14501 net.cpp:141] Setting up inception_5a/relu_1x1
I0403 15:49:11.564638 14501 net.cpp:148] Top shape: 24 256 7 7 (301056)
I0403 15:49:11.564653 14501 net.cpp:156] Memory required for data: 1294534176
I0403 15:49:11.564668 14501 layer_factory.hpp:77] Creating layer inception_5a/3x3_reduce
I0403 15:49:11.564690 14501 net.cpp:91] Creating Layer inception_5a/3x3_reduce
I0403 15:49:11.564709 14501 net.cpp:425] inception_5a/3x3_reduce <- pool4/3x3_s2_pool4/3x3_s2_0_split_1
I0403 15:49:11.564731 14501 net.cpp:399] inception_5a/3x3_reduce -> inception_5a/3x3_reduce
I0403 15:49:11.567209 14501 net.cpp:141] Setting up inception_5a/3x3_reduce
I0403 15:49:11.567239 14501 net.cpp:148] Top shape: 24 160 7 7 (188160)
I0403 15:49:11.567255 14501 net.cpp:156] Memory required for data: 1295286816
I0403 15:49:11.567276 14501 layer_factory.hpp:77] Creating layer inception_5a/relu_3x3_reduce
I0403 15:49:11.567296 14501 net.cpp:91] Creating Layer inception_5a/relu_3x3_reduce
I0403 15:49:11.567314 14501 net.cpp:425] inception_5a/relu_3x3_reduce <- inception_5a/3x3_reduce
I0403 15:49:11.567332 14501 net.cpp:386] inception_5a/relu_3x3_reduce -> inception_5a/3x3_reduce (in-place)
I0403 15:49:11.567523 14501 net.cpp:141] Setting up inception_5a/relu_3x3_reduce
I0403 15:49:11.567549 14501 net.cpp:148] Top shape: 24 160 7 7 (188160)
I0403 15:49:11.567564 14501 net.cpp:156] Memory required for data: 1296039456
I0403 15:49:11.567579 14501 layer_factory.hpp:77] Creating layer inception_5a/3x3
I0403 15:49:11.567602 14501 net.cpp:91] Creating Layer inception_5a/3x3
I0403 15:49:11.567620 14501 net.cpp:425] inception_5a/3x3 <- inception_5a/3x3_reduce
I0403 15:49:11.567642 14501 net.cpp:399] inception_5a/3x3 -> inception_5a/3x3
I0403 15:49:11.572700 14501 net.cpp:141] Setting up inception_5a/3x3
I0403 15:49:11.572731 14501 net.cpp:148] Top shape: 24 320 7 7 (376320)
I0403 15:49:11.572747 14501 net.cpp:156] Memory required for data: 1297544736
I0403 15:49:11.572767 14501 layer_factory.hpp:77] Creating layer inception_5a/relu_3x3
I0403 15:49:11.572784 14501 net.cpp:91] Creating Layer inception_5a/relu_3x3
I0403 15:49:11.572801 14501 net.cpp:425] inception_5a/relu_3x3 <- inception_5a/3x3
I0403 15:49:11.572821 14501 net.cpp:386] inception_5a/relu_3x3 -> inception_5a/3x3 (in-place)
I0403 15:49:11.573129 14501 net.cpp:141] Setting up inception_5a/relu_3x3
I0403 15:49:11.573158 14501 net.cpp:148] Top shape: 24 320 7 7 (376320)
I0403 15:49:11.573173 14501 net.cpp:156] Memory required for data: 1299050016
I0403 15:49:11.573189 14501 layer_factory.hpp:77] Creating layer inception_5a/5x5_reduce
I0403 15:49:11.573213 14501 net.cpp:91] Creating Layer inception_5a/5x5_reduce
I0403 15:49:11.573231 14501 net.cpp:425] inception_5a/5x5_reduce <- pool4/3x3_s2_pool4/3x3_s2_0_split_2
I0403 15:49:11.573252 14501 net.cpp:399] inception_5a/5x5_reduce -> inception_5a/5x5_reduce
I0403 15:49:11.574432 14501 net.cpp:141] Setting up inception_5a/5x5_reduce
I0403 15:49:11.574461 14501 net.cpp:148] Top shape: 24 32 7 7 (37632)
I0403 15:49:11.574477 14501 net.cpp:156] Memory required for data: 1299200544
I0403 15:49:11.574496 14501 layer_factory.hpp:77] Creating layer inception_5a/relu_5x5_reduce
I0403 15:49:11.574517 14501 net.cpp:91] Creating Layer inception_5a/relu_5x5_reduce
I0403 15:49:11.574534 14501 net.cpp:425] inception_5a/relu_5x5_reduce <- inception_5a/5x5_reduce
I0403 15:49:11.574551 14501 net.cpp:386] inception_5a/relu_5x5_reduce -> inception_5a/5x5_reduce (in-place)
I0403 15:49:11.574853 14501 net.cpp:141] Setting up inception_5a/relu_5x5_reduce
I0403 15:49:11.574880 14501 net.cpp:148] Top shape: 24 32 7 7 (37632)
I0403 15:49:11.574897 14501 net.cpp:156] Memory required for data: 1299351072
I0403 15:49:11.574911 14501 layer_factory.hpp:77] Creating layer inception_5a/5x5
I0403 15:49:11.574934 14501 net.cpp:91] Creating Layer inception_5a/5x5
I0403 15:49:11.574954 14501 net.cpp:425] inception_5a/5x5 <- inception_5a/5x5_reduce
I0403 15:49:11.574975 14501 net.cpp:399] inception_5a/5x5 -> inception_5a/5x5
I0403 15:49:11.576738 14501 net.cpp:141] Setting up inception_5a/5x5
I0403 15:49:11.576779 14501 net.cpp:148] Top shape: 24 128 7 7 (150528)
I0403 15:49:11.576795 14501 net.cpp:156] Memory required for data: 1299953184
I0403 15:49:11.576813 14501 layer_factory.hpp:77] Creating layer inception_5a/relu_5x5
I0403 15:49:11.576831 14501 net.cpp:91] Creating Layer inception_5a/relu_5x5
I0403 15:49:11.576848 14501 net.cpp:425] inception_5a/relu_5x5 <- inception_5a/5x5
I0403 15:49:11.576867 14501 net.cpp:386] inception_5a/relu_5x5 -> inception_5a/5x5 (in-place)
I0403 15:49:11.577056 14501 net.cpp:141] Setting up inception_5a/relu_5x5
I0403 15:49:11.577081 14501 net.cpp:148] Top shape: 24 128 7 7 (150528)
I0403 15:49:11.577100 14501 net.cpp:156] Memory required for data: 1300555296
I0403 15:49:11.577116 14501 layer_factory.hpp:77] Creating layer inception_5a/pool
I0403 15:49:11.577136 14501 net.cpp:91] Creating Layer inception_5a/pool
I0403 15:49:11.577153 14501 net.cpp:425] inception_5a/pool <- pool4/3x3_s2_pool4/3x3_s2_0_split_3
I0403 15:49:11.577172 14501 net.cpp:399] inception_5a/pool -> inception_5a/pool
I0403 15:49:11.577242 14501 net.cpp:141] Setting up inception_5a/pool
I0403 15:49:11.577266 14501 net.cpp:148] Top shape: 24 832 7 7 (978432)
I0403 15:49:11.577280 14501 net.cpp:156] Memory required for data: 1304469024
I0403 15:49:11.577296 14501 layer_factory.hpp:77] Creating layer inception_5a/pool_proj
I0403 15:49:11.577317 14501 net.cpp:91] Creating Layer inception_5a/pool_proj
I0403 15:49:11.577334 14501 net.cpp:425] inception_5a/pool_proj <- inception_5a/pool
I0403 15:49:11.577355 14501 net.cpp:399] inception_5a/pool_proj -> inception_5a/pool_proj
I0403 15:49:11.579586 14501 net.cpp:141] Setting up inception_5a/pool_proj
I0403 15:49:11.579617 14501 net.cpp:148] Top shape: 24 128 7 7 (150528)
I0403 15:49:11.579633 14501 net.cpp:156] Memory required for data: 1305071136
I0403 15:49:11.579653 14501 layer_factory.hpp:77] Creating layer inception_5a/relu_pool_proj
I0403 15:49:11.579669 14501 net.cpp:91] Creating Layer inception_5a/relu_pool_proj
I0403 15:49:11.579686 14501 net.cpp:425] inception_5a/relu_pool_proj <- inception_5a/pool_proj
I0403 15:49:11.579705 14501 net.cpp:386] inception_5a/relu_pool_proj -> inception_5a/pool_proj (in-place)
I0403 15:49:11.580003 14501 net.cpp:141] Setting up inception_5a/relu_pool_proj
I0403 15:49:11.580031 14501 net.cpp:148] Top shape: 24 128 7 7 (150528)
I0403 15:49:11.580046 14501 net.cpp:156] Memory required for data: 1305673248
I0403 15:49:11.580061 14501 layer_factory.hpp:77] Creating layer inception_5a/output
I0403 15:49:11.580077 14501 net.cpp:91] Creating Layer inception_5a/output
I0403 15:49:11.580097 14501 net.cpp:425] inception_5a/output <- inception_5a/1x1
I0403 15:49:11.580116 14501 net.cpp:425] inception_5a/output <- inception_5a/3x3
I0403 15:49:11.580132 14501 net.cpp:425] inception_5a/output <- inception_5a/5x5
I0403 15:49:11.580148 14501 net.cpp:425] inception_5a/output <- inception_5a/pool_proj
I0403 15:49:11.580165 14501 net.cpp:399] inception_5a/output -> inception_5a/output
I0403 15:49:11.580216 14501 net.cpp:141] Setting up inception_5a/output
I0403 15:49:11.580240 14501 net.cpp:148] Top shape: 24 832 7 7 (978432)
I0403 15:49:11.580255 14501 net.cpp:156] Memory required for data: 1309586976
I0403 15:49:11.580268 14501 layer_factory.hpp:77] Creating layer inception_5a/output_inception_5a/output_0_split
I0403 15:49:11.580287 14501 net.cpp:91] Creating Layer inception_5a/output_inception_5a/output_0_split
I0403 15:49:11.580303 14501 net.cpp:425] inception_5a/output_inception_5a/output_0_split <- inception_5a/output
I0403 15:49:11.580319 14501 net.cpp:399] inception_5a/output_inception_5a/output_0_split -> inception_5a/output_inception_5a/output_0_split_0
I0403 15:49:11.580339 14501 net.cpp:399] inception_5a/output_inception_5a/output_0_split -> inception_5a/output_inception_5a/output_0_split_1
I0403 15:49:11.580359 14501 net.cpp:399] inception_5a/output_inception_5a/output_0_split -> inception_5a/output_inception_5a/output_0_split_2
I0403 15:49:11.580382 14501 net.cpp:399] inception_5a/output_inception_5a/output_0_split -> inception_5a/output_inception_5a/output_0_split_3
I0403 15:49:11.580492 14501 net.cpp:141] Setting up inception_5a/output_inception_5a/output_0_split
I0403 15:49:11.580516 14501 net.cpp:148] Top shape: 24 832 7 7 (978432)
I0403 15:49:11.580533 14501 net.cpp:148] Top shape: 24 832 7 7 (978432)
I0403 15:49:11.580546 14501 net.cpp:148] Top shape: 24 832 7 7 (978432)
I0403 15:49:11.580561 14501 net.cpp:148] Top shape: 24 832 7 7 (978432)
I0403 15:49:11.580575 14501 net.cpp:156] Memory required for data: 1325241888
I0403 15:49:11.580590 14501 layer_factory.hpp:77] Creating layer inception_5b/1x1
I0403 15:49:11.580611 14501 net.cpp:91] Creating Layer inception_5b/1x1
I0403 15:49:11.580628 14501 net.cpp:425] inception_5b/1x1 <- inception_5a/output_inception_5a/output_0_split_0
I0403 15:49:11.580649 14501 net.cpp:399] inception_5b/1x1 -> inception_5b/1x1
I0403 15:49:11.584313 14501 net.cpp:141] Setting up inception_5b/1x1
I0403 15:49:11.584345 14501 net.cpp:148] Top shape: 24 384 7 7 (451584)
I0403 15:49:11.584363 14501 net.cpp:156] Memory required for data: 1327048224
I0403 15:49:11.584381 14501 layer_factory.hpp:77] Creating layer inception_5b/relu_1x1
I0403 15:49:11.584398 14501 net.cpp:91] Creating Layer inception_5b/relu_1x1
I0403 15:49:11.584414 14501 net.cpp:425] inception_5b/relu_1x1 <- inception_5b/1x1
I0403 15:49:11.584434 14501 net.cpp:386] inception_5b/relu_1x1 -> inception_5b/1x1 (in-place)
I0403 15:49:11.584730 14501 net.cpp:141] Setting up inception_5b/relu_1x1
I0403 15:49:11.584759 14501 net.cpp:148] Top shape: 24 384 7 7 (451584)
I0403 15:49:11.584776 14501 net.cpp:156] Memory required for data: 1328854560
I0403 15:49:11.584791 14501 layer_factory.hpp:77] Creating layer inception_5b/3x3_reduce
I0403 15:49:11.584813 14501 net.cpp:91] Creating Layer inception_5b/3x3_reduce
I0403 15:49:11.584831 14501 net.cpp:425] inception_5b/3x3_reduce <- inception_5a/output_inception_5a/output_0_split_1
I0403 15:49:11.584851 14501 net.cpp:399] inception_5b/3x3_reduce -> inception_5b/3x3_reduce
I0403 15:49:11.587446 14501 net.cpp:141] Setting up inception_5b/3x3_reduce
I0403 15:49:11.587479 14501 net.cpp:148] Top shape: 24 192 7 7 (225792)
I0403 15:49:11.587496 14501 net.cpp:156] Memory required for data: 1329757728
I0403 15:49:11.587512 14501 layer_factory.hpp:77] Creating layer inception_5b/relu_3x3_reduce
I0403 15:49:11.587532 14501 net.cpp:91] Creating Layer inception_5b/relu_3x3_reduce
I0403 15:49:11.587548 14501 net.cpp:425] inception_5b/relu_3x3_reduce <- inception_5b/3x3_reduce
I0403 15:49:11.587565 14501 net.cpp:386] inception_5b/relu_3x3_reduce -> inception_5b/3x3_reduce (in-place)
I0403 15:49:11.587756 14501 net.cpp:141] Setting up inception_5b/relu_3x3_reduce
I0403 15:49:11.587781 14501 net.cpp:148] Top shape: 24 192 7 7 (225792)
I0403 15:49:11.587795 14501 net.cpp:156] Memory required for data: 1330660896
I0403 15:49:11.587810 14501 layer_factory.hpp:77] Creating layer inception_5b/3x3
I0403 15:49:11.587831 14501 net.cpp:91] Creating Layer inception_5b/3x3
I0403 15:49:11.587848 14501 net.cpp:425] inception_5b/3x3 <- inception_5b/3x3_reduce
I0403 15:49:11.587870 14501 net.cpp:399] inception_5b/3x3 -> inception_5b/3x3
I0403 15:49:11.594432 14501 net.cpp:141] Setting up inception_5b/3x3
I0403 15:49:11.594463 14501 net.cpp:148] Top shape: 24 384 7 7 (451584)
I0403 15:49:11.594480 14501 net.cpp:156] Memory required for data: 1332467232
I0403 15:49:11.594498 14501 layer_factory.hpp:77] Creating layer inception_5b/relu_3x3
I0403 15:49:11.594516 14501 net.cpp:91] Creating Layer inception_5b/relu_3x3
I0403 15:49:11.594532 14501 net.cpp:425] inception_5b/relu_3x3 <- inception_5b/3x3
I0403 15:49:11.594550 14501 net.cpp:386] inception_5b/relu_3x3 -> inception_5b/3x3 (in-place)
I0403 15:49:11.594848 14501 net.cpp:141] Setting up inception_5b/relu_3x3
I0403 15:49:11.594877 14501 net.cpp:148] Top shape: 24 384 7 7 (451584)
I0403 15:49:11.594892 14501 net.cpp:156] Memory required for data: 1334273568
I0403 15:49:11.594907 14501 layer_factory.hpp:77] Creating layer inception_5b/5x5_reduce
I0403 15:49:11.594944 14501 net.cpp:91] Creating Layer inception_5b/5x5_reduce
I0403 15:49:11.594964 14501 net.cpp:425] inception_5b/5x5_reduce <- inception_5a/output_inception_5a/output_0_split_2
I0403 15:49:11.594985 14501 net.cpp:399] inception_5b/5x5_reduce -> inception_5b/5x5_reduce
I0403 15:49:11.596240 14501 net.cpp:141] Setting up inception_5b/5x5_reduce
I0403 15:49:11.596271 14501 net.cpp:148] Top shape: 24 48 7 7 (56448)
I0403 15:49:11.596288 14501 net.cpp:156] Memory required for data: 1334499360
I0403 15:49:11.596307 14501 layer_factory.hpp:77] Creating layer inception_5b/relu_5x5_reduce
I0403 15:49:11.596324 14501 net.cpp:91] Creating Layer inception_5b/relu_5x5_reduce
I0403 15:49:11.596341 14501 net.cpp:425] inception_5b/relu_5x5_reduce <- inception_5b/5x5_reduce
I0403 15:49:11.596360 14501 net.cpp:386] inception_5b/relu_5x5_reduce -> inception_5b/5x5_reduce (in-place)
I0403 15:49:11.596726 14501 net.cpp:141] Setting up inception_5b/relu_5x5_reduce
I0403 15:49:11.596753 14501 net.cpp:148] Top shape: 24 48 7 7 (56448)
I0403 15:49:11.596767 14501 net.cpp:156] Memory required for data: 1334725152
I0403 15:49:11.596782 14501 layer_factory.hpp:77] Creating layer inception_5b/5x5
I0403 15:49:11.596801 14501 net.cpp:91] Creating Layer inception_5b/5x5
I0403 15:49:11.596818 14501 net.cpp:425] inception_5b/5x5 <- inception_5b/5x5_reduce
I0403 15:49:11.596837 14501 net.cpp:399] inception_5b/5x5 -> inception_5b/5x5
I0403 15:49:11.598842 14501 net.cpp:141] Setting up inception_5b/5x5
I0403 15:49:11.598870 14501 net.cpp:148] Top shape: 24 128 7 7 (150528)
I0403 15:49:11.598886 14501 net.cpp:156] Memory required for data: 1335327264
I0403 15:49:11.598903 14501 layer_factory.hpp:77] Creating layer inception_5b/relu_5x5
I0403 15:49:11.598922 14501 net.cpp:91] Creating Layer inception_5b/relu_5x5
I0403 15:49:11.598938 14501 net.cpp:425] inception_5b/relu_5x5 <- inception_5b/5x5
I0403 15:49:11.598958 14501 net.cpp:386] inception_5b/relu_5x5 -> inception_5b/5x5 (in-place)
I0403 15:49:11.599153 14501 net.cpp:141] Setting up inception_5b/relu_5x5
I0403 15:49:11.599177 14501 net.cpp:148] Top shape: 24 128 7 7 (150528)
I0403 15:49:11.599195 14501 net.cpp:156] Memory required for data: 1335929376
I0403 15:49:11.599208 14501 layer_factory.hpp:77] Creating layer inception_5b/pool
I0403 15:49:11.599228 14501 net.cpp:91] Creating Layer inception_5b/pool
I0403 15:49:11.599246 14501 net.cpp:425] inception_5b/pool <- inception_5a/output_inception_5a/output_0_split_3
I0403 15:49:11.599263 14501 net.cpp:399] inception_5b/pool -> inception_5b/pool
I0403 15:49:11.599336 14501 net.cpp:141] Setting up inception_5b/pool
I0403 15:49:11.599360 14501 net.cpp:148] Top shape: 24 832 7 7 (978432)
I0403 15:49:11.599375 14501 net.cpp:156] Memory required for data: 1339843104
I0403 15:49:11.599390 14501 layer_factory.hpp:77] Creating layer inception_5b/pool_proj
I0403 15:49:11.599411 14501 net.cpp:91] Creating Layer inception_5b/pool_proj
I0403 15:49:11.599429 14501 net.cpp:425] inception_5b/pool_proj <- inception_5b/pool
I0403 15:49:11.599450 14501 net.cpp:399] inception_5b/pool_proj -> inception_5b/pool_proj
I0403 15:49:11.601694 14501 net.cpp:141] Setting up inception_5b/pool_proj
I0403 15:49:11.601725 14501 net.cpp:148] Top shape: 24 128 7 7 (150528)
I0403 15:49:11.601742 14501 net.cpp:156] Memory required for data: 1340445216
I0403 15:49:11.601760 14501 layer_factory.hpp:77] Creating layer inception_5b/relu_pool_proj
I0403 15:49:11.601778 14501 net.cpp:91] Creating Layer inception_5b/relu_pool_proj
I0403 15:49:11.601795 14501 net.cpp:425] inception_5b/relu_pool_proj <- inception_5b/pool_proj
I0403 15:49:11.601814 14501 net.cpp:386] inception_5b/relu_pool_proj -> inception_5b/pool_proj (in-place)
I0403 15:49:11.602110 14501 net.cpp:141] Setting up inception_5b/relu_pool_proj
I0403 15:49:11.602138 14501 net.cpp:148] Top shape: 24 128 7 7 (150528)
I0403 15:49:11.602154 14501 net.cpp:156] Memory required for data: 1341047328
I0403 15:49:11.602170 14501 layer_factory.hpp:77] Creating layer inception_5b/output
I0403 15:49:11.602186 14501 net.cpp:91] Creating Layer inception_5b/output
I0403 15:49:11.602217 14501 net.cpp:425] inception_5b/output <- inception_5b/1x1
I0403 15:49:11.602234 14501 net.cpp:425] inception_5b/output <- inception_5b/3x3
I0403 15:49:11.602251 14501 net.cpp:425] inception_5b/output <- inception_5b/5x5
I0403 15:49:11.602265 14501 net.cpp:425] inception_5b/output <- inception_5b/pool_proj
I0403 15:49:11.602284 14501 net.cpp:399] inception_5b/output -> inception_5b/output
I0403 15:49:11.602336 14501 net.cpp:141] Setting up inception_5b/output
I0403 15:49:11.602360 14501 net.cpp:148] Top shape: 24 1024 7 7 (1204224)
I0403 15:49:11.602375 14501 net.cpp:156] Memory required for data: 1345864224
I0403 15:49:11.602390 14501 layer_factory.hpp:77] Creating layer pool5/7x7_s1
I0403 15:49:11.602411 14501 net.cpp:91] Creating Layer pool5/7x7_s1
I0403 15:49:11.602427 14501 net.cpp:425] pool5/7x7_s1 <- inception_5b/output
I0403 15:49:11.602445 14501 net.cpp:399] pool5/7x7_s1 -> pool5/7x7_s1
I0403 15:49:11.602658 14501 net.cpp:141] Setting up pool5/7x7_s1
I0403 15:49:11.602684 14501 net.cpp:148] Top shape: 24 1024 1 1 (24576)
I0403 15:49:11.602697 14501 net.cpp:156] Memory required for data: 1345962528
I0403 15:49:11.602712 14501 layer_factory.hpp:77] Creating layer pool5/drop_7x7_s1
I0403 15:49:11.602730 14501 net.cpp:91] Creating Layer pool5/drop_7x7_s1
I0403 15:49:11.602746 14501 net.cpp:425] pool5/drop_7x7_s1 <- pool5/7x7_s1
I0403 15:49:11.602766 14501 net.cpp:386] pool5/drop_7x7_s1 -> pool5/7x7_s1 (in-place)
I0403 15:49:11.602816 14501 net.cpp:141] Setting up pool5/drop_7x7_s1
I0403 15:49:11.602841 14501 net.cpp:148] Top shape: 24 1024 1 1 (24576)
I0403 15:49:11.602856 14501 net.cpp:156] Memory required for data: 1346060832
I0403 15:49:11.602871 14501 layer_factory.hpp:77] Creating layer loss3/classifier_plantvillage
I0403 15:49:11.602890 14501 net.cpp:91] Creating Layer loss3/classifier_plantvillage
I0403 15:49:11.602906 14501 net.cpp:425] loss3/classifier_plantvillage <- pool5/7x7_s1
I0403 15:49:11.602926 14501 net.cpp:399] loss3/classifier_plantvillage -> loss3/classifier_plantvillage
I0403 15:49:11.603351 14501 net.cpp:141] Setting up loss3/classifier_plantvillage
I0403 15:49:11.603379 14501 net.cpp:148] Top shape: 24 38 (912)
I0403 15:49:11.603394 14501 net.cpp:156] Memory required for data: 1346064480
I0403 15:49:11.603412 14501 layer_factory.hpp:77] Creating layer loss3/classifier_plantvillage_loss3/classifier_plantvillage_0_split
I0403 15:49:11.603430 14501 net.cpp:91] Creating Layer loss3/classifier_plantvillage_loss3/classifier_plantvillage_0_split
I0403 15:49:11.603446 14501 net.cpp:425] loss3/classifier_plantvillage_loss3/classifier_plantvillage_0_split <- loss3/classifier_plantvillage
I0403 15:49:11.603464 14501 net.cpp:399] loss3/classifier_plantvillage_loss3/classifier_plantvillage_0_split -> loss3/classifier_plantvillage_loss3/classifier_plantvillage_0_split_0
I0403 15:49:11.603484 14501 net.cpp:399] loss3/classifier_plantvillage_loss3/classifier_plantvillage_0_split -> loss3/classifier_plantvillage_loss3/classifier_plantvillage_0_split_1
I0403 15:49:11.603504 14501 net.cpp:399] loss3/classifier_plantvillage_loss3/classifier_plantvillage_0_split -> loss3/classifier_plantvillage_loss3/classifier_plantvillage_0_split_2
I0403 15:49:11.603528 14501 net.cpp:399] loss3/classifier_plantvillage_loss3/classifier_plantvillage_0_split -> loss3/classifier_plantvillage_loss3/classifier_plantvillage_0_split_3
I0403 15:49:11.603626 14501 net.cpp:141] Setting up loss3/classifier_plantvillage_loss3/classifier_plantvillage_0_split
I0403 15:49:11.603651 14501 net.cpp:148] Top shape: 24 38 (912)
I0403 15:49:11.603667 14501 net.cpp:148] Top shape: 24 38 (912)
I0403 15:49:11.603682 14501 net.cpp:148] Top shape: 24 38 (912)
I0403 15:49:11.603698 14501 net.cpp:148] Top shape: 24 38 (912)
I0403 15:49:11.603711 14501 net.cpp:156] Memory required for data: 1346079072
I0403 15:49:11.603725 14501 layer_factory.hpp:77] Creating layer loss1/loss
I0403 15:49:11.603746 14501 net.cpp:91] Creating Layer loss1/loss
I0403 15:49:11.603763 14501 net.cpp:425] loss1/loss <- loss1/classifier_plantvillage_loss1/classifier_plantvillage_0_split_0
I0403 15:49:11.603793 14501 net.cpp:425] loss1/loss <- label_data_1_split_0
…
