…
I0403 15:41:24.099730 14013 net.cpp:313] The NetState phase (1) differed from the phase (0) specified by a rule in layer data
I0403 15:41:24.100836 14013 net.cpp:49] Initializing net from parameters: 
state {
  phase: TEST
}
layer {
  name: "data"
  type: "Data"
  top: "data"
  top: "label"
  include {
    phase: TEST
  }
  transform_param {
    mirror: false
    crop_size: 224
    mean_file: "/home/mohanty/data/final_dataset/lmdb/color-80-20/mean.binaryproto"
  }
  data_param {
    source: "/home/mohanty/data/final_dataset/lmdb/color-80-20/test_db"
    batch_size: 24
    backend: LMDB
  }
}
layer {
  name: "conv1/7x7_s2"
  type: "Convolution"
  bottom: "data"
  top: "conv1/7x7_s2"
  param {
    lr_mult: 1
    decay_mult: 1
  }
  param {
    lr_mult: 2
    decay_mult: 0
  }
  convolution_param {
    num_output: 64
    pad: 3
    kernel_size: 7
    stride: 2
    weight_filler {
      type: "xavier"
      std: 0.1
    }
    bias_filler {
      type: "constant"
      value: 0.2
    }
  }
}
layer {
  name: "conv1/relu_7x7"
  type: "ReLU"
  bottom: "conv1/7x7_s2"
  top: "conv1/7x7_s2"
}
layer {
  name: "pool1/3x3_s2"
  type: "Pooling"
  bottom: "conv1/7x7_s2"
  top: "pool1/3x3_s2"
  pooling_param {
    pool: MAX
    kernel_size: 3
    stride: 2
  }
}
layer {
  name: "pool1/norm1"
  type: "LRN"
  bottom: "pool1/3x3_s2"
  top: "pool1/norm1"
  lrn_param {
    local_size: 5
    alpha: 0.0001
    beta: 0.75
  }
}
layer {
  name: "conv2/3x3_reduce"
  type: "Convolution"
  bottom: "pool1/norm1"
  top: "conv2/3x3_reduce"
  param {
    lr_mult: 1
    decay_mult: 1
  }
  param {
    lr_mult: 2
    decay_mult: 0
  }
  convolution_param {
    num_output: 64
    kernel_size: 1
    weight_filler {
      type: "xavier"
      std: 0.1
    }
    bias_filler {
      type: "constant"
      value: 0.2
    }
  }
}
layer {
  name: "conv2/relu_3x3_reduce"
  type: "ReLU"
  bottom: "conv2/3x3_reduce"
  top: "conv2/3x3_reduce"
}
layer {
  name: "conv2/3x3"
  type: "Convolution"
  bottom: "conv2/3x3_reduce"
  top: "conv2/3x3"
  param {
    lr_mult: 1
    decay_mult: 1
  }
  param {
    lr_mult: 2
    decay_mult: 0
  }
  convolution_param {
    num_output: 192
    pad: 1
    kernel_size: 3
    weight_filler {
      type: "xavier"
      std: 0.03
    }
    bias_filler {
      type: "constant"
      value: 0.2
    }
  }
}
layer {
  name: "conv2/relu_3x3"
  type: "ReLU"
  bottom: "conv2/3x3"
  top: "conv2/3x3"
}
layer {
  name: "conv2/norm2"
  type: "LRN"
  bottom: "conv2/3x3"
  top: "conv2/norm2"
  lrn_param {
    local_size: 5
    alpha: 0.0001
    beta: 0.75
  }
}
layer {
  name: "pool2/3x3_s2"
  type: "Pooling"
  bottom: "conv2/norm2"
  top: "pool2/3x3_s2"
  pooling_param {
    pool: MAX
    kernel_size: 3
    stride: 2
  }
}
layer {
  name: "inception_3a/1x1"
  type: "Convolution"
  bottom: "pool2/3x3_s2"
  top: "inception_3a/1x1"
  param {
    lr_mult: 1
    decay_mult: 1
  }
  param {
    lr_mult: 2
    decay_mult: 0
  }
  convolution_param {
    num_output: 64
    kernel_size: 1
    weight_filler {
      type: "xavier"
      std: 0.03
    }
    bias_filler {
      type: "constant"
      value: 0.2
    }
  }
}
layer {
  name: "inception_3a/relu_1x1"
  type: "ReLU"
  bottom: "inception_3a/1x1"
  top: "inception_3a/1x1"
}
layer {
  name: "inception_3a/3x3_reduce"
  type: "Convolution"
  bottom: "pool2/3x3_s2"
  top: "inception_3a/3x3_reduce"
  param {
    lr_mult: 1
    decay_mult: 1
  }
  param {
    lr_mult: 2
    decay_mult: 0
  }
  convolution_param {
    num_output: 96
    kernel_size: 1
    weight_filler {
      type: "xavier"
      std: 0.09
    }
    bias_filler {
      type: "constant"
      value: 0.2
    }
  }
}
layer {
  name: "inception_3a/relu_3x3_reduce"
  type: "ReLU"
  bottom: "inception_3a/3x3_reduce"
  top: "inception_3a/3x3_reduce"
}
layer {
  name: "inception_3a/3x3"
  type: "Convolution"
  bottom: "inception_3a/3x3_reduce"
  top: "inception_3a/3x3"
  param {
    lr_mult: 1
    decay_mult: 1
  }
  param {
    lr_mult: 2
    decay_mult: 0
  }
  convolution_param {
    num_output: 128
    pad: 1
    kernel_size: 3
    weight_filler {
      type: "xavier"
      std: 0.03
    }
    bias_filler {
      type: "constant"
      value: 0.2
    }
  }
}
layer {
  name: "inception_3a/relu_3x3"
  type: "ReLU"
  bottom: "inception_3a/3x3"
  top: "inception_3a/3x3"
}
layer {
  name: "inception_3a/5x5_reduce"
  type: "Convolution"
  bottom: "pool2/3x3_s2"
  top: "inception_3a/5x5_reduce"
  param {
    lr_mult: 1
    decay_mult: 1
  }
  param {
    lr_mult: 2
    decay_mult: 0
  }
  convolution_param {
    num_output: 16
    kernel_size: 1
    weight_filler {
      type: "xavier"
      std: 0.2
    }
    bias_filler {
      type: "constant"
      value: 0.2
    }
  }
}
layer {
  name: "inception_3a/relu_5x5_reduce"
  type: "ReLU"
  bottom: "inception_3a/5x5_reduce"
  top: "inception_3a/5x5_reduce"
}
layer {
  name: "inception_3a/5x5"
  type: "Convolution"
  bottom: "inception_3a/5x5_reduce"
  top: "inception_3a/5x5"
  param {
    lr_mult: 1
    decay_mult: 1
  }
  param {
    lr_mult: 2
    decay_mult: 0
  }
  convolution_param {
    num_output: 32
    pad: 2
    kernel_size: 5
    weight_filler {
      type: "xavier"
      std: 0.03
    }
    bias_filler {
      type: "constant"
      value: 0.2
    }
  }
}
layer {
  name: "inception_3a/relu_5x5"
  type: "ReLU"
  bottom: "inception_3a/5x5"
  top: "inception_3a/5x5"
}
layer {
  name: "inception_3a/pool"
  type: "Pooling"
  bottom: "pool2/3x3_s2"
  top: "inception_3a/pool"
  pooling_param {
    pool: MAX
    kernel_size: 3
    stride: 1
    pad: 1
  }
}
layer {
  name: "inception_3a/pool_proj"
  type: "Convolution"
  bottom: "inception_3a/pool"
  top: "inception_3a/pool_proj"
  param {
    lr_mult: 1
    decay_mult: 1
  }
  param {
    lr_mult: 2
    decay_mult: 0
  }
  convolution_param {
    num_output: 32
    kernel_size: 1
    weight_filler {
      type: "xavier"
      std: 0.1
    }
    bias_filler {
      type: "constant"
      value: 0.2
    }
  }
}
layer {
  name: "inception_3a/relu_pool_proj"
  type: "ReLU"
  bottom: "inception_3a/pool_proj"
  top: "inception_3a/pool_proj"
}
layer {
  name: "inception_3a/output"
  type: "Concat"
  bottom: "inception_3a/1x1"
  bottom: "inception_3a/3x3"
  bottom: "inception_3a/5x5"
  bottom: "inception_3a/pool_proj"
  top: "inception_3a/output"
}
layer {
  name: "inception_3b/1x1"
  type: "Convolution"
  bottom: "inception_3a/output"
  top: "inception_3b/1x1"
  param {
    lr_mult: 1
    decay_mult: 1
  }
  param {
    lr_mult: 2
    decay_mult: 0
  }
  convolution_param {
    num_output: 128
    kernel_size: 1
    weight_filler {
      type: "xavier"
      std: 0.03
    }
    bias_filler {
      type: "constant"
      value: 0.2
    }
  }
}
layer {
  name: "inception_3b/relu_1x1"
  type: "ReLU"
  bottom: "inception_3b/1x1"
  top: "inception_3b/1x1"
}
layer {
  name: "inception_3b/3x3_reduce"
  type: "Convolution"
  bottom: "inception_3a/output"
  top: "inception_3b/3x3_reduce"
  param {
    lr_mult: 1
    decay_mult: 1
  }
  param {
    lr_mult: 2
    decay_mult: 0
  }
  convolution_param {
    num_output: 128
    kernel_size: 1
    weight_filler {
      type: "xavier"
      std: 0.09
    }
    bias_filler {
      type: "constant"
      value: 0.2
    }
  }
}
layer {
  name: "inception_3b/relu_3x3_reduce"
  type: "ReLU"
  bottom: "inception_3b/3x3_reduce"
  top: "inception_3b/3x3_reduce"
}
layer {
  name: "inception_3b/3x3"
  type: "Convolution"
  bottom: "inception_3b/3x3_reduce"
  top: "inception_3b/3x3"
  param {
    lr_mult: 1
    decay_mult: 1
  }
  param {
    lr_mult: 2
    decay_mult: 0
  }
  convolution_param {
    num_output: 192
    pad: 1
    kernel_size: 3
    weight_filler {
      type: "xavier"
      std: 0.03
    }
    bias_filler {
      type: "constant"
      value: 0.2
    }
  }
}
layer {
  name: "inception_3b/relu_3x3"
  type: "ReLU"
  bottom: "inception_3b/3x3"
  top: "inception_3b/3x3"
}
layer {
  name: "inception_3b/5x5_reduce"
  type: "Convolution"
  bottom: "inception_3a/output"
  top: "inception_3b/5x5_reduce"
  param {
    lr_mult: 1
    decay_mult: 1
  }
  param {
    lr_mult: 2
    decay_mult: 0
  }
  convolution_param {
    num_output: 32
    kernel_size: 1
    weight_filler {
      type: "xavier"
      std: 0.2
    }
    bias_filler {
      type: "constant"
      value: 0.2
    }
  }
}
layer {
  name: "inception_3b/relu_5x5_reduce"
  type: "ReLU"
  bottom: "inception_3b/5x5_reduce"
  top: "inception_3b/5x5_reduce"
}
layer {
  name: "inception_3b/5x5"
  type: "Convolution"
  bottom: "inception_3b/5x5_reduce"
  top: "inception_3b/5x5"
  param {
    lr_mult: 1
    decay_mult: 1
  }
  param {
    lr_mult: 2
    decay_mult: 0
  }
  convolution_param {
    num_output: 96
    pad: 2
    kernel_size: 5
    weight_filler {
      type: "xavier"
      std: 0.03
    }
    bias_filler {
      type: "constant"
      value: 0.2
    }
  }
}
layer {
  name: "inception_3b/relu_5x5"
  type: "ReLU"
  bottom: "inception_3b/5x5"
  top: "inception_3b/5x5"
}
layer {
  name: "inception_3b/pool"
  type: "Pooling"
  bottom: "inception_3a/output"
  top: "inception_3b/pool"
  pooling_param {
    pool: MAX
    kernel_size: 3
    stride: 1
    pad: 1
  }
}
layer {
  name: "inception_3b/pool_proj"
  type: "Convolution"
  bottom: "inception_3b/pool"
  top: "inception_3b/pool_proj"
  param {
    lr_mult: 1
    decay_mult: 1
  }
  param {
    lr_mult: 2
    decay_mult: 0
  }
  convolution_param {
    num_output: 64
    kernel_size: 1
    weight_filler {
      type: "xavier"
      std: 0.1
    }
    bias_filler {
      type: "constant"
      value: 0.2
    }
  }
}
layer {
  name: "inception_3b/relu_pool_proj"
  type: "ReLU"
  bottom: "inception_3b/pool_proj"
  top: "inception_3b/pool_proj"
}
layer {
  name: "inception_3b/output"
  type: "Concat"
  bottom: "inception_3b/1x1"
  bottom: "inception_3b/3x3"
  bottom: "inception_3b/5x5"
  bottom: "inception_3b/pool_proj"
  top: "inception_3b/output"
}
layer {
  name: "pool3/3x3_s2"
  type: "Pooling"
  bottom: "inception_3b/output"
  top: "pool3/3x3_s2"
  pooling_param {
    pool: MAX
    kernel_size: 3
    stride: 2
  }
}
layer {
  name: "inception_4a/1x1"
  type: "Convolution"
  bottom: "pool3/3x3_s2"
  top: "inception_4a/1x1"
  param {
    lr_mult: 1
    decay_mult: 1
  }
  param {
    lr_mult: 2
    decay_mult: 0
  }
  convolution_param {
    num_output: 192
    kernel_size: 1
    weight_filler {
      type: "xavier"
      std: 0.03
    }
    bias_filler {
      type: "constant"
      value: 0.2
    }
  }
}
layer {
  name: "inception_4a/relu_1x1"
  type: "ReLU"
  bottom: "inception_4a/1x1"
  top: "inception_4a/1x1"
}
layer {
  name: "inception_4a/3x3_reduce"
  type: "Convolution"
  bottom: "pool3/3x3_s2"
  top: "inception_4a/3x3_reduce"
  param {
    lr_mult: 1
    decay_mult: 1
  }
  param {
    lr_mult: 2
    decay_mult: 0
  }
  convolution_param {
    num_output: 96
    kernel_size: 1
    weight_filler {
      type: "xavier"
      std: 0.09
    }
    bias_filler {
      type: "constant"
      value: 0.2
    }
  }
}
layer {
  name: "inception_4a/relu_3x3_reduce"
  type: "ReLU"
  bottom: "inception_4a/3x3_reduce"
  top: "inception_4a/3x3_reduce"
}
layer {
  name: "inception_4a/3x3"
  type: "Convolution"
  bottom: "inception_4a/3x3_reduce"
  top: "inception_4a/3x3"
  param {
    lr_mult: 1
    decay_mult: 1
  }
  param {
    lr_mult: 2
    decay_mult: 0
  }
  convolution_param {
    num_output: 208
    pad: 1
    kernel_size: 3
    weight_filler {
      type: "xavier"
      std: 0.03
    }
    bias_filler {
      type: "constant"
      value: 0.2
    }
  }
}
layer {
  name: "inception_4a/relu_3x3"
  type: "ReLU"
  bottom: "inception_4a/3x3"
  top: "inception_4a/3x3"
}
layer {
  name: "inception_4a/5x5_reduce"
  type: "Convolution"
  bottom: "pool3/3x3_s2"
  top: "inception_4a/5x5_reduce"
  param {
    lr_mult: 1
    decay_mult: 1
  }
  param {
    lr_mult: 2
    decay_mult: 0
  }
  convolution_param {
    num_output: 16
    kernel_size: 1
    weight_filler {
      type: "xavier"
      std: 0.2
    }
    bias_filler {
      type: "constant"
      value: 0.2
    }
  }
}
layer {
  name: "inception_4a/relu_5x5_reduce"
  type: "ReLU"
  bottom: "inception_4a/5x5_reduce"
  top: "inception_4a/5x5_reduce"
}
layer {
  name: "inception_4a/5x5"
  type: "Convolution"
  bottom: "inception_4a/5x5_reduce"
  top: "inception_4a/5x5"
  param {
    lr_mult: 1
    decay_mult: 1
  }
  param {
    lr_mult: 2
    decay_mult: 0
  }
  convolution_param {
    num_output: 48
    pad: 2
    kernel_size: 5
    weight_filler {
      type: "xavier"
      std: 0.03
    }
    bias_filler {
      type: "constant"
      value: 0.2
    }
  }
}
layer {
  name: "inception_4a/relu_5x5"
  type: "ReLU"
  bottom: "inception_4a/5x5"
  top: "inception_4a/5x5"
}
layer {
  name: "inception_4a/pool"
  type: "Pooling"
  bottom: "pool3/3x3_s2"
  top: "inception_4a/pool"
  pooling_param {
    pool: MAX
    kernel_size: 3
    stride: 1
    pad: 1
  }
}
layer {
  name: "inception_4a/pool_proj"
  type: "Convolution"
  bottom: "inception_4a/pool"
  top: "inception_4a/pool_proj"
  param {
    lr_mult: 1
    decay_mult: 1
  }
  param {
    lr_mult: 2
    decay_mult: 0
  }
  convolution_param {
    num_output: 64
    kernel_size: 1
    weight_filler {
      type: "xavier"
      std: 0.1
    }
    bias_filler {
      type: "constant"
      value: 0.2
    }
  }
}
layer {
  name: "inception_4a/relu_pool_proj"
  type: "ReLU"
  bottom: "inception_4a/pool_proj"
  top: "inception_4a/pool_proj"
}
layer {
  name: "inception_4a/output"
  type: "Concat"
  bottom: "inception_4a/1x1"
  bottom: "inception_4a/3x3"
  bottom: "inception_4a/5x5"
  bottom: "inception_4a/pool_proj"
  top: "inception_4a/output"
}
layer {
  name: "loss1/ave_pool"
  type: "Pooling"
  bottom: "inception_4a/output"
  top: "loss1/ave_pool"
  pooling_param {
    pool: AVE
    kernel_size: 5
    stride: 3
  }
}
layer {
  name: "loss1/conv"
  type: "Convolution"
  bottom: "loss1/ave_pool"
  top: "loss1/conv"
  param {
    lr_mult: 1
    decay_mult: 1
  }
  param {
    lr_mult: 2
    decay_mult: 0
  }
  convolution_param {
    num_output: 128
    kernel_size: 1
    weight_filler {
      type: "xavier"
      std: 0.08
    }
    bias_filler {
      type: "constant"
      value: 0.2
    }
  }
}
layer {
  name: "loss1/relu_conv"
  type: "ReLU"
  bottom: "loss1/conv"
  top: "loss1/conv"
}
layer {
  name: "loss1/fc"
  type: "InnerProduct"
  bottom: "loss1/conv"
  top: "loss1/fc"
  param {
    lr_mult: 1
    decay_mult: 1
  }
  param {
    lr_mult: 2
    decay_mult: 0
  }
  inner_product_param {
    num_output: 1024
    weight_filler {
      type: "xavier"
      std: 0.02
    }
    bias_filler {
      type: "constant"
      value: 0.2
    }
  }
}
layer {
  name: "loss1/relu_fc"
  type: "ReLU"
  bottom: "loss1/fc"
  top: "loss1/fc"
}
layer {
  name: "loss1/drop_fc"
  type: "Dropout"
  bottom: "loss1/fc"
  top: "loss1/fc"
  dropout_param {
    dropout_ratio: 0.7
  }
}
layer {
  name: "loss1/classifier_plantvillage"
  type: "InnerProduct"
  bottom: "loss1/fc"
  top: "loss1/classifier_plantvillage"
  param {
    lr_mult: 1
    decay_mult: 1
  }
  param {
    lr_mult: 2
    decay_mult: 0
  }
  inner_product_param {
    num_output: 38
    weight_filler {
      type: "xavier"
      std: 0.0009765625
    }
    bias_filler {
      type: "constant"
      value: 0
    }
  }
}
layer {
  name: "inception_4b/1x1"
  type: "Convolution"
  bottom: "inception_4a/output"
  top: "inception_4b/1x1"
  param {
    lr_mult: 1
    decay_mult: 1
  }
  param {
    lr_mult: 2
    decay_mult: 0
  }
  convolution_param {
    num_output: 160
    kernel_size: 1
    weight_filler {
      type: "xavier"
      std: 0.03
    }
    bias_filler {
      type: "constant"
      value: 0.2
    }
  }
}
layer {
  name: "inception_4b/relu_1x1"
  type: "ReLU"
  bottom: "inception_4b/1x1"
  top: "inception_4b/1x1"
}
layer {
  name: "inception_4b/3x3_reduce"
  type: "Convolution"
  bottom: "inception_4a/output"
  top: "inception_4b/3x3_reduce"
  param {
    lr_mult: 1
    decay_mult: 1
  }
  param {
    lr_mult: 2
    decay_mult: 0
  }
  convolution_param {
    num_output: 112
    kernel_size: 1
    weight_filler {
      type: "xavier"
      std: 0.09
    }
    bias_filler {
      type: "constant"
      value: 0.2
    }
  }
}
layer {
  name: "inception_4b/relu_3x3_reduce"
  type: "ReLU"
  bottom: "inception_4b/3x3_reduce"
  top: "inception_4b/3x3_reduce"
}
layer {
  name: "inception_4b/3x3"
  type: "Convolution"
  bottom: "inception_4b/3x3_reduce"
  top: "inception_4b/3x3"
  param {
    lr_mult: 1
    decay_mult: 1
  }
  param {
    lr_mult: 2
    decay_mult: 0
  }
  convolution_param {
    num_output: 224
    pad: 1
    kernel_size: 3
    weight_filler {
      type: "xavier"
      std: 0.03
    }
    bias_filler {
      type: "constant"
      value: 0.2
    }
  }
}
layer {
  name: "inception_4b/relu_3x3"
  type: "ReLU"
  bottom: "inception_4b/3x3"
  top: "inception_4b/3x3"
}
layer {
  name: "inception_4b/5x5_reduce"
  type: "Convolution"
  bottom: "inception_4a/output"
  top: "inception_4b/5x5_reduce"
  param {
    lr_mult: 1
    decay_mult: 1
  }
  param {
    lr_mult: 2
    decay_mult: 0
  }
  convolution_param {
    num_output: 24
    kernel_size: 1
    weight_filler {
      type: "xavier"
      std: 0.2
    }
    bias_filler {
      type: "constant"
      value: 0.2
    }
  }
}
layer {
  name: "inception_4b/relu_5x5_reduce"
  type: "ReLU"
  bottom: "inception_4b/5x5_reduce"
  top: "inception_4b/5x5_reduce"
}
layer {
  name: "inception_4b/5x5"
  type: "Convolution"
  bottom: "inception_4b/5x5_reduce"
  top: "inception_4b/5x5"
  param {
    lr_mult: 1
    decay_mult: 1
  }
  param {
    lr_mult: 2
    decay_mult: 0
  }
  convolution_param {
    num_output: 64
    pad: 2
    kernel_size: 5
    weight_filler {
      type: "xavier"
      std: 0.03
    }
    bias_filler {
      type: "constant"
      value: 0.2
    }
  }
}
layer {
  name: "inception_4b/relu_5x5"
  type: "ReLU"
  bottom: "inception_4b/5x5"
  top: "inception_4b/5x5"
}
layer {
  name: "inception_4b/pool"
  type: "Pooling"
  bottom: "inception_4a/output"
  top: "inception_4b/pool"
  pooling_param {
    pool: MAX
    kernel_size: 3
    stride: 1
    pad: 1
  }
}
layer {
  name: "inception_4b/pool_proj"
  type: "Convolution"
  bottom: "inception_4b/pool"
  top: "inception_4b/pool_proj"
  param {
    lr_mult: 1
    decay_mult: 1
  }
  param {
    lr_mult: 2
    decay_mult: 0
  }
  convolution_param {
    num_output: 64
    kernel_size: 1
    weight_filler {
      type: "xavier"
      std: 0.1
    }
    bias_filler {
      type: "constant"
      value: 0.2
    }
  }
}
layer {
  name: "inception_4b/relu_pool_proj"
  type: "ReLU"
  bottom: "inception_4b/pool_proj"
  top: "inception_4b/pool_proj"
}
layer {
  name: "inception_4b/output"
  type: "Concat"
  bottom: "inception_4b/1x1"
  bottom: "inception_4b/3x3"
  bottom: "inception_4b/5x5"
  bottom: "inception_4b/pool_proj"
  top: "inception_4b/output"
}
layer {
  name: "inception_4c/1x1"
  type: "Convolution"
  bottom: "inception_4b/output"
  top: "inception_4c/1x1"
  param {
    lr_mult: 1
    decay_mult: 1
  }
  param {
    lr_mult: 2
    decay_mult: 0
  }
  convolution_param {
    num_output: 128
    kernel_size: 1
    weight_filler {
      type: "xavier"
      std: 0.03
    }
    bias_filler {
      type: "constant"
      value: 0.2
    }
  }
}
layer {
  name: "inception_4c/relu_1x1"
  type: "ReLU"
  bottom: "inception_4c/1x1"
  top: "inception_4c/1x1"
}
layer {
  name: "inception_4c/3x3_reduce"
  type: "Convolution"
  bottom: "inception_4b/output"
  top: "inception_4c/3x3_reduce"
  param {
    lr_mult: 1
    decay_mult: 1
  }
  param {
    lr_mult: 2
    decay_mult: 0
  }
  convolution_param {
    num_output: 128
    kernel_size: 1
    weight_filler {
      type: "xavier"
      std: 0.09
    }
    bias_filler {
      type: "constant"
      value: 0.2
    }
  }
}
layer {
  name: "inception_4c/relu_3x3_reduce"
  type: "ReLU"
  bottom: "inception_4c/3x3_reduce"
  top: "inception_4c/3x3_reduce"
}
layer {
  name: "inception_4c/3x3"
  type: "Convolution"
  bottom: "inception_4c/3x3_reduce"
  top: "inception_4c/3x3"
  param {
    lr_mult: 1
    decay_mult: 1
  }
  param {
    lr_mult: 2
    decay_mult: 0
  }
  convolution_param {
    num_output: 256
    pad: 1
    kernel_size: 3
    weight_filler {
      type: "xavier"
      std: 0.03
    }
    bias_filler {
      type: "constant"
      value: 0.2
    }
  }
}
layer {
  name: "inception_4c/relu_3x3"
  type: "ReLU"
  bottom: "inception_4c/3x3"
  top: "inception_4c/3x3"
}
layer {
  name: "inception_4c/5x5_reduce"
  type: "Convolution"
  bottom: "inception_4b/output"
  top: "inception_4c/5x5_reduce"
  param {
    lr_mult: 1
    decay_mult: 1
  }
  param {
    lr_mult: 2
    decay_mult: 0
  }
  convolution_param {
    num_output: 24
    kernel_size: 1
    weight_filler {
      type: "xavier"
      std: 0.2
    }
    bias_filler {
      type: "constant"
      value: 0.2
    }
  }
}
layer {
  name: "inception_4c/relu_5x5_reduce"
  type: "ReLU"
  bottom: "inception_4c/5x5_reduce"
  top: "inception_4c/5x5_reduce"
}
layer {
  name: "inception_4c/5x5"
  type: "Convolution"
  bottom: "inception_4c/5x5_reduce"
  top: "inception_4c/5x5"
  param {
    lr_mult: 1
    decay_mult: 1
  }
  param {
    lr_mult: 2
    decay_mult: 0
  }
  convolution_param {
    num_output: 64
    pad: 2
    kernel_size: 5
    weight_filler {
      type: "xavier"
      std: 0.03
    }
    bias_filler {
      type: "constant"
      value: 0.2
    }
  }
}
layer {
  name: "inception_4c/relu_5x5"
  type: "ReLU"
  bottom: "inception_4c/5x5"
  top: "inception_4c/5x5"
}
layer {
  name: "inception_4c/pool"
  type: "Pooling"
  bottom: "inception_4b/output"
  top: "inception_4c/pool"
  pooling_param {
    pool: MAX
    kernel_size: 3
    stride: 1
    pad: 1
  }
}
layer {
  name: "inception_4c/pool_proj"
  type: "Convolution"
  bottom: "inception_4c/pool"
  top: "inception_4c/pool_proj"
  param {
    lr_mult: 1
    decay_mult: 1
  }
  param {
    lr_mult: 2
    decay_mult: 0
  }
  convolution_param {
    num_output: 64
    kernel_size: 1
    weight_filler {
      type: "xavier"
      std: 0.1
    }
    bias_filler {
      type: "constant"
      value: 0.2
    }
  }
}
layer {
  name: "inception_4c/relu_pool_proj"
  type: "ReLU"
  bottom: "inception_4c/pool_proj"
  top: "inception_4c/pool_proj"
}
layer {
  name: "inception_4c/output"
  type: "Concat"
  bottom: "inception_4c/1x1"
  bottom: "inception_4c/3x3"
  bottom: "inception_4c/5x5"
  bottom: "inception_4c/pool_proj"
  top: "inception_4c/output"
}
layer {
  name: "inception_4d/1x1"
  type: "Convolution"
  bottom: "inception_4c/output"
  top: "inception_4d/1x1"
  param {
    lr_mult: 1
    decay_mult: 1
  }
  param {
    lr_mult: 2
    decay_mult: 0
  }
  convolution_param {
    num_output: 112
    kernel_size: 1
    weight_filler {
      type: "xavier"
      std: 0.03
    }
    bias_filler {
      type: "constant"
      value: 0.2
    }
  }
}
layer {
  name: "inception_4d/relu_1x1"
  type: "ReLU"
  bottom: "inception_4d/1x1"
  top: "inception_4d/1x1"
}
layer {
  name: "inception_4d/3x3_reduce"
  type: "Convolution"
  bottom: "inception_4c/output"
  top: "inception_4d/3x3_reduce"
  param {
    lr_mult: 1
    decay_mult: 1
  }
  param {
    lr_mult: 2
    decay_mult: 0
  }
  convolution_param {
    num_output: 144
    kernel_size: 1
    weight_filler {
      type: "xavier"
      std: 0.09
    }
    bias_filler {
      type: "constant"
      value: 0.2
    }
  }
}
layer {
  name: "inception_4d/relu_3x3_reduce"
  type: "ReLU"
  bottom: "inception_4d/3x3_reduce"
  top: "inception_4d/3x3_reduce"
}
layer {
  name: "inception_4d/3x3"
  type: "Convolution"
  bottom: "inception_4d/3x3_reduce"
  top: "inception_4d/3x3"
  param {
    lr_mult: 1
    decay_mult: 1
  }
  param {
    lr_mult: 2
    decay_mult: 0
  }
  convolution_param {
    num_output: 288
    pad: 1
    kernel_size: 3
    weight_filler {
      type: "xavier"
      std: 0.03
    }
    bias_filler {
      type: "constant"
      value: 0.2
    }
  }
}
layer {
  name: "inception_4d/relu_3x3"
  type: "ReLU"
  bottom: "inception_4d/3x3"
  top: "inception_4d/3x3"
}
layer {
  name: "inception_4d/5x5_reduce"
  type: "Convolution"
  bottom: "inception_4c/output"
  top: "inception_4d/5x5_reduce"
  param {
    lr_mult: 1
    decay_mult: 1
  }
  param {
    lr_mult: 2
    decay_mult: 0
  }
  convolution_param {
    num_output: 32
    kernel_size: 1
    weight_filler {
      type: "xavier"
      std: 0.2
    }
    bias_filler {
      type: "constant"
      value: 0.2
    }
  }
}
layer {
  name: "inception_4d/relu_5x5_reduce"
  type: "ReLU"
  bottom: "inception_4d/5x5_reduce"
  top: "inception_4d/5x5_reduce"
}
layer {
  name: "inception_4d/5x5"
  type: "Convolution"
  bottom: "inception_4d/5x5_reduce"
  top: "inception_4d/5x5"
  param {
    lr_mult: 1
    decay_mult: 1
  }
  param {
    lr_mult: 2
    decay_mult: 0
  }
  convolution_param {
    num_output: 64
    pad: 2
    kernel_size: 5
    weight_filler {
      type: "xavier"
      std: 0.03
    }
    bias_filler {
      type: "constant"
      value: 0.2
    }
  }
}
layer {
  name: "inception_4d/relu_5x5"
  type: "ReLU"
  bottom: "inception_4d/5x5"
  top: "inception_4d/5x5"
}
layer {
  name: "inception_4d/pool"
  type: "Pooling"
  bottom: "inception_4c/output"
  top: "inception_4d/pool"
  pooling_param {
    pool: MAX
    kernel_size: 3
    stride: 1
    pad: 1
  }
}
layer {
  name: "inception_4d/pool_proj"
  type: "Convolution"
  bottom: "inception_4d/pool"
  top: "inception_4d/pool_proj"
  param {
    lr_mult: 1
    decay_mult: 1
  }
  param {
    lr_mult: 2
    decay_mult: 0
  }
  convolution_param {
    num_output: 64
    kernel_size: 1
    weight_filler {
      type: "xavier"
      std: 0.1
    }
    bias_filler {
      type: "constant"
      value: 0.2
    }
  }
}
layer {
  name: "inception_4d/relu_pool_proj"
  type: "ReLU"
  bottom: "inception_4d/pool_proj"
  top: "inception_4d/pool_proj"
}
layer {
  name: "inception_4d/output"
  type: "Concat"
  bottom: "inception_4d/1x1"
  bottom: "inception_4d/3x3"
  bottom: "inception_4d/5x5"
  bottom: "inception_4d/pool_proj"
  top: "inception_4d/output"
}
layer {
  name: "loss2/ave_pool"
  type: "Pooling"
  bottom: "inception_4d/output"
  top: "loss2/ave_pool"
  pooling_param {
    pool: AVE
    kernel_size: 5
    stride: 3
  }
}
layer {
  name: "loss2/conv"
  type: "Convolution"
  bottom: "loss2/ave_pool"
  top: "loss2/conv"
  param {
    lr_mult: 1
    decay_mult: 1
  }
  param {
    lr_mult: 2
    decay_mult: 0
  }
  convolution_param {
    num_output: 128
    kernel_size: 1
    weight_filler {
      type: "xavier"
      std: 0.08
    }
    bias_filler {
      type: "constant"
      value: 0.2
    }
  }
}
layer {
  name: "loss2/relu_conv"
  type: "ReLU"
  bottom: "loss2/conv"
  top: "loss2/conv"
}
layer {
  name: "loss2/fc"
  type: "InnerProduct"
  bottom: "loss2/conv"
  top: "loss2/fc"
  param {
    lr_mult: 1
    decay_mult: 1
  }
  param {
    lr_mult: 2
    decay_mult: 0
  }
  inner_product_param {
    num_output: 1024
    weight_filler {
      type: "xavier"
      std: 0.02
    }
    bias_filler {
      type: "constant"
      value: 0.2
    }
  }
}
layer {
  name: "loss2/relu_fc"
  type: "ReLU"
  bottom: "loss2/fc"
  top: "loss2/fc"
}
layer {
  name: "loss2/drop_fc"
  type: "Dropout"
  bottom: "loss2/fc"
  top: "loss2/fc"
  dropout_param {
    dropout_ratio: 0.7
  }
}
layer {
  name: "loss2/classifier_plantvillage"
  type: "InnerProduct"
  bottom: "loss2/fc"
  top: "loss2/classifier_plantvillage"
  param {
    lr_mult: 1
    decay_mult: 1
  }
  param {
    lr_mult: 2
    decay_mult: 0
  }
  inner_product_param {
    num_output: 38
    weight_filler {
      type: "xavier"
      std: 0.0009765625
    }
    bias_filler {
      type: "constant"
      value: 0
    }
  }
}
layer {
  name: "inception_4e/1x1"
  type: "Convolution"
  bottom: "inception_4d/output"
  top: "inception_4e/1x1"
  param {
    lr_mult: 1
    decay_mult: 1
  }
  param {
    lr_mult: 2
    decay_mult: 0
  }
  convolution_param {
    num_output: 256
    kernel_size: 1
    weight_filler {
      type: "xavier"
      std: 0.03
    }
    bias_filler {
      type: "constant"
      value: 0.2
    }
  }
}
layer {
  name: "inception_4e/relu_1x1"
  type: "ReLU"
  bottom: "inception_4e/1x1"
  top: "inception_4e/1x1"
}
layer {
  name: "inception_4e/3x3_reduce"
  type: "Convolution"
  bottom: "inception_4d/output"
  top: "inception_4e/3x3_reduce"
  param {
    lr_mult: 1
    decay_mult: 1
  }
  param {
    lr_mult: 2
    decay_mult: 0
  }
  convolution_param {
    num_output: 160
    kernel_size: 1
    weight_filler {
      type: "xavier"
      std: 0.09
    }
    bias_filler {
      type: "constant"
      value: 0.2
    }
  }
}
layer {
  name: "inception_4e/relu_3x3_reduce"
  type: "ReLU"
  bottom: "inception_4e/3x3_reduce"
  top: "inception_4e/3x3_reduce"
}
layer {
  name: "inception_4e/3x3"
  type: "Convolution"
  bottom: "inception_4e/3x3_reduce"
  top: "inception_4e/3x3"
  param {
    lr_mult: 1
    decay_mult: 1
  }
  param {
    lr_mult: 2
    decay_mult: 0
  }
  convolution_param {
    num_output: 320
    pad: 1
    kernel_size: 3
    weight_filler {
      type: "xavier"
      std: 0.03
    }
    bias_filler {
      type: "constant"
      value: 0.2
    }
  }
}
layer {
  name: "inception_4e/relu_3x3"
  type: "ReLU"
  bottom: "inception_4e/3x3"
  top: "inception_4e/3x3"
}
layer {
  name: "inception_4e/5x5_reduce"
  type: "Convolution"
  bottom: "inception_4d/output"
  top: "inception_4e/5x5_reduce"
  param {
    lr_mult: 1
    decay_mult: 1
  }
  param {
    lr_mult: 2
    decay_mult: 0
  }
  convolution_param {
    num_output: 32
    kernel_size: 1
    weight_filler {
      type: "xavier"
      std: 0.2
    }
    bias_filler {
      type: "constant"
      value: 0.2
    }
  }
}
layer {
  name: "inception_4e/relu_5x5_reduce"
  type: "ReLU"
  bottom: "inception_4e/5x5_reduce"
  top: "inception_4e/5x5_reduce"
}
layer {
  name: "inception_4e/5x5"
  type: "Convolution"
  bottom: "inception_4e/5x5_reduce"
  top: "inception_4e/5x5"
  p
I0403 15:41:24.102040 14013 layer_factory.hpp:77] Creating layer data
I0403 15:41:24.102648 14013 net.cpp:91] Creating Layer data
I0403 15:41:24.102679 14013 net.cpp:399] data -> data
I0403 15:41:24.102731 14013 net.cpp:399] data -> label
I0403 15:41:24.102772 14013 data_transformer.cpp:25] Loading mean file from: /home/mohanty/data/final_dataset/lmdb/color-80-20/mean.binaryproto
I0403 15:41:24.104956 14016 db_lmdb.cpp:38] Opened lmdb /home/mohanty/data/final_dataset/lmdb/color-80-20/test_db
I0403 15:41:24.116097 14013 data_layer.cpp:41] output data size: 24,3,224,224
I0403 15:41:24.143676 14013 net.cpp:141] Setting up data
I0403 15:41:24.143759 14013 net.cpp:148] Top shape: 24 3 224 224 (3612672)
I0403 15:41:24.143784 14013 net.cpp:148] Top shape: 24 (24)
I0403 15:41:24.143800 14013 net.cpp:156] Memory required for data: 14450784
I0403 15:41:24.143826 14013 layer_factory.hpp:77] Creating layer label_data_1_split
I0403 15:41:24.143852 14013 net.cpp:91] Creating Layer label_data_1_split
I0403 15:41:24.143870 14013 net.cpp:425] label_data_1_split <- label
I0403 15:41:24.143903 14013 net.cpp:399] label_data_1_split -> label_data_1_split_0
I0403 15:41:24.143930 14013 net.cpp:399] label_data_1_split -> label_data_1_split_1
I0403 15:41:24.143954 14013 net.cpp:399] label_data_1_split -> label_data_1_split_2
I0403 15:41:24.143975 14013 net.cpp:399] label_data_1_split -> label_data_1_split_3
I0403 15:41:24.143995 14013 net.cpp:399] label_data_1_split -> label_data_1_split_4
I0403 15:41:24.144013 14013 net.cpp:399] label_data_1_split -> label_data_1_split_5
I0403 15:41:24.144032 14013 net.cpp:399] label_data_1_split -> label_data_1_split_6
I0403 15:41:24.144053 14013 net.cpp:399] label_data_1_split -> label_data_1_split_7
I0403 15:41:24.144074 14013 net.cpp:399] label_data_1_split -> label_data_1_split_8
I0403 15:41:24.144094 14013 net.cpp:399] label_data_1_split -> label_data_1_split_9
I0403 15:41:24.144214 14013 net.cpp:141] Setting up label_data_1_split
I0403 15:41:24.144239 14013 net.cpp:148] Top shape: 24 (24)
I0403 15:41:24.144256 14013 net.cpp:148] Top shape: 24 (24)
I0403 15:41:24.144273 14013 net.cpp:148] Top shape: 24 (24)
I0403 15:41:24.144289 14013 net.cpp:148] Top shape: 24 (24)
I0403 15:41:24.144304 14013 net.cpp:148] Top shape: 24 (24)
I0403 15:41:24.144320 14013 net.cpp:148] Top shape: 24 (24)
I0403 15:41:24.144335 14013 net.cpp:148] Top shape: 24 (24)
I0403 15:41:24.144351 14013 net.cpp:148] Top shape: 24 (24)
I0403 15:41:24.144366 14013 net.cpp:148] Top shape: 24 (24)
I0403 15:41:24.144381 14013 net.cpp:148] Top shape: 24 (24)
I0403 15:41:24.144428 14013 net.cpp:156] Memory required for data: 14451744
I0403 15:41:24.144443 14013 layer_factory.hpp:77] Creating layer conv1/7x7_s2
I0403 15:41:24.144474 14013 net.cpp:91] Creating Layer conv1/7x7_s2
I0403 15:41:24.144493 14013 net.cpp:425] conv1/7x7_s2 <- data
I0403 15:41:24.144513 14013 net.cpp:399] conv1/7x7_s2 -> conv1/7x7_s2
I0403 15:41:24.287065 14013 net.cpp:141] Setting up conv1/7x7_s2
I0403 15:41:24.287137 14013 net.cpp:148] Top shape: 24 64 112 112 (19267584)
I0403 15:41:24.287155 14013 net.cpp:156] Memory required for data: 91522080
I0403 15:41:24.287188 14013 layer_factory.hpp:77] Creating layer conv1/relu_7x7
I0403 15:41:24.287215 14013 net.cpp:91] Creating Layer conv1/relu_7x7
I0403 15:41:24.287235 14013 net.cpp:425] conv1/relu_7x7 <- conv1/7x7_s2
I0403 15:41:24.287256 14013 net.cpp:386] conv1/relu_7x7 -> conv1/7x7_s2 (in-place)
I0403 15:41:24.287519 14013 net.cpp:141] Setting up conv1/relu_7x7
I0403 15:41:24.287549 14013 net.cpp:148] Top shape: 24 64 112 112 (19267584)
I0403 15:41:24.287565 14013 net.cpp:156] Memory required for data: 168592416
I0403 15:41:24.287580 14013 layer_factory.hpp:77] Creating layer pool1/3x3_s2
I0403 15:41:24.287607 14013 net.cpp:91] Creating Layer pool1/3x3_s2
I0403 15:41:24.287627 14013 net.cpp:425] pool1/3x3_s2 <- conv1/7x7_s2
I0403 15:41:24.287647 14013 net.cpp:399] pool1/3x3_s2 -> pool1/3x3_s2
I0403 15:41:24.287725 14013 net.cpp:141] Setting up pool1/3x3_s2
I0403 15:41:24.287753 14013 net.cpp:148] Top shape: 24 64 56 56 (4816896)
I0403 15:41:24.287770 14013 net.cpp:156] Memory required for data: 187860000
I0403 15:41:24.287786 14013 layer_factory.hpp:77] Creating layer pool1/norm1
I0403 15:41:24.287811 14013 net.cpp:91] Creating Layer pool1/norm1
I0403 15:41:24.287840 14013 net.cpp:425] pool1/norm1 <- pool1/3x3_s2
I0403 15:41:24.287859 14013 net.cpp:399] pool1/norm1 -> pool1/norm1
I0403 15:41:24.288163 14013 net.cpp:141] Setting up pool1/norm1
I0403 15:41:24.288193 14013 net.cpp:148] Top shape: 24 64 56 56 (4816896)
I0403 15:41:24.288209 14013 net.cpp:156] Memory required for data: 207127584
I0403 15:41:24.288225 14013 layer_factory.hpp:77] Creating layer conv2/3x3_reduce
I0403 15:41:24.288252 14013 net.cpp:91] Creating Layer conv2/3x3_reduce
I0403 15:41:24.288300 14013 net.cpp:425] conv2/3x3_reduce <- pool1/norm1
I0403 15:41:24.288326 14013 net.cpp:399] conv2/3x3_reduce -> conv2/3x3_reduce
I0403 15:41:24.290769 14013 net.cpp:141] Setting up conv2/3x3_reduce
I0403 15:41:24.290801 14013 net.cpp:148] Top shape: 24 64 56 56 (4816896)
I0403 15:41:24.290822 14013 net.cpp:156] Memory required for data: 226395168
I0403 15:41:24.290844 14013 layer_factory.hpp:77] Creating layer conv2/relu_3x3_reduce
I0403 15:41:24.290863 14013 net.cpp:91] Creating Layer conv2/relu_3x3_reduce
I0403 15:41:24.290881 14013 net.cpp:425] conv2/relu_3x3_reduce <- conv2/3x3_reduce
I0403 15:41:24.290900 14013 net.cpp:386] conv2/relu_3x3_reduce -> conv2/3x3_reduce (in-place)
I0403 15:41:24.291172 14013 net.cpp:141] Setting up conv2/relu_3x3_reduce
I0403 15:41:24.291203 14013 net.cpp:148] Top shape: 24 64 56 56 (4816896)
I0403 15:41:24.291220 14013 net.cpp:156] Memory required for data: 245662752
I0403 15:41:24.291237 14013 layer_factory.hpp:77] Creating layer conv2/3x3
I0403 15:41:24.291260 14013 net.cpp:91] Creating Layer conv2/3x3
I0403 15:41:24.291278 14013 net.cpp:425] conv2/3x3 <- conv2/3x3_reduce
I0403 15:41:24.291298 14013 net.cpp:399] conv2/3x3 -> conv2/3x3
I0403 15:41:24.293737 14013 net.cpp:141] Setting up conv2/3x3
I0403 15:41:24.293771 14013 net.cpp:148] Top shape: 24 192 56 56 (14450688)
I0403 15:41:24.293787 14013 net.cpp:156] Memory required for data: 303465504
I0403 15:41:24.293931 14013 layer_factory.hpp:77] Creating layer conv2/relu_3x3
I0403 15:41:24.293962 14013 net.cpp:91] Creating Layer conv2/relu_3x3
I0403 15:41:24.293982 14013 net.cpp:425] conv2/relu_3x3 <- conv2/3x3
I0403 15:41:24.293999 14013 net.cpp:386] conv2/relu_3x3 -> conv2/3x3 (in-place)
I0403 15:41:24.294190 14013 net.cpp:141] Setting up conv2/relu_3x3
I0403 15:41:24.294219 14013 net.cpp:148] Top shape: 24 192 56 56 (14450688)
I0403 15:41:24.294267 14013 net.cpp:156] Memory required for data: 361268256
I0403 15:41:24.294284 14013 layer_factory.hpp:77] Creating layer conv2/norm2
I0403 15:41:24.294303 14013 net.cpp:91] Creating Layer conv2/norm2
I0403 15:41:24.294320 14013 net.cpp:425] conv2/norm2 <- conv2/3x3
I0403 15:41:24.294342 14013 net.cpp:399] conv2/norm2 -> conv2/norm2
I0403 15:41:24.294661 14013 net.cpp:141] Setting up conv2/norm2
I0403 15:41:24.294689 14013 net.cpp:148] Top shape: 24 192 56 56 (14450688)
I0403 15:41:24.294705 14013 net.cpp:156] Memory required for data: 419071008
I0403 15:41:24.294720 14013 layer_factory.hpp:77] Creating layer pool2/3x3_s2
I0403 15:41:24.294742 14013 net.cpp:91] Creating Layer pool2/3x3_s2
I0403 15:41:24.294759 14013 net.cpp:425] pool2/3x3_s2 <- conv2/norm2
I0403 15:41:24.294777 14013 net.cpp:399] pool2/3x3_s2 -> pool2/3x3_s2
I0403 15:41:24.294833 14013 net.cpp:141] Setting up pool2/3x3_s2
I0403 15:41:24.294858 14013 net.cpp:148] Top shape: 24 192 28 28 (3612672)
I0403 15:41:24.294873 14013 net.cpp:156] Memory required for data: 433521696
I0403 15:41:24.294888 14013 layer_factory.hpp:77] Creating layer pool2/3x3_s2_pool2/3x3_s2_0_split
I0403 15:41:24.294906 14013 net.cpp:91] Creating Layer pool2/3x3_s2_pool2/3x3_s2_0_split
I0403 15:41:24.294924 14013 net.cpp:425] pool2/3x3_s2_pool2/3x3_s2_0_split <- pool2/3x3_s2
I0403 15:41:24.294944 14013 net.cpp:399] pool2/3x3_s2_pool2/3x3_s2_0_split -> pool2/3x3_s2_pool2/3x3_s2_0_split_0
I0403 15:41:24.294965 14013 net.cpp:399] pool2/3x3_s2_pool2/3x3_s2_0_split -> pool2/3x3_s2_pool2/3x3_s2_0_split_1
I0403 15:41:24.294986 14013 net.cpp:399] pool2/3x3_s2_pool2/3x3_s2_0_split -> pool2/3x3_s2_pool2/3x3_s2_0_split_2
I0403 15:41:24.295006 14013 net.cpp:399] pool2/3x3_s2_pool2/3x3_s2_0_split -> pool2/3x3_s2_pool2/3x3_s2_0_split_3
I0403 15:41:24.295078 14013 net.cpp:141] Setting up pool2/3x3_s2_pool2/3x3_s2_0_split
I0403 15:41:24.295112 14013 net.cpp:148] Top shape: 24 192 28 28 (3612672)
I0403 15:41:24.295132 14013 net.cpp:148] Top shape: 24 192 28 28 (3612672)
I0403 15:41:24.295148 14013 net.cpp:148] Top shape: 24 192 28 28 (3612672)
I0403 15:41:24.295164 14013 net.cpp:148] Top shape: 24 192 28 28 (3612672)
I0403 15:41:24.295178 14013 net.cpp:156] Memory required for data: 491324448
I0403 15:41:24.295197 14013 layer_factory.hpp:77] Creating layer inception_3a/1x1
I0403 15:41:24.295219 14013 net.cpp:91] Creating Layer inception_3a/1x1
I0403 15:41:24.295238 14013 net.cpp:425] inception_3a/1x1 <- pool2/3x3_s2_pool2/3x3_s2_0_split_0
I0403 15:41:24.295258 14013 net.cpp:399] inception_3a/1x1 -> inception_3a/1x1
I0403 15:41:24.297914 14013 net.cpp:141] Setting up inception_3a/1x1
I0403 15:41:24.297945 14013 net.cpp:148] Top shape: 24 64 28 28 (1204224)
I0403 15:41:24.297962 14013 net.cpp:156] Memory required for data: 496141344
I0403 15:41:24.297981 14013 layer_factory.hpp:77] Creating layer inception_3a/relu_1x1
I0403 15:41:24.298003 14013 net.cpp:91] Creating Layer inception_3a/relu_1x1
I0403 15:41:24.298022 14013 net.cpp:425] inception_3a/relu_1x1 <- inception_3a/1x1
I0403 15:41:24.298039 14013 net.cpp:386] inception_3a/relu_1x1 -> inception_3a/1x1 (in-place)
I0403 15:41:24.298228 14013 net.cpp:141] Setting up inception_3a/relu_1x1
I0403 15:41:24.298256 14013 net.cpp:148] Top shape: 24 64 28 28 (1204224)
I0403 15:41:24.298272 14013 net.cpp:156] Memory required for data: 500958240
I0403 15:41:24.298288 14013 layer_factory.hpp:77] Creating layer inception_3a/3x3_reduce
I0403 15:41:24.298312 14013 net.cpp:91] Creating Layer inception_3a/3x3_reduce
I0403 15:41:24.298332 14013 net.cpp:425] inception_3a/3x3_reduce <- pool2/3x3_s2_pool2/3x3_s2_0_split_1
I0403 15:41:24.298352 14013 net.cpp:399] inception_3a/3x3_reduce -> inception_3a/3x3_reduce
I0403 15:41:24.300444 14013 net.cpp:141] Setting up inception_3a/3x3_reduce
I0403 15:41:24.300477 14013 net.cpp:148] Top shape: 24 96 28 28 (1806336)
I0403 15:41:24.300493 14013 net.cpp:156] Memory required for data: 508183584
I0403 15:41:24.300515 14013 layer_factory.hpp:77] Creating layer inception_3a/relu_3x3_reduce
I0403 15:41:24.300555 14013 net.cpp:91] Creating Layer inception_3a/relu_3x3_reduce
I0403 15:41:24.300576 14013 net.cpp:425] inception_3a/relu_3x3_reduce <- inception_3a/3x3_reduce
I0403 15:41:24.300597 14013 net.cpp:386] inception_3a/relu_3x3_reduce -> inception_3a/3x3_reduce (in-place)
I0403 15:41:24.300787 14013 net.cpp:141] Setting up inception_3a/relu_3x3_reduce
I0403 15:41:24.300815 14013 net.cpp:148] Top shape: 24 96 28 28 (1806336)
I0403 15:41:24.300830 14013 net.cpp:156] Memory required for data: 515408928
I0403 15:41:24.300846 14013 layer_factory.hpp:77] Creating layer inception_3a/3x3
I0403 15:41:24.300870 14013 net.cpp:91] Creating Layer inception_3a/3x3
I0403 15:41:24.300889 14013 net.cpp:425] inception_3a/3x3 <- inception_3a/3x3_reduce
I0403 15:41:24.300914 14013 net.cpp:399] inception_3a/3x3 -> inception_3a/3x3
I0403 15:41:24.302645 14013 net.cpp:141] Setting up inception_3a/3x3
I0403 15:41:24.302678 14013 net.cpp:148] Top shape: 24 128 28 28 (2408448)
I0403 15:41:24.302697 14013 net.cpp:156] Memory required for data: 525042720
I0403 15:41:24.302716 14013 layer_factory.hpp:77] Creating layer inception_3a/relu_3x3
I0403 15:41:24.302736 14013 net.cpp:91] Creating Layer inception_3a/relu_3x3
I0403 15:41:24.302752 14013 net.cpp:425] inception_3a/relu_3x3 <- inception_3a/3x3
I0403 15:41:24.302769 14013 net.cpp:386] inception_3a/relu_3x3 -> inception_3a/3x3 (in-place)
I0403 15:41:24.303056 14013 net.cpp:141] Setting up inception_3a/relu_3x3
I0403 15:41:24.303086 14013 net.cpp:148] Top shape: 24 128 28 28 (2408448)
I0403 15:41:24.303115 14013 net.cpp:156] Memory required for data: 534676512
I0403 15:41:24.303135 14013 layer_factory.hpp:77] Creating layer inception_3a/5x5_reduce
I0403 15:41:24.303159 14013 net.cpp:91] Creating Layer inception_3a/5x5_reduce
I0403 15:41:24.303179 14013 net.cpp:425] inception_3a/5x5_reduce <- pool2/3x3_s2_pool2/3x3_s2_0_split_2
I0403 15:41:24.303200 14013 net.cpp:399] inception_3a/5x5_reduce -> inception_3a/5x5_reduce
I0403 15:41:24.304214 14013 net.cpp:141] Setting up inception_3a/5x5_reduce
I0403 15:41:24.304246 14013 net.cpp:148] Top shape: 24 16 28 28 (301056)
I0403 15:41:24.304265 14013 net.cpp:156] Memory required for data: 535880736
I0403 15:41:24.304285 14013 layer_factory.hpp:77] Creating layer inception_3a/relu_5x5_reduce
I0403 15:41:24.304303 14013 net.cpp:91] Creating Layer inception_3a/relu_5x5_reduce
I0403 15:41:24.304319 14013 net.cpp:425] inception_3a/relu_5x5_reduce <- inception_3a/5x5_reduce
I0403 15:41:24.304340 14013 net.cpp:386] inception_3a/relu_5x5_reduce -> inception_3a/5x5_reduce (in-place)
I0403 15:41:24.304649 14013 net.cpp:141] Setting up inception_3a/relu_5x5_reduce
I0403 15:41:24.304678 14013 net.cpp:148] Top shape: 24 16 28 28 (301056)
I0403 15:41:24.304694 14013 net.cpp:156] Memory required for data: 537084960
I0403 15:41:24.304710 14013 layer_factory.hpp:77] Creating layer inception_3a/5x5
I0403 15:41:24.304733 14013 net.cpp:91] Creating Layer inception_3a/5x5
I0403 15:41:24.304754 14013 net.cpp:425] inception_3a/5x5 <- inception_3a/5x5_reduce
I0403 15:41:24.304775 14013 net.cpp:399] inception_3a/5x5 -> inception_3a/5x5
I0403 15:41:24.305837 14013 net.cpp:141] Setting up inception_3a/5x5
I0403 15:41:24.305867 14013 net.cpp:148] Top shape: 24 32 28 28 (602112)
I0403 15:41:24.305889 14013 net.cpp:156] Memory required for data: 539493408
I0403 15:41:24.305909 14013 layer_factory.hpp:77] Creating layer inception_3a/relu_5x5
I0403 15:41:24.305928 14013 net.cpp:91] Creating Layer inception_3a/relu_5x5
I0403 15:41:24.305944 14013 net.cpp:425] inception_3a/relu_5x5 <- inception_3a/5x5
I0403 15:41:24.305963 14013 net.cpp:386] inception_3a/relu_5x5 -> inception_3a/5x5 (in-place)
I0403 15:41:24.306149 14013 net.cpp:141] Setting up inception_3a/relu_5x5
I0403 15:41:24.306180 14013 net.cpp:148] Top shape: 24 32 28 28 (602112)
I0403 15:41:24.306196 14013 net.cpp:156] Memory required for data: 541901856
I0403 15:41:24.306211 14013 layer_factory.hpp:77] Creating layer inception_3a/pool
I0403 15:41:24.306231 14013 net.cpp:91] Creating Layer inception_3a/pool
I0403 15:41:24.306247 14013 net.cpp:425] inception_3a/pool <- pool2/3x3_s2_pool2/3x3_s2_0_split_3
I0403 15:41:24.306284 14013 net.cpp:399] inception_3a/pool -> inception_3a/pool
I0403 15:41:24.306347 14013 net.cpp:141] Setting up inception_3a/pool
I0403 15:41:24.306378 14013 net.cpp:148] Top shape: 24 192 28 28 (3612672)
I0403 15:41:24.306396 14013 net.cpp:156] Memory required for data: 556352544
I0403 15:41:24.306411 14013 layer_factory.hpp:77] Creating layer inception_3a/pool_proj
I0403 15:41:24.306432 14013 net.cpp:91] Creating Layer inception_3a/pool_proj
I0403 15:41:24.306450 14013 net.cpp:425] inception_3a/pool_proj <- inception_3a/pool
I0403 15:41:24.306473 14013 net.cpp:399] inception_3a/pool_proj -> inception_3a/pool_proj
I0403 15:41:24.307487 14013 net.cpp:141] Setting up inception_3a/pool_proj
I0403 15:41:24.307518 14013 net.cpp:148] Top shape: 24 32 28 28 (602112)
I0403 15:41:24.307534 14013 net.cpp:156] Memory required for data: 558760992
I0403 15:41:24.307559 14013 layer_factory.hpp:77] Creating layer inception_3a/relu_pool_proj
I0403 15:41:24.307579 14013 net.cpp:91] Creating Layer inception_3a/relu_pool_proj
I0403 15:41:24.307596 14013 net.cpp:425] inception_3a/relu_pool_proj <- inception_3a/pool_proj
I0403 15:41:24.307617 14013 net.cpp:386] inception_3a/relu_pool_proj -> inception_3a/pool_proj (in-place)
I0403 15:41:24.307900 14013 net.cpp:141] Setting up inception_3a/relu_pool_proj
I0403 15:41:24.307931 14013 net.cpp:148] Top shape: 24 32 28 28 (602112)
I0403 15:41:24.307948 14013 net.cpp:156] Memory required for data: 561169440
I0403 15:41:24.307965 14013 layer_factory.hpp:77] Creating layer inception_3a/output
I0403 15:41:24.307983 14013 net.cpp:91] Creating Layer inception_3a/output
I0403 15:41:24.307999 14013 net.cpp:425] inception_3a/output <- inception_3a/1x1
I0403 15:41:24.308017 14013 net.cpp:425] inception_3a/output <- inception_3a/3x3
I0403 15:41:24.308034 14013 net.cpp:425] inception_3a/output <- inception_3a/5x5
I0403 15:41:24.308050 14013 net.cpp:425] inception_3a/output <- inception_3a/pool_proj
I0403 15:41:24.308068 14013 net.cpp:399] inception_3a/output -> inception_3a/output
I0403 15:41:24.308121 14013 net.cpp:141] Setting up inception_3a/output
I0403 15:41:24.308148 14013 net.cpp:148] Top shape: 24 256 28 28 (4816896)
I0403 15:41:24.308164 14013 net.cpp:156] Memory required for data: 580437024
I0403 15:41:24.308179 14013 layer_factory.hpp:77] Creating layer inception_3a/output_inception_3a/output_0_split
I0403 15:41:24.308202 14013 net.cpp:91] Creating Layer inception_3a/output_inception_3a/output_0_split
I0403 15:41:24.308219 14013 net.cpp:425] inception_3a/output_inception_3a/output_0_split <- inception_3a/output
I0403 15:41:24.308238 14013 net.cpp:399] inception_3a/output_inception_3a/output_0_split -> inception_3a/output_inception_3a/output_0_split_0
I0403 15:41:24.308259 14013 net.cpp:399] inception_3a/output_inception_3a/output_0_split -> inception_3a/output_inception_3a/output_0_split_1
I0403 15:41:24.308286 14013 net.cpp:399] inception_3a/output_inception_3a/output_0_split -> inception_3a/output_inception_3a/output_0_split_2
I0403 15:41:24.308310 14013 net.cpp:399] inception_3a/output_inception_3a/output_0_split -> inception_3a/output_inception_3a/output_0_split_3
I0403 15:41:24.308390 14013 net.cpp:141] Setting up inception_3a/output_inception_3a/output_0_split
I0403 15:41:24.308415 14013 net.cpp:148] Top shape: 24 256 28 28 (4816896)
I0403 15:41:24.308432 14013 net.cpp:148] Top shape: 24 256 28 28 (4816896)
I0403 15:41:24.308449 14013 net.cpp:148] Top shape: 24 256 28 28 (4816896)
I0403 15:41:24.308465 14013 net.cpp:148] Top shape: 24 256 28 28 (4816896)
I0403 15:41:24.308480 14013 net.cpp:156] Memory required for data: 657507360
I0403 15:41:24.308495 14013 layer_factory.hpp:77] Creating layer inception_3b/1x1
I0403 15:41:24.308519 14013 net.cpp:91] Creating Layer inception_3b/1x1
I0403 15:41:24.308540 14013 net.cpp:425] inception_3b/1x1 <- inception_3a/output_inception_3a/output_0_split_0
I0403 15:41:24.308560 14013 net.cpp:399] inception_3b/1x1 -> inception_3b/1x1
I0403 15:41:24.309752 14013 net.cpp:141] Setting up inception_3b/1x1
I0403 15:41:24.309795 14013 net.cpp:148] Top shape: 24 128 28 28 (2408448)
I0403 15:41:24.309813 14013 net.cpp:156] Memory required for data: 667141152
I0403 15:41:24.309833 14013 layer_factory.hpp:77] Creating layer inception_3b/relu_1x1
I0403 15:41:24.309857 14013 net.cpp:91] Creating Layer inception_3b/relu_1x1
I0403 15:41:24.309875 14013 net.cpp:425] inception_3b/relu_1x1 <- inception_3b/1x1
I0403 15:41:24.309893 14013 net.cpp:386] inception_3b/relu_1x1 -> inception_3b/1x1 (in-place)
I0403 15:41:24.310075 14013 net.cpp:141] Setting up inception_3b/relu_1x1
I0403 15:41:24.310111 14013 net.cpp:148] Top shape: 24 128 28 28 (2408448)
I0403 15:41:24.310129 14013 net.cpp:156] Memory required for data: 676774944
I0403 15:41:24.310145 14013 layer_factory.hpp:77] Creating layer inception_3b/3x3_reduce
I0403 15:41:24.310168 14013 net.cpp:91] Creating Layer inception_3b/3x3_reduce
I0403 15:41:24.310187 14013 net.cpp:425] inception_3b/3x3_reduce <- inception_3a/output_inception_3a/output_0_split_1
I0403 15:41:24.310209 14013 net.cpp:399] inception_3b/3x3_reduce -> inception_3b/3x3_reduce
I0403 15:41:24.311414 14013 net.cpp:141] Setting up inception_3b/3x3_reduce
I0403 15:41:24.311444 14013 net.cpp:148] Top shape: 24 128 28 28 (2408448)
I0403 15:41:24.311460 14013 net.cpp:156] Memory required for data: 686408736
I0403 15:41:24.311478 14013 layer_factory.hpp:77] Creating layer inception_3b/relu_3x3_reduce
I0403 15:41:24.311501 14013 net.cpp:91] Creating Layer inception_3b/relu_3x3_reduce
I0403 15:41:24.311519 14013 net.cpp:425] inception_3b/relu_3x3_reduce <- inception_3b/3x3_reduce
I0403 15:41:24.311538 14013 net.cpp:386] inception_3b/relu_3x3_reduce -> inception_3b/3x3_reduce (in-place)
I0403 15:41:24.311719 14013 net.cpp:141] Setting up inception_3b/relu_3x3_reduce
I0403 15:41:24.311749 14013 net.cpp:148] Top shape: 24 128 28 28 (2408448)
I0403 15:41:24.311765 14013 net.cpp:156] Memory required for data: 696042528
I0403 15:41:24.311781 14013 layer_factory.hpp:77] Creating layer inception_3b/3x3
I0403 15:41:24.311807 14013 net.cpp:91] Creating Layer inception_3b/3x3
I0403 15:41:24.311826 14013 net.cpp:425] inception_3b/3x3 <- inception_3b/3x3_reduce
I0403 15:41:24.311848 14013 net.cpp:399] inception_3b/3x3 -> inception_3b/3x3
I0403 15:41:24.314893 14013 net.cpp:141] Setting up inception_3b/3x3
I0403 15:41:24.314926 14013 net.cpp:148] Top shape: 24 192 28 28 (3612672)
I0403 15:41:24.314944 14013 net.cpp:156] Memory required for data: 710493216
I0403 15:41:24.314963 14013 layer_factory.hpp:77] Creating layer inception_3b/relu_3x3
I0403 15:41:24.314982 14013 net.cpp:91] Creating Layer inception_3b/relu_3x3
I0403 15:41:24.314999 14013 net.cpp:425] inception_3b/relu_3x3 <- inception_3b/3x3
I0403 15:41:24.315017 14013 net.cpp:386] inception_3b/relu_3x3 -> inception_3b/3x3 (in-place)
I0403 15:41:24.315315 14013 net.cpp:141] Setting up inception_3b/relu_3x3
I0403 15:41:24.315346 14013 net.cpp:148] Top shape: 24 192 28 28 (3612672)
I0403 15:41:24.315363 14013 net.cpp:156] Memory required for data: 724943904
I0403 15:41:24.315379 14013 layer_factory.hpp:77] Creating layer inception_3b/5x5_reduce
I0403 15:41:24.315403 14013 net.cpp:91] Creating Layer inception_3b/5x5_reduce
I0403 15:41:24.315423 14013 net.cpp:425] inception_3b/5x5_reduce <- inception_3a/output_inception_3a/output_0_split_2
I0403 15:41:24.315443 14013 net.cpp:399] inception_3b/5x5_reduce -> inception_3b/5x5_reduce
I0403 15:41:24.316480 14013 net.cpp:141] Setting up inception_3b/5x5_reduce
I0403 15:41:24.316514 14013 net.cpp:148] Top shape: 24 32 28 28 (602112)
I0403 15:41:24.316532 14013 net.cpp:156] Memory required for data: 727352352
I0403 15:41:24.316552 14013 layer_factory.hpp:77] Creating layer inception_3b/relu_5x5_reduce
I0403 15:41:24.316570 14013 net.cpp:91] Creating Layer inception_3b/relu_5x5_reduce
I0403 15:41:24.316587 14013 net.cpp:425] inception_3b/relu_5x5_reduce <- inception_3b/5x5_reduce
I0403 15:41:24.316604 14013 net.cpp:386] inception_3b/relu_5x5_reduce -> inception_3b/5x5_reduce (in-place)
I0403 15:41:24.316788 14013 net.cpp:141] Setting up inception_3b/relu_5x5_reduce
I0403 15:41:24.316831 14013 net.cpp:148] Top shape: 24 32 28 28 (602112)
I0403 15:41:24.316848 14013 net.cpp:156] Memory required for data: 729760800
I0403 15:41:24.316864 14013 layer_factory.hpp:77] Creating layer inception_3b/5x5
I0403 15:41:24.316887 14013 net.cpp:91] Creating Layer inception_3b/5x5
I0403 15:41:24.316906 14013 net.cpp:425] inception_3b/5x5 <- inception_3b/5x5_reduce
I0403 15:41:24.316929 14013 net.cpp:399] inception_3b/5x5 -> inception_3b/5x5
I0403 15:41:24.318989 14013 net.cpp:141] Setting up inception_3b/5x5
I0403 15:41:24.319020 14013 net.cpp:148] Top shape: 24 96 28 28 (1806336)
I0403 15:41:24.319036 14013 net.cpp:156] Memory required for data: 736986144
I0403 15:41:24.319054 14013 layer_factory.hpp:77] Creating layer inception_3b/relu_5x5
I0403 15:41:24.319077 14013 net.cpp:91] Creating Layer inception_3b/relu_5x5
I0403 15:41:24.319099 14013 net.cpp:425] inception_3b/relu_5x5 <- inception_3b/5x5
I0403 15:41:24.319121 14013 net.cpp:386] inception_3b/relu_5x5 -> inception_3b/5x5 (in-place)
I0403 15:41:24.319325 14013 net.cpp:141] Setting up inception_3b/relu_5x5
I0403 15:41:24.319353 14013 net.cpp:148] Top shape: 24 96 28 28 (1806336)
I0403 15:41:24.319368 14013 net.cpp:156] Memory required for data: 744211488
I0403 15:41:24.319383 14013 layer_factory.hpp:77] Creating layer inception_3b/pool
I0403 15:41:24.319402 14013 net.cpp:91] Creating Layer inception_3b/pool
I0403 15:41:24.319419 14013 net.cpp:425] inception_3b/pool <- inception_3a/output_inception_3a/output_0_split_3
I0403 15:41:24.319439 14013 net.cpp:399] inception_3b/pool -> inception_3b/pool
I0403 15:41:24.319497 14013 net.cpp:141] Setting up inception_3b/pool
I0403 15:41:24.319524 14013 net.cpp:148] Top shape: 24 256 28 28 (4816896)
I0403 15:41:24.319538 14013 net.cpp:156] Memory required for data: 763479072
I0403 15:41:24.319553 14013 layer_factory.hpp:77] Creating layer inception_3b/pool_proj
I0403 15:41:24.319576 14013 net.cpp:91] Creating Layer inception_3b/pool_proj
I0403 15:41:24.319596 14013 net.cpp:425] inception_3b/pool_proj <- inception_3b/pool
I0403 15:41:24.319618 14013 net.cpp:399] inception_3b/pool_proj -> inception_3b/pool_proj
I0403 15:41:24.320732 14013 net.cpp:141] Setting up inception_3b/pool_proj
I0403 15:41:24.320761 14013 net.cpp:148] Top shape: 24 64 28 28 (1204224)
I0403 15:41:24.320778 14013 net.cpp:156] Memory required for data: 768295968
I0403 15:41:24.320797 14013 layer_factory.hpp:77] Creating layer inception_3b/relu_pool_proj
I0403 15:41:24.320816 14013 net.cpp:91] Creating Layer inception_3b/relu_pool_proj
I0403 15:41:24.320834 14013 net.cpp:425] inception_3b/relu_pool_proj <- inception_3b/pool_proj
I0403 15:41:24.320855 14013 net.cpp:386] inception_3b/relu_pool_proj -> inception_3b/pool_proj (in-place)
I0403 15:41:24.321269 14013 net.cpp:141] Setting up inception_3b/relu_pool_proj
I0403 15:41:24.321297 14013 net.cpp:148] Top shape: 24 64 28 28 (1204224)
I0403 15:41:24.321313 14013 net.cpp:156] Memory required for data: 773112864
I0403 15:41:24.321328 14013 layer_factory.hpp:77] Creating layer inception_3b/output
I0403 15:41:24.321346 14013 net.cpp:91] Creating Layer inception_3b/output
I0403 15:41:24.321363 14013 net.cpp:425] inception_3b/output <- inception_3b/1x1
I0403 15:41:24.321380 14013 net.cpp:425] inception_3b/output <- inception_3b/3x3
I0403 15:41:24.321396 14013 net.cpp:425] inception_3b/output <- inception_3b/5x5
I0403 15:41:24.321413 14013 net.cpp:425] inception_3b/output <- inception_3b/pool_proj
I0403 15:41:24.321430 14013 net.cpp:399] inception_3b/output -> inception_3b/output
I0403 15:41:24.321477 14013 net.cpp:141] Setting up inception_3b/output
I0403 15:41:24.321502 14013 net.cpp:148] Top shape: 24 480 28 28 (9031680)
I0403 15:41:24.321517 14013 net.cpp:156] Memory required for data: 809239584
I0403 15:41:24.321532 14013 layer_factory.hpp:77] Creating layer pool3/3x3_s2
I0403 15:41:24.321553 14013 net.cpp:91] Creating Layer pool3/3x3_s2
I0403 15:41:24.321570 14013 net.cpp:425] pool3/3x3_s2 <- inception_3b/output
I0403 15:41:24.321589 14013 net.cpp:399] pool3/3x3_s2 -> pool3/3x3_s2
I0403 15:41:24.321667 14013 net.cpp:141] Setting up pool3/3x3_s2
I0403 15:41:24.321693 14013 net.cpp:148] Top shape: 24 480 14 14 (2257920)
I0403 15:41:24.321708 14013 net.cpp:156] Memory required for data: 818271264
I0403 15:41:24.321723 14013 layer_factory.hpp:77] Creating layer pool3/3x3_s2_pool3/3x3_s2_0_split
I0403 15:41:24.321741 14013 net.cpp:91] Creating Layer pool3/3x3_s2_pool3/3x3_s2_0_split
I0403 15:41:24.321758 14013 net.cpp:425] pool3/3x3_s2_pool3/3x3_s2_0_split <- pool3/3x3_s2
I0403 15:41:24.321779 14013 net.cpp:399] pool3/3x3_s2_pool3/3x3_s2_0_split -> pool3/3x3_s2_pool3/3x3_s2_0_split_0
I0403 15:41:24.321800 14013 net.cpp:399] pool3/3x3_s2_pool3/3x3_s2_0_split -> pool3/3x3_s2_pool3/3x3_s2_0_split_1
I0403 15:41:24.321821 14013 net.cpp:399] pool3/3x3_s2_pool3/3x3_s2_0_split -> pool3/3x3_s2_pool3/3x3_s2_0_split_2
I0403 15:41:24.321841 14013 net.cpp:399] pool3/3x3_s2_pool3/3x3_s2_0_split -> pool3/3x3_s2_pool3/3x3_s2_0_split_3
I0403 15:41:24.321923 14013 net.cpp:141] Setting up pool3/3x3_s2_pool3/3x3_s2_0_split
I0403 15:41:24.321950 14013 net.cpp:148] Top shape: 24 480 14 14 (2257920)
I0403 15:41:24.321969 14013 net.cpp:148] Top shape: 24 480 14 14 (2257920)
I0403 15:41:24.321985 14013 net.cpp:148] Top shape: 24 480 14 14 (2257920)
I0403 15:41:24.322001 14013 net.cpp:148] Top shape: 24 480 14 14 (2257920)
I0403 15:41:24.322016 14013 net.cpp:156] Memory required for data: 854397984
I0403 15:41:24.322031 14013 layer_factory.hpp:77] Creating layer inception_4a/1x1
I0403 15:41:24.322054 14013 net.cpp:91] Creating Layer inception_4a/1x1
I0403 15:41:24.322073 14013 net.cpp:425] inception_4a/1x1 <- pool3/3x3_s2_pool3/3x3_s2_0_split_0
I0403 15:41:24.322100 14013 net.cpp:399] inception_4a/1x1 -> inception_4a/1x1
I0403 15:41:24.323755 14013 net.cpp:141] Setting up inception_4a/1x1
I0403 15:41:24.323784 14013 net.cpp:148] Top shape: 24 192 14 14 (903168)
I0403 15:41:24.323801 14013 net.cpp:156] Memory required for data: 858010656
I0403 15:41:24.323819 14013 layer_factory.hpp:77] Creating layer inception_4a/relu_1x1
I0403 15:41:24.323840 14013 net.cpp:91] Creating Layer inception_4a/relu_1x1
I0403 15:41:24.323858 14013 net.cpp:425] inception_4a/relu_1x1 <- inception_4a/1x1
I0403 15:41:24.323876 14013 net.cpp:386] inception_4a/relu_1x1 -> inception_4a/1x1 (in-place)
I0403 15:41:24.324054 14013 net.cpp:141] Setting up inception_4a/relu_1x1
I0403 15:41:24.324080 14013 net.cpp:148] Top shape: 24 192 14 14 (903168)
I0403 15:41:24.324100 14013 net.cpp:156] Memory required for data: 861623328
I0403 15:41:24.324116 14013 layer_factory.hpp:77] Creating layer inception_4a/3x3_reduce
I0403 15:41:24.324141 14013 net.cpp:91] Creating Layer inception_4a/3x3_reduce
I0403 15:41:24.324158 14013 net.cpp:425] inception_4a/3x3_reduce <- pool3/3x3_s2_pool3/3x3_s2_0_split_1
I0403 15:41:24.324182 14013 net.cpp:399] inception_4a/3x3_reduce -> inception_4a/3x3_reduce
I0403 15:41:24.325474 14013 net.cpp:141] Setting up inception_4a/3x3_reduce
I0403 15:41:24.325503 14013 net.cpp:148] Top shape: 24 96 14 14 (451584)
I0403 15:41:24.325520 14013 net.cpp:156] Memory required for data: 863429664
I0403 15:41:24.325544 14013 layer_factory.hpp:77] Creating layer inception_4a/relu_3x3_reduce
I0403 15:41:24.325564 14013 net.cpp:91] Creating Layer inception_4a/relu_3x3_reduce
I0403 15:41:24.325582 14013 net.cpp:425] inception_4a/relu_3x3_reduce <- inception_4a/3x3_reduce
I0403 15:41:24.325601 14013 net.cpp:386] inception_4a/relu_3x3_reduce -> inception_4a/3x3_reduce (in-place)
I0403 15:41:24.325783 14013 net.cpp:141] Setting up inception_4a/relu_3x3_reduce
I0403 15:41:24.325809 14013 net.cpp:148] Top shape: 24 96 14 14 (451584)
I0403 15:41:24.325824 14013 net.cpp:156] Memory required for data: 865236000
I0403 15:41:24.325840 14013 layer_factory.hpp:77] Creating layer inception_4a/3x3
I0403 15:41:24.325863 14013 net.cpp:91] Creating Layer inception_4a/3x3
I0403 15:41:24.325882 14013 net.cpp:425] inception_4a/3x3 <- inception_4a/3x3_reduce
I0403 15:41:24.325903 14013 net.cpp:399] inception_4a/3x3 -> inception_4a/3x3
I0403 15:41:24.328654 14013 net.cpp:141] Setting up inception_4a/3x3
I0403 15:41:24.328683 14013 net.cpp:148] Top shape: 24 208 14 14 (978432)
I0403 15:41:24.328699 14013 net.cpp:156] Memory required for data: 869149728
I0403 15:41:24.328718 14013 layer_factory.hpp:77] Creating layer inception_4a/relu_3x3
I0403 15:41:24.328739 14013 net.cpp:91] Creating Layer inception_4a/relu_3x3
I0403 15:41:24.328757 14013 net.cpp:425] inception_4a/relu_3x3 <- inception_4a/3x3
I0403 15:41:24.328773 14013 net.cpp:386] inception_4a/relu_3x3 -> inception_4a/3x3 (in-place)
I0403 15:41:24.329054 14013 net.cpp:141] Setting up inception_4a/relu_3x3
I0403 15:41:24.329083 14013 net.cpp:148] Top shape: 24 208 14 14 (978432)
I0403 15:41:24.329105 14013 net.cpp:156] Memory required for data: 873063456
I0403 15:41:24.329121 14013 layer_factory.hpp:77] Creating layer inception_4a/5x5_reduce
I0403 15:41:24.329145 14013 net.cpp:91] Creating Layer inception_4a/5x5_reduce
I0403 15:41:24.329164 14013 net.cpp:425] inception_4a/5x5_reduce <- pool3/3x3_s2_pool3/3x3_s2_0_split_2
I0403 15:41:24.329185 14013 net.cpp:399] inception_4a/5x5_reduce -> inception_4a/5x5_reduce
I0403 15:41:24.330224 14013 net.cpp:141] Setting up inception_4a/5x5_reduce
I0403 15:41:24.330255 14013 net.cpp:148] Top shape: 24 16 14 14 (75264)
I0403 15:41:24.330274 14013 net.cpp:156] Memory required for data: 873364512
I0403 15:41:24.330293 14013 layer_factory.hpp:77] Creating layer inception_4a/relu_5x5_reduce
I0403 15:41:24.330320 14013 net.cpp:91] Creating Layer inception_4a/relu_5x5_reduce
I0403 15:41:24.330338 14013 net.cpp:425] inception_4a/relu_5x5_reduce <- inception_4a/5x5_reduce
I0403 15:41:24.330355 14013 net.cpp:386] inception_4a/relu_5x5_reduce -> inception_4a/5x5_reduce (in-place)
I0403 15:41:24.330540 14013 net.cpp:141] Setting up inception_4a/relu_5x5_reduce
I0403 15:41:24.330570 14013 net.cpp:148] Top shape: 24 16 14 14 (75264)
I0403 15:41:24.330608 14013 net.cpp:156] Memory required for data: 873665568
I0403 15:41:24.330624 14013 layer_factory.hpp:77] Creating layer inception_4a/5x5
I0403 15:41:24.330647 14013 net.cpp:91] Creating Layer inception_4a/5x5
I0403 15:41:24.330665 14013 net.cpp:425] inception_4a/5x5 <- inception_4a/5x5_reduce
I0403 15:41:24.330684 14013 net.cpp:399] inception_4a/5x5 -> inception_4a/5x5
I0403 15:41:24.331761 14013 net.cpp:141] Setting up inception_4a/5x5
I0403 15:41:24.331789 14013 net.cpp:148] Top shape: 24 48 14 14 (225792)
I0403 15:41:24.331804 14013 net.cpp:156] Memory required for data: 874568736
I0403 15:41:24.331821 14013 layer_factory.hpp:77] Creating layer inception_4a/relu_5x5
I0403 15:41:24.331840 14013 net.cpp:91] Creating Layer inception_4a/relu_5x5
I0403 15:41:24.331856 14013 net.cpp:425] inception_4a/relu_5x5 <- inception_4a/5x5
I0403 15:41:24.331874 14013 net.cpp:386] inception_4a/relu_5x5 -> inception_4a/5x5 (in-place)
I0403 15:41:24.332052 14013 net.cpp:141] Setting up inception_4a/relu_5x5
I0403 15:41:24.332077 14013 net.cpp:148] Top shape: 24 48 14 14 (225792)
I0403 15:41:24.332093 14013 net.cpp:156] Memory required for data: 875471904
I0403 15:41:24.332111 14013 layer_factory.hpp:77] Creating layer inception_4a/pool
I0403 15:41:24.332132 14013 net.cpp:91] Creating Layer inception_4a/pool
I0403 15:41:24.332149 14013 net.cpp:425] inception_4a/pool <- pool3/3x3_s2_pool3/3x3_s2_0_split_3
I0403 15:41:24.332167 14013 net.cpp:399] inception_4a/pool -> inception_4a/pool
I0403 15:41:24.332228 14013 net.cpp:141] Setting up inception_4a/pool
I0403 15:41:24.332252 14013 net.cpp:148] Top shape: 24 480 14 14 (2257920)
I0403 15:41:24.332267 14013 net.cpp:156] Memory required for data: 884503584
I0403 15:41:24.332281 14013 layer_factory.hpp:77] Creating layer inception_4a/pool_proj
I0403 15:41:24.332303 14013 net.cpp:91] Creating Layer inception_4a/pool_proj
I0403 15:41:24.332320 14013 net.cpp:425] inception_4a/pool_proj <- inception_4a/pool
I0403 15:41:24.332341 14013 net.cpp:399] inception_4a/pool_proj -> inception_4a/pool_proj
I0403 15:41:24.333506 14013 net.cpp:141] Setting up inception_4a/pool_proj
I0403 15:41:24.333535 14013 net.cpp:148] Top shape: 24 64 14 14 (301056)
I0403 15:41:24.333566 14013 net.cpp:156] Memory required for data: 885707808
I0403 15:41:24.333585 14013 layer_factory.hpp:77] Creating layer inception_4a/relu_pool_proj
I0403 15:41:24.333605 14013 net.cpp:91] Creating Layer inception_4a/relu_pool_proj
I0403 15:41:24.333621 14013 net.cpp:425] inception_4a/relu_pool_proj <- inception_4a/pool_proj
I0403 15:41:24.333642 14013 net.cpp:386] inception_4a/relu_pool_proj -> inception_4a/pool_proj (in-place)
I0403 15:41:24.333927 14013 net.cpp:141] Setting up inception_4a/relu_pool_proj
I0403 15:41:24.333955 14013 net.cpp:148] Top shape: 24 64 14 14 (301056)
I0403 15:41:24.333969 14013 net.cpp:156] Memory required for data: 886912032
I0403 15:41:24.333983 14013 layer_factory.hpp:77] Creating layer inception_4a/output
I0403 15:41:24.334002 14013 net.cpp:91] Creating Layer inception_4a/output
I0403 15:41:24.334017 14013 net.cpp:425] inception_4a/output <- inception_4a/1x1
I0403 15:41:24.334033 14013 net.cpp:425] inception_4a/output <- inception_4a/3x3
I0403 15:41:24.334048 14013 net.cpp:425] inception_4a/output <- inception_4a/5x5
I0403 15:41:24.334064 14013 net.cpp:425] inception_4a/output <- inception_4a/pool_proj
I0403 15:41:24.334084 14013 net.cpp:399] inception_4a/output -> inception_4a/output
I0403 15:41:24.334131 14013 net.cpp:141] Setting up inception_4a/output
I0403 15:41:24.334157 14013 net.cpp:148] Top shape: 24 512 14 14 (2408448)
I0403 15:41:24.334173 14013 net.cpp:156] Memory required for data: 896545824
I0403 15:41:24.334189 14013 layer_factory.hpp:77] Creating layer inception_4a/output_inception_4a/output_0_split
I0403 15:41:24.334206 14013 net.cpp:91] Creating Layer inception_4a/output_inception_4a/output_0_split
I0403 15:41:24.334221 14013 net.cpp:425] inception_4a/output_inception_4a/output_0_split <- inception_4a/output
I0403 15:41:24.334239 14013 net.cpp:399] inception_4a/output_inception_4a/output_0_split -> inception_4a/output_inception_4a/output_0_split_0
I0403 15:41:24.334264 14013 net.cpp:399] inception_4a/output_inception_4a/output_0_split -> inception_4a/output_inception_4a/output_0_split_1
I0403 15:41:24.334285 14013 net.cpp:399] inception_4a/output_inception_4a/output_0_split -> inception_4a/output_inception_4a/output_0_split_2
I0403 15:41:24.334306 14013 net.cpp:399] inception_4a/output_inception_4a/output_0_split -> inception_4a/output_inception_4a/output_0_split_3
I0403 15:41:24.334327 14013 net.cpp:399] inception_4a/output_inception_4a/output_0_split -> inception_4a/output_inception_4a/output_0_split_4
I0403 15:41:24.334419 14013 net.cpp:141] Setting up inception_4a/output_inception_4a/output_0_split
I0403 15:41:24.334444 14013 net.cpp:148] Top shape: 24 512 14 14 (2408448)
I0403 15:41:24.334462 14013 net.cpp:148] Top shape: 24 512 14 14 (2408448)
I0403 15:41:24.334478 14013 net.cpp:148] Top shape: 24 512 14 14 (2408448)
I0403 15:41:24.334494 14013 net.cpp:148] Top shape: 24 512 14 14 (2408448)
I0403 15:41:24.334509 14013 net.cpp:148] Top shape: 24 512 14 14 (2408448)
I0403 15:41:24.334523 14013 net.cpp:156] Memory required for data: 944714784
I0403 15:41:24.334537 14013 layer_factory.hpp:77] Creating layer loss1/ave_pool
I0403 15:41:24.334555 14013 net.cpp:91] Creating Layer loss1/ave_pool
I0403 15:41:24.334571 14013 net.cpp:425] loss1/ave_pool <- inception_4a/output_inception_4a/output_0_split_0
I0403 15:41:24.334589 14013 net.cpp:399] loss1/ave_pool -> loss1/ave_pool
I0403 15:41:24.334795 14013 net.cpp:141] Setting up loss1/ave_pool
I0403 15:41:24.334822 14013 net.cpp:148] Top shape: 24 512 4 4 (196608)
I0403 15:41:24.334837 14013 net.cpp:156] Memory required for data: 945501216
I0403 15:41:24.334852 14013 layer_factory.hpp:77] Creating layer loss1/conv
I0403 15:41:24.334874 14013 net.cpp:91] Creating Layer loss1/conv
I0403 15:41:24.334893 14013 net.cpp:425] loss1/conv <- loss1/ave_pool
I0403 15:41:24.334914 14013 net.cpp:399] loss1/conv -> loss1/conv
I0403 15:41:24.336330 14013 net.cpp:141] Setting up loss1/conv
I0403 15:41:24.336359 14013 net.cpp:148] Top shape: 24 128 4 4 (49152)
I0403 15:41:24.336375 14013 net.cpp:156] Memory required for data: 945697824
I0403 15:41:24.336410 14013 layer_factory.hpp:77] Creating layer loss1/relu_conv
I0403 15:41:24.336431 14013 net.cpp:91] Creating Layer loss1/relu_conv
I0403 15:41:24.336448 14013 net.cpp:425] loss1/relu_conv <- loss1/conv
I0403 15:41:24.336464 14013 net.cpp:386] loss1/relu_conv -> loss1/conv (in-place)
I0403 15:41:24.336753 14013 net.cpp:141] Setting up loss1/relu_conv
I0403 15:41:24.336781 14013 net.cpp:148] Top shape: 24 128 4 4 (49152)
I0403 15:41:24.336796 14013 net.cpp:156] Memory required for data: 945894432
I0403 15:41:24.336812 14013 layer_factory.hpp:77] Creating layer loss1/fc
I0403 15:41:24.336836 14013 net.cpp:91] Creating Layer loss1/fc
I0403 15:41:24.336856 14013 net.cpp:425] loss1/fc <- loss1/conv
I0403 15:41:24.336874 14013 net.cpp:399] loss1/fc -> loss1/fc
I0403 15:41:24.354579 14013 net.cpp:141] Setting up loss1/fc
I0403 15:41:24.354620 14013 net.cpp:148] Top shape: 24 1024 (24576)
I0403 15:41:24.354636 14013 net.cpp:156] Memory required for data: 945992736
I0403 15:41:24.354655 14013 layer_factory.hpp:77] Creating layer loss1/relu_fc
I0403 15:41:24.354674 14013 net.cpp:91] Creating Layer loss1/relu_fc
I0403 15:41:24.354691 14013 net.cpp:425] loss1/relu_fc <- loss1/fc
I0403 15:41:24.354712 14013 net.cpp:386] loss1/relu_fc -> loss1/fc (in-place)
I0403 15:41:24.354902 14013 net.cpp:141] Setting up loss1/relu_fc
I0403 15:41:24.354926 14013 net.cpp:148] Top shape: 24 1024 (24576)
I0403 15:41:24.354941 14013 net.cpp:156] Memory required for data: 946091040
I0403 15:41:24.354955 14013 layer_factory.hpp:77] Creating layer loss1/drop_fc
I0403 15:41:24.354984 14013 net.cpp:91] Creating Layer loss1/drop_fc
I0403 15:41:24.355002 14013 net.cpp:425] loss1/drop_fc <- loss1/fc
I0403 15:41:24.355020 14013 net.cpp:386] loss1/drop_fc -> loss1/fc (in-place)
I0403 15:41:24.355070 14013 net.cpp:141] Setting up loss1/drop_fc
I0403 15:41:24.355101 14013 net.cpp:148] Top shape: 24 1024 (24576)
I0403 15:41:24.355119 14013 net.cpp:156] Memory required for data: 946189344
I0403 15:41:24.355135 14013 layer_factory.hpp:77] Creating layer loss1/classifier_plantvillage
I0403 15:41:24.355154 14013 net.cpp:91] Creating Layer loss1/classifier_plantvillage
I0403 15:41:24.355170 14013 net.cpp:425] loss1/classifier_plantvillage <- loss1/fc
I0403 15:41:24.355192 14013 net.cpp:399] loss1/classifier_plantvillage -> loss1/classifier_plantvillage
I0403 15:41:24.356086 14013 net.cpp:141] Setting up loss1/classifier_plantvillage
I0403 15:41:24.356119 14013 net.cpp:148] Top shape: 24 38 (912)
I0403 15:41:24.356135 14013 net.cpp:156] Memory required for data: 946192992
I0403 15:41:24.356153 14013 layer_factory.hpp:77] Creating layer loss1/classifier_plantvillage_loss1/classifier_plantvillage_0_split
I0403 15:41:24.356173 14013 net.cpp:91] Creating Layer loss1/classifier_plantvillage_loss1/classifier_plantvillage_0_split
I0403 15:41:24.356194 14013 net.cpp:425] loss1/classifier_plantvillage_loss1/classifier_plantvillage_0_split <- loss1/classifier_plantvillage
I0403 15:41:24.356211 14013 net.cpp:399] loss1/classifier_plantvillage_loss1/classifier_plantvillage_0_split -> loss1/classifier_plantvillage_loss1/classifier_plantvillage_0_split_0
I0403 15:41:24.356231 14013 net.cpp:399] loss1/classifier_plantvillage_loss1/classifier_plantvillage_0_split -> loss1/classifier_plantvillage_loss1/classifier_plantvillage_0_split_1
I0403 15:41:24.356251 14013 net.cpp:399] loss1/classifier_plantvillage_loss1/classifier_plantvillage_0_split -> loss1/classifier_plantvillage_loss1/classifier_plantvillage_0_split_2
I0403 15:41:24.356319 14013 net.cpp:141] Setting up loss1/classifier_plantvillage_loss1/classifier_plantvillage_0_split
I0403 15:41:24.356343 14013 net.cpp:148] Top shape: 24 38 (912)
I0403 15:41:24.356359 14013 net.cpp:148] Top shape: 24 38 (912)
I0403 15:41:24.356374 14013 net.cpp:148] Top shape: 24 38 (912)
I0403 15:41:24.356389 14013 net.cpp:156] Memory required for data: 946203936
I0403 15:41:24.356402 14013 layer_factory.hpp:77] Creating layer inception_4b/1x1
I0403 15:41:24.356421 14013 net.cpp:91] Creating Layer inception_4b/1x1
I0403 15:41:24.356457 14013 net.cpp:425] inception_4b/1x1 <- inception_4a/output_inception_4a/output_0_split_1
I0403 15:41:24.356482 14013 net.cpp:399] inception_4b/1x1 -> inception_4b/1x1
I0403 15:41:24.358120 14013 net.cpp:141] Setting up inception_4b/1x1
I0403 15:41:24.358150 14013 net.cpp:148] Top shape: 24 160 14 14 (752640)
I0403 15:41:24.358165 14013 net.cpp:156] Memory required for data: 949214496
I0403 15:41:24.358182 14013 layer_factory.hpp:77] Creating layer inception_4b/relu_1x1
I0403 15:41:24.358204 14013 net.cpp:91] Creating Layer inception_4b/relu_1x1
I0403 15:41:24.358222 14013 net.cpp:425] inception_4b/relu_1x1 <- inception_4b/1x1
I0403 15:41:24.358239 14013 net.cpp:386] inception_4b/relu_1x1 -> inception_4b/1x1 (in-place)
I0403 15:41:24.358419 14013 net.cpp:141] Setting up inception_4b/relu_1x1
I0403 15:41:24.358446 14013 net.cpp:148] Top shape: 24 160 14 14 (752640)
I0403 15:41:24.358464 14013 net.cpp:156] Memory required for data: 952225056
I0403 15:41:24.358477 14013 layer_factory.hpp:77] Creating layer inception_4b/3x3_reduce
I0403 15:41:24.358501 14013 net.cpp:91] Creating Layer inception_4b/3x3_reduce
I0403 15:41:24.358520 14013 net.cpp:425] inception_4b/3x3_reduce <- inception_4a/output_inception_4a/output_0_split_2
I0403 15:41:24.358539 14013 net.cpp:399] inception_4b/3x3_reduce -> inception_4b/3x3_reduce
I0403 15:41:24.359885 14013 net.cpp:141] Setting up inception_4b/3x3_reduce
I0403 15:41:24.359916 14013 net.cpp:148] Top shape: 24 112 14 14 (526848)
I0403 15:41:24.359933 14013 net.cpp:156] Memory required for data: 954332448
I0403 15:41:24.359951 14013 layer_factory.hpp:77] Creating layer inception_4b/relu_3x3_reduce
I0403 15:41:24.359971 14013 net.cpp:91] Creating Layer inception_4b/relu_3x3_reduce
I0403 15:41:24.359987 14013 net.cpp:425] inception_4b/relu_3x3_reduce <- inception_4b/3x3_reduce
I0403 15:41:24.360008 14013 net.cpp:386] inception_4b/relu_3x3_reduce -> inception_4b/3x3_reduce (in-place)
I0403 15:41:24.360323 14013 net.cpp:141] Setting up inception_4b/relu_3x3_reduce
I0403 15:41:24.360353 14013 net.cpp:148] Top shape: 24 112 14 14 (526848)
I0403 15:41:24.360370 14013 net.cpp:156] Memory required for data: 956439840
I0403 15:41:24.360386 14013 layer_factory.hpp:77] Creating layer inception_4b/3x3
I0403 15:41:24.360409 14013 net.cpp:91] Creating Layer inception_4b/3x3
I0403 15:41:24.360438 14013 net.cpp:425] inception_4b/3x3 <- inception_4b/3x3_reduce
I0403 15:41:24.360457 14013 net.cpp:399] inception_4b/3x3 -> inception_4b/3x3
I0403 15:41:24.363582 14013 net.cpp:141] Setting up inception_4b/3x3
I0403 15:41:24.363613 14013 net.cpp:148] Top shape: 24 224 14 14 (1053696)
I0403 15:41:24.363629 14013 net.cpp:156] Memory required for data: 960654624
I0403 15:41:24.363648 14013 layer_factory.hpp:77] Creating layer inception_4b/relu_3x3
I0403 15:41:24.363669 14013 net.cpp:91] Creating Layer inception_4b/relu_3x3
I0403 15:41:24.363688 14013 net.cpp:425] inception_4b/relu_3x3 <- inception_4b/3x3
I0403 15:41:24.363706 14013 net.cpp:386] inception_4b/relu_3x3 -> inception_4b/3x3 (in-place)
I0403 15:41:24.363893 14013 net.cpp:141] Setting up inception_4b/relu_3x3
I0403 15:41:24.363919 14013 net.cpp:148] Top shape: 24 224 14 14 (1053696)
I0403 15:41:24.363934 14013 net.cpp:156] Memory required for data: 964869408
I0403 15:41:24.363950 14013 layer_factory.hpp:77] Creating layer inception_4b/5x5_reduce
I0403 15:41:24.363975 14013 net.cpp:91] Creating Layer inception_4b/5x5_reduce
I0403 15:41:24.363992 14013 net.cpp:425] inception_4b/5x5_reduce <- inception_4a/output_inception_4a/output_0_split_3
I0403 15:41:24.364012 14013 net.cpp:399] inception_4b/5x5_reduce -> inception_4b/5x5_reduce
I0403 15:41:24.365147 14013 net.cpp:141] Setting up inception_4b/5x5_reduce
I0403 15:41:24.365176 14013 net.cpp:148] Top shape: 24 24 14 14 (112896)
I0403 15:41:24.365193 14013 net.cpp:156] Memory required for data: 965320992
I0403 15:41:24.365212 14013 layer_factory.hpp:77] Creating layer inception_4b/relu_5x5_reduce
I0403 15:41:24.365233 14013 net.cpp:91] Creating Layer inception_4b/relu_5x5_reduce
I0403 15:41:24.365264 14013 net.cpp:425] inception_4b/relu_5x5_reduce <- inception_4b/5x5_reduce
I0403 15:41:24.365283 14013 net.cpp:386] inception_4b/relu_5x5_reduce -> inception_4b/5x5_reduce (in-place)
I0403 15:41:24.365475 14013 net.cpp:141] Setting up inception_4b/relu_5x5_reduce
I0403 15:41:24.365502 14013 net.cpp:148] Top shape: 24 24 14 14 (112896)
I0403 15:41:24.365517 14013 net.cpp:156] Memory required for data: 965772576
I0403 15:41:24.365532 14013 layer_factory.hpp:77] Creating layer inception_4b/5x5
I0403 15:41:24.365556 14013 net.cpp:91] Creating Layer inception_4b/5x5
I0403 15:41:24.365574 14013 net.cpp:425] inception_4b/5x5 <- inception_4b/5x5_reduce
I0403 15:41:24.365595 14013 net.cpp:399] inception_4b/5x5 -> inception_4b/5x5
I0403 15:41:24.366859 14013 net.cpp:141] Setting up inception_4b/5x5
I0403 15:41:24.366888 14013 net.cpp:148] Top shape: 24 64 14 14 (301056)
I0403 15:41:24.366904 14013 net.cpp:156] Memory required for data: 966976800
I0403 15:41:24.366922 14013 layer_factory.hpp:77] Creating layer inception_4b/relu_5x5
I0403 15:41:24.366943 14013 net.cpp:91] Creating Layer inception_4b/relu_5x5
I0403 15:41:24.366962 14013 net.cpp:425] inception_4b/relu_5x5 <- inception_4b/5x5
I0403 15:41:24.366981 14013 net.cpp:386] inception_4b/relu_5x5 -> inception_4b/5x5 (in-place)
I0403 15:41:24.367280 14013 net.cpp:141] Setting up inception_4b/relu_5x5
I0403 15:41:24.367307 14013 net.cpp:148] Top shape: 24 64 14 14 (301056)
I0403 15:41:24.367323 14013 net.cpp:156] Memory required for data: 968181024
I0403 15:41:24.367338 14013 layer_factory.hpp:77] Creating layer inception_4b/pool
I0403 15:41:24.367360 14013 net.cpp:91] Creating Layer inception_4b/pool
I0403 15:41:24.367379 14013 net.cpp:425] inception_4b/pool <- inception_4a/output_inception_4a/output_0_split_4
I0403 15:41:24.367399 14013 net.cpp:399] inception_4b/pool -> inception_4b/pool
I0403 15:41:24.367465 14013 net.cpp:141] Setting up inception_4b/pool
I0403 15:41:24.367491 14013 net.cpp:148] Top shape: 24 512 14 14 (2408448)
I0403 15:41:24.367506 14013 net.cpp:156] Memory required for data: 977814816
I0403 15:41:24.367521 14013 layer_factory.hpp:77] Creating layer inception_4b/pool_proj
I0403 15:41:24.367542 14013 net.cpp:91] Creating Layer inception_4b/pool_proj
I0403 15:41:24.367563 14013 net.cpp:425] inception_4b/pool_proj <- inception_4b/pool
I0403 15:41:24.367584 14013 net.cpp:399] inception_4b/pool_proj -> inception_4b/pool_proj
I0403 15:41:24.368824 14013 net.cpp:141] Setting up inception_4b/pool_proj
I0403 15:41:24.368855 14013 net.cpp:148] Top shape: 24 64 14 14 (301056)
I0403 15:41:24.368875 14013 net.cpp:156] Memory required for data: 979019040
I0403 15:41:24.368893 14013 layer_factory.hpp:77] Creating layer inception_4b/relu_pool_proj
I0403 15:41:24.368912 14013 net.cpp:91] Creating Layer inception_4b/relu_pool_proj
I0403 15:41:24.368929 14013 net.cpp:425] inception_4b/relu_pool_proj <- inception_4b/pool_proj
I0403 15:41:24.368947 14013 net.cpp:386] inception_4b/relu_pool_proj -> inception_4b/pool_proj (in-place)
I0403 15:41:24.369138 14013 net.cpp:141] Setting up inception_4b/relu_pool_proj
I0403 15:41:24.369166 14013 net.cpp:148] Top shape: 24 64 14 14 (301056)
I0403 15:41:24.369184 14013 net.cpp:156] Memory required for data: 980223264
I0403 15:41:24.369199 14013 layer_factory.hpp:77] Creating layer inception_4b/output
I0403 15:41:24.369217 14013 net.cpp:91] Creating Layer inception_4b/output
I0403 15:41:24.369232 14013 net.cpp:425] inception_4b/output <- inception_4b/1x1
I0403 15:41:24.369249 14013 net.cpp:425] inception_4b/output <- inception_4b/3x3
I0403 15:41:24.369266 14013 net.cpp:425] inception_4b/output <- inception_4b/5x5
I0403 15:41:24.369282 14013 net.cpp:425] inception_4b/output <- inception_4b/pool_proj
I0403 15:41:24.369300 14013 net.cpp:399] inception_4b/output -> inception_4b/output
I0403 15:41:24.369348 14013 net.cpp:141] Setting up inception_4b/output
I0403 15:41:24.369371 14013 net.cpp:148] Top shape: 24 512 14 14 (2408448)
I0403 15:41:24.369386 14013 net.cpp:156] Memory required for data: 989857056
I0403 15:41:24.369415 14013 layer_factory.hpp:77] Creating layer inception_4b/output_inception_4b/output_0_split
I0403 15:41:24.369436 14013 net.cpp:91] Creating Layer inception_4b/output_inception_4b/output_0_split
I0403 15:41:24.369456 14013 net.cpp:425] inception_4b/output_inception_4b/output_0_split <- inception_4b/output
I0403 15:41:24.369474 14013 net.cpp:399] inception_4b/output_inception_4b/output_0_split -> inception_4b/output_inception_4b/output_0_split_0
I0403 15:41:24.369498 14013 net.cpp:399] inception_4b/output_inception_4b/output_0_split -> inception_4b/output_inception_4b/output_0_split_1
I0403 15:41:24.369520 14013 net.cpp:399] inception_4b/output_inception_4b/output_0_split -> inception_4b/output_inception_4b/output_0_split_2
I0403 15:41:24.369540 14013 net.cpp:399] inception_4b/output_inception_4b/output_0_split -> inception_4b/output_inception_4b/output_0_split_3
I0403 15:41:24.369627 14013 net.cpp:141] Setting up inception_4b/output_inception_4b/output_0_split
I0403 15:41:24.369652 14013 net.cpp:148] Top shape: 24 512 14 14 (2408448)
I0403 15:41:24.369668 14013 net.cpp:148] Top shape: 24 512 14 14 (2408448)
I0403 15:41:24.369684 14013 net.cpp:148] Top shape: 24 512 14 14 (2408448)
I0403 15:41:24.369700 14013 net.cpp:148] Top shape: 24 512 14 14 (2408448)
I0403 15:41:24.369714 14013 net.cpp:156] Memory required for data: 1028392224
I0403 15:41:24.369729 14013 layer_factory.hpp:77] Creating layer inception_4c/1x1
I0403 15:41:24.369751 14013 net.cpp:91] Creating Layer inception_4c/1x1
I0403 15:41:24.369770 14013 net.cpp:425] inception_4c/1x1 <- inception_4b/output_inception_4b/output_0_split_0
I0403 15:41:24.369791 14013 net.cpp:399] inception_4c/1x1 -> inception_4c/1x1
I0403 15:41:24.371265 14013 net.cpp:141] Setting up inception_4c/1x1
I0403 15:41:24.371294 14013 net.cpp:148] Top shape: 24 128 14 14 (602112)
I0403 15:41:24.371310 14013 net.cpp:156] Memory required for data: 1030800672
I0403 15:41:24.371330 14013 layer_factory.hpp:77] Creating layer inception_4c/relu_1x1
I0403 15:41:24.371346 14013 net.cpp:91] Creating Layer inception_4c/relu_1x1
I0403 15:41:24.371363 14013 net.cpp:425] inception_4c/relu_1x1 <- inception_4c/1x1
I0403 15:41:24.371384 14013 net.cpp:386] inception_4c/relu_1x1 -> inception_4c/1x1 (in-place)
I0403 15:41:24.371575 14013 net.cpp:141] Setting up inception_4c/relu_1x1
I0403 15:41:24.371603 14013 net.cpp:148] Top shape: 24 128 14 14 (602112)
I0403 15:41:24.371618 14013 net.cpp:156] Memory required for data: 1033209120
I0403 15:41:24.371633 14013 layer_factory.hpp:77] Creating layer inception_4c/3x3_reduce
I0403 15:41:24.371655 14013 net.cpp:91] Creating Layer inception_4c/3x3_reduce
I0403 15:41:24.371675 14013 net.cpp:425] inception_4c/3x3_reduce <- inception_4b/output_inception_4b/output_0_split_1
I0403 15:41:24.371696 14013 net.cpp:399] inception_4c/3x3_reduce -> inception_4c/3x3_reduce
I0403 15:41:24.373687 14013 net.cpp:141] Setting up inception_4c/3x3_reduce
I0403 15:41:24.373718 14013 net.cpp:148] Top shape: 24 128 14 14 (602112)
I0403 15:41:24.373733 14013 net.cpp:156] Memory required for data: 1035617568
I0403 15:41:24.373752 14013 layer_factory.hpp:77] Creating layer inception_4c/relu_3x3_reduce
I0403 15:41:24.373774 14013 net.cpp:91] Creating Layer inception_4c/relu_3x3_reduce
I0403 15:41:24.373791 14013 net.cpp:425] inception_4c/relu_3x3_reduce <- inception_4c/3x3_reduce
I0403 15:41:24.373810 14013 net.cpp:386] inception_4c/relu_3x3_reduce -> inception_4c/3x3_reduce (in-place)
I0403 15:41:24.374105 14013 net.cpp:141] Setting up inception_4c/relu_3x3_reduce
I0403 15:41:24.374133 14013 net.cpp:148] Top shape: 24 128 14 14 (602112)
I0403 15:41:24.374148 14013 net.cpp:156] Memory required for data: 1038026016
I0403 15:41:24.374164 14013 layer_factory.hpp:77] Creating layer inception_4c/3x3
I0403 15:41:24.374186 14013 net.cpp:91] Creating Layer inception_4c/3x3
I0403 15:41:24.374205 14013 net.cpp:425] inception_4c/3x3 <- inception_4c/3x3_reduce
I0403 15:41:24.374228 14013 net.cpp:399] inception_4c/3x3 -> inception_4c/3x3
I0403 15:41:24.377909 14013 net.cpp:141] Setting up inception_4c/3x3
I0403 15:41:24.377954 14013 net.cpp:148] Top shape: 24 256 14 14 (1204224)
I0403 15:41:24.377974 14013 net.cpp:156] Memory required for data: 1042842912
I0403 15:41:24.378005 14013 layer_factory.hpp:77] Creating layer inception_4c/relu_3x3
I0403 15:41:24.378026 14013 net.cpp:91] Creating Layer inception_4c/relu_3x3
I0403 15:41:24.378042 14013 net.cpp:425] inception_4c/relu_3x3 <- inception_4c/3x3
I0403 15:41:24.378058 14013 net.cpp:386] inception_4c/relu_3x3 -> inception_4c/3x3 (in-place)
I0403 15:41:24.378252 14013 net.cpp:141] Setting up inception_4c/relu_3x3
I0403 15:41:24.378278 14013 net.cpp:148] Top shape: 24 256 14 14 (1204224)
I0403 15:41:24.378293 14013 net.cpp:156] Memory required for data: 1047659808
I0403 15:41:24.378309 14013 layer_factory.hpp:77] Creating layer inception_4c/5x5_reduce
I0403 15:41:24.378334 14013 net.cpp:91] Creating Layer inception_4c/5x5_reduce
I0403 15:41:24.378352 14013 net.cpp:425] inception_4c/5x5_reduce <- inception_4b/output_inception_4b/output_0_split_2
I0403 15:41:24.378372 14013 net.cpp:399] inception_4c/5x5_reduce -> inception_4c/5x5_reduce
I0403 15:41:24.379500 14013 net.cpp:141] Setting up inception_4c/5x5_reduce
I0403 15:41:24.379529 14013 net.cpp:148] Top shape: 24 24 14 14 (112896)
I0403 15:41:24.379544 14013 net.cpp:156] Memory required for data: 1048111392
I0403 15:41:24.379562 14013 layer_factory.hpp:77] Creating layer inception_4c/relu_5x5_reduce
I0403 15:41:24.379583 14013 net.cpp:91] Creating Layer inception_4c/relu_5x5_reduce
I0403 15:41:24.379601 14013 net.cpp:425] inception_4c/relu_5x5_reduce <- inception_4c/5x5_reduce
I0403 15:41:24.379619 14013 net.cpp:386] inception_4c/relu_5x5_reduce -> inception_4c/5x5_reduce (in-place)
I0403 15:41:24.379808 14013 net.cpp:141] Setting up inception_4c/relu_5x5_reduce
I0403 15:41:24.379833 14013 net.cpp:148] Top shape: 24 24 14 14 (112896)
I0403 15:41:24.379848 14013 net.cpp:156] Memory required for data: 1048562976
I0403 15:41:24.379863 14013 layer_factory.hpp:77] Creating layer inception_4c/5x5
I0403 15:41:24.379884 14013 net.cpp:91] Creating Layer inception_4c/5x5
I0403 15:41:24.379902 14013 net.cpp:425] inception_4c/5x5 <- inception_4c/5x5_reduce
I0403 15:41:24.379925 14013 net.cpp:399] inception_4c/5x5 -> inception_4c/5x5
I0403 15:41:24.381170 14013 net.cpp:141] Setting up inception_4c/5x5
I0403 15:41:24.381201 14013 net.cpp:148] Top shape: 24 64 14 14 (301056)
I0403 15:41:24.381217 14013 net.cpp:156] Memory required for data: 1049767200
I0403 15:41:24.381237 14013 layer_factory.hpp:77] Creating layer inception_4c/relu_5x5
I0403 15:41:24.381253 14013 net.cpp:91] Creating Layer inception_4c/relu_5x5
I0403 15:41:24.381270 14013 net.cpp:425] inception_4c/relu_5x5 <- inception_4c/5x5
I0403 15:41:24.381290 14013 net.cpp:386] inception_4c/relu_5x5 -> inception_4c/5x5 (in-place)
I0403 15:41:24.381582 14013 net.cpp:141] Setting up inception_4c/relu_5x5
I0403 15:41:24.381610 14013 net.cpp:148] Top shape: 24 64 14 14 (301056)
I0403 15:41:24.381626 14013 net.cpp:156] Memory required for data: 1050971424
I0403 15:41:24.381641 14013 layer_factory.hpp:77] Creating layer inception_4c/pool
I0403 15:41:24.381659 14013 net.cpp:91] Creating Layer inception_4c/pool
I0403 15:41:24.381675 14013 net.cpp:425] inception_4c/pool <- inception_4b/output_inception_4b/output_0_split_3
I0403 15:41:24.381696 14013 net.cpp:399] inception_4c/pool -> inception_4c/pool
I0403 15:41:24.381762 14013 net.cpp:141] Setting up inception_4c/pool
I0403 15:41:24.381789 14013 net.cpp:148] Top shape: 24 512 14 14 (2408448)
I0403 15:41:24.381805 14013 net.cpp:156] Memory required for data: 1060605216
I0403 15:41:24.381820 14013 layer_factory.hpp:77] Creating layer inception_4c/pool_proj
I0403 15:41:24.381842 14013 net.cpp:91] Creating Layer inception_4c/pool_proj
I0403 15:41:24.381860 14013 net.cpp:425] inception_4c/pool_proj <- inception_4c/pool
I0403 15:41:24.381878 14013 net.cpp:399] inception_4c/pool_proj -> inception_4c/pool_proj
I0403 15:41:24.383105 14013 net.cpp:141] Setting up inception_4c/pool_proj
I0403 15:41:24.383137 14013 net.cpp:148] Top shape: 24 64 14 14 (301056)
I0403 15:41:24.383167 14013 net.cpp:156] Memory required for data: 1061809440
I0403 15:41:24.383186 14013 layer_factory.hpp:77] Creating layer inception_4c/relu_pool_proj
I0403 15:41:24.383206 14013 net.cpp:91] Creating Layer inception_4c/relu_pool_proj
I0403 15:41:24.383222 14013 net.cpp:425] inception_4c/relu_pool_proj <- inception_4c/pool_proj
I0403 15:41:24.383239 14013 net.cpp:386] inception_4c/relu_pool_proj -> inception_4c/pool_proj (in-place)
I0403 15:41:24.383424 14013 net.cpp:141] Setting up inception_4c/relu_pool_proj
I0403 15:41:24.383451 14013 net.cpp:148] Top shape: 24 64 14 14 (301056)
I0403 15:41:24.383467 14013 net.cpp:156] Memory required for data: 1063013664
I0403 15:41:24.383482 14013 layer_factory.hpp:77] Creating layer inception_4c/output
I0403 15:41:24.383501 14013 net.cpp:91] Creating Layer inception_4c/output
I0403 15:41:24.383515 14013 net.cpp:425] inception_4c/output <- inception_4c/1x1
I0403 15:41:24.383530 14013 net.cpp:425] inception_4c/output <- inception_4c/3x3
I0403 15:41:24.383546 14013 net.cpp:425] inception_4c/output <- inception_4c/5x5
I0403 15:41:24.383563 14013 net.cpp:425] inception_4c/output <- inception_4c/pool_proj
I0403 15:41:24.383581 14013 net.cpp:399] inception_4c/output -> inception_4c/output
I0403 15:41:24.383627 14013 net.cpp:141] Setting up inception_4c/output
I0403 15:41:24.383652 14013 net.cpp:148] Top shape: 24 512 14 14 (2408448)
I0403 15:41:24.383666 14013 net.cpp:156] Memory required for data: 1072647456
I0403 15:41:24.383680 14013 layer_factory.hpp:77] Creating layer inception_4c/output_inception_4c/output_0_split
I0403 15:41:24.383700 14013 net.cpp:91] Creating Layer inception_4c/output_inception_4c/output_0_split
I0403 15:41:24.383716 14013 net.cpp:425] inception_4c/output_inception_4c/output_0_split <- inception_4c/output
I0403 15:41:24.383734 14013 net.cpp:399] inception_4c/output_inception_4c/output_0_split -> inception_4c/output_inception_4c/output_0_split_0
I0403 15:41:24.383754 14013 net.cpp:399] inception_4c/output_inception_4c/output_0_split -> inception_4c/output_inception_4c/output_0_split_1
I0403 15:41:24.383777 14013 net.cpp:399] inception_4c/output_inception_4c/output_0_split -> inception_4c/output_inception_4c/output_0_split_2
I0403 15:41:24.383797 14013 net.cpp:399] inception_4c/output_inception_4c/output_0_split -> inception_4c/output_inception_4c/output_0_split_3
I0403 15:41:24.383883 14013 net.cpp:141] Setting up inception_4c/output_inception_4c/output_0_split
I0403 15:41:24.383908 14013 net.cpp:148] Top shape: 24 512 14 14 (2408448)
I0403 15:41:24.383924 14013 net.cpp:148] Top shape: 24 512 14 14 (2408448)
I0403 15:41:24.383937 14013 net.cpp:148] Top shape: 24 512 14 14 (2408448)
I0403 15:41:24.383951 14013 net.cpp:148] Top shape: 24 512 14 14 (2408448)
I0403 15:41:24.383965 14013 net.cpp:156] Memory required for data: 1111182624
I0403 15:41:24.383980 14013 layer_factory.hpp:77] Creating layer inception_4d/1x1
I0403 15:41:24.384001 14013 net.cpp:91] Creating Layer inception_4d/1x1
I0403 15:41:24.384019 14013 net.cpp:425] inception_4d/1x1 <- inception_4c/output_inception_4c/output_0_split_0
I0403 15:41:24.384039 14013 net.cpp:399] inception_4d/1x1 -> inception_4d/1x1
I0403 15:41:24.385417 14013 net.cpp:141] Setting up inception_4d/1x1
I0403 15:41:24.385447 14013 net.cpp:148] Top shape: 24 112 14 14 (526848)
I0403 15:41:24.385462 14013 net.cpp:156] Memory required for data: 1113290016
I0403 15:41:24.385479 14013 layer_factory.hpp:77] Creating layer inception_4d/relu_1x1
I0403 15:41:24.385499 14013 net.cpp:91] Creating Layer inception_4d/relu_1x1
I0403 15:41:24.385517 14013 net.cpp:425] inception_4d/relu_1x1 <- inception_4d/1x1
I0403 15:41:24.385535 14013 net.cpp:386] inception_4d/relu_1x1 -> inception_4d/1x1 (in-place)
I0403 15:41:24.385717 14013 net.cpp:141] Setting up inception_4d/relu_1x1
I0403 15:41:24.385743 14013 net.cpp:148] Top shape: 24 112 14 14 (526848)
I0403 15:41:24.385758 14013 net.cpp:156] Memory required for data: 1115397408
I0403 15:41:24.385773 14013 layer_factory.hpp:77] Creating layer inception_4d/3x3_reduce
I0403 15:41:24.385812 14013 net.cpp:91] Creating Layer inception_4d/3x3_reduce
I0403 15:41:24.385831 14013 net.cpp:425] inception_4d/3x3_reduce <- inception_4c/output_inception_4c/output_0_split_1
I0403 15:41:24.385851 14013 net.cpp:399] inception_4d/3x3_reduce -> inception_4d/3x3_reduce
I0403 15:41:24.387368 14013 net.cpp:141] Setting up inception_4d/3x3_reduce
I0403 15:41:24.387397 14013 net.cpp:148] Top shape: 24 144 14 14 (677376)
I0403 15:41:24.387411 14013 net.cpp:156] Memory required for data: 1118106912
I0403 15:41:24.387429 14013 layer_factory.hpp:77] Creating layer inception_4d/relu_3x3_reduce
I0403 15:41:24.387447 14013 net.cpp:91] Creating Layer inception_4d/relu_3x3_reduce
I0403 15:41:24.387465 14013 net.cpp:425] inception_4d/relu_3x3_reduce <- inception_4d/3x3_reduce
I0403 15:41:24.387485 14013 net.cpp:386] inception_4d/relu_3x3_reduce -> inception_4d/3x3_reduce (in-place)
I0403 15:41:24.387778 14013 net.cpp:141] Setting up inception_4d/relu_3x3_reduce
I0403 15:41:24.387804 14013 net.cpp:148] Top shape: 24 144 14 14 (677376)
I0403 15:41:24.387820 14013 net.cpp:156] Memory required for data: 1120816416
I0403 15:41:24.387835 14013 layer_factory.hpp:77] Creating layer inception_4d/3x3
I0403 15:41:24.387856 14013 net.cpp:91] Creating Layer inception_4d/3x3
I0403 15:41:24.387876 14013 net.cpp:425] inception_4d/3x3 <- inception_4d/3x3_reduce
I0403 15:41:24.387897 14013 net.cpp:399] inception_4d/3x3 -> inception_4d/3x3
I0403 15:41:24.392181 14013 net.cpp:141] Setting up inception_4d/3x3
I0403 15:41:24.392212 14013 net.cpp:148] Top shape: 24 288 14 14 (1354752)
I0403 15:41:24.392228 14013 net.cpp:156] Memory required for data: 1126235424
I0403 15:41:24.392246 14013 layer_factory.hpp:77] Creating layer inception_4d/relu_3x3
I0403 15:41:24.392267 14013 net.cpp:91] Creating Layer inception_4d/relu_3x3
I0403 15:41:24.392285 14013 net.cpp:425] inception_4d/relu_3x3 <- inception_4d/3x3
I0403 15:41:24.392302 14013 net.cpp:386] inception_4d/relu_3x3 -> inception_4d/3x3 (in-place)
I0403 15:41:24.392485 14013 net.cpp:141] Setting up inception_4d/relu_3x3
I0403 15:41:24.392514 14013 net.cpp:148] Top shape: 24 288 14 14 (1354752)
I0403 15:41:24.392530 14013 net.cpp:156] Memory required for data: 1131654432
I0403 15:41:24.392545 14013 layer_factory.hpp:77] Creating layer inception_4d/5x5_reduce
I0403 15:41:24.392567 14013 net.cpp:91] Creating Layer inception_4d/5x5_reduce
I0403 15:41:24.392585 14013 net.cpp:425] inception_4d/5x5_reduce <- inception_4c/output_inception_4c/output_0_split_2
I0403 15:41:24.392606 14013 net.cpp:399] inception_4d/5x5_reduce -> inception_4d/5x5_reduce
I0403 15:41:24.393754 14013 net.cpp:141] Setting up inception_4d/5x5_reduce
I0403 15:41:24.393784 14013 net.cpp:148] Top shape: 24 32 14 14 (150528)
I0403 15:41:24.393800 14013 net.cpp:156] Memory required for data: 1132256544
I0403 15:41:24.393816 14013 layer_factory.hpp:77] Creating layer inception_4d/relu_5x5_reduce
I0403 15:41:24.393838 14013 net.cpp:91] Creating Layer inception_4d/relu_5x5_reduce
I0403 15:41:24.393854 14013 net.cpp:425] inception_4d/relu_5x5_reduce <- inception_4d/5x5_reduce
I0403 15:41:24.393872 14013 net.cpp:386] inception_4d/relu_5x5_reduce -> inception_4d/5x5_reduce (in-place)
I0403 15:41:24.394058 14013 net.cpp:141] Setting up inception_4d/relu_5x5_reduce
I0403 15:41:24.394084 14013 net.cpp:148] Top shape: 24 32 14 14 (150528)
I0403 15:41:24.394104 14013 net.cpp:156] Memory required for data: 1132858656
I0403 15:41:24.394119 14013 layer_factory.hpp:77] Creating layer inception_4d/5x5
I0403 15:41:24.394143 14013 net.cpp:91] Creating Layer inception_4d/5x5
I0403 15:41:24.394161 14013 net.cpp:425] inception_4d/5x5 <- inception_4d/5x5_reduce
I0403 15:41:24.394181 14013 net.cpp:399] inception_4d/5x5 -> inception_4d/5x5
I0403 15:41:24.395659 14013 net.cpp:141] Setting up inception_4d/5x5
I0403 15:41:24.395690 14013 net.cpp:148] Top shape: 24 64 14 14 (301056)
I0403 15:41:24.395706 14013 net.cpp:156] Memory required for data: 1134062880
I0403 15:41:24.395725 14013 layer_factory.hpp:77] Creating layer inception_4d/relu_5x5
I0403 15:41:24.395758 14013 net.cpp:91] Creating Layer inception_4d/relu_5x5
I0403 15:41:24.395776 14013 net.cpp:425] inception_4d/relu_5x5 <- inception_4d/5x5
I0403 15:41:24.395797 14013 net.cpp:386] inception_4d/relu_5x5 -> inception_4d/5x5 (in-place)
I0403 15:41:24.396102 14013 net.cpp:141] Setting up inception_4d/relu_5x5
I0403 15:41:24.396132 14013 net.cpp:148] Top shape: 24 64 14 14 (301056)
I0403 15:41:24.396148 14013 net.cpp:156] Memory required for data: 1135267104
I0403 15:41:24.396163 14013 layer_factory.hpp:77] Creating layer inception_4d/pool
I0403 15:41:24.396181 14013 net.cpp:91] Creating Layer inception_4d/pool
I0403 15:41:24.396198 14013 net.cpp:425] inception_4d/pool <- inception_4c/output_inception_4c/output_0_split_3
I0403 15:41:24.396219 14013 net.cpp:399] inception_4d/pool -> inception_4d/pool
I0403 15:41:24.396286 14013 net.cpp:141] Setting up inception_4d/pool
I0403 15:41:24.396311 14013 net.cpp:148] Top shape: 24 512 14 14 (2408448)
I0403 15:41:24.396325 14013 net.cpp:156] Memory required for data: 1144900896
I0403 15:41:24.396340 14013 layer_factory.hpp:77] Creating layer inception_4d/pool_proj
I0403 15:41:24.396363 14013 net.cpp:91] Creating Layer inception_4d/pool_proj
I0403 15:41:24.396381 14013 net.cpp:425] inception_4d/pool_proj <- inception_4d/pool
I0403 15:41:24.396402 14013 net.cpp:399] inception_4d/pool_proj -> inception_4d/pool_proj
I0403 15:41:24.398167 14013 net.cpp:141] Setting up inception_4d/pool_proj
I0403 15:41:24.398200 14013 net.cpp:148] Top shape: 24 64 14 14 (301056)
I0403 15:41:24.398216 14013 net.cpp:156] Memory required for data: 1146105120
I0403 15:41:24.398233 14013 layer_factory.hpp:77] Creating layer inception_4d/relu_pool_proj
I0403 15:41:24.398254 14013 net.cpp:91] Creating Layer inception_4d/relu_pool_proj
I0403 15:41:24.398272 14013 net.cpp:425] inception_4d/relu_pool_proj <- inception_4d/pool_proj
I0403 15:41:24.398289 14013 net.cpp:386] inception_4d/relu_pool_proj -> inception_4d/pool_proj (in-place)
I0403 15:41:24.398475 14013 net.cpp:141] Setting up inception_4d/relu_pool_proj
I0403 15:41:24.398504 14013 net.cpp:148] Top shape: 24 64 14 14 (301056)
I0403 15:41:24.398520 14013 net.cpp:156] Memory required for data: 1147309344
I0403 15:41:24.398536 14013 layer_factory.hpp:77] Creating layer inception_4d/output
I0403 15:41:24.398553 14013 net.cpp:91] Creating Layer inception_4d/output
I0403 15:41:24.398568 14013 net.cpp:425] inception_4d/output <- inception_4d/1x1
I0403 15:41:24.398584 14013 net.cpp:425] inception_4d/output <- inception_4d/3x3
I0403 15:41:24.398600 14013 net.cpp:425] inception_4d/output <- inception_4d/5x5
I0403 15:41:24.398617 14013 net.cpp:425] inception_4d/output <- inception_4d/pool_proj
I0403 15:41:24.398633 14013 net.cpp:399] inception_4d/output -> inception_4d/output
I0403 15:41:24.398682 14013 net.cpp:141] Setting up inception_4d/output
I0403 15:41:24.398707 14013 net.cpp:148] Top shape: 24 528 14 14 (2483712)
I0403 15:41:24.398721 14013 net.cpp:156] Memory required for data: 1157244192
I0403 15:41:24.398736 14013 layer_factory.hpp:77] Creating layer inception_4d/output_inception_4d/output_0_split
I0403 15:41:24.398756 14013 net.cpp:91] Creating Layer inception_4d/output_inception_4d/output_0_split
I0403 15:41:24.398774 14013 net.cpp:425] inception_4d/output_inception_4d/output_0_split <- inception_4d/output
I0403 15:41:24.398792 14013 net.cpp:399] inception_4d/output_inception_4d/output_0_split -> inception_4d/output_inception_4d/output_0_split_0
I0403 15:41:24.398813 14013 net.cpp:399] inception_4d/output_inception_4d/output_0_split -> inception_4d/output_inception_4d/output_0_split_1
I0403 15:41:24.398833 14013 net.cpp:399] inception_4d/output_inception_4d/output_0_split -> inception_4d/output_inception_4d/output_0_split_2
I0403 15:41:24.398854 14013 net.cpp:399] inception_4d/output_inception_4d/output_0_split -> inception_4d/output_inception_4d/output_0_split_3
I0403 15:41:24.398876 14013 net.cpp:399] inception_4d/output_inception_4d/output_0_split -> inception_4d/output_inception_4d/output_0_split_4
I0403 15:41:24.398985 14013 net.cpp:141] Setting up inception_4d/output_inception_4d/output_0_split
I0403 15:41:24.399022 14013 net.cpp:148] Top shape: 24 528 14 14 (2483712)
I0403 15:41:24.399039 14013 net.cpp:148] Top shape: 24 528 14 14 (2483712)
I0403 15:41:24.399055 14013 net.cpp:148] Top shape: 24 528 14 14 (2483712)
I0403 15:41:24.399068 14013 net.cpp:148] Top shape: 24 528 14 14 (2483712)
I0403 15:41:24.399083 14013 net.cpp:148] Top shape: 24 528 14 14 (2483712)
I0403 15:41:24.399101 14013 net.cpp:156] Memory required for data: 1206918432
I0403 15:41:24.399117 14013 layer_factory.hpp:77] Creating layer loss2/ave_pool
I0403 15:41:24.399137 14013 net.cpp:91] Creating Layer loss2/ave_pool
I0403 15:41:24.399155 14013 net.cpp:425] loss2/ave_pool <- inception_4d/output_inception_4d/output_0_split_0
I0403 15:41:24.399173 14013 net.cpp:399] loss2/ave_pool -> loss2/ave_pool
I0403 15:41:24.399482 14013 net.cpp:141] Setting up loss2/ave_pool
I0403 15:41:24.399508 14013 net.cpp:148] Top shape: 24 528 4 4 (202752)
I0403 15:41:24.399523 14013 net.cpp:156] Memory required for data: 1207729440
I0403 15:41:24.399538 14013 layer_factory.hpp:77] Creating layer loss2/conv
I0403 15:41:24.399561 14013 net.cpp:91] Creating Layer loss2/conv
I0403 15:41:24.399580 14013 net.cpp:425] loss2/conv <- loss2/ave_pool
I0403 15:41:24.399601 14013 net.cpp:399] loss2/conv -> loss2/conv
I0403 15:41:24.401551 14013 net.cpp:141] Setting up loss2/conv
I0403 15:41:24.401587 14013 net.cpp:148] Top shape: 24 128 4 4 (49152)
I0403 15:41:24.401604 14013 net.cpp:156] Memory required for data: 1207926048
I0403 15:41:24.401623 14013 layer_factory.hpp:77] Creating layer loss2/relu_conv
I0403 15:41:24.401643 14013 net.cpp:91] Creating Layer loss2/relu_conv
I0403 15:41:24.401659 14013 net.cpp:425] loss2/relu_conv <- loss2/conv
I0403 15:41:24.401679 14013 net.cpp:386] loss2/relu_conv -> loss2/conv (in-place)
I0403 15:41:24.401971 14013 net.cpp:141] Setting up loss2/relu_conv
I0403 15:41:24.402001 14013 net.cpp:148] Top shape: 24 128 4 4 (49152)
I0403 15:41:24.402017 14013 net.cpp:156] Memory required for data: 1208122656
I0403 15:41:24.402032 14013 layer_factory.hpp:77] Creating layer loss2/fc
I0403 15:41:24.402052 14013 net.cpp:91] Creating Layer loss2/fc
I0403 15:41:24.402070 14013 net.cpp:425] loss2/fc <- loss2/conv
I0403 15:41:24.402091 14013 net.cpp:399] loss2/fc -> loss2/fc
I0403 15:41:24.420222 14013 net.cpp:141] Setting up loss2/fc
I0403 15:41:24.420261 14013 net.cpp:148] Top shape: 24 1024 (24576)
I0403 15:41:24.420279 14013 net.cpp:156] Memory required for data: 1208220960
I0403 15:41:24.420296 14013 layer_factory.hpp:77] Creating layer loss2/relu_fc
I0403 15:41:24.420315 14013 net.cpp:91] Creating Layer loss2/relu_fc
I0403 15:41:24.420331 14013 net.cpp:425] loss2/relu_fc <- loss2/fc
I0403 15:41:24.420349 14013 net.cpp:386] loss2/relu_fc -> loss2/fc (in-place)
I0403 15:41:24.420650 14013 net.cpp:141] Setting up loss2/relu_fc
I0403 15:41:24.420676 14013 net.cpp:148] Top shape: 24 1024 (24576)
I0403 15:41:24.420691 14013 net.cpp:156] Memory required for data: 1208319264
I0403 15:41:24.420706 14013 layer_factory.hpp:77] Creating layer loss2/drop_fc
I0403 15:41:24.420725 14013 net.cpp:91] Creating Layer loss2/drop_fc
I0403 15:41:24.420742 14013 net.cpp:425] loss2/drop_fc <- loss2/fc
I0403 15:41:24.420759 14013 net.cpp:386] loss2/drop_fc -> loss2/fc (in-place)
I0403 15:41:24.420810 14013 net.cpp:141] Setting up loss2/drop_fc
I0403 15:41:24.420835 14013 net.cpp:148] Top shape: 24 1024 (24576)
I0403 15:41:24.420850 14013 net.cpp:156] Memory required for data: 1208417568
I0403 15:41:24.420863 14013 layer_factory.hpp:77] Creating layer loss2/classifier_plantvillage
I0403 15:41:24.420884 14013 net.cpp:91] Creating Layer loss2/classifier_plantvillage
I0403 15:41:24.420902 14013 net.cpp:425] loss2/classifier_plantvillage <- loss2/fc
I0403 15:41:24.420919 14013 net.cpp:399] loss2/classifier_plantvillage -> loss2/classifier_plantvillage
I0403 15:41:24.421329 14013 net.cpp:141] Setting up loss2/classifier_plantvillage
I0403 15:41:24.421355 14013 net.cpp:148] Top shape: 24 38 (912)
I0403 15:41:24.421371 14013 net.cpp:156] Memory required for data: 1208421216
I0403 15:41:24.421411 14013 layer_factory.hpp:77] Creating layer loss2/classifier_plantvillage_loss2/classifier_plantvillage_0_split
I0403 15:41:24.421429 14013 net.cpp:91] Creating Layer loss2/classifier_plantvillage_loss2/classifier_plantvillage_0_split
I0403 15:41:24.421445 14013 net.cpp:425] loss2/classifier_plantvillage_loss2/classifier_plantvillage_0_split <- loss2/classifier_plantvillage
I0403 15:41:24.421465 14013 net.cpp:399] loss2/classifier_plantvillage_loss2/classifier_plantvillage_0_split -> loss2/classifier_plantvillage_loss2/classifier_plantvillage_0_split_0
I0403 15:41:24.421488 14013 net.cpp:399] loss2/classifier_plantvillage_loss2/classifier_plantvillage_0_split -> loss2/classifier_plantvillage_loss2/classifier_plantvillage_0_split_1
I0403 15:41:24.421509 14013 net.cpp:399] loss2/classifier_plantvillage_loss2/classifier_plantvillage_0_split -> loss2/classifier_plantvillage_loss2/classifier_plantvillage_0_split_2
I0403 15:41:24.421588 14013 net.cpp:141] Setting up loss2/classifier_plantvillage_loss2/classifier_plantvillage_0_split
I0403 15:41:24.421614 14013 net.cpp:148] Top shape: 24 38 (912)
I0403 15:41:24.421632 14013 net.cpp:148] Top shape: 24 38 (912)
I0403 15:41:24.421646 14013 net.cpp:148] Top shape: 24 38 (912)
I0403 15:41:24.421660 14013 net.cpp:156] Memory required for data: 1208432160
I0403 15:41:24.421675 14013 layer_factory.hpp:77] Creating layer inception_4e/1x1
I0403 15:41:24.421696 14013 net.cpp:91] Creating Layer inception_4e/1x1
I0403 15:41:24.421715 14013 net.cpp:425] inception_4e/1x1 <- inception_4d/output_inception_4d/output_0_split_1
I0403 15:41:24.421735 14013 net.cpp:399] inception_4e/1x1 -> inception_4e/1x1
I0403 15:41:24.423573 14013 net.cpp:141] Setting up inception_4e/1x1
I0403 15:41:24.423605 14013 net.cpp:148] Top shape: 24 256 14 14 (1204224)
I0403 15:41:24.423621 14013 net.cpp:156] Memory required for data: 1213249056
I0403 15:41:24.423640 14013 layer_factory.hpp:77] Creating layer inception_4e/relu_1x1
I0403 15:41:24.423657 14013 net.cpp:91] Creating Layer inception_4e/relu_1x1
I0403 15:41:24.423674 14013 net.cpp:425] inception_4e/relu_1x1 <- inception_4e/1x1
I0403 15:41:24.423693 14013 net.cpp:386] inception_4e/relu_1x1 -> inception_4e/1x1 (in-place)
I0403 15:41:24.423990 14013 net.cpp:141] Setting up inception_4e/relu_1x1
I0403 15:41:24.424017 14013 net.cpp:148] Top shape: 24 256 14 14 (1204224)
I0403 15:41:24.424034 14013 net.cpp:156] Memory required for data: 1218065952
I0403 15:41:24.424049 14013 layer_factory.hpp:77] Creating layer inception_4e/3x3_reduce
I0403 15:41:24.424072 14013 net.cpp:91] Creating Layer inception_4e/3x3_reduce
I0403 15:41:24.424091 14013 net.cpp:425] inception_4e/3x3_reduce <- inception_4d/output_inception_4d/output_0_split_2
I0403 15:41:24.424115 14013 net.cpp:399] inception_4e/3x3_reduce -> inception_4e/3x3_reduce
I0403 15:41:24.426249 14013 net.cpp:141] Setting up inception_4e/3x3_reduce
I0403 15:41:24.426280 14013 net.cpp:148] Top shape: 24 160 14 14 (752640)
I0403 15:41:24.426298 14013 net.cpp:156] Memory required for data: 1221076512
I0403 15:41:24.426316 14013 layer_factory.hpp:77] Creating layer inception_4e/relu_3x3_reduce
I0403 15:41:24.426336 14013 net.cpp:91] Creating Layer inception_4e/relu_3x3_reduce
I0403 15:41:24.426352 14013 net.cpp:425] inception_4e/relu_3x3_reduce <- inception_4e/3x3_reduce
I0403 15:41:24.426369 14013 net.cpp:386] inception_4e/relu_3x3_reduce -> inception_4e/3x3_reduce (in-place)
I0403 15:41:24.426558 14013 net.cpp:141] Setting up inception_4e/relu_3x3_reduce
I0403 15:41:24.426584 14013 net.cpp:148] Top shape: 24 160 14 14 (752640)
I0403 15:41:24.426599 14013 net.cpp:156] Memory required for data: 1224087072
I0403 15:41:24.426614 14013 layer_factory.hpp:77] Creating layer inception_4e/3x3
I0403 15:41:24.426635 14013 net.cpp:91] Creating Layer inception_4e/3x3
I0403 15:41:24.426652 14013 net.cpp:425] inception_4e/3x3 <- inception_4e/3x3_reduce
I0403 15:41:24.426674 14013 net.cpp:399] inception_4e/3x3 -> inception_4e/3x3
I0403 15:41:24.431663 14013 net.cpp:141] Setting up inception_4e/3x3
I0403 15:41:24.431704 14013 net.cpp:148] Top shape: 24 320 14 14 (1505280)
I0403 15:41:24.431721 14013 net.cpp:156] Memory required for data: 1230108192
I0403 15:41:24.431738 14013 layer_factory.hpp:77] Creating layer inception_4e/relu_3x3
I0403 15:41:24.431756 14013 net.cpp:91] Creating Layer inception_4e/relu_3x3
I0403 15:41:24.431777 14013 net.cpp:425] inception_4e/relu_3x3 <- inception_4e/3x3
I0403 15:41:24.431794 14013 net.cpp:386] inception_4e/relu_3x3 -> inception_4e/3x3 (in-place)
I0403 15:41:24.432097 14013 net.cpp:141] Setting up inception_4e/relu_3x3
I0403 15:41:24.432124 14013 net.cpp:148] Top shape: 24 320 14 14 (1505280)
I0403 15:41:24.432139 14013 net.cpp:156] Memory required for data: 1236129312
I0403 15:41:24.432153 14013 layer_factory.hpp:77] Creating layer inception_4e/5x5_reduce
I0403 15:41:24.432178 14013 net.cpp:91] Creating Layer inception_4e/5x5_reduce
I0403 15:41:24.432198 14013 net.cpp:425] inception_4e/5x5_reduce <- inception_4d/output_inception_4d/output_0_split_3
I0403 15:41:24.432219 14013 net.cpp:399] inception_4e/5x5_reduce -> inception_4e/5x5_reduce
I0403 15:41:24.433305 14013 net.cpp:141] Setting up inception_4e/5x5_reduce
I0403 15:41:24.433334 14013 net.cpp:148] Top shape: 24 32 14 14 (150528)
I0403 15:41:24.433351 14013 net.cpp:156] Memory required for data: 1236731424
I0403 15:41:24.433368 14013 layer_factory.hpp:77] Creating layer inception_4e/relu_5x5_reduce
I0403 15:41:24.433387 14013 net.cpp:91] Creating Layer inception_4e/relu_5x5_reduce
I0403 15:41:24.433403 14013 net.cpp:425] inception_4e/relu_5x5_reduce <- inception_4e/5x5_reduce
I0403 15:41:24.433424 14013 net.cpp:386] inception_4e/relu_5x5_reduce -> inception_4e/5x5_reduce (in-place)
I0403 15:41:24.433724 14013 net.cpp:141] Setting up inception_4e/relu_5x5_reduce
I0403 15:41:24.433753 14013 net.cpp:148] Top shape: 24 32 14 14 (150528)
I0403 15:41:24.433769 14013 net.cpp:156] Memory required for data: 1237333536
I0403 15:41:24.433784 14013 layer_factory.hpp:77] Creating layer inception_4e/5x5
I0403 15:41:24.433823 14013 net.cpp:91] Creating Layer inception_4e/5x5
I0403 15:41:24.433842 14013 net.cpp:425] inception_4e/5x5 <- inception_4e/5x5_reduce
I0403 15:41:24.433862 14013 net.cpp:399] inception_4e/5x5 -> inception_4e/5x5
I0403 15:41:24.435708 14013 net.cpp:141] Setting up inception_4e/5x5
I0403 15:41:24.435735 14013 net.cpp:148] Top shape: 24 128 14 14 (602112)
I0403 15:41:24.435750 14013 net.cpp:156] Memory required for data: 1239741984
I0403 15:41:24.435768 14013 layer_factory.hpp:77] Creating layer inception_4e/relu_5x5
I0403 15:41:24.435788 14013 net.cpp:91] Creating Layer inception_4e/relu_5x5
I0403 15:41:24.435806 14013 net.cpp:425] inception_4e/relu_5x5 <- inception_4e/5x5
I0403 15:41:24.435823 14013 net.cpp:386] inception_4e/relu_5x5 -> inception_4e/5x5 (in-place)
I0403 15:41:24.436022 14013 net.cpp:141] Setting up inception_4e/relu_5x5
I0403 15:41:24.436050 14013 net.cpp:148] Top shape: 24 128 14 14 (602112)
I0403 15:41:24.436065 14013 net.cpp:156] Memory required for data: 1242150432
I0403 15:41:24.436080 14013 layer_factory.hpp:77] Creating layer inception_4e/pool
I0403 15:41:24.436103 14013 net.cpp:91] Creating Layer inception_4e/pool
I0403 15:41:24.436120 14013 net.cpp:425] inception_4e/pool <- inception_4d/output_inception_4d/output_0_split_4
I0403 15:41:24.436139 14013 net.cpp:399] inception_4e/pool -> inception_4e/pool
I0403 15:41:24.436209 14013 net.cpp:141] Setting up inception_4e/pool
I0403 15:41:24.436234 14013 net.cpp:148] Top shape: 24 528 14 14 (2483712)
I0403 15:41:24.436249 14013 net.cpp:156] Memory required for data: 1252085280
I0403 15:41:24.436264 14013 layer_factory.hpp:77] Creating layer inception_4e/pool_proj
I0403 15:41:24.436287 14013 net.cpp:91] Creating Layer inception_4e/pool_proj
I0403 15:41:24.436306 14013 net.cpp:425] inception_4e/pool_proj <- inception_4e/pool
I0403 15:41:24.436324 14013 net.cpp:399] inception_4e/pool_proj -> inception_4e/pool_proj
I0403 15:41:24.437829 14013 net.cpp:141] Setting up inception_4e/pool_proj
I0403 15:41:24.437856 14013 net.cpp:148] Top shape: 24 128 14 14 (602112)
I0403 15:41:24.437886 14013 net.cpp:156] Memory required for data: 1254493728
I0403 15:41:24.437906 14013 layer_factory.hpp:77] Creating layer inception_4e/relu_pool_proj
I0403 15:41:24.437925 14013 net.cpp:91] Creating Layer inception_4e/relu_pool_proj
I0403 15:41:24.437942 14013 net.cpp:425] inception_4e/relu_pool_proj <- inception_4e/pool_proj
I0403 15:41:24.437959 14013 net.cpp:386] inception_4e/relu_pool_proj -> inception_4e/pool_proj (in-place)
I0403 15:41:24.438256 14013 net.cpp:141] Setting up inception_4e/relu_pool_proj
I0403 15:41:24.438283 14013 net.cpp:148] Top shape: 24 128 14 14 (602112)
I0403 15:41:24.438298 14013 net.cpp:156] Memory required for data: 1256902176
I0403 15:41:24.438313 14013 layer_factory.hpp:77] Creating layer inception_4e/output
I0403 15:41:24.438333 14013 net.cpp:91] Creating Layer inception_4e/output
I0403 15:41:24.438350 14013 net.cpp:425] inception_4e/output <- inception_4e/1x1
I0403 15:41:24.438369 14013 net.cpp:425] inception_4e/output <- inception_4e/3x3
I0403 15:41:24.438385 14013 net.cpp:425] inception_4e/output <- inception_4e/5x5
I0403 15:41:24.438401 14013 net.cpp:425] inception_4e/output <- inception_4e/pool_proj
I0403 15:41:24.438417 14013 net.cpp:399] inception_4e/output -> inception_4e/output
I0403 15:41:24.438468 14013 net.cpp:141] Setting up inception_4e/output
I0403 15:41:24.438493 14013 net.cpp:148] Top shape: 24 832 14 14 (3913728)
I0403 15:41:24.438508 14013 net.cpp:156] Memory required for data: 1272557088
I0403 15:41:24.438522 14013 layer_factory.hpp:77] Creating layer pool4/3x3_s2
I0403 15:41:24.438540 14013 net.cpp:91] Creating Layer pool4/3x3_s2
I0403 15:41:24.438555 14013 net.cpp:425] pool4/3x3_s2 <- inception_4e/output
I0403 15:41:24.438575 14013 net.cpp:399] pool4/3x3_s2 -> pool4/3x3_s2
I0403 15:41:24.438644 14013 net.cpp:141] Setting up pool4/3x3_s2
I0403 15:41:24.438669 14013 net.cpp:148] Top shape: 24 832 7 7 (978432)
I0403 15:41:24.438684 14013 net.cpp:156] Memory required for data: 1276470816
I0403 15:41:24.438699 14013 layer_factory.hpp:77] Creating layer pool4/3x3_s2_pool4/3x3_s2_0_split
I0403 15:41:24.438719 14013 net.cpp:91] Creating Layer pool4/3x3_s2_pool4/3x3_s2_0_split
I0403 15:41:24.438736 14013 net.cpp:425] pool4/3x3_s2_pool4/3x3_s2_0_split <- pool4/3x3_s2
I0403 15:41:24.438753 14013 net.cpp:399] pool4/3x3_s2_pool4/3x3_s2_0_split -> pool4/3x3_s2_pool4/3x3_s2_0_split_0
I0403 15:41:24.438778 14013 net.cpp:399] pool4/3x3_s2_pool4/3x3_s2_0_split -> pool4/3x3_s2_pool4/3x3_s2_0_split_1
I0403 15:41:24.438799 14013 net.cpp:399] pool4/3x3_s2_pool4/3x3_s2_0_split -> pool4/3x3_s2_pool4/3x3_s2_0_split_2
I0403 15:41:24.438819 14013 net.cpp:399] pool4/3x3_s2_pool4/3x3_s2_0_split -> pool4/3x3_s2_pool4/3x3_s2_0_split_3
I0403 15:41:24.438910 14013 net.cpp:141] Setting up pool4/3x3_s2_pool4/3x3_s2_0_split
I0403 15:41:24.438935 14013 net.cpp:148] Top shape: 24 832 7 7 (978432)
I0403 15:41:24.438951 14013 net.cpp:148] Top shape: 24 832 7 7 (978432)
I0403 15:41:24.438966 14013 net.cpp:148] Top shape: 24 832 7 7 (978432)
I0403 15:41:24.438980 14013 net.cpp:148] Top shape: 24 832 7 7 (978432)
I0403 15:41:24.438994 14013 net.cpp:156] Memory required for data: 1292125728
I0403 15:41:24.439008 14013 layer_factory.hpp:77] Creating layer inception_5a/1x1
I0403 15:41:24.439030 14013 net.cpp:91] Creating Layer inception_5a/1x1
I0403 15:41:24.439048 14013 net.cpp:425] inception_5a/1x1 <- pool4/3x3_s2_pool4/3x3_s2_0_split_0
I0403 15:41:24.439069 14013 net.cpp:399] inception_5a/1x1 -> inception_5a/1x1
I0403 15:41:24.441967 14013 net.cpp:141] Setting up inception_5a/1x1
I0403 15:41:24.441999 14013 net.cpp:148] Top shape: 24 256 7 7 (301056)
I0403 15:41:24.442016 14013 net.cpp:156] Memory required for data: 1293329952
I0403 15:41:24.442035 14013 layer_factory.hpp:77] Creating layer inception_5a/relu_1x1
I0403 15:41:24.442052 14013 net.cpp:91] Creating Layer inception_5a/relu_1x1
I0403 15:41:24.442067 14013 net.cpp:425] inception_5a/relu_1x1 <- inception_5a/1x1
I0403 15:41:24.442085 14013 net.cpp:386] inception_5a/relu_1x1 -> inception_5a/1x1 (in-place)
I0403 15:41:24.442409 14013 net.cpp:141] Setting up inception_5a/relu_1x1
I0403 15:41:24.442440 14013 net.cpp:148] Top shape: 24 256 7 7 (301056)
I0403 15:41:24.442456 14013 net.cpp:156] Memory required for data: 1294534176
I0403 15:41:24.442471 14013 layer_factory.hpp:77] Creating layer inception_5a/3x3_reduce
I0403 15:41:24.442493 14013 net.cpp:91] Creating Layer inception_5a/3x3_reduce
I0403 15:41:24.442512 14013 net.cpp:425] inception_5a/3x3_reduce <- pool4/3x3_s2_pool4/3x3_s2_0_split_1
I0403 15:41:24.442530 14013 net.cpp:399] inception_5a/3x3_reduce -> inception_5a/3x3_reduce
I0403 15:41:24.444994 14013 net.cpp:141] Setting up inception_5a/3x3_reduce
I0403 15:41:24.445024 14013 net.cpp:148] Top shape: 24 160 7 7 (188160)
I0403 15:41:24.445039 14013 net.cpp:156] Memory required for data: 1295286816
I0403 15:41:24.445056 14013 layer_factory.hpp:77] Creating layer inception_5a/relu_3x3_reduce
I0403 15:41:24.445077 14013 net.cpp:91] Creating Layer inception_5a/relu_3x3_reduce
I0403 15:41:24.445099 14013 net.cpp:425] inception_5a/relu_3x3_reduce <- inception_5a/3x3_reduce
I0403 15:41:24.445118 14013 net.cpp:386] inception_5a/relu_3x3_reduce -> inception_5a/3x3_reduce (in-place)
I0403 15:41:24.445308 14013 net.cpp:141] Setting up inception_5a/relu_3x3_reduce
I0403 15:41:24.445333 14013 net.cpp:148] Top shape: 24 160 7 7 (188160)
I0403 15:41:24.445351 14013 net.cpp:156] Memory required for data: 1296039456
I0403 15:41:24.445366 14013 layer_factory.hpp:77] Creating layer inception_5a/3x3
I0403 15:41:24.445386 14013 net.cpp:91] Creating Layer inception_5a/3x3
I0403 15:41:24.445404 14013 net.cpp:425] inception_5a/3x3 <- inception_5a/3x3_reduce
I0403 15:41:24.445425 14013 net.cpp:399] inception_5a/3x3 -> inception_5a/3x3
I0403 15:41:24.450450 14013 net.cpp:141] Setting up inception_5a/3x3
I0403 15:41:24.450480 14013 net.cpp:148] Top shape: 24 320 7 7 (376320)
I0403 15:41:24.450495 14013 net.cpp:156] Memory required for data: 1297544736
I0403 15:41:24.450513 14013 layer_factory.hpp:77] Creating layer inception_5a/relu_3x3
I0403 15:41:24.450536 14013 net.cpp:91] Creating Layer inception_5a/relu_3x3
I0403 15:41:24.450556 14013 net.cpp:425] inception_5a/relu_3x3 <- inception_5a/3x3
I0403 15:41:24.450572 14013 net.cpp:386] inception_5a/relu_3x3 -> inception_5a/3x3 (in-place)
I0403 15:41:24.450867 14013 net.cpp:141] Setting up inception_5a/relu_3x3
I0403 15:41:24.450894 14013 net.cpp:148] Top shape: 24 320 7 7 (376320)
I0403 15:41:24.450911 14013 net.cpp:156] Memory required for data: 1299050016
I0403 15:41:24.450924 14013 layer_factory.hpp:77] Creating layer inception_5a/5x5_reduce
I0403 15:41:24.450950 14013 net.cpp:91] Creating Layer inception_5a/5x5_reduce
I0403 15:41:24.450968 14013 net.cpp:425] inception_5a/5x5_reduce <- pool4/3x3_s2_pool4/3x3_s2_0_split_2
I0403 15:41:24.450987 14013 net.cpp:399] inception_5a/5x5_reduce -> inception_5a/5x5_reduce
I0403 15:41:24.452173 14013 net.cpp:141] Setting up inception_5a/5x5_reduce
I0403 15:41:24.452206 14013 net.cpp:148] Top shape: 24 32 7 7 (37632)
I0403 15:41:24.452222 14013 net.cpp:156] Memory required for data: 1299200544
I0403 15:41:24.452240 14013 layer_factory.hpp:77] Creating layer inception_5a/relu_5x5_reduce
I0403 15:41:24.452260 14013 net.cpp:91] Creating Layer inception_5a/relu_5x5_reduce
I0403 15:41:24.452276 14013 net.cpp:425] inception_5a/relu_5x5_reduce <- inception_5a/5x5_reduce
I0403 15:41:24.452292 14013 net.cpp:386] inception_5a/relu_5x5_reduce -> inception_5a/5x5_reduce (in-place)
I0403 15:41:24.452591 14013 net.cpp:141] Setting up inception_5a/relu_5x5_reduce
I0403 15:41:24.452620 14013 net.cpp:148] Top shape: 24 32 7 7 (37632)
I0403 15:41:24.452636 14013 net.cpp:156] Memory required for data: 1299351072
I0403 15:41:24.452652 14013 layer_factory.hpp:77] Creating layer inception_5a/5x5
I0403 15:41:24.452674 14013 net.cpp:91] Creating Layer inception_5a/5x5
I0403 15:41:24.452693 14013 net.cpp:425] inception_5a/5x5 <- inception_5a/5x5_reduce
I0403 15:41:24.452713 14013 net.cpp:399] inception_5a/5x5 -> inception_5a/5x5
I0403 15:41:24.454455 14013 net.cpp:141] Setting up inception_5a/5x5
I0403 15:41:24.454496 14013 net.cpp:148] Top shape: 24 128 7 7 (150528)
I0403 15:41:24.454514 14013 net.cpp:156] Memory required for data: 1299953184
I0403 15:41:24.454531 14013 layer_factory.hpp:77] Creating layer inception_5a/relu_5x5
I0403 15:41:24.454552 14013 net.cpp:91] Creating Layer inception_5a/relu_5x5
I0403 15:41:24.454568 14013 net.cpp:425] inception_5a/relu_5x5 <- inception_5a/5x5
I0403 15:41:24.454586 14013 net.cpp:386] inception_5a/relu_5x5 -> inception_5a/5x5 (in-place)
I0403 15:41:24.454782 14013 net.cpp:141] Setting up inception_5a/relu_5x5
I0403 15:41:24.454807 14013 net.cpp:148] Top shape: 24 128 7 7 (150528)
I0403 15:41:24.454821 14013 net.cpp:156] Memory required for data: 1300555296
I0403 15:41:24.454836 14013 layer_factory.hpp:77] Creating layer inception_5a/pool
I0403 15:41:24.454854 14013 net.cpp:91] Creating Layer inception_5a/pool
I0403 15:41:24.454869 14013 net.cpp:425] inception_5a/pool <- pool4/3x3_s2_pool4/3x3_s2_0_split_3
I0403 15:41:24.454890 14013 net.cpp:399] inception_5a/pool -> inception_5a/pool
I0403 15:41:24.454962 14013 net.cpp:141] Setting up inception_5a/pool
I0403 15:41:24.454988 14013 net.cpp:148] Top shape: 24 832 7 7 (978432)
I0403 15:41:24.455001 14013 net.cpp:156] Memory required for data: 1304469024
I0403 15:41:24.455014 14013 layer_factory.hpp:77] Creating layer inception_5a/pool_proj
I0403 15:41:24.455039 14013 net.cpp:91] Creating Layer inception_5a/pool_proj
I0403 15:41:24.455056 14013 net.cpp:425] inception_5a/pool_proj <- inception_5a/pool
I0403 15:41:24.455076 14013 net.cpp:399] inception_5a/pool_proj -> inception_5a/pool_proj
I0403 15:41:24.457474 14013 net.cpp:141] Setting up inception_5a/pool_proj
I0403 15:41:24.457504 14013 net.cpp:148] Top shape: 24 128 7 7 (150528)
I0403 15:41:24.457520 14013 net.cpp:156] Memory required for data: 1305071136
I0403 15:41:24.457536 14013 layer_factory.hpp:77] Creating layer inception_5a/relu_pool_proj
I0403 15:41:24.457557 14013 net.cpp:91] Creating Layer inception_5a/relu_pool_proj
I0403 15:41:24.457573 14013 net.cpp:425] inception_5a/relu_pool_proj <- inception_5a/pool_proj
I0403 15:41:24.457592 14013 net.cpp:386] inception_5a/relu_pool_proj -> inception_5a/pool_proj (in-place)
I0403 15:41:24.457892 14013 net.cpp:141] Setting up inception_5a/relu_pool_proj
I0403 15:41:24.457919 14013 net.cpp:148] Top shape: 24 128 7 7 (150528)
I0403 15:41:24.457934 14013 net.cpp:156] Memory required for data: 1305673248
I0403 15:41:24.457949 14013 layer_factory.hpp:77] Creating layer inception_5a/output
I0403 15:41:24.457972 14013 net.cpp:91] Creating Layer inception_5a/output
I0403 15:41:24.457988 14013 net.cpp:425] inception_5a/output <- inception_5a/1x1
I0403 15:41:24.458005 14013 net.cpp:425] inception_5a/output <- inception_5a/3x3
I0403 15:41:24.458021 14013 net.cpp:425] inception_5a/output <- inception_5a/5x5
I0403 15:41:24.458037 14013 net.cpp:425] inception_5a/output <- inception_5a/pool_proj
I0403 15:41:24.458055 14013 net.cpp:399] inception_5a/output -> inception_5a/output
I0403 15:41:24.458111 14013 net.cpp:141] Setting up inception_5a/output
I0403 15:41:24.458137 14013 net.cpp:148] Top shape: 24 832 7 7 (978432)
I0403 15:41:24.458153 14013 net.cpp:156] Memory required for data: 1309586976
I0403 15:41:24.458168 14013 layer_factory.hpp:77] Creating layer inception_5a/output_inception_5a/output_0_split
I0403 15:41:24.458184 14013 net.cpp:91] Creating Layer inception_5a/output_inception_5a/output_0_split
I0403 15:41:24.458201 14013 net.cpp:425] inception_5a/output_inception_5a/output_0_split <- inception_5a/output
I0403 15:41:24.458220 14013 net.cpp:399] inception_5a/output_inception_5a/output_0_split -> inception_5a/output_inception_5a/output_0_split_0
I0403 15:41:24.458241 14013 net.cpp:399] inception_5a/output_inception_5a/output_0_split -> inception_5a/output_inception_5a/output_0_split_1
I0403 15:41:24.458263 14013 net.cpp:399] inception_5a/output_inception_5a/output_0_split -> inception_5a/output_inception_5a/output_0_split_2
I0403 15:41:24.458283 14013 net.cpp:399] inception_5a/output_inception_5a/output_0_split -> inception_5a/output_inception_5a/output_0_split_3
I0403 15:41:24.458397 14013 net.cpp:141] Setting up inception_5a/output_inception_5a/output_0_split
I0403 15:41:24.458425 14013 net.cpp:148] Top shape: 24 832 7 7 (978432)
I0403 15:41:24.458442 14013 net.cpp:148] Top shape: 24 832 7 7 (978432)
I0403 15:41:24.458458 14013 net.cpp:148] Top shape: 24 832 7 7 (978432)
I0403 15:41:24.458473 14013 net.cpp:148] Top shape: 24 832 7 7 (978432)
I0403 15:41:24.458488 14013 net.cpp:156] Memory required for data: 1325241888
I0403 15:41:24.458503 14013 layer_factory.hpp:77] Creating layer inception_5b/1x1
I0403 15:41:24.458525 14013 net.cpp:91] Creating Layer inception_5b/1x1
I0403 15:41:24.458544 14013 net.cpp:425] inception_5b/1x1 <- inception_5a/output_inception_5a/output_0_split_0
I0403 15:41:24.458562 14013 net.cpp:399] inception_5b/1x1 -> inception_5b/1x1
I0403 15:41:24.462463 14013 net.cpp:141] Setting up inception_5b/1x1
I0403 15:41:24.462496 14013 net.cpp:148] Top shape: 24 384 7 7 (451584)
I0403 15:41:24.462512 14013 net.cpp:156] Memory required for data: 1327048224
I0403 15:41:24.462529 14013 layer_factory.hpp:77] Creating layer inception_5b/relu_1x1
I0403 15:41:24.462550 14013 net.cpp:91] Creating Layer inception_5b/relu_1x1
I0403 15:41:24.462568 14013 net.cpp:425] inception_5b/relu_1x1 <- inception_5b/1x1
I0403 15:41:24.462587 14013 net.cpp:386] inception_5b/relu_1x1 -> inception_5b/1x1 (in-place)
I0403 15:41:24.462924 14013 net.cpp:141] Setting up inception_5b/relu_1x1
I0403 15:41:24.462963 14013 net.cpp:148] Top shape: 24 384 7 7 (451584)
I0403 15:41:24.462978 14013 net.cpp:156] Memory required for data: 1328854560
I0403 15:41:24.462992 14013 layer_factory.hpp:77] Creating layer inception_5b/3x3_reduce
I0403 15:41:24.463016 14013 net.cpp:91] Creating Layer inception_5b/3x3_reduce
I0403 15:41:24.463034 14013 net.cpp:425] inception_5b/3x3_reduce <- inception_5a/output_inception_5a/output_0_split_1
I0403 15:41:24.463058 14013 net.cpp:399] inception_5b/3x3_reduce -> inception_5b/3x3_reduce
I0403 15:41:24.465819 14013 net.cpp:141] Setting up inception_5b/3x3_reduce
I0403 15:41:24.465852 14013 net.cpp:148] Top shape: 24 192 7 7 (225792)
I0403 15:41:24.465867 14013 net.cpp:156] Memory required for data: 1329757728
I0403 15:41:24.465886 14013 layer_factory.hpp:77] Creating layer inception_5b/relu_3x3_reduce
I0403 15:41:24.465909 14013 net.cpp:91] Creating Layer inception_5b/relu_3x3_reduce
I0403 15:41:24.465926 14013 net.cpp:425] inception_5b/relu_3x3_reduce <- inception_5b/3x3_reduce
I0403 15:41:24.465945 14013 net.cpp:386] inception_5b/relu_3x3_reduce -> inception_5b/3x3_reduce (in-place)
I0403 15:41:24.466150 14013 net.cpp:141] Setting up inception_5b/relu_3x3_reduce
I0403 15:41:24.466177 14013 net.cpp:148] Top shape: 24 192 7 7 (225792)
I0403 15:41:24.466193 14013 net.cpp:156] Memory required for data: 1330660896
I0403 15:41:24.466208 14013 layer_factory.hpp:77] Creating layer inception_5b/3x3
I0403 15:41:24.466233 14013 net.cpp:91] Creating Layer inception_5b/3x3
I0403 15:41:24.466253 14013 net.cpp:425] inception_5b/3x3 <- inception_5b/3x3_reduce
I0403 15:41:24.466271 14013 net.cpp:399] inception_5b/3x3 -> inception_5b/3x3
I0403 15:41:24.473243 14013 net.cpp:141] Setting up inception_5b/3x3
I0403 15:41:24.473275 14013 net.cpp:148] Top shape: 24 384 7 7 (451584)
I0403 15:41:24.473291 14013 net.cpp:156] Memory required for data: 1332467232
I0403 15:41:24.473311 14013 layer_factory.hpp:77] Creating layer inception_5b/relu_3x3
I0403 15:41:24.473332 14013 net.cpp:91] Creating Layer inception_5b/relu_3x3
I0403 15:41:24.473351 14013 net.cpp:425] inception_5b/relu_3x3 <- inception_5b/3x3
I0403 15:41:24.473368 14013 net.cpp:386] inception_5b/relu_3x3 -> inception_5b/3x3 (in-place)
I0403 15:41:24.473675 14013 net.cpp:141] Setting up inception_5b/relu_3x3
I0403 15:41:24.473702 14013 net.cpp:148] Top shape: 24 384 7 7 (451584)
I0403 15:41:24.473717 14013 net.cpp:156] Memory required for data: 1334273568
I0403 15:41:24.473732 14013 layer_factory.hpp:77] Creating layer inception_5b/5x5_reduce
I0403 15:41:24.473773 14013 net.cpp:91] Creating Layer inception_5b/5x5_reduce
I0403 15:41:24.473793 14013 net.cpp:425] inception_5b/5x5_reduce <- inception_5a/output_inception_5a/output_0_split_2
I0403 15:41:24.473815 14013 net.cpp:399] inception_5b/5x5_reduce -> inception_5b/5x5_reduce
I0403 15:41:24.475147 14013 net.cpp:141] Setting up inception_5b/5x5_reduce
I0403 15:41:24.475175 14013 net.cpp:148] Top shape: 24 48 7 7 (56448)
I0403 15:41:24.475193 14013 net.cpp:156] Memory required for data: 1334499360
I0403 15:41:24.475211 14013 layer_factory.hpp:77] Creating layer inception_5b/relu_5x5_reduce
I0403 15:41:24.475234 14013 net.cpp:91] Creating Layer inception_5b/relu_5x5_reduce
I0403 15:41:24.475251 14013 net.cpp:425] inception_5b/relu_5x5_reduce <- inception_5b/5x5_reduce
I0403 15:41:24.475270 14013 net.cpp:386] inception_5b/relu_5x5_reduce -> inception_5b/5x5_reduce (in-place)
I0403 15:41:24.475656 14013 net.cpp:141] Setting up inception_5b/relu_5x5_reduce
I0403 15:41:24.475684 14013 net.cpp:148] Top shape: 24 48 7 7 (56448)
I0403 15:41:24.475700 14013 net.cpp:156] Memory required for data: 1334725152
I0403 15:41:24.475716 14013 layer_factory.hpp:77] Creating layer inception_5b/5x5
I0403 15:41:24.475736 14013 net.cpp:91] Creating Layer inception_5b/5x5
I0403 15:41:24.475755 14013 net.cpp:425] inception_5b/5x5 <- inception_5b/5x5_reduce
I0403 15:41:24.475775 14013 net.cpp:399] inception_5b/5x5 -> inception_5b/5x5
I0403 15:41:24.477908 14013 net.cpp:141] Setting up inception_5b/5x5
I0403 15:41:24.477939 14013 net.cpp:148] Top shape: 24 128 7 7 (150528)
I0403 15:41:24.477955 14013 net.cpp:156] Memory required for data: 1335327264
I0403 15:41:24.477973 14013 layer_factory.hpp:77] Creating layer inception_5b/relu_5x5
I0403 15:41:24.477991 14013 net.cpp:91] Creating Layer inception_5b/relu_5x5
I0403 15:41:24.478008 14013 net.cpp:425] inception_5b/relu_5x5 <- inception_5b/5x5
I0403 15:41:24.478025 14013 net.cpp:386] inception_5b/relu_5x5 -> inception_5b/5x5 (in-place)
I0403 15:41:24.478231 14013 net.cpp:141] Setting up inception_5b/relu_5x5
I0403 15:41:24.478258 14013 net.cpp:148] Top shape: 24 128 7 7 (150528)
I0403 15:41:24.478276 14013 net.cpp:156] Memory required for data: 1335929376
I0403 15:41:24.478291 14013 layer_factory.hpp:77] Creating layer inception_5b/pool
I0403 15:41:24.478308 14013 net.cpp:91] Creating Layer inception_5b/pool
I0403 15:41:24.478325 14013 net.cpp:425] inception_5b/pool <- inception_5a/output_inception_5a/output_0_split_3
I0403 15:41:24.478345 14013 net.cpp:399] inception_5b/pool -> inception_5b/pool
I0403 15:41:24.478418 14013 net.cpp:141] Setting up inception_5b/pool
I0403 15:41:24.478446 14013 net.cpp:148] Top shape: 24 832 7 7 (978432)
I0403 15:41:24.478462 14013 net.cpp:156] Memory required for data: 1339843104
I0403 15:41:24.478477 14013 layer_factory.hpp:77] Creating layer inception_5b/pool_proj
I0403 15:41:24.478498 14013 net.cpp:91] Creating Layer inception_5b/pool_proj
I0403 15:41:24.478516 14013 net.cpp:425] inception_5b/pool_proj <- inception_5b/pool
I0403 15:41:24.478535 14013 net.cpp:399] inception_5b/pool_proj -> inception_5b/pool_proj
I0403 15:41:24.480851 14013 net.cpp:141] Setting up inception_5b/pool_proj
I0403 15:41:24.480881 14013 net.cpp:148] Top shape: 24 128 7 7 (150528)
I0403 15:41:24.480897 14013 net.cpp:156] Memory required for data: 1340445216
I0403 15:41:24.480916 14013 layer_factory.hpp:77] Creating layer inception_5b/relu_pool_proj
I0403 15:41:24.480937 14013 net.cpp:91] Creating Layer inception_5b/relu_pool_proj
I0403 15:41:24.480954 14013 net.cpp:425] inception_5b/relu_pool_proj <- inception_5b/pool_proj
I0403 15:41:24.480973 14013 net.cpp:386] inception_5b/relu_pool_proj -> inception_5b/pool_proj (in-place)
I0403 15:41:24.481276 14013 net.cpp:141] Setting up inception_5b/relu_pool_proj
I0403 15:41:24.481303 14013 net.cpp:148] Top shape: 24 128 7 7 (150528)
I0403 15:41:24.481318 14013 net.cpp:156] Memory required for data: 1341047328
I0403 15:41:24.481334 14013 layer_factory.hpp:77] Creating layer inception_5b/output
I0403 15:41:24.481356 14013 net.cpp:91] Creating Layer inception_5b/output
I0403 15:41:24.481389 14013 net.cpp:425] inception_5b/output <- inception_5b/1x1
I0403 15:41:24.481405 14013 net.cpp:425] inception_5b/output <- inception_5b/3x3
I0403 15:41:24.481421 14013 net.cpp:425] inception_5b/output <- inception_5b/5x5
I0403 15:41:24.481437 14013 net.cpp:425] inception_5b/output <- inception_5b/pool_proj
I0403 15:41:24.481454 14013 net.cpp:399] inception_5b/output -> inception_5b/output
I0403 15:41:24.481509 14013 net.cpp:141] Setting up inception_5b/output
I0403 15:41:24.481534 14013 net.cpp:148] Top shape: 24 1024 7 7 (1204224)
I0403 15:41:24.481549 14013 net.cpp:156] Memory required for data: 1345864224
I0403 15:41:24.481562 14013 layer_factory.hpp:77] Creating layer pool5/7x7_s1
I0403 15:41:24.481580 14013 net.cpp:91] Creating Layer pool5/7x7_s1
I0403 15:41:24.481595 14013 net.cpp:425] pool5/7x7_s1 <- inception_5b/output
I0403 15:41:24.481616 14013 net.cpp:399] pool5/7x7_s1 -> pool5/7x7_s1
I0403 15:41:24.481833 14013 net.cpp:141] Setting up pool5/7x7_s1
I0403 15:41:24.481860 14013 net.cpp:148] Top shape: 24 1024 1 1 (24576)
I0403 15:41:24.481874 14013 net.cpp:156] Memory required for data: 1345962528
I0403 15:41:24.481889 14013 layer_factory.hpp:77] Creating layer pool5/drop_7x7_s1
I0403 15:41:24.481909 14013 net.cpp:91] Creating Layer pool5/drop_7x7_s1
I0403 15:41:24.481925 14013 net.cpp:425] pool5/drop_7x7_s1 <- pool5/7x7_s1
I0403 15:41:24.481943 14013 net.cpp:386] pool5/drop_7x7_s1 -> pool5/7x7_s1 (in-place)
I0403 15:41:24.481995 14013 net.cpp:141] Setting up pool5/drop_7x7_s1
I0403 15:41:24.482018 14013 net.cpp:148] Top shape: 24 1024 1 1 (24576)
I0403 15:41:24.482033 14013 net.cpp:156] Memory required for data: 1346060832
I0403 15:41:24.482048 14013 layer_factory.hpp:77] Creating layer loss3/classifier_plantvillage
I0403 15:41:24.482067 14013 net.cpp:91] Creating Layer loss3/classifier_plantvillage
I0403 15:41:24.482085 14013 net.cpp:425] loss3/classifier_plantvillage <- pool5/7x7_s1
I0403 15:41:24.482110 14013 net.cpp:399] loss3/classifier_plantvillage -> loss3/classifier_plantvillage
I0403 15:41:24.482544 14013 net.cpp:141] Setting up loss3/classifier_plantvillage
I0403 15:41:24.482569 14013 net.cpp:148] Top shape: 24 38 (912)
I0403 15:41:24.482584 14013 net.cpp:156] Memory required for data: 1346064480
I0403 15:41:24.482601 14013 layer_factory.hpp:77] Creating layer loss3/classifier_plantvillage_loss3/classifier_plantvillage_0_split
I0403 15:41:24.482620 14013 net.cpp:91] Creating Layer loss3/classifier_plantvillage_loss3/classifier_plantvillage_0_split
I0403 15:41:24.482636 14013 net.cpp:425] loss3/classifier_plantvillage_loss3/classifier_plantvillage_0_split <- loss3/classifier_plantvillage
I0403 15:41:24.482656 14013 net.cpp:399] loss3/classifier_plantvillage_loss3/classifier_plantvillage_0_split -> loss3/classifier_plantvillage_loss3/classifier_plantvillage_0_split_0
I0403 15:41:24.482677 14013 net.cpp:399] loss3/classifier_plantvillage_loss3/classifier_plantvillage_0_split -> loss3/classifier_plantvillage_loss3/classifier_plantvillage_0_split_1
I0403 15:41:24.482697 14013 net.cpp:399] loss3/classifier_plantvillage_loss3/classifier_plantvillage_0_split -> loss3/classifier_plantvillage_loss3/classifier_plantvillage_0_split_2
I0403 15:41:24.482717 14013 net.cpp:399] loss3/classifier_plantvillage_loss3/classifier_plantvillage_0_split -> loss3/classifier_plantvillage_loss3/classifier_plantvillage_0_split_3
I0403 15:41:24.482820 14013 net.cpp:141] Setting up loss3/classifier_plantvillage_loss3/classifier_plantvillage_0_split
I0403 15:41:24.482843 14013 net.cpp:148] Top shape: 24 38 (912)
I0403 15:41:24.482859 14013 net.cpp:148] Top shape: 24 38 (912)
I0403 15:41:24.482873 14013 net.cpp:148] Top shape: 24 38 (912)
I0403 15:41:24.482888 14013 net.cpp:148] Top shape: 24 38 (912)
I0403 15:41:24.482902 14013 net.cpp:156] Memory required for data: 1346079072
I0403 15:41:24.482915 14013 layer_factory.hpp:77] Creating layer loss1/loss
I0403 15:41:24.482936 14013 net.cpp:91] Creating Layer loss1/loss
I0403 15:41:24.482954 14013 net.cpp:425] loss1/loss <- loss1/classifier_plantvillage_loss1/classifier_plantvillage_0_split_0
I0403 15:41:24.482985 14013 net.cpp:425] loss1/loss <- label_data_1_split_0
…
