…
I0403 15:57:00.221048 14879 net.cpp:313] The NetState phase (1) differed from the phase (0) specified by a rule in layer data
I0403 15:57:00.222266 14879 net.cpp:49] Initializing net from parameters: 
state {
  phase: TEST
}
layer {
  name: "data"
  type: "Data"
  top: "data"
  top: "label"
  include {
    phase: TEST
  }
  transform_param {
    mirror: false
    crop_size: 224
    mean_file: "/home/mohanty/data/final_dataset/lmdb/color-80-20/mean.binaryproto"
  }
  data_param {
    source: "/home/mohanty/data/final_dataset/lmdb/color-80-20/test_db"
    batch_size: 24
    backend: LMDB
  }
}
layer {
  name: "conv1/7x7_s2"
  type: "Convolution"
  bottom: "data"
  top: "conv1/7x7_s2"
  param {
    lr_mult: 1
    decay_mult: 1
  }
  param {
    lr_mult: 2
    decay_mult: 0
  }
  convolution_param {
    num_output: 64
    pad: 3
    kernel_size: 7
    stride: 2
    weight_filler {
      type: "xavier"
      std: 0.1
    }
    bias_filler {
      type: "constant"
      value: 0.2
    }
  }
}
layer {
  name: "conv1/relu_7x7"
  type: "ReLU"
  bottom: "conv1/7x7_s2"
  top: "conv1/7x7_s2"
}
layer {
  name: "pool1/3x3_s2"
  type: "Pooling"
  bottom: "conv1/7x7_s2"
  top: "pool1/3x3_s2"
  pooling_param {
    pool: MAX
    kernel_size: 3
    stride: 2
  }
}
layer {
  name: "pool1/norm1"
  type: "LRN"
  bottom: "pool1/3x3_s2"
  top: "pool1/norm1"
  lrn_param {
    local_size: 5
    alpha: 0.0001
    beta: 0.75
  }
}
layer {
  name: "conv2/3x3_reduce"
  type: "Convolution"
  bottom: "pool1/norm1"
  top: "conv2/3x3_reduce"
  param {
    lr_mult: 1
    decay_mult: 1
  }
  param {
    lr_mult: 2
    decay_mult: 0
  }
  convolution_param {
    num_output: 64
    kernel_size: 1
    weight_filler {
      type: "xavier"
      std: 0.1
    }
    bias_filler {
      type: "constant"
      value: 0.2
    }
  }
}
layer {
  name: "conv2/relu_3x3_reduce"
  type: "ReLU"
  bottom: "conv2/3x3_reduce"
  top: "conv2/3x3_reduce"
}
layer {
  name: "conv2/3x3"
  type: "Convolution"
  bottom: "conv2/3x3_reduce"
  top: "conv2/3x3"
  param {
    lr_mult: 1
    decay_mult: 1
  }
  param {
    lr_mult: 2
    decay_mult: 0
  }
  convolution_param {
    num_output: 192
    pad: 1
    kernel_size: 3
    weight_filler {
      type: "xavier"
      std: 0.03
    }
    bias_filler {
      type: "constant"
      value: 0.2
    }
  }
}
layer {
  name: "conv2/relu_3x3"
  type: "ReLU"
  bottom: "conv2/3x3"
  top: "conv2/3x3"
}
layer {
  name: "conv2/norm2"
  type: "LRN"
  bottom: "conv2/3x3"
  top: "conv2/norm2"
  lrn_param {
    local_size: 5
    alpha: 0.0001
    beta: 0.75
  }
}
layer {
  name: "pool2/3x3_s2"
  type: "Pooling"
  bottom: "conv2/norm2"
  top: "pool2/3x3_s2"
  pooling_param {
    pool: MAX
    kernel_size: 3
    stride: 2
  }
}
layer {
  name: "inception_3a/1x1"
  type: "Convolution"
  bottom: "pool2/3x3_s2"
  top: "inception_3a/1x1"
  param {
    lr_mult: 1
    decay_mult: 1
  }
  param {
    lr_mult: 2
    decay_mult: 0
  }
  convolution_param {
    num_output: 64
    kernel_size: 1
    weight_filler {
      type: "xavier"
      std: 0.03
    }
    bias_filler {
      type: "constant"
      value: 0.2
    }
  }
}
layer {
  name: "inception_3a/relu_1x1"
  type: "ReLU"
  bottom: "inception_3a/1x1"
  top: "inception_3a/1x1"
}
layer {
  name: "inception_3a/3x3_reduce"
  type: "Convolution"
  bottom: "pool2/3x3_s2"
  top: "inception_3a/3x3_reduce"
  param {
    lr_mult: 1
    decay_mult: 1
  }
  param {
    lr_mult: 2
    decay_mult: 0
  }
  convolution_param {
    num_output: 96
    kernel_size: 1
    weight_filler {
      type: "xavier"
      std: 0.09
    }
    bias_filler {
      type: "constant"
      value: 0.2
    }
  }
}
layer {
  name: "inception_3a/relu_3x3_reduce"
  type: "ReLU"
  bottom: "inception_3a/3x3_reduce"
  top: "inception_3a/3x3_reduce"
}
layer {
  name: "inception_3a/3x3"
  type: "Convolution"
  bottom: "inception_3a/3x3_reduce"
  top: "inception_3a/3x3"
  param {
    lr_mult: 1
    decay_mult: 1
  }
  param {
    lr_mult: 2
    decay_mult: 0
  }
  convolution_param {
    num_output: 128
    pad: 1
    kernel_size: 3
    weight_filler {
      type: "xavier"
      std: 0.03
    }
    bias_filler {
      type: "constant"
      value: 0.2
    }
  }
}
layer {
  name: "inception_3a/relu_3x3"
  type: "ReLU"
  bottom: "inception_3a/3x3"
  top: "inception_3a/3x3"
}
layer {
  name: "inception_3a/5x5_reduce"
  type: "Convolution"
  bottom: "pool2/3x3_s2"
  top: "inception_3a/5x5_reduce"
  param {
    lr_mult: 1
    decay_mult: 1
  }
  param {
    lr_mult: 2
    decay_mult: 0
  }
  convolution_param {
    num_output: 16
    kernel_size: 1
    weight_filler {
      type: "xavier"
      std: 0.2
    }
    bias_filler {
      type: "constant"
      value: 0.2
    }
  }
}
layer {
  name: "inception_3a/relu_5x5_reduce"
  type: "ReLU"
  bottom: "inception_3a/5x5_reduce"
  top: "inception_3a/5x5_reduce"
}
layer {
  name: "inception_3a/5x5"
  type: "Convolution"
  bottom: "inception_3a/5x5_reduce"
  top: "inception_3a/5x5"
  param {
    lr_mult: 1
    decay_mult: 1
  }
  param {
    lr_mult: 2
    decay_mult: 0
  }
  convolution_param {
    num_output: 32
    pad: 2
    kernel_size: 5
    weight_filler {
      type: "xavier"
      std: 0.03
    }
    bias_filler {
      type: "constant"
      value: 0.2
    }
  }
}
layer {
  name: "inception_3a/relu_5x5"
  type: "ReLU"
  bottom: "inception_3a/5x5"
  top: "inception_3a/5x5"
}
layer {
  name: "inception_3a/pool"
  type: "Pooling"
  bottom: "pool2/3x3_s2"
  top: "inception_3a/pool"
  pooling_param {
    pool: MAX
    kernel_size: 3
    stride: 1
    pad: 1
  }
}
layer {
  name: "inception_3a/pool_proj"
  type: "Convolution"
  bottom: "inception_3a/pool"
  top: "inception_3a/pool_proj"
  param {
    lr_mult: 1
    decay_mult: 1
  }
  param {
    lr_mult: 2
    decay_mult: 0
  }
  convolution_param {
    num_output: 32
    kernel_size: 1
    weight_filler {
      type: "xavier"
      std: 0.1
    }
    bias_filler {
      type: "constant"
      value: 0.2
    }
  }
}
layer {
  name: "inception_3a/relu_pool_proj"
  type: "ReLU"
  bottom: "inception_3a/pool_proj"
  top: "inception_3a/pool_proj"
}
layer {
  name: "inception_3a/output"
  type: "Concat"
  bottom: "inception_3a/1x1"
  bottom: "inception_3a/3x3"
  bottom: "inception_3a/5x5"
  bottom: "inception_3a/pool_proj"
  top: "inception_3a/output"
}
layer {
  name: "inception_3b/1x1"
  type: "Convolution"
  bottom: "inception_3a/output"
  top: "inception_3b/1x1"
  param {
    lr_mult: 1
    decay_mult: 1
  }
  param {
    lr_mult: 2
    decay_mult: 0
  }
  convolution_param {
    num_output: 128
    kernel_size: 1
    weight_filler {
      type: "xavier"
      std: 0.03
    }
    bias_filler {
      type: "constant"
      value: 0.2
    }
  }
}
layer {
  name: "inception_3b/relu_1x1"
  type: "ReLU"
  bottom: "inception_3b/1x1"
  top: "inception_3b/1x1"
}
layer {
  name: "inception_3b/3x3_reduce"
  type: "Convolution"
  bottom: "inception_3a/output"
  top: "inception_3b/3x3_reduce"
  param {
    lr_mult: 1
    decay_mult: 1
  }
  param {
    lr_mult: 2
    decay_mult: 0
  }
  convolution_param {
    num_output: 128
    kernel_size: 1
    weight_filler {
      type: "xavier"
      std: 0.09
    }
    bias_filler {
      type: "constant"
      value: 0.2
    }
  }
}
layer {
  name: "inception_3b/relu_3x3_reduce"
  type: "ReLU"
  bottom: "inception_3b/3x3_reduce"
  top: "inception_3b/3x3_reduce"
}
layer {
  name: "inception_3b/3x3"
  type: "Convolution"
  bottom: "inception_3b/3x3_reduce"
  top: "inception_3b/3x3"
  param {
    lr_mult: 1
    decay_mult: 1
  }
  param {
    lr_mult: 2
    decay_mult: 0
  }
  convolution_param {
    num_output: 192
    pad: 1
    kernel_size: 3
    weight_filler {
      type: "xavier"
      std: 0.03
    }
    bias_filler {
      type: "constant"
      value: 0.2
    }
  }
}
layer {
  name: "inception_3b/relu_3x3"
  type: "ReLU"
  bottom: "inception_3b/3x3"
  top: "inception_3b/3x3"
}
layer {
  name: "inception_3b/5x5_reduce"
  type: "Convolution"
  bottom: "inception_3a/output"
  top: "inception_3b/5x5_reduce"
  param {
    lr_mult: 1
    decay_mult: 1
  }
  param {
    lr_mult: 2
    decay_mult: 0
  }
  convolution_param {
    num_output: 32
    kernel_size: 1
    weight_filler {
      type: "xavier"
      std: 0.2
    }
    bias_filler {
      type: "constant"
      value: 0.2
    }
  }
}
layer {
  name: "inception_3b/relu_5x5_reduce"
  type: "ReLU"
  bottom: "inception_3b/5x5_reduce"
  top: "inception_3b/5x5_reduce"
}
layer {
  name: "inception_3b/5x5"
  type: "Convolution"
  bottom: "inception_3b/5x5_reduce"
  top: "inception_3b/5x5"
  param {
    lr_mult: 1
    decay_mult: 1
  }
  param {
    lr_mult: 2
    decay_mult: 0
  }
  convolution_param {
    num_output: 96
    pad: 2
    kernel_size: 5
    weight_filler {
      type: "xavier"
      std: 0.03
    }
    bias_filler {
      type: "constant"
      value: 0.2
    }
  }
}
layer {
  name: "inception_3b/relu_5x5"
  type: "ReLU"
  bottom: "inception_3b/5x5"
  top: "inception_3b/5x5"
}
layer {
  name: "inception_3b/pool"
  type: "Pooling"
  bottom: "inception_3a/output"
  top: "inception_3b/pool"
  pooling_param {
    pool: MAX
    kernel_size: 3
    stride: 1
    pad: 1
  }
}
layer {
  name: "inception_3b/pool_proj"
  type: "Convolution"
  bottom: "inception_3b/pool"
  top: "inception_3b/pool_proj"
  param {
    lr_mult: 1
    decay_mult: 1
  }
  param {
    lr_mult: 2
    decay_mult: 0
  }
  convolution_param {
    num_output: 64
    kernel_size: 1
    weight_filler {
      type: "xavier"
      std: 0.1
    }
    bias_filler {
      type: "constant"
      value: 0.2
    }
  }
}
layer {
  name: "inception_3b/relu_pool_proj"
  type: "ReLU"
  bottom: "inception_3b/pool_proj"
  top: "inception_3b/pool_proj"
}
layer {
  name: "inception_3b/output"
  type: "Concat"
  bottom: "inception_3b/1x1"
  bottom: "inception_3b/3x3"
  bottom: "inception_3b/5x5"
  bottom: "inception_3b/pool_proj"
  top: "inception_3b/output"
}
layer {
  name: "pool3/3x3_s2"
  type: "Pooling"
  bottom: "inception_3b/output"
  top: "pool3/3x3_s2"
  pooling_param {
    pool: MAX
    kernel_size: 3
    stride: 2
  }
}
layer {
  name: "inception_4a/1x1"
  type: "Convolution"
  bottom: "pool3/3x3_s2"
  top: "inception_4a/1x1"
  param {
    lr_mult: 1
    decay_mult: 1
  }
  param {
    lr_mult: 2
    decay_mult: 0
  }
  convolution_param {
    num_output: 192
    kernel_size: 1
    weight_filler {
      type: "xavier"
      std: 0.03
    }
    bias_filler {
      type: "constant"
      value: 0.2
    }
  }
}
layer {
  name: "inception_4a/relu_1x1"
  type: "ReLU"
  bottom: "inception_4a/1x1"
  top: "inception_4a/1x1"
}
layer {
  name: "inception_4a/3x3_reduce"
  type: "Convolution"
  bottom: "pool3/3x3_s2"
  top: "inception_4a/3x3_reduce"
  param {
    lr_mult: 1
    decay_mult: 1
  }
  param {
    lr_mult: 2
    decay_mult: 0
  }
  convolution_param {
    num_output: 96
    kernel_size: 1
    weight_filler {
      type: "xavier"
      std: 0.09
    }
    bias_filler {
      type: "constant"
      value: 0.2
    }
  }
}
layer {
  name: "inception_4a/relu_3x3_reduce"
  type: "ReLU"
  bottom: "inception_4a/3x3_reduce"
  top: "inception_4a/3x3_reduce"
}
layer {
  name: "inception_4a/3x3"
  type: "Convolution"
  bottom: "inception_4a/3x3_reduce"
  top: "inception_4a/3x3"
  param {
    lr_mult: 1
    decay_mult: 1
  }
  param {
    lr_mult: 2
    decay_mult: 0
  }
  convolution_param {
    num_output: 208
    pad: 1
    kernel_size: 3
    weight_filler {
      type: "xavier"
      std: 0.03
    }
    bias_filler {
      type: "constant"
      value: 0.2
    }
  }
}
layer {
  name: "inception_4a/relu_3x3"
  type: "ReLU"
  bottom: "inception_4a/3x3"
  top: "inception_4a/3x3"
}
layer {
  name: "inception_4a/5x5_reduce"
  type: "Convolution"
  bottom: "pool3/3x3_s2"
  top: "inception_4a/5x5_reduce"
  param {
    lr_mult: 1
    decay_mult: 1
  }
  param {
    lr_mult: 2
    decay_mult: 0
  }
  convolution_param {
    num_output: 16
    kernel_size: 1
    weight_filler {
      type: "xavier"
      std: 0.2
    }
    bias_filler {
      type: "constant"
      value: 0.2
    }
  }
}
layer {
  name: "inception_4a/relu_5x5_reduce"
  type: "ReLU"
  bottom: "inception_4a/5x5_reduce"
  top: "inception_4a/5x5_reduce"
}
layer {
  name: "inception_4a/5x5"
  type: "Convolution"
  bottom: "inception_4a/5x5_reduce"
  top: "inception_4a/5x5"
  param {
    lr_mult: 1
    decay_mult: 1
  }
  param {
    lr_mult: 2
    decay_mult: 0
  }
  convolution_param {
    num_output: 48
    pad: 2
    kernel_size: 5
    weight_filler {
      type: "xavier"
      std: 0.03
    }
    bias_filler {
      type: "constant"
      value: 0.2
    }
  }
}
layer {
  name: "inception_4a/relu_5x5"
  type: "ReLU"
  bottom: "inception_4a/5x5"
  top: "inception_4a/5x5"
}
layer {
  name: "inception_4a/pool"
  type: "Pooling"
  bottom: "pool3/3x3_s2"
  top: "inception_4a/pool"
  pooling_param {
    pool: MAX
    kernel_size: 3
    stride: 1
    pad: 1
  }
}
layer {
  name: "inception_4a/pool_proj"
  type: "Convolution"
  bottom: "inception_4a/pool"
  top: "inception_4a/pool_proj"
  param {
    lr_mult: 1
    decay_mult: 1
  }
  param {
    lr_mult: 2
    decay_mult: 0
  }
  convolution_param {
    num_output: 64
    kernel_size: 1
    weight_filler {
      type: "xavier"
      std: 0.1
    }
    bias_filler {
      type: "constant"
      value: 0.2
    }
  }
}
layer {
  name: "inception_4a/relu_pool_proj"
  type: "ReLU"
  bottom: "inception_4a/pool_proj"
  top: "inception_4a/pool_proj"
}
layer {
  name: "inception_4a/output"
  type: "Concat"
  bottom: "inception_4a/1x1"
  bottom: "inception_4a/3x3"
  bottom: "inception_4a/5x5"
  bottom: "inception_4a/pool_proj"
  top: "inception_4a/output"
}
layer {
  name: "loss1/ave_pool"
  type: "Pooling"
  bottom: "inception_4a/output"
  top: "loss1/ave_pool"
  pooling_param {
    pool: AVE
    kernel_size: 5
    stride: 3
  }
}
layer {
  name: "loss1/conv"
  type: "Convolution"
  bottom: "loss1/ave_pool"
  top: "loss1/conv"
  param {
    lr_mult: 1
    decay_mult: 1
  }
  param {
    lr_mult: 2
    decay_mult: 0
  }
  convolution_param {
    num_output: 128
    kernel_size: 1
    weight_filler {
      type: "xavier"
      std: 0.08
    }
    bias_filler {
      type: "constant"
      value: 0.2
    }
  }
}
layer {
  name: "loss1/relu_conv"
  type: "ReLU"
  bottom: "loss1/conv"
  top: "loss1/conv"
}
layer {
  name: "loss1/fc"
  type: "InnerProduct"
  bottom: "loss1/conv"
  top: "loss1/fc"
  param {
    lr_mult: 1
    decay_mult: 1
  }
  param {
    lr_mult: 2
    decay_mult: 0
  }
  inner_product_param {
    num_output: 1024
    weight_filler {
      type: "xavier"
      std: 0.02
    }
    bias_filler {
      type: "constant"
      value: 0.2
    }
  }
}
layer {
  name: "loss1/relu_fc"
  type: "ReLU"
  bottom: "loss1/fc"
  top: "loss1/fc"
}
layer {
  name: "loss1/drop_fc"
  type: "Dropout"
  bottom: "loss1/fc"
  top: "loss1/fc"
  dropout_param {
    dropout_ratio: 0.7
  }
}
layer {
  name: "loss1/classifier_plantvillage"
  type: "InnerProduct"
  bottom: "loss1/fc"
  top: "loss1/classifier_plantvillage"
  param {
    lr_mult: 1
    decay_mult: 1
  }
  param {
    lr_mult: 2
    decay_mult: 0
  }
  inner_product_param {
    num_output: 38
    weight_filler {
      type: "xavier"
      std: 0.0009765625
    }
    bias_filler {
      type: "constant"
      value: 0
    }
  }
}
layer {
  name: "inception_4b/1x1"
  type: "Convolution"
  bottom: "inception_4a/output"
  top: "inception_4b/1x1"
  param {
    lr_mult: 1
    decay_mult: 1
  }
  param {
    lr_mult: 2
    decay_mult: 0
  }
  convolution_param {
    num_output: 160
    kernel_size: 1
    weight_filler {
      type: "xavier"
      std: 0.03
    }
    bias_filler {
      type: "constant"
      value: 0.2
    }
  }
}
layer {
  name: "inception_4b/relu_1x1"
  type: "ReLU"
  bottom: "inception_4b/1x1"
  top: "inception_4b/1x1"
}
layer {
  name: "inception_4b/3x3_reduce"
  type: "Convolution"
  bottom: "inception_4a/output"
  top: "inception_4b/3x3_reduce"
  param {
    lr_mult: 1
    decay_mult: 1
  }
  param {
    lr_mult: 2
    decay_mult: 0
  }
  convolution_param {
    num_output: 112
    kernel_size: 1
    weight_filler {
      type: "xavier"
      std: 0.09
    }
    bias_filler {
      type: "constant"
      value: 0.2
    }
  }
}
layer {
  name: "inception_4b/relu_3x3_reduce"
  type: "ReLU"
  bottom: "inception_4b/3x3_reduce"
  top: "inception_4b/3x3_reduce"
}
layer {
  name: "inception_4b/3x3"
  type: "Convolution"
  bottom: "inception_4b/3x3_reduce"
  top: "inception_4b/3x3"
  param {
    lr_mult: 1
    decay_mult: 1
  }
  param {
    lr_mult: 2
    decay_mult: 0
  }
  convolution_param {
    num_output: 224
    pad: 1
    kernel_size: 3
    weight_filler {
      type: "xavier"
      std: 0.03
    }
    bias_filler {
      type: "constant"
      value: 0.2
    }
  }
}
layer {
  name: "inception_4b/relu_3x3"
  type: "ReLU"
  bottom: "inception_4b/3x3"
  top: "inception_4b/3x3"
}
layer {
  name: "inception_4b/5x5_reduce"
  type: "Convolution"
  bottom: "inception_4a/output"
  top: "inception_4b/5x5_reduce"
  param {
    lr_mult: 1
    decay_mult: 1
  }
  param {
    lr_mult: 2
    decay_mult: 0
  }
  convolution_param {
    num_output: 24
    kernel_size: 1
    weight_filler {
      type: "xavier"
      std: 0.2
    }
    bias_filler {
      type: "constant"
      value: 0.2
    }
  }
}
layer {
  name: "inception_4b/relu_5x5_reduce"
  type: "ReLU"
  bottom: "inception_4b/5x5_reduce"
  top: "inception_4b/5x5_reduce"
}
layer {
  name: "inception_4b/5x5"
  type: "Convolution"
  bottom: "inception_4b/5x5_reduce"
  top: "inception_4b/5x5"
  param {
    lr_mult: 1
    decay_mult: 1
  }
  param {
    lr_mult: 2
    decay_mult: 0
  }
  convolution_param {
    num_output: 64
    pad: 2
    kernel_size: 5
    weight_filler {
      type: "xavier"
      std: 0.03
    }
    bias_filler {
      type: "constant"
      value: 0.2
    }
  }
}
layer {
  name: "inception_4b/relu_5x5"
  type: "ReLU"
  bottom: "inception_4b/5x5"
  top: "inception_4b/5x5"
}
layer {
  name: "inception_4b/pool"
  type: "Pooling"
  bottom: "inception_4a/output"
  top: "inception_4b/pool"
  pooling_param {
    pool: MAX
    kernel_size: 3
    stride: 1
    pad: 1
  }
}
layer {
  name: "inception_4b/pool_proj"
  type: "Convolution"
  bottom: "inception_4b/pool"
  top: "inception_4b/pool_proj"
  param {
    lr_mult: 1
    decay_mult: 1
  }
  param {
    lr_mult: 2
    decay_mult: 0
  }
  convolution_param {
    num_output: 64
    kernel_size: 1
    weight_filler {
      type: "xavier"
      std: 0.1
    }
    bias_filler {
      type: "constant"
      value: 0.2
    }
  }
}
layer {
  name: "inception_4b/relu_pool_proj"
  type: "ReLU"
  bottom: "inception_4b/pool_proj"
  top: "inception_4b/pool_proj"
}
layer {
  name: "inception_4b/output"
  type: "Concat"
  bottom: "inception_4b/1x1"
  bottom: "inception_4b/3x3"
  bottom: "inception_4b/5x5"
  bottom: "inception_4b/pool_proj"
  top: "inception_4b/output"
}
layer {
  name: "inception_4c/1x1"
  type: "Convolution"
  bottom: "inception_4b/output"
  top: "inception_4c/1x1"
  param {
    lr_mult: 1
    decay_mult: 1
  }
  param {
    lr_mult: 2
    decay_mult: 0
  }
  convolution_param {
    num_output: 128
    kernel_size: 1
    weight_filler {
      type: "xavier"
      std: 0.03
    }
    bias_filler {
      type: "constant"
      value: 0.2
    }
  }
}
layer {
  name: "inception_4c/relu_1x1"
  type: "ReLU"
  bottom: "inception_4c/1x1"
  top: "inception_4c/1x1"
}
layer {
  name: "inception_4c/3x3_reduce"
  type: "Convolution"
  bottom: "inception_4b/output"
  top: "inception_4c/3x3_reduce"
  param {
    lr_mult: 1
    decay_mult: 1
  }
  param {
    lr_mult: 2
    decay_mult: 0
  }
  convolution_param {
    num_output: 128
    kernel_size: 1
    weight_filler {
      type: "xavier"
      std: 0.09
    }
    bias_filler {
      type: "constant"
      value: 0.2
    }
  }
}
layer {
  name: "inception_4c/relu_3x3_reduce"
  type: "ReLU"
  bottom: "inception_4c/3x3_reduce"
  top: "inception_4c/3x3_reduce"
}
layer {
  name: "inception_4c/3x3"
  type: "Convolution"
  bottom: "inception_4c/3x3_reduce"
  top: "inception_4c/3x3"
  param {
    lr_mult: 1
    decay_mult: 1
  }
  param {
    lr_mult: 2
    decay_mult: 0
  }
  convolution_param {
    num_output: 256
    pad: 1
    kernel_size: 3
    weight_filler {
      type: "xavier"
      std: 0.03
    }
    bias_filler {
      type: "constant"
      value: 0.2
    }
  }
}
layer {
  name: "inception_4c/relu_3x3"
  type: "ReLU"
  bottom: "inception_4c/3x3"
  top: "inception_4c/3x3"
}
layer {
  name: "inception_4c/5x5_reduce"
  type: "Convolution"
  bottom: "inception_4b/output"
  top: "inception_4c/5x5_reduce"
  param {
    lr_mult: 1
    decay_mult: 1
  }
  param {
    lr_mult: 2
    decay_mult: 0
  }
  convolution_param {
    num_output: 24
    kernel_size: 1
    weight_filler {
      type: "xavier"
      std: 0.2
    }
    bias_filler {
      type: "constant"
      value: 0.2
    }
  }
}
layer {
  name: "inception_4c/relu_5x5_reduce"
  type: "ReLU"
  bottom: "inception_4c/5x5_reduce"
  top: "inception_4c/5x5_reduce"
}
layer {
  name: "inception_4c/5x5"
  type: "Convolution"
  bottom: "inception_4c/5x5_reduce"
  top: "inception_4c/5x5"
  param {
    lr_mult: 1
    decay_mult: 1
  }
  param {
    lr_mult: 2
    decay_mult: 0
  }
  convolution_param {
    num_output: 64
    pad: 2
    kernel_size: 5
    weight_filler {
      type: "xavier"
      std: 0.03
    }
    bias_filler {
      type: "constant"
      value: 0.2
    }
  }
}
layer {
  name: "inception_4c/relu_5x5"
  type: "ReLU"
  bottom: "inception_4c/5x5"
  top: "inception_4c/5x5"
}
layer {
  name: "inception_4c/pool"
  type: "Pooling"
  bottom: "inception_4b/output"
  top: "inception_4c/pool"
  pooling_param {
    pool: MAX
    kernel_size: 3
    stride: 1
    pad: 1
  }
}
layer {
  name: "inception_4c/pool_proj"
  type: "Convolution"
  bottom: "inception_4c/pool"
  top: "inception_4c/pool_proj"
  param {
    lr_mult: 1
    decay_mult: 1
  }
  param {
    lr_mult: 2
    decay_mult: 0
  }
  convolution_param {
    num_output: 64
    kernel_size: 1
    weight_filler {
      type: "xavier"
      std: 0.1
    }
    bias_filler {
      type: "constant"
      value: 0.2
    }
  }
}
layer {
  name: "inception_4c/relu_pool_proj"
  type: "ReLU"
  bottom: "inception_4c/pool_proj"
  top: "inception_4c/pool_proj"
}
layer {
  name: "inception_4c/output"
  type: "Concat"
  bottom: "inception_4c/1x1"
  bottom: "inception_4c/3x3"
  bottom: "inception_4c/5x5"
  bottom: "inception_4c/pool_proj"
  top: "inception_4c/output"
}
layer {
  name: "inception_4d/1x1"
  type: "Convolution"
  bottom: "inception_4c/output"
  top: "inception_4d/1x1"
  param {
    lr_mult: 1
    decay_mult: 1
  }
  param {
    lr_mult: 2
    decay_mult: 0
  }
  convolution_param {
    num_output: 112
    kernel_size: 1
    weight_filler {
      type: "xavier"
      std: 0.03
    }
    bias_filler {
      type: "constant"
      value: 0.2
    }
  }
}
layer {
  name: "inception_4d/relu_1x1"
  type: "ReLU"
  bottom: "inception_4d/1x1"
  top: "inception_4d/1x1"
}
layer {
  name: "inception_4d/3x3_reduce"
  type: "Convolution"
  bottom: "inception_4c/output"
  top: "inception_4d/3x3_reduce"
  param {
    lr_mult: 1
    decay_mult: 1
  }
  param {
    lr_mult: 2
    decay_mult: 0
  }
  convolution_param {
    num_output: 144
    kernel_size: 1
    weight_filler {
      type: "xavier"
      std: 0.09
    }
    bias_filler {
      type: "constant"
      value: 0.2
    }
  }
}
layer {
  name: "inception_4d/relu_3x3_reduce"
  type: "ReLU"
  bottom: "inception_4d/3x3_reduce"
  top: "inception_4d/3x3_reduce"
}
layer {
  name: "inception_4d/3x3"
  type: "Convolution"
  bottom: "inception_4d/3x3_reduce"
  top: "inception_4d/3x3"
  param {
    lr_mult: 1
    decay_mult: 1
  }
  param {
    lr_mult: 2
    decay_mult: 0
  }
  convolution_param {
    num_output: 288
    pad: 1
    kernel_size: 3
    weight_filler {
      type: "xavier"
      std: 0.03
    }
    bias_filler {
      type: "constant"
      value: 0.2
    }
  }
}
layer {
  name: "inception_4d/relu_3x3"
  type: "ReLU"
  bottom: "inception_4d/3x3"
  top: "inception_4d/3x3"
}
layer {
  name: "inception_4d/5x5_reduce"
  type: "Convolution"
  bottom: "inception_4c/output"
  top: "inception_4d/5x5_reduce"
  param {
    lr_mult: 1
    decay_mult: 1
  }
  param {
    lr_mult: 2
    decay_mult: 0
  }
  convolution_param {
    num_output: 32
    kernel_size: 1
    weight_filler {
      type: "xavier"
      std: 0.2
    }
    bias_filler {
      type: "constant"
      value: 0.2
    }
  }
}
layer {
  name: "inception_4d/relu_5x5_reduce"
  type: "ReLU"
  bottom: "inception_4d/5x5_reduce"
  top: "inception_4d/5x5_reduce"
}
layer {
  name: "inception_4d/5x5"
  type: "Convolution"
  bottom: "inception_4d/5x5_reduce"
  top: "inception_4d/5x5"
  param {
    lr_mult: 1
    decay_mult: 1
  }
  param {
    lr_mult: 2
    decay_mult: 0
  }
  convolution_param {
    num_output: 64
    pad: 2
    kernel_size: 5
    weight_filler {
      type: "xavier"
      std: 0.03
    }
    bias_filler {
      type: "constant"
      value: 0.2
    }
  }
}
layer {
  name: "inception_4d/relu_5x5"
  type: "ReLU"
  bottom: "inception_4d/5x5"
  top: "inception_4d/5x5"
}
layer {
  name: "inception_4d/pool"
  type: "Pooling"
  bottom: "inception_4c/output"
  top: "inception_4d/pool"
  pooling_param {
    pool: MAX
    kernel_size: 3
    stride: 1
    pad: 1
  }
}
layer {
  name: "inception_4d/pool_proj"
  type: "Convolution"
  bottom: "inception_4d/pool"
  top: "inception_4d/pool_proj"
  param {
    lr_mult: 1
    decay_mult: 1
  }
  param {
    lr_mult: 2
    decay_mult: 0
  }
  convolution_param {
    num_output: 64
    kernel_size: 1
    weight_filler {
      type: "xavier"
      std: 0.1
    }
    bias_filler {
      type: "constant"
      value: 0.2
    }
  }
}
layer {
  name: "inception_4d/relu_pool_proj"
  type: "ReLU"
  bottom: "inception_4d/pool_proj"
  top: "inception_4d/pool_proj"
}
layer {
  name: "inception_4d/output"
  type: "Concat"
  bottom: "inception_4d/1x1"
  bottom: "inception_4d/3x3"
  bottom: "inception_4d/5x5"
  bottom: "inception_4d/pool_proj"
  top: "inception_4d/output"
}
layer {
  name: "loss2/ave_pool"
  type: "Pooling"
  bottom: "inception_4d/output"
  top: "loss2/ave_pool"
  pooling_param {
    pool: AVE
    kernel_size: 5
    stride: 3
  }
}
layer {
  name: "loss2/conv"
  type: "Convolution"
  bottom: "loss2/ave_pool"
  top: "loss2/conv"
  param {
    lr_mult: 1
    decay_mult: 1
  }
  param {
    lr_mult: 2
    decay_mult: 0
  }
  convolution_param {
    num_output: 128
    kernel_size: 1
    weight_filler {
      type: "xavier"
      std: 0.08
    }
    bias_filler {
      type: "constant"
      value: 0.2
    }
  }
}
layer {
  name: "loss2/relu_conv"
  type: "ReLU"
  bottom: "loss2/conv"
  top: "loss2/conv"
}
layer {
  name: "loss2/fc"
  type: "InnerProduct"
  bottom: "loss2/conv"
  top: "loss2/fc"
  param {
    lr_mult: 1
    decay_mult: 1
  }
  param {
    lr_mult: 2
    decay_mult: 0
  }
  inner_product_param {
    num_output: 1024
    weight_filler {
      type: "xavier"
      std: 0.02
    }
    bias_filler {
      type: "constant"
      value: 0.2
    }
  }
}
layer {
  name: "loss2/relu_fc"
  type: "ReLU"
  bottom: "loss2/fc"
  top: "loss2/fc"
}
layer {
  name: "loss2/drop_fc"
  type: "Dropout"
  bottom: "loss2/fc"
  top: "loss2/fc"
  dropout_param {
    dropout_ratio: 0.7
  }
}
layer {
  name: "loss2/classifier_plantvillage"
  type: "InnerProduct"
  bottom: "loss2/fc"
  top: "loss2/classifier_plantvillage"
  param {
    lr_mult: 1
    decay_mult: 1
  }
  param {
    lr_mult: 2
    decay_mult: 0
  }
  inner_product_param {
    num_output: 38
    weight_filler {
      type: "xavier"
      std: 0.0009765625
    }
    bias_filler {
      type: "constant"
      value: 0
    }
  }
}
layer {
  name: "inception_4e/1x1"
  type: "Convolution"
  bottom: "inception_4d/output"
  top: "inception_4e/1x1"
  param {
    lr_mult: 1
    decay_mult: 1
  }
  param {
    lr_mult: 2
    decay_mult: 0
  }
  convolution_param {
    num_output: 256
    kernel_size: 1
    weight_filler {
      type: "xavier"
      std: 0.03
    }
    bias_filler {
      type: "constant"
      value: 0.2
    }
  }
}
layer {
  name: "inception_4e/relu_1x1"
  type: "ReLU"
  bottom: "inception_4e/1x1"
  top: "inception_4e/1x1"
}
layer {
  name: "inception_4e/3x3_reduce"
  type: "Convolution"
  bottom: "inception_4d/output"
  top: "inception_4e/3x3_reduce"
  param {
    lr_mult: 1
    decay_mult: 1
  }
  param {
    lr_mult: 2
    decay_mult: 0
  }
  convolution_param {
    num_output: 160
    kernel_size: 1
    weight_filler {
      type: "xavier"
      std: 0.09
    }
    bias_filler {
      type: "constant"
      value: 0.2
    }
  }
}
layer {
  name: "inception_4e/relu_3x3_reduce"
  type: "ReLU"
  bottom: "inception_4e/3x3_reduce"
  top: "inception_4e/3x3_reduce"
}
layer {
  name: "inception_4e/3x3"
  type: "Convolution"
  bottom: "inception_4e/3x3_reduce"
  top: "inception_4e/3x3"
  param {
    lr_mult: 1
    decay_mult: 1
  }
  param {
    lr_mult: 2
    decay_mult: 0
  }
  convolution_param {
    num_output: 320
    pad: 1
    kernel_size: 3
    weight_filler {
      type: "xavier"
      std: 0.03
    }
    bias_filler {
      type: "constant"
      value: 0.2
    }
  }
}
layer {
  name: "inception_4e/relu_3x3"
  type: "ReLU"
  bottom: "inception_4e/3x3"
  top: "inception_4e/3x3"
}
layer {
  name: "inception_4e/5x5_reduce"
  type: "Convolution"
  bottom: "inception_4d/output"
  top: "inception_4e/5x5_reduce"
  param {
    lr_mult: 1
    decay_mult: 1
  }
  param {
    lr_mult: 2
    decay_mult: 0
  }
  convolution_param {
    num_output: 32
    kernel_size: 1
    weight_filler {
      type: "xavier"
      std: 0.2
    }
    bias_filler {
      type: "constant"
      value: 0.2
    }
  }
}
layer {
  name: "inception_4e/relu_5x5_reduce"
  type: "ReLU"
  bottom: "inception_4e/5x5_reduce"
  top: "inception_4e/5x5_reduce"
}
layer {
  name: "inception_4e/5x5"
  type: "Convolution"
  bottom: "inception_4e/5x5_reduce"
  top: "inception_4e/5x5"
  p
I0403 15:57:00.223534 14879 layer_factory.hpp:77] Creating layer data
I0403 15:57:00.224153 14879 net.cpp:91] Creating Layer data
I0403 15:57:00.224187 14879 net.cpp:399] data -> data
I0403 15:57:00.224241 14879 net.cpp:399] data -> label
I0403 15:57:00.224282 14879 data_transformer.cpp:25] Loading mean file from: /home/mohanty/data/final_dataset/lmdb/color-80-20/mean.binaryproto
I0403 15:57:00.226368 14881 db_lmdb.cpp:38] Opened lmdb /home/mohanty/data/final_dataset/lmdb/color-80-20/test_db
I0403 15:57:00.237768 14879 data_layer.cpp:41] output data size: 24,3,224,224
I0403 15:57:00.266046 14879 net.cpp:141] Setting up data
I0403 15:57:00.266139 14879 net.cpp:148] Top shape: 24 3 224 224 (3612672)
I0403 15:57:00.266163 14879 net.cpp:148] Top shape: 24 (24)
I0403 15:57:00.266180 14879 net.cpp:156] Memory required for data: 14450784
I0403 15:57:00.266207 14879 layer_factory.hpp:77] Creating layer label_data_1_split
I0403 15:57:00.266235 14879 net.cpp:91] Creating Layer label_data_1_split
I0403 15:57:00.266254 14879 net.cpp:425] label_data_1_split <- label
I0403 15:57:00.266286 14879 net.cpp:399] label_data_1_split -> label_data_1_split_0
I0403 15:57:00.266316 14879 net.cpp:399] label_data_1_split -> label_data_1_split_1
I0403 15:57:00.266338 14879 net.cpp:399] label_data_1_split -> label_data_1_split_2
I0403 15:57:00.266360 14879 net.cpp:399] label_data_1_split -> label_data_1_split_3
I0403 15:57:00.266379 14879 net.cpp:399] label_data_1_split -> label_data_1_split_4
I0403 15:57:00.266402 14879 net.cpp:399] label_data_1_split -> label_data_1_split_5
I0403 15:57:00.266420 14879 net.cpp:399] label_data_1_split -> label_data_1_split_6
I0403 15:57:00.266440 14879 net.cpp:399] label_data_1_split -> label_data_1_split_7
I0403 15:57:00.266461 14879 net.cpp:399] label_data_1_split -> label_data_1_split_8
I0403 15:57:00.266482 14879 net.cpp:399] label_data_1_split -> label_data_1_split_9
I0403 15:57:00.266604 14879 net.cpp:141] Setting up label_data_1_split
I0403 15:57:00.266629 14879 net.cpp:148] Top shape: 24 (24)
I0403 15:57:00.266646 14879 net.cpp:148] Top shape: 24 (24)
I0403 15:57:00.266662 14879 net.cpp:148] Top shape: 24 (24)
I0403 15:57:00.266679 14879 net.cpp:148] Top shape: 24 (24)
I0403 15:57:00.266693 14879 net.cpp:148] Top shape: 24 (24)
I0403 15:57:00.266710 14879 net.cpp:148] Top shape: 24 (24)
I0403 15:57:00.266726 14879 net.cpp:148] Top shape: 24 (24)
I0403 15:57:00.266741 14879 net.cpp:148] Top shape: 24 (24)
I0403 15:57:00.266757 14879 net.cpp:148] Top shape: 24 (24)
I0403 15:57:00.266772 14879 net.cpp:148] Top shape: 24 (24)
I0403 15:57:00.266820 14879 net.cpp:156] Memory required for data: 14451744
I0403 15:57:00.266837 14879 layer_factory.hpp:77] Creating layer conv1/7x7_s2
I0403 15:57:00.266870 14879 net.cpp:91] Creating Layer conv1/7x7_s2
I0403 15:57:00.266890 14879 net.cpp:425] conv1/7x7_s2 <- data
I0403 15:57:00.266909 14879 net.cpp:399] conv1/7x7_s2 -> conv1/7x7_s2
I0403 15:57:00.408988 14879 net.cpp:141] Setting up conv1/7x7_s2
I0403 15:57:00.409080 14879 net.cpp:148] Top shape: 24 64 112 112 (19267584)
I0403 15:57:00.409098 14879 net.cpp:156] Memory required for data: 91522080
I0403 15:57:00.409134 14879 layer_factory.hpp:77] Creating layer conv1/relu_7x7
I0403 15:57:00.409164 14879 net.cpp:91] Creating Layer conv1/relu_7x7
I0403 15:57:00.409186 14879 net.cpp:425] conv1/relu_7x7 <- conv1/7x7_s2
I0403 15:57:00.409206 14879 net.cpp:386] conv1/relu_7x7 -> conv1/7x7_s2 (in-place)
I0403 15:57:00.409474 14879 net.cpp:141] Setting up conv1/relu_7x7
I0403 15:57:00.409503 14879 net.cpp:148] Top shape: 24 64 112 112 (19267584)
I0403 15:57:00.409519 14879 net.cpp:156] Memory required for data: 168592416
I0403 15:57:00.409534 14879 layer_factory.hpp:77] Creating layer pool1/3x3_s2
I0403 15:57:00.409561 14879 net.cpp:91] Creating Layer pool1/3x3_s2
I0403 15:57:00.409580 14879 net.cpp:425] pool1/3x3_s2 <- conv1/7x7_s2
I0403 15:57:00.409600 14879 net.cpp:399] pool1/3x3_s2 -> pool1/3x3_s2
I0403 15:57:00.409675 14879 net.cpp:141] Setting up pool1/3x3_s2
I0403 15:57:00.409701 14879 net.cpp:148] Top shape: 24 64 56 56 (4816896)
I0403 15:57:00.409716 14879 net.cpp:156] Memory required for data: 187860000
I0403 15:57:00.409732 14879 layer_factory.hpp:77] Creating layer pool1/norm1
I0403 15:57:00.409759 14879 net.cpp:91] Creating Layer pool1/norm1
I0403 15:57:00.409776 14879 net.cpp:425] pool1/norm1 <- pool1/3x3_s2
I0403 15:57:00.409795 14879 net.cpp:399] pool1/norm1 -> pool1/norm1
I0403 15:57:00.410094 14879 net.cpp:141] Setting up pool1/norm1
I0403 15:57:00.410122 14879 net.cpp:148] Top shape: 24 64 56 56 (4816896)
I0403 15:57:00.410150 14879 net.cpp:156] Memory required for data: 207127584
I0403 15:57:00.410166 14879 layer_factory.hpp:77] Creating layer conv2/3x3_reduce
I0403 15:57:00.410202 14879 net.cpp:91] Creating Layer conv2/3x3_reduce
I0403 15:57:00.410218 14879 net.cpp:425] conv2/3x3_reduce <- pool1/norm1
I0403 15:57:00.410238 14879 net.cpp:399] conv2/3x3_reduce -> conv2/3x3_reduce
I0403 15:57:00.411628 14879 net.cpp:141] Setting up conv2/3x3_reduce
I0403 15:57:00.411660 14879 net.cpp:148] Top shape: 24 64 56 56 (4816896)
I0403 15:57:00.411677 14879 net.cpp:156] Memory required for data: 226395168
I0403 15:57:00.411700 14879 layer_factory.hpp:77] Creating layer conv2/relu_3x3_reduce
I0403 15:57:00.411720 14879 net.cpp:91] Creating Layer conv2/relu_3x3_reduce
I0403 15:57:00.411737 14879 net.cpp:425] conv2/relu_3x3_reduce <- conv2/3x3_reduce
I0403 15:57:00.411756 14879 net.cpp:386] conv2/relu_3x3_reduce -> conv2/3x3_reduce (in-place)
I0403 15:57:00.412016 14879 net.cpp:141] Setting up conv2/relu_3x3_reduce
I0403 15:57:00.412045 14879 net.cpp:148] Top shape: 24 64 56 56 (4816896)
I0403 15:57:00.412065 14879 net.cpp:156] Memory required for data: 245662752
I0403 15:57:00.412082 14879 layer_factory.hpp:77] Creating layer conv2/3x3
I0403 15:57:00.412106 14879 net.cpp:91] Creating Layer conv2/3x3
I0403 15:57:00.412123 14879 net.cpp:425] conv2/3x3 <- conv2/3x3_reduce
I0403 15:57:00.412149 14879 net.cpp:399] conv2/3x3 -> conv2/3x3
I0403 15:57:00.414469 14879 net.cpp:141] Setting up conv2/3x3
I0403 15:57:00.414500 14879 net.cpp:148] Top shape: 24 192 56 56 (14450688)
I0403 15:57:00.414518 14879 net.cpp:156] Memory required for data: 303465504
I0403 15:57:00.414542 14879 layer_factory.hpp:77] Creating layer conv2/relu_3x3
I0403 15:57:00.414564 14879 net.cpp:91] Creating Layer conv2/relu_3x3
I0403 15:57:00.414583 14879 net.cpp:425] conv2/relu_3x3 <- conv2/3x3
I0403 15:57:00.414605 14879 net.cpp:386] conv2/relu_3x3 -> conv2/3x3 (in-place)
I0403 15:57:00.414775 14879 net.cpp:141] Setting up conv2/relu_3x3
I0403 15:57:00.414803 14879 net.cpp:148] Top shape: 24 192 56 56 (14450688)
I0403 15:57:00.414852 14879 net.cpp:156] Memory required for data: 361268256
I0403 15:57:00.414870 14879 layer_factory.hpp:77] Creating layer conv2/norm2
I0403 15:57:00.414888 14879 net.cpp:91] Creating Layer conv2/norm2
I0403 15:57:00.414904 14879 net.cpp:425] conv2/norm2 <- conv2/3x3
I0403 15:57:00.414922 14879 net.cpp:399] conv2/norm2 -> conv2/norm2
I0403 15:57:00.415223 14879 net.cpp:141] Setting up conv2/norm2
I0403 15:57:00.415252 14879 net.cpp:148] Top shape: 24 192 56 56 (14450688)
I0403 15:57:00.415268 14879 net.cpp:156] Memory required for data: 419071008
I0403 15:57:00.415283 14879 layer_factory.hpp:77] Creating layer pool2/3x3_s2
I0403 15:57:00.415302 14879 net.cpp:91] Creating Layer pool2/3x3_s2
I0403 15:57:00.415319 14879 net.cpp:425] pool2/3x3_s2 <- conv2/norm2
I0403 15:57:00.415338 14879 net.cpp:399] pool2/3x3_s2 -> pool2/3x3_s2
I0403 15:57:00.415390 14879 net.cpp:141] Setting up pool2/3x3_s2
I0403 15:57:00.415415 14879 net.cpp:148] Top shape: 24 192 28 28 (3612672)
I0403 15:57:00.415431 14879 net.cpp:156] Memory required for data: 433521696
I0403 15:57:00.415446 14879 layer_factory.hpp:77] Creating layer pool2/3x3_s2_pool2/3x3_s2_0_split
I0403 15:57:00.415465 14879 net.cpp:91] Creating Layer pool2/3x3_s2_pool2/3x3_s2_0_split
I0403 15:57:00.415480 14879 net.cpp:425] pool2/3x3_s2_pool2/3x3_s2_0_split <- pool2/3x3_s2
I0403 15:57:00.415498 14879 net.cpp:399] pool2/3x3_s2_pool2/3x3_s2_0_split -> pool2/3x3_s2_pool2/3x3_s2_0_split_0
I0403 15:57:00.415518 14879 net.cpp:399] pool2/3x3_s2_pool2/3x3_s2_0_split -> pool2/3x3_s2_pool2/3x3_s2_0_split_1
I0403 15:57:00.415539 14879 net.cpp:399] pool2/3x3_s2_pool2/3x3_s2_0_split -> pool2/3x3_s2_pool2/3x3_s2_0_split_2
I0403 15:57:00.415560 14879 net.cpp:399] pool2/3x3_s2_pool2/3x3_s2_0_split -> pool2/3x3_s2_pool2/3x3_s2_0_split_3
I0403 15:57:00.415626 14879 net.cpp:141] Setting up pool2/3x3_s2_pool2/3x3_s2_0_split
I0403 15:57:00.415652 14879 net.cpp:148] Top shape: 24 192 28 28 (3612672)
I0403 15:57:00.415671 14879 net.cpp:148] Top shape: 24 192 28 28 (3612672)
I0403 15:57:00.415686 14879 net.cpp:148] Top shape: 24 192 28 28 (3612672)
I0403 15:57:00.415702 14879 net.cpp:148] Top shape: 24 192 28 28 (3612672)
I0403 15:57:00.415716 14879 net.cpp:156] Memory required for data: 491324448
I0403 15:57:00.415731 14879 layer_factory.hpp:77] Creating layer inception_3a/1x1
I0403 15:57:00.415753 14879 net.cpp:91] Creating Layer inception_3a/1x1
I0403 15:57:00.415771 14879 net.cpp:425] inception_3a/1x1 <- pool2/3x3_s2_pool2/3x3_s2_0_split_0
I0403 15:57:00.415789 14879 net.cpp:399] inception_3a/1x1 -> inception_3a/1x1
I0403 15:57:00.417335 14879 net.cpp:141] Setting up inception_3a/1x1
I0403 15:57:00.417367 14879 net.cpp:148] Top shape: 24 64 28 28 (1204224)
I0403 15:57:00.417384 14879 net.cpp:156] Memory required for data: 496141344
I0403 15:57:00.417404 14879 layer_factory.hpp:77] Creating layer inception_3a/relu_1x1
I0403 15:57:00.417424 14879 net.cpp:91] Creating Layer inception_3a/relu_1x1
I0403 15:57:00.417441 14879 net.cpp:425] inception_3a/relu_1x1 <- inception_3a/1x1
I0403 15:57:00.417460 14879 net.cpp:386] inception_3a/relu_1x1 -> inception_3a/1x1 (in-place)
I0403 15:57:00.417649 14879 net.cpp:141] Setting up inception_3a/relu_1x1
I0403 15:57:00.417675 14879 net.cpp:148] Top shape: 24 64 28 28 (1204224)
I0403 15:57:00.417691 14879 net.cpp:156] Memory required for data: 500958240
I0403 15:57:00.417707 14879 layer_factory.hpp:77] Creating layer inception_3a/3x3_reduce
I0403 15:57:00.417732 14879 net.cpp:91] Creating Layer inception_3a/3x3_reduce
I0403 15:57:00.417752 14879 net.cpp:425] inception_3a/3x3_reduce <- pool2/3x3_s2_pool2/3x3_s2_0_split_1
I0403 15:57:00.417771 14879 net.cpp:399] inception_3a/3x3_reduce -> inception_3a/3x3_reduce
I0403 15:57:00.419541 14879 net.cpp:141] Setting up inception_3a/3x3_reduce
I0403 15:57:00.419574 14879 net.cpp:148] Top shape: 24 96 28 28 (1806336)
I0403 15:57:00.419590 14879 net.cpp:156] Memory required for data: 508183584
I0403 15:57:00.419616 14879 layer_factory.hpp:77] Creating layer inception_3a/relu_3x3_reduce
I0403 15:57:00.419654 14879 net.cpp:91] Creating Layer inception_3a/relu_3x3_reduce
I0403 15:57:00.419674 14879 net.cpp:425] inception_3a/relu_3x3_reduce <- inception_3a/3x3_reduce
I0403 15:57:00.419697 14879 net.cpp:386] inception_3a/relu_3x3_reduce -> inception_3a/3x3_reduce (in-place)
I0403 15:57:00.419890 14879 net.cpp:141] Setting up inception_3a/relu_3x3_reduce
I0403 15:57:00.419917 14879 net.cpp:148] Top shape: 24 96 28 28 (1806336)
I0403 15:57:00.419932 14879 net.cpp:156] Memory required for data: 515408928
I0403 15:57:00.419948 14879 layer_factory.hpp:77] Creating layer inception_3a/3x3
I0403 15:57:00.419972 14879 net.cpp:91] Creating Layer inception_3a/3x3
I0403 15:57:00.419991 14879 net.cpp:425] inception_3a/3x3 <- inception_3a/3x3_reduce
I0403 15:57:00.420013 14879 net.cpp:399] inception_3a/3x3 -> inception_3a/3x3
I0403 15:57:00.421766 14879 net.cpp:141] Setting up inception_3a/3x3
I0403 15:57:00.421797 14879 net.cpp:148] Top shape: 24 128 28 28 (2408448)
I0403 15:57:00.421813 14879 net.cpp:156] Memory required for data: 525042720
I0403 15:57:00.421831 14879 layer_factory.hpp:77] Creating layer inception_3a/relu_3x3
I0403 15:57:00.421854 14879 net.cpp:91] Creating Layer inception_3a/relu_3x3
I0403 15:57:00.421872 14879 net.cpp:425] inception_3a/relu_3x3 <- inception_3a/3x3
I0403 15:57:00.421891 14879 net.cpp:386] inception_3a/relu_3x3 -> inception_3a/3x3 (in-place)
I0403 15:57:00.422197 14879 net.cpp:141] Setting up inception_3a/relu_3x3
I0403 15:57:00.422226 14879 net.cpp:148] Top shape: 24 128 28 28 (2408448)
I0403 15:57:00.422242 14879 net.cpp:156] Memory required for data: 534676512
I0403 15:57:00.422258 14879 layer_factory.hpp:77] Creating layer inception_3a/5x5_reduce
I0403 15:57:00.422284 14879 net.cpp:91] Creating Layer inception_3a/5x5_reduce
I0403 15:57:00.422304 14879 net.cpp:425] inception_3a/5x5_reduce <- pool2/3x3_s2_pool2/3x3_s2_0_split_2
I0403 15:57:00.422324 14879 net.cpp:399] inception_3a/5x5_reduce -> inception_3a/5x5_reduce
I0403 15:57:00.423347 14879 net.cpp:141] Setting up inception_3a/5x5_reduce
I0403 15:57:00.423380 14879 net.cpp:148] Top shape: 24 16 28 28 (301056)
I0403 15:57:00.423398 14879 net.cpp:156] Memory required for data: 535880736
I0403 15:57:00.423418 14879 layer_factory.hpp:77] Creating layer inception_3a/relu_5x5_reduce
I0403 15:57:00.423437 14879 net.cpp:91] Creating Layer inception_3a/relu_5x5_reduce
I0403 15:57:00.423454 14879 net.cpp:425] inception_3a/relu_5x5_reduce <- inception_3a/5x5_reduce
I0403 15:57:00.423477 14879 net.cpp:386] inception_3a/relu_5x5_reduce -> inception_3a/5x5_reduce (in-place)
I0403 15:57:00.423784 14879 net.cpp:141] Setting up inception_3a/relu_5x5_reduce
I0403 15:57:00.423813 14879 net.cpp:148] Top shape: 24 16 28 28 (301056)
I0403 15:57:00.423830 14879 net.cpp:156] Memory required for data: 537084960
I0403 15:57:00.423846 14879 layer_factory.hpp:77] Creating layer inception_3a/5x5
I0403 15:57:00.423868 14879 net.cpp:91] Creating Layer inception_3a/5x5
I0403 15:57:00.423888 14879 net.cpp:425] inception_3a/5x5 <- inception_3a/5x5_reduce
I0403 15:57:00.423912 14879 net.cpp:399] inception_3a/5x5 -> inception_3a/5x5
I0403 15:57:00.424979 14879 net.cpp:141] Setting up inception_3a/5x5
I0403 15:57:00.425009 14879 net.cpp:148] Top shape: 24 32 28 28 (602112)
I0403 15:57:00.425026 14879 net.cpp:156] Memory required for data: 539493408
I0403 15:57:00.425045 14879 layer_factory.hpp:77] Creating layer inception_3a/relu_5x5
I0403 15:57:00.425066 14879 net.cpp:91] Creating Layer inception_3a/relu_5x5
I0403 15:57:00.425083 14879 net.cpp:425] inception_3a/relu_5x5 <- inception_3a/5x5
I0403 15:57:00.425102 14879 net.cpp:386] inception_3a/relu_5x5 -> inception_3a/5x5 (in-place)
I0403 15:57:00.425287 14879 net.cpp:141] Setting up inception_3a/relu_5x5
I0403 15:57:00.425317 14879 net.cpp:148] Top shape: 24 32 28 28 (602112)
I0403 15:57:00.425333 14879 net.cpp:156] Memory required for data: 541901856
I0403 15:57:00.425348 14879 layer_factory.hpp:77] Creating layer inception_3a/pool
I0403 15:57:00.425367 14879 net.cpp:91] Creating Layer inception_3a/pool
I0403 15:57:00.425384 14879 net.cpp:425] inception_3a/pool <- pool2/3x3_s2_pool2/3x3_s2_0_split_3
I0403 15:57:00.425422 14879 net.cpp:399] inception_3a/pool -> inception_3a/pool
I0403 15:57:00.425485 14879 net.cpp:141] Setting up inception_3a/pool
I0403 15:57:00.425510 14879 net.cpp:148] Top shape: 24 192 28 28 (3612672)
I0403 15:57:00.425525 14879 net.cpp:156] Memory required for data: 556352544
I0403 15:57:00.425540 14879 layer_factory.hpp:77] Creating layer inception_3a/pool_proj
I0403 15:57:00.425567 14879 net.cpp:91] Creating Layer inception_3a/pool_proj
I0403 15:57:00.425586 14879 net.cpp:425] inception_3a/pool_proj <- inception_3a/pool
I0403 15:57:00.425606 14879 net.cpp:399] inception_3a/pool_proj -> inception_3a/pool_proj
I0403 15:57:00.426625 14879 net.cpp:141] Setting up inception_3a/pool_proj
I0403 15:57:00.426654 14879 net.cpp:148] Top shape: 24 32 28 28 (602112)
I0403 15:57:00.426671 14879 net.cpp:156] Memory required for data: 558760992
I0403 15:57:00.426697 14879 layer_factory.hpp:77] Creating layer inception_3a/relu_pool_proj
I0403 15:57:00.426719 14879 net.cpp:91] Creating Layer inception_3a/relu_pool_proj
I0403 15:57:00.426736 14879 net.cpp:425] inception_3a/relu_pool_proj <- inception_3a/pool_proj
I0403 15:57:00.426758 14879 net.cpp:386] inception_3a/relu_pool_proj -> inception_3a/pool_proj (in-place)
I0403 15:57:00.427047 14879 net.cpp:141] Setting up inception_3a/relu_pool_proj
I0403 15:57:00.427076 14879 net.cpp:148] Top shape: 24 32 28 28 (602112)
I0403 15:57:00.427091 14879 net.cpp:156] Memory required for data: 561169440
I0403 15:57:00.427108 14879 layer_factory.hpp:77] Creating layer inception_3a/output
I0403 15:57:00.427134 14879 net.cpp:91] Creating Layer inception_3a/output
I0403 15:57:00.427153 14879 net.cpp:425] inception_3a/output <- inception_3a/1x1
I0403 15:57:00.427170 14879 net.cpp:425] inception_3a/output <- inception_3a/3x3
I0403 15:57:00.427188 14879 net.cpp:425] inception_3a/output <- inception_3a/5x5
I0403 15:57:00.427204 14879 net.cpp:425] inception_3a/output <- inception_3a/pool_proj
I0403 15:57:00.427222 14879 net.cpp:399] inception_3a/output -> inception_3a/output
I0403 15:57:00.427273 14879 net.cpp:141] Setting up inception_3a/output
I0403 15:57:00.427297 14879 net.cpp:148] Top shape: 24 256 28 28 (4816896)
I0403 15:57:00.427314 14879 net.cpp:156] Memory required for data: 580437024
I0403 15:57:00.427328 14879 layer_factory.hpp:77] Creating layer inception_3a/output_inception_3a/output_0_split
I0403 15:57:00.427346 14879 net.cpp:91] Creating Layer inception_3a/output_inception_3a/output_0_split
I0403 15:57:00.427362 14879 net.cpp:425] inception_3a/output_inception_3a/output_0_split <- inception_3a/output
I0403 15:57:00.427382 14879 net.cpp:399] inception_3a/output_inception_3a/output_0_split -> inception_3a/output_inception_3a/output_0_split_0
I0403 15:57:00.427405 14879 net.cpp:399] inception_3a/output_inception_3a/output_0_split -> inception_3a/output_inception_3a/output_0_split_1
I0403 15:57:00.427430 14879 net.cpp:399] inception_3a/output_inception_3a/output_0_split -> inception_3a/output_inception_3a/output_0_split_2
I0403 15:57:00.427454 14879 net.cpp:399] inception_3a/output_inception_3a/output_0_split -> inception_3a/output_inception_3a/output_0_split_3
I0403 15:57:00.427531 14879 net.cpp:141] Setting up inception_3a/output_inception_3a/output_0_split
I0403 15:57:00.427556 14879 net.cpp:148] Top shape: 24 256 28 28 (4816896)
I0403 15:57:00.427578 14879 net.cpp:148] Top shape: 24 256 28 28 (4816896)
I0403 15:57:00.427602 14879 net.cpp:148] Top shape: 24 256 28 28 (4816896)
I0403 15:57:00.427618 14879 net.cpp:148] Top shape: 24 256 28 28 (4816896)
I0403 15:57:00.427634 14879 net.cpp:156] Memory required for data: 657507360
I0403 15:57:00.427651 14879 layer_factory.hpp:77] Creating layer inception_3b/1x1
I0403 15:57:00.427672 14879 net.cpp:91] Creating Layer inception_3b/1x1
I0403 15:57:00.427690 14879 net.cpp:425] inception_3b/1x1 <- inception_3a/output_inception_3a/output_0_split_0
I0403 15:57:00.427713 14879 net.cpp:399] inception_3b/1x1 -> inception_3b/1x1
I0403 15:57:00.428913 14879 net.cpp:141] Setting up inception_3b/1x1
I0403 15:57:00.428956 14879 net.cpp:148] Top shape: 24 128 28 28 (2408448)
I0403 15:57:00.428973 14879 net.cpp:156] Memory required for data: 667141152
I0403 15:57:00.428993 14879 layer_factory.hpp:77] Creating layer inception_3b/relu_1x1
I0403 15:57:00.429016 14879 net.cpp:91] Creating Layer inception_3b/relu_1x1
I0403 15:57:00.429035 14879 net.cpp:425] inception_3b/relu_1x1 <- inception_3b/1x1
I0403 15:57:00.429054 14879 net.cpp:386] inception_3b/relu_1x1 -> inception_3b/1x1 (in-place)
I0403 15:57:00.429247 14879 net.cpp:141] Setting up inception_3b/relu_1x1
I0403 15:57:00.429275 14879 net.cpp:148] Top shape: 24 128 28 28 (2408448)
I0403 15:57:00.429289 14879 net.cpp:156] Memory required for data: 676774944
I0403 15:57:00.429306 14879 layer_factory.hpp:77] Creating layer inception_3b/3x3_reduce
I0403 15:57:00.429330 14879 net.cpp:91] Creating Layer inception_3b/3x3_reduce
I0403 15:57:00.429350 14879 net.cpp:425] inception_3b/3x3_reduce <- inception_3a/output_inception_3a/output_0_split_1
I0403 15:57:00.429370 14879 net.cpp:399] inception_3b/3x3_reduce -> inception_3b/3x3_reduce
I0403 15:57:00.430579 14879 net.cpp:141] Setting up inception_3b/3x3_reduce
I0403 15:57:00.430609 14879 net.cpp:148] Top shape: 24 128 28 28 (2408448)
I0403 15:57:00.430625 14879 net.cpp:156] Memory required for data: 686408736
I0403 15:57:00.430645 14879 layer_factory.hpp:77] Creating layer inception_3b/relu_3x3_reduce
I0403 15:57:00.430667 14879 net.cpp:91] Creating Layer inception_3b/relu_3x3_reduce
I0403 15:57:00.430687 14879 net.cpp:425] inception_3b/relu_3x3_reduce <- inception_3b/3x3_reduce
I0403 15:57:00.430706 14879 net.cpp:386] inception_3b/relu_3x3_reduce -> inception_3b/3x3_reduce (in-place)
I0403 15:57:00.430891 14879 net.cpp:141] Setting up inception_3b/relu_3x3_reduce
I0403 15:57:00.430919 14879 net.cpp:148] Top shape: 24 128 28 28 (2408448)
I0403 15:57:00.430937 14879 net.cpp:156] Memory required for data: 696042528
I0403 15:57:00.430953 14879 layer_factory.hpp:77] Creating layer inception_3b/3x3
I0403 15:57:00.430977 14879 net.cpp:91] Creating Layer inception_3b/3x3
I0403 15:57:00.430997 14879 net.cpp:425] inception_3b/3x3 <- inception_3b/3x3_reduce
I0403 15:57:00.431021 14879 net.cpp:399] inception_3b/3x3 -> inception_3b/3x3
I0403 15:57:00.434099 14879 net.cpp:141] Setting up inception_3b/3x3
I0403 15:57:00.434135 14879 net.cpp:148] Top shape: 24 192 28 28 (3612672)
I0403 15:57:00.434155 14879 net.cpp:156] Memory required for data: 710493216
I0403 15:57:00.434175 14879 layer_factory.hpp:77] Creating layer inception_3b/relu_3x3
I0403 15:57:00.434198 14879 net.cpp:91] Creating Layer inception_3b/relu_3x3
I0403 15:57:00.434216 14879 net.cpp:425] inception_3b/relu_3x3 <- inception_3b/3x3
I0403 15:57:00.434234 14879 net.cpp:386] inception_3b/relu_3x3 -> inception_3b/3x3 (in-place)
I0403 15:57:00.434532 14879 net.cpp:141] Setting up inception_3b/relu_3x3
I0403 15:57:00.434561 14879 net.cpp:148] Top shape: 24 192 28 28 (3612672)
I0403 15:57:00.434577 14879 net.cpp:156] Memory required for data: 724943904
I0403 15:57:00.434593 14879 layer_factory.hpp:77] Creating layer inception_3b/5x5_reduce
I0403 15:57:00.434619 14879 net.cpp:91] Creating Layer inception_3b/5x5_reduce
I0403 15:57:00.434638 14879 net.cpp:425] inception_3b/5x5_reduce <- inception_3a/output_inception_3a/output_0_split_2
I0403 15:57:00.434659 14879 net.cpp:399] inception_3b/5x5_reduce -> inception_3b/5x5_reduce
I0403 15:57:00.435703 14879 net.cpp:141] Setting up inception_3b/5x5_reduce
I0403 15:57:00.435732 14879 net.cpp:148] Top shape: 24 32 28 28 (602112)
I0403 15:57:00.435748 14879 net.cpp:156] Memory required for data: 727352352
I0403 15:57:00.435767 14879 layer_factory.hpp:77] Creating layer inception_3b/relu_5x5_reduce
I0403 15:57:00.435789 14879 net.cpp:91] Creating Layer inception_3b/relu_5x5_reduce
I0403 15:57:00.435807 14879 net.cpp:425] inception_3b/relu_5x5_reduce <- inception_3b/5x5_reduce
I0403 15:57:00.435827 14879 net.cpp:386] inception_3b/relu_5x5_reduce -> inception_3b/5x5_reduce (in-place)
I0403 15:57:00.436017 14879 net.cpp:141] Setting up inception_3b/relu_5x5_reduce
I0403 15:57:00.436056 14879 net.cpp:148] Top shape: 24 32 28 28 (602112)
I0403 15:57:00.436074 14879 net.cpp:156] Memory required for data: 729760800
I0403 15:57:00.436089 14879 layer_factory.hpp:77] Creating layer inception_3b/5x5
I0403 15:57:00.436113 14879 net.cpp:91] Creating Layer inception_3b/5x5
I0403 15:57:00.436136 14879 net.cpp:425] inception_3b/5x5 <- inception_3b/5x5_reduce
I0403 15:57:00.436161 14879 net.cpp:399] inception_3b/5x5 -> inception_3b/5x5
I0403 15:57:00.438225 14879 net.cpp:141] Setting up inception_3b/5x5
I0403 15:57:00.438256 14879 net.cpp:148] Top shape: 24 96 28 28 (1806336)
I0403 15:57:00.438273 14879 net.cpp:156] Memory required for data: 736986144
I0403 15:57:00.438293 14879 layer_factory.hpp:77] Creating layer inception_3b/relu_5x5
I0403 15:57:00.438314 14879 net.cpp:91] Creating Layer inception_3b/relu_5x5
I0403 15:57:00.438331 14879 net.cpp:425] inception_3b/relu_5x5 <- inception_3b/5x5
I0403 15:57:00.438350 14879 net.cpp:386] inception_3b/relu_5x5 -> inception_3b/5x5 (in-place)
I0403 15:57:00.438555 14879 net.cpp:141] Setting up inception_3b/relu_5x5
I0403 15:57:00.438582 14879 net.cpp:148] Top shape: 24 96 28 28 (1806336)
I0403 15:57:00.438598 14879 net.cpp:156] Memory required for data: 744211488
I0403 15:57:00.438612 14879 layer_factory.hpp:77] Creating layer inception_3b/pool
I0403 15:57:00.438632 14879 net.cpp:91] Creating Layer inception_3b/pool
I0403 15:57:00.438648 14879 net.cpp:425] inception_3b/pool <- inception_3a/output_inception_3a/output_0_split_3
I0403 15:57:00.438668 14879 net.cpp:399] inception_3b/pool -> inception_3b/pool
I0403 15:57:00.438726 14879 net.cpp:141] Setting up inception_3b/pool
I0403 15:57:00.438751 14879 net.cpp:148] Top shape: 24 256 28 28 (4816896)
I0403 15:57:00.438766 14879 net.cpp:156] Memory required for data: 763479072
I0403 15:57:00.438781 14879 layer_factory.hpp:77] Creating layer inception_3b/pool_proj
I0403 15:57:00.438804 14879 net.cpp:91] Creating Layer inception_3b/pool_proj
I0403 15:57:00.438823 14879 net.cpp:425] inception_3b/pool_proj <- inception_3b/pool
I0403 15:57:00.438846 14879 net.cpp:399] inception_3b/pool_proj -> inception_3b/pool_proj
I0403 15:57:00.439959 14879 net.cpp:141] Setting up inception_3b/pool_proj
I0403 15:57:00.439988 14879 net.cpp:148] Top shape: 24 64 28 28 (1204224)
I0403 15:57:00.440006 14879 net.cpp:156] Memory required for data: 768295968
I0403 15:57:00.440026 14879 layer_factory.hpp:77] Creating layer inception_3b/relu_pool_proj
I0403 15:57:00.440049 14879 net.cpp:91] Creating Layer inception_3b/relu_pool_proj
I0403 15:57:00.440067 14879 net.cpp:425] inception_3b/relu_pool_proj <- inception_3b/pool_proj
I0403 15:57:00.440088 14879 net.cpp:386] inception_3b/relu_pool_proj -> inception_3b/pool_proj (in-place)
I0403 15:57:00.440495 14879 net.cpp:141] Setting up inception_3b/relu_pool_proj
I0403 15:57:00.440526 14879 net.cpp:148] Top shape: 24 64 28 28 (1204224)
I0403 15:57:00.440543 14879 net.cpp:156] Memory required for data: 773112864
I0403 15:57:00.440562 14879 layer_factory.hpp:77] Creating layer inception_3b/output
I0403 15:57:00.440583 14879 net.cpp:91] Creating Layer inception_3b/output
I0403 15:57:00.440601 14879 net.cpp:425] inception_3b/output <- inception_3b/1x1
I0403 15:57:00.440618 14879 net.cpp:425] inception_3b/output <- inception_3b/3x3
I0403 15:57:00.440636 14879 net.cpp:425] inception_3b/output <- inception_3b/5x5
I0403 15:57:00.440654 14879 net.cpp:425] inception_3b/output <- inception_3b/pool_proj
I0403 15:57:00.440675 14879 net.cpp:399] inception_3b/output -> inception_3b/output
I0403 15:57:00.440721 14879 net.cpp:141] Setting up inception_3b/output
I0403 15:57:00.440747 14879 net.cpp:148] Top shape: 24 480 28 28 (9031680)
I0403 15:57:00.440762 14879 net.cpp:156] Memory required for data: 809239584
I0403 15:57:00.440778 14879 layer_factory.hpp:77] Creating layer pool3/3x3_s2
I0403 15:57:00.440799 14879 net.cpp:91] Creating Layer pool3/3x3_s2
I0403 15:57:00.440817 14879 net.cpp:425] pool3/3x3_s2 <- inception_3b/output
I0403 15:57:00.440835 14879 net.cpp:399] pool3/3x3_s2 -> pool3/3x3_s2
I0403 15:57:00.440914 14879 net.cpp:141] Setting up pool3/3x3_s2
I0403 15:57:00.440940 14879 net.cpp:148] Top shape: 24 480 14 14 (2257920)
I0403 15:57:00.440955 14879 net.cpp:156] Memory required for data: 818271264
I0403 15:57:00.440971 14879 layer_factory.hpp:77] Creating layer pool3/3x3_s2_pool3/3x3_s2_0_split
I0403 15:57:00.440989 14879 net.cpp:91] Creating Layer pool3/3x3_s2_pool3/3x3_s2_0_split
I0403 15:57:00.441004 14879 net.cpp:425] pool3/3x3_s2_pool3/3x3_s2_0_split <- pool3/3x3_s2
I0403 15:57:00.441023 14879 net.cpp:399] pool3/3x3_s2_pool3/3x3_s2_0_split -> pool3/3x3_s2_pool3/3x3_s2_0_split_0
I0403 15:57:00.441051 14879 net.cpp:399] pool3/3x3_s2_pool3/3x3_s2_0_split -> pool3/3x3_s2_pool3/3x3_s2_0_split_1
I0403 15:57:00.441071 14879 net.cpp:399] pool3/3x3_s2_pool3/3x3_s2_0_split -> pool3/3x3_s2_pool3/3x3_s2_0_split_2
I0403 15:57:00.441092 14879 net.cpp:399] pool3/3x3_s2_pool3/3x3_s2_0_split -> pool3/3x3_s2_pool3/3x3_s2_0_split_3
I0403 15:57:00.441190 14879 net.cpp:141] Setting up pool3/3x3_s2_pool3/3x3_s2_0_split
I0403 15:57:00.441217 14879 net.cpp:148] Top shape: 24 480 14 14 (2257920)
I0403 15:57:00.441234 14879 net.cpp:148] Top shape: 24 480 14 14 (2257920)
I0403 15:57:00.441251 14879 net.cpp:148] Top shape: 24 480 14 14 (2257920)
I0403 15:57:00.441267 14879 net.cpp:148] Top shape: 24 480 14 14 (2257920)
I0403 15:57:00.441282 14879 net.cpp:156] Memory required for data: 854397984
I0403 15:57:00.441296 14879 layer_factory.hpp:77] Creating layer inception_4a/1x1
I0403 15:57:00.441320 14879 net.cpp:91] Creating Layer inception_4a/1x1
I0403 15:57:00.441339 14879 net.cpp:425] inception_4a/1x1 <- pool3/3x3_s2_pool3/3x3_s2_0_split_0
I0403 15:57:00.441365 14879 net.cpp:399] inception_4a/1x1 -> inception_4a/1x1
I0403 15:57:00.443022 14879 net.cpp:141] Setting up inception_4a/1x1
I0403 15:57:00.443053 14879 net.cpp:148] Top shape: 24 192 14 14 (903168)
I0403 15:57:00.443068 14879 net.cpp:156] Memory required for data: 858010656
I0403 15:57:00.443089 14879 layer_factory.hpp:77] Creating layer inception_4a/relu_1x1
I0403 15:57:00.443106 14879 net.cpp:91] Creating Layer inception_4a/relu_1x1
I0403 15:57:00.443122 14879 net.cpp:425] inception_4a/relu_1x1 <- inception_4a/1x1
I0403 15:57:00.443159 14879 net.cpp:386] inception_4a/relu_1x1 -> inception_4a/1x1 (in-place)
I0403 15:57:00.443348 14879 net.cpp:141] Setting up inception_4a/relu_1x1
I0403 15:57:00.443375 14879 net.cpp:148] Top shape: 24 192 14 14 (903168)
I0403 15:57:00.443392 14879 net.cpp:156] Memory required for data: 861623328
I0403 15:57:00.443408 14879 layer_factory.hpp:77] Creating layer inception_4a/3x3_reduce
I0403 15:57:00.443431 14879 net.cpp:91] Creating Layer inception_4a/3x3_reduce
I0403 15:57:00.443449 14879 net.cpp:425] inception_4a/3x3_reduce <- pool3/3x3_s2_pool3/3x3_s2_0_split_1
I0403 15:57:00.443472 14879 net.cpp:399] inception_4a/3x3_reduce -> inception_4a/3x3_reduce
I0403 15:57:00.444813 14879 net.cpp:141] Setting up inception_4a/3x3_reduce
I0403 15:57:00.444842 14879 net.cpp:148] Top shape: 24 96 14 14 (451584)
I0403 15:57:00.444859 14879 net.cpp:156] Memory required for data: 863429664
I0403 15:57:00.444885 14879 layer_factory.hpp:77] Creating layer inception_4a/relu_3x3_reduce
I0403 15:57:00.444906 14879 net.cpp:91] Creating Layer inception_4a/relu_3x3_reduce
I0403 15:57:00.444923 14879 net.cpp:425] inception_4a/relu_3x3_reduce <- inception_4a/3x3_reduce
I0403 15:57:00.444944 14879 net.cpp:386] inception_4a/relu_3x3_reduce -> inception_4a/3x3_reduce (in-place)
I0403 15:57:00.445130 14879 net.cpp:141] Setting up inception_4a/relu_3x3_reduce
I0403 15:57:00.445158 14879 net.cpp:148] Top shape: 24 96 14 14 (451584)
I0403 15:57:00.445174 14879 net.cpp:156] Memory required for data: 865236000
I0403 15:57:00.445189 14879 layer_factory.hpp:77] Creating layer inception_4a/3x3
I0403 15:57:00.445214 14879 net.cpp:91] Creating Layer inception_4a/3x3
I0403 15:57:00.445233 14879 net.cpp:425] inception_4a/3x3 <- inception_4a/3x3_reduce
I0403 15:57:00.445256 14879 net.cpp:399] inception_4a/3x3 -> inception_4a/3x3
I0403 15:57:00.448074 14879 net.cpp:141] Setting up inception_4a/3x3
I0403 15:57:00.448107 14879 net.cpp:148] Top shape: 24 208 14 14 (978432)
I0403 15:57:00.448122 14879 net.cpp:156] Memory required for data: 869149728
I0403 15:57:00.448146 14879 layer_factory.hpp:77] Creating layer inception_4a/relu_3x3
I0403 15:57:00.448169 14879 net.cpp:91] Creating Layer inception_4a/relu_3x3
I0403 15:57:00.448187 14879 net.cpp:425] inception_4a/relu_3x3 <- inception_4a/3x3
I0403 15:57:00.448206 14879 net.cpp:386] inception_4a/relu_3x3 -> inception_4a/3x3 (in-place)
I0403 15:57:00.448505 14879 net.cpp:141] Setting up inception_4a/relu_3x3
I0403 15:57:00.448534 14879 net.cpp:148] Top shape: 24 208 14 14 (978432)
I0403 15:57:00.448549 14879 net.cpp:156] Memory required for data: 873063456
I0403 15:57:00.448565 14879 layer_factory.hpp:77] Creating layer inception_4a/5x5_reduce
I0403 15:57:00.448587 14879 net.cpp:91] Creating Layer inception_4a/5x5_reduce
I0403 15:57:00.448607 14879 net.cpp:425] inception_4a/5x5_reduce <- pool3/3x3_s2_pool3/3x3_s2_0_split_2
I0403 15:57:00.448632 14879 net.cpp:399] inception_4a/5x5_reduce -> inception_4a/5x5_reduce
I0403 15:57:00.449704 14879 net.cpp:141] Setting up inception_4a/5x5_reduce
I0403 15:57:00.449734 14879 net.cpp:148] Top shape: 24 16 14 14 (75264)
I0403 15:57:00.449749 14879 net.cpp:156] Memory required for data: 873364512
I0403 15:57:00.449769 14879 layer_factory.hpp:77] Creating layer inception_4a/relu_5x5_reduce
I0403 15:57:00.449790 14879 net.cpp:91] Creating Layer inception_4a/relu_5x5_reduce
I0403 15:57:00.449808 14879 net.cpp:425] inception_4a/relu_5x5_reduce <- inception_4a/5x5_reduce
I0403 15:57:00.449826 14879 net.cpp:386] inception_4a/relu_5x5_reduce -> inception_4a/5x5_reduce (in-place)
I0403 15:57:00.450011 14879 net.cpp:141] Setting up inception_4a/relu_5x5_reduce
I0403 15:57:00.450039 14879 net.cpp:148] Top shape: 24 16 14 14 (75264)
I0403 15:57:00.450054 14879 net.cpp:156] Memory required for data: 873665568
I0403 15:57:00.450069 14879 layer_factory.hpp:77] Creating layer inception_4a/5x5
I0403 15:57:00.450093 14879 net.cpp:91] Creating Layer inception_4a/5x5
I0403 15:57:00.450112 14879 net.cpp:425] inception_4a/5x5 <- inception_4a/5x5_reduce
I0403 15:57:00.450144 14879 net.cpp:399] inception_4a/5x5 -> inception_4a/5x5
I0403 15:57:00.451273 14879 net.cpp:141] Setting up inception_4a/5x5
I0403 15:57:00.451305 14879 net.cpp:148] Top shape: 24 48 14 14 (225792)
I0403 15:57:00.451323 14879 net.cpp:156] Memory required for data: 874568736
I0403 15:57:00.451344 14879 layer_factory.hpp:77] Creating layer inception_4a/relu_5x5
I0403 15:57:00.451362 14879 net.cpp:91] Creating Layer inception_4a/relu_5x5
I0403 15:57:00.451378 14879 net.cpp:425] inception_4a/relu_5x5 <- inception_4a/5x5
I0403 15:57:00.451398 14879 net.cpp:386] inception_4a/relu_5x5 -> inception_4a/5x5 (in-place)
I0403 15:57:00.451583 14879 net.cpp:141] Setting up inception_4a/relu_5x5
I0403 15:57:00.451611 14879 net.cpp:148] Top shape: 24 48 14 14 (225792)
I0403 15:57:00.451627 14879 net.cpp:156] Memory required for data: 875471904
I0403 15:57:00.451642 14879 layer_factory.hpp:77] Creating layer inception_4a/pool
I0403 15:57:00.451661 14879 net.cpp:91] Creating Layer inception_4a/pool
I0403 15:57:00.451678 14879 net.cpp:425] inception_4a/pool <- pool3/3x3_s2_pool3/3x3_s2_0_split_3
I0403 15:57:00.451699 14879 net.cpp:399] inception_4a/pool -> inception_4a/pool
I0403 15:57:00.451763 14879 net.cpp:141] Setting up inception_4a/pool
I0403 15:57:00.451789 14879 net.cpp:148] Top shape: 24 480 14 14 (2257920)
I0403 15:57:00.451805 14879 net.cpp:156] Memory required for data: 884503584
I0403 15:57:00.451820 14879 layer_factory.hpp:77] Creating layer inception_4a/pool_proj
I0403 15:57:00.451845 14879 net.cpp:91] Creating Layer inception_4a/pool_proj
I0403 15:57:00.451864 14879 net.cpp:425] inception_4a/pool_proj <- inception_4a/pool
I0403 15:57:00.451885 14879 net.cpp:399] inception_4a/pool_proj -> inception_4a/pool_proj
I0403 15:57:00.453114 14879 net.cpp:141] Setting up inception_4a/pool_proj
I0403 15:57:00.453150 14879 net.cpp:148] Top shape: 24 64 14 14 (301056)
I0403 15:57:00.453183 14879 net.cpp:156] Memory required for data: 885707808
I0403 15:57:00.453205 14879 layer_factory.hpp:77] Creating layer inception_4a/relu_pool_proj
I0403 15:57:00.453225 14879 net.cpp:91] Creating Layer inception_4a/relu_pool_proj
I0403 15:57:00.453245 14879 net.cpp:425] inception_4a/relu_pool_proj <- inception_4a/pool_proj
I0403 15:57:00.453263 14879 net.cpp:386] inception_4a/relu_pool_proj -> inception_4a/pool_proj (in-place)
I0403 15:57:00.453557 14879 net.cpp:141] Setting up inception_4a/relu_pool_proj
I0403 15:57:00.453584 14879 net.cpp:148] Top shape: 24 64 14 14 (301056)
I0403 15:57:00.453600 14879 net.cpp:156] Memory required for data: 886912032
I0403 15:57:00.453615 14879 layer_factory.hpp:77] Creating layer inception_4a/output
I0403 15:57:00.453634 14879 net.cpp:91] Creating Layer inception_4a/output
I0403 15:57:00.453650 14879 net.cpp:425] inception_4a/output <- inception_4a/1x1
I0403 15:57:00.453667 14879 net.cpp:425] inception_4a/output <- inception_4a/3x3
I0403 15:57:00.453685 14879 net.cpp:425] inception_4a/output <- inception_4a/5x5
I0403 15:57:00.453701 14879 net.cpp:425] inception_4a/output <- inception_4a/pool_proj
I0403 15:57:00.453722 14879 net.cpp:399] inception_4a/output -> inception_4a/output
I0403 15:57:00.453769 14879 net.cpp:141] Setting up inception_4a/output
I0403 15:57:00.453799 14879 net.cpp:148] Top shape: 24 512 14 14 (2408448)
I0403 15:57:00.453815 14879 net.cpp:156] Memory required for data: 896545824
I0403 15:57:00.453832 14879 layer_factory.hpp:77] Creating layer inception_4a/output_inception_4a/output_0_split
I0403 15:57:00.453851 14879 net.cpp:91] Creating Layer inception_4a/output_inception_4a/output_0_split
I0403 15:57:00.453867 14879 net.cpp:425] inception_4a/output_inception_4a/output_0_split <- inception_4a/output
I0403 15:57:00.453889 14879 net.cpp:399] inception_4a/output_inception_4a/output_0_split -> inception_4a/output_inception_4a/output_0_split_0
I0403 15:57:00.453912 14879 net.cpp:399] inception_4a/output_inception_4a/output_0_split -> inception_4a/output_inception_4a/output_0_split_1
I0403 15:57:00.453934 14879 net.cpp:399] inception_4a/output_inception_4a/output_0_split -> inception_4a/output_inception_4a/output_0_split_2
I0403 15:57:00.453956 14879 net.cpp:399] inception_4a/output_inception_4a/output_0_split -> inception_4a/output_inception_4a/output_0_split_3
I0403 15:57:00.453979 14879 net.cpp:399] inception_4a/output_inception_4a/output_0_split -> inception_4a/output_inception_4a/output_0_split_4
I0403 15:57:00.454074 14879 net.cpp:141] Setting up inception_4a/output_inception_4a/output_0_split
I0403 15:57:00.454099 14879 net.cpp:148] Top shape: 24 512 14 14 (2408448)
I0403 15:57:00.454118 14879 net.cpp:148] Top shape: 24 512 14 14 (2408448)
I0403 15:57:00.454139 14879 net.cpp:148] Top shape: 24 512 14 14 (2408448)
I0403 15:57:00.454156 14879 net.cpp:148] Top shape: 24 512 14 14 (2408448)
I0403 15:57:00.454174 14879 net.cpp:148] Top shape: 24 512 14 14 (2408448)
I0403 15:57:00.454186 14879 net.cpp:156] Memory required for data: 944714784
I0403 15:57:00.454202 14879 layer_factory.hpp:77] Creating layer loss1/ave_pool
I0403 15:57:00.454223 14879 net.cpp:91] Creating Layer loss1/ave_pool
I0403 15:57:00.454241 14879 net.cpp:425] loss1/ave_pool <- inception_4a/output_inception_4a/output_0_split_0
I0403 15:57:00.454260 14879 net.cpp:399] loss1/ave_pool -> loss1/ave_pool
I0403 15:57:00.454476 14879 net.cpp:141] Setting up loss1/ave_pool
I0403 15:57:00.454504 14879 net.cpp:148] Top shape: 24 512 4 4 (196608)
I0403 15:57:00.454519 14879 net.cpp:156] Memory required for data: 945501216
I0403 15:57:00.454535 14879 layer_factory.hpp:77] Creating layer loss1/conv
I0403 15:57:00.454558 14879 net.cpp:91] Creating Layer loss1/conv
I0403 15:57:00.454576 14879 net.cpp:425] loss1/conv <- loss1/ave_pool
I0403 15:57:00.454599 14879 net.cpp:399] loss1/conv -> loss1/conv
I0403 15:57:00.456069 14879 net.cpp:141] Setting up loss1/conv
I0403 15:57:00.456099 14879 net.cpp:148] Top shape: 24 128 4 4 (49152)
I0403 15:57:00.456115 14879 net.cpp:156] Memory required for data: 945697824
I0403 15:57:00.456156 14879 layer_factory.hpp:77] Creating layer loss1/relu_conv
I0403 15:57:00.456178 14879 net.cpp:91] Creating Layer loss1/relu_conv
I0403 15:57:00.456197 14879 net.cpp:425] loss1/relu_conv <- loss1/conv
I0403 15:57:00.456217 14879 net.cpp:386] loss1/relu_conv -> loss1/conv (in-place)
I0403 15:57:00.456509 14879 net.cpp:141] Setting up loss1/relu_conv
I0403 15:57:00.456538 14879 net.cpp:148] Top shape: 24 128 4 4 (49152)
I0403 15:57:00.456554 14879 net.cpp:156] Memory required for data: 945894432
I0403 15:57:00.456570 14879 layer_factory.hpp:77] Creating layer loss1/fc
I0403 15:57:00.456598 14879 net.cpp:91] Creating Layer loss1/fc
I0403 15:57:00.456619 14879 net.cpp:425] loss1/fc <- loss1/conv
I0403 15:57:00.456641 14879 net.cpp:399] loss1/fc -> loss1/fc
I0403 15:57:00.475378 14879 net.cpp:141] Setting up loss1/fc
I0403 15:57:00.475414 14879 net.cpp:148] Top shape: 24 1024 (24576)
I0403 15:57:00.475431 14879 net.cpp:156] Memory required for data: 945992736
I0403 15:57:00.475452 14879 layer_factory.hpp:77] Creating layer loss1/relu_fc
I0403 15:57:00.475472 14879 net.cpp:91] Creating Layer loss1/relu_fc
I0403 15:57:00.475489 14879 net.cpp:425] loss1/relu_fc <- loss1/fc
I0403 15:57:00.475510 14879 net.cpp:386] loss1/relu_fc -> loss1/fc (in-place)
I0403 15:57:00.475706 14879 net.cpp:141] Setting up loss1/relu_fc
I0403 15:57:00.475733 14879 net.cpp:148] Top shape: 24 1024 (24576)
I0403 15:57:00.475749 14879 net.cpp:156] Memory required for data: 946091040
I0403 15:57:00.475764 14879 layer_factory.hpp:77] Creating layer loss1/drop_fc
I0403 15:57:00.475795 14879 net.cpp:91] Creating Layer loss1/drop_fc
I0403 15:57:00.475812 14879 net.cpp:425] loss1/drop_fc <- loss1/fc
I0403 15:57:00.475831 14879 net.cpp:386] loss1/drop_fc -> loss1/fc (in-place)
I0403 15:57:00.475885 14879 net.cpp:141] Setting up loss1/drop_fc
I0403 15:57:00.475914 14879 net.cpp:148] Top shape: 24 1024 (24576)
I0403 15:57:00.475929 14879 net.cpp:156] Memory required for data: 946189344
I0403 15:57:00.475945 14879 layer_factory.hpp:77] Creating layer loss1/classifier_plantvillage
I0403 15:57:00.475965 14879 net.cpp:91] Creating Layer loss1/classifier_plantvillage
I0403 15:57:00.475982 14879 net.cpp:425] loss1/classifier_plantvillage <- loss1/fc
I0403 15:57:00.476004 14879 net.cpp:399] loss1/classifier_plantvillage -> loss1/classifier_plantvillage
I0403 15:57:00.476964 14879 net.cpp:141] Setting up loss1/classifier_plantvillage
I0403 15:57:00.476995 14879 net.cpp:148] Top shape: 24 38 (912)
I0403 15:57:00.477011 14879 net.cpp:156] Memory required for data: 946192992
I0403 15:57:00.477031 14879 layer_factory.hpp:77] Creating layer loss1/classifier_plantvillage_loss1/classifier_plantvillage_0_split
I0403 15:57:00.477051 14879 net.cpp:91] Creating Layer loss1/classifier_plantvillage_loss1/classifier_plantvillage_0_split
I0403 15:57:00.477066 14879 net.cpp:425] loss1/classifier_plantvillage_loss1/classifier_plantvillage_0_split <- loss1/classifier_plantvillage
I0403 15:57:00.477087 14879 net.cpp:399] loss1/classifier_plantvillage_loss1/classifier_plantvillage_0_split -> loss1/classifier_plantvillage_loss1/classifier_plantvillage_0_split_0
I0403 15:57:00.477109 14879 net.cpp:399] loss1/classifier_plantvillage_loss1/classifier_plantvillage_0_split -> loss1/classifier_plantvillage_loss1/classifier_plantvillage_0_split_1
I0403 15:57:00.477136 14879 net.cpp:399] loss1/classifier_plantvillage_loss1/classifier_plantvillage_0_split -> loss1/classifier_plantvillage_loss1/classifier_plantvillage_0_split_2
I0403 15:57:00.477211 14879 net.cpp:141] Setting up loss1/classifier_plantvillage_loss1/classifier_plantvillage_0_split
I0403 15:57:00.477236 14879 net.cpp:148] Top shape: 24 38 (912)
I0403 15:57:00.477253 14879 net.cpp:148] Top shape: 24 38 (912)
I0403 15:57:00.477270 14879 net.cpp:148] Top shape: 24 38 (912)
I0403 15:57:00.477284 14879 net.cpp:156] Memory required for data: 946203936
I0403 15:57:00.477299 14879 layer_factory.hpp:77] Creating layer inception_4b/1x1
I0403 15:57:00.477324 14879 net.cpp:91] Creating Layer inception_4b/1x1
I0403 15:57:00.477365 14879 net.cpp:425] inception_4b/1x1 <- inception_4a/output_inception_4a/output_0_split_1
I0403 15:57:00.477385 14879 net.cpp:399] inception_4b/1x1 -> inception_4b/1x1
I0403 15:57:00.479117 14879 net.cpp:141] Setting up inception_4b/1x1
I0403 15:57:00.479152 14879 net.cpp:148] Top shape: 24 160 14 14 (752640)
I0403 15:57:00.479169 14879 net.cpp:156] Memory required for data: 949214496
I0403 15:57:00.479188 14879 layer_factory.hpp:77] Creating layer inception_4b/relu_1x1
I0403 15:57:00.479210 14879 net.cpp:91] Creating Layer inception_4b/relu_1x1
I0403 15:57:00.479228 14879 net.cpp:425] inception_4b/relu_1x1 <- inception_4b/1x1
I0403 15:57:00.479246 14879 net.cpp:386] inception_4b/relu_1x1 -> inception_4b/1x1 (in-place)
I0403 15:57:00.479434 14879 net.cpp:141] Setting up inception_4b/relu_1x1
I0403 15:57:00.479465 14879 net.cpp:148] Top shape: 24 160 14 14 (752640)
I0403 15:57:00.479481 14879 net.cpp:156] Memory required for data: 952225056
I0403 15:57:00.479497 14879 layer_factory.hpp:77] Creating layer inception_4b/3x3_reduce
I0403 15:57:00.479521 14879 net.cpp:91] Creating Layer inception_4b/3x3_reduce
I0403 15:57:00.479539 14879 net.cpp:425] inception_4b/3x3_reduce <- inception_4a/output_inception_4a/output_0_split_2
I0403 15:57:00.479559 14879 net.cpp:399] inception_4b/3x3_reduce -> inception_4b/3x3_reduce
I0403 15:57:00.480984 14879 net.cpp:141] Setting up inception_4b/3x3_reduce
I0403 15:57:00.481017 14879 net.cpp:148] Top shape: 24 112 14 14 (526848)
I0403 15:57:00.481035 14879 net.cpp:156] Memory required for data: 954332448
I0403 15:57:00.481055 14879 layer_factory.hpp:77] Creating layer inception_4b/relu_3x3_reduce
I0403 15:57:00.481073 14879 net.cpp:91] Creating Layer inception_4b/relu_3x3_reduce
I0403 15:57:00.481091 14879 net.cpp:425] inception_4b/relu_3x3_reduce <- inception_4b/3x3_reduce
I0403 15:57:00.481108 14879 net.cpp:386] inception_4b/relu_3x3_reduce -> inception_4b/3x3_reduce (in-place)
I0403 15:57:00.481407 14879 net.cpp:141] Setting up inception_4b/relu_3x3_reduce
I0403 15:57:00.481438 14879 net.cpp:148] Top shape: 24 112 14 14 (526848)
I0403 15:57:00.481456 14879 net.cpp:156] Memory required for data: 956439840
I0403 15:57:00.481472 14879 layer_factory.hpp:77] Creating layer inception_4b/3x3
I0403 15:57:00.481495 14879 net.cpp:91] Creating Layer inception_4b/3x3
I0403 15:57:00.481514 14879 net.cpp:425] inception_4b/3x3 <- inception_4b/3x3_reduce
I0403 15:57:00.481535 14879 net.cpp:399] inception_4b/3x3 -> inception_4b/3x3
I0403 15:57:00.484678 14879 net.cpp:141] Setting up inception_4b/3x3
I0403 15:57:00.484709 14879 net.cpp:148] Top shape: 24 224 14 14 (1053696)
I0403 15:57:00.484726 14879 net.cpp:156] Memory required for data: 960654624
I0403 15:57:00.484745 14879 layer_factory.hpp:77] Creating layer inception_4b/relu_3x3
I0403 15:57:00.484765 14879 net.cpp:91] Creating Layer inception_4b/relu_3x3
I0403 15:57:00.484781 14879 net.cpp:425] inception_4b/relu_3x3 <- inception_4b/3x3
I0403 15:57:00.484802 14879 net.cpp:386] inception_4b/relu_3x3 -> inception_4b/3x3 (in-place)
I0403 15:57:00.484994 14879 net.cpp:141] Setting up inception_4b/relu_3x3
I0403 15:57:00.485021 14879 net.cpp:148] Top shape: 24 224 14 14 (1053696)
I0403 15:57:00.485036 14879 net.cpp:156] Memory required for data: 964869408
I0403 15:57:00.485051 14879 layer_factory.hpp:77] Creating layer inception_4b/5x5_reduce
I0403 15:57:00.485075 14879 net.cpp:91] Creating Layer inception_4b/5x5_reduce
I0403 15:57:00.485095 14879 net.cpp:425] inception_4b/5x5_reduce <- inception_4a/output_inception_4a/output_0_split_3
I0403 15:57:00.485118 14879 net.cpp:399] inception_4b/5x5_reduce -> inception_4b/5x5_reduce
I0403 15:57:00.486273 14879 net.cpp:141] Setting up inception_4b/5x5_reduce
I0403 15:57:00.486305 14879 net.cpp:148] Top shape: 24 24 14 14 (112896)
I0403 15:57:00.486323 14879 net.cpp:156] Memory required for data: 965320992
I0403 15:57:00.486343 14879 layer_factory.hpp:77] Creating layer inception_4b/relu_5x5_reduce
I0403 15:57:00.486363 14879 net.cpp:91] Creating Layer inception_4b/relu_5x5_reduce
I0403 15:57:00.486397 14879 net.cpp:425] inception_4b/relu_5x5_reduce <- inception_4b/5x5_reduce
I0403 15:57:00.486418 14879 net.cpp:386] inception_4b/relu_5x5_reduce -> inception_4b/5x5_reduce (in-place)
I0403 15:57:00.486608 14879 net.cpp:141] Setting up inception_4b/relu_5x5_reduce
I0403 15:57:00.486636 14879 net.cpp:148] Top shape: 24 24 14 14 (112896)
I0403 15:57:00.486654 14879 net.cpp:156] Memory required for data: 965772576
I0403 15:57:00.486670 14879 layer_factory.hpp:77] Creating layer inception_4b/5x5
I0403 15:57:00.486696 14879 net.cpp:91] Creating Layer inception_4b/5x5
I0403 15:57:00.486714 14879 net.cpp:425] inception_4b/5x5 <- inception_4b/5x5_reduce
I0403 15:57:00.486738 14879 net.cpp:399] inception_4b/5x5 -> inception_4b/5x5
I0403 15:57:00.488028 14879 net.cpp:141] Setting up inception_4b/5x5
I0403 15:57:00.488057 14879 net.cpp:148] Top shape: 24 64 14 14 (301056)
I0403 15:57:00.488075 14879 net.cpp:156] Memory required for data: 966976800
I0403 15:57:00.488095 14879 layer_factory.hpp:77] Creating layer inception_4b/relu_5x5
I0403 15:57:00.488116 14879 net.cpp:91] Creating Layer inception_4b/relu_5x5
I0403 15:57:00.488142 14879 net.cpp:425] inception_4b/relu_5x5 <- inception_4b/5x5
I0403 15:57:00.488162 14879 net.cpp:386] inception_4b/relu_5x5 -> inception_4b/5x5 (in-place)
I0403 15:57:00.488469 14879 net.cpp:141] Setting up inception_4b/relu_5x5
I0403 15:57:00.488497 14879 net.cpp:148] Top shape: 24 64 14 14 (301056)
I0403 15:57:00.488512 14879 net.cpp:156] Memory required for data: 968181024
I0403 15:57:00.488528 14879 layer_factory.hpp:77] Creating layer inception_4b/pool
I0403 15:57:00.488551 14879 net.cpp:91] Creating Layer inception_4b/pool
I0403 15:57:00.488570 14879 net.cpp:425] inception_4b/pool <- inception_4a/output_inception_4a/output_0_split_4
I0403 15:57:00.488590 14879 net.cpp:399] inception_4b/pool -> inception_4b/pool
I0403 15:57:00.488658 14879 net.cpp:141] Setting up inception_4b/pool
I0403 15:57:00.488683 14879 net.cpp:148] Top shape: 24 512 14 14 (2408448)
I0403 15:57:00.488699 14879 net.cpp:156] Memory required for data: 977814816
I0403 15:57:00.488714 14879 layer_factory.hpp:77] Creating layer inception_4b/pool_proj
I0403 15:57:00.488739 14879 net.cpp:91] Creating Layer inception_4b/pool_proj
I0403 15:57:00.488757 14879 net.cpp:425] inception_4b/pool_proj <- inception_4b/pool
I0403 15:57:00.488780 14879 net.cpp:399] inception_4b/pool_proj -> inception_4b/pool_proj
I0403 15:57:00.490054 14879 net.cpp:141] Setting up inception_4b/pool_proj
I0403 15:57:00.490084 14879 net.cpp:148] Top shape: 24 64 14 14 (301056)
I0403 15:57:00.490100 14879 net.cpp:156] Memory required for data: 979019040
I0403 15:57:00.490120 14879 layer_factory.hpp:77] Creating layer inception_4b/relu_pool_proj
I0403 15:57:00.490147 14879 net.cpp:91] Creating Layer inception_4b/relu_pool_proj
I0403 15:57:00.490166 14879 net.cpp:425] inception_4b/relu_pool_proj <- inception_4b/pool_proj
I0403 15:57:00.490185 14879 net.cpp:386] inception_4b/relu_pool_proj -> inception_4b/pool_proj (in-place)
I0403 15:57:00.490375 14879 net.cpp:141] Setting up inception_4b/relu_pool_proj
I0403 15:57:00.490403 14879 net.cpp:148] Top shape: 24 64 14 14 (301056)
I0403 15:57:00.490419 14879 net.cpp:156] Memory required for data: 980223264
I0403 15:57:00.490433 14879 layer_factory.hpp:77] Creating layer inception_4b/output
I0403 15:57:00.490452 14879 net.cpp:91] Creating Layer inception_4b/output
I0403 15:57:00.490468 14879 net.cpp:425] inception_4b/output <- inception_4b/1x1
I0403 15:57:00.490485 14879 net.cpp:425] inception_4b/output <- inception_4b/3x3
I0403 15:57:00.490502 14879 net.cpp:425] inception_4b/output <- inception_4b/5x5
I0403 15:57:00.490520 14879 net.cpp:425] inception_4b/output <- inception_4b/pool_proj
I0403 15:57:00.490540 14879 net.cpp:399] inception_4b/output -> inception_4b/output
I0403 15:57:00.490587 14879 net.cpp:141] Setting up inception_4b/output
I0403 15:57:00.490615 14879 net.cpp:148] Top shape: 24 512 14 14 (2408448)
I0403 15:57:00.490631 14879 net.cpp:156] Memory required for data: 989857056
I0403 15:57:00.490665 14879 layer_factory.hpp:77] Creating layer inception_4b/output_inception_4b/output_0_split
I0403 15:57:00.490684 14879 net.cpp:91] Creating Layer inception_4b/output_inception_4b/output_0_split
I0403 15:57:00.490701 14879 net.cpp:425] inception_4b/output_inception_4b/output_0_split <- inception_4b/output
I0403 15:57:00.490720 14879 net.cpp:399] inception_4b/output_inception_4b/output_0_split -> inception_4b/output_inception_4b/output_0_split_0
I0403 15:57:00.490741 14879 net.cpp:399] inception_4b/output_inception_4b/output_0_split -> inception_4b/output_inception_4b/output_0_split_1
I0403 15:57:00.490764 14879 net.cpp:399] inception_4b/output_inception_4b/output_0_split -> inception_4b/output_inception_4b/output_0_split_2
I0403 15:57:00.490788 14879 net.cpp:399] inception_4b/output_inception_4b/output_0_split -> inception_4b/output_inception_4b/output_0_split_3
I0403 15:57:00.490880 14879 net.cpp:141] Setting up inception_4b/output_inception_4b/output_0_split
I0403 15:57:00.490906 14879 net.cpp:148] Top shape: 24 512 14 14 (2408448)
I0403 15:57:00.490922 14879 net.cpp:148] Top shape: 24 512 14 14 (2408448)
I0403 15:57:00.490938 14879 net.cpp:148] Top shape: 24 512 14 14 (2408448)
I0403 15:57:00.490954 14879 net.cpp:148] Top shape: 24 512 14 14 (2408448)
I0403 15:57:00.490968 14879 net.cpp:156] Memory required for data: 1028392224
I0403 15:57:00.490984 14879 layer_factory.hpp:77] Creating layer inception_4c/1x1
I0403 15:57:00.491008 14879 net.cpp:91] Creating Layer inception_4c/1x1
I0403 15:57:00.491025 14879 net.cpp:425] inception_4c/1x1 <- inception_4b/output_inception_4b/output_0_split_0
I0403 15:57:00.491047 14879 net.cpp:399] inception_4c/1x1 -> inception_4c/1x1
I0403 15:57:00.492581 14879 net.cpp:141] Setting up inception_4c/1x1
I0403 15:57:00.492612 14879 net.cpp:148] Top shape: 24 128 14 14 (602112)
I0403 15:57:00.492629 14879 net.cpp:156] Memory required for data: 1030800672
I0403 15:57:00.492648 14879 layer_factory.hpp:77] Creating layer inception_4c/relu_1x1
I0403 15:57:00.492668 14879 net.cpp:91] Creating Layer inception_4c/relu_1x1
I0403 15:57:00.492684 14879 net.cpp:425] inception_4c/relu_1x1 <- inception_4c/1x1
I0403 15:57:00.492705 14879 net.cpp:386] inception_4c/relu_1x1 -> inception_4c/1x1 (in-place)
I0403 15:57:00.492897 14879 net.cpp:141] Setting up inception_4c/relu_1x1
I0403 15:57:00.492923 14879 net.cpp:148] Top shape: 24 128 14 14 (602112)
I0403 15:57:00.492940 14879 net.cpp:156] Memory required for data: 1033209120
I0403 15:57:00.492956 14879 layer_factory.hpp:77] Creating layer inception_4c/3x3_reduce
I0403 15:57:00.492980 14879 net.cpp:91] Creating Layer inception_4c/3x3_reduce
I0403 15:57:00.493000 14879 net.cpp:425] inception_4c/3x3_reduce <- inception_4b/output_inception_4b/output_0_split_1
I0403 15:57:00.493023 14879 net.cpp:399] inception_4c/3x3_reduce -> inception_4c/3x3_reduce
I0403 15:57:00.495091 14879 net.cpp:141] Setting up inception_4c/3x3_reduce
I0403 15:57:00.495122 14879 net.cpp:148] Top shape: 24 128 14 14 (602112)
I0403 15:57:00.495146 14879 net.cpp:156] Memory required for data: 1035617568
I0403 15:57:00.495165 14879 layer_factory.hpp:77] Creating layer inception_4c/relu_3x3_reduce
I0403 15:57:00.495187 14879 net.cpp:91] Creating Layer inception_4c/relu_3x3_reduce
I0403 15:57:00.495204 14879 net.cpp:425] inception_4c/relu_3x3_reduce <- inception_4c/3x3_reduce
I0403 15:57:00.495223 14879 net.cpp:386] inception_4c/relu_3x3_reduce -> inception_4c/3x3_reduce (in-place)
I0403 15:57:00.495523 14879 net.cpp:141] Setting up inception_4c/relu_3x3_reduce
I0403 15:57:00.495551 14879 net.cpp:148] Top shape: 24 128 14 14 (602112)
I0403 15:57:00.495566 14879 net.cpp:156] Memory required for data: 1038026016
I0403 15:57:00.495581 14879 layer_factory.hpp:77] Creating layer inception_4c/3x3
I0403 15:57:00.495606 14879 net.cpp:91] Creating Layer inception_4c/3x3
I0403 15:57:00.495625 14879 net.cpp:425] inception_4c/3x3 <- inception_4c/3x3_reduce
I0403 15:57:00.495650 14879 net.cpp:399] inception_4c/3x3 -> inception_4c/3x3
I0403 15:57:00.499455 14879 net.cpp:141] Setting up inception_4c/3x3
I0403 15:57:00.499500 14879 net.cpp:148] Top shape: 24 256 14 14 (1204224)
I0403 15:57:00.499519 14879 net.cpp:156] Memory required for data: 1042842912
I0403 15:57:00.499557 14879 layer_factory.hpp:77] Creating layer inception_4c/relu_3x3
I0403 15:57:00.499583 14879 net.cpp:91] Creating Layer inception_4c/relu_3x3
I0403 15:57:00.499600 14879 net.cpp:425] inception_4c/relu_3x3 <- inception_4c/3x3
I0403 15:57:00.499619 14879 net.cpp:386] inception_4c/relu_3x3 -> inception_4c/3x3 (in-place)
I0403 15:57:00.499812 14879 net.cpp:141] Setting up inception_4c/relu_3x3
I0403 15:57:00.499841 14879 net.cpp:148] Top shape: 24 256 14 14 (1204224)
I0403 15:57:00.499858 14879 net.cpp:156] Memory required for data: 1047659808
I0403 15:57:00.499874 14879 layer_factory.hpp:77] Creating layer inception_4c/5x5_reduce
I0403 15:57:00.499898 14879 net.cpp:91] Creating Layer inception_4c/5x5_reduce
I0403 15:57:00.499918 14879 net.cpp:425] inception_4c/5x5_reduce <- inception_4b/output_inception_4b/output_0_split_2
I0403 15:57:00.499938 14879 net.cpp:399] inception_4c/5x5_reduce -> inception_4c/5x5_reduce
I0403 15:57:00.501094 14879 net.cpp:141] Setting up inception_4c/5x5_reduce
I0403 15:57:00.501132 14879 net.cpp:148] Top shape: 24 24 14 14 (112896)
I0403 15:57:00.501150 14879 net.cpp:156] Memory required for data: 1048111392
I0403 15:57:00.501170 14879 layer_factory.hpp:77] Creating layer inception_4c/relu_5x5_reduce
I0403 15:57:00.501190 14879 net.cpp:91] Creating Layer inception_4c/relu_5x5_reduce
I0403 15:57:00.501207 14879 net.cpp:425] inception_4c/relu_5x5_reduce <- inception_4c/5x5_reduce
I0403 15:57:00.501226 14879 net.cpp:386] inception_4c/relu_5x5_reduce -> inception_4c/5x5_reduce (in-place)
I0403 15:57:00.501422 14879 net.cpp:141] Setting up inception_4c/relu_5x5_reduce
I0403 15:57:00.501451 14879 net.cpp:148] Top shape: 24 24 14 14 (112896)
I0403 15:57:00.501468 14879 net.cpp:156] Memory required for data: 1048562976
I0403 15:57:00.501483 14879 layer_factory.hpp:77] Creating layer inception_4c/5x5
I0403 15:57:00.501507 14879 net.cpp:91] Creating Layer inception_4c/5x5
I0403 15:57:00.501525 14879 net.cpp:425] inception_4c/5x5 <- inception_4c/5x5_reduce
I0403 15:57:00.501545 14879 net.cpp:399] inception_4c/5x5 -> inception_4c/5x5
I0403 15:57:00.502861 14879 net.cpp:141] Setting up inception_4c/5x5
I0403 15:57:00.502890 14879 net.cpp:148] Top shape: 24 64 14 14 (301056)
I0403 15:57:00.502907 14879 net.cpp:156] Memory required for data: 1049767200
I0403 15:57:00.502928 14879 layer_factory.hpp:77] Creating layer inception_4c/relu_5x5
I0403 15:57:00.502948 14879 net.cpp:91] Creating Layer inception_4c/relu_5x5
I0403 15:57:00.502964 14879 net.cpp:425] inception_4c/relu_5x5 <- inception_4c/5x5
I0403 15:57:00.502985 14879 net.cpp:386] inception_4c/relu_5x5 -> inception_4c/5x5 (in-place)
I0403 15:57:00.503306 14879 net.cpp:141] Setting up inception_4c/relu_5x5
I0403 15:57:00.503335 14879 net.cpp:148] Top shape: 24 64 14 14 (301056)
I0403 15:57:00.503352 14879 net.cpp:156] Memory required for data: 1050971424
I0403 15:57:00.503368 14879 layer_factory.hpp:77] Creating layer inception_4c/pool
I0403 15:57:00.503386 14879 net.cpp:91] Creating Layer inception_4c/pool
I0403 15:57:00.503402 14879 net.cpp:425] inception_4c/pool <- inception_4b/output_inception_4b/output_0_split_3
I0403 15:57:00.503424 14879 net.cpp:399] inception_4c/pool -> inception_4c/pool
I0403 15:57:00.503494 14879 net.cpp:141] Setting up inception_4c/pool
I0403 15:57:00.503520 14879 net.cpp:148] Top shape: 24 512 14 14 (2408448)
I0403 15:57:00.503536 14879 net.cpp:156] Memory required for data: 1060605216
I0403 15:57:00.503551 14879 layer_factory.hpp:77] Creating layer inception_4c/pool_proj
I0403 15:57:00.503576 14879 net.cpp:91] Creating Layer inception_4c/pool_proj
I0403 15:57:00.503595 14879 net.cpp:425] inception_4c/pool_proj <- inception_4c/pool
I0403 15:57:00.503617 14879 net.cpp:399] inception_4c/pool_proj -> inception_4c/pool_proj
I0403 15:57:00.504919 14879 net.cpp:141] Setting up inception_4c/pool_proj
I0403 15:57:00.504948 14879 net.cpp:148] Top shape: 24 64 14 14 (301056)
I0403 15:57:00.504981 14879 net.cpp:156] Memory required for data: 1061809440
I0403 15:57:00.505000 14879 layer_factory.hpp:77] Creating layer inception_4c/relu_pool_proj
I0403 15:57:00.505023 14879 net.cpp:91] Creating Layer inception_4c/relu_pool_proj
I0403 15:57:00.505040 14879 net.cpp:425] inception_4c/relu_pool_proj <- inception_4c/pool_proj
I0403 15:57:00.505059 14879 net.cpp:386] inception_4c/relu_pool_proj -> inception_4c/pool_proj (in-place)
I0403 15:57:00.505261 14879 net.cpp:141] Setting up inception_4c/relu_pool_proj
I0403 15:57:00.505290 14879 net.cpp:148] Top shape: 24 64 14 14 (301056)
I0403 15:57:00.505306 14879 net.cpp:156] Memory required for data: 1063013664
I0403 15:57:00.505322 14879 layer_factory.hpp:77] Creating layer inception_4c/output
I0403 15:57:00.505339 14879 net.cpp:91] Creating Layer inception_4c/output
I0403 15:57:00.505355 14879 net.cpp:425] inception_4c/output <- inception_4c/1x1
I0403 15:57:00.505373 14879 net.cpp:425] inception_4c/output <- inception_4c/3x3
I0403 15:57:00.505391 14879 net.cpp:425] inception_4c/output <- inception_4c/5x5
I0403 15:57:00.505409 14879 net.cpp:425] inception_4c/output <- inception_4c/pool_proj
I0403 15:57:00.505429 14879 net.cpp:399] inception_4c/output -> inception_4c/output
I0403 15:57:00.505478 14879 net.cpp:141] Setting up inception_4c/output
I0403 15:57:00.505504 14879 net.cpp:148] Top shape: 24 512 14 14 (2408448)
I0403 15:57:00.505524 14879 net.cpp:156] Memory required for data: 1072647456
I0403 15:57:00.505540 14879 layer_factory.hpp:77] Creating layer inception_4c/output_inception_4c/output_0_split
I0403 15:57:00.505558 14879 net.cpp:91] Creating Layer inception_4c/output_inception_4c/output_0_split
I0403 15:57:00.505573 14879 net.cpp:425] inception_4c/output_inception_4c/output_0_split <- inception_4c/output
I0403 15:57:00.505592 14879 net.cpp:399] inception_4c/output_inception_4c/output_0_split -> inception_4c/output_inception_4c/output_0_split_0
I0403 15:57:00.505612 14879 net.cpp:399] inception_4c/output_inception_4c/output_0_split -> inception_4c/output_inception_4c/output_0_split_1
I0403 15:57:00.505635 14879 net.cpp:399] inception_4c/output_inception_4c/output_0_split -> inception_4c/output_inception_4c/output_0_split_2
I0403 15:57:00.505659 14879 net.cpp:399] inception_4c/output_inception_4c/output_0_split -> inception_4c/output_inception_4c/output_0_split_3
I0403 15:57:00.505753 14879 net.cpp:141] Setting up inception_4c/output_inception_4c/output_0_split
I0403 15:57:00.505777 14879 net.cpp:148] Top shape: 24 512 14 14 (2408448)
I0403 15:57:00.505795 14879 net.cpp:148] Top shape: 24 512 14 14 (2408448)
I0403 15:57:00.505810 14879 net.cpp:148] Top shape: 24 512 14 14 (2408448)
I0403 15:57:00.505827 14879 net.cpp:148] Top shape: 24 512 14 14 (2408448)
I0403 15:57:00.505841 14879 net.cpp:156] Memory required for data: 1111182624
I0403 15:57:00.505857 14879 layer_factory.hpp:77] Creating layer inception_4d/1x1
I0403 15:57:00.505880 14879 net.cpp:91] Creating Layer inception_4d/1x1
I0403 15:57:00.505900 14879 net.cpp:425] inception_4d/1x1 <- inception_4c/output_inception_4c/output_0_split_0
I0403 15:57:00.505921 14879 net.cpp:399] inception_4d/1x1 -> inception_4d/1x1
I0403 15:57:00.507400 14879 net.cpp:141] Setting up inception_4d/1x1
I0403 15:57:00.507431 14879 net.cpp:148] Top shape: 24 112 14 14 (526848)
I0403 15:57:00.507447 14879 net.cpp:156] Memory required for data: 1113290016
I0403 15:57:00.507467 14879 layer_factory.hpp:77] Creating layer inception_4d/relu_1x1
I0403 15:57:00.507491 14879 net.cpp:91] Creating Layer inception_4d/relu_1x1
I0403 15:57:00.507510 14879 net.cpp:425] inception_4d/relu_1x1 <- inception_4d/1x1
I0403 15:57:00.507529 14879 net.cpp:386] inception_4d/relu_1x1 -> inception_4d/1x1 (in-place)
I0403 15:57:00.507725 14879 net.cpp:141] Setting up inception_4d/relu_1x1
I0403 15:57:00.507751 14879 net.cpp:148] Top shape: 24 112 14 14 (526848)
I0403 15:57:00.507771 14879 net.cpp:156] Memory required for data: 1115397408
I0403 15:57:00.507786 14879 layer_factory.hpp:77] Creating layer inception_4d/3x3_reduce
I0403 15:57:00.507824 14879 net.cpp:91] Creating Layer inception_4d/3x3_reduce
I0403 15:57:00.507844 14879 net.cpp:425] inception_4d/3x3_reduce <- inception_4c/output_inception_4c/output_0_split_1
I0403 15:57:00.507868 14879 net.cpp:399] inception_4d/3x3_reduce -> inception_4d/3x3_reduce
I0403 15:57:00.509532 14879 net.cpp:141] Setting up inception_4d/3x3_reduce
I0403 15:57:00.509562 14879 net.cpp:148] Top shape: 24 144 14 14 (677376)
I0403 15:57:00.509588 14879 net.cpp:156] Memory required for data: 1118106912
I0403 15:57:00.509608 14879 layer_factory.hpp:77] Creating layer inception_4d/relu_3x3_reduce
I0403 15:57:00.509627 14879 net.cpp:91] Creating Layer inception_4d/relu_3x3_reduce
I0403 15:57:00.509657 14879 net.cpp:425] inception_4d/relu_3x3_reduce <- inception_4d/3x3_reduce
I0403 15:57:00.509678 14879 net.cpp:386] inception_4d/relu_3x3_reduce -> inception_4d/3x3_reduce (in-place)
I0403 15:57:00.509984 14879 net.cpp:141] Setting up inception_4d/relu_3x3_reduce
I0403 15:57:00.510010 14879 net.cpp:148] Top shape: 24 144 14 14 (677376)
I0403 15:57:00.510026 14879 net.cpp:156] Memory required for data: 1120816416
I0403 15:57:00.510041 14879 layer_factory.hpp:77] Creating layer inception_4d/3x3
I0403 15:57:00.510077 14879 net.cpp:91] Creating Layer inception_4d/3x3
I0403 15:57:00.510097 14879 net.cpp:425] inception_4d/3x3 <- inception_4d/3x3_reduce
I0403 15:57:00.510119 14879 net.cpp:399] inception_4d/3x3 -> inception_4d/3x3
I0403 15:57:00.514581 14879 net.cpp:141] Setting up inception_4d/3x3
I0403 15:57:00.514611 14879 net.cpp:148] Top shape: 24 288 14 14 (1354752)
I0403 15:57:00.514628 14879 net.cpp:156] Memory required for data: 1126235424
I0403 15:57:00.514647 14879 layer_factory.hpp:77] Creating layer inception_4d/relu_3x3
I0403 15:57:00.514669 14879 net.cpp:91] Creating Layer inception_4d/relu_3x3
I0403 15:57:00.514688 14879 net.cpp:425] inception_4d/relu_3x3 <- inception_4d/3x3
I0403 15:57:00.514706 14879 net.cpp:386] inception_4d/relu_3x3 -> inception_4d/3x3 (in-place)
I0403 15:57:00.514897 14879 net.cpp:141] Setting up inception_4d/relu_3x3
I0403 15:57:00.514925 14879 net.cpp:148] Top shape: 24 288 14 14 (1354752)
I0403 15:57:00.514938 14879 net.cpp:156] Memory required for data: 1131654432
I0403 15:57:00.514955 14879 layer_factory.hpp:77] Creating layer inception_4d/5x5_reduce
I0403 15:57:00.514981 14879 net.cpp:91] Creating Layer inception_4d/5x5_reduce
I0403 15:57:00.514999 14879 net.cpp:425] inception_4d/5x5_reduce <- inception_4c/output_inception_4c/output_0_split_2
I0403 15:57:00.515018 14879 net.cpp:399] inception_4d/5x5_reduce -> inception_4d/5x5_reduce
I0403 15:57:00.516240 14879 net.cpp:141] Setting up inception_4d/5x5_reduce
I0403 15:57:00.516269 14879 net.cpp:148] Top shape: 24 32 14 14 (150528)
I0403 15:57:00.516285 14879 net.cpp:156] Memory required for data: 1132256544
I0403 15:57:00.516305 14879 layer_factory.hpp:77] Creating layer inception_4d/relu_5x5_reduce
I0403 15:57:00.516325 14879 net.cpp:91] Creating Layer inception_4d/relu_5x5_reduce
I0403 15:57:00.516342 14879 net.cpp:425] inception_4d/relu_5x5_reduce <- inception_4d/5x5_reduce
I0403 15:57:00.516360 14879 net.cpp:386] inception_4d/relu_5x5_reduce -> inception_4d/5x5_reduce (in-place)
I0403 15:57:00.516554 14879 net.cpp:141] Setting up inception_4d/relu_5x5_reduce
I0403 15:57:00.516583 14879 net.cpp:148] Top shape: 24 32 14 14 (150528)
I0403 15:57:00.516600 14879 net.cpp:156] Memory required for data: 1132858656
I0403 15:57:00.516616 14879 layer_factory.hpp:77] Creating layer inception_4d/5x5
I0403 15:57:00.516638 14879 net.cpp:91] Creating Layer inception_4d/5x5
I0403 15:57:00.516655 14879 net.cpp:425] inception_4d/5x5 <- inception_4d/5x5_reduce
I0403 15:57:00.516675 14879 net.cpp:399] inception_4d/5x5 -> inception_4d/5x5
I0403 15:57:00.518226 14879 net.cpp:141] Setting up inception_4d/5x5
I0403 15:57:00.518259 14879 net.cpp:148] Top shape: 24 64 14 14 (301056)
I0403 15:57:00.518277 14879 net.cpp:156] Memory required for data: 1134062880
I0403 15:57:00.518297 14879 layer_factory.hpp:77] Creating layer inception_4d/relu_5x5
I0403 15:57:00.518332 14879 net.cpp:91] Creating Layer inception_4d/relu_5x5
I0403 15:57:00.518352 14879 net.cpp:425] inception_4d/relu_5x5 <- inception_4d/5x5
I0403 15:57:00.518369 14879 net.cpp:386] inception_4d/relu_5x5 -> inception_4d/5x5 (in-place)
I0403 15:57:00.518679 14879 net.cpp:141] Setting up inception_4d/relu_5x5
I0403 15:57:00.518710 14879 net.cpp:148] Top shape: 24 64 14 14 (301056)
I0403 15:57:00.518728 14879 net.cpp:156] Memory required for data: 1135267104
I0403 15:57:00.518743 14879 layer_factory.hpp:77] Creating layer inception_4d/pool
I0403 15:57:00.518761 14879 net.cpp:91] Creating Layer inception_4d/pool
I0403 15:57:00.518779 14879 net.cpp:425] inception_4d/pool <- inception_4c/output_inception_4c/output_0_split_3
I0403 15:57:00.518796 14879 net.cpp:399] inception_4d/pool -> inception_4d/pool
I0403 15:57:00.518869 14879 net.cpp:141] Setting up inception_4d/pool
I0403 15:57:00.518894 14879 net.cpp:148] Top shape: 24 512 14 14 (2408448)
I0403 15:57:00.518909 14879 net.cpp:156] Memory required for data: 1144900896
I0403 15:57:00.518923 14879 layer_factory.hpp:77] Creating layer inception_4d/pool_proj
I0403 15:57:00.518946 14879 net.cpp:91] Creating Layer inception_4d/pool_proj
I0403 15:57:00.518965 14879 net.cpp:425] inception_4d/pool_proj <- inception_4d/pool
I0403 15:57:00.518986 14879 net.cpp:399] inception_4d/pool_proj -> inception_4d/pool_proj
I0403 15:57:00.520826 14879 net.cpp:141] Setting up inception_4d/pool_proj
I0403 15:57:00.520856 14879 net.cpp:148] Top shape: 24 64 14 14 (301056)
I0403 15:57:00.520872 14879 net.cpp:156] Memory required for data: 1146105120
I0403 15:57:00.520892 14879 layer_factory.hpp:77] Creating layer inception_4d/relu_pool_proj
I0403 15:57:00.520913 14879 net.cpp:91] Creating Layer inception_4d/relu_pool_proj
I0403 15:57:00.520932 14879 net.cpp:425] inception_4d/relu_pool_proj <- inception_4d/pool_proj
I0403 15:57:00.520951 14879 net.cpp:386] inception_4d/relu_pool_proj -> inception_4d/pool_proj (in-place)
I0403 15:57:00.521144 14879 net.cpp:141] Setting up inception_4d/relu_pool_proj
I0403 15:57:00.521170 14879 net.cpp:148] Top shape: 24 64 14 14 (301056)
I0403 15:57:00.521186 14879 net.cpp:156] Memory required for data: 1147309344
I0403 15:57:00.521201 14879 layer_factory.hpp:77] Creating layer inception_4d/output
I0403 15:57:00.521222 14879 net.cpp:91] Creating Layer inception_4d/output
I0403 15:57:00.521240 14879 net.cpp:425] inception_4d/output <- inception_4d/1x1
I0403 15:57:00.521257 14879 net.cpp:425] inception_4d/output <- inception_4d/3x3
I0403 15:57:00.521275 14879 net.cpp:425] inception_4d/output <- inception_4d/5x5
I0403 15:57:00.521291 14879 net.cpp:425] inception_4d/output <- inception_4d/pool_proj
I0403 15:57:00.521307 14879 net.cpp:399] inception_4d/output -> inception_4d/output
I0403 15:57:00.521358 14879 net.cpp:141] Setting up inception_4d/output
I0403 15:57:00.521395 14879 net.cpp:148] Top shape: 24 528 14 14 (2483712)
I0403 15:57:00.521410 14879 net.cpp:156] Memory required for data: 1157244192
I0403 15:57:00.521426 14879 layer_factory.hpp:77] Creating layer inception_4d/output_inception_4d/output_0_split
I0403 15:57:00.521445 14879 net.cpp:91] Creating Layer inception_4d/output_inception_4d/output_0_split
I0403 15:57:00.521461 14879 net.cpp:425] inception_4d/output_inception_4d/output_0_split <- inception_4d/output
I0403 15:57:00.521482 14879 net.cpp:399] inception_4d/output_inception_4d/output_0_split -> inception_4d/output_inception_4d/output_0_split_0
I0403 15:57:00.521505 14879 net.cpp:399] inception_4d/output_inception_4d/output_0_split -> inception_4d/output_inception_4d/output_0_split_1
I0403 15:57:00.521528 14879 net.cpp:399] inception_4d/output_inception_4d/output_0_split -> inception_4d/output_inception_4d/output_0_split_2
I0403 15:57:00.521554 14879 net.cpp:399] inception_4d/output_inception_4d/output_0_split -> inception_4d/output_inception_4d/output_0_split_3
I0403 15:57:00.521576 14879 net.cpp:399] inception_4d/output_inception_4d/output_0_split -> inception_4d/output_inception_4d/output_0_split_4
I0403 15:57:00.521698 14879 net.cpp:141] Setting up inception_4d/output_inception_4d/output_0_split
I0403 15:57:00.521736 14879 net.cpp:148] Top shape: 24 528 14 14 (2483712)
I0403 15:57:00.521754 14879 net.cpp:148] Top shape: 24 528 14 14 (2483712)
I0403 15:57:00.521770 14879 net.cpp:148] Top shape: 24 528 14 14 (2483712)
I0403 15:57:00.521786 14879 net.cpp:148] Top shape: 24 528 14 14 (2483712)
I0403 15:57:00.521801 14879 net.cpp:148] Top shape: 24 528 14 14 (2483712)
I0403 15:57:00.521816 14879 net.cpp:156] Memory required for data: 1206918432
I0403 15:57:00.521831 14879 layer_factory.hpp:77] Creating layer loss2/ave_pool
I0403 15:57:00.521848 14879 net.cpp:91] Creating Layer loss2/ave_pool
I0403 15:57:00.521867 14879 net.cpp:425] loss2/ave_pool <- inception_4d/output_inception_4d/output_0_split_0
I0403 15:57:00.521888 14879 net.cpp:399] loss2/ave_pool -> loss2/ave_pool
I0403 15:57:00.522218 14879 net.cpp:141] Setting up loss2/ave_pool
I0403 15:57:00.522246 14879 net.cpp:148] Top shape: 24 528 4 4 (202752)
I0403 15:57:00.522263 14879 net.cpp:156] Memory required for data: 1207729440
I0403 15:57:00.522277 14879 layer_factory.hpp:77] Creating layer loss2/conv
I0403 15:57:00.522301 14879 net.cpp:91] Creating Layer loss2/conv
I0403 15:57:00.522320 14879 net.cpp:425] loss2/conv <- loss2/ave_pool
I0403 15:57:00.522341 14879 net.cpp:399] loss2/conv -> loss2/conv
I0403 15:57:00.524338 14879 net.cpp:141] Setting up loss2/conv
I0403 15:57:00.524371 14879 net.cpp:148] Top shape: 24 128 4 4 (49152)
I0403 15:57:00.524389 14879 net.cpp:156] Memory required for data: 1207926048
I0403 15:57:00.524408 14879 layer_factory.hpp:77] Creating layer loss2/relu_conv
I0403 15:57:00.524426 14879 net.cpp:91] Creating Layer loss2/relu_conv
I0403 15:57:00.524442 14879 net.cpp:425] loss2/relu_conv <- loss2/conv
I0403 15:57:00.524462 14879 net.cpp:386] loss2/relu_conv -> loss2/conv (in-place)
I0403 15:57:00.524758 14879 net.cpp:141] Setting up loss2/relu_conv
I0403 15:57:00.524788 14879 net.cpp:148] Top shape: 24 128 4 4 (49152)
I0403 15:57:00.524806 14879 net.cpp:156] Memory required for data: 1208122656
I0403 15:57:00.524822 14879 layer_factory.hpp:77] Creating layer loss2/fc
I0403 15:57:00.524842 14879 net.cpp:91] Creating Layer loss2/fc
I0403 15:57:00.524859 14879 net.cpp:425] loss2/fc <- loss2/conv
I0403 15:57:00.524881 14879 net.cpp:399] loss2/fc -> loss2/fc
I0403 15:57:00.543637 14879 net.cpp:141] Setting up loss2/fc
I0403 15:57:00.543678 14879 net.cpp:148] Top shape: 24 1024 (24576)
I0403 15:57:00.543694 14879 net.cpp:156] Memory required for data: 1208220960
I0403 15:57:00.543715 14879 layer_factory.hpp:77] Creating layer loss2/relu_fc
I0403 15:57:00.543735 14879 net.cpp:91] Creating Layer loss2/relu_fc
I0403 15:57:00.543753 14879 net.cpp:425] loss2/relu_fc <- loss2/fc
I0403 15:57:00.543772 14879 net.cpp:386] loss2/relu_fc -> loss2/fc (in-place)
I0403 15:57:00.544093 14879 net.cpp:141] Setting up loss2/relu_fc
I0403 15:57:00.544121 14879 net.cpp:148] Top shape: 24 1024 (24576)
I0403 15:57:00.544144 14879 net.cpp:156] Memory required for data: 1208319264
I0403 15:57:00.544160 14879 layer_factory.hpp:77] Creating layer loss2/drop_fc
I0403 15:57:00.544181 14879 net.cpp:91] Creating Layer loss2/drop_fc
I0403 15:57:00.544203 14879 net.cpp:425] loss2/drop_fc <- loss2/fc
I0403 15:57:00.544220 14879 net.cpp:386] loss2/drop_fc -> loss2/fc (in-place)
I0403 15:57:00.544275 14879 net.cpp:141] Setting up loss2/drop_fc
I0403 15:57:00.544301 14879 net.cpp:148] Top shape: 24 1024 (24576)
I0403 15:57:00.544315 14879 net.cpp:156] Memory required for data: 1208417568
I0403 15:57:00.544332 14879 layer_factory.hpp:77] Creating layer loss2/classifier_plantvillage
I0403 15:57:00.544351 14879 net.cpp:91] Creating Layer loss2/classifier_plantvillage
I0403 15:57:00.544375 14879 net.cpp:425] loss2/classifier_plantvillage <- loss2/fc
I0403 15:57:00.544399 14879 net.cpp:399] loss2/classifier_plantvillage -> loss2/classifier_plantvillage
I0403 15:57:00.544831 14879 net.cpp:141] Setting up loss2/classifier_plantvillage
I0403 15:57:00.544858 14879 net.cpp:148] Top shape: 24 38 (912)
I0403 15:57:00.544873 14879 net.cpp:156] Memory required for data: 1208421216
I0403 15:57:00.544927 14879 layer_factory.hpp:77] Creating layer loss2/classifier_plantvillage_loss2/classifier_plantvillage_0_split
I0403 15:57:00.544948 14879 net.cpp:91] Creating Layer loss2/classifier_plantvillage_loss2/classifier_plantvillage_0_split
I0403 15:57:00.544965 14879 net.cpp:425] loss2/classifier_plantvillage_loss2/classifier_plantvillage_0_split <- loss2/classifier_plantvillage
I0403 15:57:00.544986 14879 net.cpp:399] loss2/classifier_plantvillage_loss2/classifier_plantvillage_0_split -> loss2/classifier_plantvillage_loss2/classifier_plantvillage_0_split_0
I0403 15:57:00.545008 14879 net.cpp:399] loss2/classifier_plantvillage_loss2/classifier_plantvillage_0_split -> loss2/classifier_plantvillage_loss2/classifier_plantvillage_0_split_1
I0403 15:57:00.545029 14879 net.cpp:399] loss2/classifier_plantvillage_loss2/classifier_plantvillage_0_split -> loss2/classifier_plantvillage_loss2/classifier_plantvillage_0_split_2
I0403 15:57:00.545110 14879 net.cpp:141] Setting up loss2/classifier_plantvillage_loss2/classifier_plantvillage_0_split
I0403 15:57:00.545138 14879 net.cpp:148] Top shape: 24 38 (912)
I0403 15:57:00.545156 14879 net.cpp:148] Top shape: 24 38 (912)
I0403 15:57:00.545172 14879 net.cpp:148] Top shape: 24 38 (912)
I0403 15:57:00.545187 14879 net.cpp:156] Memory required for data: 1208432160
I0403 15:57:00.545203 14879 layer_factory.hpp:77] Creating layer inception_4e/1x1
I0403 15:57:00.545227 14879 net.cpp:91] Creating Layer inception_4e/1x1
I0403 15:57:00.545244 14879 net.cpp:425] inception_4e/1x1 <- inception_4d/output_inception_4d/output_0_split_1
I0403 15:57:00.545264 14879 net.cpp:399] inception_4e/1x1 -> inception_4e/1x1
I0403 15:57:00.547178 14879 net.cpp:141] Setting up inception_4e/1x1
I0403 15:57:00.547211 14879 net.cpp:148] Top shape: 24 256 14 14 (1204224)
I0403 15:57:00.547227 14879 net.cpp:156] Memory required for data: 1213249056
I0403 15:57:00.547246 14879 layer_factory.hpp:77] Creating layer inception_4e/relu_1x1
I0403 15:57:00.547266 14879 net.cpp:91] Creating Layer inception_4e/relu_1x1
I0403 15:57:00.547281 14879 net.cpp:425] inception_4e/relu_1x1 <- inception_4e/1x1
I0403 15:57:00.547302 14879 net.cpp:386] inception_4e/relu_1x1 -> inception_4e/1x1 (in-place)
I0403 15:57:00.547628 14879 net.cpp:141] Setting up inception_4e/relu_1x1
I0403 15:57:00.547670 14879 net.cpp:148] Top shape: 24 256 14 14 (1204224)
I0403 15:57:00.547685 14879 net.cpp:156] Memory required for data: 1218065952
I0403 15:57:00.547700 14879 layer_factory.hpp:77] Creating layer inception_4e/3x3_reduce
I0403 15:57:00.547724 14879 net.cpp:91] Creating Layer inception_4e/3x3_reduce
I0403 15:57:00.547742 14879 net.cpp:425] inception_4e/3x3_reduce <- inception_4d/output_inception_4d/output_0_split_2
I0403 15:57:00.547765 14879 net.cpp:399] inception_4e/3x3_reduce -> inception_4e/3x3_reduce
I0403 15:57:00.549973 14879 net.cpp:141] Setting up inception_4e/3x3_reduce
I0403 15:57:00.550004 14879 net.cpp:148] Top shape: 24 160 14 14 (752640)
I0403 15:57:00.550020 14879 net.cpp:156] Memory required for data: 1221076512
I0403 15:57:00.550041 14879 layer_factory.hpp:77] Creating layer inception_4e/relu_3x3_reduce
I0403 15:57:00.550061 14879 net.cpp:91] Creating Layer inception_4e/relu_3x3_reduce
I0403 15:57:00.550078 14879 net.cpp:425] inception_4e/relu_3x3_reduce <- inception_4e/3x3_reduce
I0403 15:57:00.550096 14879 net.cpp:386] inception_4e/relu_3x3_reduce -> inception_4e/3x3_reduce (in-place)
I0403 15:57:00.550293 14879 net.cpp:141] Setting up inception_4e/relu_3x3_reduce
I0403 15:57:00.550320 14879 net.cpp:148] Top shape: 24 160 14 14 (752640)
I0403 15:57:00.550336 14879 net.cpp:156] Memory required for data: 1224087072
I0403 15:57:00.550351 14879 layer_factory.hpp:77] Creating layer inception_4e/3x3
I0403 15:57:00.550374 14879 net.cpp:91] Creating Layer inception_4e/3x3
I0403 15:57:00.550393 14879 net.cpp:425] inception_4e/3x3 <- inception_4e/3x3_reduce
I0403 15:57:00.550416 14879 net.cpp:399] inception_4e/3x3 -> inception_4e/3x3
I0403 15:57:00.555693 14879 net.cpp:141] Setting up inception_4e/3x3
I0403 15:57:00.555737 14879 net.cpp:148] Top shape: 24 320 14 14 (1505280)
I0403 15:57:00.555753 14879 net.cpp:156] Memory required for data: 1230108192
I0403 15:57:00.555773 14879 layer_factory.hpp:77] Creating layer inception_4e/relu_3x3
I0403 15:57:00.555791 14879 net.cpp:91] Creating Layer inception_4e/relu_3x3
I0403 15:57:00.555809 14879 net.cpp:425] inception_4e/relu_3x3 <- inception_4e/3x3
I0403 15:57:00.555830 14879 net.cpp:386] inception_4e/relu_3x3 -> inception_4e/3x3 (in-place)
I0403 15:57:00.556145 14879 net.cpp:141] Setting up inception_4e/relu_3x3
I0403 15:57:00.556174 14879 net.cpp:148] Top shape: 24 320 14 14 (1505280)
I0403 15:57:00.556188 14879 net.cpp:156] Memory required for data: 1236129312
I0403 15:57:00.556205 14879 layer_factory.hpp:77] Creating layer inception_4e/5x5_reduce
I0403 15:57:00.556227 14879 net.cpp:91] Creating Layer inception_4e/5x5_reduce
I0403 15:57:00.556246 14879 net.cpp:425] inception_4e/5x5_reduce <- inception_4d/output_inception_4d/output_0_split_3
I0403 15:57:00.556268 14879 net.cpp:399] inception_4e/5x5_reduce -> inception_4e/5x5_reduce
I0403 15:57:00.557391 14879 net.cpp:141] Setting up inception_4e/5x5_reduce
I0403 15:57:00.557423 14879 net.cpp:148] Top shape: 24 32 14 14 (150528)
I0403 15:57:00.557440 14879 net.cpp:156] Memory required for data: 1236731424
I0403 15:57:00.557461 14879 layer_factory.hpp:77] Creating layer inception_4e/relu_5x5_reduce
I0403 15:57:00.557479 14879 net.cpp:91] Creating Layer inception_4e/relu_5x5_reduce
I0403 15:57:00.557494 14879 net.cpp:425] inception_4e/relu_5x5_reduce <- inception_4e/5x5_reduce
I0403 15:57:00.557512 14879 net.cpp:386] inception_4e/relu_5x5_reduce -> inception_4e/5x5_reduce (in-place)
I0403 15:57:00.557837 14879 net.cpp:141] Setting up inception_4e/relu_5x5_reduce
I0403 15:57:00.557867 14879 net.cpp:148] Top shape: 24 32 14 14 (150528)
I0403 15:57:00.557883 14879 net.cpp:156] Memory required for data: 1237333536
I0403 15:57:00.557899 14879 layer_factory.hpp:77] Creating layer inception_4e/5x5
I0403 15:57:00.557939 14879 net.cpp:91] Creating Layer inception_4e/5x5
I0403 15:57:00.557960 14879 net.cpp:425] inception_4e/5x5 <- inception_4e/5x5_reduce
I0403 15:57:00.557981 14879 net.cpp:399] inception_4e/5x5 -> inception_4e/5x5
I0403 15:57:00.559917 14879 net.cpp:141] Setting up inception_4e/5x5
I0403 15:57:00.559947 14879 net.cpp:148] Top shape: 24 128 14 14 (602112)
I0403 15:57:00.559962 14879 net.cpp:156] Memory required for data: 1239741984
I0403 15:57:00.559981 14879 layer_factory.hpp:77] Creating layer inception_4e/relu_5x5
I0403 15:57:00.560003 14879 net.cpp:91] Creating Layer inception_4e/relu_5x5
I0403 15:57:00.560021 14879 net.cpp:425] inception_4e/relu_5x5 <- inception_4e/5x5
I0403 15:57:00.560039 14879 net.cpp:386] inception_4e/relu_5x5 -> inception_4e/5x5 (in-place)
I0403 15:57:00.560248 14879 net.cpp:141] Setting up inception_4e/relu_5x5
I0403 15:57:00.560277 14879 net.cpp:148] Top shape: 24 128 14 14 (602112)
I0403 15:57:00.560293 14879 net.cpp:156] Memory required for data: 1242150432
I0403 15:57:00.560308 14879 layer_factory.hpp:77] Creating layer inception_4e/pool
I0403 15:57:00.560328 14879 net.cpp:91] Creating Layer inception_4e/pool
I0403 15:57:00.560343 14879 net.cpp:425] inception_4e/pool <- inception_4d/output_inception_4d/output_0_split_4
I0403 15:57:00.560364 14879 net.cpp:399] inception_4e/pool -> inception_4e/pool
I0403 15:57:00.560437 14879 net.cpp:141] Setting up inception_4e/pool
I0403 15:57:00.560462 14879 net.cpp:148] Top shape: 24 528 14 14 (2483712)
I0403 15:57:00.560477 14879 net.cpp:156] Memory required for data: 1252085280
I0403 15:57:00.560492 14879 layer_factory.hpp:77] Creating layer inception_4e/pool_proj
I0403 15:57:00.560514 14879 net.cpp:91] Creating Layer inception_4e/pool_proj
I0403 15:57:00.560533 14879 net.cpp:425] inception_4e/pool_proj <- inception_4e/pool
I0403 15:57:00.560554 14879 net.cpp:399] inception_4e/pool_proj -> inception_4e/pool_proj
I0403 15:57:00.562139 14879 net.cpp:141] Setting up inception_4e/pool_proj
I0403 15:57:00.562168 14879 net.cpp:148] Top shape: 24 128 14 14 (602112)
I0403 15:57:00.562201 14879 net.cpp:156] Memory required for data: 1254493728
I0403 15:57:00.562222 14879 layer_factory.hpp:77] Creating layer inception_4e/relu_pool_proj
I0403 15:57:00.562245 14879 net.cpp:91] Creating Layer inception_4e/relu_pool_proj
I0403 15:57:00.562263 14879 net.cpp:425] inception_4e/relu_pool_proj <- inception_4e/pool_proj
I0403 15:57:00.562283 14879 net.cpp:386] inception_4e/relu_pool_proj -> inception_4e/pool_proj (in-place)
I0403 15:57:00.562588 14879 net.cpp:141] Setting up inception_4e/relu_pool_proj
I0403 15:57:00.562615 14879 net.cpp:148] Top shape: 24 128 14 14 (602112)
I0403 15:57:00.562631 14879 net.cpp:156] Memory required for data: 1256902176
I0403 15:57:00.562646 14879 layer_factory.hpp:77] Creating layer inception_4e/output
I0403 15:57:00.562667 14879 net.cpp:91] Creating Layer inception_4e/output
I0403 15:57:00.562685 14879 net.cpp:425] inception_4e/output <- inception_4e/1x1
I0403 15:57:00.562703 14879 net.cpp:425] inception_4e/output <- inception_4e/3x3
I0403 15:57:00.562721 14879 net.cpp:425] inception_4e/output <- inception_4e/5x5
I0403 15:57:00.562736 14879 net.cpp:425] inception_4e/output <- inception_4e/pool_proj
I0403 15:57:00.562753 14879 net.cpp:399] inception_4e/output -> inception_4e/output
I0403 15:57:00.562808 14879 net.cpp:141] Setting up inception_4e/output
I0403 15:57:00.562832 14879 net.cpp:148] Top shape: 24 832 14 14 (3913728)
I0403 15:57:00.562847 14879 net.cpp:156] Memory required for data: 1272557088
I0403 15:57:00.562862 14879 layer_factory.hpp:77] Creating layer pool4/3x3_s2
I0403 15:57:00.562880 14879 net.cpp:91] Creating Layer pool4/3x3_s2
I0403 15:57:00.562897 14879 net.cpp:425] pool4/3x3_s2 <- inception_4e/output
I0403 15:57:00.562918 14879 net.cpp:399] pool4/3x3_s2 -> pool4/3x3_s2
I0403 15:57:00.562990 14879 net.cpp:141] Setting up pool4/3x3_s2
I0403 15:57:00.563017 14879 net.cpp:148] Top shape: 24 832 7 7 (978432)
I0403 15:57:00.563032 14879 net.cpp:156] Memory required for data: 1276470816
I0403 15:57:00.563047 14879 layer_factory.hpp:77] Creating layer pool4/3x3_s2_pool4/3x3_s2_0_split
I0403 15:57:00.563065 14879 net.cpp:91] Creating Layer pool4/3x3_s2_pool4/3x3_s2_0_split
I0403 15:57:00.563081 14879 net.cpp:425] pool4/3x3_s2_pool4/3x3_s2_0_split <- pool4/3x3_s2
I0403 15:57:00.563098 14879 net.cpp:399] pool4/3x3_s2_pool4/3x3_s2_0_split -> pool4/3x3_s2_pool4/3x3_s2_0_split_0
I0403 15:57:00.563122 14879 net.cpp:399] pool4/3x3_s2_pool4/3x3_s2_0_split -> pool4/3x3_s2_pool4/3x3_s2_0_split_1
I0403 15:57:00.563155 14879 net.cpp:399] pool4/3x3_s2_pool4/3x3_s2_0_split -> pool4/3x3_s2_pool4/3x3_s2_0_split_2
I0403 15:57:00.563177 14879 net.cpp:399] pool4/3x3_s2_pool4/3x3_s2_0_split -> pool4/3x3_s2_pool4/3x3_s2_0_split_3
I0403 15:57:00.563274 14879 net.cpp:141] Setting up pool4/3x3_s2_pool4/3x3_s2_0_split
I0403 15:57:00.563299 14879 net.cpp:148] Top shape: 24 832 7 7 (978432)
I0403 15:57:00.563316 14879 net.cpp:148] Top shape: 24 832 7 7 (978432)
I0403 15:57:00.563333 14879 net.cpp:148] Top shape: 24 832 7 7 (978432)
I0403 15:57:00.563349 14879 net.cpp:148] Top shape: 24 832 7 7 (978432)
I0403 15:57:00.563374 14879 net.cpp:156] Memory required for data: 1292125728
I0403 15:57:00.563390 14879 layer_factory.hpp:77] Creating layer inception_5a/1x1
I0403 15:57:00.563412 14879 net.cpp:91] Creating Layer inception_5a/1x1
I0403 15:57:00.563431 14879 net.cpp:425] inception_5a/1x1 <- pool4/3x3_s2_pool4/3x3_s2_0_split_0
I0403 15:57:00.563455 14879 net.cpp:399] inception_5a/1x1 -> inception_5a/1x1
I0403 15:57:00.566447 14879 net.cpp:141] Setting up inception_5a/1x1
I0403 15:57:00.566476 14879 net.cpp:148] Top shape: 24 256 7 7 (301056)
I0403 15:57:00.566493 14879 net.cpp:156] Memory required for data: 1293329952
I0403 15:57:00.566511 14879 layer_factory.hpp:77] Creating layer inception_5a/relu_1x1
I0403 15:57:00.566532 14879 net.cpp:91] Creating Layer inception_5a/relu_1x1
I0403 15:57:00.566550 14879 net.cpp:425] inception_5a/relu_1x1 <- inception_5a/1x1
I0403 15:57:00.566568 14879 net.cpp:386] inception_5a/relu_1x1 -> inception_5a/1x1 (in-place)
I0403 15:57:00.566900 14879 net.cpp:141] Setting up inception_5a/relu_1x1
I0403 15:57:00.566927 14879 net.cpp:148] Top shape: 24 256 7 7 (301056)
I0403 15:57:00.566943 14879 net.cpp:156] Memory required for data: 1294534176
I0403 15:57:00.566958 14879 layer_factory.hpp:77] Creating layer inception_5a/3x3_reduce
I0403 15:57:00.566983 14879 net.cpp:91] Creating Layer inception_5a/3x3_reduce
I0403 15:57:00.567003 14879 net.cpp:425] inception_5a/3x3_reduce <- pool4/3x3_s2_pool4/3x3_s2_0_split_1
I0403 15:57:00.567023 14879 net.cpp:399] inception_5a/3x3_reduce -> inception_5a/3x3_reduce
I0403 15:57:00.569619 14879 net.cpp:141] Setting up inception_5a/3x3_reduce
I0403 15:57:00.569663 14879 net.cpp:148] Top shape: 24 160 7 7 (188160)
I0403 15:57:00.569679 14879 net.cpp:156] Memory required for data: 1295286816
I0403 15:57:00.569696 14879 layer_factory.hpp:77] Creating layer inception_5a/relu_3x3_reduce
I0403 15:57:00.569718 14879 net.cpp:91] Creating Layer inception_5a/relu_3x3_reduce
I0403 15:57:00.569736 14879 net.cpp:425] inception_5a/relu_3x3_reduce <- inception_5a/3x3_reduce
I0403 15:57:00.569753 14879 net.cpp:386] inception_5a/relu_3x3_reduce -> inception_5a/3x3_reduce (in-place)
I0403 15:57:00.569948 14879 net.cpp:141] Setting up inception_5a/relu_3x3_reduce
I0403 15:57:00.569975 14879 net.cpp:148] Top shape: 24 160 7 7 (188160)
I0403 15:57:00.569990 14879 net.cpp:156] Memory required for data: 1296039456
I0403 15:57:00.570006 14879 layer_factory.hpp:77] Creating layer inception_5a/3x3
I0403 15:57:00.570031 14879 net.cpp:91] Creating Layer inception_5a/3x3
I0403 15:57:00.570050 14879 net.cpp:425] inception_5a/3x3 <- inception_5a/3x3_reduce
I0403 15:57:00.570070 14879 net.cpp:399] inception_5a/3x3 -> inception_5a/3x3
I0403 15:57:00.575443 14879 net.cpp:141] Setting up inception_5a/3x3
I0403 15:57:00.575474 14879 net.cpp:148] Top shape: 24 320 7 7 (376320)
I0403 15:57:00.575495 14879 net.cpp:156] Memory required for data: 1297544736
I0403 15:57:00.575515 14879 layer_factory.hpp:77] Creating layer inception_5a/relu_3x3
I0403 15:57:00.575533 14879 net.cpp:91] Creating Layer inception_5a/relu_3x3
I0403 15:57:00.575551 14879 net.cpp:425] inception_5a/relu_3x3 <- inception_5a/3x3
I0403 15:57:00.575570 14879 net.cpp:386] inception_5a/relu_3x3 -> inception_5a/3x3 (in-place)
I0403 15:57:00.575886 14879 net.cpp:141] Setting up inception_5a/relu_3x3
I0403 15:57:00.575913 14879 net.cpp:148] Top shape: 24 320 7 7 (376320)
I0403 15:57:00.575933 14879 net.cpp:156] Memory required for data: 1299050016
I0403 15:57:00.575949 14879 layer_factory.hpp:77] Creating layer inception_5a/5x5_reduce
I0403 15:57:00.575971 14879 net.cpp:91] Creating Layer inception_5a/5x5_reduce
I0403 15:57:00.575989 14879 net.cpp:425] inception_5a/5x5_reduce <- pool4/3x3_s2_pool4/3x3_s2_0_split_2
I0403 15:57:00.576014 14879 net.cpp:399] inception_5a/5x5_reduce -> inception_5a/5x5_reduce
I0403 15:57:00.577280 14879 net.cpp:141] Setting up inception_5a/5x5_reduce
I0403 15:57:00.577313 14879 net.cpp:148] Top shape: 24 32 7 7 (37632)
I0403 15:57:00.577332 14879 net.cpp:156] Memory required for data: 1299200544
I0403 15:57:00.577353 14879 layer_factory.hpp:77] Creating layer inception_5a/relu_5x5_reduce
I0403 15:57:00.577371 14879 net.cpp:91] Creating Layer inception_5a/relu_5x5_reduce
I0403 15:57:00.577389 14879 net.cpp:425] inception_5a/relu_5x5_reduce <- inception_5a/5x5_reduce
I0403 15:57:00.577409 14879 net.cpp:386] inception_5a/relu_5x5_reduce -> inception_5a/5x5_reduce (in-place)
I0403 15:57:00.577728 14879 net.cpp:141] Setting up inception_5a/relu_5x5_reduce
I0403 15:57:00.577757 14879 net.cpp:148] Top shape: 24 32 7 7 (37632)
I0403 15:57:00.577775 14879 net.cpp:156] Memory required for data: 1299351072
I0403 15:57:00.577790 14879 layer_factory.hpp:77] Creating layer inception_5a/5x5
I0403 15:57:00.577816 14879 net.cpp:91] Creating Layer inception_5a/5x5
I0403 15:57:00.577834 14879 net.cpp:425] inception_5a/5x5 <- inception_5a/5x5_reduce
I0403 15:57:00.577854 14879 net.cpp:399] inception_5a/5x5 -> inception_5a/5x5
I0403 15:57:00.579699 14879 net.cpp:141] Setting up inception_5a/5x5
I0403 15:57:00.579742 14879 net.cpp:148] Top shape: 24 128 7 7 (150528)
I0403 15:57:00.579761 14879 net.cpp:156] Memory required for data: 1299953184
I0403 15:57:00.579780 14879 layer_factory.hpp:77] Creating layer inception_5a/relu_5x5
I0403 15:57:00.579803 14879 net.cpp:91] Creating Layer inception_5a/relu_5x5
I0403 15:57:00.579821 14879 net.cpp:425] inception_5a/relu_5x5 <- inception_5a/5x5
I0403 15:57:00.579840 14879 net.cpp:386] inception_5a/relu_5x5 -> inception_5a/5x5 (in-place)
I0403 15:57:00.580045 14879 net.cpp:141] Setting up inception_5a/relu_5x5
I0403 15:57:00.580075 14879 net.cpp:148] Top shape: 24 128 7 7 (150528)
I0403 15:57:00.580091 14879 net.cpp:156] Memory required for data: 1300555296
I0403 15:57:00.580107 14879 layer_factory.hpp:77] Creating layer inception_5a/pool
I0403 15:57:00.580129 14879 net.cpp:91] Creating Layer inception_5a/pool
I0403 15:57:00.580149 14879 net.cpp:425] inception_5a/pool <- pool4/3x3_s2_pool4/3x3_s2_0_split_3
I0403 15:57:00.580171 14879 net.cpp:399] inception_5a/pool -> inception_5a/pool
I0403 15:57:00.580246 14879 net.cpp:141] Setting up inception_5a/pool
I0403 15:57:00.580274 14879 net.cpp:148] Top shape: 24 832 7 7 (978432)
I0403 15:57:00.580291 14879 net.cpp:156] Memory required for data: 1304469024
I0403 15:57:00.580307 14879 layer_factory.hpp:77] Creating layer inception_5a/pool_proj
I0403 15:57:00.580327 14879 net.cpp:91] Creating Layer inception_5a/pool_proj
I0403 15:57:00.580344 14879 net.cpp:425] inception_5a/pool_proj <- inception_5a/pool
I0403 15:57:00.580366 14879 net.cpp:399] inception_5a/pool_proj -> inception_5a/pool_proj
I0403 15:57:00.582799 14879 net.cpp:141] Setting up inception_5a/pool_proj
I0403 15:57:00.582831 14879 net.cpp:148] Top shape: 24 128 7 7 (150528)
I0403 15:57:00.582849 14879 net.cpp:156] Memory required for data: 1305071136
I0403 15:57:00.582869 14879 layer_factory.hpp:77] Creating layer inception_5a/relu_pool_proj
I0403 15:57:00.582890 14879 net.cpp:91] Creating Layer inception_5a/relu_pool_proj
I0403 15:57:00.582908 14879 net.cpp:425] inception_5a/relu_pool_proj <- inception_5a/pool_proj
I0403 15:57:00.582927 14879 net.cpp:386] inception_5a/relu_pool_proj -> inception_5a/pool_proj (in-place)
I0403 15:57:00.583256 14879 net.cpp:141] Setting up inception_5a/relu_pool_proj
I0403 15:57:00.583286 14879 net.cpp:148] Top shape: 24 128 7 7 (150528)
I0403 15:57:00.583302 14879 net.cpp:156] Memory required for data: 1305673248
I0403 15:57:00.583317 14879 layer_factory.hpp:77] Creating layer inception_5a/output
I0403 15:57:00.583335 14879 net.cpp:91] Creating Layer inception_5a/output
I0403 15:57:00.583351 14879 net.cpp:425] inception_5a/output <- inception_5a/1x1
I0403 15:57:00.583371 14879 net.cpp:425] inception_5a/output <- inception_5a/3x3
I0403 15:57:00.583389 14879 net.cpp:425] inception_5a/output <- inception_5a/5x5
I0403 15:57:00.583407 14879 net.cpp:425] inception_5a/output <- inception_5a/pool_proj
I0403 15:57:00.583425 14879 net.cpp:399] inception_5a/output -> inception_5a/output
I0403 15:57:00.583480 14879 net.cpp:141] Setting up inception_5a/output
I0403 15:57:00.583508 14879 net.cpp:148] Top shape: 24 832 7 7 (978432)
I0403 15:57:00.583523 14879 net.cpp:156] Memory required for data: 1309586976
I0403 15:57:00.583537 14879 layer_factory.hpp:77] Creating layer inception_5a/output_inception_5a/output_0_split
I0403 15:57:00.583555 14879 net.cpp:91] Creating Layer inception_5a/output_inception_5a/output_0_split
I0403 15:57:00.583571 14879 net.cpp:425] inception_5a/output_inception_5a/output_0_split <- inception_5a/output
I0403 15:57:00.583591 14879 net.cpp:399] inception_5a/output_inception_5a/output_0_split -> inception_5a/output_inception_5a/output_0_split_0
I0403 15:57:00.583614 14879 net.cpp:399] inception_5a/output_inception_5a/output_0_split -> inception_5a/output_inception_5a/output_0_split_1
I0403 15:57:00.583636 14879 net.cpp:399] inception_5a/output_inception_5a/output_0_split -> inception_5a/output_inception_5a/output_0_split_2
I0403 15:57:00.583658 14879 net.cpp:399] inception_5a/output_inception_5a/output_0_split -> inception_5a/output_inception_5a/output_0_split_3
I0403 15:57:00.583781 14879 net.cpp:141] Setting up inception_5a/output_inception_5a/output_0_split
I0403 15:57:00.583808 14879 net.cpp:148] Top shape: 24 832 7 7 (978432)
I0403 15:57:00.583827 14879 net.cpp:148] Top shape: 24 832 7 7 (978432)
I0403 15:57:00.583843 14879 net.cpp:148] Top shape: 24 832 7 7 (978432)
I0403 15:57:00.583859 14879 net.cpp:148] Top shape: 24 832 7 7 (978432)
I0403 15:57:00.583874 14879 net.cpp:156] Memory required for data: 1325241888
I0403 15:57:00.583889 14879 layer_factory.hpp:77] Creating layer inception_5b/1x1
I0403 15:57:00.583912 14879 net.cpp:91] Creating Layer inception_5b/1x1
I0403 15:57:00.583933 14879 net.cpp:425] inception_5b/1x1 <- inception_5a/output_inception_5a/output_0_split_0
I0403 15:57:00.583953 14879 net.cpp:399] inception_5b/1x1 -> inception_5b/1x1
I0403 15:57:00.587972 14879 net.cpp:141] Setting up inception_5b/1x1
I0403 15:57:00.588006 14879 net.cpp:148] Top shape: 24 384 7 7 (451584)
I0403 15:57:00.588021 14879 net.cpp:156] Memory required for data: 1327048224
I0403 15:57:00.588042 14879 layer_factory.hpp:77] Creating layer inception_5b/relu_1x1
I0403 15:57:00.588063 14879 net.cpp:91] Creating Layer inception_5b/relu_1x1
I0403 15:57:00.588081 14879 net.cpp:425] inception_5b/relu_1x1 <- inception_5b/1x1
I0403 15:57:00.588100 14879 net.cpp:386] inception_5b/relu_1x1 -> inception_5b/1x1 (in-place)
I0403 15:57:00.588428 14879 net.cpp:141] Setting up inception_5b/relu_1x1
I0403 15:57:00.588456 14879 net.cpp:148] Top shape: 24 384 7 7 (451584)
I0403 15:57:00.588472 14879 net.cpp:156] Memory required for data: 1328854560
I0403 15:57:00.588490 14879 layer_factory.hpp:77] Creating layer inception_5b/3x3_reduce
I0403 15:57:00.588513 14879 net.cpp:91] Creating Layer inception_5b/3x3_reduce
I0403 15:57:00.588532 14879 net.cpp:425] inception_5b/3x3_reduce <- inception_5a/output_inception_5a/output_0_split_1
I0403 15:57:00.588556 14879 net.cpp:399] inception_5b/3x3_reduce -> inception_5b/3x3_reduce
I0403 15:57:00.591411 14879 net.cpp:141] Setting up inception_5b/3x3_reduce
I0403 15:57:00.591444 14879 net.cpp:148] Top shape: 24 192 7 7 (225792)
I0403 15:57:00.591460 14879 net.cpp:156] Memory required for data: 1329757728
I0403 15:57:00.591481 14879 layer_factory.hpp:77] Creating layer inception_5b/relu_3x3_reduce
I0403 15:57:00.591502 14879 net.cpp:91] Creating Layer inception_5b/relu_3x3_reduce
I0403 15:57:00.591521 14879 net.cpp:425] inception_5b/relu_3x3_reduce <- inception_5b/3x3_reduce
I0403 15:57:00.591539 14879 net.cpp:386] inception_5b/relu_3x3_reduce -> inception_5b/3x3_reduce (in-place)
I0403 15:57:00.591745 14879 net.cpp:141] Setting up inception_5b/relu_3x3_reduce
I0403 15:57:00.591778 14879 net.cpp:148] Top shape: 24 192 7 7 (225792)
I0403 15:57:00.591794 14879 net.cpp:156] Memory required for data: 1330660896
I0403 15:57:00.591809 14879 layer_factory.hpp:77] Creating layer inception_5b/3x3
I0403 15:57:00.591832 14879 net.cpp:91] Creating Layer inception_5b/3x3
I0403 15:57:00.591851 14879 net.cpp:425] inception_5b/3x3 <- inception_5b/3x3_reduce
I0403 15:57:00.591871 14879 net.cpp:399] inception_5b/3x3 -> inception_5b/3x3
I0403 15:57:00.599030 14879 net.cpp:141] Setting up inception_5b/3x3
I0403 15:57:00.599062 14879 net.cpp:148] Top shape: 24 384 7 7 (451584)
I0403 15:57:00.599079 14879 net.cpp:156] Memory required for data: 1332467232
I0403 15:57:00.599099 14879 layer_factory.hpp:77] Creating layer inception_5b/relu_3x3
I0403 15:57:00.599122 14879 net.cpp:91] Creating Layer inception_5b/relu_3x3
I0403 15:57:00.599145 14879 net.cpp:425] inception_5b/relu_3x3 <- inception_5b/3x3
I0403 15:57:00.599165 14879 net.cpp:386] inception_5b/relu_3x3 -> inception_5b/3x3 (in-place)
I0403 15:57:00.599486 14879 net.cpp:141] Setting up inception_5b/relu_3x3
I0403 15:57:00.599514 14879 net.cpp:148] Top shape: 24 384 7 7 (451584)
I0403 15:57:00.599530 14879 net.cpp:156] Memory required for data: 1334273568
I0403 15:57:00.599545 14879 layer_factory.hpp:77] Creating layer inception_5b/5x5_reduce
I0403 15:57:00.599587 14879 net.cpp:91] Creating Layer inception_5b/5x5_reduce
I0403 15:57:00.599609 14879 net.cpp:425] inception_5b/5x5_reduce <- inception_5a/output_inception_5a/output_0_split_2
I0403 15:57:00.599633 14879 net.cpp:399] inception_5b/5x5_reduce -> inception_5b/5x5_reduce
I0403 15:57:00.601002 14879 net.cpp:141] Setting up inception_5b/5x5_reduce
I0403 15:57:00.601032 14879 net.cpp:148] Top shape: 24 48 7 7 (56448)
I0403 15:57:00.601048 14879 net.cpp:156] Memory required for data: 1334499360
I0403 15:57:00.601068 14879 layer_factory.hpp:77] Creating layer inception_5b/relu_5x5_reduce
I0403 15:57:00.601090 14879 net.cpp:91] Creating Layer inception_5b/relu_5x5_reduce
I0403 15:57:00.601109 14879 net.cpp:425] inception_5b/relu_5x5_reduce <- inception_5b/5x5_reduce
I0403 15:57:00.601132 14879 net.cpp:386] inception_5b/relu_5x5_reduce -> inception_5b/5x5_reduce (in-place)
I0403 15:57:00.601534 14879 net.cpp:141] Setting up inception_5b/relu_5x5_reduce
I0403 15:57:00.601563 14879 net.cpp:148] Top shape: 24 48 7 7 (56448)
I0403 15:57:00.601578 14879 net.cpp:156] Memory required for data: 1334725152
I0403 15:57:00.601594 14879 layer_factory.hpp:77] Creating layer inception_5b/5x5
I0403 15:57:00.601616 14879 net.cpp:91] Creating Layer inception_5b/5x5
I0403 15:57:00.601634 14879 net.cpp:425] inception_5b/5x5 <- inception_5b/5x5_reduce
I0403 15:57:00.601654 14879 net.cpp:399] inception_5b/5x5 -> inception_5b/5x5
I0403 15:57:00.603858 14879 net.cpp:141] Setting up inception_5b/5x5
I0403 15:57:00.603889 14879 net.cpp:148] Top shape: 24 128 7 7 (150528)
I0403 15:57:00.603906 14879 net.cpp:156] Memory required for data: 1335327264
I0403 15:57:00.603926 14879 layer_factory.hpp:77] Creating layer inception_5b/relu_5x5
I0403 15:57:00.603947 14879 net.cpp:91] Creating Layer inception_5b/relu_5x5
I0403 15:57:00.603965 14879 net.cpp:425] inception_5b/relu_5x5 <- inception_5b/5x5
I0403 15:57:00.603983 14879 net.cpp:386] inception_5b/relu_5x5 -> inception_5b/5x5 (in-place)
I0403 15:57:00.604198 14879 net.cpp:141] Setting up inception_5b/relu_5x5
I0403 15:57:00.604226 14879 net.cpp:148] Top shape: 24 128 7 7 (150528)
I0403 15:57:00.604241 14879 net.cpp:156] Memory required for data: 1335929376
I0403 15:57:00.604257 14879 layer_factory.hpp:77] Creating layer inception_5b/pool
I0403 15:57:00.604275 14879 net.cpp:91] Creating Layer inception_5b/pool
I0403 15:57:00.604292 14879 net.cpp:425] inception_5b/pool <- inception_5a/output_inception_5a/output_0_split_3
I0403 15:57:00.604315 14879 net.cpp:399] inception_5b/pool -> inception_5b/pool
I0403 15:57:00.604393 14879 net.cpp:141] Setting up inception_5b/pool
I0403 15:57:00.604418 14879 net.cpp:148] Top shape: 24 832 7 7 (978432)
I0403 15:57:00.604434 14879 net.cpp:156] Memory required for data: 1339843104
I0403 15:57:00.604449 14879 layer_factory.hpp:77] Creating layer inception_5b/pool_proj
I0403 15:57:00.604475 14879 net.cpp:91] Creating Layer inception_5b/pool_proj
I0403 15:57:00.604493 14879 net.cpp:425] inception_5b/pool_proj <- inception_5b/pool
I0403 15:57:00.604512 14879 net.cpp:399] inception_5b/pool_proj -> inception_5b/pool_proj
I0403 15:57:00.606966 14879 net.cpp:141] Setting up inception_5b/pool_proj
I0403 15:57:00.606997 14879 net.cpp:148] Top shape: 24 128 7 7 (150528)
I0403 15:57:00.607014 14879 net.cpp:156] Memory required for data: 1340445216
I0403 15:57:00.607033 14879 layer_factory.hpp:77] Creating layer inception_5b/relu_pool_proj
I0403 15:57:00.607055 14879 net.cpp:91] Creating Layer inception_5b/relu_pool_proj
I0403 15:57:00.607074 14879 net.cpp:425] inception_5b/relu_pool_proj <- inception_5b/pool_proj
I0403 15:57:00.607092 14879 net.cpp:386] inception_5b/relu_pool_proj -> inception_5b/pool_proj (in-place)
I0403 15:57:00.607417 14879 net.cpp:141] Setting up inception_5b/relu_pool_proj
I0403 15:57:00.607446 14879 net.cpp:148] Top shape: 24 128 7 7 (150528)
I0403 15:57:00.607461 14879 net.cpp:156] Memory required for data: 1341047328
I0403 15:57:00.607477 14879 layer_factory.hpp:77] Creating layer inception_5b/output
I0403 15:57:00.607498 14879 net.cpp:91] Creating Layer inception_5b/output
I0403 15:57:00.607530 14879 net.cpp:425] inception_5b/output <- inception_5b/1x1
I0403 15:57:00.607550 14879 net.cpp:425] inception_5b/output <- inception_5b/3x3
I0403 15:57:00.607569 14879 net.cpp:425] inception_5b/output <- inception_5b/5x5
I0403 15:57:00.607586 14879 net.cpp:425] inception_5b/output <- inception_5b/pool_proj
I0403 15:57:00.607605 14879 net.cpp:399] inception_5b/output -> inception_5b/output
I0403 15:57:00.607663 14879 net.cpp:141] Setting up inception_5b/output
I0403 15:57:00.607689 14879 net.cpp:148] Top shape: 24 1024 7 7 (1204224)
I0403 15:57:00.607705 14879 net.cpp:156] Memory required for data: 1345864224
I0403 15:57:00.607722 14879 layer_factory.hpp:77] Creating layer pool5/7x7_s1
I0403 15:57:00.607739 14879 net.cpp:91] Creating Layer pool5/7x7_s1
I0403 15:57:00.607755 14879 net.cpp:425] pool5/7x7_s1 <- inception_5b/output
I0403 15:57:00.607776 14879 net.cpp:399] pool5/7x7_s1 -> pool5/7x7_s1
I0403 15:57:00.608009 14879 net.cpp:141] Setting up pool5/7x7_s1
I0403 15:57:00.608039 14879 net.cpp:148] Top shape: 24 1024 1 1 (24576)
I0403 15:57:00.608057 14879 net.cpp:156] Memory required for data: 1345962528
I0403 15:57:00.608073 14879 layer_factory.hpp:77] Creating layer pool5/drop_7x7_s1
I0403 15:57:00.608091 14879 net.cpp:91] Creating Layer pool5/drop_7x7_s1
I0403 15:57:00.608109 14879 net.cpp:425] pool5/drop_7x7_s1 <- pool5/7x7_s1
I0403 15:57:00.608131 14879 net.cpp:386] pool5/drop_7x7_s1 -> pool5/7x7_s1 (in-place)
I0403 15:57:00.608188 14879 net.cpp:141] Setting up pool5/drop_7x7_s1
I0403 15:57:00.608214 14879 net.cpp:148] Top shape: 24 1024 1 1 (24576)
I0403 15:57:00.608229 14879 net.cpp:156] Memory required for data: 1346060832
I0403 15:57:00.608244 14879 layer_factory.hpp:77] Creating layer loss3/classifier_plantvillage
I0403 15:57:00.608270 14879 net.cpp:91] Creating Layer loss3/classifier_plantvillage
I0403 15:57:00.608289 14879 net.cpp:425] loss3/classifier_plantvillage <- pool5/7x7_s1
I0403 15:57:00.608309 14879 net.cpp:399] loss3/classifier_plantvillage -> loss3/classifier_plantvillage
I0403 15:57:00.608767 14879 net.cpp:141] Setting up loss3/classifier_plantvillage
I0403 15:57:00.608793 14879 net.cpp:148] Top shape: 24 38 (912)
I0403 15:57:00.608808 14879 net.cpp:156] Memory required for data: 1346064480
I0403 15:57:00.608826 14879 layer_factory.hpp:77] Creating layer loss3/classifier_plantvillage_loss3/classifier_plantvillage_0_split
I0403 15:57:00.608846 14879 net.cpp:91] Creating Layer loss3/classifier_plantvillage_loss3/classifier_plantvillage_0_split
I0403 15:57:00.608863 14879 net.cpp:425] loss3/classifier_plantvillage_loss3/classifier_plantvillage_0_split <- loss3/classifier_plantvillage
I0403 15:57:00.608886 14879 net.cpp:399] loss3/classifier_plantvillage_loss3/classifier_plantvillage_0_split -> loss3/classifier_plantvillage_loss3/classifier_plantvillage_0_split_0
I0403 15:57:00.608906 14879 net.cpp:399] loss3/classifier_plantvillage_loss3/classifier_plantvillage_0_split -> loss3/classifier_plantvillage_loss3/classifier_plantvillage_0_split_1
I0403 15:57:00.608928 14879 net.cpp:399] loss3/classifier_plantvillage_loss3/classifier_plantvillage_0_split -> loss3/classifier_plantvillage_loss3/classifier_plantvillage_0_split_2
I0403 15:57:00.608949 14879 net.cpp:399] loss3/classifier_plantvillage_loss3/classifier_plantvillage_0_split -> loss3/classifier_plantvillage_loss3/classifier_plantvillage_0_split_3
I0403 15:57:00.609056 14879 net.cpp:141] Setting up loss3/classifier_plantvillage_loss3/classifier_plantvillage_0_split
I0403 15:57:00.609092 14879 net.cpp:148] Top shape: 24 38 (912)
I0403 15:57:00.609112 14879 net.cpp:148] Top shape: 24 38 (912)
I0403 15:57:00.609132 14879 net.cpp:148] Top shape: 24 38 (912)
I0403 15:57:00.609148 14879 net.cpp:148] Top shape: 24 38 (912)
I0403 15:57:00.609163 14879 net.cpp:156] Memory required for data: 1346079072
I0403 15:57:00.609177 14879 layer_factory.hpp:77] Creating layer loss1/loss
I0403 15:57:00.609201 14879 net.cpp:91] Creating Layer loss1/loss
I0403 15:57:00.609220 14879 net.cpp:425] loss1/loss <- loss1/classifier_plantvillage_loss1/classifier_plantvillage_0_split_0
I0403 15:57:00.609256 14879 net.cpp:425] loss1/loss <- label_data_1_split_0
…
