…
I0403 15:42:06.345244 14126 net.cpp:313] The NetState phase (1) differed from the phase (0) specified by a rule in layer data
I0403 15:42:06.346401 14126 net.cpp:49] Initializing net from parameters: 
state {
  phase: TEST
}
layer {
  name: "data"
  type: "Data"
  top: "data"
  top: "label"
  include {
    phase: TEST
  }
  transform_param {
    mirror: false
    crop_size: 224
    mean_file: "/home/mohanty/data/final_dataset/lmdb/color-80-20/mean.binaryproto"
  }
  data_param {
    source: "/home/mohanty/data/final_dataset/lmdb/color-80-20/test_db"
    batch_size: 24
    backend: LMDB
  }
}
layer {
  name: "conv1/7x7_s2"
  type: "Convolution"
  bottom: "data"
  top: "conv1/7x7_s2"
  param {
    lr_mult: 1
    decay_mult: 1
  }
  param {
    lr_mult: 2
    decay_mult: 0
  }
  convolution_param {
    num_output: 64
    pad: 3
    kernel_size: 7
    stride: 2
    weight_filler {
      type: "xavier"
      std: 0.1
    }
    bias_filler {
      type: "constant"
      value: 0.2
    }
  }
}
layer {
  name: "conv1/relu_7x7"
  type: "ReLU"
  bottom: "conv1/7x7_s2"
  top: "conv1/7x7_s2"
}
layer {
  name: "pool1/3x3_s2"
  type: "Pooling"
  bottom: "conv1/7x7_s2"
  top: "pool1/3x3_s2"
  pooling_param {
    pool: MAX
    kernel_size: 3
    stride: 2
  }
}
layer {
  name: "pool1/norm1"
  type: "LRN"
  bottom: "pool1/3x3_s2"
  top: "pool1/norm1"
  lrn_param {
    local_size: 5
    alpha: 0.0001
    beta: 0.75
  }
}
layer {
  name: "conv2/3x3_reduce"
  type: "Convolution"
  bottom: "pool1/norm1"
  top: "conv2/3x3_reduce"
  param {
    lr_mult: 1
    decay_mult: 1
  }
  param {
    lr_mult: 2
    decay_mult: 0
  }
  convolution_param {
    num_output: 64
    kernel_size: 1
    weight_filler {
      type: "xavier"
      std: 0.1
    }
    bias_filler {
      type: "constant"
      value: 0.2
    }
  }
}
layer {
  name: "conv2/relu_3x3_reduce"
  type: "ReLU"
  bottom: "conv2/3x3_reduce"
  top: "conv2/3x3_reduce"
}
layer {
  name: "conv2/3x3"
  type: "Convolution"
  bottom: "conv2/3x3_reduce"
  top: "conv2/3x3"
  param {
    lr_mult: 1
    decay_mult: 1
  }
  param {
    lr_mult: 2
    decay_mult: 0
  }
  convolution_param {
    num_output: 192
    pad: 1
    kernel_size: 3
    weight_filler {
      type: "xavier"
      std: 0.03
    }
    bias_filler {
      type: "constant"
      value: 0.2
    }
  }
}
layer {
  name: "conv2/relu_3x3"
  type: "ReLU"
  bottom: "conv2/3x3"
  top: "conv2/3x3"
}
layer {
  name: "conv2/norm2"
  type: "LRN"
  bottom: "conv2/3x3"
  top: "conv2/norm2"
  lrn_param {
    local_size: 5
    alpha: 0.0001
    beta: 0.75
  }
}
layer {
  name: "pool2/3x3_s2"
  type: "Pooling"
  bottom: "conv2/norm2"
  top: "pool2/3x3_s2"
  pooling_param {
    pool: MAX
    kernel_size: 3
    stride: 2
  }
}
layer {
  name: "inception_3a/1x1"
  type: "Convolution"
  bottom: "pool2/3x3_s2"
  top: "inception_3a/1x1"
  param {
    lr_mult: 1
    decay_mult: 1
  }
  param {
    lr_mult: 2
    decay_mult: 0
  }
  convolution_param {
    num_output: 64
    kernel_size: 1
    weight_filler {
      type: "xavier"
      std: 0.03
    }
    bias_filler {
      type: "constant"
      value: 0.2
    }
  }
}
layer {
  name: "inception_3a/relu_1x1"
  type: "ReLU"
  bottom: "inception_3a/1x1"
  top: "inception_3a/1x1"
}
layer {
  name: "inception_3a/3x3_reduce"
  type: "Convolution"
  bottom: "pool2/3x3_s2"
  top: "inception_3a/3x3_reduce"
  param {
    lr_mult: 1
    decay_mult: 1
  }
  param {
    lr_mult: 2
    decay_mult: 0
  }
  convolution_param {
    num_output: 96
    kernel_size: 1
    weight_filler {
      type: "xavier"
      std: 0.09
    }
    bias_filler {
      type: "constant"
      value: 0.2
    }
  }
}
layer {
  name: "inception_3a/relu_3x3_reduce"
  type: "ReLU"
  bottom: "inception_3a/3x3_reduce"
  top: "inception_3a/3x3_reduce"
}
layer {
  name: "inception_3a/3x3"
  type: "Convolution"
  bottom: "inception_3a/3x3_reduce"
  top: "inception_3a/3x3"
  param {
    lr_mult: 1
    decay_mult: 1
  }
  param {
    lr_mult: 2
    decay_mult: 0
  }
  convolution_param {
    num_output: 128
    pad: 1
    kernel_size: 3
    weight_filler {
      type: "xavier"
      std: 0.03
    }
    bias_filler {
      type: "constant"
      value: 0.2
    }
  }
}
layer {
  name: "inception_3a/relu_3x3"
  type: "ReLU"
  bottom: "inception_3a/3x3"
  top: "inception_3a/3x3"
}
layer {
  name: "inception_3a/5x5_reduce"
  type: "Convolution"
  bottom: "pool2/3x3_s2"
  top: "inception_3a/5x5_reduce"
  param {
    lr_mult: 1
    decay_mult: 1
  }
  param {
    lr_mult: 2
    decay_mult: 0
  }
  convolution_param {
    num_output: 16
    kernel_size: 1
    weight_filler {
      type: "xavier"
      std: 0.2
    }
    bias_filler {
      type: "constant"
      value: 0.2
    }
  }
}
layer {
  name: "inception_3a/relu_5x5_reduce"
  type: "ReLU"
  bottom: "inception_3a/5x5_reduce"
  top: "inception_3a/5x5_reduce"
}
layer {
  name: "inception_3a/5x5"
  type: "Convolution"
  bottom: "inception_3a/5x5_reduce"
  top: "inception_3a/5x5"
  param {
    lr_mult: 1
    decay_mult: 1
  }
  param {
    lr_mult: 2
    decay_mult: 0
  }
  convolution_param {
    num_output: 32
    pad: 2
    kernel_size: 5
    weight_filler {
      type: "xavier"
      std: 0.03
    }
    bias_filler {
      type: "constant"
      value: 0.2
    }
  }
}
layer {
  name: "inception_3a/relu_5x5"
  type: "ReLU"
  bottom: "inception_3a/5x5"
  top: "inception_3a/5x5"
}
layer {
  name: "inception_3a/pool"
  type: "Pooling"
  bottom: "pool2/3x3_s2"
  top: "inception_3a/pool"
  pooling_param {
    pool: MAX
    kernel_size: 3
    stride: 1
    pad: 1
  }
}
layer {
  name: "inception_3a/pool_proj"
  type: "Convolution"
  bottom: "inception_3a/pool"
  top: "inception_3a/pool_proj"
  param {
    lr_mult: 1
    decay_mult: 1
  }
  param {
    lr_mult: 2
    decay_mult: 0
  }
  convolution_param {
    num_output: 32
    kernel_size: 1
    weight_filler {
      type: "xavier"
      std: 0.1
    }
    bias_filler {
      type: "constant"
      value: 0.2
    }
  }
}
layer {
  name: "inception_3a/relu_pool_proj"
  type: "ReLU"
  bottom: "inception_3a/pool_proj"
  top: "inception_3a/pool_proj"
}
layer {
  name: "inception_3a/output"
  type: "Concat"
  bottom: "inception_3a/1x1"
  bottom: "inception_3a/3x3"
  bottom: "inception_3a/5x5"
  bottom: "inception_3a/pool_proj"
  top: "inception_3a/output"
}
layer {
  name: "inception_3b/1x1"
  type: "Convolution"
  bottom: "inception_3a/output"
  top: "inception_3b/1x1"
  param {
    lr_mult: 1
    decay_mult: 1
  }
  param {
    lr_mult: 2
    decay_mult: 0
  }
  convolution_param {
    num_output: 128
    kernel_size: 1
    weight_filler {
      type: "xavier"
      std: 0.03
    }
    bias_filler {
      type: "constant"
      value: 0.2
    }
  }
}
layer {
  name: "inception_3b/relu_1x1"
  type: "ReLU"
  bottom: "inception_3b/1x1"
  top: "inception_3b/1x1"
}
layer {
  name: "inception_3b/3x3_reduce"
  type: "Convolution"
  bottom: "inception_3a/output"
  top: "inception_3b/3x3_reduce"
  param {
    lr_mult: 1
    decay_mult: 1
  }
  param {
    lr_mult: 2
    decay_mult: 0
  }
  convolution_param {
    num_output: 128
    kernel_size: 1
    weight_filler {
      type: "xavier"
      std: 0.09
    }
    bias_filler {
      type: "constant"
      value: 0.2
    }
  }
}
layer {
  name: "inception_3b/relu_3x3_reduce"
  type: "ReLU"
  bottom: "inception_3b/3x3_reduce"
  top: "inception_3b/3x3_reduce"
}
layer {
  name: "inception_3b/3x3"
  type: "Convolution"
  bottom: "inception_3b/3x3_reduce"
  top: "inception_3b/3x3"
  param {
    lr_mult: 1
    decay_mult: 1
  }
  param {
    lr_mult: 2
    decay_mult: 0
  }
  convolution_param {
    num_output: 192
    pad: 1
    kernel_size: 3
    weight_filler {
      type: "xavier"
      std: 0.03
    }
    bias_filler {
      type: "constant"
      value: 0.2
    }
  }
}
layer {
  name: "inception_3b/relu_3x3"
  type: "ReLU"
  bottom: "inception_3b/3x3"
  top: "inception_3b/3x3"
}
layer {
  name: "inception_3b/5x5_reduce"
  type: "Convolution"
  bottom: "inception_3a/output"
  top: "inception_3b/5x5_reduce"
  param {
    lr_mult: 1
    decay_mult: 1
  }
  param {
    lr_mult: 2
    decay_mult: 0
  }
  convolution_param {
    num_output: 32
    kernel_size: 1
    weight_filler {
      type: "xavier"
      std: 0.2
    }
    bias_filler {
      type: "constant"
      value: 0.2
    }
  }
}
layer {
  name: "inception_3b/relu_5x5_reduce"
  type: "ReLU"
  bottom: "inception_3b/5x5_reduce"
  top: "inception_3b/5x5_reduce"
}
layer {
  name: "inception_3b/5x5"
  type: "Convolution"
  bottom: "inception_3b/5x5_reduce"
  top: "inception_3b/5x5"
  param {
    lr_mult: 1
    decay_mult: 1
  }
  param {
    lr_mult: 2
    decay_mult: 0
  }
  convolution_param {
    num_output: 96
    pad: 2
    kernel_size: 5
    weight_filler {
      type: "xavier"
      std: 0.03
    }
    bias_filler {
      type: "constant"
      value: 0.2
    }
  }
}
layer {
  name: "inception_3b/relu_5x5"
  type: "ReLU"
  bottom: "inception_3b/5x5"
  top: "inception_3b/5x5"
}
layer {
  name: "inception_3b/pool"
  type: "Pooling"
  bottom: "inception_3a/output"
  top: "inception_3b/pool"
  pooling_param {
    pool: MAX
    kernel_size: 3
    stride: 1
    pad: 1
  }
}
layer {
  name: "inception_3b/pool_proj"
  type: "Convolution"
  bottom: "inception_3b/pool"
  top: "inception_3b/pool_proj"
  param {
    lr_mult: 1
    decay_mult: 1
  }
  param {
    lr_mult: 2
    decay_mult: 0
  }
  convolution_param {
    num_output: 64
    kernel_size: 1
    weight_filler {
      type: "xavier"
      std: 0.1
    }
    bias_filler {
      type: "constant"
      value: 0.2
    }
  }
}
layer {
  name: "inception_3b/relu_pool_proj"
  type: "ReLU"
  bottom: "inception_3b/pool_proj"
  top: "inception_3b/pool_proj"
}
layer {
  name: "inception_3b/output"
  type: "Concat"
  bottom: "inception_3b/1x1"
  bottom: "inception_3b/3x3"
  bottom: "inception_3b/5x5"
  bottom: "inception_3b/pool_proj"
  top: "inception_3b/output"
}
layer {
  name: "pool3/3x3_s2"
  type: "Pooling"
  bottom: "inception_3b/output"
  top: "pool3/3x3_s2"
  pooling_param {
    pool: MAX
    kernel_size: 3
    stride: 2
  }
}
layer {
  name: "inception_4a/1x1"
  type: "Convolution"
  bottom: "pool3/3x3_s2"
  top: "inception_4a/1x1"
  param {
    lr_mult: 1
    decay_mult: 1
  }
  param {
    lr_mult: 2
    decay_mult: 0
  }
  convolution_param {
    num_output: 192
    kernel_size: 1
    weight_filler {
      type: "xavier"
      std: 0.03
    }
    bias_filler {
      type: "constant"
      value: 0.2
    }
  }
}
layer {
  name: "inception_4a/relu_1x1"
  type: "ReLU"
  bottom: "inception_4a/1x1"
  top: "inception_4a/1x1"
}
layer {
  name: "inception_4a/3x3_reduce"
  type: "Convolution"
  bottom: "pool3/3x3_s2"
  top: "inception_4a/3x3_reduce"
  param {
    lr_mult: 1
    decay_mult: 1
  }
  param {
    lr_mult: 2
    decay_mult: 0
  }
  convolution_param {
    num_output: 96
    kernel_size: 1
    weight_filler {
      type: "xavier"
      std: 0.09
    }
    bias_filler {
      type: "constant"
      value: 0.2
    }
  }
}
layer {
  name: "inception_4a/relu_3x3_reduce"
  type: "ReLU"
  bottom: "inception_4a/3x3_reduce"
  top: "inception_4a/3x3_reduce"
}
layer {
  name: "inception_4a/3x3"
  type: "Convolution"
  bottom: "inception_4a/3x3_reduce"
  top: "inception_4a/3x3"
  param {
    lr_mult: 1
    decay_mult: 1
  }
  param {
    lr_mult: 2
    decay_mult: 0
  }
  convolution_param {
    num_output: 208
    pad: 1
    kernel_size: 3
    weight_filler {
      type: "xavier"
      std: 0.03
    }
    bias_filler {
      type: "constant"
      value: 0.2
    }
  }
}
layer {
  name: "inception_4a/relu_3x3"
  type: "ReLU"
  bottom: "inception_4a/3x3"
  top: "inception_4a/3x3"
}
layer {
  name: "inception_4a/5x5_reduce"
  type: "Convolution"
  bottom: "pool3/3x3_s2"
  top: "inception_4a/5x5_reduce"
  param {
    lr_mult: 1
    decay_mult: 1
  }
  param {
    lr_mult: 2
    decay_mult: 0
  }
  convolution_param {
    num_output: 16
    kernel_size: 1
    weight_filler {
      type: "xavier"
      std: 0.2
    }
    bias_filler {
      type: "constant"
      value: 0.2
    }
  }
}
layer {
  name: "inception_4a/relu_5x5_reduce"
  type: "ReLU"
  bottom: "inception_4a/5x5_reduce"
  top: "inception_4a/5x5_reduce"
}
layer {
  name: "inception_4a/5x5"
  type: "Convolution"
  bottom: "inception_4a/5x5_reduce"
  top: "inception_4a/5x5"
  param {
    lr_mult: 1
    decay_mult: 1
  }
  param {
    lr_mult: 2
    decay_mult: 0
  }
  convolution_param {
    num_output: 48
    pad: 2
    kernel_size: 5
    weight_filler {
      type: "xavier"
      std: 0.03
    }
    bias_filler {
      type: "constant"
      value: 0.2
    }
  }
}
layer {
  name: "inception_4a/relu_5x5"
  type: "ReLU"
  bottom: "inception_4a/5x5"
  top: "inception_4a/5x5"
}
layer {
  name: "inception_4a/pool"
  type: "Pooling"
  bottom: "pool3/3x3_s2"
  top: "inception_4a/pool"
  pooling_param {
    pool: MAX
    kernel_size: 3
    stride: 1
    pad: 1
  }
}
layer {
  name: "inception_4a/pool_proj"
  type: "Convolution"
  bottom: "inception_4a/pool"
  top: "inception_4a/pool_proj"
  param {
    lr_mult: 1
    decay_mult: 1
  }
  param {
    lr_mult: 2
    decay_mult: 0
  }
  convolution_param {
    num_output: 64
    kernel_size: 1
    weight_filler {
      type: "xavier"
      std: 0.1
    }
    bias_filler {
      type: "constant"
      value: 0.2
    }
  }
}
layer {
  name: "inception_4a/relu_pool_proj"
  type: "ReLU"
  bottom: "inception_4a/pool_proj"
  top: "inception_4a/pool_proj"
}
layer {
  name: "inception_4a/output"
  type: "Concat"
  bottom: "inception_4a/1x1"
  bottom: "inception_4a/3x3"
  bottom: "inception_4a/5x5"
  bottom: "inception_4a/pool_proj"
  top: "inception_4a/output"
}
layer {
  name: "loss1/ave_pool"
  type: "Pooling"
  bottom: "inception_4a/output"
  top: "loss1/ave_pool"
  pooling_param {
    pool: AVE
    kernel_size: 5
    stride: 3
  }
}
layer {
  name: "loss1/conv"
  type: "Convolution"
  bottom: "loss1/ave_pool"
  top: "loss1/conv"
  param {
    lr_mult: 1
    decay_mult: 1
  }
  param {
    lr_mult: 2
    decay_mult: 0
  }
  convolution_param {
    num_output: 128
    kernel_size: 1
    weight_filler {
      type: "xavier"
      std: 0.08
    }
    bias_filler {
      type: "constant"
      value: 0.2
    }
  }
}
layer {
  name: "loss1/relu_conv"
  type: "ReLU"
  bottom: "loss1/conv"
  top: "loss1/conv"
}
layer {
  name: "loss1/fc"
  type: "InnerProduct"
  bottom: "loss1/conv"
  top: "loss1/fc"
  param {
    lr_mult: 1
    decay_mult: 1
  }
  param {
    lr_mult: 2
    decay_mult: 0
  }
  inner_product_param {
    num_output: 1024
    weight_filler {
      type: "xavier"
      std: 0.02
    }
    bias_filler {
      type: "constant"
      value: 0.2
    }
  }
}
layer {
  name: "loss1/relu_fc"
  type: "ReLU"
  bottom: "loss1/fc"
  top: "loss1/fc"
}
layer {
  name: "loss1/drop_fc"
  type: "Dropout"
  bottom: "loss1/fc"
  top: "loss1/fc"
  dropout_param {
    dropout_ratio: 0.7
  }
}
layer {
  name: "loss1/classifier_plantvillage"
  type: "InnerProduct"
  bottom: "loss1/fc"
  top: "loss1/classifier_plantvillage"
  param {
    lr_mult: 1
    decay_mult: 1
  }
  param {
    lr_mult: 2
    decay_mult: 0
  }
  inner_product_param {
    num_output: 38
    weight_filler {
      type: "xavier"
      std: 0.0009765625
    }
    bias_filler {
      type: "constant"
      value: 0
    }
  }
}
layer {
  name: "inception_4b/1x1"
  type: "Convolution"
  bottom: "inception_4a/output"
  top: "inception_4b/1x1"
  param {
    lr_mult: 1
    decay_mult: 1
  }
  param {
    lr_mult: 2
    decay_mult: 0
  }
  convolution_param {
    num_output: 160
    kernel_size: 1
    weight_filler {
      type: "xavier"
      std: 0.03
    }
    bias_filler {
      type: "constant"
      value: 0.2
    }
  }
}
layer {
  name: "inception_4b/relu_1x1"
  type: "ReLU"
  bottom: "inception_4b/1x1"
  top: "inception_4b/1x1"
}
layer {
  name: "inception_4b/3x3_reduce"
  type: "Convolution"
  bottom: "inception_4a/output"
  top: "inception_4b/3x3_reduce"
  param {
    lr_mult: 1
    decay_mult: 1
  }
  param {
    lr_mult: 2
    decay_mult: 0
  }
  convolution_param {
    num_output: 112
    kernel_size: 1
    weight_filler {
      type: "xavier"
      std: 0.09
    }
    bias_filler {
      type: "constant"
      value: 0.2
    }
  }
}
layer {
  name: "inception_4b/relu_3x3_reduce"
  type: "ReLU"
  bottom: "inception_4b/3x3_reduce"
  top: "inception_4b/3x3_reduce"
}
layer {
  name: "inception_4b/3x3"
  type: "Convolution"
  bottom: "inception_4b/3x3_reduce"
  top: "inception_4b/3x3"
  param {
    lr_mult: 1
    decay_mult: 1
  }
  param {
    lr_mult: 2
    decay_mult: 0
  }
  convolution_param {
    num_output: 224
    pad: 1
    kernel_size: 3
    weight_filler {
      type: "xavier"
      std: 0.03
    }
    bias_filler {
      type: "constant"
      value: 0.2
    }
  }
}
layer {
  name: "inception_4b/relu_3x3"
  type: "ReLU"
  bottom: "inception_4b/3x3"
  top: "inception_4b/3x3"
}
layer {
  name: "inception_4b/5x5_reduce"
  type: "Convolution"
  bottom: "inception_4a/output"
  top: "inception_4b/5x5_reduce"
  param {
    lr_mult: 1
    decay_mult: 1
  }
  param {
    lr_mult: 2
    decay_mult: 0
  }
  convolution_param {
    num_output: 24
    kernel_size: 1
    weight_filler {
      type: "xavier"
      std: 0.2
    }
    bias_filler {
      type: "constant"
      value: 0.2
    }
  }
}
layer {
  name: "inception_4b/relu_5x5_reduce"
  type: "ReLU"
  bottom: "inception_4b/5x5_reduce"
  top: "inception_4b/5x5_reduce"
}
layer {
  name: "inception_4b/5x5"
  type: "Convolution"
  bottom: "inception_4b/5x5_reduce"
  top: "inception_4b/5x5"
  param {
    lr_mult: 1
    decay_mult: 1
  }
  param {
    lr_mult: 2
    decay_mult: 0
  }
  convolution_param {
    num_output: 64
    pad: 2
    kernel_size: 5
    weight_filler {
      type: "xavier"
      std: 0.03
    }
    bias_filler {
      type: "constant"
      value: 0.2
    }
  }
}
layer {
  name: "inception_4b/relu_5x5"
  type: "ReLU"
  bottom: "inception_4b/5x5"
  top: "inception_4b/5x5"
}
layer {
  name: "inception_4b/pool"
  type: "Pooling"
  bottom: "inception_4a/output"
  top: "inception_4b/pool"
  pooling_param {
    pool: MAX
    kernel_size: 3
    stride: 1
    pad: 1
  }
}
layer {
  name: "inception_4b/pool_proj"
  type: "Convolution"
  bottom: "inception_4b/pool"
  top: "inception_4b/pool_proj"
  param {
    lr_mult: 1
    decay_mult: 1
  }
  param {
    lr_mult: 2
    decay_mult: 0
  }
  convolution_param {
    num_output: 64
    kernel_size: 1
    weight_filler {
      type: "xavier"
      std: 0.1
    }
    bias_filler {
      type: "constant"
      value: 0.2
    }
  }
}
layer {
  name: "inception_4b/relu_pool_proj"
  type: "ReLU"
  bottom: "inception_4b/pool_proj"
  top: "inception_4b/pool_proj"
}
layer {
  name: "inception_4b/output"
  type: "Concat"
  bottom: "inception_4b/1x1"
  bottom: "inception_4b/3x3"
  bottom: "inception_4b/5x5"
  bottom: "inception_4b/pool_proj"
  top: "inception_4b/output"
}
layer {
  name: "inception_4c/1x1"
  type: "Convolution"
  bottom: "inception_4b/output"
  top: "inception_4c/1x1"
  param {
    lr_mult: 1
    decay_mult: 1
  }
  param {
    lr_mult: 2
    decay_mult: 0
  }
  convolution_param {
    num_output: 128
    kernel_size: 1
    weight_filler {
      type: "xavier"
      std: 0.03
    }
    bias_filler {
      type: "constant"
      value: 0.2
    }
  }
}
layer {
  name: "inception_4c/relu_1x1"
  type: "ReLU"
  bottom: "inception_4c/1x1"
  top: "inception_4c/1x1"
}
layer {
  name: "inception_4c/3x3_reduce"
  type: "Convolution"
  bottom: "inception_4b/output"
  top: "inception_4c/3x3_reduce"
  param {
    lr_mult: 1
    decay_mult: 1
  }
  param {
    lr_mult: 2
    decay_mult: 0
  }
  convolution_param {
    num_output: 128
    kernel_size: 1
    weight_filler {
      type: "xavier"
      std: 0.09
    }
    bias_filler {
      type: "constant"
      value: 0.2
    }
  }
}
layer {
  name: "inception_4c/relu_3x3_reduce"
  type: "ReLU"
  bottom: "inception_4c/3x3_reduce"
  top: "inception_4c/3x3_reduce"
}
layer {
  name: "inception_4c/3x3"
  type: "Convolution"
  bottom: "inception_4c/3x3_reduce"
  top: "inception_4c/3x3"
  param {
    lr_mult: 1
    decay_mult: 1
  }
  param {
    lr_mult: 2
    decay_mult: 0
  }
  convolution_param {
    num_output: 256
    pad: 1
    kernel_size: 3
    weight_filler {
      type: "xavier"
      std: 0.03
    }
    bias_filler {
      type: "constant"
      value: 0.2
    }
  }
}
layer {
  name: "inception_4c/relu_3x3"
  type: "ReLU"
  bottom: "inception_4c/3x3"
  top: "inception_4c/3x3"
}
layer {
  name: "inception_4c/5x5_reduce"
  type: "Convolution"
  bottom: "inception_4b/output"
  top: "inception_4c/5x5_reduce"
  param {
    lr_mult: 1
    decay_mult: 1
  }
  param {
    lr_mult: 2
    decay_mult: 0
  }
  convolution_param {
    num_output: 24
    kernel_size: 1
    weight_filler {
      type: "xavier"
      std: 0.2
    }
    bias_filler {
      type: "constant"
      value: 0.2
    }
  }
}
layer {
  name: "inception_4c/relu_5x5_reduce"
  type: "ReLU"
  bottom: "inception_4c/5x5_reduce"
  top: "inception_4c/5x5_reduce"
}
layer {
  name: "inception_4c/5x5"
  type: "Convolution"
  bottom: "inception_4c/5x5_reduce"
  top: "inception_4c/5x5"
  param {
    lr_mult: 1
    decay_mult: 1
  }
  param {
    lr_mult: 2
    decay_mult: 0
  }
  convolution_param {
    num_output: 64
    pad: 2
    kernel_size: 5
    weight_filler {
      type: "xavier"
      std: 0.03
    }
    bias_filler {
      type: "constant"
      value: 0.2
    }
  }
}
layer {
  name: "inception_4c/relu_5x5"
  type: "ReLU"
  bottom: "inception_4c/5x5"
  top: "inception_4c/5x5"
}
layer {
  name: "inception_4c/pool"
  type: "Pooling"
  bottom: "inception_4b/output"
  top: "inception_4c/pool"
  pooling_param {
    pool: MAX
    kernel_size: 3
    stride: 1
    pad: 1
  }
}
layer {
  name: "inception_4c/pool_proj"
  type: "Convolution"
  bottom: "inception_4c/pool"
  top: "inception_4c/pool_proj"
  param {
    lr_mult: 1
    decay_mult: 1
  }
  param {
    lr_mult: 2
    decay_mult: 0
  }
  convolution_param {
    num_output: 64
    kernel_size: 1
    weight_filler {
      type: "xavier"
      std: 0.1
    }
    bias_filler {
      type: "constant"
      value: 0.2
    }
  }
}
layer {
  name: "inception_4c/relu_pool_proj"
  type: "ReLU"
  bottom: "inception_4c/pool_proj"
  top: "inception_4c/pool_proj"
}
layer {
  name: "inception_4c/output"
  type: "Concat"
  bottom: "inception_4c/1x1"
  bottom: "inception_4c/3x3"
  bottom: "inception_4c/5x5"
  bottom: "inception_4c/pool_proj"
  top: "inception_4c/output"
}
layer {
  name: "inception_4d/1x1"
  type: "Convolution"
  bottom: "inception_4c/output"
  top: "inception_4d/1x1"
  param {
    lr_mult: 1
    decay_mult: 1
  }
  param {
    lr_mult: 2
    decay_mult: 0
  }
  convolution_param {
    num_output: 112
    kernel_size: 1
    weight_filler {
      type: "xavier"
      std: 0.03
    }
    bias_filler {
      type: "constant"
      value: 0.2
    }
  }
}
layer {
  name: "inception_4d/relu_1x1"
  type: "ReLU"
  bottom: "inception_4d/1x1"
  top: "inception_4d/1x1"
}
layer {
  name: "inception_4d/3x3_reduce"
  type: "Convolution"
  bottom: "inception_4c/output"
  top: "inception_4d/3x3_reduce"
  param {
    lr_mult: 1
    decay_mult: 1
  }
  param {
    lr_mult: 2
    decay_mult: 0
  }
  convolution_param {
    num_output: 144
    kernel_size: 1
    weight_filler {
      type: "xavier"
      std: 0.09
    }
    bias_filler {
      type: "constant"
      value: 0.2
    }
  }
}
layer {
  name: "inception_4d/relu_3x3_reduce"
  type: "ReLU"
  bottom: "inception_4d/3x3_reduce"
  top: "inception_4d/3x3_reduce"
}
layer {
  name: "inception_4d/3x3"
  type: "Convolution"
  bottom: "inception_4d/3x3_reduce"
  top: "inception_4d/3x3"
  param {
    lr_mult: 1
    decay_mult: 1
  }
  param {
    lr_mult: 2
    decay_mult: 0
  }
  convolution_param {
    num_output: 288
    pad: 1
    kernel_size: 3
    weight_filler {
      type: "xavier"
      std: 0.03
    }
    bias_filler {
      type: "constant"
      value: 0.2
    }
  }
}
layer {
  name: "inception_4d/relu_3x3"
  type: "ReLU"
  bottom: "inception_4d/3x3"
  top: "inception_4d/3x3"
}
layer {
  name: "inception_4d/5x5_reduce"
  type: "Convolution"
  bottom: "inception_4c/output"
  top: "inception_4d/5x5_reduce"
  param {
    lr_mult: 1
    decay_mult: 1
  }
  param {
    lr_mult: 2
    decay_mult: 0
  }
  convolution_param {
    num_output: 32
    kernel_size: 1
    weight_filler {
      type: "xavier"
      std: 0.2
    }
    bias_filler {
      type: "constant"
      value: 0.2
    }
  }
}
layer {
  name: "inception_4d/relu_5x5_reduce"
  type: "ReLU"
  bottom: "inception_4d/5x5_reduce"
  top: "inception_4d/5x5_reduce"
}
layer {
  name: "inception_4d/5x5"
  type: "Convolution"
  bottom: "inception_4d/5x5_reduce"
  top: "inception_4d/5x5"
  param {
    lr_mult: 1
    decay_mult: 1
  }
  param {
    lr_mult: 2
    decay_mult: 0
  }
  convolution_param {
    num_output: 64
    pad: 2
    kernel_size: 5
    weight_filler {
      type: "xavier"
      std: 0.03
    }
    bias_filler {
      type: "constant"
      value: 0.2
    }
  }
}
layer {
  name: "inception_4d/relu_5x5"
  type: "ReLU"
  bottom: "inception_4d/5x5"
  top: "inception_4d/5x5"
}
layer {
  name: "inception_4d/pool"
  type: "Pooling"
  bottom: "inception_4c/output"
  top: "inception_4d/pool"
  pooling_param {
    pool: MAX
    kernel_size: 3
    stride: 1
    pad: 1
  }
}
layer {
  name: "inception_4d/pool_proj"
  type: "Convolution"
  bottom: "inception_4d/pool"
  top: "inception_4d/pool_proj"
  param {
    lr_mult: 1
    decay_mult: 1
  }
  param {
    lr_mult: 2
    decay_mult: 0
  }
  convolution_param {
    num_output: 64
    kernel_size: 1
    weight_filler {
      type: "xavier"
      std: 0.1
    }
    bias_filler {
      type: "constant"
      value: 0.2
    }
  }
}
layer {
  name: "inception_4d/relu_pool_proj"
  type: "ReLU"
  bottom: "inception_4d/pool_proj"
  top: "inception_4d/pool_proj"
}
layer {
  name: "inception_4d/output"
  type: "Concat"
  bottom: "inception_4d/1x1"
  bottom: "inception_4d/3x3"
  bottom: "inception_4d/5x5"
  bottom: "inception_4d/pool_proj"
  top: "inception_4d/output"
}
layer {
  name: "loss2/ave_pool"
  type: "Pooling"
  bottom: "inception_4d/output"
  top: "loss2/ave_pool"
  pooling_param {
    pool: AVE
    kernel_size: 5
    stride: 3
  }
}
layer {
  name: "loss2/conv"
  type: "Convolution"
  bottom: "loss2/ave_pool"
  top: "loss2/conv"
  param {
    lr_mult: 1
    decay_mult: 1
  }
  param {
    lr_mult: 2
    decay_mult: 0
  }
  convolution_param {
    num_output: 128
    kernel_size: 1
    weight_filler {
      type: "xavier"
      std: 0.08
    }
    bias_filler {
      type: "constant"
      value: 0.2
    }
  }
}
layer {
  name: "loss2/relu_conv"
  type: "ReLU"
  bottom: "loss2/conv"
  top: "loss2/conv"
}
layer {
  name: "loss2/fc"
  type: "InnerProduct"
  bottom: "loss2/conv"
  top: "loss2/fc"
  param {
    lr_mult: 1
    decay_mult: 1
  }
  param {
    lr_mult: 2
    decay_mult: 0
  }
  inner_product_param {
    num_output: 1024
    weight_filler {
      type: "xavier"
      std: 0.02
    }
    bias_filler {
      type: "constant"
      value: 0.2
    }
  }
}
layer {
  name: "loss2/relu_fc"
  type: "ReLU"
  bottom: "loss2/fc"
  top: "loss2/fc"
}
layer {
  name: "loss2/drop_fc"
  type: "Dropout"
  bottom: "loss2/fc"
  top: "loss2/fc"
  dropout_param {
    dropout_ratio: 0.7
  }
}
layer {
  name: "loss2/classifier_plantvillage"
  type: "InnerProduct"
  bottom: "loss2/fc"
  top: "loss2/classifier_plantvillage"
  param {
    lr_mult: 1
    decay_mult: 1
  }
  param {
    lr_mult: 2
    decay_mult: 0
  }
  inner_product_param {
    num_output: 38
    weight_filler {
      type: "xavier"
      std: 0.0009765625
    }
    bias_filler {
      type: "constant"
      value: 0
    }
  }
}
layer {
  name: "inception_4e/1x1"
  type: "Convolution"
  bottom: "inception_4d/output"
  top: "inception_4e/1x1"
  param {
    lr_mult: 1
    decay_mult: 1
  }
  param {
    lr_mult: 2
    decay_mult: 0
  }
  convolution_param {
    num_output: 256
    kernel_size: 1
    weight_filler {
      type: "xavier"
      std: 0.03
    }
    bias_filler {
      type: "constant"
      value: 0.2
    }
  }
}
layer {
  name: "inception_4e/relu_1x1"
  type: "ReLU"
  bottom: "inception_4e/1x1"
  top: "inception_4e/1x1"
}
layer {
  name: "inception_4e/3x3_reduce"
  type: "Convolution"
  bottom: "inception_4d/output"
  top: "inception_4e/3x3_reduce"
  param {
    lr_mult: 1
    decay_mult: 1
  }
  param {
    lr_mult: 2
    decay_mult: 0
  }
  convolution_param {
    num_output: 160
    kernel_size: 1
    weight_filler {
      type: "xavier"
      std: 0.09
    }
    bias_filler {
      type: "constant"
      value: 0.2
    }
  }
}
layer {
  name: "inception_4e/relu_3x3_reduce"
  type: "ReLU"
  bottom: "inception_4e/3x3_reduce"
  top: "inception_4e/3x3_reduce"
}
layer {
  name: "inception_4e/3x3"
  type: "Convolution"
  bottom: "inception_4e/3x3_reduce"
  top: "inception_4e/3x3"
  param {
    lr_mult: 1
    decay_mult: 1
  }
  param {
    lr_mult: 2
    decay_mult: 0
  }
  convolution_param {
    num_output: 320
    pad: 1
    kernel_size: 3
    weight_filler {
      type: "xavier"
      std: 0.03
    }
    bias_filler {
      type: "constant"
      value: 0.2
    }
  }
}
layer {
  name: "inception_4e/relu_3x3"
  type: "ReLU"
  bottom: "inception_4e/3x3"
  top: "inception_4e/3x3"
}
layer {
  name: "inception_4e/5x5_reduce"
  type: "Convolution"
  bottom: "inception_4d/output"
  top: "inception_4e/5x5_reduce"
  param {
    lr_mult: 1
    decay_mult: 1
  }
  param {
    lr_mult: 2
    decay_mult: 0
  }
  convolution_param {
    num_output: 32
    kernel_size: 1
    weight_filler {
      type: "xavier"
      std: 0.2
    }
    bias_filler {
      type: "constant"
      value: 0.2
    }
  }
}
layer {
  name: "inception_4e/relu_5x5_reduce"
  type: "ReLU"
  bottom: "inception_4e/5x5_reduce"
  top: "inception_4e/5x5_reduce"
}
layer {
  name: "inception_4e/5x5"
  type: "Convolution"
  bottom: "inception_4e/5x5_reduce"
  top: "inception_4e/5x5"
  p
I0403 15:42:06.347934 14126 layer_factory.hpp:77] Creating layer data
I0403 15:42:06.348542 14126 net.cpp:91] Creating Layer data
I0403 15:42:06.348573 14126 net.cpp:399] data -> data
I0403 15:42:06.348628 14126 net.cpp:399] data -> label
I0403 15:42:06.348664 14126 data_transformer.cpp:25] Loading mean file from: /home/mohanty/data/final_dataset/lmdb/color-80-20/mean.binaryproto
I0403 15:42:06.351500 14128 db_lmdb.cpp:38] Opened lmdb /home/mohanty/data/final_dataset/lmdb/color-80-20/test_db
I0403 15:42:06.361992 14126 data_layer.cpp:41] output data size: 24,3,224,224
I0403 15:42:06.389147 14126 net.cpp:141] Setting up data
I0403 15:42:06.389245 14126 net.cpp:148] Top shape: 24 3 224 224 (3612672)
I0403 15:42:06.389271 14126 net.cpp:148] Top shape: 24 (24)
I0403 15:42:06.389287 14126 net.cpp:156] Memory required for data: 14450784
I0403 15:42:06.389317 14126 layer_factory.hpp:77] Creating layer label_data_1_split
I0403 15:42:06.389344 14126 net.cpp:91] Creating Layer label_data_1_split
I0403 15:42:06.389364 14126 net.cpp:425] label_data_1_split <- label
I0403 15:42:06.389399 14126 net.cpp:399] label_data_1_split -> label_data_1_split_0
I0403 15:42:06.389427 14126 net.cpp:399] label_data_1_split -> label_data_1_split_1
I0403 15:42:06.389451 14126 net.cpp:399] label_data_1_split -> label_data_1_split_2
I0403 15:42:06.389472 14126 net.cpp:399] label_data_1_split -> label_data_1_split_3
I0403 15:42:06.389505 14126 net.cpp:399] label_data_1_split -> label_data_1_split_4
I0403 15:42:06.389526 14126 net.cpp:399] label_data_1_split -> label_data_1_split_5
I0403 15:42:06.389547 14126 net.cpp:399] label_data_1_split -> label_data_1_split_6
I0403 15:42:06.389569 14126 net.cpp:399] label_data_1_split -> label_data_1_split_7
I0403 15:42:06.389588 14126 net.cpp:399] label_data_1_split -> label_data_1_split_8
I0403 15:42:06.389608 14126 net.cpp:399] label_data_1_split -> label_data_1_split_9
I0403 15:42:06.389725 14126 net.cpp:141] Setting up label_data_1_split
I0403 15:42:06.389750 14126 net.cpp:148] Top shape: 24 (24)
I0403 15:42:06.389767 14126 net.cpp:148] Top shape: 24 (24)
I0403 15:42:06.389785 14126 net.cpp:148] Top shape: 24 (24)
I0403 15:42:06.389801 14126 net.cpp:148] Top shape: 24 (24)
I0403 15:42:06.389816 14126 net.cpp:148] Top shape: 24 (24)
I0403 15:42:06.389832 14126 net.cpp:148] Top shape: 24 (24)
I0403 15:42:06.389847 14126 net.cpp:148] Top shape: 24 (24)
I0403 15:42:06.389863 14126 net.cpp:148] Top shape: 24 (24)
I0403 15:42:06.389879 14126 net.cpp:148] Top shape: 24 (24)
I0403 15:42:06.389895 14126 net.cpp:148] Top shape: 24 (24)
I0403 15:42:06.389941 14126 net.cpp:156] Memory required for data: 14451744
I0403 15:42:06.389958 14126 layer_factory.hpp:77] Creating layer conv1/7x7_s2
I0403 15:42:06.389991 14126 net.cpp:91] Creating Layer conv1/7x7_s2
I0403 15:42:06.390010 14126 net.cpp:425] conv1/7x7_s2 <- data
I0403 15:42:06.390033 14126 net.cpp:399] conv1/7x7_s2 -> conv1/7x7_s2
I0403 15:42:06.530637 14126 net.cpp:141] Setting up conv1/7x7_s2
I0403 15:42:06.530727 14126 net.cpp:148] Top shape: 24 64 112 112 (19267584)
I0403 15:42:06.530745 14126 net.cpp:156] Memory required for data: 91522080
I0403 15:42:06.530776 14126 layer_factory.hpp:77] Creating layer conv1/relu_7x7
I0403 15:42:06.530803 14126 net.cpp:91] Creating Layer conv1/relu_7x7
I0403 15:42:06.530822 14126 net.cpp:425] conv1/relu_7x7 <- conv1/7x7_s2
I0403 15:42:06.530843 14126 net.cpp:386] conv1/relu_7x7 -> conv1/7x7_s2 (in-place)
I0403 15:42:06.531116 14126 net.cpp:141] Setting up conv1/relu_7x7
I0403 15:42:06.531150 14126 net.cpp:148] Top shape: 24 64 112 112 (19267584)
I0403 15:42:06.531168 14126 net.cpp:156] Memory required for data: 168592416
I0403 15:42:06.531183 14126 layer_factory.hpp:77] Creating layer pool1/3x3_s2
I0403 15:42:06.531208 14126 net.cpp:91] Creating Layer pool1/3x3_s2
I0403 15:42:06.531226 14126 net.cpp:425] pool1/3x3_s2 <- conv1/7x7_s2
I0403 15:42:06.531247 14126 net.cpp:399] pool1/3x3_s2 -> pool1/3x3_s2
I0403 15:42:06.531323 14126 net.cpp:141] Setting up pool1/3x3_s2
I0403 15:42:06.531349 14126 net.cpp:148] Top shape: 24 64 56 56 (4816896)
I0403 15:42:06.531364 14126 net.cpp:156] Memory required for data: 187860000
I0403 15:42:06.531380 14126 layer_factory.hpp:77] Creating layer pool1/norm1
I0403 15:42:06.531404 14126 net.cpp:91] Creating Layer pool1/norm1
I0403 15:42:06.531422 14126 net.cpp:425] pool1/norm1 <- pool1/3x3_s2
I0403 15:42:06.531440 14126 net.cpp:399] pool1/norm1 -> pool1/norm1
I0403 15:42:06.531744 14126 net.cpp:141] Setting up pool1/norm1
I0403 15:42:06.531774 14126 net.cpp:148] Top shape: 24 64 56 56 (4816896)
I0403 15:42:06.531790 14126 net.cpp:156] Memory required for data: 207127584
I0403 15:42:06.531805 14126 layer_factory.hpp:77] Creating layer conv2/3x3_reduce
I0403 15:42:06.531832 14126 net.cpp:91] Creating Layer conv2/3x3_reduce
I0403 15:42:06.531850 14126 net.cpp:425] conv2/3x3_reduce <- pool1/norm1
I0403 15:42:06.531870 14126 net.cpp:399] conv2/3x3_reduce -> conv2/3x3_reduce
I0403 15:42:06.533334 14126 net.cpp:141] Setting up conv2/3x3_reduce
I0403 15:42:06.533365 14126 net.cpp:148] Top shape: 24 64 56 56 (4816896)
I0403 15:42:06.533382 14126 net.cpp:156] Memory required for data: 226395168
I0403 15:42:06.533406 14126 layer_factory.hpp:77] Creating layer conv2/relu_3x3_reduce
I0403 15:42:06.533427 14126 net.cpp:91] Creating Layer conv2/relu_3x3_reduce
I0403 15:42:06.533447 14126 net.cpp:425] conv2/relu_3x3_reduce <- conv2/3x3_reduce
I0403 15:42:06.533476 14126 net.cpp:386] conv2/relu_3x3_reduce -> conv2/3x3_reduce (in-place)
I0403 15:42:06.533746 14126 net.cpp:141] Setting up conv2/relu_3x3_reduce
I0403 15:42:06.533774 14126 net.cpp:148] Top shape: 24 64 56 56 (4816896)
I0403 15:42:06.533790 14126 net.cpp:156] Memory required for data: 245662752
I0403 15:42:06.533805 14126 layer_factory.hpp:77] Creating layer conv2/3x3
I0403 15:42:06.533829 14126 net.cpp:91] Creating Layer conv2/3x3
I0403 15:42:06.533849 14126 net.cpp:425] conv2/3x3 <- conv2/3x3_reduce
I0403 15:42:06.533870 14126 net.cpp:399] conv2/3x3 -> conv2/3x3
I0403 15:42:06.536212 14126 net.cpp:141] Setting up conv2/3x3
I0403 15:42:06.536243 14126 net.cpp:148] Top shape: 24 192 56 56 (14450688)
I0403 15:42:06.536260 14126 net.cpp:156] Memory required for data: 303465504
I0403 15:42:06.536281 14126 layer_factory.hpp:77] Creating layer conv2/relu_3x3
I0403 15:42:06.536303 14126 net.cpp:91] Creating Layer conv2/relu_3x3
I0403 15:42:06.536321 14126 net.cpp:425] conv2/relu_3x3 <- conv2/3x3
I0403 15:42:06.536339 14126 net.cpp:386] conv2/relu_3x3 -> conv2/3x3 (in-place)
I0403 15:42:06.536514 14126 net.cpp:141] Setting up conv2/relu_3x3
I0403 15:42:06.536542 14126 net.cpp:148] Top shape: 24 192 56 56 (14450688)
I0403 15:42:06.536589 14126 net.cpp:156] Memory required for data: 361268256
I0403 15:42:06.536607 14126 layer_factory.hpp:77] Creating layer conv2/norm2
I0403 15:42:06.536625 14126 net.cpp:91] Creating Layer conv2/norm2
I0403 15:42:06.536641 14126 net.cpp:425] conv2/norm2 <- conv2/3x3
I0403 15:42:06.536661 14126 net.cpp:399] conv2/norm2 -> conv2/norm2
I0403 15:42:06.536963 14126 net.cpp:141] Setting up conv2/norm2
I0403 15:42:06.536991 14126 net.cpp:148] Top shape: 24 192 56 56 (14450688)
I0403 15:42:06.537006 14126 net.cpp:156] Memory required for data: 419071008
I0403 15:42:06.537021 14126 layer_factory.hpp:77] Creating layer pool2/3x3_s2
I0403 15:42:06.537039 14126 net.cpp:91] Creating Layer pool2/3x3_s2
I0403 15:42:06.537055 14126 net.cpp:425] pool2/3x3_s2 <- conv2/norm2
I0403 15:42:06.537076 14126 net.cpp:399] pool2/3x3_s2 -> pool2/3x3_s2
I0403 15:42:06.537135 14126 net.cpp:141] Setting up pool2/3x3_s2
I0403 15:42:06.537160 14126 net.cpp:148] Top shape: 24 192 28 28 (3612672)
I0403 15:42:06.537175 14126 net.cpp:156] Memory required for data: 433521696
I0403 15:42:06.537190 14126 layer_factory.hpp:77] Creating layer pool2/3x3_s2_pool2/3x3_s2_0_split
I0403 15:42:06.537211 14126 net.cpp:91] Creating Layer pool2/3x3_s2_pool2/3x3_s2_0_split
I0403 15:42:06.537227 14126 net.cpp:425] pool2/3x3_s2_pool2/3x3_s2_0_split <- pool2/3x3_s2
I0403 15:42:06.537246 14126 net.cpp:399] pool2/3x3_s2_pool2/3x3_s2_0_split -> pool2/3x3_s2_pool2/3x3_s2_0_split_0
I0403 15:42:06.537267 14126 net.cpp:399] pool2/3x3_s2_pool2/3x3_s2_0_split -> pool2/3x3_s2_pool2/3x3_s2_0_split_1
I0403 15:42:06.537287 14126 net.cpp:399] pool2/3x3_s2_pool2/3x3_s2_0_split -> pool2/3x3_s2_pool2/3x3_s2_0_split_2
I0403 15:42:06.537307 14126 net.cpp:399] pool2/3x3_s2_pool2/3x3_s2_0_split -> pool2/3x3_s2_pool2/3x3_s2_0_split_3
I0403 15:42:06.537377 14126 net.cpp:141] Setting up pool2/3x3_s2_pool2/3x3_s2_0_split
I0403 15:42:06.537403 14126 net.cpp:148] Top shape: 24 192 28 28 (3612672)
I0403 15:42:06.537420 14126 net.cpp:148] Top shape: 24 192 28 28 (3612672)
I0403 15:42:06.537436 14126 net.cpp:148] Top shape: 24 192 28 28 (3612672)
I0403 15:42:06.537451 14126 net.cpp:148] Top shape: 24 192 28 28 (3612672)
I0403 15:42:06.537467 14126 net.cpp:156] Memory required for data: 491324448
I0403 15:42:06.537482 14126 layer_factory.hpp:77] Creating layer inception_3a/1x1
I0403 15:42:06.537502 14126 net.cpp:91] Creating Layer inception_3a/1x1
I0403 15:42:06.537518 14126 net.cpp:425] inception_3a/1x1 <- pool2/3x3_s2_pool2/3x3_s2_0_split_0
I0403 15:42:06.537539 14126 net.cpp:399] inception_3a/1x1 -> inception_3a/1x1
I0403 15:42:06.539091 14126 net.cpp:141] Setting up inception_3a/1x1
I0403 15:42:06.539122 14126 net.cpp:148] Top shape: 24 64 28 28 (1204224)
I0403 15:42:06.539144 14126 net.cpp:156] Memory required for data: 496141344
I0403 15:42:06.539163 14126 layer_factory.hpp:77] Creating layer inception_3a/relu_1x1
I0403 15:42:06.539186 14126 net.cpp:91] Creating Layer inception_3a/relu_1x1
I0403 15:42:06.539203 14126 net.cpp:425] inception_3a/relu_1x1 <- inception_3a/1x1
I0403 15:42:06.539222 14126 net.cpp:386] inception_3a/relu_1x1 -> inception_3a/1x1 (in-place)
I0403 15:42:06.539441 14126 net.cpp:141] Setting up inception_3a/relu_1x1
I0403 15:42:06.539469 14126 net.cpp:148] Top shape: 24 64 28 28 (1204224)
I0403 15:42:06.539484 14126 net.cpp:156] Memory required for data: 500958240
I0403 15:42:06.539499 14126 layer_factory.hpp:77] Creating layer inception_3a/3x3_reduce
I0403 15:42:06.539522 14126 net.cpp:91] Creating Layer inception_3a/3x3_reduce
I0403 15:42:06.539541 14126 net.cpp:425] inception_3a/3x3_reduce <- pool2/3x3_s2_pool2/3x3_s2_0_split_1
I0403 15:42:06.539561 14126 net.cpp:399] inception_3a/3x3_reduce -> inception_3a/3x3_reduce
I0403 15:42:06.541297 14126 net.cpp:141] Setting up inception_3a/3x3_reduce
I0403 15:42:06.541327 14126 net.cpp:148] Top shape: 24 96 28 28 (1806336)
I0403 15:42:06.541343 14126 net.cpp:156] Memory required for data: 508183584
I0403 15:42:06.541365 14126 layer_factory.hpp:77] Creating layer inception_3a/relu_3x3_reduce
I0403 15:42:06.541404 14126 net.cpp:91] Creating Layer inception_3a/relu_3x3_reduce
I0403 15:42:06.541424 14126 net.cpp:425] inception_3a/relu_3x3_reduce <- inception_3a/3x3_reduce
I0403 15:42:06.541445 14126 net.cpp:386] inception_3a/relu_3x3_reduce -> inception_3a/3x3_reduce (in-place)
I0403 15:42:06.541625 14126 net.cpp:141] Setting up inception_3a/relu_3x3_reduce
I0403 15:42:06.541651 14126 net.cpp:148] Top shape: 24 96 28 28 (1806336)
I0403 15:42:06.541666 14126 net.cpp:156] Memory required for data: 515408928
I0403 15:42:06.541682 14126 layer_factory.hpp:77] Creating layer inception_3a/3x3
I0403 15:42:06.541705 14126 net.cpp:91] Creating Layer inception_3a/3x3
I0403 15:42:06.541723 14126 net.cpp:425] inception_3a/3x3 <- inception_3a/3x3_reduce
I0403 15:42:06.541744 14126 net.cpp:399] inception_3a/3x3 -> inception_3a/3x3
I0403 15:42:06.543382 14126 net.cpp:141] Setting up inception_3a/3x3
I0403 15:42:06.543411 14126 net.cpp:148] Top shape: 24 128 28 28 (2408448)
I0403 15:42:06.543427 14126 net.cpp:156] Memory required for data: 525042720
I0403 15:42:06.543447 14126 layer_factory.hpp:77] Creating layer inception_3a/relu_3x3
I0403 15:42:06.543467 14126 net.cpp:91] Creating Layer inception_3a/relu_3x3
I0403 15:42:06.543484 14126 net.cpp:425] inception_3a/relu_3x3 <- inception_3a/3x3
I0403 15:42:06.543503 14126 net.cpp:386] inception_3a/relu_3x3 -> inception_3a/3x3 (in-place)
I0403 15:42:06.543772 14126 net.cpp:141] Setting up inception_3a/relu_3x3
I0403 15:42:06.543799 14126 net.cpp:148] Top shape: 24 128 28 28 (2408448)
I0403 15:42:06.543815 14126 net.cpp:156] Memory required for data: 534676512
I0403 15:42:06.543829 14126 layer_factory.hpp:77] Creating layer inception_3a/5x5_reduce
I0403 15:42:06.543853 14126 net.cpp:91] Creating Layer inception_3a/5x5_reduce
I0403 15:42:06.543871 14126 net.cpp:425] inception_3a/5x5_reduce <- pool2/3x3_s2_pool2/3x3_s2_0_split_2
I0403 15:42:06.543894 14126 net.cpp:399] inception_3a/5x5_reduce -> inception_3a/5x5_reduce
I0403 15:42:06.544842 14126 net.cpp:141] Setting up inception_3a/5x5_reduce
I0403 15:42:06.544872 14126 net.cpp:148] Top shape: 24 16 28 28 (301056)
I0403 15:42:06.544888 14126 net.cpp:156] Memory required for data: 535880736
I0403 15:42:06.544908 14126 layer_factory.hpp:77] Creating layer inception_3a/relu_5x5_reduce
I0403 15:42:06.544925 14126 net.cpp:91] Creating Layer inception_3a/relu_5x5_reduce
I0403 15:42:06.544941 14126 net.cpp:425] inception_3a/relu_5x5_reduce <- inception_3a/5x5_reduce
I0403 15:42:06.544960 14126 net.cpp:386] inception_3a/relu_5x5_reduce -> inception_3a/5x5_reduce (in-place)
I0403 15:42:06.545250 14126 net.cpp:141] Setting up inception_3a/relu_5x5_reduce
I0403 15:42:06.545279 14126 net.cpp:148] Top shape: 24 16 28 28 (301056)
I0403 15:42:06.545295 14126 net.cpp:156] Memory required for data: 537084960
I0403 15:42:06.545310 14126 layer_factory.hpp:77] Creating layer inception_3a/5x5
I0403 15:42:06.545332 14126 net.cpp:91] Creating Layer inception_3a/5x5
I0403 15:42:06.545351 14126 net.cpp:425] inception_3a/5x5 <- inception_3a/5x5_reduce
I0403 15:42:06.545373 14126 net.cpp:399] inception_3a/5x5 -> inception_3a/5x5
I0403 15:42:06.546406 14126 net.cpp:141] Setting up inception_3a/5x5
I0403 15:42:06.546434 14126 net.cpp:148] Top shape: 24 32 28 28 (602112)
I0403 15:42:06.546450 14126 net.cpp:156] Memory required for data: 539493408
I0403 15:42:06.546469 14126 layer_factory.hpp:77] Creating layer inception_3a/relu_5x5
I0403 15:42:06.546490 14126 net.cpp:91] Creating Layer inception_3a/relu_5x5
I0403 15:42:06.546509 14126 net.cpp:425] inception_3a/relu_5x5 <- inception_3a/5x5
I0403 15:42:06.546527 14126 net.cpp:386] inception_3a/relu_5x5 -> inception_3a/5x5 (in-place)
I0403 15:42:06.546700 14126 net.cpp:141] Setting up inception_3a/relu_5x5
I0403 15:42:06.546727 14126 net.cpp:148] Top shape: 24 32 28 28 (602112)
I0403 15:42:06.546743 14126 net.cpp:156] Memory required for data: 541901856
I0403 15:42:06.546759 14126 layer_factory.hpp:77] Creating layer inception_3a/pool
I0403 15:42:06.546777 14126 net.cpp:91] Creating Layer inception_3a/pool
I0403 15:42:06.546794 14126 net.cpp:425] inception_3a/pool <- pool2/3x3_s2_pool2/3x3_s2_0_split_3
I0403 15:42:06.546831 14126 net.cpp:399] inception_3a/pool -> inception_3a/pool
I0403 15:42:06.546890 14126 net.cpp:141] Setting up inception_3a/pool
I0403 15:42:06.546914 14126 net.cpp:148] Top shape: 24 192 28 28 (3612672)
I0403 15:42:06.546929 14126 net.cpp:156] Memory required for data: 556352544
I0403 15:42:06.546944 14126 layer_factory.hpp:77] Creating layer inception_3a/pool_proj
I0403 15:42:06.546967 14126 net.cpp:91] Creating Layer inception_3a/pool_proj
I0403 15:42:06.546984 14126 net.cpp:425] inception_3a/pool_proj <- inception_3a/pool
I0403 15:42:06.547005 14126 net.cpp:399] inception_3a/pool_proj -> inception_3a/pool_proj
I0403 15:42:06.547978 14126 net.cpp:141] Setting up inception_3a/pool_proj
I0403 15:42:06.548007 14126 net.cpp:148] Top shape: 24 32 28 28 (602112)
I0403 15:42:06.548023 14126 net.cpp:156] Memory required for data: 558760992
I0403 15:42:06.548048 14126 layer_factory.hpp:77] Creating layer inception_3a/relu_pool_proj
I0403 15:42:06.548069 14126 net.cpp:91] Creating Layer inception_3a/relu_pool_proj
I0403 15:42:06.548084 14126 net.cpp:425] inception_3a/relu_pool_proj <- inception_3a/pool_proj
I0403 15:42:06.548101 14126 net.cpp:386] inception_3a/relu_pool_proj -> inception_3a/pool_proj (in-place)
I0403 15:42:06.548400 14126 net.cpp:141] Setting up inception_3a/relu_pool_proj
I0403 15:42:06.548429 14126 net.cpp:148] Top shape: 24 32 28 28 (602112)
I0403 15:42:06.548445 14126 net.cpp:156] Memory required for data: 561169440
I0403 15:42:06.548461 14126 layer_factory.hpp:77] Creating layer inception_3a/output
I0403 15:42:06.548482 14126 net.cpp:91] Creating Layer inception_3a/output
I0403 15:42:06.548498 14126 net.cpp:425] inception_3a/output <- inception_3a/1x1
I0403 15:42:06.548516 14126 net.cpp:425] inception_3a/output <- inception_3a/3x3
I0403 15:42:06.548533 14126 net.cpp:425] inception_3a/output <- inception_3a/5x5
I0403 15:42:06.548549 14126 net.cpp:425] inception_3a/output <- inception_3a/pool_proj
I0403 15:42:06.548566 14126 net.cpp:399] inception_3a/output -> inception_3a/output
I0403 15:42:06.548615 14126 net.cpp:141] Setting up inception_3a/output
I0403 15:42:06.548640 14126 net.cpp:148] Top shape: 24 256 28 28 (4816896)
I0403 15:42:06.548655 14126 net.cpp:156] Memory required for data: 580437024
I0403 15:42:06.548671 14126 layer_factory.hpp:77] Creating layer inception_3a/output_inception_3a/output_0_split
I0403 15:42:06.548689 14126 net.cpp:91] Creating Layer inception_3a/output_inception_3a/output_0_split
I0403 15:42:06.548704 14126 net.cpp:425] inception_3a/output_inception_3a/output_0_split <- inception_3a/output
I0403 15:42:06.548724 14126 net.cpp:399] inception_3a/output_inception_3a/output_0_split -> inception_3a/output_inception_3a/output_0_split_0
I0403 15:42:06.548745 14126 net.cpp:399] inception_3a/output_inception_3a/output_0_split -> inception_3a/output_inception_3a/output_0_split_1
I0403 15:42:06.548768 14126 net.cpp:399] inception_3a/output_inception_3a/output_0_split -> inception_3a/output_inception_3a/output_0_split_2
I0403 15:42:06.548794 14126 net.cpp:399] inception_3a/output_inception_3a/output_0_split -> inception_3a/output_inception_3a/output_0_split_3
I0403 15:42:06.548871 14126 net.cpp:141] Setting up inception_3a/output_inception_3a/output_0_split
I0403 15:42:06.548895 14126 net.cpp:148] Top shape: 24 256 28 28 (4816896)
I0403 15:42:06.548913 14126 net.cpp:148] Top shape: 24 256 28 28 (4816896)
I0403 15:42:06.548928 14126 net.cpp:148] Top shape: 24 256 28 28 (4816896)
I0403 15:42:06.548944 14126 net.cpp:148] Top shape: 24 256 28 28 (4816896)
I0403 15:42:06.548959 14126 net.cpp:156] Memory required for data: 657507360
I0403 15:42:06.548974 14126 layer_factory.hpp:77] Creating layer inception_3b/1x1
I0403 15:42:06.548995 14126 net.cpp:91] Creating Layer inception_3b/1x1
I0403 15:42:06.549015 14126 net.cpp:425] inception_3b/1x1 <- inception_3a/output_inception_3a/output_0_split_0
I0403 15:42:06.549037 14126 net.cpp:399] inception_3b/1x1 -> inception_3b/1x1
I0403 15:42:06.550206 14126 net.cpp:141] Setting up inception_3b/1x1
I0403 15:42:06.550246 14126 net.cpp:148] Top shape: 24 128 28 28 (2408448)
I0403 15:42:06.550263 14126 net.cpp:156] Memory required for data: 667141152
I0403 15:42:06.550282 14126 layer_factory.hpp:77] Creating layer inception_3b/relu_1x1
I0403 15:42:06.550303 14126 net.cpp:91] Creating Layer inception_3b/relu_1x1
I0403 15:42:06.550323 14126 net.cpp:425] inception_3b/relu_1x1 <- inception_3b/1x1
I0403 15:42:06.550339 14126 net.cpp:386] inception_3b/relu_1x1 -> inception_3b/1x1 (in-place)
I0403 15:42:06.550513 14126 net.cpp:141] Setting up inception_3b/relu_1x1
I0403 15:42:06.550540 14126 net.cpp:148] Top shape: 24 128 28 28 (2408448)
I0403 15:42:06.550555 14126 net.cpp:156] Memory required for data: 676774944
I0403 15:42:06.550570 14126 layer_factory.hpp:77] Creating layer inception_3b/3x3_reduce
I0403 15:42:06.550593 14126 net.cpp:91] Creating Layer inception_3b/3x3_reduce
I0403 15:42:06.550611 14126 net.cpp:425] inception_3b/3x3_reduce <- inception_3a/output_inception_3a/output_0_split_1
I0403 15:42:06.550633 14126 net.cpp:399] inception_3b/3x3_reduce -> inception_3b/3x3_reduce
I0403 15:42:06.551755 14126 net.cpp:141] Setting up inception_3b/3x3_reduce
I0403 15:42:06.551784 14126 net.cpp:148] Top shape: 24 128 28 28 (2408448)
I0403 15:42:06.551800 14126 net.cpp:156] Memory required for data: 686408736
I0403 15:42:06.551818 14126 layer_factory.hpp:77] Creating layer inception_3b/relu_3x3_reduce
I0403 15:42:06.551839 14126 net.cpp:91] Creating Layer inception_3b/relu_3x3_reduce
I0403 15:42:06.551856 14126 net.cpp:425] inception_3b/relu_3x3_reduce <- inception_3b/3x3_reduce
I0403 15:42:06.551873 14126 net.cpp:386] inception_3b/relu_3x3_reduce -> inception_3b/3x3_reduce (in-place)
I0403 15:42:06.552045 14126 net.cpp:141] Setting up inception_3b/relu_3x3_reduce
I0403 15:42:06.552072 14126 net.cpp:148] Top shape: 24 128 28 28 (2408448)
I0403 15:42:06.552086 14126 net.cpp:156] Memory required for data: 696042528
I0403 15:42:06.552101 14126 layer_factory.hpp:77] Creating layer inception_3b/3x3
I0403 15:42:06.552131 14126 net.cpp:91] Creating Layer inception_3b/3x3
I0403 15:42:06.552151 14126 net.cpp:425] inception_3b/3x3 <- inception_3b/3x3_reduce
I0403 15:42:06.552171 14126 net.cpp:399] inception_3b/3x3 -> inception_3b/3x3
I0403 15:42:06.555078 14126 net.cpp:141] Setting up inception_3b/3x3
I0403 15:42:06.555109 14126 net.cpp:148] Top shape: 24 192 28 28 (3612672)
I0403 15:42:06.555130 14126 net.cpp:156] Memory required for data: 710493216
I0403 15:42:06.555150 14126 layer_factory.hpp:77] Creating layer inception_3b/relu_3x3
I0403 15:42:06.555171 14126 net.cpp:91] Creating Layer inception_3b/relu_3x3
I0403 15:42:06.555188 14126 net.cpp:425] inception_3b/relu_3x3 <- inception_3b/3x3
I0403 15:42:06.555207 14126 net.cpp:386] inception_3b/relu_3x3 -> inception_3b/3x3 (in-place)
I0403 15:42:06.555495 14126 net.cpp:141] Setting up inception_3b/relu_3x3
I0403 15:42:06.555521 14126 net.cpp:148] Top shape: 24 192 28 28 (3612672)
I0403 15:42:06.555536 14126 net.cpp:156] Memory required for data: 724943904
I0403 15:42:06.555551 14126 layer_factory.hpp:77] Creating layer inception_3b/5x5_reduce
I0403 15:42:06.555572 14126 net.cpp:91] Creating Layer inception_3b/5x5_reduce
I0403 15:42:06.555590 14126 net.cpp:425] inception_3b/5x5_reduce <- inception_3a/output_inception_3a/output_0_split_2
I0403 15:42:06.555613 14126 net.cpp:399] inception_3b/5x5_reduce -> inception_3b/5x5_reduce
I0403 15:42:06.556571 14126 net.cpp:141] Setting up inception_3b/5x5_reduce
I0403 15:42:06.556598 14126 net.cpp:148] Top shape: 24 32 28 28 (602112)
I0403 15:42:06.556614 14126 net.cpp:156] Memory required for data: 727352352
I0403 15:42:06.556632 14126 layer_factory.hpp:77] Creating layer inception_3b/relu_5x5_reduce
I0403 15:42:06.556653 14126 net.cpp:91] Creating Layer inception_3b/relu_5x5_reduce
I0403 15:42:06.556671 14126 net.cpp:425] inception_3b/relu_5x5_reduce <- inception_3b/5x5_reduce
I0403 15:42:06.556689 14126 net.cpp:386] inception_3b/relu_5x5_reduce -> inception_3b/5x5_reduce (in-place)
I0403 15:42:06.556857 14126 net.cpp:141] Setting up inception_3b/relu_5x5_reduce
I0403 15:42:06.556896 14126 net.cpp:148] Top shape: 24 32 28 28 (602112)
I0403 15:42:06.556913 14126 net.cpp:156] Memory required for data: 729760800
I0403 15:42:06.556928 14126 layer_factory.hpp:77] Creating layer inception_3b/5x5
I0403 15:42:06.556951 14126 net.cpp:91] Creating Layer inception_3b/5x5
I0403 15:42:06.556967 14126 net.cpp:425] inception_3b/5x5 <- inception_3b/5x5_reduce
I0403 15:42:06.556987 14126 net.cpp:399] inception_3b/5x5 -> inception_3b/5x5
I0403 15:42:06.558907 14126 net.cpp:141] Setting up inception_3b/5x5
I0403 15:42:06.558936 14126 net.cpp:148] Top shape: 24 96 28 28 (1806336)
I0403 15:42:06.558953 14126 net.cpp:156] Memory required for data: 736986144
I0403 15:42:06.558970 14126 layer_factory.hpp:77] Creating layer inception_3b/relu_5x5
I0403 15:42:06.558990 14126 net.cpp:91] Creating Layer inception_3b/relu_5x5
I0403 15:42:06.559008 14126 net.cpp:425] inception_3b/relu_5x5 <- inception_3b/5x5
I0403 15:42:06.559026 14126 net.cpp:386] inception_3b/relu_5x5 -> inception_3b/5x5 (in-place)
I0403 15:42:06.559233 14126 net.cpp:141] Setting up inception_3b/relu_5x5
I0403 15:42:06.559260 14126 net.cpp:148] Top shape: 24 96 28 28 (1806336)
I0403 15:42:06.559275 14126 net.cpp:156] Memory required for data: 744211488
I0403 15:42:06.559291 14126 layer_factory.hpp:77] Creating layer inception_3b/pool
I0403 15:42:06.559309 14126 net.cpp:91] Creating Layer inception_3b/pool
I0403 15:42:06.559325 14126 net.cpp:425] inception_3b/pool <- inception_3a/output_inception_3a/output_0_split_3
I0403 15:42:06.559342 14126 net.cpp:399] inception_3b/pool -> inception_3b/pool
I0403 15:42:06.559409 14126 net.cpp:141] Setting up inception_3b/pool
I0403 15:42:06.559433 14126 net.cpp:148] Top shape: 24 256 28 28 (4816896)
I0403 15:42:06.559448 14126 net.cpp:156] Memory required for data: 763479072
I0403 15:42:06.559461 14126 layer_factory.hpp:77] Creating layer inception_3b/pool_proj
I0403 15:42:06.559485 14126 net.cpp:91] Creating Layer inception_3b/pool_proj
I0403 15:42:06.559504 14126 net.cpp:425] inception_3b/pool_proj <- inception_3b/pool
I0403 15:42:06.559525 14126 net.cpp:399] inception_3b/pool_proj -> inception_3b/pool_proj
I0403 15:42:06.560533 14126 net.cpp:141] Setting up inception_3b/pool_proj
I0403 15:42:06.560562 14126 net.cpp:148] Top shape: 24 64 28 28 (1204224)
I0403 15:42:06.560578 14126 net.cpp:156] Memory required for data: 768295968
I0403 15:42:06.560598 14126 layer_factory.hpp:77] Creating layer inception_3b/relu_pool_proj
I0403 15:42:06.560616 14126 net.cpp:91] Creating Layer inception_3b/relu_pool_proj
I0403 15:42:06.560631 14126 net.cpp:425] inception_3b/relu_pool_proj <- inception_3b/pool_proj
I0403 15:42:06.560652 14126 net.cpp:386] inception_3b/relu_pool_proj -> inception_3b/pool_proj (in-place)
I0403 15:42:06.561023 14126 net.cpp:141] Setting up inception_3b/relu_pool_proj
I0403 15:42:06.561053 14126 net.cpp:148] Top shape: 24 64 28 28 (1204224)
I0403 15:42:06.561069 14126 net.cpp:156] Memory required for data: 773112864
I0403 15:42:06.561084 14126 layer_factory.hpp:77] Creating layer inception_3b/output
I0403 15:42:06.561100 14126 net.cpp:91] Creating Layer inception_3b/output
I0403 15:42:06.561115 14126 net.cpp:425] inception_3b/output <- inception_3b/1x1
I0403 15:42:06.561136 14126 net.cpp:425] inception_3b/output <- inception_3b/3x3
I0403 15:42:06.561154 14126 net.cpp:425] inception_3b/output <- inception_3b/5x5
I0403 15:42:06.561170 14126 net.cpp:425] inception_3b/output <- inception_3b/pool_proj
I0403 15:42:06.561187 14126 net.cpp:399] inception_3b/output -> inception_3b/output
I0403 15:42:06.561233 14126 net.cpp:141] Setting up inception_3b/output
I0403 15:42:06.561256 14126 net.cpp:148] Top shape: 24 480 28 28 (9031680)
I0403 15:42:06.561270 14126 net.cpp:156] Memory required for data: 809239584
I0403 15:42:06.561285 14126 layer_factory.hpp:77] Creating layer pool3/3x3_s2
I0403 15:42:06.561305 14126 net.cpp:91] Creating Layer pool3/3x3_s2
I0403 15:42:06.561321 14126 net.cpp:425] pool3/3x3_s2 <- inception_3b/output
I0403 15:42:06.561339 14126 net.cpp:399] pool3/3x3_s2 -> pool3/3x3_s2
I0403 15:42:06.561426 14126 net.cpp:141] Setting up pool3/3x3_s2
I0403 15:42:06.561451 14126 net.cpp:148] Top shape: 24 480 14 14 (2257920)
I0403 15:42:06.561466 14126 net.cpp:156] Memory required for data: 818271264
I0403 15:42:06.561481 14126 layer_factory.hpp:77] Creating layer pool3/3x3_s2_pool3/3x3_s2_0_split
I0403 15:42:06.561498 14126 net.cpp:91] Creating Layer pool3/3x3_s2_pool3/3x3_s2_0_split
I0403 15:42:06.561513 14126 net.cpp:425] pool3/3x3_s2_pool3/3x3_s2_0_split <- pool3/3x3_s2
I0403 15:42:06.561532 14126 net.cpp:399] pool3/3x3_s2_pool3/3x3_s2_0_split -> pool3/3x3_s2_pool3/3x3_s2_0_split_0
I0403 15:42:06.561554 14126 net.cpp:399] pool3/3x3_s2_pool3/3x3_s2_0_split -> pool3/3x3_s2_pool3/3x3_s2_0_split_1
I0403 15:42:06.561574 14126 net.cpp:399] pool3/3x3_s2_pool3/3x3_s2_0_split -> pool3/3x3_s2_pool3/3x3_s2_0_split_2
I0403 15:42:06.561594 14126 net.cpp:399] pool3/3x3_s2_pool3/3x3_s2_0_split -> pool3/3x3_s2_pool3/3x3_s2_0_split_3
I0403 15:42:06.561681 14126 net.cpp:141] Setting up pool3/3x3_s2_pool3/3x3_s2_0_split
I0403 15:42:06.561707 14126 net.cpp:148] Top shape: 24 480 14 14 (2257920)
I0403 15:42:06.561724 14126 net.cpp:148] Top shape: 24 480 14 14 (2257920)
I0403 15:42:06.561739 14126 net.cpp:148] Top shape: 24 480 14 14 (2257920)
I0403 15:42:06.561755 14126 net.cpp:148] Top shape: 24 480 14 14 (2257920)
I0403 15:42:06.561769 14126 net.cpp:156] Memory required for data: 854397984
I0403 15:42:06.561784 14126 layer_factory.hpp:77] Creating layer inception_4a/1x1
I0403 15:42:06.561805 14126 net.cpp:91] Creating Layer inception_4a/1x1
I0403 15:42:06.561823 14126 net.cpp:425] inception_4a/1x1 <- pool3/3x3_s2_pool3/3x3_s2_0_split_0
I0403 15:42:06.561842 14126 net.cpp:399] inception_4a/1x1 -> inception_4a/1x1
I0403 15:42:06.563361 14126 net.cpp:141] Setting up inception_4a/1x1
I0403 15:42:06.563393 14126 net.cpp:148] Top shape: 24 192 14 14 (903168)
I0403 15:42:06.563410 14126 net.cpp:156] Memory required for data: 858010656
I0403 15:42:06.563428 14126 layer_factory.hpp:77] Creating layer inception_4a/relu_1x1
I0403 15:42:06.563446 14126 net.cpp:91] Creating Layer inception_4a/relu_1x1
I0403 15:42:06.563462 14126 net.cpp:425] inception_4a/relu_1x1 <- inception_4a/1x1
I0403 15:42:06.563480 14126 net.cpp:386] inception_4a/relu_1x1 -> inception_4a/1x1 (in-place)
I0403 15:42:06.563652 14126 net.cpp:141] Setting up inception_4a/relu_1x1
I0403 15:42:06.563676 14126 net.cpp:148] Top shape: 24 192 14 14 (903168)
I0403 15:42:06.563691 14126 net.cpp:156] Memory required for data: 861623328
I0403 15:42:06.563705 14126 layer_factory.hpp:77] Creating layer inception_4a/3x3_reduce
I0403 15:42:06.563727 14126 net.cpp:91] Creating Layer inception_4a/3x3_reduce
I0403 15:42:06.563746 14126 net.cpp:425] inception_4a/3x3_reduce <- pool3/3x3_s2_pool3/3x3_s2_0_split_1
I0403 15:42:06.563767 14126 net.cpp:399] inception_4a/3x3_reduce -> inception_4a/3x3_reduce
I0403 15:42:06.564993 14126 net.cpp:141] Setting up inception_4a/3x3_reduce
I0403 15:42:06.565022 14126 net.cpp:148] Top shape: 24 96 14 14 (451584)
I0403 15:42:06.565037 14126 net.cpp:156] Memory required for data: 863429664
I0403 15:42:06.565059 14126 layer_factory.hpp:77] Creating layer inception_4a/relu_3x3_reduce
I0403 15:42:06.565083 14126 net.cpp:91] Creating Layer inception_4a/relu_3x3_reduce
I0403 15:42:06.565099 14126 net.cpp:425] inception_4a/relu_3x3_reduce <- inception_4a/3x3_reduce
I0403 15:42:06.565119 14126 net.cpp:386] inception_4a/relu_3x3_reduce -> inception_4a/3x3_reduce (in-place)
I0403 15:42:06.565297 14126 net.cpp:141] Setting up inception_4a/relu_3x3_reduce
I0403 15:42:06.565323 14126 net.cpp:148] Top shape: 24 96 14 14 (451584)
I0403 15:42:06.565338 14126 net.cpp:156] Memory required for data: 865236000
I0403 15:42:06.565352 14126 layer_factory.hpp:77] Creating layer inception_4a/3x3
I0403 15:42:06.565374 14126 net.cpp:91] Creating Layer inception_4a/3x3
I0403 15:42:06.565393 14126 net.cpp:425] inception_4a/3x3 <- inception_4a/3x3_reduce
I0403 15:42:06.565414 14126 net.cpp:399] inception_4a/3x3 -> inception_4a/3x3
I0403 15:42:06.568032 14126 net.cpp:141] Setting up inception_4a/3x3
I0403 15:42:06.568058 14126 net.cpp:148] Top shape: 24 208 14 14 (978432)
I0403 15:42:06.568073 14126 net.cpp:156] Memory required for data: 869149728
I0403 15:42:06.568090 14126 layer_factory.hpp:77] Creating layer inception_4a/relu_3x3
I0403 15:42:06.568111 14126 net.cpp:91] Creating Layer inception_4a/relu_3x3
I0403 15:42:06.568131 14126 net.cpp:425] inception_4a/relu_3x3 <- inception_4a/3x3
I0403 15:42:06.568151 14126 net.cpp:386] inception_4a/relu_3x3 -> inception_4a/3x3 (in-place)
I0403 15:42:06.568409 14126 net.cpp:141] Setting up inception_4a/relu_3x3
I0403 15:42:06.568435 14126 net.cpp:148] Top shape: 24 208 14 14 (978432)
I0403 15:42:06.568449 14126 net.cpp:156] Memory required for data: 873063456
I0403 15:42:06.568464 14126 layer_factory.hpp:77] Creating layer inception_4a/5x5_reduce
I0403 15:42:06.568485 14126 net.cpp:91] Creating Layer inception_4a/5x5_reduce
I0403 15:42:06.568502 14126 net.cpp:425] inception_4a/5x5_reduce <- pool3/3x3_s2_pool3/3x3_s2_0_split_2
I0403 15:42:06.568523 14126 net.cpp:399] inception_4a/5x5_reduce -> inception_4a/5x5_reduce
I0403 15:42:06.569474 14126 net.cpp:141] Setting up inception_4a/5x5_reduce
I0403 15:42:06.569502 14126 net.cpp:148] Top shape: 24 16 14 14 (75264)
I0403 15:42:06.569516 14126 net.cpp:156] Memory required for data: 873364512
I0403 15:42:06.569535 14126 layer_factory.hpp:77] Creating layer inception_4a/relu_5x5_reduce
I0403 15:42:06.569556 14126 net.cpp:91] Creating Layer inception_4a/relu_5x5_reduce
I0403 15:42:06.569574 14126 net.cpp:425] inception_4a/relu_5x5_reduce <- inception_4a/5x5_reduce
I0403 15:42:06.569591 14126 net.cpp:386] inception_4a/relu_5x5_reduce -> inception_4a/5x5_reduce (in-place)
I0403 15:42:06.569756 14126 net.cpp:141] Setting up inception_4a/relu_5x5_reduce
I0403 15:42:06.569782 14126 net.cpp:148] Top shape: 24 16 14 14 (75264)
I0403 15:42:06.569798 14126 net.cpp:156] Memory required for data: 873665568
I0403 15:42:06.569813 14126 layer_factory.hpp:77] Creating layer inception_4a/5x5
I0403 15:42:06.569834 14126 net.cpp:91] Creating Layer inception_4a/5x5
I0403 15:42:06.569851 14126 net.cpp:425] inception_4a/5x5 <- inception_4a/5x5_reduce
I0403 15:42:06.569869 14126 net.cpp:399] inception_4a/5x5 -> inception_4a/5x5
I0403 15:42:06.570883 14126 net.cpp:141] Setting up inception_4a/5x5
I0403 15:42:06.570912 14126 net.cpp:148] Top shape: 24 48 14 14 (225792)
I0403 15:42:06.570930 14126 net.cpp:156] Memory required for data: 874568736
I0403 15:42:06.570947 14126 layer_factory.hpp:77] Creating layer inception_4a/relu_5x5
I0403 15:42:06.570966 14126 net.cpp:91] Creating Layer inception_4a/relu_5x5
I0403 15:42:06.570982 14126 net.cpp:425] inception_4a/relu_5x5 <- inception_4a/5x5
I0403 15:42:06.570998 14126 net.cpp:386] inception_4a/relu_5x5 -> inception_4a/5x5 (in-place)
I0403 15:42:06.571171 14126 net.cpp:141] Setting up inception_4a/relu_5x5
I0403 15:42:06.571197 14126 net.cpp:148] Top shape: 24 48 14 14 (225792)
I0403 15:42:06.571210 14126 net.cpp:156] Memory required for data: 875471904
I0403 15:42:06.571224 14126 layer_factory.hpp:77] Creating layer inception_4a/pool
I0403 15:42:06.571241 14126 net.cpp:91] Creating Layer inception_4a/pool
I0403 15:42:06.571256 14126 net.cpp:425] inception_4a/pool <- pool3/3x3_s2_pool3/3x3_s2_0_split_3
I0403 15:42:06.571275 14126 net.cpp:399] inception_4a/pool -> inception_4a/pool
I0403 15:42:06.571333 14126 net.cpp:141] Setting up inception_4a/pool
I0403 15:42:06.571372 14126 net.cpp:148] Top shape: 24 480 14 14 (2257920)
I0403 15:42:06.571388 14126 net.cpp:156] Memory required for data: 884503584
I0403 15:42:06.571401 14126 layer_factory.hpp:77] Creating layer inception_4a/pool_proj
I0403 15:42:06.571424 14126 net.cpp:91] Creating Layer inception_4a/pool_proj
I0403 15:42:06.571440 14126 net.cpp:425] inception_4a/pool_proj <- inception_4a/pool
I0403 15:42:06.571460 14126 net.cpp:399] inception_4a/pool_proj -> inception_4a/pool_proj
I0403 15:42:06.572561 14126 net.cpp:141] Setting up inception_4a/pool_proj
I0403 15:42:06.572589 14126 net.cpp:148] Top shape: 24 64 14 14 (301056)
I0403 15:42:06.572619 14126 net.cpp:156] Memory required for data: 885707808
I0403 15:42:06.572638 14126 layer_factory.hpp:77] Creating layer inception_4a/relu_pool_proj
I0403 15:42:06.572655 14126 net.cpp:91] Creating Layer inception_4a/relu_pool_proj
I0403 15:42:06.572670 14126 net.cpp:425] inception_4a/relu_pool_proj <- inception_4a/pool_proj
I0403 15:42:06.572692 14126 net.cpp:386] inception_4a/relu_pool_proj -> inception_4a/pool_proj (in-place)
I0403 15:42:06.572957 14126 net.cpp:141] Setting up inception_4a/relu_pool_proj
I0403 15:42:06.572983 14126 net.cpp:148] Top shape: 24 64 14 14 (301056)
I0403 15:42:06.572998 14126 net.cpp:156] Memory required for data: 886912032
I0403 15:42:06.573011 14126 layer_factory.hpp:77] Creating layer inception_4a/output
I0403 15:42:06.573029 14126 net.cpp:91] Creating Layer inception_4a/output
I0403 15:42:06.573045 14126 net.cpp:425] inception_4a/output <- inception_4a/1x1
I0403 15:42:06.573060 14126 net.cpp:425] inception_4a/output <- inception_4a/3x3
I0403 15:42:06.573076 14126 net.cpp:425] inception_4a/output <- inception_4a/5x5
I0403 15:42:06.573091 14126 net.cpp:425] inception_4a/output <- inception_4a/pool_proj
I0403 15:42:06.573109 14126 net.cpp:399] inception_4a/output -> inception_4a/output
I0403 15:42:06.573161 14126 net.cpp:141] Setting up inception_4a/output
I0403 15:42:06.573185 14126 net.cpp:148] Top shape: 24 512 14 14 (2408448)
I0403 15:42:06.573202 14126 net.cpp:156] Memory required for data: 896545824
I0403 15:42:06.573217 14126 layer_factory.hpp:77] Creating layer inception_4a/output_inception_4a/output_0_split
I0403 15:42:06.573235 14126 net.cpp:91] Creating Layer inception_4a/output_inception_4a/output_0_split
I0403 15:42:06.573248 14126 net.cpp:425] inception_4a/output_inception_4a/output_0_split <- inception_4a/output
I0403 15:42:06.573266 14126 net.cpp:399] inception_4a/output_inception_4a/output_0_split -> inception_4a/output_inception_4a/output_0_split_0
I0403 15:42:06.573285 14126 net.cpp:399] inception_4a/output_inception_4a/output_0_split -> inception_4a/output_inception_4a/output_0_split_1
I0403 15:42:06.573307 14126 net.cpp:399] inception_4a/output_inception_4a/output_0_split -> inception_4a/output_inception_4a/output_0_split_2
I0403 15:42:06.573329 14126 net.cpp:399] inception_4a/output_inception_4a/output_0_split -> inception_4a/output_inception_4a/output_0_split_3
I0403 15:42:06.573350 14126 net.cpp:399] inception_4a/output_inception_4a/output_0_split -> inception_4a/output_inception_4a/output_0_split_4
I0403 15:42:06.573436 14126 net.cpp:141] Setting up inception_4a/output_inception_4a/output_0_split
I0403 15:42:06.573458 14126 net.cpp:148] Top shape: 24 512 14 14 (2408448)
I0403 15:42:06.573474 14126 net.cpp:148] Top shape: 24 512 14 14 (2408448)
I0403 15:42:06.573489 14126 net.cpp:148] Top shape: 24 512 14 14 (2408448)
I0403 15:42:06.573504 14126 net.cpp:148] Top shape: 24 512 14 14 (2408448)
I0403 15:42:06.573519 14126 net.cpp:148] Top shape: 24 512 14 14 (2408448)
I0403 15:42:06.573532 14126 net.cpp:156] Memory required for data: 944714784
I0403 15:42:06.573546 14126 layer_factory.hpp:77] Creating layer loss1/ave_pool
I0403 15:42:06.573565 14126 net.cpp:91] Creating Layer loss1/ave_pool
I0403 15:42:06.573582 14126 net.cpp:425] loss1/ave_pool <- inception_4a/output_inception_4a/output_0_split_0
I0403 15:42:06.573601 14126 net.cpp:399] loss1/ave_pool -> loss1/ave_pool
I0403 15:42:06.573792 14126 net.cpp:141] Setting up loss1/ave_pool
I0403 15:42:06.573817 14126 net.cpp:148] Top shape: 24 512 4 4 (196608)
I0403 15:42:06.573832 14126 net.cpp:156] Memory required for data: 945501216
I0403 15:42:06.573846 14126 layer_factory.hpp:77] Creating layer loss1/conv
I0403 15:42:06.573868 14126 net.cpp:91] Creating Layer loss1/conv
I0403 15:42:06.573885 14126 net.cpp:425] loss1/conv <- loss1/ave_pool
I0403 15:42:06.573906 14126 net.cpp:399] loss1/conv -> loss1/conv
I0403 15:42:06.575214 14126 net.cpp:141] Setting up loss1/conv
I0403 15:42:06.575242 14126 net.cpp:148] Top shape: 24 128 4 4 (49152)
I0403 15:42:06.575258 14126 net.cpp:156] Memory required for data: 945697824
I0403 15:42:06.575290 14126 layer_factory.hpp:77] Creating layer loss1/relu_conv
I0403 15:42:06.575311 14126 net.cpp:91] Creating Layer loss1/relu_conv
I0403 15:42:06.575328 14126 net.cpp:425] loss1/relu_conv <- loss1/conv
I0403 15:42:06.575346 14126 net.cpp:386] loss1/relu_conv -> loss1/conv (in-place)
I0403 15:42:06.575615 14126 net.cpp:141] Setting up loss1/relu_conv
I0403 15:42:06.575641 14126 net.cpp:148] Top shape: 24 128 4 4 (49152)
I0403 15:42:06.575655 14126 net.cpp:156] Memory required for data: 945894432
I0403 15:42:06.575670 14126 layer_factory.hpp:77] Creating layer loss1/fc
I0403 15:42:06.575695 14126 net.cpp:91] Creating Layer loss1/fc
I0403 15:42:06.575714 14126 net.cpp:425] loss1/fc <- loss1/conv
I0403 15:42:06.575733 14126 net.cpp:399] loss1/fc -> loss1/fc
I0403 15:42:06.593036 14126 net.cpp:141] Setting up loss1/fc
I0403 15:42:06.593072 14126 net.cpp:148] Top shape: 24 1024 (24576)
I0403 15:42:06.593087 14126 net.cpp:156] Memory required for data: 945992736
I0403 15:42:06.593106 14126 layer_factory.hpp:77] Creating layer loss1/relu_fc
I0403 15:42:06.593132 14126 net.cpp:91] Creating Layer loss1/relu_fc
I0403 15:42:06.593152 14126 net.cpp:425] loss1/relu_fc <- loss1/fc
I0403 15:42:06.593173 14126 net.cpp:386] loss1/relu_fc -> loss1/fc (in-place)
I0403 15:42:06.593353 14126 net.cpp:141] Setting up loss1/relu_fc
I0403 15:42:06.593379 14126 net.cpp:148] Top shape: 24 1024 (24576)
I0403 15:42:06.593394 14126 net.cpp:156] Memory required for data: 946091040
I0403 15:42:06.593407 14126 layer_factory.hpp:77] Creating layer loss1/drop_fc
I0403 15:42:06.593435 14126 net.cpp:91] Creating Layer loss1/drop_fc
I0403 15:42:06.593453 14126 net.cpp:425] loss1/drop_fc <- loss1/fc
I0403 15:42:06.593471 14126 net.cpp:386] loss1/drop_fc -> loss1/fc (in-place)
I0403 15:42:06.593519 14126 net.cpp:141] Setting up loss1/drop_fc
I0403 15:42:06.593545 14126 net.cpp:148] Top shape: 24 1024 (24576)
I0403 15:42:06.593560 14126 net.cpp:156] Memory required for data: 946189344
I0403 15:42:06.593576 14126 layer_factory.hpp:77] Creating layer loss1/classifier_plantvillage
I0403 15:42:06.593595 14126 net.cpp:91] Creating Layer loss1/classifier_plantvillage
I0403 15:42:06.593610 14126 net.cpp:425] loss1/classifier_plantvillage <- loss1/fc
I0403 15:42:06.593629 14126 net.cpp:399] loss1/classifier_plantvillage -> loss1/classifier_plantvillage
I0403 15:42:06.594506 14126 net.cpp:141] Setting up loss1/classifier_plantvillage
I0403 15:42:06.594534 14126 net.cpp:148] Top shape: 24 38 (912)
I0403 15:42:06.594561 14126 net.cpp:156] Memory required for data: 946192992
I0403 15:42:06.594580 14126 layer_factory.hpp:77] Creating layer loss1/classifier_plantvillage_loss1/classifier_plantvillage_0_split
I0403 15:42:06.594599 14126 net.cpp:91] Creating Layer loss1/classifier_plantvillage_loss1/classifier_plantvillage_0_split
I0403 15:42:06.594614 14126 net.cpp:425] loss1/classifier_plantvillage_loss1/classifier_plantvillage_0_split <- loss1/classifier_plantvillage
I0403 15:42:06.594635 14126 net.cpp:399] loss1/classifier_plantvillage_loss1/classifier_plantvillage_0_split -> loss1/classifier_plantvillage_loss1/classifier_plantvillage_0_split_0
I0403 15:42:06.594655 14126 net.cpp:399] loss1/classifier_plantvillage_loss1/classifier_plantvillage_0_split -> loss1/classifier_plantvillage_loss1/classifier_plantvillage_0_split_1
I0403 15:42:06.594676 14126 net.cpp:399] loss1/classifier_plantvillage_loss1/classifier_plantvillage_0_split -> loss1/classifier_plantvillage_loss1/classifier_plantvillage_0_split_2
I0403 15:42:06.594743 14126 net.cpp:141] Setting up loss1/classifier_plantvillage_loss1/classifier_plantvillage_0_split
I0403 15:42:06.594769 14126 net.cpp:148] Top shape: 24 38 (912)
I0403 15:42:06.594787 14126 net.cpp:148] Top shape: 24 38 (912)
I0403 15:42:06.594802 14126 net.cpp:148] Top shape: 24 38 (912)
I0403 15:42:06.594828 14126 net.cpp:156] Memory required for data: 946203936
I0403 15:42:06.594842 14126 layer_factory.hpp:77] Creating layer inception_4b/1x1
I0403 15:42:06.594861 14126 net.cpp:91] Creating Layer inception_4b/1x1
I0403 15:42:06.594893 14126 net.cpp:425] inception_4b/1x1 <- inception_4a/output_inception_4a/output_0_split_1
I0403 15:42:06.594914 14126 net.cpp:399] inception_4b/1x1 -> inception_4b/1x1
I0403 15:42:06.596503 14126 net.cpp:141] Setting up inception_4b/1x1
I0403 15:42:06.596531 14126 net.cpp:148] Top shape: 24 160 14 14 (752640)
I0403 15:42:06.596546 14126 net.cpp:156] Memory required for data: 949214496
I0403 15:42:06.596565 14126 layer_factory.hpp:77] Creating layer inception_4b/relu_1x1
I0403 15:42:06.596585 14126 net.cpp:91] Creating Layer inception_4b/relu_1x1
I0403 15:42:06.596601 14126 net.cpp:425] inception_4b/relu_1x1 <- inception_4b/1x1
I0403 15:42:06.596616 14126 net.cpp:386] inception_4b/relu_1x1 -> inception_4b/1x1 (in-place)
I0403 15:42:06.596784 14126 net.cpp:141] Setting up inception_4b/relu_1x1
I0403 15:42:06.596812 14126 net.cpp:148] Top shape: 24 160 14 14 (752640)
I0403 15:42:06.596827 14126 net.cpp:156] Memory required for data: 952225056
I0403 15:42:06.596843 14126 layer_factory.hpp:77] Creating layer inception_4b/3x3_reduce
I0403 15:42:06.596863 14126 net.cpp:91] Creating Layer inception_4b/3x3_reduce
I0403 15:42:06.596880 14126 net.cpp:425] inception_4b/3x3_reduce <- inception_4a/output_inception_4a/output_0_split_2
I0403 15:42:06.596899 14126 net.cpp:399] inception_4b/3x3_reduce -> inception_4b/3x3_reduce
I0403 15:42:06.598172 14126 net.cpp:141] Setting up inception_4b/3x3_reduce
I0403 15:42:06.598199 14126 net.cpp:148] Top shape: 24 112 14 14 (526848)
I0403 15:42:06.598213 14126 net.cpp:156] Memory required for data: 954332448
I0403 15:42:06.598232 14126 layer_factory.hpp:77] Creating layer inception_4b/relu_3x3_reduce
I0403 15:42:06.598253 14126 net.cpp:91] Creating Layer inception_4b/relu_3x3_reduce
I0403 15:42:06.598269 14126 net.cpp:425] inception_4b/relu_3x3_reduce <- inception_4b/3x3_reduce
I0403 15:42:06.598286 14126 net.cpp:386] inception_4b/relu_3x3_reduce -> inception_4b/3x3_reduce (in-place)
I0403 15:42:06.598554 14126 net.cpp:141] Setting up inception_4b/relu_3x3_reduce
I0403 15:42:06.598580 14126 net.cpp:148] Top shape: 24 112 14 14 (526848)
I0403 15:42:06.598594 14126 net.cpp:156] Memory required for data: 956439840
I0403 15:42:06.598609 14126 layer_factory.hpp:77] Creating layer inception_4b/3x3
I0403 15:42:06.598633 14126 net.cpp:91] Creating Layer inception_4b/3x3
I0403 15:42:06.598650 14126 net.cpp:425] inception_4b/3x3 <- inception_4b/3x3_reduce
I0403 15:42:06.598669 14126 net.cpp:399] inception_4b/3x3 -> inception_4b/3x3
I0403 15:42:06.601492 14126 net.cpp:141] Setting up inception_4b/3x3
I0403 15:42:06.601521 14126 net.cpp:148] Top shape: 24 224 14 14 (1053696)
I0403 15:42:06.601536 14126 net.cpp:156] Memory required for data: 960654624
I0403 15:42:06.601554 14126 layer_factory.hpp:77] Creating layer inception_4b/relu_3x3
I0403 15:42:06.601572 14126 net.cpp:91] Creating Layer inception_4b/relu_3x3
I0403 15:42:06.601588 14126 net.cpp:425] inception_4b/relu_3x3 <- inception_4b/3x3
I0403 15:42:06.601608 14126 net.cpp:386] inception_4b/relu_3x3 -> inception_4b/3x3 (in-place)
I0403 15:42:06.601778 14126 net.cpp:141] Setting up inception_4b/relu_3x3
I0403 15:42:06.601804 14126 net.cpp:148] Top shape: 24 224 14 14 (1053696)
I0403 15:42:06.601816 14126 net.cpp:156] Memory required for data: 964869408
I0403 15:42:06.601830 14126 layer_factory.hpp:77] Creating layer inception_4b/5x5_reduce
I0403 15:42:06.601852 14126 net.cpp:91] Creating Layer inception_4b/5x5_reduce
I0403 15:42:06.601869 14126 net.cpp:425] inception_4b/5x5_reduce <- inception_4a/output_inception_4a/output_0_split_3
I0403 15:42:06.601891 14126 net.cpp:399] inception_4b/5x5_reduce -> inception_4b/5x5_reduce
I0403 15:42:06.602911 14126 net.cpp:141] Setting up inception_4b/5x5_reduce
I0403 15:42:06.602938 14126 net.cpp:148] Top shape: 24 24 14 14 (112896)
I0403 15:42:06.602952 14126 net.cpp:156] Memory required for data: 965320992
I0403 15:42:06.602969 14126 layer_factory.hpp:77] Creating layer inception_4b/relu_5x5_reduce
I0403 15:42:06.602993 14126 net.cpp:91] Creating Layer inception_4b/relu_5x5_reduce
I0403 15:42:06.603023 14126 net.cpp:425] inception_4b/relu_5x5_reduce <- inception_4b/5x5_reduce
I0403 15:42:06.603040 14126 net.cpp:386] inception_4b/relu_5x5_reduce -> inception_4b/5x5_reduce (in-place)
I0403 15:42:06.603224 14126 net.cpp:141] Setting up inception_4b/relu_5x5_reduce
I0403 15:42:06.603251 14126 net.cpp:148] Top shape: 24 24 14 14 (112896)
I0403 15:42:06.603266 14126 net.cpp:156] Memory required for data: 965772576
I0403 15:42:06.603281 14126 layer_factory.hpp:77] Creating layer inception_4b/5x5
I0403 15:42:06.603303 14126 net.cpp:91] Creating Layer inception_4b/5x5
I0403 15:42:06.603322 14126 net.cpp:425] inception_4b/5x5 <- inception_4b/5x5_reduce
I0403 15:42:06.603340 14126 net.cpp:399] inception_4b/5x5 -> inception_4b/5x5
I0403 15:42:06.604486 14126 net.cpp:141] Setting up inception_4b/5x5
I0403 15:42:06.604513 14126 net.cpp:148] Top shape: 24 64 14 14 (301056)
I0403 15:42:06.604528 14126 net.cpp:156] Memory required for data: 966976800
I0403 15:42:06.604547 14126 layer_factory.hpp:77] Creating layer inception_4b/relu_5x5
I0403 15:42:06.604568 14126 net.cpp:91] Creating Layer inception_4b/relu_5x5
I0403 15:42:06.604585 14126 net.cpp:425] inception_4b/relu_5x5 <- inception_4b/5x5
I0403 15:42:06.604603 14126 net.cpp:386] inception_4b/relu_5x5 -> inception_4b/5x5 (in-place)
I0403 15:42:06.604868 14126 net.cpp:141] Setting up inception_4b/relu_5x5
I0403 15:42:06.604893 14126 net.cpp:148] Top shape: 24 64 14 14 (301056)
I0403 15:42:06.604908 14126 net.cpp:156] Memory required for data: 968181024
I0403 15:42:06.604923 14126 layer_factory.hpp:77] Creating layer inception_4b/pool
I0403 15:42:06.604943 14126 net.cpp:91] Creating Layer inception_4b/pool
I0403 15:42:06.604959 14126 net.cpp:425] inception_4b/pool <- inception_4a/output_inception_4a/output_0_split_4
I0403 15:42:06.604977 14126 net.cpp:399] inception_4b/pool -> inception_4b/pool
I0403 15:42:06.605039 14126 net.cpp:141] Setting up inception_4b/pool
I0403 15:42:06.605062 14126 net.cpp:148] Top shape: 24 512 14 14 (2408448)
I0403 15:42:06.605077 14126 net.cpp:156] Memory required for data: 977814816
I0403 15:42:06.605092 14126 layer_factory.hpp:77] Creating layer inception_4b/pool_proj
I0403 15:42:06.605113 14126 net.cpp:91] Creating Layer inception_4b/pool_proj
I0403 15:42:06.605134 14126 net.cpp:425] inception_4b/pool_proj <- inception_4b/pool
I0403 15:42:06.605155 14126 net.cpp:399] inception_4b/pool_proj -> inception_4b/pool_proj
I0403 15:42:06.606312 14126 net.cpp:141] Setting up inception_4b/pool_proj
I0403 15:42:06.606339 14126 net.cpp:148] Top shape: 24 64 14 14 (301056)
I0403 15:42:06.606355 14126 net.cpp:156] Memory required for data: 979019040
I0403 15:42:06.606374 14126 layer_factory.hpp:77] Creating layer inception_4b/relu_pool_proj
I0403 15:42:06.606395 14126 net.cpp:91] Creating Layer inception_4b/relu_pool_proj
I0403 15:42:06.606411 14126 net.cpp:425] inception_4b/relu_pool_proj <- inception_4b/pool_proj
I0403 15:42:06.606428 14126 net.cpp:386] inception_4b/relu_pool_proj -> inception_4b/pool_proj (in-place)
I0403 15:42:06.606602 14126 net.cpp:141] Setting up inception_4b/relu_pool_proj
I0403 15:42:06.606629 14126 net.cpp:148] Top shape: 24 64 14 14 (301056)
I0403 15:42:06.606644 14126 net.cpp:156] Memory required for data: 980223264
I0403 15:42:06.606659 14126 layer_factory.hpp:77] Creating layer inception_4b/output
I0403 15:42:06.606676 14126 net.cpp:91] Creating Layer inception_4b/output
I0403 15:42:06.606693 14126 net.cpp:425] inception_4b/output <- inception_4b/1x1
I0403 15:42:06.606709 14126 net.cpp:425] inception_4b/output <- inception_4b/3x3
I0403 15:42:06.606724 14126 net.cpp:425] inception_4b/output <- inception_4b/5x5
I0403 15:42:06.606739 14126 net.cpp:425] inception_4b/output <- inception_4b/pool_proj
I0403 15:42:06.606758 14126 net.cpp:399] inception_4b/output -> inception_4b/output
I0403 15:42:06.606801 14126 net.cpp:141] Setting up inception_4b/output
I0403 15:42:06.606823 14126 net.cpp:148] Top shape: 24 512 14 14 (2408448)
I0403 15:42:06.606837 14126 net.cpp:156] Memory required for data: 989857056
I0403 15:42:06.606866 14126 layer_factory.hpp:77] Creating layer inception_4b/output_inception_4b/output_0_split
I0403 15:42:06.606886 14126 net.cpp:91] Creating Layer inception_4b/output_inception_4b/output_0_split
I0403 15:42:06.606902 14126 net.cpp:425] inception_4b/output_inception_4b/output_0_split <- inception_4b/output
I0403 15:42:06.606920 14126 net.cpp:399] inception_4b/output_inception_4b/output_0_split -> inception_4b/output_inception_4b/output_0_split_0
I0403 15:42:06.606940 14126 net.cpp:399] inception_4b/output_inception_4b/output_0_split -> inception_4b/output_inception_4b/output_0_split_1
I0403 15:42:06.606959 14126 net.cpp:399] inception_4b/output_inception_4b/output_0_split -> inception_4b/output_inception_4b/output_0_split_2
I0403 15:42:06.606983 14126 net.cpp:399] inception_4b/output_inception_4b/output_0_split -> inception_4b/output_inception_4b/output_0_split_3
I0403 15:42:06.607062 14126 net.cpp:141] Setting up inception_4b/output_inception_4b/output_0_split
I0403 15:42:06.607085 14126 net.cpp:148] Top shape: 24 512 14 14 (2408448)
I0403 15:42:06.607102 14126 net.cpp:148] Top shape: 24 512 14 14 (2408448)
I0403 15:42:06.607116 14126 net.cpp:148] Top shape: 24 512 14 14 (2408448)
I0403 15:42:06.607136 14126 net.cpp:148] Top shape: 24 512 14 14 (2408448)
I0403 15:42:06.607151 14126 net.cpp:156] Memory required for data: 1028392224
I0403 15:42:06.607164 14126 layer_factory.hpp:77] Creating layer inception_4c/1x1
I0403 15:42:06.607185 14126 net.cpp:91] Creating Layer inception_4c/1x1
I0403 15:42:06.607203 14126 net.cpp:425] inception_4c/1x1 <- inception_4b/output_inception_4b/output_0_split_0
I0403 15:42:06.607223 14126 net.cpp:399] inception_4c/1x1 -> inception_4c/1x1
I0403 15:42:06.608568 14126 net.cpp:141] Setting up inception_4c/1x1
I0403 15:42:06.608598 14126 net.cpp:148] Top shape: 24 128 14 14 (602112)
I0403 15:42:06.608615 14126 net.cpp:156] Memory required for data: 1030800672
I0403 15:42:06.608633 14126 layer_factory.hpp:77] Creating layer inception_4c/relu_1x1
I0403 15:42:06.608649 14126 net.cpp:91] Creating Layer inception_4c/relu_1x1
I0403 15:42:06.608665 14126 net.cpp:425] inception_4c/relu_1x1 <- inception_4c/1x1
I0403 15:42:06.608683 14126 net.cpp:386] inception_4c/relu_1x1 -> inception_4c/1x1 (in-place)
I0403 15:42:06.608877 14126 net.cpp:141] Setting up inception_4c/relu_1x1
I0403 15:42:06.608903 14126 net.cpp:148] Top shape: 24 128 14 14 (602112)
I0403 15:42:06.608917 14126 net.cpp:156] Memory required for data: 1033209120
I0403 15:42:06.608932 14126 layer_factory.hpp:77] Creating layer inception_4c/3x3_reduce
I0403 15:42:06.608955 14126 net.cpp:91] Creating Layer inception_4c/3x3_reduce
I0403 15:42:06.608973 14126 net.cpp:425] inception_4c/3x3_reduce <- inception_4b/output_inception_4b/output_0_split_1
I0403 15:42:06.608995 14126 net.cpp:399] inception_4c/3x3_reduce -> inception_4c/3x3_reduce
I0403 15:42:06.610916 14126 net.cpp:141] Setting up inception_4c/3x3_reduce
I0403 15:42:06.610945 14126 net.cpp:148] Top shape: 24 128 14 14 (602112)
I0403 15:42:06.610961 14126 net.cpp:156] Memory required for data: 1035617568
I0403 15:42:06.610980 14126 layer_factory.hpp:77] Creating layer inception_4c/relu_3x3_reduce
I0403 15:42:06.610999 14126 net.cpp:91] Creating Layer inception_4c/relu_3x3_reduce
I0403 15:42:06.611017 14126 net.cpp:425] inception_4c/relu_3x3_reduce <- inception_4c/3x3_reduce
I0403 15:42:06.611034 14126 net.cpp:386] inception_4c/relu_3x3_reduce -> inception_4c/3x3_reduce (in-place)
I0403 15:42:06.611315 14126 net.cpp:141] Setting up inception_4c/relu_3x3_reduce
I0403 15:42:06.611342 14126 net.cpp:148] Top shape: 24 128 14 14 (602112)
I0403 15:42:06.611357 14126 net.cpp:156] Memory required for data: 1038026016
I0403 15:42:06.611371 14126 layer_factory.hpp:77] Creating layer inception_4c/3x3
I0403 15:42:06.611397 14126 net.cpp:91] Creating Layer inception_4c/3x3
I0403 15:42:06.611414 14126 net.cpp:425] inception_4c/3x3 <- inception_4c/3x3_reduce
I0403 15:42:06.611436 14126 net.cpp:399] inception_4c/3x3 -> inception_4c/3x3
I0403 15:42:06.614926 14126 net.cpp:141] Setting up inception_4c/3x3
I0403 15:42:06.614967 14126 net.cpp:148] Top shape: 24 256 14 14 (1204224)
I0403 15:42:06.614984 14126 net.cpp:156] Memory required for data: 1042842912
I0403 15:42:06.615015 14126 layer_factory.hpp:77] Creating layer inception_4c/relu_3x3
I0403 15:42:06.615038 14126 net.cpp:91] Creating Layer inception_4c/relu_3x3
I0403 15:42:06.615056 14126 net.cpp:425] inception_4c/relu_3x3 <- inception_4c/3x3
I0403 15:42:06.615073 14126 net.cpp:386] inception_4c/relu_3x3 -> inception_4c/3x3 (in-place)
I0403 15:42:06.615257 14126 net.cpp:141] Setting up inception_4c/relu_3x3
I0403 15:42:06.615283 14126 net.cpp:148] Top shape: 24 256 14 14 (1204224)
I0403 15:42:06.615298 14126 net.cpp:156] Memory required for data: 1047659808
I0403 15:42:06.615311 14126 layer_factory.hpp:77] Creating layer inception_4c/5x5_reduce
I0403 15:42:06.615334 14126 net.cpp:91] Creating Layer inception_4c/5x5_reduce
I0403 15:42:06.615367 14126 net.cpp:425] inception_4c/5x5_reduce <- inception_4b/output_inception_4b/output_0_split_2
I0403 15:42:06.615388 14126 net.cpp:399] inception_4c/5x5_reduce -> inception_4c/5x5_reduce
I0403 15:42:06.616493 14126 net.cpp:141] Setting up inception_4c/5x5_reduce
I0403 15:42:06.616521 14126 net.cpp:148] Top shape: 24 24 14 14 (112896)
I0403 15:42:06.616538 14126 net.cpp:156] Memory required for data: 1048111392
I0403 15:42:06.616555 14126 layer_factory.hpp:77] Creating layer inception_4c/relu_5x5_reduce
I0403 15:42:06.616577 14126 net.cpp:91] Creating Layer inception_4c/relu_5x5_reduce
I0403 15:42:06.616595 14126 net.cpp:425] inception_4c/relu_5x5_reduce <- inception_4c/5x5_reduce
I0403 15:42:06.616612 14126 net.cpp:386] inception_4c/relu_5x5_reduce -> inception_4c/5x5_reduce (in-place)
I0403 15:42:06.616796 14126 net.cpp:141] Setting up inception_4c/relu_5x5_reduce
I0403 15:42:06.616822 14126 net.cpp:148] Top shape: 24 24 14 14 (112896)
I0403 15:42:06.616837 14126 net.cpp:156] Memory required for data: 1048562976
I0403 15:42:06.616852 14126 layer_factory.hpp:77] Creating layer inception_4c/5x5
I0403 15:42:06.616873 14126 net.cpp:91] Creating Layer inception_4c/5x5
I0403 15:42:06.616890 14126 net.cpp:425] inception_4c/5x5 <- inception_4c/5x5_reduce
I0403 15:42:06.616909 14126 net.cpp:399] inception_4c/5x5 -> inception_4c/5x5
I0403 15:42:06.618110 14126 net.cpp:141] Setting up inception_4c/5x5
I0403 15:42:06.618144 14126 net.cpp:148] Top shape: 24 64 14 14 (301056)
I0403 15:42:06.618160 14126 net.cpp:156] Memory required for data: 1049767200
I0403 15:42:06.618180 14126 layer_factory.hpp:77] Creating layer inception_4c/relu_5x5
I0403 15:42:06.618197 14126 net.cpp:91] Creating Layer inception_4c/relu_5x5
I0403 15:42:06.618213 14126 net.cpp:425] inception_4c/relu_5x5 <- inception_4c/5x5
I0403 15:42:06.618232 14126 net.cpp:386] inception_4c/relu_5x5 -> inception_4c/5x5 (in-place)
I0403 15:42:06.618527 14126 net.cpp:141] Setting up inception_4c/relu_5x5
I0403 15:42:06.618556 14126 net.cpp:148] Top shape: 24 64 14 14 (301056)
I0403 15:42:06.618573 14126 net.cpp:156] Memory required for data: 1050971424
I0403 15:42:06.618589 14126 layer_factory.hpp:77] Creating layer inception_4c/pool
I0403 15:42:06.618608 14126 net.cpp:91] Creating Layer inception_4c/pool
I0403 15:42:06.618625 14126 net.cpp:425] inception_4c/pool <- inception_4b/output_inception_4b/output_0_split_3
I0403 15:42:06.618657 14126 net.cpp:399] inception_4c/pool -> inception_4c/pool
I0403 15:42:06.618722 14126 net.cpp:141] Setting up inception_4c/pool
I0403 15:42:06.618746 14126 net.cpp:148] Top shape: 24 512 14 14 (2408448)
I0403 15:42:06.618762 14126 net.cpp:156] Memory required for data: 1060605216
I0403 15:42:06.618777 14126 layer_factory.hpp:77] Creating layer inception_4c/pool_proj
I0403 15:42:06.618798 14126 net.cpp:91] Creating Layer inception_4c/pool_proj
I0403 15:42:06.618816 14126 net.cpp:425] inception_4c/pool_proj <- inception_4c/pool
I0403 15:42:06.618837 14126 net.cpp:399] inception_4c/pool_proj -> inception_4c/pool_proj
I0403 15:42:06.620010 14126 net.cpp:141] Setting up inception_4c/pool_proj
I0403 15:42:06.620039 14126 net.cpp:148] Top shape: 24 64 14 14 (301056)
I0403 15:42:06.620069 14126 net.cpp:156] Memory required for data: 1061809440
I0403 15:42:06.620088 14126 layer_factory.hpp:77] Creating layer inception_4c/relu_pool_proj
I0403 15:42:06.620110 14126 net.cpp:91] Creating Layer inception_4c/relu_pool_proj
I0403 15:42:06.620131 14126 net.cpp:425] inception_4c/relu_pool_proj <- inception_4c/pool_proj
I0403 15:42:06.620151 14126 net.cpp:386] inception_4c/relu_pool_proj -> inception_4c/pool_proj (in-place)
I0403 15:42:06.620332 14126 net.cpp:141] Setting up inception_4c/relu_pool_proj
I0403 15:42:06.620371 14126 net.cpp:148] Top shape: 24 64 14 14 (301056)
I0403 15:42:06.620389 14126 net.cpp:156] Memory required for data: 1063013664
I0403 15:42:06.620404 14126 layer_factory.hpp:77] Creating layer inception_4c/output
I0403 15:42:06.620421 14126 net.cpp:91] Creating Layer inception_4c/output
I0403 15:42:06.620439 14126 net.cpp:425] inception_4c/output <- inception_4c/1x1
I0403 15:42:06.620455 14126 net.cpp:425] inception_4c/output <- inception_4c/3x3
I0403 15:42:06.620471 14126 net.cpp:425] inception_4c/output <- inception_4c/5x5
I0403 15:42:06.620487 14126 net.cpp:425] inception_4c/output <- inception_4c/pool_proj
I0403 15:42:06.620503 14126 net.cpp:399] inception_4c/output -> inception_4c/output
I0403 15:42:06.620553 14126 net.cpp:141] Setting up inception_4c/output
I0403 15:42:06.620575 14126 net.cpp:148] Top shape: 24 512 14 14 (2408448)
I0403 15:42:06.620591 14126 net.cpp:156] Memory required for data: 1072647456
I0403 15:42:06.620606 14126 layer_factory.hpp:77] Creating layer inception_4c/output_inception_4c/output_0_split
I0403 15:42:06.620623 14126 net.cpp:91] Creating Layer inception_4c/output_inception_4c/output_0_split
I0403 15:42:06.620651 14126 net.cpp:425] inception_4c/output_inception_4c/output_0_split <- inception_4c/output
I0403 15:42:06.620671 14126 net.cpp:399] inception_4c/output_inception_4c/output_0_split -> inception_4c/output_inception_4c/output_0_split_0
I0403 15:42:06.620692 14126 net.cpp:399] inception_4c/output_inception_4c/output_0_split -> inception_4c/output_inception_4c/output_0_split_1
I0403 15:42:06.620712 14126 net.cpp:399] inception_4c/output_inception_4c/output_0_split -> inception_4c/output_inception_4c/output_0_split_2
I0403 15:42:06.620735 14126 net.cpp:399] inception_4c/output_inception_4c/output_0_split -> inception_4c/output_inception_4c/output_0_split_3
I0403 15:42:06.620820 14126 net.cpp:141] Setting up inception_4c/output_inception_4c/output_0_split
I0403 15:42:06.620842 14126 net.cpp:148] Top shape: 24 512 14 14 (2408448)
I0403 15:42:06.620858 14126 net.cpp:148] Top shape: 24 512 14 14 (2408448)
I0403 15:42:06.620873 14126 net.cpp:148] Top shape: 24 512 14 14 (2408448)
I0403 15:42:06.620888 14126 net.cpp:148] Top shape: 24 512 14 14 (2408448)
I0403 15:42:06.620901 14126 net.cpp:156] Memory required for data: 1111182624
I0403 15:42:06.620916 14126 layer_factory.hpp:77] Creating layer inception_4d/1x1
I0403 15:42:06.620939 14126 net.cpp:91] Creating Layer inception_4d/1x1
I0403 15:42:06.620956 14126 net.cpp:425] inception_4d/1x1 <- inception_4c/output_inception_4c/output_0_split_0
I0403 15:42:06.620978 14126 net.cpp:399] inception_4d/1x1 -> inception_4d/1x1
I0403 15:42:06.622315 14126 net.cpp:141] Setting up inception_4d/1x1
I0403 15:42:06.622344 14126 net.cpp:148] Top shape: 24 112 14 14 (526848)
I0403 15:42:06.622359 14126 net.cpp:156] Memory required for data: 1113290016
I0403 15:42:06.622377 14126 layer_factory.hpp:77] Creating layer inception_4d/relu_1x1
I0403 15:42:06.622396 14126 net.cpp:91] Creating Layer inception_4d/relu_1x1
I0403 15:42:06.622416 14126 net.cpp:425] inception_4d/relu_1x1 <- inception_4d/1x1
I0403 15:42:06.622433 14126 net.cpp:386] inception_4d/relu_1x1 -> inception_4d/1x1 (in-place)
I0403 15:42:06.622612 14126 net.cpp:141] Setting up inception_4d/relu_1x1
I0403 15:42:06.622637 14126 net.cpp:148] Top shape: 24 112 14 14 (526848)
I0403 15:42:06.622653 14126 net.cpp:156] Memory required for data: 1115397408
I0403 15:42:06.622666 14126 layer_factory.hpp:77] Creating layer inception_4d/3x3_reduce
I0403 15:42:06.622702 14126 net.cpp:91] Creating Layer inception_4d/3x3_reduce
I0403 15:42:06.622722 14126 net.cpp:425] inception_4d/3x3_reduce <- inception_4c/output_inception_4c/output_0_split_1
I0403 15:42:06.622745 14126 net.cpp:399] inception_4d/3x3_reduce -> inception_4d/3x3_reduce
I0403 15:42:06.624218 14126 net.cpp:141] Setting up inception_4d/3x3_reduce
I0403 15:42:06.624248 14126 net.cpp:148] Top shape: 24 144 14 14 (677376)
I0403 15:42:06.624264 14126 net.cpp:156] Memory required for data: 1118106912
I0403 15:42:06.624282 14126 layer_factory.hpp:77] Creating layer inception_4d/relu_3x3_reduce
I0403 15:42:06.624301 14126 net.cpp:91] Creating Layer inception_4d/relu_3x3_reduce
I0403 15:42:06.624317 14126 net.cpp:425] inception_4d/relu_3x3_reduce <- inception_4d/3x3_reduce
I0403 15:42:06.624337 14126 net.cpp:386] inception_4d/relu_3x3_reduce -> inception_4d/3x3_reduce (in-place)
I0403 15:42:06.624621 14126 net.cpp:141] Setting up inception_4d/relu_3x3_reduce
I0403 15:42:06.624650 14126 net.cpp:148] Top shape: 24 144 14 14 (677376)
I0403 15:42:06.624665 14126 net.cpp:156] Memory required for data: 1120816416
I0403 15:42:06.624680 14126 layer_factory.hpp:77] Creating layer inception_4d/3x3
I0403 15:42:06.624702 14126 net.cpp:91] Creating Layer inception_4d/3x3
I0403 15:42:06.624722 14126 net.cpp:425] inception_4d/3x3 <- inception_4d/3x3_reduce
I0403 15:42:06.624743 14126 net.cpp:399] inception_4d/3x3 -> inception_4d/3x3
I0403 15:42:06.628895 14126 net.cpp:141] Setting up inception_4d/3x3
I0403 15:42:06.628923 14126 net.cpp:148] Top shape: 24 288 14 14 (1354752)
I0403 15:42:06.628938 14126 net.cpp:156] Memory required for data: 1126235424
I0403 15:42:06.628957 14126 layer_factory.hpp:77] Creating layer inception_4d/relu_3x3
I0403 15:42:06.628975 14126 net.cpp:91] Creating Layer inception_4d/relu_3x3
I0403 15:42:06.628993 14126 net.cpp:425] inception_4d/relu_3x3 <- inception_4d/3x3
I0403 15:42:06.629012 14126 net.cpp:386] inception_4d/relu_3x3 -> inception_4d/3x3 (in-place)
I0403 15:42:06.629195 14126 net.cpp:141] Setting up inception_4d/relu_3x3
I0403 15:42:06.629220 14126 net.cpp:148] Top shape: 24 288 14 14 (1354752)
I0403 15:42:06.629235 14126 net.cpp:156] Memory required for data: 1131654432
I0403 15:42:06.629251 14126 layer_factory.hpp:77] Creating layer inception_4d/5x5_reduce
I0403 15:42:06.629274 14126 net.cpp:91] Creating Layer inception_4d/5x5_reduce
I0403 15:42:06.629293 14126 net.cpp:425] inception_4d/5x5_reduce <- inception_4c/output_inception_4c/output_0_split_2
I0403 15:42:06.629314 14126 net.cpp:399] inception_4d/5x5_reduce -> inception_4d/5x5_reduce
I0403 15:42:06.630465 14126 net.cpp:141] Setting up inception_4d/5x5_reduce
I0403 15:42:06.630493 14126 net.cpp:148] Top shape: 24 32 14 14 (150528)
I0403 15:42:06.630511 14126 net.cpp:156] Memory required for data: 1132256544
I0403 15:42:06.630529 14126 layer_factory.hpp:77] Creating layer inception_4d/relu_5x5_reduce
I0403 15:42:06.630551 14126 net.cpp:91] Creating Layer inception_4d/relu_5x5_reduce
I0403 15:42:06.630569 14126 net.cpp:425] inception_4d/relu_5x5_reduce <- inception_4d/5x5_reduce
I0403 15:42:06.630587 14126 net.cpp:386] inception_4d/relu_5x5_reduce -> inception_4d/5x5_reduce (in-place)
I0403 15:42:06.630787 14126 net.cpp:141] Setting up inception_4d/relu_5x5_reduce
I0403 15:42:06.630813 14126 net.cpp:148] Top shape: 24 32 14 14 (150528)
I0403 15:42:06.630828 14126 net.cpp:156] Memory required for data: 1132858656
I0403 15:42:06.630844 14126 layer_factory.hpp:77] Creating layer inception_4d/5x5
I0403 15:42:06.630867 14126 net.cpp:91] Creating Layer inception_4d/5x5
I0403 15:42:06.630887 14126 net.cpp:425] inception_4d/5x5 <- inception_4d/5x5_reduce
I0403 15:42:06.630905 14126 net.cpp:399] inception_4d/5x5 -> inception_4d/5x5
I0403 15:42:06.632367 14126 net.cpp:141] Setting up inception_4d/5x5
I0403 15:42:06.632395 14126 net.cpp:148] Top shape: 24 64 14 14 (301056)
I0403 15:42:06.632411 14126 net.cpp:156] Memory required for data: 1134062880
I0403 15:42:06.632431 14126 layer_factory.hpp:77] Creating layer inception_4d/relu_5x5
I0403 15:42:06.632469 14126 net.cpp:91] Creating Layer inception_4d/relu_5x5
I0403 15:42:06.632488 14126 net.cpp:425] inception_4d/relu_5x5 <- inception_4d/5x5
I0403 15:42:06.632506 14126 net.cpp:386] inception_4d/relu_5x5 -> inception_4d/5x5 (in-place)
I0403 15:42:06.632807 14126 net.cpp:141] Setting up inception_4d/relu_5x5
I0403 15:42:06.632834 14126 net.cpp:148] Top shape: 24 64 14 14 (301056)
I0403 15:42:06.632850 14126 net.cpp:156] Memory required for data: 1135267104
I0403 15:42:06.632866 14126 layer_factory.hpp:77] Creating layer inception_4d/pool
I0403 15:42:06.632886 14126 net.cpp:91] Creating Layer inception_4d/pool
I0403 15:42:06.632905 14126 net.cpp:425] inception_4d/pool <- inception_4c/output_inception_4c/output_0_split_3
I0403 15:42:06.632923 14126 net.cpp:399] inception_4d/pool -> inception_4d/pool
I0403 15:42:06.632992 14126 net.cpp:141] Setting up inception_4d/pool
I0403 15:42:06.633016 14126 net.cpp:148] Top shape: 24 512 14 14 (2408448)
I0403 15:42:06.633031 14126 net.cpp:156] Memory required for data: 1144900896
I0403 15:42:06.633046 14126 layer_factory.hpp:77] Creating layer inception_4d/pool_proj
I0403 15:42:06.633069 14126 net.cpp:91] Creating Layer inception_4d/pool_proj
I0403 15:42:06.633087 14126 net.cpp:425] inception_4d/pool_proj <- inception_4d/pool
I0403 15:42:06.633110 14126 net.cpp:399] inception_4d/pool_proj -> inception_4d/pool_proj
I0403 15:42:06.634870 14126 net.cpp:141] Setting up inception_4d/pool_proj
I0403 15:42:06.634899 14126 net.cpp:148] Top shape: 24 64 14 14 (301056)
I0403 15:42:06.634915 14126 net.cpp:156] Memory required for data: 1146105120
I0403 15:42:06.634933 14126 layer_factory.hpp:77] Creating layer inception_4d/relu_pool_proj
I0403 15:42:06.634953 14126 net.cpp:91] Creating Layer inception_4d/relu_pool_proj
I0403 15:42:06.634970 14126 net.cpp:425] inception_4d/relu_pool_proj <- inception_4d/pool_proj
I0403 15:42:06.634992 14126 net.cpp:386] inception_4d/relu_pool_proj -> inception_4d/pool_proj (in-place)
I0403 15:42:06.635185 14126 net.cpp:141] Setting up inception_4d/relu_pool_proj
I0403 15:42:06.635211 14126 net.cpp:148] Top shape: 24 64 14 14 (301056)
I0403 15:42:06.635226 14126 net.cpp:156] Memory required for data: 1147309344
I0403 15:42:06.635241 14126 layer_factory.hpp:77] Creating layer inception_4d/output
I0403 15:42:06.635262 14126 net.cpp:91] Creating Layer inception_4d/output
I0403 15:42:06.635280 14126 net.cpp:425] inception_4d/output <- inception_4d/1x1
I0403 15:42:06.635298 14126 net.cpp:425] inception_4d/output <- inception_4d/3x3
I0403 15:42:06.635314 14126 net.cpp:425] inception_4d/output <- inception_4d/5x5
I0403 15:42:06.635329 14126 net.cpp:425] inception_4d/output <- inception_4d/pool_proj
I0403 15:42:06.635346 14126 net.cpp:399] inception_4d/output -> inception_4d/output
I0403 15:42:06.635409 14126 net.cpp:141] Setting up inception_4d/output
I0403 15:42:06.635434 14126 net.cpp:148] Top shape: 24 528 14 14 (2483712)
I0403 15:42:06.635450 14126 net.cpp:156] Memory required for data: 1157244192
I0403 15:42:06.635465 14126 layer_factory.hpp:77] Creating layer inception_4d/output_inception_4d/output_0_split
I0403 15:42:06.635484 14126 net.cpp:91] Creating Layer inception_4d/output_inception_4d/output_0_split
I0403 15:42:06.635500 14126 net.cpp:425] inception_4d/output_inception_4d/output_0_split <- inception_4d/output
I0403 15:42:06.635521 14126 net.cpp:399] inception_4d/output_inception_4d/output_0_split -> inception_4d/output_inception_4d/output_0_split_0
I0403 15:42:06.635545 14126 net.cpp:399] inception_4d/output_inception_4d/output_0_split -> inception_4d/output_inception_4d/output_0_split_1
I0403 15:42:06.635567 14126 net.cpp:399] inception_4d/output_inception_4d/output_0_split -> inception_4d/output_inception_4d/output_0_split_2
I0403 15:42:06.635589 14126 net.cpp:399] inception_4d/output_inception_4d/output_0_split -> inception_4d/output_inception_4d/output_0_split_3
I0403 15:42:06.635609 14126 net.cpp:399] inception_4d/output_inception_4d/output_0_split -> inception_4d/output_inception_4d/output_0_split_4
I0403 15:42:06.635725 14126 net.cpp:141] Setting up inception_4d/output_inception_4d/output_0_split
I0403 15:42:06.635762 14126 net.cpp:148] Top shape: 24 528 14 14 (2483712)
I0403 15:42:06.635781 14126 net.cpp:148] Top shape: 24 528 14 14 (2483712)
I0403 15:42:06.635797 14126 net.cpp:148] Top shape: 24 528 14 14 (2483712)
I0403 15:42:06.635812 14126 net.cpp:148] Top shape: 24 528 14 14 (2483712)
I0403 15:42:06.635828 14126 net.cpp:148] Top shape: 24 528 14 14 (2483712)
I0403 15:42:06.635843 14126 net.cpp:156] Memory required for data: 1206918432
I0403 15:42:06.635859 14126 layer_factory.hpp:77] Creating layer loss2/ave_pool
I0403 15:42:06.635875 14126 net.cpp:91] Creating Layer loss2/ave_pool
I0403 15:42:06.635892 14126 net.cpp:425] loss2/ave_pool <- inception_4d/output_inception_4d/output_0_split_0
I0403 15:42:06.635915 14126 net.cpp:399] loss2/ave_pool -> loss2/ave_pool
I0403 15:42:06.636229 14126 net.cpp:141] Setting up loss2/ave_pool
I0403 15:42:06.636257 14126 net.cpp:148] Top shape: 24 528 4 4 (202752)
I0403 15:42:06.636272 14126 net.cpp:156] Memory required for data: 1207729440
I0403 15:42:06.636288 14126 layer_factory.hpp:77] Creating layer loss2/conv
I0403 15:42:06.636312 14126 net.cpp:91] Creating Layer loss2/conv
I0403 15:42:06.636330 14126 net.cpp:425] loss2/conv <- loss2/ave_pool
I0403 15:42:06.636353 14126 net.cpp:399] loss2/conv -> loss2/conv
I0403 15:42:06.638233 14126 net.cpp:141] Setting up loss2/conv
I0403 15:42:06.638265 14126 net.cpp:148] Top shape: 24 128 4 4 (49152)
I0403 15:42:06.638283 14126 net.cpp:156] Memory required for data: 1207926048
I0403 15:42:06.638301 14126 layer_factory.hpp:77] Creating layer loss2/relu_conv
I0403 15:42:06.638319 14126 net.cpp:91] Creating Layer loss2/relu_conv
I0403 15:42:06.638336 14126 net.cpp:425] loss2/relu_conv <- loss2/conv
I0403 15:42:06.638355 14126 net.cpp:386] loss2/relu_conv -> loss2/conv (in-place)
I0403 15:42:06.638640 14126 net.cpp:141] Setting up loss2/relu_conv
I0403 15:42:06.638669 14126 net.cpp:148] Top shape: 24 128 4 4 (49152)
I0403 15:42:06.638685 14126 net.cpp:156] Memory required for data: 1208122656
I0403 15:42:06.638701 14126 layer_factory.hpp:77] Creating layer loss2/fc
I0403 15:42:06.638720 14126 net.cpp:91] Creating Layer loss2/fc
I0403 15:42:06.638737 14126 net.cpp:425] loss2/fc <- loss2/conv
I0403 15:42:06.638758 14126 net.cpp:399] loss2/fc -> loss2/fc
I0403 15:42:06.656026 14126 net.cpp:141] Setting up loss2/fc
I0403 15:42:06.656059 14126 net.cpp:148] Top shape: 24 1024 (24576)
I0403 15:42:06.656075 14126 net.cpp:156] Memory required for data: 1208220960
I0403 15:42:06.656093 14126 layer_factory.hpp:77] Creating layer loss2/relu_fc
I0403 15:42:06.656114 14126 net.cpp:91] Creating Layer loss2/relu_fc
I0403 15:42:06.656133 14126 net.cpp:425] loss2/relu_fc <- loss2/fc
I0403 15:42:06.656152 14126 net.cpp:386] loss2/relu_fc -> loss2/fc (in-place)
I0403 15:42:06.656436 14126 net.cpp:141] Setting up loss2/relu_fc
I0403 15:42:06.656463 14126 net.cpp:148] Top shape: 24 1024 (24576)
I0403 15:42:06.656478 14126 net.cpp:156] Memory required for data: 1208319264
I0403 15:42:06.656494 14126 layer_factory.hpp:77] Creating layer loss2/drop_fc
I0403 15:42:06.656513 14126 net.cpp:91] Creating Layer loss2/drop_fc
I0403 15:42:06.656528 14126 net.cpp:425] loss2/drop_fc <- loss2/fc
I0403 15:42:06.656545 14126 net.cpp:386] loss2/drop_fc -> loss2/fc (in-place)
I0403 15:42:06.656591 14126 net.cpp:141] Setting up loss2/drop_fc
I0403 15:42:06.656616 14126 net.cpp:148] Top shape: 24 1024 (24576)
I0403 15:42:06.656632 14126 net.cpp:156] Memory required for data: 1208417568
I0403 15:42:06.656647 14126 layer_factory.hpp:77] Creating layer loss2/classifier_plantvillage
I0403 15:42:06.656664 14126 net.cpp:91] Creating Layer loss2/classifier_plantvillage
I0403 15:42:06.656680 14126 net.cpp:425] loss2/classifier_plantvillage <- loss2/fc
I0403 15:42:06.656700 14126 net.cpp:399] loss2/classifier_plantvillage -> loss2/classifier_plantvillage
I0403 15:42:06.657094 14126 net.cpp:141] Setting up loss2/classifier_plantvillage
I0403 15:42:06.657119 14126 net.cpp:148] Top shape: 24 38 (912)
I0403 15:42:06.657138 14126 net.cpp:156] Memory required for data: 1208421216
I0403 15:42:06.657181 14126 layer_factory.hpp:77] Creating layer loss2/classifier_plantvillage_loss2/classifier_plantvillage_0_split
I0403 15:42:06.657201 14126 net.cpp:91] Creating Layer loss2/classifier_plantvillage_loss2/classifier_plantvillage_0_split
I0403 15:42:06.657217 14126 net.cpp:425] loss2/classifier_plantvillage_loss2/classifier_plantvillage_0_split <- loss2/classifier_plantvillage
I0403 15:42:06.657234 14126 net.cpp:399] loss2/classifier_plantvillage_loss2/classifier_plantvillage_0_split -> loss2/classifier_plantvillage_loss2/classifier_plantvillage_0_split_0
I0403 15:42:06.657258 14126 net.cpp:399] loss2/classifier_plantvillage_loss2/classifier_plantvillage_0_split -> loss2/classifier_plantvillage_loss2/classifier_plantvillage_0_split_1
I0403 15:42:06.657279 14126 net.cpp:399] loss2/classifier_plantvillage_loss2/classifier_plantvillage_0_split -> loss2/classifier_plantvillage_loss2/classifier_plantvillage_0_split_2
I0403 15:42:06.657357 14126 net.cpp:141] Setting up loss2/classifier_plantvillage_loss2/classifier_plantvillage_0_split
I0403 15:42:06.657382 14126 net.cpp:148] Top shape: 24 38 (912)
I0403 15:42:06.657397 14126 net.cpp:148] Top shape: 24 38 (912)
I0403 15:42:06.657412 14126 net.cpp:148] Top shape: 24 38 (912)
I0403 15:42:06.657425 14126 net.cpp:156] Memory required for data: 1208432160
I0403 15:42:06.657439 14126 layer_factory.hpp:77] Creating layer inception_4e/1x1
I0403 15:42:06.657462 14126 net.cpp:91] Creating Layer inception_4e/1x1
I0403 15:42:06.657480 14126 net.cpp:425] inception_4e/1x1 <- inception_4d/output_inception_4d/output_0_split_1
I0403 15:42:06.657521 14126 net.cpp:399] inception_4e/1x1 -> inception_4e/1x1
I0403 15:42:06.659273 14126 net.cpp:141] Setting up inception_4e/1x1
I0403 15:42:06.659304 14126 net.cpp:148] Top shape: 24 256 14 14 (1204224)
I0403 15:42:06.659322 14126 net.cpp:156] Memory required for data: 1213249056
I0403 15:42:06.659340 14126 layer_factory.hpp:77] Creating layer inception_4e/relu_1x1
I0403 15:42:06.659359 14126 net.cpp:91] Creating Layer inception_4e/relu_1x1
I0403 15:42:06.659375 14126 net.cpp:425] inception_4e/relu_1x1 <- inception_4e/1x1
I0403 15:42:06.659395 14126 net.cpp:386] inception_4e/relu_1x1 -> inception_4e/1x1 (in-place)
I0403 15:42:06.659688 14126 net.cpp:141] Setting up inception_4e/relu_1x1
I0403 15:42:06.659716 14126 net.cpp:148] Top shape: 24 256 14 14 (1204224)
I0403 15:42:06.659730 14126 net.cpp:156] Memory required for data: 1218065952
I0403 15:42:06.659744 14126 layer_factory.hpp:77] Creating layer inception_4e/3x3_reduce
I0403 15:42:06.659766 14126 net.cpp:91] Creating Layer inception_4e/3x3_reduce
I0403 15:42:06.659783 14126 net.cpp:425] inception_4e/3x3_reduce <- inception_4d/output_inception_4d/output_0_split_2
I0403 15:42:06.659802 14126 net.cpp:399] inception_4e/3x3_reduce -> inception_4e/3x3_reduce
I0403 15:42:06.661860 14126 net.cpp:141] Setting up inception_4e/3x3_reduce
I0403 15:42:06.661888 14126 net.cpp:148] Top shape: 24 160 14 14 (752640)
I0403 15:42:06.661903 14126 net.cpp:156] Memory required for data: 1221076512
I0403 15:42:06.661921 14126 layer_factory.hpp:77] Creating layer inception_4e/relu_3x3_reduce
I0403 15:42:06.661942 14126 net.cpp:91] Creating Layer inception_4e/relu_3x3_reduce
I0403 15:42:06.661957 14126 net.cpp:425] inception_4e/relu_3x3_reduce <- inception_4e/3x3_reduce
I0403 15:42:06.661974 14126 net.cpp:386] inception_4e/relu_3x3_reduce -> inception_4e/3x3_reduce (in-place)
I0403 15:42:06.662155 14126 net.cpp:141] Setting up inception_4e/relu_3x3_reduce
I0403 15:42:06.662184 14126 net.cpp:148] Top shape: 24 160 14 14 (752640)
I0403 15:42:06.662199 14126 net.cpp:156] Memory required for data: 1224087072
I0403 15:42:06.662214 14126 layer_factory.hpp:77] Creating layer inception_4e/3x3
I0403 15:42:06.662236 14126 net.cpp:91] Creating Layer inception_4e/3x3
I0403 15:42:06.662255 14126 net.cpp:425] inception_4e/3x3 <- inception_4e/3x3_reduce
I0403 15:42:06.662273 14126 net.cpp:399] inception_4e/3x3 -> inception_4e/3x3
I0403 15:42:06.667034 14126 net.cpp:141] Setting up inception_4e/3x3
I0403 15:42:06.667075 14126 net.cpp:148] Top shape: 24 320 14 14 (1505280)
I0403 15:42:06.667093 14126 net.cpp:156] Memory required for data: 1230108192
I0403 15:42:06.667110 14126 layer_factory.hpp:77] Creating layer inception_4e/relu_3x3
I0403 15:42:06.667131 14126 net.cpp:91] Creating Layer inception_4e/relu_3x3
I0403 15:42:06.667150 14126 net.cpp:425] inception_4e/relu_3x3 <- inception_4e/3x3
I0403 15:42:06.667168 14126 net.cpp:386] inception_4e/relu_3x3 -> inception_4e/3x3 (in-place)
I0403 15:42:06.667459 14126 net.cpp:141] Setting up inception_4e/relu_3x3
I0403 15:42:06.667485 14126 net.cpp:148] Top shape: 24 320 14 14 (1505280)
I0403 15:42:06.667500 14126 net.cpp:156] Memory required for data: 1236129312
I0403 15:42:06.667515 14126 layer_factory.hpp:77] Creating layer inception_4e/5x5_reduce
I0403 15:42:06.667538 14126 net.cpp:91] Creating Layer inception_4e/5x5_reduce
I0403 15:42:06.667557 14126 net.cpp:425] inception_4e/5x5_reduce <- inception_4d/output_inception_4d/output_0_split_3
I0403 15:42:06.667577 14126 net.cpp:399] inception_4e/5x5_reduce -> inception_4e/5x5_reduce
I0403 15:42:06.668609 14126 net.cpp:141] Setting up inception_4e/5x5_reduce
I0403 15:42:06.668637 14126 net.cpp:148] Top shape: 24 32 14 14 (150528)
I0403 15:42:06.668653 14126 net.cpp:156] Memory required for data: 1236731424
I0403 15:42:06.668670 14126 layer_factory.hpp:77] Creating layer inception_4e/relu_5x5_reduce
I0403 15:42:06.668690 14126 net.cpp:91] Creating Layer inception_4e/relu_5x5_reduce
I0403 15:42:06.668707 14126 net.cpp:425] inception_4e/relu_5x5_reduce <- inception_4e/5x5_reduce
I0403 15:42:06.668725 14126 net.cpp:386] inception_4e/relu_5x5_reduce -> inception_4e/5x5_reduce (in-place)
I0403 15:42:06.669011 14126 net.cpp:141] Setting up inception_4e/relu_5x5_reduce
I0403 15:42:06.669036 14126 net.cpp:148] Top shape: 24 32 14 14 (150528)
I0403 15:42:06.669052 14126 net.cpp:156] Memory required for data: 1237333536
I0403 15:42:06.669067 14126 layer_factory.hpp:77] Creating layer inception_4e/5x5
I0403 15:42:06.669112 14126 net.cpp:91] Creating Layer inception_4e/5x5
I0403 15:42:06.669137 14126 net.cpp:425] inception_4e/5x5 <- inception_4e/5x5_reduce
I0403 15:42:06.669159 14126 net.cpp:399] inception_4e/5x5 -> inception_4e/5x5
I0403 15:42:06.670930 14126 net.cpp:141] Setting up inception_4e/5x5
I0403 15:42:06.670958 14126 net.cpp:148] Top shape: 24 128 14 14 (602112)
I0403 15:42:06.670974 14126 net.cpp:156] Memory required for data: 1239741984
I0403 15:42:06.670992 14126 layer_factory.hpp:77] Creating layer inception_4e/relu_5x5
I0403 15:42:06.671011 14126 net.cpp:91] Creating Layer inception_4e/relu_5x5
I0403 15:42:06.671028 14126 net.cpp:425] inception_4e/relu_5x5 <- inception_4e/5x5
I0403 15:42:06.671044 14126 net.cpp:386] inception_4e/relu_5x5 -> inception_4e/5x5 (in-place)
I0403 15:42:06.671238 14126 net.cpp:141] Setting up inception_4e/relu_5x5
I0403 15:42:06.671267 14126 net.cpp:148] Top shape: 24 128 14 14 (602112)
I0403 15:42:06.671282 14126 net.cpp:156] Memory required for data: 1242150432
I0403 15:42:06.671296 14126 layer_factory.hpp:77] Creating layer inception_4e/pool
I0403 15:42:06.671314 14126 net.cpp:91] Creating Layer inception_4e/pool
I0403 15:42:06.671329 14126 net.cpp:425] inception_4e/pool <- inception_4d/output_inception_4d/output_0_split_4
I0403 15:42:06.671346 14126 net.cpp:399] inception_4e/pool -> inception_4e/pool
I0403 15:42:06.671412 14126 net.cpp:141] Setting up inception_4e/pool
I0403 15:42:06.671447 14126 net.cpp:148] Top shape: 24 528 14 14 (2483712)
I0403 15:42:06.671460 14126 net.cpp:156] Memory required for data: 1252085280
I0403 15:42:06.671474 14126 layer_factory.hpp:77] Creating layer inception_4e/pool_proj
I0403 15:42:06.671496 14126 net.cpp:91] Creating Layer inception_4e/pool_proj
I0403 15:42:06.671512 14126 net.cpp:425] inception_4e/pool_proj <- inception_4e/pool
I0403 15:42:06.671533 14126 net.cpp:399] inception_4e/pool_proj -> inception_4e/pool_proj
I0403 15:42:06.672998 14126 net.cpp:141] Setting up inception_4e/pool_proj
I0403 15:42:06.673027 14126 net.cpp:148] Top shape: 24 128 14 14 (602112)
I0403 15:42:06.673056 14126 net.cpp:156] Memory required for data: 1254493728
I0403 15:42:06.673075 14126 layer_factory.hpp:77] Creating layer inception_4e/relu_pool_proj
I0403 15:42:06.673095 14126 net.cpp:91] Creating Layer inception_4e/relu_pool_proj
I0403 15:42:06.673113 14126 net.cpp:425] inception_4e/relu_pool_proj <- inception_4e/pool_proj
I0403 15:42:06.673135 14126 net.cpp:386] inception_4e/relu_pool_proj -> inception_4e/pool_proj (in-place)
I0403 15:42:06.673415 14126 net.cpp:141] Setting up inception_4e/relu_pool_proj
I0403 15:42:06.673447 14126 net.cpp:148] Top shape: 24 128 14 14 (602112)
I0403 15:42:06.673462 14126 net.cpp:156] Memory required for data: 1256902176
I0403 15:42:06.673476 14126 layer_factory.hpp:77] Creating layer inception_4e/output
I0403 15:42:06.673494 14126 net.cpp:91] Creating Layer inception_4e/output
I0403 15:42:06.673511 14126 net.cpp:425] inception_4e/output <- inception_4e/1x1
I0403 15:42:06.673527 14126 net.cpp:425] inception_4e/output <- inception_4e/3x3
I0403 15:42:06.673542 14126 net.cpp:425] inception_4e/output <- inception_4e/5x5
I0403 15:42:06.673557 14126 net.cpp:425] inception_4e/output <- inception_4e/pool_proj
I0403 15:42:06.673574 14126 net.cpp:399] inception_4e/output -> inception_4e/output
I0403 15:42:06.673624 14126 net.cpp:141] Setting up inception_4e/output
I0403 15:42:06.673648 14126 net.cpp:148] Top shape: 24 832 14 14 (3913728)
I0403 15:42:06.673662 14126 net.cpp:156] Memory required for data: 1272557088
I0403 15:42:06.673677 14126 layer_factory.hpp:77] Creating layer pool4/3x3_s2
I0403 15:42:06.673693 14126 net.cpp:91] Creating Layer pool4/3x3_s2
I0403 15:42:06.673718 14126 net.cpp:425] pool4/3x3_s2 <- inception_4e/output
I0403 15:42:06.673738 14126 net.cpp:399] pool4/3x3_s2 -> pool4/3x3_s2
I0403 15:42:06.673804 14126 net.cpp:141] Setting up pool4/3x3_s2
I0403 15:42:06.673827 14126 net.cpp:148] Top shape: 24 832 7 7 (978432)
I0403 15:42:06.673841 14126 net.cpp:156] Memory required for data: 1276470816
I0403 15:42:06.673854 14126 layer_factory.hpp:77] Creating layer pool4/3x3_s2_pool4/3x3_s2_0_split
I0403 15:42:06.673873 14126 net.cpp:91] Creating Layer pool4/3x3_s2_pool4/3x3_s2_0_split
I0403 15:42:06.673890 14126 net.cpp:425] pool4/3x3_s2_pool4/3x3_s2_0_split <- pool4/3x3_s2
I0403 15:42:06.673908 14126 net.cpp:399] pool4/3x3_s2_pool4/3x3_s2_0_split -> pool4/3x3_s2_pool4/3x3_s2_0_split_0
I0403 15:42:06.673928 14126 net.cpp:399] pool4/3x3_s2_pool4/3x3_s2_0_split -> pool4/3x3_s2_pool4/3x3_s2_0_split_1
I0403 15:42:06.673951 14126 net.cpp:399] pool4/3x3_s2_pool4/3x3_s2_0_split -> pool4/3x3_s2_pool4/3x3_s2_0_split_2
I0403 15:42:06.673970 14126 net.cpp:399] pool4/3x3_s2_pool4/3x3_s2_0_split -> pool4/3x3_s2_pool4/3x3_s2_0_split_3
I0403 15:42:06.674054 14126 net.cpp:141] Setting up pool4/3x3_s2_pool4/3x3_s2_0_split
I0403 15:42:06.674077 14126 net.cpp:148] Top shape: 24 832 7 7 (978432)
I0403 15:42:06.674093 14126 net.cpp:148] Top shape: 24 832 7 7 (978432)
I0403 15:42:06.674109 14126 net.cpp:148] Top shape: 24 832 7 7 (978432)
I0403 15:42:06.674129 14126 net.cpp:148] Top shape: 24 832 7 7 (978432)
I0403 15:42:06.674144 14126 net.cpp:156] Memory required for data: 1292125728
I0403 15:42:06.674159 14126 layer_factory.hpp:77] Creating layer inception_5a/1x1
I0403 15:42:06.674180 14126 net.cpp:91] Creating Layer inception_5a/1x1
I0403 15:42:06.674196 14126 net.cpp:425] inception_5a/1x1 <- pool4/3x3_s2_pool4/3x3_s2_0_split_0
I0403 15:42:06.674217 14126 net.cpp:399] inception_5a/1x1 -> inception_5a/1x1
I0403 15:42:06.676934 14126 net.cpp:141] Setting up inception_5a/1x1
I0403 15:42:06.676964 14126 net.cpp:148] Top shape: 24 256 7 7 (301056)
I0403 15:42:06.676978 14126 net.cpp:156] Memory required for data: 1293329952
I0403 15:42:06.676996 14126 layer_factory.hpp:77] Creating layer inception_5a/relu_1x1
I0403 15:42:06.677016 14126 net.cpp:91] Creating Layer inception_5a/relu_1x1
I0403 15:42:06.677033 14126 net.cpp:425] inception_5a/relu_1x1 <- inception_5a/1x1
I0403 15:42:06.677050 14126 net.cpp:386] inception_5a/relu_1x1 -> inception_5a/1x1 (in-place)
I0403 15:42:06.677350 14126 net.cpp:141] Setting up inception_5a/relu_1x1
I0403 15:42:06.677376 14126 net.cpp:148] Top shape: 24 256 7 7 (301056)
I0403 15:42:06.677392 14126 net.cpp:156] Memory required for data: 1294534176
I0403 15:42:06.677405 14126 layer_factory.hpp:77] Creating layer inception_5a/3x3_reduce
I0403 15:42:06.677428 14126 net.cpp:91] Creating Layer inception_5a/3x3_reduce
I0403 15:42:06.677446 14126 net.cpp:425] inception_5a/3x3_reduce <- pool4/3x3_s2_pool4/3x3_s2_0_split_1
I0403 15:42:06.677467 14126 net.cpp:399] inception_5a/3x3_reduce -> inception_5a/3x3_reduce
I0403 15:42:06.679813 14126 net.cpp:141] Setting up inception_5a/3x3_reduce
I0403 15:42:06.679842 14126 net.cpp:148] Top shape: 24 160 7 7 (188160)
I0403 15:42:06.679857 14126 net.cpp:156] Memory required for data: 1295286816
I0403 15:42:06.679875 14126 layer_factory.hpp:77] Creating layer inception_5a/relu_3x3_reduce
I0403 15:42:06.679893 14126 net.cpp:91] Creating Layer inception_5a/relu_3x3_reduce
I0403 15:42:06.679910 14126 net.cpp:425] inception_5a/relu_3x3_reduce <- inception_5a/3x3_reduce
I0403 15:42:06.679929 14126 net.cpp:386] inception_5a/relu_3x3_reduce -> inception_5a/3x3_reduce (in-place)
I0403 15:42:06.680109 14126 net.cpp:141] Setting up inception_5a/relu_3x3_reduce
I0403 15:42:06.680137 14126 net.cpp:148] Top shape: 24 160 7 7 (188160)
I0403 15:42:06.680153 14126 net.cpp:156] Memory required for data: 1296039456
I0403 15:42:06.680168 14126 layer_factory.hpp:77] Creating layer inception_5a/3x3
I0403 15:42:06.680189 14126 net.cpp:91] Creating Layer inception_5a/3x3
I0403 15:42:06.680207 14126 net.cpp:425] inception_5a/3x3 <- inception_5a/3x3_reduce
I0403 15:42:06.680228 14126 net.cpp:399] inception_5a/3x3 -> inception_5a/3x3
I0403 15:42:06.685083 14126 net.cpp:141] Setting up inception_5a/3x3
I0403 15:42:06.685112 14126 net.cpp:148] Top shape: 24 320 7 7 (376320)
I0403 15:42:06.685132 14126 net.cpp:156] Memory required for data: 1297544736
I0403 15:42:06.685151 14126 layer_factory.hpp:77] Creating layer inception_5a/relu_3x3
I0403 15:42:06.685171 14126 net.cpp:91] Creating Layer inception_5a/relu_3x3
I0403 15:42:06.685189 14126 net.cpp:425] inception_5a/relu_3x3 <- inception_5a/3x3
I0403 15:42:06.685205 14126 net.cpp:386] inception_5a/relu_3x3 -> inception_5a/3x3 (in-place)
I0403 15:42:06.685490 14126 net.cpp:141] Setting up inception_5a/relu_3x3
I0403 15:42:06.685516 14126 net.cpp:148] Top shape: 24 320 7 7 (376320)
I0403 15:42:06.685531 14126 net.cpp:156] Memory required for data: 1299050016
I0403 15:42:06.685545 14126 layer_factory.hpp:77] Creating layer inception_5a/5x5_reduce
I0403 15:42:06.685567 14126 net.cpp:91] Creating Layer inception_5a/5x5_reduce
I0403 15:42:06.685586 14126 net.cpp:425] inception_5a/5x5_reduce <- pool4/3x3_s2_pool4/3x3_s2_0_split_2
I0403 15:42:06.685609 14126 net.cpp:399] inception_5a/5x5_reduce -> inception_5a/5x5_reduce
I0403 15:42:06.686712 14126 net.cpp:141] Setting up inception_5a/5x5_reduce
I0403 15:42:06.686743 14126 net.cpp:148] Top shape: 24 32 7 7 (37632)
I0403 15:42:06.686758 14126 net.cpp:156] Memory required for data: 1299200544
I0403 15:42:06.686779 14126 layer_factory.hpp:77] Creating layer inception_5a/relu_5x5_reduce
I0403 15:42:06.686796 14126 net.cpp:91] Creating Layer inception_5a/relu_5x5_reduce
I0403 15:42:06.686813 14126 net.cpp:425] inception_5a/relu_5x5_reduce <- inception_5a/5x5_reduce
I0403 15:42:06.686830 14126 net.cpp:386] inception_5a/relu_5x5_reduce -> inception_5a/5x5_reduce (in-place)
I0403 15:42:06.687134 14126 net.cpp:141] Setting up inception_5a/relu_5x5_reduce
I0403 15:42:06.687175 14126 net.cpp:148] Top shape: 24 32 7 7 (37632)
I0403 15:42:06.687191 14126 net.cpp:156] Memory required for data: 1299351072
I0403 15:42:06.687206 14126 layer_factory.hpp:77] Creating layer inception_5a/5x5
I0403 15:42:06.687242 14126 net.cpp:91] Creating Layer inception_5a/5x5
I0403 15:42:06.687260 14126 net.cpp:425] inception_5a/5x5 <- inception_5a/5x5_reduce
I0403 15:42:06.687281 14126 net.cpp:399] inception_5a/5x5 -> inception_5a/5x5
I0403 15:42:06.689013 14126 net.cpp:141] Setting up inception_5a/5x5
I0403 15:42:06.689052 14126 net.cpp:148] Top shape: 24 128 7 7 (150528)
I0403 15:42:06.689067 14126 net.cpp:156] Memory required for data: 1299953184
I0403 15:42:06.689085 14126 layer_factory.hpp:77] Creating layer inception_5a/relu_5x5
I0403 15:42:06.689106 14126 net.cpp:91] Creating Layer inception_5a/relu_5x5
I0403 15:42:06.689123 14126 net.cpp:425] inception_5a/relu_5x5 <- inception_5a/5x5
I0403 15:42:06.689146 14126 net.cpp:386] inception_5a/relu_5x5 -> inception_5a/5x5 (in-place)
I0403 15:42:06.689334 14126 net.cpp:141] Setting up inception_5a/relu_5x5
I0403 15:42:06.689363 14126 net.cpp:148] Top shape: 24 128 7 7 (150528)
I0403 15:42:06.689380 14126 net.cpp:156] Memory required for data: 1300555296
I0403 15:42:06.689394 14126 layer_factory.hpp:77] Creating layer inception_5a/pool
I0403 15:42:06.689412 14126 net.cpp:91] Creating Layer inception_5a/pool
I0403 15:42:06.689429 14126 net.cpp:425] inception_5a/pool <- pool4/3x3_s2_pool4/3x3_s2_0_split_3
I0403 15:42:06.689447 14126 net.cpp:399] inception_5a/pool -> inception_5a/pool
I0403 15:42:06.689517 14126 net.cpp:141] Setting up inception_5a/pool
I0403 15:42:06.689543 14126 net.cpp:148] Top shape: 24 832 7 7 (978432)
I0403 15:42:06.689558 14126 net.cpp:156] Memory required for data: 1304469024
I0403 15:42:06.689573 14126 layer_factory.hpp:77] Creating layer inception_5a/pool_proj
I0403 15:42:06.689594 14126 net.cpp:91] Creating Layer inception_5a/pool_proj
I0403 15:42:06.689612 14126 net.cpp:425] inception_5a/pool_proj <- inception_5a/pool
I0403 15:42:06.689633 14126 net.cpp:399] inception_5a/pool_proj -> inception_5a/pool_proj
I0403 15:42:06.691876 14126 net.cpp:141] Setting up inception_5a/pool_proj
I0403 15:42:06.691905 14126 net.cpp:148] Top shape: 24 128 7 7 (150528)
I0403 15:42:06.691920 14126 net.cpp:156] Memory required for data: 1305071136
I0403 15:42:06.691939 14126 layer_factory.hpp:77] Creating layer inception_5a/relu_pool_proj
I0403 15:42:06.691962 14126 net.cpp:91] Creating Layer inception_5a/relu_pool_proj
I0403 15:42:06.691978 14126 net.cpp:425] inception_5a/relu_pool_proj <- inception_5a/pool_proj
I0403 15:42:06.691994 14126 net.cpp:386] inception_5a/relu_pool_proj -> inception_5a/pool_proj (in-place)
I0403 15:42:06.692282 14126 net.cpp:141] Setting up inception_5a/relu_pool_proj
I0403 15:42:06.692309 14126 net.cpp:148] Top shape: 24 128 7 7 (150528)
I0403 15:42:06.692324 14126 net.cpp:156] Memory required for data: 1305673248
I0403 15:42:06.692339 14126 layer_factory.hpp:77] Creating layer inception_5a/output
I0403 15:42:06.692368 14126 net.cpp:91] Creating Layer inception_5a/output
I0403 15:42:06.692385 14126 net.cpp:425] inception_5a/output <- inception_5a/1x1
I0403 15:42:06.692402 14126 net.cpp:425] inception_5a/output <- inception_5a/3x3
I0403 15:42:06.692422 14126 net.cpp:425] inception_5a/output <- inception_5a/5x5
I0403 15:42:06.692440 14126 net.cpp:425] inception_5a/output <- inception_5a/pool_proj
I0403 15:42:06.692456 14126 net.cpp:399] inception_5a/output -> inception_5a/output
I0403 15:42:06.692507 14126 net.cpp:141] Setting up inception_5a/output
I0403 15:42:06.692538 14126 net.cpp:148] Top shape: 24 832 7 7 (978432)
I0403 15:42:06.692553 14126 net.cpp:156] Memory required for data: 1309586976
I0403 15:42:06.692569 14126 layer_factory.hpp:77] Creating layer inception_5a/output_inception_5a/output_0_split
I0403 15:42:06.692586 14126 net.cpp:91] Creating Layer inception_5a/output_inception_5a/output_0_split
I0403 15:42:06.692603 14126 net.cpp:425] inception_5a/output_inception_5a/output_0_split <- inception_5a/output
I0403 15:42:06.692625 14126 net.cpp:399] inception_5a/output_inception_5a/output_0_split -> inception_5a/output_inception_5a/output_0_split_0
I0403 15:42:06.692657 14126 net.cpp:399] inception_5a/output_inception_5a/output_0_split -> inception_5a/output_inception_5a/output_0_split_1
I0403 15:42:06.692678 14126 net.cpp:399] inception_5a/output_inception_5a/output_0_split -> inception_5a/output_inception_5a/output_0_split_2
I0403 15:42:06.692698 14126 net.cpp:399] inception_5a/output_inception_5a/output_0_split -> inception_5a/output_inception_5a/output_0_split_3
I0403 15:42:06.692806 14126 net.cpp:141] Setting up inception_5a/output_inception_5a/output_0_split
I0403 15:42:06.692832 14126 net.cpp:148] Top shape: 24 832 7 7 (978432)
I0403 15:42:06.692849 14126 net.cpp:148] Top shape: 24 832 7 7 (978432)
I0403 15:42:06.692867 14126 net.cpp:148] Top shape: 24 832 7 7 (978432)
I0403 15:42:06.692881 14126 net.cpp:148] Top shape: 24 832 7 7 (978432)
I0403 15:42:06.692895 14126 net.cpp:156] Memory required for data: 1325241888
I0403 15:42:06.692909 14126 layer_factory.hpp:77] Creating layer inception_5b/1x1
I0403 15:42:06.692929 14126 net.cpp:91] Creating Layer inception_5b/1x1
I0403 15:42:06.692946 14126 net.cpp:425] inception_5b/1x1 <- inception_5a/output_inception_5a/output_0_split_0
I0403 15:42:06.692967 14126 net.cpp:399] inception_5b/1x1 -> inception_5b/1x1
I0403 15:42:06.696630 14126 net.cpp:141] Setting up inception_5b/1x1
I0403 15:42:06.696660 14126 net.cpp:148] Top shape: 24 384 7 7 (451584)
I0403 15:42:06.696674 14126 net.cpp:156] Memory required for data: 1327048224
I0403 15:42:06.696693 14126 layer_factory.hpp:77] Creating layer inception_5b/relu_1x1
I0403 15:42:06.696712 14126 net.cpp:91] Creating Layer inception_5b/relu_1x1
I0403 15:42:06.696728 14126 net.cpp:425] inception_5b/relu_1x1 <- inception_5b/1x1
I0403 15:42:06.696748 14126 net.cpp:386] inception_5b/relu_1x1 -> inception_5b/1x1 (in-place)
I0403 15:42:06.697046 14126 net.cpp:141] Setting up inception_5b/relu_1x1
I0403 15:42:06.697072 14126 net.cpp:148] Top shape: 24 384 7 7 (451584)
I0403 15:42:06.697088 14126 net.cpp:156] Memory required for data: 1328854560
I0403 15:42:06.697103 14126 layer_factory.hpp:77] Creating layer inception_5b/3x3_reduce
I0403 15:42:06.697129 14126 net.cpp:91] Creating Layer inception_5b/3x3_reduce
I0403 15:42:06.697149 14126 net.cpp:425] inception_5b/3x3_reduce <- inception_5a/output_inception_5a/output_0_split_1
I0403 15:42:06.697172 14126 net.cpp:399] inception_5b/3x3_reduce -> inception_5b/3x3_reduce
I0403 15:42:06.699795 14126 net.cpp:141] Setting up inception_5b/3x3_reduce
I0403 15:42:06.699825 14126 net.cpp:148] Top shape: 24 192 7 7 (225792)
I0403 15:42:06.699841 14126 net.cpp:156] Memory required for data: 1329757728
I0403 15:42:06.699858 14126 layer_factory.hpp:77] Creating layer inception_5b/relu_3x3_reduce
I0403 15:42:06.699879 14126 net.cpp:91] Creating Layer inception_5b/relu_3x3_reduce
I0403 15:42:06.699895 14126 net.cpp:425] inception_5b/relu_3x3_reduce <- inception_5b/3x3_reduce
I0403 15:42:06.699913 14126 net.cpp:386] inception_5b/relu_3x3_reduce -> inception_5b/3x3_reduce (in-place)
I0403 15:42:06.700096 14126 net.cpp:141] Setting up inception_5b/relu_3x3_reduce
I0403 15:42:06.700122 14126 net.cpp:148] Top shape: 24 192 7 7 (225792)
I0403 15:42:06.700168 14126 net.cpp:156] Memory required for data: 1330660896
I0403 15:42:06.700186 14126 layer_factory.hpp:77] Creating layer inception_5b/3x3
I0403 15:42:06.700208 14126 net.cpp:91] Creating Layer inception_5b/3x3
I0403 15:42:06.700230 14126 net.cpp:425] inception_5b/3x3 <- inception_5b/3x3_reduce
I0403 15:42:06.700250 14126 net.cpp:399] inception_5b/3x3 -> inception_5b/3x3
I0403 15:42:06.710048 14126 net.cpp:141] Setting up inception_5b/3x3
I0403 15:42:06.710078 14126 net.cpp:148] Top shape: 24 384 7 7 (451584)
I0403 15:42:06.710093 14126 net.cpp:156] Memory required for data: 1332467232
I0403 15:42:06.710110 14126 layer_factory.hpp:77] Creating layer inception_5b/relu_3x3
I0403 15:42:06.710134 14126 net.cpp:91] Creating Layer inception_5b/relu_3x3
I0403 15:42:06.710153 14126 net.cpp:425] inception_5b/relu_3x3 <- inception_5b/3x3
I0403 15:42:06.710171 14126 net.cpp:386] inception_5b/relu_3x3 -> inception_5b/3x3 (in-place)
I0403 15:42:06.710453 14126 net.cpp:141] Setting up inception_5b/relu_3x3
I0403 15:42:06.710479 14126 net.cpp:148] Top shape: 24 384 7 7 (451584)
I0403 15:42:06.710494 14126 net.cpp:156] Memory required for data: 1334273568
I0403 15:42:06.710508 14126 layer_factory.hpp:77] Creating layer inception_5b/5x5_reduce
I0403 15:42:06.710546 14126 net.cpp:91] Creating Layer inception_5b/5x5_reduce
I0403 15:42:06.710566 14126 net.cpp:425] inception_5b/5x5_reduce <- inception_5a/output_inception_5a/output_0_split_2
I0403 15:42:06.710587 14126 net.cpp:399] inception_5b/5x5_reduce -> inception_5b/5x5_reduce
I0403 15:42:06.711799 14126 net.cpp:141] Setting up inception_5b/5x5_reduce
I0403 15:42:06.711827 14126 net.cpp:148] Top shape: 24 48 7 7 (56448)
I0403 15:42:06.711841 14126 net.cpp:156] Memory required for data: 1334499360
I0403 15:42:06.711859 14126 layer_factory.hpp:77] Creating layer inception_5b/relu_5x5_reduce
I0403 15:42:06.711879 14126 net.cpp:91] Creating Layer inception_5b/relu_5x5_reduce
I0403 15:42:06.711896 14126 net.cpp:425] inception_5b/relu_5x5_reduce <- inception_5b/5x5_reduce
I0403 15:42:06.711915 14126 net.cpp:386] inception_5b/relu_5x5_reduce -> inception_5b/5x5_reduce (in-place)
I0403 15:42:06.712275 14126 net.cpp:141] Setting up inception_5b/relu_5x5_reduce
I0403 15:42:06.712301 14126 net.cpp:148] Top shape: 24 48 7 7 (56448)
I0403 15:42:06.712316 14126 net.cpp:156] Memory required for data: 1334725152
I0403 15:42:06.712329 14126 layer_factory.hpp:77] Creating layer inception_5b/5x5
I0403 15:42:06.712349 14126 net.cpp:91] Creating Layer inception_5b/5x5
I0403 15:42:06.712380 14126 net.cpp:425] inception_5b/5x5 <- inception_5b/5x5_reduce
I0403 15:42:06.712399 14126 net.cpp:399] inception_5b/5x5 -> inception_5b/5x5
I0403 15:42:06.714805 14126 net.cpp:141] Setting up inception_5b/5x5
I0403 15:42:06.714843 14126 net.cpp:148] Top shape: 24 128 7 7 (150528)
I0403 15:42:06.714862 14126 net.cpp:156] Memory required for data: 1335327264
I0403 15:42:06.714886 14126 layer_factory.hpp:77] Creating layer inception_5b/relu_5x5
I0403 15:42:06.714911 14126 net.cpp:91] Creating Layer inception_5b/relu_5x5
I0403 15:42:06.714936 14126 net.cpp:425] inception_5b/relu_5x5 <- inception_5b/5x5
I0403 15:42:06.714959 14126 net.cpp:386] inception_5b/relu_5x5 -> inception_5b/5x5 (in-place)
I0403 15:42:06.715219 14126 net.cpp:141] Setting up inception_5b/relu_5x5
I0403 15:42:06.715255 14126 net.cpp:148] Top shape: 24 128 7 7 (150528)
I0403 15:42:06.715275 14126 net.cpp:156] Memory required for data: 1335929376
I0403 15:42:06.715293 14126 layer_factory.hpp:77] Creating layer inception_5b/pool
I0403 15:42:06.715317 14126 net.cpp:91] Creating Layer inception_5b/pool
I0403 15:42:06.715338 14126 net.cpp:425] inception_5b/pool <- inception_5a/output_inception_5a/output_0_split_3
I0403 15:42:06.715365 14126 net.cpp:399] inception_5b/pool -> inception_5b/pool
I0403 15:42:06.715461 14126 net.cpp:141] Setting up inception_5b/pool
I0403 15:42:06.715492 14126 net.cpp:148] Top shape: 24 832 7 7 (978432)
I0403 15:42:06.715512 14126 net.cpp:156] Memory required for data: 1339843104
I0403 15:42:06.715530 14126 layer_factory.hpp:77] Creating layer inception_5b/pool_proj
I0403 15:42:06.715559 14126 net.cpp:91] Creating Layer inception_5b/pool_proj
I0403 15:42:06.715581 14126 net.cpp:425] inception_5b/pool_proj <- inception_5b/pool
I0403 15:42:06.715608 14126 net.cpp:399] inception_5b/pool_proj -> inception_5b/pool_proj
I0403 15:42:06.718513 14126 net.cpp:141] Setting up inception_5b/pool_proj
I0403 15:42:06.718549 14126 net.cpp:148] Top shape: 24 128 7 7 (150528)
I0403 15:42:06.718570 14126 net.cpp:156] Memory required for data: 1340445216
I0403 15:42:06.718595 14126 layer_factory.hpp:77] Creating layer inception_5b/relu_pool_proj
I0403 15:42:06.718621 14126 net.cpp:91] Creating Layer inception_5b/relu_pool_proj
I0403 15:42:06.718642 14126 net.cpp:425] inception_5b/relu_pool_proj <- inception_5b/pool_proj
I0403 15:42:06.718664 14126 net.cpp:386] inception_5b/relu_pool_proj -> inception_5b/pool_proj (in-place)
I0403 15:42:06.719038 14126 net.cpp:141] Setting up inception_5b/relu_pool_proj
I0403 15:42:06.719074 14126 net.cpp:148] Top shape: 24 128 7 7 (150528)
I0403 15:42:06.719092 14126 net.cpp:156] Memory required for data: 1341047328
I0403 15:42:06.719112 14126 layer_factory.hpp:77] Creating layer inception_5b/output
I0403 15:42:06.719141 14126 net.cpp:91] Creating Layer inception_5b/output
I0403 15:42:06.719182 14126 net.cpp:425] inception_5b/output <- inception_5b/1x1
I0403 15:42:06.719205 14126 net.cpp:425] inception_5b/output <- inception_5b/3x3
I0403 15:42:06.719226 14126 net.cpp:425] inception_5b/output <- inception_5b/5x5
I0403 15:42:06.719247 14126 net.cpp:425] inception_5b/output <- inception_5b/pool_proj
I0403 15:42:06.719272 14126 net.cpp:399] inception_5b/output -> inception_5b/output
I0403 15:42:06.719346 14126 net.cpp:141] Setting up inception_5b/output
I0403 15:42:06.719377 14126 net.cpp:148] Top shape: 24 1024 7 7 (1204224)
I0403 15:42:06.719395 14126 net.cpp:156] Memory required for data: 1345864224
I0403 15:42:06.719413 14126 layer_factory.hpp:77] Creating layer pool5/7x7_s1
I0403 15:42:06.719436 14126 net.cpp:91] Creating Layer pool5/7x7_s1
I0403 15:42:06.719456 14126 net.cpp:425] pool5/7x7_s1 <- inception_5b/output
I0403 15:42:06.719481 14126 net.cpp:399] pool5/7x7_s1 -> pool5/7x7_s1
I0403 15:42:06.719760 14126 net.cpp:141] Setting up pool5/7x7_s1
I0403 15:42:06.719794 14126 net.cpp:148] Top shape: 24 1024 1 1 (24576)
I0403 15:42:06.719812 14126 net.cpp:156] Memory required for data: 1345962528
I0403 15:42:06.719832 14126 layer_factory.hpp:77] Creating layer pool5/drop_7x7_s1
I0403 15:42:06.719857 14126 net.cpp:91] Creating Layer pool5/drop_7x7_s1
I0403 15:42:06.719879 14126 net.cpp:425] pool5/drop_7x7_s1 <- pool5/7x7_s1
I0403 15:42:06.719900 14126 net.cpp:386] pool5/drop_7x7_s1 -> pool5/7x7_s1 (in-place)
I0403 15:42:06.719967 14126 net.cpp:141] Setting up pool5/drop_7x7_s1
I0403 15:42:06.719997 14126 net.cpp:148] Top shape: 24 1024 1 1 (24576)
I0403 15:42:06.720016 14126 net.cpp:156] Memory required for data: 1346060832
I0403 15:42:06.720036 14126 layer_factory.hpp:77] Creating layer loss3/classifier_plantvillage
I0403 15:42:06.720060 14126 net.cpp:91] Creating Layer loss3/classifier_plantvillage
I0403 15:42:06.720082 14126 net.cpp:425] loss3/classifier_plantvillage <- pool5/7x7_s1
I0403 15:42:06.720108 14126 net.cpp:399] loss3/classifier_plantvillage -> loss3/classifier_plantvillage
I0403 15:42:06.720660 14126 net.cpp:141] Setting up loss3/classifier_plantvillage
I0403 15:42:06.720693 14126 net.cpp:148] Top shape: 24 38 (912)
I0403 15:42:06.720713 14126 net.cpp:156] Memory required for data: 1346064480
I0403 15:42:06.720736 14126 layer_factory.hpp:77] Creating layer loss3/classifier_plantvillage_loss3/classifier_plantvillage_0_split
I0403 15:42:06.720760 14126 net.cpp:91] Creating Layer loss3/classifier_plantvillage_loss3/classifier_plantvillage_0_split
I0403 15:42:06.720782 14126 net.cpp:425] loss3/classifier_plantvillage_loss3/classifier_plantvillage_0_split <- loss3/classifier_plantvillage
I0403 15:42:06.720808 14126 net.cpp:399] loss3/classifier_plantvillage_loss3/classifier_plantvillage_0_split -> loss3/classifier_plantvillage_loss3/classifier_plantvillage_0_split_0
I0403 15:42:06.720835 14126 net.cpp:399] loss3/classifier_plantvillage_loss3/classifier_plantvillage_0_split -> loss3/classifier_plantvillage_loss3/classifier_plantvillage_0_split_1
I0403 15:42:06.720862 14126 net.cpp:399] loss3/classifier_plantvillage_loss3/classifier_plantvillage_0_split -> loss3/classifier_plantvillage_loss3/classifier_plantvillage_0_split_2
I0403 15:42:06.720888 14126 net.cpp:399] loss3/classifier_plantvillage_loss3/classifier_plantvillage_0_split -> loss3/classifier_plantvillage_loss3/classifier_plantvillage_0_split_3
I0403 15:42:06.721014 14126 net.cpp:141] Setting up loss3/classifier_plantvillage_loss3/classifier_plantvillage_0_split
I0403 15:42:06.721046 14126 net.cpp:148] Top shape: 24 38 (912)
I0403 15:42:06.721067 14126 net.cpp:148] Top shape: 24 38 (912)
I0403 15:42:06.721087 14126 net.cpp:148] Top shape: 24 38 (912)
I0403 15:42:06.721107 14126 net.cpp:148] Top shape: 24 38 (912)
I0403 15:42:06.721129 14126 net.cpp:156] Memory required for data: 1346079072
I0403 15:42:06.721149 14126 layer_factory.hpp:77] Creating layer loss1/loss
I0403 15:42:06.721179 14126 net.cpp:91] Creating Layer loss1/loss
I0403 15:42:06.721200 14126 net.cpp:425] loss1/loss <- loss1/classifier_plantvillage_loss1/classifier_plantvillage_0_split_0
I0403 15:42:06.721240 14126 net.cpp:425] loss1/loss <- label_data_1_split_0
…
