…
I0403 15:50:36.987067 14587 net.cpp:313] The NetState phase (1) differed from the phase (0) specified by a rule in layer data
I0403 15:50:36.988216 14587 net.cpp:49] Initializing net from parameters: 
state {
  phase: TEST
}
layer {
  name: "data"
  type: "Data"
  top: "data"
  top: "label"
  include {
    phase: TEST
  }
  transform_param {
    mirror: false
    crop_size: 224
    mean_file: "/home/mohanty/data/final_dataset/lmdb/color-80-20/mean.binaryproto"
  }
  data_param {
    source: "/home/mohanty/data/final_dataset/lmdb/color-80-20/test_db"
    batch_size: 24
    backend: LMDB
  }
}
layer {
  name: "conv1/7x7_s2"
  type: "Convolution"
  bottom: "data"
  top: "conv1/7x7_s2"
  param {
    lr_mult: 1
    decay_mult: 1
  }
  param {
    lr_mult: 2
    decay_mult: 0
  }
  convolution_param {
    num_output: 64
    pad: 3
    kernel_size: 7
    stride: 2
    weight_filler {
      type: "xavier"
      std: 0.1
    }
    bias_filler {
      type: "constant"
      value: 0.2
    }
  }
}
layer {
  name: "conv1/relu_7x7"
  type: "ReLU"
  bottom: "conv1/7x7_s2"
  top: "conv1/7x7_s2"
}
layer {
  name: "pool1/3x3_s2"
  type: "Pooling"
  bottom: "conv1/7x7_s2"
  top: "pool1/3x3_s2"
  pooling_param {
    pool: MAX
    kernel_size: 3
    stride: 2
  }
}
layer {
  name: "pool1/norm1"
  type: "LRN"
  bottom: "pool1/3x3_s2"
  top: "pool1/norm1"
  lrn_param {
    local_size: 5
    alpha: 0.0001
    beta: 0.75
  }
}
layer {
  name: "conv2/3x3_reduce"
  type: "Convolution"
  bottom: "pool1/norm1"
  top: "conv2/3x3_reduce"
  param {
    lr_mult: 1
    decay_mult: 1
  }
  param {
    lr_mult: 2
    decay_mult: 0
  }
  convolution_param {
    num_output: 64
    kernel_size: 1
    weight_filler {
      type: "xavier"
      std: 0.1
    }
    bias_filler {
      type: "constant"
      value: 0.2
    }
  }
}
layer {
  name: "conv2/relu_3x3_reduce"
  type: "ReLU"
  bottom: "conv2/3x3_reduce"
  top: "conv2/3x3_reduce"
}
layer {
  name: "conv2/3x3"
  type: "Convolution"
  bottom: "conv2/3x3_reduce"
  top: "conv2/3x3"
  param {
    lr_mult: 1
    decay_mult: 1
  }
  param {
    lr_mult: 2
    decay_mult: 0
  }
  convolution_param {
    num_output: 192
    pad: 1
    kernel_size: 3
    weight_filler {
      type: "xavier"
      std: 0.03
    }
    bias_filler {
      type: "constant"
      value: 0.2
    }
  }
}
layer {
  name: "conv2/relu_3x3"
  type: "ReLU"
  bottom: "conv2/3x3"
  top: "conv2/3x3"
}
layer {
  name: "conv2/norm2"
  type: "LRN"
  bottom: "conv2/3x3"
  top: "conv2/norm2"
  lrn_param {
    local_size: 5
    alpha: 0.0001
    beta: 0.75
  }
}
layer {
  name: "pool2/3x3_s2"
  type: "Pooling"
  bottom: "conv2/norm2"
  top: "pool2/3x3_s2"
  pooling_param {
    pool: MAX
    kernel_size: 3
    stride: 2
  }
}
layer {
  name: "inception_3a/1x1"
  type: "Convolution"
  bottom: "pool2/3x3_s2"
  top: "inception_3a/1x1"
  param {
    lr_mult: 1
    decay_mult: 1
  }
  param {
    lr_mult: 2
    decay_mult: 0
  }
  convolution_param {
    num_output: 64
    kernel_size: 1
    weight_filler {
      type: "xavier"
      std: 0.03
    }
    bias_filler {
      type: "constant"
      value: 0.2
    }
  }
}
layer {
  name: "inception_3a/relu_1x1"
  type: "ReLU"
  bottom: "inception_3a/1x1"
  top: "inception_3a/1x1"
}
layer {
  name: "inception_3a/3x3_reduce"
  type: "Convolution"
  bottom: "pool2/3x3_s2"
  top: "inception_3a/3x3_reduce"
  param {
    lr_mult: 1
    decay_mult: 1
  }
  param {
    lr_mult: 2
    decay_mult: 0
  }
  convolution_param {
    num_output: 96
    kernel_size: 1
    weight_filler {
      type: "xavier"
      std: 0.09
    }
    bias_filler {
      type: "constant"
      value: 0.2
    }
  }
}
layer {
  name: "inception_3a/relu_3x3_reduce"
  type: "ReLU"
  bottom: "inception_3a/3x3_reduce"
  top: "inception_3a/3x3_reduce"
}
layer {
  name: "inception_3a/3x3"
  type: "Convolution"
  bottom: "inception_3a/3x3_reduce"
  top: "inception_3a/3x3"
  param {
    lr_mult: 1
    decay_mult: 1
  }
  param {
    lr_mult: 2
    decay_mult: 0
  }
  convolution_param {
    num_output: 128
    pad: 1
    kernel_size: 3
    weight_filler {
      type: "xavier"
      std: 0.03
    }
    bias_filler {
      type: "constant"
      value: 0.2
    }
  }
}
layer {
  name: "inception_3a/relu_3x3"
  type: "ReLU"
  bottom: "inception_3a/3x3"
  top: "inception_3a/3x3"
}
layer {
  name: "inception_3a/5x5_reduce"
  type: "Convolution"
  bottom: "pool2/3x3_s2"
  top: "inception_3a/5x5_reduce"
  param {
    lr_mult: 1
    decay_mult: 1
  }
  param {
    lr_mult: 2
    decay_mult: 0
  }
  convolution_param {
    num_output: 16
    kernel_size: 1
    weight_filler {
      type: "xavier"
      std: 0.2
    }
    bias_filler {
      type: "constant"
      value: 0.2
    }
  }
}
layer {
  name: "inception_3a/relu_5x5_reduce"
  type: "ReLU"
  bottom: "inception_3a/5x5_reduce"
  top: "inception_3a/5x5_reduce"
}
layer {
  name: "inception_3a/5x5"
  type: "Convolution"
  bottom: "inception_3a/5x5_reduce"
  top: "inception_3a/5x5"
  param {
    lr_mult: 1
    decay_mult: 1
  }
  param {
    lr_mult: 2
    decay_mult: 0
  }
  convolution_param {
    num_output: 32
    pad: 2
    kernel_size: 5
    weight_filler {
      type: "xavier"
      std: 0.03
    }
    bias_filler {
      type: "constant"
      value: 0.2
    }
  }
}
layer {
  name: "inception_3a/relu_5x5"
  type: "ReLU"
  bottom: "inception_3a/5x5"
  top: "inception_3a/5x5"
}
layer {
  name: "inception_3a/pool"
  type: "Pooling"
  bottom: "pool2/3x3_s2"
  top: "inception_3a/pool"
  pooling_param {
    pool: MAX
    kernel_size: 3
    stride: 1
    pad: 1
  }
}
layer {
  name: "inception_3a/pool_proj"
  type: "Convolution"
  bottom: "inception_3a/pool"
  top: "inception_3a/pool_proj"
  param {
    lr_mult: 1
    decay_mult: 1
  }
  param {
    lr_mult: 2
    decay_mult: 0
  }
  convolution_param {
    num_output: 32
    kernel_size: 1
    weight_filler {
      type: "xavier"
      std: 0.1
    }
    bias_filler {
      type: "constant"
      value: 0.2
    }
  }
}
layer {
  name: "inception_3a/relu_pool_proj"
  type: "ReLU"
  bottom: "inception_3a/pool_proj"
  top: "inception_3a/pool_proj"
}
layer {
  name: "inception_3a/output"
  type: "Concat"
  bottom: "inception_3a/1x1"
  bottom: "inception_3a/3x3"
  bottom: "inception_3a/5x5"
  bottom: "inception_3a/pool_proj"
  top: "inception_3a/output"
}
layer {
  name: "inception_3b/1x1"
  type: "Convolution"
  bottom: "inception_3a/output"
  top: "inception_3b/1x1"
  param {
    lr_mult: 1
    decay_mult: 1
  }
  param {
    lr_mult: 2
    decay_mult: 0
  }
  convolution_param {
    num_output: 128
    kernel_size: 1
    weight_filler {
      type: "xavier"
      std: 0.03
    }
    bias_filler {
      type: "constant"
      value: 0.2
    }
  }
}
layer {
  name: "inception_3b/relu_1x1"
  type: "ReLU"
  bottom: "inception_3b/1x1"
  top: "inception_3b/1x1"
}
layer {
  name: "inception_3b/3x3_reduce"
  type: "Convolution"
  bottom: "inception_3a/output"
  top: "inception_3b/3x3_reduce"
  param {
    lr_mult: 1
    decay_mult: 1
  }
  param {
    lr_mult: 2
    decay_mult: 0
  }
  convolution_param {
    num_output: 128
    kernel_size: 1
    weight_filler {
      type: "xavier"
      std: 0.09
    }
    bias_filler {
      type: "constant"
      value: 0.2
    }
  }
}
layer {
  name: "inception_3b/relu_3x3_reduce"
  type: "ReLU"
  bottom: "inception_3b/3x3_reduce"
  top: "inception_3b/3x3_reduce"
}
layer {
  name: "inception_3b/3x3"
  type: "Convolution"
  bottom: "inception_3b/3x3_reduce"
  top: "inception_3b/3x3"
  param {
    lr_mult: 1
    decay_mult: 1
  }
  param {
    lr_mult: 2
    decay_mult: 0
  }
  convolution_param {
    num_output: 192
    pad: 1
    kernel_size: 3
    weight_filler {
      type: "xavier"
      std: 0.03
    }
    bias_filler {
      type: "constant"
      value: 0.2
    }
  }
}
layer {
  name: "inception_3b/relu_3x3"
  type: "ReLU"
  bottom: "inception_3b/3x3"
  top: "inception_3b/3x3"
}
layer {
  name: "inception_3b/5x5_reduce"
  type: "Convolution"
  bottom: "inception_3a/output"
  top: "inception_3b/5x5_reduce"
  param {
    lr_mult: 1
    decay_mult: 1
  }
  param {
    lr_mult: 2
    decay_mult: 0
  }
  convolution_param {
    num_output: 32
    kernel_size: 1
    weight_filler {
      type: "xavier"
      std: 0.2
    }
    bias_filler {
      type: "constant"
      value: 0.2
    }
  }
}
layer {
  name: "inception_3b/relu_5x5_reduce"
  type: "ReLU"
  bottom: "inception_3b/5x5_reduce"
  top: "inception_3b/5x5_reduce"
}
layer {
  name: "inception_3b/5x5"
  type: "Convolution"
  bottom: "inception_3b/5x5_reduce"
  top: "inception_3b/5x5"
  param {
    lr_mult: 1
    decay_mult: 1
  }
  param {
    lr_mult: 2
    decay_mult: 0
  }
  convolution_param {
    num_output: 96
    pad: 2
    kernel_size: 5
    weight_filler {
      type: "xavier"
      std: 0.03
    }
    bias_filler {
      type: "constant"
      value: 0.2
    }
  }
}
layer {
  name: "inception_3b/relu_5x5"
  type: "ReLU"
  bottom: "inception_3b/5x5"
  top: "inception_3b/5x5"
}
layer {
  name: "inception_3b/pool"
  type: "Pooling"
  bottom: "inception_3a/output"
  top: "inception_3b/pool"
  pooling_param {
    pool: MAX
    kernel_size: 3
    stride: 1
    pad: 1
  }
}
layer {
  name: "inception_3b/pool_proj"
  type: "Convolution"
  bottom: "inception_3b/pool"
  top: "inception_3b/pool_proj"
  param {
    lr_mult: 1
    decay_mult: 1
  }
  param {
    lr_mult: 2
    decay_mult: 0
  }
  convolution_param {
    num_output: 64
    kernel_size: 1
    weight_filler {
      type: "xavier"
      std: 0.1
    }
    bias_filler {
      type: "constant"
      value: 0.2
    }
  }
}
layer {
  name: "inception_3b/relu_pool_proj"
  type: "ReLU"
  bottom: "inception_3b/pool_proj"
  top: "inception_3b/pool_proj"
}
layer {
  name: "inception_3b/output"
  type: "Concat"
  bottom: "inception_3b/1x1"
  bottom: "inception_3b/3x3"
  bottom: "inception_3b/5x5"
  bottom: "inception_3b/pool_proj"
  top: "inception_3b/output"
}
layer {
  name: "pool3/3x3_s2"
  type: "Pooling"
  bottom: "inception_3b/output"
  top: "pool3/3x3_s2"
  pooling_param {
    pool: MAX
    kernel_size: 3
    stride: 2
  }
}
layer {
  name: "inception_4a/1x1"
  type: "Convolution"
  bottom: "pool3/3x3_s2"
  top: "inception_4a/1x1"
  param {
    lr_mult: 1
    decay_mult: 1
  }
  param {
    lr_mult: 2
    decay_mult: 0
  }
  convolution_param {
    num_output: 192
    kernel_size: 1
    weight_filler {
      type: "xavier"
      std: 0.03
    }
    bias_filler {
      type: "constant"
      value: 0.2
    }
  }
}
layer {
  name: "inception_4a/relu_1x1"
  type: "ReLU"
  bottom: "inception_4a/1x1"
  top: "inception_4a/1x1"
}
layer {
  name: "inception_4a/3x3_reduce"
  type: "Convolution"
  bottom: "pool3/3x3_s2"
  top: "inception_4a/3x3_reduce"
  param {
    lr_mult: 1
    decay_mult: 1
  }
  param {
    lr_mult: 2
    decay_mult: 0
  }
  convolution_param {
    num_output: 96
    kernel_size: 1
    weight_filler {
      type: "xavier"
      std: 0.09
    }
    bias_filler {
      type: "constant"
      value: 0.2
    }
  }
}
layer {
  name: "inception_4a/relu_3x3_reduce"
  type: "ReLU"
  bottom: "inception_4a/3x3_reduce"
  top: "inception_4a/3x3_reduce"
}
layer {
  name: "inception_4a/3x3"
  type: "Convolution"
  bottom: "inception_4a/3x3_reduce"
  top: "inception_4a/3x3"
  param {
    lr_mult: 1
    decay_mult: 1
  }
  param {
    lr_mult: 2
    decay_mult: 0
  }
  convolution_param {
    num_output: 208
    pad: 1
    kernel_size: 3
    weight_filler {
      type: "xavier"
      std: 0.03
    }
    bias_filler {
      type: "constant"
      value: 0.2
    }
  }
}
layer {
  name: "inception_4a/relu_3x3"
  type: "ReLU"
  bottom: "inception_4a/3x3"
  top: "inception_4a/3x3"
}
layer {
  name: "inception_4a/5x5_reduce"
  type: "Convolution"
  bottom: "pool3/3x3_s2"
  top: "inception_4a/5x5_reduce"
  param {
    lr_mult: 1
    decay_mult: 1
  }
  param {
    lr_mult: 2
    decay_mult: 0
  }
  convolution_param {
    num_output: 16
    kernel_size: 1
    weight_filler {
      type: "xavier"
      std: 0.2
    }
    bias_filler {
      type: "constant"
      value: 0.2
    }
  }
}
layer {
  name: "inception_4a/relu_5x5_reduce"
  type: "ReLU"
  bottom: "inception_4a/5x5_reduce"
  top: "inception_4a/5x5_reduce"
}
layer {
  name: "inception_4a/5x5"
  type: "Convolution"
  bottom: "inception_4a/5x5_reduce"
  top: "inception_4a/5x5"
  param {
    lr_mult: 1
    decay_mult: 1
  }
  param {
    lr_mult: 2
    decay_mult: 0
  }
  convolution_param {
    num_output: 48
    pad: 2
    kernel_size: 5
    weight_filler {
      type: "xavier"
      std: 0.03
    }
    bias_filler {
      type: "constant"
      value: 0.2
    }
  }
}
layer {
  name: "inception_4a/relu_5x5"
  type: "ReLU"
  bottom: "inception_4a/5x5"
  top: "inception_4a/5x5"
}
layer {
  name: "inception_4a/pool"
  type: "Pooling"
  bottom: "pool3/3x3_s2"
  top: "inception_4a/pool"
  pooling_param {
    pool: MAX
    kernel_size: 3
    stride: 1
    pad: 1
  }
}
layer {
  name: "inception_4a/pool_proj"
  type: "Convolution"
  bottom: "inception_4a/pool"
  top: "inception_4a/pool_proj"
  param {
    lr_mult: 1
    decay_mult: 1
  }
  param {
    lr_mult: 2
    decay_mult: 0
  }
  convolution_param {
    num_output: 64
    kernel_size: 1
    weight_filler {
      type: "xavier"
      std: 0.1
    }
    bias_filler {
      type: "constant"
      value: 0.2
    }
  }
}
layer {
  name: "inception_4a/relu_pool_proj"
  type: "ReLU"
  bottom: "inception_4a/pool_proj"
  top: "inception_4a/pool_proj"
}
layer {
  name: "inception_4a/output"
  type: "Concat"
  bottom: "inception_4a/1x1"
  bottom: "inception_4a/3x3"
  bottom: "inception_4a/5x5"
  bottom: "inception_4a/pool_proj"
  top: "inception_4a/output"
}
layer {
  name: "loss1/ave_pool"
  type: "Pooling"
  bottom: "inception_4a/output"
  top: "loss1/ave_pool"
  pooling_param {
    pool: AVE
    kernel_size: 5
    stride: 3
  }
}
layer {
  name: "loss1/conv"
  type: "Convolution"
  bottom: "loss1/ave_pool"
  top: "loss1/conv"
  param {
    lr_mult: 1
    decay_mult: 1
  }
  param {
    lr_mult: 2
    decay_mult: 0
  }
  convolution_param {
    num_output: 128
    kernel_size: 1
    weight_filler {
      type: "xavier"
      std: 0.08
    }
    bias_filler {
      type: "constant"
      value: 0.2
    }
  }
}
layer {
  name: "loss1/relu_conv"
  type: "ReLU"
  bottom: "loss1/conv"
  top: "loss1/conv"
}
layer {
  name: "loss1/fc"
  type: "InnerProduct"
  bottom: "loss1/conv"
  top: "loss1/fc"
  param {
    lr_mult: 1
    decay_mult: 1
  }
  param {
    lr_mult: 2
    decay_mult: 0
  }
  inner_product_param {
    num_output: 1024
    weight_filler {
      type: "xavier"
      std: 0.02
    }
    bias_filler {
      type: "constant"
      value: 0.2
    }
  }
}
layer {
  name: "loss1/relu_fc"
  type: "ReLU"
  bottom: "loss1/fc"
  top: "loss1/fc"
}
layer {
  name: "loss1/drop_fc"
  type: "Dropout"
  bottom: "loss1/fc"
  top: "loss1/fc"
  dropout_param {
    dropout_ratio: 0.7
  }
}
layer {
  name: "loss1/classifier_plantvillage"
  type: "InnerProduct"
  bottom: "loss1/fc"
  top: "loss1/classifier_plantvillage"
  param {
    lr_mult: 1
    decay_mult: 1
  }
  param {
    lr_mult: 2
    decay_mult: 0
  }
  inner_product_param {
    num_output: 38
    weight_filler {
      type: "xavier"
      std: 0.0009765625
    }
    bias_filler {
      type: "constant"
      value: 0
    }
  }
}
layer {
  name: "inception_4b/1x1"
  type: "Convolution"
  bottom: "inception_4a/output"
  top: "inception_4b/1x1"
  param {
    lr_mult: 1
    decay_mult: 1
  }
  param {
    lr_mult: 2
    decay_mult: 0
  }
  convolution_param {
    num_output: 160
    kernel_size: 1
    weight_filler {
      type: "xavier"
      std: 0.03
    }
    bias_filler {
      type: "constant"
      value: 0.2
    }
  }
}
layer {
  name: "inception_4b/relu_1x1"
  type: "ReLU"
  bottom: "inception_4b/1x1"
  top: "inception_4b/1x1"
}
layer {
  name: "inception_4b/3x3_reduce"
  type: "Convolution"
  bottom: "inception_4a/output"
  top: "inception_4b/3x3_reduce"
  param {
    lr_mult: 1
    decay_mult: 1
  }
  param {
    lr_mult: 2
    decay_mult: 0
  }
  convolution_param {
    num_output: 112
    kernel_size: 1
    weight_filler {
      type: "xavier"
      std: 0.09
    }
    bias_filler {
      type: "constant"
      value: 0.2
    }
  }
}
layer {
  name: "inception_4b/relu_3x3_reduce"
  type: "ReLU"
  bottom: "inception_4b/3x3_reduce"
  top: "inception_4b/3x3_reduce"
}
layer {
  name: "inception_4b/3x3"
  type: "Convolution"
  bottom: "inception_4b/3x3_reduce"
  top: "inception_4b/3x3"
  param {
    lr_mult: 1
    decay_mult: 1
  }
  param {
    lr_mult: 2
    decay_mult: 0
  }
  convolution_param {
    num_output: 224
    pad: 1
    kernel_size: 3
    weight_filler {
      type: "xavier"
      std: 0.03
    }
    bias_filler {
      type: "constant"
      value: 0.2
    }
  }
}
layer {
  name: "inception_4b/relu_3x3"
  type: "ReLU"
  bottom: "inception_4b/3x3"
  top: "inception_4b/3x3"
}
layer {
  name: "inception_4b/5x5_reduce"
  type: "Convolution"
  bottom: "inception_4a/output"
  top: "inception_4b/5x5_reduce"
  param {
    lr_mult: 1
    decay_mult: 1
  }
  param {
    lr_mult: 2
    decay_mult: 0
  }
  convolution_param {
    num_output: 24
    kernel_size: 1
    weight_filler {
      type: "xavier"
      std: 0.2
    }
    bias_filler {
      type: "constant"
      value: 0.2
    }
  }
}
layer {
  name: "inception_4b/relu_5x5_reduce"
  type: "ReLU"
  bottom: "inception_4b/5x5_reduce"
  top: "inception_4b/5x5_reduce"
}
layer {
  name: "inception_4b/5x5"
  type: "Convolution"
  bottom: "inception_4b/5x5_reduce"
  top: "inception_4b/5x5"
  param {
    lr_mult: 1
    decay_mult: 1
  }
  param {
    lr_mult: 2
    decay_mult: 0
  }
  convolution_param {
    num_output: 64
    pad: 2
    kernel_size: 5
    weight_filler {
      type: "xavier"
      std: 0.03
    }
    bias_filler {
      type: "constant"
      value: 0.2
    }
  }
}
layer {
  name: "inception_4b/relu_5x5"
  type: "ReLU"
  bottom: "inception_4b/5x5"
  top: "inception_4b/5x5"
}
layer {
  name: "inception_4b/pool"
  type: "Pooling"
  bottom: "inception_4a/output"
  top: "inception_4b/pool"
  pooling_param {
    pool: MAX
    kernel_size: 3
    stride: 1
    pad: 1
  }
}
layer {
  name: "inception_4b/pool_proj"
  type: "Convolution"
  bottom: "inception_4b/pool"
  top: "inception_4b/pool_proj"
  param {
    lr_mult: 1
    decay_mult: 1
  }
  param {
    lr_mult: 2
    decay_mult: 0
  }
  convolution_param {
    num_output: 64
    kernel_size: 1
    weight_filler {
      type: "xavier"
      std: 0.1
    }
    bias_filler {
      type: "constant"
      value: 0.2
    }
  }
}
layer {
  name: "inception_4b/relu_pool_proj"
  type: "ReLU"
  bottom: "inception_4b/pool_proj"
  top: "inception_4b/pool_proj"
}
layer {
  name: "inception_4b/output"
  type: "Concat"
  bottom: "inception_4b/1x1"
  bottom: "inception_4b/3x3"
  bottom: "inception_4b/5x5"
  bottom: "inception_4b/pool_proj"
  top: "inception_4b/output"
}
layer {
  name: "inception_4c/1x1"
  type: "Convolution"
  bottom: "inception_4b/output"
  top: "inception_4c/1x1"
  param {
    lr_mult: 1
    decay_mult: 1
  }
  param {
    lr_mult: 2
    decay_mult: 0
  }
  convolution_param {
    num_output: 128
    kernel_size: 1
    weight_filler {
      type: "xavier"
      std: 0.03
    }
    bias_filler {
      type: "constant"
      value: 0.2
    }
  }
}
layer {
  name: "inception_4c/relu_1x1"
  type: "ReLU"
  bottom: "inception_4c/1x1"
  top: "inception_4c/1x1"
}
layer {
  name: "inception_4c/3x3_reduce"
  type: "Convolution"
  bottom: "inception_4b/output"
  top: "inception_4c/3x3_reduce"
  param {
    lr_mult: 1
    decay_mult: 1
  }
  param {
    lr_mult: 2
    decay_mult: 0
  }
  convolution_param {
    num_output: 128
    kernel_size: 1
    weight_filler {
      type: "xavier"
      std: 0.09
    }
    bias_filler {
      type: "constant"
      value: 0.2
    }
  }
}
layer {
  name: "inception_4c/relu_3x3_reduce"
  type: "ReLU"
  bottom: "inception_4c/3x3_reduce"
  top: "inception_4c/3x3_reduce"
}
layer {
  name: "inception_4c/3x3"
  type: "Convolution"
  bottom: "inception_4c/3x3_reduce"
  top: "inception_4c/3x3"
  param {
    lr_mult: 1
    decay_mult: 1
  }
  param {
    lr_mult: 2
    decay_mult: 0
  }
  convolution_param {
    num_output: 256
    pad: 1
    kernel_size: 3
    weight_filler {
      type: "xavier"
      std: 0.03
    }
    bias_filler {
      type: "constant"
      value: 0.2
    }
  }
}
layer {
  name: "inception_4c/relu_3x3"
  type: "ReLU"
  bottom: "inception_4c/3x3"
  top: "inception_4c/3x3"
}
layer {
  name: "inception_4c/5x5_reduce"
  type: "Convolution"
  bottom: "inception_4b/output"
  top: "inception_4c/5x5_reduce"
  param {
    lr_mult: 1
    decay_mult: 1
  }
  param {
    lr_mult: 2
    decay_mult: 0
  }
  convolution_param {
    num_output: 24
    kernel_size: 1
    weight_filler {
      type: "xavier"
      std: 0.2
    }
    bias_filler {
      type: "constant"
      value: 0.2
    }
  }
}
layer {
  name: "inception_4c/relu_5x5_reduce"
  type: "ReLU"
  bottom: "inception_4c/5x5_reduce"
  top: "inception_4c/5x5_reduce"
}
layer {
  name: "inception_4c/5x5"
  type: "Convolution"
  bottom: "inception_4c/5x5_reduce"
  top: "inception_4c/5x5"
  param {
    lr_mult: 1
    decay_mult: 1
  }
  param {
    lr_mult: 2
    decay_mult: 0
  }
  convolution_param {
    num_output: 64
    pad: 2
    kernel_size: 5
    weight_filler {
      type: "xavier"
      std: 0.03
    }
    bias_filler {
      type: "constant"
      value: 0.2
    }
  }
}
layer {
  name: "inception_4c/relu_5x5"
  type: "ReLU"
  bottom: "inception_4c/5x5"
  top: "inception_4c/5x5"
}
layer {
  name: "inception_4c/pool"
  type: "Pooling"
  bottom: "inception_4b/output"
  top: "inception_4c/pool"
  pooling_param {
    pool: MAX
    kernel_size: 3
    stride: 1
    pad: 1
  }
}
layer {
  name: "inception_4c/pool_proj"
  type: "Convolution"
  bottom: "inception_4c/pool"
  top: "inception_4c/pool_proj"
  param {
    lr_mult: 1
    decay_mult: 1
  }
  param {
    lr_mult: 2
    decay_mult: 0
  }
  convolution_param {
    num_output: 64
    kernel_size: 1
    weight_filler {
      type: "xavier"
      std: 0.1
    }
    bias_filler {
      type: "constant"
      value: 0.2
    }
  }
}
layer {
  name: "inception_4c/relu_pool_proj"
  type: "ReLU"
  bottom: "inception_4c/pool_proj"
  top: "inception_4c/pool_proj"
}
layer {
  name: "inception_4c/output"
  type: "Concat"
  bottom: "inception_4c/1x1"
  bottom: "inception_4c/3x3"
  bottom: "inception_4c/5x5"
  bottom: "inception_4c/pool_proj"
  top: "inception_4c/output"
}
layer {
  name: "inception_4d/1x1"
  type: "Convolution"
  bottom: "inception_4c/output"
  top: "inception_4d/1x1"
  param {
    lr_mult: 1
    decay_mult: 1
  }
  param {
    lr_mult: 2
    decay_mult: 0
  }
  convolution_param {
    num_output: 112
    kernel_size: 1
    weight_filler {
      type: "xavier"
      std: 0.03
    }
    bias_filler {
      type: "constant"
      value: 0.2
    }
  }
}
layer {
  name: "inception_4d/relu_1x1"
  type: "ReLU"
  bottom: "inception_4d/1x1"
  top: "inception_4d/1x1"
}
layer {
  name: "inception_4d/3x3_reduce"
  type: "Convolution"
  bottom: "inception_4c/output"
  top: "inception_4d/3x3_reduce"
  param {
    lr_mult: 1
    decay_mult: 1
  }
  param {
    lr_mult: 2
    decay_mult: 0
  }
  convolution_param {
    num_output: 144
    kernel_size: 1
    weight_filler {
      type: "xavier"
      std: 0.09
    }
    bias_filler {
      type: "constant"
      value: 0.2
    }
  }
}
layer {
  name: "inception_4d/relu_3x3_reduce"
  type: "ReLU"
  bottom: "inception_4d/3x3_reduce"
  top: "inception_4d/3x3_reduce"
}
layer {
  name: "inception_4d/3x3"
  type: "Convolution"
  bottom: "inception_4d/3x3_reduce"
  top: "inception_4d/3x3"
  param {
    lr_mult: 1
    decay_mult: 1
  }
  param {
    lr_mult: 2
    decay_mult: 0
  }
  convolution_param {
    num_output: 288
    pad: 1
    kernel_size: 3
    weight_filler {
      type: "xavier"
      std: 0.03
    }
    bias_filler {
      type: "constant"
      value: 0.2
    }
  }
}
layer {
  name: "inception_4d/relu_3x3"
  type: "ReLU"
  bottom: "inception_4d/3x3"
  top: "inception_4d/3x3"
}
layer {
  name: "inception_4d/5x5_reduce"
  type: "Convolution"
  bottom: "inception_4c/output"
  top: "inception_4d/5x5_reduce"
  param {
    lr_mult: 1
    decay_mult: 1
  }
  param {
    lr_mult: 2
    decay_mult: 0
  }
  convolution_param {
    num_output: 32
    kernel_size: 1
    weight_filler {
      type: "xavier"
      std: 0.2
    }
    bias_filler {
      type: "constant"
      value: 0.2
    }
  }
}
layer {
  name: "inception_4d/relu_5x5_reduce"
  type: "ReLU"
  bottom: "inception_4d/5x5_reduce"
  top: "inception_4d/5x5_reduce"
}
layer {
  name: "inception_4d/5x5"
  type: "Convolution"
  bottom: "inception_4d/5x5_reduce"
  top: "inception_4d/5x5"
  param {
    lr_mult: 1
    decay_mult: 1
  }
  param {
    lr_mult: 2
    decay_mult: 0
  }
  convolution_param {
    num_output: 64
    pad: 2
    kernel_size: 5
    weight_filler {
      type: "xavier"
      std: 0.03
    }
    bias_filler {
      type: "constant"
      value: 0.2
    }
  }
}
layer {
  name: "inception_4d/relu_5x5"
  type: "ReLU"
  bottom: "inception_4d/5x5"
  top: "inception_4d/5x5"
}
layer {
  name: "inception_4d/pool"
  type: "Pooling"
  bottom: "inception_4c/output"
  top: "inception_4d/pool"
  pooling_param {
    pool: MAX
    kernel_size: 3
    stride: 1
    pad: 1
  }
}
layer {
  name: "inception_4d/pool_proj"
  type: "Convolution"
  bottom: "inception_4d/pool"
  top: "inception_4d/pool_proj"
  param {
    lr_mult: 1
    decay_mult: 1
  }
  param {
    lr_mult: 2
    decay_mult: 0
  }
  convolution_param {
    num_output: 64
    kernel_size: 1
    weight_filler {
      type: "xavier"
      std: 0.1
    }
    bias_filler {
      type: "constant"
      value: 0.2
    }
  }
}
layer {
  name: "inception_4d/relu_pool_proj"
  type: "ReLU"
  bottom: "inception_4d/pool_proj"
  top: "inception_4d/pool_proj"
}
layer {
  name: "inception_4d/output"
  type: "Concat"
  bottom: "inception_4d/1x1"
  bottom: "inception_4d/3x3"
  bottom: "inception_4d/5x5"
  bottom: "inception_4d/pool_proj"
  top: "inception_4d/output"
}
layer {
  name: "loss2/ave_pool"
  type: "Pooling"
  bottom: "inception_4d/output"
  top: "loss2/ave_pool"
  pooling_param {
    pool: AVE
    kernel_size: 5
    stride: 3
  }
}
layer {
  name: "loss2/conv"
  type: "Convolution"
  bottom: "loss2/ave_pool"
  top: "loss2/conv"
  param {
    lr_mult: 1
    decay_mult: 1
  }
  param {
    lr_mult: 2
    decay_mult: 0
  }
  convolution_param {
    num_output: 128
    kernel_size: 1
    weight_filler {
      type: "xavier"
      std: 0.08
    }
    bias_filler {
      type: "constant"
      value: 0.2
    }
  }
}
layer {
  name: "loss2/relu_conv"
  type: "ReLU"
  bottom: "loss2/conv"
  top: "loss2/conv"
}
layer {
  name: "loss2/fc"
  type: "InnerProduct"
  bottom: "loss2/conv"
  top: "loss2/fc"
  param {
    lr_mult: 1
    decay_mult: 1
  }
  param {
    lr_mult: 2
    decay_mult: 0
  }
  inner_product_param {
    num_output: 1024
    weight_filler {
      type: "xavier"
      std: 0.02
    }
    bias_filler {
      type: "constant"
      value: 0.2
    }
  }
}
layer {
  name: "loss2/relu_fc"
  type: "ReLU"
  bottom: "loss2/fc"
  top: "loss2/fc"
}
layer {
  name: "loss2/drop_fc"
  type: "Dropout"
  bottom: "loss2/fc"
  top: "loss2/fc"
  dropout_param {
    dropout_ratio: 0.7
  }
}
layer {
  name: "loss2/classifier_plantvillage"
  type: "InnerProduct"
  bottom: "loss2/fc"
  top: "loss2/classifier_plantvillage"
  param {
    lr_mult: 1
    decay_mult: 1
  }
  param {
    lr_mult: 2
    decay_mult: 0
  }
  inner_product_param {
    num_output: 38
    weight_filler {
      type: "xavier"
      std: 0.0009765625
    }
    bias_filler {
      type: "constant"
      value: 0
    }
  }
}
layer {
  name: "inception_4e/1x1"
  type: "Convolution"
  bottom: "inception_4d/output"
  top: "inception_4e/1x1"
  param {
    lr_mult: 1
    decay_mult: 1
  }
  param {
    lr_mult: 2
    decay_mult: 0
  }
  convolution_param {
    num_output: 256
    kernel_size: 1
    weight_filler {
      type: "xavier"
      std: 0.03
    }
    bias_filler {
      type: "constant"
      value: 0.2
    }
  }
}
layer {
  name: "inception_4e/relu_1x1"
  type: "ReLU"
  bottom: "inception_4e/1x1"
  top: "inception_4e/1x1"
}
layer {
  name: "inception_4e/3x3_reduce"
  type: "Convolution"
  bottom: "inception_4d/output"
  top: "inception_4e/3x3_reduce"
  param {
    lr_mult: 1
    decay_mult: 1
  }
  param {
    lr_mult: 2
    decay_mult: 0
  }
  convolution_param {
    num_output: 160
    kernel_size: 1
    weight_filler {
      type: "xavier"
      std: 0.09
    }
    bias_filler {
      type: "constant"
      value: 0.2
    }
  }
}
layer {
  name: "inception_4e/relu_3x3_reduce"
  type: "ReLU"
  bottom: "inception_4e/3x3_reduce"
  top: "inception_4e/3x3_reduce"
}
layer {
  name: "inception_4e/3x3"
  type: "Convolution"
  bottom: "inception_4e/3x3_reduce"
  top: "inception_4e/3x3"
  param {
    lr_mult: 1
    decay_mult: 1
  }
  param {
    lr_mult: 2
    decay_mult: 0
  }
  convolution_param {
    num_output: 320
    pad: 1
    kernel_size: 3
    weight_filler {
      type: "xavier"
      std: 0.03
    }
    bias_filler {
      type: "constant"
      value: 0.2
    }
  }
}
layer {
  name: "inception_4e/relu_3x3"
  type: "ReLU"
  bottom: "inception_4e/3x3"
  top: "inception_4e/3x3"
}
layer {
  name: "inception_4e/5x5_reduce"
  type: "Convolution"
  bottom: "inception_4d/output"
  top: "inception_4e/5x5_reduce"
  param {
    lr_mult: 1
    decay_mult: 1
  }
  param {
    lr_mult: 2
    decay_mult: 0
  }
  convolution_param {
    num_output: 32
    kernel_size: 1
    weight_filler {
      type: "xavier"
      std: 0.2
    }
    bias_filler {
      type: "constant"
      value: 0.2
    }
  }
}
layer {
  name: "inception_4e/relu_5x5_reduce"
  type: "ReLU"
  bottom: "inception_4e/5x5_reduce"
  top: "inception_4e/5x5_reduce"
}
layer {
  name: "inception_4e/5x5"
  type: "Convolution"
  bottom: "inception_4e/5x5_reduce"
  top: "inception_4e/5x5"
  p
I0403 15:50:36.989501 14587 layer_factory.hpp:77] Creating layer data
I0403 15:50:36.990089 14587 net.cpp:91] Creating Layer data
I0403 15:50:36.990120 14587 net.cpp:399] data -> data
I0403 15:50:36.990176 14587 net.cpp:399] data -> label
I0403 15:50:36.990216 14587 data_transformer.cpp:25] Loading mean file from: /home/mohanty/data/final_dataset/lmdb/color-80-20/mean.binaryproto
I0403 15:50:36.992779 14590 db_lmdb.cpp:38] Opened lmdb /home/mohanty/data/final_dataset/lmdb/color-80-20/test_db
I0403 15:50:37.003238 14587 data_layer.cpp:41] output data size: 24,3,224,224
I0403 15:50:37.030673 14587 net.cpp:141] Setting up data
I0403 15:50:37.030750 14587 net.cpp:148] Top shape: 24 3 224 224 (3612672)
I0403 15:50:37.030773 14587 net.cpp:148] Top shape: 24 (24)
I0403 15:50:37.030788 14587 net.cpp:156] Memory required for data: 14450784
I0403 15:50:37.030815 14587 layer_factory.hpp:77] Creating layer label_data_1_split
I0403 15:50:37.030843 14587 net.cpp:91] Creating Layer label_data_1_split
I0403 15:50:37.030860 14587 net.cpp:425] label_data_1_split <- label
I0403 15:50:37.030892 14587 net.cpp:399] label_data_1_split -> label_data_1_split_0
I0403 15:50:37.030933 14587 net.cpp:399] label_data_1_split -> label_data_1_split_1
I0403 15:50:37.030954 14587 net.cpp:399] label_data_1_split -> label_data_1_split_2
I0403 15:50:37.030974 14587 net.cpp:399] label_data_1_split -> label_data_1_split_3
I0403 15:50:37.030994 14587 net.cpp:399] label_data_1_split -> label_data_1_split_4
I0403 15:50:37.031014 14587 net.cpp:399] label_data_1_split -> label_data_1_split_5
I0403 15:50:37.031033 14587 net.cpp:399] label_data_1_split -> label_data_1_split_6
I0403 15:50:37.031052 14587 net.cpp:399] label_data_1_split -> label_data_1_split_7
I0403 15:50:37.031070 14587 net.cpp:399] label_data_1_split -> label_data_1_split_8
I0403 15:50:37.031090 14587 net.cpp:399] label_data_1_split -> label_data_1_split_9
I0403 15:50:37.031205 14587 net.cpp:141] Setting up label_data_1_split
I0403 15:50:37.031230 14587 net.cpp:148] Top shape: 24 (24)
I0403 15:50:37.031247 14587 net.cpp:148] Top shape: 24 (24)
I0403 15:50:37.031262 14587 net.cpp:148] Top shape: 24 (24)
I0403 15:50:37.031277 14587 net.cpp:148] Top shape: 24 (24)
I0403 15:50:37.031293 14587 net.cpp:148] Top shape: 24 (24)
I0403 15:50:37.031307 14587 net.cpp:148] Top shape: 24 (24)
I0403 15:50:37.031323 14587 net.cpp:148] Top shape: 24 (24)
I0403 15:50:37.031338 14587 net.cpp:148] Top shape: 24 (24)
I0403 15:50:37.031353 14587 net.cpp:148] Top shape: 24 (24)
I0403 15:50:37.031370 14587 net.cpp:148] Top shape: 24 (24)
I0403 15:50:37.031414 14587 net.cpp:156] Memory required for data: 14451744
I0403 15:50:37.031430 14587 layer_factory.hpp:77] Creating layer conv1/7x7_s2
I0403 15:50:37.031461 14587 net.cpp:91] Creating Layer conv1/7x7_s2
I0403 15:50:37.031481 14587 net.cpp:425] conv1/7x7_s2 <- data
I0403 15:50:37.031499 14587 net.cpp:399] conv1/7x7_s2 -> conv1/7x7_s2
I0403 15:50:37.174763 14587 net.cpp:141] Setting up conv1/7x7_s2
I0403 15:50:37.174837 14587 net.cpp:148] Top shape: 24 64 112 112 (19267584)
I0403 15:50:37.174854 14587 net.cpp:156] Memory required for data: 91522080
I0403 15:50:37.174885 14587 layer_factory.hpp:77] Creating layer conv1/relu_7x7
I0403 15:50:37.174912 14587 net.cpp:91] Creating Layer conv1/relu_7x7
I0403 15:50:37.174932 14587 net.cpp:425] conv1/relu_7x7 <- conv1/7x7_s2
I0403 15:50:37.174952 14587 net.cpp:386] conv1/relu_7x7 -> conv1/7x7_s2 (in-place)
I0403 15:50:37.175218 14587 net.cpp:141] Setting up conv1/relu_7x7
I0403 15:50:37.175246 14587 net.cpp:148] Top shape: 24 64 112 112 (19267584)
I0403 15:50:37.175262 14587 net.cpp:156] Memory required for data: 168592416
I0403 15:50:37.175277 14587 layer_factory.hpp:77] Creating layer pool1/3x3_s2
I0403 15:50:37.175303 14587 net.cpp:91] Creating Layer pool1/3x3_s2
I0403 15:50:37.175323 14587 net.cpp:425] pool1/3x3_s2 <- conv1/7x7_s2
I0403 15:50:37.175343 14587 net.cpp:399] pool1/3x3_s2 -> pool1/3x3_s2
I0403 15:50:37.175426 14587 net.cpp:141] Setting up pool1/3x3_s2
I0403 15:50:37.175451 14587 net.cpp:148] Top shape: 24 64 56 56 (4816896)
I0403 15:50:37.175465 14587 net.cpp:156] Memory required for data: 187860000
I0403 15:50:37.175480 14587 layer_factory.hpp:77] Creating layer pool1/norm1
I0403 15:50:37.175505 14587 net.cpp:91] Creating Layer pool1/norm1
I0403 15:50:37.175524 14587 net.cpp:425] pool1/norm1 <- pool1/3x3_s2
I0403 15:50:37.175544 14587 net.cpp:399] pool1/norm1 -> pool1/norm1
I0403 15:50:37.175832 14587 net.cpp:141] Setting up pool1/norm1
I0403 15:50:37.175861 14587 net.cpp:148] Top shape: 24 64 56 56 (4816896)
I0403 15:50:37.175878 14587 net.cpp:156] Memory required for data: 207127584
I0403 15:50:37.175892 14587 layer_factory.hpp:77] Creating layer conv2/3x3_reduce
I0403 15:50:37.175916 14587 net.cpp:91] Creating Layer conv2/3x3_reduce
I0403 15:50:37.175935 14587 net.cpp:425] conv2/3x3_reduce <- pool1/norm1
I0403 15:50:37.175954 14587 net.cpp:399] conv2/3x3_reduce -> conv2/3x3_reduce
I0403 15:50:37.177316 14587 net.cpp:141] Setting up conv2/3x3_reduce
I0403 15:50:37.177347 14587 net.cpp:148] Top shape: 24 64 56 56 (4816896)
I0403 15:50:37.177373 14587 net.cpp:156] Memory required for data: 226395168
I0403 15:50:37.177394 14587 layer_factory.hpp:77] Creating layer conv2/relu_3x3_reduce
I0403 15:50:37.177414 14587 net.cpp:91] Creating Layer conv2/relu_3x3_reduce
I0403 15:50:37.177429 14587 net.cpp:425] conv2/relu_3x3_reduce <- conv2/3x3_reduce
I0403 15:50:37.177449 14587 net.cpp:386] conv2/relu_3x3_reduce -> conv2/3x3_reduce (in-place)
I0403 15:50:37.177726 14587 net.cpp:141] Setting up conv2/relu_3x3_reduce
I0403 15:50:37.177752 14587 net.cpp:148] Top shape: 24 64 56 56 (4816896)
I0403 15:50:37.177767 14587 net.cpp:156] Memory required for data: 245662752
I0403 15:50:37.177783 14587 layer_factory.hpp:77] Creating layer conv2/3x3
I0403 15:50:37.177808 14587 net.cpp:91] Creating Layer conv2/3x3
I0403 15:50:37.177827 14587 net.cpp:425] conv2/3x3 <- conv2/3x3_reduce
I0403 15:50:37.177848 14587 net.cpp:399] conv2/3x3 -> conv2/3x3
I0403 15:50:37.180323 14587 net.cpp:141] Setting up conv2/3x3
I0403 15:50:37.180356 14587 net.cpp:148] Top shape: 24 192 56 56 (14450688)
I0403 15:50:37.180372 14587 net.cpp:156] Memory required for data: 303465504
I0403 15:50:37.180393 14587 layer_factory.hpp:77] Creating layer conv2/relu_3x3
I0403 15:50:37.180415 14587 net.cpp:91] Creating Layer conv2/relu_3x3
I0403 15:50:37.180433 14587 net.cpp:425] conv2/relu_3x3 <- conv2/3x3
I0403 15:50:37.180451 14587 net.cpp:386] conv2/relu_3x3 -> conv2/3x3 (in-place)
I0403 15:50:37.180626 14587 net.cpp:141] Setting up conv2/relu_3x3
I0403 15:50:37.180655 14587 net.cpp:148] Top shape: 24 192 56 56 (14450688)
I0403 15:50:37.180702 14587 net.cpp:156] Memory required for data: 361268256
I0403 15:50:37.180719 14587 layer_factory.hpp:77] Creating layer conv2/norm2
I0403 15:50:37.180738 14587 net.cpp:91] Creating Layer conv2/norm2
I0403 15:50:37.180754 14587 net.cpp:425] conv2/norm2 <- conv2/3x3
I0403 15:50:37.180775 14587 net.cpp:399] conv2/norm2 -> conv2/norm2
I0403 15:50:37.181087 14587 net.cpp:141] Setting up conv2/norm2
I0403 15:50:37.181115 14587 net.cpp:148] Top shape: 24 192 56 56 (14450688)
I0403 15:50:37.181136 14587 net.cpp:156] Memory required for data: 419071008
I0403 15:50:37.181154 14587 layer_factory.hpp:77] Creating layer pool2/3x3_s2
I0403 15:50:37.181171 14587 net.cpp:91] Creating Layer pool2/3x3_s2
I0403 15:50:37.181186 14587 net.cpp:425] pool2/3x3_s2 <- conv2/norm2
I0403 15:50:37.181219 14587 net.cpp:399] pool2/3x3_s2 -> pool2/3x3_s2
I0403 15:50:37.181277 14587 net.cpp:141] Setting up pool2/3x3_s2
I0403 15:50:37.181303 14587 net.cpp:148] Top shape: 24 192 28 28 (3612672)
I0403 15:50:37.181318 14587 net.cpp:156] Memory required for data: 433521696
I0403 15:50:37.181334 14587 layer_factory.hpp:77] Creating layer pool2/3x3_s2_pool2/3x3_s2_0_split
I0403 15:50:37.181355 14587 net.cpp:91] Creating Layer pool2/3x3_s2_pool2/3x3_s2_0_split
I0403 15:50:37.181373 14587 net.cpp:425] pool2/3x3_s2_pool2/3x3_s2_0_split <- pool2/3x3_s2
I0403 15:50:37.181391 14587 net.cpp:399] pool2/3x3_s2_pool2/3x3_s2_0_split -> pool2/3x3_s2_pool2/3x3_s2_0_split_0
I0403 15:50:37.181416 14587 net.cpp:399] pool2/3x3_s2_pool2/3x3_s2_0_split -> pool2/3x3_s2_pool2/3x3_s2_0_split_1
I0403 15:50:37.181437 14587 net.cpp:399] pool2/3x3_s2_pool2/3x3_s2_0_split -> pool2/3x3_s2_pool2/3x3_s2_0_split_2
I0403 15:50:37.181457 14587 net.cpp:399] pool2/3x3_s2_pool2/3x3_s2_0_split -> pool2/3x3_s2_pool2/3x3_s2_0_split_3
I0403 15:50:37.181543 14587 net.cpp:141] Setting up pool2/3x3_s2_pool2/3x3_s2_0_split
I0403 15:50:37.181567 14587 net.cpp:148] Top shape: 24 192 28 28 (3612672)
I0403 15:50:37.181584 14587 net.cpp:148] Top shape: 24 192 28 28 (3612672)
I0403 15:50:37.181601 14587 net.cpp:148] Top shape: 24 192 28 28 (3612672)
I0403 15:50:37.181617 14587 net.cpp:148] Top shape: 24 192 28 28 (3612672)
I0403 15:50:37.181630 14587 net.cpp:156] Memory required for data: 491324448
I0403 15:50:37.181644 14587 layer_factory.hpp:77] Creating layer inception_3a/1x1
I0403 15:50:37.181668 14587 net.cpp:91] Creating Layer inception_3a/1x1
I0403 15:50:37.181686 14587 net.cpp:425] inception_3a/1x1 <- pool2/3x3_s2_pool2/3x3_s2_0_split_0
I0403 15:50:37.181707 14587 net.cpp:399] inception_3a/1x1 -> inception_3a/1x1
I0403 15:50:37.183394 14587 net.cpp:141] Setting up inception_3a/1x1
I0403 15:50:37.183425 14587 net.cpp:148] Top shape: 24 64 28 28 (1204224)
I0403 15:50:37.183441 14587 net.cpp:156] Memory required for data: 496141344
I0403 15:50:37.183460 14587 layer_factory.hpp:77] Creating layer inception_3a/relu_1x1
I0403 15:50:37.183482 14587 net.cpp:91] Creating Layer inception_3a/relu_1x1
I0403 15:50:37.183500 14587 net.cpp:425] inception_3a/relu_1x1 <- inception_3a/1x1
I0403 15:50:37.183518 14587 net.cpp:386] inception_3a/relu_1x1 -> inception_3a/1x1 (in-place)
I0403 15:50:37.183696 14587 net.cpp:141] Setting up inception_3a/relu_1x1
I0403 15:50:37.183722 14587 net.cpp:148] Top shape: 24 64 28 28 (1204224)
I0403 15:50:37.183737 14587 net.cpp:156] Memory required for data: 500958240
I0403 15:50:37.183751 14587 layer_factory.hpp:77] Creating layer inception_3a/3x3_reduce
I0403 15:50:37.183774 14587 net.cpp:91] Creating Layer inception_3a/3x3_reduce
I0403 15:50:37.183794 14587 net.cpp:425] inception_3a/3x3_reduce <- pool2/3x3_s2_pool2/3x3_s2_0_split_1
I0403 15:50:37.183815 14587 net.cpp:399] inception_3a/3x3_reduce -> inception_3a/3x3_reduce
I0403 15:50:37.185516 14587 net.cpp:141] Setting up inception_3a/3x3_reduce
I0403 15:50:37.185546 14587 net.cpp:148] Top shape: 24 96 28 28 (1806336)
I0403 15:50:37.185564 14587 net.cpp:156] Memory required for data: 508183584
I0403 15:50:37.185585 14587 layer_factory.hpp:77] Creating layer inception_3a/relu_3x3_reduce
I0403 15:50:37.185623 14587 net.cpp:91] Creating Layer inception_3a/relu_3x3_reduce
I0403 15:50:37.185643 14587 net.cpp:425] inception_3a/relu_3x3_reduce <- inception_3a/3x3_reduce
I0403 15:50:37.185662 14587 net.cpp:386] inception_3a/relu_3x3_reduce -> inception_3a/3x3_reduce (in-place)
I0403 15:50:37.185847 14587 net.cpp:141] Setting up inception_3a/relu_3x3_reduce
I0403 15:50:37.185873 14587 net.cpp:148] Top shape: 24 96 28 28 (1806336)
I0403 15:50:37.185889 14587 net.cpp:156] Memory required for data: 515408928
I0403 15:50:37.185904 14587 layer_factory.hpp:77] Creating layer inception_3a/3x3
I0403 15:50:37.185927 14587 net.cpp:91] Creating Layer inception_3a/3x3
I0403 15:50:37.185945 14587 net.cpp:425] inception_3a/3x3 <- inception_3a/3x3_reduce
I0403 15:50:37.185968 14587 net.cpp:399] inception_3a/3x3 -> inception_3a/3x3
I0403 15:50:37.187683 14587 net.cpp:141] Setting up inception_3a/3x3
I0403 15:50:37.187713 14587 net.cpp:148] Top shape: 24 128 28 28 (2408448)
I0403 15:50:37.187729 14587 net.cpp:156] Memory required for data: 525042720
I0403 15:50:37.187748 14587 layer_factory.hpp:77] Creating layer inception_3a/relu_3x3
I0403 15:50:37.187770 14587 net.cpp:91] Creating Layer inception_3a/relu_3x3
I0403 15:50:37.187786 14587 net.cpp:425] inception_3a/relu_3x3 <- inception_3a/3x3
I0403 15:50:37.187805 14587 net.cpp:386] inception_3a/relu_3x3 -> inception_3a/3x3 (in-place)
I0403 15:50:37.188091 14587 net.cpp:141] Setting up inception_3a/relu_3x3
I0403 15:50:37.188118 14587 net.cpp:148] Top shape: 24 128 28 28 (2408448)
I0403 15:50:37.188140 14587 net.cpp:156] Memory required for data: 534676512
I0403 15:50:37.188156 14587 layer_factory.hpp:77] Creating layer inception_3a/5x5_reduce
I0403 15:50:37.188180 14587 net.cpp:91] Creating Layer inception_3a/5x5_reduce
I0403 15:50:37.188199 14587 net.cpp:425] inception_3a/5x5_reduce <- pool2/3x3_s2_pool2/3x3_s2_0_split_2
I0403 15:50:37.188220 14587 net.cpp:399] inception_3a/5x5_reduce -> inception_3a/5x5_reduce
I0403 15:50:37.189203 14587 net.cpp:141] Setting up inception_3a/5x5_reduce
I0403 15:50:37.189234 14587 net.cpp:148] Top shape: 24 16 28 28 (301056)
I0403 15:50:37.189250 14587 net.cpp:156] Memory required for data: 535880736
I0403 15:50:37.189270 14587 layer_factory.hpp:77] Creating layer inception_3a/relu_5x5_reduce
I0403 15:50:37.189291 14587 net.cpp:91] Creating Layer inception_3a/relu_5x5_reduce
I0403 15:50:37.189309 14587 net.cpp:425] inception_3a/relu_5x5_reduce <- inception_3a/5x5_reduce
I0403 15:50:37.189327 14587 net.cpp:386] inception_3a/relu_5x5_reduce -> inception_3a/5x5_reduce (in-place)
I0403 15:50:37.189633 14587 net.cpp:141] Setting up inception_3a/relu_5x5_reduce
I0403 15:50:37.189664 14587 net.cpp:148] Top shape: 24 16 28 28 (301056)
I0403 15:50:37.189680 14587 net.cpp:156] Memory required for data: 537084960
I0403 15:50:37.189695 14587 layer_factory.hpp:77] Creating layer inception_3a/5x5
I0403 15:50:37.189718 14587 net.cpp:91] Creating Layer inception_3a/5x5
I0403 15:50:37.189736 14587 net.cpp:425] inception_3a/5x5 <- inception_3a/5x5_reduce
I0403 15:50:37.189755 14587 net.cpp:399] inception_3a/5x5 -> inception_3a/5x5
I0403 15:50:37.190788 14587 net.cpp:141] Setting up inception_3a/5x5
I0403 15:50:37.190816 14587 net.cpp:148] Top shape: 24 32 28 28 (602112)
I0403 15:50:37.190834 14587 net.cpp:156] Memory required for data: 539493408
I0403 15:50:37.190851 14587 layer_factory.hpp:77] Creating layer inception_3a/relu_5x5
I0403 15:50:37.190872 14587 net.cpp:91] Creating Layer inception_3a/relu_5x5
I0403 15:50:37.190891 14587 net.cpp:425] inception_3a/relu_5x5 <- inception_3a/5x5
I0403 15:50:37.190908 14587 net.cpp:386] inception_3a/relu_5x5 -> inception_3a/5x5 (in-place)
I0403 15:50:37.191081 14587 net.cpp:141] Setting up inception_3a/relu_5x5
I0403 15:50:37.191107 14587 net.cpp:148] Top shape: 24 32 28 28 (602112)
I0403 15:50:37.191123 14587 net.cpp:156] Memory required for data: 541901856
I0403 15:50:37.191143 14587 layer_factory.hpp:77] Creating layer inception_3a/pool
I0403 15:50:37.191166 14587 net.cpp:91] Creating Layer inception_3a/pool
I0403 15:50:37.191184 14587 net.cpp:425] inception_3a/pool <- pool2/3x3_s2_pool2/3x3_s2_0_split_3
I0403 15:50:37.191220 14587 net.cpp:399] inception_3a/pool -> inception_3a/pool
I0403 15:50:37.191280 14587 net.cpp:141] Setting up inception_3a/pool
I0403 15:50:37.191305 14587 net.cpp:148] Top shape: 24 192 28 28 (3612672)
I0403 15:50:37.191320 14587 net.cpp:156] Memory required for data: 556352544
I0403 15:50:37.191335 14587 layer_factory.hpp:77] Creating layer inception_3a/pool_proj
I0403 15:50:37.191359 14587 net.cpp:91] Creating Layer inception_3a/pool_proj
I0403 15:50:37.191378 14587 net.cpp:425] inception_3a/pool_proj <- inception_3a/pool
I0403 15:50:37.191401 14587 net.cpp:399] inception_3a/pool_proj -> inception_3a/pool_proj
I0403 15:50:37.192373 14587 net.cpp:141] Setting up inception_3a/pool_proj
I0403 15:50:37.192405 14587 net.cpp:148] Top shape: 24 32 28 28 (602112)
I0403 15:50:37.192422 14587 net.cpp:156] Memory required for data: 558760992
I0403 15:50:37.192445 14587 layer_factory.hpp:77] Creating layer inception_3a/relu_pool_proj
I0403 15:50:37.192471 14587 net.cpp:91] Creating Layer inception_3a/relu_pool_proj
I0403 15:50:37.192488 14587 net.cpp:425] inception_3a/relu_pool_proj <- inception_3a/pool_proj
I0403 15:50:37.192507 14587 net.cpp:386] inception_3a/relu_pool_proj -> inception_3a/pool_proj (in-place)
I0403 15:50:37.192795 14587 net.cpp:141] Setting up inception_3a/relu_pool_proj
I0403 15:50:37.192821 14587 net.cpp:148] Top shape: 24 32 28 28 (602112)
I0403 15:50:37.192836 14587 net.cpp:156] Memory required for data: 561169440
I0403 15:50:37.192850 14587 layer_factory.hpp:77] Creating layer inception_3a/output
I0403 15:50:37.192870 14587 net.cpp:91] Creating Layer inception_3a/output
I0403 15:50:37.192888 14587 net.cpp:425] inception_3a/output <- inception_3a/1x1
I0403 15:50:37.192903 14587 net.cpp:425] inception_3a/output <- inception_3a/3x3
I0403 15:50:37.192919 14587 net.cpp:425] inception_3a/output <- inception_3a/5x5
I0403 15:50:37.192934 14587 net.cpp:425] inception_3a/output <- inception_3a/pool_proj
I0403 15:50:37.192950 14587 net.cpp:399] inception_3a/output -> inception_3a/output
I0403 15:50:37.192998 14587 net.cpp:141] Setting up inception_3a/output
I0403 15:50:37.193022 14587 net.cpp:148] Top shape: 24 256 28 28 (4816896)
I0403 15:50:37.193037 14587 net.cpp:156] Memory required for data: 580437024
I0403 15:50:37.193050 14587 layer_factory.hpp:77] Creating layer inception_3a/output_inception_3a/output_0_split
I0403 15:50:37.193068 14587 net.cpp:91] Creating Layer inception_3a/output_inception_3a/output_0_split
I0403 15:50:37.193083 14587 net.cpp:425] inception_3a/output_inception_3a/output_0_split <- inception_3a/output
I0403 15:50:37.193100 14587 net.cpp:399] inception_3a/output_inception_3a/output_0_split -> inception_3a/output_inception_3a/output_0_split_0
I0403 15:50:37.193121 14587 net.cpp:399] inception_3a/output_inception_3a/output_0_split -> inception_3a/output_inception_3a/output_0_split_1
I0403 15:50:37.193156 14587 net.cpp:399] inception_3a/output_inception_3a/output_0_split -> inception_3a/output_inception_3a/output_0_split_2
I0403 15:50:37.193178 14587 net.cpp:399] inception_3a/output_inception_3a/output_0_split -> inception_3a/output_inception_3a/output_0_split_3
I0403 15:50:37.193253 14587 net.cpp:141] Setting up inception_3a/output_inception_3a/output_0_split
I0403 15:50:37.193277 14587 net.cpp:148] Top shape: 24 256 28 28 (4816896)
I0403 15:50:37.193295 14587 net.cpp:148] Top shape: 24 256 28 28 (4816896)
I0403 15:50:37.193310 14587 net.cpp:148] Top shape: 24 256 28 28 (4816896)
I0403 15:50:37.193325 14587 net.cpp:148] Top shape: 24 256 28 28 (4816896)
I0403 15:50:37.193338 14587 net.cpp:156] Memory required for data: 657507360
I0403 15:50:37.193352 14587 layer_factory.hpp:77] Creating layer inception_3b/1x1
I0403 15:50:37.193374 14587 net.cpp:91] Creating Layer inception_3b/1x1
I0403 15:50:37.193392 14587 net.cpp:425] inception_3b/1x1 <- inception_3a/output_inception_3a/output_0_split_0
I0403 15:50:37.193414 14587 net.cpp:399] inception_3b/1x1 -> inception_3b/1x1
I0403 15:50:37.194528 14587 net.cpp:141] Setting up inception_3b/1x1
I0403 15:50:37.194567 14587 net.cpp:148] Top shape: 24 128 28 28 (2408448)
I0403 15:50:37.194583 14587 net.cpp:156] Memory required for data: 667141152
I0403 15:50:37.194602 14587 layer_factory.hpp:77] Creating layer inception_3b/relu_1x1
I0403 15:50:37.194619 14587 net.cpp:91] Creating Layer inception_3b/relu_1x1
I0403 15:50:37.194635 14587 net.cpp:425] inception_3b/relu_1x1 <- inception_3b/1x1
I0403 15:50:37.194654 14587 net.cpp:386] inception_3b/relu_1x1 -> inception_3b/1x1 (in-place)
I0403 15:50:37.194829 14587 net.cpp:141] Setting up inception_3b/relu_1x1
I0403 15:50:37.194855 14587 net.cpp:148] Top shape: 24 128 28 28 (2408448)
I0403 15:50:37.194869 14587 net.cpp:156] Memory required for data: 676774944
I0403 15:50:37.194885 14587 layer_factory.hpp:77] Creating layer inception_3b/3x3_reduce
I0403 15:50:37.194906 14587 net.cpp:91] Creating Layer inception_3b/3x3_reduce
I0403 15:50:37.194924 14587 net.cpp:425] inception_3b/3x3_reduce <- inception_3a/output_inception_3a/output_0_split_1
I0403 15:50:37.194946 14587 net.cpp:399] inception_3b/3x3_reduce -> inception_3b/3x3_reduce
I0403 15:50:37.196116 14587 net.cpp:141] Setting up inception_3b/3x3_reduce
I0403 15:50:37.196151 14587 net.cpp:148] Top shape: 24 128 28 28 (2408448)
I0403 15:50:37.196167 14587 net.cpp:156] Memory required for data: 686408736
I0403 15:50:37.196187 14587 layer_factory.hpp:77] Creating layer inception_3b/relu_3x3_reduce
I0403 15:50:37.196205 14587 net.cpp:91] Creating Layer inception_3b/relu_3x3_reduce
I0403 15:50:37.196223 14587 net.cpp:425] inception_3b/relu_3x3_reduce <- inception_3b/3x3_reduce
I0403 15:50:37.196244 14587 net.cpp:386] inception_3b/relu_3x3_reduce -> inception_3b/3x3_reduce (in-place)
I0403 15:50:37.196416 14587 net.cpp:141] Setting up inception_3b/relu_3x3_reduce
I0403 15:50:37.196442 14587 net.cpp:148] Top shape: 24 128 28 28 (2408448)
I0403 15:50:37.196457 14587 net.cpp:156] Memory required for data: 696042528
I0403 15:50:37.196472 14587 layer_factory.hpp:77] Creating layer inception_3b/3x3
I0403 15:50:37.196499 14587 net.cpp:91] Creating Layer inception_3b/3x3
I0403 15:50:37.196517 14587 net.cpp:425] inception_3b/3x3 <- inception_3b/3x3_reduce
I0403 15:50:37.196537 14587 net.cpp:399] inception_3b/3x3 -> inception_3b/3x3
I0403 15:50:37.199482 14587 net.cpp:141] Setting up inception_3b/3x3
I0403 15:50:37.199512 14587 net.cpp:148] Top shape: 24 192 28 28 (3612672)
I0403 15:50:37.199527 14587 net.cpp:156] Memory required for data: 710493216
I0403 15:50:37.199544 14587 layer_factory.hpp:77] Creating layer inception_3b/relu_3x3
I0403 15:50:37.199564 14587 net.cpp:91] Creating Layer inception_3b/relu_3x3
I0403 15:50:37.199582 14587 net.cpp:425] inception_3b/relu_3x3 <- inception_3b/3x3
I0403 15:50:37.199600 14587 net.cpp:386] inception_3b/relu_3x3 -> inception_3b/3x3 (in-place)
I0403 15:50:37.199870 14587 net.cpp:141] Setting up inception_3b/relu_3x3
I0403 15:50:37.199898 14587 net.cpp:148] Top shape: 24 192 28 28 (3612672)
I0403 15:50:37.199913 14587 net.cpp:156] Memory required for data: 724943904
I0403 15:50:37.199928 14587 layer_factory.hpp:77] Creating layer inception_3b/5x5_reduce
I0403 15:50:37.199949 14587 net.cpp:91] Creating Layer inception_3b/5x5_reduce
I0403 15:50:37.199967 14587 net.cpp:425] inception_3b/5x5_reduce <- inception_3a/output_inception_3a/output_0_split_2
I0403 15:50:37.199990 14587 net.cpp:399] inception_3b/5x5_reduce -> inception_3b/5x5_reduce
I0403 15:50:37.200963 14587 net.cpp:141] Setting up inception_3b/5x5_reduce
I0403 15:50:37.200991 14587 net.cpp:148] Top shape: 24 32 28 28 (602112)
I0403 15:50:37.201007 14587 net.cpp:156] Memory required for data: 727352352
I0403 15:50:37.201025 14587 layer_factory.hpp:77] Creating layer inception_3b/relu_5x5_reduce
I0403 15:50:37.201045 14587 net.cpp:91] Creating Layer inception_3b/relu_5x5_reduce
I0403 15:50:37.201062 14587 net.cpp:425] inception_3b/relu_5x5_reduce <- inception_3b/5x5_reduce
I0403 15:50:37.201081 14587 net.cpp:386] inception_3b/relu_5x5_reduce -> inception_3b/5x5_reduce (in-place)
I0403 15:50:37.201256 14587 net.cpp:141] Setting up inception_3b/relu_5x5_reduce
I0403 15:50:37.201294 14587 net.cpp:148] Top shape: 24 32 28 28 (602112)
I0403 15:50:37.201310 14587 net.cpp:156] Memory required for data: 729760800
I0403 15:50:37.201324 14587 layer_factory.hpp:77] Creating layer inception_3b/5x5
I0403 15:50:37.201349 14587 net.cpp:91] Creating Layer inception_3b/5x5
I0403 15:50:37.201365 14587 net.cpp:425] inception_3b/5x5 <- inception_3b/5x5_reduce
I0403 15:50:37.201385 14587 net.cpp:399] inception_3b/5x5 -> inception_3b/5x5
I0403 15:50:37.203338 14587 net.cpp:141] Setting up inception_3b/5x5
I0403 15:50:37.203377 14587 net.cpp:148] Top shape: 24 96 28 28 (1806336)
I0403 15:50:37.203393 14587 net.cpp:156] Memory required for data: 736986144
I0403 15:50:37.203411 14587 layer_factory.hpp:77] Creating layer inception_3b/relu_5x5
I0403 15:50:37.203428 14587 net.cpp:91] Creating Layer inception_3b/relu_5x5
I0403 15:50:37.203444 14587 net.cpp:425] inception_3b/relu_5x5 <- inception_3b/5x5
I0403 15:50:37.203464 14587 net.cpp:386] inception_3b/relu_5x5 -> inception_3b/5x5 (in-place)
I0403 15:50:37.203654 14587 net.cpp:141] Setting up inception_3b/relu_5x5
I0403 15:50:37.203680 14587 net.cpp:148] Top shape: 24 96 28 28 (1806336)
I0403 15:50:37.203694 14587 net.cpp:156] Memory required for data: 744211488
I0403 15:50:37.203708 14587 layer_factory.hpp:77] Creating layer inception_3b/pool
I0403 15:50:37.203727 14587 net.cpp:91] Creating Layer inception_3b/pool
I0403 15:50:37.203742 14587 net.cpp:425] inception_3b/pool <- inception_3a/output_inception_3a/output_0_split_3
I0403 15:50:37.203758 14587 net.cpp:399] inception_3b/pool -> inception_3b/pool
I0403 15:50:37.203816 14587 net.cpp:141] Setting up inception_3b/pool
I0403 15:50:37.203841 14587 net.cpp:148] Top shape: 24 256 28 28 (4816896)
I0403 15:50:37.203855 14587 net.cpp:156] Memory required for data: 763479072
I0403 15:50:37.203871 14587 layer_factory.hpp:77] Creating layer inception_3b/pool_proj
I0403 15:50:37.203892 14587 net.cpp:91] Creating Layer inception_3b/pool_proj
I0403 15:50:37.203910 14587 net.cpp:425] inception_3b/pool_proj <- inception_3b/pool
I0403 15:50:37.203932 14587 net.cpp:399] inception_3b/pool_proj -> inception_3b/pool_proj
I0403 15:50:37.204964 14587 net.cpp:141] Setting up inception_3b/pool_proj
I0403 15:50:37.204994 14587 net.cpp:148] Top shape: 24 64 28 28 (1204224)
I0403 15:50:37.205011 14587 net.cpp:156] Memory required for data: 768295968
I0403 15:50:37.205030 14587 layer_factory.hpp:77] Creating layer inception_3b/relu_pool_proj
I0403 15:50:37.205049 14587 net.cpp:91] Creating Layer inception_3b/relu_pool_proj
I0403 15:50:37.205063 14587 net.cpp:425] inception_3b/relu_pool_proj <- inception_3b/pool_proj
I0403 15:50:37.205083 14587 net.cpp:386] inception_3b/relu_pool_proj -> inception_3b/pool_proj (in-place)
I0403 15:50:37.205482 14587 net.cpp:141] Setting up inception_3b/relu_pool_proj
I0403 15:50:37.205507 14587 net.cpp:148] Top shape: 24 64 28 28 (1204224)
I0403 15:50:37.205526 14587 net.cpp:156] Memory required for data: 773112864
I0403 15:50:37.205540 14587 layer_factory.hpp:77] Creating layer inception_3b/output
I0403 15:50:37.205559 14587 net.cpp:91] Creating Layer inception_3b/output
I0403 15:50:37.205574 14587 net.cpp:425] inception_3b/output <- inception_3b/1x1
I0403 15:50:37.205591 14587 net.cpp:425] inception_3b/output <- inception_3b/3x3
I0403 15:50:37.205606 14587 net.cpp:425] inception_3b/output <- inception_3b/5x5
I0403 15:50:37.205621 14587 net.cpp:425] inception_3b/output <- inception_3b/pool_proj
I0403 15:50:37.205637 14587 net.cpp:399] inception_3b/output -> inception_3b/output
I0403 15:50:37.205683 14587 net.cpp:141] Setting up inception_3b/output
I0403 15:50:37.205708 14587 net.cpp:148] Top shape: 24 480 28 28 (9031680)
I0403 15:50:37.205723 14587 net.cpp:156] Memory required for data: 809239584
I0403 15:50:37.205737 14587 layer_factory.hpp:77] Creating layer pool3/3x3_s2
I0403 15:50:37.205756 14587 net.cpp:91] Creating Layer pool3/3x3_s2
I0403 15:50:37.205773 14587 net.cpp:425] pool3/3x3_s2 <- inception_3b/output
I0403 15:50:37.205791 14587 net.cpp:399] pool3/3x3_s2 -> pool3/3x3_s2
I0403 15:50:37.205864 14587 net.cpp:141] Setting up pool3/3x3_s2
I0403 15:50:37.205888 14587 net.cpp:148] Top shape: 24 480 14 14 (2257920)
I0403 15:50:37.205904 14587 net.cpp:156] Memory required for data: 818271264
I0403 15:50:37.205919 14587 layer_factory.hpp:77] Creating layer pool3/3x3_s2_pool3/3x3_s2_0_split
I0403 15:50:37.205935 14587 net.cpp:91] Creating Layer pool3/3x3_s2_pool3/3x3_s2_0_split
I0403 15:50:37.205950 14587 net.cpp:425] pool3/3x3_s2_pool3/3x3_s2_0_split <- pool3/3x3_s2
I0403 15:50:37.205970 14587 net.cpp:399] pool3/3x3_s2_pool3/3x3_s2_0_split -> pool3/3x3_s2_pool3/3x3_s2_0_split_0
I0403 15:50:37.205991 14587 net.cpp:399] pool3/3x3_s2_pool3/3x3_s2_0_split -> pool3/3x3_s2_pool3/3x3_s2_0_split_1
I0403 15:50:37.206010 14587 net.cpp:399] pool3/3x3_s2_pool3/3x3_s2_0_split -> pool3/3x3_s2_pool3/3x3_s2_0_split_2
I0403 15:50:37.206029 14587 net.cpp:399] pool3/3x3_s2_pool3/3x3_s2_0_split -> pool3/3x3_s2_pool3/3x3_s2_0_split_3
I0403 15:50:37.206104 14587 net.cpp:141] Setting up pool3/3x3_s2_pool3/3x3_s2_0_split
I0403 15:50:37.206131 14587 net.cpp:148] Top shape: 24 480 14 14 (2257920)
I0403 15:50:37.206151 14587 net.cpp:148] Top shape: 24 480 14 14 (2257920)
I0403 15:50:37.206166 14587 net.cpp:148] Top shape: 24 480 14 14 (2257920)
I0403 15:50:37.206182 14587 net.cpp:148] Top shape: 24 480 14 14 (2257920)
I0403 15:50:37.206197 14587 net.cpp:156] Memory required for data: 854397984
I0403 15:50:37.206210 14587 layer_factory.hpp:77] Creating layer inception_4a/1x1
I0403 15:50:37.206234 14587 net.cpp:91] Creating Layer inception_4a/1x1
I0403 15:50:37.206253 14587 net.cpp:425] inception_4a/1x1 <- pool3/3x3_s2_pool3/3x3_s2_0_split_0
I0403 15:50:37.206271 14587 net.cpp:399] inception_4a/1x1 -> inception_4a/1x1
I0403 15:50:37.207836 14587 net.cpp:141] Setting up inception_4a/1x1
I0403 15:50:37.207867 14587 net.cpp:148] Top shape: 24 192 14 14 (903168)
I0403 15:50:37.207885 14587 net.cpp:156] Memory required for data: 858010656
I0403 15:50:37.207904 14587 layer_factory.hpp:77] Creating layer inception_4a/relu_1x1
I0403 15:50:37.207922 14587 net.cpp:91] Creating Layer inception_4a/relu_1x1
I0403 15:50:37.207937 14587 net.cpp:425] inception_4a/relu_1x1 <- inception_4a/1x1
I0403 15:50:37.207957 14587 net.cpp:386] inception_4a/relu_1x1 -> inception_4a/1x1 (in-place)
I0403 15:50:37.208134 14587 net.cpp:141] Setting up inception_4a/relu_1x1
I0403 15:50:37.208160 14587 net.cpp:148] Top shape: 24 192 14 14 (903168)
I0403 15:50:37.208174 14587 net.cpp:156] Memory required for data: 861623328
I0403 15:50:37.208189 14587 layer_factory.hpp:77] Creating layer inception_4a/3x3_reduce
I0403 15:50:37.208210 14587 net.cpp:91] Creating Layer inception_4a/3x3_reduce
I0403 15:50:37.208228 14587 net.cpp:425] inception_4a/3x3_reduce <- pool3/3x3_s2_pool3/3x3_s2_0_split_1
I0403 15:50:37.208250 14587 net.cpp:399] inception_4a/3x3_reduce -> inception_4a/3x3_reduce
I0403 15:50:37.209509 14587 net.cpp:141] Setting up inception_4a/3x3_reduce
I0403 15:50:37.209539 14587 net.cpp:148] Top shape: 24 96 14 14 (451584)
I0403 15:50:37.209556 14587 net.cpp:156] Memory required for data: 863429664
I0403 15:50:37.209578 14587 layer_factory.hpp:77] Creating layer inception_4a/relu_3x3_reduce
I0403 15:50:37.209602 14587 net.cpp:91] Creating Layer inception_4a/relu_3x3_reduce
I0403 15:50:37.209619 14587 net.cpp:425] inception_4a/relu_3x3_reduce <- inception_4a/3x3_reduce
I0403 15:50:37.209636 14587 net.cpp:386] inception_4a/relu_3x3_reduce -> inception_4a/3x3_reduce (in-place)
I0403 15:50:37.209816 14587 net.cpp:141] Setting up inception_4a/relu_3x3_reduce
I0403 15:50:37.209842 14587 net.cpp:148] Top shape: 24 96 14 14 (451584)
I0403 15:50:37.209856 14587 net.cpp:156] Memory required for data: 865236000
I0403 15:50:37.209872 14587 layer_factory.hpp:77] Creating layer inception_4a/3x3
I0403 15:50:37.209893 14587 net.cpp:91] Creating Layer inception_4a/3x3
I0403 15:50:37.209911 14587 net.cpp:425] inception_4a/3x3 <- inception_4a/3x3_reduce
I0403 15:50:37.209933 14587 net.cpp:399] inception_4a/3x3 -> inception_4a/3x3
I0403 15:50:37.212607 14587 net.cpp:141] Setting up inception_4a/3x3
I0403 15:50:37.212636 14587 net.cpp:148] Top shape: 24 208 14 14 (978432)
I0403 15:50:37.212652 14587 net.cpp:156] Memory required for data: 869149728
I0403 15:50:37.212671 14587 layer_factory.hpp:77] Creating layer inception_4a/relu_3x3
I0403 15:50:37.212689 14587 net.cpp:91] Creating Layer inception_4a/relu_3x3
I0403 15:50:37.212709 14587 net.cpp:425] inception_4a/relu_3x3 <- inception_4a/3x3
I0403 15:50:37.212726 14587 net.cpp:386] inception_4a/relu_3x3 -> inception_4a/3x3 (in-place)
I0403 15:50:37.213001 14587 net.cpp:141] Setting up inception_4a/relu_3x3
I0403 15:50:37.213027 14587 net.cpp:148] Top shape: 24 208 14 14 (978432)
I0403 15:50:37.213043 14587 net.cpp:156] Memory required for data: 873063456
I0403 15:50:37.213058 14587 layer_factory.hpp:77] Creating layer inception_4a/5x5_reduce
I0403 15:50:37.213083 14587 net.cpp:91] Creating Layer inception_4a/5x5_reduce
I0403 15:50:37.213101 14587 net.cpp:425] inception_4a/5x5_reduce <- pool3/3x3_s2_pool3/3x3_s2_0_split_2
I0403 15:50:37.213121 14587 net.cpp:399] inception_4a/5x5_reduce -> inception_4a/5x5_reduce
I0403 15:50:37.214136 14587 net.cpp:141] Setting up inception_4a/5x5_reduce
I0403 15:50:37.214164 14587 net.cpp:148] Top shape: 24 16 14 14 (75264)
I0403 15:50:37.214180 14587 net.cpp:156] Memory required for data: 873364512
I0403 15:50:37.214198 14587 layer_factory.hpp:77] Creating layer inception_4a/relu_5x5_reduce
I0403 15:50:37.214218 14587 net.cpp:91] Creating Layer inception_4a/relu_5x5_reduce
I0403 15:50:37.214236 14587 net.cpp:425] inception_4a/relu_5x5_reduce <- inception_4a/5x5_reduce
I0403 15:50:37.214253 14587 net.cpp:386] inception_4a/relu_5x5_reduce -> inception_4a/5x5_reduce (in-place)
I0403 15:50:37.214440 14587 net.cpp:141] Setting up inception_4a/relu_5x5_reduce
I0403 15:50:37.214468 14587 net.cpp:148] Top shape: 24 16 14 14 (75264)
I0403 15:50:37.214483 14587 net.cpp:156] Memory required for data: 873665568
I0403 15:50:37.214496 14587 layer_factory.hpp:77] Creating layer inception_4a/5x5
I0403 15:50:37.214521 14587 net.cpp:91] Creating Layer inception_4a/5x5
I0403 15:50:37.214540 14587 net.cpp:425] inception_4a/5x5 <- inception_4a/5x5_reduce
I0403 15:50:37.214560 14587 net.cpp:399] inception_4a/5x5 -> inception_4a/5x5
I0403 15:50:37.215651 14587 net.cpp:141] Setting up inception_4a/5x5
I0403 15:50:37.215680 14587 net.cpp:148] Top shape: 24 48 14 14 (225792)
I0403 15:50:37.215697 14587 net.cpp:156] Memory required for data: 874568736
I0403 15:50:37.215715 14587 layer_factory.hpp:77] Creating layer inception_4a/relu_5x5
I0403 15:50:37.215734 14587 net.cpp:91] Creating Layer inception_4a/relu_5x5
I0403 15:50:37.215749 14587 net.cpp:425] inception_4a/relu_5x5 <- inception_4a/5x5
I0403 15:50:37.215766 14587 net.cpp:386] inception_4a/relu_5x5 -> inception_4a/5x5 (in-place)
I0403 15:50:37.215940 14587 net.cpp:141] Setting up inception_4a/relu_5x5
I0403 15:50:37.215970 14587 net.cpp:148] Top shape: 24 48 14 14 (225792)
I0403 15:50:37.215987 14587 net.cpp:156] Memory required for data: 875471904
I0403 15:50:37.216002 14587 layer_factory.hpp:77] Creating layer inception_4a/pool
I0403 15:50:37.216019 14587 net.cpp:91] Creating Layer inception_4a/pool
I0403 15:50:37.216034 14587 net.cpp:425] inception_4a/pool <- pool3/3x3_s2_pool3/3x3_s2_0_split_3
I0403 15:50:37.216055 14587 net.cpp:399] inception_4a/pool -> inception_4a/pool
I0403 15:50:37.216119 14587 net.cpp:141] Setting up inception_4a/pool
I0403 15:50:37.216148 14587 net.cpp:148] Top shape: 24 480 14 14 (2257920)
I0403 15:50:37.216166 14587 net.cpp:156] Memory required for data: 884503584
I0403 15:50:37.216179 14587 layer_factory.hpp:77] Creating layer inception_4a/pool_proj
I0403 15:50:37.216199 14587 net.cpp:91] Creating Layer inception_4a/pool_proj
I0403 15:50:37.216217 14587 net.cpp:425] inception_4a/pool_proj <- inception_4a/pool
I0403 15:50:37.216238 14587 net.cpp:399] inception_4a/pool_proj -> inception_4a/pool_proj
I0403 15:50:37.217394 14587 net.cpp:141] Setting up inception_4a/pool_proj
I0403 15:50:37.217425 14587 net.cpp:148] Top shape: 24 64 14 14 (301056)
I0403 15:50:37.217456 14587 net.cpp:156] Memory required for data: 885707808
I0403 15:50:37.217476 14587 layer_factory.hpp:77] Creating layer inception_4a/relu_pool_proj
I0403 15:50:37.217494 14587 net.cpp:91] Creating Layer inception_4a/relu_pool_proj
I0403 15:50:37.217510 14587 net.cpp:425] inception_4a/relu_pool_proj <- inception_4a/pool_proj
I0403 15:50:37.217527 14587 net.cpp:386] inception_4a/relu_pool_proj -> inception_4a/pool_proj (in-place)
I0403 15:50:37.217810 14587 net.cpp:141] Setting up inception_4a/relu_pool_proj
I0403 15:50:37.217839 14587 net.cpp:148] Top shape: 24 64 14 14 (301056)
I0403 15:50:37.217855 14587 net.cpp:156] Memory required for data: 886912032
I0403 15:50:37.217870 14587 layer_factory.hpp:77] Creating layer inception_4a/output
I0403 15:50:37.217888 14587 net.cpp:91] Creating Layer inception_4a/output
I0403 15:50:37.217903 14587 net.cpp:425] inception_4a/output <- inception_4a/1x1
I0403 15:50:37.217918 14587 net.cpp:425] inception_4a/output <- inception_4a/3x3
I0403 15:50:37.217936 14587 net.cpp:425] inception_4a/output <- inception_4a/5x5
I0403 15:50:37.217949 14587 net.cpp:425] inception_4a/output <- inception_4a/pool_proj
I0403 15:50:37.217965 14587 net.cpp:399] inception_4a/output -> inception_4a/output
I0403 15:50:37.218011 14587 net.cpp:141] Setting up inception_4a/output
I0403 15:50:37.218035 14587 net.cpp:148] Top shape: 24 512 14 14 (2408448)
I0403 15:50:37.218050 14587 net.cpp:156] Memory required for data: 896545824
I0403 15:50:37.218065 14587 layer_factory.hpp:77] Creating layer inception_4a/output_inception_4a/output_0_split
I0403 15:50:37.218085 14587 net.cpp:91] Creating Layer inception_4a/output_inception_4a/output_0_split
I0403 15:50:37.218101 14587 net.cpp:425] inception_4a/output_inception_4a/output_0_split <- inception_4a/output
I0403 15:50:37.218118 14587 net.cpp:399] inception_4a/output_inception_4a/output_0_split -> inception_4a/output_inception_4a/output_0_split_0
I0403 15:50:37.218143 14587 net.cpp:399] inception_4a/output_inception_4a/output_0_split -> inception_4a/output_inception_4a/output_0_split_1
I0403 15:50:37.218165 14587 net.cpp:399] inception_4a/output_inception_4a/output_0_split -> inception_4a/output_inception_4a/output_0_split_2
I0403 15:50:37.218189 14587 net.cpp:399] inception_4a/output_inception_4a/output_0_split -> inception_4a/output_inception_4a/output_0_split_3
I0403 15:50:37.218210 14587 net.cpp:399] inception_4a/output_inception_4a/output_0_split -> inception_4a/output_inception_4a/output_0_split_4
I0403 15:50:37.218302 14587 net.cpp:141] Setting up inception_4a/output_inception_4a/output_0_split
I0403 15:50:37.218325 14587 net.cpp:148] Top shape: 24 512 14 14 (2408448)
I0403 15:50:37.218341 14587 net.cpp:148] Top shape: 24 512 14 14 (2408448)
I0403 15:50:37.218358 14587 net.cpp:148] Top shape: 24 512 14 14 (2408448)
I0403 15:50:37.218372 14587 net.cpp:148] Top shape: 24 512 14 14 (2408448)
I0403 15:50:37.218387 14587 net.cpp:148] Top shape: 24 512 14 14 (2408448)
I0403 15:50:37.218401 14587 net.cpp:156] Memory required for data: 944714784
I0403 15:50:37.218415 14587 layer_factory.hpp:77] Creating layer loss1/ave_pool
I0403 15:50:37.218436 14587 net.cpp:91] Creating Layer loss1/ave_pool
I0403 15:50:37.218452 14587 net.cpp:425] loss1/ave_pool <- inception_4a/output_inception_4a/output_0_split_0
I0403 15:50:37.218471 14587 net.cpp:399] loss1/ave_pool -> loss1/ave_pool
I0403 15:50:37.218673 14587 net.cpp:141] Setting up loss1/ave_pool
I0403 15:50:37.218703 14587 net.cpp:148] Top shape: 24 512 4 4 (196608)
I0403 15:50:37.218719 14587 net.cpp:156] Memory required for data: 945501216
I0403 15:50:37.218734 14587 layer_factory.hpp:77] Creating layer loss1/conv
I0403 15:50:37.218755 14587 net.cpp:91] Creating Layer loss1/conv
I0403 15:50:37.218773 14587 net.cpp:425] loss1/conv <- loss1/ave_pool
I0403 15:50:37.218792 14587 net.cpp:399] loss1/conv -> loss1/conv
I0403 15:50:37.220201 14587 net.cpp:141] Setting up loss1/conv
I0403 15:50:37.220229 14587 net.cpp:148] Top shape: 24 128 4 4 (49152)
I0403 15:50:37.220245 14587 net.cpp:156] Memory required for data: 945697824
I0403 15:50:37.220278 14587 layer_factory.hpp:77] Creating layer loss1/relu_conv
I0403 15:50:37.220300 14587 net.cpp:91] Creating Layer loss1/relu_conv
I0403 15:50:37.220317 14587 net.cpp:425] loss1/relu_conv <- loss1/conv
I0403 15:50:37.220335 14587 net.cpp:386] loss1/relu_conv -> loss1/conv (in-place)
I0403 15:50:37.220618 14587 net.cpp:141] Setting up loss1/relu_conv
I0403 15:50:37.220655 14587 net.cpp:148] Top shape: 24 128 4 4 (49152)
I0403 15:50:37.220670 14587 net.cpp:156] Memory required for data: 945894432
I0403 15:50:37.220685 14587 layer_factory.hpp:77] Creating layer loss1/fc
I0403 15:50:37.220711 14587 net.cpp:91] Creating Layer loss1/fc
I0403 15:50:37.220731 14587 net.cpp:425] loss1/fc <- loss1/conv
I0403 15:50:37.220748 14587 net.cpp:399] loss1/fc -> loss1/fc
I0403 15:50:37.238385 14587 net.cpp:141] Setting up loss1/fc
I0403 15:50:37.238417 14587 net.cpp:148] Top shape: 24 1024 (24576)
I0403 15:50:37.238433 14587 net.cpp:156] Memory required for data: 945992736
I0403 15:50:37.238451 14587 layer_factory.hpp:77] Creating layer loss1/relu_fc
I0403 15:50:37.238469 14587 net.cpp:91] Creating Layer loss1/relu_fc
I0403 15:50:37.238486 14587 net.cpp:425] loss1/relu_fc <- loss1/fc
I0403 15:50:37.238505 14587 net.cpp:386] loss1/relu_fc -> loss1/fc (in-place)
I0403 15:50:37.238689 14587 net.cpp:141] Setting up loss1/relu_fc
I0403 15:50:37.238715 14587 net.cpp:148] Top shape: 24 1024 (24576)
I0403 15:50:37.238729 14587 net.cpp:156] Memory required for data: 946091040
I0403 15:50:37.238744 14587 layer_factory.hpp:77] Creating layer loss1/drop_fc
I0403 15:50:37.238770 14587 net.cpp:91] Creating Layer loss1/drop_fc
I0403 15:50:37.238788 14587 net.cpp:425] loss1/drop_fc <- loss1/fc
I0403 15:50:37.238807 14587 net.cpp:386] loss1/drop_fc -> loss1/fc (in-place)
I0403 15:50:37.238858 14587 net.cpp:141] Setting up loss1/drop_fc
I0403 15:50:37.238883 14587 net.cpp:148] Top shape: 24 1024 (24576)
I0403 15:50:37.238898 14587 net.cpp:156] Memory required for data: 946189344
I0403 15:50:37.238912 14587 layer_factory.hpp:77] Creating layer loss1/classifier_plantvillage
I0403 15:50:37.238934 14587 net.cpp:91] Creating Layer loss1/classifier_plantvillage
I0403 15:50:37.238950 14587 net.cpp:425] loss1/classifier_plantvillage <- loss1/fc
I0403 15:50:37.238970 14587 net.cpp:399] loss1/classifier_plantvillage -> loss1/classifier_plantvillage
I0403 15:50:37.239871 14587 net.cpp:141] Setting up loss1/classifier_plantvillage
I0403 15:50:37.239902 14587 net.cpp:148] Top shape: 24 38 (912)
I0403 15:50:37.239918 14587 net.cpp:156] Memory required for data: 946192992
I0403 15:50:37.239936 14587 layer_factory.hpp:77] Creating layer loss1/classifier_plantvillage_loss1/classifier_plantvillage_0_split
I0403 15:50:37.239953 14587 net.cpp:91] Creating Layer loss1/classifier_plantvillage_loss1/classifier_plantvillage_0_split
I0403 15:50:37.239969 14587 net.cpp:425] loss1/classifier_plantvillage_loss1/classifier_plantvillage_0_split <- loss1/classifier_plantvillage
I0403 15:50:37.239989 14587 net.cpp:399] loss1/classifier_plantvillage_loss1/classifier_plantvillage_0_split -> loss1/classifier_plantvillage_loss1/classifier_plantvillage_0_split_0
I0403 15:50:37.240010 14587 net.cpp:399] loss1/classifier_plantvillage_loss1/classifier_plantvillage_0_split -> loss1/classifier_plantvillage_loss1/classifier_plantvillage_0_split_1
I0403 15:50:37.240031 14587 net.cpp:399] loss1/classifier_plantvillage_loss1/classifier_plantvillage_0_split -> loss1/classifier_plantvillage_loss1/classifier_plantvillage_0_split_2
I0403 15:50:37.240111 14587 net.cpp:141] Setting up loss1/classifier_plantvillage_loss1/classifier_plantvillage_0_split
I0403 15:50:37.240141 14587 net.cpp:148] Top shape: 24 38 (912)
I0403 15:50:37.240159 14587 net.cpp:148] Top shape: 24 38 (912)
I0403 15:50:37.240175 14587 net.cpp:148] Top shape: 24 38 (912)
I0403 15:50:37.240187 14587 net.cpp:156] Memory required for data: 946203936
I0403 15:50:37.240203 14587 layer_factory.hpp:77] Creating layer inception_4b/1x1
I0403 15:50:37.240226 14587 net.cpp:91] Creating Layer inception_4b/1x1
I0403 15:50:37.240260 14587 net.cpp:425] inception_4b/1x1 <- inception_4a/output_inception_4a/output_0_split_1
I0403 15:50:37.240281 14587 net.cpp:399] inception_4b/1x1 -> inception_4b/1x1
I0403 15:50:37.241941 14587 net.cpp:141] Setting up inception_4b/1x1
I0403 15:50:37.241971 14587 net.cpp:148] Top shape: 24 160 14 14 (752640)
I0403 15:50:37.241986 14587 net.cpp:156] Memory required for data: 949214496
I0403 15:50:37.242005 14587 layer_factory.hpp:77] Creating layer inception_4b/relu_1x1
I0403 15:50:37.242027 14587 net.cpp:91] Creating Layer inception_4b/relu_1x1
I0403 15:50:37.242044 14587 net.cpp:425] inception_4b/relu_1x1 <- inception_4b/1x1
I0403 15:50:37.242061 14587 net.cpp:386] inception_4b/relu_1x1 -> inception_4b/1x1 (in-place)
I0403 15:50:37.242262 14587 net.cpp:141] Setting up inception_4b/relu_1x1
I0403 15:50:37.242288 14587 net.cpp:148] Top shape: 24 160 14 14 (752640)
I0403 15:50:37.242305 14587 net.cpp:156] Memory required for data: 952225056
I0403 15:50:37.242318 14587 layer_factory.hpp:77] Creating layer inception_4b/3x3_reduce
I0403 15:50:37.242343 14587 net.cpp:91] Creating Layer inception_4b/3x3_reduce
I0403 15:50:37.242362 14587 net.cpp:425] inception_4b/3x3_reduce <- inception_4a/output_inception_4a/output_0_split_2
I0403 15:50:37.242383 14587 net.cpp:399] inception_4b/3x3_reduce -> inception_4b/3x3_reduce
I0403 15:50:37.243744 14587 net.cpp:141] Setting up inception_4b/3x3_reduce
I0403 15:50:37.243772 14587 net.cpp:148] Top shape: 24 112 14 14 (526848)
I0403 15:50:37.243788 14587 net.cpp:156] Memory required for data: 954332448
I0403 15:50:37.243805 14587 layer_factory.hpp:77] Creating layer inception_4b/relu_3x3_reduce
I0403 15:50:37.243829 14587 net.cpp:91] Creating Layer inception_4b/relu_3x3_reduce
I0403 15:50:37.243846 14587 net.cpp:425] inception_4b/relu_3x3_reduce <- inception_4b/3x3_reduce
I0403 15:50:37.243863 14587 net.cpp:386] inception_4b/relu_3x3_reduce -> inception_4b/3x3_reduce (in-place)
I0403 15:50:37.244148 14587 net.cpp:141] Setting up inception_4b/relu_3x3_reduce
I0403 15:50:37.244175 14587 net.cpp:148] Top shape: 24 112 14 14 (526848)
I0403 15:50:37.244190 14587 net.cpp:156] Memory required for data: 956439840
I0403 15:50:37.244205 14587 layer_factory.hpp:77] Creating layer inception_4b/3x3
I0403 15:50:37.244228 14587 net.cpp:91] Creating Layer inception_4b/3x3
I0403 15:50:37.244247 14587 net.cpp:425] inception_4b/3x3 <- inception_4b/3x3_reduce
I0403 15:50:37.244268 14587 net.cpp:399] inception_4b/3x3 -> inception_4b/3x3
I0403 15:50:37.247275 14587 net.cpp:141] Setting up inception_4b/3x3
I0403 15:50:37.247308 14587 net.cpp:148] Top shape: 24 224 14 14 (1053696)
I0403 15:50:37.247323 14587 net.cpp:156] Memory required for data: 960654624
I0403 15:50:37.247342 14587 layer_factory.hpp:77] Creating layer inception_4b/relu_3x3
I0403 15:50:37.247362 14587 net.cpp:91] Creating Layer inception_4b/relu_3x3
I0403 15:50:37.247378 14587 net.cpp:425] inception_4b/relu_3x3 <- inception_4b/3x3
I0403 15:50:37.247397 14587 net.cpp:386] inception_4b/relu_3x3 -> inception_4b/3x3 (in-place)
I0403 15:50:37.247583 14587 net.cpp:141] Setting up inception_4b/relu_3x3
I0403 15:50:37.247609 14587 net.cpp:148] Top shape: 24 224 14 14 (1053696)
I0403 15:50:37.247624 14587 net.cpp:156] Memory required for data: 964869408
I0403 15:50:37.247639 14587 layer_factory.hpp:77] Creating layer inception_4b/5x5_reduce
I0403 15:50:37.247660 14587 net.cpp:91] Creating Layer inception_4b/5x5_reduce
I0403 15:50:37.247678 14587 net.cpp:425] inception_4b/5x5_reduce <- inception_4a/output_inception_4a/output_0_split_3
I0403 15:50:37.247701 14587 net.cpp:399] inception_4b/5x5_reduce -> inception_4b/5x5_reduce
I0403 15:50:37.248801 14587 net.cpp:141] Setting up inception_4b/5x5_reduce
I0403 15:50:37.248831 14587 net.cpp:148] Top shape: 24 24 14 14 (112896)
I0403 15:50:37.248845 14587 net.cpp:156] Memory required for data: 965320992
I0403 15:50:37.248864 14587 layer_factory.hpp:77] Creating layer inception_4b/relu_5x5_reduce
I0403 15:50:37.248883 14587 net.cpp:91] Creating Layer inception_4b/relu_5x5_reduce
I0403 15:50:37.248915 14587 net.cpp:425] inception_4b/relu_5x5_reduce <- inception_4b/5x5_reduce
I0403 15:50:37.248934 14587 net.cpp:386] inception_4b/relu_5x5_reduce -> inception_4b/5x5_reduce (in-place)
I0403 15:50:37.249117 14587 net.cpp:141] Setting up inception_4b/relu_5x5_reduce
I0403 15:50:37.249150 14587 net.cpp:148] Top shape: 24 24 14 14 (112896)
I0403 15:50:37.249166 14587 net.cpp:156] Memory required for data: 965772576
I0403 15:50:37.249181 14587 layer_factory.hpp:77] Creating layer inception_4b/5x5
I0403 15:50:37.249202 14587 net.cpp:91] Creating Layer inception_4b/5x5
I0403 15:50:37.249220 14587 net.cpp:425] inception_4b/5x5 <- inception_4b/5x5_reduce
I0403 15:50:37.249238 14587 net.cpp:399] inception_4b/5x5 -> inception_4b/5x5
I0403 15:50:37.250463 14587 net.cpp:141] Setting up inception_4b/5x5
I0403 15:50:37.250493 14587 net.cpp:148] Top shape: 24 64 14 14 (301056)
I0403 15:50:37.250507 14587 net.cpp:156] Memory required for data: 966976800
I0403 15:50:37.250526 14587 layer_factory.hpp:77] Creating layer inception_4b/relu_5x5
I0403 15:50:37.250547 14587 net.cpp:91] Creating Layer inception_4b/relu_5x5
I0403 15:50:37.250566 14587 net.cpp:425] inception_4b/relu_5x5 <- inception_4b/5x5
I0403 15:50:37.250582 14587 net.cpp:386] inception_4b/relu_5x5 -> inception_4b/5x5 (in-place)
I0403 15:50:37.250870 14587 net.cpp:141] Setting up inception_4b/relu_5x5
I0403 15:50:37.250897 14587 net.cpp:148] Top shape: 24 64 14 14 (301056)
I0403 15:50:37.250912 14587 net.cpp:156] Memory required for data: 968181024
I0403 15:50:37.250926 14587 layer_factory.hpp:77] Creating layer inception_4b/pool
I0403 15:50:37.250943 14587 net.cpp:91] Creating Layer inception_4b/pool
I0403 15:50:37.250963 14587 net.cpp:425] inception_4b/pool <- inception_4a/output_inception_4a/output_0_split_4
I0403 15:50:37.250982 14587 net.cpp:399] inception_4b/pool -> inception_4b/pool
I0403 15:50:37.251047 14587 net.cpp:141] Setting up inception_4b/pool
I0403 15:50:37.251072 14587 net.cpp:148] Top shape: 24 512 14 14 (2408448)
I0403 15:50:37.251087 14587 net.cpp:156] Memory required for data: 977814816
I0403 15:50:37.251101 14587 layer_factory.hpp:77] Creating layer inception_4b/pool_proj
I0403 15:50:37.251123 14587 net.cpp:91] Creating Layer inception_4b/pool_proj
I0403 15:50:37.251147 14587 net.cpp:425] inception_4b/pool_proj <- inception_4b/pool
I0403 15:50:37.251168 14587 net.cpp:399] inception_4b/pool_proj -> inception_4b/pool_proj
I0403 15:50:37.252368 14587 net.cpp:141] Setting up inception_4b/pool_proj
I0403 15:50:37.252398 14587 net.cpp:148] Top shape: 24 64 14 14 (301056)
I0403 15:50:37.252413 14587 net.cpp:156] Memory required for data: 979019040
I0403 15:50:37.252431 14587 layer_factory.hpp:77] Creating layer inception_4b/relu_pool_proj
I0403 15:50:37.252454 14587 net.cpp:91] Creating Layer inception_4b/relu_pool_proj
I0403 15:50:37.252471 14587 net.cpp:425] inception_4b/relu_pool_proj <- inception_4b/pool_proj
I0403 15:50:37.252490 14587 net.cpp:386] inception_4b/relu_pool_proj -> inception_4b/pool_proj (in-place)
I0403 15:50:37.252676 14587 net.cpp:141] Setting up inception_4b/relu_pool_proj
I0403 15:50:37.252701 14587 net.cpp:148] Top shape: 24 64 14 14 (301056)
I0403 15:50:37.252715 14587 net.cpp:156] Memory required for data: 980223264
I0403 15:50:37.252732 14587 layer_factory.hpp:77] Creating layer inception_4b/output
I0403 15:50:37.252750 14587 net.cpp:91] Creating Layer inception_4b/output
I0403 15:50:37.252766 14587 net.cpp:425] inception_4b/output <- inception_4b/1x1
I0403 15:50:37.252784 14587 net.cpp:425] inception_4b/output <- inception_4b/3x3
I0403 15:50:37.252799 14587 net.cpp:425] inception_4b/output <- inception_4b/5x5
I0403 15:50:37.252815 14587 net.cpp:425] inception_4b/output <- inception_4b/pool_proj
I0403 15:50:37.252830 14587 net.cpp:399] inception_4b/output -> inception_4b/output
I0403 15:50:37.252890 14587 net.cpp:141] Setting up inception_4b/output
I0403 15:50:37.252917 14587 net.cpp:148] Top shape: 24 512 14 14 (2408448)
I0403 15:50:37.252931 14587 net.cpp:156] Memory required for data: 989857056
I0403 15:50:37.252961 14587 layer_factory.hpp:77] Creating layer inception_4b/output_inception_4b/output_0_split
I0403 15:50:37.252980 14587 net.cpp:91] Creating Layer inception_4b/output_inception_4b/output_0_split
I0403 15:50:37.252995 14587 net.cpp:425] inception_4b/output_inception_4b/output_0_split <- inception_4b/output
I0403 15:50:37.253016 14587 net.cpp:399] inception_4b/output_inception_4b/output_0_split -> inception_4b/output_inception_4b/output_0_split_0
I0403 15:50:37.253038 14587 net.cpp:399] inception_4b/output_inception_4b/output_0_split -> inception_4b/output_inception_4b/output_0_split_1
I0403 15:50:37.253059 14587 net.cpp:399] inception_4b/output_inception_4b/output_0_split -> inception_4b/output_inception_4b/output_0_split_2
I0403 15:50:37.253079 14587 net.cpp:399] inception_4b/output_inception_4b/output_0_split -> inception_4b/output_inception_4b/output_0_split_3
I0403 15:50:37.253182 14587 net.cpp:141] Setting up inception_4b/output_inception_4b/output_0_split
I0403 15:50:37.253221 14587 net.cpp:148] Top shape: 24 512 14 14 (2408448)
I0403 15:50:37.253237 14587 net.cpp:148] Top shape: 24 512 14 14 (2408448)
I0403 15:50:37.253253 14587 net.cpp:148] Top shape: 24 512 14 14 (2408448)
I0403 15:50:37.253269 14587 net.cpp:148] Top shape: 24 512 14 14 (2408448)
I0403 15:50:37.253283 14587 net.cpp:156] Memory required for data: 1028392224
I0403 15:50:37.253298 14587 layer_factory.hpp:77] Creating layer inception_4c/1x1
I0403 15:50:37.253320 14587 net.cpp:91] Creating Layer inception_4c/1x1
I0403 15:50:37.253339 14587 net.cpp:425] inception_4c/1x1 <- inception_4b/output_inception_4b/output_0_split_0
I0403 15:50:37.253360 14587 net.cpp:399] inception_4c/1x1 -> inception_4c/1x1
I0403 15:50:37.254817 14587 net.cpp:141] Setting up inception_4c/1x1
I0403 15:50:37.254851 14587 net.cpp:148] Top shape: 24 128 14 14 (602112)
I0403 15:50:37.254869 14587 net.cpp:156] Memory required for data: 1030800672
I0403 15:50:37.254887 14587 layer_factory.hpp:77] Creating layer inception_4c/relu_1x1
I0403 15:50:37.254906 14587 net.cpp:91] Creating Layer inception_4c/relu_1x1
I0403 15:50:37.254921 14587 net.cpp:425] inception_4c/relu_1x1 <- inception_4c/1x1
I0403 15:50:37.254941 14587 net.cpp:386] inception_4c/relu_1x1 -> inception_4c/1x1 (in-place)
I0403 15:50:37.255122 14587 net.cpp:141] Setting up inception_4c/relu_1x1
I0403 15:50:37.255151 14587 net.cpp:148] Top shape: 24 128 14 14 (602112)
I0403 15:50:37.255167 14587 net.cpp:156] Memory required for data: 1033209120
I0403 15:50:37.255180 14587 layer_factory.hpp:77] Creating layer inception_4c/3x3_reduce
I0403 15:50:37.255203 14587 net.cpp:91] Creating Layer inception_4c/3x3_reduce
I0403 15:50:37.255223 14587 net.cpp:425] inception_4c/3x3_reduce <- inception_4b/output_inception_4b/output_0_split_1
I0403 15:50:37.255244 14587 net.cpp:399] inception_4c/3x3_reduce -> inception_4c/3x3_reduce
I0403 15:50:37.257181 14587 net.cpp:141] Setting up inception_4c/3x3_reduce
I0403 15:50:37.257211 14587 net.cpp:148] Top shape: 24 128 14 14 (602112)
I0403 15:50:37.257226 14587 net.cpp:156] Memory required for data: 1035617568
I0403 15:50:37.257244 14587 layer_factory.hpp:77] Creating layer inception_4c/relu_3x3_reduce
I0403 15:50:37.257262 14587 net.cpp:91] Creating Layer inception_4c/relu_3x3_reduce
I0403 15:50:37.257279 14587 net.cpp:425] inception_4c/relu_3x3_reduce <- inception_4c/3x3_reduce
I0403 15:50:37.257298 14587 net.cpp:386] inception_4c/relu_3x3_reduce -> inception_4c/3x3_reduce (in-place)
I0403 15:50:37.257586 14587 net.cpp:141] Setting up inception_4c/relu_3x3_reduce
I0403 15:50:37.257613 14587 net.cpp:148] Top shape: 24 128 14 14 (602112)
I0403 15:50:37.257628 14587 net.cpp:156] Memory required for data: 1038026016
I0403 15:50:37.257643 14587 layer_factory.hpp:77] Creating layer inception_4c/3x3
I0403 15:50:37.257668 14587 net.cpp:91] Creating Layer inception_4c/3x3
I0403 15:50:37.257685 14587 net.cpp:425] inception_4c/3x3 <- inception_4c/3x3_reduce
I0403 15:50:37.257706 14587 net.cpp:399] inception_4c/3x3 -> inception_4c/3x3
I0403 15:50:37.261322 14587 net.cpp:141] Setting up inception_4c/3x3
I0403 15:50:37.261365 14587 net.cpp:148] Top shape: 24 256 14 14 (1204224)
I0403 15:50:37.261382 14587 net.cpp:156] Memory required for data: 1042842912
I0403 15:50:37.261414 14587 layer_factory.hpp:77] Creating layer inception_4c/relu_3x3
I0403 15:50:37.261436 14587 net.cpp:91] Creating Layer inception_4c/relu_3x3
I0403 15:50:37.261454 14587 net.cpp:425] inception_4c/relu_3x3 <- inception_4c/3x3
I0403 15:50:37.261472 14587 net.cpp:386] inception_4c/relu_3x3 -> inception_4c/3x3 (in-place)
I0403 15:50:37.261651 14587 net.cpp:141] Setting up inception_4c/relu_3x3
I0403 15:50:37.261678 14587 net.cpp:148] Top shape: 24 256 14 14 (1204224)
I0403 15:50:37.261693 14587 net.cpp:156] Memory required for data: 1047659808
I0403 15:50:37.261708 14587 layer_factory.hpp:77] Creating layer inception_4c/5x5_reduce
I0403 15:50:37.261730 14587 net.cpp:91] Creating Layer inception_4c/5x5_reduce
I0403 15:50:37.261747 14587 net.cpp:425] inception_4c/5x5_reduce <- inception_4b/output_inception_4b/output_0_split_2
I0403 15:50:37.261770 14587 net.cpp:399] inception_4c/5x5_reduce -> inception_4c/5x5_reduce
I0403 15:50:37.262845 14587 net.cpp:141] Setting up inception_4c/5x5_reduce
I0403 15:50:37.262872 14587 net.cpp:148] Top shape: 24 24 14 14 (112896)
I0403 15:50:37.262888 14587 net.cpp:156] Memory required for data: 1048111392
I0403 15:50:37.262907 14587 layer_factory.hpp:77] Creating layer inception_4c/relu_5x5_reduce
I0403 15:50:37.262930 14587 net.cpp:91] Creating Layer inception_4c/relu_5x5_reduce
I0403 15:50:37.262948 14587 net.cpp:425] inception_4c/relu_5x5_reduce <- inception_4c/5x5_reduce
I0403 15:50:37.262965 14587 net.cpp:386] inception_4c/relu_5x5_reduce -> inception_4c/5x5_reduce (in-place)
I0403 15:50:37.263157 14587 net.cpp:141] Setting up inception_4c/relu_5x5_reduce
I0403 15:50:37.263186 14587 net.cpp:148] Top shape: 24 24 14 14 (112896)
I0403 15:50:37.263203 14587 net.cpp:156] Memory required for data: 1048562976
I0403 15:50:37.263217 14587 layer_factory.hpp:77] Creating layer inception_4c/5x5
I0403 15:50:37.263237 14587 net.cpp:91] Creating Layer inception_4c/5x5
I0403 15:50:37.263254 14587 net.cpp:425] inception_4c/5x5 <- inception_4c/5x5_reduce
I0403 15:50:37.263275 14587 net.cpp:399] inception_4c/5x5 -> inception_4c/5x5
I0403 15:50:37.264530 14587 net.cpp:141] Setting up inception_4c/5x5
I0403 15:50:37.264559 14587 net.cpp:148] Top shape: 24 64 14 14 (301056)
I0403 15:50:37.264575 14587 net.cpp:156] Memory required for data: 1049767200
I0403 15:50:37.264593 14587 layer_factory.hpp:77] Creating layer inception_4c/relu_5x5
I0403 15:50:37.264613 14587 net.cpp:91] Creating Layer inception_4c/relu_5x5
I0403 15:50:37.264631 14587 net.cpp:425] inception_4c/relu_5x5 <- inception_4c/5x5
I0403 15:50:37.264654 14587 net.cpp:386] inception_4c/relu_5x5 -> inception_4c/5x5 (in-place)
I0403 15:50:37.264942 14587 net.cpp:141] Setting up inception_4c/relu_5x5
I0403 15:50:37.264969 14587 net.cpp:148] Top shape: 24 64 14 14 (301056)
I0403 15:50:37.264984 14587 net.cpp:156] Memory required for data: 1050971424
I0403 15:50:37.265000 14587 layer_factory.hpp:77] Creating layer inception_4c/pool
I0403 15:50:37.265020 14587 net.cpp:91] Creating Layer inception_4c/pool
I0403 15:50:37.265038 14587 net.cpp:425] inception_4c/pool <- inception_4b/output_inception_4b/output_0_split_3
I0403 15:50:37.265056 14587 net.cpp:399] inception_4c/pool -> inception_4c/pool
I0403 15:50:37.265127 14587 net.cpp:141] Setting up inception_4c/pool
I0403 15:50:37.265153 14587 net.cpp:148] Top shape: 24 512 14 14 (2408448)
I0403 15:50:37.265168 14587 net.cpp:156] Memory required for data: 1060605216
I0403 15:50:37.265183 14587 layer_factory.hpp:77] Creating layer inception_4c/pool_proj
I0403 15:50:37.265207 14587 net.cpp:91] Creating Layer inception_4c/pool_proj
I0403 15:50:37.265224 14587 net.cpp:425] inception_4c/pool_proj <- inception_4c/pool
I0403 15:50:37.265244 14587 net.cpp:399] inception_4c/pool_proj -> inception_4c/pool_proj
I0403 15:50:37.266455 14587 net.cpp:141] Setting up inception_4c/pool_proj
I0403 15:50:37.266484 14587 net.cpp:148] Top shape: 24 64 14 14 (301056)
I0403 15:50:37.266515 14587 net.cpp:156] Memory required for data: 1061809440
I0403 15:50:37.266535 14587 layer_factory.hpp:77] Creating layer inception_4c/relu_pool_proj
I0403 15:50:37.266557 14587 net.cpp:91] Creating Layer inception_4c/relu_pool_proj
I0403 15:50:37.266574 14587 net.cpp:425] inception_4c/relu_pool_proj <- inception_4c/pool_proj
I0403 15:50:37.266592 14587 net.cpp:386] inception_4c/relu_pool_proj -> inception_4c/pool_proj (in-place)
I0403 15:50:37.266777 14587 net.cpp:141] Setting up inception_4c/relu_pool_proj
I0403 15:50:37.266803 14587 net.cpp:148] Top shape: 24 64 14 14 (301056)
I0403 15:50:37.266816 14587 net.cpp:156] Memory required for data: 1063013664
I0403 15:50:37.266830 14587 layer_factory.hpp:77] Creating layer inception_4c/output
I0403 15:50:37.266849 14587 net.cpp:91] Creating Layer inception_4c/output
I0403 15:50:37.266865 14587 net.cpp:425] inception_4c/output <- inception_4c/1x1
I0403 15:50:37.266882 14587 net.cpp:425] inception_4c/output <- inception_4c/3x3
I0403 15:50:37.266898 14587 net.cpp:425] inception_4c/output <- inception_4c/5x5
I0403 15:50:37.266913 14587 net.cpp:425] inception_4c/output <- inception_4c/pool_proj
I0403 15:50:37.266929 14587 net.cpp:399] inception_4c/output -> inception_4c/output
I0403 15:50:37.266976 14587 net.cpp:141] Setting up inception_4c/output
I0403 15:50:37.267001 14587 net.cpp:148] Top shape: 24 512 14 14 (2408448)
I0403 15:50:37.267016 14587 net.cpp:156] Memory required for data: 1072647456
I0403 15:50:37.267031 14587 layer_factory.hpp:77] Creating layer inception_4c/output_inception_4c/output_0_split
I0403 15:50:37.267048 14587 net.cpp:91] Creating Layer inception_4c/output_inception_4c/output_0_split
I0403 15:50:37.267062 14587 net.cpp:425] inception_4c/output_inception_4c/output_0_split <- inception_4c/output
I0403 15:50:37.267081 14587 net.cpp:399] inception_4c/output_inception_4c/output_0_split -> inception_4c/output_inception_4c/output_0_split_0
I0403 15:50:37.267103 14587 net.cpp:399] inception_4c/output_inception_4c/output_0_split -> inception_4c/output_inception_4c/output_0_split_1
I0403 15:50:37.267123 14587 net.cpp:399] inception_4c/output_inception_4c/output_0_split -> inception_4c/output_inception_4c/output_0_split_2
I0403 15:50:37.267149 14587 net.cpp:399] inception_4c/output_inception_4c/output_0_split -> inception_4c/output_inception_4c/output_0_split_3
I0403 15:50:37.267236 14587 net.cpp:141] Setting up inception_4c/output_inception_4c/output_0_split
I0403 15:50:37.267261 14587 net.cpp:148] Top shape: 24 512 14 14 (2408448)
I0403 15:50:37.267277 14587 net.cpp:148] Top shape: 24 512 14 14 (2408448)
I0403 15:50:37.267293 14587 net.cpp:148] Top shape: 24 512 14 14 (2408448)
I0403 15:50:37.267308 14587 net.cpp:148] Top shape: 24 512 14 14 (2408448)
I0403 15:50:37.267323 14587 net.cpp:156] Memory required for data: 1111182624
I0403 15:50:37.267338 14587 layer_factory.hpp:77] Creating layer inception_4d/1x1
I0403 15:50:37.267359 14587 net.cpp:91] Creating Layer inception_4d/1x1
I0403 15:50:37.267377 14587 net.cpp:425] inception_4d/1x1 <- inception_4c/output_inception_4c/output_0_split_0
I0403 15:50:37.267397 14587 net.cpp:399] inception_4d/1x1 -> inception_4d/1x1
I0403 15:50:37.268774 14587 net.cpp:141] Setting up inception_4d/1x1
I0403 15:50:37.268805 14587 net.cpp:148] Top shape: 24 112 14 14 (526848)
I0403 15:50:37.268822 14587 net.cpp:156] Memory required for data: 1113290016
I0403 15:50:37.268841 14587 layer_factory.hpp:77] Creating layer inception_4d/relu_1x1
I0403 15:50:37.268858 14587 net.cpp:91] Creating Layer inception_4d/relu_1x1
I0403 15:50:37.268874 14587 net.cpp:425] inception_4d/relu_1x1 <- inception_4d/1x1
I0403 15:50:37.268894 14587 net.cpp:386] inception_4d/relu_1x1 -> inception_4d/1x1 (in-place)
I0403 15:50:37.269078 14587 net.cpp:141] Setting up inception_4d/relu_1x1
I0403 15:50:37.269104 14587 net.cpp:148] Top shape: 24 112 14 14 (526848)
I0403 15:50:37.269117 14587 net.cpp:156] Memory required for data: 1115397408
I0403 15:50:37.269137 14587 layer_factory.hpp:77] Creating layer inception_4d/3x3_reduce
I0403 15:50:37.269176 14587 net.cpp:91] Creating Layer inception_4d/3x3_reduce
I0403 15:50:37.269196 14587 net.cpp:425] inception_4d/3x3_reduce <- inception_4c/output_inception_4c/output_0_split_1
I0403 15:50:37.269218 14587 net.cpp:399] inception_4d/3x3_reduce -> inception_4d/3x3_reduce
I0403 15:50:37.270716 14587 net.cpp:141] Setting up inception_4d/3x3_reduce
I0403 15:50:37.270750 14587 net.cpp:148] Top shape: 24 144 14 14 (677376)
I0403 15:50:37.270766 14587 net.cpp:156] Memory required for data: 1118106912
I0403 15:50:37.270784 14587 layer_factory.hpp:77] Creating layer inception_4d/relu_3x3_reduce
I0403 15:50:37.270803 14587 net.cpp:91] Creating Layer inception_4d/relu_3x3_reduce
I0403 15:50:37.270820 14587 net.cpp:425] inception_4d/relu_3x3_reduce <- inception_4d/3x3_reduce
I0403 15:50:37.270838 14587 net.cpp:386] inception_4d/relu_3x3_reduce -> inception_4d/3x3_reduce (in-place)
I0403 15:50:37.271122 14587 net.cpp:141] Setting up inception_4d/relu_3x3_reduce
I0403 15:50:37.271155 14587 net.cpp:148] Top shape: 24 144 14 14 (677376)
I0403 15:50:37.271173 14587 net.cpp:156] Memory required for data: 1120816416
I0403 15:50:37.271188 14587 layer_factory.hpp:77] Creating layer inception_4d/3x3
I0403 15:50:37.271210 14587 net.cpp:91] Creating Layer inception_4d/3x3
I0403 15:50:37.271229 14587 net.cpp:425] inception_4d/3x3 <- inception_4d/3x3_reduce
I0403 15:50:37.271248 14587 net.cpp:399] inception_4d/3x3 -> inception_4d/3x3
I0403 15:50:37.275492 14587 net.cpp:141] Setting up inception_4d/3x3
I0403 15:50:37.275522 14587 net.cpp:148] Top shape: 24 288 14 14 (1354752)
I0403 15:50:37.275538 14587 net.cpp:156] Memory required for data: 1126235424
I0403 15:50:37.275557 14587 layer_factory.hpp:77] Creating layer inception_4d/relu_3x3
I0403 15:50:37.275574 14587 net.cpp:91] Creating Layer inception_4d/relu_3x3
I0403 15:50:37.275591 14587 net.cpp:425] inception_4d/relu_3x3 <- inception_4d/3x3
I0403 15:50:37.275610 14587 net.cpp:386] inception_4d/relu_3x3 -> inception_4d/3x3 (in-place)
I0403 15:50:37.275792 14587 net.cpp:141] Setting up inception_4d/relu_3x3
I0403 15:50:37.275818 14587 net.cpp:148] Top shape: 24 288 14 14 (1354752)
I0403 15:50:37.275832 14587 net.cpp:156] Memory required for data: 1131654432
I0403 15:50:37.275847 14587 layer_factory.hpp:77] Creating layer inception_4d/5x5_reduce
I0403 15:50:37.275868 14587 net.cpp:91] Creating Layer inception_4d/5x5_reduce
I0403 15:50:37.275885 14587 net.cpp:425] inception_4d/5x5_reduce <- inception_4c/output_inception_4c/output_0_split_2
I0403 15:50:37.275908 14587 net.cpp:399] inception_4d/5x5_reduce -> inception_4d/5x5_reduce
I0403 15:50:37.277279 14587 net.cpp:141] Setting up inception_4d/5x5_reduce
I0403 15:50:37.277317 14587 net.cpp:148] Top shape: 24 32 14 14 (150528)
I0403 15:50:37.277334 14587 net.cpp:156] Memory required for data: 1132256544
I0403 15:50:37.277356 14587 layer_factory.hpp:77] Creating layer inception_4d/relu_5x5_reduce
I0403 15:50:37.277375 14587 net.cpp:91] Creating Layer inception_4d/relu_5x5_reduce
I0403 15:50:37.277392 14587 net.cpp:425] inception_4d/relu_5x5_reduce <- inception_4d/5x5_reduce
I0403 15:50:37.277415 14587 net.cpp:386] inception_4d/relu_5x5_reduce -> inception_4d/5x5_reduce (in-place)
I0403 15:50:37.277611 14587 net.cpp:141] Setting up inception_4d/relu_5x5_reduce
I0403 15:50:37.277637 14587 net.cpp:148] Top shape: 24 32 14 14 (150528)
I0403 15:50:37.277652 14587 net.cpp:156] Memory required for data: 1132858656
I0403 15:50:37.277667 14587 layer_factory.hpp:77] Creating layer inception_4d/5x5
I0403 15:50:37.277690 14587 net.cpp:91] Creating Layer inception_4d/5x5
I0403 15:50:37.277709 14587 net.cpp:425] inception_4d/5x5 <- inception_4d/5x5_reduce
I0403 15:50:37.277731 14587 net.cpp:399] inception_4d/5x5 -> inception_4d/5x5
I0403 15:50:37.279301 14587 net.cpp:141] Setting up inception_4d/5x5
I0403 15:50:37.279332 14587 net.cpp:148] Top shape: 24 64 14 14 (301056)
I0403 15:50:37.279348 14587 net.cpp:156] Memory required for data: 1134062880
I0403 15:50:37.279367 14587 layer_factory.hpp:77] Creating layer inception_4d/relu_5x5
I0403 15:50:37.279407 14587 net.cpp:91] Creating Layer inception_4d/relu_5x5
I0403 15:50:37.279428 14587 net.cpp:425] inception_4d/relu_5x5 <- inception_4d/5x5
I0403 15:50:37.279445 14587 net.cpp:386] inception_4d/relu_5x5 -> inception_4d/5x5 (in-place)
I0403 15:50:37.279755 14587 net.cpp:141] Setting up inception_4d/relu_5x5
I0403 15:50:37.279783 14587 net.cpp:148] Top shape: 24 64 14 14 (301056)
I0403 15:50:37.279798 14587 net.cpp:156] Memory required for data: 1135267104
I0403 15:50:37.279814 14587 layer_factory.hpp:77] Creating layer inception_4d/pool
I0403 15:50:37.279834 14587 net.cpp:91] Creating Layer inception_4d/pool
I0403 15:50:37.279852 14587 net.cpp:425] inception_4d/pool <- inception_4c/output_inception_4c/output_0_split_3
I0403 15:50:37.279870 14587 net.cpp:399] inception_4d/pool -> inception_4d/pool
I0403 15:50:37.279939 14587 net.cpp:141] Setting up inception_4d/pool
I0403 15:50:37.279978 14587 net.cpp:148] Top shape: 24 512 14 14 (2408448)
I0403 15:50:37.279992 14587 net.cpp:156] Memory required for data: 1144900896
I0403 15:50:37.280009 14587 layer_factory.hpp:77] Creating layer inception_4d/pool_proj
I0403 15:50:37.280032 14587 net.cpp:91] Creating Layer inception_4d/pool_proj
I0403 15:50:37.280051 14587 net.cpp:425] inception_4d/pool_proj <- inception_4d/pool
I0403 15:50:37.280073 14587 net.cpp:399] inception_4d/pool_proj -> inception_4d/pool_proj
I0403 15:50:37.281920 14587 net.cpp:141] Setting up inception_4d/pool_proj
I0403 15:50:37.281951 14587 net.cpp:148] Top shape: 24 64 14 14 (301056)
I0403 15:50:37.281968 14587 net.cpp:156] Memory required for data: 1146105120
I0403 15:50:37.281986 14587 layer_factory.hpp:77] Creating layer inception_4d/relu_pool_proj
I0403 15:50:37.282006 14587 net.cpp:91] Creating Layer inception_4d/relu_pool_proj
I0403 15:50:37.282021 14587 net.cpp:425] inception_4d/relu_pool_proj <- inception_4d/pool_proj
I0403 15:50:37.282042 14587 net.cpp:386] inception_4d/relu_pool_proj -> inception_4d/pool_proj (in-place)
I0403 15:50:37.282238 14587 net.cpp:141] Setting up inception_4d/relu_pool_proj
I0403 15:50:37.282264 14587 net.cpp:148] Top shape: 24 64 14 14 (301056)
I0403 15:50:37.282279 14587 net.cpp:156] Memory required for data: 1147309344
I0403 15:50:37.282294 14587 layer_factory.hpp:77] Creating layer inception_4d/output
I0403 15:50:37.282313 14587 net.cpp:91] Creating Layer inception_4d/output
I0403 15:50:37.282330 14587 net.cpp:425] inception_4d/output <- inception_4d/1x1
I0403 15:50:37.282346 14587 net.cpp:425] inception_4d/output <- inception_4d/3x3
I0403 15:50:37.282361 14587 net.cpp:425] inception_4d/output <- inception_4d/5x5
I0403 15:50:37.282377 14587 net.cpp:425] inception_4d/output <- inception_4d/pool_proj
I0403 15:50:37.282392 14587 net.cpp:399] inception_4d/output -> inception_4d/output
I0403 15:50:37.282443 14587 net.cpp:141] Setting up inception_4d/output
I0403 15:50:37.282465 14587 net.cpp:148] Top shape: 24 528 14 14 (2483712)
I0403 15:50:37.282480 14587 net.cpp:156] Memory required for data: 1157244192
I0403 15:50:37.282495 14587 layer_factory.hpp:77] Creating layer inception_4d/output_inception_4d/output_0_split
I0403 15:50:37.282512 14587 net.cpp:91] Creating Layer inception_4d/output_inception_4d/output_0_split
I0403 15:50:37.282527 14587 net.cpp:425] inception_4d/output_inception_4d/output_0_split <- inception_4d/output
I0403 15:50:37.282547 14587 net.cpp:399] inception_4d/output_inception_4d/output_0_split -> inception_4d/output_inception_4d/output_0_split_0
I0403 15:50:37.282568 14587 net.cpp:399] inception_4d/output_inception_4d/output_0_split -> inception_4d/output_inception_4d/output_0_split_1
I0403 15:50:37.282589 14587 net.cpp:399] inception_4d/output_inception_4d/output_0_split -> inception_4d/output_inception_4d/output_0_split_2
I0403 15:50:37.282609 14587 net.cpp:399] inception_4d/output_inception_4d/output_0_split -> inception_4d/output_inception_4d/output_0_split_3
I0403 15:50:37.282629 14587 net.cpp:399] inception_4d/output_inception_4d/output_0_split -> inception_4d/output_inception_4d/output_0_split_4
I0403 15:50:37.282733 14587 net.cpp:141] Setting up inception_4d/output_inception_4d/output_0_split
I0403 15:50:37.282771 14587 net.cpp:148] Top shape: 24 528 14 14 (2483712)
I0403 15:50:37.282790 14587 net.cpp:148] Top shape: 24 528 14 14 (2483712)
I0403 15:50:37.282807 14587 net.cpp:148] Top shape: 24 528 14 14 (2483712)
I0403 15:50:37.282822 14587 net.cpp:148] Top shape: 24 528 14 14 (2483712)
I0403 15:50:37.282837 14587 net.cpp:148] Top shape: 24 528 14 14 (2483712)
I0403 15:50:37.282851 14587 net.cpp:156] Memory required for data: 1206918432
I0403 15:50:37.282866 14587 layer_factory.hpp:77] Creating layer loss2/ave_pool
I0403 15:50:37.282883 14587 net.cpp:91] Creating Layer loss2/ave_pool
I0403 15:50:37.282899 14587 net.cpp:425] loss2/ave_pool <- inception_4d/output_inception_4d/output_0_split_0
I0403 15:50:37.282919 14587 net.cpp:399] loss2/ave_pool -> loss2/ave_pool
I0403 15:50:37.283262 14587 net.cpp:141] Setting up loss2/ave_pool
I0403 15:50:37.283290 14587 net.cpp:148] Top shape: 24 528 4 4 (202752)
I0403 15:50:37.283305 14587 net.cpp:156] Memory required for data: 1207729440
I0403 15:50:37.283320 14587 layer_factory.hpp:77] Creating layer loss2/conv
I0403 15:50:37.283344 14587 net.cpp:91] Creating Layer loss2/conv
I0403 15:50:37.283362 14587 net.cpp:425] loss2/conv <- loss2/ave_pool
I0403 15:50:37.283383 14587 net.cpp:399] loss2/conv -> loss2/conv
I0403 15:50:37.285367 14587 net.cpp:141] Setting up loss2/conv
I0403 15:50:37.285395 14587 net.cpp:148] Top shape: 24 128 4 4 (49152)
I0403 15:50:37.285411 14587 net.cpp:156] Memory required for data: 1207926048
I0403 15:50:37.285430 14587 layer_factory.hpp:77] Creating layer loss2/relu_conv
I0403 15:50:37.285454 14587 net.cpp:91] Creating Layer loss2/relu_conv
I0403 15:50:37.285471 14587 net.cpp:425] loss2/relu_conv <- loss2/conv
I0403 15:50:37.285490 14587 net.cpp:386] loss2/relu_conv -> loss2/conv (in-place)
I0403 15:50:37.285780 14587 net.cpp:141] Setting up loss2/relu_conv
I0403 15:50:37.285809 14587 net.cpp:148] Top shape: 24 128 4 4 (49152)
I0403 15:50:37.285822 14587 net.cpp:156] Memory required for data: 1208122656
I0403 15:50:37.285837 14587 layer_factory.hpp:77] Creating layer loss2/fc
I0403 15:50:37.285859 14587 net.cpp:91] Creating Layer loss2/fc
I0403 15:50:37.285876 14587 net.cpp:425] loss2/fc <- loss2/conv
I0403 15:50:37.285898 14587 net.cpp:399] loss2/fc -> loss2/fc
I0403 15:50:37.304117 14587 net.cpp:141] Setting up loss2/fc
I0403 15:50:37.304150 14587 net.cpp:148] Top shape: 24 1024 (24576)
I0403 15:50:37.304167 14587 net.cpp:156] Memory required for data: 1208220960
I0403 15:50:37.304184 14587 layer_factory.hpp:77] Creating layer loss2/relu_fc
I0403 15:50:37.304204 14587 net.cpp:91] Creating Layer loss2/relu_fc
I0403 15:50:37.304221 14587 net.cpp:425] loss2/relu_fc <- loss2/fc
I0403 15:50:37.304240 14587 net.cpp:386] loss2/relu_fc -> loss2/fc (in-place)
I0403 15:50:37.304548 14587 net.cpp:141] Setting up loss2/relu_fc
I0403 15:50:37.304575 14587 net.cpp:148] Top shape: 24 1024 (24576)
I0403 15:50:37.304590 14587 net.cpp:156] Memory required for data: 1208319264
I0403 15:50:37.304605 14587 layer_factory.hpp:77] Creating layer loss2/drop_fc
I0403 15:50:37.304623 14587 net.cpp:91] Creating Layer loss2/drop_fc
I0403 15:50:37.304639 14587 net.cpp:425] loss2/drop_fc <- loss2/fc
I0403 15:50:37.304658 14587 net.cpp:386] loss2/drop_fc -> loss2/fc (in-place)
I0403 15:50:37.304708 14587 net.cpp:141] Setting up loss2/drop_fc
I0403 15:50:37.304735 14587 net.cpp:148] Top shape: 24 1024 (24576)
I0403 15:50:37.304751 14587 net.cpp:156] Memory required for data: 1208417568
I0403 15:50:37.304766 14587 layer_factory.hpp:77] Creating layer loss2/classifier_plantvillage
I0403 15:50:37.304785 14587 net.cpp:91] Creating Layer loss2/classifier_plantvillage
I0403 15:50:37.304800 14587 net.cpp:425] loss2/classifier_plantvillage <- loss2/fc
I0403 15:50:37.304821 14587 net.cpp:399] loss2/classifier_plantvillage -> loss2/classifier_plantvillage
I0403 15:50:37.305254 14587 net.cpp:141] Setting up loss2/classifier_plantvillage
I0403 15:50:37.305286 14587 net.cpp:148] Top shape: 24 38 (912)
I0403 15:50:37.305302 14587 net.cpp:156] Memory required for data: 1208421216
I0403 15:50:37.305340 14587 layer_factory.hpp:77] Creating layer loss2/classifier_plantvillage_loss2/classifier_plantvillage_0_split
I0403 15:50:37.305368 14587 net.cpp:91] Creating Layer loss2/classifier_plantvillage_loss2/classifier_plantvillage_0_split
I0403 15:50:37.305384 14587 net.cpp:425] loss2/classifier_plantvillage_loss2/classifier_plantvillage_0_split <- loss2/classifier_plantvillage
I0403 15:50:37.305402 14587 net.cpp:399] loss2/classifier_plantvillage_loss2/classifier_plantvillage_0_split -> loss2/classifier_plantvillage_loss2/classifier_plantvillage_0_split_0
I0403 15:50:37.305423 14587 net.cpp:399] loss2/classifier_plantvillage_loss2/classifier_plantvillage_0_split -> loss2/classifier_plantvillage_loss2/classifier_plantvillage_0_split_1
I0403 15:50:37.305445 14587 net.cpp:399] loss2/classifier_plantvillage_loss2/classifier_plantvillage_0_split -> loss2/classifier_plantvillage_loss2/classifier_plantvillage_0_split_2
I0403 15:50:37.305526 14587 net.cpp:141] Setting up loss2/classifier_plantvillage_loss2/classifier_plantvillage_0_split
I0403 15:50:37.305549 14587 net.cpp:148] Top shape: 24 38 (912)
I0403 15:50:37.305565 14587 net.cpp:148] Top shape: 24 38 (912)
I0403 15:50:37.305582 14587 net.cpp:148] Top shape: 24 38 (912)
I0403 15:50:37.305594 14587 net.cpp:156] Memory required for data: 1208432160
I0403 15:50:37.305609 14587 layer_factory.hpp:77] Creating layer inception_4e/1x1
I0403 15:50:37.305629 14587 net.cpp:91] Creating Layer inception_4e/1x1
I0403 15:50:37.305655 14587 net.cpp:425] inception_4e/1x1 <- inception_4d/output_inception_4d/output_0_split_1
I0403 15:50:37.305675 14587 net.cpp:399] inception_4e/1x1 -> inception_4e/1x1
I0403 15:50:37.307550 14587 net.cpp:141] Setting up inception_4e/1x1
I0403 15:50:37.307579 14587 net.cpp:148] Top shape: 24 256 14 14 (1204224)
I0403 15:50:37.307595 14587 net.cpp:156] Memory required for data: 1213249056
I0403 15:50:37.307612 14587 layer_factory.hpp:77] Creating layer inception_4e/relu_1x1
I0403 15:50:37.307632 14587 net.cpp:91] Creating Layer inception_4e/relu_1x1
I0403 15:50:37.307651 14587 net.cpp:425] inception_4e/relu_1x1 <- inception_4e/1x1
I0403 15:50:37.307667 14587 net.cpp:386] inception_4e/relu_1x1 -> inception_4e/1x1 (in-place)
I0403 15:50:37.307971 14587 net.cpp:141] Setting up inception_4e/relu_1x1
I0403 15:50:37.307997 14587 net.cpp:148] Top shape: 24 256 14 14 (1204224)
I0403 15:50:37.308013 14587 net.cpp:156] Memory required for data: 1218065952
I0403 15:50:37.308027 14587 layer_factory.hpp:77] Creating layer inception_4e/3x3_reduce
I0403 15:50:37.308053 14587 net.cpp:91] Creating Layer inception_4e/3x3_reduce
I0403 15:50:37.308070 14587 net.cpp:425] inception_4e/3x3_reduce <- inception_4d/output_inception_4d/output_0_split_2
I0403 15:50:37.308089 14587 net.cpp:399] inception_4e/3x3_reduce -> inception_4e/3x3_reduce
I0403 15:50:37.310273 14587 net.cpp:141] Setting up inception_4e/3x3_reduce
I0403 15:50:37.310302 14587 net.cpp:148] Top shape: 24 160 14 14 (752640)
I0403 15:50:37.310317 14587 net.cpp:156] Memory required for data: 1221076512
I0403 15:50:37.310335 14587 layer_factory.hpp:77] Creating layer inception_4e/relu_3x3_reduce
I0403 15:50:37.310365 14587 net.cpp:91] Creating Layer inception_4e/relu_3x3_reduce
I0403 15:50:37.310382 14587 net.cpp:425] inception_4e/relu_3x3_reduce <- inception_4e/3x3_reduce
I0403 15:50:37.310400 14587 net.cpp:386] inception_4e/relu_3x3_reduce -> inception_4e/3x3_reduce (in-place)
I0403 15:50:37.310595 14587 net.cpp:141] Setting up inception_4e/relu_3x3_reduce
I0403 15:50:37.310622 14587 net.cpp:148] Top shape: 24 160 14 14 (752640)
I0403 15:50:37.310637 14587 net.cpp:156] Memory required for data: 1224087072
I0403 15:50:37.310655 14587 layer_factory.hpp:77] Creating layer inception_4e/3x3
I0403 15:50:37.310678 14587 net.cpp:91] Creating Layer inception_4e/3x3
I0403 15:50:37.310695 14587 net.cpp:425] inception_4e/3x3 <- inception_4e/3x3_reduce
I0403 15:50:37.310714 14587 net.cpp:399] inception_4e/3x3 -> inception_4e/3x3
I0403 15:50:37.315894 14587 net.cpp:141] Setting up inception_4e/3x3
I0403 15:50:37.315939 14587 net.cpp:148] Top shape: 24 320 14 14 (1505280)
I0403 15:50:37.315958 14587 net.cpp:156] Memory required for data: 1230108192
I0403 15:50:37.315975 14587 layer_factory.hpp:77] Creating layer inception_4e/relu_3x3
I0403 15:50:37.315994 14587 net.cpp:91] Creating Layer inception_4e/relu_3x3
I0403 15:50:37.316009 14587 net.cpp:425] inception_4e/relu_3x3 <- inception_4e/3x3
I0403 15:50:37.316027 14587 net.cpp:386] inception_4e/relu_3x3 -> inception_4e/3x3 (in-place)
I0403 15:50:37.316344 14587 net.cpp:141] Setting up inception_4e/relu_3x3
I0403 15:50:37.316373 14587 net.cpp:148] Top shape: 24 320 14 14 (1505280)
I0403 15:50:37.316390 14587 net.cpp:156] Memory required for data: 1236129312
I0403 15:50:37.316404 14587 layer_factory.hpp:77] Creating layer inception_4e/5x5_reduce
I0403 15:50:37.316427 14587 net.cpp:91] Creating Layer inception_4e/5x5_reduce
I0403 15:50:37.316447 14587 net.cpp:425] inception_4e/5x5_reduce <- inception_4d/output_inception_4d/output_0_split_3
I0403 15:50:37.316468 14587 net.cpp:399] inception_4e/5x5_reduce -> inception_4e/5x5_reduce
I0403 15:50:37.317559 14587 net.cpp:141] Setting up inception_4e/5x5_reduce
I0403 15:50:37.317587 14587 net.cpp:148] Top shape: 24 32 14 14 (150528)
I0403 15:50:37.317602 14587 net.cpp:156] Memory required for data: 1236731424
I0403 15:50:37.317620 14587 layer_factory.hpp:77] Creating layer inception_4e/relu_5x5_reduce
I0403 15:50:37.317641 14587 net.cpp:91] Creating Layer inception_4e/relu_5x5_reduce
I0403 15:50:37.317658 14587 net.cpp:425] inception_4e/relu_5x5_reduce <- inception_4e/5x5_reduce
I0403 15:50:37.317675 14587 net.cpp:386] inception_4e/relu_5x5_reduce -> inception_4e/5x5_reduce (in-place)
I0403 15:50:37.317982 14587 net.cpp:141] Setting up inception_4e/relu_5x5_reduce
I0403 15:50:37.318008 14587 net.cpp:148] Top shape: 24 32 14 14 (150528)
I0403 15:50:37.318023 14587 net.cpp:156] Memory required for data: 1237333536
I0403 15:50:37.318037 14587 layer_factory.hpp:77] Creating layer inception_4e/5x5
I0403 15:50:37.318076 14587 net.cpp:91] Creating Layer inception_4e/5x5
I0403 15:50:37.318099 14587 net.cpp:425] inception_4e/5x5 <- inception_4e/5x5_reduce
I0403 15:50:37.318123 14587 net.cpp:399] inception_4e/5x5 -> inception_4e/5x5
I0403 15:50:37.320018 14587 net.cpp:141] Setting up inception_4e/5x5
I0403 15:50:37.320046 14587 net.cpp:148] Top shape: 24 128 14 14 (602112)
I0403 15:50:37.320061 14587 net.cpp:156] Memory required for data: 1239741984
I0403 15:50:37.320080 14587 layer_factory.hpp:77] Creating layer inception_4e/relu_5x5
I0403 15:50:37.320101 14587 net.cpp:91] Creating Layer inception_4e/relu_5x5
I0403 15:50:37.320119 14587 net.cpp:425] inception_4e/relu_5x5 <- inception_4e/5x5
I0403 15:50:37.320139 14587 net.cpp:386] inception_4e/relu_5x5 -> inception_4e/5x5 (in-place)
I0403 15:50:37.320344 14587 net.cpp:141] Setting up inception_4e/relu_5x5
I0403 15:50:37.320370 14587 net.cpp:148] Top shape: 24 128 14 14 (602112)
I0403 15:50:37.320384 14587 net.cpp:156] Memory required for data: 1242150432
I0403 15:50:37.320399 14587 layer_factory.hpp:77] Creating layer inception_4e/pool
I0403 15:50:37.320420 14587 net.cpp:91] Creating Layer inception_4e/pool
I0403 15:50:37.320436 14587 net.cpp:425] inception_4e/pool <- inception_4d/output_inception_4d/output_0_split_4
I0403 15:50:37.320454 14587 net.cpp:399] inception_4e/pool -> inception_4e/pool
I0403 15:50:37.320525 14587 net.cpp:141] Setting up inception_4e/pool
I0403 15:50:37.320549 14587 net.cpp:148] Top shape: 24 528 14 14 (2483712)
I0403 15:50:37.320564 14587 net.cpp:156] Memory required for data: 1252085280
I0403 15:50:37.320579 14587 layer_factory.hpp:77] Creating layer inception_4e/pool_proj
I0403 15:50:37.320600 14587 net.cpp:91] Creating Layer inception_4e/pool_proj
I0403 15:50:37.320617 14587 net.cpp:425] inception_4e/pool_proj <- inception_4e/pool
I0403 15:50:37.320638 14587 net.cpp:399] inception_4e/pool_proj -> inception_4e/pool_proj
I0403 15:50:37.322180 14587 net.cpp:141] Setting up inception_4e/pool_proj
I0403 15:50:37.322211 14587 net.cpp:148] Top shape: 24 128 14 14 (602112)
I0403 15:50:37.322240 14587 net.cpp:156] Memory required for data: 1254493728
I0403 15:50:37.322260 14587 layer_factory.hpp:77] Creating layer inception_4e/relu_pool_proj
I0403 15:50:37.322278 14587 net.cpp:91] Creating Layer inception_4e/relu_pool_proj
I0403 15:50:37.322294 14587 net.cpp:425] inception_4e/relu_pool_proj <- inception_4e/pool_proj
I0403 15:50:37.322314 14587 net.cpp:386] inception_4e/relu_pool_proj -> inception_4e/pool_proj (in-place)
I0403 15:50:37.322613 14587 net.cpp:141] Setting up inception_4e/relu_pool_proj
I0403 15:50:37.322639 14587 net.cpp:148] Top shape: 24 128 14 14 (602112)
I0403 15:50:37.322654 14587 net.cpp:156] Memory required for data: 1256902176
I0403 15:50:37.322669 14587 layer_factory.hpp:77] Creating layer inception_4e/output
I0403 15:50:37.322686 14587 net.cpp:91] Creating Layer inception_4e/output
I0403 15:50:37.322702 14587 net.cpp:425] inception_4e/output <- inception_4e/1x1
I0403 15:50:37.322720 14587 net.cpp:425] inception_4e/output <- inception_4e/3x3
I0403 15:50:37.322734 14587 net.cpp:425] inception_4e/output <- inception_4e/5x5
I0403 15:50:37.322751 14587 net.cpp:425] inception_4e/output <- inception_4e/pool_proj
I0403 15:50:37.322769 14587 net.cpp:399] inception_4e/output -> inception_4e/output
I0403 15:50:37.322821 14587 net.cpp:141] Setting up inception_4e/output
I0403 15:50:37.322847 14587 net.cpp:148] Top shape: 24 832 14 14 (3913728)
I0403 15:50:37.322862 14587 net.cpp:156] Memory required for data: 1272557088
I0403 15:50:37.322877 14587 layer_factory.hpp:77] Creating layer pool4/3x3_s2
I0403 15:50:37.322895 14587 net.cpp:91] Creating Layer pool4/3x3_s2
I0403 15:50:37.322909 14587 net.cpp:425] pool4/3x3_s2 <- inception_4e/output
I0403 15:50:37.322928 14587 net.cpp:399] pool4/3x3_s2 -> pool4/3x3_s2
I0403 15:50:37.322999 14587 net.cpp:141] Setting up pool4/3x3_s2
I0403 15:50:37.323022 14587 net.cpp:148] Top shape: 24 832 7 7 (978432)
I0403 15:50:37.323037 14587 net.cpp:156] Memory required for data: 1276470816
I0403 15:50:37.323051 14587 layer_factory.hpp:77] Creating layer pool4/3x3_s2_pool4/3x3_s2_0_split
I0403 15:50:37.323071 14587 net.cpp:91] Creating Layer pool4/3x3_s2_pool4/3x3_s2_0_split
I0403 15:50:37.323087 14587 net.cpp:425] pool4/3x3_s2_pool4/3x3_s2_0_split <- pool4/3x3_s2
I0403 15:50:37.323117 14587 net.cpp:399] pool4/3x3_s2_pool4/3x3_s2_0_split -> pool4/3x3_s2_pool4/3x3_s2_0_split_0
I0403 15:50:37.323139 14587 net.cpp:399] pool4/3x3_s2_pool4/3x3_s2_0_split -> pool4/3x3_s2_pool4/3x3_s2_0_split_1
I0403 15:50:37.323160 14587 net.cpp:399] pool4/3x3_s2_pool4/3x3_s2_0_split -> pool4/3x3_s2_pool4/3x3_s2_0_split_2
I0403 15:50:37.323184 14587 net.cpp:399] pool4/3x3_s2_pool4/3x3_s2_0_split -> pool4/3x3_s2_pool4/3x3_s2_0_split_3
I0403 15:50:37.323279 14587 net.cpp:141] Setting up pool4/3x3_s2_pool4/3x3_s2_0_split
I0403 15:50:37.323303 14587 net.cpp:148] Top shape: 24 832 7 7 (978432)
I0403 15:50:37.323319 14587 net.cpp:148] Top shape: 24 832 7 7 (978432)
I0403 15:50:37.323335 14587 net.cpp:148] Top shape: 24 832 7 7 (978432)
I0403 15:50:37.323349 14587 net.cpp:148] Top shape: 24 832 7 7 (978432)
I0403 15:50:37.323362 14587 net.cpp:156] Memory required for data: 1292125728
I0403 15:50:37.323377 14587 layer_factory.hpp:77] Creating layer inception_5a/1x1
I0403 15:50:37.323400 14587 net.cpp:91] Creating Layer inception_5a/1x1
I0403 15:50:37.323417 14587 net.cpp:425] inception_5a/1x1 <- pool4/3x3_s2_pool4/3x3_s2_0_split_0
I0403 15:50:37.323441 14587 net.cpp:399] inception_5a/1x1 -> inception_5a/1x1
I0403 15:50:37.326388 14587 net.cpp:141] Setting up inception_5a/1x1
I0403 15:50:37.326418 14587 net.cpp:148] Top shape: 24 256 7 7 (301056)
I0403 15:50:37.326433 14587 net.cpp:156] Memory required for data: 1293329952
I0403 15:50:37.326452 14587 layer_factory.hpp:77] Creating layer inception_5a/relu_1x1
I0403 15:50:37.326472 14587 net.cpp:91] Creating Layer inception_5a/relu_1x1
I0403 15:50:37.326489 14587 net.cpp:425] inception_5a/relu_1x1 <- inception_5a/1x1
I0403 15:50:37.326506 14587 net.cpp:386] inception_5a/relu_1x1 -> inception_5a/1x1 (in-place)
I0403 15:50:37.326829 14587 net.cpp:141] Setting up inception_5a/relu_1x1
I0403 15:50:37.326856 14587 net.cpp:148] Top shape: 24 256 7 7 (301056)
I0403 15:50:37.326871 14587 net.cpp:156] Memory required for data: 1294534176
I0403 15:50:37.326886 14587 layer_factory.hpp:77] Creating layer inception_5a/3x3_reduce
I0403 15:50:37.326910 14587 net.cpp:91] Creating Layer inception_5a/3x3_reduce
I0403 15:50:37.326927 14587 net.cpp:425] inception_5a/3x3_reduce <- pool4/3x3_s2_pool4/3x3_s2_0_split_1
I0403 15:50:37.326949 14587 net.cpp:399] inception_5a/3x3_reduce -> inception_5a/3x3_reduce
I0403 15:50:37.329491 14587 net.cpp:141] Setting up inception_5a/3x3_reduce
I0403 15:50:37.329521 14587 net.cpp:148] Top shape: 24 160 7 7 (188160)
I0403 15:50:37.329537 14587 net.cpp:156] Memory required for data: 1295286816
I0403 15:50:37.329555 14587 layer_factory.hpp:77] Creating layer inception_5a/relu_3x3_reduce
I0403 15:50:37.329573 14587 net.cpp:91] Creating Layer inception_5a/relu_3x3_reduce
I0403 15:50:37.329591 14587 net.cpp:425] inception_5a/relu_3x3_reduce <- inception_5a/3x3_reduce
I0403 15:50:37.329609 14587 net.cpp:386] inception_5a/relu_3x3_reduce -> inception_5a/3x3_reduce (in-place)
I0403 15:50:37.329802 14587 net.cpp:141] Setting up inception_5a/relu_3x3_reduce
I0403 15:50:37.329828 14587 net.cpp:148] Top shape: 24 160 7 7 (188160)
I0403 15:50:37.329843 14587 net.cpp:156] Memory required for data: 1296039456
I0403 15:50:37.329856 14587 layer_factory.hpp:77] Creating layer inception_5a/3x3
I0403 15:50:37.329879 14587 net.cpp:91] Creating Layer inception_5a/3x3
I0403 15:50:37.329897 14587 net.cpp:425] inception_5a/3x3 <- inception_5a/3x3_reduce
I0403 15:50:37.329919 14587 net.cpp:399] inception_5a/3x3 -> inception_5a/3x3
I0403 15:50:37.335115 14587 net.cpp:141] Setting up inception_5a/3x3
I0403 15:50:37.335146 14587 net.cpp:148] Top shape: 24 320 7 7 (376320)
I0403 15:50:37.335162 14587 net.cpp:156] Memory required for data: 1297544736
I0403 15:50:37.335180 14587 layer_factory.hpp:77] Creating layer inception_5a/relu_3x3
I0403 15:50:37.335203 14587 net.cpp:91] Creating Layer inception_5a/relu_3x3
I0403 15:50:37.335222 14587 net.cpp:425] inception_5a/relu_3x3 <- inception_5a/3x3
I0403 15:50:37.335239 14587 net.cpp:386] inception_5a/relu_3x3 -> inception_5a/3x3 (in-place)
I0403 15:50:37.335543 14587 net.cpp:141] Setting up inception_5a/relu_3x3
I0403 15:50:37.335571 14587 net.cpp:148] Top shape: 24 320 7 7 (376320)
I0403 15:50:37.335585 14587 net.cpp:156] Memory required for data: 1299050016
I0403 15:50:37.335599 14587 layer_factory.hpp:77] Creating layer inception_5a/5x5_reduce
I0403 15:50:37.335623 14587 net.cpp:91] Creating Layer inception_5a/5x5_reduce
I0403 15:50:37.335641 14587 net.cpp:425] inception_5a/5x5_reduce <- pool4/3x3_s2_pool4/3x3_s2_0_split_2
I0403 15:50:37.335664 14587 net.cpp:399] inception_5a/5x5_reduce -> inception_5a/5x5_reduce
I0403 15:50:37.336870 14587 net.cpp:141] Setting up inception_5a/5x5_reduce
I0403 15:50:37.336901 14587 net.cpp:148] Top shape: 24 32 7 7 (37632)
I0403 15:50:37.336918 14587 net.cpp:156] Memory required for data: 1299200544
I0403 15:50:37.336937 14587 layer_factory.hpp:77] Creating layer inception_5a/relu_5x5_reduce
I0403 15:50:37.336956 14587 net.cpp:91] Creating Layer inception_5a/relu_5x5_reduce
I0403 15:50:37.336971 14587 net.cpp:425] inception_5a/relu_5x5_reduce <- inception_5a/5x5_reduce
I0403 15:50:37.336988 14587 net.cpp:386] inception_5a/relu_5x5_reduce -> inception_5a/5x5_reduce (in-place)
I0403 15:50:37.337302 14587 net.cpp:141] Setting up inception_5a/relu_5x5_reduce
I0403 15:50:37.337329 14587 net.cpp:148] Top shape: 24 32 7 7 (37632)
I0403 15:50:37.337344 14587 net.cpp:156] Memory required for data: 1299351072
I0403 15:50:37.337369 14587 layer_factory.hpp:77] Creating layer inception_5a/5x5
I0403 15:50:37.337391 14587 net.cpp:91] Creating Layer inception_5a/5x5
I0403 15:50:37.337409 14587 net.cpp:425] inception_5a/5x5 <- inception_5a/5x5_reduce
I0403 15:50:37.337430 14587 net.cpp:399] inception_5a/5x5 -> inception_5a/5x5
I0403 15:50:37.339223 14587 net.cpp:141] Setting up inception_5a/5x5
I0403 15:50:37.339264 14587 net.cpp:148] Top shape: 24 128 7 7 (150528)
I0403 15:50:37.339280 14587 net.cpp:156] Memory required for data: 1299953184
I0403 15:50:37.339299 14587 layer_factory.hpp:77] Creating layer inception_5a/relu_5x5
I0403 15:50:37.339319 14587 net.cpp:91] Creating Layer inception_5a/relu_5x5
I0403 15:50:37.339337 14587 net.cpp:425] inception_5a/relu_5x5 <- inception_5a/5x5
I0403 15:50:37.339355 14587 net.cpp:386] inception_5a/relu_5x5 -> inception_5a/5x5 (in-place)
I0403 15:50:37.339555 14587 net.cpp:141] Setting up inception_5a/relu_5x5
I0403 15:50:37.339579 14587 net.cpp:148] Top shape: 24 128 7 7 (150528)
I0403 15:50:37.339597 14587 net.cpp:156] Memory required for data: 1300555296
I0403 15:50:37.339612 14587 layer_factory.hpp:77] Creating layer inception_5a/pool
I0403 15:50:37.339628 14587 net.cpp:91] Creating Layer inception_5a/pool
I0403 15:50:37.339644 14587 net.cpp:425] inception_5a/pool <- pool4/3x3_s2_pool4/3x3_s2_0_split_3
I0403 15:50:37.339663 14587 net.cpp:399] inception_5a/pool -> inception_5a/pool
I0403 15:50:37.339735 14587 net.cpp:141] Setting up inception_5a/pool
I0403 15:50:37.339759 14587 net.cpp:148] Top shape: 24 832 7 7 (978432)
I0403 15:50:37.339773 14587 net.cpp:156] Memory required for data: 1304469024
I0403 15:50:37.339787 14587 layer_factory.hpp:77] Creating layer inception_5a/pool_proj
I0403 15:50:37.339809 14587 net.cpp:91] Creating Layer inception_5a/pool_proj
I0403 15:50:37.339828 14587 net.cpp:425] inception_5a/pool_proj <- inception_5a/pool
I0403 15:50:37.339848 14587 net.cpp:399] inception_5a/pool_proj -> inception_5a/pool_proj
I0403 15:50:37.342188 14587 net.cpp:141] Setting up inception_5a/pool_proj
I0403 15:50:37.342217 14587 net.cpp:148] Top shape: 24 128 7 7 (150528)
I0403 15:50:37.342232 14587 net.cpp:156] Memory required for data: 1305071136
I0403 15:50:37.342249 14587 layer_factory.hpp:77] Creating layer inception_5a/relu_pool_proj
I0403 15:50:37.342267 14587 net.cpp:91] Creating Layer inception_5a/relu_pool_proj
I0403 15:50:37.342286 14587 net.cpp:425] inception_5a/relu_pool_proj <- inception_5a/pool_proj
I0403 15:50:37.342304 14587 net.cpp:386] inception_5a/relu_pool_proj -> inception_5a/pool_proj (in-place)
I0403 15:50:37.342624 14587 net.cpp:141] Setting up inception_5a/relu_pool_proj
I0403 15:50:37.342660 14587 net.cpp:148] Top shape: 24 128 7 7 (150528)
I0403 15:50:37.342675 14587 net.cpp:156] Memory required for data: 1305673248
I0403 15:50:37.342689 14587 layer_factory.hpp:77] Creating layer inception_5a/output
I0403 15:50:37.342706 14587 net.cpp:91] Creating Layer inception_5a/output
I0403 15:50:37.342721 14587 net.cpp:425] inception_5a/output <- inception_5a/1x1
I0403 15:50:37.342737 14587 net.cpp:425] inception_5a/output <- inception_5a/3x3
I0403 15:50:37.342752 14587 net.cpp:425] inception_5a/output <- inception_5a/5x5
I0403 15:50:37.342767 14587 net.cpp:425] inception_5a/output <- inception_5a/pool_proj
I0403 15:50:37.342787 14587 net.cpp:399] inception_5a/output -> inception_5a/output
I0403 15:50:37.342836 14587 net.cpp:141] Setting up inception_5a/output
I0403 15:50:37.342861 14587 net.cpp:148] Top shape: 24 832 7 7 (978432)
I0403 15:50:37.342876 14587 net.cpp:156] Memory required for data: 1309586976
I0403 15:50:37.342890 14587 layer_factory.hpp:77] Creating layer inception_5a/output_inception_5a/output_0_split
I0403 15:50:37.342906 14587 net.cpp:91] Creating Layer inception_5a/output_inception_5a/output_0_split
I0403 15:50:37.342921 14587 net.cpp:425] inception_5a/output_inception_5a/output_0_split <- inception_5a/output
I0403 15:50:37.342938 14587 net.cpp:399] inception_5a/output_inception_5a/output_0_split -> inception_5a/output_inception_5a/output_0_split_0
I0403 15:50:37.342962 14587 net.cpp:399] inception_5a/output_inception_5a/output_0_split -> inception_5a/output_inception_5a/output_0_split_1
I0403 15:50:37.342983 14587 net.cpp:399] inception_5a/output_inception_5a/output_0_split -> inception_5a/output_inception_5a/output_0_split_2
I0403 15:50:37.343001 14587 net.cpp:399] inception_5a/output_inception_5a/output_0_split -> inception_5a/output_inception_5a/output_0_split_3
I0403 15:50:37.343125 14587 net.cpp:141] Setting up inception_5a/output_inception_5a/output_0_split
I0403 15:50:37.343150 14587 net.cpp:148] Top shape: 24 832 7 7 (978432)
I0403 15:50:37.343165 14587 net.cpp:148] Top shape: 24 832 7 7 (978432)
I0403 15:50:37.343180 14587 net.cpp:148] Top shape: 24 832 7 7 (978432)
I0403 15:50:37.343196 14587 net.cpp:148] Top shape: 24 832 7 7 (978432)
I0403 15:50:37.343209 14587 net.cpp:156] Memory required for data: 1325241888
I0403 15:50:37.343224 14587 layer_factory.hpp:77] Creating layer inception_5b/1x1
I0403 15:50:37.343245 14587 net.cpp:91] Creating Layer inception_5b/1x1
I0403 15:50:37.343262 14587 net.cpp:425] inception_5b/1x1 <- inception_5a/output_inception_5a/output_0_split_0
I0403 15:50:37.343283 14587 net.cpp:399] inception_5b/1x1 -> inception_5b/1x1
I0403 15:50:37.347100 14587 net.cpp:141] Setting up inception_5b/1x1
I0403 15:50:37.347128 14587 net.cpp:148] Top shape: 24 384 7 7 (451584)
I0403 15:50:37.347143 14587 net.cpp:156] Memory required for data: 1327048224
I0403 15:50:37.347162 14587 layer_factory.hpp:77] Creating layer inception_5b/relu_1x1
I0403 15:50:37.347179 14587 net.cpp:91] Creating Layer inception_5b/relu_1x1
I0403 15:50:37.347196 14587 net.cpp:425] inception_5b/relu_1x1 <- inception_5b/1x1
I0403 15:50:37.347215 14587 net.cpp:386] inception_5b/relu_1x1 -> inception_5b/1x1 (in-place)
I0403 15:50:37.347525 14587 net.cpp:141] Setting up inception_5b/relu_1x1
I0403 15:50:37.347551 14587 net.cpp:148] Top shape: 24 384 7 7 (451584)
I0403 15:50:37.347566 14587 net.cpp:156] Memory required for data: 1328854560
I0403 15:50:37.347581 14587 layer_factory.hpp:77] Creating layer inception_5b/3x3_reduce
I0403 15:50:37.347602 14587 net.cpp:91] Creating Layer inception_5b/3x3_reduce
I0403 15:50:37.347620 14587 net.cpp:425] inception_5b/3x3_reduce <- inception_5a/output_inception_5a/output_0_split_1
I0403 15:50:37.347642 14587 net.cpp:399] inception_5b/3x3_reduce -> inception_5b/3x3_reduce
I0403 15:50:37.350317 14587 net.cpp:141] Setting up inception_5b/3x3_reduce
I0403 15:50:37.350347 14587 net.cpp:148] Top shape: 24 192 7 7 (225792)
I0403 15:50:37.350361 14587 net.cpp:156] Memory required for data: 1329757728
I0403 15:50:37.350379 14587 layer_factory.hpp:77] Creating layer inception_5b/relu_3x3_reduce
I0403 15:50:37.350397 14587 net.cpp:91] Creating Layer inception_5b/relu_3x3_reduce
I0403 15:50:37.350412 14587 net.cpp:425] inception_5b/relu_3x3_reduce <- inception_5b/3x3_reduce
I0403 15:50:37.350431 14587 net.cpp:386] inception_5b/relu_3x3_reduce -> inception_5b/3x3_reduce (in-place)
I0403 15:50:37.350622 14587 net.cpp:141] Setting up inception_5b/relu_3x3_reduce
I0403 15:50:37.350647 14587 net.cpp:148] Top shape: 24 192 7 7 (225792)
I0403 15:50:37.350662 14587 net.cpp:156] Memory required for data: 1330660896
I0403 15:50:37.350675 14587 layer_factory.hpp:77] Creating layer inception_5b/3x3
I0403 15:50:37.350697 14587 net.cpp:91] Creating Layer inception_5b/3x3
I0403 15:50:37.350716 14587 net.cpp:425] inception_5b/3x3 <- inception_5b/3x3_reduce
I0403 15:50:37.350738 14587 net.cpp:399] inception_5b/3x3 -> inception_5b/3x3
I0403 15:50:37.357477 14587 net.cpp:141] Setting up inception_5b/3x3
I0403 15:50:37.357507 14587 net.cpp:148] Top shape: 24 384 7 7 (451584)
I0403 15:50:37.357522 14587 net.cpp:156] Memory required for data: 1332467232
I0403 15:50:37.357539 14587 layer_factory.hpp:77] Creating layer inception_5b/relu_3x3
I0403 15:50:37.357558 14587 net.cpp:91] Creating Layer inception_5b/relu_3x3
I0403 15:50:37.357576 14587 net.cpp:425] inception_5b/relu_3x3 <- inception_5b/3x3
I0403 15:50:37.357594 14587 net.cpp:386] inception_5b/relu_3x3 -> inception_5b/3x3 (in-place)
I0403 15:50:37.357897 14587 net.cpp:141] Setting up inception_5b/relu_3x3
I0403 15:50:37.357923 14587 net.cpp:148] Top shape: 24 384 7 7 (451584)
I0403 15:50:37.357936 14587 net.cpp:156] Memory required for data: 1334273568
I0403 15:50:37.357951 14587 layer_factory.hpp:77] Creating layer inception_5b/5x5_reduce
I0403 15:50:37.357990 14587 net.cpp:91] Creating Layer inception_5b/5x5_reduce
I0403 15:50:37.358008 14587 net.cpp:425] inception_5b/5x5_reduce <- inception_5a/output_inception_5a/output_0_split_2
I0403 15:50:37.358043 14587 net.cpp:399] inception_5b/5x5_reduce -> inception_5b/5x5_reduce
I0403 15:50:37.359354 14587 net.cpp:141] Setting up inception_5b/5x5_reduce
I0403 15:50:37.359387 14587 net.cpp:148] Top shape: 24 48 7 7 (56448)
I0403 15:50:37.359402 14587 net.cpp:156] Memory required for data: 1334499360
I0403 15:50:37.359421 14587 layer_factory.hpp:77] Creating layer inception_5b/relu_5x5_reduce
I0403 15:50:37.359437 14587 net.cpp:91] Creating Layer inception_5b/relu_5x5_reduce
I0403 15:50:37.359454 14587 net.cpp:425] inception_5b/relu_5x5_reduce <- inception_5b/5x5_reduce
I0403 15:50:37.359477 14587 net.cpp:386] inception_5b/relu_5x5_reduce -> inception_5b/5x5_reduce (in-place)
I0403 15:50:37.359853 14587 net.cpp:141] Setting up inception_5b/relu_5x5_reduce
I0403 15:50:37.359879 14587 net.cpp:148] Top shape: 24 48 7 7 (56448)
I0403 15:50:37.359897 14587 net.cpp:156] Memory required for data: 1334725152
I0403 15:50:37.359911 14587 layer_factory.hpp:77] Creating layer inception_5b/5x5
I0403 15:50:37.359931 14587 net.cpp:91] Creating Layer inception_5b/5x5
I0403 15:50:37.359948 14587 net.cpp:425] inception_5b/5x5 <- inception_5b/5x5_reduce
I0403 15:50:37.359966 14587 net.cpp:399] inception_5b/5x5 -> inception_5b/5x5
I0403 15:50:37.362213 14587 net.cpp:141] Setting up inception_5b/5x5
I0403 15:50:37.362241 14587 net.cpp:148] Top shape: 24 128 7 7 (150528)
I0403 15:50:37.362257 14587 net.cpp:156] Memory required for data: 1335327264
I0403 15:50:37.362274 14587 layer_factory.hpp:77] Creating layer inception_5b/relu_5x5
I0403 15:50:37.362295 14587 net.cpp:91] Creating Layer inception_5b/relu_5x5
I0403 15:50:37.362313 14587 net.cpp:425] inception_5b/relu_5x5 <- inception_5b/5x5
I0403 15:50:37.362329 14587 net.cpp:386] inception_5b/relu_5x5 -> inception_5b/5x5 (in-place)
I0403 15:50:37.362541 14587 net.cpp:141] Setting up inception_5b/relu_5x5
I0403 15:50:37.362565 14587 net.cpp:148] Top shape: 24 128 7 7 (150528)
I0403 15:50:37.362579 14587 net.cpp:156] Memory required for data: 1335929376
I0403 15:50:37.362593 14587 layer_factory.hpp:77] Creating layer inception_5b/pool
I0403 15:50:37.362612 14587 net.cpp:91] Creating Layer inception_5b/pool
I0403 15:50:37.362630 14587 net.cpp:425] inception_5b/pool <- inception_5a/output_inception_5a/output_0_split_3
I0403 15:50:37.362648 14587 net.cpp:399] inception_5b/pool -> inception_5b/pool
I0403 15:50:37.362722 14587 net.cpp:141] Setting up inception_5b/pool
I0403 15:50:37.362746 14587 net.cpp:148] Top shape: 24 832 7 7 (978432)
I0403 15:50:37.362759 14587 net.cpp:156] Memory required for data: 1339843104
I0403 15:50:37.362773 14587 layer_factory.hpp:77] Creating layer inception_5b/pool_proj
I0403 15:50:37.362794 14587 net.cpp:91] Creating Layer inception_5b/pool_proj
I0403 15:50:37.362812 14587 net.cpp:425] inception_5b/pool_proj <- inception_5b/pool
I0403 15:50:37.362833 14587 net.cpp:399] inception_5b/pool_proj -> inception_5b/pool_proj
I0403 15:50:37.365178 14587 net.cpp:141] Setting up inception_5b/pool_proj
I0403 15:50:37.365208 14587 net.cpp:148] Top shape: 24 128 7 7 (150528)
I0403 15:50:37.365223 14587 net.cpp:156] Memory required for data: 1340445216
I0403 15:50:37.365242 14587 layer_factory.hpp:77] Creating layer inception_5b/relu_pool_proj
I0403 15:50:37.365260 14587 net.cpp:91] Creating Layer inception_5b/relu_pool_proj
I0403 15:50:37.365277 14587 net.cpp:425] inception_5b/relu_pool_proj <- inception_5b/pool_proj
I0403 15:50:37.365296 14587 net.cpp:386] inception_5b/relu_pool_proj -> inception_5b/pool_proj (in-place)
I0403 15:50:37.365610 14587 net.cpp:141] Setting up inception_5b/relu_pool_proj
I0403 15:50:37.365638 14587 net.cpp:148] Top shape: 24 128 7 7 (150528)
I0403 15:50:37.365651 14587 net.cpp:156] Memory required for data: 1341047328
I0403 15:50:37.365665 14587 layer_factory.hpp:77] Creating layer inception_5b/output
I0403 15:50:37.365682 14587 net.cpp:91] Creating Layer inception_5b/output
I0403 15:50:37.365715 14587 net.cpp:425] inception_5b/output <- inception_5b/1x1
I0403 15:50:37.365733 14587 net.cpp:425] inception_5b/output <- inception_5b/3x3
I0403 15:50:37.365748 14587 net.cpp:425] inception_5b/output <- inception_5b/5x5
I0403 15:50:37.365764 14587 net.cpp:425] inception_5b/output <- inception_5b/pool_proj
I0403 15:50:37.365783 14587 net.cpp:399] inception_5b/output -> inception_5b/output
I0403 15:50:37.365834 14587 net.cpp:141] Setting up inception_5b/output
I0403 15:50:37.365861 14587 net.cpp:148] Top shape: 24 1024 7 7 (1204224)
I0403 15:50:37.365876 14587 net.cpp:156] Memory required for data: 1345864224
I0403 15:50:37.365890 14587 layer_factory.hpp:77] Creating layer pool5/7x7_s1
I0403 15:50:37.365906 14587 net.cpp:91] Creating Layer pool5/7x7_s1
I0403 15:50:37.365922 14587 net.cpp:425] pool5/7x7_s1 <- inception_5b/output
I0403 15:50:37.365942 14587 net.cpp:399] pool5/7x7_s1 -> pool5/7x7_s1
I0403 15:50:37.366164 14587 net.cpp:141] Setting up pool5/7x7_s1
I0403 15:50:37.366189 14587 net.cpp:148] Top shape: 24 1024 1 1 (24576)
I0403 15:50:37.366204 14587 net.cpp:156] Memory required for data: 1345962528
I0403 15:50:37.366217 14587 layer_factory.hpp:77] Creating layer pool5/drop_7x7_s1
I0403 15:50:37.366233 14587 net.cpp:91] Creating Layer pool5/drop_7x7_s1
I0403 15:50:37.366250 14587 net.cpp:425] pool5/drop_7x7_s1 <- pool5/7x7_s1
I0403 15:50:37.366268 14587 net.cpp:386] pool5/drop_7x7_s1 -> pool5/7x7_s1 (in-place)
I0403 15:50:37.366322 14587 net.cpp:141] Setting up pool5/drop_7x7_s1
I0403 15:50:37.366344 14587 net.cpp:148] Top shape: 24 1024 1 1 (24576)
I0403 15:50:37.366358 14587 net.cpp:156] Memory required for data: 1346060832
I0403 15:50:37.366372 14587 layer_factory.hpp:77] Creating layer loss3/classifier_plantvillage
I0403 15:50:37.366390 14587 net.cpp:91] Creating Layer loss3/classifier_plantvillage
I0403 15:50:37.366405 14587 net.cpp:425] loss3/classifier_plantvillage <- pool5/7x7_s1
I0403 15:50:37.366426 14587 net.cpp:399] loss3/classifier_plantvillage -> loss3/classifier_plantvillage
I0403 15:50:37.366853 14587 net.cpp:141] Setting up loss3/classifier_plantvillage
I0403 15:50:37.366878 14587 net.cpp:148] Top shape: 24 38 (912)
I0403 15:50:37.366893 14587 net.cpp:156] Memory required for data: 1346064480
I0403 15:50:37.366909 14587 layer_factory.hpp:77] Creating layer loss3/classifier_plantvillage_loss3/classifier_plantvillage_0_split
I0403 15:50:37.366930 14587 net.cpp:91] Creating Layer loss3/classifier_plantvillage_loss3/classifier_plantvillage_0_split
I0403 15:50:37.366946 14587 net.cpp:425] loss3/classifier_plantvillage_loss3/classifier_plantvillage_0_split <- loss3/classifier_plantvillage
I0403 15:50:37.366966 14587 net.cpp:399] loss3/classifier_plantvillage_loss3/classifier_plantvillage_0_split -> loss3/classifier_plantvillage_loss3/classifier_plantvillage_0_split_0
I0403 15:50:37.366986 14587 net.cpp:399] loss3/classifier_plantvillage_loss3/classifier_plantvillage_0_split -> loss3/classifier_plantvillage_loss3/classifier_plantvillage_0_split_1
I0403 15:50:37.367005 14587 net.cpp:399] loss3/classifier_plantvillage_loss3/classifier_plantvillage_0_split -> loss3/classifier_plantvillage_loss3/classifier_plantvillage_0_split_2
I0403 15:50:37.367023 14587 net.cpp:399] loss3/classifier_plantvillage_loss3/classifier_plantvillage_0_split -> loss3/classifier_plantvillage_loss3/classifier_plantvillage_0_split_3
I0403 15:50:37.367130 14587 net.cpp:141] Setting up loss3/classifier_plantvillage_loss3/classifier_plantvillage_0_split
I0403 15:50:37.367152 14587 net.cpp:148] Top shape: 24 38 (912)
I0403 15:50:37.367168 14587 net.cpp:148] Top shape: 24 38 (912)
I0403 15:50:37.367183 14587 net.cpp:148] Top shape: 24 38 (912)
I0403 15:50:37.367198 14587 net.cpp:148] Top shape: 24 38 (912)
I0403 15:50:37.367213 14587 net.cpp:156] Memory required for data: 1346079072
I0403 15:50:37.367226 14587 layer_factory.hpp:77] Creating layer loss1/loss
I0403 15:50:37.367247 14587 net.cpp:91] Creating Layer loss1/loss
I0403 15:50:37.367264 14587 net.cpp:425] loss1/loss <- loss1/classifier_plantvillage_loss1/classifier_plantvillage_0_split_0
I0403 15:50:37.367295 14587 net.cpp:425] loss1/loss <- label_data_1_split_0
…
