…
I0403 15:46:20.440896 14372 net.cpp:313] The NetState phase (1) differed from the phase (0) specified by a rule in layer data
I0403 15:46:20.442082 14372 net.cpp:49] Initializing net from parameters: 
state {
  phase: TEST
}
layer {
  name: "data"
  type: "Data"
  top: "data"
  top: "label"
  include {
    phase: TEST
  }
  transform_param {
    mirror: false
    crop_size: 224
    mean_file: "/home/mohanty/data/final_dataset/lmdb/color-80-20/mean.binaryproto"
  }
  data_param {
    source: "/home/mohanty/data/final_dataset/lmdb/color-80-20/test_db"
    batch_size: 24
    backend: LMDB
  }
}
layer {
  name: "conv1/7x7_s2"
  type: "Convolution"
  bottom: "data"
  top: "conv1/7x7_s2"
  param {
    lr_mult: 1
    decay_mult: 1
  }
  param {
    lr_mult: 2
    decay_mult: 0
  }
  convolution_param {
    num_output: 64
    pad: 3
    kernel_size: 7
    stride: 2
    weight_filler {
      type: "xavier"
      std: 0.1
    }
    bias_filler {
      type: "constant"
      value: 0.2
    }
  }
}
layer {
  name: "conv1/relu_7x7"
  type: "ReLU"
  bottom: "conv1/7x7_s2"
  top: "conv1/7x7_s2"
}
layer {
  name: "pool1/3x3_s2"
  type: "Pooling"
  bottom: "conv1/7x7_s2"
  top: "pool1/3x3_s2"
  pooling_param {
    pool: MAX
    kernel_size: 3
    stride: 2
  }
}
layer {
  name: "pool1/norm1"
  type: "LRN"
  bottom: "pool1/3x3_s2"
  top: "pool1/norm1"
  lrn_param {
    local_size: 5
    alpha: 0.0001
    beta: 0.75
  }
}
layer {
  name: "conv2/3x3_reduce"
  type: "Convolution"
  bottom: "pool1/norm1"
  top: "conv2/3x3_reduce"
  param {
    lr_mult: 1
    decay_mult: 1
  }
  param {
    lr_mult: 2
    decay_mult: 0
  }
  convolution_param {
    num_output: 64
    kernel_size: 1
    weight_filler {
      type: "xavier"
      std: 0.1
    }
    bias_filler {
      type: "constant"
      value: 0.2
    }
  }
}
layer {
  name: "conv2/relu_3x3_reduce"
  type: "ReLU"
  bottom: "conv2/3x3_reduce"
  top: "conv2/3x3_reduce"
}
layer {
  name: "conv2/3x3"
  type: "Convolution"
  bottom: "conv2/3x3_reduce"
  top: "conv2/3x3"
  param {
    lr_mult: 1
    decay_mult: 1
  }
  param {
    lr_mult: 2
    decay_mult: 0
  }
  convolution_param {
    num_output: 192
    pad: 1
    kernel_size: 3
    weight_filler {
      type: "xavier"
      std: 0.03
    }
    bias_filler {
      type: "constant"
      value: 0.2
    }
  }
}
layer {
  name: "conv2/relu_3x3"
  type: "ReLU"
  bottom: "conv2/3x3"
  top: "conv2/3x3"
}
layer {
  name: "conv2/norm2"
  type: "LRN"
  bottom: "conv2/3x3"
  top: "conv2/norm2"
  lrn_param {
    local_size: 5
    alpha: 0.0001
    beta: 0.75
  }
}
layer {
  name: "pool2/3x3_s2"
  type: "Pooling"
  bottom: "conv2/norm2"
  top: "pool2/3x3_s2"
  pooling_param {
    pool: MAX
    kernel_size: 3
    stride: 2
  }
}
layer {
  name: "inception_3a/1x1"
  type: "Convolution"
  bottom: "pool2/3x3_s2"
  top: "inception_3a/1x1"
  param {
    lr_mult: 1
    decay_mult: 1
  }
  param {
    lr_mult: 2
    decay_mult: 0
  }
  convolution_param {
    num_output: 64
    kernel_size: 1
    weight_filler {
      type: "xavier"
      std: 0.03
    }
    bias_filler {
      type: "constant"
      value: 0.2
    }
  }
}
layer {
  name: "inception_3a/relu_1x1"
  type: "ReLU"
  bottom: "inception_3a/1x1"
  top: "inception_3a/1x1"
}
layer {
  name: "inception_3a/3x3_reduce"
  type: "Convolution"
  bottom: "pool2/3x3_s2"
  top: "inception_3a/3x3_reduce"
  param {
    lr_mult: 1
    decay_mult: 1
  }
  param {
    lr_mult: 2
    decay_mult: 0
  }
  convolution_param {
    num_output: 96
    kernel_size: 1
    weight_filler {
      type: "xavier"
      std: 0.09
    }
    bias_filler {
      type: "constant"
      value: 0.2
    }
  }
}
layer {
  name: "inception_3a/relu_3x3_reduce"
  type: "ReLU"
  bottom: "inception_3a/3x3_reduce"
  top: "inception_3a/3x3_reduce"
}
layer {
  name: "inception_3a/3x3"
  type: "Convolution"
  bottom: "inception_3a/3x3_reduce"
  top: "inception_3a/3x3"
  param {
    lr_mult: 1
    decay_mult: 1
  }
  param {
    lr_mult: 2
    decay_mult: 0
  }
  convolution_param {
    num_output: 128
    pad: 1
    kernel_size: 3
    weight_filler {
      type: "xavier"
      std: 0.03
    }
    bias_filler {
      type: "constant"
      value: 0.2
    }
  }
}
layer {
  name: "inception_3a/relu_3x3"
  type: "ReLU"
  bottom: "inception_3a/3x3"
  top: "inception_3a/3x3"
}
layer {
  name: "inception_3a/5x5_reduce"
  type: "Convolution"
  bottom: "pool2/3x3_s2"
  top: "inception_3a/5x5_reduce"
  param {
    lr_mult: 1
    decay_mult: 1
  }
  param {
    lr_mult: 2
    decay_mult: 0
  }
  convolution_param {
    num_output: 16
    kernel_size: 1
    weight_filler {
      type: "xavier"
      std: 0.2
    }
    bias_filler {
      type: "constant"
      value: 0.2
    }
  }
}
layer {
  name: "inception_3a/relu_5x5_reduce"
  type: "ReLU"
  bottom: "inception_3a/5x5_reduce"
  top: "inception_3a/5x5_reduce"
}
layer {
  name: "inception_3a/5x5"
  type: "Convolution"
  bottom: "inception_3a/5x5_reduce"
  top: "inception_3a/5x5"
  param {
    lr_mult: 1
    decay_mult: 1
  }
  param {
    lr_mult: 2
    decay_mult: 0
  }
  convolution_param {
    num_output: 32
    pad: 2
    kernel_size: 5
    weight_filler {
      type: "xavier"
      std: 0.03
    }
    bias_filler {
      type: "constant"
      value: 0.2
    }
  }
}
layer {
  name: "inception_3a/relu_5x5"
  type: "ReLU"
  bottom: "inception_3a/5x5"
  top: "inception_3a/5x5"
}
layer {
  name: "inception_3a/pool"
  type: "Pooling"
  bottom: "pool2/3x3_s2"
  top: "inception_3a/pool"
  pooling_param {
    pool: MAX
    kernel_size: 3
    stride: 1
    pad: 1
  }
}
layer {
  name: "inception_3a/pool_proj"
  type: "Convolution"
  bottom: "inception_3a/pool"
  top: "inception_3a/pool_proj"
  param {
    lr_mult: 1
    decay_mult: 1
  }
  param {
    lr_mult: 2
    decay_mult: 0
  }
  convolution_param {
    num_output: 32
    kernel_size: 1
    weight_filler {
      type: "xavier"
      std: 0.1
    }
    bias_filler {
      type: "constant"
      value: 0.2
    }
  }
}
layer {
  name: "inception_3a/relu_pool_proj"
  type: "ReLU"
  bottom: "inception_3a/pool_proj"
  top: "inception_3a/pool_proj"
}
layer {
  name: "inception_3a/output"
  type: "Concat"
  bottom: "inception_3a/1x1"
  bottom: "inception_3a/3x3"
  bottom: "inception_3a/5x5"
  bottom: "inception_3a/pool_proj"
  top: "inception_3a/output"
}
layer {
  name: "inception_3b/1x1"
  type: "Convolution"
  bottom: "inception_3a/output"
  top: "inception_3b/1x1"
  param {
    lr_mult: 1
    decay_mult: 1
  }
  param {
    lr_mult: 2
    decay_mult: 0
  }
  convolution_param {
    num_output: 128
    kernel_size: 1
    weight_filler {
      type: "xavier"
      std: 0.03
    }
    bias_filler {
      type: "constant"
      value: 0.2
    }
  }
}
layer {
  name: "inception_3b/relu_1x1"
  type: "ReLU"
  bottom: "inception_3b/1x1"
  top: "inception_3b/1x1"
}
layer {
  name: "inception_3b/3x3_reduce"
  type: "Convolution"
  bottom: "inception_3a/output"
  top: "inception_3b/3x3_reduce"
  param {
    lr_mult: 1
    decay_mult: 1
  }
  param {
    lr_mult: 2
    decay_mult: 0
  }
  convolution_param {
    num_output: 128
    kernel_size: 1
    weight_filler {
      type: "xavier"
      std: 0.09
    }
    bias_filler {
      type: "constant"
      value: 0.2
    }
  }
}
layer {
  name: "inception_3b/relu_3x3_reduce"
  type: "ReLU"
  bottom: "inception_3b/3x3_reduce"
  top: "inception_3b/3x3_reduce"
}
layer {
  name: "inception_3b/3x3"
  type: "Convolution"
  bottom: "inception_3b/3x3_reduce"
  top: "inception_3b/3x3"
  param {
    lr_mult: 1
    decay_mult: 1
  }
  param {
    lr_mult: 2
    decay_mult: 0
  }
  convolution_param {
    num_output: 192
    pad: 1
    kernel_size: 3
    weight_filler {
      type: "xavier"
      std: 0.03
    }
    bias_filler {
      type: "constant"
      value: 0.2
    }
  }
}
layer {
  name: "inception_3b/relu_3x3"
  type: "ReLU"
  bottom: "inception_3b/3x3"
  top: "inception_3b/3x3"
}
layer {
  name: "inception_3b/5x5_reduce"
  type: "Convolution"
  bottom: "inception_3a/output"
  top: "inception_3b/5x5_reduce"
  param {
    lr_mult: 1
    decay_mult: 1
  }
  param {
    lr_mult: 2
    decay_mult: 0
  }
  convolution_param {
    num_output: 32
    kernel_size: 1
    weight_filler {
      type: "xavier"
      std: 0.2
    }
    bias_filler {
      type: "constant"
      value: 0.2
    }
  }
}
layer {
  name: "inception_3b/relu_5x5_reduce"
  type: "ReLU"
  bottom: "inception_3b/5x5_reduce"
  top: "inception_3b/5x5_reduce"
}
layer {
  name: "inception_3b/5x5"
  type: "Convolution"
  bottom: "inception_3b/5x5_reduce"
  top: "inception_3b/5x5"
  param {
    lr_mult: 1
    decay_mult: 1
  }
  param {
    lr_mult: 2
    decay_mult: 0
  }
  convolution_param {
    num_output: 96
    pad: 2
    kernel_size: 5
    weight_filler {
      type: "xavier"
      std: 0.03
    }
    bias_filler {
      type: "constant"
      value: 0.2
    }
  }
}
layer {
  name: "inception_3b/relu_5x5"
  type: "ReLU"
  bottom: "inception_3b/5x5"
  top: "inception_3b/5x5"
}
layer {
  name: "inception_3b/pool"
  type: "Pooling"
  bottom: "inception_3a/output"
  top: "inception_3b/pool"
  pooling_param {
    pool: MAX
    kernel_size: 3
    stride: 1
    pad: 1
  }
}
layer {
  name: "inception_3b/pool_proj"
  type: "Convolution"
  bottom: "inception_3b/pool"
  top: "inception_3b/pool_proj"
  param {
    lr_mult: 1
    decay_mult: 1
  }
  param {
    lr_mult: 2
    decay_mult: 0
  }
  convolution_param {
    num_output: 64
    kernel_size: 1
    weight_filler {
      type: "xavier"
      std: 0.1
    }
    bias_filler {
      type: "constant"
      value: 0.2
    }
  }
}
layer {
  name: "inception_3b/relu_pool_proj"
  type: "ReLU"
  bottom: "inception_3b/pool_proj"
  top: "inception_3b/pool_proj"
}
layer {
  name: "inception_3b/output"
  type: "Concat"
  bottom: "inception_3b/1x1"
  bottom: "inception_3b/3x3"
  bottom: "inception_3b/5x5"
  bottom: "inception_3b/pool_proj"
  top: "inception_3b/output"
}
layer {
  name: "pool3/3x3_s2"
  type: "Pooling"
  bottom: "inception_3b/output"
  top: "pool3/3x3_s2"
  pooling_param {
    pool: MAX
    kernel_size: 3
    stride: 2
  }
}
layer {
  name: "inception_4a/1x1"
  type: "Convolution"
  bottom: "pool3/3x3_s2"
  top: "inception_4a/1x1"
  param {
    lr_mult: 1
    decay_mult: 1
  }
  param {
    lr_mult: 2
    decay_mult: 0
  }
  convolution_param {
    num_output: 192
    kernel_size: 1
    weight_filler {
      type: "xavier"
      std: 0.03
    }
    bias_filler {
      type: "constant"
      value: 0.2
    }
  }
}
layer {
  name: "inception_4a/relu_1x1"
  type: "ReLU"
  bottom: "inception_4a/1x1"
  top: "inception_4a/1x1"
}
layer {
  name: "inception_4a/3x3_reduce"
  type: "Convolution"
  bottom: "pool3/3x3_s2"
  top: "inception_4a/3x3_reduce"
  param {
    lr_mult: 1
    decay_mult: 1
  }
  param {
    lr_mult: 2
    decay_mult: 0
  }
  convolution_param {
    num_output: 96
    kernel_size: 1
    weight_filler {
      type: "xavier"
      std: 0.09
    }
    bias_filler {
      type: "constant"
      value: 0.2
    }
  }
}
layer {
  name: "inception_4a/relu_3x3_reduce"
  type: "ReLU"
  bottom: "inception_4a/3x3_reduce"
  top: "inception_4a/3x3_reduce"
}
layer {
  name: "inception_4a/3x3"
  type: "Convolution"
  bottom: "inception_4a/3x3_reduce"
  top: "inception_4a/3x3"
  param {
    lr_mult: 1
    decay_mult: 1
  }
  param {
    lr_mult: 2
    decay_mult: 0
  }
  convolution_param {
    num_output: 208
    pad: 1
    kernel_size: 3
    weight_filler {
      type: "xavier"
      std: 0.03
    }
    bias_filler {
      type: "constant"
      value: 0.2
    }
  }
}
layer {
  name: "inception_4a/relu_3x3"
  type: "ReLU"
  bottom: "inception_4a/3x3"
  top: "inception_4a/3x3"
}
layer {
  name: "inception_4a/5x5_reduce"
  type: "Convolution"
  bottom: "pool3/3x3_s2"
  top: "inception_4a/5x5_reduce"
  param {
    lr_mult: 1
    decay_mult: 1
  }
  param {
    lr_mult: 2
    decay_mult: 0
  }
  convolution_param {
    num_output: 16
    kernel_size: 1
    weight_filler {
      type: "xavier"
      std: 0.2
    }
    bias_filler {
      type: "constant"
      value: 0.2
    }
  }
}
layer {
  name: "inception_4a/relu_5x5_reduce"
  type: "ReLU"
  bottom: "inception_4a/5x5_reduce"
  top: "inception_4a/5x5_reduce"
}
layer {
  name: "inception_4a/5x5"
  type: "Convolution"
  bottom: "inception_4a/5x5_reduce"
  top: "inception_4a/5x5"
  param {
    lr_mult: 1
    decay_mult: 1
  }
  param {
    lr_mult: 2
    decay_mult: 0
  }
  convolution_param {
    num_output: 48
    pad: 2
    kernel_size: 5
    weight_filler {
      type: "xavier"
      std: 0.03
    }
    bias_filler {
      type: "constant"
      value: 0.2
    }
  }
}
layer {
  name: "inception_4a/relu_5x5"
  type: "ReLU"
  bottom: "inception_4a/5x5"
  top: "inception_4a/5x5"
}
layer {
  name: "inception_4a/pool"
  type: "Pooling"
  bottom: "pool3/3x3_s2"
  top: "inception_4a/pool"
  pooling_param {
    pool: MAX
    kernel_size: 3
    stride: 1
    pad: 1
  }
}
layer {
  name: "inception_4a/pool_proj"
  type: "Convolution"
  bottom: "inception_4a/pool"
  top: "inception_4a/pool_proj"
  param {
    lr_mult: 1
    decay_mult: 1
  }
  param {
    lr_mult: 2
    decay_mult: 0
  }
  convolution_param {
    num_output: 64
    kernel_size: 1
    weight_filler {
      type: "xavier"
      std: 0.1
    }
    bias_filler {
      type: "constant"
      value: 0.2
    }
  }
}
layer {
  name: "inception_4a/relu_pool_proj"
  type: "ReLU"
  bottom: "inception_4a/pool_proj"
  top: "inception_4a/pool_proj"
}
layer {
  name: "inception_4a/output"
  type: "Concat"
  bottom: "inception_4a/1x1"
  bottom: "inception_4a/3x3"
  bottom: "inception_4a/5x5"
  bottom: "inception_4a/pool_proj"
  top: "inception_4a/output"
}
layer {
  name: "loss1/ave_pool"
  type: "Pooling"
  bottom: "inception_4a/output"
  top: "loss1/ave_pool"
  pooling_param {
    pool: AVE
    kernel_size: 5
    stride: 3
  }
}
layer {
  name: "loss1/conv"
  type: "Convolution"
  bottom: "loss1/ave_pool"
  top: "loss1/conv"
  param {
    lr_mult: 1
    decay_mult: 1
  }
  param {
    lr_mult: 2
    decay_mult: 0
  }
  convolution_param {
    num_output: 128
    kernel_size: 1
    weight_filler {
      type: "xavier"
      std: 0.08
    }
    bias_filler {
      type: "constant"
      value: 0.2
    }
  }
}
layer {
  name: "loss1/relu_conv"
  type: "ReLU"
  bottom: "loss1/conv"
  top: "loss1/conv"
}
layer {
  name: "loss1/fc"
  type: "InnerProduct"
  bottom: "loss1/conv"
  top: "loss1/fc"
  param {
    lr_mult: 1
    decay_mult: 1
  }
  param {
    lr_mult: 2
    decay_mult: 0
  }
  inner_product_param {
    num_output: 1024
    weight_filler {
      type: "xavier"
      std: 0.02
    }
    bias_filler {
      type: "constant"
      value: 0.2
    }
  }
}
layer {
  name: "loss1/relu_fc"
  type: "ReLU"
  bottom: "loss1/fc"
  top: "loss1/fc"
}
layer {
  name: "loss1/drop_fc"
  type: "Dropout"
  bottom: "loss1/fc"
  top: "loss1/fc"
  dropout_param {
    dropout_ratio: 0.7
  }
}
layer {
  name: "loss1/classifier_plantvillage"
  type: "InnerProduct"
  bottom: "loss1/fc"
  top: "loss1/classifier_plantvillage"
  param {
    lr_mult: 1
    decay_mult: 1
  }
  param {
    lr_mult: 2
    decay_mult: 0
  }
  inner_product_param {
    num_output: 38
    weight_filler {
      type: "xavier"
      std: 0.0009765625
    }
    bias_filler {
      type: "constant"
      value: 0
    }
  }
}
layer {
  name: "inception_4b/1x1"
  type: "Convolution"
  bottom: "inception_4a/output"
  top: "inception_4b/1x1"
  param {
    lr_mult: 1
    decay_mult: 1
  }
  param {
    lr_mult: 2
    decay_mult: 0
  }
  convolution_param {
    num_output: 160
    kernel_size: 1
    weight_filler {
      type: "xavier"
      std: 0.03
    }
    bias_filler {
      type: "constant"
      value: 0.2
    }
  }
}
layer {
  name: "inception_4b/relu_1x1"
  type: "ReLU"
  bottom: "inception_4b/1x1"
  top: "inception_4b/1x1"
}
layer {
  name: "inception_4b/3x3_reduce"
  type: "Convolution"
  bottom: "inception_4a/output"
  top: "inception_4b/3x3_reduce"
  param {
    lr_mult: 1
    decay_mult: 1
  }
  param {
    lr_mult: 2
    decay_mult: 0
  }
  convolution_param {
    num_output: 112
    kernel_size: 1
    weight_filler {
      type: "xavier"
      std: 0.09
    }
    bias_filler {
      type: "constant"
      value: 0.2
    }
  }
}
layer {
  name: "inception_4b/relu_3x3_reduce"
  type: "ReLU"
  bottom: "inception_4b/3x3_reduce"
  top: "inception_4b/3x3_reduce"
}
layer {
  name: "inception_4b/3x3"
  type: "Convolution"
  bottom: "inception_4b/3x3_reduce"
  top: "inception_4b/3x3"
  param {
    lr_mult: 1
    decay_mult: 1
  }
  param {
    lr_mult: 2
    decay_mult: 0
  }
  convolution_param {
    num_output: 224
    pad: 1
    kernel_size: 3
    weight_filler {
      type: "xavier"
      std: 0.03
    }
    bias_filler {
      type: "constant"
      value: 0.2
    }
  }
}
layer {
  name: "inception_4b/relu_3x3"
  type: "ReLU"
  bottom: "inception_4b/3x3"
  top: "inception_4b/3x3"
}
layer {
  name: "inception_4b/5x5_reduce"
  type: "Convolution"
  bottom: "inception_4a/output"
  top: "inception_4b/5x5_reduce"
  param {
    lr_mult: 1
    decay_mult: 1
  }
  param {
    lr_mult: 2
    decay_mult: 0
  }
  convolution_param {
    num_output: 24
    kernel_size: 1
    weight_filler {
      type: "xavier"
      std: 0.2
    }
    bias_filler {
      type: "constant"
      value: 0.2
    }
  }
}
layer {
  name: "inception_4b/relu_5x5_reduce"
  type: "ReLU"
  bottom: "inception_4b/5x5_reduce"
  top: "inception_4b/5x5_reduce"
}
layer {
  name: "inception_4b/5x5"
  type: "Convolution"
  bottom: "inception_4b/5x5_reduce"
  top: "inception_4b/5x5"
  param {
    lr_mult: 1
    decay_mult: 1
  }
  param {
    lr_mult: 2
    decay_mult: 0
  }
  convolution_param {
    num_output: 64
    pad: 2
    kernel_size: 5
    weight_filler {
      type: "xavier"
      std: 0.03
    }
    bias_filler {
      type: "constant"
      value: 0.2
    }
  }
}
layer {
  name: "inception_4b/relu_5x5"
  type: "ReLU"
  bottom: "inception_4b/5x5"
  top: "inception_4b/5x5"
}
layer {
  name: "inception_4b/pool"
  type: "Pooling"
  bottom: "inception_4a/output"
  top: "inception_4b/pool"
  pooling_param {
    pool: MAX
    kernel_size: 3
    stride: 1
    pad: 1
  }
}
layer {
  name: "inception_4b/pool_proj"
  type: "Convolution"
  bottom: "inception_4b/pool"
  top: "inception_4b/pool_proj"
  param {
    lr_mult: 1
    decay_mult: 1
  }
  param {
    lr_mult: 2
    decay_mult: 0
  }
  convolution_param {
    num_output: 64
    kernel_size: 1
    weight_filler {
      type: "xavier"
      std: 0.1
    }
    bias_filler {
      type: "constant"
      value: 0.2
    }
  }
}
layer {
  name: "inception_4b/relu_pool_proj"
  type: "ReLU"
  bottom: "inception_4b/pool_proj"
  top: "inception_4b/pool_proj"
}
layer {
  name: "inception_4b/output"
  type: "Concat"
  bottom: "inception_4b/1x1"
  bottom: "inception_4b/3x3"
  bottom: "inception_4b/5x5"
  bottom: "inception_4b/pool_proj"
  top: "inception_4b/output"
}
layer {
  name: "inception_4c/1x1"
  type: "Convolution"
  bottom: "inception_4b/output"
  top: "inception_4c/1x1"
  param {
    lr_mult: 1
    decay_mult: 1
  }
  param {
    lr_mult: 2
    decay_mult: 0
  }
  convolution_param {
    num_output: 128
    kernel_size: 1
    weight_filler {
      type: "xavier"
      std: 0.03
    }
    bias_filler {
      type: "constant"
      value: 0.2
    }
  }
}
layer {
  name: "inception_4c/relu_1x1"
  type: "ReLU"
  bottom: "inception_4c/1x1"
  top: "inception_4c/1x1"
}
layer {
  name: "inception_4c/3x3_reduce"
  type: "Convolution"
  bottom: "inception_4b/output"
  top: "inception_4c/3x3_reduce"
  param {
    lr_mult: 1
    decay_mult: 1
  }
  param {
    lr_mult: 2
    decay_mult: 0
  }
  convolution_param {
    num_output: 128
    kernel_size: 1
    weight_filler {
      type: "xavier"
      std: 0.09
    }
    bias_filler {
      type: "constant"
      value: 0.2
    }
  }
}
layer {
  name: "inception_4c/relu_3x3_reduce"
  type: "ReLU"
  bottom: "inception_4c/3x3_reduce"
  top: "inception_4c/3x3_reduce"
}
layer {
  name: "inception_4c/3x3"
  type: "Convolution"
  bottom: "inception_4c/3x3_reduce"
  top: "inception_4c/3x3"
  param {
    lr_mult: 1
    decay_mult: 1
  }
  param {
    lr_mult: 2
    decay_mult: 0
  }
  convolution_param {
    num_output: 256
    pad: 1
    kernel_size: 3
    weight_filler {
      type: "xavier"
      std: 0.03
    }
    bias_filler {
      type: "constant"
      value: 0.2
    }
  }
}
layer {
  name: "inception_4c/relu_3x3"
  type: "ReLU"
  bottom: "inception_4c/3x3"
  top: "inception_4c/3x3"
}
layer {
  name: "inception_4c/5x5_reduce"
  type: "Convolution"
  bottom: "inception_4b/output"
  top: "inception_4c/5x5_reduce"
  param {
    lr_mult: 1
    decay_mult: 1
  }
  param {
    lr_mult: 2
    decay_mult: 0
  }
  convolution_param {
    num_output: 24
    kernel_size: 1
    weight_filler {
      type: "xavier"
      std: 0.2
    }
    bias_filler {
      type: "constant"
      value: 0.2
    }
  }
}
layer {
  name: "inception_4c/relu_5x5_reduce"
  type: "ReLU"
  bottom: "inception_4c/5x5_reduce"
  top: "inception_4c/5x5_reduce"
}
layer {
  name: "inception_4c/5x5"
  type: "Convolution"
  bottom: "inception_4c/5x5_reduce"
  top: "inception_4c/5x5"
  param {
    lr_mult: 1
    decay_mult: 1
  }
  param {
    lr_mult: 2
    decay_mult: 0
  }
  convolution_param {
    num_output: 64
    pad: 2
    kernel_size: 5
    weight_filler {
      type: "xavier"
      std: 0.03
    }
    bias_filler {
      type: "constant"
      value: 0.2
    }
  }
}
layer {
  name: "inception_4c/relu_5x5"
  type: "ReLU"
  bottom: "inception_4c/5x5"
  top: "inception_4c/5x5"
}
layer {
  name: "inception_4c/pool"
  type: "Pooling"
  bottom: "inception_4b/output"
  top: "inception_4c/pool"
  pooling_param {
    pool: MAX
    kernel_size: 3
    stride: 1
    pad: 1
  }
}
layer {
  name: "inception_4c/pool_proj"
  type: "Convolution"
  bottom: "inception_4c/pool"
  top: "inception_4c/pool_proj"
  param {
    lr_mult: 1
    decay_mult: 1
  }
  param {
    lr_mult: 2
    decay_mult: 0
  }
  convolution_param {
    num_output: 64
    kernel_size: 1
    weight_filler {
      type: "xavier"
      std: 0.1
    }
    bias_filler {
      type: "constant"
      value: 0.2
    }
  }
}
layer {
  name: "inception_4c/relu_pool_proj"
  type: "ReLU"
  bottom: "inception_4c/pool_proj"
  top: "inception_4c/pool_proj"
}
layer {
  name: "inception_4c/output"
  type: "Concat"
  bottom: "inception_4c/1x1"
  bottom: "inception_4c/3x3"
  bottom: "inception_4c/5x5"
  bottom: "inception_4c/pool_proj"
  top: "inception_4c/output"
}
layer {
  name: "inception_4d/1x1"
  type: "Convolution"
  bottom: "inception_4c/output"
  top: "inception_4d/1x1"
  param {
    lr_mult: 1
    decay_mult: 1
  }
  param {
    lr_mult: 2
    decay_mult: 0
  }
  convolution_param {
    num_output: 112
    kernel_size: 1
    weight_filler {
      type: "xavier"
      std: 0.03
    }
    bias_filler {
      type: "constant"
      value: 0.2
    }
  }
}
layer {
  name: "inception_4d/relu_1x1"
  type: "ReLU"
  bottom: "inception_4d/1x1"
  top: "inception_4d/1x1"
}
layer {
  name: "inception_4d/3x3_reduce"
  type: "Convolution"
  bottom: "inception_4c/output"
  top: "inception_4d/3x3_reduce"
  param {
    lr_mult: 1
    decay_mult: 1
  }
  param {
    lr_mult: 2
    decay_mult: 0
  }
  convolution_param {
    num_output: 144
    kernel_size: 1
    weight_filler {
      type: "xavier"
      std: 0.09
    }
    bias_filler {
      type: "constant"
      value: 0.2
    }
  }
}
layer {
  name: "inception_4d/relu_3x3_reduce"
  type: "ReLU"
  bottom: "inception_4d/3x3_reduce"
  top: "inception_4d/3x3_reduce"
}
layer {
  name: "inception_4d/3x3"
  type: "Convolution"
  bottom: "inception_4d/3x3_reduce"
  top: "inception_4d/3x3"
  param {
    lr_mult: 1
    decay_mult: 1
  }
  param {
    lr_mult: 2
    decay_mult: 0
  }
  convolution_param {
    num_output: 288
    pad: 1
    kernel_size: 3
    weight_filler {
      type: "xavier"
      std: 0.03
    }
    bias_filler {
      type: "constant"
      value: 0.2
    }
  }
}
layer {
  name: "inception_4d/relu_3x3"
  type: "ReLU"
  bottom: "inception_4d/3x3"
  top: "inception_4d/3x3"
}
layer {
  name: "inception_4d/5x5_reduce"
  type: "Convolution"
  bottom: "inception_4c/output"
  top: "inception_4d/5x5_reduce"
  param {
    lr_mult: 1
    decay_mult: 1
  }
  param {
    lr_mult: 2
    decay_mult: 0
  }
  convolution_param {
    num_output: 32
    kernel_size: 1
    weight_filler {
      type: "xavier"
      std: 0.2
    }
    bias_filler {
      type: "constant"
      value: 0.2
    }
  }
}
layer {
  name: "inception_4d/relu_5x5_reduce"
  type: "ReLU"
  bottom: "inception_4d/5x5_reduce"
  top: "inception_4d/5x5_reduce"
}
layer {
  name: "inception_4d/5x5"
  type: "Convolution"
  bottom: "inception_4d/5x5_reduce"
  top: "inception_4d/5x5"
  param {
    lr_mult: 1
    decay_mult: 1
  }
  param {
    lr_mult: 2
    decay_mult: 0
  }
  convolution_param {
    num_output: 64
    pad: 2
    kernel_size: 5
    weight_filler {
      type: "xavier"
      std: 0.03
    }
    bias_filler {
      type: "constant"
      value: 0.2
    }
  }
}
layer {
  name: "inception_4d/relu_5x5"
  type: "ReLU"
  bottom: "inception_4d/5x5"
  top: "inception_4d/5x5"
}
layer {
  name: "inception_4d/pool"
  type: "Pooling"
  bottom: "inception_4c/output"
  top: "inception_4d/pool"
  pooling_param {
    pool: MAX
    kernel_size: 3
    stride: 1
    pad: 1
  }
}
layer {
  name: "inception_4d/pool_proj"
  type: "Convolution"
  bottom: "inception_4d/pool"
  top: "inception_4d/pool_proj"
  param {
    lr_mult: 1
    decay_mult: 1
  }
  param {
    lr_mult: 2
    decay_mult: 0
  }
  convolution_param {
    num_output: 64
    kernel_size: 1
    weight_filler {
      type: "xavier"
      std: 0.1
    }
    bias_filler {
      type: "constant"
      value: 0.2
    }
  }
}
layer {
  name: "inception_4d/relu_pool_proj"
  type: "ReLU"
  bottom: "inception_4d/pool_proj"
  top: "inception_4d/pool_proj"
}
layer {
  name: "inception_4d/output"
  type: "Concat"
  bottom: "inception_4d/1x1"
  bottom: "inception_4d/3x3"
  bottom: "inception_4d/5x5"
  bottom: "inception_4d/pool_proj"
  top: "inception_4d/output"
}
layer {
  name: "loss2/ave_pool"
  type: "Pooling"
  bottom: "inception_4d/output"
  top: "loss2/ave_pool"
  pooling_param {
    pool: AVE
    kernel_size: 5
    stride: 3
  }
}
layer {
  name: "loss2/conv"
  type: "Convolution"
  bottom: "loss2/ave_pool"
  top: "loss2/conv"
  param {
    lr_mult: 1
    decay_mult: 1
  }
  param {
    lr_mult: 2
    decay_mult: 0
  }
  convolution_param {
    num_output: 128
    kernel_size: 1
    weight_filler {
      type: "xavier"
      std: 0.08
    }
    bias_filler {
      type: "constant"
      value: 0.2
    }
  }
}
layer {
  name: "loss2/relu_conv"
  type: "ReLU"
  bottom: "loss2/conv"
  top: "loss2/conv"
}
layer {
  name: "loss2/fc"
  type: "InnerProduct"
  bottom: "loss2/conv"
  top: "loss2/fc"
  param {
    lr_mult: 1
    decay_mult: 1
  }
  param {
    lr_mult: 2
    decay_mult: 0
  }
  inner_product_param {
    num_output: 1024
    weight_filler {
      type: "xavier"
      std: 0.02
    }
    bias_filler {
      type: "constant"
      value: 0.2
    }
  }
}
layer {
  name: "loss2/relu_fc"
  type: "ReLU"
  bottom: "loss2/fc"
  top: "loss2/fc"
}
layer {
  name: "loss2/drop_fc"
  type: "Dropout"
  bottom: "loss2/fc"
  top: "loss2/fc"
  dropout_param {
    dropout_ratio: 0.7
  }
}
layer {
  name: "loss2/classifier_plantvillage"
  type: "InnerProduct"
  bottom: "loss2/fc"
  top: "loss2/classifier_plantvillage"
  param {
    lr_mult: 1
    decay_mult: 1
  }
  param {
    lr_mult: 2
    decay_mult: 0
  }
  inner_product_param {
    num_output: 38
    weight_filler {
      type: "xavier"
      std: 0.0009765625
    }
    bias_filler {
      type: "constant"
      value: 0
    }
  }
}
layer {
  name: "inception_4e/1x1"
  type: "Convolution"
  bottom: "inception_4d/output"
  top: "inception_4e/1x1"
  param {
    lr_mult: 1
    decay_mult: 1
  }
  param {
    lr_mult: 2
    decay_mult: 0
  }
  convolution_param {
    num_output: 256
    kernel_size: 1
    weight_filler {
      type: "xavier"
      std: 0.03
    }
    bias_filler {
      type: "constant"
      value: 0.2
    }
  }
}
layer {
  name: "inception_4e/relu_1x1"
  type: "ReLU"
  bottom: "inception_4e/1x1"
  top: "inception_4e/1x1"
}
layer {
  name: "inception_4e/3x3_reduce"
  type: "Convolution"
  bottom: "inception_4d/output"
  top: "inception_4e/3x3_reduce"
  param {
    lr_mult: 1
    decay_mult: 1
  }
  param {
    lr_mult: 2
    decay_mult: 0
  }
  convolution_param {
    num_output: 160
    kernel_size: 1
    weight_filler {
      type: "xavier"
      std: 0.09
    }
    bias_filler {
      type: "constant"
      value: 0.2
    }
  }
}
layer {
  name: "inception_4e/relu_3x3_reduce"
  type: "ReLU"
  bottom: "inception_4e/3x3_reduce"
  top: "inception_4e/3x3_reduce"
}
layer {
  name: "inception_4e/3x3"
  type: "Convolution"
  bottom: "inception_4e/3x3_reduce"
  top: "inception_4e/3x3"
  param {
    lr_mult: 1
    decay_mult: 1
  }
  param {
    lr_mult: 2
    decay_mult: 0
  }
  convolution_param {
    num_output: 320
    pad: 1
    kernel_size: 3
    weight_filler {
      type: "xavier"
      std: 0.03
    }
    bias_filler {
      type: "constant"
      value: 0.2
    }
  }
}
layer {
  name: "inception_4e/relu_3x3"
  type: "ReLU"
  bottom: "inception_4e/3x3"
  top: "inception_4e/3x3"
}
layer {
  name: "inception_4e/5x5_reduce"
  type: "Convolution"
  bottom: "inception_4d/output"
  top: "inception_4e/5x5_reduce"
  param {
    lr_mult: 1
    decay_mult: 1
  }
  param {
    lr_mult: 2
    decay_mult: 0
  }
  convolution_param {
    num_output: 32
    kernel_size: 1
    weight_filler {
      type: "xavier"
      std: 0.2
    }
    bias_filler {
      type: "constant"
      value: 0.2
    }
  }
}
layer {
  name: "inception_4e/relu_5x5_reduce"
  type: "ReLU"
  bottom: "inception_4e/5x5_reduce"
  top: "inception_4e/5x5_reduce"
}
layer {
  name: "inception_4e/5x5"
  type: "Convolution"
  bottom: "inception_4e/5x5_reduce"
  top: "inception_4e/5x5"
  p
I0403 15:46:20.443377 14372 layer_factory.hpp:77] Creating layer data
I0403 15:46:20.443975 14372 net.cpp:91] Creating Layer data
I0403 15:46:20.444008 14372 net.cpp:399] data -> data
I0403 15:46:20.444061 14372 net.cpp:399] data -> label
I0403 15:46:20.444097 14372 data_transformer.cpp:25] Loading mean file from: /home/mohanty/data/final_dataset/lmdb/color-80-20/mean.binaryproto
I0403 15:46:20.447438 14376 db_lmdb.cpp:38] Opened lmdb /home/mohanty/data/final_dataset/lmdb/color-80-20/test_db
I0403 15:46:20.478389 14372 data_layer.cpp:41] output data size: 24,3,224,224
I0403 15:46:20.509965 14372 net.cpp:141] Setting up data
I0403 15:46:20.510045 14372 net.cpp:148] Top shape: 24 3 224 224 (3612672)
I0403 15:46:20.510067 14372 net.cpp:148] Top shape: 24 (24)
I0403 15:46:20.510082 14372 net.cpp:156] Memory required for data: 14450784
I0403 15:46:20.510109 14372 layer_factory.hpp:77] Creating layer label_data_1_split
I0403 15:46:20.510139 14372 net.cpp:91] Creating Layer label_data_1_split
I0403 15:46:20.510159 14372 net.cpp:425] label_data_1_split <- label
I0403 15:46:20.510190 14372 net.cpp:399] label_data_1_split -> label_data_1_split_0
I0403 15:46:20.510217 14372 net.cpp:399] label_data_1_split -> label_data_1_split_1
I0403 15:46:20.510241 14372 net.cpp:399] label_data_1_split -> label_data_1_split_2
I0403 15:46:20.510262 14372 net.cpp:399] label_data_1_split -> label_data_1_split_3
I0403 15:46:20.510280 14372 net.cpp:399] label_data_1_split -> label_data_1_split_4
I0403 15:46:20.510300 14372 net.cpp:399] label_data_1_split -> label_data_1_split_5
I0403 15:46:20.510319 14372 net.cpp:399] label_data_1_split -> label_data_1_split_6
I0403 15:46:20.510339 14372 net.cpp:399] label_data_1_split -> label_data_1_split_7
I0403 15:46:20.510360 14372 net.cpp:399] label_data_1_split -> label_data_1_split_8
I0403 15:46:20.510381 14372 net.cpp:399] label_data_1_split -> label_data_1_split_9
I0403 15:46:20.510495 14372 net.cpp:141] Setting up label_data_1_split
I0403 15:46:20.510519 14372 net.cpp:148] Top shape: 24 (24)
I0403 15:46:20.510535 14372 net.cpp:148] Top shape: 24 (24)
I0403 15:46:20.510552 14372 net.cpp:148] Top shape: 24 (24)
I0403 15:46:20.510568 14372 net.cpp:148] Top shape: 24 (24)
I0403 15:46:20.510584 14372 net.cpp:148] Top shape: 24 (24)
I0403 15:46:20.510601 14372 net.cpp:148] Top shape: 24 (24)
I0403 15:46:20.510615 14372 net.cpp:148] Top shape: 24 (24)
I0403 15:46:20.510630 14372 net.cpp:148] Top shape: 24 (24)
I0403 15:46:20.510645 14372 net.cpp:148] Top shape: 24 (24)
I0403 15:46:20.510660 14372 net.cpp:148] Top shape: 24 (24)
I0403 15:46:20.510700 14372 net.cpp:156] Memory required for data: 14451744
I0403 15:46:20.510716 14372 layer_factory.hpp:77] Creating layer conv1/7x7_s2
I0403 15:46:20.510747 14372 net.cpp:91] Creating Layer conv1/7x7_s2
I0403 15:46:20.510767 14372 net.cpp:425] conv1/7x7_s2 <- data
I0403 15:46:20.510787 14372 net.cpp:399] conv1/7x7_s2 -> conv1/7x7_s2
I0403 15:46:20.652865 14372 net.cpp:141] Setting up conv1/7x7_s2
I0403 15:46:20.652936 14372 net.cpp:148] Top shape: 24 64 112 112 (19267584)
I0403 15:46:20.652954 14372 net.cpp:156] Memory required for data: 91522080
I0403 15:46:20.652986 14372 layer_factory.hpp:77] Creating layer conv1/relu_7x7
I0403 15:46:20.653012 14372 net.cpp:91] Creating Layer conv1/relu_7x7
I0403 15:46:20.653033 14372 net.cpp:425] conv1/relu_7x7 <- conv1/7x7_s2
I0403 15:46:20.653051 14372 net.cpp:386] conv1/relu_7x7 -> conv1/7x7_s2 (in-place)
I0403 15:46:20.653324 14372 net.cpp:141] Setting up conv1/relu_7x7
I0403 15:46:20.653353 14372 net.cpp:148] Top shape: 24 64 112 112 (19267584)
I0403 15:46:20.653369 14372 net.cpp:156] Memory required for data: 168592416
I0403 15:46:20.653384 14372 layer_factory.hpp:77] Creating layer pool1/3x3_s2
I0403 15:46:20.653414 14372 net.cpp:91] Creating Layer pool1/3x3_s2
I0403 15:46:20.653432 14372 net.cpp:425] pool1/3x3_s2 <- conv1/7x7_s2
I0403 15:46:20.653451 14372 net.cpp:399] pool1/3x3_s2 -> pool1/3x3_s2
I0403 15:46:20.653532 14372 net.cpp:141] Setting up pool1/3x3_s2
I0403 15:46:20.653556 14372 net.cpp:148] Top shape: 24 64 56 56 (4816896)
I0403 15:46:20.653571 14372 net.cpp:156] Memory required for data: 187860000
I0403 15:46:20.653586 14372 layer_factory.hpp:77] Creating layer pool1/norm1
I0403 15:46:20.653612 14372 net.cpp:91] Creating Layer pool1/norm1
I0403 15:46:20.653631 14372 net.cpp:425] pool1/norm1 <- pool1/3x3_s2
I0403 15:46:20.653648 14372 net.cpp:399] pool1/norm1 -> pool1/norm1
I0403 15:46:20.653956 14372 net.cpp:141] Setting up pool1/norm1
I0403 15:46:20.653987 14372 net.cpp:148] Top shape: 24 64 56 56 (4816896)
I0403 15:46:20.654005 14372 net.cpp:156] Memory required for data: 207127584
I0403 15:46:20.654021 14372 layer_factory.hpp:77] Creating layer conv2/3x3_reduce
I0403 15:46:20.654045 14372 net.cpp:91] Creating Layer conv2/3x3_reduce
I0403 15:46:20.654062 14372 net.cpp:425] conv2/3x3_reduce <- pool1/norm1
I0403 15:46:20.654083 14372 net.cpp:399] conv2/3x3_reduce -> conv2/3x3_reduce
I0403 15:46:20.655532 14372 net.cpp:141] Setting up conv2/3x3_reduce
I0403 15:46:20.655563 14372 net.cpp:148] Top shape: 24 64 56 56 (4816896)
I0403 15:46:20.655580 14372 net.cpp:156] Memory required for data: 226395168
I0403 15:46:20.655601 14372 layer_factory.hpp:77] Creating layer conv2/relu_3x3_reduce
I0403 15:46:20.655621 14372 net.cpp:91] Creating Layer conv2/relu_3x3_reduce
I0403 15:46:20.655637 14372 net.cpp:425] conv2/relu_3x3_reduce <- conv2/3x3_reduce
I0403 15:46:20.655658 14372 net.cpp:386] conv2/relu_3x3_reduce -> conv2/3x3_reduce (in-place)
I0403 15:46:20.655933 14372 net.cpp:141] Setting up conv2/relu_3x3_reduce
I0403 15:46:20.655961 14372 net.cpp:148] Top shape: 24 64 56 56 (4816896)
I0403 15:46:20.655975 14372 net.cpp:156] Memory required for data: 245662752
I0403 15:46:20.655990 14372 layer_factory.hpp:77] Creating layer conv2/3x3
I0403 15:46:20.656015 14372 net.cpp:91] Creating Layer conv2/3x3
I0403 15:46:20.656034 14372 net.cpp:425] conv2/3x3 <- conv2/3x3_reduce
I0403 15:46:20.656057 14372 net.cpp:399] conv2/3x3 -> conv2/3x3
I0403 15:46:20.658511 14372 net.cpp:141] Setting up conv2/3x3
I0403 15:46:20.658545 14372 net.cpp:148] Top shape: 24 192 56 56 (14450688)
I0403 15:46:20.658561 14372 net.cpp:156] Memory required for data: 303465504
I0403 15:46:20.658582 14372 layer_factory.hpp:77] Creating layer conv2/relu_3x3
I0403 15:46:20.658606 14372 net.cpp:91] Creating Layer conv2/relu_3x3
I0403 15:46:20.658623 14372 net.cpp:425] conv2/relu_3x3 <- conv2/3x3
I0403 15:46:20.658643 14372 net.cpp:386] conv2/relu_3x3 -> conv2/3x3 (in-place)
I0403 15:46:20.658820 14372 net.cpp:141] Setting up conv2/relu_3x3
I0403 15:46:20.658849 14372 net.cpp:148] Top shape: 24 192 56 56 (14450688)
I0403 15:46:20.658897 14372 net.cpp:156] Memory required for data: 361268256
I0403 15:46:20.658915 14372 layer_factory.hpp:77] Creating layer conv2/norm2
I0403 15:46:20.658933 14372 net.cpp:91] Creating Layer conv2/norm2
I0403 15:46:20.658949 14372 net.cpp:425] conv2/norm2 <- conv2/3x3
I0403 15:46:20.658969 14372 net.cpp:399] conv2/norm2 -> conv2/norm2
I0403 15:46:20.659283 14372 net.cpp:141] Setting up conv2/norm2
I0403 15:46:20.659312 14372 net.cpp:148] Top shape: 24 192 56 56 (14450688)
I0403 15:46:20.659327 14372 net.cpp:156] Memory required for data: 419071008
I0403 15:46:20.659343 14372 layer_factory.hpp:77] Creating layer pool2/3x3_s2
I0403 15:46:20.659361 14372 net.cpp:91] Creating Layer pool2/3x3_s2
I0403 15:46:20.659378 14372 net.cpp:425] pool2/3x3_s2 <- conv2/norm2
I0403 15:46:20.659400 14372 net.cpp:399] pool2/3x3_s2 -> pool2/3x3_s2
I0403 15:46:20.659456 14372 net.cpp:141] Setting up pool2/3x3_s2
I0403 15:46:20.659481 14372 net.cpp:148] Top shape: 24 192 28 28 (3612672)
I0403 15:46:20.659495 14372 net.cpp:156] Memory required for data: 433521696
I0403 15:46:20.659512 14372 layer_factory.hpp:77] Creating layer pool2/3x3_s2_pool2/3x3_s2_0_split
I0403 15:46:20.659531 14372 net.cpp:91] Creating Layer pool2/3x3_s2_pool2/3x3_s2_0_split
I0403 15:46:20.659548 14372 net.cpp:425] pool2/3x3_s2_pool2/3x3_s2_0_split <- pool2/3x3_s2
I0403 15:46:20.659566 14372 net.cpp:399] pool2/3x3_s2_pool2/3x3_s2_0_split -> pool2/3x3_s2_pool2/3x3_s2_0_split_0
I0403 15:46:20.659590 14372 net.cpp:399] pool2/3x3_s2_pool2/3x3_s2_0_split -> pool2/3x3_s2_pool2/3x3_s2_0_split_1
I0403 15:46:20.659610 14372 net.cpp:399] pool2/3x3_s2_pool2/3x3_s2_0_split -> pool2/3x3_s2_pool2/3x3_s2_0_split_2
I0403 15:46:20.659631 14372 net.cpp:399] pool2/3x3_s2_pool2/3x3_s2_0_split -> pool2/3x3_s2_pool2/3x3_s2_0_split_3
I0403 15:46:20.659703 14372 net.cpp:141] Setting up pool2/3x3_s2_pool2/3x3_s2_0_split
I0403 15:46:20.659728 14372 net.cpp:148] Top shape: 24 192 28 28 (3612672)
I0403 15:46:20.659744 14372 net.cpp:148] Top shape: 24 192 28 28 (3612672)
I0403 15:46:20.659759 14372 net.cpp:148] Top shape: 24 192 28 28 (3612672)
I0403 15:46:20.659775 14372 net.cpp:148] Top shape: 24 192 28 28 (3612672)
I0403 15:46:20.659790 14372 net.cpp:156] Memory required for data: 491324448
I0403 15:46:20.659804 14372 layer_factory.hpp:77] Creating layer inception_3a/1x1
I0403 15:46:20.659827 14372 net.cpp:91] Creating Layer inception_3a/1x1
I0403 15:46:20.659847 14372 net.cpp:425] inception_3a/1x1 <- pool2/3x3_s2_pool2/3x3_s2_0_split_0
I0403 15:46:20.659867 14372 net.cpp:399] inception_3a/1x1 -> inception_3a/1x1
I0403 15:46:20.661576 14372 net.cpp:141] Setting up inception_3a/1x1
I0403 15:46:20.661607 14372 net.cpp:148] Top shape: 24 64 28 28 (1204224)
I0403 15:46:20.661624 14372 net.cpp:156] Memory required for data: 496141344
I0403 15:46:20.661645 14372 layer_factory.hpp:77] Creating layer inception_3a/relu_1x1
I0403 15:46:20.661669 14372 net.cpp:91] Creating Layer inception_3a/relu_1x1
I0403 15:46:20.661686 14372 net.cpp:425] inception_3a/relu_1x1 <- inception_3a/1x1
I0403 15:46:20.661705 14372 net.cpp:386] inception_3a/relu_1x1 -> inception_3a/1x1 (in-place)
I0403 15:46:20.661886 14372 net.cpp:141] Setting up inception_3a/relu_1x1
I0403 15:46:20.661913 14372 net.cpp:148] Top shape: 24 64 28 28 (1204224)
I0403 15:46:20.661929 14372 net.cpp:156] Memory required for data: 500958240
I0403 15:46:20.661945 14372 layer_factory.hpp:77] Creating layer inception_3a/3x3_reduce
I0403 15:46:20.661969 14372 net.cpp:91] Creating Layer inception_3a/3x3_reduce
I0403 15:46:20.661988 14372 net.cpp:425] inception_3a/3x3_reduce <- pool2/3x3_s2_pool2/3x3_s2_0_split_1
I0403 15:46:20.662009 14372 net.cpp:399] inception_3a/3x3_reduce -> inception_3a/3x3_reduce
I0403 15:46:20.663785 14372 net.cpp:141] Setting up inception_3a/3x3_reduce
I0403 15:46:20.663817 14372 net.cpp:148] Top shape: 24 96 28 28 (1806336)
I0403 15:46:20.663835 14372 net.cpp:156] Memory required for data: 508183584
I0403 15:46:20.663857 14372 layer_factory.hpp:77] Creating layer inception_3a/relu_3x3_reduce
I0403 15:46:20.663897 14372 net.cpp:91] Creating Layer inception_3a/relu_3x3_reduce
I0403 15:46:20.663918 14372 net.cpp:425] inception_3a/relu_3x3_reduce <- inception_3a/3x3_reduce
I0403 15:46:20.663938 14372 net.cpp:386] inception_3a/relu_3x3_reduce -> inception_3a/3x3_reduce (in-place)
I0403 15:46:20.664134 14372 net.cpp:141] Setting up inception_3a/relu_3x3_reduce
I0403 15:46:20.664161 14372 net.cpp:148] Top shape: 24 96 28 28 (1806336)
I0403 15:46:20.664176 14372 net.cpp:156] Memory required for data: 515408928
I0403 15:46:20.664191 14372 layer_factory.hpp:77] Creating layer inception_3a/3x3
I0403 15:46:20.664216 14372 net.cpp:91] Creating Layer inception_3a/3x3
I0403 15:46:20.664234 14372 net.cpp:425] inception_3a/3x3 <- inception_3a/3x3_reduce
I0403 15:46:20.664258 14372 net.cpp:399] inception_3a/3x3 -> inception_3a/3x3
I0403 15:46:20.666002 14372 net.cpp:141] Setting up inception_3a/3x3
I0403 15:46:20.666033 14372 net.cpp:148] Top shape: 24 128 28 28 (2408448)
I0403 15:46:20.666049 14372 net.cpp:156] Memory required for data: 525042720
I0403 15:46:20.666069 14372 layer_factory.hpp:77] Creating layer inception_3a/relu_3x3
I0403 15:46:20.666090 14372 net.cpp:91] Creating Layer inception_3a/relu_3x3
I0403 15:46:20.666110 14372 net.cpp:425] inception_3a/relu_3x3 <- inception_3a/3x3
I0403 15:46:20.666132 14372 net.cpp:386] inception_3a/relu_3x3 -> inception_3a/3x3 (in-place)
I0403 15:46:20.666426 14372 net.cpp:141] Setting up inception_3a/relu_3x3
I0403 15:46:20.666455 14372 net.cpp:148] Top shape: 24 128 28 28 (2408448)
I0403 15:46:20.666471 14372 net.cpp:156] Memory required for data: 534676512
I0403 15:46:20.666487 14372 layer_factory.hpp:77] Creating layer inception_3a/5x5_reduce
I0403 15:46:20.666510 14372 net.cpp:91] Creating Layer inception_3a/5x5_reduce
I0403 15:46:20.666528 14372 net.cpp:425] inception_3a/5x5_reduce <- pool2/3x3_s2_pool2/3x3_s2_0_split_2
I0403 15:46:20.666551 14372 net.cpp:399] inception_3a/5x5_reduce -> inception_3a/5x5_reduce
I0403 15:46:20.667580 14372 net.cpp:141] Setting up inception_3a/5x5_reduce
I0403 15:46:20.667610 14372 net.cpp:148] Top shape: 24 16 28 28 (301056)
I0403 15:46:20.667628 14372 net.cpp:156] Memory required for data: 535880736
I0403 15:46:20.667647 14372 layer_factory.hpp:77] Creating layer inception_3a/relu_5x5_reduce
I0403 15:46:20.667670 14372 net.cpp:91] Creating Layer inception_3a/relu_5x5_reduce
I0403 15:46:20.667688 14372 net.cpp:425] inception_3a/relu_5x5_reduce <- inception_3a/5x5_reduce
I0403 15:46:20.667706 14372 net.cpp:386] inception_3a/relu_5x5_reduce -> inception_3a/5x5_reduce (in-place)
I0403 15:46:20.668015 14372 net.cpp:141] Setting up inception_3a/relu_5x5_reduce
I0403 15:46:20.668046 14372 net.cpp:148] Top shape: 24 16 28 28 (301056)
I0403 15:46:20.668064 14372 net.cpp:156] Memory required for data: 537084960
I0403 15:46:20.668079 14372 layer_factory.hpp:77] Creating layer inception_3a/5x5
I0403 15:46:20.668103 14372 net.cpp:91] Creating Layer inception_3a/5x5
I0403 15:46:20.668123 14372 net.cpp:425] inception_3a/5x5 <- inception_3a/5x5_reduce
I0403 15:46:20.668148 14372 net.cpp:399] inception_3a/5x5 -> inception_3a/5x5
I0403 15:46:20.669226 14372 net.cpp:141] Setting up inception_3a/5x5
I0403 15:46:20.669257 14372 net.cpp:148] Top shape: 24 32 28 28 (602112)
I0403 15:46:20.669273 14372 net.cpp:156] Memory required for data: 539493408
I0403 15:46:20.669293 14372 layer_factory.hpp:77] Creating layer inception_3a/relu_5x5
I0403 15:46:20.669314 14372 net.cpp:91] Creating Layer inception_3a/relu_5x5
I0403 15:46:20.669332 14372 net.cpp:425] inception_3a/relu_5x5 <- inception_3a/5x5
I0403 15:46:20.669351 14372 net.cpp:386] inception_3a/relu_5x5 -> inception_3a/5x5 (in-place)
I0403 15:46:20.669543 14372 net.cpp:141] Setting up inception_3a/relu_5x5
I0403 15:46:20.669571 14372 net.cpp:148] Top shape: 24 32 28 28 (602112)
I0403 15:46:20.669586 14372 net.cpp:156] Memory required for data: 541901856
I0403 15:46:20.669602 14372 layer_factory.hpp:77] Creating layer inception_3a/pool
I0403 15:46:20.669623 14372 net.cpp:91] Creating Layer inception_3a/pool
I0403 15:46:20.669641 14372 net.cpp:425] inception_3a/pool <- pool2/3x3_s2_pool2/3x3_s2_0_split_3
I0403 15:46:20.669675 14372 net.cpp:399] inception_3a/pool -> inception_3a/pool
I0403 15:46:20.669739 14372 net.cpp:141] Setting up inception_3a/pool
I0403 15:46:20.669765 14372 net.cpp:148] Top shape: 24 192 28 28 (3612672)
I0403 15:46:20.669780 14372 net.cpp:156] Memory required for data: 556352544
I0403 15:46:20.669796 14372 layer_factory.hpp:77] Creating layer inception_3a/pool_proj
I0403 15:46:20.669822 14372 net.cpp:91] Creating Layer inception_3a/pool_proj
I0403 15:46:20.669842 14372 net.cpp:425] inception_3a/pool_proj <- inception_3a/pool
I0403 15:46:20.669865 14372 net.cpp:399] inception_3a/pool_proj -> inception_3a/pool_proj
I0403 15:46:20.670877 14372 net.cpp:141] Setting up inception_3a/pool_proj
I0403 15:46:20.670909 14372 net.cpp:148] Top shape: 24 32 28 28 (602112)
I0403 15:46:20.670928 14372 net.cpp:156] Memory required for data: 558760992
I0403 15:46:20.670950 14372 layer_factory.hpp:77] Creating layer inception_3a/relu_pool_proj
I0403 15:46:20.670974 14372 net.cpp:91] Creating Layer inception_3a/relu_pool_proj
I0403 15:46:20.670992 14372 net.cpp:425] inception_3a/relu_pool_proj <- inception_3a/pool_proj
I0403 15:46:20.671010 14372 net.cpp:386] inception_3a/relu_pool_proj -> inception_3a/pool_proj (in-place)
I0403 15:46:20.671300 14372 net.cpp:141] Setting up inception_3a/relu_pool_proj
I0403 15:46:20.671329 14372 net.cpp:148] Top shape: 24 32 28 28 (602112)
I0403 15:46:20.671345 14372 net.cpp:156] Memory required for data: 561169440
I0403 15:46:20.671360 14372 layer_factory.hpp:77] Creating layer inception_3a/output
I0403 15:46:20.671381 14372 net.cpp:91] Creating Layer inception_3a/output
I0403 15:46:20.671399 14372 net.cpp:425] inception_3a/output <- inception_3a/1x1
I0403 15:46:20.671416 14372 net.cpp:425] inception_3a/output <- inception_3a/3x3
I0403 15:46:20.671433 14372 net.cpp:425] inception_3a/output <- inception_3a/5x5
I0403 15:46:20.671450 14372 net.cpp:425] inception_3a/output <- inception_3a/pool_proj
I0403 15:46:20.671468 14372 net.cpp:399] inception_3a/output -> inception_3a/output
I0403 15:46:20.671515 14372 net.cpp:141] Setting up inception_3a/output
I0403 15:46:20.671543 14372 net.cpp:148] Top shape: 24 256 28 28 (4816896)
I0403 15:46:20.671561 14372 net.cpp:156] Memory required for data: 580437024
I0403 15:46:20.671577 14372 layer_factory.hpp:77] Creating layer inception_3a/output_inception_3a/output_0_split
I0403 15:46:20.671594 14372 net.cpp:91] Creating Layer inception_3a/output_inception_3a/output_0_split
I0403 15:46:20.671610 14372 net.cpp:425] inception_3a/output_inception_3a/output_0_split <- inception_3a/output
I0403 15:46:20.671630 14372 net.cpp:399] inception_3a/output_inception_3a/output_0_split -> inception_3a/output_inception_3a/output_0_split_0
I0403 15:46:20.671653 14372 net.cpp:399] inception_3a/output_inception_3a/output_0_split -> inception_3a/output_inception_3a/output_0_split_1
I0403 15:46:20.671677 14372 net.cpp:399] inception_3a/output_inception_3a/output_0_split -> inception_3a/output_inception_3a/output_0_split_2
I0403 15:46:20.671700 14372 net.cpp:399] inception_3a/output_inception_3a/output_0_split -> inception_3a/output_inception_3a/output_0_split_3
I0403 15:46:20.671779 14372 net.cpp:141] Setting up inception_3a/output_inception_3a/output_0_split
I0403 15:46:20.671804 14372 net.cpp:148] Top shape: 24 256 28 28 (4816896)
I0403 15:46:20.671821 14372 net.cpp:148] Top shape: 24 256 28 28 (4816896)
I0403 15:46:20.671838 14372 net.cpp:148] Top shape: 24 256 28 28 (4816896)
I0403 15:46:20.671854 14372 net.cpp:148] Top shape: 24 256 28 28 (4816896)
I0403 15:46:20.671869 14372 net.cpp:156] Memory required for data: 657507360
I0403 15:46:20.671883 14372 layer_factory.hpp:77] Creating layer inception_3b/1x1
I0403 15:46:20.671906 14372 net.cpp:91] Creating Layer inception_3b/1x1
I0403 15:46:20.671924 14372 net.cpp:425] inception_3b/1x1 <- inception_3a/output_inception_3a/output_0_split_0
I0403 15:46:20.671946 14372 net.cpp:399] inception_3b/1x1 -> inception_3b/1x1
I0403 15:46:20.673167 14372 net.cpp:141] Setting up inception_3b/1x1
I0403 15:46:20.673210 14372 net.cpp:148] Top shape: 24 128 28 28 (2408448)
I0403 15:46:20.673228 14372 net.cpp:156] Memory required for data: 667141152
I0403 15:46:20.673249 14372 layer_factory.hpp:77] Creating layer inception_3b/relu_1x1
I0403 15:46:20.673267 14372 net.cpp:91] Creating Layer inception_3b/relu_1x1
I0403 15:46:20.673282 14372 net.cpp:425] inception_3b/relu_1x1 <- inception_3b/1x1
I0403 15:46:20.673302 14372 net.cpp:386] inception_3b/relu_1x1 -> inception_3b/1x1 (in-place)
I0403 15:46:20.673490 14372 net.cpp:141] Setting up inception_3b/relu_1x1
I0403 15:46:20.673516 14372 net.cpp:148] Top shape: 24 128 28 28 (2408448)
I0403 15:46:20.673532 14372 net.cpp:156] Memory required for data: 676774944
I0403 15:46:20.673548 14372 layer_factory.hpp:77] Creating layer inception_3b/3x3_reduce
I0403 15:46:20.673573 14372 net.cpp:91] Creating Layer inception_3b/3x3_reduce
I0403 15:46:20.673593 14372 net.cpp:425] inception_3b/3x3_reduce <- inception_3a/output_inception_3a/output_0_split_1
I0403 15:46:20.673615 14372 net.cpp:399] inception_3b/3x3_reduce -> inception_3b/3x3_reduce
I0403 15:46:20.674813 14372 net.cpp:141] Setting up inception_3b/3x3_reduce
I0403 15:46:20.674844 14372 net.cpp:148] Top shape: 24 128 28 28 (2408448)
I0403 15:46:20.674860 14372 net.cpp:156] Memory required for data: 686408736
I0403 15:46:20.674880 14372 layer_factory.hpp:77] Creating layer inception_3b/relu_3x3_reduce
I0403 15:46:20.674898 14372 net.cpp:91] Creating Layer inception_3b/relu_3x3_reduce
I0403 15:46:20.674916 14372 net.cpp:425] inception_3b/relu_3x3_reduce <- inception_3b/3x3_reduce
I0403 15:46:20.674937 14372 net.cpp:386] inception_3b/relu_3x3_reduce -> inception_3b/3x3_reduce (in-place)
I0403 15:46:20.675123 14372 net.cpp:141] Setting up inception_3b/relu_3x3_reduce
I0403 15:46:20.675154 14372 net.cpp:148] Top shape: 24 128 28 28 (2408448)
I0403 15:46:20.675170 14372 net.cpp:156] Memory required for data: 696042528
I0403 15:46:20.675185 14372 layer_factory.hpp:77] Creating layer inception_3b/3x3
I0403 15:46:20.675214 14372 net.cpp:91] Creating Layer inception_3b/3x3
I0403 15:46:20.675233 14372 net.cpp:425] inception_3b/3x3 <- inception_3b/3x3_reduce
I0403 15:46:20.675253 14372 net.cpp:399] inception_3b/3x3 -> inception_3b/3x3
I0403 15:46:20.678311 14372 net.cpp:141] Setting up inception_3b/3x3
I0403 15:46:20.678342 14372 net.cpp:148] Top shape: 24 192 28 28 (3612672)
I0403 15:46:20.678359 14372 net.cpp:156] Memory required for data: 710493216
I0403 15:46:20.678377 14372 layer_factory.hpp:77] Creating layer inception_3b/relu_3x3
I0403 15:46:20.678400 14372 net.cpp:91] Creating Layer inception_3b/relu_3x3
I0403 15:46:20.678418 14372 net.cpp:425] inception_3b/relu_3x3 <- inception_3b/3x3
I0403 15:46:20.678437 14372 net.cpp:386] inception_3b/relu_3x3 -> inception_3b/3x3 (in-place)
I0403 15:46:20.678727 14372 net.cpp:141] Setting up inception_3b/relu_3x3
I0403 15:46:20.678756 14372 net.cpp:148] Top shape: 24 192 28 28 (3612672)
I0403 15:46:20.678772 14372 net.cpp:156] Memory required for data: 724943904
I0403 15:46:20.678788 14372 layer_factory.hpp:77] Creating layer inception_3b/5x5_reduce
I0403 15:46:20.678812 14372 net.cpp:91] Creating Layer inception_3b/5x5_reduce
I0403 15:46:20.678830 14372 net.cpp:425] inception_3b/5x5_reduce <- inception_3a/output_inception_3a/output_0_split_2
I0403 15:46:20.678854 14372 net.cpp:399] inception_3b/5x5_reduce -> inception_3b/5x5_reduce
I0403 15:46:20.679899 14372 net.cpp:141] Setting up inception_3b/5x5_reduce
I0403 15:46:20.679929 14372 net.cpp:148] Top shape: 24 32 28 28 (602112)
I0403 15:46:20.679946 14372 net.cpp:156] Memory required for data: 727352352
I0403 15:46:20.679965 14372 layer_factory.hpp:77] Creating layer inception_3b/relu_5x5_reduce
I0403 15:46:20.679986 14372 net.cpp:91] Creating Layer inception_3b/relu_5x5_reduce
I0403 15:46:20.680006 14372 net.cpp:425] inception_3b/relu_5x5_reduce <- inception_3b/5x5_reduce
I0403 15:46:20.680024 14372 net.cpp:386] inception_3b/relu_5x5_reduce -> inception_3b/5x5_reduce (in-place)
I0403 15:46:20.680214 14372 net.cpp:141] Setting up inception_3b/relu_5x5_reduce
I0403 15:46:20.680254 14372 net.cpp:148] Top shape: 24 32 28 28 (602112)
I0403 15:46:20.680270 14372 net.cpp:156] Memory required for data: 729760800
I0403 15:46:20.680286 14372 layer_factory.hpp:77] Creating layer inception_3b/5x5
I0403 15:46:20.680310 14372 net.cpp:91] Creating Layer inception_3b/5x5
I0403 15:46:20.680328 14372 net.cpp:425] inception_3b/5x5 <- inception_3b/5x5_reduce
I0403 15:46:20.680347 14372 net.cpp:399] inception_3b/5x5 -> inception_3b/5x5
I0403 15:46:20.682340 14372 net.cpp:141] Setting up inception_3b/5x5
I0403 15:46:20.682371 14372 net.cpp:148] Top shape: 24 96 28 28 (1806336)
I0403 15:46:20.682389 14372 net.cpp:156] Memory required for data: 736986144
I0403 15:46:20.682406 14372 layer_factory.hpp:77] Creating layer inception_3b/relu_5x5
I0403 15:46:20.682422 14372 net.cpp:91] Creating Layer inception_3b/relu_5x5
I0403 15:46:20.682437 14372 net.cpp:425] inception_3b/relu_5x5 <- inception_3b/5x5
I0403 15:46:20.682456 14372 net.cpp:386] inception_3b/relu_5x5 -> inception_3b/5x5 (in-place)
I0403 15:46:20.682644 14372 net.cpp:141] Setting up inception_3b/relu_5x5
I0403 15:46:20.682669 14372 net.cpp:148] Top shape: 24 96 28 28 (1806336)
I0403 15:46:20.682684 14372 net.cpp:156] Memory required for data: 744211488
I0403 15:46:20.682699 14372 layer_factory.hpp:77] Creating layer inception_3b/pool
I0403 15:46:20.682718 14372 net.cpp:91] Creating Layer inception_3b/pool
I0403 15:46:20.682734 14372 net.cpp:425] inception_3b/pool <- inception_3a/output_inception_3a/output_0_split_3
I0403 15:46:20.682750 14372 net.cpp:399] inception_3b/pool -> inception_3b/pool
I0403 15:46:20.682807 14372 net.cpp:141] Setting up inception_3b/pool
I0403 15:46:20.682832 14372 net.cpp:148] Top shape: 24 256 28 28 (4816896)
I0403 15:46:20.682847 14372 net.cpp:156] Memory required for data: 763479072
I0403 15:46:20.682862 14372 layer_factory.hpp:77] Creating layer inception_3b/pool_proj
I0403 15:46:20.682881 14372 net.cpp:91] Creating Layer inception_3b/pool_proj
I0403 15:46:20.682898 14372 net.cpp:425] inception_3b/pool_proj <- inception_3b/pool
I0403 15:46:20.682919 14372 net.cpp:399] inception_3b/pool_proj -> inception_3b/pool_proj
I0403 15:46:20.683959 14372 net.cpp:141] Setting up inception_3b/pool_proj
I0403 15:46:20.683986 14372 net.cpp:148] Top shape: 24 64 28 28 (1204224)
I0403 15:46:20.684002 14372 net.cpp:156] Memory required for data: 768295968
I0403 15:46:20.684021 14372 layer_factory.hpp:77] Creating layer inception_3b/relu_pool_proj
I0403 15:46:20.684041 14372 net.cpp:91] Creating Layer inception_3b/relu_pool_proj
I0403 15:46:20.684057 14372 net.cpp:425] inception_3b/relu_pool_proj <- inception_3b/pool_proj
I0403 15:46:20.684075 14372 net.cpp:386] inception_3b/relu_pool_proj -> inception_3b/pool_proj (in-place)
I0403 15:46:20.684485 14372 net.cpp:141] Setting up inception_3b/relu_pool_proj
I0403 15:46:20.684525 14372 net.cpp:148] Top shape: 24 64 28 28 (1204224)
I0403 15:46:20.684538 14372 net.cpp:156] Memory required for data: 773112864
I0403 15:46:20.684553 14372 layer_factory.hpp:77] Creating layer inception_3b/output
I0403 15:46:20.684572 14372 net.cpp:91] Creating Layer inception_3b/output
I0403 15:46:20.684588 14372 net.cpp:425] inception_3b/output <- inception_3b/1x1
I0403 15:46:20.684604 14372 net.cpp:425] inception_3b/output <- inception_3b/3x3
I0403 15:46:20.684622 14372 net.cpp:425] inception_3b/output <- inception_3b/5x5
I0403 15:46:20.684636 14372 net.cpp:425] inception_3b/output <- inception_3b/pool_proj
I0403 15:46:20.684653 14372 net.cpp:399] inception_3b/output -> inception_3b/output
I0403 15:46:20.684696 14372 net.cpp:141] Setting up inception_3b/output
I0403 15:46:20.684720 14372 net.cpp:148] Top shape: 24 480 28 28 (9031680)
I0403 15:46:20.684734 14372 net.cpp:156] Memory required for data: 809239584
I0403 15:46:20.684748 14372 layer_factory.hpp:77] Creating layer pool3/3x3_s2
I0403 15:46:20.684765 14372 net.cpp:91] Creating Layer pool3/3x3_s2
I0403 15:46:20.684780 14372 net.cpp:425] pool3/3x3_s2 <- inception_3b/output
I0403 15:46:20.684803 14372 net.cpp:399] pool3/3x3_s2 -> pool3/3x3_s2
I0403 15:46:20.684876 14372 net.cpp:141] Setting up pool3/3x3_s2
I0403 15:46:20.684900 14372 net.cpp:148] Top shape: 24 480 14 14 (2257920)
I0403 15:46:20.684914 14372 net.cpp:156] Memory required for data: 818271264
I0403 15:46:20.684928 14372 layer_factory.hpp:77] Creating layer pool3/3x3_s2_pool3/3x3_s2_0_split
I0403 15:46:20.684945 14372 net.cpp:91] Creating Layer pool3/3x3_s2_pool3/3x3_s2_0_split
I0403 15:46:20.684959 14372 net.cpp:425] pool3/3x3_s2_pool3/3x3_s2_0_split <- pool3/3x3_s2
I0403 15:46:20.684978 14372 net.cpp:399] pool3/3x3_s2_pool3/3x3_s2_0_split -> pool3/3x3_s2_pool3/3x3_s2_0_split_0
I0403 15:46:20.684998 14372 net.cpp:399] pool3/3x3_s2_pool3/3x3_s2_0_split -> pool3/3x3_s2_pool3/3x3_s2_0_split_1
I0403 15:46:20.685019 14372 net.cpp:399] pool3/3x3_s2_pool3/3x3_s2_0_split -> pool3/3x3_s2_pool3/3x3_s2_0_split_2
I0403 15:46:20.685039 14372 net.cpp:399] pool3/3x3_s2_pool3/3x3_s2_0_split -> pool3/3x3_s2_pool3/3x3_s2_0_split_3
I0403 15:46:20.685113 14372 net.cpp:141] Setting up pool3/3x3_s2_pool3/3x3_s2_0_split
I0403 15:46:20.685142 14372 net.cpp:148] Top shape: 24 480 14 14 (2257920)
I0403 15:46:20.685159 14372 net.cpp:148] Top shape: 24 480 14 14 (2257920)
I0403 15:46:20.685173 14372 net.cpp:148] Top shape: 24 480 14 14 (2257920)
I0403 15:46:20.685189 14372 net.cpp:148] Top shape: 24 480 14 14 (2257920)
I0403 15:46:20.685202 14372 net.cpp:156] Memory required for data: 854397984
I0403 15:46:20.685216 14372 layer_factory.hpp:77] Creating layer inception_4a/1x1
I0403 15:46:20.685240 14372 net.cpp:91] Creating Layer inception_4a/1x1
I0403 15:46:20.685257 14372 net.cpp:425] inception_4a/1x1 <- pool3/3x3_s2_pool3/3x3_s2_0_split_0
I0403 15:46:20.685276 14372 net.cpp:399] inception_4a/1x1 -> inception_4a/1x1
I0403 15:46:20.686794 14372 net.cpp:141] Setting up inception_4a/1x1
I0403 15:46:20.686823 14372 net.cpp:148] Top shape: 24 192 14 14 (903168)
I0403 15:46:20.686841 14372 net.cpp:156] Memory required for data: 858010656
I0403 15:46:20.686857 14372 layer_factory.hpp:77] Creating layer inception_4a/relu_1x1
I0403 15:46:20.686875 14372 net.cpp:91] Creating Layer inception_4a/relu_1x1
I0403 15:46:20.686892 14372 net.cpp:425] inception_4a/relu_1x1 <- inception_4a/1x1
I0403 15:46:20.686910 14372 net.cpp:386] inception_4a/relu_1x1 -> inception_4a/1x1 (in-place)
I0403 15:46:20.687083 14372 net.cpp:141] Setting up inception_4a/relu_1x1
I0403 15:46:20.687108 14372 net.cpp:148] Top shape: 24 192 14 14 (903168)
I0403 15:46:20.687122 14372 net.cpp:156] Memory required for data: 861623328
I0403 15:46:20.687155 14372 layer_factory.hpp:77] Creating layer inception_4a/3x3_reduce
I0403 15:46:20.687177 14372 net.cpp:91] Creating Layer inception_4a/3x3_reduce
I0403 15:46:20.687196 14372 net.cpp:425] inception_4a/3x3_reduce <- pool3/3x3_s2_pool3/3x3_s2_0_split_1
I0403 15:46:20.687216 14372 net.cpp:399] inception_4a/3x3_reduce -> inception_4a/3x3_reduce
I0403 15:46:20.688474 14372 net.cpp:141] Setting up inception_4a/3x3_reduce
I0403 15:46:20.688503 14372 net.cpp:148] Top shape: 24 96 14 14 (451584)
I0403 15:46:20.688520 14372 net.cpp:156] Memory required for data: 863429664
I0403 15:46:20.688542 14372 layer_factory.hpp:77] Creating layer inception_4a/relu_3x3_reduce
I0403 15:46:20.688563 14372 net.cpp:91] Creating Layer inception_4a/relu_3x3_reduce
I0403 15:46:20.688580 14372 net.cpp:425] inception_4a/relu_3x3_reduce <- inception_4a/3x3_reduce
I0403 15:46:20.688596 14372 net.cpp:386] inception_4a/relu_3x3_reduce -> inception_4a/3x3_reduce (in-place)
I0403 15:46:20.688772 14372 net.cpp:141] Setting up inception_4a/relu_3x3_reduce
I0403 15:46:20.688796 14372 net.cpp:148] Top shape: 24 96 14 14 (451584)
I0403 15:46:20.688812 14372 net.cpp:156] Memory required for data: 865236000
I0403 15:46:20.688825 14372 layer_factory.hpp:77] Creating layer inception_4a/3x3
I0403 15:46:20.688848 14372 net.cpp:91] Creating Layer inception_4a/3x3
I0403 15:46:20.688863 14372 net.cpp:425] inception_4a/3x3 <- inception_4a/3x3_reduce
I0403 15:46:20.688884 14372 net.cpp:399] inception_4a/3x3 -> inception_4a/3x3
I0403 15:46:20.691499 14372 net.cpp:141] Setting up inception_4a/3x3
I0403 15:46:20.691527 14372 net.cpp:148] Top shape: 24 208 14 14 (978432)
I0403 15:46:20.691543 14372 net.cpp:156] Memory required for data: 869149728
I0403 15:46:20.691561 14372 layer_factory.hpp:77] Creating layer inception_4a/relu_3x3
I0403 15:46:20.691578 14372 net.cpp:91] Creating Layer inception_4a/relu_3x3
I0403 15:46:20.691593 14372 net.cpp:425] inception_4a/relu_3x3 <- inception_4a/3x3
I0403 15:46:20.691613 14372 net.cpp:386] inception_4a/relu_3x3 -> inception_4a/3x3 (in-place)
I0403 15:46:20.691884 14372 net.cpp:141] Setting up inception_4a/relu_3x3
I0403 15:46:20.691910 14372 net.cpp:148] Top shape: 24 208 14 14 (978432)
I0403 15:46:20.691926 14372 net.cpp:156] Memory required for data: 873063456
I0403 15:46:20.691939 14372 layer_factory.hpp:77] Creating layer inception_4a/5x5_reduce
I0403 15:46:20.691962 14372 net.cpp:91] Creating Layer inception_4a/5x5_reduce
I0403 15:46:20.691979 14372 net.cpp:425] inception_4a/5x5_reduce <- pool3/3x3_s2_pool3/3x3_s2_0_split_2
I0403 15:46:20.691999 14372 net.cpp:399] inception_4a/5x5_reduce -> inception_4a/5x5_reduce
I0403 15:46:20.692993 14372 net.cpp:141] Setting up inception_4a/5x5_reduce
I0403 15:46:20.693020 14372 net.cpp:148] Top shape: 24 16 14 14 (75264)
I0403 15:46:20.693037 14372 net.cpp:156] Memory required for data: 873364512
I0403 15:46:20.693056 14372 layer_factory.hpp:77] Creating layer inception_4a/relu_5x5_reduce
I0403 15:46:20.693076 14372 net.cpp:91] Creating Layer inception_4a/relu_5x5_reduce
I0403 15:46:20.693094 14372 net.cpp:425] inception_4a/relu_5x5_reduce <- inception_4a/5x5_reduce
I0403 15:46:20.693109 14372 net.cpp:386] inception_4a/relu_5x5_reduce -> inception_4a/5x5_reduce (in-place)
I0403 15:46:20.693291 14372 net.cpp:141] Setting up inception_4a/relu_5x5_reduce
I0403 15:46:20.693316 14372 net.cpp:148] Top shape: 24 16 14 14 (75264)
I0403 15:46:20.693331 14372 net.cpp:156] Memory required for data: 873665568
I0403 15:46:20.693346 14372 layer_factory.hpp:77] Creating layer inception_4a/5x5
I0403 15:46:20.693369 14372 net.cpp:91] Creating Layer inception_4a/5x5
I0403 15:46:20.693387 14372 net.cpp:425] inception_4a/5x5 <- inception_4a/5x5_reduce
I0403 15:46:20.693404 14372 net.cpp:399] inception_4a/5x5 -> inception_4a/5x5
I0403 15:46:20.694496 14372 net.cpp:141] Setting up inception_4a/5x5
I0403 15:46:20.694537 14372 net.cpp:148] Top shape: 24 48 14 14 (225792)
I0403 15:46:20.694556 14372 net.cpp:156] Memory required for data: 874568736
I0403 15:46:20.694574 14372 layer_factory.hpp:77] Creating layer inception_4a/relu_5x5
I0403 15:46:20.694593 14372 net.cpp:91] Creating Layer inception_4a/relu_5x5
I0403 15:46:20.694608 14372 net.cpp:425] inception_4a/relu_5x5 <- inception_4a/5x5
I0403 15:46:20.694625 14372 net.cpp:386] inception_4a/relu_5x5 -> inception_4a/5x5 (in-place)
I0403 15:46:20.694818 14372 net.cpp:141] Setting up inception_4a/relu_5x5
I0403 15:46:20.694849 14372 net.cpp:148] Top shape: 24 48 14 14 (225792)
I0403 15:46:20.694865 14372 net.cpp:156] Memory required for data: 875471904
I0403 15:46:20.694880 14372 layer_factory.hpp:77] Creating layer inception_4a/pool
I0403 15:46:20.694898 14372 net.cpp:91] Creating Layer inception_4a/pool
I0403 15:46:20.694916 14372 net.cpp:425] inception_4a/pool <- pool3/3x3_s2_pool3/3x3_s2_0_split_3
I0403 15:46:20.694936 14372 net.cpp:399] inception_4a/pool -> inception_4a/pool
I0403 15:46:20.694998 14372 net.cpp:141] Setting up inception_4a/pool
I0403 15:46:20.695026 14372 net.cpp:148] Top shape: 24 480 14 14 (2257920)
I0403 15:46:20.695042 14372 net.cpp:156] Memory required for data: 884503584
I0403 15:46:20.695057 14372 layer_factory.hpp:77] Creating layer inception_4a/pool_proj
I0403 15:46:20.695082 14372 net.cpp:91] Creating Layer inception_4a/pool_proj
I0403 15:46:20.695101 14372 net.cpp:425] inception_4a/pool_proj <- inception_4a/pool
I0403 15:46:20.695138 14372 net.cpp:399] inception_4a/pool_proj -> inception_4a/pool_proj
I0403 15:46:20.696308 14372 net.cpp:141] Setting up inception_4a/pool_proj
I0403 15:46:20.696342 14372 net.cpp:148] Top shape: 24 64 14 14 (301056)
I0403 15:46:20.696373 14372 net.cpp:156] Memory required for data: 885707808
I0403 15:46:20.696393 14372 layer_factory.hpp:77] Creating layer inception_4a/relu_pool_proj
I0403 15:46:20.696413 14372 net.cpp:91] Creating Layer inception_4a/relu_pool_proj
I0403 15:46:20.696429 14372 net.cpp:425] inception_4a/relu_pool_proj <- inception_4a/pool_proj
I0403 15:46:20.696447 14372 net.cpp:386] inception_4a/relu_pool_proj -> inception_4a/pool_proj (in-place)
I0403 15:46:20.696733 14372 net.cpp:141] Setting up inception_4a/relu_pool_proj
I0403 15:46:20.696763 14372 net.cpp:148] Top shape: 24 64 14 14 (301056)
I0403 15:46:20.696779 14372 net.cpp:156] Memory required for data: 886912032
I0403 15:46:20.696794 14372 layer_factory.hpp:77] Creating layer inception_4a/output
I0403 15:46:20.696811 14372 net.cpp:91] Creating Layer inception_4a/output
I0403 15:46:20.696827 14372 net.cpp:425] inception_4a/output <- inception_4a/1x1
I0403 15:46:20.696843 14372 net.cpp:425] inception_4a/output <- inception_4a/3x3
I0403 15:46:20.696861 14372 net.cpp:425] inception_4a/output <- inception_4a/5x5
I0403 15:46:20.696877 14372 net.cpp:425] inception_4a/output <- inception_4a/pool_proj
I0403 15:46:20.696892 14372 net.cpp:399] inception_4a/output -> inception_4a/output
I0403 15:46:20.696938 14372 net.cpp:141] Setting up inception_4a/output
I0403 15:46:20.696964 14372 net.cpp:148] Top shape: 24 512 14 14 (2408448)
I0403 15:46:20.696977 14372 net.cpp:156] Memory required for data: 896545824
I0403 15:46:20.696992 14372 layer_factory.hpp:77] Creating layer inception_4a/output_inception_4a/output_0_split
I0403 15:46:20.697011 14372 net.cpp:91] Creating Layer inception_4a/output_inception_4a/output_0_split
I0403 15:46:20.697028 14372 net.cpp:425] inception_4a/output_inception_4a/output_0_split <- inception_4a/output
I0403 15:46:20.697046 14372 net.cpp:399] inception_4a/output_inception_4a/output_0_split -> inception_4a/output_inception_4a/output_0_split_0
I0403 15:46:20.697067 14372 net.cpp:399] inception_4a/output_inception_4a/output_0_split -> inception_4a/output_inception_4a/output_0_split_1
I0403 15:46:20.697088 14372 net.cpp:399] inception_4a/output_inception_4a/output_0_split -> inception_4a/output_inception_4a/output_0_split_2
I0403 15:46:20.697110 14372 net.cpp:399] inception_4a/output_inception_4a/output_0_split -> inception_4a/output_inception_4a/output_0_split_3
I0403 15:46:20.697135 14372 net.cpp:399] inception_4a/output_inception_4a/output_0_split -> inception_4a/output_inception_4a/output_0_split_4
I0403 15:46:20.697229 14372 net.cpp:141] Setting up inception_4a/output_inception_4a/output_0_split
I0403 15:46:20.697253 14372 net.cpp:148] Top shape: 24 512 14 14 (2408448)
I0403 15:46:20.697270 14372 net.cpp:148] Top shape: 24 512 14 14 (2408448)
I0403 15:46:20.697285 14372 net.cpp:148] Top shape: 24 512 14 14 (2408448)
I0403 15:46:20.697300 14372 net.cpp:148] Top shape: 24 512 14 14 (2408448)
I0403 15:46:20.697315 14372 net.cpp:148] Top shape: 24 512 14 14 (2408448)
I0403 15:46:20.697329 14372 net.cpp:156] Memory required for data: 944714784
I0403 15:46:20.697343 14372 layer_factory.hpp:77] Creating layer loss1/ave_pool
I0403 15:46:20.697365 14372 net.cpp:91] Creating Layer loss1/ave_pool
I0403 15:46:20.697381 14372 net.cpp:425] loss1/ave_pool <- inception_4a/output_inception_4a/output_0_split_0
I0403 15:46:20.697398 14372 net.cpp:399] loss1/ave_pool -> loss1/ave_pool
I0403 15:46:20.697602 14372 net.cpp:141] Setting up loss1/ave_pool
I0403 15:46:20.697631 14372 net.cpp:148] Top shape: 24 512 4 4 (196608)
I0403 15:46:20.697648 14372 net.cpp:156] Memory required for data: 945501216
I0403 15:46:20.697661 14372 layer_factory.hpp:77] Creating layer loss1/conv
I0403 15:46:20.697684 14372 net.cpp:91] Creating Layer loss1/conv
I0403 15:46:20.697701 14372 net.cpp:425] loss1/conv <- loss1/ave_pool
I0403 15:46:20.697720 14372 net.cpp:399] loss1/conv -> loss1/conv
I0403 15:46:20.699133 14372 net.cpp:141] Setting up loss1/conv
I0403 15:46:20.699162 14372 net.cpp:148] Top shape: 24 128 4 4 (49152)
I0403 15:46:20.699178 14372 net.cpp:156] Memory required for data: 945697824
I0403 15:46:20.699213 14372 layer_factory.hpp:77] Creating layer loss1/relu_conv
I0403 15:46:20.699236 14372 net.cpp:91] Creating Layer loss1/relu_conv
I0403 15:46:20.699254 14372 net.cpp:425] loss1/relu_conv <- loss1/conv
I0403 15:46:20.699271 14372 net.cpp:386] loss1/relu_conv -> loss1/conv (in-place)
I0403 15:46:20.699556 14372 net.cpp:141] Setting up loss1/relu_conv
I0403 15:46:20.699584 14372 net.cpp:148] Top shape: 24 128 4 4 (49152)
I0403 15:46:20.699599 14372 net.cpp:156] Memory required for data: 945894432
I0403 15:46:20.699615 14372 layer_factory.hpp:77] Creating layer loss1/fc
I0403 15:46:20.699637 14372 net.cpp:91] Creating Layer loss1/fc
I0403 15:46:20.699659 14372 net.cpp:425] loss1/fc <- loss1/conv
I0403 15:46:20.699677 14372 net.cpp:399] loss1/fc -> loss1/fc
I0403 15:46:20.717324 14372 net.cpp:141] Setting up loss1/fc
I0403 15:46:20.717360 14372 net.cpp:148] Top shape: 24 1024 (24576)
I0403 15:46:20.717375 14372 net.cpp:156] Memory required for data: 945992736
I0403 15:46:20.717404 14372 layer_factory.hpp:77] Creating layer loss1/relu_fc
I0403 15:46:20.717425 14372 net.cpp:91] Creating Layer loss1/relu_fc
I0403 15:46:20.717443 14372 net.cpp:425] loss1/relu_fc <- loss1/fc
I0403 15:46:20.717461 14372 net.cpp:386] loss1/relu_fc -> loss1/fc (in-place)
I0403 15:46:20.717651 14372 net.cpp:141] Setting up loss1/relu_fc
I0403 15:46:20.717689 14372 net.cpp:148] Top shape: 24 1024 (24576)
I0403 15:46:20.717703 14372 net.cpp:156] Memory required for data: 946091040
I0403 15:46:20.717717 14372 layer_factory.hpp:77] Creating layer loss1/drop_fc
I0403 15:46:20.717743 14372 net.cpp:91] Creating Layer loss1/drop_fc
I0403 15:46:20.717761 14372 net.cpp:425] loss1/drop_fc <- loss1/fc
I0403 15:46:20.717782 14372 net.cpp:386] loss1/drop_fc -> loss1/fc (in-place)
I0403 15:46:20.717831 14372 net.cpp:141] Setting up loss1/drop_fc
I0403 15:46:20.717854 14372 net.cpp:148] Top shape: 24 1024 (24576)
I0403 15:46:20.717869 14372 net.cpp:156] Memory required for data: 946189344
I0403 15:46:20.717882 14372 layer_factory.hpp:77] Creating layer loss1/classifier_plantvillage
I0403 15:46:20.717905 14372 net.cpp:91] Creating Layer loss1/classifier_plantvillage
I0403 15:46:20.717921 14372 net.cpp:425] loss1/classifier_plantvillage <- loss1/fc
I0403 15:46:20.717941 14372 net.cpp:399] loss1/classifier_plantvillage -> loss1/classifier_plantvillage
I0403 15:46:20.718825 14372 net.cpp:141] Setting up loss1/classifier_plantvillage
I0403 15:46:20.718854 14372 net.cpp:148] Top shape: 24 38 (912)
I0403 15:46:20.718870 14372 net.cpp:156] Memory required for data: 946192992
I0403 15:46:20.718888 14372 layer_factory.hpp:77] Creating layer loss1/classifier_plantvillage_loss1/classifier_plantvillage_0_split
I0403 15:46:20.718905 14372 net.cpp:91] Creating Layer loss1/classifier_plantvillage_loss1/classifier_plantvillage_0_split
I0403 15:46:20.718920 14372 net.cpp:425] loss1/classifier_plantvillage_loss1/classifier_plantvillage_0_split <- loss1/classifier_plantvillage
I0403 15:46:20.718940 14372 net.cpp:399] loss1/classifier_plantvillage_loss1/classifier_plantvillage_0_split -> loss1/classifier_plantvillage_loss1/classifier_plantvillage_0_split_0
I0403 15:46:20.718961 14372 net.cpp:399] loss1/classifier_plantvillage_loss1/classifier_plantvillage_0_split -> loss1/classifier_plantvillage_loss1/classifier_plantvillage_0_split_1
I0403 15:46:20.718981 14372 net.cpp:399] loss1/classifier_plantvillage_loss1/classifier_plantvillage_0_split -> loss1/classifier_plantvillage_loss1/classifier_plantvillage_0_split_2
I0403 15:46:20.719044 14372 net.cpp:141] Setting up loss1/classifier_plantvillage_loss1/classifier_plantvillage_0_split
I0403 15:46:20.719068 14372 net.cpp:148] Top shape: 24 38 (912)
I0403 15:46:20.719084 14372 net.cpp:148] Top shape: 24 38 (912)
I0403 15:46:20.719099 14372 net.cpp:148] Top shape: 24 38 (912)
I0403 15:46:20.719112 14372 net.cpp:156] Memory required for data: 946203936
I0403 15:46:20.719130 14372 layer_factory.hpp:77] Creating layer inception_4b/1x1
I0403 15:46:20.719153 14372 net.cpp:91] Creating Layer inception_4b/1x1
I0403 15:46:20.719187 14372 net.cpp:425] inception_4b/1x1 <- inception_4a/output_inception_4a/output_0_split_1
I0403 15:46:20.719207 14372 net.cpp:399] inception_4b/1x1 -> inception_4b/1x1
I0403 15:46:20.720837 14372 net.cpp:141] Setting up inception_4b/1x1
I0403 15:46:20.720866 14372 net.cpp:148] Top shape: 24 160 14 14 (752640)
I0403 15:46:20.720880 14372 net.cpp:156] Memory required for data: 949214496
I0403 15:46:20.720898 14372 layer_factory.hpp:77] Creating layer inception_4b/relu_1x1
I0403 15:46:20.720917 14372 net.cpp:91] Creating Layer inception_4b/relu_1x1
I0403 15:46:20.720934 14372 net.cpp:425] inception_4b/relu_1x1 <- inception_4b/1x1
I0403 15:46:20.720952 14372 net.cpp:386] inception_4b/relu_1x1 -> inception_4b/1x1 (in-place)
I0403 15:46:20.721132 14372 net.cpp:141] Setting up inception_4b/relu_1x1
I0403 15:46:20.721156 14372 net.cpp:148] Top shape: 24 160 14 14 (752640)
I0403 15:46:20.721170 14372 net.cpp:156] Memory required for data: 952225056
I0403 15:46:20.721184 14372 layer_factory.hpp:77] Creating layer inception_4b/3x3_reduce
I0403 15:46:20.721205 14372 net.cpp:91] Creating Layer inception_4b/3x3_reduce
I0403 15:46:20.721225 14372 net.cpp:425] inception_4b/3x3_reduce <- inception_4a/output_inception_4a/output_0_split_2
I0403 15:46:20.721242 14372 net.cpp:399] inception_4b/3x3_reduce -> inception_4b/3x3_reduce
I0403 15:46:20.722595 14372 net.cpp:141] Setting up inception_4b/3x3_reduce
I0403 15:46:20.722623 14372 net.cpp:148] Top shape: 24 112 14 14 (526848)
I0403 15:46:20.722637 14372 net.cpp:156] Memory required for data: 954332448
I0403 15:46:20.722656 14372 layer_factory.hpp:77] Creating layer inception_4b/relu_3x3_reduce
I0403 15:46:20.722674 14372 net.cpp:91] Creating Layer inception_4b/relu_3x3_reduce
I0403 15:46:20.722692 14372 net.cpp:425] inception_4b/relu_3x3_reduce <- inception_4b/3x3_reduce
I0403 15:46:20.722710 14372 net.cpp:386] inception_4b/relu_3x3_reduce -> inception_4b/3x3_reduce (in-place)
I0403 15:46:20.722988 14372 net.cpp:141] Setting up inception_4b/relu_3x3_reduce
I0403 15:46:20.723014 14372 net.cpp:148] Top shape: 24 112 14 14 (526848)
I0403 15:46:20.723028 14372 net.cpp:156] Memory required for data: 956439840
I0403 15:46:20.723043 14372 layer_factory.hpp:77] Creating layer inception_4b/3x3
I0403 15:46:20.723065 14372 net.cpp:91] Creating Layer inception_4b/3x3
I0403 15:46:20.723083 14372 net.cpp:425] inception_4b/3x3 <- inception_4b/3x3_reduce
I0403 15:46:20.723104 14372 net.cpp:399] inception_4b/3x3 -> inception_4b/3x3
I0403 15:46:20.726027 14372 net.cpp:141] Setting up inception_4b/3x3
I0403 15:46:20.726058 14372 net.cpp:148] Top shape: 24 224 14 14 (1053696)
I0403 15:46:20.726075 14372 net.cpp:156] Memory required for data: 960654624
I0403 15:46:20.726094 14372 layer_factory.hpp:77] Creating layer inception_4b/relu_3x3
I0403 15:46:20.726111 14372 net.cpp:91] Creating Layer inception_4b/relu_3x3
I0403 15:46:20.726132 14372 net.cpp:425] inception_4b/relu_3x3 <- inception_4b/3x3
I0403 15:46:20.726153 14372 net.cpp:386] inception_4b/relu_3x3 -> inception_4b/3x3 (in-place)
I0403 15:46:20.726336 14372 net.cpp:141] Setting up inception_4b/relu_3x3
I0403 15:46:20.726361 14372 net.cpp:148] Top shape: 24 224 14 14 (1053696)
I0403 15:46:20.726375 14372 net.cpp:156] Memory required for data: 964869408
I0403 15:46:20.726402 14372 layer_factory.hpp:77] Creating layer inception_4b/5x5_reduce
I0403 15:46:20.726423 14372 net.cpp:91] Creating Layer inception_4b/5x5_reduce
I0403 15:46:20.726441 14372 net.cpp:425] inception_4b/5x5_reduce <- inception_4a/output_inception_4a/output_0_split_3
I0403 15:46:20.726464 14372 net.cpp:399] inception_4b/5x5_reduce -> inception_4b/5x5_reduce
I0403 15:46:20.727560 14372 net.cpp:141] Setting up inception_4b/5x5_reduce
I0403 15:46:20.727587 14372 net.cpp:148] Top shape: 24 24 14 14 (112896)
I0403 15:46:20.727602 14372 net.cpp:156] Memory required for data: 965320992
I0403 15:46:20.727620 14372 layer_factory.hpp:77] Creating layer inception_4b/relu_5x5_reduce
I0403 15:46:20.727639 14372 net.cpp:91] Creating Layer inception_4b/relu_5x5_reduce
I0403 15:46:20.727669 14372 net.cpp:425] inception_4b/relu_5x5_reduce <- inception_4b/5x5_reduce
I0403 15:46:20.727687 14372 net.cpp:386] inception_4b/relu_5x5_reduce -> inception_4b/5x5_reduce (in-place)
I0403 15:46:20.727867 14372 net.cpp:141] Setting up inception_4b/relu_5x5_reduce
I0403 15:46:20.727895 14372 net.cpp:148] Top shape: 24 24 14 14 (112896)
I0403 15:46:20.727910 14372 net.cpp:156] Memory required for data: 965772576
I0403 15:46:20.727926 14372 layer_factory.hpp:77] Creating layer inception_4b/5x5
I0403 15:46:20.727943 14372 net.cpp:91] Creating Layer inception_4b/5x5
I0403 15:46:20.727962 14372 net.cpp:425] inception_4b/5x5 <- inception_4b/5x5_reduce
I0403 15:46:20.727982 14372 net.cpp:399] inception_4b/5x5 -> inception_4b/5x5
I0403 15:46:20.729197 14372 net.cpp:141] Setting up inception_4b/5x5
I0403 15:46:20.729224 14372 net.cpp:148] Top shape: 24 64 14 14 (301056)
I0403 15:46:20.729240 14372 net.cpp:156] Memory required for data: 966976800
I0403 15:46:20.729259 14372 layer_factory.hpp:77] Creating layer inception_4b/relu_5x5
I0403 15:46:20.729277 14372 net.cpp:91] Creating Layer inception_4b/relu_5x5
I0403 15:46:20.729293 14372 net.cpp:425] inception_4b/relu_5x5 <- inception_4b/5x5
I0403 15:46:20.729310 14372 net.cpp:386] inception_4b/relu_5x5 -> inception_4b/5x5 (in-place)
I0403 15:46:20.729609 14372 net.cpp:141] Setting up inception_4b/relu_5x5
I0403 15:46:20.729636 14372 net.cpp:148] Top shape: 24 64 14 14 (301056)
I0403 15:46:20.729651 14372 net.cpp:156] Memory required for data: 968181024
I0403 15:46:20.729678 14372 layer_factory.hpp:77] Creating layer inception_4b/pool
I0403 15:46:20.729696 14372 net.cpp:91] Creating Layer inception_4b/pool
I0403 15:46:20.729712 14372 net.cpp:425] inception_4b/pool <- inception_4a/output_inception_4a/output_0_split_4
I0403 15:46:20.729732 14372 net.cpp:399] inception_4b/pool -> inception_4b/pool
I0403 15:46:20.729795 14372 net.cpp:141] Setting up inception_4b/pool
I0403 15:46:20.729820 14372 net.cpp:148] Top shape: 24 512 14 14 (2408448)
I0403 15:46:20.729833 14372 net.cpp:156] Memory required for data: 977814816
I0403 15:46:20.729847 14372 layer_factory.hpp:77] Creating layer inception_4b/pool_proj
I0403 15:46:20.729867 14372 net.cpp:91] Creating Layer inception_4b/pool_proj
I0403 15:46:20.729885 14372 net.cpp:425] inception_4b/pool_proj <- inception_4b/pool
I0403 15:46:20.729907 14372 net.cpp:399] inception_4b/pool_proj -> inception_4b/pool_proj
I0403 15:46:20.731108 14372 net.cpp:141] Setting up inception_4b/pool_proj
I0403 15:46:20.731142 14372 net.cpp:148] Top shape: 24 64 14 14 (301056)
I0403 15:46:20.731158 14372 net.cpp:156] Memory required for data: 979019040
I0403 15:46:20.731175 14372 layer_factory.hpp:77] Creating layer inception_4b/relu_pool_proj
I0403 15:46:20.731196 14372 net.cpp:91] Creating Layer inception_4b/relu_pool_proj
I0403 15:46:20.731214 14372 net.cpp:425] inception_4b/relu_pool_proj <- inception_4b/pool_proj
I0403 15:46:20.731230 14372 net.cpp:386] inception_4b/relu_pool_proj -> inception_4b/pool_proj (in-place)
I0403 15:46:20.731408 14372 net.cpp:141] Setting up inception_4b/relu_pool_proj
I0403 15:46:20.731432 14372 net.cpp:148] Top shape: 24 64 14 14 (301056)
I0403 15:46:20.731446 14372 net.cpp:156] Memory required for data: 980223264
I0403 15:46:20.731461 14372 layer_factory.hpp:77] Creating layer inception_4b/output
I0403 15:46:20.731479 14372 net.cpp:91] Creating Layer inception_4b/output
I0403 15:46:20.731494 14372 net.cpp:425] inception_4b/output <- inception_4b/1x1
I0403 15:46:20.731510 14372 net.cpp:425] inception_4b/output <- inception_4b/3x3
I0403 15:46:20.731526 14372 net.cpp:425] inception_4b/output <- inception_4b/5x5
I0403 15:46:20.731541 14372 net.cpp:425] inception_4b/output <- inception_4b/pool_proj
I0403 15:46:20.731557 14372 net.cpp:399] inception_4b/output -> inception_4b/output
I0403 15:46:20.731605 14372 net.cpp:141] Setting up inception_4b/output
I0403 15:46:20.731627 14372 net.cpp:148] Top shape: 24 512 14 14 (2408448)
I0403 15:46:20.731642 14372 net.cpp:156] Memory required for data: 989857056
I0403 15:46:20.731669 14372 layer_factory.hpp:77] Creating layer inception_4b/output_inception_4b/output_0_split
I0403 15:46:20.731686 14372 net.cpp:91] Creating Layer inception_4b/output_inception_4b/output_0_split
I0403 15:46:20.731701 14372 net.cpp:425] inception_4b/output_inception_4b/output_0_split <- inception_4b/output
I0403 15:46:20.731720 14372 net.cpp:399] inception_4b/output_inception_4b/output_0_split -> inception_4b/output_inception_4b/output_0_split_0
I0403 15:46:20.731741 14372 net.cpp:399] inception_4b/output_inception_4b/output_0_split -> inception_4b/output_inception_4b/output_0_split_1
I0403 15:46:20.731761 14372 net.cpp:399] inception_4b/output_inception_4b/output_0_split -> inception_4b/output_inception_4b/output_0_split_2
I0403 15:46:20.731782 14372 net.cpp:399] inception_4b/output_inception_4b/output_0_split -> inception_4b/output_inception_4b/output_0_split_3
I0403 15:46:20.731866 14372 net.cpp:141] Setting up inception_4b/output_inception_4b/output_0_split
I0403 15:46:20.731889 14372 net.cpp:148] Top shape: 24 512 14 14 (2408448)
I0403 15:46:20.731905 14372 net.cpp:148] Top shape: 24 512 14 14 (2408448)
I0403 15:46:20.731920 14372 net.cpp:148] Top shape: 24 512 14 14 (2408448)
I0403 15:46:20.731935 14372 net.cpp:148] Top shape: 24 512 14 14 (2408448)
I0403 15:46:20.731948 14372 net.cpp:156] Memory required for data: 1028392224
I0403 15:46:20.731962 14372 layer_factory.hpp:77] Creating layer inception_4c/1x1
I0403 15:46:20.731984 14372 net.cpp:91] Creating Layer inception_4c/1x1
I0403 15:46:20.732000 14372 net.cpp:425] inception_4c/1x1 <- inception_4b/output_inception_4b/output_0_split_0
I0403 15:46:20.732022 14372 net.cpp:399] inception_4c/1x1 -> inception_4c/1x1
I0403 15:46:20.733443 14372 net.cpp:141] Setting up inception_4c/1x1
I0403 15:46:20.733474 14372 net.cpp:148] Top shape: 24 128 14 14 (602112)
I0403 15:46:20.733489 14372 net.cpp:156] Memory required for data: 1030800672
I0403 15:46:20.733507 14372 layer_factory.hpp:77] Creating layer inception_4c/relu_1x1
I0403 15:46:20.733528 14372 net.cpp:91] Creating Layer inception_4c/relu_1x1
I0403 15:46:20.733546 14372 net.cpp:425] inception_4c/relu_1x1 <- inception_4c/1x1
I0403 15:46:20.733562 14372 net.cpp:386] inception_4c/relu_1x1 -> inception_4c/1x1 (in-place)
I0403 15:46:20.733762 14372 net.cpp:141] Setting up inception_4c/relu_1x1
I0403 15:46:20.733786 14372 net.cpp:148] Top shape: 24 128 14 14 (602112)
I0403 15:46:20.733801 14372 net.cpp:156] Memory required for data: 1033209120
I0403 15:46:20.733816 14372 layer_factory.hpp:77] Creating layer inception_4c/3x3_reduce
I0403 15:46:20.733839 14372 net.cpp:91] Creating Layer inception_4c/3x3_reduce
I0403 15:46:20.733855 14372 net.cpp:425] inception_4c/3x3_reduce <- inception_4b/output_inception_4b/output_0_split_1
I0403 15:46:20.733876 14372 net.cpp:399] inception_4c/3x3_reduce -> inception_4c/3x3_reduce
I0403 15:46:20.735796 14372 net.cpp:141] Setting up inception_4c/3x3_reduce
I0403 15:46:20.735826 14372 net.cpp:148] Top shape: 24 128 14 14 (602112)
I0403 15:46:20.735841 14372 net.cpp:156] Memory required for data: 1035617568
I0403 15:46:20.735859 14372 layer_factory.hpp:77] Creating layer inception_4c/relu_3x3_reduce
I0403 15:46:20.735877 14372 net.cpp:91] Creating Layer inception_4c/relu_3x3_reduce
I0403 15:46:20.735893 14372 net.cpp:425] inception_4c/relu_3x3_reduce <- inception_4c/3x3_reduce
I0403 15:46:20.735911 14372 net.cpp:386] inception_4c/relu_3x3_reduce -> inception_4c/3x3_reduce (in-place)
I0403 15:46:20.736197 14372 net.cpp:141] Setting up inception_4c/relu_3x3_reduce
I0403 15:46:20.736224 14372 net.cpp:148] Top shape: 24 128 14 14 (602112)
I0403 15:46:20.736238 14372 net.cpp:156] Memory required for data: 1038026016
I0403 15:46:20.736253 14372 layer_factory.hpp:77] Creating layer inception_4c/3x3
I0403 15:46:20.736275 14372 net.cpp:91] Creating Layer inception_4c/3x3
I0403 15:46:20.736294 14372 net.cpp:425] inception_4c/3x3 <- inception_4c/3x3_reduce
I0403 15:46:20.736315 14372 net.cpp:399] inception_4c/3x3 -> inception_4c/3x3
I0403 15:46:20.739909 14372 net.cpp:141] Setting up inception_4c/3x3
I0403 15:46:20.739950 14372 net.cpp:148] Top shape: 24 256 14 14 (1204224)
I0403 15:46:20.739967 14372 net.cpp:156] Memory required for data: 1042842912
I0403 15:46:20.740000 14372 layer_factory.hpp:77] Creating layer inception_4c/relu_3x3
I0403 15:46:20.740022 14372 net.cpp:91] Creating Layer inception_4c/relu_3x3
I0403 15:46:20.740039 14372 net.cpp:425] inception_4c/relu_3x3 <- inception_4c/3x3
I0403 15:46:20.740056 14372 net.cpp:386] inception_4c/relu_3x3 -> inception_4c/3x3 (in-place)
I0403 15:46:20.740243 14372 net.cpp:141] Setting up inception_4c/relu_3x3
I0403 15:46:20.740267 14372 net.cpp:148] Top shape: 24 256 14 14 (1204224)
I0403 15:46:20.740281 14372 net.cpp:156] Memory required for data: 1047659808
I0403 15:46:20.740295 14372 layer_factory.hpp:77] Creating layer inception_4c/5x5_reduce
I0403 15:46:20.740317 14372 net.cpp:91] Creating Layer inception_4c/5x5_reduce
I0403 15:46:20.740335 14372 net.cpp:425] inception_4c/5x5_reduce <- inception_4b/output_inception_4b/output_0_split_2
I0403 15:46:20.740356 14372 net.cpp:399] inception_4c/5x5_reduce -> inception_4c/5x5_reduce
I0403 15:46:20.741444 14372 net.cpp:141] Setting up inception_4c/5x5_reduce
I0403 15:46:20.741473 14372 net.cpp:148] Top shape: 24 24 14 14 (112896)
I0403 15:46:20.741489 14372 net.cpp:156] Memory required for data: 1048111392
I0403 15:46:20.741508 14372 layer_factory.hpp:77] Creating layer inception_4c/relu_5x5_reduce
I0403 15:46:20.741528 14372 net.cpp:91] Creating Layer inception_4c/relu_5x5_reduce
I0403 15:46:20.741546 14372 net.cpp:425] inception_4c/relu_5x5_reduce <- inception_4c/5x5_reduce
I0403 15:46:20.741562 14372 net.cpp:386] inception_4c/relu_5x5_reduce -> inception_4c/5x5_reduce (in-place)
I0403 15:46:20.741761 14372 net.cpp:141] Setting up inception_4c/relu_5x5_reduce
I0403 15:46:20.741786 14372 net.cpp:148] Top shape: 24 24 14 14 (112896)
I0403 15:46:20.741803 14372 net.cpp:156] Memory required for data: 1048562976
I0403 15:46:20.741818 14372 layer_factory.hpp:77] Creating layer inception_4c/5x5
I0403 15:46:20.741837 14372 net.cpp:91] Creating Layer inception_4c/5x5
I0403 15:46:20.741852 14372 net.cpp:425] inception_4c/5x5 <- inception_4c/5x5_reduce
I0403 15:46:20.741871 14372 net.cpp:399] inception_4c/5x5 -> inception_4c/5x5
I0403 15:46:20.743144 14372 net.cpp:141] Setting up inception_4c/5x5
I0403 15:46:20.743173 14372 net.cpp:148] Top shape: 24 64 14 14 (301056)
I0403 15:46:20.743188 14372 net.cpp:156] Memory required for data: 1049767200
I0403 15:46:20.743206 14372 layer_factory.hpp:77] Creating layer inception_4c/relu_5x5
I0403 15:46:20.743226 14372 net.cpp:91] Creating Layer inception_4c/relu_5x5
I0403 15:46:20.743242 14372 net.cpp:425] inception_4c/relu_5x5 <- inception_4c/5x5
I0403 15:46:20.743258 14372 net.cpp:386] inception_4c/relu_5x5 -> inception_4c/5x5 (in-place)
I0403 15:46:20.743542 14372 net.cpp:141] Setting up inception_4c/relu_5x5
I0403 15:46:20.743567 14372 net.cpp:148] Top shape: 24 64 14 14 (301056)
I0403 15:46:20.743582 14372 net.cpp:156] Memory required for data: 1050971424
I0403 15:46:20.743597 14372 layer_factory.hpp:77] Creating layer inception_4c/pool
I0403 15:46:20.743616 14372 net.cpp:91] Creating Layer inception_4c/pool
I0403 15:46:20.743633 14372 net.cpp:425] inception_4c/pool <- inception_4b/output_inception_4b/output_0_split_3
I0403 15:46:20.743651 14372 net.cpp:399] inception_4c/pool -> inception_4c/pool
I0403 15:46:20.743716 14372 net.cpp:141] Setting up inception_4c/pool
I0403 15:46:20.743739 14372 net.cpp:148] Top shape: 24 512 14 14 (2408448)
I0403 15:46:20.743754 14372 net.cpp:156] Memory required for data: 1060605216
I0403 15:46:20.743768 14372 layer_factory.hpp:77] Creating layer inception_4c/pool_proj
I0403 15:46:20.743790 14372 net.cpp:91] Creating Layer inception_4c/pool_proj
I0403 15:46:20.743808 14372 net.cpp:425] inception_4c/pool_proj <- inception_4c/pool
I0403 15:46:20.743826 14372 net.cpp:399] inception_4c/pool_proj -> inception_4c/pool_proj
I0403 15:46:20.745100 14372 net.cpp:141] Setting up inception_4c/pool_proj
I0403 15:46:20.745136 14372 net.cpp:148] Top shape: 24 64 14 14 (301056)
I0403 15:46:20.745167 14372 net.cpp:156] Memory required for data: 1061809440
I0403 15:46:20.745187 14372 layer_factory.hpp:77] Creating layer inception_4c/relu_pool_proj
I0403 15:46:20.745205 14372 net.cpp:91] Creating Layer inception_4c/relu_pool_proj
I0403 15:46:20.745223 14372 net.cpp:425] inception_4c/relu_pool_proj <- inception_4c/pool_proj
I0403 15:46:20.745241 14372 net.cpp:386] inception_4c/relu_pool_proj -> inception_4c/pool_proj (in-place)
I0403 15:46:20.745441 14372 net.cpp:141] Setting up inception_4c/relu_pool_proj
I0403 15:46:20.745468 14372 net.cpp:148] Top shape: 24 64 14 14 (301056)
I0403 15:46:20.745483 14372 net.cpp:156] Memory required for data: 1063013664
I0403 15:46:20.745498 14372 layer_factory.hpp:77] Creating layer inception_4c/output
I0403 15:46:20.745517 14372 net.cpp:91] Creating Layer inception_4c/output
I0403 15:46:20.745535 14372 net.cpp:425] inception_4c/output <- inception_4c/1x1
I0403 15:46:20.745553 14372 net.cpp:425] inception_4c/output <- inception_4c/3x3
I0403 15:46:20.745569 14372 net.cpp:425] inception_4c/output <- inception_4c/5x5
I0403 15:46:20.745585 14372 net.cpp:425] inception_4c/output <- inception_4c/pool_proj
I0403 15:46:20.745602 14372 net.cpp:399] inception_4c/output -> inception_4c/output
I0403 15:46:20.745651 14372 net.cpp:141] Setting up inception_4c/output
I0403 15:46:20.745687 14372 net.cpp:148] Top shape: 24 512 14 14 (2408448)
I0403 15:46:20.745702 14372 net.cpp:156] Memory required for data: 1072647456
I0403 15:46:20.745718 14372 layer_factory.hpp:77] Creating layer inception_4c/output_inception_4c/output_0_split
I0403 15:46:20.745734 14372 net.cpp:91] Creating Layer inception_4c/output_inception_4c/output_0_split
I0403 15:46:20.745750 14372 net.cpp:425] inception_4c/output_inception_4c/output_0_split <- inception_4c/output
I0403 15:46:20.745769 14372 net.cpp:399] inception_4c/output_inception_4c/output_0_split -> inception_4c/output_inception_4c/output_0_split_0
I0403 15:46:20.745791 14372 net.cpp:399] inception_4c/output_inception_4c/output_0_split -> inception_4c/output_inception_4c/output_0_split_1
I0403 15:46:20.745811 14372 net.cpp:399] inception_4c/output_inception_4c/output_0_split -> inception_4c/output_inception_4c/output_0_split_2
I0403 15:46:20.745832 14372 net.cpp:399] inception_4c/output_inception_4c/output_0_split -> inception_4c/output_inception_4c/output_0_split_3
I0403 15:46:20.745920 14372 net.cpp:141] Setting up inception_4c/output_inception_4c/output_0_split
I0403 15:46:20.745947 14372 net.cpp:148] Top shape: 24 512 14 14 (2408448)
I0403 15:46:20.745965 14372 net.cpp:148] Top shape: 24 512 14 14 (2408448)
I0403 15:46:20.745980 14372 net.cpp:148] Top shape: 24 512 14 14 (2408448)
I0403 15:46:20.745996 14372 net.cpp:148] Top shape: 24 512 14 14 (2408448)
I0403 15:46:20.746011 14372 net.cpp:156] Memory required for data: 1111182624
I0403 15:46:20.746024 14372 layer_factory.hpp:77] Creating layer inception_4d/1x1
I0403 15:46:20.746047 14372 net.cpp:91] Creating Layer inception_4d/1x1
I0403 15:46:20.746064 14372 net.cpp:425] inception_4d/1x1 <- inception_4c/output_inception_4c/output_0_split_0
I0403 15:46:20.746084 14372 net.cpp:399] inception_4d/1x1 -> inception_4d/1x1
I0403 15:46:20.747505 14372 net.cpp:141] Setting up inception_4d/1x1
I0403 15:46:20.747536 14372 net.cpp:148] Top shape: 24 112 14 14 (526848)
I0403 15:46:20.747553 14372 net.cpp:156] Memory required for data: 1113290016
I0403 15:46:20.747571 14372 layer_factory.hpp:77] Creating layer inception_4d/relu_1x1
I0403 15:46:20.747589 14372 net.cpp:91] Creating Layer inception_4d/relu_1x1
I0403 15:46:20.747606 14372 net.cpp:425] inception_4d/relu_1x1 <- inception_4d/1x1
I0403 15:46:20.747624 14372 net.cpp:386] inception_4d/relu_1x1 -> inception_4d/1x1 (in-place)
I0403 15:46:20.747812 14372 net.cpp:141] Setting up inception_4d/relu_1x1
I0403 15:46:20.747838 14372 net.cpp:148] Top shape: 24 112 14 14 (526848)
I0403 15:46:20.747853 14372 net.cpp:156] Memory required for data: 1115397408
I0403 15:46:20.747866 14372 layer_factory.hpp:77] Creating layer inception_4d/3x3_reduce
I0403 15:46:20.747903 14372 net.cpp:91] Creating Layer inception_4d/3x3_reduce
I0403 15:46:20.747923 14372 net.cpp:425] inception_4d/3x3_reduce <- inception_4c/output_inception_4c/output_0_split_1
I0403 15:46:20.747946 14372 net.cpp:399] inception_4d/3x3_reduce -> inception_4d/3x3_reduce
I0403 15:46:20.749490 14372 net.cpp:141] Setting up inception_4d/3x3_reduce
I0403 15:46:20.749521 14372 net.cpp:148] Top shape: 24 144 14 14 (677376)
I0403 15:46:20.749538 14372 net.cpp:156] Memory required for data: 1118106912
I0403 15:46:20.749557 14372 layer_factory.hpp:77] Creating layer inception_4d/relu_3x3_reduce
I0403 15:46:20.749575 14372 net.cpp:91] Creating Layer inception_4d/relu_3x3_reduce
I0403 15:46:20.749591 14372 net.cpp:425] inception_4d/relu_3x3_reduce <- inception_4d/3x3_reduce
I0403 15:46:20.749608 14372 net.cpp:386] inception_4d/relu_3x3_reduce -> inception_4d/3x3_reduce (in-place)
I0403 15:46:20.749913 14372 net.cpp:141] Setting up inception_4d/relu_3x3_reduce
I0403 15:46:20.749943 14372 net.cpp:148] Top shape: 24 144 14 14 (677376)
I0403 15:46:20.749959 14372 net.cpp:156] Memory required for data: 1120816416
I0403 15:46:20.749974 14372 layer_factory.hpp:77] Creating layer inception_4d/3x3
I0403 15:46:20.749996 14372 net.cpp:91] Creating Layer inception_4d/3x3
I0403 15:46:20.750015 14372 net.cpp:425] inception_4d/3x3 <- inception_4d/3x3_reduce
I0403 15:46:20.750033 14372 net.cpp:399] inception_4d/3x3 -> inception_4d/3x3
I0403 15:46:20.754420 14372 net.cpp:141] Setting up inception_4d/3x3
I0403 15:46:20.754451 14372 net.cpp:148] Top shape: 24 288 14 14 (1354752)
I0403 15:46:20.754467 14372 net.cpp:156] Memory required for data: 1126235424
I0403 15:46:20.754487 14372 layer_factory.hpp:77] Creating layer inception_4d/relu_3x3
I0403 15:46:20.754504 14372 net.cpp:91] Creating Layer inception_4d/relu_3x3
I0403 15:46:20.754520 14372 net.cpp:425] inception_4d/relu_3x3 <- inception_4d/3x3
I0403 15:46:20.754540 14372 net.cpp:386] inception_4d/relu_3x3 -> inception_4d/3x3 (in-place)
I0403 15:46:20.754745 14372 net.cpp:141] Setting up inception_4d/relu_3x3
I0403 15:46:20.754770 14372 net.cpp:148] Top shape: 24 288 14 14 (1354752)
I0403 15:46:20.754784 14372 net.cpp:156] Memory required for data: 1131654432
I0403 15:46:20.754799 14372 layer_factory.hpp:77] Creating layer inception_4d/5x5_reduce
I0403 15:46:20.754822 14372 net.cpp:91] Creating Layer inception_4d/5x5_reduce
I0403 15:46:20.754839 14372 net.cpp:425] inception_4d/5x5_reduce <- inception_4c/output_inception_4c/output_0_split_2
I0403 15:46:20.754860 14372 net.cpp:399] inception_4d/5x5_reduce -> inception_4d/5x5_reduce
I0403 15:46:20.756022 14372 net.cpp:141] Setting up inception_4d/5x5_reduce
I0403 15:46:20.756053 14372 net.cpp:148] Top shape: 24 32 14 14 (150528)
I0403 15:46:20.756070 14372 net.cpp:156] Memory required for data: 1132256544
I0403 15:46:20.756088 14372 layer_factory.hpp:77] Creating layer inception_4d/relu_5x5_reduce
I0403 15:46:20.756106 14372 net.cpp:91] Creating Layer inception_4d/relu_5x5_reduce
I0403 15:46:20.756122 14372 net.cpp:425] inception_4d/relu_5x5_reduce <- inception_4d/5x5_reduce
I0403 15:46:20.756150 14372 net.cpp:386] inception_4d/relu_5x5_reduce -> inception_4d/5x5_reduce (in-place)
I0403 15:46:20.756345 14372 net.cpp:141] Setting up inception_4d/relu_5x5_reduce
I0403 15:46:20.756369 14372 net.cpp:148] Top shape: 24 32 14 14 (150528)
I0403 15:46:20.756384 14372 net.cpp:156] Memory required for data: 1132858656
I0403 15:46:20.756399 14372 layer_factory.hpp:77] Creating layer inception_4d/5x5
I0403 15:46:20.756420 14372 net.cpp:91] Creating Layer inception_4d/5x5
I0403 15:46:20.756439 14372 net.cpp:425] inception_4d/5x5 <- inception_4d/5x5_reduce
I0403 15:46:20.756460 14372 net.cpp:399] inception_4d/5x5 -> inception_4d/5x5
I0403 15:46:20.757978 14372 net.cpp:141] Setting up inception_4d/5x5
I0403 15:46:20.758007 14372 net.cpp:148] Top shape: 24 64 14 14 (301056)
I0403 15:46:20.758023 14372 net.cpp:156] Memory required for data: 1134062880
I0403 15:46:20.758041 14372 layer_factory.hpp:77] Creating layer inception_4d/relu_5x5
I0403 15:46:20.758076 14372 net.cpp:91] Creating Layer inception_4d/relu_5x5
I0403 15:46:20.758095 14372 net.cpp:425] inception_4d/relu_5x5 <- inception_4d/5x5
I0403 15:46:20.758113 14372 net.cpp:386] inception_4d/relu_5x5 -> inception_4d/5x5 (in-place)
I0403 15:46:20.758438 14372 net.cpp:141] Setting up inception_4d/relu_5x5
I0403 15:46:20.758466 14372 net.cpp:148] Top shape: 24 64 14 14 (301056)
I0403 15:46:20.758482 14372 net.cpp:156] Memory required for data: 1135267104
I0403 15:46:20.758497 14372 layer_factory.hpp:77] Creating layer inception_4d/pool
I0403 15:46:20.758518 14372 net.cpp:91] Creating Layer inception_4d/pool
I0403 15:46:20.758536 14372 net.cpp:425] inception_4d/pool <- inception_4c/output_inception_4c/output_0_split_3
I0403 15:46:20.758555 14372 net.cpp:399] inception_4d/pool -> inception_4d/pool
I0403 15:46:20.758625 14372 net.cpp:141] Setting up inception_4d/pool
I0403 15:46:20.758651 14372 net.cpp:148] Top shape: 24 512 14 14 (2408448)
I0403 15:46:20.758679 14372 net.cpp:156] Memory required for data: 1144900896
I0403 15:46:20.758694 14372 layer_factory.hpp:77] Creating layer inception_4d/pool_proj
I0403 15:46:20.758716 14372 net.cpp:91] Creating Layer inception_4d/pool_proj
I0403 15:46:20.758734 14372 net.cpp:425] inception_4d/pool_proj <- inception_4d/pool
I0403 15:46:20.758754 14372 net.cpp:399] inception_4d/pool_proj -> inception_4d/pool_proj
I0403 15:46:20.760545 14372 net.cpp:141] Setting up inception_4d/pool_proj
I0403 15:46:20.760573 14372 net.cpp:148] Top shape: 24 64 14 14 (301056)
I0403 15:46:20.760589 14372 net.cpp:156] Memory required for data: 1146105120
I0403 15:46:20.760608 14372 layer_factory.hpp:77] Creating layer inception_4d/relu_pool_proj
I0403 15:46:20.760627 14372 net.cpp:91] Creating Layer inception_4d/relu_pool_proj
I0403 15:46:20.760643 14372 net.cpp:425] inception_4d/relu_pool_proj <- inception_4d/pool_proj
I0403 15:46:20.760661 14372 net.cpp:386] inception_4d/relu_pool_proj -> inception_4d/pool_proj (in-place)
I0403 15:46:20.760853 14372 net.cpp:141] Setting up inception_4d/relu_pool_proj
I0403 15:46:20.760877 14372 net.cpp:148] Top shape: 24 64 14 14 (301056)
I0403 15:46:20.760892 14372 net.cpp:156] Memory required for data: 1147309344
I0403 15:46:20.760907 14372 layer_factory.hpp:77] Creating layer inception_4d/output
I0403 15:46:20.760927 14372 net.cpp:91] Creating Layer inception_4d/output
I0403 15:46:20.760943 14372 net.cpp:425] inception_4d/output <- inception_4d/1x1
I0403 15:46:20.760960 14372 net.cpp:425] inception_4d/output <- inception_4d/3x3
I0403 15:46:20.760977 14372 net.cpp:425] inception_4d/output <- inception_4d/5x5
I0403 15:46:20.760993 14372 net.cpp:425] inception_4d/output <- inception_4d/pool_proj
I0403 15:46:20.761010 14372 net.cpp:399] inception_4d/output -> inception_4d/output
I0403 15:46:20.761057 14372 net.cpp:141] Setting up inception_4d/output
I0403 15:46:20.761082 14372 net.cpp:148] Top shape: 24 528 14 14 (2483712)
I0403 15:46:20.761097 14372 net.cpp:156] Memory required for data: 1157244192
I0403 15:46:20.761112 14372 layer_factory.hpp:77] Creating layer inception_4d/output_inception_4d/output_0_split
I0403 15:46:20.761135 14372 net.cpp:91] Creating Layer inception_4d/output_inception_4d/output_0_split
I0403 15:46:20.761154 14372 net.cpp:425] inception_4d/output_inception_4d/output_0_split <- inception_4d/output
I0403 15:46:20.761174 14372 net.cpp:399] inception_4d/output_inception_4d/output_0_split -> inception_4d/output_inception_4d/output_0_split_0
I0403 15:46:20.761196 14372 net.cpp:399] inception_4d/output_inception_4d/output_0_split -> inception_4d/output_inception_4d/output_0_split_1
I0403 15:46:20.761219 14372 net.cpp:399] inception_4d/output_inception_4d/output_0_split -> inception_4d/output_inception_4d/output_0_split_2
I0403 15:46:20.761240 14372 net.cpp:399] inception_4d/output_inception_4d/output_0_split -> inception_4d/output_inception_4d/output_0_split_3
I0403 15:46:20.761258 14372 net.cpp:399] inception_4d/output_inception_4d/output_0_split -> inception_4d/output_inception_4d/output_0_split_4
I0403 15:46:20.761363 14372 net.cpp:141] Setting up inception_4d/output_inception_4d/output_0_split
I0403 15:46:20.761411 14372 net.cpp:148] Top shape: 24 528 14 14 (2483712)
I0403 15:46:20.761432 14372 net.cpp:148] Top shape: 24 528 14 14 (2483712)
I0403 15:46:20.761450 14372 net.cpp:148] Top shape: 24 528 14 14 (2483712)
I0403 15:46:20.761466 14372 net.cpp:148] Top shape: 24 528 14 14 (2483712)
I0403 15:46:20.761481 14372 net.cpp:148] Top shape: 24 528 14 14 (2483712)
I0403 15:46:20.761494 14372 net.cpp:156] Memory required for data: 1206918432
I0403 15:46:20.761509 14372 layer_factory.hpp:77] Creating layer loss2/ave_pool
I0403 15:46:20.761528 14372 net.cpp:91] Creating Layer loss2/ave_pool
I0403 15:46:20.761543 14372 net.cpp:425] loss2/ave_pool <- inception_4d/output_inception_4d/output_0_split_0
I0403 15:46:20.761564 14372 net.cpp:399] loss2/ave_pool -> loss2/ave_pool
I0403 15:46:20.761895 14372 net.cpp:141] Setting up loss2/ave_pool
I0403 15:46:20.761922 14372 net.cpp:148] Top shape: 24 528 4 4 (202752)
I0403 15:46:20.761937 14372 net.cpp:156] Memory required for data: 1207729440
I0403 15:46:20.761953 14372 layer_factory.hpp:77] Creating layer loss2/conv
I0403 15:46:20.761976 14372 net.cpp:91] Creating Layer loss2/conv
I0403 15:46:20.761992 14372 net.cpp:425] loss2/conv <- loss2/ave_pool
I0403 15:46:20.762014 14372 net.cpp:399] loss2/conv -> loss2/conv
I0403 15:46:20.763993 14372 net.cpp:141] Setting up loss2/conv
I0403 15:46:20.764022 14372 net.cpp:148] Top shape: 24 128 4 4 (49152)
I0403 15:46:20.764037 14372 net.cpp:156] Memory required for data: 1207926048
I0403 15:46:20.764055 14372 layer_factory.hpp:77] Creating layer loss2/relu_conv
I0403 15:46:20.764078 14372 net.cpp:91] Creating Layer loss2/relu_conv
I0403 15:46:20.764096 14372 net.cpp:425] loss2/relu_conv <- loss2/conv
I0403 15:46:20.764112 14372 net.cpp:386] loss2/relu_conv -> loss2/conv (in-place)
I0403 15:46:20.764399 14372 net.cpp:141] Setting up loss2/relu_conv
I0403 15:46:20.764425 14372 net.cpp:148] Top shape: 24 128 4 4 (49152)
I0403 15:46:20.764439 14372 net.cpp:156] Memory required for data: 1208122656
I0403 15:46:20.764453 14372 layer_factory.hpp:77] Creating layer loss2/fc
I0403 15:46:20.764473 14372 net.cpp:91] Creating Layer loss2/fc
I0403 15:46:20.764492 14372 net.cpp:425] loss2/fc <- loss2/conv
I0403 15:46:20.764509 14372 net.cpp:399] loss2/fc -> loss2/fc
I0403 15:46:20.781942 14372 net.cpp:141] Setting up loss2/fc
I0403 15:46:20.781977 14372 net.cpp:148] Top shape: 24 1024 (24576)
I0403 15:46:20.781992 14372 net.cpp:156] Memory required for data: 1208220960
I0403 15:46:20.782009 14372 layer_factory.hpp:77] Creating layer loss2/relu_fc
I0403 15:46:20.782027 14372 net.cpp:91] Creating Layer loss2/relu_fc
I0403 15:46:20.782043 14372 net.cpp:425] loss2/relu_fc <- loss2/fc
I0403 15:46:20.782063 14372 net.cpp:386] loss2/relu_fc -> loss2/fc (in-place)
I0403 15:46:20.782377 14372 net.cpp:141] Setting up loss2/relu_fc
I0403 15:46:20.782415 14372 net.cpp:148] Top shape: 24 1024 (24576)
I0403 15:46:20.782430 14372 net.cpp:156] Memory required for data: 1208319264
I0403 15:46:20.782445 14372 layer_factory.hpp:77] Creating layer loss2/drop_fc
I0403 15:46:20.782462 14372 net.cpp:91] Creating Layer loss2/drop_fc
I0403 15:46:20.782480 14372 net.cpp:425] loss2/drop_fc <- loss2/fc
I0403 15:46:20.782500 14372 net.cpp:386] loss2/drop_fc -> loss2/fc (in-place)
I0403 15:46:20.782548 14372 net.cpp:141] Setting up loss2/drop_fc
I0403 15:46:20.782575 14372 net.cpp:148] Top shape: 24 1024 (24576)
I0403 15:46:20.782593 14372 net.cpp:156] Memory required for data: 1208417568
I0403 15:46:20.782608 14372 layer_factory.hpp:77] Creating layer loss2/classifier_plantvillage
I0403 15:46:20.782625 14372 net.cpp:91] Creating Layer loss2/classifier_plantvillage
I0403 15:46:20.782641 14372 net.cpp:425] loss2/classifier_plantvillage <- loss2/fc
I0403 15:46:20.782662 14372 net.cpp:399] loss2/classifier_plantvillage -> loss2/classifier_plantvillage
I0403 15:46:20.783066 14372 net.cpp:141] Setting up loss2/classifier_plantvillage
I0403 15:46:20.783097 14372 net.cpp:148] Top shape: 24 38 (912)
I0403 15:46:20.783112 14372 net.cpp:156] Memory required for data: 1208421216
I0403 15:46:20.783152 14372 layer_factory.hpp:77] Creating layer loss2/classifier_plantvillage_loss2/classifier_plantvillage_0_split
I0403 15:46:20.783172 14372 net.cpp:91] Creating Layer loss2/classifier_plantvillage_loss2/classifier_plantvillage_0_split
I0403 15:46:20.783190 14372 net.cpp:425] loss2/classifier_plantvillage_loss2/classifier_plantvillage_0_split <- loss2/classifier_plantvillage
I0403 15:46:20.783206 14372 net.cpp:399] loss2/classifier_plantvillage_loss2/classifier_plantvillage_0_split -> loss2/classifier_plantvillage_loss2/classifier_plantvillage_0_split_0
I0403 15:46:20.783226 14372 net.cpp:399] loss2/classifier_plantvillage_loss2/classifier_plantvillage_0_split -> loss2/classifier_plantvillage_loss2/classifier_plantvillage_0_split_1
I0403 15:46:20.783246 14372 net.cpp:399] loss2/classifier_plantvillage_loss2/classifier_plantvillage_0_split -> loss2/classifier_plantvillage_loss2/classifier_plantvillage_0_split_2
I0403 15:46:20.783323 14372 net.cpp:141] Setting up loss2/classifier_plantvillage_loss2/classifier_plantvillage_0_split
I0403 15:46:20.783346 14372 net.cpp:148] Top shape: 24 38 (912)
I0403 15:46:20.783362 14372 net.cpp:148] Top shape: 24 38 (912)
I0403 15:46:20.783376 14372 net.cpp:148] Top shape: 24 38 (912)
I0403 15:46:20.783402 14372 net.cpp:156] Memory required for data: 1208432160
I0403 15:46:20.783416 14372 layer_factory.hpp:77] Creating layer inception_4e/1x1
I0403 15:46:20.783437 14372 net.cpp:91] Creating Layer inception_4e/1x1
I0403 15:46:20.783453 14372 net.cpp:425] inception_4e/1x1 <- inception_4d/output_inception_4d/output_0_split_1
I0403 15:46:20.783475 14372 net.cpp:399] inception_4e/1x1 -> inception_4e/1x1
I0403 15:46:20.785286 14372 net.cpp:141] Setting up inception_4e/1x1
I0403 15:46:20.785313 14372 net.cpp:148] Top shape: 24 256 14 14 (1204224)
I0403 15:46:20.785329 14372 net.cpp:156] Memory required for data: 1213249056
I0403 15:46:20.785347 14372 layer_factory.hpp:77] Creating layer inception_4e/relu_1x1
I0403 15:46:20.785367 14372 net.cpp:91] Creating Layer inception_4e/relu_1x1
I0403 15:46:20.785397 14372 net.cpp:425] inception_4e/relu_1x1 <- inception_4e/1x1
I0403 15:46:20.785414 14372 net.cpp:386] inception_4e/relu_1x1 -> inception_4e/1x1 (in-place)
I0403 15:46:20.785722 14372 net.cpp:141] Setting up inception_4e/relu_1x1
I0403 15:46:20.785748 14372 net.cpp:148] Top shape: 24 256 14 14 (1204224)
I0403 15:46:20.785763 14372 net.cpp:156] Memory required for data: 1218065952
I0403 15:46:20.785778 14372 layer_factory.hpp:77] Creating layer inception_4e/3x3_reduce
I0403 15:46:20.785800 14372 net.cpp:91] Creating Layer inception_4e/3x3_reduce
I0403 15:46:20.785820 14372 net.cpp:425] inception_4e/3x3_reduce <- inception_4d/output_inception_4d/output_0_split_2
I0403 15:46:20.785840 14372 net.cpp:399] inception_4e/3x3_reduce -> inception_4e/3x3_reduce
I0403 15:46:20.787958 14372 net.cpp:141] Setting up inception_4e/3x3_reduce
I0403 15:46:20.787987 14372 net.cpp:148] Top shape: 24 160 14 14 (752640)
I0403 15:46:20.788004 14372 net.cpp:156] Memory required for data: 1221076512
I0403 15:46:20.788022 14372 layer_factory.hpp:77] Creating layer inception_4e/relu_3x3_reduce
I0403 15:46:20.788043 14372 net.cpp:91] Creating Layer inception_4e/relu_3x3_reduce
I0403 15:46:20.788059 14372 net.cpp:425] inception_4e/relu_3x3_reduce <- inception_4e/3x3_reduce
I0403 15:46:20.788077 14372 net.cpp:386] inception_4e/relu_3x3_reduce -> inception_4e/3x3_reduce (in-place)
I0403 15:46:20.788270 14372 net.cpp:141] Setting up inception_4e/relu_3x3_reduce
I0403 15:46:20.788296 14372 net.cpp:148] Top shape: 24 160 14 14 (752640)
I0403 15:46:20.788311 14372 net.cpp:156] Memory required for data: 1224087072
I0403 15:46:20.788326 14372 layer_factory.hpp:77] Creating layer inception_4e/3x3
I0403 15:46:20.788348 14372 net.cpp:91] Creating Layer inception_4e/3x3
I0403 15:46:20.788365 14372 net.cpp:425] inception_4e/3x3 <- inception_4e/3x3_reduce
I0403 15:46:20.788383 14372 net.cpp:399] inception_4e/3x3 -> inception_4e/3x3
I0403 15:46:20.793331 14372 net.cpp:141] Setting up inception_4e/3x3
I0403 15:46:20.793375 14372 net.cpp:148] Top shape: 24 320 14 14 (1505280)
I0403 15:46:20.793403 14372 net.cpp:156] Memory required for data: 1230108192
I0403 15:46:20.793422 14372 layer_factory.hpp:77] Creating layer inception_4e/relu_3x3
I0403 15:46:20.793440 14372 net.cpp:91] Creating Layer inception_4e/relu_3x3
I0403 15:46:20.793457 14372 net.cpp:425] inception_4e/relu_3x3 <- inception_4e/3x3
I0403 15:46:20.793475 14372 net.cpp:386] inception_4e/relu_3x3 -> inception_4e/3x3 (in-place)
I0403 15:46:20.793787 14372 net.cpp:141] Setting up inception_4e/relu_3x3
I0403 15:46:20.793815 14372 net.cpp:148] Top shape: 24 320 14 14 (1505280)
I0403 15:46:20.793831 14372 net.cpp:156] Memory required for data: 1236129312
I0403 15:46:20.793846 14372 layer_factory.hpp:77] Creating layer inception_4e/5x5_reduce
I0403 15:46:20.793869 14372 net.cpp:91] Creating Layer inception_4e/5x5_reduce
I0403 15:46:20.793889 14372 net.cpp:425] inception_4e/5x5_reduce <- inception_4d/output_inception_4d/output_0_split_3
I0403 15:46:20.793908 14372 net.cpp:399] inception_4e/5x5_reduce -> inception_4e/5x5_reduce
I0403 15:46:20.795024 14372 net.cpp:141] Setting up inception_4e/5x5_reduce
I0403 15:46:20.795053 14372 net.cpp:148] Top shape: 24 32 14 14 (150528)
I0403 15:46:20.795068 14372 net.cpp:156] Memory required for data: 1236731424
I0403 15:46:20.795086 14372 layer_factory.hpp:77] Creating layer inception_4e/relu_5x5_reduce
I0403 15:46:20.795106 14372 net.cpp:91] Creating Layer inception_4e/relu_5x5_reduce
I0403 15:46:20.795123 14372 net.cpp:425] inception_4e/relu_5x5_reduce <- inception_4e/5x5_reduce
I0403 15:46:20.795148 14372 net.cpp:386] inception_4e/relu_5x5_reduce -> inception_4e/5x5_reduce (in-place)
I0403 15:46:20.795440 14372 net.cpp:141] Setting up inception_4e/relu_5x5_reduce
I0403 15:46:20.795465 14372 net.cpp:148] Top shape: 24 32 14 14 (150528)
I0403 15:46:20.795480 14372 net.cpp:156] Memory required for data: 1237333536
I0403 15:46:20.795495 14372 layer_factory.hpp:77] Creating layer inception_4e/5x5
I0403 15:46:20.795531 14372 net.cpp:91] Creating Layer inception_4e/5x5
I0403 15:46:20.795550 14372 net.cpp:425] inception_4e/5x5 <- inception_4e/5x5_reduce
I0403 15:46:20.795572 14372 net.cpp:399] inception_4e/5x5 -> inception_4e/5x5
I0403 15:46:20.797379 14372 net.cpp:141] Setting up inception_4e/5x5
I0403 15:46:20.797418 14372 net.cpp:148] Top shape: 24 128 14 14 (602112)
I0403 15:46:20.797435 14372 net.cpp:156] Memory required for data: 1239741984
I0403 15:46:20.797453 14372 layer_factory.hpp:77] Creating layer inception_4e/relu_5x5
I0403 15:46:20.797472 14372 net.cpp:91] Creating Layer inception_4e/relu_5x5
I0403 15:46:20.797488 14372 net.cpp:425] inception_4e/relu_5x5 <- inception_4e/5x5
I0403 15:46:20.797508 14372 net.cpp:386] inception_4e/relu_5x5 -> inception_4e/5x5 (in-place)
I0403 15:46:20.797720 14372 net.cpp:141] Setting up inception_4e/relu_5x5
I0403 15:46:20.797746 14372 net.cpp:148] Top shape: 24 128 14 14 (602112)
I0403 15:46:20.797760 14372 net.cpp:156] Memory required for data: 1242150432
I0403 15:46:20.797775 14372 layer_factory.hpp:77] Creating layer inception_4e/pool
I0403 15:46:20.797794 14372 net.cpp:91] Creating Layer inception_4e/pool
I0403 15:46:20.797812 14372 net.cpp:425] inception_4e/pool <- inception_4d/output_inception_4d/output_0_split_4
I0403 15:46:20.797832 14372 net.cpp:399] inception_4e/pool -> inception_4e/pool
I0403 15:46:20.797904 14372 net.cpp:141] Setting up inception_4e/pool
I0403 15:46:20.797927 14372 net.cpp:148] Top shape: 24 528 14 14 (2483712)
I0403 15:46:20.797942 14372 net.cpp:156] Memory required for data: 1252085280
I0403 15:46:20.797956 14372 layer_factory.hpp:77] Creating layer inception_4e/pool_proj
I0403 15:46:20.797977 14372 net.cpp:91] Creating Layer inception_4e/pool_proj
I0403 15:46:20.797996 14372 net.cpp:425] inception_4e/pool_proj <- inception_4e/pool
I0403 15:46:20.798015 14372 net.cpp:399] inception_4e/pool_proj -> inception_4e/pool_proj
I0403 15:46:20.799582 14372 net.cpp:141] Setting up inception_4e/pool_proj
I0403 15:46:20.799612 14372 net.cpp:148] Top shape: 24 128 14 14 (602112)
I0403 15:46:20.799641 14372 net.cpp:156] Memory required for data: 1254493728
I0403 15:46:20.799661 14372 layer_factory.hpp:77] Creating layer inception_4e/relu_pool_proj
I0403 15:46:20.799679 14372 net.cpp:91] Creating Layer inception_4e/relu_pool_proj
I0403 15:46:20.799695 14372 net.cpp:425] inception_4e/relu_pool_proj <- inception_4e/pool_proj
I0403 15:46:20.799715 14372 net.cpp:386] inception_4e/relu_pool_proj -> inception_4e/pool_proj (in-place)
I0403 15:46:20.800014 14372 net.cpp:141] Setting up inception_4e/relu_pool_proj
I0403 15:46:20.800040 14372 net.cpp:148] Top shape: 24 128 14 14 (602112)
I0403 15:46:20.800055 14372 net.cpp:156] Memory required for data: 1256902176
I0403 15:46:20.800070 14372 layer_factory.hpp:77] Creating layer inception_4e/output
I0403 15:46:20.800087 14372 net.cpp:91] Creating Layer inception_4e/output
I0403 15:46:20.800102 14372 net.cpp:425] inception_4e/output <- inception_4e/1x1
I0403 15:46:20.800119 14372 net.cpp:425] inception_4e/output <- inception_4e/3x3
I0403 15:46:20.800143 14372 net.cpp:425] inception_4e/output <- inception_4e/5x5
I0403 15:46:20.800160 14372 net.cpp:425] inception_4e/output <- inception_4e/pool_proj
I0403 15:46:20.800180 14372 net.cpp:399] inception_4e/output -> inception_4e/output
I0403 15:46:20.800231 14372 net.cpp:141] Setting up inception_4e/output
I0403 15:46:20.800257 14372 net.cpp:148] Top shape: 24 832 14 14 (3913728)
I0403 15:46:20.800273 14372 net.cpp:156] Memory required for data: 1272557088
I0403 15:46:20.800288 14372 layer_factory.hpp:77] Creating layer pool4/3x3_s2
I0403 15:46:20.800305 14372 net.cpp:91] Creating Layer pool4/3x3_s2
I0403 15:46:20.800321 14372 net.cpp:425] pool4/3x3_s2 <- inception_4e/output
I0403 15:46:20.800339 14372 net.cpp:399] pool4/3x3_s2 -> pool4/3x3_s2
I0403 15:46:20.800408 14372 net.cpp:141] Setting up pool4/3x3_s2
I0403 15:46:20.800433 14372 net.cpp:148] Top shape: 24 832 7 7 (978432)
I0403 15:46:20.800448 14372 net.cpp:156] Memory required for data: 1276470816
I0403 15:46:20.800463 14372 layer_factory.hpp:77] Creating layer pool4/3x3_s2_pool4/3x3_s2_0_split
I0403 15:46:20.800482 14372 net.cpp:91] Creating Layer pool4/3x3_s2_pool4/3x3_s2_0_split
I0403 15:46:20.800498 14372 net.cpp:425] pool4/3x3_s2_pool4/3x3_s2_0_split <- pool4/3x3_s2
I0403 15:46:20.800516 14372 net.cpp:399] pool4/3x3_s2_pool4/3x3_s2_0_split -> pool4/3x3_s2_pool4/3x3_s2_0_split_0
I0403 15:46:20.800537 14372 net.cpp:399] pool4/3x3_s2_pool4/3x3_s2_0_split -> pool4/3x3_s2_pool4/3x3_s2_0_split_1
I0403 15:46:20.800559 14372 net.cpp:399] pool4/3x3_s2_pool4/3x3_s2_0_split -> pool4/3x3_s2_pool4/3x3_s2_0_split_2
I0403 15:46:20.800582 14372 net.cpp:399] pool4/3x3_s2_pool4/3x3_s2_0_split -> pool4/3x3_s2_pool4/3x3_s2_0_split_3
I0403 15:46:20.800675 14372 net.cpp:141] Setting up pool4/3x3_s2_pool4/3x3_s2_0_split
I0403 15:46:20.800698 14372 net.cpp:148] Top shape: 24 832 7 7 (978432)
I0403 15:46:20.800715 14372 net.cpp:148] Top shape: 24 832 7 7 (978432)
I0403 15:46:20.800730 14372 net.cpp:148] Top shape: 24 832 7 7 (978432)
I0403 15:46:20.800745 14372 net.cpp:148] Top shape: 24 832 7 7 (978432)
I0403 15:46:20.800760 14372 net.cpp:156] Memory required for data: 1292125728
I0403 15:46:20.800775 14372 layer_factory.hpp:77] Creating layer inception_5a/1x1
I0403 15:46:20.800796 14372 net.cpp:91] Creating Layer inception_5a/1x1
I0403 15:46:20.800815 14372 net.cpp:425] inception_5a/1x1 <- pool4/3x3_s2_pool4/3x3_s2_0_split_0
I0403 15:46:20.800839 14372 net.cpp:399] inception_5a/1x1 -> inception_5a/1x1
I0403 15:46:20.803797 14372 net.cpp:141] Setting up inception_5a/1x1
I0403 15:46:20.803828 14372 net.cpp:148] Top shape: 24 256 7 7 (301056)
I0403 15:46:20.803844 14372 net.cpp:156] Memory required for data: 1293329952
I0403 15:46:20.803864 14372 layer_factory.hpp:77] Creating layer inception_5a/relu_1x1
I0403 15:46:20.803884 14372 net.cpp:91] Creating Layer inception_5a/relu_1x1
I0403 15:46:20.803902 14372 net.cpp:425] inception_5a/relu_1x1 <- inception_5a/1x1
I0403 15:46:20.803920 14372 net.cpp:386] inception_5a/relu_1x1 -> inception_5a/1x1 (in-place)
I0403 15:46:20.804250 14372 net.cpp:141] Setting up inception_5a/relu_1x1
I0403 15:46:20.804276 14372 net.cpp:148] Top shape: 24 256 7 7 (301056)
I0403 15:46:20.804291 14372 net.cpp:156] Memory required for data: 1294534176
I0403 15:46:20.804306 14372 layer_factory.hpp:77] Creating layer inception_5a/3x3_reduce
I0403 15:46:20.804328 14372 net.cpp:91] Creating Layer inception_5a/3x3_reduce
I0403 15:46:20.804345 14372 net.cpp:425] inception_5a/3x3_reduce <- pool4/3x3_s2_pool4/3x3_s2_0_split_1
I0403 15:46:20.804368 14372 net.cpp:399] inception_5a/3x3_reduce -> inception_5a/3x3_reduce
I0403 15:46:20.806906 14372 net.cpp:141] Setting up inception_5a/3x3_reduce
I0403 15:46:20.806941 14372 net.cpp:148] Top shape: 24 160 7 7 (188160)
I0403 15:46:20.806958 14372 net.cpp:156] Memory required for data: 1295286816
I0403 15:46:20.806977 14372 layer_factory.hpp:77] Creating layer inception_5a/relu_3x3_reduce
I0403 15:46:20.806995 14372 net.cpp:91] Creating Layer inception_5a/relu_3x3_reduce
I0403 15:46:20.807011 14372 net.cpp:425] inception_5a/relu_3x3_reduce <- inception_5a/3x3_reduce
I0403 15:46:20.807032 14372 net.cpp:386] inception_5a/relu_3x3_reduce -> inception_5a/3x3_reduce (in-place)
I0403 15:46:20.807252 14372 net.cpp:141] Setting up inception_5a/relu_3x3_reduce
I0403 15:46:20.807279 14372 net.cpp:148] Top shape: 24 160 7 7 (188160)
I0403 15:46:20.807294 14372 net.cpp:156] Memory required for data: 1296039456
I0403 15:46:20.807309 14372 layer_factory.hpp:77] Creating layer inception_5a/3x3
I0403 15:46:20.807333 14372 net.cpp:91] Creating Layer inception_5a/3x3
I0403 15:46:20.807364 14372 net.cpp:425] inception_5a/3x3 <- inception_5a/3x3_reduce
I0403 15:46:20.807386 14372 net.cpp:399] inception_5a/3x3 -> inception_5a/3x3
I0403 15:46:20.812603 14372 net.cpp:141] Setting up inception_5a/3x3
I0403 15:46:20.812635 14372 net.cpp:148] Top shape: 24 320 7 7 (376320)
I0403 15:46:20.812651 14372 net.cpp:156] Memory required for data: 1297544736
I0403 15:46:20.812671 14372 layer_factory.hpp:77] Creating layer inception_5a/relu_3x3
I0403 15:46:20.812695 14372 net.cpp:91] Creating Layer inception_5a/relu_3x3
I0403 15:46:20.812713 14372 net.cpp:425] inception_5a/relu_3x3 <- inception_5a/3x3
I0403 15:46:20.812731 14372 net.cpp:386] inception_5a/relu_3x3 -> inception_5a/3x3 (in-place)
I0403 15:46:20.813068 14372 net.cpp:141] Setting up inception_5a/relu_3x3
I0403 15:46:20.813097 14372 net.cpp:148] Top shape: 24 320 7 7 (376320)
I0403 15:46:20.813112 14372 net.cpp:156] Memory required for data: 1299050016
I0403 15:46:20.813132 14372 layer_factory.hpp:77] Creating layer inception_5a/5x5_reduce
I0403 15:46:20.813156 14372 net.cpp:91] Creating Layer inception_5a/5x5_reduce
I0403 15:46:20.813179 14372 net.cpp:425] inception_5a/5x5_reduce <- pool4/3x3_s2_pool4/3x3_s2_0_split_2
I0403 15:46:20.813204 14372 net.cpp:399] inception_5a/5x5_reduce -> inception_5a/5x5_reduce
I0403 15:46:20.814461 14372 net.cpp:141] Setting up inception_5a/5x5_reduce
I0403 15:46:20.814494 14372 net.cpp:148] Top shape: 24 32 7 7 (37632)
I0403 15:46:20.814512 14372 net.cpp:156] Memory required for data: 1299200544
I0403 15:46:20.814529 14372 layer_factory.hpp:77] Creating layer inception_5a/relu_5x5_reduce
I0403 15:46:20.814548 14372 net.cpp:91] Creating Layer inception_5a/relu_5x5_reduce
I0403 15:46:20.814565 14372 net.cpp:425] inception_5a/relu_5x5_reduce <- inception_5a/5x5_reduce
I0403 15:46:20.814584 14372 net.cpp:386] inception_5a/relu_5x5_reduce -> inception_5a/5x5_reduce (in-place)
I0403 15:46:20.814900 14372 net.cpp:141] Setting up inception_5a/relu_5x5_reduce
I0403 15:46:20.814926 14372 net.cpp:148] Top shape: 24 32 7 7 (37632)
I0403 15:46:20.814942 14372 net.cpp:156] Memory required for data: 1299351072
I0403 15:46:20.814956 14372 layer_factory.hpp:77] Creating layer inception_5a/5x5
I0403 15:46:20.814980 14372 net.cpp:91] Creating Layer inception_5a/5x5
I0403 15:46:20.814998 14372 net.cpp:425] inception_5a/5x5 <- inception_5a/5x5_reduce
I0403 15:46:20.815021 14372 net.cpp:399] inception_5a/5x5 -> inception_5a/5x5
I0403 15:46:20.816834 14372 net.cpp:141] Setting up inception_5a/5x5
I0403 15:46:20.816874 14372 net.cpp:148] Top shape: 24 128 7 7 (150528)
I0403 15:46:20.816890 14372 net.cpp:156] Memory required for data: 1299953184
I0403 15:46:20.816908 14372 layer_factory.hpp:77] Creating layer inception_5a/relu_5x5
I0403 15:46:20.816926 14372 net.cpp:91] Creating Layer inception_5a/relu_5x5
I0403 15:46:20.816942 14372 net.cpp:425] inception_5a/relu_5x5 <- inception_5a/5x5
I0403 15:46:20.816963 14372 net.cpp:386] inception_5a/relu_5x5 -> inception_5a/5x5 (in-place)
I0403 15:46:20.817178 14372 net.cpp:141] Setting up inception_5a/relu_5x5
I0403 15:46:20.817203 14372 net.cpp:148] Top shape: 24 128 7 7 (150528)
I0403 15:46:20.817216 14372 net.cpp:156] Memory required for data: 1300555296
I0403 15:46:20.817230 14372 layer_factory.hpp:77] Creating layer inception_5a/pool
I0403 15:46:20.817250 14372 net.cpp:91] Creating Layer inception_5a/pool
I0403 15:46:20.817265 14372 net.cpp:425] inception_5a/pool <- pool4/3x3_s2_pool4/3x3_s2_0_split_3
I0403 15:46:20.817283 14372 net.cpp:399] inception_5a/pool -> inception_5a/pool
I0403 15:46:20.817354 14372 net.cpp:141] Setting up inception_5a/pool
I0403 15:46:20.817378 14372 net.cpp:148] Top shape: 24 832 7 7 (978432)
I0403 15:46:20.817404 14372 net.cpp:156] Memory required for data: 1304469024
I0403 15:46:20.817419 14372 layer_factory.hpp:77] Creating layer inception_5a/pool_proj
I0403 15:46:20.817441 14372 net.cpp:91] Creating Layer inception_5a/pool_proj
I0403 15:46:20.817458 14372 net.cpp:425] inception_5a/pool_proj <- inception_5a/pool
I0403 15:46:20.817478 14372 net.cpp:399] inception_5a/pool_proj -> inception_5a/pool_proj
I0403 15:46:20.819777 14372 net.cpp:141] Setting up inception_5a/pool_proj
I0403 15:46:20.819807 14372 net.cpp:148] Top shape: 24 128 7 7 (150528)
I0403 15:46:20.819821 14372 net.cpp:156] Memory required for data: 1305071136
I0403 15:46:20.819839 14372 layer_factory.hpp:77] Creating layer inception_5a/relu_pool_proj
I0403 15:46:20.819857 14372 net.cpp:91] Creating Layer inception_5a/relu_pool_proj
I0403 15:46:20.819874 14372 net.cpp:425] inception_5a/relu_pool_proj <- inception_5a/pool_proj
I0403 15:46:20.819892 14372 net.cpp:386] inception_5a/relu_pool_proj -> inception_5a/pool_proj (in-place)
I0403 15:46:20.820195 14372 net.cpp:141] Setting up inception_5a/relu_pool_proj
I0403 15:46:20.820222 14372 net.cpp:148] Top shape: 24 128 7 7 (150528)
I0403 15:46:20.820237 14372 net.cpp:156] Memory required for data: 1305673248
I0403 15:46:20.820251 14372 layer_factory.hpp:77] Creating layer inception_5a/output
I0403 15:46:20.820268 14372 net.cpp:91] Creating Layer inception_5a/output
I0403 15:46:20.820282 14372 net.cpp:425] inception_5a/output <- inception_5a/1x1
I0403 15:46:20.820298 14372 net.cpp:425] inception_5a/output <- inception_5a/3x3
I0403 15:46:20.820314 14372 net.cpp:425] inception_5a/output <- inception_5a/5x5
I0403 15:46:20.820330 14372 net.cpp:425] inception_5a/output <- inception_5a/pool_proj
I0403 15:46:20.820349 14372 net.cpp:399] inception_5a/output -> inception_5a/output
I0403 15:46:20.820399 14372 net.cpp:141] Setting up inception_5a/output
I0403 15:46:20.820421 14372 net.cpp:148] Top shape: 24 832 7 7 (978432)
I0403 15:46:20.820436 14372 net.cpp:156] Memory required for data: 1309586976
I0403 15:46:20.820451 14372 layer_factory.hpp:77] Creating layer inception_5a/output_inception_5a/output_0_split
I0403 15:46:20.820468 14372 net.cpp:91] Creating Layer inception_5a/output_inception_5a/output_0_split
I0403 15:46:20.820485 14372 net.cpp:425] inception_5a/output_inception_5a/output_0_split <- inception_5a/output
I0403 15:46:20.820503 14372 net.cpp:399] inception_5a/output_inception_5a/output_0_split -> inception_5a/output_inception_5a/output_0_split_0
I0403 15:46:20.820525 14372 net.cpp:399] inception_5a/output_inception_5a/output_0_split -> inception_5a/output_inception_5a/output_0_split_1
I0403 15:46:20.820545 14372 net.cpp:399] inception_5a/output_inception_5a/output_0_split -> inception_5a/output_inception_5a/output_0_split_2
I0403 15:46:20.820566 14372 net.cpp:399] inception_5a/output_inception_5a/output_0_split -> inception_5a/output_inception_5a/output_0_split_3
I0403 15:46:20.820674 14372 net.cpp:141] Setting up inception_5a/output_inception_5a/output_0_split
I0403 15:46:20.820698 14372 net.cpp:148] Top shape: 24 832 7 7 (978432)
I0403 15:46:20.820713 14372 net.cpp:148] Top shape: 24 832 7 7 (978432)
I0403 15:46:20.820729 14372 net.cpp:148] Top shape: 24 832 7 7 (978432)
I0403 15:46:20.820742 14372 net.cpp:148] Top shape: 24 832 7 7 (978432)
I0403 15:46:20.820755 14372 net.cpp:156] Memory required for data: 1325241888
I0403 15:46:20.820770 14372 layer_factory.hpp:77] Creating layer inception_5b/1x1
I0403 15:46:20.820791 14372 net.cpp:91] Creating Layer inception_5b/1x1
I0403 15:46:20.820808 14372 net.cpp:425] inception_5b/1x1 <- inception_5a/output_inception_5a/output_0_split_0
I0403 15:46:20.820828 14372 net.cpp:399] inception_5b/1x1 -> inception_5b/1x1
I0403 15:46:20.824579 14372 net.cpp:141] Setting up inception_5b/1x1
I0403 15:46:20.824610 14372 net.cpp:148] Top shape: 24 384 7 7 (451584)
I0403 15:46:20.824626 14372 net.cpp:156] Memory required for data: 1327048224
I0403 15:46:20.824645 14372 layer_factory.hpp:77] Creating layer inception_5b/relu_1x1
I0403 15:46:20.824662 14372 net.cpp:91] Creating Layer inception_5b/relu_1x1
I0403 15:46:20.824678 14372 net.cpp:425] inception_5b/relu_1x1 <- inception_5b/1x1
I0403 15:46:20.824697 14372 net.cpp:386] inception_5b/relu_1x1 -> inception_5b/1x1 (in-place)
I0403 15:46:20.824995 14372 net.cpp:141] Setting up inception_5b/relu_1x1
I0403 15:46:20.825021 14372 net.cpp:148] Top shape: 24 384 7 7 (451584)
I0403 15:46:20.825037 14372 net.cpp:156] Memory required for data: 1328854560
I0403 15:46:20.825052 14372 layer_factory.hpp:77] Creating layer inception_5b/3x3_reduce
I0403 15:46:20.825073 14372 net.cpp:91] Creating Layer inception_5b/3x3_reduce
I0403 15:46:20.825100 14372 net.cpp:425] inception_5b/3x3_reduce <- inception_5a/output_inception_5a/output_0_split_1
I0403 15:46:20.825129 14372 net.cpp:399] inception_5b/3x3_reduce -> inception_5b/3x3_reduce
I0403 15:46:20.827791 14372 net.cpp:141] Setting up inception_5b/3x3_reduce
I0403 15:46:20.827823 14372 net.cpp:148] Top shape: 24 192 7 7 (225792)
I0403 15:46:20.827841 14372 net.cpp:156] Memory required for data: 1329757728
I0403 15:46:20.827859 14372 layer_factory.hpp:77] Creating layer inception_5b/relu_3x3_reduce
I0403 15:46:20.827877 14372 net.cpp:91] Creating Layer inception_5b/relu_3x3_reduce
I0403 15:46:20.827893 14372 net.cpp:425] inception_5b/relu_3x3_reduce <- inception_5b/3x3_reduce
I0403 15:46:20.827913 14372 net.cpp:386] inception_5b/relu_3x3_reduce -> inception_5b/3x3_reduce (in-place)
I0403 15:46:20.828114 14372 net.cpp:141] Setting up inception_5b/relu_3x3_reduce
I0403 15:46:20.828155 14372 net.cpp:148] Top shape: 24 192 7 7 (225792)
I0403 15:46:20.828171 14372 net.cpp:156] Memory required for data: 1330660896
I0403 15:46:20.828186 14372 layer_factory.hpp:77] Creating layer inception_5b/3x3
I0403 15:46:20.828209 14372 net.cpp:91] Creating Layer inception_5b/3x3
I0403 15:46:20.828228 14372 net.cpp:425] inception_5b/3x3 <- inception_5b/3x3_reduce
I0403 15:46:20.828251 14372 net.cpp:399] inception_5b/3x3 -> inception_5b/3x3
I0403 15:46:20.835008 14372 net.cpp:141] Setting up inception_5b/3x3
I0403 15:46:20.835037 14372 net.cpp:148] Top shape: 24 384 7 7 (451584)
I0403 15:46:20.835053 14372 net.cpp:156] Memory required for data: 1332467232
I0403 15:46:20.835072 14372 layer_factory.hpp:77] Creating layer inception_5b/relu_3x3
I0403 15:46:20.835088 14372 net.cpp:91] Creating Layer inception_5b/relu_3x3
I0403 15:46:20.835105 14372 net.cpp:425] inception_5b/relu_3x3 <- inception_5b/3x3
I0403 15:46:20.835130 14372 net.cpp:386] inception_5b/relu_3x3 -> inception_5b/3x3 (in-place)
I0403 15:46:20.835428 14372 net.cpp:141] Setting up inception_5b/relu_3x3
I0403 15:46:20.835454 14372 net.cpp:148] Top shape: 24 384 7 7 (451584)
I0403 15:46:20.835469 14372 net.cpp:156] Memory required for data: 1334273568
I0403 15:46:20.835484 14372 layer_factory.hpp:77] Creating layer inception_5b/5x5_reduce
I0403 15:46:20.835521 14372 net.cpp:91] Creating Layer inception_5b/5x5_reduce
I0403 15:46:20.835539 14372 net.cpp:425] inception_5b/5x5_reduce <- inception_5a/output_inception_5a/output_0_split_2
I0403 15:46:20.835562 14372 net.cpp:399] inception_5b/5x5_reduce -> inception_5b/5x5_reduce
I0403 15:46:20.836854 14372 net.cpp:141] Setting up inception_5b/5x5_reduce
I0403 15:46:20.836884 14372 net.cpp:148] Top shape: 24 48 7 7 (56448)
I0403 15:46:20.836900 14372 net.cpp:156] Memory required for data: 1334499360
I0403 15:46:20.836920 14372 layer_factory.hpp:77] Creating layer inception_5b/relu_5x5_reduce
I0403 15:46:20.836949 14372 net.cpp:91] Creating Layer inception_5b/relu_5x5_reduce
I0403 15:46:20.836966 14372 net.cpp:425] inception_5b/relu_5x5_reduce <- inception_5b/5x5_reduce
I0403 15:46:20.836998 14372 net.cpp:386] inception_5b/relu_5x5_reduce -> inception_5b/5x5_reduce (in-place)
I0403 15:46:20.837375 14372 net.cpp:141] Setting up inception_5b/relu_5x5_reduce
I0403 15:46:20.837402 14372 net.cpp:148] Top shape: 24 48 7 7 (56448)
I0403 15:46:20.837419 14372 net.cpp:156] Memory required for data: 1334725152
I0403 15:46:20.837432 14372 layer_factory.hpp:77] Creating layer inception_5b/5x5
I0403 15:46:20.837452 14372 net.cpp:91] Creating Layer inception_5b/5x5
I0403 15:46:20.837468 14372 net.cpp:425] inception_5b/5x5 <- inception_5b/5x5_reduce
I0403 15:46:20.837487 14372 net.cpp:399] inception_5b/5x5 -> inception_5b/5x5
I0403 15:46:20.839535 14372 net.cpp:141] Setting up inception_5b/5x5
I0403 15:46:20.839562 14372 net.cpp:148] Top shape: 24 128 7 7 (150528)
I0403 15:46:20.839578 14372 net.cpp:156] Memory required for data: 1335327264
I0403 15:46:20.839596 14372 layer_factory.hpp:77] Creating layer inception_5b/relu_5x5
I0403 15:46:20.839617 14372 net.cpp:91] Creating Layer inception_5b/relu_5x5
I0403 15:46:20.839633 14372 net.cpp:425] inception_5b/relu_5x5 <- inception_5b/5x5
I0403 15:46:20.839650 14372 net.cpp:386] inception_5b/relu_5x5 -> inception_5b/5x5 (in-place)
I0403 15:46:20.839848 14372 net.cpp:141] Setting up inception_5b/relu_5x5
I0403 15:46:20.839872 14372 net.cpp:148] Top shape: 24 128 7 7 (150528)
I0403 15:46:20.839886 14372 net.cpp:156] Memory required for data: 1335929376
I0403 15:46:20.839900 14372 layer_factory.hpp:77] Creating layer inception_5b/pool
I0403 15:46:20.839920 14372 net.cpp:91] Creating Layer inception_5b/pool
I0403 15:46:20.839936 14372 net.cpp:425] inception_5b/pool <- inception_5a/output_inception_5a/output_0_split_3
I0403 15:46:20.839954 14372 net.cpp:399] inception_5b/pool -> inception_5b/pool
I0403 15:46:20.840026 14372 net.cpp:141] Setting up inception_5b/pool
I0403 15:46:20.840051 14372 net.cpp:148] Top shape: 24 832 7 7 (978432)
I0403 15:46:20.840065 14372 net.cpp:156] Memory required for data: 1339843104
I0403 15:46:20.840080 14372 layer_factory.hpp:77] Creating layer inception_5b/pool_proj
I0403 15:46:20.840101 14372 net.cpp:91] Creating Layer inception_5b/pool_proj
I0403 15:46:20.840117 14372 net.cpp:425] inception_5b/pool_proj <- inception_5b/pool
I0403 15:46:20.840147 14372 net.cpp:399] inception_5b/pool_proj -> inception_5b/pool_proj
I0403 15:46:20.842459 14372 net.cpp:141] Setting up inception_5b/pool_proj
I0403 15:46:20.842491 14372 net.cpp:148] Top shape: 24 128 7 7 (150528)
I0403 15:46:20.842507 14372 net.cpp:156] Memory required for data: 1340445216
I0403 15:46:20.842526 14372 layer_factory.hpp:77] Creating layer inception_5b/relu_pool_proj
I0403 15:46:20.842545 14372 net.cpp:91] Creating Layer inception_5b/relu_pool_proj
I0403 15:46:20.842561 14372 net.cpp:425] inception_5b/relu_pool_proj <- inception_5b/pool_proj
I0403 15:46:20.842582 14372 net.cpp:386] inception_5b/relu_pool_proj -> inception_5b/pool_proj (in-place)
I0403 15:46:20.842890 14372 net.cpp:141] Setting up inception_5b/relu_pool_proj
I0403 15:46:20.842916 14372 net.cpp:148] Top shape: 24 128 7 7 (150528)
I0403 15:46:20.842931 14372 net.cpp:156] Memory required for data: 1341047328
I0403 15:46:20.842947 14372 layer_factory.hpp:77] Creating layer inception_5b/output
I0403 15:46:20.842963 14372 net.cpp:91] Creating Layer inception_5b/output
I0403 15:46:20.842996 14372 net.cpp:425] inception_5b/output <- inception_5b/1x1
I0403 15:46:20.843014 14372 net.cpp:425] inception_5b/output <- inception_5b/3x3
I0403 15:46:20.843029 14372 net.cpp:425] inception_5b/output <- inception_5b/5x5
I0403 15:46:20.843044 14372 net.cpp:425] inception_5b/output <- inception_5b/pool_proj
I0403 15:46:20.843065 14372 net.cpp:399] inception_5b/output -> inception_5b/output
I0403 15:46:20.843116 14372 net.cpp:141] Setting up inception_5b/output
I0403 15:46:20.843149 14372 net.cpp:148] Top shape: 24 1024 7 7 (1204224)
I0403 15:46:20.843165 14372 net.cpp:156] Memory required for data: 1345864224
I0403 15:46:20.843179 14372 layer_factory.hpp:77] Creating layer pool5/7x7_s1
I0403 15:46:20.843196 14372 net.cpp:91] Creating Layer pool5/7x7_s1
I0403 15:46:20.843212 14372 net.cpp:425] pool5/7x7_s1 <- inception_5b/output
I0403 15:46:20.843230 14372 net.cpp:399] pool5/7x7_s1 -> pool5/7x7_s1
I0403 15:46:20.843446 14372 net.cpp:141] Setting up pool5/7x7_s1
I0403 15:46:20.843472 14372 net.cpp:148] Top shape: 24 1024 1 1 (24576)
I0403 15:46:20.843485 14372 net.cpp:156] Memory required for data: 1345962528
I0403 15:46:20.843499 14372 layer_factory.hpp:77] Creating layer pool5/drop_7x7_s1
I0403 15:46:20.843516 14372 net.cpp:91] Creating Layer pool5/drop_7x7_s1
I0403 15:46:20.843533 14372 net.cpp:425] pool5/drop_7x7_s1 <- pool5/7x7_s1
I0403 15:46:20.843552 14372 net.cpp:386] pool5/drop_7x7_s1 -> pool5/7x7_s1 (in-place)
I0403 15:46:20.843601 14372 net.cpp:141] Setting up pool5/drop_7x7_s1
I0403 15:46:20.843627 14372 net.cpp:148] Top shape: 24 1024 1 1 (24576)
I0403 15:46:20.843641 14372 net.cpp:156] Memory required for data: 1346060832
I0403 15:46:20.843657 14372 layer_factory.hpp:77] Creating layer loss3/classifier_plantvillage
I0403 15:46:20.843674 14372 net.cpp:91] Creating Layer loss3/classifier_plantvillage
I0403 15:46:20.843690 14372 net.cpp:425] loss3/classifier_plantvillage <- pool5/7x7_s1
I0403 15:46:20.843710 14372 net.cpp:399] loss3/classifier_plantvillage -> loss3/classifier_plantvillage
I0403 15:46:20.844133 14372 net.cpp:141] Setting up loss3/classifier_plantvillage
I0403 15:46:20.844157 14372 net.cpp:148] Top shape: 24 38 (912)
I0403 15:46:20.844172 14372 net.cpp:156] Memory required for data: 1346064480
I0403 15:46:20.844190 14372 layer_factory.hpp:77] Creating layer loss3/classifier_plantvillage_loss3/classifier_plantvillage_0_split
I0403 15:46:20.844211 14372 net.cpp:91] Creating Layer loss3/classifier_plantvillage_loss3/classifier_plantvillage_0_split
I0403 15:46:20.844230 14372 net.cpp:425] loss3/classifier_plantvillage_loss3/classifier_plantvillage_0_split <- loss3/classifier_plantvillage
I0403 15:46:20.844247 14372 net.cpp:399] loss3/classifier_plantvillage_loss3/classifier_plantvillage_0_split -> loss3/classifier_plantvillage_loss3/classifier_plantvillage_0_split_0
I0403 15:46:20.844270 14372 net.cpp:399] loss3/classifier_plantvillage_loss3/classifier_plantvillage_0_split -> loss3/classifier_plantvillage_loss3/classifier_plantvillage_0_split_1
I0403 15:46:20.844290 14372 net.cpp:399] loss3/classifier_plantvillage_loss3/classifier_plantvillage_0_split -> loss3/classifier_plantvillage_loss3/classifier_plantvillage_0_split_2
I0403 15:46:20.844311 14372 net.cpp:399] loss3/classifier_plantvillage_loss3/classifier_plantvillage_0_split -> loss3/classifier_plantvillage_loss3/classifier_plantvillage_0_split_3
I0403 15:46:20.844410 14372 net.cpp:141] Setting up loss3/classifier_plantvillage_loss3/classifier_plantvillage_0_split
I0403 15:46:20.844434 14372 net.cpp:148] Top shape: 24 38 (912)
I0403 15:46:20.844450 14372 net.cpp:148] Top shape: 24 38 (912)
I0403 15:46:20.844465 14372 net.cpp:148] Top shape: 24 38 (912)
I0403 15:46:20.844480 14372 net.cpp:148] Top shape: 24 38 (912)
I0403 15:46:20.844492 14372 net.cpp:156] Memory required for data: 1346079072
I0403 15:46:20.844507 14372 layer_factory.hpp:77] Creating layer loss1/loss
I0403 15:46:20.844527 14372 net.cpp:91] Creating Layer loss1/loss
I0403 15:46:20.844545 14372 net.cpp:425] loss1/loss <- loss1/classifier_plantvillage_loss1/classifier_plantvillage_0_split_0
I0403 15:46:20.844576 14372 net.cpp:425] loss1/loss <- label_data_1_split_0
…
