…
I0403 15:57:42.325229 14912 net.cpp:313] The NetState phase (1) differed from the phase (0) specified by a rule in layer data
I0403 15:57:42.326339 14912 net.cpp:49] Initializing net from parameters: 
state {
  phase: TEST
}
layer {
  name: "data"
  type: "Data"
  top: "data"
  top: "label"
  include {
    phase: TEST
  }
  transform_param {
    mirror: false
    crop_size: 224
    mean_file: "/home/mohanty/data/final_dataset/lmdb/color-80-20/mean.binaryproto"
  }
  data_param {
    source: "/home/mohanty/data/final_dataset/lmdb/color-80-20/test_db"
    batch_size: 24
    backend: LMDB
  }
}
layer {
  name: "conv1/7x7_s2"
  type: "Convolution"
  bottom: "data"
  top: "conv1/7x7_s2"
  param {
    lr_mult: 1
    decay_mult: 1
  }
  param {
    lr_mult: 2
    decay_mult: 0
  }
  convolution_param {
    num_output: 64
    pad: 3
    kernel_size: 7
    stride: 2
    weight_filler {
      type: "xavier"
      std: 0.1
    }
    bias_filler {
      type: "constant"
      value: 0.2
    }
  }
}
layer {
  name: "conv1/relu_7x7"
  type: "ReLU"
  bottom: "conv1/7x7_s2"
  top: "conv1/7x7_s2"
}
layer {
  name: "pool1/3x3_s2"
  type: "Pooling"
  bottom: "conv1/7x7_s2"
  top: "pool1/3x3_s2"
  pooling_param {
    pool: MAX
    kernel_size: 3
    stride: 2
  }
}
layer {
  name: "pool1/norm1"
  type: "LRN"
  bottom: "pool1/3x3_s2"
  top: "pool1/norm1"
  lrn_param {
    local_size: 5
    alpha: 0.0001
    beta: 0.75
  }
}
layer {
  name: "conv2/3x3_reduce"
  type: "Convolution"
  bottom: "pool1/norm1"
  top: "conv2/3x3_reduce"
  param {
    lr_mult: 1
    decay_mult: 1
  }
  param {
    lr_mult: 2
    decay_mult: 0
  }
  convolution_param {
    num_output: 64
    kernel_size: 1
    weight_filler {
      type: "xavier"
      std: 0.1
    }
    bias_filler {
      type: "constant"
      value: 0.2
    }
  }
}
layer {
  name: "conv2/relu_3x3_reduce"
  type: "ReLU"
  bottom: "conv2/3x3_reduce"
  top: "conv2/3x3_reduce"
}
layer {
  name: "conv2/3x3"
  type: "Convolution"
  bottom: "conv2/3x3_reduce"
  top: "conv2/3x3"
  param {
    lr_mult: 1
    decay_mult: 1
  }
  param {
    lr_mult: 2
    decay_mult: 0
  }
  convolution_param {
    num_output: 192
    pad: 1
    kernel_size: 3
    weight_filler {
      type: "xavier"
      std: 0.03
    }
    bias_filler {
      type: "constant"
      value: 0.2
    }
  }
}
layer {
  name: "conv2/relu_3x3"
  type: "ReLU"
  bottom: "conv2/3x3"
  top: "conv2/3x3"
}
layer {
  name: "conv2/norm2"
  type: "LRN"
  bottom: "conv2/3x3"
  top: "conv2/norm2"
  lrn_param {
    local_size: 5
    alpha: 0.0001
    beta: 0.75
  }
}
layer {
  name: "pool2/3x3_s2"
  type: "Pooling"
  bottom: "conv2/norm2"
  top: "pool2/3x3_s2"
  pooling_param {
    pool: MAX
    kernel_size: 3
    stride: 2
  }
}
layer {
  name: "inception_3a/1x1"
  type: "Convolution"
  bottom: "pool2/3x3_s2"
  top: "inception_3a/1x1"
  param {
    lr_mult: 1
    decay_mult: 1
  }
  param {
    lr_mult: 2
    decay_mult: 0
  }
  convolution_param {
    num_output: 64
    kernel_size: 1
    weight_filler {
      type: "xavier"
      std: 0.03
    }
    bias_filler {
      type: "constant"
      value: 0.2
    }
  }
}
layer {
  name: "inception_3a/relu_1x1"
  type: "ReLU"
  bottom: "inception_3a/1x1"
  top: "inception_3a/1x1"
}
layer {
  name: "inception_3a/3x3_reduce"
  type: "Convolution"
  bottom: "pool2/3x3_s2"
  top: "inception_3a/3x3_reduce"
  param {
    lr_mult: 1
    decay_mult: 1
  }
  param {
    lr_mult: 2
    decay_mult: 0
  }
  convolution_param {
    num_output: 96
    kernel_size: 1
    weight_filler {
      type: "xavier"
      std: 0.09
    }
    bias_filler {
      type: "constant"
      value: 0.2
    }
  }
}
layer {
  name: "inception_3a/relu_3x3_reduce"
  type: "ReLU"
  bottom: "inception_3a/3x3_reduce"
  top: "inception_3a/3x3_reduce"
}
layer {
  name: "inception_3a/3x3"
  type: "Convolution"
  bottom: "inception_3a/3x3_reduce"
  top: "inception_3a/3x3"
  param {
    lr_mult: 1
    decay_mult: 1
  }
  param {
    lr_mult: 2
    decay_mult: 0
  }
  convolution_param {
    num_output: 128
    pad: 1
    kernel_size: 3
    weight_filler {
      type: "xavier"
      std: 0.03
    }
    bias_filler {
      type: "constant"
      value: 0.2
    }
  }
}
layer {
  name: "inception_3a/relu_3x3"
  type: "ReLU"
  bottom: "inception_3a/3x3"
  top: "inception_3a/3x3"
}
layer {
  name: "inception_3a/5x5_reduce"
  type: "Convolution"
  bottom: "pool2/3x3_s2"
  top: "inception_3a/5x5_reduce"
  param {
    lr_mult: 1
    decay_mult: 1
  }
  param {
    lr_mult: 2
    decay_mult: 0
  }
  convolution_param {
    num_output: 16
    kernel_size: 1
    weight_filler {
      type: "xavier"
      std: 0.2
    }
    bias_filler {
      type: "constant"
      value: 0.2
    }
  }
}
layer {
  name: "inception_3a/relu_5x5_reduce"
  type: "ReLU"
  bottom: "inception_3a/5x5_reduce"
  top: "inception_3a/5x5_reduce"
}
layer {
  name: "inception_3a/5x5"
  type: "Convolution"
  bottom: "inception_3a/5x5_reduce"
  top: "inception_3a/5x5"
  param {
    lr_mult: 1
    decay_mult: 1
  }
  param {
    lr_mult: 2
    decay_mult: 0
  }
  convolution_param {
    num_output: 32
    pad: 2
    kernel_size: 5
    weight_filler {
      type: "xavier"
      std: 0.03
    }
    bias_filler {
      type: "constant"
      value: 0.2
    }
  }
}
layer {
  name: "inception_3a/relu_5x5"
  type: "ReLU"
  bottom: "inception_3a/5x5"
  top: "inception_3a/5x5"
}
layer {
  name: "inception_3a/pool"
  type: "Pooling"
  bottom: "pool2/3x3_s2"
  top: "inception_3a/pool"
  pooling_param {
    pool: MAX
    kernel_size: 3
    stride: 1
    pad: 1
  }
}
layer {
  name: "inception_3a/pool_proj"
  type: "Convolution"
  bottom: "inception_3a/pool"
  top: "inception_3a/pool_proj"
  param {
    lr_mult: 1
    decay_mult: 1
  }
  param {
    lr_mult: 2
    decay_mult: 0
  }
  convolution_param {
    num_output: 32
    kernel_size: 1
    weight_filler {
      type: "xavier"
      std: 0.1
    }
    bias_filler {
      type: "constant"
      value: 0.2
    }
  }
}
layer {
  name: "inception_3a/relu_pool_proj"
  type: "ReLU"
  bottom: "inception_3a/pool_proj"
  top: "inception_3a/pool_proj"
}
layer {
  name: "inception_3a/output"
  type: "Concat"
  bottom: "inception_3a/1x1"
  bottom: "inception_3a/3x3"
  bottom: "inception_3a/5x5"
  bottom: "inception_3a/pool_proj"
  top: "inception_3a/output"
}
layer {
  name: "inception_3b/1x1"
  type: "Convolution"
  bottom: "inception_3a/output"
  top: "inception_3b/1x1"
  param {
    lr_mult: 1
    decay_mult: 1
  }
  param {
    lr_mult: 2
    decay_mult: 0
  }
  convolution_param {
    num_output: 128
    kernel_size: 1
    weight_filler {
      type: "xavier"
      std: 0.03
    }
    bias_filler {
      type: "constant"
      value: 0.2
    }
  }
}
layer {
  name: "inception_3b/relu_1x1"
  type: "ReLU"
  bottom: "inception_3b/1x1"
  top: "inception_3b/1x1"
}
layer {
  name: "inception_3b/3x3_reduce"
  type: "Convolution"
  bottom: "inception_3a/output"
  top: "inception_3b/3x3_reduce"
  param {
    lr_mult: 1
    decay_mult: 1
  }
  param {
    lr_mult: 2
    decay_mult: 0
  }
  convolution_param {
    num_output: 128
    kernel_size: 1
    weight_filler {
      type: "xavier"
      std: 0.09
    }
    bias_filler {
      type: "constant"
      value: 0.2
    }
  }
}
layer {
  name: "inception_3b/relu_3x3_reduce"
  type: "ReLU"
  bottom: "inception_3b/3x3_reduce"
  top: "inception_3b/3x3_reduce"
}
layer {
  name: "inception_3b/3x3"
  type: "Convolution"
  bottom: "inception_3b/3x3_reduce"
  top: "inception_3b/3x3"
  param {
    lr_mult: 1
    decay_mult: 1
  }
  param {
    lr_mult: 2
    decay_mult: 0
  }
  convolution_param {
    num_output: 192
    pad: 1
    kernel_size: 3
    weight_filler {
      type: "xavier"
      std: 0.03
    }
    bias_filler {
      type: "constant"
      value: 0.2
    }
  }
}
layer {
  name: "inception_3b/relu_3x3"
  type: "ReLU"
  bottom: "inception_3b/3x3"
  top: "inception_3b/3x3"
}
layer {
  name: "inception_3b/5x5_reduce"
  type: "Convolution"
  bottom: "inception_3a/output"
  top: "inception_3b/5x5_reduce"
  param {
    lr_mult: 1
    decay_mult: 1
  }
  param {
    lr_mult: 2
    decay_mult: 0
  }
  convolution_param {
    num_output: 32
    kernel_size: 1
    weight_filler {
      type: "xavier"
      std: 0.2
    }
    bias_filler {
      type: "constant"
      value: 0.2
    }
  }
}
layer {
  name: "inception_3b/relu_5x5_reduce"
  type: "ReLU"
  bottom: "inception_3b/5x5_reduce"
  top: "inception_3b/5x5_reduce"
}
layer {
  name: "inception_3b/5x5"
  type: "Convolution"
  bottom: "inception_3b/5x5_reduce"
  top: "inception_3b/5x5"
  param {
    lr_mult: 1
    decay_mult: 1
  }
  param {
    lr_mult: 2
    decay_mult: 0
  }
  convolution_param {
    num_output: 96
    pad: 2
    kernel_size: 5
    weight_filler {
      type: "xavier"
      std: 0.03
    }
    bias_filler {
      type: "constant"
      value: 0.2
    }
  }
}
layer {
  name: "inception_3b/relu_5x5"
  type: "ReLU"
  bottom: "inception_3b/5x5"
  top: "inception_3b/5x5"
}
layer {
  name: "inception_3b/pool"
  type: "Pooling"
  bottom: "inception_3a/output"
  top: "inception_3b/pool"
  pooling_param {
    pool: MAX
    kernel_size: 3
    stride: 1
    pad: 1
  }
}
layer {
  name: "inception_3b/pool_proj"
  type: "Convolution"
  bottom: "inception_3b/pool"
  top: "inception_3b/pool_proj"
  param {
    lr_mult: 1
    decay_mult: 1
  }
  param {
    lr_mult: 2
    decay_mult: 0
  }
  convolution_param {
    num_output: 64
    kernel_size: 1
    weight_filler {
      type: "xavier"
      std: 0.1
    }
    bias_filler {
      type: "constant"
      value: 0.2
    }
  }
}
layer {
  name: "inception_3b/relu_pool_proj"
  type: "ReLU"
  bottom: "inception_3b/pool_proj"
  top: "inception_3b/pool_proj"
}
layer {
  name: "inception_3b/output"
  type: "Concat"
  bottom: "inception_3b/1x1"
  bottom: "inception_3b/3x3"
  bottom: "inception_3b/5x5"
  bottom: "inception_3b/pool_proj"
  top: "inception_3b/output"
}
layer {
  name: "pool3/3x3_s2"
  type: "Pooling"
  bottom: "inception_3b/output"
  top: "pool3/3x3_s2"
  pooling_param {
    pool: MAX
    kernel_size: 3
    stride: 2
  }
}
layer {
  name: "inception_4a/1x1"
  type: "Convolution"
  bottom: "pool3/3x3_s2"
  top: "inception_4a/1x1"
  param {
    lr_mult: 1
    decay_mult: 1
  }
  param {
    lr_mult: 2
    decay_mult: 0
  }
  convolution_param {
    num_output: 192
    kernel_size: 1
    weight_filler {
      type: "xavier"
      std: 0.03
    }
    bias_filler {
      type: "constant"
      value: 0.2
    }
  }
}
layer {
  name: "inception_4a/relu_1x1"
  type: "ReLU"
  bottom: "inception_4a/1x1"
  top: "inception_4a/1x1"
}
layer {
  name: "inception_4a/3x3_reduce"
  type: "Convolution"
  bottom: "pool3/3x3_s2"
  top: "inception_4a/3x3_reduce"
  param {
    lr_mult: 1
    decay_mult: 1
  }
  param {
    lr_mult: 2
    decay_mult: 0
  }
  convolution_param {
    num_output: 96
    kernel_size: 1
    weight_filler {
      type: "xavier"
      std: 0.09
    }
    bias_filler {
      type: "constant"
      value: 0.2
    }
  }
}
layer {
  name: "inception_4a/relu_3x3_reduce"
  type: "ReLU"
  bottom: "inception_4a/3x3_reduce"
  top: "inception_4a/3x3_reduce"
}
layer {
  name: "inception_4a/3x3"
  type: "Convolution"
  bottom: "inception_4a/3x3_reduce"
  top: "inception_4a/3x3"
  param {
    lr_mult: 1
    decay_mult: 1
  }
  param {
    lr_mult: 2
    decay_mult: 0
  }
  convolution_param {
    num_output: 208
    pad: 1
    kernel_size: 3
    weight_filler {
      type: "xavier"
      std: 0.03
    }
    bias_filler {
      type: "constant"
      value: 0.2
    }
  }
}
layer {
  name: "inception_4a/relu_3x3"
  type: "ReLU"
  bottom: "inception_4a/3x3"
  top: "inception_4a/3x3"
}
layer {
  name: "inception_4a/5x5_reduce"
  type: "Convolution"
  bottom: "pool3/3x3_s2"
  top: "inception_4a/5x5_reduce"
  param {
    lr_mult: 1
    decay_mult: 1
  }
  param {
    lr_mult: 2
    decay_mult: 0
  }
  convolution_param {
    num_output: 16
    kernel_size: 1
    weight_filler {
      type: "xavier"
      std: 0.2
    }
    bias_filler {
      type: "constant"
      value: 0.2
    }
  }
}
layer {
  name: "inception_4a/relu_5x5_reduce"
  type: "ReLU"
  bottom: "inception_4a/5x5_reduce"
  top: "inception_4a/5x5_reduce"
}
layer {
  name: "inception_4a/5x5"
  type: "Convolution"
  bottom: "inception_4a/5x5_reduce"
  top: "inception_4a/5x5"
  param {
    lr_mult: 1
    decay_mult: 1
  }
  param {
    lr_mult: 2
    decay_mult: 0
  }
  convolution_param {
    num_output: 48
    pad: 2
    kernel_size: 5
    weight_filler {
      type: "xavier"
      std: 0.03
    }
    bias_filler {
      type: "constant"
      value: 0.2
    }
  }
}
layer {
  name: "inception_4a/relu_5x5"
  type: "ReLU"
  bottom: "inception_4a/5x5"
  top: "inception_4a/5x5"
}
layer {
  name: "inception_4a/pool"
  type: "Pooling"
  bottom: "pool3/3x3_s2"
  top: "inception_4a/pool"
  pooling_param {
    pool: MAX
    kernel_size: 3
    stride: 1
    pad: 1
  }
}
layer {
  name: "inception_4a/pool_proj"
  type: "Convolution"
  bottom: "inception_4a/pool"
  top: "inception_4a/pool_proj"
  param {
    lr_mult: 1
    decay_mult: 1
  }
  param {
    lr_mult: 2
    decay_mult: 0
  }
  convolution_param {
    num_output: 64
    kernel_size: 1
    weight_filler {
      type: "xavier"
      std: 0.1
    }
    bias_filler {
      type: "constant"
      value: 0.2
    }
  }
}
layer {
  name: "inception_4a/relu_pool_proj"
  type: "ReLU"
  bottom: "inception_4a/pool_proj"
  top: "inception_4a/pool_proj"
}
layer {
  name: "inception_4a/output"
  type: "Concat"
  bottom: "inception_4a/1x1"
  bottom: "inception_4a/3x3"
  bottom: "inception_4a/5x5"
  bottom: "inception_4a/pool_proj"
  top: "inception_4a/output"
}
layer {
  name: "loss1/ave_pool"
  type: "Pooling"
  bottom: "inception_4a/output"
  top: "loss1/ave_pool"
  pooling_param {
    pool: AVE
    kernel_size: 5
    stride: 3
  }
}
layer {
  name: "loss1/conv"
  type: "Convolution"
  bottom: "loss1/ave_pool"
  top: "loss1/conv"
  param {
    lr_mult: 1
    decay_mult: 1
  }
  param {
    lr_mult: 2
    decay_mult: 0
  }
  convolution_param {
    num_output: 128
    kernel_size: 1
    weight_filler {
      type: "xavier"
      std: 0.08
    }
    bias_filler {
      type: "constant"
      value: 0.2
    }
  }
}
layer {
  name: "loss1/relu_conv"
  type: "ReLU"
  bottom: "loss1/conv"
  top: "loss1/conv"
}
layer {
  name: "loss1/fc"
  type: "InnerProduct"
  bottom: "loss1/conv"
  top: "loss1/fc"
  param {
    lr_mult: 1
    decay_mult: 1
  }
  param {
    lr_mult: 2
    decay_mult: 0
  }
  inner_product_param {
    num_output: 1024
    weight_filler {
      type: "xavier"
      std: 0.02
    }
    bias_filler {
      type: "constant"
      value: 0.2
    }
  }
}
layer {
  name: "loss1/relu_fc"
  type: "ReLU"
  bottom: "loss1/fc"
  top: "loss1/fc"
}
layer {
  name: "loss1/drop_fc"
  type: "Dropout"
  bottom: "loss1/fc"
  top: "loss1/fc"
  dropout_param {
    dropout_ratio: 0.7
  }
}
layer {
  name: "loss1/classifier_plantvillage"
  type: "InnerProduct"
  bottom: "loss1/fc"
  top: "loss1/classifier_plantvillage"
  param {
    lr_mult: 1
    decay_mult: 1
  }
  param {
    lr_mult: 2
    decay_mult: 0
  }
  inner_product_param {
    num_output: 38
    weight_filler {
      type: "xavier"
      std: 0.0009765625
    }
    bias_filler {
      type: "constant"
      value: 0
    }
  }
}
layer {
  name: "inception_4b/1x1"
  type: "Convolution"
  bottom: "inception_4a/output"
  top: "inception_4b/1x1"
  param {
    lr_mult: 1
    decay_mult: 1
  }
  param {
    lr_mult: 2
    decay_mult: 0
  }
  convolution_param {
    num_output: 160
    kernel_size: 1
    weight_filler {
      type: "xavier"
      std: 0.03
    }
    bias_filler {
      type: "constant"
      value: 0.2
    }
  }
}
layer {
  name: "inception_4b/relu_1x1"
  type: "ReLU"
  bottom: "inception_4b/1x1"
  top: "inception_4b/1x1"
}
layer {
  name: "inception_4b/3x3_reduce"
  type: "Convolution"
  bottom: "inception_4a/output"
  top: "inception_4b/3x3_reduce"
  param {
    lr_mult: 1
    decay_mult: 1
  }
  param {
    lr_mult: 2
    decay_mult: 0
  }
  convolution_param {
    num_output: 112
    kernel_size: 1
    weight_filler {
      type: "xavier"
      std: 0.09
    }
    bias_filler {
      type: "constant"
      value: 0.2
    }
  }
}
layer {
  name: "inception_4b/relu_3x3_reduce"
  type: "ReLU"
  bottom: "inception_4b/3x3_reduce"
  top: "inception_4b/3x3_reduce"
}
layer {
  name: "inception_4b/3x3"
  type: "Convolution"
  bottom: "inception_4b/3x3_reduce"
  top: "inception_4b/3x3"
  param {
    lr_mult: 1
    decay_mult: 1
  }
  param {
    lr_mult: 2
    decay_mult: 0
  }
  convolution_param {
    num_output: 224
    pad: 1
    kernel_size: 3
    weight_filler {
      type: "xavier"
      std: 0.03
    }
    bias_filler {
      type: "constant"
      value: 0.2
    }
  }
}
layer {
  name: "inception_4b/relu_3x3"
  type: "ReLU"
  bottom: "inception_4b/3x3"
  top: "inception_4b/3x3"
}
layer {
  name: "inception_4b/5x5_reduce"
  type: "Convolution"
  bottom: "inception_4a/output"
  top: "inception_4b/5x5_reduce"
  param {
    lr_mult: 1
    decay_mult: 1
  }
  param {
    lr_mult: 2
    decay_mult: 0
  }
  convolution_param {
    num_output: 24
    kernel_size: 1
    weight_filler {
      type: "xavier"
      std: 0.2
    }
    bias_filler {
      type: "constant"
      value: 0.2
    }
  }
}
layer {
  name: "inception_4b/relu_5x5_reduce"
  type: "ReLU"
  bottom: "inception_4b/5x5_reduce"
  top: "inception_4b/5x5_reduce"
}
layer {
  name: "inception_4b/5x5"
  type: "Convolution"
  bottom: "inception_4b/5x5_reduce"
  top: "inception_4b/5x5"
  param {
    lr_mult: 1
    decay_mult: 1
  }
  param {
    lr_mult: 2
    decay_mult: 0
  }
  convolution_param {
    num_output: 64
    pad: 2
    kernel_size: 5
    weight_filler {
      type: "xavier"
      std: 0.03
    }
    bias_filler {
      type: "constant"
      value: 0.2
    }
  }
}
layer {
  name: "inception_4b/relu_5x5"
  type: "ReLU"
  bottom: "inception_4b/5x5"
  top: "inception_4b/5x5"
}
layer {
  name: "inception_4b/pool"
  type: "Pooling"
  bottom: "inception_4a/output"
  top: "inception_4b/pool"
  pooling_param {
    pool: MAX
    kernel_size: 3
    stride: 1
    pad: 1
  }
}
layer {
  name: "inception_4b/pool_proj"
  type: "Convolution"
  bottom: "inception_4b/pool"
  top: "inception_4b/pool_proj"
  param {
    lr_mult: 1
    decay_mult: 1
  }
  param {
    lr_mult: 2
    decay_mult: 0
  }
  convolution_param {
    num_output: 64
    kernel_size: 1
    weight_filler {
      type: "xavier"
      std: 0.1
    }
    bias_filler {
      type: "constant"
      value: 0.2
    }
  }
}
layer {
  name: "inception_4b/relu_pool_proj"
  type: "ReLU"
  bottom: "inception_4b/pool_proj"
  top: "inception_4b/pool_proj"
}
layer {
  name: "inception_4b/output"
  type: "Concat"
  bottom: "inception_4b/1x1"
  bottom: "inception_4b/3x3"
  bottom: "inception_4b/5x5"
  bottom: "inception_4b/pool_proj"
  top: "inception_4b/output"
}
layer {
  name: "inception_4c/1x1"
  type: "Convolution"
  bottom: "inception_4b/output"
  top: "inception_4c/1x1"
  param {
    lr_mult: 1
    decay_mult: 1
  }
  param {
    lr_mult: 2
    decay_mult: 0
  }
  convolution_param {
    num_output: 128
    kernel_size: 1
    weight_filler {
      type: "xavier"
      std: 0.03
    }
    bias_filler {
      type: "constant"
      value: 0.2
    }
  }
}
layer {
  name: "inception_4c/relu_1x1"
  type: "ReLU"
  bottom: "inception_4c/1x1"
  top: "inception_4c/1x1"
}
layer {
  name: "inception_4c/3x3_reduce"
  type: "Convolution"
  bottom: "inception_4b/output"
  top: "inception_4c/3x3_reduce"
  param {
    lr_mult: 1
    decay_mult: 1
  }
  param {
    lr_mult: 2
    decay_mult: 0
  }
  convolution_param {
    num_output: 128
    kernel_size: 1
    weight_filler {
      type: "xavier"
      std: 0.09
    }
    bias_filler {
      type: "constant"
      value: 0.2
    }
  }
}
layer {
  name: "inception_4c/relu_3x3_reduce"
  type: "ReLU"
  bottom: "inception_4c/3x3_reduce"
  top: "inception_4c/3x3_reduce"
}
layer {
  name: "inception_4c/3x3"
  type: "Convolution"
  bottom: "inception_4c/3x3_reduce"
  top: "inception_4c/3x3"
  param {
    lr_mult: 1
    decay_mult: 1
  }
  param {
    lr_mult: 2
    decay_mult: 0
  }
  convolution_param {
    num_output: 256
    pad: 1
    kernel_size: 3
    weight_filler {
      type: "xavier"
      std: 0.03
    }
    bias_filler {
      type: "constant"
      value: 0.2
    }
  }
}
layer {
  name: "inception_4c/relu_3x3"
  type: "ReLU"
  bottom: "inception_4c/3x3"
  top: "inception_4c/3x3"
}
layer {
  name: "inception_4c/5x5_reduce"
  type: "Convolution"
  bottom: "inception_4b/output"
  top: "inception_4c/5x5_reduce"
  param {
    lr_mult: 1
    decay_mult: 1
  }
  param {
    lr_mult: 2
    decay_mult: 0
  }
  convolution_param {
    num_output: 24
    kernel_size: 1
    weight_filler {
      type: "xavier"
      std: 0.2
    }
    bias_filler {
      type: "constant"
      value: 0.2
    }
  }
}
layer {
  name: "inception_4c/relu_5x5_reduce"
  type: "ReLU"
  bottom: "inception_4c/5x5_reduce"
  top: "inception_4c/5x5_reduce"
}
layer {
  name: "inception_4c/5x5"
  type: "Convolution"
  bottom: "inception_4c/5x5_reduce"
  top: "inception_4c/5x5"
  param {
    lr_mult: 1
    decay_mult: 1
  }
  param {
    lr_mult: 2
    decay_mult: 0
  }
  convolution_param {
    num_output: 64
    pad: 2
    kernel_size: 5
    weight_filler {
      type: "xavier"
      std: 0.03
    }
    bias_filler {
      type: "constant"
      value: 0.2
    }
  }
}
layer {
  name: "inception_4c/relu_5x5"
  type: "ReLU"
  bottom: "inception_4c/5x5"
  top: "inception_4c/5x5"
}
layer {
  name: "inception_4c/pool"
  type: "Pooling"
  bottom: "inception_4b/output"
  top: "inception_4c/pool"
  pooling_param {
    pool: MAX
    kernel_size: 3
    stride: 1
    pad: 1
  }
}
layer {
  name: "inception_4c/pool_proj"
  type: "Convolution"
  bottom: "inception_4c/pool"
  top: "inception_4c/pool_proj"
  param {
    lr_mult: 1
    decay_mult: 1
  }
  param {
    lr_mult: 2
    decay_mult: 0
  }
  convolution_param {
    num_output: 64
    kernel_size: 1
    weight_filler {
      type: "xavier"
      std: 0.1
    }
    bias_filler {
      type: "constant"
      value: 0.2
    }
  }
}
layer {
  name: "inception_4c/relu_pool_proj"
  type: "ReLU"
  bottom: "inception_4c/pool_proj"
  top: "inception_4c/pool_proj"
}
layer {
  name: "inception_4c/output"
  type: "Concat"
  bottom: "inception_4c/1x1"
  bottom: "inception_4c/3x3"
  bottom: "inception_4c/5x5"
  bottom: "inception_4c/pool_proj"
  top: "inception_4c/output"
}
layer {
  name: "inception_4d/1x1"
  type: "Convolution"
  bottom: "inception_4c/output"
  top: "inception_4d/1x1"
  param {
    lr_mult: 1
    decay_mult: 1
  }
  param {
    lr_mult: 2
    decay_mult: 0
  }
  convolution_param {
    num_output: 112
    kernel_size: 1
    weight_filler {
      type: "xavier"
      std: 0.03
    }
    bias_filler {
      type: "constant"
      value: 0.2
    }
  }
}
layer {
  name: "inception_4d/relu_1x1"
  type: "ReLU"
  bottom: "inception_4d/1x1"
  top: "inception_4d/1x1"
}
layer {
  name: "inception_4d/3x3_reduce"
  type: "Convolution"
  bottom: "inception_4c/output"
  top: "inception_4d/3x3_reduce"
  param {
    lr_mult: 1
    decay_mult: 1
  }
  param {
    lr_mult: 2
    decay_mult: 0
  }
  convolution_param {
    num_output: 144
    kernel_size: 1
    weight_filler {
      type: "xavier"
      std: 0.09
    }
    bias_filler {
      type: "constant"
      value: 0.2
    }
  }
}
layer {
  name: "inception_4d/relu_3x3_reduce"
  type: "ReLU"
  bottom: "inception_4d/3x3_reduce"
  top: "inception_4d/3x3_reduce"
}
layer {
  name: "inception_4d/3x3"
  type: "Convolution"
  bottom: "inception_4d/3x3_reduce"
  top: "inception_4d/3x3"
  param {
    lr_mult: 1
    decay_mult: 1
  }
  param {
    lr_mult: 2
    decay_mult: 0
  }
  convolution_param {
    num_output: 288
    pad: 1
    kernel_size: 3
    weight_filler {
      type: "xavier"
      std: 0.03
    }
    bias_filler {
      type: "constant"
      value: 0.2
    }
  }
}
layer {
  name: "inception_4d/relu_3x3"
  type: "ReLU"
  bottom: "inception_4d/3x3"
  top: "inception_4d/3x3"
}
layer {
  name: "inception_4d/5x5_reduce"
  type: "Convolution"
  bottom: "inception_4c/output"
  top: "inception_4d/5x5_reduce"
  param {
    lr_mult: 1
    decay_mult: 1
  }
  param {
    lr_mult: 2
    decay_mult: 0
  }
  convolution_param {
    num_output: 32
    kernel_size: 1
    weight_filler {
      type: "xavier"
      std: 0.2
    }
    bias_filler {
      type: "constant"
      value: 0.2
    }
  }
}
layer {
  name: "inception_4d/relu_5x5_reduce"
  type: "ReLU"
  bottom: "inception_4d/5x5_reduce"
  top: "inception_4d/5x5_reduce"
}
layer {
  name: "inception_4d/5x5"
  type: "Convolution"
  bottom: "inception_4d/5x5_reduce"
  top: "inception_4d/5x5"
  param {
    lr_mult: 1
    decay_mult: 1
  }
  param {
    lr_mult: 2
    decay_mult: 0
  }
  convolution_param {
    num_output: 64
    pad: 2
    kernel_size: 5
    weight_filler {
      type: "xavier"
      std: 0.03
    }
    bias_filler {
      type: "constant"
      value: 0.2
    }
  }
}
layer {
  name: "inception_4d/relu_5x5"
  type: "ReLU"
  bottom: "inception_4d/5x5"
  top: "inception_4d/5x5"
}
layer {
  name: "inception_4d/pool"
  type: "Pooling"
  bottom: "inception_4c/output"
  top: "inception_4d/pool"
  pooling_param {
    pool: MAX
    kernel_size: 3
    stride: 1
    pad: 1
  }
}
layer {
  name: "inception_4d/pool_proj"
  type: "Convolution"
  bottom: "inception_4d/pool"
  top: "inception_4d/pool_proj"
  param {
    lr_mult: 1
    decay_mult: 1
  }
  param {
    lr_mult: 2
    decay_mult: 0
  }
  convolution_param {
    num_output: 64
    kernel_size: 1
    weight_filler {
      type: "xavier"
      std: 0.1
    }
    bias_filler {
      type: "constant"
      value: 0.2
    }
  }
}
layer {
  name: "inception_4d/relu_pool_proj"
  type: "ReLU"
  bottom: "inception_4d/pool_proj"
  top: "inception_4d/pool_proj"
}
layer {
  name: "inception_4d/output"
  type: "Concat"
  bottom: "inception_4d/1x1"
  bottom: "inception_4d/3x3"
  bottom: "inception_4d/5x5"
  bottom: "inception_4d/pool_proj"
  top: "inception_4d/output"
}
layer {
  name: "loss2/ave_pool"
  type: "Pooling"
  bottom: "inception_4d/output"
  top: "loss2/ave_pool"
  pooling_param {
    pool: AVE
    kernel_size: 5
    stride: 3
  }
}
layer {
  name: "loss2/conv"
  type: "Convolution"
  bottom: "loss2/ave_pool"
  top: "loss2/conv"
  param {
    lr_mult: 1
    decay_mult: 1
  }
  param {
    lr_mult: 2
    decay_mult: 0
  }
  convolution_param {
    num_output: 128
    kernel_size: 1
    weight_filler {
      type: "xavier"
      std: 0.08
    }
    bias_filler {
      type: "constant"
      value: 0.2
    }
  }
}
layer {
  name: "loss2/relu_conv"
  type: "ReLU"
  bottom: "loss2/conv"
  top: "loss2/conv"
}
layer {
  name: "loss2/fc"
  type: "InnerProduct"
  bottom: "loss2/conv"
  top: "loss2/fc"
  param {
    lr_mult: 1
    decay_mult: 1
  }
  param {
    lr_mult: 2
    decay_mult: 0
  }
  inner_product_param {
    num_output: 1024
    weight_filler {
      type: "xavier"
      std: 0.02
    }
    bias_filler {
      type: "constant"
      value: 0.2
    }
  }
}
layer {
  name: "loss2/relu_fc"
  type: "ReLU"
  bottom: "loss2/fc"
  top: "loss2/fc"
}
layer {
  name: "loss2/drop_fc"
  type: "Dropout"
  bottom: "loss2/fc"
  top: "loss2/fc"
  dropout_param {
    dropout_ratio: 0.7
  }
}
layer {
  name: "loss2/classifier_plantvillage"
  type: "InnerProduct"
  bottom: "loss2/fc"
  top: "loss2/classifier_plantvillage"
  param {
    lr_mult: 1
    decay_mult: 1
  }
  param {
    lr_mult: 2
    decay_mult: 0
  }
  inner_product_param {
    num_output: 38
    weight_filler {
      type: "xavier"
      std: 0.0009765625
    }
    bias_filler {
      type: "constant"
      value: 0
    }
  }
}
layer {
  name: "inception_4e/1x1"
  type: "Convolution"
  bottom: "inception_4d/output"
  top: "inception_4e/1x1"
  param {
    lr_mult: 1
    decay_mult: 1
  }
  param {
    lr_mult: 2
    decay_mult: 0
  }
  convolution_param {
    num_output: 256
    kernel_size: 1
    weight_filler {
      type: "xavier"
      std: 0.03
    }
    bias_filler {
      type: "constant"
      value: 0.2
    }
  }
}
layer {
  name: "inception_4e/relu_1x1"
  type: "ReLU"
  bottom: "inception_4e/1x1"
  top: "inception_4e/1x1"
}
layer {
  name: "inception_4e/3x3_reduce"
  type: "Convolution"
  bottom: "inception_4d/output"
  top: "inception_4e/3x3_reduce"
  param {
    lr_mult: 1
    decay_mult: 1
  }
  param {
    lr_mult: 2
    decay_mult: 0
  }
  convolution_param {
    num_output: 160
    kernel_size: 1
    weight_filler {
      type: "xavier"
      std: 0.09
    }
    bias_filler {
      type: "constant"
      value: 0.2
    }
  }
}
layer {
  name: "inception_4e/relu_3x3_reduce"
  type: "ReLU"
  bottom: "inception_4e/3x3_reduce"
  top: "inception_4e/3x3_reduce"
}
layer {
  name: "inception_4e/3x3"
  type: "Convolution"
  bottom: "inception_4e/3x3_reduce"
  top: "inception_4e/3x3"
  param {
    lr_mult: 1
    decay_mult: 1
  }
  param {
    lr_mult: 2
    decay_mult: 0
  }
  convolution_param {
    num_output: 320
    pad: 1
    kernel_size: 3
    weight_filler {
      type: "xavier"
      std: 0.03
    }
    bias_filler {
      type: "constant"
      value: 0.2
    }
  }
}
layer {
  name: "inception_4e/relu_3x3"
  type: "ReLU"
  bottom: "inception_4e/3x3"
  top: "inception_4e/3x3"
}
layer {
  name: "inception_4e/5x5_reduce"
  type: "Convolution"
  bottom: "inception_4d/output"
  top: "inception_4e/5x5_reduce"
  param {
    lr_mult: 1
    decay_mult: 1
  }
  param {
    lr_mult: 2
    decay_mult: 0
  }
  convolution_param {
    num_output: 32
    kernel_size: 1
    weight_filler {
      type: "xavier"
      std: 0.2
    }
    bias_filler {
      type: "constant"
      value: 0.2
    }
  }
}
layer {
  name: "inception_4e/relu_5x5_reduce"
  type: "ReLU"
  bottom: "inception_4e/5x5_reduce"
  top: "inception_4e/5x5_reduce"
}
layer {
  name: "inception_4e/5x5"
  type: "Convolution"
  bottom: "inception_4e/5x5_reduce"
  top: "inception_4e/5x5"
  p
I0403 15:57:42.327832 14912 layer_factory.hpp:77] Creating layer data
I0403 15:57:42.328414 14912 net.cpp:91] Creating Layer data
I0403 15:57:42.328445 14912 net.cpp:399] data -> data
I0403 15:57:42.328495 14912 net.cpp:399] data -> label
I0403 15:57:42.328533 14912 data_transformer.cpp:25] Loading mean file from: /home/mohanty/data/final_dataset/lmdb/color-80-20/mean.binaryproto
I0403 15:57:42.331856 14993 db_lmdb.cpp:38] Opened lmdb /home/mohanty/data/final_dataset/lmdb/color-80-20/test_db
I0403 15:57:42.341609 14912 data_layer.cpp:41] output data size: 24,3,224,224
I0403 15:57:42.368435 14912 net.cpp:141] Setting up data
I0403 15:57:42.368515 14912 net.cpp:148] Top shape: 24 3 224 224 (3612672)
I0403 15:57:42.368537 14912 net.cpp:148] Top shape: 24 (24)
I0403 15:57:42.368552 14912 net.cpp:156] Memory required for data: 14450784
I0403 15:57:42.368577 14912 layer_factory.hpp:77] Creating layer label_data_1_split
I0403 15:57:42.368603 14912 net.cpp:91] Creating Layer label_data_1_split
I0403 15:57:42.368621 14912 net.cpp:425] label_data_1_split <- label
I0403 15:57:42.368651 14912 net.cpp:399] label_data_1_split -> label_data_1_split_0
I0403 15:57:42.368680 14912 net.cpp:399] label_data_1_split -> label_data_1_split_1
I0403 15:57:42.368700 14912 net.cpp:399] label_data_1_split -> label_data_1_split_2
I0403 15:57:42.368719 14912 net.cpp:399] label_data_1_split -> label_data_1_split_3
I0403 15:57:42.368738 14912 net.cpp:399] label_data_1_split -> label_data_1_split_4
I0403 15:57:42.368757 14912 net.cpp:399] label_data_1_split -> label_data_1_split_5
I0403 15:57:42.368777 14912 net.cpp:399] label_data_1_split -> label_data_1_split_6
I0403 15:57:42.368796 14912 net.cpp:399] label_data_1_split -> label_data_1_split_7
I0403 15:57:42.368816 14912 net.cpp:399] label_data_1_split -> label_data_1_split_8
I0403 15:57:42.368835 14912 net.cpp:399] label_data_1_split -> label_data_1_split_9
I0403 15:57:42.368947 14912 net.cpp:141] Setting up label_data_1_split
I0403 15:57:42.368970 14912 net.cpp:148] Top shape: 24 (24)
I0403 15:57:42.368986 14912 net.cpp:148] Top shape: 24 (24)
I0403 15:57:42.369002 14912 net.cpp:148] Top shape: 24 (24)
I0403 15:57:42.369017 14912 net.cpp:148] Top shape: 24 (24)
I0403 15:57:42.369031 14912 net.cpp:148] Top shape: 24 (24)
I0403 15:57:42.369046 14912 net.cpp:148] Top shape: 24 (24)
I0403 15:57:42.369060 14912 net.cpp:148] Top shape: 24 (24)
I0403 15:57:42.369076 14912 net.cpp:148] Top shape: 24 (24)
I0403 15:57:42.369091 14912 net.cpp:148] Top shape: 24 (24)
I0403 15:57:42.369112 14912 net.cpp:148] Top shape: 24 (24)
I0403 15:57:42.369156 14912 net.cpp:156] Memory required for data: 14451744
I0403 15:57:42.369173 14912 layer_factory.hpp:77] Creating layer conv1/7x7_s2
I0403 15:57:42.369202 14912 net.cpp:91] Creating Layer conv1/7x7_s2
I0403 15:57:42.369221 14912 net.cpp:425] conv1/7x7_s2 <- data
I0403 15:57:42.369240 14912 net.cpp:399] conv1/7x7_s2 -> conv1/7x7_s2
I0403 15:57:42.511046 14912 net.cpp:141] Setting up conv1/7x7_s2
I0403 15:57:42.511139 14912 net.cpp:148] Top shape: 24 64 112 112 (19267584)
I0403 15:57:42.511159 14912 net.cpp:156] Memory required for data: 91522080
I0403 15:57:42.511190 14912 layer_factory.hpp:77] Creating layer conv1/relu_7x7
I0403 15:57:42.511216 14912 net.cpp:91] Creating Layer conv1/relu_7x7
I0403 15:57:42.511234 14912 net.cpp:425] conv1/relu_7x7 <- conv1/7x7_s2
I0403 15:57:42.511252 14912 net.cpp:386] conv1/relu_7x7 -> conv1/7x7_s2 (in-place)
I0403 15:57:42.511540 14912 net.cpp:141] Setting up conv1/relu_7x7
I0403 15:57:42.511569 14912 net.cpp:148] Top shape: 24 64 112 112 (19267584)
I0403 15:57:42.511584 14912 net.cpp:156] Memory required for data: 168592416
I0403 15:57:42.511600 14912 layer_factory.hpp:77] Creating layer pool1/3x3_s2
I0403 15:57:42.511623 14912 net.cpp:91] Creating Layer pool1/3x3_s2
I0403 15:57:42.511641 14912 net.cpp:425] pool1/3x3_s2 <- conv1/7x7_s2
I0403 15:57:42.511659 14912 net.cpp:399] pool1/3x3_s2 -> pool1/3x3_s2
I0403 15:57:42.511731 14912 net.cpp:141] Setting up pool1/3x3_s2
I0403 15:57:42.511756 14912 net.cpp:148] Top shape: 24 64 56 56 (4816896)
I0403 15:57:42.511771 14912 net.cpp:156] Memory required for data: 187860000
I0403 15:57:42.511786 14912 layer_factory.hpp:77] Creating layer pool1/norm1
I0403 15:57:42.511809 14912 net.cpp:91] Creating Layer pool1/norm1
I0403 15:57:42.511826 14912 net.cpp:425] pool1/norm1 <- pool1/3x3_s2
I0403 15:57:42.511845 14912 net.cpp:399] pool1/norm1 -> pool1/norm1
I0403 15:57:42.512121 14912 net.cpp:141] Setting up pool1/norm1
I0403 15:57:42.512153 14912 net.cpp:148] Top shape: 24 64 56 56 (4816896)
I0403 15:57:42.512169 14912 net.cpp:156] Memory required for data: 207127584
I0403 15:57:42.512184 14912 layer_factory.hpp:77] Creating layer conv2/3x3_reduce
I0403 15:57:42.512209 14912 net.cpp:91] Creating Layer conv2/3x3_reduce
I0403 15:57:42.512225 14912 net.cpp:425] conv2/3x3_reduce <- pool1/norm1
I0403 15:57:42.512243 14912 net.cpp:399] conv2/3x3_reduce -> conv2/3x3_reduce
I0403 15:57:42.513568 14912 net.cpp:141] Setting up conv2/3x3_reduce
I0403 15:57:42.513597 14912 net.cpp:148] Top shape: 24 64 56 56 (4816896)
I0403 15:57:42.513613 14912 net.cpp:156] Memory required for data: 226395168
I0403 15:57:42.513633 14912 layer_factory.hpp:77] Creating layer conv2/relu_3x3_reduce
I0403 15:57:42.513653 14912 net.cpp:91] Creating Layer conv2/relu_3x3_reduce
I0403 15:57:42.513669 14912 net.cpp:425] conv2/relu_3x3_reduce <- conv2/3x3_reduce
I0403 15:57:42.513685 14912 net.cpp:386] conv2/relu_3x3_reduce -> conv2/3x3_reduce (in-place)
I0403 15:57:42.513927 14912 net.cpp:141] Setting up conv2/relu_3x3_reduce
I0403 15:57:42.513954 14912 net.cpp:148] Top shape: 24 64 56 56 (4816896)
I0403 15:57:42.513970 14912 net.cpp:156] Memory required for data: 245662752
I0403 15:57:42.513985 14912 layer_factory.hpp:77] Creating layer conv2/3x3
I0403 15:57:42.514008 14912 net.cpp:91] Creating Layer conv2/3x3
I0403 15:57:42.514024 14912 net.cpp:425] conv2/3x3 <- conv2/3x3_reduce
I0403 15:57:42.514042 14912 net.cpp:399] conv2/3x3 -> conv2/3x3
I0403 15:57:42.516240 14912 net.cpp:141] Setting up conv2/3x3
I0403 15:57:42.516273 14912 net.cpp:148] Top shape: 24 192 56 56 (14450688)
I0403 15:57:42.516288 14912 net.cpp:156] Memory required for data: 303465504
I0403 15:57:42.516309 14912 layer_factory.hpp:77] Creating layer conv2/relu_3x3
I0403 15:57:42.516327 14912 net.cpp:91] Creating Layer conv2/relu_3x3
I0403 15:57:42.516342 14912 net.cpp:425] conv2/relu_3x3 <- conv2/3x3
I0403 15:57:42.516360 14912 net.cpp:386] conv2/relu_3x3 -> conv2/3x3 (in-place)
I0403 15:57:42.516533 14912 net.cpp:141] Setting up conv2/relu_3x3
I0403 15:57:42.516559 14912 net.cpp:148] Top shape: 24 192 56 56 (14450688)
I0403 15:57:42.516609 14912 net.cpp:156] Memory required for data: 361268256
I0403 15:57:42.516625 14912 layer_factory.hpp:77] Creating layer conv2/norm2
I0403 15:57:42.516645 14912 net.cpp:91] Creating Layer conv2/norm2
I0403 15:57:42.516661 14912 net.cpp:425] conv2/norm2 <- conv2/3x3
I0403 15:57:42.516682 14912 net.cpp:399] conv2/norm2 -> conv2/norm2
I0403 15:57:42.516979 14912 net.cpp:141] Setting up conv2/norm2
I0403 15:57:42.517007 14912 net.cpp:148] Top shape: 24 192 56 56 (14450688)
I0403 15:57:42.517022 14912 net.cpp:156] Memory required for data: 419071008
I0403 15:57:42.517037 14912 layer_factory.hpp:77] Creating layer pool2/3x3_s2
I0403 15:57:42.517055 14912 net.cpp:91] Creating Layer pool2/3x3_s2
I0403 15:57:42.517071 14912 net.cpp:425] pool2/3x3_s2 <- conv2/norm2
I0403 15:57:42.517089 14912 net.cpp:399] pool2/3x3_s2 -> pool2/3x3_s2
I0403 15:57:42.517148 14912 net.cpp:141] Setting up pool2/3x3_s2
I0403 15:57:42.517171 14912 net.cpp:148] Top shape: 24 192 28 28 (3612672)
I0403 15:57:42.517186 14912 net.cpp:156] Memory required for data: 433521696
I0403 15:57:42.517201 14912 layer_factory.hpp:77] Creating layer pool2/3x3_s2_pool2/3x3_s2_0_split
I0403 15:57:42.517221 14912 net.cpp:91] Creating Layer pool2/3x3_s2_pool2/3x3_s2_0_split
I0403 15:57:42.517236 14912 net.cpp:425] pool2/3x3_s2_pool2/3x3_s2_0_split <- pool2/3x3_s2
I0403 15:57:42.517256 14912 net.cpp:399] pool2/3x3_s2_pool2/3x3_s2_0_split -> pool2/3x3_s2_pool2/3x3_s2_0_split_0
I0403 15:57:42.517277 14912 net.cpp:399] pool2/3x3_s2_pool2/3x3_s2_0_split -> pool2/3x3_s2_pool2/3x3_s2_0_split_1
I0403 15:57:42.517297 14912 net.cpp:399] pool2/3x3_s2_pool2/3x3_s2_0_split -> pool2/3x3_s2_pool2/3x3_s2_0_split_2
I0403 15:57:42.517316 14912 net.cpp:399] pool2/3x3_s2_pool2/3x3_s2_0_split -> pool2/3x3_s2_pool2/3x3_s2_0_split_3
I0403 15:57:42.517385 14912 net.cpp:141] Setting up pool2/3x3_s2_pool2/3x3_s2_0_split
I0403 15:57:42.517410 14912 net.cpp:148] Top shape: 24 192 28 28 (3612672)
I0403 15:57:42.517427 14912 net.cpp:148] Top shape: 24 192 28 28 (3612672)
I0403 15:57:42.517442 14912 net.cpp:148] Top shape: 24 192 28 28 (3612672)
I0403 15:57:42.517458 14912 net.cpp:148] Top shape: 24 192 28 28 (3612672)
I0403 15:57:42.517473 14912 net.cpp:156] Memory required for data: 491324448
I0403 15:57:42.517488 14912 layer_factory.hpp:77] Creating layer inception_3a/1x1
I0403 15:57:42.517510 14912 net.cpp:91] Creating Layer inception_3a/1x1
I0403 15:57:42.517529 14912 net.cpp:425] inception_3a/1x1 <- pool2/3x3_s2_pool2/3x3_s2_0_split_0
I0403 15:57:42.517547 14912 net.cpp:399] inception_3a/1x1 -> inception_3a/1x1
I0403 15:57:42.519088 14912 net.cpp:141] Setting up inception_3a/1x1
I0403 15:57:42.519117 14912 net.cpp:148] Top shape: 24 64 28 28 (1204224)
I0403 15:57:42.519137 14912 net.cpp:156] Memory required for data: 496141344
I0403 15:57:42.519158 14912 layer_factory.hpp:77] Creating layer inception_3a/relu_1x1
I0403 15:57:42.519179 14912 net.cpp:91] Creating Layer inception_3a/relu_1x1
I0403 15:57:42.519196 14912 net.cpp:425] inception_3a/relu_1x1 <- inception_3a/1x1
I0403 15:57:42.519213 14912 net.cpp:386] inception_3a/relu_1x1 -> inception_3a/1x1 (in-place)
I0403 15:57:42.519392 14912 net.cpp:141] Setting up inception_3a/relu_1x1
I0403 15:57:42.519418 14912 net.cpp:148] Top shape: 24 64 28 28 (1204224)
I0403 15:57:42.519431 14912 net.cpp:156] Memory required for data: 500958240
I0403 15:57:42.519446 14912 layer_factory.hpp:77] Creating layer inception_3a/3x3_reduce
I0403 15:57:42.519471 14912 net.cpp:91] Creating Layer inception_3a/3x3_reduce
I0403 15:57:42.519490 14912 net.cpp:425] inception_3a/3x3_reduce <- pool2/3x3_s2_pool2/3x3_s2_0_split_1
I0403 15:57:42.519507 14912 net.cpp:399] inception_3a/3x3_reduce -> inception_3a/3x3_reduce
I0403 15:57:42.521194 14912 net.cpp:141] Setting up inception_3a/3x3_reduce
I0403 15:57:42.521224 14912 net.cpp:148] Top shape: 24 96 28 28 (1806336)
I0403 15:57:42.521240 14912 net.cpp:156] Memory required for data: 508183584
I0403 15:57:42.521261 14912 layer_factory.hpp:77] Creating layer inception_3a/relu_3x3_reduce
I0403 15:57:42.521299 14912 net.cpp:91] Creating Layer inception_3a/relu_3x3_reduce
I0403 15:57:42.521317 14912 net.cpp:425] inception_3a/relu_3x3_reduce <- inception_3a/3x3_reduce
I0403 15:57:42.521337 14912 net.cpp:386] inception_3a/relu_3x3_reduce -> inception_3a/3x3_reduce (in-place)
I0403 15:57:42.521520 14912 net.cpp:141] Setting up inception_3a/relu_3x3_reduce
I0403 15:57:42.521546 14912 net.cpp:148] Top shape: 24 96 28 28 (1806336)
I0403 15:57:42.521560 14912 net.cpp:156] Memory required for data: 515408928
I0403 15:57:42.521575 14912 layer_factory.hpp:77] Creating layer inception_3a/3x3
I0403 15:57:42.521597 14912 net.cpp:91] Creating Layer inception_3a/3x3
I0403 15:57:42.521615 14912 net.cpp:425] inception_3a/3x3 <- inception_3a/3x3_reduce
I0403 15:57:42.521639 14912 net.cpp:399] inception_3a/3x3 -> inception_3a/3x3
I0403 15:57:42.523347 14912 net.cpp:141] Setting up inception_3a/3x3
I0403 15:57:42.523389 14912 net.cpp:148] Top shape: 24 128 28 28 (2408448)
I0403 15:57:42.523408 14912 net.cpp:156] Memory required for data: 525042720
I0403 15:57:42.523427 14912 layer_factory.hpp:77] Creating layer inception_3a/relu_3x3
I0403 15:57:42.523444 14912 net.cpp:91] Creating Layer inception_3a/relu_3x3
I0403 15:57:42.523459 14912 net.cpp:425] inception_3a/relu_3x3 <- inception_3a/3x3
I0403 15:57:42.523476 14912 net.cpp:386] inception_3a/relu_3x3 -> inception_3a/3x3 (in-place)
I0403 15:57:42.523746 14912 net.cpp:141] Setting up inception_3a/relu_3x3
I0403 15:57:42.523773 14912 net.cpp:148] Top shape: 24 128 28 28 (2408448)
I0403 15:57:42.523792 14912 net.cpp:156] Memory required for data: 534676512
I0403 15:57:42.523808 14912 layer_factory.hpp:77] Creating layer inception_3a/5x5_reduce
I0403 15:57:42.523828 14912 net.cpp:91] Creating Layer inception_3a/5x5_reduce
I0403 15:57:42.523844 14912 net.cpp:425] inception_3a/5x5_reduce <- pool2/3x3_s2_pool2/3x3_s2_0_split_2
I0403 15:57:42.523864 14912 net.cpp:399] inception_3a/5x5_reduce -> inception_3a/5x5_reduce
I0403 15:57:42.524806 14912 net.cpp:141] Setting up inception_3a/5x5_reduce
I0403 15:57:42.524837 14912 net.cpp:148] Top shape: 24 16 28 28 (301056)
I0403 15:57:42.524854 14912 net.cpp:156] Memory required for data: 535880736
I0403 15:57:42.524873 14912 layer_factory.hpp:77] Creating layer inception_3a/relu_5x5_reduce
I0403 15:57:42.524890 14912 net.cpp:91] Creating Layer inception_3a/relu_5x5_reduce
I0403 15:57:42.524906 14912 net.cpp:425] inception_3a/relu_5x5_reduce <- inception_3a/5x5_reduce
I0403 15:57:42.524924 14912 net.cpp:386] inception_3a/relu_5x5_reduce -> inception_3a/5x5_reduce (in-place)
I0403 15:57:42.525218 14912 net.cpp:141] Setting up inception_3a/relu_5x5_reduce
I0403 15:57:42.525244 14912 net.cpp:148] Top shape: 24 16 28 28 (301056)
I0403 15:57:42.525260 14912 net.cpp:156] Memory required for data: 537084960
I0403 15:57:42.525274 14912 layer_factory.hpp:77] Creating layer inception_3a/5x5
I0403 15:57:42.525297 14912 net.cpp:91] Creating Layer inception_3a/5x5
I0403 15:57:42.525316 14912 net.cpp:425] inception_3a/5x5 <- inception_3a/5x5_reduce
I0403 15:57:42.525341 14912 net.cpp:399] inception_3a/5x5 -> inception_3a/5x5
I0403 15:57:42.526338 14912 net.cpp:141] Setting up inception_3a/5x5
I0403 15:57:42.526366 14912 net.cpp:148] Top shape: 24 32 28 28 (602112)
I0403 15:57:42.526381 14912 net.cpp:156] Memory required for data: 539493408
I0403 15:57:42.526399 14912 layer_factory.hpp:77] Creating layer inception_3a/relu_5x5
I0403 15:57:42.526420 14912 net.cpp:91] Creating Layer inception_3a/relu_5x5
I0403 15:57:42.526437 14912 net.cpp:425] inception_3a/relu_5x5 <- inception_3a/5x5
I0403 15:57:42.526453 14912 net.cpp:386] inception_3a/relu_5x5 -> inception_3a/5x5 (in-place)
I0403 15:57:42.526623 14912 net.cpp:141] Setting up inception_3a/relu_5x5
I0403 15:57:42.526651 14912 net.cpp:148] Top shape: 24 32 28 28 (602112)
I0403 15:57:42.526666 14912 net.cpp:156] Memory required for data: 541901856
I0403 15:57:42.526681 14912 layer_factory.hpp:77] Creating layer inception_3a/pool
I0403 15:57:42.526698 14912 net.cpp:91] Creating Layer inception_3a/pool
I0403 15:57:42.526715 14912 net.cpp:425] inception_3a/pool <- pool2/3x3_s2_pool2/3x3_s2_0_split_3
I0403 15:57:42.526751 14912 net.cpp:399] inception_3a/pool -> inception_3a/pool
I0403 15:57:42.526808 14912 net.cpp:141] Setting up inception_3a/pool
I0403 15:57:42.526832 14912 net.cpp:148] Top shape: 24 192 28 28 (3612672)
I0403 15:57:42.526847 14912 net.cpp:156] Memory required for data: 556352544
I0403 15:57:42.526861 14912 layer_factory.hpp:77] Creating layer inception_3a/pool_proj
I0403 15:57:42.526882 14912 net.cpp:91] Creating Layer inception_3a/pool_proj
I0403 15:57:42.526900 14912 net.cpp:425] inception_3a/pool_proj <- inception_3a/pool
I0403 15:57:42.526921 14912 net.cpp:399] inception_3a/pool_proj -> inception_3a/pool_proj
I0403 15:57:42.527873 14912 net.cpp:141] Setting up inception_3a/pool_proj
I0403 15:57:42.527900 14912 net.cpp:148] Top shape: 24 32 28 28 (602112)
I0403 15:57:42.527916 14912 net.cpp:156] Memory required for data: 558760992
I0403 15:57:42.527940 14912 layer_factory.hpp:77] Creating layer inception_3a/relu_pool_proj
I0403 15:57:42.527959 14912 net.cpp:91] Creating Layer inception_3a/relu_pool_proj
I0403 15:57:42.527976 14912 net.cpp:425] inception_3a/relu_pool_proj <- inception_3a/pool_proj
I0403 15:57:42.527993 14912 net.cpp:386] inception_3a/relu_pool_proj -> inception_3a/pool_proj (in-place)
I0403 15:57:42.528270 14912 net.cpp:141] Setting up inception_3a/relu_pool_proj
I0403 15:57:42.528296 14912 net.cpp:148] Top shape: 24 32 28 28 (602112)
I0403 15:57:42.528314 14912 net.cpp:156] Memory required for data: 561169440
I0403 15:57:42.528329 14912 layer_factory.hpp:77] Creating layer inception_3a/output
I0403 15:57:42.528348 14912 net.cpp:91] Creating Layer inception_3a/output
I0403 15:57:42.528363 14912 net.cpp:425] inception_3a/output <- inception_3a/1x1
I0403 15:57:42.528379 14912 net.cpp:425] inception_3a/output <- inception_3a/3x3
I0403 15:57:42.528395 14912 net.cpp:425] inception_3a/output <- inception_3a/5x5
I0403 15:57:42.528410 14912 net.cpp:425] inception_3a/output <- inception_3a/pool_proj
I0403 15:57:42.528427 14912 net.cpp:399] inception_3a/output -> inception_3a/output
I0403 15:57:42.528475 14912 net.cpp:141] Setting up inception_3a/output
I0403 15:57:42.528499 14912 net.cpp:148] Top shape: 24 256 28 28 (4816896)
I0403 15:57:42.528513 14912 net.cpp:156] Memory required for data: 580437024
I0403 15:57:42.528527 14912 layer_factory.hpp:77] Creating layer inception_3a/output_inception_3a/output_0_split
I0403 15:57:42.528543 14912 net.cpp:91] Creating Layer inception_3a/output_inception_3a/output_0_split
I0403 15:57:42.528559 14912 net.cpp:425] inception_3a/output_inception_3a/output_0_split <- inception_3a/output
I0403 15:57:42.528584 14912 net.cpp:399] inception_3a/output_inception_3a/output_0_split -> inception_3a/output_inception_3a/output_0_split_0
I0403 15:57:42.528604 14912 net.cpp:399] inception_3a/output_inception_3a/output_0_split -> inception_3a/output_inception_3a/output_0_split_1
I0403 15:57:42.528628 14912 net.cpp:399] inception_3a/output_inception_3a/output_0_split -> inception_3a/output_inception_3a/output_0_split_2
I0403 15:57:42.528650 14912 net.cpp:399] inception_3a/output_inception_3a/output_0_split -> inception_3a/output_inception_3a/output_0_split_3
I0403 15:57:42.528725 14912 net.cpp:141] Setting up inception_3a/output_inception_3a/output_0_split
I0403 15:57:42.528749 14912 net.cpp:148] Top shape: 24 256 28 28 (4816896)
I0403 15:57:42.528766 14912 net.cpp:148] Top shape: 24 256 28 28 (4816896)
I0403 15:57:42.528782 14912 net.cpp:148] Top shape: 24 256 28 28 (4816896)
I0403 15:57:42.528798 14912 net.cpp:148] Top shape: 24 256 28 28 (4816896)
I0403 15:57:42.528812 14912 net.cpp:156] Memory required for data: 657507360
I0403 15:57:42.528826 14912 layer_factory.hpp:77] Creating layer inception_3b/1x1
I0403 15:57:42.528848 14912 net.cpp:91] Creating Layer inception_3b/1x1
I0403 15:57:42.528866 14912 net.cpp:425] inception_3b/1x1 <- inception_3a/output_inception_3a/output_0_split_0
I0403 15:57:42.528887 14912 net.cpp:399] inception_3b/1x1 -> inception_3b/1x1
I0403 15:57:42.530021 14912 net.cpp:141] Setting up inception_3b/1x1
I0403 15:57:42.530062 14912 net.cpp:148] Top shape: 24 128 28 28 (2408448)
I0403 15:57:42.530078 14912 net.cpp:156] Memory required for data: 667141152
I0403 15:57:42.530097 14912 layer_factory.hpp:77] Creating layer inception_3b/relu_1x1
I0403 15:57:42.530117 14912 net.cpp:91] Creating Layer inception_3b/relu_1x1
I0403 15:57:42.530140 14912 net.cpp:425] inception_3b/relu_1x1 <- inception_3b/1x1
I0403 15:57:42.530158 14912 net.cpp:386] inception_3b/relu_1x1 -> inception_3b/1x1 (in-place)
I0403 15:57:42.530331 14912 net.cpp:141] Setting up inception_3b/relu_1x1
I0403 15:57:42.530360 14912 net.cpp:148] Top shape: 24 128 28 28 (2408448)
I0403 15:57:42.530376 14912 net.cpp:156] Memory required for data: 676774944
I0403 15:57:42.530391 14912 layer_factory.hpp:77] Creating layer inception_3b/3x3_reduce
I0403 15:57:42.530411 14912 net.cpp:91] Creating Layer inception_3b/3x3_reduce
I0403 15:57:42.530426 14912 net.cpp:425] inception_3b/3x3_reduce <- inception_3a/output_inception_3a/output_0_split_1
I0403 15:57:42.530448 14912 net.cpp:399] inception_3b/3x3_reduce -> inception_3b/3x3_reduce
I0403 15:57:42.531574 14912 net.cpp:141] Setting up inception_3b/3x3_reduce
I0403 15:57:42.531602 14912 net.cpp:148] Top shape: 24 128 28 28 (2408448)
I0403 15:57:42.531617 14912 net.cpp:156] Memory required for data: 686408736
I0403 15:57:42.531635 14912 layer_factory.hpp:77] Creating layer inception_3b/relu_3x3_reduce
I0403 15:57:42.531656 14912 net.cpp:91] Creating Layer inception_3b/relu_3x3_reduce
I0403 15:57:42.531673 14912 net.cpp:425] inception_3b/relu_3x3_reduce <- inception_3b/3x3_reduce
I0403 15:57:42.531690 14912 net.cpp:386] inception_3b/relu_3x3_reduce -> inception_3b/3x3_reduce (in-place)
I0403 15:57:42.531862 14912 net.cpp:141] Setting up inception_3b/relu_3x3_reduce
I0403 15:57:42.531888 14912 net.cpp:148] Top shape: 24 128 28 28 (2408448)
I0403 15:57:42.531901 14912 net.cpp:156] Memory required for data: 696042528
I0403 15:57:42.531916 14912 layer_factory.hpp:77] Creating layer inception_3b/3x3
I0403 15:57:42.531945 14912 net.cpp:91] Creating Layer inception_3b/3x3
I0403 15:57:42.531963 14912 net.cpp:425] inception_3b/3x3 <- inception_3b/3x3_reduce
I0403 15:57:42.531985 14912 net.cpp:399] inception_3b/3x3 -> inception_3b/3x3
I0403 15:57:42.534886 14912 net.cpp:141] Setting up inception_3b/3x3
I0403 15:57:42.534915 14912 net.cpp:148] Top shape: 24 192 28 28 (3612672)
I0403 15:57:42.534935 14912 net.cpp:156] Memory required for data: 710493216
I0403 15:57:42.534955 14912 layer_factory.hpp:77] Creating layer inception_3b/relu_3x3
I0403 15:57:42.534972 14912 net.cpp:91] Creating Layer inception_3b/relu_3x3
I0403 15:57:42.534987 14912 net.cpp:425] inception_3b/relu_3x3 <- inception_3b/3x3
I0403 15:57:42.535006 14912 net.cpp:386] inception_3b/relu_3x3 -> inception_3b/3x3 (in-place)
I0403 15:57:42.535286 14912 net.cpp:141] Setting up inception_3b/relu_3x3
I0403 15:57:42.535315 14912 net.cpp:148] Top shape: 24 192 28 28 (3612672)
I0403 15:57:42.535332 14912 net.cpp:156] Memory required for data: 724943904
I0403 15:57:42.535348 14912 layer_factory.hpp:77] Creating layer inception_3b/5x5_reduce
I0403 15:57:42.535367 14912 net.cpp:91] Creating Layer inception_3b/5x5_reduce
I0403 15:57:42.535384 14912 net.cpp:425] inception_3b/5x5_reduce <- inception_3a/output_inception_3a/output_0_split_2
I0403 15:57:42.535405 14912 net.cpp:399] inception_3b/5x5_reduce -> inception_3b/5x5_reduce
I0403 15:57:42.536403 14912 net.cpp:141] Setting up inception_3b/5x5_reduce
I0403 15:57:42.536432 14912 net.cpp:148] Top shape: 24 32 28 28 (602112)
I0403 15:57:42.536448 14912 net.cpp:156] Memory required for data: 727352352
I0403 15:57:42.536465 14912 layer_factory.hpp:77] Creating layer inception_3b/relu_5x5_reduce
I0403 15:57:42.536486 14912 net.cpp:91] Creating Layer inception_3b/relu_5x5_reduce
I0403 15:57:42.536504 14912 net.cpp:425] inception_3b/relu_5x5_reduce <- inception_3b/5x5_reduce
I0403 15:57:42.536520 14912 net.cpp:386] inception_3b/relu_5x5_reduce -> inception_3b/5x5_reduce (in-place)
I0403 15:57:42.536698 14912 net.cpp:141] Setting up inception_3b/relu_5x5_reduce
I0403 15:57:42.536737 14912 net.cpp:148] Top shape: 24 32 28 28 (602112)
I0403 15:57:42.536754 14912 net.cpp:156] Memory required for data: 729760800
I0403 15:57:42.536769 14912 layer_factory.hpp:77] Creating layer inception_3b/5x5
I0403 15:57:42.536792 14912 net.cpp:91] Creating Layer inception_3b/5x5
I0403 15:57:42.536809 14912 net.cpp:425] inception_3b/5x5 <- inception_3b/5x5_reduce
I0403 15:57:42.536828 14912 net.cpp:399] inception_3b/5x5 -> inception_3b/5x5
I0403 15:57:42.538799 14912 net.cpp:141] Setting up inception_3b/5x5
I0403 15:57:42.538827 14912 net.cpp:148] Top shape: 24 96 28 28 (1806336)
I0403 15:57:42.538843 14912 net.cpp:156] Memory required for data: 736986144
I0403 15:57:42.538862 14912 layer_factory.hpp:77] Creating layer inception_3b/relu_5x5
I0403 15:57:42.538882 14912 net.cpp:91] Creating Layer inception_3b/relu_5x5
I0403 15:57:42.538899 14912 net.cpp:425] inception_3b/relu_5x5 <- inception_3b/5x5
I0403 15:57:42.538916 14912 net.cpp:386] inception_3b/relu_5x5 -> inception_3b/5x5 (in-place)
I0403 15:57:42.539108 14912 net.cpp:141] Setting up inception_3b/relu_5x5
I0403 15:57:42.539137 14912 net.cpp:148] Top shape: 24 96 28 28 (1806336)
I0403 15:57:42.539155 14912 net.cpp:156] Memory required for data: 744211488
I0403 15:57:42.539168 14912 layer_factory.hpp:77] Creating layer inception_3b/pool
I0403 15:57:42.539186 14912 net.cpp:91] Creating Layer inception_3b/pool
I0403 15:57:42.539202 14912 net.cpp:425] inception_3b/pool <- inception_3a/output_inception_3a/output_0_split_3
I0403 15:57:42.539221 14912 net.cpp:399] inception_3b/pool -> inception_3b/pool
I0403 15:57:42.539275 14912 net.cpp:141] Setting up inception_3b/pool
I0403 15:57:42.539299 14912 net.cpp:148] Top shape: 24 256 28 28 (4816896)
I0403 15:57:42.539312 14912 net.cpp:156] Memory required for data: 763479072
I0403 15:57:42.539327 14912 layer_factory.hpp:77] Creating layer inception_3b/pool_proj
I0403 15:57:42.539350 14912 net.cpp:91] Creating Layer inception_3b/pool_proj
I0403 15:57:42.539367 14912 net.cpp:425] inception_3b/pool_proj <- inception_3b/pool
I0403 15:57:42.539388 14912 net.cpp:399] inception_3b/pool_proj -> inception_3b/pool_proj
I0403 15:57:42.540438 14912 net.cpp:141] Setting up inception_3b/pool_proj
I0403 15:57:42.540469 14912 net.cpp:148] Top shape: 24 64 28 28 (1204224)
I0403 15:57:42.540485 14912 net.cpp:156] Memory required for data: 768295968
I0403 15:57:42.540504 14912 layer_factory.hpp:77] Creating layer inception_3b/relu_pool_proj
I0403 15:57:42.540523 14912 net.cpp:91] Creating Layer inception_3b/relu_pool_proj
I0403 15:57:42.540539 14912 net.cpp:425] inception_3b/relu_pool_proj <- inception_3b/pool_proj
I0403 15:57:42.540557 14912 net.cpp:386] inception_3b/relu_pool_proj -> inception_3b/pool_proj (in-place)
I0403 15:57:42.540943 14912 net.cpp:141] Setting up inception_3b/relu_pool_proj
I0403 15:57:42.540973 14912 net.cpp:148] Top shape: 24 64 28 28 (1204224)
I0403 15:57:42.540989 14912 net.cpp:156] Memory required for data: 773112864
I0403 15:57:42.541004 14912 layer_factory.hpp:77] Creating layer inception_3b/output
I0403 15:57:42.541023 14912 net.cpp:91] Creating Layer inception_3b/output
I0403 15:57:42.541038 14912 net.cpp:425] inception_3b/output <- inception_3b/1x1
I0403 15:57:42.541054 14912 net.cpp:425] inception_3b/output <- inception_3b/3x3
I0403 15:57:42.541069 14912 net.cpp:425] inception_3b/output <- inception_3b/5x5
I0403 15:57:42.541085 14912 net.cpp:425] inception_3b/output <- inception_3b/pool_proj
I0403 15:57:42.541101 14912 net.cpp:399] inception_3b/output -> inception_3b/output
I0403 15:57:42.541151 14912 net.cpp:141] Setting up inception_3b/output
I0403 15:57:42.541174 14912 net.cpp:148] Top shape: 24 480 28 28 (9031680)
I0403 15:57:42.541189 14912 net.cpp:156] Memory required for data: 809239584
I0403 15:57:42.541203 14912 layer_factory.hpp:77] Creating layer pool3/3x3_s2
I0403 15:57:42.541224 14912 net.cpp:91] Creating Layer pool3/3x3_s2
I0403 15:57:42.541240 14912 net.cpp:425] pool3/3x3_s2 <- inception_3b/output
I0403 15:57:42.541259 14912 net.cpp:399] pool3/3x3_s2 -> pool3/3x3_s2
I0403 15:57:42.541332 14912 net.cpp:141] Setting up pool3/3x3_s2
I0403 15:57:42.541357 14912 net.cpp:148] Top shape: 24 480 14 14 (2257920)
I0403 15:57:42.541371 14912 net.cpp:156] Memory required for data: 818271264
I0403 15:57:42.541386 14912 layer_factory.hpp:77] Creating layer pool3/3x3_s2_pool3/3x3_s2_0_split
I0403 15:57:42.541404 14912 net.cpp:91] Creating Layer pool3/3x3_s2_pool3/3x3_s2_0_split
I0403 15:57:42.541419 14912 net.cpp:425] pool3/3x3_s2_pool3/3x3_s2_0_split <- pool3/3x3_s2
I0403 15:57:42.541438 14912 net.cpp:399] pool3/3x3_s2_pool3/3x3_s2_0_split -> pool3/3x3_s2_pool3/3x3_s2_0_split_0
I0403 15:57:42.541458 14912 net.cpp:399] pool3/3x3_s2_pool3/3x3_s2_0_split -> pool3/3x3_s2_pool3/3x3_s2_0_split_1
I0403 15:57:42.541478 14912 net.cpp:399] pool3/3x3_s2_pool3/3x3_s2_0_split -> pool3/3x3_s2_pool3/3x3_s2_0_split_2
I0403 15:57:42.541496 14912 net.cpp:399] pool3/3x3_s2_pool3/3x3_s2_0_split -> pool3/3x3_s2_pool3/3x3_s2_0_split_3
I0403 15:57:42.541574 14912 net.cpp:141] Setting up pool3/3x3_s2_pool3/3x3_s2_0_split
I0403 15:57:42.541600 14912 net.cpp:148] Top shape: 24 480 14 14 (2257920)
I0403 15:57:42.541617 14912 net.cpp:148] Top shape: 24 480 14 14 (2257920)
I0403 15:57:42.541632 14912 net.cpp:148] Top shape: 24 480 14 14 (2257920)
I0403 15:57:42.541647 14912 net.cpp:148] Top shape: 24 480 14 14 (2257920)
I0403 15:57:42.541661 14912 net.cpp:156] Memory required for data: 854397984
I0403 15:57:42.541676 14912 layer_factory.hpp:77] Creating layer inception_4a/1x1
I0403 15:57:42.541697 14912 net.cpp:91] Creating Layer inception_4a/1x1
I0403 15:57:42.541714 14912 net.cpp:425] inception_4a/1x1 <- pool3/3x3_s2_pool3/3x3_s2_0_split_0
I0403 15:57:42.541733 14912 net.cpp:399] inception_4a/1x1 -> inception_4a/1x1
I0403 15:57:42.543304 14912 net.cpp:141] Setting up inception_4a/1x1
I0403 15:57:42.543334 14912 net.cpp:148] Top shape: 24 192 14 14 (903168)
I0403 15:57:42.543351 14912 net.cpp:156] Memory required for data: 858010656
I0403 15:57:42.543370 14912 layer_factory.hpp:77] Creating layer inception_4a/relu_1x1
I0403 15:57:42.543388 14912 net.cpp:91] Creating Layer inception_4a/relu_1x1
I0403 15:57:42.543404 14912 net.cpp:425] inception_4a/relu_1x1 <- inception_4a/1x1
I0403 15:57:42.543422 14912 net.cpp:386] inception_4a/relu_1x1 -> inception_4a/1x1 (in-place)
I0403 15:57:42.543602 14912 net.cpp:141] Setting up inception_4a/relu_1x1
I0403 15:57:42.543627 14912 net.cpp:148] Top shape: 24 192 14 14 (903168)
I0403 15:57:42.543642 14912 net.cpp:156] Memory required for data: 861623328
I0403 15:57:42.543658 14912 layer_factory.hpp:77] Creating layer inception_4a/3x3_reduce
I0403 15:57:42.543680 14912 net.cpp:91] Creating Layer inception_4a/3x3_reduce
I0403 15:57:42.543697 14912 net.cpp:425] inception_4a/3x3_reduce <- pool3/3x3_s2_pool3/3x3_s2_0_split_1
I0403 15:57:42.543718 14912 net.cpp:399] inception_4a/3x3_reduce -> inception_4a/3x3_reduce
I0403 15:57:42.544981 14912 net.cpp:141] Setting up inception_4a/3x3_reduce
I0403 15:57:42.545008 14912 net.cpp:148] Top shape: 24 96 14 14 (451584)
I0403 15:57:42.545024 14912 net.cpp:156] Memory required for data: 863429664
I0403 15:57:42.545049 14912 layer_factory.hpp:77] Creating layer inception_4a/relu_3x3_reduce
I0403 15:57:42.545069 14912 net.cpp:91] Creating Layer inception_4a/relu_3x3_reduce
I0403 15:57:42.545085 14912 net.cpp:425] inception_4a/relu_3x3_reduce <- inception_4a/3x3_reduce
I0403 15:57:42.545104 14912 net.cpp:386] inception_4a/relu_3x3_reduce -> inception_4a/3x3_reduce (in-place)
I0403 15:57:42.545284 14912 net.cpp:141] Setting up inception_4a/relu_3x3_reduce
I0403 15:57:42.545310 14912 net.cpp:148] Top shape: 24 96 14 14 (451584)
I0403 15:57:42.545325 14912 net.cpp:156] Memory required for data: 865236000
I0403 15:57:42.545341 14912 layer_factory.hpp:77] Creating layer inception_4a/3x3
I0403 15:57:42.545363 14912 net.cpp:91] Creating Layer inception_4a/3x3
I0403 15:57:42.545380 14912 net.cpp:425] inception_4a/3x3 <- inception_4a/3x3_reduce
I0403 15:57:42.545403 14912 net.cpp:399] inception_4a/3x3 -> inception_4a/3x3
I0403 15:57:42.548072 14912 net.cpp:141] Setting up inception_4a/3x3
I0403 15:57:42.548100 14912 net.cpp:148] Top shape: 24 208 14 14 (978432)
I0403 15:57:42.548115 14912 net.cpp:156] Memory required for data: 869149728
I0403 15:57:42.548137 14912 layer_factory.hpp:77] Creating layer inception_4a/relu_3x3
I0403 15:57:42.548157 14912 net.cpp:91] Creating Layer inception_4a/relu_3x3
I0403 15:57:42.548173 14912 net.cpp:425] inception_4a/relu_3x3 <- inception_4a/3x3
I0403 15:57:42.548190 14912 net.cpp:386] inception_4a/relu_3x3 -> inception_4a/3x3 (in-place)
I0403 15:57:42.548452 14912 net.cpp:141] Setting up inception_4a/relu_3x3
I0403 15:57:42.548477 14912 net.cpp:148] Top shape: 24 208 14 14 (978432)
I0403 15:57:42.548491 14912 net.cpp:156] Memory required for data: 873063456
I0403 15:57:42.548506 14912 layer_factory.hpp:77] Creating layer inception_4a/5x5_reduce
I0403 15:57:42.548527 14912 net.cpp:91] Creating Layer inception_4a/5x5_reduce
I0403 15:57:42.548544 14912 net.cpp:425] inception_4a/5x5_reduce <- pool3/3x3_s2_pool3/3x3_s2_0_split_2
I0403 15:57:42.548564 14912 net.cpp:399] inception_4a/5x5_reduce -> inception_4a/5x5_reduce
I0403 15:57:42.549518 14912 net.cpp:141] Setting up inception_4a/5x5_reduce
I0403 15:57:42.549546 14912 net.cpp:148] Top shape: 24 16 14 14 (75264)
I0403 15:57:42.549559 14912 net.cpp:156] Memory required for data: 873364512
I0403 15:57:42.549576 14912 layer_factory.hpp:77] Creating layer inception_4a/relu_5x5_reduce
I0403 15:57:42.549595 14912 net.cpp:91] Creating Layer inception_4a/relu_5x5_reduce
I0403 15:57:42.549610 14912 net.cpp:425] inception_4a/relu_5x5_reduce <- inception_4a/5x5_reduce
I0403 15:57:42.549626 14912 net.cpp:386] inception_4a/relu_5x5_reduce -> inception_4a/5x5_reduce (in-place)
I0403 15:57:42.549793 14912 net.cpp:141] Setting up inception_4a/relu_5x5_reduce
I0403 15:57:42.549819 14912 net.cpp:148] Top shape: 24 16 14 14 (75264)
I0403 15:57:42.549834 14912 net.cpp:156] Memory required for data: 873665568
I0403 15:57:42.549847 14912 layer_factory.hpp:77] Creating layer inception_4a/5x5
I0403 15:57:42.549867 14912 net.cpp:91] Creating Layer inception_4a/5x5
I0403 15:57:42.549885 14912 net.cpp:425] inception_4a/5x5 <- inception_4a/5x5_reduce
I0403 15:57:42.549902 14912 net.cpp:399] inception_4a/5x5 -> inception_4a/5x5
I0403 15:57:42.550935 14912 net.cpp:141] Setting up inception_4a/5x5
I0403 15:57:42.550962 14912 net.cpp:148] Top shape: 24 48 14 14 (225792)
I0403 15:57:42.550978 14912 net.cpp:156] Memory required for data: 874568736
I0403 15:57:42.550995 14912 layer_factory.hpp:77] Creating layer inception_4a/relu_5x5
I0403 15:57:42.551013 14912 net.cpp:91] Creating Layer inception_4a/relu_5x5
I0403 15:57:42.551029 14912 net.cpp:425] inception_4a/relu_5x5 <- inception_4a/5x5
I0403 15:57:42.551046 14912 net.cpp:386] inception_4a/relu_5x5 -> inception_4a/5x5 (in-place)
I0403 15:57:42.551218 14912 net.cpp:141] Setting up inception_4a/relu_5x5
I0403 15:57:42.551241 14912 net.cpp:148] Top shape: 24 48 14 14 (225792)
I0403 15:57:42.551255 14912 net.cpp:156] Memory required for data: 875471904
I0403 15:57:42.551270 14912 layer_factory.hpp:77] Creating layer inception_4a/pool
I0403 15:57:42.551287 14912 net.cpp:91] Creating Layer inception_4a/pool
I0403 15:57:42.551302 14912 net.cpp:425] inception_4a/pool <- pool3/3x3_s2_pool3/3x3_s2_0_split_3
I0403 15:57:42.551321 14912 net.cpp:399] inception_4a/pool -> inception_4a/pool
I0403 15:57:42.551378 14912 net.cpp:141] Setting up inception_4a/pool
I0403 15:57:42.551403 14912 net.cpp:148] Top shape: 24 480 14 14 (2257920)
I0403 15:57:42.551417 14912 net.cpp:156] Memory required for data: 884503584
I0403 15:57:42.551431 14912 layer_factory.hpp:77] Creating layer inception_4a/pool_proj
I0403 15:57:42.551452 14912 net.cpp:91] Creating Layer inception_4a/pool_proj
I0403 15:57:42.551467 14912 net.cpp:425] inception_4a/pool_proj <- inception_4a/pool
I0403 15:57:42.551484 14912 net.cpp:399] inception_4a/pool_proj -> inception_4a/pool_proj
I0403 15:57:42.552579 14912 net.cpp:141] Setting up inception_4a/pool_proj
I0403 15:57:42.552606 14912 net.cpp:148] Top shape: 24 64 14 14 (301056)
I0403 15:57:42.552635 14912 net.cpp:156] Memory required for data: 885707808
I0403 15:57:42.552654 14912 layer_factory.hpp:77] Creating layer inception_4a/relu_pool_proj
I0403 15:57:42.552670 14912 net.cpp:91] Creating Layer inception_4a/relu_pool_proj
I0403 15:57:42.552685 14912 net.cpp:425] inception_4a/relu_pool_proj <- inception_4a/pool_proj
I0403 15:57:42.552705 14912 net.cpp:386] inception_4a/relu_pool_proj -> inception_4a/pool_proj (in-place)
I0403 15:57:42.552968 14912 net.cpp:141] Setting up inception_4a/relu_pool_proj
I0403 15:57:42.552994 14912 net.cpp:148] Top shape: 24 64 14 14 (301056)
I0403 15:57:42.553009 14912 net.cpp:156] Memory required for data: 886912032
I0403 15:57:42.553023 14912 layer_factory.hpp:77] Creating layer inception_4a/output
I0403 15:57:42.553040 14912 net.cpp:91] Creating Layer inception_4a/output
I0403 15:57:42.553055 14912 net.cpp:425] inception_4a/output <- inception_4a/1x1
I0403 15:57:42.553069 14912 net.cpp:425] inception_4a/output <- inception_4a/3x3
I0403 15:57:42.553084 14912 net.cpp:425] inception_4a/output <- inception_4a/5x5
I0403 15:57:42.553099 14912 net.cpp:425] inception_4a/output <- inception_4a/pool_proj
I0403 15:57:42.553117 14912 net.cpp:399] inception_4a/output -> inception_4a/output
I0403 15:57:42.553170 14912 net.cpp:141] Setting up inception_4a/output
I0403 15:57:42.553196 14912 net.cpp:148] Top shape: 24 512 14 14 (2408448)
I0403 15:57:42.553211 14912 net.cpp:156] Memory required for data: 896545824
I0403 15:57:42.553225 14912 layer_factory.hpp:77] Creating layer inception_4a/output_inception_4a/output_0_split
I0403 15:57:42.553243 14912 net.cpp:91] Creating Layer inception_4a/output_inception_4a/output_0_split
I0403 15:57:42.553257 14912 net.cpp:425] inception_4a/output_inception_4a/output_0_split <- inception_4a/output
I0403 15:57:42.553274 14912 net.cpp:399] inception_4a/output_inception_4a/output_0_split -> inception_4a/output_inception_4a/output_0_split_0
I0403 15:57:42.553292 14912 net.cpp:399] inception_4a/output_inception_4a/output_0_split -> inception_4a/output_inception_4a/output_0_split_1
I0403 15:57:42.553313 14912 net.cpp:399] inception_4a/output_inception_4a/output_0_split -> inception_4a/output_inception_4a/output_0_split_2
I0403 15:57:42.553334 14912 net.cpp:399] inception_4a/output_inception_4a/output_0_split -> inception_4a/output_inception_4a/output_0_split_3
I0403 15:57:42.553354 14912 net.cpp:399] inception_4a/output_inception_4a/output_0_split -> inception_4a/output_inception_4a/output_0_split_4
I0403 15:57:42.553445 14912 net.cpp:141] Setting up inception_4a/output_inception_4a/output_0_split
I0403 15:57:42.553467 14912 net.cpp:148] Top shape: 24 512 14 14 (2408448)
I0403 15:57:42.553483 14912 net.cpp:148] Top shape: 24 512 14 14 (2408448)
I0403 15:57:42.553496 14912 net.cpp:148] Top shape: 24 512 14 14 (2408448)
I0403 15:57:42.553510 14912 net.cpp:148] Top shape: 24 512 14 14 (2408448)
I0403 15:57:42.553525 14912 net.cpp:148] Top shape: 24 512 14 14 (2408448)
I0403 15:57:42.553539 14912 net.cpp:156] Memory required for data: 944714784
I0403 15:57:42.553552 14912 layer_factory.hpp:77] Creating layer loss1/ave_pool
I0403 15:57:42.553571 14912 net.cpp:91] Creating Layer loss1/ave_pool
I0403 15:57:42.553588 14912 net.cpp:425] loss1/ave_pool <- inception_4a/output_inception_4a/output_0_split_0
I0403 15:57:42.553606 14912 net.cpp:399] loss1/ave_pool -> loss1/ave_pool
I0403 15:57:42.553796 14912 net.cpp:141] Setting up loss1/ave_pool
I0403 15:57:42.553820 14912 net.cpp:148] Top shape: 24 512 4 4 (196608)
I0403 15:57:42.553834 14912 net.cpp:156] Memory required for data: 945501216
I0403 15:57:42.553848 14912 layer_factory.hpp:77] Creating layer loss1/conv
I0403 15:57:42.553869 14912 net.cpp:91] Creating Layer loss1/conv
I0403 15:57:42.553887 14912 net.cpp:425] loss1/conv <- loss1/ave_pool
I0403 15:57:42.553906 14912 net.cpp:399] loss1/conv -> loss1/conv
I0403 15:57:42.555222 14912 net.cpp:141] Setting up loss1/conv
I0403 15:57:42.555249 14912 net.cpp:148] Top shape: 24 128 4 4 (49152)
I0403 15:57:42.555265 14912 net.cpp:156] Memory required for data: 945697824
I0403 15:57:42.555296 14912 layer_factory.hpp:77] Creating layer loss1/relu_conv
I0403 15:57:42.555316 14912 net.cpp:91] Creating Layer loss1/relu_conv
I0403 15:57:42.555332 14912 net.cpp:425] loss1/relu_conv <- loss1/conv
I0403 15:57:42.555351 14912 net.cpp:386] loss1/relu_conv -> loss1/conv (in-place)
I0403 15:57:42.555613 14912 net.cpp:141] Setting up loss1/relu_conv
I0403 15:57:42.555637 14912 net.cpp:148] Top shape: 24 128 4 4 (49152)
I0403 15:57:42.555651 14912 net.cpp:156] Memory required for data: 945894432
I0403 15:57:42.555665 14912 layer_factory.hpp:77] Creating layer loss1/fc
I0403 15:57:42.555691 14912 net.cpp:91] Creating Layer loss1/fc
I0403 15:57:42.555708 14912 net.cpp:425] loss1/fc <- loss1/conv
I0403 15:57:42.555726 14912 net.cpp:399] loss1/fc -> loss1/fc
I0403 15:57:42.572469 14912 net.cpp:141] Setting up loss1/fc
I0403 15:57:42.572501 14912 net.cpp:148] Top shape: 24 1024 (24576)
I0403 15:57:42.572515 14912 net.cpp:156] Memory required for data: 945992736
I0403 15:57:42.572532 14912 layer_factory.hpp:77] Creating layer loss1/relu_fc
I0403 15:57:42.572551 14912 net.cpp:91] Creating Layer loss1/relu_fc
I0403 15:57:42.572566 14912 net.cpp:425] loss1/relu_fc <- loss1/fc
I0403 15:57:42.572583 14912 net.cpp:386] loss1/relu_fc -> loss1/fc (in-place)
I0403 15:57:42.572757 14912 net.cpp:141] Setting up loss1/relu_fc
I0403 15:57:42.572780 14912 net.cpp:148] Top shape: 24 1024 (24576)
I0403 15:57:42.572794 14912 net.cpp:156] Memory required for data: 946091040
I0403 15:57:42.572808 14912 layer_factory.hpp:77] Creating layer loss1/drop_fc
I0403 15:57:42.572834 14912 net.cpp:91] Creating Layer loss1/drop_fc
I0403 15:57:42.572850 14912 net.cpp:425] loss1/drop_fc <- loss1/fc
I0403 15:57:42.572867 14912 net.cpp:386] loss1/drop_fc -> loss1/fc (in-place)
I0403 15:57:42.572913 14912 net.cpp:141] Setting up loss1/drop_fc
I0403 15:57:42.572939 14912 net.cpp:148] Top shape: 24 1024 (24576)
I0403 15:57:42.572954 14912 net.cpp:156] Memory required for data: 946189344
I0403 15:57:42.572968 14912 layer_factory.hpp:77] Creating layer loss1/classifier_plantvillage
I0403 15:57:42.572986 14912 net.cpp:91] Creating Layer loss1/classifier_plantvillage
I0403 15:57:42.573001 14912 net.cpp:425] loss1/classifier_plantvillage <- loss1/fc
I0403 15:57:42.573021 14912 net.cpp:399] loss1/classifier_plantvillage -> loss1/classifier_plantvillage
I0403 15:57:42.573880 14912 net.cpp:141] Setting up loss1/classifier_plantvillage
I0403 15:57:42.573909 14912 net.cpp:148] Top shape: 24 38 (912)
I0403 15:57:42.573923 14912 net.cpp:156] Memory required for data: 946192992
I0403 15:57:42.573941 14912 layer_factory.hpp:77] Creating layer loss1/classifier_plantvillage_loss1/classifier_plantvillage_0_split
I0403 15:57:42.573958 14912 net.cpp:91] Creating Layer loss1/classifier_plantvillage_loss1/classifier_plantvillage_0_split
I0403 15:57:42.573977 14912 net.cpp:425] loss1/classifier_plantvillage_loss1/classifier_plantvillage_0_split <- loss1/classifier_plantvillage
I0403 15:57:42.573994 14912 net.cpp:399] loss1/classifier_plantvillage_loss1/classifier_plantvillage_0_split -> loss1/classifier_plantvillage_loss1/classifier_plantvillage_0_split_0
I0403 15:57:42.574012 14912 net.cpp:399] loss1/classifier_plantvillage_loss1/classifier_plantvillage_0_split -> loss1/classifier_plantvillage_loss1/classifier_plantvillage_0_split_1
I0403 15:57:42.574031 14912 net.cpp:399] loss1/classifier_plantvillage_loss1/classifier_plantvillage_0_split -> loss1/classifier_plantvillage_loss1/classifier_plantvillage_0_split_2
I0403 15:57:42.574092 14912 net.cpp:141] Setting up loss1/classifier_plantvillage_loss1/classifier_plantvillage_0_split
I0403 15:57:42.574116 14912 net.cpp:148] Top shape: 24 38 (912)
I0403 15:57:42.574152 14912 net.cpp:148] Top shape: 24 38 (912)
I0403 15:57:42.574169 14912 net.cpp:148] Top shape: 24 38 (912)
I0403 15:57:42.574192 14912 net.cpp:156] Memory required for data: 946203936
I0403 15:57:42.574205 14912 layer_factory.hpp:77] Creating layer inception_4b/1x1
I0403 15:57:42.574224 14912 net.cpp:91] Creating Layer inception_4b/1x1
I0403 15:57:42.574256 14912 net.cpp:425] inception_4b/1x1 <- inception_4a/output_inception_4a/output_0_split_1
I0403 15:57:42.574276 14912 net.cpp:399] inception_4b/1x1 -> inception_4b/1x1
I0403 15:57:42.575850 14912 net.cpp:141] Setting up inception_4b/1x1
I0403 15:57:42.575877 14912 net.cpp:148] Top shape: 24 160 14 14 (752640)
I0403 15:57:42.575893 14912 net.cpp:156] Memory required for data: 949214496
I0403 15:57:42.575911 14912 layer_factory.hpp:77] Creating layer inception_4b/relu_1x1
I0403 15:57:42.575930 14912 net.cpp:91] Creating Layer inception_4b/relu_1x1
I0403 15:57:42.575947 14912 net.cpp:425] inception_4b/relu_1x1 <- inception_4b/1x1
I0403 15:57:42.575965 14912 net.cpp:386] inception_4b/relu_1x1 -> inception_4b/1x1 (in-place)
I0403 15:57:42.576144 14912 net.cpp:141] Setting up inception_4b/relu_1x1
I0403 15:57:42.576171 14912 net.cpp:148] Top shape: 24 160 14 14 (752640)
I0403 15:57:42.576186 14912 net.cpp:156] Memory required for data: 952225056
I0403 15:57:42.576201 14912 layer_factory.hpp:77] Creating layer inception_4b/3x3_reduce
I0403 15:57:42.576222 14912 net.cpp:91] Creating Layer inception_4b/3x3_reduce
I0403 15:57:42.576241 14912 net.cpp:425] inception_4b/3x3_reduce <- inception_4a/output_inception_4a/output_0_split_2
I0403 15:57:42.576259 14912 net.cpp:399] inception_4b/3x3_reduce -> inception_4b/3x3_reduce
I0403 15:57:42.577589 14912 net.cpp:141] Setting up inception_4b/3x3_reduce
I0403 15:57:42.577616 14912 net.cpp:148] Top shape: 24 112 14 14 (526848)
I0403 15:57:42.577631 14912 net.cpp:156] Memory required for data: 954332448
I0403 15:57:42.577652 14912 layer_factory.hpp:77] Creating layer inception_4b/relu_3x3_reduce
I0403 15:57:42.577672 14912 net.cpp:91] Creating Layer inception_4b/relu_3x3_reduce
I0403 15:57:42.577688 14912 net.cpp:425] inception_4b/relu_3x3_reduce <- inception_4b/3x3_reduce
I0403 15:57:42.577704 14912 net.cpp:386] inception_4b/relu_3x3_reduce -> inception_4b/3x3_reduce (in-place)
I0403 15:57:42.577975 14912 net.cpp:141] Setting up inception_4b/relu_3x3_reduce
I0403 15:57:42.578001 14912 net.cpp:148] Top shape: 24 112 14 14 (526848)
I0403 15:57:42.578016 14912 net.cpp:156] Memory required for data: 956439840
I0403 15:57:42.578032 14912 layer_factory.hpp:77] Creating layer inception_4b/3x3
I0403 15:57:42.578054 14912 net.cpp:91] Creating Layer inception_4b/3x3
I0403 15:57:42.578073 14912 net.cpp:425] inception_4b/3x3 <- inception_4b/3x3_reduce
I0403 15:57:42.578091 14912 net.cpp:399] inception_4b/3x3 -> inception_4b/3x3
I0403 15:57:42.580978 14912 net.cpp:141] Setting up inception_4b/3x3
I0403 15:57:42.581007 14912 net.cpp:148] Top shape: 24 224 14 14 (1053696)
I0403 15:57:42.581023 14912 net.cpp:156] Memory required for data: 960654624
I0403 15:57:42.581042 14912 layer_factory.hpp:77] Creating layer inception_4b/relu_3x3
I0403 15:57:42.581059 14912 net.cpp:91] Creating Layer inception_4b/relu_3x3
I0403 15:57:42.581079 14912 net.cpp:425] inception_4b/relu_3x3 <- inception_4b/3x3
I0403 15:57:42.581095 14912 net.cpp:386] inception_4b/relu_3x3 -> inception_4b/3x3 (in-place)
I0403 15:57:42.581275 14912 net.cpp:141] Setting up inception_4b/relu_3x3
I0403 15:57:42.581301 14912 net.cpp:148] Top shape: 24 224 14 14 (1053696)
I0403 15:57:42.581315 14912 net.cpp:156] Memory required for data: 964869408
I0403 15:57:42.581331 14912 layer_factory.hpp:77] Creating layer inception_4b/5x5_reduce
I0403 15:57:42.581351 14912 net.cpp:91] Creating Layer inception_4b/5x5_reduce
I0403 15:57:42.581369 14912 net.cpp:425] inception_4b/5x5_reduce <- inception_4a/output_inception_4a/output_0_split_3
I0403 15:57:42.581392 14912 net.cpp:399] inception_4b/5x5_reduce -> inception_4b/5x5_reduce
I0403 15:57:42.582439 14912 net.cpp:141] Setting up inception_4b/5x5_reduce
I0403 15:57:42.582468 14912 net.cpp:148] Top shape: 24 24 14 14 (112896)
I0403 15:57:42.582482 14912 net.cpp:156] Memory required for data: 965320992
I0403 15:57:42.582500 14912 layer_factory.hpp:77] Creating layer inception_4b/relu_5x5_reduce
I0403 15:57:42.582520 14912 net.cpp:91] Creating Layer inception_4b/relu_5x5_reduce
I0403 15:57:42.582551 14912 net.cpp:425] inception_4b/relu_5x5_reduce <- inception_4b/5x5_reduce
I0403 15:57:42.582569 14912 net.cpp:386] inception_4b/relu_5x5_reduce -> inception_4b/5x5_reduce (in-place)
I0403 15:57:42.582746 14912 net.cpp:141] Setting up inception_4b/relu_5x5_reduce
I0403 15:57:42.582770 14912 net.cpp:148] Top shape: 24 24 14 14 (112896)
I0403 15:57:42.582784 14912 net.cpp:156] Memory required for data: 965772576
I0403 15:57:42.582799 14912 layer_factory.hpp:77] Creating layer inception_4b/5x5
I0403 15:57:42.582821 14912 net.cpp:91] Creating Layer inception_4b/5x5
I0403 15:57:42.582839 14912 net.cpp:425] inception_4b/5x5 <- inception_4b/5x5_reduce
I0403 15:57:42.582859 14912 net.cpp:399] inception_4b/5x5 -> inception_4b/5x5
I0403 15:57:42.584056 14912 net.cpp:141] Setting up inception_4b/5x5
I0403 15:57:42.584085 14912 net.cpp:148] Top shape: 24 64 14 14 (301056)
I0403 15:57:42.584100 14912 net.cpp:156] Memory required for data: 966976800
I0403 15:57:42.584116 14912 layer_factory.hpp:77] Creating layer inception_4b/relu_5x5
I0403 15:57:42.584142 14912 net.cpp:91] Creating Layer inception_4b/relu_5x5
I0403 15:57:42.584161 14912 net.cpp:425] inception_4b/relu_5x5 <- inception_4b/5x5
I0403 15:57:42.584177 14912 net.cpp:386] inception_4b/relu_5x5 -> inception_4b/5x5 (in-place)
I0403 15:57:42.584452 14912 net.cpp:141] Setting up inception_4b/relu_5x5
I0403 15:57:42.584480 14912 net.cpp:148] Top shape: 24 64 14 14 (301056)
I0403 15:57:42.584494 14912 net.cpp:156] Memory required for data: 968181024
I0403 15:57:42.584508 14912 layer_factory.hpp:77] Creating layer inception_4b/pool
I0403 15:57:42.584528 14912 net.cpp:91] Creating Layer inception_4b/pool
I0403 15:57:42.584547 14912 net.cpp:425] inception_4b/pool <- inception_4a/output_inception_4a/output_0_split_4
I0403 15:57:42.584565 14912 net.cpp:399] inception_4b/pool -> inception_4b/pool
I0403 15:57:42.584628 14912 net.cpp:141] Setting up inception_4b/pool
I0403 15:57:42.584651 14912 net.cpp:148] Top shape: 24 512 14 14 (2408448)
I0403 15:57:42.584666 14912 net.cpp:156] Memory required for data: 977814816
I0403 15:57:42.584681 14912 layer_factory.hpp:77] Creating layer inception_4b/pool_proj
I0403 15:57:42.584702 14912 net.cpp:91] Creating Layer inception_4b/pool_proj
I0403 15:57:42.584719 14912 net.cpp:425] inception_4b/pool_proj <- inception_4b/pool
I0403 15:57:42.584739 14912 net.cpp:399] inception_4b/pool_proj -> inception_4b/pool_proj
I0403 15:57:42.585894 14912 net.cpp:141] Setting up inception_4b/pool_proj
I0403 15:57:42.585922 14912 net.cpp:148] Top shape: 24 64 14 14 (301056)
I0403 15:57:42.585937 14912 net.cpp:156] Memory required for data: 979019040
I0403 15:57:42.585954 14912 layer_factory.hpp:77] Creating layer inception_4b/relu_pool_proj
I0403 15:57:42.585976 14912 net.cpp:91] Creating Layer inception_4b/relu_pool_proj
I0403 15:57:42.585993 14912 net.cpp:425] inception_4b/relu_pool_proj <- inception_4b/pool_proj
I0403 15:57:42.586009 14912 net.cpp:386] inception_4b/relu_pool_proj -> inception_4b/pool_proj (in-place)
I0403 15:57:42.586189 14912 net.cpp:141] Setting up inception_4b/relu_pool_proj
I0403 15:57:42.586215 14912 net.cpp:148] Top shape: 24 64 14 14 (301056)
I0403 15:57:42.586230 14912 net.cpp:156] Memory required for data: 980223264
I0403 15:57:42.586246 14912 layer_factory.hpp:77] Creating layer inception_4b/output
I0403 15:57:42.586261 14912 net.cpp:91] Creating Layer inception_4b/output
I0403 15:57:42.586277 14912 net.cpp:425] inception_4b/output <- inception_4b/1x1
I0403 15:57:42.586292 14912 net.cpp:425] inception_4b/output <- inception_4b/3x3
I0403 15:57:42.586308 14912 net.cpp:425] inception_4b/output <- inception_4b/5x5
I0403 15:57:42.586323 14912 net.cpp:425] inception_4b/output <- inception_4b/pool_proj
I0403 15:57:42.586341 14912 net.cpp:399] inception_4b/output -> inception_4b/output
I0403 15:57:42.586385 14912 net.cpp:141] Setting up inception_4b/output
I0403 15:57:42.586410 14912 net.cpp:148] Top shape: 24 512 14 14 (2408448)
I0403 15:57:42.586423 14912 net.cpp:156] Memory required for data: 989857056
I0403 15:57:42.586452 14912 layer_factory.hpp:77] Creating layer inception_4b/output_inception_4b/output_0_split
I0403 15:57:42.586472 14912 net.cpp:91] Creating Layer inception_4b/output_inception_4b/output_0_split
I0403 15:57:42.586488 14912 net.cpp:425] inception_4b/output_inception_4b/output_0_split <- inception_4b/output
I0403 15:57:42.586506 14912 net.cpp:399] inception_4b/output_inception_4b/output_0_split -> inception_4b/output_inception_4b/output_0_split_0
I0403 15:57:42.586525 14912 net.cpp:399] inception_4b/output_inception_4b/output_0_split -> inception_4b/output_inception_4b/output_0_split_1
I0403 15:57:42.586545 14912 net.cpp:399] inception_4b/output_inception_4b/output_0_split -> inception_4b/output_inception_4b/output_0_split_2
I0403 15:57:42.586566 14912 net.cpp:399] inception_4b/output_inception_4b/output_0_split -> inception_4b/output_inception_4b/output_0_split_3
I0403 15:57:42.586647 14912 net.cpp:141] Setting up inception_4b/output_inception_4b/output_0_split
I0403 15:57:42.586671 14912 net.cpp:148] Top shape: 24 512 14 14 (2408448)
I0403 15:57:42.586688 14912 net.cpp:148] Top shape: 24 512 14 14 (2408448)
I0403 15:57:42.586702 14912 net.cpp:148] Top shape: 24 512 14 14 (2408448)
I0403 15:57:42.586716 14912 net.cpp:148] Top shape: 24 512 14 14 (2408448)
I0403 15:57:42.586730 14912 net.cpp:156] Memory required for data: 1028392224
I0403 15:57:42.586743 14912 layer_factory.hpp:77] Creating layer inception_4c/1x1
I0403 15:57:42.586766 14912 net.cpp:91] Creating Layer inception_4c/1x1
I0403 15:57:42.586783 14912 net.cpp:425] inception_4c/1x1 <- inception_4b/output_inception_4b/output_0_split_0
I0403 15:57:42.586803 14912 net.cpp:399] inception_4c/1x1 -> inception_4c/1x1
I0403 15:57:42.588188 14912 net.cpp:141] Setting up inception_4c/1x1
I0403 15:57:42.588219 14912 net.cpp:148] Top shape: 24 128 14 14 (602112)
I0403 15:57:42.588235 14912 net.cpp:156] Memory required for data: 1030800672
I0403 15:57:42.588253 14912 layer_factory.hpp:77] Creating layer inception_4c/relu_1x1
I0403 15:57:42.588270 14912 net.cpp:91] Creating Layer inception_4c/relu_1x1
I0403 15:57:42.588287 14912 net.cpp:425] inception_4c/relu_1x1 <- inception_4c/1x1
I0403 15:57:42.588307 14912 net.cpp:386] inception_4c/relu_1x1 -> inception_4c/1x1 (in-place)
I0403 15:57:42.588479 14912 net.cpp:141] Setting up inception_4c/relu_1x1
I0403 15:57:42.588505 14912 net.cpp:148] Top shape: 24 128 14 14 (602112)
I0403 15:57:42.588518 14912 net.cpp:156] Memory required for data: 1033209120
I0403 15:57:42.588532 14912 layer_factory.hpp:77] Creating layer inception_4c/3x3_reduce
I0403 15:57:42.588556 14912 net.cpp:91] Creating Layer inception_4c/3x3_reduce
I0403 15:57:42.588572 14912 net.cpp:425] inception_4c/3x3_reduce <- inception_4b/output_inception_4b/output_0_split_1
I0403 15:57:42.588592 14912 net.cpp:399] inception_4c/3x3_reduce -> inception_4c/3x3_reduce
I0403 15:57:42.590461 14912 net.cpp:141] Setting up inception_4c/3x3_reduce
I0403 15:57:42.590488 14912 net.cpp:148] Top shape: 24 128 14 14 (602112)
I0403 15:57:42.590504 14912 net.cpp:156] Memory required for data: 1035617568
I0403 15:57:42.590523 14912 layer_factory.hpp:77] Creating layer inception_4c/relu_3x3_reduce
I0403 15:57:42.590541 14912 net.cpp:91] Creating Layer inception_4c/relu_3x3_reduce
I0403 15:57:42.590556 14912 net.cpp:425] inception_4c/relu_3x3_reduce <- inception_4c/3x3_reduce
I0403 15:57:42.590574 14912 net.cpp:386] inception_4c/relu_3x3_reduce -> inception_4c/3x3_reduce (in-place)
I0403 15:57:42.590849 14912 net.cpp:141] Setting up inception_4c/relu_3x3_reduce
I0403 15:57:42.590875 14912 net.cpp:148] Top shape: 24 128 14 14 (602112)
I0403 15:57:42.590890 14912 net.cpp:156] Memory required for data: 1038026016
I0403 15:57:42.590905 14912 layer_factory.hpp:77] Creating layer inception_4c/3x3
I0403 15:57:42.590927 14912 net.cpp:91] Creating Layer inception_4c/3x3
I0403 15:57:42.590945 14912 net.cpp:425] inception_4c/3x3 <- inception_4c/3x3_reduce
I0403 15:57:42.590966 14912 net.cpp:399] inception_4c/3x3 -> inception_4c/3x3
I0403 15:57:42.594444 14912 net.cpp:141] Setting up inception_4c/3x3
I0403 15:57:42.594483 14912 net.cpp:148] Top shape: 24 256 14 14 (1204224)
I0403 15:57:42.594499 14912 net.cpp:156] Memory required for data: 1042842912
I0403 15:57:42.594529 14912 layer_factory.hpp:77] Creating layer inception_4c/relu_3x3
I0403 15:57:42.594550 14912 net.cpp:91] Creating Layer inception_4c/relu_3x3
I0403 15:57:42.594566 14912 net.cpp:425] inception_4c/relu_3x3 <- inception_4c/3x3
I0403 15:57:42.594583 14912 net.cpp:386] inception_4c/relu_3x3 -> inception_4c/3x3 (in-place)
I0403 15:57:42.594758 14912 net.cpp:141] Setting up inception_4c/relu_3x3
I0403 15:57:42.594781 14912 net.cpp:148] Top shape: 24 256 14 14 (1204224)
I0403 15:57:42.594794 14912 net.cpp:156] Memory required for data: 1047659808
I0403 15:57:42.594808 14912 layer_factory.hpp:77] Creating layer inception_4c/5x5_reduce
I0403 15:57:42.594831 14912 net.cpp:91] Creating Layer inception_4c/5x5_reduce
I0403 15:57:42.594848 14912 net.cpp:425] inception_4c/5x5_reduce <- inception_4b/output_inception_4b/output_0_split_2
I0403 15:57:42.594866 14912 net.cpp:399] inception_4c/5x5_reduce -> inception_4c/5x5_reduce
I0403 15:57:42.595898 14912 net.cpp:141] Setting up inception_4c/5x5_reduce
I0403 15:57:42.595926 14912 net.cpp:148] Top shape: 24 24 14 14 (112896)
I0403 15:57:42.595939 14912 net.cpp:156] Memory required for data: 1048111392
I0403 15:57:42.595957 14912 layer_factory.hpp:77] Creating layer inception_4c/relu_5x5_reduce
I0403 15:57:42.595974 14912 net.cpp:91] Creating Layer inception_4c/relu_5x5_reduce
I0403 15:57:42.595991 14912 net.cpp:425] inception_4c/relu_5x5_reduce <- inception_4c/5x5_reduce
I0403 15:57:42.596009 14912 net.cpp:386] inception_4c/relu_5x5_reduce -> inception_4c/5x5_reduce (in-place)
I0403 15:57:42.596186 14912 net.cpp:141] Setting up inception_4c/relu_5x5_reduce
I0403 15:57:42.596211 14912 net.cpp:148] Top shape: 24 24 14 14 (112896)
I0403 15:57:42.596225 14912 net.cpp:156] Memory required for data: 1048562976
I0403 15:57:42.596238 14912 layer_factory.hpp:77] Creating layer inception_4c/5x5
I0403 15:57:42.596259 14912 net.cpp:91] Creating Layer inception_4c/5x5
I0403 15:57:42.596276 14912 net.cpp:425] inception_4c/5x5 <- inception_4c/5x5_reduce
I0403 15:57:42.596297 14912 net.cpp:399] inception_4c/5x5 -> inception_4c/5x5
I0403 15:57:42.597475 14912 net.cpp:141] Setting up inception_4c/5x5
I0403 15:57:42.597503 14912 net.cpp:148] Top shape: 24 64 14 14 (301056)
I0403 15:57:42.597519 14912 net.cpp:156] Memory required for data: 1049767200
I0403 15:57:42.597537 14912 layer_factory.hpp:77] Creating layer inception_4c/relu_5x5
I0403 15:57:42.597553 14912 net.cpp:91] Creating Layer inception_4c/relu_5x5
I0403 15:57:42.597569 14912 net.cpp:425] inception_4c/relu_5x5 <- inception_4c/5x5
I0403 15:57:42.597587 14912 net.cpp:386] inception_4c/relu_5x5 -> inception_4c/5x5 (in-place)
I0403 15:57:42.597862 14912 net.cpp:141] Setting up inception_4c/relu_5x5
I0403 15:57:42.597889 14912 net.cpp:148] Top shape: 24 64 14 14 (301056)
I0403 15:57:42.597904 14912 net.cpp:156] Memory required for data: 1050971424
I0403 15:57:42.597918 14912 layer_factory.hpp:77] Creating layer inception_4c/pool
I0403 15:57:42.597935 14912 net.cpp:91] Creating Layer inception_4c/pool
I0403 15:57:42.597950 14912 net.cpp:425] inception_4c/pool <- inception_4b/output_inception_4b/output_0_split_3
I0403 15:57:42.597970 14912 net.cpp:399] inception_4c/pool -> inception_4c/pool
I0403 15:57:42.598031 14912 net.cpp:141] Setting up inception_4c/pool
I0403 15:57:42.598057 14912 net.cpp:148] Top shape: 24 512 14 14 (2408448)
I0403 15:57:42.598072 14912 net.cpp:156] Memory required for data: 1060605216
I0403 15:57:42.598085 14912 layer_factory.hpp:77] Creating layer inception_4c/pool_proj
I0403 15:57:42.598104 14912 net.cpp:91] Creating Layer inception_4c/pool_proj
I0403 15:57:42.598119 14912 net.cpp:425] inception_4c/pool_proj <- inception_4c/pool
I0403 15:57:42.598145 14912 net.cpp:399] inception_4c/pool_proj -> inception_4c/pool_proj
I0403 15:57:42.599310 14912 net.cpp:141] Setting up inception_4c/pool_proj
I0403 15:57:42.599337 14912 net.cpp:148] Top shape: 24 64 14 14 (301056)
I0403 15:57:42.599366 14912 net.cpp:156] Memory required for data: 1061809440
I0403 15:57:42.599385 14912 layer_factory.hpp:77] Creating layer inception_4c/relu_pool_proj
I0403 15:57:42.599406 14912 net.cpp:91] Creating Layer inception_4c/relu_pool_proj
I0403 15:57:42.599421 14912 net.cpp:425] inception_4c/relu_pool_proj <- inception_4c/pool_proj
I0403 15:57:42.599438 14912 net.cpp:386] inception_4c/relu_pool_proj -> inception_4c/pool_proj (in-place)
I0403 15:57:42.599611 14912 net.cpp:141] Setting up inception_4c/relu_pool_proj
I0403 15:57:42.599637 14912 net.cpp:148] Top shape: 24 64 14 14 (301056)
I0403 15:57:42.599653 14912 net.cpp:156] Memory required for data: 1063013664
I0403 15:57:42.599668 14912 layer_factory.hpp:77] Creating layer inception_4c/output
I0403 15:57:42.599684 14912 net.cpp:91] Creating Layer inception_4c/output
I0403 15:57:42.599699 14912 net.cpp:425] inception_4c/output <- inception_4c/1x1
I0403 15:57:42.599714 14912 net.cpp:425] inception_4c/output <- inception_4c/3x3
I0403 15:57:42.599730 14912 net.cpp:425] inception_4c/output <- inception_4c/5x5
I0403 15:57:42.599745 14912 net.cpp:425] inception_4c/output <- inception_4c/pool_proj
I0403 15:57:42.599762 14912 net.cpp:399] inception_4c/output -> inception_4c/output
I0403 15:57:42.599805 14912 net.cpp:141] Setting up inception_4c/output
I0403 15:57:42.599828 14912 net.cpp:148] Top shape: 24 512 14 14 (2408448)
I0403 15:57:42.599841 14912 net.cpp:156] Memory required for data: 1072647456
I0403 15:57:42.599855 14912 layer_factory.hpp:77] Creating layer inception_4c/output_inception_4c/output_0_split
I0403 15:57:42.599872 14912 net.cpp:91] Creating Layer inception_4c/output_inception_4c/output_0_split
I0403 15:57:42.599889 14912 net.cpp:425] inception_4c/output_inception_4c/output_0_split <- inception_4c/output
I0403 15:57:42.599905 14912 net.cpp:399] inception_4c/output_inception_4c/output_0_split -> inception_4c/output_inception_4c/output_0_split_0
I0403 15:57:42.599925 14912 net.cpp:399] inception_4c/output_inception_4c/output_0_split -> inception_4c/output_inception_4c/output_0_split_1
I0403 15:57:42.599946 14912 net.cpp:399] inception_4c/output_inception_4c/output_0_split -> inception_4c/output_inception_4c/output_0_split_2
I0403 15:57:42.599966 14912 net.cpp:399] inception_4c/output_inception_4c/output_0_split -> inception_4c/output_inception_4c/output_0_split_3
I0403 15:57:42.600046 14912 net.cpp:141] Setting up inception_4c/output_inception_4c/output_0_split
I0403 15:57:42.600069 14912 net.cpp:148] Top shape: 24 512 14 14 (2408448)
I0403 15:57:42.600085 14912 net.cpp:148] Top shape: 24 512 14 14 (2408448)
I0403 15:57:42.600098 14912 net.cpp:148] Top shape: 24 512 14 14 (2408448)
I0403 15:57:42.600113 14912 net.cpp:148] Top shape: 24 512 14 14 (2408448)
I0403 15:57:42.600129 14912 net.cpp:156] Memory required for data: 1111182624
I0403 15:57:42.600145 14912 layer_factory.hpp:77] Creating layer inception_4d/1x1
I0403 15:57:42.600167 14912 net.cpp:91] Creating Layer inception_4d/1x1
I0403 15:57:42.600183 14912 net.cpp:425] inception_4d/1x1 <- inception_4c/output_inception_4c/output_0_split_0
I0403 15:57:42.600203 14912 net.cpp:399] inception_4d/1x1 -> inception_4d/1x1
I0403 15:57:42.601505 14912 net.cpp:141] Setting up inception_4d/1x1
I0403 15:57:42.601531 14912 net.cpp:148] Top shape: 24 112 14 14 (526848)
I0403 15:57:42.601546 14912 net.cpp:156] Memory required for data: 1113290016
I0403 15:57:42.601562 14912 layer_factory.hpp:77] Creating layer inception_4d/relu_1x1
I0403 15:57:42.601582 14912 net.cpp:91] Creating Layer inception_4d/relu_1x1
I0403 15:57:42.601596 14912 net.cpp:425] inception_4d/relu_1x1 <- inception_4d/1x1
I0403 15:57:42.601613 14912 net.cpp:386] inception_4d/relu_1x1 -> inception_4d/1x1 (in-place)
I0403 15:57:42.601785 14912 net.cpp:141] Setting up inception_4d/relu_1x1
I0403 15:57:42.601810 14912 net.cpp:148] Top shape: 24 112 14 14 (526848)
I0403 15:57:42.601824 14912 net.cpp:156] Memory required for data: 1115397408
I0403 15:57:42.601838 14912 layer_factory.hpp:77] Creating layer inception_4d/3x3_reduce
I0403 15:57:42.601874 14912 net.cpp:91] Creating Layer inception_4d/3x3_reduce
I0403 15:57:42.601894 14912 net.cpp:425] inception_4d/3x3_reduce <- inception_4c/output_inception_4c/output_0_split_1
I0403 15:57:42.601912 14912 net.cpp:399] inception_4d/3x3_reduce -> inception_4d/3x3_reduce
I0403 15:57:42.603379 14912 net.cpp:141] Setting up inception_4d/3x3_reduce
I0403 15:57:42.603405 14912 net.cpp:148] Top shape: 24 144 14 14 (677376)
I0403 15:57:42.603420 14912 net.cpp:156] Memory required for data: 1118106912
I0403 15:57:42.603437 14912 layer_factory.hpp:77] Creating layer inception_4d/relu_3x3_reduce
I0403 15:57:42.603454 14912 net.cpp:91] Creating Layer inception_4d/relu_3x3_reduce
I0403 15:57:42.603469 14912 net.cpp:425] inception_4d/relu_3x3_reduce <- inception_4d/3x3_reduce
I0403 15:57:42.603488 14912 net.cpp:386] inception_4d/relu_3x3_reduce -> inception_4d/3x3_reduce (in-place)
I0403 15:57:42.603761 14912 net.cpp:141] Setting up inception_4d/relu_3x3_reduce
I0403 15:57:42.603787 14912 net.cpp:148] Top shape: 24 144 14 14 (677376)
I0403 15:57:42.603801 14912 net.cpp:156] Memory required for data: 1120816416
I0403 15:57:42.603814 14912 layer_factory.hpp:77] Creating layer inception_4d/3x3
I0403 15:57:42.603837 14912 net.cpp:91] Creating Layer inception_4d/3x3
I0403 15:57:42.603853 14912 net.cpp:425] inception_4d/3x3 <- inception_4d/3x3_reduce
I0403 15:57:42.603873 14912 net.cpp:399] inception_4d/3x3 -> inception_4d/3x3
I0403 15:57:42.607923 14912 net.cpp:141] Setting up inception_4d/3x3
I0403 15:57:42.607951 14912 net.cpp:148] Top shape: 24 288 14 14 (1354752)
I0403 15:57:42.607965 14912 net.cpp:156] Memory required for data: 1126235424
I0403 15:57:42.607982 14912 layer_factory.hpp:77] Creating layer inception_4d/relu_3x3
I0403 15:57:42.608001 14912 net.cpp:91] Creating Layer inception_4d/relu_3x3
I0403 15:57:42.608017 14912 net.cpp:425] inception_4d/relu_3x3 <- inception_4d/3x3
I0403 15:57:42.608036 14912 net.cpp:386] inception_4d/relu_3x3 -> inception_4d/3x3 (in-place)
I0403 15:57:42.608229 14912 net.cpp:141] Setting up inception_4d/relu_3x3
I0403 15:57:42.608258 14912 net.cpp:148] Top shape: 24 288 14 14 (1354752)
I0403 15:57:42.608271 14912 net.cpp:156] Memory required for data: 1131654432
I0403 15:57:42.608288 14912 layer_factory.hpp:77] Creating layer inception_4d/5x5_reduce
I0403 15:57:42.608306 14912 net.cpp:91] Creating Layer inception_4d/5x5_reduce
I0403 15:57:42.608324 14912 net.cpp:425] inception_4d/5x5_reduce <- inception_4c/output_inception_4c/output_0_split_2
I0403 15:57:42.608345 14912 net.cpp:399] inception_4d/5x5_reduce -> inception_4d/5x5_reduce
I0403 15:57:42.609442 14912 net.cpp:141] Setting up inception_4d/5x5_reduce
I0403 15:57:42.609469 14912 net.cpp:148] Top shape: 24 32 14 14 (150528)
I0403 15:57:42.609484 14912 net.cpp:156] Memory required for data: 1132256544
I0403 15:57:42.609501 14912 layer_factory.hpp:77] Creating layer inception_4d/relu_5x5_reduce
I0403 15:57:42.609520 14912 net.cpp:91] Creating Layer inception_4d/relu_5x5_reduce
I0403 15:57:42.609537 14912 net.cpp:425] inception_4d/relu_5x5_reduce <- inception_4d/5x5_reduce
I0403 15:57:42.609555 14912 net.cpp:386] inception_4d/relu_5x5_reduce -> inception_4d/5x5_reduce (in-place)
I0403 15:57:42.609732 14912 net.cpp:141] Setting up inception_4d/relu_5x5_reduce
I0403 15:57:42.609756 14912 net.cpp:148] Top shape: 24 32 14 14 (150528)
I0403 15:57:42.609769 14912 net.cpp:156] Memory required for data: 1132858656
I0403 15:57:42.609783 14912 layer_factory.hpp:77] Creating layer inception_4d/5x5
I0403 15:57:42.609805 14912 net.cpp:91] Creating Layer inception_4d/5x5
I0403 15:57:42.609823 14912 net.cpp:425] inception_4d/5x5 <- inception_4d/5x5_reduce
I0403 15:57:42.609841 14912 net.cpp:399] inception_4d/5x5 -> inception_4d/5x5
I0403 15:57:42.611245 14912 net.cpp:141] Setting up inception_4d/5x5
I0403 15:57:42.611273 14912 net.cpp:148] Top shape: 24 64 14 14 (301056)
I0403 15:57:42.611289 14912 net.cpp:156] Memory required for data: 1134062880
I0403 15:57:42.611309 14912 layer_factory.hpp:77] Creating layer inception_4d/relu_5x5
I0403 15:57:42.611340 14912 net.cpp:91] Creating Layer inception_4d/relu_5x5
I0403 15:57:42.611357 14912 net.cpp:425] inception_4d/relu_5x5 <- inception_4d/5x5
I0403 15:57:42.611374 14912 net.cpp:386] inception_4d/relu_5x5 -> inception_4d/5x5 (in-place)
I0403 15:57:42.611661 14912 net.cpp:141] Setting up inception_4d/relu_5x5
I0403 15:57:42.611688 14912 net.cpp:148] Top shape: 24 64 14 14 (301056)
I0403 15:57:42.611704 14912 net.cpp:156] Memory required for data: 1135267104
I0403 15:57:42.611719 14912 layer_factory.hpp:77] Creating layer inception_4d/pool
I0403 15:57:42.611735 14912 net.cpp:91] Creating Layer inception_4d/pool
I0403 15:57:42.611750 14912 net.cpp:425] inception_4d/pool <- inception_4c/output_inception_4c/output_0_split_3
I0403 15:57:42.611770 14912 net.cpp:399] inception_4d/pool -> inception_4d/pool
I0403 15:57:42.611832 14912 net.cpp:141] Setting up inception_4d/pool
I0403 15:57:42.611855 14912 net.cpp:148] Top shape: 24 512 14 14 (2408448)
I0403 15:57:42.611871 14912 net.cpp:156] Memory required for data: 1144900896
I0403 15:57:42.611884 14912 layer_factory.hpp:77] Creating layer inception_4d/pool_proj
I0403 15:57:42.611906 14912 net.cpp:91] Creating Layer inception_4d/pool_proj
I0403 15:57:42.611923 14912 net.cpp:425] inception_4d/pool_proj <- inception_4d/pool
I0403 15:57:42.611945 14912 net.cpp:399] inception_4d/pool_proj -> inception_4d/pool_proj
I0403 15:57:42.613711 14912 net.cpp:141] Setting up inception_4d/pool_proj
I0403 15:57:42.613741 14912 net.cpp:148] Top shape: 24 64 14 14 (301056)
I0403 15:57:42.613756 14912 net.cpp:156] Memory required for data: 1146105120
I0403 15:57:42.613775 14912 layer_factory.hpp:77] Creating layer inception_4d/relu_pool_proj
I0403 15:57:42.613793 14912 net.cpp:91] Creating Layer inception_4d/relu_pool_proj
I0403 15:57:42.613811 14912 net.cpp:425] inception_4d/relu_pool_proj <- inception_4d/pool_proj
I0403 15:57:42.613828 14912 net.cpp:386] inception_4d/relu_pool_proj -> inception_4d/pool_proj (in-place)
I0403 15:57:42.614008 14912 net.cpp:141] Setting up inception_4d/relu_pool_proj
I0403 15:57:42.614035 14912 net.cpp:148] Top shape: 24 64 14 14 (301056)
I0403 15:57:42.614050 14912 net.cpp:156] Memory required for data: 1147309344
I0403 15:57:42.614064 14912 layer_factory.hpp:77] Creating layer inception_4d/output
I0403 15:57:42.614081 14912 net.cpp:91] Creating Layer inception_4d/output
I0403 15:57:42.614096 14912 net.cpp:425] inception_4d/output <- inception_4d/1x1
I0403 15:57:42.614114 14912 net.cpp:425] inception_4d/output <- inception_4d/3x3
I0403 15:57:42.614135 14912 net.cpp:425] inception_4d/output <- inception_4d/5x5
I0403 15:57:42.614152 14912 net.cpp:425] inception_4d/output <- inception_4d/pool_proj
I0403 15:57:42.614169 14912 net.cpp:399] inception_4d/output -> inception_4d/output
I0403 15:57:42.614217 14912 net.cpp:141] Setting up inception_4d/output
I0403 15:57:42.614241 14912 net.cpp:148] Top shape: 24 528 14 14 (2483712)
I0403 15:57:42.614256 14912 net.cpp:156] Memory required for data: 1157244192
I0403 15:57:42.614270 14912 layer_factory.hpp:77] Creating layer inception_4d/output_inception_4d/output_0_split
I0403 15:57:42.614290 14912 net.cpp:91] Creating Layer inception_4d/output_inception_4d/output_0_split
I0403 15:57:42.614306 14912 net.cpp:425] inception_4d/output_inception_4d/output_0_split <- inception_4d/output
I0403 15:57:42.614325 14912 net.cpp:399] inception_4d/output_inception_4d/output_0_split -> inception_4d/output_inception_4d/output_0_split_0
I0403 15:57:42.614344 14912 net.cpp:399] inception_4d/output_inception_4d/output_0_split -> inception_4d/output_inception_4d/output_0_split_1
I0403 15:57:42.614364 14912 net.cpp:399] inception_4d/output_inception_4d/output_0_split -> inception_4d/output_inception_4d/output_0_split_2
I0403 15:57:42.614385 14912 net.cpp:399] inception_4d/output_inception_4d/output_0_split -> inception_4d/output_inception_4d/output_0_split_3
I0403 15:57:42.614408 14912 net.cpp:399] inception_4d/output_inception_4d/output_0_split -> inception_4d/output_inception_4d/output_0_split_4
I0403 15:57:42.614511 14912 net.cpp:141] Setting up inception_4d/output_inception_4d/output_0_split
I0403 15:57:42.614548 14912 net.cpp:148] Top shape: 24 528 14 14 (2483712)
I0403 15:57:42.614565 14912 net.cpp:148] Top shape: 24 528 14 14 (2483712)
I0403 15:57:42.614581 14912 net.cpp:148] Top shape: 24 528 14 14 (2483712)
I0403 15:57:42.614596 14912 net.cpp:148] Top shape: 24 528 14 14 (2483712)
I0403 15:57:42.614611 14912 net.cpp:148] Top shape: 24 528 14 14 (2483712)
I0403 15:57:42.614624 14912 net.cpp:156] Memory required for data: 1206918432
I0403 15:57:42.614639 14912 layer_factory.hpp:77] Creating layer loss2/ave_pool
I0403 15:57:42.614656 14912 net.cpp:91] Creating Layer loss2/ave_pool
I0403 15:57:42.614672 14912 net.cpp:425] loss2/ave_pool <- inception_4d/output_inception_4d/output_0_split_0
I0403 15:57:42.614692 14912 net.cpp:399] loss2/ave_pool -> loss2/ave_pool
I0403 15:57:42.614997 14912 net.cpp:141] Setting up loss2/ave_pool
I0403 15:57:42.615025 14912 net.cpp:148] Top shape: 24 528 4 4 (202752)
I0403 15:57:42.615038 14912 net.cpp:156] Memory required for data: 1207729440
I0403 15:57:42.615052 14912 layer_factory.hpp:77] Creating layer loss2/conv
I0403 15:57:42.615074 14912 net.cpp:91] Creating Layer loss2/conv
I0403 15:57:42.615092 14912 net.cpp:425] loss2/conv <- loss2/ave_pool
I0403 15:57:42.615113 14912 net.cpp:399] loss2/conv -> loss2/conv
I0403 15:57:42.616952 14912 net.cpp:141] Setting up loss2/conv
I0403 15:57:42.616984 14912 net.cpp:148] Top shape: 24 128 4 4 (49152)
I0403 15:57:42.617000 14912 net.cpp:156] Memory required for data: 1207926048
I0403 15:57:42.617018 14912 layer_factory.hpp:77] Creating layer loss2/relu_conv
I0403 15:57:42.617036 14912 net.cpp:91] Creating Layer loss2/relu_conv
I0403 15:57:42.617053 14912 net.cpp:425] loss2/relu_conv <- loss2/conv
I0403 15:57:42.617069 14912 net.cpp:386] loss2/relu_conv -> loss2/conv (in-place)
I0403 15:57:42.617349 14912 net.cpp:141] Setting up loss2/relu_conv
I0403 15:57:42.617378 14912 net.cpp:148] Top shape: 24 128 4 4 (49152)
I0403 15:57:42.617394 14912 net.cpp:156] Memory required for data: 1208122656
I0403 15:57:42.617409 14912 layer_factory.hpp:77] Creating layer loss2/fc
I0403 15:57:42.617427 14912 net.cpp:91] Creating Layer loss2/fc
I0403 15:57:42.617444 14912 net.cpp:425] loss2/fc <- loss2/conv
I0403 15:57:42.617465 14912 net.cpp:399] loss2/fc -> loss2/fc
I0403 15:57:42.634526 14912 net.cpp:141] Setting up loss2/fc
I0403 15:57:42.634562 14912 net.cpp:148] Top shape: 24 1024 (24576)
I0403 15:57:42.634575 14912 net.cpp:156] Memory required for data: 1208220960
I0403 15:57:42.634593 14912 layer_factory.hpp:77] Creating layer loss2/relu_fc
I0403 15:57:42.634613 14912 net.cpp:91] Creating Layer loss2/relu_fc
I0403 15:57:42.634629 14912 net.cpp:425] loss2/relu_fc <- loss2/fc
I0403 15:57:42.634646 14912 net.cpp:386] loss2/relu_fc -> loss2/fc (in-place)
I0403 15:57:42.634927 14912 net.cpp:141] Setting up loss2/relu_fc
I0403 15:57:42.634954 14912 net.cpp:148] Top shape: 24 1024 (24576)
I0403 15:57:42.634969 14912 net.cpp:156] Memory required for data: 1208319264
I0403 15:57:42.634984 14912 layer_factory.hpp:77] Creating layer loss2/drop_fc
I0403 15:57:42.635004 14912 net.cpp:91] Creating Layer loss2/drop_fc
I0403 15:57:42.635020 14912 net.cpp:425] loss2/drop_fc <- loss2/fc
I0403 15:57:42.635036 14912 net.cpp:386] loss2/drop_fc -> loss2/fc (in-place)
I0403 15:57:42.635085 14912 net.cpp:141] Setting up loss2/drop_fc
I0403 15:57:42.635108 14912 net.cpp:148] Top shape: 24 1024 (24576)
I0403 15:57:42.635123 14912 net.cpp:156] Memory required for data: 1208417568
I0403 15:57:42.635144 14912 layer_factory.hpp:77] Creating layer loss2/classifier_plantvillage
I0403 15:57:42.635162 14912 net.cpp:91] Creating Layer loss2/classifier_plantvillage
I0403 15:57:42.635177 14912 net.cpp:425] loss2/classifier_plantvillage <- loss2/fc
I0403 15:57:42.635198 14912 net.cpp:399] loss2/classifier_plantvillage -> loss2/classifier_plantvillage
I0403 15:57:42.635582 14912 net.cpp:141] Setting up loss2/classifier_plantvillage
I0403 15:57:42.635608 14912 net.cpp:148] Top shape: 24 38 (912)
I0403 15:57:42.635622 14912 net.cpp:156] Memory required for data: 1208421216
I0403 15:57:42.635656 14912 layer_factory.hpp:77] Creating layer loss2/classifier_plantvillage_loss2/classifier_plantvillage_0_split
I0403 15:57:42.635674 14912 net.cpp:91] Creating Layer loss2/classifier_plantvillage_loss2/classifier_plantvillage_0_split
I0403 15:57:42.635690 14912 net.cpp:425] loss2/classifier_plantvillage_loss2/classifier_plantvillage_0_split <- loss2/classifier_plantvillage
I0403 15:57:42.635710 14912 net.cpp:399] loss2/classifier_plantvillage_loss2/classifier_plantvillage_0_split -> loss2/classifier_plantvillage_loss2/classifier_plantvillage_0_split_0
I0403 15:57:42.635731 14912 net.cpp:399] loss2/classifier_plantvillage_loss2/classifier_plantvillage_0_split -> loss2/classifier_plantvillage_loss2/classifier_plantvillage_0_split_1
I0403 15:57:42.635753 14912 net.cpp:399] loss2/classifier_plantvillage_loss2/classifier_plantvillage_0_split -> loss2/classifier_plantvillage_loss2/classifier_plantvillage_0_split_2
I0403 15:57:42.635826 14912 net.cpp:141] Setting up loss2/classifier_plantvillage_loss2/classifier_plantvillage_0_split
I0403 15:57:42.635853 14912 net.cpp:148] Top shape: 24 38 (912)
I0403 15:57:42.635869 14912 net.cpp:148] Top shape: 24 38 (912)
I0403 15:57:42.635884 14912 net.cpp:148] Top shape: 24 38 (912)
I0403 15:57:42.635897 14912 net.cpp:156] Memory required for data: 1208432160
I0403 15:57:42.635912 14912 layer_factory.hpp:77] Creating layer inception_4e/1x1
I0403 15:57:42.635931 14912 net.cpp:91] Creating Layer inception_4e/1x1
I0403 15:57:42.635947 14912 net.cpp:425] inception_4e/1x1 <- inception_4d/output_inception_4d/output_0_split_1
I0403 15:57:42.635968 14912 net.cpp:399] inception_4e/1x1 -> inception_4e/1x1
I0403 15:57:42.637702 14912 net.cpp:141] Setting up inception_4e/1x1
I0403 15:57:42.637733 14912 net.cpp:148] Top shape: 24 256 14 14 (1204224)
I0403 15:57:42.637748 14912 net.cpp:156] Memory required for data: 1213249056
I0403 15:57:42.637766 14912 layer_factory.hpp:77] Creating layer inception_4e/relu_1x1
I0403 15:57:42.637784 14912 net.cpp:91] Creating Layer inception_4e/relu_1x1
I0403 15:57:42.637799 14912 net.cpp:425] inception_4e/relu_1x1 <- inception_4e/1x1
I0403 15:57:42.637817 14912 net.cpp:386] inception_4e/relu_1x1 -> inception_4e/1x1 (in-place)
I0403 15:57:42.638097 14912 net.cpp:141] Setting up inception_4e/relu_1x1
I0403 15:57:42.638133 14912 net.cpp:148] Top shape: 24 256 14 14 (1204224)
I0403 15:57:42.638151 14912 net.cpp:156] Memory required for data: 1218065952
I0403 15:57:42.638166 14912 layer_factory.hpp:77] Creating layer inception_4e/3x3_reduce
I0403 15:57:42.638190 14912 net.cpp:91] Creating Layer inception_4e/3x3_reduce
I0403 15:57:42.638207 14912 net.cpp:425] inception_4e/3x3_reduce <- inception_4d/output_inception_4d/output_0_split_2
I0403 15:57:42.638226 14912 net.cpp:399] inception_4e/3x3_reduce -> inception_4e/3x3_reduce
I0403 15:57:42.640281 14912 net.cpp:141] Setting up inception_4e/3x3_reduce
I0403 15:57:42.640313 14912 net.cpp:148] Top shape: 24 160 14 14 (752640)
I0403 15:57:42.640331 14912 net.cpp:156] Memory required for data: 1221076512
I0403 15:57:42.640350 14912 layer_factory.hpp:77] Creating layer inception_4e/relu_3x3_reduce
I0403 15:57:42.640367 14912 net.cpp:91] Creating Layer inception_4e/relu_3x3_reduce
I0403 15:57:42.640383 14912 net.cpp:425] inception_4e/relu_3x3_reduce <- inception_4e/3x3_reduce
I0403 15:57:42.640399 14912 net.cpp:386] inception_4e/relu_3x3_reduce -> inception_4e/3x3_reduce (in-place)
I0403 15:57:42.640578 14912 net.cpp:141] Setting up inception_4e/relu_3x3_reduce
I0403 15:57:42.640604 14912 net.cpp:148] Top shape: 24 160 14 14 (752640)
I0403 15:57:42.640620 14912 net.cpp:156] Memory required for data: 1224087072
I0403 15:57:42.640635 14912 layer_factory.hpp:77] Creating layer inception_4e/3x3
I0403 15:57:42.640657 14912 net.cpp:91] Creating Layer inception_4e/3x3
I0403 15:57:42.640674 14912 net.cpp:425] inception_4e/3x3 <- inception_4e/3x3_reduce
I0403 15:57:42.640697 14912 net.cpp:399] inception_4e/3x3 -> inception_4e/3x3
I0403 15:57:42.646073 14912 net.cpp:141] Setting up inception_4e/3x3
I0403 15:57:42.646114 14912 net.cpp:148] Top shape: 24 320 14 14 (1505280)
I0403 15:57:42.646136 14912 net.cpp:156] Memory required for data: 1230108192
I0403 15:57:42.646157 14912 layer_factory.hpp:77] Creating layer inception_4e/relu_3x3
I0403 15:57:42.646174 14912 net.cpp:91] Creating Layer inception_4e/relu_3x3
I0403 15:57:42.646189 14912 net.cpp:425] inception_4e/relu_3x3 <- inception_4e/3x3
I0403 15:57:42.646209 14912 net.cpp:386] inception_4e/relu_3x3 -> inception_4e/3x3 (in-place)
I0403 15:57:42.646492 14912 net.cpp:141] Setting up inception_4e/relu_3x3
I0403 15:57:42.646518 14912 net.cpp:148] Top shape: 24 320 14 14 (1505280)
I0403 15:57:42.646533 14912 net.cpp:156] Memory required for data: 1236129312
I0403 15:57:42.646548 14912 layer_factory.hpp:77] Creating layer inception_4e/5x5_reduce
I0403 15:57:42.646569 14912 net.cpp:91] Creating Layer inception_4e/5x5_reduce
I0403 15:57:42.646585 14912 net.cpp:425] inception_4e/5x5_reduce <- inception_4d/output_inception_4d/output_0_split_3
I0403 15:57:42.646607 14912 net.cpp:399] inception_4e/5x5_reduce -> inception_4e/5x5_reduce
I0403 15:57:42.647626 14912 net.cpp:141] Setting up inception_4e/5x5_reduce
I0403 15:57:42.647652 14912 net.cpp:148] Top shape: 24 32 14 14 (150528)
I0403 15:57:42.647667 14912 net.cpp:156] Memory required for data: 1236731424
I0403 15:57:42.647687 14912 layer_factory.hpp:77] Creating layer inception_4e/relu_5x5_reduce
I0403 15:57:42.647706 14912 net.cpp:91] Creating Layer inception_4e/relu_5x5_reduce
I0403 15:57:42.647722 14912 net.cpp:425] inception_4e/relu_5x5_reduce <- inception_4e/5x5_reduce
I0403 15:57:42.647739 14912 net.cpp:386] inception_4e/relu_5x5_reduce -> inception_4e/5x5_reduce (in-place)
I0403 15:57:42.648023 14912 net.cpp:141] Setting up inception_4e/relu_5x5_reduce
I0403 15:57:42.648049 14912 net.cpp:148] Top shape: 24 32 14 14 (150528)
I0403 15:57:42.648063 14912 net.cpp:156] Memory required for data: 1237333536
I0403 15:57:42.648077 14912 layer_factory.hpp:77] Creating layer inception_4e/5x5
I0403 15:57:42.648115 14912 net.cpp:91] Creating Layer inception_4e/5x5
I0403 15:57:42.648139 14912 net.cpp:425] inception_4e/5x5 <- inception_4e/5x5_reduce
I0403 15:57:42.648159 14912 net.cpp:399] inception_4e/5x5 -> inception_4e/5x5
I0403 15:57:42.649906 14912 net.cpp:141] Setting up inception_4e/5x5
I0403 15:57:42.649933 14912 net.cpp:148] Top shape: 24 128 14 14 (602112)
I0403 15:57:42.649948 14912 net.cpp:156] Memory required for data: 1239741984
I0403 15:57:42.649967 14912 layer_factory.hpp:77] Creating layer inception_4e/relu_5x5
I0403 15:57:42.649986 14912 net.cpp:91] Creating Layer inception_4e/relu_5x5
I0403 15:57:42.650003 14912 net.cpp:425] inception_4e/relu_5x5 <- inception_4e/5x5
I0403 15:57:42.650019 14912 net.cpp:386] inception_4e/relu_5x5 -> inception_4e/5x5 (in-place)
I0403 15:57:42.650213 14912 net.cpp:141] Setting up inception_4e/relu_5x5
I0403 15:57:42.650239 14912 net.cpp:148] Top shape: 24 128 14 14 (602112)
I0403 15:57:42.650254 14912 net.cpp:156] Memory required for data: 1242150432
I0403 15:57:42.650269 14912 layer_factory.hpp:77] Creating layer inception_4e/pool
I0403 15:57:42.650286 14912 net.cpp:91] Creating Layer inception_4e/pool
I0403 15:57:42.650301 14912 net.cpp:425] inception_4e/pool <- inception_4d/output_inception_4d/output_0_split_4
I0403 15:57:42.650318 14912 net.cpp:399] inception_4e/pool -> inception_4e/pool
I0403 15:57:42.650387 14912 net.cpp:141] Setting up inception_4e/pool
I0403 15:57:42.650410 14912 net.cpp:148] Top shape: 24 528 14 14 (2483712)
I0403 15:57:42.650424 14912 net.cpp:156] Memory required for data: 1252085280
I0403 15:57:42.650439 14912 layer_factory.hpp:77] Creating layer inception_4e/pool_proj
I0403 15:57:42.650459 14912 net.cpp:91] Creating Layer inception_4e/pool_proj
I0403 15:57:42.650476 14912 net.cpp:425] inception_4e/pool_proj <- inception_4e/pool
I0403 15:57:42.650496 14912 net.cpp:399] inception_4e/pool_proj -> inception_4e/pool_proj
I0403 15:57:42.651926 14912 net.cpp:141] Setting up inception_4e/pool_proj
I0403 15:57:42.651953 14912 net.cpp:148] Top shape: 24 128 14 14 (602112)
I0403 15:57:42.651983 14912 net.cpp:156] Memory required for data: 1254493728
I0403 15:57:42.652001 14912 layer_factory.hpp:77] Creating layer inception_4e/relu_pool_proj
I0403 15:57:42.652020 14912 net.cpp:91] Creating Layer inception_4e/relu_pool_proj
I0403 15:57:42.652036 14912 net.cpp:425] inception_4e/relu_pool_proj <- inception_4e/pool_proj
I0403 15:57:42.652053 14912 net.cpp:386] inception_4e/relu_pool_proj -> inception_4e/pool_proj (in-place)
I0403 15:57:42.652343 14912 net.cpp:141] Setting up inception_4e/relu_pool_proj
I0403 15:57:42.652369 14912 net.cpp:148] Top shape: 24 128 14 14 (602112)
I0403 15:57:42.652384 14912 net.cpp:156] Memory required for data: 1256902176
I0403 15:57:42.652397 14912 layer_factory.hpp:77] Creating layer inception_4e/output
I0403 15:57:42.652413 14912 net.cpp:91] Creating Layer inception_4e/output
I0403 15:57:42.652428 14912 net.cpp:425] inception_4e/output <- inception_4e/1x1
I0403 15:57:42.652444 14912 net.cpp:425] inception_4e/output <- inception_4e/3x3
I0403 15:57:42.652459 14912 net.cpp:425] inception_4e/output <- inception_4e/5x5
I0403 15:57:42.652474 14912 net.cpp:425] inception_4e/output <- inception_4e/pool_proj
I0403 15:57:42.652493 14912 net.cpp:399] inception_4e/output -> inception_4e/output
I0403 15:57:42.652542 14912 net.cpp:141] Setting up inception_4e/output
I0403 15:57:42.652565 14912 net.cpp:148] Top shape: 24 832 14 14 (3913728)
I0403 15:57:42.652580 14912 net.cpp:156] Memory required for data: 1272557088
I0403 15:57:42.652593 14912 layer_factory.hpp:77] Creating layer pool4/3x3_s2
I0403 15:57:42.652609 14912 net.cpp:91] Creating Layer pool4/3x3_s2
I0403 15:57:42.652624 14912 net.cpp:425] pool4/3x3_s2 <- inception_4e/output
I0403 15:57:42.652644 14912 net.cpp:399] pool4/3x3_s2 -> pool4/3x3_s2
I0403 15:57:42.652707 14912 net.cpp:141] Setting up pool4/3x3_s2
I0403 15:57:42.652731 14912 net.cpp:148] Top shape: 24 832 7 7 (978432)
I0403 15:57:42.652746 14912 net.cpp:156] Memory required for data: 1276470816
I0403 15:57:42.652760 14912 layer_factory.hpp:77] Creating layer pool4/3x3_s2_pool4/3x3_s2_0_split
I0403 15:57:42.652779 14912 net.cpp:91] Creating Layer pool4/3x3_s2_pool4/3x3_s2_0_split
I0403 15:57:42.652796 14912 net.cpp:425] pool4/3x3_s2_pool4/3x3_s2_0_split <- pool4/3x3_s2
I0403 15:57:42.652812 14912 net.cpp:399] pool4/3x3_s2_pool4/3x3_s2_0_split -> pool4/3x3_s2_pool4/3x3_s2_0_split_0
I0403 15:57:42.652833 14912 net.cpp:399] pool4/3x3_s2_pool4/3x3_s2_0_split -> pool4/3x3_s2_pool4/3x3_s2_0_split_1
I0403 15:57:42.652854 14912 net.cpp:399] pool4/3x3_s2_pool4/3x3_s2_0_split -> pool4/3x3_s2_pool4/3x3_s2_0_split_2
I0403 15:57:42.652873 14912 net.cpp:399] pool4/3x3_s2_pool4/3x3_s2_0_split -> pool4/3x3_s2_pool4/3x3_s2_0_split_3
I0403 15:57:42.652958 14912 net.cpp:141] Setting up pool4/3x3_s2_pool4/3x3_s2_0_split
I0403 15:57:42.652981 14912 net.cpp:148] Top shape: 24 832 7 7 (978432)
I0403 15:57:42.652997 14912 net.cpp:148] Top shape: 24 832 7 7 (978432)
I0403 15:57:42.653012 14912 net.cpp:148] Top shape: 24 832 7 7 (978432)
I0403 15:57:42.653025 14912 net.cpp:148] Top shape: 24 832 7 7 (978432)
I0403 15:57:42.653039 14912 net.cpp:156] Memory required for data: 1292125728
I0403 15:57:42.653053 14912 layer_factory.hpp:77] Creating layer inception_5a/1x1
I0403 15:57:42.653075 14912 net.cpp:91] Creating Layer inception_5a/1x1
I0403 15:57:42.653093 14912 net.cpp:425] inception_5a/1x1 <- pool4/3x3_s2_pool4/3x3_s2_0_split_0
I0403 15:57:42.653113 14912 net.cpp:399] inception_5a/1x1 -> inception_5a/1x1
I0403 15:57:42.655879 14912 net.cpp:141] Setting up inception_5a/1x1
I0403 15:57:42.655907 14912 net.cpp:148] Top shape: 24 256 7 7 (301056)
I0403 15:57:42.655922 14912 net.cpp:156] Memory required for data: 1293329952
I0403 15:57:42.655939 14912 layer_factory.hpp:77] Creating layer inception_5a/relu_1x1
I0403 15:57:42.655959 14912 net.cpp:91] Creating Layer inception_5a/relu_1x1
I0403 15:57:42.655974 14912 net.cpp:425] inception_5a/relu_1x1 <- inception_5a/1x1
I0403 15:57:42.655992 14912 net.cpp:386] inception_5a/relu_1x1 -> inception_5a/1x1 (in-place)
I0403 15:57:42.656303 14912 net.cpp:141] Setting up inception_5a/relu_1x1
I0403 15:57:42.656328 14912 net.cpp:148] Top shape: 24 256 7 7 (301056)
I0403 15:57:42.656342 14912 net.cpp:156] Memory required for data: 1294534176
I0403 15:57:42.656357 14912 layer_factory.hpp:77] Creating layer inception_5a/3x3_reduce
I0403 15:57:42.656378 14912 net.cpp:91] Creating Layer inception_5a/3x3_reduce
I0403 15:57:42.656394 14912 net.cpp:425] inception_5a/3x3_reduce <- pool4/3x3_s2_pool4/3x3_s2_0_split_1
I0403 15:57:42.656415 14912 net.cpp:399] inception_5a/3x3_reduce -> inception_5a/3x3_reduce
I0403 15:57:42.658779 14912 net.cpp:141] Setting up inception_5a/3x3_reduce
I0403 15:57:42.658808 14912 net.cpp:148] Top shape: 24 160 7 7 (188160)
I0403 15:57:42.658824 14912 net.cpp:156] Memory required for data: 1295286816
I0403 15:57:42.658840 14912 layer_factory.hpp:77] Creating layer inception_5a/relu_3x3_reduce
I0403 15:57:42.658859 14912 net.cpp:91] Creating Layer inception_5a/relu_3x3_reduce
I0403 15:57:42.658874 14912 net.cpp:425] inception_5a/relu_3x3_reduce <- inception_5a/3x3_reduce
I0403 15:57:42.658893 14912 net.cpp:386] inception_5a/relu_3x3_reduce -> inception_5a/3x3_reduce (in-place)
I0403 15:57:42.659070 14912 net.cpp:141] Setting up inception_5a/relu_3x3_reduce
I0403 15:57:42.659095 14912 net.cpp:148] Top shape: 24 160 7 7 (188160)
I0403 15:57:42.659108 14912 net.cpp:156] Memory required for data: 1296039456
I0403 15:57:42.659123 14912 layer_factory.hpp:77] Creating layer inception_5a/3x3
I0403 15:57:42.659152 14912 net.cpp:91] Creating Layer inception_5a/3x3
I0403 15:57:42.659170 14912 net.cpp:425] inception_5a/3x3 <- inception_5a/3x3_reduce
I0403 15:57:42.659193 14912 net.cpp:399] inception_5a/3x3 -> inception_5a/3x3
I0403 15:57:42.663992 14912 net.cpp:141] Setting up inception_5a/3x3
I0403 15:57:42.664021 14912 net.cpp:148] Top shape: 24 320 7 7 (376320)
I0403 15:57:42.664036 14912 net.cpp:156] Memory required for data: 1297544736
I0403 15:57:42.664054 14912 layer_factory.hpp:77] Creating layer inception_5a/relu_3x3
I0403 15:57:42.664073 14912 net.cpp:91] Creating Layer inception_5a/relu_3x3
I0403 15:57:42.664090 14912 net.cpp:425] inception_5a/relu_3x3 <- inception_5a/3x3
I0403 15:57:42.664106 14912 net.cpp:386] inception_5a/relu_3x3 -> inception_5a/3x3 (in-place)
I0403 15:57:42.664391 14912 net.cpp:141] Setting up inception_5a/relu_3x3
I0403 15:57:42.664417 14912 net.cpp:148] Top shape: 24 320 7 7 (376320)
I0403 15:57:42.664430 14912 net.cpp:156] Memory required for data: 1299050016
I0403 15:57:42.664444 14912 layer_factory.hpp:77] Creating layer inception_5a/5x5_reduce
I0403 15:57:42.664465 14912 net.cpp:91] Creating Layer inception_5a/5x5_reduce
I0403 15:57:42.664485 14912 net.cpp:425] inception_5a/5x5_reduce <- pool4/3x3_s2_pool4/3x3_s2_0_split_2
I0403 15:57:42.664504 14912 net.cpp:399] inception_5a/5x5_reduce -> inception_5a/5x5_reduce
I0403 15:57:42.665618 14912 net.cpp:141] Setting up inception_5a/5x5_reduce
I0403 15:57:42.665648 14912 net.cpp:148] Top shape: 24 32 7 7 (37632)
I0403 15:57:42.665664 14912 net.cpp:156] Memory required for data: 1299200544
I0403 15:57:42.665683 14912 layer_factory.hpp:77] Creating layer inception_5a/relu_5x5_reduce
I0403 15:57:42.665698 14912 net.cpp:91] Creating Layer inception_5a/relu_5x5_reduce
I0403 15:57:42.665714 14912 net.cpp:425] inception_5a/relu_5x5_reduce <- inception_5a/5x5_reduce
I0403 15:57:42.665729 14912 net.cpp:386] inception_5a/relu_5x5_reduce -> inception_5a/5x5_reduce (in-place)
I0403 15:57:42.666015 14912 net.cpp:141] Setting up inception_5a/relu_5x5_reduce
I0403 15:57:42.666043 14912 net.cpp:148] Top shape: 24 32 7 7 (37632)
I0403 15:57:42.666059 14912 net.cpp:156] Memory required for data: 1299351072
I0403 15:57:42.666074 14912 layer_factory.hpp:77] Creating layer inception_5a/5x5
I0403 15:57:42.666095 14912 net.cpp:91] Creating Layer inception_5a/5x5
I0403 15:57:42.666112 14912 net.cpp:425] inception_5a/5x5 <- inception_5a/5x5_reduce
I0403 15:57:42.666146 14912 net.cpp:399] inception_5a/5x5 -> inception_5a/5x5
I0403 15:57:42.667786 14912 net.cpp:141] Setting up inception_5a/5x5
I0403 15:57:42.667824 14912 net.cpp:148] Top shape: 24 128 7 7 (150528)
I0403 15:57:42.667840 14912 net.cpp:156] Memory required for data: 1299953184
I0403 15:57:42.667857 14912 layer_factory.hpp:77] Creating layer inception_5a/relu_5x5
I0403 15:57:42.667877 14912 net.cpp:91] Creating Layer inception_5a/relu_5x5
I0403 15:57:42.667893 14912 net.cpp:425] inception_5a/relu_5x5 <- inception_5a/5x5
I0403 15:57:42.667911 14912 net.cpp:386] inception_5a/relu_5x5 -> inception_5a/5x5 (in-place)
I0403 15:57:42.668090 14912 net.cpp:141] Setting up inception_5a/relu_5x5
I0403 15:57:42.668118 14912 net.cpp:148] Top shape: 24 128 7 7 (150528)
I0403 15:57:42.668140 14912 net.cpp:156] Memory required for data: 1300555296
I0403 15:57:42.668156 14912 layer_factory.hpp:77] Creating layer inception_5a/pool
I0403 15:57:42.668172 14912 net.cpp:91] Creating Layer inception_5a/pool
I0403 15:57:42.668189 14912 net.cpp:425] inception_5a/pool <- pool4/3x3_s2_pool4/3x3_s2_0_split_3
I0403 15:57:42.668207 14912 net.cpp:399] inception_5a/pool -> inception_5a/pool
I0403 15:57:42.668277 14912 net.cpp:141] Setting up inception_5a/pool
I0403 15:57:42.668300 14912 net.cpp:148] Top shape: 24 832 7 7 (978432)
I0403 15:57:42.668314 14912 net.cpp:156] Memory required for data: 1304469024
I0403 15:57:42.668328 14912 layer_factory.hpp:77] Creating layer inception_5a/pool_proj
I0403 15:57:42.668349 14912 net.cpp:91] Creating Layer inception_5a/pool_proj
I0403 15:57:42.668367 14912 net.cpp:425] inception_5a/pool_proj <- inception_5a/pool
I0403 15:57:42.668385 14912 net.cpp:399] inception_5a/pool_proj -> inception_5a/pool_proj
I0403 15:57:42.670649 14912 net.cpp:141] Setting up inception_5a/pool_proj
I0403 15:57:42.670677 14912 net.cpp:148] Top shape: 24 128 7 7 (150528)
I0403 15:57:42.670692 14912 net.cpp:156] Memory required for data: 1305071136
I0403 15:57:42.670711 14912 layer_factory.hpp:77] Creating layer inception_5a/relu_pool_proj
I0403 15:57:42.670730 14912 net.cpp:91] Creating Layer inception_5a/relu_pool_proj
I0403 15:57:42.670748 14912 net.cpp:425] inception_5a/relu_pool_proj <- inception_5a/pool_proj
I0403 15:57:42.670765 14912 net.cpp:386] inception_5a/relu_pool_proj -> inception_5a/pool_proj (in-place)
I0403 15:57:42.671057 14912 net.cpp:141] Setting up inception_5a/relu_pool_proj
I0403 15:57:42.671082 14912 net.cpp:148] Top shape: 24 128 7 7 (150528)
I0403 15:57:42.671097 14912 net.cpp:156] Memory required for data: 1305673248
I0403 15:57:42.671113 14912 layer_factory.hpp:77] Creating layer inception_5a/output
I0403 15:57:42.671138 14912 net.cpp:91] Creating Layer inception_5a/output
I0403 15:57:42.671155 14912 net.cpp:425] inception_5a/output <- inception_5a/1x1
I0403 15:57:42.671171 14912 net.cpp:425] inception_5a/output <- inception_5a/3x3
I0403 15:57:42.671187 14912 net.cpp:425] inception_5a/output <- inception_5a/5x5
I0403 15:57:42.671202 14912 net.cpp:425] inception_5a/output <- inception_5a/pool_proj
I0403 15:57:42.671219 14912 net.cpp:399] inception_5a/output -> inception_5a/output
I0403 15:57:42.671267 14912 net.cpp:141] Setting up inception_5a/output
I0403 15:57:42.671294 14912 net.cpp:148] Top shape: 24 832 7 7 (978432)
I0403 15:57:42.671309 14912 net.cpp:156] Memory required for data: 1309586976
I0403 15:57:42.671324 14912 layer_factory.hpp:77] Creating layer inception_5a/output_inception_5a/output_0_split
I0403 15:57:42.671339 14912 net.cpp:91] Creating Layer inception_5a/output_inception_5a/output_0_split
I0403 15:57:42.671355 14912 net.cpp:425] inception_5a/output_inception_5a/output_0_split <- inception_5a/output
I0403 15:57:42.671375 14912 net.cpp:399] inception_5a/output_inception_5a/output_0_split -> inception_5a/output_inception_5a/output_0_split_0
I0403 15:57:42.671396 14912 net.cpp:399] inception_5a/output_inception_5a/output_0_split -> inception_5a/output_inception_5a/output_0_split_1
I0403 15:57:42.671416 14912 net.cpp:399] inception_5a/output_inception_5a/output_0_split -> inception_5a/output_inception_5a/output_0_split_2
I0403 15:57:42.671434 14912 net.cpp:399] inception_5a/output_inception_5a/output_0_split -> inception_5a/output_inception_5a/output_0_split_3
I0403 15:57:42.671545 14912 net.cpp:141] Setting up inception_5a/output_inception_5a/output_0_split
I0403 15:57:42.671571 14912 net.cpp:148] Top shape: 24 832 7 7 (978432)
I0403 15:57:42.671587 14912 net.cpp:148] Top shape: 24 832 7 7 (978432)
I0403 15:57:42.671602 14912 net.cpp:148] Top shape: 24 832 7 7 (978432)
I0403 15:57:42.671618 14912 net.cpp:148] Top shape: 24 832 7 7 (978432)
I0403 15:57:42.671630 14912 net.cpp:156] Memory required for data: 1325241888
I0403 15:57:42.671644 14912 layer_factory.hpp:77] Creating layer inception_5b/1x1
I0403 15:57:42.671666 14912 net.cpp:91] Creating Layer inception_5b/1x1
I0403 15:57:42.671684 14912 net.cpp:425] inception_5b/1x1 <- inception_5a/output_inception_5a/output_0_split_0
I0403 15:57:42.671701 14912 net.cpp:399] inception_5b/1x1 -> inception_5b/1x1
I0403 15:57:42.675410 14912 net.cpp:141] Setting up inception_5b/1x1
I0403 15:57:42.675439 14912 net.cpp:148] Top shape: 24 384 7 7 (451584)
I0403 15:57:42.675456 14912 net.cpp:156] Memory required for data: 1327048224
I0403 15:57:42.675473 14912 layer_factory.hpp:77] Creating layer inception_5b/relu_1x1
I0403 15:57:42.675492 14912 net.cpp:91] Creating Layer inception_5b/relu_1x1
I0403 15:57:42.675508 14912 net.cpp:425] inception_5b/relu_1x1 <- inception_5b/1x1
I0403 15:57:42.675529 14912 net.cpp:386] inception_5b/relu_1x1 -> inception_5b/1x1 (in-place)
I0403 15:57:42.675829 14912 net.cpp:141] Setting up inception_5b/relu_1x1
I0403 15:57:42.675855 14912 net.cpp:148] Top shape: 24 384 7 7 (451584)
I0403 15:57:42.675869 14912 net.cpp:156] Memory required for data: 1328854560
I0403 15:57:42.675884 14912 layer_factory.hpp:77] Creating layer inception_5b/3x3_reduce
I0403 15:57:42.675906 14912 net.cpp:91] Creating Layer inception_5b/3x3_reduce
I0403 15:57:42.675925 14912 net.cpp:425] inception_5b/3x3_reduce <- inception_5a/output_inception_5a/output_0_split_1
I0403 15:57:42.675947 14912 net.cpp:399] inception_5b/3x3_reduce -> inception_5b/3x3_reduce
I0403 15:57:42.678555 14912 net.cpp:141] Setting up inception_5b/3x3_reduce
I0403 15:57:42.678585 14912 net.cpp:148] Top shape: 24 192 7 7 (225792)
I0403 15:57:42.678601 14912 net.cpp:156] Memory required for data: 1329757728
I0403 15:57:42.678618 14912 layer_factory.hpp:77] Creating layer inception_5b/relu_3x3_reduce
I0403 15:57:42.678638 14912 net.cpp:91] Creating Layer inception_5b/relu_3x3_reduce
I0403 15:57:42.678655 14912 net.cpp:425] inception_5b/relu_3x3_reduce <- inception_5b/3x3_reduce
I0403 15:57:42.678673 14912 net.cpp:386] inception_5b/relu_3x3_reduce -> inception_5b/3x3_reduce (in-place)
I0403 15:57:42.678858 14912 net.cpp:141] Setting up inception_5b/relu_3x3_reduce
I0403 15:57:42.678882 14912 net.cpp:148] Top shape: 24 192 7 7 (225792)
I0403 15:57:42.678896 14912 net.cpp:156] Memory required for data: 1330660896
I0403 15:57:42.678911 14912 layer_factory.hpp:77] Creating layer inception_5b/3x3
I0403 15:57:42.678933 14912 net.cpp:91] Creating Layer inception_5b/3x3
I0403 15:57:42.678951 14912 net.cpp:425] inception_5b/3x3 <- inception_5b/3x3_reduce
I0403 15:57:42.678969 14912 net.cpp:399] inception_5b/3x3 -> inception_5b/3x3
I0403 15:57:42.685613 14912 net.cpp:141] Setting up inception_5b/3x3
I0403 15:57:42.685642 14912 net.cpp:148] Top shape: 24 384 7 7 (451584)
I0403 15:57:42.685659 14912 net.cpp:156] Memory required for data: 1332467232
I0403 15:57:42.685678 14912 layer_factory.hpp:77] Creating layer inception_5b/relu_3x3
I0403 15:57:42.685699 14912 net.cpp:91] Creating Layer inception_5b/relu_3x3
I0403 15:57:42.685716 14912 net.cpp:425] inception_5b/relu_3x3 <- inception_5b/3x3
I0403 15:57:42.685734 14912 net.cpp:386] inception_5b/relu_3x3 -> inception_5b/3x3 (in-place)
I0403 15:57:42.686031 14912 net.cpp:141] Setting up inception_5b/relu_3x3
I0403 15:57:42.686058 14912 net.cpp:148] Top shape: 24 384 7 7 (451584)
I0403 15:57:42.686074 14912 net.cpp:156] Memory required for data: 1334273568
I0403 15:57:42.686102 14912 layer_factory.hpp:77] Creating layer inception_5b/5x5_reduce
I0403 15:57:42.686147 14912 net.cpp:91] Creating Layer inception_5b/5x5_reduce
I0403 15:57:42.686168 14912 net.cpp:425] inception_5b/5x5_reduce <- inception_5a/output_inception_5a/output_0_split_2
I0403 15:57:42.686190 14912 net.cpp:399] inception_5b/5x5_reduce -> inception_5b/5x5_reduce
I0403 15:57:42.687544 14912 net.cpp:141] Setting up inception_5b/5x5_reduce
I0403 15:57:42.687572 14912 net.cpp:148] Top shape: 24 48 7 7 (56448)
I0403 15:57:42.687587 14912 net.cpp:156] Memory required for data: 1334499360
I0403 15:57:42.687604 14912 layer_factory.hpp:77] Creating layer inception_5b/relu_5x5_reduce
I0403 15:57:42.687623 14912 net.cpp:91] Creating Layer inception_5b/relu_5x5_reduce
I0403 15:57:42.687639 14912 net.cpp:425] inception_5b/relu_5x5_reduce <- inception_5b/5x5_reduce
I0403 15:57:42.687656 14912 net.cpp:386] inception_5b/relu_5x5_reduce -> inception_5b/5x5_reduce (in-place)
I0403 15:57:42.688010 14912 net.cpp:141] Setting up inception_5b/relu_5x5_reduce
I0403 15:57:42.688036 14912 net.cpp:148] Top shape: 24 48 7 7 (56448)
I0403 15:57:42.688050 14912 net.cpp:156] Memory required for data: 1334725152
I0403 15:57:42.688065 14912 layer_factory.hpp:77] Creating layer inception_5b/5x5
I0403 15:57:42.688083 14912 net.cpp:91] Creating Layer inception_5b/5x5
I0403 15:57:42.688099 14912 net.cpp:425] inception_5b/5x5 <- inception_5b/5x5_reduce
I0403 15:57:42.688117 14912 net.cpp:399] inception_5b/5x5 -> inception_5b/5x5
I0403 15:57:42.690214 14912 net.cpp:141] Setting up inception_5b/5x5
I0403 15:57:42.690255 14912 net.cpp:148] Top shape: 24 128 7 7 (150528)
I0403 15:57:42.690270 14912 net.cpp:156] Memory required for data: 1335327264
I0403 15:57:42.690289 14912 layer_factory.hpp:77] Creating layer inception_5b/relu_5x5
I0403 15:57:42.690310 14912 net.cpp:91] Creating Layer inception_5b/relu_5x5
I0403 15:57:42.690326 14912 net.cpp:425] inception_5b/relu_5x5 <- inception_5b/5x5
I0403 15:57:42.690343 14912 net.cpp:386] inception_5b/relu_5x5 -> inception_5b/5x5 (in-place)
I0403 15:57:42.690542 14912 net.cpp:141] Setting up inception_5b/relu_5x5
I0403 15:57:42.690568 14912 net.cpp:148] Top shape: 24 128 7 7 (150528)
I0403 15:57:42.690583 14912 net.cpp:156] Memory required for data: 1335929376
I0403 15:57:42.690596 14912 layer_factory.hpp:77] Creating layer inception_5b/pool
I0403 15:57:42.690614 14912 net.cpp:91] Creating Layer inception_5b/pool
I0403 15:57:42.690630 14912 net.cpp:425] inception_5b/pool <- inception_5a/output_inception_5a/output_0_split_3
I0403 15:57:42.690649 14912 net.cpp:399] inception_5b/pool -> inception_5b/pool
I0403 15:57:42.690717 14912 net.cpp:141] Setting up inception_5b/pool
I0403 15:57:42.690740 14912 net.cpp:148] Top shape: 24 832 7 7 (978432)
I0403 15:57:42.690753 14912 net.cpp:156] Memory required for data: 1339843104
I0403 15:57:42.690768 14912 layer_factory.hpp:77] Creating layer inception_5b/pool_proj
I0403 15:57:42.690788 14912 net.cpp:91] Creating Layer inception_5b/pool_proj
I0403 15:57:42.690807 14912 net.cpp:425] inception_5b/pool_proj <- inception_5b/pool
I0403 15:57:42.690826 14912 net.cpp:399] inception_5b/pool_proj -> inception_5b/pool_proj
I0403 15:57:42.693025 14912 net.cpp:141] Setting up inception_5b/pool_proj
I0403 15:57:42.693053 14912 net.cpp:148] Top shape: 24 128 7 7 (150528)
I0403 15:57:42.693068 14912 net.cpp:156] Memory required for data: 1340445216
I0403 15:57:42.693099 14912 layer_factory.hpp:77] Creating layer inception_5b/relu_pool_proj
I0403 15:57:42.693119 14912 net.cpp:91] Creating Layer inception_5b/relu_pool_proj
I0403 15:57:42.693140 14912 net.cpp:425] inception_5b/relu_pool_proj <- inception_5b/pool_proj
I0403 15:57:42.693158 14912 net.cpp:386] inception_5b/relu_pool_proj -> inception_5b/pool_proj (in-place)
I0403 15:57:42.693459 14912 net.cpp:141] Setting up inception_5b/relu_pool_proj
I0403 15:57:42.693483 14912 net.cpp:148] Top shape: 24 128 7 7 (150528)
I0403 15:57:42.693498 14912 net.cpp:156] Memory required for data: 1341047328
I0403 15:57:42.693513 14912 layer_factory.hpp:77] Creating layer inception_5b/output
I0403 15:57:42.693529 14912 net.cpp:91] Creating Layer inception_5b/output
I0403 15:57:42.693558 14912 net.cpp:425] inception_5b/output <- inception_5b/1x1
I0403 15:57:42.693578 14912 net.cpp:425] inception_5b/output <- inception_5b/3x3
I0403 15:57:42.693595 14912 net.cpp:425] inception_5b/output <- inception_5b/5x5
I0403 15:57:42.693610 14912 net.cpp:425] inception_5b/output <- inception_5b/pool_proj
I0403 15:57:42.693627 14912 net.cpp:399] inception_5b/output -> inception_5b/output
I0403 15:57:42.693677 14912 net.cpp:141] Setting up inception_5b/output
I0403 15:57:42.693701 14912 net.cpp:148] Top shape: 24 1024 7 7 (1204224)
I0403 15:57:42.693714 14912 net.cpp:156] Memory required for data: 1345864224
I0403 15:57:42.693727 14912 layer_factory.hpp:77] Creating layer pool5/7x7_s1
I0403 15:57:42.693744 14912 net.cpp:91] Creating Layer pool5/7x7_s1
I0403 15:57:42.693759 14912 net.cpp:425] pool5/7x7_s1 <- inception_5b/output
I0403 15:57:42.693779 14912 net.cpp:399] pool5/7x7_s1 -> pool5/7x7_s1
I0403 15:57:42.693984 14912 net.cpp:141] Setting up pool5/7x7_s1
I0403 15:57:42.694008 14912 net.cpp:148] Top shape: 24 1024 1 1 (24576)
I0403 15:57:42.694022 14912 net.cpp:156] Memory required for data: 1345962528
I0403 15:57:42.694036 14912 layer_factory.hpp:77] Creating layer pool5/drop_7x7_s1
I0403 15:57:42.694054 14912 net.cpp:91] Creating Layer pool5/drop_7x7_s1
I0403 15:57:42.694072 14912 net.cpp:425] pool5/drop_7x7_s1 <- pool5/7x7_s1
I0403 15:57:42.694087 14912 net.cpp:386] pool5/drop_7x7_s1 -> pool5/7x7_s1 (in-place)
I0403 15:57:42.694142 14912 net.cpp:141] Setting up pool5/drop_7x7_s1
I0403 15:57:42.694165 14912 net.cpp:148] Top shape: 24 1024 1 1 (24576)
I0403 15:57:42.694178 14912 net.cpp:156] Memory required for data: 1346060832
I0403 15:57:42.694192 14912 layer_factory.hpp:77] Creating layer loss3/classifier_plantvillage
I0403 15:57:42.694211 14912 net.cpp:91] Creating Layer loss3/classifier_plantvillage
I0403 15:57:42.694224 14912 net.cpp:425] loss3/classifier_plantvillage <- pool5/7x7_s1
I0403 15:57:42.694243 14912 net.cpp:399] loss3/classifier_plantvillage -> loss3/classifier_plantvillage
I0403 15:57:42.694653 14912 net.cpp:141] Setting up loss3/classifier_plantvillage
I0403 15:57:42.694677 14912 net.cpp:148] Top shape: 24 38 (912)
I0403 15:57:42.694692 14912 net.cpp:156] Memory required for data: 1346064480
I0403 15:57:42.694710 14912 layer_factory.hpp:77] Creating layer loss3/classifier_plantvillage_loss3/classifier_plantvillage_0_split
I0403 15:57:42.694726 14912 net.cpp:91] Creating Layer loss3/classifier_plantvillage_loss3/classifier_plantvillage_0_split
I0403 15:57:42.694741 14912 net.cpp:425] loss3/classifier_plantvillage_loss3/classifier_plantvillage_0_split <- loss3/classifier_plantvillage
I0403 15:57:42.694759 14912 net.cpp:399] loss3/classifier_plantvillage_loss3/classifier_plantvillage_0_split -> loss3/classifier_plantvillage_loss3/classifier_plantvillage_0_split_0
I0403 15:57:42.694780 14912 net.cpp:399] loss3/classifier_plantvillage_loss3/classifier_plantvillage_0_split -> loss3/classifier_plantvillage_loss3/classifier_plantvillage_0_split_1
I0403 15:57:42.694799 14912 net.cpp:399] loss3/classifier_plantvillage_loss3/classifier_plantvillage_0_split -> loss3/classifier_plantvillage_loss3/classifier_plantvillage_0_split_2
I0403 15:57:42.694818 14912 net.cpp:399] loss3/classifier_plantvillage_loss3/classifier_plantvillage_0_split -> loss3/classifier_plantvillage_loss3/classifier_plantvillage_0_split_3
I0403 15:57:42.694913 14912 net.cpp:141] Setting up loss3/classifier_plantvillage_loss3/classifier_plantvillage_0_split
I0403 15:57:42.694936 14912 net.cpp:148] Top shape: 24 38 (912)
I0403 15:57:42.694952 14912 net.cpp:148] Top shape: 24 38 (912)
I0403 15:57:42.694967 14912 net.cpp:148] Top shape: 24 38 (912)
I0403 15:57:42.694980 14912 net.cpp:148] Top shape: 24 38 (912)
I0403 15:57:42.694994 14912 net.cpp:156] Memory required for data: 1346079072
I0403 15:57:42.695008 14912 layer_factory.hpp:77] Creating layer loss1/loss
I0403 15:57:42.695027 14912 net.cpp:91] Creating Layer loss1/loss
I0403 15:57:42.695044 14912 net.cpp:425] loss1/loss <- loss1/classifier_plantvillage_loss1/classifier_plantvillage_0_split_0
I0403 15:57:42.695073 14912 net.cpp:425] loss1/loss <- label_data_1_split_0
…
