…
I0403 15:37:52.685892 13834 net.cpp:313] The NetState phase (1) differed from the phase (0) specified by a rule in layer data
I0403 15:37:52.687219 13834 net.cpp:49] Initializing net from parameters: 
state {
  phase: TEST
}
layer {
  name: "data"
  type: "Data"
  top: "data"
  top: "label"
  include {
    phase: TEST
  }
  transform_param {
    mirror: false
    crop_size: 224
    mean_file: "/home/mohanty/data/final_dataset/lmdb/color-80-20/mean.binaryproto"
  }
  data_param {
    source: "/home/mohanty/data/final_dataset/lmdb/color-80-20/test_db"
    batch_size: 24
    backend: LMDB
  }
}
layer {
  name: "conv1/7x7_s2"
  type: "Convolution"
  bottom: "data"
  top: "conv1/7x7_s2"
  param {
    lr_mult: 1
    decay_mult: 1
  }
  param {
    lr_mult: 2
    decay_mult: 0
  }
  convolution_param {
    num_output: 64
    pad: 3
    kernel_size: 7
    stride: 2
    weight_filler {
      type: "xavier"
      std: 0.1
    }
    bias_filler {
      type: "constant"
      value: 0.2
    }
  }
}
layer {
  name: "conv1/relu_7x7"
  type: "ReLU"
  bottom: "conv1/7x7_s2"
  top: "conv1/7x7_s2"
}
layer {
  name: "pool1/3x3_s2"
  type: "Pooling"
  bottom: "conv1/7x7_s2"
  top: "pool1/3x3_s2"
  pooling_param {
    pool: MAX
    kernel_size: 3
    stride: 2
  }
}
layer {
  name: "pool1/norm1"
  type: "LRN"
  bottom: "pool1/3x3_s2"
  top: "pool1/norm1"
  lrn_param {
    local_size: 5
    alpha: 0.0001
    beta: 0.75
  }
}
layer {
  name: "conv2/3x3_reduce"
  type: "Convolution"
  bottom: "pool1/norm1"
  top: "conv2/3x3_reduce"
  param {
    lr_mult: 1
    decay_mult: 1
  }
  param {
    lr_mult: 2
    decay_mult: 0
  }
  convolution_param {
    num_output: 64
    kernel_size: 1
    weight_filler {
      type: "xavier"
      std: 0.1
    }
    bias_filler {
      type: "constant"
      value: 0.2
    }
  }
}
layer {
  name: "conv2/relu_3x3_reduce"
  type: "ReLU"
  bottom: "conv2/3x3_reduce"
  top: "conv2/3x3_reduce"
}
layer {
  name: "conv2/3x3"
  type: "Convolution"
  bottom: "conv2/3x3_reduce"
  top: "conv2/3x3"
  param {
    lr_mult: 1
    decay_mult: 1
  }
  param {
    lr_mult: 2
    decay_mult: 0
  }
  convolution_param {
    num_output: 192
    pad: 1
    kernel_size: 3
    weight_filler {
      type: "xavier"
      std: 0.03
    }
    bias_filler {
      type: "constant"
      value: 0.2
    }
  }
}
layer {
  name: "conv2/relu_3x3"
  type: "ReLU"
  bottom: "conv2/3x3"
  top: "conv2/3x3"
}
layer {
  name: "conv2/norm2"
  type: "LRN"
  bottom: "conv2/3x3"
  top: "conv2/norm2"
  lrn_param {
    local_size: 5
    alpha: 0.0001
    beta: 0.75
  }
}
layer {
  name: "pool2/3x3_s2"
  type: "Pooling"
  bottom: "conv2/norm2"
  top: "pool2/3x3_s2"
  pooling_param {
    pool: MAX
    kernel_size: 3
    stride: 2
  }
}
layer {
  name: "inception_3a/1x1"
  type: "Convolution"
  bottom: "pool2/3x3_s2"
  top: "inception_3a/1x1"
  param {
    lr_mult: 1
    decay_mult: 1
  }
  param {
    lr_mult: 2
    decay_mult: 0
  }
  convolution_param {
    num_output: 64
    kernel_size: 1
    weight_filler {
      type: "xavier"
      std: 0.03
    }
    bias_filler {
      type: "constant"
      value: 0.2
    }
  }
}
layer {
  name: "inception_3a/relu_1x1"
  type: "ReLU"
  bottom: "inception_3a/1x1"
  top: "inception_3a/1x1"
}
layer {
  name: "inception_3a/3x3_reduce"
  type: "Convolution"
  bottom: "pool2/3x3_s2"
  top: "inception_3a/3x3_reduce"
  param {
    lr_mult: 1
    decay_mult: 1
  }
  param {
    lr_mult: 2
    decay_mult: 0
  }
  convolution_param {
    num_output: 96
    kernel_size: 1
    weight_filler {
      type: "xavier"
      std: 0.09
    }
    bias_filler {
      type: "constant"
      value: 0.2
    }
  }
}
layer {
  name: "inception_3a/relu_3x3_reduce"
  type: "ReLU"
  bottom: "inception_3a/3x3_reduce"
  top: "inception_3a/3x3_reduce"
}
layer {
  name: "inception_3a/3x3"
  type: "Convolution"
  bottom: "inception_3a/3x3_reduce"
  top: "inception_3a/3x3"
  param {
    lr_mult: 1
    decay_mult: 1
  }
  param {
    lr_mult: 2
    decay_mult: 0
  }
  convolution_param {
    num_output: 128
    pad: 1
    kernel_size: 3
    weight_filler {
      type: "xavier"
      std: 0.03
    }
    bias_filler {
      type: "constant"
      value: 0.2
    }
  }
}
layer {
  name: "inception_3a/relu_3x3"
  type: "ReLU"
  bottom: "inception_3a/3x3"
  top: "inception_3a/3x3"
}
layer {
  name: "inception_3a/5x5_reduce"
  type: "Convolution"
  bottom: "pool2/3x3_s2"
  top: "inception_3a/5x5_reduce"
  param {
    lr_mult: 1
    decay_mult: 1
  }
  param {
    lr_mult: 2
    decay_mult: 0
  }
  convolution_param {
    num_output: 16
    kernel_size: 1
    weight_filler {
      type: "xavier"
      std: 0.2
    }
    bias_filler {
      type: "constant"
      value: 0.2
    }
  }
}
layer {
  name: "inception_3a/relu_5x5_reduce"
  type: "ReLU"
  bottom: "inception_3a/5x5_reduce"
  top: "inception_3a/5x5_reduce"
}
layer {
  name: "inception_3a/5x5"
  type: "Convolution"
  bottom: "inception_3a/5x5_reduce"
  top: "inception_3a/5x5"
  param {
    lr_mult: 1
    decay_mult: 1
  }
  param {
    lr_mult: 2
    decay_mult: 0
  }
  convolution_param {
    num_output: 32
    pad: 2
    kernel_size: 5
    weight_filler {
      type: "xavier"
      std: 0.03
    }
    bias_filler {
      type: "constant"
      value: 0.2
    }
  }
}
layer {
  name: "inception_3a/relu_5x5"
  type: "ReLU"
  bottom: "inception_3a/5x5"
  top: "inception_3a/5x5"
}
layer {
  name: "inception_3a/pool"
  type: "Pooling"
  bottom: "pool2/3x3_s2"
  top: "inception_3a/pool"
  pooling_param {
    pool: MAX
    kernel_size: 3
    stride: 1
    pad: 1
  }
}
layer {
  name: "inception_3a/pool_proj"
  type: "Convolution"
  bottom: "inception_3a/pool"
  top: "inception_3a/pool_proj"
  param {
    lr_mult: 1
    decay_mult: 1
  }
  param {
    lr_mult: 2
    decay_mult: 0
  }
  convolution_param {
    num_output: 32
    kernel_size: 1
    weight_filler {
      type: "xavier"
      std: 0.1
    }
    bias_filler {
      type: "constant"
      value: 0.2
    }
  }
}
layer {
  name: "inception_3a/relu_pool_proj"
  type: "ReLU"
  bottom: "inception_3a/pool_proj"
  top: "inception_3a/pool_proj"
}
layer {
  name: "inception_3a/output"
  type: "Concat"
  bottom: "inception_3a/1x1"
  bottom: "inception_3a/3x3"
  bottom: "inception_3a/5x5"
  bottom: "inception_3a/pool_proj"
  top: "inception_3a/output"
}
layer {
  name: "inception_3b/1x1"
  type: "Convolution"
  bottom: "inception_3a/output"
  top: "inception_3b/1x1"
  param {
    lr_mult: 1
    decay_mult: 1
  }
  param {
    lr_mult: 2
    decay_mult: 0
  }
  convolution_param {
    num_output: 128
    kernel_size: 1
    weight_filler {
      type: "xavier"
      std: 0.03
    }
    bias_filler {
      type: "constant"
      value: 0.2
    }
  }
}
layer {
  name: "inception_3b/relu_1x1"
  type: "ReLU"
  bottom: "inception_3b/1x1"
  top: "inception_3b/1x1"
}
layer {
  name: "inception_3b/3x3_reduce"
  type: "Convolution"
  bottom: "inception_3a/output"
  top: "inception_3b/3x3_reduce"
  param {
    lr_mult: 1
    decay_mult: 1
  }
  param {
    lr_mult: 2
    decay_mult: 0
  }
  convolution_param {
    num_output: 128
    kernel_size: 1
    weight_filler {
      type: "xavier"
      std: 0.09
    }
    bias_filler {
      type: "constant"
      value: 0.2
    }
  }
}
layer {
  name: "inception_3b/relu_3x3_reduce"
  type: "ReLU"
  bottom: "inception_3b/3x3_reduce"
  top: "inception_3b/3x3_reduce"
}
layer {
  name: "inception_3b/3x3"
  type: "Convolution"
  bottom: "inception_3b/3x3_reduce"
  top: "inception_3b/3x3"
  param {
    lr_mult: 1
    decay_mult: 1
  }
  param {
    lr_mult: 2
    decay_mult: 0
  }
  convolution_param {
    num_output: 192
    pad: 1
    kernel_size: 3
    weight_filler {
      type: "xavier"
      std: 0.03
    }
    bias_filler {
      type: "constant"
      value: 0.2
    }
  }
}
layer {
  name: "inception_3b/relu_3x3"
  type: "ReLU"
  bottom: "inception_3b/3x3"
  top: "inception_3b/3x3"
}
layer {
  name: "inception_3b/5x5_reduce"
  type: "Convolution"
  bottom: "inception_3a/output"
  top: "inception_3b/5x5_reduce"
  param {
    lr_mult: 1
    decay_mult: 1
  }
  param {
    lr_mult: 2
    decay_mult: 0
  }
  convolution_param {
    num_output: 32
    kernel_size: 1
    weight_filler {
      type: "xavier"
      std: 0.2
    }
    bias_filler {
      type: "constant"
      value: 0.2
    }
  }
}
layer {
  name: "inception_3b/relu_5x5_reduce"
  type: "ReLU"
  bottom: "inception_3b/5x5_reduce"
  top: "inception_3b/5x5_reduce"
}
layer {
  name: "inception_3b/5x5"
  type: "Convolution"
  bottom: "inception_3b/5x5_reduce"
  top: "inception_3b/5x5"
  param {
    lr_mult: 1
    decay_mult: 1
  }
  param {
    lr_mult: 2
    decay_mult: 0
  }
  convolution_param {
    num_output: 96
    pad: 2
    kernel_size: 5
    weight_filler {
      type: "xavier"
      std: 0.03
    }
    bias_filler {
      type: "constant"
      value: 0.2
    }
  }
}
layer {
  name: "inception_3b/relu_5x5"
  type: "ReLU"
  bottom: "inception_3b/5x5"
  top: "inception_3b/5x5"
}
layer {
  name: "inception_3b/pool"
  type: "Pooling"
  bottom: "inception_3a/output"
  top: "inception_3b/pool"
  pooling_param {
    pool: MAX
    kernel_size: 3
    stride: 1
    pad: 1
  }
}
layer {
  name: "inception_3b/pool_proj"
  type: "Convolution"
  bottom: "inception_3b/pool"
  top: "inception_3b/pool_proj"
  param {
    lr_mult: 1
    decay_mult: 1
  }
  param {
    lr_mult: 2
    decay_mult: 0
  }
  convolution_param {
    num_output: 64
    kernel_size: 1
    weight_filler {
      type: "xavier"
      std: 0.1
    }
    bias_filler {
      type: "constant"
      value: 0.2
    }
  }
}
layer {
  name: "inception_3b/relu_pool_proj"
  type: "ReLU"
  bottom: "inception_3b/pool_proj"
  top: "inception_3b/pool_proj"
}
layer {
  name: "inception_3b/output"
  type: "Concat"
  bottom: "inception_3b/1x1"
  bottom: "inception_3b/3x3"
  bottom: "inception_3b/5x5"
  bottom: "inception_3b/pool_proj"
  top: "inception_3b/output"
}
layer {
  name: "pool3/3x3_s2"
  type: "Pooling"
  bottom: "inception_3b/output"
  top: "pool3/3x3_s2"
  pooling_param {
    pool: MAX
    kernel_size: 3
    stride: 2
  }
}
layer {
  name: "inception_4a/1x1"
  type: "Convolution"
  bottom: "pool3/3x3_s2"
  top: "inception_4a/1x1"
  param {
    lr_mult: 1
    decay_mult: 1
  }
  param {
    lr_mult: 2
    decay_mult: 0
  }
  convolution_param {
    num_output: 192
    kernel_size: 1
    weight_filler {
      type: "xavier"
      std: 0.03
    }
    bias_filler {
      type: "constant"
      value: 0.2
    }
  }
}
layer {
  name: "inception_4a/relu_1x1"
  type: "ReLU"
  bottom: "inception_4a/1x1"
  top: "inception_4a/1x1"
}
layer {
  name: "inception_4a/3x3_reduce"
  type: "Convolution"
  bottom: "pool3/3x3_s2"
  top: "inception_4a/3x3_reduce"
  param {
    lr_mult: 1
    decay_mult: 1
  }
  param {
    lr_mult: 2
    decay_mult: 0
  }
  convolution_param {
    num_output: 96
    kernel_size: 1
    weight_filler {
      type: "xavier"
      std: 0.09
    }
    bias_filler {
      type: "constant"
      value: 0.2
    }
  }
}
layer {
  name: "inception_4a/relu_3x3_reduce"
  type: "ReLU"
  bottom: "inception_4a/3x3_reduce"
  top: "inception_4a/3x3_reduce"
}
layer {
  name: "inception_4a/3x3"
  type: "Convolution"
  bottom: "inception_4a/3x3_reduce"
  top: "inception_4a/3x3"
  param {
    lr_mult: 1
    decay_mult: 1
  }
  param {
    lr_mult: 2
    decay_mult: 0
  }
  convolution_param {
    num_output: 208
    pad: 1
    kernel_size: 3
    weight_filler {
      type: "xavier"
      std: 0.03
    }
    bias_filler {
      type: "constant"
      value: 0.2
    }
  }
}
layer {
  name: "inception_4a/relu_3x3"
  type: "ReLU"
  bottom: "inception_4a/3x3"
  top: "inception_4a/3x3"
}
layer {
  name: "inception_4a/5x5_reduce"
  type: "Convolution"
  bottom: "pool3/3x3_s2"
  top: "inception_4a/5x5_reduce"
  param {
    lr_mult: 1
    decay_mult: 1
  }
  param {
    lr_mult: 2
    decay_mult: 0
  }
  convolution_param {
    num_output: 16
    kernel_size: 1
    weight_filler {
      type: "xavier"
      std: 0.2
    }
    bias_filler {
      type: "constant"
      value: 0.2
    }
  }
}
layer {
  name: "inception_4a/relu_5x5_reduce"
  type: "ReLU"
  bottom: "inception_4a/5x5_reduce"
  top: "inception_4a/5x5_reduce"
}
layer {
  name: "inception_4a/5x5"
  type: "Convolution"
  bottom: "inception_4a/5x5_reduce"
  top: "inception_4a/5x5"
  param {
    lr_mult: 1
    decay_mult: 1
  }
  param {
    lr_mult: 2
    decay_mult: 0
  }
  convolution_param {
    num_output: 48
    pad: 2
    kernel_size: 5
    weight_filler {
      type: "xavier"
      std: 0.03
    }
    bias_filler {
      type: "constant"
      value: 0.2
    }
  }
}
layer {
  name: "inception_4a/relu_5x5"
  type: "ReLU"
  bottom: "inception_4a/5x5"
  top: "inception_4a/5x5"
}
layer {
  name: "inception_4a/pool"
  type: "Pooling"
  bottom: "pool3/3x3_s2"
  top: "inception_4a/pool"
  pooling_param {
    pool: MAX
    kernel_size: 3
    stride: 1
    pad: 1
  }
}
layer {
  name: "inception_4a/pool_proj"
  type: "Convolution"
  bottom: "inception_4a/pool"
  top: "inception_4a/pool_proj"
  param {
    lr_mult: 1
    decay_mult: 1
  }
  param {
    lr_mult: 2
    decay_mult: 0
  }
  convolution_param {
    num_output: 64
    kernel_size: 1
    weight_filler {
      type: "xavier"
      std: 0.1
    }
    bias_filler {
      type: "constant"
      value: 0.2
    }
  }
}
layer {
  name: "inception_4a/relu_pool_proj"
  type: "ReLU"
  bottom: "inception_4a/pool_proj"
  top: "inception_4a/pool_proj"
}
layer {
  name: "inception_4a/output"
  type: "Concat"
  bottom: "inception_4a/1x1"
  bottom: "inception_4a/3x3"
  bottom: "inception_4a/5x5"
  bottom: "inception_4a/pool_proj"
  top: "inception_4a/output"
}
layer {
  name: "loss1/ave_pool"
  type: "Pooling"
  bottom: "inception_4a/output"
  top: "loss1/ave_pool"
  pooling_param {
    pool: AVE
    kernel_size: 5
    stride: 3
  }
}
layer {
  name: "loss1/conv"
  type: "Convolution"
  bottom: "loss1/ave_pool"
  top: "loss1/conv"
  param {
    lr_mult: 1
    decay_mult: 1
  }
  param {
    lr_mult: 2
    decay_mult: 0
  }
  convolution_param {
    num_output: 128
    kernel_size: 1
    weight_filler {
      type: "xavier"
      std: 0.08
    }
    bias_filler {
      type: "constant"
      value: 0.2
    }
  }
}
layer {
  name: "loss1/relu_conv"
  type: "ReLU"
  bottom: "loss1/conv"
  top: "loss1/conv"
}
layer {
  name: "loss1/fc"
  type: "InnerProduct"
  bottom: "loss1/conv"
  top: "loss1/fc"
  param {
    lr_mult: 1
    decay_mult: 1
  }
  param {
    lr_mult: 2
    decay_mult: 0
  }
  inner_product_param {
    num_output: 1024
    weight_filler {
      type: "xavier"
      std: 0.02
    }
    bias_filler {
      type: "constant"
      value: 0.2
    }
  }
}
layer {
  name: "loss1/relu_fc"
  type: "ReLU"
  bottom: "loss1/fc"
  top: "loss1/fc"
}
layer {
  name: "loss1/drop_fc"
  type: "Dropout"
  bottom: "loss1/fc"
  top: "loss1/fc"
  dropout_param {
    dropout_ratio: 0.7
  }
}
layer {
  name: "loss1/classifier_plantvillage"
  type: "InnerProduct"
  bottom: "loss1/fc"
  top: "loss1/classifier_plantvillage"
  param {
    lr_mult: 1
    decay_mult: 1
  }
  param {
    lr_mult: 2
    decay_mult: 0
  }
  inner_product_param {
    num_output: 38
    weight_filler {
      type: "xavier"
      std: 0.0009765625
    }
    bias_filler {
      type: "constant"
      value: 0
    }
  }
}
layer {
  name: "inception_4b/1x1"
  type: "Convolution"
  bottom: "inception_4a/output"
  top: "inception_4b/1x1"
  param {
    lr_mult: 1
    decay_mult: 1
  }
  param {
    lr_mult: 2
    decay_mult: 0
  }
  convolution_param {
    num_output: 160
    kernel_size: 1
    weight_filler {
      type: "xavier"
      std: 0.03
    }
    bias_filler {
      type: "constant"
      value: 0.2
    }
  }
}
layer {
  name: "inception_4b/relu_1x1"
  type: "ReLU"
  bottom: "inception_4b/1x1"
  top: "inception_4b/1x1"
}
layer {
  name: "inception_4b/3x3_reduce"
  type: "Convolution"
  bottom: "inception_4a/output"
  top: "inception_4b/3x3_reduce"
  param {
    lr_mult: 1
    decay_mult: 1
  }
  param {
    lr_mult: 2
    decay_mult: 0
  }
  convolution_param {
    num_output: 112
    kernel_size: 1
    weight_filler {
      type: "xavier"
      std: 0.09
    }
    bias_filler {
      type: "constant"
      value: 0.2
    }
  }
}
layer {
  name: "inception_4b/relu_3x3_reduce"
  type: "ReLU"
  bottom: "inception_4b/3x3_reduce"
  top: "inception_4b/3x3_reduce"
}
layer {
  name: "inception_4b/3x3"
  type: "Convolution"
  bottom: "inception_4b/3x3_reduce"
  top: "inception_4b/3x3"
  param {
    lr_mult: 1
    decay_mult: 1
  }
  param {
    lr_mult: 2
    decay_mult: 0
  }
  convolution_param {
    num_output: 224
    pad: 1
    kernel_size: 3
    weight_filler {
      type: "xavier"
      std: 0.03
    }
    bias_filler {
      type: "constant"
      value: 0.2
    }
  }
}
layer {
  name: "inception_4b/relu_3x3"
  type: "ReLU"
  bottom: "inception_4b/3x3"
  top: "inception_4b/3x3"
}
layer {
  name: "inception_4b/5x5_reduce"
  type: "Convolution"
  bottom: "inception_4a/output"
  top: "inception_4b/5x5_reduce"
  param {
    lr_mult: 1
    decay_mult: 1
  }
  param {
    lr_mult: 2
    decay_mult: 0
  }
  convolution_param {
    num_output: 24
    kernel_size: 1
    weight_filler {
      type: "xavier"
      std: 0.2
    }
    bias_filler {
      type: "constant"
      value: 0.2
    }
  }
}
layer {
  name: "inception_4b/relu_5x5_reduce"
  type: "ReLU"
  bottom: "inception_4b/5x5_reduce"
  top: "inception_4b/5x5_reduce"
}
layer {
  name: "inception_4b/5x5"
  type: "Convolution"
  bottom: "inception_4b/5x5_reduce"
  top: "inception_4b/5x5"
  param {
    lr_mult: 1
    decay_mult: 1
  }
  param {
    lr_mult: 2
    decay_mult: 0
  }
  convolution_param {
    num_output: 64
    pad: 2
    kernel_size: 5
    weight_filler {
      type: "xavier"
      std: 0.03
    }
    bias_filler {
      type: "constant"
      value: 0.2
    }
  }
}
layer {
  name: "inception_4b/relu_5x5"
  type: "ReLU"
  bottom: "inception_4b/5x5"
  top: "inception_4b/5x5"
}
layer {
  name: "inception_4b/pool"
  type: "Pooling"
  bottom: "inception_4a/output"
  top: "inception_4b/pool"
  pooling_param {
    pool: MAX
    kernel_size: 3
    stride: 1
    pad: 1
  }
}
layer {
  name: "inception_4b/pool_proj"
  type: "Convolution"
  bottom: "inception_4b/pool"
  top: "inception_4b/pool_proj"
  param {
    lr_mult: 1
    decay_mult: 1
  }
  param {
    lr_mult: 2
    decay_mult: 0
  }
  convolution_param {
    num_output: 64
    kernel_size: 1
    weight_filler {
      type: "xavier"
      std: 0.1
    }
    bias_filler {
      type: "constant"
      value: 0.2
    }
  }
}
layer {
  name: "inception_4b/relu_pool_proj"
  type: "ReLU"
  bottom: "inception_4b/pool_proj"
  top: "inception_4b/pool_proj"
}
layer {
  name: "inception_4b/output"
  type: "Concat"
  bottom: "inception_4b/1x1"
  bottom: "inception_4b/3x3"
  bottom: "inception_4b/5x5"
  bottom: "inception_4b/pool_proj"
  top: "inception_4b/output"
}
layer {
  name: "inception_4c/1x1"
  type: "Convolution"
  bottom: "inception_4b/output"
  top: "inception_4c/1x1"
  param {
    lr_mult: 1
    decay_mult: 1
  }
  param {
    lr_mult: 2
    decay_mult: 0
  }
  convolution_param {
    num_output: 128
    kernel_size: 1
    weight_filler {
      type: "xavier"
      std: 0.03
    }
    bias_filler {
      type: "constant"
      value: 0.2
    }
  }
}
layer {
  name: "inception_4c/relu_1x1"
  type: "ReLU"
  bottom: "inception_4c/1x1"
  top: "inception_4c/1x1"
}
layer {
  name: "inception_4c/3x3_reduce"
  type: "Convolution"
  bottom: "inception_4b/output"
  top: "inception_4c/3x3_reduce"
  param {
    lr_mult: 1
    decay_mult: 1
  }
  param {
    lr_mult: 2
    decay_mult: 0
  }
  convolution_param {
    num_output: 128
    kernel_size: 1
    weight_filler {
      type: "xavier"
      std: 0.09
    }
    bias_filler {
      type: "constant"
      value: 0.2
    }
  }
}
layer {
  name: "inception_4c/relu_3x3_reduce"
  type: "ReLU"
  bottom: "inception_4c/3x3_reduce"
  top: "inception_4c/3x3_reduce"
}
layer {
  name: "inception_4c/3x3"
  type: "Convolution"
  bottom: "inception_4c/3x3_reduce"
  top: "inception_4c/3x3"
  param {
    lr_mult: 1
    decay_mult: 1
  }
  param {
    lr_mult: 2
    decay_mult: 0
  }
  convolution_param {
    num_output: 256
    pad: 1
    kernel_size: 3
    weight_filler {
      type: "xavier"
      std: 0.03
    }
    bias_filler {
      type: "constant"
      value: 0.2
    }
  }
}
layer {
  name: "inception_4c/relu_3x3"
  type: "ReLU"
  bottom: "inception_4c/3x3"
  top: "inception_4c/3x3"
}
layer {
  name: "inception_4c/5x5_reduce"
  type: "Convolution"
  bottom: "inception_4b/output"
  top: "inception_4c/5x5_reduce"
  param {
    lr_mult: 1
    decay_mult: 1
  }
  param {
    lr_mult: 2
    decay_mult: 0
  }
  convolution_param {
    num_output: 24
    kernel_size: 1
    weight_filler {
      type: "xavier"
      std: 0.2
    }
    bias_filler {
      type: "constant"
      value: 0.2
    }
  }
}
layer {
  name: "inception_4c/relu_5x5_reduce"
  type: "ReLU"
  bottom: "inception_4c/5x5_reduce"
  top: "inception_4c/5x5_reduce"
}
layer {
  name: "inception_4c/5x5"
  type: "Convolution"
  bottom: "inception_4c/5x5_reduce"
  top: "inception_4c/5x5"
  param {
    lr_mult: 1
    decay_mult: 1
  }
  param {
    lr_mult: 2
    decay_mult: 0
  }
  convolution_param {
    num_output: 64
    pad: 2
    kernel_size: 5
    weight_filler {
      type: "xavier"
      std: 0.03
    }
    bias_filler {
      type: "constant"
      value: 0.2
    }
  }
}
layer {
  name: "inception_4c/relu_5x5"
  type: "ReLU"
  bottom: "inception_4c/5x5"
  top: "inception_4c/5x5"
}
layer {
  name: "inception_4c/pool"
  type: "Pooling"
  bottom: "inception_4b/output"
  top: "inception_4c/pool"
  pooling_param {
    pool: MAX
    kernel_size: 3
    stride: 1
    pad: 1
  }
}
layer {
  name: "inception_4c/pool_proj"
  type: "Convolution"
  bottom: "inception_4c/pool"
  top: "inception_4c/pool_proj"
  param {
    lr_mult: 1
    decay_mult: 1
  }
  param {
    lr_mult: 2
    decay_mult: 0
  }
  convolution_param {
    num_output: 64
    kernel_size: 1
    weight_filler {
      type: "xavier"
      std: 0.1
    }
    bias_filler {
      type: "constant"
      value: 0.2
    }
  }
}
layer {
  name: "inception_4c/relu_pool_proj"
  type: "ReLU"
  bottom: "inception_4c/pool_proj"
  top: "inception_4c/pool_proj"
}
layer {
  name: "inception_4c/output"
  type: "Concat"
  bottom: "inception_4c/1x1"
  bottom: "inception_4c/3x3"
  bottom: "inception_4c/5x5"
  bottom: "inception_4c/pool_proj"
  top: "inception_4c/output"
}
layer {
  name: "inception_4d/1x1"
  type: "Convolution"
  bottom: "inception_4c/output"
  top: "inception_4d/1x1"
  param {
    lr_mult: 1
    decay_mult: 1
  }
  param {
    lr_mult: 2
    decay_mult: 0
  }
  convolution_param {
    num_output: 112
    kernel_size: 1
    weight_filler {
      type: "xavier"
      std: 0.03
    }
    bias_filler {
      type: "constant"
      value: 0.2
    }
  }
}
layer {
  name: "inception_4d/relu_1x1"
  type: "ReLU"
  bottom: "inception_4d/1x1"
  top: "inception_4d/1x1"
}
layer {
  name: "inception_4d/3x3_reduce"
  type: "Convolution"
  bottom: "inception_4c/output"
  top: "inception_4d/3x3_reduce"
  param {
    lr_mult: 1
    decay_mult: 1
  }
  param {
    lr_mult: 2
    decay_mult: 0
  }
  convolution_param {
    num_output: 144
    kernel_size: 1
    weight_filler {
      type: "xavier"
      std: 0.09
    }
    bias_filler {
      type: "constant"
      value: 0.2
    }
  }
}
layer {
  name: "inception_4d/relu_3x3_reduce"
  type: "ReLU"
  bottom: "inception_4d/3x3_reduce"
  top: "inception_4d/3x3_reduce"
}
layer {
  name: "inception_4d/3x3"
  type: "Convolution"
  bottom: "inception_4d/3x3_reduce"
  top: "inception_4d/3x3"
  param {
    lr_mult: 1
    decay_mult: 1
  }
  param {
    lr_mult: 2
    decay_mult: 0
  }
  convolution_param {
    num_output: 288
    pad: 1
    kernel_size: 3
    weight_filler {
      type: "xavier"
      std: 0.03
    }
    bias_filler {
      type: "constant"
      value: 0.2
    }
  }
}
layer {
  name: "inception_4d/relu_3x3"
  type: "ReLU"
  bottom: "inception_4d/3x3"
  top: "inception_4d/3x3"
}
layer {
  name: "inception_4d/5x5_reduce"
  type: "Convolution"
  bottom: "inception_4c/output"
  top: "inception_4d/5x5_reduce"
  param {
    lr_mult: 1
    decay_mult: 1
  }
  param {
    lr_mult: 2
    decay_mult: 0
  }
  convolution_param {
    num_output: 32
    kernel_size: 1
    weight_filler {
      type: "xavier"
      std: 0.2
    }
    bias_filler {
      type: "constant"
      value: 0.2
    }
  }
}
layer {
  name: "inception_4d/relu_5x5_reduce"
  type: "ReLU"
  bottom: "inception_4d/5x5_reduce"
  top: "inception_4d/5x5_reduce"
}
layer {
  name: "inception_4d/5x5"
  type: "Convolution"
  bottom: "inception_4d/5x5_reduce"
  top: "inception_4d/5x5"
  param {
    lr_mult: 1
    decay_mult: 1
  }
  param {
    lr_mult: 2
    decay_mult: 0
  }
  convolution_param {
    num_output: 64
    pad: 2
    kernel_size: 5
    weight_filler {
      type: "xavier"
      std: 0.03
    }
    bias_filler {
      type: "constant"
      value: 0.2
    }
  }
}
layer {
  name: "inception_4d/relu_5x5"
  type: "ReLU"
  bottom: "inception_4d/5x5"
  top: "inception_4d/5x5"
}
layer {
  name: "inception_4d/pool"
  type: "Pooling"
  bottom: "inception_4c/output"
  top: "inception_4d/pool"
  pooling_param {
    pool: MAX
    kernel_size: 3
    stride: 1
    pad: 1
  }
}
layer {
  name: "inception_4d/pool_proj"
  type: "Convolution"
  bottom: "inception_4d/pool"
  top: "inception_4d/pool_proj"
  param {
    lr_mult: 1
    decay_mult: 1
  }
  param {
    lr_mult: 2
    decay_mult: 0
  }
  convolution_param {
    num_output: 64
    kernel_size: 1
    weight_filler {
      type: "xavier"
      std: 0.1
    }
    bias_filler {
      type: "constant"
      value: 0.2
    }
  }
}
layer {
  name: "inception_4d/relu_pool_proj"
  type: "ReLU"
  bottom: "inception_4d/pool_proj"
  top: "inception_4d/pool_proj"
}
layer {
  name: "inception_4d/output"
  type: "Concat"
  bottom: "inception_4d/1x1"
  bottom: "inception_4d/3x3"
  bottom: "inception_4d/5x5"
  bottom: "inception_4d/pool_proj"
  top: "inception_4d/output"
}
layer {
  name: "loss2/ave_pool"
  type: "Pooling"
  bottom: "inception_4d/output"
  top: "loss2/ave_pool"
  pooling_param {
    pool: AVE
    kernel_size: 5
    stride: 3
  }
}
layer {
  name: "loss2/conv"
  type: "Convolution"
  bottom: "loss2/ave_pool"
  top: "loss2/conv"
  param {
    lr_mult: 1
    decay_mult: 1
  }
  param {
    lr_mult: 2
    decay_mult: 0
  }
  convolution_param {
    num_output: 128
    kernel_size: 1
    weight_filler {
      type: "xavier"
      std: 0.08
    }
    bias_filler {
      type: "constant"
      value: 0.2
    }
  }
}
layer {
  name: "loss2/relu_conv"
  type: "ReLU"
  bottom: "loss2/conv"
  top: "loss2/conv"
}
layer {
  name: "loss2/fc"
  type: "InnerProduct"
  bottom: "loss2/conv"
  top: "loss2/fc"
  param {
    lr_mult: 1
    decay_mult: 1
  }
  param {
    lr_mult: 2
    decay_mult: 0
  }
  inner_product_param {
    num_output: 1024
    weight_filler {
      type: "xavier"
      std: 0.02
    }
    bias_filler {
      type: "constant"
      value: 0.2
    }
  }
}
layer {
  name: "loss2/relu_fc"
  type: "ReLU"
  bottom: "loss2/fc"
  top: "loss2/fc"
}
layer {
  name: "loss2/drop_fc"
  type: "Dropout"
  bottom: "loss2/fc"
  top: "loss2/fc"
  dropout_param {
    dropout_ratio: 0.7
  }
}
layer {
  name: "loss2/classifier_plantvillage"
  type: "InnerProduct"
  bottom: "loss2/fc"
  top: "loss2/classifier_plantvillage"
  param {
    lr_mult: 1
    decay_mult: 1
  }
  param {
    lr_mult: 2
    decay_mult: 0
  }
  inner_product_param {
    num_output: 38
    weight_filler {
      type: "xavier"
      std: 0.0009765625
    }
    bias_filler {
      type: "constant"
      value: 0
    }
  }
}
layer {
  name: "inception_4e/1x1"
  type: "Convolution"
  bottom: "inception_4d/output"
  top: "inception_4e/1x1"
  param {
    lr_mult: 1
    decay_mult: 1
  }
  param {
    lr_mult: 2
    decay_mult: 0
  }
  convolution_param {
    num_output: 256
    kernel_size: 1
    weight_filler {
      type: "xavier"
      std: 0.03
    }
    bias_filler {
      type: "constant"
      value: 0.2
    }
  }
}
layer {
  name: "inception_4e/relu_1x1"
  type: "ReLU"
  bottom: "inception_4e/1x1"
  top: "inception_4e/1x1"
}
layer {
  name: "inception_4e/3x3_reduce"
  type: "Convolution"
  bottom: "inception_4d/output"
  top: "inception_4e/3x3_reduce"
  param {
    lr_mult: 1
    decay_mult: 1
  }
  param {
    lr_mult: 2
    decay_mult: 0
  }
  convolution_param {
    num_output: 160
    kernel_size: 1
    weight_filler {
      type: "xavier"
      std: 0.09
    }
    bias_filler {
      type: "constant"
      value: 0.2
    }
  }
}
layer {
  name: "inception_4e/relu_3x3_reduce"
  type: "ReLU"
  bottom: "inception_4e/3x3_reduce"
  top: "inception_4e/3x3_reduce"
}
layer {
  name: "inception_4e/3x3"
  type: "Convolution"
  bottom: "inception_4e/3x3_reduce"
  top: "inception_4e/3x3"
  param {
    lr_mult: 1
    decay_mult: 1
  }
  param {
    lr_mult: 2
    decay_mult: 0
  }
  convolution_param {
    num_output: 320
    pad: 1
    kernel_size: 3
    weight_filler {
      type: "xavier"
      std: 0.03
    }
    bias_filler {
      type: "constant"
      value: 0.2
    }
  }
}
layer {
  name: "inception_4e/relu_3x3"
  type: "ReLU"
  bottom: "inception_4e/3x3"
  top: "inception_4e/3x3"
}
layer {
  name: "inception_4e/5x5_reduce"
  type: "Convolution"
  bottom: "inception_4d/output"
  top: "inception_4e/5x5_reduce"
  param {
    lr_mult: 1
    decay_mult: 1
  }
  param {
    lr_mult: 2
    decay_mult: 0
  }
  convolution_param {
    num_output: 32
    kernel_size: 1
    weight_filler {
      type: "xavier"
      std: 0.2
    }
    bias_filler {
      type: "constant"
      value: 0.2
    }
  }
}
layer {
  name: "inception_4e/relu_5x5_reduce"
  type: "ReLU"
  bottom: "inception_4e/5x5_reduce"
  top: "inception_4e/5x5_reduce"
}
layer {
  name: "inception_4e/5x5"
  type: "Convolution"
  bottom: "inception_4e/5x5_reduce"
  top: "inception_4e/5x5"
  p
I0403 15:37:52.688529 13834 layer_factory.hpp:77] Creating layer data
I0403 15:37:52.689524 13834 net.cpp:91] Creating Layer data
I0403 15:37:52.689558 13834 net.cpp:399] data -> data
I0403 15:37:52.689656 13834 net.cpp:399] data -> label
I0403 15:37:52.689744 13834 data_transformer.cpp:25] Loading mean file from: /home/mohanty/data/final_dataset/lmdb/color-80-20/mean.binaryproto
I0403 15:37:52.727713 13837 db_lmdb.cpp:38] Opened lmdb /home/mohanty/data/final_dataset/lmdb/color-80-20/test_db
I0403 15:37:52.750231 13834 data_layer.cpp:41] output data size: 24,3,224,224
I0403 15:37:52.778759 13834 net.cpp:141] Setting up data
I0403 15:37:52.778875 13834 net.cpp:148] Top shape: 24 3 224 224 (3612672)
I0403 15:37:52.778901 13834 net.cpp:148] Top shape: 24 (24)
I0403 15:37:52.778918 13834 net.cpp:156] Memory required for data: 14450784
I0403 15:37:52.778951 13834 layer_factory.hpp:77] Creating layer label_data_1_split
I0403 15:37:52.778981 13834 net.cpp:91] Creating Layer label_data_1_split
I0403 15:37:52.779011 13834 net.cpp:425] label_data_1_split <- label
I0403 15:37:52.779043 13834 net.cpp:399] label_data_1_split -> label_data_1_split_0
I0403 15:37:52.779073 13834 net.cpp:399] label_data_1_split -> label_data_1_split_1
I0403 15:37:52.779095 13834 net.cpp:399] label_data_1_split -> label_data_1_split_2
I0403 15:37:52.779116 13834 net.cpp:399] label_data_1_split -> label_data_1_split_3
I0403 15:37:52.779144 13834 net.cpp:399] label_data_1_split -> label_data_1_split_4
I0403 15:37:52.779165 13834 net.cpp:399] label_data_1_split -> label_data_1_split_5
I0403 15:37:52.779186 13834 net.cpp:399] label_data_1_split -> label_data_1_split_6
I0403 15:37:52.779208 13834 net.cpp:399] label_data_1_split -> label_data_1_split_7
I0403 15:37:52.779229 13834 net.cpp:399] label_data_1_split -> label_data_1_split_8
I0403 15:37:52.779252 13834 net.cpp:399] label_data_1_split -> label_data_1_split_9
I0403 15:37:52.779374 13834 net.cpp:141] Setting up label_data_1_split
I0403 15:37:52.779399 13834 net.cpp:148] Top shape: 24 (24)
I0403 15:37:52.779418 13834 net.cpp:148] Top shape: 24 (24)
I0403 15:37:52.779435 13834 net.cpp:148] Top shape: 24 (24)
I0403 15:37:52.779453 13834 net.cpp:148] Top shape: 24 (24)
I0403 15:37:52.779469 13834 net.cpp:148] Top shape: 24 (24)
I0403 15:37:52.779485 13834 net.cpp:148] Top shape: 24 (24)
I0403 15:37:52.779503 13834 net.cpp:148] Top shape: 24 (24)
I0403 15:37:52.779520 13834 net.cpp:148] Top shape: 24 (24)
I0403 15:37:52.779537 13834 net.cpp:148] Top shape: 24 (24)
I0403 15:37:52.779556 13834 net.cpp:148] Top shape: 24 (24)
I0403 15:37:52.779594 13834 net.cpp:156] Memory required for data: 14451744
I0403 15:37:52.779611 13834 layer_factory.hpp:77] Creating layer conv1/7x7_s2
I0403 15:37:52.779657 13834 net.cpp:91] Creating Layer conv1/7x7_s2
I0403 15:37:52.779680 13834 net.cpp:425] conv1/7x7_s2 <- data
I0403 15:37:52.779702 13834 net.cpp:399] conv1/7x7_s2 -> conv1/7x7_s2
I0403 15:37:53.144503 13834 net.cpp:141] Setting up conv1/7x7_s2
I0403 15:37:53.144567 13834 net.cpp:148] Top shape: 24 64 112 112 (19267584)
I0403 15:37:53.144584 13834 net.cpp:156] Memory required for data: 91522080
I0403 15:37:53.144618 13834 layer_factory.hpp:77] Creating layer conv1/relu_7x7
I0403 15:37:53.144656 13834 net.cpp:91] Creating Layer conv1/relu_7x7
I0403 15:37:53.144678 13834 net.cpp:425] conv1/relu_7x7 <- conv1/7x7_s2
I0403 15:37:53.144697 13834 net.cpp:386] conv1/relu_7x7 -> conv1/7x7_s2 (in-place)
I0403 15:37:53.144965 13834 net.cpp:141] Setting up conv1/relu_7x7
I0403 15:37:53.144994 13834 net.cpp:148] Top shape: 24 64 112 112 (19267584)
I0403 15:37:53.145009 13834 net.cpp:156] Memory required for data: 168592416
I0403 15:37:53.145025 13834 layer_factory.hpp:77] Creating layer pool1/3x3_s2
I0403 15:37:53.145063 13834 net.cpp:91] Creating Layer pool1/3x3_s2
I0403 15:37:53.145083 13834 net.cpp:425] pool1/3x3_s2 <- conv1/7x7_s2
I0403 15:37:53.145103 13834 net.cpp:399] pool1/3x3_s2 -> pool1/3x3_s2
I0403 15:37:53.145213 13834 net.cpp:141] Setting up pool1/3x3_s2
I0403 15:37:53.145239 13834 net.cpp:148] Top shape: 24 64 56 56 (4816896)
I0403 15:37:53.145256 13834 net.cpp:156] Memory required for data: 187860000
I0403 15:37:53.145272 13834 layer_factory.hpp:77] Creating layer pool1/norm1
I0403 15:37:53.145308 13834 net.cpp:91] Creating Layer pool1/norm1
I0403 15:37:53.145329 13834 net.cpp:425] pool1/norm1 <- pool1/3x3_s2
I0403 15:37:53.145347 13834 net.cpp:399] pool1/norm1 -> pool1/norm1
I0403 15:37:53.145666 13834 net.cpp:141] Setting up pool1/norm1
I0403 15:37:53.145695 13834 net.cpp:148] Top shape: 24 64 56 56 (4816896)
I0403 15:37:53.145711 13834 net.cpp:156] Memory required for data: 207127584
I0403 15:37:53.145727 13834 layer_factory.hpp:77] Creating layer conv2/3x3_reduce
I0403 15:37:53.145753 13834 net.cpp:91] Creating Layer conv2/3x3_reduce
I0403 15:37:53.145771 13834 net.cpp:425] conv2/3x3_reduce <- pool1/norm1
I0403 15:37:53.145789 13834 net.cpp:399] conv2/3x3_reduce -> conv2/3x3_reduce
I0403 15:37:53.147251 13834 net.cpp:141] Setting up conv2/3x3_reduce
I0403 15:37:53.147280 13834 net.cpp:148] Top shape: 24 64 56 56 (4816896)
I0403 15:37:53.147297 13834 net.cpp:156] Memory required for data: 226395168
I0403 15:37:53.147320 13834 layer_factory.hpp:77] Creating layer conv2/relu_3x3_reduce
I0403 15:37:53.147338 13834 net.cpp:91] Creating Layer conv2/relu_3x3_reduce
I0403 15:37:53.147356 13834 net.cpp:425] conv2/relu_3x3_reduce <- conv2/3x3_reduce
I0403 15:37:53.147372 13834 net.cpp:386] conv2/relu_3x3_reduce -> conv2/3x3_reduce (in-place)
I0403 15:37:53.147635 13834 net.cpp:141] Setting up conv2/relu_3x3_reduce
I0403 15:37:53.147663 13834 net.cpp:148] Top shape: 24 64 56 56 (4816896)
I0403 15:37:53.147680 13834 net.cpp:156] Memory required for data: 245662752
I0403 15:37:53.147696 13834 layer_factory.hpp:77] Creating layer conv2/3x3
I0403 15:37:53.147718 13834 net.cpp:91] Creating Layer conv2/3x3
I0403 15:37:53.147737 13834 net.cpp:425] conv2/3x3 <- conv2/3x3_reduce
I0403 15:37:53.147755 13834 net.cpp:399] conv2/3x3 -> conv2/3x3
I0403 15:37:53.150120 13834 net.cpp:141] Setting up conv2/3x3
I0403 15:37:53.150154 13834 net.cpp:148] Top shape: 24 192 56 56 (14450688)
I0403 15:37:53.150172 13834 net.cpp:156] Memory required for data: 303465504
I0403 15:37:53.150194 13834 layer_factory.hpp:77] Creating layer conv2/relu_3x3
I0403 15:37:53.150214 13834 net.cpp:91] Creating Layer conv2/relu_3x3
I0403 15:37:53.150230 13834 net.cpp:425] conv2/relu_3x3 <- conv2/3x3
I0403 15:37:53.150249 13834 net.cpp:386] conv2/relu_3x3 -> conv2/3x3 (in-place)
I0403 15:37:53.150414 13834 net.cpp:141] Setting up conv2/relu_3x3
I0403 15:37:53.150441 13834 net.cpp:148] Top shape: 24 192 56 56 (14450688)
I0403 15:37:53.150486 13834 net.cpp:156] Memory required for data: 361268256
I0403 15:37:53.150502 13834 layer_factory.hpp:77] Creating layer conv2/norm2
I0403 15:37:53.150521 13834 net.cpp:91] Creating Layer conv2/norm2
I0403 15:37:53.150538 13834 net.cpp:425] conv2/norm2 <- conv2/3x3
I0403 15:37:53.150557 13834 net.cpp:399] conv2/norm2 -> conv2/norm2
I0403 15:37:53.150851 13834 net.cpp:141] Setting up conv2/norm2
I0403 15:37:53.150878 13834 net.cpp:148] Top shape: 24 192 56 56 (14450688)
I0403 15:37:53.150895 13834 net.cpp:156] Memory required for data: 419071008
I0403 15:37:53.150910 13834 layer_factory.hpp:77] Creating layer pool2/3x3_s2
I0403 15:37:53.150929 13834 net.cpp:91] Creating Layer pool2/3x3_s2
I0403 15:37:53.150948 13834 net.cpp:425] pool2/3x3_s2 <- conv2/norm2
I0403 15:37:53.150966 13834 net.cpp:399] pool2/3x3_s2 -> pool2/3x3_s2
I0403 15:37:53.151018 13834 net.cpp:141] Setting up pool2/3x3_s2
I0403 15:37:53.151044 13834 net.cpp:148] Top shape: 24 192 28 28 (3612672)
I0403 15:37:53.151059 13834 net.cpp:156] Memory required for data: 433521696
I0403 15:37:53.151075 13834 layer_factory.hpp:77] Creating layer pool2/3x3_s2_pool2/3x3_s2_0_split
I0403 15:37:53.151094 13834 net.cpp:91] Creating Layer pool2/3x3_s2_pool2/3x3_s2_0_split
I0403 15:37:53.151110 13834 net.cpp:425] pool2/3x3_s2_pool2/3x3_s2_0_split <- pool2/3x3_s2
I0403 15:37:53.151134 13834 net.cpp:399] pool2/3x3_s2_pool2/3x3_s2_0_split -> pool2/3x3_s2_pool2/3x3_s2_0_split_0
I0403 15:37:53.151156 13834 net.cpp:399] pool2/3x3_s2_pool2/3x3_s2_0_split -> pool2/3x3_s2_pool2/3x3_s2_0_split_1
I0403 15:37:53.151180 13834 net.cpp:399] pool2/3x3_s2_pool2/3x3_s2_0_split -> pool2/3x3_s2_pool2/3x3_s2_0_split_2
I0403 15:37:53.151201 13834 net.cpp:399] pool2/3x3_s2_pool2/3x3_s2_0_split -> pool2/3x3_s2_pool2/3x3_s2_0_split_3
I0403 15:37:53.151268 13834 net.cpp:141] Setting up pool2/3x3_s2_pool2/3x3_s2_0_split
I0403 15:37:53.151293 13834 net.cpp:148] Top shape: 24 192 28 28 (3612672)
I0403 15:37:53.151311 13834 net.cpp:148] Top shape: 24 192 28 28 (3612672)
I0403 15:37:53.151329 13834 net.cpp:148] Top shape: 24 192 28 28 (3612672)
I0403 15:37:53.151346 13834 net.cpp:148] Top shape: 24 192 28 28 (3612672)
I0403 15:37:53.151361 13834 net.cpp:156] Memory required for data: 491324448
I0403 15:37:53.151377 13834 layer_factory.hpp:77] Creating layer inception_3a/1x1
I0403 15:37:53.151399 13834 net.cpp:91] Creating Layer inception_3a/1x1
I0403 15:37:53.151417 13834 net.cpp:425] inception_3a/1x1 <- pool2/3x3_s2_pool2/3x3_s2_0_split_0
I0403 15:37:53.151437 13834 net.cpp:399] inception_3a/1x1 -> inception_3a/1x1
I0403 15:37:53.153051 13834 net.cpp:141] Setting up inception_3a/1x1
I0403 15:37:53.153084 13834 net.cpp:148] Top shape: 24 64 28 28 (1204224)
I0403 15:37:53.153102 13834 net.cpp:156] Memory required for data: 496141344
I0403 15:37:53.153123 13834 layer_factory.hpp:77] Creating layer inception_3a/relu_1x1
I0403 15:37:53.153157 13834 net.cpp:91] Creating Layer inception_3a/relu_1x1
I0403 15:37:53.153175 13834 net.cpp:425] inception_3a/relu_1x1 <- inception_3a/1x1
I0403 15:37:53.153198 13834 net.cpp:386] inception_3a/relu_1x1 -> inception_3a/1x1 (in-place)
I0403 15:37:53.153381 13834 net.cpp:141] Setting up inception_3a/relu_1x1
I0403 15:37:53.153409 13834 net.cpp:148] Top shape: 24 64 28 28 (1204224)
I0403 15:37:53.153435 13834 net.cpp:156] Memory required for data: 500958240
I0403 15:37:53.153452 13834 layer_factory.hpp:77] Creating layer inception_3a/3x3_reduce
I0403 15:37:53.153478 13834 net.cpp:91] Creating Layer inception_3a/3x3_reduce
I0403 15:37:53.153498 13834 net.cpp:425] inception_3a/3x3_reduce <- pool2/3x3_s2_pool2/3x3_s2_0_split_1
I0403 15:37:53.153522 13834 net.cpp:399] inception_3a/3x3_reduce -> inception_3a/3x3_reduce
I0403 15:37:53.155335 13834 net.cpp:141] Setting up inception_3a/3x3_reduce
I0403 15:37:53.155366 13834 net.cpp:148] Top shape: 24 96 28 28 (1806336)
I0403 15:37:53.155385 13834 net.cpp:156] Memory required for data: 508183584
I0403 15:37:53.155407 13834 layer_factory.hpp:77] Creating layer inception_3a/relu_3x3_reduce
I0403 15:37:53.155447 13834 net.cpp:91] Creating Layer inception_3a/relu_3x3_reduce
I0403 15:37:53.155468 13834 net.cpp:425] inception_3a/relu_3x3_reduce <- inception_3a/3x3_reduce
I0403 15:37:53.155488 13834 net.cpp:386] inception_3a/relu_3x3_reduce -> inception_3a/3x3_reduce (in-place)
I0403 15:37:53.155678 13834 net.cpp:141] Setting up inception_3a/relu_3x3_reduce
I0403 15:37:53.155721 13834 net.cpp:148] Top shape: 24 96 28 28 (1806336)
I0403 15:37:53.155740 13834 net.cpp:156] Memory required for data: 515408928
I0403 15:37:53.155755 13834 layer_factory.hpp:77] Creating layer inception_3a/3x3
I0403 15:37:53.155781 13834 net.cpp:91] Creating Layer inception_3a/3x3
I0403 15:37:53.155800 13834 net.cpp:425] inception_3a/3x3 <- inception_3a/3x3_reduce
I0403 15:37:53.155822 13834 net.cpp:399] inception_3a/3x3 -> inception_3a/3x3
I0403 15:37:53.157558 13834 net.cpp:141] Setting up inception_3a/3x3
I0403 15:37:53.157600 13834 net.cpp:148] Top shape: 24 128 28 28 (2408448)
I0403 15:37:53.157619 13834 net.cpp:156] Memory required for data: 525042720
I0403 15:37:53.157639 13834 layer_factory.hpp:77] Creating layer inception_3a/relu_3x3
I0403 15:37:53.157662 13834 net.cpp:91] Creating Layer inception_3a/relu_3x3
I0403 15:37:53.157680 13834 net.cpp:425] inception_3a/relu_3x3 <- inception_3a/3x3
I0403 15:37:53.157701 13834 net.cpp:386] inception_3a/relu_3x3 -> inception_3a/3x3 (in-place)
I0403 15:37:53.157984 13834 net.cpp:141] Setting up inception_3a/relu_3x3
I0403 15:37:53.158012 13834 net.cpp:148] Top shape: 24 128 28 28 (2408448)
I0403 15:37:53.158030 13834 net.cpp:156] Memory required for data: 534676512
I0403 15:37:53.158046 13834 layer_factory.hpp:77] Creating layer inception_3a/5x5_reduce
I0403 15:37:53.158069 13834 net.cpp:91] Creating Layer inception_3a/5x5_reduce
I0403 15:37:53.158088 13834 net.cpp:425] inception_3a/5x5_reduce <- pool2/3x3_s2_pool2/3x3_s2_0_split_2
I0403 15:37:53.158113 13834 net.cpp:399] inception_3a/5x5_reduce -> inception_3a/5x5_reduce
I0403 15:37:53.159137 13834 net.cpp:141] Setting up inception_3a/5x5_reduce
I0403 15:37:53.159167 13834 net.cpp:148] Top shape: 24 16 28 28 (301056)
I0403 15:37:53.159184 13834 net.cpp:156] Memory required for data: 535880736
I0403 15:37:53.159204 13834 layer_factory.hpp:77] Creating layer inception_3a/relu_5x5_reduce
I0403 15:37:53.159226 13834 net.cpp:91] Creating Layer inception_3a/relu_5x5_reduce
I0403 15:37:53.159245 13834 net.cpp:425] inception_3a/relu_5x5_reduce <- inception_3a/5x5_reduce
I0403 15:37:53.159263 13834 net.cpp:386] inception_3a/relu_5x5_reduce -> inception_3a/5x5_reduce (in-place)
I0403 15:37:53.159572 13834 net.cpp:141] Setting up inception_3a/relu_5x5_reduce
I0403 15:37:53.159601 13834 net.cpp:148] Top shape: 24 16 28 28 (301056)
I0403 15:37:53.159617 13834 net.cpp:156] Memory required for data: 537084960
I0403 15:37:53.159633 13834 layer_factory.hpp:77] Creating layer inception_3a/5x5
I0403 15:37:53.159658 13834 net.cpp:91] Creating Layer inception_3a/5x5
I0403 15:37:53.159677 13834 net.cpp:425] inception_3a/5x5 <- inception_3a/5x5_reduce
I0403 15:37:53.159700 13834 net.cpp:399] inception_3a/5x5 -> inception_3a/5x5
I0403 15:37:53.160794 13834 net.cpp:141] Setting up inception_3a/5x5
I0403 15:37:53.160823 13834 net.cpp:148] Top shape: 24 32 28 28 (602112)
I0403 15:37:53.160840 13834 net.cpp:156] Memory required for data: 539493408
I0403 15:37:53.160861 13834 layer_factory.hpp:77] Creating layer inception_3a/relu_5x5
I0403 15:37:53.160881 13834 net.cpp:91] Creating Layer inception_3a/relu_5x5
I0403 15:37:53.160897 13834 net.cpp:425] inception_3a/relu_5x5 <- inception_3a/5x5
I0403 15:37:53.160918 13834 net.cpp:386] inception_3a/relu_5x5 -> inception_3a/5x5 (in-place)
I0403 15:37:53.161098 13834 net.cpp:141] Setting up inception_3a/relu_5x5
I0403 15:37:53.161130 13834 net.cpp:148] Top shape: 24 32 28 28 (602112)
I0403 15:37:53.161149 13834 net.cpp:156] Memory required for data: 541901856
I0403 15:37:53.161165 13834 layer_factory.hpp:77] Creating layer inception_3a/pool
I0403 15:37:53.161187 13834 net.cpp:91] Creating Layer inception_3a/pool
I0403 15:37:53.161206 13834 net.cpp:425] inception_3a/pool <- pool2/3x3_s2_pool2/3x3_s2_0_split_3
I0403 15:37:53.161242 13834 net.cpp:399] inception_3a/pool -> inception_3a/pool
I0403 15:37:53.161306 13834 net.cpp:141] Setting up inception_3a/pool
I0403 15:37:53.161332 13834 net.cpp:148] Top shape: 24 192 28 28 (3612672)
I0403 15:37:53.161350 13834 net.cpp:156] Memory required for data: 556352544
I0403 15:37:53.161366 13834 layer_factory.hpp:77] Creating layer inception_3a/pool_proj
I0403 15:37:53.161389 13834 net.cpp:91] Creating Layer inception_3a/pool_proj
I0403 15:37:53.161409 13834 net.cpp:425] inception_3a/pool_proj <- inception_3a/pool
I0403 15:37:53.161433 13834 net.cpp:399] inception_3a/pool_proj -> inception_3a/pool_proj
I0403 15:37:53.162443 13834 net.cpp:141] Setting up inception_3a/pool_proj
I0403 15:37:53.162477 13834 net.cpp:148] Top shape: 24 32 28 28 (602112)
I0403 15:37:53.162495 13834 net.cpp:156] Memory required for data: 558760992
I0403 15:37:53.162519 13834 layer_factory.hpp:77] Creating layer inception_3a/relu_pool_proj
I0403 15:37:53.162542 13834 net.cpp:91] Creating Layer inception_3a/relu_pool_proj
I0403 15:37:53.162560 13834 net.cpp:425] inception_3a/relu_pool_proj <- inception_3a/pool_proj
I0403 15:37:53.162580 13834 net.cpp:386] inception_3a/relu_pool_proj -> inception_3a/pool_proj (in-place)
I0403 15:37:53.162868 13834 net.cpp:141] Setting up inception_3a/relu_pool_proj
I0403 15:37:53.162897 13834 net.cpp:148] Top shape: 24 32 28 28 (602112)
I0403 15:37:53.162914 13834 net.cpp:156] Memory required for data: 561169440
I0403 15:37:53.162928 13834 layer_factory.hpp:77] Creating layer inception_3a/output
I0403 15:37:53.162947 13834 net.cpp:91] Creating Layer inception_3a/output
I0403 15:37:53.162964 13834 net.cpp:425] inception_3a/output <- inception_3a/1x1
I0403 15:37:53.162983 13834 net.cpp:425] inception_3a/output <- inception_3a/3x3
I0403 15:37:53.163002 13834 net.cpp:425] inception_3a/output <- inception_3a/5x5
I0403 15:37:53.163017 13834 net.cpp:425] inception_3a/output <- inception_3a/pool_proj
I0403 15:37:53.163038 13834 net.cpp:399] inception_3a/output -> inception_3a/output
I0403 15:37:53.163102 13834 net.cpp:141] Setting up inception_3a/output
I0403 15:37:53.163142 13834 net.cpp:148] Top shape: 24 256 28 28 (4816896)
I0403 15:37:53.163163 13834 net.cpp:156] Memory required for data: 580437024
I0403 15:37:53.163180 13834 layer_factory.hpp:77] Creating layer inception_3a/output_inception_3a/output_0_split
I0403 15:37:53.163197 13834 net.cpp:91] Creating Layer inception_3a/output_inception_3a/output_0_split
I0403 15:37:53.163214 13834 net.cpp:425] inception_3a/output_inception_3a/output_0_split <- inception_3a/output
I0403 15:37:53.163250 13834 net.cpp:399] inception_3a/output_inception_3a/output_0_split -> inception_3a/output_inception_3a/output_0_split_0
I0403 15:37:53.163274 13834 net.cpp:399] inception_3a/output_inception_3a/output_0_split -> inception_3a/output_inception_3a/output_0_split_1
I0403 15:37:53.163297 13834 net.cpp:399] inception_3a/output_inception_3a/output_0_split -> inception_3a/output_inception_3a/output_0_split_2
I0403 15:37:53.163319 13834 net.cpp:399] inception_3a/output_inception_3a/output_0_split -> inception_3a/output_inception_3a/output_0_split_3
I0403 15:37:53.163398 13834 net.cpp:141] Setting up inception_3a/output_inception_3a/output_0_split
I0403 15:37:53.163424 13834 net.cpp:148] Top shape: 24 256 28 28 (4816896)
I0403 15:37:53.163444 13834 net.cpp:148] Top shape: 24 256 28 28 (4816896)
I0403 15:37:53.163461 13834 net.cpp:148] Top shape: 24 256 28 28 (4816896)
I0403 15:37:53.163480 13834 net.cpp:148] Top shape: 24 256 28 28 (4816896)
I0403 15:37:53.163494 13834 net.cpp:156] Memory required for data: 657507360
I0403 15:37:53.163511 13834 layer_factory.hpp:77] Creating layer inception_3b/1x1
I0403 15:37:53.163535 13834 net.cpp:91] Creating Layer inception_3b/1x1
I0403 15:37:53.163554 13834 net.cpp:425] inception_3b/1x1 <- inception_3a/output_inception_3a/output_0_split_0
I0403 15:37:53.163578 13834 net.cpp:399] inception_3b/1x1 -> inception_3b/1x1
I0403 15:37:53.164769 13834 net.cpp:141] Setting up inception_3b/1x1
I0403 15:37:53.164814 13834 net.cpp:148] Top shape: 24 128 28 28 (2408448)
I0403 15:37:53.164832 13834 net.cpp:156] Memory required for data: 667141152
I0403 15:37:53.164851 13834 layer_factory.hpp:77] Creating layer inception_3b/relu_1x1
I0403 15:37:53.164871 13834 net.cpp:91] Creating Layer inception_3b/relu_1x1
I0403 15:37:53.164888 13834 net.cpp:425] inception_3b/relu_1x1 <- inception_3b/1x1
I0403 15:37:53.164909 13834 net.cpp:386] inception_3b/relu_1x1 -> inception_3b/1x1 (in-place)
I0403 15:37:53.165096 13834 net.cpp:141] Setting up inception_3b/relu_1x1
I0403 15:37:53.165122 13834 net.cpp:148] Top shape: 24 128 28 28 (2408448)
I0403 15:37:53.165145 13834 net.cpp:156] Memory required for data: 676774944
I0403 15:37:53.165163 13834 layer_factory.hpp:77] Creating layer inception_3b/3x3_reduce
I0403 15:37:53.165185 13834 net.cpp:91] Creating Layer inception_3b/3x3_reduce
I0403 15:37:53.165205 13834 net.cpp:425] inception_3b/3x3_reduce <- inception_3a/output_inception_3a/output_0_split_1
I0403 15:37:53.165228 13834 net.cpp:399] inception_3b/3x3_reduce -> inception_3b/3x3_reduce
I0403 15:37:53.166412 13834 net.cpp:141] Setting up inception_3b/3x3_reduce
I0403 15:37:53.166445 13834 net.cpp:148] Top shape: 24 128 28 28 (2408448)
I0403 15:37:53.166462 13834 net.cpp:156] Memory required for data: 686408736
I0403 15:37:53.166483 13834 layer_factory.hpp:77] Creating layer inception_3b/relu_3x3_reduce
I0403 15:37:53.166501 13834 net.cpp:91] Creating Layer inception_3b/relu_3x3_reduce
I0403 15:37:53.166518 13834 net.cpp:425] inception_3b/relu_3x3_reduce <- inception_3b/3x3_reduce
I0403 15:37:53.166538 13834 net.cpp:386] inception_3b/relu_3x3_reduce -> inception_3b/3x3_reduce (in-place)
I0403 15:37:53.166723 13834 net.cpp:141] Setting up inception_3b/relu_3x3_reduce
I0403 15:37:53.166750 13834 net.cpp:148] Top shape: 24 128 28 28 (2408448)
I0403 15:37:53.166766 13834 net.cpp:156] Memory required for data: 696042528
I0403 15:37:53.166784 13834 layer_factory.hpp:77] Creating layer inception_3b/3x3
I0403 15:37:53.166811 13834 net.cpp:91] Creating Layer inception_3b/3x3
I0403 15:37:53.166831 13834 net.cpp:425] inception_3b/3x3 <- inception_3b/3x3_reduce
I0403 15:37:53.166852 13834 net.cpp:399] inception_3b/3x3 -> inception_3b/3x3
I0403 15:37:53.169921 13834 net.cpp:141] Setting up inception_3b/3x3
I0403 15:37:53.169951 13834 net.cpp:148] Top shape: 24 192 28 28 (3612672)
I0403 15:37:53.169968 13834 net.cpp:156] Memory required for data: 710493216
I0403 15:37:53.169988 13834 layer_factory.hpp:77] Creating layer inception_3b/relu_3x3
I0403 15:37:53.170011 13834 net.cpp:91] Creating Layer inception_3b/relu_3x3
I0403 15:37:53.170028 13834 net.cpp:425] inception_3b/relu_3x3 <- inception_3b/3x3
I0403 15:37:53.170047 13834 net.cpp:386] inception_3b/relu_3x3 -> inception_3b/3x3 (in-place)
I0403 15:37:53.170337 13834 net.cpp:141] Setting up inception_3b/relu_3x3
I0403 15:37:53.170367 13834 net.cpp:148] Top shape: 24 192 28 28 (3612672)
I0403 15:37:53.170384 13834 net.cpp:156] Memory required for data: 724943904
I0403 15:37:53.170404 13834 layer_factory.hpp:77] Creating layer inception_3b/5x5_reduce
I0403 15:37:53.170433 13834 net.cpp:91] Creating Layer inception_3b/5x5_reduce
I0403 15:37:53.170454 13834 net.cpp:425] inception_3b/5x5_reduce <- inception_3a/output_inception_3a/output_0_split_2
I0403 15:37:53.170477 13834 net.cpp:399] inception_3b/5x5_reduce -> inception_3b/5x5_reduce
I0403 15:37:53.171511 13834 net.cpp:141] Setting up inception_3b/5x5_reduce
I0403 15:37:53.171541 13834 net.cpp:148] Top shape: 24 32 28 28 (602112)
I0403 15:37:53.171558 13834 net.cpp:156] Memory required for data: 727352352
I0403 15:37:53.171578 13834 layer_factory.hpp:77] Creating layer inception_3b/relu_5x5_reduce
I0403 15:37:53.171602 13834 net.cpp:91] Creating Layer inception_3b/relu_5x5_reduce
I0403 15:37:53.171620 13834 net.cpp:425] inception_3b/relu_5x5_reduce <- inception_3b/5x5_reduce
I0403 15:37:53.171639 13834 net.cpp:386] inception_3b/relu_5x5_reduce -> inception_3b/5x5_reduce (in-place)
I0403 15:37:53.171823 13834 net.cpp:141] Setting up inception_3b/relu_5x5_reduce
I0403 15:37:53.171862 13834 net.cpp:148] Top shape: 24 32 28 28 (602112)
I0403 15:37:53.171880 13834 net.cpp:156] Memory required for data: 729760800
I0403 15:37:53.171896 13834 layer_factory.hpp:77] Creating layer inception_3b/5x5
I0403 15:37:53.171921 13834 net.cpp:91] Creating Layer inception_3b/5x5
I0403 15:37:53.171941 13834 net.cpp:425] inception_3b/5x5 <- inception_3b/5x5_reduce
I0403 15:37:53.171962 13834 net.cpp:399] inception_3b/5x5 -> inception_3b/5x5
I0403 15:37:53.174018 13834 net.cpp:141] Setting up inception_3b/5x5
I0403 15:37:53.174053 13834 net.cpp:148] Top shape: 24 96 28 28 (1806336)
I0403 15:37:53.174072 13834 net.cpp:156] Memory required for data: 736986144
I0403 15:37:53.174091 13834 layer_factory.hpp:77] Creating layer inception_3b/relu_5x5
I0403 15:37:53.174111 13834 net.cpp:91] Creating Layer inception_3b/relu_5x5
I0403 15:37:53.174134 13834 net.cpp:425] inception_3b/relu_5x5 <- inception_3b/5x5
I0403 15:37:53.174155 13834 net.cpp:386] inception_3b/relu_5x5 -> inception_3b/5x5 (in-place)
I0403 15:37:53.174360 13834 net.cpp:141] Setting up inception_3b/relu_5x5
I0403 15:37:53.174387 13834 net.cpp:148] Top shape: 24 96 28 28 (1806336)
I0403 15:37:53.174403 13834 net.cpp:156] Memory required for data: 744211488
I0403 15:37:53.174420 13834 layer_factory.hpp:77] Creating layer inception_3b/pool
I0403 15:37:53.174440 13834 net.cpp:91] Creating Layer inception_3b/pool
I0403 15:37:53.174458 13834 net.cpp:425] inception_3b/pool <- inception_3a/output_inception_3a/output_0_split_3
I0403 15:37:53.174476 13834 net.cpp:399] inception_3b/pool -> inception_3b/pool
I0403 15:37:53.174535 13834 net.cpp:141] Setting up inception_3b/pool
I0403 15:37:53.174561 13834 net.cpp:148] Top shape: 24 256 28 28 (4816896)
I0403 15:37:53.174577 13834 net.cpp:156] Memory required for data: 763479072
I0403 15:37:53.174593 13834 layer_factory.hpp:77] Creating layer inception_3b/pool_proj
I0403 15:37:53.174619 13834 net.cpp:91] Creating Layer inception_3b/pool_proj
I0403 15:37:53.174638 13834 net.cpp:425] inception_3b/pool_proj <- inception_3b/pool
I0403 15:37:53.174659 13834 net.cpp:399] inception_3b/pool_proj -> inception_3b/pool_proj
I0403 15:37:53.175797 13834 net.cpp:141] Setting up inception_3b/pool_proj
I0403 15:37:53.175827 13834 net.cpp:148] Top shape: 24 64 28 28 (1204224)
I0403 15:37:53.175844 13834 net.cpp:156] Memory required for data: 768295968
I0403 15:37:53.175864 13834 layer_factory.hpp:77] Creating layer inception_3b/relu_pool_proj
I0403 15:37:53.175886 13834 net.cpp:91] Creating Layer inception_3b/relu_pool_proj
I0403 15:37:53.175905 13834 net.cpp:425] inception_3b/relu_pool_proj <- inception_3b/pool_proj
I0403 15:37:53.175925 13834 net.cpp:386] inception_3b/relu_pool_proj -> inception_3b/pool_proj (in-place)
I0403 15:37:53.176342 13834 net.cpp:141] Setting up inception_3b/relu_pool_proj
I0403 15:37:53.176369 13834 net.cpp:148] Top shape: 24 64 28 28 (1204224)
I0403 15:37:53.176386 13834 net.cpp:156] Memory required for data: 773112864
I0403 15:37:53.176403 13834 layer_factory.hpp:77] Creating layer inception_3b/output
I0403 15:37:53.176424 13834 net.cpp:91] Creating Layer inception_3b/output
I0403 15:37:53.176441 13834 net.cpp:425] inception_3b/output <- inception_3b/1x1
I0403 15:37:53.176460 13834 net.cpp:425] inception_3b/output <- inception_3b/3x3
I0403 15:37:53.176477 13834 net.cpp:425] inception_3b/output <- inception_3b/5x5
I0403 15:37:53.176493 13834 net.cpp:425] inception_3b/output <- inception_3b/pool_proj
I0403 15:37:53.176512 13834 net.cpp:399] inception_3b/output -> inception_3b/output
I0403 15:37:53.176560 13834 net.cpp:141] Setting up inception_3b/output
I0403 15:37:53.176584 13834 net.cpp:148] Top shape: 24 480 28 28 (9031680)
I0403 15:37:53.176602 13834 net.cpp:156] Memory required for data: 809239584
I0403 15:37:53.176619 13834 layer_factory.hpp:77] Creating layer pool3/3x3_s2
I0403 15:37:53.176637 13834 net.cpp:91] Creating Layer pool3/3x3_s2
I0403 15:37:53.176654 13834 net.cpp:425] pool3/3x3_s2 <- inception_3b/output
I0403 15:37:53.176676 13834 net.cpp:399] pool3/3x3_s2 -> pool3/3x3_s2
I0403 15:37:53.176755 13834 net.cpp:141] Setting up pool3/3x3_s2
I0403 15:37:53.176784 13834 net.cpp:148] Top shape: 24 480 14 14 (2257920)
I0403 15:37:53.176802 13834 net.cpp:156] Memory required for data: 818271264
I0403 15:37:53.176817 13834 layer_factory.hpp:77] Creating layer pool3/3x3_s2_pool3/3x3_s2_0_split
I0403 15:37:53.176836 13834 net.cpp:91] Creating Layer pool3/3x3_s2_pool3/3x3_s2_0_split
I0403 15:37:53.176852 13834 net.cpp:425] pool3/3x3_s2_pool3/3x3_s2_0_split <- pool3/3x3_s2
I0403 15:37:53.176872 13834 net.cpp:399] pool3/3x3_s2_pool3/3x3_s2_0_split -> pool3/3x3_s2_pool3/3x3_s2_0_split_0
I0403 15:37:53.176892 13834 net.cpp:399] pool3/3x3_s2_pool3/3x3_s2_0_split -> pool3/3x3_s2_pool3/3x3_s2_0_split_1
I0403 15:37:53.176915 13834 net.cpp:399] pool3/3x3_s2_pool3/3x3_s2_0_split -> pool3/3x3_s2_pool3/3x3_s2_0_split_2
I0403 15:37:53.176939 13834 net.cpp:399] pool3/3x3_s2_pool3/3x3_s2_0_split -> pool3/3x3_s2_pool3/3x3_s2_0_split_3
I0403 15:37:53.177019 13834 net.cpp:141] Setting up pool3/3x3_s2_pool3/3x3_s2_0_split
I0403 15:37:53.177045 13834 net.cpp:148] Top shape: 24 480 14 14 (2257920)
I0403 15:37:53.177064 13834 net.cpp:148] Top shape: 24 480 14 14 (2257920)
I0403 15:37:53.177081 13834 net.cpp:148] Top shape: 24 480 14 14 (2257920)
I0403 15:37:53.177098 13834 net.cpp:148] Top shape: 24 480 14 14 (2257920)
I0403 15:37:53.177114 13834 net.cpp:156] Memory required for data: 854397984
I0403 15:37:53.177134 13834 layer_factory.hpp:77] Creating layer inception_4a/1x1
I0403 15:37:53.177160 13834 net.cpp:91] Creating Layer inception_4a/1x1
I0403 15:37:53.177180 13834 net.cpp:425] inception_4a/1x1 <- pool3/3x3_s2_pool3/3x3_s2_0_split_0
I0403 15:37:53.177204 13834 net.cpp:399] inception_4a/1x1 -> inception_4a/1x1
I0403 15:37:53.178900 13834 net.cpp:141] Setting up inception_4a/1x1
I0403 15:37:53.178930 13834 net.cpp:148] Top shape: 24 192 14 14 (903168)
I0403 15:37:53.178947 13834 net.cpp:156] Memory required for data: 858010656
I0403 15:37:53.178966 13834 layer_factory.hpp:77] Creating layer inception_4a/relu_1x1
I0403 15:37:53.178989 13834 net.cpp:91] Creating Layer inception_4a/relu_1x1
I0403 15:37:53.179008 13834 net.cpp:425] inception_4a/relu_1x1 <- inception_4a/1x1
I0403 15:37:53.179026 13834 net.cpp:386] inception_4a/relu_1x1 -> inception_4a/1x1 (in-place)
I0403 15:37:53.179219 13834 net.cpp:141] Setting up inception_4a/relu_1x1
I0403 15:37:53.179247 13834 net.cpp:148] Top shape: 24 192 14 14 (903168)
I0403 15:37:53.179263 13834 net.cpp:156] Memory required for data: 861623328
I0403 15:37:53.179278 13834 layer_factory.hpp:77] Creating layer inception_4a/3x3_reduce
I0403 15:37:53.179303 13834 net.cpp:91] Creating Layer inception_4a/3x3_reduce
I0403 15:37:53.179323 13834 net.cpp:425] inception_4a/3x3_reduce <- pool3/3x3_s2_pool3/3x3_s2_0_split_1
I0403 15:37:53.179347 13834 net.cpp:399] inception_4a/3x3_reduce -> inception_4a/3x3_reduce
I0403 15:37:53.180697 13834 net.cpp:141] Setting up inception_4a/3x3_reduce
I0403 15:37:53.180728 13834 net.cpp:148] Top shape: 24 96 14 14 (451584)
I0403 15:37:53.180748 13834 net.cpp:156] Memory required for data: 863429664
I0403 15:37:53.180773 13834 layer_factory.hpp:77] Creating layer inception_4a/relu_3x3_reduce
I0403 15:37:53.180796 13834 net.cpp:91] Creating Layer inception_4a/relu_3x3_reduce
I0403 15:37:53.180814 13834 net.cpp:425] inception_4a/relu_3x3_reduce <- inception_4a/3x3_reduce
I0403 15:37:53.180833 13834 net.cpp:386] inception_4a/relu_3x3_reduce -> inception_4a/3x3_reduce (in-place)
I0403 15:37:53.181022 13834 net.cpp:141] Setting up inception_4a/relu_3x3_reduce
I0403 15:37:53.181053 13834 net.cpp:148] Top shape: 24 96 14 14 (451584)
I0403 15:37:53.181071 13834 net.cpp:156] Memory required for data: 865236000
I0403 15:37:53.181087 13834 layer_factory.hpp:77] Creating layer inception_4a/3x3
I0403 15:37:53.181110 13834 net.cpp:91] Creating Layer inception_4a/3x3
I0403 15:37:53.181134 13834 net.cpp:425] inception_4a/3x3 <- inception_4a/3x3_reduce
I0403 15:37:53.181157 13834 net.cpp:399] inception_4a/3x3 -> inception_4a/3x3
I0403 15:37:53.183995 13834 net.cpp:141] Setting up inception_4a/3x3
I0403 15:37:53.184027 13834 net.cpp:148] Top shape: 24 208 14 14 (978432)
I0403 15:37:53.184046 13834 net.cpp:156] Memory required for data: 869149728
I0403 15:37:53.184065 13834 layer_factory.hpp:77] Creating layer inception_4a/relu_3x3
I0403 15:37:53.184085 13834 net.cpp:91] Creating Layer inception_4a/relu_3x3
I0403 15:37:53.184103 13834 net.cpp:425] inception_4a/relu_3x3 <- inception_4a/3x3
I0403 15:37:53.184128 13834 net.cpp:386] inception_4a/relu_3x3 -> inception_4a/3x3 (in-place)
I0403 15:37:53.184420 13834 net.cpp:141] Setting up inception_4a/relu_3x3
I0403 15:37:53.184451 13834 net.cpp:148] Top shape: 24 208 14 14 (978432)
I0403 15:37:53.184469 13834 net.cpp:156] Memory required for data: 873063456
I0403 15:37:53.184486 13834 layer_factory.hpp:77] Creating layer inception_4a/5x5_reduce
I0403 15:37:53.184511 13834 net.cpp:91] Creating Layer inception_4a/5x5_reduce
I0403 15:37:53.184531 13834 net.cpp:425] inception_4a/5x5_reduce <- pool3/3x3_s2_pool3/3x3_s2_0_split_2
I0403 15:37:53.184552 13834 net.cpp:399] inception_4a/5x5_reduce -> inception_4a/5x5_reduce
I0403 15:37:53.185642 13834 net.cpp:141] Setting up inception_4a/5x5_reduce
I0403 15:37:53.185672 13834 net.cpp:148] Top shape: 24 16 14 14 (75264)
I0403 15:37:53.185689 13834 net.cpp:156] Memory required for data: 873364512
I0403 15:37:53.185708 13834 layer_factory.hpp:77] Creating layer inception_4a/relu_5x5_reduce
I0403 15:37:53.185727 13834 net.cpp:91] Creating Layer inception_4a/relu_5x5_reduce
I0403 15:37:53.185745 13834 net.cpp:425] inception_4a/relu_5x5_reduce <- inception_4a/5x5_reduce
I0403 15:37:53.185766 13834 net.cpp:386] inception_4a/relu_5x5_reduce -> inception_4a/5x5_reduce (in-place)
I0403 15:37:53.185953 13834 net.cpp:141] Setting up inception_4a/relu_5x5_reduce
I0403 15:37:53.185981 13834 net.cpp:148] Top shape: 24 16 14 14 (75264)
I0403 15:37:53.185998 13834 net.cpp:156] Memory required for data: 873665568
I0403 15:37:53.186013 13834 layer_factory.hpp:77] Creating layer inception_4a/5x5
I0403 15:37:53.186038 13834 net.cpp:91] Creating Layer inception_4a/5x5
I0403 15:37:53.186058 13834 net.cpp:425] inception_4a/5x5 <- inception_4a/5x5_reduce
I0403 15:37:53.186079 13834 net.cpp:399] inception_4a/5x5 -> inception_4a/5x5
I0403 15:37:53.187247 13834 net.cpp:141] Setting up inception_4a/5x5
I0403 15:37:53.187275 13834 net.cpp:148] Top shape: 24 48 14 14 (225792)
I0403 15:37:53.187293 13834 net.cpp:156] Memory required for data: 874568736
I0403 15:37:53.187314 13834 layer_factory.hpp:77] Creating layer inception_4a/relu_5x5
I0403 15:37:53.187335 13834 net.cpp:91] Creating Layer inception_4a/relu_5x5
I0403 15:37:53.187355 13834 net.cpp:425] inception_4a/relu_5x5 <- inception_4a/5x5
I0403 15:37:53.187373 13834 net.cpp:386] inception_4a/relu_5x5 -> inception_4a/5x5 (in-place)
I0403 15:37:53.187563 13834 net.cpp:141] Setting up inception_4a/relu_5x5
I0403 15:37:53.187592 13834 net.cpp:148] Top shape: 24 48 14 14 (225792)
I0403 15:37:53.187610 13834 net.cpp:156] Memory required for data: 875471904
I0403 15:37:53.187628 13834 layer_factory.hpp:77] Creating layer inception_4a/pool
I0403 15:37:53.187646 13834 net.cpp:91] Creating Layer inception_4a/pool
I0403 15:37:53.187662 13834 net.cpp:425] inception_4a/pool <- pool3/3x3_s2_pool3/3x3_s2_0_split_3
I0403 15:37:53.187683 13834 net.cpp:399] inception_4a/pool -> inception_4a/pool
I0403 15:37:53.187747 13834 net.cpp:141] Setting up inception_4a/pool
I0403 15:37:53.187774 13834 net.cpp:148] Top shape: 24 480 14 14 (2257920)
I0403 15:37:53.187791 13834 net.cpp:156] Memory required for data: 884503584
I0403 15:37:53.187808 13834 layer_factory.hpp:77] Creating layer inception_4a/pool_proj
I0403 15:37:53.187830 13834 net.cpp:91] Creating Layer inception_4a/pool_proj
I0403 15:37:53.187849 13834 net.cpp:425] inception_4a/pool_proj <- inception_4a/pool
I0403 15:37:53.187873 13834 net.cpp:399] inception_4a/pool_proj -> inception_4a/pool_proj
I0403 15:37:53.189106 13834 net.cpp:141] Setting up inception_4a/pool_proj
I0403 15:37:53.189142 13834 net.cpp:148] Top shape: 24 64 14 14 (301056)
I0403 15:37:53.189179 13834 net.cpp:156] Memory required for data: 885707808
I0403 15:37:53.189203 13834 layer_factory.hpp:77] Creating layer inception_4a/relu_pool_proj
I0403 15:37:53.189221 13834 net.cpp:91] Creating Layer inception_4a/relu_pool_proj
I0403 15:37:53.189239 13834 net.cpp:425] inception_4a/relu_pool_proj <- inception_4a/pool_proj
I0403 15:37:53.189256 13834 net.cpp:386] inception_4a/relu_pool_proj -> inception_4a/pool_proj (in-place)
I0403 15:37:53.189553 13834 net.cpp:141] Setting up inception_4a/relu_pool_proj
I0403 15:37:53.189581 13834 net.cpp:148] Top shape: 24 64 14 14 (301056)
I0403 15:37:53.189602 13834 net.cpp:156] Memory required for data: 886912032
I0403 15:37:53.189620 13834 layer_factory.hpp:77] Creating layer inception_4a/output
I0403 15:37:53.189638 13834 net.cpp:91] Creating Layer inception_4a/output
I0403 15:37:53.189656 13834 net.cpp:425] inception_4a/output <- inception_4a/1x1
I0403 15:37:53.189673 13834 net.cpp:425] inception_4a/output <- inception_4a/3x3
I0403 15:37:53.189692 13834 net.cpp:425] inception_4a/output <- inception_4a/5x5
I0403 15:37:53.189708 13834 net.cpp:425] inception_4a/output <- inception_4a/pool_proj
I0403 15:37:53.189726 13834 net.cpp:399] inception_4a/output -> inception_4a/output
I0403 15:37:53.189775 13834 net.cpp:141] Setting up inception_4a/output
I0403 15:37:53.189800 13834 net.cpp:148] Top shape: 24 512 14 14 (2408448)
I0403 15:37:53.189816 13834 net.cpp:156] Memory required for data: 896545824
I0403 15:37:53.189832 13834 layer_factory.hpp:77] Creating layer inception_4a/output_inception_4a/output_0_split
I0403 15:37:53.189852 13834 net.cpp:91] Creating Layer inception_4a/output_inception_4a/output_0_split
I0403 15:37:53.189873 13834 net.cpp:425] inception_4a/output_inception_4a/output_0_split <- inception_4a/output
I0403 15:37:53.189893 13834 net.cpp:399] inception_4a/output_inception_4a/output_0_split -> inception_4a/output_inception_4a/output_0_split_0
I0403 15:37:53.189914 13834 net.cpp:399] inception_4a/output_inception_4a/output_0_split -> inception_4a/output_inception_4a/output_0_split_1
I0403 15:37:53.189936 13834 net.cpp:399] inception_4a/output_inception_4a/output_0_split -> inception_4a/output_inception_4a/output_0_split_2
I0403 15:37:53.189960 13834 net.cpp:399] inception_4a/output_inception_4a/output_0_split -> inception_4a/output_inception_4a/output_0_split_3
I0403 15:37:53.189981 13834 net.cpp:399] inception_4a/output_inception_4a/output_0_split -> inception_4a/output_inception_4a/output_0_split_4
I0403 15:37:53.190083 13834 net.cpp:141] Setting up inception_4a/output_inception_4a/output_0_split
I0403 15:37:53.190109 13834 net.cpp:148] Top shape: 24 512 14 14 (2408448)
I0403 15:37:53.190130 13834 net.cpp:148] Top shape: 24 512 14 14 (2408448)
I0403 15:37:53.190150 13834 net.cpp:148] Top shape: 24 512 14 14 (2408448)
I0403 15:37:53.190168 13834 net.cpp:148] Top shape: 24 512 14 14 (2408448)
I0403 15:37:53.190186 13834 net.cpp:148] Top shape: 24 512 14 14 (2408448)
I0403 15:37:53.190202 13834 net.cpp:156] Memory required for data: 944714784
I0403 15:37:53.190219 13834 layer_factory.hpp:77] Creating layer loss1/ave_pool
I0403 15:37:53.190238 13834 net.cpp:91] Creating Layer loss1/ave_pool
I0403 15:37:53.190256 13834 net.cpp:425] loss1/ave_pool <- inception_4a/output_inception_4a/output_0_split_0
I0403 15:37:53.190279 13834 net.cpp:399] loss1/ave_pool -> loss1/ave_pool
I0403 15:37:53.190511 13834 net.cpp:141] Setting up loss1/ave_pool
I0403 15:37:53.190543 13834 net.cpp:148] Top shape: 24 512 4 4 (196608)
I0403 15:37:53.190562 13834 net.cpp:156] Memory required for data: 945501216
I0403 15:37:53.190577 13834 layer_factory.hpp:77] Creating layer loss1/conv
I0403 15:37:53.190599 13834 net.cpp:91] Creating Layer loss1/conv
I0403 15:37:53.190618 13834 net.cpp:425] loss1/conv <- loss1/ave_pool
I0403 15:37:53.190641 13834 net.cpp:399] loss1/conv -> loss1/conv
I0403 15:37:53.192140 13834 net.cpp:141] Setting up loss1/conv
I0403 15:37:53.192173 13834 net.cpp:148] Top shape: 24 128 4 4 (49152)
I0403 15:37:53.192195 13834 net.cpp:156] Memory required for data: 945697824
I0403 15:37:53.192231 13834 layer_factory.hpp:77] Creating layer loss1/relu_conv
I0403 15:37:53.192251 13834 net.cpp:91] Creating Layer loss1/relu_conv
I0403 15:37:53.192270 13834 net.cpp:425] loss1/relu_conv <- loss1/conv
I0403 15:37:53.192291 13834 net.cpp:386] loss1/relu_conv -> loss1/conv (in-place)
I0403 15:37:53.192590 13834 net.cpp:141] Setting up loss1/relu_conv
I0403 15:37:53.192622 13834 net.cpp:148] Top shape: 24 128 4 4 (49152)
I0403 15:37:53.192641 13834 net.cpp:156] Memory required for data: 945894432
I0403 15:37:53.192656 13834 layer_factory.hpp:77] Creating layer loss1/fc
I0403 15:37:53.192695 13834 net.cpp:91] Creating Layer loss1/fc
I0403 15:37:53.192718 13834 net.cpp:425] loss1/fc <- loss1/conv
I0403 15:37:53.192740 13834 net.cpp:399] loss1/fc -> loss1/fc
I0403 15:37:53.211515 13834 net.cpp:141] Setting up loss1/fc
I0403 15:37:53.211550 13834 net.cpp:148] Top shape: 24 1024 (24576)
I0403 15:37:53.211567 13834 net.cpp:156] Memory required for data: 945992736
I0403 15:37:53.211587 13834 layer_factory.hpp:77] Creating layer loss1/relu_fc
I0403 15:37:53.211609 13834 net.cpp:91] Creating Layer loss1/relu_fc
I0403 15:37:53.211627 13834 net.cpp:425] loss1/relu_fc <- loss1/fc
I0403 15:37:53.211647 13834 net.cpp:386] loss1/relu_fc -> loss1/fc (in-place)
I0403 15:37:53.211859 13834 net.cpp:141] Setting up loss1/relu_fc
I0403 15:37:53.211886 13834 net.cpp:148] Top shape: 24 1024 (24576)
I0403 15:37:53.211904 13834 net.cpp:156] Memory required for data: 946091040
I0403 15:37:53.211920 13834 layer_factory.hpp:77] Creating layer loss1/drop_fc
I0403 15:37:53.211948 13834 net.cpp:91] Creating Layer loss1/drop_fc
I0403 15:37:53.211967 13834 net.cpp:425] loss1/drop_fc <- loss1/fc
I0403 15:37:53.211989 13834 net.cpp:386] loss1/drop_fc -> loss1/fc (in-place)
I0403 15:37:53.212069 13834 net.cpp:141] Setting up loss1/drop_fc
I0403 15:37:53.212095 13834 net.cpp:148] Top shape: 24 1024 (24576)
I0403 15:37:53.212110 13834 net.cpp:156] Memory required for data: 946189344
I0403 15:37:53.212131 13834 layer_factory.hpp:77] Creating layer loss1/classifier_plantvillage
I0403 15:37:53.212158 13834 net.cpp:91] Creating Layer loss1/classifier_plantvillage
I0403 15:37:53.212178 13834 net.cpp:425] loss1/classifier_plantvillage <- loss1/fc
I0403 15:37:53.212199 13834 net.cpp:399] loss1/classifier_plantvillage -> loss1/classifier_plantvillage
I0403 15:37:53.213171 13834 net.cpp:141] Setting up loss1/classifier_plantvillage
I0403 15:37:53.213204 13834 net.cpp:148] Top shape: 24 38 (912)
I0403 15:37:53.213223 13834 net.cpp:156] Memory required for data: 946192992
I0403 15:37:53.213243 13834 layer_factory.hpp:77] Creating layer loss1/classifier_plantvillage_loss1/classifier_plantvillage_0_split
I0403 15:37:53.213260 13834 net.cpp:91] Creating Layer loss1/classifier_plantvillage_loss1/classifier_plantvillage_0_split
I0403 15:37:53.213279 13834 net.cpp:425] loss1/classifier_plantvillage_loss1/classifier_plantvillage_0_split <- loss1/classifier_plantvillage
I0403 15:37:53.213297 13834 net.cpp:399] loss1/classifier_plantvillage_loss1/classifier_plantvillage_0_split -> loss1/classifier_plantvillage_loss1/classifier_plantvillage_0_split_0
I0403 15:37:53.213321 13834 net.cpp:399] loss1/classifier_plantvillage_loss1/classifier_plantvillage_0_split -> loss1/classifier_plantvillage_loss1/classifier_plantvillage_0_split_1
I0403 15:37:53.213342 13834 net.cpp:399] loss1/classifier_plantvillage_loss1/classifier_plantvillage_0_split -> loss1/classifier_plantvillage_loss1/classifier_plantvillage_0_split_2
I0403 15:37:53.213410 13834 net.cpp:141] Setting up loss1/classifier_plantvillage_loss1/classifier_plantvillage_0_split
I0403 15:37:53.213436 13834 net.cpp:148] Top shape: 24 38 (912)
I0403 15:37:53.213454 13834 net.cpp:148] Top shape: 24 38 (912)
I0403 15:37:53.213470 13834 net.cpp:148] Top shape: 24 38 (912)
I0403 15:37:53.213485 13834 net.cpp:156] Memory required for data: 946203936
I0403 15:37:53.213501 13834 layer_factory.hpp:77] Creating layer inception_4b/1x1
I0403 15:37:53.213526 13834 net.cpp:91] Creating Layer inception_4b/1x1
I0403 15:37:53.213560 13834 net.cpp:425] inception_4b/1x1 <- inception_4a/output_inception_4a/output_0_split_1
I0403 15:37:53.213582 13834 net.cpp:399] inception_4b/1x1 -> inception_4b/1x1
I0403 15:37:53.215389 13834 net.cpp:141] Setting up inception_4b/1x1
I0403 15:37:53.215418 13834 net.cpp:148] Top shape: 24 160 14 14 (752640)
I0403 15:37:53.215436 13834 net.cpp:156] Memory required for data: 949214496
I0403 15:37:53.215456 13834 layer_factory.hpp:77] Creating layer inception_4b/relu_1x1
I0403 15:37:53.215476 13834 net.cpp:91] Creating Layer inception_4b/relu_1x1
I0403 15:37:53.215492 13834 net.cpp:425] inception_4b/relu_1x1 <- inception_4b/1x1
I0403 15:37:53.215512 13834 net.cpp:386] inception_4b/relu_1x1 -> inception_4b/1x1 (in-place)
I0403 15:37:53.215698 13834 net.cpp:141] Setting up inception_4b/relu_1x1
I0403 15:37:53.215724 13834 net.cpp:148] Top shape: 24 160 14 14 (752640)
I0403 15:37:53.215740 13834 net.cpp:156] Memory required for data: 952225056
I0403 15:37:53.215756 13834 layer_factory.hpp:77] Creating layer inception_4b/3x3_reduce
I0403 15:37:53.215780 13834 net.cpp:91] Creating Layer inception_4b/3x3_reduce
I0403 15:37:53.215797 13834 net.cpp:425] inception_4b/3x3_reduce <- inception_4a/output_inception_4a/output_0_split_2
I0403 15:37:53.215821 13834 net.cpp:399] inception_4b/3x3_reduce -> inception_4b/3x3_reduce
I0403 15:37:53.217257 13834 net.cpp:141] Setting up inception_4b/3x3_reduce
I0403 15:37:53.217286 13834 net.cpp:148] Top shape: 24 112 14 14 (526848)
I0403 15:37:53.217308 13834 net.cpp:156] Memory required for data: 954332448
I0403 15:37:53.217334 13834 layer_factory.hpp:77] Creating layer inception_4b/relu_3x3_reduce
I0403 15:37:53.217362 13834 net.cpp:91] Creating Layer inception_4b/relu_3x3_reduce
I0403 15:37:53.217381 13834 net.cpp:425] inception_4b/relu_3x3_reduce <- inception_4b/3x3_reduce
I0403 15:37:53.217399 13834 net.cpp:386] inception_4b/relu_3x3_reduce -> inception_4b/3x3_reduce (in-place)
I0403 15:37:53.217706 13834 net.cpp:141] Setting up inception_4b/relu_3x3_reduce
I0403 15:37:53.217735 13834 net.cpp:148] Top shape: 24 112 14 14 (526848)
I0403 15:37:53.217751 13834 net.cpp:156] Memory required for data: 956439840
I0403 15:37:53.217767 13834 layer_factory.hpp:77] Creating layer inception_4b/3x3
I0403 15:37:53.217789 13834 net.cpp:91] Creating Layer inception_4b/3x3
I0403 15:37:53.217809 13834 net.cpp:425] inception_4b/3x3 <- inception_4b/3x3_reduce
I0403 15:37:53.217831 13834 net.cpp:399] inception_4b/3x3 -> inception_4b/3x3
I0403 15:37:53.220903 13834 net.cpp:141] Setting up inception_4b/3x3
I0403 15:37:53.220934 13834 net.cpp:148] Top shape: 24 224 14 14 (1053696)
I0403 15:37:53.220952 13834 net.cpp:156] Memory required for data: 960654624
I0403 15:37:53.220973 13834 layer_factory.hpp:77] Creating layer inception_4b/relu_3x3
I0403 15:37:53.220993 13834 net.cpp:91] Creating Layer inception_4b/relu_3x3
I0403 15:37:53.221011 13834 net.cpp:425] inception_4b/relu_3x3 <- inception_4b/3x3
I0403 15:37:53.221029 13834 net.cpp:386] inception_4b/relu_3x3 -> inception_4b/3x3 (in-place)
I0403 15:37:53.221225 13834 net.cpp:141] Setting up inception_4b/relu_3x3
I0403 15:37:53.221253 13834 net.cpp:148] Top shape: 24 224 14 14 (1053696)
I0403 15:37:53.221269 13834 net.cpp:156] Memory required for data: 964869408
I0403 15:37:53.221284 13834 layer_factory.hpp:77] Creating layer inception_4b/5x5_reduce
I0403 15:37:53.221308 13834 net.cpp:91] Creating Layer inception_4b/5x5_reduce
I0403 15:37:53.221328 13834 net.cpp:425] inception_4b/5x5_reduce <- inception_4a/output_inception_4a/output_0_split_3
I0403 15:37:53.221352 13834 net.cpp:399] inception_4b/5x5_reduce -> inception_4b/5x5_reduce
I0403 15:37:53.222542 13834 net.cpp:141] Setting up inception_4b/5x5_reduce
I0403 15:37:53.222569 13834 net.cpp:148] Top shape: 24 24 14 14 (112896)
I0403 15:37:53.222586 13834 net.cpp:156] Memory required for data: 965320992
I0403 15:37:53.222605 13834 layer_factory.hpp:77] Creating layer inception_4b/relu_5x5_reduce
I0403 15:37:53.222625 13834 net.cpp:91] Creating Layer inception_4b/relu_5x5_reduce
I0403 15:37:53.222666 13834 net.cpp:425] inception_4b/relu_5x5_reduce <- inception_4b/5x5_reduce
I0403 15:37:53.222687 13834 net.cpp:386] inception_4b/relu_5x5_reduce -> inception_4b/5x5_reduce (in-place)
I0403 15:37:53.222877 13834 net.cpp:141] Setting up inception_4b/relu_5x5_reduce
I0403 15:37:53.222904 13834 net.cpp:148] Top shape: 24 24 14 14 (112896)
I0403 15:37:53.222920 13834 net.cpp:156] Memory required for data: 965772576
I0403 15:37:53.222936 13834 layer_factory.hpp:77] Creating layer inception_4b/5x5
I0403 15:37:53.222959 13834 net.cpp:91] Creating Layer inception_4b/5x5
I0403 15:37:53.222980 13834 net.cpp:425] inception_4b/5x5 <- inception_4b/5x5_reduce
I0403 15:37:53.223001 13834 net.cpp:399] inception_4b/5x5 -> inception_4b/5x5
I0403 15:37:53.224278 13834 net.cpp:141] Setting up inception_4b/5x5
I0403 15:37:53.224308 13834 net.cpp:148] Top shape: 24 64 14 14 (301056)
I0403 15:37:53.224325 13834 net.cpp:156] Memory required for data: 966976800
I0403 15:37:53.224345 13834 layer_factory.hpp:77] Creating layer inception_4b/relu_5x5
I0403 15:37:53.224364 13834 net.cpp:91] Creating Layer inception_4b/relu_5x5
I0403 15:37:53.224380 13834 net.cpp:425] inception_4b/relu_5x5 <- inception_4b/5x5
I0403 15:37:53.224401 13834 net.cpp:386] inception_4b/relu_5x5 -> inception_4b/5x5 (in-place)
I0403 15:37:53.224699 13834 net.cpp:141] Setting up inception_4b/relu_5x5
I0403 15:37:53.224727 13834 net.cpp:148] Top shape: 24 64 14 14 (301056)
I0403 15:37:53.224743 13834 net.cpp:156] Memory required for data: 968181024
I0403 15:37:53.224758 13834 layer_factory.hpp:77] Creating layer inception_4b/pool
I0403 15:37:53.224777 13834 net.cpp:91] Creating Layer inception_4b/pool
I0403 15:37:53.224795 13834 net.cpp:425] inception_4b/pool <- inception_4a/output_inception_4a/output_0_split_4
I0403 15:37:53.224817 13834 net.cpp:399] inception_4b/pool -> inception_4b/pool
I0403 15:37:53.224884 13834 net.cpp:141] Setting up inception_4b/pool
I0403 15:37:53.224911 13834 net.cpp:148] Top shape: 24 512 14 14 (2408448)
I0403 15:37:53.224930 13834 net.cpp:156] Memory required for data: 977814816
I0403 15:37:53.224944 13834 layer_factory.hpp:77] Creating layer inception_4b/pool_proj
I0403 15:37:53.224967 13834 net.cpp:91] Creating Layer inception_4b/pool_proj
I0403 15:37:53.224987 13834 net.cpp:425] inception_4b/pool_proj <- inception_4b/pool
I0403 15:37:53.225008 13834 net.cpp:399] inception_4b/pool_proj -> inception_4b/pool_proj
I0403 15:37:53.226250 13834 net.cpp:141] Setting up inception_4b/pool_proj
I0403 15:37:53.226279 13834 net.cpp:148] Top shape: 24 64 14 14 (301056)
I0403 15:37:53.226296 13834 net.cpp:156] Memory required for data: 979019040
I0403 15:37:53.226316 13834 layer_factory.hpp:77] Creating layer inception_4b/relu_pool_proj
I0403 15:37:53.226337 13834 net.cpp:91] Creating Layer inception_4b/relu_pool_proj
I0403 15:37:53.226366 13834 net.cpp:425] inception_4b/relu_pool_proj <- inception_4b/pool_proj
I0403 15:37:53.226385 13834 net.cpp:386] inception_4b/relu_pool_proj -> inception_4b/pool_proj (in-place)
I0403 15:37:53.226570 13834 net.cpp:141] Setting up inception_4b/relu_pool_proj
I0403 15:37:53.226598 13834 net.cpp:148] Top shape: 24 64 14 14 (301056)
I0403 15:37:53.226613 13834 net.cpp:156] Memory required for data: 980223264
I0403 15:37:53.226629 13834 layer_factory.hpp:77] Creating layer inception_4b/output
I0403 15:37:53.226652 13834 net.cpp:91] Creating Layer inception_4b/output
I0403 15:37:53.226670 13834 net.cpp:425] inception_4b/output <- inception_4b/1x1
I0403 15:37:53.226686 13834 net.cpp:425] inception_4b/output <- inception_4b/3x3
I0403 15:37:53.226702 13834 net.cpp:425] inception_4b/output <- inception_4b/5x5
I0403 15:37:53.226719 13834 net.cpp:425] inception_4b/output <- inception_4b/pool_proj
I0403 15:37:53.226737 13834 net.cpp:399] inception_4b/output -> inception_4b/output
I0403 15:37:53.226786 13834 net.cpp:141] Setting up inception_4b/output
I0403 15:37:53.226811 13834 net.cpp:148] Top shape: 24 512 14 14 (2408448)
I0403 15:37:53.226827 13834 net.cpp:156] Memory required for data: 989857056
I0403 15:37:53.226858 13834 layer_factory.hpp:77] Creating layer inception_4b/output_inception_4b/output_0_split
I0403 15:37:53.226878 13834 net.cpp:91] Creating Layer inception_4b/output_inception_4b/output_0_split
I0403 15:37:53.226896 13834 net.cpp:425] inception_4b/output_inception_4b/output_0_split <- inception_4b/output
I0403 15:37:53.226917 13834 net.cpp:399] inception_4b/output_inception_4b/output_0_split -> inception_4b/output_inception_4b/output_0_split_0
I0403 15:37:53.226938 13834 net.cpp:399] inception_4b/output_inception_4b/output_0_split -> inception_4b/output_inception_4b/output_0_split_1
I0403 15:37:53.226960 13834 net.cpp:399] inception_4b/output_inception_4b/output_0_split -> inception_4b/output_inception_4b/output_0_split_2
I0403 15:37:53.226981 13834 net.cpp:399] inception_4b/output_inception_4b/output_0_split -> inception_4b/output_inception_4b/output_0_split_3
I0403 15:37:53.227069 13834 net.cpp:141] Setting up inception_4b/output_inception_4b/output_0_split
I0403 15:37:53.227097 13834 net.cpp:148] Top shape: 24 512 14 14 (2408448)
I0403 15:37:53.227115 13834 net.cpp:148] Top shape: 24 512 14 14 (2408448)
I0403 15:37:53.227140 13834 net.cpp:148] Top shape: 24 512 14 14 (2408448)
I0403 15:37:53.227159 13834 net.cpp:148] Top shape: 24 512 14 14 (2408448)
I0403 15:37:53.227174 13834 net.cpp:156] Memory required for data: 1028392224
I0403 15:37:53.227188 13834 layer_factory.hpp:77] Creating layer inception_4c/1x1
I0403 15:37:53.227211 13834 net.cpp:91] Creating Layer inception_4c/1x1
I0403 15:37:53.227231 13834 net.cpp:425] inception_4c/1x1 <- inception_4b/output_inception_4b/output_0_split_0
I0403 15:37:53.227251 13834 net.cpp:399] inception_4c/1x1 -> inception_4c/1x1
I0403 15:37:53.228724 13834 net.cpp:141] Setting up inception_4c/1x1
I0403 15:37:53.228754 13834 net.cpp:148] Top shape: 24 128 14 14 (602112)
I0403 15:37:53.228770 13834 net.cpp:156] Memory required for data: 1030800672
I0403 15:37:53.228790 13834 layer_factory.hpp:77] Creating layer inception_4c/relu_1x1
I0403 15:37:53.228812 13834 net.cpp:91] Creating Layer inception_4c/relu_1x1
I0403 15:37:53.228832 13834 net.cpp:425] inception_4c/relu_1x1 <- inception_4c/1x1
I0403 15:37:53.228850 13834 net.cpp:386] inception_4c/relu_1x1 -> inception_4c/1x1 (in-place)
I0403 15:37:53.229035 13834 net.cpp:141] Setting up inception_4c/relu_1x1
I0403 15:37:53.229063 13834 net.cpp:148] Top shape: 24 128 14 14 (602112)
I0403 15:37:53.229079 13834 net.cpp:156] Memory required for data: 1033209120
I0403 15:37:53.229095 13834 layer_factory.hpp:77] Creating layer inception_4c/3x3_reduce
I0403 15:37:53.229118 13834 net.cpp:91] Creating Layer inception_4c/3x3_reduce
I0403 15:37:53.229142 13834 net.cpp:425] inception_4c/3x3_reduce <- inception_4b/output_inception_4b/output_0_split_1
I0403 15:37:53.229166 13834 net.cpp:399] inception_4c/3x3_reduce -> inception_4c/3x3_reduce
I0403 15:37:53.231199 13834 net.cpp:141] Setting up inception_4c/3x3_reduce
I0403 15:37:53.231231 13834 net.cpp:148] Top shape: 24 128 14 14 (602112)
I0403 15:37:53.231248 13834 net.cpp:156] Memory required for data: 1035617568
I0403 15:37:53.231269 13834 layer_factory.hpp:77] Creating layer inception_4c/relu_3x3_reduce
I0403 15:37:53.231288 13834 net.cpp:91] Creating Layer inception_4c/relu_3x3_reduce
I0403 15:37:53.231307 13834 net.cpp:425] inception_4c/relu_3x3_reduce <- inception_4c/3x3_reduce
I0403 15:37:53.231328 13834 net.cpp:386] inception_4c/relu_3x3_reduce -> inception_4c/3x3_reduce (in-place)
I0403 15:37:53.231633 13834 net.cpp:141] Setting up inception_4c/relu_3x3_reduce
I0403 15:37:53.231662 13834 net.cpp:148] Top shape: 24 128 14 14 (602112)
I0403 15:37:53.231679 13834 net.cpp:156] Memory required for data: 1038026016
I0403 15:37:53.231696 13834 layer_factory.hpp:77] Creating layer inception_4c/3x3
I0403 15:37:53.231721 13834 net.cpp:91] Creating Layer inception_4c/3x3
I0403 15:37:53.231741 13834 net.cpp:425] inception_4c/3x3 <- inception_4c/3x3_reduce
I0403 15:37:53.231765 13834 net.cpp:399] inception_4c/3x3 -> inception_4c/3x3
I0403 15:37:53.235575 13834 net.cpp:141] Setting up inception_4c/3x3
I0403 15:37:53.235621 13834 net.cpp:148] Top shape: 24 256 14 14 (1204224)
I0403 15:37:53.235640 13834 net.cpp:156] Memory required for data: 1042842912
I0403 15:37:53.235673 13834 layer_factory.hpp:77] Creating layer inception_4c/relu_3x3
I0403 15:37:53.235698 13834 net.cpp:91] Creating Layer inception_4c/relu_3x3
I0403 15:37:53.235718 13834 net.cpp:425] inception_4c/relu_3x3 <- inception_4c/3x3
I0403 15:37:53.235738 13834 net.cpp:386] inception_4c/relu_3x3 -> inception_4c/3x3 (in-place)
I0403 15:37:53.235930 13834 net.cpp:141] Setting up inception_4c/relu_3x3
I0403 15:37:53.235957 13834 net.cpp:148] Top shape: 24 256 14 14 (1204224)
I0403 15:37:53.235975 13834 net.cpp:156] Memory required for data: 1047659808
I0403 15:37:53.235991 13834 layer_factory.hpp:77] Creating layer inception_4c/5x5_reduce
I0403 15:37:53.236018 13834 net.cpp:91] Creating Layer inception_4c/5x5_reduce
I0403 15:37:53.236038 13834 net.cpp:425] inception_4c/5x5_reduce <- inception_4b/output_inception_4b/output_0_split_2
I0403 15:37:53.236063 13834 net.cpp:399] inception_4c/5x5_reduce -> inception_4c/5x5_reduce
I0403 15:37:53.237229 13834 net.cpp:141] Setting up inception_4c/5x5_reduce
I0403 15:37:53.237259 13834 net.cpp:148] Top shape: 24 24 14 14 (112896)
I0403 15:37:53.237277 13834 net.cpp:156] Memory required for data: 1048111392
I0403 15:37:53.237296 13834 layer_factory.hpp:77] Creating layer inception_4c/relu_5x5_reduce
I0403 15:37:53.237316 13834 net.cpp:91] Creating Layer inception_4c/relu_5x5_reduce
I0403 15:37:53.237334 13834 net.cpp:425] inception_4c/relu_5x5_reduce <- inception_4c/5x5_reduce
I0403 15:37:53.237355 13834 net.cpp:386] inception_4c/relu_5x5_reduce -> inception_4c/5x5_reduce (in-place)
I0403 15:37:53.237551 13834 net.cpp:141] Setting up inception_4c/relu_5x5_reduce
I0403 15:37:53.237579 13834 net.cpp:148] Top shape: 24 24 14 14 (112896)
I0403 15:37:53.237596 13834 net.cpp:156] Memory required for data: 1048562976
I0403 15:37:53.237612 13834 layer_factory.hpp:77] Creating layer inception_4c/5x5
I0403 15:37:53.237635 13834 net.cpp:91] Creating Layer inception_4c/5x5
I0403 15:37:53.237655 13834 net.cpp:425] inception_4c/5x5 <- inception_4c/5x5_reduce
I0403 15:37:53.237679 13834 net.cpp:399] inception_4c/5x5 -> inception_4c/5x5
I0403 15:37:53.239012 13834 net.cpp:141] Setting up inception_4c/5x5
I0403 15:37:53.239042 13834 net.cpp:148] Top shape: 24 64 14 14 (301056)
I0403 15:37:53.239059 13834 net.cpp:156] Memory required for data: 1049767200
I0403 15:37:53.239079 13834 layer_factory.hpp:77] Creating layer inception_4c/relu_5x5
I0403 15:37:53.239101 13834 net.cpp:91] Creating Layer inception_4c/relu_5x5
I0403 15:37:53.239119 13834 net.cpp:425] inception_4c/relu_5x5 <- inception_4c/5x5
I0403 15:37:53.239142 13834 net.cpp:386] inception_4c/relu_5x5 -> inception_4c/5x5 (in-place)
I0403 15:37:53.239449 13834 net.cpp:141] Setting up inception_4c/relu_5x5
I0403 15:37:53.239480 13834 net.cpp:148] Top shape: 24 64 14 14 (301056)
I0403 15:37:53.239496 13834 net.cpp:156] Memory required for data: 1050971424
I0403 15:37:53.239513 13834 layer_factory.hpp:77] Creating layer inception_4c/pool
I0403 15:37:53.239536 13834 net.cpp:91] Creating Layer inception_4c/pool
I0403 15:37:53.239552 13834 net.cpp:425] inception_4c/pool <- inception_4b/output_inception_4b/output_0_split_3
I0403 15:37:53.239573 13834 net.cpp:399] inception_4c/pool -> inception_4c/pool
I0403 15:37:53.239645 13834 net.cpp:141] Setting up inception_4c/pool
I0403 15:37:53.239671 13834 net.cpp:148] Top shape: 24 512 14 14 (2408448)
I0403 15:37:53.239687 13834 net.cpp:156] Memory required for data: 1060605216
I0403 15:37:53.239703 13834 layer_factory.hpp:77] Creating layer inception_4c/pool_proj
I0403 15:37:53.239729 13834 net.cpp:91] Creating Layer inception_4c/pool_proj
I0403 15:37:53.239750 13834 net.cpp:425] inception_4c/pool_proj <- inception_4c/pool
I0403 15:37:53.239773 13834 net.cpp:399] inception_4c/pool_proj -> inception_4c/pool_proj
I0403 15:37:53.241075 13834 net.cpp:141] Setting up inception_4c/pool_proj
I0403 15:37:53.241106 13834 net.cpp:148] Top shape: 24 64 14 14 (301056)
I0403 15:37:53.241142 13834 net.cpp:156] Memory required for data: 1061809440
I0403 15:37:53.241164 13834 layer_factory.hpp:77] Creating layer inception_4c/relu_pool_proj
I0403 15:37:53.241188 13834 net.cpp:91] Creating Layer inception_4c/relu_pool_proj
I0403 15:37:53.241207 13834 net.cpp:425] inception_4c/relu_pool_proj <- inception_4c/pool_proj
I0403 15:37:53.241226 13834 net.cpp:386] inception_4c/relu_pool_proj -> inception_4c/pool_proj (in-place)
I0403 15:37:53.241421 13834 net.cpp:141] Setting up inception_4c/relu_pool_proj
I0403 15:37:53.241449 13834 net.cpp:148] Top shape: 24 64 14 14 (301056)
I0403 15:37:53.241466 13834 net.cpp:156] Memory required for data: 1063013664
I0403 15:37:53.241482 13834 layer_factory.hpp:77] Creating layer inception_4c/output
I0403 15:37:53.241502 13834 net.cpp:91] Creating Layer inception_4c/output
I0403 15:37:53.241520 13834 net.cpp:425] inception_4c/output <- inception_4c/1x1
I0403 15:37:53.241539 13834 net.cpp:425] inception_4c/output <- inception_4c/3x3
I0403 15:37:53.241556 13834 net.cpp:425] inception_4c/output <- inception_4c/5x5
I0403 15:37:53.241572 13834 net.cpp:425] inception_4c/output <- inception_4c/pool_proj
I0403 15:37:53.241590 13834 net.cpp:399] inception_4c/output -> inception_4c/output
I0403 15:37:53.241641 13834 net.cpp:141] Setting up inception_4c/output
I0403 15:37:53.241667 13834 net.cpp:148] Top shape: 24 512 14 14 (2408448)
I0403 15:37:53.241683 13834 net.cpp:156] Memory required for data: 1072647456
I0403 15:37:53.241699 13834 layer_factory.hpp:77] Creating layer inception_4c/output_inception_4c/output_0_split
I0403 15:37:53.241719 13834 net.cpp:91] Creating Layer inception_4c/output_inception_4c/output_0_split
I0403 15:37:53.241735 13834 net.cpp:425] inception_4c/output_inception_4c/output_0_split <- inception_4c/output
I0403 15:37:53.241757 13834 net.cpp:399] inception_4c/output_inception_4c/output_0_split -> inception_4c/output_inception_4c/output_0_split_0
I0403 15:37:53.241780 13834 net.cpp:399] inception_4c/output_inception_4c/output_0_split -> inception_4c/output_inception_4c/output_0_split_1
I0403 15:37:53.241801 13834 net.cpp:399] inception_4c/output_inception_4c/output_0_split -> inception_4c/output_inception_4c/output_0_split_2
I0403 15:37:53.241823 13834 net.cpp:399] inception_4c/output_inception_4c/output_0_split -> inception_4c/output_inception_4c/output_0_split_3
I0403 15:37:53.241919 13834 net.cpp:141] Setting up inception_4c/output_inception_4c/output_0_split
I0403 15:37:53.241945 13834 net.cpp:148] Top shape: 24 512 14 14 (2408448)
I0403 15:37:53.241966 13834 net.cpp:148] Top shape: 24 512 14 14 (2408448)
I0403 15:37:53.241983 13834 net.cpp:148] Top shape: 24 512 14 14 (2408448)
I0403 15:37:53.242002 13834 net.cpp:148] Top shape: 24 512 14 14 (2408448)
I0403 15:37:53.242017 13834 net.cpp:156] Memory required for data: 1111182624
I0403 15:37:53.242033 13834 layer_factory.hpp:77] Creating layer inception_4d/1x1
I0403 15:37:53.242056 13834 net.cpp:91] Creating Layer inception_4d/1x1
I0403 15:37:53.242076 13834 net.cpp:425] inception_4d/1x1 <- inception_4c/output_inception_4c/output_0_split_0
I0403 15:37:53.242096 13834 net.cpp:399] inception_4d/1x1 -> inception_4d/1x1
I0403 15:37:53.243578 13834 net.cpp:141] Setting up inception_4d/1x1
I0403 15:37:53.243612 13834 net.cpp:148] Top shape: 24 112 14 14 (526848)
I0403 15:37:53.243630 13834 net.cpp:156] Memory required for data: 1113290016
I0403 15:37:53.243650 13834 layer_factory.hpp:77] Creating layer inception_4d/relu_1x1
I0403 15:37:53.243670 13834 net.cpp:91] Creating Layer inception_4d/relu_1x1
I0403 15:37:53.243688 13834 net.cpp:425] inception_4d/relu_1x1 <- inception_4d/1x1
I0403 15:37:53.243710 13834 net.cpp:386] inception_4d/relu_1x1 -> inception_4d/1x1 (in-place)
I0403 15:37:53.243907 13834 net.cpp:141] Setting up inception_4d/relu_1x1
I0403 15:37:53.243934 13834 net.cpp:148] Top shape: 24 112 14 14 (526848)
I0403 15:37:53.243952 13834 net.cpp:156] Memory required for data: 1115397408
I0403 15:37:53.243968 13834 layer_factory.hpp:77] Creating layer inception_4d/3x3_reduce
I0403 15:37:53.244010 13834 net.cpp:91] Creating Layer inception_4d/3x3_reduce
I0403 15:37:53.244031 13834 net.cpp:425] inception_4d/3x3_reduce <- inception_4c/output_inception_4c/output_0_split_1
I0403 15:37:53.244055 13834 net.cpp:399] inception_4d/3x3_reduce -> inception_4d/3x3_reduce
I0403 15:37:53.245673 13834 net.cpp:141] Setting up inception_4d/3x3_reduce
I0403 15:37:53.245704 13834 net.cpp:148] Top shape: 24 144 14 14 (677376)
I0403 15:37:53.245721 13834 net.cpp:156] Memory required for data: 1118106912
I0403 15:37:53.245740 13834 layer_factory.hpp:77] Creating layer inception_4d/relu_3x3_reduce
I0403 15:37:53.245764 13834 net.cpp:91] Creating Layer inception_4d/relu_3x3_reduce
I0403 15:37:53.245782 13834 net.cpp:425] inception_4d/relu_3x3_reduce <- inception_4d/3x3_reduce
I0403 15:37:53.245801 13834 net.cpp:386] inception_4d/relu_3x3_reduce -> inception_4d/3x3_reduce (in-place)
I0403 15:37:53.246104 13834 net.cpp:141] Setting up inception_4d/relu_3x3_reduce
I0403 15:37:53.246136 13834 net.cpp:148] Top shape: 24 144 14 14 (677376)
I0403 15:37:53.246158 13834 net.cpp:156] Memory required for data: 1120816416
I0403 15:37:53.246176 13834 layer_factory.hpp:77] Creating layer inception_4d/3x3
I0403 15:37:53.246199 13834 net.cpp:91] Creating Layer inception_4d/3x3
I0403 15:37:53.246219 13834 net.cpp:425] inception_4d/3x3 <- inception_4d/3x3_reduce
I0403 15:37:53.246243 13834 net.cpp:399] inception_4d/3x3 -> inception_4d/3x3
I0403 15:37:53.250826 13834 net.cpp:141] Setting up inception_4d/3x3
I0403 15:37:53.250859 13834 net.cpp:148] Top shape: 24 288 14 14 (1354752)
I0403 15:37:53.250875 13834 net.cpp:156] Memory required for data: 1126235424
I0403 15:37:53.250895 13834 layer_factory.hpp:77] Creating layer inception_4d/relu_3x3
I0403 15:37:53.250916 13834 net.cpp:91] Creating Layer inception_4d/relu_3x3
I0403 15:37:53.250933 13834 net.cpp:425] inception_4d/relu_3x3 <- inception_4d/3x3
I0403 15:37:53.250954 13834 net.cpp:386] inception_4d/relu_3x3 -> inception_4d/3x3 (in-place)
I0403 15:37:53.251164 13834 net.cpp:141] Setting up inception_4d/relu_3x3
I0403 15:37:53.251193 13834 net.cpp:148] Top shape: 24 288 14 14 (1354752)
I0403 15:37:53.251209 13834 net.cpp:156] Memory required for data: 1131654432
I0403 15:37:53.251224 13834 layer_factory.hpp:77] Creating layer inception_4d/5x5_reduce
I0403 15:37:53.251247 13834 net.cpp:91] Creating Layer inception_4d/5x5_reduce
I0403 15:37:53.251266 13834 net.cpp:425] inception_4d/5x5_reduce <- inception_4c/output_inception_4c/output_0_split_2
I0403 15:37:53.251291 13834 net.cpp:399] inception_4d/5x5_reduce -> inception_4d/5x5_reduce
I0403 15:37:53.252481 13834 net.cpp:141] Setting up inception_4d/5x5_reduce
I0403 15:37:53.252513 13834 net.cpp:148] Top shape: 24 32 14 14 (150528)
I0403 15:37:53.252532 13834 net.cpp:156] Memory required for data: 1132256544
I0403 15:37:53.252552 13834 layer_factory.hpp:77] Creating layer inception_4d/relu_5x5_reduce
I0403 15:37:53.252570 13834 net.cpp:91] Creating Layer inception_4d/relu_5x5_reduce
I0403 15:37:53.252586 13834 net.cpp:425] inception_4d/relu_5x5_reduce <- inception_4d/5x5_reduce
I0403 15:37:53.252607 13834 net.cpp:386] inception_4d/relu_5x5_reduce -> inception_4d/5x5_reduce (in-place)
I0403 15:37:53.252802 13834 net.cpp:141] Setting up inception_4d/relu_5x5_reduce
I0403 15:37:53.252830 13834 net.cpp:148] Top shape: 24 32 14 14 (150528)
I0403 15:37:53.252846 13834 net.cpp:156] Memory required for data: 1132858656
I0403 15:37:53.252862 13834 layer_factory.hpp:77] Creating layer inception_4d/5x5
I0403 15:37:53.252885 13834 net.cpp:91] Creating Layer inception_4d/5x5
I0403 15:37:53.252904 13834 net.cpp:425] inception_4d/5x5 <- inception_4d/5x5_reduce
I0403 15:37:53.252926 13834 net.cpp:399] inception_4d/5x5 -> inception_4d/5x5
I0403 15:37:53.254519 13834 net.cpp:141] Setting up inception_4d/5x5
I0403 15:37:53.254550 13834 net.cpp:148] Top shape: 24 64 14 14 (301056)
I0403 15:37:53.254567 13834 net.cpp:156] Memory required for data: 1134062880
I0403 15:37:53.254588 13834 layer_factory.hpp:77] Creating layer inception_4d/relu_5x5
I0403 15:37:53.254627 13834 net.cpp:91] Creating Layer inception_4d/relu_5x5
I0403 15:37:53.254657 13834 net.cpp:425] inception_4d/relu_5x5 <- inception_4d/5x5
I0403 15:37:53.254676 13834 net.cpp:386] inception_4d/relu_5x5 -> inception_4d/5x5 (in-place)
I0403 15:37:53.254995 13834 net.cpp:141] Setting up inception_4d/relu_5x5
I0403 15:37:53.255023 13834 net.cpp:148] Top shape: 24 64 14 14 (301056)
I0403 15:37:53.255039 13834 net.cpp:156] Memory required for data: 1135267104
I0403 15:37:53.255055 13834 layer_factory.hpp:77] Creating layer inception_4d/pool
I0403 15:37:53.255074 13834 net.cpp:91] Creating Layer inception_4d/pool
I0403 15:37:53.255090 13834 net.cpp:425] inception_4d/pool <- inception_4c/output_inception_4c/output_0_split_3
I0403 15:37:53.255111 13834 net.cpp:399] inception_4d/pool -> inception_4d/pool
I0403 15:37:53.255187 13834 net.cpp:141] Setting up inception_4d/pool
I0403 15:37:53.255214 13834 net.cpp:148] Top shape: 24 512 14 14 (2408448)
I0403 15:37:53.255230 13834 net.cpp:156] Memory required for data: 1144900896
I0403 15:37:53.255246 13834 layer_factory.hpp:77] Creating layer inception_4d/pool_proj
I0403 15:37:53.255270 13834 net.cpp:91] Creating Layer inception_4d/pool_proj
I0403 15:37:53.255288 13834 net.cpp:425] inception_4d/pool_proj <- inception_4d/pool
I0403 15:37:53.255311 13834 net.cpp:399] inception_4d/pool_proj -> inception_4d/pool_proj
I0403 15:37:53.257113 13834 net.cpp:141] Setting up inception_4d/pool_proj
I0403 15:37:53.257150 13834 net.cpp:148] Top shape: 24 64 14 14 (301056)
I0403 15:37:53.257169 13834 net.cpp:156] Memory required for data: 1146105120
I0403 15:37:53.257189 13834 layer_factory.hpp:77] Creating layer inception_4d/relu_pool_proj
I0403 15:37:53.257207 13834 net.cpp:91] Creating Layer inception_4d/relu_pool_proj
I0403 15:37:53.257225 13834 net.cpp:425] inception_4d/relu_pool_proj <- inception_4d/pool_proj
I0403 15:37:53.257246 13834 net.cpp:386] inception_4d/relu_pool_proj -> inception_4d/pool_proj (in-place)
I0403 15:37:53.257439 13834 net.cpp:141] Setting up inception_4d/relu_pool_proj
I0403 15:37:53.257467 13834 net.cpp:148] Top shape: 24 64 14 14 (301056)
I0403 15:37:53.257483 13834 net.cpp:156] Memory required for data: 1147309344
I0403 15:37:53.257499 13834 layer_factory.hpp:77] Creating layer inception_4d/output
I0403 15:37:53.257518 13834 net.cpp:91] Creating Layer inception_4d/output
I0403 15:37:53.257534 13834 net.cpp:425] inception_4d/output <- inception_4d/1x1
I0403 15:37:53.257551 13834 net.cpp:425] inception_4d/output <- inception_4d/3x3
I0403 15:37:53.257572 13834 net.cpp:425] inception_4d/output <- inception_4d/5x5
I0403 15:37:53.257591 13834 net.cpp:425] inception_4d/output <- inception_4d/pool_proj
I0403 15:37:53.257608 13834 net.cpp:399] inception_4d/output -> inception_4d/output
I0403 15:37:53.257657 13834 net.cpp:141] Setting up inception_4d/output
I0403 15:37:53.257684 13834 net.cpp:148] Top shape: 24 528 14 14 (2483712)
I0403 15:37:53.257701 13834 net.cpp:156] Memory required for data: 1157244192
I0403 15:37:53.257717 13834 layer_factory.hpp:77] Creating layer inception_4d/output_inception_4d/output_0_split
I0403 15:37:53.257735 13834 net.cpp:91] Creating Layer inception_4d/output_inception_4d/output_0_split
I0403 15:37:53.257751 13834 net.cpp:425] inception_4d/output_inception_4d/output_0_split <- inception_4d/output
I0403 15:37:53.257771 13834 net.cpp:399] inception_4d/output_inception_4d/output_0_split -> inception_4d/output_inception_4d/output_0_split_0
I0403 15:37:53.257793 13834 net.cpp:399] inception_4d/output_inception_4d/output_0_split -> inception_4d/output_inception_4d/output_0_split_1
I0403 15:37:53.257817 13834 net.cpp:399] inception_4d/output_inception_4d/output_0_split -> inception_4d/output_inception_4d/output_0_split_2
I0403 15:37:53.257838 13834 net.cpp:399] inception_4d/output_inception_4d/output_0_split -> inception_4d/output_inception_4d/output_0_split_3
I0403 15:37:53.257860 13834 net.cpp:399] inception_4d/output_inception_4d/output_0_split -> inception_4d/output_inception_4d/output_0_split_4
I0403 15:37:53.257967 13834 net.cpp:141] Setting up inception_4d/output_inception_4d/output_0_split
I0403 15:37:53.258007 13834 net.cpp:148] Top shape: 24 528 14 14 (2483712)
I0403 15:37:53.258028 13834 net.cpp:148] Top shape: 24 528 14 14 (2483712)
I0403 15:37:53.258045 13834 net.cpp:148] Top shape: 24 528 14 14 (2483712)
I0403 15:37:53.258062 13834 net.cpp:148] Top shape: 24 528 14 14 (2483712)
I0403 15:37:53.258092 13834 net.cpp:148] Top shape: 24 528 14 14 (2483712)
I0403 15:37:53.258110 13834 net.cpp:156] Memory required for data: 1206918432
I0403 15:37:53.258131 13834 layer_factory.hpp:77] Creating layer loss2/ave_pool
I0403 15:37:53.258162 13834 net.cpp:91] Creating Layer loss2/ave_pool
I0403 15:37:53.258180 13834 net.cpp:425] loss2/ave_pool <- inception_4d/output_inception_4d/output_0_split_0
I0403 15:37:53.258203 13834 net.cpp:399] loss2/ave_pool -> loss2/ave_pool
I0403 15:37:53.258543 13834 net.cpp:141] Setting up loss2/ave_pool
I0403 15:37:53.258570 13834 net.cpp:148] Top shape: 24 528 4 4 (202752)
I0403 15:37:53.258585 13834 net.cpp:156] Memory required for data: 1207729440
I0403 15:37:53.258601 13834 layer_factory.hpp:77] Creating layer loss2/conv
I0403 15:37:53.258625 13834 net.cpp:91] Creating Layer loss2/conv
I0403 15:37:53.258654 13834 net.cpp:425] loss2/conv <- loss2/ave_pool
I0403 15:37:53.258677 13834 net.cpp:399] loss2/conv -> loss2/conv
I0403 15:37:53.260722 13834 net.cpp:141] Setting up loss2/conv
I0403 15:37:53.260751 13834 net.cpp:148] Top shape: 24 128 4 4 (49152)
I0403 15:37:53.260768 13834 net.cpp:156] Memory required for data: 1207926048
I0403 15:37:53.260787 13834 layer_factory.hpp:77] Creating layer loss2/relu_conv
I0403 15:37:53.260809 13834 net.cpp:91] Creating Layer loss2/relu_conv
I0403 15:37:53.260828 13834 net.cpp:425] loss2/relu_conv <- loss2/conv
I0403 15:37:53.260848 13834 net.cpp:386] loss2/relu_conv -> loss2/conv (in-place)
I0403 15:37:53.261144 13834 net.cpp:141] Setting up loss2/relu_conv
I0403 15:37:53.261171 13834 net.cpp:148] Top shape: 24 128 4 4 (49152)
I0403 15:37:53.261188 13834 net.cpp:156] Memory required for data: 1208122656
I0403 15:37:53.261204 13834 layer_factory.hpp:77] Creating layer loss2/fc
I0403 15:37:53.261227 13834 net.cpp:91] Creating Layer loss2/fc
I0403 15:37:53.261245 13834 net.cpp:425] loss2/fc <- loss2/conv
I0403 15:37:53.261265 13834 net.cpp:399] loss2/fc -> loss2/fc
I0403 15:37:53.280016 13834 net.cpp:141] Setting up loss2/fc
I0403 15:37:53.280051 13834 net.cpp:148] Top shape: 24 1024 (24576)
I0403 15:37:53.280068 13834 net.cpp:156] Memory required for data: 1208220960
I0403 15:37:53.280088 13834 layer_factory.hpp:77] Creating layer loss2/relu_fc
I0403 15:37:53.280108 13834 net.cpp:91] Creating Layer loss2/relu_fc
I0403 15:37:53.280131 13834 net.cpp:425] loss2/relu_fc <- loss2/fc
I0403 15:37:53.280154 13834 net.cpp:386] loss2/relu_fc -> loss2/fc (in-place)
I0403 15:37:53.280472 13834 net.cpp:141] Setting up loss2/relu_fc
I0403 15:37:53.280501 13834 net.cpp:148] Top shape: 24 1024 (24576)
I0403 15:37:53.280517 13834 net.cpp:156] Memory required for data: 1208319264
I0403 15:37:53.280534 13834 layer_factory.hpp:77] Creating layer loss2/drop_fc
I0403 15:37:53.280555 13834 net.cpp:91] Creating Layer loss2/drop_fc
I0403 15:37:53.280570 13834 net.cpp:425] loss2/drop_fc <- loss2/fc
I0403 15:37:53.280591 13834 net.cpp:386] loss2/drop_fc -> loss2/fc (in-place)
I0403 15:37:53.280645 13834 net.cpp:141] Setting up loss2/drop_fc
I0403 15:37:53.280671 13834 net.cpp:148] Top shape: 24 1024 (24576)
I0403 15:37:53.280689 13834 net.cpp:156] Memory required for data: 1208417568
I0403 15:37:53.280705 13834 layer_factory.hpp:77] Creating layer loss2/classifier_plantvillage
I0403 15:37:53.280730 13834 net.cpp:91] Creating Layer loss2/classifier_plantvillage
I0403 15:37:53.280750 13834 net.cpp:425] loss2/classifier_plantvillage <- loss2/fc
I0403 15:37:53.280771 13834 net.cpp:399] loss2/classifier_plantvillage -> loss2/classifier_plantvillage
I0403 15:37:53.281209 13834 net.cpp:141] Setting up loss2/classifier_plantvillage
I0403 15:37:53.281239 13834 net.cpp:148] Top shape: 24 38 (912)
I0403 15:37:53.281257 13834 net.cpp:156] Memory required for data: 1208421216
I0403 15:37:53.281296 13834 layer_factory.hpp:77] Creating layer loss2/classifier_plantvillage_loss2/classifier_plantvillage_0_split
I0403 15:37:53.281318 13834 net.cpp:91] Creating Layer loss2/classifier_plantvillage_loss2/classifier_plantvillage_0_split
I0403 15:37:53.281335 13834 net.cpp:425] loss2/classifier_plantvillage_loss2/classifier_plantvillage_0_split <- loss2/classifier_plantvillage
I0403 15:37:53.281354 13834 net.cpp:399] loss2/classifier_plantvillage_loss2/classifier_plantvillage_0_split -> loss2/classifier_plantvillage_loss2/classifier_plantvillage_0_split_0
I0403 15:37:53.281376 13834 net.cpp:399] loss2/classifier_plantvillage_loss2/classifier_plantvillage_0_split -> loss2/classifier_plantvillage_loss2/classifier_plantvillage_0_split_1
I0403 15:37:53.281399 13834 net.cpp:399] loss2/classifier_plantvillage_loss2/classifier_plantvillage_0_split -> loss2/classifier_plantvillage_loss2/classifier_plantvillage_0_split_2
I0403 15:37:53.281483 13834 net.cpp:141] Setting up loss2/classifier_plantvillage_loss2/classifier_plantvillage_0_split
I0403 15:37:53.281508 13834 net.cpp:148] Top shape: 24 38 (912)
I0403 15:37:53.281527 13834 net.cpp:148] Top shape: 24 38 (912)
I0403 15:37:53.281545 13834 net.cpp:148] Top shape: 24 38 (912)
I0403 15:37:53.281561 13834 net.cpp:156] Memory required for data: 1208432160
I0403 15:37:53.281579 13834 layer_factory.hpp:77] Creating layer inception_4e/1x1
I0403 15:37:53.281601 13834 net.cpp:91] Creating Layer inception_4e/1x1
I0403 15:37:53.281620 13834 net.cpp:425] inception_4e/1x1 <- inception_4d/output_inception_4d/output_0_split_1
I0403 15:37:53.281642 13834 net.cpp:399] inception_4e/1x1 -> inception_4e/1x1
I0403 15:37:53.283606 13834 net.cpp:141] Setting up inception_4e/1x1
I0403 15:37:53.283637 13834 net.cpp:148] Top shape: 24 256 14 14 (1204224)
I0403 15:37:53.283653 13834 net.cpp:156] Memory required for data: 1213249056
I0403 15:37:53.283674 13834 layer_factory.hpp:77] Creating layer inception_4e/relu_1x1
I0403 15:37:53.283694 13834 net.cpp:91] Creating Layer inception_4e/relu_1x1
I0403 15:37:53.283713 13834 net.cpp:425] inception_4e/relu_1x1 <- inception_4e/1x1
I0403 15:37:53.283732 13834 net.cpp:386] inception_4e/relu_1x1 -> inception_4e/1x1 (in-place)
I0403 15:37:53.284049 13834 net.cpp:141] Setting up inception_4e/relu_1x1
I0403 15:37:53.284077 13834 net.cpp:148] Top shape: 24 256 14 14 (1204224)
I0403 15:37:53.284095 13834 net.cpp:156] Memory required for data: 1218065952
I0403 15:37:53.284111 13834 layer_factory.hpp:77] Creating layer inception_4e/3x3_reduce
I0403 15:37:53.284139 13834 net.cpp:91] Creating Layer inception_4e/3x3_reduce
I0403 15:37:53.284162 13834 net.cpp:425] inception_4e/3x3_reduce <- inception_4d/output_inception_4d/output_0_split_2
I0403 15:37:53.284184 13834 net.cpp:399] inception_4e/3x3_reduce -> inception_4e/3x3_reduce
I0403 15:37:53.286473 13834 net.cpp:141] Setting up inception_4e/3x3_reduce
I0403 15:37:53.286504 13834 net.cpp:148] Top shape: 24 160 14 14 (752640)
I0403 15:37:53.286521 13834 net.cpp:156] Memory required for data: 1221076512
I0403 15:37:53.286542 13834 layer_factory.hpp:77] Creating layer inception_4e/relu_3x3_reduce
I0403 15:37:53.286564 13834 net.cpp:91] Creating Layer inception_4e/relu_3x3_reduce
I0403 15:37:53.286583 13834 net.cpp:425] inception_4e/relu_3x3_reduce <- inception_4e/3x3_reduce
I0403 15:37:53.286602 13834 net.cpp:386] inception_4e/relu_3x3_reduce -> inception_4e/3x3_reduce (in-place)
I0403 15:37:53.286801 13834 net.cpp:141] Setting up inception_4e/relu_3x3_reduce
I0403 15:37:53.286829 13834 net.cpp:148] Top shape: 24 160 14 14 (752640)
I0403 15:37:53.286844 13834 net.cpp:156] Memory required for data: 1224087072
I0403 15:37:53.286860 13834 layer_factory.hpp:77] Creating layer inception_4e/3x3
I0403 15:37:53.286886 13834 net.cpp:91] Creating Layer inception_4e/3x3
I0403 15:37:53.286906 13834 net.cpp:425] inception_4e/3x3 <- inception_4e/3x3_reduce
I0403 15:37:53.286926 13834 net.cpp:399] inception_4e/3x3 -> inception_4e/3x3
I0403 15:37:53.292270 13834 net.cpp:141] Setting up inception_4e/3x3
I0403 15:37:53.292314 13834 net.cpp:148] Top shape: 24 320 14 14 (1505280)
I0403 15:37:53.292331 13834 net.cpp:156] Memory required for data: 1230108192
I0403 15:37:53.292351 13834 layer_factory.hpp:77] Creating layer inception_4e/relu_3x3
I0403 15:37:53.292373 13834 net.cpp:91] Creating Layer inception_4e/relu_3x3
I0403 15:37:53.292392 13834 net.cpp:425] inception_4e/relu_3x3 <- inception_4e/3x3
I0403 15:37:53.292410 13834 net.cpp:386] inception_4e/relu_3x3 -> inception_4e/3x3 (in-place)
I0403 15:37:53.292729 13834 net.cpp:141] Setting up inception_4e/relu_3x3
I0403 15:37:53.292762 13834 net.cpp:148] Top shape: 24 320 14 14 (1505280)
I0403 15:37:53.292779 13834 net.cpp:156] Memory required for data: 1236129312
I0403 15:37:53.292795 13834 layer_factory.hpp:77] Creating layer inception_4e/5x5_reduce
I0403 15:37:53.292821 13834 net.cpp:91] Creating Layer inception_4e/5x5_reduce
I0403 15:37:53.292841 13834 net.cpp:425] inception_4e/5x5_reduce <- inception_4d/output_inception_4d/output_0_split_3
I0403 15:37:53.292862 13834 net.cpp:399] inception_4e/5x5_reduce -> inception_4e/5x5_reduce
I0403 15:37:53.294009 13834 net.cpp:141] Setting up inception_4e/5x5_reduce
I0403 15:37:53.294040 13834 net.cpp:148] Top shape: 24 32 14 14 (150528)
I0403 15:37:53.294057 13834 net.cpp:156] Memory required for data: 1236731424
I0403 15:37:53.294077 13834 layer_factory.hpp:77] Creating layer inception_4e/relu_5x5_reduce
I0403 15:37:53.294100 13834 net.cpp:91] Creating Layer inception_4e/relu_5x5_reduce
I0403 15:37:53.294119 13834 net.cpp:425] inception_4e/relu_5x5_reduce <- inception_4e/5x5_reduce
I0403 15:37:53.294152 13834 net.cpp:386] inception_4e/relu_5x5_reduce -> inception_4e/5x5_reduce (in-place)
I0403 15:37:53.294474 13834 net.cpp:141] Setting up inception_4e/relu_5x5_reduce
I0403 15:37:53.294502 13834 net.cpp:148] Top shape: 24 32 14 14 (150528)
I0403 15:37:53.294519 13834 net.cpp:156] Memory required for data: 1237333536
I0403 15:37:53.294535 13834 layer_factory.hpp:77] Creating layer inception_4e/5x5
I0403 15:37:53.294576 13834 net.cpp:91] Creating Layer inception_4e/5x5
I0403 15:37:53.294598 13834 net.cpp:425] inception_4e/5x5 <- inception_4e/5x5_reduce
I0403 15:37:53.294620 13834 net.cpp:399] inception_4e/5x5 -> inception_4e/5x5
I0403 15:37:53.296627 13834 net.cpp:141] Setting up inception_4e/5x5
I0403 15:37:53.296656 13834 net.cpp:148] Top shape: 24 128 14 14 (602112)
I0403 15:37:53.296674 13834 net.cpp:156] Memory required for data: 1239741984
I0403 15:37:53.296695 13834 layer_factory.hpp:77] Creating layer inception_4e/relu_5x5
I0403 15:37:53.296715 13834 net.cpp:91] Creating Layer inception_4e/relu_5x5
I0403 15:37:53.296731 13834 net.cpp:425] inception_4e/relu_5x5 <- inception_4e/5x5
I0403 15:37:53.296752 13834 net.cpp:386] inception_4e/relu_5x5 -> inception_4e/5x5 (in-place)
I0403 15:37:53.296965 13834 net.cpp:141] Setting up inception_4e/relu_5x5
I0403 15:37:53.296993 13834 net.cpp:148] Top shape: 24 128 14 14 (602112)
I0403 15:37:53.297009 13834 net.cpp:156] Memory required for data: 1242150432
I0403 15:37:53.297026 13834 layer_factory.hpp:77] Creating layer inception_4e/pool
I0403 15:37:53.297049 13834 net.cpp:91] Creating Layer inception_4e/pool
I0403 15:37:53.297070 13834 net.cpp:425] inception_4e/pool <- inception_4d/output_inception_4d/output_0_split_4
I0403 15:37:53.297088 13834 net.cpp:399] inception_4e/pool -> inception_4e/pool
I0403 15:37:53.297170 13834 net.cpp:141] Setting up inception_4e/pool
I0403 15:37:53.297199 13834 net.cpp:148] Top shape: 24 528 14 14 (2483712)
I0403 15:37:53.297216 13834 net.cpp:156] Memory required for data: 1252085280
I0403 15:37:53.297232 13834 layer_factory.hpp:77] Creating layer inception_4e/pool_proj
I0403 15:37:53.297256 13834 net.cpp:91] Creating Layer inception_4e/pool_proj
I0403 15:37:53.297276 13834 net.cpp:425] inception_4e/pool_proj <- inception_4e/pool
I0403 15:37:53.297298 13834 net.cpp:399] inception_4e/pool_proj -> inception_4e/pool_proj
I0403 15:37:53.298928 13834 net.cpp:141] Setting up inception_4e/pool_proj
I0403 15:37:53.298959 13834 net.cpp:148] Top shape: 24 128 14 14 (602112)
I0403 15:37:53.298992 13834 net.cpp:156] Memory required for data: 1254493728
I0403 15:37:53.299013 13834 layer_factory.hpp:77] Creating layer inception_4e/relu_pool_proj
I0403 15:37:53.299033 13834 net.cpp:91] Creating Layer inception_4e/relu_pool_proj
I0403 15:37:53.299049 13834 net.cpp:425] inception_4e/relu_pool_proj <- inception_4e/pool_proj
I0403 15:37:53.299072 13834 net.cpp:386] inception_4e/relu_pool_proj -> inception_4e/pool_proj (in-place)
I0403 15:37:53.299396 13834 net.cpp:141] Setting up inception_4e/relu_pool_proj
I0403 15:37:53.299425 13834 net.cpp:148] Top shape: 24 128 14 14 (602112)
I0403 15:37:53.299442 13834 net.cpp:156] Memory required for data: 1256902176
I0403 15:37:53.299458 13834 layer_factory.hpp:77] Creating layer inception_4e/output
I0403 15:37:53.299476 13834 net.cpp:91] Creating Layer inception_4e/output
I0403 15:37:53.299494 13834 net.cpp:425] inception_4e/output <- inception_4e/1x1
I0403 15:37:53.299511 13834 net.cpp:425] inception_4e/output <- inception_4e/3x3
I0403 15:37:53.299528 13834 net.cpp:425] inception_4e/output <- inception_4e/5x5
I0403 15:37:53.299545 13834 net.cpp:425] inception_4e/output <- inception_4e/pool_proj
I0403 15:37:53.299566 13834 net.cpp:399] inception_4e/output -> inception_4e/output
I0403 15:37:53.299618 13834 net.cpp:141] Setting up inception_4e/output
I0403 15:37:53.299648 13834 net.cpp:148] Top shape: 24 832 14 14 (3913728)
I0403 15:37:53.299665 13834 net.cpp:156] Memory required for data: 1272557088
I0403 15:37:53.299682 13834 layer_factory.hpp:77] Creating layer pool4/3x3_s2
I0403 15:37:53.299701 13834 net.cpp:91] Creating Layer pool4/3x3_s2
I0403 15:37:53.299718 13834 net.cpp:425] pool4/3x3_s2 <- inception_4e/output
I0403 15:37:53.299737 13834 net.cpp:399] pool4/3x3_s2 -> pool4/3x3_s2
I0403 15:37:53.299813 13834 net.cpp:141] Setting up pool4/3x3_s2
I0403 15:37:53.299839 13834 net.cpp:148] Top shape: 24 832 7 7 (978432)
I0403 15:37:53.299856 13834 net.cpp:156] Memory required for data: 1276470816
I0403 15:37:53.299872 13834 layer_factory.hpp:77] Creating layer pool4/3x3_s2_pool4/3x3_s2_0_split
I0403 15:37:53.299890 13834 net.cpp:91] Creating Layer pool4/3x3_s2_pool4/3x3_s2_0_split
I0403 15:37:53.299906 13834 net.cpp:425] pool4/3x3_s2_pool4/3x3_s2_0_split <- pool4/3x3_s2
I0403 15:37:53.299927 13834 net.cpp:399] pool4/3x3_s2_pool4/3x3_s2_0_split -> pool4/3x3_s2_pool4/3x3_s2_0_split_0
I0403 15:37:53.299950 13834 net.cpp:399] pool4/3x3_s2_pool4/3x3_s2_0_split -> pool4/3x3_s2_pool4/3x3_s2_0_split_1
I0403 15:37:53.299973 13834 net.cpp:399] pool4/3x3_s2_pool4/3x3_s2_0_split -> pool4/3x3_s2_pool4/3x3_s2_0_split_2
I0403 15:37:53.299994 13834 net.cpp:399] pool4/3x3_s2_pool4/3x3_s2_0_split -> pool4/3x3_s2_pool4/3x3_s2_0_split_3
I0403 15:37:53.300098 13834 net.cpp:141] Setting up pool4/3x3_s2_pool4/3x3_s2_0_split
I0403 15:37:53.300128 13834 net.cpp:148] Top shape: 24 832 7 7 (978432)
I0403 15:37:53.300150 13834 net.cpp:148] Top shape: 24 832 7 7 (978432)
I0403 15:37:53.300168 13834 net.cpp:148] Top shape: 24 832 7 7 (978432)
I0403 15:37:53.300185 13834 net.cpp:148] Top shape: 24 832 7 7 (978432)
I0403 15:37:53.300201 13834 net.cpp:156] Memory required for data: 1292125728
I0403 15:37:53.300217 13834 layer_factory.hpp:77] Creating layer inception_5a/1x1
I0403 15:37:53.300242 13834 net.cpp:91] Creating Layer inception_5a/1x1
I0403 15:37:53.300261 13834 net.cpp:425] inception_5a/1x1 <- pool4/3x3_s2_pool4/3x3_s2_0_split_0
I0403 15:37:53.300284 13834 net.cpp:399] inception_5a/1x1 -> inception_5a/1x1
I0403 15:37:53.303398 13834 net.cpp:141] Setting up inception_5a/1x1
I0403 15:37:53.303437 13834 net.cpp:148] Top shape: 24 256 7 7 (301056)
I0403 15:37:53.303455 13834 net.cpp:156] Memory required for data: 1293329952
I0403 15:37:53.303477 13834 layer_factory.hpp:77] Creating layer inception_5a/relu_1x1
I0403 15:37:53.303516 13834 net.cpp:91] Creating Layer inception_5a/relu_1x1
I0403 15:37:53.303534 13834 net.cpp:425] inception_5a/relu_1x1 <- inception_5a/1x1
I0403 15:37:53.303552 13834 net.cpp:386] inception_5a/relu_1x1 -> inception_5a/1x1 (in-place)
I0403 15:37:53.303879 13834 net.cpp:141] Setting up inception_5a/relu_1x1
I0403 15:37:53.303906 13834 net.cpp:148] Top shape: 24 256 7 7 (301056)
I0403 15:37:53.303933 13834 net.cpp:156] Memory required for data: 1294534176
I0403 15:37:53.303951 13834 layer_factory.hpp:77] Creating layer inception_5a/3x3_reduce
I0403 15:37:53.303979 13834 net.cpp:91] Creating Layer inception_5a/3x3_reduce
I0403 15:37:53.303998 13834 net.cpp:425] inception_5a/3x3_reduce <- pool4/3x3_s2_pool4/3x3_s2_0_split_1
I0403 15:37:53.304021 13834 net.cpp:399] inception_5a/3x3_reduce -> inception_5a/3x3_reduce
I0403 15:37:53.306584 13834 net.cpp:141] Setting up inception_5a/3x3_reduce
I0403 15:37:53.306617 13834 net.cpp:148] Top shape: 24 160 7 7 (188160)
I0403 15:37:53.306637 13834 net.cpp:156] Memory required for data: 1295286816
I0403 15:37:53.306656 13834 layer_factory.hpp:77] Creating layer inception_5a/relu_3x3_reduce
I0403 15:37:53.306675 13834 net.cpp:91] Creating Layer inception_5a/relu_3x3_reduce
I0403 15:37:53.306694 13834 net.cpp:425] inception_5a/relu_3x3_reduce <- inception_5a/3x3_reduce
I0403 15:37:53.306711 13834 net.cpp:386] inception_5a/relu_3x3_reduce -> inception_5a/3x3_reduce (in-place)
I0403 15:37:53.306916 13834 net.cpp:141] Setting up inception_5a/relu_3x3_reduce
I0403 15:37:53.306943 13834 net.cpp:148] Top shape: 24 160 7 7 (188160)
I0403 15:37:53.306959 13834 net.cpp:156] Memory required for data: 1296039456
I0403 15:37:53.306977 13834 layer_factory.hpp:77] Creating layer inception_5a/3x3
I0403 15:37:53.306999 13834 net.cpp:91] Creating Layer inception_5a/3x3
I0403 15:37:53.307018 13834 net.cpp:425] inception_5a/3x3 <- inception_5a/3x3_reduce
I0403 15:37:53.307041 13834 net.cpp:399] inception_5a/3x3 -> inception_5a/3x3
I0403 15:37:53.312350 13834 net.cpp:141] Setting up inception_5a/3x3
I0403 15:37:53.312382 13834 net.cpp:148] Top shape: 24 320 7 7 (376320)
I0403 15:37:53.312399 13834 net.cpp:156] Memory required for data: 1297544736
I0403 15:37:53.312419 13834 layer_factory.hpp:77] Creating layer inception_5a/relu_3x3
I0403 15:37:53.312448 13834 net.cpp:91] Creating Layer inception_5a/relu_3x3
I0403 15:37:53.312468 13834 net.cpp:425] inception_5a/relu_3x3 <- inception_5a/3x3
I0403 15:37:53.312496 13834 net.cpp:386] inception_5a/relu_3x3 -> inception_5a/3x3 (in-place)
I0403 15:37:53.312811 13834 net.cpp:141] Setting up inception_5a/relu_3x3
I0403 15:37:53.312839 13834 net.cpp:148] Top shape: 24 320 7 7 (376320)
I0403 15:37:53.312855 13834 net.cpp:156] Memory required for data: 1299050016
I0403 15:37:53.312870 13834 layer_factory.hpp:77] Creating layer inception_5a/5x5_reduce
I0403 15:37:53.312893 13834 net.cpp:91] Creating Layer inception_5a/5x5_reduce
I0403 15:37:53.312913 13834 net.cpp:425] inception_5a/5x5_reduce <- pool4/3x3_s2_pool4/3x3_s2_0_split_2
I0403 15:37:53.312937 13834 net.cpp:399] inception_5a/5x5_reduce -> inception_5a/5x5_reduce
I0403 15:37:53.314188 13834 net.cpp:141] Setting up inception_5a/5x5_reduce
I0403 15:37:53.314219 13834 net.cpp:148] Top shape: 24 32 7 7 (37632)
I0403 15:37:53.314237 13834 net.cpp:156] Memory required for data: 1299200544
I0403 15:37:53.314256 13834 layer_factory.hpp:77] Creating layer inception_5a/relu_5x5_reduce
I0403 15:37:53.314296 13834 net.cpp:91] Creating Layer inception_5a/relu_5x5_reduce
I0403 15:37:53.314314 13834 net.cpp:425] inception_5a/relu_5x5_reduce <- inception_5a/5x5_reduce
I0403 15:37:53.314332 13834 net.cpp:386] inception_5a/relu_5x5_reduce -> inception_5a/5x5_reduce (in-place)
I0403 15:37:53.314643 13834 net.cpp:141] Setting up inception_5a/relu_5x5_reduce
I0403 15:37:53.314671 13834 net.cpp:148] Top shape: 24 32 7 7 (37632)
I0403 15:37:53.314687 13834 net.cpp:156] Memory required for data: 1299351072
I0403 15:37:53.314703 13834 layer_factory.hpp:77] Creating layer inception_5a/5x5
I0403 15:37:53.314728 13834 net.cpp:91] Creating Layer inception_5a/5x5
I0403 15:37:53.314746 13834 net.cpp:425] inception_5a/5x5 <- inception_5a/5x5_reduce
I0403 15:37:53.314769 13834 net.cpp:399] inception_5a/5x5 -> inception_5a/5x5
I0403 15:37:53.316566 13834 net.cpp:141] Setting up inception_5a/5x5
I0403 15:37:53.316608 13834 net.cpp:148] Top shape: 24 128 7 7 (150528)
I0403 15:37:53.316627 13834 net.cpp:156] Memory required for data: 1299953184
I0403 15:37:53.316647 13834 layer_factory.hpp:77] Creating layer inception_5a/relu_5x5
I0403 15:37:53.316665 13834 net.cpp:91] Creating Layer inception_5a/relu_5x5
I0403 15:37:53.316682 13834 net.cpp:425] inception_5a/relu_5x5 <- inception_5a/5x5
I0403 15:37:53.316704 13834 net.cpp:386] inception_5a/relu_5x5 -> inception_5a/5x5 (in-place)
I0403 15:37:53.316901 13834 net.cpp:141] Setting up inception_5a/relu_5x5
I0403 15:37:53.316929 13834 net.cpp:148] Top shape: 24 128 7 7 (150528)
I0403 15:37:53.316946 13834 net.cpp:156] Memory required for data: 1300555296
I0403 15:37:53.316962 13834 layer_factory.hpp:77] Creating layer inception_5a/pool
I0403 15:37:53.316982 13834 net.cpp:91] Creating Layer inception_5a/pool
I0403 15:37:53.317000 13834 net.cpp:425] inception_5a/pool <- pool4/3x3_s2_pool4/3x3_s2_0_split_3
I0403 15:37:53.317019 13834 net.cpp:399] inception_5a/pool -> inception_5a/pool
I0403 15:37:53.317098 13834 net.cpp:141] Setting up inception_5a/pool
I0403 15:37:53.317128 13834 net.cpp:148] Top shape: 24 832 7 7 (978432)
I0403 15:37:53.317147 13834 net.cpp:156] Memory required for data: 1304469024
I0403 15:37:53.317162 13834 layer_factory.hpp:77] Creating layer inception_5a/pool_proj
I0403 15:37:53.317185 13834 net.cpp:91] Creating Layer inception_5a/pool_proj
I0403 15:37:53.317205 13834 net.cpp:425] inception_5a/pool_proj <- inception_5a/pool
I0403 15:37:53.317229 13834 net.cpp:399] inception_5a/pool_proj -> inception_5a/pool_proj
I0403 15:37:53.319591 13834 net.cpp:141] Setting up inception_5a/pool_proj
I0403 15:37:53.319624 13834 net.cpp:148] Top shape: 24 128 7 7 (150528)
I0403 15:37:53.319643 13834 net.cpp:156] Memory required for data: 1305071136
I0403 15:37:53.319663 13834 layer_factory.hpp:77] Creating layer inception_5a/relu_pool_proj
I0403 15:37:53.319681 13834 net.cpp:91] Creating Layer inception_5a/relu_pool_proj
I0403 15:37:53.319699 13834 net.cpp:425] inception_5a/relu_pool_proj <- inception_5a/pool_proj
I0403 15:37:53.319720 13834 net.cpp:386] inception_5a/relu_pool_proj -> inception_5a/pool_proj (in-place)
I0403 15:37:53.320024 13834 net.cpp:141] Setting up inception_5a/relu_pool_proj
I0403 15:37:53.320065 13834 net.cpp:148] Top shape: 24 128 7 7 (150528)
I0403 15:37:53.320083 13834 net.cpp:156] Memory required for data: 1305673248
I0403 15:37:53.320099 13834 layer_factory.hpp:77] Creating layer inception_5a/output
I0403 15:37:53.320118 13834 net.cpp:91] Creating Layer inception_5a/output
I0403 15:37:53.320140 13834 net.cpp:425] inception_5a/output <- inception_5a/1x1
I0403 15:37:53.320159 13834 net.cpp:425] inception_5a/output <- inception_5a/3x3
I0403 15:37:53.320178 13834 net.cpp:425] inception_5a/output <- inception_5a/5x5
I0403 15:37:53.320197 13834 net.cpp:425] inception_5a/output <- inception_5a/pool_proj
I0403 15:37:53.320217 13834 net.cpp:399] inception_5a/output -> inception_5a/output
I0403 15:37:53.320271 13834 net.cpp:141] Setting up inception_5a/output
I0403 15:37:53.320297 13834 net.cpp:148] Top shape: 24 832 7 7 (978432)
I0403 15:37:53.320312 13834 net.cpp:156] Memory required for data: 1309586976
I0403 15:37:53.320327 13834 layer_factory.hpp:77] Creating layer inception_5a/output_inception_5a/output_0_split
I0403 15:37:53.320348 13834 net.cpp:91] Creating Layer inception_5a/output_inception_5a/output_0_split
I0403 15:37:53.320365 13834 net.cpp:425] inception_5a/output_inception_5a/output_0_split <- inception_5a/output
I0403 15:37:53.320384 13834 net.cpp:399] inception_5a/output_inception_5a/output_0_split -> inception_5a/output_inception_5a/output_0_split_0
I0403 15:37:53.320406 13834 net.cpp:399] inception_5a/output_inception_5a/output_0_split -> inception_5a/output_inception_5a/output_0_split_1
I0403 15:37:53.320431 13834 net.cpp:399] inception_5a/output_inception_5a/output_0_split -> inception_5a/output_inception_5a/output_0_split_2
I0403 15:37:53.320454 13834 net.cpp:399] inception_5a/output_inception_5a/output_0_split -> inception_5a/output_inception_5a/output_0_split_3
I0403 15:37:53.320571 13834 net.cpp:141] Setting up inception_5a/output_inception_5a/output_0_split
I0403 15:37:53.320596 13834 net.cpp:148] Top shape: 24 832 7 7 (978432)
I0403 15:37:53.320616 13834 net.cpp:148] Top shape: 24 832 7 7 (978432)
I0403 15:37:53.320632 13834 net.cpp:148] Top shape: 24 832 7 7 (978432)
I0403 15:37:53.320649 13834 net.cpp:148] Top shape: 24 832 7 7 (978432)
I0403 15:37:53.320664 13834 net.cpp:156] Memory required for data: 1325241888
I0403 15:37:53.320679 13834 layer_factory.hpp:77] Creating layer inception_5b/1x1
I0403 15:37:53.320703 13834 net.cpp:91] Creating Layer inception_5b/1x1
I0403 15:37:53.320722 13834 net.cpp:425] inception_5b/1x1 <- inception_5a/output_inception_5a/output_0_split_0
I0403 15:37:53.320745 13834 net.cpp:399] inception_5b/1x1 -> inception_5b/1x1
I0403 15:37:53.324743 13834 net.cpp:141] Setting up inception_5b/1x1
I0403 15:37:53.324777 13834 net.cpp:148] Top shape: 24 384 7 7 (451584)
I0403 15:37:53.324796 13834 net.cpp:156] Memory required for data: 1327048224
I0403 15:37:53.324816 13834 layer_factory.hpp:77] Creating layer inception_5b/relu_1x1
I0403 15:37:53.324846 13834 net.cpp:91] Creating Layer inception_5b/relu_1x1
I0403 15:37:53.324863 13834 net.cpp:425] inception_5b/relu_1x1 <- inception_5b/1x1
I0403 15:37:53.324880 13834 net.cpp:386] inception_5b/relu_1x1 -> inception_5b/1x1 (in-place)
I0403 15:37:53.325213 13834 net.cpp:141] Setting up inception_5b/relu_1x1
I0403 15:37:53.325243 13834 net.cpp:148] Top shape: 24 384 7 7 (451584)
I0403 15:37:53.325261 13834 net.cpp:156] Memory required for data: 1328854560
I0403 15:37:53.325276 13834 layer_factory.hpp:77] Creating layer inception_5b/3x3_reduce
I0403 15:37:53.325300 13834 net.cpp:91] Creating Layer inception_5b/3x3_reduce
I0403 15:37:53.325320 13834 net.cpp:425] inception_5b/3x3_reduce <- inception_5a/output_inception_5a/output_0_split_1
I0403 15:37:53.325341 13834 net.cpp:399] inception_5b/3x3_reduce -> inception_5b/3x3_reduce
I0403 15:37:53.328080 13834 net.cpp:141] Setting up inception_5b/3x3_reduce
I0403 15:37:53.328114 13834 net.cpp:148] Top shape: 24 192 7 7 (225792)
I0403 15:37:53.328136 13834 net.cpp:156] Memory required for data: 1329757728
I0403 15:37:53.328156 13834 layer_factory.hpp:77] Creating layer inception_5b/relu_3x3_reduce
I0403 15:37:53.328176 13834 net.cpp:91] Creating Layer inception_5b/relu_3x3_reduce
I0403 15:37:53.328194 13834 net.cpp:425] inception_5b/relu_3x3_reduce <- inception_5b/3x3_reduce
I0403 15:37:53.328215 13834 net.cpp:386] inception_5b/relu_3x3_reduce -> inception_5b/3x3_reduce (in-place)
I0403 15:37:53.328408 13834 net.cpp:141] Setting up inception_5b/relu_3x3_reduce
I0403 15:37:53.328434 13834 net.cpp:148] Top shape: 24 192 7 7 (225792)
I0403 15:37:53.328450 13834 net.cpp:156] Memory required for data: 1330660896
I0403 15:37:53.328465 13834 layer_factory.hpp:77] Creating layer inception_5b/3x3
I0403 15:37:53.328488 13834 net.cpp:91] Creating Layer inception_5b/3x3
I0403 15:37:53.328507 13834 net.cpp:425] inception_5b/3x3 <- inception_5b/3x3_reduce
I0403 15:37:53.328531 13834 net.cpp:399] inception_5b/3x3 -> inception_5b/3x3
I0403 15:37:53.335532 13834 net.cpp:141] Setting up inception_5b/3x3
I0403 15:37:53.335567 13834 net.cpp:148] Top shape: 24 384 7 7 (451584)
I0403 15:37:53.335585 13834 net.cpp:156] Memory required for data: 1332467232
I0403 15:37:53.335607 13834 layer_factory.hpp:77] Creating layer inception_5b/relu_3x3
I0403 15:37:53.335625 13834 net.cpp:91] Creating Layer inception_5b/relu_3x3
I0403 15:37:53.335643 13834 net.cpp:425] inception_5b/relu_3x3 <- inception_5b/3x3
I0403 15:37:53.335664 13834 net.cpp:386] inception_5b/relu_3x3 -> inception_5b/3x3 (in-place)
I0403 15:37:53.335973 13834 net.cpp:141] Setting up inception_5b/relu_3x3
I0403 15:37:53.336004 13834 net.cpp:148] Top shape: 24 384 7 7 (451584)
I0403 15:37:53.336020 13834 net.cpp:156] Memory required for data: 1334273568
I0403 15:37:53.336036 13834 layer_factory.hpp:77] Creating layer inception_5b/5x5_reduce
I0403 15:37:53.336077 13834 net.cpp:91] Creating Layer inception_5b/5x5_reduce
I0403 15:37:53.336097 13834 net.cpp:425] inception_5b/5x5_reduce <- inception_5a/output_inception_5a/output_0_split_2
I0403 15:37:53.336119 13834 net.cpp:399] inception_5b/5x5_reduce -> inception_5b/5x5_reduce
I0403 15:37:53.337474 13834 net.cpp:141] Setting up inception_5b/5x5_reduce
I0403 15:37:53.337503 13834 net.cpp:148] Top shape: 24 48 7 7 (56448)
I0403 15:37:53.337522 13834 net.cpp:156] Memory required for data: 1334499360
I0403 15:37:53.337541 13834 layer_factory.hpp:77] Creating layer inception_5b/relu_5x5_reduce
I0403 15:37:53.337560 13834 net.cpp:91] Creating Layer inception_5b/relu_5x5_reduce
I0403 15:37:53.337579 13834 net.cpp:425] inception_5b/relu_5x5_reduce <- inception_5b/5x5_reduce
I0403 15:37:53.337600 13834 net.cpp:386] inception_5b/relu_5x5_reduce -> inception_5b/5x5_reduce (in-place)
I0403 15:37:53.337991 13834 net.cpp:141] Setting up inception_5b/relu_5x5_reduce
I0403 15:37:53.338021 13834 net.cpp:148] Top shape: 24 48 7 7 (56448)
I0403 15:37:53.338037 13834 net.cpp:156] Memory required for data: 1334725152
I0403 15:37:53.338053 13834 layer_factory.hpp:77] Creating layer inception_5b/5x5
I0403 15:37:53.338075 13834 net.cpp:91] Creating Layer inception_5b/5x5
I0403 15:37:53.338093 13834 net.cpp:425] inception_5b/5x5 <- inception_5b/5x5_reduce
I0403 15:37:53.338114 13834 net.cpp:399] inception_5b/5x5 -> inception_5b/5x5
I0403 15:37:53.340263 13834 net.cpp:141] Setting up inception_5b/5x5
I0403 15:37:53.340294 13834 net.cpp:148] Top shape: 24 128 7 7 (150528)
I0403 15:37:53.340312 13834 net.cpp:156] Memory required for data: 1335327264
I0403 15:37:53.340330 13834 layer_factory.hpp:77] Creating layer inception_5b/relu_5x5
I0403 15:37:53.340353 13834 net.cpp:91] Creating Layer inception_5b/relu_5x5
I0403 15:37:53.340371 13834 net.cpp:425] inception_5b/relu_5x5 <- inception_5b/5x5
I0403 15:37:53.340390 13834 net.cpp:386] inception_5b/relu_5x5 -> inception_5b/5x5 (in-place)
I0403 15:37:53.340595 13834 net.cpp:141] Setting up inception_5b/relu_5x5
I0403 15:37:53.340621 13834 net.cpp:148] Top shape: 24 128 7 7 (150528)
I0403 15:37:53.340637 13834 net.cpp:156] Memory required for data: 1335929376
I0403 15:37:53.340652 13834 layer_factory.hpp:77] Creating layer inception_5b/pool
I0403 15:37:53.340673 13834 net.cpp:91] Creating Layer inception_5b/pool
I0403 15:37:53.340692 13834 net.cpp:425] inception_5b/pool <- inception_5a/output_inception_5a/output_0_split_3
I0403 15:37:53.340711 13834 net.cpp:399] inception_5b/pool -> inception_5b/pool
I0403 15:37:53.340788 13834 net.cpp:141] Setting up inception_5b/pool
I0403 15:37:53.340814 13834 net.cpp:148] Top shape: 24 832 7 7 (978432)
I0403 15:37:53.340831 13834 net.cpp:156] Memory required for data: 1339843104
I0403 15:37:53.340847 13834 layer_factory.hpp:77] Creating layer inception_5b/pool_proj
I0403 15:37:53.340869 13834 net.cpp:91] Creating Layer inception_5b/pool_proj
I0403 15:37:53.340889 13834 net.cpp:425] inception_5b/pool_proj <- inception_5b/pool
I0403 15:37:53.340911 13834 net.cpp:399] inception_5b/pool_proj -> inception_5b/pool_proj
I0403 15:37:53.343330 13834 net.cpp:141] Setting up inception_5b/pool_proj
I0403 15:37:53.343363 13834 net.cpp:148] Top shape: 24 128 7 7 (150528)
I0403 15:37:53.343379 13834 net.cpp:156] Memory required for data: 1340445216
I0403 15:37:53.343400 13834 layer_factory.hpp:77] Creating layer inception_5b/relu_pool_proj
I0403 15:37:53.343420 13834 net.cpp:91] Creating Layer inception_5b/relu_pool_proj
I0403 15:37:53.343437 13834 net.cpp:425] inception_5b/relu_pool_proj <- inception_5b/pool_proj
I0403 15:37:53.343458 13834 net.cpp:386] inception_5b/relu_pool_proj -> inception_5b/pool_proj (in-place)
I0403 15:37:53.343775 13834 net.cpp:141] Setting up inception_5b/relu_pool_proj
I0403 15:37:53.343802 13834 net.cpp:148] Top shape: 24 128 7 7 (150528)
I0403 15:37:53.343818 13834 net.cpp:156] Memory required for data: 1341047328
I0403 15:37:53.343835 13834 layer_factory.hpp:77] Creating layer inception_5b/output
I0403 15:37:53.343854 13834 net.cpp:91] Creating Layer inception_5b/output
I0403 15:37:53.343886 13834 net.cpp:425] inception_5b/output <- inception_5b/1x1
I0403 15:37:53.343904 13834 net.cpp:425] inception_5b/output <- inception_5b/3x3
I0403 15:37:53.343921 13834 net.cpp:425] inception_5b/output <- inception_5b/5x5
I0403 15:37:53.343938 13834 net.cpp:425] inception_5b/output <- inception_5b/pool_proj
I0403 15:37:53.343960 13834 net.cpp:399] inception_5b/output -> inception_5b/output
I0403 15:37:53.344014 13834 net.cpp:141] Setting up inception_5b/output
I0403 15:37:53.344043 13834 net.cpp:148] Top shape: 24 1024 7 7 (1204224)
I0403 15:37:53.344060 13834 net.cpp:156] Memory required for data: 1345864224
I0403 15:37:53.344075 13834 layer_factory.hpp:77] Creating layer pool5/7x7_s1
I0403 15:37:53.344095 13834 net.cpp:91] Creating Layer pool5/7x7_s1
I0403 15:37:53.344111 13834 net.cpp:425] pool5/7x7_s1 <- inception_5b/output
I0403 15:37:53.344135 13834 net.cpp:399] pool5/7x7_s1 -> pool5/7x7_s1
I0403 15:37:53.344367 13834 net.cpp:141] Setting up pool5/7x7_s1
I0403 15:37:53.344394 13834 net.cpp:148] Top shape: 24 1024 1 1 (24576)
I0403 15:37:53.344409 13834 net.cpp:156] Memory required for data: 1345962528
I0403 15:37:53.344425 13834 layer_factory.hpp:77] Creating layer pool5/drop_7x7_s1
I0403 15:37:53.344444 13834 net.cpp:91] Creating Layer pool5/drop_7x7_s1
I0403 15:37:53.344460 13834 net.cpp:425] pool5/drop_7x7_s1 <- pool5/7x7_s1
I0403 15:37:53.344481 13834 net.cpp:386] pool5/drop_7x7_s1 -> pool5/7x7_s1 (in-place)
I0403 15:37:53.344535 13834 net.cpp:141] Setting up pool5/drop_7x7_s1
I0403 15:37:53.344563 13834 net.cpp:148] Top shape: 24 1024 1 1 (24576)
I0403 15:37:53.344580 13834 net.cpp:156] Memory required for data: 1346060832
I0403 15:37:53.344596 13834 layer_factory.hpp:77] Creating layer loss3/classifier_plantvillage
I0403 15:37:53.344616 13834 net.cpp:91] Creating Layer loss3/classifier_plantvillage
I0403 15:37:53.344635 13834 net.cpp:425] loss3/classifier_plantvillage <- pool5/7x7_s1
I0403 15:37:53.344657 13834 net.cpp:399] loss3/classifier_plantvillage -> loss3/classifier_plantvillage
I0403 15:37:53.345109 13834 net.cpp:141] Setting up loss3/classifier_plantvillage
I0403 15:37:53.345140 13834 net.cpp:148] Top shape: 24 38 (912)
I0403 15:37:53.345157 13834 net.cpp:156] Memory required for data: 1346064480
I0403 15:37:53.345177 13834 layer_factory.hpp:77] Creating layer loss3/classifier_plantvillage_loss3/classifier_plantvillage_0_split
I0403 15:37:53.345201 13834 net.cpp:91] Creating Layer loss3/classifier_plantvillage_loss3/classifier_plantvillage_0_split
I0403 15:37:53.345219 13834 net.cpp:425] loss3/classifier_plantvillage_loss3/classifier_plantvillage_0_split <- loss3/classifier_plantvillage
I0403 15:37:53.345238 13834 net.cpp:399] loss3/classifier_plantvillage_loss3/classifier_plantvillage_0_split -> loss3/classifier_plantvillage_loss3/classifier_plantvillage_0_split_0
I0403 15:37:53.345260 13834 net.cpp:399] loss3/classifier_plantvillage_loss3/classifier_plantvillage_0_split -> loss3/classifier_plantvillage_loss3/classifier_plantvillage_0_split_1
I0403 15:37:53.345284 13834 net.cpp:399] loss3/classifier_plantvillage_loss3/classifier_plantvillage_0_split -> loss3/classifier_plantvillage_loss3/classifier_plantvillage_0_split_2
I0403 15:37:53.345305 13834 net.cpp:399] loss3/classifier_plantvillage_loss3/classifier_plantvillage_0_split -> loss3/classifier_plantvillage_loss3/classifier_plantvillage_0_split_3
I0403 15:37:53.345413 13834 net.cpp:141] Setting up loss3/classifier_plantvillage_loss3/classifier_plantvillage_0_split
I0403 15:37:53.345438 13834 net.cpp:148] Top shape: 24 38 (912)
I0403 15:37:53.345456 13834 net.cpp:148] Top shape: 24 38 (912)
I0403 15:37:53.345473 13834 net.cpp:148] Top shape: 24 38 (912)
I0403 15:37:53.345489 13834 net.cpp:148] Top shape: 24 38 (912)
I0403 15:37:53.345504 13834 net.cpp:156] Memory required for data: 1346079072
I0403 15:37:53.345520 13834 layer_factory.hpp:77] Creating layer loss1/loss
I0403 15:37:53.345566 13834 net.cpp:91] Creating Layer loss1/loss
I0403 15:37:53.345587 13834 net.cpp:425] loss1/loss <- loss1/classifier_plantvillage_loss1/classifier_plantvillage_0_split_0
I0403 15:37:53.345620 13834 net.cpp:425] loss1/loss <- label_data_1_split_0
…
