…
I0403 15:59:07.475466 15069 net.cpp:313] The NetState phase (1) differed from the phase (0) specified by a rule in layer data
I0403 15:59:07.476848 15069 net.cpp:49] Initializing net from parameters: 
state {
  phase: TEST
}
layer {
  name: "data"
  type: "Data"
  top: "data"
  top: "label"
  include {
    phase: TEST
  }
  transform_param {
    mirror: false
    crop_size: 224
    mean_file: "/home/mohanty/data/final_dataset/lmdb/color-80-20/mean.binaryproto"
  }
  data_param {
    source: "/home/mohanty/data/final_dataset/lmdb/color-80-20/test_db"
    batch_size: 24
    backend: LMDB
  }
}
layer {
  name: "conv1/7x7_s2"
  type: "Convolution"
  bottom: "data"
  top: "conv1/7x7_s2"
  param {
    lr_mult: 1
    decay_mult: 1
  }
  param {
    lr_mult: 2
    decay_mult: 0
  }
  convolution_param {
    num_output: 64
    pad: 3
    kernel_size: 7
    stride: 2
    weight_filler {
      type: "xavier"
      std: 0.1
    }
    bias_filler {
      type: "constant"
      value: 0.2
    }
  }
}
layer {
  name: "conv1/relu_7x7"
  type: "ReLU"
  bottom: "conv1/7x7_s2"
  top: "conv1/7x7_s2"
}
layer {
  name: "pool1/3x3_s2"
  type: "Pooling"
  bottom: "conv1/7x7_s2"
  top: "pool1/3x3_s2"
  pooling_param {
    pool: MAX
    kernel_size: 3
    stride: 2
  }
}
layer {
  name: "pool1/norm1"
  type: "LRN"
  bottom: "pool1/3x3_s2"
  top: "pool1/norm1"
  lrn_param {
    local_size: 5
    alpha: 0.0001
    beta: 0.75
  }
}
layer {
  name: "conv2/3x3_reduce"
  type: "Convolution"
  bottom: "pool1/norm1"
  top: "conv2/3x3_reduce"
  param {
    lr_mult: 1
    decay_mult: 1
  }
  param {
    lr_mult: 2
    decay_mult: 0
  }
  convolution_param {
    num_output: 64
    kernel_size: 1
    weight_filler {
      type: "xavier"
      std: 0.1
    }
    bias_filler {
      type: "constant"
      value: 0.2
    }
  }
}
layer {
  name: "conv2/relu_3x3_reduce"
  type: "ReLU"
  bottom: "conv2/3x3_reduce"
  top: "conv2/3x3_reduce"
}
layer {
  name: "conv2/3x3"
  type: "Convolution"
  bottom: "conv2/3x3_reduce"
  top: "conv2/3x3"
  param {
    lr_mult: 1
    decay_mult: 1
  }
  param {
    lr_mult: 2
    decay_mult: 0
  }
  convolution_param {
    num_output: 192
    pad: 1
    kernel_size: 3
    weight_filler {
      type: "xavier"
      std: 0.03
    }
    bias_filler {
      type: "constant"
      value: 0.2
    }
  }
}
layer {
  name: "conv2/relu_3x3"
  type: "ReLU"
  bottom: "conv2/3x3"
  top: "conv2/3x3"
}
layer {
  name: "conv2/norm2"
  type: "LRN"
  bottom: "conv2/3x3"
  top: "conv2/norm2"
  lrn_param {
    local_size: 5
    alpha: 0.0001
    beta: 0.75
  }
}
layer {
  name: "pool2/3x3_s2"
  type: "Pooling"
  bottom: "conv2/norm2"
  top: "pool2/3x3_s2"
  pooling_param {
    pool: MAX
    kernel_size: 3
    stride: 2
  }
}
layer {
  name: "inception_3a/1x1"
  type: "Convolution"
  bottom: "pool2/3x3_s2"
  top: "inception_3a/1x1"
  param {
    lr_mult: 1
    decay_mult: 1
  }
  param {
    lr_mult: 2
    decay_mult: 0
  }
  convolution_param {
    num_output: 64
    kernel_size: 1
    weight_filler {
      type: "xavier"
      std: 0.03
    }
    bias_filler {
      type: "constant"
      value: 0.2
    }
  }
}
layer {
  name: "inception_3a/relu_1x1"
  type: "ReLU"
  bottom: "inception_3a/1x1"
  top: "inception_3a/1x1"
}
layer {
  name: "inception_3a/3x3_reduce"
  type: "Convolution"
  bottom: "pool2/3x3_s2"
  top: "inception_3a/3x3_reduce"
  param {
    lr_mult: 1
    decay_mult: 1
  }
  param {
    lr_mult: 2
    decay_mult: 0
  }
  convolution_param {
    num_output: 96
    kernel_size: 1
    weight_filler {
      type: "xavier"
      std: 0.09
    }
    bias_filler {
      type: "constant"
      value: 0.2
    }
  }
}
layer {
  name: "inception_3a/relu_3x3_reduce"
  type: "ReLU"
  bottom: "inception_3a/3x3_reduce"
  top: "inception_3a/3x3_reduce"
}
layer {
  name: "inception_3a/3x3"
  type: "Convolution"
  bottom: "inception_3a/3x3_reduce"
  top: "inception_3a/3x3"
  param {
    lr_mult: 1
    decay_mult: 1
  }
  param {
    lr_mult: 2
    decay_mult: 0
  }
  convolution_param {
    num_output: 128
    pad: 1
    kernel_size: 3
    weight_filler {
      type: "xavier"
      std: 0.03
    }
    bias_filler {
      type: "constant"
      value: 0.2
    }
  }
}
layer {
  name: "inception_3a/relu_3x3"
  type: "ReLU"
  bottom: "inception_3a/3x3"
  top: "inception_3a/3x3"
}
layer {
  name: "inception_3a/5x5_reduce"
  type: "Convolution"
  bottom: "pool2/3x3_s2"
  top: "inception_3a/5x5_reduce"
  param {
    lr_mult: 1
    decay_mult: 1
  }
  param {
    lr_mult: 2
    decay_mult: 0
  }
  convolution_param {
    num_output: 16
    kernel_size: 1
    weight_filler {
      type: "xavier"
      std: 0.2
    }
    bias_filler {
      type: "constant"
      value: 0.2
    }
  }
}
layer {
  name: "inception_3a/relu_5x5_reduce"
  type: "ReLU"
  bottom: "inception_3a/5x5_reduce"
  top: "inception_3a/5x5_reduce"
}
layer {
  name: "inception_3a/5x5"
  type: "Convolution"
  bottom: "inception_3a/5x5_reduce"
  top: "inception_3a/5x5"
  param {
    lr_mult: 1
    decay_mult: 1
  }
  param {
    lr_mult: 2
    decay_mult: 0
  }
  convolution_param {
    num_output: 32
    pad: 2
    kernel_size: 5
    weight_filler {
      type: "xavier"
      std: 0.03
    }
    bias_filler {
      type: "constant"
      value: 0.2
    }
  }
}
layer {
  name: "inception_3a/relu_5x5"
  type: "ReLU"
  bottom: "inception_3a/5x5"
  top: "inception_3a/5x5"
}
layer {
  name: "inception_3a/pool"
  type: "Pooling"
  bottom: "pool2/3x3_s2"
  top: "inception_3a/pool"
  pooling_param {
    pool: MAX
    kernel_size: 3
    stride: 1
    pad: 1
  }
}
layer {
  name: "inception_3a/pool_proj"
  type: "Convolution"
  bottom: "inception_3a/pool"
  top: "inception_3a/pool_proj"
  param {
    lr_mult: 1
    decay_mult: 1
  }
  param {
    lr_mult: 2
    decay_mult: 0
  }
  convolution_param {
    num_output: 32
    kernel_size: 1
    weight_filler {
      type: "xavier"
      std: 0.1
    }
    bias_filler {
      type: "constant"
      value: 0.2
    }
  }
}
layer {
  name: "inception_3a/relu_pool_proj"
  type: "ReLU"
  bottom: "inception_3a/pool_proj"
  top: "inception_3a/pool_proj"
}
layer {
  name: "inception_3a/output"
  type: "Concat"
  bottom: "inception_3a/1x1"
  bottom: "inception_3a/3x3"
  bottom: "inception_3a/5x5"
  bottom: "inception_3a/pool_proj"
  top: "inception_3a/output"
}
layer {
  name: "inception_3b/1x1"
  type: "Convolution"
  bottom: "inception_3a/output"
  top: "inception_3b/1x1"
  param {
    lr_mult: 1
    decay_mult: 1
  }
  param {
    lr_mult: 2
    decay_mult: 0
  }
  convolution_param {
    num_output: 128
    kernel_size: 1
    weight_filler {
      type: "xavier"
      std: 0.03
    }
    bias_filler {
      type: "constant"
      value: 0.2
    }
  }
}
layer {
  name: "inception_3b/relu_1x1"
  type: "ReLU"
  bottom: "inception_3b/1x1"
  top: "inception_3b/1x1"
}
layer {
  name: "inception_3b/3x3_reduce"
  type: "Convolution"
  bottom: "inception_3a/output"
  top: "inception_3b/3x3_reduce"
  param {
    lr_mult: 1
    decay_mult: 1
  }
  param {
    lr_mult: 2
    decay_mult: 0
  }
  convolution_param {
    num_output: 128
    kernel_size: 1
    weight_filler {
      type: "xavier"
      std: 0.09
    }
    bias_filler {
      type: "constant"
      value: 0.2
    }
  }
}
layer {
  name: "inception_3b/relu_3x3_reduce"
  type: "ReLU"
  bottom: "inception_3b/3x3_reduce"
  top: "inception_3b/3x3_reduce"
}
layer {
  name: "inception_3b/3x3"
  type: "Convolution"
  bottom: "inception_3b/3x3_reduce"
  top: "inception_3b/3x3"
  param {
    lr_mult: 1
    decay_mult: 1
  }
  param {
    lr_mult: 2
    decay_mult: 0
  }
  convolution_param {
    num_output: 192
    pad: 1
    kernel_size: 3
    weight_filler {
      type: "xavier"
      std: 0.03
    }
    bias_filler {
      type: "constant"
      value: 0.2
    }
  }
}
layer {
  name: "inception_3b/relu_3x3"
  type: "ReLU"
  bottom: "inception_3b/3x3"
  top: "inception_3b/3x3"
}
layer {
  name: "inception_3b/5x5_reduce"
  type: "Convolution"
  bottom: "inception_3a/output"
  top: "inception_3b/5x5_reduce"
  param {
    lr_mult: 1
    decay_mult: 1
  }
  param {
    lr_mult: 2
    decay_mult: 0
  }
  convolution_param {
    num_output: 32
    kernel_size: 1
    weight_filler {
      type: "xavier"
      std: 0.2
    }
    bias_filler {
      type: "constant"
      value: 0.2
    }
  }
}
layer {
  name: "inception_3b/relu_5x5_reduce"
  type: "ReLU"
  bottom: "inception_3b/5x5_reduce"
  top: "inception_3b/5x5_reduce"
}
layer {
  name: "inception_3b/5x5"
  type: "Convolution"
  bottom: "inception_3b/5x5_reduce"
  top: "inception_3b/5x5"
  param {
    lr_mult: 1
    decay_mult: 1
  }
  param {
    lr_mult: 2
    decay_mult: 0
  }
  convolution_param {
    num_output: 96
    pad: 2
    kernel_size: 5
    weight_filler {
      type: "xavier"
      std: 0.03
    }
    bias_filler {
      type: "constant"
      value: 0.2
    }
  }
}
layer {
  name: "inception_3b/relu_5x5"
  type: "ReLU"
  bottom: "inception_3b/5x5"
  top: "inception_3b/5x5"
}
layer {
  name: "inception_3b/pool"
  type: "Pooling"
  bottom: "inception_3a/output"
  top: "inception_3b/pool"
  pooling_param {
    pool: MAX
    kernel_size: 3
    stride: 1
    pad: 1
  }
}
layer {
  name: "inception_3b/pool_proj"
  type: "Convolution"
  bottom: "inception_3b/pool"
  top: "inception_3b/pool_proj"
  param {
    lr_mult: 1
    decay_mult: 1
  }
  param {
    lr_mult: 2
    decay_mult: 0
  }
  convolution_param {
    num_output: 64
    kernel_size: 1
    weight_filler {
      type: "xavier"
      std: 0.1
    }
    bias_filler {
      type: "constant"
      value: 0.2
    }
  }
}
layer {
  name: "inception_3b/relu_pool_proj"
  type: "ReLU"
  bottom: "inception_3b/pool_proj"
  top: "inception_3b/pool_proj"
}
layer {
  name: "inception_3b/output"
  type: "Concat"
  bottom: "inception_3b/1x1"
  bottom: "inception_3b/3x3"
  bottom: "inception_3b/5x5"
  bottom: "inception_3b/pool_proj"
  top: "inception_3b/output"
}
layer {
  name: "pool3/3x3_s2"
  type: "Pooling"
  bottom: "inception_3b/output"
  top: "pool3/3x3_s2"
  pooling_param {
    pool: MAX
    kernel_size: 3
    stride: 2
  }
}
layer {
  name: "inception_4a/1x1"
  type: "Convolution"
  bottom: "pool3/3x3_s2"
  top: "inception_4a/1x1"
  param {
    lr_mult: 1
    decay_mult: 1
  }
  param {
    lr_mult: 2
    decay_mult: 0
  }
  convolution_param {
    num_output: 192
    kernel_size: 1
    weight_filler {
      type: "xavier"
      std: 0.03
    }
    bias_filler {
      type: "constant"
      value: 0.2
    }
  }
}
layer {
  name: "inception_4a/relu_1x1"
  type: "ReLU"
  bottom: "inception_4a/1x1"
  top: "inception_4a/1x1"
}
layer {
  name: "inception_4a/3x3_reduce"
  type: "Convolution"
  bottom: "pool3/3x3_s2"
  top: "inception_4a/3x3_reduce"
  param {
    lr_mult: 1
    decay_mult: 1
  }
  param {
    lr_mult: 2
    decay_mult: 0
  }
  convolution_param {
    num_output: 96
    kernel_size: 1
    weight_filler {
      type: "xavier"
      std: 0.09
    }
    bias_filler {
      type: "constant"
      value: 0.2
    }
  }
}
layer {
  name: "inception_4a/relu_3x3_reduce"
  type: "ReLU"
  bottom: "inception_4a/3x3_reduce"
  top: "inception_4a/3x3_reduce"
}
layer {
  name: "inception_4a/3x3"
  type: "Convolution"
  bottom: "inception_4a/3x3_reduce"
  top: "inception_4a/3x3"
  param {
    lr_mult: 1
    decay_mult: 1
  }
  param {
    lr_mult: 2
    decay_mult: 0
  }
  convolution_param {
    num_output: 208
    pad: 1
    kernel_size: 3
    weight_filler {
      type: "xavier"
      std: 0.03
    }
    bias_filler {
      type: "constant"
      value: 0.2
    }
  }
}
layer {
  name: "inception_4a/relu_3x3"
  type: "ReLU"
  bottom: "inception_4a/3x3"
  top: "inception_4a/3x3"
}
layer {
  name: "inception_4a/5x5_reduce"
  type: "Convolution"
  bottom: "pool3/3x3_s2"
  top: "inception_4a/5x5_reduce"
  param {
    lr_mult: 1
    decay_mult: 1
  }
  param {
    lr_mult: 2
    decay_mult: 0
  }
  convolution_param {
    num_output: 16
    kernel_size: 1
    weight_filler {
      type: "xavier"
      std: 0.2
    }
    bias_filler {
      type: "constant"
      value: 0.2
    }
  }
}
layer {
  name: "inception_4a/relu_5x5_reduce"
  type: "ReLU"
  bottom: "inception_4a/5x5_reduce"
  top: "inception_4a/5x5_reduce"
}
layer {
  name: "inception_4a/5x5"
  type: "Convolution"
  bottom: "inception_4a/5x5_reduce"
  top: "inception_4a/5x5"
  param {
    lr_mult: 1
    decay_mult: 1
  }
  param {
    lr_mult: 2
    decay_mult: 0
  }
  convolution_param {
    num_output: 48
    pad: 2
    kernel_size: 5
    weight_filler {
      type: "xavier"
      std: 0.03
    }
    bias_filler {
      type: "constant"
      value: 0.2
    }
  }
}
layer {
  name: "inception_4a/relu_5x5"
  type: "ReLU"
  bottom: "inception_4a/5x5"
  top: "inception_4a/5x5"
}
layer {
  name: "inception_4a/pool"
  type: "Pooling"
  bottom: "pool3/3x3_s2"
  top: "inception_4a/pool"
  pooling_param {
    pool: MAX
    kernel_size: 3
    stride: 1
    pad: 1
  }
}
layer {
  name: "inception_4a/pool_proj"
  type: "Convolution"
  bottom: "inception_4a/pool"
  top: "inception_4a/pool_proj"
  param {
    lr_mult: 1
    decay_mult: 1
  }
  param {
    lr_mult: 2
    decay_mult: 0
  }
  convolution_param {
    num_output: 64
    kernel_size: 1
    weight_filler {
      type: "xavier"
      std: 0.1
    }
    bias_filler {
      type: "constant"
      value: 0.2
    }
  }
}
layer {
  name: "inception_4a/relu_pool_proj"
  type: "ReLU"
  bottom: "inception_4a/pool_proj"
  top: "inception_4a/pool_proj"
}
layer {
  name: "inception_4a/output"
  type: "Concat"
  bottom: "inception_4a/1x1"
  bottom: "inception_4a/3x3"
  bottom: "inception_4a/5x5"
  bottom: "inception_4a/pool_proj"
  top: "inception_4a/output"
}
layer {
  name: "loss1/ave_pool"
  type: "Pooling"
  bottom: "inception_4a/output"
  top: "loss1/ave_pool"
  pooling_param {
    pool: AVE
    kernel_size: 5
    stride: 3
  }
}
layer {
  name: "loss1/conv"
  type: "Convolution"
  bottom: "loss1/ave_pool"
  top: "loss1/conv"
  param {
    lr_mult: 1
    decay_mult: 1
  }
  param {
    lr_mult: 2
    decay_mult: 0
  }
  convolution_param {
    num_output: 128
    kernel_size: 1
    weight_filler {
      type: "xavier"
      std: 0.08
    }
    bias_filler {
      type: "constant"
      value: 0.2
    }
  }
}
layer {
  name: "loss1/relu_conv"
  type: "ReLU"
  bottom: "loss1/conv"
  top: "loss1/conv"
}
layer {
  name: "loss1/fc"
  type: "InnerProduct"
  bottom: "loss1/conv"
  top: "loss1/fc"
  param {
    lr_mult: 1
    decay_mult: 1
  }
  param {
    lr_mult: 2
    decay_mult: 0
  }
  inner_product_param {
    num_output: 1024
    weight_filler {
      type: "xavier"
      std: 0.02
    }
    bias_filler {
      type: "constant"
      value: 0.2
    }
  }
}
layer {
  name: "loss1/relu_fc"
  type: "ReLU"
  bottom: "loss1/fc"
  top: "loss1/fc"
}
layer {
  name: "loss1/drop_fc"
  type: "Dropout"
  bottom: "loss1/fc"
  top: "loss1/fc"
  dropout_param {
    dropout_ratio: 0.7
  }
}
layer {
  name: "loss1/classifier_plantvillage"
  type: "InnerProduct"
  bottom: "loss1/fc"
  top: "loss1/classifier_plantvillage"
  param {
    lr_mult: 1
    decay_mult: 1
  }
  param {
    lr_mult: 2
    decay_mult: 0
  }
  inner_product_param {
    num_output: 38
    weight_filler {
      type: "xavier"
      std: 0.0009765625
    }
    bias_filler {
      type: "constant"
      value: 0
    }
  }
}
layer {
  name: "inception_4b/1x1"
  type: "Convolution"
  bottom: "inception_4a/output"
  top: "inception_4b/1x1"
  param {
    lr_mult: 1
    decay_mult: 1
  }
  param {
    lr_mult: 2
    decay_mult: 0
  }
  convolution_param {
    num_output: 160
    kernel_size: 1
    weight_filler {
      type: "xavier"
      std: 0.03
    }
    bias_filler {
      type: "constant"
      value: 0.2
    }
  }
}
layer {
  name: "inception_4b/relu_1x1"
  type: "ReLU"
  bottom: "inception_4b/1x1"
  top: "inception_4b/1x1"
}
layer {
  name: "inception_4b/3x3_reduce"
  type: "Convolution"
  bottom: "inception_4a/output"
  top: "inception_4b/3x3_reduce"
  param {
    lr_mult: 1
    decay_mult: 1
  }
  param {
    lr_mult: 2
    decay_mult: 0
  }
  convolution_param {
    num_output: 112
    kernel_size: 1
    weight_filler {
      type: "xavier"
      std: 0.09
    }
    bias_filler {
      type: "constant"
      value: 0.2
    }
  }
}
layer {
  name: "inception_4b/relu_3x3_reduce"
  type: "ReLU"
  bottom: "inception_4b/3x3_reduce"
  top: "inception_4b/3x3_reduce"
}
layer {
  name: "inception_4b/3x3"
  type: "Convolution"
  bottom: "inception_4b/3x3_reduce"
  top: "inception_4b/3x3"
  param {
    lr_mult: 1
    decay_mult: 1
  }
  param {
    lr_mult: 2
    decay_mult: 0
  }
  convolution_param {
    num_output: 224
    pad: 1
    kernel_size: 3
    weight_filler {
      type: "xavier"
      std: 0.03
    }
    bias_filler {
      type: "constant"
      value: 0.2
    }
  }
}
layer {
  name: "inception_4b/relu_3x3"
  type: "ReLU"
  bottom: "inception_4b/3x3"
  top: "inception_4b/3x3"
}
layer {
  name: "inception_4b/5x5_reduce"
  type: "Convolution"
  bottom: "inception_4a/output"
  top: "inception_4b/5x5_reduce"
  param {
    lr_mult: 1
    decay_mult: 1
  }
  param {
    lr_mult: 2
    decay_mult: 0
  }
  convolution_param {
    num_output: 24
    kernel_size: 1
    weight_filler {
      type: "xavier"
      std: 0.2
    }
    bias_filler {
      type: "constant"
      value: 0.2
    }
  }
}
layer {
  name: "inception_4b/relu_5x5_reduce"
  type: "ReLU"
  bottom: "inception_4b/5x5_reduce"
  top: "inception_4b/5x5_reduce"
}
layer {
  name: "inception_4b/5x5"
  type: "Convolution"
  bottom: "inception_4b/5x5_reduce"
  top: "inception_4b/5x5"
  param {
    lr_mult: 1
    decay_mult: 1
  }
  param {
    lr_mult: 2
    decay_mult: 0
  }
  convolution_param {
    num_output: 64
    pad: 2
    kernel_size: 5
    weight_filler {
      type: "xavier"
      std: 0.03
    }
    bias_filler {
      type: "constant"
      value: 0.2
    }
  }
}
layer {
  name: "inception_4b/relu_5x5"
  type: "ReLU"
  bottom: "inception_4b/5x5"
  top: "inception_4b/5x5"
}
layer {
  name: "inception_4b/pool"
  type: "Pooling"
  bottom: "inception_4a/output"
  top: "inception_4b/pool"
  pooling_param {
    pool: MAX
    kernel_size: 3
    stride: 1
    pad: 1
  }
}
layer {
  name: "inception_4b/pool_proj"
  type: "Convolution"
  bottom: "inception_4b/pool"
  top: "inception_4b/pool_proj"
  param {
    lr_mult: 1
    decay_mult: 1
  }
  param {
    lr_mult: 2
    decay_mult: 0
  }
  convolution_param {
    num_output: 64
    kernel_size: 1
    weight_filler {
      type: "xavier"
      std: 0.1
    }
    bias_filler {
      type: "constant"
      value: 0.2
    }
  }
}
layer {
  name: "inception_4b/relu_pool_proj"
  type: "ReLU"
  bottom: "inception_4b/pool_proj"
  top: "inception_4b/pool_proj"
}
layer {
  name: "inception_4b/output"
  type: "Concat"
  bottom: "inception_4b/1x1"
  bottom: "inception_4b/3x3"
  bottom: "inception_4b/5x5"
  bottom: "inception_4b/pool_proj"
  top: "inception_4b/output"
}
layer {
  name: "inception_4c/1x1"
  type: "Convolution"
  bottom: "inception_4b/output"
  top: "inception_4c/1x1"
  param {
    lr_mult: 1
    decay_mult: 1
  }
  param {
    lr_mult: 2
    decay_mult: 0
  }
  convolution_param {
    num_output: 128
    kernel_size: 1
    weight_filler {
      type: "xavier"
      std: 0.03
    }
    bias_filler {
      type: "constant"
      value: 0.2
    }
  }
}
layer {
  name: "inception_4c/relu_1x1"
  type: "ReLU"
  bottom: "inception_4c/1x1"
  top: "inception_4c/1x1"
}
layer {
  name: "inception_4c/3x3_reduce"
  type: "Convolution"
  bottom: "inception_4b/output"
  top: "inception_4c/3x3_reduce"
  param {
    lr_mult: 1
    decay_mult: 1
  }
  param {
    lr_mult: 2
    decay_mult: 0
  }
  convolution_param {
    num_output: 128
    kernel_size: 1
    weight_filler {
      type: "xavier"
      std: 0.09
    }
    bias_filler {
      type: "constant"
      value: 0.2
    }
  }
}
layer {
  name: "inception_4c/relu_3x3_reduce"
  type: "ReLU"
  bottom: "inception_4c/3x3_reduce"
  top: "inception_4c/3x3_reduce"
}
layer {
  name: "inception_4c/3x3"
  type: "Convolution"
  bottom: "inception_4c/3x3_reduce"
  top: "inception_4c/3x3"
  param {
    lr_mult: 1
    decay_mult: 1
  }
  param {
    lr_mult: 2
    decay_mult: 0
  }
  convolution_param {
    num_output: 256
    pad: 1
    kernel_size: 3
    weight_filler {
      type: "xavier"
      std: 0.03
    }
    bias_filler {
      type: "constant"
      value: 0.2
    }
  }
}
layer {
  name: "inception_4c/relu_3x3"
  type: "ReLU"
  bottom: "inception_4c/3x3"
  top: "inception_4c/3x3"
}
layer {
  name: "inception_4c/5x5_reduce"
  type: "Convolution"
  bottom: "inception_4b/output"
  top: "inception_4c/5x5_reduce"
  param {
    lr_mult: 1
    decay_mult: 1
  }
  param {
    lr_mult: 2
    decay_mult: 0
  }
  convolution_param {
    num_output: 24
    kernel_size: 1
    weight_filler {
      type: "xavier"
      std: 0.2
    }
    bias_filler {
      type: "constant"
      value: 0.2
    }
  }
}
layer {
  name: "inception_4c/relu_5x5_reduce"
  type: "ReLU"
  bottom: "inception_4c/5x5_reduce"
  top: "inception_4c/5x5_reduce"
}
layer {
  name: "inception_4c/5x5"
  type: "Convolution"
  bottom: "inception_4c/5x5_reduce"
  top: "inception_4c/5x5"
  param {
    lr_mult: 1
    decay_mult: 1
  }
  param {
    lr_mult: 2
    decay_mult: 0
  }
  convolution_param {
    num_output: 64
    pad: 2
    kernel_size: 5
    weight_filler {
      type: "xavier"
      std: 0.03
    }
    bias_filler {
      type: "constant"
      value: 0.2
    }
  }
}
layer {
  name: "inception_4c/relu_5x5"
  type: "ReLU"
  bottom: "inception_4c/5x5"
  top: "inception_4c/5x5"
}
layer {
  name: "inception_4c/pool"
  type: "Pooling"
  bottom: "inception_4b/output"
  top: "inception_4c/pool"
  pooling_param {
    pool: MAX
    kernel_size: 3
    stride: 1
    pad: 1
  }
}
layer {
  name: "inception_4c/pool_proj"
  type: "Convolution"
  bottom: "inception_4c/pool"
  top: "inception_4c/pool_proj"
  param {
    lr_mult: 1
    decay_mult: 1
  }
  param {
    lr_mult: 2
    decay_mult: 0
  }
  convolution_param {
    num_output: 64
    kernel_size: 1
    weight_filler {
      type: "xavier"
      std: 0.1
    }
    bias_filler {
      type: "constant"
      value: 0.2
    }
  }
}
layer {
  name: "inception_4c/relu_pool_proj"
  type: "ReLU"
  bottom: "inception_4c/pool_proj"
  top: "inception_4c/pool_proj"
}
layer {
  name: "inception_4c/output"
  type: "Concat"
  bottom: "inception_4c/1x1"
  bottom: "inception_4c/3x3"
  bottom: "inception_4c/5x5"
  bottom: "inception_4c/pool_proj"
  top: "inception_4c/output"
}
layer {
  name: "inception_4d/1x1"
  type: "Convolution"
  bottom: "inception_4c/output"
  top: "inception_4d/1x1"
  param {
    lr_mult: 1
    decay_mult: 1
  }
  param {
    lr_mult: 2
    decay_mult: 0
  }
  convolution_param {
    num_output: 112
    kernel_size: 1
    weight_filler {
      type: "xavier"
      std: 0.03
    }
    bias_filler {
      type: "constant"
      value: 0.2
    }
  }
}
layer {
  name: "inception_4d/relu_1x1"
  type: "ReLU"
  bottom: "inception_4d/1x1"
  top: "inception_4d/1x1"
}
layer {
  name: "inception_4d/3x3_reduce"
  type: "Convolution"
  bottom: "inception_4c/output"
  top: "inception_4d/3x3_reduce"
  param {
    lr_mult: 1
    decay_mult: 1
  }
  param {
    lr_mult: 2
    decay_mult: 0
  }
  convolution_param {
    num_output: 144
    kernel_size: 1
    weight_filler {
      type: "xavier"
      std: 0.09
    }
    bias_filler {
      type: "constant"
      value: 0.2
    }
  }
}
layer {
  name: "inception_4d/relu_3x3_reduce"
  type: "ReLU"
  bottom: "inception_4d/3x3_reduce"
  top: "inception_4d/3x3_reduce"
}
layer {
  name: "inception_4d/3x3"
  type: "Convolution"
  bottom: "inception_4d/3x3_reduce"
  top: "inception_4d/3x3"
  param {
    lr_mult: 1
    decay_mult: 1
  }
  param {
    lr_mult: 2
    decay_mult: 0
  }
  convolution_param {
    num_output: 288
    pad: 1
    kernel_size: 3
    weight_filler {
      type: "xavier"
      std: 0.03
    }
    bias_filler {
      type: "constant"
      value: 0.2
    }
  }
}
layer {
  name: "inception_4d/relu_3x3"
  type: "ReLU"
  bottom: "inception_4d/3x3"
  top: "inception_4d/3x3"
}
layer {
  name: "inception_4d/5x5_reduce"
  type: "Convolution"
  bottom: "inception_4c/output"
  top: "inception_4d/5x5_reduce"
  param {
    lr_mult: 1
    decay_mult: 1
  }
  param {
    lr_mult: 2
    decay_mult: 0
  }
  convolution_param {
    num_output: 32
    kernel_size: 1
    weight_filler {
      type: "xavier"
      std: 0.2
    }
    bias_filler {
      type: "constant"
      value: 0.2
    }
  }
}
layer {
  name: "inception_4d/relu_5x5_reduce"
  type: "ReLU"
  bottom: "inception_4d/5x5_reduce"
  top: "inception_4d/5x5_reduce"
}
layer {
  name: "inception_4d/5x5"
  type: "Convolution"
  bottom: "inception_4d/5x5_reduce"
  top: "inception_4d/5x5"
  param {
    lr_mult: 1
    decay_mult: 1
  }
  param {
    lr_mult: 2
    decay_mult: 0
  }
  convolution_param {
    num_output: 64
    pad: 2
    kernel_size: 5
    weight_filler {
      type: "xavier"
      std: 0.03
    }
    bias_filler {
      type: "constant"
      value: 0.2
    }
  }
}
layer {
  name: "inception_4d/relu_5x5"
  type: "ReLU"
  bottom: "inception_4d/5x5"
  top: "inception_4d/5x5"
}
layer {
  name: "inception_4d/pool"
  type: "Pooling"
  bottom: "inception_4c/output"
  top: "inception_4d/pool"
  pooling_param {
    pool: MAX
    kernel_size: 3
    stride: 1
    pad: 1
  }
}
layer {
  name: "inception_4d/pool_proj"
  type: "Convolution"
  bottom: "inception_4d/pool"
  top: "inception_4d/pool_proj"
  param {
    lr_mult: 1
    decay_mult: 1
  }
  param {
    lr_mult: 2
    decay_mult: 0
  }
  convolution_param {
    num_output: 64
    kernel_size: 1
    weight_filler {
      type: "xavier"
      std: 0.1
    }
    bias_filler {
      type: "constant"
      value: 0.2
    }
  }
}
layer {
  name: "inception_4d/relu_pool_proj"
  type: "ReLU"
  bottom: "inception_4d/pool_proj"
  top: "inception_4d/pool_proj"
}
layer {
  name: "inception_4d/output"
  type: "Concat"
  bottom: "inception_4d/1x1"
  bottom: "inception_4d/3x3"
  bottom: "inception_4d/5x5"
  bottom: "inception_4d/pool_proj"
  top: "inception_4d/output"
}
layer {
  name: "loss2/ave_pool"
  type: "Pooling"
  bottom: "inception_4d/output"
  top: "loss2/ave_pool"
  pooling_param {
    pool: AVE
    kernel_size: 5
    stride: 3
  }
}
layer {
  name: "loss2/conv"
  type: "Convolution"
  bottom: "loss2/ave_pool"
  top: "loss2/conv"
  param {
    lr_mult: 1
    decay_mult: 1
  }
  param {
    lr_mult: 2
    decay_mult: 0
  }
  convolution_param {
    num_output: 128
    kernel_size: 1
    weight_filler {
      type: "xavier"
      std: 0.08
    }
    bias_filler {
      type: "constant"
      value: 0.2
    }
  }
}
layer {
  name: "loss2/relu_conv"
  type: "ReLU"
  bottom: "loss2/conv"
  top: "loss2/conv"
}
layer {
  name: "loss2/fc"
  type: "InnerProduct"
  bottom: "loss2/conv"
  top: "loss2/fc"
  param {
    lr_mult: 1
    decay_mult: 1
  }
  param {
    lr_mult: 2
    decay_mult: 0
  }
  inner_product_param {
    num_output: 1024
    weight_filler {
      type: "xavier"
      std: 0.02
    }
    bias_filler {
      type: "constant"
      value: 0.2
    }
  }
}
layer {
  name: "loss2/relu_fc"
  type: "ReLU"
  bottom: "loss2/fc"
  top: "loss2/fc"
}
layer {
  name: "loss2/drop_fc"
  type: "Dropout"
  bottom: "loss2/fc"
  top: "loss2/fc"
  dropout_param {
    dropout_ratio: 0.7
  }
}
layer {
  name: "loss2/classifier_plantvillage"
  type: "InnerProduct"
  bottom: "loss2/fc"
  top: "loss2/classifier_plantvillage"
  param {
    lr_mult: 1
    decay_mult: 1
  }
  param {
    lr_mult: 2
    decay_mult: 0
  }
  inner_product_param {
    num_output: 38
    weight_filler {
      type: "xavier"
      std: 0.0009765625
    }
    bias_filler {
      type: "constant"
      value: 0
    }
  }
}
layer {
  name: "inception_4e/1x1"
  type: "Convolution"
  bottom: "inception_4d/output"
  top: "inception_4e/1x1"
  param {
    lr_mult: 1
    decay_mult: 1
  }
  param {
    lr_mult: 2
    decay_mult: 0
  }
  convolution_param {
    num_output: 256
    kernel_size: 1
    weight_filler {
      type: "xavier"
      std: 0.03
    }
    bias_filler {
      type: "constant"
      value: 0.2
    }
  }
}
layer {
  name: "inception_4e/relu_1x1"
  type: "ReLU"
  bottom: "inception_4e/1x1"
  top: "inception_4e/1x1"
}
layer {
  name: "inception_4e/3x3_reduce"
  type: "Convolution"
  bottom: "inception_4d/output"
  top: "inception_4e/3x3_reduce"
  param {
    lr_mult: 1
    decay_mult: 1
  }
  param {
    lr_mult: 2
    decay_mult: 0
  }
  convolution_param {
    num_output: 160
    kernel_size: 1
    weight_filler {
      type: "xavier"
      std: 0.09
    }
    bias_filler {
      type: "constant"
      value: 0.2
    }
  }
}
layer {
  name: "inception_4e/relu_3x3_reduce"
  type: "ReLU"
  bottom: "inception_4e/3x3_reduce"
  top: "inception_4e/3x3_reduce"
}
layer {
  name: "inception_4e/3x3"
  type: "Convolution"
  bottom: "inception_4e/3x3_reduce"
  top: "inception_4e/3x3"
  param {
    lr_mult: 1
    decay_mult: 1
  }
  param {
    lr_mult: 2
    decay_mult: 0
  }
  convolution_param {
    num_output: 320
    pad: 1
    kernel_size: 3
    weight_filler {
      type: "xavier"
      std: 0.03
    }
    bias_filler {
      type: "constant"
      value: 0.2
    }
  }
}
layer {
  name: "inception_4e/relu_3x3"
  type: "ReLU"
  bottom: "inception_4e/3x3"
  top: "inception_4e/3x3"
}
layer {
  name: "inception_4e/5x5_reduce"
  type: "Convolution"
  bottom: "inception_4d/output"
  top: "inception_4e/5x5_reduce"
  param {
    lr_mult: 1
    decay_mult: 1
  }
  param {
    lr_mult: 2
    decay_mult: 0
  }
  convolution_param {
    num_output: 32
    kernel_size: 1
    weight_filler {
      type: "xavier"
      std: 0.2
    }
    bias_filler {
      type: "constant"
      value: 0.2
    }
  }
}
layer {
  name: "inception_4e/relu_5x5_reduce"
  type: "ReLU"
  bottom: "inception_4e/5x5_reduce"
  top: "inception_4e/5x5_reduce"
}
layer {
  name: "inception_4e/5x5"
  type: "Convolution"
  bottom: "inception_4e/5x5_reduce"
  top: "inception_4e/5x5"
  p
I0403 15:59:07.478461 15069 layer_factory.hpp:77] Creating layer data
I0403 15:59:07.479184 15069 net.cpp:91] Creating Layer data
I0403 15:59:07.479221 15069 net.cpp:399] data -> data
I0403 15:59:07.479285 15069 net.cpp:399] data -> label
I0403 15:59:07.479331 15069 data_transformer.cpp:25] Loading mean file from: /home/mohanty/data/final_dataset/lmdb/color-80-20/mean.binaryproto
I0403 15:59:07.482491 15071 db_lmdb.cpp:38] Opened lmdb /home/mohanty/data/final_dataset/lmdb/color-80-20/test_db
I0403 15:59:07.495226 15069 data_layer.cpp:41] output data size: 24,3,224,224
I0403 15:59:07.526907 15069 net.cpp:141] Setting up data
I0403 15:59:07.527001 15069 net.cpp:148] Top shape: 24 3 224 224 (3612672)
I0403 15:59:07.527029 15069 net.cpp:148] Top shape: 24 (24)
I0403 15:59:07.527047 15069 net.cpp:156] Memory required for data: 14450784
I0403 15:59:07.527081 15069 layer_factory.hpp:77] Creating layer label_data_1_split
I0403 15:59:07.527114 15069 net.cpp:91] Creating Layer label_data_1_split
I0403 15:59:07.527143 15069 net.cpp:425] label_data_1_split <- label
I0403 15:59:07.527181 15069 net.cpp:399] label_data_1_split -> label_data_1_split_0
I0403 15:59:07.527215 15069 net.cpp:399] label_data_1_split -> label_data_1_split_1
I0403 15:59:07.527241 15069 net.cpp:399] label_data_1_split -> label_data_1_split_2
I0403 15:59:07.527267 15069 net.cpp:399] label_data_1_split -> label_data_1_split_3
I0403 15:59:07.527292 15069 net.cpp:399] label_data_1_split -> label_data_1_split_4
I0403 15:59:07.527317 15069 net.cpp:399] label_data_1_split -> label_data_1_split_5
I0403 15:59:07.527340 15069 net.cpp:399] label_data_1_split -> label_data_1_split_6
I0403 15:59:07.527364 15069 net.cpp:399] label_data_1_split -> label_data_1_split_7
I0403 15:59:07.527390 15069 net.cpp:399] label_data_1_split -> label_data_1_split_8
I0403 15:59:07.527413 15069 net.cpp:399] label_data_1_split -> label_data_1_split_9
I0403 15:59:07.527552 15069 net.cpp:141] Setting up label_data_1_split
I0403 15:59:07.527582 15069 net.cpp:148] Top shape: 24 (24)
I0403 15:59:07.527603 15069 net.cpp:148] Top shape: 24 (24)
I0403 15:59:07.527621 15069 net.cpp:148] Top shape: 24 (24)
I0403 15:59:07.527640 15069 net.cpp:148] Top shape: 24 (24)
I0403 15:59:07.527658 15069 net.cpp:148] Top shape: 24 (24)
I0403 15:59:07.527676 15069 net.cpp:148] Top shape: 24 (24)
I0403 15:59:07.527695 15069 net.cpp:148] Top shape: 24 (24)
I0403 15:59:07.527714 15069 net.cpp:148] Top shape: 24 (24)
I0403 15:59:07.527732 15069 net.cpp:148] Top shape: 24 (24)
I0403 15:59:07.527750 15069 net.cpp:148] Top shape: 24 (24)
I0403 15:59:07.527799 15069 net.cpp:156] Memory required for data: 14451744
I0403 15:59:07.527818 15069 layer_factory.hpp:77] Creating layer conv1/7x7_s2
I0403 15:59:07.527858 15069 net.cpp:91] Creating Layer conv1/7x7_s2
I0403 15:59:07.527881 15069 net.cpp:425] conv1/7x7_s2 <- data
I0403 15:59:07.527904 15069 net.cpp:399] conv1/7x7_s2 -> conv1/7x7_s2
I0403 15:59:07.694847 15069 net.cpp:141] Setting up conv1/7x7_s2
I0403 15:59:07.694943 15069 net.cpp:148] Top shape: 24 64 112 112 (19267584)
I0403 15:59:07.694967 15069 net.cpp:156] Memory required for data: 91522080
I0403 15:59:07.695003 15069 layer_factory.hpp:77] Creating layer conv1/relu_7x7
I0403 15:59:07.695036 15069 net.cpp:91] Creating Layer conv1/relu_7x7
I0403 15:59:07.695060 15069 net.cpp:425] conv1/relu_7x7 <- conv1/7x7_s2
I0403 15:59:07.695083 15069 net.cpp:386] conv1/relu_7x7 -> conv1/7x7_s2 (in-place)
I0403 15:59:07.695394 15069 net.cpp:141] Setting up conv1/relu_7x7
I0403 15:59:07.695428 15069 net.cpp:148] Top shape: 24 64 112 112 (19267584)
I0403 15:59:07.695446 15069 net.cpp:156] Memory required for data: 168592416
I0403 15:59:07.695464 15069 layer_factory.hpp:77] Creating layer pool1/3x3_s2
I0403 15:59:07.695495 15069 net.cpp:91] Creating Layer pool1/3x3_s2
I0403 15:59:07.695518 15069 net.cpp:425] pool1/3x3_s2 <- conv1/7x7_s2
I0403 15:59:07.695540 15069 net.cpp:399] pool1/3x3_s2 -> pool1/3x3_s2
I0403 15:59:07.695628 15069 net.cpp:141] Setting up pool1/3x3_s2
I0403 15:59:07.695658 15069 net.cpp:148] Top shape: 24 64 56 56 (4816896)
I0403 15:59:07.695677 15069 net.cpp:156] Memory required for data: 187860000
I0403 15:59:07.695694 15069 layer_factory.hpp:77] Creating layer pool1/norm1
I0403 15:59:07.695724 15069 net.cpp:91] Creating Layer pool1/norm1
I0403 15:59:07.695746 15069 net.cpp:425] pool1/norm1 <- pool1/3x3_s2
I0403 15:59:07.695768 15069 net.cpp:399] pool1/norm1 -> pool1/norm1
I0403 15:59:07.696177 15069 net.cpp:141] Setting up pool1/norm1
I0403 15:59:07.696211 15069 net.cpp:148] Top shape: 24 64 56 56 (4816896)
I0403 15:59:07.696230 15069 net.cpp:156] Memory required for data: 207127584
I0403 15:59:07.696249 15069 layer_factory.hpp:77] Creating layer conv2/3x3_reduce
I0403 15:59:07.696280 15069 net.cpp:91] Creating Layer conv2/3x3_reduce
I0403 15:59:07.696300 15069 net.cpp:425] conv2/3x3_reduce <- pool1/norm1
I0403 15:59:07.696322 15069 net.cpp:399] conv2/3x3_reduce -> conv2/3x3_reduce
I0403 15:59:07.697901 15069 net.cpp:141] Setting up conv2/3x3_reduce
I0403 15:59:07.697937 15069 net.cpp:148] Top shape: 24 64 56 56 (4816896)
I0403 15:59:07.697957 15069 net.cpp:156] Memory required for data: 226395168
I0403 15:59:07.697983 15069 layer_factory.hpp:77] Creating layer conv2/relu_3x3_reduce
I0403 15:59:07.698005 15069 net.cpp:91] Creating Layer conv2/relu_3x3_reduce
I0403 15:59:07.698025 15069 net.cpp:425] conv2/relu_3x3_reduce <- conv2/3x3_reduce
I0403 15:59:07.698045 15069 net.cpp:386] conv2/relu_3x3_reduce -> conv2/3x3_reduce (in-place)
I0403 15:59:07.698396 15069 net.cpp:141] Setting up conv2/relu_3x3_reduce
I0403 15:59:07.698431 15069 net.cpp:148] Top shape: 24 64 56 56 (4816896)
I0403 15:59:07.698449 15069 net.cpp:156] Memory required for data: 245662752
I0403 15:59:07.698468 15069 layer_factory.hpp:77] Creating layer conv2/3x3
I0403 15:59:07.698494 15069 net.cpp:91] Creating Layer conv2/3x3
I0403 15:59:07.698515 15069 net.cpp:425] conv2/3x3 <- conv2/3x3_reduce
I0403 15:59:07.698539 15069 net.cpp:399] conv2/3x3 -> conv2/3x3
I0403 15:59:07.701295 15069 net.cpp:141] Setting up conv2/3x3
I0403 15:59:07.701333 15069 net.cpp:148] Top shape: 24 192 56 56 (14450688)
I0403 15:59:07.701354 15069 net.cpp:156] Memory required for data: 303465504
I0403 15:59:07.701378 15069 layer_factory.hpp:77] Creating layer conv2/relu_3x3
I0403 15:59:07.701402 15069 net.cpp:91] Creating Layer conv2/relu_3x3
I0403 15:59:07.701421 15069 net.cpp:425] conv2/relu_3x3 <- conv2/3x3
I0403 15:59:07.701442 15069 net.cpp:386] conv2/relu_3x3 -> conv2/3x3 (in-place)
I0403 15:59:07.701640 15069 net.cpp:141] Setting up conv2/relu_3x3
I0403 15:59:07.701673 15069 net.cpp:148] Top shape: 24 192 56 56 (14450688)
I0403 15:59:07.701731 15069 net.cpp:156] Memory required for data: 361268256
I0403 15:59:07.701751 15069 layer_factory.hpp:77] Creating layer conv2/norm2
I0403 15:59:07.701773 15069 net.cpp:91] Creating Layer conv2/norm2
I0403 15:59:07.701814 15069 net.cpp:425] conv2/norm2 <- conv2/3x3
I0403 15:59:07.701843 15069 net.cpp:399] conv2/norm2 -> conv2/norm2
I0403 15:59:07.702200 15069 net.cpp:141] Setting up conv2/norm2
I0403 15:59:07.702234 15069 net.cpp:148] Top shape: 24 192 56 56 (14450688)
I0403 15:59:07.702253 15069 net.cpp:156] Memory required for data: 419071008
I0403 15:59:07.702271 15069 layer_factory.hpp:77] Creating layer pool2/3x3_s2
I0403 15:59:07.702293 15069 net.cpp:91] Creating Layer pool2/3x3_s2
I0403 15:59:07.702313 15069 net.cpp:425] pool2/3x3_s2 <- conv2/norm2
I0403 15:59:07.702335 15069 net.cpp:399] pool2/3x3_s2 -> pool2/3x3_s2
I0403 15:59:07.702443 15069 net.cpp:141] Setting up pool2/3x3_s2
I0403 15:59:07.702476 15069 net.cpp:148] Top shape: 24 192 28 28 (3612672)
I0403 15:59:07.702493 15069 net.cpp:156] Memory required for data: 433521696
I0403 15:59:07.702512 15069 layer_factory.hpp:77] Creating layer pool2/3x3_s2_pool2/3x3_s2_0_split
I0403 15:59:07.702533 15069 net.cpp:91] Creating Layer pool2/3x3_s2_pool2/3x3_s2_0_split
I0403 15:59:07.702551 15069 net.cpp:425] pool2/3x3_s2_pool2/3x3_s2_0_split <- pool2/3x3_s2
I0403 15:59:07.702574 15069 net.cpp:399] pool2/3x3_s2_pool2/3x3_s2_0_split -> pool2/3x3_s2_pool2/3x3_s2_0_split_0
I0403 15:59:07.702597 15069 net.cpp:399] pool2/3x3_s2_pool2/3x3_s2_0_split -> pool2/3x3_s2_pool2/3x3_s2_0_split_1
I0403 15:59:07.702621 15069 net.cpp:399] pool2/3x3_s2_pool2/3x3_s2_0_split -> pool2/3x3_s2_pool2/3x3_s2_0_split_2
I0403 15:59:07.702646 15069 net.cpp:399] pool2/3x3_s2_pool2/3x3_s2_0_split -> pool2/3x3_s2_pool2/3x3_s2_0_split_3
I0403 15:59:07.702725 15069 net.cpp:141] Setting up pool2/3x3_s2_pool2/3x3_s2_0_split
I0403 15:59:07.702754 15069 net.cpp:148] Top shape: 24 192 28 28 (3612672)
I0403 15:59:07.702775 15069 net.cpp:148] Top shape: 24 192 28 28 (3612672)
I0403 15:59:07.702793 15069 net.cpp:148] Top shape: 24 192 28 28 (3612672)
I0403 15:59:07.702811 15069 net.cpp:148] Top shape: 24 192 28 28 (3612672)
I0403 15:59:07.702829 15069 net.cpp:156] Memory required for data: 491324448
I0403 15:59:07.702847 15069 layer_factory.hpp:77] Creating layer inception_3a/1x1
I0403 15:59:07.702872 15069 net.cpp:91] Creating Layer inception_3a/1x1
I0403 15:59:07.702893 15069 net.cpp:425] inception_3a/1x1 <- pool2/3x3_s2_pool2/3x3_s2_0_split_0
I0403 15:59:07.702916 15069 net.cpp:399] inception_3a/1x1 -> inception_3a/1x1
I0403 15:59:07.704741 15069 net.cpp:141] Setting up inception_3a/1x1
I0403 15:59:07.704778 15069 net.cpp:148] Top shape: 24 64 28 28 (1204224)
I0403 15:59:07.704798 15069 net.cpp:156] Memory required for data: 496141344
I0403 15:59:07.704821 15069 layer_factory.hpp:77] Creating layer inception_3a/relu_1x1
I0403 15:59:07.704843 15069 net.cpp:91] Creating Layer inception_3a/relu_1x1
I0403 15:59:07.704864 15069 net.cpp:425] inception_3a/relu_1x1 <- inception_3a/1x1
I0403 15:59:07.704885 15069 net.cpp:386] inception_3a/relu_1x1 -> inception_3a/1x1 (in-place)
I0403 15:59:07.705083 15069 net.cpp:141] Setting up inception_3a/relu_1x1
I0403 15:59:07.705122 15069 net.cpp:148] Top shape: 24 64 28 28 (1204224)
I0403 15:59:07.705142 15069 net.cpp:156] Memory required for data: 500958240
I0403 15:59:07.705159 15069 layer_factory.hpp:77] Creating layer inception_3a/3x3_reduce
I0403 15:59:07.705184 15069 net.cpp:91] Creating Layer inception_3a/3x3_reduce
I0403 15:59:07.705206 15069 net.cpp:425] inception_3a/3x3_reduce <- pool2/3x3_s2_pool2/3x3_s2_0_split_1
I0403 15:59:07.705229 15069 net.cpp:399] inception_3a/3x3_reduce -> inception_3a/3x3_reduce
I0403 15:59:07.707165 15069 net.cpp:141] Setting up inception_3a/3x3_reduce
I0403 15:59:07.707201 15069 net.cpp:148] Top shape: 24 96 28 28 (1806336)
I0403 15:59:07.707221 15069 net.cpp:156] Memory required for data: 508183584
I0403 15:59:07.707248 15069 layer_factory.hpp:77] Creating layer inception_3a/relu_3x3_reduce
I0403 15:59:07.707293 15069 net.cpp:91] Creating Layer inception_3a/relu_3x3_reduce
I0403 15:59:07.707315 15069 net.cpp:425] inception_3a/relu_3x3_reduce <- inception_3a/3x3_reduce
I0403 15:59:07.707336 15069 net.cpp:386] inception_3a/relu_3x3_reduce -> inception_3a/3x3_reduce (in-place)
I0403 15:59:07.707546 15069 net.cpp:141] Setting up inception_3a/relu_3x3_reduce
I0403 15:59:07.707577 15069 net.cpp:148] Top shape: 24 96 28 28 (1806336)
I0403 15:59:07.707597 15069 net.cpp:156] Memory required for data: 515408928
I0403 15:59:07.707614 15069 layer_factory.hpp:77] Creating layer inception_3a/3x3
I0403 15:59:07.707640 15069 net.cpp:91] Creating Layer inception_3a/3x3
I0403 15:59:07.707664 15069 net.cpp:425] inception_3a/3x3 <- inception_3a/3x3_reduce
I0403 15:59:07.707690 15069 net.cpp:399] inception_3a/3x3 -> inception_3a/3x3
I0403 15:59:07.709715 15069 net.cpp:141] Setting up inception_3a/3x3
I0403 15:59:07.709753 15069 net.cpp:148] Top shape: 24 128 28 28 (2408448)
I0403 15:59:07.709774 15069 net.cpp:156] Memory required for data: 525042720
I0403 15:59:07.709796 15069 layer_factory.hpp:77] Creating layer inception_3a/relu_3x3
I0403 15:59:07.709820 15069 net.cpp:91] Creating Layer inception_3a/relu_3x3
I0403 15:59:07.709838 15069 net.cpp:425] inception_3a/relu_3x3 <- inception_3a/3x3
I0403 15:59:07.709863 15069 net.cpp:386] inception_3a/relu_3x3 -> inception_3a/3x3 (in-place)
I0403 15:59:07.710201 15069 net.cpp:141] Setting up inception_3a/relu_3x3
I0403 15:59:07.710237 15069 net.cpp:148] Top shape: 24 128 28 28 (2408448)
I0403 15:59:07.710258 15069 net.cpp:156] Memory required for data: 534676512
I0403 15:59:07.710275 15069 layer_factory.hpp:77] Creating layer inception_3a/5x5_reduce
I0403 15:59:07.710304 15069 net.cpp:91] Creating Layer inception_3a/5x5_reduce
I0403 15:59:07.710325 15069 net.cpp:425] inception_3a/5x5_reduce <- pool2/3x3_s2_pool2/3x3_s2_0_split_2
I0403 15:59:07.710348 15069 net.cpp:399] inception_3a/5x5_reduce -> inception_3a/5x5_reduce
I0403 15:59:07.711518 15069 net.cpp:141] Setting up inception_3a/5x5_reduce
I0403 15:59:07.711555 15069 net.cpp:148] Top shape: 24 16 28 28 (301056)
I0403 15:59:07.711576 15069 net.cpp:156] Memory required for data: 535880736
I0403 15:59:07.711599 15069 layer_factory.hpp:77] Creating layer inception_3a/relu_5x5_reduce
I0403 15:59:07.711622 15069 net.cpp:91] Creating Layer inception_3a/relu_5x5_reduce
I0403 15:59:07.711642 15069 net.cpp:425] inception_3a/relu_5x5_reduce <- inception_3a/5x5_reduce
I0403 15:59:07.711670 15069 net.cpp:386] inception_3a/relu_5x5_reduce -> inception_3a/5x5_reduce (in-place)
I0403 15:59:07.712021 15069 net.cpp:141] Setting up inception_3a/relu_5x5_reduce
I0403 15:59:07.712054 15069 net.cpp:148] Top shape: 24 16 28 28 (301056)
I0403 15:59:07.712074 15069 net.cpp:156] Memory required for data: 537084960
I0403 15:59:07.712091 15069 layer_factory.hpp:77] Creating layer inception_3a/5x5
I0403 15:59:07.712137 15069 net.cpp:91] Creating Layer inception_3a/5x5
I0403 15:59:07.712162 15069 net.cpp:425] inception_3a/5x5 <- inception_3a/5x5_reduce
I0403 15:59:07.712188 15069 net.cpp:399] inception_3a/5x5 -> inception_3a/5x5
I0403 15:59:07.713419 15069 net.cpp:141] Setting up inception_3a/5x5
I0403 15:59:07.713454 15069 net.cpp:148] Top shape: 24 32 28 28 (602112)
I0403 15:59:07.713472 15069 net.cpp:156] Memory required for data: 539493408
I0403 15:59:07.713495 15069 layer_factory.hpp:77] Creating layer inception_3a/relu_5x5
I0403 15:59:07.713526 15069 net.cpp:91] Creating Layer inception_3a/relu_5x5
I0403 15:59:07.713546 15069 net.cpp:425] inception_3a/relu_5x5 <- inception_3a/5x5
I0403 15:59:07.713569 15069 net.cpp:386] inception_3a/relu_5x5 -> inception_3a/5x5 (in-place)
I0403 15:59:07.713783 15069 net.cpp:141] Setting up inception_3a/relu_5x5
I0403 15:59:07.713814 15069 net.cpp:148] Top shape: 24 32 28 28 (602112)
I0403 15:59:07.713831 15069 net.cpp:156] Memory required for data: 541901856
I0403 15:59:07.713850 15069 layer_factory.hpp:77] Creating layer inception_3a/pool
I0403 15:59:07.713871 15069 net.cpp:91] Creating Layer inception_3a/pool
I0403 15:59:07.713891 15069 net.cpp:425] inception_3a/pool <- pool2/3x3_s2_pool2/3x3_s2_0_split_3
I0403 15:59:07.713937 15069 net.cpp:399] inception_3a/pool -> inception_3a/pool
I0403 15:59:07.714043 15069 net.cpp:141] Setting up inception_3a/pool
I0403 15:59:07.714120 15069 net.cpp:148] Top shape: 24 192 28 28 (3612672)
I0403 15:59:07.714170 15069 net.cpp:156] Memory required for data: 556352544
I0403 15:59:07.714195 15069 layer_factory.hpp:77] Creating layer inception_3a/pool_proj
I0403 15:59:07.714223 15069 net.cpp:91] Creating Layer inception_3a/pool_proj
I0403 15:59:07.714246 15069 net.cpp:425] inception_3a/pool_proj <- inception_3a/pool
I0403 15:59:07.714269 15069 net.cpp:399] inception_3a/pool_proj -> inception_3a/pool_proj
I0403 15:59:07.715446 15069 net.cpp:141] Setting up inception_3a/pool_proj
I0403 15:59:07.715481 15069 net.cpp:148] Top shape: 24 32 28 28 (602112)
I0403 15:59:07.715500 15069 net.cpp:156] Memory required for data: 558760992
I0403 15:59:07.715530 15069 layer_factory.hpp:77] Creating layer inception_3a/relu_pool_proj
I0403 15:59:07.715555 15069 net.cpp:91] Creating Layer inception_3a/relu_pool_proj
I0403 15:59:07.715575 15069 net.cpp:425] inception_3a/relu_pool_proj <- inception_3a/pool_proj
I0403 15:59:07.715600 15069 net.cpp:386] inception_3a/relu_pool_proj -> inception_3a/pool_proj (in-place)
I0403 15:59:07.715935 15069 net.cpp:141] Setting up inception_3a/relu_pool_proj
I0403 15:59:07.715971 15069 net.cpp:148] Top shape: 24 32 28 28 (602112)
I0403 15:59:07.715991 15069 net.cpp:156] Memory required for data: 561169440
I0403 15:59:07.716009 15069 layer_factory.hpp:77] Creating layer inception_3a/output
I0403 15:59:07.716032 15069 net.cpp:91] Creating Layer inception_3a/output
I0403 15:59:07.716051 15069 net.cpp:425] inception_3a/output <- inception_3a/1x1
I0403 15:59:07.716073 15069 net.cpp:425] inception_3a/output <- inception_3a/3x3
I0403 15:59:07.716092 15069 net.cpp:425] inception_3a/output <- inception_3a/5x5
I0403 15:59:07.716120 15069 net.cpp:425] inception_3a/output <- inception_3a/pool_proj
I0403 15:59:07.716142 15069 net.cpp:399] inception_3a/output -> inception_3a/output
I0403 15:59:07.716200 15069 net.cpp:141] Setting up inception_3a/output
I0403 15:59:07.716229 15069 net.cpp:148] Top shape: 24 256 28 28 (4816896)
I0403 15:59:07.716248 15069 net.cpp:156] Memory required for data: 580437024
I0403 15:59:07.716265 15069 layer_factory.hpp:77] Creating layer inception_3a/output_inception_3a/output_0_split
I0403 15:59:07.716286 15069 net.cpp:91] Creating Layer inception_3a/output_inception_3a/output_0_split
I0403 15:59:07.716305 15069 net.cpp:425] inception_3a/output_inception_3a/output_0_split <- inception_3a/output
I0403 15:59:07.716330 15069 net.cpp:399] inception_3a/output_inception_3a/output_0_split -> inception_3a/output_inception_3a/output_0_split_0
I0403 15:59:07.716356 15069 net.cpp:399] inception_3a/output_inception_3a/output_0_split -> inception_3a/output_inception_3a/output_0_split_1
I0403 15:59:07.716387 15069 net.cpp:399] inception_3a/output_inception_3a/output_0_split -> inception_3a/output_inception_3a/output_0_split_2
I0403 15:59:07.716414 15069 net.cpp:399] inception_3a/output_inception_3a/output_0_split -> inception_3a/output_inception_3a/output_0_split_3
I0403 15:59:07.716529 15069 net.cpp:141] Setting up inception_3a/output_inception_3a/output_0_split
I0403 15:59:07.716572 15069 net.cpp:148] Top shape: 24 256 28 28 (4816896)
I0403 15:59:07.716598 15069 net.cpp:148] Top shape: 24 256 28 28 (4816896)
I0403 15:59:07.716619 15069 net.cpp:148] Top shape: 24 256 28 28 (4816896)
I0403 15:59:07.716637 15069 net.cpp:148] Top shape: 24 256 28 28 (4816896)
I0403 15:59:07.716655 15069 net.cpp:156] Memory required for data: 657507360
I0403 15:59:07.716673 15069 layer_factory.hpp:77] Creating layer inception_3b/1x1
I0403 15:59:07.716697 15069 net.cpp:91] Creating Layer inception_3b/1x1
I0403 15:59:07.716718 15069 net.cpp:425] inception_3b/1x1 <- inception_3a/output_inception_3a/output_0_split_0
I0403 15:59:07.716743 15069 net.cpp:399] inception_3b/1x1 -> inception_3b/1x1
I0403 15:59:07.718173 15069 net.cpp:141] Setting up inception_3b/1x1
I0403 15:59:07.718225 15069 net.cpp:148] Top shape: 24 128 28 28 (2408448)
I0403 15:59:07.718245 15069 net.cpp:156] Memory required for data: 667141152
I0403 15:59:07.718267 15069 layer_factory.hpp:77] Creating layer inception_3b/relu_1x1
I0403 15:59:07.718292 15069 net.cpp:91] Creating Layer inception_3b/relu_1x1
I0403 15:59:07.718312 15069 net.cpp:425] inception_3b/relu_1x1 <- inception_3b/1x1
I0403 15:59:07.718334 15069 net.cpp:386] inception_3b/relu_1x1 -> inception_3b/1x1 (in-place)
I0403 15:59:07.718551 15069 net.cpp:141] Setting up inception_3b/relu_1x1
I0403 15:59:07.718585 15069 net.cpp:148] Top shape: 24 128 28 28 (2408448)
I0403 15:59:07.718605 15069 net.cpp:156] Memory required for data: 676774944
I0403 15:59:07.718624 15069 layer_factory.hpp:77] Creating layer inception_3b/3x3_reduce
I0403 15:59:07.718652 15069 net.cpp:91] Creating Layer inception_3b/3x3_reduce
I0403 15:59:07.718674 15069 net.cpp:425] inception_3b/3x3_reduce <- inception_3a/output_inception_3a/output_0_split_1
I0403 15:59:07.718698 15069 net.cpp:399] inception_3b/3x3_reduce -> inception_3b/3x3_reduce
I0403 15:59:07.720077 15069 net.cpp:141] Setting up inception_3b/3x3_reduce
I0403 15:59:07.720118 15069 net.cpp:148] Top shape: 24 128 28 28 (2408448)
I0403 15:59:07.720139 15069 net.cpp:156] Memory required for data: 686408736
I0403 15:59:07.720167 15069 layer_factory.hpp:77] Creating layer inception_3b/relu_3x3_reduce
I0403 15:59:07.720192 15069 net.cpp:91] Creating Layer inception_3b/relu_3x3_reduce
I0403 15:59:07.720214 15069 net.cpp:425] inception_3b/relu_3x3_reduce <- inception_3b/3x3_reduce
I0403 15:59:07.720235 15069 net.cpp:386] inception_3b/relu_3x3_reduce -> inception_3b/3x3_reduce (in-place)
I0403 15:59:07.720445 15069 net.cpp:141] Setting up inception_3b/relu_3x3_reduce
I0403 15:59:07.720479 15069 net.cpp:148] Top shape: 24 128 28 28 (2408448)
I0403 15:59:07.720499 15069 net.cpp:156] Memory required for data: 696042528
I0403 15:59:07.720517 15069 layer_factory.hpp:77] Creating layer inception_3b/3x3
I0403 15:59:07.720547 15069 net.cpp:91] Creating Layer inception_3b/3x3
I0403 15:59:07.720571 15069 net.cpp:425] inception_3b/3x3 <- inception_3b/3x3_reduce
I0403 15:59:07.720599 15069 net.cpp:399] inception_3b/3x3 -> inception_3b/3x3
I0403 15:59:07.724154 15069 net.cpp:141] Setting up inception_3b/3x3
I0403 15:59:07.724194 15069 net.cpp:148] Top shape: 24 192 28 28 (3612672)
I0403 15:59:07.724215 15069 net.cpp:156] Memory required for data: 710493216
I0403 15:59:07.724237 15069 layer_factory.hpp:77] Creating layer inception_3b/relu_3x3
I0403 15:59:07.724261 15069 net.cpp:91] Creating Layer inception_3b/relu_3x3
I0403 15:59:07.724280 15069 net.cpp:425] inception_3b/relu_3x3 <- inception_3b/3x3
I0403 15:59:07.724304 15069 net.cpp:386] inception_3b/relu_3x3 -> inception_3b/3x3 (in-place)
I0403 15:59:07.724635 15069 net.cpp:141] Setting up inception_3b/relu_3x3
I0403 15:59:07.724671 15069 net.cpp:148] Top shape: 24 192 28 28 (3612672)
I0403 15:59:07.724691 15069 net.cpp:156] Memory required for data: 724943904
I0403 15:59:07.724709 15069 layer_factory.hpp:77] Creating layer inception_3b/5x5_reduce
I0403 15:59:07.724738 15069 net.cpp:91] Creating Layer inception_3b/5x5_reduce
I0403 15:59:07.724761 15069 net.cpp:425] inception_3b/5x5_reduce <- inception_3a/output_inception_3a/output_0_split_2
I0403 15:59:07.724786 15069 net.cpp:399] inception_3b/5x5_reduce -> inception_3b/5x5_reduce
I0403 15:59:07.725986 15069 net.cpp:141] Setting up inception_3b/5x5_reduce
I0403 15:59:07.726022 15069 net.cpp:148] Top shape: 24 32 28 28 (602112)
I0403 15:59:07.726042 15069 net.cpp:156] Memory required for data: 727352352
I0403 15:59:07.726063 15069 layer_factory.hpp:77] Creating layer inception_3b/relu_5x5_reduce
I0403 15:59:07.726089 15069 net.cpp:91] Creating Layer inception_3b/relu_5x5_reduce
I0403 15:59:07.726130 15069 net.cpp:425] inception_3b/relu_5x5_reduce <- inception_3b/5x5_reduce
I0403 15:59:07.726152 15069 net.cpp:386] inception_3b/relu_5x5_reduce -> inception_3b/5x5_reduce (in-place)
I0403 15:59:07.726399 15069 net.cpp:141] Setting up inception_3b/relu_5x5_reduce
I0403 15:59:07.726446 15069 net.cpp:148] Top shape: 24 32 28 28 (602112)
I0403 15:59:07.726464 15069 net.cpp:156] Memory required for data: 729760800
I0403 15:59:07.726482 15069 layer_factory.hpp:77] Creating layer inception_3b/5x5
I0403 15:59:07.726511 15069 net.cpp:91] Creating Layer inception_3b/5x5
I0403 15:59:07.726532 15069 net.cpp:425] inception_3b/5x5 <- inception_3b/5x5_reduce
I0403 15:59:07.726559 15069 net.cpp:399] inception_3b/5x5 -> inception_3b/5x5
I0403 15:59:07.728935 15069 net.cpp:141] Setting up inception_3b/5x5
I0403 15:59:07.728971 15069 net.cpp:148] Top shape: 24 96 28 28 (1806336)
I0403 15:59:07.728989 15069 net.cpp:156] Memory required for data: 736986144
I0403 15:59:07.729012 15069 layer_factory.hpp:77] Creating layer inception_3b/relu_5x5
I0403 15:59:07.729037 15069 net.cpp:91] Creating Layer inception_3b/relu_5x5
I0403 15:59:07.729058 15069 net.cpp:425] inception_3b/relu_5x5 <- inception_3b/5x5
I0403 15:59:07.729079 15069 net.cpp:386] inception_3b/relu_5x5 -> inception_3b/5x5 (in-place)
I0403 15:59:07.729322 15069 net.cpp:141] Setting up inception_3b/relu_5x5
I0403 15:59:07.729353 15069 net.cpp:148] Top shape: 24 96 28 28 (1806336)
I0403 15:59:07.729372 15069 net.cpp:156] Memory required for data: 744211488
I0403 15:59:07.729390 15069 layer_factory.hpp:77] Creating layer inception_3b/pool
I0403 15:59:07.729413 15069 net.cpp:91] Creating Layer inception_3b/pool
I0403 15:59:07.729432 15069 net.cpp:425] inception_3b/pool <- inception_3a/output_inception_3a/output_0_split_3
I0403 15:59:07.729454 15069 net.cpp:399] inception_3b/pool -> inception_3b/pool
I0403 15:59:07.729521 15069 net.cpp:141] Setting up inception_3b/pool
I0403 15:59:07.729550 15069 net.cpp:148] Top shape: 24 256 28 28 (4816896)
I0403 15:59:07.729568 15069 net.cpp:156] Memory required for data: 763479072
I0403 15:59:07.729588 15069 layer_factory.hpp:77] Creating layer inception_3b/pool_proj
I0403 15:59:07.729619 15069 net.cpp:91] Creating Layer inception_3b/pool_proj
I0403 15:59:07.729642 15069 net.cpp:425] inception_3b/pool_proj <- inception_3b/pool
I0403 15:59:07.729668 15069 net.cpp:399] inception_3b/pool_proj -> inception_3b/pool_proj
I0403 15:59:07.730952 15069 net.cpp:141] Setting up inception_3b/pool_proj
I0403 15:59:07.730986 15069 net.cpp:148] Top shape: 24 64 28 28 (1204224)
I0403 15:59:07.731005 15069 net.cpp:156] Memory required for data: 768295968
I0403 15:59:07.731027 15069 layer_factory.hpp:77] Creating layer inception_3b/relu_pool_proj
I0403 15:59:07.731051 15069 net.cpp:91] Creating Layer inception_3b/relu_pool_proj
I0403 15:59:07.731071 15069 net.cpp:425] inception_3b/relu_pool_proj <- inception_3b/pool_proj
I0403 15:59:07.731101 15069 net.cpp:386] inception_3b/relu_pool_proj -> inception_3b/pool_proj (in-place)
I0403 15:59:07.731577 15069 net.cpp:141] Setting up inception_3b/relu_pool_proj
I0403 15:59:07.731612 15069 net.cpp:148] Top shape: 24 64 28 28 (1204224)
I0403 15:59:07.731633 15069 net.cpp:156] Memory required for data: 773112864
I0403 15:59:07.731652 15069 layer_factory.hpp:77] Creating layer inception_3b/output
I0403 15:59:07.731673 15069 net.cpp:91] Creating Layer inception_3b/output
I0403 15:59:07.731693 15069 net.cpp:425] inception_3b/output <- inception_3b/1x1
I0403 15:59:07.731714 15069 net.cpp:425] inception_3b/output <- inception_3b/3x3
I0403 15:59:07.731734 15069 net.cpp:425] inception_3b/output <- inception_3b/5x5
I0403 15:59:07.731752 15069 net.cpp:425] inception_3b/output <- inception_3b/pool_proj
I0403 15:59:07.731776 15069 net.cpp:399] inception_3b/output -> inception_3b/output
I0403 15:59:07.731832 15069 net.cpp:141] Setting up inception_3b/output
I0403 15:59:07.731859 15069 net.cpp:148] Top shape: 24 480 28 28 (9031680)
I0403 15:59:07.731878 15069 net.cpp:156] Memory required for data: 809239584
I0403 15:59:07.731895 15069 layer_factory.hpp:77] Creating layer pool3/3x3_s2
I0403 15:59:07.731920 15069 net.cpp:91] Creating Layer pool3/3x3_s2
I0403 15:59:07.731940 15069 net.cpp:425] pool3/3x3_s2 <- inception_3b/output
I0403 15:59:07.731962 15069 net.cpp:399] pool3/3x3_s2 -> pool3/3x3_s2
I0403 15:59:07.732050 15069 net.cpp:141] Setting up pool3/3x3_s2
I0403 15:59:07.732079 15069 net.cpp:148] Top shape: 24 480 14 14 (2257920)
I0403 15:59:07.732112 15069 net.cpp:156] Memory required for data: 818271264
I0403 15:59:07.732136 15069 layer_factory.hpp:77] Creating layer pool3/3x3_s2_pool3/3x3_s2_0_split
I0403 15:59:07.732157 15069 net.cpp:91] Creating Layer pool3/3x3_s2_pool3/3x3_s2_0_split
I0403 15:59:07.732180 15069 net.cpp:425] pool3/3x3_s2_pool3/3x3_s2_0_split <- pool3/3x3_s2
I0403 15:59:07.732203 15069 net.cpp:399] pool3/3x3_s2_pool3/3x3_s2_0_split -> pool3/3x3_s2_pool3/3x3_s2_0_split_0
I0403 15:59:07.732226 15069 net.cpp:399] pool3/3x3_s2_pool3/3x3_s2_0_split -> pool3/3x3_s2_pool3/3x3_s2_0_split_1
I0403 15:59:07.732251 15069 net.cpp:399] pool3/3x3_s2_pool3/3x3_s2_0_split -> pool3/3x3_s2_pool3/3x3_s2_0_split_2
I0403 15:59:07.732276 15069 net.cpp:399] pool3/3x3_s2_pool3/3x3_s2_0_split -> pool3/3x3_s2_pool3/3x3_s2_0_split_3
I0403 15:59:07.732370 15069 net.cpp:141] Setting up pool3/3x3_s2_pool3/3x3_s2_0_split
I0403 15:59:07.732399 15069 net.cpp:148] Top shape: 24 480 14 14 (2257920)
I0403 15:59:07.732419 15069 net.cpp:148] Top shape: 24 480 14 14 (2257920)
I0403 15:59:07.732437 15069 net.cpp:148] Top shape: 24 480 14 14 (2257920)
I0403 15:59:07.732456 15069 net.cpp:148] Top shape: 24 480 14 14 (2257920)
I0403 15:59:07.732473 15069 net.cpp:156] Memory required for data: 854397984
I0403 15:59:07.732491 15069 layer_factory.hpp:77] Creating layer inception_4a/1x1
I0403 15:59:07.732517 15069 net.cpp:91] Creating Layer inception_4a/1x1
I0403 15:59:07.732539 15069 net.cpp:425] inception_4a/1x1 <- pool3/3x3_s2_pool3/3x3_s2_0_split_0
I0403 15:59:07.732565 15069 net.cpp:399] inception_4a/1x1 -> inception_4a/1x1
I0403 15:59:07.734488 15069 net.cpp:141] Setting up inception_4a/1x1
I0403 15:59:07.734524 15069 net.cpp:148] Top shape: 24 192 14 14 (903168)
I0403 15:59:07.734542 15069 net.cpp:156] Memory required for data: 858010656
I0403 15:59:07.734566 15069 layer_factory.hpp:77] Creating layer inception_4a/relu_1x1
I0403 15:59:07.734587 15069 net.cpp:91] Creating Layer inception_4a/relu_1x1
I0403 15:59:07.734607 15069 net.cpp:425] inception_4a/relu_1x1 <- inception_4a/1x1
I0403 15:59:07.734632 15069 net.cpp:386] inception_4a/relu_1x1 -> inception_4a/1x1 (in-place)
I0403 15:59:07.734853 15069 net.cpp:141] Setting up inception_4a/relu_1x1
I0403 15:59:07.734884 15069 net.cpp:148] Top shape: 24 192 14 14 (903168)
I0403 15:59:07.734902 15069 net.cpp:156] Memory required for data: 861623328
I0403 15:59:07.734920 15069 layer_factory.hpp:77] Creating layer inception_4a/3x3_reduce
I0403 15:59:07.734948 15069 net.cpp:91] Creating Layer inception_4a/3x3_reduce
I0403 15:59:07.734972 15069 net.cpp:425] inception_4a/3x3_reduce <- pool3/3x3_s2_pool3/3x3_s2_0_split_1
I0403 15:59:07.734997 15069 net.cpp:399] inception_4a/3x3_reduce -> inception_4a/3x3_reduce
I0403 15:59:07.736555 15069 net.cpp:141] Setting up inception_4a/3x3_reduce
I0403 15:59:07.736589 15069 net.cpp:148] Top shape: 24 96 14 14 (451584)
I0403 15:59:07.736608 15069 net.cpp:156] Memory required for data: 863429664
I0403 15:59:07.736639 15069 layer_factory.hpp:77] Creating layer inception_4a/relu_3x3_reduce
I0403 15:59:07.736663 15069 net.cpp:91] Creating Layer inception_4a/relu_3x3_reduce
I0403 15:59:07.736683 15069 net.cpp:425] inception_4a/relu_3x3_reduce <- inception_4a/3x3_reduce
I0403 15:59:07.736707 15069 net.cpp:386] inception_4a/relu_3x3_reduce -> inception_4a/3x3_reduce (in-place)
I0403 15:59:07.736924 15069 net.cpp:141] Setting up inception_4a/relu_3x3_reduce
I0403 15:59:07.736955 15069 net.cpp:148] Top shape: 24 96 14 14 (451584)
I0403 15:59:07.736974 15069 net.cpp:156] Memory required for data: 865236000
I0403 15:59:07.736991 15069 layer_factory.hpp:77] Creating layer inception_4a/3x3
I0403 15:59:07.737018 15069 net.cpp:91] Creating Layer inception_4a/3x3
I0403 15:59:07.737041 15069 net.cpp:425] inception_4a/3x3 <- inception_4a/3x3_reduce
I0403 15:59:07.737066 15069 net.cpp:399] inception_4a/3x3 -> inception_4a/3x3
I0403 15:59:07.740329 15069 net.cpp:141] Setting up inception_4a/3x3
I0403 15:59:07.740366 15069 net.cpp:148] Top shape: 24 208 14 14 (978432)
I0403 15:59:07.740386 15069 net.cpp:156] Memory required for data: 869149728
I0403 15:59:07.740411 15069 layer_factory.hpp:77] Creating layer inception_4a/relu_3x3
I0403 15:59:07.740437 15069 net.cpp:91] Creating Layer inception_4a/relu_3x3
I0403 15:59:07.740458 15069 net.cpp:425] inception_4a/relu_3x3 <- inception_4a/3x3
I0403 15:59:07.740480 15069 net.cpp:386] inception_4a/relu_3x3 -> inception_4a/3x3 (in-place)
I0403 15:59:07.740823 15069 net.cpp:141] Setting up inception_4a/relu_3x3
I0403 15:59:07.740855 15069 net.cpp:148] Top shape: 24 208 14 14 (978432)
I0403 15:59:07.740875 15069 net.cpp:156] Memory required for data: 873063456
I0403 15:59:07.740893 15069 layer_factory.hpp:77] Creating layer inception_4a/5x5_reduce
I0403 15:59:07.740921 15069 net.cpp:91] Creating Layer inception_4a/5x5_reduce
I0403 15:59:07.740943 15069 net.cpp:425] inception_4a/5x5_reduce <- pool3/3x3_s2_pool3/3x3_s2_0_split_2
I0403 15:59:07.740972 15069 net.cpp:399] inception_4a/5x5_reduce -> inception_4a/5x5_reduce
I0403 15:59:07.742311 15069 net.cpp:141] Setting up inception_4a/5x5_reduce
I0403 15:59:07.742347 15069 net.cpp:148] Top shape: 24 16 14 14 (75264)
I0403 15:59:07.742364 15069 net.cpp:156] Memory required for data: 873364512
I0403 15:59:07.742388 15069 layer_factory.hpp:77] Creating layer inception_4a/relu_5x5_reduce
I0403 15:59:07.742413 15069 net.cpp:91] Creating Layer inception_4a/relu_5x5_reduce
I0403 15:59:07.742434 15069 net.cpp:425] inception_4a/relu_5x5_reduce <- inception_4a/5x5_reduce
I0403 15:59:07.742456 15069 net.cpp:386] inception_4a/relu_5x5_reduce -> inception_4a/5x5_reduce (in-place)
I0403 15:59:07.742676 15069 net.cpp:141] Setting up inception_4a/relu_5x5_reduce
I0403 15:59:07.742707 15069 net.cpp:148] Top shape: 24 16 14 14 (75264)
I0403 15:59:07.742724 15069 net.cpp:156] Memory required for data: 873665568
I0403 15:59:07.742743 15069 layer_factory.hpp:77] Creating layer inception_4a/5x5
I0403 15:59:07.742770 15069 net.cpp:91] Creating Layer inception_4a/5x5
I0403 15:59:07.742792 15069 net.cpp:425] inception_4a/5x5 <- inception_4a/5x5_reduce
I0403 15:59:07.742818 15069 net.cpp:399] inception_4a/5x5 -> inception_4a/5x5
I0403 15:59:07.744168 15069 net.cpp:141] Setting up inception_4a/5x5
I0403 15:59:07.744204 15069 net.cpp:148] Top shape: 24 48 14 14 (225792)
I0403 15:59:07.744225 15069 net.cpp:156] Memory required for data: 874568736
I0403 15:59:07.744248 15069 layer_factory.hpp:77] Creating layer inception_4a/relu_5x5
I0403 15:59:07.744271 15069 net.cpp:91] Creating Layer inception_4a/relu_5x5
I0403 15:59:07.744292 15069 net.cpp:425] inception_4a/relu_5x5 <- inception_4a/5x5
I0403 15:59:07.744315 15069 net.cpp:386] inception_4a/relu_5x5 -> inception_4a/5x5 (in-place)
I0403 15:59:07.744539 15069 net.cpp:141] Setting up inception_4a/relu_5x5
I0403 15:59:07.744570 15069 net.cpp:148] Top shape: 24 48 14 14 (225792)
I0403 15:59:07.744588 15069 net.cpp:156] Memory required for data: 875471904
I0403 15:59:07.744607 15069 layer_factory.hpp:77] Creating layer inception_4a/pool
I0403 15:59:07.744628 15069 net.cpp:91] Creating Layer inception_4a/pool
I0403 15:59:07.744647 15069 net.cpp:425] inception_4a/pool <- pool3/3x3_s2_pool3/3x3_s2_0_split_3
I0403 15:59:07.744678 15069 net.cpp:399] inception_4a/pool -> inception_4a/pool
I0403 15:59:07.744755 15069 net.cpp:141] Setting up inception_4a/pool
I0403 15:59:07.744786 15069 net.cpp:148] Top shape: 24 480 14 14 (2257920)
I0403 15:59:07.744803 15069 net.cpp:156] Memory required for data: 884503584
I0403 15:59:07.744822 15069 layer_factory.hpp:77] Creating layer inception_4a/pool_proj
I0403 15:59:07.744849 15069 net.cpp:91] Creating Layer inception_4a/pool_proj
I0403 15:59:07.744873 15069 net.cpp:425] inception_4a/pool_proj <- inception_4a/pool
I0403 15:59:07.744897 15069 net.cpp:399] inception_4a/pool_proj -> inception_4a/pool_proj
I0403 15:59:07.746333 15069 net.cpp:141] Setting up inception_4a/pool_proj
I0403 15:59:07.746368 15069 net.cpp:148] Top shape: 24 64 14 14 (301056)
I0403 15:59:07.746407 15069 net.cpp:156] Memory required for data: 885707808
I0403 15:59:07.746430 15069 layer_factory.hpp:77] Creating layer inception_4a/relu_pool_proj
I0403 15:59:07.746455 15069 net.cpp:91] Creating Layer inception_4a/relu_pool_proj
I0403 15:59:07.746477 15069 net.cpp:425] inception_4a/relu_pool_proj <- inception_4a/pool_proj
I0403 15:59:07.746500 15069 net.cpp:386] inception_4a/relu_pool_proj -> inception_4a/pool_proj (in-place)
I0403 15:59:07.746843 15069 net.cpp:141] Setting up inception_4a/relu_pool_proj
I0403 15:59:07.746876 15069 net.cpp:148] Top shape: 24 64 14 14 (301056)
I0403 15:59:07.746894 15069 net.cpp:156] Memory required for data: 886912032
I0403 15:59:07.746912 15069 layer_factory.hpp:77] Creating layer inception_4a/output
I0403 15:59:07.746933 15069 net.cpp:91] Creating Layer inception_4a/output
I0403 15:59:07.746953 15069 net.cpp:425] inception_4a/output <- inception_4a/1x1
I0403 15:59:07.746973 15069 net.cpp:425] inception_4a/output <- inception_4a/3x3
I0403 15:59:07.746994 15069 net.cpp:425] inception_4a/output <- inception_4a/5x5
I0403 15:59:07.747012 15069 net.cpp:425] inception_4a/output <- inception_4a/pool_proj
I0403 15:59:07.747036 15069 net.cpp:399] inception_4a/output -> inception_4a/output
I0403 15:59:07.747092 15069 net.cpp:141] Setting up inception_4a/output
I0403 15:59:07.747131 15069 net.cpp:148] Top shape: 24 512 14 14 (2408448)
I0403 15:59:07.747151 15069 net.cpp:156] Memory required for data: 896545824
I0403 15:59:07.747169 15069 layer_factory.hpp:77] Creating layer inception_4a/output_inception_4a/output_0_split
I0403 15:59:07.747190 15069 net.cpp:91] Creating Layer inception_4a/output_inception_4a/output_0_split
I0403 15:59:07.747210 15069 net.cpp:425] inception_4a/output_inception_4a/output_0_split <- inception_4a/output
I0403 15:59:07.747233 15069 net.cpp:399] inception_4a/output_inception_4a/output_0_split -> inception_4a/output_inception_4a/output_0_split_0
I0403 15:59:07.747261 15069 net.cpp:399] inception_4a/output_inception_4a/output_0_split -> inception_4a/output_inception_4a/output_0_split_1
I0403 15:59:07.747285 15069 net.cpp:399] inception_4a/output_inception_4a/output_0_split -> inception_4a/output_inception_4a/output_0_split_2
I0403 15:59:07.747313 15069 net.cpp:399] inception_4a/output_inception_4a/output_0_split -> inception_4a/output_inception_4a/output_0_split_3
I0403 15:59:07.747337 15069 net.cpp:399] inception_4a/output_inception_4a/output_0_split -> inception_4a/output_inception_4a/output_0_split_4
I0403 15:59:07.747450 15069 net.cpp:141] Setting up inception_4a/output_inception_4a/output_0_split
I0403 15:59:07.747479 15069 net.cpp:148] Top shape: 24 512 14 14 (2408448)
I0403 15:59:07.747500 15069 net.cpp:148] Top shape: 24 512 14 14 (2408448)
I0403 15:59:07.747520 15069 net.cpp:148] Top shape: 24 512 14 14 (2408448)
I0403 15:59:07.747539 15069 net.cpp:148] Top shape: 24 512 14 14 (2408448)
I0403 15:59:07.747558 15069 net.cpp:148] Top shape: 24 512 14 14 (2408448)
I0403 15:59:07.747575 15069 net.cpp:156] Memory required for data: 944714784
I0403 15:59:07.747593 15069 layer_factory.hpp:77] Creating layer loss1/ave_pool
I0403 15:59:07.747618 15069 net.cpp:91] Creating Layer loss1/ave_pool
I0403 15:59:07.747640 15069 net.cpp:425] loss1/ave_pool <- inception_4a/output_inception_4a/output_0_split_0
I0403 15:59:07.747663 15069 net.cpp:399] loss1/ave_pool -> loss1/ave_pool
I0403 15:59:07.747920 15069 net.cpp:141] Setting up loss1/ave_pool
I0403 15:59:07.747952 15069 net.cpp:148] Top shape: 24 512 4 4 (196608)
I0403 15:59:07.747972 15069 net.cpp:156] Memory required for data: 945501216
I0403 15:59:07.747990 15069 layer_factory.hpp:77] Creating layer loss1/conv
I0403 15:59:07.748018 15069 net.cpp:91] Creating Layer loss1/conv
I0403 15:59:07.748039 15069 net.cpp:425] loss1/conv <- loss1/ave_pool
I0403 15:59:07.748066 15069 net.cpp:399] loss1/conv -> loss1/conv
I0403 15:59:07.749794 15069 net.cpp:141] Setting up loss1/conv
I0403 15:59:07.749830 15069 net.cpp:148] Top shape: 24 128 4 4 (49152)
I0403 15:59:07.749848 15069 net.cpp:156] Memory required for data: 945697824
I0403 15:59:07.749889 15069 layer_factory.hpp:77] Creating layer loss1/relu_conv
I0403 15:59:07.749917 15069 net.cpp:91] Creating Layer loss1/relu_conv
I0403 15:59:07.749938 15069 net.cpp:425] loss1/relu_conv <- loss1/conv
I0403 15:59:07.749960 15069 net.cpp:386] loss1/relu_conv -> loss1/conv (in-place)
I0403 15:59:07.750305 15069 net.cpp:141] Setting up loss1/relu_conv
I0403 15:59:07.750339 15069 net.cpp:148] Top shape: 24 128 4 4 (49152)
I0403 15:59:07.750356 15069 net.cpp:156] Memory required for data: 945894432
I0403 15:59:07.750375 15069 layer_factory.hpp:77] Creating layer loss1/fc
I0403 15:59:07.750407 15069 net.cpp:91] Creating Layer loss1/fc
I0403 15:59:07.750430 15069 net.cpp:425] loss1/fc <- loss1/conv
I0403 15:59:07.750457 15069 net.cpp:399] loss1/fc -> loss1/fc
I0403 15:59:07.772541 15069 net.cpp:141] Setting up loss1/fc
I0403 15:59:07.772581 15069 net.cpp:148] Top shape: 24 1024 (24576)
I0403 15:59:07.772600 15069 net.cpp:156] Memory required for data: 945992736
I0403 15:59:07.772622 15069 layer_factory.hpp:77] Creating layer loss1/relu_fc
I0403 15:59:07.772645 15069 net.cpp:91] Creating Layer loss1/relu_fc
I0403 15:59:07.772675 15069 net.cpp:425] loss1/relu_fc <- loss1/fc
I0403 15:59:07.772701 15069 net.cpp:386] loss1/relu_fc -> loss1/fc (in-place)
I0403 15:59:07.772936 15069 net.cpp:141] Setting up loss1/relu_fc
I0403 15:59:07.772967 15069 net.cpp:148] Top shape: 24 1024 (24576)
I0403 15:59:07.772985 15069 net.cpp:156] Memory required for data: 946091040
I0403 15:59:07.773005 15069 layer_factory.hpp:77] Creating layer loss1/drop_fc
I0403 15:59:07.773037 15069 net.cpp:91] Creating Layer loss1/drop_fc
I0403 15:59:07.773059 15069 net.cpp:425] loss1/drop_fc <- loss1/fc
I0403 15:59:07.773082 15069 net.cpp:386] loss1/drop_fc -> loss1/fc (in-place)
I0403 15:59:07.773156 15069 net.cpp:141] Setting up loss1/drop_fc
I0403 15:59:07.773185 15069 net.cpp:148] Top shape: 24 1024 (24576)
I0403 15:59:07.773203 15069 net.cpp:156] Memory required for data: 946189344
I0403 15:59:07.773223 15069 layer_factory.hpp:77] Creating layer loss1/classifier_plantvillage
I0403 15:59:07.773246 15069 net.cpp:91] Creating Layer loss1/classifier_plantvillage
I0403 15:59:07.773265 15069 net.cpp:425] loss1/classifier_plantvillage <- loss1/fc
I0403 15:59:07.773291 15069 net.cpp:399] loss1/classifier_plantvillage -> loss1/classifier_plantvillage
I0403 15:59:07.774374 15069 net.cpp:141] Setting up loss1/classifier_plantvillage
I0403 15:59:07.774410 15069 net.cpp:148] Top shape: 24 38 (912)
I0403 15:59:07.774428 15069 net.cpp:156] Memory required for data: 946192992
I0403 15:59:07.774451 15069 layer_factory.hpp:77] Creating layer loss1/classifier_plantvillage_loss1/classifier_plantvillage_0_split
I0403 15:59:07.774477 15069 net.cpp:91] Creating Layer loss1/classifier_plantvillage_loss1/classifier_plantvillage_0_split
I0403 15:59:07.774498 15069 net.cpp:425] loss1/classifier_plantvillage_loss1/classifier_plantvillage_0_split <- loss1/classifier_plantvillage
I0403 15:59:07.774520 15069 net.cpp:399] loss1/classifier_plantvillage_loss1/classifier_plantvillage_0_split -> loss1/classifier_plantvillage_loss1/classifier_plantvillage_0_split_0
I0403 15:59:07.774545 15069 net.cpp:399] loss1/classifier_plantvillage_loss1/classifier_plantvillage_0_split -> loss1/classifier_plantvillage_loss1/classifier_plantvillage_0_split_1
I0403 15:59:07.774571 15069 net.cpp:399] loss1/classifier_plantvillage_loss1/classifier_plantvillage_0_split -> loss1/classifier_plantvillage_loss1/classifier_plantvillage_0_split_2
I0403 15:59:07.774655 15069 net.cpp:141] Setting up loss1/classifier_plantvillage_loss1/classifier_plantvillage_0_split
I0403 15:59:07.774685 15069 net.cpp:148] Top shape: 24 38 (912)
I0403 15:59:07.774704 15069 net.cpp:148] Top shape: 24 38 (912)
I0403 15:59:07.774724 15069 net.cpp:148] Top shape: 24 38 (912)
I0403 15:59:07.774740 15069 net.cpp:156] Memory required for data: 946203936
I0403 15:59:07.774758 15069 layer_factory.hpp:77] Creating layer inception_4b/1x1
I0403 15:59:07.774786 15069 net.cpp:91] Creating Layer inception_4b/1x1
I0403 15:59:07.774826 15069 net.cpp:425] inception_4b/1x1 <- inception_4a/output_inception_4a/output_0_split_1
I0403 15:59:07.774850 15069 net.cpp:399] inception_4b/1x1 -> inception_4b/1x1
I0403 15:59:07.776855 15069 net.cpp:141] Setting up inception_4b/1x1
I0403 15:59:07.776891 15069 net.cpp:148] Top shape: 24 160 14 14 (752640)
I0403 15:59:07.776911 15069 net.cpp:156] Memory required for data: 949214496
I0403 15:59:07.776934 15069 layer_factory.hpp:77] Creating layer inception_4b/relu_1x1
I0403 15:59:07.776959 15069 net.cpp:91] Creating Layer inception_4b/relu_1x1
I0403 15:59:07.776980 15069 net.cpp:425] inception_4b/relu_1x1 <- inception_4b/1x1
I0403 15:59:07.777003 15069 net.cpp:386] inception_4b/relu_1x1 -> inception_4b/1x1 (in-place)
I0403 15:59:07.777236 15069 net.cpp:141] Setting up inception_4b/relu_1x1
I0403 15:59:07.777267 15069 net.cpp:148] Top shape: 24 160 14 14 (752640)
I0403 15:59:07.777287 15069 net.cpp:156] Memory required for data: 952225056
I0403 15:59:07.777305 15069 layer_factory.hpp:77] Creating layer inception_4b/3x3_reduce
I0403 15:59:07.777333 15069 net.cpp:91] Creating Layer inception_4b/3x3_reduce
I0403 15:59:07.777355 15069 net.cpp:425] inception_4b/3x3_reduce <- inception_4a/output_inception_4a/output_0_split_2
I0403 15:59:07.777382 15069 net.cpp:399] inception_4b/3x3_reduce -> inception_4b/3x3_reduce
I0403 15:59:07.779043 15069 net.cpp:141] Setting up inception_4b/3x3_reduce
I0403 15:59:07.779083 15069 net.cpp:148] Top shape: 24 112 14 14 (526848)
I0403 15:59:07.779111 15069 net.cpp:156] Memory required for data: 954332448
I0403 15:59:07.779135 15069 layer_factory.hpp:77] Creating layer inception_4b/relu_3x3_reduce
I0403 15:59:07.779157 15069 net.cpp:91] Creating Layer inception_4b/relu_3x3_reduce
I0403 15:59:07.779177 15069 net.cpp:425] inception_4b/relu_3x3_reduce <- inception_4b/3x3_reduce
I0403 15:59:07.779202 15069 net.cpp:386] inception_4b/relu_3x3_reduce -> inception_4b/3x3_reduce (in-place)
I0403 15:59:07.779551 15069 net.cpp:141] Setting up inception_4b/relu_3x3_reduce
I0403 15:59:07.779587 15069 net.cpp:148] Top shape: 24 112 14 14 (526848)
I0403 15:59:07.779608 15069 net.cpp:156] Memory required for data: 956439840
I0403 15:59:07.779625 15069 layer_factory.hpp:77] Creating layer inception_4b/3x3
I0403 15:59:07.779654 15069 net.cpp:91] Creating Layer inception_4b/3x3
I0403 15:59:07.779676 15069 net.cpp:425] inception_4b/3x3 <- inception_4b/3x3_reduce
I0403 15:59:07.779705 15069 net.cpp:399] inception_4b/3x3 -> inception_4b/3x3
I0403 15:59:07.783354 15069 net.cpp:141] Setting up inception_4b/3x3
I0403 15:59:07.783390 15069 net.cpp:148] Top shape: 24 224 14 14 (1053696)
I0403 15:59:07.783409 15069 net.cpp:156] Memory required for data: 960654624
I0403 15:59:07.783432 15069 layer_factory.hpp:77] Creating layer inception_4b/relu_3x3
I0403 15:59:07.783457 15069 net.cpp:91] Creating Layer inception_4b/relu_3x3
I0403 15:59:07.783479 15069 net.cpp:425] inception_4b/relu_3x3 <- inception_4b/3x3
I0403 15:59:07.783501 15069 net.cpp:386] inception_4b/relu_3x3 -> inception_4b/3x3 (in-place)
I0403 15:59:07.783725 15069 net.cpp:141] Setting up inception_4b/relu_3x3
I0403 15:59:07.783758 15069 net.cpp:148] Top shape: 24 224 14 14 (1053696)
I0403 15:59:07.783782 15069 net.cpp:156] Memory required for data: 964869408
I0403 15:59:07.783800 15069 layer_factory.hpp:77] Creating layer inception_4b/5x5_reduce
I0403 15:59:07.783824 15069 net.cpp:91] Creating Layer inception_4b/5x5_reduce
I0403 15:59:07.783848 15069 net.cpp:425] inception_4b/5x5_reduce <- inception_4a/output_inception_4a/output_0_split_3
I0403 15:59:07.783875 15069 net.cpp:399] inception_4b/5x5_reduce -> inception_4b/5x5_reduce
I0403 15:59:07.785218 15069 net.cpp:141] Setting up inception_4b/5x5_reduce
I0403 15:59:07.785255 15069 net.cpp:148] Top shape: 24 24 14 14 (112896)
I0403 15:59:07.785275 15069 net.cpp:156] Memory required for data: 965320992
I0403 15:59:07.785298 15069 layer_factory.hpp:77] Creating layer inception_4b/relu_5x5_reduce
I0403 15:59:07.785320 15069 net.cpp:91] Creating Layer inception_4b/relu_5x5_reduce
I0403 15:59:07.785359 15069 net.cpp:425] inception_4b/relu_5x5_reduce <- inception_4b/5x5_reduce
I0403 15:59:07.785383 15069 net.cpp:386] inception_4b/relu_5x5_reduce -> inception_4b/5x5_reduce (in-place)
I0403 15:59:07.785611 15069 net.cpp:141] Setting up inception_4b/relu_5x5_reduce
I0403 15:59:07.785643 15069 net.cpp:148] Top shape: 24 24 14 14 (112896)
I0403 15:59:07.785661 15069 net.cpp:156] Memory required for data: 965772576
I0403 15:59:07.785679 15069 layer_factory.hpp:77] Creating layer inception_4b/5x5
I0403 15:59:07.785708 15069 net.cpp:91] Creating Layer inception_4b/5x5
I0403 15:59:07.785730 15069 net.cpp:425] inception_4b/5x5 <- inception_4b/5x5_reduce
I0403 15:59:07.785758 15069 net.cpp:399] inception_4b/5x5 -> inception_4b/5x5
I0403 15:59:07.787264 15069 net.cpp:141] Setting up inception_4b/5x5
I0403 15:59:07.787300 15069 net.cpp:148] Top shape: 24 64 14 14 (301056)
I0403 15:59:07.787319 15069 net.cpp:156] Memory required for data: 966976800
I0403 15:59:07.787343 15069 layer_factory.hpp:77] Creating layer inception_4b/relu_5x5
I0403 15:59:07.787369 15069 net.cpp:91] Creating Layer inception_4b/relu_5x5
I0403 15:59:07.787390 15069 net.cpp:425] inception_4b/relu_5x5 <- inception_4b/5x5
I0403 15:59:07.787412 15069 net.cpp:386] inception_4b/relu_5x5 -> inception_4b/5x5 (in-place)
I0403 15:59:07.787762 15069 net.cpp:141] Setting up inception_4b/relu_5x5
I0403 15:59:07.787794 15069 net.cpp:148] Top shape: 24 64 14 14 (301056)
I0403 15:59:07.787813 15069 net.cpp:156] Memory required for data: 968181024
I0403 15:59:07.787832 15069 layer_factory.hpp:77] Creating layer inception_4b/pool
I0403 15:59:07.787860 15069 net.cpp:91] Creating Layer inception_4b/pool
I0403 15:59:07.787883 15069 net.cpp:425] inception_4b/pool <- inception_4a/output_inception_4a/output_0_split_4
I0403 15:59:07.787905 15069 net.cpp:399] inception_4b/pool -> inception_4b/pool
I0403 15:59:07.787984 15069 net.cpp:141] Setting up inception_4b/pool
I0403 15:59:07.788014 15069 net.cpp:148] Top shape: 24 512 14 14 (2408448)
I0403 15:59:07.788033 15069 net.cpp:156] Memory required for data: 977814816
I0403 15:59:07.788051 15069 layer_factory.hpp:77] Creating layer inception_4b/pool_proj
I0403 15:59:07.788079 15069 net.cpp:91] Creating Layer inception_4b/pool_proj
I0403 15:59:07.788107 15069 net.cpp:425] inception_4b/pool_proj <- inception_4b/pool
I0403 15:59:07.788136 15069 net.cpp:399] inception_4b/pool_proj -> inception_4b/pool_proj
I0403 15:59:07.789608 15069 net.cpp:141] Setting up inception_4b/pool_proj
I0403 15:59:07.789644 15069 net.cpp:148] Top shape: 24 64 14 14 (301056)
I0403 15:59:07.789664 15069 net.cpp:156] Memory required for data: 979019040
I0403 15:59:07.789687 15069 layer_factory.hpp:77] Creating layer inception_4b/relu_pool_proj
I0403 15:59:07.789710 15069 net.cpp:91] Creating Layer inception_4b/relu_pool_proj
I0403 15:59:07.789731 15069 net.cpp:425] inception_4b/relu_pool_proj <- inception_4b/pool_proj
I0403 15:59:07.789754 15069 net.cpp:386] inception_4b/relu_pool_proj -> inception_4b/pool_proj (in-place)
I0403 15:59:07.789979 15069 net.cpp:141] Setting up inception_4b/relu_pool_proj
I0403 15:59:07.790010 15069 net.cpp:148] Top shape: 24 64 14 14 (301056)
I0403 15:59:07.790030 15069 net.cpp:156] Memory required for data: 980223264
I0403 15:59:07.790047 15069 layer_factory.hpp:77] Creating layer inception_4b/output
I0403 15:59:07.790068 15069 net.cpp:91] Creating Layer inception_4b/output
I0403 15:59:07.790088 15069 net.cpp:425] inception_4b/output <- inception_4b/1x1
I0403 15:59:07.790118 15069 net.cpp:425] inception_4b/output <- inception_4b/3x3
I0403 15:59:07.790140 15069 net.cpp:425] inception_4b/output <- inception_4b/5x5
I0403 15:59:07.790160 15069 net.cpp:425] inception_4b/output <- inception_4b/pool_proj
I0403 15:59:07.790184 15069 net.cpp:399] inception_4b/output -> inception_4b/output
I0403 15:59:07.790241 15069 net.cpp:141] Setting up inception_4b/output
I0403 15:59:07.790273 15069 net.cpp:148] Top shape: 24 512 14 14 (2408448)
I0403 15:59:07.790292 15069 net.cpp:156] Memory required for data: 989857056
I0403 15:59:07.790329 15069 layer_factory.hpp:77] Creating layer inception_4b/output_inception_4b/output_0_split
I0403 15:59:07.790352 15069 net.cpp:91] Creating Layer inception_4b/output_inception_4b/output_0_split
I0403 15:59:07.790372 15069 net.cpp:425] inception_4b/output_inception_4b/output_0_split <- inception_4b/output
I0403 15:59:07.790393 15069 net.cpp:399] inception_4b/output_inception_4b/output_0_split -> inception_4b/output_inception_4b/output_0_split_0
I0403 15:59:07.790418 15069 net.cpp:399] inception_4b/output_inception_4b/output_0_split -> inception_4b/output_inception_4b/output_0_split_1
I0403 15:59:07.790446 15069 net.cpp:399] inception_4b/output_inception_4b/output_0_split -> inception_4b/output_inception_4b/output_0_split_2
I0403 15:59:07.790473 15069 net.cpp:399] inception_4b/output_inception_4b/output_0_split -> inception_4b/output_inception_4b/output_0_split_3
I0403 15:59:07.790580 15069 net.cpp:141] Setting up inception_4b/output_inception_4b/output_0_split
I0403 15:59:07.790609 15069 net.cpp:148] Top shape: 24 512 14 14 (2408448)
I0403 15:59:07.790628 15069 net.cpp:148] Top shape: 24 512 14 14 (2408448)
I0403 15:59:07.790647 15069 net.cpp:148] Top shape: 24 512 14 14 (2408448)
I0403 15:59:07.790666 15069 net.cpp:148] Top shape: 24 512 14 14 (2408448)
I0403 15:59:07.790683 15069 net.cpp:156] Memory required for data: 1028392224
I0403 15:59:07.790701 15069 layer_factory.hpp:77] Creating layer inception_4c/1x1
I0403 15:59:07.790729 15069 net.cpp:91] Creating Layer inception_4c/1x1
I0403 15:59:07.790750 15069 net.cpp:425] inception_4c/1x1 <- inception_4b/output_inception_4b/output_0_split_0
I0403 15:59:07.790781 15069 net.cpp:399] inception_4c/1x1 -> inception_4c/1x1
I0403 15:59:07.792569 15069 net.cpp:141] Setting up inception_4c/1x1
I0403 15:59:07.792604 15069 net.cpp:148] Top shape: 24 128 14 14 (602112)
I0403 15:59:07.792623 15069 net.cpp:156] Memory required for data: 1030800672
I0403 15:59:07.792646 15069 layer_factory.hpp:77] Creating layer inception_4c/relu_1x1
I0403 15:59:07.792677 15069 net.cpp:91] Creating Layer inception_4c/relu_1x1
I0403 15:59:07.792697 15069 net.cpp:425] inception_4c/relu_1x1 <- inception_4c/1x1
I0403 15:59:07.792721 15069 net.cpp:386] inception_4c/relu_1x1 -> inception_4c/1x1 (in-place)
I0403 15:59:07.792945 15069 net.cpp:141] Setting up inception_4c/relu_1x1
I0403 15:59:07.792978 15069 net.cpp:148] Top shape: 24 128 14 14 (602112)
I0403 15:59:07.792995 15069 net.cpp:156] Memory required for data: 1033209120
I0403 15:59:07.793015 15069 layer_factory.hpp:77] Creating layer inception_4c/3x3_reduce
I0403 15:59:07.793041 15069 net.cpp:91] Creating Layer inception_4c/3x3_reduce
I0403 15:59:07.793064 15069 net.cpp:425] inception_4c/3x3_reduce <- inception_4b/output_inception_4b/output_0_split_1
I0403 15:59:07.793264 15069 net.cpp:399] inception_4c/3x3_reduce -> inception_4c/3x3_reduce
I0403 15:59:07.795627 15069 net.cpp:141] Setting up inception_4c/3x3_reduce
I0403 15:59:07.795663 15069 net.cpp:148] Top shape: 24 128 14 14 (602112)
I0403 15:59:07.795683 15069 net.cpp:156] Memory required for data: 1035617568
I0403 15:59:07.795706 15069 layer_factory.hpp:77] Creating layer inception_4c/relu_3x3_reduce
I0403 15:59:07.795737 15069 net.cpp:91] Creating Layer inception_4c/relu_3x3_reduce
I0403 15:59:07.795758 15069 net.cpp:425] inception_4c/relu_3x3_reduce <- inception_4c/3x3_reduce
I0403 15:59:07.795779 15069 net.cpp:386] inception_4c/relu_3x3_reduce -> inception_4c/3x3_reduce (in-place)
I0403 15:59:07.796175 15069 net.cpp:141] Setting up inception_4c/relu_3x3_reduce
I0403 15:59:07.796207 15069 net.cpp:148] Top shape: 24 128 14 14 (602112)
I0403 15:59:07.796226 15069 net.cpp:156] Memory required for data: 1038026016
I0403 15:59:07.796244 15069 layer_factory.hpp:77] Creating layer inception_4c/3x3
I0403 15:59:07.796272 15069 net.cpp:91] Creating Layer inception_4c/3x3
I0403 15:59:07.796295 15069 net.cpp:425] inception_4c/3x3 <- inception_4c/3x3_reduce
I0403 15:59:07.796324 15069 net.cpp:399] inception_4c/3x3 -> inception_4c/3x3
I0403 15:59:07.800721 15069 net.cpp:141] Setting up inception_4c/3x3
I0403 15:59:07.800773 15069 net.cpp:148] Top shape: 24 256 14 14 (1204224)
I0403 15:59:07.800793 15069 net.cpp:156] Memory required for data: 1042842912
I0403 15:59:07.800832 15069 layer_factory.hpp:77] Creating layer inception_4c/relu_3x3
I0403 15:59:07.800861 15069 net.cpp:91] Creating Layer inception_4c/relu_3x3
I0403 15:59:07.800884 15069 net.cpp:425] inception_4c/relu_3x3 <- inception_4c/3x3
I0403 15:59:07.800905 15069 net.cpp:386] inception_4c/relu_3x3 -> inception_4c/3x3 (in-place)
I0403 15:59:07.801146 15069 net.cpp:141] Setting up inception_4c/relu_3x3
I0403 15:59:07.801182 15069 net.cpp:148] Top shape: 24 256 14 14 (1204224)
I0403 15:59:07.801200 15069 net.cpp:156] Memory required for data: 1047659808
I0403 15:59:07.801218 15069 layer_factory.hpp:77] Creating layer inception_4c/5x5_reduce
I0403 15:59:07.801249 15069 net.cpp:91] Creating Layer inception_4c/5x5_reduce
I0403 15:59:07.801271 15069 net.cpp:425] inception_4c/5x5_reduce <- inception_4b/output_inception_4b/output_0_split_2
I0403 15:59:07.801295 15069 net.cpp:399] inception_4c/5x5_reduce -> inception_4c/5x5_reduce
I0403 15:59:07.802655 15069 net.cpp:141] Setting up inception_4c/5x5_reduce
I0403 15:59:07.802695 15069 net.cpp:148] Top shape: 24 24 14 14 (112896)
I0403 15:59:07.802716 15069 net.cpp:156] Memory required for data: 1048111392
I0403 15:59:07.802739 15069 layer_factory.hpp:77] Creating layer inception_4c/relu_5x5_reduce
I0403 15:59:07.802762 15069 net.cpp:91] Creating Layer inception_4c/relu_5x5_reduce
I0403 15:59:07.802783 15069 net.cpp:425] inception_4c/relu_5x5_reduce <- inception_4c/5x5_reduce
I0403 15:59:07.802803 15069 net.cpp:386] inception_4c/relu_5x5_reduce -> inception_4c/5x5_reduce (in-place)
I0403 15:59:07.803035 15069 net.cpp:141] Setting up inception_4c/relu_5x5_reduce
I0403 15:59:07.803066 15069 net.cpp:148] Top shape: 24 24 14 14 (112896)
I0403 15:59:07.803084 15069 net.cpp:156] Memory required for data: 1048562976
I0403 15:59:07.803112 15069 layer_factory.hpp:77] Creating layer inception_4c/5x5
I0403 15:59:07.803140 15069 net.cpp:91] Creating Layer inception_4c/5x5
I0403 15:59:07.803163 15069 net.cpp:425] inception_4c/5x5 <- inception_4c/5x5_reduce
I0403 15:59:07.803189 15069 net.cpp:399] inception_4c/5x5 -> inception_4c/5x5
I0403 15:59:07.804728 15069 net.cpp:141] Setting up inception_4c/5x5
I0403 15:59:07.804764 15069 net.cpp:148] Top shape: 24 64 14 14 (301056)
I0403 15:59:07.804782 15069 net.cpp:156] Memory required for data: 1049767200
I0403 15:59:07.804806 15069 layer_factory.hpp:77] Creating layer inception_4c/relu_5x5
I0403 15:59:07.804828 15069 net.cpp:91] Creating Layer inception_4c/relu_5x5
I0403 15:59:07.804848 15069 net.cpp:425] inception_4c/relu_5x5 <- inception_4c/5x5
I0403 15:59:07.804872 15069 net.cpp:386] inception_4c/relu_5x5 -> inception_4c/5x5 (in-place)
I0403 15:59:07.805233 15069 net.cpp:141] Setting up inception_4c/relu_5x5
I0403 15:59:07.805266 15069 net.cpp:148] Top shape: 24 64 14 14 (301056)
I0403 15:59:07.805285 15069 net.cpp:156] Memory required for data: 1050971424
I0403 15:59:07.805304 15069 layer_factory.hpp:77] Creating layer inception_4c/pool
I0403 15:59:07.805325 15069 net.cpp:91] Creating Layer inception_4c/pool
I0403 15:59:07.805346 15069 net.cpp:425] inception_4c/pool <- inception_4b/output_inception_4b/output_0_split_3
I0403 15:59:07.805371 15069 net.cpp:399] inception_4c/pool -> inception_4c/pool
I0403 15:59:07.805454 15069 net.cpp:141] Setting up inception_4c/pool
I0403 15:59:07.805483 15069 net.cpp:148] Top shape: 24 512 14 14 (2408448)
I0403 15:59:07.805501 15069 net.cpp:156] Memory required for data: 1060605216
I0403 15:59:07.805519 15069 layer_factory.hpp:77] Creating layer inception_4c/pool_proj
I0403 15:59:07.805549 15069 net.cpp:91] Creating Layer inception_4c/pool_proj
I0403 15:59:07.805572 15069 net.cpp:425] inception_4c/pool_proj <- inception_4c/pool
I0403 15:59:07.805595 15069 net.cpp:399] inception_4c/pool_proj -> inception_4c/pool_proj
I0403 15:59:07.807117 15069 net.cpp:141] Setting up inception_4c/pool_proj
I0403 15:59:07.807152 15069 net.cpp:148] Top shape: 24 64 14 14 (301056)
I0403 15:59:07.807188 15069 net.cpp:156] Memory required for data: 1061809440
I0403 15:59:07.807214 15069 layer_factory.hpp:77] Creating layer inception_4c/relu_pool_proj
I0403 15:59:07.807240 15069 net.cpp:91] Creating Layer inception_4c/relu_pool_proj
I0403 15:59:07.807261 15069 net.cpp:425] inception_4c/relu_pool_proj <- inception_4c/pool_proj
I0403 15:59:07.807283 15069 net.cpp:386] inception_4c/relu_pool_proj -> inception_4c/pool_proj (in-place)
I0403 15:59:07.807521 15069 net.cpp:141] Setting up inception_4c/relu_pool_proj
I0403 15:59:07.807553 15069 net.cpp:148] Top shape: 24 64 14 14 (301056)
I0403 15:59:07.807570 15069 net.cpp:156] Memory required for data: 1063013664
I0403 15:59:07.807590 15069 layer_factory.hpp:77] Creating layer inception_4c/output
I0403 15:59:07.807610 15069 net.cpp:91] Creating Layer inception_4c/output
I0403 15:59:07.807631 15069 net.cpp:425] inception_4c/output <- inception_4c/1x1
I0403 15:59:07.807651 15069 net.cpp:425] inception_4c/output <- inception_4c/3x3
I0403 15:59:07.807679 15069 net.cpp:425] inception_4c/output <- inception_4c/5x5
I0403 15:59:07.807698 15069 net.cpp:425] inception_4c/output <- inception_4c/pool_proj
I0403 15:59:07.807721 15069 net.cpp:399] inception_4c/output -> inception_4c/output
I0403 15:59:07.807780 15069 net.cpp:141] Setting up inception_4c/output
I0403 15:59:07.807811 15069 net.cpp:148] Top shape: 24 512 14 14 (2408448)
I0403 15:59:07.807831 15069 net.cpp:156] Memory required for data: 1072647456
I0403 15:59:07.807849 15069 layer_factory.hpp:77] Creating layer inception_4c/output_inception_4c/output_0_split
I0403 15:59:07.807870 15069 net.cpp:91] Creating Layer inception_4c/output_inception_4c/output_0_split
I0403 15:59:07.807889 15069 net.cpp:425] inception_4c/output_inception_4c/output_0_split <- inception_4c/output
I0403 15:59:07.807911 15069 net.cpp:399] inception_4c/output_inception_4c/output_0_split -> inception_4c/output_inception_4c/output_0_split_0
I0403 15:59:07.807936 15069 net.cpp:399] inception_4c/output_inception_4c/output_0_split -> inception_4c/output_inception_4c/output_0_split_1
I0403 15:59:07.807965 15069 net.cpp:399] inception_4c/output_inception_4c/output_0_split -> inception_4c/output_inception_4c/output_0_split_2
I0403 15:59:07.807991 15069 net.cpp:399] inception_4c/output_inception_4c/output_0_split -> inception_4c/output_inception_4c/output_0_split_3
I0403 15:59:07.808104 15069 net.cpp:141] Setting up inception_4c/output_inception_4c/output_0_split
I0403 15:59:07.808135 15069 net.cpp:148] Top shape: 24 512 14 14 (2408448)
I0403 15:59:07.808153 15069 net.cpp:148] Top shape: 24 512 14 14 (2408448)
I0403 15:59:07.808172 15069 net.cpp:148] Top shape: 24 512 14 14 (2408448)
I0403 15:59:07.808192 15069 net.cpp:148] Top shape: 24 512 14 14 (2408448)
I0403 15:59:07.808210 15069 net.cpp:156] Memory required for data: 1111182624
I0403 15:59:07.808228 15069 layer_factory.hpp:77] Creating layer inception_4d/1x1
I0403 15:59:07.808256 15069 net.cpp:91] Creating Layer inception_4d/1x1
I0403 15:59:07.808280 15069 net.cpp:425] inception_4d/1x1 <- inception_4c/output_inception_4c/output_0_split_0
I0403 15:59:07.808306 15069 net.cpp:399] inception_4d/1x1 -> inception_4d/1x1
I0403 15:59:07.810020 15069 net.cpp:141] Setting up inception_4d/1x1
I0403 15:59:07.810055 15069 net.cpp:148] Top shape: 24 112 14 14 (526848)
I0403 15:59:07.810073 15069 net.cpp:156] Memory required for data: 1113290016
I0403 15:59:07.810101 15069 layer_factory.hpp:77] Creating layer inception_4d/relu_1x1
I0403 15:59:07.810129 15069 net.cpp:91] Creating Layer inception_4d/relu_1x1
I0403 15:59:07.810151 15069 net.cpp:425] inception_4d/relu_1x1 <- inception_4d/1x1
I0403 15:59:07.810173 15069 net.cpp:386] inception_4d/relu_1x1 -> inception_4d/1x1 (in-place)
I0403 15:59:07.810405 15069 net.cpp:141] Setting up inception_4d/relu_1x1
I0403 15:59:07.810439 15069 net.cpp:148] Top shape: 24 112 14 14 (526848)
I0403 15:59:07.810459 15069 net.cpp:156] Memory required for data: 1115397408
I0403 15:59:07.810477 15069 layer_factory.hpp:77] Creating layer inception_4d/3x3_reduce
I0403 15:59:07.810523 15069 net.cpp:91] Creating Layer inception_4d/3x3_reduce
I0403 15:59:07.810546 15069 net.cpp:425] inception_4d/3x3_reduce <- inception_4c/output_inception_4c/output_0_split_1
I0403 15:59:07.810571 15069 net.cpp:399] inception_4d/3x3_reduce -> inception_4d/3x3_reduce
I0403 15:59:07.812455 15069 net.cpp:141] Setting up inception_4d/3x3_reduce
I0403 15:59:07.812490 15069 net.cpp:148] Top shape: 24 144 14 14 (677376)
I0403 15:59:07.812510 15069 net.cpp:156] Memory required for data: 1118106912
I0403 15:59:07.812532 15069 layer_factory.hpp:77] Creating layer inception_4d/relu_3x3_reduce
I0403 15:59:07.812558 15069 net.cpp:91] Creating Layer inception_4d/relu_3x3_reduce
I0403 15:59:07.812582 15069 net.cpp:425] inception_4d/relu_3x3_reduce <- inception_4d/3x3_reduce
I0403 15:59:07.812603 15069 net.cpp:386] inception_4d/relu_3x3_reduce -> inception_4d/3x3_reduce (in-place)
I0403 15:59:07.812953 15069 net.cpp:141] Setting up inception_4d/relu_3x3_reduce
I0403 15:59:07.812986 15069 net.cpp:148] Top shape: 24 144 14 14 (677376)
I0403 15:59:07.813005 15069 net.cpp:156] Memory required for data: 1120816416
I0403 15:59:07.813024 15069 layer_factory.hpp:77] Creating layer inception_4d/3x3
I0403 15:59:07.813050 15069 net.cpp:91] Creating Layer inception_4d/3x3
I0403 15:59:07.813073 15069 net.cpp:425] inception_4d/3x3 <- inception_4d/3x3_reduce
I0403 15:59:07.813107 15069 net.cpp:399] inception_4d/3x3 -> inception_4d/3x3
I0403 15:59:07.818373 15069 net.cpp:141] Setting up inception_4d/3x3
I0403 15:59:07.818410 15069 net.cpp:148] Top shape: 24 288 14 14 (1354752)
I0403 15:59:07.818429 15069 net.cpp:156] Memory required for data: 1126235424
I0403 15:59:07.818452 15069 layer_factory.hpp:77] Creating layer inception_4d/relu_3x3
I0403 15:59:07.818478 15069 net.cpp:91] Creating Layer inception_4d/relu_3x3
I0403 15:59:07.818500 15069 net.cpp:425] inception_4d/relu_3x3 <- inception_4d/3x3
I0403 15:59:07.818521 15069 net.cpp:386] inception_4d/relu_3x3 -> inception_4d/3x3 (in-place)
I0403 15:59:07.818749 15069 net.cpp:141] Setting up inception_4d/relu_3x3
I0403 15:59:07.818783 15069 net.cpp:148] Top shape: 24 288 14 14 (1354752)
I0403 15:59:07.818802 15069 net.cpp:156] Memory required for data: 1131654432
I0403 15:59:07.818821 15069 layer_factory.hpp:77] Creating layer inception_4d/5x5_reduce
I0403 15:59:07.818848 15069 net.cpp:91] Creating Layer inception_4d/5x5_reduce
I0403 15:59:07.818871 15069 net.cpp:425] inception_4d/5x5_reduce <- inception_4c/output_inception_4c/output_0_split_2
I0403 15:59:07.818894 15069 net.cpp:399] inception_4d/5x5_reduce -> inception_4d/5x5_reduce
I0403 15:59:07.820315 15069 net.cpp:141] Setting up inception_4d/5x5_reduce
I0403 15:59:07.820349 15069 net.cpp:148] Top shape: 24 32 14 14 (150528)
I0403 15:59:07.820369 15069 net.cpp:156] Memory required for data: 1132256544
I0403 15:59:07.820401 15069 layer_factory.hpp:77] Creating layer inception_4d/relu_5x5_reduce
I0403 15:59:07.820430 15069 net.cpp:91] Creating Layer inception_4d/relu_5x5_reduce
I0403 15:59:07.820451 15069 net.cpp:425] inception_4d/relu_5x5_reduce <- inception_4d/5x5_reduce
I0403 15:59:07.820472 15069 net.cpp:386] inception_4d/relu_5x5_reduce -> inception_4d/5x5_reduce (in-place)
I0403 15:59:07.820704 15069 net.cpp:141] Setting up inception_4d/relu_5x5_reduce
I0403 15:59:07.820740 15069 net.cpp:148] Top shape: 24 32 14 14 (150528)
I0403 15:59:07.820760 15069 net.cpp:156] Memory required for data: 1132858656
I0403 15:59:07.820780 15069 layer_factory.hpp:77] Creating layer inception_4d/5x5
I0403 15:59:07.820807 15069 net.cpp:91] Creating Layer inception_4d/5x5
I0403 15:59:07.820830 15069 net.cpp:425] inception_4d/5x5 <- inception_4d/5x5_reduce
I0403 15:59:07.820853 15069 net.cpp:399] inception_4d/5x5 -> inception_4d/5x5
I0403 15:59:07.822687 15069 net.cpp:141] Setting up inception_4d/5x5
I0403 15:59:07.822734 15069 net.cpp:148] Top shape: 24 64 14 14 (301056)
I0403 15:59:07.822756 15069 net.cpp:156] Memory required for data: 1134062880
I0403 15:59:07.822778 15069 layer_factory.hpp:77] Creating layer inception_4d/relu_5x5
I0403 15:59:07.822820 15069 net.cpp:91] Creating Layer inception_4d/relu_5x5
I0403 15:59:07.822842 15069 net.cpp:425] inception_4d/relu_5x5 <- inception_4d/5x5
I0403 15:59:07.822867 15069 net.cpp:386] inception_4d/relu_5x5 -> inception_4d/5x5 (in-place)
I0403 15:59:07.823249 15069 net.cpp:141] Setting up inception_4d/relu_5x5
I0403 15:59:07.823285 15069 net.cpp:148] Top shape: 24 64 14 14 (301056)
I0403 15:59:07.823305 15069 net.cpp:156] Memory required for data: 1135267104
I0403 15:59:07.823324 15069 layer_factory.hpp:77] Creating layer inception_4d/pool
I0403 15:59:07.823345 15069 net.cpp:91] Creating Layer inception_4d/pool
I0403 15:59:07.823366 15069 net.cpp:425] inception_4d/pool <- inception_4c/output_inception_4c/output_0_split_3
I0403 15:59:07.823391 15069 net.cpp:399] inception_4d/pool -> inception_4d/pool
I0403 15:59:07.823475 15069 net.cpp:141] Setting up inception_4d/pool
I0403 15:59:07.823505 15069 net.cpp:148] Top shape: 24 512 14 14 (2408448)
I0403 15:59:07.823523 15069 net.cpp:156] Memory required for data: 1144900896
I0403 15:59:07.823541 15069 layer_factory.hpp:77] Creating layer inception_4d/pool_proj
I0403 15:59:07.823571 15069 net.cpp:91] Creating Layer inception_4d/pool_proj
I0403 15:59:07.823595 15069 net.cpp:425] inception_4d/pool_proj <- inception_4d/pool
I0403 15:59:07.823618 15069 net.cpp:399] inception_4d/pool_proj -> inception_4d/pool_proj
I0403 15:59:07.825790 15069 net.cpp:141] Setting up inception_4d/pool_proj
I0403 15:59:07.825826 15069 net.cpp:148] Top shape: 24 64 14 14 (301056)
I0403 15:59:07.825846 15069 net.cpp:156] Memory required for data: 1146105120
I0403 15:59:07.825870 15069 layer_factory.hpp:77] Creating layer inception_4d/relu_pool_proj
I0403 15:59:07.825896 15069 net.cpp:91] Creating Layer inception_4d/relu_pool_proj
I0403 15:59:07.825918 15069 net.cpp:425] inception_4d/relu_pool_proj <- inception_4d/pool_proj
I0403 15:59:07.825940 15069 net.cpp:386] inception_4d/relu_pool_proj -> inception_4d/pool_proj (in-place)
I0403 15:59:07.826177 15069 net.cpp:141] Setting up inception_4d/relu_pool_proj
I0403 15:59:07.826212 15069 net.cpp:148] Top shape: 24 64 14 14 (301056)
I0403 15:59:07.826232 15069 net.cpp:156] Memory required for data: 1147309344
I0403 15:59:07.826251 15069 layer_factory.hpp:77] Creating layer inception_4d/output
I0403 15:59:07.826272 15069 net.cpp:91] Creating Layer inception_4d/output
I0403 15:59:07.826325 15069 net.cpp:425] inception_4d/output <- inception_4d/1x1
I0403 15:59:07.826346 15069 net.cpp:425] inception_4d/output <- inception_4d/3x3
I0403 15:59:07.826367 15069 net.cpp:425] inception_4d/output <- inception_4d/5x5
I0403 15:59:07.826388 15069 net.cpp:425] inception_4d/output <- inception_4d/pool_proj
I0403 15:59:07.826409 15069 net.cpp:399] inception_4d/output -> inception_4d/output
I0403 15:59:07.826472 15069 net.cpp:141] Setting up inception_4d/output
I0403 15:59:07.826503 15069 net.cpp:148] Top shape: 24 528 14 14 (2483712)
I0403 15:59:07.826520 15069 net.cpp:156] Memory required for data: 1157244192
I0403 15:59:07.826537 15069 layer_factory.hpp:77] Creating layer inception_4d/output_inception_4d/output_0_split
I0403 15:59:07.826563 15069 net.cpp:91] Creating Layer inception_4d/output_inception_4d/output_0_split
I0403 15:59:07.826584 15069 net.cpp:425] inception_4d/output_inception_4d/output_0_split <- inception_4d/output
I0403 15:59:07.826607 15069 net.cpp:399] inception_4d/output_inception_4d/output_0_split -> inception_4d/output_inception_4d/output_0_split_0
I0403 15:59:07.826633 15069 net.cpp:399] inception_4d/output_inception_4d/output_0_split -> inception_4d/output_inception_4d/output_0_split_1
I0403 15:59:07.826663 15069 net.cpp:399] inception_4d/output_inception_4d/output_0_split -> inception_4d/output_inception_4d/output_0_split_2
I0403 15:59:07.826690 15069 net.cpp:399] inception_4d/output_inception_4d/output_0_split -> inception_4d/output_inception_4d/output_0_split_3
I0403 15:59:07.826715 15069 net.cpp:399] inception_4d/output_inception_4d/output_0_split -> inception_4d/output_inception_4d/output_0_split_4
I0403 15:59:07.826843 15069 net.cpp:141] Setting up inception_4d/output_inception_4d/output_0_split
I0403 15:59:07.826887 15069 net.cpp:148] Top shape: 24 528 14 14 (2483712)
I0403 15:59:07.826908 15069 net.cpp:148] Top shape: 24 528 14 14 (2483712)
I0403 15:59:07.826928 15069 net.cpp:148] Top shape: 24 528 14 14 (2483712)
I0403 15:59:07.826948 15069 net.cpp:148] Top shape: 24 528 14 14 (2483712)
I0403 15:59:07.826967 15069 net.cpp:148] Top shape: 24 528 14 14 (2483712)
I0403 15:59:07.826983 15069 net.cpp:156] Memory required for data: 1206918432
I0403 15:59:07.827002 15069 layer_factory.hpp:77] Creating layer loss2/ave_pool
I0403 15:59:07.827023 15069 net.cpp:91] Creating Layer loss2/ave_pool
I0403 15:59:07.827044 15069 net.cpp:425] loss2/ave_pool <- inception_4d/output_inception_4d/output_0_split_0
I0403 15:59:07.827069 15069 net.cpp:399] loss2/ave_pool -> loss2/ave_pool
I0403 15:59:07.827455 15069 net.cpp:141] Setting up loss2/ave_pool
I0403 15:59:07.827487 15069 net.cpp:148] Top shape: 24 528 4 4 (202752)
I0403 15:59:07.827505 15069 net.cpp:156] Memory required for data: 1207729440
I0403 15:59:07.827524 15069 layer_factory.hpp:77] Creating layer loss2/conv
I0403 15:59:07.827553 15069 net.cpp:91] Creating Layer loss2/conv
I0403 15:59:07.827574 15069 net.cpp:425] loss2/conv <- loss2/ave_pool
I0403 15:59:07.827603 15069 net.cpp:399] loss2/conv -> loss2/conv
I0403 15:59:07.829921 15069 net.cpp:141] Setting up loss2/conv
I0403 15:59:07.829959 15069 net.cpp:148] Top shape: 24 128 4 4 (49152)
I0403 15:59:07.829980 15069 net.cpp:156] Memory required for data: 1207926048
I0403 15:59:07.830003 15069 layer_factory.hpp:77] Creating layer loss2/relu_conv
I0403 15:59:07.830026 15069 net.cpp:91] Creating Layer loss2/relu_conv
I0403 15:59:07.830047 15069 net.cpp:425] loss2/relu_conv <- loss2/conv
I0403 15:59:07.830070 15069 net.cpp:386] loss2/relu_conv -> loss2/conv (in-place)
I0403 15:59:07.830426 15069 net.cpp:141] Setting up loss2/relu_conv
I0403 15:59:07.830462 15069 net.cpp:148] Top shape: 24 128 4 4 (49152)
I0403 15:59:07.830482 15069 net.cpp:156] Memory required for data: 1208122656
I0403 15:59:07.830502 15069 layer_factory.hpp:77] Creating layer loss2/fc
I0403 15:59:07.830524 15069 net.cpp:91] Creating Layer loss2/fc
I0403 15:59:07.830546 15069 net.cpp:425] loss2/fc <- loss2/conv
I0403 15:59:07.830574 15069 net.cpp:399] loss2/fc -> loss2/fc
I0403 15:59:07.852473 15069 net.cpp:141] Setting up loss2/fc
I0403 15:59:07.852514 15069 net.cpp:148] Top shape: 24 1024 (24576)
I0403 15:59:07.852533 15069 net.cpp:156] Memory required for data: 1208220960
I0403 15:59:07.852556 15069 layer_factory.hpp:77] Creating layer loss2/relu_fc
I0403 15:59:07.852583 15069 net.cpp:91] Creating Layer loss2/relu_fc
I0403 15:59:07.852605 15069 net.cpp:425] loss2/relu_fc <- loss2/fc
I0403 15:59:07.852627 15069 net.cpp:386] loss2/relu_fc -> loss2/fc (in-place)
I0403 15:59:07.853008 15069 net.cpp:141] Setting up loss2/relu_fc
I0403 15:59:07.853039 15069 net.cpp:148] Top shape: 24 1024 (24576)
I0403 15:59:07.853058 15069 net.cpp:156] Memory required for data: 1208319264
I0403 15:59:07.853077 15069 layer_factory.hpp:77] Creating layer loss2/drop_fc
I0403 15:59:07.853109 15069 net.cpp:91] Creating Layer loss2/drop_fc
I0403 15:59:07.853132 15069 net.cpp:425] loss2/drop_fc <- loss2/fc
I0403 15:59:07.853153 15069 net.cpp:386] loss2/drop_fc -> loss2/fc (in-place)
I0403 15:59:07.853216 15069 net.cpp:141] Setting up loss2/drop_fc
I0403 15:59:07.853245 15069 net.cpp:148] Top shape: 24 1024 (24576)
I0403 15:59:07.853263 15069 net.cpp:156] Memory required for data: 1208417568
I0403 15:59:07.853282 15069 layer_factory.hpp:77] Creating layer loss2/classifier_plantvillage
I0403 15:59:07.853304 15069 net.cpp:91] Creating Layer loss2/classifier_plantvillage
I0403 15:59:07.853324 15069 net.cpp:425] loss2/classifier_plantvillage <- loss2/fc
I0403 15:59:07.853351 15069 net.cpp:399] loss2/classifier_plantvillage -> loss2/classifier_plantvillage
I0403 15:59:07.853852 15069 net.cpp:141] Setting up loss2/classifier_plantvillage
I0403 15:59:07.853883 15069 net.cpp:148] Top shape: 24 38 (912)
I0403 15:59:07.853901 15069 net.cpp:156] Memory required for data: 1208421216
I0403 15:59:07.853943 15069 layer_factory.hpp:77] Creating layer loss2/classifier_plantvillage_loss2/classifier_plantvillage_0_split
I0403 15:59:07.853966 15069 net.cpp:91] Creating Layer loss2/classifier_plantvillage_loss2/classifier_plantvillage_0_split
I0403 15:59:07.853986 15069 net.cpp:425] loss2/classifier_plantvillage_loss2/classifier_plantvillage_0_split <- loss2/classifier_plantvillage
I0403 15:59:07.854012 15069 net.cpp:399] loss2/classifier_plantvillage_loss2/classifier_plantvillage_0_split -> loss2/classifier_plantvillage_loss2/classifier_plantvillage_0_split_0
I0403 15:59:07.854038 15069 net.cpp:399] loss2/classifier_plantvillage_loss2/classifier_plantvillage_0_split -> loss2/classifier_plantvillage_loss2/classifier_plantvillage_0_split_1
I0403 15:59:07.854063 15069 net.cpp:399] loss2/classifier_plantvillage_loss2/classifier_plantvillage_0_split -> loss2/classifier_plantvillage_loss2/classifier_plantvillage_0_split_2
I0403 15:59:07.854167 15069 net.cpp:141] Setting up loss2/classifier_plantvillage_loss2/classifier_plantvillage_0_split
I0403 15:59:07.854200 15069 net.cpp:148] Top shape: 24 38 (912)
I0403 15:59:07.854221 15069 net.cpp:148] Top shape: 24 38 (912)
I0403 15:59:07.854241 15069 net.cpp:148] Top shape: 24 38 (912)
I0403 15:59:07.854257 15069 net.cpp:156] Memory required for data: 1208432160
I0403 15:59:07.854275 15069 layer_factory.hpp:77] Creating layer inception_4e/1x1
I0403 15:59:07.854300 15069 net.cpp:91] Creating Layer inception_4e/1x1
I0403 15:59:07.854321 15069 net.cpp:425] inception_4e/1x1 <- inception_4d/output_inception_4d/output_0_split_1
I0403 15:59:07.854343 15069 net.cpp:399] inception_4e/1x1 -> inception_4e/1x1
I0403 15:59:07.856591 15069 net.cpp:141] Setting up inception_4e/1x1
I0403 15:59:07.856626 15069 net.cpp:148] Top shape: 24 256 14 14 (1204224)
I0403 15:59:07.856647 15069 net.cpp:156] Memory required for data: 1213249056
I0403 15:59:07.856678 15069 layer_factory.hpp:77] Creating layer inception_4e/relu_1x1
I0403 15:59:07.856700 15069 net.cpp:91] Creating Layer inception_4e/relu_1x1
I0403 15:59:07.856720 15069 net.cpp:425] inception_4e/relu_1x1 <- inception_4e/1x1
I0403 15:59:07.856745 15069 net.cpp:386] inception_4e/relu_1x1 -> inception_4e/1x1 (in-place)
I0403 15:59:07.857118 15069 net.cpp:141] Setting up inception_4e/relu_1x1
I0403 15:59:07.857151 15069 net.cpp:148] Top shape: 24 256 14 14 (1204224)
I0403 15:59:07.857169 15069 net.cpp:156] Memory required for data: 1218065952
I0403 15:59:07.857188 15069 layer_factory.hpp:77] Creating layer inception_4e/3x3_reduce
I0403 15:59:07.857216 15069 net.cpp:91] Creating Layer inception_4e/3x3_reduce
I0403 15:59:07.857239 15069 net.cpp:425] inception_4e/3x3_reduce <- inception_4d/output_inception_4d/output_0_split_2
I0403 15:59:07.857265 15069 net.cpp:399] inception_4e/3x3_reduce -> inception_4e/3x3_reduce
I0403 15:59:07.859863 15069 net.cpp:141] Setting up inception_4e/3x3_reduce
I0403 15:59:07.859902 15069 net.cpp:148] Top shape: 24 160 14 14 (752640)
I0403 15:59:07.859923 15069 net.cpp:156] Memory required for data: 1221076512
I0403 15:59:07.859946 15069 layer_factory.hpp:77] Creating layer inception_4e/relu_3x3_reduce
I0403 15:59:07.859968 15069 net.cpp:91] Creating Layer inception_4e/relu_3x3_reduce
I0403 15:59:07.859987 15069 net.cpp:425] inception_4e/relu_3x3_reduce <- inception_4e/3x3_reduce
I0403 15:59:07.860013 15069 net.cpp:386] inception_4e/relu_3x3_reduce -> inception_4e/3x3_reduce (in-place)
I0403 15:59:07.860252 15069 net.cpp:141] Setting up inception_4e/relu_3x3_reduce
I0403 15:59:07.860285 15069 net.cpp:148] Top shape: 24 160 14 14 (752640)
I0403 15:59:07.860303 15069 net.cpp:156] Memory required for data: 1224087072
I0403 15:59:07.860321 15069 layer_factory.hpp:77] Creating layer inception_4e/3x3
I0403 15:59:07.860349 15069 net.cpp:91] Creating Layer inception_4e/3x3
I0403 15:59:07.860373 15069 net.cpp:425] inception_4e/3x3 <- inception_4e/3x3_reduce
I0403 15:59:07.860409 15069 net.cpp:399] inception_4e/3x3 -> inception_4e/3x3
I0403 15:59:07.866626 15069 net.cpp:141] Setting up inception_4e/3x3
I0403 15:59:07.866677 15069 net.cpp:148] Top shape: 24 320 14 14 (1505280)
I0403 15:59:07.866696 15069 net.cpp:156] Memory required for data: 1230108192
I0403 15:59:07.866719 15069 layer_factory.hpp:77] Creating layer inception_4e/relu_3x3
I0403 15:59:07.866744 15069 net.cpp:91] Creating Layer inception_4e/relu_3x3
I0403 15:59:07.866763 15069 net.cpp:425] inception_4e/relu_3x3 <- inception_4e/3x3
I0403 15:59:07.866788 15069 net.cpp:386] inception_4e/relu_3x3 -> inception_4e/3x3 (in-place)
I0403 15:59:07.867177 15069 net.cpp:141] Setting up inception_4e/relu_3x3
I0403 15:59:07.867210 15069 net.cpp:148] Top shape: 24 320 14 14 (1505280)
I0403 15:59:07.867229 15069 net.cpp:156] Memory required for data: 1236129312
I0403 15:59:07.867247 15069 layer_factory.hpp:77] Creating layer inception_4e/5x5_reduce
I0403 15:59:07.867277 15069 net.cpp:91] Creating Layer inception_4e/5x5_reduce
I0403 15:59:07.867301 15069 net.cpp:425] inception_4e/5x5_reduce <- inception_4d/output_inception_4d/output_0_split_3
I0403 15:59:07.867331 15069 net.cpp:399] inception_4e/5x5_reduce -> inception_4e/5x5_reduce
I0403 15:59:07.868679 15069 net.cpp:141] Setting up inception_4e/5x5_reduce
I0403 15:59:07.868716 15069 net.cpp:148] Top shape: 24 32 14 14 (150528)
I0403 15:59:07.868737 15069 net.cpp:156] Memory required for data: 1236731424
I0403 15:59:07.868759 15069 layer_factory.hpp:77] Creating layer inception_4e/relu_5x5_reduce
I0403 15:59:07.868782 15069 net.cpp:91] Creating Layer inception_4e/relu_5x5_reduce
I0403 15:59:07.868803 15069 net.cpp:425] inception_4e/relu_5x5_reduce <- inception_4e/5x5_reduce
I0403 15:59:07.868829 15069 net.cpp:386] inception_4e/relu_5x5_reduce -> inception_4e/5x5_reduce (in-place)
I0403 15:59:07.869205 15069 net.cpp:141] Setting up inception_4e/relu_5x5_reduce
I0403 15:59:07.869240 15069 net.cpp:148] Top shape: 24 32 14 14 (150528)
I0403 15:59:07.869261 15069 net.cpp:156] Memory required for data: 1237333536
I0403 15:59:07.869280 15069 layer_factory.hpp:77] Creating layer inception_4e/5x5
I0403 15:59:07.869328 15069 net.cpp:91] Creating Layer inception_4e/5x5
I0403 15:59:07.869354 15069 net.cpp:425] inception_4e/5x5 <- inception_4e/5x5_reduce
I0403 15:59:07.869377 15069 net.cpp:399] inception_4e/5x5 -> inception_4e/5x5
I0403 15:59:07.871660 15069 net.cpp:141] Setting up inception_4e/5x5
I0403 15:59:07.871701 15069 net.cpp:148] Top shape: 24 128 14 14 (602112)
I0403 15:59:07.871723 15069 net.cpp:156] Memory required for data: 1239741984
I0403 15:59:07.871747 15069 layer_factory.hpp:77] Creating layer inception_4e/relu_5x5
I0403 15:59:07.871770 15069 net.cpp:91] Creating Layer inception_4e/relu_5x5
I0403 15:59:07.871791 15069 net.cpp:425] inception_4e/relu_5x5 <- inception_4e/5x5
I0403 15:59:07.871812 15069 net.cpp:386] inception_4e/relu_5x5 -> inception_4e/5x5 (in-place)
I0403 15:59:07.872061 15069 net.cpp:141] Setting up inception_4e/relu_5x5
I0403 15:59:07.872108 15069 net.cpp:148] Top shape: 24 128 14 14 (602112)
I0403 15:59:07.872133 15069 net.cpp:156] Memory required for data: 1242150432
I0403 15:59:07.872151 15069 layer_factory.hpp:77] Creating layer inception_4e/pool
I0403 15:59:07.872172 15069 net.cpp:91] Creating Layer inception_4e/pool
I0403 15:59:07.872191 15069 net.cpp:425] inception_4e/pool <- inception_4d/output_inception_4d/output_0_split_4
I0403 15:59:07.872216 15069 net.cpp:399] inception_4e/pool -> inception_4e/pool
I0403 15:59:07.872304 15069 net.cpp:141] Setting up inception_4e/pool
I0403 15:59:07.872337 15069 net.cpp:148] Top shape: 24 528 14 14 (2483712)
I0403 15:59:07.872357 15069 net.cpp:156] Memory required for data: 1252085280
I0403 15:59:07.872376 15069 layer_factory.hpp:77] Creating layer inception_4e/pool_proj
I0403 15:59:07.872401 15069 net.cpp:91] Creating Layer inception_4e/pool_proj
I0403 15:59:07.872424 15069 net.cpp:425] inception_4e/pool_proj <- inception_4e/pool
I0403 15:59:07.872450 15069 net.cpp:399] inception_4e/pool_proj -> inception_4e/pool_proj
I0403 15:59:07.874320 15069 net.cpp:141] Setting up inception_4e/pool_proj
I0403 15:59:07.874354 15069 net.cpp:148] Top shape: 24 128 14 14 (602112)
I0403 15:59:07.874392 15069 net.cpp:156] Memory required for data: 1254493728
I0403 15:59:07.874415 15069 layer_factory.hpp:77] Creating layer inception_4e/relu_pool_proj
I0403 15:59:07.874441 15069 net.cpp:91] Creating Layer inception_4e/relu_pool_proj
I0403 15:59:07.874462 15069 net.cpp:425] inception_4e/relu_pool_proj <- inception_4e/pool_proj
I0403 15:59:07.874483 15069 net.cpp:386] inception_4e/relu_pool_proj -> inception_4e/pool_proj (in-place)
I0403 15:59:07.874850 15069 net.cpp:141] Setting up inception_4e/relu_pool_proj
I0403 15:59:07.874882 15069 net.cpp:148] Top shape: 24 128 14 14 (602112)
I0403 15:59:07.874902 15069 net.cpp:156] Memory required for data: 1256902176
I0403 15:59:07.874919 15069 layer_factory.hpp:77] Creating layer inception_4e/output
I0403 15:59:07.874943 15069 net.cpp:91] Creating Layer inception_4e/output
I0403 15:59:07.874965 15069 net.cpp:425] inception_4e/output <- inception_4e/1x1
I0403 15:59:07.874986 15069 net.cpp:425] inception_4e/output <- inception_4e/3x3
I0403 15:59:07.875007 15069 net.cpp:425] inception_4e/output <- inception_4e/5x5
I0403 15:59:07.875028 15069 net.cpp:425] inception_4e/output <- inception_4e/pool_proj
I0403 15:59:07.875049 15069 net.cpp:399] inception_4e/output -> inception_4e/output
I0403 15:59:07.875120 15069 net.cpp:141] Setting up inception_4e/output
I0403 15:59:07.875150 15069 net.cpp:148] Top shape: 24 832 14 14 (3913728)
I0403 15:59:07.875169 15069 net.cpp:156] Memory required for data: 1272557088
I0403 15:59:07.875187 15069 layer_factory.hpp:77] Creating layer pool4/3x3_s2
I0403 15:59:07.875208 15069 net.cpp:91] Creating Layer pool4/3x3_s2
I0403 15:59:07.875227 15069 net.cpp:425] pool4/3x3_s2 <- inception_4e/output
I0403 15:59:07.875253 15069 net.cpp:399] pool4/3x3_s2 -> pool4/3x3_s2
I0403 15:59:07.875335 15069 net.cpp:141] Setting up pool4/3x3_s2
I0403 15:59:07.875370 15069 net.cpp:148] Top shape: 24 832 7 7 (978432)
I0403 15:59:07.875388 15069 net.cpp:156] Memory required for data: 1276470816
I0403 15:59:07.875407 15069 layer_factory.hpp:77] Creating layer pool4/3x3_s2_pool4/3x3_s2_0_split
I0403 15:59:07.875427 15069 net.cpp:91] Creating Layer pool4/3x3_s2_pool4/3x3_s2_0_split
I0403 15:59:07.875447 15069 net.cpp:425] pool4/3x3_s2_pool4/3x3_s2_0_split <- pool4/3x3_s2
I0403 15:59:07.875468 15069 net.cpp:399] pool4/3x3_s2_pool4/3x3_s2_0_split -> pool4/3x3_s2_pool4/3x3_s2_0_split_0
I0403 15:59:07.875495 15069 net.cpp:399] pool4/3x3_s2_pool4/3x3_s2_0_split -> pool4/3x3_s2_pool4/3x3_s2_0_split_1
I0403 15:59:07.875522 15069 net.cpp:399] pool4/3x3_s2_pool4/3x3_s2_0_split -> pool4/3x3_s2_pool4/3x3_s2_0_split_2
I0403 15:59:07.875548 15069 net.cpp:399] pool4/3x3_s2_pool4/3x3_s2_0_split -> pool4/3x3_s2_pool4/3x3_s2_0_split_3
I0403 15:59:07.875663 15069 net.cpp:141] Setting up pool4/3x3_s2_pool4/3x3_s2_0_split
I0403 15:59:07.875692 15069 net.cpp:148] Top shape: 24 832 7 7 (978432)
I0403 15:59:07.875713 15069 net.cpp:148] Top shape: 24 832 7 7 (978432)
I0403 15:59:07.875732 15069 net.cpp:148] Top shape: 24 832 7 7 (978432)
I0403 15:59:07.875751 15069 net.cpp:148] Top shape: 24 832 7 7 (978432)
I0403 15:59:07.875768 15069 net.cpp:156] Memory required for data: 1292125728
I0403 15:59:07.875785 15069 layer_factory.hpp:77] Creating layer inception_5a/1x1
I0403 15:59:07.875815 15069 net.cpp:91] Creating Layer inception_5a/1x1
I0403 15:59:07.875839 15069 net.cpp:425] inception_5a/1x1 <- pool4/3x3_s2_pool4/3x3_s2_0_split_0
I0403 15:59:07.875862 15069 net.cpp:399] inception_5a/1x1 -> inception_5a/1x1
I0403 15:59:07.879386 15069 net.cpp:141] Setting up inception_5a/1x1
I0403 15:59:07.879426 15069 net.cpp:148] Top shape: 24 256 7 7 (301056)
I0403 15:59:07.879447 15069 net.cpp:156] Memory required for data: 1293329952
I0403 15:59:07.879470 15069 layer_factory.hpp:77] Creating layer inception_5a/relu_1x1
I0403 15:59:07.879492 15069 net.cpp:91] Creating Layer inception_5a/relu_1x1
I0403 15:59:07.879513 15069 net.cpp:425] inception_5a/relu_1x1 <- inception_5a/1x1
I0403 15:59:07.879536 15069 net.cpp:386] inception_5a/relu_1x1 -> inception_5a/1x1 (in-place)
I0403 15:59:07.879916 15069 net.cpp:141] Setting up inception_5a/relu_1x1
I0403 15:59:07.879951 15069 net.cpp:148] Top shape: 24 256 7 7 (301056)
I0403 15:59:07.879971 15069 net.cpp:156] Memory required for data: 1294534176
I0403 15:59:07.879989 15069 layer_factory.hpp:77] Creating layer inception_5a/3x3_reduce
I0403 15:59:07.880019 15069 net.cpp:91] Creating Layer inception_5a/3x3_reduce
I0403 15:59:07.880043 15069 net.cpp:425] inception_5a/3x3_reduce <- pool4/3x3_s2_pool4/3x3_s2_0_split_1
I0403 15:59:07.880066 15069 net.cpp:399] inception_5a/3x3_reduce -> inception_5a/3x3_reduce
I0403 15:59:07.883110 15069 net.cpp:141] Setting up inception_5a/3x3_reduce
I0403 15:59:07.883146 15069 net.cpp:148] Top shape: 24 160 7 7 (188160)
I0403 15:59:07.883165 15069 net.cpp:156] Memory required for data: 1295286816
I0403 15:59:07.883188 15069 layer_factory.hpp:77] Creating layer inception_5a/relu_3x3_reduce
I0403 15:59:07.883214 15069 net.cpp:91] Creating Layer inception_5a/relu_3x3_reduce
I0403 15:59:07.883234 15069 net.cpp:425] inception_5a/relu_3x3_reduce <- inception_5a/3x3_reduce
I0403 15:59:07.883256 15069 net.cpp:386] inception_5a/relu_3x3_reduce -> inception_5a/3x3_reduce (in-place)
I0403 15:59:07.883507 15069 net.cpp:141] Setting up inception_5a/relu_3x3_reduce
I0403 15:59:07.883538 15069 net.cpp:148] Top shape: 24 160 7 7 (188160)
I0403 15:59:07.883556 15069 net.cpp:156] Memory required for data: 1296039456
I0403 15:59:07.883574 15069 layer_factory.hpp:77] Creating layer inception_5a/3x3
I0403 15:59:07.883605 15069 net.cpp:91] Creating Layer inception_5a/3x3
I0403 15:59:07.883627 15069 net.cpp:425] inception_5a/3x3 <- inception_5a/3x3_reduce
I0403 15:59:07.883652 15069 net.cpp:399] inception_5a/3x3 -> inception_5a/3x3
I0403 15:59:07.889888 15069 net.cpp:141] Setting up inception_5a/3x3
I0403 15:59:07.889926 15069 net.cpp:148] Top shape: 24 320 7 7 (376320)
I0403 15:59:07.889947 15069 net.cpp:156] Memory required for data: 1297544736
I0403 15:59:07.889969 15069 layer_factory.hpp:77] Creating layer inception_5a/relu_3x3
I0403 15:59:07.889992 15069 net.cpp:91] Creating Layer inception_5a/relu_3x3
I0403 15:59:07.890013 15069 net.cpp:425] inception_5a/relu_3x3 <- inception_5a/3x3
I0403 15:59:07.890035 15069 net.cpp:386] inception_5a/relu_3x3 -> inception_5a/3x3 (in-place)
I0403 15:59:07.890408 15069 net.cpp:141] Setting up inception_5a/relu_3x3
I0403 15:59:07.890444 15069 net.cpp:148] Top shape: 24 320 7 7 (376320)
I0403 15:59:07.890462 15069 net.cpp:156] Memory required for data: 1299050016
I0403 15:59:07.890482 15069 layer_factory.hpp:77] Creating layer inception_5a/5x5_reduce
I0403 15:59:07.890509 15069 net.cpp:91] Creating Layer inception_5a/5x5_reduce
I0403 15:59:07.890532 15069 net.cpp:425] inception_5a/5x5_reduce <- pool4/3x3_s2_pool4/3x3_s2_0_split_2
I0403 15:59:07.890557 15069 net.cpp:399] inception_5a/5x5_reduce -> inception_5a/5x5_reduce
I0403 15:59:07.892020 15069 net.cpp:141] Setting up inception_5a/5x5_reduce
I0403 15:59:07.892058 15069 net.cpp:148] Top shape: 24 32 7 7 (37632)
I0403 15:59:07.892078 15069 net.cpp:156] Memory required for data: 1299200544
I0403 15:59:07.892115 15069 layer_factory.hpp:77] Creating layer inception_5a/relu_5x5_reduce
I0403 15:59:07.892141 15069 net.cpp:91] Creating Layer inception_5a/relu_5x5_reduce
I0403 15:59:07.892163 15069 net.cpp:425] inception_5a/relu_5x5_reduce <- inception_5a/5x5_reduce
I0403 15:59:07.892187 15069 net.cpp:386] inception_5a/relu_5x5_reduce -> inception_5a/5x5_reduce (in-place)
I0403 15:59:07.892561 15069 net.cpp:141] Setting up inception_5a/relu_5x5_reduce
I0403 15:59:07.892596 15069 net.cpp:148] Top shape: 24 32 7 7 (37632)
I0403 15:59:07.892617 15069 net.cpp:156] Memory required for data: 1299351072
I0403 15:59:07.892637 15069 layer_factory.hpp:77] Creating layer inception_5a/5x5
I0403 15:59:07.892664 15069 net.cpp:91] Creating Layer inception_5a/5x5
I0403 15:59:07.892688 15069 net.cpp:425] inception_5a/5x5 <- inception_5a/5x5_reduce
I0403 15:59:07.892712 15069 net.cpp:399] inception_5a/5x5 -> inception_5a/5x5
I0403 15:59:07.894860 15069 net.cpp:141] Setting up inception_5a/5x5
I0403 15:59:07.894912 15069 net.cpp:148] Top shape: 24 128 7 7 (150528)
I0403 15:59:07.894932 15069 net.cpp:156] Memory required for data: 1299953184
I0403 15:59:07.894956 15069 layer_factory.hpp:77] Creating layer inception_5a/relu_5x5
I0403 15:59:07.894979 15069 net.cpp:91] Creating Layer inception_5a/relu_5x5
I0403 15:59:07.894999 15069 net.cpp:425] inception_5a/relu_5x5 <- inception_5a/5x5
I0403 15:59:07.895020 15069 net.cpp:386] inception_5a/relu_5x5 -> inception_5a/5x5 (in-place)
I0403 15:59:07.895268 15069 net.cpp:141] Setting up inception_5a/relu_5x5
I0403 15:59:07.895303 15069 net.cpp:148] Top shape: 24 128 7 7 (150528)
I0403 15:59:07.895323 15069 net.cpp:156] Memory required for data: 1300555296
I0403 15:59:07.895342 15069 layer_factory.hpp:77] Creating layer inception_5a/pool
I0403 15:59:07.895364 15069 net.cpp:91] Creating Layer inception_5a/pool
I0403 15:59:07.895385 15069 net.cpp:425] inception_5a/pool <- pool4/3x3_s2_pool4/3x3_s2_0_split_3
I0403 15:59:07.895411 15069 net.cpp:399] inception_5a/pool -> inception_5a/pool
I0403 15:59:07.895498 15069 net.cpp:141] Setting up inception_5a/pool
I0403 15:59:07.895531 15069 net.cpp:148] Top shape: 24 832 7 7 (978432)
I0403 15:59:07.895550 15069 net.cpp:156] Memory required for data: 1304469024
I0403 15:59:07.895568 15069 layer_factory.hpp:77] Creating layer inception_5a/pool_proj
I0403 15:59:07.895596 15069 net.cpp:91] Creating Layer inception_5a/pool_proj
I0403 15:59:07.895619 15069 net.cpp:425] inception_5a/pool_proj <- inception_5a/pool
I0403 15:59:07.895642 15069 net.cpp:399] inception_5a/pool_proj -> inception_5a/pool_proj
I0403 15:59:07.898495 15069 net.cpp:141] Setting up inception_5a/pool_proj
I0403 15:59:07.898532 15069 net.cpp:148] Top shape: 24 128 7 7 (150528)
I0403 15:59:07.898551 15069 net.cpp:156] Memory required for data: 1305071136
I0403 15:59:07.898573 15069 layer_factory.hpp:77] Creating layer inception_5a/relu_pool_proj
I0403 15:59:07.898599 15069 net.cpp:91] Creating Layer inception_5a/relu_pool_proj
I0403 15:59:07.898622 15069 net.cpp:425] inception_5a/relu_pool_proj <- inception_5a/pool_proj
I0403 15:59:07.898644 15069 net.cpp:386] inception_5a/relu_pool_proj -> inception_5a/pool_proj (in-place)
I0403 15:59:07.899009 15069 net.cpp:141] Setting up inception_5a/relu_pool_proj
I0403 15:59:07.899042 15069 net.cpp:148] Top shape: 24 128 7 7 (150528)
I0403 15:59:07.899061 15069 net.cpp:156] Memory required for data: 1305673248
I0403 15:59:07.899080 15069 layer_factory.hpp:77] Creating layer inception_5a/output
I0403 15:59:07.899111 15069 net.cpp:91] Creating Layer inception_5a/output
I0403 15:59:07.899135 15069 net.cpp:425] inception_5a/output <- inception_5a/1x1
I0403 15:59:07.899158 15069 net.cpp:425] inception_5a/output <- inception_5a/3x3
I0403 15:59:07.899176 15069 net.cpp:425] inception_5a/output <- inception_5a/5x5
I0403 15:59:07.899196 15069 net.cpp:425] inception_5a/output <- inception_5a/pool_proj
I0403 15:59:07.899217 15069 net.cpp:399] inception_5a/output -> inception_5a/output
I0403 15:59:07.899283 15069 net.cpp:141] Setting up inception_5a/output
I0403 15:59:07.899313 15069 net.cpp:148] Top shape: 24 832 7 7 (978432)
I0403 15:59:07.899332 15069 net.cpp:156] Memory required for data: 1309586976
I0403 15:59:07.899350 15069 layer_factory.hpp:77] Creating layer inception_5a/output_inception_5a/output_0_split
I0403 15:59:07.899372 15069 net.cpp:91] Creating Layer inception_5a/output_inception_5a/output_0_split
I0403 15:59:07.899391 15069 net.cpp:425] inception_5a/output_inception_5a/output_0_split <- inception_5a/output
I0403 15:59:07.899415 15069 net.cpp:399] inception_5a/output_inception_5a/output_0_split -> inception_5a/output_inception_5a/output_0_split_0
I0403 15:59:07.899442 15069 net.cpp:399] inception_5a/output_inception_5a/output_0_split -> inception_5a/output_inception_5a/output_0_split_1
I0403 15:59:07.899468 15069 net.cpp:399] inception_5a/output_inception_5a/output_0_split -> inception_5a/output_inception_5a/output_0_split_2
I0403 15:59:07.899493 15069 net.cpp:399] inception_5a/output_inception_5a/output_0_split -> inception_5a/output_inception_5a/output_0_split_3
I0403 15:59:07.899636 15069 net.cpp:141] Setting up inception_5a/output_inception_5a/output_0_split
I0403 15:59:07.899669 15069 net.cpp:148] Top shape: 24 832 7 7 (978432)
I0403 15:59:07.899690 15069 net.cpp:148] Top shape: 24 832 7 7 (978432)
I0403 15:59:07.899709 15069 net.cpp:148] Top shape: 24 832 7 7 (978432)
I0403 15:59:07.899729 15069 net.cpp:148] Top shape: 24 832 7 7 (978432)
I0403 15:59:07.899745 15069 net.cpp:156] Memory required for data: 1325241888
I0403 15:59:07.899763 15069 layer_factory.hpp:77] Creating layer inception_5b/1x1
I0403 15:59:07.899791 15069 net.cpp:91] Creating Layer inception_5b/1x1
I0403 15:59:07.899813 15069 net.cpp:425] inception_5b/1x1 <- inception_5a/output_inception_5a/output_0_split_0
I0403 15:59:07.899837 15069 net.cpp:399] inception_5b/1x1 -> inception_5b/1x1
I0403 15:59:07.907135 15069 net.cpp:141] Setting up inception_5b/1x1
I0403 15:59:07.907172 15069 net.cpp:148] Top shape: 24 384 7 7 (451584)
I0403 15:59:07.907191 15069 net.cpp:156] Memory required for data: 1327048224
I0403 15:59:07.907214 15069 layer_factory.hpp:77] Creating layer inception_5b/relu_1x1
I0403 15:59:07.907240 15069 net.cpp:91] Creating Layer inception_5b/relu_1x1
I0403 15:59:07.907261 15069 net.cpp:425] inception_5b/relu_1x1 <- inception_5b/1x1
I0403 15:59:07.907284 15069 net.cpp:386] inception_5b/relu_1x1 -> inception_5b/1x1 (in-place)
I0403 15:59:07.907663 15069 net.cpp:141] Setting up inception_5b/relu_1x1
I0403 15:59:07.907696 15069 net.cpp:148] Top shape: 24 384 7 7 (451584)
I0403 15:59:07.907714 15069 net.cpp:156] Memory required for data: 1328854560
I0403 15:59:07.907732 15069 layer_factory.hpp:77] Creating layer inception_5b/3x3_reduce
I0403 15:59:07.907760 15069 net.cpp:91] Creating Layer inception_5b/3x3_reduce
I0403 15:59:07.907785 15069 net.cpp:425] inception_5b/3x3_reduce <- inception_5a/output_inception_5a/output_0_split_1
I0403 15:59:07.907814 15069 net.cpp:399] inception_5b/3x3_reduce -> inception_5b/3x3_reduce
I0403 15:59:07.911109 15069 net.cpp:141] Setting up inception_5b/3x3_reduce
I0403 15:59:07.911145 15069 net.cpp:148] Top shape: 24 192 7 7 (225792)
I0403 15:59:07.911165 15069 net.cpp:156] Memory required for data: 1329757728
I0403 15:59:07.911187 15069 layer_factory.hpp:77] Creating layer inception_5b/relu_3x3_reduce
I0403 15:59:07.911213 15069 net.cpp:91] Creating Layer inception_5b/relu_3x3_reduce
I0403 15:59:07.911236 15069 net.cpp:425] inception_5b/relu_3x3_reduce <- inception_5b/3x3_reduce
I0403 15:59:07.911257 15069 net.cpp:386] inception_5b/relu_3x3_reduce -> inception_5b/3x3_reduce (in-place)
I0403 15:59:07.911504 15069 net.cpp:141] Setting up inception_5b/relu_3x3_reduce
I0403 15:59:07.911538 15069 net.cpp:148] Top shape: 24 192 7 7 (225792)
I0403 15:59:07.911558 15069 net.cpp:156] Memory required for data: 1330660896
I0403 15:59:07.911576 15069 layer_factory.hpp:77] Creating layer inception_5b/3x3
I0403 15:59:07.911603 15069 net.cpp:91] Creating Layer inception_5b/3x3
I0403 15:59:07.911626 15069 net.cpp:425] inception_5b/3x3 <- inception_5b/3x3_reduce
I0403 15:59:07.911649 15069 net.cpp:399] inception_5b/3x3 -> inception_5b/3x3
I0403 15:59:07.921869 15069 net.cpp:141] Setting up inception_5b/3x3
I0403 15:59:07.921912 15069 net.cpp:148] Top shape: 24 384 7 7 (451584)
I0403 15:59:07.921936 15069 net.cpp:156] Memory required for data: 1332467232
I0403 15:59:07.921962 15069 layer_factory.hpp:77] Creating layer inception_5b/relu_3x3
I0403 15:59:07.921993 15069 net.cpp:91] Creating Layer inception_5b/relu_3x3
I0403 15:59:07.922020 15069 net.cpp:425] inception_5b/relu_3x3 <- inception_5b/3x3
I0403 15:59:07.922049 15069 net.cpp:386] inception_5b/relu_3x3 -> inception_5b/3x3 (in-place)
I0403 15:59:07.922463 15069 net.cpp:141] Setting up inception_5b/relu_3x3
I0403 15:59:07.922497 15069 net.cpp:148] Top shape: 24 384 7 7 (451584)
I0403 15:59:07.922514 15069 net.cpp:156] Memory required for data: 1334273568
I0403 15:59:07.922533 15069 layer_factory.hpp:77] Creating layer inception_5b/5x5_reduce
I0403 15:59:07.922580 15069 net.cpp:91] Creating Layer inception_5b/5x5_reduce
I0403 15:59:07.922608 15069 net.cpp:425] inception_5b/5x5_reduce <- inception_5a/output_inception_5a/output_0_split_2
I0403 15:59:07.922633 15069 net.cpp:399] inception_5b/5x5_reduce -> inception_5b/5x5_reduce
I0403 15:59:07.924233 15069 net.cpp:141] Setting up inception_5b/5x5_reduce
I0403 15:59:07.924268 15069 net.cpp:148] Top shape: 24 48 7 7 (56448)
I0403 15:59:07.924286 15069 net.cpp:156] Memory required for data: 1334499360
I0403 15:59:07.924309 15069 layer_factory.hpp:77] Creating layer inception_5b/relu_5x5_reduce
I0403 15:59:07.924335 15069 net.cpp:91] Creating Layer inception_5b/relu_5x5_reduce
I0403 15:59:07.924357 15069 net.cpp:425] inception_5b/relu_5x5_reduce <- inception_5b/5x5_reduce
I0403 15:59:07.924379 15069 net.cpp:386] inception_5b/relu_5x5_reduce -> inception_5b/5x5_reduce (in-place)
I0403 15:59:07.924837 15069 net.cpp:141] Setting up inception_5b/relu_5x5_reduce
I0403 15:59:07.924871 15069 net.cpp:148] Top shape: 24 48 7 7 (56448)
I0403 15:59:07.924890 15069 net.cpp:156] Memory required for data: 1334725152
I0403 15:59:07.924907 15069 layer_factory.hpp:77] Creating layer inception_5b/5x5
I0403 15:59:07.924932 15069 net.cpp:91] Creating Layer inception_5b/5x5
I0403 15:59:07.924955 15069 net.cpp:425] inception_5b/5x5 <- inception_5b/5x5_reduce
I0403 15:59:07.924978 15069 net.cpp:399] inception_5b/5x5 -> inception_5b/5x5
I0403 15:59:07.927533 15069 net.cpp:141] Setting up inception_5b/5x5
I0403 15:59:07.927572 15069 net.cpp:148] Top shape: 24 128 7 7 (150528)
I0403 15:59:07.927592 15069 net.cpp:156] Memory required for data: 1335327264
I0403 15:59:07.927614 15069 layer_factory.hpp:77] Creating layer inception_5b/relu_5x5
I0403 15:59:07.927637 15069 net.cpp:91] Creating Layer inception_5b/relu_5x5
I0403 15:59:07.927659 15069 net.cpp:425] inception_5b/relu_5x5 <- inception_5b/5x5
I0403 15:59:07.927690 15069 net.cpp:386] inception_5b/relu_5x5 -> inception_5b/5x5 (in-place)
I0403 15:59:07.927932 15069 net.cpp:141] Setting up inception_5b/relu_5x5
I0403 15:59:07.927963 15069 net.cpp:148] Top shape: 24 128 7 7 (150528)
I0403 15:59:07.927981 15069 net.cpp:156] Memory required for data: 1335929376
I0403 15:59:07.927999 15069 layer_factory.hpp:77] Creating layer inception_5b/pool
I0403 15:59:07.928020 15069 net.cpp:91] Creating Layer inception_5b/pool
I0403 15:59:07.928041 15069 net.cpp:425] inception_5b/pool <- inception_5a/output_inception_5a/output_0_split_3
I0403 15:59:07.928067 15069 net.cpp:399] inception_5b/pool -> inception_5b/pool
I0403 15:59:07.928165 15069 net.cpp:141] Setting up inception_5b/pool
I0403 15:59:07.928195 15069 net.cpp:148] Top shape: 24 832 7 7 (978432)
I0403 15:59:07.928212 15069 net.cpp:156] Memory required for data: 1339843104
I0403 15:59:07.928231 15069 layer_factory.hpp:77] Creating layer inception_5b/pool_proj
I0403 15:59:07.928259 15069 net.cpp:91] Creating Layer inception_5b/pool_proj
I0403 15:59:07.928283 15069 net.cpp:425] inception_5b/pool_proj <- inception_5b/pool
I0403 15:59:07.928306 15069 net.cpp:399] inception_5b/pool_proj -> inception_5b/pool_proj
I0403 15:59:07.931146 15069 net.cpp:141] Setting up inception_5b/pool_proj
I0403 15:59:07.931182 15069 net.cpp:148] Top shape: 24 128 7 7 (150528)
I0403 15:59:07.931201 15069 net.cpp:156] Memory required for data: 1340445216
I0403 15:59:07.931224 15069 layer_factory.hpp:77] Creating layer inception_5b/relu_pool_proj
I0403 15:59:07.931252 15069 net.cpp:91] Creating Layer inception_5b/relu_pool_proj
I0403 15:59:07.931273 15069 net.cpp:425] inception_5b/relu_pool_proj <- inception_5b/pool_proj
I0403 15:59:07.931293 15069 net.cpp:386] inception_5b/relu_pool_proj -> inception_5b/pool_proj (in-place)
I0403 15:59:07.931659 15069 net.cpp:141] Setting up inception_5b/relu_pool_proj
I0403 15:59:07.931694 15069 net.cpp:148] Top shape: 24 128 7 7 (150528)
I0403 15:59:07.931716 15069 net.cpp:156] Memory required for data: 1341047328
I0403 15:59:07.931735 15069 layer_factory.hpp:77] Creating layer inception_5b/output
I0403 15:59:07.931756 15069 net.cpp:91] Creating Layer inception_5b/output
I0403 15:59:07.931794 15069 net.cpp:425] inception_5b/output <- inception_5b/1x1
I0403 15:59:07.931815 15069 net.cpp:425] inception_5b/output <- inception_5b/3x3
I0403 15:59:07.931835 15069 net.cpp:425] inception_5b/output <- inception_5b/5x5
I0403 15:59:07.931855 15069 net.cpp:425] inception_5b/output <- inception_5b/pool_proj
I0403 15:59:07.931876 15069 net.cpp:399] inception_5b/output -> inception_5b/output
I0403 15:59:07.931943 15069 net.cpp:141] Setting up inception_5b/output
I0403 15:59:07.931973 15069 net.cpp:148] Top shape: 24 1024 7 7 (1204224)
I0403 15:59:07.931990 15069 net.cpp:156] Memory required for data: 1345864224
I0403 15:59:07.932008 15069 layer_factory.hpp:77] Creating layer pool5/7x7_s1
I0403 15:59:07.932032 15069 net.cpp:91] Creating Layer pool5/7x7_s1
I0403 15:59:07.932054 15069 net.cpp:425] pool5/7x7_s1 <- inception_5b/output
I0403 15:59:07.932076 15069 net.cpp:399] pool5/7x7_s1 -> pool5/7x7_s1
I0403 15:59:07.932358 15069 net.cpp:141] Setting up pool5/7x7_s1
I0403 15:59:07.932402 15069 net.cpp:148] Top shape: 24 1024 1 1 (24576)
I0403 15:59:07.932421 15069 net.cpp:156] Memory required for data: 1345962528
I0403 15:59:07.932440 15069 layer_factory.hpp:77] Creating layer pool5/drop_7x7_s1
I0403 15:59:07.932462 15069 net.cpp:91] Creating Layer pool5/drop_7x7_s1
I0403 15:59:07.932482 15069 net.cpp:425] pool5/drop_7x7_s1 <- pool5/7x7_s1
I0403 15:59:07.932504 15069 net.cpp:386] pool5/drop_7x7_s1 -> pool5/7x7_s1 (in-place)
I0403 15:59:07.932569 15069 net.cpp:141] Setting up pool5/drop_7x7_s1
I0403 15:59:07.932596 15069 net.cpp:148] Top shape: 24 1024 1 1 (24576)
I0403 15:59:07.932615 15069 net.cpp:156] Memory required for data: 1346060832
I0403 15:59:07.932632 15069 layer_factory.hpp:77] Creating layer loss3/classifier_plantvillage
I0403 15:59:07.932658 15069 net.cpp:91] Creating Layer loss3/classifier_plantvillage
I0403 15:59:07.932682 15069 net.cpp:425] loss3/classifier_plantvillage <- pool5/7x7_s1
I0403 15:59:07.932705 15069 net.cpp:399] loss3/classifier_plantvillage -> loss3/classifier_plantvillage
I0403 15:59:07.933239 15069 net.cpp:141] Setting up loss3/classifier_plantvillage
I0403 15:59:07.933270 15069 net.cpp:148] Top shape: 24 38 (912)
I0403 15:59:07.933287 15069 net.cpp:156] Memory required for data: 1346064480
I0403 15:59:07.933310 15069 layer_factory.hpp:77] Creating layer loss3/classifier_plantvillage_loss3/classifier_plantvillage_0_split
I0403 15:59:07.933333 15069 net.cpp:91] Creating Layer loss3/classifier_plantvillage_loss3/classifier_plantvillage_0_split
I0403 15:59:07.933353 15069 net.cpp:425] loss3/classifier_plantvillage_loss3/classifier_plantvillage_0_split <- loss3/classifier_plantvillage
I0403 15:59:07.933378 15069 net.cpp:399] loss3/classifier_plantvillage_loss3/classifier_plantvillage_0_split -> loss3/classifier_plantvillage_loss3/classifier_plantvillage_0_split_0
I0403 15:59:07.933404 15069 net.cpp:399] loss3/classifier_plantvillage_loss3/classifier_plantvillage_0_split -> loss3/classifier_plantvillage_loss3/classifier_plantvillage_0_split_1
I0403 15:59:07.933430 15069 net.cpp:399] loss3/classifier_plantvillage_loss3/classifier_plantvillage_0_split -> loss3/classifier_plantvillage_loss3/classifier_plantvillage_0_split_2
I0403 15:59:07.933455 15069 net.cpp:399] loss3/classifier_plantvillage_loss3/classifier_plantvillage_0_split -> loss3/classifier_plantvillage_loss3/classifier_plantvillage_0_split_3
I0403 15:59:07.933586 15069 net.cpp:141] Setting up loss3/classifier_plantvillage_loss3/classifier_plantvillage_0_split
I0403 15:59:07.933619 15069 net.cpp:148] Top shape: 24 38 (912)
I0403 15:59:07.933639 15069 net.cpp:148] Top shape: 24 38 (912)
I0403 15:59:07.933657 15069 net.cpp:148] Top shape: 24 38 (912)
I0403 15:59:07.933676 15069 net.cpp:148] Top shape: 24 38 (912)
I0403 15:59:07.933692 15069 net.cpp:156] Memory required for data: 1346079072
I0403 15:59:07.933709 15069 layer_factory.hpp:77] Creating layer loss1/loss
I0403 15:59:07.933737 15069 net.cpp:91] Creating Layer loss1/loss
I0403 15:59:07.933758 15069 net.cpp:425] loss1/loss <- loss1/classifier_plantvillage_loss1/classifier_plantvillage_0_split_0
I0403 15:59:07.933795 15069 net.cpp:425] loss1/loss <- label_data_1_split_0
…
