…
I0403 15:52:03.177871 14787 net.cpp:313] The NetState phase (1) differed from the phase (0) specified by a rule in layer data
I0403 15:52:03.178992 14787 net.cpp:49] Initializing net from parameters: 
state {
  phase: TEST
}
layer {
  name: "data"
  type: "Data"
  top: "data"
  top: "label"
  include {
    phase: TEST
  }
  transform_param {
    mirror: false
    crop_size: 224
    mean_file: "/home/mohanty/data/final_dataset/lmdb/color-80-20/mean.binaryproto"
  }
  data_param {
    source: "/home/mohanty/data/final_dataset/lmdb/color-80-20/test_db"
    batch_size: 24
    backend: LMDB
  }
}
layer {
  name: "conv1/7x7_s2"
  type: "Convolution"
  bottom: "data"
  top: "conv1/7x7_s2"
  param {
    lr_mult: 1
    decay_mult: 1
  }
  param {
    lr_mult: 2
    decay_mult: 0
  }
  convolution_param {
    num_output: 64
    pad: 3
    kernel_size: 7
    stride: 2
    weight_filler {
      type: "xavier"
      std: 0.1
    }
    bias_filler {
      type: "constant"
      value: 0.2
    }
  }
}
layer {
  name: "conv1/relu_7x7"
  type: "ReLU"
  bottom: "conv1/7x7_s2"
  top: "conv1/7x7_s2"
}
layer {
  name: "pool1/3x3_s2"
  type: "Pooling"
  bottom: "conv1/7x7_s2"
  top: "pool1/3x3_s2"
  pooling_param {
    pool: MAX
    kernel_size: 3
    stride: 2
  }
}
layer {
  name: "pool1/norm1"
  type: "LRN"
  bottom: "pool1/3x3_s2"
  top: "pool1/norm1"
  lrn_param {
    local_size: 5
    alpha: 0.0001
    beta: 0.75
  }
}
layer {
  name: "conv2/3x3_reduce"
  type: "Convolution"
  bottom: "pool1/norm1"
  top: "conv2/3x3_reduce"
  param {
    lr_mult: 1
    decay_mult: 1
  }
  param {
    lr_mult: 2
    decay_mult: 0
  }
  convolution_param {
    num_output: 64
    kernel_size: 1
    weight_filler {
      type: "xavier"
      std: 0.1
    }
    bias_filler {
      type: "constant"
      value: 0.2
    }
  }
}
layer {
  name: "conv2/relu_3x3_reduce"
  type: "ReLU"
  bottom: "conv2/3x3_reduce"
  top: "conv2/3x3_reduce"
}
layer {
  name: "conv2/3x3"
  type: "Convolution"
  bottom: "conv2/3x3_reduce"
  top: "conv2/3x3"
  param {
    lr_mult: 1
    decay_mult: 1
  }
  param {
    lr_mult: 2
    decay_mult: 0
  }
  convolution_param {
    num_output: 192
    pad: 1
    kernel_size: 3
    weight_filler {
      type: "xavier"
      std: 0.03
    }
    bias_filler {
      type: "constant"
      value: 0.2
    }
  }
}
layer {
  name: "conv2/relu_3x3"
  type: "ReLU"
  bottom: "conv2/3x3"
  top: "conv2/3x3"
}
layer {
  name: "conv2/norm2"
  type: "LRN"
  bottom: "conv2/3x3"
  top: "conv2/norm2"
  lrn_param {
    local_size: 5
    alpha: 0.0001
    beta: 0.75
  }
}
layer {
  name: "pool2/3x3_s2"
  type: "Pooling"
  bottom: "conv2/norm2"
  top: "pool2/3x3_s2"
  pooling_param {
    pool: MAX
    kernel_size: 3
    stride: 2
  }
}
layer {
  name: "inception_3a/1x1"
  type: "Convolution"
  bottom: "pool2/3x3_s2"
  top: "inception_3a/1x1"
  param {
    lr_mult: 1
    decay_mult: 1
  }
  param {
    lr_mult: 2
    decay_mult: 0
  }
  convolution_param {
    num_output: 64
    kernel_size: 1
    weight_filler {
      type: "xavier"
      std: 0.03
    }
    bias_filler {
      type: "constant"
      value: 0.2
    }
  }
}
layer {
  name: "inception_3a/relu_1x1"
  type: "ReLU"
  bottom: "inception_3a/1x1"
  top: "inception_3a/1x1"
}
layer {
  name: "inception_3a/3x3_reduce"
  type: "Convolution"
  bottom: "pool2/3x3_s2"
  top: "inception_3a/3x3_reduce"
  param {
    lr_mult: 1
    decay_mult: 1
  }
  param {
    lr_mult: 2
    decay_mult: 0
  }
  convolution_param {
    num_output: 96
    kernel_size: 1
    weight_filler {
      type: "xavier"
      std: 0.09
    }
    bias_filler {
      type: "constant"
      value: 0.2
    }
  }
}
layer {
  name: "inception_3a/relu_3x3_reduce"
  type: "ReLU"
  bottom: "inception_3a/3x3_reduce"
  top: "inception_3a/3x3_reduce"
}
layer {
  name: "inception_3a/3x3"
  type: "Convolution"
  bottom: "inception_3a/3x3_reduce"
  top: "inception_3a/3x3"
  param {
    lr_mult: 1
    decay_mult: 1
  }
  param {
    lr_mult: 2
    decay_mult: 0
  }
  convolution_param {
    num_output: 128
    pad: 1
    kernel_size: 3
    weight_filler {
      type: "xavier"
      std: 0.03
    }
    bias_filler {
      type: "constant"
      value: 0.2
    }
  }
}
layer {
  name: "inception_3a/relu_3x3"
  type: "ReLU"
  bottom: "inception_3a/3x3"
  top: "inception_3a/3x3"
}
layer {
  name: "inception_3a/5x5_reduce"
  type: "Convolution"
  bottom: "pool2/3x3_s2"
  top: "inception_3a/5x5_reduce"
  param {
    lr_mult: 1
    decay_mult: 1
  }
  param {
    lr_mult: 2
    decay_mult: 0
  }
  convolution_param {
    num_output: 16
    kernel_size: 1
    weight_filler {
      type: "xavier"
      std: 0.2
    }
    bias_filler {
      type: "constant"
      value: 0.2
    }
  }
}
layer {
  name: "inception_3a/relu_5x5_reduce"
  type: "ReLU"
  bottom: "inception_3a/5x5_reduce"
  top: "inception_3a/5x5_reduce"
}
layer {
  name: "inception_3a/5x5"
  type: "Convolution"
  bottom: "inception_3a/5x5_reduce"
  top: "inception_3a/5x5"
  param {
    lr_mult: 1
    decay_mult: 1
  }
  param {
    lr_mult: 2
    decay_mult: 0
  }
  convolution_param {
    num_output: 32
    pad: 2
    kernel_size: 5
    weight_filler {
      type: "xavier"
      std: 0.03
    }
    bias_filler {
      type: "constant"
      value: 0.2
    }
  }
}
layer {
  name: "inception_3a/relu_5x5"
  type: "ReLU"
  bottom: "inception_3a/5x5"
  top: "inception_3a/5x5"
}
layer {
  name: "inception_3a/pool"
  type: "Pooling"
  bottom: "pool2/3x3_s2"
  top: "inception_3a/pool"
  pooling_param {
    pool: MAX
    kernel_size: 3
    stride: 1
    pad: 1
  }
}
layer {
  name: "inception_3a/pool_proj"
  type: "Convolution"
  bottom: "inception_3a/pool"
  top: "inception_3a/pool_proj"
  param {
    lr_mult: 1
    decay_mult: 1
  }
  param {
    lr_mult: 2
    decay_mult: 0
  }
  convolution_param {
    num_output: 32
    kernel_size: 1
    weight_filler {
      type: "xavier"
      std: 0.1
    }
    bias_filler {
      type: "constant"
      value: 0.2
    }
  }
}
layer {
  name: "inception_3a/relu_pool_proj"
  type: "ReLU"
  bottom: "inception_3a/pool_proj"
  top: "inception_3a/pool_proj"
}
layer {
  name: "inception_3a/output"
  type: "Concat"
  bottom: "inception_3a/1x1"
  bottom: "inception_3a/3x3"
  bottom: "inception_3a/5x5"
  bottom: "inception_3a/pool_proj"
  top: "inception_3a/output"
}
layer {
  name: "inception_3b/1x1"
  type: "Convolution"
  bottom: "inception_3a/output"
  top: "inception_3b/1x1"
  param {
    lr_mult: 1
    decay_mult: 1
  }
  param {
    lr_mult: 2
    decay_mult: 0
  }
  convolution_param {
    num_output: 128
    kernel_size: 1
    weight_filler {
      type: "xavier"
      std: 0.03
    }
    bias_filler {
      type: "constant"
      value: 0.2
    }
  }
}
layer {
  name: "inception_3b/relu_1x1"
  type: "ReLU"
  bottom: "inception_3b/1x1"
  top: "inception_3b/1x1"
}
layer {
  name: "inception_3b/3x3_reduce"
  type: "Convolution"
  bottom: "inception_3a/output"
  top: "inception_3b/3x3_reduce"
  param {
    lr_mult: 1
    decay_mult: 1
  }
  param {
    lr_mult: 2
    decay_mult: 0
  }
  convolution_param {
    num_output: 128
    kernel_size: 1
    weight_filler {
      type: "xavier"
      std: 0.09
    }
    bias_filler {
      type: "constant"
      value: 0.2
    }
  }
}
layer {
  name: "inception_3b/relu_3x3_reduce"
  type: "ReLU"
  bottom: "inception_3b/3x3_reduce"
  top: "inception_3b/3x3_reduce"
}
layer {
  name: "inception_3b/3x3"
  type: "Convolution"
  bottom: "inception_3b/3x3_reduce"
  top: "inception_3b/3x3"
  param {
    lr_mult: 1
    decay_mult: 1
  }
  param {
    lr_mult: 2
    decay_mult: 0
  }
  convolution_param {
    num_output: 192
    pad: 1
    kernel_size: 3
    weight_filler {
      type: "xavier"
      std: 0.03
    }
    bias_filler {
      type: "constant"
      value: 0.2
    }
  }
}
layer {
  name: "inception_3b/relu_3x3"
  type: "ReLU"
  bottom: "inception_3b/3x3"
  top: "inception_3b/3x3"
}
layer {
  name: "inception_3b/5x5_reduce"
  type: "Convolution"
  bottom: "inception_3a/output"
  top: "inception_3b/5x5_reduce"
  param {
    lr_mult: 1
    decay_mult: 1
  }
  param {
    lr_mult: 2
    decay_mult: 0
  }
  convolution_param {
    num_output: 32
    kernel_size: 1
    weight_filler {
      type: "xavier"
      std: 0.2
    }
    bias_filler {
      type: "constant"
      value: 0.2
    }
  }
}
layer {
  name: "inception_3b/relu_5x5_reduce"
  type: "ReLU"
  bottom: "inception_3b/5x5_reduce"
  top: "inception_3b/5x5_reduce"
}
layer {
  name: "inception_3b/5x5"
  type: "Convolution"
  bottom: "inception_3b/5x5_reduce"
  top: "inception_3b/5x5"
  param {
    lr_mult: 1
    decay_mult: 1
  }
  param {
    lr_mult: 2
    decay_mult: 0
  }
  convolution_param {
    num_output: 96
    pad: 2
    kernel_size: 5
    weight_filler {
      type: "xavier"
      std: 0.03
    }
    bias_filler {
      type: "constant"
      value: 0.2
    }
  }
}
layer {
  name: "inception_3b/relu_5x5"
  type: "ReLU"
  bottom: "inception_3b/5x5"
  top: "inception_3b/5x5"
}
layer {
  name: "inception_3b/pool"
  type: "Pooling"
  bottom: "inception_3a/output"
  top: "inception_3b/pool"
  pooling_param {
    pool: MAX
    kernel_size: 3
    stride: 1
    pad: 1
  }
}
layer {
  name: "inception_3b/pool_proj"
  type: "Convolution"
  bottom: "inception_3b/pool"
  top: "inception_3b/pool_proj"
  param {
    lr_mult: 1
    decay_mult: 1
  }
  param {
    lr_mult: 2
    decay_mult: 0
  }
  convolution_param {
    num_output: 64
    kernel_size: 1
    weight_filler {
      type: "xavier"
      std: 0.1
    }
    bias_filler {
      type: "constant"
      value: 0.2
    }
  }
}
layer {
  name: "inception_3b/relu_pool_proj"
  type: "ReLU"
  bottom: "inception_3b/pool_proj"
  top: "inception_3b/pool_proj"
}
layer {
  name: "inception_3b/output"
  type: "Concat"
  bottom: "inception_3b/1x1"
  bottom: "inception_3b/3x3"
  bottom: "inception_3b/5x5"
  bottom: "inception_3b/pool_proj"
  top: "inception_3b/output"
}
layer {
  name: "pool3/3x3_s2"
  type: "Pooling"
  bottom: "inception_3b/output"
  top: "pool3/3x3_s2"
  pooling_param {
    pool: MAX
    kernel_size: 3
    stride: 2
  }
}
layer {
  name: "inception_4a/1x1"
  type: "Convolution"
  bottom: "pool3/3x3_s2"
  top: "inception_4a/1x1"
  param {
    lr_mult: 1
    decay_mult: 1
  }
  param {
    lr_mult: 2
    decay_mult: 0
  }
  convolution_param {
    num_output: 192
    kernel_size: 1
    weight_filler {
      type: "xavier"
      std: 0.03
    }
    bias_filler {
      type: "constant"
      value: 0.2
    }
  }
}
layer {
  name: "inception_4a/relu_1x1"
  type: "ReLU"
  bottom: "inception_4a/1x1"
  top: "inception_4a/1x1"
}
layer {
  name: "inception_4a/3x3_reduce"
  type: "Convolution"
  bottom: "pool3/3x3_s2"
  top: "inception_4a/3x3_reduce"
  param {
    lr_mult: 1
    decay_mult: 1
  }
  param {
    lr_mult: 2
    decay_mult: 0
  }
  convolution_param {
    num_output: 96
    kernel_size: 1
    weight_filler {
      type: "xavier"
      std: 0.09
    }
    bias_filler {
      type: "constant"
      value: 0.2
    }
  }
}
layer {
  name: "inception_4a/relu_3x3_reduce"
  type: "ReLU"
  bottom: "inception_4a/3x3_reduce"
  top: "inception_4a/3x3_reduce"
}
layer {
  name: "inception_4a/3x3"
  type: "Convolution"
  bottom: "inception_4a/3x3_reduce"
  top: "inception_4a/3x3"
  param {
    lr_mult: 1
    decay_mult: 1
  }
  param {
    lr_mult: 2
    decay_mult: 0
  }
  convolution_param {
    num_output: 208
    pad: 1
    kernel_size: 3
    weight_filler {
      type: "xavier"
      std: 0.03
    }
    bias_filler {
      type: "constant"
      value: 0.2
    }
  }
}
layer {
  name: "inception_4a/relu_3x3"
  type: "ReLU"
  bottom: "inception_4a/3x3"
  top: "inception_4a/3x3"
}
layer {
  name: "inception_4a/5x5_reduce"
  type: "Convolution"
  bottom: "pool3/3x3_s2"
  top: "inception_4a/5x5_reduce"
  param {
    lr_mult: 1
    decay_mult: 1
  }
  param {
    lr_mult: 2
    decay_mult: 0
  }
  convolution_param {
    num_output: 16
    kernel_size: 1
    weight_filler {
      type: "xavier"
      std: 0.2
    }
    bias_filler {
      type: "constant"
      value: 0.2
    }
  }
}
layer {
  name: "inception_4a/relu_5x5_reduce"
  type: "ReLU"
  bottom: "inception_4a/5x5_reduce"
  top: "inception_4a/5x5_reduce"
}
layer {
  name: "inception_4a/5x5"
  type: "Convolution"
  bottom: "inception_4a/5x5_reduce"
  top: "inception_4a/5x5"
  param {
    lr_mult: 1
    decay_mult: 1
  }
  param {
    lr_mult: 2
    decay_mult: 0
  }
  convolution_param {
    num_output: 48
    pad: 2
    kernel_size: 5
    weight_filler {
      type: "xavier"
      std: 0.03
    }
    bias_filler {
      type: "constant"
      value: 0.2
    }
  }
}
layer {
  name: "inception_4a/relu_5x5"
  type: "ReLU"
  bottom: "inception_4a/5x5"
  top: "inception_4a/5x5"
}
layer {
  name: "inception_4a/pool"
  type: "Pooling"
  bottom: "pool3/3x3_s2"
  top: "inception_4a/pool"
  pooling_param {
    pool: MAX
    kernel_size: 3
    stride: 1
    pad: 1
  }
}
layer {
  name: "inception_4a/pool_proj"
  type: "Convolution"
  bottom: "inception_4a/pool"
  top: "inception_4a/pool_proj"
  param {
    lr_mult: 1
    decay_mult: 1
  }
  param {
    lr_mult: 2
    decay_mult: 0
  }
  convolution_param {
    num_output: 64
    kernel_size: 1
    weight_filler {
      type: "xavier"
      std: 0.1
    }
    bias_filler {
      type: "constant"
      value: 0.2
    }
  }
}
layer {
  name: "inception_4a/relu_pool_proj"
  type: "ReLU"
  bottom: "inception_4a/pool_proj"
  top: "inception_4a/pool_proj"
}
layer {
  name: "inception_4a/output"
  type: "Concat"
  bottom: "inception_4a/1x1"
  bottom: "inception_4a/3x3"
  bottom: "inception_4a/5x5"
  bottom: "inception_4a/pool_proj"
  top: "inception_4a/output"
}
layer {
  name: "loss1/ave_pool"
  type: "Pooling"
  bottom: "inception_4a/output"
  top: "loss1/ave_pool"
  pooling_param {
    pool: AVE
    kernel_size: 5
    stride: 3
  }
}
layer {
  name: "loss1/conv"
  type: "Convolution"
  bottom: "loss1/ave_pool"
  top: "loss1/conv"
  param {
    lr_mult: 1
    decay_mult: 1
  }
  param {
    lr_mult: 2
    decay_mult: 0
  }
  convolution_param {
    num_output: 128
    kernel_size: 1
    weight_filler {
      type: "xavier"
      std: 0.08
    }
    bias_filler {
      type: "constant"
      value: 0.2
    }
  }
}
layer {
  name: "loss1/relu_conv"
  type: "ReLU"
  bottom: "loss1/conv"
  top: "loss1/conv"
}
layer {
  name: "loss1/fc"
  type: "InnerProduct"
  bottom: "loss1/conv"
  top: "loss1/fc"
  param {
    lr_mult: 1
    decay_mult: 1
  }
  param {
    lr_mult: 2
    decay_mult: 0
  }
  inner_product_param {
    num_output: 1024
    weight_filler {
      type: "xavier"
      std: 0.02
    }
    bias_filler {
      type: "constant"
      value: 0.2
    }
  }
}
layer {
  name: "loss1/relu_fc"
  type: "ReLU"
  bottom: "loss1/fc"
  top: "loss1/fc"
}
layer {
  name: "loss1/drop_fc"
  type: "Dropout"
  bottom: "loss1/fc"
  top: "loss1/fc"
  dropout_param {
    dropout_ratio: 0.7
  }
}
layer {
  name: "loss1/classifier_plantvillage"
  type: "InnerProduct"
  bottom: "loss1/fc"
  top: "loss1/classifier_plantvillage"
  param {
    lr_mult: 1
    decay_mult: 1
  }
  param {
    lr_mult: 2
    decay_mult: 0
  }
  inner_product_param {
    num_output: 38
    weight_filler {
      type: "xavier"
      std: 0.0009765625
    }
    bias_filler {
      type: "constant"
      value: 0
    }
  }
}
layer {
  name: "inception_4b/1x1"
  type: "Convolution"
  bottom: "inception_4a/output"
  top: "inception_4b/1x1"
  param {
    lr_mult: 1
    decay_mult: 1
  }
  param {
    lr_mult: 2
    decay_mult: 0
  }
  convolution_param {
    num_output: 160
    kernel_size: 1
    weight_filler {
      type: "xavier"
      std: 0.03
    }
    bias_filler {
      type: "constant"
      value: 0.2
    }
  }
}
layer {
  name: "inception_4b/relu_1x1"
  type: "ReLU"
  bottom: "inception_4b/1x1"
  top: "inception_4b/1x1"
}
layer {
  name: "inception_4b/3x3_reduce"
  type: "Convolution"
  bottom: "inception_4a/output"
  top: "inception_4b/3x3_reduce"
  param {
    lr_mult: 1
    decay_mult: 1
  }
  param {
    lr_mult: 2
    decay_mult: 0
  }
  convolution_param {
    num_output: 112
    kernel_size: 1
    weight_filler {
      type: "xavier"
      std: 0.09
    }
    bias_filler {
      type: "constant"
      value: 0.2
    }
  }
}
layer {
  name: "inception_4b/relu_3x3_reduce"
  type: "ReLU"
  bottom: "inception_4b/3x3_reduce"
  top: "inception_4b/3x3_reduce"
}
layer {
  name: "inception_4b/3x3"
  type: "Convolution"
  bottom: "inception_4b/3x3_reduce"
  top: "inception_4b/3x3"
  param {
    lr_mult: 1
    decay_mult: 1
  }
  param {
    lr_mult: 2
    decay_mult: 0
  }
  convolution_param {
    num_output: 224
    pad: 1
    kernel_size: 3
    weight_filler {
      type: "xavier"
      std: 0.03
    }
    bias_filler {
      type: "constant"
      value: 0.2
    }
  }
}
layer {
  name: "inception_4b/relu_3x3"
  type: "ReLU"
  bottom: "inception_4b/3x3"
  top: "inception_4b/3x3"
}
layer {
  name: "inception_4b/5x5_reduce"
  type: "Convolution"
  bottom: "inception_4a/output"
  top: "inception_4b/5x5_reduce"
  param {
    lr_mult: 1
    decay_mult: 1
  }
  param {
    lr_mult: 2
    decay_mult: 0
  }
  convolution_param {
    num_output: 24
    kernel_size: 1
    weight_filler {
      type: "xavier"
      std: 0.2
    }
    bias_filler {
      type: "constant"
      value: 0.2
    }
  }
}
layer {
  name: "inception_4b/relu_5x5_reduce"
  type: "ReLU"
  bottom: "inception_4b/5x5_reduce"
  top: "inception_4b/5x5_reduce"
}
layer {
  name: "inception_4b/5x5"
  type: "Convolution"
  bottom: "inception_4b/5x5_reduce"
  top: "inception_4b/5x5"
  param {
    lr_mult: 1
    decay_mult: 1
  }
  param {
    lr_mult: 2
    decay_mult: 0
  }
  convolution_param {
    num_output: 64
    pad: 2
    kernel_size: 5
    weight_filler {
      type: "xavier"
      std: 0.03
    }
    bias_filler {
      type: "constant"
      value: 0.2
    }
  }
}
layer {
  name: "inception_4b/relu_5x5"
  type: "ReLU"
  bottom: "inception_4b/5x5"
  top: "inception_4b/5x5"
}
layer {
  name: "inception_4b/pool"
  type: "Pooling"
  bottom: "inception_4a/output"
  top: "inception_4b/pool"
  pooling_param {
    pool: MAX
    kernel_size: 3
    stride: 1
    pad: 1
  }
}
layer {
  name: "inception_4b/pool_proj"
  type: "Convolution"
  bottom: "inception_4b/pool"
  top: "inception_4b/pool_proj"
  param {
    lr_mult: 1
    decay_mult: 1
  }
  param {
    lr_mult: 2
    decay_mult: 0
  }
  convolution_param {
    num_output: 64
    kernel_size: 1
    weight_filler {
      type: "xavier"
      std: 0.1
    }
    bias_filler {
      type: "constant"
      value: 0.2
    }
  }
}
layer {
  name: "inception_4b/relu_pool_proj"
  type: "ReLU"
  bottom: "inception_4b/pool_proj"
  top: "inception_4b/pool_proj"
}
layer {
  name: "inception_4b/output"
  type: "Concat"
  bottom: "inception_4b/1x1"
  bottom: "inception_4b/3x3"
  bottom: "inception_4b/5x5"
  bottom: "inception_4b/pool_proj"
  top: "inception_4b/output"
}
layer {
  name: "inception_4c/1x1"
  type: "Convolution"
  bottom: "inception_4b/output"
  top: "inception_4c/1x1"
  param {
    lr_mult: 1
    decay_mult: 1
  }
  param {
    lr_mult: 2
    decay_mult: 0
  }
  convolution_param {
    num_output: 128
    kernel_size: 1
    weight_filler {
      type: "xavier"
      std: 0.03
    }
    bias_filler {
      type: "constant"
      value: 0.2
    }
  }
}
layer {
  name: "inception_4c/relu_1x1"
  type: "ReLU"
  bottom: "inception_4c/1x1"
  top: "inception_4c/1x1"
}
layer {
  name: "inception_4c/3x3_reduce"
  type: "Convolution"
  bottom: "inception_4b/output"
  top: "inception_4c/3x3_reduce"
  param {
    lr_mult: 1
    decay_mult: 1
  }
  param {
    lr_mult: 2
    decay_mult: 0
  }
  convolution_param {
    num_output: 128
    kernel_size: 1
    weight_filler {
      type: "xavier"
      std: 0.09
    }
    bias_filler {
      type: "constant"
      value: 0.2
    }
  }
}
layer {
  name: "inception_4c/relu_3x3_reduce"
  type: "ReLU"
  bottom: "inception_4c/3x3_reduce"
  top: "inception_4c/3x3_reduce"
}
layer {
  name: "inception_4c/3x3"
  type: "Convolution"
  bottom: "inception_4c/3x3_reduce"
  top: "inception_4c/3x3"
  param {
    lr_mult: 1
    decay_mult: 1
  }
  param {
    lr_mult: 2
    decay_mult: 0
  }
  convolution_param {
    num_output: 256
    pad: 1
    kernel_size: 3
    weight_filler {
      type: "xavier"
      std: 0.03
    }
    bias_filler {
      type: "constant"
      value: 0.2
    }
  }
}
layer {
  name: "inception_4c/relu_3x3"
  type: "ReLU"
  bottom: "inception_4c/3x3"
  top: "inception_4c/3x3"
}
layer {
  name: "inception_4c/5x5_reduce"
  type: "Convolution"
  bottom: "inception_4b/output"
  top: "inception_4c/5x5_reduce"
  param {
    lr_mult: 1
    decay_mult: 1
  }
  param {
    lr_mult: 2
    decay_mult: 0
  }
  convolution_param {
    num_output: 24
    kernel_size: 1
    weight_filler {
      type: "xavier"
      std: 0.2
    }
    bias_filler {
      type: "constant"
      value: 0.2
    }
  }
}
layer {
  name: "inception_4c/relu_5x5_reduce"
  type: "ReLU"
  bottom: "inception_4c/5x5_reduce"
  top: "inception_4c/5x5_reduce"
}
layer {
  name: "inception_4c/5x5"
  type: "Convolution"
  bottom: "inception_4c/5x5_reduce"
  top: "inception_4c/5x5"
  param {
    lr_mult: 1
    decay_mult: 1
  }
  param {
    lr_mult: 2
    decay_mult: 0
  }
  convolution_param {
    num_output: 64
    pad: 2
    kernel_size: 5
    weight_filler {
      type: "xavier"
      std: 0.03
    }
    bias_filler {
      type: "constant"
      value: 0.2
    }
  }
}
layer {
  name: "inception_4c/relu_5x5"
  type: "ReLU"
  bottom: "inception_4c/5x5"
  top: "inception_4c/5x5"
}
layer {
  name: "inception_4c/pool"
  type: "Pooling"
  bottom: "inception_4b/output"
  top: "inception_4c/pool"
  pooling_param {
    pool: MAX
    kernel_size: 3
    stride: 1
    pad: 1
  }
}
layer {
  name: "inception_4c/pool_proj"
  type: "Convolution"
  bottom: "inception_4c/pool"
  top: "inception_4c/pool_proj"
  param {
    lr_mult: 1
    decay_mult: 1
  }
  param {
    lr_mult: 2
    decay_mult: 0
  }
  convolution_param {
    num_output: 64
    kernel_size: 1
    weight_filler {
      type: "xavier"
      std: 0.1
    }
    bias_filler {
      type: "constant"
      value: 0.2
    }
  }
}
layer {
  name: "inception_4c/relu_pool_proj"
  type: "ReLU"
  bottom: "inception_4c/pool_proj"
  top: "inception_4c/pool_proj"
}
layer {
  name: "inception_4c/output"
  type: "Concat"
  bottom: "inception_4c/1x1"
  bottom: "inception_4c/3x3"
  bottom: "inception_4c/5x5"
  bottom: "inception_4c/pool_proj"
  top: "inception_4c/output"
}
layer {
  name: "inception_4d/1x1"
  type: "Convolution"
  bottom: "inception_4c/output"
  top: "inception_4d/1x1"
  param {
    lr_mult: 1
    decay_mult: 1
  }
  param {
    lr_mult: 2
    decay_mult: 0
  }
  convolution_param {
    num_output: 112
    kernel_size: 1
    weight_filler {
      type: "xavier"
      std: 0.03
    }
    bias_filler {
      type: "constant"
      value: 0.2
    }
  }
}
layer {
  name: "inception_4d/relu_1x1"
  type: "ReLU"
  bottom: "inception_4d/1x1"
  top: "inception_4d/1x1"
}
layer {
  name: "inception_4d/3x3_reduce"
  type: "Convolution"
  bottom: "inception_4c/output"
  top: "inception_4d/3x3_reduce"
  param {
    lr_mult: 1
    decay_mult: 1
  }
  param {
    lr_mult: 2
    decay_mult: 0
  }
  convolution_param {
    num_output: 144
    kernel_size: 1
    weight_filler {
      type: "xavier"
      std: 0.09
    }
    bias_filler {
      type: "constant"
      value: 0.2
    }
  }
}
layer {
  name: "inception_4d/relu_3x3_reduce"
  type: "ReLU"
  bottom: "inception_4d/3x3_reduce"
  top: "inception_4d/3x3_reduce"
}
layer {
  name: "inception_4d/3x3"
  type: "Convolution"
  bottom: "inception_4d/3x3_reduce"
  top: "inception_4d/3x3"
  param {
    lr_mult: 1
    decay_mult: 1
  }
  param {
    lr_mult: 2
    decay_mult: 0
  }
  convolution_param {
    num_output: 288
    pad: 1
    kernel_size: 3
    weight_filler {
      type: "xavier"
      std: 0.03
    }
    bias_filler {
      type: "constant"
      value: 0.2
    }
  }
}
layer {
  name: "inception_4d/relu_3x3"
  type: "ReLU"
  bottom: "inception_4d/3x3"
  top: "inception_4d/3x3"
}
layer {
  name: "inception_4d/5x5_reduce"
  type: "Convolution"
  bottom: "inception_4c/output"
  top: "inception_4d/5x5_reduce"
  param {
    lr_mult: 1
    decay_mult: 1
  }
  param {
    lr_mult: 2
    decay_mult: 0
  }
  convolution_param {
    num_output: 32
    kernel_size: 1
    weight_filler {
      type: "xavier"
      std: 0.2
    }
    bias_filler {
      type: "constant"
      value: 0.2
    }
  }
}
layer {
  name: "inception_4d/relu_5x5_reduce"
  type: "ReLU"
  bottom: "inception_4d/5x5_reduce"
  top: "inception_4d/5x5_reduce"
}
layer {
  name: "inception_4d/5x5"
  type: "Convolution"
  bottom: "inception_4d/5x5_reduce"
  top: "inception_4d/5x5"
  param {
    lr_mult: 1
    decay_mult: 1
  }
  param {
    lr_mult: 2
    decay_mult: 0
  }
  convolution_param {
    num_output: 64
    pad: 2
    kernel_size: 5
    weight_filler {
      type: "xavier"
      std: 0.03
    }
    bias_filler {
      type: "constant"
      value: 0.2
    }
  }
}
layer {
  name: "inception_4d/relu_5x5"
  type: "ReLU"
  bottom: "inception_4d/5x5"
  top: "inception_4d/5x5"
}
layer {
  name: "inception_4d/pool"
  type: "Pooling"
  bottom: "inception_4c/output"
  top: "inception_4d/pool"
  pooling_param {
    pool: MAX
    kernel_size: 3
    stride: 1
    pad: 1
  }
}
layer {
  name: "inception_4d/pool_proj"
  type: "Convolution"
  bottom: "inception_4d/pool"
  top: "inception_4d/pool_proj"
  param {
    lr_mult: 1
    decay_mult: 1
  }
  param {
    lr_mult: 2
    decay_mult: 0
  }
  convolution_param {
    num_output: 64
    kernel_size: 1
    weight_filler {
      type: "xavier"
      std: 0.1
    }
    bias_filler {
      type: "constant"
      value: 0.2
    }
  }
}
layer {
  name: "inception_4d/relu_pool_proj"
  type: "ReLU"
  bottom: "inception_4d/pool_proj"
  top: "inception_4d/pool_proj"
}
layer {
  name: "inception_4d/output"
  type: "Concat"
  bottom: "inception_4d/1x1"
  bottom: "inception_4d/3x3"
  bottom: "inception_4d/5x5"
  bottom: "inception_4d/pool_proj"
  top: "inception_4d/output"
}
layer {
  name: "loss2/ave_pool"
  type: "Pooling"
  bottom: "inception_4d/output"
  top: "loss2/ave_pool"
  pooling_param {
    pool: AVE
    kernel_size: 5
    stride: 3
  }
}
layer {
  name: "loss2/conv"
  type: "Convolution"
  bottom: "loss2/ave_pool"
  top: "loss2/conv"
  param {
    lr_mult: 1
    decay_mult: 1
  }
  param {
    lr_mult: 2
    decay_mult: 0
  }
  convolution_param {
    num_output: 128
    kernel_size: 1
    weight_filler {
      type: "xavier"
      std: 0.08
    }
    bias_filler {
      type: "constant"
      value: 0.2
    }
  }
}
layer {
  name: "loss2/relu_conv"
  type: "ReLU"
  bottom: "loss2/conv"
  top: "loss2/conv"
}
layer {
  name: "loss2/fc"
  type: "InnerProduct"
  bottom: "loss2/conv"
  top: "loss2/fc"
  param {
    lr_mult: 1
    decay_mult: 1
  }
  param {
    lr_mult: 2
    decay_mult: 0
  }
  inner_product_param {
    num_output: 1024
    weight_filler {
      type: "xavier"
      std: 0.02
    }
    bias_filler {
      type: "constant"
      value: 0.2
    }
  }
}
layer {
  name: "loss2/relu_fc"
  type: "ReLU"
  bottom: "loss2/fc"
  top: "loss2/fc"
}
layer {
  name: "loss2/drop_fc"
  type: "Dropout"
  bottom: "loss2/fc"
  top: "loss2/fc"
  dropout_param {
    dropout_ratio: 0.7
  }
}
layer {
  name: "loss2/classifier_plantvillage"
  type: "InnerProduct"
  bottom: "loss2/fc"
  top: "loss2/classifier_plantvillage"
  param {
    lr_mult: 1
    decay_mult: 1
  }
  param {
    lr_mult: 2
    decay_mult: 0
  }
  inner_product_param {
    num_output: 38
    weight_filler {
      type: "xavier"
      std: 0.0009765625
    }
    bias_filler {
      type: "constant"
      value: 0
    }
  }
}
layer {
  name: "inception_4e/1x1"
  type: "Convolution"
  bottom: "inception_4d/output"
  top: "inception_4e/1x1"
  param {
    lr_mult: 1
    decay_mult: 1
  }
  param {
    lr_mult: 2
    decay_mult: 0
  }
  convolution_param {
    num_output: 256
    kernel_size: 1
    weight_filler {
      type: "xavier"
      std: 0.03
    }
    bias_filler {
      type: "constant"
      value: 0.2
    }
  }
}
layer {
  name: "inception_4e/relu_1x1"
  type: "ReLU"
  bottom: "inception_4e/1x1"
  top: "inception_4e/1x1"
}
layer {
  name: "inception_4e/3x3_reduce"
  type: "Convolution"
  bottom: "inception_4d/output"
  top: "inception_4e/3x3_reduce"
  param {
    lr_mult: 1
    decay_mult: 1
  }
  param {
    lr_mult: 2
    decay_mult: 0
  }
  convolution_param {
    num_output: 160
    kernel_size: 1
    weight_filler {
      type: "xavier"
      std: 0.09
    }
    bias_filler {
      type: "constant"
      value: 0.2
    }
  }
}
layer {
  name: "inception_4e/relu_3x3_reduce"
  type: "ReLU"
  bottom: "inception_4e/3x3_reduce"
  top: "inception_4e/3x3_reduce"
}
layer {
  name: "inception_4e/3x3"
  type: "Convolution"
  bottom: "inception_4e/3x3_reduce"
  top: "inception_4e/3x3"
  param {
    lr_mult: 1
    decay_mult: 1
  }
  param {
    lr_mult: 2
    decay_mult: 0
  }
  convolution_param {
    num_output: 320
    pad: 1
    kernel_size: 3
    weight_filler {
      type: "xavier"
      std: 0.03
    }
    bias_filler {
      type: "constant"
      value: 0.2
    }
  }
}
layer {
  name: "inception_4e/relu_3x3"
  type: "ReLU"
  bottom: "inception_4e/3x3"
  top: "inception_4e/3x3"
}
layer {
  name: "inception_4e/5x5_reduce"
  type: "Convolution"
  bottom: "inception_4d/output"
  top: "inception_4e/5x5_reduce"
  param {
    lr_mult: 1
    decay_mult: 1
  }
  param {
    lr_mult: 2
    decay_mult: 0
  }
  convolution_param {
    num_output: 32
    kernel_size: 1
    weight_filler {
      type: "xavier"
      std: 0.2
    }
    bias_filler {
      type: "constant"
      value: 0.2
    }
  }
}
layer {
  name: "inception_4e/relu_5x5_reduce"
  type: "ReLU"
  bottom: "inception_4e/5x5_reduce"
  top: "inception_4e/5x5_reduce"
}
layer {
  name: "inception_4e/5x5"
  type: "Convolution"
  bottom: "inception_4e/5x5_reduce"
  top: "inception_4e/5x5"
  p
I0403 15:52:03.180266 14787 layer_factory.hpp:77] Creating layer data
I0403 15:52:03.180830 14787 net.cpp:91] Creating Layer data
I0403 15:52:03.180860 14787 net.cpp:399] data -> data
I0403 15:52:03.180912 14787 net.cpp:399] data -> label
I0403 15:52:03.180949 14787 data_transformer.cpp:25] Loading mean file from: /home/mohanty/data/final_dataset/lmdb/color-80-20/mean.binaryproto
I0403 15:52:03.184317 14790 db_lmdb.cpp:38] Opened lmdb /home/mohanty/data/final_dataset/lmdb/color-80-20/test_db
I0403 15:52:03.194452 14787 data_layer.cpp:41] output data size: 24,3,224,224
I0403 15:52:03.221295 14787 net.cpp:141] Setting up data
I0403 15:52:03.221379 14787 net.cpp:148] Top shape: 24 3 224 224 (3612672)
I0403 15:52:03.221402 14787 net.cpp:148] Top shape: 24 (24)
I0403 15:52:03.221417 14787 net.cpp:156] Memory required for data: 14450784
I0403 15:52:03.221443 14787 layer_factory.hpp:77] Creating layer label_data_1_split
I0403 15:52:03.221470 14787 net.cpp:91] Creating Layer label_data_1_split
I0403 15:52:03.221489 14787 net.cpp:425] label_data_1_split <- label
I0403 15:52:03.221520 14787 net.cpp:399] label_data_1_split -> label_data_1_split_0
I0403 15:52:03.221549 14787 net.cpp:399] label_data_1_split -> label_data_1_split_1
I0403 15:52:03.221568 14787 net.cpp:399] label_data_1_split -> label_data_1_split_2
I0403 15:52:03.221590 14787 net.cpp:399] label_data_1_split -> label_data_1_split_3
I0403 15:52:03.221608 14787 net.cpp:399] label_data_1_split -> label_data_1_split_4
I0403 15:52:03.221627 14787 net.cpp:399] label_data_1_split -> label_data_1_split_5
I0403 15:52:03.221659 14787 net.cpp:399] label_data_1_split -> label_data_1_split_6
I0403 15:52:03.221680 14787 net.cpp:399] label_data_1_split -> label_data_1_split_7
I0403 15:52:03.221699 14787 net.cpp:399] label_data_1_split -> label_data_1_split_8
I0403 15:52:03.221719 14787 net.cpp:399] label_data_1_split -> label_data_1_split_9
I0403 15:52:03.221833 14787 net.cpp:141] Setting up label_data_1_split
I0403 15:52:03.221858 14787 net.cpp:148] Top shape: 24 (24)
I0403 15:52:03.221875 14787 net.cpp:148] Top shape: 24 (24)
I0403 15:52:03.221891 14787 net.cpp:148] Top shape: 24 (24)
I0403 15:52:03.221907 14787 net.cpp:148] Top shape: 24 (24)
I0403 15:52:03.221923 14787 net.cpp:148] Top shape: 24 (24)
I0403 15:52:03.221938 14787 net.cpp:148] Top shape: 24 (24)
I0403 15:52:03.221954 14787 net.cpp:148] Top shape: 24 (24)
I0403 15:52:03.221971 14787 net.cpp:148] Top shape: 24 (24)
I0403 15:52:03.221987 14787 net.cpp:148] Top shape: 24 (24)
I0403 15:52:03.222003 14787 net.cpp:148] Top shape: 24 (24)
I0403 15:52:03.222048 14787 net.cpp:156] Memory required for data: 14451744
I0403 15:52:03.222064 14787 layer_factory.hpp:77] Creating layer conv1/7x7_s2
I0403 15:52:03.222095 14787 net.cpp:91] Creating Layer conv1/7x7_s2
I0403 15:52:03.222115 14787 net.cpp:425] conv1/7x7_s2 <- data
I0403 15:52:03.222137 14787 net.cpp:399] conv1/7x7_s2 -> conv1/7x7_s2
I0403 15:52:03.362005 14787 net.cpp:141] Setting up conv1/7x7_s2
I0403 15:52:03.362078 14787 net.cpp:148] Top shape: 24 64 112 112 (19267584)
I0403 15:52:03.362109 14787 net.cpp:156] Memory required for data: 91522080
I0403 15:52:03.362164 14787 layer_factory.hpp:77] Creating layer conv1/relu_7x7
I0403 15:52:03.362195 14787 net.cpp:91] Creating Layer conv1/relu_7x7
I0403 15:52:03.362215 14787 net.cpp:425] conv1/relu_7x7 <- conv1/7x7_s2
I0403 15:52:03.362234 14787 net.cpp:386] conv1/relu_7x7 -> conv1/7x7_s2 (in-place)
I0403 15:52:03.362529 14787 net.cpp:141] Setting up conv1/relu_7x7
I0403 15:52:03.362556 14787 net.cpp:148] Top shape: 24 64 112 112 (19267584)
I0403 15:52:03.362571 14787 net.cpp:156] Memory required for data: 168592416
I0403 15:52:03.362587 14787 layer_factory.hpp:77] Creating layer pool1/3x3_s2
I0403 15:52:03.362612 14787 net.cpp:91] Creating Layer pool1/3x3_s2
I0403 15:52:03.362630 14787 net.cpp:425] pool1/3x3_s2 <- conv1/7x7_s2
I0403 15:52:03.362649 14787 net.cpp:399] pool1/3x3_s2 -> pool1/3x3_s2
I0403 15:52:03.362722 14787 net.cpp:141] Setting up pool1/3x3_s2
I0403 15:52:03.362747 14787 net.cpp:148] Top shape: 24 64 56 56 (4816896)
I0403 15:52:03.362762 14787 net.cpp:156] Memory required for data: 187860000
I0403 15:52:03.362776 14787 layer_factory.hpp:77] Creating layer pool1/norm1
I0403 15:52:03.362802 14787 net.cpp:91] Creating Layer pool1/norm1
I0403 15:52:03.362819 14787 net.cpp:425] pool1/norm1 <- pool1/3x3_s2
I0403 15:52:03.362836 14787 net.cpp:399] pool1/norm1 -> pool1/norm1
I0403 15:52:03.363116 14787 net.cpp:141] Setting up pool1/norm1
I0403 15:52:03.363147 14787 net.cpp:148] Top shape: 24 64 56 56 (4816896)
I0403 15:52:03.363163 14787 net.cpp:156] Memory required for data: 207127584
I0403 15:52:03.363178 14787 layer_factory.hpp:77] Creating layer conv2/3x3_reduce
I0403 15:52:03.363201 14787 net.cpp:91] Creating Layer conv2/3x3_reduce
I0403 15:52:03.363219 14787 net.cpp:425] conv2/3x3_reduce <- pool1/norm1
I0403 15:52:03.363239 14787 net.cpp:399] conv2/3x3_reduce -> conv2/3x3_reduce
I0403 15:52:03.364570 14787 net.cpp:141] Setting up conv2/3x3_reduce
I0403 15:52:03.364600 14787 net.cpp:148] Top shape: 24 64 56 56 (4816896)
I0403 15:52:03.364616 14787 net.cpp:156] Memory required for data: 226395168
I0403 15:52:03.364639 14787 layer_factory.hpp:77] Creating layer conv2/relu_3x3_reduce
I0403 15:52:03.364656 14787 net.cpp:91] Creating Layer conv2/relu_3x3_reduce
I0403 15:52:03.364673 14787 net.cpp:425] conv2/relu_3x3_reduce <- conv2/3x3_reduce
I0403 15:52:03.364689 14787 net.cpp:386] conv2/relu_3x3_reduce -> conv2/3x3_reduce (in-place)
I0403 15:52:03.364935 14787 net.cpp:141] Setting up conv2/relu_3x3_reduce
I0403 15:52:03.364962 14787 net.cpp:148] Top shape: 24 64 56 56 (4816896)
I0403 15:52:03.364979 14787 net.cpp:156] Memory required for data: 245662752
I0403 15:52:03.364995 14787 layer_factory.hpp:77] Creating layer conv2/3x3
I0403 15:52:03.365015 14787 net.cpp:91] Creating Layer conv2/3x3
I0403 15:52:03.365032 14787 net.cpp:425] conv2/3x3 <- conv2/3x3_reduce
I0403 15:52:03.365051 14787 net.cpp:399] conv2/3x3 -> conv2/3x3
I0403 15:52:03.367274 14787 net.cpp:141] Setting up conv2/3x3
I0403 15:52:03.367305 14787 net.cpp:148] Top shape: 24 192 56 56 (14450688)
I0403 15:52:03.367321 14787 net.cpp:156] Memory required for data: 303465504
I0403 15:52:03.367342 14787 layer_factory.hpp:77] Creating layer conv2/relu_3x3
I0403 15:52:03.367362 14787 net.cpp:91] Creating Layer conv2/relu_3x3
I0403 15:52:03.367377 14787 net.cpp:425] conv2/relu_3x3 <- conv2/3x3
I0403 15:52:03.367394 14787 net.cpp:386] conv2/relu_3x3 -> conv2/3x3 (in-place)
I0403 15:52:03.367553 14787 net.cpp:141] Setting up conv2/relu_3x3
I0403 15:52:03.367578 14787 net.cpp:148] Top shape: 24 192 56 56 (14450688)
I0403 15:52:03.367626 14787 net.cpp:156] Memory required for data: 361268256
I0403 15:52:03.367642 14787 layer_factory.hpp:77] Creating layer conv2/norm2
I0403 15:52:03.367661 14787 net.cpp:91] Creating Layer conv2/norm2
I0403 15:52:03.367677 14787 net.cpp:425] conv2/norm2 <- conv2/3x3
I0403 15:52:03.367694 14787 net.cpp:399] conv2/norm2 -> conv2/norm2
I0403 15:52:03.367980 14787 net.cpp:141] Setting up conv2/norm2
I0403 15:52:03.368007 14787 net.cpp:148] Top shape: 24 192 56 56 (14450688)
I0403 15:52:03.368022 14787 net.cpp:156] Memory required for data: 419071008
I0403 15:52:03.368037 14787 layer_factory.hpp:77] Creating layer pool2/3x3_s2
I0403 15:52:03.368055 14787 net.cpp:91] Creating Layer pool2/3x3_s2
I0403 15:52:03.368070 14787 net.cpp:425] pool2/3x3_s2 <- conv2/norm2
I0403 15:52:03.368088 14787 net.cpp:399] pool2/3x3_s2 -> pool2/3x3_s2
I0403 15:52:03.368141 14787 net.cpp:141] Setting up pool2/3x3_s2
I0403 15:52:03.368165 14787 net.cpp:148] Top shape: 24 192 28 28 (3612672)
I0403 15:52:03.368181 14787 net.cpp:156] Memory required for data: 433521696
I0403 15:52:03.368196 14787 layer_factory.hpp:77] Creating layer pool2/3x3_s2_pool2/3x3_s2_0_split
I0403 15:52:03.368214 14787 net.cpp:91] Creating Layer pool2/3x3_s2_pool2/3x3_s2_0_split
I0403 15:52:03.368230 14787 net.cpp:425] pool2/3x3_s2_pool2/3x3_s2_0_split <- pool2/3x3_s2
I0403 15:52:03.368247 14787 net.cpp:399] pool2/3x3_s2_pool2/3x3_s2_0_split -> pool2/3x3_s2_pool2/3x3_s2_0_split_0
I0403 15:52:03.368268 14787 net.cpp:399] pool2/3x3_s2_pool2/3x3_s2_0_split -> pool2/3x3_s2_pool2/3x3_s2_0_split_1
I0403 15:52:03.368288 14787 net.cpp:399] pool2/3x3_s2_pool2/3x3_s2_0_split -> pool2/3x3_s2_pool2/3x3_s2_0_split_2
I0403 15:52:03.368306 14787 net.cpp:399] pool2/3x3_s2_pool2/3x3_s2_0_split -> pool2/3x3_s2_pool2/3x3_s2_0_split_3
I0403 15:52:03.368371 14787 net.cpp:141] Setting up pool2/3x3_s2_pool2/3x3_s2_0_split
I0403 15:52:03.368393 14787 net.cpp:148] Top shape: 24 192 28 28 (3612672)
I0403 15:52:03.368410 14787 net.cpp:148] Top shape: 24 192 28 28 (3612672)
I0403 15:52:03.368427 14787 net.cpp:148] Top shape: 24 192 28 28 (3612672)
I0403 15:52:03.368443 14787 net.cpp:148] Top shape: 24 192 28 28 (3612672)
I0403 15:52:03.368458 14787 net.cpp:156] Memory required for data: 491324448
I0403 15:52:03.368473 14787 layer_factory.hpp:77] Creating layer inception_3a/1x1
I0403 15:52:03.368492 14787 net.cpp:91] Creating Layer inception_3a/1x1
I0403 15:52:03.368508 14787 net.cpp:425] inception_3a/1x1 <- pool2/3x3_s2_pool2/3x3_s2_0_split_0
I0403 15:52:03.368528 14787 net.cpp:399] inception_3a/1x1 -> inception_3a/1x1
I0403 15:52:03.369964 14787 net.cpp:141] Setting up inception_3a/1x1
I0403 15:52:03.369994 14787 net.cpp:148] Top shape: 24 64 28 28 (1204224)
I0403 15:52:03.370010 14787 net.cpp:156] Memory required for data: 496141344
I0403 15:52:03.370029 14787 layer_factory.hpp:77] Creating layer inception_3a/relu_1x1
I0403 15:52:03.370048 14787 net.cpp:91] Creating Layer inception_3a/relu_1x1
I0403 15:52:03.370064 14787 net.cpp:425] inception_3a/relu_1x1 <- inception_3a/1x1
I0403 15:52:03.370082 14787 net.cpp:386] inception_3a/relu_1x1 -> inception_3a/1x1 (in-place)
I0403 15:52:03.370245 14787 net.cpp:141] Setting up inception_3a/relu_1x1
I0403 15:52:03.370272 14787 net.cpp:148] Top shape: 24 64 28 28 (1204224)
I0403 15:52:03.370287 14787 net.cpp:156] Memory required for data: 500958240
I0403 15:52:03.370302 14787 layer_factory.hpp:77] Creating layer inception_3a/3x3_reduce
I0403 15:52:03.370331 14787 net.cpp:91] Creating Layer inception_3a/3x3_reduce
I0403 15:52:03.370349 14787 net.cpp:425] inception_3a/3x3_reduce <- pool2/3x3_s2_pool2/3x3_s2_0_split_1
I0403 15:52:03.370369 14787 net.cpp:399] inception_3a/3x3_reduce -> inception_3a/3x3_reduce
I0403 15:52:03.372045 14787 net.cpp:141] Setting up inception_3a/3x3_reduce
I0403 15:52:03.372076 14787 net.cpp:148] Top shape: 24 96 28 28 (1806336)
I0403 15:52:03.372092 14787 net.cpp:156] Memory required for data: 508183584
I0403 15:52:03.372112 14787 layer_factory.hpp:77] Creating layer inception_3a/relu_3x3_reduce
I0403 15:52:03.372155 14787 net.cpp:91] Creating Layer inception_3a/relu_3x3_reduce
I0403 15:52:03.372174 14787 net.cpp:425] inception_3a/relu_3x3_reduce <- inception_3a/3x3_reduce
I0403 15:52:03.372195 14787 net.cpp:386] inception_3a/relu_3x3_reduce -> inception_3a/3x3_reduce (in-place)
I0403 15:52:03.372375 14787 net.cpp:141] Setting up inception_3a/relu_3x3_reduce
I0403 15:52:03.372401 14787 net.cpp:148] Top shape: 24 96 28 28 (1806336)
I0403 15:52:03.372416 14787 net.cpp:156] Memory required for data: 515408928
I0403 15:52:03.372431 14787 layer_factory.hpp:77] Creating layer inception_3a/3x3
I0403 15:52:03.372455 14787 net.cpp:91] Creating Layer inception_3a/3x3
I0403 15:52:03.372474 14787 net.cpp:425] inception_3a/3x3 <- inception_3a/3x3_reduce
I0403 15:52:03.372495 14787 net.cpp:399] inception_3a/3x3 -> inception_3a/3x3
I0403 15:52:03.374173 14787 net.cpp:141] Setting up inception_3a/3x3
I0403 15:52:03.374207 14787 net.cpp:148] Top shape: 24 128 28 28 (2408448)
I0403 15:52:03.374223 14787 net.cpp:156] Memory required for data: 525042720
I0403 15:52:03.374243 14787 layer_factory.hpp:77] Creating layer inception_3a/relu_3x3
I0403 15:52:03.374260 14787 net.cpp:91] Creating Layer inception_3a/relu_3x3
I0403 15:52:03.374275 14787 net.cpp:425] inception_3a/relu_3x3 <- inception_3a/3x3
I0403 15:52:03.374292 14787 net.cpp:386] inception_3a/relu_3x3 -> inception_3a/3x3 (in-place)
I0403 15:52:03.374570 14787 net.cpp:141] Setting up inception_3a/relu_3x3
I0403 15:52:03.374599 14787 net.cpp:148] Top shape: 24 128 28 28 (2408448)
I0403 15:52:03.374616 14787 net.cpp:156] Memory required for data: 534676512
I0403 15:52:03.374631 14787 layer_factory.hpp:77] Creating layer inception_3a/5x5_reduce
I0403 15:52:03.374655 14787 net.cpp:91] Creating Layer inception_3a/5x5_reduce
I0403 15:52:03.374672 14787 net.cpp:425] inception_3a/5x5_reduce <- pool2/3x3_s2_pool2/3x3_s2_0_split_2
I0403 15:52:03.374691 14787 net.cpp:399] inception_3a/5x5_reduce -> inception_3a/5x5_reduce
I0403 15:52:03.375682 14787 net.cpp:141] Setting up inception_3a/5x5_reduce
I0403 15:52:03.375711 14787 net.cpp:148] Top shape: 24 16 28 28 (301056)
I0403 15:52:03.375727 14787 net.cpp:156] Memory required for data: 535880736
I0403 15:52:03.375746 14787 layer_factory.hpp:77] Creating layer inception_3a/relu_5x5_reduce
I0403 15:52:03.375762 14787 net.cpp:91] Creating Layer inception_3a/relu_5x5_reduce
I0403 15:52:03.375777 14787 net.cpp:425] inception_3a/relu_5x5_reduce <- inception_3a/5x5_reduce
I0403 15:52:03.375797 14787 net.cpp:386] inception_3a/relu_5x5_reduce -> inception_3a/5x5_reduce (in-place)
I0403 15:52:03.376101 14787 net.cpp:141] Setting up inception_3a/relu_5x5_reduce
I0403 15:52:03.376134 14787 net.cpp:148] Top shape: 24 16 28 28 (301056)
I0403 15:52:03.376152 14787 net.cpp:156] Memory required for data: 537084960
I0403 15:52:03.376168 14787 layer_factory.hpp:77] Creating layer inception_3a/5x5
I0403 15:52:03.376193 14787 net.cpp:91] Creating Layer inception_3a/5x5
I0403 15:52:03.376211 14787 net.cpp:425] inception_3a/5x5 <- inception_3a/5x5_reduce
I0403 15:52:03.376233 14787 net.cpp:399] inception_3a/5x5 -> inception_3a/5x5
I0403 15:52:03.377256 14787 net.cpp:141] Setting up inception_3a/5x5
I0403 15:52:03.377287 14787 net.cpp:148] Top shape: 24 32 28 28 (602112)
I0403 15:52:03.377305 14787 net.cpp:156] Memory required for data: 539493408
I0403 15:52:03.377323 14787 layer_factory.hpp:77] Creating layer inception_3a/relu_5x5
I0403 15:52:03.377341 14787 net.cpp:91] Creating Layer inception_3a/relu_5x5
I0403 15:52:03.377357 14787 net.cpp:425] inception_3a/relu_5x5 <- inception_3a/5x5
I0403 15:52:03.377374 14787 net.cpp:386] inception_3a/relu_5x5 -> inception_3a/5x5 (in-place)
I0403 15:52:03.377548 14787 net.cpp:141] Setting up inception_3a/relu_5x5
I0403 15:52:03.377573 14787 net.cpp:148] Top shape: 24 32 28 28 (602112)
I0403 15:52:03.377588 14787 net.cpp:156] Memory required for data: 541901856
I0403 15:52:03.377604 14787 layer_factory.hpp:77] Creating layer inception_3a/pool
I0403 15:52:03.377620 14787 net.cpp:91] Creating Layer inception_3a/pool
I0403 15:52:03.377636 14787 net.cpp:425] inception_3a/pool <- pool2/3x3_s2_pool2/3x3_s2_0_split_3
I0403 15:52:03.377671 14787 net.cpp:399] inception_3a/pool -> inception_3a/pool
I0403 15:52:03.377732 14787 net.cpp:141] Setting up inception_3a/pool
I0403 15:52:03.377758 14787 net.cpp:148] Top shape: 24 192 28 28 (3612672)
I0403 15:52:03.377773 14787 net.cpp:156] Memory required for data: 556352544
I0403 15:52:03.377787 14787 layer_factory.hpp:77] Creating layer inception_3a/pool_proj
I0403 15:52:03.377810 14787 net.cpp:91] Creating Layer inception_3a/pool_proj
I0403 15:52:03.377827 14787 net.cpp:425] inception_3a/pool_proj <- inception_3a/pool
I0403 15:52:03.377846 14787 net.cpp:399] inception_3a/pool_proj -> inception_3a/pool_proj
I0403 15:52:03.378799 14787 net.cpp:141] Setting up inception_3a/pool_proj
I0403 15:52:03.378826 14787 net.cpp:148] Top shape: 24 32 28 28 (602112)
I0403 15:52:03.378842 14787 net.cpp:156] Memory required for data: 558760992
I0403 15:52:03.378866 14787 layer_factory.hpp:77] Creating layer inception_3a/relu_pool_proj
I0403 15:52:03.378885 14787 net.cpp:91] Creating Layer inception_3a/relu_pool_proj
I0403 15:52:03.378902 14787 net.cpp:425] inception_3a/relu_pool_proj <- inception_3a/pool_proj
I0403 15:52:03.378921 14787 net.cpp:386] inception_3a/relu_pool_proj -> inception_3a/pool_proj (in-place)
I0403 15:52:03.379189 14787 net.cpp:141] Setting up inception_3a/relu_pool_proj
I0403 15:52:03.379217 14787 net.cpp:148] Top shape: 24 32 28 28 (602112)
I0403 15:52:03.379233 14787 net.cpp:156] Memory required for data: 561169440
I0403 15:52:03.379248 14787 layer_factory.hpp:77] Creating layer inception_3a/output
I0403 15:52:03.379264 14787 net.cpp:91] Creating Layer inception_3a/output
I0403 15:52:03.379281 14787 net.cpp:425] inception_3a/output <- inception_3a/1x1
I0403 15:52:03.379297 14787 net.cpp:425] inception_3a/output <- inception_3a/3x3
I0403 15:52:03.379312 14787 net.cpp:425] inception_3a/output <- inception_3a/5x5
I0403 15:52:03.379328 14787 net.cpp:425] inception_3a/output <- inception_3a/pool_proj
I0403 15:52:03.379344 14787 net.cpp:399] inception_3a/output -> inception_3a/output
I0403 15:52:03.379406 14787 net.cpp:141] Setting up inception_3a/output
I0403 15:52:03.379431 14787 net.cpp:148] Top shape: 24 256 28 28 (4816896)
I0403 15:52:03.379446 14787 net.cpp:156] Memory required for data: 580437024
I0403 15:52:03.379461 14787 layer_factory.hpp:77] Creating layer inception_3a/output_inception_3a/output_0_split
I0403 15:52:03.379482 14787 net.cpp:91] Creating Layer inception_3a/output_inception_3a/output_0_split
I0403 15:52:03.379498 14787 net.cpp:425] inception_3a/output_inception_3a/output_0_split <- inception_3a/output
I0403 15:52:03.379515 14787 net.cpp:399] inception_3a/output_inception_3a/output_0_split -> inception_3a/output_inception_3a/output_0_split_0
I0403 15:52:03.379535 14787 net.cpp:399] inception_3a/output_inception_3a/output_0_split -> inception_3a/output_inception_3a/output_0_split_1
I0403 15:52:03.379560 14787 net.cpp:399] inception_3a/output_inception_3a/output_0_split -> inception_3a/output_inception_3a/output_0_split_2
I0403 15:52:03.379582 14787 net.cpp:399] inception_3a/output_inception_3a/output_0_split -> inception_3a/output_inception_3a/output_0_split_3
I0403 15:52:03.379669 14787 net.cpp:141] Setting up inception_3a/output_inception_3a/output_0_split
I0403 15:52:03.379693 14787 net.cpp:148] Top shape: 24 256 28 28 (4816896)
I0403 15:52:03.379709 14787 net.cpp:148] Top shape: 24 256 28 28 (4816896)
I0403 15:52:03.379724 14787 net.cpp:148] Top shape: 24 256 28 28 (4816896)
I0403 15:52:03.379739 14787 net.cpp:148] Top shape: 24 256 28 28 (4816896)
I0403 15:52:03.379751 14787 net.cpp:156] Memory required for data: 657507360
I0403 15:52:03.379765 14787 layer_factory.hpp:77] Creating layer inception_3b/1x1
I0403 15:52:03.379789 14787 net.cpp:91] Creating Layer inception_3b/1x1
I0403 15:52:03.379806 14787 net.cpp:425] inception_3b/1x1 <- inception_3a/output_inception_3a/output_0_split_0
I0403 15:52:03.379823 14787 net.cpp:399] inception_3b/1x1 -> inception_3b/1x1
I0403 15:52:03.380920 14787 net.cpp:141] Setting up inception_3b/1x1
I0403 15:52:03.380959 14787 net.cpp:148] Top shape: 24 128 28 28 (2408448)
I0403 15:52:03.380975 14787 net.cpp:156] Memory required for data: 667141152
I0403 15:52:03.380993 14787 layer_factory.hpp:77] Creating layer inception_3b/relu_1x1
I0403 15:52:03.381012 14787 net.cpp:91] Creating Layer inception_3b/relu_1x1
I0403 15:52:03.381028 14787 net.cpp:425] inception_3b/relu_1x1 <- inception_3b/1x1
I0403 15:52:03.381045 14787 net.cpp:386] inception_3b/relu_1x1 -> inception_3b/1x1 (in-place)
I0403 15:52:03.381218 14787 net.cpp:141] Setting up inception_3b/relu_1x1
I0403 15:52:03.381247 14787 net.cpp:148] Top shape: 24 128 28 28 (2408448)
I0403 15:52:03.381263 14787 net.cpp:156] Memory required for data: 676774944
I0403 15:52:03.381278 14787 layer_factory.hpp:77] Creating layer inception_3b/3x3_reduce
I0403 15:52:03.381299 14787 net.cpp:91] Creating Layer inception_3b/3x3_reduce
I0403 15:52:03.381316 14787 net.cpp:425] inception_3b/3x3_reduce <- inception_3a/output_inception_3a/output_0_split_1
I0403 15:52:03.381335 14787 net.cpp:399] inception_3b/3x3_reduce -> inception_3b/3x3_reduce
I0403 15:52:03.382427 14787 net.cpp:141] Setting up inception_3b/3x3_reduce
I0403 15:52:03.382455 14787 net.cpp:148] Top shape: 24 128 28 28 (2408448)
I0403 15:52:03.382470 14787 net.cpp:156] Memory required for data: 686408736
I0403 15:52:03.382490 14787 layer_factory.hpp:77] Creating layer inception_3b/relu_3x3_reduce
I0403 15:52:03.382511 14787 net.cpp:91] Creating Layer inception_3b/relu_3x3_reduce
I0403 15:52:03.382529 14787 net.cpp:425] inception_3b/relu_3x3_reduce <- inception_3b/3x3_reduce
I0403 15:52:03.382546 14787 net.cpp:386] inception_3b/relu_3x3_reduce -> inception_3b/3x3_reduce (in-place)
I0403 15:52:03.382714 14787 net.cpp:141] Setting up inception_3b/relu_3x3_reduce
I0403 15:52:03.382743 14787 net.cpp:148] Top shape: 24 128 28 28 (2408448)
I0403 15:52:03.382758 14787 net.cpp:156] Memory required for data: 696042528
I0403 15:52:03.382773 14787 layer_factory.hpp:77] Creating layer inception_3b/3x3
I0403 15:52:03.382797 14787 net.cpp:91] Creating Layer inception_3b/3x3
I0403 15:52:03.382815 14787 net.cpp:425] inception_3b/3x3 <- inception_3b/3x3_reduce
I0403 15:52:03.382835 14787 net.cpp:399] inception_3b/3x3 -> inception_3b/3x3
I0403 15:52:03.385789 14787 net.cpp:141] Setting up inception_3b/3x3
I0403 15:52:03.385821 14787 net.cpp:148] Top shape: 24 192 28 28 (3612672)
I0403 15:52:03.385838 14787 net.cpp:156] Memory required for data: 710493216
I0403 15:52:03.385856 14787 layer_factory.hpp:77] Creating layer inception_3b/relu_3x3
I0403 15:52:03.385874 14787 net.cpp:91] Creating Layer inception_3b/relu_3x3
I0403 15:52:03.385891 14787 net.cpp:425] inception_3b/relu_3x3 <- inception_3b/3x3
I0403 15:52:03.385908 14787 net.cpp:386] inception_3b/relu_3x3 -> inception_3b/3x3 (in-place)
I0403 15:52:03.386185 14787 net.cpp:141] Setting up inception_3b/relu_3x3
I0403 15:52:03.386215 14787 net.cpp:148] Top shape: 24 192 28 28 (3612672)
I0403 15:52:03.386232 14787 net.cpp:156] Memory required for data: 724943904
I0403 15:52:03.386247 14787 layer_factory.hpp:77] Creating layer inception_3b/5x5_reduce
I0403 15:52:03.386270 14787 net.cpp:91] Creating Layer inception_3b/5x5_reduce
I0403 15:52:03.386287 14787 net.cpp:425] inception_3b/5x5_reduce <- inception_3a/output_inception_3a/output_0_split_2
I0403 15:52:03.386307 14787 net.cpp:399] inception_3b/5x5_reduce -> inception_3b/5x5_reduce
I0403 15:52:03.387293 14787 net.cpp:141] Setting up inception_3b/5x5_reduce
I0403 15:52:03.387325 14787 net.cpp:148] Top shape: 24 32 28 28 (602112)
I0403 15:52:03.387341 14787 net.cpp:156] Memory required for data: 727352352
I0403 15:52:03.387372 14787 layer_factory.hpp:77] Creating layer inception_3b/relu_5x5_reduce
I0403 15:52:03.387390 14787 net.cpp:91] Creating Layer inception_3b/relu_5x5_reduce
I0403 15:52:03.387408 14787 net.cpp:425] inception_3b/relu_5x5_reduce <- inception_3b/5x5_reduce
I0403 15:52:03.387425 14787 net.cpp:386] inception_3b/relu_5x5_reduce -> inception_3b/5x5_reduce (in-place)
I0403 15:52:03.387610 14787 net.cpp:141] Setting up inception_3b/relu_5x5_reduce
I0403 15:52:03.387660 14787 net.cpp:148] Top shape: 24 32 28 28 (602112)
I0403 15:52:03.387676 14787 net.cpp:156] Memory required for data: 729760800
I0403 15:52:03.387691 14787 layer_factory.hpp:77] Creating layer inception_3b/5x5
I0403 15:52:03.387713 14787 net.cpp:91] Creating Layer inception_3b/5x5
I0403 15:52:03.387732 14787 net.cpp:425] inception_3b/5x5 <- inception_3b/5x5_reduce
I0403 15:52:03.387753 14787 net.cpp:399] inception_3b/5x5 -> inception_3b/5x5
I0403 15:52:03.389716 14787 net.cpp:141] Setting up inception_3b/5x5
I0403 15:52:03.389745 14787 net.cpp:148] Top shape: 24 96 28 28 (1806336)
I0403 15:52:03.389761 14787 net.cpp:156] Memory required for data: 736986144
I0403 15:52:03.389780 14787 layer_factory.hpp:77] Creating layer inception_3b/relu_5x5
I0403 15:52:03.389801 14787 net.cpp:91] Creating Layer inception_3b/relu_5x5
I0403 15:52:03.389818 14787 net.cpp:425] inception_3b/relu_5x5 <- inception_3b/5x5
I0403 15:52:03.389835 14787 net.cpp:386] inception_3b/relu_5x5 -> inception_3b/5x5 (in-place)
I0403 15:52:03.390029 14787 net.cpp:141] Setting up inception_3b/relu_5x5
I0403 15:52:03.390055 14787 net.cpp:148] Top shape: 24 96 28 28 (1806336)
I0403 15:52:03.390071 14787 net.cpp:156] Memory required for data: 744211488
I0403 15:52:03.390086 14787 layer_factory.hpp:77] Creating layer inception_3b/pool
I0403 15:52:03.390103 14787 net.cpp:91] Creating Layer inception_3b/pool
I0403 15:52:03.390118 14787 net.cpp:425] inception_3b/pool <- inception_3a/output_inception_3a/output_0_split_3
I0403 15:52:03.390141 14787 net.cpp:399] inception_3b/pool -> inception_3b/pool
I0403 15:52:03.390199 14787 net.cpp:141] Setting up inception_3b/pool
I0403 15:52:03.390223 14787 net.cpp:148] Top shape: 24 256 28 28 (4816896)
I0403 15:52:03.390239 14787 net.cpp:156] Memory required for data: 763479072
I0403 15:52:03.390254 14787 layer_factory.hpp:77] Creating layer inception_3b/pool_proj
I0403 15:52:03.390276 14787 net.cpp:91] Creating Layer inception_3b/pool_proj
I0403 15:52:03.390293 14787 net.cpp:425] inception_3b/pool_proj <- inception_3b/pool
I0403 15:52:03.390316 14787 net.cpp:399] inception_3b/pool_proj -> inception_3b/pool_proj
I0403 15:52:03.391393 14787 net.cpp:141] Setting up inception_3b/pool_proj
I0403 15:52:03.391422 14787 net.cpp:148] Top shape: 24 64 28 28 (1204224)
I0403 15:52:03.391438 14787 net.cpp:156] Memory required for data: 768295968
I0403 15:52:03.391456 14787 layer_factory.hpp:77] Creating layer inception_3b/relu_pool_proj
I0403 15:52:03.391477 14787 net.cpp:91] Creating Layer inception_3b/relu_pool_proj
I0403 15:52:03.391495 14787 net.cpp:425] inception_3b/relu_pool_proj <- inception_3b/pool_proj
I0403 15:52:03.391513 14787 net.cpp:386] inception_3b/relu_pool_proj -> inception_3b/pool_proj (in-place)
I0403 15:52:03.391916 14787 net.cpp:141] Setting up inception_3b/relu_pool_proj
I0403 15:52:03.391943 14787 net.cpp:148] Top shape: 24 64 28 28 (1204224)
I0403 15:52:03.391959 14787 net.cpp:156] Memory required for data: 773112864
I0403 15:52:03.391973 14787 layer_factory.hpp:77] Creating layer inception_3b/output
I0403 15:52:03.391991 14787 net.cpp:91] Creating Layer inception_3b/output
I0403 15:52:03.392007 14787 net.cpp:425] inception_3b/output <- inception_3b/1x1
I0403 15:52:03.392024 14787 net.cpp:425] inception_3b/output <- inception_3b/3x3
I0403 15:52:03.392040 14787 net.cpp:425] inception_3b/output <- inception_3b/5x5
I0403 15:52:03.392055 14787 net.cpp:425] inception_3b/output <- inception_3b/pool_proj
I0403 15:52:03.392076 14787 net.cpp:399] inception_3b/output -> inception_3b/output
I0403 15:52:03.392119 14787 net.cpp:141] Setting up inception_3b/output
I0403 15:52:03.392150 14787 net.cpp:148] Top shape: 24 480 28 28 (9031680)
I0403 15:52:03.392168 14787 net.cpp:156] Memory required for data: 809239584
I0403 15:52:03.392184 14787 layer_factory.hpp:77] Creating layer pool3/3x3_s2
I0403 15:52:03.392201 14787 net.cpp:91] Creating Layer pool3/3x3_s2
I0403 15:52:03.392218 14787 net.cpp:425] pool3/3x3_s2 <- inception_3b/output
I0403 15:52:03.392235 14787 net.cpp:399] pool3/3x3_s2 -> pool3/3x3_s2
I0403 15:52:03.392310 14787 net.cpp:141] Setting up pool3/3x3_s2
I0403 15:52:03.392335 14787 net.cpp:148] Top shape: 24 480 14 14 (2257920)
I0403 15:52:03.392350 14787 net.cpp:156] Memory required for data: 818271264
I0403 15:52:03.392364 14787 layer_factory.hpp:77] Creating layer pool3/3x3_s2_pool3/3x3_s2_0_split
I0403 15:52:03.392380 14787 net.cpp:91] Creating Layer pool3/3x3_s2_pool3/3x3_s2_0_split
I0403 15:52:03.392395 14787 net.cpp:425] pool3/3x3_s2_pool3/3x3_s2_0_split <- pool3/3x3_s2
I0403 15:52:03.392416 14787 net.cpp:399] pool3/3x3_s2_pool3/3x3_s2_0_split -> pool3/3x3_s2_pool3/3x3_s2_0_split_0
I0403 15:52:03.392436 14787 net.cpp:399] pool3/3x3_s2_pool3/3x3_s2_0_split -> pool3/3x3_s2_pool3/3x3_s2_0_split_1
I0403 15:52:03.392454 14787 net.cpp:399] pool3/3x3_s2_pool3/3x3_s2_0_split -> pool3/3x3_s2_pool3/3x3_s2_0_split_2
I0403 15:52:03.392473 14787 net.cpp:399] pool3/3x3_s2_pool3/3x3_s2_0_split -> pool3/3x3_s2_pool3/3x3_s2_0_split_3
I0403 15:52:03.392552 14787 net.cpp:141] Setting up pool3/3x3_s2_pool3/3x3_s2_0_split
I0403 15:52:03.392576 14787 net.cpp:148] Top shape: 24 480 14 14 (2257920)
I0403 15:52:03.392593 14787 net.cpp:148] Top shape: 24 480 14 14 (2257920)
I0403 15:52:03.392609 14787 net.cpp:148] Top shape: 24 480 14 14 (2257920)
I0403 15:52:03.392626 14787 net.cpp:148] Top shape: 24 480 14 14 (2257920)
I0403 15:52:03.392638 14787 net.cpp:156] Memory required for data: 854397984
I0403 15:52:03.392652 14787 layer_factory.hpp:77] Creating layer inception_4a/1x1
I0403 15:52:03.392675 14787 net.cpp:91] Creating Layer inception_4a/1x1
I0403 15:52:03.392693 14787 net.cpp:425] inception_4a/1x1 <- pool3/3x3_s2_pool3/3x3_s2_0_split_0
I0403 15:52:03.392714 14787 net.cpp:399] inception_4a/1x1 -> inception_4a/1x1
I0403 15:52:03.394285 14787 net.cpp:141] Setting up inception_4a/1x1
I0403 15:52:03.394315 14787 net.cpp:148] Top shape: 24 192 14 14 (903168)
I0403 15:52:03.394330 14787 net.cpp:156] Memory required for data: 858010656
I0403 15:52:03.394347 14787 layer_factory.hpp:77] Creating layer inception_4a/relu_1x1
I0403 15:52:03.394368 14787 net.cpp:91] Creating Layer inception_4a/relu_1x1
I0403 15:52:03.394386 14787 net.cpp:425] inception_4a/relu_1x1 <- inception_4a/1x1
I0403 15:52:03.394402 14787 net.cpp:386] inception_4a/relu_1x1 -> inception_4a/1x1 (in-place)
I0403 15:52:03.394580 14787 net.cpp:141] Setting up inception_4a/relu_1x1
I0403 15:52:03.394608 14787 net.cpp:148] Top shape: 24 192 14 14 (903168)
I0403 15:52:03.394623 14787 net.cpp:156] Memory required for data: 861623328
I0403 15:52:03.394636 14787 layer_factory.hpp:77] Creating layer inception_4a/3x3_reduce
I0403 15:52:03.394661 14787 net.cpp:91] Creating Layer inception_4a/3x3_reduce
I0403 15:52:03.394680 14787 net.cpp:425] inception_4a/3x3_reduce <- pool3/3x3_s2_pool3/3x3_s2_0_split_1
I0403 15:52:03.394701 14787 net.cpp:399] inception_4a/3x3_reduce -> inception_4a/3x3_reduce
I0403 15:52:03.396003 14787 net.cpp:141] Setting up inception_4a/3x3_reduce
I0403 15:52:03.396030 14787 net.cpp:148] Top shape: 24 96 14 14 (451584)
I0403 15:52:03.396045 14787 net.cpp:156] Memory required for data: 863429664
I0403 15:52:03.396070 14787 layer_factory.hpp:77] Creating layer inception_4a/relu_3x3_reduce
I0403 15:52:03.396090 14787 net.cpp:91] Creating Layer inception_4a/relu_3x3_reduce
I0403 15:52:03.396107 14787 net.cpp:425] inception_4a/relu_3x3_reduce <- inception_4a/3x3_reduce
I0403 15:52:03.396131 14787 net.cpp:386] inception_4a/relu_3x3_reduce -> inception_4a/3x3_reduce (in-place)
I0403 15:52:03.396311 14787 net.cpp:141] Setting up inception_4a/relu_3x3_reduce
I0403 15:52:03.396337 14787 net.cpp:148] Top shape: 24 96 14 14 (451584)
I0403 15:52:03.396353 14787 net.cpp:156] Memory required for data: 865236000
I0403 15:52:03.396368 14787 layer_factory.hpp:77] Creating layer inception_4a/3x3
I0403 15:52:03.396389 14787 net.cpp:91] Creating Layer inception_4a/3x3
I0403 15:52:03.396406 14787 net.cpp:425] inception_4a/3x3 <- inception_4a/3x3_reduce
I0403 15:52:03.396428 14787 net.cpp:399] inception_4a/3x3 -> inception_4a/3x3
I0403 15:52:03.399078 14787 net.cpp:141] Setting up inception_4a/3x3
I0403 15:52:03.399107 14787 net.cpp:148] Top shape: 24 208 14 14 (978432)
I0403 15:52:03.399128 14787 net.cpp:156] Memory required for data: 869149728
I0403 15:52:03.399148 14787 layer_factory.hpp:77] Creating layer inception_4a/relu_3x3
I0403 15:52:03.399170 14787 net.cpp:91] Creating Layer inception_4a/relu_3x3
I0403 15:52:03.399188 14787 net.cpp:425] inception_4a/relu_3x3 <- inception_4a/3x3
I0403 15:52:03.399219 14787 net.cpp:386] inception_4a/relu_3x3 -> inception_4a/3x3 (in-place)
I0403 15:52:03.399533 14787 net.cpp:141] Setting up inception_4a/relu_3x3
I0403 15:52:03.399560 14787 net.cpp:148] Top shape: 24 208 14 14 (978432)
I0403 15:52:03.399576 14787 net.cpp:156] Memory required for data: 873063456
I0403 15:52:03.399591 14787 layer_factory.hpp:77] Creating layer inception_4a/5x5_reduce
I0403 15:52:03.399616 14787 net.cpp:91] Creating Layer inception_4a/5x5_reduce
I0403 15:52:03.399633 14787 net.cpp:425] inception_4a/5x5_reduce <- pool3/3x3_s2_pool3/3x3_s2_0_split_2
I0403 15:52:03.399667 14787 net.cpp:399] inception_4a/5x5_reduce -> inception_4a/5x5_reduce
I0403 15:52:03.400683 14787 net.cpp:141] Setting up inception_4a/5x5_reduce
I0403 15:52:03.400713 14787 net.cpp:148] Top shape: 24 16 14 14 (75264)
I0403 15:52:03.400730 14787 net.cpp:156] Memory required for data: 873364512
I0403 15:52:03.400748 14787 layer_factory.hpp:77] Creating layer inception_4a/relu_5x5_reduce
I0403 15:52:03.400768 14787 net.cpp:91] Creating Layer inception_4a/relu_5x5_reduce
I0403 15:52:03.400784 14787 net.cpp:425] inception_4a/relu_5x5_reduce <- inception_4a/5x5_reduce
I0403 15:52:03.400801 14787 net.cpp:386] inception_4a/relu_5x5_reduce -> inception_4a/5x5_reduce (in-place)
I0403 15:52:03.400981 14787 net.cpp:141] Setting up inception_4a/relu_5x5_reduce
I0403 15:52:03.401008 14787 net.cpp:148] Top shape: 24 16 14 14 (75264)
I0403 15:52:03.401023 14787 net.cpp:156] Memory required for data: 873665568
I0403 15:52:03.401039 14787 layer_factory.hpp:77] Creating layer inception_4a/5x5
I0403 15:52:03.401062 14787 net.cpp:91] Creating Layer inception_4a/5x5
I0403 15:52:03.401079 14787 net.cpp:425] inception_4a/5x5 <- inception_4a/5x5_reduce
I0403 15:52:03.401100 14787 net.cpp:399] inception_4a/5x5 -> inception_4a/5x5
I0403 15:52:03.402235 14787 net.cpp:141] Setting up inception_4a/5x5
I0403 15:52:03.402264 14787 net.cpp:148] Top shape: 24 48 14 14 (225792)
I0403 15:52:03.402281 14787 net.cpp:156] Memory required for data: 874568736
I0403 15:52:03.402300 14787 layer_factory.hpp:77] Creating layer inception_4a/relu_5x5
I0403 15:52:03.402319 14787 net.cpp:91] Creating Layer inception_4a/relu_5x5
I0403 15:52:03.402336 14787 net.cpp:425] inception_4a/relu_5x5 <- inception_4a/5x5
I0403 15:52:03.402356 14787 net.cpp:386] inception_4a/relu_5x5 -> inception_4a/5x5 (in-place)
I0403 15:52:03.402554 14787 net.cpp:141] Setting up inception_4a/relu_5x5
I0403 15:52:03.402580 14787 net.cpp:148] Top shape: 24 48 14 14 (225792)
I0403 15:52:03.402595 14787 net.cpp:156] Memory required for data: 875471904
I0403 15:52:03.402609 14787 layer_factory.hpp:77] Creating layer inception_4a/pool
I0403 15:52:03.402628 14787 net.cpp:91] Creating Layer inception_4a/pool
I0403 15:52:03.402647 14787 net.cpp:425] inception_4a/pool <- pool3/3x3_s2_pool3/3x3_s2_0_split_3
I0403 15:52:03.402664 14787 net.cpp:399] inception_4a/pool -> inception_4a/pool
I0403 15:52:03.402729 14787 net.cpp:141] Setting up inception_4a/pool
I0403 15:52:03.402752 14787 net.cpp:148] Top shape: 24 480 14 14 (2257920)
I0403 15:52:03.402766 14787 net.cpp:156] Memory required for data: 884503584
I0403 15:52:03.402781 14787 layer_factory.hpp:77] Creating layer inception_4a/pool_proj
I0403 15:52:03.402804 14787 net.cpp:91] Creating Layer inception_4a/pool_proj
I0403 15:52:03.402822 14787 net.cpp:425] inception_4a/pool_proj <- inception_4a/pool
I0403 15:52:03.402843 14787 net.cpp:399] inception_4a/pool_proj -> inception_4a/pool_proj
I0403 15:52:03.404019 14787 net.cpp:141] Setting up inception_4a/pool_proj
I0403 15:52:03.404047 14787 net.cpp:148] Top shape: 24 64 14 14 (301056)
I0403 15:52:03.404089 14787 net.cpp:156] Memory required for data: 885707808
I0403 15:52:03.404110 14787 layer_factory.hpp:77] Creating layer inception_4a/relu_pool_proj
I0403 15:52:03.404132 14787 net.cpp:91] Creating Layer inception_4a/relu_pool_proj
I0403 15:52:03.404150 14787 net.cpp:425] inception_4a/relu_pool_proj <- inception_4a/pool_proj
I0403 15:52:03.404171 14787 net.cpp:386] inception_4a/relu_pool_proj -> inception_4a/pool_proj (in-place)
I0403 15:52:03.404469 14787 net.cpp:141] Setting up inception_4a/relu_pool_proj
I0403 15:52:03.404495 14787 net.cpp:148] Top shape: 24 64 14 14 (301056)
I0403 15:52:03.404510 14787 net.cpp:156] Memory required for data: 886912032
I0403 15:52:03.404525 14787 layer_factory.hpp:77] Creating layer inception_4a/output
I0403 15:52:03.404541 14787 net.cpp:91] Creating Layer inception_4a/output
I0403 15:52:03.404556 14787 net.cpp:425] inception_4a/output <- inception_4a/1x1
I0403 15:52:03.404572 14787 net.cpp:425] inception_4a/output <- inception_4a/3x3
I0403 15:52:03.404587 14787 net.cpp:425] inception_4a/output <- inception_4a/5x5
I0403 15:52:03.404603 14787 net.cpp:425] inception_4a/output <- inception_4a/pool_proj
I0403 15:52:03.404621 14787 net.cpp:399] inception_4a/output -> inception_4a/output
I0403 15:52:03.404665 14787 net.cpp:141] Setting up inception_4a/output
I0403 15:52:03.404690 14787 net.cpp:148] Top shape: 24 512 14 14 (2408448)
I0403 15:52:03.404707 14787 net.cpp:156] Memory required for data: 896545824
I0403 15:52:03.404721 14787 layer_factory.hpp:77] Creating layer inception_4a/output_inception_4a/output_0_split
I0403 15:52:03.404737 14787 net.cpp:91] Creating Layer inception_4a/output_inception_4a/output_0_split
I0403 15:52:03.404753 14787 net.cpp:425] inception_4a/output_inception_4a/output_0_split <- inception_4a/output
I0403 15:52:03.404772 14787 net.cpp:399] inception_4a/output_inception_4a/output_0_split -> inception_4a/output_inception_4a/output_0_split_0
I0403 15:52:03.404793 14787 net.cpp:399] inception_4a/output_inception_4a/output_0_split -> inception_4a/output_inception_4a/output_0_split_1
I0403 15:52:03.404813 14787 net.cpp:399] inception_4a/output_inception_4a/output_0_split -> inception_4a/output_inception_4a/output_0_split_2
I0403 15:52:03.404832 14787 net.cpp:399] inception_4a/output_inception_4a/output_0_split -> inception_4a/output_inception_4a/output_0_split_3
I0403 15:52:03.404851 14787 net.cpp:399] inception_4a/output_inception_4a/output_0_split -> inception_4a/output_inception_4a/output_0_split_4
I0403 15:52:03.404942 14787 net.cpp:141] Setting up inception_4a/output_inception_4a/output_0_split
I0403 15:52:03.404969 14787 net.cpp:148] Top shape: 24 512 14 14 (2408448)
I0403 15:52:03.404985 14787 net.cpp:148] Top shape: 24 512 14 14 (2408448)
I0403 15:52:03.405000 14787 net.cpp:148] Top shape: 24 512 14 14 (2408448)
I0403 15:52:03.405015 14787 net.cpp:148] Top shape: 24 512 14 14 (2408448)
I0403 15:52:03.405030 14787 net.cpp:148] Top shape: 24 512 14 14 (2408448)
I0403 15:52:03.405043 14787 net.cpp:156] Memory required for data: 944714784
I0403 15:52:03.405058 14787 layer_factory.hpp:77] Creating layer loss1/ave_pool
I0403 15:52:03.405076 14787 net.cpp:91] Creating Layer loss1/ave_pool
I0403 15:52:03.405092 14787 net.cpp:425] loss1/ave_pool <- inception_4a/output_inception_4a/output_0_split_0
I0403 15:52:03.405108 14787 net.cpp:399] loss1/ave_pool -> loss1/ave_pool
I0403 15:52:03.405310 14787 net.cpp:141] Setting up loss1/ave_pool
I0403 15:52:03.405336 14787 net.cpp:148] Top shape: 24 512 4 4 (196608)
I0403 15:52:03.405351 14787 net.cpp:156] Memory required for data: 945501216
I0403 15:52:03.405367 14787 layer_factory.hpp:77] Creating layer loss1/conv
I0403 15:52:03.405388 14787 net.cpp:91] Creating Layer loss1/conv
I0403 15:52:03.405405 14787 net.cpp:425] loss1/conv <- loss1/ave_pool
I0403 15:52:03.405426 14787 net.cpp:399] loss1/conv -> loss1/conv
I0403 15:52:03.406796 14787 net.cpp:141] Setting up loss1/conv
I0403 15:52:03.406824 14787 net.cpp:148] Top shape: 24 128 4 4 (49152)
I0403 15:52:03.406844 14787 net.cpp:156] Memory required for data: 945697824
I0403 15:52:03.406882 14787 layer_factory.hpp:77] Creating layer loss1/relu_conv
I0403 15:52:03.406901 14787 net.cpp:91] Creating Layer loss1/relu_conv
I0403 15:52:03.406918 14787 net.cpp:425] loss1/relu_conv <- loss1/conv
I0403 15:52:03.406934 14787 net.cpp:386] loss1/relu_conv -> loss1/conv (in-place)
I0403 15:52:03.407217 14787 net.cpp:141] Setting up loss1/relu_conv
I0403 15:52:03.407244 14787 net.cpp:148] Top shape: 24 128 4 4 (49152)
I0403 15:52:03.407263 14787 net.cpp:156] Memory required for data: 945894432
I0403 15:52:03.407277 14787 layer_factory.hpp:77] Creating layer loss1/fc
I0403 15:52:03.407300 14787 net.cpp:91] Creating Layer loss1/fc
I0403 15:52:03.407318 14787 net.cpp:425] loss1/fc <- loss1/conv
I0403 15:52:03.407337 14787 net.cpp:399] loss1/fc -> loss1/fc
I0403 15:52:03.424631 14787 net.cpp:141] Setting up loss1/fc
I0403 15:52:03.424661 14787 net.cpp:148] Top shape: 24 1024 (24576)
I0403 15:52:03.424677 14787 net.cpp:156] Memory required for data: 945992736
I0403 15:52:03.424695 14787 layer_factory.hpp:77] Creating layer loss1/relu_fc
I0403 15:52:03.424715 14787 net.cpp:91] Creating Layer loss1/relu_fc
I0403 15:52:03.424734 14787 net.cpp:425] loss1/relu_fc <- loss1/fc
I0403 15:52:03.424751 14787 net.cpp:386] loss1/relu_fc -> loss1/fc (in-place)
I0403 15:52:03.424932 14787 net.cpp:141] Setting up loss1/relu_fc
I0403 15:52:03.424957 14787 net.cpp:148] Top shape: 24 1024 (24576)
I0403 15:52:03.424970 14787 net.cpp:156] Memory required for data: 946091040
I0403 15:52:03.424985 14787 layer_factory.hpp:77] Creating layer loss1/drop_fc
I0403 15:52:03.425014 14787 net.cpp:91] Creating Layer loss1/drop_fc
I0403 15:52:03.425030 14787 net.cpp:425] loss1/drop_fc <- loss1/fc
I0403 15:52:03.425047 14787 net.cpp:386] loss1/drop_fc -> loss1/fc (in-place)
I0403 15:52:03.425096 14787 net.cpp:141] Setting up loss1/drop_fc
I0403 15:52:03.425123 14787 net.cpp:148] Top shape: 24 1024 (24576)
I0403 15:52:03.425143 14787 net.cpp:156] Memory required for data: 946189344
I0403 15:52:03.425159 14787 layer_factory.hpp:77] Creating layer loss1/classifier_plantvillage
I0403 15:52:03.425178 14787 net.cpp:91] Creating Layer loss1/classifier_plantvillage
I0403 15:52:03.425194 14787 net.cpp:425] loss1/classifier_plantvillage <- loss1/fc
I0403 15:52:03.425215 14787 net.cpp:399] loss1/classifier_plantvillage -> loss1/classifier_plantvillage
I0403 15:52:03.426089 14787 net.cpp:141] Setting up loss1/classifier_plantvillage
I0403 15:52:03.426118 14787 net.cpp:148] Top shape: 24 38 (912)
I0403 15:52:03.426139 14787 net.cpp:156] Memory required for data: 946192992
I0403 15:52:03.426158 14787 layer_factory.hpp:77] Creating layer loss1/classifier_plantvillage_loss1/classifier_plantvillage_0_split
I0403 15:52:03.426177 14787 net.cpp:91] Creating Layer loss1/classifier_plantvillage_loss1/classifier_plantvillage_0_split
I0403 15:52:03.426190 14787 net.cpp:425] loss1/classifier_plantvillage_loss1/classifier_plantvillage_0_split <- loss1/classifier_plantvillage
I0403 15:52:03.426208 14787 net.cpp:399] loss1/classifier_plantvillage_loss1/classifier_plantvillage_0_split -> loss1/classifier_plantvillage_loss1/classifier_plantvillage_0_split_0
I0403 15:52:03.426228 14787 net.cpp:399] loss1/classifier_plantvillage_loss1/classifier_plantvillage_0_split -> loss1/classifier_plantvillage_loss1/classifier_plantvillage_0_split_1
I0403 15:52:03.426249 14787 net.cpp:399] loss1/classifier_plantvillage_loss1/classifier_plantvillage_0_split -> loss1/classifier_plantvillage_loss1/classifier_plantvillage_0_split_2
I0403 15:52:03.426316 14787 net.cpp:141] Setting up loss1/classifier_plantvillage_loss1/classifier_plantvillage_0_split
I0403 15:52:03.426340 14787 net.cpp:148] Top shape: 24 38 (912)
I0403 15:52:03.426355 14787 net.cpp:148] Top shape: 24 38 (912)
I0403 15:52:03.426369 14787 net.cpp:148] Top shape: 24 38 (912)
I0403 15:52:03.426383 14787 net.cpp:156] Memory required for data: 946203936
I0403 15:52:03.426398 14787 layer_factory.hpp:77] Creating layer inception_4b/1x1
I0403 15:52:03.426416 14787 net.cpp:91] Creating Layer inception_4b/1x1
I0403 15:52:03.426450 14787 net.cpp:425] inception_4b/1x1 <- inception_4a/output_inception_4a/output_0_split_1
I0403 15:52:03.426470 14787 net.cpp:399] inception_4b/1x1 -> inception_4b/1x1
I0403 15:52:03.428098 14787 net.cpp:141] Setting up inception_4b/1x1
I0403 15:52:03.428133 14787 net.cpp:148] Top shape: 24 160 14 14 (752640)
I0403 15:52:03.428151 14787 net.cpp:156] Memory required for data: 949214496
I0403 15:52:03.428169 14787 layer_factory.hpp:77] Creating layer inception_4b/relu_1x1
I0403 15:52:03.428186 14787 net.cpp:91] Creating Layer inception_4b/relu_1x1
I0403 15:52:03.428201 14787 net.cpp:425] inception_4b/relu_1x1 <- inception_4b/1x1
I0403 15:52:03.428218 14787 net.cpp:386] inception_4b/relu_1x1 -> inception_4b/1x1 (in-place)
I0403 15:52:03.428398 14787 net.cpp:141] Setting up inception_4b/relu_1x1
I0403 15:52:03.428426 14787 net.cpp:148] Top shape: 24 160 14 14 (752640)
I0403 15:52:03.428442 14787 net.cpp:156] Memory required for data: 952225056
I0403 15:52:03.428455 14787 layer_factory.hpp:77] Creating layer inception_4b/3x3_reduce
I0403 15:52:03.428478 14787 net.cpp:91] Creating Layer inception_4b/3x3_reduce
I0403 15:52:03.428496 14787 net.cpp:425] inception_4b/3x3_reduce <- inception_4a/output_inception_4a/output_0_split_2
I0403 15:52:03.428519 14787 net.cpp:399] inception_4b/3x3_reduce -> inception_4b/3x3_reduce
I0403 15:52:03.429920 14787 net.cpp:141] Setting up inception_4b/3x3_reduce
I0403 15:52:03.429952 14787 net.cpp:148] Top shape: 24 112 14 14 (526848)
I0403 15:52:03.429970 14787 net.cpp:156] Memory required for data: 954332448
I0403 15:52:03.429989 14787 layer_factory.hpp:77] Creating layer inception_4b/relu_3x3_reduce
I0403 15:52:03.430007 14787 net.cpp:91] Creating Layer inception_4b/relu_3x3_reduce
I0403 15:52:03.430023 14787 net.cpp:425] inception_4b/relu_3x3_reduce <- inception_4b/3x3_reduce
I0403 15:52:03.430043 14787 net.cpp:386] inception_4b/relu_3x3_reduce -> inception_4b/3x3_reduce (in-place)
I0403 15:52:03.430325 14787 net.cpp:141] Setting up inception_4b/relu_3x3_reduce
I0403 15:52:03.430356 14787 net.cpp:148] Top shape: 24 112 14 14 (526848)
I0403 15:52:03.430371 14787 net.cpp:156] Memory required for data: 956439840
I0403 15:52:03.430387 14787 layer_factory.hpp:77] Creating layer inception_4b/3x3
I0403 15:52:03.430409 14787 net.cpp:91] Creating Layer inception_4b/3x3
I0403 15:52:03.430428 14787 net.cpp:425] inception_4b/3x3 <- inception_4b/3x3_reduce
I0403 15:52:03.430446 14787 net.cpp:399] inception_4b/3x3 -> inception_4b/3x3
I0403 15:52:03.433451 14787 net.cpp:141] Setting up inception_4b/3x3
I0403 15:52:03.433481 14787 net.cpp:148] Top shape: 24 224 14 14 (1053696)
I0403 15:52:03.433498 14787 net.cpp:156] Memory required for data: 960654624
I0403 15:52:03.433516 14787 layer_factory.hpp:77] Creating layer inception_4b/relu_3x3
I0403 15:52:03.433537 14787 net.cpp:91] Creating Layer inception_4b/relu_3x3
I0403 15:52:03.433557 14787 net.cpp:425] inception_4b/relu_3x3 <- inception_4b/3x3
I0403 15:52:03.433573 14787 net.cpp:386] inception_4b/relu_3x3 -> inception_4b/3x3 (in-place)
I0403 15:52:03.433754 14787 net.cpp:141] Setting up inception_4b/relu_3x3
I0403 15:52:03.433780 14787 net.cpp:148] Top shape: 24 224 14 14 (1053696)
I0403 15:52:03.433795 14787 net.cpp:156] Memory required for data: 964869408
I0403 15:52:03.433809 14787 layer_factory.hpp:77] Creating layer inception_4b/5x5_reduce
I0403 15:52:03.433833 14787 net.cpp:91] Creating Layer inception_4b/5x5_reduce
I0403 15:52:03.433852 14787 net.cpp:425] inception_4b/5x5_reduce <- inception_4a/output_inception_4a/output_0_split_3
I0403 15:52:03.433871 14787 net.cpp:399] inception_4b/5x5_reduce -> inception_4b/5x5_reduce
I0403 15:52:03.434968 14787 net.cpp:141] Setting up inception_4b/5x5_reduce
I0403 15:52:03.434999 14787 net.cpp:148] Top shape: 24 24 14 14 (112896)
I0403 15:52:03.435015 14787 net.cpp:156] Memory required for data: 965320992
I0403 15:52:03.435034 14787 layer_factory.hpp:77] Creating layer inception_4b/relu_5x5_reduce
I0403 15:52:03.435053 14787 net.cpp:91] Creating Layer inception_4b/relu_5x5_reduce
I0403 15:52:03.435087 14787 net.cpp:425] inception_4b/relu_5x5_reduce <- inception_4b/5x5_reduce
I0403 15:52:03.435108 14787 net.cpp:386] inception_4b/relu_5x5_reduce -> inception_4b/5x5_reduce (in-place)
I0403 15:52:03.435297 14787 net.cpp:141] Setting up inception_4b/relu_5x5_reduce
I0403 15:52:03.435322 14787 net.cpp:148] Top shape: 24 24 14 14 (112896)
I0403 15:52:03.435338 14787 net.cpp:156] Memory required for data: 965772576
I0403 15:52:03.435366 14787 layer_factory.hpp:77] Creating layer inception_4b/5x5
I0403 15:52:03.435389 14787 net.cpp:91] Creating Layer inception_4b/5x5
I0403 15:52:03.435407 14787 net.cpp:425] inception_4b/5x5 <- inception_4b/5x5_reduce
I0403 15:52:03.435430 14787 net.cpp:399] inception_4b/5x5 -> inception_4b/5x5
I0403 15:52:03.436689 14787 net.cpp:141] Setting up inception_4b/5x5
I0403 15:52:03.436720 14787 net.cpp:148] Top shape: 24 64 14 14 (301056)
I0403 15:52:03.436738 14787 net.cpp:156] Memory required for data: 966976800
I0403 15:52:03.436758 14787 layer_factory.hpp:77] Creating layer inception_4b/relu_5x5
I0403 15:52:03.436775 14787 net.cpp:91] Creating Layer inception_4b/relu_5x5
I0403 15:52:03.436791 14787 net.cpp:425] inception_4b/relu_5x5 <- inception_4b/5x5
I0403 15:52:03.436808 14787 net.cpp:386] inception_4b/relu_5x5 -> inception_4b/5x5 (in-place)
I0403 15:52:03.437098 14787 net.cpp:141] Setting up inception_4b/relu_5x5
I0403 15:52:03.437130 14787 net.cpp:148] Top shape: 24 64 14 14 (301056)
I0403 15:52:03.437149 14787 net.cpp:156] Memory required for data: 968181024
I0403 15:52:03.437163 14787 layer_factory.hpp:77] Creating layer inception_4b/pool
I0403 15:52:03.437181 14787 net.cpp:91] Creating Layer inception_4b/pool
I0403 15:52:03.437199 14787 net.cpp:425] inception_4b/pool <- inception_4a/output_inception_4a/output_0_split_4
I0403 15:52:03.437217 14787 net.cpp:399] inception_4b/pool -> inception_4b/pool
I0403 15:52:03.437285 14787 net.cpp:141] Setting up inception_4b/pool
I0403 15:52:03.437309 14787 net.cpp:148] Top shape: 24 512 14 14 (2408448)
I0403 15:52:03.437325 14787 net.cpp:156] Memory required for data: 977814816
I0403 15:52:03.437338 14787 layer_factory.hpp:77] Creating layer inception_4b/pool_proj
I0403 15:52:03.437361 14787 net.cpp:91] Creating Layer inception_4b/pool_proj
I0403 15:52:03.437379 14787 net.cpp:425] inception_4b/pool_proj <- inception_4b/pool
I0403 15:52:03.437400 14787 net.cpp:399] inception_4b/pool_proj -> inception_4b/pool_proj
I0403 15:52:03.438613 14787 net.cpp:141] Setting up inception_4b/pool_proj
I0403 15:52:03.438645 14787 net.cpp:148] Top shape: 24 64 14 14 (301056)
I0403 15:52:03.438663 14787 net.cpp:156] Memory required for data: 979019040
I0403 15:52:03.438681 14787 layer_factory.hpp:77] Creating layer inception_4b/relu_pool_proj
I0403 15:52:03.438699 14787 net.cpp:91] Creating Layer inception_4b/relu_pool_proj
I0403 15:52:03.438715 14787 net.cpp:425] inception_4b/relu_pool_proj <- inception_4b/pool_proj
I0403 15:52:03.438732 14787 net.cpp:386] inception_4b/relu_pool_proj -> inception_4b/pool_proj (in-place)
I0403 15:52:03.438917 14787 net.cpp:141] Setting up inception_4b/relu_pool_proj
I0403 15:52:03.438943 14787 net.cpp:148] Top shape: 24 64 14 14 (301056)
I0403 15:52:03.438958 14787 net.cpp:156] Memory required for data: 980223264
I0403 15:52:03.438973 14787 layer_factory.hpp:77] Creating layer inception_4b/output
I0403 15:52:03.438990 14787 net.cpp:91] Creating Layer inception_4b/output
I0403 15:52:03.439007 14787 net.cpp:425] inception_4b/output <- inception_4b/1x1
I0403 15:52:03.439023 14787 net.cpp:425] inception_4b/output <- inception_4b/3x3
I0403 15:52:03.439039 14787 net.cpp:425] inception_4b/output <- inception_4b/5x5
I0403 15:52:03.439054 14787 net.cpp:425] inception_4b/output <- inception_4b/pool_proj
I0403 15:52:03.439074 14787 net.cpp:399] inception_4b/output -> inception_4b/output
I0403 15:52:03.439121 14787 net.cpp:141] Setting up inception_4b/output
I0403 15:52:03.439152 14787 net.cpp:148] Top shape: 24 512 14 14 (2408448)
I0403 15:52:03.439172 14787 net.cpp:156] Memory required for data: 989857056
I0403 15:52:03.439203 14787 layer_factory.hpp:77] Creating layer inception_4b/output_inception_4b/output_0_split
I0403 15:52:03.439220 14787 net.cpp:91] Creating Layer inception_4b/output_inception_4b/output_0_split
I0403 15:52:03.439235 14787 net.cpp:425] inception_4b/output_inception_4b/output_0_split <- inception_4b/output
I0403 15:52:03.439252 14787 net.cpp:399] inception_4b/output_inception_4b/output_0_split -> inception_4b/output_inception_4b/output_0_split_0
I0403 15:52:03.439280 14787 net.cpp:399] inception_4b/output_inception_4b/output_0_split -> inception_4b/output_inception_4b/output_0_split_1
I0403 15:52:03.439299 14787 net.cpp:399] inception_4b/output_inception_4b/output_0_split -> inception_4b/output_inception_4b/output_0_split_2
I0403 15:52:03.439321 14787 net.cpp:399] inception_4b/output_inception_4b/output_0_split -> inception_4b/output_inception_4b/output_0_split_3
I0403 15:52:03.439419 14787 net.cpp:141] Setting up inception_4b/output_inception_4b/output_0_split
I0403 15:52:03.439445 14787 net.cpp:148] Top shape: 24 512 14 14 (2408448)
I0403 15:52:03.439465 14787 net.cpp:148] Top shape: 24 512 14 14 (2408448)
I0403 15:52:03.439481 14787 net.cpp:148] Top shape: 24 512 14 14 (2408448)
I0403 15:52:03.439496 14787 net.cpp:148] Top shape: 24 512 14 14 (2408448)
I0403 15:52:03.439510 14787 net.cpp:156] Memory required for data: 1028392224
I0403 15:52:03.439525 14787 layer_factory.hpp:77] Creating layer inception_4c/1x1
I0403 15:52:03.439548 14787 net.cpp:91] Creating Layer inception_4c/1x1
I0403 15:52:03.439568 14787 net.cpp:425] inception_4c/1x1 <- inception_4b/output_inception_4b/output_0_split_0
I0403 15:52:03.439589 14787 net.cpp:399] inception_4c/1x1 -> inception_4c/1x1
I0403 15:52:03.441046 14787 net.cpp:141] Setting up inception_4c/1x1
I0403 15:52:03.441076 14787 net.cpp:148] Top shape: 24 128 14 14 (602112)
I0403 15:52:03.441092 14787 net.cpp:156] Memory required for data: 1030800672
I0403 15:52:03.441110 14787 layer_factory.hpp:77] Creating layer inception_4c/relu_1x1
I0403 15:52:03.441135 14787 net.cpp:91] Creating Layer inception_4c/relu_1x1
I0403 15:52:03.441154 14787 net.cpp:425] inception_4c/relu_1x1 <- inception_4c/1x1
I0403 15:52:03.441171 14787 net.cpp:386] inception_4c/relu_1x1 -> inception_4c/1x1 (in-place)
I0403 15:52:03.441356 14787 net.cpp:141] Setting up inception_4c/relu_1x1
I0403 15:52:03.441382 14787 net.cpp:148] Top shape: 24 128 14 14 (602112)
I0403 15:52:03.441398 14787 net.cpp:156] Memory required for data: 1033209120
I0403 15:52:03.441413 14787 layer_factory.hpp:77] Creating layer inception_4c/3x3_reduce
I0403 15:52:03.441436 14787 net.cpp:91] Creating Layer inception_4c/3x3_reduce
I0403 15:52:03.441452 14787 net.cpp:425] inception_4c/3x3_reduce <- inception_4b/output_inception_4b/output_0_split_1
I0403 15:52:03.441474 14787 net.cpp:399] inception_4c/3x3_reduce -> inception_4c/3x3_reduce
I0403 15:52:03.443445 14787 net.cpp:141] Setting up inception_4c/3x3_reduce
I0403 15:52:03.443475 14787 net.cpp:148] Top shape: 24 128 14 14 (602112)
I0403 15:52:03.443491 14787 net.cpp:156] Memory required for data: 1035617568
I0403 15:52:03.443511 14787 layer_factory.hpp:77] Creating layer inception_4c/relu_3x3_reduce
I0403 15:52:03.443532 14787 net.cpp:91] Creating Layer inception_4c/relu_3x3_reduce
I0403 15:52:03.443550 14787 net.cpp:425] inception_4c/relu_3x3_reduce <- inception_4c/3x3_reduce
I0403 15:52:03.443567 14787 net.cpp:386] inception_4c/relu_3x3_reduce -> inception_4c/3x3_reduce (in-place)
I0403 15:52:03.443872 14787 net.cpp:141] Setting up inception_4c/relu_3x3_reduce
I0403 15:52:03.443898 14787 net.cpp:148] Top shape: 24 128 14 14 (602112)
I0403 15:52:03.443914 14787 net.cpp:156] Memory required for data: 1038026016
I0403 15:52:03.443929 14787 layer_factory.hpp:77] Creating layer inception_4c/3x3
I0403 15:52:03.443954 14787 net.cpp:91] Creating Layer inception_4c/3x3
I0403 15:52:03.443972 14787 net.cpp:425] inception_4c/3x3 <- inception_4c/3x3_reduce
I0403 15:52:03.443991 14787 net.cpp:399] inception_4c/3x3 -> inception_4c/3x3
I0403 15:52:03.447625 14787 net.cpp:141] Setting up inception_4c/3x3
I0403 15:52:03.447685 14787 net.cpp:148] Top shape: 24 256 14 14 (1204224)
I0403 15:52:03.447702 14787 net.cpp:156] Memory required for data: 1042842912
I0403 15:52:03.447737 14787 layer_factory.hpp:77] Creating layer inception_4c/relu_3x3
I0403 15:52:03.447759 14787 net.cpp:91] Creating Layer inception_4c/relu_3x3
I0403 15:52:03.447779 14787 net.cpp:425] inception_4c/relu_3x3 <- inception_4c/3x3
I0403 15:52:03.447796 14787 net.cpp:386] inception_4c/relu_3x3 -> inception_4c/3x3 (in-place)
I0403 15:52:03.447998 14787 net.cpp:141] Setting up inception_4c/relu_3x3
I0403 15:52:03.448025 14787 net.cpp:148] Top shape: 24 256 14 14 (1204224)
I0403 15:52:03.448042 14787 net.cpp:156] Memory required for data: 1047659808
I0403 15:52:03.448056 14787 layer_factory.hpp:77] Creating layer inception_4c/5x5_reduce
I0403 15:52:03.448079 14787 net.cpp:91] Creating Layer inception_4c/5x5_reduce
I0403 15:52:03.448097 14787 net.cpp:425] inception_4c/5x5_reduce <- inception_4b/output_inception_4b/output_0_split_2
I0403 15:52:03.448117 14787 net.cpp:399] inception_4c/5x5_reduce -> inception_4c/5x5_reduce
I0403 15:52:03.449215 14787 net.cpp:141] Setting up inception_4c/5x5_reduce
I0403 15:52:03.449246 14787 net.cpp:148] Top shape: 24 24 14 14 (112896)
I0403 15:52:03.449262 14787 net.cpp:156] Memory required for data: 1048111392
I0403 15:52:03.449280 14787 layer_factory.hpp:77] Creating layer inception_4c/relu_5x5_reduce
I0403 15:52:03.449298 14787 net.cpp:91] Creating Layer inception_4c/relu_5x5_reduce
I0403 15:52:03.449314 14787 net.cpp:425] inception_4c/relu_5x5_reduce <- inception_4c/5x5_reduce
I0403 15:52:03.449334 14787 net.cpp:386] inception_4c/relu_5x5_reduce -> inception_4c/5x5_reduce (in-place)
I0403 15:52:03.449517 14787 net.cpp:141] Setting up inception_4c/relu_5x5_reduce
I0403 15:52:03.449542 14787 net.cpp:148] Top shape: 24 24 14 14 (112896)
I0403 15:52:03.449558 14787 net.cpp:156] Memory required for data: 1048562976
I0403 15:52:03.449573 14787 layer_factory.hpp:77] Creating layer inception_4c/5x5
I0403 15:52:03.449594 14787 net.cpp:91] Creating Layer inception_4c/5x5
I0403 15:52:03.449612 14787 net.cpp:425] inception_4c/5x5 <- inception_4c/5x5_reduce
I0403 15:52:03.449633 14787 net.cpp:399] inception_4c/5x5 -> inception_4c/5x5
I0403 15:52:03.450858 14787 net.cpp:141] Setting up inception_4c/5x5
I0403 15:52:03.450886 14787 net.cpp:148] Top shape: 24 64 14 14 (301056)
I0403 15:52:03.450901 14787 net.cpp:156] Memory required for data: 1049767200
I0403 15:52:03.450919 14787 layer_factory.hpp:77] Creating layer inception_4c/relu_5x5
I0403 15:52:03.450938 14787 net.cpp:91] Creating Layer inception_4c/relu_5x5
I0403 15:52:03.450958 14787 net.cpp:425] inception_4c/relu_5x5 <- inception_4c/5x5
I0403 15:52:03.450974 14787 net.cpp:386] inception_4c/relu_5x5 -> inception_4c/5x5 (in-place)
I0403 15:52:03.451267 14787 net.cpp:141] Setting up inception_4c/relu_5x5
I0403 15:52:03.451293 14787 net.cpp:148] Top shape: 24 64 14 14 (301056)
I0403 15:52:03.451308 14787 net.cpp:156] Memory required for data: 1050971424
I0403 15:52:03.451323 14787 layer_factory.hpp:77] Creating layer inception_4c/pool
I0403 15:52:03.451340 14787 net.cpp:91] Creating Layer inception_4c/pool
I0403 15:52:03.451367 14787 net.cpp:425] inception_4c/pool <- inception_4b/output_inception_4b/output_0_split_3
I0403 15:52:03.451388 14787 net.cpp:399] inception_4c/pool -> inception_4c/pool
I0403 15:52:03.451454 14787 net.cpp:141] Setting up inception_4c/pool
I0403 15:52:03.451481 14787 net.cpp:148] Top shape: 24 512 14 14 (2408448)
I0403 15:52:03.451498 14787 net.cpp:156] Memory required for data: 1060605216
I0403 15:52:03.451514 14787 layer_factory.hpp:77] Creating layer inception_4c/pool_proj
I0403 15:52:03.451536 14787 net.cpp:91] Creating Layer inception_4c/pool_proj
I0403 15:52:03.451555 14787 net.cpp:425] inception_4c/pool_proj <- inception_4c/pool
I0403 15:52:03.451573 14787 net.cpp:399] inception_4c/pool_proj -> inception_4c/pool_proj
I0403 15:52:03.452785 14787 net.cpp:141] Setting up inception_4c/pool_proj
I0403 15:52:03.452816 14787 net.cpp:148] Top shape: 24 64 14 14 (301056)
I0403 15:52:03.452844 14787 net.cpp:156] Memory required for data: 1061809440
I0403 15:52:03.452864 14787 layer_factory.hpp:77] Creating layer inception_4c/relu_pool_proj
I0403 15:52:03.452882 14787 net.cpp:91] Creating Layer inception_4c/relu_pool_proj
I0403 15:52:03.452898 14787 net.cpp:425] inception_4c/relu_pool_proj <- inception_4c/pool_proj
I0403 15:52:03.452915 14787 net.cpp:386] inception_4c/relu_pool_proj -> inception_4c/pool_proj (in-place)
I0403 15:52:03.453099 14787 net.cpp:141] Setting up inception_4c/relu_pool_proj
I0403 15:52:03.453124 14787 net.cpp:148] Top shape: 24 64 14 14 (301056)
I0403 15:52:03.453151 14787 net.cpp:156] Memory required for data: 1063013664
I0403 15:52:03.453166 14787 layer_factory.hpp:77] Creating layer inception_4c/output
I0403 15:52:03.453184 14787 net.cpp:91] Creating Layer inception_4c/output
I0403 15:52:03.453202 14787 net.cpp:425] inception_4c/output <- inception_4c/1x1
I0403 15:52:03.453217 14787 net.cpp:425] inception_4c/output <- inception_4c/3x3
I0403 15:52:03.453233 14787 net.cpp:425] inception_4c/output <- inception_4c/5x5
I0403 15:52:03.453248 14787 net.cpp:425] inception_4c/output <- inception_4c/pool_proj
I0403 15:52:03.453265 14787 net.cpp:399] inception_4c/output -> inception_4c/output
I0403 15:52:03.453312 14787 net.cpp:141] Setting up inception_4c/output
I0403 15:52:03.453338 14787 net.cpp:148] Top shape: 24 512 14 14 (2408448)
I0403 15:52:03.453354 14787 net.cpp:156] Memory required for data: 1072647456
I0403 15:52:03.453368 14787 layer_factory.hpp:77] Creating layer inception_4c/output_inception_4c/output_0_split
I0403 15:52:03.453384 14787 net.cpp:91] Creating Layer inception_4c/output_inception_4c/output_0_split
I0403 15:52:03.453400 14787 net.cpp:425] inception_4c/output_inception_4c/output_0_split <- inception_4c/output
I0403 15:52:03.453416 14787 net.cpp:399] inception_4c/output_inception_4c/output_0_split -> inception_4c/output_inception_4c/output_0_split_0
I0403 15:52:03.453438 14787 net.cpp:399] inception_4c/output_inception_4c/output_0_split -> inception_4c/output_inception_4c/output_0_split_1
I0403 15:52:03.453460 14787 net.cpp:399] inception_4c/output_inception_4c/output_0_split -> inception_4c/output_inception_4c/output_0_split_2
I0403 15:52:03.453480 14787 net.cpp:399] inception_4c/output_inception_4c/output_0_split -> inception_4c/output_inception_4c/output_0_split_3
I0403 15:52:03.453564 14787 net.cpp:141] Setting up inception_4c/output_inception_4c/output_0_split
I0403 15:52:03.453588 14787 net.cpp:148] Top shape: 24 512 14 14 (2408448)
I0403 15:52:03.453604 14787 net.cpp:148] Top shape: 24 512 14 14 (2408448)
I0403 15:52:03.453620 14787 net.cpp:148] Top shape: 24 512 14 14 (2408448)
I0403 15:52:03.453635 14787 net.cpp:148] Top shape: 24 512 14 14 (2408448)
I0403 15:52:03.453649 14787 net.cpp:156] Memory required for data: 1111182624
I0403 15:52:03.453663 14787 layer_factory.hpp:77] Creating layer inception_4d/1x1
I0403 15:52:03.453685 14787 net.cpp:91] Creating Layer inception_4d/1x1
I0403 15:52:03.453702 14787 net.cpp:425] inception_4d/1x1 <- inception_4c/output_inception_4c/output_0_split_0
I0403 15:52:03.453723 14787 net.cpp:399] inception_4d/1x1 -> inception_4d/1x1
I0403 15:52:03.455080 14787 net.cpp:141] Setting up inception_4d/1x1
I0403 15:52:03.455108 14787 net.cpp:148] Top shape: 24 112 14 14 (526848)
I0403 15:52:03.455123 14787 net.cpp:156] Memory required for data: 1113290016
I0403 15:52:03.455147 14787 layer_factory.hpp:77] Creating layer inception_4d/relu_1x1
I0403 15:52:03.455168 14787 net.cpp:91] Creating Layer inception_4d/relu_1x1
I0403 15:52:03.455184 14787 net.cpp:425] inception_4d/relu_1x1 <- inception_4d/1x1
I0403 15:52:03.455204 14787 net.cpp:386] inception_4d/relu_1x1 -> inception_4d/1x1 (in-place)
I0403 15:52:03.455400 14787 net.cpp:141] Setting up inception_4d/relu_1x1
I0403 15:52:03.455430 14787 net.cpp:148] Top shape: 24 112 14 14 (526848)
I0403 15:52:03.455446 14787 net.cpp:156] Memory required for data: 1115397408
I0403 15:52:03.455461 14787 layer_factory.hpp:77] Creating layer inception_4d/3x3_reduce
I0403 15:52:03.455497 14787 net.cpp:91] Creating Layer inception_4d/3x3_reduce
I0403 15:52:03.455518 14787 net.cpp:425] inception_4d/3x3_reduce <- inception_4c/output_inception_4c/output_0_split_1
I0403 15:52:03.455536 14787 net.cpp:399] inception_4d/3x3_reduce -> inception_4d/3x3_reduce
I0403 15:52:03.457026 14787 net.cpp:141] Setting up inception_4d/3x3_reduce
I0403 15:52:03.457054 14787 net.cpp:148] Top shape: 24 144 14 14 (677376)
I0403 15:52:03.457070 14787 net.cpp:156] Memory required for data: 1118106912
I0403 15:52:03.457089 14787 layer_factory.hpp:77] Creating layer inception_4d/relu_3x3_reduce
I0403 15:52:03.457106 14787 net.cpp:91] Creating Layer inception_4d/relu_3x3_reduce
I0403 15:52:03.457123 14787 net.cpp:425] inception_4d/relu_3x3_reduce <- inception_4d/3x3_reduce
I0403 15:52:03.457147 14787 net.cpp:386] inception_4d/relu_3x3_reduce -> inception_4d/3x3_reduce (in-place)
I0403 15:52:03.457429 14787 net.cpp:141] Setting up inception_4d/relu_3x3_reduce
I0403 15:52:03.457456 14787 net.cpp:148] Top shape: 24 144 14 14 (677376)
I0403 15:52:03.457470 14787 net.cpp:156] Memory required for data: 1120816416
I0403 15:52:03.457485 14787 layer_factory.hpp:77] Creating layer inception_4d/3x3
I0403 15:52:03.457506 14787 net.cpp:91] Creating Layer inception_4d/3x3
I0403 15:52:03.457525 14787 net.cpp:425] inception_4d/3x3 <- inception_4d/3x3_reduce
I0403 15:52:03.457545 14787 net.cpp:399] inception_4d/3x3 -> inception_4d/3x3
I0403 15:52:03.461714 14787 net.cpp:141] Setting up inception_4d/3x3
I0403 15:52:03.461743 14787 net.cpp:148] Top shape: 24 288 14 14 (1354752)
I0403 15:52:03.461758 14787 net.cpp:156] Memory required for data: 1126235424
I0403 15:52:03.461776 14787 layer_factory.hpp:77] Creating layer inception_4d/relu_3x3
I0403 15:52:03.461796 14787 net.cpp:91] Creating Layer inception_4d/relu_3x3
I0403 15:52:03.461812 14787 net.cpp:425] inception_4d/relu_3x3 <- inception_4d/3x3
I0403 15:52:03.461827 14787 net.cpp:386] inception_4d/relu_3x3 -> inception_4d/3x3 (in-place)
I0403 15:52:03.462007 14787 net.cpp:141] Setting up inception_4d/relu_3x3
I0403 15:52:03.462034 14787 net.cpp:148] Top shape: 24 288 14 14 (1354752)
I0403 15:52:03.462049 14787 net.cpp:156] Memory required for data: 1131654432
I0403 15:52:03.462065 14787 layer_factory.hpp:77] Creating layer inception_4d/5x5_reduce
I0403 15:52:03.462086 14787 net.cpp:91] Creating Layer inception_4d/5x5_reduce
I0403 15:52:03.462103 14787 net.cpp:425] inception_4d/5x5_reduce <- inception_4c/output_inception_4c/output_0_split_2
I0403 15:52:03.462121 14787 net.cpp:399] inception_4d/5x5_reduce -> inception_4d/5x5_reduce
I0403 15:52:03.463258 14787 net.cpp:141] Setting up inception_4d/5x5_reduce
I0403 15:52:03.463286 14787 net.cpp:148] Top shape: 24 32 14 14 (150528)
I0403 15:52:03.463302 14787 net.cpp:156] Memory required for data: 1132256544
I0403 15:52:03.463321 14787 layer_factory.hpp:77] Creating layer inception_4d/relu_5x5_reduce
I0403 15:52:03.463340 14787 net.cpp:91] Creating Layer inception_4d/relu_5x5_reduce
I0403 15:52:03.463368 14787 net.cpp:425] inception_4d/relu_5x5_reduce <- inception_4d/5x5_reduce
I0403 15:52:03.463387 14787 net.cpp:386] inception_4d/relu_5x5_reduce -> inception_4d/5x5_reduce (in-place)
I0403 15:52:03.463575 14787 net.cpp:141] Setting up inception_4d/relu_5x5_reduce
I0403 15:52:03.463604 14787 net.cpp:148] Top shape: 24 32 14 14 (150528)
I0403 15:52:03.463620 14787 net.cpp:156] Memory required for data: 1132858656
I0403 15:52:03.463647 14787 layer_factory.hpp:77] Creating layer inception_4d/5x5
I0403 15:52:03.463670 14787 net.cpp:91] Creating Layer inception_4d/5x5
I0403 15:52:03.463686 14787 net.cpp:425] inception_4d/5x5 <- inception_4d/5x5_reduce
I0403 15:52:03.463704 14787 net.cpp:399] inception_4d/5x5 -> inception_4d/5x5
I0403 15:52:03.465165 14787 net.cpp:141] Setting up inception_4d/5x5
I0403 15:52:03.465195 14787 net.cpp:148] Top shape: 24 64 14 14 (301056)
I0403 15:52:03.465211 14787 net.cpp:156] Memory required for data: 1134062880
I0403 15:52:03.465229 14787 layer_factory.hpp:77] Creating layer inception_4d/relu_5x5
I0403 15:52:03.465263 14787 net.cpp:91] Creating Layer inception_4d/relu_5x5
I0403 15:52:03.465281 14787 net.cpp:425] inception_4d/relu_5x5 <- inception_4d/5x5
I0403 15:52:03.465301 14787 net.cpp:386] inception_4d/relu_5x5 -> inception_4d/5x5 (in-place)
I0403 15:52:03.465597 14787 net.cpp:141] Setting up inception_4d/relu_5x5
I0403 15:52:03.465626 14787 net.cpp:148] Top shape: 24 64 14 14 (301056)
I0403 15:52:03.465641 14787 net.cpp:156] Memory required for data: 1135267104
I0403 15:52:03.465656 14787 layer_factory.hpp:77] Creating layer inception_4d/pool
I0403 15:52:03.465673 14787 net.cpp:91] Creating Layer inception_4d/pool
I0403 15:52:03.465688 14787 net.cpp:425] inception_4d/pool <- inception_4c/output_inception_4c/output_0_split_3
I0403 15:52:03.465708 14787 net.cpp:399] inception_4d/pool -> inception_4d/pool
I0403 15:52:03.465775 14787 net.cpp:141] Setting up inception_4d/pool
I0403 15:52:03.465802 14787 net.cpp:148] Top shape: 24 512 14 14 (2408448)
I0403 15:52:03.465818 14787 net.cpp:156] Memory required for data: 1144900896
I0403 15:52:03.465833 14787 layer_factory.hpp:77] Creating layer inception_4d/pool_proj
I0403 15:52:03.465852 14787 net.cpp:91] Creating Layer inception_4d/pool_proj
I0403 15:52:03.465868 14787 net.cpp:425] inception_4d/pool_proj <- inception_4d/pool
I0403 15:52:03.465889 14787 net.cpp:399] inception_4d/pool_proj -> inception_4d/pool_proj
I0403 15:52:03.467655 14787 net.cpp:141] Setting up inception_4d/pool_proj
I0403 15:52:03.467684 14787 net.cpp:148] Top shape: 24 64 14 14 (301056)
I0403 15:52:03.467700 14787 net.cpp:156] Memory required for data: 1146105120
I0403 15:52:03.467717 14787 layer_factory.hpp:77] Creating layer inception_4d/relu_pool_proj
I0403 15:52:03.467741 14787 net.cpp:91] Creating Layer inception_4d/relu_pool_proj
I0403 15:52:03.467761 14787 net.cpp:425] inception_4d/relu_pool_proj <- inception_4d/pool_proj
I0403 15:52:03.467777 14787 net.cpp:386] inception_4d/relu_pool_proj -> inception_4d/pool_proj (in-place)
I0403 15:52:03.467957 14787 net.cpp:141] Setting up inception_4d/relu_pool_proj
I0403 15:52:03.467984 14787 net.cpp:148] Top shape: 24 64 14 14 (301056)
I0403 15:52:03.468001 14787 net.cpp:156] Memory required for data: 1147309344
I0403 15:52:03.468015 14787 layer_factory.hpp:77] Creating layer inception_4d/output
I0403 15:52:03.468032 14787 net.cpp:91] Creating Layer inception_4d/output
I0403 15:52:03.468047 14787 net.cpp:425] inception_4d/output <- inception_4d/1x1
I0403 15:52:03.468063 14787 net.cpp:425] inception_4d/output <- inception_4d/3x3
I0403 15:52:03.468080 14787 net.cpp:425] inception_4d/output <- inception_4d/5x5
I0403 15:52:03.468096 14787 net.cpp:425] inception_4d/output <- inception_4d/pool_proj
I0403 15:52:03.468111 14787 net.cpp:399] inception_4d/output -> inception_4d/output
I0403 15:52:03.468163 14787 net.cpp:141] Setting up inception_4d/output
I0403 15:52:03.468189 14787 net.cpp:148] Top shape: 24 528 14 14 (2483712)
I0403 15:52:03.468204 14787 net.cpp:156] Memory required for data: 1157244192
I0403 15:52:03.468219 14787 layer_factory.hpp:77] Creating layer inception_4d/output_inception_4d/output_0_split
I0403 15:52:03.468238 14787 net.cpp:91] Creating Layer inception_4d/output_inception_4d/output_0_split
I0403 15:52:03.468256 14787 net.cpp:425] inception_4d/output_inception_4d/output_0_split <- inception_4d/output
I0403 15:52:03.468272 14787 net.cpp:399] inception_4d/output_inception_4d/output_0_split -> inception_4d/output_inception_4d/output_0_split_0
I0403 15:52:03.468292 14787 net.cpp:399] inception_4d/output_inception_4d/output_0_split -> inception_4d/output_inception_4d/output_0_split_1
I0403 15:52:03.468313 14787 net.cpp:399] inception_4d/output_inception_4d/output_0_split -> inception_4d/output_inception_4d/output_0_split_2
I0403 15:52:03.468335 14787 net.cpp:399] inception_4d/output_inception_4d/output_0_split -> inception_4d/output_inception_4d/output_0_split_3
I0403 15:52:03.468355 14787 net.cpp:399] inception_4d/output_inception_4d/output_0_split -> inception_4d/output_inception_4d/output_0_split_4
I0403 15:52:03.468458 14787 net.cpp:141] Setting up inception_4d/output_inception_4d/output_0_split
I0403 15:52:03.468494 14787 net.cpp:148] Top shape: 24 528 14 14 (2483712)
I0403 15:52:03.468511 14787 net.cpp:148] Top shape: 24 528 14 14 (2483712)
I0403 15:52:03.468528 14787 net.cpp:148] Top shape: 24 528 14 14 (2483712)
I0403 15:52:03.468543 14787 net.cpp:148] Top shape: 24 528 14 14 (2483712)
I0403 15:52:03.468557 14787 net.cpp:148] Top shape: 24 528 14 14 (2483712)
I0403 15:52:03.468571 14787 net.cpp:156] Memory required for data: 1206918432
I0403 15:52:03.468585 14787 layer_factory.hpp:77] Creating layer loss2/ave_pool
I0403 15:52:03.468605 14787 net.cpp:91] Creating Layer loss2/ave_pool
I0403 15:52:03.468622 14787 net.cpp:425] loss2/ave_pool <- inception_4d/output_inception_4d/output_0_split_0
I0403 15:52:03.468641 14787 net.cpp:399] loss2/ave_pool -> loss2/ave_pool
I0403 15:52:03.468948 14787 net.cpp:141] Setting up loss2/ave_pool
I0403 15:52:03.468976 14787 net.cpp:148] Top shape: 24 528 4 4 (202752)
I0403 15:52:03.468991 14787 net.cpp:156] Memory required for data: 1207729440
I0403 15:52:03.469005 14787 layer_factory.hpp:77] Creating layer loss2/conv
I0403 15:52:03.469027 14787 net.cpp:91] Creating Layer loss2/conv
I0403 15:52:03.469045 14787 net.cpp:425] loss2/conv <- loss2/ave_pool
I0403 15:52:03.469066 14787 net.cpp:399] loss2/conv -> loss2/conv
I0403 15:52:03.471009 14787 net.cpp:141] Setting up loss2/conv
I0403 15:52:03.471037 14787 net.cpp:148] Top shape: 24 128 4 4 (49152)
I0403 15:52:03.471053 14787 net.cpp:156] Memory required for data: 1207926048
I0403 15:52:03.471072 14787 layer_factory.hpp:77] Creating layer loss2/relu_conv
I0403 15:52:03.471091 14787 net.cpp:91] Creating Layer loss2/relu_conv
I0403 15:52:03.471107 14787 net.cpp:425] loss2/relu_conv <- loss2/conv
I0403 15:52:03.471132 14787 net.cpp:386] loss2/relu_conv -> loss2/conv (in-place)
I0403 15:52:03.471436 14787 net.cpp:141] Setting up loss2/relu_conv
I0403 15:52:03.471464 14787 net.cpp:148] Top shape: 24 128 4 4 (49152)
I0403 15:52:03.471480 14787 net.cpp:156] Memory required for data: 1208122656
I0403 15:52:03.471496 14787 layer_factory.hpp:77] Creating layer loss2/fc
I0403 15:52:03.471514 14787 net.cpp:91] Creating Layer loss2/fc
I0403 15:52:03.471530 14787 net.cpp:425] loss2/fc <- loss2/conv
I0403 15:52:03.471552 14787 net.cpp:399] loss2/fc -> loss2/fc
I0403 15:52:03.490393 14787 net.cpp:141] Setting up loss2/fc
I0403 15:52:03.490445 14787 net.cpp:148] Top shape: 24 1024 (24576)
I0403 15:52:03.490466 14787 net.cpp:156] Memory required for data: 1208220960
I0403 15:52:03.490485 14787 layer_factory.hpp:77] Creating layer loss2/relu_fc
I0403 15:52:03.490504 14787 net.cpp:91] Creating Layer loss2/relu_fc
I0403 15:52:03.490520 14787 net.cpp:425] loss2/relu_fc <- loss2/fc
I0403 15:52:03.490537 14787 net.cpp:386] loss2/relu_fc -> loss2/fc (in-place)
I0403 15:52:03.490840 14787 net.cpp:141] Setting up loss2/relu_fc
I0403 15:52:03.490869 14787 net.cpp:148] Top shape: 24 1024 (24576)
I0403 15:52:03.490885 14787 net.cpp:156] Memory required for data: 1208319264
I0403 15:52:03.490900 14787 layer_factory.hpp:77] Creating layer loss2/drop_fc
I0403 15:52:03.490916 14787 net.cpp:91] Creating Layer loss2/drop_fc
I0403 15:52:03.490933 14787 net.cpp:425] loss2/drop_fc <- loss2/fc
I0403 15:52:03.490950 14787 net.cpp:386] loss2/drop_fc -> loss2/fc (in-place)
I0403 15:52:03.490999 14787 net.cpp:141] Setting up loss2/drop_fc
I0403 15:52:03.491022 14787 net.cpp:148] Top shape: 24 1024 (24576)
I0403 15:52:03.491037 14787 net.cpp:156] Memory required for data: 1208417568
I0403 15:52:03.491051 14787 layer_factory.hpp:77] Creating layer loss2/classifier_plantvillage
I0403 15:52:03.491071 14787 net.cpp:91] Creating Layer loss2/classifier_plantvillage
I0403 15:52:03.491088 14787 net.cpp:425] loss2/classifier_plantvillage <- loss2/fc
I0403 15:52:03.491107 14787 net.cpp:399] loss2/classifier_plantvillage -> loss2/classifier_plantvillage
I0403 15:52:03.491556 14787 net.cpp:141] Setting up loss2/classifier_plantvillage
I0403 15:52:03.491582 14787 net.cpp:148] Top shape: 24 38 (912)
I0403 15:52:03.491597 14787 net.cpp:156] Memory required for data: 1208421216
I0403 15:52:03.491633 14787 layer_factory.hpp:77] Creating layer loss2/classifier_plantvillage_loss2/classifier_plantvillage_0_split
I0403 15:52:03.491664 14787 net.cpp:91] Creating Layer loss2/classifier_plantvillage_loss2/classifier_plantvillage_0_split
I0403 15:52:03.491682 14787 net.cpp:425] loss2/classifier_plantvillage_loss2/classifier_plantvillage_0_split <- loss2/classifier_plantvillage
I0403 15:52:03.491701 14787 net.cpp:399] loss2/classifier_plantvillage_loss2/classifier_plantvillage_0_split -> loss2/classifier_plantvillage_loss2/classifier_plantvillage_0_split_0
I0403 15:52:03.491722 14787 net.cpp:399] loss2/classifier_plantvillage_loss2/classifier_plantvillage_0_split -> loss2/classifier_plantvillage_loss2/classifier_plantvillage_0_split_1
I0403 15:52:03.491753 14787 net.cpp:399] loss2/classifier_plantvillage_loss2/classifier_plantvillage_0_split -> loss2/classifier_plantvillage_loss2/classifier_plantvillage_0_split_2
I0403 15:52:03.491832 14787 net.cpp:141] Setting up loss2/classifier_plantvillage_loss2/classifier_plantvillage_0_split
I0403 15:52:03.491858 14787 net.cpp:148] Top shape: 24 38 (912)
I0403 15:52:03.491874 14787 net.cpp:148] Top shape: 24 38 (912)
I0403 15:52:03.491891 14787 net.cpp:148] Top shape: 24 38 (912)
I0403 15:52:03.491904 14787 net.cpp:156] Memory required for data: 1208432160
I0403 15:52:03.491919 14787 layer_factory.hpp:77] Creating layer inception_4e/1x1
I0403 15:52:03.491940 14787 net.cpp:91] Creating Layer inception_4e/1x1
I0403 15:52:03.491957 14787 net.cpp:425] inception_4e/1x1 <- inception_4d/output_inception_4d/output_0_split_1
I0403 15:52:03.491977 14787 net.cpp:399] inception_4e/1x1 -> inception_4e/1x1
I0403 15:52:03.493854 14787 net.cpp:141] Setting up inception_4e/1x1
I0403 15:52:03.493881 14787 net.cpp:148] Top shape: 24 256 14 14 (1204224)
I0403 15:52:03.493896 14787 net.cpp:156] Memory required for data: 1213249056
I0403 15:52:03.493916 14787 layer_factory.hpp:77] Creating layer inception_4e/relu_1x1
I0403 15:52:03.493933 14787 net.cpp:91] Creating Layer inception_4e/relu_1x1
I0403 15:52:03.493948 14787 net.cpp:425] inception_4e/relu_1x1 <- inception_4e/1x1
I0403 15:52:03.493968 14787 net.cpp:386] inception_4e/relu_1x1 -> inception_4e/1x1 (in-place)
I0403 15:52:03.494282 14787 net.cpp:141] Setting up inception_4e/relu_1x1
I0403 15:52:03.494310 14787 net.cpp:148] Top shape: 24 256 14 14 (1204224)
I0403 15:52:03.494326 14787 net.cpp:156] Memory required for data: 1218065952
I0403 15:52:03.494341 14787 layer_factory.hpp:77] Creating layer inception_4e/3x3_reduce
I0403 15:52:03.494364 14787 net.cpp:91] Creating Layer inception_4e/3x3_reduce
I0403 15:52:03.494382 14787 net.cpp:425] inception_4e/3x3_reduce <- inception_4d/output_inception_4d/output_0_split_2
I0403 15:52:03.494403 14787 net.cpp:399] inception_4e/3x3_reduce -> inception_4e/3x3_reduce
I0403 15:52:03.496624 14787 net.cpp:141] Setting up inception_4e/3x3_reduce
I0403 15:52:03.496654 14787 net.cpp:148] Top shape: 24 160 14 14 (752640)
I0403 15:52:03.496672 14787 net.cpp:156] Memory required for data: 1221076512
I0403 15:52:03.496690 14787 layer_factory.hpp:77] Creating layer inception_4e/relu_3x3_reduce
I0403 15:52:03.496707 14787 net.cpp:91] Creating Layer inception_4e/relu_3x3_reduce
I0403 15:52:03.496723 14787 net.cpp:425] inception_4e/relu_3x3_reduce <- inception_4e/3x3_reduce
I0403 15:52:03.496748 14787 net.cpp:386] inception_4e/relu_3x3_reduce -> inception_4e/3x3_reduce (in-place)
I0403 15:52:03.496932 14787 net.cpp:141] Setting up inception_4e/relu_3x3_reduce
I0403 15:52:03.496956 14787 net.cpp:148] Top shape: 24 160 14 14 (752640)
I0403 15:52:03.496970 14787 net.cpp:156] Memory required for data: 1224087072
I0403 15:52:03.496985 14787 layer_factory.hpp:77] Creating layer inception_4e/3x3
I0403 15:52:03.497006 14787 net.cpp:91] Creating Layer inception_4e/3x3
I0403 15:52:03.497025 14787 net.cpp:425] inception_4e/3x3 <- inception_4e/3x3_reduce
I0403 15:52:03.497045 14787 net.cpp:399] inception_4e/3x3 -> inception_4e/3x3
I0403 15:52:03.502004 14787 net.cpp:141] Setting up inception_4e/3x3
I0403 15:52:03.502046 14787 net.cpp:148] Top shape: 24 320 14 14 (1505280)
I0403 15:52:03.502063 14787 net.cpp:156] Memory required for data: 1230108192
I0403 15:52:03.502082 14787 layer_factory.hpp:77] Creating layer inception_4e/relu_3x3
I0403 15:52:03.502104 14787 net.cpp:91] Creating Layer inception_4e/relu_3x3
I0403 15:52:03.502120 14787 net.cpp:425] inception_4e/relu_3x3 <- inception_4e/3x3
I0403 15:52:03.502145 14787 net.cpp:386] inception_4e/relu_3x3 -> inception_4e/3x3 (in-place)
I0403 15:52:03.502447 14787 net.cpp:141] Setting up inception_4e/relu_3x3
I0403 15:52:03.502475 14787 net.cpp:148] Top shape: 24 320 14 14 (1505280)
I0403 15:52:03.502488 14787 net.cpp:156] Memory required for data: 1236129312
I0403 15:52:03.502502 14787 layer_factory.hpp:77] Creating layer inception_4e/5x5_reduce
I0403 15:52:03.502524 14787 net.cpp:91] Creating Layer inception_4e/5x5_reduce
I0403 15:52:03.502542 14787 net.cpp:425] inception_4e/5x5_reduce <- inception_4d/output_inception_4d/output_0_split_3
I0403 15:52:03.502563 14787 net.cpp:399] inception_4e/5x5_reduce -> inception_4e/5x5_reduce
I0403 15:52:03.503653 14787 net.cpp:141] Setting up inception_4e/5x5_reduce
I0403 15:52:03.503682 14787 net.cpp:148] Top shape: 24 32 14 14 (150528)
I0403 15:52:03.503698 14787 net.cpp:156] Memory required for data: 1236731424
I0403 15:52:03.503716 14787 layer_factory.hpp:77] Creating layer inception_4e/relu_5x5_reduce
I0403 15:52:03.503734 14787 net.cpp:91] Creating Layer inception_4e/relu_5x5_reduce
I0403 15:52:03.503751 14787 net.cpp:425] inception_4e/relu_5x5_reduce <- inception_4e/5x5_reduce
I0403 15:52:03.503772 14787 net.cpp:386] inception_4e/relu_5x5_reduce -> inception_4e/5x5_reduce (in-place)
I0403 15:52:03.504063 14787 net.cpp:141] Setting up inception_4e/relu_5x5_reduce
I0403 15:52:03.504103 14787 net.cpp:148] Top shape: 24 32 14 14 (150528)
I0403 15:52:03.504120 14787 net.cpp:156] Memory required for data: 1237333536
I0403 15:52:03.504140 14787 layer_factory.hpp:77] Creating layer inception_4e/5x5
I0403 15:52:03.504181 14787 net.cpp:91] Creating Layer inception_4e/5x5
I0403 15:52:03.504201 14787 net.cpp:425] inception_4e/5x5 <- inception_4e/5x5_reduce
I0403 15:52:03.504220 14787 net.cpp:399] inception_4e/5x5 -> inception_4e/5x5
I0403 15:52:03.506026 14787 net.cpp:141] Setting up inception_4e/5x5
I0403 15:52:03.506054 14787 net.cpp:148] Top shape: 24 128 14 14 (602112)
I0403 15:52:03.506070 14787 net.cpp:156] Memory required for data: 1239741984
I0403 15:52:03.506089 14787 layer_factory.hpp:77] Creating layer inception_4e/relu_5x5
I0403 15:52:03.506109 14787 net.cpp:91] Creating Layer inception_4e/relu_5x5
I0403 15:52:03.506131 14787 net.cpp:425] inception_4e/relu_5x5 <- inception_4e/5x5
I0403 15:52:03.506150 14787 net.cpp:386] inception_4e/relu_5x5 -> inception_4e/5x5 (in-place)
I0403 15:52:03.506343 14787 net.cpp:141] Setting up inception_4e/relu_5x5
I0403 15:52:03.506369 14787 net.cpp:148] Top shape: 24 128 14 14 (602112)
I0403 15:52:03.506383 14787 net.cpp:156] Memory required for data: 1242150432
I0403 15:52:03.506397 14787 layer_factory.hpp:77] Creating layer inception_4e/pool
I0403 15:52:03.506415 14787 net.cpp:91] Creating Layer inception_4e/pool
I0403 15:52:03.506431 14787 net.cpp:425] inception_4e/pool <- inception_4d/output_inception_4d/output_0_split_4
I0403 15:52:03.506453 14787 net.cpp:399] inception_4e/pool -> inception_4e/pool
I0403 15:52:03.506521 14787 net.cpp:141] Setting up inception_4e/pool
I0403 15:52:03.506546 14787 net.cpp:148] Top shape: 24 528 14 14 (2483712)
I0403 15:52:03.506559 14787 net.cpp:156] Memory required for data: 1252085280
I0403 15:52:03.506573 14787 layer_factory.hpp:77] Creating layer inception_4e/pool_proj
I0403 15:52:03.506597 14787 net.cpp:91] Creating Layer inception_4e/pool_proj
I0403 15:52:03.506615 14787 net.cpp:425] inception_4e/pool_proj <- inception_4e/pool
I0403 15:52:03.506633 14787 net.cpp:399] inception_4e/pool_proj -> inception_4e/pool_proj
I0403 15:52:03.508132 14787 net.cpp:141] Setting up inception_4e/pool_proj
I0403 15:52:03.508159 14787 net.cpp:148] Top shape: 24 128 14 14 (602112)
I0403 15:52:03.508189 14787 net.cpp:156] Memory required for data: 1254493728
I0403 15:52:03.508208 14787 layer_factory.hpp:77] Creating layer inception_4e/relu_pool_proj
I0403 15:52:03.508229 14787 net.cpp:91] Creating Layer inception_4e/relu_pool_proj
I0403 15:52:03.508247 14787 net.cpp:425] inception_4e/relu_pool_proj <- inception_4e/pool_proj
I0403 15:52:03.508265 14787 net.cpp:386] inception_4e/relu_pool_proj -> inception_4e/pool_proj (in-place)
I0403 15:52:03.508556 14787 net.cpp:141] Setting up inception_4e/relu_pool_proj
I0403 15:52:03.508584 14787 net.cpp:148] Top shape: 24 128 14 14 (602112)
I0403 15:52:03.508599 14787 net.cpp:156] Memory required for data: 1256902176
I0403 15:52:03.508612 14787 layer_factory.hpp:77] Creating layer inception_4e/output
I0403 15:52:03.508630 14787 net.cpp:91] Creating Layer inception_4e/output
I0403 15:52:03.508646 14787 net.cpp:425] inception_4e/output <- inception_4e/1x1
I0403 15:52:03.508663 14787 net.cpp:425] inception_4e/output <- inception_4e/3x3
I0403 15:52:03.508678 14787 net.cpp:425] inception_4e/output <- inception_4e/5x5
I0403 15:52:03.508694 14787 net.cpp:425] inception_4e/output <- inception_4e/pool_proj
I0403 15:52:03.508710 14787 net.cpp:399] inception_4e/output -> inception_4e/output
I0403 15:52:03.508761 14787 net.cpp:141] Setting up inception_4e/output
I0403 15:52:03.508785 14787 net.cpp:148] Top shape: 24 832 14 14 (3913728)
I0403 15:52:03.508800 14787 net.cpp:156] Memory required for data: 1272557088
I0403 15:52:03.508812 14787 layer_factory.hpp:77] Creating layer pool4/3x3_s2
I0403 15:52:03.508829 14787 net.cpp:91] Creating Layer pool4/3x3_s2
I0403 15:52:03.508846 14787 net.cpp:425] pool4/3x3_s2 <- inception_4e/output
I0403 15:52:03.508865 14787 net.cpp:399] pool4/3x3_s2 -> pool4/3x3_s2
I0403 15:52:03.508932 14787 net.cpp:141] Setting up pool4/3x3_s2
I0403 15:52:03.508956 14787 net.cpp:148] Top shape: 24 832 7 7 (978432)
I0403 15:52:03.508970 14787 net.cpp:156] Memory required for data: 1276470816
I0403 15:52:03.508983 14787 layer_factory.hpp:77] Creating layer pool4/3x3_s2_pool4/3x3_s2_0_split
I0403 15:52:03.509003 14787 net.cpp:91] Creating Layer pool4/3x3_s2_pool4/3x3_s2_0_split
I0403 15:52:03.509021 14787 net.cpp:425] pool4/3x3_s2_pool4/3x3_s2_0_split <- pool4/3x3_s2
I0403 15:52:03.509039 14787 net.cpp:399] pool4/3x3_s2_pool4/3x3_s2_0_split -> pool4/3x3_s2_pool4/3x3_s2_0_split_0
I0403 15:52:03.509059 14787 net.cpp:399] pool4/3x3_s2_pool4/3x3_s2_0_split -> pool4/3x3_s2_pool4/3x3_s2_0_split_1
I0403 15:52:03.509078 14787 net.cpp:399] pool4/3x3_s2_pool4/3x3_s2_0_split -> pool4/3x3_s2_pool4/3x3_s2_0_split_2
I0403 15:52:03.509096 14787 net.cpp:399] pool4/3x3_s2_pool4/3x3_s2_0_split -> pool4/3x3_s2_pool4/3x3_s2_0_split_3
I0403 15:52:03.509189 14787 net.cpp:141] Setting up pool4/3x3_s2_pool4/3x3_s2_0_split
I0403 15:52:03.509215 14787 net.cpp:148] Top shape: 24 832 7 7 (978432)
I0403 15:52:03.509232 14787 net.cpp:148] Top shape: 24 832 7 7 (978432)
I0403 15:52:03.509248 14787 net.cpp:148] Top shape: 24 832 7 7 (978432)
I0403 15:52:03.509266 14787 net.cpp:148] Top shape: 24 832 7 7 (978432)
I0403 15:52:03.509280 14787 net.cpp:156] Memory required for data: 1292125728
I0403 15:52:03.509294 14787 layer_factory.hpp:77] Creating layer inception_5a/1x1
I0403 15:52:03.509315 14787 net.cpp:91] Creating Layer inception_5a/1x1
I0403 15:52:03.509331 14787 net.cpp:425] inception_5a/1x1 <- pool4/3x3_s2_pool4/3x3_s2_0_split_0
I0403 15:52:03.509352 14787 net.cpp:399] inception_5a/1x1 -> inception_5a/1x1
I0403 15:52:03.512176 14787 net.cpp:141] Setting up inception_5a/1x1
I0403 15:52:03.512207 14787 net.cpp:148] Top shape: 24 256 7 7 (301056)
I0403 15:52:03.512224 14787 net.cpp:156] Memory required for data: 1293329952
I0403 15:52:03.512243 14787 layer_factory.hpp:77] Creating layer inception_5a/relu_1x1
I0403 15:52:03.512260 14787 net.cpp:91] Creating Layer inception_5a/relu_1x1
I0403 15:52:03.512275 14787 net.cpp:425] inception_5a/relu_1x1 <- inception_5a/1x1
I0403 15:52:03.512292 14787 net.cpp:386] inception_5a/relu_1x1 -> inception_5a/1x1 (in-place)
I0403 15:52:03.512606 14787 net.cpp:141] Setting up inception_5a/relu_1x1
I0403 15:52:03.512635 14787 net.cpp:148] Top shape: 24 256 7 7 (301056)
I0403 15:52:03.512650 14787 net.cpp:156] Memory required for data: 1294534176
I0403 15:52:03.512666 14787 layer_factory.hpp:77] Creating layer inception_5a/3x3_reduce
I0403 15:52:03.512687 14787 net.cpp:91] Creating Layer inception_5a/3x3_reduce
I0403 15:52:03.512706 14787 net.cpp:425] inception_5a/3x3_reduce <- pool4/3x3_s2_pool4/3x3_s2_0_split_1
I0403 15:52:03.512724 14787 net.cpp:399] inception_5a/3x3_reduce -> inception_5a/3x3_reduce
I0403 15:52:03.515131 14787 net.cpp:141] Setting up inception_5a/3x3_reduce
I0403 15:52:03.515161 14787 net.cpp:148] Top shape: 24 160 7 7 (188160)
I0403 15:52:03.515175 14787 net.cpp:156] Memory required for data: 1295286816
I0403 15:52:03.515194 14787 layer_factory.hpp:77] Creating layer inception_5a/relu_3x3_reduce
I0403 15:52:03.515214 14787 net.cpp:91] Creating Layer inception_5a/relu_3x3_reduce
I0403 15:52:03.515233 14787 net.cpp:425] inception_5a/relu_3x3_reduce <- inception_5a/3x3_reduce
I0403 15:52:03.515249 14787 net.cpp:386] inception_5a/relu_3x3_reduce -> inception_5a/3x3_reduce (in-place)
I0403 15:52:03.515449 14787 net.cpp:141] Setting up inception_5a/relu_3x3_reduce
I0403 15:52:03.515477 14787 net.cpp:148] Top shape: 24 160 7 7 (188160)
I0403 15:52:03.515492 14787 net.cpp:156] Memory required for data: 1296039456
I0403 15:52:03.515508 14787 layer_factory.hpp:77] Creating layer inception_5a/3x3
I0403 15:52:03.515532 14787 net.cpp:91] Creating Layer inception_5a/3x3
I0403 15:52:03.515550 14787 net.cpp:425] inception_5a/3x3 <- inception_5a/3x3_reduce
I0403 15:52:03.515569 14787 net.cpp:399] inception_5a/3x3 -> inception_5a/3x3
I0403 15:52:03.520514 14787 net.cpp:141] Setting up inception_5a/3x3
I0403 15:52:03.520545 14787 net.cpp:148] Top shape: 24 320 7 7 (376320)
I0403 15:52:03.520560 14787 net.cpp:156] Memory required for data: 1297544736
I0403 15:52:03.520579 14787 layer_factory.hpp:77] Creating layer inception_5a/relu_3x3
I0403 15:52:03.520598 14787 net.cpp:91] Creating Layer inception_5a/relu_3x3
I0403 15:52:03.520615 14787 net.cpp:425] inception_5a/relu_3x3 <- inception_5a/3x3
I0403 15:52:03.520632 14787 net.cpp:386] inception_5a/relu_3x3 -> inception_5a/3x3 (in-place)
I0403 15:52:03.520923 14787 net.cpp:141] Setting up inception_5a/relu_3x3
I0403 15:52:03.520951 14787 net.cpp:148] Top shape: 24 320 7 7 (376320)
I0403 15:52:03.520966 14787 net.cpp:156] Memory required for data: 1299050016
I0403 15:52:03.520980 14787 layer_factory.hpp:77] Creating layer inception_5a/5x5_reduce
I0403 15:52:03.521004 14787 net.cpp:91] Creating Layer inception_5a/5x5_reduce
I0403 15:52:03.521023 14787 net.cpp:425] inception_5a/5x5_reduce <- pool4/3x3_s2_pool4/3x3_s2_0_split_2
I0403 15:52:03.521042 14787 net.cpp:399] inception_5a/5x5_reduce -> inception_5a/5x5_reduce
I0403 15:52:03.522202 14787 net.cpp:141] Setting up inception_5a/5x5_reduce
I0403 15:52:03.522235 14787 net.cpp:148] Top shape: 24 32 7 7 (37632)
I0403 15:52:03.522253 14787 net.cpp:156] Memory required for data: 1299200544
I0403 15:52:03.522271 14787 layer_factory.hpp:77] Creating layer inception_5a/relu_5x5_reduce
I0403 15:52:03.522289 14787 net.cpp:91] Creating Layer inception_5a/relu_5x5_reduce
I0403 15:52:03.522305 14787 net.cpp:425] inception_5a/relu_5x5_reduce <- inception_5a/5x5_reduce
I0403 15:52:03.522325 14787 net.cpp:386] inception_5a/relu_5x5_reduce -> inception_5a/5x5_reduce (in-place)
I0403 15:52:03.522619 14787 net.cpp:141] Setting up inception_5a/relu_5x5_reduce
I0403 15:52:03.522646 14787 net.cpp:148] Top shape: 24 32 7 7 (37632)
I0403 15:52:03.522662 14787 net.cpp:156] Memory required for data: 1299351072
I0403 15:52:03.522676 14787 layer_factory.hpp:77] Creating layer inception_5a/5x5
I0403 15:52:03.522697 14787 net.cpp:91] Creating Layer inception_5a/5x5
I0403 15:52:03.522716 14787 net.cpp:425] inception_5a/5x5 <- inception_5a/5x5_reduce
I0403 15:52:03.522738 14787 net.cpp:399] inception_5a/5x5 -> inception_5a/5x5
I0403 15:52:03.524466 14787 net.cpp:141] Setting up inception_5a/5x5
I0403 15:52:03.524507 14787 net.cpp:148] Top shape: 24 128 7 7 (150528)
I0403 15:52:03.524523 14787 net.cpp:156] Memory required for data: 1299953184
I0403 15:52:03.524539 14787 layer_factory.hpp:77] Creating layer inception_5a/relu_5x5
I0403 15:52:03.524559 14787 net.cpp:91] Creating Layer inception_5a/relu_5x5
I0403 15:52:03.524576 14787 net.cpp:425] inception_5a/relu_5x5 <- inception_5a/5x5
I0403 15:52:03.524595 14787 net.cpp:386] inception_5a/relu_5x5 -> inception_5a/5x5 (in-place)
I0403 15:52:03.524785 14787 net.cpp:141] Setting up inception_5a/relu_5x5
I0403 15:52:03.524811 14787 net.cpp:148] Top shape: 24 128 7 7 (150528)
I0403 15:52:03.524826 14787 net.cpp:156] Memory required for data: 1300555296
I0403 15:52:03.524839 14787 layer_factory.hpp:77] Creating layer inception_5a/pool
I0403 15:52:03.524857 14787 net.cpp:91] Creating Layer inception_5a/pool
I0403 15:52:03.524871 14787 net.cpp:425] inception_5a/pool <- pool4/3x3_s2_pool4/3x3_s2_0_split_3
I0403 15:52:03.524893 14787 net.cpp:399] inception_5a/pool -> inception_5a/pool
I0403 15:52:03.524962 14787 net.cpp:141] Setting up inception_5a/pool
I0403 15:52:03.524986 14787 net.cpp:148] Top shape: 24 832 7 7 (978432)
I0403 15:52:03.525001 14787 net.cpp:156] Memory required for data: 1304469024
I0403 15:52:03.525013 14787 layer_factory.hpp:77] Creating layer inception_5a/pool_proj
I0403 15:52:03.525037 14787 net.cpp:91] Creating Layer inception_5a/pool_proj
I0403 15:52:03.525054 14787 net.cpp:425] inception_5a/pool_proj <- inception_5a/pool
I0403 15:52:03.525074 14787 net.cpp:399] inception_5a/pool_proj -> inception_5a/pool_proj
I0403 15:52:03.527335 14787 net.cpp:141] Setting up inception_5a/pool_proj
I0403 15:52:03.527379 14787 net.cpp:148] Top shape: 24 128 7 7 (150528)
I0403 15:52:03.527396 14787 net.cpp:156] Memory required for data: 1305071136
I0403 15:52:03.527415 14787 layer_factory.hpp:77] Creating layer inception_5a/relu_pool_proj
I0403 15:52:03.527434 14787 net.cpp:91] Creating Layer inception_5a/relu_pool_proj
I0403 15:52:03.527451 14787 net.cpp:425] inception_5a/relu_pool_proj <- inception_5a/pool_proj
I0403 15:52:03.527468 14787 net.cpp:386] inception_5a/relu_pool_proj -> inception_5a/pool_proj (in-place)
I0403 15:52:03.527781 14787 net.cpp:141] Setting up inception_5a/relu_pool_proj
I0403 15:52:03.527808 14787 net.cpp:148] Top shape: 24 128 7 7 (150528)
I0403 15:52:03.527823 14787 net.cpp:156] Memory required for data: 1305673248
I0403 15:52:03.527837 14787 layer_factory.hpp:77] Creating layer inception_5a/output
I0403 15:52:03.527858 14787 net.cpp:91] Creating Layer inception_5a/output
I0403 15:52:03.527873 14787 net.cpp:425] inception_5a/output <- inception_5a/1x1
I0403 15:52:03.527890 14787 net.cpp:425] inception_5a/output <- inception_5a/3x3
I0403 15:52:03.527905 14787 net.cpp:425] inception_5a/output <- inception_5a/5x5
I0403 15:52:03.527921 14787 net.cpp:425] inception_5a/output <- inception_5a/pool_proj
I0403 15:52:03.527937 14787 net.cpp:399] inception_5a/output -> inception_5a/output
I0403 15:52:03.527987 14787 net.cpp:141] Setting up inception_5a/output
I0403 15:52:03.528012 14787 net.cpp:148] Top shape: 24 832 7 7 (978432)
I0403 15:52:03.528025 14787 net.cpp:156] Memory required for data: 1309586976
I0403 15:52:03.528040 14787 layer_factory.hpp:77] Creating layer inception_5a/output_inception_5a/output_0_split
I0403 15:52:03.528058 14787 net.cpp:91] Creating Layer inception_5a/output_inception_5a/output_0_split
I0403 15:52:03.528072 14787 net.cpp:425] inception_5a/output_inception_5a/output_0_split <- inception_5a/output
I0403 15:52:03.528091 14787 net.cpp:399] inception_5a/output_inception_5a/output_0_split -> inception_5a/output_inception_5a/output_0_split_0
I0403 15:52:03.528112 14787 net.cpp:399] inception_5a/output_inception_5a/output_0_split -> inception_5a/output_inception_5a/output_0_split_1
I0403 15:52:03.528136 14787 net.cpp:399] inception_5a/output_inception_5a/output_0_split -> inception_5a/output_inception_5a/output_0_split_2
I0403 15:52:03.528158 14787 net.cpp:399] inception_5a/output_inception_5a/output_0_split -> inception_5a/output_inception_5a/output_0_split_3
I0403 15:52:03.528271 14787 net.cpp:141] Setting up inception_5a/output_inception_5a/output_0_split
I0403 15:52:03.528296 14787 net.cpp:148] Top shape: 24 832 7 7 (978432)
I0403 15:52:03.528313 14787 net.cpp:148] Top shape: 24 832 7 7 (978432)
I0403 15:52:03.528327 14787 net.cpp:148] Top shape: 24 832 7 7 (978432)
I0403 15:52:03.528342 14787 net.cpp:148] Top shape: 24 832 7 7 (978432)
I0403 15:52:03.528357 14787 net.cpp:156] Memory required for data: 1325241888
I0403 15:52:03.528372 14787 layer_factory.hpp:77] Creating layer inception_5b/1x1
I0403 15:52:03.528393 14787 net.cpp:91] Creating Layer inception_5b/1x1
I0403 15:52:03.528410 14787 net.cpp:425] inception_5b/1x1 <- inception_5a/output_inception_5a/output_0_split_0
I0403 15:52:03.528431 14787 net.cpp:399] inception_5b/1x1 -> inception_5b/1x1
I0403 15:52:03.532353 14787 net.cpp:141] Setting up inception_5b/1x1
I0403 15:52:03.532384 14787 net.cpp:148] Top shape: 24 384 7 7 (451584)
I0403 15:52:03.532400 14787 net.cpp:156] Memory required for data: 1327048224
I0403 15:52:03.532419 14787 layer_factory.hpp:77] Creating layer inception_5b/relu_1x1
I0403 15:52:03.532441 14787 net.cpp:91] Creating Layer inception_5b/relu_1x1
I0403 15:52:03.532459 14787 net.cpp:425] inception_5b/relu_1x1 <- inception_5b/1x1
I0403 15:52:03.532476 14787 net.cpp:386] inception_5b/relu_1x1 -> inception_5b/1x1 (in-place)
I0403 15:52:03.532796 14787 net.cpp:141] Setting up inception_5b/relu_1x1
I0403 15:52:03.532824 14787 net.cpp:148] Top shape: 24 384 7 7 (451584)
I0403 15:52:03.532841 14787 net.cpp:156] Memory required for data: 1328854560
I0403 15:52:03.532856 14787 layer_factory.hpp:77] Creating layer inception_5b/3x3_reduce
I0403 15:52:03.532879 14787 net.cpp:91] Creating Layer inception_5b/3x3_reduce
I0403 15:52:03.532898 14787 net.cpp:425] inception_5b/3x3_reduce <- inception_5a/output_inception_5a/output_0_split_1
I0403 15:52:03.532922 14787 net.cpp:399] inception_5b/3x3_reduce -> inception_5b/3x3_reduce
I0403 15:52:03.535691 14787 net.cpp:141] Setting up inception_5b/3x3_reduce
I0403 15:52:03.535722 14787 net.cpp:148] Top shape: 24 192 7 7 (225792)
I0403 15:52:03.535738 14787 net.cpp:156] Memory required for data: 1329757728
I0403 15:52:03.535758 14787 layer_factory.hpp:77] Creating layer inception_5b/relu_3x3_reduce
I0403 15:52:03.535779 14787 net.cpp:91] Creating Layer inception_5b/relu_3x3_reduce
I0403 15:52:03.535799 14787 net.cpp:425] inception_5b/relu_3x3_reduce <- inception_5b/3x3_reduce
I0403 15:52:03.535816 14787 net.cpp:386] inception_5b/relu_3x3_reduce -> inception_5b/3x3_reduce (in-place)
I0403 15:52:03.536015 14787 net.cpp:141] Setting up inception_5b/relu_3x3_reduce
I0403 15:52:03.536044 14787 net.cpp:148] Top shape: 24 192 7 7 (225792)
I0403 15:52:03.536061 14787 net.cpp:156] Memory required for data: 1330660896
I0403 15:52:03.536075 14787 layer_factory.hpp:77] Creating layer inception_5b/3x3
I0403 15:52:03.536100 14787 net.cpp:91] Creating Layer inception_5b/3x3
I0403 15:52:03.536119 14787 net.cpp:425] inception_5b/3x3 <- inception_5b/3x3_reduce
I0403 15:52:03.536145 14787 net.cpp:399] inception_5b/3x3 -> inception_5b/3x3
I0403 15:52:03.543082 14787 net.cpp:141] Setting up inception_5b/3x3
I0403 15:52:03.543113 14787 net.cpp:148] Top shape: 24 384 7 7 (451584)
I0403 15:52:03.543140 14787 net.cpp:156] Memory required for data: 1332467232
I0403 15:52:03.543164 14787 layer_factory.hpp:77] Creating layer inception_5b/relu_3x3
I0403 15:52:03.543187 14787 net.cpp:91] Creating Layer inception_5b/relu_3x3
I0403 15:52:03.543206 14787 net.cpp:425] inception_5b/relu_3x3 <- inception_5b/3x3
I0403 15:52:03.543225 14787 net.cpp:386] inception_5b/relu_3x3 -> inception_5b/3x3 (in-place)
I0403 15:52:03.543537 14787 net.cpp:141] Setting up inception_5b/relu_3x3
I0403 15:52:03.543565 14787 net.cpp:148] Top shape: 24 384 7 7 (451584)
I0403 15:52:03.543581 14787 net.cpp:156] Memory required for data: 1334273568
I0403 15:52:03.543596 14787 layer_factory.hpp:77] Creating layer inception_5b/5x5_reduce
I0403 15:52:03.543637 14787 net.cpp:91] Creating Layer inception_5b/5x5_reduce
I0403 15:52:03.543658 14787 net.cpp:425] inception_5b/5x5_reduce <- inception_5a/output_inception_5a/output_0_split_2
I0403 15:52:03.543679 14787 net.cpp:399] inception_5b/5x5_reduce -> inception_5b/5x5_reduce
I0403 15:52:03.545011 14787 net.cpp:141] Setting up inception_5b/5x5_reduce
I0403 15:52:03.545042 14787 net.cpp:148] Top shape: 24 48 7 7 (56448)
I0403 15:52:03.545058 14787 net.cpp:156] Memory required for data: 1334499360
I0403 15:52:03.545078 14787 layer_factory.hpp:77] Creating layer inception_5b/relu_5x5_reduce
I0403 15:52:03.545097 14787 net.cpp:91] Creating Layer inception_5b/relu_5x5_reduce
I0403 15:52:03.545115 14787 net.cpp:425] inception_5b/relu_5x5_reduce <- inception_5b/5x5_reduce
I0403 15:52:03.545138 14787 net.cpp:386] inception_5b/relu_5x5_reduce -> inception_5b/5x5_reduce (in-place)
I0403 15:52:03.545524 14787 net.cpp:141] Setting up inception_5b/relu_5x5_reduce
I0403 15:52:03.545552 14787 net.cpp:148] Top shape: 24 48 7 7 (56448)
I0403 15:52:03.545569 14787 net.cpp:156] Memory required for data: 1334725152
I0403 15:52:03.545584 14787 layer_factory.hpp:77] Creating layer inception_5b/5x5
I0403 15:52:03.545605 14787 net.cpp:91] Creating Layer inception_5b/5x5
I0403 15:52:03.545624 14787 net.cpp:425] inception_5b/5x5 <- inception_5b/5x5_reduce
I0403 15:52:03.545644 14787 net.cpp:399] inception_5b/5x5 -> inception_5b/5x5
I0403 15:52:03.547816 14787 net.cpp:141] Setting up inception_5b/5x5
I0403 15:52:03.547848 14787 net.cpp:148] Top shape: 24 128 7 7 (150528)
I0403 15:52:03.547866 14787 net.cpp:156] Memory required for data: 1335327264
I0403 15:52:03.547884 14787 layer_factory.hpp:77] Creating layer inception_5b/relu_5x5
I0403 15:52:03.547904 14787 net.cpp:91] Creating Layer inception_5b/relu_5x5
I0403 15:52:03.547922 14787 net.cpp:425] inception_5b/relu_5x5 <- inception_5b/5x5
I0403 15:52:03.547940 14787 net.cpp:386] inception_5b/relu_5x5 -> inception_5b/5x5 (in-place)
I0403 15:52:03.548161 14787 net.cpp:141] Setting up inception_5b/relu_5x5
I0403 15:52:03.548187 14787 net.cpp:148] Top shape: 24 128 7 7 (150528)
I0403 15:52:03.548202 14787 net.cpp:156] Memory required for data: 1335929376
I0403 15:52:03.548216 14787 layer_factory.hpp:77] Creating layer inception_5b/pool
I0403 15:52:03.548234 14787 net.cpp:91] Creating Layer inception_5b/pool
I0403 15:52:03.548251 14787 net.cpp:425] inception_5b/pool <- inception_5a/output_inception_5a/output_0_split_3
I0403 15:52:03.548271 14787 net.cpp:399] inception_5b/pool -> inception_5b/pool
I0403 15:52:03.548346 14787 net.cpp:141] Setting up inception_5b/pool
I0403 15:52:03.548372 14787 net.cpp:148] Top shape: 24 832 7 7 (978432)
I0403 15:52:03.548388 14787 net.cpp:156] Memory required for data: 1339843104
I0403 15:52:03.548403 14787 layer_factory.hpp:77] Creating layer inception_5b/pool_proj
I0403 15:52:03.548424 14787 net.cpp:91] Creating Layer inception_5b/pool_proj
I0403 15:52:03.548444 14787 net.cpp:425] inception_5b/pool_proj <- inception_5b/pool
I0403 15:52:03.548461 14787 net.cpp:399] inception_5b/pool_proj -> inception_5b/pool_proj
I0403 15:52:03.550783 14787 net.cpp:141] Setting up inception_5b/pool_proj
I0403 15:52:03.550813 14787 net.cpp:148] Top shape: 24 128 7 7 (150528)
I0403 15:52:03.550829 14787 net.cpp:156] Memory required for data: 1340445216
I0403 15:52:03.550848 14787 layer_factory.hpp:77] Creating layer inception_5b/relu_pool_proj
I0403 15:52:03.550869 14787 net.cpp:91] Creating Layer inception_5b/relu_pool_proj
I0403 15:52:03.550887 14787 net.cpp:425] inception_5b/relu_pool_proj <- inception_5b/pool_proj
I0403 15:52:03.550906 14787 net.cpp:386] inception_5b/relu_pool_proj -> inception_5b/pool_proj (in-place)
I0403 15:52:03.551213 14787 net.cpp:141] Setting up inception_5b/relu_pool_proj
I0403 15:52:03.551240 14787 net.cpp:148] Top shape: 24 128 7 7 (150528)
I0403 15:52:03.551255 14787 net.cpp:156] Memory required for data: 1341047328
I0403 15:52:03.551271 14787 layer_factory.hpp:77] Creating layer inception_5b/output
I0403 15:52:03.551291 14787 net.cpp:91] Creating Layer inception_5b/output
I0403 15:52:03.551322 14787 net.cpp:425] inception_5b/output <- inception_5b/1x1
I0403 15:52:03.551340 14787 net.cpp:425] inception_5b/output <- inception_5b/3x3
I0403 15:52:03.551357 14787 net.cpp:425] inception_5b/output <- inception_5b/5x5
I0403 15:52:03.551373 14787 net.cpp:425] inception_5b/output <- inception_5b/pool_proj
I0403 15:52:03.551390 14787 net.cpp:399] inception_5b/output -> inception_5b/output
I0403 15:52:03.551445 14787 net.cpp:141] Setting up inception_5b/output
I0403 15:52:03.551470 14787 net.cpp:148] Top shape: 24 1024 7 7 (1204224)
I0403 15:52:03.551486 14787 net.cpp:156] Memory required for data: 1345864224
I0403 15:52:03.551501 14787 layer_factory.hpp:77] Creating layer pool5/7x7_s1
I0403 15:52:03.551517 14787 net.cpp:91] Creating Layer pool5/7x7_s1
I0403 15:52:03.551533 14787 net.cpp:425] pool5/7x7_s1 <- inception_5b/output
I0403 15:52:03.551554 14787 net.cpp:399] pool5/7x7_s1 -> pool5/7x7_s1
I0403 15:52:03.551774 14787 net.cpp:141] Setting up pool5/7x7_s1
I0403 15:52:03.551803 14787 net.cpp:148] Top shape: 24 1024 1 1 (24576)
I0403 15:52:03.551820 14787 net.cpp:156] Memory required for data: 1345962528
I0403 15:52:03.551834 14787 layer_factory.hpp:77] Creating layer pool5/drop_7x7_s1
I0403 15:52:03.551852 14787 net.cpp:91] Creating Layer pool5/drop_7x7_s1
I0403 15:52:03.551867 14787 net.cpp:425] pool5/drop_7x7_s1 <- pool5/7x7_s1
I0403 15:52:03.551885 14787 net.cpp:386] pool5/drop_7x7_s1 -> pool5/7x7_s1 (in-place)
I0403 15:52:03.551937 14787 net.cpp:141] Setting up pool5/drop_7x7_s1
I0403 15:52:03.551962 14787 net.cpp:148] Top shape: 24 1024 1 1 (24576)
I0403 15:52:03.551976 14787 net.cpp:156] Memory required for data: 1346060832
I0403 15:52:03.551990 14787 layer_factory.hpp:77] Creating layer loss3/classifier_plantvillage
I0403 15:52:03.552012 14787 net.cpp:91] Creating Layer loss3/classifier_plantvillage
I0403 15:52:03.552031 14787 net.cpp:425] loss3/classifier_plantvillage <- pool5/7x7_s1
I0403 15:52:03.552048 14787 net.cpp:399] loss3/classifier_plantvillage -> loss3/classifier_plantvillage
I0403 15:52:03.552485 14787 net.cpp:141] Setting up loss3/classifier_plantvillage
I0403 15:52:03.552511 14787 net.cpp:148] Top shape: 24 38 (912)
I0403 15:52:03.552525 14787 net.cpp:156] Memory required for data: 1346064480
I0403 15:52:03.552544 14787 layer_factory.hpp:77] Creating layer loss3/classifier_plantvillage_loss3/classifier_plantvillage_0_split
I0403 15:52:03.552562 14787 net.cpp:91] Creating Layer loss3/classifier_plantvillage_loss3/classifier_plantvillage_0_split
I0403 15:52:03.552579 14787 net.cpp:425] loss3/classifier_plantvillage_loss3/classifier_plantvillage_0_split <- loss3/classifier_plantvillage
I0403 15:52:03.552600 14787 net.cpp:399] loss3/classifier_plantvillage_loss3/classifier_plantvillage_0_split -> loss3/classifier_plantvillage_loss3/classifier_plantvillage_0_split_0
I0403 15:52:03.552621 14787 net.cpp:399] loss3/classifier_plantvillage_loss3/classifier_plantvillage_0_split -> loss3/classifier_plantvillage_loss3/classifier_plantvillage_0_split_1
I0403 15:52:03.552642 14787 net.cpp:399] loss3/classifier_plantvillage_loss3/classifier_plantvillage_0_split -> loss3/classifier_plantvillage_loss3/classifier_plantvillage_0_split_2
I0403 15:52:03.552661 14787 net.cpp:399] loss3/classifier_plantvillage_loss3/classifier_plantvillage_0_split -> loss3/classifier_plantvillage_loss3/classifier_plantvillage_0_split_3
I0403 15:52:03.552764 14787 net.cpp:141] Setting up loss3/classifier_plantvillage_loss3/classifier_plantvillage_0_split
I0403 15:52:03.552788 14787 net.cpp:148] Top shape: 24 38 (912)
I0403 15:52:03.552805 14787 net.cpp:148] Top shape: 24 38 (912)
I0403 15:52:03.552820 14787 net.cpp:148] Top shape: 24 38 (912)
I0403 15:52:03.552835 14787 net.cpp:148] Top shape: 24 38 (912)
I0403 15:52:03.552850 14787 net.cpp:156] Memory required for data: 1346079072
I0403 15:52:03.552865 14787 layer_factory.hpp:77] Creating layer loss1/loss
I0403 15:52:03.552886 14787 net.cpp:91] Creating Layer loss1/loss
I0403 15:52:03.552904 14787 net.cpp:425] loss1/loss <- loss1/classifier_plantvillage_loss1/classifier_plantvillage_0_split_0
I0403 15:52:03.552935 14787 net.cpp:425] loss1/loss <- label_data_1_split_0
…
