…
I0403 02:30:37.490494 30257 net.cpp:313] The NetState phase (0) differed from the phase (1) specified by a rule in layer loss3/top-5
I0403 02:30:37.495103 30257 net.cpp:49] Initializing net from parameters: 
state {
  phase: TRAIN
}
layer {
  name: "data"
  type: "Data"
  top: "data"
  top: "label"
  include {
    phase: TRAIN
  }
  transform_param {
    mirror: true
    crop_size: 224
    mean_file: "/home/mohanty/data/final_dataset/lmdb/color-40-60/mean.binaryproto"
  }
  data_param {
    source: "/home/mohanty/data/final_dataset/lmdb/color-40-60/train_db"
    batch_size: 24
    backend: LMDB
  }
}
layer {
  name: "conv1/7x7_s2"
  type: "Convolution"
  bottom: "data"
  top: "conv1/7x7_s2"
  param {
    lr_mult: 1
    decay_mult: 1
  }
  param {
    lr_mult: 2
    decay_mult: 0
  }
  convolution_param {
    num_output: 64
    pad: 3
    kernel_size: 7
    stride: 2
    weight_filler {
      type: "xavier"
      std: 0.1
    }
    bias_filler {
      type: "constant"
      value: 0.2
    }
  }
}
layer {
  name: "conv1/relu_7x7"
  type: "ReLU"
  bottom: "conv1/7x7_s2"
  top: "conv1/7x7_s2"
}
layer {
  name: "pool1/3x3_s2"
  type: "Pooling"
  bottom: "conv1/7x7_s2"
  top: "pool1/3x3_s2"
  pooling_param {
    pool: MAX
    kernel_size: 3
    stride: 2
  }
}
layer {
  name: "pool1/norm1"
  type: "LRN"
  bottom: "pool1/3x3_s2"
  top: "pool1/norm1"
  lrn_param {
    local_size: 5
    alpha: 0.0001
    beta: 0.75
  }
}
layer {
  name: "conv2/3x3_reduce"
  type: "Convolution"
  bottom: "pool1/norm1"
  top: "conv2/3x3_reduce"
  param {
    lr_mult: 1
    decay_mult: 1
  }
  param {
    lr_mult: 2
    decay_mult: 0
  }
  convolution_param {
    num_output: 64
    kernel_size: 1
    weight_filler {
      type: "xavier"
      std: 0.1
    }
    bias_filler {
      type: "constant"
      value: 0.2
    }
  }
}
layer {
  name: "conv2/relu_3x3_reduce"
  type: "ReLU"
  bottom: "conv2/3x3_reduce"
  top: "conv2/3x3_reduce"
}
layer {
  name: "conv2/3x3"
  type: "Convolution"
  bottom: "conv2/3x3_reduce"
  top: "conv2/3x3"
  param {
    lr_mult: 1
    decay_mult: 1
  }
  param {
    lr_mult: 2
    decay_mult: 0
  }
  convolution_param {
    num_output: 192
    pad: 1
    kernel_size: 3
    weight_filler {
      type: "xavier"
      std: 0.03
    }
    bias_filler {
      type: "constant"
      value: 0.2
    }
  }
}
layer {
  name: "conv2/relu_3x3"
  type: "ReLU"
  bottom: "conv2/3x3"
  top: "conv2/3x3"
}
layer {
  name: "conv2/norm2"
  type: "LRN"
  bottom: "conv2/3x3"
  top: "conv2/norm2"
  lrn_param {
    local_size: 5
    alpha: 0.0001
    beta: 0.75
  }
}
layer {
  name: "pool2/3x3_s2"
  type: "Pooling"
  bottom: "conv2/norm2"
  top: "pool2/3x3_s2"
  pooling_param {
    pool: MAX
    kernel_size: 3
    stride: 2
  }
}
layer {
  name: "inception_3a/1x1"
  type: "Convolution"
  bottom: "pool2/3x3_s2"
  top: "inception_3a/1x1"
  param {
    lr_mult: 1
    decay_mult: 1
  }
  param {
    lr_mult: 2
    decay_mult: 0
  }
  convolution_param {
    num_output: 64
    kernel_size: 1
    weight_filler {
      type: "xavier"
      std: 0.03
    }
    bias_filler {
      type: "constant"
      value: 0.2
    }
  }
}
layer {
  name: "inception_3a/relu_1x1"
  type: "ReLU"
  bottom: "inception_3a/1x1"
  top: "inception_3a/1x1"
}
layer {
  name: "inception_3a/3x3_reduce"
  type: "Convolution"
  bottom: "pool2/3x3_s2"
  top: "inception_3a/3x3_reduce"
  param {
    lr_mult: 1
    decay_mult: 1
  }
  param {
    lr_mult: 2
    decay_mult: 0
  }
  convolution_param {
    num_output: 96
    kernel_size: 1
    weight_filler {
      type: "xavier"
      std: 0.09
    }
    bias_filler {
      type: "constant"
      value: 0.2
    }
  }
}
layer {
  name: "inception_3a/relu_3x3_reduce"
  type: "ReLU"
  bottom: "inception_3a/3x3_reduce"
  top: "inception_3a/3x3_reduce"
}
layer {
  name: "inception_3a/3x3"
  type: "Convolution"
  bottom: "inception_3a/3x3_reduce"
  top: "inception_3a/3x3"
  param {
    lr_mult: 1
    decay_mult: 1
  }
  param {
    lr_mult: 2
    decay_mult: 0
  }
  convolution_param {
    num_output: 128
    pad: 1
    kernel_size: 3
    weight_filler {
      type: "xavier"
      std: 0.03
    }
    bias_filler {
      type: "constant"
      value: 0.2
    }
  }
}
layer {
  name: "inception_3a/relu_3x3"
  type: "ReLU"
  bottom: "inception_3a/3x3"
  top: "inception_3a/3x3"
}
layer {
  name: "inception_3a/5x5_reduce"
  type: "Convolution"
  bottom: "pool2/3x3_s2"
  top: "inception_3a/5x5_reduce"
  param {
    lr_mult: 1
    decay_mult: 1
  }
  param {
    lr_mult: 2
    decay_mult: 0
  }
  convolution_param {
    num_output: 16
    kernel_size: 1
    weight_filler {
      type: "xavier"
      std: 0.2
    }
    bias_filler {
      type: "constant"
      value: 0.2
    }
  }
}
layer {
  name: "inception_3a/relu_5x5_reduce"
  type: "ReLU"
  bottom: "inception_3a/5x5_reduce"
  top: "inception_3a/5x5_reduce"
}
layer {
  name: "inception_3a/5x5"
  type: "Convolution"
  bottom: "inception_3a/5x5_reduce"
  top: "inception_3a/5x5"
  param {
    lr_mult: 1
    decay_mult: 1
  }
  param {
    lr_mult: 2
    decay_mult: 0
  }
  convolution_param {
    num_output: 32
    pad: 2
    kernel_size: 5
    weight_filler {
      type: "xavier"
      std: 0.03
    }
    bias_filler {
      type: "constant"
      value: 0.2
    }
  }
}
layer {
  name: "inception_3a/relu_5x5"
  type: "ReLU"
  bottom: "inception_3a/5x5"
  top: "inception_3a/5x5"
}
layer {
  name: "inception_3a/pool"
  type: "Pooling"
  bottom: "pool2/3x3_s2"
  top: "inception_3a/pool"
  pooling_param {
    pool: MAX
    kernel_size: 3
    stride: 1
    pad: 1
  }
}
layer {
  name: "inception_3a/pool_proj"
  type: "Convolution"
  bottom: "inception_3a/pool"
  top: "inception_3a/pool_proj"
  param {
    lr_mult: 1
    decay_mult: 1
  }
  param {
    lr_mult: 2
    decay_mult: 0
  }
  convolution_param {
    num_output: 32
    kernel_size: 1
    weight_filler {
      type: "xavier"
      std: 0.1
    }
    bias_filler {
      type: "constant"
      value: 0.2
    }
  }
}
layer {
  name: "inception_3a/relu_pool_proj"
  type: "ReLU"
  bottom: "inception_3a/pool_proj"
  top: "inception_3a/pool_proj"
}
layer {
  name: "inception_3a/output"
  type: "Concat"
  bottom: "inception_3a/1x1"
  bottom: "inception_3a/3x3"
  bottom: "inception_3a/5x5"
  bottom: "inception_3a/pool_proj"
  top: "inception_3a/output"
}
layer {
  name: "inception_3b/1x1"
  type: "Convolution"
  bottom: "inception_3a/output"
  top: "inception_3b/1x1"
  param {
    lr_mult: 1
    decay_mult: 1
  }
  param {
    lr_mult: 2
    decay_mult: 0
  }
  convolution_param {
    num_output: 128
    kernel_size: 1
    weight_filler {
      type: "xavier"
      std: 0.03
    }
    bias_filler {
      type: "constant"
      value: 0.2
    }
  }
}
layer {
  name: "inception_3b/relu_1x1"
  type: "ReLU"
  bottom: "inception_3b/1x1"
  top: "inception_3b/1x1"
}
layer {
  name: "inception_3b/3x3_reduce"
  type: "Convolution"
  bottom: "inception_3a/output"
  top: "inception_3b/3x3_reduce"
  param {
    lr_mult: 1
    decay_mult: 1
  }
  param {
    lr_mult: 2
    decay_mult: 0
  }
  convolution_param {
    num_output: 128
    kernel_size: 1
    weight_filler {
      type: "xavier"
      std: 0.09
    }
    bias_filler {
      type: "constant"
      value: 0.2
    }
  }
}
layer {
  name: "inception_3b/relu_3x3_reduce"
  type: "ReLU"
  bottom: "inception_3b/3x3_reduce"
  top: "inception_3b/3x3_reduce"
}
layer {
  name: "inception_3b/3x3"
  type: "Convolution"
  bottom: "inception_3b/3x3_reduce"
  top: "inception_3b/3x3"
  param {
    lr_mult: 1
    decay_mult: 1
  }
  param {
    lr_mult: 2
    decay_mult: 0
  }
  convolution_param {
    num_output: 192
    pad: 1
    kernel_size: 3
    weight_filler {
      type: "xavier"
      std: 0.03
    }
    bias_filler {
      type: "constant"
      value: 0.2
    }
  }
}
layer {
  name: "inception_3b/relu_3x3"
  type: "ReLU"
  bottom: "inception_3b/3x3"
  top: "inception_3b/3x3"
}
layer {
  name: "inception_3b/5x5_reduce"
  type: "Convolution"
  bottom: "inception_3a/output"
  top: "inception_3b/5x5_reduce"
  param {
    lr_mult: 1
    decay_mult: 1
  }
  param {
    lr_mult: 2
    decay_mult: 0
  }
  convolution_param {
    num_output: 32
    kernel_size: 1
    weight_filler {
      type: "xavier"
      std: 0.2
    }
    bias_filler {
      type: "constant"
      value: 0.2
    }
  }
}
layer {
  name: "inception_3b/relu_5x5_reduce"
  type: "ReLU"
  bottom: "inception_3b/5x5_reduce"
  top: "inception_3b/5x5_reduce"
}
layer {
  name: "inception_3b/5x5"
  type: "Convolution"
  bottom: "inception_3b/5x5_reduce"
  top: "inception_3b/5x5"
  param {
    lr_mult: 1
    decay_mult: 1
  }
  param {
    lr_mult: 2
    decay_mult: 0
  }
  convolution_param {
    num_output: 96
    pad: 2
    kernel_size: 5
    weight_filler {
      type: "xavier"
      std: 0.03
    }
    bias_filler {
      type: "constant"
      value: 0.2
    }
  }
}
layer {
  name: "inception_3b/relu_5x5"
  type: "ReLU"
  bottom: "inception_3b/5x5"
  top: "inception_3b/5x5"
}
layer {
  name: "inception_3b/pool"
  type: "Pooling"
  bottom: "inception_3a/output"
  top: "inception_3b/pool"
  pooling_param {
    pool: MAX
    kernel_size: 3
    stride: 1
    pad: 1
  }
}
layer {
  name: "inception_3b/pool_proj"
  type: "Convolution"
  bottom: "inception_3b/pool"
  top: "inception_3b/pool_proj"
  param {
    lr_mult: 1
    decay_mult: 1
  }
  param {
    lr_mult: 2
    decay_mult: 0
  }
  convolution_param {
    num_output: 64
    kernel_size: 1
    weight_filler {
      type: "xavier"
      std: 0.1
    }
    bias_filler {
      type: "constant"
      value: 0.2
    }
  }
}
layer {
  name: "inception_3b/relu_pool_proj"
  type: "ReLU"
  bottom: "inception_3b/pool_proj"
  top: "inception_3b/pool_proj"
}
layer {
  name: "inception_3b/output"
  type: "Concat"
  bottom: "inception_3b/1x1"
  bottom: "inception_3b/3x3"
  bottom: "inception_3b/5x5"
  bottom: "inception_3b/pool_proj"
  top: "inception_3b/output"
}
layer {
  name: "pool3/3x3_s2"
  type: "Pooling"
  bottom: "inception_3b/output"
  top: "pool3/3x3_s2"
  pooling_param {
    pool: MAX
    kernel_size: 3
    stride: 2
  }
}
layer {
  name: "inception_4a/1x1"
  type: "Convolution"
  bottom: "pool3/3x3_s2"
  top: "inception_4a/1x1"
  param {
    lr_mult: 1
    decay_mult: 1
  }
  param {
    lr_mult: 2
    decay_mult: 0
  }
  convolution_param {
    num_output: 192
    kernel_size: 1
    weight_filler {
      type: "xavier"
      std: 0.03
    }
    bias_filler {
      type: "constant"
      value: 0.2
    }
  }
}
layer {
  name: "inception_4a/relu_1x1"
  type: "ReLU"
  bottom: "inception_4a/1x1"
  top: "inception_4a/1x1"
}
layer {
  name: "inception_4a/3x3_reduce"
  type: "Convolution"
  bottom: "pool3/3x3_s2"
  top: "inception_4a/3x3_reduce"
  param {
    lr_mult: 1
    decay_mult: 1
  }
  param {
    lr_mult: 2
    decay_mult: 0
  }
  convolution_param {
    num_output: 96
    kernel_size: 1
    weight_filler {
      type: "xavier"
      std: 0.09
    }
    bias_filler {
      type: "constant"
      value: 0.2
    }
  }
}
layer {
  name: "inception_4a/relu_3x3_reduce"
  type: "ReLU"
  bottom: "inception_4a/3x3_reduce"
  top: "inception_4a/3x3_reduce"
}
layer {
  name: "inception_4a/3x3"
  type: "Convolution"
  bottom: "inception_4a/3x3_reduce"
  top: "inception_4a/3x3"
  param {
    lr_mult: 1
    decay_mult: 1
  }
  param {
    lr_mult: 2
    decay_mult: 0
  }
  convolution_param {
    num_output: 208
    pad: 1
    kernel_size: 3
    weight_filler {
      type: "xavier"
      std: 0.03
    }
    bias_filler {
      type: "constant"
      value: 0.2
    }
  }
}
layer {
  name: "inception_4a/relu_3x3"
  type: "ReLU"
  bottom: "inception_4a/3x3"
  top: "inception_4a/3x3"
}
layer {
  name: "inception_4a/5x5_reduce"
  type: "Convolution"
  bottom: "pool3/3x3_s2"
  top: "inception_4a/5x5_reduce"
  param {
    lr_mult: 1
    decay_mult: 1
  }
  param {
    lr_mult: 2
    decay_mult: 0
  }
  convolution_param {
    num_output: 16
    kernel_size: 1
    weight_filler {
      type: "xavier"
      std: 0.2
    }
    bias_filler {
      type: "constant"
      value: 0.2
    }
  }
}
layer {
  name: "inception_4a/relu_5x5_reduce"
  type: "ReLU"
  bottom: "inception_4a/5x5_reduce"
  top: "inception_4a/5x5_reduce"
}
layer {
  name: "inception_4a/5x5"
  type: "Convolution"
  bottom: "inception_4a/5x5_reduce"
  top: "inception_4a/5x5"
  param {
    lr_mult: 1
    decay_mult: 1
  }
  param {
    lr_mult: 2
    decay_mult: 0
  }
  convolution_param {
    num_output: 48
    pad: 2
    kernel_size: 5
    weight_filler {
      type: "xavier"
      std: 0.03
    }
    bias_filler {
      type: "constant"
      value: 0.2
    }
  }
}
layer {
  name: "inception_4a/relu_5x5"
  type: "ReLU"
  bottom: "inception_4a/5x5"
  top: "inception_4a/5x5"
}
layer {
  name: "inception_4a/pool"
  type: "Pooling"
  bottom: "pool3/3x3_s2"
  top: "inception_4a/pool"
  pooling_param {
    pool: MAX
    kernel_size: 3
    stride: 1
    pad: 1
  }
}
layer {
  name: "inception_4a/pool_proj"
  type: "Convolution"
  bottom: "inception_4a/pool"
  top: "inception_4a/pool_proj"
  param {
    lr_mult: 1
    decay_mult: 1
  }
  param {
    lr_mult: 2
    decay_mult: 0
  }
  convolution_param {
    num_output: 64
    kernel_size: 1
    weight_filler {
      type: "xavier"
      std: 0.1
    }
    bias_filler {
      type: "constant"
      value: 0.2
    }
  }
}
layer {
  name: "inception_4a/relu_pool_proj"
  type: "ReLU"
  bottom: "inception_4a/pool_proj"
  top: "inception_4a/pool_proj"
}
layer {
  name: "inception_4a/output"
  type: "Concat"
  bottom: "inception_4a/1x1"
  bottom: "inception_4a/3x3"
  bottom: "inception_4a/5x5"
  bottom: "inception_4a/pool_proj"
  top: "inception_4a/output"
}
layer {
  name: "loss1/ave_pool"
  type: "Pooling"
  bottom: "inception_4a/output"
  top: "loss1/ave_pool"
  pooling_param {
    pool: AVE
    kernel_size: 5
    stride: 3
  }
}
layer {
  name: "loss1/conv"
  type: "Convolution"
  bottom: "loss1/ave_pool"
  top: "loss1/conv"
  param {
    lr_mult: 1
    decay_mult: 1
  }
  param {
    lr_mult: 2
    decay_mult: 0
  }
  convolution_param {
    num_output: 128
    kernel_size: 1
    weight_filler {
      type: "xavier"
      std: 0.08
    }
    bias_filler {
      type: "constant"
      value: 0.2
    }
  }
}
layer {
  name: "loss1/relu_conv"
  type: "ReLU"
  bottom: "loss1/conv"
  top: "loss1/conv"
}
layer {
  name: "loss1/fc"
  type: "InnerProduct"
  bottom: "loss1/conv"
  top: "loss1/fc"
  param {
    lr_mult: 1
    decay_mult: 1
  }
  param {
    lr_mult: 2
    decay_mult: 0
  }
  inner_product_param {
    num_output: 1024
    weight_filler {
      type: "xavier"
      std: 0.02
    }
    bias_filler {
      type: "constant"
      value: 0.2
    }
  }
}
layer {
  name: "loss1/relu_fc"
  type: "ReLU"
  bottom: "loss1/fc"
  top: "loss1/fc"
}
layer {
  name: "loss1/drop_fc"
  type: "Dropout"
  bottom: "loss1/fc"
  top: "loss1/fc"
  dropout_param {
    dropout_ratio: 0.7
  }
}
layer {
  name: "loss1/classifier_plantvillage"
  type: "InnerProduct"
  bottom: "loss1/fc"
  top: "loss1/classifier_plantvillage"
  param {
    lr_mult: 1
    decay_mult: 1
  }
  param {
    lr_mult: 2
    decay_mult: 0
  }
  inner_product_param {
    num_output: 38
    weight_filler {
      type: "xavier"
      std: 0.0009765625
    }
    bias_filler {
      type: "constant"
      value: 0
    }
  }
}
layer {
  name: "inception_4b/1x1"
  type: "Convolution"
  bottom: "inception_4a/output"
  top: "inception_4b/1x1"
  param {
    lr_mult: 1
    decay_mult: 1
  }
  param {
    lr_mult: 2
    decay_mult: 0
  }
  convolution_param {
    num_output: 160
    kernel_size: 1
    weight_filler {
      type: "xavier"
      std: 0.03
    }
    bias_filler {
      type: "constant"
      value: 0.2
    }
  }
}
layer {
  name: "inception_4b/relu_1x1"
  type: "ReLU"
  bottom: "inception_4b/1x1"
  top: "inception_4b/1x1"
}
layer {
  name: "inception_4b/3x3_reduce"
  type: "Convolution"
  bottom: "inception_4a/output"
  top: "inception_4b/3x3_reduce"
  param {
    lr_mult: 1
    decay_mult: 1
  }
  param {
    lr_mult: 2
    decay_mult: 0
  }
  convolution_param {
    num_output: 112
    kernel_size: 1
    weight_filler {
      type: "xavier"
      std: 0.09
    }
    bias_filler {
      type: "constant"
      value: 0.2
    }
  }
}
layer {
  name: "inception_4b/relu_3x3_reduce"
  type: "ReLU"
  bottom: "inception_4b/3x3_reduce"
  top: "inception_4b/3x3_reduce"
}
layer {
  name: "inception_4b/3x3"
  type: "Convolution"
  bottom: "inception_4b/3x3_reduce"
  top: "inception_4b/3x3"
  param {
    lr_mult: 1
    decay_mult: 1
  }
  param {
    lr_mult: 2
    decay_mult: 0
  }
  convolution_param {
    num_output: 224
    pad: 1
    kernel_size: 3
    weight_filler {
      type: "xavier"
      std: 0.03
    }
    bias_filler {
      type: "constant"
      value: 0.2
    }
  }
}
layer {
  name: "inception_4b/relu_3x3"
  type: "ReLU"
  bottom: "inception_4b/3x3"
  top: "inception_4b/3x3"
}
layer {
  name: "inception_4b/5x5_reduce"
  type: "Convolution"
  bottom: "inception_4a/output"
  top: "inception_4b/5x5_reduce"
  param {
    lr_mult: 1
    decay_mult: 1
  }
  param {
    lr_mult: 2
    decay_mult: 0
  }
  convolution_param {
    num_output: 24
    kernel_size: 1
    weight_filler {
      type: "xavier"
      std: 0.2
    }
    bias_filler {
      type: "constant"
      value: 0.2
    }
  }
}
layer {
  name: "inception_4b/relu_5x5_reduce"
  type: "ReLU"
  bottom: "inception_4b/5x5_reduce"
  top: "inception_4b/5x5_reduce"
}
layer {
  name: "inception_4b/5x5"
  type: "Convolution"
  bottom: "inception_4b/5x5_reduce"
  top: "inception_4b/5x5"
  param {
    lr_mult: 1
    decay_mult: 1
  }
  param {
    lr_mult: 2
    decay_mult: 0
  }
  convolution_param {
    num_output: 64
    pad: 2
    kernel_size: 5
    weight_filler {
      type: "xavier"
      std: 0.03
    }
    bias_filler {
      type: "constant"
      value: 0.2
    }
  }
}
layer {
  name: "inception_4b/relu_5x5"
  type: "ReLU"
  bottom: "inception_4b/5x5"
  top: "inception_4b/5x5"
}
layer {
  name: "inception_4b/pool"
  type: "Pooling"
  bottom: "inception_4a/output"
  top: "inception_4b/pool"
  pooling_param {
    pool: MAX
    kernel_size: 3
    stride: 1
    pad: 1
  }
}
layer {
  name: "inception_4b/pool_proj"
  type: "Convolution"
  bottom: "inception_4b/pool"
  top: "inception_4b/pool_proj"
  param {
    lr_mult: 1
    decay_mult: 1
  }
  param {
    lr_mult: 2
    decay_mult: 0
  }
  convolution_param {
    num_output: 64
    kernel_size: 1
    weight_filler {
      type: "xavier"
      std: 0.1
    }
    bias_filler {
      type: "constant"
      value: 0.2
    }
  }
}
layer {
  name: "inception_4b/relu_pool_proj"
  type: "ReLU"
  bottom: "inception_4b/pool_proj"
  top: "inception_4b/pool_proj"
}
layer {
  name: "inception_4b/output"
  type: "Concat"
  bottom: "inception_4b/1x1"
  bottom: "inception_4b/3x3"
  bottom: "inception_4b/5x5"
  bottom: "inception_4b/pool_proj"
  top: "inception_4b/output"
}
layer {
  name: "inception_4c/1x1"
  type: "Convolution"
  bottom: "inception_4b/output"
  top: "inception_4c/1x1"
  param {
    lr_mult: 1
    decay_mult: 1
  }
  param {
    lr_mult: 2
    decay_mult: 0
  }
  convolution_param {
    num_output: 128
    kernel_size: 1
    weight_filler {
      type: "xavier"
      std: 0.03
    }
    bias_filler {
      type: "constant"
      value: 0.2
    }
  }
}
layer {
  name: "inception_4c/relu_1x1"
  type: "ReLU"
  bottom: "inception_4c/1x1"
  top: "inception_4c/1x1"
}
layer {
  name: "inception_4c/3x3_reduce"
  type: "Convolution"
  bottom: "inception_4b/output"
  top: "inception_4c/3x3_reduce"
  param {
    lr_mult: 1
    decay_mult: 1
  }
  param {
    lr_mult: 2
    decay_mult: 0
  }
  convolution_param {
    num_output: 128
    kernel_size: 1
    weight_filler {
      type: "xavier"
      std: 0.09
    }
    bias_filler {
      type: "constant"
      value: 0.2
    }
  }
}
layer {
  name: "inception_4c/relu_3x3_reduce"
  type: "ReLU"
  bottom: "inception_4c/3x3_reduce"
  top: "inception_4c/3x3_reduce"
}
layer {
  name: "inception_4c/3x3"
  type: "Convolution"
  bottom: "inception_4c/3x3_reduce"
  top: "inception_4c/3x3"
  param {
    lr_mult: 1
    decay_mult: 1
  }
  param {
    lr_mult: 2
    decay_mult: 0
  }
  convolution_param {
    num_output: 256
    pad: 1
    kernel_size: 3
    weight_filler {
      type: "xavier"
      std: 0.03
    }
    bias_filler {
      type: "constant"
      value: 0.2
    }
  }
}
layer {
  name: "inception_4c/relu_3x3"
  type: "ReLU"
  bottom: "inception_4c/3x3"
  top: "inception_4c/3x3"
}
layer {
  name: "inception_4c/5x5_reduce"
  type: "Convolution"
  bottom: "inception_4b/output"
  top: "inception_4c/5x5_reduce"
  param {
    lr_mult: 1
    decay_mult: 1
  }
  param {
    lr_mult: 2
    decay_mult: 0
  }
  convolution_param {
    num_output: 24
    kernel_size: 1
    weight_filler {
      type: "xavier"
      std: 0.2
    }
    bias_filler {
      type: "constant"
      value: 0.2
    }
  }
}
layer {
  name: "inception_4c/relu_5x5_reduce"
  type: "ReLU"
  bottom: "inception_4c/5x5_reduce"
  top: "inception_4c/5x5_reduce"
}
layer {
  name: "inception_4c/5x5"
  type: "Convolution"
  bottom: "inception_4c/5x5_reduce"
  top: "inception_4c/5x5"
  param {
    lr_mult: 1
    decay_mult: 1
  }
  param {
    lr_mult: 2
    decay_mult: 0
  }
  convolution_param {
    num_output: 64
    pad: 2
    kernel_size: 5
    weight_filler {
      type: "xavier"
      std: 0.03
    }
    bias_filler {
      type: "constant"
      value: 0.2
    }
  }
}
layer {
  name: "inception_4c/relu_5x5"
  type: "ReLU"
  bottom: "inception_4c/5x5"
  top: "inception_4c/5x5"
}
layer {
  name: "inception_4c/pool"
  type: "Pooling"
  bottom: "inception_4b/output"
  top: "inception_4c/pool"
  pooling_param {
    pool: MAX
    kernel_size: 3
    stride: 1
    pad: 1
  }
}
layer {
  name: "inception_4c/pool_proj"
  type: "Convolution"
  bottom: "inception_4c/pool"
  top: "inception_4c/pool_proj"
  param {
    lr_mult: 1
    decay_mult: 1
  }
  param {
    lr_mult: 2
    decay_mult: 0
  }
  convolution_param {
    num_output: 64
    kernel_size: 1
    weight_filler {
      type: "xavier"
      std: 0.1
    }
    bias_filler {
      type: "constant"
      value: 0.2
    }
  }
}
layer {
  name: "inception_4c/relu_pool_proj"
  type: "ReLU"
  bottom: "inception_4c/pool_proj"
  top: "inception_4c/pool_proj"
}
layer {
  name: "inception_4c/output"
  type: "Concat"
  bottom: "inception_4c/1x1"
  bottom: "inception_4c/3x3"
  bottom: "inception_4c/5x5"
  bottom: "inception_4c/pool_proj"
  top: "inception_4c/output"
}
layer {
  name: "inception_4d/1x1"
  type: "Convolution"
  bottom: "inception_4c/output"
  top: "inception_4d/1x1"
  param {
    lr_mult: 1
    decay_mult: 1
  }
  param {
    lr_mult: 2
    decay_mult: 0
  }
  convolution_param {
    num_output: 112
    kernel_size: 1
    weight_filler {
      type: "xavier"
      std: 0.03
    }
    bias_filler {
      type: "constant"
      value: 0.2
    }
  }
}
layer {
  name: "inception_4d/relu_1x1"
  type: "ReLU"
  bottom: "inception_4d/1x1"
  top: "inception_4d/1x1"
}
layer {
  name: "inception_4d/3x3_reduce"
  type: "Convolution"
  bottom: "inception_4c/output"
  top: "inception_4d/3x3_reduce"
  param {
    lr_mult: 1
    decay_mult: 1
  }
  param {
    lr_mult: 2
    decay_mult: 0
  }
  convolution_param {
    num_output: 144
    kernel_size: 1
    weight_filler {
      type: "xavier"
      std: 0.09
    }
    bias_filler {
      type: "constant"
      value: 0.2
    }
  }
}
layer {
  name: "inception_4d/relu_3x3_reduce"
  type: "ReLU"
  bottom: "inception_4d/3x3_reduce"
  top: "inception_4d/3x3_reduce"
}
layer {
  name: "inception_4d/3x3"
  type: "Convolution"
  bottom: "inception_4d/3x3_reduce"
  top: "inception_4d/3x3"
  param {
    lr_mult: 1
    decay_mult: 1
  }
  param {
    lr_mult: 2
    decay_mult: 0
  }
  convolution_param {
    num_output: 288
    pad: 1
    kernel_size: 3
    weight_filler {
      type: "xavier"
      std: 0.03
    }
    bias_filler {
      type: "constant"
      value: 0.2
    }
  }
}
layer {
  name: "inception_4d/relu_3x3"
  type: "ReLU"
  bottom: "inception_4d/3x3"
  top: "inception_4d/3x3"
}
layer {
  name: "inception_4d/5x5_reduce"
  type: "Convolution"
  bottom: "inception_4c/output"
  top: "inception_4d/5x5_reduce"
  param {
    lr_mult: 1
    decay_mult: 1
  }
  param {
    lr_mult: 2
    decay_mult: 0
  }
  convolution_param {
    num_output: 32
    kernel_size: 1
    weight_filler {
      type: "xavier"
      std: 0.2
    }
    bias_filler {
      type: "constant"
      value: 0.2
    }
  }
}
layer {
  name: "inception_4d/relu_5x5_reduce"
  type: "ReLU"
  bottom: "inception_4d/5x5_reduce"
  top: "inception_4d/5x5_reduce"
}
layer {
  name: "inception_4d/5x5"
  type: "Convolution"
  bottom: "inception_4d/5x5_reduce"
  top: "inception_4d/5x5"
  param {
    lr_mult: 1
    decay_mult: 1
  }
  param {
    lr_mult: 2
    decay_mult: 0
  }
  convolution_param {
    num_output: 64
    pad: 2
    kernel_size: 5
    weight_filler {
      type: "xavier"
      std: 0.03
    }
    bias_filler {
      type: "constant"
      value: 0.2
    }
  }
}
layer {
  name: "inception_4d/relu_5x5"
  type: "ReLU"
  bottom: "inception_4d/5x5"
  top: "inception_4d/5x5"
}
layer {
  name: "inception_4d/pool"
  type: "Pooling"
  bottom: "inception_4c/output"
  top: "inception_4d/pool"
  pooling_param {
    pool: MAX
    kernel_size: 3
    stride: 1
    pad: 1
  }
}
layer {
  name: "inception_4d/pool_proj"
  type: "Convolution"
  bottom: "inception_4d/pool"
  top: "inception_4d/pool_proj"
  param {
    lr_mult: 1
    decay_mult: 1
  }
  param {
    lr_mult: 2
    decay_mult: 0
  }
  convolution_param {
    num_output: 64
    kernel_size: 1
    weight_filler {
      type: "xavier"
      std: 0.1
    }
    bias_filler {
      type: "constant"
      value: 0.2
    }
  }
}
layer {
  name: "inception_4d/relu_pool_proj"
  type: "ReLU"
  bottom: "inception_4d/pool_proj"
  top: "inception_4d/pool_proj"
}
layer {
  name: "inception_4d/output"
  type: "Concat"
  bottom: "inception_4d/1x1"
  bottom: "inception_4d/3x3"
  bottom: "inception_4d/5x5"
  bottom: "inception_4d/pool_proj"
  top: "inception_4d/output"
}
layer {
  name: "loss2/ave_pool"
  type: "Pooling"
  bottom: "inception_4d/output"
  top: "loss2/ave_pool"
  pooling_param {
    pool: AVE
    kernel_size: 5
    stride: 3
  }
}
layer {
  name: "loss2/conv"
  type: "Convolution"
  bottom: "loss2/ave_pool"
  top: "loss2/conv"
  param {
    lr_mult: 1
    decay_mult: 1
  }
  param {
    lr_mult: 2
    decay_mult: 0
  }
  convolution_param {
    num_output: 128
    kernel_size: 1
    weight_filler {
      type: "xavier"
      std: 0.08
    }
    bias_filler {
      type: "constant"
      value: 0.2
    }
  }
}
layer {
  name: "loss2/relu_conv"
  type: "ReLU"
  bottom: "loss2/conv"
  top: "loss2/conv"
}
layer {
  name: "loss2/fc"
  type: "InnerProduct"
  bottom: "loss2/conv"
  top: "loss2/fc"
  param {
    lr_mult: 1
    decay_mult: 1
  }
  param {
    lr_mult: 2
    decay_mult: 0
  }
  inner_product_param {
    num_output: 1024
    weight_filler {
      type: "xavier"
      std: 0.02
    }
    bias_filler {
      type: "constant"
      value: 0.2
    }
  }
}
layer {
  name: "loss2/relu_fc"
  type: "ReLU"
  bottom: "loss2/fc"
  top: "loss2/fc"
}
layer {
  name: "loss2/drop_fc"
  type: "Dropout"
  bottom: "loss2/fc"
  top: "loss2/fc"
  dropout_param {
    dropout_ratio: 0.7
  }
}
layer {
  name: "loss2/classifier_plantvillage"
  type: "InnerProduct"
  bottom: "loss2/fc"
  top: "loss2/classifier_plantvillage"
  param {
    lr_mult: 1
    decay_mult: 1
  }
  param {
    lr_mult: 2
    decay_mult: 0
  }
  inner_product_param {
    num_output: 38
    weight_filler {
      type: "xavier"
      std: 0.0009765625
    }
    bias_filler {
      type: "constant"
      value: 0
    }
  }
}
layer {
  name: "inception_4e/1x1"
  type: "Convolution"
  bottom: "inception_4d/output"
  top: "inception_4e/1x1"
  param {
    lr_mult: 1
    decay_mult: 1
  }
  param {
    lr_mult: 2
    decay_mult: 0
  }
  convolution_param {
    num_output: 256
    kernel_size: 1
    weight_filler {
      type: "xavier"
      std: 0.03
    }
    bias_filler {
      type: "constant"
      value: 0.2
    }
  }
}
layer {
  name: "inception_4e/relu_1x1"
  type: "ReLU"
  bottom: "inception_4e/1x1"
  top: "inception_4e/1x1"
}
layer {
  name: "inception_4e/3x3_reduce"
  type: "Convolution"
  bottom: "inception_4d/output"
  top: "inception_4e/3x3_reduce"
  param {
    lr_mult: 1
    decay_mult: 1
  }
  param {
    lr_mult: 2
    decay_mult: 0
  }
  convolution_param {
    num_output: 160
    kernel_size: 1
    weight_filler {
      type: "xavier"
      std: 0.09
    }
    bias_filler {
      type: "constant"
      value: 0.2
    }
  }
}
layer {
  name: "inception_4e/relu_3x3_reduce"
  type: "ReLU"
  bottom: "inception_4e/3x3_reduce"
  top: "inception_4e/3x3_reduce"
}
layer {
  name: "inception_4e/3x3"
  type: "Convolution"
  bottom: "inception_4e/3x3_reduce"
  top: "inception_4e/3x3"
  param {
    lr_mult: 1
    decay_mult: 1
  }
  param {
    lr_mult: 2
    decay_mult: 0
  }
  convolution_param {
    num_output: 320
    pad: 1
    kernel_size: 3
    weight_filler {
      type: "xavier"
      std: 0.03
    }
    bias_filler {
      type: "constant"
      value: 0.2
    }
  }
}
layer {
  name: "inception_4e/relu_3x3"
  type: "ReLU"
  bottom: "inception_4e/3x3"
  top: "inception_4e/3x3"
}
layer {
  name: "inception_4e/5x5_reduce"
  type: "Convolution"
  bottom: "inception_4d/output"
  top: "inception_4e/5x5_reduce"
  param {
    lr_mult: 1
    decay_mult: 1
  }
  param {
    lr_mult: 2
    decay_mult: 0
  }
  convolution_param {
    num_output: 32
    kernel_size: 1
    weight_filler {
      type: "xavier"
      std: 0.2
    }
    bias_filler {
      type: "constant"
      value: 0.2
    }
  }
}
layer {
  name: "inception_4e/relu_5x5_reduce"
  type: "ReLU"
  bottom: "inception_4e/5x5_reduce"
  top: "inception_4e/5x5_reduce"
}
layer {
  name: "inception_4e/5x5"
  type: "Convolution"
  bottom: "inception_4e/5x5_reduce"
  top: "inception_4e/5x5"
 
I0403 02:30:37.496489 30257 layer_factory.hpp:77] Creating layer data
I0403 02:30:37.497256 30257 net.cpp:91] Creating Layer data
I0403 02:30:37.497305 30257 net.cpp:399] data -> data
I0403 02:30:37.497370 30257 net.cpp:399] data -> label
I0403 02:30:37.497414 30257 data_transformer.cpp:25] Loading mean file from: /home/mohanty/data/final_dataset/lmdb/color-40-60/mean.binaryproto
I0403 02:30:37.524380 30262 db_lmdb.cpp:38] Opened lmdb /home/mohanty/data/final_dataset/lmdb/color-40-60/train_db
I0403 02:30:37.537425 30257 data_layer.cpp:41] output data size: 24,3,224,224
I0403 02:30:37.571612 30257 net.cpp:141] Setting up data
I0403 02:30:37.571727 30257 net.cpp:148] Top shape: 24 3 224 224 (3612672)
I0403 02:30:37.571755 30257 net.cpp:148] Top shape: 24 (24)
I0403 02:30:37.571776 30257 net.cpp:156] Memory required for data: 14450784
I0403 02:30:37.571851 30257 layer_factory.hpp:77] Creating layer label_data_1_split
I0403 02:30:37.571890 30257 net.cpp:91] Creating Layer label_data_1_split
I0403 02:30:37.571915 30257 net.cpp:425] label_data_1_split <- label
I0403 02:30:37.571954 30257 net.cpp:399] label_data_1_split -> label_data_1_split_0
I0403 02:30:37.571990 30257 net.cpp:399] label_data_1_split -> label_data_1_split_1
I0403 02:30:37.572015 30257 net.cpp:399] label_data_1_split -> label_data_1_split_2
I0403 02:30:37.572109 30257 net.cpp:141] Setting up label_data_1_split
I0403 02:30:37.572140 30257 net.cpp:148] Top shape: 24 (24)
I0403 02:30:37.572160 30257 net.cpp:148] Top shape: 24 (24)
I0403 02:30:37.572178 30257 net.cpp:148] Top shape: 24 (24)
I0403 02:30:37.572196 30257 net.cpp:156] Memory required for data: 14451072
I0403 02:30:37.572216 30257 layer_factory.hpp:77] Creating layer conv1/7x7_s2
I0403 02:30:37.572259 30257 net.cpp:91] Creating Layer conv1/7x7_s2
I0403 02:30:37.572280 30257 net.cpp:425] conv1/7x7_s2 <- data
I0403 02:30:37.572304 30257 net.cpp:399] conv1/7x7_s2 -> conv1/7x7_s2
I0403 02:30:37.573707 30257 net.cpp:141] Setting up conv1/7x7_s2
I0403 02:30:37.573741 30257 net.cpp:148] Top shape: 24 64 112 112 (19267584)
I0403 02:30:37.573761 30257 net.cpp:156] Memory required for data: 91521408
I0403 02:30:37.573819 30257 layer_factory.hpp:77] Creating layer conv1/relu_7x7
I0403 02:30:37.573869 30257 net.cpp:91] Creating Layer conv1/relu_7x7
I0403 02:30:37.573894 30257 net.cpp:425] conv1/relu_7x7 <- conv1/7x7_s2
I0403 02:30:37.573915 30257 net.cpp:386] conv1/relu_7x7 -> conv1/7x7_s2 (in-place)
I0403 02:30:37.573957 30257 net.cpp:141] Setting up conv1/relu_7x7
I0403 02:30:37.573982 30257 net.cpp:148] Top shape: 24 64 112 112 (19267584)
I0403 02:30:37.574000 30257 net.cpp:156] Memory required for data: 168591744
I0403 02:30:37.574018 30257 layer_factory.hpp:77] Creating layer pool1/3x3_s2
I0403 02:30:37.574041 30257 net.cpp:91] Creating Layer pool1/3x3_s2
I0403 02:30:37.574061 30257 net.cpp:425] pool1/3x3_s2 <- conv1/7x7_s2
I0403 02:30:37.574084 30257 net.cpp:399] pool1/3x3_s2 -> pool1/3x3_s2
I0403 02:30:37.574179 30257 net.cpp:141] Setting up pool1/3x3_s2
I0403 02:30:37.574209 30257 net.cpp:148] Top shape: 24 64 56 56 (4816896)
I0403 02:30:37.574229 30257 net.cpp:156] Memory required for data: 187859328
I0403 02:30:37.574245 30257 layer_factory.hpp:77] Creating layer pool1/norm1
I0403 02:30:37.574270 30257 net.cpp:91] Creating Layer pool1/norm1
I0403 02:30:37.574288 30257 net.cpp:425] pool1/norm1 <- pool1/3x3_s2
I0403 02:30:37.574311 30257 net.cpp:399] pool1/norm1 -> pool1/norm1
I0403 02:30:37.574403 30257 net.cpp:141] Setting up pool1/norm1
I0403 02:30:37.574431 30257 net.cpp:148] Top shape: 24 64 56 56 (4816896)
I0403 02:30:37.574450 30257 net.cpp:156] Memory required for data: 207126912
I0403 02:30:37.574470 30257 layer_factory.hpp:77] Creating layer conv2/3x3_reduce
I0403 02:30:37.574496 30257 net.cpp:91] Creating Layer conv2/3x3_reduce
I0403 02:30:37.574517 30257 net.cpp:425] conv2/3x3_reduce <- pool1/norm1
I0403 02:30:37.574539 30257 net.cpp:399] conv2/3x3_reduce -> conv2/3x3_reduce
I0403 02:30:37.575426 30257 net.cpp:141] Setting up conv2/3x3_reduce
I0403 02:30:37.575464 30257 net.cpp:148] Top shape: 24 64 56 56 (4816896)
I0403 02:30:37.575484 30257 net.cpp:156] Memory required for data: 226394496
I0403 02:30:37.575508 30257 layer_factory.hpp:77] Creating layer conv2/relu_3x3_reduce
I0403 02:30:37.575532 30257 net.cpp:91] Creating Layer conv2/relu_3x3_reduce
I0403 02:30:37.575551 30257 net.cpp:425] conv2/relu_3x3_reduce <- conv2/3x3_reduce
I0403 02:30:37.575574 30257 net.cpp:386] conv2/relu_3x3_reduce -> conv2/3x3_reduce (in-place)
I0403 02:30:37.575601 30257 net.cpp:141] Setting up conv2/relu_3x3_reduce
I0403 02:30:37.575626 30257 net.cpp:148] Top shape: 24 64 56 56 (4816896)
I0403 02:30:37.575644 30257 net.cpp:156] Memory required for data: 245662080
I0403 02:30:37.575664 30257 layer_factory.hpp:77] Creating layer conv2/3x3
I0403 02:30:37.575690 30257 net.cpp:91] Creating Layer conv2/3x3
I0403 02:30:37.575712 30257 net.cpp:425] conv2/3x3 <- conv2/3x3_reduce
I0403 02:30:37.575755 30257 net.cpp:399] conv2/3x3 -> conv2/3x3
I0403 02:30:37.577358 30257 net.cpp:141] Setting up conv2/3x3
I0403 02:30:37.577394 30257 net.cpp:148] Top shape: 24 192 56 56 (14450688)
I0403 02:30:37.577414 30257 net.cpp:156] Memory required for data: 303464832
I0403 02:30:37.577440 30257 layer_factory.hpp:77] Creating layer conv2/relu_3x3
I0403 02:30:37.577462 30257 net.cpp:91] Creating Layer conv2/relu_3x3
I0403 02:30:37.577482 30257 net.cpp:425] conv2/relu_3x3 <- conv2/3x3
I0403 02:30:37.577503 30257 net.cpp:386] conv2/relu_3x3 -> conv2/3x3 (in-place)
I0403 02:30:37.577527 30257 net.cpp:141] Setting up conv2/relu_3x3
I0403 02:30:37.577548 30257 net.cpp:148] Top shape: 24 192 56 56 (14450688)
I0403 02:30:37.577564 30257 net.cpp:156] Memory required for data: 361267584
I0403 02:30:37.577581 30257 layer_factory.hpp:77] Creating layer conv2/norm2
I0403 02:30:37.577608 30257 net.cpp:91] Creating Layer conv2/norm2
I0403 02:30:37.577628 30257 net.cpp:425] conv2/norm2 <- conv2/3x3
I0403 02:30:37.577651 30257 net.cpp:399] conv2/norm2 -> conv2/norm2
I0403 02:30:37.577707 30257 net.cpp:141] Setting up conv2/norm2
I0403 02:30:37.577734 30257 net.cpp:148] Top shape: 24 192 56 56 (14450688)
I0403 02:30:37.577752 30257 net.cpp:156] Memory required for data: 419070336
I0403 02:30:37.577770 30257 layer_factory.hpp:77] Creating layer pool2/3x3_s2
I0403 02:30:37.577793 30257 net.cpp:91] Creating Layer pool2/3x3_s2
I0403 02:30:37.577814 30257 net.cpp:425] pool2/3x3_s2 <- conv2/norm2
I0403 02:30:37.577836 30257 net.cpp:399] pool2/3x3_s2 -> pool2/3x3_s2
I0403 02:30:37.577888 30257 net.cpp:141] Setting up pool2/3x3_s2
I0403 02:30:37.577913 30257 net.cpp:148] Top shape: 24 192 28 28 (3612672)
I0403 02:30:37.577932 30257 net.cpp:156] Memory required for data: 433521024
I0403 02:30:37.577950 30257 layer_factory.hpp:77] Creating layer pool2/3x3_s2_pool2/3x3_s2_0_split
I0403 02:30:37.577975 30257 net.cpp:91] Creating Layer pool2/3x3_s2_pool2/3x3_s2_0_split
I0403 02:30:37.577993 30257 net.cpp:425] pool2/3x3_s2_pool2/3x3_s2_0_split <- pool2/3x3_s2
I0403 02:30:37.578017 30257 net.cpp:399] pool2/3x3_s2_pool2/3x3_s2_0_split -> pool2/3x3_s2_pool2/3x3_s2_0_split_0
I0403 02:30:37.578042 30257 net.cpp:399] pool2/3x3_s2_pool2/3x3_s2_0_split -> pool2/3x3_s2_pool2/3x3_s2_0_split_1
I0403 02:30:37.578065 30257 net.cpp:399] pool2/3x3_s2_pool2/3x3_s2_0_split -> pool2/3x3_s2_pool2/3x3_s2_0_split_2
I0403 02:30:37.578089 30257 net.cpp:399] pool2/3x3_s2_pool2/3x3_s2_0_split -> pool2/3x3_s2_pool2/3x3_s2_0_split_3
I0403 02:30:37.578161 30257 net.cpp:141] Setting up pool2/3x3_s2_pool2/3x3_s2_0_split
I0403 02:30:37.578191 30257 net.cpp:148] Top shape: 24 192 28 28 (3612672)
I0403 02:30:37.578212 30257 net.cpp:148] Top shape: 24 192 28 28 (3612672)
I0403 02:30:37.578229 30257 net.cpp:148] Top shape: 24 192 28 28 (3612672)
I0403 02:30:37.578248 30257 net.cpp:148] Top shape: 24 192 28 28 (3612672)
I0403 02:30:37.578265 30257 net.cpp:156] Memory required for data: 491323776
I0403 02:30:37.578284 30257 layer_factory.hpp:77] Creating layer inception_3a/1x1
I0403 02:30:37.578310 30257 net.cpp:91] Creating Layer inception_3a/1x1
I0403 02:30:37.578331 30257 net.cpp:425] inception_3a/1x1 <- pool2/3x3_s2_pool2/3x3_s2_0_split_0
I0403 02:30:37.578356 30257 net.cpp:399] inception_3a/1x1 -> inception_3a/1x1
I0403 02:30:37.579308 30257 net.cpp:141] Setting up inception_3a/1x1
I0403 02:30:37.579344 30257 net.cpp:148] Top shape: 24 64 28 28 (1204224)
I0403 02:30:37.579365 30257 net.cpp:156] Memory required for data: 496140672
I0403 02:30:37.579387 30257 layer_factory.hpp:77] Creating layer inception_3a/relu_1x1
I0403 02:30:37.579411 30257 net.cpp:91] Creating Layer inception_3a/relu_1x1
I0403 02:30:37.579429 30257 net.cpp:425] inception_3a/relu_1x1 <- inception_3a/1x1
I0403 02:30:37.579450 30257 net.cpp:386] inception_3a/relu_1x1 -> inception_3a/1x1 (in-place)
I0403 02:30:37.579473 30257 net.cpp:141] Setting up inception_3a/relu_1x1
I0403 02:30:37.579494 30257 net.cpp:148] Top shape: 24 64 28 28 (1204224)
I0403 02:30:37.579511 30257 net.cpp:156] Memory required for data: 500957568
I0403 02:30:37.579547 30257 layer_factory.hpp:77] Creating layer inception_3a/3x3_reduce
I0403 02:30:37.579576 30257 net.cpp:91] Creating Layer inception_3a/3x3_reduce
I0403 02:30:37.579602 30257 net.cpp:425] inception_3a/3x3_reduce <- pool2/3x3_s2_pool2/3x3_s2_0_split_1
I0403 02:30:37.579629 30257 net.cpp:399] inception_3a/3x3_reduce -> inception_3a/3x3_reduce
I0403 02:30:37.580629 30257 net.cpp:141] Setting up inception_3a/3x3_reduce
I0403 02:30:37.580667 30257 net.cpp:148] Top shape: 24 96 28 28 (1806336)
I0403 02:30:37.580687 30257 net.cpp:156] Memory required for data: 508182912
I0403 02:30:37.580713 30257 layer_factory.hpp:77] Creating layer inception_3a/relu_3x3_reduce
I0403 02:30:37.580740 30257 net.cpp:91] Creating Layer inception_3a/relu_3x3_reduce
I0403 02:30:37.580761 30257 net.cpp:425] inception_3a/relu_3x3_reduce <- inception_3a/3x3_reduce
I0403 02:30:37.580782 30257 net.cpp:386] inception_3a/relu_3x3_reduce -> inception_3a/3x3_reduce (in-place)
I0403 02:30:37.580807 30257 net.cpp:141] Setting up inception_3a/relu_3x3_reduce
I0403 02:30:37.580829 30257 net.cpp:148] Top shape: 24 96 28 28 (1806336)
I0403 02:30:37.580848 30257 net.cpp:156] Memory required for data: 515408256
I0403 02:30:37.580868 30257 layer_factory.hpp:77] Creating layer inception_3a/3x3
I0403 02:30:37.580896 30257 net.cpp:91] Creating Layer inception_3a/3x3
I0403 02:30:37.580919 30257 net.cpp:425] inception_3a/3x3 <- inception_3a/3x3_reduce
I0403 02:30:37.580946 30257 net.cpp:399] inception_3a/3x3 -> inception_3a/3x3
I0403 02:30:37.581923 30257 net.cpp:141] Setting up inception_3a/3x3
I0403 02:30:37.581954 30257 net.cpp:148] Top shape: 24 128 28 28 (2408448)
I0403 02:30:37.581972 30257 net.cpp:156] Memory required for data: 525042048
I0403 02:30:37.581995 30257 layer_factory.hpp:77] Creating layer inception_3a/relu_3x3
I0403 02:30:37.582016 30257 net.cpp:91] Creating Layer inception_3a/relu_3x3
I0403 02:30:37.582036 30257 net.cpp:425] inception_3a/relu_3x3 <- inception_3a/3x3
I0403 02:30:37.582059 30257 net.cpp:386] inception_3a/relu_3x3 -> inception_3a/3x3 (in-place)
I0403 02:30:37.582083 30257 net.cpp:141] Setting up inception_3a/relu_3x3
I0403 02:30:37.582104 30257 net.cpp:148] Top shape: 24 128 28 28 (2408448)
I0403 02:30:37.582121 30257 net.cpp:156] Memory required for data: 534675840
I0403 02:30:37.582139 30257 layer_factory.hpp:77] Creating layer inception_3a/5x5_reduce
I0403 02:30:37.582167 30257 net.cpp:91] Creating Layer inception_3a/5x5_reduce
I0403 02:30:37.582190 30257 net.cpp:425] inception_3a/5x5_reduce <- pool2/3x3_s2_pool2/3x3_s2_0_split_2
I0403 02:30:37.582213 30257 net.cpp:399] inception_3a/5x5_reduce -> inception_3a/5x5_reduce
I0403 02:30:37.582484 30257 net.cpp:141] Setting up inception_3a/5x5_reduce
I0403 02:30:37.582517 30257 net.cpp:148] Top shape: 24 16 28 28 (301056)
I0403 02:30:37.582537 30257 net.cpp:156] Memory required for data: 535880064
I0403 02:30:37.582561 30257 layer_factory.hpp:77] Creating layer inception_3a/relu_5x5_reduce
I0403 02:30:37.582583 30257 net.cpp:91] Creating Layer inception_3a/relu_5x5_reduce
I0403 02:30:37.589375 30257 net.cpp:425] inception_3a/relu_5x5_reduce <- inception_3a/5x5_reduce
I0403 02:30:37.589411 30257 net.cpp:386] inception_3a/relu_5x5_reduce -> inception_3a/5x5_reduce (in-place)
I0403 02:30:37.589440 30257 net.cpp:141] Setting up inception_3a/relu_5x5_reduce
I0403 02:30:37.589465 30257 net.cpp:148] Top shape: 24 16 28 28 (301056)
I0403 02:30:37.589484 30257 net.cpp:156] Memory required for data: 537084288
I0403 02:30:37.589503 30257 layer_factory.hpp:77] Creating layer inception_3a/5x5
I0403 02:30:37.589532 30257 net.cpp:91] Creating Layer inception_3a/5x5
I0403 02:30:37.589555 30257 net.cpp:425] inception_3a/5x5 <- inception_3a/5x5_reduce
I0403 02:30:37.589583 30257 net.cpp:399] inception_3a/5x5 -> inception_3a/5x5
I0403 02:30:37.589947 30257 net.cpp:141] Setting up inception_3a/5x5
I0403 02:30:37.589980 30257 net.cpp:148] Top shape: 24 32 28 28 (602112)
I0403 02:30:37.589999 30257 net.cpp:156] Memory required for data: 539492736
I0403 02:30:37.590044 30257 layer_factory.hpp:77] Creating layer inception_3a/relu_5x5
I0403 02:30:37.590071 30257 net.cpp:91] Creating Layer inception_3a/relu_5x5
I0403 02:30:37.590095 30257 net.cpp:425] inception_3a/relu_5x5 <- inception_3a/5x5
I0403 02:30:37.590116 30257 net.cpp:386] inception_3a/relu_5x5 -> inception_3a/5x5 (in-place)
I0403 02:30:37.590140 30257 net.cpp:141] Setting up inception_3a/relu_5x5
I0403 02:30:37.590162 30257 net.cpp:148] Top shape: 24 32 28 28 (602112)
I0403 02:30:37.590179 30257 net.cpp:156] Memory required for data: 541901184
I0403 02:30:37.590198 30257 layer_factory.hpp:77] Creating layer inception_3a/pool
I0403 02:30:37.590221 30257 net.cpp:91] Creating Layer inception_3a/pool
I0403 02:30:37.590242 30257 net.cpp:425] inception_3a/pool <- pool2/3x3_s2_pool2/3x3_s2_0_split_3
I0403 02:30:37.590265 30257 net.cpp:399] inception_3a/pool -> inception_3a/pool
I0403 02:30:37.590325 30257 net.cpp:141] Setting up inception_3a/pool
I0403 02:30:37.590356 30257 net.cpp:148] Top shape: 24 192 28 28 (3612672)
I0403 02:30:37.590375 30257 net.cpp:156] Memory required for data: 556351872
I0403 02:30:37.590394 30257 layer_factory.hpp:77] Creating layer inception_3a/pool_proj
I0403 02:30:37.590420 30257 net.cpp:91] Creating Layer inception_3a/pool_proj
I0403 02:30:37.590441 30257 net.cpp:425] inception_3a/pool_proj <- inception_3a/pool
I0403 02:30:37.590468 30257 net.cpp:399] inception_3a/pool_proj -> inception_3a/pool_proj
I0403 02:30:37.590759 30257 net.cpp:141] Setting up inception_3a/pool_proj
I0403 02:30:37.590790 30257 net.cpp:148] Top shape: 24 32 28 28 (602112)
I0403 02:30:37.590809 30257 net.cpp:156] Memory required for data: 558760320
I0403 02:30:37.590837 30257 layer_factory.hpp:77] Creating layer inception_3a/relu_pool_proj
I0403 02:30:37.590864 30257 net.cpp:91] Creating Layer inception_3a/relu_pool_proj
I0403 02:30:37.590885 30257 net.cpp:425] inception_3a/relu_pool_proj <- inception_3a/pool_proj
I0403 02:30:37.590906 30257 net.cpp:386] inception_3a/relu_pool_proj -> inception_3a/pool_proj (in-place)
I0403 02:30:37.590931 30257 net.cpp:141] Setting up inception_3a/relu_pool_proj
I0403 02:30:37.590952 30257 net.cpp:148] Top shape: 24 32 28 28 (602112)
I0403 02:30:37.590971 30257 net.cpp:156] Memory required for data: 561168768
I0403 02:30:37.590988 30257 layer_factory.hpp:77] Creating layer inception_3a/output
I0403 02:30:37.591011 30257 net.cpp:91] Creating Layer inception_3a/output
I0403 02:30:37.591028 30257 net.cpp:425] inception_3a/output <- inception_3a/1x1
I0403 02:30:37.591048 30257 net.cpp:425] inception_3a/output <- inception_3a/3x3
I0403 02:30:37.591068 30257 net.cpp:425] inception_3a/output <- inception_3a/5x5
I0403 02:30:37.591087 30257 net.cpp:425] inception_3a/output <- inception_3a/pool_proj
I0403 02:30:37.591112 30257 net.cpp:399] inception_3a/output -> inception_3a/output
I0403 02:30:37.591190 30257 net.cpp:141] Setting up inception_3a/output
I0403 02:30:37.591223 30257 net.cpp:148] Top shape: 24 256 28 28 (4816896)
I0403 02:30:37.591244 30257 net.cpp:156] Memory required for data: 580436352
I0403 02:30:37.591264 30257 layer_factory.hpp:77] Creating layer inception_3a/output_inception_3a/output_0_split
I0403 02:30:37.591286 30257 net.cpp:91] Creating Layer inception_3a/output_inception_3a/output_0_split
I0403 02:30:37.591305 30257 net.cpp:425] inception_3a/output_inception_3a/output_0_split <- inception_3a/output
I0403 02:30:37.591326 30257 net.cpp:399] inception_3a/output_inception_3a/output_0_split -> inception_3a/output_inception_3a/output_0_split_0
I0403 02:30:37.591354 30257 net.cpp:399] inception_3a/output_inception_3a/output_0_split -> inception_3a/output_inception_3a/output_0_split_1
I0403 02:30:37.591382 30257 net.cpp:399] inception_3a/output_inception_3a/output_0_split -> inception_3a/output_inception_3a/output_0_split_2
I0403 02:30:37.591408 30257 net.cpp:399] inception_3a/output_inception_3a/output_0_split -> inception_3a/output_inception_3a/output_0_split_3
I0403 02:30:37.591486 30257 net.cpp:141] Setting up inception_3a/output_inception_3a/output_0_split
I0403 02:30:37.591529 30257 net.cpp:148] Top shape: 24 256 28 28 (4816896)
I0403 02:30:37.591550 30257 net.cpp:148] Top shape: 24 256 28 28 (4816896)
I0403 02:30:37.591570 30257 net.cpp:148] Top shape: 24 256 28 28 (4816896)
I0403 02:30:37.591589 30257 net.cpp:148] Top shape: 24 256 28 28 (4816896)
I0403 02:30:37.591614 30257 net.cpp:156] Memory required for data: 657506688
I0403 02:30:37.591634 30257 layer_factory.hpp:77] Creating layer inception_3b/1x1
I0403 02:30:37.591663 30257 net.cpp:91] Creating Layer inception_3b/1x1
I0403 02:30:37.591686 30257 net.cpp:425] inception_3b/1x1 <- inception_3a/output_inception_3a/output_0_split_0
I0403 02:30:37.591712 30257 net.cpp:399] inception_3b/1x1 -> inception_3b/1x1
I0403 02:30:37.592171 30257 net.cpp:141] Setting up inception_3b/1x1
I0403 02:30:37.592203 30257 net.cpp:148] Top shape: 24 128 28 28 (2408448)
I0403 02:30:37.592222 30257 net.cpp:156] Memory required for data: 667140480
I0403 02:30:37.592244 30257 layer_factory.hpp:77] Creating layer inception_3b/relu_1x1
I0403 02:30:37.592267 30257 net.cpp:91] Creating Layer inception_3b/relu_1x1
I0403 02:30:37.592288 30257 net.cpp:425] inception_3b/relu_1x1 <- inception_3b/1x1
I0403 02:30:37.592308 30257 net.cpp:386] inception_3b/relu_1x1 -> inception_3b/1x1 (in-place)
I0403 02:30:37.592331 30257 net.cpp:141] Setting up inception_3b/relu_1x1
I0403 02:30:37.592353 30257 net.cpp:148] Top shape: 24 128 28 28 (2408448)
I0403 02:30:37.592370 30257 net.cpp:156] Memory required for data: 676774272
I0403 02:30:37.592388 30257 layer_factory.hpp:77] Creating layer inception_3b/3x3_reduce
I0403 02:30:37.592417 30257 net.cpp:91] Creating Layer inception_3b/3x3_reduce
I0403 02:30:37.592440 30257 net.cpp:425] inception_3b/3x3_reduce <- inception_3a/output_inception_3a/output_0_split_1
I0403 02:30:37.592468 30257 net.cpp:399] inception_3b/3x3_reduce -> inception_3b/3x3_reduce
I0403 02:30:37.592942 30257 net.cpp:141] Setting up inception_3b/3x3_reduce
I0403 02:30:37.592975 30257 net.cpp:148] Top shape: 24 128 28 28 (2408448)
I0403 02:30:37.592994 30257 net.cpp:156] Memory required for data: 686408064
I0403 02:30:37.593016 30257 layer_factory.hpp:77] Creating layer inception_3b/relu_3x3_reduce
I0403 02:30:37.593039 30257 net.cpp:91] Creating Layer inception_3b/relu_3x3_reduce
I0403 02:30:37.593060 30257 net.cpp:425] inception_3b/relu_3x3_reduce <- inception_3b/3x3_reduce
I0403 02:30:37.593086 30257 net.cpp:386] inception_3b/relu_3x3_reduce -> inception_3b/3x3_reduce (in-place)
I0403 02:30:37.593111 30257 net.cpp:141] Setting up inception_3b/relu_3x3_reduce
I0403 02:30:37.593132 30257 net.cpp:148] Top shape: 24 128 28 28 (2408448)
I0403 02:30:37.593152 30257 net.cpp:156] Memory required for data: 696041856
I0403 02:30:37.593168 30257 layer_factory.hpp:77] Creating layer inception_3b/3x3
I0403 02:30:37.593200 30257 net.cpp:91] Creating Layer inception_3b/3x3
I0403 02:30:37.593224 30257 net.cpp:425] inception_3b/3x3 <- inception_3b/3x3_reduce
I0403 02:30:37.593250 30257 net.cpp:399] inception_3b/3x3 -> inception_3b/3x3
I0403 02:30:37.595639 30257 net.cpp:141] Setting up inception_3b/3x3
I0403 02:30:37.595676 30257 net.cpp:148] Top shape: 24 192 28 28 (3612672)
I0403 02:30:37.595696 30257 net.cpp:156] Memory required for data: 710492544
I0403 02:30:37.595720 30257 layer_factory.hpp:77] Creating layer inception_3b/relu_3x3
I0403 02:30:37.595746 30257 net.cpp:91] Creating Layer inception_3b/relu_3x3
I0403 02:30:37.595767 30257 net.cpp:425] inception_3b/relu_3x3 <- inception_3b/3x3
I0403 02:30:37.595788 30257 net.cpp:386] inception_3b/relu_3x3 -> inception_3b/3x3 (in-place)
I0403 02:30:37.595811 30257 net.cpp:141] Setting up inception_3b/relu_3x3
I0403 02:30:37.595832 30257 net.cpp:148] Top shape: 24 192 28 28 (3612672)
I0403 02:30:37.595850 30257 net.cpp:156] Memory required for data: 724943232
I0403 02:30:37.595868 30257 layer_factory.hpp:77] Creating layer inception_3b/5x5_reduce
I0403 02:30:37.595897 30257 net.cpp:91] Creating Layer inception_3b/5x5_reduce
I0403 02:30:37.595919 30257 net.cpp:425] inception_3b/5x5_reduce <- inception_3a/output_inception_3a/output_0_split_2
I0403 02:30:37.595965 30257 net.cpp:399] inception_3b/5x5_reduce -> inception_3b/5x5_reduce
I0403 02:30:37.596271 30257 net.cpp:141] Setting up inception_3b/5x5_reduce
I0403 02:30:37.596303 30257 net.cpp:148] Top shape: 24 32 28 28 (602112)
I0403 02:30:37.596323 30257 net.cpp:156] Memory required for data: 727351680
I0403 02:30:37.596345 30257 layer_factory.hpp:77] Creating layer inception_3b/relu_5x5_reduce
I0403 02:30:37.596366 30257 net.cpp:91] Creating Layer inception_3b/relu_5x5_reduce
I0403 02:30:37.596386 30257 net.cpp:425] inception_3b/relu_5x5_reduce <- inception_3b/5x5_reduce
I0403 02:30:37.596407 30257 net.cpp:386] inception_3b/relu_5x5_reduce -> inception_3b/5x5_reduce (in-place)
I0403 02:30:37.596431 30257 net.cpp:141] Setting up inception_3b/relu_5x5_reduce
I0403 02:30:37.596451 30257 net.cpp:148] Top shape: 24 32 28 28 (602112)
I0403 02:30:37.596470 30257 net.cpp:156] Memory required for data: 729760128
I0403 02:30:37.596488 30257 layer_factory.hpp:77] Creating layer inception_3b/5x5
I0403 02:30:37.596518 30257 net.cpp:91] Creating Layer inception_3b/5x5
I0403 02:30:37.596539 30257 net.cpp:425] inception_3b/5x5 <- inception_3b/5x5_reduce
I0403 02:30:37.596565 30257 net.cpp:399] inception_3b/5x5 -> inception_3b/5x5
I0403 02:30:37.597975 30257 net.cpp:141] Setting up inception_3b/5x5
I0403 02:30:37.598012 30257 net.cpp:148] Top shape: 24 96 28 28 (1806336)
I0403 02:30:37.598032 30257 net.cpp:156] Memory required for data: 736985472
I0403 02:30:37.598055 30257 layer_factory.hpp:77] Creating layer inception_3b/relu_5x5
I0403 02:30:37.598079 30257 net.cpp:91] Creating Layer inception_3b/relu_5x5
I0403 02:30:37.598099 30257 net.cpp:425] inception_3b/relu_5x5 <- inception_3b/5x5
I0403 02:30:37.598122 30257 net.cpp:386] inception_3b/relu_5x5 -> inception_3b/5x5 (in-place)
I0403 02:30:37.598145 30257 net.cpp:141] Setting up inception_3b/relu_5x5
I0403 02:30:37.598166 30257 net.cpp:148] Top shape: 24 96 28 28 (1806336)
I0403 02:30:37.598183 30257 net.cpp:156] Memory required for data: 744210816
I0403 02:30:37.598201 30257 layer_factory.hpp:77] Creating layer inception_3b/pool
I0403 02:30:37.598224 30257 net.cpp:91] Creating Layer inception_3b/pool
I0403 02:30:37.598247 30257 net.cpp:425] inception_3b/pool <- inception_3a/output_inception_3a/output_0_split_3
I0403 02:30:37.598268 30257 net.cpp:399] inception_3b/pool -> inception_3b/pool
I0403 02:30:37.598331 30257 net.cpp:141] Setting up inception_3b/pool
I0403 02:30:37.598361 30257 net.cpp:148] Top shape: 24 256 28 28 (4816896)
I0403 02:30:37.598379 30257 net.cpp:156] Memory required for data: 763478400
I0403 02:30:37.598397 30257 layer_factory.hpp:77] Creating layer inception_3b/pool_proj
I0403 02:30:37.598425 30257 net.cpp:91] Creating Layer inception_3b/pool_proj
I0403 02:30:37.598448 30257 net.cpp:425] inception_3b/pool_proj <- inception_3b/pool
I0403 02:30:37.598474 30257 net.cpp:399] inception_3b/pool_proj -> inception_3b/pool_proj
I0403 02:30:37.598834 30257 net.cpp:141] Setting up inception_3b/pool_proj
I0403 02:30:37.598865 30257 net.cpp:148] Top shape: 24 64 28 28 (1204224)
I0403 02:30:37.598886 30257 net.cpp:156] Memory required for data: 768295296
I0403 02:30:37.598907 30257 layer_factory.hpp:77] Creating layer inception_3b/relu_pool_proj
I0403 02:30:37.598932 30257 net.cpp:91] Creating Layer inception_3b/relu_pool_proj
I0403 02:30:37.598953 30257 net.cpp:425] inception_3b/relu_pool_proj <- inception_3b/pool_proj
I0403 02:30:37.598974 30257 net.cpp:386] inception_3b/relu_pool_proj -> inception_3b/pool_proj (in-place)
I0403 02:30:37.598997 30257 net.cpp:141] Setting up inception_3b/relu_pool_proj
I0403 02:30:37.599017 30257 net.cpp:148] Top shape: 24 64 28 28 (1204224)
I0403 02:30:37.599035 30257 net.cpp:156] Memory required for data: 773112192
I0403 02:30:37.599055 30257 layer_factory.hpp:77] Creating layer inception_3b/output
I0403 02:30:37.599076 30257 net.cpp:91] Creating Layer inception_3b/output
I0403 02:30:37.599095 30257 net.cpp:425] inception_3b/output <- inception_3b/1x1
I0403 02:30:37.599115 30257 net.cpp:425] inception_3b/output <- inception_3b/3x3
I0403 02:30:37.599151 30257 net.cpp:425] inception_3b/output <- inception_3b/5x5
I0403 02:30:37.599174 30257 net.cpp:425] inception_3b/output <- inception_3b/pool_proj
I0403 02:30:37.599200 30257 net.cpp:399] inception_3b/output -> inception_3b/output
I0403 02:30:37.599247 30257 net.cpp:141] Setting up inception_3b/output
I0403 02:30:37.599279 30257 net.cpp:148] Top shape: 24 480 28 28 (9031680)
I0403 02:30:37.599299 30257 net.cpp:156] Memory required for data: 809238912
I0403 02:30:37.599318 30257 layer_factory.hpp:77] Creating layer pool3/3x3_s2
I0403 02:30:37.599339 30257 net.cpp:91] Creating Layer pool3/3x3_s2
I0403 02:30:37.599359 30257 net.cpp:425] pool3/3x3_s2 <- inception_3b/output
I0403 02:30:37.599381 30257 net.cpp:399] pool3/3x3_s2 -> pool3/3x3_s2
I0403 02:30:37.599442 30257 net.cpp:141] Setting up pool3/3x3_s2
I0403 02:30:37.599470 30257 net.cpp:148] Top shape: 24 480 14 14 (2257920)
I0403 02:30:37.599488 30257 net.cpp:156] Memory required for data: 818270592
I0403 02:30:37.599505 30257 layer_factory.hpp:77] Creating layer pool3/3x3_s2_pool3/3x3_s2_0_split
I0403 02:30:37.599527 30257 net.cpp:91] Creating Layer pool3/3x3_s2_pool3/3x3_s2_0_split
I0403 02:30:37.599547 30257 net.cpp:425] pool3/3x3_s2_pool3/3x3_s2_0_split <- pool3/3x3_s2
I0403 02:30:37.599572 30257 net.cpp:399] pool3/3x3_s2_pool3/3x3_s2_0_split -> pool3/3x3_s2_pool3/3x3_s2_0_split_0
I0403 02:30:37.599602 30257 net.cpp:399] pool3/3x3_s2_pool3/3x3_s2_0_split -> pool3/3x3_s2_pool3/3x3_s2_0_split_1
I0403 02:30:37.599629 30257 net.cpp:399] pool3/3x3_s2_pool3/3x3_s2_0_split -> pool3/3x3_s2_pool3/3x3_s2_0_split_2
I0403 02:30:37.599655 30257 net.cpp:399] pool3/3x3_s2_pool3/3x3_s2_0_split -> pool3/3x3_s2_pool3/3x3_s2_0_split_3
I0403 02:30:37.599740 30257 net.cpp:141] Setting up pool3/3x3_s2_pool3/3x3_s2_0_split
I0403 02:30:37.599769 30257 net.cpp:148] Top shape: 24 480 14 14 (2257920)
I0403 02:30:37.599791 30257 net.cpp:148] Top shape: 24 480 14 14 (2257920)
I0403 02:30:37.599810 30257 net.cpp:148] Top shape: 24 480 14 14 (2257920)
I0403 02:30:37.599828 30257 net.cpp:148] Top shape: 24 480 14 14 (2257920)
I0403 02:30:37.599844 30257 net.cpp:156] Memory required for data: 854397312
I0403 02:30:37.599863 30257 layer_factory.hpp:77] Creating layer inception_4a/1x1
I0403 02:30:37.599892 30257 net.cpp:91] Creating Layer inception_4a/1x1
I0403 02:30:37.599913 30257 net.cpp:425] inception_4a/1x1 <- pool3/3x3_s2_pool3/3x3_s2_0_split_0
I0403 02:30:37.599938 30257 net.cpp:399] inception_4a/1x1 -> inception_4a/1x1
I0403 02:30:37.600793 30257 net.cpp:141] Setting up inception_4a/1x1
I0403 02:30:37.600828 30257 net.cpp:148] Top shape: 24 192 14 14 (903168)
I0403 02:30:37.600848 30257 net.cpp:156] Memory required for data: 858009984
I0403 02:30:37.600870 30257 layer_factory.hpp:77] Creating layer inception_4a/relu_1x1
I0403 02:30:37.600894 30257 net.cpp:91] Creating Layer inception_4a/relu_1x1
I0403 02:30:37.600915 30257 net.cpp:425] inception_4a/relu_1x1 <- inception_4a/1x1
I0403 02:30:37.600936 30257 net.cpp:386] inception_4a/relu_1x1 -> inception_4a/1x1 (in-place)
I0403 02:30:37.600960 30257 net.cpp:141] Setting up inception_4a/relu_1x1
I0403 02:30:37.600981 30257 net.cpp:148] Top shape: 24 192 14 14 (903168)
I0403 02:30:37.600999 30257 net.cpp:156] Memory required for data: 861622656
I0403 02:30:37.601017 30257 layer_factory.hpp:77] Creating layer inception_4a/3x3_reduce
I0403 02:30:37.601050 30257 net.cpp:91] Creating Layer inception_4a/3x3_reduce
I0403 02:30:37.601073 30257 net.cpp:425] inception_4a/3x3_reduce <- pool3/3x3_s2_pool3/3x3_s2_0_split_1
I0403 02:30:37.601096 30257 net.cpp:399] inception_4a/3x3_reduce -> inception_4a/3x3_reduce
I0403 02:30:37.601670 30257 net.cpp:141] Setting up inception_4a/3x3_reduce
I0403 02:30:37.601702 30257 net.cpp:148] Top shape: 24 96 14 14 (451584)
I0403 02:30:37.601722 30257 net.cpp:156] Memory required for data: 863428992
I0403 02:30:37.601753 30257 layer_factory.hpp:77] Creating layer inception_4a/relu_3x3_reduce
I0403 02:30:37.601780 30257 net.cpp:91] Creating Layer inception_4a/relu_3x3_reduce
I0403 02:30:37.601817 30257 net.cpp:425] inception_4a/relu_3x3_reduce <- inception_4a/3x3_reduce
I0403 02:30:37.601840 30257 net.cpp:386] inception_4a/relu_3x3_reduce -> inception_4a/3x3_reduce (in-place)
I0403 02:30:37.601864 30257 net.cpp:141] Setting up inception_4a/relu_3x3_reduce
I0403 02:30:37.601886 30257 net.cpp:148] Top shape: 24 96 14 14 (451584)
I0403 02:30:37.601904 30257 net.cpp:156] Memory required for data: 865235328
I0403 02:30:37.601923 30257 layer_factory.hpp:77] Creating layer inception_4a/3x3
I0403 02:30:37.601951 30257 net.cpp:91] Creating Layer inception_4a/3x3
I0403 02:30:37.601974 30257 net.cpp:425] inception_4a/3x3 <- inception_4a/3x3_reduce
I0403 02:30:37.601996 30257 net.cpp:399] inception_4a/3x3 -> inception_4a/3x3
I0403 02:30:37.589354 30263 blocking_queue.cpp:50] Waiting for data
I0403 02:30:37.604128 30257 net.cpp:141] Setting up inception_4a/3x3
I0403 02:30:37.604164 30257 net.cpp:148] Top shape: 24 208 14 14 (978432)
I0403 02:30:37.604184 30257 net.cpp:156] Memory required for data: 869149056
I0403 02:30:37.604207 30257 layer_factory.hpp:77] Creating layer inception_4a/relu_3x3
I0403 02:30:37.604228 30257 net.cpp:91] Creating Layer inception_4a/relu_3x3
I0403 02:30:37.604248 30257 net.cpp:425] inception_4a/relu_3x3 <- inception_4a/3x3
I0403 02:30:37.604271 30257 net.cpp:386] inception_4a/relu_3x3 -> inception_4a/3x3 (in-place)
I0403 02:30:37.604297 30257 net.cpp:141] Setting up inception_4a/relu_3x3
I0403 02:30:37.604318 30257 net.cpp:148] Top shape: 24 208 14 14 (978432)
I0403 02:30:37.604336 30257 net.cpp:156] Memory required for data: 873062784
I0403 02:30:37.604353 30257 layer_factory.hpp:77] Creating layer inception_4a/5x5_reduce
I0403 02:30:37.604382 30257 net.cpp:91] Creating Layer inception_4a/5x5_reduce
I0403 02:30:37.604403 30257 net.cpp:425] inception_4a/5x5_reduce <- pool3/3x3_s2_pool3/3x3_s2_0_split_2
I0403 02:30:37.604428 30257 net.cpp:399] inception_4a/5x5_reduce -> inception_4a/5x5_reduce
I0403 02:30:37.604743 30257 net.cpp:141] Setting up inception_4a/5x5_reduce
I0403 02:30:37.604774 30257 net.cpp:148] Top shape: 24 16 14 14 (75264)
I0403 02:30:37.604794 30257 net.cpp:156] Memory required for data: 873363840
I0403 02:30:37.604815 30257 layer_factory.hpp:77] Creating layer inception_4a/relu_5x5_reduce
I0403 02:30:37.604837 30257 net.cpp:91] Creating Layer inception_4a/relu_5x5_reduce
I0403 02:30:37.604858 30257 net.cpp:425] inception_4a/relu_5x5_reduce <- inception_4a/5x5_reduce
I0403 02:30:37.604884 30257 net.cpp:386] inception_4a/relu_5x5_reduce -> inception_4a/5x5_reduce (in-place)
I0403 02:30:37.604907 30257 net.cpp:141] Setting up inception_4a/relu_5x5_reduce
I0403 02:30:37.604928 30257 net.cpp:148] Top shape: 24 16 14 14 (75264)
I0403 02:30:37.604946 30257 net.cpp:156] Memory required for data: 873664896
I0403 02:30:37.604964 30257 layer_factory.hpp:77] Creating layer inception_4a/5x5
I0403 02:30:37.604995 30257 net.cpp:91] Creating Layer inception_4a/5x5
I0403 02:30:37.605017 30257 net.cpp:425] inception_4a/5x5 <- inception_4a/5x5_reduce
I0403 02:30:37.605041 30257 net.cpp:399] inception_4a/5x5 -> inception_4a/5x5
I0403 02:30:37.605420 30257 net.cpp:141] Setting up inception_4a/5x5
I0403 02:30:37.605453 30257 net.cpp:148] Top shape: 24 48 14 14 (225792)
I0403 02:30:37.605473 30257 net.cpp:156] Memory required for data: 874568064
I0403 02:30:37.605495 30257 layer_factory.hpp:77] Creating layer inception_4a/relu_5x5
I0403 02:30:37.605520 30257 net.cpp:91] Creating Layer inception_4a/relu_5x5
I0403 02:30:37.605540 30257 net.cpp:425] inception_4a/relu_5x5 <- inception_4a/5x5
I0403 02:30:37.605564 30257 net.cpp:386] inception_4a/relu_5x5 -> inception_4a/5x5 (in-place)
I0403 02:30:37.605588 30257 net.cpp:141] Setting up inception_4a/relu_5x5
I0403 02:30:37.605617 30257 net.cpp:148] Top shape: 24 48 14 14 (225792)
I0403 02:30:37.605636 30257 net.cpp:156] Memory required for data: 875471232
I0403 02:30:37.605655 30257 layer_factory.hpp:77] Creating layer inception_4a/pool
I0403 02:30:37.605677 30257 net.cpp:91] Creating Layer inception_4a/pool
I0403 02:30:37.605695 30257 net.cpp:425] inception_4a/pool <- pool3/3x3_s2_pool3/3x3_s2_0_split_3
I0403 02:30:37.605736 30257 net.cpp:399] inception_4a/pool -> inception_4a/pool
I0403 02:30:37.605801 30257 net.cpp:141] Setting up inception_4a/pool
I0403 02:30:37.605831 30257 net.cpp:148] Top shape: 24 480 14 14 (2257920)
I0403 02:30:37.605850 30257 net.cpp:156] Memory required for data: 884502912
I0403 02:30:37.605870 30257 layer_factory.hpp:77] Creating layer inception_4a/pool_proj
I0403 02:30:37.605900 30257 net.cpp:91] Creating Layer inception_4a/pool_proj
I0403 02:30:37.605921 30257 net.cpp:425] inception_4a/pool_proj <- inception_4a/pool
I0403 02:30:37.605948 30257 net.cpp:399] inception_4a/pool_proj -> inception_4a/pool_proj
I0403 02:30:37.606405 30257 net.cpp:141] Setting up inception_4a/pool_proj
I0403 02:30:37.606436 30257 net.cpp:148] Top shape: 24 64 14 14 (301056)
I0403 02:30:37.606454 30257 net.cpp:156] Memory required for data: 885707136
I0403 02:30:37.606477 30257 layer_factory.hpp:77] Creating layer inception_4a/relu_pool_proj
I0403 02:30:37.606498 30257 net.cpp:91] Creating Layer inception_4a/relu_pool_proj
I0403 02:30:37.606518 30257 net.cpp:425] inception_4a/relu_pool_proj <- inception_4a/pool_proj
I0403 02:30:37.606540 30257 net.cpp:386] inception_4a/relu_pool_proj -> inception_4a/pool_proj (in-place)
I0403 02:30:37.606564 30257 net.cpp:141] Setting up inception_4a/relu_pool_proj
I0403 02:30:37.606586 30257 net.cpp:148] Top shape: 24 64 14 14 (301056)
I0403 02:30:37.606608 30257 net.cpp:156] Memory required for data: 886911360
I0403 02:30:37.606627 30257 layer_factory.hpp:77] Creating layer inception_4a/output
I0403 02:30:37.606652 30257 net.cpp:91] Creating Layer inception_4a/output
I0403 02:30:37.606673 30257 net.cpp:425] inception_4a/output <- inception_4a/1x1
I0403 02:30:37.606693 30257 net.cpp:425] inception_4a/output <- inception_4a/3x3
I0403 02:30:37.606712 30257 net.cpp:425] inception_4a/output <- inception_4a/5x5
I0403 02:30:37.606731 30257 net.cpp:425] inception_4a/output <- inception_4a/pool_proj
I0403 02:30:37.606752 30257 net.cpp:399] inception_4a/output -> inception_4a/output
I0403 02:30:37.606798 30257 net.cpp:141] Setting up inception_4a/output
I0403 02:30:37.606827 30257 net.cpp:148] Top shape: 24 512 14 14 (2408448)
I0403 02:30:37.606845 30257 net.cpp:156] Memory required for data: 896545152
I0403 02:30:37.606863 30257 layer_factory.hpp:77] Creating layer inception_4a/output_inception_4a/output_0_split
I0403 02:30:37.606884 30257 net.cpp:91] Creating Layer inception_4a/output_inception_4a/output_0_split
I0403 02:30:37.606904 30257 net.cpp:425] inception_4a/output_inception_4a/output_0_split <- inception_4a/output
I0403 02:30:37.606927 30257 net.cpp:399] inception_4a/output_inception_4a/output_0_split -> inception_4a/output_inception_4a/output_0_split_0
I0403 02:30:37.606952 30257 net.cpp:399] inception_4a/output_inception_4a/output_0_split -> inception_4a/output_inception_4a/output_0_split_1
I0403 02:30:37.606977 30257 net.cpp:399] inception_4a/output_inception_4a/output_0_split -> inception_4a/output_inception_4a/output_0_split_2
I0403 02:30:37.607002 30257 net.cpp:399] inception_4a/output_inception_4a/output_0_split -> inception_4a/output_inception_4a/output_0_split_3
I0403 02:30:37.607028 30257 net.cpp:399] inception_4a/output_inception_4a/output_0_split -> inception_4a/output_inception_4a/output_0_split_4
I0403 02:30:37.607117 30257 net.cpp:141] Setting up inception_4a/output_inception_4a/output_0_split
I0403 02:30:37.607144 30257 net.cpp:148] Top shape: 24 512 14 14 (2408448)
I0403 02:30:37.607166 30257 net.cpp:148] Top shape: 24 512 14 14 (2408448)
I0403 02:30:37.607184 30257 net.cpp:148] Top shape: 24 512 14 14 (2408448)
I0403 02:30:37.607203 30257 net.cpp:148] Top shape: 24 512 14 14 (2408448)
I0403 02:30:37.607223 30257 net.cpp:148] Top shape: 24 512 14 14 (2408448)
I0403 02:30:37.607239 30257 net.cpp:156] Memory required for data: 944714112
I0403 02:30:37.607256 30257 layer_factory.hpp:77] Creating layer loss1/ave_pool
I0403 02:30:37.607280 30257 net.cpp:91] Creating Layer loss1/ave_pool
I0403 02:30:37.607301 30257 net.cpp:425] loss1/ave_pool <- inception_4a/output_inception_4a/output_0_split_0
I0403 02:30:37.607347 30257 net.cpp:399] loss1/ave_pool -> loss1/ave_pool
I0403 02:30:37.607396 30257 net.cpp:141] Setting up loss1/ave_pool
I0403 02:30:37.607424 30257 net.cpp:148] Top shape: 24 512 4 4 (196608)
I0403 02:30:37.607442 30257 net.cpp:156] Memory required for data: 945500544
I0403 02:30:37.607460 30257 layer_factory.hpp:77] Creating layer loss1/conv
I0403 02:30:37.607488 30257 net.cpp:91] Creating Layer loss1/conv
I0403 02:30:37.607511 30257 net.cpp:425] loss1/conv <- loss1/ave_pool
I0403 02:30:37.607535 30257 net.cpp:399] loss1/conv -> loss1/conv
I0403 02:30:37.608217 30257 net.cpp:141] Setting up loss1/conv
I0403 02:30:37.608248 30257 net.cpp:148] Top shape: 24 128 4 4 (49152)
I0403 02:30:37.608266 30257 net.cpp:156] Memory required for data: 945697152
I0403 02:30:37.608289 30257 layer_factory.hpp:77] Creating layer loss1/relu_conv
I0403 02:30:37.608314 30257 net.cpp:91] Creating Layer loss1/relu_conv
I0403 02:30:37.608335 30257 net.cpp:425] loss1/relu_conv <- loss1/conv
I0403 02:30:37.608357 30257 net.cpp:386] loss1/relu_conv -> loss1/conv (in-place)
I0403 02:30:37.608379 30257 net.cpp:141] Setting up loss1/relu_conv
I0403 02:30:37.608399 30257 net.cpp:148] Top shape: 24 128 4 4 (49152)
I0403 02:30:37.608417 30257 net.cpp:156] Memory required for data: 945893760
I0403 02:30:37.608433 30257 layer_factory.hpp:77] Creating layer loss1/fc
I0403 02:30:37.616662 30257 net.cpp:91] Creating Layer loss1/fc
I0403 02:30:37.616688 30257 net.cpp:425] loss1/fc <- loss1/conv
I0403 02:30:37.616710 30257 net.cpp:399] loss1/fc -> loss1/fc
I0403 02:30:37.636477 30257 net.cpp:141] Setting up loss1/fc
I0403 02:30:37.636524 30257 net.cpp:148] Top shape: 24 1024 (24576)
I0403 02:30:37.636545 30257 net.cpp:156] Memory required for data: 945992064
I0403 02:30:37.636569 30257 layer_factory.hpp:77] Creating layer loss1/relu_fc
I0403 02:30:37.636593 30257 net.cpp:91] Creating Layer loss1/relu_fc
I0403 02:30:37.636620 30257 net.cpp:425] loss1/relu_fc <- loss1/fc
I0403 02:30:37.636641 30257 net.cpp:386] loss1/relu_fc -> loss1/fc (in-place)
I0403 02:30:37.636665 30257 net.cpp:141] Setting up loss1/relu_fc
I0403 02:30:37.636685 30257 net.cpp:148] Top shape: 24 1024 (24576)
I0403 02:30:37.636701 30257 net.cpp:156] Memory required for data: 946090368
I0403 02:30:37.636719 30257 layer_factory.hpp:77] Creating layer loss1/drop_fc
I0403 02:30:37.636775 30257 net.cpp:91] Creating Layer loss1/drop_fc
I0403 02:30:37.636801 30257 net.cpp:425] loss1/drop_fc <- loss1/fc
I0403 02:30:37.636822 30257 net.cpp:386] loss1/drop_fc -> loss1/fc (in-place)
I0403 02:30:37.636893 30257 net.cpp:141] Setting up loss1/drop_fc
I0403 02:30:37.636925 30257 net.cpp:148] Top shape: 24 1024 (24576)
I0403 02:30:37.636946 30257 net.cpp:156] Memory required for data: 946188672
I0403 02:30:37.636965 30257 layer_factory.hpp:77] Creating layer loss1/classifier_plantvillage
I0403 02:30:37.636987 30257 net.cpp:91] Creating Layer loss1/classifier_plantvillage
I0403 02:30:37.637006 30257 net.cpp:425] loss1/classifier_plantvillage <- loss1/fc
I0403 02:30:37.637032 30257 net.cpp:399] loss1/classifier_plantvillage -> loss1/classifier_plantvillage
I0403 02:30:37.638043 30257 net.cpp:141] Setting up loss1/classifier_plantvillage
I0403 02:30:37.638079 30257 net.cpp:148] Top shape: 24 38 (912)
I0403 02:30:37.638099 30257 net.cpp:156] Memory required for data: 946192320
I0403 02:30:37.638123 30257 layer_factory.hpp:77] Creating layer inception_4b/1x1
I0403 02:30:37.638154 30257 net.cpp:91] Creating Layer inception_4b/1x1
I0403 02:30:37.638176 30257 net.cpp:425] inception_4b/1x1 <- inception_4a/output_inception_4a/output_0_split_1
I0403 02:30:37.638202 30257 net.cpp:399] inception_4b/1x1 -> inception_4b/1x1
I0403 02:30:37.639010 30257 net.cpp:141] Setting up inception_4b/1x1
I0403 02:30:37.639044 30257 net.cpp:148] Top shape: 24 160 14 14 (752640)
I0403 02:30:37.639063 30257 net.cpp:156] Memory required for data: 949202880
I0403 02:30:37.639084 30257 layer_factory.hpp:77] Creating layer inception_4b/relu_1x1
I0403 02:30:37.639128 30257 net.cpp:91] Creating Layer inception_4b/relu_1x1
I0403 02:30:37.639148 30257 net.cpp:425] inception_4b/relu_1x1 <- inception_4b/1x1
I0403 02:30:37.639169 30257 net.cpp:386] inception_4b/relu_1x1 -> inception_4b/1x1 (in-place)
I0403 02:30:37.639194 30257 net.cpp:141] Setting up inception_4b/relu_1x1
I0403 02:30:37.639214 30257 net.cpp:148] Top shape: 24 160 14 14 (752640)
I0403 02:30:37.639230 30257 net.cpp:156] Memory required for data: 952213440
I0403 02:30:37.639247 30257 layer_factory.hpp:77] Creating layer inception_4b/3x3_reduce
I0403 02:30:37.639276 30257 net.cpp:91] Creating Layer inception_4b/3x3_reduce
I0403 02:30:37.639297 30257 net.cpp:425] inception_4b/3x3_reduce <- inception_4a/output_inception_4a/output_0_split_2
I0403 02:30:37.639323 30257 net.cpp:399] inception_4b/3x3_reduce -> inception_4b/3x3_reduce
I0403 02:30:37.639963 30257 net.cpp:141] Setting up inception_4b/3x3_reduce
I0403 02:30:37.639994 30257 net.cpp:148] Top shape: 24 112 14 14 (526848)
I0403 02:30:37.640013 30257 net.cpp:156] Memory required for data: 954320832
I0403 02:30:37.640034 30257 layer_factory.hpp:77] Creating layer inception_4b/relu_3x3_reduce
I0403 02:30:37.640059 30257 net.cpp:91] Creating Layer inception_4b/relu_3x3_reduce
I0403 02:30:37.640082 30257 net.cpp:425] inception_4b/relu_3x3_reduce <- inception_4b/3x3_reduce
I0403 02:30:37.640105 30257 net.cpp:386] inception_4b/relu_3x3_reduce -> inception_4b/3x3_reduce (in-place)
I0403 02:30:37.640126 30257 net.cpp:141] Setting up inception_4b/relu_3x3_reduce
I0403 02:30:37.640146 30257 net.cpp:148] Top shape: 24 112 14 14 (526848)
I0403 02:30:37.640163 30257 net.cpp:156] Memory required for data: 956428224
I0403 02:30:37.640180 30257 layer_factory.hpp:77] Creating layer inception_4b/3x3
I0403 02:30:37.640208 30257 net.cpp:91] Creating Layer inception_4b/3x3
I0403 02:30:37.640230 30257 net.cpp:425] inception_4b/3x3 <- inception_4b/3x3_reduce
I0403 02:30:37.640256 30257 net.cpp:399] inception_4b/3x3 -> inception_4b/3x3
I0403 02:30:37.642669 30257 net.cpp:141] Setting up inception_4b/3x3
I0403 02:30:37.642706 30257 net.cpp:148] Top shape: 24 224 14 14 (1053696)
I0403 02:30:37.642726 30257 net.cpp:156] Memory required for data: 960643008
I0403 02:30:37.642748 30257 layer_factory.hpp:77] Creating layer inception_4b/relu_3x3
I0403 02:30:37.642774 30257 net.cpp:91] Creating Layer inception_4b/relu_3x3
I0403 02:30:37.642797 30257 net.cpp:425] inception_4b/relu_3x3 <- inception_4b/3x3
I0403 02:30:37.642818 30257 net.cpp:386] inception_4b/relu_3x3 -> inception_4b/3x3 (in-place)
I0403 02:30:37.642843 30257 net.cpp:141] Setting up inception_4b/relu_3x3
I0403 02:30:37.642863 30257 net.cpp:148] Top shape: 24 224 14 14 (1053696)
I0403 02:30:37.642881 30257 net.cpp:156] Memory required for data: 964857792
I0403 02:30:37.642899 30257 layer_factory.hpp:77] Creating layer inception_4b/5x5_reduce
I0403 02:30:37.642927 30257 net.cpp:91] Creating Layer inception_4b/5x5_reduce
I0403 02:30:37.642948 30257 net.cpp:425] inception_4b/5x5_reduce <- inception_4a/output_inception_4a/output_0_split_3
I0403 02:30:37.642972 30257 net.cpp:399] inception_4b/5x5_reduce -> inception_4b/5x5_reduce
I0403 02:30:37.643308 30257 net.cpp:141] Setting up inception_4b/5x5_reduce
I0403 02:30:37.643342 30257 net.cpp:148] Top shape: 24 24 14 14 (112896)
I0403 02:30:37.643362 30257 net.cpp:156] Memory required for data: 965309376
I0403 02:30:37.643383 30257 layer_factory.hpp:77] Creating layer inception_4b/relu_5x5_reduce
I0403 02:30:37.643405 30257 net.cpp:91] Creating Layer inception_4b/relu_5x5_reduce
I0403 02:30:37.643425 30257 net.cpp:425] inception_4b/relu_5x5_reduce <- inception_4b/5x5_reduce
I0403 02:30:37.643445 30257 net.cpp:386] inception_4b/relu_5x5_reduce -> inception_4b/5x5_reduce (in-place)
I0403 02:30:37.643470 30257 net.cpp:141] Setting up inception_4b/relu_5x5_reduce
I0403 02:30:37.643491 30257 net.cpp:148] Top shape: 24 24 14 14 (112896)
I0403 02:30:37.643512 30257 net.cpp:156] Memory required for data: 965760960
I0403 02:30:37.643527 30257 layer_factory.hpp:77] Creating layer inception_4b/5x5
I0403 02:30:37.643573 30257 net.cpp:91] Creating Layer inception_4b/5x5
I0403 02:30:37.643601 30257 net.cpp:425] inception_4b/5x5 <- inception_4b/5x5_reduce
I0403 02:30:37.643631 30257 net.cpp:399] inception_4b/5x5 -> inception_4b/5x5
I0403 02:30:37.644140 30257 net.cpp:141] Setting up inception_4b/5x5
I0403 02:30:37.644172 30257 net.cpp:148] Top shape: 24 64 14 14 (301056)
I0403 02:30:37.644191 30257 net.cpp:156] Memory required for data: 966965184
I0403 02:30:37.644212 30257 layer_factory.hpp:77] Creating layer inception_4b/relu_5x5
I0403 02:30:37.644238 30257 net.cpp:91] Creating Layer inception_4b/relu_5x5
I0403 02:30:37.644261 30257 net.cpp:425] inception_4b/relu_5x5 <- inception_4b/5x5
I0403 02:30:37.644284 30257 net.cpp:386] inception_4b/relu_5x5 -> inception_4b/5x5 (in-place)
I0403 02:30:37.644305 30257 net.cpp:141] Setting up inception_4b/relu_5x5
I0403 02:30:37.644326 30257 net.cpp:148] Top shape: 24 64 14 14 (301056)
I0403 02:30:37.644343 30257 net.cpp:156] Memory required for data: 968169408
I0403 02:30:37.644361 30257 layer_factory.hpp:77] Creating layer inception_4b/pool
I0403 02:30:37.644386 30257 net.cpp:91] Creating Layer inception_4b/pool
I0403 02:30:37.644405 30257 net.cpp:425] inception_4b/pool <- inception_4a/output_inception_4a/output_0_split_4
I0403 02:30:37.644428 30257 net.cpp:399] inception_4b/pool -> inception_4b/pool
I0403 02:30:37.644489 30257 net.cpp:141] Setting up inception_4b/pool
I0403 02:30:37.644520 30257 net.cpp:148] Top shape: 24 512 14 14 (2408448)
I0403 02:30:37.644539 30257 net.cpp:156] Memory required for data: 977803200
I0403 02:30:37.644558 30257 layer_factory.hpp:77] Creating layer inception_4b/pool_proj
I0403 02:30:37.644583 30257 net.cpp:91] Creating Layer inception_4b/pool_proj
I0403 02:30:37.644609 30257 net.cpp:425] inception_4b/pool_proj <- inception_4b/pool
I0403 02:30:37.644639 30257 net.cpp:399] inception_4b/pool_proj -> inception_4b/pool_proj
I0403 02:30:37.645119 30257 net.cpp:141] Setting up inception_4b/pool_proj
I0403 02:30:37.645153 30257 net.cpp:148] Top shape: 24 64 14 14 (301056)
I0403 02:30:37.645174 30257 net.cpp:156] Memory required for data: 979007424
I0403 02:30:37.645195 30257 layer_factory.hpp:77] Creating layer inception_4b/relu_pool_proj
I0403 02:30:37.645218 30257 net.cpp:91] Creating Layer inception_4b/relu_pool_proj
I0403 02:30:37.645239 30257 net.cpp:425] inception_4b/relu_pool_proj <- inception_4b/pool_proj
I0403 02:30:37.645263 30257 net.cpp:386] inception_4b/relu_pool_proj -> inception_4b/pool_proj (in-place)
I0403 02:30:37.645289 30257 net.cpp:141] Setting up inception_4b/relu_pool_proj
I0403 02:30:37.645311 30257 net.cpp:148] Top shape: 24 64 14 14 (301056)
I0403 02:30:37.645329 30257 net.cpp:156] Memory required for data: 980211648
I0403 02:30:37.645347 30257 layer_factory.hpp:77] Creating layer inception_4b/output
I0403 02:30:37.645369 30257 net.cpp:91] Creating Layer inception_4b/output
I0403 02:30:37.645385 30257 net.cpp:425] inception_4b/output <- inception_4b/1x1
I0403 02:30:37.645404 30257 net.cpp:425] inception_4b/output <- inception_4b/3x3
I0403 02:30:37.645423 30257 net.cpp:425] inception_4b/output <- inception_4b/5x5
I0403 02:30:37.645442 30257 net.cpp:425] inception_4b/output <- inception_4b/pool_proj
I0403 02:30:37.645464 30257 net.cpp:399] inception_4b/output -> inception_4b/output
I0403 02:30:37.645512 30257 net.cpp:141] Setting up inception_4b/output
I0403 02:30:37.645542 30257 net.cpp:148] Top shape: 24 512 14 14 (2408448)
I0403 02:30:37.645563 30257 net.cpp:156] Memory required for data: 989845440
I0403 02:30:37.645582 30257 layer_factory.hpp:77] Creating layer inception_4b/output_inception_4b/output_0_split
I0403 02:30:37.645612 30257 net.cpp:91] Creating Layer inception_4b/output_inception_4b/output_0_split
I0403 02:30:37.645635 30257 net.cpp:425] inception_4b/output_inception_4b/output_0_split <- inception_4b/output
I0403 02:30:37.645659 30257 net.cpp:399] inception_4b/output_inception_4b/output_0_split -> inception_4b/output_inception_4b/output_0_split_0
I0403 02:30:37.645685 30257 net.cpp:399] inception_4b/output_inception_4b/output_0_split -> inception_4b/output_inception_4b/output_0_split_1
I0403 02:30:37.645728 30257 net.cpp:399] inception_4b/output_inception_4b/output_0_split -> inception_4b/output_inception_4b/output_0_split_2
I0403 02:30:37.645755 30257 net.cpp:399] inception_4b/output_inception_4b/output_0_split -> inception_4b/output_inception_4b/output_0_split_3
I0403 02:30:37.645834 30257 net.cpp:141] Setting up inception_4b/output_inception_4b/output_0_split
I0403 02:30:37.645864 30257 net.cpp:148] Top shape: 24 512 14 14 (2408448)
I0403 02:30:37.645884 30257 net.cpp:148] Top shape: 24 512 14 14 (2408448)
I0403 02:30:37.645902 30257 net.cpp:148] Top shape: 24 512 14 14 (2408448)
I0403 02:30:37.645920 30257 net.cpp:148] Top shape: 24 512 14 14 (2408448)
I0403 02:30:37.645937 30257 net.cpp:156] Memory required for data: 1028380608
I0403 02:30:37.645954 30257 layer_factory.hpp:77] Creating layer inception_4c/1x1
I0403 02:30:37.645982 30257 net.cpp:91] Creating Layer inception_4c/1x1
I0403 02:30:37.646004 30257 net.cpp:425] inception_4c/1x1 <- inception_4b/output_inception_4b/output_0_split_0
I0403 02:30:37.646028 30257 net.cpp:399] inception_4c/1x1 -> inception_4c/1x1
I0403 02:30:37.646713 30257 net.cpp:141] Setting up inception_4c/1x1
I0403 02:30:37.646744 30257 net.cpp:148] Top shape: 24 128 14 14 (602112)
I0403 02:30:37.646761 30257 net.cpp:156] Memory required for data: 1030789056
I0403 02:30:37.646783 30257 layer_factory.hpp:77] Creating layer inception_4c/relu_1x1
I0403 02:30:37.646806 30257 net.cpp:91] Creating Layer inception_4c/relu_1x1
I0403 02:30:37.646826 30257 net.cpp:425] inception_4c/relu_1x1 <- inception_4c/1x1
I0403 02:30:37.646848 30257 net.cpp:386] inception_4c/relu_1x1 -> inception_4c/1x1 (in-place)
I0403 02:30:37.646870 30257 net.cpp:141] Setting up inception_4c/relu_1x1
I0403 02:30:37.646891 30257 net.cpp:148] Top shape: 24 128 14 14 (602112)
I0403 02:30:37.646909 30257 net.cpp:156] Memory required for data: 1033197504
I0403 02:30:37.646926 30257 layer_factory.hpp:77] Creating layer inception_4c/3x3_reduce
I0403 02:30:37.646955 30257 net.cpp:91] Creating Layer inception_4c/3x3_reduce
I0403 02:30:37.646976 30257 net.cpp:425] inception_4c/3x3_reduce <- inception_4b/output_inception_4b/output_0_split_1
I0403 02:30:37.647001 30257 net.cpp:399] inception_4c/3x3_reduce -> inception_4c/3x3_reduce
I0403 02:30:37.648316 30257 net.cpp:141] Setting up inception_4c/3x3_reduce
I0403 02:30:37.648355 30257 net.cpp:148] Top shape: 24 128 14 14 (602112)
I0403 02:30:37.648373 30257 net.cpp:156] Memory required for data: 1035605952
I0403 02:30:37.648396 30257 layer_factory.hpp:77] Creating layer inception_4c/relu_3x3_reduce
I0403 02:30:37.648419 30257 net.cpp:91] Creating Layer inception_4c/relu_3x3_reduce
I0403 02:30:37.648439 30257 net.cpp:425] inception_4c/relu_3x3_reduce <- inception_4c/3x3_reduce
I0403 02:30:37.648460 30257 net.cpp:386] inception_4c/relu_3x3_reduce -> inception_4c/3x3_reduce (in-place)
I0403 02:30:37.648483 30257 net.cpp:141] Setting up inception_4c/relu_3x3_reduce
I0403 02:30:37.648504 30257 net.cpp:148] Top shape: 24 128 14 14 (602112)
I0403 02:30:37.648520 30257 net.cpp:156] Memory required for data: 1038014400
I0403 02:30:37.648538 30257 layer_factory.hpp:77] Creating layer inception_4c/3x3
I0403 02:30:37.648566 30257 net.cpp:91] Creating Layer inception_4c/3x3
I0403 02:30:37.648587 30257 net.cpp:425] inception_4c/3x3 <- inception_4c/3x3_reduce
I0403 02:30:37.648622 30257 net.cpp:399] inception_4c/3x3 -> inception_4c/3x3
I0403 02:30:37.651510 30257 net.cpp:141] Setting up inception_4c/3x3
I0403 02:30:37.651546 30257 net.cpp:148] Top shape: 24 256 14 14 (1204224)
I0403 02:30:37.651566 30257 net.cpp:156] Memory required for data: 1042831296
I0403 02:30:37.651607 30257 layer_factory.hpp:77] Creating layer inception_4c/relu_3x3
I0403 02:30:37.651636 30257 net.cpp:91] Creating Layer inception_4c/relu_3x3
I0403 02:30:37.651659 30257 net.cpp:425] inception_4c/relu_3x3 <- inception_4c/3x3
I0403 02:30:37.651680 30257 net.cpp:386] inception_4c/relu_3x3 -> inception_4c/3x3 (in-place)
I0403 02:30:37.651722 30257 net.cpp:141] Setting up inception_4c/relu_3x3
I0403 02:30:37.651746 30257 net.cpp:148] Top shape: 24 256 14 14 (1204224)
I0403 02:30:37.651765 30257 net.cpp:156] Memory required for data: 1047648192
I0403 02:30:37.651782 30257 layer_factory.hpp:77] Creating layer inception_4c/5x5_reduce
I0403 02:30:37.651806 30257 net.cpp:91] Creating Layer inception_4c/5x5_reduce
I0403 02:30:37.651829 30257 net.cpp:425] inception_4c/5x5_reduce <- inception_4b/output_inception_4b/output_0_split_2
I0403 02:30:37.651855 30257 net.cpp:399] inception_4c/5x5_reduce -> inception_4c/5x5_reduce
I0403 02:30:37.652201 30257 net.cpp:141] Setting up inception_4c/5x5_reduce
I0403 02:30:37.652232 30257 net.cpp:148] Top shape: 24 24 14 14 (112896)
I0403 02:30:37.652251 30257 net.cpp:156] Memory required for data: 1048099776
I0403 02:30:37.652272 30257 layer_factory.hpp:77] Creating layer inception_4c/relu_5x5_reduce
I0403 02:30:37.652294 30257 net.cpp:91] Creating Layer inception_4c/relu_5x5_reduce
I0403 02:30:37.652314 30257 net.cpp:425] inception_4c/relu_5x5_reduce <- inception_4c/5x5_reduce
I0403 02:30:37.652335 30257 net.cpp:386] inception_4c/relu_5x5_reduce -> inception_4c/5x5_reduce (in-place)
I0403 02:30:37.652357 30257 net.cpp:141] Setting up inception_4c/relu_5x5_reduce
I0403 02:30:37.652377 30257 net.cpp:148] Top shape: 24 24 14 14 (112896)
I0403 02:30:37.652395 30257 net.cpp:156] Memory required for data: 1048551360
I0403 02:30:37.652413 30257 layer_factory.hpp:77] Creating layer inception_4c/5x5
I0403 02:30:37.652441 30257 net.cpp:91] Creating Layer inception_4c/5x5
I0403 02:30:37.652467 30257 net.cpp:425] inception_4c/5x5 <- inception_4c/5x5_reduce
I0403 02:30:37.652492 30257 net.cpp:399] inception_4c/5x5 -> inception_4c/5x5
I0403 02:30:37.653023 30257 net.cpp:141] Setting up inception_4c/5x5
I0403 02:30:37.653055 30257 net.cpp:148] Top shape: 24 64 14 14 (301056)
I0403 02:30:37.653074 30257 net.cpp:156] Memory required for data: 1049755584
I0403 02:30:37.653095 30257 layer_factory.hpp:77] Creating layer inception_4c/relu_5x5
I0403 02:30:37.653118 30257 net.cpp:91] Creating Layer inception_4c/relu_5x5
I0403 02:30:37.653139 30257 net.cpp:425] inception_4c/relu_5x5 <- inception_4c/5x5
I0403 02:30:37.653164 30257 net.cpp:386] inception_4c/relu_5x5 -> inception_4c/5x5 (in-place)
I0403 02:30:37.653188 30257 net.cpp:141] Setting up inception_4c/relu_5x5
I0403 02:30:37.653210 30257 net.cpp:148] Top shape: 24 64 14 14 (301056)
I0403 02:30:37.653228 30257 net.cpp:156] Memory required for data: 1050959808
I0403 02:30:37.653245 30257 layer_factory.hpp:77] Creating layer inception_4c/pool
I0403 02:30:37.653269 30257 net.cpp:91] Creating Layer inception_4c/pool
I0403 02:30:37.653287 30257 net.cpp:425] inception_4c/pool <- inception_4b/output_inception_4b/output_0_split_3
I0403 02:30:37.653307 30257 net.cpp:399] inception_4c/pool -> inception_4c/pool
I0403 02:30:37.653369 30257 net.cpp:141] Setting up inception_4c/pool
I0403 02:30:37.653398 30257 net.cpp:148] Top shape: 24 512 14 14 (2408448)
I0403 02:30:37.653416 30257 net.cpp:156] Memory required for data: 1060593600
I0403 02:30:37.653434 30257 layer_factory.hpp:77] Creating layer inception_4c/pool_proj
I0403 02:30:37.653462 30257 net.cpp:91] Creating Layer inception_4c/pool_proj
I0403 02:30:37.653484 30257 net.cpp:425] inception_4c/pool_proj <- inception_4c/pool
I0403 02:30:37.653509 30257 net.cpp:399] inception_4c/pool_proj -> inception_4c/pool_proj
I0403 02:30:37.653985 30257 net.cpp:141] Setting up inception_4c/pool_proj
I0403 02:30:37.654016 30257 net.cpp:148] Top shape: 24 64 14 14 (301056)
I0403 02:30:37.654036 30257 net.cpp:156] Memory required for data: 1061797824
I0403 02:30:37.654057 30257 layer_factory.hpp:77] Creating layer inception_4c/relu_pool_proj
I0403 02:30:37.654083 30257 net.cpp:91] Creating Layer inception_4c/relu_pool_proj
I0403 02:30:37.654103 30257 net.cpp:425] inception_4c/relu_pool_proj <- inception_4c/pool_proj
I0403 02:30:37.654124 30257 net.cpp:386] inception_4c/relu_pool_proj -> inception_4c/pool_proj (in-place)
I0403 02:30:37.654148 30257 net.cpp:141] Setting up inception_4c/relu_pool_proj
I0403 02:30:37.654186 30257 net.cpp:148] Top shape: 24 64 14 14 (301056)
I0403 02:30:37.654204 30257 net.cpp:156] Memory required for data: 1063002048
I0403 02:30:37.654222 30257 layer_factory.hpp:77] Creating layer inception_4c/output
I0403 02:30:37.654247 30257 net.cpp:91] Creating Layer inception_4c/output
I0403 02:30:37.654268 30257 net.cpp:425] inception_4c/output <- inception_4c/1x1
I0403 02:30:37.654289 30257 net.cpp:425] inception_4c/output <- inception_4c/3x3
I0403 02:30:37.654307 30257 net.cpp:425] inception_4c/output <- inception_4c/5x5
I0403 02:30:37.654327 30257 net.cpp:425] inception_4c/output <- inception_4c/pool_proj
I0403 02:30:37.654350 30257 net.cpp:399] inception_4c/output -> inception_4c/output
I0403 02:30:37.654394 30257 net.cpp:141] Setting up inception_4c/output
I0403 02:30:37.654424 30257 net.cpp:148] Top shape: 24 512 14 14 (2408448)
I0403 02:30:37.654443 30257 net.cpp:156] Memory required for data: 1072635840
I0403 02:30:37.654461 30257 layer_factory.hpp:77] Creating layer inception_4c/output_inception_4c/output_0_split
I0403 02:30:37.654484 30257 net.cpp:91] Creating Layer inception_4c/output_inception_4c/output_0_split
I0403 02:30:37.654502 30257 net.cpp:425] inception_4c/output_inception_4c/output_0_split <- inception_4c/output
I0403 02:30:37.654525 30257 net.cpp:399] inception_4c/output_inception_4c/output_0_split -> inception_4c/output_inception_4c/output_0_split_0
I0403 02:30:37.654553 30257 net.cpp:399] inception_4c/output_inception_4c/output_0_split -> inception_4c/output_inception_4c/output_0_split_1
I0403 02:30:37.654579 30257 net.cpp:399] inception_4c/output_inception_4c/output_0_split -> inception_4c/output_inception_4c/output_0_split_2
I0403 02:30:37.654609 30257 net.cpp:399] inception_4c/output_inception_4c/output_0_split -> inception_4c/output_inception_4c/output_0_split_3
I0403 02:30:37.654693 30257 net.cpp:141] Setting up inception_4c/output_inception_4c/output_0_split
I0403 02:30:37.654722 30257 net.cpp:148] Top shape: 24 512 14 14 (2408448)
I0403 02:30:37.654742 30257 net.cpp:148] Top shape: 24 512 14 14 (2408448)
I0403 02:30:37.654759 30257 net.cpp:148] Top shape: 24 512 14 14 (2408448)
I0403 02:30:37.654778 30257 net.cpp:148] Top shape: 24 512 14 14 (2408448)
I0403 02:30:37.654794 30257 net.cpp:156] Memory required for data: 1111171008
I0403 02:30:37.654813 30257 layer_factory.hpp:77] Creating layer inception_4d/1x1
I0403 02:30:37.654840 30257 net.cpp:91] Creating Layer inception_4d/1x1
I0403 02:30:37.654861 30257 net.cpp:425] inception_4d/1x1 <- inception_4c/output_inception_4c/output_0_split_0
I0403 02:30:37.654887 30257 net.cpp:399] inception_4d/1x1 -> inception_4d/1x1
I0403 02:30:37.655521 30257 net.cpp:141] Setting up inception_4d/1x1
I0403 02:30:37.655553 30257 net.cpp:148] Top shape: 24 112 14 14 (526848)
I0403 02:30:37.655572 30257 net.cpp:156] Memory required for data: 1113278400
I0403 02:30:37.655594 30257 layer_factory.hpp:77] Creating layer inception_4d/relu_1x1
I0403 02:30:37.655623 30257 net.cpp:91] Creating Layer inception_4d/relu_1x1
I0403 02:30:37.655643 30257 net.cpp:425] inception_4d/relu_1x1 <- inception_4d/1x1
I0403 02:30:37.655664 30257 net.cpp:386] inception_4d/relu_1x1 -> inception_4d/1x1 (in-place)
I0403 02:30:37.655688 30257 net.cpp:141] Setting up inception_4d/relu_1x1
I0403 02:30:37.655707 30257 net.cpp:148] Top shape: 24 112 14 14 (526848)
I0403 02:30:37.655725 30257 net.cpp:156] Memory required for data: 1115385792
I0403 02:30:37.655743 30257 layer_factory.hpp:77] Creating layer inception_4d/3x3_reduce
I0403 02:30:37.655771 30257 net.cpp:91] Creating Layer inception_4d/3x3_reduce
I0403 02:30:37.655793 30257 net.cpp:425] inception_4d/3x3_reduce <- inception_4c/output_inception_4c/output_0_split_1
I0403 02:30:37.655819 30257 net.cpp:399] inception_4d/3x3_reduce -> inception_4d/3x3_reduce
I0403 02:30:37.656586 30257 net.cpp:141] Setting up inception_4d/3x3_reduce
I0403 02:30:37.656622 30257 net.cpp:148] Top shape: 24 144 14 14 (677376)
I0403 02:30:37.656641 30257 net.cpp:156] Memory required for data: 1118095296
I0403 02:30:37.656680 30257 layer_factory.hpp:77] Creating layer inception_4d/relu_3x3_reduce
I0403 02:30:37.656705 30257 net.cpp:91] Creating Layer inception_4d/relu_3x3_reduce
I0403 02:30:37.656725 30257 net.cpp:425] inception_4d/relu_3x3_reduce <- inception_4d/3x3_reduce
I0403 02:30:37.656746 30257 net.cpp:386] inception_4d/relu_3x3_reduce -> inception_4d/3x3_reduce (in-place)
I0403 02:30:37.656770 30257 net.cpp:141] Setting up inception_4d/relu_3x3_reduce
I0403 02:30:37.656792 30257 net.cpp:148] Top shape: 24 144 14 14 (677376)
I0403 02:30:37.656810 30257 net.cpp:156] Memory required for data: 1120804800
I0403 02:30:37.656828 30257 layer_factory.hpp:77] Creating layer inception_4d/3x3
I0403 02:30:37.656857 30257 net.cpp:91] Creating Layer inception_4d/3x3
I0403 02:30:37.656879 30257 net.cpp:425] inception_4d/3x3 <- inception_4d/3x3_reduce
I0403 02:30:37.656906 30257 net.cpp:399] inception_4d/3x3 -> inception_4d/3x3
I0403 02:30:37.660773 30257 net.cpp:141] Setting up inception_4d/3x3
I0403 02:30:37.660809 30257 net.cpp:148] Top shape: 24 288 14 14 (1354752)
I0403 02:30:37.660830 30257 net.cpp:156] Memory required for data: 1126223808
I0403 02:30:37.660851 30257 layer_factory.hpp:77] Creating layer inception_4d/relu_3x3
I0403 02:30:37.660873 30257 net.cpp:91] Creating Layer inception_4d/relu_3x3
I0403 02:30:37.660892 30257 net.cpp:425] inception_4d/relu_3x3 <- inception_4d/3x3
I0403 02:30:37.660917 30257 net.cpp:386] inception_4d/relu_3x3 -> inception_4d/3x3 (in-place)
I0403 02:30:37.660943 30257 net.cpp:141] Setting up inception_4d/relu_3x3
I0403 02:30:37.660965 30257 net.cpp:148] Top shape: 24 288 14 14 (1354752)
I0403 02:30:37.660984 30257 net.cpp:156] Memory required for data: 1131642816
I0403 02:30:37.661000 30257 layer_factory.hpp:77] Creating layer inception_4d/5x5_reduce
I0403 02:30:37.661028 30257 net.cpp:91] Creating Layer inception_4d/5x5_reduce
I0403 02:30:37.661049 30257 net.cpp:425] inception_4d/5x5_reduce <- inception_4c/output_inception_4c/output_0_split_2
I0403 02:30:37.661072 30257 net.cpp:399] inception_4d/5x5_reduce -> inception_4d/5x5_reduce
I0403 02:30:37.661449 30257 net.cpp:141] Setting up inception_4d/5x5_reduce
I0403 02:30:37.661481 30257 net.cpp:148] Top shape: 24 32 14 14 (150528)
I0403 02:30:37.661499 30257 net.cpp:156] Memory required for data: 1132244928
I0403 02:30:37.661520 30257 layer_factory.hpp:77] Creating layer inception_4d/relu_5x5_reduce
I0403 02:30:37.661542 30257 net.cpp:91] Creating Layer inception_4d/relu_5x5_reduce
I0403 02:30:37.661562 30257 net.cpp:425] inception_4d/relu_5x5_reduce <- inception_4d/5x5_reduce
I0403 02:30:37.661588 30257 net.cpp:386] inception_4d/relu_5x5_reduce -> inception_4d/5x5_reduce (in-place)
I0403 02:30:37.661618 30257 net.cpp:141] Setting up inception_4d/relu_5x5_reduce
I0403 02:30:37.661640 30257 net.cpp:148] Top shape: 24 32 14 14 (150528)
I0403 02:30:37.661659 30257 net.cpp:156] Memory required for data: 1132847040
I0403 02:30:37.661675 30257 layer_factory.hpp:77] Creating layer inception_4d/5x5
I0403 02:30:37.661703 30257 net.cpp:91] Creating Layer inception_4d/5x5
I0403 02:30:37.661726 30257 net.cpp:425] inception_4d/5x5 <- inception_4d/5x5_reduce
I0403 02:30:37.661751 30257 net.cpp:399] inception_4d/5x5 -> inception_4d/5x5
I0403 02:30:37.662353 30257 net.cpp:141] Setting up inception_4d/5x5
I0403 02:30:37.662384 30257 net.cpp:148] Top shape: 24 64 14 14 (301056)
I0403 02:30:37.662401 30257 net.cpp:156] Memory required for data: 1134051264
I0403 02:30:37.662422 30257 layer_factory.hpp:77] Creating layer inception_4d/relu_5x5
I0403 02:30:37.662444 30257 net.cpp:91] Creating Layer inception_4d/relu_5x5
I0403 02:30:37.662464 30257 net.cpp:425] inception_4d/relu_5x5 <- inception_4d/5x5
I0403 02:30:37.662487 30257 net.cpp:386] inception_4d/relu_5x5 -> inception_4d/5x5 (in-place)
I0403 02:30:37.662510 30257 net.cpp:141] Setting up inception_4d/relu_5x5
I0403 02:30:37.662531 30257 net.cpp:148] Top shape: 24 64 14 14 (301056)
I0403 02:30:37.662549 30257 net.cpp:156] Memory required for data: 1135255488
I0403 02:30:37.662566 30257 layer_factory.hpp:77] Creating layer inception_4d/pool
I0403 02:30:37.662619 30257 net.cpp:91] Creating Layer inception_4d/pool
I0403 02:30:37.662645 30257 net.cpp:425] inception_4d/pool <- inception_4c/output_inception_4c/output_0_split_3
I0403 02:30:37.662672 30257 net.cpp:399] inception_4d/pool -> inception_4d/pool
I0403 02:30:37.662734 30257 net.cpp:141] Setting up inception_4d/pool
I0403 02:30:37.662762 30257 net.cpp:148] Top shape: 24 512 14 14 (2408448)
I0403 02:30:37.662781 30257 net.cpp:156] Memory required for data: 1144889280
I0403 02:30:37.662801 30257 layer_factory.hpp:77] Creating layer inception_4d/pool_proj
I0403 02:30:37.662828 30257 net.cpp:91] Creating Layer inception_4d/pool_proj
I0403 02:30:37.662850 30257 net.cpp:425] inception_4d/pool_proj <- inception_4d/pool
I0403 02:30:37.662876 30257 net.cpp:399] inception_4d/pool_proj -> inception_4d/pool_proj
I0403 02:30:37.663980 30257 net.cpp:141] Setting up inception_4d/pool_proj
I0403 02:30:37.664016 30257 net.cpp:148] Top shape: 24 64 14 14 (301056)
I0403 02:30:37.664036 30257 net.cpp:156] Memory required for data: 1146093504
I0403 02:30:37.664058 30257 layer_factory.hpp:77] Creating layer inception_4d/relu_pool_proj
I0403 02:30:37.664080 30257 net.cpp:91] Creating Layer inception_4d/relu_pool_proj
I0403 02:30:37.664099 30257 net.cpp:425] inception_4d/relu_pool_proj <- inception_4d/pool_proj
I0403 02:30:37.664120 30257 net.cpp:386] inception_4d/relu_pool_proj -> inception_4d/pool_proj (in-place)
I0403 02:30:37.664144 30257 net.cpp:141] Setting up inception_4d/relu_pool_proj
I0403 02:30:37.664165 30257 net.cpp:148] Top shape: 24 64 14 14 (301056)
I0403 02:30:37.664183 30257 net.cpp:156] Memory required for data: 1147297728
I0403 02:30:37.664201 30257 layer_factory.hpp:77] Creating layer inception_4d/output
I0403 02:30:37.664225 30257 net.cpp:91] Creating Layer inception_4d/output
I0403 02:30:37.664245 30257 net.cpp:425] inception_4d/output <- inception_4d/1x1
I0403 02:30:37.664265 30257 net.cpp:425] inception_4d/output <- inception_4d/3x3
I0403 02:30:37.664286 30257 net.cpp:425] inception_4d/output <- inception_4d/5x5
I0403 02:30:37.664305 30257 net.cpp:425] inception_4d/output <- inception_4d/pool_proj
I0403 02:30:37.664326 30257 net.cpp:399] inception_4d/output -> inception_4d/output
I0403 02:30:37.664373 30257 net.cpp:141] Setting up inception_4d/output
I0403 02:30:37.664402 30257 net.cpp:148] Top shape: 24 528 14 14 (2483712)
I0403 02:30:37.664419 30257 net.cpp:156] Memory required for data: 1157232576
I0403 02:30:37.664438 30257 layer_factory.hpp:77] Creating layer inception_4d/output_inception_4d/output_0_split
I0403 02:30:37.664459 30257 net.cpp:91] Creating Layer inception_4d/output_inception_4d/output_0_split
I0403 02:30:37.664479 30257 net.cpp:425] inception_4d/output_inception_4d/output_0_split <- inception_4d/output
I0403 02:30:37.664504 30257 net.cpp:399] inception_4d/output_inception_4d/output_0_split -> inception_4d/output_inception_4d/output_0_split_0
I0403 02:30:37.664530 30257 net.cpp:399] inception_4d/output_inception_4d/output_0_split -> inception_4d/output_inception_4d/output_0_split_1
I0403 02:30:37.664554 30257 net.cpp:399] inception_4d/output_inception_4d/output_0_split -> inception_4d/output_inception_4d/output_0_split_2
I0403 02:30:37.664579 30257 net.cpp:399] inception_4d/output_inception_4d/output_0_split -> inception_4d/output_inception_4d/output_0_split_3
I0403 02:30:37.664609 30257 net.cpp:399] inception_4d/output_inception_4d/output_0_split -> inception_4d/output_inception_4d/output_0_split_4
I0403 02:30:37.664706 30257 net.cpp:141] Setting up inception_4d/output_inception_4d/output_0_split
I0403 02:30:37.664734 30257 net.cpp:148] Top shape: 24 528 14 14 (2483712)
I0403 02:30:37.664754 30257 net.cpp:148] Top shape: 24 528 14 14 (2483712)
I0403 02:30:37.664773 30257 net.cpp:148] Top shape: 24 528 14 14 (2483712)
I0403 02:30:37.664791 30257 net.cpp:148] Top shape: 24 528 14 14 (2483712)
I0403 02:30:37.664810 30257 net.cpp:148] Top shape: 24 528 14 14 (2483712)
I0403 02:30:37.664829 30257 net.cpp:156] Memory required for data: 1206906816
I0403 02:30:37.664863 30257 layer_factory.hpp:77] Creating layer loss2/ave_pool
I0403 02:30:37.664890 30257 net.cpp:91] Creating Layer loss2/ave_pool
I0403 02:30:37.664912 30257 net.cpp:425] loss2/ave_pool <- inception_4d/output_inception_4d/output_0_split_0
I0403 02:30:37.664934 30257 net.cpp:399] loss2/ave_pool -> loss2/ave_pool
I0403 02:30:37.664983 30257 net.cpp:141] Setting up loss2/ave_pool
I0403 02:30:37.665010 30257 net.cpp:148] Top shape: 24 528 4 4 (202752)
I0403 02:30:37.665029 30257 net.cpp:156] Memory required for data: 1207717824
I0403 02:30:37.665046 30257 layer_factory.hpp:77] Creating layer loss2/conv
I0403 02:30:37.665076 30257 net.cpp:91] Creating Layer loss2/conv
I0403 02:30:37.665097 30257 net.cpp:425] loss2/conv <- loss2/ave_pool
I0403 02:30:37.665124 30257 net.cpp:399] loss2/conv -> loss2/conv
I0403 02:30:37.666447 30257 net.cpp:141] Setting up loss2/conv
I0403 02:30:37.666486 30257 net.cpp:148] Top shape: 24 128 4 4 (49152)
I0403 02:30:37.666506 30257 net.cpp:156] Memory required for data: 1207914432
I0403 02:30:37.666527 30257 layer_factory.hpp:77] Creating layer loss2/relu_conv
I0403 02:30:37.666550 30257 net.cpp:91] Creating Layer loss2/relu_conv
I0403 02:30:37.666570 30257 net.cpp:425] loss2/relu_conv <- loss2/conv
I0403 02:30:37.666592 30257 net.cpp:386] loss2/relu_conv -> loss2/conv (in-place)
I0403 02:30:37.666621 30257 net.cpp:141] Setting up loss2/relu_conv
I0403 02:30:37.666643 30257 net.cpp:148] Top shape: 24 128 4 4 (49152)
I0403 02:30:37.666659 30257 net.cpp:156] Memory required for data: 1208111040
I0403 02:30:37.666676 30257 layer_factory.hpp:77] Creating layer loss2/fc
I0403 02:30:37.666700 30257 net.cpp:91] Creating Layer loss2/fc
I0403 02:30:37.666720 30257 net.cpp:425] loss2/fc <- loss2/conv
I0403 02:30:37.666749 30257 net.cpp:399] loss2/fc -> loss2/fc
I0403 02:30:37.686272 30257 net.cpp:141] Setting up loss2/fc
I0403 02:30:37.686316 30257 net.cpp:148] Top shape: 24 1024 (24576)
I0403 02:30:37.686336 30257 net.cpp:156] Memory required for data: 1208209344
I0403 02:30:37.686359 30257 layer_factory.hpp:77] Creating layer loss2/relu_fc
I0403 02:30:37.686383 30257 net.cpp:91] Creating Layer loss2/relu_fc
I0403 02:30:37.686403 30257 net.cpp:425] loss2/relu_fc <- loss2/fc
I0403 02:30:37.686424 30257 net.cpp:386] loss2/relu_fc -> loss2/fc (in-place)
I0403 02:30:37.686449 30257 net.cpp:141] Setting up loss2/relu_fc
I0403 02:30:37.686470 30257 net.cpp:148] Top shape: 24 1024 (24576)
I0403 02:30:37.686488 30257 net.cpp:156] Memory required for data: 1208307648
I0403 02:30:37.686504 30257 layer_factory.hpp:77] Creating layer loss2/drop_fc
I0403 02:30:37.686529 30257 net.cpp:91] Creating Layer loss2/drop_fc
I0403 02:30:37.686549 30257 net.cpp:425] loss2/drop_fc <- loss2/fc
I0403 02:30:37.686571 30257 net.cpp:386] loss2/drop_fc -> loss2/fc (in-place)
I0403 02:30:37.686625 30257 net.cpp:141] Setting up loss2/drop_fc
I0403 02:30:37.686655 30257 net.cpp:148] Top shape: 24 1024 (24576)
I0403 02:30:37.686672 30257 net.cpp:156] Memory required for data: 1208405952
I0403 02:30:37.686689 30257 layer_factory.hpp:77] Creating layer loss2/classifier_plantvillage
I0403 02:30:37.686713 30257 net.cpp:91] Creating Layer loss2/classifier_plantvillage
I0403 02:30:37.686734 30257 net.cpp:425] loss2/classifier_plantvillage <- loss2/fc
I0403 02:30:37.686763 30257 net.cpp:399] loss2/classifier_plantvillage -> loss2/classifier_plantvillage
I0403 02:30:37.687158 30257 net.cpp:141] Setting up loss2/classifier_plantvillage
I0403 02:30:37.687192 30257 net.cpp:148] Top shape: 24 38 (912)
I0403 02:30:37.687211 30257 net.cpp:156] Memory required for data: 1208409600
I0403 02:30:37.687233 30257 layer_factory.hpp:77] Creating layer inception_4e/1x1
I0403 02:30:37.687266 30257 net.cpp:91] Creating Layer inception_4e/1x1
I0403 02:30:37.687290 30257 net.cpp:425] inception_4e/1x1 <- inception_4d/output_inception_4d/output_0_split_1
I0403 02:30:37.687314 30257 net.cpp:399] inception_4e/1x1 -> inception_4e/1x1
I0403 02:30:37.688491 30257 net.cpp:141] Setting up inception_4e/1x1
I0403 02:30:37.688525 30257 net.cpp:148] Top shape: 24 256 14 14 (1204224)
I0403 02:30:37.688565 30257 net.cpp:156] Memory required for data: 1213226496
I0403 02:30:37.688596 30257 layer_factory.hpp:77] Creating layer inception_4e/relu_1x1
I0403 02:30:37.688628 30257 net.cpp:91] Creating Layer inception_4e/relu_1x1
I0403 02:30:37.688648 30257 net.cpp:425] inception_4e/relu_1x1 <- inception_4e/1x1
I0403 02:30:37.688668 30257 net.cpp:386] inception_4e/relu_1x1 -> inception_4e/1x1 (in-place)
I0403 02:30:37.688694 30257 net.cpp:141] Setting up inception_4e/relu_1x1
I0403 02:30:37.688714 30257 net.cpp:148] Top shape: 24 256 14 14 (1204224)
I0403 02:30:37.688732 30257 net.cpp:156] Memory required for data: 1218043392
I0403 02:30:37.688750 30257 layer_factory.hpp:77] Creating layer inception_4e/3x3_reduce
I0403 02:30:37.688778 30257 net.cpp:91] Creating Layer inception_4e/3x3_reduce
I0403 02:30:37.688801 30257 net.cpp:425] inception_4e/3x3_reduce <- inception_4d/output_inception_4d/output_0_split_2
I0403 02:30:37.688827 30257 net.cpp:399] inception_4e/3x3_reduce -> inception_4e/3x3_reduce
I0403 02:30:37.690305 30257 net.cpp:141] Setting up inception_4e/3x3_reduce
I0403 02:30:37.690345 30257 net.cpp:148] Top shape: 24 160 14 14 (752640)
I0403 02:30:37.690364 30257 net.cpp:156] Memory required for data: 1221053952
I0403 02:30:37.690397 30257 layer_factory.hpp:77] Creating layer inception_4e/relu_3x3_reduce
I0403 02:30:37.690423 30257 net.cpp:91] Creating Layer inception_4e/relu_3x3_reduce
I0403 02:30:37.690446 30257 net.cpp:425] inception_4e/relu_3x3_reduce <- inception_4e/3x3_reduce
I0403 02:30:37.690469 30257 net.cpp:386] inception_4e/relu_3x3_reduce -> inception_4e/3x3_reduce (in-place)
I0403 02:30:37.690493 30257 net.cpp:141] Setting up inception_4e/relu_3x3_reduce
I0403 02:30:37.690516 30257 net.cpp:148] Top shape: 24 160 14 14 (752640)
I0403 02:30:37.690536 30257 net.cpp:156] Memory required for data: 1224064512
I0403 02:30:37.690554 30257 layer_factory.hpp:77] Creating layer inception_4e/3x3
I0403 02:30:37.690582 30257 net.cpp:91] Creating Layer inception_4e/3x3
I0403 02:30:37.690621 30257 net.cpp:425] inception_4e/3x3 <- inception_4e/3x3_reduce
I0403 02:30:37.690647 30257 net.cpp:399] inception_4e/3x3 -> inception_4e/3x3
I0403 02:30:37.695613 30257 net.cpp:141] Setting up inception_4e/3x3
I0403 02:30:37.695650 30257 net.cpp:148] Top shape: 24 320 14 14 (1505280)
I0403 02:30:37.695670 30257 net.cpp:156] Memory required for data: 1230085632
I0403 02:30:37.695693 30257 layer_factory.hpp:77] Creating layer inception_4e/relu_3x3
I0403 02:30:37.695718 30257 net.cpp:91] Creating Layer inception_4e/relu_3x3
I0403 02:30:37.695739 30257 net.cpp:425] inception_4e/relu_3x3 <- inception_4e/3x3
I0403 02:30:37.695761 30257 net.cpp:386] inception_4e/relu_3x3 -> inception_4e/3x3 (in-place)
I0403 02:30:37.695788 30257 net.cpp:141] Setting up inception_4e/relu_3x3
I0403 02:30:37.695812 30257 net.cpp:148] Top shape: 24 320 14 14 (1505280)
I0403 02:30:37.695829 30257 net.cpp:156] Memory required for data: 1236106752
I0403 02:30:37.695847 30257 layer_factory.hpp:77] Creating layer inception_4e/5x5_reduce
I0403 02:30:37.695875 30257 net.cpp:91] Creating Layer inception_4e/5x5_reduce
I0403 02:30:37.695900 30257 net.cpp:425] inception_4e/5x5_reduce <- inception_4d/output_inception_4d/output_0_split_3
I0403 02:30:37.695924 30257 net.cpp:399] inception_4e/5x5_reduce -> inception_4e/5x5_reduce
I0403 02:30:37.696305 30257 net.cpp:141] Setting up inception_4e/5x5_reduce
I0403 02:30:37.696338 30257 net.cpp:148] Top shape: 24 32 14 14 (150528)
I0403 02:30:37.696358 30257 net.cpp:156] Memory required for data: 1236708864
I0403 02:30:37.696380 30257 layer_factory.hpp:77] Creating layer inception_4e/relu_5x5_reduce
I0403 02:30:37.696404 30257 net.cpp:91] Creating Layer inception_4e/relu_5x5_reduce
I0403 02:30:37.696427 30257 net.cpp:425] inception_4e/relu_5x5_reduce <- inception_4e/5x5_reduce
I0403 02:30:37.696454 30257 net.cpp:386] inception_4e/relu_5x5_reduce -> inception_4e/5x5_reduce (in-place)
I0403 02:30:37.696480 30257 net.cpp:141] Setting up inception_4e/relu_5x5_reduce
I0403 02:30:37.696503 30257 net.cpp:148] Top shape: 24 32 14 14 (150528)
I0403 02:30:37.696542 30257 net.cpp:156] Memory required for data: 1237310976
I0403 02:30:37.696560 30257 layer_factory.hpp:77] Creating layer inception_4e/5x5
I0403 02:30:37.696588 30257 net.cpp:91] Creating Layer inception_4e/5x5
I0403 02:30:37.696616 30257 net.cpp:425] inception_4e/5x5 <- inception_4e/5x5_reduce
I0403 02:30:37.696645 30257 net.cpp:399] inception_4e/5x5 -> inception_4e/5x5
I0403 02:30:37.697594 30257 net.cpp:141] Setting up inception_4e/5x5
I0403 02:30:37.697633 30257 net.cpp:148] Top shape: 24 128 14 14 (602112)
I0403 02:30:37.697651 30257 net.cpp:156] Memory required for data: 1239719424
I0403 02:30:37.697674 30257 layer_factory.hpp:77] Creating layer inception_4e/relu_5x5
I0403 02:30:37.697698 30257 net.cpp:91] Creating Layer inception_4e/relu_5x5
I0403 02:30:37.697720 30257 net.cpp:425] inception_4e/relu_5x5 <- inception_4e/5x5
I0403 02:30:37.697739 30257 net.cpp:386] inception_4e/relu_5x5 -> inception_4e/5x5 (in-place)
I0403 02:30:37.697762 30257 net.cpp:141] Setting up inception_4e/relu_5x5
I0403 02:30:37.697783 30257 net.cpp:148] Top shape: 24 128 14 14 (602112)
I0403 02:30:37.697801 30257 net.cpp:156] Memory required for data: 1242127872
I0403 02:30:37.697820 30257 layer_factory.hpp:77] Creating layer inception_4e/pool
I0403 02:30:37.697865 30257 net.cpp:91] Creating Layer inception_4e/pool
I0403 02:30:37.697890 30257 net.cpp:425] inception_4e/pool <- inception_4d/output_inception_4d/output_0_split_4
I0403 02:30:37.697913 30257 net.cpp:399] inception_4e/pool -> inception_4e/pool
I0403 02:30:37.697978 30257 net.cpp:141] Setting up inception_4e/pool
I0403 02:30:37.698009 30257 net.cpp:148] Top shape: 24 528 14 14 (2483712)
I0403 02:30:37.698029 30257 net.cpp:156] Memory required for data: 1252062720
I0403 02:30:37.698047 30257 layer_factory.hpp:77] Creating layer inception_4e/pool_proj
I0403 02:30:37.698074 30257 net.cpp:91] Creating Layer inception_4e/pool_proj
I0403 02:30:37.698097 30257 net.cpp:425] inception_4e/pool_proj <- inception_4e/pool
I0403 02:30:37.698123 30257 net.cpp:399] inception_4e/pool_proj -> inception_4e/pool_proj
I0403 02:30:37.698837 30257 net.cpp:141] Setting up inception_4e/pool_proj
I0403 02:30:37.698870 30257 net.cpp:148] Top shape: 24 128 14 14 (602112)
I0403 02:30:37.698890 30257 net.cpp:156] Memory required for data: 1254471168
I0403 02:30:37.698912 30257 layer_factory.hpp:77] Creating layer inception_4e/relu_pool_proj
I0403 02:30:37.698941 30257 net.cpp:91] Creating Layer inception_4e/relu_pool_proj
I0403 02:30:37.698962 30257 net.cpp:425] inception_4e/relu_pool_proj <- inception_4e/pool_proj
I0403 02:30:37.698984 30257 net.cpp:386] inception_4e/relu_pool_proj -> inception_4e/pool_proj (in-place)
I0403 02:30:37.699007 30257 net.cpp:141] Setting up inception_4e/relu_pool_proj
I0403 02:30:37.699030 30257 net.cpp:148] Top shape: 24 128 14 14 (602112)
I0403 02:30:37.699048 30257 net.cpp:156] Memory required for data: 1256879616
I0403 02:30:37.699065 30257 layer_factory.hpp:77] Creating layer inception_4e/output
I0403 02:30:37.699090 30257 net.cpp:91] Creating Layer inception_4e/output
I0403 02:30:37.699113 30257 net.cpp:425] inception_4e/output <- inception_4e/1x1
I0403 02:30:37.699133 30257 net.cpp:425] inception_4e/output <- inception_4e/3x3
I0403 02:30:37.699154 30257 net.cpp:425] inception_4e/output <- inception_4e/5x5
I0403 02:30:37.699174 30257 net.cpp:425] inception_4e/output <- inception_4e/pool_proj
I0403 02:30:37.699195 30257 net.cpp:399] inception_4e/output -> inception_4e/output
I0403 02:30:37.699241 30257 net.cpp:141] Setting up inception_4e/output
I0403 02:30:37.699272 30257 net.cpp:148] Top shape: 24 832 14 14 (3913728)
I0403 02:30:37.699293 30257 net.cpp:156] Memory required for data: 1272534528
I0403 02:30:37.699312 30257 layer_factory.hpp:77] Creating layer pool4/3x3_s2
I0403 02:30:37.699337 30257 net.cpp:91] Creating Layer pool4/3x3_s2
I0403 02:30:37.699357 30257 net.cpp:425] pool4/3x3_s2 <- inception_4e/output
I0403 02:30:37.699379 30257 net.cpp:399] pool4/3x3_s2 -> pool4/3x3_s2
I0403 02:30:37.699445 30257 net.cpp:141] Setting up pool4/3x3_s2
I0403 02:30:37.699487 30257 net.cpp:148] Top shape: 24 832 7 7 (978432)
I0403 02:30:37.699508 30257 net.cpp:156] Memory required for data: 1276448256
I0403 02:30:37.699528 30257 layer_factory.hpp:77] Creating layer pool4/3x3_s2_pool4/3x3_s2_0_split
I0403 02:30:37.699554 30257 net.cpp:91] Creating Layer pool4/3x3_s2_pool4/3x3_s2_0_split
I0403 02:30:37.699576 30257 net.cpp:425] pool4/3x3_s2_pool4/3x3_s2_0_split <- pool4/3x3_s2
I0403 02:30:37.699602 30257 net.cpp:399] pool4/3x3_s2_pool4/3x3_s2_0_split -> pool4/3x3_s2_pool4/3x3_s2_0_split_0
I0403 02:30:37.699631 30257 net.cpp:399] pool4/3x3_s2_pool4/3x3_s2_0_split -> pool4/3x3_s2_pool4/3x3_s2_0_split_1
I0403 02:30:37.699657 30257 net.cpp:399] pool4/3x3_s2_pool4/3x3_s2_0_split -> pool4/3x3_s2_pool4/3x3_s2_0_split_2
I0403 02:30:37.699683 30257 net.cpp:399] pool4/3x3_s2_pool4/3x3_s2_0_split -> pool4/3x3_s2_pool4/3x3_s2_0_split_3
I0403 02:30:37.699769 30257 net.cpp:141] Setting up pool4/3x3_s2_pool4/3x3_s2_0_split
I0403 02:30:37.699797 30257 net.cpp:148] Top shape: 24 832 7 7 (978432)
I0403 02:30:37.699817 30257 net.cpp:148] Top shape: 24 832 7 7 (978432)
I0403 02:30:37.699837 30257 net.cpp:148] Top shape: 24 832 7 7 (978432)
I0403 02:30:37.699858 30257 net.cpp:148] Top shape: 24 832 7 7 (978432)
I0403 02:30:37.699877 30257 net.cpp:156] Memory required for data: 1292103168
I0403 02:30:37.699893 30257 layer_factory.hpp:77] Creating layer inception_5a/1x1
I0403 02:30:37.699923 30257 net.cpp:91] Creating Layer inception_5a/1x1
I0403 02:30:37.699946 30257 net.cpp:425] inception_5a/1x1 <- pool4/3x3_s2_pool4/3x3_s2_0_split_0
I0403 02:30:37.699973 30257 net.cpp:399] inception_5a/1x1 -> inception_5a/1x1
I0403 02:30:37.702275 30257 net.cpp:141] Setting up inception_5a/1x1
I0403 02:30:37.702313 30257 net.cpp:148] Top shape: 24 256 7 7 (301056)
I0403 02:30:37.702334 30257 net.cpp:156] Memory required for data: 1293307392
I0403 02:30:37.702356 30257 layer_factory.hpp:77] Creating layer inception_5a/relu_1x1
I0403 02:30:37.702379 30257 net.cpp:91] Creating Layer inception_5a/relu_1x1
I0403 02:30:37.702399 30257 net.cpp:425] inception_5a/relu_1x1 <- inception_5a/1x1
I0403 02:30:37.702425 30257 net.cpp:386] inception_5a/relu_1x1 -> inception_5a/1x1 (in-place)
I0403 02:30:37.702450 30257 net.cpp:141] Setting up inception_5a/relu_1x1
I0403 02:30:37.702471 30257 net.cpp:148] Top shape: 24 256 7 7 (301056)
I0403 02:30:37.702491 30257 net.cpp:156] Memory required for data: 1294511616
I0403 02:30:37.702508 30257 layer_factory.hpp:77] Creating layer inception_5a/3x3_reduce
I0403 02:30:37.702533 30257 net.cpp:91] Creating Layer inception_5a/3x3_reduce
I0403 02:30:37.702553 30257 net.cpp:425] inception_5a/3x3_reduce <- pool4/3x3_s2_pool4/3x3_s2_0_split_1
I0403 02:30:37.702581 30257 net.cpp:399] inception_5a/3x3_reduce -> inception_5a/3x3_reduce
I0403 02:30:37.704378 30257 net.cpp:141] Setting up inception_5a/3x3_reduce
I0403 02:30:37.704414 30257 net.cpp:148] Top shape: 24 160 7 7 (188160)
I0403 02:30:37.704435 30257 net.cpp:156] Memory required for data: 1295264256
I0403 02:30:37.704457 30257 layer_factory.hpp:77] Creating layer inception_5a/relu_3x3_reduce
I0403 02:30:37.704480 30257 net.cpp:91] Creating Layer inception_5a/relu_3x3_reduce
I0403 02:30:37.704500 30257 net.cpp:425] inception_5a/relu_3x3_reduce <- inception_5a/3x3_reduce
I0403 02:30:37.704525 30257 net.cpp:386] inception_5a/relu_3x3_reduce -> inception_5a/3x3_reduce (in-place)
I0403 02:30:37.704552 30257 net.cpp:141] Setting up inception_5a/relu_3x3_reduce
I0403 02:30:37.704574 30257 net.cpp:148] Top shape: 24 160 7 7 (188160)
I0403 02:30:37.704592 30257 net.cpp:156] Memory required for data: 1296016896
I0403 02:30:37.704615 30257 layer_factory.hpp:77] Creating layer inception_5a/3x3
I0403 02:30:37.704643 30257 net.cpp:91] Creating Layer inception_5a/3x3
I0403 02:30:37.704664 30257 net.cpp:425] inception_5a/3x3 <- inception_5a/3x3_reduce
I0403 02:30:37.704690 30257 net.cpp:399] inception_5a/3x3 -> inception_5a/3x3
I0403 02:30:37.709398 30257 net.cpp:141] Setting up inception_5a/3x3
I0403 02:30:37.709435 30257 net.cpp:148] Top shape: 24 320 7 7 (376320)
I0403 02:30:37.709473 30257 net.cpp:156] Memory required for data: 1297522176
I0403 02:30:37.709499 30257 layer_factory.hpp:77] Creating layer inception_5a/relu_3x3
I0403 02:30:37.709525 30257 net.cpp:91] Creating Layer inception_5a/relu_3x3
I0403 02:30:37.709547 30257 net.cpp:425] inception_5a/relu_3x3 <- inception_5a/3x3
I0403 02:30:37.709568 30257 net.cpp:386] inception_5a/relu_3x3 -> inception_5a/3x3 (in-place)
I0403 02:30:37.709596 30257 net.cpp:141] Setting up inception_5a/relu_3x3
I0403 02:30:37.709625 30257 net.cpp:148] Top shape: 24 320 7 7 (376320)
I0403 02:30:37.709643 30257 net.cpp:156] Memory required for data: 1299027456
I0403 02:30:37.709661 30257 layer_factory.hpp:77] Creating layer inception_5a/5x5_reduce
I0403 02:30:37.709686 30257 net.cpp:91] Creating Layer inception_5a/5x5_reduce
I0403 02:30:37.709707 30257 net.cpp:425] inception_5a/5x5_reduce <- pool4/3x3_s2_pool4/3x3_s2_0_split_2
I0403 02:30:37.709734 30257 net.cpp:399] inception_5a/5x5_reduce -> inception_5a/5x5_reduce
I0403 02:30:37.710197 30257 net.cpp:141] Setting up inception_5a/5x5_reduce
I0403 02:30:37.710228 30257 net.cpp:148] Top shape: 24 32 7 7 (37632)
I0403 02:30:37.710247 30257 net.cpp:156] Memory required for data: 1299177984
I0403 02:30:37.710269 30257 layer_factory.hpp:77] Creating layer inception_5a/relu_5x5_reduce
I0403 02:30:37.710294 30257 net.cpp:91] Creating Layer inception_5a/relu_5x5_reduce
I0403 02:30:37.710314 30257 net.cpp:425] inception_5a/relu_5x5_reduce <- inception_5a/5x5_reduce
I0403 02:30:37.710336 30257 net.cpp:386] inception_5a/relu_5x5_reduce -> inception_5a/5x5_reduce (in-place)
I0403 02:30:37.710358 30257 net.cpp:141] Setting up inception_5a/relu_5x5_reduce
I0403 02:30:37.710381 30257 net.cpp:148] Top shape: 24 32 7 7 (37632)
I0403 02:30:37.710398 30257 net.cpp:156] Memory required for data: 1299328512
I0403 02:30:37.710415 30257 layer_factory.hpp:77] Creating layer inception_5a/5x5
I0403 02:30:37.710445 30257 net.cpp:91] Creating Layer inception_5a/5x5
I0403 02:30:37.710467 30257 net.cpp:425] inception_5a/5x5 <- inception_5a/5x5_reduce
I0403 02:30:37.710496 30257 net.cpp:399] inception_5a/5x5 -> inception_5a/5x5
I0403 02:30:37.711450 30257 net.cpp:141] Setting up inception_5a/5x5
I0403 02:30:37.711483 30257 net.cpp:148] Top shape: 24 128 7 7 (150528)
I0403 02:30:37.711501 30257 net.cpp:156] Memory required for data: 1299930624
I0403 02:30:37.711524 30257 layer_factory.hpp:77] Creating layer inception_5a/relu_5x5
I0403 02:30:37.711549 30257 net.cpp:91] Creating Layer inception_5a/relu_5x5
I0403 02:30:37.711572 30257 net.cpp:425] inception_5a/relu_5x5 <- inception_5a/5x5
I0403 02:30:37.711593 30257 net.cpp:386] inception_5a/relu_5x5 -> inception_5a/5x5 (in-place)
I0403 02:30:37.711622 30257 net.cpp:141] Setting up inception_5a/relu_5x5
I0403 02:30:37.711645 30257 net.cpp:148] Top shape: 24 128 7 7 (150528)
I0403 02:30:37.711663 30257 net.cpp:156] Memory required for data: 1300532736
I0403 02:30:37.711683 30257 layer_factory.hpp:77] Creating layer inception_5a/pool
I0403 02:30:37.711706 30257 net.cpp:91] Creating Layer inception_5a/pool
I0403 02:30:37.711727 30257 net.cpp:425] inception_5a/pool <- pool4/3x3_s2_pool4/3x3_s2_0_split_3
I0403 02:30:37.711750 30257 net.cpp:399] inception_5a/pool -> inception_5a/pool
I0403 02:30:37.711815 30257 net.cpp:141] Setting up inception_5a/pool
I0403 02:30:37.711845 30257 net.cpp:148] Top shape: 24 832 7 7 (978432)
I0403 02:30:37.711863 30257 net.cpp:156] Memory required for data: 1304446464
I0403 02:30:37.711882 30257 layer_factory.hpp:77] Creating layer inception_5a/pool_proj
I0403 02:30:37.711911 30257 net.cpp:91] Creating Layer inception_5a/pool_proj
I0403 02:30:37.711932 30257 net.cpp:425] inception_5a/pool_proj <- inception_5a/pool
I0403 02:30:37.711956 30257 net.cpp:399] inception_5a/pool_proj -> inception_5a/pool_proj
I0403 02:30:37.713570 30257 net.cpp:141] Setting up inception_5a/pool_proj
I0403 02:30:37.713611 30257 net.cpp:148] Top shape: 24 128 7 7 (150528)
I0403 02:30:37.713634 30257 net.cpp:156] Memory required for data: 1305048576
I0403 02:30:37.713675 30257 layer_factory.hpp:77] Creating layer inception_5a/relu_pool_proj
I0403 02:30:37.713701 30257 net.cpp:91] Creating Layer inception_5a/relu_pool_proj
I0403 02:30:37.713722 30257 net.cpp:425] inception_5a/relu_pool_proj <- inception_5a/pool_proj
I0403 02:30:37.713744 30257 net.cpp:386] inception_5a/relu_pool_proj -> inception_5a/pool_proj (in-place)
I0403 02:30:37.713773 30257 net.cpp:141] Setting up inception_5a/relu_pool_proj
I0403 02:30:37.713795 30257 net.cpp:148] Top shape: 24 128 7 7 (150528)
I0403 02:30:37.713814 30257 net.cpp:156] Memory required for data: 1305650688
I0403 02:30:37.713831 30257 layer_factory.hpp:77] Creating layer inception_5a/output
I0403 02:30:37.713853 30257 net.cpp:91] Creating Layer inception_5a/output
I0403 02:30:37.713871 30257 net.cpp:425] inception_5a/output <- inception_5a/1x1
I0403 02:30:37.713891 30257 net.cpp:425] inception_5a/output <- inception_5a/3x3
I0403 02:30:37.713912 30257 net.cpp:425] inception_5a/output <- inception_5a/5x5
I0403 02:30:37.713932 30257 net.cpp:425] inception_5a/output <- inception_5a/pool_proj
I0403 02:30:37.713955 30257 net.cpp:399] inception_5a/output -> inception_5a/output
I0403 02:30:37.714004 30257 net.cpp:141] Setting up inception_5a/output
I0403 02:30:37.714033 30257 net.cpp:148] Top shape: 24 832 7 7 (978432)
I0403 02:30:37.714051 30257 net.cpp:156] Memory required for data: 1309564416
I0403 02:30:37.714071 30257 layer_factory.hpp:77] Creating layer inception_5a/output_inception_5a/output_0_split
I0403 02:30:37.714094 30257 net.cpp:91] Creating Layer inception_5a/output_inception_5a/output_0_split
I0403 02:30:37.714112 30257 net.cpp:425] inception_5a/output_inception_5a/output_0_split <- inception_5a/output
I0403 02:30:37.714136 30257 net.cpp:399] inception_5a/output_inception_5a/output_0_split -> inception_5a/output_inception_5a/output_0_split_0
I0403 02:30:37.714164 30257 net.cpp:399] inception_5a/output_inception_5a/output_0_split -> inception_5a/output_inception_5a/output_0_split_1
I0403 02:30:37.714189 30257 net.cpp:399] inception_5a/output_inception_5a/output_0_split -> inception_5a/output_inception_5a/output_0_split_2
I0403 02:30:37.714213 30257 net.cpp:399] inception_5a/output_inception_5a/output_0_split -> inception_5a/output_inception_5a/output_0_split_3
I0403 02:30:37.714299 30257 net.cpp:141] Setting up inception_5a/output_inception_5a/output_0_split
I0403 02:30:37.714334 30257 net.cpp:148] Top shape: 24 832 7 7 (978432)
I0403 02:30:37.714355 30257 net.cpp:148] Top shape: 24 832 7 7 (978432)
I0403 02:30:37.714375 30257 net.cpp:148] Top shape: 24 832 7 7 (978432)
I0403 02:30:37.714395 30257 net.cpp:148] Top shape: 24 832 7 7 (978432)
I0403 02:30:37.714411 30257 net.cpp:156] Memory required for data: 1325219328
I0403 02:30:37.714431 30257 layer_factory.hpp:77] Creating layer inception_5b/1x1
I0403 02:30:37.714459 30257 net.cpp:91] Creating Layer inception_5b/1x1
I0403 02:30:37.714481 30257 net.cpp:425] inception_5b/1x1 <- inception_5a/output_inception_5a/output_0_split_0
I0403 02:30:37.714505 30257 net.cpp:399] inception_5b/1x1 -> inception_5b/1x1
I0403 02:30:37.717635 30257 net.cpp:141] Setting up inception_5b/1x1
I0403 02:30:37.717670 30257 net.cpp:148] Top shape: 24 384 7 7 (451584)
I0403 02:30:37.717690 30257 net.cpp:156] Memory required for data: 1327025664
I0403 02:30:37.717715 30257 layer_factory.hpp:77] Creating layer inception_5b/relu_1x1
I0403 02:30:37.717736 30257 net.cpp:91] Creating Layer inception_5b/relu_1x1
I0403 02:30:37.717756 30257 net.cpp:425] inception_5b/relu_1x1 <- inception_5b/1x1
I0403 02:30:37.717780 30257 net.cpp:386] inception_5b/relu_1x1 -> inception_5b/1x1 (in-place)
I0403 02:30:37.717806 30257 net.cpp:141] Setting up inception_5b/relu_1x1
I0403 02:30:37.717828 30257 net.cpp:148] Top shape: 24 384 7 7 (451584)
I0403 02:30:37.717846 30257 net.cpp:156] Memory required for data: 1328832000
I0403 02:30:37.717864 30257 layer_factory.hpp:77] Creating layer inception_5b/3x3_reduce
I0403 02:30:37.717888 30257 net.cpp:91] Creating Layer inception_5b/3x3_reduce
I0403 02:30:37.717908 30257 net.cpp:425] inception_5b/3x3_reduce <- inception_5a/output_inception_5a/output_0_split_1
I0403 02:30:37.717953 30257 net.cpp:399] inception_5b/3x3_reduce -> inception_5b/3x3_reduce
I0403 02:30:37.719930 30257 net.cpp:141] Setting up inception_5b/3x3_reduce
I0403 02:30:37.719966 30257 net.cpp:148] Top shape: 24 192 7 7 (225792)
I0403 02:30:37.719987 30257 net.cpp:156] Memory required for data: 1329735168
I0403 02:30:37.720010 30257 layer_factory.hpp:77] Creating layer inception_5b/relu_3x3_reduce
I0403 02:30:37.720033 30257 net.cpp:91] Creating Layer inception_5b/relu_3x3_reduce
I0403 02:30:37.720055 30257 net.cpp:425] inception_5b/relu_3x3_reduce <- inception_5b/3x3_reduce
I0403 02:30:37.720080 30257 net.cpp:386] inception_5b/relu_3x3_reduce -> inception_5b/3x3_reduce (in-place)
I0403 02:30:37.720108 30257 net.cpp:141] Setting up inception_5b/relu_3x3_reduce
I0403 02:30:37.720129 30257 net.cpp:148] Top shape: 24 192 7 7 (225792)
I0403 02:30:37.720149 30257 net.cpp:156] Memory required for data: 1330638336
I0403 02:30:37.720165 30257 layer_factory.hpp:77] Creating layer inception_5b/3x3
I0403 02:30:37.720192 30257 net.cpp:91] Creating Layer inception_5b/3x3
I0403 02:30:37.720213 30257 net.cpp:425] inception_5b/3x3 <- inception_5b/3x3_reduce
I0403 02:30:37.720240 30257 net.cpp:399] inception_5b/3x3 -> inception_5b/3x3
I0403 02:30:37.726820 30257 net.cpp:141] Setting up inception_5b/3x3
I0403 02:30:37.726856 30257 net.cpp:148] Top shape: 24 384 7 7 (451584)
I0403 02:30:37.726876 30257 net.cpp:156] Memory required for data: 1332444672
I0403 02:30:37.726898 30257 layer_factory.hpp:77] Creating layer inception_5b/relu_3x3
I0403 02:30:37.726927 30257 net.cpp:91] Creating Layer inception_5b/relu_3x3
I0403 02:30:37.726949 30257 net.cpp:425] inception_5b/relu_3x3 <- inception_5b/3x3
I0403 02:30:37.726974 30257 net.cpp:386] inception_5b/relu_3x3 -> inception_5b/3x3 (in-place)
I0403 02:30:37.726997 30257 net.cpp:141] Setting up inception_5b/relu_3x3
I0403 02:30:37.727018 30257 net.cpp:148] Top shape: 24 384 7 7 (451584)
I0403 02:30:37.727036 30257 net.cpp:156] Memory required for data: 1334251008
I0403 02:30:37.727054 30257 layer_factory.hpp:77] Creating layer inception_5b/5x5_reduce
I0403 02:30:37.727083 30257 net.cpp:91] Creating Layer inception_5b/5x5_reduce
I0403 02:30:37.727107 30257 net.cpp:425] inception_5b/5x5_reduce <- inception_5a/output_inception_5a/output_0_split_2
I0403 02:30:37.727133 30257 net.cpp:399] inception_5b/5x5_reduce -> inception_5b/5x5_reduce
I0403 02:30:37.727699 30257 net.cpp:141] Setting up inception_5b/5x5_reduce
I0403 02:30:37.727730 30257 net.cpp:148] Top shape: 24 48 7 7 (56448)
I0403 02:30:37.727749 30257 net.cpp:156] Memory required for data: 1334476800
I0403 02:30:37.727772 30257 layer_factory.hpp:77] Creating layer inception_5b/relu_5x5_reduce
I0403 02:30:37.727795 30257 net.cpp:91] Creating Layer inception_5b/relu_5x5_reduce
I0403 02:30:37.727816 30257 net.cpp:425] inception_5b/relu_5x5_reduce <- inception_5b/5x5_reduce
I0403 02:30:37.727838 30257 net.cpp:386] inception_5b/relu_5x5_reduce -> inception_5b/5x5_reduce (in-place)
I0403 02:30:37.727860 30257 net.cpp:141] Setting up inception_5b/relu_5x5_reduce
I0403 02:30:37.727882 30257 net.cpp:148] Top shape: 24 48 7 7 (56448)
I0403 02:30:37.727900 30257 net.cpp:156] Memory required for data: 1334702592
I0403 02:30:37.727918 30257 layer_factory.hpp:77] Creating layer inception_5b/5x5
I0403 02:30:37.727947 30257 net.cpp:91] Creating Layer inception_5b/5x5
I0403 02:30:37.727968 30257 net.cpp:425] inception_5b/5x5 <- inception_5b/5x5_reduce
I0403 02:30:37.727994 30257 net.cpp:399] inception_5b/5x5 -> inception_5b/5x5
I0403 02:30:37.729321 30257 net.cpp:141] Setting up inception_5b/5x5
I0403 02:30:37.729354 30257 net.cpp:148] Top shape: 24 128 7 7 (150528)
I0403 02:30:37.729373 30257 net.cpp:156] Memory required for data: 1335304704
I0403 02:30:37.729396 30257 layer_factory.hpp:77] Creating layer inception_5b/relu_5x5
I0403 02:30:37.729419 30257 net.cpp:91] Creating Layer inception_5b/relu_5x5
I0403 02:30:37.729439 30257 net.cpp:425] inception_5b/relu_5x5 <- inception_5b/5x5
I0403 02:30:37.729480 30257 net.cpp:386] inception_5b/relu_5x5 -> inception_5b/5x5 (in-place)
I0403 02:30:37.729509 30257 net.cpp:141] Setting up inception_5b/relu_5x5
I0403 02:30:37.729532 30257 net.cpp:148] Top shape: 24 128 7 7 (150528)
I0403 02:30:37.729550 30257 net.cpp:156] Memory required for data: 1335906816
I0403 02:30:37.729568 30257 layer_factory.hpp:77] Creating layer inception_5b/pool
I0403 02:30:37.729590 30257 net.cpp:91] Creating Layer inception_5b/pool
I0403 02:30:37.729616 30257 net.cpp:425] inception_5b/pool <- inception_5a/output_inception_5a/output_0_split_3
I0403 02:30:37.729640 30257 net.cpp:399] inception_5b/pool -> inception_5b/pool
I0403 02:30:37.729709 30257 net.cpp:141] Setting up inception_5b/pool
I0403 02:30:37.729740 30257 net.cpp:148] Top shape: 24 832 7 7 (978432)
I0403 02:30:37.729758 30257 net.cpp:156] Memory required for data: 1339820544
I0403 02:30:37.729778 30257 layer_factory.hpp:77] Creating layer inception_5b/pool_proj
I0403 02:30:37.729805 30257 net.cpp:91] Creating Layer inception_5b/pool_proj
I0403 02:30:37.729828 30257 net.cpp:425] inception_5b/pool_proj <- inception_5b/pool
I0403 02:30:37.729853 30257 net.cpp:399] inception_5b/pool_proj -> inception_5b/pool_proj
I0403 02:30:37.731462 30257 net.cpp:141] Setting up inception_5b/pool_proj
I0403 02:30:37.731499 30257 net.cpp:148] Top shape: 24 128 7 7 (150528)
I0403 02:30:37.731520 30257 net.cpp:156] Memory required for data: 1340422656
I0403 02:30:37.731541 30257 layer_factory.hpp:77] Creating layer inception_5b/relu_pool_proj
I0403 02:30:37.731564 30257 net.cpp:91] Creating Layer inception_5b/relu_pool_proj
I0403 02:30:37.731585 30257 net.cpp:425] inception_5b/relu_pool_proj <- inception_5b/pool_proj
I0403 02:30:37.731616 30257 net.cpp:386] inception_5b/relu_pool_proj -> inception_5b/pool_proj (in-place)
I0403 02:30:37.731644 30257 net.cpp:141] Setting up inception_5b/relu_pool_proj
I0403 02:30:37.731665 30257 net.cpp:148] Top shape: 24 128 7 7 (150528)
I0403 02:30:37.731683 30257 net.cpp:156] Memory required for data: 1341024768
I0403 02:30:37.731700 30257 layer_factory.hpp:77] Creating layer inception_5b/output
I0403 02:30:37.731722 30257 net.cpp:91] Creating Layer inception_5b/output
I0403 02:30:37.731741 30257 net.cpp:425] inception_5b/output <- inception_5b/1x1
I0403 02:30:37.731762 30257 net.cpp:425] inception_5b/output <- inception_5b/3x3
I0403 02:30:37.731781 30257 net.cpp:425] inception_5b/output <- inception_5b/5x5
I0403 02:30:37.731801 30257 net.cpp:425] inception_5b/output <- inception_5b/pool_proj
I0403 02:30:37.731823 30257 net.cpp:399] inception_5b/output -> inception_5b/output
I0403 02:30:37.731873 30257 net.cpp:141] Setting up inception_5b/output
I0403 02:30:37.731902 30257 net.cpp:148] Top shape: 24 1024 7 7 (1204224)
I0403 02:30:37.731922 30257 net.cpp:156] Memory required for data: 1345841664
I0403 02:30:37.731940 30257 layer_factory.hpp:77] Creating layer pool5/7x7_s1
I0403 02:30:37.731966 30257 net.cpp:91] Creating Layer pool5/7x7_s1
I0403 02:30:37.731989 30257 net.cpp:425] pool5/7x7_s1 <- inception_5b/output
I0403 02:30:37.732012 30257 net.cpp:399] pool5/7x7_s1 -> pool5/7x7_s1
I0403 02:30:37.732061 30257 net.cpp:141] Setting up pool5/7x7_s1
I0403 02:30:37.732090 30257 net.cpp:148] Top shape: 24 1024 1 1 (24576)
I0403 02:30:37.732111 30257 net.cpp:156] Memory required for data: 1345939968
I0403 02:30:37.732130 30257 layer_factory.hpp:77] Creating layer pool5/drop_7x7_s1
I0403 02:30:37.732151 30257 net.cpp:91] Creating Layer pool5/drop_7x7_s1
I0403 02:30:37.732170 30257 net.cpp:425] pool5/drop_7x7_s1 <- pool5/7x7_s1
I0403 02:30:37.732194 30257 net.cpp:386] pool5/drop_7x7_s1 -> pool5/7x7_s1 (in-place)
I0403 02:30:37.732241 30257 net.cpp:141] Setting up pool5/drop_7x7_s1
I0403 02:30:37.732273 30257 net.cpp:148] Top shape: 24 1024 1 1 (24576)
I0403 02:30:37.732293 30257 net.cpp:156] Memory required for data: 1346038272
I0403 02:30:37.732311 30257 layer_factory.hpp:77] Creating layer loss3/classifier_plantvillage
I0403 02:30:37.732336 30257 net.cpp:91] Creating Layer loss3/classifier_plantvillage
I0403 02:30:37.732375 30257 net.cpp:425] loss3/classifier_plantvillage <- pool5/7x7_s1
I0403 02:30:37.732404 30257 net.cpp:399] loss3/classifier_plantvillage -> loss3/classifier_plantvillage
I0403 02:30:37.732844 30257 net.cpp:141] Setting up loss3/classifier_plantvillage
I0403 02:30:37.732877 30257 net.cpp:148] Top shape: 24 38 (912)
I0403 02:30:37.732895 30257 net.cpp:156] Memory required for data: 1346041920
I0403 02:30:37.732918 30257 layer_factory.hpp:77] Creating layer loss1/loss
I0403 02:30:37.732977 30257 net.cpp:91] Creating Layer loss1/loss
I0403 02:30:37.733003 30257 net.cpp:425] loss1/loss <- loss1/classifier_plantvillage
I0403 02:30:37.733023 30257 net.cpp:425] loss1/loss <- label_data_1_split_0
I0403 02:30:37.733045 30257 net.cpp:399] loss1/loss -> loss1/loss
…
I0403 02:30:37.745278 30257 net.cpp:313] The NetState phase (1) differed from the phase (0) specified by a rule in layer data
I0403 02:30:37.750046 30257 net.cpp:49] Initializing net from parameters: 
state {
  phase: TEST
}
layer {
  name: "data"
  type: "Data"
  top: "data"
  top: "label"
  include {
    phase: TEST
  }
  transform_param {
    mirror: false
    crop_size: 224
    mean_file: "/home/mohanty/data/final_dataset/lmdb/color-40-60/mean.binaryproto"
  }
  data_param {
    source: "/home/mohanty/data/final_dataset/lmdb/color-40-60/test_db"
    batch_size: 24
    backend: LMDB
  }
}
layer {
  name: "conv1/7x7_s2"
  type: "Convolution"
  bottom: "data"
  top: "conv1/7x7_s2"
  param {
    lr_mult: 1
    decay_mult: 1
  }
  param {
    lr_mult: 2
    decay_mult: 0
  }
  convolution_param {
    num_output: 64
    pad: 3
    kernel_size: 7
    stride: 2
    weight_filler {
      type: "xavier"
      std: 0.1
    }
    bias_filler {
      type: "constant"
      value: 0.2
    }
  }
}
layer {
  name: "conv1/relu_7x7"
  type: "ReLU"
  bottom: "conv1/7x7_s2"
  top: "conv1/7x7_s2"
}
layer {
  name: "pool1/3x3_s2"
  type: "Pooling"
  bottom: "conv1/7x7_s2"
  top: "pool1/3x3_s2"
  pooling_param {
    pool: MAX
    kernel_size: 3
    stride: 2
  }
}
layer {
  name: "pool1/norm1"
  type: "LRN"
  bottom: "pool1/3x3_s2"
  top: "pool1/norm1"
  lrn_param {
    local_size: 5
    alpha: 0.0001
    beta: 0.75
  }
}
layer {
  name: "conv2/3x3_reduce"
  type: "Convolution"
  bottom: "pool1/norm1"
  top: "conv2/3x3_reduce"
  param {
    lr_mult: 1
    decay_mult: 1
  }
  param {
    lr_mult: 2
    decay_mult: 0
  }
  convolution_param {
    num_output: 64
    kernel_size: 1
    weight_filler {
      type: "xavier"
      std: 0.1
    }
    bias_filler {
      type: "constant"
      value: 0.2
    }
  }
}
layer {
  name: "conv2/relu_3x3_reduce"
  type: "ReLU"
  bottom: "conv2/3x3_reduce"
  top: "conv2/3x3_reduce"
}
layer {
  name: "conv2/3x3"
  type: "Convolution"
  bottom: "conv2/3x3_reduce"
  top: "conv2/3x3"
  param {
    lr_mult: 1
    decay_mult: 1
  }
  param {
    lr_mult: 2
    decay_mult: 0
  }
  convolution_param {
    num_output: 192
    pad: 1
    kernel_size: 3
    weight_filler {
      type: "xavier"
      std: 0.03
    }
    bias_filler {
      type: "constant"
      value: 0.2
    }
  }
}
layer {
  name: "conv2/relu_3x3"
  type: "ReLU"
  bottom: "conv2/3x3"
  top: "conv2/3x3"
}
layer {
  name: "conv2/norm2"
  type: "LRN"
  bottom: "conv2/3x3"
  top: "conv2/norm2"
  lrn_param {
    local_size: 5
    alpha: 0.0001
    beta: 0.75
  }
}
layer {
  name: "pool2/3x3_s2"
  type: "Pooling"
  bottom: "conv2/norm2"
  top: "pool2/3x3_s2"
  pooling_param {
    pool: MAX
    kernel_size: 3
    stride: 2
  }
}
layer {
  name: "inception_3a/1x1"
  type: "Convolution"
  bottom: "pool2/3x3_s2"
  top: "inception_3a/1x1"
  param {
    lr_mult: 1
    decay_mult: 1
  }
  param {
    lr_mult: 2
    decay_mult: 0
  }
  convolution_param {
    num_output: 64
    kernel_size: 1
    weight_filler {
      type: "xavier"
      std: 0.03
    }
    bias_filler {
      type: "constant"
      value: 0.2
    }
  }
}
layer {
  name: "inception_3a/relu_1x1"
  type: "ReLU"
  bottom: "inception_3a/1x1"
  top: "inception_3a/1x1"
}
layer {
  name: "inception_3a/3x3_reduce"
  type: "Convolution"
  bottom: "pool2/3x3_s2"
  top: "inception_3a/3x3_reduce"
  param {
    lr_mult: 1
    decay_mult: 1
  }
  param {
    lr_mult: 2
    decay_mult: 0
  }
  convolution_param {
    num_output: 96
    kernel_size: 1
    weight_filler {
      type: "xavier"
      std: 0.09
    }
    bias_filler {
      type: "constant"
      value: 0.2
    }
  }
}
layer {
  name: "inception_3a/relu_3x3_reduce"
  type: "ReLU"
  bottom: "inception_3a/3x3_reduce"
  top: "inception_3a/3x3_reduce"
}
layer {
  name: "inception_3a/3x3"
  type: "Convolution"
  bottom: "inception_3a/3x3_reduce"
  top: "inception_3a/3x3"
  param {
    lr_mult: 1
    decay_mult: 1
  }
  param {
    lr_mult: 2
    decay_mult: 0
  }
  convolution_param {
    num_output: 128
    pad: 1
    kernel_size: 3
    weight_filler {
      type: "xavier"
      std: 0.03
    }
    bias_filler {
      type: "constant"
      value: 0.2
    }
  }
}
layer {
  name: "inception_3a/relu_3x3"
  type: "ReLU"
  bottom: "inception_3a/3x3"
  top: "inception_3a/3x3"
}
layer {
  name: "inception_3a/5x5_reduce"
  type: "Convolution"
  bottom: "pool2/3x3_s2"
  top: "inception_3a/5x5_reduce"
  param {
    lr_mult: 1
    decay_mult: 1
  }
  param {
    lr_mult: 2
    decay_mult: 0
  }
  convolution_param {
    num_output: 16
    kernel_size: 1
    weight_filler {
      type: "xavier"
      std: 0.2
    }
    bias_filler {
      type: "constant"
      value: 0.2
    }
  }
}
layer {
  name: "inception_3a/relu_5x5_reduce"
  type: "ReLU"
  bottom: "inception_3a/5x5_reduce"
  top: "inception_3a/5x5_reduce"
}
layer {
  name: "inception_3a/5x5"
  type: "Convolution"
  bottom: "inception_3a/5x5_reduce"
  top: "inception_3a/5x5"
  param {
    lr_mult: 1
    decay_mult: 1
  }
  param {
    lr_mult: 2
    decay_mult: 0
  }
  convolution_param {
    num_output: 32
    pad: 2
    kernel_size: 5
    weight_filler {
      type: "xavier"
      std: 0.03
    }
    bias_filler {
      type: "constant"
      value: 0.2
    }
  }
}
layer {
  name: "inception_3a/relu_5x5"
  type: "ReLU"
  bottom: "inception_3a/5x5"
  top: "inception_3a/5x5"
}
layer {
  name: "inception_3a/pool"
  type: "Pooling"
  bottom: "pool2/3x3_s2"
  top: "inception_3a/pool"
  pooling_param {
    pool: MAX
    kernel_size: 3
    stride: 1
    pad: 1
  }
}
layer {
  name: "inception_3a/pool_proj"
  type: "Convolution"
  bottom: "inception_3a/pool"
  top: "inception_3a/pool_proj"
  param {
    lr_mult: 1
    decay_mult: 1
  }
  param {
    lr_mult: 2
    decay_mult: 0
  }
  convolution_param {
    num_output: 32
    kernel_size: 1
    weight_filler {
      type: "xavier"
      std: 0.1
    }
    bias_filler {
      type: "constant"
      value: 0.2
    }
  }
}
layer {
  name: "inception_3a/relu_pool_proj"
  type: "ReLU"
  bottom: "inception_3a/pool_proj"
  top: "inception_3a/pool_proj"
}
layer {
  name: "inception_3a/output"
  type: "Concat"
  bottom: "inception_3a/1x1"
  bottom: "inception_3a/3x3"
  bottom: "inception_3a/5x5"
  bottom: "inception_3a/pool_proj"
  top: "inception_3a/output"
}
layer {
  name: "inception_3b/1x1"
  type: "Convolution"
  bottom: "inception_3a/output"
  top: "inception_3b/1x1"
  param {
    lr_mult: 1
    decay_mult: 1
  }
  param {
    lr_mult: 2
    decay_mult: 0
  }
  convolution_param {
    num_output: 128
    kernel_size: 1
    weight_filler {
      type: "xavier"
      std: 0.03
    }
    bias_filler {
      type: "constant"
      value: 0.2
    }
  }
}
layer {
  name: "inception_3b/relu_1x1"
  type: "ReLU"
  bottom: "inception_3b/1x1"
  top: "inception_3b/1x1"
}
layer {
  name: "inception_3b/3x3_reduce"
  type: "Convolution"
  bottom: "inception_3a/output"
  top: "inception_3b/3x3_reduce"
  param {
    lr_mult: 1
    decay_mult: 1
  }
  param {
    lr_mult: 2
    decay_mult: 0
  }
  convolution_param {
    num_output: 128
    kernel_size: 1
    weight_filler {
      type: "xavier"
      std: 0.09
    }
    bias_filler {
      type: "constant"
      value: 0.2
    }
  }
}
layer {
  name: "inception_3b/relu_3x3_reduce"
  type: "ReLU"
  bottom: "inception_3b/3x3_reduce"
  top: "inception_3b/3x3_reduce"
}
layer {
  name: "inception_3b/3x3"
  type: "Convolution"
  bottom: "inception_3b/3x3_reduce"
  top: "inception_3b/3x3"
  param {
    lr_mult: 1
    decay_mult: 1
  }
  param {
    lr_mult: 2
    decay_mult: 0
  }
  convolution_param {
    num_output: 192
    pad: 1
    kernel_size: 3
    weight_filler {
      type: "xavier"
      std: 0.03
    }
    bias_filler {
      type: "constant"
      value: 0.2
    }
  }
}
layer {
  name: "inception_3b/relu_3x3"
  type: "ReLU"
  bottom: "inception_3b/3x3"
  top: "inception_3b/3x3"
}
layer {
  name: "inception_3b/5x5_reduce"
  type: "Convolution"
  bottom: "inception_3a/output"
  top: "inception_3b/5x5_reduce"
  param {
    lr_mult: 1
    decay_mult: 1
  }
  param {
    lr_mult: 2
    decay_mult: 0
  }
  convolution_param {
    num_output: 32
    kernel_size: 1
    weight_filler {
      type: "xavier"
      std: 0.2
    }
    bias_filler {
      type: "constant"
      value: 0.2
    }
  }
}
layer {
  name: "inception_3b/relu_5x5_reduce"
  type: "ReLU"
  bottom: "inception_3b/5x5_reduce"
  top: "inception_3b/5x5_reduce"
}
layer {
  name: "inception_3b/5x5"
  type: "Convolution"
  bottom: "inception_3b/5x5_reduce"
  top: "inception_3b/5x5"
  param {
    lr_mult: 1
    decay_mult: 1
  }
  param {
    lr_mult: 2
    decay_mult: 0
  }
  convolution_param {
    num_output: 96
    pad: 2
    kernel_size: 5
    weight_filler {
      type: "xavier"
      std: 0.03
    }
    bias_filler {
      type: "constant"
      value: 0.2
    }
  }
}
layer {
  name: "inception_3b/relu_5x5"
  type: "ReLU"
  bottom: "inception_3b/5x5"
  top: "inception_3b/5x5"
}
layer {
  name: "inception_3b/pool"
  type: "Pooling"
  bottom: "inception_3a/output"
  top: "inception_3b/pool"
  pooling_param {
    pool: MAX
    kernel_size: 3
    stride: 1
    pad: 1
  }
}
layer {
  name: "inception_3b/pool_proj"
  type: "Convolution"
  bottom: "inception_3b/pool"
  top: "inception_3b/pool_proj"
  param {
    lr_mult: 1
    decay_mult: 1
  }
  param {
    lr_mult: 2
    decay_mult: 0
  }
  convolution_param {
    num_output: 64
    kernel_size: 1
    weight_filler {
      type: "xavier"
      std: 0.1
    }
    bias_filler {
      type: "constant"
      value: 0.2
    }
  }
}
layer {
  name: "inception_3b/relu_pool_proj"
  type: "ReLU"
  bottom: "inception_3b/pool_proj"
  top: "inception_3b/pool_proj"
}
layer {
  name: "inception_3b/output"
  type: "Concat"
  bottom: "inception_3b/1x1"
  bottom: "inception_3b/3x3"
  bottom: "inception_3b/5x5"
  bottom: "inception_3b/pool_proj"
  top: "inception_3b/output"
}
layer {
  name: "pool3/3x3_s2"
  type: "Pooling"
  bottom: "inception_3b/output"
  top: "pool3/3x3_s2"
  pooling_param {
    pool: MAX
    kernel_size: 3
    stride: 2
  }
}
layer {
  name: "inception_4a/1x1"
  type: "Convolution"
  bottom: "pool3/3x3_s2"
  top: "inception_4a/1x1"
  param {
    lr_mult: 1
    decay_mult: 1
  }
  param {
    lr_mult: 2
    decay_mult: 0
  }
  convolution_param {
    num_output: 192
    kernel_size: 1
    weight_filler {
      type: "xavier"
      std: 0.03
    }
    bias_filler {
      type: "constant"
      value: 0.2
    }
  }
}
layer {
  name: "inception_4a/relu_1x1"
  type: "ReLU"
  bottom: "inception_4a/1x1"
  top: "inception_4a/1x1"
}
layer {
  name: "inception_4a/3x3_reduce"
  type: "Convolution"
  bottom: "pool3/3x3_s2"
  top: "inception_4a/3x3_reduce"
  param {
    lr_mult: 1
    decay_mult: 1
  }
  param {
    lr_mult: 2
    decay_mult: 0
  }
  convolution_param {
    num_output: 96
    kernel_size: 1
    weight_filler {
      type: "xavier"
      std: 0.09
    }
    bias_filler {
      type: "constant"
      value: 0.2
    }
  }
}
layer {
  name: "inception_4a/relu_3x3_reduce"
  type: "ReLU"
  bottom: "inception_4a/3x3_reduce"
  top: "inception_4a/3x3_reduce"
}
layer {
  name: "inception_4a/3x3"
  type: "Convolution"
  bottom: "inception_4a/3x3_reduce"
  top: "inception_4a/3x3"
  param {
    lr_mult: 1
    decay_mult: 1
  }
  param {
    lr_mult: 2
    decay_mult: 0
  }
  convolution_param {
    num_output: 208
    pad: 1
    kernel_size: 3
    weight_filler {
      type: "xavier"
      std: 0.03
    }
    bias_filler {
      type: "constant"
      value: 0.2
    }
  }
}
layer {
  name: "inception_4a/relu_3x3"
  type: "ReLU"
  bottom: "inception_4a/3x3"
  top: "inception_4a/3x3"
}
layer {
  name: "inception_4a/5x5_reduce"
  type: "Convolution"
  bottom: "pool3/3x3_s2"
  top: "inception_4a/5x5_reduce"
  param {
    lr_mult: 1
    decay_mult: 1
  }
  param {
    lr_mult: 2
    decay_mult: 0
  }
  convolution_param {
    num_output: 16
    kernel_size: 1
    weight_filler {
      type: "xavier"
      std: 0.2
    }
    bias_filler {
      type: "constant"
      value: 0.2
    }
  }
}
layer {
  name: "inception_4a/relu_5x5_reduce"
  type: "ReLU"
  bottom: "inception_4a/5x5_reduce"
  top: "inception_4a/5x5_reduce"
}
layer {
  name: "inception_4a/5x5"
  type: "Convolution"
  bottom: "inception_4a/5x5_reduce"
  top: "inception_4a/5x5"
  param {
    lr_mult: 1
    decay_mult: 1
  }
  param {
    lr_mult: 2
    decay_mult: 0
  }
  convolution_param {
    num_output: 48
    pad: 2
    kernel_size: 5
    weight_filler {
      type: "xavier"
      std: 0.03
    }
    bias_filler {
      type: "constant"
      value: 0.2
    }
  }
}
layer {
  name: "inception_4a/relu_5x5"
  type: "ReLU"
  bottom: "inception_4a/5x5"
  top: "inception_4a/5x5"
}
layer {
  name: "inception_4a/pool"
  type: "Pooling"
  bottom: "pool3/3x3_s2"
  top: "inception_4a/pool"
  pooling_param {
    pool: MAX
    kernel_size: 3
    stride: 1
    pad: 1
  }
}
layer {
  name: "inception_4a/pool_proj"
  type: "Convolution"
  bottom: "inception_4a/pool"
  top: "inception_4a/pool_proj"
  param {
    lr_mult: 1
    decay_mult: 1
  }
  param {
    lr_mult: 2
    decay_mult: 0
  }
  convolution_param {
    num_output: 64
    kernel_size: 1
    weight_filler {
      type: "xavier"
      std: 0.1
    }
    bias_filler {
      type: "constant"
      value: 0.2
    }
  }
}
layer {
  name: "inception_4a/relu_pool_proj"
  type: "ReLU"
  bottom: "inception_4a/pool_proj"
  top: "inception_4a/pool_proj"
}
layer {
  name: "inception_4a/output"
  type: "Concat"
  bottom: "inception_4a/1x1"
  bottom: "inception_4a/3x3"
  bottom: "inception_4a/5x5"
  bottom: "inception_4a/pool_proj"
  top: "inception_4a/output"
}
layer {
  name: "loss1/ave_pool"
  type: "Pooling"
  bottom: "inception_4a/output"
  top: "loss1/ave_pool"
  pooling_param {
    pool: AVE
    kernel_size: 5
    stride: 3
  }
}
layer {
  name: "loss1/conv"
  type: "Convolution"
  bottom: "loss1/ave_pool"
  top: "loss1/conv"
  param {
    lr_mult: 1
    decay_mult: 1
  }
  param {
    lr_mult: 2
    decay_mult: 0
  }
  convolution_param {
    num_output: 128
    kernel_size: 1
    weight_filler {
      type: "xavier"
      std: 0.08
    }
    bias_filler {
      type: "constant"
      value: 0.2
    }
  }
}
layer {
  name: "loss1/relu_conv"
  type: "ReLU"
  bottom: "loss1/conv"
  top: "loss1/conv"
}
layer {
  name: "loss1/fc"
  type: "InnerProduct"
  bottom: "loss1/conv"
  top: "loss1/fc"
  param {
    lr_mult: 1
    decay_mult: 1
  }
  param {
    lr_mult: 2
    decay_mult: 0
  }
  inner_product_param {
    num_output: 1024
    weight_filler {
      type: "xavier"
      std: 0.02
    }
    bias_filler {
      type: "constant"
      value: 0.2
    }
  }
}
layer {
  name: "loss1/relu_fc"
  type: "ReLU"
  bottom: "loss1/fc"
  top: "loss1/fc"
}
layer {
  name: "loss1/drop_fc"
  type: "Dropout"
  bottom: "loss1/fc"
  top: "loss1/fc"
  dropout_param {
    dropout_ratio: 0.7
  }
}
layer {
  name: "loss1/classifier_plantvillage"
  type: "InnerProduct"
  bottom: "loss1/fc"
  top: "loss1/classifier_plantvillage"
  param {
    lr_mult: 1
    decay_mult: 1
  }
  param {
    lr_mult: 2
    decay_mult: 0
  }
  inner_product_param {
    num_output: 38
    weight_filler {
      type: "xavier"
      std: 0.0009765625
    }
    bias_filler {
      type: "constant"
      value: 0
    }
  }
}
layer {
  name: "inception_4b/1x1"
  type: "Convolution"
  bottom: "inception_4a/output"
  top: "inception_4b/1x1"
  param {
    lr_mult: 1
    decay_mult: 1
  }
  param {
    lr_mult: 2
    decay_mult: 0
  }
  convolution_param {
    num_output: 160
    kernel_size: 1
    weight_filler {
      type: "xavier"
      std: 0.03
    }
    bias_filler {
      type: "constant"
      value: 0.2
    }
  }
}
layer {
  name: "inception_4b/relu_1x1"
…
I0403 02:30:37.883726 30257 layer_factory.hpp:77] Creating layer inception_4c/pool
I0403 02:30:37.883749 30257 net.cpp:91] Creating Layer inception_4c/pool
I0403 02:30:37.883769 30257 net.cpp:425] inception_4c/pool <- inception_4b/output_inception_4b/output_0_split_3
I0403 02:30:37.883792 30257 net.cpp:399] inception_4c/pool -> inception_4c/pool
I0403 02:30:37.883934 30257 net.cpp:141] Setting up inception_4c/pool
I0403 02:30:37.883962 30257 net.cpp:148] Top shape: 24 512 14 14 (2408448)
I0403 02:30:37.883982 30257 net.cpp:156] Memory required for data: 1060605120
I0403 02:30:37.884001 30257 layer_factory.hpp:77] Creating layer inception_4c/pool_proj
I0403 02:30:37.884028 30257 net.cpp:91] Creating Layer inception_4c/pool_proj
I0403 02:30:37.884052 30257 net.cpp:425] inception_4c/pool_proj <- inception_4c/pool
I0403 02:30:37.884078 30257 net.cpp:399] inception_4c/pool_proj -> inception_4c/pool_proj
I0403 02:30:37.884608 30257 net.cpp:141] Setting up inception_4c/pool_proj
I0403 02:30:37.884639 30257 net.cpp:148] Top shape: 24 64 14 14 (301056)
I0403 02:30:37.884657 30257 net.cpp:156] Memory required for data: 1061809344
I0403 02:30:37.884680 30257 layer_factory.hpp:77] Creating layer inception_4c/relu_pool_proj
I0403 02:30:37.884702 30257 net.cpp:91] Creating Layer inception_4c/relu_pool_proj
I0403 02:30:37.884722 30257 net.cpp:425] inception_4c/relu_pool_proj <- inception_4c/pool_proj
I0403 02:30:37.884744 30257 net.cpp:386] inception_4c/relu_pool_proj -> inception_4c/pool_proj (in-place)
I0403 02:30:37.884769 30257 net.cpp:141] Setting up inception_4c/relu_pool_proj
I0403 02:30:37.884791 30257 net.cpp:148] Top shape: 24 64 14 14 (301056)
I0403 02:30:37.884809 30257 net.cpp:156] Memory required for data: 1063013568
I0403 02:30:37.884826 30257 layer_factory.hpp:77] Creating layer inception_4c/output
I0403 02:30:37.884853 30257 net.cpp:91] Creating Layer inception_4c/output
I0403 02:30:37.884874 30257 net.cpp:425] inception_4c/output <- inception_4c/1x1
I0403 02:30:37.884896 30257 net.cpp:425] inception_4c/output <- inception_4c/3x3
I0403 02:30:37.884914 30257 net.cpp:425] inception_4c/output <- inception_4c/5x5
I0403 02:30:37.884933 30257 net.cpp:425] inception_4c/output <- inception_4c/pool_proj
I0403 02:30:37.884954 30257 net.cpp:399] inception_4c/output -> inception_4c/output
I0403 02:30:37.885004 30257 net.cpp:141] Setting up inception_4c/output
I0403 02:30:37.885037 30257 net.cpp:148] Top shape: 24 512 14 14 (2408448)
I0403 02:30:37.885057 30257 net.cpp:156] Memory required for data: 1072647360
I0403 02:30:37.885076 30257 layer_factory.hpp:77] Creating layer inception_4c/output_inception_4c/output_0_split
I0403 02:30:37.885097 30257 net.cpp:91] Creating Layer inception_4c/output_inception_4c/output_0_split
I0403 02:30:37.885116 30257 net.cpp:425] inception_4c/output_inception_4c/output_0_split <- inception_4c/output
I0403 02:30:37.885138 30257 net.cpp:399] inception_4c/output_inception_4c/output_0_split -> inception_4c/output_inception_4c/output_0_split_0
I0403 02:30:37.885164 30257 net.cpp:399] inception_4c/output_inception_4c/output_0_split -> inception_4c/output_inception_4c/output_0_split_1
I0403 02:30:37.885193 30257 net.cpp:399] inception_4c/output_inception_4c/output_0_split -> inception_4c/output_inception_4c/output_0_split_2
I0403 02:30:37.885221 30257 net.cpp:399] inception_4c/output_inception_4c/output_0_split -> inception_4c/output_inception_4c/output_0_split_3
I0403 02:30:37.885334 30257 net.cpp:141] Setting up inception_4c/output_inception_4c/output_0_split
I0403 02:30:37.885363 30257 net.cpp:148] Top shape: 24 512 14 14 (2408448)
I0403 02:30:37.885383 30257 net.cpp:148] Top shape: 24 512 14 14 (2408448)
I0403 02:30:37.885403 30257 net.cpp:148] Top shape: 24 512 14 14 (2408448)
I0403 02:30:37.885422 30257 net.cpp:148] Top shape: 24 512 14 14 (2408448)
I0403 02:30:37.885440 30257 net.cpp:156] Memory required for data: 1111182528
I0403 02:30:37.885457 30257 layer_factory.hpp:77] Creating layer inception_4d/1x1
I0403 02:30:37.885485 30257 net.cpp:91] Creating Layer inception_4d/1x1
I0403 02:30:37.885509 30257 net.cpp:425] inception_4d/1x1 <- inception_4c/output_inception_4c/output_0_split_0
I0403 02:30:37.885535 30257 net.cpp:399] inception_4d/1x1 -> inception_4d/1x1
I0403 02:30:37.886322 30257 net.cpp:141] Setting up inception_4d/1x1
I0403 02:30:37.886354 30257 net.cpp:148] Top shape: 24 112 14 14 (526848)
I0403 02:30:37.886373 30257 net.cpp:156] Memory required for data: 1113289920
I0403 02:30:37.886395 30257 layer_factory.hpp:77] Creating layer inception_4d/relu_1x1
I0403 02:30:37.886420 30257 net.cpp:91] Creating Layer inception_4d/relu_1x1
I0403 02:30:37.886440 30257 net.cpp:425] inception_4d/relu_1x1 <- inception_4d/1x1
I0403 02:30:37.886461 30257 net.cpp:386] inception_4d/relu_1x1 -> inception_4d/1x1 (in-place)
I0403 02:30:37.886485 30257 net.cpp:141] Setting up inception_4d/relu_1x1
I0403 02:30:37.886512 30257 net.cpp:148] Top shape: 24 112 14 14 (526848)
I0403 02:30:37.886530 30257 net.cpp:156] Memory required for data: 1115397312
I0403 02:30:37.886548 30257 layer_factory.hpp:77] Creating layer inception_4d/3x3_reduce
I0403 02:30:37.886579 30257 net.cpp:91] Creating Layer inception_4d/3x3_reduce
I0403 02:30:37.886601 30257 net.cpp:425] inception_4d/3x3_reduce <- inception_4c/output_inception_4c/output_0_split_1
I0403 02:30:37.886628 30257 net.cpp:399] inception_4d/3x3_reduce -> inception_4d/3x3_reduce
I0403 02:30:37.887442 30257 net.cpp:141] Setting up inception_4d/3x3_reduce
I0403 02:30:37.887475 30257 net.cpp:148] Top shape: 24 144 14 14 (677376)
I0403 02:30:37.887493 30257 net.cpp:156] Memory required for data: 1118106816
I0403 02:30:37.887516 30257 layer_factory.hpp:77] Creating layer inception_4d/relu_3x3_reduce
I0403 02:30:37.887537 30257 net.cpp:91] Creating Layer inception_4d/relu_3x3_reduce
I0403 02:30:37.887559 30257 net.cpp:425] inception_4d/relu_3x3_reduce <- inception_4d/3x3_reduce
I0403 02:30:37.887588 30257 net.cpp:386] inception_4d/relu_3x3_reduce -> inception_4d/3x3_reduce (in-place)
I0403 02:30:37.887611 30257 net.cpp:141] Setting up inception_4d/relu_3x3_reduce
I0403 02:30:37.887632 30257 net.cpp:148] Top shape: 24 144 14 14 (677376)
I0403 02:30:37.887650 30257 net.cpp:156] Memory required for data: 1120816320
I0403 02:30:37.887668 30257 layer_factory.hpp:77] Creating layer inception_4d/3x3
I0403 02:30:37.887697 30257 net.cpp:91] Creating Layer inception_4d/3x3
I0403 02:30:37.887718 30257 net.cpp:425] inception_4d/3x3 <- inception_4d/3x3_reduce
I0403 02:30:37.887744 30257 net.cpp:399] inception_4d/3x3 -> inception_4d/3x3
I0403 02:30:37.891892 30257 net.cpp:141] Setting up inception_4d/3x3
I0403 02:30:37.891930 30257 net.cpp:148] Top shape: 24 288 14 14 (1354752)
I0403 02:30:37.891952 30257 net.cpp:156] Memory required for data: 1126235328
I0403 02:30:37.891973 30257 layer_factory.hpp:77] Creating layer inception_4d/relu_3x3
I0403 02:30:37.892091 30257 net.cpp:91] Creating Layer inception_4d/relu_3x3
I0403 02:30:37.892117 30257 net.cpp:425] inception_4d/relu_3x3 <- inception_4d/3x3
I0403 02:30:37.892138 30257 net.cpp:386] inception_4d/relu_3x3 -> inception_4d/3x3 (in-place)
I0403 02:30:37.892163 30257 net.cpp:141] Setting up inception_4d/relu_3x3
I0403 02:30:37.892184 30257 net.cpp:148] Top shape: 24 288 14 14 (1354752)
I0403 02:30:37.892201 30257 net.cpp:156] Memory required for data: 1131654336
I0403 02:30:37.892220 30257 layer_factory.hpp:77] Creating layer inception_4d/5x5_reduce
I0403 02:30:37.892268 30257 net.cpp:91] Creating Layer inception_4d/5x5_reduce
I0403 02:30:37.892292 30257 net.cpp:425] inception_4d/5x5_reduce <- inception_4c/output_inception_4c/output_0_split_2
I0403 02:30:37.892315 30257 net.cpp:399] inception_4d/5x5_reduce -> inception_4d/5x5_reduce
I0403 02:30:37.892757 30257 net.cpp:141] Setting up inception_4d/5x5_reduce
I0403 02:30:37.892789 30257 net.cpp:148] Top shape: 24 32 14 14 (150528)
I0403 02:30:37.892807 30257 net.cpp:156] Memory required for data: 1132256448
I0403 02:30:37.892830 30257 layer_factory.hpp:77] Creating layer inception_4d/relu_5x5_reduce
I0403 02:30:37.892853 30257 net.cpp:91] Creating Layer inception_4d/relu_5x5_reduce
I0403 02:30:37.892874 30257 net.cpp:425] inception_4d/relu_5x5_reduce <- inception_4d/5x5_reduce
I0403 02:30:37.892897 30257 net.cpp:386] inception_4d/relu_5x5_reduce -> inception_4d/5x5_reduce (in-place)
I0403 02:30:37.892923 30257 net.cpp:141] Setting up inception_4d/relu_5x5_reduce
I0403 02:30:37.892945 30257 net.cpp:148] Top shape: 24 32 14 14 (150528)
I0403 02:30:37.892962 30257 net.cpp:156] Memory required for data: 1132858560
I0403 02:30:37.892981 30257 layer_factory.hpp:77] Creating layer inception_4d/5x5
I0403 02:30:37.893008 30257 net.cpp:91] Creating Layer inception_4d/5x5
I0403 02:30:37.893029 30257 net.cpp:425] inception_4d/5x5 <- inception_4d/5x5_reduce
I0403 02:30:37.893054 30257 net.cpp:399] inception_4d/5x5 -> inception_4d/5x5
I0403 02:30:37.893707 30257 net.cpp:141] Setting up inception_4d/5x5
I0403 02:30:37.893739 30257 net.cpp:148] Top shape: 24 64 14 14 (301056)
I0403 02:30:37.893759 30257 net.cpp:156] Memory required for data: 1134062784
I0403 02:30:37.893780 30257 layer_factory.hpp:77] Creating layer inception_4d/relu_5x5
I0403 02:30:37.893805 30257 net.cpp:91] Creating Layer inception_4d/relu_5x5
I0403 02:30:37.893826 30257 net.cpp:425] inception_4d/relu_5x5 <- inception_4d/5x5
I0403 02:30:37.893847 30257 net.cpp:386] inception_4d/relu_5x5 -> inception_4d/5x5 (in-place)
I0403 02:30:37.894047 30257 net.cpp:141] Setting up inception_4d/relu_5x5
I0403 02:30:37.894071 30257 net.cpp:148] Top shape: 24 64 14 14 (301056)
I0403 02:30:37.894089 30257 net.cpp:156] Memory required for data: 1135267008
I0403 02:30:37.894107 30257 layer_factory.hpp:77] Creating layer inception_4d/pool
I0403 02:30:37.894129 30257 net.cpp:91] Creating Layer inception_4d/pool
I0403 02:30:37.894148 30257 net.cpp:425] inception_4d/pool <- inception_4c/output_inception_4c/output_0_split_3
I0403 02:30:37.894175 30257 net.cpp:399] inception_4d/pool -> inception_4d/pool
I0403 02:30:37.894245 30257 net.cpp:141] Setting up inception_4d/pool
I0403 02:30:37.894275 30257 net.cpp:148] Top shape: 24 512 14 14 (2408448)
I0403 02:30:37.894294 30257 net.cpp:156] Memory required for data: 1144900800
I0403 02:30:37.894312 30257 layer_factory.hpp:77] Creating layer inception_4d/pool_proj
I0403 02:30:37.894341 30257 net.cpp:91] Creating Layer inception_4d/pool_proj
I0403 02:30:37.894364 30257 net.cpp:425] inception_4d/pool_proj <- inception_4d/pool
I0403 02:30:37.894392 30257 net.cpp:399] inception_4d/pool_proj -> inception_4d/pool_proj
I0403 02:30:37.894922 30257 net.cpp:141] Setting up inception_4d/pool_proj
I0403 02:30:37.894953 30257 net.cpp:148] Top shape: 24 64 14 14 (301056)
I0403 02:30:37.894973 30257 net.cpp:156] Memory required for data: 1146105024
I0403 02:30:37.894994 30257 layer_factory.hpp:77] Creating layer inception_4d/relu_pool_proj
I0403 02:30:37.895017 30257 net.cpp:91] Creating Layer inception_4d/relu_pool_proj
I0403 02:30:37.895038 30257 net.cpp:425] inception_4d/relu_pool_proj <- inception_4d/pool_proj
I0403 02:30:37.895063 30257 net.cpp:386] inception_4d/relu_pool_proj -> inception_4d/pool_proj (in-place)
I0403 02:30:37.895089 30257 net.cpp:141] Setting up inception_4d/relu_pool_proj
I0403 02:30:37.895112 30257 net.cpp:148] Top shape: 24 64 14 14 (301056)
I0403 02:30:37.895128 30257 net.cpp:156] Memory required for data: 1147309248
I0403 02:30:37.895145 30257 layer_factory.hpp:77] Creating layer inception_4d/output
I0403 02:30:37.895167 30257 net.cpp:91] Creating Layer inception_4d/output
I0403 02:30:37.895202 30257 net.cpp:425] inception_4d/output <- inception_4d/1x1
I0403 02:30:37.895223 30257 net.cpp:425] inception_4d/output <- inception_4d/3x3
I0403 02:30:37.895243 30257 net.cpp:425] inception_4d/output <- inception_4d/5x5
I0403 02:30:37.895263 30257 net.cpp:425] inception_4d/output <- inception_4d/pool_proj
I0403 02:30:37.895284 30257 net.cpp:399] inception_4d/output -> inception_4d/output
I0403 02:30:37.895339 30257 net.cpp:141] Setting up inception_4d/output
I0403 02:30:37.895369 30257 net.cpp:148] Top shape: 24 528 14 14 (2483712)
I0403 02:30:37.895386 30257 net.cpp:156] Memory required for data: 1157244096
I0403 02:30:37.895403 30257 layer_factory.hpp:77] Creating layer inception_4d/output_inception_4d/output_0_split
I0403 02:30:37.895426 30257 net.cpp:91] Creating Layer inception_4d/output_inception_4d/output_0_split
I0403 02:30:37.895444 30257 net.cpp:425] inception_4d/output_inception_4d/output_0_split <- inception_4d/output
I0403 02:30:37.895470 30257 net.cpp:399] inception_4d/output_inception_4d/output_0_split -> inception_4d/output_inception_4d/output_0_split_0
I0403 02:30:37.895498 30257 net.cpp:399] inception_4d/output_inception_4d/output_0_split -> inception_4d/output_inception_4d/output_0_split_1
I0403 02:30:37.895522 30257 net.cpp:399] inception_4d/output_inception_4d/output_0_split -> inception_4d/output_inception_4d/output_0_split_2
I0403 02:30:37.895547 30257 net.cpp:399] inception_4d/output_inception_4d/output_0_split -> inception_4d/output_inception_4d/output_0_split_3
I0403 02:30:37.895575 30257 net.cpp:399] inception_4d/output_inception_4d/output_0_split -> inception_4d/output_inception_4d/output_0_split_4
I0403 02:30:37.895684 30257 net.cpp:141] Setting up inception_4d/output_inception_4d/output_0_split
I0403 02:30:37.895714 30257 net.cpp:148] Top shape: 24 528 14 14 (2483712)
I0403 02:30:37.895735 30257 net.cpp:148] Top shape: 24 528 14 14 (2483712)
I0403 02:30:37.895753 30257 net.cpp:148] Top shape: 24 528 14 14 (2483712)
I0403 02:30:37.895771 30257 net.cpp:148] Top shape: 24 528 14 14 (2483712)
I0403 02:30:37.895789 30257 net.cpp:148] Top shape: 24 528 14 14 (2483712)
I0403 02:30:37.895923 30257 net.cpp:156] Memory required for data: 1206918336
I0403 02:30:37.895949 30257 layer_factory.hpp:77] Creating layer loss2/ave_pool
I0403 02:30:37.895977 30257 net.cpp:91] Creating Layer loss2/ave_pool
I0403 02:30:37.896000 30257 net.cpp:425] loss2/ave_pool <- inception_4d/output_inception_4d/output_0_split_0
I0403 02:30:37.896025 30257 net.cpp:399] loss2/ave_pool -> loss2/ave_pool
I0403 02:30:37.896078 30257 net.cpp:141] Setting up loss2/ave_pool
I0403 02:30:37.896107 30257 net.cpp:148] Top shape: 24 528 4 4 (202752)
I0403 02:30:37.896126 30257 net.cpp:156] Memory required for data: 1207729344
I0403 02:30:37.896145 30257 layer_factory.hpp:77] Creating layer loss2/conv
I0403 02:30:37.896174 30257 net.cpp:91] Creating Layer loss2/conv
I0403 02:30:37.896198 30257 net.cpp:425] loss2/conv <- loss2/ave_pool
I0403 02:30:37.896225 30257 net.cpp:399] loss2/conv -> loss2/conv
I0403 02:30:37.897629 30257 net.cpp:141] Setting up loss2/conv
I0403 02:30:37.897821 30257 net.cpp:148] Top shape: 24 128 4 4 (49152)
I0403 02:30:37.897872 30257 net.cpp:156] Memory required for data: 1207925952
I0403 02:30:37.897909 30257 layer_factory.hpp:77] Creating layer loss2/relu_conv
I0403 02:30:37.897940 30257 net.cpp:91] Creating Layer loss2/relu_conv
I0403 02:30:37.897965 30257 net.cpp:425] loss2/relu_conv <- loss2/conv
I0403 02:30:37.897987 30257 net.cpp:386] loss2/relu_conv -> loss2/conv (in-place)
I0403 02:30:37.898010 30257 net.cpp:141] Setting up loss2/relu_conv
I0403 02:30:37.898031 30257 net.cpp:148] Top shape: 24 128 4 4 (49152)
I0403 02:30:37.898051 30257 net.cpp:156] Memory required for data: 1208122560
I0403 02:30:37.898068 30257 layer_factory.hpp:77] Creating layer loss2/fc
I0403 02:30:37.898097 30257 net.cpp:91] Creating Layer loss2/fc
I0403 02:30:37.898118 30257 net.cpp:425] loss2/fc <- loss2/conv
I0403 02:30:37.898141 30257 net.cpp:399] loss2/fc -> loss2/fc
I0403 02:30:37.918808 30257 net.cpp:141] Setting up loss2/fc
I0403 02:30:37.918871 30257 net.cpp:148] Top shape: 24 1024 (24576)
I0403 02:30:37.918891 30257 net.cpp:156] Memory required for data: 1208220864
I0403 02:30:37.918917 30257 layer_factory.hpp:77] Creating layer loss2/relu_fc
I0403 02:30:37.918946 30257 net.cpp:91] Creating Layer loss2/relu_fc
I0403 02:30:37.918967 30257 net.cpp:425] loss2/relu_fc <- loss2/fc
I0403 02:30:37.918992 30257 net.cpp:386] loss2/relu_fc -> loss2/fc (in-place)
I0403 02:30:37.919018 30257 net.cpp:141] Setting up loss2/relu_fc
I0403 02:30:37.919041 30257 net.cpp:148] Top shape: 24 1024 (24576)
I0403 02:30:37.919059 30257 net.cpp:156] Memory required for data: 1208319168
I0403 02:30:37.919077 30257 layer_factory.hpp:77] Creating layer loss2/drop_fc
I0403 02:30:37.919106 30257 net.cpp:91] Creating Layer loss2/drop_fc
I0403 02:30:37.919126 30257 net.cpp:425] loss2/drop_fc <- loss2/fc
I0403 02:30:37.919148 30257 net.cpp:386] loss2/drop_fc -> loss2/fc (in-place)
I0403 02:30:37.919206 30257 net.cpp:141] Setting up loss2/drop_fc
I0403 02:30:37.919235 30257 net.cpp:148] Top shape: 24 1024 (24576)
I0403 02:30:37.919253 30257 net.cpp:156] Memory required for data: 1208417472
I0403 02:30:37.919271 30257 layer_factory.hpp:77] Creating layer loss2/classifier_plantvillage
I0403 02:30:37.919296 30257 net.cpp:91] Creating Layer loss2/classifier_plantvillage
I0403 02:30:37.919315 30257 net.cpp:425] loss2/classifier_plantvillage <- loss2/fc
I0403 02:30:37.919342 30257 net.cpp:399] loss2/classifier_plantvillage -> loss2/classifier_plantvillage
I0403 02:30:37.919893 30257 net.cpp:141] Setting up loss2/classifier_plantvillage
I0403 02:30:37.919925 30257 net.cpp:148] Top shape: 24 38 (912)
I0403 02:30:37.919945 30257 net.cpp:156] Memory required for data: 1208421120
I0403 02:30:37.919967 30257 layer_factory.hpp:77] Creating layer loss2/classifier_plantvillage_loss2/classifier_plantvillage_0_split
I0403 02:30:37.919996 30257 net.cpp:91] Creating Layer loss2/classifier_plantvillage_loss2/classifier_plantvillage_0_split
I0403 02:30:37.920018 30257 net.cpp:425] loss2/classifier_plantvillage_loss2/classifier_plantvillage_0_split <- loss2/classifier_plantvillage
I0403 02:30:37.920042 30257 net.cpp:399] loss2/classifier_plantvillage_loss2/classifier_plantvillage_0_split -> loss2/classifier_plantvillage_loss2/classifier_plantvillage_0_split_0
I0403 02:30:37.920073 30257 net.cpp:399] loss2/classifier_plantvillage_loss2/classifier_plantvillage_0_split -> loss2/classifier_plantvillage_loss2/classifier_plantvillage_0_split_1
I0403 02:30:37.920100 30257 net.cpp:399] loss2/classifier_plantvillage_loss2/classifier_plantvillage_0_split -> loss2/classifier_plantvillage_loss2/classifier_plantvillage_0_split_2
I0403 02:30:37.920186 30257 net.cpp:141] Setting up loss2/classifier_plantvillage_loss2/classifier_plantvillage_0_split
I0403 02:30:37.920217 30257 net.cpp:148] Top shape: 24 38 (912)
I0403 02:30:37.920238 30257 net.cpp:148] Top shape: 24 38 (912)
I0403 02:30:37.920256 30257 net.cpp:148] Top shape: 24 38 (912)
I0403 02:30:37.920275 30257 net.cpp:156] Memory required for data: 1208432064
I0403 02:30:37.920294 30257 layer_factory.hpp:77] Creating layer inception_4e/1x1
I0403 02:30:37.920325 30257 net.cpp:91] Creating Layer inception_4e/1x1
I0403 02:30:37.920348 30257 net.cpp:425] inception_4e/1x1 <- inception_4d/output_inception_4d/output_0_split_1
I0403 02:30:37.920374 30257 net.cpp:399] inception_4e/1x1 -> inception_4e/1x1
I0403 02:30:37.921736 30257 net.cpp:141] Setting up inception_4e/1x1
I0403 02:30:37.921768 30257 net.cpp:148] Top shape: 24 256 14 14 (1204224)
I0403 02:30:37.921787 30257 net.cpp:156] Memory required for data: 1213248960
I0403 02:30:37.921810 30257 layer_factory.hpp:77] Creating layer inception_4e/relu_1x1
I0403 02:30:37.921838 30257 net.cpp:91] Creating Layer inception_4e/relu_1x1
I0403 02:30:37.921859 30257 net.cpp:425] inception_4e/relu_1x1 <- inception_4e/1x1
I0403 02:30:37.921880 30257 net.cpp:386] inception_4e/relu_1x1 -> inception_4e/1x1 (in-place)
I0403 02:30:37.921903 30257 net.cpp:141] Setting up inception_4e/relu_1x1
I0403 02:30:37.921952 30257 net.cpp:148] Top shape: 24 256 14 14 (1204224)
I0403 02:30:37.921972 30257 net.cpp:156] Memory required for data: 1218065856
I0403 02:30:37.921991 30257 layer_factory.hpp:77] Creating layer inception_4e/3x3_reduce
I0403 02:30:37.922021 30257 net.cpp:91] Creating Layer inception_4e/3x3_reduce
I0403 02:30:37.922042 30257 net.cpp:425] inception_4e/3x3_reduce <- inception_4d/output_inception_4d/output_0_split_2
I0403 02:30:37.922068 30257 net.cpp:399] inception_4e/3x3_reduce -> inception_4e/3x3_reduce
I0403 02:30:37.923727 30257 net.cpp:141] Setting up inception_4e/3x3_reduce
I0403 02:30:37.923761 30257 net.cpp:148] Top shape: 24 160 14 14 (752640)
I0403 02:30:37.923781 30257 net.cpp:156] Memory required for data: 1221076416
I0403 02:30:37.923805 30257 layer_factory.hpp:77] Creating layer inception_4e/relu_3x3_reduce
I0403 02:30:37.923830 30257 net.cpp:91] Creating Layer inception_4e/relu_3x3_reduce
I0403 02:30:37.923852 30257 net.cpp:425] inception_4e/relu_3x3_reduce <- inception_4e/3x3_reduce
I0403 02:30:37.923878 30257 net.cpp:386] inception_4e/relu_3x3_reduce -> inception_4e/3x3_reduce (in-place)
I0403 02:30:37.923903 30257 net.cpp:141] Setting up inception_4e/relu_3x3_reduce
I0403 02:30:37.923928 30257 net.cpp:148] Top shape: 24 160 14 14 (752640)
I0403 02:30:37.923945 30257 net.cpp:156] Memory required for data: 1224086976
I0403 02:30:37.923964 30257 layer_factory.hpp:77] Creating layer inception_4e/3x3
I0403 02:30:37.923993 30257 net.cpp:91] Creating Layer inception_4e/3x3
I0403 02:30:37.924017 30257 net.cpp:425] inception_4e/3x3 <- inception_4e/3x3_reduce
I0403 02:30:37.924041 30257 net.cpp:399] inception_4e/3x3 -> inception_4e/3x3
I0403 02:30:37.928719 30257 net.cpp:141] Setting up inception_4e/3x3
I0403 02:30:37.928758 30257 net.cpp:148] Top shape: 24 320 14 14 (1505280)
I0403 02:30:37.928781 30257 net.cpp:156] Memory required for data: 1230108096
I0403 02:30:37.928805 30257 layer_factory.hpp:77] Creating layer inception_4e/relu_3x3
I0403 02:30:37.928830 30257 net.cpp:91] Creating Layer inception_4e/relu_3x3
I0403 02:30:37.928851 30257 net.cpp:425] inception_4e/relu_3x3 <- inception_4e/3x3
I0403 02:30:37.928874 30257 net.cpp:386] inception_4e/relu_3x3 -> inception_4e/3x3 (in-place)
I0403 02:30:37.928899 30257 net.cpp:141] Setting up inception_4e/relu_3x3
I0403 02:30:37.928920 30257 net.cpp:148] Top shape: 24 320 14 14 (1505280)
I0403 02:30:37.928936 30257 net.cpp:156] Memory required for data: 1236129216
I0403 02:30:37.928954 30257 layer_factory.hpp:77] Creating layer inception_4e/5x5_reduce
I0403 02:30:37.928984 30257 net.cpp:91] Creating Layer inception_4e/5x5_reduce
I0403 02:30:37.929009 30257 net.cpp:425] inception_4e/5x5_reduce <- inception_4d/output_inception_4d/output_0_split_3
I0403 02:30:37.929035 30257 net.cpp:399] inception_4e/5x5_reduce -> inception_4e/5x5_reduce
I0403 02:30:37.930181 30257 net.cpp:141] Setting up inception_4e/5x5_reduce
I0403 02:30:37.930219 30257 net.cpp:148] Top shape: 24 32 14 14 (150528)
I0403 02:30:37.930240 30257 net.cpp:156] Memory required for data: 1236731328
I0403 02:30:37.930263 30257 layer_factory.hpp:77] Creating layer inception_4e/relu_5x5_reduce
I0403 02:30:37.930289 30257 net.cpp:91] Creating Layer inception_4e/relu_5x5_reduce
I0403 02:30:37.930310 30257 net.cpp:425] inception_4e/relu_5x5_reduce <- inception_4e/5x5_reduce
I0403 02:30:37.930331 30257 net.cpp:386] inception_4e/relu_5x5_reduce -> inception_4e/5x5_reduce (in-place)
I0403 02:30:37.930356 30257 net.cpp:141] Setting up inception_4e/relu_5x5_reduce
I0403 02:30:37.930379 30257 net.cpp:148] Top shape: 24 32 14 14 (150528)
I0403 02:30:37.930398 30257 net.cpp:156] Memory required for data: 1237333440
I0403 02:30:37.930418 30257 layer_factory.hpp:77] Creating layer inception_4e/5x5
I0403 02:30:37.930469 30257 net.cpp:91] Creating Layer inception_4e/5x5
I0403 02:30:37.930493 30257 net.cpp:425] inception_4e/5x5 <- inception_4e/5x5_reduce
I0403 02:30:37.930519 30257 net.cpp:399] inception_4e/5x5 -> inception_4e/5x5
I0403 02:30:37.931478 30257 net.cpp:141] Setting up inception_4e/5x5
I0403 02:30:37.931529 30257 net.cpp:148] Top shape: 24 128 14 14 (602112)
I0403 02:30:37.931550 30257 net.cpp:156] Memory required for data: 1239741888
I0403 02:30:37.931577 30257 layer_factory.hpp:77] Creating layer inception_4e/relu_5x5
I0403 02:30:37.931602 30257 net.cpp:91] Creating Layer inception_4e/relu_5x5
I0403 02:30:37.931622 30257 net.cpp:425] inception_4e/relu_5x5 <- inception_4e/5x5
I0403 02:30:37.931644 30257 net.cpp:386] inception_4e/relu_5x5 -> inception_4e/5x5 (in-place)
I0403 02:30:37.931669 30257 net.cpp:141] Setting up inception_4e/relu_5x5
I0403 02:30:37.931692 30257 net.cpp:148] Top shape: 24 128 14 14 (602112)
I0403 02:30:37.931710 30257 net.cpp:156] Memory required for data: 1242150336
I0403 02:30:37.931727 30257 layer_factory.hpp:77] Creating layer inception_4e/pool
I0403 02:30:37.931752 30257 net.cpp:91] Creating Layer inception_4e/pool
I0403 02:30:37.931773 30257 net.cpp:425] inception_4e/pool <- inception_4d/output_inception_4d/output_0_split_4
I0403 02:30:37.931797 30257 net.cpp:399] inception_4e/pool -> inception_4e/pool
I0403 02:30:37.931987 30257 net.cpp:141] Setting up inception_4e/pool
I0403 02:30:37.932018 30257 net.cpp:148] Top shape: 24 528 14 14 (2483712)
I0403 02:30:37.932036 30257 net.cpp:156] Memory required for data: 1252085184
I0403 02:30:37.932054 30257 layer_factory.hpp:77] Creating layer inception_4e/pool_proj
I0403 02:30:37.932085 30257 net.cpp:91] Creating Layer inception_4e/pool_proj
I0403 02:30:37.932108 30257 net.cpp:425] inception_4e/pool_proj <- inception_4e/pool
I0403 02:30:37.932132 30257 net.cpp:399] inception_4e/pool_proj -> inception_4e/pool_proj
I0403 02:30:37.932864 30257 net.cpp:141] Setting up inception_4e/pool_proj
I0403 02:30:37.932898 30257 net.cpp:148] Top shape: 24 128 14 14 (602112)
I0403 02:30:37.932916 30257 net.cpp:156] Memory required for data: 1254493632
I0403 02:30:37.932940 30257 layer_factory.hpp:77] Creating layer inception_4e/relu_pool_proj
I0403 02:30:37.932963 30257 net.cpp:91] Creating Layer inception_4e/relu_pool_proj
I0403 02:30:37.932983 30257 net.cpp:425] inception_4e/relu_pool_proj <- inception_4e/pool_proj
I0403 02:30:37.933007 30257 net.cpp:386] inception_4e/relu_pool_proj -> inception_4e/pool_proj (in-place)
I0403 02:30:37.933033 30257 net.cpp:141] Setting up inception_4e/relu_pool_proj
I0403 02:30:37.933055 30257 net.cpp:148] Top shape: 24 128 14 14 (602112)
I0403 02:30:37.933073 30257 net.cpp:156] Memory required for data: 1256902080
I0403 02:30:37.933092 30257 layer_factory.hpp:77] Creating layer inception_4e/output
I0403 02:30:37.933115 30257 net.cpp:91] Creating Layer inception_4e/output
I0403 02:30:37.933135 30257 net.cpp:425] inception_4e/output <- inception_4e/1x1
I0403 02:30:37.933156 30257 net.cpp:425] inception_4e/output <- inception_4e/3x3
I0403 02:30:37.933174 30257 net.cpp:425] inception_4e/output <- inception_4e/5x5
I0403 02:30:37.933194 30257 net.cpp:425] inception_4e/output <- inception_4e/pool_proj
I0403 02:30:37.933218 30257 net.cpp:399] inception_4e/output -> inception_4e/output
I0403 02:30:37.933266 30257 net.cpp:141] Setting up inception_4e/output
I0403 02:30:37.933295 30257 net.cpp:148] Top shape: 24 832 14 14 (3913728)
I0403 02:30:37.933313 30257 net.cpp:156] Memory required for data: 1272556992
I0403 02:30:37.933333 30257 layer_factory.hpp:77] Creating layer pool4/3x3_s2
I0403 02:30:37.933357 30257 net.cpp:91] Creating Layer pool4/3x3_s2
I0403 02:30:37.933377 30257 net.cpp:425] pool4/3x3_s2 <- inception_4e/output
I0403 02:30:37.933403 30257 net.cpp:399] pool4/3x3_s2 -> pool4/3x3_s2
I0403 02:30:37.933465 30257 net.cpp:141] Setting up pool4/3x3_s2
I0403 02:30:37.933495 30257 net.cpp:148] Top shape: 24 832 7 7 (978432)
I0403 02:30:37.933516 30257 net.cpp:156] Memory required for data: 1276470720
I0403 02:30:37.933533 30257 layer_factory.hpp:77] Creating layer pool4/3x3_s2_pool4/3x3_s2_0_split
I0403 02:30:37.933557 30257 net.cpp:91] Creating Layer pool4/3x3_s2_pool4/3x3_s2_0_split
I0403 02:30:37.933583 30257 net.cpp:425] pool4/3x3_s2_pool4/3x3_s2_0_split <- pool4/3x3_s2
I0403 02:30:37.933624 30257 net.cpp:399] pool4/3x3_s2_pool4/3x3_s2_0_split -> pool4/3x3_s2_pool4/3x3_s2_0_split_0
I0403 02:30:37.933651 30257 net.cpp:399] pool4/3x3_s2_pool4/3x3_s2_0_split -> pool4/3x3_s2_pool4/3x3_s2_0_split_1
I0403 02:30:37.933681 30257 net.cpp:399] pool4/3x3_s2_pool4/3x3_s2_0_split -> pool4/3x3_s2_pool4/3x3_s2_0_split_2
I0403 02:30:37.933708 30257 net.cpp:399] pool4/3x3_s2_pool4/3x3_s2_0_split -> pool4/3x3_s2_pool4/3x3_s2_0_split_3
I0403 02:30:37.933794 30257 net.cpp:141] Setting up pool4/3x3_s2_pool4/3x3_s2_0_split
I0403 02:30:37.933821 30257 net.cpp:148] Top shape: 24 832 7 7 (978432)
I0403 02:30:37.933904 30257 net.cpp:148] Top shape: 24 832 7 7 (978432)
I0403 02:30:37.933933 30257 net.cpp:148] Top shape: 24 832 7 7 (978432)
I0403 02:30:37.933953 30257 net.cpp:148] Top shape: 24 832 7 7 (978432)
I0403 02:30:37.933971 30257 net.cpp:156] Memory required for data: 1292125632
I0403 02:30:37.933990 30257 layer_factory.hpp:77] Creating layer inception_5a/1x1
I0403 02:30:37.934018 30257 net.cpp:91] Creating Layer inception_5a/1x1
I0403 02:30:37.934042 30257 net.cpp:425] inception_5a/1x1 <- pool4/3x3_s2_pool4/3x3_s2_0_split_0
I0403 02:30:37.934070 30257 net.cpp:399] inception_5a/1x1 -> inception_5a/1x1
I0403 02:30:37.936470 30257 net.cpp:141] Setting up inception_5a/1x1
I0403 02:30:37.936506 30257 net.cpp:148] Top shape: 24 256 7 7 (301056)
I0403 02:30:37.936527 30257 net.cpp:156] Memory required for data: 1293329856
I0403 02:30:37.936549 30257 layer_factory.hpp:77] Creating layer inception_5a/relu_1x1
I0403 02:30:37.936579 30257 net.cpp:91] Creating Layer inception_5a/relu_1x1
I0403 02:30:37.936602 30257 net.cpp:425] inception_5a/relu_1x1 <- inception_5a/1x1
I0403 02:30:37.936625 30257 net.cpp:386] inception_5a/relu_1x1 -> inception_5a/1x1 (in-place)
I0403 02:30:37.936650 30257 net.cpp:141] Setting up inception_5a/relu_1x1
I0403 02:30:37.936671 30257 net.cpp:148] Top shape: 24 256 7 7 (301056)
I0403 02:30:37.936689 30257 net.cpp:156] Memory required for data: 1294534080
I0403 02:30:37.936707 30257 layer_factory.hpp:77] Creating layer inception_5a/3x3_reduce
I0403 02:30:37.936736 30257 net.cpp:91] Creating Layer inception_5a/3x3_reduce
I0403 02:30:37.936760 30257 net.cpp:425] inception_5a/3x3_reduce <- pool4/3x3_s2_pool4/3x3_s2_0_split_1
I0403 02:30:37.936787 30257 net.cpp:399] inception_5a/3x3_reduce -> inception_5a/3x3_reduce
I0403 02:30:37.938704 30257 net.cpp:141] Setting up inception_5a/3x3_reduce
I0403 02:30:37.938742 30257 net.cpp:148] Top shape: 24 160 7 7 (188160)
I0403 02:30:37.938766 30257 net.cpp:156] Memory required for data: 1295286720
I0403 02:30:37.938788 30257 layer_factory.hpp:77] Creating layer inception_5a/relu_3x3_reduce
I0403 02:30:37.938812 30257 net.cpp:91] Creating Layer inception_5a/relu_3x3_reduce
I0403 02:30:37.938833 30257 net.cpp:425] inception_5a/relu_3x3_reduce <- inception_5a/3x3_reduce
I0403 02:30:37.938855 30257 net.cpp:386] inception_5a/relu_3x3_reduce -> inception_5a/3x3_reduce (in-place)
I0403 02:30:37.938879 30257 net.cpp:141] Setting up inception_5a/relu_3x3_reduce
I0403 02:30:37.938901 30257 net.cpp:148] Top shape: 24 160 7 7 (188160)
I0403 02:30:37.938920 30257 net.cpp:156] Memory required for data: 1296039360
I0403 02:30:37.938937 30257 layer_factory.hpp:77] Creating layer inception_5a/3x3
I0403 02:30:37.938966 30257 net.cpp:91] Creating Layer inception_5a/3x3
I0403 02:30:37.938990 30257 net.cpp:425] inception_5a/3x3 <- inception_5a/3x3_reduce
I0403 02:30:37.939013 30257 net.cpp:399] inception_5a/3x3 -> inception_5a/3x3
I0403 02:30:37.944093 30257 net.cpp:141] Setting up inception_5a/3x3
I0403 02:30:37.944128 30257 net.cpp:148] Top shape: 24 320 7 7 (376320)
I0403 02:30:37.944149 30257 net.cpp:156] Memory required for data: 1297544640
I0403 02:30:37.944172 30257 layer_factory.hpp:77] Creating layer inception_5a/relu_3x3
I0403 02:30:37.944197 30257 net.cpp:91] Creating Layer inception_5a/relu_3x3
I0403 02:30:37.944219 30257 net.cpp:425] inception_5a/relu_3x3 <- inception_5a/3x3
I0403 02:30:37.944244 30257 net.cpp:386] inception_5a/relu_3x3 -> inception_5a/3x3 (in-place)
I0403 02:30:37.944290 30257 net.cpp:141] Setting up inception_5a/relu_3x3
I0403 02:30:37.944314 30257 net.cpp:148] Top shape: 24 320 7 7 (376320)
I0403 02:30:37.944332 30257 net.cpp:156] Memory required for data: 1299049920
I0403 02:30:37.944350 30257 layer_factory.hpp:77] Creating layer inception_5a/5x5_reduce
I0403 02:30:37.944380 30257 net.cpp:91] Creating Layer inception_5a/5x5_reduce
I0403 02:30:37.944402 30257 net.cpp:425] inception_5a/5x5_reduce <- pool4/3x3_s2_pool4/3x3_s2_0_split_2
I0403 02:30:37.944427 30257 net.cpp:399] inception_5a/5x5_reduce -> inception_5a/5x5_reduce
I0403 02:30:37.944903 30257 net.cpp:141] Setting up inception_5a/5x5_reduce
I0403 02:30:37.944936 30257 net.cpp:148] Top shape: 24 32 7 7 (37632)
I0403 02:30:37.944954 30257 net.cpp:156] Memory required for data: 1299200448
I0403 02:30:37.944977 30257 layer_factory.hpp:77] Creating layer inception_5a/relu_5x5_reduce
I0403 02:30:37.944999 30257 net.cpp:91] Creating Layer inception_5a/relu_5x5_reduce
I0403 02:30:37.945019 30257 net.cpp:425] inception_5a/relu_5x5_reduce <- inception_5a/5x5_reduce
I0403 02:30:37.945044 30257 net.cpp:386] inception_5a/relu_5x5_reduce -> inception_5a/5x5_reduce (in-place)
I0403 02:30:37.945070 30257 net.cpp:141] Setting up inception_5a/relu_5x5_reduce
I0403 02:30:37.945092 30257 net.cpp:148] Top shape: 24 32 7 7 (37632)
I0403 02:30:37.945111 30257 net.cpp:156] Memory required for data: 1299350976
I0403 02:30:37.945128 30257 layer_factory.hpp:77] Creating layer inception_5a/5x5
I0403 02:30:37.945158 30257 net.cpp:91] Creating Layer inception_5a/5x5
I0403 02:30:37.945183 30257 net.cpp:425] inception_5a/5x5 <- inception_5a/5x5_reduce
I0403 02:30:37.945207 30257 net.cpp:399] inception_5a/5x5 -> inception_5a/5x5
I0403 02:30:37.946285 30257 net.cpp:141] Setting up inception_5a/5x5
I0403 02:30:37.946321 30257 net.cpp:148] Top shape: 24 128 7 7 (150528)
I0403 02:30:37.946344 30257 net.cpp:156] Memory required for data: 1299953088
I0403 02:30:37.946367 30257 layer_factory.hpp:77] Creating layer inception_5a/relu_5x5
I0403 02:30:37.946389 30257 net.cpp:91] Creating Layer inception_5a/relu_5x5
I0403 02:30:37.946410 30257 net.cpp:425] inception_5a/relu_5x5 <- inception_5a/5x5
I0403 02:30:37.946432 30257 net.cpp:386] inception_5a/relu_5x5 -> inception_5a/5x5 (in-place)
I0403 02:30:37.946461 30257 net.cpp:141] Setting up inception_5a/relu_5x5
I0403 02:30:37.946485 30257 net.cpp:148] Top shape: 24 128 7 7 (150528)
I0403 02:30:37.946503 30257 net.cpp:156] Memory required for data: 1300555200
I0403 02:30:37.946521 30257 layer_factory.hpp:77] Creating layer inception_5a/pool
I0403 02:30:37.946542 30257 net.cpp:91] Creating Layer inception_5a/pool
I0403 02:30:37.946563 30257 net.cpp:425] inception_5a/pool <- pool4/3x3_s2_pool4/3x3_s2_0_split_3
I0403 02:30:37.946593 30257 net.cpp:399] inception_5a/pool -> inception_5a/pool
I0403 02:30:37.946661 30257 net.cpp:141] Setting up inception_5a/pool
I0403 02:30:37.946691 30257 net.cpp:148] Top shape: 24 832 7 7 (978432)
I0403 02:30:37.946709 30257 net.cpp:156] Memory required for data: 1304468928
I0403 02:30:37.946728 30257 layer_factory.hpp:77] Creating layer inception_5a/pool_proj
I0403 02:30:37.946756 30257 net.cpp:91] Creating Layer inception_5a/pool_proj
I0403 02:30:37.946779 30257 net.cpp:425] inception_5a/pool_proj <- inception_5a/pool
I0403 02:30:37.946805 30257 net.cpp:399] inception_5a/pool_proj -> inception_5a/pool_proj
I0403 02:30:37.948534 30257 net.cpp:141] Setting up inception_5a/pool_proj
I0403 02:30:37.948575 30257 net.cpp:148] Top shape: 24 128 7 7 (150528)
I0403 02:30:37.948596 30257 net.cpp:156] Memory required for data: 1305071040
I0403 02:30:37.948617 30257 layer_factory.hpp:77] Creating layer inception_5a/relu_pool_proj
I0403 02:30:37.948642 30257 net.cpp:91] Creating Layer inception_5a/relu_pool_proj
I0403 02:30:37.948662 30257 net.cpp:425] inception_5a/relu_pool_proj <- inception_5a/pool_proj
I0403 02:30:37.948688 30257 net.cpp:386] inception_5a/relu_pool_proj -> inception_5a/pool_proj (in-place)
I0403 02:30:37.948715 30257 net.cpp:141] Setting up inception_5a/relu_pool_proj
I0403 02:30:37.948755 30257 net.cpp:148] Top shape: 24 128 7 7 (150528)
I0403 02:30:37.948776 30257 net.cpp:156] Memory required for data: 1305673152
I0403 02:30:37.948793 30257 layer_factory.hpp:77] Creating layer inception_5a/output
I0403 02:30:37.948814 30257 net.cpp:91] Creating Layer inception_5a/output
I0403 02:30:37.948835 30257 net.cpp:425] inception_5a/output <- inception_5a/1x1
I0403 02:30:37.948855 30257 net.cpp:425] inception_5a/output <- inception_5a/3x3
I0403 02:30:37.948874 30257 net.cpp:425] inception_5a/output <- inception_5a/5x5
I0403 02:30:37.948894 30257 net.cpp:425] inception_5a/output <- inception_5a/pool_proj
I0403 02:30:37.948916 30257 net.cpp:399] inception_5a/output -> inception_5a/output
I0403 02:30:37.948964 30257 net.cpp:141] Setting up inception_5a/output
I0403 02:30:37.948992 30257 net.cpp:148] Top shape: 24 832 7 7 (978432)
I0403 02:30:37.949012 30257 net.cpp:156] Memory required for data: 1309586880
I0403 02:30:37.949029 30257 layer_factory.hpp:77] Creating layer inception_5a/output_inception_5a/output_0_split
I0403 02:30:37.949053 30257 net.cpp:91] Creating Layer inception_5a/output_inception_5a/output_0_split
I0403 02:30:37.949074 30257 net.cpp:425] inception_5a/output_inception_5a/output_0_split <- inception_5a/output
I0403 02:30:37.949098 30257 net.cpp:399] inception_5a/output_inception_5a/output_0_split -> inception_5a/output_inception_5a/output_0_split_0
I0403 02:30:37.949123 30257 net.cpp:399] inception_5a/output_inception_5a/output_0_split -> inception_5a/output_inception_5a/output_0_split_1
I0403 02:30:37.949151 30257 net.cpp:399] inception_5a/output_inception_5a/output_0_split -> inception_5a/output_inception_5a/output_0_split_2
I0403 02:30:37.949177 30257 net.cpp:399] inception_5a/output_inception_5a/output_0_split -> inception_5a/output_inception_5a/output_0_split_3
I0403 02:30:37.949261 30257 net.cpp:141] Setting up inception_5a/output_inception_5a/output_0_split
I0403 02:30:37.949291 30257 net.cpp:148] Top shape: 24 832 7 7 (978432)
I0403 02:30:37.949311 30257 net.cpp:148] Top shape: 24 832 7 7 (978432)
I0403 02:30:37.949331 30257 net.cpp:148] Top shape: 24 832 7 7 (978432)
I0403 02:30:37.949348 30257 net.cpp:148] Top shape: 24 832 7 7 (978432)
I0403 02:30:37.949367 30257 net.cpp:156] Memory required for data: 1325241792
I0403 02:30:37.949384 30257 layer_factory.hpp:77] Creating layer inception_5b/1x1
I0403 02:30:37.949414 30257 net.cpp:91] Creating Layer inception_5b/1x1
I0403 02:30:37.949440 30257 net.cpp:425] inception_5b/1x1 <- inception_5a/output_inception_5a/output_0_split_0
I0403 02:30:37.949463 30257 net.cpp:399] inception_5b/1x1 -> inception_5b/1x1
I0403 02:30:37.952783 30257 net.cpp:141] Setting up inception_5b/1x1
I0403 02:30:37.952818 30257 net.cpp:148] Top shape: 24 384 7 7 (451584)
I0403 02:30:37.952841 30257 net.cpp:156] Memory required for data: 1327048128
I0403 02:30:37.952862 30257 layer_factory.hpp:77] Creating layer inception_5b/relu_1x1
I0403 02:30:37.952886 30257 net.cpp:91] Creating Layer inception_5b/relu_1x1
I0403 02:30:37.952908 30257 net.cpp:425] inception_5b/relu_1x1 <- inception_5b/1x1
I0403 02:30:37.952934 30257 net.cpp:386] inception_5b/relu_1x1 -> inception_5b/1x1 (in-place)
I0403 02:30:37.952960 30257 net.cpp:141] Setting up inception_5b/relu_1x1
I0403 02:30:37.952982 30257 net.cpp:148] Top shape: 24 384 7 7 (451584)
I0403 02:30:37.952999 30257 net.cpp:156] Memory required for data: 1328854464
I0403 02:30:37.953017 30257 layer_factory.hpp:77] Creating layer inception_5b/3x3_reduce
I0403 02:30:37.953048 30257 net.cpp:91] Creating Layer inception_5b/3x3_reduce
I0403 02:30:37.953073 30257 net.cpp:425] inception_5b/3x3_reduce <- inception_5a/output_inception_5a/output_0_split_1
I0403 02:30:37.953097 30257 net.cpp:399] inception_5b/3x3_reduce -> inception_5b/3x3_reduce
I0403 02:30:37.955209 30257 net.cpp:141] Setting up inception_5b/3x3_reduce
I0403 02:30:37.955245 30257 net.cpp:148] Top shape: 24 192 7 7 (225792)
I0403 02:30:37.955265 30257 net.cpp:156] Memory required for data: 1329757632
I0403 02:30:37.955286 30257 layer_factory.hpp:77] Creating layer inception_5b/relu_3x3_reduce
I0403 02:30:37.955330 30257 net.cpp:91] Creating Layer inception_5b/relu_3x3_reduce
I0403 02:30:37.955353 30257 net.cpp:425] inception_5b/relu_3x3_reduce <- inception_5b/3x3_reduce
I0403 02:30:37.955379 30257 net.cpp:386] inception_5b/relu_3x3_reduce -> inception_5b/3x3_reduce (in-place)
I0403 02:30:37.955406 30257 net.cpp:141] Setting up inception_5b/relu_3x3_reduce
I0403 02:30:37.955430 30257 net.cpp:148] Top shape: 24 192 7 7 (225792)
I0403 02:30:37.955447 30257 net.cpp:156] Memory required for data: 1330660800
I0403 02:30:37.955466 30257 layer_factory.hpp:77] Creating layer inception_5b/3x3
I0403 02:30:37.955492 30257 net.cpp:91] Creating Layer inception_5b/3x3
I0403 02:30:37.955513 30257 net.cpp:425] inception_5b/3x3 <- inception_5b/3x3_reduce
I0403 02:30:37.955540 30257 net.cpp:399] inception_5b/3x3 -> inception_5b/3x3
I0403 02:30:37.962472 30257 net.cpp:141] Setting up inception_5b/3x3
I0403 02:30:37.962648 30257 net.cpp:148] Top shape: 24 384 7 7 (451584)
I0403 02:30:37.962677 30257 net.cpp:156] Memory required for data: 1332467136
I0403 02:30:37.962700 30257 layer_factory.hpp:77] Creating layer inception_5b/relu_3x3
I0403 02:30:37.962729 30257 net.cpp:91] Creating Layer inception_5b/relu_3x3
I0403 02:30:37.962752 30257 net.cpp:425] inception_5b/relu_3x3 <- inception_5b/3x3
I0403 02:30:37.962774 30257 net.cpp:386] inception_5b/relu_3x3 -> inception_5b/3x3 (in-place)
I0403 02:30:37.962801 30257 net.cpp:141] Setting up inception_5b/relu_3x3
I0403 02:30:37.962823 30257 net.cpp:148] Top shape: 24 384 7 7 (451584)
I0403 02:30:37.962841 30257 net.cpp:156] Memory required for data: 1334273472
I0403 02:30:37.962860 30257 layer_factory.hpp:77] Creating layer inception_5b/5x5_reduce
I0403 02:30:37.962889 30257 net.cpp:91] Creating Layer inception_5b/5x5_reduce
I0403 02:30:37.962913 30257 net.cpp:425] inception_5b/5x5_reduce <- inception_5a/output_inception_5a/output_0_split_2
I0403 02:30:37.962937 30257 net.cpp:399] inception_5b/5x5_reduce -> inception_5b/5x5_reduce
I0403 02:30:37.964131 30257 net.cpp:141] Setting up inception_5b/5x5_reduce
I0403 02:30:37.964169 30257 net.cpp:148] Top shape: 24 48 7 7 (56448)
I0403 02:30:37.964190 30257 net.cpp:156] Memory required for data: 1334499264
I0403 02:30:37.964212 30257 layer_factory.hpp:77] Creating layer inception_5b/relu_5x5_reduce
I0403 02:30:37.964236 30257 net.cpp:91] Creating Layer inception_5b/relu_5x5_reduce
I0403 02:30:37.964257 30257 net.cpp:425] inception_5b/relu_5x5_reduce <- inception_5b/5x5_reduce
I0403 02:30:37.964283 30257 net.cpp:386] inception_5b/relu_5x5_reduce -> inception_5b/5x5_reduce (in-place)
I0403 02:30:37.964309 30257 net.cpp:141] Setting up inception_5b/relu_5x5_reduce
I0403 02:30:37.964334 30257 net.cpp:148] Top shape: 24 48 7 7 (56448)
I0403 02:30:37.964351 30257 net.cpp:156] Memory required for data: 1334725056
I0403 02:30:37.964370 30257 layer_factory.hpp:77] Creating layer inception_5b/5x5
I0403 02:30:37.964400 30257 net.cpp:91] Creating Layer inception_5b/5x5
I0403 02:30:37.964423 30257 net.cpp:425] inception_5b/5x5 <- inception_5b/5x5_reduce
I0403 02:30:37.964447 30257 net.cpp:399] inception_5b/5x5 -> inception_5b/5x5
I0403 02:30:37.965888 30257 net.cpp:141] Setting up inception_5b/5x5
I0403 02:30:37.965921 30257 net.cpp:148] Top shape: 24 128 7 7 (150528)
I0403 02:30:37.965941 30257 net.cpp:156] Memory required for data: 1335327168
I0403 02:30:37.965965 30257 layer_factory.hpp:77] Creating layer inception_5b/relu_5x5
I0403 02:30:37.965987 30257 net.cpp:91] Creating Layer inception_5b/relu_5x5
I0403 02:30:37.966006 30257 net.cpp:425] inception_5b/relu_5x5 <- inception_5b/5x5
I0403 02:30:37.966030 30257 net.cpp:386] inception_5b/relu_5x5 -> inception_5b/5x5 (in-place)
I0403 02:30:37.966056 30257 net.cpp:141] Setting up inception_5b/relu_5x5
I0403 02:30:37.966079 30257 net.cpp:148] Top shape: 24 128 7 7 (150528)
I0403 02:30:37.966097 30257 net.cpp:156] Memory required for data: 1335929280
I0403 02:30:37.966114 30257 layer_factory.hpp:77] Creating layer inception_5b/pool
I0403 02:30:37.966137 30257 net.cpp:91] Creating Layer inception_5b/pool
I0403 02:30:37.966177 30257 net.cpp:425] inception_5b/pool <- inception_5a/output_inception_5a/output_0_split_3
I0403 02:30:37.966202 30257 net.cpp:399] inception_5b/pool -> inception_5b/pool
I0403 02:30:37.966272 30257 net.cpp:141] Setting up inception_5b/pool
I0403 02:30:37.966303 30257 net.cpp:148] Top shape: 24 832 7 7 (978432)
I0403 02:30:37.966325 30257 net.cpp:156] Memory required for data: 1339843008
I0403 02:30:37.966343 30257 layer_factory.hpp:77] Creating layer inception_5b/pool_proj
I0403 02:30:37.966372 30257 net.cpp:91] Creating Layer inception_5b/pool_proj
I0403 02:30:37.966394 30257 net.cpp:425] inception_5b/pool_proj <- inception_5b/pool
I0403 02:30:37.966421 30257 net.cpp:399] inception_5b/pool_proj -> inception_5b/pool_proj
I0403 02:30:37.968153 30257 net.cpp:141] Setting up inception_5b/pool_proj
I0403 02:30:37.968194 30257 net.cpp:148] Top shape: 24 128 7 7 (150528)
I0403 02:30:37.968215 30257 net.cpp:156] Memory required for data: 1340445120
I0403 02:30:37.968238 30257 layer_factory.hpp:77] Creating layer inception_5b/relu_pool_proj
I0403 02:30:37.968261 30257 net.cpp:91] Creating Layer inception_5b/relu_pool_proj
I0403 02:30:37.968283 30257 net.cpp:425] inception_5b/relu_pool_proj <- inception_5b/pool_proj
I0403 02:30:37.968304 30257 net.cpp:386] inception_5b/relu_pool_proj -> inception_5b/pool_proj (in-place)
I0403 02:30:37.968332 30257 net.cpp:141] Setting up inception_5b/relu_pool_proj
I0403 02:30:37.968353 30257 net.cpp:148] Top shape: 24 128 7 7 (150528)
I0403 02:30:37.968371 30257 net.cpp:156] Memory required for data: 1341047232
I0403 02:30:37.968391 30257 layer_factory.hpp:77] Creating layer inception_5b/output
I0403 02:30:37.968415 30257 net.cpp:91] Creating Layer inception_5b/output
I0403 02:30:37.968436 30257 net.cpp:425] inception_5b/output <- inception_5b/1x1
I0403 02:30:37.968454 30257 net.cpp:425] inception_5b/output <- inception_5b/3x3
I0403 02:30:37.968474 30257 net.cpp:425] inception_5b/output <- inception_5b/5x5
I0403 02:30:37.968494 30257 net.cpp:425] inception_5b/output <- inception_5b/pool_proj
I0403 02:30:37.968523 30257 net.cpp:399] inception_5b/output -> inception_5b/output
I0403 02:30:37.968578 30257 net.cpp:141] Setting up inception_5b/output
I0403 02:30:37.968611 30257 net.cpp:148] Top shape: 24 1024 7 7 (1204224)
I0403 02:30:37.968631 30257 net.cpp:156] Memory required for data: 1345864128
I0403 02:30:37.968650 30257 layer_factory.hpp:77] Creating layer pool5/7x7_s1
I0403 02:30:37.968672 30257 net.cpp:91] Creating Layer pool5/7x7_s1
I0403 02:30:37.968693 30257 net.cpp:425] pool5/7x7_s1 <- inception_5b/output
I0403 02:30:37.968715 30257 net.cpp:399] pool5/7x7_s1 -> pool5/7x7_s1
I0403 02:30:37.968885 30257 net.cpp:141] Setting up pool5/7x7_s1
I0403 02:30:37.968916 30257 net.cpp:148] Top shape: 24 1024 1 1 (24576)
I0403 02:30:37.968935 30257 net.cpp:156] Memory required for data: 1345962432
I0403 02:30:37.968953 30257 layer_factory.hpp:77] Creating layer pool5/drop_7x7_s1
I0403 02:30:37.968977 30257 net.cpp:91] Creating Layer pool5/drop_7x7_s1
I0403 02:30:37.968998 30257 net.cpp:425] pool5/drop_7x7_s1 <- pool5/7x7_s1
I0403 02:30:37.969023 30257 net.cpp:386] pool5/drop_7x7_s1 -> pool5/7x7_s1 (in-place)
I0403 02:30:37.969074 30257 net.cpp:141] Setting up pool5/drop_7x7_s1
I0403 02:30:37.969105 30257 net.cpp:148] Top shape: 24 1024 1 1 (24576)
I0403 02:30:37.969125 30257 net.cpp:156] Memory required for data: 1346060736
I0403 02:30:37.969141 30257 layer_factory.hpp:77] Creating layer loss3/classifier_plantvillage
I0403 02:30:37.969167 30257 net.cpp:91] Creating Layer loss3/classifier_plantvillage
I0403 02:30:37.969187 30257 net.cpp:425] loss3/classifier_plantvillage <- pool5/7x7_s1
I0403 02:30:37.969214 30257 net.cpp:399] loss3/classifier_plantvillage -> loss3/classifier_plantvillage
I0403 02:30:37.969626 30257 net.cpp:141] Setting up loss3/classifier_plantvillage
I0403 02:30:37.969660 30257 net.cpp:148] Top shape: 24 38 (912)
I0403 02:30:37.969681 30257 net.cpp:156] Memory required for data: 1346064384
I0403 02:30:37.969703 30257 layer_factory.hpp:77] Creating layer loss3/classifier_plantvillage_loss3/classifier_plantvillage_0_split
I0403 02:30:37.969745 30257 net.cpp:91] Creating Layer loss3/classifier_plantvillage_loss3/classifier_plantvillage_0_split
I0403 02:30:37.969769 30257 net.cpp:425] loss3/classifier_plantvillage_loss3/classifier_plantvillage_0_split <- loss3/classifier_plantvillage
I0403 02:30:37.969792 30257 net.cpp:399] loss3/classifier_plantvillage_loss3/classifier_plantvillage_0_split -> loss3/classifier_plantvillage_loss3/classifier_plantvillage_0_split_0
I0403 02:30:37.969817 30257 net.cpp:399] loss3/classifier_plantvillage_loss3/classifier_plantvillage_0_split -> loss3/classifier_plantvillage_loss3/classifier_plantvillage_0_split_1
I0403 02:30:37.969842 30257 net.cpp:399] loss3/classifier_plantvillage_loss3/classifier_plantvillage_0_split -> loss3/classifier_plantvillage_loss3/classifier_plantvillage_0_split_2
I0403 02:30:37.969920 30257 net.cpp:141] Setting up loss3/classifier_plantvillage_loss3/classifier_plantvillage_0_split
I0403 02:30:37.969949 30257 net.cpp:148] Top shape: 24 38 (912)
I0403 02:30:37.969971 30257 net.cpp:148] Top shape: 24 38 (912)
I0403 02:30:37.969990 30257 net.cpp:148] Top shape: 24 38 (912)
I0403 02:30:37.970007 30257 net.cpp:156] Memory required for data: 1346075328
I0403 02:30:37.970023 30257 layer_factory.hpp:77] Creating layer loss1/loss
I0403 02:30:37.970046 30257 net.cpp:91] Creating Layer loss1/loss
I0403 02:30:37.970065 30257 net.cpp:425] loss1/loss <- loss1/classifier_plantvillage_loss1/classifier_plantvillage_0_split_0
I0403 02:30:37.970088 30257 net.cpp:425] loss1/loss <- label_data_1_split_0
…
