…
I0403 18:28:47.451884  7009 net.cpp:313] The NetState phase (1) differed from the phase (0) specified by a rule in layer data
I0403 18:28:47.453045  7009 net.cpp:49] Initializing net from parameters: 
state {
  phase: TEST
}
layer {
  name: "data"
  type: "Data"
  top: "data"
  top: "label"
  include {
    phase: TEST
  }
  transform_param {
    mirror: false
    crop_size: 224
    mean_file: "/home/mohanty/data/final_dataset/lmdb/grayscale-40-60/mean.binaryproto"
  }
  data_param {
    source: "/home/mohanty/data/final_dataset/lmdb/grayscale-40-60/test_db"
    batch_size: 24
    backend: LMDB
  }
}
layer {
  name: "conv1/7x7_s2"
  type: "Convolution"
  bottom: "data"
  top: "conv1/7x7_s2"
  param {
    lr_mult: 1
    decay_mult: 1
  }
  param {
    lr_mult: 2
    decay_mult: 0
  }
  convolution_param {
    num_output: 64
    pad: 3
    kernel_size: 7
    stride: 2
    weight_filler {
      type: "xavier"
      std: 0.1
    }
    bias_filler {
      type: "constant"
      value: 0.2
    }
  }
}
layer {
  name: "conv1/relu_7x7"
  type: "ReLU"
  bottom: "conv1/7x7_s2"
  top: "conv1/7x7_s2"
}
layer {
  name: "pool1/3x3_s2"
  type: "Pooling"
  bottom: "conv1/7x7_s2"
  top: "pool1/3x3_s2"
  pooling_param {
    pool: MAX
    kernel_size: 3
    stride: 2
  }
}
layer {
  name: "pool1/norm1"
  type: "LRN"
  bottom: "pool1/3x3_s2"
  top: "pool1/norm1"
  lrn_param {
    local_size: 5
    alpha: 0.0001
    beta: 0.75
  }
}
layer {
  name: "conv2/3x3_reduce"
  type: "Convolution"
  bottom: "pool1/norm1"
  top: "conv2/3x3_reduce"
  param {
    lr_mult: 1
    decay_mult: 1
  }
  param {
    lr_mult: 2
    decay_mult: 0
  }
  convolution_param {
    num_output: 64
    kernel_size: 1
    weight_filler {
      type: "xavier"
      std: 0.1
    }
    bias_filler {
      type: "constant"
      value: 0.2
    }
  }
}
layer {
  name: "conv2/relu_3x3_reduce"
  type: "ReLU"
  bottom: "conv2/3x3_reduce"
  top: "conv2/3x3_reduce"
}
layer {
  name: "conv2/3x3"
  type: "Convolution"
  bottom: "conv2/3x3_reduce"
  top: "conv2/3x3"
  param {
    lr_mult: 1
    decay_mult: 1
  }
  param {
    lr_mult: 2
    decay_mult: 0
  }
  convolution_param {
    num_output: 192
    pad: 1
    kernel_size: 3
    weight_filler {
      type: "xavier"
      std: 0.03
    }
    bias_filler {
      type: "constant"
      value: 0.2
    }
  }
}
layer {
  name: "conv2/relu_3x3"
  type: "ReLU"
  bottom: "conv2/3x3"
  top: "conv2/3x3"
}
layer {
  name: "conv2/norm2"
  type: "LRN"
  bottom: "conv2/3x3"
  top: "conv2/norm2"
  lrn_param {
    local_size: 5
    alpha: 0.0001
    beta: 0.75
  }
}
layer {
  name: "pool2/3x3_s2"
  type: "Pooling"
  bottom: "conv2/norm2"
  top: "pool2/3x3_s2"
  pooling_param {
    pool: MAX
    kernel_size: 3
    stride: 2
  }
}
layer {
  name: "inception_3a/1x1"
  type: "Convolution"
  bottom: "pool2/3x3_s2"
  top: "inception_3a/1x1"
  param {
    lr_mult: 1
    decay_mult: 1
  }
  param {
    lr_mult: 2
    decay_mult: 0
  }
  convolution_param {
    num_output: 64
    kernel_size: 1
    weight_filler {
      type: "xavier"
      std: 0.03
    }
    bias_filler {
      type: "constant"
      value: 0.2
    }
  }
}
layer {
  name: "inception_3a/relu_1x1"
  type: "ReLU"
  bottom: "inception_3a/1x1"
  top: "inception_3a/1x1"
}
layer {
  name: "inception_3a/3x3_reduce"
  type: "Convolution"
  bottom: "pool2/3x3_s2"
  top: "inception_3a/3x3_reduce"
  param {
    lr_mult: 1
    decay_mult: 1
  }
  param {
    lr_mult: 2
    decay_mult: 0
  }
  convolution_param {
    num_output: 96
    kernel_size: 1
    weight_filler {
      type: "xavier"
      std: 0.09
    }
    bias_filler {
      type: "constant"
      value: 0.2
    }
  }
}
layer {
  name: "inception_3a/relu_3x3_reduce"
  type: "ReLU"
  bottom: "inception_3a/3x3_reduce"
  top: "inception_3a/3x3_reduce"
}
layer {
  name: "inception_3a/3x3"
  type: "Convolution"
  bottom: "inception_3a/3x3_reduce"
  top: "inception_3a/3x3"
  param {
    lr_mult: 1
    decay_mult: 1
  }
  param {
    lr_mult: 2
    decay_mult: 0
  }
  convolution_param {
    num_output: 128
    pad: 1
    kernel_size: 3
    weight_filler {
      type: "xavier"
      std: 0.03
    }
    bias_filler {
      type: "constant"
      value: 0.2
    }
  }
}
layer {
  name: "inception_3a/relu_3x3"
  type: "ReLU"
  bottom: "inception_3a/3x3"
  top: "inception_3a/3x3"
}
layer {
  name: "inception_3a/5x5_reduce"
  type: "Convolution"
  bottom: "pool2/3x3_s2"
  top: "inception_3a/5x5_reduce"
  param {
    lr_mult: 1
    decay_mult: 1
  }
  param {
    lr_mult: 2
    decay_mult: 0
  }
  convolution_param {
    num_output: 16
    kernel_size: 1
    weight_filler {
      type: "xavier"
      std: 0.2
    }
    bias_filler {
      type: "constant"
      value: 0.2
    }
  }
}
layer {
  name: "inception_3a/relu_5x5_reduce"
  type: "ReLU"
  bottom: "inception_3a/5x5_reduce"
  top: "inception_3a/5x5_reduce"
}
layer {
  name: "inception_3a/5x5"
  type: "Convolution"
  bottom: "inception_3a/5x5_reduce"
  top: "inception_3a/5x5"
  param {
    lr_mult: 1
    decay_mult: 1
  }
  param {
    lr_mult: 2
    decay_mult: 0
  }
  convolution_param {
    num_output: 32
    pad: 2
    kernel_size: 5
    weight_filler {
      type: "xavier"
      std: 0.03
    }
    bias_filler {
      type: "constant"
      value: 0.2
    }
  }
}
layer {
  name: "inception_3a/relu_5x5"
  type: "ReLU"
  bottom: "inception_3a/5x5"
  top: "inception_3a/5x5"
}
layer {
  name: "inception_3a/pool"
  type: "Pooling"
  bottom: "pool2/3x3_s2"
  top: "inception_3a/pool"
  pooling_param {
    pool: MAX
    kernel_size: 3
    stride: 1
    pad: 1
  }
}
layer {
  name: "inception_3a/pool_proj"
  type: "Convolution"
  bottom: "inception_3a/pool"
  top: "inception_3a/pool_proj"
  param {
    lr_mult: 1
    decay_mult: 1
  }
  param {
    lr_mult: 2
    decay_mult: 0
  }
  convolution_param {
    num_output: 32
    kernel_size: 1
    weight_filler {
      type: "xavier"
      std: 0.1
    }
    bias_filler {
      type: "constant"
      value: 0.2
    }
  }
}
layer {
  name: "inception_3a/relu_pool_proj"
  type: "ReLU"
  bottom: "inception_3a/pool_proj"
  top: "inception_3a/pool_proj"
}
layer {
  name: "inception_3a/output"
  type: "Concat"
  bottom: "inception_3a/1x1"
  bottom: "inception_3a/3x3"
  bottom: "inception_3a/5x5"
  bottom: "inception_3a/pool_proj"
  top: "inception_3a/output"
}
layer {
  name: "inception_3b/1x1"
  type: "Convolution"
  bottom: "inception_3a/output"
  top: "inception_3b/1x1"
  param {
    lr_mult: 1
    decay_mult: 1
  }
  param {
    lr_mult: 2
    decay_mult: 0
  }
  convolution_param {
    num_output: 128
    kernel_size: 1
    weight_filler {
      type: "xavier"
      std: 0.03
    }
    bias_filler {
      type: "constant"
      value: 0.2
    }
  }
}
layer {
  name: "inception_3b/relu_1x1"
  type: "ReLU"
  bottom: "inception_3b/1x1"
  top: "inception_3b/1x1"
}
layer {
  name: "inception_3b/3x3_reduce"
  type: "Convolution"
  bottom: "inception_3a/output"
  top: "inception_3b/3x3_reduce"
  param {
    lr_mult: 1
    decay_mult: 1
  }
  param {
    lr_mult: 2
    decay_mult: 0
  }
  convolution_param {
    num_output: 128
    kernel_size: 1
    weight_filler {
      type: "xavier"
      std: 0.09
    }
    bias_filler {
      type: "constant"
      value: 0.2
    }
  }
}
layer {
  name: "inception_3b/relu_3x3_reduce"
  type: "ReLU"
  bottom: "inception_3b/3x3_reduce"
  top: "inception_3b/3x3_reduce"
}
layer {
  name: "inception_3b/3x3"
  type: "Convolution"
  bottom: "inception_3b/3x3_reduce"
  top: "inception_3b/3x3"
  param {
    lr_mult: 1
    decay_mult: 1
  }
  param {
    lr_mult: 2
    decay_mult: 0
  }
  convolution_param {
    num_output: 192
    pad: 1
    kernel_size: 3
    weight_filler {
      type: "xavier"
      std: 0.03
    }
    bias_filler {
      type: "constant"
      value: 0.2
    }
  }
}
layer {
  name: "inception_3b/relu_3x3"
  type: "ReLU"
  bottom: "inception_3b/3x3"
  top: "inception_3b/3x3"
}
layer {
  name: "inception_3b/5x5_reduce"
  type: "Convolution"
  bottom: "inception_3a/output"
  top: "inception_3b/5x5_reduce"
  param {
    lr_mult: 1
    decay_mult: 1
  }
  param {
    lr_mult: 2
    decay_mult: 0
  }
  convolution_param {
    num_output: 32
    kernel_size: 1
    weight_filler {
      type: "xavier"
      std: 0.2
    }
    bias_filler {
      type: "constant"
      value: 0.2
    }
  }
}
layer {
  name: "inception_3b/relu_5x5_reduce"
  type: "ReLU"
  bottom: "inception_3b/5x5_reduce"
  top: "inception_3b/5x5_reduce"
}
layer {
  name: "inception_3b/5x5"
  type: "Convolution"
  bottom: "inception_3b/5x5_reduce"
  top: "inception_3b/5x5"
  param {
    lr_mult: 1
    decay_mult: 1
  }
  param {
    lr_mult: 2
    decay_mult: 0
  }
  convolution_param {
    num_output: 96
    pad: 2
    kernel_size: 5
    weight_filler {
      type: "xavier"
      std: 0.03
    }
    bias_filler {
      type: "constant"
      value: 0.2
    }
  }
}
layer {
  name: "inception_3b/relu_5x5"
  type: "ReLU"
  bottom: "inception_3b/5x5"
  top: "inception_3b/5x5"
}
layer {
  name: "inception_3b/pool"
  type: "Pooling"
  bottom: "inception_3a/output"
  top: "inception_3b/pool"
  pooling_param {
    pool: MAX
    kernel_size: 3
    stride: 1
    pad: 1
  }
}
layer {
  name: "inception_3b/pool_proj"
  type: "Convolution"
  bottom: "inception_3b/pool"
  top: "inception_3b/pool_proj"
  param {
    lr_mult: 1
    decay_mult: 1
  }
  param {
    lr_mult: 2
    decay_mult: 0
  }
  convolution_param {
    num_output: 64
    kernel_size: 1
    weight_filler {
      type: "xavier"
      std: 0.1
    }
    bias_filler {
      type: "constant"
      value: 0.2
    }
  }
}
layer {
  name: "inception_3b/relu_pool_proj"
  type: "ReLU"
  bottom: "inception_3b/pool_proj"
  top: "inception_3b/pool_proj"
}
layer {
  name: "inception_3b/output"
  type: "Concat"
  bottom: "inception_3b/1x1"
  bottom: "inception_3b/3x3"
  bottom: "inception_3b/5x5"
  bottom: "inception_3b/pool_proj"
  top: "inception_3b/output"
}
layer {
  name: "pool3/3x3_s2"
  type: "Pooling"
  bottom: "inception_3b/output"
  top: "pool3/3x3_s2"
  pooling_param {
    pool: MAX
    kernel_size: 3
    stride: 2
  }
}
layer {
  name: "inception_4a/1x1"
  type: "Convolution"
  bottom: "pool3/3x3_s2"
  top: "inception_4a/1x1"
  param {
    lr_mult: 1
    decay_mult: 1
  }
  param {
    lr_mult: 2
    decay_mult: 0
  }
  convolution_param {
    num_output: 192
    kernel_size: 1
    weight_filler {
      type: "xavier"
      std: 0.03
    }
    bias_filler {
      type: "constant"
      value: 0.2
    }
  }
}
layer {
  name: "inception_4a/relu_1x1"
  type: "ReLU"
  bottom: "inception_4a/1x1"
  top: "inception_4a/1x1"
}
layer {
  name: "inception_4a/3x3_reduce"
  type: "Convolution"
  bottom: "pool3/3x3_s2"
  top: "inception_4a/3x3_reduce"
  param {
    lr_mult: 1
    decay_mult: 1
  }
  param {
    lr_mult: 2
    decay_mult: 0
  }
  convolution_param {
    num_output: 96
    kernel_size: 1
    weight_filler {
      type: "xavier"
      std: 0.09
    }
    bias_filler {
      type: "constant"
      value: 0.2
    }
  }
}
layer {
  name: "inception_4a/relu_3x3_reduce"
  type: "ReLU"
  bottom: "inception_4a/3x3_reduce"
  top: "inception_4a/3x3_reduce"
}
layer {
  name: "inception_4a/3x3"
  type: "Convolution"
  bottom: "inception_4a/3x3_reduce"
  top: "inception_4a/3x3"
  param {
    lr_mult: 1
    decay_mult: 1
  }
  param {
    lr_mult: 2
    decay_mult: 0
  }
  convolution_param {
    num_output: 208
    pad: 1
    kernel_size: 3
    weight_filler {
      type: "xavier"
      std: 0.03
    }
    bias_filler {
      type: "constant"
      value: 0.2
    }
  }
}
layer {
  name: "inception_4a/relu_3x3"
  type: "ReLU"
  bottom: "inception_4a/3x3"
  top: "inception_4a/3x3"
}
layer {
  name: "inception_4a/5x5_reduce"
  type: "Convolution"
  bottom: "pool3/3x3_s2"
  top: "inception_4a/5x5_reduce"
  param {
    lr_mult: 1
    decay_mult: 1
  }
  param {
    lr_mult: 2
    decay_mult: 0
  }
  convolution_param {
    num_output: 16
    kernel_size: 1
    weight_filler {
      type: "xavier"
      std: 0.2
    }
    bias_filler {
      type: "constant"
      value: 0.2
    }
  }
}
layer {
  name: "inception_4a/relu_5x5_reduce"
  type: "ReLU"
  bottom: "inception_4a/5x5_reduce"
  top: "inception_4a/5x5_reduce"
}
layer {
  name: "inception_4a/5x5"
  type: "Convolution"
  bottom: "inception_4a/5x5_reduce"
  top: "inception_4a/5x5"
  param {
    lr_mult: 1
    decay_mult: 1
  }
  param {
    lr_mult: 2
    decay_mult: 0
  }
  convolution_param {
    num_output: 48
    pad: 2
    kernel_size: 5
    weight_filler {
      type: "xavier"
      std: 0.03
    }
    bias_filler {
      type: "constant"
      value: 0.2
    }
  }
}
layer {
  name: "inception_4a/relu_5x5"
  type: "ReLU"
  bottom: "inception_4a/5x5"
  top: "inception_4a/5x5"
}
layer {
  name: "inception_4a/pool"
  type: "Pooling"
  bottom: "pool3/3x3_s2"
  top: "inception_4a/pool"
  pooling_param {
    pool: MAX
    kernel_size: 3
    stride: 1
    pad: 1
  }
}
layer {
  name: "inception_4a/pool_proj"
  type: "Convolution"
  bottom: "inception_4a/pool"
  top: "inception_4a/pool_proj"
  param {
    lr_mult: 1
    decay_mult: 1
  }
  param {
    lr_mult: 2
    decay_mult: 0
  }
  convolution_param {
    num_output: 64
    kernel_size: 1
    weight_filler {
      type: "xavier"
      std: 0.1
    }
    bias_filler {
      type: "constant"
      value: 0.2
    }
  }
}
layer {
  name: "inception_4a/relu_pool_proj"
  type: "ReLU"
  bottom: "inception_4a/pool_proj"
  top: "inception_4a/pool_proj"
}
layer {
  name: "inception_4a/output"
  type: "Concat"
  bottom: "inception_4a/1x1"
  bottom: "inception_4a/3x3"
  bottom: "inception_4a/5x5"
  bottom: "inception_4a/pool_proj"
  top: "inception_4a/output"
}
layer {
  name: "loss1/ave_pool"
  type: "Pooling"
  bottom: "inception_4a/output"
  top: "loss1/ave_pool"
  pooling_param {
    pool: AVE
    kernel_size: 5
    stride: 3
  }
}
layer {
  name: "loss1/conv"
  type: "Convolution"
  bottom: "loss1/ave_pool"
  top: "loss1/conv"
  param {
    lr_mult: 1
    decay_mult: 1
  }
  param {
    lr_mult: 2
    decay_mult: 0
  }
  convolution_param {
    num_output: 128
    kernel_size: 1
    weight_filler {
      type: "xavier"
      std: 0.08
    }
    bias_filler {
      type: "constant"
      value: 0.2
    }
  }
}
layer {
  name: "loss1/relu_conv"
  type: "ReLU"
  bottom: "loss1/conv"
  top: "loss1/conv"
}
layer {
  name: "loss1/fc"
  type: "InnerProduct"
  bottom: "loss1/conv"
  top: "loss1/fc"
  param {
    lr_mult: 1
    decay_mult: 1
  }
  param {
    lr_mult: 2
    decay_mult: 0
  }
  inner_product_param {
    num_output: 1024
    weight_filler {
      type: "xavier"
      std: 0.02
    }
    bias_filler {
      type: "constant"
      value: 0.2
    }
  }
}
layer {
  name: "loss1/relu_fc"
  type: "ReLU"
  bottom: "loss1/fc"
  top: "loss1/fc"
}
layer {
  name: "loss1/drop_fc"
  type: "Dropout"
  bottom: "loss1/fc"
  top: "loss1/fc"
  dropout_param {
    dropout_ratio: 0.7
  }
}
layer {
  name: "loss1/classifier_plantvillage"
  type: "InnerProduct"
  bottom: "loss1/fc"
  top: "loss1/classifier_plantvillage"
  param {
    lr_mult: 1
    decay_mult: 1
  }
  param {
    lr_mult: 2
    decay_mult: 0
  }
  inner_product_param {
    num_output: 38
    weight_filler {
      type: "xavier"
      std: 0.0009765625
    }
    bias_filler {
      type: "constant"
      value: 0
    }
  }
}
layer {
  name: "inception_4b/1x1"
  type: "Convolution"
  bottom: "inception_4a/output"
  top: "inception_4b/1x1"
  param {
    lr_mult: 1
    decay_mult: 1
  }
  param {
    lr_mult: 2
    decay_mult: 0
  }
  convolution_param {
    num_output: 160
    kernel_size: 1
    weight_filler {
      type: "xavier"
      std: 0.03
    }
    bias_filler {
      type: "constant"
      value: 0.2
    }
  }
}
layer {
  name: "inception_4b/relu_1x1"
  type: "ReLU"
  bottom: "inception_4b/1x1"
  top: "inception_4b/1x1"
}
layer {
  name: "inception_4b/3x3_reduce"
  type: "Convolution"
  bottom: "inception_4a/output"
  top: "inception_4b/3x3_reduce"
  param {
    lr_mult: 1
    decay_mult: 1
  }
  param {
    lr_mult: 2
    decay_mult: 0
  }
  convolution_param {
    num_output: 112
    kernel_size: 1
    weight_filler {
      type: "xavier"
      std: 0.09
    }
    bias_filler {
      type: "constant"
      value: 0.2
    }
  }
}
layer {
  name: "inception_4b/relu_3x3_reduce"
  type: "ReLU"
  bottom: "inception_4b/3x3_reduce"
  top: "inception_4b/3x3_reduce"
}
layer {
  name: "inception_4b/3x3"
  type: "Convolution"
  bottom: "inception_4b/3x3_reduce"
  top: "inception_4b/3x3"
  param {
    lr_mult: 1
    decay_mult: 1
  }
  param {
    lr_mult: 2
    decay_mult: 0
  }
  convolution_param {
    num_output: 224
    pad: 1
    kernel_size: 3
    weight_filler {
      type: "xavier"
      std: 0.03
    }
    bias_filler {
      type: "constant"
      value: 0.2
    }
  }
}
layer {
  name: "inception_4b/relu_3x3"
  type: "ReLU"
  bottom: "inception_4b/3x3"
  top: "inception_4b/3x3"
}
layer {
  name: "inception_4b/5x5_reduce"
  type: "Convolution"
  bottom: "inception_4a/output"
  top: "inception_4b/5x5_reduce"
  param {
    lr_mult: 1
    decay_mult: 1
  }
  param {
    lr_mult: 2
    decay_mult: 0
  }
  convolution_param {
    num_output: 24
    kernel_size: 1
    weight_filler {
      type: "xavier"
      std: 0.2
    }
    bias_filler {
      type: "constant"
      value: 0.2
    }
  }
}
layer {
  name: "inception_4b/relu_5x5_reduce"
  type: "ReLU"
  bottom: "inception_4b/5x5_reduce"
  top: "inception_4b/5x5_reduce"
}
layer {
  name: "inception_4b/5x5"
  type: "Convolution"
  bottom: "inception_4b/5x5_reduce"
  top: "inception_4b/5x5"
  param {
    lr_mult: 1
    decay_mult: 1
  }
  param {
    lr_mult: 2
    decay_mult: 0
  }
  convolution_param {
    num_output: 64
    pad: 2
    kernel_size: 5
    weight_filler {
      type: "xavier"
      std: 0.03
    }
    bias_filler {
      type: "constant"
      value: 0.2
    }
  }
}
layer {
  name: "inception_4b/relu_5x5"
  type: "ReLU"
  bottom: "inception_4b/5x5"
  top: "inception_4b/5x5"
}
layer {
  name: "inception_4b/pool"
  type: "Pooling"
  bottom: "inception_4a/output"
  top: "inception_4b/pool"
  pooling_param {
    pool: MAX
    kernel_size: 3
    stride: 1
    pad: 1
  }
}
layer {
  name: "inception_4b/pool_proj"
  type: "Convolution"
  bottom: "inception_4b/pool"
  top: "inception_4b/pool_proj"
  param {
    lr_mult: 1
    decay_mult: 1
  }
  param {
    lr_mult: 2
    decay_mult: 0
  }
  convolution_param {
    num_output: 64
    kernel_size: 1
    weight_filler {
      type: "xavier"
      std: 0.1
    }
    bias_filler {
      type: "constant"
      value: 0.2
    }
  }
}
layer {
  name: "inception_4b/relu_pool_proj"
  type: "ReLU"
  bottom: "inception_4b/pool_proj"
  top: "inception_4b/pool_proj"
}
layer {
  name: "inception_4b/output"
  type: "Concat"
  bottom: "inception_4b/1x1"
  bottom: "inception_4b/3x3"
  bottom: "inception_4b/5x5"
  bottom: "inception_4b/pool_proj"
  top: "inception_4b/output"
}
layer {
  name: "inception_4c/1x1"
  type: "Convolution"
  bottom: "inception_4b/output"
  top: "inception_4c/1x1"
  param {
    lr_mult: 1
    decay_mult: 1
  }
  param {
    lr_mult: 2
    decay_mult: 0
  }
  convolution_param {
    num_output: 128
    kernel_size: 1
    weight_filler {
      type: "xavier"
      std: 0.03
    }
    bias_filler {
      type: "constant"
      value: 0.2
    }
  }
}
layer {
  name: "inception_4c/relu_1x1"
  type: "ReLU"
  bottom: "inception_4c/1x1"
  top: "inception_4c/1x1"
}
layer {
  name: "inception_4c/3x3_reduce"
  type: "Convolution"
  bottom: "inception_4b/output"
  top: "inception_4c/3x3_reduce"
  param {
    lr_mult: 1
    decay_mult: 1
  }
  param {
    lr_mult: 2
    decay_mult: 0
  }
  convolution_param {
    num_output: 128
    kernel_size: 1
    weight_filler {
      type: "xavier"
      std: 0.09
    }
    bias_filler {
      type: "constant"
      value: 0.2
    }
  }
}
layer {
  name: "inception_4c/relu_3x3_reduce"
  type: "ReLU"
  bottom: "inception_4c/3x3_reduce"
  top: "inception_4c/3x3_reduce"
}
layer {
  name: "inception_4c/3x3"
  type: "Convolution"
  bottom: "inception_4c/3x3_reduce"
  top: "inception_4c/3x3"
  param {
    lr_mult: 1
    decay_mult: 1
  }
  param {
    lr_mult: 2
    decay_mult: 0
  }
  convolution_param {
    num_output: 256
    pad: 1
    kernel_size: 3
    weight_filler {
      type: "xavier"
      std: 0.03
    }
    bias_filler {
      type: "constant"
      value: 0.2
    }
  }
}
layer {
  name: "inception_4c/relu_3x3"
  type: "ReLU"
  bottom: "inception_4c/3x3"
  top: "inception_4c/3x3"
}
layer {
  name: "inception_4c/5x5_reduce"
  type: "Convolution"
  bottom: "inception_4b/output"
  top: "inception_4c/5x5_reduce"
  param {
    lr_mult: 1
    decay_mult: 1
  }
  param {
    lr_mult: 2
    decay_mult: 0
  }
  convolution_param {
    num_output: 24
    kernel_size: 1
    weight_filler {
      type: "xavier"
      std: 0.2
    }
    bias_filler {
      type: "constant"
      value: 0.2
    }
  }
}
layer {
  name: "inception_4c/relu_5x5_reduce"
  type: "ReLU"
  bottom: "inception_4c/5x5_reduce"
  top: "inception_4c/5x5_reduce"
}
layer {
  name: "inception_4c/5x5"
  type: "Convolution"
  bottom: "inception_4c/5x5_reduce"
  top: "inception_4c/5x5"
  param {
    lr_mult: 1
    decay_mult: 1
  }
  param {
    lr_mult: 2
    decay_mult: 0
  }
  convolution_param {
    num_output: 64
    pad: 2
    kernel_size: 5
    weight_filler {
      type: "xavier"
      std: 0.03
    }
    bias_filler {
      type: "constant"
      value: 0.2
    }
  }
}
layer {
  name: "inception_4c/relu_5x5"
  type: "ReLU"
  bottom: "inception_4c/5x5"
  top: "inception_4c/5x5"
}
layer {
  name: "inception_4c/pool"
  type: "Pooling"
  bottom: "inception_4b/output"
  top: "inception_4c/pool"
  pooling_param {
    pool: MAX
    kernel_size: 3
    stride: 1
    pad: 1
  }
}
layer {
  name: "inception_4c/pool_proj"
  type: "Convolution"
  bottom: "inception_4c/pool"
  top: "inception_4c/pool_proj"
  param {
    lr_mult: 1
    decay_mult: 1
  }
  param {
    lr_mult: 2
    decay_mult: 0
  }
  convolution_param {
    num_output: 64
    kernel_size: 1
    weight_filler {
      type: "xavier"
      std: 0.1
    }
    bias_filler {
      type: "constant"
      value: 0.2
    }
  }
}
layer {
  name: "inception_4c/relu_pool_proj"
  type: "ReLU"
  bottom: "inception_4c/pool_proj"
  top: "inception_4c/pool_proj"
}
layer {
  name: "inception_4c/output"
  type: "Concat"
  bottom: "inception_4c/1x1"
  bottom: "inception_4c/3x3"
  bottom: "inception_4c/5x5"
  bottom: "inception_4c/pool_proj"
  top: "inception_4c/output"
}
layer {
  name: "inception_4d/1x1"
  type: "Convolution"
  bottom: "inception_4c/output"
  top: "inception_4d/1x1"
  param {
    lr_mult: 1
    decay_mult: 1
  }
  param {
    lr_mult: 2
    decay_mult: 0
  }
  convolution_param {
    num_output: 112
    kernel_size: 1
    weight_filler {
      type: "xavier"
      std: 0.03
    }
    bias_filler {
      type: "constant"
      value: 0.2
    }
  }
}
layer {
  name: "inception_4d/relu_1x1"
  type: "ReLU"
  bottom: "inception_4d/1x1"
  top: "inception_4d/1x1"
}
layer {
  name: "inception_4d/3x3_reduce"
  type: "Convolution"
  bottom: "inception_4c/output"
  top: "inception_4d/3x3_reduce"
  param {
    lr_mult: 1
    decay_mult: 1
  }
  param {
    lr_mult: 2
    decay_mult: 0
  }
  convolution_param {
    num_output: 144
    kernel_size: 1
    weight_filler {
      type: "xavier"
      std: 0.09
    }
    bias_filler {
      type: "constant"
      value: 0.2
    }
  }
}
layer {
  name: "inception_4d/relu_3x3_reduce"
  type: "ReLU"
  bottom: "inception_4d/3x3_reduce"
  top: "inception_4d/3x3_reduce"
}
layer {
  name: "inception_4d/3x3"
  type: "Convolution"
  bottom: "inception_4d/3x3_reduce"
  top: "inception_4d/3x3"
  param {
    lr_mult: 1
    decay_mult: 1
  }
  param {
    lr_mult: 2
    decay_mult: 0
  }
  convolution_param {
    num_output: 288
    pad: 1
    kernel_size: 3
    weight_filler {
      type: "xavier"
      std: 0.03
    }
    bias_filler {
      type: "constant"
      value: 0.2
    }
  }
}
layer {
  name: "inception_4d/relu_3x3"
  type: "ReLU"
  bottom: "inception_4d/3x3"
  top: "inception_4d/3x3"
}
layer {
  name: "inception_4d/5x5_reduce"
  type: "Convolution"
  bottom: "inception_4c/output"
  top: "inception_4d/5x5_reduce"
  param {
    lr_mult: 1
    decay_mult: 1
  }
  param {
    lr_mult: 2
    decay_mult: 0
  }
  convolution_param {
    num_output: 32
    kernel_size: 1
    weight_filler {
      type: "xavier"
      std: 0.2
    }
    bias_filler {
      type: "constant"
      value: 0.2
    }
  }
}
layer {
  name: "inception_4d/relu_5x5_reduce"
  type: "ReLU"
  bottom: "inception_4d/5x5_reduce"
  top: "inception_4d/5x5_reduce"
}
layer {
  name: "inception_4d/5x5"
  type: "Convolution"
  bottom: "inception_4d/5x5_reduce"
  top: "inception_4d/5x5"
  param {
    lr_mult: 1
    decay_mult: 1
  }
  param {
    lr_mult: 2
    decay_mult: 0
  }
  convolution_param {
    num_output: 64
    pad: 2
    kernel_size: 5
    weight_filler {
      type: "xavier"
      std: 0.03
    }
    bias_filler {
      type: "constant"
      value: 0.2
    }
  }
}
layer {
  name: "inception_4d/relu_5x5"
  type: "ReLU"
  bottom: "inception_4d/5x5"
  top: "inception_4d/5x5"
}
layer {
  name: "inception_4d/pool"
  type: "Pooling"
  bottom: "inception_4c/output"
  top: "inception_4d/pool"
  pooling_param {
    pool: MAX
    kernel_size: 3
    stride: 1
    pad: 1
  }
}
layer {
  name: "inception_4d/pool_proj"
  type: "Convolution"
  bottom: "inception_4d/pool"
  top: "inception_4d/pool_proj"
  param {
    lr_mult: 1
    decay_mult: 1
  }
  param {
    lr_mult: 2
    decay_mult: 0
  }
  convolution_param {
    num_output: 64
    kernel_size: 1
    weight_filler {
      type: "xavier"
      std: 0.1
    }
    bias_filler {
      type: "constant"
      value: 0.2
    }
  }
}
layer {
  name: "inception_4d/relu_pool_proj"
  type: "ReLU"
  bottom: "inception_4d/pool_proj"
  top: "inception_4d/pool_proj"
}
layer {
  name: "inception_4d/output"
  type: "Concat"
  bottom: "inception_4d/1x1"
  bottom: "inception_4d/3x3"
  bottom: "inception_4d/5x5"
  bottom: "inception_4d/pool_proj"
  top: "inception_4d/output"
}
layer {
  name: "loss2/ave_pool"
  type: "Pooling"
  bottom: "inception_4d/output"
  top: "loss2/ave_pool"
  pooling_param {
    pool: AVE
    kernel_size: 5
    stride: 3
  }
}
layer {
  name: "loss2/conv"
  type: "Convolution"
  bottom: "loss2/ave_pool"
  top: "loss2/conv"
  param {
    lr_mult: 1
    decay_mult: 1
  }
  param {
    lr_mult: 2
    decay_mult: 0
  }
  convolution_param {
    num_output: 128
    kernel_size: 1
    weight_filler {
      type: "xavier"
      std: 0.08
    }
    bias_filler {
      type: "constant"
      value: 0.2
    }
  }
}
layer {
  name: "loss2/relu_conv"
  type: "ReLU"
  bottom: "loss2/conv"
  top: "loss2/conv"
}
layer {
  name: "loss2/fc"
  type: "InnerProduct"
  bottom: "loss2/conv"
  top: "loss2/fc"
  param {
    lr_mult: 1
    decay_mult: 1
  }
  param {
    lr_mult: 2
    decay_mult: 0
  }
  inner_product_param {
    num_output: 1024
    weight_filler {
      type: "xavier"
      std: 0.02
    }
    bias_filler {
      type: "constant"
      value: 0.2
    }
  }
}
layer {
  name: "loss2/relu_fc"
  type: "ReLU"
  bottom: "loss2/fc"
  top: "loss2/fc"
}
layer {
  name: "loss2/drop_fc"
  type: "Dropout"
  bottom: "loss2/fc"
  top: "loss2/fc"
  dropout_param {
    dropout_ratio: 0.7
  }
}
layer {
  name: "loss2/classifier_plantvillage"
  type: "InnerProduct"
  bottom: "loss2/fc"
  top: "loss2/classifier_plantvillage"
  param {
    lr_mult: 1
    decay_mult: 1
  }
  param {
    lr_mult: 2
    decay_mult: 0
  }
  inner_product_param {
    num_output: 38
    weight_filler {
      type: "xavier"
      std: 0.0009765625
    }
    bias_filler {
      type: "constant"
      value: 0
    }
  }
}
layer {
  name: "inception_4e/1x1"
  type: "Convolution"
  bottom: "inception_4d/output"
  top: "inception_4e/1x1"
  param {
    lr_mult: 1
    decay_mult: 1
  }
  param {
    lr_mult: 2
    decay_mult: 0
  }
  convolution_param {
    num_output: 256
    kernel_size: 1
    weight_filler {
      type: "xavier"
      std: 0.03
    }
    bias_filler {
      type: "constant"
      value: 0.2
    }
  }
}
layer {
  name: "inception_4e/relu_1x1"
  type: "ReLU"
  bottom: "inception_4e/1x1"
  top: "inception_4e/1x1"
}
layer {
  name: "inception_4e/3x3_reduce"
  type: "Convolution"
  bottom: "inception_4d/output"
  top: "inception_4e/3x3_reduce"
  param {
    lr_mult: 1
    decay_mult: 1
  }
  param {
    lr_mult: 2
    decay_mult: 0
  }
  convolution_param {
    num_output: 160
    kernel_size: 1
    weight_filler {
      type: "xavier"
      std: 0.09
    }
    bias_filler {
      type: "constant"
      value: 0.2
    }
  }
}
layer {
  name: "inception_4e/relu_3x3_reduce"
  type: "ReLU"
  bottom: "inception_4e/3x3_reduce"
  top: "inception_4e/3x3_reduce"
}
layer {
  name: "inception_4e/3x3"
  type: "Convolution"
  bottom: "inception_4e/3x3_reduce"
  top: "inception_4e/3x3"
  param {
    lr_mult: 1
    decay_mult: 1
  }
  param {
    lr_mult: 2
    decay_mult: 0
  }
  convolution_param {
    num_output: 320
    pad: 1
    kernel_size: 3
    weight_filler {
      type: "xavier"
      std: 0.03
    }
    bias_filler {
      type: "constant"
      value: 0.2
    }
  }
}
layer {
  name: "inception_4e/relu_3x3"
  type: "ReLU"
  bottom: "inception_4e/3x3"
  top: "inception_4e/3x3"
}
layer {
  name: "inception_4e/5x5_reduce"
  type: "Convolution"
  bottom: "inception_4d/output"
  top: "inception_4e/5x5_reduce"
  param {
    lr_mult: 1
    decay_mult: 1
  }
  param {
    lr_mult: 2
    decay_mult: 0
  }
  convolution_param {
    num_output: 32
    kernel_size: 1
    weight_filler {
      type: "xavier"
      std: 0.2
    }
    bias_filler {
      type: "constant"
      value: 0.2
    }
  }
}
layer {
  name: "inception_4e/relu_5x5_reduce"
  type: "ReLU"
  bottom: "inception_4e/5x5_reduce"
  top: "inception_4e/5x5_reduce"
}
layer {
  name: "inception_4e/5x5"
  type: "Convolution"
  bottom: "inception_4e/5x5_reduce"
  top: "inception_4e/
I0403 18:28:47.454752  7009 layer_factory.hpp:77] Creating layer data
I0403 18:28:47.455366  7009 net.cpp:91] Creating Layer data
I0403 18:28:47.455399  7009 net.cpp:399] data -> data
I0403 18:28:47.455461  7009 net.cpp:399] data -> label
I0403 18:28:47.455497  7009 data_transformer.cpp:25] Loading mean file from: /home/mohanty/data/final_dataset/lmdb/grayscale-40-60/mean.binaryproto
I0403 18:28:47.456617  7012 db_lmdb.cpp:38] Opened lmdb /home/mohanty/data/final_dataset/lmdb/grayscale-40-60/test_db
I0403 18:28:47.469126  7009 data_layer.cpp:41] output data size: 24,3,224,224
I0403 18:28:47.497696  7009 net.cpp:141] Setting up data
I0403 18:28:47.497812  7009 net.cpp:148] Top shape: 24 3 224 224 (3612672)
I0403 18:28:47.497835  7009 net.cpp:148] Top shape: 24 (24)
I0403 18:28:47.497850  7009 net.cpp:156] Memory required for data: 14450784
I0403 18:28:47.497877  7009 layer_factory.hpp:77] Creating layer label_data_1_split
I0403 18:28:47.497905  7009 net.cpp:91] Creating Layer label_data_1_split
I0403 18:28:47.497921  7009 net.cpp:425] label_data_1_split <- label
I0403 18:28:47.497953  7009 net.cpp:399] label_data_1_split -> label_data_1_split_0
I0403 18:28:47.497980  7009 net.cpp:399] label_data_1_split -> label_data_1_split_1
I0403 18:28:47.498002  7009 net.cpp:399] label_data_1_split -> label_data_1_split_2
I0403 18:28:47.498023  7009 net.cpp:399] label_data_1_split -> label_data_1_split_3
I0403 18:28:47.498042  7009 net.cpp:399] label_data_1_split -> label_data_1_split_4
I0403 18:28:47.498061  7009 net.cpp:399] label_data_1_split -> label_data_1_split_5
I0403 18:28:47.498082  7009 net.cpp:399] label_data_1_split -> label_data_1_split_6
I0403 18:28:47.498103  7009 net.cpp:399] label_data_1_split -> label_data_1_split_7
I0403 18:28:47.498123  7009 net.cpp:399] label_data_1_split -> label_data_1_split_8
I0403 18:28:47.498144  7009 net.cpp:399] label_data_1_split -> label_data_1_split_9
I0403 18:28:47.498284  7009 net.cpp:141] Setting up label_data_1_split
I0403 18:28:47.498311  7009 net.cpp:148] Top shape: 24 (24)
I0403 18:28:47.498328  7009 net.cpp:148] Top shape: 24 (24)
I0403 18:28:47.498345  7009 net.cpp:148] Top shape: 24 (24)
I0403 18:28:47.498363  7009 net.cpp:148] Top shape: 24 (24)
I0403 18:28:47.498378  7009 net.cpp:148] Top shape: 24 (24)
I0403 18:28:47.498394  7009 net.cpp:148] Top shape: 24 (24)
I0403 18:28:47.498411  7009 net.cpp:148] Top shape: 24 (24)
I0403 18:28:47.498427  7009 net.cpp:148] Top shape: 24 (24)
I0403 18:28:47.498443  7009 net.cpp:148] Top shape: 24 (24)
I0403 18:28:47.498461  7009 net.cpp:148] Top shape: 24 (24)
I0403 18:28:47.498510  7009 net.cpp:156] Memory required for data: 14451744
I0403 18:28:47.498528  7009 layer_factory.hpp:77] Creating layer conv1/7x7_s2
I0403 18:28:47.498560  7009 net.cpp:91] Creating Layer conv1/7x7_s2
I0403 18:28:47.498581  7009 net.cpp:425] conv1/7x7_s2 <- data
I0403 18:28:47.498602  7009 net.cpp:399] conv1/7x7_s2 -> conv1/7x7_s2
I0403 18:28:47.645473  7009 net.cpp:141] Setting up conv1/7x7_s2
I0403 18:28:47.645582  7009 net.cpp:148] Top shape: 24 64 112 112 (19267584)
I0403 18:28:47.645601  7009 net.cpp:156] Memory required for data: 91522080
I0403 18:28:47.645633  7009 layer_factory.hpp:77] Creating layer conv1/relu_7x7
I0403 18:28:47.645660  7009 net.cpp:91] Creating Layer conv1/relu_7x7
I0403 18:28:47.645679  7009 net.cpp:425] conv1/relu_7x7 <- conv1/7x7_s2
I0403 18:28:47.645699  7009 net.cpp:386] conv1/relu_7x7 -> conv1/7x7_s2 (in-place)
I0403 18:28:47.645975  7009 net.cpp:141] Setting up conv1/relu_7x7
I0403 18:28:47.646003  7009 net.cpp:148] Top shape: 24 64 112 112 (19267584)
I0403 18:28:47.646018  7009 net.cpp:156] Memory required for data: 168592416
I0403 18:28:47.646034  7009 layer_factory.hpp:77] Creating layer pool1/3x3_s2
I0403 18:28:47.646060  7009 net.cpp:91] Creating Layer pool1/3x3_s2
I0403 18:28:47.646080  7009 net.cpp:425] pool1/3x3_s2 <- conv1/7x7_s2
I0403 18:28:47.646098  7009 net.cpp:399] pool1/3x3_s2 -> pool1/3x3_s2
I0403 18:28:47.646174  7009 net.cpp:141] Setting up pool1/3x3_s2
I0403 18:28:47.646199  7009 net.cpp:148] Top shape: 24 64 56 56 (4816896)
I0403 18:28:47.646215  7009 net.cpp:156] Memory required for data: 187860000
I0403 18:28:47.646229  7009 layer_factory.hpp:77] Creating layer pool1/norm1
I0403 18:28:47.646255  7009 net.cpp:91] Creating Layer pool1/norm1
I0403 18:28:47.646278  7009 net.cpp:425] pool1/norm1 <- pool1/3x3_s2
I0403 18:28:47.646311  7009 net.cpp:399] pool1/norm1 -> pool1/norm1
I0403 18:28:47.646639  7009 net.cpp:141] Setting up pool1/norm1
I0403 18:28:47.646667  7009 net.cpp:148] Top shape: 24 64 56 56 (4816896)
I0403 18:28:47.646682  7009 net.cpp:156] Memory required for data: 207127584
I0403 18:28:47.646697  7009 layer_factory.hpp:77] Creating layer conv2/3x3_reduce
I0403 18:28:47.646723  7009 net.cpp:91] Creating Layer conv2/3x3_reduce
I0403 18:28:47.646741  7009 net.cpp:425] conv2/3x3_reduce <- pool1/norm1
I0403 18:28:47.646759  7009 net.cpp:399] conv2/3x3_reduce -> conv2/3x3_reduce
I0403 18:28:47.648185  7009 net.cpp:141] Setting up conv2/3x3_reduce
I0403 18:28:47.648214  7009 net.cpp:148] Top shape: 24 64 56 56 (4816896)
I0403 18:28:47.648229  7009 net.cpp:156] Memory required for data: 226395168
I0403 18:28:47.648250  7009 layer_factory.hpp:77] Creating layer conv2/relu_3x3_reduce
I0403 18:28:47.648275  7009 net.cpp:91] Creating Layer conv2/relu_3x3_reduce
I0403 18:28:47.648293  7009 net.cpp:425] conv2/relu_3x3_reduce <- conv2/3x3_reduce
I0403 18:28:47.648311  7009 net.cpp:386] conv2/relu_3x3_reduce -> conv2/3x3_reduce (in-place)
I0403 18:28:47.648597  7009 net.cpp:141] Setting up conv2/relu_3x3_reduce
I0403 18:28:47.648623  7009 net.cpp:148] Top shape: 24 64 56 56 (4816896)
I0403 18:28:47.648639  7009 net.cpp:156] Memory required for data: 245662752
I0403 18:28:47.648654  7009 layer_factory.hpp:77] Creating layer conv2/3x3
I0403 18:28:47.648679  7009 net.cpp:91] Creating Layer conv2/3x3
I0403 18:28:47.648696  7009 net.cpp:425] conv2/3x3 <- conv2/3x3_reduce
I0403 18:28:47.648720  7009 net.cpp:399] conv2/3x3 -> conv2/3x3
I0403 18:28:47.651109  7009 net.cpp:141] Setting up conv2/3x3
I0403 18:28:47.651139  7009 net.cpp:148] Top shape: 24 192 56 56 (14450688)
I0403 18:28:47.651155  7009 net.cpp:156] Memory required for data: 303465504
I0403 18:28:47.651175  7009 layer_factory.hpp:77] Creating layer conv2/relu_3x3
I0403 18:28:47.651197  7009 net.cpp:91] Creating Layer conv2/relu_3x3
I0403 18:28:47.651213  7009 net.cpp:425] conv2/relu_3x3 <- conv2/3x3
I0403 18:28:47.651232  7009 net.cpp:386] conv2/relu_3x3 -> conv2/3x3 (in-place)
I0403 18:28:47.651412  7009 net.cpp:141] Setting up conv2/relu_3x3
I0403 18:28:47.651438  7009 net.cpp:148] Top shape: 24 192 56 56 (14450688)
I0403 18:28:47.651485  7009 net.cpp:156] Memory required for data: 361268256
I0403 18:28:47.651501  7009 layer_factory.hpp:77] Creating layer conv2/norm2
I0403 18:28:47.651521  7009 net.cpp:91] Creating Layer conv2/norm2
I0403 18:28:47.651537  7009 net.cpp:425] conv2/norm2 <- conv2/3x3
I0403 18:28:47.651557  7009 net.cpp:399] conv2/norm2 -> conv2/norm2
I0403 18:28:47.651860  7009 net.cpp:141] Setting up conv2/norm2
I0403 18:28:47.651890  7009 net.cpp:148] Top shape: 24 192 56 56 (14450688)
I0403 18:28:47.651906  7009 net.cpp:156] Memory required for data: 419071008
I0403 18:28:47.651922  7009 layer_factory.hpp:77] Creating layer pool2/3x3_s2
I0403 18:28:47.651940  7009 net.cpp:91] Creating Layer pool2/3x3_s2
I0403 18:28:47.651957  7009 net.cpp:425] pool2/3x3_s2 <- conv2/norm2
I0403 18:28:47.651976  7009 net.cpp:399] pool2/3x3_s2 -> pool2/3x3_s2
I0403 18:28:47.652031  7009 net.cpp:141] Setting up pool2/3x3_s2
I0403 18:28:47.652057  7009 net.cpp:148] Top shape: 24 192 28 28 (3612672)
I0403 18:28:47.652072  7009 net.cpp:156] Memory required for data: 433521696
I0403 18:28:47.652088  7009 layer_factory.hpp:77] Creating layer pool2/3x3_s2_pool2/3x3_s2_0_split
I0403 18:28:47.652107  7009 net.cpp:91] Creating Layer pool2/3x3_s2_pool2/3x3_s2_0_split
I0403 18:28:47.652122  7009 net.cpp:425] pool2/3x3_s2_pool2/3x3_s2_0_split <- pool2/3x3_s2
I0403 18:28:47.652139  7009 net.cpp:399] pool2/3x3_s2_pool2/3x3_s2_0_split -> pool2/3x3_s2_pool2/3x3_s2_0_split_0
I0403 18:28:47.652159  7009 net.cpp:399] pool2/3x3_s2_pool2/3x3_s2_0_split -> pool2/3x3_s2_pool2/3x3_s2_0_split_1
I0403 18:28:47.652182  7009 net.cpp:399] pool2/3x3_s2_pool2/3x3_s2_0_split -> pool2/3x3_s2_pool2/3x3_s2_0_split_2
I0403 18:28:47.652202  7009 net.cpp:399] pool2/3x3_s2_pool2/3x3_s2_0_split -> pool2/3x3_s2_pool2/3x3_s2_0_split_3
I0403 18:28:47.652283  7009 net.cpp:141] Setting up pool2/3x3_s2_pool2/3x3_s2_0_split
I0403 18:28:47.652307  7009 net.cpp:148] Top shape: 24 192 28 28 (3612672)
I0403 18:28:47.652325  7009 net.cpp:148] Top shape: 24 192 28 28 (3612672)
I0403 18:28:47.652340  7009 net.cpp:148] Top shape: 24 192 28 28 (3612672)
I0403 18:28:47.652356  7009 net.cpp:148] Top shape: 24 192 28 28 (3612672)
I0403 18:28:47.652370  7009 net.cpp:156] Memory required for data: 491324448
I0403 18:28:47.652386  7009 layer_factory.hpp:77] Creating layer inception_3a/1x1
I0403 18:28:47.652412  7009 net.cpp:91] Creating Layer inception_3a/1x1
I0403 18:28:47.652429  7009 net.cpp:425] inception_3a/1x1 <- pool2/3x3_s2_pool2/3x3_s2_0_split_0
I0403 18:28:47.652451  7009 net.cpp:399] inception_3a/1x1 -> inception_3a/1x1
I0403 18:28:47.654047  7009 net.cpp:141] Setting up inception_3a/1x1
I0403 18:28:47.654077  7009 net.cpp:148] Top shape: 24 64 28 28 (1204224)
I0403 18:28:47.654093  7009 net.cpp:156] Memory required for data: 496141344
I0403 18:28:47.654111  7009 layer_factory.hpp:77] Creating layer inception_3a/relu_1x1
I0403 18:28:47.654130  7009 net.cpp:91] Creating Layer inception_3a/relu_1x1
I0403 18:28:47.654147  7009 net.cpp:425] inception_3a/relu_1x1 <- inception_3a/1x1
I0403 18:28:47.654166  7009 net.cpp:386] inception_3a/relu_1x1 -> inception_3a/1x1 (in-place)
I0403 18:28:47.654381  7009 net.cpp:141] Setting up inception_3a/relu_1x1
I0403 18:28:47.654409  7009 net.cpp:148] Top shape: 24 64 28 28 (1204224)
I0403 18:28:47.654425  7009 net.cpp:156] Memory required for data: 500958240
I0403 18:28:47.654443  7009 layer_factory.hpp:77] Creating layer inception_3a/3x3_reduce
I0403 18:28:47.654465  7009 net.cpp:91] Creating Layer inception_3a/3x3_reduce
I0403 18:28:47.654484  7009 net.cpp:425] inception_3a/3x3_reduce <- pool2/3x3_s2_pool2/3x3_s2_0_split_1
I0403 18:28:47.654505  7009 net.cpp:399] inception_3a/3x3_reduce -> inception_3a/3x3_reduce
I0403 18:28:47.656308  7009 net.cpp:141] Setting up inception_3a/3x3_reduce
I0403 18:28:47.656339  7009 net.cpp:148] Top shape: 24 96 28 28 (1806336)
I0403 18:28:47.656357  7009 net.cpp:156] Memory required for data: 508183584
I0403 18:28:47.656379  7009 layer_factory.hpp:77] Creating layer inception_3a/relu_3x3_reduce
I0403 18:28:47.656419  7009 net.cpp:91] Creating Layer inception_3a/relu_3x3_reduce
I0403 18:28:47.656437  7009 net.cpp:425] inception_3a/relu_3x3_reduce <- inception_3a/3x3_reduce
I0403 18:28:47.656456  7009 net.cpp:386] inception_3a/relu_3x3_reduce -> inception_3a/3x3_reduce (in-place)
I0403 18:28:47.656652  7009 net.cpp:141] Setting up inception_3a/relu_3x3_reduce
I0403 18:28:47.656682  7009 net.cpp:148] Top shape: 24 96 28 28 (1806336)
I0403 18:28:47.656699  7009 net.cpp:156] Memory required for data: 515408928
I0403 18:28:47.656715  7009 layer_factory.hpp:77] Creating layer inception_3a/3x3
I0403 18:28:47.656741  7009 net.cpp:91] Creating Layer inception_3a/3x3
I0403 18:28:47.656760  7009 net.cpp:425] inception_3a/3x3 <- inception_3a/3x3_reduce
I0403 18:28:47.656780  7009 net.cpp:399] inception_3a/3x3 -> inception_3a/3x3
I0403 18:28:47.658540  7009 net.cpp:141] Setting up inception_3a/3x3
I0403 18:28:47.658571  7009 net.cpp:148] Top shape: 24 128 28 28 (2408448)
I0403 18:28:47.658587  7009 net.cpp:156] Memory required for data: 525042720
I0403 18:28:47.658607  7009 layer_factory.hpp:77] Creating layer inception_3a/relu_3x3
I0403 18:28:47.658630  7009 net.cpp:91] Creating Layer inception_3a/relu_3x3
I0403 18:28:47.658649  7009 net.cpp:425] inception_3a/relu_3x3 <- inception_3a/3x3
I0403 18:28:47.658668  7009 net.cpp:386] inception_3a/relu_3x3 -> inception_3a/3x3 (in-place)
I0403 18:28:47.658960  7009 net.cpp:141] Setting up inception_3a/relu_3x3
I0403 18:28:47.658990  7009 net.cpp:148] Top shape: 24 128 28 28 (2408448)
I0403 18:28:47.659006  7009 net.cpp:156] Memory required for data: 534676512
I0403 18:28:47.659024  7009 layer_factory.hpp:77] Creating layer inception_3a/5x5_reduce
I0403 18:28:47.659049  7009 net.cpp:91] Creating Layer inception_3a/5x5_reduce
I0403 18:28:47.659067  7009 net.cpp:425] inception_3a/5x5_reduce <- pool2/3x3_s2_pool2/3x3_s2_0_split_2
I0403 18:28:47.659090  7009 net.cpp:399] inception_3a/5x5_reduce -> inception_3a/5x5_reduce
I0403 18:28:47.660135  7009 net.cpp:141] Setting up inception_3a/5x5_reduce
I0403 18:28:47.660166  7009 net.cpp:148] Top shape: 24 16 28 28 (301056)
I0403 18:28:47.660182  7009 net.cpp:156] Memory required for data: 535880736
I0403 18:28:47.660202  7009 layer_factory.hpp:77] Creating layer inception_3a/relu_5x5_reduce
I0403 18:28:47.660224  7009 net.cpp:91] Creating Layer inception_3a/relu_5x5_reduce
I0403 18:28:47.660241  7009 net.cpp:425] inception_3a/relu_5x5_reduce <- inception_3a/5x5_reduce
I0403 18:28:47.660260  7009 net.cpp:386] inception_3a/relu_5x5_reduce -> inception_3a/5x5_reduce (in-place)
I0403 18:28:47.660570  7009 net.cpp:141] Setting up inception_3a/relu_5x5_reduce
I0403 18:28:47.660598  7009 net.cpp:148] Top shape: 24 16 28 28 (301056)
I0403 18:28:47.660614  7009 net.cpp:156] Memory required for data: 537084960
I0403 18:28:47.660630  7009 layer_factory.hpp:77] Creating layer inception_3a/5x5
I0403 18:28:47.660656  7009 net.cpp:91] Creating Layer inception_3a/5x5
I0403 18:28:47.660676  7009 net.cpp:425] inception_3a/5x5 <- inception_3a/5x5_reduce
I0403 18:28:47.660696  7009 net.cpp:399] inception_3a/5x5 -> inception_3a/5x5
I0403 18:28:47.661782  7009 net.cpp:141] Setting up inception_3a/5x5
I0403 18:28:47.661811  7009 net.cpp:148] Top shape: 24 32 28 28 (602112)
I0403 18:28:47.661828  7009 net.cpp:156] Memory required for data: 539493408
I0403 18:28:47.661847  7009 layer_factory.hpp:77] Creating layer inception_3a/relu_5x5
I0403 18:28:47.661867  7009 net.cpp:91] Creating Layer inception_3a/relu_5x5
I0403 18:28:47.661885  7009 net.cpp:425] inception_3a/relu_5x5 <- inception_3a/5x5
I0403 18:28:47.661906  7009 net.cpp:386] inception_3a/relu_5x5 -> inception_3a/5x5 (in-place)
I0403 18:28:47.662092  7009 net.cpp:141] Setting up inception_3a/relu_5x5
I0403 18:28:47.662119  7009 net.cpp:148] Top shape: 24 32 28 28 (602112)
I0403 18:28:47.662134  7009 net.cpp:156] Memory required for data: 541901856
I0403 18:28:47.662149  7009 layer_factory.hpp:77] Creating layer inception_3a/pool
I0403 18:28:47.662173  7009 net.cpp:91] Creating Layer inception_3a/pool
I0403 18:28:47.662204  7009 net.cpp:425] inception_3a/pool <- pool2/3x3_s2_pool2/3x3_s2_0_split_3
I0403 18:28:47.662225  7009 net.cpp:399] inception_3a/pool -> inception_3a/pool
I0403 18:28:47.662302  7009 net.cpp:141] Setting up inception_3a/pool
I0403 18:28:47.662328  7009 net.cpp:148] Top shape: 24 192 28 28 (3612672)
I0403 18:28:47.662343  7009 net.cpp:156] Memory required for data: 556352544
I0403 18:28:47.662359  7009 layer_factory.hpp:77] Creating layer inception_3a/pool_proj
I0403 18:28:47.662382  7009 net.cpp:91] Creating Layer inception_3a/pool_proj
I0403 18:28:47.662400  7009 net.cpp:425] inception_3a/pool_proj <- inception_3a/pool
I0403 18:28:47.662425  7009 net.cpp:399] inception_3a/pool_proj -> inception_3a/pool_proj
I0403 18:28:47.663461  7009 net.cpp:141] Setting up inception_3a/pool_proj
I0403 18:28:47.663494  7009 net.cpp:148] Top shape: 24 32 28 28 (602112)
I0403 18:28:47.663511  7009 net.cpp:156] Memory required for data: 558760992
I0403 18:28:47.663535  7009 layer_factory.hpp:77] Creating layer inception_3a/relu_pool_proj
I0403 18:28:47.663558  7009 net.cpp:91] Creating Layer inception_3a/relu_pool_proj
I0403 18:28:47.663576  7009 net.cpp:425] inception_3a/relu_pool_proj <- inception_3a/pool_proj
I0403 18:28:47.663595  7009 net.cpp:386] inception_3a/relu_pool_proj -> inception_3a/pool_proj (in-place)
I0403 18:28:47.663887  7009 net.cpp:141] Setting up inception_3a/relu_pool_proj
I0403 18:28:47.663915  7009 net.cpp:148] Top shape: 24 32 28 28 (602112)
I0403 18:28:47.663933  7009 net.cpp:156] Memory required for data: 561169440
I0403 18:28:47.663949  7009 layer_factory.hpp:77] Creating layer inception_3a/output
I0403 18:28:47.663969  7009 net.cpp:91] Creating Layer inception_3a/output
I0403 18:28:47.663985  7009 net.cpp:425] inception_3a/output <- inception_3a/1x1
I0403 18:28:47.664002  7009 net.cpp:425] inception_3a/output <- inception_3a/3x3
I0403 18:28:47.664019  7009 net.cpp:425] inception_3a/output <- inception_3a/5x5
I0403 18:28:47.664036  7009 net.cpp:425] inception_3a/output <- inception_3a/pool_proj
I0403 18:28:47.664055  7009 net.cpp:399] inception_3a/output -> inception_3a/output
I0403 18:28:47.664108  7009 net.cpp:141] Setting up inception_3a/output
I0403 18:28:47.664134  7009 net.cpp:148] Top shape: 24 256 28 28 (4816896)
I0403 18:28:47.664149  7009 net.cpp:156] Memory required for data: 580437024
I0403 18:28:47.664165  7009 layer_factory.hpp:77] Creating layer inception_3a/output_inception_3a/output_0_split
I0403 18:28:47.664183  7009 net.cpp:91] Creating Layer inception_3a/output_inception_3a/output_0_split
I0403 18:28:47.664199  7009 net.cpp:425] inception_3a/output_inception_3a/output_0_split <- inception_3a/output
I0403 18:28:47.664221  7009 net.cpp:399] inception_3a/output_inception_3a/output_0_split -> inception_3a/output_inception_3a/output_0_split_0
I0403 18:28:47.664243  7009 net.cpp:399] inception_3a/output_inception_3a/output_0_split -> inception_3a/output_inception_3a/output_0_split_1
I0403 18:28:47.664268  7009 net.cpp:399] inception_3a/output_inception_3a/output_0_split -> inception_3a/output_inception_3a/output_0_split_2
I0403 18:28:47.664297  7009 net.cpp:399] inception_3a/output_inception_3a/output_0_split -> inception_3a/output_inception_3a/output_0_split_3
I0403 18:28:47.664383  7009 net.cpp:141] Setting up inception_3a/output_inception_3a/output_0_split
I0403 18:28:47.664408  7009 net.cpp:148] Top shape: 24 256 28 28 (4816896)
I0403 18:28:47.664427  7009 net.cpp:148] Top shape: 24 256 28 28 (4816896)
I0403 18:28:47.664443  7009 net.cpp:148] Top shape: 24 256 28 28 (4816896)
I0403 18:28:47.664459  7009 net.cpp:148] Top shape: 24 256 28 28 (4816896)
I0403 18:28:47.664475  7009 net.cpp:156] Memory required for data: 657507360
I0403 18:28:47.664490  7009 layer_factory.hpp:77] Creating layer inception_3b/1x1
I0403 18:28:47.664516  7009 net.cpp:91] Creating Layer inception_3b/1x1
I0403 18:28:47.664535  7009 net.cpp:425] inception_3b/1x1 <- inception_3a/output_inception_3a/output_0_split_0
I0403 18:28:47.664556  7009 net.cpp:399] inception_3b/1x1 -> inception_3b/1x1
I0403 18:28:47.665771  7009 net.cpp:141] Setting up inception_3b/1x1
I0403 18:28:47.665817  7009 net.cpp:148] Top shape: 24 128 28 28 (2408448)
I0403 18:28:47.665834  7009 net.cpp:156] Memory required for data: 667141152
I0403 18:28:47.665854  7009 layer_factory.hpp:77] Creating layer inception_3b/relu_1x1
I0403 18:28:47.665874  7009 net.cpp:91] Creating Layer inception_3b/relu_1x1
I0403 18:28:47.665890  7009 net.cpp:425] inception_3b/relu_1x1 <- inception_3b/1x1
I0403 18:28:47.665913  7009 net.cpp:386] inception_3b/relu_1x1 -> inception_3b/1x1 (in-place)
I0403 18:28:47.666101  7009 net.cpp:141] Setting up inception_3b/relu_1x1
I0403 18:28:47.666128  7009 net.cpp:148] Top shape: 24 128 28 28 (2408448)
I0403 18:28:47.666146  7009 net.cpp:156] Memory required for data: 676774944
I0403 18:28:47.666160  7009 layer_factory.hpp:77] Creating layer inception_3b/3x3_reduce
I0403 18:28:47.666184  7009 net.cpp:91] Creating Layer inception_3b/3x3_reduce
I0403 18:28:47.666203  7009 net.cpp:425] inception_3b/3x3_reduce <- inception_3a/output_inception_3a/output_0_split_1
I0403 18:28:47.666230  7009 net.cpp:399] inception_3b/3x3_reduce -> inception_3b/3x3_reduce
I0403 18:28:47.667456  7009 net.cpp:141] Setting up inception_3b/3x3_reduce
I0403 18:28:47.667486  7009 net.cpp:148] Top shape: 24 128 28 28 (2408448)
I0403 18:28:47.667502  7009 net.cpp:156] Memory required for data: 686408736
I0403 18:28:47.667522  7009 layer_factory.hpp:77] Creating layer inception_3b/relu_3x3_reduce
I0403 18:28:47.667542  7009 net.cpp:91] Creating Layer inception_3b/relu_3x3_reduce
I0403 18:28:47.667559  7009 net.cpp:425] inception_3b/relu_3x3_reduce <- inception_3b/3x3_reduce
I0403 18:28:47.667582  7009 net.cpp:386] inception_3b/relu_3x3_reduce -> inception_3b/3x3_reduce (in-place)
I0403 18:28:47.667770  7009 net.cpp:141] Setting up inception_3b/relu_3x3_reduce
I0403 18:28:47.667796  7009 net.cpp:148] Top shape: 24 128 28 28 (2408448)
I0403 18:28:47.667814  7009 net.cpp:156] Memory required for data: 696042528
I0403 18:28:47.667829  7009 layer_factory.hpp:77] Creating layer inception_3b/3x3
I0403 18:28:47.667857  7009 net.cpp:91] Creating Layer inception_3b/3x3
I0403 18:28:47.667877  7009 net.cpp:425] inception_3b/3x3 <- inception_3b/3x3_reduce
I0403 18:28:47.667898  7009 net.cpp:399] inception_3b/3x3 -> inception_3b/3x3
I0403 18:28:47.671012  7009 net.cpp:141] Setting up inception_3b/3x3
I0403 18:28:47.671043  7009 net.cpp:148] Top shape: 24 192 28 28 (3612672)
I0403 18:28:47.671061  7009 net.cpp:156] Memory required for data: 710493216
I0403 18:28:47.671080  7009 layer_factory.hpp:77] Creating layer inception_3b/relu_3x3
I0403 18:28:47.671103  7009 net.cpp:91] Creating Layer inception_3b/relu_3x3
I0403 18:28:47.671120  7009 net.cpp:425] inception_3b/relu_3x3 <- inception_3b/3x3
I0403 18:28:47.671139  7009 net.cpp:386] inception_3b/relu_3x3 -> inception_3b/3x3 (in-place)
I0403 18:28:47.671448  7009 net.cpp:141] Setting up inception_3b/relu_3x3
I0403 18:28:47.671476  7009 net.cpp:148] Top shape: 24 192 28 28 (3612672)
I0403 18:28:47.671492  7009 net.cpp:156] Memory required for data: 724943904
I0403 18:28:47.671509  7009 layer_factory.hpp:77] Creating layer inception_3b/5x5_reduce
I0403 18:28:47.671533  7009 net.cpp:91] Creating Layer inception_3b/5x5_reduce
I0403 18:28:47.671553  7009 net.cpp:425] inception_3b/5x5_reduce <- inception_3a/output_inception_3a/output_0_split_2
I0403 18:28:47.671576  7009 net.cpp:399] inception_3b/5x5_reduce -> inception_3b/5x5_reduce
I0403 18:28:47.672663  7009 net.cpp:141] Setting up inception_3b/5x5_reduce
I0403 18:28:47.672694  7009 net.cpp:148] Top shape: 24 32 28 28 (602112)
I0403 18:28:47.672710  7009 net.cpp:156] Memory required for data: 727352352
I0403 18:28:47.672730  7009 layer_factory.hpp:77] Creating layer inception_3b/relu_5x5_reduce
I0403 18:28:47.672754  7009 net.cpp:91] Creating Layer inception_3b/relu_5x5_reduce
I0403 18:28:47.672770  7009 net.cpp:425] inception_3b/relu_5x5_reduce <- inception_3b/5x5_reduce
I0403 18:28:47.672788  7009 net.cpp:386] inception_3b/relu_5x5_reduce -> inception_3b/5x5_reduce (in-place)
I0403 18:28:47.672996  7009 net.cpp:141] Setting up inception_3b/relu_5x5_reduce
I0403 18:28:47.673023  7009 net.cpp:148] Top shape: 24 32 28 28 (602112)
I0403 18:28:47.673043  7009 net.cpp:156] Memory required for data: 729760800
I0403 18:28:47.673059  7009 layer_factory.hpp:77] Creating layer inception_3b/5x5
I0403 18:28:47.673080  7009 net.cpp:91] Creating Layer inception_3b/5x5
I0403 18:28:47.673099  7009 net.cpp:425] inception_3b/5x5 <- inception_3b/5x5_reduce
I0403 18:28:47.673121  7009 net.cpp:399] inception_3b/5x5 -> inception_3b/5x5
I0403 18:28:47.675257  7009 net.cpp:141] Setting up inception_3b/5x5
I0403 18:28:47.675293  7009 net.cpp:148] Top shape: 24 96 28 28 (1806336)
I0403 18:28:47.675310  7009 net.cpp:156] Memory required for data: 736986144
I0403 18:28:47.675329  7009 layer_factory.hpp:77] Creating layer inception_3b/relu_5x5
I0403 18:28:47.675348  7009 net.cpp:91] Creating Layer inception_3b/relu_5x5
I0403 18:28:47.675364  7009 net.cpp:425] inception_3b/relu_5x5 <- inception_3b/5x5
I0403 18:28:47.675384  7009 net.cpp:386] inception_3b/relu_5x5 -> inception_3b/5x5 (in-place)
I0403 18:28:47.675588  7009 net.cpp:141] Setting up inception_3b/relu_5x5
I0403 18:28:47.675616  7009 net.cpp:148] Top shape: 24 96 28 28 (1806336)
I0403 18:28:47.675631  7009 net.cpp:156] Memory required for data: 744211488
I0403 18:28:47.675645  7009 layer_factory.hpp:77] Creating layer inception_3b/pool
I0403 18:28:47.675665  7009 net.cpp:91] Creating Layer inception_3b/pool
I0403 18:28:47.675681  7009 net.cpp:425] inception_3b/pool <- inception_3a/output_inception_3a/output_0_split_3
I0403 18:28:47.675700  7009 net.cpp:399] inception_3b/pool -> inception_3b/pool
I0403 18:28:47.675760  7009 net.cpp:141] Setting up inception_3b/pool
I0403 18:28:47.675786  7009 net.cpp:148] Top shape: 24 256 28 28 (4816896)
I0403 18:28:47.675801  7009 net.cpp:156] Memory required for data: 763479072
I0403 18:28:47.675815  7009 layer_factory.hpp:77] Creating layer inception_3b/pool_proj
I0403 18:28:47.675838  7009 net.cpp:91] Creating Layer inception_3b/pool_proj
I0403 18:28:47.675856  7009 net.cpp:425] inception_3b/pool_proj <- inception_3b/pool
I0403 18:28:47.675878  7009 net.cpp:399] inception_3b/pool_proj -> inception_3b/pool_proj
I0403 18:28:47.676973  7009 net.cpp:141] Setting up inception_3b/pool_proj
I0403 18:28:47.677006  7009 net.cpp:148] Top shape: 24 64 28 28 (1204224)
I0403 18:28:47.677021  7009 net.cpp:156] Memory required for data: 768295968
I0403 18:28:47.677042  7009 layer_factory.hpp:77] Creating layer inception_3b/relu_pool_proj
I0403 18:28:47.677060  7009 net.cpp:91] Creating Layer inception_3b/relu_pool_proj
I0403 18:28:47.677076  7009 net.cpp:425] inception_3b/relu_pool_proj <- inception_3b/pool_proj
I0403 18:28:47.677093  7009 net.cpp:386] inception_3b/relu_pool_proj -> inception_3b/pool_proj (in-place)
I0403 18:28:47.677500  7009 net.cpp:141] Setting up inception_3b/relu_pool_proj
I0403 18:28:47.677528  7009 net.cpp:148] Top shape: 24 64 28 28 (1204224)
I0403 18:28:47.677544  7009 net.cpp:156] Memory required for data: 773112864
I0403 18:28:47.677561  7009 layer_factory.hpp:77] Creating layer inception_3b/output
I0403 18:28:47.677584  7009 net.cpp:91] Creating Layer inception_3b/output
I0403 18:28:47.677608  7009 net.cpp:425] inception_3b/output <- inception_3b/1x1
I0403 18:28:47.677624  7009 net.cpp:425] inception_3b/output <- inception_3b/3x3
I0403 18:28:47.677641  7009 net.cpp:425] inception_3b/output <- inception_3b/5x5
I0403 18:28:47.677657  7009 net.cpp:425] inception_3b/output <- inception_3b/pool_proj
I0403 18:28:47.677675  7009 net.cpp:399] inception_3b/output -> inception_3b/output
I0403 18:28:47.677723  7009 net.cpp:141] Setting up inception_3b/output
I0403 18:28:47.677747  7009 net.cpp:148] Top shape: 24 480 28 28 (9031680)
I0403 18:28:47.677762  7009 net.cpp:156] Memory required for data: 809239584
I0403 18:28:47.677778  7009 layer_factory.hpp:77] Creating layer pool3/3x3_s2
I0403 18:28:47.677794  7009 net.cpp:91] Creating Layer pool3/3x3_s2
I0403 18:28:47.677810  7009 net.cpp:425] pool3/3x3_s2 <- inception_3b/output
I0403 18:28:47.677846  7009 net.cpp:399] pool3/3x3_s2 -> pool3/3x3_s2
I0403 18:28:47.677919  7009 net.cpp:141] Setting up pool3/3x3_s2
I0403 18:28:47.677942  7009 net.cpp:148] Top shape: 24 480 14 14 (2257920)
I0403 18:28:47.677958  7009 net.cpp:156] Memory required for data: 818271264
I0403 18:28:47.677973  7009 layer_factory.hpp:77] Creating layer pool3/3x3_s2_pool3/3x3_s2_0_split
I0403 18:28:47.677991  7009 net.cpp:91] Creating Layer pool3/3x3_s2_pool3/3x3_s2_0_split
I0403 18:28:47.678009  7009 net.cpp:425] pool3/3x3_s2_pool3/3x3_s2_0_split <- pool3/3x3_s2
I0403 18:28:47.678028  7009 net.cpp:399] pool3/3x3_s2_pool3/3x3_s2_0_split -> pool3/3x3_s2_pool3/3x3_s2_0_split_0
I0403 18:28:47.678047  7009 net.cpp:399] pool3/3x3_s2_pool3/3x3_s2_0_split -> pool3/3x3_s2_pool3/3x3_s2_0_split_1
I0403 18:28:47.678067  7009 net.cpp:399] pool3/3x3_s2_pool3/3x3_s2_0_split -> pool3/3x3_s2_pool3/3x3_s2_0_split_2
I0403 18:28:47.678086  7009 net.cpp:399] pool3/3x3_s2_pool3/3x3_s2_0_split -> pool3/3x3_s2_pool3/3x3_s2_0_split_3
I0403 18:28:47.678163  7009 net.cpp:141] Setting up pool3/3x3_s2_pool3/3x3_s2_0_split
I0403 18:28:47.678187  7009 net.cpp:148] Top shape: 24 480 14 14 (2257920)
I0403 18:28:47.678205  7009 net.cpp:148] Top shape: 24 480 14 14 (2257920)
I0403 18:28:47.678220  7009 net.cpp:148] Top shape: 24 480 14 14 (2257920)
I0403 18:28:47.678234  7009 net.cpp:148] Top shape: 24 480 14 14 (2257920)
I0403 18:28:47.678248  7009 net.cpp:156] Memory required for data: 854397984
I0403 18:28:47.678263  7009 layer_factory.hpp:77] Creating layer inception_4a/1x1
I0403 18:28:47.678288  7009 net.cpp:91] Creating Layer inception_4a/1x1
I0403 18:28:47.678306  7009 net.cpp:425] inception_4a/1x1 <- pool3/3x3_s2_pool3/3x3_s2_0_split_0
I0403 18:28:47.678328  7009 net.cpp:399] inception_4a/1x1 -> inception_4a/1x1
I0403 18:28:47.679934  7009 net.cpp:141] Setting up inception_4a/1x1
I0403 18:28:47.679965  7009 net.cpp:148] Top shape: 24 192 14 14 (903168)
I0403 18:28:47.679981  7009 net.cpp:156] Memory required for data: 858010656
I0403 18:28:47.679999  7009 layer_factory.hpp:77] Creating layer inception_4a/relu_1x1
I0403 18:28:47.680017  7009 net.cpp:91] Creating Layer inception_4a/relu_1x1
I0403 18:28:47.680032  7009 net.cpp:425] inception_4a/relu_1x1 <- inception_4a/1x1
I0403 18:28:47.680049  7009 net.cpp:386] inception_4a/relu_1x1 -> inception_4a/1x1 (in-place)
I0403 18:28:47.680230  7009 net.cpp:141] Setting up inception_4a/relu_1x1
I0403 18:28:47.680256  7009 net.cpp:148] Top shape: 24 192 14 14 (903168)
I0403 18:28:47.680274  7009 net.cpp:156] Memory required for data: 861623328
I0403 18:28:47.680291  7009 layer_factory.hpp:77] Creating layer inception_4a/3x3_reduce
I0403 18:28:47.680315  7009 net.cpp:91] Creating Layer inception_4a/3x3_reduce
I0403 18:28:47.680332  7009 net.cpp:425] inception_4a/3x3_reduce <- pool3/3x3_s2_pool3/3x3_s2_0_split_1
I0403 18:28:47.680353  7009 net.cpp:399] inception_4a/3x3_reduce -> inception_4a/3x3_reduce
I0403 18:28:47.681653  7009 net.cpp:141] Setting up inception_4a/3x3_reduce
I0403 18:28:47.681684  7009 net.cpp:148] Top shape: 24 96 14 14 (451584)
I0403 18:28:47.681700  7009 net.cpp:156] Memory required for data: 863429664
I0403 18:28:47.681727  7009 layer_factory.hpp:77] Creating layer inception_4a/relu_3x3_reduce
I0403 18:28:47.681748  7009 net.cpp:91] Creating Layer inception_4a/relu_3x3_reduce
I0403 18:28:47.681764  7009 net.cpp:425] inception_4a/relu_3x3_reduce <- inception_4a/3x3_reduce
I0403 18:28:47.681782  7009 net.cpp:386] inception_4a/relu_3x3_reduce -> inception_4a/3x3_reduce (in-place)
I0403 18:28:47.681967  7009 net.cpp:141] Setting up inception_4a/relu_3x3_reduce
I0403 18:28:47.681994  7009 net.cpp:148] Top shape: 24 96 14 14 (451584)
I0403 18:28:47.682010  7009 net.cpp:156] Memory required for data: 865236000
I0403 18:28:47.682026  7009 layer_factory.hpp:77] Creating layer inception_4a/3x3
I0403 18:28:47.682049  7009 net.cpp:91] Creating Layer inception_4a/3x3
I0403 18:28:47.682065  7009 net.cpp:425] inception_4a/3x3 <- inception_4a/3x3_reduce
I0403 18:28:47.682085  7009 net.cpp:399] inception_4a/3x3 -> inception_4a/3x3
I0403 18:28:47.684912  7009 net.cpp:141] Setting up inception_4a/3x3
I0403 18:28:47.684942  7009 net.cpp:148] Top shape: 24 208 14 14 (978432)
I0403 18:28:47.684957  7009 net.cpp:156] Memory required for data: 869149728
I0403 18:28:47.684976  7009 layer_factory.hpp:77] Creating layer inception_4a/relu_3x3
I0403 18:28:47.684993  7009 net.cpp:91] Creating Layer inception_4a/relu_3x3
I0403 18:28:47.685009  7009 net.cpp:425] inception_4a/relu_3x3 <- inception_4a/3x3
I0403 18:28:47.685029  7009 net.cpp:386] inception_4a/relu_3x3 -> inception_4a/3x3 (in-place)
I0403 18:28:47.685318  7009 net.cpp:141] Setting up inception_4a/relu_3x3
I0403 18:28:47.685345  7009 net.cpp:148] Top shape: 24 208 14 14 (978432)
I0403 18:28:47.685360  7009 net.cpp:156] Memory required for data: 873063456
I0403 18:28:47.685376  7009 layer_factory.hpp:77] Creating layer inception_4a/5x5_reduce
I0403 18:28:47.685398  7009 net.cpp:91] Creating Layer inception_4a/5x5_reduce
I0403 18:28:47.685416  7009 net.cpp:425] inception_4a/5x5_reduce <- pool3/3x3_s2_pool3/3x3_s2_0_split_2
I0403 18:28:47.685441  7009 net.cpp:399] inception_4a/5x5_reduce -> inception_4a/5x5_reduce
I0403 18:28:47.686488  7009 net.cpp:141] Setting up inception_4a/5x5_reduce
I0403 18:28:47.686517  7009 net.cpp:148] Top shape: 24 16 14 14 (75264)
I0403 18:28:47.686532  7009 net.cpp:156] Memory required for data: 873364512
I0403 18:28:47.686552  7009 layer_factory.hpp:77] Creating layer inception_4a/relu_5x5_reduce
I0403 18:28:47.686569  7009 net.cpp:91] Creating Layer inception_4a/relu_5x5_reduce
I0403 18:28:47.686585  7009 net.cpp:425] inception_4a/relu_5x5_reduce <- inception_4a/5x5_reduce
I0403 18:28:47.686605  7009 net.cpp:386] inception_4a/relu_5x5_reduce -> inception_4a/5x5_reduce (in-place)
I0403 18:28:47.686786  7009 net.cpp:141] Setting up inception_4a/relu_5x5_reduce
I0403 18:28:47.686811  7009 net.cpp:148] Top shape: 24 16 14 14 (75264)
I0403 18:28:47.686826  7009 net.cpp:156] Memory required for data: 873665568
I0403 18:28:47.686841  7009 layer_factory.hpp:77] Creating layer inception_4a/5x5
I0403 18:28:47.686864  7009 net.cpp:91] Creating Layer inception_4a/5x5
I0403 18:28:47.686882  7009 net.cpp:425] inception_4a/5x5 <- inception_4a/5x5_reduce
I0403 18:28:47.686902  7009 net.cpp:399] inception_4a/5x5 -> inception_4a/5x5
I0403 18:28:47.688014  7009 net.cpp:141] Setting up inception_4a/5x5
I0403 18:28:47.688041  7009 net.cpp:148] Top shape: 24 48 14 14 (225792)
I0403 18:28:47.688056  7009 net.cpp:156] Memory required for data: 874568736
I0403 18:28:47.688076  7009 layer_factory.hpp:77] Creating layer inception_4a/relu_5x5
I0403 18:28:47.688097  7009 net.cpp:91] Creating Layer inception_4a/relu_5x5
I0403 18:28:47.688112  7009 net.cpp:425] inception_4a/relu_5x5 <- inception_4a/5x5
I0403 18:28:47.688130  7009 net.cpp:386] inception_4a/relu_5x5 -> inception_4a/5x5 (in-place)
I0403 18:28:47.688333  7009 net.cpp:141] Setting up inception_4a/relu_5x5
I0403 18:28:47.688360  7009 net.cpp:148] Top shape: 24 48 14 14 (225792)
I0403 18:28:47.688376  7009 net.cpp:156] Memory required for data: 875471904
I0403 18:28:47.688392  7009 layer_factory.hpp:77] Creating layer inception_4a/pool
I0403 18:28:47.688410  7009 net.cpp:91] Creating Layer inception_4a/pool
I0403 18:28:47.688427  7009 net.cpp:425] inception_4a/pool <- pool3/3x3_s2_pool3/3x3_s2_0_split_3
I0403 18:28:47.688449  7009 net.cpp:399] inception_4a/pool -> inception_4a/pool
I0403 18:28:47.688525  7009 net.cpp:141] Setting up inception_4a/pool
I0403 18:28:47.688549  7009 net.cpp:148] Top shape: 24 480 14 14 (2257920)
I0403 18:28:47.688563  7009 net.cpp:156] Memory required for data: 884503584
I0403 18:28:47.688577  7009 layer_factory.hpp:77] Creating layer inception_4a/pool_proj
I0403 18:28:47.688601  7009 net.cpp:91] Creating Layer inception_4a/pool_proj
I0403 18:28:47.688619  7009 net.cpp:425] inception_4a/pool_proj <- inception_4a/pool
I0403 18:28:47.688638  7009 net.cpp:399] inception_4a/pool_proj -> inception_4a/pool_proj
I0403 18:28:47.689856  7009 net.cpp:141] Setting up inception_4a/pool_proj
I0403 18:28:47.689890  7009 net.cpp:148] Top shape: 24 64 14 14 (301056)
I0403 18:28:47.689925  7009 net.cpp:156] Memory required for data: 885707808
I0403 18:28:47.689945  7009 layer_factory.hpp:77] Creating layer inception_4a/relu_pool_proj
I0403 18:28:47.689965  7009 net.cpp:91] Creating Layer inception_4a/relu_pool_proj
I0403 18:28:47.689981  7009 net.cpp:425] inception_4a/relu_pool_proj <- inception_4a/pool_proj
I0403 18:28:47.690001  7009 net.cpp:386] inception_4a/relu_pool_proj -> inception_4a/pool_proj (in-place)
I0403 18:28:47.690304  7009 net.cpp:141] Setting up inception_4a/relu_pool_proj
I0403 18:28:47.690335  7009 net.cpp:148] Top shape: 24 64 14 14 (301056)
I0403 18:28:47.690352  7009 net.cpp:156] Memory required for data: 886912032
I0403 18:28:47.690367  7009 layer_factory.hpp:77] Creating layer inception_4a/output
I0403 18:28:47.690385  7009 net.cpp:91] Creating Layer inception_4a/output
I0403 18:28:47.690400  7009 net.cpp:425] inception_4a/output <- inception_4a/1x1
I0403 18:28:47.690418  7009 net.cpp:425] inception_4a/output <- inception_4a/3x3
I0403 18:28:47.690434  7009 net.cpp:425] inception_4a/output <- inception_4a/5x5
I0403 18:28:47.690450  7009 net.cpp:425] inception_4a/output <- inception_4a/pool_proj
I0403 18:28:47.690467  7009 net.cpp:399] inception_4a/output -> inception_4a/output
I0403 18:28:47.690515  7009 net.cpp:141] Setting up inception_4a/output
I0403 18:28:47.690538  7009 net.cpp:148] Top shape: 24 512 14 14 (2408448)
I0403 18:28:47.690554  7009 net.cpp:156] Memory required for data: 896545824
I0403 18:28:47.690569  7009 layer_factory.hpp:77] Creating layer inception_4a/output_inception_4a/output_0_split
I0403 18:28:47.690588  7009 net.cpp:91] Creating Layer inception_4a/output_inception_4a/output_0_split
I0403 18:28:47.690604  7009 net.cpp:425] inception_4a/output_inception_4a/output_0_split <- inception_4a/output
I0403 18:28:47.690625  7009 net.cpp:399] inception_4a/output_inception_4a/output_0_split -> inception_4a/output_inception_4a/output_0_split_0
I0403 18:28:47.690647  7009 net.cpp:399] inception_4a/output_inception_4a/output_0_split -> inception_4a/output_inception_4a/output_0_split_1
I0403 18:28:47.690668  7009 net.cpp:399] inception_4a/output_inception_4a/output_0_split -> inception_4a/output_inception_4a/output_0_split_2
I0403 18:28:47.690692  7009 net.cpp:399] inception_4a/output_inception_4a/output_0_split -> inception_4a/output_inception_4a/output_0_split_3
I0403 18:28:47.690712  7009 net.cpp:399] inception_4a/output_inception_4a/output_0_split -> inception_4a/output_inception_4a/output_0_split_4
I0403 18:28:47.690809  7009 net.cpp:141] Setting up inception_4a/output_inception_4a/output_0_split
I0403 18:28:47.690832  7009 net.cpp:148] Top shape: 24 512 14 14 (2408448)
I0403 18:28:47.690850  7009 net.cpp:148] Top shape: 24 512 14 14 (2408448)
I0403 18:28:47.690865  7009 net.cpp:148] Top shape: 24 512 14 14 (2408448)
I0403 18:28:47.690881  7009 net.cpp:148] Top shape: 24 512 14 14 (2408448)
I0403 18:28:47.690897  7009 net.cpp:148] Top shape: 24 512 14 14 (2408448)
I0403 18:28:47.690912  7009 net.cpp:156] Memory required for data: 944714784
I0403 18:28:47.690927  7009 layer_factory.hpp:77] Creating layer loss1/ave_pool
I0403 18:28:47.690945  7009 net.cpp:91] Creating Layer loss1/ave_pool
I0403 18:28:47.690961  7009 net.cpp:425] loss1/ave_pool <- inception_4a/output_inception_4a/output_0_split_0
I0403 18:28:47.690981  7009 net.cpp:399] loss1/ave_pool -> loss1/ave_pool
I0403 18:28:47.691202  7009 net.cpp:141] Setting up loss1/ave_pool
I0403 18:28:47.691232  7009 net.cpp:148] Top shape: 24 512 4 4 (196608)
I0403 18:28:47.691248  7009 net.cpp:156] Memory required for data: 945501216
I0403 18:28:47.691264  7009 layer_factory.hpp:77] Creating layer loss1/conv
I0403 18:28:47.691293  7009 net.cpp:91] Creating Layer loss1/conv
I0403 18:28:47.691313  7009 net.cpp:425] loss1/conv <- loss1/ave_pool
I0403 18:28:47.691331  7009 net.cpp:399] loss1/conv -> loss1/conv
I0403 18:28:47.692853  7009 net.cpp:141] Setting up loss1/conv
I0403 18:28:47.692883  7009 net.cpp:148] Top shape: 24 128 4 4 (49152)
I0403 18:28:47.692914  7009 net.cpp:156] Memory required for data: 945697824
I0403 18:28:47.692934  7009 layer_factory.hpp:77] Creating layer loss1/relu_conv
I0403 18:28:47.692953  7009 net.cpp:91] Creating Layer loss1/relu_conv
I0403 18:28:47.692970  7009 net.cpp:425] loss1/relu_conv <- loss1/conv
I0403 18:28:47.692991  7009 net.cpp:386] loss1/relu_conv -> loss1/conv (in-place)
I0403 18:28:47.693295  7009 net.cpp:141] Setting up loss1/relu_conv
I0403 18:28:47.693323  7009 net.cpp:148] Top shape: 24 128 4 4 (49152)
I0403 18:28:47.693339  7009 net.cpp:156] Memory required for data: 945894432
I0403 18:28:47.693356  7009 layer_factory.hpp:77] Creating layer loss1/fc
I0403 18:28:47.693379  7009 net.cpp:91] Creating Layer loss1/fc
I0403 18:28:47.693398  7009 net.cpp:425] loss1/fc <- loss1/conv
I0403 18:28:47.693420  7009 net.cpp:399] loss1/fc -> loss1/fc
I0403 18:28:47.711645  7009 net.cpp:141] Setting up loss1/fc
I0403 18:28:47.711690  7009 net.cpp:148] Top shape: 24 1024 (24576)
I0403 18:28:47.711705  7009 net.cpp:156] Memory required for data: 945992736
I0403 18:28:47.711724  7009 layer_factory.hpp:77] Creating layer loss1/relu_fc
I0403 18:28:47.711742  7009 net.cpp:91] Creating Layer loss1/relu_fc
I0403 18:28:47.711757  7009 net.cpp:425] loss1/relu_fc <- loss1/fc
I0403 18:28:47.711774  7009 net.cpp:386] loss1/relu_fc -> loss1/fc (in-place)
I0403 18:28:47.711973  7009 net.cpp:141] Setting up loss1/relu_fc
I0403 18:28:47.711998  7009 net.cpp:148] Top shape: 24 1024 (24576)
I0403 18:28:47.712013  7009 net.cpp:156] Memory required for data: 946091040
I0403 18:28:47.712026  7009 layer_factory.hpp:77] Creating layer loss1/drop_fc
I0403 18:28:47.712054  7009 net.cpp:91] Creating Layer loss1/drop_fc
I0403 18:28:47.712071  7009 net.cpp:425] loss1/drop_fc <- loss1/fc
I0403 18:28:47.712090  7009 net.cpp:386] loss1/drop_fc -> loss1/fc (in-place)
I0403 18:28:47.712141  7009 net.cpp:141] Setting up loss1/drop_fc
I0403 18:28:47.712162  7009 net.cpp:148] Top shape: 24 1024 (24576)
I0403 18:28:47.712177  7009 net.cpp:156] Memory required for data: 946189344
I0403 18:28:47.712191  7009 layer_factory.hpp:77] Creating layer loss1/classifier_plantvillage
I0403 18:28:47.712214  7009 net.cpp:91] Creating Layer loss1/classifier_plantvillage
I0403 18:28:47.712231  7009 net.cpp:425] loss1/classifier_plantvillage <- loss1/fc
I0403 18:28:47.712249  7009 net.cpp:399] loss1/classifier_plantvillage -> loss1/classifier_plantvillage
I0403 18:28:47.713176  7009 net.cpp:141] Setting up loss1/classifier_plantvillage
I0403 18:28:47.713206  7009 net.cpp:148] Top shape: 24 38 (912)
I0403 18:28:47.713220  7009 net.cpp:156] Memory required for data: 946192992
I0403 18:28:47.713238  7009 layer_factory.hpp:77] Creating layer loss1/classifier_plantvillage_loss1/classifier_plantvillage_0_split
I0403 18:28:47.713256  7009 net.cpp:91] Creating Layer loss1/classifier_plantvillage_loss1/classifier_plantvillage_0_split
I0403 18:28:47.713275  7009 net.cpp:425] loss1/classifier_plantvillage_loss1/classifier_plantvillage_0_split <- loss1/classifier_plantvillage
I0403 18:28:47.713295  7009 net.cpp:399] loss1/classifier_plantvillage_loss1/classifier_plantvillage_0_split -> loss1/classifier_plantvillage_loss1/classifier_plantvillage_0_split_0
I0403 18:28:47.713317  7009 net.cpp:399] loss1/classifier_plantvillage_loss1/classifier_plantvillage_0_split -> loss1/classifier_plantvillage_loss1/classifier_plantvillage_0_split_1
I0403 18:28:47.713340  7009 net.cpp:399] loss1/classifier_plantvillage_loss1/classifier_plantvillage_0_split -> loss1/classifier_plantvillage_loss1/classifier_plantvillage_0_split_2
I0403 18:28:47.713404  7009 net.cpp:141] Setting up loss1/classifier_plantvillage_loss1/classifier_plantvillage_0_split
I0403 18:28:47.713428  7009 net.cpp:148] Top shape: 24 38 (912)
I0403 18:28:47.713444  7009 net.cpp:148] Top shape: 24 38 (912)
I0403 18:28:47.713460  7009 net.cpp:148] Top shape: 24 38 (912)
I0403 18:28:47.713474  7009 net.cpp:156] Memory required for data: 946203936
I0403 18:28:47.713488  7009 layer_factory.hpp:77] Creating layer inception_4b/1x1
I0403 18:28:47.713508  7009 net.cpp:91] Creating Layer inception_4b/1x1
I0403 18:28:47.713543  7009 net.cpp:425] inception_4b/1x1 <- inception_4a/output_inception_4a/output_0_split_1
I0403 18:28:47.713565  7009 net.cpp:399] inception_4b/1x1 -> inception_4b/1x1
I0403 18:28:47.715221  7009 net.cpp:141] Setting up inception_4b/1x1
I0403 18:28:47.715250  7009 net.cpp:148] Top shape: 24 160 14 14 (752640)
I0403 18:28:47.715265  7009 net.cpp:156] Memory required for data: 949214496
I0403 18:28:47.715288  7009 layer_factory.hpp:77] Creating layer inception_4b/relu_1x1
I0403 18:28:47.715307  7009 net.cpp:91] Creating Layer inception_4b/relu_1x1
I0403 18:28:47.715323  7009 net.cpp:425] inception_4b/relu_1x1 <- inception_4b/1x1
I0403 18:28:47.715344  7009 net.cpp:386] inception_4b/relu_1x1 -> inception_4b/1x1 (in-place)
I0403 18:28:47.715528  7009 net.cpp:141] Setting up inception_4b/relu_1x1
I0403 18:28:47.715553  7009 net.cpp:148] Top shape: 24 160 14 14 (752640)
I0403 18:28:47.715569  7009 net.cpp:156] Memory required for data: 952225056
I0403 18:28:47.715582  7009 layer_factory.hpp:77] Creating layer inception_4b/3x3_reduce
I0403 18:28:47.715603  7009 net.cpp:91] Creating Layer inception_4b/3x3_reduce
I0403 18:28:47.715621  7009 net.cpp:425] inception_4b/3x3_reduce <- inception_4a/output_inception_4a/output_0_split_2
I0403 18:28:47.715646  7009 net.cpp:399] inception_4b/3x3_reduce -> inception_4b/3x3_reduce
I0403 18:28:47.716984  7009 net.cpp:141] Setting up inception_4b/3x3_reduce
I0403 18:28:47.717011  7009 net.cpp:148] Top shape: 24 112 14 14 (526848)
I0403 18:28:47.717025  7009 net.cpp:156] Memory required for data: 954332448
I0403 18:28:47.717044  7009 layer_factory.hpp:77] Creating layer inception_4b/relu_3x3_reduce
I0403 18:28:47.717067  7009 net.cpp:91] Creating Layer inception_4b/relu_3x3_reduce
I0403 18:28:47.717082  7009 net.cpp:425] inception_4b/relu_3x3_reduce <- inception_4b/3x3_reduce
I0403 18:28:47.717098  7009 net.cpp:386] inception_4b/relu_3x3_reduce -> inception_4b/3x3_reduce (in-place)
I0403 18:28:47.717391  7009 net.cpp:141] Setting up inception_4b/relu_3x3_reduce
I0403 18:28:47.717417  7009 net.cpp:148] Top shape: 24 112 14 14 (526848)
I0403 18:28:47.717432  7009 net.cpp:156] Memory required for data: 956439840
I0403 18:28:47.717448  7009 layer_factory.hpp:77] Creating layer inception_4b/3x3
I0403 18:28:47.717470  7009 net.cpp:91] Creating Layer inception_4b/3x3
I0403 18:28:47.717489  7009 net.cpp:425] inception_4b/3x3 <- inception_4b/3x3_reduce
I0403 18:28:47.717509  7009 net.cpp:399] inception_4b/3x3 -> inception_4b/3x3
I0403 18:28:47.720481  7009 net.cpp:141] Setting up inception_4b/3x3
I0403 18:28:47.720513  7009 net.cpp:148] Top shape: 24 224 14 14 (1053696)
I0403 18:28:47.720530  7009 net.cpp:156] Memory required for data: 960654624
I0403 18:28:47.720549  7009 layer_factory.hpp:77] Creating layer inception_4b/relu_3x3
I0403 18:28:47.720566  7009 net.cpp:91] Creating Layer inception_4b/relu_3x3
I0403 18:28:47.720582  7009 net.cpp:425] inception_4b/relu_3x3 <- inception_4b/3x3
I0403 18:28:47.720598  7009 net.cpp:386] inception_4b/relu_3x3 -> inception_4b/3x3 (in-place)
I0403 18:28:47.720782  7009 net.cpp:141] Setting up inception_4b/relu_3x3
I0403 18:28:47.720808  7009 net.cpp:148] Top shape: 24 224 14 14 (1053696)
I0403 18:28:47.720823  7009 net.cpp:156] Memory required for data: 964869408
I0403 18:28:47.720836  7009 layer_factory.hpp:77] Creating layer inception_4b/5x5_reduce
I0403 18:28:47.720860  7009 net.cpp:91] Creating Layer inception_4b/5x5_reduce
I0403 18:28:47.720876  7009 net.cpp:425] inception_4b/5x5_reduce <- inception_4a/output_inception_4a/output_0_split_3
I0403 18:28:47.720898  7009 net.cpp:399] inception_4b/5x5_reduce -> inception_4b/5x5_reduce
I0403 18:28:47.721974  7009 net.cpp:141] Setting up inception_4b/5x5_reduce
I0403 18:28:47.722003  7009 net.cpp:148] Top shape: 24 24 14 14 (112896)
I0403 18:28:47.722019  7009 net.cpp:156] Memory required for data: 965320992
I0403 18:28:47.722038  7009 layer_factory.hpp:77] Creating layer inception_4b/relu_5x5_reduce
I0403 18:28:47.722062  7009 net.cpp:91] Creating Layer inception_4b/relu_5x5_reduce
I0403 18:28:47.722091  7009 net.cpp:425] inception_4b/relu_5x5_reduce <- inception_4b/5x5_reduce
I0403 18:28:47.722110  7009 net.cpp:386] inception_4b/relu_5x5_reduce -> inception_4b/5x5_reduce (in-place)
I0403 18:28:47.722311  7009 net.cpp:141] Setting up inception_4b/relu_5x5_reduce
I0403 18:28:47.722337  7009 net.cpp:148] Top shape: 24 24 14 14 (112896)
I0403 18:28:47.722352  7009 net.cpp:156] Memory required for data: 965772576
I0403 18:28:47.722368  7009 layer_factory.hpp:77] Creating layer inception_4b/5x5
I0403 18:28:47.722390  7009 net.cpp:91] Creating Layer inception_4b/5x5
I0403 18:28:47.722409  7009 net.cpp:425] inception_4b/5x5 <- inception_4b/5x5_reduce
I0403 18:28:47.722426  7009 net.cpp:399] inception_4b/5x5 -> inception_4b/5x5
I0403 18:28:47.723673  7009 net.cpp:141] Setting up inception_4b/5x5
I0403 18:28:47.723701  7009 net.cpp:148] Top shape: 24 64 14 14 (301056)
I0403 18:28:47.723718  7009 net.cpp:156] Memory required for data: 966976800
I0403 18:28:47.723737  7009 layer_factory.hpp:77] Creating layer inception_4b/relu_5x5
I0403 18:28:47.723755  7009 net.cpp:91] Creating Layer inception_4b/relu_5x5
I0403 18:28:47.723770  7009 net.cpp:425] inception_4b/relu_5x5 <- inception_4b/5x5
I0403 18:28:47.723791  7009 net.cpp:386] inception_4b/relu_5x5 -> inception_4b/5x5 (in-place)
I0403 18:28:47.724076  7009 net.cpp:141] Setting up inception_4b/relu_5x5
I0403 18:28:47.724102  7009 net.cpp:148] Top shape: 24 64 14 14 (301056)
I0403 18:28:47.724117  7009 net.cpp:156] Memory required for data: 968181024
I0403 18:28:47.724130  7009 layer_factory.hpp:77] Creating layer inception_4b/pool
I0403 18:28:47.724148  7009 net.cpp:91] Creating Layer inception_4b/pool
I0403 18:28:47.724164  7009 net.cpp:425] inception_4b/pool <- inception_4a/output_inception_4a/output_0_split_4
I0403 18:28:47.724184  7009 net.cpp:399] inception_4b/pool -> inception_4b/pool
I0403 18:28:47.724247  7009 net.cpp:141] Setting up inception_4b/pool
I0403 18:28:47.724275  7009 net.cpp:148] Top shape: 24 512 14 14 (2408448)
I0403 18:28:47.724290  7009 net.cpp:156] Memory required for data: 977814816
I0403 18:28:47.724305  7009 layer_factory.hpp:77] Creating layer inception_4b/pool_proj
I0403 18:28:47.724330  7009 net.cpp:91] Creating Layer inception_4b/pool_proj
I0403 18:28:47.724349  7009 net.cpp:425] inception_4b/pool_proj <- inception_4b/pool
I0403 18:28:47.724367  7009 net.cpp:399] inception_4b/pool_proj -> inception_4b/pool_proj
I0403 18:28:47.725561  7009 net.cpp:141] Setting up inception_4b/pool_proj
I0403 18:28:47.725589  7009 net.cpp:148] Top shape: 24 64 14 14 (301056)
I0403 18:28:47.725603  7009 net.cpp:156] Memory required for data: 979019040
I0403 18:28:47.725621  7009 layer_factory.hpp:77] Creating layer inception_4b/relu_pool_proj
I0403 18:28:47.725647  7009 net.cpp:91] Creating Layer inception_4b/relu_pool_proj
I0403 18:28:47.725664  7009 net.cpp:425] inception_4b/relu_pool_proj <- inception_4b/pool_proj
I0403 18:28:47.725682  7009 net.cpp:386] inception_4b/relu_pool_proj -> inception_4b/pool_proj (in-place)
I0403 18:28:47.725864  7009 net.cpp:141] Setting up inception_4b/relu_pool_proj
I0403 18:28:47.725890  7009 net.cpp:148] Top shape: 24 64 14 14 (301056)
I0403 18:28:47.725905  7009 net.cpp:156] Memory required for data: 980223264
I0403 18:28:47.725922  7009 layer_factory.hpp:77] Creating layer inception_4b/output
I0403 18:28:47.725939  7009 net.cpp:91] Creating Layer inception_4b/output
I0403 18:28:47.725955  7009 net.cpp:425] inception_4b/output <- inception_4b/1x1
I0403 18:28:47.725970  7009 net.cpp:425] inception_4b/output <- inception_4b/3x3
I0403 18:28:47.725986  7009 net.cpp:425] inception_4b/output <- inception_4b/5x5
I0403 18:28:47.726013  7009 net.cpp:425] inception_4b/output <- inception_4b/pool_proj
I0403 18:28:47.726030  7009 net.cpp:399] inception_4b/output -> inception_4b/output
I0403 18:28:47.726078  7009 net.cpp:141] Setting up inception_4b/output
I0403 18:28:47.726101  7009 net.cpp:148] Top shape: 24 512 14 14 (2408448)
I0403 18:28:47.726116  7009 net.cpp:156] Memory required for data: 989857056
I0403 18:28:47.726145  7009 layer_factory.hpp:77] Creating layer inception_4b/output_inception_4b/output_0_split
I0403 18:28:47.726163  7009 net.cpp:91] Creating Layer inception_4b/output_inception_4b/output_0_split
I0403 18:28:47.726178  7009 net.cpp:425] inception_4b/output_inception_4b/output_0_split <- inception_4b/output
I0403 18:28:47.726199  7009 net.cpp:399] inception_4b/output_inception_4b/output_0_split -> inception_4b/output_inception_4b/output_0_split_0
I0403 18:28:47.726222  7009 net.cpp:399] inception_4b/output_inception_4b/output_0_split -> inception_4b/output_inception_4b/output_0_split_1
I0403 18:28:47.726243  7009 net.cpp:399] inception_4b/output_inception_4b/output_0_split -> inception_4b/output_inception_4b/output_0_split_2
I0403 18:28:47.726263  7009 net.cpp:399] inception_4b/output_inception_4b/output_0_split -> inception_4b/output_inception_4b/output_0_split_3
I0403 18:28:47.726366  7009 net.cpp:141] Setting up inception_4b/output_inception_4b/output_0_split
I0403 18:28:47.726389  7009 net.cpp:148] Top shape: 24 512 14 14 (2408448)
I0403 18:28:47.726405  7009 net.cpp:148] Top shape: 24 512 14 14 (2408448)
I0403 18:28:47.726420  7009 net.cpp:148] Top shape: 24 512 14 14 (2408448)
I0403 18:28:47.726435  7009 net.cpp:148] Top shape: 24 512 14 14 (2408448)
I0403 18:28:47.726449  7009 net.cpp:156] Memory required for data: 1028392224
I0403 18:28:47.726462  7009 layer_factory.hpp:77] Creating layer inception_4c/1x1
I0403 18:28:47.726485  7009 net.cpp:91] Creating Layer inception_4c/1x1
I0403 18:28:47.726501  7009 net.cpp:425] inception_4c/1x1 <- inception_4b/output_inception_4b/output_0_split_0
I0403 18:28:47.726522  7009 net.cpp:399] inception_4c/1x1 -> inception_4c/1x1
I0403 18:28:47.727967  7009 net.cpp:141] Setting up inception_4c/1x1
I0403 18:28:47.727999  7009 net.cpp:148] Top shape: 24 128 14 14 (602112)
I0403 18:28:47.728018  7009 net.cpp:156] Memory required for data: 1030800672
I0403 18:28:47.728035  7009 layer_factory.hpp:77] Creating layer inception_4c/relu_1x1
I0403 18:28:47.728055  7009 net.cpp:91] Creating Layer inception_4c/relu_1x1
I0403 18:28:47.728072  7009 net.cpp:425] inception_4c/relu_1x1 <- inception_4c/1x1
I0403 18:28:47.728090  7009 net.cpp:386] inception_4c/relu_1x1 -> inception_4c/1x1 (in-place)
I0403 18:28:47.728277  7009 net.cpp:141] Setting up inception_4c/relu_1x1
I0403 18:28:47.728305  7009 net.cpp:148] Top shape: 24 128 14 14 (602112)
I0403 18:28:47.728322  7009 net.cpp:156] Memory required for data: 1033209120
I0403 18:28:47.728337  7009 layer_factory.hpp:77] Creating layer inception_4c/3x3_reduce
I0403 18:28:47.728359  7009 net.cpp:91] Creating Layer inception_4c/3x3_reduce
I0403 18:28:47.728375  7009 net.cpp:425] inception_4c/3x3_reduce <- inception_4b/output_inception_4b/output_0_split_1
I0403 18:28:47.728396  7009 net.cpp:399] inception_4c/3x3_reduce -> inception_4c/3x3_reduce
I0403 18:28:47.730350  7009 net.cpp:141] Setting up inception_4c/3x3_reduce
I0403 18:28:47.730377  7009 net.cpp:148] Top shape: 24 128 14 14 (602112)
I0403 18:28:47.730393  7009 net.cpp:156] Memory required for data: 1035617568
I0403 18:28:47.730412  7009 layer_factory.hpp:77] Creating layer inception_4c/relu_3x3_reduce
I0403 18:28:47.730428  7009 net.cpp:91] Creating Layer inception_4c/relu_3x3_reduce
I0403 18:28:47.730448  7009 net.cpp:425] inception_4c/relu_3x3_reduce <- inception_4c/3x3_reduce
I0403 18:28:47.730465  7009 net.cpp:386] inception_4c/relu_3x3_reduce -> inception_4c/3x3_reduce (in-place)
I0403 18:28:47.730749  7009 net.cpp:141] Setting up inception_4c/relu_3x3_reduce
I0403 18:28:47.730775  7009 net.cpp:148] Top shape: 24 128 14 14 (602112)
I0403 18:28:47.730792  7009 net.cpp:156] Memory required for data: 1038026016
I0403 18:28:47.730805  7009 layer_factory.hpp:77] Creating layer inception_4c/3x3
I0403 18:28:47.730829  7009 net.cpp:91] Creating Layer inception_4c/3x3
I0403 18:28:47.730845  7009 net.cpp:425] inception_4c/3x3 <- inception_4c/3x3_reduce
I0403 18:28:47.730866  7009 net.cpp:399] inception_4c/3x3 -> inception_4c/3x3
I0403 18:28:47.734489  7009 net.cpp:141] Setting up inception_4c/3x3
I0403 18:28:47.734530  7009 net.cpp:148] Top shape: 24 256 14 14 (1204224)
I0403 18:28:47.734547  7009 net.cpp:156] Memory required for data: 1042842912
I0403 18:28:47.734580  7009 layer_factory.hpp:77] Creating layer inception_4c/relu_3x3
I0403 18:28:47.734601  7009 net.cpp:91] Creating Layer inception_4c/relu_3x3
I0403 18:28:47.734617  7009 net.cpp:425] inception_4c/relu_3x3 <- inception_4c/3x3
I0403 18:28:47.734637  7009 net.cpp:386] inception_4c/relu_3x3 -> inception_4c/3x3 (in-place)
I0403 18:28:47.734820  7009 net.cpp:141] Setting up inception_4c/relu_3x3
I0403 18:28:47.734845  7009 net.cpp:148] Top shape: 24 256 14 14 (1204224)
I0403 18:28:47.734860  7009 net.cpp:156] Memory required for data: 1047659808
I0403 18:28:47.734876  7009 layer_factory.hpp:77] Creating layer inception_4c/5x5_reduce
I0403 18:28:47.734899  7009 net.cpp:91] Creating Layer inception_4c/5x5_reduce
I0403 18:28:47.734915  7009 net.cpp:425] inception_4c/5x5_reduce <- inception_4b/output_inception_4b/output_0_split_2
I0403 18:28:47.734937  7009 net.cpp:399] inception_4c/5x5_reduce -> inception_4c/5x5_reduce
I0403 18:28:47.736027  7009 net.cpp:141] Setting up inception_4c/5x5_reduce
I0403 18:28:47.736054  7009 net.cpp:148] Top shape: 24 24 14 14 (112896)
I0403 18:28:47.736070  7009 net.cpp:156] Memory required for data: 1048111392
I0403 18:28:47.736090  7009 layer_factory.hpp:77] Creating layer inception_4c/relu_5x5_reduce
I0403 18:28:47.736112  7009 net.cpp:91] Creating Layer inception_4c/relu_5x5_reduce
I0403 18:28:47.736129  7009 net.cpp:425] inception_4c/relu_5x5_reduce <- inception_4c/5x5_reduce
I0403 18:28:47.736146  7009 net.cpp:386] inception_4c/relu_5x5_reduce -> inception_4c/5x5_reduce (in-place)
I0403 18:28:47.736357  7009 net.cpp:141] Setting up inception_4c/relu_5x5_reduce
I0403 18:28:47.736382  7009 net.cpp:148] Top shape: 24 24 14 14 (112896)
I0403 18:28:47.736398  7009 net.cpp:156] Memory required for data: 1048562976
I0403 18:28:47.736414  7009 layer_factory.hpp:77] Creating layer inception_4c/5x5
I0403 18:28:47.736438  7009 net.cpp:91] Creating Layer inception_4c/5x5
I0403 18:28:47.736457  7009 net.cpp:425] inception_4c/5x5 <- inception_4c/5x5_reduce
I0403 18:28:47.736477  7009 net.cpp:399] inception_4c/5x5 -> inception_4c/5x5
I0403 18:28:47.737716  7009 net.cpp:141] Setting up inception_4c/5x5
I0403 18:28:47.737746  7009 net.cpp:148] Top shape: 24 64 14 14 (301056)
I0403 18:28:47.737764  7009 net.cpp:156] Memory required for data: 1049767200
I0403 18:28:47.737783  7009 layer_factory.hpp:77] Creating layer inception_4c/relu_5x5
I0403 18:28:47.737802  7009 net.cpp:91] Creating Layer inception_4c/relu_5x5
I0403 18:28:47.737818  7009 net.cpp:425] inception_4c/relu_5x5 <- inception_4c/5x5
I0403 18:28:47.737835  7009 net.cpp:386] inception_4c/relu_5x5 -> inception_4c/5x5 (in-place)
I0403 18:28:47.738119  7009 net.cpp:141] Setting up inception_4c/relu_5x5
I0403 18:28:47.738145  7009 net.cpp:148] Top shape: 24 64 14 14 (301056)
I0403 18:28:47.738165  7009 net.cpp:156] Memory required for data: 1050971424
I0403 18:28:47.738179  7009 layer_factory.hpp:77] Creating layer inception_4c/pool
I0403 18:28:47.738198  7009 net.cpp:91] Creating Layer inception_4c/pool
I0403 18:28:47.738214  7009 net.cpp:425] inception_4c/pool <- inception_4b/output_inception_4b/output_0_split_3
I0403 18:28:47.738243  7009 net.cpp:399] inception_4c/pool -> inception_4c/pool
I0403 18:28:47.738317  7009 net.cpp:141] Setting up inception_4c/pool
I0403 18:28:47.738343  7009 net.cpp:148] Top shape: 24 512 14 14 (2408448)
I0403 18:28:47.738358  7009 net.cpp:156] Memory required for data: 1060605216
I0403 18:28:47.738373  7009 layer_factory.hpp:77] Creating layer inception_4c/pool_proj
I0403 18:28:47.738395  7009 net.cpp:91] Creating Layer inception_4c/pool_proj
I0403 18:28:47.738415  7009 net.cpp:425] inception_4c/pool_proj <- inception_4c/pool
I0403 18:28:47.738435  7009 net.cpp:399] inception_4c/pool_proj -> inception_4c/pool_proj
I0403 18:28:47.739724  7009 net.cpp:141] Setting up inception_4c/pool_proj
I0403 18:28:47.739753  7009 net.cpp:148] Top shape: 24 64 14 14 (301056)
I0403 18:28:47.739781  7009 net.cpp:156] Memory required for data: 1061809440
I0403 18:28:47.739801  7009 layer_factory.hpp:77] Creating layer inception_4c/relu_pool_proj
I0403 18:28:47.739821  7009 net.cpp:91] Creating Layer inception_4c/relu_pool_proj
I0403 18:28:47.739837  7009 net.cpp:425] inception_4c/relu_pool_proj <- inception_4c/pool_proj
I0403 18:28:47.739857  7009 net.cpp:386] inception_4c/relu_pool_proj -> inception_4c/pool_proj (in-place)
I0403 18:28:47.740049  7009 net.cpp:141] Setting up inception_4c/relu_pool_proj
I0403 18:28:47.740075  7009 net.cpp:148] Top shape: 24 64 14 14 (301056)
I0403 18:28:47.740090  7009 net.cpp:156] Memory required for data: 1063013664
I0403 18:28:47.740106  7009 layer_factory.hpp:77] Creating layer inception_4c/output
I0403 18:28:47.740126  7009 net.cpp:91] Creating Layer inception_4c/output
I0403 18:28:47.740144  7009 net.cpp:425] inception_4c/output <- inception_4c/1x1
I0403 18:28:47.740160  7009 net.cpp:425] inception_4c/output <- inception_4c/3x3
I0403 18:28:47.740175  7009 net.cpp:425] inception_4c/output <- inception_4c/5x5
I0403 18:28:47.740192  7009 net.cpp:425] inception_4c/output <- inception_4c/pool_proj
I0403 18:28:47.740211  7009 net.cpp:399] inception_4c/output -> inception_4c/output
I0403 18:28:47.740259  7009 net.cpp:141] Setting up inception_4c/output
I0403 18:28:47.740288  7009 net.cpp:148] Top shape: 24 512 14 14 (2408448)
I0403 18:28:47.740304  7009 net.cpp:156] Memory required for data: 1072647456
I0403 18:28:47.740320  7009 layer_factory.hpp:77] Creating layer inception_4c/output_inception_4c/output_0_split
I0403 18:28:47.740339  7009 net.cpp:91] Creating Layer inception_4c/output_inception_4c/output_0_split
I0403 18:28:47.740355  7009 net.cpp:425] inception_4c/output_inception_4c/output_0_split <- inception_4c/output
I0403 18:28:47.740375  7009 net.cpp:399] inception_4c/output_inception_4c/output_0_split -> inception_4c/output_inception_4c/output_0_split_0
I0403 18:28:47.740396  7009 net.cpp:399] inception_4c/output_inception_4c/output_0_split -> inception_4c/output_inception_4c/output_0_split_1
I0403 18:28:47.740417  7009 net.cpp:399] inception_4c/output_inception_4c/output_0_split -> inception_4c/output_inception_4c/output_0_split_2
I0403 18:28:47.740437  7009 net.cpp:399] inception_4c/output_inception_4c/output_0_split -> inception_4c/output_inception_4c/output_0_split_3
I0403 18:28:47.740525  7009 net.cpp:141] Setting up inception_4c/output_inception_4c/output_0_split
I0403 18:28:47.740550  7009 net.cpp:148] Top shape: 24 512 14 14 (2408448)
I0403 18:28:47.740566  7009 net.cpp:148] Top shape: 24 512 14 14 (2408448)
I0403 18:28:47.740582  7009 net.cpp:148] Top shape: 24 512 14 14 (2408448)
I0403 18:28:47.740598  7009 net.cpp:148] Top shape: 24 512 14 14 (2408448)
I0403 18:28:47.740612  7009 net.cpp:156] Memory required for data: 1111182624
I0403 18:28:47.740627  7009 layer_factory.hpp:77] Creating layer inception_4d/1x1
I0403 18:28:47.740648  7009 net.cpp:91] Creating Layer inception_4d/1x1
I0403 18:28:47.740667  7009 net.cpp:425] inception_4d/1x1 <- inception_4c/output_inception_4c/output_0_split_0
I0403 18:28:47.740689  7009 net.cpp:399] inception_4d/1x1 -> inception_4d/1x1
I0403 18:28:47.742127  7009 net.cpp:141] Setting up inception_4d/1x1
I0403 18:28:47.742159  7009 net.cpp:148] Top shape: 24 112 14 14 (526848)
I0403 18:28:47.742175  7009 net.cpp:156] Memory required for data: 1113290016
I0403 18:28:47.742193  7009 layer_factory.hpp:77] Creating layer inception_4d/relu_1x1
I0403 18:28:47.742213  7009 net.cpp:91] Creating Layer inception_4d/relu_1x1
I0403 18:28:47.742229  7009 net.cpp:425] inception_4d/relu_1x1 <- inception_4d/1x1
I0403 18:28:47.742249  7009 net.cpp:386] inception_4d/relu_1x1 -> inception_4d/1x1 (in-place)
I0403 18:28:47.742451  7009 net.cpp:141] Setting up inception_4d/relu_1x1
I0403 18:28:47.742477  7009 net.cpp:148] Top shape: 24 112 14 14 (526848)
I0403 18:28:47.742492  7009 net.cpp:156] Memory required for data: 1115397408
I0403 18:28:47.742507  7009 layer_factory.hpp:77] Creating layer inception_4d/3x3_reduce
I0403 18:28:47.742544  7009 net.cpp:91] Creating Layer inception_4d/3x3_reduce
I0403 18:28:47.742564  7009 net.cpp:425] inception_4d/3x3_reduce <- inception_4c/output_inception_4c/output_0_split_1
I0403 18:28:47.742585  7009 net.cpp:399] inception_4d/3x3_reduce -> inception_4d/3x3_reduce
I0403 18:28:47.744122  7009 net.cpp:141] Setting up inception_4d/3x3_reduce
I0403 18:28:47.744150  7009 net.cpp:148] Top shape: 24 144 14 14 (677376)
I0403 18:28:47.744166  7009 net.cpp:156] Memory required for data: 1118106912
I0403 18:28:47.744185  7009 layer_factory.hpp:77] Creating layer inception_4d/relu_3x3_reduce
I0403 18:28:47.744206  7009 net.cpp:91] Creating Layer inception_4d/relu_3x3_reduce
I0403 18:28:47.744222  7009 net.cpp:425] inception_4d/relu_3x3_reduce <- inception_4d/3x3_reduce
I0403 18:28:47.744240  7009 net.cpp:386] inception_4d/relu_3x3_reduce -> inception_4d/3x3_reduce (in-place)
I0403 18:28:47.744542  7009 net.cpp:141] Setting up inception_4d/relu_3x3_reduce
I0403 18:28:47.744570  7009 net.cpp:148] Top shape: 24 144 14 14 (677376)
I0403 18:28:47.744586  7009 net.cpp:156] Memory required for data: 1120816416
I0403 18:28:47.744601  7009 layer_factory.hpp:77] Creating layer inception_4d/3x3
I0403 18:28:47.744626  7009 net.cpp:91] Creating Layer inception_4d/3x3
I0403 18:28:47.744643  7009 net.cpp:425] inception_4d/3x3 <- inception_4d/3x3_reduce
I0403 18:28:47.744663  7009 net.cpp:399] inception_4d/3x3 -> inception_4d/3x3
I0403 18:28:47.749204  7009 net.cpp:141] Setting up inception_4d/3x3
I0403 18:28:47.749240  7009 net.cpp:148] Top shape: 24 288 14 14 (1354752)
I0403 18:28:47.749258  7009 net.cpp:156] Memory required for data: 1126235424
I0403 18:28:47.749281  7009 layer_factory.hpp:77] Creating layer inception_4d/relu_3x3
I0403 18:28:47.749301  7009 net.cpp:91] Creating Layer inception_4d/relu_3x3
I0403 18:28:47.749318  7009 net.cpp:425] inception_4d/relu_3x3 <- inception_4d/3x3
I0403 18:28:47.749338  7009 net.cpp:386] inception_4d/relu_3x3 -> inception_4d/3x3 (in-place)
I0403 18:28:47.749536  7009 net.cpp:141] Setting up inception_4d/relu_3x3
I0403 18:28:47.749562  7009 net.cpp:148] Top shape: 24 288 14 14 (1354752)
I0403 18:28:47.749577  7009 net.cpp:156] Memory required for data: 1131654432
I0403 18:28:47.749593  7009 layer_factory.hpp:77] Creating layer inception_4d/5x5_reduce
I0403 18:28:47.749615  7009 net.cpp:91] Creating Layer inception_4d/5x5_reduce
I0403 18:28:47.749634  7009 net.cpp:425] inception_4d/5x5_reduce <- inception_4c/output_inception_4c/output_0_split_2
I0403 18:28:47.749655  7009 net.cpp:399] inception_4d/5x5_reduce -> inception_4d/5x5_reduce
I0403 18:28:47.750910  7009 net.cpp:141] Setting up inception_4d/5x5_reduce
I0403 18:28:47.750938  7009 net.cpp:148] Top shape: 24 32 14 14 (150528)
I0403 18:28:47.750954  7009 net.cpp:156] Memory required for data: 1132256544
I0403 18:28:47.750973  7009 layer_factory.hpp:77] Creating layer inception_4d/relu_5x5_reduce
I0403 18:28:47.750991  7009 net.cpp:91] Creating Layer inception_4d/relu_5x5_reduce
I0403 18:28:47.751008  7009 net.cpp:425] inception_4d/relu_5x5_reduce <- inception_4d/5x5_reduce
I0403 18:28:47.751030  7009 net.cpp:386] inception_4d/relu_5x5_reduce -> inception_4d/5x5_reduce (in-place)
I0403 18:28:47.751231  7009 net.cpp:141] Setting up inception_4d/relu_5x5_reduce
I0403 18:28:47.751257  7009 net.cpp:148] Top shape: 24 32 14 14 (150528)
I0403 18:28:47.751277  7009 net.cpp:156] Memory required for data: 1132858656
I0403 18:28:47.751293  7009 layer_factory.hpp:77] Creating layer inception_4d/5x5
I0403 18:28:47.751318  7009 net.cpp:91] Creating Layer inception_4d/5x5
I0403 18:28:47.751338  7009 net.cpp:425] inception_4d/5x5 <- inception_4d/5x5_reduce
I0403 18:28:47.751358  7009 net.cpp:399] inception_4d/5x5 -> inception_4d/5x5
I0403 18:28:47.752899  7009 net.cpp:141] Setting up inception_4d/5x5
I0403 18:28:47.752929  7009 net.cpp:148] Top shape: 24 64 14 14 (301056)
I0403 18:28:47.752945  7009 net.cpp:156] Memory required for data: 1134062880
I0403 18:28:47.752967  7009 layer_factory.hpp:77] Creating layer inception_4d/relu_5x5
I0403 18:28:47.753010  7009 net.cpp:91] Creating Layer inception_4d/relu_5x5
I0403 18:28:47.753027  7009 net.cpp:425] inception_4d/relu_5x5 <- inception_4d/5x5
I0403 18:28:47.753046  7009 net.cpp:386] inception_4d/relu_5x5 -> inception_4d/5x5 (in-place)
I0403 18:28:47.753368  7009 net.cpp:141] Setting up inception_4d/relu_5x5
I0403 18:28:47.753396  7009 net.cpp:148] Top shape: 24 64 14 14 (301056)
I0403 18:28:47.753412  7009 net.cpp:156] Memory required for data: 1135267104
I0403 18:28:47.753427  7009 layer_factory.hpp:77] Creating layer inception_4d/pool
I0403 18:28:47.753448  7009 net.cpp:91] Creating Layer inception_4d/pool
I0403 18:28:47.753466  7009 net.cpp:425] inception_4d/pool <- inception_4c/output_inception_4c/output_0_split_3
I0403 18:28:47.753485  7009 net.cpp:399] inception_4d/pool -> inception_4d/pool
I0403 18:28:47.753556  7009 net.cpp:141] Setting up inception_4d/pool
I0403 18:28:47.753581  7009 net.cpp:148] Top shape: 24 512 14 14 (2408448)
I0403 18:28:47.753595  7009 net.cpp:156] Memory required for data: 1144900896
I0403 18:28:47.753609  7009 layer_factory.hpp:77] Creating layer inception_4d/pool_proj
I0403 18:28:47.753634  7009 net.cpp:91] Creating Layer inception_4d/pool_proj
I0403 18:28:47.753653  7009 net.cpp:425] inception_4d/pool_proj <- inception_4d/pool
I0403 18:28:47.753674  7009 net.cpp:399] inception_4d/pool_proj -> inception_4d/pool_proj
I0403 18:28:47.755580  7009 net.cpp:141] Setting up inception_4d/pool_proj
I0403 18:28:47.755612  7009 net.cpp:148] Top shape: 24 64 14 14 (301056)
I0403 18:28:47.755630  7009 net.cpp:156] Memory required for data: 1146105120
I0403 18:28:47.755650  7009 layer_factory.hpp:77] Creating layer inception_4d/relu_pool_proj
I0403 18:28:47.755668  7009 net.cpp:91] Creating Layer inception_4d/relu_pool_proj
I0403 18:28:47.755684  7009 net.cpp:425] inception_4d/relu_pool_proj <- inception_4d/pool_proj
I0403 18:28:47.755705  7009 net.cpp:386] inception_4d/relu_pool_proj -> inception_4d/pool_proj (in-place)
I0403 18:28:47.755908  7009 net.cpp:141] Setting up inception_4d/relu_pool_proj
I0403 18:28:47.755934  7009 net.cpp:148] Top shape: 24 64 14 14 (301056)
I0403 18:28:47.755949  7009 net.cpp:156] Memory required for data: 1147309344
I0403 18:28:47.755965  7009 layer_factory.hpp:77] Creating layer inception_4d/output
I0403 18:28:47.755982  7009 net.cpp:91] Creating Layer inception_4d/output
I0403 18:28:47.755998  7009 net.cpp:425] inception_4d/output <- inception_4d/1x1
I0403 18:28:47.756016  7009 net.cpp:425] inception_4d/output <- inception_4d/3x3
I0403 18:28:47.756032  7009 net.cpp:425] inception_4d/output <- inception_4d/5x5
I0403 18:28:47.756049  7009 net.cpp:425] inception_4d/output <- inception_4d/pool_proj
I0403 18:28:47.756069  7009 net.cpp:399] inception_4d/output -> inception_4d/output
I0403 18:28:47.756122  7009 net.cpp:141] Setting up inception_4d/output
I0403 18:28:47.756147  7009 net.cpp:148] Top shape: 24 528 14 14 (2483712)
I0403 18:28:47.756162  7009 net.cpp:156] Memory required for data: 1157244192
I0403 18:28:47.756178  7009 layer_factory.hpp:77] Creating layer inception_4d/output_inception_4d/output_0_split
I0403 18:28:47.756196  7009 net.cpp:91] Creating Layer inception_4d/output_inception_4d/output_0_split
I0403 18:28:47.756212  7009 net.cpp:425] inception_4d/output_inception_4d/output_0_split <- inception_4d/output
I0403 18:28:47.756234  7009 net.cpp:399] inception_4d/output_inception_4d/output_0_split -> inception_4d/output_inception_4d/output_0_split_0
I0403 18:28:47.756258  7009 net.cpp:399] inception_4d/output_inception_4d/output_0_split -> inception_4d/output_inception_4d/output_0_split_1
I0403 18:28:47.756283  7009 net.cpp:399] inception_4d/output_inception_4d/output_0_split -> inception_4d/output_inception_4d/output_0_split_2
I0403 18:28:47.756306  7009 net.cpp:399] inception_4d/output_inception_4d/output_0_split -> inception_4d/output_inception_4d/output_0_split_3
I0403 18:28:47.756328  7009 net.cpp:399] inception_4d/output_inception_4d/output_0_split -> inception_4d/output_inception_4d/output_0_split_4
I0403 18:28:47.756434  7009 net.cpp:141] Setting up inception_4d/output_inception_4d/output_0_split
I0403 18:28:47.756475  7009 net.cpp:148] Top shape: 24 528 14 14 (2483712)
I0403 18:28:47.756494  7009 net.cpp:148] Top shape: 24 528 14 14 (2483712)
I0403 18:28:47.756510  7009 net.cpp:148] Top shape: 24 528 14 14 (2483712)
I0403 18:28:47.756526  7009 net.cpp:148] Top shape: 24 528 14 14 (2483712)
I0403 18:28:47.756541  7009 net.cpp:148] Top shape: 24 528 14 14 (2483712)
I0403 18:28:47.756556  7009 net.cpp:156] Memory required for data: 1206918432
I0403 18:28:47.756572  7009 layer_factory.hpp:77] Creating layer loss2/ave_pool
I0403 18:28:47.756589  7009 net.cpp:91] Creating Layer loss2/ave_pool
I0403 18:28:47.756605  7009 net.cpp:425] loss2/ave_pool <- inception_4d/output_inception_4d/output_0_split_0
I0403 18:28:47.756628  7009 net.cpp:399] loss2/ave_pool -> loss2/ave_pool
I0403 18:28:47.756958  7009 net.cpp:141] Setting up loss2/ave_pool
I0403 18:28:47.756989  7009 net.cpp:148] Top shape: 24 528 4 4 (202752)
I0403 18:28:47.757005  7009 net.cpp:156] Memory required for data: 1207729440
I0403 18:28:47.757021  7009 layer_factory.hpp:77] Creating layer loss2/conv
I0403 18:28:47.757045  7009 net.cpp:91] Creating Layer loss2/conv
I0403 18:28:47.757062  7009 net.cpp:425] loss2/conv <- loss2/ave_pool
I0403 18:28:47.757084  7009 net.cpp:399] loss2/conv -> loss2/conv
I0403 18:28:47.759064  7009 net.cpp:141] Setting up loss2/conv
I0403 18:28:47.759094  7009 net.cpp:148] Top shape: 24 128 4 4 (49152)
I0403 18:28:47.759110  7009 net.cpp:156] Memory required for data: 1207926048
I0403 18:28:47.759129  7009 layer_factory.hpp:77] Creating layer loss2/relu_conv
I0403 18:28:47.759150  7009 net.cpp:91] Creating Layer loss2/relu_conv
I0403 18:28:47.759167  7009 net.cpp:425] loss2/relu_conv <- loss2/conv
I0403 18:28:47.759186  7009 net.cpp:386] loss2/relu_conv -> loss2/conv (in-place)
I0403 18:28:47.759517  7009 net.cpp:141] Setting up loss2/relu_conv
I0403 18:28:47.759543  7009 net.cpp:148] Top shape: 24 128 4 4 (49152)
I0403 18:28:47.759559  7009 net.cpp:156] Memory required for data: 1208122656
I0403 18:28:47.759575  7009 layer_factory.hpp:77] Creating layer loss2/fc
I0403 18:28:47.759596  7009 net.cpp:91] Creating Layer loss2/fc
I0403 18:28:47.759613  7009 net.cpp:425] loss2/fc <- loss2/conv
I0403 18:28:47.759634  7009 net.cpp:399] loss2/fc -> loss2/fc
I0403 18:28:47.777909  7009 net.cpp:141] Setting up loss2/fc
I0403 18:28:47.777983  7009 net.cpp:148] Top shape: 24 1024 (24576)
I0403 18:28:47.778000  7009 net.cpp:156] Memory required for data: 1208220960
I0403 18:28:47.778033  7009 layer_factory.hpp:77] Creating layer loss2/relu_fc
I0403 18:28:47.778053  7009 net.cpp:91] Creating Layer loss2/relu_fc
I0403 18:28:47.778070  7009 net.cpp:425] loss2/relu_fc <- loss2/fc
I0403 18:28:47.778093  7009 net.cpp:386] loss2/relu_fc -> loss2/fc (in-place)
I0403 18:28:47.778466  7009 net.cpp:141] Setting up loss2/relu_fc
I0403 18:28:47.778493  7009 net.cpp:148] Top shape: 24 1024 (24576)
I0403 18:28:47.778508  7009 net.cpp:156] Memory required for data: 1208319264
I0403 18:28:47.778523  7009 layer_factory.hpp:77] Creating layer loss2/drop_fc
I0403 18:28:47.778542  7009 net.cpp:91] Creating Layer loss2/drop_fc
I0403 18:28:47.778558  7009 net.cpp:425] loss2/drop_fc <- loss2/fc
I0403 18:28:47.778578  7009 net.cpp:386] loss2/drop_fc -> loss2/fc (in-place)
I0403 18:28:47.778630  7009 net.cpp:141] Setting up loss2/drop_fc
I0403 18:28:47.778656  7009 net.cpp:148] Top shape: 24 1024 (24576)
I0403 18:28:47.778671  7009 net.cpp:156] Memory required for data: 1208417568
I0403 18:28:47.778687  7009 layer_factory.hpp:77] Creating layer loss2/classifier_plantvillage
I0403 18:28:47.778707  7009 net.cpp:91] Creating Layer loss2/classifier_plantvillage
I0403 18:28:47.778723  7009 net.cpp:425] loss2/classifier_plantvillage <- loss2/fc
I0403 18:28:47.778744  7009 net.cpp:399] loss2/classifier_plantvillage -> loss2/classifier_plantvillage
I0403 18:28:47.779165  7009 net.cpp:141] Setting up loss2/classifier_plantvillage
I0403 18:28:47.779189  7009 net.cpp:148] Top shape: 24 38 (912)
I0403 18:28:47.779232  7009 net.cpp:156] Memory required for data: 1208421216
I0403 18:28:47.779252  7009 layer_factory.hpp:77] Creating layer loss2/classifier_plantvillage_loss2/classifier_plantvillage_0_split
I0403 18:28:47.779279  7009 net.cpp:91] Creating Layer loss2/classifier_plantvillage_loss2/classifier_plantvillage_0_split
I0403 18:28:47.779299  7009 net.cpp:425] loss2/classifier_plantvillage_loss2/classifier_plantvillage_0_split <- loss2/classifier_plantvillage
I0403 18:28:47.779319  7009 net.cpp:399] loss2/classifier_plantvillage_loss2/classifier_plantvillage_0_split -> loss2/classifier_plantvillage_loss2/classifier_plantvillage_0_split_0
I0403 18:28:47.779340  7009 net.cpp:399] loss2/classifier_plantvillage_loss2/classifier_plantvillage_0_split -> loss2/classifier_plantvillage_loss2/classifier_plantvillage_0_split_1
I0403 18:28:47.779363  7009 net.cpp:399] loss2/classifier_plantvillage_loss2/classifier_plantvillage_0_split -> loss2/classifier_plantvillage_loss2/classifier_plantvillage_0_split_2
I0403 18:28:47.779443  7009 net.cpp:141] Setting up loss2/classifier_plantvillage_loss2/classifier_plantvillage_0_split
I0403 18:28:47.779466  7009 net.cpp:148] Top shape: 24 38 (912)
I0403 18:28:47.779484  7009 net.cpp:148] Top shape: 24 38 (912)
I0403 18:28:47.779500  7009 net.cpp:148] Top shape: 24 38 (912)
I0403 18:28:47.779513  7009 net.cpp:156] Memory required for data: 1208432160
I0403 18:28:47.779527  7009 layer_factory.hpp:77] Creating layer inception_4e/1x1
I0403 18:28:47.779551  7009 net.cpp:91] Creating Layer inception_4e/1x1
I0403 18:28:47.779569  7009 net.cpp:425] inception_4e/1x1 <- inception_4d/output_inception_4d/output_0_split_1
I0403 18:28:47.779588  7009 net.cpp:399] inception_4e/1x1 -> inception_4e/1x1
I0403 18:28:47.781502  7009 net.cpp:141] Setting up inception_4e/1x1
I0403 18:28:47.781543  7009 net.cpp:148] Top shape: 24 256 14 14 (1204224)
I0403 18:28:47.781558  7009 net.cpp:156] Memory required for data: 1213249056
I0403 18:28:47.781579  7009 layer_factory.hpp:77] Creating layer inception_4e/relu_1x1
I0403 18:28:47.781599  7009 net.cpp:91] Creating Layer inception_4e/relu_1x1
I0403 18:28:47.781616  7009 net.cpp:425] inception_4e/relu_1x1 <- inception_4e/1x1
I0403 18:28:47.781633  7009 net.cpp:386] inception_4e/relu_1x1 -> inception_4e/1x1 (in-place)
I0403 18:28:47.781939  7009 net.cpp:141] Setting up inception_4e/relu_1x1
I0403 18:28:47.781965  7009 net.cpp:148] Top shape: 24 256 14 14 (1204224)
I0403 18:28:47.781980  7009 net.cpp:156] Memory required for data: 1218065952
I0403 18:28:47.781996  7009 layer_factory.hpp:77] Creating layer inception_4e/3x3_reduce
I0403 18:28:47.782018  7009 net.cpp:91] Creating Layer inception_4e/3x3_reduce
I0403 18:28:47.782035  7009 net.cpp:425] inception_4e/3x3_reduce <- inception_4d/output_inception_4d/output_0_split_2
I0403 18:28:47.782057  7009 net.cpp:399] inception_4e/3x3_reduce -> inception_4e/3x3_reduce
I0403 18:28:47.784287  7009 net.cpp:141] Setting up inception_4e/3x3_reduce
I0403 18:28:47.784317  7009 net.cpp:148] Top shape: 24 160 14 14 (752640)
I0403 18:28:47.784332  7009 net.cpp:156] Memory required for data: 1221076512
I0403 18:28:47.784350  7009 layer_factory.hpp:77] Creating layer inception_4e/relu_3x3_reduce
I0403 18:28:47.784371  7009 net.cpp:91] Creating Layer inception_4e/relu_3x3_reduce
I0403 18:28:47.784389  7009 net.cpp:425] inception_4e/relu_3x3_reduce <- inception_4e/3x3_reduce
I0403 18:28:47.784406  7009 net.cpp:386] inception_4e/relu_3x3_reduce -> inception_4e/3x3_reduce (in-place)
I0403 18:28:47.784610  7009 net.cpp:141] Setting up inception_4e/relu_3x3_reduce
I0403 18:28:47.784636  7009 net.cpp:148] Top shape: 24 160 14 14 (752640)
I0403 18:28:47.784651  7009 net.cpp:156] Memory required for data: 1224087072
I0403 18:28:47.784665  7009 layer_factory.hpp:77] Creating layer inception_4e/3x3
I0403 18:28:47.784687  7009 net.cpp:91] Creating Layer inception_4e/3x3
I0403 18:28:47.784704  7009 net.cpp:425] inception_4e/3x3 <- inception_4e/3x3_reduce
I0403 18:28:47.784723  7009 net.cpp:399] inception_4e/3x3 -> inception_4e/3x3
I0403 18:28:47.789786  7009 net.cpp:141] Setting up inception_4e/3x3
I0403 18:28:47.789832  7009 net.cpp:148] Top shape: 24 320 14 14 (1505280)
I0403 18:28:47.789849  7009 net.cpp:156] Memory required for data: 1230108192
I0403 18:28:47.789868  7009 layer_factory.hpp:77] Creating layer inception_4e/relu_3x3
I0403 18:28:47.789886  7009 net.cpp:91] Creating Layer inception_4e/relu_3x3
I0403 18:28:47.789903  7009 net.cpp:425] inception_4e/relu_3x3 <- inception_4e/3x3
I0403 18:28:47.789921  7009 net.cpp:386] inception_4e/relu_3x3 -> inception_4e/3x3 (in-place)
I0403 18:28:47.790243  7009 net.cpp:141] Setting up inception_4e/relu_3x3
I0403 18:28:47.790277  7009 net.cpp:148] Top shape: 24 320 14 14 (1505280)
I0403 18:28:47.790295  7009 net.cpp:156] Memory required for data: 1236129312
I0403 18:28:47.790313  7009 layer_factory.hpp:77] Creating layer inception_4e/5x5_reduce
I0403 18:28:47.790336  7009 net.cpp:91] Creating Layer inception_4e/5x5_reduce
I0403 18:28:47.790354  7009 net.cpp:425] inception_4e/5x5_reduce <- inception_4d/output_inception_4d/output_0_split_3
I0403 18:28:47.790377  7009 net.cpp:399] inception_4e/5x5_reduce -> inception_4e/5x5_reduce
I0403 18:28:47.791507  7009 net.cpp:141] Setting up inception_4e/5x5_reduce
I0403 18:28:47.791535  7009 net.cpp:148] Top shape: 24 32 14 14 (150528)
I0403 18:28:47.791551  7009 net.cpp:156] Memory required for data: 1236731424
I0403 18:28:47.791569  7009 layer_factory.hpp:77] Creating layer inception_4e/relu_5x5_reduce
I0403 18:28:47.791590  7009 net.cpp:91] Creating Layer inception_4e/relu_5x5_reduce
I0403 18:28:47.791607  7009 net.cpp:425] inception_4e/relu_5x5_reduce <- inception_4e/5x5_reduce
I0403 18:28:47.791625  7009 net.cpp:386] inception_4e/relu_5x5_reduce -> inception_4e/5x5_reduce (in-place)
I0403 18:28:47.791930  7009 net.cpp:141] Setting up inception_4e/relu_5x5_reduce
I0403 18:28:47.791957  7009 net.cpp:148] Top shape: 24 32 14 14 (150528)
I0403 18:28:47.791972  7009 net.cpp:156] Memory required for data: 1237333536
I0403 18:28:47.791987  7009 layer_factory.hpp:77] Creating layer inception_4e/5x5
I0403 18:28:47.792027  7009 net.cpp:91] Creating Layer inception_4e/5x5
I0403 18:28:47.792047  7009 net.cpp:425] inception_4e/5x5 <- inception_4e/5x5_reduce
I0403 18:28:47.792068  7009 net.cpp:399] inception_4e/5x5 -> inception_4e/5x5
I0403 18:28:47.793973  7009 net.cpp:141] Setting up inception_4e/5x5
I0403 18:28:47.794003  7009 net.cpp:148] Top shape: 24 128 14 14 (602112)
I0403 18:28:47.794018  7009 net.cpp:156] Memory required for data: 1239741984
I0403 18:28:47.794036  7009 layer_factory.hpp:77] Creating layer inception_4e/relu_5x5
I0403 18:28:47.794057  7009 net.cpp:91] Creating Layer inception_4e/relu_5x5
I0403 18:28:47.794075  7009 net.cpp:425] inception_4e/relu_5x5 <- inception_4e/5x5
I0403 18:28:47.794093  7009 net.cpp:386] inception_4e/relu_5x5 -> inception_4e/5x5 (in-place)
I0403 18:28:47.794306  7009 net.cpp:141] Setting up inception_4e/relu_5x5
I0403 18:28:47.794332  7009 net.cpp:148] Top shape: 24 128 14 14 (602112)
I0403 18:28:47.794347  7009 net.cpp:156] Memory required for data: 1242150432
I0403 18:28:47.794360  7009 layer_factory.hpp:77] Creating layer inception_4e/pool
I0403 18:28:47.794383  7009 net.cpp:91] Creating Layer inception_4e/pool
I0403 18:28:47.794401  7009 net.cpp:425] inception_4e/pool <- inception_4d/output_inception_4d/output_0_split_4
I0403 18:28:47.794420  7009 net.cpp:399] inception_4e/pool -> inception_4e/pool
I0403 18:28:47.794492  7009 net.cpp:141] Setting up inception_4e/pool
I0403 18:28:47.794517  7009 net.cpp:148] Top shape: 24 528 14 14 (2483712)
I0403 18:28:47.794533  7009 net.cpp:156] Memory required for data: 1252085280
I0403 18:28:47.794548  7009 layer_factory.hpp:77] Creating layer inception_4e/pool_proj
I0403 18:28:47.794569  7009 net.cpp:91] Creating Layer inception_4e/pool_proj
I0403 18:28:47.794587  7009 net.cpp:425] inception_4e/pool_proj <- inception_4e/pool
I0403 18:28:47.794607  7009 net.cpp:399] inception_4e/pool_proj -> inception_4e/pool_proj
I0403 18:28:47.796216  7009 net.cpp:141] Setting up inception_4e/pool_proj
I0403 18:28:47.796259  7009 net.cpp:148] Top shape: 24 128 14 14 (602112)
I0403 18:28:47.796282  7009 net.cpp:156] Memory required for data: 1254493728
I0403 18:28:47.796301  7009 layer_factory.hpp:77] Creating layer inception_4e/relu_pool_proj
I0403 18:28:47.796321  7009 net.cpp:91] Creating Layer inception_4e/relu_pool_proj
I0403 18:28:47.796337  7009 net.cpp:425] inception_4e/relu_pool_proj <- inception_4e/pool_proj
I0403 18:28:47.796357  7009 net.cpp:386] inception_4e/relu_pool_proj -> inception_4e/pool_proj (in-place)
I0403 18:28:47.796668  7009 net.cpp:141] Setting up inception_4e/relu_pool_proj
I0403 18:28:47.796695  7009 net.cpp:148] Top shape: 24 128 14 14 (602112)
I0403 18:28:47.796710  7009 net.cpp:156] Memory required for data: 1256902176
I0403 18:28:47.796726  7009 layer_factory.hpp:77] Creating layer inception_4e/output
I0403 18:28:47.796744  7009 net.cpp:91] Creating Layer inception_4e/output
I0403 18:28:47.796761  7009 net.cpp:425] inception_4e/output <- inception_4e/1x1
I0403 18:28:47.796777  7009 net.cpp:425] inception_4e/output <- inception_4e/3x3
I0403 18:28:47.796793  7009 net.cpp:425] inception_4e/output <- inception_4e/5x5
I0403 18:28:47.796809  7009 net.cpp:425] inception_4e/output <- inception_4e/pool_proj
I0403 18:28:47.796829  7009 net.cpp:399] inception_4e/output -> inception_4e/output
I0403 18:28:47.796880  7009 net.cpp:141] Setting up inception_4e/output
I0403 18:28:47.796905  7009 net.cpp:148] Top shape: 24 832 14 14 (3913728)
I0403 18:28:47.796919  7009 net.cpp:156] Memory required for data: 1272557088
I0403 18:28:47.796934  7009 layer_factory.hpp:77] Creating layer pool4/3x3_s2
I0403 18:28:47.796954  7009 net.cpp:91] Creating Layer pool4/3x3_s2
I0403 18:28:47.796972  7009 net.cpp:425] pool4/3x3_s2 <- inception_4e/output
I0403 18:28:47.796990  7009 net.cpp:399] pool4/3x3_s2 -> pool4/3x3_s2
I0403 18:28:47.797062  7009 net.cpp:141] Setting up pool4/3x3_s2
I0403 18:28:47.797087  7009 net.cpp:148] Top shape: 24 832 7 7 (978432)
I0403 18:28:47.797102  7009 net.cpp:156] Memory required for data: 1276470816
I0403 18:28:47.797117  7009 layer_factory.hpp:77] Creating layer pool4/3x3_s2_pool4/3x3_s2_0_split
I0403 18:28:47.797137  7009 net.cpp:91] Creating Layer pool4/3x3_s2_pool4/3x3_s2_0_split
I0403 18:28:47.797154  7009 net.cpp:425] pool4/3x3_s2_pool4/3x3_s2_0_split <- pool4/3x3_s2
I0403 18:28:47.797173  7009 net.cpp:399] pool4/3x3_s2_pool4/3x3_s2_0_split -> pool4/3x3_s2_pool4/3x3_s2_0_split_0
I0403 18:28:47.797193  7009 net.cpp:399] pool4/3x3_s2_pool4/3x3_s2_0_split -> pool4/3x3_s2_pool4/3x3_s2_0_split_1
I0403 18:28:47.797212  7009 net.cpp:399] pool4/3x3_s2_pool4/3x3_s2_0_split -> pool4/3x3_s2_pool4/3x3_s2_0_split_2
I0403 18:28:47.797235  7009 net.cpp:399] pool4/3x3_s2_pool4/3x3_s2_0_split -> pool4/3x3_s2_pool4/3x3_s2_0_split_3
I0403 18:28:47.797338  7009 net.cpp:141] Setting up pool4/3x3_s2_pool4/3x3_s2_0_split
I0403 18:28:47.797363  7009 net.cpp:148] Top shape: 24 832 7 7 (978432)
I0403 18:28:47.797380  7009 net.cpp:148] Top shape: 24 832 7 7 (978432)
I0403 18:28:47.797397  7009 net.cpp:148] Top shape: 24 832 7 7 (978432)
I0403 18:28:47.797413  7009 net.cpp:148] Top shape: 24 832 7 7 (978432)
I0403 18:28:47.797427  7009 net.cpp:156] Memory required for data: 1292125728
I0403 18:28:47.797442  7009 layer_factory.hpp:77] Creating layer inception_5a/1x1
I0403 18:28:47.797466  7009 net.cpp:91] Creating Layer inception_5a/1x1
I0403 18:28:47.797484  7009 net.cpp:425] inception_5a/1x1 <- pool4/3x3_s2_pool4/3x3_s2_0_split_0
I0403 18:28:47.797507  7009 net.cpp:399] inception_5a/1x1 -> inception_5a/1x1
I0403 18:28:47.800601  7009 net.cpp:141] Setting up inception_5a/1x1
I0403 18:28:47.800632  7009 net.cpp:148] Top shape: 24 256 7 7 (301056)
I0403 18:28:47.800648  7009 net.cpp:156] Memory required for data: 1293329952
I0403 18:28:47.800668  7009 layer_factory.hpp:77] Creating layer inception_5a/relu_1x1
I0403 18:28:47.800690  7009 net.cpp:91] Creating Layer inception_5a/relu_1x1
I0403 18:28:47.800709  7009 net.cpp:425] inception_5a/relu_1x1 <- inception_5a/1x1
I0403 18:28:47.800727  7009 net.cpp:386] inception_5a/relu_1x1 -> inception_5a/1x1 (in-place)
I0403 18:28:47.801059  7009 net.cpp:141] Setting up inception_5a/relu_1x1
I0403 18:28:47.801086  7009 net.cpp:148] Top shape: 24 256 7 7 (301056)
I0403 18:28:47.801103  7009 net.cpp:156] Memory required for data: 1294534176
I0403 18:28:47.801118  7009 layer_factory.hpp:77] Creating layer inception_5a/3x3_reduce
I0403 18:28:47.801141  7009 net.cpp:91] Creating Layer inception_5a/3x3_reduce
I0403 18:28:47.801159  7009 net.cpp:425] inception_5a/3x3_reduce <- pool4/3x3_s2_pool4/3x3_s2_0_split_1
I0403 18:28:47.801182  7009 net.cpp:399] inception_5a/3x3_reduce -> inception_5a/3x3_reduce
I0403 18:28:47.803829  7009 net.cpp:141] Setting up inception_5a/3x3_reduce
I0403 18:28:47.803863  7009 net.cpp:148] Top shape: 24 160 7 7 (188160)
I0403 18:28:47.803879  7009 net.cpp:156] Memory required for data: 1295286816
I0403 18:28:47.803899  7009 layer_factory.hpp:77] Creating layer inception_5a/relu_3x3_reduce
I0403 18:28:47.803917  7009 net.cpp:91] Creating Layer inception_5a/relu_3x3_reduce
I0403 18:28:47.803933  7009 net.cpp:425] inception_5a/relu_3x3_reduce <- inception_5a/3x3_reduce
I0403 18:28:47.803957  7009 net.cpp:386] inception_5a/relu_3x3_reduce -> inception_5a/3x3_reduce (in-place)
I0403 18:28:47.804160  7009 net.cpp:141] Setting up inception_5a/relu_3x3_reduce
I0403 18:28:47.804186  7009 net.cpp:148] Top shape: 24 160 7 7 (188160)
I0403 18:28:47.804201  7009 net.cpp:156] Memory required for data: 1296039456
I0403 18:28:47.804219  7009 layer_factory.hpp:77] Creating layer inception_5a/3x3
I0403 18:28:47.804240  7009 net.cpp:91] Creating Layer inception_5a/3x3
I0403 18:28:47.804260  7009 net.cpp:425] inception_5a/3x3 <- inception_5a/3x3_reduce
I0403 18:28:47.804287  7009 net.cpp:399] inception_5a/3x3 -> inception_5a/3x3
I0403 18:28:47.809643  7009 net.cpp:141] Setting up inception_5a/3x3
I0403 18:28:47.809674  7009 net.cpp:148] Top shape: 24 320 7 7 (376320)
I0403 18:28:47.809690  7009 net.cpp:156] Memory required for data: 1297544736
I0403 18:28:47.809710  7009 layer_factory.hpp:77] Creating layer inception_5a/relu_3x3
I0403 18:28:47.809731  7009 net.cpp:91] Creating Layer inception_5a/relu_3x3
I0403 18:28:47.809748  7009 net.cpp:425] inception_5a/relu_3x3 <- inception_5a/3x3
I0403 18:28:47.809767  7009 net.cpp:386] inception_5a/relu_3x3 -> inception_5a/3x3 (in-place)
I0403 18:28:47.810091  7009 net.cpp:141] Setting up inception_5a/relu_3x3
I0403 18:28:47.810118  7009 net.cpp:148] Top shape: 24 320 7 7 (376320)
I0403 18:28:47.810134  7009 net.cpp:156] Memory required for data: 1299050016
I0403 18:28:47.810150  7009 layer_factory.hpp:77] Creating layer inception_5a/5x5_reduce
I0403 18:28:47.810174  7009 net.cpp:91] Creating Layer inception_5a/5x5_reduce
I0403 18:28:47.810192  7009 net.cpp:425] inception_5a/5x5_reduce <- pool4/3x3_s2_pool4/3x3_s2_0_split_2
I0403 18:28:47.810230  7009 net.cpp:399] inception_5a/5x5_reduce -> inception_5a/5x5_reduce
I0403 18:28:47.811518  7009 net.cpp:141] Setting up inception_5a/5x5_reduce
I0403 18:28:47.811561  7009 net.cpp:148] Top shape: 24 32 7 7 (37632)
I0403 18:28:47.811578  7009 net.cpp:156] Memory required for data: 1299200544
I0403 18:28:47.811599  7009 layer_factory.hpp:77] Creating layer inception_5a/relu_5x5_reduce
I0403 18:28:47.811621  7009 net.cpp:91] Creating Layer inception_5a/relu_5x5_reduce
I0403 18:28:47.811640  7009 net.cpp:425] inception_5a/relu_5x5_reduce <- inception_5a/5x5_reduce
I0403 18:28:47.811657  7009 net.cpp:386] inception_5a/relu_5x5_reduce -> inception_5a/5x5_reduce (in-place)
I0403 18:28:47.811977  7009 net.cpp:141] Setting up inception_5a/relu_5x5_reduce
I0403 18:28:47.812005  7009 net.cpp:148] Top shape: 24 32 7 7 (37632)
I0403 18:28:47.812021  7009 net.cpp:156] Memory required for data: 1299351072
I0403 18:28:47.812037  7009 layer_factory.hpp:77] Creating layer inception_5a/5x5
I0403 18:28:47.812060  7009 net.cpp:91] Creating Layer inception_5a/5x5
I0403 18:28:47.812079  7009 net.cpp:425] inception_5a/5x5 <- inception_5a/5x5_reduce
I0403 18:28:47.812103  7009 net.cpp:399] inception_5a/5x5 -> inception_5a/5x5
I0403 18:28:47.813944  7009 net.cpp:141] Setting up inception_5a/5x5
I0403 18:28:47.813987  7009 net.cpp:148] Top shape: 24 128 7 7 (150528)
I0403 18:28:47.814002  7009 net.cpp:156] Memory required for data: 1299953184
I0403 18:28:47.814023  7009 layer_factory.hpp:77] Creating layer inception_5a/relu_5x5
I0403 18:28:47.814043  7009 net.cpp:91] Creating Layer inception_5a/relu_5x5
I0403 18:28:47.814062  7009 net.cpp:425] inception_5a/relu_5x5 <- inception_5a/5x5
I0403 18:28:47.814080  7009 net.cpp:386] inception_5a/relu_5x5 -> inception_5a/5x5 (in-place)
I0403 18:28:47.814301  7009 net.cpp:141] Setting up inception_5a/relu_5x5
I0403 18:28:47.814327  7009 net.cpp:148] Top shape: 24 128 7 7 (150528)
I0403 18:28:47.814342  7009 net.cpp:156] Memory required for data: 1300555296
I0403 18:28:47.814357  7009 layer_factory.hpp:77] Creating layer inception_5a/pool
I0403 18:28:47.814378  7009 net.cpp:91] Creating Layer inception_5a/pool
I0403 18:28:47.814393  7009 net.cpp:425] inception_5a/pool <- pool4/3x3_s2_pool4/3x3_s2_0_split_3
I0403 18:28:47.814412  7009 net.cpp:399] inception_5a/pool -> inception_5a/pool
I0403 18:28:47.814487  7009 net.cpp:141] Setting up inception_5a/pool
I0403 18:28:47.814510  7009 net.cpp:148] Top shape: 24 832 7 7 (978432)
I0403 18:28:47.814527  7009 net.cpp:156] Memory required for data: 1304469024
I0403 18:28:47.814541  7009 layer_factory.hpp:77] Creating layer inception_5a/pool_proj
I0403 18:28:47.814563  7009 net.cpp:91] Creating Layer inception_5a/pool_proj
I0403 18:28:47.814580  7009 net.cpp:425] inception_5a/pool_proj <- inception_5a/pool
I0403 18:28:47.814601  7009 net.cpp:399] inception_5a/pool_proj -> inception_5a/pool_proj
I0403 18:28:47.816970  7009 net.cpp:141] Setting up inception_5a/pool_proj
I0403 18:28:47.816999  7009 net.cpp:148] Top shape: 24 128 7 7 (150528)
I0403 18:28:47.817015  7009 net.cpp:156] Memory required for data: 1305071136
I0403 18:28:47.817034  7009 layer_factory.hpp:77] Creating layer inception_5a/relu_pool_proj
I0403 18:28:47.817052  7009 net.cpp:91] Creating Layer inception_5a/relu_pool_proj
I0403 18:28:47.817070  7009 net.cpp:425] inception_5a/relu_pool_proj <- inception_5a/pool_proj
I0403 18:28:47.817090  7009 net.cpp:386] inception_5a/relu_pool_proj -> inception_5a/pool_proj (in-place)
I0403 18:28:47.817399  7009 net.cpp:141] Setting up inception_5a/relu_pool_proj
I0403 18:28:47.817425  7009 net.cpp:148] Top shape: 24 128 7 7 (150528)
I0403 18:28:47.817441  7009 net.cpp:156] Memory required for data: 1305673248
I0403 18:28:47.817456  7009 layer_factory.hpp:77] Creating layer inception_5a/output
I0403 18:28:47.817473  7009 net.cpp:91] Creating Layer inception_5a/output
I0403 18:28:47.817489  7009 net.cpp:425] inception_5a/output <- inception_5a/1x1
I0403 18:28:47.817507  7009 net.cpp:425] inception_5a/output <- inception_5a/3x3
I0403 18:28:47.817523  7009 net.cpp:425] inception_5a/output <- inception_5a/5x5
I0403 18:28:47.817538  7009 net.cpp:425] inception_5a/output <- inception_5a/pool_proj
I0403 18:28:47.817558  7009 net.cpp:399] inception_5a/output -> inception_5a/output
I0403 18:28:47.817608  7009 net.cpp:141] Setting up inception_5a/output
I0403 18:28:47.817637  7009 net.cpp:148] Top shape: 24 832 7 7 (978432)
I0403 18:28:47.817652  7009 net.cpp:156] Memory required for data: 1309586976
I0403 18:28:47.817668  7009 layer_factory.hpp:77] Creating layer inception_5a/output_inception_5a/output_0_split
I0403 18:28:47.817685  7009 net.cpp:91] Creating Layer inception_5a/output_inception_5a/output_0_split
I0403 18:28:47.817700  7009 net.cpp:425] inception_5a/output_inception_5a/output_0_split <- inception_5a/output
I0403 18:28:47.817718  7009 net.cpp:399] inception_5a/output_inception_5a/output_0_split -> inception_5a/output_inception_5a/output_0_split_0
I0403 18:28:47.817739  7009 net.cpp:399] inception_5a/output_inception_5a/output_0_split -> inception_5a/output_inception_5a/output_0_split_1
I0403 18:28:47.817762  7009 net.cpp:399] inception_5a/output_inception_5a/output_0_split -> inception_5a/output_inception_5a/output_0_split_2
I0403 18:28:47.817783  7009 net.cpp:399] inception_5a/output_inception_5a/output_0_split -> inception_5a/output_inception_5a/output_0_split_3
I0403 18:28:47.817898  7009 net.cpp:141] Setting up inception_5a/output_inception_5a/output_0_split
I0403 18:28:47.817922  7009 net.cpp:148] Top shape: 24 832 7 7 (978432)
I0403 18:28:47.817939  7009 net.cpp:148] Top shape: 24 832 7 7 (978432)
I0403 18:28:47.817955  7009 net.cpp:148] Top shape: 24 832 7 7 (978432)
I0403 18:28:47.817970  7009 net.cpp:148] Top shape: 24 832 7 7 (978432)
I0403 18:28:47.817983  7009 net.cpp:156] Memory required for data: 1325241888
I0403 18:28:47.817999  7009 layer_factory.hpp:77] Creating layer inception_5b/1x1
I0403 18:28:47.818022  7009 net.cpp:91] Creating Layer inception_5b/1x1
I0403 18:28:47.818038  7009 net.cpp:425] inception_5b/1x1 <- inception_5a/output_inception_5a/output_0_split_0
I0403 18:28:47.818059  7009 net.cpp:399] inception_5b/1x1 -> inception_5b/1x1
I0403 18:28:47.821995  7009 net.cpp:141] Setting up inception_5b/1x1
I0403 18:28:47.822026  7009 net.cpp:148] Top shape: 24 384 7 7 (451584)
I0403 18:28:47.822043  7009 net.cpp:156] Memory required for data: 1327048224
I0403 18:28:47.822062  7009 layer_factory.hpp:77] Creating layer inception_5b/relu_1x1
I0403 18:28:47.822080  7009 net.cpp:91] Creating Layer inception_5b/relu_1x1
I0403 18:28:47.822098  7009 net.cpp:425] inception_5b/relu_1x1 <- inception_5b/1x1
I0403 18:28:47.822118  7009 net.cpp:386] inception_5b/relu_1x1 -> inception_5b/1x1 (in-place)
I0403 18:28:47.822443  7009 net.cpp:141] Setting up inception_5b/relu_1x1
I0403 18:28:47.822474  7009 net.cpp:148] Top shape: 24 384 7 7 (451584)
I0403 18:28:47.822489  7009 net.cpp:156] Memory required for data: 1328854560
I0403 18:28:47.822504  7009 layer_factory.hpp:77] Creating layer inception_5b/3x3_reduce
I0403 18:28:47.822527  7009 net.cpp:91] Creating Layer inception_5b/3x3_reduce
I0403 18:28:47.822545  7009 net.cpp:425] inception_5b/3x3_reduce <- inception_5a/output_inception_5a/output_0_split_1
I0403 18:28:47.822576  7009 net.cpp:399] inception_5b/3x3_reduce -> inception_5b/3x3_reduce
I0403 18:28:47.825392  7009 net.cpp:141] Setting up inception_5b/3x3_reduce
I0403 18:28:47.825422  7009 net.cpp:148] Top shape: 24 192 7 7 (225792)
I0403 18:28:47.825438  7009 net.cpp:156] Memory required for data: 1329757728
I0403 18:28:47.825455  7009 layer_factory.hpp:77] Creating layer inception_5b/relu_3x3_reduce
I0403 18:28:47.825474  7009 net.cpp:91] Creating Layer inception_5b/relu_3x3_reduce
I0403 18:28:47.825489  7009 net.cpp:425] inception_5b/relu_3x3_reduce <- inception_5b/3x3_reduce
I0403 18:28:47.825508  7009 net.cpp:386] inception_5b/relu_3x3_reduce -> inception_5b/3x3_reduce (in-place)
I0403 18:28:47.825706  7009 net.cpp:141] Setting up inception_5b/relu_3x3_reduce
I0403 18:28:47.825732  7009 net.cpp:148] Top shape: 24 192 7 7 (225792)
I0403 18:28:47.825747  7009 net.cpp:156] Memory required for data: 1330660896
I0403 18:28:47.825762  7009 layer_factory.hpp:77] Creating layer inception_5b/3x3
I0403 18:28:47.825783  7009 net.cpp:91] Creating Layer inception_5b/3x3
I0403 18:28:47.825801  7009 net.cpp:425] inception_5b/3x3 <- inception_5b/3x3_reduce
I0403 18:28:47.825824  7009 net.cpp:399] inception_5b/3x3 -> inception_5b/3x3
I0403 18:28:47.832798  7009 net.cpp:141] Setting up inception_5b/3x3
I0403 18:28:47.832828  7009 net.cpp:148] Top shape: 24 384 7 7 (451584)
I0403 18:28:47.832844  7009 net.cpp:156] Memory required for data: 1332467232
I0403 18:28:47.832862  7009 layer_factory.hpp:77] Creating layer inception_5b/relu_3x3
I0403 18:28:47.832880  7009 net.cpp:91] Creating Layer inception_5b/relu_3x3
I0403 18:28:47.832896  7009 net.cpp:425] inception_5b/relu_3x3 <- inception_5b/3x3
I0403 18:28:47.832916  7009 net.cpp:386] inception_5b/relu_3x3 -> inception_5b/3x3 (in-place)
I0403 18:28:47.833233  7009 net.cpp:141] Setting up inception_5b/relu_3x3
I0403 18:28:47.833261  7009 net.cpp:148] Top shape: 24 384 7 7 (451584)
I0403 18:28:47.833282  7009 net.cpp:156] Memory required for data: 1334273568
I0403 18:28:47.833298  7009 layer_factory.hpp:77] Creating layer inception_5b/5x5_reduce
I0403 18:28:47.833338  7009 net.cpp:91] Creating Layer inception_5b/5x5_reduce
I0403 18:28:47.833356  7009 net.cpp:425] inception_5b/5x5_reduce <- inception_5a/output_inception_5a/output_0_split_2
I0403 18:28:47.833381  7009 net.cpp:399] inception_5b/5x5_reduce -> inception_5b/5x5_reduce
I0403 18:28:47.834745  7009 net.cpp:141] Setting up inception_5b/5x5_reduce
I0403 18:28:47.834776  7009 net.cpp:148] Top shape: 24 48 7 7 (56448)
I0403 18:28:47.834794  7009 net.cpp:156] Memory required for data: 1334499360
I0403 18:28:47.834813  7009 layer_factory.hpp:77] Creating layer inception_5b/relu_5x5_reduce
I0403 18:28:47.834831  7009 net.cpp:91] Creating Layer inception_5b/relu_5x5_reduce
I0403 18:28:47.834848  7009 net.cpp:425] inception_5b/relu_5x5_reduce <- inception_5b/5x5_reduce
I0403 18:28:47.834869  7009 net.cpp:386] inception_5b/relu_5x5_reduce -> inception_5b/5x5_reduce (in-place)
I0403 18:28:47.835269  7009 net.cpp:141] Setting up inception_5b/relu_5x5_reduce
I0403 18:28:47.835302  7009 net.cpp:148] Top shape: 24 48 7 7 (56448)
I0403 18:28:47.835319  7009 net.cpp:156] Memory required for data: 1334725152
I0403 18:28:47.835333  7009 layer_factory.hpp:77] Creating layer inception_5b/5x5
I0403 18:28:47.835355  7009 net.cpp:91] Creating Layer inception_5b/5x5
I0403 18:28:47.835373  7009 net.cpp:425] inception_5b/5x5 <- inception_5b/5x5_reduce
I0403 18:28:47.835392  7009 net.cpp:399] inception_5b/5x5 -> inception_5b/5x5
I0403 18:28:47.837543  7009 net.cpp:141] Setting up inception_5b/5x5
I0403 18:28:47.837574  7009 net.cpp:148] Top shape: 24 128 7 7 (150528)
I0403 18:28:47.837589  7009 net.cpp:156] Memory required for data: 1335327264
I0403 18:28:47.837610  7009 layer_factory.hpp:77] Creating layer inception_5b/relu_5x5
I0403 18:28:47.837630  7009 net.cpp:91] Creating Layer inception_5b/relu_5x5
I0403 18:28:47.837646  7009 net.cpp:425] inception_5b/relu_5x5 <- inception_5b/5x5
I0403 18:28:47.837664  7009 net.cpp:386] inception_5b/relu_5x5 -> inception_5b/5x5 (in-place)
I0403 18:28:47.837873  7009 net.cpp:141] Setting up inception_5b/relu_5x5
I0403 18:28:47.837899  7009 net.cpp:148] Top shape: 24 128 7 7 (150528)
I0403 18:28:47.837918  7009 net.cpp:156] Memory required for data: 1335929376
I0403 18:28:47.837934  7009 layer_factory.hpp:77] Creating layer inception_5b/pool
I0403 18:28:47.837951  7009 net.cpp:91] Creating Layer inception_5b/pool
I0403 18:28:47.837967  7009 net.cpp:425] inception_5b/pool <- inception_5a/output_inception_5a/output_0_split_3
I0403 18:28:47.837986  7009 net.cpp:399] inception_5b/pool -> inception_5b/pool
I0403 18:28:47.838064  7009 net.cpp:141] Setting up inception_5b/pool
I0403 18:28:47.838089  7009 net.cpp:148] Top shape: 24 832 7 7 (978432)
I0403 18:28:47.838104  7009 net.cpp:156] Memory required for data: 1339843104
I0403 18:28:47.838119  7009 layer_factory.hpp:77] Creating layer inception_5b/pool_proj
I0403 18:28:47.838142  7009 net.cpp:91] Creating Layer inception_5b/pool_proj
I0403 18:28:47.838160  7009 net.cpp:425] inception_5b/pool_proj <- inception_5b/pool
I0403 18:28:47.838181  7009 net.cpp:399] inception_5b/pool_proj -> inception_5b/pool_proj
I0403 18:28:47.840653  7009 net.cpp:141] Setting up inception_5b/pool_proj
I0403 18:28:47.840683  7009 net.cpp:148] Top shape: 24 128 7 7 (150528)
I0403 18:28:47.840699  7009 net.cpp:156] Memory required for data: 1340445216
I0403 18:28:47.840718  7009 layer_factory.hpp:77] Creating layer inception_5b/relu_pool_proj
I0403 18:28:47.840736  7009 net.cpp:91] Creating Layer inception_5b/relu_pool_proj
I0403 18:28:47.840756  7009 net.cpp:425] inception_5b/relu_pool_proj <- inception_5b/pool_proj
I0403 18:28:47.840775  7009 net.cpp:386] inception_5b/relu_pool_proj -> inception_5b/pool_proj (in-place)
I0403 18:28:47.841091  7009 net.cpp:141] Setting up inception_5b/relu_pool_proj
I0403 18:28:47.841120  7009 net.cpp:148] Top shape: 24 128 7 7 (150528)
I0403 18:28:47.841135  7009 net.cpp:156] Memory required for data: 1341047328
I0403 18:28:47.841150  7009 layer_factory.hpp:77] Creating layer inception_5b/output
I0403 18:28:47.841168  7009 net.cpp:91] Creating Layer inception_5b/output
I0403 18:28:47.841199  7009 net.cpp:425] inception_5b/output <- inception_5b/1x1
I0403 18:28:47.841218  7009 net.cpp:425] inception_5b/output <- inception_5b/3x3
I0403 18:28:47.841236  7009 net.cpp:425] inception_5b/output <- inception_5b/5x5
I0403 18:28:47.841253  7009 net.cpp:425] inception_5b/output <- inception_5b/pool_proj
I0403 18:28:47.841280  7009 net.cpp:399] inception_5b/output -> inception_5b/output
I0403 18:28:47.841336  7009 net.cpp:141] Setting up inception_5b/output
I0403 18:28:47.841363  7009 net.cpp:148] Top shape: 24 1024 7 7 (1204224)
I0403 18:28:47.841379  7009 net.cpp:156] Memory required for data: 1345864224
I0403 18:28:47.841394  7009 layer_factory.hpp:77] Creating layer pool5/7x7_s1
I0403 18:28:47.841413  7009 net.cpp:91] Creating Layer pool5/7x7_s1
I0403 18:28:47.841428  7009 net.cpp:425] pool5/7x7_s1 <- inception_5b/output
I0403 18:28:47.841450  7009 net.cpp:399] pool5/7x7_s1 -> pool5/7x7_s1
I0403 18:28:47.841681  7009 net.cpp:141] Setting up pool5/7x7_s1
I0403 18:28:47.841707  7009 net.cpp:148] Top shape: 24 1024 1 1 (24576)
I0403 18:28:47.841723  7009 net.cpp:156] Memory required for data: 1345962528
I0403 18:28:47.841738  7009 layer_factory.hpp:77] Creating layer pool5/drop_7x7_s1
I0403 18:28:47.841758  7009 net.cpp:91] Creating Layer pool5/drop_7x7_s1
I0403 18:28:47.841773  7009 net.cpp:425] pool5/drop_7x7_s1 <- pool5/7x7_s1
I0403 18:28:47.841794  7009 net.cpp:386] pool5/drop_7x7_s1 -> pool5/7x7_s1 (in-place)
I0403 18:28:47.841845  7009 net.cpp:141] Setting up pool5/drop_7x7_s1
I0403 18:28:47.841871  7009 net.cpp:148] Top shape: 24 1024 1 1 (24576)
I0403 18:28:47.841886  7009 net.cpp:156] Memory required for data: 1346060832
I0403 18:28:47.841902  7009 layer_factory.hpp:77] Creating layer loss3/classifier_plantvillage
I0403 18:28:47.841920  7009 net.cpp:91] Creating Layer loss3/classifier_plantvillage
I0403 18:28:47.841936  7009 net.cpp:425] loss3/classifier_plantvillage <- pool5/7x7_s1
I0403 18:28:47.841958  7009 net.cpp:399] loss3/classifier_plantvillage -> loss3/classifier_plantvillage
I0403 18:28:47.842432  7009 net.cpp:141] Setting up loss3/classifier_plantvillage
I0403 18:28:47.842463  7009 net.cpp:148] Top shape: 24 38 (912)
I0403 18:28:47.842492  7009 net.cpp:156] Memory required for data: 1346064480
I0403 18:28:47.842511  7009 layer_factory.hpp:77] Creating layer loss3/classifier_plantvillage_loss3/classifier_plantvillage_0_split
I0403 18:28:47.842530  7009 net.cpp:91] Creating Layer loss3/classifier_plantvillage_loss3/classifier_plantvillage_0_split
I0403 18:28:47.842546  7009 net.cpp:425] loss3/classifier_plantvillage_loss3/classifier_plantvillage_0_split <- loss3/classifier_plantvillage
I0403 18:28:47.842566  7009 net.cpp:399] loss3/classifier_plantvillage_loss3/classifier_plantvillage_0_split -> loss3/classifier_plantvillage_loss3/classifier_plantvillage_0_split_0
I0403 18:28:47.842586  7009 net.cpp:399] loss3/classifier_plantvillage_loss3/classifier_plantvillage_0_split -> loss3/classifier_plantvillage_loss3/classifier_plantvillage_0_split_1
I0403 18:28:47.842609  7009 net.cpp:399] loss3/classifier_plantvillage_loss3/classifier_plantvillage_0_split -> loss3/classifier_plantvillage_loss3/classifier_plantvillage_0_split_2
I0403 18:28:47.842631  7009 net.cpp:399] loss3/classifier_plantvillage_loss3/classifier_plantvillage_0_split -> loss3/classifier_plantvillage_loss3/classifier_plantvillage_0_split_3
I0403 18:28:47.842738  7009 net.cpp:141] Setting up loss3/classifier_plantvillage_loss3/classifier_plantvillage_0_split
I0403 18:28:47.842762  7009 net.cpp:148] Top shape: 24 38 (912)
I0403 18:28:47.842779  7009 net.cpp:148] Top shape: 24 38 (912)
I0403 18:28:47.842797  7009 net.cpp:148] Top shape: 24 38 (912)
I0403 18:28:47.842811  7009 net.cpp:148] Top shape: 24 38 (912)
I0403 18:28:47.842825  7009 net.cpp:156] Memory required for data: 1346079072
I0403 18:28:47.842840  7009 layer_factory.hpp:77] Creating layer loss1/loss
I0403 18:28:47.842864  7009 net.cpp:91] Creating Layer loss1/loss
I0403 18:28:47.842883  7009 net.cpp:425] loss1/loss <- loss1/classifier_plantvillage_loss1/classifier_plantvillage_0_split_0
I0403 18:28:47.842914  7009 net.cpp:425] loss1/loss <- label_data_1_split_0
…
