…
I0403 18:53:22.682526  8031 net.cpp:313] The NetState phase (1) differed from the phase (0) specified by a rule in layer data
I0403 18:53:22.683930  8031 net.cpp:49] Initializing net from parameters: 
state {
  phase: TEST
}
layer {
  name: "data"
  type: "Data"
  top: "data"
  top: "label"
  include {
    phase: TEST
  }
  transform_param {
    mirror: false
    crop_size: 224
    mean_file: "/home/mohanty/data/final_dataset/lmdb/grayscale-40-60/mean.binaryproto"
  }
  data_param {
    source: "/home/mohanty/data/final_dataset/lmdb/grayscale-40-60/test_db"
    batch_size: 24
    backend: LMDB
  }
}
layer {
  name: "conv1/7x7_s2"
  type: "Convolution"
  bottom: "data"
  top: "conv1/7x7_s2"
  param {
    lr_mult: 1
    decay_mult: 1
  }
  param {
    lr_mult: 2
    decay_mult: 0
  }
  convolution_param {
    num_output: 64
    pad: 3
    kernel_size: 7
    stride: 2
    weight_filler {
      type: "xavier"
      std: 0.1
    }
    bias_filler {
      type: "constant"
      value: 0.2
    }
  }
}
layer {
  name: "conv1/relu_7x7"
  type: "ReLU"
  bottom: "conv1/7x7_s2"
  top: "conv1/7x7_s2"
}
layer {
  name: "pool1/3x3_s2"
  type: "Pooling"
  bottom: "conv1/7x7_s2"
  top: "pool1/3x3_s2"
  pooling_param {
    pool: MAX
    kernel_size: 3
    stride: 2
  }
}
layer {
  name: "pool1/norm1"
  type: "LRN"
  bottom: "pool1/3x3_s2"
  top: "pool1/norm1"
  lrn_param {
    local_size: 5
    alpha: 0.0001
    beta: 0.75
  }
}
layer {
  name: "conv2/3x3_reduce"
  type: "Convolution"
  bottom: "pool1/norm1"
  top: "conv2/3x3_reduce"
  param {
    lr_mult: 1
    decay_mult: 1
  }
  param {
    lr_mult: 2
    decay_mult: 0
  }
  convolution_param {
    num_output: 64
    kernel_size: 1
    weight_filler {
      type: "xavier"
      std: 0.1
    }
    bias_filler {
      type: "constant"
      value: 0.2
    }
  }
}
layer {
  name: "conv2/relu_3x3_reduce"
  type: "ReLU"
  bottom: "conv2/3x3_reduce"
  top: "conv2/3x3_reduce"
}
layer {
  name: "conv2/3x3"
  type: "Convolution"
  bottom: "conv2/3x3_reduce"
  top: "conv2/3x3"
  param {
    lr_mult: 1
    decay_mult: 1
  }
  param {
    lr_mult: 2
    decay_mult: 0
  }
  convolution_param {
    num_output: 192
    pad: 1
    kernel_size: 3
    weight_filler {
      type: "xavier"
      std: 0.03
    }
    bias_filler {
      type: "constant"
      value: 0.2
    }
  }
}
layer {
  name: "conv2/relu_3x3"
  type: "ReLU"
  bottom: "conv2/3x3"
  top: "conv2/3x3"
}
layer {
  name: "conv2/norm2"
  type: "LRN"
  bottom: "conv2/3x3"
  top: "conv2/norm2"
  lrn_param {
    local_size: 5
    alpha: 0.0001
    beta: 0.75
  }
}
layer {
  name: "pool2/3x3_s2"
  type: "Pooling"
  bottom: "conv2/norm2"
  top: "pool2/3x3_s2"
  pooling_param {
    pool: MAX
    kernel_size: 3
    stride: 2
  }
}
layer {
  name: "inception_3a/1x1"
  type: "Convolution"
  bottom: "pool2/3x3_s2"
  top: "inception_3a/1x1"
  param {
    lr_mult: 1
    decay_mult: 1
  }
  param {
    lr_mult: 2
    decay_mult: 0
  }
  convolution_param {
    num_output: 64
    kernel_size: 1
    weight_filler {
      type: "xavier"
      std: 0.03
    }
    bias_filler {
      type: "constant"
      value: 0.2
    }
  }
}
layer {
  name: "inception_3a/relu_1x1"
  type: "ReLU"
  bottom: "inception_3a/1x1"
  top: "inception_3a/1x1"
}
layer {
  name: "inception_3a/3x3_reduce"
  type: "Convolution"
  bottom: "pool2/3x3_s2"
  top: "inception_3a/3x3_reduce"
  param {
    lr_mult: 1
    decay_mult: 1
  }
  param {
    lr_mult: 2
    decay_mult: 0
  }
  convolution_param {
    num_output: 96
    kernel_size: 1
    weight_filler {
      type: "xavier"
      std: 0.09
    }
    bias_filler {
      type: "constant"
      value: 0.2
    }
  }
}
layer {
  name: "inception_3a/relu_3x3_reduce"
  type: "ReLU"
  bottom: "inception_3a/3x3_reduce"
  top: "inception_3a/3x3_reduce"
}
layer {
  name: "inception_3a/3x3"
  type: "Convolution"
  bottom: "inception_3a/3x3_reduce"
  top: "inception_3a/3x3"
  param {
    lr_mult: 1
    decay_mult: 1
  }
  param {
    lr_mult: 2
    decay_mult: 0
  }
  convolution_param {
    num_output: 128
    pad: 1
    kernel_size: 3
    weight_filler {
      type: "xavier"
      std: 0.03
    }
    bias_filler {
      type: "constant"
      value: 0.2
    }
  }
}
layer {
  name: "inception_3a/relu_3x3"
  type: "ReLU"
  bottom: "inception_3a/3x3"
  top: "inception_3a/3x3"
}
layer {
  name: "inception_3a/5x5_reduce"
  type: "Convolution"
  bottom: "pool2/3x3_s2"
  top: "inception_3a/5x5_reduce"
  param {
    lr_mult: 1
    decay_mult: 1
  }
  param {
    lr_mult: 2
    decay_mult: 0
  }
  convolution_param {
    num_output: 16
    kernel_size: 1
    weight_filler {
      type: "xavier"
      std: 0.2
    }
    bias_filler {
      type: "constant"
      value: 0.2
    }
  }
}
layer {
  name: "inception_3a/relu_5x5_reduce"
  type: "ReLU"
  bottom: "inception_3a/5x5_reduce"
  top: "inception_3a/5x5_reduce"
}
layer {
  name: "inception_3a/5x5"
  type: "Convolution"
  bottom: "inception_3a/5x5_reduce"
  top: "inception_3a/5x5"
  param {
    lr_mult: 1
    decay_mult: 1
  }
  param {
    lr_mult: 2
    decay_mult: 0
  }
  convolution_param {
    num_output: 32
    pad: 2
    kernel_size: 5
    weight_filler {
      type: "xavier"
      std: 0.03
    }
    bias_filler {
      type: "constant"
      value: 0.2
    }
  }
}
layer {
  name: "inception_3a/relu_5x5"
  type: "ReLU"
  bottom: "inception_3a/5x5"
  top: "inception_3a/5x5"
}
layer {
  name: "inception_3a/pool"
  type: "Pooling"
  bottom: "pool2/3x3_s2"
  top: "inception_3a/pool"
  pooling_param {
    pool: MAX
    kernel_size: 3
    stride: 1
    pad: 1
  }
}
layer {
  name: "inception_3a/pool_proj"
  type: "Convolution"
  bottom: "inception_3a/pool"
  top: "inception_3a/pool_proj"
  param {
    lr_mult: 1
    decay_mult: 1
  }
  param {
    lr_mult: 2
    decay_mult: 0
  }
  convolution_param {
    num_output: 32
    kernel_size: 1
    weight_filler {
      type: "xavier"
      std: 0.1
    }
    bias_filler {
      type: "constant"
      value: 0.2
    }
  }
}
layer {
  name: "inception_3a/relu_pool_proj"
  type: "ReLU"
  bottom: "inception_3a/pool_proj"
  top: "inception_3a/pool_proj"
}
layer {
  name: "inception_3a/output"
  type: "Concat"
  bottom: "inception_3a/1x1"
  bottom: "inception_3a/3x3"
  bottom: "inception_3a/5x5"
  bottom: "inception_3a/pool_proj"
  top: "inception_3a/output"
}
layer {
  name: "inception_3b/1x1"
  type: "Convolution"
  bottom: "inception_3a/output"
  top: "inception_3b/1x1"
  param {
    lr_mult: 1
    decay_mult: 1
  }
  param {
    lr_mult: 2
    decay_mult: 0
  }
  convolution_param {
    num_output: 128
    kernel_size: 1
    weight_filler {
      type: "xavier"
      std: 0.03
    }
    bias_filler {
      type: "constant"
      value: 0.2
    }
  }
}
layer {
  name: "inception_3b/relu_1x1"
  type: "ReLU"
  bottom: "inception_3b/1x1"
  top: "inception_3b/1x1"
}
layer {
  name: "inception_3b/3x3_reduce"
  type: "Convolution"
  bottom: "inception_3a/output"
  top: "inception_3b/3x3_reduce"
  param {
    lr_mult: 1
    decay_mult: 1
  }
  param {
    lr_mult: 2
    decay_mult: 0
  }
  convolution_param {
    num_output: 128
    kernel_size: 1
    weight_filler {
      type: "xavier"
      std: 0.09
    }
    bias_filler {
      type: "constant"
      value: 0.2
    }
  }
}
layer {
  name: "inception_3b/relu_3x3_reduce"
  type: "ReLU"
  bottom: "inception_3b/3x3_reduce"
  top: "inception_3b/3x3_reduce"
}
layer {
  name: "inception_3b/3x3"
  type: "Convolution"
  bottom: "inception_3b/3x3_reduce"
  top: "inception_3b/3x3"
  param {
    lr_mult: 1
    decay_mult: 1
  }
  param {
    lr_mult: 2
    decay_mult: 0
  }
  convolution_param {
    num_output: 192
    pad: 1
    kernel_size: 3
    weight_filler {
      type: "xavier"
      std: 0.03
    }
    bias_filler {
      type: "constant"
      value: 0.2
    }
  }
}
layer {
  name: "inception_3b/relu_3x3"
  type: "ReLU"
  bottom: "inception_3b/3x3"
  top: "inception_3b/3x3"
}
layer {
  name: "inception_3b/5x5_reduce"
  type: "Convolution"
  bottom: "inception_3a/output"
  top: "inception_3b/5x5_reduce"
  param {
    lr_mult: 1
    decay_mult: 1
  }
  param {
    lr_mult: 2
    decay_mult: 0
  }
  convolution_param {
    num_output: 32
    kernel_size: 1
    weight_filler {
      type: "xavier"
      std: 0.2
    }
    bias_filler {
      type: "constant"
      value: 0.2
    }
  }
}
layer {
  name: "inception_3b/relu_5x5_reduce"
  type: "ReLU"
  bottom: "inception_3b/5x5_reduce"
  top: "inception_3b/5x5_reduce"
}
layer {
  name: "inception_3b/5x5"
  type: "Convolution"
  bottom: "inception_3b/5x5_reduce"
  top: "inception_3b/5x5"
  param {
    lr_mult: 1
    decay_mult: 1
  }
  param {
    lr_mult: 2
    decay_mult: 0
  }
  convolution_param {
    num_output: 96
    pad: 2
    kernel_size: 5
    weight_filler {
      type: "xavier"
      std: 0.03
    }
    bias_filler {
      type: "constant"
      value: 0.2
    }
  }
}
layer {
  name: "inception_3b/relu_5x5"
  type: "ReLU"
  bottom: "inception_3b/5x5"
  top: "inception_3b/5x5"
}
layer {
  name: "inception_3b/pool"
  type: "Pooling"
  bottom: "inception_3a/output"
  top: "inception_3b/pool"
  pooling_param {
    pool: MAX
    kernel_size: 3
    stride: 1
    pad: 1
  }
}
layer {
  name: "inception_3b/pool_proj"
  type: "Convolution"
  bottom: "inception_3b/pool"
  top: "inception_3b/pool_proj"
  param {
    lr_mult: 1
    decay_mult: 1
  }
  param {
    lr_mult: 2
    decay_mult: 0
  }
  convolution_param {
    num_output: 64
    kernel_size: 1
    weight_filler {
      type: "xavier"
      std: 0.1
    }
    bias_filler {
      type: "constant"
      value: 0.2
    }
  }
}
layer {
  name: "inception_3b/relu_pool_proj"
  type: "ReLU"
  bottom: "inception_3b/pool_proj"
  top: "inception_3b/pool_proj"
}
layer {
  name: "inception_3b/output"
  type: "Concat"
  bottom: "inception_3b/1x1"
  bottom: "inception_3b/3x3"
  bottom: "inception_3b/5x5"
  bottom: "inception_3b/pool_proj"
  top: "inception_3b/output"
}
layer {
  name: "pool3/3x3_s2"
  type: "Pooling"
  bottom: "inception_3b/output"
  top: "pool3/3x3_s2"
  pooling_param {
    pool: MAX
    kernel_size: 3
    stride: 2
  }
}
layer {
  name: "inception_4a/1x1"
  type: "Convolution"
  bottom: "pool3/3x3_s2"
  top: "inception_4a/1x1"
  param {
    lr_mult: 1
    decay_mult: 1
  }
  param {
    lr_mult: 2
    decay_mult: 0
  }
  convolution_param {
    num_output: 192
    kernel_size: 1
    weight_filler {
      type: "xavier"
      std: 0.03
    }
    bias_filler {
      type: "constant"
      value: 0.2
    }
  }
}
layer {
  name: "inception_4a/relu_1x1"
  type: "ReLU"
  bottom: "inception_4a/1x1"
  top: "inception_4a/1x1"
}
layer {
  name: "inception_4a/3x3_reduce"
  type: "Convolution"
  bottom: "pool3/3x3_s2"
  top: "inception_4a/3x3_reduce"
  param {
    lr_mult: 1
    decay_mult: 1
  }
  param {
    lr_mult: 2
    decay_mult: 0
  }
  convolution_param {
    num_output: 96
    kernel_size: 1
    weight_filler {
      type: "xavier"
      std: 0.09
    }
    bias_filler {
      type: "constant"
      value: 0.2
    }
  }
}
layer {
  name: "inception_4a/relu_3x3_reduce"
  type: "ReLU"
  bottom: "inception_4a/3x3_reduce"
  top: "inception_4a/3x3_reduce"
}
layer {
  name: "inception_4a/3x3"
  type: "Convolution"
  bottom: "inception_4a/3x3_reduce"
  top: "inception_4a/3x3"
  param {
    lr_mult: 1
    decay_mult: 1
  }
  param {
    lr_mult: 2
    decay_mult: 0
  }
  convolution_param {
    num_output: 208
    pad: 1
    kernel_size: 3
    weight_filler {
      type: "xavier"
      std: 0.03
    }
    bias_filler {
      type: "constant"
      value: 0.2
    }
  }
}
layer {
  name: "inception_4a/relu_3x3"
  type: "ReLU"
  bottom: "inception_4a/3x3"
  top: "inception_4a/3x3"
}
layer {
  name: "inception_4a/5x5_reduce"
  type: "Convolution"
  bottom: "pool3/3x3_s2"
  top: "inception_4a/5x5_reduce"
  param {
    lr_mult: 1
    decay_mult: 1
  }
  param {
    lr_mult: 2
    decay_mult: 0
  }
  convolution_param {
    num_output: 16
    kernel_size: 1
    weight_filler {
      type: "xavier"
      std: 0.2
    }
    bias_filler {
      type: "constant"
      value: 0.2
    }
  }
}
layer {
  name: "inception_4a/relu_5x5_reduce"
  type: "ReLU"
  bottom: "inception_4a/5x5_reduce"
  top: "inception_4a/5x5_reduce"
}
layer {
  name: "inception_4a/5x5"
  type: "Convolution"
  bottom: "inception_4a/5x5_reduce"
  top: "inception_4a/5x5"
  param {
    lr_mult: 1
    decay_mult: 1
  }
  param {
    lr_mult: 2
    decay_mult: 0
  }
  convolution_param {
    num_output: 48
    pad: 2
    kernel_size: 5
    weight_filler {
      type: "xavier"
      std: 0.03
    }
    bias_filler {
      type: "constant"
      value: 0.2
    }
  }
}
layer {
  name: "inception_4a/relu_5x5"
  type: "ReLU"
  bottom: "inception_4a/5x5"
  top: "inception_4a/5x5"
}
layer {
  name: "inception_4a/pool"
  type: "Pooling"
  bottom: "pool3/3x3_s2"
  top: "inception_4a/pool"
  pooling_param {
    pool: MAX
    kernel_size: 3
    stride: 1
    pad: 1
  }
}
layer {
  name: "inception_4a/pool_proj"
  type: "Convolution"
  bottom: "inception_4a/pool"
  top: "inception_4a/pool_proj"
  param {
    lr_mult: 1
    decay_mult: 1
  }
  param {
    lr_mult: 2
    decay_mult: 0
  }
  convolution_param {
    num_output: 64
    kernel_size: 1
    weight_filler {
      type: "xavier"
      std: 0.1
    }
    bias_filler {
      type: "constant"
      value: 0.2
    }
  }
}
layer {
  name: "inception_4a/relu_pool_proj"
  type: "ReLU"
  bottom: "inception_4a/pool_proj"
  top: "inception_4a/pool_proj"
}
layer {
  name: "inception_4a/output"
  type: "Concat"
  bottom: "inception_4a/1x1"
  bottom: "inception_4a/3x3"
  bottom: "inception_4a/5x5"
  bottom: "inception_4a/pool_proj"
  top: "inception_4a/output"
}
layer {
  name: "loss1/ave_pool"
  type: "Pooling"
  bottom: "inception_4a/output"
  top: "loss1/ave_pool"
  pooling_param {
    pool: AVE
    kernel_size: 5
    stride: 3
  }
}
layer {
  name: "loss1/conv"
  type: "Convolution"
  bottom: "loss1/ave_pool"
  top: "loss1/conv"
  param {
    lr_mult: 1
    decay_mult: 1
  }
  param {
    lr_mult: 2
    decay_mult: 0
  }
  convolution_param {
    num_output: 128
    kernel_size: 1
    weight_filler {
      type: "xavier"
      std: 0.08
    }
    bias_filler {
      type: "constant"
      value: 0.2
    }
  }
}
layer {
  name: "loss1/relu_conv"
  type: "ReLU"
  bottom: "loss1/conv"
  top: "loss1/conv"
}
layer {
  name: "loss1/fc"
  type: "InnerProduct"
  bottom: "loss1/conv"
  top: "loss1/fc"
  param {
    lr_mult: 1
    decay_mult: 1
  }
  param {
    lr_mult: 2
    decay_mult: 0
  }
  inner_product_param {
    num_output: 1024
    weight_filler {
      type: "xavier"
      std: 0.02
    }
    bias_filler {
      type: "constant"
      value: 0.2
    }
  }
}
layer {
  name: "loss1/relu_fc"
  type: "ReLU"
  bottom: "loss1/fc"
  top: "loss1/fc"
}
layer {
  name: "loss1/drop_fc"
  type: "Dropout"
  bottom: "loss1/fc"
  top: "loss1/fc"
  dropout_param {
    dropout_ratio: 0.7
  }
}
layer {
  name: "loss1/classifier_plantvillage"
  type: "InnerProduct"
  bottom: "loss1/fc"
  top: "loss1/classifier_plantvillage"
  param {
    lr_mult: 1
    decay_mult: 1
  }
  param {
    lr_mult: 2
    decay_mult: 0
  }
  inner_product_param {
    num_output: 38
    weight_filler {
      type: "xavier"
      std: 0.0009765625
    }
    bias_filler {
      type: "constant"
      value: 0
    }
  }
}
layer {
  name: "inception_4b/1x1"
  type: "Convolution"
  bottom: "inception_4a/output"
  top: "inception_4b/1x1"
  param {
    lr_mult: 1
    decay_mult: 1
  }
  param {
    lr_mult: 2
    decay_mult: 0
  }
  convolution_param {
    num_output: 160
    kernel_size: 1
    weight_filler {
      type: "xavier"
      std: 0.03
    }
    bias_filler {
      type: "constant"
      value: 0.2
    }
  }
}
layer {
  name: "inception_4b/relu_1x1"
  type: "ReLU"
  bottom: "inception_4b/1x1"
  top: "inception_4b/1x1"
}
layer {
  name: "inception_4b/3x3_reduce"
  type: "Convolution"
  bottom: "inception_4a/output"
  top: "inception_4b/3x3_reduce"
  param {
    lr_mult: 1
    decay_mult: 1
  }
  param {
    lr_mult: 2
    decay_mult: 0
  }
  convolution_param {
    num_output: 112
    kernel_size: 1
    weight_filler {
      type: "xavier"
      std: 0.09
    }
    bias_filler {
      type: "constant"
      value: 0.2
    }
  }
}
layer {
  name: "inception_4b/relu_3x3_reduce"
  type: "ReLU"
  bottom: "inception_4b/3x3_reduce"
  top: "inception_4b/3x3_reduce"
}
layer {
  name: "inception_4b/3x3"
  type: "Convolution"
  bottom: "inception_4b/3x3_reduce"
  top: "inception_4b/3x3"
  param {
    lr_mult: 1
    decay_mult: 1
  }
  param {
    lr_mult: 2
    decay_mult: 0
  }
  convolution_param {
    num_output: 224
    pad: 1
    kernel_size: 3
    weight_filler {
      type: "xavier"
      std: 0.03
    }
    bias_filler {
      type: "constant"
      value: 0.2
    }
  }
}
layer {
  name: "inception_4b/relu_3x3"
  type: "ReLU"
  bottom: "inception_4b/3x3"
  top: "inception_4b/3x3"
}
layer {
  name: "inception_4b/5x5_reduce"
  type: "Convolution"
  bottom: "inception_4a/output"
  top: "inception_4b/5x5_reduce"
  param {
    lr_mult: 1
    decay_mult: 1
  }
  param {
    lr_mult: 2
    decay_mult: 0
  }
  convolution_param {
    num_output: 24
    kernel_size: 1
    weight_filler {
      type: "xavier"
      std: 0.2
    }
    bias_filler {
      type: "constant"
      value: 0.2
    }
  }
}
layer {
  name: "inception_4b/relu_5x5_reduce"
  type: "ReLU"
  bottom: "inception_4b/5x5_reduce"
  top: "inception_4b/5x5_reduce"
}
layer {
  name: "inception_4b/5x5"
  type: "Convolution"
  bottom: "inception_4b/5x5_reduce"
  top: "inception_4b/5x5"
  param {
    lr_mult: 1
    decay_mult: 1
  }
  param {
    lr_mult: 2
    decay_mult: 0
  }
  convolution_param {
    num_output: 64
    pad: 2
    kernel_size: 5
    weight_filler {
      type: "xavier"
      std: 0.03
    }
    bias_filler {
      type: "constant"
      value: 0.2
    }
  }
}
layer {
  name: "inception_4b/relu_5x5"
  type: "ReLU"
  bottom: "inception_4b/5x5"
  top: "inception_4b/5x5"
}
layer {
  name: "inception_4b/pool"
  type: "Pooling"
  bottom: "inception_4a/output"
  top: "inception_4b/pool"
  pooling_param {
    pool: MAX
    kernel_size: 3
    stride: 1
    pad: 1
  }
}
layer {
  name: "inception_4b/pool_proj"
  type: "Convolution"
  bottom: "inception_4b/pool"
  top: "inception_4b/pool_proj"
  param {
    lr_mult: 1
    decay_mult: 1
  }
  param {
    lr_mult: 2
    decay_mult: 0
  }
  convolution_param {
    num_output: 64
    kernel_size: 1
    weight_filler {
      type: "xavier"
      std: 0.1
    }
    bias_filler {
      type: "constant"
      value: 0.2
    }
  }
}
layer {
  name: "inception_4b/relu_pool_proj"
  type: "ReLU"
  bottom: "inception_4b/pool_proj"
  top: "inception_4b/pool_proj"
}
layer {
  name: "inception_4b/output"
  type: "Concat"
  bottom: "inception_4b/1x1"
  bottom: "inception_4b/3x3"
  bottom: "inception_4b/5x5"
  bottom: "inception_4b/pool_proj"
  top: "inception_4b/output"
}
layer {
  name: "inception_4c/1x1"
  type: "Convolution"
  bottom: "inception_4b/output"
  top: "inception_4c/1x1"
  param {
    lr_mult: 1
    decay_mult: 1
  }
  param {
    lr_mult: 2
    decay_mult: 0
  }
  convolution_param {
    num_output: 128
    kernel_size: 1
    weight_filler {
      type: "xavier"
      std: 0.03
    }
    bias_filler {
      type: "constant"
      value: 0.2
    }
  }
}
layer {
  name: "inception_4c/relu_1x1"
  type: "ReLU"
  bottom: "inception_4c/1x1"
  top: "inception_4c/1x1"
}
layer {
  name: "inception_4c/3x3_reduce"
  type: "Convolution"
  bottom: "inception_4b/output"
  top: "inception_4c/3x3_reduce"
  param {
    lr_mult: 1
    decay_mult: 1
  }
  param {
    lr_mult: 2
    decay_mult: 0
  }
  convolution_param {
    num_output: 128
    kernel_size: 1
    weight_filler {
      type: "xavier"
      std: 0.09
    }
    bias_filler {
      type: "constant"
      value: 0.2
    }
  }
}
layer {
  name: "inception_4c/relu_3x3_reduce"
  type: "ReLU"
  bottom: "inception_4c/3x3_reduce"
  top: "inception_4c/3x3_reduce"
}
layer {
  name: "inception_4c/3x3"
  type: "Convolution"
  bottom: "inception_4c/3x3_reduce"
  top: "inception_4c/3x3"
  param {
    lr_mult: 1
    decay_mult: 1
  }
  param {
    lr_mult: 2
    decay_mult: 0
  }
  convolution_param {
    num_output: 256
    pad: 1
    kernel_size: 3
    weight_filler {
      type: "xavier"
      std: 0.03
    }
    bias_filler {
      type: "constant"
      value: 0.2
    }
  }
}
layer {
  name: "inception_4c/relu_3x3"
  type: "ReLU"
  bottom: "inception_4c/3x3"
  top: "inception_4c/3x3"
}
layer {
  name: "inception_4c/5x5_reduce"
  type: "Convolution"
  bottom: "inception_4b/output"
  top: "inception_4c/5x5_reduce"
  param {
    lr_mult: 1
    decay_mult: 1
  }
  param {
    lr_mult: 2
    decay_mult: 0
  }
  convolution_param {
    num_output: 24
    kernel_size: 1
    weight_filler {
      type: "xavier"
      std: 0.2
    }
    bias_filler {
      type: "constant"
      value: 0.2
    }
  }
}
layer {
  name: "inception_4c/relu_5x5_reduce"
  type: "ReLU"
  bottom: "inception_4c/5x5_reduce"
  top: "inception_4c/5x5_reduce"
}
layer {
  name: "inception_4c/5x5"
  type: "Convolution"
  bottom: "inception_4c/5x5_reduce"
  top: "inception_4c/5x5"
  param {
    lr_mult: 1
    decay_mult: 1
  }
  param {
    lr_mult: 2
    decay_mult: 0
  }
  convolution_param {
    num_output: 64
    pad: 2
    kernel_size: 5
    weight_filler {
      type: "xavier"
      std: 0.03
    }
    bias_filler {
      type: "constant"
      value: 0.2
    }
  }
}
layer {
  name: "inception_4c/relu_5x5"
  type: "ReLU"
  bottom: "inception_4c/5x5"
  top: "inception_4c/5x5"
}
layer {
  name: "inception_4c/pool"
  type: "Pooling"
  bottom: "inception_4b/output"
  top: "inception_4c/pool"
  pooling_param {
    pool: MAX
    kernel_size: 3
    stride: 1
    pad: 1
  }
}
layer {
  name: "inception_4c/pool_proj"
  type: "Convolution"
  bottom: "inception_4c/pool"
  top: "inception_4c/pool_proj"
  param {
    lr_mult: 1
    decay_mult: 1
  }
  param {
    lr_mult: 2
    decay_mult: 0
  }
  convolution_param {
    num_output: 64
    kernel_size: 1
    weight_filler {
      type: "xavier"
      std: 0.1
    }
    bias_filler {
      type: "constant"
      value: 0.2
    }
  }
}
layer {
  name: "inception_4c/relu_pool_proj"
  type: "ReLU"
  bottom: "inception_4c/pool_proj"
  top: "inception_4c/pool_proj"
}
layer {
  name: "inception_4c/output"
  type: "Concat"
  bottom: "inception_4c/1x1"
  bottom: "inception_4c/3x3"
  bottom: "inception_4c/5x5"
  bottom: "inception_4c/pool_proj"
  top: "inception_4c/output"
}
layer {
  name: "inception_4d/1x1"
  type: "Convolution"
  bottom: "inception_4c/output"
  top: "inception_4d/1x1"
  param {
    lr_mult: 1
    decay_mult: 1
  }
  param {
    lr_mult: 2
    decay_mult: 0
  }
  convolution_param {
    num_output: 112
    kernel_size: 1
    weight_filler {
      type: "xavier"
      std: 0.03
    }
    bias_filler {
      type: "constant"
      value: 0.2
    }
  }
}
layer {
  name: "inception_4d/relu_1x1"
  type: "ReLU"
  bottom: "inception_4d/1x1"
  top: "inception_4d/1x1"
}
layer {
  name: "inception_4d/3x3_reduce"
  type: "Convolution"
  bottom: "inception_4c/output"
  top: "inception_4d/3x3_reduce"
  param {
    lr_mult: 1
    decay_mult: 1
  }
  param {
    lr_mult: 2
    decay_mult: 0
  }
  convolution_param {
    num_output: 144
    kernel_size: 1
    weight_filler {
      type: "xavier"
      std: 0.09
    }
    bias_filler {
      type: "constant"
      value: 0.2
    }
  }
}
layer {
  name: "inception_4d/relu_3x3_reduce"
  type: "ReLU"
  bottom: "inception_4d/3x3_reduce"
  top: "inception_4d/3x3_reduce"
}
layer {
  name: "inception_4d/3x3"
  type: "Convolution"
  bottom: "inception_4d/3x3_reduce"
  top: "inception_4d/3x3"
  param {
    lr_mult: 1
    decay_mult: 1
  }
  param {
    lr_mult: 2
    decay_mult: 0
  }
  convolution_param {
    num_output: 288
    pad: 1
    kernel_size: 3
    weight_filler {
      type: "xavier"
      std: 0.03
    }
    bias_filler {
      type: "constant"
      value: 0.2
    }
  }
}
layer {
  name: "inception_4d/relu_3x3"
  type: "ReLU"
  bottom: "inception_4d/3x3"
  top: "inception_4d/3x3"
}
layer {
  name: "inception_4d/5x5_reduce"
  type: "Convolution"
  bottom: "inception_4c/output"
  top: "inception_4d/5x5_reduce"
  param {
    lr_mult: 1
    decay_mult: 1
  }
  param {
    lr_mult: 2
    decay_mult: 0
  }
  convolution_param {
    num_output: 32
    kernel_size: 1
    weight_filler {
      type: "xavier"
      std: 0.2
    }
    bias_filler {
      type: "constant"
      value: 0.2
    }
  }
}
layer {
  name: "inception_4d/relu_5x5_reduce"
  type: "ReLU"
  bottom: "inception_4d/5x5_reduce"
  top: "inception_4d/5x5_reduce"
}
layer {
  name: "inception_4d/5x5"
  type: "Convolution"
  bottom: "inception_4d/5x5_reduce"
  top: "inception_4d/5x5"
  param {
    lr_mult: 1
    decay_mult: 1
  }
  param {
    lr_mult: 2
    decay_mult: 0
  }
  convolution_param {
    num_output: 64
    pad: 2
    kernel_size: 5
    weight_filler {
      type: "xavier"
      std: 0.03
    }
    bias_filler {
      type: "constant"
      value: 0.2
    }
  }
}
layer {
  name: "inception_4d/relu_5x5"
  type: "ReLU"
  bottom: "inception_4d/5x5"
  top: "inception_4d/5x5"
}
layer {
  name: "inception_4d/pool"
  type: "Pooling"
  bottom: "inception_4c/output"
  top: "inception_4d/pool"
  pooling_param {
    pool: MAX
    kernel_size: 3
    stride: 1
    pad: 1
  }
}
layer {
  name: "inception_4d/pool_proj"
  type: "Convolution"
  bottom: "inception_4d/pool"
  top: "inception_4d/pool_proj"
  param {
    lr_mult: 1
    decay_mult: 1
  }
  param {
    lr_mult: 2
    decay_mult: 0
  }
  convolution_param {
    num_output: 64
    kernel_size: 1
    weight_filler {
      type: "xavier"
      std: 0.1
    }
    bias_filler {
      type: "constant"
      value: 0.2
    }
  }
}
layer {
  name: "inception_4d/relu_pool_proj"
  type: "ReLU"
  bottom: "inception_4d/pool_proj"
  top: "inception_4d/pool_proj"
}
layer {
  name: "inception_4d/output"
  type: "Concat"
  bottom: "inception_4d/1x1"
  bottom: "inception_4d/3x3"
  bottom: "inception_4d/5x5"
  bottom: "inception_4d/pool_proj"
  top: "inception_4d/output"
}
layer {
  name: "loss2/ave_pool"
  type: "Pooling"
  bottom: "inception_4d/output"
  top: "loss2/ave_pool"
  pooling_param {
    pool: AVE
    kernel_size: 5
    stride: 3
  }
}
layer {
  name: "loss2/conv"
  type: "Convolution"
  bottom: "loss2/ave_pool"
  top: "loss2/conv"
  param {
    lr_mult: 1
    decay_mult: 1
  }
  param {
    lr_mult: 2
    decay_mult: 0
  }
  convolution_param {
    num_output: 128
    kernel_size: 1
    weight_filler {
      type: "xavier"
      std: 0.08
    }
    bias_filler {
      type: "constant"
      value: 0.2
    }
  }
}
layer {
  name: "loss2/relu_conv"
  type: "ReLU"
  bottom: "loss2/conv"
  top: "loss2/conv"
}
layer {
  name: "loss2/fc"
  type: "InnerProduct"
  bottom: "loss2/conv"
  top: "loss2/fc"
  param {
    lr_mult: 1
    decay_mult: 1
  }
  param {
    lr_mult: 2
    decay_mult: 0
  }
  inner_product_param {
    num_output: 1024
    weight_filler {
      type: "xavier"
      std: 0.02
    }
    bias_filler {
      type: "constant"
      value: 0.2
    }
  }
}
layer {
  name: "loss2/relu_fc"
  type: "ReLU"
  bottom: "loss2/fc"
  top: "loss2/fc"
}
layer {
  name: "loss2/drop_fc"
  type: "Dropout"
  bottom: "loss2/fc"
  top: "loss2/fc"
  dropout_param {
    dropout_ratio: 0.7
  }
}
layer {
  name: "loss2/classifier_plantvillage"
  type: "InnerProduct"
  bottom: "loss2/fc"
  top: "loss2/classifier_plantvillage"
  param {
    lr_mult: 1
    decay_mult: 1
  }
  param {
    lr_mult: 2
    decay_mult: 0
  }
  inner_product_param {
    num_output: 38
    weight_filler {
      type: "xavier"
      std: 0.0009765625
    }
    bias_filler {
      type: "constant"
      value: 0
    }
  }
}
layer {
  name: "inception_4e/1x1"
  type: "Convolution"
  bottom: "inception_4d/output"
  top: "inception_4e/1x1"
  param {
    lr_mult: 1
    decay_mult: 1
  }
  param {
    lr_mult: 2
    decay_mult: 0
  }
  convolution_param {
    num_output: 256
    kernel_size: 1
    weight_filler {
      type: "xavier"
      std: 0.03
    }
    bias_filler {
      type: "constant"
      value: 0.2
    }
  }
}
layer {
  name: "inception_4e/relu_1x1"
  type: "ReLU"
  bottom: "inception_4e/1x1"
  top: "inception_4e/1x1"
}
layer {
  name: "inception_4e/3x3_reduce"
  type: "Convolution"
  bottom: "inception_4d/output"
  top: "inception_4e/3x3_reduce"
  param {
    lr_mult: 1
    decay_mult: 1
  }
  param {
    lr_mult: 2
    decay_mult: 0
  }
  convolution_param {
    num_output: 160
    kernel_size: 1
    weight_filler {
      type: "xavier"
      std: 0.09
    }
    bias_filler {
      type: "constant"
      value: 0.2
    }
  }
}
layer {
  name: "inception_4e/relu_3x3_reduce"
  type: "ReLU"
  bottom: "inception_4e/3x3_reduce"
  top: "inception_4e/3x3_reduce"
}
layer {
  name: "inception_4e/3x3"
  type: "Convolution"
  bottom: "inception_4e/3x3_reduce"
  top: "inception_4e/3x3"
  param {
    lr_mult: 1
    decay_mult: 1
  }
  param {
    lr_mult: 2
    decay_mult: 0
  }
  convolution_param {
    num_output: 320
    pad: 1
    kernel_size: 3
    weight_filler {
      type: "xavier"
      std: 0.03
    }
    bias_filler {
      type: "constant"
      value: 0.2
    }
  }
}
layer {
  name: "inception_4e/relu_3x3"
  type: "ReLU"
  bottom: "inception_4e/3x3"
  top: "inception_4e/3x3"
}
layer {
  name: "inception_4e/5x5_reduce"
  type: "Convolution"
  bottom: "inception_4d/output"
  top: "inception_4e/5x5_reduce"
  param {
    lr_mult: 1
    decay_mult: 1
  }
  param {
    lr_mult: 2
    decay_mult: 0
  }
  convolution_param {
    num_output: 32
    kernel_size: 1
    weight_filler {
      type: "xavier"
      std: 0.2
    }
    bias_filler {
      type: "constant"
      value: 0.2
    }
  }
}
layer {
  name: "inception_4e/relu_5x5_reduce"
  type: "ReLU"
  bottom: "inception_4e/5x5_reduce"
  top: "inception_4e/5x5_reduce"
}
layer {
  name: "inception_4e/5x5"
  type: "Convolution"
  bottom: "inception_4e/5x5_reduce"
  top: "inception_4e/
I0403 18:53:22.686275  8031 layer_factory.hpp:77] Creating layer data
I0403 18:53:22.687011  8031 net.cpp:91] Creating Layer data
I0403 18:53:22.687050  8031 net.cpp:399] data -> data
I0403 18:53:22.687108  8031 net.cpp:399] data -> label
I0403 18:53:22.687152  8031 data_transformer.cpp:25] Loading mean file from: /home/mohanty/data/final_dataset/lmdb/grayscale-40-60/mean.binaryproto
I0403 18:53:22.688467  8034 db_lmdb.cpp:38] Opened lmdb /home/mohanty/data/final_dataset/lmdb/grayscale-40-60/test_db
I0403 18:53:22.704221  8031 data_layer.cpp:41] output data size: 24,3,224,224
I0403 18:53:22.737845  8031 net.cpp:141] Setting up data
I0403 18:53:22.737949  8031 net.cpp:148] Top shape: 24 3 224 224 (3612672)
I0403 18:53:22.737979  8031 net.cpp:148] Top shape: 24 (24)
I0403 18:53:22.737998  8031 net.cpp:156] Memory required for data: 14450784
I0403 18:53:22.738030  8031 layer_factory.hpp:77] Creating layer label_data_1_split
I0403 18:53:22.738064  8031 net.cpp:91] Creating Layer label_data_1_split
I0403 18:53:22.738085  8031 net.cpp:425] label_data_1_split <- label
I0403 18:53:22.738123  8031 net.cpp:399] label_data_1_split -> label_data_1_split_0
I0403 18:53:22.738159  8031 net.cpp:399] label_data_1_split -> label_data_1_split_1
I0403 18:53:22.738184  8031 net.cpp:399] label_data_1_split -> label_data_1_split_2
I0403 18:53:22.738211  8031 net.cpp:399] label_data_1_split -> label_data_1_split_3
I0403 18:53:22.738236  8031 net.cpp:399] label_data_1_split -> label_data_1_split_4
I0403 18:53:22.738270  8031 net.cpp:399] label_data_1_split -> label_data_1_split_5
I0403 18:53:22.738292  8031 net.cpp:399] label_data_1_split -> label_data_1_split_6
I0403 18:53:22.738317  8031 net.cpp:399] label_data_1_split -> label_data_1_split_7
I0403 18:53:22.738342  8031 net.cpp:399] label_data_1_split -> label_data_1_split_8
I0403 18:53:22.738368  8031 net.cpp:399] label_data_1_split -> label_data_1_split_9
I0403 18:53:22.738509  8031 net.cpp:141] Setting up label_data_1_split
I0403 18:53:22.738541  8031 net.cpp:148] Top shape: 24 (24)
I0403 18:53:22.738561  8031 net.cpp:148] Top shape: 24 (24)
I0403 18:53:22.738581  8031 net.cpp:148] Top shape: 24 (24)
I0403 18:53:22.738602  8031 net.cpp:148] Top shape: 24 (24)
I0403 18:53:22.738621  8031 net.cpp:148] Top shape: 24 (24)
I0403 18:53:22.738641  8031 net.cpp:148] Top shape: 24 (24)
I0403 18:53:22.738659  8031 net.cpp:148] Top shape: 24 (24)
I0403 18:53:22.738679  8031 net.cpp:148] Top shape: 24 (24)
I0403 18:53:22.738698  8031 net.cpp:148] Top shape: 24 (24)
I0403 18:53:22.738718  8031 net.cpp:148] Top shape: 24 (24)
I0403 18:53:22.738771  8031 net.cpp:156] Memory required for data: 14451744
I0403 18:53:22.738792  8031 layer_factory.hpp:77] Creating layer conv1/7x7_s2
I0403 18:53:22.738834  8031 net.cpp:91] Creating Layer conv1/7x7_s2
I0403 18:53:22.738857  8031 net.cpp:425] conv1/7x7_s2 <- data
I0403 18:53:22.738883  8031 net.cpp:399] conv1/7x7_s2 -> conv1/7x7_s2
I0403 18:53:22.909346  8031 net.cpp:141] Setting up conv1/7x7_s2
I0403 18:53:22.909466  8031 net.cpp:148] Top shape: 24 64 112 112 (19267584)
I0403 18:53:22.909487  8031 net.cpp:156] Memory required for data: 91522080
I0403 18:53:22.909523  8031 layer_factory.hpp:77] Creating layer conv1/relu_7x7
I0403 18:53:22.909556  8031 net.cpp:91] Creating Layer conv1/relu_7x7
I0403 18:53:22.909579  8031 net.cpp:425] conv1/relu_7x7 <- conv1/7x7_s2
I0403 18:53:22.909601  8031 net.cpp:386] conv1/relu_7x7 -> conv1/7x7_s2 (in-place)
I0403 18:53:22.909906  8031 net.cpp:141] Setting up conv1/relu_7x7
I0403 18:53:22.909940  8031 net.cpp:148] Top shape: 24 64 112 112 (19267584)
I0403 18:53:22.909957  8031 net.cpp:156] Memory required for data: 168592416
I0403 18:53:22.909976  8031 layer_factory.hpp:77] Creating layer pool1/3x3_s2
I0403 18:53:22.910008  8031 net.cpp:91] Creating Layer pool1/3x3_s2
I0403 18:53:22.910029  8031 net.cpp:425] pool1/3x3_s2 <- conv1/7x7_s2
I0403 18:53:22.910051  8031 net.cpp:399] pool1/3x3_s2 -> pool1/3x3_s2
I0403 18:53:22.910142  8031 net.cpp:141] Setting up pool1/3x3_s2
I0403 18:53:22.910171  8031 net.cpp:148] Top shape: 24 64 56 56 (4816896)
I0403 18:53:22.910188  8031 net.cpp:156] Memory required for data: 187860000
I0403 18:53:22.910208  8031 layer_factory.hpp:77] Creating layer pool1/norm1
I0403 18:53:22.910238  8031 net.cpp:91] Creating Layer pool1/norm1
I0403 18:53:22.910261  8031 net.cpp:425] pool1/norm1 <- pool1/3x3_s2
I0403 18:53:22.910290  8031 net.cpp:399] pool1/norm1 -> pool1/norm1
I0403 18:53:22.910629  8031 net.cpp:141] Setting up pool1/norm1
I0403 18:53:22.910663  8031 net.cpp:148] Top shape: 24 64 56 56 (4816896)
I0403 18:53:22.910681  8031 net.cpp:156] Memory required for data: 207127584
I0403 18:53:22.910701  8031 layer_factory.hpp:77] Creating layer conv2/3x3_reduce
I0403 18:53:22.910730  8031 net.cpp:91] Creating Layer conv2/3x3_reduce
I0403 18:53:22.910750  8031 net.cpp:425] conv2/3x3_reduce <- pool1/norm1
I0403 18:53:22.910773  8031 net.cpp:399] conv2/3x3_reduce -> conv2/3x3_reduce
I0403 18:53:22.912382  8031 net.cpp:141] Setting up conv2/3x3_reduce
I0403 18:53:22.912420  8031 net.cpp:148] Top shape: 24 64 56 56 (4816896)
I0403 18:53:22.912438  8031 net.cpp:156] Memory required for data: 226395168
I0403 18:53:22.912462  8031 layer_factory.hpp:77] Creating layer conv2/relu_3x3_reduce
I0403 18:53:22.912485  8031 net.cpp:91] Creating Layer conv2/relu_3x3_reduce
I0403 18:53:22.912504  8031 net.cpp:425] conv2/relu_3x3_reduce <- conv2/3x3_reduce
I0403 18:53:22.912525  8031 net.cpp:386] conv2/relu_3x3_reduce -> conv2/3x3_reduce (in-place)
I0403 18:53:22.912823  8031 net.cpp:141] Setting up conv2/relu_3x3_reduce
I0403 18:53:22.912856  8031 net.cpp:148] Top shape: 24 64 56 56 (4816896)
I0403 18:53:22.912874  8031 net.cpp:156] Memory required for data: 245662752
I0403 18:53:22.912894  8031 layer_factory.hpp:77] Creating layer conv2/3x3
I0403 18:53:22.912921  8031 net.cpp:91] Creating Layer conv2/3x3
I0403 18:53:22.912941  8031 net.cpp:425] conv2/3x3 <- conv2/3x3_reduce
I0403 18:53:22.912964  8031 net.cpp:399] conv2/3x3 -> conv2/3x3
I0403 18:53:22.915638  8031 net.cpp:141] Setting up conv2/3x3
I0403 18:53:22.915676  8031 net.cpp:148] Top shape: 24 192 56 56 (14450688)
I0403 18:53:22.915698  8031 net.cpp:156] Memory required for data: 303465504
I0403 18:53:22.915724  8031 layer_factory.hpp:77] Creating layer conv2/relu_3x3
I0403 18:53:22.915746  8031 net.cpp:91] Creating Layer conv2/relu_3x3
I0403 18:53:22.915766  8031 net.cpp:425] conv2/relu_3x3 <- conv2/3x3
I0403 18:53:22.915787  8031 net.cpp:386] conv2/relu_3x3 -> conv2/3x3 (in-place)
I0403 18:53:22.916005  8031 net.cpp:141] Setting up conv2/relu_3x3
I0403 18:53:22.916036  8031 net.cpp:148] Top shape: 24 192 56 56 (14450688)
I0403 18:53:22.916095  8031 net.cpp:156] Memory required for data: 361268256
I0403 18:53:22.916116  8031 layer_factory.hpp:77] Creating layer conv2/norm2
I0403 18:53:22.916143  8031 net.cpp:91] Creating Layer conv2/norm2
I0403 18:53:22.916164  8031 net.cpp:425] conv2/norm2 <- conv2/3x3
I0403 18:53:22.916193  8031 net.cpp:399] conv2/norm2 -> conv2/norm2
I0403 18:53:22.916565  8031 net.cpp:141] Setting up conv2/norm2
I0403 18:53:22.916601  8031 net.cpp:148] Top shape: 24 192 56 56 (14450688)
I0403 18:53:22.916622  8031 net.cpp:156] Memory required for data: 419071008
I0403 18:53:22.916642  8031 layer_factory.hpp:77] Creating layer pool2/3x3_s2
I0403 18:53:22.916664  8031 net.cpp:91] Creating Layer pool2/3x3_s2
I0403 18:53:22.916684  8031 net.cpp:425] pool2/3x3_s2 <- conv2/norm2
I0403 18:53:22.916709  8031 net.cpp:399] pool2/3x3_s2 -> pool2/3x3_s2
I0403 18:53:22.916777  8031 net.cpp:141] Setting up pool2/3x3_s2
I0403 18:53:22.916807  8031 net.cpp:148] Top shape: 24 192 28 28 (3612672)
I0403 18:53:22.916826  8031 net.cpp:156] Memory required for data: 433521696
I0403 18:53:22.916843  8031 layer_factory.hpp:77] Creating layer pool2/3x3_s2_pool2/3x3_s2_0_split
I0403 18:53:22.916867  8031 net.cpp:91] Creating Layer pool2/3x3_s2_pool2/3x3_s2_0_split
I0403 18:53:22.916885  8031 net.cpp:425] pool2/3x3_s2_pool2/3x3_s2_0_split <- pool2/3x3_s2
I0403 18:53:22.916908  8031 net.cpp:399] pool2/3x3_s2_pool2/3x3_s2_0_split -> pool2/3x3_s2_pool2/3x3_s2_0_split_0
I0403 18:53:22.916931  8031 net.cpp:399] pool2/3x3_s2_pool2/3x3_s2_0_split -> pool2/3x3_s2_pool2/3x3_s2_0_split_1
I0403 18:53:22.916959  8031 net.cpp:399] pool2/3x3_s2_pool2/3x3_s2_0_split -> pool2/3x3_s2_pool2/3x3_s2_0_split_2
I0403 18:53:22.916983  8031 net.cpp:399] pool2/3x3_s2_pool2/3x3_s2_0_split -> pool2/3x3_s2_pool2/3x3_s2_0_split_3
I0403 18:53:22.917070  8031 net.cpp:141] Setting up pool2/3x3_s2_pool2/3x3_s2_0_split
I0403 18:53:22.917098  8031 net.cpp:148] Top shape: 24 192 28 28 (3612672)
I0403 18:53:22.917119  8031 net.cpp:148] Top shape: 24 192 28 28 (3612672)
I0403 18:53:22.917137  8031 net.cpp:148] Top shape: 24 192 28 28 (3612672)
I0403 18:53:22.917157  8031 net.cpp:148] Top shape: 24 192 28 28 (3612672)
I0403 18:53:22.917174  8031 net.cpp:156] Memory required for data: 491324448
I0403 18:53:22.917191  8031 layer_factory.hpp:77] Creating layer inception_3a/1x1
I0403 18:53:22.917222  8031 net.cpp:91] Creating Layer inception_3a/1x1
I0403 18:53:22.917244  8031 net.cpp:425] inception_3a/1x1 <- pool2/3x3_s2_pool2/3x3_s2_0_split_0
I0403 18:53:22.917275  8031 net.cpp:399] inception_3a/1x1 -> inception_3a/1x1
I0403 18:53:22.919143  8031 net.cpp:141] Setting up inception_3a/1x1
I0403 18:53:22.919179  8031 net.cpp:148] Top shape: 24 64 28 28 (1204224)
I0403 18:53:22.919199  8031 net.cpp:156] Memory required for data: 496141344
I0403 18:53:22.919221  8031 layer_factory.hpp:77] Creating layer inception_3a/relu_1x1
I0403 18:53:22.919242  8031 net.cpp:91] Creating Layer inception_3a/relu_1x1
I0403 18:53:22.919261  8031 net.cpp:425] inception_3a/relu_1x1 <- inception_3a/1x1
I0403 18:53:22.919293  8031 net.cpp:386] inception_3a/relu_1x1 -> inception_3a/1x1 (in-place)
I0403 18:53:22.919513  8031 net.cpp:141] Setting up inception_3a/relu_1x1
I0403 18:53:22.919544  8031 net.cpp:148] Top shape: 24 64 28 28 (1204224)
I0403 18:53:22.919561  8031 net.cpp:156] Memory required for data: 500958240
I0403 18:53:22.919579  8031 layer_factory.hpp:77] Creating layer inception_3a/3x3_reduce
I0403 18:53:22.919607  8031 net.cpp:91] Creating Layer inception_3a/3x3_reduce
I0403 18:53:22.919628  8031 net.cpp:425] inception_3a/3x3_reduce <- pool2/3x3_s2_pool2/3x3_s2_0_split_1
I0403 18:53:22.919653  8031 net.cpp:399] inception_3a/3x3_reduce -> inception_3a/3x3_reduce
I0403 18:53:22.921707  8031 net.cpp:141] Setting up inception_3a/3x3_reduce
I0403 18:53:22.921744  8031 net.cpp:148] Top shape: 24 96 28 28 (1806336)
I0403 18:53:22.921764  8031 net.cpp:156] Memory required for data: 508183584
I0403 18:53:22.921790  8031 layer_factory.hpp:77] Creating layer inception_3a/relu_3x3_reduce
I0403 18:53:22.921835  8031 net.cpp:91] Creating Layer inception_3a/relu_3x3_reduce
I0403 18:53:22.921859  8031 net.cpp:425] inception_3a/relu_3x3_reduce <- inception_3a/3x3_reduce
I0403 18:53:22.921881  8031 net.cpp:386] inception_3a/relu_3x3_reduce -> inception_3a/3x3_reduce (in-place)
I0403 18:53:22.922102  8031 net.cpp:141] Setting up inception_3a/relu_3x3_reduce
I0403 18:53:22.922137  8031 net.cpp:148] Top shape: 24 96 28 28 (1806336)
I0403 18:53:22.922155  8031 net.cpp:156] Memory required for data: 515408928
I0403 18:53:22.922173  8031 layer_factory.hpp:77] Creating layer inception_3a/3x3
I0403 18:53:22.922204  8031 net.cpp:91] Creating Layer inception_3a/3x3
I0403 18:53:22.922226  8031 net.cpp:425] inception_3a/3x3 <- inception_3a/3x3_reduce
I0403 18:53:22.922250  8031 net.cpp:399] inception_3a/3x3 -> inception_3a/3x3
I0403 18:53:22.924275  8031 net.cpp:141] Setting up inception_3a/3x3
I0403 18:53:22.924312  8031 net.cpp:148] Top shape: 24 128 28 28 (2408448)
I0403 18:53:22.924332  8031 net.cpp:156] Memory required for data: 525042720
I0403 18:53:22.924355  8031 layer_factory.hpp:77] Creating layer inception_3a/relu_3x3
I0403 18:53:22.924382  8031 net.cpp:91] Creating Layer inception_3a/relu_3x3
I0403 18:53:22.924404  8031 net.cpp:425] inception_3a/relu_3x3 <- inception_3a/3x3
I0403 18:53:22.924425  8031 net.cpp:386] inception_3a/relu_3x3 -> inception_3a/3x3 (in-place)
I0403 18:53:22.924754  8031 net.cpp:141] Setting up inception_3a/relu_3x3
I0403 18:53:22.924787  8031 net.cpp:148] Top shape: 24 128 28 28 (2408448)
I0403 18:53:22.924806  8031 net.cpp:156] Memory required for data: 534676512
I0403 18:53:22.924824  8031 layer_factory.hpp:77] Creating layer inception_3a/5x5_reduce
I0403 18:53:22.924854  8031 net.cpp:91] Creating Layer inception_3a/5x5_reduce
I0403 18:53:22.924876  8031 net.cpp:425] inception_3a/5x5_reduce <- pool2/3x3_s2_pool2/3x3_s2_0_split_2
I0403 18:53:22.924902  8031 net.cpp:399] inception_3a/5x5_reduce -> inception_3a/5x5_reduce
I0403 18:53:22.926064  8031 net.cpp:141] Setting up inception_3a/5x5_reduce
I0403 18:53:22.926098  8031 net.cpp:148] Top shape: 24 16 28 28 (301056)
I0403 18:53:22.926118  8031 net.cpp:156] Memory required for data: 535880736
I0403 18:53:22.926141  8031 layer_factory.hpp:77] Creating layer inception_3a/relu_5x5_reduce
I0403 18:53:22.926169  8031 net.cpp:91] Creating Layer inception_3a/relu_5x5_reduce
I0403 18:53:22.926192  8031 net.cpp:425] inception_3a/relu_5x5_reduce <- inception_3a/5x5_reduce
I0403 18:53:22.926213  8031 net.cpp:386] inception_3a/relu_5x5_reduce -> inception_3a/5x5_reduce (in-place)
I0403 18:53:22.926560  8031 net.cpp:141] Setting up inception_3a/relu_5x5_reduce
I0403 18:53:22.926594  8031 net.cpp:148] Top shape: 24 16 28 28 (301056)
I0403 18:53:22.926612  8031 net.cpp:156] Memory required for data: 537084960
I0403 18:53:22.926631  8031 layer_factory.hpp:77] Creating layer inception_3a/5x5
I0403 18:53:22.926668  8031 net.cpp:91] Creating Layer inception_3a/5x5
I0403 18:53:22.926690  8031 net.cpp:425] inception_3a/5x5 <- inception_3a/5x5_reduce
I0403 18:53:22.926712  8031 net.cpp:399] inception_3a/5x5 -> inception_3a/5x5
I0403 18:53:22.927942  8031 net.cpp:141] Setting up inception_3a/5x5
I0403 18:53:22.927978  8031 net.cpp:148] Top shape: 24 32 28 28 (602112)
I0403 18:53:22.927997  8031 net.cpp:156] Memory required for data: 539493408
I0403 18:53:22.928020  8031 layer_factory.hpp:77] Creating layer inception_3a/relu_5x5
I0403 18:53:22.928042  8031 net.cpp:91] Creating Layer inception_3a/relu_5x5
I0403 18:53:22.928061  8031 net.cpp:425] inception_3a/relu_5x5 <- inception_3a/5x5
I0403 18:53:22.928086  8031 net.cpp:386] inception_3a/relu_5x5 -> inception_3a/5x5 (in-place)
I0403 18:53:22.928305  8031 net.cpp:141] Setting up inception_3a/relu_5x5
I0403 18:53:22.928336  8031 net.cpp:148] Top shape: 24 32 28 28 (602112)
I0403 18:53:22.928355  8031 net.cpp:156] Memory required for data: 541901856
I0403 18:53:22.928375  8031 layer_factory.hpp:77] Creating layer inception_3a/pool
I0403 18:53:22.928400  8031 net.cpp:91] Creating Layer inception_3a/pool
I0403 18:53:22.928436  8031 net.cpp:425] inception_3a/pool <- pool2/3x3_s2_pool2/3x3_s2_0_split_3
I0403 18:53:22.928460  8031 net.cpp:399] inception_3a/pool -> inception_3a/pool
I0403 18:53:22.928534  8031 net.cpp:141] Setting up inception_3a/pool
I0403 18:53:22.928561  8031 net.cpp:148] Top shape: 24 192 28 28 (3612672)
I0403 18:53:22.928580  8031 net.cpp:156] Memory required for data: 556352544
I0403 18:53:22.928596  8031 layer_factory.hpp:77] Creating layer inception_3a/pool_proj
I0403 18:53:22.928623  8031 net.cpp:91] Creating Layer inception_3a/pool_proj
I0403 18:53:22.928645  8031 net.cpp:425] inception_3a/pool_proj <- inception_3a/pool
I0403 18:53:22.928673  8031 net.cpp:399] inception_3a/pool_proj -> inception_3a/pool_proj
I0403 18:53:22.929832  8031 net.cpp:141] Setting up inception_3a/pool_proj
I0403 18:53:22.929869  8031 net.cpp:148] Top shape: 24 32 28 28 (602112)
I0403 18:53:22.929889  8031 net.cpp:156] Memory required for data: 558760992
I0403 18:53:22.929915  8031 layer_factory.hpp:77] Creating layer inception_3a/relu_pool_proj
I0403 18:53:22.929941  8031 net.cpp:91] Creating Layer inception_3a/relu_pool_proj
I0403 18:53:22.929962  8031 net.cpp:425] inception_3a/relu_pool_proj <- inception_3a/pool_proj
I0403 18:53:22.929985  8031 net.cpp:386] inception_3a/relu_pool_proj -> inception_3a/pool_proj (in-place)
I0403 18:53:22.930317  8031 net.cpp:141] Setting up inception_3a/relu_pool_proj
I0403 18:53:22.930349  8031 net.cpp:148] Top shape: 24 32 28 28 (602112)
I0403 18:53:22.930367  8031 net.cpp:156] Memory required for data: 561169440
I0403 18:53:22.930385  8031 layer_factory.hpp:77] Creating layer inception_3a/output
I0403 18:53:22.930408  8031 net.cpp:91] Creating Layer inception_3a/output
I0403 18:53:22.930426  8031 net.cpp:425] inception_3a/output <- inception_3a/1x1
I0403 18:53:22.930447  8031 net.cpp:425] inception_3a/output <- inception_3a/3x3
I0403 18:53:22.930466  8031 net.cpp:425] inception_3a/output <- inception_3a/5x5
I0403 18:53:22.930485  8031 net.cpp:425] inception_3a/output <- inception_3a/pool_proj
I0403 18:53:22.930508  8031 net.cpp:399] inception_3a/output -> inception_3a/output
I0403 18:53:22.930567  8031 net.cpp:141] Setting up inception_3a/output
I0403 18:53:22.930596  8031 net.cpp:148] Top shape: 24 256 28 28 (4816896)
I0403 18:53:22.930614  8031 net.cpp:156] Memory required for data: 580437024
I0403 18:53:22.930631  8031 layer_factory.hpp:77] Creating layer inception_3a/output_inception_3a/output_0_split
I0403 18:53:22.930654  8031 net.cpp:91] Creating Layer inception_3a/output_inception_3a/output_0_split
I0403 18:53:22.930671  8031 net.cpp:425] inception_3a/output_inception_3a/output_0_split <- inception_3a/output
I0403 18:53:22.930701  8031 net.cpp:399] inception_3a/output_inception_3a/output_0_split -> inception_3a/output_inception_3a/output_0_split_0
I0403 18:53:22.930727  8031 net.cpp:399] inception_3a/output_inception_3a/output_0_split -> inception_3a/output_inception_3a/output_0_split_1
I0403 18:53:22.930754  8031 net.cpp:399] inception_3a/output_inception_3a/output_0_split -> inception_3a/output_inception_3a/output_0_split_2
I0403 18:53:22.930780  8031 net.cpp:399] inception_3a/output_inception_3a/output_0_split -> inception_3a/output_inception_3a/output_0_split_3
I0403 18:53:22.930874  8031 net.cpp:141] Setting up inception_3a/output_inception_3a/output_0_split
I0403 18:53:22.930902  8031 net.cpp:148] Top shape: 24 256 28 28 (4816896)
I0403 18:53:22.930922  8031 net.cpp:148] Top shape: 24 256 28 28 (4816896)
I0403 18:53:22.930941  8031 net.cpp:148] Top shape: 24 256 28 28 (4816896)
I0403 18:53:22.930959  8031 net.cpp:148] Top shape: 24 256 28 28 (4816896)
I0403 18:53:22.930976  8031 net.cpp:156] Memory required for data: 657507360
I0403 18:53:22.930994  8031 layer_factory.hpp:77] Creating layer inception_3b/1x1
I0403 18:53:22.931021  8031 net.cpp:91] Creating Layer inception_3b/1x1
I0403 18:53:22.931044  8031 net.cpp:425] inception_3b/1x1 <- inception_3a/output_inception_3a/output_0_split_0
I0403 18:53:22.931071  8031 net.cpp:399] inception_3b/1x1 -> inception_3b/1x1
I0403 18:53:22.932462  8031 net.cpp:141] Setting up inception_3b/1x1
I0403 18:53:22.932513  8031 net.cpp:148] Top shape: 24 128 28 28 (2408448)
I0403 18:53:22.932535  8031 net.cpp:156] Memory required for data: 667141152
I0403 18:53:22.932559  8031 layer_factory.hpp:77] Creating layer inception_3b/relu_1x1
I0403 18:53:22.932582  8031 net.cpp:91] Creating Layer inception_3b/relu_1x1
I0403 18:53:22.932602  8031 net.cpp:425] inception_3b/relu_1x1 <- inception_3b/1x1
I0403 18:53:22.932628  8031 net.cpp:386] inception_3b/relu_1x1 -> inception_3b/1x1 (in-place)
I0403 18:53:22.932839  8031 net.cpp:141] Setting up inception_3b/relu_1x1
I0403 18:53:22.932870  8031 net.cpp:148] Top shape: 24 128 28 28 (2408448)
I0403 18:53:22.932889  8031 net.cpp:156] Memory required for data: 676774944
I0403 18:53:22.932907  8031 layer_factory.hpp:77] Creating layer inception_3b/3x3_reduce
I0403 18:53:22.932935  8031 net.cpp:91] Creating Layer inception_3b/3x3_reduce
I0403 18:53:22.932957  8031 net.cpp:425] inception_3b/3x3_reduce <- inception_3a/output_inception_3a/output_0_split_1
I0403 18:53:22.932982  8031 net.cpp:399] inception_3b/3x3_reduce -> inception_3b/3x3_reduce
I0403 18:53:22.934371  8031 net.cpp:141] Setting up inception_3b/3x3_reduce
I0403 18:53:22.934406  8031 net.cpp:148] Top shape: 24 128 28 28 (2408448)
I0403 18:53:22.934425  8031 net.cpp:156] Memory required for data: 686408736
I0403 18:53:22.934448  8031 layer_factory.hpp:77] Creating layer inception_3b/relu_3x3_reduce
I0403 18:53:22.934471  8031 net.cpp:91] Creating Layer inception_3b/relu_3x3_reduce
I0403 18:53:22.934491  8031 net.cpp:425] inception_3b/relu_3x3_reduce <- inception_3b/3x3_reduce
I0403 18:53:22.934515  8031 net.cpp:386] inception_3b/relu_3x3_reduce -> inception_3b/3x3_reduce (in-place)
I0403 18:53:22.934726  8031 net.cpp:141] Setting up inception_3b/relu_3x3_reduce
I0403 18:53:22.934756  8031 net.cpp:148] Top shape: 24 128 28 28 (2408448)
I0403 18:53:22.934774  8031 net.cpp:156] Memory required for data: 696042528
I0403 18:53:22.934792  8031 layer_factory.hpp:77] Creating layer inception_3b/3x3
I0403 18:53:22.934823  8031 net.cpp:91] Creating Layer inception_3b/3x3
I0403 18:53:22.934846  8031 net.cpp:425] inception_3b/3x3 <- inception_3b/3x3_reduce
I0403 18:53:22.934871  8031 net.cpp:399] inception_3b/3x3 -> inception_3b/3x3
I0403 18:53:22.938403  8031 net.cpp:141] Setting up inception_3b/3x3
I0403 18:53:22.938439  8031 net.cpp:148] Top shape: 24 192 28 28 (3612672)
I0403 18:53:22.938458  8031 net.cpp:156] Memory required for data: 710493216
I0403 18:53:22.938482  8031 layer_factory.hpp:77] Creating layer inception_3b/relu_3x3
I0403 18:53:22.938506  8031 net.cpp:91] Creating Layer inception_3b/relu_3x3
I0403 18:53:22.938527  8031 net.cpp:425] inception_3b/relu_3x3 <- inception_3b/3x3
I0403 18:53:22.938549  8031 net.cpp:386] inception_3b/relu_3x3 -> inception_3b/3x3 (in-place)
I0403 18:53:22.938876  8031 net.cpp:141] Setting up inception_3b/relu_3x3
I0403 18:53:22.938910  8031 net.cpp:148] Top shape: 24 192 28 28 (3612672)
I0403 18:53:22.938928  8031 net.cpp:156] Memory required for data: 724943904
I0403 18:53:22.938947  8031 layer_factory.hpp:77] Creating layer inception_3b/5x5_reduce
I0403 18:53:22.938977  8031 net.cpp:91] Creating Layer inception_3b/5x5_reduce
I0403 18:53:22.939002  8031 net.cpp:425] inception_3b/5x5_reduce <- inception_3a/output_inception_3a/output_0_split_2
I0403 18:53:22.939028  8031 net.cpp:399] inception_3b/5x5_reduce -> inception_3b/5x5_reduce
I0403 18:53:22.940223  8031 net.cpp:141] Setting up inception_3b/5x5_reduce
I0403 18:53:22.940258  8031 net.cpp:148] Top shape: 24 32 28 28 (602112)
I0403 18:53:22.940285  8031 net.cpp:156] Memory required for data: 727352352
I0403 18:53:22.940310  8031 layer_factory.hpp:77] Creating layer inception_3b/relu_5x5_reduce
I0403 18:53:22.940335  8031 net.cpp:91] Creating Layer inception_3b/relu_5x5_reduce
I0403 18:53:22.940356  8031 net.cpp:425] inception_3b/relu_5x5_reduce <- inception_3b/5x5_reduce
I0403 18:53:22.940378  8031 net.cpp:386] inception_3b/relu_5x5_reduce -> inception_3b/5x5_reduce (in-place)
I0403 18:53:22.940614  8031 net.cpp:141] Setting up inception_3b/relu_5x5_reduce
I0403 18:53:22.940645  8031 net.cpp:148] Top shape: 24 32 28 28 (602112)
I0403 18:53:22.940667  8031 net.cpp:156] Memory required for data: 729760800
I0403 18:53:22.940686  8031 layer_factory.hpp:77] Creating layer inception_3b/5x5
I0403 18:53:22.940712  8031 net.cpp:91] Creating Layer inception_3b/5x5
I0403 18:53:22.940734  8031 net.cpp:425] inception_3b/5x5 <- inception_3b/5x5_reduce
I0403 18:53:22.940759  8031 net.cpp:399] inception_3b/5x5 -> inception_3b/5x5
I0403 18:53:22.943133  8031 net.cpp:141] Setting up inception_3b/5x5
I0403 18:53:22.943169  8031 net.cpp:148] Top shape: 24 96 28 28 (1806336)
I0403 18:53:22.943189  8031 net.cpp:156] Memory required for data: 736986144
I0403 18:53:22.943212  8031 layer_factory.hpp:77] Creating layer inception_3b/relu_5x5
I0403 18:53:22.943234  8031 net.cpp:91] Creating Layer inception_3b/relu_5x5
I0403 18:53:22.943254  8031 net.cpp:425] inception_3b/relu_5x5 <- inception_3b/5x5
I0403 18:53:22.943284  8031 net.cpp:386] inception_3b/relu_5x5 -> inception_3b/5x5 (in-place)
I0403 18:53:22.943524  8031 net.cpp:141] Setting up inception_3b/relu_5x5
I0403 18:53:22.943555  8031 net.cpp:148] Top shape: 24 96 28 28 (1806336)
I0403 18:53:22.943573  8031 net.cpp:156] Memory required for data: 744211488
I0403 18:53:22.943593  8031 layer_factory.hpp:77] Creating layer inception_3b/pool
I0403 18:53:22.943614  8031 net.cpp:91] Creating Layer inception_3b/pool
I0403 18:53:22.943634  8031 net.cpp:425] inception_3b/pool <- inception_3a/output_inception_3a/output_0_split_3
I0403 18:53:22.943655  8031 net.cpp:399] inception_3b/pool -> inception_3b/pool
I0403 18:53:22.943725  8031 net.cpp:141] Setting up inception_3b/pool
I0403 18:53:22.943754  8031 net.cpp:148] Top shape: 24 256 28 28 (4816896)
I0403 18:53:22.943773  8031 net.cpp:156] Memory required for data: 763479072
I0403 18:53:22.943789  8031 layer_factory.hpp:77] Creating layer inception_3b/pool_proj
I0403 18:53:22.943815  8031 net.cpp:91] Creating Layer inception_3b/pool_proj
I0403 18:53:22.943836  8031 net.cpp:425] inception_3b/pool_proj <- inception_3b/pool
I0403 18:53:22.943862  8031 net.cpp:399] inception_3b/pool_proj -> inception_3b/pool_proj
I0403 18:53:22.945124  8031 net.cpp:141] Setting up inception_3b/pool_proj
I0403 18:53:22.945161  8031 net.cpp:148] Top shape: 24 64 28 28 (1204224)
I0403 18:53:22.945181  8031 net.cpp:156] Memory required for data: 768295968
I0403 18:53:22.945204  8031 layer_factory.hpp:77] Creating layer inception_3b/relu_pool_proj
I0403 18:53:22.945226  8031 net.cpp:91] Creating Layer inception_3b/relu_pool_proj
I0403 18:53:22.945247  8031 net.cpp:425] inception_3b/relu_pool_proj <- inception_3b/pool_proj
I0403 18:53:22.945268  8031 net.cpp:386] inception_3b/relu_pool_proj -> inception_3b/pool_proj (in-place)
I0403 18:53:22.945718  8031 net.cpp:141] Setting up inception_3b/relu_pool_proj
I0403 18:53:22.945751  8031 net.cpp:148] Top shape: 24 64 28 28 (1204224)
I0403 18:53:22.945770  8031 net.cpp:156] Memory required for data: 773112864
I0403 18:53:22.945787  8031 layer_factory.hpp:77] Creating layer inception_3b/output
I0403 18:53:22.945812  8031 net.cpp:91] Creating Layer inception_3b/output
I0403 18:53:22.945832  8031 net.cpp:425] inception_3b/output <- inception_3b/1x1
I0403 18:53:22.945853  8031 net.cpp:425] inception_3b/output <- inception_3b/3x3
I0403 18:53:22.945873  8031 net.cpp:425] inception_3b/output <- inception_3b/5x5
I0403 18:53:22.945894  8031 net.cpp:425] inception_3b/output <- inception_3b/pool_proj
I0403 18:53:22.945914  8031 net.cpp:399] inception_3b/output -> inception_3b/output
I0403 18:53:22.945968  8031 net.cpp:141] Setting up inception_3b/output
I0403 18:53:22.945996  8031 net.cpp:148] Top shape: 24 480 28 28 (9031680)
I0403 18:53:22.946013  8031 net.cpp:156] Memory required for data: 809239584
I0403 18:53:22.946033  8031 layer_factory.hpp:77] Creating layer pool3/3x3_s2
I0403 18:53:22.946053  8031 net.cpp:91] Creating Layer pool3/3x3_s2
I0403 18:53:22.946072  8031 net.cpp:425] pool3/3x3_s2 <- inception_3b/output
I0403 18:53:22.946115  8031 net.cpp:399] pool3/3x3_s2 -> pool3/3x3_s2
I0403 18:53:22.946185  8031 net.cpp:141] Setting up pool3/3x3_s2
I0403 18:53:22.946213  8031 net.cpp:148] Top shape: 24 480 14 14 (2257920)
I0403 18:53:22.946230  8031 net.cpp:156] Memory required for data: 818271264
I0403 18:53:22.946249  8031 layer_factory.hpp:77] Creating layer pool3/3x3_s2_pool3/3x3_s2_0_split
I0403 18:53:22.946277  8031 net.cpp:91] Creating Layer pool3/3x3_s2_pool3/3x3_s2_0_split
I0403 18:53:22.946300  8031 net.cpp:425] pool3/3x3_s2_pool3/3x3_s2_0_split <- pool3/3x3_s2
I0403 18:53:22.946323  8031 net.cpp:399] pool3/3x3_s2_pool3/3x3_s2_0_split -> pool3/3x3_s2_pool3/3x3_s2_0_split_0
I0403 18:53:22.946349  8031 net.cpp:399] pool3/3x3_s2_pool3/3x3_s2_0_split -> pool3/3x3_s2_pool3/3x3_s2_0_split_1
I0403 18:53:22.946373  8031 net.cpp:399] pool3/3x3_s2_pool3/3x3_s2_0_split -> pool3/3x3_s2_pool3/3x3_s2_0_split_2
I0403 18:53:22.946395  8031 net.cpp:399] pool3/3x3_s2_pool3/3x3_s2_0_split -> pool3/3x3_s2_pool3/3x3_s2_0_split_3
I0403 18:53:22.946485  8031 net.cpp:141] Setting up pool3/3x3_s2_pool3/3x3_s2_0_split
I0403 18:53:22.946516  8031 net.cpp:148] Top shape: 24 480 14 14 (2257920)
I0403 18:53:22.946537  8031 net.cpp:148] Top shape: 24 480 14 14 (2257920)
I0403 18:53:22.946557  8031 net.cpp:148] Top shape: 24 480 14 14 (2257920)
I0403 18:53:22.946576  8031 net.cpp:148] Top shape: 24 480 14 14 (2257920)
I0403 18:53:22.946593  8031 net.cpp:156] Memory required for data: 854397984
I0403 18:53:22.946610  8031 layer_factory.hpp:77] Creating layer inception_4a/1x1
I0403 18:53:22.946635  8031 net.cpp:91] Creating Layer inception_4a/1x1
I0403 18:53:22.946655  8031 net.cpp:425] inception_4a/1x1 <- pool3/3x3_s2_pool3/3x3_s2_0_split_0
I0403 18:53:22.946681  8031 net.cpp:399] inception_4a/1x1 -> inception_4a/1x1
I0403 18:53:22.948585  8031 net.cpp:141] Setting up inception_4a/1x1
I0403 18:53:22.948621  8031 net.cpp:148] Top shape: 24 192 14 14 (903168)
I0403 18:53:22.948642  8031 net.cpp:156] Memory required for data: 858010656
I0403 18:53:22.948664  8031 layer_factory.hpp:77] Creating layer inception_4a/relu_1x1
I0403 18:53:22.948686  8031 net.cpp:91] Creating Layer inception_4a/relu_1x1
I0403 18:53:22.948706  8031 net.cpp:425] inception_4a/relu_1x1 <- inception_4a/1x1
I0403 18:53:22.948729  8031 net.cpp:386] inception_4a/relu_1x1 -> inception_4a/1x1 (in-place)
I0403 18:53:22.948950  8031 net.cpp:141] Setting up inception_4a/relu_1x1
I0403 18:53:22.948981  8031 net.cpp:148] Top shape: 24 192 14 14 (903168)
I0403 18:53:22.948998  8031 net.cpp:156] Memory required for data: 861623328
I0403 18:53:22.949018  8031 layer_factory.hpp:77] Creating layer inception_4a/3x3_reduce
I0403 18:53:22.949045  8031 net.cpp:91] Creating Layer inception_4a/3x3_reduce
I0403 18:53:22.949066  8031 net.cpp:425] inception_4a/3x3_reduce <- pool3/3x3_s2_pool3/3x3_s2_0_split_1
I0403 18:53:22.949092  8031 net.cpp:399] inception_4a/3x3_reduce -> inception_4a/3x3_reduce
I0403 18:53:22.950641  8031 net.cpp:141] Setting up inception_4a/3x3_reduce
I0403 18:53:22.950678  8031 net.cpp:148] Top shape: 24 96 14 14 (451584)
I0403 18:53:22.950700  8031 net.cpp:156] Memory required for data: 863429664
I0403 18:53:22.950731  8031 layer_factory.hpp:77] Creating layer inception_4a/relu_3x3_reduce
I0403 18:53:22.950754  8031 net.cpp:91] Creating Layer inception_4a/relu_3x3_reduce
I0403 18:53:22.950773  8031 net.cpp:425] inception_4a/relu_3x3_reduce <- inception_4a/3x3_reduce
I0403 18:53:22.950796  8031 net.cpp:386] inception_4a/relu_3x3_reduce -> inception_4a/3x3_reduce (in-place)
I0403 18:53:22.951016  8031 net.cpp:141] Setting up inception_4a/relu_3x3_reduce
I0403 18:53:22.951048  8031 net.cpp:148] Top shape: 24 96 14 14 (451584)
I0403 18:53:22.951067  8031 net.cpp:156] Memory required for data: 865236000
I0403 18:53:22.951087  8031 layer_factory.hpp:77] Creating layer inception_4a/3x3
I0403 18:53:22.951114  8031 net.cpp:91] Creating Layer inception_4a/3x3
I0403 18:53:22.951134  8031 net.cpp:425] inception_4a/3x3 <- inception_4a/3x3_reduce
I0403 18:53:22.951159  8031 net.cpp:399] inception_4a/3x3 -> inception_4a/3x3
I0403 18:53:22.954421  8031 net.cpp:141] Setting up inception_4a/3x3
I0403 18:53:22.954457  8031 net.cpp:148] Top shape: 24 208 14 14 (978432)
I0403 18:53:22.954475  8031 net.cpp:156] Memory required for data: 869149728
I0403 18:53:22.954499  8031 layer_factory.hpp:77] Creating layer inception_4a/relu_3x3
I0403 18:53:22.954520  8031 net.cpp:91] Creating Layer inception_4a/relu_3x3
I0403 18:53:22.954548  8031 net.cpp:425] inception_4a/relu_3x3 <- inception_4a/3x3
I0403 18:53:22.954572  8031 net.cpp:386] inception_4a/relu_3x3 -> inception_4a/3x3 (in-place)
I0403 18:53:22.954907  8031 net.cpp:141] Setting up inception_4a/relu_3x3
I0403 18:53:22.954941  8031 net.cpp:148] Top shape: 24 208 14 14 (978432)
I0403 18:53:22.954960  8031 net.cpp:156] Memory required for data: 873063456
I0403 18:53:22.954978  8031 layer_factory.hpp:77] Creating layer inception_4a/5x5_reduce
I0403 18:53:22.955006  8031 net.cpp:91] Creating Layer inception_4a/5x5_reduce
I0403 18:53:22.955029  8031 net.cpp:425] inception_4a/5x5_reduce <- pool3/3x3_s2_pool3/3x3_s2_0_split_2
I0403 18:53:22.955056  8031 net.cpp:399] inception_4a/5x5_reduce -> inception_4a/5x5_reduce
I0403 18:53:22.956297  8031 net.cpp:141] Setting up inception_4a/5x5_reduce
I0403 18:53:22.956331  8031 net.cpp:148] Top shape: 24 16 14 14 (75264)
I0403 18:53:22.956352  8031 net.cpp:156] Memory required for data: 873364512
I0403 18:53:22.956377  8031 layer_factory.hpp:77] Creating layer inception_4a/relu_5x5_reduce
I0403 18:53:22.956399  8031 net.cpp:91] Creating Layer inception_4a/relu_5x5_reduce
I0403 18:53:22.956418  8031 net.cpp:425] inception_4a/relu_5x5_reduce <- inception_4a/5x5_reduce
I0403 18:53:22.956444  8031 net.cpp:386] inception_4a/relu_5x5_reduce -> inception_4a/5x5_reduce (in-place)
I0403 18:53:22.956665  8031 net.cpp:141] Setting up inception_4a/relu_5x5_reduce
I0403 18:53:22.956696  8031 net.cpp:148] Top shape: 24 16 14 14 (75264)
I0403 18:53:22.956713  8031 net.cpp:156] Memory required for data: 873665568
I0403 18:53:22.956732  8031 layer_factory.hpp:77] Creating layer inception_4a/5x5
I0403 18:53:22.956760  8031 net.cpp:91] Creating Layer inception_4a/5x5
I0403 18:53:22.956784  8031 net.cpp:425] inception_4a/5x5 <- inception_4a/5x5_reduce
I0403 18:53:22.956809  8031 net.cpp:399] inception_4a/5x5 -> inception_4a/5x5
I0403 18:53:22.958132  8031 net.cpp:141] Setting up inception_4a/5x5
I0403 18:53:22.958168  8031 net.cpp:148] Top shape: 24 48 14 14 (225792)
I0403 18:53:22.958189  8031 net.cpp:156] Memory required for data: 874568736
I0403 18:53:22.958210  8031 layer_factory.hpp:77] Creating layer inception_4a/relu_5x5
I0403 18:53:22.958236  8031 net.cpp:91] Creating Layer inception_4a/relu_5x5
I0403 18:53:22.958257  8031 net.cpp:425] inception_4a/relu_5x5 <- inception_4a/5x5
I0403 18:53:22.958284  8031 net.cpp:386] inception_4a/relu_5x5 -> inception_4a/5x5 (in-place)
I0403 18:53:22.958508  8031 net.cpp:141] Setting up inception_4a/relu_5x5
I0403 18:53:22.958540  8031 net.cpp:148] Top shape: 24 48 14 14 (225792)
I0403 18:53:22.958559  8031 net.cpp:156] Memory required for data: 875471904
I0403 18:53:22.958577  8031 layer_factory.hpp:77] Creating layer inception_4a/pool
I0403 18:53:22.958598  8031 net.cpp:91] Creating Layer inception_4a/pool
I0403 18:53:22.958617  8031 net.cpp:425] inception_4a/pool <- pool3/3x3_s2_pool3/3x3_s2_0_split_3
I0403 18:53:22.958642  8031 net.cpp:399] inception_4a/pool -> inception_4a/pool
I0403 18:53:22.958716  8031 net.cpp:141] Setting up inception_4a/pool
I0403 18:53:22.958745  8031 net.cpp:148] Top shape: 24 480 14 14 (2257920)
I0403 18:53:22.958763  8031 net.cpp:156] Memory required for data: 884503584
I0403 18:53:22.958781  8031 layer_factory.hpp:77] Creating layer inception_4a/pool_proj
I0403 18:53:22.958809  8031 net.cpp:91] Creating Layer inception_4a/pool_proj
I0403 18:53:22.958830  8031 net.cpp:425] inception_4a/pool_proj <- inception_4a/pool
I0403 18:53:22.958854  8031 net.cpp:399] inception_4a/pool_proj -> inception_4a/pool_proj
I0403 18:53:22.960263  8031 net.cpp:141] Setting up inception_4a/pool_proj
I0403 18:53:22.960310  8031 net.cpp:148] Top shape: 24 64 14 14 (301056)
I0403 18:53:22.960348  8031 net.cpp:156] Memory required for data: 885707808
I0403 18:53:22.960372  8031 layer_factory.hpp:77] Creating layer inception_4a/relu_pool_proj
I0403 18:53:22.960396  8031 net.cpp:91] Creating Layer inception_4a/relu_pool_proj
I0403 18:53:22.960417  8031 net.cpp:425] inception_4a/relu_pool_proj <- inception_4a/pool_proj
I0403 18:53:22.960443  8031 net.cpp:386] inception_4a/relu_pool_proj -> inception_4a/pool_proj (in-place)
I0403 18:53:22.960778  8031 net.cpp:141] Setting up inception_4a/relu_pool_proj
I0403 18:53:22.960814  8031 net.cpp:148] Top shape: 24 64 14 14 (301056)
I0403 18:53:22.960834  8031 net.cpp:156] Memory required for data: 886912032
I0403 18:53:22.960852  8031 layer_factory.hpp:77] Creating layer inception_4a/output
I0403 18:53:22.960875  8031 net.cpp:91] Creating Layer inception_4a/output
I0403 18:53:22.960896  8031 net.cpp:425] inception_4a/output <- inception_4a/1x1
I0403 18:53:22.960916  8031 net.cpp:425] inception_4a/output <- inception_4a/3x3
I0403 18:53:22.960935  8031 net.cpp:425] inception_4a/output <- inception_4a/5x5
I0403 18:53:22.960955  8031 net.cpp:425] inception_4a/output <- inception_4a/pool_proj
I0403 18:53:22.960976  8031 net.cpp:399] inception_4a/output -> inception_4a/output
I0403 18:53:22.961032  8031 net.cpp:141] Setting up inception_4a/output
I0403 18:53:22.961061  8031 net.cpp:148] Top shape: 24 512 14 14 (2408448)
I0403 18:53:22.961079  8031 net.cpp:156] Memory required for data: 896545824
I0403 18:53:22.961097  8031 layer_factory.hpp:77] Creating layer inception_4a/output_inception_4a/output_0_split
I0403 18:53:22.961119  8031 net.cpp:91] Creating Layer inception_4a/output_inception_4a/output_0_split
I0403 18:53:22.961138  8031 net.cpp:425] inception_4a/output_inception_4a/output_0_split <- inception_4a/output
I0403 18:53:22.961163  8031 net.cpp:399] inception_4a/output_inception_4a/output_0_split -> inception_4a/output_inception_4a/output_0_split_0
I0403 18:53:22.961190  8031 net.cpp:399] inception_4a/output_inception_4a/output_0_split -> inception_4a/output_inception_4a/output_0_split_1
I0403 18:53:22.961216  8031 net.cpp:399] inception_4a/output_inception_4a/output_0_split -> inception_4a/output_inception_4a/output_0_split_2
I0403 18:53:22.961246  8031 net.cpp:399] inception_4a/output_inception_4a/output_0_split -> inception_4a/output_inception_4a/output_0_split_3
I0403 18:53:22.961278  8031 net.cpp:399] inception_4a/output_inception_4a/output_0_split -> inception_4a/output_inception_4a/output_0_split_4
I0403 18:53:22.961398  8031 net.cpp:141] Setting up inception_4a/output_inception_4a/output_0_split
I0403 18:53:22.961427  8031 net.cpp:148] Top shape: 24 512 14 14 (2408448)
I0403 18:53:22.961448  8031 net.cpp:148] Top shape: 24 512 14 14 (2408448)
I0403 18:53:22.961469  8031 net.cpp:148] Top shape: 24 512 14 14 (2408448)
I0403 18:53:22.961488  8031 net.cpp:148] Top shape: 24 512 14 14 (2408448)
I0403 18:53:22.961508  8031 net.cpp:148] Top shape: 24 512 14 14 (2408448)
I0403 18:53:22.961524  8031 net.cpp:156] Memory required for data: 944714784
I0403 18:53:22.961542  8031 layer_factory.hpp:77] Creating layer loss1/ave_pool
I0403 18:53:22.961565  8031 net.cpp:91] Creating Layer loss1/ave_pool
I0403 18:53:22.961583  8031 net.cpp:425] loss1/ave_pool <- inception_4a/output_inception_4a/output_0_split_0
I0403 18:53:22.961611  8031 net.cpp:399] loss1/ave_pool -> loss1/ave_pool
I0403 18:53:22.961861  8031 net.cpp:141] Setting up loss1/ave_pool
I0403 18:53:22.961895  8031 net.cpp:148] Top shape: 24 512 4 4 (196608)
I0403 18:53:22.961915  8031 net.cpp:156] Memory required for data: 945501216
I0403 18:53:22.961933  8031 layer_factory.hpp:77] Creating layer loss1/conv
I0403 18:53:22.961961  8031 net.cpp:91] Creating Layer loss1/conv
I0403 18:53:22.961983  8031 net.cpp:425] loss1/conv <- loss1/ave_pool
I0403 18:53:22.962007  8031 net.cpp:399] loss1/conv -> loss1/conv
I0403 18:53:22.963721  8031 net.cpp:141] Setting up loss1/conv
I0403 18:53:22.963755  8031 net.cpp:148] Top shape: 24 128 4 4 (49152)
I0403 18:53:22.963793  8031 net.cpp:156] Memory required for data: 945697824
I0403 18:53:22.963816  8031 layer_factory.hpp:77] Creating layer loss1/relu_conv
I0403 18:53:22.963840  8031 net.cpp:91] Creating Layer loss1/relu_conv
I0403 18:53:22.963858  8031 net.cpp:425] loss1/relu_conv <- loss1/conv
I0403 18:53:22.963882  8031 net.cpp:386] loss1/relu_conv -> loss1/conv (in-place)
I0403 18:53:22.964226  8031 net.cpp:141] Setting up loss1/relu_conv
I0403 18:53:22.964258  8031 net.cpp:148] Top shape: 24 128 4 4 (49152)
I0403 18:53:22.964284  8031 net.cpp:156] Memory required for data: 945894432
I0403 18:53:22.964304  8031 layer_factory.hpp:77] Creating layer loss1/fc
I0403 18:53:22.964336  8031 net.cpp:91] Creating Layer loss1/fc
I0403 18:53:22.964359  8031 net.cpp:425] loss1/fc <- loss1/conv
I0403 18:53:22.964385  8031 net.cpp:399] loss1/fc -> loss1/fc
I0403 18:53:22.986662  8031 net.cpp:141] Setting up loss1/fc
I0403 18:53:22.986703  8031 net.cpp:148] Top shape: 24 1024 (24576)
I0403 18:53:22.986723  8031 net.cpp:156] Memory required for data: 945992736
I0403 18:53:22.986747  8031 layer_factory.hpp:77] Creating layer loss1/relu_fc
I0403 18:53:22.986768  8031 net.cpp:91] Creating Layer loss1/relu_fc
I0403 18:53:22.986788  8031 net.cpp:425] loss1/relu_fc <- loss1/fc
I0403 18:53:22.986809  8031 net.cpp:386] loss1/relu_fc -> loss1/fc (in-place)
I0403 18:53:22.987035  8031 net.cpp:141] Setting up loss1/relu_fc
I0403 18:53:22.987066  8031 net.cpp:148] Top shape: 24 1024 (24576)
I0403 18:53:22.987084  8031 net.cpp:156] Memory required for data: 946091040
I0403 18:53:22.987102  8031 layer_factory.hpp:77] Creating layer loss1/drop_fc
I0403 18:53:22.987133  8031 net.cpp:91] Creating Layer loss1/drop_fc
I0403 18:53:22.987155  8031 net.cpp:425] loss1/drop_fc <- loss1/fc
I0403 18:53:22.987179  8031 net.cpp:386] loss1/drop_fc -> loss1/fc (in-place)
I0403 18:53:22.987242  8031 net.cpp:141] Setting up loss1/drop_fc
I0403 18:53:22.987277  8031 net.cpp:148] Top shape: 24 1024 (24576)
I0403 18:53:22.987296  8031 net.cpp:156] Memory required for data: 946189344
I0403 18:53:22.987314  8031 layer_factory.hpp:77] Creating layer loss1/classifier_plantvillage
I0403 18:53:22.987342  8031 net.cpp:91] Creating Layer loss1/classifier_plantvillage
I0403 18:53:22.987365  8031 net.cpp:425] loss1/classifier_plantvillage <- loss1/fc
I0403 18:53:22.987387  8031 net.cpp:399] loss1/classifier_plantvillage -> loss1/classifier_plantvillage
I0403 18:53:22.988467  8031 net.cpp:141] Setting up loss1/classifier_plantvillage
I0403 18:53:22.988503  8031 net.cpp:148] Top shape: 24 38 (912)
I0403 18:53:22.988523  8031 net.cpp:156] Memory required for data: 946192992
I0403 18:53:22.988544  8031 layer_factory.hpp:77] Creating layer loss1/classifier_plantvillage_loss1/classifier_plantvillage_0_split
I0403 18:53:22.988566  8031 net.cpp:91] Creating Layer loss1/classifier_plantvillage_loss1/classifier_plantvillage_0_split
I0403 18:53:22.988586  8031 net.cpp:425] loss1/classifier_plantvillage_loss1/classifier_plantvillage_0_split <- loss1/classifier_plantvillage
I0403 18:53:22.988607  8031 net.cpp:399] loss1/classifier_plantvillage_loss1/classifier_plantvillage_0_split -> loss1/classifier_plantvillage_loss1/classifier_plantvillage_0_split_0
I0403 18:53:22.988636  8031 net.cpp:399] loss1/classifier_plantvillage_loss1/classifier_plantvillage_0_split -> loss1/classifier_plantvillage_loss1/classifier_plantvillage_0_split_1
I0403 18:53:22.988662  8031 net.cpp:399] loss1/classifier_plantvillage_loss1/classifier_plantvillage_0_split -> loss1/classifier_plantvillage_loss1/classifier_plantvillage_0_split_2
I0403 18:53:22.988742  8031 net.cpp:141] Setting up loss1/classifier_plantvillage_loss1/classifier_plantvillage_0_split
I0403 18:53:22.988770  8031 net.cpp:148] Top shape: 24 38 (912)
I0403 18:53:22.988790  8031 net.cpp:148] Top shape: 24 38 (912)
I0403 18:53:22.988811  8031 net.cpp:148] Top shape: 24 38 (912)
I0403 18:53:22.988827  8031 net.cpp:156] Memory required for data: 946203936
I0403 18:53:22.988847  8031 layer_factory.hpp:77] Creating layer inception_4b/1x1
I0403 18:53:22.988870  8031 net.cpp:91] Creating Layer inception_4b/1x1
I0403 18:53:22.988910  8031 net.cpp:425] inception_4b/1x1 <- inception_4a/output_inception_4a/output_0_split_1
I0403 18:53:22.988939  8031 net.cpp:399] inception_4b/1x1 -> inception_4b/1x1
I0403 18:53:22.990911  8031 net.cpp:141] Setting up inception_4b/1x1
I0403 18:53:22.990947  8031 net.cpp:148] Top shape: 24 160 14 14 (752640)
I0403 18:53:22.990967  8031 net.cpp:156] Memory required for data: 949214496
I0403 18:53:22.990989  8031 layer_factory.hpp:77] Creating layer inception_4b/relu_1x1
I0403 18:53:22.991011  8031 net.cpp:91] Creating Layer inception_4b/relu_1x1
I0403 18:53:22.991032  8031 net.cpp:425] inception_4b/relu_1x1 <- inception_4b/1x1
I0403 18:53:22.991056  8031 net.cpp:386] inception_4b/relu_1x1 -> inception_4b/1x1 (in-place)
I0403 18:53:22.991289  8031 net.cpp:141] Setting up inception_4b/relu_1x1
I0403 18:53:22.991322  8031 net.cpp:148] Top shape: 24 160 14 14 (752640)
I0403 18:53:22.991340  8031 net.cpp:156] Memory required for data: 952225056
I0403 18:53:22.991358  8031 layer_factory.hpp:77] Creating layer inception_4b/3x3_reduce
I0403 18:53:22.991386  8031 net.cpp:91] Creating Layer inception_4b/3x3_reduce
I0403 18:53:22.991408  8031 net.cpp:425] inception_4b/3x3_reduce <- inception_4a/output_inception_4a/output_0_split_2
I0403 18:53:22.991437  8031 net.cpp:399] inception_4b/3x3_reduce -> inception_4b/3x3_reduce
I0403 18:53:22.993088  8031 net.cpp:141] Setting up inception_4b/3x3_reduce
I0403 18:53:22.993122  8031 net.cpp:148] Top shape: 24 112 14 14 (526848)
I0403 18:53:22.993142  8031 net.cpp:156] Memory required for data: 954332448
I0403 18:53:22.993165  8031 layer_factory.hpp:77] Creating layer inception_4b/relu_3x3_reduce
I0403 18:53:22.993192  8031 net.cpp:91] Creating Layer inception_4b/relu_3x3_reduce
I0403 18:53:22.993214  8031 net.cpp:425] inception_4b/relu_3x3_reduce <- inception_4b/3x3_reduce
I0403 18:53:22.993237  8031 net.cpp:386] inception_4b/relu_3x3_reduce -> inception_4b/3x3_reduce (in-place)
I0403 18:53:22.993583  8031 net.cpp:141] Setting up inception_4b/relu_3x3_reduce
I0403 18:53:22.993618  8031 net.cpp:148] Top shape: 24 112 14 14 (526848)
I0403 18:53:22.993638  8031 net.cpp:156] Memory required for data: 956439840
I0403 18:53:22.993656  8031 layer_factory.hpp:77] Creating layer inception_4b/3x3
I0403 18:53:22.993685  8031 net.cpp:91] Creating Layer inception_4b/3x3
I0403 18:53:22.993708  8031 net.cpp:425] inception_4b/3x3 <- inception_4b/3x3_reduce
I0403 18:53:22.993734  8031 net.cpp:399] inception_4b/3x3 -> inception_4b/3x3
I0403 18:53:22.997400  8031 net.cpp:141] Setting up inception_4b/3x3
I0403 18:53:22.997439  8031 net.cpp:148] Top shape: 24 224 14 14 (1053696)
I0403 18:53:22.997460  8031 net.cpp:156] Memory required for data: 960654624
I0403 18:53:22.997483  8031 layer_factory.hpp:77] Creating layer inception_4b/relu_3x3
I0403 18:53:22.997508  8031 net.cpp:91] Creating Layer inception_4b/relu_3x3
I0403 18:53:22.997529  8031 net.cpp:425] inception_4b/relu_3x3 <- inception_4b/3x3
I0403 18:53:22.997550  8031 net.cpp:386] inception_4b/relu_3x3 -> inception_4b/3x3 (in-place)
I0403 18:53:22.997776  8031 net.cpp:141] Setting up inception_4b/relu_3x3
I0403 18:53:22.997805  8031 net.cpp:148] Top shape: 24 224 14 14 (1053696)
I0403 18:53:22.997823  8031 net.cpp:156] Memory required for data: 964869408
I0403 18:53:22.997841  8031 layer_factory.hpp:77] Creating layer inception_4b/5x5_reduce
I0403 18:53:22.997871  8031 net.cpp:91] Creating Layer inception_4b/5x5_reduce
I0403 18:53:22.997895  8031 net.cpp:425] inception_4b/5x5_reduce <- inception_4a/output_inception_4a/output_0_split_3
I0403 18:53:22.997920  8031 net.cpp:399] inception_4b/5x5_reduce -> inception_4b/5x5_reduce
I0403 18:53:22.999236  8031 net.cpp:141] Setting up inception_4b/5x5_reduce
I0403 18:53:22.999277  8031 net.cpp:148] Top shape: 24 24 14 14 (112896)
I0403 18:53:22.999299  8031 net.cpp:156] Memory required for data: 965320992
I0403 18:53:22.999321  8031 layer_factory.hpp:77] Creating layer inception_4b/relu_5x5_reduce
I0403 18:53:22.999347  8031 net.cpp:91] Creating Layer inception_4b/relu_5x5_reduce
I0403 18:53:22.999387  8031 net.cpp:425] inception_4b/relu_5x5_reduce <- inception_4b/5x5_reduce
I0403 18:53:22.999408  8031 net.cpp:386] inception_4b/relu_5x5_reduce -> inception_4b/5x5_reduce (in-place)
I0403 18:53:22.999639  8031 net.cpp:141] Setting up inception_4b/relu_5x5_reduce
I0403 18:53:22.999670  8031 net.cpp:148] Top shape: 24 24 14 14 (112896)
I0403 18:53:22.999691  8031 net.cpp:156] Memory required for data: 965772576
I0403 18:53:22.999708  8031 layer_factory.hpp:77] Creating layer inception_4b/5x5
I0403 18:53:22.999737  8031 net.cpp:91] Creating Layer inception_4b/5x5
I0403 18:53:22.999758  8031 net.cpp:425] inception_4b/5x5 <- inception_4b/5x5_reduce
I0403 18:53:22.999780  8031 net.cpp:399] inception_4b/5x5 -> inception_4b/5x5
I0403 18:53:23.001286  8031 net.cpp:141] Setting up inception_4b/5x5
I0403 18:53:23.001320  8031 net.cpp:148] Top shape: 24 64 14 14 (301056)
I0403 18:53:23.001340  8031 net.cpp:156] Memory required for data: 966976800
I0403 18:53:23.001363  8031 layer_factory.hpp:77] Creating layer inception_4b/relu_5x5
I0403 18:53:23.001386  8031 net.cpp:91] Creating Layer inception_4b/relu_5x5
I0403 18:53:23.001405  8031 net.cpp:425] inception_4b/relu_5x5 <- inception_4b/5x5
I0403 18:53:23.001430  8031 net.cpp:386] inception_4b/relu_5x5 -> inception_4b/5x5 (in-place)
I0403 18:53:23.001776  8031 net.cpp:141] Setting up inception_4b/relu_5x5
I0403 18:53:23.001809  8031 net.cpp:148] Top shape: 24 64 14 14 (301056)
I0403 18:53:23.001828  8031 net.cpp:156] Memory required for data: 968181024
I0403 18:53:23.001847  8031 layer_factory.hpp:77] Creating layer inception_4b/pool
I0403 18:53:23.001869  8031 net.cpp:91] Creating Layer inception_4b/pool
I0403 18:53:23.001889  8031 net.cpp:425] inception_4b/pool <- inception_4a/output_inception_4a/output_0_split_4
I0403 18:53:23.001914  8031 net.cpp:399] inception_4b/pool -> inception_4b/pool
I0403 18:53:23.001994  8031 net.cpp:141] Setting up inception_4b/pool
I0403 18:53:23.002023  8031 net.cpp:148] Top shape: 24 512 14 14 (2408448)
I0403 18:53:23.002040  8031 net.cpp:156] Memory required for data: 977814816
I0403 18:53:23.002059  8031 layer_factory.hpp:77] Creating layer inception_4b/pool_proj
I0403 18:53:23.002089  8031 net.cpp:91] Creating Layer inception_4b/pool_proj
I0403 18:53:23.002111  8031 net.cpp:425] inception_4b/pool_proj <- inception_4b/pool
I0403 18:53:23.002135  8031 net.cpp:399] inception_4b/pool_proj -> inception_4b/pool_proj
I0403 18:53:23.003623  8031 net.cpp:141] Setting up inception_4b/pool_proj
I0403 18:53:23.003657  8031 net.cpp:148] Top shape: 24 64 14 14 (301056)
I0403 18:53:23.003676  8031 net.cpp:156] Memory required for data: 979019040
I0403 18:53:23.003697  8031 layer_factory.hpp:77] Creating layer inception_4b/relu_pool_proj
I0403 18:53:23.003722  8031 net.cpp:91] Creating Layer inception_4b/relu_pool_proj
I0403 18:53:23.003744  8031 net.cpp:425] inception_4b/relu_pool_proj <- inception_4b/pool_proj
I0403 18:53:23.003767  8031 net.cpp:386] inception_4b/relu_pool_proj -> inception_4b/pool_proj (in-place)
I0403 18:53:23.003988  8031 net.cpp:141] Setting up inception_4b/relu_pool_proj
I0403 18:53:23.004020  8031 net.cpp:148] Top shape: 24 64 14 14 (301056)
I0403 18:53:23.004039  8031 net.cpp:156] Memory required for data: 980223264
I0403 18:53:23.004056  8031 layer_factory.hpp:77] Creating layer inception_4b/output
I0403 18:53:23.004078  8031 net.cpp:91] Creating Layer inception_4b/output
I0403 18:53:23.004097  8031 net.cpp:425] inception_4b/output <- inception_4b/1x1
I0403 18:53:23.004118  8031 net.cpp:425] inception_4b/output <- inception_4b/3x3
I0403 18:53:23.004138  8031 net.cpp:425] inception_4b/output <- inception_4b/5x5
I0403 18:53:23.004158  8031 net.cpp:425] inception_4b/output <- inception_4b/pool_proj
I0403 18:53:23.004179  8031 net.cpp:399] inception_4b/output -> inception_4b/output
I0403 18:53:23.004237  8031 net.cpp:141] Setting up inception_4b/output
I0403 18:53:23.004266  8031 net.cpp:148] Top shape: 24 512 14 14 (2408448)
I0403 18:53:23.004290  8031 net.cpp:156] Memory required for data: 989857056
I0403 18:53:23.004326  8031 layer_factory.hpp:77] Creating layer inception_4b/output_inception_4b/output_0_split
I0403 18:53:23.004348  8031 net.cpp:91] Creating Layer inception_4b/output_inception_4b/output_0_split
I0403 18:53:23.004367  8031 net.cpp:425] inception_4b/output_inception_4b/output_0_split <- inception_4b/output
I0403 18:53:23.004391  8031 net.cpp:399] inception_4b/output_inception_4b/output_0_split -> inception_4b/output_inception_4b/output_0_split_0
I0403 18:53:23.004418  8031 net.cpp:399] inception_4b/output_inception_4b/output_0_split -> inception_4b/output_inception_4b/output_0_split_1
I0403 18:53:23.004446  8031 net.cpp:399] inception_4b/output_inception_4b/output_0_split -> inception_4b/output_inception_4b/output_0_split_2
I0403 18:53:23.004470  8031 net.cpp:399] inception_4b/output_inception_4b/output_0_split -> inception_4b/output_inception_4b/output_0_split_3
I0403 18:53:23.004580  8031 net.cpp:141] Setting up inception_4b/output_inception_4b/output_0_split
I0403 18:53:23.004609  8031 net.cpp:148] Top shape: 24 512 14 14 (2408448)
I0403 18:53:23.004629  8031 net.cpp:148] Top shape: 24 512 14 14 (2408448)
I0403 18:53:23.004649  8031 net.cpp:148] Top shape: 24 512 14 14 (2408448)
I0403 18:53:23.004668  8031 net.cpp:148] Top shape: 24 512 14 14 (2408448)
I0403 18:53:23.004685  8031 net.cpp:156] Memory required for data: 1028392224
I0403 18:53:23.004703  8031 layer_factory.hpp:77] Creating layer inception_4c/1x1
I0403 18:53:23.004730  8031 net.cpp:91] Creating Layer inception_4c/1x1
I0403 18:53:23.004751  8031 net.cpp:425] inception_4c/1x1 <- inception_4b/output_inception_4b/output_0_split_0
I0403 18:53:23.004778  8031 net.cpp:399] inception_4c/1x1 -> inception_4c/1x1
I0403 18:53:23.006538  8031 net.cpp:141] Setting up inception_4c/1x1
I0403 18:53:23.006578  8031 net.cpp:148] Top shape: 24 128 14 14 (602112)
I0403 18:53:23.006598  8031 net.cpp:156] Memory required for data: 1030800672
I0403 18:53:23.006621  8031 layer_factory.hpp:77] Creating layer inception_4c/relu_1x1
I0403 18:53:23.006644  8031 net.cpp:91] Creating Layer inception_4c/relu_1x1
I0403 18:53:23.006662  8031 net.cpp:425] inception_4c/relu_1x1 <- inception_4c/1x1
I0403 18:53:23.006683  8031 net.cpp:386] inception_4c/relu_1x1 -> inception_4c/1x1 (in-place)
I0403 18:53:23.006907  8031 net.cpp:141] Setting up inception_4c/relu_1x1
I0403 18:53:23.006942  8031 net.cpp:148] Top shape: 24 128 14 14 (602112)
I0403 18:53:23.006961  8031 net.cpp:156] Memory required for data: 1033209120
I0403 18:53:23.006979  8031 layer_factory.hpp:77] Creating layer inception_4c/3x3_reduce
I0403 18:53:23.007007  8031 net.cpp:91] Creating Layer inception_4c/3x3_reduce
I0403 18:53:23.007030  8031 net.cpp:425] inception_4c/3x3_reduce <- inception_4b/output_inception_4b/output_0_split_1
I0403 18:53:23.007056  8031 net.cpp:399] inception_4c/3x3_reduce -> inception_4c/3x3_reduce
I0403 18:53:23.009449  8031 net.cpp:141] Setting up inception_4c/3x3_reduce
I0403 18:53:23.009490  8031 net.cpp:148] Top shape: 24 128 14 14 (602112)
I0403 18:53:23.009510  8031 net.cpp:156] Memory required for data: 1035617568
I0403 18:53:23.009532  8031 layer_factory.hpp:77] Creating layer inception_4c/relu_3x3_reduce
I0403 18:53:23.009555  8031 net.cpp:91] Creating Layer inception_4c/relu_3x3_reduce
I0403 18:53:23.009580  8031 net.cpp:425] inception_4c/relu_3x3_reduce <- inception_4c/3x3_reduce
I0403 18:53:23.009603  8031 net.cpp:386] inception_4c/relu_3x3_reduce -> inception_4c/3x3_reduce (in-place)
I0403 18:53:23.009953  8031 net.cpp:141] Setting up inception_4c/relu_3x3_reduce
I0403 18:53:23.009985  8031 net.cpp:148] Top shape: 24 128 14 14 (602112)
I0403 18:53:23.010004  8031 net.cpp:156] Memory required for data: 1038026016
I0403 18:53:23.010023  8031 layer_factory.hpp:77] Creating layer inception_4c/3x3
I0403 18:53:23.010052  8031 net.cpp:91] Creating Layer inception_4c/3x3
I0403 18:53:23.010074  8031 net.cpp:425] inception_4c/3x3 <- inception_4c/3x3_reduce
I0403 18:53:23.010100  8031 net.cpp:399] inception_4c/3x3 -> inception_4c/3x3
I0403 18:53:23.014519  8031 net.cpp:141] Setting up inception_4c/3x3
I0403 18:53:23.014572  8031 net.cpp:148] Top shape: 24 256 14 14 (1204224)
I0403 18:53:23.014592  8031 net.cpp:156] Memory required for data: 1042842912
I0403 18:53:23.014631  8031 layer_factory.hpp:77] Creating layer inception_4c/relu_3x3
I0403 18:53:23.014658  8031 net.cpp:91] Creating Layer inception_4c/relu_3x3
I0403 18:53:23.014679  8031 net.cpp:425] inception_4c/relu_3x3 <- inception_4c/3x3
I0403 18:53:23.014703  8031 net.cpp:386] inception_4c/relu_3x3 -> inception_4c/3x3 (in-place)
I0403 18:53:23.014933  8031 net.cpp:141] Setting up inception_4c/relu_3x3
I0403 18:53:23.014964  8031 net.cpp:148] Top shape: 24 256 14 14 (1204224)
I0403 18:53:23.014983  8031 net.cpp:156] Memory required for data: 1047659808
I0403 18:53:23.015002  8031 layer_factory.hpp:77] Creating layer inception_4c/5x5_reduce
I0403 18:53:23.015032  8031 net.cpp:91] Creating Layer inception_4c/5x5_reduce
I0403 18:53:23.015055  8031 net.cpp:425] inception_4c/5x5_reduce <- inception_4b/output_inception_4b/output_0_split_2
I0403 18:53:23.015080  8031 net.cpp:399] inception_4c/5x5_reduce -> inception_4c/5x5_reduce
I0403 18:53:23.016422  8031 net.cpp:141] Setting up inception_4c/5x5_reduce
I0403 18:53:23.016458  8031 net.cpp:148] Top shape: 24 24 14 14 (112896)
I0403 18:53:23.016477  8031 net.cpp:156] Memory required for data: 1048111392
I0403 18:53:23.016500  8031 layer_factory.hpp:77] Creating layer inception_4c/relu_5x5_reduce
I0403 18:53:23.016525  8031 net.cpp:91] Creating Layer inception_4c/relu_5x5_reduce
I0403 18:53:23.016546  8031 net.cpp:425] inception_4c/relu_5x5_reduce <- inception_4c/5x5_reduce
I0403 18:53:23.016567  8031 net.cpp:386] inception_4c/relu_5x5_reduce -> inception_4c/5x5_reduce (in-place)
I0403 18:53:23.016794  8031 net.cpp:141] Setting up inception_4c/relu_5x5_reduce
I0403 18:53:23.016824  8031 net.cpp:148] Top shape: 24 24 14 14 (112896)
I0403 18:53:23.016842  8031 net.cpp:156] Memory required for data: 1048562976
I0403 18:53:23.016860  8031 layer_factory.hpp:77] Creating layer inception_4c/5x5
I0403 18:53:23.016890  8031 net.cpp:91] Creating Layer inception_4c/5x5
I0403 18:53:23.016912  8031 net.cpp:425] inception_4c/5x5 <- inception_4c/5x5_reduce
I0403 18:53:23.016935  8031 net.cpp:399] inception_4c/5x5 -> inception_4c/5x5
I0403 18:53:23.018460  8031 net.cpp:141] Setting up inception_4c/5x5
I0403 18:53:23.018494  8031 net.cpp:148] Top shape: 24 64 14 14 (301056)
I0403 18:53:23.018517  8031 net.cpp:156] Memory required for data: 1049767200
I0403 18:53:23.018538  8031 layer_factory.hpp:77] Creating layer inception_4c/relu_5x5
I0403 18:53:23.018560  8031 net.cpp:91] Creating Layer inception_4c/relu_5x5
I0403 18:53:23.018579  8031 net.cpp:425] inception_4c/relu_5x5 <- inception_4c/5x5
I0403 18:53:23.018601  8031 net.cpp:386] inception_4c/relu_5x5 -> inception_4c/5x5 (in-place)
I0403 18:53:23.018954  8031 net.cpp:141] Setting up inception_4c/relu_5x5
I0403 18:53:23.018987  8031 net.cpp:148] Top shape: 24 64 14 14 (301056)
I0403 18:53:23.019011  8031 net.cpp:156] Memory required for data: 1050971424
I0403 18:53:23.019028  8031 layer_factory.hpp:77] Creating layer inception_4c/pool
I0403 18:53:23.019052  8031 net.cpp:91] Creating Layer inception_4c/pool
I0403 18:53:23.019070  8031 net.cpp:425] inception_4c/pool <- inception_4b/output_inception_4b/output_0_split_3
I0403 18:53:23.019094  8031 net.cpp:399] inception_4c/pool -> inception_4c/pool
I0403 18:53:23.019176  8031 net.cpp:141] Setting up inception_4c/pool
I0403 18:53:23.019203  8031 net.cpp:148] Top shape: 24 512 14 14 (2408448)
I0403 18:53:23.019222  8031 net.cpp:156] Memory required for data: 1060605216
I0403 18:53:23.019240  8031 layer_factory.hpp:77] Creating layer inception_4c/pool_proj
I0403 18:53:23.019268  8031 net.cpp:91] Creating Layer inception_4c/pool_proj
I0403 18:53:23.019299  8031 net.cpp:425] inception_4c/pool_proj <- inception_4c/pool
I0403 18:53:23.019325  8031 net.cpp:399] inception_4c/pool_proj -> inception_4c/pool_proj
I0403 18:53:23.020828  8031 net.cpp:141] Setting up inception_4c/pool_proj
I0403 18:53:23.020861  8031 net.cpp:148] Top shape: 24 64 14 14 (301056)
I0403 18:53:23.020898  8031 net.cpp:156] Memory required for data: 1061809440
I0403 18:53:23.020923  8031 layer_factory.hpp:77] Creating layer inception_4c/relu_pool_proj
I0403 18:53:23.020946  8031 net.cpp:91] Creating Layer inception_4c/relu_pool_proj
I0403 18:53:23.020967  8031 net.cpp:425] inception_4c/relu_pool_proj <- inception_4c/pool_proj
I0403 18:53:23.020992  8031 net.cpp:386] inception_4c/relu_pool_proj -> inception_4c/pool_proj (in-place)
I0403 18:53:23.021219  8031 net.cpp:141] Setting up inception_4c/relu_pool_proj
I0403 18:53:23.021250  8031 net.cpp:148] Top shape: 24 64 14 14 (301056)
I0403 18:53:23.021267  8031 net.cpp:156] Memory required for data: 1063013664
I0403 18:53:23.021294  8031 layer_factory.hpp:77] Creating layer inception_4c/output
I0403 18:53:23.021319  8031 net.cpp:91] Creating Layer inception_4c/output
I0403 18:53:23.021342  8031 net.cpp:425] inception_4c/output <- inception_4c/1x1
I0403 18:53:23.021363  8031 net.cpp:425] inception_4c/output <- inception_4c/3x3
I0403 18:53:23.021383  8031 net.cpp:425] inception_4c/output <- inception_4c/5x5
I0403 18:53:23.021404  8031 net.cpp:425] inception_4c/output <- inception_4c/pool_proj
I0403 18:53:23.021425  8031 net.cpp:399] inception_4c/output -> inception_4c/output
I0403 18:53:23.021486  8031 net.cpp:141] Setting up inception_4c/output
I0403 18:53:23.021515  8031 net.cpp:148] Top shape: 24 512 14 14 (2408448)
I0403 18:53:23.021533  8031 net.cpp:156] Memory required for data: 1072647456
I0403 18:53:23.021551  8031 layer_factory.hpp:77] Creating layer inception_4c/output_inception_4c/output_0_split
I0403 18:53:23.021574  8031 net.cpp:91] Creating Layer inception_4c/output_inception_4c/output_0_split
I0403 18:53:23.021595  8031 net.cpp:425] inception_4c/output_inception_4c/output_0_split <- inception_4c/output
I0403 18:53:23.021620  8031 net.cpp:399] inception_4c/output_inception_4c/output_0_split -> inception_4c/output_inception_4c/output_0_split_0
I0403 18:53:23.021644  8031 net.cpp:399] inception_4c/output_inception_4c/output_0_split -> inception_4c/output_inception_4c/output_0_split_1
I0403 18:53:23.021669  8031 net.cpp:399] inception_4c/output_inception_4c/output_0_split -> inception_4c/output_inception_4c/output_0_split_2
I0403 18:53:23.021695  8031 net.cpp:399] inception_4c/output_inception_4c/output_0_split -> inception_4c/output_inception_4c/output_0_split_3
I0403 18:53:23.021801  8031 net.cpp:141] Setting up inception_4c/output_inception_4c/output_0_split
I0403 18:53:23.021831  8031 net.cpp:148] Top shape: 24 512 14 14 (2408448)
I0403 18:53:23.021850  8031 net.cpp:148] Top shape: 24 512 14 14 (2408448)
I0403 18:53:23.021870  8031 net.cpp:148] Top shape: 24 512 14 14 (2408448)
I0403 18:53:23.021888  8031 net.cpp:148] Top shape: 24 512 14 14 (2408448)
I0403 18:53:23.021904  8031 net.cpp:156] Memory required for data: 1111182624
I0403 18:53:23.021924  8031 layer_factory.hpp:77] Creating layer inception_4d/1x1
I0403 18:53:23.021952  8031 net.cpp:91] Creating Layer inception_4d/1x1
I0403 18:53:23.021975  8031 net.cpp:425] inception_4d/1x1 <- inception_4c/output_inception_4c/output_0_split_0
I0403 18:53:23.022002  8031 net.cpp:399] inception_4d/1x1 -> inception_4d/1x1
I0403 18:53:23.023716  8031 net.cpp:141] Setting up inception_4d/1x1
I0403 18:53:23.023753  8031 net.cpp:148] Top shape: 24 112 14 14 (526848)
I0403 18:53:23.023774  8031 net.cpp:156] Memory required for data: 1113290016
I0403 18:53:23.023797  8031 layer_factory.hpp:77] Creating layer inception_4d/relu_1x1
I0403 18:53:23.023819  8031 net.cpp:91] Creating Layer inception_4d/relu_1x1
I0403 18:53:23.023841  8031 net.cpp:425] inception_4d/relu_1x1 <- inception_4d/1x1
I0403 18:53:23.023865  8031 net.cpp:386] inception_4d/relu_1x1 -> inception_4d/1x1 (in-place)
I0403 18:53:23.024099  8031 net.cpp:141] Setting up inception_4d/relu_1x1
I0403 18:53:23.024132  8031 net.cpp:148] Top shape: 24 112 14 14 (526848)
I0403 18:53:23.024150  8031 net.cpp:156] Memory required for data: 1115397408
I0403 18:53:23.024169  8031 layer_factory.hpp:77] Creating layer inception_4d/3x3_reduce
I0403 18:53:23.024214  8031 net.cpp:91] Creating Layer inception_4d/3x3_reduce
I0403 18:53:23.024240  8031 net.cpp:425] inception_4d/3x3_reduce <- inception_4c/output_inception_4c/output_0_split_1
I0403 18:53:23.024266  8031 net.cpp:399] inception_4d/3x3_reduce -> inception_4d/3x3_reduce
I0403 18:53:23.026129  8031 net.cpp:141] Setting up inception_4d/3x3_reduce
I0403 18:53:23.026163  8031 net.cpp:148] Top shape: 24 144 14 14 (677376)
I0403 18:53:23.026185  8031 net.cpp:156] Memory required for data: 1118106912
I0403 18:53:23.026207  8031 layer_factory.hpp:77] Creating layer inception_4d/relu_3x3_reduce
I0403 18:53:23.026232  8031 net.cpp:91] Creating Layer inception_4d/relu_3x3_reduce
I0403 18:53:23.026254  8031 net.cpp:425] inception_4d/relu_3x3_reduce <- inception_4d/3x3_reduce
I0403 18:53:23.026283  8031 net.cpp:386] inception_4d/relu_3x3_reduce -> inception_4d/3x3_reduce (in-place)
I0403 18:53:23.026643  8031 net.cpp:141] Setting up inception_4d/relu_3x3_reduce
I0403 18:53:23.026682  8031 net.cpp:148] Top shape: 24 144 14 14 (677376)
I0403 18:53:23.026701  8031 net.cpp:156] Memory required for data: 1120816416
I0403 18:53:23.026721  8031 layer_factory.hpp:77] Creating layer inception_4d/3x3
I0403 18:53:23.026752  8031 net.cpp:91] Creating Layer inception_4d/3x3
I0403 18:53:23.026775  8031 net.cpp:425] inception_4d/3x3 <- inception_4d/3x3_reduce
I0403 18:53:23.026798  8031 net.cpp:399] inception_4d/3x3 -> inception_4d/3x3
I0403 18:53:23.032117  8031 net.cpp:141] Setting up inception_4d/3x3
I0403 18:53:23.032156  8031 net.cpp:148] Top shape: 24 288 14 14 (1354752)
I0403 18:53:23.032177  8031 net.cpp:156] Memory required for data: 1126235424
I0403 18:53:23.032202  8031 layer_factory.hpp:77] Creating layer inception_4d/relu_3x3
I0403 18:53:23.032225  8031 net.cpp:91] Creating Layer inception_4d/relu_3x3
I0403 18:53:23.032244  8031 net.cpp:425] inception_4d/relu_3x3 <- inception_4d/3x3
I0403 18:53:23.032269  8031 net.cpp:386] inception_4d/relu_3x3 -> inception_4d/3x3 (in-place)
I0403 18:53:23.032516  8031 net.cpp:141] Setting up inception_4d/relu_3x3
I0403 18:53:23.032547  8031 net.cpp:148] Top shape: 24 288 14 14 (1354752)
I0403 18:53:23.032565  8031 net.cpp:156] Memory required for data: 1131654432
I0403 18:53:23.032583  8031 layer_factory.hpp:77] Creating layer inception_4d/5x5_reduce
I0403 18:53:23.032611  8031 net.cpp:91] Creating Layer inception_4d/5x5_reduce
I0403 18:53:23.032634  8031 net.cpp:425] inception_4d/5x5_reduce <- inception_4c/output_inception_4c/output_0_split_2
I0403 18:53:23.032660  8031 net.cpp:399] inception_4d/5x5_reduce -> inception_4d/5x5_reduce
I0403 18:53:23.034075  8031 net.cpp:141] Setting up inception_4d/5x5_reduce
I0403 18:53:23.034109  8031 net.cpp:148] Top shape: 24 32 14 14 (150528)
I0403 18:53:23.034128  8031 net.cpp:156] Memory required for data: 1132256544
I0403 18:53:23.034152  8031 layer_factory.hpp:77] Creating layer inception_4d/relu_5x5_reduce
I0403 18:53:23.034173  8031 net.cpp:91] Creating Layer inception_4d/relu_5x5_reduce
I0403 18:53:23.034193  8031 net.cpp:425] inception_4d/relu_5x5_reduce <- inception_4d/5x5_reduce
I0403 18:53:23.034216  8031 net.cpp:386] inception_4d/relu_5x5_reduce -> inception_4d/5x5_reduce (in-place)
I0403 18:53:23.034457  8031 net.cpp:141] Setting up inception_4d/relu_5x5_reduce
I0403 18:53:23.034487  8031 net.cpp:148] Top shape: 24 32 14 14 (150528)
I0403 18:53:23.034504  8031 net.cpp:156] Memory required for data: 1132858656
I0403 18:53:23.034523  8031 layer_factory.hpp:77] Creating layer inception_4d/5x5
I0403 18:53:23.034550  8031 net.cpp:91] Creating Layer inception_4d/5x5
I0403 18:53:23.034572  8031 net.cpp:425] inception_4d/5x5 <- inception_4d/5x5_reduce
I0403 18:53:23.034597  8031 net.cpp:399] inception_4d/5x5 -> inception_4d/5x5
I0403 18:53:23.036377  8031 net.cpp:141] Setting up inception_4d/5x5
I0403 18:53:23.036412  8031 net.cpp:148] Top shape: 24 64 14 14 (301056)
I0403 18:53:23.036430  8031 net.cpp:156] Memory required for data: 1134062880
I0403 18:53:23.036453  8031 layer_factory.hpp:77] Creating layer inception_4d/relu_5x5
I0403 18:53:23.036494  8031 net.cpp:91] Creating Layer inception_4d/relu_5x5
I0403 18:53:23.036516  8031 net.cpp:425] inception_4d/relu_5x5 <- inception_4d/5x5
I0403 18:53:23.036538  8031 net.cpp:386] inception_4d/relu_5x5 -> inception_4d/5x5 (in-place)
I0403 18:53:23.036902  8031 net.cpp:141] Setting up inception_4d/relu_5x5
I0403 18:53:23.036933  8031 net.cpp:148] Top shape: 24 64 14 14 (301056)
I0403 18:53:23.036952  8031 net.cpp:156] Memory required for data: 1135267104
I0403 18:53:23.036969  8031 layer_factory.hpp:77] Creating layer inception_4d/pool
I0403 18:53:23.036994  8031 net.cpp:91] Creating Layer inception_4d/pool
I0403 18:53:23.037015  8031 net.cpp:425] inception_4d/pool <- inception_4c/output_inception_4c/output_0_split_3
I0403 18:53:23.037037  8031 net.cpp:399] inception_4d/pool -> inception_4d/pool
I0403 18:53:23.037119  8031 net.cpp:141] Setting up inception_4d/pool
I0403 18:53:23.037148  8031 net.cpp:148] Top shape: 24 512 14 14 (2408448)
I0403 18:53:23.037165  8031 net.cpp:156] Memory required for data: 1144900896
I0403 18:53:23.037184  8031 layer_factory.hpp:77] Creating layer inception_4d/pool_proj
I0403 18:53:23.037209  8031 net.cpp:91] Creating Layer inception_4d/pool_proj
I0403 18:53:23.037230  8031 net.cpp:425] inception_4d/pool_proj <- inception_4d/pool
I0403 18:53:23.037256  8031 net.cpp:399] inception_4d/pool_proj -> inception_4d/pool_proj
I0403 18:53:23.039407  8031 net.cpp:141] Setting up inception_4d/pool_proj
I0403 18:53:23.039445  8031 net.cpp:148] Top shape: 24 64 14 14 (301056)
I0403 18:53:23.039465  8031 net.cpp:156] Memory required for data: 1146105120
I0403 18:53:23.039487  8031 layer_factory.hpp:77] Creating layer inception_4d/relu_pool_proj
I0403 18:53:23.039510  8031 net.cpp:91] Creating Layer inception_4d/relu_pool_proj
I0403 18:53:23.039530  8031 net.cpp:425] inception_4d/relu_pool_proj <- inception_4d/pool_proj
I0403 18:53:23.039553  8031 net.cpp:386] inception_4d/relu_pool_proj -> inception_4d/pool_proj (in-place)
I0403 18:53:23.039783  8031 net.cpp:141] Setting up inception_4d/relu_pool_proj
I0403 18:53:23.039813  8031 net.cpp:148] Top shape: 24 64 14 14 (301056)
I0403 18:53:23.039830  8031 net.cpp:156] Memory required for data: 1147309344
I0403 18:53:23.039849  8031 layer_factory.hpp:77] Creating layer inception_4d/output
I0403 18:53:23.039870  8031 net.cpp:91] Creating Layer inception_4d/output
I0403 18:53:23.039890  8031 net.cpp:425] inception_4d/output <- inception_4d/1x1
I0403 18:53:23.039908  8031 net.cpp:425] inception_4d/output <- inception_4d/3x3
I0403 18:53:23.039928  8031 net.cpp:425] inception_4d/output <- inception_4d/5x5
I0403 18:53:23.039948  8031 net.cpp:425] inception_4d/output <- inception_4d/pool_proj
I0403 18:53:23.039971  8031 net.cpp:399] inception_4d/output -> inception_4d/output
I0403 18:53:23.040031  8031 net.cpp:141] Setting up inception_4d/output
I0403 18:53:23.040060  8031 net.cpp:148] Top shape: 24 528 14 14 (2483712)
I0403 18:53:23.040076  8031 net.cpp:156] Memory required for data: 1157244192
I0403 18:53:23.040093  8031 layer_factory.hpp:77] Creating layer inception_4d/output_inception_4d/output_0_split
I0403 18:53:23.040114  8031 net.cpp:91] Creating Layer inception_4d/output_inception_4d/output_0_split
I0403 18:53:23.040133  8031 net.cpp:425] inception_4d/output_inception_4d/output_0_split <- inception_4d/output
I0403 18:53:23.040159  8031 net.cpp:399] inception_4d/output_inception_4d/output_0_split -> inception_4d/output_inception_4d/output_0_split_0
I0403 18:53:23.040186  8031 net.cpp:399] inception_4d/output_inception_4d/output_0_split -> inception_4d/output_inception_4d/output_0_split_1
I0403 18:53:23.040211  8031 net.cpp:399] inception_4d/output_inception_4d/output_0_split -> inception_4d/output_inception_4d/output_0_split_2
I0403 18:53:23.040236  8031 net.cpp:399] inception_4d/output_inception_4d/output_0_split -> inception_4d/output_inception_4d/output_0_split_3
I0403 18:53:23.040261  8031 net.cpp:399] inception_4d/output_inception_4d/output_0_split -> inception_4d/output_inception_4d/output_0_split_4
I0403 18:53:23.040395  8031 net.cpp:141] Setting up inception_4d/output_inception_4d/output_0_split
I0403 18:53:23.040443  8031 net.cpp:148] Top shape: 24 528 14 14 (2483712)
I0403 18:53:23.040464  8031 net.cpp:148] Top shape: 24 528 14 14 (2483712)
I0403 18:53:23.040483  8031 net.cpp:148] Top shape: 24 528 14 14 (2483712)
I0403 18:53:23.040501  8031 net.cpp:148] Top shape: 24 528 14 14 (2483712)
I0403 18:53:23.040520  8031 net.cpp:148] Top shape: 24 528 14 14 (2483712)
I0403 18:53:23.040536  8031 net.cpp:156] Memory required for data: 1206918432
I0403 18:53:23.040555  8031 layer_factory.hpp:77] Creating layer loss2/ave_pool
I0403 18:53:23.040576  8031 net.cpp:91] Creating Layer loss2/ave_pool
I0403 18:53:23.040596  8031 net.cpp:425] loss2/ave_pool <- inception_4d/output_inception_4d/output_0_split_0
I0403 18:53:23.040621  8031 net.cpp:399] loss2/ave_pool -> loss2/ave_pool
I0403 18:53:23.041004  8031 net.cpp:141] Setting up loss2/ave_pool
I0403 18:53:23.041039  8031 net.cpp:148] Top shape: 24 528 4 4 (202752)
I0403 18:53:23.041059  8031 net.cpp:156] Memory required for data: 1207729440
I0403 18:53:23.041077  8031 layer_factory.hpp:77] Creating layer loss2/conv
I0403 18:53:23.041105  8031 net.cpp:91] Creating Layer loss2/conv
I0403 18:53:23.041126  8031 net.cpp:425] loss2/conv <- loss2/ave_pool
I0403 18:53:23.041152  8031 net.cpp:399] loss2/conv -> loss2/conv
I0403 18:53:23.043478  8031 net.cpp:141] Setting up loss2/conv
I0403 18:53:23.043516  8031 net.cpp:148] Top shape: 24 128 4 4 (49152)
I0403 18:53:23.043535  8031 net.cpp:156] Memory required for data: 1207926048
I0403 18:53:23.043558  8031 layer_factory.hpp:77] Creating layer loss2/relu_conv
I0403 18:53:23.043582  8031 net.cpp:91] Creating Layer loss2/relu_conv
I0403 18:53:23.043602  8031 net.cpp:425] loss2/relu_conv <- loss2/conv
I0403 18:53:23.043624  8031 net.cpp:386] loss2/relu_conv -> loss2/conv (in-place)
I0403 18:53:23.043972  8031 net.cpp:141] Setting up loss2/relu_conv
I0403 18:53:23.044004  8031 net.cpp:148] Top shape: 24 128 4 4 (49152)
I0403 18:53:23.044023  8031 net.cpp:156] Memory required for data: 1208122656
I0403 18:53:23.044041  8031 layer_factory.hpp:77] Creating layer loss2/fc
I0403 18:53:23.044066  8031 net.cpp:91] Creating Layer loss2/fc
I0403 18:53:23.044088  8031 net.cpp:425] loss2/fc <- loss2/conv
I0403 18:53:23.044113  8031 net.cpp:399] loss2/fc -> loss2/fc
I0403 18:53:23.066166  8031 net.cpp:141] Setting up loss2/fc
I0403 18:53:23.066211  8031 net.cpp:148] Top shape: 24 1024 (24576)
I0403 18:53:23.066232  8031 net.cpp:156] Memory required for data: 1208220960
I0403 18:53:23.066256  8031 layer_factory.hpp:77] Creating layer loss2/relu_fc
I0403 18:53:23.066284  8031 net.cpp:91] Creating Layer loss2/relu_fc
I0403 18:53:23.066305  8031 net.cpp:425] loss2/relu_fc <- loss2/fc
I0403 18:53:23.066329  8031 net.cpp:386] loss2/relu_fc -> loss2/fc (in-place)
I0403 18:53:23.066699  8031 net.cpp:141] Setting up loss2/relu_fc
I0403 18:53:23.066732  8031 net.cpp:148] Top shape: 24 1024 (24576)
I0403 18:53:23.066751  8031 net.cpp:156] Memory required for data: 1208319264
I0403 18:53:23.066769  8031 layer_factory.hpp:77] Creating layer loss2/drop_fc
I0403 18:53:23.066792  8031 net.cpp:91] Creating Layer loss2/drop_fc
I0403 18:53:23.066812  8031 net.cpp:425] loss2/drop_fc <- loss2/fc
I0403 18:53:23.066836  8031 net.cpp:386] loss2/drop_fc -> loss2/fc (in-place)
I0403 18:53:23.066897  8031 net.cpp:141] Setting up loss2/drop_fc
I0403 18:53:23.066928  8031 net.cpp:148] Top shape: 24 1024 (24576)
I0403 18:53:23.066947  8031 net.cpp:156] Memory required for data: 1208417568
I0403 18:53:23.066965  8031 layer_factory.hpp:77] Creating layer loss2/classifier_plantvillage
I0403 18:53:23.066987  8031 net.cpp:91] Creating Layer loss2/classifier_plantvillage
I0403 18:53:23.067006  8031 net.cpp:425] loss2/classifier_plantvillage <- loss2/fc
I0403 18:53:23.067034  8031 net.cpp:399] loss2/classifier_plantvillage -> loss2/classifier_plantvillage
I0403 18:53:23.067538  8031 net.cpp:141] Setting up loss2/classifier_plantvillage
I0403 18:53:23.067569  8031 net.cpp:148] Top shape: 24 38 (912)
I0403 18:53:23.067605  8031 net.cpp:156] Memory required for data: 1208421216
I0403 18:53:23.067630  8031 layer_factory.hpp:77] Creating layer loss2/classifier_plantvillage_loss2/classifier_plantvillage_0_split
I0403 18:53:23.067656  8031 net.cpp:91] Creating Layer loss2/classifier_plantvillage_loss2/classifier_plantvillage_0_split
I0403 18:53:23.067677  8031 net.cpp:425] loss2/classifier_plantvillage_loss2/classifier_plantvillage_0_split <- loss2/classifier_plantvillage
I0403 18:53:23.067698  8031 net.cpp:399] loss2/classifier_plantvillage_loss2/classifier_plantvillage_0_split -> loss2/classifier_plantvillage_loss2/classifier_plantvillage_0_split_0
I0403 18:53:23.067723  8031 net.cpp:399] loss2/classifier_plantvillage_loss2/classifier_plantvillage_0_split -> loss2/classifier_plantvillage_loss2/classifier_plantvillage_0_split_1
I0403 18:53:23.067754  8031 net.cpp:399] loss2/classifier_plantvillage_loss2/classifier_plantvillage_0_split -> loss2/classifier_plantvillage_loss2/classifier_plantvillage_0_split_2
I0403 18:53:23.067848  8031 net.cpp:141] Setting up loss2/classifier_plantvillage_loss2/classifier_plantvillage_0_split
I0403 18:53:23.067878  8031 net.cpp:148] Top shape: 24 38 (912)
I0403 18:53:23.067898  8031 net.cpp:148] Top shape: 24 38 (912)
I0403 18:53:23.067916  8031 net.cpp:148] Top shape: 24 38 (912)
I0403 18:53:23.067934  8031 net.cpp:156] Memory required for data: 1208432160
I0403 18:53:23.067951  8031 layer_factory.hpp:77] Creating layer inception_4e/1x1
I0403 18:53:23.067978  8031 net.cpp:91] Creating Layer inception_4e/1x1
I0403 18:53:23.067998  8031 net.cpp:425] inception_4e/1x1 <- inception_4d/output_inception_4d/output_0_split_1
I0403 18:53:23.068022  8031 net.cpp:399] inception_4e/1x1 -> inception_4e/1x1
I0403 18:53:23.070262  8031 net.cpp:141] Setting up inception_4e/1x1
I0403 18:53:23.070302  8031 net.cpp:148] Top shape: 24 256 14 14 (1204224)
I0403 18:53:23.070320  8031 net.cpp:156] Memory required for data: 1213249056
I0403 18:53:23.070343  8031 layer_factory.hpp:77] Creating layer inception_4e/relu_1x1
I0403 18:53:23.070369  8031 net.cpp:91] Creating Layer inception_4e/relu_1x1
I0403 18:53:23.070389  8031 net.cpp:425] inception_4e/relu_1x1 <- inception_4e/1x1
I0403 18:53:23.070410  8031 net.cpp:386] inception_4e/relu_1x1 -> inception_4e/1x1 (in-place)
I0403 18:53:23.070773  8031 net.cpp:141] Setting up inception_4e/relu_1x1
I0403 18:53:23.070806  8031 net.cpp:148] Top shape: 24 256 14 14 (1204224)
I0403 18:53:23.070823  8031 net.cpp:156] Memory required for data: 1218065952
I0403 18:53:23.070842  8031 layer_factory.hpp:77] Creating layer inception_4e/3x3_reduce
I0403 18:53:23.070870  8031 net.cpp:91] Creating Layer inception_4e/3x3_reduce
I0403 18:53:23.070893  8031 net.cpp:425] inception_4e/3x3_reduce <- inception_4d/output_inception_4d/output_0_split_2
I0403 18:53:23.070919  8031 net.cpp:399] inception_4e/3x3_reduce -> inception_4e/3x3_reduce
I0403 18:53:23.073565  8031 net.cpp:141] Setting up inception_4e/3x3_reduce
I0403 18:53:23.073601  8031 net.cpp:148] Top shape: 24 160 14 14 (752640)
I0403 18:53:23.073619  8031 net.cpp:156] Memory required for data: 1221076512
I0403 18:53:23.073642  8031 layer_factory.hpp:77] Creating layer inception_4e/relu_3x3_reduce
I0403 18:53:23.073667  8031 net.cpp:91] Creating Layer inception_4e/relu_3x3_reduce
I0403 18:53:23.073688  8031 net.cpp:425] inception_4e/relu_3x3_reduce <- inception_4e/3x3_reduce
I0403 18:53:23.073709  8031 net.cpp:386] inception_4e/relu_3x3_reduce -> inception_4e/3x3_reduce (in-place)
I0403 18:53:23.073938  8031 net.cpp:141] Setting up inception_4e/relu_3x3_reduce
I0403 18:53:23.073971  8031 net.cpp:148] Top shape: 24 160 14 14 (752640)
I0403 18:53:23.073990  8031 net.cpp:156] Memory required for data: 1224087072
I0403 18:53:23.074010  8031 layer_factory.hpp:77] Creating layer inception_4e/3x3
I0403 18:53:23.074038  8031 net.cpp:91] Creating Layer inception_4e/3x3
I0403 18:53:23.074059  8031 net.cpp:425] inception_4e/3x3 <- inception_4e/3x3_reduce
I0403 18:53:23.074080  8031 net.cpp:399] inception_4e/3x3 -> inception_4e/3x3
I0403 18:53:23.080355  8031 net.cpp:141] Setting up inception_4e/3x3
I0403 18:53:23.080410  8031 net.cpp:148] Top shape: 24 320 14 14 (1505280)
I0403 18:53:23.080430  8031 net.cpp:156] Memory required for data: 1230108192
I0403 18:53:23.080453  8031 layer_factory.hpp:77] Creating layer inception_4e/relu_3x3
I0403 18:53:23.080474  8031 net.cpp:91] Creating Layer inception_4e/relu_3x3
I0403 18:53:23.080493  8031 net.cpp:425] inception_4e/relu_3x3 <- inception_4e/3x3
I0403 18:53:23.080514  8031 net.cpp:386] inception_4e/relu_3x3 -> inception_4e/3x3 (in-place)
I0403 18:53:23.080878  8031 net.cpp:141] Setting up inception_4e/relu_3x3
I0403 18:53:23.080914  8031 net.cpp:148] Top shape: 24 320 14 14 (1505280)
I0403 18:53:23.080934  8031 net.cpp:156] Memory required for data: 1236129312
I0403 18:53:23.080951  8031 layer_factory.hpp:77] Creating layer inception_4e/5x5_reduce
I0403 18:53:23.080981  8031 net.cpp:91] Creating Layer inception_4e/5x5_reduce
I0403 18:53:23.081003  8031 net.cpp:425] inception_4e/5x5_reduce <- inception_4d/output_inception_4d/output_0_split_3
I0403 18:53:23.081029  8031 net.cpp:399] inception_4e/5x5_reduce -> inception_4e/5x5_reduce
I0403 18:53:23.082371  8031 net.cpp:141] Setting up inception_4e/5x5_reduce
I0403 18:53:23.082406  8031 net.cpp:148] Top shape: 24 32 14 14 (150528)
I0403 18:53:23.082424  8031 net.cpp:156] Memory required for data: 1236731424
I0403 18:53:23.082448  8031 layer_factory.hpp:77] Creating layer inception_4e/relu_5x5_reduce
I0403 18:53:23.082473  8031 net.cpp:91] Creating Layer inception_4e/relu_5x5_reduce
I0403 18:53:23.082492  8031 net.cpp:425] inception_4e/relu_5x5_reduce <- inception_4e/5x5_reduce
I0403 18:53:23.082515  8031 net.cpp:386] inception_4e/relu_5x5_reduce -> inception_4e/5x5_reduce (in-place)
I0403 18:53:23.082880  8031 net.cpp:141] Setting up inception_4e/relu_5x5_reduce
I0403 18:53:23.082913  8031 net.cpp:148] Top shape: 24 32 14 14 (150528)
I0403 18:53:23.082931  8031 net.cpp:156] Memory required for data: 1237333536
I0403 18:53:23.082948  8031 layer_factory.hpp:77] Creating layer inception_4e/5x5
I0403 18:53:23.082995  8031 net.cpp:91] Creating Layer inception_4e/5x5
I0403 18:53:23.083019  8031 net.cpp:425] inception_4e/5x5 <- inception_4e/5x5_reduce
I0403 18:53:23.083045  8031 net.cpp:399] inception_4e/5x5 -> inception_4e/5x5
I0403 18:53:23.085311  8031 net.cpp:141] Setting up inception_4e/5x5
I0403 18:53:23.085345  8031 net.cpp:148] Top shape: 24 128 14 14 (602112)
I0403 18:53:23.085364  8031 net.cpp:156] Memory required for data: 1239741984
I0403 18:53:23.085387  8031 layer_factory.hpp:77] Creating layer inception_4e/relu_5x5
I0403 18:53:23.085412  8031 net.cpp:91] Creating Layer inception_4e/relu_5x5
I0403 18:53:23.085433  8031 net.cpp:425] inception_4e/relu_5x5 <- inception_4e/5x5
I0403 18:53:23.085455  8031 net.cpp:386] inception_4e/relu_5x5 -> inception_4e/5x5 (in-place)
I0403 18:53:23.085700  8031 net.cpp:141] Setting up inception_4e/relu_5x5
I0403 18:53:23.085729  8031 net.cpp:148] Top shape: 24 128 14 14 (602112)
I0403 18:53:23.085747  8031 net.cpp:156] Memory required for data: 1242150432
I0403 18:53:23.085764  8031 layer_factory.hpp:77] Creating layer inception_4e/pool
I0403 18:53:23.085789  8031 net.cpp:91] Creating Layer inception_4e/pool
I0403 18:53:23.085810  8031 net.cpp:425] inception_4e/pool <- inception_4d/output_inception_4d/output_0_split_4
I0403 18:53:23.085832  8031 net.cpp:399] inception_4e/pool -> inception_4e/pool
I0403 18:53:23.085921  8031 net.cpp:141] Setting up inception_4e/pool
I0403 18:53:23.085949  8031 net.cpp:148] Top shape: 24 528 14 14 (2483712)
I0403 18:53:23.085968  8031 net.cpp:156] Memory required for data: 1252085280
I0403 18:53:23.085985  8031 layer_factory.hpp:77] Creating layer inception_4e/pool_proj
I0403 18:53:23.086014  8031 net.cpp:91] Creating Layer inception_4e/pool_proj
I0403 18:53:23.086035  8031 net.cpp:425] inception_4e/pool_proj <- inception_4e/pool
I0403 18:53:23.086061  8031 net.cpp:399] inception_4e/pool_proj -> inception_4e/pool_proj
I0403 18:53:23.087925  8031 net.cpp:141] Setting up inception_4e/pool_proj
I0403 18:53:23.087976  8031 net.cpp:148] Top shape: 24 128 14 14 (602112)
I0403 18:53:23.087998  8031 net.cpp:156] Memory required for data: 1254493728
I0403 18:53:23.088021  8031 layer_factory.hpp:77] Creating layer inception_4e/relu_pool_proj
I0403 18:53:23.088044  8031 net.cpp:91] Creating Layer inception_4e/relu_pool_proj
I0403 18:53:23.088064  8031 net.cpp:425] inception_4e/relu_pool_proj <- inception_4e/pool_proj
I0403 18:53:23.088088  8031 net.cpp:386] inception_4e/relu_pool_proj -> inception_4e/pool_proj (in-place)
I0403 18:53:23.088454  8031 net.cpp:141] Setting up inception_4e/relu_pool_proj
I0403 18:53:23.088487  8031 net.cpp:148] Top shape: 24 128 14 14 (602112)
I0403 18:53:23.088506  8031 net.cpp:156] Memory required for data: 1256902176
I0403 18:53:23.088524  8031 layer_factory.hpp:77] Creating layer inception_4e/output
I0403 18:53:23.088546  8031 net.cpp:91] Creating Layer inception_4e/output
I0403 18:53:23.088565  8031 net.cpp:425] inception_4e/output <- inception_4e/1x1
I0403 18:53:23.088584  8031 net.cpp:425] inception_4e/output <- inception_4e/3x3
I0403 18:53:23.088605  8031 net.cpp:425] inception_4e/output <- inception_4e/5x5
I0403 18:53:23.088624  8031 net.cpp:425] inception_4e/output <- inception_4e/pool_proj
I0403 18:53:23.088649  8031 net.cpp:399] inception_4e/output -> inception_4e/output
I0403 18:53:23.088711  8031 net.cpp:141] Setting up inception_4e/output
I0403 18:53:23.088739  8031 net.cpp:148] Top shape: 24 832 14 14 (3913728)
I0403 18:53:23.088757  8031 net.cpp:156] Memory required for data: 1272557088
I0403 18:53:23.088775  8031 layer_factory.hpp:77] Creating layer pool4/3x3_s2
I0403 18:53:23.088800  8031 net.cpp:91] Creating Layer pool4/3x3_s2
I0403 18:53:23.088822  8031 net.cpp:425] pool4/3x3_s2 <- inception_4e/output
I0403 18:53:23.088845  8031 net.cpp:399] pool4/3x3_s2 -> pool4/3x3_s2
I0403 18:53:23.088930  8031 net.cpp:141] Setting up pool4/3x3_s2
I0403 18:53:23.088959  8031 net.cpp:148] Top shape: 24 832 7 7 (978432)
I0403 18:53:23.088976  8031 net.cpp:156] Memory required for data: 1276470816
I0403 18:53:23.088994  8031 layer_factory.hpp:77] Creating layer pool4/3x3_s2_pool4/3x3_s2_0_split
I0403 18:53:23.089020  8031 net.cpp:91] Creating Layer pool4/3x3_s2_pool4/3x3_s2_0_split
I0403 18:53:23.089040  8031 net.cpp:425] pool4/3x3_s2_pool4/3x3_s2_0_split <- pool4/3x3_s2
I0403 18:53:23.089059  8031 net.cpp:399] pool4/3x3_s2_pool4/3x3_s2_0_split -> pool4/3x3_s2_pool4/3x3_s2_0_split_0
I0403 18:53:23.089084  8031 net.cpp:399] pool4/3x3_s2_pool4/3x3_s2_0_split -> pool4/3x3_s2_pool4/3x3_s2_0_split_1
I0403 18:53:23.089110  8031 net.cpp:399] pool4/3x3_s2_pool4/3x3_s2_0_split -> pool4/3x3_s2_pool4/3x3_s2_0_split_2
I0403 18:53:23.089134  8031 net.cpp:399] pool4/3x3_s2_pool4/3x3_s2_0_split -> pool4/3x3_s2_pool4/3x3_s2_0_split_3
I0403 18:53:23.089246  8031 net.cpp:141] Setting up pool4/3x3_s2_pool4/3x3_s2_0_split
I0403 18:53:23.089280  8031 net.cpp:148] Top shape: 24 832 7 7 (978432)
I0403 18:53:23.089303  8031 net.cpp:148] Top shape: 24 832 7 7 (978432)
I0403 18:53:23.089323  8031 net.cpp:148] Top shape: 24 832 7 7 (978432)
I0403 18:53:23.089340  8031 net.cpp:148] Top shape: 24 832 7 7 (978432)
I0403 18:53:23.089359  8031 net.cpp:156] Memory required for data: 1292125728
I0403 18:53:23.089375  8031 layer_factory.hpp:77] Creating layer inception_5a/1x1
I0403 18:53:23.089404  8031 net.cpp:91] Creating Layer inception_5a/1x1
I0403 18:53:23.089426  8031 net.cpp:425] inception_5a/1x1 <- pool4/3x3_s2_pool4/3x3_s2_0_split_0
I0403 18:53:23.089452  8031 net.cpp:399] inception_5a/1x1 -> inception_5a/1x1
I0403 18:53:23.092989  8031 net.cpp:141] Setting up inception_5a/1x1
I0403 18:53:23.093026  8031 net.cpp:148] Top shape: 24 256 7 7 (301056)
I0403 18:53:23.093045  8031 net.cpp:156] Memory required for data: 1293329952
I0403 18:53:23.093068  8031 layer_factory.hpp:77] Creating layer inception_5a/relu_1x1
I0403 18:53:23.093093  8031 net.cpp:91] Creating Layer inception_5a/relu_1x1
I0403 18:53:23.093114  8031 net.cpp:425] inception_5a/relu_1x1 <- inception_5a/1x1
I0403 18:53:23.093135  8031 net.cpp:386] inception_5a/relu_1x1 -> inception_5a/1x1 (in-place)
I0403 18:53:23.093528  8031 net.cpp:141] Setting up inception_5a/relu_1x1
I0403 18:53:23.093561  8031 net.cpp:148] Top shape: 24 256 7 7 (301056)
I0403 18:53:23.093580  8031 net.cpp:156] Memory required for data: 1294534176
I0403 18:53:23.093600  8031 layer_factory.hpp:77] Creating layer inception_5a/3x3_reduce
I0403 18:53:23.093626  8031 net.cpp:91] Creating Layer inception_5a/3x3_reduce
I0403 18:53:23.093649  8031 net.cpp:425] inception_5a/3x3_reduce <- pool4/3x3_s2_pool4/3x3_s2_0_split_1
I0403 18:53:23.093675  8031 net.cpp:399] inception_5a/3x3_reduce -> inception_5a/3x3_reduce
I0403 18:53:23.096715  8031 net.cpp:141] Setting up inception_5a/3x3_reduce
I0403 18:53:23.096755  8031 net.cpp:148] Top shape: 24 160 7 7 (188160)
I0403 18:53:23.096776  8031 net.cpp:156] Memory required for data: 1295286816
I0403 18:53:23.096798  8031 layer_factory.hpp:77] Creating layer inception_5a/relu_3x3_reduce
I0403 18:53:23.096819  8031 net.cpp:91] Creating Layer inception_5a/relu_3x3_reduce
I0403 18:53:23.096838  8031 net.cpp:425] inception_5a/relu_3x3_reduce <- inception_5a/3x3_reduce
I0403 18:53:23.096863  8031 net.cpp:386] inception_5a/relu_3x3_reduce -> inception_5a/3x3_reduce (in-place)
I0403 18:53:23.097097  8031 net.cpp:141] Setting up inception_5a/relu_3x3_reduce
I0403 18:53:23.097128  8031 net.cpp:148] Top shape: 24 160 7 7 (188160)
I0403 18:53:23.097148  8031 net.cpp:156] Memory required for data: 1296039456
I0403 18:53:23.097167  8031 layer_factory.hpp:77] Creating layer inception_5a/3x3
I0403 18:53:23.097193  8031 net.cpp:91] Creating Layer inception_5a/3x3
I0403 18:53:23.097215  8031 net.cpp:425] inception_5a/3x3 <- inception_5a/3x3_reduce
I0403 18:53:23.097242  8031 net.cpp:399] inception_5a/3x3 -> inception_5a/3x3
I0403 18:53:23.103608  8031 net.cpp:141] Setting up inception_5a/3x3
I0403 18:53:23.103646  8031 net.cpp:148] Top shape: 24 320 7 7 (376320)
I0403 18:53:23.103665  8031 net.cpp:156] Memory required for data: 1297544736
I0403 18:53:23.103687  8031 layer_factory.hpp:77] Creating layer inception_5a/relu_3x3
I0403 18:53:23.103711  8031 net.cpp:91] Creating Layer inception_5a/relu_3x3
I0403 18:53:23.103732  8031 net.cpp:425] inception_5a/relu_3x3 <- inception_5a/3x3
I0403 18:53:23.103754  8031 net.cpp:386] inception_5a/relu_3x3 -> inception_5a/3x3 (in-place)
I0403 18:53:23.104115  8031 net.cpp:141] Setting up inception_5a/relu_3x3
I0403 18:53:23.104148  8031 net.cpp:148] Top shape: 24 320 7 7 (376320)
I0403 18:53:23.104166  8031 net.cpp:156] Memory required for data: 1299050016
I0403 18:53:23.104183  8031 layer_factory.hpp:77] Creating layer inception_5a/5x5_reduce
I0403 18:53:23.104210  8031 net.cpp:91] Creating Layer inception_5a/5x5_reduce
I0403 18:53:23.104233  8031 net.cpp:425] inception_5a/5x5_reduce <- pool4/3x3_s2_pool4/3x3_s2_0_split_2
I0403 18:53:23.104260  8031 net.cpp:399] inception_5a/5x5_reduce -> inception_5a/5x5_reduce
I0403 18:53:23.105711  8031 net.cpp:141] Setting up inception_5a/5x5_reduce
I0403 18:53:23.105746  8031 net.cpp:148] Top shape: 24 32 7 7 (37632)
I0403 18:53:23.105765  8031 net.cpp:156] Memory required for data: 1299200544
I0403 18:53:23.105787  8031 layer_factory.hpp:77] Creating layer inception_5a/relu_5x5_reduce
I0403 18:53:23.105813  8031 net.cpp:91] Creating Layer inception_5a/relu_5x5_reduce
I0403 18:53:23.105834  8031 net.cpp:425] inception_5a/relu_5x5_reduce <- inception_5a/5x5_reduce
I0403 18:53:23.105855  8031 net.cpp:386] inception_5a/relu_5x5_reduce -> inception_5a/5x5_reduce (in-place)
I0403 18:53:23.106225  8031 net.cpp:141] Setting up inception_5a/relu_5x5_reduce
I0403 18:53:23.106256  8031 net.cpp:148] Top shape: 24 32 7 7 (37632)
I0403 18:53:23.106281  8031 net.cpp:156] Memory required for data: 1299351072
I0403 18:53:23.106302  8031 layer_factory.hpp:77] Creating layer inception_5a/5x5
I0403 18:53:23.106329  8031 net.cpp:91] Creating Layer inception_5a/5x5
I0403 18:53:23.106351  8031 net.cpp:425] inception_5a/5x5 <- inception_5a/5x5_reduce
I0403 18:53:23.106376  8031 net.cpp:399] inception_5a/5x5 -> inception_5a/5x5
I0403 18:53:23.108501  8031 net.cpp:141] Setting up inception_5a/5x5
I0403 18:53:23.108551  8031 net.cpp:148] Top shape: 24 128 7 7 (150528)
I0403 18:53:23.108568  8031 net.cpp:156] Memory required for data: 1299953184
I0403 18:53:23.108592  8031 layer_factory.hpp:77] Creating layer inception_5a/relu_5x5
I0403 18:53:23.108616  8031 net.cpp:91] Creating Layer inception_5a/relu_5x5
I0403 18:53:23.108638  8031 net.cpp:425] inception_5a/relu_5x5 <- inception_5a/5x5
I0403 18:53:23.108659  8031 net.cpp:386] inception_5a/relu_5x5 -> inception_5a/5x5 (in-place)
I0403 18:53:23.108894  8031 net.cpp:141] Setting up inception_5a/relu_5x5
I0403 18:53:23.108924  8031 net.cpp:148] Top shape: 24 128 7 7 (150528)
I0403 18:53:23.108943  8031 net.cpp:156] Memory required for data: 1300555296
I0403 18:53:23.108961  8031 layer_factory.hpp:77] Creating layer inception_5a/pool
I0403 18:53:23.108986  8031 net.cpp:91] Creating Layer inception_5a/pool
I0403 18:53:23.109006  8031 net.cpp:425] inception_5a/pool <- pool4/3x3_s2_pool4/3x3_s2_0_split_3
I0403 18:53:23.109028  8031 net.cpp:399] inception_5a/pool -> inception_5a/pool
I0403 18:53:23.109115  8031 net.cpp:141] Setting up inception_5a/pool
I0403 18:53:23.109144  8031 net.cpp:148] Top shape: 24 832 7 7 (978432)
I0403 18:53:23.109163  8031 net.cpp:156] Memory required for data: 1304469024
I0403 18:53:23.109180  8031 layer_factory.hpp:77] Creating layer inception_5a/pool_proj
I0403 18:53:23.109207  8031 net.cpp:91] Creating Layer inception_5a/pool_proj
I0403 18:53:23.109228  8031 net.cpp:425] inception_5a/pool_proj <- inception_5a/pool
I0403 18:53:23.109253  8031 net.cpp:399] inception_5a/pool_proj -> inception_5a/pool_proj
I0403 18:53:23.112056  8031 net.cpp:141] Setting up inception_5a/pool_proj
I0403 18:53:23.112092  8031 net.cpp:148] Top shape: 24 128 7 7 (150528)
I0403 18:53:23.112112  8031 net.cpp:156] Memory required for data: 1305071136
I0403 18:53:23.112134  8031 layer_factory.hpp:77] Creating layer inception_5a/relu_pool_proj
I0403 18:53:23.112156  8031 net.cpp:91] Creating Layer inception_5a/relu_pool_proj
I0403 18:53:23.112176  8031 net.cpp:425] inception_5a/relu_pool_proj <- inception_5a/pool_proj
I0403 18:53:23.112201  8031 net.cpp:386] inception_5a/relu_pool_proj -> inception_5a/pool_proj (in-place)
I0403 18:53:23.112583  8031 net.cpp:141] Setting up inception_5a/relu_pool_proj
I0403 18:53:23.112615  8031 net.cpp:148] Top shape: 24 128 7 7 (150528)
I0403 18:53:23.112633  8031 net.cpp:156] Memory required for data: 1305673248
I0403 18:53:23.112651  8031 layer_factory.hpp:77] Creating layer inception_5a/output
I0403 18:53:23.112673  8031 net.cpp:91] Creating Layer inception_5a/output
I0403 18:53:23.112691  8031 net.cpp:425] inception_5a/output <- inception_5a/1x1
I0403 18:53:23.112712  8031 net.cpp:425] inception_5a/output <- inception_5a/3x3
I0403 18:53:23.112732  8031 net.cpp:425] inception_5a/output <- inception_5a/5x5
I0403 18:53:23.112751  8031 net.cpp:425] inception_5a/output <- inception_5a/pool_proj
I0403 18:53:23.112776  8031 net.cpp:399] inception_5a/output -> inception_5a/output
I0403 18:53:23.112836  8031 net.cpp:141] Setting up inception_5a/output
I0403 18:53:23.112869  8031 net.cpp:148] Top shape: 24 832 7 7 (978432)
I0403 18:53:23.112886  8031 net.cpp:156] Memory required for data: 1309586976
I0403 18:53:23.112905  8031 layer_factory.hpp:77] Creating layer inception_5a/output_inception_5a/output_0_split
I0403 18:53:23.112925  8031 net.cpp:91] Creating Layer inception_5a/output_inception_5a/output_0_split
I0403 18:53:23.112943  8031 net.cpp:425] inception_5a/output_inception_5a/output_0_split <- inception_5a/output
I0403 18:53:23.112964  8031 net.cpp:399] inception_5a/output_inception_5a/output_0_split -> inception_5a/output_inception_5a/output_0_split_0
I0403 18:53:23.112989  8031 net.cpp:399] inception_5a/output_inception_5a/output_0_split -> inception_5a/output_inception_5a/output_0_split_1
I0403 18:53:23.113018  8031 net.cpp:399] inception_5a/output_inception_5a/output_0_split -> inception_5a/output_inception_5a/output_0_split_2
I0403 18:53:23.113044  8031 net.cpp:399] inception_5a/output_inception_5a/output_0_split -> inception_5a/output_inception_5a/output_0_split_3
I0403 18:53:23.113183  8031 net.cpp:141] Setting up inception_5a/output_inception_5a/output_0_split
I0403 18:53:23.113212  8031 net.cpp:148] Top shape: 24 832 7 7 (978432)
I0403 18:53:23.113231  8031 net.cpp:148] Top shape: 24 832 7 7 (978432)
I0403 18:53:23.113250  8031 net.cpp:148] Top shape: 24 832 7 7 (978432)
I0403 18:53:23.113270  8031 net.cpp:148] Top shape: 24 832 7 7 (978432)
I0403 18:53:23.113293  8031 net.cpp:156] Memory required for data: 1325241888
I0403 18:53:23.113312  8031 layer_factory.hpp:77] Creating layer inception_5b/1x1
I0403 18:53:23.113339  8031 net.cpp:91] Creating Layer inception_5b/1x1
I0403 18:53:23.113360  8031 net.cpp:425] inception_5b/1x1 <- inception_5a/output_inception_5a/output_0_split_0
I0403 18:53:23.113386  8031 net.cpp:399] inception_5b/1x1 -> inception_5b/1x1
I0403 18:53:23.118001  8031 net.cpp:141] Setting up inception_5b/1x1
I0403 18:53:23.118041  8031 net.cpp:148] Top shape: 24 384 7 7 (451584)
I0403 18:53:23.118062  8031 net.cpp:156] Memory required for data: 1327048224
I0403 18:53:23.118084  8031 layer_factory.hpp:77] Creating layer inception_5b/relu_1x1
I0403 18:53:23.118106  8031 net.cpp:91] Creating Layer inception_5b/relu_1x1
I0403 18:53:23.118125  8031 net.cpp:425] inception_5b/relu_1x1 <- inception_5b/1x1
I0403 18:53:23.118149  8031 net.cpp:386] inception_5b/relu_1x1 -> inception_5b/1x1 (in-place)
I0403 18:53:23.118535  8031 net.cpp:141] Setting up inception_5b/relu_1x1
I0403 18:53:23.118571  8031 net.cpp:148] Top shape: 24 384 7 7 (451584)
I0403 18:53:23.118590  8031 net.cpp:156] Memory required for data: 1328854560
I0403 18:53:23.118608  8031 layer_factory.hpp:77] Creating layer inception_5b/3x3_reduce
I0403 18:53:23.118635  8031 net.cpp:91] Creating Layer inception_5b/3x3_reduce
I0403 18:53:23.118659  8031 net.cpp:425] inception_5b/3x3_reduce <- inception_5a/output_inception_5a/output_0_split_1
I0403 18:53:23.118681  8031 net.cpp:399] inception_5b/3x3_reduce -> inception_5b/3x3_reduce
I0403 18:53:23.121948  8031 net.cpp:141] Setting up inception_5b/3x3_reduce
I0403 18:53:23.121984  8031 net.cpp:148] Top shape: 24 192 7 7 (225792)
I0403 18:53:23.122004  8031 net.cpp:156] Memory required for data: 1329757728
I0403 18:53:23.122025  8031 layer_factory.hpp:77] Creating layer inception_5b/relu_3x3_reduce
I0403 18:53:23.122048  8031 net.cpp:91] Creating Layer inception_5b/relu_3x3_reduce
I0403 18:53:23.122068  8031 net.cpp:425] inception_5b/relu_3x3_reduce <- inception_5b/3x3_reduce
I0403 18:53:23.122092  8031 net.cpp:386] inception_5b/relu_3x3_reduce -> inception_5b/3x3_reduce (in-place)
I0403 18:53:23.122345  8031 net.cpp:141] Setting up inception_5b/relu_3x3_reduce
I0403 18:53:23.122377  8031 net.cpp:148] Top shape: 24 192 7 7 (225792)
I0403 18:53:23.122395  8031 net.cpp:156] Memory required for data: 1330660896
I0403 18:53:23.122413  8031 layer_factory.hpp:77] Creating layer inception_5b/3x3
I0403 18:53:23.122442  8031 net.cpp:91] Creating Layer inception_5b/3x3
I0403 18:53:23.122463  8031 net.cpp:425] inception_5b/3x3 <- inception_5b/3x3_reduce
I0403 18:53:23.122489  8031 net.cpp:399] inception_5b/3x3 -> inception_5b/3x3
I0403 18:53:23.130911  8031 net.cpp:141] Setting up inception_5b/3x3
I0403 18:53:23.130951  8031 net.cpp:148] Top shape: 24 384 7 7 (451584)
I0403 18:53:23.130971  8031 net.cpp:156] Memory required for data: 1332467232
I0403 18:53:23.130995  8031 layer_factory.hpp:77] Creating layer inception_5b/relu_3x3
I0403 18:53:23.131016  8031 net.cpp:91] Creating Layer inception_5b/relu_3x3
I0403 18:53:23.131036  8031 net.cpp:425] inception_5b/relu_3x3 <- inception_5b/3x3
I0403 18:53:23.131064  8031 net.cpp:386] inception_5b/relu_3x3 -> inception_5b/3x3 (in-place)
I0403 18:53:23.131438  8031 net.cpp:141] Setting up inception_5b/relu_3x3
I0403 18:53:23.131471  8031 net.cpp:148] Top shape: 24 384 7 7 (451584)
I0403 18:53:23.131491  8031 net.cpp:156] Memory required for data: 1334273568
I0403 18:53:23.131508  8031 layer_factory.hpp:77] Creating layer inception_5b/5x5_reduce
I0403 18:53:23.131556  8031 net.cpp:91] Creating Layer inception_5b/5x5_reduce
I0403 18:53:23.131582  8031 net.cpp:425] inception_5b/5x5_reduce <- inception_5a/output_inception_5a/output_0_split_2
I0403 18:53:23.131610  8031 net.cpp:399] inception_5b/5x5_reduce -> inception_5b/5x5_reduce
I0403 18:53:23.133193  8031 net.cpp:141] Setting up inception_5b/5x5_reduce
I0403 18:53:23.133230  8031 net.cpp:148] Top shape: 24 48 7 7 (56448)
I0403 18:53:23.133250  8031 net.cpp:156] Memory required for data: 1334499360
I0403 18:53:23.133278  8031 layer_factory.hpp:77] Creating layer inception_5b/relu_5x5_reduce
I0403 18:53:23.133302  8031 net.cpp:91] Creating Layer inception_5b/relu_5x5_reduce
I0403 18:53:23.133323  8031 net.cpp:425] inception_5b/relu_5x5_reduce <- inception_5b/5x5_reduce
I0403 18:53:23.133348  8031 net.cpp:386] inception_5b/relu_5x5_reduce -> inception_5b/5x5_reduce (in-place)
I0403 18:53:23.133810  8031 net.cpp:141] Setting up inception_5b/relu_5x5_reduce
I0403 18:53:23.133842  8031 net.cpp:148] Top shape: 24 48 7 7 (56448)
I0403 18:53:23.133862  8031 net.cpp:156] Memory required for data: 1334725152
I0403 18:53:23.133882  8031 layer_factory.hpp:77] Creating layer inception_5b/5x5
I0403 18:53:23.133906  8031 net.cpp:91] Creating Layer inception_5b/5x5
I0403 18:53:23.133929  8031 net.cpp:425] inception_5b/5x5 <- inception_5b/5x5_reduce
I0403 18:53:23.133952  8031 net.cpp:399] inception_5b/5x5 -> inception_5b/5x5
I0403 18:53:23.136476  8031 net.cpp:141] Setting up inception_5b/5x5
I0403 18:53:23.136510  8031 net.cpp:148] Top shape: 24 128 7 7 (150528)
I0403 18:53:23.136529  8031 net.cpp:156] Memory required for data: 1335327264
I0403 18:53:23.136553  8031 layer_factory.hpp:77] Creating layer inception_5b/relu_5x5
I0403 18:53:23.136579  8031 net.cpp:91] Creating Layer inception_5b/relu_5x5
I0403 18:53:23.136598  8031 net.cpp:425] inception_5b/relu_5x5 <- inception_5b/5x5
I0403 18:53:23.136620  8031 net.cpp:386] inception_5b/relu_5x5 -> inception_5b/5x5 (in-place)
I0403 18:53:23.136860  8031 net.cpp:141] Setting up inception_5b/relu_5x5
I0403 18:53:23.136890  8031 net.cpp:148] Top shape: 24 128 7 7 (150528)
I0403 18:53:23.136914  8031 net.cpp:156] Memory required for data: 1335929376
I0403 18:53:23.136931  8031 layer_factory.hpp:77] Creating layer inception_5b/pool
I0403 18:53:23.136953  8031 net.cpp:91] Creating Layer inception_5b/pool
I0403 18:53:23.136972  8031 net.cpp:425] inception_5b/pool <- inception_5a/output_inception_5a/output_0_split_3
I0403 18:53:23.136994  8031 net.cpp:399] inception_5b/pool -> inception_5b/pool
I0403 18:53:23.137085  8031 net.cpp:141] Setting up inception_5b/pool
I0403 18:53:23.137115  8031 net.cpp:148] Top shape: 24 832 7 7 (978432)
I0403 18:53:23.137131  8031 net.cpp:156] Memory required for data: 1339843104
I0403 18:53:23.137150  8031 layer_factory.hpp:77] Creating layer inception_5b/pool_proj
I0403 18:53:23.137177  8031 net.cpp:91] Creating Layer inception_5b/pool_proj
I0403 18:53:23.137200  8031 net.cpp:425] inception_5b/pool_proj <- inception_5b/pool
I0403 18:53:23.137225  8031 net.cpp:399] inception_5b/pool_proj -> inception_5b/pool_proj
I0403 18:53:23.140066  8031 net.cpp:141] Setting up inception_5b/pool_proj
I0403 18:53:23.140103  8031 net.cpp:148] Top shape: 24 128 7 7 (150528)
I0403 18:53:23.140122  8031 net.cpp:156] Memory required for data: 1340445216
I0403 18:53:23.140144  8031 layer_factory.hpp:77] Creating layer inception_5b/relu_pool_proj
I0403 18:53:23.140167  8031 net.cpp:91] Creating Layer inception_5b/relu_pool_proj
I0403 18:53:23.140192  8031 net.cpp:425] inception_5b/relu_pool_proj <- inception_5b/pool_proj
I0403 18:53:23.140214  8031 net.cpp:386] inception_5b/relu_pool_proj -> inception_5b/pool_proj (in-place)
I0403 18:53:23.140583  8031 net.cpp:141] Setting up inception_5b/relu_pool_proj
I0403 18:53:23.140616  8031 net.cpp:148] Top shape: 24 128 7 7 (150528)
I0403 18:53:23.140635  8031 net.cpp:156] Memory required for data: 1341047328
I0403 18:53:23.140653  8031 layer_factory.hpp:77] Creating layer inception_5b/output
I0403 18:53:23.140676  8031 net.cpp:91] Creating Layer inception_5b/output
I0403 18:53:23.140713  8031 net.cpp:425] inception_5b/output <- inception_5b/1x1
I0403 18:53:23.140735  8031 net.cpp:425] inception_5b/output <- inception_5b/3x3
I0403 18:53:23.140755  8031 net.cpp:425] inception_5b/output <- inception_5b/5x5
I0403 18:53:23.140774  8031 net.cpp:425] inception_5b/output <- inception_5b/pool_proj
I0403 18:53:23.140799  8031 net.cpp:399] inception_5b/output -> inception_5b/output
I0403 18:53:23.140862  8031 net.cpp:141] Setting up inception_5b/output
I0403 18:53:23.140894  8031 net.cpp:148] Top shape: 24 1024 7 7 (1204224)
I0403 18:53:23.140914  8031 net.cpp:156] Memory required for data: 1345864224
I0403 18:53:23.140931  8031 layer_factory.hpp:77] Creating layer pool5/7x7_s1
I0403 18:53:23.140954  8031 net.cpp:91] Creating Layer pool5/7x7_s1
I0403 18:53:23.140974  8031 net.cpp:425] pool5/7x7_s1 <- inception_5b/output
I0403 18:53:23.141000  8031 net.cpp:399] pool5/7x7_s1 -> pool5/7x7_s1
I0403 18:53:23.141268  8031 net.cpp:141] Setting up pool5/7x7_s1
I0403 18:53:23.141304  8031 net.cpp:148] Top shape: 24 1024 1 1 (24576)
I0403 18:53:23.141324  8031 net.cpp:156] Memory required for data: 1345962528
I0403 18:53:23.141342  8031 layer_factory.hpp:77] Creating layer pool5/drop_7x7_s1
I0403 18:53:23.141366  8031 net.cpp:91] Creating Layer pool5/drop_7x7_s1
I0403 18:53:23.141384  8031 net.cpp:425] pool5/drop_7x7_s1 <- pool5/7x7_s1
I0403 18:53:23.141409  8031 net.cpp:386] pool5/drop_7x7_s1 -> pool5/7x7_s1 (in-place)
I0403 18:53:23.141470  8031 net.cpp:141] Setting up pool5/drop_7x7_s1
I0403 18:53:23.141502  8031 net.cpp:148] Top shape: 24 1024 1 1 (24576)
I0403 18:53:23.141520  8031 net.cpp:156] Memory required for data: 1346060832
I0403 18:53:23.141540  8031 layer_factory.hpp:77] Creating layer loss3/classifier_plantvillage
I0403 18:53:23.141563  8031 net.cpp:91] Creating Layer loss3/classifier_plantvillage
I0403 18:53:23.141583  8031 net.cpp:425] loss3/classifier_plantvillage <- pool5/7x7_s1
I0403 18:53:23.141609  8031 net.cpp:399] loss3/classifier_plantvillage -> loss3/classifier_plantvillage
I0403 18:53:23.142134  8031 net.cpp:141] Setting up loss3/classifier_plantvillage
I0403 18:53:23.142170  8031 net.cpp:148] Top shape: 24 38 (912)
I0403 18:53:23.142189  8031 net.cpp:156] Memory required for data: 1346064480
I0403 18:53:23.142211  8031 layer_factory.hpp:77] Creating layer loss3/classifier_plantvillage_loss3/classifier_plantvillage_0_split
I0403 18:53:23.142235  8031 net.cpp:91] Creating Layer loss3/classifier_plantvillage_loss3/classifier_plantvillage_0_split
I0403 18:53:23.142254  8031 net.cpp:425] loss3/classifier_plantvillage_loss3/classifier_plantvillage_0_split <- loss3/classifier_plantvillage
I0403 18:53:23.142289  8031 net.cpp:399] loss3/classifier_plantvillage_loss3/classifier_plantvillage_0_split -> loss3/classifier_plantvillage_loss3/classifier_plantvillage_0_split_0
I0403 18:53:23.142320  8031 net.cpp:399] loss3/classifier_plantvillage_loss3/classifier_plantvillage_0_split -> loss3/classifier_plantvillage_loss3/classifier_plantvillage_0_split_1
I0403 18:53:23.142349  8031 net.cpp:399] loss3/classifier_plantvillage_loss3/classifier_plantvillage_0_split -> loss3/classifier_plantvillage_loss3/classifier_plantvillage_0_split_2
I0403 18:53:23.142374  8031 net.cpp:399] loss3/classifier_plantvillage_loss3/classifier_plantvillage_0_split -> loss3/classifier_plantvillage_loss3/classifier_plantvillage_0_split_3
I0403 18:53:23.142498  8031 net.cpp:141] Setting up loss3/classifier_plantvillage_loss3/classifier_plantvillage_0_split
I0403 18:53:23.142527  8031 net.cpp:148] Top shape: 24 38 (912)
I0403 18:53:23.142547  8031 net.cpp:148] Top shape: 24 38 (912)
I0403 18:53:23.142567  8031 net.cpp:148] Top shape: 24 38 (912)
I0403 18:53:23.142585  8031 net.cpp:148] Top shape: 24 38 (912)
I0403 18:53:23.142603  8031 net.cpp:156] Memory required for data: 1346079072
I0403 18:53:23.142621  8031 layer_factory.hpp:77] Creating layer loss1/loss
I0403 18:53:23.142652  8031 net.cpp:91] Creating Layer loss1/loss
I0403 18:53:23.142675  8031 net.cpp:425] loss1/loss <- loss1/classifier_plantvillage_loss1/classifier_plantvillage_0_split_0
I0403 18:53:23.142714  8031 net.cpp:425] loss1/loss <- label_data_1_split_0
…
