…
I0403 18:06:16.755756  6585 net.cpp:313] The NetState phase (1) differed from the phase (0) specified by a rule in layer data
I0403 18:06:16.756944  6585 net.cpp:49] Initializing net from parameters: 
state {
  phase: TEST
}
layer {
  name: "data"
  type: "Data"
  top: "data"
  top: "label"
  include {
    phase: TEST
  }
  transform_param {
    mirror: false
    crop_size: 224
    mean_file: "/home/mohanty/data/final_dataset/lmdb/grayscale-40-60/mean.binaryproto"
  }
  data_param {
    source: "/home/mohanty/data/final_dataset/lmdb/grayscale-40-60/test_db"
    batch_size: 24
    backend: LMDB
  }
}
layer {
  name: "conv1/7x7_s2"
  type: "Convolution"
  bottom: "data"
  top: "conv1/7x7_s2"
  param {
    lr_mult: 1
    decay_mult: 1
  }
  param {
    lr_mult: 2
    decay_mult: 0
  }
  convolution_param {
    num_output: 64
    pad: 3
    kernel_size: 7
    stride: 2
    weight_filler {
      type: "xavier"
      std: 0.1
    }
    bias_filler {
      type: "constant"
      value: 0.2
    }
  }
}
layer {
  name: "conv1/relu_7x7"
  type: "ReLU"
  bottom: "conv1/7x7_s2"
  top: "conv1/7x7_s2"
}
layer {
  name: "pool1/3x3_s2"
  type: "Pooling"
  bottom: "conv1/7x7_s2"
  top: "pool1/3x3_s2"
  pooling_param {
    pool: MAX
    kernel_size: 3
    stride: 2
  }
}
layer {
  name: "pool1/norm1"
  type: "LRN"
  bottom: "pool1/3x3_s2"
  top: "pool1/norm1"
  lrn_param {
    local_size: 5
    alpha: 0.0001
    beta: 0.75
  }
}
layer {
  name: "conv2/3x3_reduce"
  type: "Convolution"
  bottom: "pool1/norm1"
  top: "conv2/3x3_reduce"
  param {
    lr_mult: 1
    decay_mult: 1
  }
  param {
    lr_mult: 2
    decay_mult: 0
  }
  convolution_param {
    num_output: 64
    kernel_size: 1
    weight_filler {
      type: "xavier"
      std: 0.1
    }
    bias_filler {
      type: "constant"
      value: 0.2
    }
  }
}
layer {
  name: "conv2/relu_3x3_reduce"
  type: "ReLU"
  bottom: "conv2/3x3_reduce"
  top: "conv2/3x3_reduce"
}
layer {
  name: "conv2/3x3"
  type: "Convolution"
  bottom: "conv2/3x3_reduce"
  top: "conv2/3x3"
  param {
    lr_mult: 1
    decay_mult: 1
  }
  param {
    lr_mult: 2
    decay_mult: 0
  }
  convolution_param {
    num_output: 192
    pad: 1
    kernel_size: 3
    weight_filler {
      type: "xavier"
      std: 0.03
    }
    bias_filler {
      type: "constant"
      value: 0.2
    }
  }
}
layer {
  name: "conv2/relu_3x3"
  type: "ReLU"
  bottom: "conv2/3x3"
  top: "conv2/3x3"
}
layer {
  name: "conv2/norm2"
  type: "LRN"
  bottom: "conv2/3x3"
  top: "conv2/norm2"
  lrn_param {
    local_size: 5
    alpha: 0.0001
    beta: 0.75
  }
}
layer {
  name: "pool2/3x3_s2"
  type: "Pooling"
  bottom: "conv2/norm2"
  top: "pool2/3x3_s2"
  pooling_param {
    pool: MAX
    kernel_size: 3
    stride: 2
  }
}
layer {
  name: "inception_3a/1x1"
  type: "Convolution"
  bottom: "pool2/3x3_s2"
  top: "inception_3a/1x1"
  param {
    lr_mult: 1
    decay_mult: 1
  }
  param {
    lr_mult: 2
    decay_mult: 0
  }
  convolution_param {
    num_output: 64
    kernel_size: 1
    weight_filler {
      type: "xavier"
      std: 0.03
    }
    bias_filler {
      type: "constant"
      value: 0.2
    }
  }
}
layer {
  name: "inception_3a/relu_1x1"
  type: "ReLU"
  bottom: "inception_3a/1x1"
  top: "inception_3a/1x1"
}
layer {
  name: "inception_3a/3x3_reduce"
  type: "Convolution"
  bottom: "pool2/3x3_s2"
  top: "inception_3a/3x3_reduce"
  param {
    lr_mult: 1
    decay_mult: 1
  }
  param {
    lr_mult: 2
    decay_mult: 0
  }
  convolution_param {
    num_output: 96
    kernel_size: 1
    weight_filler {
      type: "xavier"
      std: 0.09
    }
    bias_filler {
      type: "constant"
      value: 0.2
    }
  }
}
layer {
  name: "inception_3a/relu_3x3_reduce"
  type: "ReLU"
  bottom: "inception_3a/3x3_reduce"
  top: "inception_3a/3x3_reduce"
}
layer {
  name: "inception_3a/3x3"
  type: "Convolution"
  bottom: "inception_3a/3x3_reduce"
  top: "inception_3a/3x3"
  param {
    lr_mult: 1
    decay_mult: 1
  }
  param {
    lr_mult: 2
    decay_mult: 0
  }
  convolution_param {
    num_output: 128
    pad: 1
    kernel_size: 3
    weight_filler {
      type: "xavier"
      std: 0.03
    }
    bias_filler {
      type: "constant"
      value: 0.2
    }
  }
}
layer {
  name: "inception_3a/relu_3x3"
  type: "ReLU"
  bottom: "inception_3a/3x3"
  top: "inception_3a/3x3"
}
layer {
  name: "inception_3a/5x5_reduce"
  type: "Convolution"
  bottom: "pool2/3x3_s2"
  top: "inception_3a/5x5_reduce"
  param {
    lr_mult: 1
    decay_mult: 1
  }
  param {
    lr_mult: 2
    decay_mult: 0
  }
  convolution_param {
    num_output: 16
    kernel_size: 1
    weight_filler {
      type: "xavier"
      std: 0.2
    }
    bias_filler {
      type: "constant"
      value: 0.2
    }
  }
}
layer {
  name: "inception_3a/relu_5x5_reduce"
  type: "ReLU"
  bottom: "inception_3a/5x5_reduce"
  top: "inception_3a/5x5_reduce"
}
layer {
  name: "inception_3a/5x5"
  type: "Convolution"
  bottom: "inception_3a/5x5_reduce"
  top: "inception_3a/5x5"
  param {
    lr_mult: 1
    decay_mult: 1
  }
  param {
    lr_mult: 2
    decay_mult: 0
  }
  convolution_param {
    num_output: 32
    pad: 2
    kernel_size: 5
    weight_filler {
      type: "xavier"
      std: 0.03
    }
    bias_filler {
      type: "constant"
      value: 0.2
    }
  }
}
layer {
  name: "inception_3a/relu_5x5"
  type: "ReLU"
  bottom: "inception_3a/5x5"
  top: "inception_3a/5x5"
}
layer {
  name: "inception_3a/pool"
  type: "Pooling"
  bottom: "pool2/3x3_s2"
  top: "inception_3a/pool"
  pooling_param {
    pool: MAX
    kernel_size: 3
    stride: 1
    pad: 1
  }
}
layer {
  name: "inception_3a/pool_proj"
  type: "Convolution"
  bottom: "inception_3a/pool"
  top: "inception_3a/pool_proj"
  param {
    lr_mult: 1
    decay_mult: 1
  }
  param {
    lr_mult: 2
    decay_mult: 0
  }
  convolution_param {
    num_output: 32
    kernel_size: 1
    weight_filler {
      type: "xavier"
      std: 0.1
    }
    bias_filler {
      type: "constant"
      value: 0.2
    }
  }
}
layer {
  name: "inception_3a/relu_pool_proj"
  type: "ReLU"
  bottom: "inception_3a/pool_proj"
  top: "inception_3a/pool_proj"
}
layer {
  name: "inception_3a/output"
  type: "Concat"
  bottom: "inception_3a/1x1"
  bottom: "inception_3a/3x3"
  bottom: "inception_3a/5x5"
  bottom: "inception_3a/pool_proj"
  top: "inception_3a/output"
}
layer {
  name: "inception_3b/1x1"
  type: "Convolution"
  bottom: "inception_3a/output"
  top: "inception_3b/1x1"
  param {
    lr_mult: 1
    decay_mult: 1
  }
  param {
    lr_mult: 2
    decay_mult: 0
  }
  convolution_param {
    num_output: 128
    kernel_size: 1
    weight_filler {
      type: "xavier"
      std: 0.03
    }
    bias_filler {
      type: "constant"
      value: 0.2
    }
  }
}
layer {
  name: "inception_3b/relu_1x1"
  type: "ReLU"
  bottom: "inception_3b/1x1"
  top: "inception_3b/1x1"
}
layer {
  name: "inception_3b/3x3_reduce"
  type: "Convolution"
  bottom: "inception_3a/output"
  top: "inception_3b/3x3_reduce"
  param {
    lr_mult: 1
    decay_mult: 1
  }
  param {
    lr_mult: 2
    decay_mult: 0
  }
  convolution_param {
    num_output: 128
    kernel_size: 1
    weight_filler {
      type: "xavier"
      std: 0.09
    }
    bias_filler {
      type: "constant"
      value: 0.2
    }
  }
}
layer {
  name: "inception_3b/relu_3x3_reduce"
  type: "ReLU"
  bottom: "inception_3b/3x3_reduce"
  top: "inception_3b/3x3_reduce"
}
layer {
  name: "inception_3b/3x3"
  type: "Convolution"
  bottom: "inception_3b/3x3_reduce"
  top: "inception_3b/3x3"
  param {
    lr_mult: 1
    decay_mult: 1
  }
  param {
    lr_mult: 2
    decay_mult: 0
  }
  convolution_param {
    num_output: 192
    pad: 1
    kernel_size: 3
    weight_filler {
      type: "xavier"
      std: 0.03
    }
    bias_filler {
      type: "constant"
      value: 0.2
    }
  }
}
layer {
  name: "inception_3b/relu_3x3"
  type: "ReLU"
  bottom: "inception_3b/3x3"
  top: "inception_3b/3x3"
}
layer {
  name: "inception_3b/5x5_reduce"
  type: "Convolution"
  bottom: "inception_3a/output"
  top: "inception_3b/5x5_reduce"
  param {
    lr_mult: 1
    decay_mult: 1
  }
  param {
    lr_mult: 2
    decay_mult: 0
  }
  convolution_param {
    num_output: 32
    kernel_size: 1
    weight_filler {
      type: "xavier"
      std: 0.2
    }
    bias_filler {
      type: "constant"
      value: 0.2
    }
  }
}
layer {
  name: "inception_3b/relu_5x5_reduce"
  type: "ReLU"
  bottom: "inception_3b/5x5_reduce"
  top: "inception_3b/5x5_reduce"
}
layer {
  name: "inception_3b/5x5"
  type: "Convolution"
  bottom: "inception_3b/5x5_reduce"
  top: "inception_3b/5x5"
  param {
    lr_mult: 1
    decay_mult: 1
  }
  param {
    lr_mult: 2
    decay_mult: 0
  }
  convolution_param {
    num_output: 96
    pad: 2
    kernel_size: 5
    weight_filler {
      type: "xavier"
      std: 0.03
    }
    bias_filler {
      type: "constant"
      value: 0.2
    }
  }
}
layer {
  name: "inception_3b/relu_5x5"
  type: "ReLU"
  bottom: "inception_3b/5x5"
  top: "inception_3b/5x5"
}
layer {
  name: "inception_3b/pool"
  type: "Pooling"
  bottom: "inception_3a/output"
  top: "inception_3b/pool"
  pooling_param {
    pool: MAX
    kernel_size: 3
    stride: 1
    pad: 1
  }
}
layer {
  name: "inception_3b/pool_proj"
  type: "Convolution"
  bottom: "inception_3b/pool"
  top: "inception_3b/pool_proj"
  param {
    lr_mult: 1
    decay_mult: 1
  }
  param {
    lr_mult: 2
    decay_mult: 0
  }
  convolution_param {
    num_output: 64
    kernel_size: 1
    weight_filler {
      type: "xavier"
      std: 0.1
    }
    bias_filler {
      type: "constant"
      value: 0.2
    }
  }
}
layer {
  name: "inception_3b/relu_pool_proj"
  type: "ReLU"
  bottom: "inception_3b/pool_proj"
  top: "inception_3b/pool_proj"
}
layer {
  name: "inception_3b/output"
  type: "Concat"
  bottom: "inception_3b/1x1"
  bottom: "inception_3b/3x3"
  bottom: "inception_3b/5x5"
  bottom: "inception_3b/pool_proj"
  top: "inception_3b/output"
}
layer {
  name: "pool3/3x3_s2"
  type: "Pooling"
  bottom: "inception_3b/output"
  top: "pool3/3x3_s2"
  pooling_param {
    pool: MAX
    kernel_size: 3
    stride: 2
  }
}
layer {
  name: "inception_4a/1x1"
  type: "Convolution"
  bottom: "pool3/3x3_s2"
  top: "inception_4a/1x1"
  param {
    lr_mult: 1
    decay_mult: 1
  }
  param {
    lr_mult: 2
    decay_mult: 0
  }
  convolution_param {
    num_output: 192
    kernel_size: 1
    weight_filler {
      type: "xavier"
      std: 0.03
    }
    bias_filler {
      type: "constant"
      value: 0.2
    }
  }
}
layer {
  name: "inception_4a/relu_1x1"
  type: "ReLU"
  bottom: "inception_4a/1x1"
  top: "inception_4a/1x1"
}
layer {
  name: "inception_4a/3x3_reduce"
  type: "Convolution"
  bottom: "pool3/3x3_s2"
  top: "inception_4a/3x3_reduce"
  param {
    lr_mult: 1
    decay_mult: 1
  }
  param {
    lr_mult: 2
    decay_mult: 0
  }
  convolution_param {
    num_output: 96
    kernel_size: 1
    weight_filler {
      type: "xavier"
      std: 0.09
    }
    bias_filler {
      type: "constant"
      value: 0.2
    }
  }
}
layer {
  name: "inception_4a/relu_3x3_reduce"
  type: "ReLU"
  bottom: "inception_4a/3x3_reduce"
  top: "inception_4a/3x3_reduce"
}
layer {
  name: "inception_4a/3x3"
  type: "Convolution"
  bottom: "inception_4a/3x3_reduce"
  top: "inception_4a/3x3"
  param {
    lr_mult: 1
    decay_mult: 1
  }
  param {
    lr_mult: 2
    decay_mult: 0
  }
  convolution_param {
    num_output: 208
    pad: 1
    kernel_size: 3
    weight_filler {
      type: "xavier"
      std: 0.03
    }
    bias_filler {
      type: "constant"
      value: 0.2
    }
  }
}
layer {
  name: "inception_4a/relu_3x3"
  type: "ReLU"
  bottom: "inception_4a/3x3"
  top: "inception_4a/3x3"
}
layer {
  name: "inception_4a/5x5_reduce"
  type: "Convolution"
  bottom: "pool3/3x3_s2"
  top: "inception_4a/5x5_reduce"
  param {
    lr_mult: 1
    decay_mult: 1
  }
  param {
    lr_mult: 2
    decay_mult: 0
  }
  convolution_param {
    num_output: 16
    kernel_size: 1
    weight_filler {
      type: "xavier"
      std: 0.2
    }
    bias_filler {
      type: "constant"
      value: 0.2
    }
  }
}
layer {
  name: "inception_4a/relu_5x5_reduce"
  type: "ReLU"
  bottom: "inception_4a/5x5_reduce"
  top: "inception_4a/5x5_reduce"
}
layer {
  name: "inception_4a/5x5"
  type: "Convolution"
  bottom: "inception_4a/5x5_reduce"
  top: "inception_4a/5x5"
  param {
    lr_mult: 1
    decay_mult: 1
  }
  param {
    lr_mult: 2
    decay_mult: 0
  }
  convolution_param {
    num_output: 48
    pad: 2
    kernel_size: 5
    weight_filler {
      type: "xavier"
      std: 0.03
    }
    bias_filler {
      type: "constant"
      value: 0.2
    }
  }
}
layer {
  name: "inception_4a/relu_5x5"
  type: "ReLU"
  bottom: "inception_4a/5x5"
  top: "inception_4a/5x5"
}
layer {
  name: "inception_4a/pool"
  type: "Pooling"
  bottom: "pool3/3x3_s2"
  top: "inception_4a/pool"
  pooling_param {
    pool: MAX
    kernel_size: 3
    stride: 1
    pad: 1
  }
}
layer {
  name: "inception_4a/pool_proj"
  type: "Convolution"
  bottom: "inception_4a/pool"
  top: "inception_4a/pool_proj"
  param {
    lr_mult: 1
    decay_mult: 1
  }
  param {
    lr_mult: 2
    decay_mult: 0
  }
  convolution_param {
    num_output: 64
    kernel_size: 1
    weight_filler {
      type: "xavier"
      std: 0.1
    }
    bias_filler {
      type: "constant"
      value: 0.2
    }
  }
}
layer {
  name: "inception_4a/relu_pool_proj"
  type: "ReLU"
  bottom: "inception_4a/pool_proj"
  top: "inception_4a/pool_proj"
}
layer {
  name: "inception_4a/output"
  type: "Concat"
  bottom: "inception_4a/1x1"
  bottom: "inception_4a/3x3"
  bottom: "inception_4a/5x5"
  bottom: "inception_4a/pool_proj"
  top: "inception_4a/output"
}
layer {
  name: "loss1/ave_pool"
  type: "Pooling"
  bottom: "inception_4a/output"
  top: "loss1/ave_pool"
  pooling_param {
    pool: AVE
    kernel_size: 5
    stride: 3
  }
}
layer {
  name: "loss1/conv"
  type: "Convolution"
  bottom: "loss1/ave_pool"
  top: "loss1/conv"
  param {
    lr_mult: 1
    decay_mult: 1
  }
  param {
    lr_mult: 2
    decay_mult: 0
  }
  convolution_param {
    num_output: 128
    kernel_size: 1
    weight_filler {
      type: "xavier"
      std: 0.08
    }
    bias_filler {
      type: "constant"
      value: 0.2
    }
  }
}
layer {
  name: "loss1/relu_conv"
  type: "ReLU"
  bottom: "loss1/conv"
  top: "loss1/conv"
}
layer {
  name: "loss1/fc"
  type: "InnerProduct"
  bottom: "loss1/conv"
  top: "loss1/fc"
  param {
    lr_mult: 1
    decay_mult: 1
  }
  param {
    lr_mult: 2
    decay_mult: 0
  }
  inner_product_param {
    num_output: 1024
    weight_filler {
      type: "xavier"
      std: 0.02
    }
    bias_filler {
      type: "constant"
      value: 0.2
    }
  }
}
layer {
  name: "loss1/relu_fc"
  type: "ReLU"
  bottom: "loss1/fc"
  top: "loss1/fc"
}
layer {
  name: "loss1/drop_fc"
  type: "Dropout"
  bottom: "loss1/fc"
  top: "loss1/fc"
  dropout_param {
    dropout_ratio: 0.7
  }
}
layer {
  name: "loss1/classifier_plantvillage"
  type: "InnerProduct"
  bottom: "loss1/fc"
  top: "loss1/classifier_plantvillage"
  param {
    lr_mult: 1
    decay_mult: 1
  }
  param {
    lr_mult: 2
    decay_mult: 0
  }
  inner_product_param {
    num_output: 38
    weight_filler {
      type: "xavier"
      std: 0.0009765625
    }
    bias_filler {
      type: "constant"
      value: 0
    }
  }
}
layer {
  name: "inception_4b/1x1"
  type: "Convolution"
  bottom: "inception_4a/output"
  top: "inception_4b/1x1"
  param {
    lr_mult: 1
    decay_mult: 1
  }
  param {
    lr_mult: 2
    decay_mult: 0
  }
  convolution_param {
    num_output: 160
    kernel_size: 1
    weight_filler {
      type: "xavier"
      std: 0.03
    }
    bias_filler {
      type: "constant"
      value: 0.2
    }
  }
}
layer {
  name: "inception_4b/relu_1x1"
  type: "ReLU"
  bottom: "inception_4b/1x1"
  top: "inception_4b/1x1"
}
layer {
  name: "inception_4b/3x3_reduce"
  type: "Convolution"
  bottom: "inception_4a/output"
  top: "inception_4b/3x3_reduce"
  param {
    lr_mult: 1
    decay_mult: 1
  }
  param {
    lr_mult: 2
    decay_mult: 0
  }
  convolution_param {
    num_output: 112
    kernel_size: 1
    weight_filler {
      type: "xavier"
      std: 0.09
    }
    bias_filler {
      type: "constant"
      value: 0.2
    }
  }
}
layer {
  name: "inception_4b/relu_3x3_reduce"
  type: "ReLU"
  bottom: "inception_4b/3x3_reduce"
  top: "inception_4b/3x3_reduce"
}
layer {
  name: "inception_4b/3x3"
  type: "Convolution"
  bottom: "inception_4b/3x3_reduce"
  top: "inception_4b/3x3"
  param {
    lr_mult: 1
    decay_mult: 1
  }
  param {
    lr_mult: 2
    decay_mult: 0
  }
  convolution_param {
    num_output: 224
    pad: 1
    kernel_size: 3
    weight_filler {
      type: "xavier"
      std: 0.03
    }
    bias_filler {
      type: "constant"
      value: 0.2
    }
  }
}
layer {
  name: "inception_4b/relu_3x3"
  type: "ReLU"
  bottom: "inception_4b/3x3"
  top: "inception_4b/3x3"
}
layer {
  name: "inception_4b/5x5_reduce"
  type: "Convolution"
  bottom: "inception_4a/output"
  top: "inception_4b/5x5_reduce"
  param {
    lr_mult: 1
    decay_mult: 1
  }
  param {
    lr_mult: 2
    decay_mult: 0
  }
  convolution_param {
    num_output: 24
    kernel_size: 1
    weight_filler {
      type: "xavier"
      std: 0.2
    }
    bias_filler {
      type: "constant"
      value: 0.2
    }
  }
}
layer {
  name: "inception_4b/relu_5x5_reduce"
  type: "ReLU"
  bottom: "inception_4b/5x5_reduce"
  top: "inception_4b/5x5_reduce"
}
layer {
  name: "inception_4b/5x5"
  type: "Convolution"
  bottom: "inception_4b/5x5_reduce"
  top: "inception_4b/5x5"
  param {
    lr_mult: 1
    decay_mult: 1
  }
  param {
    lr_mult: 2
    decay_mult: 0
  }
  convolution_param {
    num_output: 64
    pad: 2
    kernel_size: 5
    weight_filler {
      type: "xavier"
      std: 0.03
    }
    bias_filler {
      type: "constant"
      value: 0.2
    }
  }
}
layer {
  name: "inception_4b/relu_5x5"
  type: "ReLU"
  bottom: "inception_4b/5x5"
  top: "inception_4b/5x5"
}
layer {
  name: "inception_4b/pool"
  type: "Pooling"
  bottom: "inception_4a/output"
  top: "inception_4b/pool"
  pooling_param {
    pool: MAX
    kernel_size: 3
    stride: 1
    pad: 1
  }
}
layer {
  name: "inception_4b/pool_proj"
  type: "Convolution"
  bottom: "inception_4b/pool"
  top: "inception_4b/pool_proj"
  param {
    lr_mult: 1
    decay_mult: 1
  }
  param {
    lr_mult: 2
    decay_mult: 0
  }
  convolution_param {
    num_output: 64
    kernel_size: 1
    weight_filler {
      type: "xavier"
      std: 0.1
    }
    bias_filler {
      type: "constant"
      value: 0.2
    }
  }
}
layer {
  name: "inception_4b/relu_pool_proj"
  type: "ReLU"
  bottom: "inception_4b/pool_proj"
  top: "inception_4b/pool_proj"
}
layer {
  name: "inception_4b/output"
  type: "Concat"
  bottom: "inception_4b/1x1"
  bottom: "inception_4b/3x3"
  bottom: "inception_4b/5x5"
  bottom: "inception_4b/pool_proj"
  top: "inception_4b/output"
}
layer {
  name: "inception_4c/1x1"
  type: "Convolution"
  bottom: "inception_4b/output"
  top: "inception_4c/1x1"
  param {
    lr_mult: 1
    decay_mult: 1
  }
  param {
    lr_mult: 2
    decay_mult: 0
  }
  convolution_param {
    num_output: 128
    kernel_size: 1
    weight_filler {
      type: "xavier"
      std: 0.03
    }
    bias_filler {
      type: "constant"
      value: 0.2
    }
  }
}
layer {
  name: "inception_4c/relu_1x1"
  type: "ReLU"
  bottom: "inception_4c/1x1"
  top: "inception_4c/1x1"
}
layer {
  name: "inception_4c/3x3_reduce"
  type: "Convolution"
  bottom: "inception_4b/output"
  top: "inception_4c/3x3_reduce"
  param {
    lr_mult: 1
    decay_mult: 1
  }
  param {
    lr_mult: 2
    decay_mult: 0
  }
  convolution_param {
    num_output: 128
    kernel_size: 1
    weight_filler {
      type: "xavier"
      std: 0.09
    }
    bias_filler {
      type: "constant"
      value: 0.2
    }
  }
}
layer {
  name: "inception_4c/relu_3x3_reduce"
  type: "ReLU"
  bottom: "inception_4c/3x3_reduce"
  top: "inception_4c/3x3_reduce"
}
layer {
  name: "inception_4c/3x3"
  type: "Convolution"
  bottom: "inception_4c/3x3_reduce"
  top: "inception_4c/3x3"
  param {
    lr_mult: 1
    decay_mult: 1
  }
  param {
    lr_mult: 2
    decay_mult: 0
  }
  convolution_param {
    num_output: 256
    pad: 1
    kernel_size: 3
    weight_filler {
      type: "xavier"
      std: 0.03
    }
    bias_filler {
      type: "constant"
      value: 0.2
    }
  }
}
layer {
  name: "inception_4c/relu_3x3"
  type: "ReLU"
  bottom: "inception_4c/3x3"
  top: "inception_4c/3x3"
}
layer {
  name: "inception_4c/5x5_reduce"
  type: "Convolution"
  bottom: "inception_4b/output"
  top: "inception_4c/5x5_reduce"
  param {
    lr_mult: 1
    decay_mult: 1
  }
  param {
    lr_mult: 2
    decay_mult: 0
  }
  convolution_param {
    num_output: 24
    kernel_size: 1
    weight_filler {
      type: "xavier"
      std: 0.2
    }
    bias_filler {
      type: "constant"
      value: 0.2
    }
  }
}
layer {
  name: "inception_4c/relu_5x5_reduce"
  type: "ReLU"
  bottom: "inception_4c/5x5_reduce"
  top: "inception_4c/5x5_reduce"
}
layer {
  name: "inception_4c/5x5"
  type: "Convolution"
  bottom: "inception_4c/5x5_reduce"
  top: "inception_4c/5x5"
  param {
    lr_mult: 1
    decay_mult: 1
  }
  param {
    lr_mult: 2
    decay_mult: 0
  }
  convolution_param {
    num_output: 64
    pad: 2
    kernel_size: 5
    weight_filler {
      type: "xavier"
      std: 0.03
    }
    bias_filler {
      type: "constant"
      value: 0.2
    }
  }
}
layer {
  name: "inception_4c/relu_5x5"
  type: "ReLU"
  bottom: "inception_4c/5x5"
  top: "inception_4c/5x5"
}
layer {
  name: "inception_4c/pool"
  type: "Pooling"
  bottom: "inception_4b/output"
  top: "inception_4c/pool"
  pooling_param {
    pool: MAX
    kernel_size: 3
    stride: 1
    pad: 1
  }
}
layer {
  name: "inception_4c/pool_proj"
  type: "Convolution"
  bottom: "inception_4c/pool"
  top: "inception_4c/pool_proj"
  param {
    lr_mult: 1
    decay_mult: 1
  }
  param {
    lr_mult: 2
    decay_mult: 0
  }
  convolution_param {
    num_output: 64
    kernel_size: 1
    weight_filler {
      type: "xavier"
      std: 0.1
    }
    bias_filler {
      type: "constant"
      value: 0.2
    }
  }
}
layer {
  name: "inception_4c/relu_pool_proj"
  type: "ReLU"
  bottom: "inception_4c/pool_proj"
  top: "inception_4c/pool_proj"
}
layer {
  name: "inception_4c/output"
  type: "Concat"
  bottom: "inception_4c/1x1"
  bottom: "inception_4c/3x3"
  bottom: "inception_4c/5x5"
  bottom: "inception_4c/pool_proj"
  top: "inception_4c/output"
}
layer {
  name: "inception_4d/1x1"
  type: "Convolution"
  bottom: "inception_4c/output"
  top: "inception_4d/1x1"
  param {
    lr_mult: 1
    decay_mult: 1
  }
  param {
    lr_mult: 2
    decay_mult: 0
  }
  convolution_param {
    num_output: 112
    kernel_size: 1
    weight_filler {
      type: "xavier"
      std: 0.03
    }
    bias_filler {
      type: "constant"
      value: 0.2
    }
  }
}
layer {
  name: "inception_4d/relu_1x1"
  type: "ReLU"
  bottom: "inception_4d/1x1"
  top: "inception_4d/1x1"
}
layer {
  name: "inception_4d/3x3_reduce"
  type: "Convolution"
  bottom: "inception_4c/output"
  top: "inception_4d/3x3_reduce"
  param {
    lr_mult: 1
    decay_mult: 1
  }
  param {
    lr_mult: 2
    decay_mult: 0
  }
  convolution_param {
    num_output: 144
    kernel_size: 1
    weight_filler {
      type: "xavier"
      std: 0.09
    }
    bias_filler {
      type: "constant"
      value: 0.2
    }
  }
}
layer {
  name: "inception_4d/relu_3x3_reduce"
  type: "ReLU"
  bottom: "inception_4d/3x3_reduce"
  top: "inception_4d/3x3_reduce"
}
layer {
  name: "inception_4d/3x3"
  type: "Convolution"
  bottom: "inception_4d/3x3_reduce"
  top: "inception_4d/3x3"
  param {
    lr_mult: 1
    decay_mult: 1
  }
  param {
    lr_mult: 2
    decay_mult: 0
  }
  convolution_param {
    num_output: 288
    pad: 1
    kernel_size: 3
    weight_filler {
      type: "xavier"
      std: 0.03
    }
    bias_filler {
      type: "constant"
      value: 0.2
    }
  }
}
layer {
  name: "inception_4d/relu_3x3"
  type: "ReLU"
  bottom: "inception_4d/3x3"
  top: "inception_4d/3x3"
}
layer {
  name: "inception_4d/5x5_reduce"
  type: "Convolution"
  bottom: "inception_4c/output"
  top: "inception_4d/5x5_reduce"
  param {
    lr_mult: 1
    decay_mult: 1
  }
  param {
    lr_mult: 2
    decay_mult: 0
  }
  convolution_param {
    num_output: 32
    kernel_size: 1
    weight_filler {
      type: "xavier"
      std: 0.2
    }
    bias_filler {
      type: "constant"
      value: 0.2
    }
  }
}
layer {
  name: "inception_4d/relu_5x5_reduce"
  type: "ReLU"
  bottom: "inception_4d/5x5_reduce"
  top: "inception_4d/5x5_reduce"
}
layer {
  name: "inception_4d/5x5"
  type: "Convolution"
  bottom: "inception_4d/5x5_reduce"
  top: "inception_4d/5x5"
  param {
    lr_mult: 1
    decay_mult: 1
  }
  param {
    lr_mult: 2
    decay_mult: 0
  }
  convolution_param {
    num_output: 64
    pad: 2
    kernel_size: 5
    weight_filler {
      type: "xavier"
      std: 0.03
    }
    bias_filler {
      type: "constant"
      value: 0.2
    }
  }
}
layer {
  name: "inception_4d/relu_5x5"
  type: "ReLU"
  bottom: "inception_4d/5x5"
  top: "inception_4d/5x5"
}
layer {
  name: "inception_4d/pool"
  type: "Pooling"
  bottom: "inception_4c/output"
  top: "inception_4d/pool"
  pooling_param {
    pool: MAX
    kernel_size: 3
    stride: 1
    pad: 1
  }
}
layer {
  name: "inception_4d/pool_proj"
  type: "Convolution"
  bottom: "inception_4d/pool"
  top: "inception_4d/pool_proj"
  param {
    lr_mult: 1
    decay_mult: 1
  }
  param {
    lr_mult: 2
    decay_mult: 0
  }
  convolution_param {
    num_output: 64
    kernel_size: 1
    weight_filler {
      type: "xavier"
      std: 0.1
    }
    bias_filler {
      type: "constant"
      value: 0.2
    }
  }
}
layer {
  name: "inception_4d/relu_pool_proj"
  type: "ReLU"
  bottom: "inception_4d/pool_proj"
  top: "inception_4d/pool_proj"
}
layer {
  name: "inception_4d/output"
  type: "Concat"
  bottom: "inception_4d/1x1"
  bottom: "inception_4d/3x3"
  bottom: "inception_4d/5x5"
  bottom: "inception_4d/pool_proj"
  top: "inception_4d/output"
}
layer {
  name: "loss2/ave_pool"
  type: "Pooling"
  bottom: "inception_4d/output"
  top: "loss2/ave_pool"
  pooling_param {
    pool: AVE
    kernel_size: 5
    stride: 3
  }
}
layer {
  name: "loss2/conv"
  type: "Convolution"
  bottom: "loss2/ave_pool"
  top: "loss2/conv"
  param {
    lr_mult: 1
    decay_mult: 1
  }
  param {
    lr_mult: 2
    decay_mult: 0
  }
  convolution_param {
    num_output: 128
    kernel_size: 1
    weight_filler {
      type: "xavier"
      std: 0.08
    }
    bias_filler {
      type: "constant"
      value: 0.2
    }
  }
}
layer {
  name: "loss2/relu_conv"
  type: "ReLU"
  bottom: "loss2/conv"
  top: "loss2/conv"
}
layer {
  name: "loss2/fc"
  type: "InnerProduct"
  bottom: "loss2/conv"
  top: "loss2/fc"
  param {
    lr_mult: 1
    decay_mult: 1
  }
  param {
    lr_mult: 2
    decay_mult: 0
  }
  inner_product_param {
    num_output: 1024
    weight_filler {
      type: "xavier"
      std: 0.02
    }
    bias_filler {
      type: "constant"
      value: 0.2
    }
  }
}
layer {
  name: "loss2/relu_fc"
  type: "ReLU"
  bottom: "loss2/fc"
  top: "loss2/fc"
}
layer {
  name: "loss2/drop_fc"
  type: "Dropout"
  bottom: "loss2/fc"
  top: "loss2/fc"
  dropout_param {
    dropout_ratio: 0.7
  }
}
layer {
  name: "loss2/classifier_plantvillage"
  type: "InnerProduct"
  bottom: "loss2/fc"
  top: "loss2/classifier_plantvillage"
  param {
    lr_mult: 1
    decay_mult: 1
  }
  param {
    lr_mult: 2
    decay_mult: 0
  }
  inner_product_param {
    num_output: 38
    weight_filler {
      type: "xavier"
      std: 0.0009765625
    }
    bias_filler {
      type: "constant"
      value: 0
    }
  }
}
layer {
  name: "inception_4e/1x1"
  type: "Convolution"
  bottom: "inception_4d/output"
  top: "inception_4e/1x1"
  param {
    lr_mult: 1
    decay_mult: 1
  }
  param {
    lr_mult: 2
    decay_mult: 0
  }
  convolution_param {
    num_output: 256
    kernel_size: 1
    weight_filler {
      type: "xavier"
      std: 0.03
    }
    bias_filler {
      type: "constant"
      value: 0.2
    }
  }
}
layer {
  name: "inception_4e/relu_1x1"
  type: "ReLU"
  bottom: "inception_4e/1x1"
  top: "inception_4e/1x1"
}
layer {
  name: "inception_4e/3x3_reduce"
  type: "Convolution"
  bottom: "inception_4d/output"
  top: "inception_4e/3x3_reduce"
  param {
    lr_mult: 1
    decay_mult: 1
  }
  param {
    lr_mult: 2
    decay_mult: 0
  }
  convolution_param {
    num_output: 160
    kernel_size: 1
    weight_filler {
      type: "xavier"
      std: 0.09
    }
    bias_filler {
      type: "constant"
      value: 0.2
    }
  }
}
layer {
  name: "inception_4e/relu_3x3_reduce"
  type: "ReLU"
  bottom: "inception_4e/3x3_reduce"
  top: "inception_4e/3x3_reduce"
}
layer {
  name: "inception_4e/3x3"
  type: "Convolution"
  bottom: "inception_4e/3x3_reduce"
  top: "inception_4e/3x3"
  param {
    lr_mult: 1
    decay_mult: 1
  }
  param {
    lr_mult: 2
    decay_mult: 0
  }
  convolution_param {
    num_output: 320
    pad: 1
    kernel_size: 3
    weight_filler {
      type: "xavier"
      std: 0.03
    }
    bias_filler {
      type: "constant"
      value: 0.2
    }
  }
}
layer {
  name: "inception_4e/relu_3x3"
  type: "ReLU"
  bottom: "inception_4e/3x3"
  top: "inception_4e/3x3"
}
layer {
  name: "inception_4e/5x5_reduce"
  type: "Convolution"
  bottom: "inception_4d/output"
  top: "inception_4e/5x5_reduce"
  param {
    lr_mult: 1
    decay_mult: 1
  }
  param {
    lr_mult: 2
    decay_mult: 0
  }
  convolution_param {
    num_output: 32
    kernel_size: 1
    weight_filler {
      type: "xavier"
      std: 0.2
    }
    bias_filler {
      type: "constant"
      value: 0.2
    }
  }
}
layer {
  name: "inception_4e/relu_5x5_reduce"
  type: "ReLU"
  bottom: "inception_4e/5x5_reduce"
  top: "inception_4e/5x5_reduce"
}
layer {
  name: "inception_4e/5x5"
  type: "Convolution"
  bottom: "inception_4e/5x5_reduce"
  top: "inception_4e/
I0403 18:06:16.758713  6585 layer_factory.hpp:77] Creating layer data
I0403 18:06:16.759341  6585 net.cpp:91] Creating Layer data
I0403 18:06:16.759377  6585 net.cpp:399] data -> data
I0403 18:06:16.759430  6585 net.cpp:399] data -> label
I0403 18:06:16.759469  6585 data_transformer.cpp:25] Loading mean file from: /home/mohanty/data/final_dataset/lmdb/grayscale-40-60/mean.binaryproto
I0403 18:06:16.760694  6588 db_lmdb.cpp:38] Opened lmdb /home/mohanty/data/final_dataset/lmdb/grayscale-40-60/test_db
I0403 18:06:16.773385  6585 data_layer.cpp:41] output data size: 24,3,224,224
I0403 18:06:16.801184  6585 net.cpp:141] Setting up data
I0403 18:06:16.801301  6585 net.cpp:148] Top shape: 24 3 224 224 (3612672)
I0403 18:06:16.801326  6585 net.cpp:148] Top shape: 24 (24)
I0403 18:06:16.801342  6585 net.cpp:156] Memory required for data: 14450784
I0403 18:06:16.801373  6585 layer_factory.hpp:77] Creating layer label_data_1_split
I0403 18:06:16.801400  6585 net.cpp:91] Creating Layer label_data_1_split
I0403 18:06:16.801420  6585 net.cpp:425] label_data_1_split <- label
I0403 18:06:16.801455  6585 net.cpp:399] label_data_1_split -> label_data_1_split_0
I0403 18:06:16.801483  6585 net.cpp:399] label_data_1_split -> label_data_1_split_1
I0403 18:06:16.801506  6585 net.cpp:399] label_data_1_split -> label_data_1_split_2
I0403 18:06:16.801527  6585 net.cpp:399] label_data_1_split -> label_data_1_split_3
I0403 18:06:16.801548  6585 net.cpp:399] label_data_1_split -> label_data_1_split_4
I0403 18:06:16.801569  6585 net.cpp:399] label_data_1_split -> label_data_1_split_5
I0403 18:06:16.801590  6585 net.cpp:399] label_data_1_split -> label_data_1_split_6
I0403 18:06:16.801612  6585 net.cpp:399] label_data_1_split -> label_data_1_split_7
I0403 18:06:16.801633  6585 net.cpp:399] label_data_1_split -> label_data_1_split_8
I0403 18:06:16.801653  6585 net.cpp:399] label_data_1_split -> label_data_1_split_9
I0403 18:06:16.801774  6585 net.cpp:141] Setting up label_data_1_split
I0403 18:06:16.801798  6585 net.cpp:148] Top shape: 24 (24)
I0403 18:06:16.801817  6585 net.cpp:148] Top shape: 24 (24)
I0403 18:06:16.801834  6585 net.cpp:148] Top shape: 24 (24)
I0403 18:06:16.801851  6585 net.cpp:148] Top shape: 24 (24)
I0403 18:06:16.801867  6585 net.cpp:148] Top shape: 24 (24)
I0403 18:06:16.801883  6585 net.cpp:148] Top shape: 24 (24)
I0403 18:06:16.801899  6585 net.cpp:148] Top shape: 24 (24)
I0403 18:06:16.801918  6585 net.cpp:148] Top shape: 24 (24)
I0403 18:06:16.801934  6585 net.cpp:148] Top shape: 24 (24)
I0403 18:06:16.801950  6585 net.cpp:148] Top shape: 24 (24)
I0403 18:06:16.801996  6585 net.cpp:156] Memory required for data: 14451744
I0403 18:06:16.802013  6585 layer_factory.hpp:77] Creating layer conv1/7x7_s2
I0403 18:06:16.802045  6585 net.cpp:91] Creating Layer conv1/7x7_s2
I0403 18:06:16.802065  6585 net.cpp:425] conv1/7x7_s2 <- data
I0403 18:06:16.802088  6585 net.cpp:399] conv1/7x7_s2 -> conv1/7x7_s2
I0403 18:06:16.948992  6585 net.cpp:141] Setting up conv1/7x7_s2
I0403 18:06:16.949098  6585 net.cpp:148] Top shape: 24 64 112 112 (19267584)
I0403 18:06:16.949117  6585 net.cpp:156] Memory required for data: 91522080
I0403 18:06:16.949148  6585 layer_factory.hpp:77] Creating layer conv1/relu_7x7
I0403 18:06:16.949177  6585 net.cpp:91] Creating Layer conv1/relu_7x7
I0403 18:06:16.949198  6585 net.cpp:425] conv1/relu_7x7 <- conv1/7x7_s2
I0403 18:06:16.949219  6585 net.cpp:386] conv1/relu_7x7 -> conv1/7x7_s2 (in-place)
I0403 18:06:16.949491  6585 net.cpp:141] Setting up conv1/relu_7x7
I0403 18:06:16.949519  6585 net.cpp:148] Top shape: 24 64 112 112 (19267584)
I0403 18:06:16.949535  6585 net.cpp:156] Memory required for data: 168592416
I0403 18:06:16.949553  6585 layer_factory.hpp:77] Creating layer pool1/3x3_s2
I0403 18:06:16.949579  6585 net.cpp:91] Creating Layer pool1/3x3_s2
I0403 18:06:16.949599  6585 net.cpp:425] pool1/3x3_s2 <- conv1/7x7_s2
I0403 18:06:16.949618  6585 net.cpp:399] pool1/3x3_s2 -> pool1/3x3_s2
I0403 18:06:16.949694  6585 net.cpp:141] Setting up pool1/3x3_s2
I0403 18:06:16.949722  6585 net.cpp:148] Top shape: 24 64 56 56 (4816896)
I0403 18:06:16.949738  6585 net.cpp:156] Memory required for data: 187860000
I0403 18:06:16.949753  6585 layer_factory.hpp:77] Creating layer pool1/norm1
I0403 18:06:16.949780  6585 net.cpp:91] Creating Layer pool1/norm1
I0403 18:06:16.949800  6585 net.cpp:425] pool1/norm1 <- pool1/3x3_s2
I0403 18:06:16.949818  6585 net.cpp:399] pool1/norm1 -> pool1/norm1
I0403 18:06:16.950116  6585 net.cpp:141] Setting up pool1/norm1
I0403 18:06:16.950145  6585 net.cpp:148] Top shape: 24 64 56 56 (4816896)
I0403 18:06:16.950162  6585 net.cpp:156] Memory required for data: 207127584
I0403 18:06:16.950178  6585 layer_factory.hpp:77] Creating layer conv2/3x3_reduce
I0403 18:06:16.950204  6585 net.cpp:91] Creating Layer conv2/3x3_reduce
I0403 18:06:16.950222  6585 net.cpp:425] conv2/3x3_reduce <- pool1/norm1
I0403 18:06:16.950242  6585 net.cpp:399] conv2/3x3_reduce -> conv2/3x3_reduce
I0403 18:06:16.951685  6585 net.cpp:141] Setting up conv2/3x3_reduce
I0403 18:06:16.951719  6585 net.cpp:148] Top shape: 24 64 56 56 (4816896)
I0403 18:06:16.951736  6585 net.cpp:156] Memory required for data: 226395168
I0403 18:06:16.951759  6585 layer_factory.hpp:77] Creating layer conv2/relu_3x3_reduce
I0403 18:06:16.951781  6585 net.cpp:91] Creating Layer conv2/relu_3x3_reduce
I0403 18:06:16.951799  6585 net.cpp:425] conv2/relu_3x3_reduce <- conv2/3x3_reduce
I0403 18:06:16.951817  6585 net.cpp:386] conv2/relu_3x3_reduce -> conv2/3x3_reduce (in-place)
I0403 18:06:16.952080  6585 net.cpp:141] Setting up conv2/relu_3x3_reduce
I0403 18:06:16.952108  6585 net.cpp:148] Top shape: 24 64 56 56 (4816896)
I0403 18:06:16.952126  6585 net.cpp:156] Memory required for data: 245662752
I0403 18:06:16.952142  6585 layer_factory.hpp:77] Creating layer conv2/3x3
I0403 18:06:16.952165  6585 net.cpp:91] Creating Layer conv2/3x3
I0403 18:06:16.952185  6585 net.cpp:425] conv2/3x3 <- conv2/3x3_reduce
I0403 18:06:16.952206  6585 net.cpp:399] conv2/3x3 -> conv2/3x3
I0403 18:06:16.954531  6585 net.cpp:141] Setting up conv2/3x3
I0403 18:06:16.954566  6585 net.cpp:148] Top shape: 24 192 56 56 (14450688)
I0403 18:06:16.954583  6585 net.cpp:156] Memory required for data: 303465504
I0403 18:06:16.954607  6585 layer_factory.hpp:77] Creating layer conv2/relu_3x3
I0403 18:06:16.954627  6585 net.cpp:91] Creating Layer conv2/relu_3x3
I0403 18:06:16.954645  6585 net.cpp:425] conv2/relu_3x3 <- conv2/3x3
I0403 18:06:16.954665  6585 net.cpp:386] conv2/relu_3x3 -> conv2/3x3 (in-place)
I0403 18:06:16.954834  6585 net.cpp:141] Setting up conv2/relu_3x3
I0403 18:06:16.954862  6585 net.cpp:148] Top shape: 24 192 56 56 (14450688)
I0403 18:06:16.954912  6585 net.cpp:156] Memory required for data: 361268256
I0403 18:06:16.954929  6585 layer_factory.hpp:77] Creating layer conv2/norm2
I0403 18:06:16.954949  6585 net.cpp:91] Creating Layer conv2/norm2
I0403 18:06:16.954967  6585 net.cpp:425] conv2/norm2 <- conv2/3x3
I0403 18:06:16.954985  6585 net.cpp:399] conv2/norm2 -> conv2/norm2
I0403 18:06:16.955286  6585 net.cpp:141] Setting up conv2/norm2
I0403 18:06:16.955315  6585 net.cpp:148] Top shape: 24 192 56 56 (14450688)
I0403 18:06:16.955332  6585 net.cpp:156] Memory required for data: 419071008
I0403 18:06:16.955348  6585 layer_factory.hpp:77] Creating layer pool2/3x3_s2
I0403 18:06:16.955368  6585 net.cpp:91] Creating Layer pool2/3x3_s2
I0403 18:06:16.955384  6585 net.cpp:425] pool2/3x3_s2 <- conv2/norm2
I0403 18:06:16.955404  6585 net.cpp:399] pool2/3x3_s2 -> pool2/3x3_s2
I0403 18:06:16.955456  6585 net.cpp:141] Setting up pool2/3x3_s2
I0403 18:06:16.955478  6585 net.cpp:148] Top shape: 24 192 28 28 (3612672)
I0403 18:06:16.955494  6585 net.cpp:156] Memory required for data: 433521696
I0403 18:06:16.955510  6585 layer_factory.hpp:77] Creating layer pool2/3x3_s2_pool2/3x3_s2_0_split
I0403 18:06:16.955528  6585 net.cpp:91] Creating Layer pool2/3x3_s2_pool2/3x3_s2_0_split
I0403 18:06:16.955545  6585 net.cpp:425] pool2/3x3_s2_pool2/3x3_s2_0_split <- pool2/3x3_s2
I0403 18:06:16.955564  6585 net.cpp:399] pool2/3x3_s2_pool2/3x3_s2_0_split -> pool2/3x3_s2_pool2/3x3_s2_0_split_0
I0403 18:06:16.955585  6585 net.cpp:399] pool2/3x3_s2_pool2/3x3_s2_0_split -> pool2/3x3_s2_pool2/3x3_s2_0_split_1
I0403 18:06:16.955605  6585 net.cpp:399] pool2/3x3_s2_pool2/3x3_s2_0_split -> pool2/3x3_s2_pool2/3x3_s2_0_split_2
I0403 18:06:16.955624  6585 net.cpp:399] pool2/3x3_s2_pool2/3x3_s2_0_split -> pool2/3x3_s2_pool2/3x3_s2_0_split_3
I0403 18:06:16.955693  6585 net.cpp:141] Setting up pool2/3x3_s2_pool2/3x3_s2_0_split
I0403 18:06:16.955716  6585 net.cpp:148] Top shape: 24 192 28 28 (3612672)
I0403 18:06:16.955734  6585 net.cpp:148] Top shape: 24 192 28 28 (3612672)
I0403 18:06:16.955751  6585 net.cpp:148] Top shape: 24 192 28 28 (3612672)
I0403 18:06:16.955767  6585 net.cpp:148] Top shape: 24 192 28 28 (3612672)
I0403 18:06:16.955781  6585 net.cpp:156] Memory required for data: 491324448
I0403 18:06:16.955796  6585 layer_factory.hpp:77] Creating layer inception_3a/1x1
I0403 18:06:16.955818  6585 net.cpp:91] Creating Layer inception_3a/1x1
I0403 18:06:16.955837  6585 net.cpp:425] inception_3a/1x1 <- pool2/3x3_s2_pool2/3x3_s2_0_split_0
I0403 18:06:16.955857  6585 net.cpp:399] inception_3a/1x1 -> inception_3a/1x1
I0403 18:06:16.957456  6585 net.cpp:141] Setting up inception_3a/1x1
I0403 18:06:16.957491  6585 net.cpp:148] Top shape: 24 64 28 28 (1204224)
I0403 18:06:16.957511  6585 net.cpp:156] Memory required for data: 496141344
I0403 18:06:16.957532  6585 layer_factory.hpp:77] Creating layer inception_3a/relu_1x1
I0403 18:06:16.957552  6585 net.cpp:91] Creating Layer inception_3a/relu_1x1
I0403 18:06:16.957571  6585 net.cpp:425] inception_3a/relu_1x1 <- inception_3a/1x1
I0403 18:06:16.957588  6585 net.cpp:386] inception_3a/relu_1x1 -> inception_3a/1x1 (in-place)
I0403 18:06:16.957777  6585 net.cpp:141] Setting up inception_3a/relu_1x1
I0403 18:06:16.957805  6585 net.cpp:148] Top shape: 24 64 28 28 (1204224)
I0403 18:06:16.957821  6585 net.cpp:156] Memory required for data: 500958240
I0403 18:06:16.957837  6585 layer_factory.hpp:77] Creating layer inception_3a/3x3_reduce
I0403 18:06:16.957861  6585 net.cpp:91] Creating Layer inception_3a/3x3_reduce
I0403 18:06:16.957880  6585 net.cpp:425] inception_3a/3x3_reduce <- pool2/3x3_s2_pool2/3x3_s2_0_split_1
I0403 18:06:16.957904  6585 net.cpp:399] inception_3a/3x3_reduce -> inception_3a/3x3_reduce
I0403 18:06:16.959707  6585 net.cpp:141] Setting up inception_3a/3x3_reduce
I0403 18:06:16.959743  6585 net.cpp:148] Top shape: 24 96 28 28 (1806336)
I0403 18:06:16.959763  6585 net.cpp:156] Memory required for data: 508183584
I0403 18:06:16.959785  6585 layer_factory.hpp:77] Creating layer inception_3a/relu_3x3_reduce
I0403 18:06:16.959822  6585 net.cpp:91] Creating Layer inception_3a/relu_3x3_reduce
I0403 18:06:16.959841  6585 net.cpp:425] inception_3a/relu_3x3_reduce <- inception_3a/3x3_reduce
I0403 18:06:16.959862  6585 net.cpp:386] inception_3a/relu_3x3_reduce -> inception_3a/3x3_reduce (in-place)
I0403 18:06:16.960055  6585 net.cpp:141] Setting up inception_3a/relu_3x3_reduce
I0403 18:06:16.960083  6585 net.cpp:148] Top shape: 24 96 28 28 (1806336)
I0403 18:06:16.960098  6585 net.cpp:156] Memory required for data: 515408928
I0403 18:06:16.960114  6585 layer_factory.hpp:77] Creating layer inception_3a/3x3
I0403 18:06:16.960139  6585 net.cpp:91] Creating Layer inception_3a/3x3
I0403 18:06:16.960160  6585 net.cpp:425] inception_3a/3x3 <- inception_3a/3x3_reduce
I0403 18:06:16.960180  6585 net.cpp:399] inception_3a/3x3 -> inception_3a/3x3
I0403 18:06:16.961931  6585 net.cpp:141] Setting up inception_3a/3x3
I0403 18:06:16.961966  6585 net.cpp:148] Top shape: 24 128 28 28 (2408448)
I0403 18:06:16.961983  6585 net.cpp:156] Memory required for data: 525042720
I0403 18:06:16.962004  6585 layer_factory.hpp:77] Creating layer inception_3a/relu_3x3
I0403 18:06:16.962023  6585 net.cpp:91] Creating Layer inception_3a/relu_3x3
I0403 18:06:16.962040  6585 net.cpp:425] inception_3a/relu_3x3 <- inception_3a/3x3
I0403 18:06:16.962065  6585 net.cpp:386] inception_3a/relu_3x3 -> inception_3a/3x3 (in-place)
I0403 18:06:16.962366  6585 net.cpp:141] Setting up inception_3a/relu_3x3
I0403 18:06:16.962399  6585 net.cpp:148] Top shape: 24 128 28 28 (2408448)
I0403 18:06:16.962416  6585 net.cpp:156] Memory required for data: 534676512
I0403 18:06:16.962433  6585 layer_factory.hpp:77] Creating layer inception_3a/5x5_reduce
I0403 18:06:16.962458  6585 net.cpp:91] Creating Layer inception_3a/5x5_reduce
I0403 18:06:16.962478  6585 net.cpp:425] inception_3a/5x5_reduce <- pool2/3x3_s2_pool2/3x3_s2_0_split_2
I0403 18:06:16.962503  6585 net.cpp:399] inception_3a/5x5_reduce -> inception_3a/5x5_reduce
I0403 18:06:16.963521  6585 net.cpp:141] Setting up inception_3a/5x5_reduce
I0403 18:06:16.963551  6585 net.cpp:148] Top shape: 24 16 28 28 (301056)
I0403 18:06:16.963569  6585 net.cpp:156] Memory required for data: 535880736
I0403 18:06:16.963588  6585 layer_factory.hpp:77] Creating layer inception_3a/relu_5x5_reduce
I0403 18:06:16.963608  6585 net.cpp:91] Creating Layer inception_3a/relu_5x5_reduce
I0403 18:06:16.963625  6585 net.cpp:425] inception_3a/relu_5x5_reduce <- inception_3a/5x5_reduce
I0403 18:06:16.963646  6585 net.cpp:386] inception_3a/relu_5x5_reduce -> inception_3a/5x5_reduce (in-place)
I0403 18:06:16.963943  6585 net.cpp:141] Setting up inception_3a/relu_5x5_reduce
I0403 18:06:16.963971  6585 net.cpp:148] Top shape: 24 16 28 28 (301056)
I0403 18:06:16.963987  6585 net.cpp:156] Memory required for data: 537084960
I0403 18:06:16.964004  6585 layer_factory.hpp:77] Creating layer inception_3a/5x5
I0403 18:06:16.964027  6585 net.cpp:91] Creating Layer inception_3a/5x5
I0403 18:06:16.964047  6585 net.cpp:425] inception_3a/5x5 <- inception_3a/5x5_reduce
I0403 18:06:16.964069  6585 net.cpp:399] inception_3a/5x5 -> inception_3a/5x5
I0403 18:06:16.965131  6585 net.cpp:141] Setting up inception_3a/5x5
I0403 18:06:16.965164  6585 net.cpp:148] Top shape: 24 32 28 28 (602112)
I0403 18:06:16.965184  6585 net.cpp:156] Memory required for data: 539493408
I0403 18:06:16.965206  6585 layer_factory.hpp:77] Creating layer inception_3a/relu_5x5
I0403 18:06:16.965225  6585 net.cpp:91] Creating Layer inception_3a/relu_5x5
I0403 18:06:16.965243  6585 net.cpp:425] inception_3a/relu_5x5 <- inception_3a/5x5
I0403 18:06:16.965262  6585 net.cpp:386] inception_3a/relu_5x5 -> inception_3a/5x5 (in-place)
I0403 18:06:16.965454  6585 net.cpp:141] Setting up inception_3a/relu_5x5
I0403 18:06:16.965482  6585 net.cpp:148] Top shape: 24 32 28 28 (602112)
I0403 18:06:16.965497  6585 net.cpp:156] Memory required for data: 541901856
I0403 18:06:16.965513  6585 layer_factory.hpp:77] Creating layer inception_3a/pool
I0403 18:06:16.965533  6585 net.cpp:91] Creating Layer inception_3a/pool
I0403 18:06:16.965564  6585 net.cpp:425] inception_3a/pool <- pool2/3x3_s2_pool2/3x3_s2_0_split_3
I0403 18:06:16.965586  6585 net.cpp:399] inception_3a/pool -> inception_3a/pool
I0403 18:06:16.965647  6585 net.cpp:141] Setting up inception_3a/pool
I0403 18:06:16.965674  6585 net.cpp:148] Top shape: 24 192 28 28 (3612672)
I0403 18:06:16.965690  6585 net.cpp:156] Memory required for data: 556352544
I0403 18:06:16.965706  6585 layer_factory.hpp:77] Creating layer inception_3a/pool_proj
I0403 18:06:16.965729  6585 net.cpp:91] Creating Layer inception_3a/pool_proj
I0403 18:06:16.965749  6585 net.cpp:425] inception_3a/pool_proj <- inception_3a/pool
I0403 18:06:16.965770  6585 net.cpp:399] inception_3a/pool_proj -> inception_3a/pool_proj
I0403 18:06:16.966778  6585 net.cpp:141] Setting up inception_3a/pool_proj
I0403 18:06:16.966809  6585 net.cpp:148] Top shape: 24 32 28 28 (602112)
I0403 18:06:16.966825  6585 net.cpp:156] Memory required for data: 558760992
I0403 18:06:16.966851  6585 layer_factory.hpp:77] Creating layer inception_3a/relu_pool_proj
I0403 18:06:16.966874  6585 net.cpp:91] Creating Layer inception_3a/relu_pool_proj
I0403 18:06:16.966892  6585 net.cpp:425] inception_3a/relu_pool_proj <- inception_3a/pool_proj
I0403 18:06:16.966914  6585 net.cpp:386] inception_3a/relu_pool_proj -> inception_3a/pool_proj (in-place)
I0403 18:06:16.967198  6585 net.cpp:141] Setting up inception_3a/relu_pool_proj
I0403 18:06:16.967229  6585 net.cpp:148] Top shape: 24 32 28 28 (602112)
I0403 18:06:16.967247  6585 net.cpp:156] Memory required for data: 561169440
I0403 18:06:16.967262  6585 layer_factory.hpp:77] Creating layer inception_3a/output
I0403 18:06:16.967288  6585 net.cpp:91] Creating Layer inception_3a/output
I0403 18:06:16.967308  6585 net.cpp:425] inception_3a/output <- inception_3a/1x1
I0403 18:06:16.967326  6585 net.cpp:425] inception_3a/output <- inception_3a/3x3
I0403 18:06:16.967344  6585 net.cpp:425] inception_3a/output <- inception_3a/5x5
I0403 18:06:16.967360  6585 net.cpp:425] inception_3a/output <- inception_3a/pool_proj
I0403 18:06:16.967378  6585 net.cpp:399] inception_3a/output -> inception_3a/output
I0403 18:06:16.967430  6585 net.cpp:141] Setting up inception_3a/output
I0403 18:06:16.967458  6585 net.cpp:148] Top shape: 24 256 28 28 (4816896)
I0403 18:06:16.967473  6585 net.cpp:156] Memory required for data: 580437024
I0403 18:06:16.967489  6585 layer_factory.hpp:77] Creating layer inception_3a/output_inception_3a/output_0_split
I0403 18:06:16.967509  6585 net.cpp:91] Creating Layer inception_3a/output_inception_3a/output_0_split
I0403 18:06:16.967526  6585 net.cpp:425] inception_3a/output_inception_3a/output_0_split <- inception_3a/output
I0403 18:06:16.967545  6585 net.cpp:399] inception_3a/output_inception_3a/output_0_split -> inception_3a/output_inception_3a/output_0_split_0
I0403 18:06:16.967566  6585 net.cpp:399] inception_3a/output_inception_3a/output_0_split -> inception_3a/output_inception_3a/output_0_split_1
I0403 18:06:16.967592  6585 net.cpp:399] inception_3a/output_inception_3a/output_0_split -> inception_3a/output_inception_3a/output_0_split_2
I0403 18:06:16.967615  6585 net.cpp:399] inception_3a/output_inception_3a/output_0_split -> inception_3a/output_inception_3a/output_0_split_3
I0403 18:06:16.967694  6585 net.cpp:141] Setting up inception_3a/output_inception_3a/output_0_split
I0403 18:06:16.967718  6585 net.cpp:148] Top shape: 24 256 28 28 (4816896)
I0403 18:06:16.967737  6585 net.cpp:148] Top shape: 24 256 28 28 (4816896)
I0403 18:06:16.967754  6585 net.cpp:148] Top shape: 24 256 28 28 (4816896)
I0403 18:06:16.967770  6585 net.cpp:148] Top shape: 24 256 28 28 (4816896)
I0403 18:06:16.967784  6585 net.cpp:156] Memory required for data: 657507360
I0403 18:06:16.967800  6585 layer_factory.hpp:77] Creating layer inception_3b/1x1
I0403 18:06:16.967828  6585 net.cpp:91] Creating Layer inception_3b/1x1
I0403 18:06:16.967846  6585 net.cpp:425] inception_3b/1x1 <- inception_3a/output_inception_3a/output_0_split_0
I0403 18:06:16.967866  6585 net.cpp:399] inception_3b/1x1 -> inception_3b/1x1
I0403 18:06:16.969058  6585 net.cpp:141] Setting up inception_3b/1x1
I0403 18:06:16.969099  6585 net.cpp:148] Top shape: 24 128 28 28 (2408448)
I0403 18:06:16.969116  6585 net.cpp:156] Memory required for data: 667141152
I0403 18:06:16.969135  6585 layer_factory.hpp:77] Creating layer inception_3b/relu_1x1
I0403 18:06:16.969156  6585 net.cpp:91] Creating Layer inception_3b/relu_1x1
I0403 18:06:16.969175  6585 net.cpp:425] inception_3b/relu_1x1 <- inception_3b/1x1
I0403 18:06:16.969193  6585 net.cpp:386] inception_3b/relu_1x1 -> inception_3b/1x1 (in-place)
I0403 18:06:16.969385  6585 net.cpp:141] Setting up inception_3b/relu_1x1
I0403 18:06:16.969413  6585 net.cpp:148] Top shape: 24 128 28 28 (2408448)
I0403 18:06:16.969429  6585 net.cpp:156] Memory required for data: 676774944
I0403 18:06:16.969449  6585 layer_factory.hpp:77] Creating layer inception_3b/3x3_reduce
I0403 18:06:16.969473  6585 net.cpp:91] Creating Layer inception_3b/3x3_reduce
I0403 18:06:16.969493  6585 net.cpp:425] inception_3b/3x3_reduce <- inception_3a/output_inception_3a/output_0_split_1
I0403 18:06:16.969516  6585 net.cpp:399] inception_3b/3x3_reduce -> inception_3b/3x3_reduce
I0403 18:06:16.970710  6585 net.cpp:141] Setting up inception_3b/3x3_reduce
I0403 18:06:16.970741  6585 net.cpp:148] Top shape: 24 128 28 28 (2408448)
I0403 18:06:16.970757  6585 net.cpp:156] Memory required for data: 686408736
I0403 18:06:16.970777  6585 layer_factory.hpp:77] Creating layer inception_3b/relu_3x3_reduce
I0403 18:06:16.970800  6585 net.cpp:91] Creating Layer inception_3b/relu_3x3_reduce
I0403 18:06:16.970818  6585 net.cpp:425] inception_3b/relu_3x3_reduce <- inception_3b/3x3_reduce
I0403 18:06:16.970836  6585 net.cpp:386] inception_3b/relu_3x3_reduce -> inception_3b/3x3_reduce (in-place)
I0403 18:06:16.971017  6585 net.cpp:141] Setting up inception_3b/relu_3x3_reduce
I0403 18:06:16.971046  6585 net.cpp:148] Top shape: 24 128 28 28 (2408448)
I0403 18:06:16.971062  6585 net.cpp:156] Memory required for data: 696042528
I0403 18:06:16.971079  6585 layer_factory.hpp:77] Creating layer inception_3b/3x3
I0403 18:06:16.971106  6585 net.cpp:91] Creating Layer inception_3b/3x3
I0403 18:06:16.971124  6585 net.cpp:425] inception_3b/3x3 <- inception_3b/3x3_reduce
I0403 18:06:16.971148  6585 net.cpp:399] inception_3b/3x3 -> inception_3b/3x3
I0403 18:06:16.974220  6585 net.cpp:141] Setting up inception_3b/3x3
I0403 18:06:16.974253  6585 net.cpp:148] Top shape: 24 192 28 28 (3612672)
I0403 18:06:16.974275  6585 net.cpp:156] Memory required for data: 710493216
I0403 18:06:16.974299  6585 layer_factory.hpp:77] Creating layer inception_3b/relu_3x3
I0403 18:06:16.974319  6585 net.cpp:91] Creating Layer inception_3b/relu_3x3
I0403 18:06:16.974336  6585 net.cpp:425] inception_3b/relu_3x3 <- inception_3b/3x3
I0403 18:06:16.974359  6585 net.cpp:386] inception_3b/relu_3x3 -> inception_3b/3x3 (in-place)
I0403 18:06:16.974652  6585 net.cpp:141] Setting up inception_3b/relu_3x3
I0403 18:06:16.974681  6585 net.cpp:148] Top shape: 24 192 28 28 (3612672)
I0403 18:06:16.974697  6585 net.cpp:156] Memory required for data: 724943904
I0403 18:06:16.974714  6585 layer_factory.hpp:77] Creating layer inception_3b/5x5_reduce
I0403 18:06:16.974736  6585 net.cpp:91] Creating Layer inception_3b/5x5_reduce
I0403 18:06:16.974756  6585 net.cpp:425] inception_3b/5x5_reduce <- inception_3a/output_inception_3a/output_0_split_2
I0403 18:06:16.974781  6585 net.cpp:399] inception_3b/5x5_reduce -> inception_3b/5x5_reduce
I0403 18:06:16.975837  6585 net.cpp:141] Setting up inception_3b/5x5_reduce
I0403 18:06:16.975870  6585 net.cpp:148] Top shape: 24 32 28 28 (602112)
I0403 18:06:16.975888  6585 net.cpp:156] Memory required for data: 727352352
I0403 18:06:16.975908  6585 layer_factory.hpp:77] Creating layer inception_3b/relu_5x5_reduce
I0403 18:06:16.975926  6585 net.cpp:91] Creating Layer inception_3b/relu_5x5_reduce
I0403 18:06:16.975945  6585 net.cpp:425] inception_3b/relu_5x5_reduce <- inception_3b/5x5_reduce
I0403 18:06:16.975975  6585 net.cpp:386] inception_3b/relu_5x5_reduce -> inception_3b/5x5_reduce (in-place)
I0403 18:06:16.976186  6585 net.cpp:141] Setting up inception_3b/relu_5x5_reduce
I0403 18:06:16.976212  6585 net.cpp:148] Top shape: 24 32 28 28 (602112)
I0403 18:06:16.976227  6585 net.cpp:156] Memory required for data: 729760800
I0403 18:06:16.976246  6585 layer_factory.hpp:77] Creating layer inception_3b/5x5
I0403 18:06:16.976281  6585 net.cpp:91] Creating Layer inception_3b/5x5
I0403 18:06:16.976301  6585 net.cpp:425] inception_3b/5x5 <- inception_3b/5x5_reduce
I0403 18:06:16.976325  6585 net.cpp:399] inception_3b/5x5 -> inception_3b/5x5
I0403 18:06:16.978394  6585 net.cpp:141] Setting up inception_3b/5x5
I0403 18:06:16.978430  6585 net.cpp:148] Top shape: 24 96 28 28 (1806336)
I0403 18:06:16.978452  6585 net.cpp:156] Memory required for data: 736986144
I0403 18:06:16.978472  6585 layer_factory.hpp:77] Creating layer inception_3b/relu_5x5
I0403 18:06:16.978494  6585 net.cpp:91] Creating Layer inception_3b/relu_5x5
I0403 18:06:16.978514  6585 net.cpp:425] inception_3b/relu_5x5 <- inception_3b/5x5
I0403 18:06:16.978534  6585 net.cpp:386] inception_3b/relu_5x5 -> inception_3b/5x5 (in-place)
I0403 18:06:16.978739  6585 net.cpp:141] Setting up inception_3b/relu_5x5
I0403 18:06:16.978765  6585 net.cpp:148] Top shape: 24 96 28 28 (1806336)
I0403 18:06:16.978780  6585 net.cpp:156] Memory required for data: 744211488
I0403 18:06:16.978796  6585 layer_factory.hpp:77] Creating layer inception_3b/pool
I0403 18:06:16.978814  6585 net.cpp:91] Creating Layer inception_3b/pool
I0403 18:06:16.978832  6585 net.cpp:425] inception_3b/pool <- inception_3a/output_inception_3a/output_0_split_3
I0403 18:06:16.978850  6585 net.cpp:399] inception_3b/pool -> inception_3b/pool
I0403 18:06:16.978909  6585 net.cpp:141] Setting up inception_3b/pool
I0403 18:06:16.978932  6585 net.cpp:148] Top shape: 24 256 28 28 (4816896)
I0403 18:06:16.978948  6585 net.cpp:156] Memory required for data: 763479072
I0403 18:06:16.978965  6585 layer_factory.hpp:77] Creating layer inception_3b/pool_proj
I0403 18:06:16.978988  6585 net.cpp:91] Creating Layer inception_3b/pool_proj
I0403 18:06:16.979015  6585 net.cpp:425] inception_3b/pool_proj <- inception_3b/pool
I0403 18:06:16.979038  6585 net.cpp:399] inception_3b/pool_proj -> inception_3b/pool_proj
I0403 18:06:16.980164  6585 net.cpp:141] Setting up inception_3b/pool_proj
I0403 18:06:16.980195  6585 net.cpp:148] Top shape: 24 64 28 28 (1204224)
I0403 18:06:16.980212  6585 net.cpp:156] Memory required for data: 768295968
I0403 18:06:16.980304  6585 layer_factory.hpp:77] Creating layer inception_3b/relu_pool_proj
I0403 18:06:16.980432  6585 net.cpp:91] Creating Layer inception_3b/relu_pool_proj
I0403 18:06:16.980520  6585 net.cpp:425] inception_3b/relu_pool_proj <- inception_3b/pool_proj
I0403 18:06:16.980541  6585 net.cpp:386] inception_3b/relu_pool_proj -> inception_3b/pool_proj (in-place)
I0403 18:06:16.980958  6585 net.cpp:141] Setting up inception_3b/relu_pool_proj
I0403 18:06:16.980988  6585 net.cpp:148] Top shape: 24 64 28 28 (1204224)
I0403 18:06:16.981004  6585 net.cpp:156] Memory required for data: 773112864
I0403 18:06:16.981027  6585 layer_factory.hpp:77] Creating layer inception_3b/output
I0403 18:06:16.981046  6585 net.cpp:91] Creating Layer inception_3b/output
I0403 18:06:16.981062  6585 net.cpp:425] inception_3b/output <- inception_3b/1x1
I0403 18:06:16.981081  6585 net.cpp:425] inception_3b/output <- inception_3b/3x3
I0403 18:06:16.981099  6585 net.cpp:425] inception_3b/output <- inception_3b/5x5
I0403 18:06:16.981118  6585 net.cpp:425] inception_3b/output <- inception_3b/pool_proj
I0403 18:06:16.981142  6585 net.cpp:399] inception_3b/output -> inception_3b/output
I0403 18:06:16.981189  6585 net.cpp:141] Setting up inception_3b/output
I0403 18:06:16.981215  6585 net.cpp:148] Top shape: 24 480 28 28 (9031680)
I0403 18:06:16.981231  6585 net.cpp:156] Memory required for data: 809239584
I0403 18:06:16.981247  6585 layer_factory.hpp:77] Creating layer pool3/3x3_s2
I0403 18:06:16.981267  6585 net.cpp:91] Creating Layer pool3/3x3_s2
I0403 18:06:16.981297  6585 net.cpp:425] pool3/3x3_s2 <- inception_3b/output
I0403 18:06:16.981333  6585 net.cpp:399] pool3/3x3_s2 -> pool3/3x3_s2
I0403 18:06:16.981410  6585 net.cpp:141] Setting up pool3/3x3_s2
I0403 18:06:16.981436  6585 net.cpp:148] Top shape: 24 480 14 14 (2257920)
I0403 18:06:16.981452  6585 net.cpp:156] Memory required for data: 818271264
I0403 18:06:16.981478  6585 layer_factory.hpp:77] Creating layer pool3/3x3_s2_pool3/3x3_s2_0_split
I0403 18:06:16.981500  6585 net.cpp:91] Creating Layer pool3/3x3_s2_pool3/3x3_s2_0_split
I0403 18:06:16.981530  6585 net.cpp:425] pool3/3x3_s2_pool3/3x3_s2_0_split <- pool3/3x3_s2
I0403 18:06:16.981550  6585 net.cpp:399] pool3/3x3_s2_pool3/3x3_s2_0_split -> pool3/3x3_s2_pool3/3x3_s2_0_split_0
I0403 18:06:16.981572  6585 net.cpp:399] pool3/3x3_s2_pool3/3x3_s2_0_split -> pool3/3x3_s2_pool3/3x3_s2_0_split_1
I0403 18:06:16.981595  6585 net.cpp:399] pool3/3x3_s2_pool3/3x3_s2_0_split -> pool3/3x3_s2_pool3/3x3_s2_0_split_2
I0403 18:06:16.981621  6585 net.cpp:399] pool3/3x3_s2_pool3/3x3_s2_0_split -> pool3/3x3_s2_pool3/3x3_s2_0_split_3
I0403 18:06:16.981705  6585 net.cpp:141] Setting up pool3/3x3_s2_pool3/3x3_s2_0_split
I0403 18:06:16.981729  6585 net.cpp:148] Top shape: 24 480 14 14 (2257920)
I0403 18:06:16.981748  6585 net.cpp:148] Top shape: 24 480 14 14 (2257920)
I0403 18:06:16.981824  6585 net.cpp:148] Top shape: 24 480 14 14 (2257920)
I0403 18:06:16.981883  6585 net.cpp:148] Top shape: 24 480 14 14 (2257920)
I0403 18:06:16.981899  6585 net.cpp:156] Memory required for data: 854397984
I0403 18:06:16.981922  6585 layer_factory.hpp:77] Creating layer inception_4a/1x1
I0403 18:06:16.981945  6585 net.cpp:91] Creating Layer inception_4a/1x1
I0403 18:06:16.981966  6585 net.cpp:425] inception_4a/1x1 <- pool3/3x3_s2_pool3/3x3_s2_0_split_0
I0403 18:06:16.981993  6585 net.cpp:399] inception_4a/1x1 -> inception_4a/1x1
I0403 18:06:16.983664  6585 net.cpp:141] Setting up inception_4a/1x1
I0403 18:06:16.983695  6585 net.cpp:148] Top shape: 24 192 14 14 (903168)
I0403 18:06:16.983711  6585 net.cpp:156] Memory required for data: 858010656
I0403 18:06:16.983736  6585 layer_factory.hpp:77] Creating layer inception_4a/relu_1x1
I0403 18:06:16.983757  6585 net.cpp:91] Creating Layer inception_4a/relu_1x1
I0403 18:06:16.983775  6585 net.cpp:425] inception_4a/relu_1x1 <- inception_4a/1x1
I0403 18:06:16.983793  6585 net.cpp:386] inception_4a/relu_1x1 -> inception_4a/1x1 (in-place)
I0403 18:06:16.983984  6585 net.cpp:141] Setting up inception_4a/relu_1x1
I0403 18:06:16.984010  6585 net.cpp:148] Top shape: 24 192 14 14 (903168)
I0403 18:06:16.984026  6585 net.cpp:156] Memory required for data: 861623328
I0403 18:06:16.984042  6585 layer_factory.hpp:77] Creating layer inception_4a/3x3_reduce
I0403 18:06:16.984069  6585 net.cpp:91] Creating Layer inception_4a/3x3_reduce
I0403 18:06:16.984088  6585 net.cpp:425] inception_4a/3x3_reduce <- pool3/3x3_s2_pool3/3x3_s2_0_split_1
I0403 18:06:16.984109  6585 net.cpp:399] inception_4a/3x3_reduce -> inception_4a/3x3_reduce
I0403 18:06:16.985461  6585 net.cpp:141] Setting up inception_4a/3x3_reduce
I0403 18:06:16.985492  6585 net.cpp:148] Top shape: 24 96 14 14 (451584)
I0403 18:06:16.985510  6585 net.cpp:156] Memory required for data: 863429664
I0403 18:06:16.985538  6585 layer_factory.hpp:77] Creating layer inception_4a/relu_3x3_reduce
I0403 18:06:16.985561  6585 net.cpp:91] Creating Layer inception_4a/relu_3x3_reduce
I0403 18:06:16.985580  6585 net.cpp:425] inception_4a/relu_3x3_reduce <- inception_4a/3x3_reduce
I0403 18:06:16.985601  6585 net.cpp:386] inception_4a/relu_3x3_reduce -> inception_4a/3x3_reduce (in-place)
I0403 18:06:16.985786  6585 net.cpp:141] Setting up inception_4a/relu_3x3_reduce
I0403 18:06:16.985813  6585 net.cpp:148] Top shape: 24 96 14 14 (451584)
I0403 18:06:16.985828  6585 net.cpp:156] Memory required for data: 865236000
I0403 18:06:16.985844  6585 layer_factory.hpp:77] Creating layer inception_4a/3x3
I0403 18:06:16.985867  6585 net.cpp:91] Creating Layer inception_4a/3x3
I0403 18:06:16.985888  6585 net.cpp:425] inception_4a/3x3 <- inception_4a/3x3_reduce
I0403 18:06:16.985909  6585 net.cpp:399] inception_4a/3x3 -> inception_4a/3x3
I0403 18:06:16.988734  6585 net.cpp:141] Setting up inception_4a/3x3
I0403 18:06:16.988768  6585 net.cpp:148] Top shape: 24 208 14 14 (978432)
I0403 18:06:16.988787  6585 net.cpp:156] Memory required for data: 869149728
I0403 18:06:16.988808  6585 layer_factory.hpp:77] Creating layer inception_4a/relu_3x3
I0403 18:06:16.988827  6585 net.cpp:91] Creating Layer inception_4a/relu_3x3
I0403 18:06:16.988844  6585 net.cpp:425] inception_4a/relu_3x3 <- inception_4a/3x3
I0403 18:06:16.988862  6585 net.cpp:386] inception_4a/relu_3x3 -> inception_4a/3x3 (in-place)
I0403 18:06:16.989161  6585 net.cpp:141] Setting up inception_4a/relu_3x3
I0403 18:06:16.989193  6585 net.cpp:148] Top shape: 24 208 14 14 (978432)
I0403 18:06:16.989210  6585 net.cpp:156] Memory required for data: 873063456
I0403 18:06:16.989228  6585 layer_factory.hpp:77] Creating layer inception_4a/5x5_reduce
I0403 18:06:16.989249  6585 net.cpp:91] Creating Layer inception_4a/5x5_reduce
I0403 18:06:16.989267  6585 net.cpp:425] inception_4a/5x5_reduce <- pool3/3x3_s2_pool3/3x3_s2_0_split_2
I0403 18:06:16.989296  6585 net.cpp:399] inception_4a/5x5_reduce -> inception_4a/5x5_reduce
I0403 18:06:16.990381  6585 net.cpp:141] Setting up inception_4a/5x5_reduce
I0403 18:06:16.990414  6585 net.cpp:148] Top shape: 24 16 14 14 (75264)
I0403 18:06:16.990432  6585 net.cpp:156] Memory required for data: 873364512
I0403 18:06:16.990453  6585 layer_factory.hpp:77] Creating layer inception_4a/relu_5x5_reduce
I0403 18:06:16.990471  6585 net.cpp:91] Creating Layer inception_4a/relu_5x5_reduce
I0403 18:06:16.990489  6585 net.cpp:425] inception_4a/relu_5x5_reduce <- inception_4a/5x5_reduce
I0403 18:06:16.990507  6585 net.cpp:386] inception_4a/relu_5x5_reduce -> inception_4a/5x5_reduce (in-place)
I0403 18:06:16.990699  6585 net.cpp:141] Setting up inception_4a/relu_5x5_reduce
I0403 18:06:16.990726  6585 net.cpp:148] Top shape: 24 16 14 14 (75264)
I0403 18:06:16.990742  6585 net.cpp:156] Memory required for data: 873665568
I0403 18:06:16.990758  6585 layer_factory.hpp:77] Creating layer inception_4a/5x5
I0403 18:06:16.990782  6585 net.cpp:91] Creating Layer inception_4a/5x5
I0403 18:06:16.990800  6585 net.cpp:425] inception_4a/5x5 <- inception_4a/5x5_reduce
I0403 18:06:16.990823  6585 net.cpp:399] inception_4a/5x5 -> inception_4a/5x5
I0403 18:06:16.991976  6585 net.cpp:141] Setting up inception_4a/5x5
I0403 18:06:16.992007  6585 net.cpp:148] Top shape: 24 48 14 14 (225792)
I0403 18:06:16.992022  6585 net.cpp:156] Memory required for data: 874568736
I0403 18:06:16.992043  6585 layer_factory.hpp:77] Creating layer inception_4a/relu_5x5
I0403 18:06:16.992063  6585 net.cpp:91] Creating Layer inception_4a/relu_5x5
I0403 18:06:16.992079  6585 net.cpp:425] inception_4a/relu_5x5 <- inception_4a/5x5
I0403 18:06:16.992101  6585 net.cpp:386] inception_4a/relu_5x5 -> inception_4a/5x5 (in-place)
I0403 18:06:16.992303  6585 net.cpp:141] Setting up inception_4a/relu_5x5
I0403 18:06:16.992332  6585 net.cpp:148] Top shape: 24 48 14 14 (225792)
I0403 18:06:16.992348  6585 net.cpp:156] Memory required for data: 875471904
I0403 18:06:16.992364  6585 layer_factory.hpp:77] Creating layer inception_4a/pool
I0403 18:06:16.992386  6585 net.cpp:91] Creating Layer inception_4a/pool
I0403 18:06:16.992405  6585 net.cpp:425] inception_4a/pool <- pool3/3x3_s2_pool3/3x3_s2_0_split_3
I0403 18:06:16.992425  6585 net.cpp:399] inception_4a/pool -> inception_4a/pool
I0403 18:06:16.992491  6585 net.cpp:141] Setting up inception_4a/pool
I0403 18:06:16.992519  6585 net.cpp:148] Top shape: 24 480 14 14 (2257920)
I0403 18:06:16.992535  6585 net.cpp:156] Memory required for data: 884503584
I0403 18:06:16.992552  6585 layer_factory.hpp:77] Creating layer inception_4a/pool_proj
I0403 18:06:16.992575  6585 net.cpp:91] Creating Layer inception_4a/pool_proj
I0403 18:06:16.992595  6585 net.cpp:425] inception_4a/pool_proj <- inception_4a/pool
I0403 18:06:16.992619  6585 net.cpp:399] inception_4a/pool_proj -> inception_4a/pool_proj
I0403 18:06:16.993854  6585 net.cpp:141] Setting up inception_4a/pool_proj
I0403 18:06:16.993885  6585 net.cpp:148] Top shape: 24 64 14 14 (301056)
I0403 18:06:16.993916  6585 net.cpp:156] Memory required for data: 885707808
I0403 18:06:16.993937  6585 layer_factory.hpp:77] Creating layer inception_4a/relu_pool_proj
I0403 18:06:16.993959  6585 net.cpp:91] Creating Layer inception_4a/relu_pool_proj
I0403 18:06:16.993978  6585 net.cpp:425] inception_4a/relu_pool_proj <- inception_4a/pool_proj
I0403 18:06:16.993996  6585 net.cpp:386] inception_4a/relu_pool_proj -> inception_4a/pool_proj (in-place)
I0403 18:06:16.994297  6585 net.cpp:141] Setting up inception_4a/relu_pool_proj
I0403 18:06:16.994325  6585 net.cpp:148] Top shape: 24 64 14 14 (301056)
I0403 18:06:16.994343  6585 net.cpp:156] Memory required for data: 886912032
I0403 18:06:16.994359  6585 layer_factory.hpp:77] Creating layer inception_4a/output
I0403 18:06:16.994376  6585 net.cpp:91] Creating Layer inception_4a/output
I0403 18:06:16.994393  6585 net.cpp:425] inception_4a/output <- inception_4a/1x1
I0403 18:06:16.994411  6585 net.cpp:425] inception_4a/output <- inception_4a/3x3
I0403 18:06:16.994428  6585 net.cpp:425] inception_4a/output <- inception_4a/5x5
I0403 18:06:16.994446  6585 net.cpp:425] inception_4a/output <- inception_4a/pool_proj
I0403 18:06:16.994465  6585 net.cpp:399] inception_4a/output -> inception_4a/output
I0403 18:06:16.994516  6585 net.cpp:141] Setting up inception_4a/output
I0403 18:06:16.994541  6585 net.cpp:148] Top shape: 24 512 14 14 (2408448)
I0403 18:06:16.994556  6585 net.cpp:156] Memory required for data: 896545824
I0403 18:06:16.994572  6585 layer_factory.hpp:77] Creating layer inception_4a/output_inception_4a/output_0_split
I0403 18:06:16.994591  6585 net.cpp:91] Creating Layer inception_4a/output_inception_4a/output_0_split
I0403 18:06:16.994607  6585 net.cpp:425] inception_4a/output_inception_4a/output_0_split <- inception_4a/output
I0403 18:06:16.994628  6585 net.cpp:399] inception_4a/output_inception_4a/output_0_split -> inception_4a/output_inception_4a/output_0_split_0
I0403 18:06:16.994652  6585 net.cpp:399] inception_4a/output_inception_4a/output_0_split -> inception_4a/output_inception_4a/output_0_split_1
I0403 18:06:16.994673  6585 net.cpp:399] inception_4a/output_inception_4a/output_0_split -> inception_4a/output_inception_4a/output_0_split_2
I0403 18:06:16.994696  6585 net.cpp:399] inception_4a/output_inception_4a/output_0_split -> inception_4a/output_inception_4a/output_0_split_3
I0403 18:06:16.994719  6585 net.cpp:399] inception_4a/output_inception_4a/output_0_split -> inception_4a/output_inception_4a/output_0_split_4
I0403 18:06:16.994817  6585 net.cpp:141] Setting up inception_4a/output_inception_4a/output_0_split
I0403 18:06:16.994844  6585 net.cpp:148] Top shape: 24 512 14 14 (2408448)
I0403 18:06:16.994863  6585 net.cpp:148] Top shape: 24 512 14 14 (2408448)
I0403 18:06:16.994879  6585 net.cpp:148] Top shape: 24 512 14 14 (2408448)
I0403 18:06:16.994896  6585 net.cpp:148] Top shape: 24 512 14 14 (2408448)
I0403 18:06:16.994913  6585 net.cpp:148] Top shape: 24 512 14 14 (2408448)
I0403 18:06:16.994927  6585 net.cpp:156] Memory required for data: 944714784
I0403 18:06:16.994943  6585 layer_factory.hpp:77] Creating layer loss1/ave_pool
I0403 18:06:16.994961  6585 net.cpp:91] Creating Layer loss1/ave_pool
I0403 18:06:16.994978  6585 net.cpp:425] loss1/ave_pool <- inception_4a/output_inception_4a/output_0_split_0
I0403 18:06:16.995002  6585 net.cpp:399] loss1/ave_pool -> loss1/ave_pool
I0403 18:06:16.995226  6585 net.cpp:141] Setting up loss1/ave_pool
I0403 18:06:16.995254  6585 net.cpp:148] Top shape: 24 512 4 4 (196608)
I0403 18:06:16.995270  6585 net.cpp:156] Memory required for data: 945501216
I0403 18:06:16.995290  6585 layer_factory.hpp:77] Creating layer loss1/conv
I0403 18:06:16.995316  6585 net.cpp:91] Creating Layer loss1/conv
I0403 18:06:16.995334  6585 net.cpp:425] loss1/conv <- loss1/ave_pool
I0403 18:06:16.995357  6585 net.cpp:399] loss1/conv -> loss1/conv
I0403 18:06:16.996850  6585 net.cpp:141] Setting up loss1/conv
I0403 18:06:16.996882  6585 net.cpp:148] Top shape: 24 128 4 4 (49152)
I0403 18:06:16.996915  6585 net.cpp:156] Memory required for data: 945697824
I0403 18:06:16.996937  6585 layer_factory.hpp:77] Creating layer loss1/relu_conv
I0403 18:06:16.996956  6585 net.cpp:91] Creating Layer loss1/relu_conv
I0403 18:06:16.996973  6585 net.cpp:425] loss1/relu_conv <- loss1/conv
I0403 18:06:16.996992  6585 net.cpp:386] loss1/relu_conv -> loss1/conv (in-place)
I0403 18:06:16.997288  6585 net.cpp:141] Setting up loss1/relu_conv
I0403 18:06:16.997319  6585 net.cpp:148] Top shape: 24 128 4 4 (49152)
I0403 18:06:16.997336  6585 net.cpp:156] Memory required for data: 945894432
I0403 18:06:16.997352  6585 layer_factory.hpp:77] Creating layer loss1/fc
I0403 18:06:16.997377  6585 net.cpp:91] Creating Layer loss1/fc
I0403 18:06:16.997397  6585 net.cpp:425] loss1/fc <- loss1/conv
I0403 18:06:16.997426  6585 net.cpp:399] loss1/fc -> loss1/fc
I0403 18:06:17.016304  6585 net.cpp:141] Setting up loss1/fc
I0403 18:06:17.016351  6585 net.cpp:148] Top shape: 24 1024 (24576)
I0403 18:06:17.016369  6585 net.cpp:156] Memory required for data: 945992736
I0403 18:06:17.016391  6585 layer_factory.hpp:77] Creating layer loss1/relu_fc
I0403 18:06:17.016415  6585 net.cpp:91] Creating Layer loss1/relu_fc
I0403 18:06:17.016433  6585 net.cpp:425] loss1/relu_fc <- loss1/fc
I0403 18:06:17.016453  6585 net.cpp:386] loss1/relu_fc -> loss1/fc (in-place)
I0403 18:06:17.016669  6585 net.cpp:141] Setting up loss1/relu_fc
I0403 18:06:17.016697  6585 net.cpp:148] Top shape: 24 1024 (24576)
I0403 18:06:17.016713  6585 net.cpp:156] Memory required for data: 946091040
I0403 18:06:17.016731  6585 layer_factory.hpp:77] Creating layer loss1/drop_fc
I0403 18:06:17.016763  6585 net.cpp:91] Creating Layer loss1/drop_fc
I0403 18:06:17.016782  6585 net.cpp:425] loss1/drop_fc <- loss1/fc
I0403 18:06:17.016801  6585 net.cpp:386] loss1/drop_fc -> loss1/fc (in-place)
I0403 18:06:17.016857  6585 net.cpp:141] Setting up loss1/drop_fc
I0403 18:06:17.016883  6585 net.cpp:148] Top shape: 24 1024 (24576)
I0403 18:06:17.016901  6585 net.cpp:156] Memory required for data: 946189344
I0403 18:06:17.016916  6585 layer_factory.hpp:77] Creating layer loss1/classifier_plantvillage
I0403 18:06:17.016937  6585 net.cpp:91] Creating Layer loss1/classifier_plantvillage
I0403 18:06:17.016959  6585 net.cpp:425] loss1/classifier_plantvillage <- loss1/fc
I0403 18:06:17.016978  6585 net.cpp:399] loss1/classifier_plantvillage -> loss1/classifier_plantvillage
I0403 18:06:17.017964  6585 net.cpp:141] Setting up loss1/classifier_plantvillage
I0403 18:06:17.017999  6585 net.cpp:148] Top shape: 24 38 (912)
I0403 18:06:17.018019  6585 net.cpp:156] Memory required for data: 946192992
I0403 18:06:17.018041  6585 layer_factory.hpp:77] Creating layer loss1/classifier_plantvillage_loss1/classifier_plantvillage_0_split
I0403 18:06:17.018061  6585 net.cpp:91] Creating Layer loss1/classifier_plantvillage_loss1/classifier_plantvillage_0_split
I0403 18:06:17.018080  6585 net.cpp:425] loss1/classifier_plantvillage_loss1/classifier_plantvillage_0_split <- loss1/classifier_plantvillage
I0403 18:06:17.018100  6585 net.cpp:399] loss1/classifier_plantvillage_loss1/classifier_plantvillage_0_split -> loss1/classifier_plantvillage_loss1/classifier_plantvillage_0_split_0
I0403 18:06:17.018124  6585 net.cpp:399] loss1/classifier_plantvillage_loss1/classifier_plantvillage_0_split -> loss1/classifier_plantvillage_loss1/classifier_plantvillage_0_split_1
I0403 18:06:17.018148  6585 net.cpp:399] loss1/classifier_plantvillage_loss1/classifier_plantvillage_0_split -> loss1/classifier_plantvillage_loss1/classifier_plantvillage_0_split_2
I0403 18:06:17.018223  6585 net.cpp:141] Setting up loss1/classifier_plantvillage_loss1/classifier_plantvillage_0_split
I0403 18:06:17.018249  6585 net.cpp:148] Top shape: 24 38 (912)
I0403 18:06:17.018267  6585 net.cpp:148] Top shape: 24 38 (912)
I0403 18:06:17.018290  6585 net.cpp:148] Top shape: 24 38 (912)
I0403 18:06:17.018306  6585 net.cpp:156] Memory required for data: 946203936
I0403 18:06:17.018321  6585 layer_factory.hpp:77] Creating layer inception_4b/1x1
I0403 18:06:17.018344  6585 net.cpp:91] Creating Layer inception_4b/1x1
I0403 18:06:17.018383  6585 net.cpp:425] inception_4b/1x1 <- inception_4a/output_inception_4a/output_0_split_1
I0403 18:06:17.018407  6585 net.cpp:399] inception_4b/1x1 -> inception_4b/1x1
I0403 18:06:17.020184  6585 net.cpp:141] Setting up inception_4b/1x1
I0403 18:06:17.020217  6585 net.cpp:148] Top shape: 24 160 14 14 (752640)
I0403 18:06:17.020237  6585 net.cpp:156] Memory required for data: 949214496
I0403 18:06:17.020258  6585 layer_factory.hpp:77] Creating layer inception_4b/relu_1x1
I0403 18:06:17.020282  6585 net.cpp:91] Creating Layer inception_4b/relu_1x1
I0403 18:06:17.020300  6585 net.cpp:425] inception_4b/relu_1x1 <- inception_4b/1x1
I0403 18:06:17.020319  6585 net.cpp:386] inception_4b/relu_1x1 -> inception_4b/1x1 (in-place)
I0403 18:06:17.020515  6585 net.cpp:141] Setting up inception_4b/relu_1x1
I0403 18:06:17.020544  6585 net.cpp:148] Top shape: 24 160 14 14 (752640)
I0403 18:06:17.020560  6585 net.cpp:156] Memory required for data: 952225056
I0403 18:06:17.020576  6585 layer_factory.hpp:77] Creating layer inception_4b/3x3_reduce
I0403 18:06:17.020601  6585 net.cpp:91] Creating Layer inception_4b/3x3_reduce
I0403 18:06:17.020620  6585 net.cpp:425] inception_4b/3x3_reduce <- inception_4a/output_inception_4a/output_0_split_2
I0403 18:06:17.020644  6585 net.cpp:399] inception_4b/3x3_reduce -> inception_4b/3x3_reduce
I0403 18:06:17.022089  6585 net.cpp:141] Setting up inception_4b/3x3_reduce
I0403 18:06:17.022125  6585 net.cpp:148] Top shape: 24 112 14 14 (526848)
I0403 18:06:17.022142  6585 net.cpp:156] Memory required for data: 954332448
I0403 18:06:17.022163  6585 layer_factory.hpp:77] Creating layer inception_4b/relu_3x3_reduce
I0403 18:06:17.022182  6585 net.cpp:91] Creating Layer inception_4b/relu_3x3_reduce
I0403 18:06:17.022200  6585 net.cpp:425] inception_4b/relu_3x3_reduce <- inception_4b/3x3_reduce
I0403 18:06:17.022223  6585 net.cpp:386] inception_4b/relu_3x3_reduce -> inception_4b/3x3_reduce (in-place)
I0403 18:06:17.022533  6585 net.cpp:141] Setting up inception_4b/relu_3x3_reduce
I0403 18:06:17.022564  6585 net.cpp:148] Top shape: 24 112 14 14 (526848)
I0403 18:06:17.022583  6585 net.cpp:156] Memory required for data: 956439840
I0403 18:06:17.022599  6585 layer_factory.hpp:77] Creating layer inception_4b/3x3
I0403 18:06:17.022624  6585 net.cpp:91] Creating Layer inception_4b/3x3
I0403 18:06:17.022644  6585 net.cpp:425] inception_4b/3x3 <- inception_4b/3x3_reduce
I0403 18:06:17.022670  6585 net.cpp:399] inception_4b/3x3 -> inception_4b/3x3
I0403 18:06:17.025799  6585 net.cpp:141] Setting up inception_4b/3x3
I0403 18:06:17.025831  6585 net.cpp:148] Top shape: 24 224 14 14 (1053696)
I0403 18:06:17.025849  6585 net.cpp:156] Memory required for data: 960654624
I0403 18:06:17.025869  6585 layer_factory.hpp:77] Creating layer inception_4b/relu_3x3
I0403 18:06:17.025892  6585 net.cpp:91] Creating Layer inception_4b/relu_3x3
I0403 18:06:17.025912  6585 net.cpp:425] inception_4b/relu_3x3 <- inception_4b/3x3
I0403 18:06:17.025931  6585 net.cpp:386] inception_4b/relu_3x3 -> inception_4b/3x3 (in-place)
I0403 18:06:17.026126  6585 net.cpp:141] Setting up inception_4b/relu_3x3
I0403 18:06:17.026155  6585 net.cpp:148] Top shape: 24 224 14 14 (1053696)
I0403 18:06:17.026173  6585 net.cpp:156] Memory required for data: 964869408
I0403 18:06:17.026190  6585 layer_factory.hpp:77] Creating layer inception_4b/5x5_reduce
I0403 18:06:17.026213  6585 net.cpp:91] Creating Layer inception_4b/5x5_reduce
I0403 18:06:17.026232  6585 net.cpp:425] inception_4b/5x5_reduce <- inception_4a/output_inception_4a/output_0_split_3
I0403 18:06:17.026252  6585 net.cpp:399] inception_4b/5x5_reduce -> inception_4b/5x5_reduce
I0403 18:06:17.027400  6585 net.cpp:141] Setting up inception_4b/5x5_reduce
I0403 18:06:17.027433  6585 net.cpp:148] Top shape: 24 24 14 14 (112896)
I0403 18:06:17.027451  6585 net.cpp:156] Memory required for data: 965320992
I0403 18:06:17.027473  6585 layer_factory.hpp:77] Creating layer inception_4b/relu_5x5_reduce
I0403 18:06:17.027495  6585 net.cpp:91] Creating Layer inception_4b/relu_5x5_reduce
I0403 18:06:17.027529  6585 net.cpp:425] inception_4b/relu_5x5_reduce <- inception_4b/5x5_reduce
I0403 18:06:17.027552  6585 net.cpp:386] inception_4b/relu_5x5_reduce -> inception_4b/5x5_reduce (in-place)
I0403 18:06:17.027746  6585 net.cpp:141] Setting up inception_4b/relu_5x5_reduce
I0403 18:06:17.027773  6585 net.cpp:148] Top shape: 24 24 14 14 (112896)
I0403 18:06:17.027788  6585 net.cpp:156] Memory required for data: 965772576
I0403 18:06:17.027806  6585 layer_factory.hpp:77] Creating layer inception_4b/5x5
I0403 18:06:17.027829  6585 net.cpp:91] Creating Layer inception_4b/5x5
I0403 18:06:17.027848  6585 net.cpp:425] inception_4b/5x5 <- inception_4b/5x5_reduce
I0403 18:06:17.027871  6585 net.cpp:399] inception_4b/5x5 -> inception_4b/5x5
I0403 18:06:17.029170  6585 net.cpp:141] Setting up inception_4b/5x5
I0403 18:06:17.029204  6585 net.cpp:148] Top shape: 24 64 14 14 (301056)
I0403 18:06:17.029223  6585 net.cpp:156] Memory required for data: 966976800
I0403 18:06:17.029244  6585 layer_factory.hpp:77] Creating layer inception_4b/relu_5x5
I0403 18:06:17.029264  6585 net.cpp:91] Creating Layer inception_4b/relu_5x5
I0403 18:06:17.029289  6585 net.cpp:425] inception_4b/relu_5x5 <- inception_4b/5x5
I0403 18:06:17.029309  6585 net.cpp:386] inception_4b/relu_5x5 -> inception_4b/5x5 (in-place)
I0403 18:06:17.029610  6585 net.cpp:141] Setting up inception_4b/relu_5x5
I0403 18:06:17.029642  6585 net.cpp:148] Top shape: 24 64 14 14 (301056)
I0403 18:06:17.029660  6585 net.cpp:156] Memory required for data: 968181024
I0403 18:06:17.029677  6585 layer_factory.hpp:77] Creating layer inception_4b/pool
I0403 18:06:17.029698  6585 net.cpp:91] Creating Layer inception_4b/pool
I0403 18:06:17.029716  6585 net.cpp:425] inception_4b/pool <- inception_4a/output_inception_4a/output_0_split_4
I0403 18:06:17.029737  6585 net.cpp:399] inception_4b/pool -> inception_4b/pool
I0403 18:06:17.029808  6585 net.cpp:141] Setting up inception_4b/pool
I0403 18:06:17.029834  6585 net.cpp:148] Top shape: 24 512 14 14 (2408448)
I0403 18:06:17.029850  6585 net.cpp:156] Memory required for data: 977814816
I0403 18:06:17.029866  6585 layer_factory.hpp:77] Creating layer inception_4b/pool_proj
I0403 18:06:17.029891  6585 net.cpp:91] Creating Layer inception_4b/pool_proj
I0403 18:06:17.029909  6585 net.cpp:425] inception_4b/pool_proj <- inception_4b/pool
I0403 18:06:17.029932  6585 net.cpp:399] inception_4b/pool_proj -> inception_4b/pool_proj
I0403 18:06:17.031205  6585 net.cpp:141] Setting up inception_4b/pool_proj
I0403 18:06:17.031239  6585 net.cpp:148] Top shape: 24 64 14 14 (301056)
I0403 18:06:17.031256  6585 net.cpp:156] Memory required for data: 979019040
I0403 18:06:17.031280  6585 layer_factory.hpp:77] Creating layer inception_4b/relu_pool_proj
I0403 18:06:17.031302  6585 net.cpp:91] Creating Layer inception_4b/relu_pool_proj
I0403 18:06:17.031321  6585 net.cpp:425] inception_4b/relu_pool_proj <- inception_4b/pool_proj
I0403 18:06:17.031344  6585 net.cpp:386] inception_4b/relu_pool_proj -> inception_4b/pool_proj (in-place)
I0403 18:06:17.031538  6585 net.cpp:141] Setting up inception_4b/relu_pool_proj
I0403 18:06:17.031568  6585 net.cpp:148] Top shape: 24 64 14 14 (301056)
I0403 18:06:17.031584  6585 net.cpp:156] Memory required for data: 980223264
I0403 18:06:17.031599  6585 layer_factory.hpp:77] Creating layer inception_4b/output
I0403 18:06:17.031617  6585 net.cpp:91] Creating Layer inception_4b/output
I0403 18:06:17.031635  6585 net.cpp:425] inception_4b/output <- inception_4b/1x1
I0403 18:06:17.031654  6585 net.cpp:425] inception_4b/output <- inception_4b/3x3
I0403 18:06:17.031672  6585 net.cpp:425] inception_4b/output <- inception_4b/5x5
I0403 18:06:17.031690  6585 net.cpp:425] inception_4b/output <- inception_4b/pool_proj
I0403 18:06:17.031711  6585 net.cpp:399] inception_4b/output -> inception_4b/output
I0403 18:06:17.031760  6585 net.cpp:141] Setting up inception_4b/output
I0403 18:06:17.031790  6585 net.cpp:148] Top shape: 24 512 14 14 (2408448)
I0403 18:06:17.031806  6585 net.cpp:156] Memory required for data: 989857056
I0403 18:06:17.031837  6585 layer_factory.hpp:77] Creating layer inception_4b/output_inception_4b/output_0_split
I0403 18:06:17.031857  6585 net.cpp:91] Creating Layer inception_4b/output_inception_4b/output_0_split
I0403 18:06:17.031873  6585 net.cpp:425] inception_4b/output_inception_4b/output_0_split <- inception_4b/output
I0403 18:06:17.031894  6585 net.cpp:399] inception_4b/output_inception_4b/output_0_split -> inception_4b/output_inception_4b/output_0_split_0
I0403 18:06:17.031916  6585 net.cpp:399] inception_4b/output_inception_4b/output_0_split -> inception_4b/output_inception_4b/output_0_split_1
I0403 18:06:17.031939  6585 net.cpp:399] inception_4b/output_inception_4b/output_0_split -> inception_4b/output_inception_4b/output_0_split_2
I0403 18:06:17.031960  6585 net.cpp:399] inception_4b/output_inception_4b/output_0_split -> inception_4b/output_inception_4b/output_0_split_3
I0403 18:06:17.032047  6585 net.cpp:141] Setting up inception_4b/output_inception_4b/output_0_split
I0403 18:06:17.032073  6585 net.cpp:148] Top shape: 24 512 14 14 (2408448)
I0403 18:06:17.032094  6585 net.cpp:148] Top shape: 24 512 14 14 (2408448)
I0403 18:06:17.032110  6585 net.cpp:148] Top shape: 24 512 14 14 (2408448)
I0403 18:06:17.032127  6585 net.cpp:148] Top shape: 24 512 14 14 (2408448)
I0403 18:06:17.032141  6585 net.cpp:156] Memory required for data: 1028392224
I0403 18:06:17.032157  6585 layer_factory.hpp:77] Creating layer inception_4c/1x1
I0403 18:06:17.032178  6585 net.cpp:91] Creating Layer inception_4c/1x1
I0403 18:06:17.032196  6585 net.cpp:425] inception_4c/1x1 <- inception_4b/output_inception_4b/output_0_split_0
I0403 18:06:17.032219  6585 net.cpp:399] inception_4c/1x1 -> inception_4c/1x1
I0403 18:06:17.033776  6585 net.cpp:141] Setting up inception_4c/1x1
I0403 18:06:17.033809  6585 net.cpp:148] Top shape: 24 128 14 14 (602112)
I0403 18:06:17.033826  6585 net.cpp:156] Memory required for data: 1030800672
I0403 18:06:17.033848  6585 layer_factory.hpp:77] Creating layer inception_4c/relu_1x1
I0403 18:06:17.033870  6585 net.cpp:91] Creating Layer inception_4c/relu_1x1
I0403 18:06:17.033890  6585 net.cpp:425] inception_4c/relu_1x1 <- inception_4c/1x1
I0403 18:06:17.033910  6585 net.cpp:386] inception_4c/relu_1x1 -> inception_4c/1x1 (in-place)
I0403 18:06:17.034099  6585 net.cpp:141] Setting up inception_4c/relu_1x1
I0403 18:06:17.034128  6585 net.cpp:148] Top shape: 24 128 14 14 (602112)
I0403 18:06:17.034143  6585 net.cpp:156] Memory required for data: 1033209120
I0403 18:06:17.034160  6585 layer_factory.hpp:77] Creating layer inception_4c/3x3_reduce
I0403 18:06:17.034186  6585 net.cpp:91] Creating Layer inception_4c/3x3_reduce
I0403 18:06:17.034205  6585 net.cpp:425] inception_4c/3x3_reduce <- inception_4b/output_inception_4b/output_0_split_1
I0403 18:06:17.034226  6585 net.cpp:399] inception_4c/3x3_reduce -> inception_4c/3x3_reduce
I0403 18:06:17.036288  6585 net.cpp:141] Setting up inception_4c/3x3_reduce
I0403 18:06:17.036322  6585 net.cpp:148] Top shape: 24 128 14 14 (602112)
I0403 18:06:17.036340  6585 net.cpp:156] Memory required for data: 1035617568
I0403 18:06:17.036362  6585 layer_factory.hpp:77] Creating layer inception_4c/relu_3x3_reduce
I0403 18:06:17.036383  6585 net.cpp:91] Creating Layer inception_4c/relu_3x3_reduce
I0403 18:06:17.036402  6585 net.cpp:425] inception_4c/relu_3x3_reduce <- inception_4c/3x3_reduce
I0403 18:06:17.036422  6585 net.cpp:386] inception_4c/relu_3x3_reduce -> inception_4c/3x3_reduce (in-place)
I0403 18:06:17.036733  6585 net.cpp:141] Setting up inception_4c/relu_3x3_reduce
I0403 18:06:17.036763  6585 net.cpp:148] Top shape: 24 128 14 14 (602112)
I0403 18:06:17.036780  6585 net.cpp:156] Memory required for data: 1038026016
I0403 18:06:17.036798  6585 layer_factory.hpp:77] Creating layer inception_4c/3x3
I0403 18:06:17.036825  6585 net.cpp:91] Creating Layer inception_4c/3x3
I0403 18:06:17.036845  6585 net.cpp:425] inception_4c/3x3 <- inception_4c/3x3_reduce
I0403 18:06:17.036866  6585 net.cpp:399] inception_4c/3x3 -> inception_4c/3x3
I0403 18:06:17.040663  6585 net.cpp:141] Setting up inception_4c/3x3
I0403 18:06:17.040711  6585 net.cpp:148] Top shape: 24 256 14 14 (1204224)
I0403 18:06:17.040730  6585 net.cpp:156] Memory required for data: 1042842912
I0403 18:06:17.040766  6585 layer_factory.hpp:77] Creating layer inception_4c/relu_3x3
I0403 18:06:17.040786  6585 net.cpp:91] Creating Layer inception_4c/relu_3x3
I0403 18:06:17.040805  6585 net.cpp:425] inception_4c/relu_3x3 <- inception_4c/3x3
I0403 18:06:17.040827  6585 net.cpp:386] inception_4c/relu_3x3 -> inception_4c/3x3 (in-place)
I0403 18:06:17.041021  6585 net.cpp:141] Setting up inception_4c/relu_3x3
I0403 18:06:17.041052  6585 net.cpp:148] Top shape: 24 256 14 14 (1204224)
I0403 18:06:17.041069  6585 net.cpp:156] Memory required for data: 1047659808
I0403 18:06:17.041085  6585 layer_factory.hpp:77] Creating layer inception_4c/5x5_reduce
I0403 18:06:17.041111  6585 net.cpp:91] Creating Layer inception_4c/5x5_reduce
I0403 18:06:17.041131  6585 net.cpp:425] inception_4c/5x5_reduce <- inception_4b/output_inception_4b/output_0_split_2
I0403 18:06:17.041152  6585 net.cpp:399] inception_4c/5x5_reduce -> inception_4c/5x5_reduce
I0403 18:06:17.042322  6585 net.cpp:141] Setting up inception_4c/5x5_reduce
I0403 18:06:17.042356  6585 net.cpp:148] Top shape: 24 24 14 14 (112896)
I0403 18:06:17.042374  6585 net.cpp:156] Memory required for data: 1048111392
I0403 18:06:17.042397  6585 layer_factory.hpp:77] Creating layer inception_4c/relu_5x5_reduce
I0403 18:06:17.042417  6585 net.cpp:91] Creating Layer inception_4c/relu_5x5_reduce
I0403 18:06:17.042433  6585 net.cpp:425] inception_4c/relu_5x5_reduce <- inception_4c/5x5_reduce
I0403 18:06:17.042455  6585 net.cpp:386] inception_4c/relu_5x5_reduce -> inception_4c/5x5_reduce (in-place)
I0403 18:06:17.042654  6585 net.cpp:141] Setting up inception_4c/relu_5x5_reduce
I0403 18:06:17.042681  6585 net.cpp:148] Top shape: 24 24 14 14 (112896)
I0403 18:06:17.042698  6585 net.cpp:156] Memory required for data: 1048562976
I0403 18:06:17.042716  6585 layer_factory.hpp:77] Creating layer inception_4c/5x5
I0403 18:06:17.042740  6585 net.cpp:91] Creating Layer inception_4c/5x5
I0403 18:06:17.042762  6585 net.cpp:425] inception_4c/5x5 <- inception_4c/5x5_reduce
I0403 18:06:17.042785  6585 net.cpp:399] inception_4c/5x5 -> inception_4c/5x5
I0403 18:06:17.044109  6585 net.cpp:141] Setting up inception_4c/5x5
I0403 18:06:17.044140  6585 net.cpp:148] Top shape: 24 64 14 14 (301056)
I0403 18:06:17.044157  6585 net.cpp:156] Memory required for data: 1049767200
I0403 18:06:17.044178  6585 layer_factory.hpp:77] Creating layer inception_4c/relu_5x5
I0403 18:06:17.044199  6585 net.cpp:91] Creating Layer inception_4c/relu_5x5
I0403 18:06:17.044219  6585 net.cpp:425] inception_4c/relu_5x5 <- inception_4c/5x5
I0403 18:06:17.044239  6585 net.cpp:386] inception_4c/relu_5x5 -> inception_4c/5x5 (in-place)
I0403 18:06:17.044553  6585 net.cpp:141] Setting up inception_4c/relu_5x5
I0403 18:06:17.044581  6585 net.cpp:148] Top shape: 24 64 14 14 (301056)
I0403 18:06:17.044596  6585 net.cpp:156] Memory required for data: 1050971424
I0403 18:06:17.044612  6585 layer_factory.hpp:77] Creating layer inception_4c/pool
I0403 18:06:17.044631  6585 net.cpp:91] Creating Layer inception_4c/pool
I0403 18:06:17.044656  6585 net.cpp:425] inception_4c/pool <- inception_4b/output_inception_4b/output_0_split_3
I0403 18:06:17.044677  6585 net.cpp:399] inception_4c/pool -> inception_4c/pool
I0403 18:06:17.044749  6585 net.cpp:141] Setting up inception_4c/pool
I0403 18:06:17.044775  6585 net.cpp:148] Top shape: 24 512 14 14 (2408448)
I0403 18:06:17.044790  6585 net.cpp:156] Memory required for data: 1060605216
I0403 18:06:17.044806  6585 layer_factory.hpp:77] Creating layer inception_4c/pool_proj
I0403 18:06:17.044831  6585 net.cpp:91] Creating Layer inception_4c/pool_proj
I0403 18:06:17.044849  6585 net.cpp:425] inception_4c/pool_proj <- inception_4c/pool
I0403 18:06:17.044872  6585 net.cpp:399] inception_4c/pool_proj -> inception_4c/pool_proj
I0403 18:06:17.046165  6585 net.cpp:141] Setting up inception_4c/pool_proj
I0403 18:06:17.046200  6585 net.cpp:148] Top shape: 24 64 14 14 (301056)
I0403 18:06:17.046233  6585 net.cpp:156] Memory required for data: 1061809440
I0403 18:06:17.046254  6585 layer_factory.hpp:77] Creating layer inception_4c/relu_pool_proj
I0403 18:06:17.046278  6585 net.cpp:91] Creating Layer inception_4c/relu_pool_proj
I0403 18:06:17.046298  6585 net.cpp:425] inception_4c/relu_pool_proj <- inception_4c/pool_proj
I0403 18:06:17.046321  6585 net.cpp:386] inception_4c/relu_pool_proj -> inception_4c/pool_proj (in-place)
I0403 18:06:17.046517  6585 net.cpp:141] Setting up inception_4c/relu_pool_proj
I0403 18:06:17.046543  6585 net.cpp:148] Top shape: 24 64 14 14 (301056)
I0403 18:06:17.046560  6585 net.cpp:156] Memory required for data: 1063013664
I0403 18:06:17.046576  6585 layer_factory.hpp:77] Creating layer inception_4c/output
I0403 18:06:17.046593  6585 net.cpp:91] Creating Layer inception_4c/output
I0403 18:06:17.046610  6585 net.cpp:425] inception_4c/output <- inception_4c/1x1
I0403 18:06:17.046628  6585 net.cpp:425] inception_4c/output <- inception_4c/3x3
I0403 18:06:17.046644  6585 net.cpp:425] inception_4c/output <- inception_4c/5x5
I0403 18:06:17.046663  6585 net.cpp:425] inception_4c/output <- inception_4c/pool_proj
I0403 18:06:17.046684  6585 net.cpp:399] inception_4c/output -> inception_4c/output
I0403 18:06:17.046733  6585 net.cpp:141] Setting up inception_4c/output
I0403 18:06:17.046761  6585 net.cpp:148] Top shape: 24 512 14 14 (2408448)
I0403 18:06:17.046777  6585 net.cpp:156] Memory required for data: 1072647456
I0403 18:06:17.046792  6585 layer_factory.hpp:77] Creating layer inception_4c/output_inception_4c/output_0_split
I0403 18:06:17.046810  6585 net.cpp:91] Creating Layer inception_4c/output_inception_4c/output_0_split
I0403 18:06:17.046826  6585 net.cpp:425] inception_4c/output_inception_4c/output_0_split <- inception_4c/output
I0403 18:06:17.046849  6585 net.cpp:399] inception_4c/output_inception_4c/output_0_split -> inception_4c/output_inception_4c/output_0_split_0
I0403 18:06:17.046870  6585 net.cpp:399] inception_4c/output_inception_4c/output_0_split -> inception_4c/output_inception_4c/output_0_split_1
I0403 18:06:17.046892  6585 net.cpp:399] inception_4c/output_inception_4c/output_0_split -> inception_4c/output_inception_4c/output_0_split_2
I0403 18:06:17.046913  6585 net.cpp:399] inception_4c/output_inception_4c/output_0_split -> inception_4c/output_inception_4c/output_0_split_3
I0403 18:06:17.047005  6585 net.cpp:141] Setting up inception_4c/output_inception_4c/output_0_split
I0403 18:06:17.047030  6585 net.cpp:148] Top shape: 24 512 14 14 (2408448)
I0403 18:06:17.047047  6585 net.cpp:148] Top shape: 24 512 14 14 (2408448)
I0403 18:06:17.047065  6585 net.cpp:148] Top shape: 24 512 14 14 (2408448)
I0403 18:06:17.047081  6585 net.cpp:148] Top shape: 24 512 14 14 (2408448)
I0403 18:06:17.047096  6585 net.cpp:156] Memory required for data: 1111182624
I0403 18:06:17.047111  6585 layer_factory.hpp:77] Creating layer inception_4d/1x1
I0403 18:06:17.047134  6585 net.cpp:91] Creating Layer inception_4d/1x1
I0403 18:06:17.047153  6585 net.cpp:425] inception_4d/1x1 <- inception_4c/output_inception_4c/output_0_split_0
I0403 18:06:17.047176  6585 net.cpp:399] inception_4d/1x1 -> inception_4d/1x1
I0403 18:06:17.048657  6585 net.cpp:141] Setting up inception_4d/1x1
I0403 18:06:17.048689  6585 net.cpp:148] Top shape: 24 112 14 14 (526848)
I0403 18:06:17.048707  6585 net.cpp:156] Memory required for data: 1113290016
I0403 18:06:17.048727  6585 layer_factory.hpp:77] Creating layer inception_4d/relu_1x1
I0403 18:06:17.048748  6585 net.cpp:91] Creating Layer inception_4d/relu_1x1
I0403 18:06:17.048768  6585 net.cpp:425] inception_4d/relu_1x1 <- inception_4d/1x1
I0403 18:06:17.048786  6585 net.cpp:386] inception_4d/relu_1x1 -> inception_4d/1x1 (in-place)
I0403 18:06:17.048986  6585 net.cpp:141] Setting up inception_4d/relu_1x1
I0403 18:06:17.049015  6585 net.cpp:148] Top shape: 24 112 14 14 (526848)
I0403 18:06:17.049031  6585 net.cpp:156] Memory required for data: 1115397408
I0403 18:06:17.049047  6585 layer_factory.hpp:77] Creating layer inception_4d/3x3_reduce
I0403 18:06:17.049087  6585 net.cpp:91] Creating Layer inception_4d/3x3_reduce
I0403 18:06:17.049108  6585 net.cpp:425] inception_4d/3x3_reduce <- inception_4c/output_inception_4c/output_0_split_1
I0403 18:06:17.049129  6585 net.cpp:399] inception_4d/3x3_reduce -> inception_4d/3x3_reduce
I0403 18:06:17.050743  6585 net.cpp:141] Setting up inception_4d/3x3_reduce
I0403 18:06:17.050775  6585 net.cpp:148] Top shape: 24 144 14 14 (677376)
I0403 18:06:17.050792  6585 net.cpp:156] Memory required for data: 1118106912
I0403 18:06:17.050814  6585 layer_factory.hpp:77] Creating layer inception_4d/relu_3x3_reduce
I0403 18:06:17.050837  6585 net.cpp:91] Creating Layer inception_4d/relu_3x3_reduce
I0403 18:06:17.050858  6585 net.cpp:425] inception_4d/relu_3x3_reduce <- inception_4d/3x3_reduce
I0403 18:06:17.050879  6585 net.cpp:386] inception_4d/relu_3x3_reduce -> inception_4d/3x3_reduce (in-place)
I0403 18:06:17.051188  6585 net.cpp:141] Setting up inception_4d/relu_3x3_reduce
I0403 18:06:17.051219  6585 net.cpp:148] Top shape: 24 144 14 14 (677376)
I0403 18:06:17.051235  6585 net.cpp:156] Memory required for data: 1120816416
I0403 18:06:17.051252  6585 layer_factory.hpp:77] Creating layer inception_4d/3x3
I0403 18:06:17.051281  6585 net.cpp:91] Creating Layer inception_4d/3x3
I0403 18:06:17.051303  6585 net.cpp:425] inception_4d/3x3 <- inception_4d/3x3_reduce
I0403 18:06:17.051327  6585 net.cpp:399] inception_4d/3x3 -> inception_4d/3x3
I0403 18:06:17.055901  6585 net.cpp:141] Setting up inception_4d/3x3
I0403 18:06:17.055934  6585 net.cpp:148] Top shape: 24 288 14 14 (1354752)
I0403 18:06:17.055953  6585 net.cpp:156] Memory required for data: 1126235424
I0403 18:06:17.055974  6585 layer_factory.hpp:77] Creating layer inception_4d/relu_3x3
I0403 18:06:17.055995  6585 net.cpp:91] Creating Layer inception_4d/relu_3x3
I0403 18:06:17.056016  6585 net.cpp:425] inception_4d/relu_3x3 <- inception_4d/3x3
I0403 18:06:17.056037  6585 net.cpp:386] inception_4d/relu_3x3 -> inception_4d/3x3 (in-place)
I0403 18:06:17.056236  6585 net.cpp:141] Setting up inception_4d/relu_3x3
I0403 18:06:17.056264  6585 net.cpp:148] Top shape: 24 288 14 14 (1354752)
I0403 18:06:17.056287  6585 net.cpp:156] Memory required for data: 1131654432
I0403 18:06:17.056304  6585 layer_factory.hpp:77] Creating layer inception_4d/5x5_reduce
I0403 18:06:17.056331  6585 net.cpp:91] Creating Layer inception_4d/5x5_reduce
I0403 18:06:17.056351  6585 net.cpp:425] inception_4d/5x5_reduce <- inception_4c/output_inception_4c/output_0_split_2
I0403 18:06:17.056376  6585 net.cpp:399] inception_4d/5x5_reduce -> inception_4d/5x5_reduce
I0403 18:06:17.057602  6585 net.cpp:141] Setting up inception_4d/5x5_reduce
I0403 18:06:17.057634  6585 net.cpp:148] Top shape: 24 32 14 14 (150528)
I0403 18:06:17.057651  6585 net.cpp:156] Memory required for data: 1132256544
I0403 18:06:17.057673  6585 layer_factory.hpp:77] Creating layer inception_4d/relu_5x5_reduce
I0403 18:06:17.057696  6585 net.cpp:91] Creating Layer inception_4d/relu_5x5_reduce
I0403 18:06:17.057715  6585 net.cpp:425] inception_4d/relu_5x5_reduce <- inception_4d/5x5_reduce
I0403 18:06:17.057735  6585 net.cpp:386] inception_4d/relu_5x5_reduce -> inception_4d/5x5_reduce (in-place)
I0403 18:06:17.057940  6585 net.cpp:141] Setting up inception_4d/relu_5x5_reduce
I0403 18:06:17.057970  6585 net.cpp:148] Top shape: 24 32 14 14 (150528)
I0403 18:06:17.057987  6585 net.cpp:156] Memory required for data: 1132858656
I0403 18:06:17.058006  6585 layer_factory.hpp:77] Creating layer inception_4d/5x5
I0403 18:06:17.058030  6585 net.cpp:91] Creating Layer inception_4d/5x5
I0403 18:06:17.058050  6585 net.cpp:425] inception_4d/5x5 <- inception_4d/5x5_reduce
I0403 18:06:17.058073  6585 net.cpp:399] inception_4d/5x5 -> inception_4d/5x5
I0403 18:06:17.059638  6585 net.cpp:141] Setting up inception_4d/5x5
I0403 18:06:17.059672  6585 net.cpp:148] Top shape: 24 64 14 14 (301056)
I0403 18:06:17.059691  6585 net.cpp:156] Memory required for data: 1134062880
I0403 18:06:17.059713  6585 layer_factory.hpp:77] Creating layer inception_4d/relu_5x5
I0403 18:06:17.059751  6585 net.cpp:91] Creating Layer inception_4d/relu_5x5
I0403 18:06:17.059769  6585 net.cpp:425] inception_4d/relu_5x5 <- inception_4d/5x5
I0403 18:06:17.059792  6585 net.cpp:386] inception_4d/relu_5x5 -> inception_4d/5x5 (in-place)
I0403 18:06:17.060108  6585 net.cpp:141] Setting up inception_4d/relu_5x5
I0403 18:06:17.060140  6585 net.cpp:148] Top shape: 24 64 14 14 (301056)
I0403 18:06:17.060156  6585 net.cpp:156] Memory required for data: 1135267104
I0403 18:06:17.060173  6585 layer_factory.hpp:77] Creating layer inception_4d/pool
I0403 18:06:17.060194  6585 net.cpp:91] Creating Layer inception_4d/pool
I0403 18:06:17.060209  6585 net.cpp:425] inception_4d/pool <- inception_4c/output_inception_4c/output_0_split_3
I0403 18:06:17.060231  6585 net.cpp:399] inception_4d/pool -> inception_4d/pool
I0403 18:06:17.060308  6585 net.cpp:141] Setting up inception_4d/pool
I0403 18:06:17.060338  6585 net.cpp:148] Top shape: 24 512 14 14 (2408448)
I0403 18:06:17.060355  6585 net.cpp:156] Memory required for data: 1144900896
I0403 18:06:17.060372  6585 layer_factory.hpp:77] Creating layer inception_4d/pool_proj
I0403 18:06:17.060396  6585 net.cpp:91] Creating Layer inception_4d/pool_proj
I0403 18:06:17.060415  6585 net.cpp:425] inception_4d/pool_proj <- inception_4d/pool
I0403 18:06:17.060436  6585 net.cpp:399] inception_4d/pool_proj -> inception_4d/pool_proj
I0403 18:06:17.062352  6585 net.cpp:141] Setting up inception_4d/pool_proj
I0403 18:06:17.062386  6585 net.cpp:148] Top shape: 24 64 14 14 (301056)
I0403 18:06:17.062403  6585 net.cpp:156] Memory required for data: 1146105120
I0403 18:06:17.062424  6585 layer_factory.hpp:77] Creating layer inception_4d/relu_pool_proj
I0403 18:06:17.062448  6585 net.cpp:91] Creating Layer inception_4d/relu_pool_proj
I0403 18:06:17.062468  6585 net.cpp:425] inception_4d/relu_pool_proj <- inception_4d/pool_proj
I0403 18:06:17.062487  6585 net.cpp:386] inception_4d/relu_pool_proj -> inception_4d/pool_proj (in-place)
I0403 18:06:17.062690  6585 net.cpp:141] Setting up inception_4d/relu_pool_proj
I0403 18:06:17.062718  6585 net.cpp:148] Top shape: 24 64 14 14 (301056)
I0403 18:06:17.062736  6585 net.cpp:156] Memory required for data: 1147309344
I0403 18:06:17.062752  6585 layer_factory.hpp:77] Creating layer inception_4d/output
I0403 18:06:17.062770  6585 net.cpp:91] Creating Layer inception_4d/output
I0403 18:06:17.062789  6585 net.cpp:425] inception_4d/output <- inception_4d/1x1
I0403 18:06:17.062808  6585 net.cpp:425] inception_4d/output <- inception_4d/3x3
I0403 18:06:17.062825  6585 net.cpp:425] inception_4d/output <- inception_4d/5x5
I0403 18:06:17.062844  6585 net.cpp:425] inception_4d/output <- inception_4d/pool_proj
I0403 18:06:17.062863  6585 net.cpp:399] inception_4d/output -> inception_4d/output
I0403 18:06:17.062914  6585 net.cpp:141] Setting up inception_4d/output
I0403 18:06:17.062940  6585 net.cpp:148] Top shape: 24 528 14 14 (2483712)
I0403 18:06:17.062959  6585 net.cpp:156] Memory required for data: 1157244192
I0403 18:06:17.062975  6585 layer_factory.hpp:77] Creating layer inception_4d/output_inception_4d/output_0_split
I0403 18:06:17.062994  6585 net.cpp:91] Creating Layer inception_4d/output_inception_4d/output_0_split
I0403 18:06:17.063011  6585 net.cpp:425] inception_4d/output_inception_4d/output_0_split <- inception_4d/output
I0403 18:06:17.063031  6585 net.cpp:399] inception_4d/output_inception_4d/output_0_split -> inception_4d/output_inception_4d/output_0_split_0
I0403 18:06:17.063053  6585 net.cpp:399] inception_4d/output_inception_4d/output_0_split -> inception_4d/output_inception_4d/output_0_split_1
I0403 18:06:17.063077  6585 net.cpp:399] inception_4d/output_inception_4d/output_0_split -> inception_4d/output_inception_4d/output_0_split_2
I0403 18:06:17.063100  6585 net.cpp:399] inception_4d/output_inception_4d/output_0_split -> inception_4d/output_inception_4d/output_0_split_3
I0403 18:06:17.063123  6585 net.cpp:399] inception_4d/output_inception_4d/output_0_split -> inception_4d/output_inception_4d/output_0_split_4
I0403 18:06:17.063237  6585 net.cpp:141] Setting up inception_4d/output_inception_4d/output_0_split
I0403 18:06:17.063280  6585 net.cpp:148] Top shape: 24 528 14 14 (2483712)
I0403 18:06:17.063300  6585 net.cpp:148] Top shape: 24 528 14 14 (2483712)
I0403 18:06:17.063318  6585 net.cpp:148] Top shape: 24 528 14 14 (2483712)
I0403 18:06:17.063335  6585 net.cpp:148] Top shape: 24 528 14 14 (2483712)
I0403 18:06:17.063351  6585 net.cpp:148] Top shape: 24 528 14 14 (2483712)
I0403 18:06:17.063367  6585 net.cpp:156] Memory required for data: 1206918432
I0403 18:06:17.063383  6585 layer_factory.hpp:77] Creating layer loss2/ave_pool
I0403 18:06:17.063406  6585 net.cpp:91] Creating Layer loss2/ave_pool
I0403 18:06:17.063424  6585 net.cpp:425] loss2/ave_pool <- inception_4d/output_inception_4d/output_0_split_0
I0403 18:06:17.063444  6585 net.cpp:399] loss2/ave_pool -> loss2/ave_pool
I0403 18:06:17.063781  6585 net.cpp:141] Setting up loss2/ave_pool
I0403 18:06:17.063809  6585 net.cpp:148] Top shape: 24 528 4 4 (202752)
I0403 18:06:17.063827  6585 net.cpp:156] Memory required for data: 1207729440
I0403 18:06:17.063843  6585 layer_factory.hpp:77] Creating layer loss2/conv
I0403 18:06:17.063870  6585 net.cpp:91] Creating Layer loss2/conv
I0403 18:06:17.063890  6585 net.cpp:425] loss2/conv <- loss2/ave_pool
I0403 18:06:17.063911  6585 net.cpp:399] loss2/conv -> loss2/conv
I0403 18:06:17.065973  6585 net.cpp:141] Setting up loss2/conv
I0403 18:06:17.066006  6585 net.cpp:148] Top shape: 24 128 4 4 (49152)
I0403 18:06:17.066026  6585 net.cpp:156] Memory required for data: 1207926048
I0403 18:06:17.066047  6585 layer_factory.hpp:77] Creating layer loss2/relu_conv
I0403 18:06:17.066067  6585 net.cpp:91] Creating Layer loss2/relu_conv
I0403 18:06:17.066087  6585 net.cpp:425] loss2/relu_conv <- loss2/conv
I0403 18:06:17.066109  6585 net.cpp:386] loss2/relu_conv -> loss2/conv (in-place)
I0403 18:06:17.066419  6585 net.cpp:141] Setting up loss2/relu_conv
I0403 18:06:17.066450  6585 net.cpp:148] Top shape: 24 128 4 4 (49152)
I0403 18:06:17.066468  6585 net.cpp:156] Memory required for data: 1208122656
I0403 18:06:17.066488  6585 layer_factory.hpp:77] Creating layer loss2/fc
I0403 18:06:17.066509  6585 net.cpp:91] Creating Layer loss2/fc
I0403 18:06:17.066527  6585 net.cpp:425] loss2/fc <- loss2/conv
I0403 18:06:17.066550  6585 net.cpp:399] loss2/fc -> loss2/fc
I0403 18:06:17.085671  6585 net.cpp:141] Setting up loss2/fc
I0403 18:06:17.085743  6585 net.cpp:148] Top shape: 24 1024 (24576)
I0403 18:06:17.085762  6585 net.cpp:156] Memory required for data: 1208220960
I0403 18:06:17.085785  6585 layer_factory.hpp:77] Creating layer loss2/relu_fc
I0403 18:06:17.085808  6585 net.cpp:91] Creating Layer loss2/relu_fc
I0403 18:06:17.085826  6585 net.cpp:425] loss2/relu_fc <- loss2/fc
I0403 18:06:17.085846  6585 net.cpp:386] loss2/relu_fc -> loss2/fc (in-place)
I0403 18:06:17.087916  6585 net.cpp:141] Setting up loss2/relu_fc
I0403 18:06:17.087949  6585 net.cpp:148] Top shape: 24 1024 (24576)
I0403 18:06:17.087965  6585 net.cpp:156] Memory required for data: 1208319264
I0403 18:06:17.087981  6585 layer_factory.hpp:77] Creating layer loss2/drop_fc
I0403 18:06:17.088001  6585 net.cpp:91] Creating Layer loss2/drop_fc
I0403 18:06:17.088017  6585 net.cpp:425] loss2/drop_fc <- loss2/fc
I0403 18:06:17.088037  6585 net.cpp:386] loss2/drop_fc -> loss2/fc (in-place)
I0403 18:06:17.088090  6585 net.cpp:141] Setting up loss2/drop_fc
I0403 18:06:17.088116  6585 net.cpp:148] Top shape: 24 1024 (24576)
I0403 18:06:17.088132  6585 net.cpp:156] Memory required for data: 1208417568
I0403 18:06:17.088147  6585 layer_factory.hpp:77] Creating layer loss2/classifier_plantvillage
I0403 18:06:17.088171  6585 net.cpp:91] Creating Layer loss2/classifier_plantvillage
I0403 18:06:17.088188  6585 net.cpp:425] loss2/classifier_plantvillage <- loss2/fc
I0403 18:06:17.088207  6585 net.cpp:399] loss2/classifier_plantvillage -> loss2/classifier_plantvillage
I0403 18:06:17.088670  6585 net.cpp:141] Setting up loss2/classifier_plantvillage
I0403 18:06:17.088698  6585 net.cpp:148] Top shape: 24 38 (912)
I0403 18:06:17.088742  6585 net.cpp:156] Memory required for data: 1208421216
I0403 18:06:17.088762  6585 layer_factory.hpp:77] Creating layer loss2/classifier_plantvillage_loss2/classifier_plantvillage_0_split
I0403 18:06:17.088783  6585 net.cpp:91] Creating Layer loss2/classifier_plantvillage_loss2/classifier_plantvillage_0_split
I0403 18:06:17.088814  6585 net.cpp:425] loss2/classifier_plantvillage_loss2/classifier_plantvillage_0_split <- loss2/classifier_plantvillage
I0403 18:06:17.088836  6585 net.cpp:399] loss2/classifier_plantvillage_loss2/classifier_plantvillage_0_split -> loss2/classifier_plantvillage_loss2/classifier_plantvillage_0_split_0
I0403 18:06:17.088860  6585 net.cpp:399] loss2/classifier_plantvillage_loss2/classifier_plantvillage_0_split -> loss2/classifier_plantvillage_loss2/classifier_plantvillage_0_split_1
I0403 18:06:17.088888  6585 net.cpp:399] loss2/classifier_plantvillage_loss2/classifier_plantvillage_0_split -> loss2/classifier_plantvillage_loss2/classifier_plantvillage_0_split_2
I0403 18:06:17.088973  6585 net.cpp:141] Setting up loss2/classifier_plantvillage_loss2/classifier_plantvillage_0_split
I0403 18:06:17.088999  6585 net.cpp:148] Top shape: 24 38 (912)
I0403 18:06:17.089016  6585 net.cpp:148] Top shape: 24 38 (912)
I0403 18:06:17.089032  6585 net.cpp:148] Top shape: 24 38 (912)
I0403 18:06:17.089047  6585 net.cpp:156] Memory required for data: 1208432160
I0403 18:06:17.089062  6585 layer_factory.hpp:77] Creating layer inception_4e/1x1
I0403 18:06:17.089087  6585 net.cpp:91] Creating Layer inception_4e/1x1
I0403 18:06:17.089107  6585 net.cpp:425] inception_4e/1x1 <- inception_4d/output_inception_4d/output_0_split_1
I0403 18:06:17.089128  6585 net.cpp:399] inception_4e/1x1 -> inception_4e/1x1
I0403 18:06:17.091126  6585 net.cpp:141] Setting up inception_4e/1x1
I0403 18:06:17.091156  6585 net.cpp:148] Top shape: 24 256 14 14 (1204224)
I0403 18:06:17.091173  6585 net.cpp:156] Memory required for data: 1213249056
I0403 18:06:17.091193  6585 layer_factory.hpp:77] Creating layer inception_4e/relu_1x1
I0403 18:06:17.091217  6585 net.cpp:91] Creating Layer inception_4e/relu_1x1
I0403 18:06:17.091233  6585 net.cpp:425] inception_4e/relu_1x1 <- inception_4e/1x1
I0403 18:06:17.091253  6585 net.cpp:386] inception_4e/relu_1x1 -> inception_4e/1x1 (in-place)
I0403 18:06:17.091573  6585 net.cpp:141] Setting up inception_4e/relu_1x1
I0403 18:06:17.091603  6585 net.cpp:148] Top shape: 24 256 14 14 (1204224)
I0403 18:06:17.091619  6585 net.cpp:156] Memory required for data: 1218065952
I0403 18:06:17.091636  6585 layer_factory.hpp:77] Creating layer inception_4e/3x3_reduce
I0403 18:06:17.091661  6585 net.cpp:91] Creating Layer inception_4e/3x3_reduce
I0403 18:06:17.091681  6585 net.cpp:425] inception_4e/3x3_reduce <- inception_4d/output_inception_4d/output_0_split_2
I0403 18:06:17.091706  6585 net.cpp:399] inception_4e/3x3_reduce -> inception_4e/3x3_reduce
I0403 18:06:17.094017  6585 net.cpp:141] Setting up inception_4e/3x3_reduce
I0403 18:06:17.094049  6585 net.cpp:148] Top shape: 24 160 14 14 (752640)
I0403 18:06:17.094069  6585 net.cpp:156] Memory required for data: 1221076512
I0403 18:06:17.094089  6585 layer_factory.hpp:77] Creating layer inception_4e/relu_3x3_reduce
I0403 18:06:17.094110  6585 net.cpp:91] Creating Layer inception_4e/relu_3x3_reduce
I0403 18:06:17.094130  6585 net.cpp:425] inception_4e/relu_3x3_reduce <- inception_4e/3x3_reduce
I0403 18:06:17.094151  6585 net.cpp:386] inception_4e/relu_3x3_reduce -> inception_4e/3x3_reduce (in-place)
I0403 18:06:17.094357  6585 net.cpp:141] Setting up inception_4e/relu_3x3_reduce
I0403 18:06:17.094385  6585 net.cpp:148] Top shape: 24 160 14 14 (752640)
I0403 18:06:17.094403  6585 net.cpp:156] Memory required for data: 1224087072
I0403 18:06:17.094419  6585 layer_factory.hpp:77] Creating layer inception_4e/3x3
I0403 18:06:17.094444  6585 net.cpp:91] Creating Layer inception_4e/3x3
I0403 18:06:17.094463  6585 net.cpp:425] inception_4e/3x3 <- inception_4e/3x3_reduce
I0403 18:06:17.094486  6585 net.cpp:399] inception_4e/3x3 -> inception_4e/3x3
I0403 18:06:17.099886  6585 net.cpp:141] Setting up inception_4e/3x3
I0403 18:06:17.099934  6585 net.cpp:148] Top shape: 24 320 14 14 (1505280)
I0403 18:06:17.099954  6585 net.cpp:156] Memory required for data: 1230108192
I0403 18:06:17.099975  6585 layer_factory.hpp:77] Creating layer inception_4e/relu_3x3
I0403 18:06:17.099997  6585 net.cpp:91] Creating Layer inception_4e/relu_3x3
I0403 18:06:17.100015  6585 net.cpp:425] inception_4e/relu_3x3 <- inception_4e/3x3
I0403 18:06:17.100036  6585 net.cpp:386] inception_4e/relu_3x3 -> inception_4e/3x3 (in-place)
I0403 18:06:17.100360  6585 net.cpp:141] Setting up inception_4e/relu_3x3
I0403 18:06:17.100390  6585 net.cpp:148] Top shape: 24 320 14 14 (1505280)
I0403 18:06:17.100407  6585 net.cpp:156] Memory required for data: 1236129312
I0403 18:06:17.100424  6585 layer_factory.hpp:77] Creating layer inception_4e/5x5_reduce
I0403 18:06:17.100447  6585 net.cpp:91] Creating Layer inception_4e/5x5_reduce
I0403 18:06:17.100467  6585 net.cpp:425] inception_4e/5x5_reduce <- inception_4d/output_inception_4d/output_0_split_3
I0403 18:06:17.100493  6585 net.cpp:399] inception_4e/5x5_reduce -> inception_4e/5x5_reduce
I0403 18:06:17.101652  6585 net.cpp:141] Setting up inception_4e/5x5_reduce
I0403 18:06:17.101686  6585 net.cpp:148] Top shape: 24 32 14 14 (150528)
I0403 18:06:17.101702  6585 net.cpp:156] Memory required for data: 1236731424
I0403 18:06:17.101722  6585 layer_factory.hpp:77] Creating layer inception_4e/relu_5x5_reduce
I0403 18:06:17.101742  6585 net.cpp:91] Creating Layer inception_4e/relu_5x5_reduce
I0403 18:06:17.101760  6585 net.cpp:425] inception_4e/relu_5x5_reduce <- inception_4e/5x5_reduce
I0403 18:06:17.101783  6585 net.cpp:386] inception_4e/relu_5x5_reduce -> inception_4e/5x5_reduce (in-place)
I0403 18:06:17.102102  6585 net.cpp:141] Setting up inception_4e/relu_5x5_reduce
I0403 18:06:17.102136  6585 net.cpp:148] Top shape: 24 32 14 14 (150528)
I0403 18:06:17.102154  6585 net.cpp:156] Memory required for data: 1237333536
I0403 18:06:17.102170  6585 layer_factory.hpp:77] Creating layer inception_4e/5x5
I0403 18:06:17.102216  6585 net.cpp:91] Creating Layer inception_4e/5x5
I0403 18:06:17.102236  6585 net.cpp:425] inception_4e/5x5 <- inception_4e/5x5_reduce
I0403 18:06:17.102258  6585 net.cpp:399] inception_4e/5x5 -> inception_4e/5x5
I0403 18:06:17.104241  6585 net.cpp:141] Setting up inception_4e/5x5
I0403 18:06:17.104280  6585 net.cpp:148] Top shape: 24 128 14 14 (602112)
I0403 18:06:17.104301  6585 net.cpp:156] Memory required for data: 1239741984
I0403 18:06:17.104322  6585 layer_factory.hpp:77] Creating layer inception_4e/relu_5x5
I0403 18:06:17.104343  6585 net.cpp:91] Creating Layer inception_4e/relu_5x5
I0403 18:06:17.104362  6585 net.cpp:425] inception_4e/relu_5x5 <- inception_4e/5x5
I0403 18:06:17.104385  6585 net.cpp:386] inception_4e/relu_5x5 -> inception_4e/5x5 (in-place)
I0403 18:06:17.104599  6585 net.cpp:141] Setting up inception_4e/relu_5x5
I0403 18:06:17.104626  6585 net.cpp:148] Top shape: 24 128 14 14 (602112)
I0403 18:06:17.104642  6585 net.cpp:156] Memory required for data: 1242150432
I0403 18:06:17.104660  6585 layer_factory.hpp:77] Creating layer inception_4e/pool
I0403 18:06:17.104679  6585 net.cpp:91] Creating Layer inception_4e/pool
I0403 18:06:17.104697  6585 net.cpp:425] inception_4e/pool <- inception_4d/output_inception_4d/output_0_split_4
I0403 18:06:17.104719  6585 net.cpp:399] inception_4e/pool -> inception_4e/pool
I0403 18:06:17.104796  6585 net.cpp:141] Setting up inception_4e/pool
I0403 18:06:17.104821  6585 net.cpp:148] Top shape: 24 528 14 14 (2483712)
I0403 18:06:17.104837  6585 net.cpp:156] Memory required for data: 1252085280
I0403 18:06:17.104854  6585 layer_factory.hpp:77] Creating layer inception_4e/pool_proj
I0403 18:06:17.104881  6585 net.cpp:91] Creating Layer inception_4e/pool_proj
I0403 18:06:17.104899  6585 net.cpp:425] inception_4e/pool_proj <- inception_4e/pool
I0403 18:06:17.104920  6585 net.cpp:399] inception_4e/pool_proj -> inception_4e/pool_proj
I0403 18:06:17.106534  6585 net.cpp:141] Setting up inception_4e/pool_proj
I0403 18:06:17.106578  6585 net.cpp:148] Top shape: 24 128 14 14 (602112)
I0403 18:06:17.106598  6585 net.cpp:156] Memory required for data: 1254493728
I0403 18:06:17.106621  6585 layer_factory.hpp:77] Creating layer inception_4e/relu_pool_proj
I0403 18:06:17.106642  6585 net.cpp:91] Creating Layer inception_4e/relu_pool_proj
I0403 18:06:17.106662  6585 net.cpp:425] inception_4e/relu_pool_proj <- inception_4e/pool_proj
I0403 18:06:17.106683  6585 net.cpp:386] inception_4e/relu_pool_proj -> inception_4e/pool_proj (in-place)
I0403 18:06:17.106998  6585 net.cpp:141] Setting up inception_4e/relu_pool_proj
I0403 18:06:17.107028  6585 net.cpp:148] Top shape: 24 128 14 14 (602112)
I0403 18:06:17.107046  6585 net.cpp:156] Memory required for data: 1256902176
I0403 18:06:17.107064  6585 layer_factory.hpp:77] Creating layer inception_4e/output
I0403 18:06:17.107087  6585 net.cpp:91] Creating Layer inception_4e/output
I0403 18:06:17.107106  6585 net.cpp:425] inception_4e/output <- inception_4e/1x1
I0403 18:06:17.107126  6585 net.cpp:425] inception_4e/output <- inception_4e/3x3
I0403 18:06:17.107146  6585 net.cpp:425] inception_4e/output <- inception_4e/5x5
I0403 18:06:17.107163  6585 net.cpp:425] inception_4e/output <- inception_4e/pool_proj
I0403 18:06:17.107183  6585 net.cpp:399] inception_4e/output -> inception_4e/output
I0403 18:06:17.107239  6585 net.cpp:141] Setting up inception_4e/output
I0403 18:06:17.107265  6585 net.cpp:148] Top shape: 24 832 14 14 (3913728)
I0403 18:06:17.107287  6585 net.cpp:156] Memory required for data: 1272557088
I0403 18:06:17.107305  6585 layer_factory.hpp:77] Creating layer pool4/3x3_s2
I0403 18:06:17.107324  6585 net.cpp:91] Creating Layer pool4/3x3_s2
I0403 18:06:17.107342  6585 net.cpp:425] pool4/3x3_s2 <- inception_4e/output
I0403 18:06:17.107363  6585 net.cpp:399] pool4/3x3_s2 -> pool4/3x3_s2
I0403 18:06:17.107440  6585 net.cpp:141] Setting up pool4/3x3_s2
I0403 18:06:17.107465  6585 net.cpp:148] Top shape: 24 832 7 7 (978432)
I0403 18:06:17.107481  6585 net.cpp:156] Memory required for data: 1276470816
I0403 18:06:17.107498  6585 layer_factory.hpp:77] Creating layer pool4/3x3_s2_pool4/3x3_s2_0_split
I0403 18:06:17.107517  6585 net.cpp:91] Creating Layer pool4/3x3_s2_pool4/3x3_s2_0_split
I0403 18:06:17.107533  6585 net.cpp:425] pool4/3x3_s2_pool4/3x3_s2_0_split <- pool4/3x3_s2
I0403 18:06:17.107554  6585 net.cpp:399] pool4/3x3_s2_pool4/3x3_s2_0_split -> pool4/3x3_s2_pool4/3x3_s2_0_split_0
I0403 18:06:17.107578  6585 net.cpp:399] pool4/3x3_s2_pool4/3x3_s2_0_split -> pool4/3x3_s2_pool4/3x3_s2_0_split_1
I0403 18:06:17.107599  6585 net.cpp:399] pool4/3x3_s2_pool4/3x3_s2_0_split -> pool4/3x3_s2_pool4/3x3_s2_0_split_2
I0403 18:06:17.107621  6585 net.cpp:399] pool4/3x3_s2_pool4/3x3_s2_0_split -> pool4/3x3_s2_pool4/3x3_s2_0_split_3
I0403 18:06:17.107719  6585 net.cpp:141] Setting up pool4/3x3_s2_pool4/3x3_s2_0_split
I0403 18:06:17.107749  6585 net.cpp:148] Top shape: 24 832 7 7 (978432)
I0403 18:06:17.107767  6585 net.cpp:148] Top shape: 24 832 7 7 (978432)
I0403 18:06:17.107784  6585 net.cpp:148] Top shape: 24 832 7 7 (978432)
I0403 18:06:17.107802  6585 net.cpp:148] Top shape: 24 832 7 7 (978432)
I0403 18:06:17.107818  6585 net.cpp:156] Memory required for data: 1292125728
I0403 18:06:17.107834  6585 layer_factory.hpp:77] Creating layer inception_5a/1x1
I0403 18:06:17.107858  6585 net.cpp:91] Creating Layer inception_5a/1x1
I0403 18:06:17.107878  6585 net.cpp:425] inception_5a/1x1 <- pool4/3x3_s2_pool4/3x3_s2_0_split_0
I0403 18:06:17.107899  6585 net.cpp:399] inception_5a/1x1 -> inception_5a/1x1
I0403 18:06:17.110991  6585 net.cpp:141] Setting up inception_5a/1x1
I0403 18:06:17.111027  6585 net.cpp:148] Top shape: 24 256 7 7 (301056)
I0403 18:06:17.111045  6585 net.cpp:156] Memory required for data: 1293329952
I0403 18:06:17.111066  6585 layer_factory.hpp:77] Creating layer inception_5a/relu_1x1
I0403 18:06:17.111085  6585 net.cpp:91] Creating Layer inception_5a/relu_1x1
I0403 18:06:17.111104  6585 net.cpp:425] inception_5a/relu_1x1 <- inception_5a/1x1
I0403 18:06:17.111126  6585 net.cpp:386] inception_5a/relu_1x1 -> inception_5a/1x1 (in-place)
I0403 18:06:17.111484  6585 net.cpp:141] Setting up inception_5a/relu_1x1
I0403 18:06:17.111515  6585 net.cpp:148] Top shape: 24 256 7 7 (301056)
I0403 18:06:17.111533  6585 net.cpp:156] Memory required for data: 1294534176
I0403 18:06:17.111551  6585 layer_factory.hpp:77] Creating layer inception_5a/3x3_reduce
I0403 18:06:17.111575  6585 net.cpp:91] Creating Layer inception_5a/3x3_reduce
I0403 18:06:17.111594  6585 net.cpp:425] inception_5a/3x3_reduce <- pool4/3x3_s2_pool4/3x3_s2_0_split_1
I0403 18:06:17.111619  6585 net.cpp:399] inception_5a/3x3_reduce -> inception_5a/3x3_reduce
I0403 18:06:17.114294  6585 net.cpp:141] Setting up inception_5a/3x3_reduce
I0403 18:06:17.114326  6585 net.cpp:148] Top shape: 24 160 7 7 (188160)
I0403 18:06:17.114346  6585 net.cpp:156] Memory required for data: 1295286816
I0403 18:06:17.114367  6585 layer_factory.hpp:77] Creating layer inception_5a/relu_3x3_reduce
I0403 18:06:17.114389  6585 net.cpp:91] Creating Layer inception_5a/relu_3x3_reduce
I0403 18:06:17.114408  6585 net.cpp:425] inception_5a/relu_3x3_reduce <- inception_5a/3x3_reduce
I0403 18:06:17.114428  6585 net.cpp:386] inception_5a/relu_3x3_reduce -> inception_5a/3x3_reduce (in-place)
I0403 18:06:17.114632  6585 net.cpp:141] Setting up inception_5a/relu_3x3_reduce
I0403 18:06:17.114665  6585 net.cpp:148] Top shape: 24 160 7 7 (188160)
I0403 18:06:17.114681  6585 net.cpp:156] Memory required for data: 1296039456
I0403 18:06:17.114698  6585 layer_factory.hpp:77] Creating layer inception_5a/3x3
I0403 18:06:17.114722  6585 net.cpp:91] Creating Layer inception_5a/3x3
I0403 18:06:17.114743  6585 net.cpp:425] inception_5a/3x3 <- inception_5a/3x3_reduce
I0403 18:06:17.114764  6585 net.cpp:399] inception_5a/3x3 -> inception_5a/3x3
I0403 18:06:17.120169  6585 net.cpp:141] Setting up inception_5a/3x3
I0403 18:06:17.120206  6585 net.cpp:148] Top shape: 24 320 7 7 (376320)
I0403 18:06:17.120225  6585 net.cpp:156] Memory required for data: 1297544736
I0403 18:06:17.120246  6585 layer_factory.hpp:77] Creating layer inception_5a/relu_3x3
I0403 18:06:17.120266  6585 net.cpp:91] Creating Layer inception_5a/relu_3x3
I0403 18:06:17.120290  6585 net.cpp:425] inception_5a/relu_3x3 <- inception_5a/3x3
I0403 18:06:17.120313  6585 net.cpp:386] inception_5a/relu_3x3 -> inception_5a/3x3 (in-place)
I0403 18:06:17.120630  6585 net.cpp:141] Setting up inception_5a/relu_3x3
I0403 18:06:17.120664  6585 net.cpp:148] Top shape: 24 320 7 7 (376320)
I0403 18:06:17.120684  6585 net.cpp:156] Memory required for data: 1299050016
I0403 18:06:17.120702  6585 layer_factory.hpp:77] Creating layer inception_5a/5x5_reduce
I0403 18:06:17.120728  6585 net.cpp:91] Creating Layer inception_5a/5x5_reduce
I0403 18:06:17.120749  6585 net.cpp:425] inception_5a/5x5_reduce <- pool4/3x3_s2_pool4/3x3_s2_0_split_2
I0403 18:06:17.120772  6585 net.cpp:399] inception_5a/5x5_reduce -> inception_5a/5x5_reduce
I0403 18:06:17.122041  6585 net.cpp:141] Setting up inception_5a/5x5_reduce
I0403 18:06:17.122076  6585 net.cpp:148] Top shape: 24 32 7 7 (37632)
I0403 18:06:17.122094  6585 net.cpp:156] Memory required for data: 1299200544
I0403 18:06:17.122115  6585 layer_factory.hpp:77] Creating layer inception_5a/relu_5x5_reduce
I0403 18:06:17.122134  6585 net.cpp:91] Creating Layer inception_5a/relu_5x5_reduce
I0403 18:06:17.122154  6585 net.cpp:425] inception_5a/relu_5x5_reduce <- inception_5a/5x5_reduce
I0403 18:06:17.122177  6585 net.cpp:386] inception_5a/relu_5x5_reduce -> inception_5a/5x5_reduce (in-place)
I0403 18:06:17.122511  6585 net.cpp:141] Setting up inception_5a/relu_5x5_reduce
I0403 18:06:17.122541  6585 net.cpp:148] Top shape: 24 32 7 7 (37632)
I0403 18:06:17.122560  6585 net.cpp:156] Memory required for data: 1299351072
I0403 18:06:17.122576  6585 layer_factory.hpp:77] Creating layer inception_5a/5x5
I0403 18:06:17.122601  6585 net.cpp:91] Creating Layer inception_5a/5x5
I0403 18:06:17.122622  6585 net.cpp:425] inception_5a/5x5 <- inception_5a/5x5_reduce
I0403 18:06:17.122647  6585 net.cpp:399] inception_5a/5x5 -> inception_5a/5x5
I0403 18:06:17.124539  6585 net.cpp:141] Setting up inception_5a/5x5
I0403 18:06:17.124586  6585 net.cpp:148] Top shape: 24 128 7 7 (150528)
I0403 18:06:17.124604  6585 net.cpp:156] Memory required for data: 1299953184
I0403 18:06:17.124626  6585 layer_factory.hpp:77] Creating layer inception_5a/relu_5x5
I0403 18:06:17.124646  6585 net.cpp:91] Creating Layer inception_5a/relu_5x5
I0403 18:06:17.124665  6585 net.cpp:425] inception_5a/relu_5x5 <- inception_5a/5x5
I0403 18:06:17.124686  6585 net.cpp:386] inception_5a/relu_5x5 -> inception_5a/5x5 (in-place)
I0403 18:06:17.124892  6585 net.cpp:141] Setting up inception_5a/relu_5x5
I0403 18:06:17.124922  6585 net.cpp:148] Top shape: 24 128 7 7 (150528)
I0403 18:06:17.124938  6585 net.cpp:156] Memory required for data: 1300555296
I0403 18:06:17.124954  6585 layer_factory.hpp:77] Creating layer inception_5a/pool
I0403 18:06:17.124974  6585 net.cpp:91] Creating Layer inception_5a/pool
I0403 18:06:17.124992  6585 net.cpp:425] inception_5a/pool <- pool4/3x3_s2_pool4/3x3_s2_0_split_3
I0403 18:06:17.125015  6585 net.cpp:399] inception_5a/pool -> inception_5a/pool
I0403 18:06:17.125092  6585 net.cpp:141] Setting up inception_5a/pool
I0403 18:06:17.125119  6585 net.cpp:148] Top shape: 24 832 7 7 (978432)
I0403 18:06:17.125134  6585 net.cpp:156] Memory required for data: 1304469024
I0403 18:06:17.125150  6585 layer_factory.hpp:77] Creating layer inception_5a/pool_proj
I0403 18:06:17.125177  6585 net.cpp:91] Creating Layer inception_5a/pool_proj
I0403 18:06:17.125197  6585 net.cpp:425] inception_5a/pool_proj <- inception_5a/pool
I0403 18:06:17.125218  6585 net.cpp:399] inception_5a/pool_proj -> inception_5a/pool_proj
I0403 18:06:17.127703  6585 net.cpp:141] Setting up inception_5a/pool_proj
I0403 18:06:17.127739  6585 net.cpp:148] Top shape: 24 128 7 7 (150528)
I0403 18:06:17.127758  6585 net.cpp:156] Memory required for data: 1305071136
I0403 18:06:17.127782  6585 layer_factory.hpp:77] Creating layer inception_5a/relu_pool_proj
I0403 18:06:17.127804  6585 net.cpp:91] Creating Layer inception_5a/relu_pool_proj
I0403 18:06:17.127822  6585 net.cpp:425] inception_5a/relu_pool_proj <- inception_5a/pool_proj
I0403 18:06:17.127843  6585 net.cpp:386] inception_5a/relu_pool_proj -> inception_5a/pool_proj (in-place)
I0403 18:06:17.128166  6585 net.cpp:141] Setting up inception_5a/relu_pool_proj
I0403 18:06:17.128198  6585 net.cpp:148] Top shape: 24 128 7 7 (150528)
I0403 18:06:17.128217  6585 net.cpp:156] Memory required for data: 1305673248
I0403 18:06:17.128232  6585 layer_factory.hpp:77] Creating layer inception_5a/output
I0403 18:06:17.128252  6585 net.cpp:91] Creating Layer inception_5a/output
I0403 18:06:17.128269  6585 net.cpp:425] inception_5a/output <- inception_5a/1x1
I0403 18:06:17.128294  6585 net.cpp:425] inception_5a/output <- inception_5a/3x3
I0403 18:06:17.128312  6585 net.cpp:425] inception_5a/output <- inception_5a/5x5
I0403 18:06:17.128330  6585 net.cpp:425] inception_5a/output <- inception_5a/pool_proj
I0403 18:06:17.128350  6585 net.cpp:399] inception_5a/output -> inception_5a/output
I0403 18:06:17.128407  6585 net.cpp:141] Setting up inception_5a/output
I0403 18:06:17.128432  6585 net.cpp:148] Top shape: 24 832 7 7 (978432)
I0403 18:06:17.128448  6585 net.cpp:156] Memory required for data: 1309586976
I0403 18:06:17.128463  6585 layer_factory.hpp:77] Creating layer inception_5a/output_inception_5a/output_0_split
I0403 18:06:17.128482  6585 net.cpp:91] Creating Layer inception_5a/output_inception_5a/output_0_split
I0403 18:06:17.128504  6585 net.cpp:425] inception_5a/output_inception_5a/output_0_split <- inception_5a/output
I0403 18:06:17.128523  6585 net.cpp:399] inception_5a/output_inception_5a/output_0_split -> inception_5a/output_inception_5a/output_0_split_0
I0403 18:06:17.128546  6585 net.cpp:399] inception_5a/output_inception_5a/output_0_split -> inception_5a/output_inception_5a/output_0_split_1
I0403 18:06:17.128568  6585 net.cpp:399] inception_5a/output_inception_5a/output_0_split -> inception_5a/output_inception_5a/output_0_split_2
I0403 18:06:17.128592  6585 net.cpp:399] inception_5a/output_inception_5a/output_0_split -> inception_5a/output_inception_5a/output_0_split_3
I0403 18:06:17.128713  6585 net.cpp:141] Setting up inception_5a/output_inception_5a/output_0_split
I0403 18:06:17.128741  6585 net.cpp:148] Top shape: 24 832 7 7 (978432)
I0403 18:06:17.128758  6585 net.cpp:148] Top shape: 24 832 7 7 (978432)
I0403 18:06:17.128774  6585 net.cpp:148] Top shape: 24 832 7 7 (978432)
I0403 18:06:17.128793  6585 net.cpp:148] Top shape: 24 832 7 7 (978432)
I0403 18:06:17.128808  6585 net.cpp:156] Memory required for data: 1325241888
I0403 18:06:17.128823  6585 layer_factory.hpp:77] Creating layer inception_5b/1x1
I0403 18:06:17.128849  6585 net.cpp:91] Creating Layer inception_5b/1x1
I0403 18:06:17.128868  6585 net.cpp:425] inception_5b/1x1 <- inception_5a/output_inception_5a/output_0_split_0
I0403 18:06:17.128892  6585 net.cpp:399] inception_5b/1x1 -> inception_5b/1x1
I0403 18:06:17.132992  6585 net.cpp:141] Setting up inception_5b/1x1
I0403 18:06:17.133028  6585 net.cpp:148] Top shape: 24 384 7 7 (451584)
I0403 18:06:17.133047  6585 net.cpp:156] Memory required for data: 1327048224
I0403 18:06:17.133067  6585 layer_factory.hpp:77] Creating layer inception_5b/relu_1x1
I0403 18:06:17.133090  6585 net.cpp:91] Creating Layer inception_5b/relu_1x1
I0403 18:06:17.133111  6585 net.cpp:425] inception_5b/relu_1x1 <- inception_5b/1x1
I0403 18:06:17.133131  6585 net.cpp:386] inception_5b/relu_1x1 -> inception_5b/1x1 (in-place)
I0403 18:06:17.133466  6585 net.cpp:141] Setting up inception_5b/relu_1x1
I0403 18:06:17.133497  6585 net.cpp:148] Top shape: 24 384 7 7 (451584)
I0403 18:06:17.133515  6585 net.cpp:156] Memory required for data: 1328854560
I0403 18:06:17.133533  6585 layer_factory.hpp:77] Creating layer inception_5b/3x3_reduce
I0403 18:06:17.133556  6585 net.cpp:91] Creating Layer inception_5b/3x3_reduce
I0403 18:06:17.133577  6585 net.cpp:425] inception_5b/3x3_reduce <- inception_5a/output_inception_5a/output_0_split_1
I0403 18:06:17.133604  6585 net.cpp:399] inception_5b/3x3_reduce -> inception_5b/3x3_reduce
I0403 18:06:17.136443  6585 net.cpp:141] Setting up inception_5b/3x3_reduce
I0403 18:06:17.136476  6585 net.cpp:148] Top shape: 24 192 7 7 (225792)
I0403 18:06:17.136495  6585 net.cpp:156] Memory required for data: 1329757728
I0403 18:06:17.136515  6585 layer_factory.hpp:77] Creating layer inception_5b/relu_3x3_reduce
I0403 18:06:17.136540  6585 net.cpp:91] Creating Layer inception_5b/relu_3x3_reduce
I0403 18:06:17.136559  6585 net.cpp:425] inception_5b/relu_3x3_reduce <- inception_5b/3x3_reduce
I0403 18:06:17.136579  6585 net.cpp:386] inception_5b/relu_3x3_reduce -> inception_5b/3x3_reduce (in-place)
I0403 18:06:17.136785  6585 net.cpp:141] Setting up inception_5b/relu_3x3_reduce
I0403 18:06:17.136816  6585 net.cpp:148] Top shape: 24 192 7 7 (225792)
I0403 18:06:17.136831  6585 net.cpp:156] Memory required for data: 1330660896
I0403 18:06:17.136848  6585 layer_factory.hpp:77] Creating layer inception_5b/3x3
I0403 18:06:17.136873  6585 net.cpp:91] Creating Layer inception_5b/3x3
I0403 18:06:17.136893  6585 net.cpp:425] inception_5b/3x3 <- inception_5b/3x3_reduce
I0403 18:06:17.136914  6585 net.cpp:399] inception_5b/3x3 -> inception_5b/3x3
I0403 18:06:17.144124  6585 net.cpp:141] Setting up inception_5b/3x3
I0403 18:06:17.144158  6585 net.cpp:148] Top shape: 24 384 7 7 (451584)
I0403 18:06:17.144176  6585 net.cpp:156] Memory required for data: 1332467232
I0403 18:06:17.144197  6585 layer_factory.hpp:77] Creating layer inception_5b/relu_3x3
I0403 18:06:17.144217  6585 net.cpp:91] Creating Layer inception_5b/relu_3x3
I0403 18:06:17.144237  6585 net.cpp:425] inception_5b/relu_3x3 <- inception_5b/3x3
I0403 18:06:17.144256  6585 net.cpp:386] inception_5b/relu_3x3 -> inception_5b/3x3 (in-place)
I0403 18:06:17.144580  6585 net.cpp:141] Setting up inception_5b/relu_3x3
I0403 18:06:17.144611  6585 net.cpp:148] Top shape: 24 384 7 7 (451584)
I0403 18:06:17.144629  6585 net.cpp:156] Memory required for data: 1334273568
I0403 18:06:17.144646  6585 layer_factory.hpp:77] Creating layer inception_5b/5x5_reduce
I0403 18:06:17.144685  6585 net.cpp:91] Creating Layer inception_5b/5x5_reduce
I0403 18:06:17.144706  6585 net.cpp:425] inception_5b/5x5_reduce <- inception_5a/output_inception_5a/output_0_split_2
I0403 18:06:17.144729  6585 net.cpp:399] inception_5b/5x5_reduce -> inception_5b/5x5_reduce
I0403 18:06:17.146103  6585 net.cpp:141] Setting up inception_5b/5x5_reduce
I0403 18:06:17.146134  6585 net.cpp:148] Top shape: 24 48 7 7 (56448)
I0403 18:06:17.146152  6585 net.cpp:156] Memory required for data: 1334499360
I0403 18:06:17.146173  6585 layer_factory.hpp:77] Creating layer inception_5b/relu_5x5_reduce
I0403 18:06:17.146195  6585 net.cpp:91] Creating Layer inception_5b/relu_5x5_reduce
I0403 18:06:17.146216  6585 net.cpp:425] inception_5b/relu_5x5_reduce <- inception_5b/5x5_reduce
I0403 18:06:17.146235  6585 net.cpp:386] inception_5b/relu_5x5_reduce -> inception_5b/5x5_reduce (in-place)
I0403 18:06:17.146638  6585 net.cpp:141] Setting up inception_5b/relu_5x5_reduce
I0403 18:06:17.146667  6585 net.cpp:148] Top shape: 24 48 7 7 (56448)
I0403 18:06:17.146683  6585 net.cpp:156] Memory required for data: 1334725152
I0403 18:06:17.146700  6585 layer_factory.hpp:77] Creating layer inception_5b/5x5
I0403 18:06:17.146721  6585 net.cpp:91] Creating Layer inception_5b/5x5
I0403 18:06:17.146740  6585 net.cpp:425] inception_5b/5x5 <- inception_5b/5x5_reduce
I0403 18:06:17.146760  6585 net.cpp:399] inception_5b/5x5 -> inception_5b/5x5
I0403 18:06:17.148965  6585 net.cpp:141] Setting up inception_5b/5x5
I0403 18:06:17.148999  6585 net.cpp:148] Top shape: 24 128 7 7 (150528)
I0403 18:06:17.149016  6585 net.cpp:156] Memory required for data: 1335327264
I0403 18:06:17.149039  6585 layer_factory.hpp:77] Creating layer inception_5b/relu_5x5
I0403 18:06:17.149058  6585 net.cpp:91] Creating Layer inception_5b/relu_5x5
I0403 18:06:17.149076  6585 net.cpp:425] inception_5b/relu_5x5 <- inception_5b/5x5
I0403 18:06:17.149097  6585 net.cpp:386] inception_5b/relu_5x5 -> inception_5b/5x5 (in-place)
I0403 18:06:17.149315  6585 net.cpp:141] Setting up inception_5b/relu_5x5
I0403 18:06:17.149343  6585 net.cpp:148] Top shape: 24 128 7 7 (150528)
I0403 18:06:17.149358  6585 net.cpp:156] Memory required for data: 1335929376
I0403 18:06:17.149374  6585 layer_factory.hpp:77] Creating layer inception_5b/pool
I0403 18:06:17.149394  6585 net.cpp:91] Creating Layer inception_5b/pool
I0403 18:06:17.149410  6585 net.cpp:425] inception_5b/pool <- inception_5a/output_inception_5a/output_0_split_3
I0403 18:06:17.149433  6585 net.cpp:399] inception_5b/pool -> inception_5b/pool
I0403 18:06:17.149513  6585 net.cpp:141] Setting up inception_5b/pool
I0403 18:06:17.149538  6585 net.cpp:148] Top shape: 24 832 7 7 (978432)
I0403 18:06:17.149554  6585 net.cpp:156] Memory required for data: 1339843104
I0403 18:06:17.149569  6585 layer_factory.hpp:77] Creating layer inception_5b/pool_proj
I0403 18:06:17.149593  6585 net.cpp:91] Creating Layer inception_5b/pool_proj
I0403 18:06:17.149612  6585 net.cpp:425] inception_5b/pool_proj <- inception_5b/pool
I0403 18:06:17.149636  6585 net.cpp:399] inception_5b/pool_proj -> inception_5b/pool_proj
I0403 18:06:17.152088  6585 net.cpp:141] Setting up inception_5b/pool_proj
I0403 18:06:17.152122  6585 net.cpp:148] Top shape: 24 128 7 7 (150528)
I0403 18:06:17.152140  6585 net.cpp:156] Memory required for data: 1340445216
I0403 18:06:17.152161  6585 layer_factory.hpp:77] Creating layer inception_5b/relu_pool_proj
I0403 18:06:17.152184  6585 net.cpp:91] Creating Layer inception_5b/relu_pool_proj
I0403 18:06:17.152204  6585 net.cpp:425] inception_5b/relu_pool_proj <- inception_5b/pool_proj
I0403 18:06:17.152225  6585 net.cpp:386] inception_5b/relu_pool_proj -> inception_5b/pool_proj (in-place)
I0403 18:06:17.152552  6585 net.cpp:141] Setting up inception_5b/relu_pool_proj
I0403 18:06:17.152582  6585 net.cpp:148] Top shape: 24 128 7 7 (150528)
I0403 18:06:17.152600  6585 net.cpp:156] Memory required for data: 1341047328
I0403 18:06:17.152616  6585 layer_factory.hpp:77] Creating layer inception_5b/output
I0403 18:06:17.152638  6585 net.cpp:91] Creating Layer inception_5b/output
I0403 18:06:17.152672  6585 net.cpp:425] inception_5b/output <- inception_5b/1x1
I0403 18:06:17.152690  6585 net.cpp:425] inception_5b/output <- inception_5b/3x3
I0403 18:06:17.152707  6585 net.cpp:425] inception_5b/output <- inception_5b/5x5
I0403 18:06:17.152724  6585 net.cpp:425] inception_5b/output <- inception_5b/pool_proj
I0403 18:06:17.152743  6585 net.cpp:399] inception_5b/output -> inception_5b/output
I0403 18:06:17.152801  6585 net.cpp:141] Setting up inception_5b/output
I0403 18:06:17.152827  6585 net.cpp:148] Top shape: 24 1024 7 7 (1204224)
I0403 18:06:17.152842  6585 net.cpp:156] Memory required for data: 1345864224
I0403 18:06:17.152858  6585 layer_factory.hpp:77] Creating layer pool5/7x7_s1
I0403 18:06:17.152879  6585 net.cpp:91] Creating Layer pool5/7x7_s1
I0403 18:06:17.152899  6585 net.cpp:425] pool5/7x7_s1 <- inception_5b/output
I0403 18:06:17.152917  6585 net.cpp:399] pool5/7x7_s1 -> pool5/7x7_s1
I0403 18:06:17.153151  6585 net.cpp:141] Setting up pool5/7x7_s1
I0403 18:06:17.153180  6585 net.cpp:148] Top shape: 24 1024 1 1 (24576)
I0403 18:06:17.153198  6585 net.cpp:156] Memory required for data: 1345962528
I0403 18:06:17.153213  6585 layer_factory.hpp:77] Creating layer pool5/drop_7x7_s1
I0403 18:06:17.153233  6585 net.cpp:91] Creating Layer pool5/drop_7x7_s1
I0403 18:06:17.153249  6585 net.cpp:425] pool5/drop_7x7_s1 <- pool5/7x7_s1
I0403 18:06:17.153280  6585 net.cpp:386] pool5/drop_7x7_s1 -> pool5/7x7_s1 (in-place)
I0403 18:06:17.153345  6585 net.cpp:141] Setting up pool5/drop_7x7_s1
I0403 18:06:17.153370  6585 net.cpp:148] Top shape: 24 1024 1 1 (24576)
I0403 18:06:17.153386  6585 net.cpp:156] Memory required for data: 1346060832
I0403 18:06:17.153403  6585 layer_factory.hpp:77] Creating layer loss3/classifier_plantvillage
I0403 18:06:17.153426  6585 net.cpp:91] Creating Layer loss3/classifier_plantvillage
I0403 18:06:17.153445  6585 net.cpp:425] loss3/classifier_plantvillage <- pool5/7x7_s1
I0403 18:06:17.153468  6585 net.cpp:399] loss3/classifier_plantvillage -> loss3/classifier_plantvillage
I0403 18:06:17.153928  6585 net.cpp:141] Setting up loss3/classifier_plantvillage
I0403 18:06:17.153954  6585 net.cpp:148] Top shape: 24 38 (912)
I0403 18:06:17.153970  6585 net.cpp:156] Memory required for data: 1346064480
I0403 18:06:17.153990  6585 layer_factory.hpp:77] Creating layer loss3/classifier_plantvillage_loss3/classifier_plantvillage_0_split
I0403 18:06:17.154014  6585 net.cpp:91] Creating Layer loss3/classifier_plantvillage_loss3/classifier_plantvillage_0_split
I0403 18:06:17.154033  6585 net.cpp:425] loss3/classifier_plantvillage_loss3/classifier_plantvillage_0_split <- loss3/classifier_plantvillage
I0403 18:06:17.154053  6585 net.cpp:399] loss3/classifier_plantvillage_loss3/classifier_plantvillage_0_split -> loss3/classifier_plantvillage_loss3/classifier_plantvillage_0_split_0
I0403 18:06:17.154075  6585 net.cpp:399] loss3/classifier_plantvillage_loss3/classifier_plantvillage_0_split -> loss3/classifier_plantvillage_loss3/classifier_plantvillage_0_split_1
I0403 18:06:17.154098  6585 net.cpp:399] loss3/classifier_plantvillage_loss3/classifier_plantvillage_0_split -> loss3/classifier_plantvillage_loss3/classifier_plantvillage_0_split_2
I0403 18:06:17.154120  6585 net.cpp:399] loss3/classifier_plantvillage_loss3/classifier_plantvillage_0_split -> loss3/classifier_plantvillage_loss3/classifier_plantvillage_0_split_3
I0403 18:06:17.154233  6585 net.cpp:141] Setting up loss3/classifier_plantvillage_loss3/classifier_plantvillage_0_split
I0403 18:06:17.154260  6585 net.cpp:148] Top shape: 24 38 (912)
I0403 18:06:17.154283  6585 net.cpp:148] Top shape: 24 38 (912)
I0403 18:06:17.154300  6585 net.cpp:148] Top shape: 24 38 (912)
I0403 18:06:17.154317  6585 net.cpp:148] Top shape: 24 38 (912)
I0403 18:06:17.154332  6585 net.cpp:156] Memory required for data: 1346079072
I0403 18:06:17.154350  6585 layer_factory.hpp:77] Creating layer loss1/loss
I0403 18:06:17.154372  6585 net.cpp:91] Creating Layer loss1/loss
I0403 18:06:17.154392  6585 net.cpp:425] loss1/loss <- loss1/classifier_plantvillage_loss1/classifier_plantvillage_0_split_0
I0403 18:06:17.154425  6585 net.cpp:425] loss1/loss <- label_data_1_split_0
…
