…
I0403 17:58:03.980252  6342 net.cpp:313] The NetState phase (1) differed from the phase (0) specified by a rule in layer data
I0403 17:58:03.981436  6342 net.cpp:49] Initializing net from parameters: 
state {
  phase: TEST
}
layer {
  name: "data"
  type: "Data"
  top: "data"
  top: "label"
  include {
    phase: TEST
  }
  transform_param {
    mirror: false
    crop_size: 224
    mean_file: "/home/mohanty/data/final_dataset/lmdb/grayscale-40-60/mean.binaryproto"
  }
  data_param {
    source: "/home/mohanty/data/final_dataset/lmdb/grayscale-40-60/test_db"
    batch_size: 24
    backend: LMDB
  }
}
layer {
  name: "conv1/7x7_s2"
  type: "Convolution"
  bottom: "data"
  top: "conv1/7x7_s2"
  param {
    lr_mult: 1
    decay_mult: 1
  }
  param {
    lr_mult: 2
    decay_mult: 0
  }
  convolution_param {
    num_output: 64
    pad: 3
    kernel_size: 7
    stride: 2
    weight_filler {
      type: "xavier"
      std: 0.1
    }
    bias_filler {
      type: "constant"
      value: 0.2
    }
  }
}
layer {
  name: "conv1/relu_7x7"
  type: "ReLU"
  bottom: "conv1/7x7_s2"
  top: "conv1/7x7_s2"
}
layer {
  name: "pool1/3x3_s2"
  type: "Pooling"
  bottom: "conv1/7x7_s2"
  top: "pool1/3x3_s2"
  pooling_param {
    pool: MAX
    kernel_size: 3
    stride: 2
  }
}
layer {
  name: "pool1/norm1"
  type: "LRN"
  bottom: "pool1/3x3_s2"
  top: "pool1/norm1"
  lrn_param {
    local_size: 5
    alpha: 0.0001
    beta: 0.75
  }
}
layer {
  name: "conv2/3x3_reduce"
  type: "Convolution"
  bottom: "pool1/norm1"
  top: "conv2/3x3_reduce"
  param {
    lr_mult: 1
    decay_mult: 1
  }
  param {
    lr_mult: 2
    decay_mult: 0
  }
  convolution_param {
    num_output: 64
    kernel_size: 1
    weight_filler {
      type: "xavier"
      std: 0.1
    }
    bias_filler {
      type: "constant"
      value: 0.2
    }
  }
}
layer {
  name: "conv2/relu_3x3_reduce"
  type: "ReLU"
  bottom: "conv2/3x3_reduce"
  top: "conv2/3x3_reduce"
}
layer {
  name: "conv2/3x3"
  type: "Convolution"
  bottom: "conv2/3x3_reduce"
  top: "conv2/3x3"
  param {
    lr_mult: 1
    decay_mult: 1
  }
  param {
    lr_mult: 2
    decay_mult: 0
  }
  convolution_param {
    num_output: 192
    pad: 1
    kernel_size: 3
    weight_filler {
      type: "xavier"
      std: 0.03
    }
    bias_filler {
      type: "constant"
      value: 0.2
    }
  }
}
layer {
  name: "conv2/relu_3x3"
  type: "ReLU"
  bottom: "conv2/3x3"
  top: "conv2/3x3"
}
layer {
  name: "conv2/norm2"
  type: "LRN"
  bottom: "conv2/3x3"
  top: "conv2/norm2"
  lrn_param {
    local_size: 5
    alpha: 0.0001
    beta: 0.75
  }
}
layer {
  name: "pool2/3x3_s2"
  type: "Pooling"
  bottom: "conv2/norm2"
  top: "pool2/3x3_s2"
  pooling_param {
    pool: MAX
    kernel_size: 3
    stride: 2
  }
}
layer {
  name: "inception_3a/1x1"
  type: "Convolution"
  bottom: "pool2/3x3_s2"
  top: "inception_3a/1x1"
  param {
    lr_mult: 1
    decay_mult: 1
  }
  param {
    lr_mult: 2
    decay_mult: 0
  }
  convolution_param {
    num_output: 64
    kernel_size: 1
    weight_filler {
      type: "xavier"
      std: 0.03
    }
    bias_filler {
      type: "constant"
      value: 0.2
    }
  }
}
layer {
  name: "inception_3a/relu_1x1"
  type: "ReLU"
  bottom: "inception_3a/1x1"
  top: "inception_3a/1x1"
}
layer {
  name: "inception_3a/3x3_reduce"
  type: "Convolution"
  bottom: "pool2/3x3_s2"
  top: "inception_3a/3x3_reduce"
  param {
    lr_mult: 1
    decay_mult: 1
  }
  param {
    lr_mult: 2
    decay_mult: 0
  }
  convolution_param {
    num_output: 96
    kernel_size: 1
    weight_filler {
      type: "xavier"
      std: 0.09
    }
    bias_filler {
      type: "constant"
      value: 0.2
    }
  }
}
layer {
  name: "inception_3a/relu_3x3_reduce"
  type: "ReLU"
  bottom: "inception_3a/3x3_reduce"
  top: "inception_3a/3x3_reduce"
}
layer {
  name: "inception_3a/3x3"
  type: "Convolution"
  bottom: "inception_3a/3x3_reduce"
  top: "inception_3a/3x3"
  param {
    lr_mult: 1
    decay_mult: 1
  }
  param {
    lr_mult: 2
    decay_mult: 0
  }
  convolution_param {
    num_output: 128
    pad: 1
    kernel_size: 3
    weight_filler {
      type: "xavier"
      std: 0.03
    }
    bias_filler {
      type: "constant"
      value: 0.2
    }
  }
}
layer {
  name: "inception_3a/relu_3x3"
  type: "ReLU"
  bottom: "inception_3a/3x3"
  top: "inception_3a/3x3"
}
layer {
  name: "inception_3a/5x5_reduce"
  type: "Convolution"
  bottom: "pool2/3x3_s2"
  top: "inception_3a/5x5_reduce"
  param {
    lr_mult: 1
    decay_mult: 1
  }
  param {
    lr_mult: 2
    decay_mult: 0
  }
  convolution_param {
    num_output: 16
    kernel_size: 1
    weight_filler {
      type: "xavier"
      std: 0.2
    }
    bias_filler {
      type: "constant"
      value: 0.2
    }
  }
}
layer {
  name: "inception_3a/relu_5x5_reduce"
  type: "ReLU"
  bottom: "inception_3a/5x5_reduce"
  top: "inception_3a/5x5_reduce"
}
layer {
  name: "inception_3a/5x5"
  type: "Convolution"
  bottom: "inception_3a/5x5_reduce"
  top: "inception_3a/5x5"
  param {
    lr_mult: 1
    decay_mult: 1
  }
  param {
    lr_mult: 2
    decay_mult: 0
  }
  convolution_param {
    num_output: 32
    pad: 2
    kernel_size: 5
    weight_filler {
      type: "xavier"
      std: 0.03
    }
    bias_filler {
      type: "constant"
      value: 0.2
    }
  }
}
layer {
  name: "inception_3a/relu_5x5"
  type: "ReLU"
  bottom: "inception_3a/5x5"
  top: "inception_3a/5x5"
}
layer {
  name: "inception_3a/pool"
  type: "Pooling"
  bottom: "pool2/3x3_s2"
  top: "inception_3a/pool"
  pooling_param {
    pool: MAX
    kernel_size: 3
    stride: 1
    pad: 1
  }
}
layer {
  name: "inception_3a/pool_proj"
  type: "Convolution"
  bottom: "inception_3a/pool"
  top: "inception_3a/pool_proj"
  param {
    lr_mult: 1
    decay_mult: 1
  }
  param {
    lr_mult: 2
    decay_mult: 0
  }
  convolution_param {
    num_output: 32
    kernel_size: 1
    weight_filler {
      type: "xavier"
      std: 0.1
    }
    bias_filler {
      type: "constant"
      value: 0.2
    }
  }
}
layer {
  name: "inception_3a/relu_pool_proj"
  type: "ReLU"
  bottom: "inception_3a/pool_proj"
  top: "inception_3a/pool_proj"
}
layer {
  name: "inception_3a/output"
  type: "Concat"
  bottom: "inception_3a/1x1"
  bottom: "inception_3a/3x3"
  bottom: "inception_3a/5x5"
  bottom: "inception_3a/pool_proj"
  top: "inception_3a/output"
}
layer {
  name: "inception_3b/1x1"
  type: "Convolution"
  bottom: "inception_3a/output"
  top: "inception_3b/1x1"
  param {
    lr_mult: 1
    decay_mult: 1
  }
  param {
    lr_mult: 2
    decay_mult: 0
  }
  convolution_param {
    num_output: 128
    kernel_size: 1
    weight_filler {
      type: "xavier"
      std: 0.03
    }
    bias_filler {
      type: "constant"
      value: 0.2
    }
  }
}
layer {
  name: "inception_3b/relu_1x1"
  type: "ReLU"
  bottom: "inception_3b/1x1"
  top: "inception_3b/1x1"
}
layer {
  name: "inception_3b/3x3_reduce"
  type: "Convolution"
  bottom: "inception_3a/output"
  top: "inception_3b/3x3_reduce"
  param {
    lr_mult: 1
    decay_mult: 1
  }
  param {
    lr_mult: 2
    decay_mult: 0
  }
  convolution_param {
    num_output: 128
    kernel_size: 1
    weight_filler {
      type: "xavier"
      std: 0.09
    }
    bias_filler {
      type: "constant"
      value: 0.2
    }
  }
}
layer {
  name: "inception_3b/relu_3x3_reduce"
  type: "ReLU"
  bottom: "inception_3b/3x3_reduce"
  top: "inception_3b/3x3_reduce"
}
layer {
  name: "inception_3b/3x3"
  type: "Convolution"
  bottom: "inception_3b/3x3_reduce"
  top: "inception_3b/3x3"
  param {
    lr_mult: 1
    decay_mult: 1
  }
  param {
    lr_mult: 2
    decay_mult: 0
  }
  convolution_param {
    num_output: 192
    pad: 1
    kernel_size: 3
    weight_filler {
      type: "xavier"
      std: 0.03
    }
    bias_filler {
      type: "constant"
      value: 0.2
    }
  }
}
layer {
  name: "inception_3b/relu_3x3"
  type: "ReLU"
  bottom: "inception_3b/3x3"
  top: "inception_3b/3x3"
}
layer {
  name: "inception_3b/5x5_reduce"
  type: "Convolution"
  bottom: "inception_3a/output"
  top: "inception_3b/5x5_reduce"
  param {
    lr_mult: 1
    decay_mult: 1
  }
  param {
    lr_mult: 2
    decay_mult: 0
  }
  convolution_param {
    num_output: 32
    kernel_size: 1
    weight_filler {
      type: "xavier"
      std: 0.2
    }
    bias_filler {
      type: "constant"
      value: 0.2
    }
  }
}
layer {
  name: "inception_3b/relu_5x5_reduce"
  type: "ReLU"
  bottom: "inception_3b/5x5_reduce"
  top: "inception_3b/5x5_reduce"
}
layer {
  name: "inception_3b/5x5"
  type: "Convolution"
  bottom: "inception_3b/5x5_reduce"
  top: "inception_3b/5x5"
  param {
    lr_mult: 1
    decay_mult: 1
  }
  param {
    lr_mult: 2
    decay_mult: 0
  }
  convolution_param {
    num_output: 96
    pad: 2
    kernel_size: 5
    weight_filler {
      type: "xavier"
      std: 0.03
    }
    bias_filler {
      type: "constant"
      value: 0.2
    }
  }
}
layer {
  name: "inception_3b/relu_5x5"
  type: "ReLU"
  bottom: "inception_3b/5x5"
  top: "inception_3b/5x5"
}
layer {
  name: "inception_3b/pool"
  type: "Pooling"
  bottom: "inception_3a/output"
  top: "inception_3b/pool"
  pooling_param {
    pool: MAX
    kernel_size: 3
    stride: 1
    pad: 1
  }
}
layer {
  name: "inception_3b/pool_proj"
  type: "Convolution"
  bottom: "inception_3b/pool"
  top: "inception_3b/pool_proj"
  param {
    lr_mult: 1
    decay_mult: 1
  }
  param {
    lr_mult: 2
    decay_mult: 0
  }
  convolution_param {
    num_output: 64
    kernel_size: 1
    weight_filler {
      type: "xavier"
      std: 0.1
    }
    bias_filler {
      type: "constant"
      value: 0.2
    }
  }
}
layer {
  name: "inception_3b/relu_pool_proj"
  type: "ReLU"
  bottom: "inception_3b/pool_proj"
  top: "inception_3b/pool_proj"
}
layer {
  name: "inception_3b/output"
  type: "Concat"
  bottom: "inception_3b/1x1"
  bottom: "inception_3b/3x3"
  bottom: "inception_3b/5x5"
  bottom: "inception_3b/pool_proj"
  top: "inception_3b/output"
}
layer {
  name: "pool3/3x3_s2"
  type: "Pooling"
  bottom: "inception_3b/output"
  top: "pool3/3x3_s2"
  pooling_param {
    pool: MAX
    kernel_size: 3
    stride: 2
  }
}
layer {
  name: "inception_4a/1x1"
  type: "Convolution"
  bottom: "pool3/3x3_s2"
  top: "inception_4a/1x1"
  param {
    lr_mult: 1
    decay_mult: 1
  }
  param {
    lr_mult: 2
    decay_mult: 0
  }
  convolution_param {
    num_output: 192
    kernel_size: 1
    weight_filler {
      type: "xavier"
      std: 0.03
    }
    bias_filler {
      type: "constant"
      value: 0.2
    }
  }
}
layer {
  name: "inception_4a/relu_1x1"
  type: "ReLU"
  bottom: "inception_4a/1x1"
  top: "inception_4a/1x1"
}
layer {
  name: "inception_4a/3x3_reduce"
  type: "Convolution"
  bottom: "pool3/3x3_s2"
  top: "inception_4a/3x3_reduce"
  param {
    lr_mult: 1
    decay_mult: 1
  }
  param {
    lr_mult: 2
    decay_mult: 0
  }
  convolution_param {
    num_output: 96
    kernel_size: 1
    weight_filler {
      type: "xavier"
      std: 0.09
    }
    bias_filler {
      type: "constant"
      value: 0.2
    }
  }
}
layer {
  name: "inception_4a/relu_3x3_reduce"
  type: "ReLU"
  bottom: "inception_4a/3x3_reduce"
  top: "inception_4a/3x3_reduce"
}
layer {
  name: "inception_4a/3x3"
  type: "Convolution"
  bottom: "inception_4a/3x3_reduce"
  top: "inception_4a/3x3"
  param {
    lr_mult: 1
    decay_mult: 1
  }
  param {
    lr_mult: 2
    decay_mult: 0
  }
  convolution_param {
    num_output: 208
    pad: 1
    kernel_size: 3
    weight_filler {
      type: "xavier"
      std: 0.03
    }
    bias_filler {
      type: "constant"
      value: 0.2
    }
  }
}
layer {
  name: "inception_4a/relu_3x3"
  type: "ReLU"
  bottom: "inception_4a/3x3"
  top: "inception_4a/3x3"
}
layer {
  name: "inception_4a/5x5_reduce"
  type: "Convolution"
  bottom: "pool3/3x3_s2"
  top: "inception_4a/5x5_reduce"
  param {
    lr_mult: 1
    decay_mult: 1
  }
  param {
    lr_mult: 2
    decay_mult: 0
  }
  convolution_param {
    num_output: 16
    kernel_size: 1
    weight_filler {
      type: "xavier"
      std: 0.2
    }
    bias_filler {
      type: "constant"
      value: 0.2
    }
  }
}
layer {
  name: "inception_4a/relu_5x5_reduce"
  type: "ReLU"
  bottom: "inception_4a/5x5_reduce"
  top: "inception_4a/5x5_reduce"
}
layer {
  name: "inception_4a/5x5"
  type: "Convolution"
  bottom: "inception_4a/5x5_reduce"
  top: "inception_4a/5x5"
  param {
    lr_mult: 1
    decay_mult: 1
  }
  param {
    lr_mult: 2
    decay_mult: 0
  }
  convolution_param {
    num_output: 48
    pad: 2
    kernel_size: 5
    weight_filler {
      type: "xavier"
      std: 0.03
    }
    bias_filler {
      type: "constant"
      value: 0.2
    }
  }
}
layer {
  name: "inception_4a/relu_5x5"
  type: "ReLU"
  bottom: "inception_4a/5x5"
  top: "inception_4a/5x5"
}
layer {
  name: "inception_4a/pool"
  type: "Pooling"
  bottom: "pool3/3x3_s2"
  top: "inception_4a/pool"
  pooling_param {
    pool: MAX
    kernel_size: 3
    stride: 1
    pad: 1
  }
}
layer {
  name: "inception_4a/pool_proj"
  type: "Convolution"
  bottom: "inception_4a/pool"
  top: "inception_4a/pool_proj"
  param {
    lr_mult: 1
    decay_mult: 1
  }
  param {
    lr_mult: 2
    decay_mult: 0
  }
  convolution_param {
    num_output: 64
    kernel_size: 1
    weight_filler {
      type: "xavier"
      std: 0.1
    }
    bias_filler {
      type: "constant"
      value: 0.2
    }
  }
}
layer {
  name: "inception_4a/relu_pool_proj"
  type: "ReLU"
  bottom: "inception_4a/pool_proj"
  top: "inception_4a/pool_proj"
}
layer {
  name: "inception_4a/output"
  type: "Concat"
  bottom: "inception_4a/1x1"
  bottom: "inception_4a/3x3"
  bottom: "inception_4a/5x5"
  bottom: "inception_4a/pool_proj"
  top: "inception_4a/output"
}
layer {
  name: "loss1/ave_pool"
  type: "Pooling"
  bottom: "inception_4a/output"
  top: "loss1/ave_pool"
  pooling_param {
    pool: AVE
    kernel_size: 5
    stride: 3
  }
}
layer {
  name: "loss1/conv"
  type: "Convolution"
  bottom: "loss1/ave_pool"
  top: "loss1/conv"
  param {
    lr_mult: 1
    decay_mult: 1
  }
  param {
    lr_mult: 2
    decay_mult: 0
  }
  convolution_param {
    num_output: 128
    kernel_size: 1
    weight_filler {
      type: "xavier"
      std: 0.08
    }
    bias_filler {
      type: "constant"
      value: 0.2
    }
  }
}
layer {
  name: "loss1/relu_conv"
  type: "ReLU"
  bottom: "loss1/conv"
  top: "loss1/conv"
}
layer {
  name: "loss1/fc"
  type: "InnerProduct"
  bottom: "loss1/conv"
  top: "loss1/fc"
  param {
    lr_mult: 1
    decay_mult: 1
  }
  param {
    lr_mult: 2
    decay_mult: 0
  }
  inner_product_param {
    num_output: 1024
    weight_filler {
      type: "xavier"
      std: 0.02
    }
    bias_filler {
      type: "constant"
      value: 0.2
    }
  }
}
layer {
  name: "loss1/relu_fc"
  type: "ReLU"
  bottom: "loss1/fc"
  top: "loss1/fc"
}
layer {
  name: "loss1/drop_fc"
  type: "Dropout"
  bottom: "loss1/fc"
  top: "loss1/fc"
  dropout_param {
    dropout_ratio: 0.7
  }
}
layer {
  name: "loss1/classifier_plantvillage"
  type: "InnerProduct"
  bottom: "loss1/fc"
  top: "loss1/classifier_plantvillage"
  param {
    lr_mult: 1
    decay_mult: 1
  }
  param {
    lr_mult: 2
    decay_mult: 0
  }
  inner_product_param {
    num_output: 38
    weight_filler {
      type: "xavier"
      std: 0.0009765625
    }
    bias_filler {
      type: "constant"
      value: 0
    }
  }
}
layer {
  name: "inception_4b/1x1"
  type: "Convolution"
  bottom: "inception_4a/output"
  top: "inception_4b/1x1"
  param {
    lr_mult: 1
    decay_mult: 1
  }
  param {
    lr_mult: 2
    decay_mult: 0
  }
  convolution_param {
    num_output: 160
    kernel_size: 1
    weight_filler {
      type: "xavier"
      std: 0.03
    }
    bias_filler {
      type: "constant"
      value: 0.2
    }
  }
}
layer {
  name: "inception_4b/relu_1x1"
  type: "ReLU"
  bottom: "inception_4b/1x1"
  top: "inception_4b/1x1"
}
layer {
  name: "inception_4b/3x3_reduce"
  type: "Convolution"
  bottom: "inception_4a/output"
  top: "inception_4b/3x3_reduce"
  param {
    lr_mult: 1
    decay_mult: 1
  }
  param {
    lr_mult: 2
    decay_mult: 0
  }
  convolution_param {
    num_output: 112
    kernel_size: 1
    weight_filler {
      type: "xavier"
      std: 0.09
    }
    bias_filler {
      type: "constant"
      value: 0.2
    }
  }
}
layer {
  name: "inception_4b/relu_3x3_reduce"
  type: "ReLU"
  bottom: "inception_4b/3x3_reduce"
  top: "inception_4b/3x3_reduce"
}
layer {
  name: "inception_4b/3x3"
  type: "Convolution"
  bottom: "inception_4b/3x3_reduce"
  top: "inception_4b/3x3"
  param {
    lr_mult: 1
    decay_mult: 1
  }
  param {
    lr_mult: 2
    decay_mult: 0
  }
  convolution_param {
    num_output: 224
    pad: 1
    kernel_size: 3
    weight_filler {
      type: "xavier"
      std: 0.03
    }
    bias_filler {
      type: "constant"
      value: 0.2
    }
  }
}
layer {
  name: "inception_4b/relu_3x3"
  type: "ReLU"
  bottom: "inception_4b/3x3"
  top: "inception_4b/3x3"
}
layer {
  name: "inception_4b/5x5_reduce"
  type: "Convolution"
  bottom: "inception_4a/output"
  top: "inception_4b/5x5_reduce"
  param {
    lr_mult: 1
    decay_mult: 1
  }
  param {
    lr_mult: 2
    decay_mult: 0
  }
  convolution_param {
    num_output: 24
    kernel_size: 1
    weight_filler {
      type: "xavier"
      std: 0.2
    }
    bias_filler {
      type: "constant"
      value: 0.2
    }
  }
}
layer {
  name: "inception_4b/relu_5x5_reduce"
  type: "ReLU"
  bottom: "inception_4b/5x5_reduce"
  top: "inception_4b/5x5_reduce"
}
layer {
  name: "inception_4b/5x5"
  type: "Convolution"
  bottom: "inception_4b/5x5_reduce"
  top: "inception_4b/5x5"
  param {
    lr_mult: 1
    decay_mult: 1
  }
  param {
    lr_mult: 2
    decay_mult: 0
  }
  convolution_param {
    num_output: 64
    pad: 2
    kernel_size: 5
    weight_filler {
      type: "xavier"
      std: 0.03
    }
    bias_filler {
      type: "constant"
      value: 0.2
    }
  }
}
layer {
  name: "inception_4b/relu_5x5"
  type: "ReLU"
  bottom: "inception_4b/5x5"
  top: "inception_4b/5x5"
}
layer {
  name: "inception_4b/pool"
  type: "Pooling"
  bottom: "inception_4a/output"
  top: "inception_4b/pool"
  pooling_param {
    pool: MAX
    kernel_size: 3
    stride: 1
    pad: 1
  }
}
layer {
  name: "inception_4b/pool_proj"
  type: "Convolution"
  bottom: "inception_4b/pool"
  top: "inception_4b/pool_proj"
  param {
    lr_mult: 1
    decay_mult: 1
  }
  param {
    lr_mult: 2
    decay_mult: 0
  }
  convolution_param {
    num_output: 64
    kernel_size: 1
    weight_filler {
      type: "xavier"
      std: 0.1
    }
    bias_filler {
      type: "constant"
      value: 0.2
    }
  }
}
layer {
  name: "inception_4b/relu_pool_proj"
  type: "ReLU"
  bottom: "inception_4b/pool_proj"
  top: "inception_4b/pool_proj"
}
layer {
  name: "inception_4b/output"
  type: "Concat"
  bottom: "inception_4b/1x1"
  bottom: "inception_4b/3x3"
  bottom: "inception_4b/5x5"
  bottom: "inception_4b/pool_proj"
  top: "inception_4b/output"
}
layer {
  name: "inception_4c/1x1"
  type: "Convolution"
  bottom: "inception_4b/output"
  top: "inception_4c/1x1"
  param {
    lr_mult: 1
    decay_mult: 1
  }
  param {
    lr_mult: 2
    decay_mult: 0
  }
  convolution_param {
    num_output: 128
    kernel_size: 1
    weight_filler {
      type: "xavier"
      std: 0.03
    }
    bias_filler {
      type: "constant"
      value: 0.2
    }
  }
}
layer {
  name: "inception_4c/relu_1x1"
  type: "ReLU"
  bottom: "inception_4c/1x1"
  top: "inception_4c/1x1"
}
layer {
  name: "inception_4c/3x3_reduce"
  type: "Convolution"
  bottom: "inception_4b/output"
  top: "inception_4c/3x3_reduce"
  param {
    lr_mult: 1
    decay_mult: 1
  }
  param {
    lr_mult: 2
    decay_mult: 0
  }
  convolution_param {
    num_output: 128
    kernel_size: 1
    weight_filler {
      type: "xavier"
      std: 0.09
    }
    bias_filler {
      type: "constant"
      value: 0.2
    }
  }
}
layer {
  name: "inception_4c/relu_3x3_reduce"
  type: "ReLU"
  bottom: "inception_4c/3x3_reduce"
  top: "inception_4c/3x3_reduce"
}
layer {
  name: "inception_4c/3x3"
  type: "Convolution"
  bottom: "inception_4c/3x3_reduce"
  top: "inception_4c/3x3"
  param {
    lr_mult: 1
    decay_mult: 1
  }
  param {
    lr_mult: 2
    decay_mult: 0
  }
  convolution_param {
    num_output: 256
    pad: 1
    kernel_size: 3
    weight_filler {
      type: "xavier"
      std: 0.03
    }
    bias_filler {
      type: "constant"
      value: 0.2
    }
  }
}
layer {
  name: "inception_4c/relu_3x3"
  type: "ReLU"
  bottom: "inception_4c/3x3"
  top: "inception_4c/3x3"
}
layer {
  name: "inception_4c/5x5_reduce"
  type: "Convolution"
  bottom: "inception_4b/output"
  top: "inception_4c/5x5_reduce"
  param {
    lr_mult: 1
    decay_mult: 1
  }
  param {
    lr_mult: 2
    decay_mult: 0
  }
  convolution_param {
    num_output: 24
    kernel_size: 1
    weight_filler {
      type: "xavier"
      std: 0.2
    }
    bias_filler {
      type: "constant"
      value: 0.2
    }
  }
}
layer {
  name: "inception_4c/relu_5x5_reduce"
  type: "ReLU"
  bottom: "inception_4c/5x5_reduce"
  top: "inception_4c/5x5_reduce"
}
layer {
  name: "inception_4c/5x5"
  type: "Convolution"
  bottom: "inception_4c/5x5_reduce"
  top: "inception_4c/5x5"
  param {
    lr_mult: 1
    decay_mult: 1
  }
  param {
    lr_mult: 2
    decay_mult: 0
  }
  convolution_param {
    num_output: 64
    pad: 2
    kernel_size: 5
    weight_filler {
      type: "xavier"
      std: 0.03
    }
    bias_filler {
      type: "constant"
      value: 0.2
    }
  }
}
layer {
  name: "inception_4c/relu_5x5"
  type: "ReLU"
  bottom: "inception_4c/5x5"
  top: "inception_4c/5x5"
}
layer {
  name: "inception_4c/pool"
  type: "Pooling"
  bottom: "inception_4b/output"
  top: "inception_4c/pool"
  pooling_param {
    pool: MAX
    kernel_size: 3
    stride: 1
    pad: 1
  }
}
layer {
  name: "inception_4c/pool_proj"
  type: "Convolution"
  bottom: "inception_4c/pool"
  top: "inception_4c/pool_proj"
  param {
    lr_mult: 1
    decay_mult: 1
  }
  param {
    lr_mult: 2
    decay_mult: 0
  }
  convolution_param {
    num_output: 64
    kernel_size: 1
    weight_filler {
      type: "xavier"
      std: 0.1
    }
    bias_filler {
      type: "constant"
      value: 0.2
    }
  }
}
layer {
  name: "inception_4c/relu_pool_proj"
  type: "ReLU"
  bottom: "inception_4c/pool_proj"
  top: "inception_4c/pool_proj"
}
layer {
  name: "inception_4c/output"
  type: "Concat"
  bottom: "inception_4c/1x1"
  bottom: "inception_4c/3x3"
  bottom: "inception_4c/5x5"
  bottom: "inception_4c/pool_proj"
  top: "inception_4c/output"
}
layer {
  name: "inception_4d/1x1"
  type: "Convolution"
  bottom: "inception_4c/output"
  top: "inception_4d/1x1"
  param {
    lr_mult: 1
    decay_mult: 1
  }
  param {
    lr_mult: 2
    decay_mult: 0
  }
  convolution_param {
    num_output: 112
    kernel_size: 1
    weight_filler {
      type: "xavier"
      std: 0.03
    }
    bias_filler {
      type: "constant"
      value: 0.2
    }
  }
}
layer {
  name: "inception_4d/relu_1x1"
  type: "ReLU"
  bottom: "inception_4d/1x1"
  top: "inception_4d/1x1"
}
layer {
  name: "inception_4d/3x3_reduce"
  type: "Convolution"
  bottom: "inception_4c/output"
  top: "inception_4d/3x3_reduce"
  param {
    lr_mult: 1
    decay_mult: 1
  }
  param {
    lr_mult: 2
    decay_mult: 0
  }
  convolution_param {
    num_output: 144
    kernel_size: 1
    weight_filler {
      type: "xavier"
      std: 0.09
    }
    bias_filler {
      type: "constant"
      value: 0.2
    }
  }
}
layer {
  name: "inception_4d/relu_3x3_reduce"
  type: "ReLU"
  bottom: "inception_4d/3x3_reduce"
  top: "inception_4d/3x3_reduce"
}
layer {
  name: "inception_4d/3x3"
  type: "Convolution"
  bottom: "inception_4d/3x3_reduce"
  top: "inception_4d/3x3"
  param {
    lr_mult: 1
    decay_mult: 1
  }
  param {
    lr_mult: 2
    decay_mult: 0
  }
  convolution_param {
    num_output: 288
    pad: 1
    kernel_size: 3
    weight_filler {
      type: "xavier"
      std: 0.03
    }
    bias_filler {
      type: "constant"
      value: 0.2
    }
  }
}
layer {
  name: "inception_4d/relu_3x3"
  type: "ReLU"
  bottom: "inception_4d/3x3"
  top: "inception_4d/3x3"
}
layer {
  name: "inception_4d/5x5_reduce"
  type: "Convolution"
  bottom: "inception_4c/output"
  top: "inception_4d/5x5_reduce"
  param {
    lr_mult: 1
    decay_mult: 1
  }
  param {
    lr_mult: 2
    decay_mult: 0
  }
  convolution_param {
    num_output: 32
    kernel_size: 1
    weight_filler {
      type: "xavier"
      std: 0.2
    }
    bias_filler {
      type: "constant"
      value: 0.2
    }
  }
}
layer {
  name: "inception_4d/relu_5x5_reduce"
  type: "ReLU"
  bottom: "inception_4d/5x5_reduce"
  top: "inception_4d/5x5_reduce"
}
layer {
  name: "inception_4d/5x5"
  type: "Convolution"
  bottom: "inception_4d/5x5_reduce"
  top: "inception_4d/5x5"
  param {
    lr_mult: 1
    decay_mult: 1
  }
  param {
    lr_mult: 2
    decay_mult: 0
  }
  convolution_param {
    num_output: 64
    pad: 2
    kernel_size: 5
    weight_filler {
      type: "xavier"
      std: 0.03
    }
    bias_filler {
      type: "constant"
      value: 0.2
    }
  }
}
layer {
  name: "inception_4d/relu_5x5"
  type: "ReLU"
  bottom: "inception_4d/5x5"
  top: "inception_4d/5x5"
}
layer {
  name: "inception_4d/pool"
  type: "Pooling"
  bottom: "inception_4c/output"
  top: "inception_4d/pool"
  pooling_param {
    pool: MAX
    kernel_size: 3
    stride: 1
    pad: 1
  }
}
layer {
  name: "inception_4d/pool_proj"
  type: "Convolution"
  bottom: "inception_4d/pool"
  top: "inception_4d/pool_proj"
  param {
    lr_mult: 1
    decay_mult: 1
  }
  param {
    lr_mult: 2
    decay_mult: 0
  }
  convolution_param {
    num_output: 64
    kernel_size: 1
    weight_filler {
      type: "xavier"
      std: 0.1
    }
    bias_filler {
      type: "constant"
      value: 0.2
    }
  }
}
layer {
  name: "inception_4d/relu_pool_proj"
  type: "ReLU"
  bottom: "inception_4d/pool_proj"
  top: "inception_4d/pool_proj"
}
layer {
  name: "inception_4d/output"
  type: "Concat"
  bottom: "inception_4d/1x1"
  bottom: "inception_4d/3x3"
  bottom: "inception_4d/5x5"
  bottom: "inception_4d/pool_proj"
  top: "inception_4d/output"
}
layer {
  name: "loss2/ave_pool"
  type: "Pooling"
  bottom: "inception_4d/output"
  top: "loss2/ave_pool"
  pooling_param {
    pool: AVE
    kernel_size: 5
    stride: 3
  }
}
layer {
  name: "loss2/conv"
  type: "Convolution"
  bottom: "loss2/ave_pool"
  top: "loss2/conv"
  param {
    lr_mult: 1
    decay_mult: 1
  }
  param {
    lr_mult: 2
    decay_mult: 0
  }
  convolution_param {
    num_output: 128
    kernel_size: 1
    weight_filler {
      type: "xavier"
      std: 0.08
    }
    bias_filler {
      type: "constant"
      value: 0.2
    }
  }
}
layer {
  name: "loss2/relu_conv"
  type: "ReLU"
  bottom: "loss2/conv"
  top: "loss2/conv"
}
layer {
  name: "loss2/fc"
  type: "InnerProduct"
  bottom: "loss2/conv"
  top: "loss2/fc"
  param {
    lr_mult: 1
    decay_mult: 1
  }
  param {
    lr_mult: 2
    decay_mult: 0
  }
  inner_product_param {
    num_output: 1024
    weight_filler {
      type: "xavier"
      std: 0.02
    }
    bias_filler {
      type: "constant"
      value: 0.2
    }
  }
}
layer {
  name: "loss2/relu_fc"
  type: "ReLU"
  bottom: "loss2/fc"
  top: "loss2/fc"
}
layer {
  name: "loss2/drop_fc"
  type: "Dropout"
  bottom: "loss2/fc"
  top: "loss2/fc"
  dropout_param {
    dropout_ratio: 0.7
  }
}
layer {
  name: "loss2/classifier_plantvillage"
  type: "InnerProduct"
  bottom: "loss2/fc"
  top: "loss2/classifier_plantvillage"
  param {
    lr_mult: 1
    decay_mult: 1
  }
  param {
    lr_mult: 2
    decay_mult: 0
  }
  inner_product_param {
    num_output: 38
    weight_filler {
      type: "xavier"
      std: 0.0009765625
    }
    bias_filler {
      type: "constant"
      value: 0
    }
  }
}
layer {
  name: "inception_4e/1x1"
  type: "Convolution"
  bottom: "inception_4d/output"
  top: "inception_4e/1x1"
  param {
    lr_mult: 1
    decay_mult: 1
  }
  param {
    lr_mult: 2
    decay_mult: 0
  }
  convolution_param {
    num_output: 256
    kernel_size: 1
    weight_filler {
      type: "xavier"
      std: 0.03
    }
    bias_filler {
      type: "constant"
      value: 0.2
    }
  }
}
layer {
  name: "inception_4e/relu_1x1"
  type: "ReLU"
  bottom: "inception_4e/1x1"
  top: "inception_4e/1x1"
}
layer {
  name: "inception_4e/3x3_reduce"
  type: "Convolution"
  bottom: "inception_4d/output"
  top: "inception_4e/3x3_reduce"
  param {
    lr_mult: 1
    decay_mult: 1
  }
  param {
    lr_mult: 2
    decay_mult: 0
  }
  convolution_param {
    num_output: 160
    kernel_size: 1
    weight_filler {
      type: "xavier"
      std: 0.09
    }
    bias_filler {
      type: "constant"
      value: 0.2
    }
  }
}
layer {
  name: "inception_4e/relu_3x3_reduce"
  type: "ReLU"
  bottom: "inception_4e/3x3_reduce"
  top: "inception_4e/3x3_reduce"
}
layer {
  name: "inception_4e/3x3"
  type: "Convolution"
  bottom: "inception_4e/3x3_reduce"
  top: "inception_4e/3x3"
  param {
    lr_mult: 1
    decay_mult: 1
  }
  param {
    lr_mult: 2
    decay_mult: 0
  }
  convolution_param {
    num_output: 320
    pad: 1
    kernel_size: 3
    weight_filler {
      type: "xavier"
      std: 0.03
    }
    bias_filler {
      type: "constant"
      value: 0.2
    }
  }
}
layer {
  name: "inception_4e/relu_3x3"
  type: "ReLU"
  bottom: "inception_4e/3x3"
  top: "inception_4e/3x3"
}
layer {
  name: "inception_4e/5x5_reduce"
  type: "Convolution"
  bottom: "inception_4d/output"
  top: "inception_4e/5x5_reduce"
  param {
    lr_mult: 1
    decay_mult: 1
  }
  param {
    lr_mult: 2
    decay_mult: 0
  }
  convolution_param {
    num_output: 32
    kernel_size: 1
    weight_filler {
      type: "xavier"
      std: 0.2
    }
    bias_filler {
      type: "constant"
      value: 0.2
    }
  }
}
layer {
  name: "inception_4e/relu_5x5_reduce"
  type: "ReLU"
  bottom: "inception_4e/5x5_reduce"
  top: "inception_4e/5x5_reduce"
}
layer {
  name: "inception_4e/5x5"
  type: "Convolution"
  bottom: "inception_4e/5x5_reduce"
  top: "inception_4e/
I0403 17:58:04.011657  6342 layer_factory.hpp:77] Creating layer data
I0403 17:58:04.012270  6342 net.cpp:91] Creating Layer data
I0403 17:58:04.012302  6342 net.cpp:399] data -> data
I0403 17:58:04.012354  6342 net.cpp:399] data -> label
I0403 17:58:04.012390  6342 data_transformer.cpp:25] Loading mean file from: /home/mohanty/data/final_dataset/lmdb/grayscale-40-60/mean.binaryproto
I0403 17:58:04.013629  6345 db_lmdb.cpp:38] Opened lmdb /home/mohanty/data/final_dataset/lmdb/grayscale-40-60/test_db
I0403 17:58:04.026031  6342 data_layer.cpp:41] output data size: 24,3,224,224
I0403 17:58:04.053930  6342 net.cpp:141] Setting up data
I0403 17:58:04.054033  6342 net.cpp:148] Top shape: 24 3 224 224 (3612672)
I0403 17:58:04.054055  6342 net.cpp:148] Top shape: 24 (24)
I0403 17:58:04.054070  6342 net.cpp:156] Memory required for data: 14450784
I0403 17:58:04.054097  6342 layer_factory.hpp:77] Creating layer label_data_1_split
I0403 17:58:04.054124  6342 net.cpp:91] Creating Layer label_data_1_split
I0403 17:58:04.054143  6342 net.cpp:425] label_data_1_split <- label
I0403 17:58:04.054175  6342 net.cpp:399] label_data_1_split -> label_data_1_split_0
I0403 17:58:04.054203  6342 net.cpp:399] label_data_1_split -> label_data_1_split_1
I0403 17:58:04.054226  6342 net.cpp:399] label_data_1_split -> label_data_1_split_2
I0403 17:58:04.054252  6342 net.cpp:399] label_data_1_split -> label_data_1_split_3
I0403 17:58:04.054273  6342 net.cpp:399] label_data_1_split -> label_data_1_split_4
I0403 17:58:04.054294  6342 net.cpp:399] label_data_1_split -> label_data_1_split_5
I0403 17:58:04.054314  6342 net.cpp:399] label_data_1_split -> label_data_1_split_6
I0403 17:58:04.054335  6342 net.cpp:399] label_data_1_split -> label_data_1_split_7
I0403 17:58:04.054357  6342 net.cpp:399] label_data_1_split -> label_data_1_split_8
I0403 17:58:04.054376  6342 net.cpp:399] label_data_1_split -> label_data_1_split_9
I0403 17:58:04.054497  6342 net.cpp:141] Setting up label_data_1_split
I0403 17:58:04.054520  6342 net.cpp:148] Top shape: 24 (24)
I0403 17:58:04.054538  6342 net.cpp:148] Top shape: 24 (24)
I0403 17:58:04.054554  6342 net.cpp:148] Top shape: 24 (24)
I0403 17:58:04.054571  6342 net.cpp:148] Top shape: 24 (24)
I0403 17:58:04.054587  6342 net.cpp:148] Top shape: 24 (24)
I0403 17:58:04.054603  6342 net.cpp:148] Top shape: 24 (24)
I0403 17:58:04.054620  6342 net.cpp:148] Top shape: 24 (24)
I0403 17:58:04.054636  6342 net.cpp:148] Top shape: 24 (24)
I0403 17:58:04.054651  6342 net.cpp:148] Top shape: 24 (24)
I0403 17:58:04.054668  6342 net.cpp:148] Top shape: 24 (24)
I0403 17:58:04.054713  6342 net.cpp:156] Memory required for data: 14451744
I0403 17:58:04.054729  6342 layer_factory.hpp:77] Creating layer conv1/7x7_s2
I0403 17:58:04.054761  6342 net.cpp:91] Creating Layer conv1/7x7_s2
I0403 17:58:04.054780  6342 net.cpp:425] conv1/7x7_s2 <- data
I0403 17:58:04.054800  6342 net.cpp:399] conv1/7x7_s2 -> conv1/7x7_s2
I0403 17:58:04.191612  6342 net.cpp:141] Setting up conv1/7x7_s2
I0403 17:58:04.191700  6342 net.cpp:148] Top shape: 24 64 112 112 (19267584)
I0403 17:58:04.191717  6342 net.cpp:156] Memory required for data: 91522080
I0403 17:58:04.191748  6342 layer_factory.hpp:77] Creating layer conv1/relu_7x7
I0403 17:58:04.191774  6342 net.cpp:91] Creating Layer conv1/relu_7x7
I0403 17:58:04.191792  6342 net.cpp:425] conv1/relu_7x7 <- conv1/7x7_s2
I0403 17:58:04.191810  6342 net.cpp:386] conv1/relu_7x7 -> conv1/7x7_s2 (in-place)
I0403 17:58:04.192062  6342 net.cpp:141] Setting up conv1/relu_7x7
I0403 17:58:04.192090  6342 net.cpp:148] Top shape: 24 64 112 112 (19267584)
I0403 17:58:04.192104  6342 net.cpp:156] Memory required for data: 168592416
I0403 17:58:04.192119  6342 layer_factory.hpp:77] Creating layer pool1/3x3_s2
I0403 17:58:04.192143  6342 net.cpp:91] Creating Layer pool1/3x3_s2
I0403 17:58:04.192160  6342 net.cpp:425] pool1/3x3_s2 <- conv1/7x7_s2
I0403 17:58:04.192179  6342 net.cpp:399] pool1/3x3_s2 -> pool1/3x3_s2
I0403 17:58:04.192250  6342 net.cpp:141] Setting up pool1/3x3_s2
I0403 17:58:04.192283  6342 net.cpp:148] Top shape: 24 64 56 56 (4816896)
I0403 17:58:04.192301  6342 net.cpp:156] Memory required for data: 187860000
I0403 17:58:04.192317  6342 layer_factory.hpp:77] Creating layer pool1/norm1
I0403 17:58:04.192342  6342 net.cpp:91] Creating Layer pool1/norm1
I0403 17:58:04.192358  6342 net.cpp:425] pool1/norm1 <- pool1/3x3_s2
I0403 17:58:04.192375  6342 net.cpp:399] pool1/norm1 -> pool1/norm1
I0403 17:58:04.192662  6342 net.cpp:141] Setting up pool1/norm1
I0403 17:58:04.192690  6342 net.cpp:148] Top shape: 24 64 56 56 (4816896)
I0403 17:58:04.192706  6342 net.cpp:156] Memory required for data: 207127584
I0403 17:58:04.192723  6342 layer_factory.hpp:77] Creating layer conv2/3x3_reduce
I0403 17:58:04.192750  6342 net.cpp:91] Creating Layer conv2/3x3_reduce
I0403 17:58:04.192766  6342 net.cpp:425] conv2/3x3_reduce <- pool1/norm1
I0403 17:58:04.192785  6342 net.cpp:399] conv2/3x3_reduce -> conv2/3x3_reduce
I0403 17:58:04.194079  6342 net.cpp:141] Setting up conv2/3x3_reduce
I0403 17:58:04.194108  6342 net.cpp:148] Top shape: 24 64 56 56 (4816896)
I0403 17:58:04.194124  6342 net.cpp:156] Memory required for data: 226395168
I0403 17:58:04.194145  6342 layer_factory.hpp:77] Creating layer conv2/relu_3x3_reduce
I0403 17:58:04.194164  6342 net.cpp:91] Creating Layer conv2/relu_3x3_reduce
I0403 17:58:04.194180  6342 net.cpp:425] conv2/relu_3x3_reduce <- conv2/3x3_reduce
I0403 17:58:04.194196  6342 net.cpp:386] conv2/relu_3x3_reduce -> conv2/3x3_reduce (in-place)
I0403 17:58:04.194456  6342 net.cpp:141] Setting up conv2/relu_3x3_reduce
I0403 17:58:04.194483  6342 net.cpp:148] Top shape: 24 64 56 56 (4816896)
I0403 17:58:04.194496  6342 net.cpp:156] Memory required for data: 245662752
I0403 17:58:04.194512  6342 layer_factory.hpp:77] Creating layer conv2/3x3
I0403 17:58:04.194533  6342 net.cpp:91] Creating Layer conv2/3x3
I0403 17:58:04.194550  6342 net.cpp:425] conv2/3x3 <- conv2/3x3_reduce
I0403 17:58:04.194569  6342 net.cpp:399] conv2/3x3 -> conv2/3x3
I0403 17:58:04.196779  6342 net.cpp:141] Setting up conv2/3x3
I0403 17:58:04.196808  6342 net.cpp:148] Top shape: 24 192 56 56 (14450688)
I0403 17:58:04.196825  6342 net.cpp:156] Memory required for data: 303465504
I0403 17:58:04.196848  6342 layer_factory.hpp:77] Creating layer conv2/relu_3x3
I0403 17:58:04.196869  6342 net.cpp:91] Creating Layer conv2/relu_3x3
I0403 17:58:04.196884  6342 net.cpp:425] conv2/relu_3x3 <- conv2/3x3
I0403 17:58:04.196902  6342 net.cpp:386] conv2/relu_3x3 -> conv2/3x3 (in-place)
I0403 17:58:04.197064  6342 net.cpp:141] Setting up conv2/relu_3x3
I0403 17:58:04.197091  6342 net.cpp:148] Top shape: 24 192 56 56 (14450688)
I0403 17:58:04.197139  6342 net.cpp:156] Memory required for data: 361268256
I0403 17:58:04.197154  6342 layer_factory.hpp:77] Creating layer conv2/norm2
I0403 17:58:04.197171  6342 net.cpp:91] Creating Layer conv2/norm2
I0403 17:58:04.197187  6342 net.cpp:425] conv2/norm2 <- conv2/3x3
I0403 17:58:04.197207  6342 net.cpp:399] conv2/norm2 -> conv2/norm2
I0403 17:58:04.197517  6342 net.cpp:141] Setting up conv2/norm2
I0403 17:58:04.197543  6342 net.cpp:148] Top shape: 24 192 56 56 (14450688)
I0403 17:58:04.197558  6342 net.cpp:156] Memory required for data: 419071008
I0403 17:58:04.197572  6342 layer_factory.hpp:77] Creating layer pool2/3x3_s2
I0403 17:58:04.197590  6342 net.cpp:91] Creating Layer pool2/3x3_s2
I0403 17:58:04.197605  6342 net.cpp:425] pool2/3x3_s2 <- conv2/norm2
I0403 17:58:04.197626  6342 net.cpp:399] pool2/3x3_s2 -> pool2/3x3_s2
I0403 17:58:04.197679  6342 net.cpp:141] Setting up pool2/3x3_s2
I0403 17:58:04.197702  6342 net.cpp:148] Top shape: 24 192 28 28 (3612672)
I0403 17:58:04.197716  6342 net.cpp:156] Memory required for data: 433521696
I0403 17:58:04.197731  6342 layer_factory.hpp:77] Creating layer pool2/3x3_s2_pool2/3x3_s2_0_split
I0403 17:58:04.197748  6342 net.cpp:91] Creating Layer pool2/3x3_s2_pool2/3x3_s2_0_split
I0403 17:58:04.197763  6342 net.cpp:425] pool2/3x3_s2_pool2/3x3_s2_0_split <- pool2/3x3_s2
I0403 17:58:04.197782  6342 net.cpp:399] pool2/3x3_s2_pool2/3x3_s2_0_split -> pool2/3x3_s2_pool2/3x3_s2_0_split_0
I0403 17:58:04.197803  6342 net.cpp:399] pool2/3x3_s2_pool2/3x3_s2_0_split -> pool2/3x3_s2_pool2/3x3_s2_0_split_1
I0403 17:58:04.197824  6342 net.cpp:399] pool2/3x3_s2_pool2/3x3_s2_0_split -> pool2/3x3_s2_pool2/3x3_s2_0_split_2
I0403 17:58:04.197844  6342 net.cpp:399] pool2/3x3_s2_pool2/3x3_s2_0_split -> pool2/3x3_s2_pool2/3x3_s2_0_split_3
I0403 17:58:04.197916  6342 net.cpp:141] Setting up pool2/3x3_s2_pool2/3x3_s2_0_split
I0403 17:58:04.197940  6342 net.cpp:148] Top shape: 24 192 28 28 (3612672)
I0403 17:58:04.197957  6342 net.cpp:148] Top shape: 24 192 28 28 (3612672)
I0403 17:58:04.197973  6342 net.cpp:148] Top shape: 24 192 28 28 (3612672)
I0403 17:58:04.197988  6342 net.cpp:148] Top shape: 24 192 28 28 (3612672)
I0403 17:58:04.198001  6342 net.cpp:156] Memory required for data: 491324448
I0403 17:58:04.198016  6342 layer_factory.hpp:77] Creating layer inception_3a/1x1
I0403 17:58:04.198040  6342 net.cpp:91] Creating Layer inception_3a/1x1
I0403 17:58:04.198057  6342 net.cpp:425] inception_3a/1x1 <- pool2/3x3_s2_pool2/3x3_s2_0_split_0
I0403 17:58:04.198076  6342 net.cpp:399] inception_3a/1x1 -> inception_3a/1x1
I0403 17:58:04.199600  6342 net.cpp:141] Setting up inception_3a/1x1
I0403 17:58:04.199631  6342 net.cpp:148] Top shape: 24 64 28 28 (1204224)
I0403 17:58:04.199650  6342 net.cpp:156] Memory required for data: 496141344
I0403 17:58:04.199669  6342 layer_factory.hpp:77] Creating layer inception_3a/relu_1x1
I0403 17:58:04.199689  6342 net.cpp:91] Creating Layer inception_3a/relu_1x1
I0403 17:58:04.199707  6342 net.cpp:425] inception_3a/relu_1x1 <- inception_3a/1x1
I0403 17:58:04.199724  6342 net.cpp:386] inception_3a/relu_1x1 -> inception_3a/1x1 (in-place)
I0403 17:58:04.199898  6342 net.cpp:141] Setting up inception_3a/relu_1x1
I0403 17:58:04.199925  6342 net.cpp:148] Top shape: 24 64 28 28 (1204224)
I0403 17:58:04.199940  6342 net.cpp:156] Memory required for data: 500958240
I0403 17:58:04.199955  6342 layer_factory.hpp:77] Creating layer inception_3a/3x3_reduce
I0403 17:58:04.199975  6342 net.cpp:91] Creating Layer inception_3a/3x3_reduce
I0403 17:58:04.199991  6342 net.cpp:425] inception_3a/3x3_reduce <- pool2/3x3_s2_pool2/3x3_s2_0_split_1
I0403 17:58:04.200011  6342 net.cpp:399] inception_3a/3x3_reduce -> inception_3a/3x3_reduce
I0403 17:58:04.201756  6342 net.cpp:141] Setting up inception_3a/3x3_reduce
I0403 17:58:04.201787  6342 net.cpp:148] Top shape: 24 96 28 28 (1806336)
I0403 17:58:04.201803  6342 net.cpp:156] Memory required for data: 508183584
I0403 17:58:04.201828  6342 layer_factory.hpp:77] Creating layer inception_3a/relu_3x3_reduce
I0403 17:58:04.201864  6342 net.cpp:91] Creating Layer inception_3a/relu_3x3_reduce
I0403 17:58:04.201881  6342 net.cpp:425] inception_3a/relu_3x3_reduce <- inception_3a/3x3_reduce
I0403 17:58:04.201900  6342 net.cpp:386] inception_3a/relu_3x3_reduce -> inception_3a/3x3_reduce (in-place)
I0403 17:58:04.202085  6342 net.cpp:141] Setting up inception_3a/relu_3x3_reduce
I0403 17:58:04.202111  6342 net.cpp:148] Top shape: 24 96 28 28 (1806336)
I0403 17:58:04.202126  6342 net.cpp:156] Memory required for data: 515408928
I0403 17:58:04.202141  6342 layer_factory.hpp:77] Creating layer inception_3a/3x3
I0403 17:58:04.202165  6342 net.cpp:91] Creating Layer inception_3a/3x3
I0403 17:58:04.202183  6342 net.cpp:425] inception_3a/3x3 <- inception_3a/3x3_reduce
I0403 17:58:04.202204  6342 net.cpp:399] inception_3a/3x3 -> inception_3a/3x3
I0403 17:58:04.203901  6342 net.cpp:141] Setting up inception_3a/3x3
I0403 17:58:04.203929  6342 net.cpp:148] Top shape: 24 128 28 28 (2408448)
I0403 17:58:04.203944  6342 net.cpp:156] Memory required for data: 525042720
I0403 17:58:04.203963  6342 layer_factory.hpp:77] Creating layer inception_3a/relu_3x3
I0403 17:58:04.203987  6342 net.cpp:91] Creating Layer inception_3a/relu_3x3
I0403 17:58:04.204005  6342 net.cpp:425] inception_3a/relu_3x3 <- inception_3a/3x3
I0403 17:58:04.204023  6342 net.cpp:386] inception_3a/relu_3x3 -> inception_3a/3x3 (in-place)
I0403 17:58:04.204309  6342 net.cpp:141] Setting up inception_3a/relu_3x3
I0403 17:58:04.204336  6342 net.cpp:148] Top shape: 24 128 28 28 (2408448)
I0403 17:58:04.204351  6342 net.cpp:156] Memory required for data: 534676512
I0403 17:58:04.204366  6342 layer_factory.hpp:77] Creating layer inception_3a/5x5_reduce
I0403 17:58:04.204390  6342 net.cpp:91] Creating Layer inception_3a/5x5_reduce
I0403 17:58:04.204407  6342 net.cpp:425] inception_3a/5x5_reduce <- pool2/3x3_s2_pool2/3x3_s2_0_split_2
I0403 17:58:04.204427  6342 net.cpp:399] inception_3a/5x5_reduce -> inception_3a/5x5_reduce
I0403 17:58:04.205420  6342 net.cpp:141] Setting up inception_3a/5x5_reduce
I0403 17:58:04.205449  6342 net.cpp:148] Top shape: 24 16 28 28 (301056)
I0403 17:58:04.205467  6342 net.cpp:156] Memory required for data: 535880736
I0403 17:58:04.205485  6342 layer_factory.hpp:77] Creating layer inception_3a/relu_5x5_reduce
I0403 17:58:04.205507  6342 net.cpp:91] Creating Layer inception_3a/relu_5x5_reduce
I0403 17:58:04.205526  6342 net.cpp:425] inception_3a/relu_5x5_reduce <- inception_3a/5x5_reduce
I0403 17:58:04.205544  6342 net.cpp:386] inception_3a/relu_5x5_reduce -> inception_3a/5x5_reduce (in-place)
I0403 17:58:04.205854  6342 net.cpp:141] Setting up inception_3a/relu_5x5_reduce
I0403 17:58:04.205884  6342 net.cpp:148] Top shape: 24 16 28 28 (301056)
I0403 17:58:04.205900  6342 net.cpp:156] Memory required for data: 537084960
I0403 17:58:04.205915  6342 layer_factory.hpp:77] Creating layer inception_3a/5x5
I0403 17:58:04.205938  6342 net.cpp:91] Creating Layer inception_3a/5x5
I0403 17:58:04.205956  6342 net.cpp:425] inception_3a/5x5 <- inception_3a/5x5_reduce
I0403 17:58:04.205976  6342 net.cpp:399] inception_3a/5x5 -> inception_3a/5x5
I0403 17:58:04.207103  6342 net.cpp:141] Setting up inception_3a/5x5
I0403 17:58:04.207134  6342 net.cpp:148] Top shape: 24 32 28 28 (602112)
I0403 17:58:04.207149  6342 net.cpp:156] Memory required for data: 539493408
I0403 17:58:04.207170  6342 layer_factory.hpp:77] Creating layer inception_3a/relu_5x5
I0403 17:58:04.207190  6342 net.cpp:91] Creating Layer inception_3a/relu_5x5
I0403 17:58:04.207208  6342 net.cpp:425] inception_3a/relu_5x5 <- inception_3a/5x5
I0403 17:58:04.207227  6342 net.cpp:386] inception_3a/relu_5x5 -> inception_3a/5x5 (in-place)
I0403 17:58:04.207419  6342 net.cpp:141] Setting up inception_3a/relu_5x5
I0403 17:58:04.207448  6342 net.cpp:148] Top shape: 24 32 28 28 (602112)
I0403 17:58:04.207465  6342 net.cpp:156] Memory required for data: 541901856
I0403 17:58:04.207480  6342 layer_factory.hpp:77] Creating layer inception_3a/pool
I0403 17:58:04.207499  6342 net.cpp:91] Creating Layer inception_3a/pool
I0403 17:58:04.207530  6342 net.cpp:425] inception_3a/pool <- pool2/3x3_s2_pool2/3x3_s2_0_split_3
I0403 17:58:04.207551  6342 net.cpp:399] inception_3a/pool -> inception_3a/pool
I0403 17:58:04.207612  6342 net.cpp:141] Setting up inception_3a/pool
I0403 17:58:04.207638  6342 net.cpp:148] Top shape: 24 192 28 28 (3612672)
I0403 17:58:04.207653  6342 net.cpp:156] Memory required for data: 556352544
I0403 17:58:04.207667  6342 layer_factory.hpp:77] Creating layer inception_3a/pool_proj
I0403 17:58:04.207691  6342 net.cpp:91] Creating Layer inception_3a/pool_proj
I0403 17:58:04.207710  6342 net.cpp:425] inception_3a/pool_proj <- inception_3a/pool
I0403 17:58:04.207734  6342 net.cpp:399] inception_3a/pool_proj -> inception_3a/pool_proj
I0403 17:58:04.208741  6342 net.cpp:141] Setting up inception_3a/pool_proj
I0403 17:58:04.208771  6342 net.cpp:148] Top shape: 24 32 28 28 (602112)
I0403 17:58:04.208786  6342 net.cpp:156] Memory required for data: 558760992
I0403 17:58:04.208809  6342 layer_factory.hpp:77] Creating layer inception_3a/relu_pool_proj
I0403 17:58:04.208832  6342 net.cpp:91] Creating Layer inception_3a/relu_pool_proj
I0403 17:58:04.208849  6342 net.cpp:425] inception_3a/relu_pool_proj <- inception_3a/pool_proj
I0403 17:58:04.208868  6342 net.cpp:386] inception_3a/relu_pool_proj -> inception_3a/pool_proj (in-place)
I0403 17:58:04.209156  6342 net.cpp:141] Setting up inception_3a/relu_pool_proj
I0403 17:58:04.209183  6342 net.cpp:148] Top shape: 24 32 28 28 (602112)
I0403 17:58:04.209198  6342 net.cpp:156] Memory required for data: 561169440
I0403 17:58:04.209214  6342 layer_factory.hpp:77] Creating layer inception_3a/output
I0403 17:58:04.209235  6342 net.cpp:91] Creating Layer inception_3a/output
I0403 17:58:04.209252  6342 net.cpp:425] inception_3a/output <- inception_3a/1x1
I0403 17:58:04.209273  6342 net.cpp:425] inception_3a/output <- inception_3a/3x3
I0403 17:58:04.209292  6342 net.cpp:425] inception_3a/output <- inception_3a/5x5
I0403 17:58:04.209309  6342 net.cpp:425] inception_3a/output <- inception_3a/pool_proj
I0403 17:58:04.209327  6342 net.cpp:399] inception_3a/output -> inception_3a/output
I0403 17:58:04.209378  6342 net.cpp:141] Setting up inception_3a/output
I0403 17:58:04.209403  6342 net.cpp:148] Top shape: 24 256 28 28 (4816896)
I0403 17:58:04.209417  6342 net.cpp:156] Memory required for data: 580437024
I0403 17:58:04.209432  6342 layer_factory.hpp:77] Creating layer inception_3a/output_inception_3a/output_0_split
I0403 17:58:04.209450  6342 net.cpp:91] Creating Layer inception_3a/output_inception_3a/output_0_split
I0403 17:58:04.209467  6342 net.cpp:425] inception_3a/output_inception_3a/output_0_split <- inception_3a/output
I0403 17:58:04.209488  6342 net.cpp:399] inception_3a/output_inception_3a/output_0_split -> inception_3a/output_inception_3a/output_0_split_0
I0403 17:58:04.209509  6342 net.cpp:399] inception_3a/output_inception_3a/output_0_split -> inception_3a/output_inception_3a/output_0_split_1
I0403 17:58:04.209537  6342 net.cpp:399] inception_3a/output_inception_3a/output_0_split -> inception_3a/output_inception_3a/output_0_split_2
I0403 17:58:04.209558  6342 net.cpp:399] inception_3a/output_inception_3a/output_0_split -> inception_3a/output_inception_3a/output_0_split_3
I0403 17:58:04.209635  6342 net.cpp:141] Setting up inception_3a/output_inception_3a/output_0_split
I0403 17:58:04.209657  6342 net.cpp:148] Top shape: 24 256 28 28 (4816896)
I0403 17:58:04.209676  6342 net.cpp:148] Top shape: 24 256 28 28 (4816896)
I0403 17:58:04.209692  6342 net.cpp:148] Top shape: 24 256 28 28 (4816896)
I0403 17:58:04.209707  6342 net.cpp:148] Top shape: 24 256 28 28 (4816896)
I0403 17:58:04.209722  6342 net.cpp:156] Memory required for data: 657507360
I0403 17:58:04.209738  6342 layer_factory.hpp:77] Creating layer inception_3b/1x1
I0403 17:58:04.209763  6342 net.cpp:91] Creating Layer inception_3b/1x1
I0403 17:58:04.209780  6342 net.cpp:425] inception_3b/1x1 <- inception_3a/output_inception_3a/output_0_split_0
I0403 17:58:04.209802  6342 net.cpp:399] inception_3b/1x1 -> inception_3b/1x1
I0403 17:58:04.210995  6342 net.cpp:141] Setting up inception_3b/1x1
I0403 17:58:04.211037  6342 net.cpp:148] Top shape: 24 128 28 28 (2408448)
I0403 17:58:04.211055  6342 net.cpp:156] Memory required for data: 667141152
I0403 17:58:04.211073  6342 layer_factory.hpp:77] Creating layer inception_3b/relu_1x1
I0403 17:58:04.211097  6342 net.cpp:91] Creating Layer inception_3b/relu_1x1
I0403 17:58:04.211114  6342 net.cpp:425] inception_3b/relu_1x1 <- inception_3b/1x1
I0403 17:58:04.211133  6342 net.cpp:386] inception_3b/relu_1x1 -> inception_3b/1x1 (in-place)
I0403 17:58:04.211318  6342 net.cpp:141] Setting up inception_3b/relu_1x1
I0403 17:58:04.211344  6342 net.cpp:148] Top shape: 24 128 28 28 (2408448)
I0403 17:58:04.211359  6342 net.cpp:156] Memory required for data: 676774944
I0403 17:58:04.211374  6342 layer_factory.hpp:77] Creating layer inception_3b/3x3_reduce
I0403 17:58:04.211398  6342 net.cpp:91] Creating Layer inception_3b/3x3_reduce
I0403 17:58:04.211416  6342 net.cpp:425] inception_3b/3x3_reduce <- inception_3a/output_inception_3a/output_0_split_1
I0403 17:58:04.211436  6342 net.cpp:399] inception_3b/3x3_reduce -> inception_3b/3x3_reduce
I0403 17:58:04.212627  6342 net.cpp:141] Setting up inception_3b/3x3_reduce
I0403 17:58:04.212657  6342 net.cpp:148] Top shape: 24 128 28 28 (2408448)
I0403 17:58:04.212672  6342 net.cpp:156] Memory required for data: 686408736
I0403 17:58:04.212692  6342 layer_factory.hpp:77] Creating layer inception_3b/relu_3x3_reduce
I0403 17:58:04.212712  6342 net.cpp:91] Creating Layer inception_3b/relu_3x3_reduce
I0403 17:58:04.212728  6342 net.cpp:425] inception_3b/relu_3x3_reduce <- inception_3b/3x3_reduce
I0403 17:58:04.212749  6342 net.cpp:386] inception_3b/relu_3x3_reduce -> inception_3b/3x3_reduce (in-place)
I0403 17:58:04.212930  6342 net.cpp:141] Setting up inception_3b/relu_3x3_reduce
I0403 17:58:04.212956  6342 net.cpp:148] Top shape: 24 128 28 28 (2408448)
I0403 17:58:04.212971  6342 net.cpp:156] Memory required for data: 696042528
I0403 17:58:04.212986  6342 layer_factory.hpp:77] Creating layer inception_3b/3x3
I0403 17:58:04.213013  6342 net.cpp:91] Creating Layer inception_3b/3x3
I0403 17:58:04.213032  6342 net.cpp:425] inception_3b/3x3 <- inception_3b/3x3_reduce
I0403 17:58:04.213054  6342 net.cpp:399] inception_3b/3x3 -> inception_3b/3x3
I0403 17:58:04.216116  6342 net.cpp:141] Setting up inception_3b/3x3
I0403 17:58:04.216147  6342 net.cpp:148] Top shape: 24 192 28 28 (3612672)
I0403 17:58:04.216164  6342 net.cpp:156] Memory required for data: 710493216
I0403 17:58:04.216183  6342 layer_factory.hpp:77] Creating layer inception_3b/relu_3x3
I0403 17:58:04.216204  6342 net.cpp:91] Creating Layer inception_3b/relu_3x3
I0403 17:58:04.216223  6342 net.cpp:425] inception_3b/relu_3x3 <- inception_3b/3x3
I0403 17:58:04.216240  6342 net.cpp:386] inception_3b/relu_3x3 -> inception_3b/3x3 (in-place)
I0403 17:58:04.216532  6342 net.cpp:141] Setting up inception_3b/relu_3x3
I0403 17:58:04.216560  6342 net.cpp:148] Top shape: 24 192 28 28 (3612672)
I0403 17:58:04.216577  6342 net.cpp:156] Memory required for data: 724943904
I0403 17:58:04.216593  6342 layer_factory.hpp:77] Creating layer inception_3b/5x5_reduce
I0403 17:58:04.216616  6342 net.cpp:91] Creating Layer inception_3b/5x5_reduce
I0403 17:58:04.216637  6342 net.cpp:425] inception_3b/5x5_reduce <- inception_3a/output_inception_3a/output_0_split_2
I0403 17:58:04.216657  6342 net.cpp:399] inception_3b/5x5_reduce -> inception_3b/5x5_reduce
I0403 17:58:04.217699  6342 net.cpp:141] Setting up inception_3b/5x5_reduce
I0403 17:58:04.217727  6342 net.cpp:148] Top shape: 24 32 28 28 (602112)
I0403 17:58:04.217743  6342 net.cpp:156] Memory required for data: 727352352
I0403 17:58:04.217762  6342 layer_factory.hpp:77] Creating layer inception_3b/relu_5x5_reduce
I0403 17:58:04.217784  6342 net.cpp:91] Creating Layer inception_3b/relu_5x5_reduce
I0403 17:58:04.217802  6342 net.cpp:425] inception_3b/relu_5x5_reduce <- inception_3b/5x5_reduce
I0403 17:58:04.217820  6342 net.cpp:386] inception_3b/relu_5x5_reduce -> inception_3b/5x5_reduce (in-place)
I0403 17:58:04.218024  6342 net.cpp:141] Setting up inception_3b/relu_5x5_reduce
I0403 17:58:04.218053  6342 net.cpp:148] Top shape: 24 32 28 28 (602112)
I0403 17:58:04.218070  6342 net.cpp:156] Memory required for data: 729760800
I0403 17:58:04.218086  6342 layer_factory.hpp:77] Creating layer inception_3b/5x5
I0403 17:58:04.218109  6342 net.cpp:91] Creating Layer inception_3b/5x5
I0403 17:58:04.218127  6342 net.cpp:425] inception_3b/5x5 <- inception_3b/5x5_reduce
I0403 17:58:04.218148  6342 net.cpp:399] inception_3b/5x5 -> inception_3b/5x5
I0403 17:58:04.220230  6342 net.cpp:141] Setting up inception_3b/5x5
I0403 17:58:04.220262  6342 net.cpp:148] Top shape: 24 96 28 28 (1806336)
I0403 17:58:04.220281  6342 net.cpp:156] Memory required for data: 736986144
I0403 17:58:04.220301  6342 layer_factory.hpp:77] Creating layer inception_3b/relu_5x5
I0403 17:58:04.220320  6342 net.cpp:91] Creating Layer inception_3b/relu_5x5
I0403 17:58:04.220336  6342 net.cpp:425] inception_3b/relu_5x5 <- inception_3b/5x5
I0403 17:58:04.220357  6342 net.cpp:386] inception_3b/relu_5x5 -> inception_3b/5x5 (in-place)
I0403 17:58:04.220561  6342 net.cpp:141] Setting up inception_3b/relu_5x5
I0403 17:58:04.220587  6342 net.cpp:148] Top shape: 24 96 28 28 (1806336)
I0403 17:58:04.220602  6342 net.cpp:156] Memory required for data: 744211488
I0403 17:58:04.220618  6342 layer_factory.hpp:77] Creating layer inception_3b/pool
I0403 17:58:04.220636  6342 net.cpp:91] Creating Layer inception_3b/pool
I0403 17:58:04.220652  6342 net.cpp:425] inception_3b/pool <- inception_3a/output_inception_3a/output_0_split_3
I0403 17:58:04.220671  6342 net.cpp:399] inception_3b/pool -> inception_3b/pool
I0403 17:58:04.220731  6342 net.cpp:141] Setting up inception_3b/pool
I0403 17:58:04.220754  6342 net.cpp:148] Top shape: 24 256 28 28 (4816896)
I0403 17:58:04.220768  6342 net.cpp:156] Memory required for data: 763479072
I0403 17:58:04.220783  6342 layer_factory.hpp:77] Creating layer inception_3b/pool_proj
I0403 17:58:04.220806  6342 net.cpp:91] Creating Layer inception_3b/pool_proj
I0403 17:58:04.220824  6342 net.cpp:425] inception_3b/pool_proj <- inception_3b/pool
I0403 17:58:04.220849  6342 net.cpp:399] inception_3b/pool_proj -> inception_3b/pool_proj
I0403 17:58:04.221968  6342 net.cpp:141] Setting up inception_3b/pool_proj
I0403 17:58:04.222000  6342 net.cpp:148] Top shape: 24 64 28 28 (1204224)
I0403 17:58:04.222017  6342 net.cpp:156] Memory required for data: 768295968
I0403 17:58:04.222036  6342 layer_factory.hpp:77] Creating layer inception_3b/relu_pool_proj
I0403 17:58:04.222055  6342 net.cpp:91] Creating Layer inception_3b/relu_pool_proj
I0403 17:58:04.222072  6342 net.cpp:425] inception_3b/relu_pool_proj <- inception_3b/pool_proj
I0403 17:58:04.222093  6342 net.cpp:386] inception_3b/relu_pool_proj -> inception_3b/pool_proj (in-place)
I0403 17:58:04.222512  6342 net.cpp:141] Setting up inception_3b/relu_pool_proj
I0403 17:58:04.222542  6342 net.cpp:148] Top shape: 24 64 28 28 (1204224)
I0403 17:58:04.222558  6342 net.cpp:156] Memory required for data: 773112864
I0403 17:58:04.222573  6342 layer_factory.hpp:77] Creating layer inception_3b/output
I0403 17:58:04.222592  6342 net.cpp:91] Creating Layer inception_3b/output
I0403 17:58:04.222609  6342 net.cpp:425] inception_3b/output <- inception_3b/1x1
I0403 17:58:04.222626  6342 net.cpp:425] inception_3b/output <- inception_3b/3x3
I0403 17:58:04.222643  6342 net.cpp:425] inception_3b/output <- inception_3b/5x5
I0403 17:58:04.222659  6342 net.cpp:425] inception_3b/output <- inception_3b/pool_proj
I0403 17:58:04.222677  6342 net.cpp:399] inception_3b/output -> inception_3b/output
I0403 17:58:04.222725  6342 net.cpp:141] Setting up inception_3b/output
I0403 17:58:04.222749  6342 net.cpp:148] Top shape: 24 480 28 28 (9031680)
I0403 17:58:04.222764  6342 net.cpp:156] Memory required for data: 809239584
I0403 17:58:04.222780  6342 layer_factory.hpp:77] Creating layer pool3/3x3_s2
I0403 17:58:04.222800  6342 net.cpp:91] Creating Layer pool3/3x3_s2
I0403 17:58:04.222818  6342 net.cpp:425] pool3/3x3_s2 <- inception_3b/output
I0403 17:58:04.222853  6342 net.cpp:399] pool3/3x3_s2 -> pool3/3x3_s2
I0403 17:58:04.222916  6342 net.cpp:141] Setting up pool3/3x3_s2
I0403 17:58:04.222940  6342 net.cpp:148] Top shape: 24 480 14 14 (2257920)
I0403 17:58:04.222955  6342 net.cpp:156] Memory required for data: 818271264
I0403 17:58:04.222970  6342 layer_factory.hpp:77] Creating layer pool3/3x3_s2_pool3/3x3_s2_0_split
I0403 17:58:04.222990  6342 net.cpp:91] Creating Layer pool3/3x3_s2_pool3/3x3_s2_0_split
I0403 17:58:04.223006  6342 net.cpp:425] pool3/3x3_s2_pool3/3x3_s2_0_split <- pool3/3x3_s2
I0403 17:58:04.223026  6342 net.cpp:399] pool3/3x3_s2_pool3/3x3_s2_0_split -> pool3/3x3_s2_pool3/3x3_s2_0_split_0
I0403 17:58:04.223047  6342 net.cpp:399] pool3/3x3_s2_pool3/3x3_s2_0_split -> pool3/3x3_s2_pool3/3x3_s2_0_split_1
I0403 17:58:04.223067  6342 net.cpp:399] pool3/3x3_s2_pool3/3x3_s2_0_split -> pool3/3x3_s2_pool3/3x3_s2_0_split_2
I0403 17:58:04.223088  6342 net.cpp:399] pool3/3x3_s2_pool3/3x3_s2_0_split -> pool3/3x3_s2_pool3/3x3_s2_0_split_3
I0403 17:58:04.223167  6342 net.cpp:141] Setting up pool3/3x3_s2_pool3/3x3_s2_0_split
I0403 17:58:04.223193  6342 net.cpp:148] Top shape: 24 480 14 14 (2257920)
I0403 17:58:04.223212  6342 net.cpp:148] Top shape: 24 480 14 14 (2257920)
I0403 17:58:04.223227  6342 net.cpp:148] Top shape: 24 480 14 14 (2257920)
I0403 17:58:04.223243  6342 net.cpp:148] Top shape: 24 480 14 14 (2257920)
I0403 17:58:04.223258  6342 net.cpp:156] Memory required for data: 854397984
I0403 17:58:04.223285  6342 layer_factory.hpp:77] Creating layer inception_4a/1x1
I0403 17:58:04.223311  6342 net.cpp:91] Creating Layer inception_4a/1x1
I0403 17:58:04.223330  6342 net.cpp:425] inception_4a/1x1 <- pool3/3x3_s2_pool3/3x3_s2_0_split_0
I0403 17:58:04.223351  6342 net.cpp:399] inception_4a/1x1 -> inception_4a/1x1
I0403 17:58:04.225005  6342 net.cpp:141] Setting up inception_4a/1x1
I0403 17:58:04.225035  6342 net.cpp:148] Top shape: 24 192 14 14 (903168)
I0403 17:58:04.225051  6342 net.cpp:156] Memory required for data: 858010656
I0403 17:58:04.225071  6342 layer_factory.hpp:77] Creating layer inception_4a/relu_1x1
I0403 17:58:04.225090  6342 net.cpp:91] Creating Layer inception_4a/relu_1x1
I0403 17:58:04.225106  6342 net.cpp:425] inception_4a/relu_1x1 <- inception_4a/1x1
I0403 17:58:04.225126  6342 net.cpp:386] inception_4a/relu_1x1 -> inception_4a/1x1 (in-place)
I0403 17:58:04.225320  6342 net.cpp:141] Setting up inception_4a/relu_1x1
I0403 17:58:04.225347  6342 net.cpp:148] Top shape: 24 192 14 14 (903168)
I0403 17:58:04.225361  6342 net.cpp:156] Memory required for data: 861623328
I0403 17:58:04.225378  6342 layer_factory.hpp:77] Creating layer inception_4a/3x3_reduce
I0403 17:58:04.225400  6342 net.cpp:91] Creating Layer inception_4a/3x3_reduce
I0403 17:58:04.225419  6342 net.cpp:425] inception_4a/3x3_reduce <- pool3/3x3_s2_pool3/3x3_s2_0_split_1
I0403 17:58:04.225440  6342 net.cpp:399] inception_4a/3x3_reduce -> inception_4a/3x3_reduce
I0403 17:58:04.226795  6342 net.cpp:141] Setting up inception_4a/3x3_reduce
I0403 17:58:04.226825  6342 net.cpp:148] Top shape: 24 96 14 14 (451584)
I0403 17:58:04.226842  6342 net.cpp:156] Memory required for data: 863429664
I0403 17:58:04.226869  6342 layer_factory.hpp:77] Creating layer inception_4a/relu_3x3_reduce
I0403 17:58:04.226889  6342 net.cpp:91] Creating Layer inception_4a/relu_3x3_reduce
I0403 17:58:04.226905  6342 net.cpp:425] inception_4a/relu_3x3_reduce <- inception_4a/3x3_reduce
I0403 17:58:04.226922  6342 net.cpp:386] inception_4a/relu_3x3_reduce -> inception_4a/3x3_reduce (in-place)
I0403 17:58:04.227105  6342 net.cpp:141] Setting up inception_4a/relu_3x3_reduce
I0403 17:58:04.227129  6342 net.cpp:148] Top shape: 24 96 14 14 (451584)
I0403 17:58:04.227144  6342 net.cpp:156] Memory required for data: 865236000
I0403 17:58:04.227160  6342 layer_factory.hpp:77] Creating layer inception_4a/3x3
I0403 17:58:04.227183  6342 net.cpp:91] Creating Layer inception_4a/3x3
I0403 17:58:04.227200  6342 net.cpp:425] inception_4a/3x3 <- inception_4a/3x3_reduce
I0403 17:58:04.227221  6342 net.cpp:399] inception_4a/3x3 -> inception_4a/3x3
I0403 17:58:04.229957  6342 net.cpp:141] Setting up inception_4a/3x3
I0403 17:58:04.229986  6342 net.cpp:148] Top shape: 24 208 14 14 (978432)
I0403 17:58:04.230002  6342 net.cpp:156] Memory required for data: 869149728
I0403 17:58:04.230021  6342 layer_factory.hpp:77] Creating layer inception_4a/relu_3x3
I0403 17:58:04.230044  6342 net.cpp:91] Creating Layer inception_4a/relu_3x3
I0403 17:58:04.230060  6342 net.cpp:425] inception_4a/relu_3x3 <- inception_4a/3x3
I0403 17:58:04.230078  6342 net.cpp:386] inception_4a/relu_3x3 -> inception_4a/3x3 (in-place)
I0403 17:58:04.230370  6342 net.cpp:141] Setting up inception_4a/relu_3x3
I0403 17:58:04.230397  6342 net.cpp:148] Top shape: 24 208 14 14 (978432)
I0403 17:58:04.230412  6342 net.cpp:156] Memory required for data: 873063456
I0403 17:58:04.230427  6342 layer_factory.hpp:77] Creating layer inception_4a/5x5_reduce
I0403 17:58:04.230449  6342 net.cpp:91] Creating Layer inception_4a/5x5_reduce
I0403 17:58:04.230469  6342 net.cpp:425] inception_4a/5x5_reduce <- pool3/3x3_s2_pool3/3x3_s2_0_split_2
I0403 17:58:04.230490  6342 net.cpp:399] inception_4a/5x5_reduce -> inception_4a/5x5_reduce
I0403 17:58:04.231534  6342 net.cpp:141] Setting up inception_4a/5x5_reduce
I0403 17:58:04.231562  6342 net.cpp:148] Top shape: 24 16 14 14 (75264)
I0403 17:58:04.231578  6342 net.cpp:156] Memory required for data: 873364512
I0403 17:58:04.231597  6342 layer_factory.hpp:77] Creating layer inception_4a/relu_5x5_reduce
I0403 17:58:04.231617  6342 net.cpp:91] Creating Layer inception_4a/relu_5x5_reduce
I0403 17:58:04.231633  6342 net.cpp:425] inception_4a/relu_5x5_reduce <- inception_4a/5x5_reduce
I0403 17:58:04.231652  6342 net.cpp:386] inception_4a/relu_5x5_reduce -> inception_4a/5x5_reduce (in-place)
I0403 17:58:04.231832  6342 net.cpp:141] Setting up inception_4a/relu_5x5_reduce
I0403 17:58:04.231860  6342 net.cpp:148] Top shape: 24 16 14 14 (75264)
I0403 17:58:04.231876  6342 net.cpp:156] Memory required for data: 873665568
I0403 17:58:04.231891  6342 layer_factory.hpp:77] Creating layer inception_4a/5x5
I0403 17:58:04.231914  6342 net.cpp:91] Creating Layer inception_4a/5x5
I0403 17:58:04.231931  6342 net.cpp:425] inception_4a/5x5 <- inception_4a/5x5_reduce
I0403 17:58:04.231950  6342 net.cpp:399] inception_4a/5x5 -> inception_4a/5x5
I0403 17:58:04.233072  6342 net.cpp:141] Setting up inception_4a/5x5
I0403 17:58:04.233103  6342 net.cpp:148] Top shape: 24 48 14 14 (225792)
I0403 17:58:04.233119  6342 net.cpp:156] Memory required for data: 874568736
I0403 17:58:04.233137  6342 layer_factory.hpp:77] Creating layer inception_4a/relu_5x5
I0403 17:58:04.233155  6342 net.cpp:91] Creating Layer inception_4a/relu_5x5
I0403 17:58:04.233171  6342 net.cpp:425] inception_4a/relu_5x5 <- inception_4a/5x5
I0403 17:58:04.233191  6342 net.cpp:386] inception_4a/relu_5x5 -> inception_4a/5x5 (in-place)
I0403 17:58:04.233389  6342 net.cpp:141] Setting up inception_4a/relu_5x5
I0403 17:58:04.233417  6342 net.cpp:148] Top shape: 24 48 14 14 (225792)
I0403 17:58:04.233430  6342 net.cpp:156] Memory required for data: 875471904
I0403 17:58:04.233445  6342 layer_factory.hpp:77] Creating layer inception_4a/pool
I0403 17:58:04.233464  6342 net.cpp:91] Creating Layer inception_4a/pool
I0403 17:58:04.233480  6342 net.cpp:425] inception_4a/pool <- pool3/3x3_s2_pool3/3x3_s2_0_split_3
I0403 17:58:04.233500  6342 net.cpp:399] inception_4a/pool -> inception_4a/pool
I0403 17:58:04.233564  6342 net.cpp:141] Setting up inception_4a/pool
I0403 17:58:04.233589  6342 net.cpp:148] Top shape: 24 480 14 14 (2257920)
I0403 17:58:04.233603  6342 net.cpp:156] Memory required for data: 884503584
I0403 17:58:04.233618  6342 layer_factory.hpp:77] Creating layer inception_4a/pool_proj
I0403 17:58:04.233642  6342 net.cpp:91] Creating Layer inception_4a/pool_proj
I0403 17:58:04.233659  6342 net.cpp:425] inception_4a/pool_proj <- inception_4a/pool
I0403 17:58:04.233678  6342 net.cpp:399] inception_4a/pool_proj -> inception_4a/pool_proj
I0403 17:58:04.234884  6342 net.cpp:141] Setting up inception_4a/pool_proj
I0403 17:58:04.234913  6342 net.cpp:148] Top shape: 24 64 14 14 (301056)
I0403 17:58:04.234944  6342 net.cpp:156] Memory required for data: 885707808
I0403 17:58:04.234966  6342 layer_factory.hpp:77] Creating layer inception_4a/relu_pool_proj
I0403 17:58:04.234983  6342 net.cpp:91] Creating Layer inception_4a/relu_pool_proj
I0403 17:58:04.234999  6342 net.cpp:425] inception_4a/relu_pool_proj <- inception_4a/pool_proj
I0403 17:58:04.235021  6342 net.cpp:386] inception_4a/relu_pool_proj -> inception_4a/pool_proj (in-place)
I0403 17:58:04.235316  6342 net.cpp:141] Setting up inception_4a/relu_pool_proj
I0403 17:58:04.235345  6342 net.cpp:148] Top shape: 24 64 14 14 (301056)
I0403 17:58:04.235362  6342 net.cpp:156] Memory required for data: 886912032
I0403 17:58:04.235376  6342 layer_factory.hpp:77] Creating layer inception_4a/output
I0403 17:58:04.235394  6342 net.cpp:91] Creating Layer inception_4a/output
I0403 17:58:04.235410  6342 net.cpp:425] inception_4a/output <- inception_4a/1x1
I0403 17:58:04.235426  6342 net.cpp:425] inception_4a/output <- inception_4a/3x3
I0403 17:58:04.235442  6342 net.cpp:425] inception_4a/output <- inception_4a/5x5
I0403 17:58:04.235458  6342 net.cpp:425] inception_4a/output <- inception_4a/pool_proj
I0403 17:58:04.235479  6342 net.cpp:399] inception_4a/output -> inception_4a/output
I0403 17:58:04.235527  6342 net.cpp:141] Setting up inception_4a/output
I0403 17:58:04.235550  6342 net.cpp:148] Top shape: 24 512 14 14 (2408448)
I0403 17:58:04.235564  6342 net.cpp:156] Memory required for data: 896545824
I0403 17:58:04.235579  6342 layer_factory.hpp:77] Creating layer inception_4a/output_inception_4a/output_0_split
I0403 17:58:04.235599  6342 net.cpp:91] Creating Layer inception_4a/output_inception_4a/output_0_split
I0403 17:58:04.235615  6342 net.cpp:425] inception_4a/output_inception_4a/output_0_split <- inception_4a/output
I0403 17:58:04.235633  6342 net.cpp:399] inception_4a/output_inception_4a/output_0_split -> inception_4a/output_inception_4a/output_0_split_0
I0403 17:58:04.235656  6342 net.cpp:399] inception_4a/output_inception_4a/output_0_split -> inception_4a/output_inception_4a/output_0_split_1
I0403 17:58:04.235678  6342 net.cpp:399] inception_4a/output_inception_4a/output_0_split -> inception_4a/output_inception_4a/output_0_split_2
I0403 17:58:04.235699  6342 net.cpp:399] inception_4a/output_inception_4a/output_0_split -> inception_4a/output_inception_4a/output_0_split_3
I0403 17:58:04.235718  6342 net.cpp:399] inception_4a/output_inception_4a/output_0_split -> inception_4a/output_inception_4a/output_0_split_4
I0403 17:58:04.235812  6342 net.cpp:141] Setting up inception_4a/output_inception_4a/output_0_split
I0403 17:58:04.235836  6342 net.cpp:148] Top shape: 24 512 14 14 (2408448)
I0403 17:58:04.235852  6342 net.cpp:148] Top shape: 24 512 14 14 (2408448)
I0403 17:58:04.235868  6342 net.cpp:148] Top shape: 24 512 14 14 (2408448)
I0403 17:58:04.235885  6342 net.cpp:148] Top shape: 24 512 14 14 (2408448)
I0403 17:58:04.235900  6342 net.cpp:148] Top shape: 24 512 14 14 (2408448)
I0403 17:58:04.235914  6342 net.cpp:156] Memory required for data: 944714784
I0403 17:58:04.235929  6342 layer_factory.hpp:77] Creating layer loss1/ave_pool
I0403 17:58:04.235949  6342 net.cpp:91] Creating Layer loss1/ave_pool
I0403 17:58:04.235965  6342 net.cpp:425] loss1/ave_pool <- inception_4a/output_inception_4a/output_0_split_0
I0403 17:58:04.235983  6342 net.cpp:399] loss1/ave_pool -> loss1/ave_pool
I0403 17:58:04.236199  6342 net.cpp:141] Setting up loss1/ave_pool
I0403 17:58:04.236227  6342 net.cpp:148] Top shape: 24 512 4 4 (196608)
I0403 17:58:04.236243  6342 net.cpp:156] Memory required for data: 945501216
I0403 17:58:04.236258  6342 layer_factory.hpp:77] Creating layer loss1/conv
I0403 17:58:04.236284  6342 net.cpp:91] Creating Layer loss1/conv
I0403 17:58:04.236302  6342 net.cpp:425] loss1/conv <- loss1/ave_pool
I0403 17:58:04.236321  6342 net.cpp:399] loss1/conv -> loss1/conv
I0403 17:58:04.237820  6342 net.cpp:141] Setting up loss1/conv
I0403 17:58:04.237849  6342 net.cpp:148] Top shape: 24 128 4 4 (49152)
I0403 17:58:04.237880  6342 net.cpp:156] Memory required for data: 945697824
I0403 17:58:04.237901  6342 layer_factory.hpp:77] Creating layer loss1/relu_conv
I0403 17:58:04.237922  6342 net.cpp:91] Creating Layer loss1/relu_conv
I0403 17:58:04.237941  6342 net.cpp:425] loss1/relu_conv <- loss1/conv
I0403 17:58:04.237958  6342 net.cpp:386] loss1/relu_conv -> loss1/conv (in-place)
I0403 17:58:04.238258  6342 net.cpp:141] Setting up loss1/relu_conv
I0403 17:58:04.238291  6342 net.cpp:148] Top shape: 24 128 4 4 (49152)
I0403 17:58:04.238306  6342 net.cpp:156] Memory required for data: 945894432
I0403 17:58:04.238322  6342 layer_factory.hpp:77] Creating layer loss1/fc
I0403 17:58:04.238350  6342 net.cpp:91] Creating Layer loss1/fc
I0403 17:58:04.238369  6342 net.cpp:425] loss1/fc <- loss1/conv
I0403 17:58:04.238389  6342 net.cpp:399] loss1/fc -> loss1/fc
I0403 17:58:04.256391  6342 net.cpp:141] Setting up loss1/fc
I0403 17:58:04.256434  6342 net.cpp:148] Top shape: 24 1024 (24576)
I0403 17:58:04.256449  6342 net.cpp:156] Memory required for data: 945992736
I0403 17:58:04.256469  6342 layer_factory.hpp:77] Creating layer loss1/relu_fc
I0403 17:58:04.256485  6342 net.cpp:91] Creating Layer loss1/relu_fc
I0403 17:58:04.256500  6342 net.cpp:425] loss1/relu_fc <- loss1/fc
I0403 17:58:04.256520  6342 net.cpp:386] loss1/relu_fc -> loss1/fc (in-place)
I0403 17:58:04.256711  6342 net.cpp:141] Setting up loss1/relu_fc
I0403 17:58:04.256734  6342 net.cpp:148] Top shape: 24 1024 (24576)
I0403 17:58:04.256748  6342 net.cpp:156] Memory required for data: 946091040
I0403 17:58:04.256762  6342 layer_factory.hpp:77] Creating layer loss1/drop_fc
I0403 17:58:04.256789  6342 net.cpp:91] Creating Layer loss1/drop_fc
I0403 17:58:04.256806  6342 net.cpp:425] loss1/drop_fc <- loss1/fc
I0403 17:58:04.256825  6342 net.cpp:386] loss1/drop_fc -> loss1/fc (in-place)
I0403 17:58:04.256875  6342 net.cpp:141] Setting up loss1/drop_fc
I0403 17:58:04.256898  6342 net.cpp:148] Top shape: 24 1024 (24576)
I0403 17:58:04.256912  6342 net.cpp:156] Memory required for data: 946189344
I0403 17:58:04.256927  6342 layer_factory.hpp:77] Creating layer loss1/classifier_plantvillage
I0403 17:58:04.256944  6342 net.cpp:91] Creating Layer loss1/classifier_plantvillage
I0403 17:58:04.256959  6342 net.cpp:425] loss1/classifier_plantvillage <- loss1/fc
I0403 17:58:04.256980  6342 net.cpp:399] loss1/classifier_plantvillage -> loss1/classifier_plantvillage
I0403 17:58:04.257861  6342 net.cpp:141] Setting up loss1/classifier_plantvillage
I0403 17:58:04.257887  6342 net.cpp:148] Top shape: 24 38 (912)
I0403 17:58:04.257901  6342 net.cpp:156] Memory required for data: 946192992
I0403 17:58:04.257918  6342 layer_factory.hpp:77] Creating layer loss1/classifier_plantvillage_loss1/classifier_plantvillage_0_split
I0403 17:58:04.257936  6342 net.cpp:91] Creating Layer loss1/classifier_plantvillage_loss1/classifier_plantvillage_0_split
I0403 17:58:04.257951  6342 net.cpp:425] loss1/classifier_plantvillage_loss1/classifier_plantvillage_0_split <- loss1/classifier_plantvillage
I0403 17:58:04.257971  6342 net.cpp:399] loss1/classifier_plantvillage_loss1/classifier_plantvillage_0_split -> loss1/classifier_plantvillage_loss1/classifier_plantvillage_0_split_0
I0403 17:58:04.257990  6342 net.cpp:399] loss1/classifier_plantvillage_loss1/classifier_plantvillage_0_split -> loss1/classifier_plantvillage_loss1/classifier_plantvillage_0_split_1
I0403 17:58:04.258009  6342 net.cpp:399] loss1/classifier_plantvillage_loss1/classifier_plantvillage_0_split -> loss1/classifier_plantvillage_loss1/classifier_plantvillage_0_split_2
I0403 17:58:04.258075  6342 net.cpp:141] Setting up loss1/classifier_plantvillage_loss1/classifier_plantvillage_0_split
I0403 17:58:04.258097  6342 net.cpp:148] Top shape: 24 38 (912)
I0403 17:58:04.258113  6342 net.cpp:148] Top shape: 24 38 (912)
I0403 17:58:04.258128  6342 net.cpp:148] Top shape: 24 38 (912)
I0403 17:58:04.258141  6342 net.cpp:156] Memory required for data: 946203936
I0403 17:58:04.258154  6342 layer_factory.hpp:77] Creating layer inception_4b/1x1
I0403 17:58:04.258177  6342 net.cpp:91] Creating Layer inception_4b/1x1
I0403 17:58:04.258213  6342 net.cpp:425] inception_4b/1x1 <- inception_4a/output_inception_4a/output_0_split_1
I0403 17:58:04.258232  6342 net.cpp:399] inception_4b/1x1 -> inception_4b/1x1
I0403 17:58:04.259851  6342 net.cpp:141] Setting up inception_4b/1x1
I0403 17:58:04.259878  6342 net.cpp:148] Top shape: 24 160 14 14 (752640)
I0403 17:58:04.259893  6342 net.cpp:156] Memory required for data: 949214496
I0403 17:58:04.259912  6342 layer_factory.hpp:77] Creating layer inception_4b/relu_1x1
I0403 17:58:04.259930  6342 net.cpp:91] Creating Layer inception_4b/relu_1x1
I0403 17:58:04.259948  6342 net.cpp:425] inception_4b/relu_1x1 <- inception_4b/1x1
I0403 17:58:04.259964  6342 net.cpp:386] inception_4b/relu_1x1 -> inception_4b/1x1 (in-place)
I0403 17:58:04.260140  6342 net.cpp:141] Setting up inception_4b/relu_1x1
I0403 17:58:04.260166  6342 net.cpp:148] Top shape: 24 160 14 14 (752640)
I0403 17:58:04.260181  6342 net.cpp:156] Memory required for data: 952225056
I0403 17:58:04.260195  6342 layer_factory.hpp:77] Creating layer inception_4b/3x3_reduce
I0403 17:58:04.260220  6342 net.cpp:91] Creating Layer inception_4b/3x3_reduce
I0403 17:58:04.260236  6342 net.cpp:425] inception_4b/3x3_reduce <- inception_4a/output_inception_4a/output_0_split_2
I0403 17:58:04.260256  6342 net.cpp:399] inception_4b/3x3_reduce -> inception_4b/3x3_reduce
I0403 17:58:04.261574  6342 net.cpp:141] Setting up inception_4b/3x3_reduce
I0403 17:58:04.261603  6342 net.cpp:148] Top shape: 24 112 14 14 (526848)
I0403 17:58:04.261620  6342 net.cpp:156] Memory required for data: 954332448
I0403 17:58:04.261638  6342 layer_factory.hpp:77] Creating layer inception_4b/relu_3x3_reduce
I0403 17:58:04.261656  6342 net.cpp:91] Creating Layer inception_4b/relu_3x3_reduce
I0403 17:58:04.261670  6342 net.cpp:425] inception_4b/relu_3x3_reduce <- inception_4b/3x3_reduce
I0403 17:58:04.261687  6342 net.cpp:386] inception_4b/relu_3x3_reduce -> inception_4b/3x3_reduce (in-place)
I0403 17:58:04.261961  6342 net.cpp:141] Setting up inception_4b/relu_3x3_reduce
I0403 17:58:04.261989  6342 net.cpp:148] Top shape: 24 112 14 14 (526848)
I0403 17:58:04.262003  6342 net.cpp:156] Memory required for data: 956439840
I0403 17:58:04.262018  6342 layer_factory.hpp:77] Creating layer inception_4b/3x3
I0403 17:58:04.262037  6342 net.cpp:91] Creating Layer inception_4b/3x3
I0403 17:58:04.262053  6342 net.cpp:425] inception_4b/3x3 <- inception_4b/3x3_reduce
I0403 17:58:04.262073  6342 net.cpp:399] inception_4b/3x3 -> inception_4b/3x3
I0403 17:58:04.264976  6342 net.cpp:141] Setting up inception_4b/3x3
I0403 17:58:04.265004  6342 net.cpp:148] Top shape: 24 224 14 14 (1053696)
I0403 17:58:04.265019  6342 net.cpp:156] Memory required for data: 960654624
I0403 17:58:04.265038  6342 layer_factory.hpp:77] Creating layer inception_4b/relu_3x3
I0403 17:58:04.265055  6342 net.cpp:91] Creating Layer inception_4b/relu_3x3
I0403 17:58:04.265070  6342 net.cpp:425] inception_4b/relu_3x3 <- inception_4b/3x3
I0403 17:58:04.265091  6342 net.cpp:386] inception_4b/relu_3x3 -> inception_4b/3x3 (in-place)
I0403 17:58:04.265269  6342 net.cpp:141] Setting up inception_4b/relu_3x3
I0403 17:58:04.265295  6342 net.cpp:148] Top shape: 24 224 14 14 (1053696)
I0403 17:58:04.265311  6342 net.cpp:156] Memory required for data: 964869408
I0403 17:58:04.265324  6342 layer_factory.hpp:77] Creating layer inception_4b/5x5_reduce
I0403 17:58:04.265346  6342 net.cpp:91] Creating Layer inception_4b/5x5_reduce
I0403 17:58:04.265362  6342 net.cpp:425] inception_4b/5x5_reduce <- inception_4a/output_inception_4a/output_0_split_3
I0403 17:58:04.265383  6342 net.cpp:399] inception_4b/5x5_reduce -> inception_4b/5x5_reduce
I0403 17:58:04.266451  6342 net.cpp:141] Setting up inception_4b/5x5_reduce
I0403 17:58:04.266479  6342 net.cpp:148] Top shape: 24 24 14 14 (112896)
I0403 17:58:04.266494  6342 net.cpp:156] Memory required for data: 965320992
I0403 17:58:04.266510  6342 layer_factory.hpp:77] Creating layer inception_4b/relu_5x5_reduce
I0403 17:58:04.266530  6342 net.cpp:91] Creating Layer inception_4b/relu_5x5_reduce
I0403 17:58:04.266559  6342 net.cpp:425] inception_4b/relu_5x5_reduce <- inception_4b/5x5_reduce
I0403 17:58:04.266577  6342 net.cpp:386] inception_4b/relu_5x5_reduce -> inception_4b/5x5_reduce (in-place)
I0403 17:58:04.266757  6342 net.cpp:141] Setting up inception_4b/relu_5x5_reduce
I0403 17:58:04.266783  6342 net.cpp:148] Top shape: 24 24 14 14 (112896)
I0403 17:58:04.266798  6342 net.cpp:156] Memory required for data: 965772576
I0403 17:58:04.266813  6342 layer_factory.hpp:77] Creating layer inception_4b/5x5
I0403 17:58:04.266834  6342 net.cpp:91] Creating Layer inception_4b/5x5
I0403 17:58:04.266850  6342 net.cpp:425] inception_4b/5x5 <- inception_4b/5x5_reduce
I0403 17:58:04.266868  6342 net.cpp:399] inception_4b/5x5 -> inception_4b/5x5
I0403 17:58:04.268074  6342 net.cpp:141] Setting up inception_4b/5x5
I0403 17:58:04.268100  6342 net.cpp:148] Top shape: 24 64 14 14 (301056)
I0403 17:58:04.268115  6342 net.cpp:156] Memory required for data: 966976800
I0403 17:58:04.268132  6342 layer_factory.hpp:77] Creating layer inception_4b/relu_5x5
I0403 17:58:04.268151  6342 net.cpp:91] Creating Layer inception_4b/relu_5x5
I0403 17:58:04.268167  6342 net.cpp:425] inception_4b/relu_5x5 <- inception_4b/5x5
I0403 17:58:04.268184  6342 net.cpp:386] inception_4b/relu_5x5 -> inception_4b/5x5 (in-place)
I0403 17:58:04.268474  6342 net.cpp:141] Setting up inception_4b/relu_5x5
I0403 17:58:04.268501  6342 net.cpp:148] Top shape: 24 64 14 14 (301056)
I0403 17:58:04.268514  6342 net.cpp:156] Memory required for data: 968181024
I0403 17:58:04.268528  6342 layer_factory.hpp:77] Creating layer inception_4b/pool
I0403 17:58:04.268548  6342 net.cpp:91] Creating Layer inception_4b/pool
I0403 17:58:04.268564  6342 net.cpp:425] inception_4b/pool <- inception_4a/output_inception_4a/output_0_split_4
I0403 17:58:04.268582  6342 net.cpp:399] inception_4b/pool -> inception_4b/pool
I0403 17:58:04.268646  6342 net.cpp:141] Setting up inception_4b/pool
I0403 17:58:04.268668  6342 net.cpp:148] Top shape: 24 512 14 14 (2408448)
I0403 17:58:04.268682  6342 net.cpp:156] Memory required for data: 977814816
I0403 17:58:04.268697  6342 layer_factory.hpp:77] Creating layer inception_4b/pool_proj
I0403 17:58:04.268718  6342 net.cpp:91] Creating Layer inception_4b/pool_proj
I0403 17:58:04.268734  6342 net.cpp:425] inception_4b/pool_proj <- inception_4b/pool
I0403 17:58:04.268754  6342 net.cpp:399] inception_4b/pool_proj -> inception_4b/pool_proj
I0403 17:58:04.269925  6342 net.cpp:141] Setting up inception_4b/pool_proj
I0403 17:58:04.269953  6342 net.cpp:148] Top shape: 24 64 14 14 (301056)
I0403 17:58:04.269968  6342 net.cpp:156] Memory required for data: 979019040
I0403 17:58:04.269984  6342 layer_factory.hpp:77] Creating layer inception_4b/relu_pool_proj
I0403 17:58:04.270004  6342 net.cpp:91] Creating Layer inception_4b/relu_pool_proj
I0403 17:58:04.270020  6342 net.cpp:425] inception_4b/relu_pool_proj <- inception_4b/pool_proj
I0403 17:58:04.270037  6342 net.cpp:386] inception_4b/relu_pool_proj -> inception_4b/pool_proj (in-place)
I0403 17:58:04.270211  6342 net.cpp:141] Setting up inception_4b/relu_pool_proj
I0403 17:58:04.270237  6342 net.cpp:148] Top shape: 24 64 14 14 (301056)
I0403 17:58:04.270252  6342 net.cpp:156] Memory required for data: 980223264
I0403 17:58:04.270267  6342 layer_factory.hpp:77] Creating layer inception_4b/output
I0403 17:58:04.270288  6342 net.cpp:91] Creating Layer inception_4b/output
I0403 17:58:04.270303  6342 net.cpp:425] inception_4b/output <- inception_4b/1x1
I0403 17:58:04.270319  6342 net.cpp:425] inception_4b/output <- inception_4b/3x3
I0403 17:58:04.270334  6342 net.cpp:425] inception_4b/output <- inception_4b/5x5
I0403 17:58:04.270349  6342 net.cpp:425] inception_4b/output <- inception_4b/pool_proj
I0403 17:58:04.270366  6342 net.cpp:399] inception_4b/output -> inception_4b/output
I0403 17:58:04.270411  6342 net.cpp:141] Setting up inception_4b/output
I0403 17:58:04.270433  6342 net.cpp:148] Top shape: 24 512 14 14 (2408448)
I0403 17:58:04.270447  6342 net.cpp:156] Memory required for data: 989857056
I0403 17:58:04.270474  6342 layer_factory.hpp:77] Creating layer inception_4b/output_inception_4b/output_0_split
I0403 17:58:04.270494  6342 net.cpp:91] Creating Layer inception_4b/output_inception_4b/output_0_split
I0403 17:58:04.270510  6342 net.cpp:425] inception_4b/output_inception_4b/output_0_split <- inception_4b/output
I0403 17:58:04.270527  6342 net.cpp:399] inception_4b/output_inception_4b/output_0_split -> inception_4b/output_inception_4b/output_0_split_0
I0403 17:58:04.270546  6342 net.cpp:399] inception_4b/output_inception_4b/output_0_split -> inception_4b/output_inception_4b/output_0_split_1
I0403 17:58:04.270565  6342 net.cpp:399] inception_4b/output_inception_4b/output_0_split -> inception_4b/output_inception_4b/output_0_split_2
I0403 17:58:04.270584  6342 net.cpp:399] inception_4b/output_inception_4b/output_0_split -> inception_4b/output_inception_4b/output_0_split_3
I0403 17:58:04.270666  6342 net.cpp:141] Setting up inception_4b/output_inception_4b/output_0_split
I0403 17:58:04.270689  6342 net.cpp:148] Top shape: 24 512 14 14 (2408448)
I0403 17:58:04.270704  6342 net.cpp:148] Top shape: 24 512 14 14 (2408448)
I0403 17:58:04.270720  6342 net.cpp:148] Top shape: 24 512 14 14 (2408448)
I0403 17:58:04.270735  6342 net.cpp:148] Top shape: 24 512 14 14 (2408448)
I0403 17:58:04.270747  6342 net.cpp:156] Memory required for data: 1028392224
I0403 17:58:04.270761  6342 layer_factory.hpp:77] Creating layer inception_4c/1x1
I0403 17:58:04.270783  6342 net.cpp:91] Creating Layer inception_4c/1x1
I0403 17:58:04.270799  6342 net.cpp:425] inception_4c/1x1 <- inception_4b/output_inception_4b/output_0_split_0
I0403 17:58:04.270820  6342 net.cpp:399] inception_4c/1x1 -> inception_4c/1x1
I0403 17:58:04.272222  6342 net.cpp:141] Setting up inception_4c/1x1
I0403 17:58:04.272251  6342 net.cpp:148] Top shape: 24 128 14 14 (602112)
I0403 17:58:04.272267  6342 net.cpp:156] Memory required for data: 1030800672
I0403 17:58:04.272297  6342 layer_factory.hpp:77] Creating layer inception_4c/relu_1x1
I0403 17:58:04.272315  6342 net.cpp:91] Creating Layer inception_4c/relu_1x1
I0403 17:58:04.272331  6342 net.cpp:425] inception_4c/relu_1x1 <- inception_4c/1x1
I0403 17:58:04.272349  6342 net.cpp:386] inception_4c/relu_1x1 -> inception_4c/1x1 (in-place)
I0403 17:58:04.272527  6342 net.cpp:141] Setting up inception_4c/relu_1x1
I0403 17:58:04.272552  6342 net.cpp:148] Top shape: 24 128 14 14 (602112)
I0403 17:58:04.272565  6342 net.cpp:156] Memory required for data: 1033209120
I0403 17:58:04.272579  6342 layer_factory.hpp:77] Creating layer inception_4c/3x3_reduce
I0403 17:58:04.272600  6342 net.cpp:91] Creating Layer inception_4c/3x3_reduce
I0403 17:58:04.272617  6342 net.cpp:425] inception_4c/3x3_reduce <- inception_4b/output_inception_4b/output_0_split_1
I0403 17:58:04.272637  6342 net.cpp:399] inception_4c/3x3_reduce -> inception_4c/3x3_reduce
I0403 17:58:04.274525  6342 net.cpp:141] Setting up inception_4c/3x3_reduce
I0403 17:58:04.274554  6342 net.cpp:148] Top shape: 24 128 14 14 (602112)
I0403 17:58:04.274569  6342 net.cpp:156] Memory required for data: 1035617568
I0403 17:58:04.274587  6342 layer_factory.hpp:77] Creating layer inception_4c/relu_3x3_reduce
I0403 17:58:04.274606  6342 net.cpp:91] Creating Layer inception_4c/relu_3x3_reduce
I0403 17:58:04.274623  6342 net.cpp:425] inception_4c/relu_3x3_reduce <- inception_4c/3x3_reduce
I0403 17:58:04.274639  6342 net.cpp:386] inception_4c/relu_3x3_reduce -> inception_4c/3x3_reduce (in-place)
I0403 17:58:04.274922  6342 net.cpp:141] Setting up inception_4c/relu_3x3_reduce
I0403 17:58:04.274947  6342 net.cpp:148] Top shape: 24 128 14 14 (602112)
I0403 17:58:04.274961  6342 net.cpp:156] Memory required for data: 1038026016
I0403 17:58:04.274976  6342 layer_factory.hpp:77] Creating layer inception_4c/3x3
I0403 17:58:04.274997  6342 net.cpp:91] Creating Layer inception_4c/3x3
I0403 17:58:04.275014  6342 net.cpp:425] inception_4c/3x3 <- inception_4c/3x3_reduce
I0403 17:58:04.275034  6342 net.cpp:399] inception_4c/3x3 -> inception_4c/3x3
I0403 17:58:04.278570  6342 net.cpp:141] Setting up inception_4c/3x3
I0403 17:58:04.278610  6342 net.cpp:148] Top shape: 24 256 14 14 (1204224)
I0403 17:58:04.278626  6342 net.cpp:156] Memory required for data: 1042842912
I0403 17:58:04.278656  6342 layer_factory.hpp:77] Creating layer inception_4c/relu_3x3
I0403 17:58:04.278677  6342 net.cpp:91] Creating Layer inception_4c/relu_3x3
I0403 17:58:04.278694  6342 net.cpp:425] inception_4c/relu_3x3 <- inception_4c/3x3
I0403 17:58:04.278710  6342 net.cpp:386] inception_4c/relu_3x3 -> inception_4c/3x3 (in-place)
I0403 17:58:04.278889  6342 net.cpp:141] Setting up inception_4c/relu_3x3
I0403 17:58:04.278913  6342 net.cpp:148] Top shape: 24 256 14 14 (1204224)
I0403 17:58:04.278928  6342 net.cpp:156] Memory required for data: 1047659808
I0403 17:58:04.278942  6342 layer_factory.hpp:77] Creating layer inception_4c/5x5_reduce
I0403 17:58:04.278964  6342 net.cpp:91] Creating Layer inception_4c/5x5_reduce
I0403 17:58:04.278980  6342 net.cpp:425] inception_4c/5x5_reduce <- inception_4b/output_inception_4b/output_0_split_2
I0403 17:58:04.279001  6342 net.cpp:399] inception_4c/5x5_reduce -> inception_4c/5x5_reduce
I0403 17:58:04.280072  6342 net.cpp:141] Setting up inception_4c/5x5_reduce
I0403 17:58:04.280099  6342 net.cpp:148] Top shape: 24 24 14 14 (112896)
I0403 17:58:04.280113  6342 net.cpp:156] Memory required for data: 1048111392
I0403 17:58:04.280131  6342 layer_factory.hpp:77] Creating layer inception_4c/relu_5x5_reduce
I0403 17:58:04.280150  6342 net.cpp:91] Creating Layer inception_4c/relu_5x5_reduce
I0403 17:58:04.280166  6342 net.cpp:425] inception_4c/relu_5x5_reduce <- inception_4c/5x5_reduce
I0403 17:58:04.280184  6342 net.cpp:386] inception_4c/relu_5x5_reduce -> inception_4c/5x5_reduce (in-place)
I0403 17:58:04.280367  6342 net.cpp:141] Setting up inception_4c/relu_5x5_reduce
I0403 17:58:04.280393  6342 net.cpp:148] Top shape: 24 24 14 14 (112896)
I0403 17:58:04.280408  6342 net.cpp:156] Memory required for data: 1048562976
I0403 17:58:04.280422  6342 layer_factory.hpp:77] Creating layer inception_4c/5x5
I0403 17:58:04.280443  6342 net.cpp:91] Creating Layer inception_4c/5x5
I0403 17:58:04.280459  6342 net.cpp:425] inception_4c/5x5 <- inception_4c/5x5_reduce
I0403 17:58:04.280478  6342 net.cpp:399] inception_4c/5x5 -> inception_4c/5x5
I0403 17:58:04.281697  6342 net.cpp:141] Setting up inception_4c/5x5
I0403 17:58:04.281725  6342 net.cpp:148] Top shape: 24 64 14 14 (301056)
I0403 17:58:04.281741  6342 net.cpp:156] Memory required for data: 1049767200
I0403 17:58:04.281759  6342 layer_factory.hpp:77] Creating layer inception_4c/relu_5x5
I0403 17:58:04.281775  6342 net.cpp:91] Creating Layer inception_4c/relu_5x5
I0403 17:58:04.281791  6342 net.cpp:425] inception_4c/relu_5x5 <- inception_4c/5x5
I0403 17:58:04.281807  6342 net.cpp:386] inception_4c/relu_5x5 -> inception_4c/5x5 (in-place)
I0403 17:58:04.282091  6342 net.cpp:141] Setting up inception_4c/relu_5x5
I0403 17:58:04.282119  6342 net.cpp:148] Top shape: 24 64 14 14 (301056)
I0403 17:58:04.282132  6342 net.cpp:156] Memory required for data: 1050971424
I0403 17:58:04.282147  6342 layer_factory.hpp:77] Creating layer inception_4c/pool
I0403 17:58:04.282165  6342 net.cpp:91] Creating Layer inception_4c/pool
I0403 17:58:04.282179  6342 net.cpp:425] inception_4c/pool <- inception_4b/output_inception_4b/output_0_split_3
I0403 17:58:04.282203  6342 net.cpp:399] inception_4c/pool -> inception_4c/pool
I0403 17:58:04.282268  6342 net.cpp:141] Setting up inception_4c/pool
I0403 17:58:04.282301  6342 net.cpp:148] Top shape: 24 512 14 14 (2408448)
I0403 17:58:04.282315  6342 net.cpp:156] Memory required for data: 1060605216
I0403 17:58:04.282330  6342 layer_factory.hpp:77] Creating layer inception_4c/pool_proj
I0403 17:58:04.282351  6342 net.cpp:91] Creating Layer inception_4c/pool_proj
I0403 17:58:04.282367  6342 net.cpp:425] inception_4c/pool_proj <- inception_4c/pool
I0403 17:58:04.282387  6342 net.cpp:399] inception_4c/pool_proj -> inception_4c/pool_proj
I0403 17:58:04.283579  6342 net.cpp:141] Setting up inception_4c/pool_proj
I0403 17:58:04.283606  6342 net.cpp:148] Top shape: 24 64 14 14 (301056)
I0403 17:58:04.283633  6342 net.cpp:156] Memory required for data: 1061809440
I0403 17:58:04.283651  6342 layer_factory.hpp:77] Creating layer inception_4c/relu_pool_proj
I0403 17:58:04.283671  6342 net.cpp:91] Creating Layer inception_4c/relu_pool_proj
I0403 17:58:04.283687  6342 net.cpp:425] inception_4c/relu_pool_proj <- inception_4c/pool_proj
I0403 17:58:04.283704  6342 net.cpp:386] inception_4c/relu_pool_proj -> inception_4c/pool_proj (in-place)
I0403 17:58:04.283880  6342 net.cpp:141] Setting up inception_4c/relu_pool_proj
I0403 17:58:04.283906  6342 net.cpp:148] Top shape: 24 64 14 14 (301056)
I0403 17:58:04.283921  6342 net.cpp:156] Memory required for data: 1063013664
I0403 17:58:04.283936  6342 layer_factory.hpp:77] Creating layer inception_4c/output
I0403 17:58:04.283952  6342 net.cpp:91] Creating Layer inception_4c/output
I0403 17:58:04.283967  6342 net.cpp:425] inception_4c/output <- inception_4c/1x1
I0403 17:58:04.283982  6342 net.cpp:425] inception_4c/output <- inception_4c/3x3
I0403 17:58:04.283998  6342 net.cpp:425] inception_4c/output <- inception_4c/5x5
I0403 17:58:04.284013  6342 net.cpp:425] inception_4c/output <- inception_4c/pool_proj
I0403 17:58:04.284029  6342 net.cpp:399] inception_4c/output -> inception_4c/output
I0403 17:58:04.284076  6342 net.cpp:141] Setting up inception_4c/output
I0403 17:58:04.284098  6342 net.cpp:148] Top shape: 24 512 14 14 (2408448)
I0403 17:58:04.284111  6342 net.cpp:156] Memory required for data: 1072647456
I0403 17:58:04.284126  6342 layer_factory.hpp:77] Creating layer inception_4c/output_inception_4c/output_0_split
I0403 17:58:04.284143  6342 net.cpp:91] Creating Layer inception_4c/output_inception_4c/output_0_split
I0403 17:58:04.284171  6342 net.cpp:425] inception_4c/output_inception_4c/output_0_split <- inception_4c/output
I0403 17:58:04.284191  6342 net.cpp:399] inception_4c/output_inception_4c/output_0_split -> inception_4c/output_inception_4c/output_0_split_0
I0403 17:58:04.284210  6342 net.cpp:399] inception_4c/output_inception_4c/output_0_split -> inception_4c/output_inception_4c/output_0_split_1
I0403 17:58:04.284229  6342 net.cpp:399] inception_4c/output_inception_4c/output_0_split -> inception_4c/output_inception_4c/output_0_split_2
I0403 17:58:04.284248  6342 net.cpp:399] inception_4c/output_inception_4c/output_0_split -> inception_4c/output_inception_4c/output_0_split_3
I0403 17:58:04.284338  6342 net.cpp:141] Setting up inception_4c/output_inception_4c/output_0_split
I0403 17:58:04.284361  6342 net.cpp:148] Top shape: 24 512 14 14 (2408448)
I0403 17:58:04.284378  6342 net.cpp:148] Top shape: 24 512 14 14 (2408448)
I0403 17:58:04.284394  6342 net.cpp:148] Top shape: 24 512 14 14 (2408448)
I0403 17:58:04.284409  6342 net.cpp:148] Top shape: 24 512 14 14 (2408448)
I0403 17:58:04.284421  6342 net.cpp:156] Memory required for data: 1111182624
I0403 17:58:04.284436  6342 layer_factory.hpp:77] Creating layer inception_4d/1x1
I0403 17:58:04.284469  6342 net.cpp:91] Creating Layer inception_4d/1x1
I0403 17:58:04.284487  6342 net.cpp:425] inception_4d/1x1 <- inception_4c/output_inception_4c/output_0_split_0
I0403 17:58:04.284507  6342 net.cpp:399] inception_4d/1x1 -> inception_4d/1x1
I0403 17:58:04.285847  6342 net.cpp:141] Setting up inception_4d/1x1
I0403 17:58:04.285874  6342 net.cpp:148] Top shape: 24 112 14 14 (526848)
I0403 17:58:04.285889  6342 net.cpp:156] Memory required for data: 1113290016
I0403 17:58:04.285907  6342 layer_factory.hpp:77] Creating layer inception_4d/relu_1x1
I0403 17:58:04.285925  6342 net.cpp:91] Creating Layer inception_4d/relu_1x1
I0403 17:58:04.285939  6342 net.cpp:425] inception_4d/relu_1x1 <- inception_4d/1x1
I0403 17:58:04.285959  6342 net.cpp:386] inception_4d/relu_1x1 -> inception_4d/1x1 (in-place)
I0403 17:58:04.286140  6342 net.cpp:141] Setting up inception_4d/relu_1x1
I0403 17:58:04.286164  6342 net.cpp:148] Top shape: 24 112 14 14 (526848)
I0403 17:58:04.286178  6342 net.cpp:156] Memory required for data: 1115397408
I0403 17:58:04.286193  6342 layer_factory.hpp:77] Creating layer inception_4d/3x3_reduce
I0403 17:58:04.286231  6342 net.cpp:91] Creating Layer inception_4d/3x3_reduce
I0403 17:58:04.286248  6342 net.cpp:425] inception_4d/3x3_reduce <- inception_4c/output_inception_4c/output_0_split_1
I0403 17:58:04.286268  6342 net.cpp:399] inception_4d/3x3_reduce -> inception_4d/3x3_reduce
I0403 17:58:04.287833  6342 net.cpp:141] Setting up inception_4d/3x3_reduce
I0403 17:58:04.287863  6342 net.cpp:148] Top shape: 24 144 14 14 (677376)
I0403 17:58:04.287879  6342 net.cpp:156] Memory required for data: 1118106912
I0403 17:58:04.287897  6342 layer_factory.hpp:77] Creating layer inception_4d/relu_3x3_reduce
I0403 17:58:04.287915  6342 net.cpp:91] Creating Layer inception_4d/relu_3x3_reduce
I0403 17:58:04.287931  6342 net.cpp:425] inception_4d/relu_3x3_reduce <- inception_4d/3x3_reduce
I0403 17:58:04.287950  6342 net.cpp:386] inception_4d/relu_3x3_reduce -> inception_4d/3x3_reduce (in-place)
I0403 17:58:04.288239  6342 net.cpp:141] Setting up inception_4d/relu_3x3_reduce
I0403 17:58:04.288267  6342 net.cpp:148] Top shape: 24 144 14 14 (677376)
I0403 17:58:04.288288  6342 net.cpp:156] Memory required for data: 1120816416
I0403 17:58:04.288303  6342 layer_factory.hpp:77] Creating layer inception_4d/3x3
I0403 17:58:04.288326  6342 net.cpp:91] Creating Layer inception_4d/3x3
I0403 17:58:04.288343  6342 net.cpp:425] inception_4d/3x3 <- inception_4d/3x3_reduce
I0403 17:58:04.288362  6342 net.cpp:399] inception_4d/3x3 -> inception_4d/3x3
I0403 17:58:04.292781  6342 net.cpp:141] Setting up inception_4d/3x3
I0403 17:58:04.292812  6342 net.cpp:148] Top shape: 24 288 14 14 (1354752)
I0403 17:58:04.292829  6342 net.cpp:156] Memory required for data: 1126235424
I0403 17:58:04.292846  6342 layer_factory.hpp:77] Creating layer inception_4d/relu_3x3
I0403 17:58:04.292867  6342 net.cpp:91] Creating Layer inception_4d/relu_3x3
I0403 17:58:04.292884  6342 net.cpp:425] inception_4d/relu_3x3 <- inception_4d/3x3
I0403 17:58:04.292903  6342 net.cpp:386] inception_4d/relu_3x3 -> inception_4d/3x3 (in-place)
I0403 17:58:04.293090  6342 net.cpp:141] Setting up inception_4d/relu_3x3
I0403 17:58:04.293115  6342 net.cpp:148] Top shape: 24 288 14 14 (1354752)
I0403 17:58:04.293130  6342 net.cpp:156] Memory required for data: 1131654432
I0403 17:58:04.293145  6342 layer_factory.hpp:77] Creating layer inception_4d/5x5_reduce
I0403 17:58:04.293167  6342 net.cpp:91] Creating Layer inception_4d/5x5_reduce
I0403 17:58:04.293187  6342 net.cpp:425] inception_4d/5x5_reduce <- inception_4c/output_inception_4c/output_0_split_2
I0403 17:58:04.293206  6342 net.cpp:399] inception_4d/5x5_reduce -> inception_4d/5x5_reduce
I0403 17:58:04.294452  6342 net.cpp:141] Setting up inception_4d/5x5_reduce
I0403 17:58:04.294484  6342 net.cpp:148] Top shape: 24 32 14 14 (150528)
I0403 17:58:04.294500  6342 net.cpp:156] Memory required for data: 1132256544
I0403 17:58:04.294520  6342 layer_factory.hpp:77] Creating layer inception_4d/relu_5x5_reduce
I0403 17:58:04.294538  6342 net.cpp:91] Creating Layer inception_4d/relu_5x5_reduce
I0403 17:58:04.294556  6342 net.cpp:425] inception_4d/relu_5x5_reduce <- inception_4d/5x5_reduce
I0403 17:58:04.294577  6342 net.cpp:386] inception_4d/relu_5x5_reduce -> inception_4d/5x5_reduce (in-place)
I0403 17:58:04.294788  6342 net.cpp:141] Setting up inception_4d/relu_5x5_reduce
I0403 17:58:04.294813  6342 net.cpp:148] Top shape: 24 32 14 14 (150528)
I0403 17:58:04.294828  6342 net.cpp:156] Memory required for data: 1132858656
I0403 17:58:04.294843  6342 layer_factory.hpp:77] Creating layer inception_4d/5x5
I0403 17:58:04.294865  6342 net.cpp:91] Creating Layer inception_4d/5x5
I0403 17:58:04.294883  6342 net.cpp:425] inception_4d/5x5 <- inception_4d/5x5_reduce
I0403 17:58:04.294905  6342 net.cpp:399] inception_4d/5x5 -> inception_4d/5x5
I0403 17:58:04.296501  6342 net.cpp:141] Setting up inception_4d/5x5
I0403 17:58:04.296530  6342 net.cpp:148] Top shape: 24 64 14 14 (301056)
I0403 17:58:04.296550  6342 net.cpp:156] Memory required for data: 1134062880
I0403 17:58:04.296571  6342 layer_factory.hpp:77] Creating layer inception_4d/relu_5x5
I0403 17:58:04.296615  6342 net.cpp:91] Creating Layer inception_4d/relu_5x5
I0403 17:58:04.296633  6342 net.cpp:425] inception_4d/relu_5x5 <- inception_4d/5x5
I0403 17:58:04.296651  6342 net.cpp:386] inception_4d/relu_5x5 -> inception_4d/5x5 (in-place)
I0403 17:58:04.296960  6342 net.cpp:141] Setting up inception_4d/relu_5x5
I0403 17:58:04.296991  6342 net.cpp:148] Top shape: 24 64 14 14 (301056)
I0403 17:58:04.297008  6342 net.cpp:156] Memory required for data: 1135267104
I0403 17:58:04.297022  6342 layer_factory.hpp:77] Creating layer inception_4d/pool
I0403 17:58:04.297040  6342 net.cpp:91] Creating Layer inception_4d/pool
I0403 17:58:04.297057  6342 net.cpp:425] inception_4d/pool <- inception_4c/output_inception_4c/output_0_split_3
I0403 17:58:04.297076  6342 net.cpp:399] inception_4d/pool -> inception_4d/pool
I0403 17:58:04.297147  6342 net.cpp:141] Setting up inception_4d/pool
I0403 17:58:04.297170  6342 net.cpp:148] Top shape: 24 512 14 14 (2408448)
I0403 17:58:04.297184  6342 net.cpp:156] Memory required for data: 1144900896
I0403 17:58:04.297199  6342 layer_factory.hpp:77] Creating layer inception_4d/pool_proj
I0403 17:58:04.297222  6342 net.cpp:91] Creating Layer inception_4d/pool_proj
I0403 17:58:04.297240  6342 net.cpp:425] inception_4d/pool_proj <- inception_4d/pool
I0403 17:58:04.297261  6342 net.cpp:399] inception_4d/pool_proj -> inception_4d/pool_proj
I0403 17:58:04.299149  6342 net.cpp:141] Setting up inception_4d/pool_proj
I0403 17:58:04.299178  6342 net.cpp:148] Top shape: 24 64 14 14 (301056)
I0403 17:58:04.299195  6342 net.cpp:156] Memory required for data: 1146105120
I0403 17:58:04.299212  6342 layer_factory.hpp:77] Creating layer inception_4d/relu_pool_proj
I0403 17:58:04.299233  6342 net.cpp:91] Creating Layer inception_4d/relu_pool_proj
I0403 17:58:04.299250  6342 net.cpp:425] inception_4d/relu_pool_proj <- inception_4d/pool_proj
I0403 17:58:04.299268  6342 net.cpp:386] inception_4d/relu_pool_proj -> inception_4d/pool_proj (in-place)
I0403 17:58:04.299482  6342 net.cpp:141] Setting up inception_4d/relu_pool_proj
I0403 17:58:04.299509  6342 net.cpp:148] Top shape: 24 64 14 14 (301056)
I0403 17:58:04.299523  6342 net.cpp:156] Memory required for data: 1147309344
I0403 17:58:04.299540  6342 layer_factory.hpp:77] Creating layer inception_4d/output
I0403 17:58:04.299559  6342 net.cpp:91] Creating Layer inception_4d/output
I0403 17:58:04.299577  6342 net.cpp:425] inception_4d/output <- inception_4d/1x1
I0403 17:58:04.299595  6342 net.cpp:425] inception_4d/output <- inception_4d/3x3
I0403 17:58:04.299623  6342 net.cpp:425] inception_4d/output <- inception_4d/5x5
I0403 17:58:04.299639  6342 net.cpp:425] inception_4d/output <- inception_4d/pool_proj
I0403 17:58:04.299656  6342 net.cpp:399] inception_4d/output -> inception_4d/output
I0403 17:58:04.299706  6342 net.cpp:141] Setting up inception_4d/output
I0403 17:58:04.299731  6342 net.cpp:148] Top shape: 24 528 14 14 (2483712)
I0403 17:58:04.299746  6342 net.cpp:156] Memory required for data: 1157244192
I0403 17:58:04.299760  6342 layer_factory.hpp:77] Creating layer inception_4d/output_inception_4d/output_0_split
I0403 17:58:04.299778  6342 net.cpp:91] Creating Layer inception_4d/output_inception_4d/output_0_split
I0403 17:58:04.299794  6342 net.cpp:425] inception_4d/output_inception_4d/output_0_split <- inception_4d/output
I0403 17:58:04.299814  6342 net.cpp:399] inception_4d/output_inception_4d/output_0_split -> inception_4d/output_inception_4d/output_0_split_0
I0403 17:58:04.299835  6342 net.cpp:399] inception_4d/output_inception_4d/output_0_split -> inception_4d/output_inception_4d/output_0_split_1
I0403 17:58:04.299856  6342 net.cpp:399] inception_4d/output_inception_4d/output_0_split -> inception_4d/output_inception_4d/output_0_split_2
I0403 17:58:04.299877  6342 net.cpp:399] inception_4d/output_inception_4d/output_0_split -> inception_4d/output_inception_4d/output_0_split_3
I0403 17:58:04.299901  6342 net.cpp:399] inception_4d/output_inception_4d/output_0_split -> inception_4d/output_inception_4d/output_0_split_4
I0403 17:58:04.300006  6342 net.cpp:141] Setting up inception_4d/output_inception_4d/output_0_split
I0403 17:58:04.300045  6342 net.cpp:148] Top shape: 24 528 14 14 (2483712)
I0403 17:58:04.300062  6342 net.cpp:148] Top shape: 24 528 14 14 (2483712)
I0403 17:58:04.300078  6342 net.cpp:148] Top shape: 24 528 14 14 (2483712)
I0403 17:58:04.300094  6342 net.cpp:148] Top shape: 24 528 14 14 (2483712)
I0403 17:58:04.300110  6342 net.cpp:148] Top shape: 24 528 14 14 (2483712)
I0403 17:58:04.300124  6342 net.cpp:156] Memory required for data: 1206918432
I0403 17:58:04.300139  6342 layer_factory.hpp:77] Creating layer loss2/ave_pool
I0403 17:58:04.300158  6342 net.cpp:91] Creating Layer loss2/ave_pool
I0403 17:58:04.300173  6342 net.cpp:425] loss2/ave_pool <- inception_4d/output_inception_4d/output_0_split_0
I0403 17:58:04.300194  6342 net.cpp:399] loss2/ave_pool -> loss2/ave_pool
I0403 17:58:04.300521  6342 net.cpp:141] Setting up loss2/ave_pool
I0403 17:58:04.300549  6342 net.cpp:148] Top shape: 24 528 4 4 (202752)
I0403 17:58:04.300564  6342 net.cpp:156] Memory required for data: 1207729440
I0403 17:58:04.300580  6342 layer_factory.hpp:77] Creating layer loss2/conv
I0403 17:58:04.300602  6342 net.cpp:91] Creating Layer loss2/conv
I0403 17:58:04.300619  6342 net.cpp:425] loss2/conv <- loss2/ave_pool
I0403 17:58:04.300643  6342 net.cpp:399] loss2/conv -> loss2/conv
I0403 17:58:04.302595  6342 net.cpp:141] Setting up loss2/conv
I0403 17:58:04.302624  6342 net.cpp:148] Top shape: 24 128 4 4 (49152)
I0403 17:58:04.302640  6342 net.cpp:156] Memory required for data: 1207926048
I0403 17:58:04.302659  6342 layer_factory.hpp:77] Creating layer loss2/relu_conv
I0403 17:58:04.302680  6342 net.cpp:91] Creating Layer loss2/relu_conv
I0403 17:58:04.302696  6342 net.cpp:425] loss2/relu_conv <- loss2/conv
I0403 17:58:04.302714  6342 net.cpp:386] loss2/relu_conv -> loss2/conv (in-place)
I0403 17:58:04.303009  6342 net.cpp:141] Setting up loss2/relu_conv
I0403 17:58:04.303035  6342 net.cpp:148] Top shape: 24 128 4 4 (49152)
I0403 17:58:04.303050  6342 net.cpp:156] Memory required for data: 1208122656
I0403 17:58:04.303066  6342 layer_factory.hpp:77] Creating layer loss2/fc
I0403 17:58:04.303087  6342 net.cpp:91] Creating Layer loss2/fc
I0403 17:58:04.303105  6342 net.cpp:425] loss2/fc <- loss2/conv
I0403 17:58:04.303127  6342 net.cpp:399] loss2/fc -> loss2/fc
I0403 17:58:04.320883  6342 net.cpp:141] Setting up loss2/fc
I0403 17:58:04.320942  6342 net.cpp:148] Top shape: 24 1024 (24576)
I0403 17:58:04.320957  6342 net.cpp:156] Memory required for data: 1208220960
I0403 17:58:04.320977  6342 layer_factory.hpp:77] Creating layer loss2/relu_fc
I0403 17:58:04.320997  6342 net.cpp:91] Creating Layer loss2/relu_fc
I0403 17:58:04.321014  6342 net.cpp:425] loss2/relu_fc <- loss2/fc
I0403 17:58:04.321035  6342 net.cpp:386] loss2/relu_fc -> loss2/fc (in-place)
I0403 17:58:04.321380  6342 net.cpp:141] Setting up loss2/relu_fc
I0403 17:58:04.321406  6342 net.cpp:148] Top shape: 24 1024 (24576)
I0403 17:58:04.321422  6342 net.cpp:156] Memory required for data: 1208319264
I0403 17:58:04.321437  6342 layer_factory.hpp:77] Creating layer loss2/drop_fc
I0403 17:58:04.321455  6342 net.cpp:91] Creating Layer loss2/drop_fc
I0403 17:58:04.321470  6342 net.cpp:425] loss2/drop_fc <- loss2/fc
I0403 17:58:04.321490  6342 net.cpp:386] loss2/drop_fc -> loss2/fc (in-place)
I0403 17:58:04.321543  6342 net.cpp:141] Setting up loss2/drop_fc
I0403 17:58:04.321565  6342 net.cpp:148] Top shape: 24 1024 (24576)
I0403 17:58:04.321580  6342 net.cpp:156] Memory required for data: 1208417568
I0403 17:58:04.321594  6342 layer_factory.hpp:77] Creating layer loss2/classifier_plantvillage
I0403 17:58:04.321614  6342 net.cpp:91] Creating Layer loss2/classifier_plantvillage
I0403 17:58:04.321630  6342 net.cpp:425] loss2/classifier_plantvillage <- loss2/fc
I0403 17:58:04.321650  6342 net.cpp:399] loss2/classifier_plantvillage -> loss2/classifier_plantvillage
I0403 17:58:04.322064  6342 net.cpp:141] Setting up loss2/classifier_plantvillage
I0403 17:58:04.322088  6342 net.cpp:148] Top shape: 24 38 (912)
I0403 17:58:04.322129  6342 net.cpp:156] Memory required for data: 1208421216
I0403 17:58:04.322147  6342 layer_factory.hpp:77] Creating layer loss2/classifier_plantvillage_loss2/classifier_plantvillage_0_split
I0403 17:58:04.322168  6342 net.cpp:91] Creating Layer loss2/classifier_plantvillage_loss2/classifier_plantvillage_0_split
I0403 17:58:04.322185  6342 net.cpp:425] loss2/classifier_plantvillage_loss2/classifier_plantvillage_0_split <- loss2/classifier_plantvillage
I0403 17:58:04.322204  6342 net.cpp:399] loss2/classifier_plantvillage_loss2/classifier_plantvillage_0_split -> loss2/classifier_plantvillage_loss2/classifier_plantvillage_0_split_0
I0403 17:58:04.322226  6342 net.cpp:399] loss2/classifier_plantvillage_loss2/classifier_plantvillage_0_split -> loss2/classifier_plantvillage_loss2/classifier_plantvillage_0_split_1
I0403 17:58:04.322247  6342 net.cpp:399] loss2/classifier_plantvillage_loss2/classifier_plantvillage_0_split -> loss2/classifier_plantvillage_loss2/classifier_plantvillage_0_split_2
I0403 17:58:04.322335  6342 net.cpp:141] Setting up loss2/classifier_plantvillage_loss2/classifier_plantvillage_0_split
I0403 17:58:04.322360  6342 net.cpp:148] Top shape: 24 38 (912)
I0403 17:58:04.322374  6342 net.cpp:148] Top shape: 24 38 (912)
I0403 17:58:04.322391  6342 net.cpp:148] Top shape: 24 38 (912)
I0403 17:58:04.322403  6342 net.cpp:156] Memory required for data: 1208432160
I0403 17:58:04.322418  6342 layer_factory.hpp:77] Creating layer inception_4e/1x1
I0403 17:58:04.322441  6342 net.cpp:91] Creating Layer inception_4e/1x1
I0403 17:58:04.322458  6342 net.cpp:425] inception_4e/1x1 <- inception_4d/output_inception_4d/output_0_split_1
I0403 17:58:04.322477  6342 net.cpp:399] inception_4e/1x1 -> inception_4e/1x1
I0403 17:58:04.324334  6342 net.cpp:141] Setting up inception_4e/1x1
I0403 17:58:04.324364  6342 net.cpp:148] Top shape: 24 256 14 14 (1204224)
I0403 17:58:04.324380  6342 net.cpp:156] Memory required for data: 1213249056
I0403 17:58:04.324398  6342 layer_factory.hpp:77] Creating layer inception_4e/relu_1x1
I0403 17:58:04.324416  6342 net.cpp:91] Creating Layer inception_4e/relu_1x1
I0403 17:58:04.324432  6342 net.cpp:425] inception_4e/relu_1x1 <- inception_4e/1x1
I0403 17:58:04.324450  6342 net.cpp:386] inception_4e/relu_1x1 -> inception_4e/1x1 (in-place)
I0403 17:58:04.324744  6342 net.cpp:141] Setting up inception_4e/relu_1x1
I0403 17:58:04.324772  6342 net.cpp:148] Top shape: 24 256 14 14 (1204224)
I0403 17:58:04.324789  6342 net.cpp:156] Memory required for data: 1218065952
I0403 17:58:04.324803  6342 layer_factory.hpp:77] Creating layer inception_4e/3x3_reduce
I0403 17:58:04.324826  6342 net.cpp:91] Creating Layer inception_4e/3x3_reduce
I0403 17:58:04.324842  6342 net.cpp:425] inception_4e/3x3_reduce <- inception_4d/output_inception_4d/output_0_split_2
I0403 17:58:04.324862  6342 net.cpp:399] inception_4e/3x3_reduce -> inception_4e/3x3_reduce
I0403 17:58:04.327010  6342 net.cpp:141] Setting up inception_4e/3x3_reduce
I0403 17:58:04.327039  6342 net.cpp:148] Top shape: 24 160 14 14 (752640)
I0403 17:58:04.327054  6342 net.cpp:156] Memory required for data: 1221076512
I0403 17:58:04.327072  6342 layer_factory.hpp:77] Creating layer inception_4e/relu_3x3_reduce
I0403 17:58:04.327093  6342 net.cpp:91] Creating Layer inception_4e/relu_3x3_reduce
I0403 17:58:04.327111  6342 net.cpp:425] inception_4e/relu_3x3_reduce <- inception_4e/3x3_reduce
I0403 17:58:04.327128  6342 net.cpp:386] inception_4e/relu_3x3_reduce -> inception_4e/3x3_reduce (in-place)
I0403 17:58:04.327317  6342 net.cpp:141] Setting up inception_4e/relu_3x3_reduce
I0403 17:58:04.327344  6342 net.cpp:148] Top shape: 24 160 14 14 (752640)
I0403 17:58:04.327359  6342 net.cpp:156] Memory required for data: 1224087072
I0403 17:58:04.327373  6342 layer_factory.hpp:77] Creating layer inception_4e/3x3
I0403 17:58:04.327395  6342 net.cpp:91] Creating Layer inception_4e/3x3
I0403 17:58:04.327412  6342 net.cpp:425] inception_4e/3x3 <- inception_4e/3x3_reduce
I0403 17:58:04.327433  6342 net.cpp:399] inception_4e/3x3 -> inception_4e/3x3
I0403 17:58:04.332414  6342 net.cpp:141] Setting up inception_4e/3x3
I0403 17:58:04.332456  6342 net.cpp:148] Top shape: 24 320 14 14 (1505280)
I0403 17:58:04.332471  6342 net.cpp:156] Memory required for data: 1230108192
I0403 17:58:04.332489  6342 layer_factory.hpp:77] Creating layer inception_4e/relu_3x3
I0403 17:58:04.332506  6342 net.cpp:91] Creating Layer inception_4e/relu_3x3
I0403 17:58:04.332522  6342 net.cpp:425] inception_4e/relu_3x3 <- inception_4e/3x3
I0403 17:58:04.332541  6342 net.cpp:386] inception_4e/relu_3x3 -> inception_4e/3x3 (in-place)
I0403 17:58:04.332834  6342 net.cpp:141] Setting up inception_4e/relu_3x3
I0403 17:58:04.332860  6342 net.cpp:148] Top shape: 24 320 14 14 (1505280)
I0403 17:58:04.332873  6342 net.cpp:156] Memory required for data: 1236129312
I0403 17:58:04.332888  6342 layer_factory.hpp:77] Creating layer inception_4e/5x5_reduce
I0403 17:58:04.332911  6342 net.cpp:91] Creating Layer inception_4e/5x5_reduce
I0403 17:58:04.332926  6342 net.cpp:425] inception_4e/5x5_reduce <- inception_4d/output_inception_4d/output_0_split_3
I0403 17:58:04.332947  6342 net.cpp:399] inception_4e/5x5_reduce -> inception_4e/5x5_reduce
I0403 17:58:04.333991  6342 net.cpp:141] Setting up inception_4e/5x5_reduce
I0403 17:58:04.334017  6342 net.cpp:148] Top shape: 24 32 14 14 (150528)
I0403 17:58:04.334035  6342 net.cpp:156] Memory required for data: 1236731424
I0403 17:58:04.334053  6342 layer_factory.hpp:77] Creating layer inception_4e/relu_5x5_reduce
I0403 17:58:04.334070  6342 net.cpp:91] Creating Layer inception_4e/relu_5x5_reduce
I0403 17:58:04.334085  6342 net.cpp:425] inception_4e/relu_5x5_reduce <- inception_4e/5x5_reduce
I0403 17:58:04.334101  6342 net.cpp:386] inception_4e/relu_5x5_reduce -> inception_4e/5x5_reduce (in-place)
I0403 17:58:04.334394  6342 net.cpp:141] Setting up inception_4e/relu_5x5_reduce
I0403 17:58:04.334419  6342 net.cpp:148] Top shape: 24 32 14 14 (150528)
I0403 17:58:04.334439  6342 net.cpp:156] Memory required for data: 1237333536
I0403 17:58:04.334455  6342 layer_factory.hpp:77] Creating layer inception_4e/5x5
I0403 17:58:04.334491  6342 net.cpp:91] Creating Layer inception_4e/5x5
I0403 17:58:04.334509  6342 net.cpp:425] inception_4e/5x5 <- inception_4e/5x5_reduce
I0403 17:58:04.334530  6342 net.cpp:399] inception_4e/5x5 -> inception_4e/5x5
I0403 17:58:04.336331  6342 net.cpp:141] Setting up inception_4e/5x5
I0403 17:58:04.336359  6342 net.cpp:148] Top shape: 24 128 14 14 (602112)
I0403 17:58:04.336372  6342 net.cpp:156] Memory required for data: 1239741984
I0403 17:58:04.336391  6342 layer_factory.hpp:77] Creating layer inception_4e/relu_5x5
I0403 17:58:04.336410  6342 net.cpp:91] Creating Layer inception_4e/relu_5x5
I0403 17:58:04.336426  6342 net.cpp:425] inception_4e/relu_5x5 <- inception_4e/5x5
I0403 17:58:04.336443  6342 net.cpp:386] inception_4e/relu_5x5 -> inception_4e/5x5 (in-place)
I0403 17:58:04.336635  6342 net.cpp:141] Setting up inception_4e/relu_5x5
I0403 17:58:04.336659  6342 net.cpp:148] Top shape: 24 128 14 14 (602112)
I0403 17:58:04.336673  6342 net.cpp:156] Memory required for data: 1242150432
I0403 17:58:04.336688  6342 layer_factory.hpp:77] Creating layer inception_4e/pool
I0403 17:58:04.336707  6342 net.cpp:91] Creating Layer inception_4e/pool
I0403 17:58:04.336724  6342 net.cpp:425] inception_4e/pool <- inception_4d/output_inception_4d/output_0_split_4
I0403 17:58:04.336740  6342 net.cpp:399] inception_4e/pool -> inception_4e/pool
I0403 17:58:04.336810  6342 net.cpp:141] Setting up inception_4e/pool
I0403 17:58:04.336833  6342 net.cpp:148] Top shape: 24 528 14 14 (2483712)
I0403 17:58:04.336846  6342 net.cpp:156] Memory required for data: 1252085280
I0403 17:58:04.336860  6342 layer_factory.hpp:77] Creating layer inception_4e/pool_proj
I0403 17:58:04.336881  6342 net.cpp:91] Creating Layer inception_4e/pool_proj
I0403 17:58:04.336897  6342 net.cpp:425] inception_4e/pool_proj <- inception_4e/pool
I0403 17:58:04.336917  6342 net.cpp:399] inception_4e/pool_proj -> inception_4e/pool_proj
I0403 17:58:04.338382  6342 net.cpp:141] Setting up inception_4e/pool_proj
I0403 17:58:04.338419  6342 net.cpp:148] Top shape: 24 128 14 14 (602112)
I0403 17:58:04.338434  6342 net.cpp:156] Memory required for data: 1254493728
I0403 17:58:04.338451  6342 layer_factory.hpp:77] Creating layer inception_4e/relu_pool_proj
I0403 17:58:04.338471  6342 net.cpp:91] Creating Layer inception_4e/relu_pool_proj
I0403 17:58:04.338488  6342 net.cpp:425] inception_4e/relu_pool_proj <- inception_4e/pool_proj
I0403 17:58:04.338505  6342 net.cpp:386] inception_4e/relu_pool_proj -> inception_4e/pool_proj (in-place)
I0403 17:58:04.338790  6342 net.cpp:141] Setting up inception_4e/relu_pool_proj
I0403 17:58:04.338815  6342 net.cpp:148] Top shape: 24 128 14 14 (602112)
I0403 17:58:04.338829  6342 net.cpp:156] Memory required for data: 1256902176
I0403 17:58:04.338843  6342 layer_factory.hpp:77] Creating layer inception_4e/output
I0403 17:58:04.338860  6342 net.cpp:91] Creating Layer inception_4e/output
I0403 17:58:04.338876  6342 net.cpp:425] inception_4e/output <- inception_4e/1x1
I0403 17:58:04.338891  6342 net.cpp:425] inception_4e/output <- inception_4e/3x3
I0403 17:58:04.338910  6342 net.cpp:425] inception_4e/output <- inception_4e/5x5
I0403 17:58:04.338927  6342 net.cpp:425] inception_4e/output <- inception_4e/pool_proj
I0403 17:58:04.338943  6342 net.cpp:399] inception_4e/output -> inception_4e/output
I0403 17:58:04.338989  6342 net.cpp:141] Setting up inception_4e/output
I0403 17:58:04.339015  6342 net.cpp:148] Top shape: 24 832 14 14 (3913728)
I0403 17:58:04.339028  6342 net.cpp:156] Memory required for data: 1272557088
I0403 17:58:04.339042  6342 layer_factory.hpp:77] Creating layer pool4/3x3_s2
I0403 17:58:04.339059  6342 net.cpp:91] Creating Layer pool4/3x3_s2
I0403 17:58:04.339074  6342 net.cpp:425] pool4/3x3_s2 <- inception_4e/output
I0403 17:58:04.339095  6342 net.cpp:399] pool4/3x3_s2 -> pool4/3x3_s2
I0403 17:58:04.339159  6342 net.cpp:141] Setting up pool4/3x3_s2
I0403 17:58:04.339181  6342 net.cpp:148] Top shape: 24 832 7 7 (978432)
I0403 17:58:04.339195  6342 net.cpp:156] Memory required for data: 1276470816
I0403 17:58:04.339208  6342 layer_factory.hpp:77] Creating layer pool4/3x3_s2_pool4/3x3_s2_0_split
I0403 17:58:04.339228  6342 net.cpp:91] Creating Layer pool4/3x3_s2_pool4/3x3_s2_0_split
I0403 17:58:04.339243  6342 net.cpp:425] pool4/3x3_s2_pool4/3x3_s2_0_split <- pool4/3x3_s2
I0403 17:58:04.339260  6342 net.cpp:399] pool4/3x3_s2_pool4/3x3_s2_0_split -> pool4/3x3_s2_pool4/3x3_s2_0_split_0
I0403 17:58:04.339284  6342 net.cpp:399] pool4/3x3_s2_pool4/3x3_s2_0_split -> pool4/3x3_s2_pool4/3x3_s2_0_split_1
I0403 17:58:04.339304  6342 net.cpp:399] pool4/3x3_s2_pool4/3x3_s2_0_split -> pool4/3x3_s2_pool4/3x3_s2_0_split_2
I0403 17:58:04.339325  6342 net.cpp:399] pool4/3x3_s2_pool4/3x3_s2_0_split -> pool4/3x3_s2_pool4/3x3_s2_0_split_3
I0403 17:58:04.339416  6342 net.cpp:141] Setting up pool4/3x3_s2_pool4/3x3_s2_0_split
I0403 17:58:04.339437  6342 net.cpp:148] Top shape: 24 832 7 7 (978432)
I0403 17:58:04.339453  6342 net.cpp:148] Top shape: 24 832 7 7 (978432)
I0403 17:58:04.339468  6342 net.cpp:148] Top shape: 24 832 7 7 (978432)
I0403 17:58:04.339483  6342 net.cpp:148] Top shape: 24 832 7 7 (978432)
I0403 17:58:04.339498  6342 net.cpp:156] Memory required for data: 1292125728
I0403 17:58:04.339511  6342 layer_factory.hpp:77] Creating layer inception_5a/1x1
I0403 17:58:04.339532  6342 net.cpp:91] Creating Layer inception_5a/1x1
I0403 17:58:04.339548  6342 net.cpp:425] inception_5a/1x1 <- pool4/3x3_s2_pool4/3x3_s2_0_split_0
I0403 17:58:04.339570  6342 net.cpp:399] inception_5a/1x1 -> inception_5a/1x1
I0403 17:58:04.342458  6342 net.cpp:141] Setting up inception_5a/1x1
I0403 17:58:04.342489  6342 net.cpp:148] Top shape: 24 256 7 7 (301056)
I0403 17:58:04.342504  6342 net.cpp:156] Memory required for data: 1293329952
I0403 17:58:04.342524  6342 layer_factory.hpp:77] Creating layer inception_5a/relu_1x1
I0403 17:58:04.342543  6342 net.cpp:91] Creating Layer inception_5a/relu_1x1
I0403 17:58:04.342561  6342 net.cpp:425] inception_5a/relu_1x1 <- inception_5a/1x1
I0403 17:58:04.342579  6342 net.cpp:386] inception_5a/relu_1x1 -> inception_5a/1x1 (in-place)
I0403 17:58:04.342908  6342 net.cpp:141] Setting up inception_5a/relu_1x1
I0403 17:58:04.342934  6342 net.cpp:148] Top shape: 24 256 7 7 (301056)
I0403 17:58:04.342950  6342 net.cpp:156] Memory required for data: 1294534176
I0403 17:58:04.342965  6342 layer_factory.hpp:77] Creating layer inception_5a/3x3_reduce
I0403 17:58:04.342988  6342 net.cpp:91] Creating Layer inception_5a/3x3_reduce
I0403 17:58:04.343006  6342 net.cpp:425] inception_5a/3x3_reduce <- pool4/3x3_s2_pool4/3x3_s2_0_split_1
I0403 17:58:04.343029  6342 net.cpp:399] inception_5a/3x3_reduce -> inception_5a/3x3_reduce
I0403 17:58:04.345569  6342 net.cpp:141] Setting up inception_5a/3x3_reduce
I0403 17:58:04.345599  6342 net.cpp:148] Top shape: 24 160 7 7 (188160)
I0403 17:58:04.345615  6342 net.cpp:156] Memory required for data: 1295286816
I0403 17:58:04.345633  6342 layer_factory.hpp:77] Creating layer inception_5a/relu_3x3_reduce
I0403 17:58:04.345651  6342 net.cpp:91] Creating Layer inception_5a/relu_3x3_reduce
I0403 17:58:04.345669  6342 net.cpp:425] inception_5a/relu_3x3_reduce <- inception_5a/3x3_reduce
I0403 17:58:04.345690  6342 net.cpp:386] inception_5a/relu_3x3_reduce -> inception_5a/3x3_reduce (in-place)
I0403 17:58:04.345878  6342 net.cpp:141] Setting up inception_5a/relu_3x3_reduce
I0403 17:58:04.345903  6342 net.cpp:148] Top shape: 24 160 7 7 (188160)
I0403 17:58:04.345917  6342 net.cpp:156] Memory required for data: 1296039456
I0403 17:58:04.345932  6342 layer_factory.hpp:77] Creating layer inception_5a/3x3
I0403 17:58:04.345954  6342 net.cpp:91] Creating Layer inception_5a/3x3
I0403 17:58:04.345973  6342 net.cpp:425] inception_5a/3x3 <- inception_5a/3x3_reduce
I0403 17:58:04.345993  6342 net.cpp:399] inception_5a/3x3 -> inception_5a/3x3
I0403 17:58:04.351027  6342 net.cpp:141] Setting up inception_5a/3x3
I0403 17:58:04.351057  6342 net.cpp:148] Top shape: 24 320 7 7 (376320)
I0403 17:58:04.351073  6342 net.cpp:156] Memory required for data: 1297544736
I0403 17:58:04.351091  6342 layer_factory.hpp:77] Creating layer inception_5a/relu_3x3
I0403 17:58:04.351111  6342 net.cpp:91] Creating Layer inception_5a/relu_3x3
I0403 17:58:04.351127  6342 net.cpp:425] inception_5a/relu_3x3 <- inception_5a/3x3
I0403 17:58:04.351145  6342 net.cpp:386] inception_5a/relu_3x3 -> inception_5a/3x3 (in-place)
I0403 17:58:04.351445  6342 net.cpp:141] Setting up inception_5a/relu_3x3
I0403 17:58:04.351471  6342 net.cpp:148] Top shape: 24 320 7 7 (376320)
I0403 17:58:04.351485  6342 net.cpp:156] Memory required for data: 1299050016
I0403 17:58:04.351500  6342 layer_factory.hpp:77] Creating layer inception_5a/5x5_reduce
I0403 17:58:04.351522  6342 net.cpp:91] Creating Layer inception_5a/5x5_reduce
I0403 17:58:04.351541  6342 net.cpp:425] inception_5a/5x5_reduce <- pool4/3x3_s2_pool4/3x3_s2_0_split_2
I0403 17:58:04.351562  6342 net.cpp:399] inception_5a/5x5_reduce -> inception_5a/5x5_reduce
I0403 17:58:04.352743  6342 net.cpp:141] Setting up inception_5a/5x5_reduce
I0403 17:58:04.352772  6342 net.cpp:148] Top shape: 24 32 7 7 (37632)
I0403 17:58:04.352788  6342 net.cpp:156] Memory required for data: 1299200544
I0403 17:58:04.352807  6342 layer_factory.hpp:77] Creating layer inception_5a/relu_5x5_reduce
I0403 17:58:04.352826  6342 net.cpp:91] Creating Layer inception_5a/relu_5x5_reduce
I0403 17:58:04.352843  6342 net.cpp:425] inception_5a/relu_5x5_reduce <- inception_5a/5x5_reduce
I0403 17:58:04.352860  6342 net.cpp:386] inception_5a/relu_5x5_reduce -> inception_5a/5x5_reduce (in-place)
I0403 17:58:04.353166  6342 net.cpp:141] Setting up inception_5a/relu_5x5_reduce
I0403 17:58:04.353193  6342 net.cpp:148] Top shape: 24 32 7 7 (37632)
I0403 17:58:04.353206  6342 net.cpp:156] Memory required for data: 1299351072
I0403 17:58:04.353221  6342 layer_factory.hpp:77] Creating layer inception_5a/5x5
I0403 17:58:04.353245  6342 net.cpp:91] Creating Layer inception_5a/5x5
I0403 17:58:04.353279  6342 net.cpp:425] inception_5a/5x5 <- inception_5a/5x5_reduce
I0403 17:58:04.353302  6342 net.cpp:399] inception_5a/5x5 -> inception_5a/5x5
I0403 17:58:04.355051  6342 net.cpp:141] Setting up inception_5a/5x5
I0403 17:58:04.355092  6342 net.cpp:148] Top shape: 24 128 7 7 (150528)
I0403 17:58:04.355108  6342 net.cpp:156] Memory required for data: 1299953184
I0403 17:58:04.355125  6342 layer_factory.hpp:77] Creating layer inception_5a/relu_5x5
I0403 17:58:04.355145  6342 net.cpp:91] Creating Layer inception_5a/relu_5x5
I0403 17:58:04.355162  6342 net.cpp:425] inception_5a/relu_5x5 <- inception_5a/5x5
I0403 17:58:04.355180  6342 net.cpp:386] inception_5a/relu_5x5 -> inception_5a/5x5 (in-place)
I0403 17:58:04.355379  6342 net.cpp:141] Setting up inception_5a/relu_5x5
I0403 17:58:04.355406  6342 net.cpp:148] Top shape: 24 128 7 7 (150528)
I0403 17:58:04.355420  6342 net.cpp:156] Memory required for data: 1300555296
I0403 17:58:04.355437  6342 layer_factory.hpp:77] Creating layer inception_5a/pool
I0403 17:58:04.355453  6342 net.cpp:91] Creating Layer inception_5a/pool
I0403 17:58:04.355469  6342 net.cpp:425] inception_5a/pool <- pool4/3x3_s2_pool4/3x3_s2_0_split_3
I0403 17:58:04.355490  6342 net.cpp:399] inception_5a/pool -> inception_5a/pool
I0403 17:58:04.355561  6342 net.cpp:141] Setting up inception_5a/pool
I0403 17:58:04.355583  6342 net.cpp:148] Top shape: 24 832 7 7 (978432)
I0403 17:58:04.355598  6342 net.cpp:156] Memory required for data: 1304469024
I0403 17:58:04.355612  6342 layer_factory.hpp:77] Creating layer inception_5a/pool_proj
I0403 17:58:04.355634  6342 net.cpp:91] Creating Layer inception_5a/pool_proj
I0403 17:58:04.355651  6342 net.cpp:425] inception_5a/pool_proj <- inception_5a/pool
I0403 17:58:04.355672  6342 net.cpp:399] inception_5a/pool_proj -> inception_5a/pool_proj
I0403 17:58:04.357977  6342 net.cpp:141] Setting up inception_5a/pool_proj
I0403 17:58:04.358007  6342 net.cpp:148] Top shape: 24 128 7 7 (150528)
I0403 17:58:04.358022  6342 net.cpp:156] Memory required for data: 1305071136
I0403 17:58:04.358042  6342 layer_factory.hpp:77] Creating layer inception_5a/relu_pool_proj
I0403 17:58:04.358062  6342 net.cpp:91] Creating Layer inception_5a/relu_pool_proj
I0403 17:58:04.358079  6342 net.cpp:425] inception_5a/relu_pool_proj <- inception_5a/pool_proj
I0403 17:58:04.358096  6342 net.cpp:386] inception_5a/relu_pool_proj -> inception_5a/pool_proj (in-place)
I0403 17:58:04.358404  6342 net.cpp:141] Setting up inception_5a/relu_pool_proj
I0403 17:58:04.358451  6342 net.cpp:148] Top shape: 24 128 7 7 (150528)
I0403 17:58:04.358466  6342 net.cpp:156] Memory required for data: 1305673248
I0403 17:58:04.358481  6342 layer_factory.hpp:77] Creating layer inception_5a/output
I0403 17:58:04.358497  6342 net.cpp:91] Creating Layer inception_5a/output
I0403 17:58:04.358512  6342 net.cpp:425] inception_5a/output <- inception_5a/1x1
I0403 17:58:04.358528  6342 net.cpp:425] inception_5a/output <- inception_5a/3x3
I0403 17:58:04.358543  6342 net.cpp:425] inception_5a/output <- inception_5a/5x5
I0403 17:58:04.358559  6342 net.cpp:425] inception_5a/output <- inception_5a/pool_proj
I0403 17:58:04.358577  6342 net.cpp:399] inception_5a/output -> inception_5a/output
I0403 17:58:04.358626  6342 net.cpp:141] Setting up inception_5a/output
I0403 17:58:04.358651  6342 net.cpp:148] Top shape: 24 832 7 7 (978432)
I0403 17:58:04.358665  6342 net.cpp:156] Memory required for data: 1309586976
I0403 17:58:04.358680  6342 layer_factory.hpp:77] Creating layer inception_5a/output_inception_5a/output_0_split
I0403 17:58:04.358696  6342 net.cpp:91] Creating Layer inception_5a/output_inception_5a/output_0_split
I0403 17:58:04.358711  6342 net.cpp:425] inception_5a/output_inception_5a/output_0_split <- inception_5a/output
I0403 17:58:04.358728  6342 net.cpp:399] inception_5a/output_inception_5a/output_0_split -> inception_5a/output_inception_5a/output_0_split_0
I0403 17:58:04.358750  6342 net.cpp:399] inception_5a/output_inception_5a/output_0_split -> inception_5a/output_inception_5a/output_0_split_1
I0403 17:58:04.358770  6342 net.cpp:399] inception_5a/output_inception_5a/output_0_split -> inception_5a/output_inception_5a/output_0_split_2
I0403 17:58:04.358789  6342 net.cpp:399] inception_5a/output_inception_5a/output_0_split -> inception_5a/output_inception_5a/output_0_split_3
I0403 17:58:04.358899  6342 net.cpp:141] Setting up inception_5a/output_inception_5a/output_0_split
I0403 17:58:04.358922  6342 net.cpp:148] Top shape: 24 832 7 7 (978432)
I0403 17:58:04.358938  6342 net.cpp:148] Top shape: 24 832 7 7 (978432)
I0403 17:58:04.358954  6342 net.cpp:148] Top shape: 24 832 7 7 (978432)
I0403 17:58:04.358968  6342 net.cpp:148] Top shape: 24 832 7 7 (978432)
I0403 17:58:04.358981  6342 net.cpp:156] Memory required for data: 1325241888
I0403 17:58:04.358995  6342 layer_factory.hpp:77] Creating layer inception_5b/1x1
I0403 17:58:04.359019  6342 net.cpp:91] Creating Layer inception_5b/1x1
I0403 17:58:04.359035  6342 net.cpp:425] inception_5b/1x1 <- inception_5a/output_inception_5a/output_0_split_0
I0403 17:58:04.359053  6342 net.cpp:399] inception_5b/1x1 -> inception_5b/1x1
I0403 17:58:04.362735  6342 net.cpp:141] Setting up inception_5b/1x1
I0403 17:58:04.362764  6342 net.cpp:148] Top shape: 24 384 7 7 (451584)
I0403 17:58:04.362779  6342 net.cpp:156] Memory required for data: 1327048224
I0403 17:58:04.362797  6342 layer_factory.hpp:77] Creating layer inception_5b/relu_1x1
I0403 17:58:04.362814  6342 net.cpp:91] Creating Layer inception_5b/relu_1x1
I0403 17:58:04.362830  6342 net.cpp:425] inception_5b/relu_1x1 <- inception_5b/1x1
I0403 17:58:04.362849  6342 net.cpp:386] inception_5b/relu_1x1 -> inception_5b/1x1 (in-place)
I0403 17:58:04.363150  6342 net.cpp:141] Setting up inception_5b/relu_1x1
I0403 17:58:04.363175  6342 net.cpp:148] Top shape: 24 384 7 7 (451584)
I0403 17:58:04.363190  6342 net.cpp:156] Memory required for data: 1328854560
I0403 17:58:04.363205  6342 layer_factory.hpp:77] Creating layer inception_5b/3x3_reduce
I0403 17:58:04.363229  6342 net.cpp:91] Creating Layer inception_5b/3x3_reduce
I0403 17:58:04.363245  6342 net.cpp:425] inception_5b/3x3_reduce <- inception_5a/output_inception_5a/output_0_split_1
I0403 17:58:04.363266  6342 net.cpp:399] inception_5b/3x3_reduce -> inception_5b/3x3_reduce
I0403 17:58:04.365872  6342 net.cpp:141] Setting up inception_5b/3x3_reduce
I0403 17:58:04.365901  6342 net.cpp:148] Top shape: 24 192 7 7 (225792)
I0403 17:58:04.365917  6342 net.cpp:156] Memory required for data: 1329757728
I0403 17:58:04.365936  6342 layer_factory.hpp:77] Creating layer inception_5b/relu_3x3_reduce
I0403 17:58:04.365952  6342 net.cpp:91] Creating Layer inception_5b/relu_3x3_reduce
I0403 17:58:04.365968  6342 net.cpp:425] inception_5b/relu_3x3_reduce <- inception_5b/3x3_reduce
I0403 17:58:04.365986  6342 net.cpp:386] inception_5b/relu_3x3_reduce -> inception_5b/3x3_reduce (in-place)
I0403 17:58:04.366173  6342 net.cpp:141] Setting up inception_5b/relu_3x3_reduce
I0403 17:58:04.366196  6342 net.cpp:148] Top shape: 24 192 7 7 (225792)
I0403 17:58:04.366212  6342 net.cpp:156] Memory required for data: 1330660896
I0403 17:58:04.366226  6342 layer_factory.hpp:77] Creating layer inception_5b/3x3
I0403 17:58:04.366247  6342 net.cpp:91] Creating Layer inception_5b/3x3
I0403 17:58:04.366264  6342 net.cpp:425] inception_5b/3x3 <- inception_5b/3x3_reduce
I0403 17:58:04.366289  6342 net.cpp:399] inception_5b/3x3 -> inception_5b/3x3
I0403 17:58:04.372843  6342 net.cpp:141] Setting up inception_5b/3x3
I0403 17:58:04.372871  6342 net.cpp:148] Top shape: 24 384 7 7 (451584)
I0403 17:58:04.372886  6342 net.cpp:156] Memory required for data: 1332467232
I0403 17:58:04.372905  6342 layer_factory.hpp:77] Creating layer inception_5b/relu_3x3
I0403 17:58:04.372923  6342 net.cpp:91] Creating Layer inception_5b/relu_3x3
I0403 17:58:04.372941  6342 net.cpp:425] inception_5b/relu_3x3 <- inception_5b/3x3
I0403 17:58:04.372957  6342 net.cpp:386] inception_5b/relu_3x3 -> inception_5b/3x3 (in-place)
I0403 17:58:04.373257  6342 net.cpp:141] Setting up inception_5b/relu_3x3
I0403 17:58:04.373287  6342 net.cpp:148] Top shape: 24 384 7 7 (451584)
I0403 17:58:04.373302  6342 net.cpp:156] Memory required for data: 1334273568
I0403 17:58:04.373317  6342 layer_factory.hpp:77] Creating layer inception_5b/5x5_reduce
I0403 17:58:04.373353  6342 net.cpp:91] Creating Layer inception_5b/5x5_reduce
I0403 17:58:04.373371  6342 net.cpp:425] inception_5b/5x5_reduce <- inception_5a/output_inception_5a/output_0_split_2
I0403 17:58:04.373392  6342 net.cpp:399] inception_5b/5x5_reduce -> inception_5b/5x5_reduce
I0403 17:58:04.374647  6342 net.cpp:141] Setting up inception_5b/5x5_reduce
I0403 17:58:04.374675  6342 net.cpp:148] Top shape: 24 48 7 7 (56448)
I0403 17:58:04.374689  6342 net.cpp:156] Memory required for data: 1334499360
I0403 17:58:04.374707  6342 layer_factory.hpp:77] Creating layer inception_5b/relu_5x5_reduce
I0403 17:58:04.374727  6342 net.cpp:91] Creating Layer inception_5b/relu_5x5_reduce
I0403 17:58:04.374743  6342 net.cpp:425] inception_5b/relu_5x5_reduce <- inception_5b/5x5_reduce
I0403 17:58:04.374761  6342 net.cpp:386] inception_5b/relu_5x5_reduce -> inception_5b/5x5_reduce (in-place)
I0403 17:58:04.375126  6342 net.cpp:141] Setting up inception_5b/relu_5x5_reduce
I0403 17:58:04.375151  6342 net.cpp:148] Top shape: 24 48 7 7 (56448)
I0403 17:58:04.375166  6342 net.cpp:156] Memory required for data: 1334725152
I0403 17:58:04.375181  6342 layer_factory.hpp:77] Creating layer inception_5b/5x5
I0403 17:58:04.375201  6342 net.cpp:91] Creating Layer inception_5b/5x5
I0403 17:58:04.375219  6342 net.cpp:425] inception_5b/5x5 <- inception_5b/5x5_reduce
I0403 17:58:04.375237  6342 net.cpp:399] inception_5b/5x5 -> inception_5b/5x5
I0403 17:58:04.377240  6342 net.cpp:141] Setting up inception_5b/5x5
I0403 17:58:04.377267  6342 net.cpp:148] Top shape: 24 128 7 7 (150528)
I0403 17:58:04.377287  6342 net.cpp:156] Memory required for data: 1335327264
I0403 17:58:04.377306  6342 layer_factory.hpp:77] Creating layer inception_5b/relu_5x5
I0403 17:58:04.377326  6342 net.cpp:91] Creating Layer inception_5b/relu_5x5
I0403 17:58:04.377342  6342 net.cpp:425] inception_5b/relu_5x5 <- inception_5b/5x5
I0403 17:58:04.377359  6342 net.cpp:386] inception_5b/relu_5x5 -> inception_5b/5x5 (in-place)
I0403 17:58:04.377548  6342 net.cpp:141] Setting up inception_5b/relu_5x5
I0403 17:58:04.377574  6342 net.cpp:148] Top shape: 24 128 7 7 (150528)
I0403 17:58:04.377588  6342 net.cpp:156] Memory required for data: 1335929376
I0403 17:58:04.377602  6342 layer_factory.hpp:77] Creating layer inception_5b/pool
I0403 17:58:04.377619  6342 net.cpp:91] Creating Layer inception_5b/pool
I0403 17:58:04.377635  6342 net.cpp:425] inception_5b/pool <- inception_5a/output_inception_5a/output_0_split_3
I0403 17:58:04.377652  6342 net.cpp:399] inception_5b/pool -> inception_5b/pool
I0403 17:58:04.377724  6342 net.cpp:141] Setting up inception_5b/pool
I0403 17:58:04.377748  6342 net.cpp:148] Top shape: 24 832 7 7 (978432)
I0403 17:58:04.377761  6342 net.cpp:156] Memory required for data: 1339843104
I0403 17:58:04.377775  6342 layer_factory.hpp:77] Creating layer inception_5b/pool_proj
I0403 17:58:04.377795  6342 net.cpp:91] Creating Layer inception_5b/pool_proj
I0403 17:58:04.377813  6342 net.cpp:425] inception_5b/pool_proj <- inception_5b/pool
I0403 17:58:04.377833  6342 net.cpp:399] inception_5b/pool_proj -> inception_5b/pool_proj
I0403 17:58:04.380136  6342 net.cpp:141] Setting up inception_5b/pool_proj
I0403 17:58:04.380165  6342 net.cpp:148] Top shape: 24 128 7 7 (150528)
I0403 17:58:04.380183  6342 net.cpp:156] Memory required for data: 1340445216
I0403 17:58:04.380203  6342 layer_factory.hpp:77] Creating layer inception_5b/relu_pool_proj
I0403 17:58:04.380223  6342 net.cpp:91] Creating Layer inception_5b/relu_pool_proj
I0403 17:58:04.380239  6342 net.cpp:425] inception_5b/relu_pool_proj <- inception_5b/pool_proj
I0403 17:58:04.380256  6342 net.cpp:386] inception_5b/relu_pool_proj -> inception_5b/pool_proj (in-place)
I0403 17:58:04.380560  6342 net.cpp:141] Setting up inception_5b/relu_pool_proj
I0403 17:58:04.380586  6342 net.cpp:148] Top shape: 24 128 7 7 (150528)
I0403 17:58:04.380601  6342 net.cpp:156] Memory required for data: 1341047328
I0403 17:58:04.380615  6342 layer_factory.hpp:77] Creating layer inception_5b/output
I0403 17:58:04.380633  6342 net.cpp:91] Creating Layer inception_5b/output
I0403 17:58:04.380666  6342 net.cpp:425] inception_5b/output <- inception_5b/1x1
I0403 17:58:04.380683  6342 net.cpp:425] inception_5b/output <- inception_5b/3x3
I0403 17:58:04.380699  6342 net.cpp:425] inception_5b/output <- inception_5b/5x5
I0403 17:58:04.380714  6342 net.cpp:425] inception_5b/output <- inception_5b/pool_proj
I0403 17:58:04.380731  6342 net.cpp:399] inception_5b/output -> inception_5b/output
I0403 17:58:04.380782  6342 net.cpp:141] Setting up inception_5b/output
I0403 17:58:04.380807  6342 net.cpp:148] Top shape: 24 1024 7 7 (1204224)
I0403 17:58:04.380822  6342 net.cpp:156] Memory required for data: 1345864224
I0403 17:58:04.380837  6342 layer_factory.hpp:77] Creating layer pool5/7x7_s1
I0403 17:58:04.380854  6342 net.cpp:91] Creating Layer pool5/7x7_s1
I0403 17:58:04.380870  6342 net.cpp:425] pool5/7x7_s1 <- inception_5b/output
I0403 17:58:04.380889  6342 net.cpp:399] pool5/7x7_s1 -> pool5/7x7_s1
I0403 17:58:04.381106  6342 net.cpp:141] Setting up pool5/7x7_s1
I0403 17:58:04.381132  6342 net.cpp:148] Top shape: 24 1024 1 1 (24576)
I0403 17:58:04.381146  6342 net.cpp:156] Memory required for data: 1345962528
I0403 17:58:04.381161  6342 layer_factory.hpp:77] Creating layer pool5/drop_7x7_s1
I0403 17:58:04.381181  6342 net.cpp:91] Creating Layer pool5/drop_7x7_s1
I0403 17:58:04.381198  6342 net.cpp:425] pool5/drop_7x7_s1 <- pool5/7x7_s1
I0403 17:58:04.381216  6342 net.cpp:386] pool5/drop_7x7_s1 -> pool5/7x7_s1 (in-place)
I0403 17:58:04.381268  6342 net.cpp:141] Setting up pool5/drop_7x7_s1
I0403 17:58:04.381294  6342 net.cpp:148] Top shape: 24 1024 1 1 (24576)
I0403 17:58:04.381309  6342 net.cpp:156] Memory required for data: 1346060832
I0403 17:58:04.381324  6342 layer_factory.hpp:77] Creating layer loss3/classifier_plantvillage
I0403 17:58:04.381342  6342 net.cpp:91] Creating Layer loss3/classifier_plantvillage
I0403 17:58:04.381358  6342 net.cpp:425] loss3/classifier_plantvillage <- pool5/7x7_s1
I0403 17:58:04.381379  6342 net.cpp:399] loss3/classifier_plantvillage -> loss3/classifier_plantvillage
I0403 17:58:04.381809  6342 net.cpp:141] Setting up loss3/classifier_plantvillage
I0403 17:58:04.381834  6342 net.cpp:148] Top shape: 24 38 (912)
I0403 17:58:04.381847  6342 net.cpp:156] Memory required for data: 1346064480
I0403 17:58:04.381866  6342 layer_factory.hpp:77] Creating layer loss3/classifier_plantvillage_loss3/classifier_plantvillage_0_split
I0403 17:58:04.381885  6342 net.cpp:91] Creating Layer loss3/classifier_plantvillage_loss3/classifier_plantvillage_0_split
I0403 17:58:04.381899  6342 net.cpp:425] loss3/classifier_plantvillage_loss3/classifier_plantvillage_0_split <- loss3/classifier_plantvillage
I0403 17:58:04.381921  6342 net.cpp:399] loss3/classifier_plantvillage_loss3/classifier_plantvillage_0_split -> loss3/classifier_plantvillage_loss3/classifier_plantvillage_0_split_0
I0403 17:58:04.381942  6342 net.cpp:399] loss3/classifier_plantvillage_loss3/classifier_plantvillage_0_split -> loss3/classifier_plantvillage_loss3/classifier_plantvillage_0_split_1
I0403 17:58:04.381961  6342 net.cpp:399] loss3/classifier_plantvillage_loss3/classifier_plantvillage_0_split -> loss3/classifier_plantvillage_loss3/classifier_plantvillage_0_split_2
I0403 17:58:04.381981  6342 net.cpp:399] loss3/classifier_plantvillage_loss3/classifier_plantvillage_0_split -> loss3/classifier_plantvillage_loss3/classifier_plantvillage_0_split_3
I0403 17:58:04.382086  6342 net.cpp:141] Setting up loss3/classifier_plantvillage_loss3/classifier_plantvillage_0_split
I0403 17:58:04.382109  6342 net.cpp:148] Top shape: 24 38 (912)
I0403 17:58:04.382127  6342 net.cpp:148] Top shape: 24 38 (912)
I0403 17:58:04.382141  6342 net.cpp:148] Top shape: 24 38 (912)
I0403 17:58:04.382156  6342 net.cpp:148] Top shape: 24 38 (912)
I0403 17:58:04.382170  6342 net.cpp:156] Memory required for data: 1346079072
I0403 17:58:04.382186  6342 layer_factory.hpp:77] Creating layer loss1/loss
I0403 17:58:04.382210  6342 net.cpp:91] Creating Layer loss1/loss
I0403 17:58:04.382227  6342 net.cpp:425] loss1/loss <- loss1/classifier_plantvillage_loss1/classifier_plantvillage_0_split_0
I0403 17:58:04.382257  6342 net.cpp:425] loss1/loss <- label_data_1_split_0
…
