…
I0403 17:53:58.466876  6271 net.cpp:313] The NetState phase (1) differed from the phase (0) specified by a rule in layer data
I0403 17:53:58.468106  6271 net.cpp:49] Initializing net from parameters: 
state {
  phase: TEST
}
layer {
  name: "data"
  type: "Data"
  top: "data"
  top: "label"
  include {
    phase: TEST
  }
  transform_param {
    mirror: false
    crop_size: 224
    mean_file: "/home/mohanty/data/final_dataset/lmdb/grayscale-40-60/mean.binaryproto"
  }
  data_param {
    source: "/home/mohanty/data/final_dataset/lmdb/grayscale-40-60/test_db"
    batch_size: 24
    backend: LMDB
  }
}
layer {
  name: "conv1/7x7_s2"
  type: "Convolution"
  bottom: "data"
  top: "conv1/7x7_s2"
  param {
    lr_mult: 1
    decay_mult: 1
  }
  param {
    lr_mult: 2
    decay_mult: 0
  }
  convolution_param {
    num_output: 64
    pad: 3
    kernel_size: 7
    stride: 2
    weight_filler {
      type: "xavier"
      std: 0.1
    }
    bias_filler {
      type: "constant"
      value: 0.2
    }
  }
}
layer {
  name: "conv1/relu_7x7"
  type: "ReLU"
  bottom: "conv1/7x7_s2"
  top: "conv1/7x7_s2"
}
layer {
  name: "pool1/3x3_s2"
  type: "Pooling"
  bottom: "conv1/7x7_s2"
  top: "pool1/3x3_s2"
  pooling_param {
    pool: MAX
    kernel_size: 3
    stride: 2
  }
}
layer {
  name: "pool1/norm1"
  type: "LRN"
  bottom: "pool1/3x3_s2"
  top: "pool1/norm1"
  lrn_param {
    local_size: 5
    alpha: 0.0001
    beta: 0.75
  }
}
layer {
  name: "conv2/3x3_reduce"
  type: "Convolution"
  bottom: "pool1/norm1"
  top: "conv2/3x3_reduce"
  param {
    lr_mult: 1
    decay_mult: 1
  }
  param {
    lr_mult: 2
    decay_mult: 0
  }
  convolution_param {
    num_output: 64
    kernel_size: 1
    weight_filler {
      type: "xavier"
      std: 0.1
    }
    bias_filler {
      type: "constant"
      value: 0.2
    }
  }
}
layer {
  name: "conv2/relu_3x3_reduce"
  type: "ReLU"
  bottom: "conv2/3x3_reduce"
  top: "conv2/3x3_reduce"
}
layer {
  name: "conv2/3x3"
  type: "Convolution"
  bottom: "conv2/3x3_reduce"
  top: "conv2/3x3"
  param {
    lr_mult: 1
    decay_mult: 1
  }
  param {
    lr_mult: 2
    decay_mult: 0
  }
  convolution_param {
    num_output: 192
    pad: 1
    kernel_size: 3
    weight_filler {
      type: "xavier"
      std: 0.03
    }
    bias_filler {
      type: "constant"
      value: 0.2
    }
  }
}
layer {
  name: "conv2/relu_3x3"
  type: "ReLU"
  bottom: "conv2/3x3"
  top: "conv2/3x3"
}
layer {
  name: "conv2/norm2"
  type: "LRN"
  bottom: "conv2/3x3"
  top: "conv2/norm2"
  lrn_param {
    local_size: 5
    alpha: 0.0001
    beta: 0.75
  }
}
layer {
  name: "pool2/3x3_s2"
  type: "Pooling"
  bottom: "conv2/norm2"
  top: "pool2/3x3_s2"
  pooling_param {
    pool: MAX
    kernel_size: 3
    stride: 2
  }
}
layer {
  name: "inception_3a/1x1"
  type: "Convolution"
  bottom: "pool2/3x3_s2"
  top: "inception_3a/1x1"
  param {
    lr_mult: 1
    decay_mult: 1
  }
  param {
    lr_mult: 2
    decay_mult: 0
  }
  convolution_param {
    num_output: 64
    kernel_size: 1
    weight_filler {
      type: "xavier"
      std: 0.03
    }
    bias_filler {
      type: "constant"
      value: 0.2
    }
  }
}
layer {
  name: "inception_3a/relu_1x1"
  type: "ReLU"
  bottom: "inception_3a/1x1"
  top: "inception_3a/1x1"
}
layer {
  name: "inception_3a/3x3_reduce"
  type: "Convolution"
  bottom: "pool2/3x3_s2"
  top: "inception_3a/3x3_reduce"
  param {
    lr_mult: 1
    decay_mult: 1
  }
  param {
    lr_mult: 2
    decay_mult: 0
  }
  convolution_param {
    num_output: 96
    kernel_size: 1
    weight_filler {
      type: "xavier"
      std: 0.09
    }
    bias_filler {
      type: "constant"
      value: 0.2
    }
  }
}
layer {
  name: "inception_3a/relu_3x3_reduce"
  type: "ReLU"
  bottom: "inception_3a/3x3_reduce"
  top: "inception_3a/3x3_reduce"
}
layer {
  name: "inception_3a/3x3"
  type: "Convolution"
  bottom: "inception_3a/3x3_reduce"
  top: "inception_3a/3x3"
  param {
    lr_mult: 1
    decay_mult: 1
  }
  param {
    lr_mult: 2
    decay_mult: 0
  }
  convolution_param {
    num_output: 128
    pad: 1
    kernel_size: 3
    weight_filler {
      type: "xavier"
      std: 0.03
    }
    bias_filler {
      type: "constant"
      value: 0.2
    }
  }
}
layer {
  name: "inception_3a/relu_3x3"
  type: "ReLU"
  bottom: "inception_3a/3x3"
  top: "inception_3a/3x3"
}
layer {
  name: "inception_3a/5x5_reduce"
  type: "Convolution"
  bottom: "pool2/3x3_s2"
  top: "inception_3a/5x5_reduce"
  param {
    lr_mult: 1
    decay_mult: 1
  }
  param {
    lr_mult: 2
    decay_mult: 0
  }
  convolution_param {
    num_output: 16
    kernel_size: 1
    weight_filler {
      type: "xavier"
      std: 0.2
    }
    bias_filler {
      type: "constant"
      value: 0.2
    }
  }
}
layer {
  name: "inception_3a/relu_5x5_reduce"
  type: "ReLU"
  bottom: "inception_3a/5x5_reduce"
  top: "inception_3a/5x5_reduce"
}
layer {
  name: "inception_3a/5x5"
  type: "Convolution"
  bottom: "inception_3a/5x5_reduce"
  top: "inception_3a/5x5"
  param {
    lr_mult: 1
    decay_mult: 1
  }
  param {
    lr_mult: 2
    decay_mult: 0
  }
  convolution_param {
    num_output: 32
    pad: 2
    kernel_size: 5
    weight_filler {
      type: "xavier"
      std: 0.03
    }
    bias_filler {
      type: "constant"
      value: 0.2
    }
  }
}
layer {
  name: "inception_3a/relu_5x5"
  type: "ReLU"
  bottom: "inception_3a/5x5"
  top: "inception_3a/5x5"
}
layer {
  name: "inception_3a/pool"
  type: "Pooling"
  bottom: "pool2/3x3_s2"
  top: "inception_3a/pool"
  pooling_param {
    pool: MAX
    kernel_size: 3
    stride: 1
    pad: 1
  }
}
layer {
  name: "inception_3a/pool_proj"
  type: "Convolution"
  bottom: "inception_3a/pool"
  top: "inception_3a/pool_proj"
  param {
    lr_mult: 1
    decay_mult: 1
  }
  param {
    lr_mult: 2
    decay_mult: 0
  }
  convolution_param {
    num_output: 32
    kernel_size: 1
    weight_filler {
      type: "xavier"
      std: 0.1
    }
    bias_filler {
      type: "constant"
      value: 0.2
    }
  }
}
layer {
  name: "inception_3a/relu_pool_proj"
  type: "ReLU"
  bottom: "inception_3a/pool_proj"
  top: "inception_3a/pool_proj"
}
layer {
  name: "inception_3a/output"
  type: "Concat"
  bottom: "inception_3a/1x1"
  bottom: "inception_3a/3x3"
  bottom: "inception_3a/5x5"
  bottom: "inception_3a/pool_proj"
  top: "inception_3a/output"
}
layer {
  name: "inception_3b/1x1"
  type: "Convolution"
  bottom: "inception_3a/output"
  top: "inception_3b/1x1"
  param {
    lr_mult: 1
    decay_mult: 1
  }
  param {
    lr_mult: 2
    decay_mult: 0
  }
  convolution_param {
    num_output: 128
    kernel_size: 1
    weight_filler {
      type: "xavier"
      std: 0.03
    }
    bias_filler {
      type: "constant"
      value: 0.2
    }
  }
}
layer {
  name: "inception_3b/relu_1x1"
  type: "ReLU"
  bottom: "inception_3b/1x1"
  top: "inception_3b/1x1"
}
layer {
  name: "inception_3b/3x3_reduce"
  type: "Convolution"
  bottom: "inception_3a/output"
  top: "inception_3b/3x3_reduce"
  param {
    lr_mult: 1
    decay_mult: 1
  }
  param {
    lr_mult: 2
    decay_mult: 0
  }
  convolution_param {
    num_output: 128
    kernel_size: 1
    weight_filler {
      type: "xavier"
      std: 0.09
    }
    bias_filler {
      type: "constant"
      value: 0.2
    }
  }
}
layer {
  name: "inception_3b/relu_3x3_reduce"
  type: "ReLU"
  bottom: "inception_3b/3x3_reduce"
  top: "inception_3b/3x3_reduce"
}
layer {
  name: "inception_3b/3x3"
  type: "Convolution"
  bottom: "inception_3b/3x3_reduce"
  top: "inception_3b/3x3"
  param {
    lr_mult: 1
    decay_mult: 1
  }
  param {
    lr_mult: 2
    decay_mult: 0
  }
  convolution_param {
    num_output: 192
    pad: 1
    kernel_size: 3
    weight_filler {
      type: "xavier"
      std: 0.03
    }
    bias_filler {
      type: "constant"
      value: 0.2
    }
  }
}
layer {
  name: "inception_3b/relu_3x3"
  type: "ReLU"
  bottom: "inception_3b/3x3"
  top: "inception_3b/3x3"
}
layer {
  name: "inception_3b/5x5_reduce"
  type: "Convolution"
  bottom: "inception_3a/output"
  top: "inception_3b/5x5_reduce"
  param {
    lr_mult: 1
    decay_mult: 1
  }
  param {
    lr_mult: 2
    decay_mult: 0
  }
  convolution_param {
    num_output: 32
    kernel_size: 1
    weight_filler {
      type: "xavier"
      std: 0.2
    }
    bias_filler {
      type: "constant"
      value: 0.2
    }
  }
}
layer {
  name: "inception_3b/relu_5x5_reduce"
  type: "ReLU"
  bottom: "inception_3b/5x5_reduce"
  top: "inception_3b/5x5_reduce"
}
layer {
  name: "inception_3b/5x5"
  type: "Convolution"
  bottom: "inception_3b/5x5_reduce"
  top: "inception_3b/5x5"
  param {
    lr_mult: 1
    decay_mult: 1
  }
  param {
    lr_mult: 2
    decay_mult: 0
  }
  convolution_param {
    num_output: 96
    pad: 2
    kernel_size: 5
    weight_filler {
      type: "xavier"
      std: 0.03
    }
    bias_filler {
      type: "constant"
      value: 0.2
    }
  }
}
layer {
  name: "inception_3b/relu_5x5"
  type: "ReLU"
  bottom: "inception_3b/5x5"
  top: "inception_3b/5x5"
}
layer {
  name: "inception_3b/pool"
  type: "Pooling"
  bottom: "inception_3a/output"
  top: "inception_3b/pool"
  pooling_param {
    pool: MAX
    kernel_size: 3
    stride: 1
    pad: 1
  }
}
layer {
  name: "inception_3b/pool_proj"
  type: "Convolution"
  bottom: "inception_3b/pool"
  top: "inception_3b/pool_proj"
  param {
    lr_mult: 1
    decay_mult: 1
  }
  param {
    lr_mult: 2
    decay_mult: 0
  }
  convolution_param {
    num_output: 64
    kernel_size: 1
    weight_filler {
      type: "xavier"
      std: 0.1
    }
    bias_filler {
      type: "constant"
      value: 0.2
    }
  }
}
layer {
  name: "inception_3b/relu_pool_proj"
  type: "ReLU"
  bottom: "inception_3b/pool_proj"
  top: "inception_3b/pool_proj"
}
layer {
  name: "inception_3b/output"
  type: "Concat"
  bottom: "inception_3b/1x1"
  bottom: "inception_3b/3x3"
  bottom: "inception_3b/5x5"
  bottom: "inception_3b/pool_proj"
  top: "inception_3b/output"
}
layer {
  name: "pool3/3x3_s2"
  type: "Pooling"
  bottom: "inception_3b/output"
  top: "pool3/3x3_s2"
  pooling_param {
    pool: MAX
    kernel_size: 3
    stride: 2
  }
}
layer {
  name: "inception_4a/1x1"
  type: "Convolution"
  bottom: "pool3/3x3_s2"
  top: "inception_4a/1x1"
  param {
    lr_mult: 1
    decay_mult: 1
  }
  param {
    lr_mult: 2
    decay_mult: 0
  }
  convolution_param {
    num_output: 192
    kernel_size: 1
    weight_filler {
      type: "xavier"
      std: 0.03
    }
    bias_filler {
      type: "constant"
      value: 0.2
    }
  }
}
layer {
  name: "inception_4a/relu_1x1"
  type: "ReLU"
  bottom: "inception_4a/1x1"
  top: "inception_4a/1x1"
}
layer {
  name: "inception_4a/3x3_reduce"
  type: "Convolution"
  bottom: "pool3/3x3_s2"
  top: "inception_4a/3x3_reduce"
  param {
    lr_mult: 1
    decay_mult: 1
  }
  param {
    lr_mult: 2
    decay_mult: 0
  }
  convolution_param {
    num_output: 96
    kernel_size: 1
    weight_filler {
      type: "xavier"
      std: 0.09
    }
    bias_filler {
      type: "constant"
      value: 0.2
    }
  }
}
layer {
  name: "inception_4a/relu_3x3_reduce"
  type: "ReLU"
  bottom: "inception_4a/3x3_reduce"
  top: "inception_4a/3x3_reduce"
}
layer {
  name: "inception_4a/3x3"
  type: "Convolution"
  bottom: "inception_4a/3x3_reduce"
  top: "inception_4a/3x3"
  param {
    lr_mult: 1
    decay_mult: 1
  }
  param {
    lr_mult: 2
    decay_mult: 0
  }
  convolution_param {
    num_output: 208
    pad: 1
    kernel_size: 3
    weight_filler {
      type: "xavier"
      std: 0.03
    }
    bias_filler {
      type: "constant"
      value: 0.2
    }
  }
}
layer {
  name: "inception_4a/relu_3x3"
  type: "ReLU"
  bottom: "inception_4a/3x3"
  top: "inception_4a/3x3"
}
layer {
  name: "inception_4a/5x5_reduce"
  type: "Convolution"
  bottom: "pool3/3x3_s2"
  top: "inception_4a/5x5_reduce"
  param {
    lr_mult: 1
    decay_mult: 1
  }
  param {
    lr_mult: 2
    decay_mult: 0
  }
  convolution_param {
    num_output: 16
    kernel_size: 1
    weight_filler {
      type: "xavier"
      std: 0.2
    }
    bias_filler {
      type: "constant"
      value: 0.2
    }
  }
}
layer {
  name: "inception_4a/relu_5x5_reduce"
  type: "ReLU"
  bottom: "inception_4a/5x5_reduce"
  top: "inception_4a/5x5_reduce"
}
layer {
  name: "inception_4a/5x5"
  type: "Convolution"
  bottom: "inception_4a/5x5_reduce"
  top: "inception_4a/5x5"
  param {
    lr_mult: 1
    decay_mult: 1
  }
  param {
    lr_mult: 2
    decay_mult: 0
  }
  convolution_param {
    num_output: 48
    pad: 2
    kernel_size: 5
    weight_filler {
      type: "xavier"
      std: 0.03
    }
    bias_filler {
      type: "constant"
      value: 0.2
    }
  }
}
layer {
  name: "inception_4a/relu_5x5"
  type: "ReLU"
  bottom: "inception_4a/5x5"
  top: "inception_4a/5x5"
}
layer {
  name: "inception_4a/pool"
  type: "Pooling"
  bottom: "pool3/3x3_s2"
  top: "inception_4a/pool"
  pooling_param {
    pool: MAX
    kernel_size: 3
    stride: 1
    pad: 1
  }
}
layer {
  name: "inception_4a/pool_proj"
  type: "Convolution"
  bottom: "inception_4a/pool"
  top: "inception_4a/pool_proj"
  param {
    lr_mult: 1
    decay_mult: 1
  }
  param {
    lr_mult: 2
    decay_mult: 0
  }
  convolution_param {
    num_output: 64
    kernel_size: 1
    weight_filler {
      type: "xavier"
      std: 0.1
    }
    bias_filler {
      type: "constant"
      value: 0.2
    }
  }
}
layer {
  name: "inception_4a/relu_pool_proj"
  type: "ReLU"
  bottom: "inception_4a/pool_proj"
  top: "inception_4a/pool_proj"
}
layer {
  name: "inception_4a/output"
  type: "Concat"
  bottom: "inception_4a/1x1"
  bottom: "inception_4a/3x3"
  bottom: "inception_4a/5x5"
  bottom: "inception_4a/pool_proj"
  top: "inception_4a/output"
}
layer {
  name: "loss1/ave_pool"
  type: "Pooling"
  bottom: "inception_4a/output"
  top: "loss1/ave_pool"
  pooling_param {
    pool: AVE
    kernel_size: 5
    stride: 3
  }
}
layer {
  name: "loss1/conv"
  type: "Convolution"
  bottom: "loss1/ave_pool"
  top: "loss1/conv"
  param {
    lr_mult: 1
    decay_mult: 1
  }
  param {
    lr_mult: 2
    decay_mult: 0
  }
  convolution_param {
    num_output: 128
    kernel_size: 1
    weight_filler {
      type: "xavier"
      std: 0.08
    }
    bias_filler {
      type: "constant"
      value: 0.2
    }
  }
}
layer {
  name: "loss1/relu_conv"
  type: "ReLU"
  bottom: "loss1/conv"
  top: "loss1/conv"
}
layer {
  name: "loss1/fc"
  type: "InnerProduct"
  bottom: "loss1/conv"
  top: "loss1/fc"
  param {
    lr_mult: 1
    decay_mult: 1
  }
  param {
    lr_mult: 2
    decay_mult: 0
  }
  inner_product_param {
    num_output: 1024
    weight_filler {
      type: "xavier"
      std: 0.02
    }
    bias_filler {
      type: "constant"
      value: 0.2
    }
  }
}
layer {
  name: "loss1/relu_fc"
  type: "ReLU"
  bottom: "loss1/fc"
  top: "loss1/fc"
}
layer {
  name: "loss1/drop_fc"
  type: "Dropout"
  bottom: "loss1/fc"
  top: "loss1/fc"
  dropout_param {
    dropout_ratio: 0.7
  }
}
layer {
  name: "loss1/classifier_plantvillage"
  type: "InnerProduct"
  bottom: "loss1/fc"
  top: "loss1/classifier_plantvillage"
  param {
    lr_mult: 1
    decay_mult: 1
  }
  param {
    lr_mult: 2
    decay_mult: 0
  }
  inner_product_param {
    num_output: 38
    weight_filler {
      type: "xavier"
      std: 0.0009765625
    }
    bias_filler {
      type: "constant"
      value: 0
    }
  }
}
layer {
  name: "inception_4b/1x1"
  type: "Convolution"
  bottom: "inception_4a/output"
  top: "inception_4b/1x1"
  param {
    lr_mult: 1
    decay_mult: 1
  }
  param {
    lr_mult: 2
    decay_mult: 0
  }
  convolution_param {
    num_output: 160
    kernel_size: 1
    weight_filler {
      type: "xavier"
      std: 0.03
    }
    bias_filler {
      type: "constant"
      value: 0.2
    }
  }
}
layer {
  name: "inception_4b/relu_1x1"
  type: "ReLU"
  bottom: "inception_4b/1x1"
  top: "inception_4b/1x1"
}
layer {
  name: "inception_4b/3x3_reduce"
  type: "Convolution"
  bottom: "inception_4a/output"
  top: "inception_4b/3x3_reduce"
  param {
    lr_mult: 1
    decay_mult: 1
  }
  param {
    lr_mult: 2
    decay_mult: 0
  }
  convolution_param {
    num_output: 112
    kernel_size: 1
    weight_filler {
      type: "xavier"
      std: 0.09
    }
    bias_filler {
      type: "constant"
      value: 0.2
    }
  }
}
layer {
  name: "inception_4b/relu_3x3_reduce"
  type: "ReLU"
  bottom: "inception_4b/3x3_reduce"
  top: "inception_4b/3x3_reduce"
}
layer {
  name: "inception_4b/3x3"
  type: "Convolution"
  bottom: "inception_4b/3x3_reduce"
  top: "inception_4b/3x3"
  param {
    lr_mult: 1
    decay_mult: 1
  }
  param {
    lr_mult: 2
    decay_mult: 0
  }
  convolution_param {
    num_output: 224
    pad: 1
    kernel_size: 3
    weight_filler {
      type: "xavier"
      std: 0.03
    }
    bias_filler {
      type: "constant"
      value: 0.2
    }
  }
}
layer {
  name: "inception_4b/relu_3x3"
  type: "ReLU"
  bottom: "inception_4b/3x3"
  top: "inception_4b/3x3"
}
layer {
  name: "inception_4b/5x5_reduce"
  type: "Convolution"
  bottom: "inception_4a/output"
  top: "inception_4b/5x5_reduce"
  param {
    lr_mult: 1
    decay_mult: 1
  }
  param {
    lr_mult: 2
    decay_mult: 0
  }
  convolution_param {
    num_output: 24
    kernel_size: 1
    weight_filler {
      type: "xavier"
      std: 0.2
    }
    bias_filler {
      type: "constant"
      value: 0.2
    }
  }
}
layer {
  name: "inception_4b/relu_5x5_reduce"
  type: "ReLU"
  bottom: "inception_4b/5x5_reduce"
  top: "inception_4b/5x5_reduce"
}
layer {
  name: "inception_4b/5x5"
  type: "Convolution"
  bottom: "inception_4b/5x5_reduce"
  top: "inception_4b/5x5"
  param {
    lr_mult: 1
    decay_mult: 1
  }
  param {
    lr_mult: 2
    decay_mult: 0
  }
  convolution_param {
    num_output: 64
    pad: 2
    kernel_size: 5
    weight_filler {
      type: "xavier"
      std: 0.03
    }
    bias_filler {
      type: "constant"
      value: 0.2
    }
  }
}
layer {
  name: "inception_4b/relu_5x5"
  type: "ReLU"
  bottom: "inception_4b/5x5"
  top: "inception_4b/5x5"
}
layer {
  name: "inception_4b/pool"
  type: "Pooling"
  bottom: "inception_4a/output"
  top: "inception_4b/pool"
  pooling_param {
    pool: MAX
    kernel_size: 3
    stride: 1
    pad: 1
  }
}
layer {
  name: "inception_4b/pool_proj"
  type: "Convolution"
  bottom: "inception_4b/pool"
  top: "inception_4b/pool_proj"
  param {
    lr_mult: 1
    decay_mult: 1
  }
  param {
    lr_mult: 2
    decay_mult: 0
  }
  convolution_param {
    num_output: 64
    kernel_size: 1
    weight_filler {
      type: "xavier"
      std: 0.1
    }
    bias_filler {
      type: "constant"
      value: 0.2
    }
  }
}
layer {
  name: "inception_4b/relu_pool_proj"
  type: "ReLU"
  bottom: "inception_4b/pool_proj"
  top: "inception_4b/pool_proj"
}
layer {
  name: "inception_4b/output"
  type: "Concat"
  bottom: "inception_4b/1x1"
  bottom: "inception_4b/3x3"
  bottom: "inception_4b/5x5"
  bottom: "inception_4b/pool_proj"
  top: "inception_4b/output"
}
layer {
  name: "inception_4c/1x1"
  type: "Convolution"
  bottom: "inception_4b/output"
  top: "inception_4c/1x1"
  param {
    lr_mult: 1
    decay_mult: 1
  }
  param {
    lr_mult: 2
    decay_mult: 0
  }
  convolution_param {
    num_output: 128
    kernel_size: 1
    weight_filler {
      type: "xavier"
      std: 0.03
    }
    bias_filler {
      type: "constant"
      value: 0.2
    }
  }
}
layer {
  name: "inception_4c/relu_1x1"
  type: "ReLU"
  bottom: "inception_4c/1x1"
  top: "inception_4c/1x1"
}
layer {
  name: "inception_4c/3x3_reduce"
  type: "Convolution"
  bottom: "inception_4b/output"
  top: "inception_4c/3x3_reduce"
  param {
    lr_mult: 1
    decay_mult: 1
  }
  param {
    lr_mult: 2
    decay_mult: 0
  }
  convolution_param {
    num_output: 128
    kernel_size: 1
    weight_filler {
      type: "xavier"
      std: 0.09
    }
    bias_filler {
      type: "constant"
      value: 0.2
    }
  }
}
layer {
  name: "inception_4c/relu_3x3_reduce"
  type: "ReLU"
  bottom: "inception_4c/3x3_reduce"
  top: "inception_4c/3x3_reduce"
}
layer {
  name: "inception_4c/3x3"
  type: "Convolution"
  bottom: "inception_4c/3x3_reduce"
  top: "inception_4c/3x3"
  param {
    lr_mult: 1
    decay_mult: 1
  }
  param {
    lr_mult: 2
    decay_mult: 0
  }
  convolution_param {
    num_output: 256
    pad: 1
    kernel_size: 3
    weight_filler {
      type: "xavier"
      std: 0.03
    }
    bias_filler {
      type: "constant"
      value: 0.2
    }
  }
}
layer {
  name: "inception_4c/relu_3x3"
  type: "ReLU"
  bottom: "inception_4c/3x3"
  top: "inception_4c/3x3"
}
layer {
  name: "inception_4c/5x5_reduce"
  type: "Convolution"
  bottom: "inception_4b/output"
  top: "inception_4c/5x5_reduce"
  param {
    lr_mult: 1
    decay_mult: 1
  }
  param {
    lr_mult: 2
    decay_mult: 0
  }
  convolution_param {
    num_output: 24
    kernel_size: 1
    weight_filler {
      type: "xavier"
      std: 0.2
    }
    bias_filler {
      type: "constant"
      value: 0.2
    }
  }
}
layer {
  name: "inception_4c/relu_5x5_reduce"
  type: "ReLU"
  bottom: "inception_4c/5x5_reduce"
  top: "inception_4c/5x5_reduce"
}
layer {
  name: "inception_4c/5x5"
  type: "Convolution"
  bottom: "inception_4c/5x5_reduce"
  top: "inception_4c/5x5"
  param {
    lr_mult: 1
    decay_mult: 1
  }
  param {
    lr_mult: 2
    decay_mult: 0
  }
  convolution_param {
    num_output: 64
    pad: 2
    kernel_size: 5
    weight_filler {
      type: "xavier"
      std: 0.03
    }
    bias_filler {
      type: "constant"
      value: 0.2
    }
  }
}
layer {
  name: "inception_4c/relu_5x5"
  type: "ReLU"
  bottom: "inception_4c/5x5"
  top: "inception_4c/5x5"
}
layer {
  name: "inception_4c/pool"
  type: "Pooling"
  bottom: "inception_4b/output"
  top: "inception_4c/pool"
  pooling_param {
    pool: MAX
    kernel_size: 3
    stride: 1
    pad: 1
  }
}
layer {
  name: "inception_4c/pool_proj"
  type: "Convolution"
  bottom: "inception_4c/pool"
  top: "inception_4c/pool_proj"
  param {
    lr_mult: 1
    decay_mult: 1
  }
  param {
    lr_mult: 2
    decay_mult: 0
  }
  convolution_param {
    num_output: 64
    kernel_size: 1
    weight_filler {
      type: "xavier"
      std: 0.1
    }
    bias_filler {
      type: "constant"
      value: 0.2
    }
  }
}
layer {
  name: "inception_4c/relu_pool_proj"
  type: "ReLU"
  bottom: "inception_4c/pool_proj"
  top: "inception_4c/pool_proj"
}
layer {
  name: "inception_4c/output"
  type: "Concat"
  bottom: "inception_4c/1x1"
  bottom: "inception_4c/3x3"
  bottom: "inception_4c/5x5"
  bottom: "inception_4c/pool_proj"
  top: "inception_4c/output"
}
layer {
  name: "inception_4d/1x1"
  type: "Convolution"
  bottom: "inception_4c/output"
  top: "inception_4d/1x1"
  param {
    lr_mult: 1
    decay_mult: 1
  }
  param {
    lr_mult: 2
    decay_mult: 0
  }
  convolution_param {
    num_output: 112
    kernel_size: 1
    weight_filler {
      type: "xavier"
      std: 0.03
    }
    bias_filler {
      type: "constant"
      value: 0.2
    }
  }
}
layer {
  name: "inception_4d/relu_1x1"
  type: "ReLU"
  bottom: "inception_4d/1x1"
  top: "inception_4d/1x1"
}
layer {
  name: "inception_4d/3x3_reduce"
  type: "Convolution"
  bottom: "inception_4c/output"
  top: "inception_4d/3x3_reduce"
  param {
    lr_mult: 1
    decay_mult: 1
  }
  param {
    lr_mult: 2
    decay_mult: 0
  }
  convolution_param {
    num_output: 144
    kernel_size: 1
    weight_filler {
      type: "xavier"
      std: 0.09
    }
    bias_filler {
      type: "constant"
      value: 0.2
    }
  }
}
layer {
  name: "inception_4d/relu_3x3_reduce"
  type: "ReLU"
  bottom: "inception_4d/3x3_reduce"
  top: "inception_4d/3x3_reduce"
}
layer {
  name: "inception_4d/3x3"
  type: "Convolution"
  bottom: "inception_4d/3x3_reduce"
  top: "inception_4d/3x3"
  param {
    lr_mult: 1
    decay_mult: 1
  }
  param {
    lr_mult: 2
    decay_mult: 0
  }
  convolution_param {
    num_output: 288
    pad: 1
    kernel_size: 3
    weight_filler {
      type: "xavier"
      std: 0.03
    }
    bias_filler {
      type: "constant"
      value: 0.2
    }
  }
}
layer {
  name: "inception_4d/relu_3x3"
  type: "ReLU"
  bottom: "inception_4d/3x3"
  top: "inception_4d/3x3"
}
layer {
  name: "inception_4d/5x5_reduce"
  type: "Convolution"
  bottom: "inception_4c/output"
  top: "inception_4d/5x5_reduce"
  param {
    lr_mult: 1
    decay_mult: 1
  }
  param {
    lr_mult: 2
    decay_mult: 0
  }
  convolution_param {
    num_output: 32
    kernel_size: 1
    weight_filler {
      type: "xavier"
      std: 0.2
    }
    bias_filler {
      type: "constant"
      value: 0.2
    }
  }
}
layer {
  name: "inception_4d/relu_5x5_reduce"
  type: "ReLU"
  bottom: "inception_4d/5x5_reduce"
  top: "inception_4d/5x5_reduce"
}
layer {
  name: "inception_4d/5x5"
  type: "Convolution"
  bottom: "inception_4d/5x5_reduce"
  top: "inception_4d/5x5"
  param {
    lr_mult: 1
    decay_mult: 1
  }
  param {
    lr_mult: 2
    decay_mult: 0
  }
  convolution_param {
    num_output: 64
    pad: 2
    kernel_size: 5
    weight_filler {
      type: "xavier"
      std: 0.03
    }
    bias_filler {
      type: "constant"
      value: 0.2
    }
  }
}
layer {
  name: "inception_4d/relu_5x5"
  type: "ReLU"
  bottom: "inception_4d/5x5"
  top: "inception_4d/5x5"
}
layer {
  name: "inception_4d/pool"
  type: "Pooling"
  bottom: "inception_4c/output"
  top: "inception_4d/pool"
  pooling_param {
    pool: MAX
    kernel_size: 3
    stride: 1
    pad: 1
  }
}
layer {
  name: "inception_4d/pool_proj"
  type: "Convolution"
  bottom: "inception_4d/pool"
  top: "inception_4d/pool_proj"
  param {
    lr_mult: 1
    decay_mult: 1
  }
  param {
    lr_mult: 2
    decay_mult: 0
  }
  convolution_param {
    num_output: 64
    kernel_size: 1
    weight_filler {
      type: "xavier"
      std: 0.1
    }
    bias_filler {
      type: "constant"
      value: 0.2
    }
  }
}
layer {
  name: "inception_4d/relu_pool_proj"
  type: "ReLU"
  bottom: "inception_4d/pool_proj"
  top: "inception_4d/pool_proj"
}
layer {
  name: "inception_4d/output"
  type: "Concat"
  bottom: "inception_4d/1x1"
  bottom: "inception_4d/3x3"
  bottom: "inception_4d/5x5"
  bottom: "inception_4d/pool_proj"
  top: "inception_4d/output"
}
layer {
  name: "loss2/ave_pool"
  type: "Pooling"
  bottom: "inception_4d/output"
  top: "loss2/ave_pool"
  pooling_param {
    pool: AVE
    kernel_size: 5
    stride: 3
  }
}
layer {
  name: "loss2/conv"
  type: "Convolution"
  bottom: "loss2/ave_pool"
  top: "loss2/conv"
  param {
    lr_mult: 1
    decay_mult: 1
  }
  param {
    lr_mult: 2
    decay_mult: 0
  }
  convolution_param {
    num_output: 128
    kernel_size: 1
    weight_filler {
      type: "xavier"
      std: 0.08
    }
    bias_filler {
      type: "constant"
      value: 0.2
    }
  }
}
layer {
  name: "loss2/relu_conv"
  type: "ReLU"
  bottom: "loss2/conv"
  top: "loss2/conv"
}
layer {
  name: "loss2/fc"
  type: "InnerProduct"
  bottom: "loss2/conv"
  top: "loss2/fc"
  param {
    lr_mult: 1
    decay_mult: 1
  }
  param {
    lr_mult: 2
    decay_mult: 0
  }
  inner_product_param {
    num_output: 1024
    weight_filler {
      type: "xavier"
      std: 0.02
    }
    bias_filler {
      type: "constant"
      value: 0.2
    }
  }
}
layer {
  name: "loss2/relu_fc"
  type: "ReLU"
  bottom: "loss2/fc"
  top: "loss2/fc"
}
layer {
  name: "loss2/drop_fc"
  type: "Dropout"
  bottom: "loss2/fc"
  top: "loss2/fc"
  dropout_param {
    dropout_ratio: 0.7
  }
}
layer {
  name: "loss2/classifier_plantvillage"
  type: "InnerProduct"
  bottom: "loss2/fc"
  top: "loss2/classifier_plantvillage"
  param {
    lr_mult: 1
    decay_mult: 1
  }
  param {
    lr_mult: 2
    decay_mult: 0
  }
  inner_product_param {
    num_output: 38
    weight_filler {
      type: "xavier"
      std: 0.0009765625
    }
    bias_filler {
      type: "constant"
      value: 0
    }
  }
}
layer {
  name: "inception_4e/1x1"
  type: "Convolution"
  bottom: "inception_4d/output"
  top: "inception_4e/1x1"
  param {
    lr_mult: 1
    decay_mult: 1
  }
  param {
    lr_mult: 2
    decay_mult: 0
  }
  convolution_param {
    num_output: 256
    kernel_size: 1
    weight_filler {
      type: "xavier"
      std: 0.03
    }
    bias_filler {
      type: "constant"
      value: 0.2
    }
  }
}
layer {
  name: "inception_4e/relu_1x1"
  type: "ReLU"
  bottom: "inception_4e/1x1"
  top: "inception_4e/1x1"
}
layer {
  name: "inception_4e/3x3_reduce"
  type: "Convolution"
  bottom: "inception_4d/output"
  top: "inception_4e/3x3_reduce"
  param {
    lr_mult: 1
    decay_mult: 1
  }
  param {
    lr_mult: 2
    decay_mult: 0
  }
  convolution_param {
    num_output: 160
    kernel_size: 1
    weight_filler {
      type: "xavier"
      std: 0.09
    }
    bias_filler {
      type: "constant"
      value: 0.2
    }
  }
}
layer {
  name: "inception_4e/relu_3x3_reduce"
  type: "ReLU"
  bottom: "inception_4e/3x3_reduce"
  top: "inception_4e/3x3_reduce"
}
layer {
  name: "inception_4e/3x3"
  type: "Convolution"
  bottom: "inception_4e/3x3_reduce"
  top: "inception_4e/3x3"
  param {
    lr_mult: 1
    decay_mult: 1
  }
  param {
    lr_mult: 2
    decay_mult: 0
  }
  convolution_param {
    num_output: 320
    pad: 1
    kernel_size: 3
    weight_filler {
      type: "xavier"
      std: 0.03
    }
    bias_filler {
      type: "constant"
      value: 0.2
    }
  }
}
layer {
  name: "inception_4e/relu_3x3"
  type: "ReLU"
  bottom: "inception_4e/3x3"
  top: "inception_4e/3x3"
}
layer {
  name: "inception_4e/5x5_reduce"
  type: "Convolution"
  bottom: "inception_4d/output"
  top: "inception_4e/5x5_reduce"
  param {
    lr_mult: 1
    decay_mult: 1
  }
  param {
    lr_mult: 2
    decay_mult: 0
  }
  convolution_param {
    num_output: 32
    kernel_size: 1
    weight_filler {
      type: "xavier"
      std: 0.2
    }
    bias_filler {
      type: "constant"
      value: 0.2
    }
  }
}
layer {
  name: "inception_4e/relu_5x5_reduce"
  type: "ReLU"
  bottom: "inception_4e/5x5_reduce"
  top: "inception_4e/5x5_reduce"
}
layer {
  name: "inception_4e/5x5"
  type: "Convolution"
  bottom: "inception_4e/5x5_reduce"
  top: "inception_4e/
I0403 17:53:58.469347  6271 layer_factory.hpp:77] Creating layer data
I0403 17:53:58.469959  6271 net.cpp:91] Creating Layer data
I0403 17:53:58.469990  6271 net.cpp:399] data -> data
I0403 17:53:58.470043  6271 net.cpp:399] data -> label
I0403 17:53:58.470082  6271 data_transformer.cpp:25] Loading mean file from: /home/mohanty/data/final_dataset/lmdb/grayscale-40-60/mean.binaryproto
I0403 17:53:58.586520  6274 db_lmdb.cpp:38] Opened lmdb /home/mohanty/data/final_dataset/lmdb/grayscale-40-60/test_db
I0403 17:53:58.615430  6271 data_layer.cpp:41] output data size: 24,3,224,224
I0403 17:53:58.643592  6271 net.cpp:141] Setting up data
I0403 17:53:58.643656  6271 net.cpp:148] Top shape: 24 3 224 224 (3612672)
I0403 17:53:58.643692  6271 net.cpp:148] Top shape: 24 (24)
I0403 17:53:58.643709  6271 net.cpp:156] Memory required for data: 14450784
I0403 17:53:58.643738  6271 layer_factory.hpp:77] Creating layer label_data_1_split
I0403 17:53:58.643764  6271 net.cpp:91] Creating Layer label_data_1_split
I0403 17:53:58.643784  6271 net.cpp:425] label_data_1_split <- label
I0403 17:53:58.643817  6271 net.cpp:399] label_data_1_split -> label_data_1_split_0
I0403 17:53:58.643846  6271 net.cpp:399] label_data_1_split -> label_data_1_split_1
I0403 17:53:58.643868  6271 net.cpp:399] label_data_1_split -> label_data_1_split_2
I0403 17:53:58.643892  6271 net.cpp:399] label_data_1_split -> label_data_1_split_3
I0403 17:53:58.643913  6271 net.cpp:399] label_data_1_split -> label_data_1_split_4
I0403 17:53:58.643934  6271 net.cpp:399] label_data_1_split -> label_data_1_split_5
I0403 17:53:58.643954  6271 net.cpp:399] label_data_1_split -> label_data_1_split_6
I0403 17:53:58.643977  6271 net.cpp:399] label_data_1_split -> label_data_1_split_7
I0403 17:53:58.643998  6271 net.cpp:399] label_data_1_split -> label_data_1_split_8
I0403 17:53:58.644018  6271 net.cpp:399] label_data_1_split -> label_data_1_split_9
I0403 17:53:58.644140  6271 net.cpp:141] Setting up label_data_1_split
I0403 17:53:58.644165  6271 net.cpp:148] Top shape: 24 (24)
I0403 17:53:58.644183  6271 net.cpp:148] Top shape: 24 (24)
I0403 17:53:58.644201  6271 net.cpp:148] Top shape: 24 (24)
I0403 17:53:58.644218  6271 net.cpp:148] Top shape: 24 (24)
I0403 17:53:58.644234  6271 net.cpp:148] Top shape: 24 (24)
I0403 17:53:58.644258  6271 net.cpp:148] Top shape: 24 (24)
I0403 17:53:58.644274  6271 net.cpp:148] Top shape: 24 (24)
I0403 17:53:58.644291  6271 net.cpp:148] Top shape: 24 (24)
I0403 17:53:58.644309  6271 net.cpp:148] Top shape: 24 (24)
I0403 17:53:58.644326  6271 net.cpp:148] Top shape: 24 (24)
I0403 17:53:58.644366  6271 net.cpp:156] Memory required for data: 14451744
I0403 17:53:58.644382  6271 layer_factory.hpp:77] Creating layer conv1/7x7_s2
I0403 17:53:58.644415  6271 net.cpp:91] Creating Layer conv1/7x7_s2
I0403 17:53:58.644436  6271 net.cpp:425] conv1/7x7_s2 <- data
I0403 17:53:58.644456  6271 net.cpp:399] conv1/7x7_s2 -> conv1/7x7_s2
I0403 17:53:58.786092  6271 net.cpp:141] Setting up conv1/7x7_s2
I0403 17:53:58.786164  6271 net.cpp:148] Top shape: 24 64 112 112 (19267584)
I0403 17:53:58.786182  6271 net.cpp:156] Memory required for data: 91522080
I0403 17:53:58.786214  6271 layer_factory.hpp:77] Creating layer conv1/relu_7x7
I0403 17:53:58.786247  6271 net.cpp:91] Creating Layer conv1/relu_7x7
I0403 17:53:58.786267  6271 net.cpp:425] conv1/relu_7x7 <- conv1/7x7_s2
I0403 17:53:58.786288  6271 net.cpp:386] conv1/relu_7x7 -> conv1/7x7_s2 (in-place)
I0403 17:53:58.786552  6271 net.cpp:141] Setting up conv1/relu_7x7
I0403 17:53:58.786581  6271 net.cpp:148] Top shape: 24 64 112 112 (19267584)
I0403 17:53:58.786597  6271 net.cpp:156] Memory required for data: 168592416
I0403 17:53:58.786613  6271 layer_factory.hpp:77] Creating layer pool1/3x3_s2
I0403 17:53:58.786639  6271 net.cpp:91] Creating Layer pool1/3x3_s2
I0403 17:53:58.786658  6271 net.cpp:425] pool1/3x3_s2 <- conv1/7x7_s2
I0403 17:53:58.786677  6271 net.cpp:399] pool1/3x3_s2 -> pool1/3x3_s2
I0403 17:53:58.786751  6271 net.cpp:141] Setting up pool1/3x3_s2
I0403 17:53:58.786777  6271 net.cpp:148] Top shape: 24 64 56 56 (4816896)
I0403 17:53:58.786792  6271 net.cpp:156] Memory required for data: 187860000
I0403 17:53:58.786808  6271 layer_factory.hpp:77] Creating layer pool1/norm1
I0403 17:53:58.786834  6271 net.cpp:91] Creating Layer pool1/norm1
I0403 17:53:58.786851  6271 net.cpp:425] pool1/norm1 <- pool1/3x3_s2
I0403 17:53:58.786870  6271 net.cpp:399] pool1/norm1 -> pool1/norm1
I0403 17:53:58.787169  6271 net.cpp:141] Setting up pool1/norm1
I0403 17:53:58.787199  6271 net.cpp:148] Top shape: 24 64 56 56 (4816896)
I0403 17:53:58.787214  6271 net.cpp:156] Memory required for data: 207127584
I0403 17:53:58.787230  6271 layer_factory.hpp:77] Creating layer conv2/3x3_reduce
I0403 17:53:58.787261  6271 net.cpp:91] Creating Layer conv2/3x3_reduce
I0403 17:53:58.787281  6271 net.cpp:425] conv2/3x3_reduce <- pool1/norm1
I0403 17:53:58.787299  6271 net.cpp:399] conv2/3x3_reduce -> conv2/3x3_reduce
I0403 17:53:58.788725  6271 net.cpp:141] Setting up conv2/3x3_reduce
I0403 17:53:58.788758  6271 net.cpp:148] Top shape: 24 64 56 56 (4816896)
I0403 17:53:58.788775  6271 net.cpp:156] Memory required for data: 226395168
I0403 17:53:58.788797  6271 layer_factory.hpp:77] Creating layer conv2/relu_3x3_reduce
I0403 17:53:58.788816  6271 net.cpp:91] Creating Layer conv2/relu_3x3_reduce
I0403 17:53:58.788833  6271 net.cpp:425] conv2/relu_3x3_reduce <- conv2/3x3_reduce
I0403 17:53:58.788851  6271 net.cpp:386] conv2/relu_3x3_reduce -> conv2/3x3_reduce (in-place)
I0403 17:53:58.789119  6271 net.cpp:141] Setting up conv2/relu_3x3_reduce
I0403 17:53:58.789147  6271 net.cpp:148] Top shape: 24 64 56 56 (4816896)
I0403 17:53:58.789163  6271 net.cpp:156] Memory required for data: 245662752
I0403 17:53:58.789180  6271 layer_factory.hpp:77] Creating layer conv2/3x3
I0403 17:53:58.789201  6271 net.cpp:91] Creating Layer conv2/3x3
I0403 17:53:58.789219  6271 net.cpp:425] conv2/3x3 <- conv2/3x3_reduce
I0403 17:53:58.789242  6271 net.cpp:399] conv2/3x3 -> conv2/3x3
I0403 17:53:58.791579  6271 net.cpp:141] Setting up conv2/3x3
I0403 17:53:58.791612  6271 net.cpp:148] Top shape: 24 192 56 56 (14450688)
I0403 17:53:58.791630  6271 net.cpp:156] Memory required for data: 303465504
I0403 17:53:58.791652  6271 layer_factory.hpp:77] Creating layer conv2/relu_3x3
I0403 17:53:58.791672  6271 net.cpp:91] Creating Layer conv2/relu_3x3
I0403 17:53:58.791689  6271 net.cpp:425] conv2/relu_3x3 <- conv2/3x3
I0403 17:53:58.791710  6271 net.cpp:386] conv2/relu_3x3 -> conv2/3x3 (in-place)
I0403 17:53:58.791908  6271 net.cpp:141] Setting up conv2/relu_3x3
I0403 17:53:58.791935  6271 net.cpp:148] Top shape: 24 192 56 56 (14450688)
I0403 17:53:58.791975  6271 net.cpp:156] Memory required for data: 361268256
I0403 17:53:58.791992  6271 layer_factory.hpp:77] Creating layer conv2/norm2
I0403 17:53:58.792011  6271 net.cpp:91] Creating Layer conv2/norm2
I0403 17:53:58.792027  6271 net.cpp:425] conv2/norm2 <- conv2/3x3
I0403 17:53:58.792048  6271 net.cpp:399] conv2/norm2 -> conv2/norm2
I0403 17:53:58.792372  6271 net.cpp:141] Setting up conv2/norm2
I0403 17:53:58.792402  6271 net.cpp:148] Top shape: 24 192 56 56 (14450688)
I0403 17:53:58.792417  6271 net.cpp:156] Memory required for data: 419071008
I0403 17:53:58.792434  6271 layer_factory.hpp:77] Creating layer pool2/3x3_s2
I0403 17:53:58.792454  6271 net.cpp:91] Creating Layer pool2/3x3_s2
I0403 17:53:58.792469  6271 net.cpp:425] pool2/3x3_s2 <- conv2/norm2
I0403 17:53:58.792490  6271 net.cpp:399] pool2/3x3_s2 -> pool2/3x3_s2
I0403 17:53:58.792546  6271 net.cpp:141] Setting up pool2/3x3_s2
I0403 17:53:58.792570  6271 net.cpp:148] Top shape: 24 192 28 28 (3612672)
I0403 17:53:58.792585  6271 net.cpp:156] Memory required for data: 433521696
I0403 17:53:58.792600  6271 layer_factory.hpp:77] Creating layer pool2/3x3_s2_pool2/3x3_s2_0_split
I0403 17:53:58.792621  6271 net.cpp:91] Creating Layer pool2/3x3_s2_pool2/3x3_s2_0_split
I0403 17:53:58.792637  6271 net.cpp:425] pool2/3x3_s2_pool2/3x3_s2_0_split <- pool2/3x3_s2
I0403 17:53:58.792656  6271 net.cpp:399] pool2/3x3_s2_pool2/3x3_s2_0_split -> pool2/3x3_s2_pool2/3x3_s2_0_split_0
I0403 17:53:58.792680  6271 net.cpp:399] pool2/3x3_s2_pool2/3x3_s2_0_split -> pool2/3x3_s2_pool2/3x3_s2_0_split_1
I0403 17:53:58.792701  6271 net.cpp:399] pool2/3x3_s2_pool2/3x3_s2_0_split -> pool2/3x3_s2_pool2/3x3_s2_0_split_2
I0403 17:53:58.792721  6271 net.cpp:399] pool2/3x3_s2_pool2/3x3_s2_0_split -> pool2/3x3_s2_pool2/3x3_s2_0_split_3
I0403 17:53:58.792793  6271 net.cpp:141] Setting up pool2/3x3_s2_pool2/3x3_s2_0_split
I0403 17:53:58.792816  6271 net.cpp:148] Top shape: 24 192 28 28 (3612672)
I0403 17:53:58.792834  6271 net.cpp:148] Top shape: 24 192 28 28 (3612672)
I0403 17:53:58.792850  6271 net.cpp:148] Top shape: 24 192 28 28 (3612672)
I0403 17:53:58.792866  6271 net.cpp:148] Top shape: 24 192 28 28 (3612672)
I0403 17:53:58.792881  6271 net.cpp:156] Memory required for data: 491324448
I0403 17:53:58.792896  6271 layer_factory.hpp:77] Creating layer inception_3a/1x1
I0403 17:53:58.792919  6271 net.cpp:91] Creating Layer inception_3a/1x1
I0403 17:53:58.792937  6271 net.cpp:425] inception_3a/1x1 <- pool2/3x3_s2_pool2/3x3_s2_0_split_0
I0403 17:53:58.792961  6271 net.cpp:399] inception_3a/1x1 -> inception_3a/1x1
I0403 17:53:58.794626  6271 net.cpp:141] Setting up inception_3a/1x1
I0403 17:53:58.794658  6271 net.cpp:148] Top shape: 24 64 28 28 (1204224)
I0403 17:53:58.794674  6271 net.cpp:156] Memory required for data: 496141344
I0403 17:53:58.794694  6271 layer_factory.hpp:77] Creating layer inception_3a/relu_1x1
I0403 17:53:58.794716  6271 net.cpp:91] Creating Layer inception_3a/relu_1x1
I0403 17:53:58.794734  6271 net.cpp:425] inception_3a/relu_1x1 <- inception_3a/1x1
I0403 17:53:58.794754  6271 net.cpp:386] inception_3a/relu_1x1 -> inception_3a/1x1 (in-place)
I0403 17:53:58.794935  6271 net.cpp:141] Setting up inception_3a/relu_1x1
I0403 17:53:58.794961  6271 net.cpp:148] Top shape: 24 64 28 28 (1204224)
I0403 17:53:58.794976  6271 net.cpp:156] Memory required for data: 500958240
I0403 17:53:58.794991  6271 layer_factory.hpp:77] Creating layer inception_3a/3x3_reduce
I0403 17:53:58.795017  6271 net.cpp:91] Creating Layer inception_3a/3x3_reduce
I0403 17:53:58.795035  6271 net.cpp:425] inception_3a/3x3_reduce <- pool2/3x3_s2_pool2/3x3_s2_0_split_1
I0403 17:53:58.795055  6271 net.cpp:399] inception_3a/3x3_reduce -> inception_3a/3x3_reduce
I0403 17:53:58.796826  6271 net.cpp:141] Setting up inception_3a/3x3_reduce
I0403 17:53:58.796857  6271 net.cpp:148] Top shape: 24 96 28 28 (1806336)
I0403 17:53:58.796875  6271 net.cpp:156] Memory required for data: 508183584
I0403 17:53:58.796896  6271 layer_factory.hpp:77] Creating layer inception_3a/relu_3x3_reduce
I0403 17:53:58.796936  6271 net.cpp:91] Creating Layer inception_3a/relu_3x3_reduce
I0403 17:53:58.796954  6271 net.cpp:425] inception_3a/relu_3x3_reduce <- inception_3a/3x3_reduce
I0403 17:53:58.796973  6271 net.cpp:386] inception_3a/relu_3x3_reduce -> inception_3a/3x3_reduce (in-place)
I0403 17:53:58.797164  6271 net.cpp:141] Setting up inception_3a/relu_3x3_reduce
I0403 17:53:58.797190  6271 net.cpp:148] Top shape: 24 96 28 28 (1806336)
I0403 17:53:58.797205  6271 net.cpp:156] Memory required for data: 515408928
I0403 17:53:58.797220  6271 layer_factory.hpp:77] Creating layer inception_3a/3x3
I0403 17:53:58.797248  6271 net.cpp:91] Creating Layer inception_3a/3x3
I0403 17:53:58.797268  6271 net.cpp:425] inception_3a/3x3 <- inception_3a/3x3_reduce
I0403 17:53:58.797292  6271 net.cpp:399] inception_3a/3x3 -> inception_3a/3x3
I0403 17:53:58.799026  6271 net.cpp:141] Setting up inception_3a/3x3
I0403 17:53:58.799054  6271 net.cpp:148] Top shape: 24 128 28 28 (2408448)
I0403 17:53:58.799072  6271 net.cpp:156] Memory required for data: 525042720
I0403 17:53:58.799091  6271 layer_factory.hpp:77] Creating layer inception_3a/relu_3x3
I0403 17:53:58.799113  6271 net.cpp:91] Creating Layer inception_3a/relu_3x3
I0403 17:53:58.799130  6271 net.cpp:425] inception_3a/relu_3x3 <- inception_3a/3x3
I0403 17:53:58.799149  6271 net.cpp:386] inception_3a/relu_3x3 -> inception_3a/3x3 (in-place)
I0403 17:53:58.799449  6271 net.cpp:141] Setting up inception_3a/relu_3x3
I0403 17:53:58.799479  6271 net.cpp:148] Top shape: 24 128 28 28 (2408448)
I0403 17:53:58.799496  6271 net.cpp:156] Memory required for data: 534676512
I0403 17:53:58.799513  6271 layer_factory.hpp:77] Creating layer inception_3a/5x5_reduce
I0403 17:53:58.799538  6271 net.cpp:91] Creating Layer inception_3a/5x5_reduce
I0403 17:53:58.799557  6271 net.cpp:425] inception_3a/5x5_reduce <- pool2/3x3_s2_pool2/3x3_s2_0_split_2
I0403 17:53:58.799579  6271 net.cpp:399] inception_3a/5x5_reduce -> inception_3a/5x5_reduce
I0403 17:53:58.800587  6271 net.cpp:141] Setting up inception_3a/5x5_reduce
I0403 17:53:58.800617  6271 net.cpp:148] Top shape: 24 16 28 28 (301056)
I0403 17:53:58.800633  6271 net.cpp:156] Memory required for data: 535880736
I0403 17:53:58.800653  6271 layer_factory.hpp:77] Creating layer inception_3a/relu_5x5_reduce
I0403 17:53:58.800675  6271 net.cpp:91] Creating Layer inception_3a/relu_5x5_reduce
I0403 17:53:58.800693  6271 net.cpp:425] inception_3a/relu_5x5_reduce <- inception_3a/5x5_reduce
I0403 17:53:58.800710  6271 net.cpp:386] inception_3a/relu_5x5_reduce -> inception_3a/5x5_reduce (in-place)
I0403 17:53:58.801023  6271 net.cpp:141] Setting up inception_3a/relu_5x5_reduce
I0403 17:53:58.801054  6271 net.cpp:148] Top shape: 24 16 28 28 (301056)
I0403 17:53:58.801070  6271 net.cpp:156] Memory required for data: 537084960
I0403 17:53:58.801086  6271 layer_factory.hpp:77] Creating layer inception_3a/5x5
I0403 17:53:58.801110  6271 net.cpp:91] Creating Layer inception_3a/5x5
I0403 17:53:58.801128  6271 net.cpp:425] inception_3a/5x5 <- inception_3a/5x5_reduce
I0403 17:53:58.801148  6271 net.cpp:399] inception_3a/5x5 -> inception_3a/5x5
I0403 17:53:58.802227  6271 net.cpp:141] Setting up inception_3a/5x5
I0403 17:53:58.802259  6271 net.cpp:148] Top shape: 24 32 28 28 (602112)
I0403 17:53:58.802278  6271 net.cpp:156] Memory required for data: 539493408
I0403 17:53:58.802296  6271 layer_factory.hpp:77] Creating layer inception_3a/relu_5x5
I0403 17:53:58.802319  6271 net.cpp:91] Creating Layer inception_3a/relu_5x5
I0403 17:53:58.802336  6271 net.cpp:425] inception_3a/relu_5x5 <- inception_3a/5x5
I0403 17:53:58.802355  6271 net.cpp:386] inception_3a/relu_5x5 -> inception_3a/5x5 (in-place)
I0403 17:53:58.802539  6271 net.cpp:141] Setting up inception_3a/relu_5x5
I0403 17:53:58.802566  6271 net.cpp:148] Top shape: 24 32 28 28 (602112)
I0403 17:53:58.802580  6271 net.cpp:156] Memory required for data: 541901856
I0403 17:53:58.802597  6271 layer_factory.hpp:77] Creating layer inception_3a/pool
I0403 17:53:58.802618  6271 net.cpp:91] Creating Layer inception_3a/pool
I0403 17:53:58.802649  6271 net.cpp:425] inception_3a/pool <- pool2/3x3_s2_pool2/3x3_s2_0_split_3
I0403 17:53:58.802669  6271 net.cpp:399] inception_3a/pool -> inception_3a/pool
I0403 17:53:58.802729  6271 net.cpp:141] Setting up inception_3a/pool
I0403 17:53:58.802753  6271 net.cpp:148] Top shape: 24 192 28 28 (3612672)
I0403 17:53:58.802768  6271 net.cpp:156] Memory required for data: 556352544
I0403 17:53:58.802783  6271 layer_factory.hpp:77] Creating layer inception_3a/pool_proj
I0403 17:53:58.802806  6271 net.cpp:91] Creating Layer inception_3a/pool_proj
I0403 17:53:58.802824  6271 net.cpp:425] inception_3a/pool_proj <- inception_3a/pool
I0403 17:53:58.802847  6271 net.cpp:399] inception_3a/pool_proj -> inception_3a/pool_proj
I0403 17:53:58.803853  6271 net.cpp:141] Setting up inception_3a/pool_proj
I0403 17:53:58.803884  6271 net.cpp:148] Top shape: 24 32 28 28 (602112)
I0403 17:53:58.803901  6271 net.cpp:156] Memory required for data: 558760992
I0403 17:53:58.803923  6271 layer_factory.hpp:77] Creating layer inception_3a/relu_pool_proj
I0403 17:53:58.803946  6271 net.cpp:91] Creating Layer inception_3a/relu_pool_proj
I0403 17:53:58.803962  6271 net.cpp:425] inception_3a/relu_pool_proj <- inception_3a/pool_proj
I0403 17:53:58.803980  6271 net.cpp:386] inception_3a/relu_pool_proj -> inception_3a/pool_proj (in-place)
I0403 17:53:58.804270  6271 net.cpp:141] Setting up inception_3a/relu_pool_proj
I0403 17:53:58.804296  6271 net.cpp:148] Top shape: 24 32 28 28 (602112)
I0403 17:53:58.804311  6271 net.cpp:156] Memory required for data: 561169440
I0403 17:53:58.804327  6271 layer_factory.hpp:77] Creating layer inception_3a/output
I0403 17:53:58.804347  6271 net.cpp:91] Creating Layer inception_3a/output
I0403 17:53:58.804363  6271 net.cpp:425] inception_3a/output <- inception_3a/1x1
I0403 17:53:58.804380  6271 net.cpp:425] inception_3a/output <- inception_3a/3x3
I0403 17:53:58.804396  6271 net.cpp:425] inception_3a/output <- inception_3a/5x5
I0403 17:53:58.804414  6271 net.cpp:425] inception_3a/output <- inception_3a/pool_proj
I0403 17:53:58.804430  6271 net.cpp:399] inception_3a/output -> inception_3a/output
I0403 17:53:58.804477  6271 net.cpp:141] Setting up inception_3a/output
I0403 17:53:58.804502  6271 net.cpp:148] Top shape: 24 256 28 28 (4816896)
I0403 17:53:58.804515  6271 net.cpp:156] Memory required for data: 580437024
I0403 17:53:58.804530  6271 layer_factory.hpp:77] Creating layer inception_3a/output_inception_3a/output_0_split
I0403 17:53:58.804548  6271 net.cpp:91] Creating Layer inception_3a/output_inception_3a/output_0_split
I0403 17:53:58.804563  6271 net.cpp:425] inception_3a/output_inception_3a/output_0_split <- inception_3a/output
I0403 17:53:58.804582  6271 net.cpp:399] inception_3a/output_inception_3a/output_0_split -> inception_3a/output_inception_3a/output_0_split_0
I0403 17:53:58.804602  6271 net.cpp:399] inception_3a/output_inception_3a/output_0_split -> inception_3a/output_inception_3a/output_0_split_1
I0403 17:53:58.804625  6271 net.cpp:399] inception_3a/output_inception_3a/output_0_split -> inception_3a/output_inception_3a/output_0_split_2
I0403 17:53:58.804646  6271 net.cpp:399] inception_3a/output_inception_3a/output_0_split -> inception_3a/output_inception_3a/output_0_split_3
I0403 17:53:58.804721  6271 net.cpp:141] Setting up inception_3a/output_inception_3a/output_0_split
I0403 17:53:58.804744  6271 net.cpp:148] Top shape: 24 256 28 28 (4816896)
I0403 17:53:58.804761  6271 net.cpp:148] Top shape: 24 256 28 28 (4816896)
I0403 17:53:58.804777  6271 net.cpp:148] Top shape: 24 256 28 28 (4816896)
I0403 17:53:58.804793  6271 net.cpp:148] Top shape: 24 256 28 28 (4816896)
I0403 17:53:58.804807  6271 net.cpp:156] Memory required for data: 657507360
I0403 17:53:58.804821  6271 layer_factory.hpp:77] Creating layer inception_3b/1x1
I0403 17:53:58.804860  6271 net.cpp:91] Creating Layer inception_3b/1x1
I0403 17:53:58.804879  6271 net.cpp:425] inception_3b/1x1 <- inception_3a/output_inception_3a/output_0_split_0
I0403 17:53:58.804903  6271 net.cpp:399] inception_3b/1x1 -> inception_3b/1x1
I0403 17:53:58.806128  6271 net.cpp:141] Setting up inception_3b/1x1
I0403 17:53:58.806169  6271 net.cpp:148] Top shape: 24 128 28 28 (2408448)
I0403 17:53:58.806187  6271 net.cpp:156] Memory required for data: 667141152
I0403 17:53:58.806207  6271 layer_factory.hpp:77] Creating layer inception_3b/relu_1x1
I0403 17:53:58.806226  6271 net.cpp:91] Creating Layer inception_3b/relu_1x1
I0403 17:53:58.806247  6271 net.cpp:425] inception_3b/relu_1x1 <- inception_3b/1x1
I0403 17:53:58.806270  6271 net.cpp:386] inception_3b/relu_1x1 -> inception_3b/1x1 (in-place)
I0403 17:53:58.806458  6271 net.cpp:141] Setting up inception_3b/relu_1x1
I0403 17:53:58.806485  6271 net.cpp:148] Top shape: 24 128 28 28 (2408448)
I0403 17:53:58.806500  6271 net.cpp:156] Memory required for data: 676774944
I0403 17:53:58.806516  6271 layer_factory.hpp:77] Creating layer inception_3b/3x3_reduce
I0403 17:53:58.806540  6271 net.cpp:91] Creating Layer inception_3b/3x3_reduce
I0403 17:53:58.806558  6271 net.cpp:425] inception_3b/3x3_reduce <- inception_3a/output_inception_3a/output_0_split_1
I0403 17:53:58.806581  6271 net.cpp:399] inception_3b/3x3_reduce -> inception_3b/3x3_reduce
I0403 17:53:58.807772  6271 net.cpp:141] Setting up inception_3b/3x3_reduce
I0403 17:53:58.807802  6271 net.cpp:148] Top shape: 24 128 28 28 (2408448)
I0403 17:53:58.807819  6271 net.cpp:156] Memory required for data: 686408736
I0403 17:53:58.807838  6271 layer_factory.hpp:77] Creating layer inception_3b/relu_3x3_reduce
I0403 17:53:58.807857  6271 net.cpp:91] Creating Layer inception_3b/relu_3x3_reduce
I0403 17:53:58.807878  6271 net.cpp:425] inception_3b/relu_3x3_reduce <- inception_3b/3x3_reduce
I0403 17:53:58.807896  6271 net.cpp:386] inception_3b/relu_3x3_reduce -> inception_3b/3x3_reduce (in-place)
I0403 17:53:58.808074  6271 net.cpp:141] Setting up inception_3b/relu_3x3_reduce
I0403 17:53:58.808100  6271 net.cpp:148] Top shape: 24 128 28 28 (2408448)
I0403 17:53:58.808115  6271 net.cpp:156] Memory required for data: 696042528
I0403 17:53:58.808131  6271 layer_factory.hpp:77] Creating layer inception_3b/3x3
I0403 17:53:58.808157  6271 net.cpp:91] Creating Layer inception_3b/3x3
I0403 17:53:58.808177  6271 net.cpp:425] inception_3b/3x3 <- inception_3b/3x3_reduce
I0403 17:53:58.808197  6271 net.cpp:399] inception_3b/3x3 -> inception_3b/3x3
I0403 17:53:58.811252  6271 net.cpp:141] Setting up inception_3b/3x3
I0403 17:53:58.811283  6271 net.cpp:148] Top shape: 24 192 28 28 (3612672)
I0403 17:53:58.811300  6271 net.cpp:156] Memory required for data: 710493216
I0403 17:53:58.811319  6271 layer_factory.hpp:77] Creating layer inception_3b/relu_3x3
I0403 17:53:58.811341  6271 net.cpp:91] Creating Layer inception_3b/relu_3x3
I0403 17:53:58.811358  6271 net.cpp:425] inception_3b/relu_3x3 <- inception_3b/3x3
I0403 17:53:58.811377  6271 net.cpp:386] inception_3b/relu_3x3 -> inception_3b/3x3 (in-place)
I0403 17:53:58.811663  6271 net.cpp:141] Setting up inception_3b/relu_3x3
I0403 17:53:58.811691  6271 net.cpp:148] Top shape: 24 192 28 28 (3612672)
I0403 17:53:58.811707  6271 net.cpp:156] Memory required for data: 724943904
I0403 17:53:58.811722  6271 layer_factory.hpp:77] Creating layer inception_3b/5x5_reduce
I0403 17:53:58.811745  6271 net.cpp:91] Creating Layer inception_3b/5x5_reduce
I0403 17:53:58.811764  6271 net.cpp:425] inception_3b/5x5_reduce <- inception_3a/output_inception_3a/output_0_split_2
I0403 17:53:58.811789  6271 net.cpp:399] inception_3b/5x5_reduce -> inception_3b/5x5_reduce
I0403 17:53:58.812824  6271 net.cpp:141] Setting up inception_3b/5x5_reduce
I0403 17:53:58.812855  6271 net.cpp:148] Top shape: 24 32 28 28 (602112)
I0403 17:53:58.812870  6271 net.cpp:156] Memory required for data: 727352352
I0403 17:53:58.812890  6271 layer_factory.hpp:77] Creating layer inception_3b/relu_5x5_reduce
I0403 17:53:58.812911  6271 net.cpp:91] Creating Layer inception_3b/relu_5x5_reduce
I0403 17:53:58.812928  6271 net.cpp:425] inception_3b/relu_5x5_reduce <- inception_3b/5x5_reduce
I0403 17:53:58.812947  6271 net.cpp:386] inception_3b/relu_5x5_reduce -> inception_3b/5x5_reduce (in-place)
I0403 17:53:58.813149  6271 net.cpp:141] Setting up inception_3b/relu_5x5_reduce
I0403 17:53:58.813175  6271 net.cpp:148] Top shape: 24 32 28 28 (602112)
I0403 17:53:58.813190  6271 net.cpp:156] Memory required for data: 729760800
I0403 17:53:58.813206  6271 layer_factory.hpp:77] Creating layer inception_3b/5x5
I0403 17:53:58.813231  6271 net.cpp:91] Creating Layer inception_3b/5x5
I0403 17:53:58.813262  6271 net.cpp:425] inception_3b/5x5 <- inception_3b/5x5_reduce
I0403 17:53:58.813284  6271 net.cpp:399] inception_3b/5x5 -> inception_3b/5x5
I0403 17:53:58.815347  6271 net.cpp:141] Setting up inception_3b/5x5
I0403 17:53:58.815379  6271 net.cpp:148] Top shape: 24 96 28 28 (1806336)
I0403 17:53:58.815395  6271 net.cpp:156] Memory required for data: 736986144
I0403 17:53:58.815415  6271 layer_factory.hpp:77] Creating layer inception_3b/relu_5x5
I0403 17:53:58.815436  6271 net.cpp:91] Creating Layer inception_3b/relu_5x5
I0403 17:53:58.815453  6271 net.cpp:425] inception_3b/relu_5x5 <- inception_3b/5x5
I0403 17:53:58.815474  6271 net.cpp:386] inception_3b/relu_5x5 -> inception_3b/5x5 (in-place)
I0403 17:53:58.815672  6271 net.cpp:141] Setting up inception_3b/relu_5x5
I0403 17:53:58.815698  6271 net.cpp:148] Top shape: 24 96 28 28 (1806336)
I0403 17:53:58.815714  6271 net.cpp:156] Memory required for data: 744211488
I0403 17:53:58.815731  6271 layer_factory.hpp:77] Creating layer inception_3b/pool
I0403 17:53:58.815749  6271 net.cpp:91] Creating Layer inception_3b/pool
I0403 17:53:58.815765  6271 net.cpp:425] inception_3b/pool <- inception_3a/output_inception_3a/output_0_split_3
I0403 17:53:58.815785  6271 net.cpp:399] inception_3b/pool -> inception_3b/pool
I0403 17:53:58.815846  6271 net.cpp:141] Setting up inception_3b/pool
I0403 17:53:58.815871  6271 net.cpp:148] Top shape: 24 256 28 28 (4816896)
I0403 17:53:58.815886  6271 net.cpp:156] Memory required for data: 763479072
I0403 17:53:58.815902  6271 layer_factory.hpp:77] Creating layer inception_3b/pool_proj
I0403 17:53:58.815925  6271 net.cpp:91] Creating Layer inception_3b/pool_proj
I0403 17:53:58.815944  6271 net.cpp:425] inception_3b/pool_proj <- inception_3b/pool
I0403 17:53:58.815965  6271 net.cpp:399] inception_3b/pool_proj -> inception_3b/pool_proj
I0403 17:53:58.817070  6271 net.cpp:141] Setting up inception_3b/pool_proj
I0403 17:53:58.817102  6271 net.cpp:148] Top shape: 24 64 28 28 (1204224)
I0403 17:53:58.817119  6271 net.cpp:156] Memory required for data: 768295968
I0403 17:53:58.817138  6271 layer_factory.hpp:77] Creating layer inception_3b/relu_pool_proj
I0403 17:53:58.817157  6271 net.cpp:91] Creating Layer inception_3b/relu_pool_proj
I0403 17:53:58.817174  6271 net.cpp:425] inception_3b/relu_pool_proj <- inception_3b/pool_proj
I0403 17:53:58.817198  6271 net.cpp:386] inception_3b/relu_pool_proj -> inception_3b/pool_proj (in-place)
I0403 17:53:58.817621  6271 net.cpp:141] Setting up inception_3b/relu_pool_proj
I0403 17:53:58.817651  6271 net.cpp:148] Top shape: 24 64 28 28 (1204224)
I0403 17:53:58.817667  6271 net.cpp:156] Memory required for data: 773112864
I0403 17:53:58.817683  6271 layer_factory.hpp:77] Creating layer inception_3b/output
I0403 17:53:58.817701  6271 net.cpp:91] Creating Layer inception_3b/output
I0403 17:53:58.817718  6271 net.cpp:425] inception_3b/output <- inception_3b/1x1
I0403 17:53:58.817735  6271 net.cpp:425] inception_3b/output <- inception_3b/3x3
I0403 17:53:58.817752  6271 net.cpp:425] inception_3b/output <- inception_3b/5x5
I0403 17:53:58.817769  6271 net.cpp:425] inception_3b/output <- inception_3b/pool_proj
I0403 17:53:58.817786  6271 net.cpp:399] inception_3b/output -> inception_3b/output
I0403 17:53:58.817833  6271 net.cpp:141] Setting up inception_3b/output
I0403 17:53:58.817857  6271 net.cpp:148] Top shape: 24 480 28 28 (9031680)
I0403 17:53:58.817873  6271 net.cpp:156] Memory required for data: 809239584
I0403 17:53:58.817888  6271 layer_factory.hpp:77] Creating layer pool3/3x3_s2
I0403 17:53:58.817909  6271 net.cpp:91] Creating Layer pool3/3x3_s2
I0403 17:53:58.817926  6271 net.cpp:425] pool3/3x3_s2 <- inception_3b/output
I0403 17:53:58.817960  6271 net.cpp:399] pool3/3x3_s2 -> pool3/3x3_s2
I0403 17:53:58.818022  6271 net.cpp:141] Setting up pool3/3x3_s2
I0403 17:53:58.818048  6271 net.cpp:148] Top shape: 24 480 14 14 (2257920)
I0403 17:53:58.818061  6271 net.cpp:156] Memory required for data: 818271264
I0403 17:53:58.818078  6271 layer_factory.hpp:77] Creating layer pool3/3x3_s2_pool3/3x3_s2_0_split
I0403 17:53:58.818094  6271 net.cpp:91] Creating Layer pool3/3x3_s2_pool3/3x3_s2_0_split
I0403 17:53:58.818110  6271 net.cpp:425] pool3/3x3_s2_pool3/3x3_s2_0_split <- pool3/3x3_s2
I0403 17:53:58.818130  6271 net.cpp:399] pool3/3x3_s2_pool3/3x3_s2_0_split -> pool3/3x3_s2_pool3/3x3_s2_0_split_0
I0403 17:53:58.818152  6271 net.cpp:399] pool3/3x3_s2_pool3/3x3_s2_0_split -> pool3/3x3_s2_pool3/3x3_s2_0_split_1
I0403 17:53:58.818173  6271 net.cpp:399] pool3/3x3_s2_pool3/3x3_s2_0_split -> pool3/3x3_s2_pool3/3x3_s2_0_split_2
I0403 17:53:58.818194  6271 net.cpp:399] pool3/3x3_s2_pool3/3x3_s2_0_split -> pool3/3x3_s2_pool3/3x3_s2_0_split_3
I0403 17:53:58.818280  6271 net.cpp:141] Setting up pool3/3x3_s2_pool3/3x3_s2_0_split
I0403 17:53:58.818307  6271 net.cpp:148] Top shape: 24 480 14 14 (2257920)
I0403 17:53:58.818325  6271 net.cpp:148] Top shape: 24 480 14 14 (2257920)
I0403 17:53:58.818342  6271 net.cpp:148] Top shape: 24 480 14 14 (2257920)
I0403 17:53:58.818358  6271 net.cpp:148] Top shape: 24 480 14 14 (2257920)
I0403 17:53:58.818373  6271 net.cpp:156] Memory required for data: 854397984
I0403 17:53:58.818388  6271 layer_factory.hpp:77] Creating layer inception_4a/1x1
I0403 17:53:58.818411  6271 net.cpp:91] Creating Layer inception_4a/1x1
I0403 17:53:58.818429  6271 net.cpp:425] inception_4a/1x1 <- pool3/3x3_s2_pool3/3x3_s2_0_split_0
I0403 17:53:58.818449  6271 net.cpp:399] inception_4a/1x1 -> inception_4a/1x1
I0403 17:53:58.820106  6271 net.cpp:141] Setting up inception_4a/1x1
I0403 17:53:58.820137  6271 net.cpp:148] Top shape: 24 192 14 14 (903168)
I0403 17:53:58.820154  6271 net.cpp:156] Memory required for data: 858010656
I0403 17:53:58.820174  6271 layer_factory.hpp:77] Creating layer inception_4a/relu_1x1
I0403 17:53:58.820194  6271 net.cpp:91] Creating Layer inception_4a/relu_1x1
I0403 17:53:58.820210  6271 net.cpp:425] inception_4a/relu_1x1 <- inception_4a/1x1
I0403 17:53:58.820233  6271 net.cpp:386] inception_4a/relu_1x1 -> inception_4a/1x1 (in-place)
I0403 17:53:58.820425  6271 net.cpp:141] Setting up inception_4a/relu_1x1
I0403 17:53:58.820451  6271 net.cpp:148] Top shape: 24 192 14 14 (903168)
I0403 17:53:58.820466  6271 net.cpp:156] Memory required for data: 861623328
I0403 17:53:58.820482  6271 layer_factory.hpp:77] Creating layer inception_4a/3x3_reduce
I0403 17:53:58.820507  6271 net.cpp:91] Creating Layer inception_4a/3x3_reduce
I0403 17:53:58.820525  6271 net.cpp:425] inception_4a/3x3_reduce <- pool3/3x3_s2_pool3/3x3_s2_0_split_1
I0403 17:53:58.820549  6271 net.cpp:399] inception_4a/3x3_reduce -> inception_4a/3x3_reduce
I0403 17:53:58.821991  6271 net.cpp:141] Setting up inception_4a/3x3_reduce
I0403 17:53:58.822022  6271 net.cpp:148] Top shape: 24 96 14 14 (451584)
I0403 17:53:58.822039  6271 net.cpp:156] Memory required for data: 863429664
I0403 17:53:58.822063  6271 layer_factory.hpp:77] Creating layer inception_4a/relu_3x3_reduce
I0403 17:53:58.822085  6271 net.cpp:91] Creating Layer inception_4a/relu_3x3_reduce
I0403 17:53:58.822103  6271 net.cpp:425] inception_4a/relu_3x3_reduce <- inception_4a/3x3_reduce
I0403 17:53:58.822123  6271 net.cpp:386] inception_4a/relu_3x3_reduce -> inception_4a/3x3_reduce (in-place)
I0403 17:53:58.822348  6271 net.cpp:141] Setting up inception_4a/relu_3x3_reduce
I0403 17:53:58.822376  6271 net.cpp:148] Top shape: 24 96 14 14 (451584)
I0403 17:53:58.822391  6271 net.cpp:156] Memory required for data: 865236000
I0403 17:53:58.822407  6271 layer_factory.hpp:77] Creating layer inception_4a/3x3
I0403 17:53:58.822430  6271 net.cpp:91] Creating Layer inception_4a/3x3
I0403 17:53:58.822448  6271 net.cpp:425] inception_4a/3x3 <- inception_4a/3x3_reduce
I0403 17:53:58.822471  6271 net.cpp:399] inception_4a/3x3 -> inception_4a/3x3
I0403 17:53:58.825414  6271 net.cpp:141] Setting up inception_4a/3x3
I0403 17:53:58.825446  6271 net.cpp:148] Top shape: 24 208 14 14 (978432)
I0403 17:53:58.825464  6271 net.cpp:156] Memory required for data: 869149728
I0403 17:53:58.825484  6271 layer_factory.hpp:77] Creating layer inception_4a/relu_3x3
I0403 17:53:58.825505  6271 net.cpp:91] Creating Layer inception_4a/relu_3x3
I0403 17:53:58.825523  6271 net.cpp:425] inception_4a/relu_3x3 <- inception_4a/3x3
I0403 17:53:58.825542  6271 net.cpp:386] inception_4a/relu_3x3 -> inception_4a/3x3 (in-place)
I0403 17:53:58.825845  6271 net.cpp:141] Setting up inception_4a/relu_3x3
I0403 17:53:58.825872  6271 net.cpp:148] Top shape: 24 208 14 14 (978432)
I0403 17:53:58.825887  6271 net.cpp:156] Memory required for data: 873063456
I0403 17:53:58.825903  6271 layer_factory.hpp:77] Creating layer inception_4a/5x5_reduce
I0403 17:53:58.825927  6271 net.cpp:91] Creating Layer inception_4a/5x5_reduce
I0403 17:53:58.825947  6271 net.cpp:425] inception_4a/5x5_reduce <- pool3/3x3_s2_pool3/3x3_s2_0_split_2
I0403 17:53:58.825969  6271 net.cpp:399] inception_4a/5x5_reduce -> inception_4a/5x5_reduce
I0403 17:53:58.827100  6271 net.cpp:141] Setting up inception_4a/5x5_reduce
I0403 17:53:58.827129  6271 net.cpp:148] Top shape: 24 16 14 14 (75264)
I0403 17:53:58.827145  6271 net.cpp:156] Memory required for data: 873364512
I0403 17:53:58.827165  6271 layer_factory.hpp:77] Creating layer inception_4a/relu_5x5_reduce
I0403 17:53:58.827188  6271 net.cpp:91] Creating Layer inception_4a/relu_5x5_reduce
I0403 17:53:58.827206  6271 net.cpp:425] inception_4a/relu_5x5_reduce <- inception_4a/5x5_reduce
I0403 17:53:58.827225  6271 net.cpp:386] inception_4a/relu_5x5_reduce -> inception_4a/5x5_reduce (in-place)
I0403 17:53:58.827419  6271 net.cpp:141] Setting up inception_4a/relu_5x5_reduce
I0403 17:53:58.827445  6271 net.cpp:148] Top shape: 24 16 14 14 (75264)
I0403 17:53:58.827461  6271 net.cpp:156] Memory required for data: 873665568
I0403 17:53:58.827476  6271 layer_factory.hpp:77] Creating layer inception_4a/5x5
I0403 17:53:58.827502  6271 net.cpp:91] Creating Layer inception_4a/5x5
I0403 17:53:58.827520  6271 net.cpp:425] inception_4a/5x5 <- inception_4a/5x5_reduce
I0403 17:53:58.827541  6271 net.cpp:399] inception_4a/5x5 -> inception_4a/5x5
I0403 17:53:58.828687  6271 net.cpp:141] Setting up inception_4a/5x5
I0403 17:53:58.828719  6271 net.cpp:148] Top shape: 24 48 14 14 (225792)
I0403 17:53:58.828737  6271 net.cpp:156] Memory required for data: 874568736
I0403 17:53:58.828755  6271 layer_factory.hpp:77] Creating layer inception_4a/relu_5x5
I0403 17:53:58.828774  6271 net.cpp:91] Creating Layer inception_4a/relu_5x5
I0403 17:53:58.828791  6271 net.cpp:425] inception_4a/relu_5x5 <- inception_4a/5x5
I0403 17:53:58.828810  6271 net.cpp:386] inception_4a/relu_5x5 -> inception_4a/5x5 (in-place)
I0403 17:53:58.829001  6271 net.cpp:141] Setting up inception_4a/relu_5x5
I0403 17:53:58.829030  6271 net.cpp:148] Top shape: 24 48 14 14 (225792)
I0403 17:53:58.829046  6271 net.cpp:156] Memory required for data: 875471904
I0403 17:53:58.829061  6271 layer_factory.hpp:77] Creating layer inception_4a/pool
I0403 17:53:58.829080  6271 net.cpp:91] Creating Layer inception_4a/pool
I0403 17:53:58.829097  6271 net.cpp:425] inception_4a/pool <- pool3/3x3_s2_pool3/3x3_s2_0_split_3
I0403 17:53:58.829118  6271 net.cpp:399] inception_4a/pool -> inception_4a/pool
I0403 17:53:58.829182  6271 net.cpp:141] Setting up inception_4a/pool
I0403 17:53:58.829210  6271 net.cpp:148] Top shape: 24 480 14 14 (2257920)
I0403 17:53:58.829226  6271 net.cpp:156] Memory required for data: 884503584
I0403 17:53:58.829244  6271 layer_factory.hpp:77] Creating layer inception_4a/pool_proj
I0403 17:53:58.829269  6271 net.cpp:91] Creating Layer inception_4a/pool_proj
I0403 17:53:58.829288  6271 net.cpp:425] inception_4a/pool_proj <- inception_4a/pool
I0403 17:53:58.829308  6271 net.cpp:399] inception_4a/pool_proj -> inception_4a/pool_proj
I0403 17:53:58.830540  6271 net.cpp:141] Setting up inception_4a/pool_proj
I0403 17:53:58.830574  6271 net.cpp:148] Top shape: 24 64 14 14 (301056)
I0403 17:53:58.830606  6271 net.cpp:156] Memory required for data: 885707808
I0403 17:53:58.830626  6271 layer_factory.hpp:77] Creating layer inception_4a/relu_pool_proj
I0403 17:53:58.830646  6271 net.cpp:91] Creating Layer inception_4a/relu_pool_proj
I0403 17:53:58.830662  6271 net.cpp:425] inception_4a/relu_pool_proj <- inception_4a/pool_proj
I0403 17:53:58.830683  6271 net.cpp:386] inception_4a/relu_pool_proj -> inception_4a/pool_proj (in-place)
I0403 17:53:58.830977  6271 net.cpp:141] Setting up inception_4a/relu_pool_proj
I0403 17:53:58.831008  6271 net.cpp:148] Top shape: 24 64 14 14 (301056)
I0403 17:53:58.831025  6271 net.cpp:156] Memory required for data: 886912032
I0403 17:53:58.831042  6271 layer_factory.hpp:77] Creating layer inception_4a/output
I0403 17:53:58.831059  6271 net.cpp:91] Creating Layer inception_4a/output
I0403 17:53:58.831075  6271 net.cpp:425] inception_4a/output <- inception_4a/1x1
I0403 17:53:58.831092  6271 net.cpp:425] inception_4a/output <- inception_4a/3x3
I0403 17:53:58.831110  6271 net.cpp:425] inception_4a/output <- inception_4a/5x5
I0403 17:53:58.831126  6271 net.cpp:425] inception_4a/output <- inception_4a/pool_proj
I0403 17:53:58.831145  6271 net.cpp:399] inception_4a/output -> inception_4a/output
I0403 17:53:58.831193  6271 net.cpp:141] Setting up inception_4a/output
I0403 17:53:58.831218  6271 net.cpp:148] Top shape: 24 512 14 14 (2408448)
I0403 17:53:58.831233  6271 net.cpp:156] Memory required for data: 896545824
I0403 17:53:58.831254  6271 layer_factory.hpp:77] Creating layer inception_4a/output_inception_4a/output_0_split
I0403 17:53:58.831275  6271 net.cpp:91] Creating Layer inception_4a/output_inception_4a/output_0_split
I0403 17:53:58.831292  6271 net.cpp:425] inception_4a/output_inception_4a/output_0_split <- inception_4a/output
I0403 17:53:58.831310  6271 net.cpp:399] inception_4a/output_inception_4a/output_0_split -> inception_4a/output_inception_4a/output_0_split_0
I0403 17:53:58.831331  6271 net.cpp:399] inception_4a/output_inception_4a/output_0_split -> inception_4a/output_inception_4a/output_0_split_1
I0403 17:53:58.831352  6271 net.cpp:399] inception_4a/output_inception_4a/output_0_split -> inception_4a/output_inception_4a/output_0_split_2
I0403 17:53:58.831377  6271 net.cpp:399] inception_4a/output_inception_4a/output_0_split -> inception_4a/output_inception_4a/output_0_split_3
I0403 17:53:58.831398  6271 net.cpp:399] inception_4a/output_inception_4a/output_0_split -> inception_4a/output_inception_4a/output_0_split_4
I0403 17:53:58.831506  6271 net.cpp:141] Setting up inception_4a/output_inception_4a/output_0_split
I0403 17:53:58.831531  6271 net.cpp:148] Top shape: 24 512 14 14 (2408448)
I0403 17:53:58.831547  6271 net.cpp:148] Top shape: 24 512 14 14 (2408448)
I0403 17:53:58.831564  6271 net.cpp:148] Top shape: 24 512 14 14 (2408448)
I0403 17:53:58.831580  6271 net.cpp:148] Top shape: 24 512 14 14 (2408448)
I0403 17:53:58.831596  6271 net.cpp:148] Top shape: 24 512 14 14 (2408448)
I0403 17:53:58.831610  6271 net.cpp:156] Memory required for data: 944714784
I0403 17:53:58.831625  6271 layer_factory.hpp:77] Creating layer loss1/ave_pool
I0403 17:53:58.831646  6271 net.cpp:91] Creating Layer loss1/ave_pool
I0403 17:53:58.831663  6271 net.cpp:425] loss1/ave_pool <- inception_4a/output_inception_4a/output_0_split_0
I0403 17:53:58.831682  6271 net.cpp:399] loss1/ave_pool -> loss1/ave_pool
I0403 17:53:58.831897  6271 net.cpp:141] Setting up loss1/ave_pool
I0403 17:53:58.831926  6271 net.cpp:148] Top shape: 24 512 4 4 (196608)
I0403 17:53:58.831943  6271 net.cpp:156] Memory required for data: 945501216
I0403 17:53:58.831959  6271 layer_factory.hpp:77] Creating layer loss1/conv
I0403 17:53:58.831984  6271 net.cpp:91] Creating Layer loss1/conv
I0403 17:53:58.832003  6271 net.cpp:425] loss1/conv <- loss1/ave_pool
I0403 17:53:58.832023  6271 net.cpp:399] loss1/conv -> loss1/conv
I0403 17:53:58.833540  6271 net.cpp:141] Setting up loss1/conv
I0403 17:53:58.833571  6271 net.cpp:148] Top shape: 24 128 4 4 (49152)
I0403 17:53:58.833602  6271 net.cpp:156] Memory required for data: 945697824
I0403 17:53:58.833623  6271 layer_factory.hpp:77] Creating layer loss1/relu_conv
I0403 17:53:58.833644  6271 net.cpp:91] Creating Layer loss1/relu_conv
I0403 17:53:58.833662  6271 net.cpp:425] loss1/relu_conv <- loss1/conv
I0403 17:53:58.833680  6271 net.cpp:386] loss1/relu_conv -> loss1/conv (in-place)
I0403 17:53:58.833979  6271 net.cpp:141] Setting up loss1/relu_conv
I0403 17:53:58.834007  6271 net.cpp:148] Top shape: 24 128 4 4 (49152)
I0403 17:53:58.834023  6271 net.cpp:156] Memory required for data: 945894432
I0403 17:53:58.834039  6271 layer_factory.hpp:77] Creating layer loss1/fc
I0403 17:53:58.834066  6271 net.cpp:91] Creating Layer loss1/fc
I0403 17:53:58.834085  6271 net.cpp:425] loss1/fc <- loss1/conv
I0403 17:53:58.834105  6271 net.cpp:399] loss1/fc -> loss1/fc
I0403 17:53:58.852854  6271 net.cpp:141] Setting up loss1/fc
I0403 17:53:58.852890  6271 net.cpp:148] Top shape: 24 1024 (24576)
I0403 17:53:58.852906  6271 net.cpp:156] Memory required for data: 945992736
I0403 17:53:58.852926  6271 layer_factory.hpp:77] Creating layer loss1/relu_fc
I0403 17:53:58.852946  6271 net.cpp:91] Creating Layer loss1/relu_fc
I0403 17:53:58.852963  6271 net.cpp:425] loss1/relu_fc <- loss1/fc
I0403 17:53:58.852984  6271 net.cpp:386] loss1/relu_fc -> loss1/fc (in-place)
I0403 17:53:58.853184  6271 net.cpp:141] Setting up loss1/relu_fc
I0403 17:53:58.853210  6271 net.cpp:148] Top shape: 24 1024 (24576)
I0403 17:53:58.853226  6271 net.cpp:156] Memory required for data: 946091040
I0403 17:53:58.853251  6271 layer_factory.hpp:77] Creating layer loss1/drop_fc
I0403 17:53:58.853282  6271 net.cpp:91] Creating Layer loss1/drop_fc
I0403 17:53:58.853301  6271 net.cpp:425] loss1/drop_fc <- loss1/fc
I0403 17:53:58.853324  6271 net.cpp:386] loss1/drop_fc -> loss1/fc (in-place)
I0403 17:53:58.853379  6271 net.cpp:141] Setting up loss1/drop_fc
I0403 17:53:58.853402  6271 net.cpp:148] Top shape: 24 1024 (24576)
I0403 17:53:58.853418  6271 net.cpp:156] Memory required for data: 946189344
I0403 17:53:58.853435  6271 layer_factory.hpp:77] Creating layer loss1/classifier_plantvillage
I0403 17:53:58.853457  6271 net.cpp:91] Creating Layer loss1/classifier_plantvillage
I0403 17:53:58.853476  6271 net.cpp:425] loss1/classifier_plantvillage <- loss1/fc
I0403 17:53:58.853497  6271 net.cpp:399] loss1/classifier_plantvillage -> loss1/classifier_plantvillage
I0403 17:53:58.854451  6271 net.cpp:141] Setting up loss1/classifier_plantvillage
I0403 17:53:58.854483  6271 net.cpp:148] Top shape: 24 38 (912)
I0403 17:53:58.854501  6271 net.cpp:156] Memory required for data: 946192992
I0403 17:53:58.854521  6271 layer_factory.hpp:77] Creating layer loss1/classifier_plantvillage_loss1/classifier_plantvillage_0_split
I0403 17:53:58.854538  6271 net.cpp:91] Creating Layer loss1/classifier_plantvillage_loss1/classifier_plantvillage_0_split
I0403 17:53:58.854557  6271 net.cpp:425] loss1/classifier_plantvillage_loss1/classifier_plantvillage_0_split <- loss1/classifier_plantvillage
I0403 17:53:58.854578  6271 net.cpp:399] loss1/classifier_plantvillage_loss1/classifier_plantvillage_0_split -> loss1/classifier_plantvillage_loss1/classifier_plantvillage_0_split_0
I0403 17:53:58.854599  6271 net.cpp:399] loss1/classifier_plantvillage_loss1/classifier_plantvillage_0_split -> loss1/classifier_plantvillage_loss1/classifier_plantvillage_0_split_1
I0403 17:53:58.854620  6271 net.cpp:399] loss1/classifier_plantvillage_loss1/classifier_plantvillage_0_split -> loss1/classifier_plantvillage_loss1/classifier_plantvillage_0_split_2
I0403 17:53:58.854691  6271 net.cpp:141] Setting up loss1/classifier_plantvillage_loss1/classifier_plantvillage_0_split
I0403 17:53:58.854717  6271 net.cpp:148] Top shape: 24 38 (912)
I0403 17:53:58.854735  6271 net.cpp:148] Top shape: 24 38 (912)
I0403 17:53:58.854751  6271 net.cpp:148] Top shape: 24 38 (912)
I0403 17:53:58.854765  6271 net.cpp:156] Memory required for data: 946203936
I0403 17:53:58.854780  6271 layer_factory.hpp:77] Creating layer inception_4b/1x1
I0403 17:53:58.854802  6271 net.cpp:91] Creating Layer inception_4b/1x1
I0403 17:53:58.854840  6271 net.cpp:425] inception_4b/1x1 <- inception_4a/output_inception_4a/output_0_split_1
I0403 17:53:58.854861  6271 net.cpp:399] inception_4b/1x1 -> inception_4b/1x1
I0403 17:53:58.856631  6271 net.cpp:141] Setting up inception_4b/1x1
I0403 17:53:58.856662  6271 net.cpp:148] Top shape: 24 160 14 14 (752640)
I0403 17:53:58.856678  6271 net.cpp:156] Memory required for data: 949214496
I0403 17:53:58.856698  6271 layer_factory.hpp:77] Creating layer inception_4b/relu_1x1
I0403 17:53:58.856719  6271 net.cpp:91] Creating Layer inception_4b/relu_1x1
I0403 17:53:58.856737  6271 net.cpp:425] inception_4b/relu_1x1 <- inception_4b/1x1
I0403 17:53:58.856756  6271 net.cpp:386] inception_4b/relu_1x1 -> inception_4b/1x1 (in-place)
I0403 17:53:58.856957  6271 net.cpp:141] Setting up inception_4b/relu_1x1
I0403 17:53:58.856983  6271 net.cpp:148] Top shape: 24 160 14 14 (752640)
I0403 17:53:58.856998  6271 net.cpp:156] Memory required for data: 952225056
I0403 17:53:58.857013  6271 layer_factory.hpp:77] Creating layer inception_4b/3x3_reduce
I0403 17:53:58.857038  6271 net.cpp:91] Creating Layer inception_4b/3x3_reduce
I0403 17:53:58.857055  6271 net.cpp:425] inception_4b/3x3_reduce <- inception_4a/output_inception_4a/output_0_split_2
I0403 17:53:58.857075  6271 net.cpp:399] inception_4b/3x3_reduce -> inception_4b/3x3_reduce
I0403 17:53:58.858543  6271 net.cpp:141] Setting up inception_4b/3x3_reduce
I0403 17:53:58.858573  6271 net.cpp:148] Top shape: 24 112 14 14 (526848)
I0403 17:53:58.858589  6271 net.cpp:156] Memory required for data: 954332448
I0403 17:53:58.858609  6271 layer_factory.hpp:77] Creating layer inception_4b/relu_3x3_reduce
I0403 17:53:58.858633  6271 net.cpp:91] Creating Layer inception_4b/relu_3x3_reduce
I0403 17:53:58.858649  6271 net.cpp:425] inception_4b/relu_3x3_reduce <- inception_4b/3x3_reduce
I0403 17:53:58.858669  6271 net.cpp:386] inception_4b/relu_3x3_reduce -> inception_4b/3x3_reduce (in-place)
I0403 17:53:58.858965  6271 net.cpp:141] Setting up inception_4b/relu_3x3_reduce
I0403 17:53:58.858994  6271 net.cpp:148] Top shape: 24 112 14 14 (526848)
I0403 17:53:58.859009  6271 net.cpp:156] Memory required for data: 956439840
I0403 17:53:58.859025  6271 layer_factory.hpp:77] Creating layer inception_4b/3x3
I0403 17:53:58.859050  6271 net.cpp:91] Creating Layer inception_4b/3x3
I0403 17:53:58.859068  6271 net.cpp:425] inception_4b/3x3 <- inception_4b/3x3_reduce
I0403 17:53:58.859088  6271 net.cpp:399] inception_4b/3x3 -> inception_4b/3x3
I0403 17:53:58.862254  6271 net.cpp:141] Setting up inception_4b/3x3
I0403 17:53:58.862288  6271 net.cpp:148] Top shape: 24 224 14 14 (1053696)
I0403 17:53:58.862305  6271 net.cpp:156] Memory required for data: 960654624
I0403 17:53:58.862325  6271 layer_factory.hpp:77] Creating layer inception_4b/relu_3x3
I0403 17:53:58.862344  6271 net.cpp:91] Creating Layer inception_4b/relu_3x3
I0403 17:53:58.862361  6271 net.cpp:425] inception_4b/relu_3x3 <- inception_4b/3x3
I0403 17:53:58.862382  6271 net.cpp:386] inception_4b/relu_3x3 -> inception_4b/3x3 (in-place)
I0403 17:53:58.862574  6271 net.cpp:141] Setting up inception_4b/relu_3x3
I0403 17:53:58.862601  6271 net.cpp:148] Top shape: 24 224 14 14 (1053696)
I0403 17:53:58.862617  6271 net.cpp:156] Memory required for data: 964869408
I0403 17:53:58.862632  6271 layer_factory.hpp:77] Creating layer inception_4b/5x5_reduce
I0403 17:53:58.862655  6271 net.cpp:91] Creating Layer inception_4b/5x5_reduce
I0403 17:53:58.862674  6271 net.cpp:425] inception_4b/5x5_reduce <- inception_4a/output_inception_4a/output_0_split_3
I0403 17:53:58.862699  6271 net.cpp:399] inception_4b/5x5_reduce -> inception_4b/5x5_reduce
I0403 17:53:58.863857  6271 net.cpp:141] Setting up inception_4b/5x5_reduce
I0403 17:53:58.863888  6271 net.cpp:148] Top shape: 24 24 14 14 (112896)
I0403 17:53:58.863903  6271 net.cpp:156] Memory required for data: 965320992
I0403 17:53:58.863924  6271 layer_factory.hpp:77] Creating layer inception_4b/relu_5x5_reduce
I0403 17:53:58.863948  6271 net.cpp:91] Creating Layer inception_4b/relu_5x5_reduce
I0403 17:53:58.863986  6271 net.cpp:425] inception_4b/relu_5x5_reduce <- inception_4b/5x5_reduce
I0403 17:53:58.864006  6271 net.cpp:386] inception_4b/relu_5x5_reduce -> inception_4b/5x5_reduce (in-place)
I0403 17:53:58.864202  6271 net.cpp:141] Setting up inception_4b/relu_5x5_reduce
I0403 17:53:58.864251  6271 net.cpp:148] Top shape: 24 24 14 14 (112896)
I0403 17:53:58.864271  6271 net.cpp:156] Memory required for data: 965772576
I0403 17:53:58.864286  6271 layer_factory.hpp:77] Creating layer inception_4b/5x5
I0403 17:53:58.864310  6271 net.cpp:91] Creating Layer inception_4b/5x5
I0403 17:53:58.864329  6271 net.cpp:425] inception_4b/5x5 <- inception_4b/5x5_reduce
I0403 17:53:58.864351  6271 net.cpp:399] inception_4b/5x5 -> inception_4b/5x5
I0403 17:53:58.865672  6271 net.cpp:141] Setting up inception_4b/5x5
I0403 17:53:58.865702  6271 net.cpp:148] Top shape: 24 64 14 14 (301056)
I0403 17:53:58.865717  6271 net.cpp:156] Memory required for data: 966976800
I0403 17:53:58.865737  6271 layer_factory.hpp:77] Creating layer inception_4b/relu_5x5
I0403 17:53:58.865758  6271 net.cpp:91] Creating Layer inception_4b/relu_5x5
I0403 17:53:58.865775  6271 net.cpp:425] inception_4b/relu_5x5 <- inception_4b/5x5
I0403 17:53:58.865794  6271 net.cpp:386] inception_4b/relu_5x5 -> inception_4b/5x5 (in-place)
I0403 17:53:58.866104  6271 net.cpp:141] Setting up inception_4b/relu_5x5
I0403 17:53:58.866132  6271 net.cpp:148] Top shape: 24 64 14 14 (301056)
I0403 17:53:58.866147  6271 net.cpp:156] Memory required for data: 968181024
I0403 17:53:58.866163  6271 layer_factory.hpp:77] Creating layer inception_4b/pool
I0403 17:53:58.866185  6271 net.cpp:91] Creating Layer inception_4b/pool
I0403 17:53:58.866204  6271 net.cpp:425] inception_4b/pool <- inception_4a/output_inception_4a/output_0_split_4
I0403 17:53:58.866224  6271 net.cpp:399] inception_4b/pool -> inception_4b/pool
I0403 17:53:58.866297  6271 net.cpp:141] Setting up inception_4b/pool
I0403 17:53:58.866323  6271 net.cpp:148] Top shape: 24 512 14 14 (2408448)
I0403 17:53:58.866340  6271 net.cpp:156] Memory required for data: 977814816
I0403 17:53:58.866356  6271 layer_factory.hpp:77] Creating layer inception_4b/pool_proj
I0403 17:53:58.866379  6271 net.cpp:91] Creating Layer inception_4b/pool_proj
I0403 17:53:58.866397  6271 net.cpp:425] inception_4b/pool_proj <- inception_4b/pool
I0403 17:53:58.866420  6271 net.cpp:399] inception_4b/pool_proj -> inception_4b/pool_proj
I0403 17:53:58.867703  6271 net.cpp:141] Setting up inception_4b/pool_proj
I0403 17:53:58.867733  6271 net.cpp:148] Top shape: 24 64 14 14 (301056)
I0403 17:53:58.867749  6271 net.cpp:156] Memory required for data: 979019040
I0403 17:53:58.867769  6271 layer_factory.hpp:77] Creating layer inception_4b/relu_pool_proj
I0403 17:53:58.867794  6271 net.cpp:91] Creating Layer inception_4b/relu_pool_proj
I0403 17:53:58.867815  6271 net.cpp:425] inception_4b/relu_pool_proj <- inception_4b/pool_proj
I0403 17:53:58.867836  6271 net.cpp:386] inception_4b/relu_pool_proj -> inception_4b/pool_proj (in-place)
I0403 17:53:58.868031  6271 net.cpp:141] Setting up inception_4b/relu_pool_proj
I0403 17:53:58.868059  6271 net.cpp:148] Top shape: 24 64 14 14 (301056)
I0403 17:53:58.868075  6271 net.cpp:156] Memory required for data: 980223264
I0403 17:53:58.868090  6271 layer_factory.hpp:77] Creating layer inception_4b/output
I0403 17:53:58.868109  6271 net.cpp:91] Creating Layer inception_4b/output
I0403 17:53:58.868126  6271 net.cpp:425] inception_4b/output <- inception_4b/1x1
I0403 17:53:58.868145  6271 net.cpp:425] inception_4b/output <- inception_4b/3x3
I0403 17:53:58.868161  6271 net.cpp:425] inception_4b/output <- inception_4b/5x5
I0403 17:53:58.868178  6271 net.cpp:425] inception_4b/output <- inception_4b/pool_proj
I0403 17:53:58.868196  6271 net.cpp:399] inception_4b/output -> inception_4b/output
I0403 17:53:58.868250  6271 net.cpp:141] Setting up inception_4b/output
I0403 17:53:58.868274  6271 net.cpp:148] Top shape: 24 512 14 14 (2408448)
I0403 17:53:58.868290  6271 net.cpp:156] Memory required for data: 989857056
I0403 17:53:58.868319  6271 layer_factory.hpp:77] Creating layer inception_4b/output_inception_4b/output_0_split
I0403 17:53:58.868340  6271 net.cpp:91] Creating Layer inception_4b/output_inception_4b/output_0_split
I0403 17:53:58.868358  6271 net.cpp:425] inception_4b/output_inception_4b/output_0_split <- inception_4b/output
I0403 17:53:58.868382  6271 net.cpp:399] inception_4b/output_inception_4b/output_0_split -> inception_4b/output_inception_4b/output_0_split_0
I0403 17:53:58.868408  6271 net.cpp:399] inception_4b/output_inception_4b/output_0_split -> inception_4b/output_inception_4b/output_0_split_1
I0403 17:53:58.868430  6271 net.cpp:399] inception_4b/output_inception_4b/output_0_split -> inception_4b/output_inception_4b/output_0_split_2
I0403 17:53:58.868455  6271 net.cpp:399] inception_4b/output_inception_4b/output_0_split -> inception_4b/output_inception_4b/output_0_split_3
I0403 17:53:58.868544  6271 net.cpp:141] Setting up inception_4b/output_inception_4b/output_0_split
I0403 17:53:58.868568  6271 net.cpp:148] Top shape: 24 512 14 14 (2408448)
I0403 17:53:58.868585  6271 net.cpp:148] Top shape: 24 512 14 14 (2408448)
I0403 17:53:58.868602  6271 net.cpp:148] Top shape: 24 512 14 14 (2408448)
I0403 17:53:58.868618  6271 net.cpp:148] Top shape: 24 512 14 14 (2408448)
I0403 17:53:58.868633  6271 net.cpp:156] Memory required for data: 1028392224
I0403 17:53:58.868648  6271 layer_factory.hpp:77] Creating layer inception_4c/1x1
I0403 17:53:58.868671  6271 net.cpp:91] Creating Layer inception_4c/1x1
I0403 17:53:58.868690  6271 net.cpp:425] inception_4c/1x1 <- inception_4b/output_inception_4b/output_0_split_0
I0403 17:53:58.868711  6271 net.cpp:399] inception_4c/1x1 -> inception_4c/1x1
I0403 17:53:58.870296  6271 net.cpp:141] Setting up inception_4c/1x1
I0403 17:53:58.870331  6271 net.cpp:148] Top shape: 24 128 14 14 (602112)
I0403 17:53:58.870348  6271 net.cpp:156] Memory required for data: 1030800672
I0403 17:53:58.870368  6271 layer_factory.hpp:77] Creating layer inception_4c/relu_1x1
I0403 17:53:58.870388  6271 net.cpp:91] Creating Layer inception_4c/relu_1x1
I0403 17:53:58.870407  6271 net.cpp:425] inception_4c/relu_1x1 <- inception_4c/1x1
I0403 17:53:58.870429  6271 net.cpp:386] inception_4c/relu_1x1 -> inception_4c/1x1 (in-place)
I0403 17:53:58.870620  6271 net.cpp:141] Setting up inception_4c/relu_1x1
I0403 17:53:58.870647  6271 net.cpp:148] Top shape: 24 128 14 14 (602112)
I0403 17:53:58.870663  6271 net.cpp:156] Memory required for data: 1033209120
I0403 17:53:58.870678  6271 layer_factory.hpp:77] Creating layer inception_4c/3x3_reduce
I0403 17:53:58.870703  6271 net.cpp:91] Creating Layer inception_4c/3x3_reduce
I0403 17:53:58.870723  6271 net.cpp:425] inception_4c/3x3_reduce <- inception_4b/output_inception_4b/output_0_split_1
I0403 17:53:58.870745  6271 net.cpp:399] inception_4c/3x3_reduce -> inception_4c/3x3_reduce
I0403 17:53:58.872901  6271 net.cpp:141] Setting up inception_4c/3x3_reduce
I0403 17:53:58.872933  6271 net.cpp:148] Top shape: 24 128 14 14 (602112)
I0403 17:53:58.872951  6271 net.cpp:156] Memory required for data: 1035617568
I0403 17:53:58.872969  6271 layer_factory.hpp:77] Creating layer inception_4c/relu_3x3_reduce
I0403 17:53:58.872992  6271 net.cpp:91] Creating Layer inception_4c/relu_3x3_reduce
I0403 17:53:58.873009  6271 net.cpp:425] inception_4c/relu_3x3_reduce <- inception_4c/3x3_reduce
I0403 17:53:58.873030  6271 net.cpp:386] inception_4c/relu_3x3_reduce -> inception_4c/3x3_reduce (in-place)
I0403 17:53:58.873340  6271 net.cpp:141] Setting up inception_4c/relu_3x3_reduce
I0403 17:53:58.873368  6271 net.cpp:148] Top shape: 24 128 14 14 (602112)
I0403 17:53:58.873384  6271 net.cpp:156] Memory required for data: 1038026016
I0403 17:53:58.873400  6271 layer_factory.hpp:77] Creating layer inception_4c/3x3
I0403 17:53:58.873425  6271 net.cpp:91] Creating Layer inception_4c/3x3
I0403 17:53:58.873442  6271 net.cpp:425] inception_4c/3x3 <- inception_4c/3x3_reduce
I0403 17:53:58.873466  6271 net.cpp:399] inception_4c/3x3 -> inception_4c/3x3
I0403 17:53:58.877295  6271 net.cpp:141] Setting up inception_4c/3x3
I0403 17:53:58.877341  6271 net.cpp:148] Top shape: 24 256 14 14 (1204224)
I0403 17:53:58.877358  6271 net.cpp:156] Memory required for data: 1042842912
I0403 17:53:58.877393  6271 layer_factory.hpp:77] Creating layer inception_4c/relu_3x3
I0403 17:53:58.877418  6271 net.cpp:91] Creating Layer inception_4c/relu_3x3
I0403 17:53:58.877436  6271 net.cpp:425] inception_4c/relu_3x3 <- inception_4c/3x3
I0403 17:53:58.877455  6271 net.cpp:386] inception_4c/relu_3x3 -> inception_4c/3x3 (in-place)
I0403 17:53:58.877650  6271 net.cpp:141] Setting up inception_4c/relu_3x3
I0403 17:53:58.877676  6271 net.cpp:148] Top shape: 24 256 14 14 (1204224)
I0403 17:53:58.877692  6271 net.cpp:156] Memory required for data: 1047659808
I0403 17:53:58.877708  6271 layer_factory.hpp:77] Creating layer inception_4c/5x5_reduce
I0403 17:53:58.877732  6271 net.cpp:91] Creating Layer inception_4c/5x5_reduce
I0403 17:53:58.877750  6271 net.cpp:425] inception_4c/5x5_reduce <- inception_4b/output_inception_4b/output_0_split_2
I0403 17:53:58.877774  6271 net.cpp:399] inception_4c/5x5_reduce -> inception_4c/5x5_reduce
I0403 17:53:58.878953  6271 net.cpp:141] Setting up inception_4c/5x5_reduce
I0403 17:53:58.878983  6271 net.cpp:148] Top shape: 24 24 14 14 (112896)
I0403 17:53:58.878999  6271 net.cpp:156] Memory required for data: 1048111392
I0403 17:53:58.879019  6271 layer_factory.hpp:77] Creating layer inception_4c/relu_5x5_reduce
I0403 17:53:58.879040  6271 net.cpp:91] Creating Layer inception_4c/relu_5x5_reduce
I0403 17:53:58.879057  6271 net.cpp:425] inception_4c/relu_5x5_reduce <- inception_4c/5x5_reduce
I0403 17:53:58.879076  6271 net.cpp:386] inception_4c/relu_5x5_reduce -> inception_4c/5x5_reduce (in-place)
I0403 17:53:58.879278  6271 net.cpp:141] Setting up inception_4c/relu_5x5_reduce
I0403 17:53:58.879308  6271 net.cpp:148] Top shape: 24 24 14 14 (112896)
I0403 17:53:58.879324  6271 net.cpp:156] Memory required for data: 1048562976
I0403 17:53:58.879339  6271 layer_factory.hpp:77] Creating layer inception_4c/5x5
I0403 17:53:58.879362  6271 net.cpp:91] Creating Layer inception_4c/5x5
I0403 17:53:58.879381  6271 net.cpp:425] inception_4c/5x5 <- inception_4c/5x5_reduce
I0403 17:53:58.879401  6271 net.cpp:399] inception_4c/5x5 -> inception_4c/5x5
I0403 17:53:58.880743  6271 net.cpp:141] Setting up inception_4c/5x5
I0403 17:53:58.880774  6271 net.cpp:148] Top shape: 24 64 14 14 (301056)
I0403 17:53:58.880792  6271 net.cpp:156] Memory required for data: 1049767200
I0403 17:53:58.880813  6271 layer_factory.hpp:77] Creating layer inception_4c/relu_5x5
I0403 17:53:58.880831  6271 net.cpp:91] Creating Layer inception_4c/relu_5x5
I0403 17:53:58.880849  6271 net.cpp:425] inception_4c/relu_5x5 <- inception_4c/5x5
I0403 17:53:58.880870  6271 net.cpp:386] inception_4c/relu_5x5 -> inception_4c/5x5 (in-place)
I0403 17:53:58.881186  6271 net.cpp:141] Setting up inception_4c/relu_5x5
I0403 17:53:58.881216  6271 net.cpp:148] Top shape: 24 64 14 14 (301056)
I0403 17:53:58.881232  6271 net.cpp:156] Memory required for data: 1050971424
I0403 17:53:58.881253  6271 layer_factory.hpp:77] Creating layer inception_4c/pool
I0403 17:53:58.881273  6271 net.cpp:91] Creating Layer inception_4c/pool
I0403 17:53:58.881289  6271 net.cpp:425] inception_4c/pool <- inception_4b/output_inception_4b/output_0_split_3
I0403 17:53:58.881311  6271 net.cpp:399] inception_4c/pool -> inception_4c/pool
I0403 17:53:58.881381  6271 net.cpp:141] Setting up inception_4c/pool
I0403 17:53:58.881407  6271 net.cpp:148] Top shape: 24 512 14 14 (2408448)
I0403 17:53:58.881422  6271 net.cpp:156] Memory required for data: 1060605216
I0403 17:53:58.881438  6271 layer_factory.hpp:77] Creating layer inception_4c/pool_proj
I0403 17:53:58.881461  6271 net.cpp:91] Creating Layer inception_4c/pool_proj
I0403 17:53:58.881479  6271 net.cpp:425] inception_4c/pool_proj <- inception_4c/pool
I0403 17:53:58.881502  6271 net.cpp:399] inception_4c/pool_proj -> inception_4c/pool_proj
I0403 17:53:58.882807  6271 net.cpp:141] Setting up inception_4c/pool_proj
I0403 17:53:58.882838  6271 net.cpp:148] Top shape: 24 64 14 14 (301056)
I0403 17:53:58.882869  6271 net.cpp:156] Memory required for data: 1061809440
I0403 17:53:58.882889  6271 layer_factory.hpp:77] Creating layer inception_4c/relu_pool_proj
I0403 17:53:58.882911  6271 net.cpp:91] Creating Layer inception_4c/relu_pool_proj
I0403 17:53:58.882930  6271 net.cpp:425] inception_4c/relu_pool_proj <- inception_4c/pool_proj
I0403 17:53:58.882948  6271 net.cpp:386] inception_4c/relu_pool_proj -> inception_4c/pool_proj (in-place)
I0403 17:53:58.883141  6271 net.cpp:141] Setting up inception_4c/relu_pool_proj
I0403 17:53:58.883167  6271 net.cpp:148] Top shape: 24 64 14 14 (301056)
I0403 17:53:58.883183  6271 net.cpp:156] Memory required for data: 1063013664
I0403 17:53:58.883199  6271 layer_factory.hpp:77] Creating layer inception_4c/output
I0403 17:53:58.883226  6271 net.cpp:91] Creating Layer inception_4c/output
I0403 17:53:58.883257  6271 net.cpp:425] inception_4c/output <- inception_4c/1x1
I0403 17:53:58.883277  6271 net.cpp:425] inception_4c/output <- inception_4c/3x3
I0403 17:53:58.883294  6271 net.cpp:425] inception_4c/output <- inception_4c/5x5
I0403 17:53:58.883311  6271 net.cpp:425] inception_4c/output <- inception_4c/pool_proj
I0403 17:53:58.883329  6271 net.cpp:399] inception_4c/output -> inception_4c/output
I0403 17:53:58.883381  6271 net.cpp:141] Setting up inception_4c/output
I0403 17:53:58.883405  6271 net.cpp:148] Top shape: 24 512 14 14 (2408448)
I0403 17:53:58.883421  6271 net.cpp:156] Memory required for data: 1072647456
I0403 17:53:58.883436  6271 layer_factory.hpp:77] Creating layer inception_4c/output_inception_4c/output_0_split
I0403 17:53:58.883455  6271 net.cpp:91] Creating Layer inception_4c/output_inception_4c/output_0_split
I0403 17:53:58.883471  6271 net.cpp:425] inception_4c/output_inception_4c/output_0_split <- inception_4c/output
I0403 17:53:58.883491  6271 net.cpp:399] inception_4c/output_inception_4c/output_0_split -> inception_4c/output_inception_4c/output_0_split_0
I0403 17:53:58.883522  6271 net.cpp:399] inception_4c/output_inception_4c/output_0_split -> inception_4c/output_inception_4c/output_0_split_1
I0403 17:53:58.883543  6271 net.cpp:399] inception_4c/output_inception_4c/output_0_split -> inception_4c/output_inception_4c/output_0_split_2
I0403 17:53:58.883564  6271 net.cpp:399] inception_4c/output_inception_4c/output_0_split -> inception_4c/output_inception_4c/output_0_split_3
I0403 17:53:58.883661  6271 net.cpp:141] Setting up inception_4c/output_inception_4c/output_0_split
I0403 17:53:58.883684  6271 net.cpp:148] Top shape: 24 512 14 14 (2408448)
I0403 17:53:58.883702  6271 net.cpp:148] Top shape: 24 512 14 14 (2408448)
I0403 17:53:58.883718  6271 net.cpp:148] Top shape: 24 512 14 14 (2408448)
I0403 17:53:58.883734  6271 net.cpp:148] Top shape: 24 512 14 14 (2408448)
I0403 17:53:58.883749  6271 net.cpp:156] Memory required for data: 1111182624
I0403 17:53:58.883764  6271 layer_factory.hpp:77] Creating layer inception_4d/1x1
I0403 17:53:58.883787  6271 net.cpp:91] Creating Layer inception_4d/1x1
I0403 17:53:58.883806  6271 net.cpp:425] inception_4d/1x1 <- inception_4c/output_inception_4c/output_0_split_0
I0403 17:53:58.883829  6271 net.cpp:399] inception_4d/1x1 -> inception_4d/1x1
I0403 17:53:58.885315  6271 net.cpp:141] Setting up inception_4d/1x1
I0403 17:53:58.885345  6271 net.cpp:148] Top shape: 24 112 14 14 (526848)
I0403 17:53:58.885362  6271 net.cpp:156] Memory required for data: 1113290016
I0403 17:53:58.885381  6271 layer_factory.hpp:77] Creating layer inception_4d/relu_1x1
I0403 17:53:58.885401  6271 net.cpp:91] Creating Layer inception_4d/relu_1x1
I0403 17:53:58.885417  6271 net.cpp:425] inception_4d/relu_1x1 <- inception_4d/1x1
I0403 17:53:58.885439  6271 net.cpp:386] inception_4d/relu_1x1 -> inception_4d/1x1 (in-place)
I0403 17:53:58.885637  6271 net.cpp:141] Setting up inception_4d/relu_1x1
I0403 17:53:58.885663  6271 net.cpp:148] Top shape: 24 112 14 14 (526848)
I0403 17:53:58.885679  6271 net.cpp:156] Memory required for data: 1115397408
I0403 17:53:58.885694  6271 layer_factory.hpp:77] Creating layer inception_4d/3x3_reduce
I0403 17:53:58.885731  6271 net.cpp:91] Creating Layer inception_4d/3x3_reduce
I0403 17:53:58.885751  6271 net.cpp:425] inception_4d/3x3_reduce <- inception_4c/output_inception_4c/output_0_split_1
I0403 17:53:58.885773  6271 net.cpp:399] inception_4d/3x3_reduce -> inception_4d/3x3_reduce
I0403 17:53:58.887388  6271 net.cpp:141] Setting up inception_4d/3x3_reduce
I0403 17:53:58.887419  6271 net.cpp:148] Top shape: 24 144 14 14 (677376)
I0403 17:53:58.887439  6271 net.cpp:156] Memory required for data: 1118106912
I0403 17:53:58.887459  6271 layer_factory.hpp:77] Creating layer inception_4d/relu_3x3_reduce
I0403 17:53:58.887476  6271 net.cpp:91] Creating Layer inception_4d/relu_3x3_reduce
I0403 17:53:58.887493  6271 net.cpp:425] inception_4d/relu_3x3_reduce <- inception_4d/3x3_reduce
I0403 17:53:58.887511  6271 net.cpp:386] inception_4d/relu_3x3_reduce -> inception_4d/3x3_reduce (in-place)
I0403 17:53:58.887817  6271 net.cpp:141] Setting up inception_4d/relu_3x3_reduce
I0403 17:53:58.887848  6271 net.cpp:148] Top shape: 24 144 14 14 (677376)
I0403 17:53:58.887864  6271 net.cpp:156] Memory required for data: 1120816416
I0403 17:53:58.887879  6271 layer_factory.hpp:77] Creating layer inception_4d/3x3
I0403 17:53:58.887902  6271 net.cpp:91] Creating Layer inception_4d/3x3
I0403 17:53:58.887922  6271 net.cpp:425] inception_4d/3x3 <- inception_4d/3x3_reduce
I0403 17:53:58.887941  6271 net.cpp:399] inception_4d/3x3 -> inception_4d/3x3
I0403 17:53:58.892499  6271 net.cpp:141] Setting up inception_4d/3x3
I0403 17:53:58.892531  6271 net.cpp:148] Top shape: 24 288 14 14 (1354752)
I0403 17:53:58.892547  6271 net.cpp:156] Memory required for data: 1126235424
I0403 17:53:58.892567  6271 layer_factory.hpp:77] Creating layer inception_4d/relu_3x3
I0403 17:53:58.892586  6271 net.cpp:91] Creating Layer inception_4d/relu_3x3
I0403 17:53:58.892604  6271 net.cpp:425] inception_4d/relu_3x3 <- inception_4d/3x3
I0403 17:53:58.892626  6271 net.cpp:386] inception_4d/relu_3x3 -> inception_4d/3x3 (in-place)
I0403 17:53:58.892819  6271 net.cpp:141] Setting up inception_4d/relu_3x3
I0403 17:53:58.892846  6271 net.cpp:148] Top shape: 24 288 14 14 (1354752)
I0403 17:53:58.892861  6271 net.cpp:156] Memory required for data: 1131654432
I0403 17:53:58.892877  6271 layer_factory.hpp:77] Creating layer inception_4d/5x5_reduce
I0403 17:53:58.892900  6271 net.cpp:91] Creating Layer inception_4d/5x5_reduce
I0403 17:53:58.892920  6271 net.cpp:425] inception_4d/5x5_reduce <- inception_4c/output_inception_4c/output_0_split_2
I0403 17:53:58.892941  6271 net.cpp:399] inception_4d/5x5_reduce -> inception_4d/5x5_reduce
I0403 17:53:58.894177  6271 net.cpp:141] Setting up inception_4d/5x5_reduce
I0403 17:53:58.894207  6271 net.cpp:148] Top shape: 24 32 14 14 (150528)
I0403 17:53:58.894223  6271 net.cpp:156] Memory required for data: 1132256544
I0403 17:53:58.894248  6271 layer_factory.hpp:77] Creating layer inception_4d/relu_5x5_reduce
I0403 17:53:58.894268  6271 net.cpp:91] Creating Layer inception_4d/relu_5x5_reduce
I0403 17:53:58.894287  6271 net.cpp:425] inception_4d/relu_5x5_reduce <- inception_4d/5x5_reduce
I0403 17:53:58.894305  6271 net.cpp:386] inception_4d/relu_5x5_reduce -> inception_4d/5x5_reduce (in-place)
I0403 17:53:58.894506  6271 net.cpp:141] Setting up inception_4d/relu_5x5_reduce
I0403 17:53:58.894532  6271 net.cpp:148] Top shape: 24 32 14 14 (150528)
I0403 17:53:58.894548  6271 net.cpp:156] Memory required for data: 1132858656
I0403 17:53:58.894564  6271 layer_factory.hpp:77] Creating layer inception_4d/5x5
I0403 17:53:58.894588  6271 net.cpp:91] Creating Layer inception_4d/5x5
I0403 17:53:58.894608  6271 net.cpp:425] inception_4d/5x5 <- inception_4d/5x5_reduce
I0403 17:53:58.894629  6271 net.cpp:399] inception_4d/5x5 -> inception_4d/5x5
I0403 17:53:58.896229  6271 net.cpp:141] Setting up inception_4d/5x5
I0403 17:53:58.896261  6271 net.cpp:148] Top shape: 24 64 14 14 (301056)
I0403 17:53:58.896278  6271 net.cpp:156] Memory required for data: 1134062880
I0403 17:53:58.896299  6271 layer_factory.hpp:77] Creating layer inception_4d/relu_5x5
I0403 17:53:58.896335  6271 net.cpp:91] Creating Layer inception_4d/relu_5x5
I0403 17:53:58.896355  6271 net.cpp:425] inception_4d/relu_5x5 <- inception_4d/5x5
I0403 17:53:58.896373  6271 net.cpp:386] inception_4d/relu_5x5 -> inception_4d/5x5 (in-place)
I0403 17:53:58.896693  6271 net.cpp:141] Setting up inception_4d/relu_5x5
I0403 17:53:58.896721  6271 net.cpp:148] Top shape: 24 64 14 14 (301056)
I0403 17:53:58.896736  6271 net.cpp:156] Memory required for data: 1135267104
I0403 17:53:58.896752  6271 layer_factory.hpp:77] Creating layer inception_4d/pool
I0403 17:53:58.896773  6271 net.cpp:91] Creating Layer inception_4d/pool
I0403 17:53:58.896791  6271 net.cpp:425] inception_4d/pool <- inception_4c/output_inception_4c/output_0_split_3
I0403 17:53:58.896811  6271 net.cpp:399] inception_4d/pool -> inception_4d/pool
I0403 17:53:58.896883  6271 net.cpp:141] Setting up inception_4d/pool
I0403 17:53:58.896908  6271 net.cpp:148] Top shape: 24 512 14 14 (2408448)
I0403 17:53:58.896924  6271 net.cpp:156] Memory required for data: 1144900896
I0403 17:53:58.896939  6271 layer_factory.hpp:77] Creating layer inception_4d/pool_proj
I0403 17:53:58.896962  6271 net.cpp:91] Creating Layer inception_4d/pool_proj
I0403 17:53:58.896981  6271 net.cpp:425] inception_4d/pool_proj <- inception_4d/pool
I0403 17:53:58.897002  6271 net.cpp:399] inception_4d/pool_proj -> inception_4d/pool_proj
I0403 17:53:58.898907  6271 net.cpp:141] Setting up inception_4d/pool_proj
I0403 17:53:58.898939  6271 net.cpp:148] Top shape: 24 64 14 14 (301056)
I0403 17:53:58.898955  6271 net.cpp:156] Memory required for data: 1146105120
I0403 17:53:58.898975  6271 layer_factory.hpp:77] Creating layer inception_4d/relu_pool_proj
I0403 17:53:58.898993  6271 net.cpp:91] Creating Layer inception_4d/relu_pool_proj
I0403 17:53:58.899011  6271 net.cpp:425] inception_4d/relu_pool_proj <- inception_4d/pool_proj
I0403 17:53:58.899032  6271 net.cpp:386] inception_4d/relu_pool_proj -> inception_4d/pool_proj (in-place)
I0403 17:53:58.899231  6271 net.cpp:141] Setting up inception_4d/relu_pool_proj
I0403 17:53:58.899262  6271 net.cpp:148] Top shape: 24 64 14 14 (301056)
I0403 17:53:58.899278  6271 net.cpp:156] Memory required for data: 1147309344
I0403 17:53:58.899294  6271 layer_factory.hpp:77] Creating layer inception_4d/output
I0403 17:53:58.899314  6271 net.cpp:91] Creating Layer inception_4d/output
I0403 17:53:58.899332  6271 net.cpp:425] inception_4d/output <- inception_4d/1x1
I0403 17:53:58.899349  6271 net.cpp:425] inception_4d/output <- inception_4d/3x3
I0403 17:53:58.899366  6271 net.cpp:425] inception_4d/output <- inception_4d/5x5
I0403 17:53:58.899382  6271 net.cpp:425] inception_4d/output <- inception_4d/pool_proj
I0403 17:53:58.899400  6271 net.cpp:399] inception_4d/output -> inception_4d/output
I0403 17:53:58.899452  6271 net.cpp:141] Setting up inception_4d/output
I0403 17:53:58.899477  6271 net.cpp:148] Top shape: 24 528 14 14 (2483712)
I0403 17:53:58.899493  6271 net.cpp:156] Memory required for data: 1157244192
I0403 17:53:58.899509  6271 layer_factory.hpp:77] Creating layer inception_4d/output_inception_4d/output_0_split
I0403 17:53:58.899528  6271 net.cpp:91] Creating Layer inception_4d/output_inception_4d/output_0_split
I0403 17:53:58.899544  6271 net.cpp:425] inception_4d/output_inception_4d/output_0_split <- inception_4d/output
I0403 17:53:58.899565  6271 net.cpp:399] inception_4d/output_inception_4d/output_0_split -> inception_4d/output_inception_4d/output_0_split_0
I0403 17:53:58.899588  6271 net.cpp:399] inception_4d/output_inception_4d/output_0_split -> inception_4d/output_inception_4d/output_0_split_1
I0403 17:53:58.899610  6271 net.cpp:399] inception_4d/output_inception_4d/output_0_split -> inception_4d/output_inception_4d/output_0_split_2
I0403 17:53:58.899631  6271 net.cpp:399] inception_4d/output_inception_4d/output_0_split -> inception_4d/output_inception_4d/output_0_split_3
I0403 17:53:58.899652  6271 net.cpp:399] inception_4d/output_inception_4d/output_0_split -> inception_4d/output_inception_4d/output_0_split_4
I0403 17:53:58.899761  6271 net.cpp:141] Setting up inception_4d/output_inception_4d/output_0_split
I0403 17:53:58.899799  6271 net.cpp:148] Top shape: 24 528 14 14 (2483712)
I0403 17:53:58.899819  6271 net.cpp:148] Top shape: 24 528 14 14 (2483712)
I0403 17:53:58.899837  6271 net.cpp:148] Top shape: 24 528 14 14 (2483712)
I0403 17:53:58.899853  6271 net.cpp:148] Top shape: 24 528 14 14 (2483712)
I0403 17:53:58.899870  6271 net.cpp:148] Top shape: 24 528 14 14 (2483712)
I0403 17:53:58.899884  6271 net.cpp:156] Memory required for data: 1206918432
I0403 17:53:58.899899  6271 layer_factory.hpp:77] Creating layer loss2/ave_pool
I0403 17:53:58.899919  6271 net.cpp:91] Creating Layer loss2/ave_pool
I0403 17:53:58.899935  6271 net.cpp:425] loss2/ave_pool <- inception_4d/output_inception_4d/output_0_split_0
I0403 17:53:58.899957  6271 net.cpp:399] loss2/ave_pool -> loss2/ave_pool
I0403 17:53:58.900297  6271 net.cpp:141] Setting up loss2/ave_pool
I0403 17:53:58.900326  6271 net.cpp:148] Top shape: 24 528 4 4 (202752)
I0403 17:53:58.900342  6271 net.cpp:156] Memory required for data: 1207729440
I0403 17:53:58.900357  6271 layer_factory.hpp:77] Creating layer loss2/conv
I0403 17:53:58.900380  6271 net.cpp:91] Creating Layer loss2/conv
I0403 17:53:58.900399  6271 net.cpp:425] loss2/conv <- loss2/ave_pool
I0403 17:53:58.900423  6271 net.cpp:399] loss2/conv -> loss2/conv
I0403 17:53:58.902443  6271 net.cpp:141] Setting up loss2/conv
I0403 17:53:58.902474  6271 net.cpp:148] Top shape: 24 128 4 4 (49152)
I0403 17:53:58.902492  6271 net.cpp:156] Memory required for data: 1207926048
I0403 17:53:58.902510  6271 layer_factory.hpp:77] Creating layer loss2/relu_conv
I0403 17:53:58.902532  6271 net.cpp:91] Creating Layer loss2/relu_conv
I0403 17:53:58.902549  6271 net.cpp:425] loss2/relu_conv <- loss2/conv
I0403 17:53:58.902568  6271 net.cpp:386] loss2/relu_conv -> loss2/conv (in-place)
I0403 17:53:58.902870  6271 net.cpp:141] Setting up loss2/relu_conv
I0403 17:53:58.902899  6271 net.cpp:148] Top shape: 24 128 4 4 (49152)
I0403 17:53:58.902917  6271 net.cpp:156] Memory required for data: 1208122656
I0403 17:53:58.902933  6271 layer_factory.hpp:77] Creating layer loss2/fc
I0403 17:53:58.902954  6271 net.cpp:91] Creating Layer loss2/fc
I0403 17:53:58.902971  6271 net.cpp:425] loss2/fc <- loss2/conv
I0403 17:53:58.902993  6271 net.cpp:399] loss2/fc -> loss2/fc
I0403 17:53:58.921738  6271 net.cpp:141] Setting up loss2/fc
I0403 17:53:58.921777  6271 net.cpp:148] Top shape: 24 1024 (24576)
I0403 17:53:58.921792  6271 net.cpp:156] Memory required for data: 1208220960
I0403 17:53:58.921813  6271 layer_factory.hpp:77] Creating layer loss2/relu_fc
I0403 17:53:58.921831  6271 net.cpp:91] Creating Layer loss2/relu_fc
I0403 17:53:58.921852  6271 net.cpp:425] loss2/relu_fc <- loss2/fc
I0403 17:53:58.921871  6271 net.cpp:386] loss2/relu_fc -> loss2/fc (in-place)
I0403 17:53:58.922185  6271 net.cpp:141] Setting up loss2/relu_fc
I0403 17:53:58.922214  6271 net.cpp:148] Top shape: 24 1024 (24576)
I0403 17:53:58.922230  6271 net.cpp:156] Memory required for data: 1208319264
I0403 17:53:58.922250  6271 layer_factory.hpp:77] Creating layer loss2/drop_fc
I0403 17:53:58.922269  6271 net.cpp:91] Creating Layer loss2/drop_fc
I0403 17:53:58.922293  6271 net.cpp:425] loss2/drop_fc <- loss2/fc
I0403 17:53:58.922312  6271 net.cpp:386] loss2/drop_fc -> loss2/fc (in-place)
I0403 17:53:58.922364  6271 net.cpp:141] Setting up loss2/drop_fc
I0403 17:53:58.922390  6271 net.cpp:148] Top shape: 24 1024 (24576)
I0403 17:53:58.922406  6271 net.cpp:156] Memory required for data: 1208417568
I0403 17:53:58.922422  6271 layer_factory.hpp:77] Creating layer loss2/classifier_plantvillage
I0403 17:53:58.922442  6271 net.cpp:91] Creating Layer loss2/classifier_plantvillage
I0403 17:53:58.922461  6271 net.cpp:425] loss2/classifier_plantvillage <- loss2/fc
I0403 17:53:58.922482  6271 net.cpp:399] loss2/classifier_plantvillage -> loss2/classifier_plantvillage
I0403 17:53:58.922912  6271 net.cpp:141] Setting up loss2/classifier_plantvillage
I0403 17:53:58.922940  6271 net.cpp:148] Top shape: 24 38 (912)
I0403 17:53:58.922971  6271 net.cpp:156] Memory required for data: 1208421216
I0403 17:53:58.922991  6271 layer_factory.hpp:77] Creating layer loss2/classifier_plantvillage_loss2/classifier_plantvillage_0_split
I0403 17:53:58.923010  6271 net.cpp:91] Creating Layer loss2/classifier_plantvillage_loss2/classifier_plantvillage_0_split
I0403 17:53:58.923027  6271 net.cpp:425] loss2/classifier_plantvillage_loss2/classifier_plantvillage_0_split <- loss2/classifier_plantvillage
I0403 17:53:58.923045  6271 net.cpp:399] loss2/classifier_plantvillage_loss2/classifier_plantvillage_0_split -> loss2/classifier_plantvillage_loss2/classifier_plantvillage_0_split_0
I0403 17:53:58.923068  6271 net.cpp:399] loss2/classifier_plantvillage_loss2/classifier_plantvillage_0_split -> loss2/classifier_plantvillage_loss2/classifier_plantvillage_0_split_1
I0403 17:53:58.923092  6271 net.cpp:399] loss2/classifier_plantvillage_loss2/classifier_plantvillage_0_split -> loss2/classifier_plantvillage_loss2/classifier_plantvillage_0_split_2
I0403 17:53:58.923174  6271 net.cpp:141] Setting up loss2/classifier_plantvillage_loss2/classifier_plantvillage_0_split
I0403 17:53:58.923199  6271 net.cpp:148] Top shape: 24 38 (912)
I0403 17:53:58.923216  6271 net.cpp:148] Top shape: 24 38 (912)
I0403 17:53:58.923233  6271 net.cpp:148] Top shape: 24 38 (912)
I0403 17:53:58.923259  6271 net.cpp:156] Memory required for data: 1208432160
I0403 17:53:58.923275  6271 layer_factory.hpp:77] Creating layer inception_4e/1x1
I0403 17:53:58.923298  6271 net.cpp:91] Creating Layer inception_4e/1x1
I0403 17:53:58.923316  6271 net.cpp:425] inception_4e/1x1 <- inception_4d/output_inception_4d/output_0_split_1
I0403 17:53:58.923338  6271 net.cpp:399] inception_4e/1x1 -> inception_4e/1x1
I0403 17:53:58.925292  6271 net.cpp:141] Setting up inception_4e/1x1
I0403 17:53:58.925323  6271 net.cpp:148] Top shape: 24 256 14 14 (1204224)
I0403 17:53:58.925338  6271 net.cpp:156] Memory required for data: 1213249056
I0403 17:53:58.925359  6271 layer_factory.hpp:77] Creating layer inception_4e/relu_1x1
I0403 17:53:58.925379  6271 net.cpp:91] Creating Layer inception_4e/relu_1x1
I0403 17:53:58.925397  6271 net.cpp:425] inception_4e/relu_1x1 <- inception_4e/1x1
I0403 17:53:58.925416  6271 net.cpp:386] inception_4e/relu_1x1 -> inception_4e/1x1 (in-place)
I0403 17:53:58.925735  6271 net.cpp:141] Setting up inception_4e/relu_1x1
I0403 17:53:58.925763  6271 net.cpp:148] Top shape: 24 256 14 14 (1204224)
I0403 17:53:58.925779  6271 net.cpp:156] Memory required for data: 1218065952
I0403 17:53:58.925796  6271 layer_factory.hpp:77] Creating layer inception_4e/3x3_reduce
I0403 17:53:58.925820  6271 net.cpp:91] Creating Layer inception_4e/3x3_reduce
I0403 17:53:58.925838  6271 net.cpp:425] inception_4e/3x3_reduce <- inception_4d/output_inception_4d/output_0_split_2
I0403 17:53:58.925858  6271 net.cpp:399] inception_4e/3x3_reduce -> inception_4e/3x3_reduce
I0403 17:53:58.928131  6271 net.cpp:141] Setting up inception_4e/3x3_reduce
I0403 17:53:58.928163  6271 net.cpp:148] Top shape: 24 160 14 14 (752640)
I0403 17:53:58.928179  6271 net.cpp:156] Memory required for data: 1221076512
I0403 17:53:58.928197  6271 layer_factory.hpp:77] Creating layer inception_4e/relu_3x3_reduce
I0403 17:53:58.928218  6271 net.cpp:91] Creating Layer inception_4e/relu_3x3_reduce
I0403 17:53:58.928236  6271 net.cpp:425] inception_4e/relu_3x3_reduce <- inception_4e/3x3_reduce
I0403 17:53:58.928261  6271 net.cpp:386] inception_4e/relu_3x3_reduce -> inception_4e/3x3_reduce (in-place)
I0403 17:53:58.928462  6271 net.cpp:141] Setting up inception_4e/relu_3x3_reduce
I0403 17:53:58.928491  6271 net.cpp:148] Top shape: 24 160 14 14 (752640)
I0403 17:53:58.928508  6271 net.cpp:156] Memory required for data: 1224087072
I0403 17:53:58.928522  6271 layer_factory.hpp:77] Creating layer inception_4e/3x3
I0403 17:53:58.928546  6271 net.cpp:91] Creating Layer inception_4e/3x3
I0403 17:53:58.928565  6271 net.cpp:425] inception_4e/3x3 <- inception_4e/3x3_reduce
I0403 17:53:58.928586  6271 net.cpp:399] inception_4e/3x3 -> inception_4e/3x3
I0403 17:53:58.933922  6271 net.cpp:141] Setting up inception_4e/3x3
I0403 17:53:58.933969  6271 net.cpp:148] Top shape: 24 320 14 14 (1505280)
I0403 17:53:58.933986  6271 net.cpp:156] Memory required for data: 1230108192
I0403 17:53:58.934006  6271 layer_factory.hpp:77] Creating layer inception_4e/relu_3x3
I0403 17:53:58.934026  6271 net.cpp:91] Creating Layer inception_4e/relu_3x3
I0403 17:53:58.934042  6271 net.cpp:425] inception_4e/relu_3x3 <- inception_4e/3x3
I0403 17:53:58.934063  6271 net.cpp:386] inception_4e/relu_3x3 -> inception_4e/3x3 (in-place)
I0403 17:53:58.934387  6271 net.cpp:141] Setting up inception_4e/relu_3x3
I0403 17:53:58.934415  6271 net.cpp:148] Top shape: 24 320 14 14 (1505280)
I0403 17:53:58.934432  6271 net.cpp:156] Memory required for data: 1236129312
I0403 17:53:58.934448  6271 layer_factory.hpp:77] Creating layer inception_4e/5x5_reduce
I0403 17:53:58.934473  6271 net.cpp:91] Creating Layer inception_4e/5x5_reduce
I0403 17:53:58.934492  6271 net.cpp:425] inception_4e/5x5_reduce <- inception_4d/output_inception_4d/output_0_split_3
I0403 17:53:58.934514  6271 net.cpp:399] inception_4e/5x5_reduce -> inception_4e/5x5_reduce
I0403 17:53:58.935667  6271 net.cpp:141] Setting up inception_4e/5x5_reduce
I0403 17:53:58.935698  6271 net.cpp:148] Top shape: 24 32 14 14 (150528)
I0403 17:53:58.935714  6271 net.cpp:156] Memory required for data: 1236731424
I0403 17:53:58.935732  6271 layer_factory.hpp:77] Creating layer inception_4e/relu_5x5_reduce
I0403 17:53:58.935755  6271 net.cpp:91] Creating Layer inception_4e/relu_5x5_reduce
I0403 17:53:58.935772  6271 net.cpp:425] inception_4e/relu_5x5_reduce <- inception_4e/5x5_reduce
I0403 17:53:58.935791  6271 net.cpp:386] inception_4e/relu_5x5_reduce -> inception_4e/5x5_reduce (in-place)
I0403 17:53:58.936106  6271 net.cpp:141] Setting up inception_4e/relu_5x5_reduce
I0403 17:53:58.936133  6271 net.cpp:148] Top shape: 24 32 14 14 (150528)
I0403 17:53:58.936149  6271 net.cpp:156] Memory required for data: 1237333536
I0403 17:53:58.936166  6271 layer_factory.hpp:77] Creating layer inception_4e/5x5
I0403 17:53:58.936205  6271 net.cpp:91] Creating Layer inception_4e/5x5
I0403 17:53:58.936226  6271 net.cpp:425] inception_4e/5x5 <- inception_4e/5x5_reduce
I0403 17:53:58.936251  6271 net.cpp:399] inception_4e/5x5 -> inception_4e/5x5
I0403 17:53:58.938225  6271 net.cpp:141] Setting up inception_4e/5x5
I0403 17:53:58.938259  6271 net.cpp:148] Top shape: 24 128 14 14 (602112)
I0403 17:53:58.938277  6271 net.cpp:156] Memory required for data: 1239741984
I0403 17:53:58.938297  6271 layer_factory.hpp:77] Creating layer inception_4e/relu_5x5
I0403 17:53:58.938318  6271 net.cpp:91] Creating Layer inception_4e/relu_5x5
I0403 17:53:58.938336  6271 net.cpp:425] inception_4e/relu_5x5 <- inception_4e/5x5
I0403 17:53:58.938355  6271 net.cpp:386] inception_4e/relu_5x5 -> inception_4e/5x5 (in-place)
I0403 17:53:58.938565  6271 net.cpp:141] Setting up inception_4e/relu_5x5
I0403 17:53:58.938593  6271 net.cpp:148] Top shape: 24 128 14 14 (602112)
I0403 17:53:58.938611  6271 net.cpp:156] Memory required for data: 1242150432
I0403 17:53:58.938626  6271 layer_factory.hpp:77] Creating layer inception_4e/pool
I0403 17:53:58.938644  6271 net.cpp:91] Creating Layer inception_4e/pool
I0403 17:53:58.938662  6271 net.cpp:425] inception_4e/pool <- inception_4d/output_inception_4d/output_0_split_4
I0403 17:53:58.938680  6271 net.cpp:399] inception_4e/pool -> inception_4e/pool
I0403 17:53:58.938756  6271 net.cpp:141] Setting up inception_4e/pool
I0403 17:53:58.938781  6271 net.cpp:148] Top shape: 24 528 14 14 (2483712)
I0403 17:53:58.938797  6271 net.cpp:156] Memory required for data: 1252085280
I0403 17:53:58.938813  6271 layer_factory.hpp:77] Creating layer inception_4e/pool_proj
I0403 17:53:58.938837  6271 net.cpp:91] Creating Layer inception_4e/pool_proj
I0403 17:53:58.938855  6271 net.cpp:425] inception_4e/pool_proj <- inception_4e/pool
I0403 17:53:58.938877  6271 net.cpp:399] inception_4e/pool_proj -> inception_4e/pool_proj
I0403 17:53:58.940526  6271 net.cpp:141] Setting up inception_4e/pool_proj
I0403 17:53:58.940568  6271 net.cpp:148] Top shape: 24 128 14 14 (602112)
I0403 17:53:58.940585  6271 net.cpp:156] Memory required for data: 1254493728
I0403 17:53:58.940604  6271 layer_factory.hpp:77] Creating layer inception_4e/relu_pool_proj
I0403 17:53:58.940623  6271 net.cpp:91] Creating Layer inception_4e/relu_pool_proj
I0403 17:53:58.940639  6271 net.cpp:425] inception_4e/relu_pool_proj <- inception_4e/pool_proj
I0403 17:53:58.940660  6271 net.cpp:386] inception_4e/relu_pool_proj -> inception_4e/pool_proj (in-place)
I0403 17:53:58.940975  6271 net.cpp:141] Setting up inception_4e/relu_pool_proj
I0403 17:53:58.941004  6271 net.cpp:148] Top shape: 24 128 14 14 (602112)
I0403 17:53:58.941020  6271 net.cpp:156] Memory required for data: 1256902176
I0403 17:53:58.941035  6271 layer_factory.hpp:77] Creating layer inception_4e/output
I0403 17:53:58.941053  6271 net.cpp:91] Creating Layer inception_4e/output
I0403 17:53:58.941069  6271 net.cpp:425] inception_4e/output <- inception_4e/1x1
I0403 17:53:58.941087  6271 net.cpp:425] inception_4e/output <- inception_4e/3x3
I0403 17:53:58.941104  6271 net.cpp:425] inception_4e/output <- inception_4e/5x5
I0403 17:53:58.941121  6271 net.cpp:425] inception_4e/output <- inception_4e/pool_proj
I0403 17:53:58.941141  6271 net.cpp:399] inception_4e/output -> inception_4e/output
I0403 17:53:58.941193  6271 net.cpp:141] Setting up inception_4e/output
I0403 17:53:58.941220  6271 net.cpp:148] Top shape: 24 832 14 14 (3913728)
I0403 17:53:58.941236  6271 net.cpp:156] Memory required for data: 1272557088
I0403 17:53:58.941257  6271 layer_factory.hpp:77] Creating layer pool4/3x3_s2
I0403 17:53:58.941277  6271 net.cpp:91] Creating Layer pool4/3x3_s2
I0403 17:53:58.941293  6271 net.cpp:425] pool4/3x3_s2 <- inception_4e/output
I0403 17:53:58.941314  6271 net.cpp:399] pool4/3x3_s2 -> pool4/3x3_s2
I0403 17:53:58.941390  6271 net.cpp:141] Setting up pool4/3x3_s2
I0403 17:53:58.941414  6271 net.cpp:148] Top shape: 24 832 7 7 (978432)
I0403 17:53:58.941431  6271 net.cpp:156] Memory required for data: 1276470816
I0403 17:53:58.941447  6271 layer_factory.hpp:77] Creating layer pool4/3x3_s2_pool4/3x3_s2_0_split
I0403 17:53:58.941467  6271 net.cpp:91] Creating Layer pool4/3x3_s2_pool4/3x3_s2_0_split
I0403 17:53:58.941484  6271 net.cpp:425] pool4/3x3_s2_pool4/3x3_s2_0_split <- pool4/3x3_s2
I0403 17:53:58.941503  6271 net.cpp:399] pool4/3x3_s2_pool4/3x3_s2_0_split -> pool4/3x3_s2_pool4/3x3_s2_0_split_0
I0403 17:53:58.941524  6271 net.cpp:399] pool4/3x3_s2_pool4/3x3_s2_0_split -> pool4/3x3_s2_pool4/3x3_s2_0_split_1
I0403 17:53:58.941547  6271 net.cpp:399] pool4/3x3_s2_pool4/3x3_s2_0_split -> pool4/3x3_s2_pool4/3x3_s2_0_split_2
I0403 17:53:58.941570  6271 net.cpp:399] pool4/3x3_s2_pool4/3x3_s2_0_split -> pool4/3x3_s2_pool4/3x3_s2_0_split_3
I0403 17:53:58.941668  6271 net.cpp:141] Setting up pool4/3x3_s2_pool4/3x3_s2_0_split
I0403 17:53:58.941692  6271 net.cpp:148] Top shape: 24 832 7 7 (978432)
I0403 17:53:58.941709  6271 net.cpp:148] Top shape: 24 832 7 7 (978432)
I0403 17:53:58.941725  6271 net.cpp:148] Top shape: 24 832 7 7 (978432)
I0403 17:53:58.941741  6271 net.cpp:148] Top shape: 24 832 7 7 (978432)
I0403 17:53:58.941756  6271 net.cpp:156] Memory required for data: 1292125728
I0403 17:53:58.941771  6271 layer_factory.hpp:77] Creating layer inception_5a/1x1
I0403 17:53:58.941794  6271 net.cpp:91] Creating Layer inception_5a/1x1
I0403 17:53:58.941812  6271 net.cpp:425] inception_5a/1x1 <- pool4/3x3_s2_pool4/3x3_s2_0_split_0
I0403 17:53:58.941835  6271 net.cpp:399] inception_5a/1x1 -> inception_5a/1x1
I0403 17:53:58.944890  6271 net.cpp:141] Setting up inception_5a/1x1
I0403 17:53:58.944922  6271 net.cpp:148] Top shape: 24 256 7 7 (301056)
I0403 17:53:58.944939  6271 net.cpp:156] Memory required for data: 1293329952
I0403 17:53:58.944959  6271 layer_factory.hpp:77] Creating layer inception_5a/relu_1x1
I0403 17:53:58.944982  6271 net.cpp:91] Creating Layer inception_5a/relu_1x1
I0403 17:53:58.944998  6271 net.cpp:425] inception_5a/relu_1x1 <- inception_5a/1x1
I0403 17:53:58.945019  6271 net.cpp:386] inception_5a/relu_1x1 -> inception_5a/1x1 (in-place)
I0403 17:53:58.945358  6271 net.cpp:141] Setting up inception_5a/relu_1x1
I0403 17:53:58.945386  6271 net.cpp:148] Top shape: 24 256 7 7 (301056)
I0403 17:53:58.945402  6271 net.cpp:156] Memory required for data: 1294534176
I0403 17:53:58.945425  6271 layer_factory.hpp:77] Creating layer inception_5a/3x3_reduce
I0403 17:53:58.945449  6271 net.cpp:91] Creating Layer inception_5a/3x3_reduce
I0403 17:53:58.945478  6271 net.cpp:425] inception_5a/3x3_reduce <- pool4/3x3_s2_pool4/3x3_s2_0_split_1
I0403 17:53:58.945502  6271 net.cpp:399] inception_5a/3x3_reduce -> inception_5a/3x3_reduce
I0403 17:53:58.948118  6271 net.cpp:141] Setting up inception_5a/3x3_reduce
I0403 17:53:58.948149  6271 net.cpp:148] Top shape: 24 160 7 7 (188160)
I0403 17:53:58.948166  6271 net.cpp:156] Memory required for data: 1295286816
I0403 17:53:58.948185  6271 layer_factory.hpp:77] Creating layer inception_5a/relu_3x3_reduce
I0403 17:53:58.948204  6271 net.cpp:91] Creating Layer inception_5a/relu_3x3_reduce
I0403 17:53:58.948222  6271 net.cpp:425] inception_5a/relu_3x3_reduce <- inception_5a/3x3_reduce
I0403 17:53:58.948246  6271 net.cpp:386] inception_5a/relu_3x3_reduce -> inception_5a/3x3_reduce (in-place)
I0403 17:53:58.948451  6271 net.cpp:141] Setting up inception_5a/relu_3x3_reduce
I0403 17:53:58.948478  6271 net.cpp:148] Top shape: 24 160 7 7 (188160)
I0403 17:53:58.948493  6271 net.cpp:156] Memory required for data: 1296039456
I0403 17:53:58.948509  6271 layer_factory.hpp:77] Creating layer inception_5a/3x3
I0403 17:53:58.948534  6271 net.cpp:91] Creating Layer inception_5a/3x3
I0403 17:53:58.948552  6271 net.cpp:425] inception_5a/3x3 <- inception_5a/3x3_reduce
I0403 17:53:58.948576  6271 net.cpp:399] inception_5a/3x3 -> inception_5a/3x3
I0403 17:53:58.953949  6271 net.cpp:141] Setting up inception_5a/3x3
I0403 17:53:58.953982  6271 net.cpp:148] Top shape: 24 320 7 7 (376320)
I0403 17:53:58.953999  6271 net.cpp:156] Memory required for data: 1297544736
I0403 17:53:58.954018  6271 layer_factory.hpp:77] Creating layer inception_5a/relu_3x3
I0403 17:53:58.954041  6271 net.cpp:91] Creating Layer inception_5a/relu_3x3
I0403 17:53:58.954058  6271 net.cpp:425] inception_5a/relu_3x3 <- inception_5a/3x3
I0403 17:53:58.954077  6271 net.cpp:386] inception_5a/relu_3x3 -> inception_5a/3x3 (in-place)
I0403 17:53:58.954399  6271 net.cpp:141] Setting up inception_5a/relu_3x3
I0403 17:53:58.954427  6271 net.cpp:148] Top shape: 24 320 7 7 (376320)
I0403 17:53:58.954443  6271 net.cpp:156] Memory required for data: 1299050016
I0403 17:53:58.954459  6271 layer_factory.hpp:77] Creating layer inception_5a/5x5_reduce
I0403 17:53:58.954483  6271 net.cpp:91] Creating Layer inception_5a/5x5_reduce
I0403 17:53:58.954501  6271 net.cpp:425] inception_5a/5x5_reduce <- pool4/3x3_s2_pool4/3x3_s2_0_split_2
I0403 17:53:58.954529  6271 net.cpp:399] inception_5a/5x5_reduce -> inception_5a/5x5_reduce
I0403 17:53:58.955792  6271 net.cpp:141] Setting up inception_5a/5x5_reduce
I0403 17:53:58.955826  6271 net.cpp:148] Top shape: 24 32 7 7 (37632)
I0403 17:53:58.955843  6271 net.cpp:156] Memory required for data: 1299200544
I0403 17:53:58.955863  6271 layer_factory.hpp:77] Creating layer inception_5a/relu_5x5_reduce
I0403 17:53:58.955881  6271 net.cpp:91] Creating Layer inception_5a/relu_5x5_reduce
I0403 17:53:58.955899  6271 net.cpp:425] inception_5a/relu_5x5_reduce <- inception_5a/5x5_reduce
I0403 17:53:58.955917  6271 net.cpp:386] inception_5a/relu_5x5_reduce -> inception_5a/5x5_reduce (in-place)
I0403 17:53:58.956246  6271 net.cpp:141] Setting up inception_5a/relu_5x5_reduce
I0403 17:53:58.956274  6271 net.cpp:148] Top shape: 24 32 7 7 (37632)
I0403 17:53:58.956295  6271 net.cpp:156] Memory required for data: 1299351072
I0403 17:53:58.956310  6271 layer_factory.hpp:77] Creating layer inception_5a/5x5
I0403 17:53:58.956331  6271 net.cpp:91] Creating Layer inception_5a/5x5
I0403 17:53:58.956348  6271 net.cpp:425] inception_5a/5x5 <- inception_5a/5x5_reduce
I0403 17:53:58.956374  6271 net.cpp:399] inception_5a/5x5 -> inception_5a/5x5
I0403 17:53:58.958221  6271 net.cpp:141] Setting up inception_5a/5x5
I0403 17:53:58.958271  6271 net.cpp:148] Top shape: 24 128 7 7 (150528)
I0403 17:53:58.958287  6271 net.cpp:156] Memory required for data: 1299953184
I0403 17:53:58.958307  6271 layer_factory.hpp:77] Creating layer inception_5a/relu_5x5
I0403 17:53:58.958328  6271 net.cpp:91] Creating Layer inception_5a/relu_5x5
I0403 17:53:58.958345  6271 net.cpp:425] inception_5a/relu_5x5 <- inception_5a/5x5
I0403 17:53:58.958364  6271 net.cpp:386] inception_5a/relu_5x5 -> inception_5a/5x5 (in-place)
I0403 17:53:58.958569  6271 net.cpp:141] Setting up inception_5a/relu_5x5
I0403 17:53:58.958598  6271 net.cpp:148] Top shape: 24 128 7 7 (150528)
I0403 17:53:58.958613  6271 net.cpp:156] Memory required for data: 1300555296
I0403 17:53:58.958629  6271 layer_factory.hpp:77] Creating layer inception_5a/pool
I0403 17:53:58.958647  6271 net.cpp:91] Creating Layer inception_5a/pool
I0403 17:53:58.958664  6271 net.cpp:425] inception_5a/pool <- pool4/3x3_s2_pool4/3x3_s2_0_split_3
I0403 17:53:58.958683  6271 net.cpp:399] inception_5a/pool -> inception_5a/pool
I0403 17:53:58.958760  6271 net.cpp:141] Setting up inception_5a/pool
I0403 17:53:58.958786  6271 net.cpp:148] Top shape: 24 832 7 7 (978432)
I0403 17:53:58.958801  6271 net.cpp:156] Memory required for data: 1304469024
I0403 17:53:58.958817  6271 layer_factory.hpp:77] Creating layer inception_5a/pool_proj
I0403 17:53:58.958838  6271 net.cpp:91] Creating Layer inception_5a/pool_proj
I0403 17:53:58.958858  6271 net.cpp:425] inception_5a/pool_proj <- inception_5a/pool
I0403 17:53:58.958880  6271 net.cpp:399] inception_5a/pool_proj -> inception_5a/pool_proj
I0403 17:53:58.961341  6271 net.cpp:141] Setting up inception_5a/pool_proj
I0403 17:53:58.961374  6271 net.cpp:148] Top shape: 24 128 7 7 (150528)
I0403 17:53:58.961390  6271 net.cpp:156] Memory required for data: 1305071136
I0403 17:53:58.961408  6271 layer_factory.hpp:77] Creating layer inception_5a/relu_pool_proj
I0403 17:53:58.961431  6271 net.cpp:91] Creating Layer inception_5a/relu_pool_proj
I0403 17:53:58.961449  6271 net.cpp:425] inception_5a/relu_pool_proj <- inception_5a/pool_proj
I0403 17:53:58.961467  6271 net.cpp:386] inception_5a/relu_pool_proj -> inception_5a/pool_proj (in-place)
I0403 17:53:58.961784  6271 net.cpp:141] Setting up inception_5a/relu_pool_proj
I0403 17:53:58.961812  6271 net.cpp:148] Top shape: 24 128 7 7 (150528)
I0403 17:53:58.961827  6271 net.cpp:156] Memory required for data: 1305673248
I0403 17:53:58.961843  6271 layer_factory.hpp:77] Creating layer inception_5a/output
I0403 17:53:58.961863  6271 net.cpp:91] Creating Layer inception_5a/output
I0403 17:53:58.961879  6271 net.cpp:425] inception_5a/output <- inception_5a/1x1
I0403 17:53:58.961897  6271 net.cpp:425] inception_5a/output <- inception_5a/3x3
I0403 17:53:58.961915  6271 net.cpp:425] inception_5a/output <- inception_5a/5x5
I0403 17:53:58.961930  6271 net.cpp:425] inception_5a/output <- inception_5a/pool_proj
I0403 17:53:58.961951  6271 net.cpp:399] inception_5a/output -> inception_5a/output
I0403 17:53:58.962003  6271 net.cpp:141] Setting up inception_5a/output
I0403 17:53:58.962031  6271 net.cpp:148] Top shape: 24 832 7 7 (978432)
I0403 17:53:58.962047  6271 net.cpp:156] Memory required for data: 1309586976
I0403 17:53:58.962064  6271 layer_factory.hpp:77] Creating layer inception_5a/output_inception_5a/output_0_split
I0403 17:53:58.962081  6271 net.cpp:91] Creating Layer inception_5a/output_inception_5a/output_0_split
I0403 17:53:58.962097  6271 net.cpp:425] inception_5a/output_inception_5a/output_0_split <- inception_5a/output
I0403 17:53:58.962119  6271 net.cpp:399] inception_5a/output_inception_5a/output_0_split -> inception_5a/output_inception_5a/output_0_split_0
I0403 17:53:58.962141  6271 net.cpp:399] inception_5a/output_inception_5a/output_0_split -> inception_5a/output_inception_5a/output_0_split_1
I0403 17:53:58.962162  6271 net.cpp:399] inception_5a/output_inception_5a/output_0_split -> inception_5a/output_inception_5a/output_0_split_2
I0403 17:53:58.962184  6271 net.cpp:399] inception_5a/output_inception_5a/output_0_split -> inception_5a/output_inception_5a/output_0_split_3
I0403 17:53:58.962307  6271 net.cpp:141] Setting up inception_5a/output_inception_5a/output_0_split
I0403 17:53:58.962332  6271 net.cpp:148] Top shape: 24 832 7 7 (978432)
I0403 17:53:58.962349  6271 net.cpp:148] Top shape: 24 832 7 7 (978432)
I0403 17:53:58.962366  6271 net.cpp:148] Top shape: 24 832 7 7 (978432)
I0403 17:53:58.962383  6271 net.cpp:148] Top shape: 24 832 7 7 (978432)
I0403 17:53:58.962398  6271 net.cpp:156] Memory required for data: 1325241888
I0403 17:53:58.962414  6271 layer_factory.hpp:77] Creating layer inception_5b/1x1
I0403 17:53:58.962436  6271 net.cpp:91] Creating Layer inception_5b/1x1
I0403 17:53:58.962455  6271 net.cpp:425] inception_5b/1x1 <- inception_5a/output_inception_5a/output_0_split_0
I0403 17:53:58.962476  6271 net.cpp:399] inception_5b/1x1 -> inception_5b/1x1
I0403 17:53:58.969069  6271 net.cpp:141] Setting up inception_5b/1x1
I0403 17:53:58.969101  6271 net.cpp:148] Top shape: 24 384 7 7 (451584)
I0403 17:53:58.969117  6271 net.cpp:156] Memory required for data: 1327048224
I0403 17:53:58.969137  6271 layer_factory.hpp:77] Creating layer inception_5b/relu_1x1
I0403 17:53:58.969156  6271 net.cpp:91] Creating Layer inception_5b/relu_1x1
I0403 17:53:58.969173  6271 net.cpp:425] inception_5b/relu_1x1 <- inception_5b/1x1
I0403 17:53:58.969194  6271 net.cpp:386] inception_5b/relu_1x1 -> inception_5b/1x1 (in-place)
I0403 17:53:58.969528  6271 net.cpp:141] Setting up inception_5b/relu_1x1
I0403 17:53:58.969557  6271 net.cpp:148] Top shape: 24 384 7 7 (451584)
I0403 17:53:58.969573  6271 net.cpp:156] Memory required for data: 1328854560
I0403 17:53:58.969588  6271 layer_factory.hpp:77] Creating layer inception_5b/3x3_reduce
I0403 17:53:58.969611  6271 net.cpp:91] Creating Layer inception_5b/3x3_reduce
I0403 17:53:58.969630  6271 net.cpp:425] inception_5b/3x3_reduce <- inception_5a/output_inception_5a/output_0_split_1
I0403 17:53:58.969653  6271 net.cpp:399] inception_5b/3x3_reduce -> inception_5b/3x3_reduce
I0403 17:53:58.972579  6271 net.cpp:141] Setting up inception_5b/3x3_reduce
I0403 17:53:58.972610  6271 net.cpp:148] Top shape: 24 192 7 7 (225792)
I0403 17:53:58.972627  6271 net.cpp:156] Memory required for data: 1329757728
I0403 17:53:58.972646  6271 layer_factory.hpp:77] Creating layer inception_5b/relu_3x3_reduce
I0403 17:53:58.972666  6271 net.cpp:91] Creating Layer inception_5b/relu_3x3_reduce
I0403 17:53:58.972686  6271 net.cpp:425] inception_5b/relu_3x3_reduce <- inception_5b/3x3_reduce
I0403 17:53:58.972705  6271 net.cpp:386] inception_5b/relu_3x3_reduce -> inception_5b/3x3_reduce (in-place)
I0403 17:53:58.972908  6271 net.cpp:141] Setting up inception_5b/relu_3x3_reduce
I0403 17:53:58.972935  6271 net.cpp:148] Top shape: 24 192 7 7 (225792)
I0403 17:53:58.972950  6271 net.cpp:156] Memory required for data: 1330660896
I0403 17:53:58.972965  6271 layer_factory.hpp:77] Creating layer inception_5b/3x3
I0403 17:53:58.972990  6271 net.cpp:91] Creating Layer inception_5b/3x3
I0403 17:53:58.973008  6271 net.cpp:425] inception_5b/3x3 <- inception_5b/3x3_reduce
I0403 17:53:58.973032  6271 net.cpp:399] inception_5b/3x3 -> inception_5b/3x3
I0403 17:53:58.980208  6271 net.cpp:141] Setting up inception_5b/3x3
I0403 17:53:58.980243  6271 net.cpp:148] Top shape: 24 384 7 7 (451584)
I0403 17:53:58.980262  6271 net.cpp:156] Memory required for data: 1332467232
I0403 17:53:58.980281  6271 layer_factory.hpp:77] Creating layer inception_5b/relu_3x3
I0403 17:53:58.980304  6271 net.cpp:91] Creating Layer inception_5b/relu_3x3
I0403 17:53:58.980322  6271 net.cpp:425] inception_5b/relu_3x3 <- inception_5b/3x3
I0403 17:53:58.980341  6271 net.cpp:386] inception_5b/relu_3x3 -> inception_5b/3x3 (in-place)
I0403 17:53:58.980659  6271 net.cpp:141] Setting up inception_5b/relu_3x3
I0403 17:53:58.980687  6271 net.cpp:148] Top shape: 24 384 7 7 (451584)
I0403 17:53:58.980703  6271 net.cpp:156] Memory required for data: 1334273568
I0403 17:53:58.980718  6271 layer_factory.hpp:77] Creating layer inception_5b/5x5_reduce
I0403 17:53:58.980762  6271 net.cpp:91] Creating Layer inception_5b/5x5_reduce
I0403 17:53:58.980782  6271 net.cpp:425] inception_5b/5x5_reduce <- inception_5a/output_inception_5a/output_0_split_2
I0403 17:53:58.980804  6271 net.cpp:399] inception_5b/5x5_reduce -> inception_5b/5x5_reduce
I0403 17:53:58.982174  6271 net.cpp:141] Setting up inception_5b/5x5_reduce
I0403 17:53:58.982204  6271 net.cpp:148] Top shape: 24 48 7 7 (56448)
I0403 17:53:58.982229  6271 net.cpp:156] Memory required for data: 1334499360
I0403 17:53:58.982264  6271 layer_factory.hpp:77] Creating layer inception_5b/relu_5x5_reduce
I0403 17:53:58.982285  6271 net.cpp:91] Creating Layer inception_5b/relu_5x5_reduce
I0403 17:53:58.982303  6271 net.cpp:425] inception_5b/relu_5x5_reduce <- inception_5b/5x5_reduce
I0403 17:53:58.982326  6271 net.cpp:386] inception_5b/relu_5x5_reduce -> inception_5b/5x5_reduce (in-place)
I0403 17:53:58.982723  6271 net.cpp:141] Setting up inception_5b/relu_5x5_reduce
I0403 17:53:58.982751  6271 net.cpp:148] Top shape: 24 48 7 7 (56448)
I0403 17:53:58.982767  6271 net.cpp:156] Memory required for data: 1334725152
I0403 17:53:58.982784  6271 layer_factory.hpp:77] Creating layer inception_5b/5x5
I0403 17:53:58.982805  6271 net.cpp:91] Creating Layer inception_5b/5x5
I0403 17:53:58.982822  6271 net.cpp:425] inception_5b/5x5 <- inception_5b/5x5_reduce
I0403 17:53:58.982842  6271 net.cpp:399] inception_5b/5x5 -> inception_5b/5x5
I0403 17:53:58.985069  6271 net.cpp:141] Setting up inception_5b/5x5
I0403 17:53:58.985100  6271 net.cpp:148] Top shape: 24 128 7 7 (150528)
I0403 17:53:58.985116  6271 net.cpp:156] Memory required for data: 1335327264
I0403 17:53:58.985136  6271 layer_factory.hpp:77] Creating layer inception_5b/relu_5x5
I0403 17:53:58.985157  6271 net.cpp:91] Creating Layer inception_5b/relu_5x5
I0403 17:53:58.985174  6271 net.cpp:425] inception_5b/relu_5x5 <- inception_5b/5x5
I0403 17:53:58.985193  6271 net.cpp:386] inception_5b/relu_5x5 -> inception_5b/5x5 (in-place)
I0403 17:53:58.985406  6271 net.cpp:141] Setting up inception_5b/relu_5x5
I0403 17:53:58.985436  6271 net.cpp:148] Top shape: 24 128 7 7 (150528)
I0403 17:53:58.985453  6271 net.cpp:156] Memory required for data: 1335929376
I0403 17:53:58.985471  6271 layer_factory.hpp:77] Creating layer inception_5b/pool
I0403 17:53:58.985489  6271 net.cpp:91] Creating Layer inception_5b/pool
I0403 17:53:58.985507  6271 net.cpp:425] inception_5b/pool <- inception_5a/output_inception_5a/output_0_split_3
I0403 17:53:58.985528  6271 net.cpp:399] inception_5b/pool -> inception_5b/pool
I0403 17:53:58.985606  6271 net.cpp:141] Setting up inception_5b/pool
I0403 17:53:58.985632  6271 net.cpp:148] Top shape: 24 832 7 7 (978432)
I0403 17:53:58.985647  6271 net.cpp:156] Memory required for data: 1339843104
I0403 17:53:58.985662  6271 layer_factory.hpp:77] Creating layer inception_5b/pool_proj
I0403 17:53:58.985684  6271 net.cpp:91] Creating Layer inception_5b/pool_proj
I0403 17:53:58.985703  6271 net.cpp:425] inception_5b/pool_proj <- inception_5b/pool
I0403 17:53:58.985725  6271 net.cpp:399] inception_5b/pool_proj -> inception_5b/pool_proj
I0403 17:53:58.988196  6271 net.cpp:141] Setting up inception_5b/pool_proj
I0403 17:53:58.988226  6271 net.cpp:148] Top shape: 24 128 7 7 (150528)
I0403 17:53:58.988247  6271 net.cpp:156] Memory required for data: 1340445216
I0403 17:53:58.988268  6271 layer_factory.hpp:77] Creating layer inception_5b/relu_pool_proj
I0403 17:53:58.988291  6271 net.cpp:91] Creating Layer inception_5b/relu_pool_proj
I0403 17:53:58.988308  6271 net.cpp:425] inception_5b/relu_pool_proj <- inception_5b/pool_proj
I0403 17:53:58.988327  6271 net.cpp:386] inception_5b/relu_pool_proj -> inception_5b/pool_proj (in-place)
I0403 17:53:58.988648  6271 net.cpp:141] Setting up inception_5b/relu_pool_proj
I0403 17:53:58.988675  6271 net.cpp:148] Top shape: 24 128 7 7 (150528)
I0403 17:53:58.988692  6271 net.cpp:156] Memory required for data: 1341047328
I0403 17:53:58.988708  6271 layer_factory.hpp:77] Creating layer inception_5b/output
I0403 17:53:58.988726  6271 net.cpp:91] Creating Layer inception_5b/output
I0403 17:53:58.988759  6271 net.cpp:425] inception_5b/output <- inception_5b/1x1
I0403 17:53:58.988776  6271 net.cpp:425] inception_5b/output <- inception_5b/3x3
I0403 17:53:58.988793  6271 net.cpp:425] inception_5b/output <- inception_5b/5x5
I0403 17:53:58.988811  6271 net.cpp:425] inception_5b/output <- inception_5b/pool_proj
I0403 17:53:58.988831  6271 net.cpp:399] inception_5b/output -> inception_5b/output
I0403 17:53:58.988886  6271 net.cpp:141] Setting up inception_5b/output
I0403 17:53:58.988914  6271 net.cpp:148] Top shape: 24 1024 7 7 (1204224)
I0403 17:53:58.988930  6271 net.cpp:156] Memory required for data: 1345864224
I0403 17:53:58.988945  6271 layer_factory.hpp:77] Creating layer pool5/7x7_s1
I0403 17:53:58.988963  6271 net.cpp:91] Creating Layer pool5/7x7_s1
I0403 17:53:58.988981  6271 net.cpp:425] pool5/7x7_s1 <- inception_5b/output
I0403 17:53:58.989002  6271 net.cpp:399] pool5/7x7_s1 -> pool5/7x7_s1
I0403 17:53:58.989233  6271 net.cpp:141] Setting up pool5/7x7_s1
I0403 17:53:58.989265  6271 net.cpp:148] Top shape: 24 1024 1 1 (24576)
I0403 17:53:58.989281  6271 net.cpp:156] Memory required for data: 1345962528
I0403 17:53:58.989296  6271 layer_factory.hpp:77] Creating layer pool5/drop_7x7_s1
I0403 17:53:58.989315  6271 net.cpp:91] Creating Layer pool5/drop_7x7_s1
I0403 17:53:58.989332  6271 net.cpp:425] pool5/drop_7x7_s1 <- pool5/7x7_s1
I0403 17:53:58.989353  6271 net.cpp:386] pool5/drop_7x7_s1 -> pool5/7x7_s1 (in-place)
I0403 17:53:58.989409  6271 net.cpp:141] Setting up pool5/drop_7x7_s1
I0403 17:53:58.989434  6271 net.cpp:148] Top shape: 24 1024 1 1 (24576)
I0403 17:53:58.989449  6271 net.cpp:156] Memory required for data: 1346060832
I0403 17:53:58.989465  6271 layer_factory.hpp:77] Creating layer loss3/classifier_plantvillage
I0403 17:53:58.989485  6271 net.cpp:91] Creating Layer loss3/classifier_plantvillage
I0403 17:53:58.989502  6271 net.cpp:425] loss3/classifier_plantvillage <- pool5/7x7_s1
I0403 17:53:58.989524  6271 net.cpp:399] loss3/classifier_plantvillage -> loss3/classifier_plantvillage
I0403 17:53:58.989984  6271 net.cpp:141] Setting up loss3/classifier_plantvillage
I0403 17:53:58.990010  6271 net.cpp:148] Top shape: 24 38 (912)
I0403 17:53:58.990025  6271 net.cpp:156] Memory required for data: 1346064480
I0403 17:53:58.990043  6271 layer_factory.hpp:77] Creating layer loss3/classifier_plantvillage_loss3/classifier_plantvillage_0_split
I0403 17:53:58.990067  6271 net.cpp:91] Creating Layer loss3/classifier_plantvillage_loss3/classifier_plantvillage_0_split
I0403 17:53:58.990084  6271 net.cpp:425] loss3/classifier_plantvillage_loss3/classifier_plantvillage_0_split <- loss3/classifier_plantvillage
I0403 17:53:58.990105  6271 net.cpp:399] loss3/classifier_plantvillage_loss3/classifier_plantvillage_0_split -> loss3/classifier_plantvillage_loss3/classifier_plantvillage_0_split_0
I0403 17:53:58.990128  6271 net.cpp:399] loss3/classifier_plantvillage_loss3/classifier_plantvillage_0_split -> loss3/classifier_plantvillage_loss3/classifier_plantvillage_0_split_1
I0403 17:53:58.990149  6271 net.cpp:399] loss3/classifier_plantvillage_loss3/classifier_plantvillage_0_split -> loss3/classifier_plantvillage_loss3/classifier_plantvillage_0_split_2
I0403 17:53:58.990170  6271 net.cpp:399] loss3/classifier_plantvillage_loss3/classifier_plantvillage_0_split -> loss3/classifier_plantvillage_loss3/classifier_plantvillage_0_split_3
I0403 17:53:58.990285  6271 net.cpp:141] Setting up loss3/classifier_plantvillage_loss3/classifier_plantvillage_0_split
I0403 17:53:58.990310  6271 net.cpp:148] Top shape: 24 38 (912)
I0403 17:53:58.990327  6271 net.cpp:148] Top shape: 24 38 (912)
I0403 17:53:58.990344  6271 net.cpp:148] Top shape: 24 38 (912)
I0403 17:53:58.990360  6271 net.cpp:148] Top shape: 24 38 (912)
I0403 17:53:58.990375  6271 net.cpp:156] Memory required for data: 1346079072
I0403 17:53:58.990389  6271 layer_factory.hpp:77] Creating layer loss1/loss
I0403 17:53:58.990411  6271 net.cpp:91] Creating Layer loss1/loss
I0403 17:53:58.990430  6271 net.cpp:425] loss1/loss <- loss1/classifier_plantvillage_loss1/classifier_plantvillage_0_split_0
I0403 17:53:58.990463  6271 net.cpp:425] loss1/loss <- label_data_1_split_0
…
