…
I0403 18:22:39.325808  6871 net.cpp:313] The NetState phase (1) differed from the phase (0) specified by a rule in layer data
I0403 18:22:39.327029  6871 net.cpp:49] Initializing net from parameters: 
state {
  phase: TEST
}
layer {
  name: "data"
  type: "Data"
  top: "data"
  top: "label"
  include {
    phase: TEST
  }
  transform_param {
    mirror: false
    crop_size: 224
    mean_file: "/home/mohanty/data/final_dataset/lmdb/grayscale-40-60/mean.binaryproto"
  }
  data_param {
    source: "/home/mohanty/data/final_dataset/lmdb/grayscale-40-60/test_db"
    batch_size: 24
    backend: LMDB
  }
}
layer {
  name: "conv1/7x7_s2"
  type: "Convolution"
  bottom: "data"
  top: "conv1/7x7_s2"
  param {
    lr_mult: 1
    decay_mult: 1
  }
  param {
    lr_mult: 2
    decay_mult: 0
  }
  convolution_param {
    num_output: 64
    pad: 3
    kernel_size: 7
    stride: 2
    weight_filler {
      type: "xavier"
      std: 0.1
    }
    bias_filler {
      type: "constant"
      value: 0.2
    }
  }
}
layer {
  name: "conv1/relu_7x7"
  type: "ReLU"
  bottom: "conv1/7x7_s2"
  top: "conv1/7x7_s2"
}
layer {
  name: "pool1/3x3_s2"
  type: "Pooling"
  bottom: "conv1/7x7_s2"
  top: "pool1/3x3_s2"
  pooling_param {
    pool: MAX
    kernel_size: 3
    stride: 2
  }
}
layer {
  name: "pool1/norm1"
  type: "LRN"
  bottom: "pool1/3x3_s2"
  top: "pool1/norm1"
  lrn_param {
    local_size: 5
    alpha: 0.0001
    beta: 0.75
  }
}
layer {
  name: "conv2/3x3_reduce"
  type: "Convolution"
  bottom: "pool1/norm1"
  top: "conv2/3x3_reduce"
  param {
    lr_mult: 1
    decay_mult: 1
  }
  param {
    lr_mult: 2
    decay_mult: 0
  }
  convolution_param {
    num_output: 64
    kernel_size: 1
    weight_filler {
      type: "xavier"
      std: 0.1
    }
    bias_filler {
      type: "constant"
      value: 0.2
    }
  }
}
layer {
  name: "conv2/relu_3x3_reduce"
  type: "ReLU"
  bottom: "conv2/3x3_reduce"
  top: "conv2/3x3_reduce"
}
layer {
  name: "conv2/3x3"
  type: "Convolution"
  bottom: "conv2/3x3_reduce"
  top: "conv2/3x3"
  param {
    lr_mult: 1
    decay_mult: 1
  }
  param {
    lr_mult: 2
    decay_mult: 0
  }
  convolution_param {
    num_output: 192
    pad: 1
    kernel_size: 3
    weight_filler {
      type: "xavier"
      std: 0.03
    }
    bias_filler {
      type: "constant"
      value: 0.2
    }
  }
}
layer {
  name: "conv2/relu_3x3"
  type: "ReLU"
  bottom: "conv2/3x3"
  top: "conv2/3x3"
}
layer {
  name: "conv2/norm2"
  type: "LRN"
  bottom: "conv2/3x3"
  top: "conv2/norm2"
  lrn_param {
    local_size: 5
    alpha: 0.0001
    beta: 0.75
  }
}
layer {
  name: "pool2/3x3_s2"
  type: "Pooling"
  bottom: "conv2/norm2"
  top: "pool2/3x3_s2"
  pooling_param {
    pool: MAX
    kernel_size: 3
    stride: 2
  }
}
layer {
  name: "inception_3a/1x1"
  type: "Convolution"
  bottom: "pool2/3x3_s2"
  top: "inception_3a/1x1"
  param {
    lr_mult: 1
    decay_mult: 1
  }
  param {
    lr_mult: 2
    decay_mult: 0
  }
  convolution_param {
    num_output: 64
    kernel_size: 1
    weight_filler {
      type: "xavier"
      std: 0.03
    }
    bias_filler {
      type: "constant"
      value: 0.2
    }
  }
}
layer {
  name: "inception_3a/relu_1x1"
  type: "ReLU"
  bottom: "inception_3a/1x1"
  top: "inception_3a/1x1"
}
layer {
  name: "inception_3a/3x3_reduce"
  type: "Convolution"
  bottom: "pool2/3x3_s2"
  top: "inception_3a/3x3_reduce"
  param {
    lr_mult: 1
    decay_mult: 1
  }
  param {
    lr_mult: 2
    decay_mult: 0
  }
  convolution_param {
    num_output: 96
    kernel_size: 1
    weight_filler {
      type: "xavier"
      std: 0.09
    }
    bias_filler {
      type: "constant"
      value: 0.2
    }
  }
}
layer {
  name: "inception_3a/relu_3x3_reduce"
  type: "ReLU"
  bottom: "inception_3a/3x3_reduce"
  top: "inception_3a/3x3_reduce"
}
layer {
  name: "inception_3a/3x3"
  type: "Convolution"
  bottom: "inception_3a/3x3_reduce"
  top: "inception_3a/3x3"
  param {
    lr_mult: 1
    decay_mult: 1
  }
  param {
    lr_mult: 2
    decay_mult: 0
  }
  convolution_param {
    num_output: 128
    pad: 1
    kernel_size: 3
    weight_filler {
      type: "xavier"
      std: 0.03
    }
    bias_filler {
      type: "constant"
      value: 0.2
    }
  }
}
layer {
  name: "inception_3a/relu_3x3"
  type: "ReLU"
  bottom: "inception_3a/3x3"
  top: "inception_3a/3x3"
}
layer {
  name: "inception_3a/5x5_reduce"
  type: "Convolution"
  bottom: "pool2/3x3_s2"
  top: "inception_3a/5x5_reduce"
  param {
    lr_mult: 1
    decay_mult: 1
  }
  param {
    lr_mult: 2
    decay_mult: 0
  }
  convolution_param {
    num_output: 16
    kernel_size: 1
    weight_filler {
      type: "xavier"
      std: 0.2
    }
    bias_filler {
      type: "constant"
      value: 0.2
    }
  }
}
layer {
  name: "inception_3a/relu_5x5_reduce"
  type: "ReLU"
  bottom: "inception_3a/5x5_reduce"
  top: "inception_3a/5x5_reduce"
}
layer {
  name: "inception_3a/5x5"
  type: "Convolution"
  bottom: "inception_3a/5x5_reduce"
  top: "inception_3a/5x5"
  param {
    lr_mult: 1
    decay_mult: 1
  }
  param {
    lr_mult: 2
    decay_mult: 0
  }
  convolution_param {
    num_output: 32
    pad: 2
    kernel_size: 5
    weight_filler {
      type: "xavier"
      std: 0.03
    }
    bias_filler {
      type: "constant"
      value: 0.2
    }
  }
}
layer {
  name: "inception_3a/relu_5x5"
  type: "ReLU"
  bottom: "inception_3a/5x5"
  top: "inception_3a/5x5"
}
layer {
  name: "inception_3a/pool"
  type: "Pooling"
  bottom: "pool2/3x3_s2"
  top: "inception_3a/pool"
  pooling_param {
    pool: MAX
    kernel_size: 3
    stride: 1
    pad: 1
  }
}
layer {
  name: "inception_3a/pool_proj"
  type: "Convolution"
  bottom: "inception_3a/pool"
  top: "inception_3a/pool_proj"
  param {
    lr_mult: 1
    decay_mult: 1
  }
  param {
    lr_mult: 2
    decay_mult: 0
  }
  convolution_param {
    num_output: 32
    kernel_size: 1
    weight_filler {
      type: "xavier"
      std: 0.1
    }
    bias_filler {
      type: "constant"
      value: 0.2
    }
  }
}
layer {
  name: "inception_3a/relu_pool_proj"
  type: "ReLU"
  bottom: "inception_3a/pool_proj"
  top: "inception_3a/pool_proj"
}
layer {
  name: "inception_3a/output"
  type: "Concat"
  bottom: "inception_3a/1x1"
  bottom: "inception_3a/3x3"
  bottom: "inception_3a/5x5"
  bottom: "inception_3a/pool_proj"
  top: "inception_3a/output"
}
layer {
  name: "inception_3b/1x1"
  type: "Convolution"
  bottom: "inception_3a/output"
  top: "inception_3b/1x1"
  param {
    lr_mult: 1
    decay_mult: 1
  }
  param {
    lr_mult: 2
    decay_mult: 0
  }
  convolution_param {
    num_output: 128
    kernel_size: 1
    weight_filler {
      type: "xavier"
      std: 0.03
    }
    bias_filler {
      type: "constant"
      value: 0.2
    }
  }
}
layer {
  name: "inception_3b/relu_1x1"
  type: "ReLU"
  bottom: "inception_3b/1x1"
  top: "inception_3b/1x1"
}
layer {
  name: "inception_3b/3x3_reduce"
  type: "Convolution"
  bottom: "inception_3a/output"
  top: "inception_3b/3x3_reduce"
  param {
    lr_mult: 1
    decay_mult: 1
  }
  param {
    lr_mult: 2
    decay_mult: 0
  }
  convolution_param {
    num_output: 128
    kernel_size: 1
    weight_filler {
      type: "xavier"
      std: 0.09
    }
    bias_filler {
      type: "constant"
      value: 0.2
    }
  }
}
layer {
  name: "inception_3b/relu_3x3_reduce"
  type: "ReLU"
  bottom: "inception_3b/3x3_reduce"
  top: "inception_3b/3x3_reduce"
}
layer {
  name: "inception_3b/3x3"
  type: "Convolution"
  bottom: "inception_3b/3x3_reduce"
  top: "inception_3b/3x3"
  param {
    lr_mult: 1
    decay_mult: 1
  }
  param {
    lr_mult: 2
    decay_mult: 0
  }
  convolution_param {
    num_output: 192
    pad: 1
    kernel_size: 3
    weight_filler {
      type: "xavier"
      std: 0.03
    }
    bias_filler {
      type: "constant"
      value: 0.2
    }
  }
}
layer {
  name: "inception_3b/relu_3x3"
  type: "ReLU"
  bottom: "inception_3b/3x3"
  top: "inception_3b/3x3"
}
layer {
  name: "inception_3b/5x5_reduce"
  type: "Convolution"
  bottom: "inception_3a/output"
  top: "inception_3b/5x5_reduce"
  param {
    lr_mult: 1
    decay_mult: 1
  }
  param {
    lr_mult: 2
    decay_mult: 0
  }
  convolution_param {
    num_output: 32
    kernel_size: 1
    weight_filler {
      type: "xavier"
      std: 0.2
    }
    bias_filler {
      type: "constant"
      value: 0.2
    }
  }
}
layer {
  name: "inception_3b/relu_5x5_reduce"
  type: "ReLU"
  bottom: "inception_3b/5x5_reduce"
  top: "inception_3b/5x5_reduce"
}
layer {
  name: "inception_3b/5x5"
  type: "Convolution"
  bottom: "inception_3b/5x5_reduce"
  top: "inception_3b/5x5"
  param {
    lr_mult: 1
    decay_mult: 1
  }
  param {
    lr_mult: 2
    decay_mult: 0
  }
  convolution_param {
    num_output: 96
    pad: 2
    kernel_size: 5
    weight_filler {
      type: "xavier"
      std: 0.03
    }
    bias_filler {
      type: "constant"
      value: 0.2
    }
  }
}
layer {
  name: "inception_3b/relu_5x5"
  type: "ReLU"
  bottom: "inception_3b/5x5"
  top: "inception_3b/5x5"
}
layer {
  name: "inception_3b/pool"
  type: "Pooling"
  bottom: "inception_3a/output"
  top: "inception_3b/pool"
  pooling_param {
    pool: MAX
    kernel_size: 3
    stride: 1
    pad: 1
  }
}
layer {
  name: "inception_3b/pool_proj"
  type: "Convolution"
  bottom: "inception_3b/pool"
  top: "inception_3b/pool_proj"
  param {
    lr_mult: 1
    decay_mult: 1
  }
  param {
    lr_mult: 2
    decay_mult: 0
  }
  convolution_param {
    num_output: 64
    kernel_size: 1
    weight_filler {
      type: "xavier"
      std: 0.1
    }
    bias_filler {
      type: "constant"
      value: 0.2
    }
  }
}
layer {
  name: "inception_3b/relu_pool_proj"
  type: "ReLU"
  bottom: "inception_3b/pool_proj"
  top: "inception_3b/pool_proj"
}
layer {
  name: "inception_3b/output"
  type: "Concat"
  bottom: "inception_3b/1x1"
  bottom: "inception_3b/3x3"
  bottom: "inception_3b/5x5"
  bottom: "inception_3b/pool_proj"
  top: "inception_3b/output"
}
layer {
  name: "pool3/3x3_s2"
  type: "Pooling"
  bottom: "inception_3b/output"
  top: "pool3/3x3_s2"
  pooling_param {
    pool: MAX
    kernel_size: 3
    stride: 2
  }
}
layer {
  name: "inception_4a/1x1"
  type: "Convolution"
  bottom: "pool3/3x3_s2"
  top: "inception_4a/1x1"
  param {
    lr_mult: 1
    decay_mult: 1
  }
  param {
    lr_mult: 2
    decay_mult: 0
  }
  convolution_param {
    num_output: 192
    kernel_size: 1
    weight_filler {
      type: "xavier"
      std: 0.03
    }
    bias_filler {
      type: "constant"
      value: 0.2
    }
  }
}
layer {
  name: "inception_4a/relu_1x1"
  type: "ReLU"
  bottom: "inception_4a/1x1"
  top: "inception_4a/1x1"
}
layer {
  name: "inception_4a/3x3_reduce"
  type: "Convolution"
  bottom: "pool3/3x3_s2"
  top: "inception_4a/3x3_reduce"
  param {
    lr_mult: 1
    decay_mult: 1
  }
  param {
    lr_mult: 2
    decay_mult: 0
  }
  convolution_param {
    num_output: 96
    kernel_size: 1
    weight_filler {
      type: "xavier"
      std: 0.09
    }
    bias_filler {
      type: "constant"
      value: 0.2
    }
  }
}
layer {
  name: "inception_4a/relu_3x3_reduce"
  type: "ReLU"
  bottom: "inception_4a/3x3_reduce"
  top: "inception_4a/3x3_reduce"
}
layer {
  name: "inception_4a/3x3"
  type: "Convolution"
  bottom: "inception_4a/3x3_reduce"
  top: "inception_4a/3x3"
  param {
    lr_mult: 1
    decay_mult: 1
  }
  param {
    lr_mult: 2
    decay_mult: 0
  }
  convolution_param {
    num_output: 208
    pad: 1
    kernel_size: 3
    weight_filler {
      type: "xavier"
      std: 0.03
    }
    bias_filler {
      type: "constant"
      value: 0.2
    }
  }
}
layer {
  name: "inception_4a/relu_3x3"
  type: "ReLU"
  bottom: "inception_4a/3x3"
  top: "inception_4a/3x3"
}
layer {
  name: "inception_4a/5x5_reduce"
  type: "Convolution"
  bottom: "pool3/3x3_s2"
  top: "inception_4a/5x5_reduce"
  param {
    lr_mult: 1
    decay_mult: 1
  }
  param {
    lr_mult: 2
    decay_mult: 0
  }
  convolution_param {
    num_output: 16
    kernel_size: 1
    weight_filler {
      type: "xavier"
      std: 0.2
    }
    bias_filler {
      type: "constant"
      value: 0.2
    }
  }
}
layer {
  name: "inception_4a/relu_5x5_reduce"
  type: "ReLU"
  bottom: "inception_4a/5x5_reduce"
  top: "inception_4a/5x5_reduce"
}
layer {
  name: "inception_4a/5x5"
  type: "Convolution"
  bottom: "inception_4a/5x5_reduce"
  top: "inception_4a/5x5"
  param {
    lr_mult: 1
    decay_mult: 1
  }
  param {
    lr_mult: 2
    decay_mult: 0
  }
  convolution_param {
    num_output: 48
    pad: 2
    kernel_size: 5
    weight_filler {
      type: "xavier"
      std: 0.03
    }
    bias_filler {
      type: "constant"
      value: 0.2
    }
  }
}
layer {
  name: "inception_4a/relu_5x5"
  type: "ReLU"
  bottom: "inception_4a/5x5"
  top: "inception_4a/5x5"
}
layer {
  name: "inception_4a/pool"
  type: "Pooling"
  bottom: "pool3/3x3_s2"
  top: "inception_4a/pool"
  pooling_param {
    pool: MAX
    kernel_size: 3
    stride: 1
    pad: 1
  }
}
layer {
  name: "inception_4a/pool_proj"
  type: "Convolution"
  bottom: "inception_4a/pool"
  top: "inception_4a/pool_proj"
  param {
    lr_mult: 1
    decay_mult: 1
  }
  param {
    lr_mult: 2
    decay_mult: 0
  }
  convolution_param {
    num_output: 64
    kernel_size: 1
    weight_filler {
      type: "xavier"
      std: 0.1
    }
    bias_filler {
      type: "constant"
      value: 0.2
    }
  }
}
layer {
  name: "inception_4a/relu_pool_proj"
  type: "ReLU"
  bottom: "inception_4a/pool_proj"
  top: "inception_4a/pool_proj"
}
layer {
  name: "inception_4a/output"
  type: "Concat"
  bottom: "inception_4a/1x1"
  bottom: "inception_4a/3x3"
  bottom: "inception_4a/5x5"
  bottom: "inception_4a/pool_proj"
  top: "inception_4a/output"
}
layer {
  name: "loss1/ave_pool"
  type: "Pooling"
  bottom: "inception_4a/output"
  top: "loss1/ave_pool"
  pooling_param {
    pool: AVE
    kernel_size: 5
    stride: 3
  }
}
layer {
  name: "loss1/conv"
  type: "Convolution"
  bottom: "loss1/ave_pool"
  top: "loss1/conv"
  param {
    lr_mult: 1
    decay_mult: 1
  }
  param {
    lr_mult: 2
    decay_mult: 0
  }
  convolution_param {
    num_output: 128
    kernel_size: 1
    weight_filler {
      type: "xavier"
      std: 0.08
    }
    bias_filler {
      type: "constant"
      value: 0.2
    }
  }
}
layer {
  name: "loss1/relu_conv"
  type: "ReLU"
  bottom: "loss1/conv"
  top: "loss1/conv"
}
layer {
  name: "loss1/fc"
  type: "InnerProduct"
  bottom: "loss1/conv"
  top: "loss1/fc"
  param {
    lr_mult: 1
    decay_mult: 1
  }
  param {
    lr_mult: 2
    decay_mult: 0
  }
  inner_product_param {
    num_output: 1024
    weight_filler {
      type: "xavier"
      std: 0.02
    }
    bias_filler {
      type: "constant"
      value: 0.2
    }
  }
}
layer {
  name: "loss1/relu_fc"
  type: "ReLU"
  bottom: "loss1/fc"
  top: "loss1/fc"
}
layer {
  name: "loss1/drop_fc"
  type: "Dropout"
  bottom: "loss1/fc"
  top: "loss1/fc"
  dropout_param {
    dropout_ratio: 0.7
  }
}
layer {
  name: "loss1/classifier_plantvillage"
  type: "InnerProduct"
  bottom: "loss1/fc"
  top: "loss1/classifier_plantvillage"
  param {
    lr_mult: 1
    decay_mult: 1
  }
  param {
    lr_mult: 2
    decay_mult: 0
  }
  inner_product_param {
    num_output: 38
    weight_filler {
      type: "xavier"
      std: 0.0009765625
    }
    bias_filler {
      type: "constant"
      value: 0
    }
  }
}
layer {
  name: "inception_4b/1x1"
  type: "Convolution"
  bottom: "inception_4a/output"
  top: "inception_4b/1x1"
  param {
    lr_mult: 1
    decay_mult: 1
  }
  param {
    lr_mult: 2
    decay_mult: 0
  }
  convolution_param {
    num_output: 160
    kernel_size: 1
    weight_filler {
      type: "xavier"
      std: 0.03
    }
    bias_filler {
      type: "constant"
      value: 0.2
    }
  }
}
layer {
  name: "inception_4b/relu_1x1"
  type: "ReLU"
  bottom: "inception_4b/1x1"
  top: "inception_4b/1x1"
}
layer {
  name: "inception_4b/3x3_reduce"
  type: "Convolution"
  bottom: "inception_4a/output"
  top: "inception_4b/3x3_reduce"
  param {
    lr_mult: 1
    decay_mult: 1
  }
  param {
    lr_mult: 2
    decay_mult: 0
  }
  convolution_param {
    num_output: 112
    kernel_size: 1
    weight_filler {
      type: "xavier"
      std: 0.09
    }
    bias_filler {
      type: "constant"
      value: 0.2
    }
  }
}
layer {
  name: "inception_4b/relu_3x3_reduce"
  type: "ReLU"
  bottom: "inception_4b/3x3_reduce"
  top: "inception_4b/3x3_reduce"
}
layer {
  name: "inception_4b/3x3"
  type: "Convolution"
  bottom: "inception_4b/3x3_reduce"
  top: "inception_4b/3x3"
  param {
    lr_mult: 1
    decay_mult: 1
  }
  param {
    lr_mult: 2
    decay_mult: 0
  }
  convolution_param {
    num_output: 224
    pad: 1
    kernel_size: 3
    weight_filler {
      type: "xavier"
      std: 0.03
    }
    bias_filler {
      type: "constant"
      value: 0.2
    }
  }
}
layer {
  name: "inception_4b/relu_3x3"
  type: "ReLU"
  bottom: "inception_4b/3x3"
  top: "inception_4b/3x3"
}
layer {
  name: "inception_4b/5x5_reduce"
  type: "Convolution"
  bottom: "inception_4a/output"
  top: "inception_4b/5x5_reduce"
  param {
    lr_mult: 1
    decay_mult: 1
  }
  param {
    lr_mult: 2
    decay_mult: 0
  }
  convolution_param {
    num_output: 24
    kernel_size: 1
    weight_filler {
      type: "xavier"
      std: 0.2
    }
    bias_filler {
      type: "constant"
      value: 0.2
    }
  }
}
layer {
  name: "inception_4b/relu_5x5_reduce"
  type: "ReLU"
  bottom: "inception_4b/5x5_reduce"
  top: "inception_4b/5x5_reduce"
}
layer {
  name: "inception_4b/5x5"
  type: "Convolution"
  bottom: "inception_4b/5x5_reduce"
  top: "inception_4b/5x5"
  param {
    lr_mult: 1
    decay_mult: 1
  }
  param {
    lr_mult: 2
    decay_mult: 0
  }
  convolution_param {
    num_output: 64
    pad: 2
    kernel_size: 5
    weight_filler {
      type: "xavier"
      std: 0.03
    }
    bias_filler {
      type: "constant"
      value: 0.2
    }
  }
}
layer {
  name: "inception_4b/relu_5x5"
  type: "ReLU"
  bottom: "inception_4b/5x5"
  top: "inception_4b/5x5"
}
layer {
  name: "inception_4b/pool"
  type: "Pooling"
  bottom: "inception_4a/output"
  top: "inception_4b/pool"
  pooling_param {
    pool: MAX
    kernel_size: 3
    stride: 1
    pad: 1
  }
}
layer {
  name: "inception_4b/pool_proj"
  type: "Convolution"
  bottom: "inception_4b/pool"
  top: "inception_4b/pool_proj"
  param {
    lr_mult: 1
    decay_mult: 1
  }
  param {
    lr_mult: 2
    decay_mult: 0
  }
  convolution_param {
    num_output: 64
    kernel_size: 1
    weight_filler {
      type: "xavier"
      std: 0.1
    }
    bias_filler {
      type: "constant"
      value: 0.2
    }
  }
}
layer {
  name: "inception_4b/relu_pool_proj"
  type: "ReLU"
  bottom: "inception_4b/pool_proj"
  top: "inception_4b/pool_proj"
}
layer {
  name: "inception_4b/output"
  type: "Concat"
  bottom: "inception_4b/1x1"
  bottom: "inception_4b/3x3"
  bottom: "inception_4b/5x5"
  bottom: "inception_4b/pool_proj"
  top: "inception_4b/output"
}
layer {
  name: "inception_4c/1x1"
  type: "Convolution"
  bottom: "inception_4b/output"
  top: "inception_4c/1x1"
  param {
    lr_mult: 1
    decay_mult: 1
  }
  param {
    lr_mult: 2
    decay_mult: 0
  }
  convolution_param {
    num_output: 128
    kernel_size: 1
    weight_filler {
      type: "xavier"
      std: 0.03
    }
    bias_filler {
      type: "constant"
      value: 0.2
    }
  }
}
layer {
  name: "inception_4c/relu_1x1"
  type: "ReLU"
  bottom: "inception_4c/1x1"
  top: "inception_4c/1x1"
}
layer {
  name: "inception_4c/3x3_reduce"
  type: "Convolution"
  bottom: "inception_4b/output"
  top: "inception_4c/3x3_reduce"
  param {
    lr_mult: 1
    decay_mult: 1
  }
  param {
    lr_mult: 2
    decay_mult: 0
  }
  convolution_param {
    num_output: 128
    kernel_size: 1
    weight_filler {
      type: "xavier"
      std: 0.09
    }
    bias_filler {
      type: "constant"
      value: 0.2
    }
  }
}
layer {
  name: "inception_4c/relu_3x3_reduce"
  type: "ReLU"
  bottom: "inception_4c/3x3_reduce"
  top: "inception_4c/3x3_reduce"
}
layer {
  name: "inception_4c/3x3"
  type: "Convolution"
  bottom: "inception_4c/3x3_reduce"
  top: "inception_4c/3x3"
  param {
    lr_mult: 1
    decay_mult: 1
  }
  param {
    lr_mult: 2
    decay_mult: 0
  }
  convolution_param {
    num_output: 256
    pad: 1
    kernel_size: 3
    weight_filler {
      type: "xavier"
      std: 0.03
    }
    bias_filler {
      type: "constant"
      value: 0.2
    }
  }
}
layer {
  name: "inception_4c/relu_3x3"
  type: "ReLU"
  bottom: "inception_4c/3x3"
  top: "inception_4c/3x3"
}
layer {
  name: "inception_4c/5x5_reduce"
  type: "Convolution"
  bottom: "inception_4b/output"
  top: "inception_4c/5x5_reduce"
  param {
    lr_mult: 1
    decay_mult: 1
  }
  param {
    lr_mult: 2
    decay_mult: 0
  }
  convolution_param {
    num_output: 24
    kernel_size: 1
    weight_filler {
      type: "xavier"
      std: 0.2
    }
    bias_filler {
      type: "constant"
      value: 0.2
    }
  }
}
layer {
  name: "inception_4c/relu_5x5_reduce"
  type: "ReLU"
  bottom: "inception_4c/5x5_reduce"
  top: "inception_4c/5x5_reduce"
}
layer {
  name: "inception_4c/5x5"
  type: "Convolution"
  bottom: "inception_4c/5x5_reduce"
  top: "inception_4c/5x5"
  param {
    lr_mult: 1
    decay_mult: 1
  }
  param {
    lr_mult: 2
    decay_mult: 0
  }
  convolution_param {
    num_output: 64
    pad: 2
    kernel_size: 5
    weight_filler {
      type: "xavier"
      std: 0.03
    }
    bias_filler {
      type: "constant"
      value: 0.2
    }
  }
}
layer {
  name: "inception_4c/relu_5x5"
  type: "ReLU"
  bottom: "inception_4c/5x5"
  top: "inception_4c/5x5"
}
layer {
  name: "inception_4c/pool"
  type: "Pooling"
  bottom: "inception_4b/output"
  top: "inception_4c/pool"
  pooling_param {
    pool: MAX
    kernel_size: 3
    stride: 1
    pad: 1
  }
}
layer {
  name: "inception_4c/pool_proj"
  type: "Convolution"
  bottom: "inception_4c/pool"
  top: "inception_4c/pool_proj"
  param {
    lr_mult: 1
    decay_mult: 1
  }
  param {
    lr_mult: 2
    decay_mult: 0
  }
  convolution_param {
    num_output: 64
    kernel_size: 1
    weight_filler {
      type: "xavier"
      std: 0.1
    }
    bias_filler {
      type: "constant"
      value: 0.2
    }
  }
}
layer {
  name: "inception_4c/relu_pool_proj"
  type: "ReLU"
  bottom: "inception_4c/pool_proj"
  top: "inception_4c/pool_proj"
}
layer {
  name: "inception_4c/output"
  type: "Concat"
  bottom: "inception_4c/1x1"
  bottom: "inception_4c/3x3"
  bottom: "inception_4c/5x5"
  bottom: "inception_4c/pool_proj"
  top: "inception_4c/output"
}
layer {
  name: "inception_4d/1x1"
  type: "Convolution"
  bottom: "inception_4c/output"
  top: "inception_4d/1x1"
  param {
    lr_mult: 1
    decay_mult: 1
  }
  param {
    lr_mult: 2
    decay_mult: 0
  }
  convolution_param {
    num_output: 112
    kernel_size: 1
    weight_filler {
      type: "xavier"
      std: 0.03
    }
    bias_filler {
      type: "constant"
      value: 0.2
    }
  }
}
layer {
  name: "inception_4d/relu_1x1"
  type: "ReLU"
  bottom: "inception_4d/1x1"
  top: "inception_4d/1x1"
}
layer {
  name: "inception_4d/3x3_reduce"
  type: "Convolution"
  bottom: "inception_4c/output"
  top: "inception_4d/3x3_reduce"
  param {
    lr_mult: 1
    decay_mult: 1
  }
  param {
    lr_mult: 2
    decay_mult: 0
  }
  convolution_param {
    num_output: 144
    kernel_size: 1
    weight_filler {
      type: "xavier"
      std: 0.09
    }
    bias_filler {
      type: "constant"
      value: 0.2
    }
  }
}
layer {
  name: "inception_4d/relu_3x3_reduce"
  type: "ReLU"
  bottom: "inception_4d/3x3_reduce"
  top: "inception_4d/3x3_reduce"
}
layer {
  name: "inception_4d/3x3"
  type: "Convolution"
  bottom: "inception_4d/3x3_reduce"
  top: "inception_4d/3x3"
  param {
    lr_mult: 1
    decay_mult: 1
  }
  param {
    lr_mult: 2
    decay_mult: 0
  }
  convolution_param {
    num_output: 288
    pad: 1
    kernel_size: 3
    weight_filler {
      type: "xavier"
      std: 0.03
    }
    bias_filler {
      type: "constant"
      value: 0.2
    }
  }
}
layer {
  name: "inception_4d/relu_3x3"
  type: "ReLU"
  bottom: "inception_4d/3x3"
  top: "inception_4d/3x3"
}
layer {
  name: "inception_4d/5x5_reduce"
  type: "Convolution"
  bottom: "inception_4c/output"
  top: "inception_4d/5x5_reduce"
  param {
    lr_mult: 1
    decay_mult: 1
  }
  param {
    lr_mult: 2
    decay_mult: 0
  }
  convolution_param {
    num_output: 32
    kernel_size: 1
    weight_filler {
      type: "xavier"
      std: 0.2
    }
    bias_filler {
      type: "constant"
      value: 0.2
    }
  }
}
layer {
  name: "inception_4d/relu_5x5_reduce"
  type: "ReLU"
  bottom: "inception_4d/5x5_reduce"
  top: "inception_4d/5x5_reduce"
}
layer {
  name: "inception_4d/5x5"
  type: "Convolution"
  bottom: "inception_4d/5x5_reduce"
  top: "inception_4d/5x5"
  param {
    lr_mult: 1
    decay_mult: 1
  }
  param {
    lr_mult: 2
    decay_mult: 0
  }
  convolution_param {
    num_output: 64
    pad: 2
    kernel_size: 5
    weight_filler {
      type: "xavier"
      std: 0.03
    }
    bias_filler {
      type: "constant"
      value: 0.2
    }
  }
}
layer {
  name: "inception_4d/relu_5x5"
  type: "ReLU"
  bottom: "inception_4d/5x5"
  top: "inception_4d/5x5"
}
layer {
  name: "inception_4d/pool"
  type: "Pooling"
  bottom: "inception_4c/output"
  top: "inception_4d/pool"
  pooling_param {
    pool: MAX
    kernel_size: 3
    stride: 1
    pad: 1
  }
}
layer {
  name: "inception_4d/pool_proj"
  type: "Convolution"
  bottom: "inception_4d/pool"
  top: "inception_4d/pool_proj"
  param {
    lr_mult: 1
    decay_mult: 1
  }
  param {
    lr_mult: 2
    decay_mult: 0
  }
  convolution_param {
    num_output: 64
    kernel_size: 1
    weight_filler {
      type: "xavier"
      std: 0.1
    }
    bias_filler {
      type: "constant"
      value: 0.2
    }
  }
}
layer {
  name: "inception_4d/relu_pool_proj"
  type: "ReLU"
  bottom: "inception_4d/pool_proj"
  top: "inception_4d/pool_proj"
}
layer {
  name: "inception_4d/output"
  type: "Concat"
  bottom: "inception_4d/1x1"
  bottom: "inception_4d/3x3"
  bottom: "inception_4d/5x5"
  bottom: "inception_4d/pool_proj"
  top: "inception_4d/output"
}
layer {
  name: "loss2/ave_pool"
  type: "Pooling"
  bottom: "inception_4d/output"
  top: "loss2/ave_pool"
  pooling_param {
    pool: AVE
    kernel_size: 5
    stride: 3
  }
}
layer {
  name: "loss2/conv"
  type: "Convolution"
  bottom: "loss2/ave_pool"
  top: "loss2/conv"
  param {
    lr_mult: 1
    decay_mult: 1
  }
  param {
    lr_mult: 2
    decay_mult: 0
  }
  convolution_param {
    num_output: 128
    kernel_size: 1
    weight_filler {
      type: "xavier"
      std: 0.08
    }
    bias_filler {
      type: "constant"
      value: 0.2
    }
  }
}
layer {
  name: "loss2/relu_conv"
  type: "ReLU"
  bottom: "loss2/conv"
  top: "loss2/conv"
}
layer {
  name: "loss2/fc"
  type: "InnerProduct"
  bottom: "loss2/conv"
  top: "loss2/fc"
  param {
    lr_mult: 1
    decay_mult: 1
  }
  param {
    lr_mult: 2
    decay_mult: 0
  }
  inner_product_param {
    num_output: 1024
    weight_filler {
      type: "xavier"
      std: 0.02
    }
    bias_filler {
      type: "constant"
      value: 0.2
    }
  }
}
layer {
  name: "loss2/relu_fc"
  type: "ReLU"
  bottom: "loss2/fc"
  top: "loss2/fc"
}
layer {
  name: "loss2/drop_fc"
  type: "Dropout"
  bottom: "loss2/fc"
  top: "loss2/fc"
  dropout_param {
    dropout_ratio: 0.7
  }
}
layer {
  name: "loss2/classifier_plantvillage"
  type: "InnerProduct"
  bottom: "loss2/fc"
  top: "loss2/classifier_plantvillage"
  param {
    lr_mult: 1
    decay_mult: 1
  }
  param {
    lr_mult: 2
    decay_mult: 0
  }
  inner_product_param {
    num_output: 38
    weight_filler {
      type: "xavier"
      std: 0.0009765625
    }
    bias_filler {
      type: "constant"
      value: 0
    }
  }
}
layer {
  name: "inception_4e/1x1"
  type: "Convolution"
  bottom: "inception_4d/output"
  top: "inception_4e/1x1"
  param {
    lr_mult: 1
    decay_mult: 1
  }
  param {
    lr_mult: 2
    decay_mult: 0
  }
  convolution_param {
    num_output: 256
    kernel_size: 1
    weight_filler {
      type: "xavier"
      std: 0.03
    }
    bias_filler {
      type: "constant"
      value: 0.2
    }
  }
}
layer {
  name: "inception_4e/relu_1x1"
  type: "ReLU"
  bottom: "inception_4e/1x1"
  top: "inception_4e/1x1"
}
layer {
  name: "inception_4e/3x3_reduce"
  type: "Convolution"
  bottom: "inception_4d/output"
  top: "inception_4e/3x3_reduce"
  param {
    lr_mult: 1
    decay_mult: 1
  }
  param {
    lr_mult: 2
    decay_mult: 0
  }
  convolution_param {
    num_output: 160
    kernel_size: 1
    weight_filler {
      type: "xavier"
      std: 0.09
    }
    bias_filler {
      type: "constant"
      value: 0.2
    }
  }
}
layer {
  name: "inception_4e/relu_3x3_reduce"
  type: "ReLU"
  bottom: "inception_4e/3x3_reduce"
  top: "inception_4e/3x3_reduce"
}
layer {
  name: "inception_4e/3x3"
  type: "Convolution"
  bottom: "inception_4e/3x3_reduce"
  top: "inception_4e/3x3"
  param {
    lr_mult: 1
    decay_mult: 1
  }
  param {
    lr_mult: 2
    decay_mult: 0
  }
  convolution_param {
    num_output: 320
    pad: 1
    kernel_size: 3
    weight_filler {
      type: "xavier"
      std: 0.03
    }
    bias_filler {
      type: "constant"
      value: 0.2
    }
  }
}
layer {
  name: "inception_4e/relu_3x3"
  type: "ReLU"
  bottom: "inception_4e/3x3"
  top: "inception_4e/3x3"
}
layer {
  name: "inception_4e/5x5_reduce"
  type: "Convolution"
  bottom: "inception_4d/output"
  top: "inception_4e/5x5_reduce"
  param {
    lr_mult: 1
    decay_mult: 1
  }
  param {
    lr_mult: 2
    decay_mult: 0
  }
  convolution_param {
    num_output: 32
    kernel_size: 1
    weight_filler {
      type: "xavier"
      std: 0.2
    }
    bias_filler {
      type: "constant"
      value: 0.2
    }
  }
}
layer {
  name: "inception_4e/relu_5x5_reduce"
  type: "ReLU"
  bottom: "inception_4e/5x5_reduce"
  top: "inception_4e/5x5_reduce"
}
layer {
  name: "inception_4e/5x5"
  type: "Convolution"
  bottom: "inception_4e/5x5_reduce"
  top: "inception_4e/
I0403 18:22:39.328691  6871 layer_factory.hpp:77] Creating layer data
I0403 18:22:39.329315  6871 net.cpp:91] Creating Layer data
I0403 18:22:39.329351  6871 net.cpp:399] data -> data
I0403 18:22:39.329403  6871 net.cpp:399] data -> label
I0403 18:22:39.329439  6871 data_transformer.cpp:25] Loading mean file from: /home/mohanty/data/final_dataset/lmdb/grayscale-40-60/mean.binaryproto
I0403 18:22:39.330484  6874 db_lmdb.cpp:38] Opened lmdb /home/mohanty/data/final_dataset/lmdb/grayscale-40-60/test_db
I0403 18:22:39.343370  6871 data_layer.cpp:41] output data size: 24,3,224,224
I0403 18:22:39.373113  6871 net.cpp:141] Setting up data
I0403 18:22:39.373231  6871 net.cpp:148] Top shape: 24 3 224 224 (3612672)
I0403 18:22:39.373260  6871 net.cpp:148] Top shape: 24 (24)
I0403 18:22:39.373275  6871 net.cpp:156] Memory required for data: 14450784
I0403 18:22:39.373303  6871 layer_factory.hpp:77] Creating layer label_data_1_split
I0403 18:22:39.373330  6871 net.cpp:91] Creating Layer label_data_1_split
I0403 18:22:39.373349  6871 net.cpp:425] label_data_1_split <- label
I0403 18:22:39.373383  6871 net.cpp:399] label_data_1_split -> label_data_1_split_0
I0403 18:22:39.373409  6871 net.cpp:399] label_data_1_split -> label_data_1_split_1
I0403 18:22:39.373431  6871 net.cpp:399] label_data_1_split -> label_data_1_split_2
I0403 18:22:39.373452  6871 net.cpp:399] label_data_1_split -> label_data_1_split_3
I0403 18:22:39.373473  6871 net.cpp:399] label_data_1_split -> label_data_1_split_4
I0403 18:22:39.373493  6871 net.cpp:399] label_data_1_split -> label_data_1_split_5
I0403 18:22:39.373513  6871 net.cpp:399] label_data_1_split -> label_data_1_split_6
I0403 18:22:39.373534  6871 net.cpp:399] label_data_1_split -> label_data_1_split_7
I0403 18:22:39.373554  6871 net.cpp:399] label_data_1_split -> label_data_1_split_8
I0403 18:22:39.373574  6871 net.cpp:399] label_data_1_split -> label_data_1_split_9
I0403 18:22:39.373697  6871 net.cpp:141] Setting up label_data_1_split
I0403 18:22:39.373723  6871 net.cpp:148] Top shape: 24 (24)
I0403 18:22:39.373740  6871 net.cpp:148] Top shape: 24 (24)
I0403 18:22:39.373756  6871 net.cpp:148] Top shape: 24 (24)
I0403 18:22:39.373775  6871 net.cpp:148] Top shape: 24 (24)
I0403 18:22:39.373790  6871 net.cpp:148] Top shape: 24 (24)
I0403 18:22:39.373806  6871 net.cpp:148] Top shape: 24 (24)
I0403 18:22:39.373823  6871 net.cpp:148] Top shape: 24 (24)
I0403 18:22:39.373839  6871 net.cpp:148] Top shape: 24 (24)
I0403 18:22:39.373857  6871 net.cpp:148] Top shape: 24 (24)
I0403 18:22:39.373875  6871 net.cpp:148] Top shape: 24 (24)
I0403 18:22:39.373924  6871 net.cpp:156] Memory required for data: 14451744
I0403 18:22:39.373940  6871 layer_factory.hpp:77] Creating layer conv1/7x7_s2
I0403 18:22:39.373973  6871 net.cpp:91] Creating Layer conv1/7x7_s2
I0403 18:22:39.373993  6871 net.cpp:425] conv1/7x7_s2 <- data
I0403 18:22:39.374017  6871 net.cpp:399] conv1/7x7_s2 -> conv1/7x7_s2
I0403 18:22:39.517073  6871 net.cpp:141] Setting up conv1/7x7_s2
I0403 18:22:39.517150  6871 net.cpp:148] Top shape: 24 64 112 112 (19267584)
I0403 18:22:39.517168  6871 net.cpp:156] Memory required for data: 91522080
I0403 18:22:39.517200  6871 layer_factory.hpp:77] Creating layer conv1/relu_7x7
I0403 18:22:39.517230  6871 net.cpp:91] Creating Layer conv1/relu_7x7
I0403 18:22:39.517256  6871 net.cpp:425] conv1/relu_7x7 <- conv1/7x7_s2
I0403 18:22:39.517276  6871 net.cpp:386] conv1/relu_7x7 -> conv1/7x7_s2 (in-place)
I0403 18:22:39.517542  6871 net.cpp:141] Setting up conv1/relu_7x7
I0403 18:22:39.517571  6871 net.cpp:148] Top shape: 24 64 112 112 (19267584)
I0403 18:22:39.517587  6871 net.cpp:156] Memory required for data: 168592416
I0403 18:22:39.517602  6871 layer_factory.hpp:77] Creating layer pool1/3x3_s2
I0403 18:22:39.517627  6871 net.cpp:91] Creating Layer pool1/3x3_s2
I0403 18:22:39.517647  6871 net.cpp:425] pool1/3x3_s2 <- conv1/7x7_s2
I0403 18:22:39.517666  6871 net.cpp:399] pool1/3x3_s2 -> pool1/3x3_s2
I0403 18:22:39.517741  6871 net.cpp:141] Setting up pool1/3x3_s2
I0403 18:22:39.517766  6871 net.cpp:148] Top shape: 24 64 56 56 (4816896)
I0403 18:22:39.517782  6871 net.cpp:156] Memory required for data: 187860000
I0403 18:22:39.517798  6871 layer_factory.hpp:77] Creating layer pool1/norm1
I0403 18:22:39.517823  6871 net.cpp:91] Creating Layer pool1/norm1
I0403 18:22:39.517843  6871 net.cpp:425] pool1/norm1 <- pool1/3x3_s2
I0403 18:22:39.517860  6871 net.cpp:399] pool1/norm1 -> pool1/norm1
I0403 18:22:39.518151  6871 net.cpp:141] Setting up pool1/norm1
I0403 18:22:39.518179  6871 net.cpp:148] Top shape: 24 64 56 56 (4816896)
I0403 18:22:39.518194  6871 net.cpp:156] Memory required for data: 207127584
I0403 18:22:39.518210  6871 layer_factory.hpp:77] Creating layer conv2/3x3_reduce
I0403 18:22:39.518235  6871 net.cpp:91] Creating Layer conv2/3x3_reduce
I0403 18:22:39.518257  6871 net.cpp:425] conv2/3x3_reduce <- pool1/norm1
I0403 18:22:39.518276  6871 net.cpp:399] conv2/3x3_reduce -> conv2/3x3_reduce
I0403 18:22:39.519719  6871 net.cpp:141] Setting up conv2/3x3_reduce
I0403 18:22:39.519749  6871 net.cpp:148] Top shape: 24 64 56 56 (4816896)
I0403 18:22:39.519767  6871 net.cpp:156] Memory required for data: 226395168
I0403 18:22:39.519788  6871 layer_factory.hpp:77] Creating layer conv2/relu_3x3_reduce
I0403 18:22:39.519809  6871 net.cpp:91] Creating Layer conv2/relu_3x3_reduce
I0403 18:22:39.519826  6871 net.cpp:425] conv2/relu_3x3_reduce <- conv2/3x3_reduce
I0403 18:22:39.519843  6871 net.cpp:386] conv2/relu_3x3_reduce -> conv2/3x3_reduce (in-place)
I0403 18:22:39.520126  6871 net.cpp:141] Setting up conv2/relu_3x3_reduce
I0403 18:22:39.520154  6871 net.cpp:148] Top shape: 24 64 56 56 (4816896)
I0403 18:22:39.520169  6871 net.cpp:156] Memory required for data: 245662752
I0403 18:22:39.520186  6871 layer_factory.hpp:77] Creating layer conv2/3x3
I0403 18:22:39.520213  6871 net.cpp:91] Creating Layer conv2/3x3
I0403 18:22:39.520231  6871 net.cpp:425] conv2/3x3 <- conv2/3x3_reduce
I0403 18:22:39.520254  6871 net.cpp:399] conv2/3x3 -> conv2/3x3
I0403 18:22:39.522668  6871 net.cpp:141] Setting up conv2/3x3
I0403 18:22:39.522699  6871 net.cpp:148] Top shape: 24 192 56 56 (14450688)
I0403 18:22:39.522716  6871 net.cpp:156] Memory required for data: 303465504
I0403 18:22:39.522738  6871 layer_factory.hpp:77] Creating layer conv2/relu_3x3
I0403 18:22:39.522759  6871 net.cpp:91] Creating Layer conv2/relu_3x3
I0403 18:22:39.522776  6871 net.cpp:425] conv2/relu_3x3 <- conv2/3x3
I0403 18:22:39.522794  6871 net.cpp:386] conv2/relu_3x3 -> conv2/3x3 (in-place)
I0403 18:22:39.522975  6871 net.cpp:141] Setting up conv2/relu_3x3
I0403 18:22:39.523001  6871 net.cpp:148] Top shape: 24 192 56 56 (14450688)
I0403 18:22:39.523049  6871 net.cpp:156] Memory required for data: 361268256
I0403 18:22:39.523066  6871 layer_factory.hpp:77] Creating layer conv2/norm2
I0403 18:22:39.523087  6871 net.cpp:91] Creating Layer conv2/norm2
I0403 18:22:39.523102  6871 net.cpp:425] conv2/norm2 <- conv2/3x3
I0403 18:22:39.523123  6871 net.cpp:399] conv2/norm2 -> conv2/norm2
I0403 18:22:39.523445  6871 net.cpp:141] Setting up conv2/norm2
I0403 18:22:39.523473  6871 net.cpp:148] Top shape: 24 192 56 56 (14450688)
I0403 18:22:39.523489  6871 net.cpp:156] Memory required for data: 419071008
I0403 18:22:39.523504  6871 layer_factory.hpp:77] Creating layer pool2/3x3_s2
I0403 18:22:39.523522  6871 net.cpp:91] Creating Layer pool2/3x3_s2
I0403 18:22:39.523540  6871 net.cpp:425] pool2/3x3_s2 <- conv2/norm2
I0403 18:22:39.523561  6871 net.cpp:399] pool2/3x3_s2 -> pool2/3x3_s2
I0403 18:22:39.523614  6871 net.cpp:141] Setting up pool2/3x3_s2
I0403 18:22:39.523638  6871 net.cpp:148] Top shape: 24 192 28 28 (3612672)
I0403 18:22:39.523653  6871 net.cpp:156] Memory required for data: 433521696
I0403 18:22:39.523669  6871 layer_factory.hpp:77] Creating layer pool2/3x3_s2_pool2/3x3_s2_0_split
I0403 18:22:39.523690  6871 net.cpp:91] Creating Layer pool2/3x3_s2_pool2/3x3_s2_0_split
I0403 18:22:39.523707  6871 net.cpp:425] pool2/3x3_s2_pool2/3x3_s2_0_split <- pool2/3x3_s2
I0403 18:22:39.523727  6871 net.cpp:399] pool2/3x3_s2_pool2/3x3_s2_0_split -> pool2/3x3_s2_pool2/3x3_s2_0_split_0
I0403 18:22:39.523748  6871 net.cpp:399] pool2/3x3_s2_pool2/3x3_s2_0_split -> pool2/3x3_s2_pool2/3x3_s2_0_split_1
I0403 18:22:39.523768  6871 net.cpp:399] pool2/3x3_s2_pool2/3x3_s2_0_split -> pool2/3x3_s2_pool2/3x3_s2_0_split_2
I0403 18:22:39.523788  6871 net.cpp:399] pool2/3x3_s2_pool2/3x3_s2_0_split -> pool2/3x3_s2_pool2/3x3_s2_0_split_3
I0403 18:22:39.523859  6871 net.cpp:141] Setting up pool2/3x3_s2_pool2/3x3_s2_0_split
I0403 18:22:39.523886  6871 net.cpp:148] Top shape: 24 192 28 28 (3612672)
I0403 18:22:39.523905  6871 net.cpp:148] Top shape: 24 192 28 28 (3612672)
I0403 18:22:39.523921  6871 net.cpp:148] Top shape: 24 192 28 28 (3612672)
I0403 18:22:39.523938  6871 net.cpp:148] Top shape: 24 192 28 28 (3612672)
I0403 18:22:39.523952  6871 net.cpp:156] Memory required for data: 491324448
I0403 18:22:39.523968  6871 layer_factory.hpp:77] Creating layer inception_3a/1x1
I0403 18:22:39.523991  6871 net.cpp:91] Creating Layer inception_3a/1x1
I0403 18:22:39.524008  6871 net.cpp:425] inception_3a/1x1 <- pool2/3x3_s2_pool2/3x3_s2_0_split_0
I0403 18:22:39.524027  6871 net.cpp:399] inception_3a/1x1 -> inception_3a/1x1
I0403 18:22:39.525665  6871 net.cpp:141] Setting up inception_3a/1x1
I0403 18:22:39.525696  6871 net.cpp:148] Top shape: 24 64 28 28 (1204224)
I0403 18:22:39.525712  6871 net.cpp:156] Memory required for data: 496141344
I0403 18:22:39.525732  6871 layer_factory.hpp:77] Creating layer inception_3a/relu_1x1
I0403 18:22:39.525754  6871 net.cpp:91] Creating Layer inception_3a/relu_1x1
I0403 18:22:39.525773  6871 net.cpp:425] inception_3a/relu_1x1 <- inception_3a/1x1
I0403 18:22:39.525789  6871 net.cpp:386] inception_3a/relu_1x1 -> inception_3a/1x1 (in-place)
I0403 18:22:39.525976  6871 net.cpp:141] Setting up inception_3a/relu_1x1
I0403 18:22:39.526005  6871 net.cpp:148] Top shape: 24 64 28 28 (1204224)
I0403 18:22:39.526021  6871 net.cpp:156] Memory required for data: 500958240
I0403 18:22:39.526036  6871 layer_factory.hpp:77] Creating layer inception_3a/3x3_reduce
I0403 18:22:39.526060  6871 net.cpp:91] Creating Layer inception_3a/3x3_reduce
I0403 18:22:39.526078  6871 net.cpp:425] inception_3a/3x3_reduce <- pool2/3x3_s2_pool2/3x3_s2_0_split_1
I0403 18:22:39.526098  6871 net.cpp:399] inception_3a/3x3_reduce -> inception_3a/3x3_reduce
I0403 18:22:39.527866  6871 net.cpp:141] Setting up inception_3a/3x3_reduce
I0403 18:22:39.527899  6871 net.cpp:148] Top shape: 24 96 28 28 (1806336)
I0403 18:22:39.527915  6871 net.cpp:156] Memory required for data: 508183584
I0403 18:22:39.527937  6871 layer_factory.hpp:77] Creating layer inception_3a/relu_3x3_reduce
I0403 18:22:39.527977  6871 net.cpp:91] Creating Layer inception_3a/relu_3x3_reduce
I0403 18:22:39.527997  6871 net.cpp:425] inception_3a/relu_3x3_reduce <- inception_3a/3x3_reduce
I0403 18:22:39.528019  6871 net.cpp:386] inception_3a/relu_3x3_reduce -> inception_3a/3x3_reduce (in-place)
I0403 18:22:39.528209  6871 net.cpp:141] Setting up inception_3a/relu_3x3_reduce
I0403 18:22:39.528235  6871 net.cpp:148] Top shape: 24 96 28 28 (1806336)
I0403 18:22:39.528256  6871 net.cpp:156] Memory required for data: 515408928
I0403 18:22:39.528272  6871 layer_factory.hpp:77] Creating layer inception_3a/3x3
I0403 18:22:39.528295  6871 net.cpp:91] Creating Layer inception_3a/3x3
I0403 18:22:39.528316  6871 net.cpp:425] inception_3a/3x3 <- inception_3a/3x3_reduce
I0403 18:22:39.528342  6871 net.cpp:399] inception_3a/3x3 -> inception_3a/3x3
I0403 18:22:39.530079  6871 net.cpp:141] Setting up inception_3a/3x3
I0403 18:22:39.530112  6871 net.cpp:148] Top shape: 24 128 28 28 (2408448)
I0403 18:22:39.530133  6871 net.cpp:156] Memory required for data: 525042720
I0403 18:22:39.530155  6871 layer_factory.hpp:77] Creating layer inception_3a/relu_3x3
I0403 18:22:39.530175  6871 net.cpp:91] Creating Layer inception_3a/relu_3x3
I0403 18:22:39.530194  6871 net.cpp:425] inception_3a/relu_3x3 <- inception_3a/3x3
I0403 18:22:39.530213  6871 net.cpp:386] inception_3a/relu_3x3 -> inception_3a/3x3 (in-place)
I0403 18:22:39.530503  6871 net.cpp:141] Setting up inception_3a/relu_3x3
I0403 18:22:39.530534  6871 net.cpp:148] Top shape: 24 128 28 28 (2408448)
I0403 18:22:39.530550  6871 net.cpp:156] Memory required for data: 534676512
I0403 18:22:39.530565  6871 layer_factory.hpp:77] Creating layer inception_3a/5x5_reduce
I0403 18:22:39.530587  6871 net.cpp:91] Creating Layer inception_3a/5x5_reduce
I0403 18:22:39.530606  6871 net.cpp:425] inception_3a/5x5_reduce <- pool2/3x3_s2_pool2/3x3_s2_0_split_2
I0403 18:22:39.530627  6871 net.cpp:399] inception_3a/5x5_reduce -> inception_3a/5x5_reduce
I0403 18:22:39.531635  6871 net.cpp:141] Setting up inception_3a/5x5_reduce
I0403 18:22:39.531667  6871 net.cpp:148] Top shape: 24 16 28 28 (301056)
I0403 18:22:39.531687  6871 net.cpp:156] Memory required for data: 535880736
I0403 18:22:39.531705  6871 layer_factory.hpp:77] Creating layer inception_3a/relu_5x5_reduce
I0403 18:22:39.531724  6871 net.cpp:91] Creating Layer inception_3a/relu_5x5_reduce
I0403 18:22:39.531741  6871 net.cpp:425] inception_3a/relu_5x5_reduce <- inception_3a/5x5_reduce
I0403 18:22:39.531759  6871 net.cpp:386] inception_3a/relu_5x5_reduce -> inception_3a/5x5_reduce (in-place)
I0403 18:22:39.532068  6871 net.cpp:141] Setting up inception_3a/relu_5x5_reduce
I0403 18:22:39.532095  6871 net.cpp:148] Top shape: 24 16 28 28 (301056)
I0403 18:22:39.532111  6871 net.cpp:156] Memory required for data: 537084960
I0403 18:22:39.532126  6871 layer_factory.hpp:77] Creating layer inception_3a/5x5
I0403 18:22:39.532150  6871 net.cpp:91] Creating Layer inception_3a/5x5
I0403 18:22:39.532168  6871 net.cpp:425] inception_3a/5x5 <- inception_3a/5x5_reduce
I0403 18:22:39.532192  6871 net.cpp:399] inception_3a/5x5 -> inception_3a/5x5
I0403 18:22:39.533277  6871 net.cpp:141] Setting up inception_3a/5x5
I0403 18:22:39.533308  6871 net.cpp:148] Top shape: 24 32 28 28 (602112)
I0403 18:22:39.533324  6871 net.cpp:156] Memory required for data: 539493408
I0403 18:22:39.533344  6871 layer_factory.hpp:77] Creating layer inception_3a/relu_5x5
I0403 18:22:39.533367  6871 net.cpp:91] Creating Layer inception_3a/relu_5x5
I0403 18:22:39.533385  6871 net.cpp:425] inception_3a/relu_5x5 <- inception_3a/5x5
I0403 18:22:39.533403  6871 net.cpp:386] inception_3a/relu_5x5 -> inception_3a/5x5 (in-place)
I0403 18:22:39.533586  6871 net.cpp:141] Setting up inception_3a/relu_5x5
I0403 18:22:39.533614  6871 net.cpp:148] Top shape: 24 32 28 28 (602112)
I0403 18:22:39.533632  6871 net.cpp:156] Memory required for data: 541901856
I0403 18:22:39.533649  6871 layer_factory.hpp:77] Creating layer inception_3a/pool
I0403 18:22:39.533669  6871 net.cpp:91] Creating Layer inception_3a/pool
I0403 18:22:39.533704  6871 net.cpp:425] inception_3a/pool <- pool2/3x3_s2_pool2/3x3_s2_0_split_3
I0403 18:22:39.533726  6871 net.cpp:399] inception_3a/pool -> inception_3a/pool
I0403 18:22:39.533787  6871 net.cpp:141] Setting up inception_3a/pool
I0403 18:22:39.533812  6871 net.cpp:148] Top shape: 24 192 28 28 (3612672)
I0403 18:22:39.533826  6871 net.cpp:156] Memory required for data: 556352544
I0403 18:22:39.533843  6871 layer_factory.hpp:77] Creating layer inception_3a/pool_proj
I0403 18:22:39.533865  6871 net.cpp:91] Creating Layer inception_3a/pool_proj
I0403 18:22:39.533885  6871 net.cpp:425] inception_3a/pool_proj <- inception_3a/pool
I0403 18:22:39.533907  6871 net.cpp:399] inception_3a/pool_proj -> inception_3a/pool_proj
I0403 18:22:39.534926  6871 net.cpp:141] Setting up inception_3a/pool_proj
I0403 18:22:39.534956  6871 net.cpp:148] Top shape: 24 32 28 28 (602112)
I0403 18:22:39.534972  6871 net.cpp:156] Memory required for data: 558760992
I0403 18:22:39.534999  6871 layer_factory.hpp:77] Creating layer inception_3a/relu_pool_proj
I0403 18:22:39.535019  6871 net.cpp:91] Creating Layer inception_3a/relu_pool_proj
I0403 18:22:39.535037  6871 net.cpp:425] inception_3a/relu_pool_proj <- inception_3a/pool_proj
I0403 18:22:39.535055  6871 net.cpp:386] inception_3a/relu_pool_proj -> inception_3a/pool_proj (in-place)
I0403 18:22:39.535347  6871 net.cpp:141] Setting up inception_3a/relu_pool_proj
I0403 18:22:39.535375  6871 net.cpp:148] Top shape: 24 32 28 28 (602112)
I0403 18:22:39.535394  6871 net.cpp:156] Memory required for data: 561169440
I0403 18:22:39.535410  6871 layer_factory.hpp:77] Creating layer inception_3a/output
I0403 18:22:39.535430  6871 net.cpp:91] Creating Layer inception_3a/output
I0403 18:22:39.535447  6871 net.cpp:425] inception_3a/output <- inception_3a/1x1
I0403 18:22:39.535465  6871 net.cpp:425] inception_3a/output <- inception_3a/3x3
I0403 18:22:39.535481  6871 net.cpp:425] inception_3a/output <- inception_3a/5x5
I0403 18:22:39.535498  6871 net.cpp:425] inception_3a/output <- inception_3a/pool_proj
I0403 18:22:39.535516  6871 net.cpp:399] inception_3a/output -> inception_3a/output
I0403 18:22:39.535568  6871 net.cpp:141] Setting up inception_3a/output
I0403 18:22:39.535593  6871 net.cpp:148] Top shape: 24 256 28 28 (4816896)
I0403 18:22:39.535609  6871 net.cpp:156] Memory required for data: 580437024
I0403 18:22:39.535624  6871 layer_factory.hpp:77] Creating layer inception_3a/output_inception_3a/output_0_split
I0403 18:22:39.535641  6871 net.cpp:91] Creating Layer inception_3a/output_inception_3a/output_0_split
I0403 18:22:39.535658  6871 net.cpp:425] inception_3a/output_inception_3a/output_0_split <- inception_3a/output
I0403 18:22:39.535681  6871 net.cpp:399] inception_3a/output_inception_3a/output_0_split -> inception_3a/output_inception_3a/output_0_split_0
I0403 18:22:39.535702  6871 net.cpp:399] inception_3a/output_inception_3a/output_0_split -> inception_3a/output_inception_3a/output_0_split_1
I0403 18:22:39.535728  6871 net.cpp:399] inception_3a/output_inception_3a/output_0_split -> inception_3a/output_inception_3a/output_0_split_2
I0403 18:22:39.535753  6871 net.cpp:399] inception_3a/output_inception_3a/output_0_split -> inception_3a/output_inception_3a/output_0_split_3
I0403 18:22:39.535836  6871 net.cpp:141] Setting up inception_3a/output_inception_3a/output_0_split
I0403 18:22:39.535859  6871 net.cpp:148] Top shape: 24 256 28 28 (4816896)
I0403 18:22:39.535877  6871 net.cpp:148] Top shape: 24 256 28 28 (4816896)
I0403 18:22:39.535895  6871 net.cpp:148] Top shape: 24 256 28 28 (4816896)
I0403 18:22:39.535912  6871 net.cpp:148] Top shape: 24 256 28 28 (4816896)
I0403 18:22:39.535928  6871 net.cpp:156] Memory required for data: 657507360
I0403 18:22:39.535943  6871 layer_factory.hpp:77] Creating layer inception_3b/1x1
I0403 18:22:39.535966  6871 net.cpp:91] Creating Layer inception_3b/1x1
I0403 18:22:39.535984  6871 net.cpp:425] inception_3b/1x1 <- inception_3a/output_inception_3a/output_0_split_0
I0403 18:22:39.536006  6871 net.cpp:399] inception_3b/1x1 -> inception_3b/1x1
I0403 18:22:39.537202  6871 net.cpp:141] Setting up inception_3b/1x1
I0403 18:22:39.537248  6871 net.cpp:148] Top shape: 24 128 28 28 (2408448)
I0403 18:22:39.537267  6871 net.cpp:156] Memory required for data: 667141152
I0403 18:22:39.537287  6871 layer_factory.hpp:77] Creating layer inception_3b/relu_1x1
I0403 18:22:39.537309  6871 net.cpp:91] Creating Layer inception_3b/relu_1x1
I0403 18:22:39.537328  6871 net.cpp:425] inception_3b/relu_1x1 <- inception_3b/1x1
I0403 18:22:39.537346  6871 net.cpp:386] inception_3b/relu_1x1 -> inception_3b/1x1 (in-place)
I0403 18:22:39.537531  6871 net.cpp:141] Setting up inception_3b/relu_1x1
I0403 18:22:39.537560  6871 net.cpp:148] Top shape: 24 128 28 28 (2408448)
I0403 18:22:39.537577  6871 net.cpp:156] Memory required for data: 676774944
I0403 18:22:39.537593  6871 layer_factory.hpp:77] Creating layer inception_3b/3x3_reduce
I0403 18:22:39.537614  6871 net.cpp:91] Creating Layer inception_3b/3x3_reduce
I0403 18:22:39.537632  6871 net.cpp:425] inception_3b/3x3_reduce <- inception_3a/output_inception_3a/output_0_split_1
I0403 18:22:39.537655  6871 net.cpp:399] inception_3b/3x3_reduce -> inception_3b/3x3_reduce
I0403 18:22:39.538847  6871 net.cpp:141] Setting up inception_3b/3x3_reduce
I0403 18:22:39.538877  6871 net.cpp:148] Top shape: 24 128 28 28 (2408448)
I0403 18:22:39.538893  6871 net.cpp:156] Memory required for data: 686408736
I0403 18:22:39.538913  6871 layer_factory.hpp:77] Creating layer inception_3b/relu_3x3_reduce
I0403 18:22:39.538935  6871 net.cpp:91] Creating Layer inception_3b/relu_3x3_reduce
I0403 18:22:39.538954  6871 net.cpp:425] inception_3b/relu_3x3_reduce <- inception_3b/3x3_reduce
I0403 18:22:39.538974  6871 net.cpp:386] inception_3b/relu_3x3_reduce -> inception_3b/3x3_reduce (in-place)
I0403 18:22:39.539158  6871 net.cpp:141] Setting up inception_3b/relu_3x3_reduce
I0403 18:22:39.539185  6871 net.cpp:148] Top shape: 24 128 28 28 (2408448)
I0403 18:22:39.539201  6871 net.cpp:156] Memory required for data: 696042528
I0403 18:22:39.539216  6871 layer_factory.hpp:77] Creating layer inception_3b/3x3
I0403 18:22:39.539248  6871 net.cpp:91] Creating Layer inception_3b/3x3
I0403 18:22:39.539268  6871 net.cpp:425] inception_3b/3x3 <- inception_3b/3x3_reduce
I0403 18:22:39.539293  6871 net.cpp:399] inception_3b/3x3 -> inception_3b/3x3
I0403 18:22:39.542373  6871 net.cpp:141] Setting up inception_3b/3x3
I0403 18:22:39.542403  6871 net.cpp:148] Top shape: 24 192 28 28 (3612672)
I0403 18:22:39.542424  6871 net.cpp:156] Memory required for data: 710493216
I0403 18:22:39.542444  6871 layer_factory.hpp:77] Creating layer inception_3b/relu_3x3
I0403 18:22:39.542464  6871 net.cpp:91] Creating Layer inception_3b/relu_3x3
I0403 18:22:39.542480  6871 net.cpp:425] inception_3b/relu_3x3 <- inception_3b/3x3
I0403 18:22:39.542500  6871 net.cpp:386] inception_3b/relu_3x3 -> inception_3b/3x3 (in-place)
I0403 18:22:39.542789  6871 net.cpp:141] Setting up inception_3b/relu_3x3
I0403 18:22:39.542817  6871 net.cpp:148] Top shape: 24 192 28 28 (3612672)
I0403 18:22:39.542836  6871 net.cpp:156] Memory required for data: 724943904
I0403 18:22:39.542851  6871 layer_factory.hpp:77] Creating layer inception_3b/5x5_reduce
I0403 18:22:39.542872  6871 net.cpp:91] Creating Layer inception_3b/5x5_reduce
I0403 18:22:39.542891  6871 net.cpp:425] inception_3b/5x5_reduce <- inception_3a/output_inception_3a/output_0_split_2
I0403 18:22:39.542913  6871 net.cpp:399] inception_3b/5x5_reduce -> inception_3b/5x5_reduce
I0403 18:22:39.543962  6871 net.cpp:141] Setting up inception_3b/5x5_reduce
I0403 18:22:39.543992  6871 net.cpp:148] Top shape: 24 32 28 28 (602112)
I0403 18:22:39.544006  6871 net.cpp:156] Memory required for data: 727352352
I0403 18:22:39.544025  6871 layer_factory.hpp:77] Creating layer inception_3b/relu_5x5_reduce
I0403 18:22:39.544046  6871 net.cpp:91] Creating Layer inception_3b/relu_5x5_reduce
I0403 18:22:39.544064  6871 net.cpp:425] inception_3b/relu_5x5_reduce <- inception_3b/5x5_reduce
I0403 18:22:39.544082  6871 net.cpp:386] inception_3b/relu_5x5_reduce -> inception_3b/5x5_reduce (in-place)
I0403 18:22:39.544287  6871 net.cpp:141] Setting up inception_3b/relu_5x5_reduce
I0403 18:22:39.544317  6871 net.cpp:148] Top shape: 24 32 28 28 (602112)
I0403 18:22:39.544332  6871 net.cpp:156] Memory required for data: 729760800
I0403 18:22:39.544348  6871 layer_factory.hpp:77] Creating layer inception_3b/5x5
I0403 18:22:39.544370  6871 net.cpp:91] Creating Layer inception_3b/5x5
I0403 18:22:39.544389  6871 net.cpp:425] inception_3b/5x5 <- inception_3b/5x5_reduce
I0403 18:22:39.544409  6871 net.cpp:399] inception_3b/5x5 -> inception_3b/5x5
I0403 18:22:39.546439  6871 net.cpp:141] Setting up inception_3b/5x5
I0403 18:22:39.546468  6871 net.cpp:148] Top shape: 24 96 28 28 (1806336)
I0403 18:22:39.546484  6871 net.cpp:156] Memory required for data: 736986144
I0403 18:22:39.546504  6871 layer_factory.hpp:77] Creating layer inception_3b/relu_5x5
I0403 18:22:39.546525  6871 net.cpp:91] Creating Layer inception_3b/relu_5x5
I0403 18:22:39.546543  6871 net.cpp:425] inception_3b/relu_5x5 <- inception_3b/5x5
I0403 18:22:39.546561  6871 net.cpp:386] inception_3b/relu_5x5 -> inception_3b/5x5 (in-place)
I0403 18:22:39.546763  6871 net.cpp:141] Setting up inception_3b/relu_5x5
I0403 18:22:39.546789  6871 net.cpp:148] Top shape: 24 96 28 28 (1806336)
I0403 18:22:39.546805  6871 net.cpp:156] Memory required for data: 744211488
I0403 18:22:39.546820  6871 layer_factory.hpp:77] Creating layer inception_3b/pool
I0403 18:22:39.546838  6871 net.cpp:91] Creating Layer inception_3b/pool
I0403 18:22:39.546855  6871 net.cpp:425] inception_3b/pool <- inception_3a/output_inception_3a/output_0_split_3
I0403 18:22:39.546875  6871 net.cpp:399] inception_3b/pool -> inception_3b/pool
I0403 18:22:39.546933  6871 net.cpp:141] Setting up inception_3b/pool
I0403 18:22:39.546957  6871 net.cpp:148] Top shape: 24 256 28 28 (4816896)
I0403 18:22:39.546972  6871 net.cpp:156] Memory required for data: 763479072
I0403 18:22:39.546986  6871 layer_factory.hpp:77] Creating layer inception_3b/pool_proj
I0403 18:22:39.547010  6871 net.cpp:91] Creating Layer inception_3b/pool_proj
I0403 18:22:39.547027  6871 net.cpp:425] inception_3b/pool_proj <- inception_3b/pool
I0403 18:22:39.547049  6871 net.cpp:399] inception_3b/pool_proj -> inception_3b/pool_proj
I0403 18:22:39.548171  6871 net.cpp:141] Setting up inception_3b/pool_proj
I0403 18:22:39.548202  6871 net.cpp:148] Top shape: 24 64 28 28 (1204224)
I0403 18:22:39.548218  6871 net.cpp:156] Memory required for data: 768295968
I0403 18:22:39.548236  6871 layer_factory.hpp:77] Creating layer inception_3b/relu_pool_proj
I0403 18:22:39.548260  6871 net.cpp:91] Creating Layer inception_3b/relu_pool_proj
I0403 18:22:39.548277  6871 net.cpp:425] inception_3b/relu_pool_proj <- inception_3b/pool_proj
I0403 18:22:39.548298  6871 net.cpp:386] inception_3b/relu_pool_proj -> inception_3b/pool_proj (in-place)
I0403 18:22:39.548697  6871 net.cpp:141] Setting up inception_3b/relu_pool_proj
I0403 18:22:39.548727  6871 net.cpp:148] Top shape: 24 64 28 28 (1204224)
I0403 18:22:39.548743  6871 net.cpp:156] Memory required for data: 773112864
I0403 18:22:39.548758  6871 layer_factory.hpp:77] Creating layer inception_3b/output
I0403 18:22:39.548777  6871 net.cpp:91] Creating Layer inception_3b/output
I0403 18:22:39.548794  6871 net.cpp:425] inception_3b/output <- inception_3b/1x1
I0403 18:22:39.548811  6871 net.cpp:425] inception_3b/output <- inception_3b/3x3
I0403 18:22:39.548827  6871 net.cpp:425] inception_3b/output <- inception_3b/5x5
I0403 18:22:39.548843  6871 net.cpp:425] inception_3b/output <- inception_3b/pool_proj
I0403 18:22:39.548861  6871 net.cpp:399] inception_3b/output -> inception_3b/output
I0403 18:22:39.548907  6871 net.cpp:141] Setting up inception_3b/output
I0403 18:22:39.548930  6871 net.cpp:148] Top shape: 24 480 28 28 (9031680)
I0403 18:22:39.548946  6871 net.cpp:156] Memory required for data: 809239584
I0403 18:22:39.548962  6871 layer_factory.hpp:77] Creating layer pool3/3x3_s2
I0403 18:22:39.548981  6871 net.cpp:91] Creating Layer pool3/3x3_s2
I0403 18:22:39.548998  6871 net.cpp:425] pool3/3x3_s2 <- inception_3b/output
I0403 18:22:39.549032  6871 net.cpp:399] pool3/3x3_s2 -> pool3/3x3_s2
I0403 18:22:39.549096  6871 net.cpp:141] Setting up pool3/3x3_s2
I0403 18:22:39.549120  6871 net.cpp:148] Top shape: 24 480 14 14 (2257920)
I0403 18:22:39.549135  6871 net.cpp:156] Memory required for data: 818271264
I0403 18:22:39.549150  6871 layer_factory.hpp:77] Creating layer pool3/3x3_s2_pool3/3x3_s2_0_split
I0403 18:22:39.549168  6871 net.cpp:91] Creating Layer pool3/3x3_s2_pool3/3x3_s2_0_split
I0403 18:22:39.549185  6871 net.cpp:425] pool3/3x3_s2_pool3/3x3_s2_0_split <- pool3/3x3_s2
I0403 18:22:39.549206  6871 net.cpp:399] pool3/3x3_s2_pool3/3x3_s2_0_split -> pool3/3x3_s2_pool3/3x3_s2_0_split_0
I0403 18:22:39.549226  6871 net.cpp:399] pool3/3x3_s2_pool3/3x3_s2_0_split -> pool3/3x3_s2_pool3/3x3_s2_0_split_1
I0403 18:22:39.549250  6871 net.cpp:399] pool3/3x3_s2_pool3/3x3_s2_0_split -> pool3/3x3_s2_pool3/3x3_s2_0_split_2
I0403 18:22:39.549271  6871 net.cpp:399] pool3/3x3_s2_pool3/3x3_s2_0_split -> pool3/3x3_s2_pool3/3x3_s2_0_split_3
I0403 18:22:39.549350  6871 net.cpp:141] Setting up pool3/3x3_s2_pool3/3x3_s2_0_split
I0403 18:22:39.549376  6871 net.cpp:148] Top shape: 24 480 14 14 (2257920)
I0403 18:22:39.549394  6871 net.cpp:148] Top shape: 24 480 14 14 (2257920)
I0403 18:22:39.549412  6871 net.cpp:148] Top shape: 24 480 14 14 (2257920)
I0403 18:22:39.549427  6871 net.cpp:148] Top shape: 24 480 14 14 (2257920)
I0403 18:22:39.549442  6871 net.cpp:156] Memory required for data: 854397984
I0403 18:22:39.549456  6871 layer_factory.hpp:77] Creating layer inception_4a/1x1
I0403 18:22:39.549479  6871 net.cpp:91] Creating Layer inception_4a/1x1
I0403 18:22:39.549496  6871 net.cpp:425] inception_4a/1x1 <- pool3/3x3_s2_pool3/3x3_s2_0_split_0
I0403 18:22:39.549517  6871 net.cpp:399] inception_4a/1x1 -> inception_4a/1x1
I0403 18:22:39.551122  6871 net.cpp:141] Setting up inception_4a/1x1
I0403 18:22:39.551151  6871 net.cpp:148] Top shape: 24 192 14 14 (903168)
I0403 18:22:39.551167  6871 net.cpp:156] Memory required for data: 858010656
I0403 18:22:39.551187  6871 layer_factory.hpp:77] Creating layer inception_4a/relu_1x1
I0403 18:22:39.551205  6871 net.cpp:91] Creating Layer inception_4a/relu_1x1
I0403 18:22:39.551221  6871 net.cpp:425] inception_4a/relu_1x1 <- inception_4a/1x1
I0403 18:22:39.551245  6871 net.cpp:386] inception_4a/relu_1x1 -> inception_4a/1x1 (in-place)
I0403 18:22:39.551434  6871 net.cpp:141] Setting up inception_4a/relu_1x1
I0403 18:22:39.551458  6871 net.cpp:148] Top shape: 24 192 14 14 (903168)
I0403 18:22:39.551475  6871 net.cpp:156] Memory required for data: 861623328
I0403 18:22:39.551489  6871 layer_factory.hpp:77] Creating layer inception_4a/3x3_reduce
I0403 18:22:39.551513  6871 net.cpp:91] Creating Layer inception_4a/3x3_reduce
I0403 18:22:39.551532  6871 net.cpp:425] inception_4a/3x3_reduce <- pool3/3x3_s2_pool3/3x3_s2_0_split_1
I0403 18:22:39.551553  6871 net.cpp:399] inception_4a/3x3_reduce -> inception_4a/3x3_reduce
I0403 18:22:39.552901  6871 net.cpp:141] Setting up inception_4a/3x3_reduce
I0403 18:22:39.552930  6871 net.cpp:148] Top shape: 24 96 14 14 (451584)
I0403 18:22:39.552947  6871 net.cpp:156] Memory required for data: 863429664
I0403 18:22:39.552973  6871 layer_factory.hpp:77] Creating layer inception_4a/relu_3x3_reduce
I0403 18:22:39.552994  6871 net.cpp:91] Creating Layer inception_4a/relu_3x3_reduce
I0403 18:22:39.553009  6871 net.cpp:425] inception_4a/relu_3x3_reduce <- inception_4a/3x3_reduce
I0403 18:22:39.553030  6871 net.cpp:386] inception_4a/relu_3x3_reduce -> inception_4a/3x3_reduce (in-place)
I0403 18:22:39.553213  6871 net.cpp:141] Setting up inception_4a/relu_3x3_reduce
I0403 18:22:39.553243  6871 net.cpp:148] Top shape: 24 96 14 14 (451584)
I0403 18:22:39.553259  6871 net.cpp:156] Memory required for data: 865236000
I0403 18:22:39.553275  6871 layer_factory.hpp:77] Creating layer inception_4a/3x3
I0403 18:22:39.553297  6871 net.cpp:91] Creating Layer inception_4a/3x3
I0403 18:22:39.553315  6871 net.cpp:425] inception_4a/3x3 <- inception_4a/3x3_reduce
I0403 18:22:39.553338  6871 net.cpp:399] inception_4a/3x3 -> inception_4a/3x3
I0403 18:22:39.556087  6871 net.cpp:141] Setting up inception_4a/3x3
I0403 18:22:39.556115  6871 net.cpp:148] Top shape: 24 208 14 14 (978432)
I0403 18:22:39.556133  6871 net.cpp:156] Memory required for data: 869149728
I0403 18:22:39.556151  6871 layer_factory.hpp:77] Creating layer inception_4a/relu_3x3
I0403 18:22:39.556171  6871 net.cpp:91] Creating Layer inception_4a/relu_3x3
I0403 18:22:39.556190  6871 net.cpp:425] inception_4a/relu_3x3 <- inception_4a/3x3
I0403 18:22:39.556207  6871 net.cpp:386] inception_4a/relu_3x3 -> inception_4a/3x3 (in-place)
I0403 18:22:39.556495  6871 net.cpp:141] Setting up inception_4a/relu_3x3
I0403 18:22:39.556524  6871 net.cpp:148] Top shape: 24 208 14 14 (978432)
I0403 18:22:39.556540  6871 net.cpp:156] Memory required for data: 873063456
I0403 18:22:39.556555  6871 layer_factory.hpp:77] Creating layer inception_4a/5x5_reduce
I0403 18:22:39.556578  6871 net.cpp:91] Creating Layer inception_4a/5x5_reduce
I0403 18:22:39.556596  6871 net.cpp:425] inception_4a/5x5_reduce <- pool3/3x3_s2_pool3/3x3_s2_0_split_2
I0403 18:22:39.556618  6871 net.cpp:399] inception_4a/5x5_reduce -> inception_4a/5x5_reduce
I0403 18:22:39.557668  6871 net.cpp:141] Setting up inception_4a/5x5_reduce
I0403 18:22:39.557696  6871 net.cpp:148] Top shape: 24 16 14 14 (75264)
I0403 18:22:39.557713  6871 net.cpp:156] Memory required for data: 873364512
I0403 18:22:39.557731  6871 layer_factory.hpp:77] Creating layer inception_4a/relu_5x5_reduce
I0403 18:22:39.557754  6871 net.cpp:91] Creating Layer inception_4a/relu_5x5_reduce
I0403 18:22:39.557770  6871 net.cpp:425] inception_4a/relu_5x5_reduce <- inception_4a/5x5_reduce
I0403 18:22:39.557790  6871 net.cpp:386] inception_4a/relu_5x5_reduce -> inception_4a/5x5_reduce (in-place)
I0403 18:22:39.557974  6871 net.cpp:141] Setting up inception_4a/relu_5x5_reduce
I0403 18:22:39.558003  6871 net.cpp:148] Top shape: 24 16 14 14 (75264)
I0403 18:22:39.558019  6871 net.cpp:156] Memory required for data: 873665568
I0403 18:22:39.558035  6871 layer_factory.hpp:77] Creating layer inception_4a/5x5
I0403 18:22:39.558058  6871 net.cpp:91] Creating Layer inception_4a/5x5
I0403 18:22:39.558076  6871 net.cpp:425] inception_4a/5x5 <- inception_4a/5x5_reduce
I0403 18:22:39.558096  6871 net.cpp:399] inception_4a/5x5 -> inception_4a/5x5
I0403 18:22:39.559262  6871 net.cpp:141] Setting up inception_4a/5x5
I0403 18:22:39.559293  6871 net.cpp:148] Top shape: 24 48 14 14 (225792)
I0403 18:22:39.559310  6871 net.cpp:156] Memory required for data: 874568736
I0403 18:22:39.559330  6871 layer_factory.hpp:77] Creating layer inception_4a/relu_5x5
I0403 18:22:39.559348  6871 net.cpp:91] Creating Layer inception_4a/relu_5x5
I0403 18:22:39.559365  6871 net.cpp:425] inception_4a/relu_5x5 <- inception_4a/5x5
I0403 18:22:39.559386  6871 net.cpp:386] inception_4a/relu_5x5 -> inception_4a/5x5 (in-place)
I0403 18:22:39.559581  6871 net.cpp:141] Setting up inception_4a/relu_5x5
I0403 18:22:39.559608  6871 net.cpp:148] Top shape: 24 48 14 14 (225792)
I0403 18:22:39.559623  6871 net.cpp:156] Memory required for data: 875471904
I0403 18:22:39.559639  6871 layer_factory.hpp:77] Creating layer inception_4a/pool
I0403 18:22:39.559659  6871 net.cpp:91] Creating Layer inception_4a/pool
I0403 18:22:39.559674  6871 net.cpp:425] inception_4a/pool <- pool3/3x3_s2_pool3/3x3_s2_0_split_3
I0403 18:22:39.559696  6871 net.cpp:399] inception_4a/pool -> inception_4a/pool
I0403 18:22:39.559762  6871 net.cpp:141] Setting up inception_4a/pool
I0403 18:22:39.559787  6871 net.cpp:148] Top shape: 24 480 14 14 (2257920)
I0403 18:22:39.559803  6871 net.cpp:156] Memory required for data: 884503584
I0403 18:22:39.559820  6871 layer_factory.hpp:77] Creating layer inception_4a/pool_proj
I0403 18:22:39.559845  6871 net.cpp:91] Creating Layer inception_4a/pool_proj
I0403 18:22:39.559864  6871 net.cpp:425] inception_4a/pool_proj <- inception_4a/pool
I0403 18:22:39.559887  6871 net.cpp:399] inception_4a/pool_proj -> inception_4a/pool_proj
I0403 18:22:39.561123  6871 net.cpp:141] Setting up inception_4a/pool_proj
I0403 18:22:39.561154  6871 net.cpp:148] Top shape: 24 64 14 14 (301056)
I0403 18:22:39.561188  6871 net.cpp:156] Memory required for data: 885707808
I0403 18:22:39.561209  6871 layer_factory.hpp:77] Creating layer inception_4a/relu_pool_proj
I0403 18:22:39.561229  6871 net.cpp:91] Creating Layer inception_4a/relu_pool_proj
I0403 18:22:39.561251  6871 net.cpp:425] inception_4a/relu_pool_proj <- inception_4a/pool_proj
I0403 18:22:39.561275  6871 net.cpp:386] inception_4a/relu_pool_proj -> inception_4a/pool_proj (in-place)
I0403 18:22:39.561575  6871 net.cpp:141] Setting up inception_4a/relu_pool_proj
I0403 18:22:39.561604  6871 net.cpp:148] Top shape: 24 64 14 14 (301056)
I0403 18:22:39.561619  6871 net.cpp:156] Memory required for data: 886912032
I0403 18:22:39.561635  6871 layer_factory.hpp:77] Creating layer inception_4a/output
I0403 18:22:39.561655  6871 net.cpp:91] Creating Layer inception_4a/output
I0403 18:22:39.561671  6871 net.cpp:425] inception_4a/output <- inception_4a/1x1
I0403 18:22:39.561689  6871 net.cpp:425] inception_4a/output <- inception_4a/3x3
I0403 18:22:39.561707  6871 net.cpp:425] inception_4a/output <- inception_4a/5x5
I0403 18:22:39.561723  6871 net.cpp:425] inception_4a/output <- inception_4a/pool_proj
I0403 18:22:39.561744  6871 net.cpp:399] inception_4a/output -> inception_4a/output
I0403 18:22:39.561791  6871 net.cpp:141] Setting up inception_4a/output
I0403 18:22:39.561818  6871 net.cpp:148] Top shape: 24 512 14 14 (2408448)
I0403 18:22:39.561836  6871 net.cpp:156] Memory required for data: 896545824
I0403 18:22:39.561851  6871 layer_factory.hpp:77] Creating layer inception_4a/output_inception_4a/output_0_split
I0403 18:22:39.561871  6871 net.cpp:91] Creating Layer inception_4a/output_inception_4a/output_0_split
I0403 18:22:39.561887  6871 net.cpp:425] inception_4a/output_inception_4a/output_0_split <- inception_4a/output
I0403 18:22:39.561907  6871 net.cpp:399] inception_4a/output_inception_4a/output_0_split -> inception_4a/output_inception_4a/output_0_split_0
I0403 18:22:39.561930  6871 net.cpp:399] inception_4a/output_inception_4a/output_0_split -> inception_4a/output_inception_4a/output_0_split_1
I0403 18:22:39.561954  6871 net.cpp:399] inception_4a/output_inception_4a/output_0_split -> inception_4a/output_inception_4a/output_0_split_2
I0403 18:22:39.561977  6871 net.cpp:399] inception_4a/output_inception_4a/output_0_split -> inception_4a/output_inception_4a/output_0_split_3
I0403 18:22:39.561998  6871 net.cpp:399] inception_4a/output_inception_4a/output_0_split -> inception_4a/output_inception_4a/output_0_split_4
I0403 18:22:39.562096  6871 net.cpp:141] Setting up inception_4a/output_inception_4a/output_0_split
I0403 18:22:39.562120  6871 net.cpp:148] Top shape: 24 512 14 14 (2408448)
I0403 18:22:39.562139  6871 net.cpp:148] Top shape: 24 512 14 14 (2408448)
I0403 18:22:39.562155  6871 net.cpp:148] Top shape: 24 512 14 14 (2408448)
I0403 18:22:39.562171  6871 net.cpp:148] Top shape: 24 512 14 14 (2408448)
I0403 18:22:39.562189  6871 net.cpp:148] Top shape: 24 512 14 14 (2408448)
I0403 18:22:39.562203  6871 net.cpp:156] Memory required for data: 944714784
I0403 18:22:39.562219  6871 layer_factory.hpp:77] Creating layer loss1/ave_pool
I0403 18:22:39.562250  6871 net.cpp:91] Creating Layer loss1/ave_pool
I0403 18:22:39.562271  6871 net.cpp:425] loss1/ave_pool <- inception_4a/output_inception_4a/output_0_split_0
I0403 18:22:39.562290  6871 net.cpp:399] loss1/ave_pool -> loss1/ave_pool
I0403 18:22:39.562520  6871 net.cpp:141] Setting up loss1/ave_pool
I0403 18:22:39.562547  6871 net.cpp:148] Top shape: 24 512 4 4 (196608)
I0403 18:22:39.562562  6871 net.cpp:156] Memory required for data: 945501216
I0403 18:22:39.562579  6871 layer_factory.hpp:77] Creating layer loss1/conv
I0403 18:22:39.562602  6871 net.cpp:91] Creating Layer loss1/conv
I0403 18:22:39.562621  6871 net.cpp:425] loss1/conv <- loss1/ave_pool
I0403 18:22:39.562644  6871 net.cpp:399] loss1/conv -> loss1/conv
I0403 18:22:39.564158  6871 net.cpp:141] Setting up loss1/conv
I0403 18:22:39.564188  6871 net.cpp:148] Top shape: 24 128 4 4 (49152)
I0403 18:22:39.564220  6871 net.cpp:156] Memory required for data: 945697824
I0403 18:22:39.564245  6871 layer_factory.hpp:77] Creating layer loss1/relu_conv
I0403 18:22:39.564268  6871 net.cpp:91] Creating Layer loss1/relu_conv
I0403 18:22:39.564287  6871 net.cpp:425] loss1/relu_conv <- loss1/conv
I0403 18:22:39.564306  6871 net.cpp:386] loss1/relu_conv -> loss1/conv (in-place)
I0403 18:22:39.564617  6871 net.cpp:141] Setting up loss1/relu_conv
I0403 18:22:39.564646  6871 net.cpp:148] Top shape: 24 128 4 4 (49152)
I0403 18:22:39.564661  6871 net.cpp:156] Memory required for data: 945894432
I0403 18:22:39.564677  6871 layer_factory.hpp:77] Creating layer loss1/fc
I0403 18:22:39.564702  6871 net.cpp:91] Creating Layer loss1/fc
I0403 18:22:39.564721  6871 net.cpp:425] loss1/fc <- loss1/conv
I0403 18:22:39.564740  6871 net.cpp:399] loss1/fc -> loss1/fc
I0403 18:22:39.583070  6871 net.cpp:141] Setting up loss1/fc
I0403 18:22:39.583111  6871 net.cpp:148] Top shape: 24 1024 (24576)
I0403 18:22:39.583125  6871 net.cpp:156] Memory required for data: 945992736
I0403 18:22:39.583143  6871 layer_factory.hpp:77] Creating layer loss1/relu_fc
I0403 18:22:39.583160  6871 net.cpp:91] Creating Layer loss1/relu_fc
I0403 18:22:39.583176  6871 net.cpp:425] loss1/relu_fc <- loss1/fc
I0403 18:22:39.583195  6871 net.cpp:386] loss1/relu_fc -> loss1/fc (in-place)
I0403 18:22:39.583396  6871 net.cpp:141] Setting up loss1/relu_fc
I0403 18:22:39.583420  6871 net.cpp:148] Top shape: 24 1024 (24576)
I0403 18:22:39.583436  6871 net.cpp:156] Memory required for data: 946091040
I0403 18:22:39.583449  6871 layer_factory.hpp:77] Creating layer loss1/drop_fc
I0403 18:22:39.583477  6871 net.cpp:91] Creating Layer loss1/drop_fc
I0403 18:22:39.583495  6871 net.cpp:425] loss1/drop_fc <- loss1/fc
I0403 18:22:39.583513  6871 net.cpp:386] loss1/drop_fc -> loss1/fc (in-place)
I0403 18:22:39.583561  6871 net.cpp:141] Setting up loss1/drop_fc
I0403 18:22:39.583587  6871 net.cpp:148] Top shape: 24 1024 (24576)
I0403 18:22:39.583602  6871 net.cpp:156] Memory required for data: 946189344
I0403 18:22:39.583617  6871 layer_factory.hpp:77] Creating layer loss1/classifier_plantvillage
I0403 18:22:39.583636  6871 net.cpp:91] Creating Layer loss1/classifier_plantvillage
I0403 18:22:39.583652  6871 net.cpp:425] loss1/classifier_plantvillage <- loss1/fc
I0403 18:22:39.583670  6871 net.cpp:399] loss1/classifier_plantvillage -> loss1/classifier_plantvillage
I0403 18:22:39.584575  6871 net.cpp:141] Setting up loss1/classifier_plantvillage
I0403 18:22:39.584602  6871 net.cpp:148] Top shape: 24 38 (912)
I0403 18:22:39.584616  6871 net.cpp:156] Memory required for data: 946192992
I0403 18:22:39.584635  6871 layer_factory.hpp:77] Creating layer loss1/classifier_plantvillage_loss1/classifier_plantvillage_0_split
I0403 18:22:39.584656  6871 net.cpp:91] Creating Layer loss1/classifier_plantvillage_loss1/classifier_plantvillage_0_split
I0403 18:22:39.584672  6871 net.cpp:425] loss1/classifier_plantvillage_loss1/classifier_plantvillage_0_split <- loss1/classifier_plantvillage
I0403 18:22:39.584689  6871 net.cpp:399] loss1/classifier_plantvillage_loss1/classifier_plantvillage_0_split -> loss1/classifier_plantvillage_loss1/classifier_plantvillage_0_split_0
I0403 18:22:39.584710  6871 net.cpp:399] loss1/classifier_plantvillage_loss1/classifier_plantvillage_0_split -> loss1/classifier_plantvillage_loss1/classifier_plantvillage_0_split_1
I0403 18:22:39.584730  6871 net.cpp:399] loss1/classifier_plantvillage_loss1/classifier_plantvillage_0_split -> loss1/classifier_plantvillage_loss1/classifier_plantvillage_0_split_2
I0403 18:22:39.584794  6871 net.cpp:141] Setting up loss1/classifier_plantvillage_loss1/classifier_plantvillage_0_split
I0403 18:22:39.584820  6871 net.cpp:148] Top shape: 24 38 (912)
I0403 18:22:39.584836  6871 net.cpp:148] Top shape: 24 38 (912)
I0403 18:22:39.584851  6871 net.cpp:148] Top shape: 24 38 (912)
I0403 18:22:39.584864  6871 net.cpp:156] Memory required for data: 946203936
I0403 18:22:39.584878  6871 layer_factory.hpp:77] Creating layer inception_4b/1x1
I0403 18:22:39.584898  6871 net.cpp:91] Creating Layer inception_4b/1x1
I0403 18:22:39.584933  6871 net.cpp:425] inception_4b/1x1 <- inception_4a/output_inception_4a/output_0_split_1
I0403 18:22:39.584954  6871 net.cpp:399] inception_4b/1x1 -> inception_4b/1x1
I0403 18:22:39.586561  6871 net.cpp:141] Setting up inception_4b/1x1
I0403 18:22:39.586588  6871 net.cpp:148] Top shape: 24 160 14 14 (752640)
I0403 18:22:39.586603  6871 net.cpp:156] Memory required for data: 949214496
I0403 18:22:39.586622  6871 layer_factory.hpp:77] Creating layer inception_4b/relu_1x1
I0403 18:22:39.586642  6871 net.cpp:91] Creating Layer inception_4b/relu_1x1
I0403 18:22:39.586659  6871 net.cpp:425] inception_4b/relu_1x1 <- inception_4b/1x1
I0403 18:22:39.586675  6871 net.cpp:386] inception_4b/relu_1x1 -> inception_4b/1x1 (in-place)
I0403 18:22:39.586855  6871 net.cpp:141] Setting up inception_4b/relu_1x1
I0403 18:22:39.586882  6871 net.cpp:148] Top shape: 24 160 14 14 (752640)
I0403 18:22:39.586897  6871 net.cpp:156] Memory required for data: 952225056
I0403 18:22:39.586912  6871 layer_factory.hpp:77] Creating layer inception_4b/3x3_reduce
I0403 18:22:39.586935  6871 net.cpp:91] Creating Layer inception_4b/3x3_reduce
I0403 18:22:39.586951  6871 net.cpp:425] inception_4b/3x3_reduce <- inception_4a/output_inception_4a/output_0_split_2
I0403 18:22:39.586971  6871 net.cpp:399] inception_4b/3x3_reduce -> inception_4b/3x3_reduce
I0403 18:22:39.588299  6871 net.cpp:141] Setting up inception_4b/3x3_reduce
I0403 18:22:39.588328  6871 net.cpp:148] Top shape: 24 112 14 14 (526848)
I0403 18:22:39.588345  6871 net.cpp:156] Memory required for data: 954332448
I0403 18:22:39.588363  6871 layer_factory.hpp:77] Creating layer inception_4b/relu_3x3_reduce
I0403 18:22:39.588382  6871 net.cpp:91] Creating Layer inception_4b/relu_3x3_reduce
I0403 18:22:39.588397  6871 net.cpp:425] inception_4b/relu_3x3_reduce <- inception_4b/3x3_reduce
I0403 18:22:39.588415  6871 net.cpp:386] inception_4b/relu_3x3_reduce -> inception_4b/3x3_reduce (in-place)
I0403 18:22:39.588690  6871 net.cpp:141] Setting up inception_4b/relu_3x3_reduce
I0403 18:22:39.588717  6871 net.cpp:148] Top shape: 24 112 14 14 (526848)
I0403 18:22:39.588734  6871 net.cpp:156] Memory required for data: 956439840
I0403 18:22:39.588749  6871 layer_factory.hpp:77] Creating layer inception_4b/3x3
I0403 18:22:39.588770  6871 net.cpp:91] Creating Layer inception_4b/3x3
I0403 18:22:39.588788  6871 net.cpp:425] inception_4b/3x3 <- inception_4b/3x3_reduce
I0403 18:22:39.588806  6871 net.cpp:399] inception_4b/3x3 -> inception_4b/3x3
I0403 18:22:39.591728  6871 net.cpp:141] Setting up inception_4b/3x3
I0403 18:22:39.591758  6871 net.cpp:148] Top shape: 24 224 14 14 (1053696)
I0403 18:22:39.591773  6871 net.cpp:156] Memory required for data: 960654624
I0403 18:22:39.591791  6871 layer_factory.hpp:77] Creating layer inception_4b/relu_3x3
I0403 18:22:39.591809  6871 net.cpp:91] Creating Layer inception_4b/relu_3x3
I0403 18:22:39.591827  6871 net.cpp:425] inception_4b/relu_3x3 <- inception_4b/3x3
I0403 18:22:39.591845  6871 net.cpp:386] inception_4b/relu_3x3 -> inception_4b/3x3 (in-place)
I0403 18:22:39.592020  6871 net.cpp:141] Setting up inception_4b/relu_3x3
I0403 18:22:39.592044  6871 net.cpp:148] Top shape: 24 224 14 14 (1053696)
I0403 18:22:39.592059  6871 net.cpp:156] Memory required for data: 964869408
I0403 18:22:39.592073  6871 layer_factory.hpp:77] Creating layer inception_4b/5x5_reduce
I0403 18:22:39.592094  6871 net.cpp:91] Creating Layer inception_4b/5x5_reduce
I0403 18:22:39.592111  6871 net.cpp:425] inception_4b/5x5_reduce <- inception_4a/output_inception_4a/output_0_split_3
I0403 18:22:39.592133  6871 net.cpp:399] inception_4b/5x5_reduce -> inception_4b/5x5_reduce
I0403 18:22:39.593206  6871 net.cpp:141] Setting up inception_4b/5x5_reduce
I0403 18:22:39.593233  6871 net.cpp:148] Top shape: 24 24 14 14 (112896)
I0403 18:22:39.593252  6871 net.cpp:156] Memory required for data: 965320992
I0403 18:22:39.593271  6871 layer_factory.hpp:77] Creating layer inception_4b/relu_5x5_reduce
I0403 18:22:39.593292  6871 net.cpp:91] Creating Layer inception_4b/relu_5x5_reduce
I0403 18:22:39.593323  6871 net.cpp:425] inception_4b/relu_5x5_reduce <- inception_4b/5x5_reduce
I0403 18:22:39.593343  6871 net.cpp:386] inception_4b/relu_5x5_reduce -> inception_4b/5x5_reduce (in-place)
I0403 18:22:39.593523  6871 net.cpp:141] Setting up inception_4b/relu_5x5_reduce
I0403 18:22:39.593547  6871 net.cpp:148] Top shape: 24 24 14 14 (112896)
I0403 18:22:39.593560  6871 net.cpp:156] Memory required for data: 965772576
I0403 18:22:39.593575  6871 layer_factory.hpp:77] Creating layer inception_4b/5x5
I0403 18:22:39.593597  6871 net.cpp:91] Creating Layer inception_4b/5x5
I0403 18:22:39.593616  6871 net.cpp:425] inception_4b/5x5 <- inception_4b/5x5_reduce
I0403 18:22:39.593636  6871 net.cpp:399] inception_4b/5x5 -> inception_4b/5x5
I0403 18:22:39.594830  6871 net.cpp:141] Setting up inception_4b/5x5
I0403 18:22:39.594857  6871 net.cpp:148] Top shape: 24 64 14 14 (301056)
I0403 18:22:39.594872  6871 net.cpp:156] Memory required for data: 966976800
I0403 18:22:39.594890  6871 layer_factory.hpp:77] Creating layer inception_4b/relu_5x5
I0403 18:22:39.594912  6871 net.cpp:91] Creating Layer inception_4b/relu_5x5
I0403 18:22:39.594928  6871 net.cpp:425] inception_4b/relu_5x5 <- inception_4b/5x5
I0403 18:22:39.594945  6871 net.cpp:386] inception_4b/relu_5x5 -> inception_4b/5x5 (in-place)
I0403 18:22:39.595227  6871 net.cpp:141] Setting up inception_4b/relu_5x5
I0403 18:22:39.595257  6871 net.cpp:148] Top shape: 24 64 14 14 (301056)
I0403 18:22:39.595273  6871 net.cpp:156] Memory required for data: 968181024
I0403 18:22:39.595288  6871 layer_factory.hpp:77] Creating layer inception_4b/pool
I0403 18:22:39.595309  6871 net.cpp:91] Creating Layer inception_4b/pool
I0403 18:22:39.595324  6871 net.cpp:425] inception_4b/pool <- inception_4a/output_inception_4a/output_0_split_4
I0403 18:22:39.595342  6871 net.cpp:399] inception_4b/pool -> inception_4b/pool
I0403 18:22:39.595405  6871 net.cpp:141] Setting up inception_4b/pool
I0403 18:22:39.595428  6871 net.cpp:148] Top shape: 24 512 14 14 (2408448)
I0403 18:22:39.595443  6871 net.cpp:156] Memory required for data: 977814816
I0403 18:22:39.595458  6871 layer_factory.hpp:77] Creating layer inception_4b/pool_proj
I0403 18:22:39.595479  6871 net.cpp:91] Creating Layer inception_4b/pool_proj
I0403 18:22:39.595494  6871 net.cpp:425] inception_4b/pool_proj <- inception_4b/pool
I0403 18:22:39.595515  6871 net.cpp:399] inception_4b/pool_proj -> inception_4b/pool_proj
I0403 18:22:39.596691  6871 net.cpp:141] Setting up inception_4b/pool_proj
I0403 18:22:39.596719  6871 net.cpp:148] Top shape: 24 64 14 14 (301056)
I0403 18:22:39.596735  6871 net.cpp:156] Memory required for data: 979019040
I0403 18:22:39.596753  6871 layer_factory.hpp:77] Creating layer inception_4b/relu_pool_proj
I0403 18:22:39.596774  6871 net.cpp:91] Creating Layer inception_4b/relu_pool_proj
I0403 18:22:39.596791  6871 net.cpp:425] inception_4b/relu_pool_proj <- inception_4b/pool_proj
I0403 18:22:39.596807  6871 net.cpp:386] inception_4b/relu_pool_proj -> inception_4b/pool_proj (in-place)
I0403 18:22:39.596984  6871 net.cpp:141] Setting up inception_4b/relu_pool_proj
I0403 18:22:39.597012  6871 net.cpp:148] Top shape: 24 64 14 14 (301056)
I0403 18:22:39.597026  6871 net.cpp:156] Memory required for data: 980223264
I0403 18:22:39.597041  6871 layer_factory.hpp:77] Creating layer inception_4b/output
I0403 18:22:39.597057  6871 net.cpp:91] Creating Layer inception_4b/output
I0403 18:22:39.597072  6871 net.cpp:425] inception_4b/output <- inception_4b/1x1
I0403 18:22:39.597090  6871 net.cpp:425] inception_4b/output <- inception_4b/3x3
I0403 18:22:39.597106  6871 net.cpp:425] inception_4b/output <- inception_4b/5x5
I0403 18:22:39.597121  6871 net.cpp:425] inception_4b/output <- inception_4b/pool_proj
I0403 18:22:39.597141  6871 net.cpp:399] inception_4b/output -> inception_4b/output
I0403 18:22:39.597185  6871 net.cpp:141] Setting up inception_4b/output
I0403 18:22:39.597208  6871 net.cpp:148] Top shape: 24 512 14 14 (2408448)
I0403 18:22:39.597223  6871 net.cpp:156] Memory required for data: 989857056
I0403 18:22:39.597255  6871 layer_factory.hpp:77] Creating layer inception_4b/output_inception_4b/output_0_split
I0403 18:22:39.597276  6871 net.cpp:91] Creating Layer inception_4b/output_inception_4b/output_0_split
I0403 18:22:39.597293  6871 net.cpp:425] inception_4b/output_inception_4b/output_0_split <- inception_4b/output
I0403 18:22:39.597311  6871 net.cpp:399] inception_4b/output_inception_4b/output_0_split -> inception_4b/output_inception_4b/output_0_split_0
I0403 18:22:39.597331  6871 net.cpp:399] inception_4b/output_inception_4b/output_0_split -> inception_4b/output_inception_4b/output_0_split_1
I0403 18:22:39.597352  6871 net.cpp:399] inception_4b/output_inception_4b/output_0_split -> inception_4b/output_inception_4b/output_0_split_2
I0403 18:22:39.597373  6871 net.cpp:399] inception_4b/output_inception_4b/output_0_split -> inception_4b/output_inception_4b/output_0_split_3
I0403 18:22:39.597453  6871 net.cpp:141] Setting up inception_4b/output_inception_4b/output_0_split
I0403 18:22:39.597476  6871 net.cpp:148] Top shape: 24 512 14 14 (2408448)
I0403 18:22:39.597492  6871 net.cpp:148] Top shape: 24 512 14 14 (2408448)
I0403 18:22:39.597508  6871 net.cpp:148] Top shape: 24 512 14 14 (2408448)
I0403 18:22:39.597523  6871 net.cpp:148] Top shape: 24 512 14 14 (2408448)
I0403 18:22:39.597537  6871 net.cpp:156] Memory required for data: 1028392224
I0403 18:22:39.597551  6871 layer_factory.hpp:77] Creating layer inception_4c/1x1
I0403 18:22:39.597573  6871 net.cpp:91] Creating Layer inception_4c/1x1
I0403 18:22:39.597590  6871 net.cpp:425] inception_4c/1x1 <- inception_4b/output_inception_4b/output_0_split_0
I0403 18:22:39.597615  6871 net.cpp:399] inception_4c/1x1 -> inception_4c/1x1
I0403 18:22:39.599007  6871 net.cpp:141] Setting up inception_4c/1x1
I0403 18:22:39.599038  6871 net.cpp:148] Top shape: 24 128 14 14 (602112)
I0403 18:22:39.599055  6871 net.cpp:156] Memory required for data: 1030800672
I0403 18:22:39.599072  6871 layer_factory.hpp:77] Creating layer inception_4c/relu_1x1
I0403 18:22:39.599091  6871 net.cpp:91] Creating Layer inception_4c/relu_1x1
I0403 18:22:39.599105  6871 net.cpp:425] inception_4c/relu_1x1 <- inception_4c/1x1
I0403 18:22:39.599124  6871 net.cpp:386] inception_4c/relu_1x1 -> inception_4c/1x1 (in-place)
I0403 18:22:39.599308  6871 net.cpp:141] Setting up inception_4c/relu_1x1
I0403 18:22:39.599331  6871 net.cpp:148] Top shape: 24 128 14 14 (602112)
I0403 18:22:39.599346  6871 net.cpp:156] Memory required for data: 1033209120
I0403 18:22:39.599361  6871 layer_factory.hpp:77] Creating layer inception_4c/3x3_reduce
I0403 18:22:39.599383  6871 net.cpp:91] Creating Layer inception_4c/3x3_reduce
I0403 18:22:39.599400  6871 net.cpp:425] inception_4c/3x3_reduce <- inception_4b/output_inception_4b/output_0_split_1
I0403 18:22:39.599422  6871 net.cpp:399] inception_4c/3x3_reduce -> inception_4c/3x3_reduce
I0403 18:22:39.601377  6871 net.cpp:141] Setting up inception_4c/3x3_reduce
I0403 18:22:39.601405  6871 net.cpp:148] Top shape: 24 128 14 14 (602112)
I0403 18:22:39.601421  6871 net.cpp:156] Memory required for data: 1035617568
I0403 18:22:39.601440  6871 layer_factory.hpp:77] Creating layer inception_4c/relu_3x3_reduce
I0403 18:22:39.601461  6871 net.cpp:91] Creating Layer inception_4c/relu_3x3_reduce
I0403 18:22:39.601478  6871 net.cpp:425] inception_4c/relu_3x3_reduce <- inception_4c/3x3_reduce
I0403 18:22:39.601495  6871 net.cpp:386] inception_4c/relu_3x3_reduce -> inception_4c/3x3_reduce (in-place)
I0403 18:22:39.601773  6871 net.cpp:141] Setting up inception_4c/relu_3x3_reduce
I0403 18:22:39.601799  6871 net.cpp:148] Top shape: 24 128 14 14 (602112)
I0403 18:22:39.601814  6871 net.cpp:156] Memory required for data: 1038026016
I0403 18:22:39.601830  6871 layer_factory.hpp:77] Creating layer inception_4c/3x3
I0403 18:22:39.601851  6871 net.cpp:91] Creating Layer inception_4c/3x3
I0403 18:22:39.601868  6871 net.cpp:425] inception_4c/3x3 <- inception_4c/3x3_reduce
I0403 18:22:39.601891  6871 net.cpp:399] inception_4c/3x3 -> inception_4c/3x3
I0403 18:22:39.605427  6871 net.cpp:141] Setting up inception_4c/3x3
I0403 18:22:39.605466  6871 net.cpp:148] Top shape: 24 256 14 14 (1204224)
I0403 18:22:39.605481  6871 net.cpp:156] Memory required for data: 1042842912
I0403 18:22:39.605512  6871 layer_factory.hpp:77] Creating layer inception_4c/relu_3x3
I0403 18:22:39.605535  6871 net.cpp:91] Creating Layer inception_4c/relu_3x3
I0403 18:22:39.605551  6871 net.cpp:425] inception_4c/relu_3x3 <- inception_4c/3x3
I0403 18:22:39.605568  6871 net.cpp:386] inception_4c/relu_3x3 -> inception_4c/3x3 (in-place)
I0403 18:22:39.605752  6871 net.cpp:141] Setting up inception_4c/relu_3x3
I0403 18:22:39.605777  6871 net.cpp:148] Top shape: 24 256 14 14 (1204224)
I0403 18:22:39.605792  6871 net.cpp:156] Memory required for data: 1047659808
I0403 18:22:39.605806  6871 layer_factory.hpp:77] Creating layer inception_4c/5x5_reduce
I0403 18:22:39.605830  6871 net.cpp:91] Creating Layer inception_4c/5x5_reduce
I0403 18:22:39.605847  6871 net.cpp:425] inception_4c/5x5_reduce <- inception_4b/output_inception_4b/output_0_split_2
I0403 18:22:39.605867  6871 net.cpp:399] inception_4c/5x5_reduce -> inception_4c/5x5_reduce
I0403 18:22:39.606933  6871 net.cpp:141] Setting up inception_4c/5x5_reduce
I0403 18:22:39.606961  6871 net.cpp:148] Top shape: 24 24 14 14 (112896)
I0403 18:22:39.606976  6871 net.cpp:156] Memory required for data: 1048111392
I0403 18:22:39.606993  6871 layer_factory.hpp:77] Creating layer inception_4c/relu_5x5_reduce
I0403 18:22:39.607013  6871 net.cpp:91] Creating Layer inception_4c/relu_5x5_reduce
I0403 18:22:39.607030  6871 net.cpp:425] inception_4c/relu_5x5_reduce <- inception_4c/5x5_reduce
I0403 18:22:39.607048  6871 net.cpp:386] inception_4c/relu_5x5_reduce -> inception_4c/5x5_reduce (in-place)
I0403 18:22:39.607228  6871 net.cpp:141] Setting up inception_4c/relu_5x5_reduce
I0403 18:22:39.607260  6871 net.cpp:148] Top shape: 24 24 14 14 (112896)
I0403 18:22:39.607275  6871 net.cpp:156] Memory required for data: 1048562976
I0403 18:22:39.607290  6871 layer_factory.hpp:77] Creating layer inception_4c/5x5
I0403 18:22:39.607311  6871 net.cpp:91] Creating Layer inception_4c/5x5
I0403 18:22:39.607328  6871 net.cpp:425] inception_4c/5x5 <- inception_4c/5x5_reduce
I0403 18:22:39.607348  6871 net.cpp:399] inception_4c/5x5 -> inception_4c/5x5
I0403 18:22:39.608593  6871 net.cpp:141] Setting up inception_4c/5x5
I0403 18:22:39.608623  6871 net.cpp:148] Top shape: 24 64 14 14 (301056)
I0403 18:22:39.608639  6871 net.cpp:156] Memory required for data: 1049767200
I0403 18:22:39.608659  6871 layer_factory.hpp:77] Creating layer inception_4c/relu_5x5
I0403 18:22:39.608677  6871 net.cpp:91] Creating Layer inception_4c/relu_5x5
I0403 18:22:39.608693  6871 net.cpp:425] inception_4c/relu_5x5 <- inception_4c/5x5
I0403 18:22:39.608713  6871 net.cpp:386] inception_4c/relu_5x5 -> inception_4c/5x5 (in-place)
I0403 18:22:39.609004  6871 net.cpp:141] Setting up inception_4c/relu_5x5
I0403 18:22:39.609032  6871 net.cpp:148] Top shape: 24 64 14 14 (301056)
I0403 18:22:39.609050  6871 net.cpp:156] Memory required for data: 1050971424
I0403 18:22:39.609066  6871 layer_factory.hpp:77] Creating layer inception_4c/pool
I0403 18:22:39.609083  6871 net.cpp:91] Creating Layer inception_4c/pool
I0403 18:22:39.609099  6871 net.cpp:425] inception_4c/pool <- inception_4b/output_inception_4b/output_0_split_3
I0403 18:22:39.609122  6871 net.cpp:399] inception_4c/pool -> inception_4c/pool
I0403 18:22:39.609186  6871 net.cpp:141] Setting up inception_4c/pool
I0403 18:22:39.609210  6871 net.cpp:148] Top shape: 24 512 14 14 (2408448)
I0403 18:22:39.609225  6871 net.cpp:156] Memory required for data: 1060605216
I0403 18:22:39.609246  6871 layer_factory.hpp:77] Creating layer inception_4c/pool_proj
I0403 18:22:39.609268  6871 net.cpp:91] Creating Layer inception_4c/pool_proj
I0403 18:22:39.609287  6871 net.cpp:425] inception_4c/pool_proj <- inception_4c/pool
I0403 18:22:39.609308  6871 net.cpp:399] inception_4c/pool_proj -> inception_4c/pool_proj
I0403 18:22:39.610544  6871 net.cpp:141] Setting up inception_4c/pool_proj
I0403 18:22:39.610572  6871 net.cpp:148] Top shape: 24 64 14 14 (301056)
I0403 18:22:39.610602  6871 net.cpp:156] Memory required for data: 1061809440
I0403 18:22:39.610622  6871 layer_factory.hpp:77] Creating layer inception_4c/relu_pool_proj
I0403 18:22:39.610643  6871 net.cpp:91] Creating Layer inception_4c/relu_pool_proj
I0403 18:22:39.610661  6871 net.cpp:425] inception_4c/relu_pool_proj <- inception_4c/pool_proj
I0403 18:22:39.610677  6871 net.cpp:386] inception_4c/relu_pool_proj -> inception_4c/pool_proj (in-place)
I0403 18:22:39.610867  6871 net.cpp:141] Setting up inception_4c/relu_pool_proj
I0403 18:22:39.610893  6871 net.cpp:148] Top shape: 24 64 14 14 (301056)
I0403 18:22:39.610909  6871 net.cpp:156] Memory required for data: 1063013664
I0403 18:22:39.610924  6871 layer_factory.hpp:77] Creating layer inception_4c/output
I0403 18:22:39.610941  6871 net.cpp:91] Creating Layer inception_4c/output
I0403 18:22:39.610956  6871 net.cpp:425] inception_4c/output <- inception_4c/1x1
I0403 18:22:39.610975  6871 net.cpp:425] inception_4c/output <- inception_4c/3x3
I0403 18:22:39.610990  6871 net.cpp:425] inception_4c/output <- inception_4c/5x5
I0403 18:22:39.611006  6871 net.cpp:425] inception_4c/output <- inception_4c/pool_proj
I0403 18:22:39.611038  6871 net.cpp:399] inception_4c/output -> inception_4c/output
I0403 18:22:39.611085  6871 net.cpp:141] Setting up inception_4c/output
I0403 18:22:39.611109  6871 net.cpp:148] Top shape: 24 512 14 14 (2408448)
I0403 18:22:39.611124  6871 net.cpp:156] Memory required for data: 1072647456
I0403 18:22:39.611140  6871 layer_factory.hpp:77] Creating layer inception_4c/output_inception_4c/output_0_split
I0403 18:22:39.611161  6871 net.cpp:91] Creating Layer inception_4c/output_inception_4c/output_0_split
I0403 18:22:39.611178  6871 net.cpp:425] inception_4c/output_inception_4c/output_0_split <- inception_4c/output
I0403 18:22:39.611196  6871 net.cpp:399] inception_4c/output_inception_4c/output_0_split -> inception_4c/output_inception_4c/output_0_split_0
I0403 18:22:39.611217  6871 net.cpp:399] inception_4c/output_inception_4c/output_0_split -> inception_4c/output_inception_4c/output_0_split_1
I0403 18:22:39.611238  6871 net.cpp:399] inception_4c/output_inception_4c/output_0_split -> inception_4c/output_inception_4c/output_0_split_2
I0403 18:22:39.611280  6871 net.cpp:399] inception_4c/output_inception_4c/output_0_split -> inception_4c/output_inception_4c/output_0_split_3
I0403 18:22:39.611384  6871 net.cpp:141] Setting up inception_4c/output_inception_4c/output_0_split
I0403 18:22:39.611408  6871 net.cpp:148] Top shape: 24 512 14 14 (2408448)
I0403 18:22:39.611424  6871 net.cpp:148] Top shape: 24 512 14 14 (2408448)
I0403 18:22:39.611441  6871 net.cpp:148] Top shape: 24 512 14 14 (2408448)
I0403 18:22:39.611459  6871 net.cpp:148] Top shape: 24 512 14 14 (2408448)
I0403 18:22:39.611472  6871 net.cpp:156] Memory required for data: 1111182624
I0403 18:22:39.611487  6871 layer_factory.hpp:77] Creating layer inception_4d/1x1
I0403 18:22:39.611510  6871 net.cpp:91] Creating Layer inception_4d/1x1
I0403 18:22:39.611527  6871 net.cpp:425] inception_4d/1x1 <- inception_4c/output_inception_4c/output_0_split_0
I0403 18:22:39.611560  6871 net.cpp:399] inception_4d/1x1 -> inception_4d/1x1
I0403 18:22:39.612978  6871 net.cpp:141] Setting up inception_4d/1x1
I0403 18:22:39.613008  6871 net.cpp:148] Top shape: 24 112 14 14 (526848)
I0403 18:22:39.613023  6871 net.cpp:156] Memory required for data: 1113290016
I0403 18:22:39.613044  6871 layer_factory.hpp:77] Creating layer inception_4d/relu_1x1
I0403 18:22:39.613065  6871 net.cpp:91] Creating Layer inception_4d/relu_1x1
I0403 18:22:39.613082  6871 net.cpp:425] inception_4d/relu_1x1 <- inception_4d/1x1
I0403 18:22:39.613101  6871 net.cpp:386] inception_4d/relu_1x1 -> inception_4d/1x1 (in-place)
I0403 18:22:39.613301  6871 net.cpp:141] Setting up inception_4d/relu_1x1
I0403 18:22:39.613327  6871 net.cpp:148] Top shape: 24 112 14 14 (526848)
I0403 18:22:39.613343  6871 net.cpp:156] Memory required for data: 1115397408
I0403 18:22:39.613358  6871 layer_factory.hpp:77] Creating layer inception_4d/3x3_reduce
I0403 18:22:39.613395  6871 net.cpp:91] Creating Layer inception_4d/3x3_reduce
I0403 18:22:39.613417  6871 net.cpp:425] inception_4d/3x3_reduce <- inception_4c/output_inception_4c/output_0_split_1
I0403 18:22:39.613437  6871 net.cpp:399] inception_4d/3x3_reduce -> inception_4d/3x3_reduce
I0403 18:22:39.615001  6871 net.cpp:141] Setting up inception_4d/3x3_reduce
I0403 18:22:39.615030  6871 net.cpp:148] Top shape: 24 144 14 14 (677376)
I0403 18:22:39.615046  6871 net.cpp:156] Memory required for data: 1118106912
I0403 18:22:39.615066  6871 layer_factory.hpp:77] Creating layer inception_4d/relu_3x3_reduce
I0403 18:22:39.615083  6871 net.cpp:91] Creating Layer inception_4d/relu_3x3_reduce
I0403 18:22:39.615100  6871 net.cpp:425] inception_4d/relu_3x3_reduce <- inception_4d/3x3_reduce
I0403 18:22:39.615121  6871 net.cpp:386] inception_4d/relu_3x3_reduce -> inception_4d/3x3_reduce (in-place)
I0403 18:22:39.615425  6871 net.cpp:141] Setting up inception_4d/relu_3x3_reduce
I0403 18:22:39.615454  6871 net.cpp:148] Top shape: 24 144 14 14 (677376)
I0403 18:22:39.615470  6871 net.cpp:156] Memory required for data: 1120816416
I0403 18:22:39.615486  6871 layer_factory.hpp:77] Creating layer inception_4d/3x3
I0403 18:22:39.615510  6871 net.cpp:91] Creating Layer inception_4d/3x3
I0403 18:22:39.615528  6871 net.cpp:425] inception_4d/3x3 <- inception_4d/3x3_reduce
I0403 18:22:39.615550  6871 net.cpp:399] inception_4d/3x3 -> inception_4d/3x3
I0403 18:22:39.620023  6871 net.cpp:141] Setting up inception_4d/3x3
I0403 18:22:39.620054  6871 net.cpp:148] Top shape: 24 288 14 14 (1354752)
I0403 18:22:39.620070  6871 net.cpp:156] Memory required for data: 1126235424
I0403 18:22:39.620090  6871 layer_factory.hpp:77] Creating layer inception_4d/relu_3x3
I0403 18:22:39.620110  6871 net.cpp:91] Creating Layer inception_4d/relu_3x3
I0403 18:22:39.620127  6871 net.cpp:425] inception_4d/relu_3x3 <- inception_4d/3x3
I0403 18:22:39.620146  6871 net.cpp:386] inception_4d/relu_3x3 -> inception_4d/3x3 (in-place)
I0403 18:22:39.620343  6871 net.cpp:141] Setting up inception_4d/relu_3x3
I0403 18:22:39.620373  6871 net.cpp:148] Top shape: 24 288 14 14 (1354752)
I0403 18:22:39.620388  6871 net.cpp:156] Memory required for data: 1131654432
I0403 18:22:39.620404  6871 layer_factory.hpp:77] Creating layer inception_4d/5x5_reduce
I0403 18:22:39.620424  6871 net.cpp:91] Creating Layer inception_4d/5x5_reduce
I0403 18:22:39.620440  6871 net.cpp:425] inception_4d/5x5_reduce <- inception_4c/output_inception_4c/output_0_split_2
I0403 18:22:39.620462  6871 net.cpp:399] inception_4d/5x5_reduce -> inception_4d/5x5_reduce
I0403 18:22:39.621662  6871 net.cpp:141] Setting up inception_4d/5x5_reduce
I0403 18:22:39.621691  6871 net.cpp:148] Top shape: 24 32 14 14 (150528)
I0403 18:22:39.621708  6871 net.cpp:156] Memory required for data: 1132256544
I0403 18:22:39.621727  6871 layer_factory.hpp:77] Creating layer inception_4d/relu_5x5_reduce
I0403 18:22:39.621748  6871 net.cpp:91] Creating Layer inception_4d/relu_5x5_reduce
I0403 18:22:39.621767  6871 net.cpp:425] inception_4d/relu_5x5_reduce <- inception_4d/5x5_reduce
I0403 18:22:39.621784  6871 net.cpp:386] inception_4d/relu_5x5_reduce -> inception_4d/5x5_reduce (in-place)
I0403 18:22:39.621980  6871 net.cpp:141] Setting up inception_4d/relu_5x5_reduce
I0403 18:22:39.622006  6871 net.cpp:148] Top shape: 24 32 14 14 (150528)
I0403 18:22:39.622020  6871 net.cpp:156] Memory required for data: 1132858656
I0403 18:22:39.622035  6871 layer_factory.hpp:77] Creating layer inception_4d/5x5
I0403 18:22:39.622061  6871 net.cpp:91] Creating Layer inception_4d/5x5
I0403 18:22:39.622081  6871 net.cpp:425] inception_4d/5x5 <- inception_4d/5x5_reduce
I0403 18:22:39.622099  6871 net.cpp:399] inception_4d/5x5 -> inception_4d/5x5
I0403 18:22:39.623651  6871 net.cpp:141] Setting up inception_4d/5x5
I0403 18:22:39.623679  6871 net.cpp:148] Top shape: 24 64 14 14 (301056)
I0403 18:22:39.623694  6871 net.cpp:156] Memory required for data: 1134062880
I0403 18:22:39.623715  6871 layer_factory.hpp:77] Creating layer inception_4d/relu_5x5
I0403 18:22:39.623752  6871 net.cpp:91] Creating Layer inception_4d/relu_5x5
I0403 18:22:39.623771  6871 net.cpp:425] inception_4d/relu_5x5 <- inception_4d/5x5
I0403 18:22:39.623790  6871 net.cpp:386] inception_4d/relu_5x5 -> inception_4d/5x5 (in-place)
I0403 18:22:39.624104  6871 net.cpp:141] Setting up inception_4d/relu_5x5
I0403 18:22:39.624131  6871 net.cpp:148] Top shape: 24 64 14 14 (301056)
I0403 18:22:39.624146  6871 net.cpp:156] Memory required for data: 1135267104
I0403 18:22:39.624161  6871 layer_factory.hpp:77] Creating layer inception_4d/pool
I0403 18:22:39.624182  6871 net.cpp:91] Creating Layer inception_4d/pool
I0403 18:22:39.624200  6871 net.cpp:425] inception_4d/pool <- inception_4c/output_inception_4c/output_0_split_3
I0403 18:22:39.624222  6871 net.cpp:399] inception_4d/pool -> inception_4d/pool
I0403 18:22:39.624310  6871 net.cpp:141] Setting up inception_4d/pool
I0403 18:22:39.624336  6871 net.cpp:148] Top shape: 24 512 14 14 (2408448)
I0403 18:22:39.624351  6871 net.cpp:156] Memory required for data: 1144900896
I0403 18:22:39.624366  6871 layer_factory.hpp:77] Creating layer inception_4d/pool_proj
I0403 18:22:39.624392  6871 net.cpp:91] Creating Layer inception_4d/pool_proj
I0403 18:22:39.624410  6871 net.cpp:425] inception_4d/pool_proj <- inception_4d/pool
I0403 18:22:39.624433  6871 net.cpp:399] inception_4d/pool_proj -> inception_4d/pool_proj
I0403 18:22:39.626328  6871 net.cpp:141] Setting up inception_4d/pool_proj
I0403 18:22:39.626360  6871 net.cpp:148] Top shape: 24 64 14 14 (301056)
I0403 18:22:39.626376  6871 net.cpp:156] Memory required for data: 1146105120
I0403 18:22:39.626394  6871 layer_factory.hpp:77] Creating layer inception_4d/relu_pool_proj
I0403 18:22:39.626415  6871 net.cpp:91] Creating Layer inception_4d/relu_pool_proj
I0403 18:22:39.626444  6871 net.cpp:425] inception_4d/relu_pool_proj <- inception_4d/pool_proj
I0403 18:22:39.626462  6871 net.cpp:386] inception_4d/relu_pool_proj -> inception_4d/pool_proj (in-place)
I0403 18:22:39.626647  6871 net.cpp:141] Setting up inception_4d/relu_pool_proj
I0403 18:22:39.626675  6871 net.cpp:148] Top shape: 24 64 14 14 (301056)
I0403 18:22:39.626690  6871 net.cpp:156] Memory required for data: 1147309344
I0403 18:22:39.626705  6871 layer_factory.hpp:77] Creating layer inception_4d/output
I0403 18:22:39.626723  6871 net.cpp:91] Creating Layer inception_4d/output
I0403 18:22:39.626739  6871 net.cpp:425] inception_4d/output <- inception_4d/1x1
I0403 18:22:39.626754  6871 net.cpp:425] inception_4d/output <- inception_4d/3x3
I0403 18:22:39.626770  6871 net.cpp:425] inception_4d/output <- inception_4d/5x5
I0403 18:22:39.626786  6871 net.cpp:425] inception_4d/output <- inception_4d/pool_proj
I0403 18:22:39.626803  6871 net.cpp:399] inception_4d/output -> inception_4d/output
I0403 18:22:39.626853  6871 net.cpp:141] Setting up inception_4d/output
I0403 18:22:39.626876  6871 net.cpp:148] Top shape: 24 528 14 14 (2483712)
I0403 18:22:39.626890  6871 net.cpp:156] Memory required for data: 1157244192
I0403 18:22:39.626905  6871 layer_factory.hpp:77] Creating layer inception_4d/output_inception_4d/output_0_split
I0403 18:22:39.626924  6871 net.cpp:91] Creating Layer inception_4d/output_inception_4d/output_0_split
I0403 18:22:39.626943  6871 net.cpp:425] inception_4d/output_inception_4d/output_0_split <- inception_4d/output
I0403 18:22:39.626960  6871 net.cpp:399] inception_4d/output_inception_4d/output_0_split -> inception_4d/output_inception_4d/output_0_split_0
I0403 18:22:39.626981  6871 net.cpp:399] inception_4d/output_inception_4d/output_0_split -> inception_4d/output_inception_4d/output_0_split_1
I0403 18:22:39.627002  6871 net.cpp:399] inception_4d/output_inception_4d/output_0_split -> inception_4d/output_inception_4d/output_0_split_2
I0403 18:22:39.627022  6871 net.cpp:399] inception_4d/output_inception_4d/output_0_split -> inception_4d/output_inception_4d/output_0_split_3
I0403 18:22:39.627041  6871 net.cpp:399] inception_4d/output_inception_4d/output_0_split -> inception_4d/output_inception_4d/output_0_split_4
I0403 18:22:39.627146  6871 net.cpp:141] Setting up inception_4d/output_inception_4d/output_0_split
I0403 18:22:39.627182  6871 net.cpp:148] Top shape: 24 528 14 14 (2483712)
I0403 18:22:39.627199  6871 net.cpp:148] Top shape: 24 528 14 14 (2483712)
I0403 18:22:39.627215  6871 net.cpp:148] Top shape: 24 528 14 14 (2483712)
I0403 18:22:39.627230  6871 net.cpp:148] Top shape: 24 528 14 14 (2483712)
I0403 18:22:39.627250  6871 net.cpp:148] Top shape: 24 528 14 14 (2483712)
I0403 18:22:39.627266  6871 net.cpp:156] Memory required for data: 1206918432
I0403 18:22:39.627280  6871 layer_factory.hpp:77] Creating layer loss2/ave_pool
I0403 18:22:39.627300  6871 net.cpp:91] Creating Layer loss2/ave_pool
I0403 18:22:39.627315  6871 net.cpp:425] loss2/ave_pool <- inception_4d/output_inception_4d/output_0_split_0
I0403 18:22:39.627336  6871 net.cpp:399] loss2/ave_pool -> loss2/ave_pool
I0403 18:22:39.627652  6871 net.cpp:141] Setting up loss2/ave_pool
I0403 18:22:39.627679  6871 net.cpp:148] Top shape: 24 528 4 4 (202752)
I0403 18:22:39.627694  6871 net.cpp:156] Memory required for data: 1207729440
I0403 18:22:39.627709  6871 layer_factory.hpp:77] Creating layer loss2/conv
I0403 18:22:39.627735  6871 net.cpp:91] Creating Layer loss2/conv
I0403 18:22:39.627754  6871 net.cpp:425] loss2/conv <- loss2/ave_pool
I0403 18:22:39.627775  6871 net.cpp:399] loss2/conv -> loss2/conv
I0403 18:22:39.629715  6871 net.cpp:141] Setting up loss2/conv
I0403 18:22:39.629747  6871 net.cpp:148] Top shape: 24 128 4 4 (49152)
I0403 18:22:39.629763  6871 net.cpp:156] Memory required for data: 1207926048
I0403 18:22:39.629781  6871 layer_factory.hpp:77] Creating layer loss2/relu_conv
I0403 18:22:39.629799  6871 net.cpp:91] Creating Layer loss2/relu_conv
I0403 18:22:39.629817  6871 net.cpp:425] loss2/relu_conv <- loss2/conv
I0403 18:22:39.629833  6871 net.cpp:386] loss2/relu_conv -> loss2/conv (in-place)
I0403 18:22:39.630122  6871 net.cpp:141] Setting up loss2/relu_conv
I0403 18:22:39.630151  6871 net.cpp:148] Top shape: 24 128 4 4 (49152)
I0403 18:22:39.630167  6871 net.cpp:156] Memory required for data: 1208122656
I0403 18:22:39.630182  6871 layer_factory.hpp:77] Creating layer loss2/fc
I0403 18:22:39.630201  6871 net.cpp:91] Creating Layer loss2/fc
I0403 18:22:39.630219  6871 net.cpp:425] loss2/fc <- loss2/conv
I0403 18:22:39.630244  6871 net.cpp:399] loss2/fc -> loss2/fc
I0403 18:22:39.648327  6871 net.cpp:141] Setting up loss2/fc
I0403 18:22:39.648396  6871 net.cpp:148] Top shape: 24 1024 (24576)
I0403 18:22:39.648411  6871 net.cpp:156] Memory required for data: 1208220960
I0403 18:22:39.648432  6871 layer_factory.hpp:77] Creating layer loss2/relu_fc
I0403 18:22:39.648455  6871 net.cpp:91] Creating Layer loss2/relu_fc
I0403 18:22:39.648475  6871 net.cpp:425] loss2/relu_fc <- loss2/fc
I0403 18:22:39.648493  6871 net.cpp:386] loss2/relu_fc -> loss2/fc (in-place)
I0403 18:22:39.648844  6871 net.cpp:141] Setting up loss2/relu_fc
I0403 18:22:39.648876  6871 net.cpp:148] Top shape: 24 1024 (24576)
I0403 18:22:39.648892  6871 net.cpp:156] Memory required for data: 1208319264
I0403 18:22:39.648911  6871 layer_factory.hpp:77] Creating layer loss2/drop_fc
I0403 18:22:39.648932  6871 net.cpp:91] Creating Layer loss2/drop_fc
I0403 18:22:39.648949  6871 net.cpp:425] loss2/drop_fc <- loss2/fc
I0403 18:22:39.648967  6871 net.cpp:386] loss2/drop_fc -> loss2/fc (in-place)
I0403 18:22:39.649019  6871 net.cpp:141] Setting up loss2/drop_fc
I0403 18:22:39.649044  6871 net.cpp:148] Top shape: 24 1024 (24576)
I0403 18:22:39.649058  6871 net.cpp:156] Memory required for data: 1208417568
I0403 18:22:39.649073  6871 layer_factory.hpp:77] Creating layer loss2/classifier_plantvillage
I0403 18:22:39.649093  6871 net.cpp:91] Creating Layer loss2/classifier_plantvillage
I0403 18:22:39.649109  6871 net.cpp:425] loss2/classifier_plantvillage <- loss2/fc
I0403 18:22:39.649135  6871 net.cpp:399] loss2/classifier_plantvillage -> loss2/classifier_plantvillage
I0403 18:22:39.649556  6871 net.cpp:141] Setting up loss2/classifier_plantvillage
I0403 18:22:39.649581  6871 net.cpp:148] Top shape: 24 38 (912)
I0403 18:22:39.649624  6871 net.cpp:156] Memory required for data: 1208421216
I0403 18:22:39.649644  6871 layer_factory.hpp:77] Creating layer loss2/classifier_plantvillage_loss2/classifier_plantvillage_0_split
I0403 18:22:39.649663  6871 net.cpp:91] Creating Layer loss2/classifier_plantvillage_loss2/classifier_plantvillage_0_split
I0403 18:22:39.649679  6871 net.cpp:425] loss2/classifier_plantvillage_loss2/classifier_plantvillage_0_split <- loss2/classifier_plantvillage
I0403 18:22:39.649698  6871 net.cpp:399] loss2/classifier_plantvillage_loss2/classifier_plantvillage_0_split -> loss2/classifier_plantvillage_loss2/classifier_plantvillage_0_split_0
I0403 18:22:39.649721  6871 net.cpp:399] loss2/classifier_plantvillage_loss2/classifier_plantvillage_0_split -> loss2/classifier_plantvillage_loss2/classifier_plantvillage_0_split_1
I0403 18:22:39.649744  6871 net.cpp:399] loss2/classifier_plantvillage_loss2/classifier_plantvillage_0_split -> loss2/classifier_plantvillage_loss2/classifier_plantvillage_0_split_2
I0403 18:22:39.649821  6871 net.cpp:141] Setting up loss2/classifier_plantvillage_loss2/classifier_plantvillage_0_split
I0403 18:22:39.649847  6871 net.cpp:148] Top shape: 24 38 (912)
I0403 18:22:39.649864  6871 net.cpp:148] Top shape: 24 38 (912)
I0403 18:22:39.649880  6871 net.cpp:148] Top shape: 24 38 (912)
I0403 18:22:39.649894  6871 net.cpp:156] Memory required for data: 1208432160
I0403 18:22:39.649909  6871 layer_factory.hpp:77] Creating layer inception_4e/1x1
I0403 18:22:39.649931  6871 net.cpp:91] Creating Layer inception_4e/1x1
I0403 18:22:39.649950  6871 net.cpp:425] inception_4e/1x1 <- inception_4d/output_inception_4d/output_0_split_1
I0403 18:22:39.649971  6871 net.cpp:399] inception_4e/1x1 -> inception_4e/1x1
I0403 18:22:39.651845  6871 net.cpp:141] Setting up inception_4e/1x1
I0403 18:22:39.651876  6871 net.cpp:148] Top shape: 24 256 14 14 (1204224)
I0403 18:22:39.651892  6871 net.cpp:156] Memory required for data: 1213249056
I0403 18:22:39.651912  6871 layer_factory.hpp:77] Creating layer inception_4e/relu_1x1
I0403 18:22:39.651929  6871 net.cpp:91] Creating Layer inception_4e/relu_1x1
I0403 18:22:39.651947  6871 net.cpp:425] inception_4e/relu_1x1 <- inception_4e/1x1
I0403 18:22:39.651965  6871 net.cpp:386] inception_4e/relu_1x1 -> inception_4e/1x1 (in-place)
I0403 18:22:39.652272  6871 net.cpp:141] Setting up inception_4e/relu_1x1
I0403 18:22:39.652302  6871 net.cpp:148] Top shape: 24 256 14 14 (1204224)
I0403 18:22:39.652318  6871 net.cpp:156] Memory required for data: 1218065952
I0403 18:22:39.652333  6871 layer_factory.hpp:77] Creating layer inception_4e/3x3_reduce
I0403 18:22:39.652355  6871 net.cpp:91] Creating Layer inception_4e/3x3_reduce
I0403 18:22:39.652374  6871 net.cpp:425] inception_4e/3x3_reduce <- inception_4d/output_inception_4d/output_0_split_2
I0403 18:22:39.652392  6871 net.cpp:399] inception_4e/3x3_reduce -> inception_4e/3x3_reduce
I0403 18:22:39.654534  6871 net.cpp:141] Setting up inception_4e/3x3_reduce
I0403 18:22:39.654566  6871 net.cpp:148] Top shape: 24 160 14 14 (752640)
I0403 18:22:39.654582  6871 net.cpp:156] Memory required for data: 1221076512
I0403 18:22:39.654600  6871 layer_factory.hpp:77] Creating layer inception_4e/relu_3x3_reduce
I0403 18:22:39.654618  6871 net.cpp:91] Creating Layer inception_4e/relu_3x3_reduce
I0403 18:22:39.654633  6871 net.cpp:425] inception_4e/relu_3x3_reduce <- inception_4e/3x3_reduce
I0403 18:22:39.654650  6871 net.cpp:386] inception_4e/relu_3x3_reduce -> inception_4e/3x3_reduce (in-place)
I0403 18:22:39.654832  6871 net.cpp:141] Setting up inception_4e/relu_3x3_reduce
I0403 18:22:39.654860  6871 net.cpp:148] Top shape: 24 160 14 14 (752640)
I0403 18:22:39.654875  6871 net.cpp:156] Memory required for data: 1224087072
I0403 18:22:39.654889  6871 layer_factory.hpp:77] Creating layer inception_4e/3x3
I0403 18:22:39.654911  6871 net.cpp:91] Creating Layer inception_4e/3x3
I0403 18:22:39.654927  6871 net.cpp:425] inception_4e/3x3 <- inception_4e/3x3_reduce
I0403 18:22:39.654944  6871 net.cpp:399] inception_4e/3x3 -> inception_4e/3x3
I0403 18:22:39.659889  6871 net.cpp:141] Setting up inception_4e/3x3
I0403 18:22:39.659932  6871 net.cpp:148] Top shape: 24 320 14 14 (1505280)
I0403 18:22:39.659948  6871 net.cpp:156] Memory required for data: 1230108192
I0403 18:22:39.659967  6871 layer_factory.hpp:77] Creating layer inception_4e/relu_3x3
I0403 18:22:39.659984  6871 net.cpp:91] Creating Layer inception_4e/relu_3x3
I0403 18:22:39.659999  6871 net.cpp:425] inception_4e/relu_3x3 <- inception_4e/3x3
I0403 18:22:39.660018  6871 net.cpp:386] inception_4e/relu_3x3 -> inception_4e/3x3 (in-place)
I0403 18:22:39.660318  6871 net.cpp:141] Setting up inception_4e/relu_3x3
I0403 18:22:39.660344  6871 net.cpp:148] Top shape: 24 320 14 14 (1505280)
I0403 18:22:39.660359  6871 net.cpp:156] Memory required for data: 1236129312
I0403 18:22:39.660373  6871 layer_factory.hpp:77] Creating layer inception_4e/5x5_reduce
I0403 18:22:39.660397  6871 net.cpp:91] Creating Layer inception_4e/5x5_reduce
I0403 18:22:39.660413  6871 net.cpp:425] inception_4e/5x5_reduce <- inception_4d/output_inception_4d/output_0_split_3
I0403 18:22:39.660435  6871 net.cpp:399] inception_4e/5x5_reduce -> inception_4e/5x5_reduce
I0403 18:22:39.661485  6871 net.cpp:141] Setting up inception_4e/5x5_reduce
I0403 18:22:39.661512  6871 net.cpp:148] Top shape: 24 32 14 14 (150528)
I0403 18:22:39.661527  6871 net.cpp:156] Memory required for data: 1236731424
I0403 18:22:39.661545  6871 layer_factory.hpp:77] Creating layer inception_4e/relu_5x5_reduce
I0403 18:22:39.661566  6871 net.cpp:91] Creating Layer inception_4e/relu_5x5_reduce
I0403 18:22:39.661582  6871 net.cpp:425] inception_4e/relu_5x5_reduce <- inception_4e/5x5_reduce
I0403 18:22:39.661599  6871 net.cpp:386] inception_4e/relu_5x5_reduce -> inception_4e/5x5_reduce (in-place)
I0403 18:22:39.661909  6871 net.cpp:141] Setting up inception_4e/relu_5x5_reduce
I0403 18:22:39.661936  6871 net.cpp:148] Top shape: 24 32 14 14 (150528)
I0403 18:22:39.661952  6871 net.cpp:156] Memory required for data: 1237333536
I0403 18:22:39.661967  6871 layer_factory.hpp:77] Creating layer inception_4e/5x5
I0403 18:22:39.662005  6871 net.cpp:91] Creating Layer inception_4e/5x5
I0403 18:22:39.662027  6871 net.cpp:425] inception_4e/5x5 <- inception_4e/5x5_reduce
I0403 18:22:39.662060  6871 net.cpp:399] inception_4e/5x5 -> inception_4e/5x5
I0403 18:22:39.663918  6871 net.cpp:141] Setting up inception_4e/5x5
I0403 18:22:39.663945  6871 net.cpp:148] Top shape: 24 128 14 14 (602112)
I0403 18:22:39.663961  6871 net.cpp:156] Memory required for data: 1239741984
I0403 18:22:39.663980  6871 layer_factory.hpp:77] Creating layer inception_4e/relu_5x5
I0403 18:22:39.664001  6871 net.cpp:91] Creating Layer inception_4e/relu_5x5
I0403 18:22:39.664017  6871 net.cpp:425] inception_4e/relu_5x5 <- inception_4e/5x5
I0403 18:22:39.664034  6871 net.cpp:386] inception_4e/relu_5x5 -> inception_4e/5x5 (in-place)
I0403 18:22:39.664232  6871 net.cpp:141] Setting up inception_4e/relu_5x5
I0403 18:22:39.664263  6871 net.cpp:148] Top shape: 24 128 14 14 (602112)
I0403 18:22:39.664279  6871 net.cpp:156] Memory required for data: 1242150432
I0403 18:22:39.664294  6871 layer_factory.hpp:77] Creating layer inception_4e/pool
I0403 18:22:39.664312  6871 net.cpp:91] Creating Layer inception_4e/pool
I0403 18:22:39.664330  6871 net.cpp:425] inception_4e/pool <- inception_4d/output_inception_4d/output_0_split_4
I0403 18:22:39.664347  6871 net.cpp:399] inception_4e/pool -> inception_4e/pool
I0403 18:22:39.664418  6871 net.cpp:141] Setting up inception_4e/pool
I0403 18:22:39.664443  6871 net.cpp:148] Top shape: 24 528 14 14 (2483712)
I0403 18:22:39.664456  6871 net.cpp:156] Memory required for data: 1252085280
I0403 18:22:39.664472  6871 layer_factory.hpp:77] Creating layer inception_4e/pool_proj
I0403 18:22:39.664494  6871 net.cpp:91] Creating Layer inception_4e/pool_proj
I0403 18:22:39.664512  6871 net.cpp:425] inception_4e/pool_proj <- inception_4e/pool
I0403 18:22:39.664533  6871 net.cpp:399] inception_4e/pool_proj -> inception_4e/pool_proj
I0403 18:22:39.666044  6871 net.cpp:141] Setting up inception_4e/pool_proj
I0403 18:22:39.666084  6871 net.cpp:148] Top shape: 24 128 14 14 (602112)
I0403 18:22:39.666100  6871 net.cpp:156] Memory required for data: 1254493728
I0403 18:22:39.666118  6871 layer_factory.hpp:77] Creating layer inception_4e/relu_pool_proj
I0403 18:22:39.666139  6871 net.cpp:91] Creating Layer inception_4e/relu_pool_proj
I0403 18:22:39.666157  6871 net.cpp:425] inception_4e/relu_pool_proj <- inception_4e/pool_proj
I0403 18:22:39.666174  6871 net.cpp:386] inception_4e/relu_pool_proj -> inception_4e/pool_proj (in-place)
I0403 18:22:39.666477  6871 net.cpp:141] Setting up inception_4e/relu_pool_proj
I0403 18:22:39.666504  6871 net.cpp:148] Top shape: 24 128 14 14 (602112)
I0403 18:22:39.666519  6871 net.cpp:156] Memory required for data: 1256902176
I0403 18:22:39.666535  6871 layer_factory.hpp:77] Creating layer inception_4e/output
I0403 18:22:39.666553  6871 net.cpp:91] Creating Layer inception_4e/output
I0403 18:22:39.666569  6871 net.cpp:425] inception_4e/output <- inception_4e/1x1
I0403 18:22:39.666586  6871 net.cpp:425] inception_4e/output <- inception_4e/3x3
I0403 18:22:39.666604  6871 net.cpp:425] inception_4e/output <- inception_4e/5x5
I0403 18:22:39.666620  6871 net.cpp:425] inception_4e/output <- inception_4e/pool_proj
I0403 18:22:39.666640  6871 net.cpp:399] inception_4e/output -> inception_4e/output
I0403 18:22:39.666692  6871 net.cpp:141] Setting up inception_4e/output
I0403 18:22:39.666717  6871 net.cpp:148] Top shape: 24 832 14 14 (3913728)
I0403 18:22:39.666730  6871 net.cpp:156] Memory required for data: 1272557088
I0403 18:22:39.666745  6871 layer_factory.hpp:77] Creating layer pool4/3x3_s2
I0403 18:22:39.666764  6871 net.cpp:91] Creating Layer pool4/3x3_s2
I0403 18:22:39.666779  6871 net.cpp:425] pool4/3x3_s2 <- inception_4e/output
I0403 18:22:39.666800  6871 net.cpp:399] pool4/3x3_s2 -> pool4/3x3_s2
I0403 18:22:39.666868  6871 net.cpp:141] Setting up pool4/3x3_s2
I0403 18:22:39.666893  6871 net.cpp:148] Top shape: 24 832 7 7 (978432)
I0403 18:22:39.666908  6871 net.cpp:156] Memory required for data: 1276470816
I0403 18:22:39.666923  6871 layer_factory.hpp:77] Creating layer pool4/3x3_s2_pool4/3x3_s2_0_split
I0403 18:22:39.666942  6871 net.cpp:91] Creating Layer pool4/3x3_s2_pool4/3x3_s2_0_split
I0403 18:22:39.666960  6871 net.cpp:425] pool4/3x3_s2_pool4/3x3_s2_0_split <- pool4/3x3_s2
I0403 18:22:39.666976  6871 net.cpp:399] pool4/3x3_s2_pool4/3x3_s2_0_split -> pool4/3x3_s2_pool4/3x3_s2_0_split_0
I0403 18:22:39.666998  6871 net.cpp:399] pool4/3x3_s2_pool4/3x3_s2_0_split -> pool4/3x3_s2_pool4/3x3_s2_0_split_1
I0403 18:22:39.667019  6871 net.cpp:399] pool4/3x3_s2_pool4/3x3_s2_0_split -> pool4/3x3_s2_pool4/3x3_s2_0_split_2
I0403 18:22:39.667039  6871 net.cpp:399] pool4/3x3_s2_pool4/3x3_s2_0_split -> pool4/3x3_s2_pool4/3x3_s2_0_split_3
I0403 18:22:39.667131  6871 net.cpp:141] Setting up pool4/3x3_s2_pool4/3x3_s2_0_split
I0403 18:22:39.667155  6871 net.cpp:148] Top shape: 24 832 7 7 (978432)
I0403 18:22:39.667172  6871 net.cpp:148] Top shape: 24 832 7 7 (978432)
I0403 18:22:39.667189  6871 net.cpp:148] Top shape: 24 832 7 7 (978432)
I0403 18:22:39.667204  6871 net.cpp:148] Top shape: 24 832 7 7 (978432)
I0403 18:22:39.667219  6871 net.cpp:156] Memory required for data: 1292125728
I0403 18:22:39.667234  6871 layer_factory.hpp:77] Creating layer inception_5a/1x1
I0403 18:22:39.667261  6871 net.cpp:91] Creating Layer inception_5a/1x1
I0403 18:22:39.667279  6871 net.cpp:425] inception_5a/1x1 <- pool4/3x3_s2_pool4/3x3_s2_0_split_0
I0403 18:22:39.667300  6871 net.cpp:399] inception_5a/1x1 -> inception_5a/1x1
I0403 18:22:39.670213  6871 net.cpp:141] Setting up inception_5a/1x1
I0403 18:22:39.670246  6871 net.cpp:148] Top shape: 24 256 7 7 (301056)
I0403 18:22:39.670264  6871 net.cpp:156] Memory required for data: 1293329952
I0403 18:22:39.670284  6871 layer_factory.hpp:77] Creating layer inception_5a/relu_1x1
I0403 18:22:39.670305  6871 net.cpp:91] Creating Layer inception_5a/relu_1x1
I0403 18:22:39.670321  6871 net.cpp:425] inception_5a/relu_1x1 <- inception_5a/1x1
I0403 18:22:39.670339  6871 net.cpp:386] inception_5a/relu_1x1 -> inception_5a/1x1 (in-place)
I0403 18:22:39.670661  6871 net.cpp:141] Setting up inception_5a/relu_1x1
I0403 18:22:39.670688  6871 net.cpp:148] Top shape: 24 256 7 7 (301056)
I0403 18:22:39.670703  6871 net.cpp:156] Memory required for data: 1294534176
I0403 18:22:39.670718  6871 layer_factory.hpp:77] Creating layer inception_5a/3x3_reduce
I0403 18:22:39.670740  6871 net.cpp:91] Creating Layer inception_5a/3x3_reduce
I0403 18:22:39.670758  6871 net.cpp:425] inception_5a/3x3_reduce <- pool4/3x3_s2_pool4/3x3_s2_0_split_1
I0403 18:22:39.670783  6871 net.cpp:399] inception_5a/3x3_reduce -> inception_5a/3x3_reduce
I0403 18:22:39.673307  6871 net.cpp:141] Setting up inception_5a/3x3_reduce
I0403 18:22:39.673338  6871 net.cpp:148] Top shape: 24 160 7 7 (188160)
I0403 18:22:39.673354  6871 net.cpp:156] Memory required for data: 1295286816
I0403 18:22:39.673372  6871 layer_factory.hpp:77] Creating layer inception_5a/relu_3x3_reduce
I0403 18:22:39.673391  6871 net.cpp:91] Creating Layer inception_5a/relu_3x3_reduce
I0403 18:22:39.673408  6871 net.cpp:425] inception_5a/relu_3x3_reduce <- inception_5a/3x3_reduce
I0403 18:22:39.673426  6871 net.cpp:386] inception_5a/relu_3x3_reduce -> inception_5a/3x3_reduce (in-place)
I0403 18:22:39.673619  6871 net.cpp:141] Setting up inception_5a/relu_3x3_reduce
I0403 18:22:39.673645  6871 net.cpp:148] Top shape: 24 160 7 7 (188160)
I0403 18:22:39.673660  6871 net.cpp:156] Memory required for data: 1296039456
I0403 18:22:39.673676  6871 layer_factory.hpp:77] Creating layer inception_5a/3x3
I0403 18:22:39.673697  6871 net.cpp:91] Creating Layer inception_5a/3x3
I0403 18:22:39.673715  6871 net.cpp:425] inception_5a/3x3 <- inception_5a/3x3_reduce
I0403 18:22:39.673738  6871 net.cpp:399] inception_5a/3x3 -> inception_5a/3x3
I0403 18:22:39.678844  6871 net.cpp:141] Setting up inception_5a/3x3
I0403 18:22:39.678874  6871 net.cpp:148] Top shape: 24 320 7 7 (376320)
I0403 18:22:39.678889  6871 net.cpp:156] Memory required for data: 1297544736
I0403 18:22:39.678910  6871 layer_factory.hpp:77] Creating layer inception_5a/relu_3x3
I0403 18:22:39.678930  6871 net.cpp:91] Creating Layer inception_5a/relu_3x3
I0403 18:22:39.678947  6871 net.cpp:425] inception_5a/relu_3x3 <- inception_5a/3x3
I0403 18:22:39.678966  6871 net.cpp:386] inception_5a/relu_3x3 -> inception_5a/3x3 (in-place)
I0403 18:22:39.679265  6871 net.cpp:141] Setting up inception_5a/relu_3x3
I0403 18:22:39.679291  6871 net.cpp:148] Top shape: 24 320 7 7 (376320)
I0403 18:22:39.679306  6871 net.cpp:156] Memory required for data: 1299050016
I0403 18:22:39.679322  6871 layer_factory.hpp:77] Creating layer inception_5a/5x5_reduce
I0403 18:22:39.679344  6871 net.cpp:91] Creating Layer inception_5a/5x5_reduce
I0403 18:22:39.679365  6871 net.cpp:425] inception_5a/5x5_reduce <- pool4/3x3_s2_pool4/3x3_s2_0_split_2
I0403 18:22:39.679385  6871 net.cpp:399] inception_5a/5x5_reduce -> inception_5a/5x5_reduce
I0403 18:22:39.680570  6871 net.cpp:141] Setting up inception_5a/5x5_reduce
I0403 18:22:39.680600  6871 net.cpp:148] Top shape: 24 32 7 7 (37632)
I0403 18:22:39.680616  6871 net.cpp:156] Memory required for data: 1299200544
I0403 18:22:39.680634  6871 layer_factory.hpp:77] Creating layer inception_5a/relu_5x5_reduce
I0403 18:22:39.680652  6871 net.cpp:91] Creating Layer inception_5a/relu_5x5_reduce
I0403 18:22:39.680668  6871 net.cpp:425] inception_5a/relu_5x5_reduce <- inception_5a/5x5_reduce
I0403 18:22:39.680685  6871 net.cpp:386] inception_5a/relu_5x5_reduce -> inception_5a/5x5_reduce (in-place)
I0403 18:22:39.680980  6871 net.cpp:141] Setting up inception_5a/relu_5x5_reduce
I0403 18:22:39.681010  6871 net.cpp:148] Top shape: 24 32 7 7 (37632)
I0403 18:22:39.681025  6871 net.cpp:156] Memory required for data: 1299351072
I0403 18:22:39.681041  6871 layer_factory.hpp:77] Creating layer inception_5a/5x5
I0403 18:22:39.681062  6871 net.cpp:91] Creating Layer inception_5a/5x5
I0403 18:22:39.681079  6871 net.cpp:425] inception_5a/5x5 <- inception_5a/5x5_reduce
I0403 18:22:39.681097  6871 net.cpp:399] inception_5a/5x5 -> inception_5a/5x5
I0403 18:22:39.682824  6871 net.cpp:141] Setting up inception_5a/5x5
I0403 18:22:39.682863  6871 net.cpp:148] Top shape: 24 128 7 7 (150528)
I0403 18:22:39.682878  6871 net.cpp:156] Memory required for data: 1299953184
I0403 18:22:39.682898  6871 layer_factory.hpp:77] Creating layer inception_5a/relu_5x5
I0403 18:22:39.682917  6871 net.cpp:91] Creating Layer inception_5a/relu_5x5
I0403 18:22:39.682934  6871 net.cpp:425] inception_5a/relu_5x5 <- inception_5a/5x5
I0403 18:22:39.682951  6871 net.cpp:386] inception_5a/relu_5x5 -> inception_5a/5x5 (in-place)
I0403 18:22:39.683137  6871 net.cpp:141] Setting up inception_5a/relu_5x5
I0403 18:22:39.683164  6871 net.cpp:148] Top shape: 24 128 7 7 (150528)
I0403 18:22:39.683179  6871 net.cpp:156] Memory required for data: 1300555296
I0403 18:22:39.683194  6871 layer_factory.hpp:77] Creating layer inception_5a/pool
I0403 18:22:39.683212  6871 net.cpp:91] Creating Layer inception_5a/pool
I0403 18:22:39.683226  6871 net.cpp:425] inception_5a/pool <- pool4/3x3_s2_pool4/3x3_s2_0_split_3
I0403 18:22:39.683250  6871 net.cpp:399] inception_5a/pool -> inception_5a/pool
I0403 18:22:39.683321  6871 net.cpp:141] Setting up inception_5a/pool
I0403 18:22:39.683346  6871 net.cpp:148] Top shape: 24 832 7 7 (978432)
I0403 18:22:39.683359  6871 net.cpp:156] Memory required for data: 1304469024
I0403 18:22:39.683374  6871 layer_factory.hpp:77] Creating layer inception_5a/pool_proj
I0403 18:22:39.683396  6871 net.cpp:91] Creating Layer inception_5a/pool_proj
I0403 18:22:39.683415  6871 net.cpp:425] inception_5a/pool_proj <- inception_5a/pool
I0403 18:22:39.683434  6871 net.cpp:399] inception_5a/pool_proj -> inception_5a/pool_proj
I0403 18:22:39.685806  6871 net.cpp:141] Setting up inception_5a/pool_proj
I0403 18:22:39.685833  6871 net.cpp:148] Top shape: 24 128 7 7 (150528)
I0403 18:22:39.685848  6871 net.cpp:156] Memory required for data: 1305071136
I0403 18:22:39.685866  6871 layer_factory.hpp:77] Creating layer inception_5a/relu_pool_proj
I0403 18:22:39.685888  6871 net.cpp:91] Creating Layer inception_5a/relu_pool_proj
I0403 18:22:39.685904  6871 net.cpp:425] inception_5a/relu_pool_proj <- inception_5a/pool_proj
I0403 18:22:39.685920  6871 net.cpp:386] inception_5a/relu_pool_proj -> inception_5a/pool_proj (in-place)
I0403 18:22:39.686213  6871 net.cpp:141] Setting up inception_5a/relu_pool_proj
I0403 18:22:39.686239  6871 net.cpp:148] Top shape: 24 128 7 7 (150528)
I0403 18:22:39.686257  6871 net.cpp:156] Memory required for data: 1305673248
I0403 18:22:39.686272  6871 layer_factory.hpp:77] Creating layer inception_5a/output
I0403 18:22:39.686291  6871 net.cpp:91] Creating Layer inception_5a/output
I0403 18:22:39.686308  6871 net.cpp:425] inception_5a/output <- inception_5a/1x1
I0403 18:22:39.686326  6871 net.cpp:425] inception_5a/output <- inception_5a/3x3
I0403 18:22:39.686342  6871 net.cpp:425] inception_5a/output <- inception_5a/5x5
I0403 18:22:39.686357  6871 net.cpp:425] inception_5a/output <- inception_5a/pool_proj
I0403 18:22:39.686374  6871 net.cpp:399] inception_5a/output -> inception_5a/output
I0403 18:22:39.686422  6871 net.cpp:141] Setting up inception_5a/output
I0403 18:22:39.686449  6871 net.cpp:148] Top shape: 24 832 7 7 (978432)
I0403 18:22:39.686463  6871 net.cpp:156] Memory required for data: 1309586976
I0403 18:22:39.686478  6871 layer_factory.hpp:77] Creating layer inception_5a/output_inception_5a/output_0_split
I0403 18:22:39.686494  6871 net.cpp:91] Creating Layer inception_5a/output_inception_5a/output_0_split
I0403 18:22:39.686511  6871 net.cpp:425] inception_5a/output_inception_5a/output_0_split <- inception_5a/output
I0403 18:22:39.686530  6871 net.cpp:399] inception_5a/output_inception_5a/output_0_split -> inception_5a/output_inception_5a/output_0_split_0
I0403 18:22:39.686553  6871 net.cpp:399] inception_5a/output_inception_5a/output_0_split -> inception_5a/output_inception_5a/output_0_split_1
I0403 18:22:39.686571  6871 net.cpp:399] inception_5a/output_inception_5a/output_0_split -> inception_5a/output_inception_5a/output_0_split_2
I0403 18:22:39.686591  6871 net.cpp:399] inception_5a/output_inception_5a/output_0_split -> inception_5a/output_inception_5a/output_0_split_3
I0403 18:22:39.686700  6871 net.cpp:141] Setting up inception_5a/output_inception_5a/output_0_split
I0403 18:22:39.686725  6871 net.cpp:148] Top shape: 24 832 7 7 (978432)
I0403 18:22:39.686741  6871 net.cpp:148] Top shape: 24 832 7 7 (978432)
I0403 18:22:39.686756  6871 net.cpp:148] Top shape: 24 832 7 7 (978432)
I0403 18:22:39.686772  6871 net.cpp:148] Top shape: 24 832 7 7 (978432)
I0403 18:22:39.686785  6871 net.cpp:156] Memory required for data: 1325241888
I0403 18:22:39.686800  6871 layer_factory.hpp:77] Creating layer inception_5b/1x1
I0403 18:22:39.686822  6871 net.cpp:91] Creating Layer inception_5b/1x1
I0403 18:22:39.686841  6871 net.cpp:425] inception_5b/1x1 <- inception_5a/output_inception_5a/output_0_split_0
I0403 18:22:39.686858  6871 net.cpp:399] inception_5b/1x1 -> inception_5b/1x1
I0403 18:22:39.690551  6871 net.cpp:141] Setting up inception_5b/1x1
I0403 18:22:39.690582  6871 net.cpp:148] Top shape: 24 384 7 7 (451584)
I0403 18:22:39.690596  6871 net.cpp:156] Memory required for data: 1327048224
I0403 18:22:39.690615  6871 layer_factory.hpp:77] Creating layer inception_5b/relu_1x1
I0403 18:22:39.690634  6871 net.cpp:91] Creating Layer inception_5b/relu_1x1
I0403 18:22:39.690649  6871 net.cpp:425] inception_5b/relu_1x1 <- inception_5b/1x1
I0403 18:22:39.690668  6871 net.cpp:386] inception_5b/relu_1x1 -> inception_5b/1x1 (in-place)
I0403 18:22:39.690971  6871 net.cpp:141] Setting up inception_5b/relu_1x1
I0403 18:22:39.690996  6871 net.cpp:148] Top shape: 24 384 7 7 (451584)
I0403 18:22:39.691010  6871 net.cpp:156] Memory required for data: 1328854560
I0403 18:22:39.691025  6871 layer_factory.hpp:77] Creating layer inception_5b/3x3_reduce
I0403 18:22:39.691048  6871 net.cpp:91] Creating Layer inception_5b/3x3_reduce
I0403 18:22:39.691066  6871 net.cpp:425] inception_5b/3x3_reduce <- inception_5a/output_inception_5a/output_0_split_1
I0403 18:22:39.691088  6871 net.cpp:399] inception_5b/3x3_reduce -> inception_5b/3x3_reduce
I0403 18:22:39.693725  6871 net.cpp:141] Setting up inception_5b/3x3_reduce
I0403 18:22:39.693754  6871 net.cpp:148] Top shape: 24 192 7 7 (225792)
I0403 18:22:39.693769  6871 net.cpp:156] Memory required for data: 1329757728
I0403 18:22:39.693789  6871 layer_factory.hpp:77] Creating layer inception_5b/relu_3x3_reduce
I0403 18:22:39.693809  6871 net.cpp:91] Creating Layer inception_5b/relu_3x3_reduce
I0403 18:22:39.693825  6871 net.cpp:425] inception_5b/relu_3x3_reduce <- inception_5b/3x3_reduce
I0403 18:22:39.693843  6871 net.cpp:386] inception_5b/relu_3x3_reduce -> inception_5b/3x3_reduce (in-place)
I0403 18:22:39.694028  6871 net.cpp:141] Setting up inception_5b/relu_3x3_reduce
I0403 18:22:39.694053  6871 net.cpp:148] Top shape: 24 192 7 7 (225792)
I0403 18:22:39.694067  6871 net.cpp:156] Memory required for data: 1330660896
I0403 18:22:39.694082  6871 layer_factory.hpp:77] Creating layer inception_5b/3x3
I0403 18:22:39.694104  6871 net.cpp:91] Creating Layer inception_5b/3x3
I0403 18:22:39.694123  6871 net.cpp:425] inception_5b/3x3 <- inception_5b/3x3_reduce
I0403 18:22:39.694142  6871 net.cpp:399] inception_5b/3x3 -> inception_5b/3x3
I0403 18:22:39.700800  6871 net.cpp:141] Setting up inception_5b/3x3
I0403 18:22:39.700829  6871 net.cpp:148] Top shape: 24 384 7 7 (451584)
I0403 18:22:39.700845  6871 net.cpp:156] Memory required for data: 1332467232
I0403 18:22:39.700865  6871 layer_factory.hpp:77] Creating layer inception_5b/relu_3x3
I0403 18:22:39.700884  6871 net.cpp:91] Creating Layer inception_5b/relu_3x3
I0403 18:22:39.700902  6871 net.cpp:425] inception_5b/relu_3x3 <- inception_5b/3x3
I0403 18:22:39.700922  6871 net.cpp:386] inception_5b/relu_3x3 -> inception_5b/3x3 (in-place)
I0403 18:22:39.701231  6871 net.cpp:141] Setting up inception_5b/relu_3x3
I0403 18:22:39.701262  6871 net.cpp:148] Top shape: 24 384 7 7 (451584)
I0403 18:22:39.701277  6871 net.cpp:156] Memory required for data: 1334273568
I0403 18:22:39.701305  6871 layer_factory.hpp:77] Creating layer inception_5b/5x5_reduce
I0403 18:22:39.701344  6871 net.cpp:91] Creating Layer inception_5b/5x5_reduce
I0403 18:22:39.701377  6871 net.cpp:425] inception_5b/5x5_reduce <- inception_5a/output_inception_5a/output_0_split_2
I0403 18:22:39.701400  6871 net.cpp:399] inception_5b/5x5_reduce -> inception_5b/5x5_reduce
I0403 18:22:39.702729  6871 net.cpp:141] Setting up inception_5b/5x5_reduce
I0403 18:22:39.702757  6871 net.cpp:148] Top shape: 24 48 7 7 (56448)
I0403 18:22:39.702772  6871 net.cpp:156] Memory required for data: 1334499360
I0403 18:22:39.702791  6871 layer_factory.hpp:77] Creating layer inception_5b/relu_5x5_reduce
I0403 18:22:39.702811  6871 net.cpp:91] Creating Layer inception_5b/relu_5x5_reduce
I0403 18:22:39.702829  6871 net.cpp:425] inception_5b/relu_5x5_reduce <- inception_5b/5x5_reduce
I0403 18:22:39.702847  6871 net.cpp:386] inception_5b/relu_5x5_reduce -> inception_5b/5x5_reduce (in-place)
I0403 18:22:39.703222  6871 net.cpp:141] Setting up inception_5b/relu_5x5_reduce
I0403 18:22:39.703251  6871 net.cpp:148] Top shape: 24 48 7 7 (56448)
I0403 18:22:39.703266  6871 net.cpp:156] Memory required for data: 1334725152
I0403 18:22:39.703281  6871 layer_factory.hpp:77] Creating layer inception_5b/5x5
I0403 18:22:39.703302  6871 net.cpp:91] Creating Layer inception_5b/5x5
I0403 18:22:39.703320  6871 net.cpp:425] inception_5b/5x5 <- inception_5b/5x5_reduce
I0403 18:22:39.703337  6871 net.cpp:399] inception_5b/5x5 -> inception_5b/5x5
I0403 18:22:39.705404  6871 net.cpp:141] Setting up inception_5b/5x5
I0403 18:22:39.705432  6871 net.cpp:148] Top shape: 24 128 7 7 (150528)
I0403 18:22:39.705448  6871 net.cpp:156] Memory required for data: 1335327264
I0403 18:22:39.705467  6871 layer_factory.hpp:77] Creating layer inception_5b/relu_5x5
I0403 18:22:39.705488  6871 net.cpp:91] Creating Layer inception_5b/relu_5x5
I0403 18:22:39.705505  6871 net.cpp:425] inception_5b/relu_5x5 <- inception_5b/5x5
I0403 18:22:39.705523  6871 net.cpp:386] inception_5b/relu_5x5 -> inception_5b/5x5 (in-place)
I0403 18:22:39.705720  6871 net.cpp:141] Setting up inception_5b/relu_5x5
I0403 18:22:39.705749  6871 net.cpp:148] Top shape: 24 128 7 7 (150528)
I0403 18:22:39.705763  6871 net.cpp:156] Memory required for data: 1335929376
I0403 18:22:39.705778  6871 layer_factory.hpp:77] Creating layer inception_5b/pool
I0403 18:22:39.705796  6871 net.cpp:91] Creating Layer inception_5b/pool
I0403 18:22:39.705811  6871 net.cpp:425] inception_5b/pool <- inception_5a/output_inception_5a/output_0_split_3
I0403 18:22:39.705832  6871 net.cpp:399] inception_5b/pool -> inception_5b/pool
I0403 18:22:39.705904  6871 net.cpp:141] Setting up inception_5b/pool
I0403 18:22:39.705929  6871 net.cpp:148] Top shape: 24 832 7 7 (978432)
I0403 18:22:39.705943  6871 net.cpp:156] Memory required for data: 1339843104
I0403 18:22:39.705958  6871 layer_factory.hpp:77] Creating layer inception_5b/pool_proj
I0403 18:22:39.705981  6871 net.cpp:91] Creating Layer inception_5b/pool_proj
I0403 18:22:39.705998  6871 net.cpp:425] inception_5b/pool_proj <- inception_5b/pool
I0403 18:22:39.706020  6871 net.cpp:399] inception_5b/pool_proj -> inception_5b/pool_proj
I0403 18:22:39.708396  6871 net.cpp:141] Setting up inception_5b/pool_proj
I0403 18:22:39.708426  6871 net.cpp:148] Top shape: 24 128 7 7 (150528)
I0403 18:22:39.708443  6871 net.cpp:156] Memory required for data: 1340445216
I0403 18:22:39.708461  6871 layer_factory.hpp:77] Creating layer inception_5b/relu_pool_proj
I0403 18:22:39.708484  6871 net.cpp:91] Creating Layer inception_5b/relu_pool_proj
I0403 18:22:39.708500  6871 net.cpp:425] inception_5b/relu_pool_proj <- inception_5b/pool_proj
I0403 18:22:39.708518  6871 net.cpp:386] inception_5b/relu_pool_proj -> inception_5b/pool_proj (in-place)
I0403 18:22:39.708817  6871 net.cpp:141] Setting up inception_5b/relu_pool_proj
I0403 18:22:39.708843  6871 net.cpp:148] Top shape: 24 128 7 7 (150528)
I0403 18:22:39.708858  6871 net.cpp:156] Memory required for data: 1341047328
I0403 18:22:39.708873  6871 layer_factory.hpp:77] Creating layer inception_5b/output
I0403 18:22:39.708890  6871 net.cpp:91] Creating Layer inception_5b/output
I0403 18:22:39.708922  6871 net.cpp:425] inception_5b/output <- inception_5b/1x1
I0403 18:22:39.708943  6871 net.cpp:425] inception_5b/output <- inception_5b/3x3
I0403 18:22:39.708961  6871 net.cpp:425] inception_5b/output <- inception_5b/5x5
I0403 18:22:39.708976  6871 net.cpp:425] inception_5b/output <- inception_5b/pool_proj
I0403 18:22:39.708994  6871 net.cpp:399] inception_5b/output -> inception_5b/output
I0403 18:22:39.709049  6871 net.cpp:141] Setting up inception_5b/output
I0403 18:22:39.709074  6871 net.cpp:148] Top shape: 24 1024 7 7 (1204224)
I0403 18:22:39.709089  6871 net.cpp:156] Memory required for data: 1345864224
I0403 18:22:39.709102  6871 layer_factory.hpp:77] Creating layer pool5/7x7_s1
I0403 18:22:39.709121  6871 net.cpp:91] Creating Layer pool5/7x7_s1
I0403 18:22:39.709136  6871 net.cpp:425] pool5/7x7_s1 <- inception_5b/output
I0403 18:22:39.709157  6871 net.cpp:399] pool5/7x7_s1 -> pool5/7x7_s1
I0403 18:22:39.709378  6871 net.cpp:141] Setting up pool5/7x7_s1
I0403 18:22:39.709404  6871 net.cpp:148] Top shape: 24 1024 1 1 (24576)
I0403 18:22:39.709419  6871 net.cpp:156] Memory required for data: 1345962528
I0403 18:22:39.709434  6871 layer_factory.hpp:77] Creating layer pool5/drop_7x7_s1
I0403 18:22:39.709455  6871 net.cpp:91] Creating Layer pool5/drop_7x7_s1
I0403 18:22:39.709470  6871 net.cpp:425] pool5/drop_7x7_s1 <- pool5/7x7_s1
I0403 18:22:39.709487  6871 net.cpp:386] pool5/drop_7x7_s1 -> pool5/7x7_s1 (in-place)
I0403 18:22:39.709539  6871 net.cpp:141] Setting up pool5/drop_7x7_s1
I0403 18:22:39.709563  6871 net.cpp:148] Top shape: 24 1024 1 1 (24576)
I0403 18:22:39.709578  6871 net.cpp:156] Memory required for data: 1346060832
I0403 18:22:39.709594  6871 layer_factory.hpp:77] Creating layer loss3/classifier_plantvillage
I0403 18:22:39.709612  6871 net.cpp:91] Creating Layer loss3/classifier_plantvillage
I0403 18:22:39.709628  6871 net.cpp:425] loss3/classifier_plantvillage <- pool5/7x7_s1
I0403 18:22:39.709650  6871 net.cpp:399] loss3/classifier_plantvillage -> loss3/classifier_plantvillage
I0403 18:22:39.710085  6871 net.cpp:141] Setting up loss3/classifier_plantvillage
I0403 18:22:39.710111  6871 net.cpp:148] Top shape: 24 38 (912)
I0403 18:22:39.710125  6871 net.cpp:156] Memory required for data: 1346064480
I0403 18:22:39.710144  6871 layer_factory.hpp:77] Creating layer loss3/classifier_plantvillage_loss3/classifier_plantvillage_0_split
I0403 18:22:39.710161  6871 net.cpp:91] Creating Layer loss3/classifier_plantvillage_loss3/classifier_plantvillage_0_split
I0403 18:22:39.710177  6871 net.cpp:425] loss3/classifier_plantvillage_loss3/classifier_plantvillage_0_split <- loss3/classifier_plantvillage
I0403 18:22:39.710199  6871 net.cpp:399] loss3/classifier_plantvillage_loss3/classifier_plantvillage_0_split -> loss3/classifier_plantvillage_loss3/classifier_plantvillage_0_split_0
I0403 18:22:39.710222  6871 net.cpp:399] loss3/classifier_plantvillage_loss3/classifier_plantvillage_0_split -> loss3/classifier_plantvillage_loss3/classifier_plantvillage_0_split_1
I0403 18:22:39.710247  6871 net.cpp:399] loss3/classifier_plantvillage_loss3/classifier_plantvillage_0_split -> loss3/classifier_plantvillage_loss3/classifier_plantvillage_0_split_2
I0403 18:22:39.710270  6871 net.cpp:399] loss3/classifier_plantvillage_loss3/classifier_plantvillage_0_split -> loss3/classifier_plantvillage_loss3/classifier_plantvillage_0_split_3
I0403 18:22:39.710372  6871 net.cpp:141] Setting up loss3/classifier_plantvillage_loss3/classifier_plantvillage_0_split
I0403 18:22:39.710397  6871 net.cpp:148] Top shape: 24 38 (912)
I0403 18:22:39.710412  6871 net.cpp:148] Top shape: 24 38 (912)
I0403 18:22:39.710428  6871 net.cpp:148] Top shape: 24 38 (912)
I0403 18:22:39.710444  6871 net.cpp:148] Top shape: 24 38 (912)
I0403 18:22:39.710459  6871 net.cpp:156] Memory required for data: 1346079072
I0403 18:22:39.710474  6871 layer_factory.hpp:77] Creating layer loss1/loss
I0403 18:22:39.710496  6871 net.cpp:91] Creating Layer loss1/loss
I0403 18:22:39.710515  6871 net.cpp:425] loss1/loss <- loss1/classifier_plantvillage_loss1/classifier_plantvillage_0_split_0
I0403 18:22:39.710544  6871 net.cpp:425] loss1/loss <- label_data_1_split_0
…
