…
I0403 18:26:44.807057  6974 net.cpp:313] The NetState phase (1) differed from the phase (0) specified by a rule in layer data
I0403 18:26:44.808249  6974 net.cpp:49] Initializing net from parameters: 
state {
  phase: TEST
}
layer {
  name: "data"
  type: "Data"
  top: "data"
  top: "label"
  include {
    phase: TEST
  }
  transform_param {
    mirror: false
    crop_size: 224
    mean_file: "/home/mohanty/data/final_dataset/lmdb/grayscale-40-60/mean.binaryproto"
  }
  data_param {
    source: "/home/mohanty/data/final_dataset/lmdb/grayscale-40-60/test_db"
    batch_size: 24
    backend: LMDB
  }
}
layer {
  name: "conv1/7x7_s2"
  type: "Convolution"
  bottom: "data"
  top: "conv1/7x7_s2"
  param {
    lr_mult: 1
    decay_mult: 1
  }
  param {
    lr_mult: 2
    decay_mult: 0
  }
  convolution_param {
    num_output: 64
    pad: 3
    kernel_size: 7
    stride: 2
    weight_filler {
      type: "xavier"
      std: 0.1
    }
    bias_filler {
      type: "constant"
      value: 0.2
    }
  }
}
layer {
  name: "conv1/relu_7x7"
  type: "ReLU"
  bottom: "conv1/7x7_s2"
  top: "conv1/7x7_s2"
}
layer {
  name: "pool1/3x3_s2"
  type: "Pooling"
  bottom: "conv1/7x7_s2"
  top: "pool1/3x3_s2"
  pooling_param {
    pool: MAX
    kernel_size: 3
    stride: 2
  }
}
layer {
  name: "pool1/norm1"
  type: "LRN"
  bottom: "pool1/3x3_s2"
  top: "pool1/norm1"
  lrn_param {
    local_size: 5
    alpha: 0.0001
    beta: 0.75
  }
}
layer {
  name: "conv2/3x3_reduce"
  type: "Convolution"
  bottom: "pool1/norm1"
  top: "conv2/3x3_reduce"
  param {
    lr_mult: 1
    decay_mult: 1
  }
  param {
    lr_mult: 2
    decay_mult: 0
  }
  convolution_param {
    num_output: 64
    kernel_size: 1
    weight_filler {
      type: "xavier"
      std: 0.1
    }
    bias_filler {
      type: "constant"
      value: 0.2
    }
  }
}
layer {
  name: "conv2/relu_3x3_reduce"
  type: "ReLU"
  bottom: "conv2/3x3_reduce"
  top: "conv2/3x3_reduce"
}
layer {
  name: "conv2/3x3"
  type: "Convolution"
  bottom: "conv2/3x3_reduce"
  top: "conv2/3x3"
  param {
    lr_mult: 1
    decay_mult: 1
  }
  param {
    lr_mult: 2
    decay_mult: 0
  }
  convolution_param {
    num_output: 192
    pad: 1
    kernel_size: 3
    weight_filler {
      type: "xavier"
      std: 0.03
    }
    bias_filler {
      type: "constant"
      value: 0.2
    }
  }
}
layer {
  name: "conv2/relu_3x3"
  type: "ReLU"
  bottom: "conv2/3x3"
  top: "conv2/3x3"
}
layer {
  name: "conv2/norm2"
  type: "LRN"
  bottom: "conv2/3x3"
  top: "conv2/norm2"
  lrn_param {
    local_size: 5
    alpha: 0.0001
    beta: 0.75
  }
}
layer {
  name: "pool2/3x3_s2"
  type: "Pooling"
  bottom: "conv2/norm2"
  top: "pool2/3x3_s2"
  pooling_param {
    pool: MAX
    kernel_size: 3
    stride: 2
  }
}
layer {
  name: "inception_3a/1x1"
  type: "Convolution"
  bottom: "pool2/3x3_s2"
  top: "inception_3a/1x1"
  param {
    lr_mult: 1
    decay_mult: 1
  }
  param {
    lr_mult: 2
    decay_mult: 0
  }
  convolution_param {
    num_output: 64
    kernel_size: 1
    weight_filler {
      type: "xavier"
      std: 0.03
    }
    bias_filler {
      type: "constant"
      value: 0.2
    }
  }
}
layer {
  name: "inception_3a/relu_1x1"
  type: "ReLU"
  bottom: "inception_3a/1x1"
  top: "inception_3a/1x1"
}
layer {
  name: "inception_3a/3x3_reduce"
  type: "Convolution"
  bottom: "pool2/3x3_s2"
  top: "inception_3a/3x3_reduce"
  param {
    lr_mult: 1
    decay_mult: 1
  }
  param {
    lr_mult: 2
    decay_mult: 0
  }
  convolution_param {
    num_output: 96
    kernel_size: 1
    weight_filler {
      type: "xavier"
      std: 0.09
    }
    bias_filler {
      type: "constant"
      value: 0.2
    }
  }
}
layer {
  name: "inception_3a/relu_3x3_reduce"
  type: "ReLU"
  bottom: "inception_3a/3x3_reduce"
  top: "inception_3a/3x3_reduce"
}
layer {
  name: "inception_3a/3x3"
  type: "Convolution"
  bottom: "inception_3a/3x3_reduce"
  top: "inception_3a/3x3"
  param {
    lr_mult: 1
    decay_mult: 1
  }
  param {
    lr_mult: 2
    decay_mult: 0
  }
  convolution_param {
    num_output: 128
    pad: 1
    kernel_size: 3
    weight_filler {
      type: "xavier"
      std: 0.03
    }
    bias_filler {
      type: "constant"
      value: 0.2
    }
  }
}
layer {
  name: "inception_3a/relu_3x3"
  type: "ReLU"
  bottom: "inception_3a/3x3"
  top: "inception_3a/3x3"
}
layer {
  name: "inception_3a/5x5_reduce"
  type: "Convolution"
  bottom: "pool2/3x3_s2"
  top: "inception_3a/5x5_reduce"
  param {
    lr_mult: 1
    decay_mult: 1
  }
  param {
    lr_mult: 2
    decay_mult: 0
  }
  convolution_param {
    num_output: 16
    kernel_size: 1
    weight_filler {
      type: "xavier"
      std: 0.2
    }
    bias_filler {
      type: "constant"
      value: 0.2
    }
  }
}
layer {
  name: "inception_3a/relu_5x5_reduce"
  type: "ReLU"
  bottom: "inception_3a/5x5_reduce"
  top: "inception_3a/5x5_reduce"
}
layer {
  name: "inception_3a/5x5"
  type: "Convolution"
  bottom: "inception_3a/5x5_reduce"
  top: "inception_3a/5x5"
  param {
    lr_mult: 1
    decay_mult: 1
  }
  param {
    lr_mult: 2
    decay_mult: 0
  }
  convolution_param {
    num_output: 32
    pad: 2
    kernel_size: 5
    weight_filler {
      type: "xavier"
      std: 0.03
    }
    bias_filler {
      type: "constant"
      value: 0.2
    }
  }
}
layer {
  name: "inception_3a/relu_5x5"
  type: "ReLU"
  bottom: "inception_3a/5x5"
  top: "inception_3a/5x5"
}
layer {
  name: "inception_3a/pool"
  type: "Pooling"
  bottom: "pool2/3x3_s2"
  top: "inception_3a/pool"
  pooling_param {
    pool: MAX
    kernel_size: 3
    stride: 1
    pad: 1
  }
}
layer {
  name: "inception_3a/pool_proj"
  type: "Convolution"
  bottom: "inception_3a/pool"
  top: "inception_3a/pool_proj"
  param {
    lr_mult: 1
    decay_mult: 1
  }
  param {
    lr_mult: 2
    decay_mult: 0
  }
  convolution_param {
    num_output: 32
    kernel_size: 1
    weight_filler {
      type: "xavier"
      std: 0.1
    }
    bias_filler {
      type: "constant"
      value: 0.2
    }
  }
}
layer {
  name: "inception_3a/relu_pool_proj"
  type: "ReLU"
  bottom: "inception_3a/pool_proj"
  top: "inception_3a/pool_proj"
}
layer {
  name: "inception_3a/output"
  type: "Concat"
  bottom: "inception_3a/1x1"
  bottom: "inception_3a/3x3"
  bottom: "inception_3a/5x5"
  bottom: "inception_3a/pool_proj"
  top: "inception_3a/output"
}
layer {
  name: "inception_3b/1x1"
  type: "Convolution"
  bottom: "inception_3a/output"
  top: "inception_3b/1x1"
  param {
    lr_mult: 1
    decay_mult: 1
  }
  param {
    lr_mult: 2
    decay_mult: 0
  }
  convolution_param {
    num_output: 128
    kernel_size: 1
    weight_filler {
      type: "xavier"
      std: 0.03
    }
    bias_filler {
      type: "constant"
      value: 0.2
    }
  }
}
layer {
  name: "inception_3b/relu_1x1"
  type: "ReLU"
  bottom: "inception_3b/1x1"
  top: "inception_3b/1x1"
}
layer {
  name: "inception_3b/3x3_reduce"
  type: "Convolution"
  bottom: "inception_3a/output"
  top: "inception_3b/3x3_reduce"
  param {
    lr_mult: 1
    decay_mult: 1
  }
  param {
    lr_mult: 2
    decay_mult: 0
  }
  convolution_param {
    num_output: 128
    kernel_size: 1
    weight_filler {
      type: "xavier"
      std: 0.09
    }
    bias_filler {
      type: "constant"
      value: 0.2
    }
  }
}
layer {
  name: "inception_3b/relu_3x3_reduce"
  type: "ReLU"
  bottom: "inception_3b/3x3_reduce"
  top: "inception_3b/3x3_reduce"
}
layer {
  name: "inception_3b/3x3"
  type: "Convolution"
  bottom: "inception_3b/3x3_reduce"
  top: "inception_3b/3x3"
  param {
    lr_mult: 1
    decay_mult: 1
  }
  param {
    lr_mult: 2
    decay_mult: 0
  }
  convolution_param {
    num_output: 192
    pad: 1
    kernel_size: 3
    weight_filler {
      type: "xavier"
      std: 0.03
    }
    bias_filler {
      type: "constant"
      value: 0.2
    }
  }
}
layer {
  name: "inception_3b/relu_3x3"
  type: "ReLU"
  bottom: "inception_3b/3x3"
  top: "inception_3b/3x3"
}
layer {
  name: "inception_3b/5x5_reduce"
  type: "Convolution"
  bottom: "inception_3a/output"
  top: "inception_3b/5x5_reduce"
  param {
    lr_mult: 1
    decay_mult: 1
  }
  param {
    lr_mult: 2
    decay_mult: 0
  }
  convolution_param {
    num_output: 32
    kernel_size: 1
    weight_filler {
      type: "xavier"
      std: 0.2
    }
    bias_filler {
      type: "constant"
      value: 0.2
    }
  }
}
layer {
  name: "inception_3b/relu_5x5_reduce"
  type: "ReLU"
  bottom: "inception_3b/5x5_reduce"
  top: "inception_3b/5x5_reduce"
}
layer {
  name: "inception_3b/5x5"
  type: "Convolution"
  bottom: "inception_3b/5x5_reduce"
  top: "inception_3b/5x5"
  param {
    lr_mult: 1
    decay_mult: 1
  }
  param {
    lr_mult: 2
    decay_mult: 0
  }
  convolution_param {
    num_output: 96
    pad: 2
    kernel_size: 5
    weight_filler {
      type: "xavier"
      std: 0.03
    }
    bias_filler {
      type: "constant"
      value: 0.2
    }
  }
}
layer {
  name: "inception_3b/relu_5x5"
  type: "ReLU"
  bottom: "inception_3b/5x5"
  top: "inception_3b/5x5"
}
layer {
  name: "inception_3b/pool"
  type: "Pooling"
  bottom: "inception_3a/output"
  top: "inception_3b/pool"
  pooling_param {
    pool: MAX
    kernel_size: 3
    stride: 1
    pad: 1
  }
}
layer {
  name: "inception_3b/pool_proj"
  type: "Convolution"
  bottom: "inception_3b/pool"
  top: "inception_3b/pool_proj"
  param {
    lr_mult: 1
    decay_mult: 1
  }
  param {
    lr_mult: 2
    decay_mult: 0
  }
  convolution_param {
    num_output: 64
    kernel_size: 1
    weight_filler {
      type: "xavier"
      std: 0.1
    }
    bias_filler {
      type: "constant"
      value: 0.2
    }
  }
}
layer {
  name: "inception_3b/relu_pool_proj"
  type: "ReLU"
  bottom: "inception_3b/pool_proj"
  top: "inception_3b/pool_proj"
}
layer {
  name: "inception_3b/output"
  type: "Concat"
  bottom: "inception_3b/1x1"
  bottom: "inception_3b/3x3"
  bottom: "inception_3b/5x5"
  bottom: "inception_3b/pool_proj"
  top: "inception_3b/output"
}
layer {
  name: "pool3/3x3_s2"
  type: "Pooling"
  bottom: "inception_3b/output"
  top: "pool3/3x3_s2"
  pooling_param {
    pool: MAX
    kernel_size: 3
    stride: 2
  }
}
layer {
  name: "inception_4a/1x1"
  type: "Convolution"
  bottom: "pool3/3x3_s2"
  top: "inception_4a/1x1"
  param {
    lr_mult: 1
    decay_mult: 1
  }
  param {
    lr_mult: 2
    decay_mult: 0
  }
  convolution_param {
    num_output: 192
    kernel_size: 1
    weight_filler {
      type: "xavier"
      std: 0.03
    }
    bias_filler {
      type: "constant"
      value: 0.2
    }
  }
}
layer {
  name: "inception_4a/relu_1x1"
  type: "ReLU"
  bottom: "inception_4a/1x1"
  top: "inception_4a/1x1"
}
layer {
  name: "inception_4a/3x3_reduce"
  type: "Convolution"
  bottom: "pool3/3x3_s2"
  top: "inception_4a/3x3_reduce"
  param {
    lr_mult: 1
    decay_mult: 1
  }
  param {
    lr_mult: 2
    decay_mult: 0
  }
  convolution_param {
    num_output: 96
    kernel_size: 1
    weight_filler {
      type: "xavier"
      std: 0.09
    }
    bias_filler {
      type: "constant"
      value: 0.2
    }
  }
}
layer {
  name: "inception_4a/relu_3x3_reduce"
  type: "ReLU"
  bottom: "inception_4a/3x3_reduce"
  top: "inception_4a/3x3_reduce"
}
layer {
  name: "inception_4a/3x3"
  type: "Convolution"
  bottom: "inception_4a/3x3_reduce"
  top: "inception_4a/3x3"
  param {
    lr_mult: 1
    decay_mult: 1
  }
  param {
    lr_mult: 2
    decay_mult: 0
  }
  convolution_param {
    num_output: 208
    pad: 1
    kernel_size: 3
    weight_filler {
      type: "xavier"
      std: 0.03
    }
    bias_filler {
      type: "constant"
      value: 0.2
    }
  }
}
layer {
  name: "inception_4a/relu_3x3"
  type: "ReLU"
  bottom: "inception_4a/3x3"
  top: "inception_4a/3x3"
}
layer {
  name: "inception_4a/5x5_reduce"
  type: "Convolution"
  bottom: "pool3/3x3_s2"
  top: "inception_4a/5x5_reduce"
  param {
    lr_mult: 1
    decay_mult: 1
  }
  param {
    lr_mult: 2
    decay_mult: 0
  }
  convolution_param {
    num_output: 16
    kernel_size: 1
    weight_filler {
      type: "xavier"
      std: 0.2
    }
    bias_filler {
      type: "constant"
      value: 0.2
    }
  }
}
layer {
  name: "inception_4a/relu_5x5_reduce"
  type: "ReLU"
  bottom: "inception_4a/5x5_reduce"
  top: "inception_4a/5x5_reduce"
}
layer {
  name: "inception_4a/5x5"
  type: "Convolution"
  bottom: "inception_4a/5x5_reduce"
  top: "inception_4a/5x5"
  param {
    lr_mult: 1
    decay_mult: 1
  }
  param {
    lr_mult: 2
    decay_mult: 0
  }
  convolution_param {
    num_output: 48
    pad: 2
    kernel_size: 5
    weight_filler {
      type: "xavier"
      std: 0.03
    }
    bias_filler {
      type: "constant"
      value: 0.2
    }
  }
}
layer {
  name: "inception_4a/relu_5x5"
  type: "ReLU"
  bottom: "inception_4a/5x5"
  top: "inception_4a/5x5"
}
layer {
  name: "inception_4a/pool"
  type: "Pooling"
  bottom: "pool3/3x3_s2"
  top: "inception_4a/pool"
  pooling_param {
    pool: MAX
    kernel_size: 3
    stride: 1
    pad: 1
  }
}
layer {
  name: "inception_4a/pool_proj"
  type: "Convolution"
  bottom: "inception_4a/pool"
  top: "inception_4a/pool_proj"
  param {
    lr_mult: 1
    decay_mult: 1
  }
  param {
    lr_mult: 2
    decay_mult: 0
  }
  convolution_param {
    num_output: 64
    kernel_size: 1
    weight_filler {
      type: "xavier"
      std: 0.1
    }
    bias_filler {
      type: "constant"
      value: 0.2
    }
  }
}
layer {
  name: "inception_4a/relu_pool_proj"
  type: "ReLU"
  bottom: "inception_4a/pool_proj"
  top: "inception_4a/pool_proj"
}
layer {
  name: "inception_4a/output"
  type: "Concat"
  bottom: "inception_4a/1x1"
  bottom: "inception_4a/3x3"
  bottom: "inception_4a/5x5"
  bottom: "inception_4a/pool_proj"
  top: "inception_4a/output"
}
layer {
  name: "loss1/ave_pool"
  type: "Pooling"
  bottom: "inception_4a/output"
  top: "loss1/ave_pool"
  pooling_param {
    pool: AVE
    kernel_size: 5
    stride: 3
  }
}
layer {
  name: "loss1/conv"
  type: "Convolution"
  bottom: "loss1/ave_pool"
  top: "loss1/conv"
  param {
    lr_mult: 1
    decay_mult: 1
  }
  param {
    lr_mult: 2
    decay_mult: 0
  }
  convolution_param {
    num_output: 128
    kernel_size: 1
    weight_filler {
      type: "xavier"
      std: 0.08
    }
    bias_filler {
      type: "constant"
      value: 0.2
    }
  }
}
layer {
  name: "loss1/relu_conv"
  type: "ReLU"
  bottom: "loss1/conv"
  top: "loss1/conv"
}
layer {
  name: "loss1/fc"
  type: "InnerProduct"
  bottom: "loss1/conv"
  top: "loss1/fc"
  param {
    lr_mult: 1
    decay_mult: 1
  }
  param {
    lr_mult: 2
    decay_mult: 0
  }
  inner_product_param {
    num_output: 1024
    weight_filler {
      type: "xavier"
      std: 0.02
    }
    bias_filler {
      type: "constant"
      value: 0.2
    }
  }
}
layer {
  name: "loss1/relu_fc"
  type: "ReLU"
  bottom: "loss1/fc"
  top: "loss1/fc"
}
layer {
  name: "loss1/drop_fc"
  type: "Dropout"
  bottom: "loss1/fc"
  top: "loss1/fc"
  dropout_param {
    dropout_ratio: 0.7
  }
}
layer {
  name: "loss1/classifier_plantvillage"
  type: "InnerProduct"
  bottom: "loss1/fc"
  top: "loss1/classifier_plantvillage"
  param {
    lr_mult: 1
    decay_mult: 1
  }
  param {
    lr_mult: 2
    decay_mult: 0
  }
  inner_product_param {
    num_output: 38
    weight_filler {
      type: "xavier"
      std: 0.0009765625
    }
    bias_filler {
      type: "constant"
      value: 0
    }
  }
}
layer {
  name: "inception_4b/1x1"
  type: "Convolution"
  bottom: "inception_4a/output"
  top: "inception_4b/1x1"
  param {
    lr_mult: 1
    decay_mult: 1
  }
  param {
    lr_mult: 2
    decay_mult: 0
  }
  convolution_param {
    num_output: 160
    kernel_size: 1
    weight_filler {
      type: "xavier"
      std: 0.03
    }
    bias_filler {
      type: "constant"
      value: 0.2
    }
  }
}
layer {
  name: "inception_4b/relu_1x1"
  type: "ReLU"
  bottom: "inception_4b/1x1"
  top: "inception_4b/1x1"
}
layer {
  name: "inception_4b/3x3_reduce"
  type: "Convolution"
  bottom: "inception_4a/output"
  top: "inception_4b/3x3_reduce"
  param {
    lr_mult: 1
    decay_mult: 1
  }
  param {
    lr_mult: 2
    decay_mult: 0
  }
  convolution_param {
    num_output: 112
    kernel_size: 1
    weight_filler {
      type: "xavier"
      std: 0.09
    }
    bias_filler {
      type: "constant"
      value: 0.2
    }
  }
}
layer {
  name: "inception_4b/relu_3x3_reduce"
  type: "ReLU"
  bottom: "inception_4b/3x3_reduce"
  top: "inception_4b/3x3_reduce"
}
layer {
  name: "inception_4b/3x3"
  type: "Convolution"
  bottom: "inception_4b/3x3_reduce"
  top: "inception_4b/3x3"
  param {
    lr_mult: 1
    decay_mult: 1
  }
  param {
    lr_mult: 2
    decay_mult: 0
  }
  convolution_param {
    num_output: 224
    pad: 1
    kernel_size: 3
    weight_filler {
      type: "xavier"
      std: 0.03
    }
    bias_filler {
      type: "constant"
      value: 0.2
    }
  }
}
layer {
  name: "inception_4b/relu_3x3"
  type: "ReLU"
  bottom: "inception_4b/3x3"
  top: "inception_4b/3x3"
}
layer {
  name: "inception_4b/5x5_reduce"
  type: "Convolution"
  bottom: "inception_4a/output"
  top: "inception_4b/5x5_reduce"
  param {
    lr_mult: 1
    decay_mult: 1
  }
  param {
    lr_mult: 2
    decay_mult: 0
  }
  convolution_param {
    num_output: 24
    kernel_size: 1
    weight_filler {
      type: "xavier"
      std: 0.2
    }
    bias_filler {
      type: "constant"
      value: 0.2
    }
  }
}
layer {
  name: "inception_4b/relu_5x5_reduce"
  type: "ReLU"
  bottom: "inception_4b/5x5_reduce"
  top: "inception_4b/5x5_reduce"
}
layer {
  name: "inception_4b/5x5"
  type: "Convolution"
  bottom: "inception_4b/5x5_reduce"
  top: "inception_4b/5x5"
  param {
    lr_mult: 1
    decay_mult: 1
  }
  param {
    lr_mult: 2
    decay_mult: 0
  }
  convolution_param {
    num_output: 64
    pad: 2
    kernel_size: 5
    weight_filler {
      type: "xavier"
      std: 0.03
    }
    bias_filler {
      type: "constant"
      value: 0.2
    }
  }
}
layer {
  name: "inception_4b/relu_5x5"
  type: "ReLU"
  bottom: "inception_4b/5x5"
  top: "inception_4b/5x5"
}
layer {
  name: "inception_4b/pool"
  type: "Pooling"
  bottom: "inception_4a/output"
  top: "inception_4b/pool"
  pooling_param {
    pool: MAX
    kernel_size: 3
    stride: 1
    pad: 1
  }
}
layer {
  name: "inception_4b/pool_proj"
  type: "Convolution"
  bottom: "inception_4b/pool"
  top: "inception_4b/pool_proj"
  param {
    lr_mult: 1
    decay_mult: 1
  }
  param {
    lr_mult: 2
    decay_mult: 0
  }
  convolution_param {
    num_output: 64
    kernel_size: 1
    weight_filler {
      type: "xavier"
      std: 0.1
    }
    bias_filler {
      type: "constant"
      value: 0.2
    }
  }
}
layer {
  name: "inception_4b/relu_pool_proj"
  type: "ReLU"
  bottom: "inception_4b/pool_proj"
  top: "inception_4b/pool_proj"
}
layer {
  name: "inception_4b/output"
  type: "Concat"
  bottom: "inception_4b/1x1"
  bottom: "inception_4b/3x3"
  bottom: "inception_4b/5x5"
  bottom: "inception_4b/pool_proj"
  top: "inception_4b/output"
}
layer {
  name: "inception_4c/1x1"
  type: "Convolution"
  bottom: "inception_4b/output"
  top: "inception_4c/1x1"
  param {
    lr_mult: 1
    decay_mult: 1
  }
  param {
    lr_mult: 2
    decay_mult: 0
  }
  convolution_param {
    num_output: 128
    kernel_size: 1
    weight_filler {
      type: "xavier"
      std: 0.03
    }
    bias_filler {
      type: "constant"
      value: 0.2
    }
  }
}
layer {
  name: "inception_4c/relu_1x1"
  type: "ReLU"
  bottom: "inception_4c/1x1"
  top: "inception_4c/1x1"
}
layer {
  name: "inception_4c/3x3_reduce"
  type: "Convolution"
  bottom: "inception_4b/output"
  top: "inception_4c/3x3_reduce"
  param {
    lr_mult: 1
    decay_mult: 1
  }
  param {
    lr_mult: 2
    decay_mult: 0
  }
  convolution_param {
    num_output: 128
    kernel_size: 1
    weight_filler {
      type: "xavier"
      std: 0.09
    }
    bias_filler {
      type: "constant"
      value: 0.2
    }
  }
}
layer {
  name: "inception_4c/relu_3x3_reduce"
  type: "ReLU"
  bottom: "inception_4c/3x3_reduce"
  top: "inception_4c/3x3_reduce"
}
layer {
  name: "inception_4c/3x3"
  type: "Convolution"
  bottom: "inception_4c/3x3_reduce"
  top: "inception_4c/3x3"
  param {
    lr_mult: 1
    decay_mult: 1
  }
  param {
    lr_mult: 2
    decay_mult: 0
  }
  convolution_param {
    num_output: 256
    pad: 1
    kernel_size: 3
    weight_filler {
      type: "xavier"
      std: 0.03
    }
    bias_filler {
      type: "constant"
      value: 0.2
    }
  }
}
layer {
  name: "inception_4c/relu_3x3"
  type: "ReLU"
  bottom: "inception_4c/3x3"
  top: "inception_4c/3x3"
}
layer {
  name: "inception_4c/5x5_reduce"
  type: "Convolution"
  bottom: "inception_4b/output"
  top: "inception_4c/5x5_reduce"
  param {
    lr_mult: 1
    decay_mult: 1
  }
  param {
    lr_mult: 2
    decay_mult: 0
  }
  convolution_param {
    num_output: 24
    kernel_size: 1
    weight_filler {
      type: "xavier"
      std: 0.2
    }
    bias_filler {
      type: "constant"
      value: 0.2
    }
  }
}
layer {
  name: "inception_4c/relu_5x5_reduce"
  type: "ReLU"
  bottom: "inception_4c/5x5_reduce"
  top: "inception_4c/5x5_reduce"
}
layer {
  name: "inception_4c/5x5"
  type: "Convolution"
  bottom: "inception_4c/5x5_reduce"
  top: "inception_4c/5x5"
  param {
    lr_mult: 1
    decay_mult: 1
  }
  param {
    lr_mult: 2
    decay_mult: 0
  }
  convolution_param {
    num_output: 64
    pad: 2
    kernel_size: 5
    weight_filler {
      type: "xavier"
      std: 0.03
    }
    bias_filler {
      type: "constant"
      value: 0.2
    }
  }
}
layer {
  name: "inception_4c/relu_5x5"
  type: "ReLU"
  bottom: "inception_4c/5x5"
  top: "inception_4c/5x5"
}
layer {
  name: "inception_4c/pool"
  type: "Pooling"
  bottom: "inception_4b/output"
  top: "inception_4c/pool"
  pooling_param {
    pool: MAX
    kernel_size: 3
    stride: 1
    pad: 1
  }
}
layer {
  name: "inception_4c/pool_proj"
  type: "Convolution"
  bottom: "inception_4c/pool"
  top: "inception_4c/pool_proj"
  param {
    lr_mult: 1
    decay_mult: 1
  }
  param {
    lr_mult: 2
    decay_mult: 0
  }
  convolution_param {
    num_output: 64
    kernel_size: 1
    weight_filler {
      type: "xavier"
      std: 0.1
    }
    bias_filler {
      type: "constant"
      value: 0.2
    }
  }
}
layer {
  name: "inception_4c/relu_pool_proj"
  type: "ReLU"
  bottom: "inception_4c/pool_proj"
  top: "inception_4c/pool_proj"
}
layer {
  name: "inception_4c/output"
  type: "Concat"
  bottom: "inception_4c/1x1"
  bottom: "inception_4c/3x3"
  bottom: "inception_4c/5x5"
  bottom: "inception_4c/pool_proj"
  top: "inception_4c/output"
}
layer {
  name: "inception_4d/1x1"
  type: "Convolution"
  bottom: "inception_4c/output"
  top: "inception_4d/1x1"
  param {
    lr_mult: 1
    decay_mult: 1
  }
  param {
    lr_mult: 2
    decay_mult: 0
  }
  convolution_param {
    num_output: 112
    kernel_size: 1
    weight_filler {
      type: "xavier"
      std: 0.03
    }
    bias_filler {
      type: "constant"
      value: 0.2
    }
  }
}
layer {
  name: "inception_4d/relu_1x1"
  type: "ReLU"
  bottom: "inception_4d/1x1"
  top: "inception_4d/1x1"
}
layer {
  name: "inception_4d/3x3_reduce"
  type: "Convolution"
  bottom: "inception_4c/output"
  top: "inception_4d/3x3_reduce"
  param {
    lr_mult: 1
    decay_mult: 1
  }
  param {
    lr_mult: 2
    decay_mult: 0
  }
  convolution_param {
    num_output: 144
    kernel_size: 1
    weight_filler {
      type: "xavier"
      std: 0.09
    }
    bias_filler {
      type: "constant"
      value: 0.2
    }
  }
}
layer {
  name: "inception_4d/relu_3x3_reduce"
  type: "ReLU"
  bottom: "inception_4d/3x3_reduce"
  top: "inception_4d/3x3_reduce"
}
layer {
  name: "inception_4d/3x3"
  type: "Convolution"
  bottom: "inception_4d/3x3_reduce"
  top: "inception_4d/3x3"
  param {
    lr_mult: 1
    decay_mult: 1
  }
  param {
    lr_mult: 2
    decay_mult: 0
  }
  convolution_param {
    num_output: 288
    pad: 1
    kernel_size: 3
    weight_filler {
      type: "xavier"
      std: 0.03
    }
    bias_filler {
      type: "constant"
      value: 0.2
    }
  }
}
layer {
  name: "inception_4d/relu_3x3"
  type: "ReLU"
  bottom: "inception_4d/3x3"
  top: "inception_4d/3x3"
}
layer {
  name: "inception_4d/5x5_reduce"
  type: "Convolution"
  bottom: "inception_4c/output"
  top: "inception_4d/5x5_reduce"
  param {
    lr_mult: 1
    decay_mult: 1
  }
  param {
    lr_mult: 2
    decay_mult: 0
  }
  convolution_param {
    num_output: 32
    kernel_size: 1
    weight_filler {
      type: "xavier"
      std: 0.2
    }
    bias_filler {
      type: "constant"
      value: 0.2
    }
  }
}
layer {
  name: "inception_4d/relu_5x5_reduce"
  type: "ReLU"
  bottom: "inception_4d/5x5_reduce"
  top: "inception_4d/5x5_reduce"
}
layer {
  name: "inception_4d/5x5"
  type: "Convolution"
  bottom: "inception_4d/5x5_reduce"
  top: "inception_4d/5x5"
  param {
    lr_mult: 1
    decay_mult: 1
  }
  param {
    lr_mult: 2
    decay_mult: 0
  }
  convolution_param {
    num_output: 64
    pad: 2
    kernel_size: 5
    weight_filler {
      type: "xavier"
      std: 0.03
    }
    bias_filler {
      type: "constant"
      value: 0.2
    }
  }
}
layer {
  name: "inception_4d/relu_5x5"
  type: "ReLU"
  bottom: "inception_4d/5x5"
  top: "inception_4d/5x5"
}
layer {
  name: "inception_4d/pool"
  type: "Pooling"
  bottom: "inception_4c/output"
  top: "inception_4d/pool"
  pooling_param {
    pool: MAX
    kernel_size: 3
    stride: 1
    pad: 1
  }
}
layer {
  name: "inception_4d/pool_proj"
  type: "Convolution"
  bottom: "inception_4d/pool"
  top: "inception_4d/pool_proj"
  param {
    lr_mult: 1
    decay_mult: 1
  }
  param {
    lr_mult: 2
    decay_mult: 0
  }
  convolution_param {
    num_output: 64
    kernel_size: 1
    weight_filler {
      type: "xavier"
      std: 0.1
    }
    bias_filler {
      type: "constant"
      value: 0.2
    }
  }
}
layer {
  name: "inception_4d/relu_pool_proj"
  type: "ReLU"
  bottom: "inception_4d/pool_proj"
  top: "inception_4d/pool_proj"
}
layer {
  name: "inception_4d/output"
  type: "Concat"
  bottom: "inception_4d/1x1"
  bottom: "inception_4d/3x3"
  bottom: "inception_4d/5x5"
  bottom: "inception_4d/pool_proj"
  top: "inception_4d/output"
}
layer {
  name: "loss2/ave_pool"
  type: "Pooling"
  bottom: "inception_4d/output"
  top: "loss2/ave_pool"
  pooling_param {
    pool: AVE
    kernel_size: 5
    stride: 3
  }
}
layer {
  name: "loss2/conv"
  type: "Convolution"
  bottom: "loss2/ave_pool"
  top: "loss2/conv"
  param {
    lr_mult: 1
    decay_mult: 1
  }
  param {
    lr_mult: 2
    decay_mult: 0
  }
  convolution_param {
    num_output: 128
    kernel_size: 1
    weight_filler {
      type: "xavier"
      std: 0.08
    }
    bias_filler {
      type: "constant"
      value: 0.2
    }
  }
}
layer {
  name: "loss2/relu_conv"
  type: "ReLU"
  bottom: "loss2/conv"
  top: "loss2/conv"
}
layer {
  name: "loss2/fc"
  type: "InnerProduct"
  bottom: "loss2/conv"
  top: "loss2/fc"
  param {
    lr_mult: 1
    decay_mult: 1
  }
  param {
    lr_mult: 2
    decay_mult: 0
  }
  inner_product_param {
    num_output: 1024
    weight_filler {
      type: "xavier"
      std: 0.02
    }
    bias_filler {
      type: "constant"
      value: 0.2
    }
  }
}
layer {
  name: "loss2/relu_fc"
  type: "ReLU"
  bottom: "loss2/fc"
  top: "loss2/fc"
}
layer {
  name: "loss2/drop_fc"
  type: "Dropout"
  bottom: "loss2/fc"
  top: "loss2/fc"
  dropout_param {
    dropout_ratio: 0.7
  }
}
layer {
  name: "loss2/classifier_plantvillage"
  type: "InnerProduct"
  bottom: "loss2/fc"
  top: "loss2/classifier_plantvillage"
  param {
    lr_mult: 1
    decay_mult: 1
  }
  param {
    lr_mult: 2
    decay_mult: 0
  }
  inner_product_param {
    num_output: 38
    weight_filler {
      type: "xavier"
      std: 0.0009765625
    }
    bias_filler {
      type: "constant"
      value: 0
    }
  }
}
layer {
  name: "inception_4e/1x1"
  type: "Convolution"
  bottom: "inception_4d/output"
  top: "inception_4e/1x1"
  param {
    lr_mult: 1
    decay_mult: 1
  }
  param {
    lr_mult: 2
    decay_mult: 0
  }
  convolution_param {
    num_output: 256
    kernel_size: 1
    weight_filler {
      type: "xavier"
      std: 0.03
    }
    bias_filler {
      type: "constant"
      value: 0.2
    }
  }
}
layer {
  name: "inception_4e/relu_1x1"
  type: "ReLU"
  bottom: "inception_4e/1x1"
  top: "inception_4e/1x1"
}
layer {
  name: "inception_4e/3x3_reduce"
  type: "Convolution"
  bottom: "inception_4d/output"
  top: "inception_4e/3x3_reduce"
  param {
    lr_mult: 1
    decay_mult: 1
  }
  param {
    lr_mult: 2
    decay_mult: 0
  }
  convolution_param {
    num_output: 160
    kernel_size: 1
    weight_filler {
      type: "xavier"
      std: 0.09
    }
    bias_filler {
      type: "constant"
      value: 0.2
    }
  }
}
layer {
  name: "inception_4e/relu_3x3_reduce"
  type: "ReLU"
  bottom: "inception_4e/3x3_reduce"
  top: "inception_4e/3x3_reduce"
}
layer {
  name: "inception_4e/3x3"
  type: "Convolution"
  bottom: "inception_4e/3x3_reduce"
  top: "inception_4e/3x3"
  param {
    lr_mult: 1
    decay_mult: 1
  }
  param {
    lr_mult: 2
    decay_mult: 0
  }
  convolution_param {
    num_output: 320
    pad: 1
    kernel_size: 3
    weight_filler {
      type: "xavier"
      std: 0.03
    }
    bias_filler {
      type: "constant"
      value: 0.2
    }
  }
}
layer {
  name: "inception_4e/relu_3x3"
  type: "ReLU"
  bottom: "inception_4e/3x3"
  top: "inception_4e/3x3"
}
layer {
  name: "inception_4e/5x5_reduce"
  type: "Convolution"
  bottom: "inception_4d/output"
  top: "inception_4e/5x5_reduce"
  param {
    lr_mult: 1
    decay_mult: 1
  }
  param {
    lr_mult: 2
    decay_mult: 0
  }
  convolution_param {
    num_output: 32
    kernel_size: 1
    weight_filler {
      type: "xavier"
      std: 0.2
    }
    bias_filler {
      type: "constant"
      value: 0.2
    }
  }
}
layer {
  name: "inception_4e/relu_5x5_reduce"
  type: "ReLU"
  bottom: "inception_4e/5x5_reduce"
  top: "inception_4e/5x5_reduce"
}
layer {
  name: "inception_4e/5x5"
  type: "Convolution"
  bottom: "inception_4e/5x5_reduce"
  top: "inception_4e/
I0403 18:26:44.809929  6974 layer_factory.hpp:77] Creating layer data
I0403 18:26:44.810567  6974 net.cpp:91] Creating Layer data
I0403 18:26:44.810601  6974 net.cpp:399] data -> data
I0403 18:26:44.810653  6974 net.cpp:399] data -> label
I0403 18:26:44.810691  6974 data_transformer.cpp:25] Loading mean file from: /home/mohanty/data/final_dataset/lmdb/grayscale-40-60/mean.binaryproto
I0403 18:26:44.811800  6978 db_lmdb.cpp:38] Opened lmdb /home/mohanty/data/final_dataset/lmdb/grayscale-40-60/test_db
I0403 18:26:44.824476  6974 data_layer.cpp:41] output data size: 24,3,224,224
I0403 18:26:44.852689  6974 net.cpp:141] Setting up data
I0403 18:26:44.852818  6974 net.cpp:148] Top shape: 24 3 224 224 (3612672)
I0403 18:26:44.852843  6974 net.cpp:148] Top shape: 24 (24)
I0403 18:26:44.852861  6974 net.cpp:156] Memory required for data: 14450784
I0403 18:26:44.852891  6974 layer_factory.hpp:77] Creating layer label_data_1_split
I0403 18:26:44.852919  6974 net.cpp:91] Creating Layer label_data_1_split
I0403 18:26:44.852938  6974 net.cpp:425] label_data_1_split <- label
I0403 18:26:44.852972  6974 net.cpp:399] label_data_1_split -> label_data_1_split_0
I0403 18:26:44.853001  6974 net.cpp:399] label_data_1_split -> label_data_1_split_1
I0403 18:26:44.853025  6974 net.cpp:399] label_data_1_split -> label_data_1_split_2
I0403 18:26:44.853049  6974 net.cpp:399] label_data_1_split -> label_data_1_split_3
I0403 18:26:44.853070  6974 net.cpp:399] label_data_1_split -> label_data_1_split_4
I0403 18:26:44.853091  6974 net.cpp:399] label_data_1_split -> label_data_1_split_5
I0403 18:26:44.853111  6974 net.cpp:399] label_data_1_split -> label_data_1_split_6
I0403 18:26:44.853132  6974 net.cpp:399] label_data_1_split -> label_data_1_split_7
I0403 18:26:44.853152  6974 net.cpp:399] label_data_1_split -> label_data_1_split_8
I0403 18:26:44.853173  6974 net.cpp:399] label_data_1_split -> label_data_1_split_9
I0403 18:26:44.853298  6974 net.cpp:141] Setting up label_data_1_split
I0403 18:26:44.853324  6974 net.cpp:148] Top shape: 24 (24)
I0403 18:26:44.853343  6974 net.cpp:148] Top shape: 24 (24)
I0403 18:26:44.853360  6974 net.cpp:148] Top shape: 24 (24)
I0403 18:26:44.853377  6974 net.cpp:148] Top shape: 24 (24)
I0403 18:26:44.853394  6974 net.cpp:148] Top shape: 24 (24)
I0403 18:26:44.853411  6974 net.cpp:148] Top shape: 24 (24)
I0403 18:26:44.853428  6974 net.cpp:148] Top shape: 24 (24)
I0403 18:26:44.853445  6974 net.cpp:148] Top shape: 24 (24)
I0403 18:26:44.853461  6974 net.cpp:148] Top shape: 24 (24)
I0403 18:26:44.853480  6974 net.cpp:148] Top shape: 24 (24)
I0403 18:26:44.853538  6974 net.cpp:156] Memory required for data: 14451744
I0403 18:26:44.853556  6974 layer_factory.hpp:77] Creating layer conv1/7x7_s2
I0403 18:26:44.853588  6974 net.cpp:91] Creating Layer conv1/7x7_s2
I0403 18:26:44.853606  6974 net.cpp:425] conv1/7x7_s2 <- data
I0403 18:26:44.853628  6974 net.cpp:399] conv1/7x7_s2 -> conv1/7x7_s2
I0403 18:26:44.997364  6974 net.cpp:141] Setting up conv1/7x7_s2
I0403 18:26:44.997473  6974 net.cpp:148] Top shape: 24 64 112 112 (19267584)
I0403 18:26:44.997493  6974 net.cpp:156] Memory required for data: 91522080
I0403 18:26:44.997524  6974 layer_factory.hpp:77] Creating layer conv1/relu_7x7
I0403 18:26:44.997552  6974 net.cpp:91] Creating Layer conv1/relu_7x7
I0403 18:26:44.997571  6974 net.cpp:425] conv1/relu_7x7 <- conv1/7x7_s2
I0403 18:26:44.997593  6974 net.cpp:386] conv1/relu_7x7 -> conv1/7x7_s2 (in-place)
I0403 18:26:44.997861  6974 net.cpp:141] Setting up conv1/relu_7x7
I0403 18:26:44.997889  6974 net.cpp:148] Top shape: 24 64 112 112 (19267584)
I0403 18:26:44.997906  6974 net.cpp:156] Memory required for data: 168592416
I0403 18:26:44.997922  6974 layer_factory.hpp:77] Creating layer pool1/3x3_s2
I0403 18:26:44.997947  6974 net.cpp:91] Creating Layer pool1/3x3_s2
I0403 18:26:44.997966  6974 net.cpp:425] pool1/3x3_s2 <- conv1/7x7_s2
I0403 18:26:44.997987  6974 net.cpp:399] pool1/3x3_s2 -> pool1/3x3_s2
I0403 18:26:44.998064  6974 net.cpp:141] Setting up pool1/3x3_s2
I0403 18:26:44.998090  6974 net.cpp:148] Top shape: 24 64 56 56 (4816896)
I0403 18:26:44.998105  6974 net.cpp:156] Memory required for data: 187860000
I0403 18:26:44.998119  6974 layer_factory.hpp:77] Creating layer pool1/norm1
I0403 18:26:44.998145  6974 net.cpp:91] Creating Layer pool1/norm1
I0403 18:26:44.998164  6974 net.cpp:425] pool1/norm1 <- pool1/3x3_s2
I0403 18:26:44.998183  6974 net.cpp:399] pool1/norm1 -> pool1/norm1
I0403 18:26:44.998486  6974 net.cpp:141] Setting up pool1/norm1
I0403 18:26:44.998513  6974 net.cpp:148] Top shape: 24 64 56 56 (4816896)
I0403 18:26:44.998529  6974 net.cpp:156] Memory required for data: 207127584
I0403 18:26:44.998544  6974 layer_factory.hpp:77] Creating layer conv2/3x3_reduce
I0403 18:26:44.998571  6974 net.cpp:91] Creating Layer conv2/3x3_reduce
I0403 18:26:44.998590  6974 net.cpp:425] conv2/3x3_reduce <- pool1/norm1
I0403 18:26:44.998611  6974 net.cpp:399] conv2/3x3_reduce -> conv2/3x3_reduce
I0403 18:26:44.999886  6974 net.cpp:141] Setting up conv2/3x3_reduce
I0403 18:26:44.999920  6974 net.cpp:148] Top shape: 24 64 56 56 (4816896)
I0403 18:26:44.999938  6974 net.cpp:156] Memory required for data: 226395168
I0403 18:26:44.999959  6974 layer_factory.hpp:77] Creating layer conv2/relu_3x3_reduce
I0403 18:26:44.999979  6974 net.cpp:91] Creating Layer conv2/relu_3x3_reduce
I0403 18:26:44.999994  6974 net.cpp:425] conv2/relu_3x3_reduce <- conv2/3x3_reduce
I0403 18:26:45.000011  6974 net.cpp:386] conv2/relu_3x3_reduce -> conv2/3x3_reduce (in-place)
I0403 18:26:45.000278  6974 net.cpp:141] Setting up conv2/relu_3x3_reduce
I0403 18:26:45.000306  6974 net.cpp:148] Top shape: 24 64 56 56 (4816896)
I0403 18:26:45.000324  6974 net.cpp:156] Memory required for data: 245662752
I0403 18:26:45.000340  6974 layer_factory.hpp:77] Creating layer conv2/3x3
I0403 18:26:45.000365  6974 net.cpp:91] Creating Layer conv2/3x3
I0403 18:26:45.000382  6974 net.cpp:425] conv2/3x3 <- conv2/3x3_reduce
I0403 18:26:45.000401  6974 net.cpp:399] conv2/3x3 -> conv2/3x3
I0403 18:26:45.002732  6974 net.cpp:141] Setting up conv2/3x3
I0403 18:26:45.002766  6974 net.cpp:148] Top shape: 24 192 56 56 (14450688)
I0403 18:26:45.002784  6974 net.cpp:156] Memory required for data: 303465504
I0403 18:26:45.002807  6974 layer_factory.hpp:77] Creating layer conv2/relu_3x3
I0403 18:26:45.002830  6974 net.cpp:91] Creating Layer conv2/relu_3x3
I0403 18:26:45.002846  6974 net.cpp:425] conv2/relu_3x3 <- conv2/3x3
I0403 18:26:45.002862  6974 net.cpp:386] conv2/relu_3x3 -> conv2/3x3 (in-place)
I0403 18:26:45.003038  6974 net.cpp:141] Setting up conv2/relu_3x3
I0403 18:26:45.003064  6974 net.cpp:148] Top shape: 24 192 56 56 (14450688)
I0403 18:26:45.003111  6974 net.cpp:156] Memory required for data: 361268256
I0403 18:26:45.003129  6974 layer_factory.hpp:77] Creating layer conv2/norm2
I0403 18:26:45.003149  6974 net.cpp:91] Creating Layer conv2/norm2
I0403 18:26:45.003166  6974 net.cpp:425] conv2/norm2 <- conv2/3x3
I0403 18:26:45.003185  6974 net.cpp:399] conv2/norm2 -> conv2/norm2
I0403 18:26:45.003495  6974 net.cpp:141] Setting up conv2/norm2
I0403 18:26:45.003521  6974 net.cpp:148] Top shape: 24 192 56 56 (14450688)
I0403 18:26:45.003541  6974 net.cpp:156] Memory required for data: 419071008
I0403 18:26:45.003557  6974 layer_factory.hpp:77] Creating layer pool2/3x3_s2
I0403 18:26:45.003574  6974 net.cpp:91] Creating Layer pool2/3x3_s2
I0403 18:26:45.003590  6974 net.cpp:425] pool2/3x3_s2 <- conv2/norm2
I0403 18:26:45.003607  6974 net.cpp:399] pool2/3x3_s2 -> pool2/3x3_s2
I0403 18:26:45.003661  6974 net.cpp:141] Setting up pool2/3x3_s2
I0403 18:26:45.003684  6974 net.cpp:148] Top shape: 24 192 28 28 (3612672)
I0403 18:26:45.003700  6974 net.cpp:156] Memory required for data: 433521696
I0403 18:26:45.003715  6974 layer_factory.hpp:77] Creating layer pool2/3x3_s2_pool2/3x3_s2_0_split
I0403 18:26:45.003732  6974 net.cpp:91] Creating Layer pool2/3x3_s2_pool2/3x3_s2_0_split
I0403 18:26:45.003748  6974 net.cpp:425] pool2/3x3_s2_pool2/3x3_s2_0_split <- pool2/3x3_s2
I0403 18:26:45.003768  6974 net.cpp:399] pool2/3x3_s2_pool2/3x3_s2_0_split -> pool2/3x3_s2_pool2/3x3_s2_0_split_0
I0403 18:26:45.003789  6974 net.cpp:399] pool2/3x3_s2_pool2/3x3_s2_0_split -> pool2/3x3_s2_pool2/3x3_s2_0_split_1
I0403 18:26:45.003810  6974 net.cpp:399] pool2/3x3_s2_pool2/3x3_s2_0_split -> pool2/3x3_s2_pool2/3x3_s2_0_split_2
I0403 18:26:45.003829  6974 net.cpp:399] pool2/3x3_s2_pool2/3x3_s2_0_split -> pool2/3x3_s2_pool2/3x3_s2_0_split_3
I0403 18:26:45.003901  6974 net.cpp:141] Setting up pool2/3x3_s2_pool2/3x3_s2_0_split
I0403 18:26:45.003924  6974 net.cpp:148] Top shape: 24 192 28 28 (3612672)
I0403 18:26:45.003942  6974 net.cpp:148] Top shape: 24 192 28 28 (3612672)
I0403 18:26:45.003958  6974 net.cpp:148] Top shape: 24 192 28 28 (3612672)
I0403 18:26:45.003975  6974 net.cpp:148] Top shape: 24 192 28 28 (3612672)
I0403 18:26:45.003990  6974 net.cpp:156] Memory required for data: 491324448
I0403 18:26:45.004004  6974 layer_factory.hpp:77] Creating layer inception_3a/1x1
I0403 18:26:45.004027  6974 net.cpp:91] Creating Layer inception_3a/1x1
I0403 18:26:45.004045  6974 net.cpp:425] inception_3a/1x1 <- pool2/3x3_s2_pool2/3x3_s2_0_split_0
I0403 18:26:45.004066  6974 net.cpp:399] inception_3a/1x1 -> inception_3a/1x1
I0403 18:26:45.005626  6974 net.cpp:141] Setting up inception_3a/1x1
I0403 18:26:45.005657  6974 net.cpp:148] Top shape: 24 64 28 28 (1204224)
I0403 18:26:45.005673  6974 net.cpp:156] Memory required for data: 496141344
I0403 18:26:45.005697  6974 layer_factory.hpp:77] Creating layer inception_3a/relu_1x1
I0403 18:26:45.005717  6974 net.cpp:91] Creating Layer inception_3a/relu_1x1
I0403 18:26:45.005734  6974 net.cpp:425] inception_3a/relu_1x1 <- inception_3a/1x1
I0403 18:26:45.005753  6974 net.cpp:386] inception_3a/relu_1x1 -> inception_3a/1x1 (in-place)
I0403 18:26:45.005928  6974 net.cpp:141] Setting up inception_3a/relu_1x1
I0403 18:26:45.005954  6974 net.cpp:148] Top shape: 24 64 28 28 (1204224)
I0403 18:26:45.005969  6974 net.cpp:156] Memory required for data: 500958240
I0403 18:26:45.005985  6974 layer_factory.hpp:77] Creating layer inception_3a/3x3_reduce
I0403 18:26:45.006007  6974 net.cpp:91] Creating Layer inception_3a/3x3_reduce
I0403 18:26:45.006026  6974 net.cpp:425] inception_3a/3x3_reduce <- pool2/3x3_s2_pool2/3x3_s2_0_split_1
I0403 18:26:45.006048  6974 net.cpp:399] inception_3a/3x3_reduce -> inception_3a/3x3_reduce
I0403 18:26:45.007752  6974 net.cpp:141] Setting up inception_3a/3x3_reduce
I0403 18:26:45.007786  6974 net.cpp:148] Top shape: 24 96 28 28 (1806336)
I0403 18:26:45.007802  6974 net.cpp:156] Memory required for data: 508183584
I0403 18:26:45.007824  6974 layer_factory.hpp:77] Creating layer inception_3a/relu_3x3_reduce
I0403 18:26:45.007859  6974 net.cpp:91] Creating Layer inception_3a/relu_3x3_reduce
I0403 18:26:45.007877  6974 net.cpp:425] inception_3a/relu_3x3_reduce <- inception_3a/3x3_reduce
I0403 18:26:45.007899  6974 net.cpp:386] inception_3a/relu_3x3_reduce -> inception_3a/3x3_reduce (in-place)
I0403 18:26:45.008080  6974 net.cpp:141] Setting up inception_3a/relu_3x3_reduce
I0403 18:26:45.008106  6974 net.cpp:148] Top shape: 24 96 28 28 (1806336)
I0403 18:26:45.008121  6974 net.cpp:156] Memory required for data: 515408928
I0403 18:26:45.008136  6974 layer_factory.hpp:77] Creating layer inception_3a/3x3
I0403 18:26:45.008158  6974 net.cpp:91] Creating Layer inception_3a/3x3
I0403 18:26:45.008175  6974 net.cpp:425] inception_3a/3x3 <- inception_3a/3x3_reduce
I0403 18:26:45.008198  6974 net.cpp:399] inception_3a/3x3 -> inception_3a/3x3
I0403 18:26:45.009836  6974 net.cpp:141] Setting up inception_3a/3x3
I0403 18:26:45.009868  6974 net.cpp:148] Top shape: 24 128 28 28 (2408448)
I0403 18:26:45.009886  6974 net.cpp:156] Memory required for data: 525042720
I0403 18:26:45.009907  6974 layer_factory.hpp:77] Creating layer inception_3a/relu_3x3
I0403 18:26:45.009925  6974 net.cpp:91] Creating Layer inception_3a/relu_3x3
I0403 18:26:45.009943  6974 net.cpp:425] inception_3a/relu_3x3 <- inception_3a/3x3
I0403 18:26:45.009963  6974 net.cpp:386] inception_3a/relu_3x3 -> inception_3a/3x3 (in-place)
I0403 18:26:45.010231  6974 net.cpp:141] Setting up inception_3a/relu_3x3
I0403 18:26:45.010260  6974 net.cpp:148] Top shape: 24 128 28 28 (2408448)
I0403 18:26:45.010280  6974 net.cpp:156] Memory required for data: 534676512
I0403 18:26:45.010298  6974 layer_factory.hpp:77] Creating layer inception_3a/5x5_reduce
I0403 18:26:45.010321  6974 net.cpp:91] Creating Layer inception_3a/5x5_reduce
I0403 18:26:45.010339  6974 net.cpp:425] inception_3a/5x5_reduce <- pool2/3x3_s2_pool2/3x3_s2_0_split_2
I0403 18:26:45.010359  6974 net.cpp:399] inception_3a/5x5_reduce -> inception_3a/5x5_reduce
I0403 18:26:45.011310  6974 net.cpp:141] Setting up inception_3a/5x5_reduce
I0403 18:26:45.011339  6974 net.cpp:148] Top shape: 24 16 28 28 (301056)
I0403 18:26:45.011356  6974 net.cpp:156] Memory required for data: 535880736
I0403 18:26:45.011378  6974 layer_factory.hpp:77] Creating layer inception_3a/relu_5x5_reduce
I0403 18:26:45.011399  6974 net.cpp:91] Creating Layer inception_3a/relu_5x5_reduce
I0403 18:26:45.011416  6974 net.cpp:425] inception_3a/relu_5x5_reduce <- inception_3a/5x5_reduce
I0403 18:26:45.011438  6974 net.cpp:386] inception_3a/relu_5x5_reduce -> inception_3a/5x5_reduce (in-place)
I0403 18:26:45.011719  6974 net.cpp:141] Setting up inception_3a/relu_5x5_reduce
I0403 18:26:45.011746  6974 net.cpp:148] Top shape: 24 16 28 28 (301056)
I0403 18:26:45.011762  6974 net.cpp:156] Memory required for data: 537084960
I0403 18:26:45.011777  6974 layer_factory.hpp:77] Creating layer inception_3a/5x5
I0403 18:26:45.011801  6974 net.cpp:91] Creating Layer inception_3a/5x5
I0403 18:26:45.011817  6974 net.cpp:425] inception_3a/5x5 <- inception_3a/5x5_reduce
I0403 18:26:45.011839  6974 net.cpp:399] inception_3a/5x5 -> inception_3a/5x5
I0403 18:26:45.012852  6974 net.cpp:141] Setting up inception_3a/5x5
I0403 18:26:45.012882  6974 net.cpp:148] Top shape: 24 32 28 28 (602112)
I0403 18:26:45.012899  6974 net.cpp:156] Memory required for data: 539493408
I0403 18:26:45.012918  6974 layer_factory.hpp:77] Creating layer inception_3a/relu_5x5
I0403 18:26:45.012936  6974 net.cpp:91] Creating Layer inception_3a/relu_5x5
I0403 18:26:45.012954  6974 net.cpp:425] inception_3a/relu_5x5 <- inception_3a/5x5
I0403 18:26:45.012974  6974 net.cpp:386] inception_3a/relu_5x5 -> inception_3a/5x5 (in-place)
I0403 18:26:45.013144  6974 net.cpp:141] Setting up inception_3a/relu_5x5
I0403 18:26:45.013170  6974 net.cpp:148] Top shape: 24 32 28 28 (602112)
I0403 18:26:45.013186  6974 net.cpp:156] Memory required for data: 541901856
I0403 18:26:45.013201  6974 layer_factory.hpp:77] Creating layer inception_3a/pool
I0403 18:26:45.013219  6974 net.cpp:91] Creating Layer inception_3a/pool
I0403 18:26:45.013249  6974 net.cpp:425] inception_3a/pool <- pool2/3x3_s2_pool2/3x3_s2_0_split_3
I0403 18:26:45.013275  6974 net.cpp:399] inception_3a/pool -> inception_3a/pool
I0403 18:26:45.013334  6974 net.cpp:141] Setting up inception_3a/pool
I0403 18:26:45.013358  6974 net.cpp:148] Top shape: 24 192 28 28 (3612672)
I0403 18:26:45.013373  6974 net.cpp:156] Memory required for data: 556352544
I0403 18:26:45.013389  6974 layer_factory.hpp:77] Creating layer inception_3a/pool_proj
I0403 18:26:45.013414  6974 net.cpp:91] Creating Layer inception_3a/pool_proj
I0403 18:26:45.013432  6974 net.cpp:425] inception_3a/pool_proj <- inception_3a/pool
I0403 18:26:45.013452  6974 net.cpp:399] inception_3a/pool_proj -> inception_3a/pool_proj
I0403 18:26:45.014412  6974 net.cpp:141] Setting up inception_3a/pool_proj
I0403 18:26:45.014441  6974 net.cpp:148] Top shape: 24 32 28 28 (602112)
I0403 18:26:45.014456  6974 net.cpp:156] Memory required for data: 558760992
I0403 18:26:45.014480  6974 layer_factory.hpp:77] Creating layer inception_3a/relu_pool_proj
I0403 18:26:45.014499  6974 net.cpp:91] Creating Layer inception_3a/relu_pool_proj
I0403 18:26:45.014519  6974 net.cpp:425] inception_3a/relu_pool_proj <- inception_3a/pool_proj
I0403 18:26:45.014539  6974 net.cpp:386] inception_3a/relu_pool_proj -> inception_3a/pool_proj (in-place)
I0403 18:26:45.014811  6974 net.cpp:141] Setting up inception_3a/relu_pool_proj
I0403 18:26:45.014840  6974 net.cpp:148] Top shape: 24 32 28 28 (602112)
I0403 18:26:45.014856  6974 net.cpp:156] Memory required for data: 561169440
I0403 18:26:45.014871  6974 layer_factory.hpp:77] Creating layer inception_3a/output
I0403 18:26:45.014890  6974 net.cpp:91] Creating Layer inception_3a/output
I0403 18:26:45.014905  6974 net.cpp:425] inception_3a/output <- inception_3a/1x1
I0403 18:26:45.014922  6974 net.cpp:425] inception_3a/output <- inception_3a/3x3
I0403 18:26:45.014938  6974 net.cpp:425] inception_3a/output <- inception_3a/5x5
I0403 18:26:45.014955  6974 net.cpp:425] inception_3a/output <- inception_3a/pool_proj
I0403 18:26:45.014974  6974 net.cpp:399] inception_3a/output -> inception_3a/output
I0403 18:26:45.015020  6974 net.cpp:141] Setting up inception_3a/output
I0403 18:26:45.015043  6974 net.cpp:148] Top shape: 24 256 28 28 (4816896)
I0403 18:26:45.015058  6974 net.cpp:156] Memory required for data: 580437024
I0403 18:26:45.015074  6974 layer_factory.hpp:77] Creating layer inception_3a/output_inception_3a/output_0_split
I0403 18:26:45.015094  6974 net.cpp:91] Creating Layer inception_3a/output_inception_3a/output_0_split
I0403 18:26:45.015110  6974 net.cpp:425] inception_3a/output_inception_3a/output_0_split <- inception_3a/output
I0403 18:26:45.015127  6974 net.cpp:399] inception_3a/output_inception_3a/output_0_split -> inception_3a/output_inception_3a/output_0_split_0
I0403 18:26:45.015147  6974 net.cpp:399] inception_3a/output_inception_3a/output_0_split -> inception_3a/output_inception_3a/output_0_split_1
I0403 18:26:45.015172  6974 net.cpp:399] inception_3a/output_inception_3a/output_0_split -> inception_3a/output_inception_3a/output_0_split_2
I0403 18:26:45.015194  6974 net.cpp:399] inception_3a/output_inception_3a/output_0_split -> inception_3a/output_inception_3a/output_0_split_3
I0403 18:26:45.015275  6974 net.cpp:141] Setting up inception_3a/output_inception_3a/output_0_split
I0403 18:26:45.015300  6974 net.cpp:148] Top shape: 24 256 28 28 (4816896)
I0403 18:26:45.015319  6974 net.cpp:148] Top shape: 24 256 28 28 (4816896)
I0403 18:26:45.015336  6974 net.cpp:148] Top shape: 24 256 28 28 (4816896)
I0403 18:26:45.015352  6974 net.cpp:148] Top shape: 24 256 28 28 (4816896)
I0403 18:26:45.015365  6974 net.cpp:156] Memory required for data: 657507360
I0403 18:26:45.015379  6974 layer_factory.hpp:77] Creating layer inception_3b/1x1
I0403 18:26:45.015403  6974 net.cpp:91] Creating Layer inception_3b/1x1
I0403 18:26:45.015419  6974 net.cpp:425] inception_3b/1x1 <- inception_3a/output_inception_3a/output_0_split_0
I0403 18:26:45.015439  6974 net.cpp:399] inception_3b/1x1 -> inception_3b/1x1
I0403 18:26:45.016572  6974 net.cpp:141] Setting up inception_3b/1x1
I0403 18:26:45.016616  6974 net.cpp:148] Top shape: 24 128 28 28 (2408448)
I0403 18:26:45.016635  6974 net.cpp:156] Memory required for data: 667141152
I0403 18:26:45.016655  6974 layer_factory.hpp:77] Creating layer inception_3b/relu_1x1
I0403 18:26:45.016674  6974 net.cpp:91] Creating Layer inception_3b/relu_1x1
I0403 18:26:45.016691  6974 net.cpp:425] inception_3b/relu_1x1 <- inception_3b/1x1
I0403 18:26:45.016708  6974 net.cpp:386] inception_3b/relu_1x1 -> inception_3b/1x1 (in-place)
I0403 18:26:45.016885  6974 net.cpp:141] Setting up inception_3b/relu_1x1
I0403 18:26:45.016911  6974 net.cpp:148] Top shape: 24 128 28 28 (2408448)
I0403 18:26:45.016928  6974 net.cpp:156] Memory required for data: 676774944
I0403 18:26:45.016944  6974 layer_factory.hpp:77] Creating layer inception_3b/3x3_reduce
I0403 18:26:45.016966  6974 net.cpp:91] Creating Layer inception_3b/3x3_reduce
I0403 18:26:45.016984  6974 net.cpp:425] inception_3b/3x3_reduce <- inception_3a/output_inception_3a/output_0_split_1
I0403 18:26:45.017004  6974 net.cpp:399] inception_3b/3x3_reduce -> inception_3b/3x3_reduce
I0403 18:26:45.018162  6974 net.cpp:141] Setting up inception_3b/3x3_reduce
I0403 18:26:45.018189  6974 net.cpp:148] Top shape: 24 128 28 28 (2408448)
I0403 18:26:45.018205  6974 net.cpp:156] Memory required for data: 686408736
I0403 18:26:45.018224  6974 layer_factory.hpp:77] Creating layer inception_3b/relu_3x3_reduce
I0403 18:26:45.018245  6974 net.cpp:91] Creating Layer inception_3b/relu_3x3_reduce
I0403 18:26:45.018263  6974 net.cpp:425] inception_3b/relu_3x3_reduce <- inception_3b/3x3_reduce
I0403 18:26:45.018286  6974 net.cpp:386] inception_3b/relu_3x3_reduce -> inception_3b/3x3_reduce (in-place)
I0403 18:26:45.018482  6974 net.cpp:141] Setting up inception_3b/relu_3x3_reduce
I0403 18:26:45.018508  6974 net.cpp:148] Top shape: 24 128 28 28 (2408448)
I0403 18:26:45.018525  6974 net.cpp:156] Memory required for data: 696042528
I0403 18:26:45.018540  6974 layer_factory.hpp:77] Creating layer inception_3b/3x3
I0403 18:26:45.018565  6974 net.cpp:91] Creating Layer inception_3b/3x3
I0403 18:26:45.018585  6974 net.cpp:425] inception_3b/3x3 <- inception_3b/3x3_reduce
I0403 18:26:45.018609  6974 net.cpp:399] inception_3b/3x3 -> inception_3b/3x3
I0403 18:26:45.021646  6974 net.cpp:141] Setting up inception_3b/3x3
I0403 18:26:45.021680  6974 net.cpp:148] Top shape: 24 192 28 28 (3612672)
I0403 18:26:45.021698  6974 net.cpp:156] Memory required for data: 710493216
I0403 18:26:45.021718  6974 layer_factory.hpp:77] Creating layer inception_3b/relu_3x3
I0403 18:26:45.021738  6974 net.cpp:91] Creating Layer inception_3b/relu_3x3
I0403 18:26:45.021755  6974 net.cpp:425] inception_3b/relu_3x3 <- inception_3b/3x3
I0403 18:26:45.021775  6974 net.cpp:386] inception_3b/relu_3x3 -> inception_3b/3x3 (in-place)
I0403 18:26:45.022058  6974 net.cpp:141] Setting up inception_3b/relu_3x3
I0403 18:26:45.022089  6974 net.cpp:148] Top shape: 24 192 28 28 (3612672)
I0403 18:26:45.022107  6974 net.cpp:156] Memory required for data: 724943904
I0403 18:26:45.022125  6974 layer_factory.hpp:77] Creating layer inception_3b/5x5_reduce
I0403 18:26:45.022150  6974 net.cpp:91] Creating Layer inception_3b/5x5_reduce
I0403 18:26:45.022171  6974 net.cpp:425] inception_3b/5x5_reduce <- inception_3a/output_inception_3a/output_0_split_2
I0403 18:26:45.022191  6974 net.cpp:399] inception_3b/5x5_reduce -> inception_3b/5x5_reduce
I0403 18:26:45.023211  6974 net.cpp:141] Setting up inception_3b/5x5_reduce
I0403 18:26:45.023242  6974 net.cpp:148] Top shape: 24 32 28 28 (602112)
I0403 18:26:45.023262  6974 net.cpp:156] Memory required for data: 727352352
I0403 18:26:45.023295  6974 layer_factory.hpp:77] Creating layer inception_3b/relu_5x5_reduce
I0403 18:26:45.023319  6974 net.cpp:91] Creating Layer inception_3b/relu_5x5_reduce
I0403 18:26:45.023336  6974 net.cpp:425] inception_3b/relu_5x5_reduce <- inception_3b/5x5_reduce
I0403 18:26:45.023360  6974 net.cpp:386] inception_3b/relu_5x5_reduce -> inception_3b/5x5_reduce (in-place)
I0403 18:26:45.023555  6974 net.cpp:141] Setting up inception_3b/relu_5x5_reduce
I0403 18:26:45.023581  6974 net.cpp:148] Top shape: 24 32 28 28 (602112)
I0403 18:26:45.023597  6974 net.cpp:156] Memory required for data: 729760800
I0403 18:26:45.023612  6974 layer_factory.hpp:77] Creating layer inception_3b/5x5
I0403 18:26:45.023634  6974 net.cpp:91] Creating Layer inception_3b/5x5
I0403 18:26:45.023653  6974 net.cpp:425] inception_3b/5x5 <- inception_3b/5x5_reduce
I0403 18:26:45.023674  6974 net.cpp:399] inception_3b/5x5 -> inception_3b/5x5
I0403 18:26:45.025671  6974 net.cpp:141] Setting up inception_3b/5x5
I0403 18:26:45.025702  6974 net.cpp:148] Top shape: 24 96 28 28 (1806336)
I0403 18:26:45.025719  6974 net.cpp:156] Memory required for data: 736986144
I0403 18:26:45.025740  6974 layer_factory.hpp:77] Creating layer inception_3b/relu_5x5
I0403 18:26:45.025761  6974 net.cpp:91] Creating Layer inception_3b/relu_5x5
I0403 18:26:45.025781  6974 net.cpp:425] inception_3b/relu_5x5 <- inception_3b/5x5
I0403 18:26:45.025801  6974 net.cpp:386] inception_3b/relu_5x5 -> inception_3b/5x5 (in-place)
I0403 18:26:45.025997  6974 net.cpp:141] Setting up inception_3b/relu_5x5
I0403 18:26:45.026023  6974 net.cpp:148] Top shape: 24 96 28 28 (1806336)
I0403 18:26:45.026041  6974 net.cpp:156] Memory required for data: 744211488
I0403 18:26:45.026056  6974 layer_factory.hpp:77] Creating layer inception_3b/pool
I0403 18:26:45.026074  6974 net.cpp:91] Creating Layer inception_3b/pool
I0403 18:26:45.026090  6974 net.cpp:425] inception_3b/pool <- inception_3a/output_inception_3a/output_0_split_3
I0403 18:26:45.026109  6974 net.cpp:399] inception_3b/pool -> inception_3b/pool
I0403 18:26:45.026165  6974 net.cpp:141] Setting up inception_3b/pool
I0403 18:26:45.026190  6974 net.cpp:148] Top shape: 24 256 28 28 (4816896)
I0403 18:26:45.026204  6974 net.cpp:156] Memory required for data: 763479072
I0403 18:26:45.026219  6974 layer_factory.hpp:77] Creating layer inception_3b/pool_proj
I0403 18:26:45.026244  6974 net.cpp:91] Creating Layer inception_3b/pool_proj
I0403 18:26:45.026263  6974 net.cpp:425] inception_3b/pool_proj <- inception_3b/pool
I0403 18:26:45.026288  6974 net.cpp:399] inception_3b/pool_proj -> inception_3b/pool_proj
I0403 18:26:45.027369  6974 net.cpp:141] Setting up inception_3b/pool_proj
I0403 18:26:45.027398  6974 net.cpp:148] Top shape: 24 64 28 28 (1204224)
I0403 18:26:45.027415  6974 net.cpp:156] Memory required for data: 768295968
I0403 18:26:45.027436  6974 layer_factory.hpp:77] Creating layer inception_3b/relu_pool_proj
I0403 18:26:45.027461  6974 net.cpp:91] Creating Layer inception_3b/relu_pool_proj
I0403 18:26:45.027480  6974 net.cpp:425] inception_3b/relu_pool_proj <- inception_3b/pool_proj
I0403 18:26:45.027498  6974 net.cpp:386] inception_3b/relu_pool_proj -> inception_3b/pool_proj (in-place)
I0403 18:26:45.027887  6974 net.cpp:141] Setting up inception_3b/relu_pool_proj
I0403 18:26:45.027916  6974 net.cpp:148] Top shape: 24 64 28 28 (1204224)
I0403 18:26:45.027932  6974 net.cpp:156] Memory required for data: 773112864
I0403 18:26:45.027948  6974 layer_factory.hpp:77] Creating layer inception_3b/output
I0403 18:26:45.027967  6974 net.cpp:91] Creating Layer inception_3b/output
I0403 18:26:45.027984  6974 net.cpp:425] inception_3b/output <- inception_3b/1x1
I0403 18:26:45.028002  6974 net.cpp:425] inception_3b/output <- inception_3b/3x3
I0403 18:26:45.028018  6974 net.cpp:425] inception_3b/output <- inception_3b/5x5
I0403 18:26:45.028035  6974 net.cpp:425] inception_3b/output <- inception_3b/pool_proj
I0403 18:26:45.028055  6974 net.cpp:399] inception_3b/output -> inception_3b/output
I0403 18:26:45.028100  6974 net.cpp:141] Setting up inception_3b/output
I0403 18:26:45.028126  6974 net.cpp:148] Top shape: 24 480 28 28 (9031680)
I0403 18:26:45.028143  6974 net.cpp:156] Memory required for data: 809239584
I0403 18:26:45.028158  6974 layer_factory.hpp:77] Creating layer pool3/3x3_s2
I0403 18:26:45.028177  6974 net.cpp:91] Creating Layer pool3/3x3_s2
I0403 18:26:45.028192  6974 net.cpp:425] pool3/3x3_s2 <- inception_3b/output
I0403 18:26:45.028228  6974 net.cpp:399] pool3/3x3_s2 -> pool3/3x3_s2
I0403 18:26:45.028293  6974 net.cpp:141] Setting up pool3/3x3_s2
I0403 18:26:45.028318  6974 net.cpp:148] Top shape: 24 480 14 14 (2257920)
I0403 18:26:45.028333  6974 net.cpp:156] Memory required for data: 818271264
I0403 18:26:45.028348  6974 layer_factory.hpp:77] Creating layer pool3/3x3_s2_pool3/3x3_s2_0_split
I0403 18:26:45.028369  6974 net.cpp:91] Creating Layer pool3/3x3_s2_pool3/3x3_s2_0_split
I0403 18:26:45.028386  6974 net.cpp:425] pool3/3x3_s2_pool3/3x3_s2_0_split <- pool3/3x3_s2
I0403 18:26:45.028404  6974 net.cpp:399] pool3/3x3_s2_pool3/3x3_s2_0_split -> pool3/3x3_s2_pool3/3x3_s2_0_split_0
I0403 18:26:45.028424  6974 net.cpp:399] pool3/3x3_s2_pool3/3x3_s2_0_split -> pool3/3x3_s2_pool3/3x3_s2_0_split_1
I0403 18:26:45.028445  6974 net.cpp:399] pool3/3x3_s2_pool3/3x3_s2_0_split -> pool3/3x3_s2_pool3/3x3_s2_0_split_2
I0403 18:26:45.028463  6974 net.cpp:399] pool3/3x3_s2_pool3/3x3_s2_0_split -> pool3/3x3_s2_pool3/3x3_s2_0_split_3
I0403 18:26:45.028542  6974 net.cpp:141] Setting up pool3/3x3_s2_pool3/3x3_s2_0_split
I0403 18:26:45.028564  6974 net.cpp:148] Top shape: 24 480 14 14 (2257920)
I0403 18:26:45.028583  6974 net.cpp:148] Top shape: 24 480 14 14 (2257920)
I0403 18:26:45.028599  6974 net.cpp:148] Top shape: 24 480 14 14 (2257920)
I0403 18:26:45.028615  6974 net.cpp:148] Top shape: 24 480 14 14 (2257920)
I0403 18:26:45.028630  6974 net.cpp:156] Memory required for data: 854397984
I0403 18:26:45.028645  6974 layer_factory.hpp:77] Creating layer inception_4a/1x1
I0403 18:26:45.028668  6974 net.cpp:91] Creating Layer inception_4a/1x1
I0403 18:26:45.028686  6974 net.cpp:425] inception_4a/1x1 <- pool3/3x3_s2_pool3/3x3_s2_0_split_0
I0403 18:26:45.028710  6974 net.cpp:399] inception_4a/1x1 -> inception_4a/1x1
I0403 18:26:45.030314  6974 net.cpp:141] Setting up inception_4a/1x1
I0403 18:26:45.030345  6974 net.cpp:148] Top shape: 24 192 14 14 (903168)
I0403 18:26:45.030362  6974 net.cpp:156] Memory required for data: 858010656
I0403 18:26:45.030381  6974 layer_factory.hpp:77] Creating layer inception_4a/relu_1x1
I0403 18:26:45.030406  6974 net.cpp:91] Creating Layer inception_4a/relu_1x1
I0403 18:26:45.030426  6974 net.cpp:425] inception_4a/relu_1x1 <- inception_4a/1x1
I0403 18:26:45.030447  6974 net.cpp:386] inception_4a/relu_1x1 -> inception_4a/1x1 (in-place)
I0403 18:26:45.030624  6974 net.cpp:141] Setting up inception_4a/relu_1x1
I0403 18:26:45.030654  6974 net.cpp:148] Top shape: 24 192 14 14 (903168)
I0403 18:26:45.030673  6974 net.cpp:156] Memory required for data: 861623328
I0403 18:26:45.030689  6974 layer_factory.hpp:77] Creating layer inception_4a/3x3_reduce
I0403 18:26:45.030712  6974 net.cpp:91] Creating Layer inception_4a/3x3_reduce
I0403 18:26:45.030732  6974 net.cpp:425] inception_4a/3x3_reduce <- pool3/3x3_s2_pool3/3x3_s2_0_split_1
I0403 18:26:45.030753  6974 net.cpp:399] inception_4a/3x3_reduce -> inception_4a/3x3_reduce
I0403 18:26:45.032052  6974 net.cpp:141] Setting up inception_4a/3x3_reduce
I0403 18:26:45.032080  6974 net.cpp:148] Top shape: 24 96 14 14 (451584)
I0403 18:26:45.032096  6974 net.cpp:156] Memory required for data: 863429664
I0403 18:26:45.032122  6974 layer_factory.hpp:77] Creating layer inception_4a/relu_3x3_reduce
I0403 18:26:45.032143  6974 net.cpp:91] Creating Layer inception_4a/relu_3x3_reduce
I0403 18:26:45.032160  6974 net.cpp:425] inception_4a/relu_3x3_reduce <- inception_4a/3x3_reduce
I0403 18:26:45.032181  6974 net.cpp:386] inception_4a/relu_3x3_reduce -> inception_4a/3x3_reduce (in-place)
I0403 18:26:45.032366  6974 net.cpp:141] Setting up inception_4a/relu_3x3_reduce
I0403 18:26:45.032393  6974 net.cpp:148] Top shape: 24 96 14 14 (451584)
I0403 18:26:45.032408  6974 net.cpp:156] Memory required for data: 865236000
I0403 18:26:45.032424  6974 layer_factory.hpp:77] Creating layer inception_4a/3x3
I0403 18:26:45.032447  6974 net.cpp:91] Creating Layer inception_4a/3x3
I0403 18:26:45.032466  6974 net.cpp:425] inception_4a/3x3 <- inception_4a/3x3_reduce
I0403 18:26:45.032488  6974 net.cpp:399] inception_4a/3x3 -> inception_4a/3x3
I0403 18:26:45.035240  6974 net.cpp:141] Setting up inception_4a/3x3
I0403 18:26:45.035275  6974 net.cpp:148] Top shape: 24 208 14 14 (978432)
I0403 18:26:45.035295  6974 net.cpp:156] Memory required for data: 869149728
I0403 18:26:45.035315  6974 layer_factory.hpp:77] Creating layer inception_4a/relu_3x3
I0403 18:26:45.035336  6974 net.cpp:91] Creating Layer inception_4a/relu_3x3
I0403 18:26:45.035356  6974 net.cpp:425] inception_4a/relu_3x3 <- inception_4a/3x3
I0403 18:26:45.035375  6974 net.cpp:386] inception_4a/relu_3x3 -> inception_4a/3x3 (in-place)
I0403 18:26:45.035665  6974 net.cpp:141] Setting up inception_4a/relu_3x3
I0403 18:26:45.035693  6974 net.cpp:148] Top shape: 24 208 14 14 (978432)
I0403 18:26:45.035711  6974 net.cpp:156] Memory required for data: 873063456
I0403 18:26:45.035727  6974 layer_factory.hpp:77] Creating layer inception_4a/5x5_reduce
I0403 18:26:45.035753  6974 net.cpp:91] Creating Layer inception_4a/5x5_reduce
I0403 18:26:45.035773  6974 net.cpp:425] inception_4a/5x5_reduce <- pool3/3x3_s2_pool3/3x3_s2_0_split_2
I0403 18:26:45.035792  6974 net.cpp:399] inception_4a/5x5_reduce -> inception_4a/5x5_reduce
I0403 18:26:45.036842  6974 net.cpp:141] Setting up inception_4a/5x5_reduce
I0403 18:26:45.036875  6974 net.cpp:148] Top shape: 24 16 14 14 (75264)
I0403 18:26:45.036893  6974 net.cpp:156] Memory required for data: 873364512
I0403 18:26:45.036912  6974 layer_factory.hpp:77] Creating layer inception_4a/relu_5x5_reduce
I0403 18:26:45.036931  6974 net.cpp:91] Creating Layer inception_4a/relu_5x5_reduce
I0403 18:26:45.036949  6974 net.cpp:425] inception_4a/relu_5x5_reduce <- inception_4a/5x5_reduce
I0403 18:26:45.036970  6974 net.cpp:386] inception_4a/relu_5x5_reduce -> inception_4a/5x5_reduce (in-place)
I0403 18:26:45.037154  6974 net.cpp:141] Setting up inception_4a/relu_5x5_reduce
I0403 18:26:45.037181  6974 net.cpp:148] Top shape: 24 16 14 14 (75264)
I0403 18:26:45.037199  6974 net.cpp:156] Memory required for data: 873665568
I0403 18:26:45.037215  6974 layer_factory.hpp:77] Creating layer inception_4a/5x5
I0403 18:26:45.037238  6974 net.cpp:91] Creating Layer inception_4a/5x5
I0403 18:26:45.037258  6974 net.cpp:425] inception_4a/5x5 <- inception_4a/5x5_reduce
I0403 18:26:45.037291  6974 net.cpp:399] inception_4a/5x5 -> inception_4a/5x5
I0403 18:26:45.038403  6974 net.cpp:141] Setting up inception_4a/5x5
I0403 18:26:45.038431  6974 net.cpp:148] Top shape: 24 48 14 14 (225792)
I0403 18:26:45.038447  6974 net.cpp:156] Memory required for data: 874568736
I0403 18:26:45.038466  6974 layer_factory.hpp:77] Creating layer inception_4a/relu_5x5
I0403 18:26:45.038487  6974 net.cpp:91] Creating Layer inception_4a/relu_5x5
I0403 18:26:45.038506  6974 net.cpp:425] inception_4a/relu_5x5 <- inception_4a/5x5
I0403 18:26:45.038524  6974 net.cpp:386] inception_4a/relu_5x5 -> inception_4a/5x5 (in-place)
I0403 18:26:45.038702  6974 net.cpp:141] Setting up inception_4a/relu_5x5
I0403 18:26:45.038728  6974 net.cpp:148] Top shape: 24 48 14 14 (225792)
I0403 18:26:45.038743  6974 net.cpp:156] Memory required for data: 875471904
I0403 18:26:45.038758  6974 layer_factory.hpp:77] Creating layer inception_4a/pool
I0403 18:26:45.038779  6974 net.cpp:91] Creating Layer inception_4a/pool
I0403 18:26:45.038796  6974 net.cpp:425] inception_4a/pool <- pool3/3x3_s2_pool3/3x3_s2_0_split_3
I0403 18:26:45.038816  6974 net.cpp:399] inception_4a/pool -> inception_4a/pool
I0403 18:26:45.038879  6974 net.cpp:141] Setting up inception_4a/pool
I0403 18:26:45.038903  6974 net.cpp:148] Top shape: 24 480 14 14 (2257920)
I0403 18:26:45.038919  6974 net.cpp:156] Memory required for data: 884503584
I0403 18:26:45.038934  6974 layer_factory.hpp:77] Creating layer inception_4a/pool_proj
I0403 18:26:45.038957  6974 net.cpp:91] Creating Layer inception_4a/pool_proj
I0403 18:26:45.038976  6974 net.cpp:425] inception_4a/pool_proj <- inception_4a/pool
I0403 18:26:45.038997  6974 net.cpp:399] inception_4a/pool_proj -> inception_4a/pool_proj
I0403 18:26:45.040190  6974 net.cpp:141] Setting up inception_4a/pool_proj
I0403 18:26:45.040221  6974 net.cpp:148] Top shape: 24 64 14 14 (301056)
I0403 18:26:45.040254  6974 net.cpp:156] Memory required for data: 885707808
I0403 18:26:45.040278  6974 layer_factory.hpp:77] Creating layer inception_4a/relu_pool_proj
I0403 18:26:45.040304  6974 net.cpp:91] Creating Layer inception_4a/relu_pool_proj
I0403 18:26:45.040333  6974 net.cpp:425] inception_4a/relu_pool_proj <- inception_4a/pool_proj
I0403 18:26:45.040350  6974 net.cpp:386] inception_4a/relu_pool_proj -> inception_4a/pool_proj (in-place)
I0403 18:26:45.040645  6974 net.cpp:141] Setting up inception_4a/relu_pool_proj
I0403 18:26:45.040673  6974 net.cpp:148] Top shape: 24 64 14 14 (301056)
I0403 18:26:45.040688  6974 net.cpp:156] Memory required for data: 886912032
I0403 18:26:45.040704  6974 layer_factory.hpp:77] Creating layer inception_4a/output
I0403 18:26:45.040731  6974 net.cpp:91] Creating Layer inception_4a/output
I0403 18:26:45.040750  6974 net.cpp:425] inception_4a/output <- inception_4a/1x1
I0403 18:26:45.040766  6974 net.cpp:425] inception_4a/output <- inception_4a/3x3
I0403 18:26:45.040783  6974 net.cpp:425] inception_4a/output <- inception_4a/5x5
I0403 18:26:45.040801  6974 net.cpp:425] inception_4a/output <- inception_4a/pool_proj
I0403 18:26:45.040817  6974 net.cpp:399] inception_4a/output -> inception_4a/output
I0403 18:26:45.040863  6974 net.cpp:141] Setting up inception_4a/output
I0403 18:26:45.040890  6974 net.cpp:148] Top shape: 24 512 14 14 (2408448)
I0403 18:26:45.040907  6974 net.cpp:156] Memory required for data: 896545824
I0403 18:26:45.040922  6974 layer_factory.hpp:77] Creating layer inception_4a/output_inception_4a/output_0_split
I0403 18:26:45.040940  6974 net.cpp:91] Creating Layer inception_4a/output_inception_4a/output_0_split
I0403 18:26:45.040957  6974 net.cpp:425] inception_4a/output_inception_4a/output_0_split <- inception_4a/output
I0403 18:26:45.040982  6974 net.cpp:399] inception_4a/output_inception_4a/output_0_split -> inception_4a/output_inception_4a/output_0_split_0
I0403 18:26:45.041003  6974 net.cpp:399] inception_4a/output_inception_4a/output_0_split -> inception_4a/output_inception_4a/output_0_split_1
I0403 18:26:45.041025  6974 net.cpp:399] inception_4a/output_inception_4a/output_0_split -> inception_4a/output_inception_4a/output_0_split_2
I0403 18:26:45.041046  6974 net.cpp:399] inception_4a/output_inception_4a/output_0_split -> inception_4a/output_inception_4a/output_0_split_3
I0403 18:26:45.041066  6974 net.cpp:399] inception_4a/output_inception_4a/output_0_split -> inception_4a/output_inception_4a/output_0_split_4
I0403 18:26:45.041162  6974 net.cpp:141] Setting up inception_4a/output_inception_4a/output_0_split
I0403 18:26:45.041187  6974 net.cpp:148] Top shape: 24 512 14 14 (2408448)
I0403 18:26:45.041208  6974 net.cpp:148] Top shape: 24 512 14 14 (2408448)
I0403 18:26:45.041227  6974 net.cpp:148] Top shape: 24 512 14 14 (2408448)
I0403 18:26:45.041244  6974 net.cpp:148] Top shape: 24 512 14 14 (2408448)
I0403 18:26:45.041260  6974 net.cpp:148] Top shape: 24 512 14 14 (2408448)
I0403 18:26:45.041280  6974 net.cpp:156] Memory required for data: 944714784
I0403 18:26:45.041296  6974 layer_factory.hpp:77] Creating layer loss1/ave_pool
I0403 18:26:45.041316  6974 net.cpp:91] Creating Layer loss1/ave_pool
I0403 18:26:45.041332  6974 net.cpp:425] loss1/ave_pool <- inception_4a/output_inception_4a/output_0_split_0
I0403 18:26:45.041354  6974 net.cpp:399] loss1/ave_pool -> loss1/ave_pool
I0403 18:26:45.041568  6974 net.cpp:141] Setting up loss1/ave_pool
I0403 18:26:45.041594  6974 net.cpp:148] Top shape: 24 512 4 4 (196608)
I0403 18:26:45.041610  6974 net.cpp:156] Memory required for data: 945501216
I0403 18:26:45.041625  6974 layer_factory.hpp:77] Creating layer loss1/conv
I0403 18:26:45.041648  6974 net.cpp:91] Creating Layer loss1/conv
I0403 18:26:45.041667  6974 net.cpp:425] loss1/conv <- loss1/ave_pool
I0403 18:26:45.041689  6974 net.cpp:399] loss1/conv -> loss1/conv
I0403 18:26:45.043162  6974 net.cpp:141] Setting up loss1/conv
I0403 18:26:45.043192  6974 net.cpp:148] Top shape: 24 128 4 4 (49152)
I0403 18:26:45.043223  6974 net.cpp:156] Memory required for data: 945697824
I0403 18:26:45.043243  6974 layer_factory.hpp:77] Creating layer loss1/relu_conv
I0403 18:26:45.043264  6974 net.cpp:91] Creating Layer loss1/relu_conv
I0403 18:26:45.043288  6974 net.cpp:425] loss1/relu_conv <- loss1/conv
I0403 18:26:45.043308  6974 net.cpp:386] loss1/relu_conv -> loss1/conv (in-place)
I0403 18:26:45.043599  6974 net.cpp:141] Setting up loss1/relu_conv
I0403 18:26:45.043627  6974 net.cpp:148] Top shape: 24 128 4 4 (49152)
I0403 18:26:45.043642  6974 net.cpp:156] Memory required for data: 945894432
I0403 18:26:45.043656  6974 layer_factory.hpp:77] Creating layer loss1/fc
I0403 18:26:45.043684  6974 net.cpp:91] Creating Layer loss1/fc
I0403 18:26:45.043702  6974 net.cpp:425] loss1/fc <- loss1/conv
I0403 18:26:45.043723  6974 net.cpp:399] loss1/fc -> loss1/fc
I0403 18:26:45.061460  6974 net.cpp:141] Setting up loss1/fc
I0403 18:26:45.061498  6974 net.cpp:148] Top shape: 24 1024 (24576)
I0403 18:26:45.061513  6974 net.cpp:156] Memory required for data: 945992736
I0403 18:26:45.061533  6974 layer_factory.hpp:77] Creating layer loss1/relu_fc
I0403 18:26:45.061553  6974 net.cpp:91] Creating Layer loss1/relu_fc
I0403 18:26:45.061570  6974 net.cpp:425] loss1/relu_fc <- loss1/fc
I0403 18:26:45.061590  6974 net.cpp:386] loss1/relu_fc -> loss1/fc (in-place)
I0403 18:26:45.061790  6974 net.cpp:141] Setting up loss1/relu_fc
I0403 18:26:45.061817  6974 net.cpp:148] Top shape: 24 1024 (24576)
I0403 18:26:45.061832  6974 net.cpp:156] Memory required for data: 946091040
I0403 18:26:45.061848  6974 layer_factory.hpp:77] Creating layer loss1/drop_fc
I0403 18:26:45.061877  6974 net.cpp:91] Creating Layer loss1/drop_fc
I0403 18:26:45.061893  6974 net.cpp:425] loss1/drop_fc <- loss1/fc
I0403 18:26:45.061910  6974 net.cpp:386] loss1/drop_fc -> loss1/fc (in-place)
I0403 18:26:45.061962  6974 net.cpp:141] Setting up loss1/drop_fc
I0403 18:26:45.061985  6974 net.cpp:148] Top shape: 24 1024 (24576)
I0403 18:26:45.062000  6974 net.cpp:156] Memory required for data: 946189344
I0403 18:26:45.062014  6974 layer_factory.hpp:77] Creating layer loss1/classifier_plantvillage
I0403 18:26:45.062033  6974 net.cpp:91] Creating Layer loss1/classifier_plantvillage
I0403 18:26:45.062050  6974 net.cpp:425] loss1/classifier_plantvillage <- loss1/fc
I0403 18:26:45.062072  6974 net.cpp:399] loss1/classifier_plantvillage -> loss1/classifier_plantvillage
I0403 18:26:45.062973  6974 net.cpp:141] Setting up loss1/classifier_plantvillage
I0403 18:26:45.063001  6974 net.cpp:148] Top shape: 24 38 (912)
I0403 18:26:45.063015  6974 net.cpp:156] Memory required for data: 946192992
I0403 18:26:45.063035  6974 layer_factory.hpp:77] Creating layer loss1/classifier_plantvillage_loss1/classifier_plantvillage_0_split
I0403 18:26:45.063055  6974 net.cpp:91] Creating Layer loss1/classifier_plantvillage_loss1/classifier_plantvillage_0_split
I0403 18:26:45.063073  6974 net.cpp:425] loss1/classifier_plantvillage_loss1/classifier_plantvillage_0_split <- loss1/classifier_plantvillage
I0403 18:26:45.063091  6974 net.cpp:399] loss1/classifier_plantvillage_loss1/classifier_plantvillage_0_split -> loss1/classifier_plantvillage_loss1/classifier_plantvillage_0_split_0
I0403 18:26:45.063110  6974 net.cpp:399] loss1/classifier_plantvillage_loss1/classifier_plantvillage_0_split -> loss1/classifier_plantvillage_loss1/classifier_plantvillage_0_split_1
I0403 18:26:45.063129  6974 net.cpp:399] loss1/classifier_plantvillage_loss1/classifier_plantvillage_0_split -> loss1/classifier_plantvillage_loss1/classifier_plantvillage_0_split_2
I0403 18:26:45.063196  6974 net.cpp:141] Setting up loss1/classifier_plantvillage_loss1/classifier_plantvillage_0_split
I0403 18:26:45.063220  6974 net.cpp:148] Top shape: 24 38 (912)
I0403 18:26:45.063235  6974 net.cpp:148] Top shape: 24 38 (912)
I0403 18:26:45.063251  6974 net.cpp:148] Top shape: 24 38 (912)
I0403 18:26:45.063264  6974 net.cpp:156] Memory required for data: 946203936
I0403 18:26:45.063282  6974 layer_factory.hpp:77] Creating layer inception_4b/1x1
I0403 18:26:45.063307  6974 net.cpp:91] Creating Layer inception_4b/1x1
I0403 18:26:45.063344  6974 net.cpp:425] inception_4b/1x1 <- inception_4a/output_inception_4a/output_0_split_1
I0403 18:26:45.063364  6974 net.cpp:399] inception_4b/1x1 -> inception_4b/1x1
I0403 18:26:45.065002  6974 net.cpp:141] Setting up inception_4b/1x1
I0403 18:26:45.065033  6974 net.cpp:148] Top shape: 24 160 14 14 (752640)
I0403 18:26:45.065050  6974 net.cpp:156] Memory required for data: 949214496
I0403 18:26:45.065069  6974 layer_factory.hpp:77] Creating layer inception_4b/relu_1x1
I0403 18:26:45.065086  6974 net.cpp:91] Creating Layer inception_4b/relu_1x1
I0403 18:26:45.065104  6974 net.cpp:425] inception_4b/relu_1x1 <- inception_4b/1x1
I0403 18:26:45.065122  6974 net.cpp:386] inception_4b/relu_1x1 -> inception_4b/1x1 (in-place)
I0403 18:26:45.065299  6974 net.cpp:141] Setting up inception_4b/relu_1x1
I0403 18:26:45.065325  6974 net.cpp:148] Top shape: 24 160 14 14 (752640)
I0403 18:26:45.065340  6974 net.cpp:156] Memory required for data: 952225056
I0403 18:26:45.065354  6974 layer_factory.hpp:77] Creating layer inception_4b/3x3_reduce
I0403 18:26:45.065376  6974 net.cpp:91] Creating Layer inception_4b/3x3_reduce
I0403 18:26:45.065393  6974 net.cpp:425] inception_4b/3x3_reduce <- inception_4a/output_inception_4a/output_0_split_2
I0403 18:26:45.065414  6974 net.cpp:399] inception_4b/3x3_reduce -> inception_4b/3x3_reduce
I0403 18:26:45.066735  6974 net.cpp:141] Setting up inception_4b/3x3_reduce
I0403 18:26:45.066763  6974 net.cpp:148] Top shape: 24 112 14 14 (526848)
I0403 18:26:45.066778  6974 net.cpp:156] Memory required for data: 954332448
I0403 18:26:45.066797  6974 layer_factory.hpp:77] Creating layer inception_4b/relu_3x3_reduce
I0403 18:26:45.066815  6974 net.cpp:91] Creating Layer inception_4b/relu_3x3_reduce
I0403 18:26:45.066833  6974 net.cpp:425] inception_4b/relu_3x3_reduce <- inception_4b/3x3_reduce
I0403 18:26:45.066853  6974 net.cpp:386] inception_4b/relu_3x3_reduce -> inception_4b/3x3_reduce (in-place)
I0403 18:26:45.067133  6974 net.cpp:141] Setting up inception_4b/relu_3x3_reduce
I0403 18:26:45.067159  6974 net.cpp:148] Top shape: 24 112 14 14 (526848)
I0403 18:26:45.067174  6974 net.cpp:156] Memory required for data: 956439840
I0403 18:26:45.067189  6974 layer_factory.hpp:77] Creating layer inception_4b/3x3
I0403 18:26:45.067212  6974 net.cpp:91] Creating Layer inception_4b/3x3
I0403 18:26:45.067230  6974 net.cpp:425] inception_4b/3x3 <- inception_4b/3x3_reduce
I0403 18:26:45.067252  6974 net.cpp:399] inception_4b/3x3 -> inception_4b/3x3
I0403 18:26:45.070178  6974 net.cpp:141] Setting up inception_4b/3x3
I0403 18:26:45.070207  6974 net.cpp:148] Top shape: 24 224 14 14 (1053696)
I0403 18:26:45.070225  6974 net.cpp:156] Memory required for data: 960654624
I0403 18:26:45.070245  6974 layer_factory.hpp:77] Creating layer inception_4b/relu_3x3
I0403 18:26:45.070266  6974 net.cpp:91] Creating Layer inception_4b/relu_3x3
I0403 18:26:45.070289  6974 net.cpp:425] inception_4b/relu_3x3 <- inception_4b/3x3
I0403 18:26:45.070307  6974 net.cpp:386] inception_4b/relu_3x3 -> inception_4b/3x3 (in-place)
I0403 18:26:45.070484  6974 net.cpp:141] Setting up inception_4b/relu_3x3
I0403 18:26:45.070513  6974 net.cpp:148] Top shape: 24 224 14 14 (1053696)
I0403 18:26:45.070528  6974 net.cpp:156] Memory required for data: 964869408
I0403 18:26:45.070544  6974 layer_factory.hpp:77] Creating layer inception_4b/5x5_reduce
I0403 18:26:45.070566  6974 net.cpp:91] Creating Layer inception_4b/5x5_reduce
I0403 18:26:45.070585  6974 net.cpp:425] inception_4b/5x5_reduce <- inception_4a/output_inception_4a/output_0_split_3
I0403 18:26:45.070605  6974 net.cpp:399] inception_4b/5x5_reduce -> inception_4b/5x5_reduce
I0403 18:26:45.071671  6974 net.cpp:141] Setting up inception_4b/5x5_reduce
I0403 18:26:45.071702  6974 net.cpp:148] Top shape: 24 24 14 14 (112896)
I0403 18:26:45.071718  6974 net.cpp:156] Memory required for data: 965320992
I0403 18:26:45.071738  6974 layer_factory.hpp:77] Creating layer inception_4b/relu_5x5_reduce
I0403 18:26:45.071756  6974 net.cpp:91] Creating Layer inception_4b/relu_5x5_reduce
I0403 18:26:45.071789  6974 net.cpp:425] inception_4b/relu_5x5_reduce <- inception_4b/5x5_reduce
I0403 18:26:45.071810  6974 net.cpp:386] inception_4b/relu_5x5_reduce -> inception_4b/5x5_reduce (in-place)
I0403 18:26:45.071993  6974 net.cpp:141] Setting up inception_4b/relu_5x5_reduce
I0403 18:26:45.072021  6974 net.cpp:148] Top shape: 24 24 14 14 (112896)
I0403 18:26:45.072036  6974 net.cpp:156] Memory required for data: 965772576
I0403 18:26:45.072051  6974 layer_factory.hpp:77] Creating layer inception_4b/5x5
I0403 18:26:45.072075  6974 net.cpp:91] Creating Layer inception_4b/5x5
I0403 18:26:45.072093  6974 net.cpp:425] inception_4b/5x5 <- inception_4b/5x5_reduce
I0403 18:26:45.072115  6974 net.cpp:399] inception_4b/5x5 -> inception_4b/5x5
I0403 18:26:45.073324  6974 net.cpp:141] Setting up inception_4b/5x5
I0403 18:26:45.073356  6974 net.cpp:148] Top shape: 24 64 14 14 (301056)
I0403 18:26:45.073374  6974 net.cpp:156] Memory required for data: 966976800
I0403 18:26:45.073393  6974 layer_factory.hpp:77] Creating layer inception_4b/relu_5x5
I0403 18:26:45.073413  6974 net.cpp:91] Creating Layer inception_4b/relu_5x5
I0403 18:26:45.073431  6974 net.cpp:425] inception_4b/relu_5x5 <- inception_4b/5x5
I0403 18:26:45.073451  6974 net.cpp:386] inception_4b/relu_5x5 -> inception_4b/5x5 (in-place)
I0403 18:26:45.073729  6974 net.cpp:141] Setting up inception_4b/relu_5x5
I0403 18:26:45.073760  6974 net.cpp:148] Top shape: 24 64 14 14 (301056)
I0403 18:26:45.073778  6974 net.cpp:156] Memory required for data: 968181024
I0403 18:26:45.073796  6974 layer_factory.hpp:77] Creating layer inception_4b/pool
I0403 18:26:45.073815  6974 net.cpp:91] Creating Layer inception_4b/pool
I0403 18:26:45.073834  6974 net.cpp:425] inception_4b/pool <- inception_4a/output_inception_4a/output_0_split_4
I0403 18:26:45.073856  6974 net.cpp:399] inception_4b/pool -> inception_4b/pool
I0403 18:26:45.073921  6974 net.cpp:141] Setting up inception_4b/pool
I0403 18:26:45.073945  6974 net.cpp:148] Top shape: 24 512 14 14 (2408448)
I0403 18:26:45.073961  6974 net.cpp:156] Memory required for data: 977814816
I0403 18:26:45.073976  6974 layer_factory.hpp:77] Creating layer inception_4b/pool_proj
I0403 18:26:45.073999  6974 net.cpp:91] Creating Layer inception_4b/pool_proj
I0403 18:26:45.074018  6974 net.cpp:425] inception_4b/pool_proj <- inception_4b/pool
I0403 18:26:45.074038  6974 net.cpp:399] inception_4b/pool_proj -> inception_4b/pool_proj
I0403 18:26:45.075206  6974 net.cpp:141] Setting up inception_4b/pool_proj
I0403 18:26:45.075238  6974 net.cpp:148] Top shape: 24 64 14 14 (301056)
I0403 18:26:45.075256  6974 net.cpp:156] Memory required for data: 979019040
I0403 18:26:45.075280  6974 layer_factory.hpp:77] Creating layer inception_4b/relu_pool_proj
I0403 18:26:45.075302  6974 net.cpp:91] Creating Layer inception_4b/relu_pool_proj
I0403 18:26:45.075320  6974 net.cpp:425] inception_4b/relu_pool_proj <- inception_4b/pool_proj
I0403 18:26:45.075340  6974 net.cpp:386] inception_4b/relu_pool_proj -> inception_4b/pool_proj (in-place)
I0403 18:26:45.075516  6974 net.cpp:141] Setting up inception_4b/relu_pool_proj
I0403 18:26:45.075543  6974 net.cpp:148] Top shape: 24 64 14 14 (301056)
I0403 18:26:45.075557  6974 net.cpp:156] Memory required for data: 980223264
I0403 18:26:45.075572  6974 layer_factory.hpp:77] Creating layer inception_4b/output
I0403 18:26:45.075590  6974 net.cpp:91] Creating Layer inception_4b/output
I0403 18:26:45.075605  6974 net.cpp:425] inception_4b/output <- inception_4b/1x1
I0403 18:26:45.075623  6974 net.cpp:425] inception_4b/output <- inception_4b/3x3
I0403 18:26:45.075639  6974 net.cpp:425] inception_4b/output <- inception_4b/5x5
I0403 18:26:45.075654  6974 net.cpp:425] inception_4b/output <- inception_4b/pool_proj
I0403 18:26:45.075675  6974 net.cpp:399] inception_4b/output -> inception_4b/output
I0403 18:26:45.075719  6974 net.cpp:141] Setting up inception_4b/output
I0403 18:26:45.075744  6974 net.cpp:148] Top shape: 24 512 14 14 (2408448)
I0403 18:26:45.075762  6974 net.cpp:156] Memory required for data: 989857056
I0403 18:26:45.075793  6974 layer_factory.hpp:77] Creating layer inception_4b/output_inception_4b/output_0_split
I0403 18:26:45.075811  6974 net.cpp:91] Creating Layer inception_4b/output_inception_4b/output_0_split
I0403 18:26:45.075827  6974 net.cpp:425] inception_4b/output_inception_4b/output_0_split <- inception_4b/output
I0403 18:26:45.075845  6974 net.cpp:399] inception_4b/output_inception_4b/output_0_split -> inception_4b/output_inception_4b/output_0_split_0
I0403 18:26:45.075866  6974 net.cpp:399] inception_4b/output_inception_4b/output_0_split -> inception_4b/output_inception_4b/output_0_split_1
I0403 18:26:45.075889  6974 net.cpp:399] inception_4b/output_inception_4b/output_0_split -> inception_4b/output_inception_4b/output_0_split_2
I0403 18:26:45.075909  6974 net.cpp:399] inception_4b/output_inception_4b/output_0_split -> inception_4b/output_inception_4b/output_0_split_3
I0403 18:26:45.075992  6974 net.cpp:141] Setting up inception_4b/output_inception_4b/output_0_split
I0403 18:26:45.076016  6974 net.cpp:148] Top shape: 24 512 14 14 (2408448)
I0403 18:26:45.076033  6974 net.cpp:148] Top shape: 24 512 14 14 (2408448)
I0403 18:26:45.076048  6974 net.cpp:148] Top shape: 24 512 14 14 (2408448)
I0403 18:26:45.076063  6974 net.cpp:148] Top shape: 24 512 14 14 (2408448)
I0403 18:26:45.076076  6974 net.cpp:156] Memory required for data: 1028392224
I0403 18:26:45.076092  6974 layer_factory.hpp:77] Creating layer inception_4c/1x1
I0403 18:26:45.076117  6974 net.cpp:91] Creating Layer inception_4c/1x1
I0403 18:26:45.076134  6974 net.cpp:425] inception_4c/1x1 <- inception_4b/output_inception_4b/output_0_split_0
I0403 18:26:45.076153  6974 net.cpp:399] inception_4c/1x1 -> inception_4c/1x1
I0403 18:26:45.077559  6974 net.cpp:141] Setting up inception_4c/1x1
I0403 18:26:45.077587  6974 net.cpp:148] Top shape: 24 128 14 14 (602112)
I0403 18:26:45.077605  6974 net.cpp:156] Memory required for data: 1030800672
I0403 18:26:45.077625  6974 layer_factory.hpp:77] Creating layer inception_4c/relu_1x1
I0403 18:26:45.077648  6974 net.cpp:91] Creating Layer inception_4c/relu_1x1
I0403 18:26:45.077668  6974 net.cpp:425] inception_4c/relu_1x1 <- inception_4c/1x1
I0403 18:26:45.077685  6974 net.cpp:386] inception_4c/relu_1x1 -> inception_4c/1x1 (in-place)
I0403 18:26:45.077859  6974 net.cpp:141] Setting up inception_4c/relu_1x1
I0403 18:26:45.077886  6974 net.cpp:148] Top shape: 24 128 14 14 (602112)
I0403 18:26:45.077901  6974 net.cpp:156] Memory required for data: 1033209120
I0403 18:26:45.077918  6974 layer_factory.hpp:77] Creating layer inception_4c/3x3_reduce
I0403 18:26:45.077939  6974 net.cpp:91] Creating Layer inception_4c/3x3_reduce
I0403 18:26:45.077956  6974 net.cpp:425] inception_4c/3x3_reduce <- inception_4b/output_inception_4b/output_0_split_1
I0403 18:26:45.077980  6974 net.cpp:399] inception_4c/3x3_reduce -> inception_4c/3x3_reduce
I0403 18:26:45.079922  6974 net.cpp:141] Setting up inception_4c/3x3_reduce
I0403 18:26:45.079954  6974 net.cpp:148] Top shape: 24 128 14 14 (602112)
I0403 18:26:45.079972  6974 net.cpp:156] Memory required for data: 1035617568
I0403 18:26:45.079991  6974 layer_factory.hpp:77] Creating layer inception_4c/relu_3x3_reduce
I0403 18:26:45.080011  6974 net.cpp:91] Creating Layer inception_4c/relu_3x3_reduce
I0403 18:26:45.080029  6974 net.cpp:425] inception_4c/relu_3x3_reduce <- inception_4c/3x3_reduce
I0403 18:26:45.080047  6974 net.cpp:386] inception_4c/relu_3x3_reduce -> inception_4c/3x3_reduce (in-place)
I0403 18:26:45.080337  6974 net.cpp:141] Setting up inception_4c/relu_3x3_reduce
I0403 18:26:45.080365  6974 net.cpp:148] Top shape: 24 128 14 14 (602112)
I0403 18:26:45.080382  6974 net.cpp:156] Memory required for data: 1038026016
I0403 18:26:45.080397  6974 layer_factory.hpp:77] Creating layer inception_4c/3x3
I0403 18:26:45.080433  6974 net.cpp:91] Creating Layer inception_4c/3x3
I0403 18:26:45.080451  6974 net.cpp:425] inception_4c/3x3 <- inception_4c/3x3_reduce
I0403 18:26:45.080471  6974 net.cpp:399] inception_4c/3x3 -> inception_4c/3x3
I0403 18:26:45.084022  6974 net.cpp:141] Setting up inception_4c/3x3
I0403 18:26:45.084069  6974 net.cpp:148] Top shape: 24 256 14 14 (1204224)
I0403 18:26:45.084087  6974 net.cpp:156] Memory required for data: 1042842912
I0403 18:26:45.084120  6974 layer_factory.hpp:77] Creating layer inception_4c/relu_3x3
I0403 18:26:45.084141  6974 net.cpp:91] Creating Layer inception_4c/relu_3x3
I0403 18:26:45.084157  6974 net.cpp:425] inception_4c/relu_3x3 <- inception_4c/3x3
I0403 18:26:45.084177  6974 net.cpp:386] inception_4c/relu_3x3 -> inception_4c/3x3 (in-place)
I0403 18:26:45.084357  6974 net.cpp:141] Setting up inception_4c/relu_3x3
I0403 18:26:45.084383  6974 net.cpp:148] Top shape: 24 256 14 14 (1204224)
I0403 18:26:45.084398  6974 net.cpp:156] Memory required for data: 1047659808
I0403 18:26:45.084414  6974 layer_factory.hpp:77] Creating layer inception_4c/5x5_reduce
I0403 18:26:45.084436  6974 net.cpp:91] Creating Layer inception_4c/5x5_reduce
I0403 18:26:45.084455  6974 net.cpp:425] inception_4c/5x5_reduce <- inception_4b/output_inception_4b/output_0_split_2
I0403 18:26:45.084477  6974 net.cpp:399] inception_4c/5x5_reduce -> inception_4c/5x5_reduce
I0403 18:26:45.085543  6974 net.cpp:141] Setting up inception_4c/5x5_reduce
I0403 18:26:45.085575  6974 net.cpp:148] Top shape: 24 24 14 14 (112896)
I0403 18:26:45.085593  6974 net.cpp:156] Memory required for data: 1048111392
I0403 18:26:45.085611  6974 layer_factory.hpp:77] Creating layer inception_4c/relu_5x5_reduce
I0403 18:26:45.085630  6974 net.cpp:91] Creating Layer inception_4c/relu_5x5_reduce
I0403 18:26:45.085649  6974 net.cpp:425] inception_4c/relu_5x5_reduce <- inception_4c/5x5_reduce
I0403 18:26:45.085670  6974 net.cpp:386] inception_4c/relu_5x5_reduce -> inception_4c/5x5_reduce (in-place)
I0403 18:26:45.085853  6974 net.cpp:141] Setting up inception_4c/relu_5x5_reduce
I0403 18:26:45.085880  6974 net.cpp:148] Top shape: 24 24 14 14 (112896)
I0403 18:26:45.085897  6974 net.cpp:156] Memory required for data: 1048562976
I0403 18:26:45.085913  6974 layer_factory.hpp:77] Creating layer inception_4c/5x5
I0403 18:26:45.085935  6974 net.cpp:91] Creating Layer inception_4c/5x5
I0403 18:26:45.085953  6974 net.cpp:425] inception_4c/5x5 <- inception_4c/5x5_reduce
I0403 18:26:45.085975  6974 net.cpp:399] inception_4c/5x5 -> inception_4c/5x5
I0403 18:26:45.087191  6974 net.cpp:141] Setting up inception_4c/5x5
I0403 18:26:45.087220  6974 net.cpp:148] Top shape: 24 64 14 14 (301056)
I0403 18:26:45.087236  6974 net.cpp:156] Memory required for data: 1049767200
I0403 18:26:45.087256  6974 layer_factory.hpp:77] Creating layer inception_4c/relu_5x5
I0403 18:26:45.087280  6974 net.cpp:91] Creating Layer inception_4c/relu_5x5
I0403 18:26:45.087301  6974 net.cpp:425] inception_4c/relu_5x5 <- inception_4c/5x5
I0403 18:26:45.087322  6974 net.cpp:386] inception_4c/relu_5x5 -> inception_4c/5x5 (in-place)
I0403 18:26:45.087607  6974 net.cpp:141] Setting up inception_4c/relu_5x5
I0403 18:26:45.087635  6974 net.cpp:148] Top shape: 24 64 14 14 (301056)
I0403 18:26:45.087651  6974 net.cpp:156] Memory required for data: 1050971424
I0403 18:26:45.087666  6974 layer_factory.hpp:77] Creating layer inception_4c/pool
I0403 18:26:45.087687  6974 net.cpp:91] Creating Layer inception_4c/pool
I0403 18:26:45.087705  6974 net.cpp:425] inception_4c/pool <- inception_4b/output_inception_4b/output_0_split_3
I0403 18:26:45.087728  6974 net.cpp:399] inception_4c/pool -> inception_4c/pool
I0403 18:26:45.087792  6974 net.cpp:141] Setting up inception_4c/pool
I0403 18:26:45.087818  6974 net.cpp:148] Top shape: 24 512 14 14 (2408448)
I0403 18:26:45.087834  6974 net.cpp:156] Memory required for data: 1060605216
I0403 18:26:45.087851  6974 layer_factory.hpp:77] Creating layer inception_4c/pool_proj
I0403 18:26:45.087875  6974 net.cpp:91] Creating Layer inception_4c/pool_proj
I0403 18:26:45.087894  6974 net.cpp:425] inception_4c/pool_proj <- inception_4c/pool
I0403 18:26:45.087913  6974 net.cpp:399] inception_4c/pool_proj -> inception_4c/pool_proj
I0403 18:26:45.089109  6974 net.cpp:141] Setting up inception_4c/pool_proj
I0403 18:26:45.089138  6974 net.cpp:148] Top shape: 24 64 14 14 (301056)
I0403 18:26:45.089169  6974 net.cpp:156] Memory required for data: 1061809440
I0403 18:26:45.089190  6974 layer_factory.hpp:77] Creating layer inception_4c/relu_pool_proj
I0403 18:26:45.089207  6974 net.cpp:91] Creating Layer inception_4c/relu_pool_proj
I0403 18:26:45.089224  6974 net.cpp:425] inception_4c/relu_pool_proj <- inception_4c/pool_proj
I0403 18:26:45.089243  6974 net.cpp:386] inception_4c/relu_pool_proj -> inception_4c/pool_proj (in-place)
I0403 18:26:45.089426  6974 net.cpp:141] Setting up inception_4c/relu_pool_proj
I0403 18:26:45.089452  6974 net.cpp:148] Top shape: 24 64 14 14 (301056)
I0403 18:26:45.089468  6974 net.cpp:156] Memory required for data: 1063013664
I0403 18:26:45.089483  6974 layer_factory.hpp:77] Creating layer inception_4c/output
I0403 18:26:45.089500  6974 net.cpp:91] Creating Layer inception_4c/output
I0403 18:26:45.089515  6974 net.cpp:425] inception_4c/output <- inception_4c/1x1
I0403 18:26:45.089532  6974 net.cpp:425] inception_4c/output <- inception_4c/3x3
I0403 18:26:45.089550  6974 net.cpp:425] inception_4c/output <- inception_4c/5x5
I0403 18:26:45.089566  6974 net.cpp:425] inception_4c/output <- inception_4c/pool_proj
I0403 18:26:45.089586  6974 net.cpp:399] inception_4c/output -> inception_4c/output
I0403 18:26:45.089632  6974 net.cpp:141] Setting up inception_4c/output
I0403 18:26:45.089658  6974 net.cpp:148] Top shape: 24 512 14 14 (2408448)
I0403 18:26:45.089674  6974 net.cpp:156] Memory required for data: 1072647456
I0403 18:26:45.089689  6974 layer_factory.hpp:77] Creating layer inception_4c/output_inception_4c/output_0_split
I0403 18:26:45.089709  6974 net.cpp:91] Creating Layer inception_4c/output_inception_4c/output_0_split
I0403 18:26:45.089725  6974 net.cpp:425] inception_4c/output_inception_4c/output_0_split <- inception_4c/output
I0403 18:26:45.089740  6974 net.cpp:399] inception_4c/output_inception_4c/output_0_split -> inception_4c/output_inception_4c/output_0_split_0
I0403 18:26:45.089763  6974 net.cpp:399] inception_4c/output_inception_4c/output_0_split -> inception_4c/output_inception_4c/output_0_split_1
I0403 18:26:45.089786  6974 net.cpp:399] inception_4c/output_inception_4c/output_0_split -> inception_4c/output_inception_4c/output_0_split_2
I0403 18:26:45.089805  6974 net.cpp:399] inception_4c/output_inception_4c/output_0_split -> inception_4c/output_inception_4c/output_0_split_3
I0403 18:26:45.089892  6974 net.cpp:141] Setting up inception_4c/output_inception_4c/output_0_split
I0403 18:26:45.089915  6974 net.cpp:148] Top shape: 24 512 14 14 (2408448)
I0403 18:26:45.089931  6974 net.cpp:148] Top shape: 24 512 14 14 (2408448)
I0403 18:26:45.089947  6974 net.cpp:148] Top shape: 24 512 14 14 (2408448)
I0403 18:26:45.089963  6974 net.cpp:148] Top shape: 24 512 14 14 (2408448)
I0403 18:26:45.089977  6974 net.cpp:156] Memory required for data: 1111182624
I0403 18:26:45.089992  6974 layer_factory.hpp:77] Creating layer inception_4d/1x1
I0403 18:26:45.090016  6974 net.cpp:91] Creating Layer inception_4d/1x1
I0403 18:26:45.090034  6974 net.cpp:425] inception_4d/1x1 <- inception_4c/output_inception_4c/output_0_split_0
I0403 18:26:45.090052  6974 net.cpp:399] inception_4d/1x1 -> inception_4d/1x1
I0403 18:26:45.091423  6974 net.cpp:141] Setting up inception_4d/1x1
I0403 18:26:45.091454  6974 net.cpp:148] Top shape: 24 112 14 14 (526848)
I0403 18:26:45.091471  6974 net.cpp:156] Memory required for data: 1113290016
I0403 18:26:45.091491  6974 layer_factory.hpp:77] Creating layer inception_4d/relu_1x1
I0403 18:26:45.091516  6974 net.cpp:91] Creating Layer inception_4d/relu_1x1
I0403 18:26:45.091537  6974 net.cpp:425] inception_4d/relu_1x1 <- inception_4d/1x1
I0403 18:26:45.091555  6974 net.cpp:386] inception_4d/relu_1x1 -> inception_4d/1x1 (in-place)
I0403 18:26:45.091737  6974 net.cpp:141] Setting up inception_4d/relu_1x1
I0403 18:26:45.091765  6974 net.cpp:148] Top shape: 24 112 14 14 (526848)
I0403 18:26:45.091781  6974 net.cpp:156] Memory required for data: 1115397408
I0403 18:26:45.091797  6974 layer_factory.hpp:77] Creating layer inception_4d/3x3_reduce
I0403 18:26:45.091835  6974 net.cpp:91] Creating Layer inception_4d/3x3_reduce
I0403 18:26:45.091855  6974 net.cpp:425] inception_4d/3x3_reduce <- inception_4c/output_inception_4c/output_0_split_1
I0403 18:26:45.091873  6974 net.cpp:399] inception_4d/3x3_reduce -> inception_4d/3x3_reduce
I0403 18:26:45.093369  6974 net.cpp:141] Setting up inception_4d/3x3_reduce
I0403 18:26:45.093397  6974 net.cpp:148] Top shape: 24 144 14 14 (677376)
I0403 18:26:45.093413  6974 net.cpp:156] Memory required for data: 1118106912
I0403 18:26:45.093433  6974 layer_factory.hpp:77] Creating layer inception_4d/relu_3x3_reduce
I0403 18:26:45.093452  6974 net.cpp:91] Creating Layer inception_4d/relu_3x3_reduce
I0403 18:26:45.093472  6974 net.cpp:425] inception_4d/relu_3x3_reduce <- inception_4d/3x3_reduce
I0403 18:26:45.093489  6974 net.cpp:386] inception_4d/relu_3x3_reduce -> inception_4d/3x3_reduce (in-place)
I0403 18:26:45.093770  6974 net.cpp:141] Setting up inception_4d/relu_3x3_reduce
I0403 18:26:45.093798  6974 net.cpp:148] Top shape: 24 144 14 14 (677376)
I0403 18:26:45.093813  6974 net.cpp:156] Memory required for data: 1120816416
I0403 18:26:45.093827  6974 layer_factory.hpp:77] Creating layer inception_4d/3x3
I0403 18:26:45.093849  6974 net.cpp:91] Creating Layer inception_4d/3x3
I0403 18:26:45.093868  6974 net.cpp:425] inception_4d/3x3 <- inception_4d/3x3_reduce
I0403 18:26:45.093888  6974 net.cpp:399] inception_4d/3x3 -> inception_4d/3x3
I0403 18:26:45.098042  6974 net.cpp:141] Setting up inception_4d/3x3
I0403 18:26:45.098072  6974 net.cpp:148] Top shape: 24 288 14 14 (1354752)
I0403 18:26:45.098091  6974 net.cpp:156] Memory required for data: 1126235424
I0403 18:26:45.098110  6974 layer_factory.hpp:77] Creating layer inception_4d/relu_3x3
I0403 18:26:45.098127  6974 net.cpp:91] Creating Layer inception_4d/relu_3x3
I0403 18:26:45.098143  6974 net.cpp:425] inception_4d/relu_3x3 <- inception_4d/3x3
I0403 18:26:45.098160  6974 net.cpp:386] inception_4d/relu_3x3 -> inception_4d/3x3 (in-place)
I0403 18:26:45.098345  6974 net.cpp:141] Setting up inception_4d/relu_3x3
I0403 18:26:45.098376  6974 net.cpp:148] Top shape: 24 288 14 14 (1354752)
I0403 18:26:45.098392  6974 net.cpp:156] Memory required for data: 1131654432
I0403 18:26:45.098407  6974 layer_factory.hpp:77] Creating layer inception_4d/5x5_reduce
I0403 18:26:45.098428  6974 net.cpp:91] Creating Layer inception_4d/5x5_reduce
I0403 18:26:45.098445  6974 net.cpp:425] inception_4d/5x5_reduce <- inception_4c/output_inception_4c/output_0_split_2
I0403 18:26:45.098464  6974 net.cpp:399] inception_4d/5x5_reduce -> inception_4d/5x5_reduce
I0403 18:26:45.099591  6974 net.cpp:141] Setting up inception_4d/5x5_reduce
I0403 18:26:45.099619  6974 net.cpp:148] Top shape: 24 32 14 14 (150528)
I0403 18:26:45.099637  6974 net.cpp:156] Memory required for data: 1132256544
I0403 18:26:45.099656  6974 layer_factory.hpp:77] Creating layer inception_4d/relu_5x5_reduce
I0403 18:26:45.099678  6974 net.cpp:91] Creating Layer inception_4d/relu_5x5_reduce
I0403 18:26:45.099696  6974 net.cpp:425] inception_4d/relu_5x5_reduce <- inception_4d/5x5_reduce
I0403 18:26:45.099714  6974 net.cpp:386] inception_4d/relu_5x5_reduce -> inception_4d/5x5_reduce (in-place)
I0403 18:26:45.099897  6974 net.cpp:141] Setting up inception_4d/relu_5x5_reduce
I0403 18:26:45.099923  6974 net.cpp:148] Top shape: 24 32 14 14 (150528)
I0403 18:26:45.099938  6974 net.cpp:156] Memory required for data: 1132858656
I0403 18:26:45.099953  6974 layer_factory.hpp:77] Creating layer inception_4d/5x5
I0403 18:26:45.099975  6974 net.cpp:91] Creating Layer inception_4d/5x5
I0403 18:26:45.099993  6974 net.cpp:425] inception_4d/5x5 <- inception_4d/5x5_reduce
I0403 18:26:45.100013  6974 net.cpp:399] inception_4d/5x5 -> inception_4d/5x5
I0403 18:26:45.101483  6974 net.cpp:141] Setting up inception_4d/5x5
I0403 18:26:45.101513  6974 net.cpp:148] Top shape: 24 64 14 14 (301056)
I0403 18:26:45.101529  6974 net.cpp:156] Memory required for data: 1134062880
I0403 18:26:45.101549  6974 layer_factory.hpp:77] Creating layer inception_4d/relu_5x5
I0403 18:26:45.101583  6974 net.cpp:91] Creating Layer inception_4d/relu_5x5
I0403 18:26:45.101600  6974 net.cpp:425] inception_4d/relu_5x5 <- inception_4d/5x5
I0403 18:26:45.101619  6974 net.cpp:386] inception_4d/relu_5x5 -> inception_4d/5x5 (in-place)
I0403 18:26:45.101913  6974 net.cpp:141] Setting up inception_4d/relu_5x5
I0403 18:26:45.101939  6974 net.cpp:148] Top shape: 24 64 14 14 (301056)
I0403 18:26:45.101955  6974 net.cpp:156] Memory required for data: 1135267104
I0403 18:26:45.101970  6974 layer_factory.hpp:77] Creating layer inception_4d/pool
I0403 18:26:45.101987  6974 net.cpp:91] Creating Layer inception_4d/pool
I0403 18:26:45.102005  6974 net.cpp:425] inception_4d/pool <- inception_4c/output_inception_4c/output_0_split_3
I0403 18:26:45.102025  6974 net.cpp:399] inception_4d/pool -> inception_4d/pool
I0403 18:26:45.102093  6974 net.cpp:141] Setting up inception_4d/pool
I0403 18:26:45.102118  6974 net.cpp:148] Top shape: 24 512 14 14 (2408448)
I0403 18:26:45.102133  6974 net.cpp:156] Memory required for data: 1144900896
I0403 18:26:45.102146  6974 layer_factory.hpp:77] Creating layer inception_4d/pool_proj
I0403 18:26:45.102183  6974 net.cpp:91] Creating Layer inception_4d/pool_proj
I0403 18:26:45.102201  6974 net.cpp:425] inception_4d/pool_proj <- inception_4d/pool
I0403 18:26:45.102221  6974 net.cpp:399] inception_4d/pool_proj -> inception_4d/pool_proj
I0403 18:26:45.104017  6974 net.cpp:141] Setting up inception_4d/pool_proj
I0403 18:26:45.104048  6974 net.cpp:148] Top shape: 24 64 14 14 (301056)
I0403 18:26:45.104068  6974 net.cpp:156] Memory required for data: 1146105120
I0403 18:26:45.104087  6974 layer_factory.hpp:77] Creating layer inception_4d/relu_pool_proj
I0403 18:26:45.104105  6974 net.cpp:91] Creating Layer inception_4d/relu_pool_proj
I0403 18:26:45.104123  6974 net.cpp:425] inception_4d/relu_pool_proj <- inception_4d/pool_proj
I0403 18:26:45.104141  6974 net.cpp:386] inception_4d/relu_pool_proj -> inception_4d/pool_proj (in-place)
I0403 18:26:45.104328  6974 net.cpp:141] Setting up inception_4d/relu_pool_proj
I0403 18:26:45.104356  6974 net.cpp:148] Top shape: 24 64 14 14 (301056)
I0403 18:26:45.104370  6974 net.cpp:156] Memory required for data: 1147309344
I0403 18:26:45.104384  6974 layer_factory.hpp:77] Creating layer inception_4d/output
I0403 18:26:45.104401  6974 net.cpp:91] Creating Layer inception_4d/output
I0403 18:26:45.104416  6974 net.cpp:425] inception_4d/output <- inception_4d/1x1
I0403 18:26:45.104434  6974 net.cpp:425] inception_4d/output <- inception_4d/3x3
I0403 18:26:45.104449  6974 net.cpp:425] inception_4d/output <- inception_4d/5x5
I0403 18:26:45.104465  6974 net.cpp:425] inception_4d/output <- inception_4d/pool_proj
I0403 18:26:45.104483  6974 net.cpp:399] inception_4d/output -> inception_4d/output
I0403 18:26:45.104529  6974 net.cpp:141] Setting up inception_4d/output
I0403 18:26:45.104552  6974 net.cpp:148] Top shape: 24 528 14 14 (2483712)
I0403 18:26:45.104567  6974 net.cpp:156] Memory required for data: 1157244192
I0403 18:26:45.104581  6974 layer_factory.hpp:77] Creating layer inception_4d/output_inception_4d/output_0_split
I0403 18:26:45.104601  6974 net.cpp:91] Creating Layer inception_4d/output_inception_4d/output_0_split
I0403 18:26:45.104619  6974 net.cpp:425] inception_4d/output_inception_4d/output_0_split <- inception_4d/output
I0403 18:26:45.104635  6974 net.cpp:399] inception_4d/output_inception_4d/output_0_split -> inception_4d/output_inception_4d/output_0_split_0
I0403 18:26:45.104658  6974 net.cpp:399] inception_4d/output_inception_4d/output_0_split -> inception_4d/output_inception_4d/output_0_split_1
I0403 18:26:45.104681  6974 net.cpp:399] inception_4d/output_inception_4d/output_0_split -> inception_4d/output_inception_4d/output_0_split_2
I0403 18:26:45.104699  6974 net.cpp:399] inception_4d/output_inception_4d/output_0_split -> inception_4d/output_inception_4d/output_0_split_3
I0403 18:26:45.104719  6974 net.cpp:399] inception_4d/output_inception_4d/output_0_split -> inception_4d/output_inception_4d/output_0_split_4
I0403 18:26:45.104820  6974 net.cpp:141] Setting up inception_4d/output_inception_4d/output_0_split
I0403 18:26:45.104854  6974 net.cpp:148] Top shape: 24 528 14 14 (2483712)
I0403 18:26:45.104871  6974 net.cpp:148] Top shape: 24 528 14 14 (2483712)
I0403 18:26:45.104887  6974 net.cpp:148] Top shape: 24 528 14 14 (2483712)
I0403 18:26:45.104902  6974 net.cpp:148] Top shape: 24 528 14 14 (2483712)
I0403 18:26:45.104918  6974 net.cpp:148] Top shape: 24 528 14 14 (2483712)
I0403 18:26:45.104931  6974 net.cpp:156] Memory required for data: 1206918432
I0403 18:26:45.104945  6974 layer_factory.hpp:77] Creating layer loss2/ave_pool
I0403 18:26:45.104965  6974 net.cpp:91] Creating Layer loss2/ave_pool
I0403 18:26:45.104982  6974 net.cpp:425] loss2/ave_pool <- inception_4d/output_inception_4d/output_0_split_0
I0403 18:26:45.105000  6974 net.cpp:399] loss2/ave_pool -> loss2/ave_pool
I0403 18:26:45.105311  6974 net.cpp:141] Setting up loss2/ave_pool
I0403 18:26:45.105340  6974 net.cpp:148] Top shape: 24 528 4 4 (202752)
I0403 18:26:45.105355  6974 net.cpp:156] Memory required for data: 1207729440
I0403 18:26:45.105371  6974 layer_factory.hpp:77] Creating layer loss2/conv
I0403 18:26:45.105391  6974 net.cpp:91] Creating Layer loss2/conv
I0403 18:26:45.105407  6974 net.cpp:425] loss2/conv <- loss2/ave_pool
I0403 18:26:45.105428  6974 net.cpp:399] loss2/conv -> loss2/conv
I0403 18:26:45.107290  6974 net.cpp:141] Setting up loss2/conv
I0403 18:26:45.107321  6974 net.cpp:148] Top shape: 24 128 4 4 (49152)
I0403 18:26:45.107336  6974 net.cpp:156] Memory required for data: 1207926048
I0403 18:26:45.107357  6974 layer_factory.hpp:77] Creating layer loss2/relu_conv
I0403 18:26:45.107374  6974 net.cpp:91] Creating Layer loss2/relu_conv
I0403 18:26:45.107393  6974 net.cpp:425] loss2/relu_conv <- loss2/conv
I0403 18:26:45.107414  6974 net.cpp:386] loss2/relu_conv -> loss2/conv (in-place)
I0403 18:26:45.107702  6974 net.cpp:141] Setting up loss2/relu_conv
I0403 18:26:45.107729  6974 net.cpp:148] Top shape: 24 128 4 4 (49152)
I0403 18:26:45.107746  6974 net.cpp:156] Memory required for data: 1208122656
I0403 18:26:45.107763  6974 layer_factory.hpp:77] Creating layer loss2/fc
I0403 18:26:45.107784  6974 net.cpp:91] Creating Layer loss2/fc
I0403 18:26:45.107801  6974 net.cpp:425] loss2/fc <- loss2/conv
I0403 18:26:45.107825  6974 net.cpp:399] loss2/fc -> loss2/fc
I0403 18:26:45.125566  6974 net.cpp:141] Setting up loss2/fc
I0403 18:26:45.125638  6974 net.cpp:148] Top shape: 24 1024 (24576)
I0403 18:26:45.125656  6974 net.cpp:156] Memory required for data: 1208220960
I0403 18:26:45.125676  6974 layer_factory.hpp:77] Creating layer loss2/relu_fc
I0403 18:26:45.125700  6974 net.cpp:91] Creating Layer loss2/relu_fc
I0403 18:26:45.125720  6974 net.cpp:425] loss2/relu_fc <- loss2/fc
I0403 18:26:45.125740  6974 net.cpp:386] loss2/relu_fc -> loss2/fc (in-place)
I0403 18:26:45.126104  6974 net.cpp:141] Setting up loss2/relu_fc
I0403 18:26:45.126135  6974 net.cpp:148] Top shape: 24 1024 (24576)
I0403 18:26:45.126152  6974 net.cpp:156] Memory required for data: 1208319264
I0403 18:26:45.126168  6974 layer_factory.hpp:77] Creating layer loss2/drop_fc
I0403 18:26:45.126188  6974 net.cpp:91] Creating Layer loss2/drop_fc
I0403 18:26:45.126204  6974 net.cpp:425] loss2/drop_fc <- loss2/fc
I0403 18:26:45.126224  6974 net.cpp:386] loss2/drop_fc -> loss2/fc (in-place)
I0403 18:26:45.126281  6974 net.cpp:141] Setting up loss2/drop_fc
I0403 18:26:45.126304  6974 net.cpp:148] Top shape: 24 1024 (24576)
I0403 18:26:45.126319  6974 net.cpp:156] Memory required for data: 1208417568
I0403 18:26:45.126333  6974 layer_factory.hpp:77] Creating layer loss2/classifier_plantvillage
I0403 18:26:45.126358  6974 net.cpp:91] Creating Layer loss2/classifier_plantvillage
I0403 18:26:45.126376  6974 net.cpp:425] loss2/classifier_plantvillage <- loss2/fc
I0403 18:26:45.126395  6974 net.cpp:399] loss2/classifier_plantvillage -> loss2/classifier_plantvillage
I0403 18:26:45.126812  6974 net.cpp:141] Setting up loss2/classifier_plantvillage
I0403 18:26:45.126840  6974 net.cpp:148] Top shape: 24 38 (912)
I0403 18:26:45.126883  6974 net.cpp:156] Memory required for data: 1208421216
I0403 18:26:45.126901  6974 layer_factory.hpp:77] Creating layer loss2/classifier_plantvillage_loss2/classifier_plantvillage_0_split
I0403 18:26:45.126920  6974 net.cpp:91] Creating Layer loss2/classifier_plantvillage_loss2/classifier_plantvillage_0_split
I0403 18:26:45.126937  6974 net.cpp:425] loss2/classifier_plantvillage_loss2/classifier_plantvillage_0_split <- loss2/classifier_plantvillage
I0403 18:26:45.126960  6974 net.cpp:399] loss2/classifier_plantvillage_loss2/classifier_plantvillage_0_split -> loss2/classifier_plantvillage_loss2/classifier_plantvillage_0_split_0
I0403 18:26:45.126981  6974 net.cpp:399] loss2/classifier_plantvillage_loss2/classifier_plantvillage_0_split -> loss2/classifier_plantvillage_loss2/classifier_plantvillage_0_split_1
I0403 18:26:45.127002  6974 net.cpp:399] loss2/classifier_plantvillage_loss2/classifier_plantvillage_0_split -> loss2/classifier_plantvillage_loss2/classifier_plantvillage_0_split_2
I0403 18:26:45.127080  6974 net.cpp:141] Setting up loss2/classifier_plantvillage_loss2/classifier_plantvillage_0_split
I0403 18:26:45.127106  6974 net.cpp:148] Top shape: 24 38 (912)
I0403 18:26:45.127125  6974 net.cpp:148] Top shape: 24 38 (912)
I0403 18:26:45.127140  6974 net.cpp:148] Top shape: 24 38 (912)
I0403 18:26:45.127154  6974 net.cpp:156] Memory required for data: 1208432160
I0403 18:26:45.127171  6974 layer_factory.hpp:77] Creating layer inception_4e/1x1
I0403 18:26:45.127192  6974 net.cpp:91] Creating Layer inception_4e/1x1
I0403 18:26:45.127212  6974 net.cpp:425] inception_4e/1x1 <- inception_4d/output_inception_4d/output_0_split_1
I0403 18:26:45.127230  6974 net.cpp:399] inception_4e/1x1 -> inception_4e/1x1
I0403 18:26:45.129112  6974 net.cpp:141] Setting up inception_4e/1x1
I0403 18:26:45.129143  6974 net.cpp:148] Top shape: 24 256 14 14 (1204224)
I0403 18:26:45.129160  6974 net.cpp:156] Memory required for data: 1213249056
I0403 18:26:45.129182  6974 layer_factory.hpp:77] Creating layer inception_4e/relu_1x1
I0403 18:26:45.129201  6974 net.cpp:91] Creating Layer inception_4e/relu_1x1
I0403 18:26:45.129220  6974 net.cpp:425] inception_4e/relu_1x1 <- inception_4e/1x1
I0403 18:26:45.129238  6974 net.cpp:386] inception_4e/relu_1x1 -> inception_4e/1x1 (in-place)
I0403 18:26:45.129545  6974 net.cpp:141] Setting up inception_4e/relu_1x1
I0403 18:26:45.129572  6974 net.cpp:148] Top shape: 24 256 14 14 (1204224)
I0403 18:26:45.129588  6974 net.cpp:156] Memory required for data: 1218065952
I0403 18:26:45.129604  6974 layer_factory.hpp:77] Creating layer inception_4e/3x3_reduce
I0403 18:26:45.129627  6974 net.cpp:91] Creating Layer inception_4e/3x3_reduce
I0403 18:26:45.129647  6974 net.cpp:425] inception_4e/3x3_reduce <- inception_4d/output_inception_4d/output_0_split_2
I0403 18:26:45.129669  6974 net.cpp:399] inception_4e/3x3_reduce -> inception_4e/3x3_reduce
I0403 18:26:45.131847  6974 net.cpp:141] Setting up inception_4e/3x3_reduce
I0403 18:26:45.131883  6974 net.cpp:148] Top shape: 24 160 14 14 (752640)
I0403 18:26:45.131902  6974 net.cpp:156] Memory required for data: 1221076512
I0403 18:26:45.131924  6974 layer_factory.hpp:77] Creating layer inception_4e/relu_3x3_reduce
I0403 18:26:45.131942  6974 net.cpp:91] Creating Layer inception_4e/relu_3x3_reduce
I0403 18:26:45.131961  6974 net.cpp:425] inception_4e/relu_3x3_reduce <- inception_4e/3x3_reduce
I0403 18:26:45.131983  6974 net.cpp:386] inception_4e/relu_3x3_reduce -> inception_4e/3x3_reduce (in-place)
I0403 18:26:45.132170  6974 net.cpp:141] Setting up inception_4e/relu_3x3_reduce
I0403 18:26:45.132197  6974 net.cpp:148] Top shape: 24 160 14 14 (752640)
I0403 18:26:45.132213  6974 net.cpp:156] Memory required for data: 1224087072
I0403 18:26:45.132230  6974 layer_factory.hpp:77] Creating layer inception_4e/3x3
I0403 18:26:45.132251  6974 net.cpp:91] Creating Layer inception_4e/3x3
I0403 18:26:45.132269  6974 net.cpp:425] inception_4e/3x3 <- inception_4e/3x3_reduce
I0403 18:26:45.132305  6974 net.cpp:399] inception_4e/3x3 -> inception_4e/3x3
I0403 18:26:45.137395  6974 net.cpp:141] Setting up inception_4e/3x3
I0403 18:26:45.137442  6974 net.cpp:148] Top shape: 24 320 14 14 (1505280)
I0403 18:26:45.137459  6974 net.cpp:156] Memory required for data: 1230108192
I0403 18:26:45.137480  6974 layer_factory.hpp:77] Creating layer inception_4e/relu_3x3
I0403 18:26:45.137501  6974 net.cpp:91] Creating Layer inception_4e/relu_3x3
I0403 18:26:45.137521  6974 net.cpp:425] inception_4e/relu_3x3 <- inception_4e/3x3
I0403 18:26:45.137538  6974 net.cpp:386] inception_4e/relu_3x3 -> inception_4e/3x3 (in-place)
I0403 18:26:45.137840  6974 net.cpp:141] Setting up inception_4e/relu_3x3
I0403 18:26:45.137869  6974 net.cpp:148] Top shape: 24 320 14 14 (1505280)
I0403 18:26:45.137886  6974 net.cpp:156] Memory required for data: 1236129312
I0403 18:26:45.137902  6974 layer_factory.hpp:77] Creating layer inception_4e/5x5_reduce
I0403 18:26:45.137925  6974 net.cpp:91] Creating Layer inception_4e/5x5_reduce
I0403 18:26:45.137946  6974 net.cpp:425] inception_4e/5x5_reduce <- inception_4d/output_inception_4d/output_0_split_3
I0403 18:26:45.137966  6974 net.cpp:399] inception_4e/5x5_reduce -> inception_4e/5x5_reduce
I0403 18:26:45.139061  6974 net.cpp:141] Setting up inception_4e/5x5_reduce
I0403 18:26:45.139091  6974 net.cpp:148] Top shape: 24 32 14 14 (150528)
I0403 18:26:45.139108  6974 net.cpp:156] Memory required for data: 1236731424
I0403 18:26:45.139128  6974 layer_factory.hpp:77] Creating layer inception_4e/relu_5x5_reduce
I0403 18:26:45.139150  6974 net.cpp:91] Creating Layer inception_4e/relu_5x5_reduce
I0403 18:26:45.139168  6974 net.cpp:425] inception_4e/relu_5x5_reduce <- inception_4e/5x5_reduce
I0403 18:26:45.139189  6974 net.cpp:386] inception_4e/relu_5x5_reduce -> inception_4e/5x5_reduce (in-place)
I0403 18:26:45.139503  6974 net.cpp:141] Setting up inception_4e/relu_5x5_reduce
I0403 18:26:45.139531  6974 net.cpp:148] Top shape: 24 32 14 14 (150528)
I0403 18:26:45.139549  6974 net.cpp:156] Memory required for data: 1237333536
I0403 18:26:45.139566  6974 layer_factory.hpp:77] Creating layer inception_4e/5x5
I0403 18:26:45.139606  6974 net.cpp:91] Creating Layer inception_4e/5x5
I0403 18:26:45.139627  6974 net.cpp:425] inception_4e/5x5 <- inception_4e/5x5_reduce
I0403 18:26:45.139648  6974 net.cpp:399] inception_4e/5x5 -> inception_4e/5x5
I0403 18:26:45.141510  6974 net.cpp:141] Setting up inception_4e/5x5
I0403 18:26:45.141541  6974 net.cpp:148] Top shape: 24 128 14 14 (602112)
I0403 18:26:45.141559  6974 net.cpp:156] Memory required for data: 1239741984
I0403 18:26:45.141582  6974 layer_factory.hpp:77] Creating layer inception_4e/relu_5x5
I0403 18:26:45.141602  6974 net.cpp:91] Creating Layer inception_4e/relu_5x5
I0403 18:26:45.141619  6974 net.cpp:425] inception_4e/relu_5x5 <- inception_4e/5x5
I0403 18:26:45.141636  6974 net.cpp:386] inception_4e/relu_5x5 -> inception_4e/5x5 (in-place)
I0403 18:26:45.141837  6974 net.cpp:141] Setting up inception_4e/relu_5x5
I0403 18:26:45.141865  6974 net.cpp:148] Top shape: 24 128 14 14 (602112)
I0403 18:26:45.141880  6974 net.cpp:156] Memory required for data: 1242150432
I0403 18:26:45.141897  6974 layer_factory.hpp:77] Creating layer inception_4e/pool
I0403 18:26:45.141916  6974 net.cpp:91] Creating Layer inception_4e/pool
I0403 18:26:45.141934  6974 net.cpp:425] inception_4e/pool <- inception_4d/output_inception_4d/output_0_split_4
I0403 18:26:45.141955  6974 net.cpp:399] inception_4e/pool -> inception_4e/pool
I0403 18:26:45.142027  6974 net.cpp:141] Setting up inception_4e/pool
I0403 18:26:45.142055  6974 net.cpp:148] Top shape: 24 528 14 14 (2483712)
I0403 18:26:45.142071  6974 net.cpp:156] Memory required for data: 1252085280
I0403 18:26:45.142086  6974 layer_factory.hpp:77] Creating layer inception_4e/pool_proj
I0403 18:26:45.142108  6974 net.cpp:91] Creating Layer inception_4e/pool_proj
I0403 18:26:45.142128  6974 net.cpp:425] inception_4e/pool_proj <- inception_4e/pool
I0403 18:26:45.142148  6974 net.cpp:399] inception_4e/pool_proj -> inception_4e/pool_proj
I0403 18:26:45.143762  6974 net.cpp:141] Setting up inception_4e/pool_proj
I0403 18:26:45.143807  6974 net.cpp:148] Top shape: 24 128 14 14 (602112)
I0403 18:26:45.143829  6974 net.cpp:156] Memory required for data: 1254493728
I0403 18:26:45.143854  6974 layer_factory.hpp:77] Creating layer inception_4e/relu_pool_proj
I0403 18:26:45.143882  6974 net.cpp:91] Creating Layer inception_4e/relu_pool_proj
I0403 18:26:45.143904  6974 net.cpp:425] inception_4e/relu_pool_proj <- inception_4e/pool_proj
I0403 18:26:45.143923  6974 net.cpp:386] inception_4e/relu_pool_proj -> inception_4e/pool_proj (in-place)
I0403 18:26:45.144222  6974 net.cpp:141] Setting up inception_4e/relu_pool_proj
I0403 18:26:45.144250  6974 net.cpp:148] Top shape: 24 128 14 14 (602112)
I0403 18:26:45.144266  6974 net.cpp:156] Memory required for data: 1256902176
I0403 18:26:45.144287  6974 layer_factory.hpp:77] Creating layer inception_4e/output
I0403 18:26:45.144306  6974 net.cpp:91] Creating Layer inception_4e/output
I0403 18:26:45.144323  6974 net.cpp:425] inception_4e/output <- inception_4e/1x1
I0403 18:26:45.144340  6974 net.cpp:425] inception_4e/output <- inception_4e/3x3
I0403 18:26:45.144357  6974 net.cpp:425] inception_4e/output <- inception_4e/5x5
I0403 18:26:45.144373  6974 net.cpp:425] inception_4e/output <- inception_4e/pool_proj
I0403 18:26:45.144392  6974 net.cpp:399] inception_4e/output -> inception_4e/output
I0403 18:26:45.144443  6974 net.cpp:141] Setting up inception_4e/output
I0403 18:26:45.144467  6974 net.cpp:148] Top shape: 24 832 14 14 (3913728)
I0403 18:26:45.144482  6974 net.cpp:156] Memory required for data: 1272557088
I0403 18:26:45.144497  6974 layer_factory.hpp:77] Creating layer pool4/3x3_s2
I0403 18:26:45.144520  6974 net.cpp:91] Creating Layer pool4/3x3_s2
I0403 18:26:45.144537  6974 net.cpp:425] pool4/3x3_s2 <- inception_4e/output
I0403 18:26:45.144556  6974 net.cpp:399] pool4/3x3_s2 -> pool4/3x3_s2
I0403 18:26:45.144624  6974 net.cpp:141] Setting up pool4/3x3_s2
I0403 18:26:45.144649  6974 net.cpp:148] Top shape: 24 832 7 7 (978432)
I0403 18:26:45.144664  6974 net.cpp:156] Memory required for data: 1276470816
I0403 18:26:45.144680  6974 layer_factory.hpp:77] Creating layer pool4/3x3_s2_pool4/3x3_s2_0_split
I0403 18:26:45.144696  6974 net.cpp:91] Creating Layer pool4/3x3_s2_pool4/3x3_s2_0_split
I0403 18:26:45.144712  6974 net.cpp:425] pool4/3x3_s2_pool4/3x3_s2_0_split <- pool4/3x3_s2
I0403 18:26:45.144731  6974 net.cpp:399] pool4/3x3_s2_pool4/3x3_s2_0_split -> pool4/3x3_s2_pool4/3x3_s2_0_split_0
I0403 18:26:45.144753  6974 net.cpp:399] pool4/3x3_s2_pool4/3x3_s2_0_split -> pool4/3x3_s2_pool4/3x3_s2_0_split_1
I0403 18:26:45.144775  6974 net.cpp:399] pool4/3x3_s2_pool4/3x3_s2_0_split -> pool4/3x3_s2_pool4/3x3_s2_0_split_2
I0403 18:26:45.144795  6974 net.cpp:399] pool4/3x3_s2_pool4/3x3_s2_0_split -> pool4/3x3_s2_pool4/3x3_s2_0_split_3
I0403 18:26:45.144889  6974 net.cpp:141] Setting up pool4/3x3_s2_pool4/3x3_s2_0_split
I0403 18:26:45.144915  6974 net.cpp:148] Top shape: 24 832 7 7 (978432)
I0403 18:26:45.144932  6974 net.cpp:148] Top shape: 24 832 7 7 (978432)
I0403 18:26:45.144949  6974 net.cpp:148] Top shape: 24 832 7 7 (978432)
I0403 18:26:45.144965  6974 net.cpp:148] Top shape: 24 832 7 7 (978432)
I0403 18:26:45.144980  6974 net.cpp:156] Memory required for data: 1292125728
I0403 18:26:45.144995  6974 layer_factory.hpp:77] Creating layer inception_5a/1x1
I0403 18:26:45.145020  6974 net.cpp:91] Creating Layer inception_5a/1x1
I0403 18:26:45.145037  6974 net.cpp:425] inception_5a/1x1 <- pool4/3x3_s2_pool4/3x3_s2_0_split_0
I0403 18:26:45.145056  6974 net.cpp:399] inception_5a/1x1 -> inception_5a/1x1
I0403 18:26:45.147961  6974 net.cpp:141] Setting up inception_5a/1x1
I0403 18:26:45.147995  6974 net.cpp:148] Top shape: 24 256 7 7 (301056)
I0403 18:26:45.148013  6974 net.cpp:156] Memory required for data: 1293329952
I0403 18:26:45.148031  6974 layer_factory.hpp:77] Creating layer inception_5a/relu_1x1
I0403 18:26:45.148051  6974 net.cpp:91] Creating Layer inception_5a/relu_1x1
I0403 18:26:45.148067  6974 net.cpp:425] inception_5a/relu_1x1 <- inception_5a/1x1
I0403 18:26:45.148087  6974 net.cpp:386] inception_5a/relu_1x1 -> inception_5a/1x1 (in-place)
I0403 18:26:45.148398  6974 net.cpp:141] Setting up inception_5a/relu_1x1
I0403 18:26:45.148427  6974 net.cpp:148] Top shape: 24 256 7 7 (301056)
I0403 18:26:45.148444  6974 net.cpp:156] Memory required for data: 1294534176
I0403 18:26:45.148460  6974 layer_factory.hpp:77] Creating layer inception_5a/3x3_reduce
I0403 18:26:45.148484  6974 net.cpp:91] Creating Layer inception_5a/3x3_reduce
I0403 18:26:45.148502  6974 net.cpp:425] inception_5a/3x3_reduce <- pool4/3x3_s2_pool4/3x3_s2_0_split_1
I0403 18:26:45.148522  6974 net.cpp:399] inception_5a/3x3_reduce -> inception_5a/3x3_reduce
I0403 18:26:45.150986  6974 net.cpp:141] Setting up inception_5a/3x3_reduce
I0403 18:26:45.151018  6974 net.cpp:148] Top shape: 24 160 7 7 (188160)
I0403 18:26:45.151036  6974 net.cpp:156] Memory required for data: 1295286816
I0403 18:26:45.151056  6974 layer_factory.hpp:77] Creating layer inception_5a/relu_3x3_reduce
I0403 18:26:45.151077  6974 net.cpp:91] Creating Layer inception_5a/relu_3x3_reduce
I0403 18:26:45.151094  6974 net.cpp:425] inception_5a/relu_3x3_reduce <- inception_5a/3x3_reduce
I0403 18:26:45.151113  6974 net.cpp:386] inception_5a/relu_3x3_reduce -> inception_5a/3x3_reduce (in-place)
I0403 18:26:45.151303  6974 net.cpp:141] Setting up inception_5a/relu_3x3_reduce
I0403 18:26:45.151330  6974 net.cpp:148] Top shape: 24 160 7 7 (188160)
I0403 18:26:45.151348  6974 net.cpp:156] Memory required for data: 1296039456
I0403 18:26:45.151363  6974 layer_factory.hpp:77] Creating layer inception_5a/3x3
I0403 18:26:45.151387  6974 net.cpp:91] Creating Layer inception_5a/3x3
I0403 18:26:45.151407  6974 net.cpp:425] inception_5a/3x3 <- inception_5a/3x3_reduce
I0403 18:26:45.151425  6974 net.cpp:399] inception_5a/3x3 -> inception_5a/3x3
I0403 18:26:45.156448  6974 net.cpp:141] Setting up inception_5a/3x3
I0403 18:26:45.156482  6974 net.cpp:148] Top shape: 24 320 7 7 (376320)
I0403 18:26:45.156499  6974 net.cpp:156] Memory required for data: 1297544736
I0403 18:26:45.156518  6974 layer_factory.hpp:77] Creating layer inception_5a/relu_3x3
I0403 18:26:45.156536  6974 net.cpp:91] Creating Layer inception_5a/relu_3x3
I0403 18:26:45.156554  6974 net.cpp:425] inception_5a/relu_3x3 <- inception_5a/3x3
I0403 18:26:45.156571  6974 net.cpp:386] inception_5a/relu_3x3 -> inception_5a/3x3 (in-place)
I0403 18:26:45.156865  6974 net.cpp:141] Setting up inception_5a/relu_3x3
I0403 18:26:45.156893  6974 net.cpp:148] Top shape: 24 320 7 7 (376320)
I0403 18:26:45.156910  6974 net.cpp:156] Memory required for data: 1299050016
I0403 18:26:45.156925  6974 layer_factory.hpp:77] Creating layer inception_5a/5x5_reduce
I0403 18:26:45.156949  6974 net.cpp:91] Creating Layer inception_5a/5x5_reduce
I0403 18:26:45.156965  6974 net.cpp:425] inception_5a/5x5_reduce <- pool4/3x3_s2_pool4/3x3_s2_0_split_2
I0403 18:26:45.156985  6974 net.cpp:399] inception_5a/5x5_reduce -> inception_5a/5x5_reduce
I0403 18:26:45.158144  6974 net.cpp:141] Setting up inception_5a/5x5_reduce
I0403 18:26:45.158176  6974 net.cpp:148] Top shape: 24 32 7 7 (37632)
I0403 18:26:45.158193  6974 net.cpp:156] Memory required for data: 1299200544
I0403 18:26:45.158213  6974 layer_factory.hpp:77] Creating layer inception_5a/relu_5x5_reduce
I0403 18:26:45.158232  6974 net.cpp:91] Creating Layer inception_5a/relu_5x5_reduce
I0403 18:26:45.158249  6974 net.cpp:425] inception_5a/relu_5x5_reduce <- inception_5a/5x5_reduce
I0403 18:26:45.158273  6974 net.cpp:386] inception_5a/relu_5x5_reduce -> inception_5a/5x5_reduce (in-place)
I0403 18:26:45.158571  6974 net.cpp:141] Setting up inception_5a/relu_5x5_reduce
I0403 18:26:45.158598  6974 net.cpp:148] Top shape: 24 32 7 7 (37632)
I0403 18:26:45.158614  6974 net.cpp:156] Memory required for data: 1299351072
I0403 18:26:45.158629  6974 layer_factory.hpp:77] Creating layer inception_5a/5x5
I0403 18:26:45.158653  6974 net.cpp:91] Creating Layer inception_5a/5x5
I0403 18:26:45.158674  6974 net.cpp:425] inception_5a/5x5 <- inception_5a/5x5_reduce
I0403 18:26:45.158694  6974 net.cpp:399] inception_5a/5x5 -> inception_5a/5x5
I0403 18:26:45.160377  6974 net.cpp:141] Setting up inception_5a/5x5
I0403 18:26:45.160420  6974 net.cpp:148] Top shape: 24 128 7 7 (150528)
I0403 18:26:45.160439  6974 net.cpp:156] Memory required for data: 1299953184
I0403 18:26:45.160457  6974 layer_factory.hpp:77] Creating layer inception_5a/relu_5x5
I0403 18:26:45.160476  6974 net.cpp:91] Creating Layer inception_5a/relu_5x5
I0403 18:26:45.160492  6974 net.cpp:425] inception_5a/relu_5x5 <- inception_5a/5x5
I0403 18:26:45.160509  6974 net.cpp:386] inception_5a/relu_5x5 -> inception_5a/5x5 (in-place)
I0403 18:26:45.160699  6974 net.cpp:141] Setting up inception_5a/relu_5x5
I0403 18:26:45.160724  6974 net.cpp:148] Top shape: 24 128 7 7 (150528)
I0403 18:26:45.160739  6974 net.cpp:156] Memory required for data: 1300555296
I0403 18:26:45.160754  6974 layer_factory.hpp:77] Creating layer inception_5a/pool
I0403 18:26:45.160771  6974 net.cpp:91] Creating Layer inception_5a/pool
I0403 18:26:45.160786  6974 net.cpp:425] inception_5a/pool <- pool4/3x3_s2_pool4/3x3_s2_0_split_3
I0403 18:26:45.160806  6974 net.cpp:399] inception_5a/pool -> inception_5a/pool
I0403 18:26:45.160874  6974 net.cpp:141] Setting up inception_5a/pool
I0403 18:26:45.160899  6974 net.cpp:148] Top shape: 24 832 7 7 (978432)
I0403 18:26:45.160915  6974 net.cpp:156] Memory required for data: 1304469024
I0403 18:26:45.160930  6974 layer_factory.hpp:77] Creating layer inception_5a/pool_proj
I0403 18:26:45.160951  6974 net.cpp:91] Creating Layer inception_5a/pool_proj
I0403 18:26:45.160969  6974 net.cpp:425] inception_5a/pool_proj <- inception_5a/pool
I0403 18:26:45.160987  6974 net.cpp:399] inception_5a/pool_proj -> inception_5a/pool_proj
I0403 18:26:45.163220  6974 net.cpp:141] Setting up inception_5a/pool_proj
I0403 18:26:45.163251  6974 net.cpp:148] Top shape: 24 128 7 7 (150528)
I0403 18:26:45.163269  6974 net.cpp:156] Memory required for data: 1305071136
I0403 18:26:45.163293  6974 layer_factory.hpp:77] Creating layer inception_5a/relu_pool_proj
I0403 18:26:45.163314  6974 net.cpp:91] Creating Layer inception_5a/relu_pool_proj
I0403 18:26:45.163332  6974 net.cpp:425] inception_5a/relu_pool_proj <- inception_5a/pool_proj
I0403 18:26:45.163352  6974 net.cpp:386] inception_5a/relu_pool_proj -> inception_5a/pool_proj (in-place)
I0403 18:26:45.163640  6974 net.cpp:141] Setting up inception_5a/relu_pool_proj
I0403 18:26:45.163667  6974 net.cpp:148] Top shape: 24 128 7 7 (150528)
I0403 18:26:45.163686  6974 net.cpp:156] Memory required for data: 1305673248
I0403 18:26:45.163700  6974 layer_factory.hpp:77] Creating layer inception_5a/output
I0403 18:26:45.163719  6974 net.cpp:91] Creating Layer inception_5a/output
I0403 18:26:45.163738  6974 net.cpp:425] inception_5a/output <- inception_5a/1x1
I0403 18:26:45.163755  6974 net.cpp:425] inception_5a/output <- inception_5a/3x3
I0403 18:26:45.163771  6974 net.cpp:425] inception_5a/output <- inception_5a/5x5
I0403 18:26:45.163787  6974 net.cpp:425] inception_5a/output <- inception_5a/pool_proj
I0403 18:26:45.163803  6974 net.cpp:399] inception_5a/output -> inception_5a/output
I0403 18:26:45.163853  6974 net.cpp:141] Setting up inception_5a/output
I0403 18:26:45.163877  6974 net.cpp:148] Top shape: 24 832 7 7 (978432)
I0403 18:26:45.163890  6974 net.cpp:156] Memory required for data: 1309586976
I0403 18:26:45.163905  6974 layer_factory.hpp:77] Creating layer inception_5a/output_inception_5a/output_0_split
I0403 18:26:45.163923  6974 net.cpp:91] Creating Layer inception_5a/output_inception_5a/output_0_split
I0403 18:26:45.163938  6974 net.cpp:425] inception_5a/output_inception_5a/output_0_split <- inception_5a/output
I0403 18:26:45.163957  6974 net.cpp:399] inception_5a/output_inception_5a/output_0_split -> inception_5a/output_inception_5a/output_0_split_0
I0403 18:26:45.163978  6974 net.cpp:399] inception_5a/output_inception_5a/output_0_split -> inception_5a/output_inception_5a/output_0_split_1
I0403 18:26:45.163998  6974 net.cpp:399] inception_5a/output_inception_5a/output_0_split -> inception_5a/output_inception_5a/output_0_split_2
I0403 18:26:45.164018  6974 net.cpp:399] inception_5a/output_inception_5a/output_0_split -> inception_5a/output_inception_5a/output_0_split_3
I0403 18:26:45.164130  6974 net.cpp:141] Setting up inception_5a/output_inception_5a/output_0_split
I0403 18:26:45.164155  6974 net.cpp:148] Top shape: 24 832 7 7 (978432)
I0403 18:26:45.164170  6974 net.cpp:148] Top shape: 24 832 7 7 (978432)
I0403 18:26:45.164186  6974 net.cpp:148] Top shape: 24 832 7 7 (978432)
I0403 18:26:45.164201  6974 net.cpp:148] Top shape: 24 832 7 7 (978432)
I0403 18:26:45.164216  6974 net.cpp:156] Memory required for data: 1325241888
I0403 18:26:45.164229  6974 layer_factory.hpp:77] Creating layer inception_5b/1x1
I0403 18:26:45.164252  6974 net.cpp:91] Creating Layer inception_5b/1x1
I0403 18:26:45.164268  6974 net.cpp:425] inception_5b/1x1 <- inception_5a/output_inception_5a/output_0_split_0
I0403 18:26:45.164294  6974 net.cpp:399] inception_5b/1x1 -> inception_5b/1x1
I0403 18:26:45.167953  6974 net.cpp:141] Setting up inception_5b/1x1
I0403 18:26:45.167982  6974 net.cpp:148] Top shape: 24 384 7 7 (451584)
I0403 18:26:45.168000  6974 net.cpp:156] Memory required for data: 1327048224
I0403 18:26:45.168020  6974 layer_factory.hpp:77] Creating layer inception_5b/relu_1x1
I0403 18:26:45.168043  6974 net.cpp:91] Creating Layer inception_5b/relu_1x1
I0403 18:26:45.168062  6974 net.cpp:425] inception_5b/relu_1x1 <- inception_5b/1x1
I0403 18:26:45.168081  6974 net.cpp:386] inception_5b/relu_1x1 -> inception_5b/1x1 (in-place)
I0403 18:26:45.168383  6974 net.cpp:141] Setting up inception_5b/relu_1x1
I0403 18:26:45.168409  6974 net.cpp:148] Top shape: 24 384 7 7 (451584)
I0403 18:26:45.168424  6974 net.cpp:156] Memory required for data: 1328854560
I0403 18:26:45.168438  6974 layer_factory.hpp:77] Creating layer inception_5b/3x3_reduce
I0403 18:26:45.168462  6974 net.cpp:91] Creating Layer inception_5b/3x3_reduce
I0403 18:26:45.168478  6974 net.cpp:425] inception_5b/3x3_reduce <- inception_5a/output_inception_5a/output_0_split_1
I0403 18:26:45.168499  6974 net.cpp:399] inception_5b/3x3_reduce -> inception_5b/3x3_reduce
I0403 18:26:45.171097  6974 net.cpp:141] Setting up inception_5b/3x3_reduce
I0403 18:26:45.171128  6974 net.cpp:148] Top shape: 24 192 7 7 (225792)
I0403 18:26:45.171145  6974 net.cpp:156] Memory required for data: 1329757728
I0403 18:26:45.171164  6974 layer_factory.hpp:77] Creating layer inception_5b/relu_3x3_reduce
I0403 18:26:45.171185  6974 net.cpp:91] Creating Layer inception_5b/relu_3x3_reduce
I0403 18:26:45.171202  6974 net.cpp:425] inception_5b/relu_3x3_reduce <- inception_5b/3x3_reduce
I0403 18:26:45.171221  6974 net.cpp:386] inception_5b/relu_3x3_reduce -> inception_5b/3x3_reduce (in-place)
I0403 18:26:45.171422  6974 net.cpp:141] Setting up inception_5b/relu_3x3_reduce
I0403 18:26:45.171452  6974 net.cpp:148] Top shape: 24 192 7 7 (225792)
I0403 18:26:45.171470  6974 net.cpp:156] Memory required for data: 1330660896
I0403 18:26:45.171485  6974 layer_factory.hpp:77] Creating layer inception_5b/3x3
I0403 18:26:45.171507  6974 net.cpp:91] Creating Layer inception_5b/3x3
I0403 18:26:45.171525  6974 net.cpp:425] inception_5b/3x3 <- inception_5b/3x3_reduce
I0403 18:26:45.171546  6974 net.cpp:399] inception_5b/3x3 -> inception_5b/3x3
I0403 18:26:45.178153  6974 net.cpp:141] Setting up inception_5b/3x3
I0403 18:26:45.178185  6974 net.cpp:148] Top shape: 24 384 7 7 (451584)
I0403 18:26:45.178201  6974 net.cpp:156] Memory required for data: 1332467232
I0403 18:26:45.178221  6974 layer_factory.hpp:77] Creating layer inception_5b/relu_3x3
I0403 18:26:45.178242  6974 net.cpp:91] Creating Layer inception_5b/relu_3x3
I0403 18:26:45.178262  6974 net.cpp:425] inception_5b/relu_3x3 <- inception_5b/3x3
I0403 18:26:45.178287  6974 net.cpp:386] inception_5b/relu_3x3 -> inception_5b/3x3 (in-place)
I0403 18:26:45.178582  6974 net.cpp:141] Setting up inception_5b/relu_3x3
I0403 18:26:45.178609  6974 net.cpp:148] Top shape: 24 384 7 7 (451584)
I0403 18:26:45.178624  6974 net.cpp:156] Memory required for data: 1334273568
I0403 18:26:45.178639  6974 layer_factory.hpp:77] Creating layer inception_5b/5x5_reduce
I0403 18:26:45.178680  6974 net.cpp:91] Creating Layer inception_5b/5x5_reduce
I0403 18:26:45.178700  6974 net.cpp:425] inception_5b/5x5_reduce <- inception_5a/output_inception_5a/output_0_split_2
I0403 18:26:45.178720  6974 net.cpp:399] inception_5b/5x5_reduce -> inception_5b/5x5_reduce
I0403 18:26:45.179977  6974 net.cpp:141] Setting up inception_5b/5x5_reduce
I0403 18:26:45.180009  6974 net.cpp:148] Top shape: 24 48 7 7 (56448)
I0403 18:26:45.180027  6974 net.cpp:156] Memory required for data: 1334499360
I0403 18:26:45.180047  6974 layer_factory.hpp:77] Creating layer inception_5b/relu_5x5_reduce
I0403 18:26:45.180065  6974 net.cpp:91] Creating Layer inception_5b/relu_5x5_reduce
I0403 18:26:45.180083  6974 net.cpp:425] inception_5b/relu_5x5_reduce <- inception_5b/5x5_reduce
I0403 18:26:45.180101  6974 net.cpp:386] inception_5b/relu_5x5_reduce -> inception_5b/5x5_reduce (in-place)
I0403 18:26:45.180474  6974 net.cpp:141] Setting up inception_5b/relu_5x5_reduce
I0403 18:26:45.180502  6974 net.cpp:148] Top shape: 24 48 7 7 (56448)
I0403 18:26:45.180518  6974 net.cpp:156] Memory required for data: 1334725152
I0403 18:26:45.180547  6974 layer_factory.hpp:77] Creating layer inception_5b/5x5
I0403 18:26:45.180568  6974 net.cpp:91] Creating Layer inception_5b/5x5
I0403 18:26:45.180588  6974 net.cpp:425] inception_5b/5x5 <- inception_5b/5x5_reduce
I0403 18:26:45.180608  6974 net.cpp:399] inception_5b/5x5 -> inception_5b/5x5
I0403 18:26:45.182646  6974 net.cpp:141] Setting up inception_5b/5x5
I0403 18:26:45.182678  6974 net.cpp:148] Top shape: 24 128 7 7 (150528)
I0403 18:26:45.182698  6974 net.cpp:156] Memory required for data: 1335327264
I0403 18:26:45.182718  6974 layer_factory.hpp:77] Creating layer inception_5b/relu_5x5
I0403 18:26:45.182735  6974 net.cpp:91] Creating Layer inception_5b/relu_5x5
I0403 18:26:45.182752  6974 net.cpp:425] inception_5b/relu_5x5 <- inception_5b/5x5
I0403 18:26:45.182772  6974 net.cpp:386] inception_5b/relu_5x5 -> inception_5b/5x5 (in-place)
I0403 18:26:45.182963  6974 net.cpp:141] Setting up inception_5b/relu_5x5
I0403 18:26:45.182991  6974 net.cpp:148] Top shape: 24 128 7 7 (150528)
I0403 18:26:45.183007  6974 net.cpp:156] Memory required for data: 1335929376
I0403 18:26:45.183022  6974 layer_factory.hpp:77] Creating layer inception_5b/pool
I0403 18:26:45.183040  6974 net.cpp:91] Creating Layer inception_5b/pool
I0403 18:26:45.183058  6974 net.cpp:425] inception_5b/pool <- inception_5a/output_inception_5a/output_0_split_3
I0403 18:26:45.183079  6974 net.cpp:399] inception_5b/pool -> inception_5b/pool
I0403 18:26:45.183151  6974 net.cpp:141] Setting up inception_5b/pool
I0403 18:26:45.183173  6974 net.cpp:148] Top shape: 24 832 7 7 (978432)
I0403 18:26:45.183189  6974 net.cpp:156] Memory required for data: 1339843104
I0403 18:26:45.183204  6974 layer_factory.hpp:77] Creating layer inception_5b/pool_proj
I0403 18:26:45.183228  6974 net.cpp:91] Creating Layer inception_5b/pool_proj
I0403 18:26:45.183248  6974 net.cpp:425] inception_5b/pool_proj <- inception_5b/pool
I0403 18:26:45.183266  6974 net.cpp:399] inception_5b/pool_proj -> inception_5b/pool_proj
I0403 18:26:45.185567  6974 net.cpp:141] Setting up inception_5b/pool_proj
I0403 18:26:45.185600  6974 net.cpp:148] Top shape: 24 128 7 7 (150528)
I0403 18:26:45.185619  6974 net.cpp:156] Memory required for data: 1340445216
I0403 18:26:45.185638  6974 layer_factory.hpp:77] Creating layer inception_5b/relu_pool_proj
I0403 18:26:45.185657  6974 net.cpp:91] Creating Layer inception_5b/relu_pool_proj
I0403 18:26:45.185674  6974 net.cpp:425] inception_5b/relu_pool_proj <- inception_5b/pool_proj
I0403 18:26:45.185693  6974 net.cpp:386] inception_5b/relu_pool_proj -> inception_5b/pool_proj (in-place)
I0403 18:26:45.185991  6974 net.cpp:141] Setting up inception_5b/relu_pool_proj
I0403 18:26:45.186019  6974 net.cpp:148] Top shape: 24 128 7 7 (150528)
I0403 18:26:45.186035  6974 net.cpp:156] Memory required for data: 1341047328
I0403 18:26:45.186050  6974 layer_factory.hpp:77] Creating layer inception_5b/output
I0403 18:26:45.186069  6974 net.cpp:91] Creating Layer inception_5b/output
I0403 18:26:45.186113  6974 net.cpp:425] inception_5b/output <- inception_5b/1x1
I0403 18:26:45.186132  6974 net.cpp:425] inception_5b/output <- inception_5b/3x3
I0403 18:26:45.186149  6974 net.cpp:425] inception_5b/output <- inception_5b/5x5
I0403 18:26:45.186167  6974 net.cpp:425] inception_5b/output <- inception_5b/pool_proj
I0403 18:26:45.186183  6974 net.cpp:399] inception_5b/output -> inception_5b/output
I0403 18:26:45.186238  6974 net.cpp:141] Setting up inception_5b/output
I0403 18:26:45.186262  6974 net.cpp:148] Top shape: 24 1024 7 7 (1204224)
I0403 18:26:45.186282  6974 net.cpp:156] Memory required for data: 1345864224
I0403 18:26:45.186298  6974 layer_factory.hpp:77] Creating layer pool5/7x7_s1
I0403 18:26:45.186319  6974 net.cpp:91] Creating Layer pool5/7x7_s1
I0403 18:26:45.186336  6974 net.cpp:425] pool5/7x7_s1 <- inception_5b/output
I0403 18:26:45.186353  6974 net.cpp:399] pool5/7x7_s1 -> pool5/7x7_s1
I0403 18:26:45.186571  6974 net.cpp:141] Setting up pool5/7x7_s1
I0403 18:26:45.186600  6974 net.cpp:148] Top shape: 24 1024 1 1 (24576)
I0403 18:26:45.186616  6974 net.cpp:156] Memory required for data: 1345962528
I0403 18:26:45.186631  6974 layer_factory.hpp:77] Creating layer pool5/drop_7x7_s1
I0403 18:26:45.186661  6974 net.cpp:91] Creating Layer pool5/drop_7x7_s1
I0403 18:26:45.186678  6974 net.cpp:425] pool5/drop_7x7_s1 <- pool5/7x7_s1
I0403 18:26:45.186696  6974 net.cpp:386] pool5/drop_7x7_s1 -> pool5/7x7_s1 (in-place)
I0403 18:26:45.186746  6974 net.cpp:141] Setting up pool5/drop_7x7_s1
I0403 18:26:45.186769  6974 net.cpp:148] Top shape: 24 1024 1 1 (24576)
I0403 18:26:45.186784  6974 net.cpp:156] Memory required for data: 1346060832
I0403 18:26:45.186800  6974 layer_factory.hpp:77] Creating layer loss3/classifier_plantvillage
I0403 18:26:45.186823  6974 net.cpp:91] Creating Layer loss3/classifier_plantvillage
I0403 18:26:45.186841  6974 net.cpp:425] loss3/classifier_plantvillage <- pool5/7x7_s1
I0403 18:26:45.186859  6974 net.cpp:399] loss3/classifier_plantvillage -> loss3/classifier_plantvillage
I0403 18:26:45.187283  6974 net.cpp:141] Setting up loss3/classifier_plantvillage
I0403 18:26:45.187309  6974 net.cpp:148] Top shape: 24 38 (912)
I0403 18:26:45.187325  6974 net.cpp:156] Memory required for data: 1346064480
I0403 18:26:45.187342  6974 layer_factory.hpp:77] Creating layer loss3/classifier_plantvillage_loss3/classifier_plantvillage_0_split
I0403 18:26:45.187361  6974 net.cpp:91] Creating Layer loss3/classifier_plantvillage_loss3/classifier_plantvillage_0_split
I0403 18:26:45.187379  6974 net.cpp:425] loss3/classifier_plantvillage_loss3/classifier_plantvillage_0_split <- loss3/classifier_plantvillage
I0403 18:26:45.187400  6974 net.cpp:399] loss3/classifier_plantvillage_loss3/classifier_plantvillage_0_split -> loss3/classifier_plantvillage_loss3/classifier_plantvillage_0_split_0
I0403 18:26:45.187423  6974 net.cpp:399] loss3/classifier_plantvillage_loss3/classifier_plantvillage_0_split -> loss3/classifier_plantvillage_loss3/classifier_plantvillage_0_split_1
I0403 18:26:45.187443  6974 net.cpp:399] loss3/classifier_plantvillage_loss3/classifier_plantvillage_0_split -> loss3/classifier_plantvillage_loss3/classifier_plantvillage_0_split_2
I0403 18:26:45.187463  6974 net.cpp:399] loss3/classifier_plantvillage_loss3/classifier_plantvillage_0_split -> loss3/classifier_plantvillage_loss3/classifier_plantvillage_0_split_3
I0403 18:26:45.187569  6974 net.cpp:141] Setting up loss3/classifier_plantvillage_loss3/classifier_plantvillage_0_split
I0403 18:26:45.187593  6974 net.cpp:148] Top shape: 24 38 (912)
I0403 18:26:45.187609  6974 net.cpp:148] Top shape: 24 38 (912)
I0403 18:26:45.187625  6974 net.cpp:148] Top shape: 24 38 (912)
I0403 18:26:45.187640  6974 net.cpp:148] Top shape: 24 38 (912)
I0403 18:26:45.187655  6974 net.cpp:156] Memory required for data: 1346079072
I0403 18:26:45.187669  6974 layer_factory.hpp:77] Creating layer loss1/loss
I0403 18:26:45.187691  6974 net.cpp:91] Creating Layer loss1/loss
I0403 18:26:45.187710  6974 net.cpp:425] loss1/loss <- loss1/classifier_plantvillage_loss1/classifier_plantvillage_0_split_0
I0403 18:26:45.187742  6974 net.cpp:425] loss1/loss <- label_data_1_split_0
…
