…
I0403 18:00:06.750938  6456 net.cpp:313] The NetState phase (1) differed from the phase (0) specified by a rule in layer data
I0403 18:00:06.752166  6456 net.cpp:49] Initializing net from parameters: 
state {
  phase: TEST
}
layer {
  name: "data"
  type: "Data"
  top: "data"
  top: "label"
  include {
    phase: TEST
  }
  transform_param {
    mirror: false
    crop_size: 224
    mean_file: "/home/mohanty/data/final_dataset/lmdb/grayscale-40-60/mean.binaryproto"
  }
  data_param {
    source: "/home/mohanty/data/final_dataset/lmdb/grayscale-40-60/test_db"
    batch_size: 24
    backend: LMDB
  }
}
layer {
  name: "conv1/7x7_s2"
  type: "Convolution"
  bottom: "data"
  top: "conv1/7x7_s2"
  param {
    lr_mult: 1
    decay_mult: 1
  }
  param {
    lr_mult: 2
    decay_mult: 0
  }
  convolution_param {
    num_output: 64
    pad: 3
    kernel_size: 7
    stride: 2
    weight_filler {
      type: "xavier"
      std: 0.1
    }
    bias_filler {
      type: "constant"
      value: 0.2
    }
  }
}
layer {
  name: "conv1/relu_7x7"
  type: "ReLU"
  bottom: "conv1/7x7_s2"
  top: "conv1/7x7_s2"
}
layer {
  name: "pool1/3x3_s2"
  type: "Pooling"
  bottom: "conv1/7x7_s2"
  top: "pool1/3x3_s2"
  pooling_param {
    pool: MAX
    kernel_size: 3
    stride: 2
  }
}
layer {
  name: "pool1/norm1"
  type: "LRN"
  bottom: "pool1/3x3_s2"
  top: "pool1/norm1"
  lrn_param {
    local_size: 5
    alpha: 0.0001
    beta: 0.75
  }
}
layer {
  name: "conv2/3x3_reduce"
  type: "Convolution"
  bottom: "pool1/norm1"
  top: "conv2/3x3_reduce"
  param {
    lr_mult: 1
    decay_mult: 1
  }
  param {
    lr_mult: 2
    decay_mult: 0
  }
  convolution_param {
    num_output: 64
    kernel_size: 1
    weight_filler {
      type: "xavier"
      std: 0.1
    }
    bias_filler {
      type: "constant"
      value: 0.2
    }
  }
}
layer {
  name: "conv2/relu_3x3_reduce"
  type: "ReLU"
  bottom: "conv2/3x3_reduce"
  top: "conv2/3x3_reduce"
}
layer {
  name: "conv2/3x3"
  type: "Convolution"
  bottom: "conv2/3x3_reduce"
  top: "conv2/3x3"
  param {
    lr_mult: 1
    decay_mult: 1
  }
  param {
    lr_mult: 2
    decay_mult: 0
  }
  convolution_param {
    num_output: 192
    pad: 1
    kernel_size: 3
    weight_filler {
      type: "xavier"
      std: 0.03
    }
    bias_filler {
      type: "constant"
      value: 0.2
    }
  }
}
layer {
  name: "conv2/relu_3x3"
  type: "ReLU"
  bottom: "conv2/3x3"
  top: "conv2/3x3"
}
layer {
  name: "conv2/norm2"
  type: "LRN"
  bottom: "conv2/3x3"
  top: "conv2/norm2"
  lrn_param {
    local_size: 5
    alpha: 0.0001
    beta: 0.75
  }
}
layer {
  name: "pool2/3x3_s2"
  type: "Pooling"
  bottom: "conv2/norm2"
  top: "pool2/3x3_s2"
  pooling_param {
    pool: MAX
    kernel_size: 3
    stride: 2
  }
}
layer {
  name: "inception_3a/1x1"
  type: "Convolution"
  bottom: "pool2/3x3_s2"
  top: "inception_3a/1x1"
  param {
    lr_mult: 1
    decay_mult: 1
  }
  param {
    lr_mult: 2
    decay_mult: 0
  }
  convolution_param {
    num_output: 64
    kernel_size: 1
    weight_filler {
      type: "xavier"
      std: 0.03
    }
    bias_filler {
      type: "constant"
      value: 0.2
    }
  }
}
layer {
  name: "inception_3a/relu_1x1"
  type: "ReLU"
  bottom: "inception_3a/1x1"
  top: "inception_3a/1x1"
}
layer {
  name: "inception_3a/3x3_reduce"
  type: "Convolution"
  bottom: "pool2/3x3_s2"
  top: "inception_3a/3x3_reduce"
  param {
    lr_mult: 1
    decay_mult: 1
  }
  param {
    lr_mult: 2
    decay_mult: 0
  }
  convolution_param {
    num_output: 96
    kernel_size: 1
    weight_filler {
      type: "xavier"
      std: 0.09
    }
    bias_filler {
      type: "constant"
      value: 0.2
    }
  }
}
layer {
  name: "inception_3a/relu_3x3_reduce"
  type: "ReLU"
  bottom: "inception_3a/3x3_reduce"
  top: "inception_3a/3x3_reduce"
}
layer {
  name: "inception_3a/3x3"
  type: "Convolution"
  bottom: "inception_3a/3x3_reduce"
  top: "inception_3a/3x3"
  param {
    lr_mult: 1
    decay_mult: 1
  }
  param {
    lr_mult: 2
    decay_mult: 0
  }
  convolution_param {
    num_output: 128
    pad: 1
    kernel_size: 3
    weight_filler {
      type: "xavier"
      std: 0.03
    }
    bias_filler {
      type: "constant"
      value: 0.2
    }
  }
}
layer {
  name: "inception_3a/relu_3x3"
  type: "ReLU"
  bottom: "inception_3a/3x3"
  top: "inception_3a/3x3"
}
layer {
  name: "inception_3a/5x5_reduce"
  type: "Convolution"
  bottom: "pool2/3x3_s2"
  top: "inception_3a/5x5_reduce"
  param {
    lr_mult: 1
    decay_mult: 1
  }
  param {
    lr_mult: 2
    decay_mult: 0
  }
  convolution_param {
    num_output: 16
    kernel_size: 1
    weight_filler {
      type: "xavier"
      std: 0.2
    }
    bias_filler {
      type: "constant"
      value: 0.2
    }
  }
}
layer {
  name: "inception_3a/relu_5x5_reduce"
  type: "ReLU"
  bottom: "inception_3a/5x5_reduce"
  top: "inception_3a/5x5_reduce"
}
layer {
  name: "inception_3a/5x5"
  type: "Convolution"
  bottom: "inception_3a/5x5_reduce"
  top: "inception_3a/5x5"
  param {
    lr_mult: 1
    decay_mult: 1
  }
  param {
    lr_mult: 2
    decay_mult: 0
  }
  convolution_param {
    num_output: 32
    pad: 2
    kernel_size: 5
    weight_filler {
      type: "xavier"
      std: 0.03
    }
    bias_filler {
      type: "constant"
      value: 0.2
    }
  }
}
layer {
  name: "inception_3a/relu_5x5"
  type: "ReLU"
  bottom: "inception_3a/5x5"
  top: "inception_3a/5x5"
}
layer {
  name: "inception_3a/pool"
  type: "Pooling"
  bottom: "pool2/3x3_s2"
  top: "inception_3a/pool"
  pooling_param {
    pool: MAX
    kernel_size: 3
    stride: 1
    pad: 1
  }
}
layer {
  name: "inception_3a/pool_proj"
  type: "Convolution"
  bottom: "inception_3a/pool"
  top: "inception_3a/pool_proj"
  param {
    lr_mult: 1
    decay_mult: 1
  }
  param {
    lr_mult: 2
    decay_mult: 0
  }
  convolution_param {
    num_output: 32
    kernel_size: 1
    weight_filler {
      type: "xavier"
      std: 0.1
    }
    bias_filler {
      type: "constant"
      value: 0.2
    }
  }
}
layer {
  name: "inception_3a/relu_pool_proj"
  type: "ReLU"
  bottom: "inception_3a/pool_proj"
  top: "inception_3a/pool_proj"
}
layer {
  name: "inception_3a/output"
  type: "Concat"
  bottom: "inception_3a/1x1"
  bottom: "inception_3a/3x3"
  bottom: "inception_3a/5x5"
  bottom: "inception_3a/pool_proj"
  top: "inception_3a/output"
}
layer {
  name: "inception_3b/1x1"
  type: "Convolution"
  bottom: "inception_3a/output"
  top: "inception_3b/1x1"
  param {
    lr_mult: 1
    decay_mult: 1
  }
  param {
    lr_mult: 2
    decay_mult: 0
  }
  convolution_param {
    num_output: 128
    kernel_size: 1
    weight_filler {
      type: "xavier"
      std: 0.03
    }
    bias_filler {
      type: "constant"
      value: 0.2
    }
  }
}
layer {
  name: "inception_3b/relu_1x1"
  type: "ReLU"
  bottom: "inception_3b/1x1"
  top: "inception_3b/1x1"
}
layer {
  name: "inception_3b/3x3_reduce"
  type: "Convolution"
  bottom: "inception_3a/output"
  top: "inception_3b/3x3_reduce"
  param {
    lr_mult: 1
    decay_mult: 1
  }
  param {
    lr_mult: 2
    decay_mult: 0
  }
  convolution_param {
    num_output: 128
    kernel_size: 1
    weight_filler {
      type: "xavier"
      std: 0.09
    }
    bias_filler {
      type: "constant"
      value: 0.2
    }
  }
}
layer {
  name: "inception_3b/relu_3x3_reduce"
  type: "ReLU"
  bottom: "inception_3b/3x3_reduce"
  top: "inception_3b/3x3_reduce"
}
layer {
  name: "inception_3b/3x3"
  type: "Convolution"
  bottom: "inception_3b/3x3_reduce"
  top: "inception_3b/3x3"
  param {
    lr_mult: 1
    decay_mult: 1
  }
  param {
    lr_mult: 2
    decay_mult: 0
  }
  convolution_param {
    num_output: 192
    pad: 1
    kernel_size: 3
    weight_filler {
      type: "xavier"
      std: 0.03
    }
    bias_filler {
      type: "constant"
      value: 0.2
    }
  }
}
layer {
  name: "inception_3b/relu_3x3"
  type: "ReLU"
  bottom: "inception_3b/3x3"
  top: "inception_3b/3x3"
}
layer {
  name: "inception_3b/5x5_reduce"
  type: "Convolution"
  bottom: "inception_3a/output"
  top: "inception_3b/5x5_reduce"
  param {
    lr_mult: 1
    decay_mult: 1
  }
  param {
    lr_mult: 2
    decay_mult: 0
  }
  convolution_param {
    num_output: 32
    kernel_size: 1
    weight_filler {
      type: "xavier"
      std: 0.2
    }
    bias_filler {
      type: "constant"
      value: 0.2
    }
  }
}
layer {
  name: "inception_3b/relu_5x5_reduce"
  type: "ReLU"
  bottom: "inception_3b/5x5_reduce"
  top: "inception_3b/5x5_reduce"
}
layer {
  name: "inception_3b/5x5"
  type: "Convolution"
  bottom: "inception_3b/5x5_reduce"
  top: "inception_3b/5x5"
  param {
    lr_mult: 1
    decay_mult: 1
  }
  param {
    lr_mult: 2
    decay_mult: 0
  }
  convolution_param {
    num_output: 96
    pad: 2
    kernel_size: 5
    weight_filler {
      type: "xavier"
      std: 0.03
    }
    bias_filler {
      type: "constant"
      value: 0.2
    }
  }
}
layer {
  name: "inception_3b/relu_5x5"
  type: "ReLU"
  bottom: "inception_3b/5x5"
  top: "inception_3b/5x5"
}
layer {
  name: "inception_3b/pool"
  type: "Pooling"
  bottom: "inception_3a/output"
  top: "inception_3b/pool"
  pooling_param {
    pool: MAX
    kernel_size: 3
    stride: 1
    pad: 1
  }
}
layer {
  name: "inception_3b/pool_proj"
  type: "Convolution"
  bottom: "inception_3b/pool"
  top: "inception_3b/pool_proj"
  param {
    lr_mult: 1
    decay_mult: 1
  }
  param {
    lr_mult: 2
    decay_mult: 0
  }
  convolution_param {
    num_output: 64
    kernel_size: 1
    weight_filler {
      type: "xavier"
      std: 0.1
    }
    bias_filler {
      type: "constant"
      value: 0.2
    }
  }
}
layer {
  name: "inception_3b/relu_pool_proj"
  type: "ReLU"
  bottom: "inception_3b/pool_proj"
  top: "inception_3b/pool_proj"
}
layer {
  name: "inception_3b/output"
  type: "Concat"
  bottom: "inception_3b/1x1"
  bottom: "inception_3b/3x3"
  bottom: "inception_3b/5x5"
  bottom: "inception_3b/pool_proj"
  top: "inception_3b/output"
}
layer {
  name: "pool3/3x3_s2"
  type: "Pooling"
  bottom: "inception_3b/output"
  top: "pool3/3x3_s2"
  pooling_param {
    pool: MAX
    kernel_size: 3
    stride: 2
  }
}
layer {
  name: "inception_4a/1x1"
  type: "Convolution"
  bottom: "pool3/3x3_s2"
  top: "inception_4a/1x1"
  param {
    lr_mult: 1
    decay_mult: 1
  }
  param {
    lr_mult: 2
    decay_mult: 0
  }
  convolution_param {
    num_output: 192
    kernel_size: 1
    weight_filler {
      type: "xavier"
      std: 0.03
    }
    bias_filler {
      type: "constant"
      value: 0.2
    }
  }
}
layer {
  name: "inception_4a/relu_1x1"
  type: "ReLU"
  bottom: "inception_4a/1x1"
  top: "inception_4a/1x1"
}
layer {
  name: "inception_4a/3x3_reduce"
  type: "Convolution"
  bottom: "pool3/3x3_s2"
  top: "inception_4a/3x3_reduce"
  param {
    lr_mult: 1
    decay_mult: 1
  }
  param {
    lr_mult: 2
    decay_mult: 0
  }
  convolution_param {
    num_output: 96
    kernel_size: 1
    weight_filler {
      type: "xavier"
      std: 0.09
    }
    bias_filler {
      type: "constant"
      value: 0.2
    }
  }
}
layer {
  name: "inception_4a/relu_3x3_reduce"
  type: "ReLU"
  bottom: "inception_4a/3x3_reduce"
  top: "inception_4a/3x3_reduce"
}
layer {
  name: "inception_4a/3x3"
  type: "Convolution"
  bottom: "inception_4a/3x3_reduce"
  top: "inception_4a/3x3"
  param {
    lr_mult: 1
    decay_mult: 1
  }
  param {
    lr_mult: 2
    decay_mult: 0
  }
  convolution_param {
    num_output: 208
    pad: 1
    kernel_size: 3
    weight_filler {
      type: "xavier"
      std: 0.03
    }
    bias_filler {
      type: "constant"
      value: 0.2
    }
  }
}
layer {
  name: "inception_4a/relu_3x3"
  type: "ReLU"
  bottom: "inception_4a/3x3"
  top: "inception_4a/3x3"
}
layer {
  name: "inception_4a/5x5_reduce"
  type: "Convolution"
  bottom: "pool3/3x3_s2"
  top: "inception_4a/5x5_reduce"
  param {
    lr_mult: 1
    decay_mult: 1
  }
  param {
    lr_mult: 2
    decay_mult: 0
  }
  convolution_param {
    num_output: 16
    kernel_size: 1
    weight_filler {
      type: "xavier"
      std: 0.2
    }
    bias_filler {
      type: "constant"
      value: 0.2
    }
  }
}
layer {
  name: "inception_4a/relu_5x5_reduce"
  type: "ReLU"
  bottom: "inception_4a/5x5_reduce"
  top: "inception_4a/5x5_reduce"
}
layer {
  name: "inception_4a/5x5"
  type: "Convolution"
  bottom: "inception_4a/5x5_reduce"
  top: "inception_4a/5x5"
  param {
    lr_mult: 1
    decay_mult: 1
  }
  param {
    lr_mult: 2
    decay_mult: 0
  }
  convolution_param {
    num_output: 48
    pad: 2
    kernel_size: 5
    weight_filler {
      type: "xavier"
      std: 0.03
    }
    bias_filler {
      type: "constant"
      value: 0.2
    }
  }
}
layer {
  name: "inception_4a/relu_5x5"
  type: "ReLU"
  bottom: "inception_4a/5x5"
  top: "inception_4a/5x5"
}
layer {
  name: "inception_4a/pool"
  type: "Pooling"
  bottom: "pool3/3x3_s2"
  top: "inception_4a/pool"
  pooling_param {
    pool: MAX
    kernel_size: 3
    stride: 1
    pad: 1
  }
}
layer {
  name: "inception_4a/pool_proj"
  type: "Convolution"
  bottom: "inception_4a/pool"
  top: "inception_4a/pool_proj"
  param {
    lr_mult: 1
    decay_mult: 1
  }
  param {
    lr_mult: 2
    decay_mult: 0
  }
  convolution_param {
    num_output: 64
    kernel_size: 1
    weight_filler {
      type: "xavier"
      std: 0.1
    }
    bias_filler {
      type: "constant"
      value: 0.2
    }
  }
}
layer {
  name: "inception_4a/relu_pool_proj"
  type: "ReLU"
  bottom: "inception_4a/pool_proj"
  top: "inception_4a/pool_proj"
}
layer {
  name: "inception_4a/output"
  type: "Concat"
  bottom: "inception_4a/1x1"
  bottom: "inception_4a/3x3"
  bottom: "inception_4a/5x5"
  bottom: "inception_4a/pool_proj"
  top: "inception_4a/output"
}
layer {
  name: "loss1/ave_pool"
  type: "Pooling"
  bottom: "inception_4a/output"
  top: "loss1/ave_pool"
  pooling_param {
    pool: AVE
    kernel_size: 5
    stride: 3
  }
}
layer {
  name: "loss1/conv"
  type: "Convolution"
  bottom: "loss1/ave_pool"
  top: "loss1/conv"
  param {
    lr_mult: 1
    decay_mult: 1
  }
  param {
    lr_mult: 2
    decay_mult: 0
  }
  convolution_param {
    num_output: 128
    kernel_size: 1
    weight_filler {
      type: "xavier"
      std: 0.08
    }
    bias_filler {
      type: "constant"
      value: 0.2
    }
  }
}
layer {
  name: "loss1/relu_conv"
  type: "ReLU"
  bottom: "loss1/conv"
  top: "loss1/conv"
}
layer {
  name: "loss1/fc"
  type: "InnerProduct"
  bottom: "loss1/conv"
  top: "loss1/fc"
  param {
    lr_mult: 1
    decay_mult: 1
  }
  param {
    lr_mult: 2
    decay_mult: 0
  }
  inner_product_param {
    num_output: 1024
    weight_filler {
      type: "xavier"
      std: 0.02
    }
    bias_filler {
      type: "constant"
      value: 0.2
    }
  }
}
layer {
  name: "loss1/relu_fc"
  type: "ReLU"
  bottom: "loss1/fc"
  top: "loss1/fc"
}
layer {
  name: "loss1/drop_fc"
  type: "Dropout"
  bottom: "loss1/fc"
  top: "loss1/fc"
  dropout_param {
    dropout_ratio: 0.7
  }
}
layer {
  name: "loss1/classifier_plantvillage"
  type: "InnerProduct"
  bottom: "loss1/fc"
  top: "loss1/classifier_plantvillage"
  param {
    lr_mult: 1
    decay_mult: 1
  }
  param {
    lr_mult: 2
    decay_mult: 0
  }
  inner_product_param {
    num_output: 38
    weight_filler {
      type: "xavier"
      std: 0.0009765625
    }
    bias_filler {
      type: "constant"
      value: 0
    }
  }
}
layer {
  name: "inception_4b/1x1"
  type: "Convolution"
  bottom: "inception_4a/output"
  top: "inception_4b/1x1"
  param {
    lr_mult: 1
    decay_mult: 1
  }
  param {
    lr_mult: 2
    decay_mult: 0
  }
  convolution_param {
    num_output: 160
    kernel_size: 1
    weight_filler {
      type: "xavier"
      std: 0.03
    }
    bias_filler {
      type: "constant"
      value: 0.2
    }
  }
}
layer {
  name: "inception_4b/relu_1x1"
  type: "ReLU"
  bottom: "inception_4b/1x1"
  top: "inception_4b/1x1"
}
layer {
  name: "inception_4b/3x3_reduce"
  type: "Convolution"
  bottom: "inception_4a/output"
  top: "inception_4b/3x3_reduce"
  param {
    lr_mult: 1
    decay_mult: 1
  }
  param {
    lr_mult: 2
    decay_mult: 0
  }
  convolution_param {
    num_output: 112
    kernel_size: 1
    weight_filler {
      type: "xavier"
      std: 0.09
    }
    bias_filler {
      type: "constant"
      value: 0.2
    }
  }
}
layer {
  name: "inception_4b/relu_3x3_reduce"
  type: "ReLU"
  bottom: "inception_4b/3x3_reduce"
  top: "inception_4b/3x3_reduce"
}
layer {
  name: "inception_4b/3x3"
  type: "Convolution"
  bottom: "inception_4b/3x3_reduce"
  top: "inception_4b/3x3"
  param {
    lr_mult: 1
    decay_mult: 1
  }
  param {
    lr_mult: 2
    decay_mult: 0
  }
  convolution_param {
    num_output: 224
    pad: 1
    kernel_size: 3
    weight_filler {
      type: "xavier"
      std: 0.03
    }
    bias_filler {
      type: "constant"
      value: 0.2
    }
  }
}
layer {
  name: "inception_4b/relu_3x3"
  type: "ReLU"
  bottom: "inception_4b/3x3"
  top: "inception_4b/3x3"
}
layer {
  name: "inception_4b/5x5_reduce"
  type: "Convolution"
  bottom: "inception_4a/output"
  top: "inception_4b/5x5_reduce"
  param {
    lr_mult: 1
    decay_mult: 1
  }
  param {
    lr_mult: 2
    decay_mult: 0
  }
  convolution_param {
    num_output: 24
    kernel_size: 1
    weight_filler {
      type: "xavier"
      std: 0.2
    }
    bias_filler {
      type: "constant"
      value: 0.2
    }
  }
}
layer {
  name: "inception_4b/relu_5x5_reduce"
  type: "ReLU"
  bottom: "inception_4b/5x5_reduce"
  top: "inception_4b/5x5_reduce"
}
layer {
  name: "inception_4b/5x5"
  type: "Convolution"
  bottom: "inception_4b/5x5_reduce"
  top: "inception_4b/5x5"
  param {
    lr_mult: 1
    decay_mult: 1
  }
  param {
    lr_mult: 2
    decay_mult: 0
  }
  convolution_param {
    num_output: 64
    pad: 2
    kernel_size: 5
    weight_filler {
      type: "xavier"
      std: 0.03
    }
    bias_filler {
      type: "constant"
      value: 0.2
    }
  }
}
layer {
  name: "inception_4b/relu_5x5"
  type: "ReLU"
  bottom: "inception_4b/5x5"
  top: "inception_4b/5x5"
}
layer {
  name: "inception_4b/pool"
  type: "Pooling"
  bottom: "inception_4a/output"
  top: "inception_4b/pool"
  pooling_param {
    pool: MAX
    kernel_size: 3
    stride: 1
    pad: 1
  }
}
layer {
  name: "inception_4b/pool_proj"
  type: "Convolution"
  bottom: "inception_4b/pool"
  top: "inception_4b/pool_proj"
  param {
    lr_mult: 1
    decay_mult: 1
  }
  param {
    lr_mult: 2
    decay_mult: 0
  }
  convolution_param {
    num_output: 64
    kernel_size: 1
    weight_filler {
      type: "xavier"
      std: 0.1
    }
    bias_filler {
      type: "constant"
      value: 0.2
    }
  }
}
layer {
  name: "inception_4b/relu_pool_proj"
  type: "ReLU"
  bottom: "inception_4b/pool_proj"
  top: "inception_4b/pool_proj"
}
layer {
  name: "inception_4b/output"
  type: "Concat"
  bottom: "inception_4b/1x1"
  bottom: "inception_4b/3x3"
  bottom: "inception_4b/5x5"
  bottom: "inception_4b/pool_proj"
  top: "inception_4b/output"
}
layer {
  name: "inception_4c/1x1"
  type: "Convolution"
  bottom: "inception_4b/output"
  top: "inception_4c/1x1"
  param {
    lr_mult: 1
    decay_mult: 1
  }
  param {
    lr_mult: 2
    decay_mult: 0
  }
  convolution_param {
    num_output: 128
    kernel_size: 1
    weight_filler {
      type: "xavier"
      std: 0.03
    }
    bias_filler {
      type: "constant"
      value: 0.2
    }
  }
}
layer {
  name: "inception_4c/relu_1x1"
  type: "ReLU"
  bottom: "inception_4c/1x1"
  top: "inception_4c/1x1"
}
layer {
  name: "inception_4c/3x3_reduce"
  type: "Convolution"
  bottom: "inception_4b/output"
  top: "inception_4c/3x3_reduce"
  param {
    lr_mult: 1
    decay_mult: 1
  }
  param {
    lr_mult: 2
    decay_mult: 0
  }
  convolution_param {
    num_output: 128
    kernel_size: 1
    weight_filler {
      type: "xavier"
      std: 0.09
    }
    bias_filler {
      type: "constant"
      value: 0.2
    }
  }
}
layer {
  name: "inception_4c/relu_3x3_reduce"
  type: "ReLU"
  bottom: "inception_4c/3x3_reduce"
  top: "inception_4c/3x3_reduce"
}
layer {
  name: "inception_4c/3x3"
  type: "Convolution"
  bottom: "inception_4c/3x3_reduce"
  top: "inception_4c/3x3"
  param {
    lr_mult: 1
    decay_mult: 1
  }
  param {
    lr_mult: 2
    decay_mult: 0
  }
  convolution_param {
    num_output: 256
    pad: 1
    kernel_size: 3
    weight_filler {
      type: "xavier"
      std: 0.03
    }
    bias_filler {
      type: "constant"
      value: 0.2
    }
  }
}
layer {
  name: "inception_4c/relu_3x3"
  type: "ReLU"
  bottom: "inception_4c/3x3"
  top: "inception_4c/3x3"
}
layer {
  name: "inception_4c/5x5_reduce"
  type: "Convolution"
  bottom: "inception_4b/output"
  top: "inception_4c/5x5_reduce"
  param {
    lr_mult: 1
    decay_mult: 1
  }
  param {
    lr_mult: 2
    decay_mult: 0
  }
  convolution_param {
    num_output: 24
    kernel_size: 1
    weight_filler {
      type: "xavier"
      std: 0.2
    }
    bias_filler {
      type: "constant"
      value: 0.2
    }
  }
}
layer {
  name: "inception_4c/relu_5x5_reduce"
  type: "ReLU"
  bottom: "inception_4c/5x5_reduce"
  top: "inception_4c/5x5_reduce"
}
layer {
  name: "inception_4c/5x5"
  type: "Convolution"
  bottom: "inception_4c/5x5_reduce"
  top: "inception_4c/5x5"
  param {
    lr_mult: 1
    decay_mult: 1
  }
  param {
    lr_mult: 2
    decay_mult: 0
  }
  convolution_param {
    num_output: 64
    pad: 2
    kernel_size: 5
    weight_filler {
      type: "xavier"
      std: 0.03
    }
    bias_filler {
      type: "constant"
      value: 0.2
    }
  }
}
layer {
  name: "inception_4c/relu_5x5"
  type: "ReLU"
  bottom: "inception_4c/5x5"
  top: "inception_4c/5x5"
}
layer {
  name: "inception_4c/pool"
  type: "Pooling"
  bottom: "inception_4b/output"
  top: "inception_4c/pool"
  pooling_param {
    pool: MAX
    kernel_size: 3
    stride: 1
    pad: 1
  }
}
layer {
  name: "inception_4c/pool_proj"
  type: "Convolution"
  bottom: "inception_4c/pool"
  top: "inception_4c/pool_proj"
  param {
    lr_mult: 1
    decay_mult: 1
  }
  param {
    lr_mult: 2
    decay_mult: 0
  }
  convolution_param {
    num_output: 64
    kernel_size: 1
    weight_filler {
      type: "xavier"
      std: 0.1
    }
    bias_filler {
      type: "constant"
      value: 0.2
    }
  }
}
layer {
  name: "inception_4c/relu_pool_proj"
  type: "ReLU"
  bottom: "inception_4c/pool_proj"
  top: "inception_4c/pool_proj"
}
layer {
  name: "inception_4c/output"
  type: "Concat"
  bottom: "inception_4c/1x1"
  bottom: "inception_4c/3x3"
  bottom: "inception_4c/5x5"
  bottom: "inception_4c/pool_proj"
  top: "inception_4c/output"
}
layer {
  name: "inception_4d/1x1"
  type: "Convolution"
  bottom: "inception_4c/output"
  top: "inception_4d/1x1"
  param {
    lr_mult: 1
    decay_mult: 1
  }
  param {
    lr_mult: 2
    decay_mult: 0
  }
  convolution_param {
    num_output: 112
    kernel_size: 1
    weight_filler {
      type: "xavier"
      std: 0.03
    }
    bias_filler {
      type: "constant"
      value: 0.2
    }
  }
}
layer {
  name: "inception_4d/relu_1x1"
  type: "ReLU"
  bottom: "inception_4d/1x1"
  top: "inception_4d/1x1"
}
layer {
  name: "inception_4d/3x3_reduce"
  type: "Convolution"
  bottom: "inception_4c/output"
  top: "inception_4d/3x3_reduce"
  param {
    lr_mult: 1
    decay_mult: 1
  }
  param {
    lr_mult: 2
    decay_mult: 0
  }
  convolution_param {
    num_output: 144
    kernel_size: 1
    weight_filler {
      type: "xavier"
      std: 0.09
    }
    bias_filler {
      type: "constant"
      value: 0.2
    }
  }
}
layer {
  name: "inception_4d/relu_3x3_reduce"
  type: "ReLU"
  bottom: "inception_4d/3x3_reduce"
  top: "inception_4d/3x3_reduce"
}
layer {
  name: "inception_4d/3x3"
  type: "Convolution"
  bottom: "inception_4d/3x3_reduce"
  top: "inception_4d/3x3"
  param {
    lr_mult: 1
    decay_mult: 1
  }
  param {
    lr_mult: 2
    decay_mult: 0
  }
  convolution_param {
    num_output: 288
    pad: 1
    kernel_size: 3
    weight_filler {
      type: "xavier"
      std: 0.03
    }
    bias_filler {
      type: "constant"
      value: 0.2
    }
  }
}
layer {
  name: "inception_4d/relu_3x3"
  type: "ReLU"
  bottom: "inception_4d/3x3"
  top: "inception_4d/3x3"
}
layer {
  name: "inception_4d/5x5_reduce"
  type: "Convolution"
  bottom: "inception_4c/output"
  top: "inception_4d/5x5_reduce"
  param {
    lr_mult: 1
    decay_mult: 1
  }
  param {
    lr_mult: 2
    decay_mult: 0
  }
  convolution_param {
    num_output: 32
    kernel_size: 1
    weight_filler {
      type: "xavier"
      std: 0.2
    }
    bias_filler {
      type: "constant"
      value: 0.2
    }
  }
}
layer {
  name: "inception_4d/relu_5x5_reduce"
  type: "ReLU"
  bottom: "inception_4d/5x5_reduce"
  top: "inception_4d/5x5_reduce"
}
layer {
  name: "inception_4d/5x5"
  type: "Convolution"
  bottom: "inception_4d/5x5_reduce"
  top: "inception_4d/5x5"
  param {
    lr_mult: 1
    decay_mult: 1
  }
  param {
    lr_mult: 2
    decay_mult: 0
  }
  convolution_param {
    num_output: 64
    pad: 2
    kernel_size: 5
    weight_filler {
      type: "xavier"
      std: 0.03
    }
    bias_filler {
      type: "constant"
      value: 0.2
    }
  }
}
layer {
  name: "inception_4d/relu_5x5"
  type: "ReLU"
  bottom: "inception_4d/5x5"
  top: "inception_4d/5x5"
}
layer {
  name: "inception_4d/pool"
  type: "Pooling"
  bottom: "inception_4c/output"
  top: "inception_4d/pool"
  pooling_param {
    pool: MAX
    kernel_size: 3
    stride: 1
    pad: 1
  }
}
layer {
  name: "inception_4d/pool_proj"
  type: "Convolution"
  bottom: "inception_4d/pool"
  top: "inception_4d/pool_proj"
  param {
    lr_mult: 1
    decay_mult: 1
  }
  param {
    lr_mult: 2
    decay_mult: 0
  }
  convolution_param {
    num_output: 64
    kernel_size: 1
    weight_filler {
      type: "xavier"
      std: 0.1
    }
    bias_filler {
      type: "constant"
      value: 0.2
    }
  }
}
layer {
  name: "inception_4d/relu_pool_proj"
  type: "ReLU"
  bottom: "inception_4d/pool_proj"
  top: "inception_4d/pool_proj"
}
layer {
  name: "inception_4d/output"
  type: "Concat"
  bottom: "inception_4d/1x1"
  bottom: "inception_4d/3x3"
  bottom: "inception_4d/5x5"
  bottom: "inception_4d/pool_proj"
  top: "inception_4d/output"
}
layer {
  name: "loss2/ave_pool"
  type: "Pooling"
  bottom: "inception_4d/output"
  top: "loss2/ave_pool"
  pooling_param {
    pool: AVE
    kernel_size: 5
    stride: 3
  }
}
layer {
  name: "loss2/conv"
  type: "Convolution"
  bottom: "loss2/ave_pool"
  top: "loss2/conv"
  param {
    lr_mult: 1
    decay_mult: 1
  }
  param {
    lr_mult: 2
    decay_mult: 0
  }
  convolution_param {
    num_output: 128
    kernel_size: 1
    weight_filler {
      type: "xavier"
      std: 0.08
    }
    bias_filler {
      type: "constant"
      value: 0.2
    }
  }
}
layer {
  name: "loss2/relu_conv"
  type: "ReLU"
  bottom: "loss2/conv"
  top: "loss2/conv"
}
layer {
  name: "loss2/fc"
  type: "InnerProduct"
  bottom: "loss2/conv"
  top: "loss2/fc"
  param {
    lr_mult: 1
    decay_mult: 1
  }
  param {
    lr_mult: 2
    decay_mult: 0
  }
  inner_product_param {
    num_output: 1024
    weight_filler {
      type: "xavier"
      std: 0.02
    }
    bias_filler {
      type: "constant"
      value: 0.2
    }
  }
}
layer {
  name: "loss2/relu_fc"
  type: "ReLU"
  bottom: "loss2/fc"
  top: "loss2/fc"
}
layer {
  name: "loss2/drop_fc"
  type: "Dropout"
  bottom: "loss2/fc"
  top: "loss2/fc"
  dropout_param {
    dropout_ratio: 0.7
  }
}
layer {
  name: "loss2/classifier_plantvillage"
  type: "InnerProduct"
  bottom: "loss2/fc"
  top: "loss2/classifier_plantvillage"
  param {
    lr_mult: 1
    decay_mult: 1
  }
  param {
    lr_mult: 2
    decay_mult: 0
  }
  inner_product_param {
    num_output: 38
    weight_filler {
      type: "xavier"
      std: 0.0009765625
    }
    bias_filler {
      type: "constant"
      value: 0
    }
  }
}
layer {
  name: "inception_4e/1x1"
  type: "Convolution"
  bottom: "inception_4d/output"
  top: "inception_4e/1x1"
  param {
    lr_mult: 1
    decay_mult: 1
  }
  param {
    lr_mult: 2
    decay_mult: 0
  }
  convolution_param {
    num_output: 256
    kernel_size: 1
    weight_filler {
      type: "xavier"
      std: 0.03
    }
    bias_filler {
      type: "constant"
      value: 0.2
    }
  }
}
layer {
  name: "inception_4e/relu_1x1"
  type: "ReLU"
  bottom: "inception_4e/1x1"
  top: "inception_4e/1x1"
}
layer {
  name: "inception_4e/3x3_reduce"
  type: "Convolution"
  bottom: "inception_4d/output"
  top: "inception_4e/3x3_reduce"
  param {
    lr_mult: 1
    decay_mult: 1
  }
  param {
    lr_mult: 2
    decay_mult: 0
  }
  convolution_param {
    num_output: 160
    kernel_size: 1
    weight_filler {
      type: "xavier"
      std: 0.09
    }
    bias_filler {
      type: "constant"
      value: 0.2
    }
  }
}
layer {
  name: "inception_4e/relu_3x3_reduce"
  type: "ReLU"
  bottom: "inception_4e/3x3_reduce"
  top: "inception_4e/3x3_reduce"
}
layer {
  name: "inception_4e/3x3"
  type: "Convolution"
  bottom: "inception_4e/3x3_reduce"
  top: "inception_4e/3x3"
  param {
    lr_mult: 1
    decay_mult: 1
  }
  param {
    lr_mult: 2
    decay_mult: 0
  }
  convolution_param {
    num_output: 320
    pad: 1
    kernel_size: 3
    weight_filler {
      type: "xavier"
      std: 0.03
    }
    bias_filler {
      type: "constant"
      value: 0.2
    }
  }
}
layer {
  name: "inception_4e/relu_3x3"
  type: "ReLU"
  bottom: "inception_4e/3x3"
  top: "inception_4e/3x3"
}
layer {
  name: "inception_4e/5x5_reduce"
  type: "Convolution"
  bottom: "inception_4d/output"
  top: "inception_4e/5x5_reduce"
  param {
    lr_mult: 1
    decay_mult: 1
  }
  param {
    lr_mult: 2
    decay_mult: 0
  }
  convolution_param {
    num_output: 32
    kernel_size: 1
    weight_filler {
      type: "xavier"
      std: 0.2
    }
    bias_filler {
      type: "constant"
      value: 0.2
    }
  }
}
layer {
  name: "inception_4e/relu_5x5_reduce"
  type: "ReLU"
  bottom: "inception_4e/5x5_reduce"
  top: "inception_4e/5x5_reduce"
}
layer {
  name: "inception_4e/5x5"
  type: "Convolution"
  bottom: "inception_4e/5x5_reduce"
  top: "inception_4e/
I0403 18:00:06.753615  6456 layer_factory.hpp:77] Creating layer data
I0403 18:00:06.754250  6456 net.cpp:91] Creating Layer data
I0403 18:00:06.754289  6456 net.cpp:399] data -> data
I0403 18:00:06.754343  6456 net.cpp:399] data -> label
I0403 18:00:06.754381  6456 data_transformer.cpp:25] Loading mean file from: /home/mohanty/data/final_dataset/lmdb/grayscale-40-60/mean.binaryproto
I0403 18:00:06.755458  6459 db_lmdb.cpp:38] Opened lmdb /home/mohanty/data/final_dataset/lmdb/grayscale-40-60/test_db
I0403 18:00:06.767746  6456 data_layer.cpp:41] output data size: 24,3,224,224
I0403 18:00:06.795647  6456 net.cpp:141] Setting up data
I0403 18:00:06.795747  6456 net.cpp:148] Top shape: 24 3 224 224 (3612672)
I0403 18:00:06.795771  6456 net.cpp:148] Top shape: 24 (24)
I0403 18:00:06.795788  6456 net.cpp:156] Memory required for data: 14450784
I0403 18:00:06.795816  6456 layer_factory.hpp:77] Creating layer label_data_1_split
I0403 18:00:06.795843  6456 net.cpp:91] Creating Layer label_data_1_split
I0403 18:00:06.795862  6456 net.cpp:425] label_data_1_split <- label
I0403 18:00:06.795894  6456 net.cpp:399] label_data_1_split -> label_data_1_split_0
I0403 18:00:06.795923  6456 net.cpp:399] label_data_1_split -> label_data_1_split_1
I0403 18:00:06.795945  6456 net.cpp:399] label_data_1_split -> label_data_1_split_2
I0403 18:00:06.795967  6456 net.cpp:399] label_data_1_split -> label_data_1_split_3
I0403 18:00:06.795987  6456 net.cpp:399] label_data_1_split -> label_data_1_split_4
I0403 18:00:06.796006  6456 net.cpp:399] label_data_1_split -> label_data_1_split_5
I0403 18:00:06.796026  6456 net.cpp:399] label_data_1_split -> label_data_1_split_6
I0403 18:00:06.796047  6456 net.cpp:399] label_data_1_split -> label_data_1_split_7
I0403 18:00:06.796067  6456 net.cpp:399] label_data_1_split -> label_data_1_split_8
I0403 18:00:06.796087  6456 net.cpp:399] label_data_1_split -> label_data_1_split_9
I0403 18:00:06.796211  6456 net.cpp:141] Setting up label_data_1_split
I0403 18:00:06.796236  6456 net.cpp:148] Top shape: 24 (24)
I0403 18:00:06.796253  6456 net.cpp:148] Top shape: 24 (24)
I0403 18:00:06.796269  6456 net.cpp:148] Top shape: 24 (24)
I0403 18:00:06.796290  6456 net.cpp:148] Top shape: 24 (24)
I0403 18:00:06.796308  6456 net.cpp:148] Top shape: 24 (24)
I0403 18:00:06.796322  6456 net.cpp:148] Top shape: 24 (24)
I0403 18:00:06.796339  6456 net.cpp:148] Top shape: 24 (24)
I0403 18:00:06.796353  6456 net.cpp:148] Top shape: 24 (24)
I0403 18:00:06.796370  6456 net.cpp:148] Top shape: 24 (24)
I0403 18:00:06.796388  6456 net.cpp:148] Top shape: 24 (24)
I0403 18:00:06.796435  6456 net.cpp:156] Memory required for data: 14451744
I0403 18:00:06.796452  6456 layer_factory.hpp:77] Creating layer conv1/7x7_s2
I0403 18:00:06.796484  6456 net.cpp:91] Creating Layer conv1/7x7_s2
I0403 18:00:06.796504  6456 net.cpp:425] conv1/7x7_s2 <- data
I0403 18:00:06.796525  6456 net.cpp:399] conv1/7x7_s2 -> conv1/7x7_s2
I0403 18:00:06.940745  6456 net.cpp:141] Setting up conv1/7x7_s2
I0403 18:00:06.940856  6456 net.cpp:148] Top shape: 24 64 112 112 (19267584)
I0403 18:00:06.940874  6456 net.cpp:156] Memory required for data: 91522080
I0403 18:00:06.940907  6456 layer_factory.hpp:77] Creating layer conv1/relu_7x7
I0403 18:00:06.940934  6456 net.cpp:91] Creating Layer conv1/relu_7x7
I0403 18:00:06.940953  6456 net.cpp:425] conv1/relu_7x7 <- conv1/7x7_s2
I0403 18:00:06.940973  6456 net.cpp:386] conv1/relu_7x7 -> conv1/7x7_s2 (in-place)
I0403 18:00:06.941256  6456 net.cpp:141] Setting up conv1/relu_7x7
I0403 18:00:06.941288  6456 net.cpp:148] Top shape: 24 64 112 112 (19267584)
I0403 18:00:06.941305  6456 net.cpp:156] Memory required for data: 168592416
I0403 18:00:06.941321  6456 layer_factory.hpp:77] Creating layer pool1/3x3_s2
I0403 18:00:06.941350  6456 net.cpp:91] Creating Layer pool1/3x3_s2
I0403 18:00:06.941368  6456 net.cpp:425] pool1/3x3_s2 <- conv1/7x7_s2
I0403 18:00:06.941387  6456 net.cpp:399] pool1/3x3_s2 -> pool1/3x3_s2
I0403 18:00:06.941471  6456 net.cpp:141] Setting up pool1/3x3_s2
I0403 18:00:06.941496  6456 net.cpp:148] Top shape: 24 64 56 56 (4816896)
I0403 18:00:06.941512  6456 net.cpp:156] Memory required for data: 187860000
I0403 18:00:06.941527  6456 layer_factory.hpp:77] Creating layer pool1/norm1
I0403 18:00:06.941555  6456 net.cpp:91] Creating Layer pool1/norm1
I0403 18:00:06.941575  6456 net.cpp:425] pool1/norm1 <- pool1/3x3_s2
I0403 18:00:06.941592  6456 net.cpp:399] pool1/norm1 -> pool1/norm1
I0403 18:00:06.941913  6456 net.cpp:141] Setting up pool1/norm1
I0403 18:00:06.941941  6456 net.cpp:148] Top shape: 24 64 56 56 (4816896)
I0403 18:00:06.941958  6456 net.cpp:156] Memory required for data: 207127584
I0403 18:00:06.941974  6456 layer_factory.hpp:77] Creating layer conv2/3x3_reduce
I0403 18:00:06.942004  6456 net.cpp:91] Creating Layer conv2/3x3_reduce
I0403 18:00:06.942025  6456 net.cpp:425] conv2/3x3_reduce <- pool1/norm1
I0403 18:00:06.942049  6456 net.cpp:399] conv2/3x3_reduce -> conv2/3x3_reduce
I0403 18:00:06.943564  6456 net.cpp:141] Setting up conv2/3x3_reduce
I0403 18:00:06.943595  6456 net.cpp:148] Top shape: 24 64 56 56 (4816896)
I0403 18:00:06.943611  6456 net.cpp:156] Memory required for data: 226395168
I0403 18:00:06.943634  6456 layer_factory.hpp:77] Creating layer conv2/relu_3x3_reduce
I0403 18:00:06.943652  6456 net.cpp:91] Creating Layer conv2/relu_3x3_reduce
I0403 18:00:06.943668  6456 net.cpp:425] conv2/relu_3x3_reduce <- conv2/3x3_reduce
I0403 18:00:06.943691  6456 net.cpp:386] conv2/relu_3x3_reduce -> conv2/3x3_reduce (in-place)
I0403 18:00:06.943987  6456 net.cpp:141] Setting up conv2/relu_3x3_reduce
I0403 18:00:06.944015  6456 net.cpp:148] Top shape: 24 64 56 56 (4816896)
I0403 18:00:06.944031  6456 net.cpp:156] Memory required for data: 245662752
I0403 18:00:06.944047  6456 layer_factory.hpp:77] Creating layer conv2/3x3
I0403 18:00:06.944073  6456 net.cpp:91] Creating Layer conv2/3x3
I0403 18:00:06.944092  6456 net.cpp:425] conv2/3x3 <- conv2/3x3_reduce
I0403 18:00:06.944116  6456 net.cpp:399] conv2/3x3 -> conv2/3x3
I0403 18:00:06.946570  6456 net.cpp:141] Setting up conv2/3x3
I0403 18:00:06.946602  6456 net.cpp:148] Top shape: 24 192 56 56 (14450688)
I0403 18:00:06.946619  6456 net.cpp:156] Memory required for data: 303465504
I0403 18:00:06.946642  6456 layer_factory.hpp:77] Creating layer conv2/relu_3x3
I0403 18:00:06.946666  6456 net.cpp:91] Creating Layer conv2/relu_3x3
I0403 18:00:06.946682  6456 net.cpp:425] conv2/relu_3x3 <- conv2/3x3
I0403 18:00:06.946702  6456 net.cpp:386] conv2/relu_3x3 -> conv2/3x3 (in-place)
I0403 18:00:06.946887  6456 net.cpp:141] Setting up conv2/relu_3x3
I0403 18:00:06.946913  6456 net.cpp:148] Top shape: 24 192 56 56 (14450688)
I0403 18:00:06.946985  6456 net.cpp:156] Memory required for data: 361268256
I0403 18:00:06.947003  6456 layer_factory.hpp:77] Creating layer conv2/norm2
I0403 18:00:06.947032  6456 net.cpp:91] Creating Layer conv2/norm2
I0403 18:00:06.947052  6456 net.cpp:425] conv2/norm2 <- conv2/3x3
I0403 18:00:06.947073  6456 net.cpp:399] conv2/norm2 -> conv2/norm2
I0403 18:00:06.947417  6456 net.cpp:141] Setting up conv2/norm2
I0403 18:00:06.947449  6456 net.cpp:148] Top shape: 24 192 56 56 (14450688)
I0403 18:00:06.947468  6456 net.cpp:156] Memory required for data: 419071008
I0403 18:00:06.947484  6456 layer_factory.hpp:77] Creating layer pool2/3x3_s2
I0403 18:00:06.947504  6456 net.cpp:91] Creating Layer pool2/3x3_s2
I0403 18:00:06.947520  6456 net.cpp:425] pool2/3x3_s2 <- conv2/norm2
I0403 18:00:06.947541  6456 net.cpp:399] pool2/3x3_s2 -> pool2/3x3_s2
I0403 18:00:06.947613  6456 net.cpp:141] Setting up pool2/3x3_s2
I0403 18:00:06.947641  6456 net.cpp:148] Top shape: 24 192 28 28 (3612672)
I0403 18:00:06.947659  6456 net.cpp:156] Memory required for data: 433521696
I0403 18:00:06.947677  6456 layer_factory.hpp:77] Creating layer pool2/3x3_s2_pool2/3x3_s2_0_split
I0403 18:00:06.947700  6456 net.cpp:91] Creating Layer pool2/3x3_s2_pool2/3x3_s2_0_split
I0403 18:00:06.947716  6456 net.cpp:425] pool2/3x3_s2_pool2/3x3_s2_0_split <- pool2/3x3_s2
I0403 18:00:06.947736  6456 net.cpp:399] pool2/3x3_s2_pool2/3x3_s2_0_split -> pool2/3x3_s2_pool2/3x3_s2_0_split_0
I0403 18:00:06.947757  6456 net.cpp:399] pool2/3x3_s2_pool2/3x3_s2_0_split -> pool2/3x3_s2_pool2/3x3_s2_0_split_1
I0403 18:00:06.947778  6456 net.cpp:399] pool2/3x3_s2_pool2/3x3_s2_0_split -> pool2/3x3_s2_pool2/3x3_s2_0_split_2
I0403 18:00:06.947801  6456 net.cpp:399] pool2/3x3_s2_pool2/3x3_s2_0_split -> pool2/3x3_s2_pool2/3x3_s2_0_split_3
I0403 18:00:06.947880  6456 net.cpp:141] Setting up pool2/3x3_s2_pool2/3x3_s2_0_split
I0403 18:00:06.947906  6456 net.cpp:148] Top shape: 24 192 28 28 (3612672)
I0403 18:00:06.947924  6456 net.cpp:148] Top shape: 24 192 28 28 (3612672)
I0403 18:00:06.947942  6456 net.cpp:148] Top shape: 24 192 28 28 (3612672)
I0403 18:00:06.947958  6456 net.cpp:148] Top shape: 24 192 28 28 (3612672)
I0403 18:00:06.947974  6456 net.cpp:156] Memory required for data: 491324448
I0403 18:00:06.947989  6456 layer_factory.hpp:77] Creating layer inception_3a/1x1
I0403 18:00:06.948015  6456 net.cpp:91] Creating Layer inception_3a/1x1
I0403 18:00:06.948035  6456 net.cpp:425] inception_3a/1x1 <- pool2/3x3_s2_pool2/3x3_s2_0_split_0
I0403 18:00:06.948057  6456 net.cpp:399] inception_3a/1x1 -> inception_3a/1x1
I0403 18:00:06.949731  6456 net.cpp:141] Setting up inception_3a/1x1
I0403 18:00:06.949764  6456 net.cpp:148] Top shape: 24 64 28 28 (1204224)
I0403 18:00:06.949780  6456 net.cpp:156] Memory required for data: 496141344
I0403 18:00:06.949810  6456 layer_factory.hpp:77] Creating layer inception_3a/relu_1x1
I0403 18:00:06.949832  6456 net.cpp:91] Creating Layer inception_3a/relu_1x1
I0403 18:00:06.949851  6456 net.cpp:425] inception_3a/relu_1x1 <- inception_3a/1x1
I0403 18:00:06.949872  6456 net.cpp:386] inception_3a/relu_1x1 -> inception_3a/1x1 (in-place)
I0403 18:00:06.950058  6456 net.cpp:141] Setting up inception_3a/relu_1x1
I0403 18:00:06.950084  6456 net.cpp:148] Top shape: 24 64 28 28 (1204224)
I0403 18:00:06.950099  6456 net.cpp:156] Memory required for data: 500958240
I0403 18:00:06.950115  6456 layer_factory.hpp:77] Creating layer inception_3a/3x3_reduce
I0403 18:00:06.950144  6456 net.cpp:91] Creating Layer inception_3a/3x3_reduce
I0403 18:00:06.950162  6456 net.cpp:425] inception_3a/3x3_reduce <- pool2/3x3_s2_pool2/3x3_s2_0_split_1
I0403 18:00:06.950186  6456 net.cpp:399] inception_3a/3x3_reduce -> inception_3a/3x3_reduce
I0403 18:00:06.952014  6456 net.cpp:141] Setting up inception_3a/3x3_reduce
I0403 18:00:06.952046  6456 net.cpp:148] Top shape: 24 96 28 28 (1806336)
I0403 18:00:06.952064  6456 net.cpp:156] Memory required for data: 508183584
I0403 18:00:06.952085  6456 layer_factory.hpp:77] Creating layer inception_3a/relu_3x3_reduce
I0403 18:00:06.952126  6456 net.cpp:91] Creating Layer inception_3a/relu_3x3_reduce
I0403 18:00:06.952145  6456 net.cpp:425] inception_3a/relu_3x3_reduce <- inception_3a/3x3_reduce
I0403 18:00:06.952164  6456 net.cpp:386] inception_3a/relu_3x3_reduce -> inception_3a/3x3_reduce (in-place)
I0403 18:00:06.952373  6456 net.cpp:141] Setting up inception_3a/relu_3x3_reduce
I0403 18:00:06.952402  6456 net.cpp:148] Top shape: 24 96 28 28 (1806336)
I0403 18:00:06.952419  6456 net.cpp:156] Memory required for data: 515408928
I0403 18:00:06.952435  6456 layer_factory.hpp:77] Creating layer inception_3a/3x3
I0403 18:00:06.952460  6456 net.cpp:91] Creating Layer inception_3a/3x3
I0403 18:00:06.952478  6456 net.cpp:425] inception_3a/3x3 <- inception_3a/3x3_reduce
I0403 18:00:06.952498  6456 net.cpp:399] inception_3a/3x3 -> inception_3a/3x3
I0403 18:00:06.954246  6456 net.cpp:141] Setting up inception_3a/3x3
I0403 18:00:06.954280  6456 net.cpp:148] Top shape: 24 128 28 28 (2408448)
I0403 18:00:06.954298  6456 net.cpp:156] Memory required for data: 525042720
I0403 18:00:06.954318  6456 layer_factory.hpp:77] Creating layer inception_3a/relu_3x3
I0403 18:00:06.954340  6456 net.cpp:91] Creating Layer inception_3a/relu_3x3
I0403 18:00:06.954358  6456 net.cpp:425] inception_3a/relu_3x3 <- inception_3a/3x3
I0403 18:00:06.954376  6456 net.cpp:386] inception_3a/relu_3x3 -> inception_3a/3x3 (in-place)
I0403 18:00:06.954669  6456 net.cpp:141] Setting up inception_3a/relu_3x3
I0403 18:00:06.954697  6456 net.cpp:148] Top shape: 24 128 28 28 (2408448)
I0403 18:00:06.954712  6456 net.cpp:156] Memory required for data: 534676512
I0403 18:00:06.954730  6456 layer_factory.hpp:77] Creating layer inception_3a/5x5_reduce
I0403 18:00:06.954753  6456 net.cpp:91] Creating Layer inception_3a/5x5_reduce
I0403 18:00:06.954771  6456 net.cpp:425] inception_3a/5x5_reduce <- pool2/3x3_s2_pool2/3x3_s2_0_split_2
I0403 18:00:06.954794  6456 net.cpp:399] inception_3a/5x5_reduce -> inception_3a/5x5_reduce
I0403 18:00:06.955853  6456 net.cpp:141] Setting up inception_3a/5x5_reduce
I0403 18:00:06.955883  6456 net.cpp:148] Top shape: 24 16 28 28 (301056)
I0403 18:00:06.955909  6456 net.cpp:156] Memory required for data: 535880736
I0403 18:00:06.955932  6456 layer_factory.hpp:77] Creating layer inception_3a/relu_5x5_reduce
I0403 18:00:06.955953  6456 net.cpp:91] Creating Layer inception_3a/relu_5x5_reduce
I0403 18:00:06.955972  6456 net.cpp:425] inception_3a/relu_5x5_reduce <- inception_3a/5x5_reduce
I0403 18:00:06.955991  6456 net.cpp:386] inception_3a/relu_5x5_reduce -> inception_3a/5x5_reduce (in-place)
I0403 18:00:06.956295  6456 net.cpp:141] Setting up inception_3a/relu_5x5_reduce
I0403 18:00:06.956322  6456 net.cpp:148] Top shape: 24 16 28 28 (301056)
I0403 18:00:06.956338  6456 net.cpp:156] Memory required for data: 537084960
I0403 18:00:06.956354  6456 layer_factory.hpp:77] Creating layer inception_3a/5x5
I0403 18:00:06.956382  6456 net.cpp:91] Creating Layer inception_3a/5x5
I0403 18:00:06.956399  6456 net.cpp:425] inception_3a/5x5 <- inception_3a/5x5_reduce
I0403 18:00:06.956419  6456 net.cpp:399] inception_3a/5x5 -> inception_3a/5x5
I0403 18:00:06.957499  6456 net.cpp:141] Setting up inception_3a/5x5
I0403 18:00:06.957530  6456 net.cpp:148] Top shape: 24 32 28 28 (602112)
I0403 18:00:06.957545  6456 net.cpp:156] Memory required for data: 539493408
I0403 18:00:06.957566  6456 layer_factory.hpp:77] Creating layer inception_3a/relu_5x5
I0403 18:00:06.957586  6456 net.cpp:91] Creating Layer inception_3a/relu_5x5
I0403 18:00:06.957602  6456 net.cpp:425] inception_3a/relu_5x5 <- inception_3a/5x5
I0403 18:00:06.957623  6456 net.cpp:386] inception_3a/relu_5x5 -> inception_3a/5x5 (in-place)
I0403 18:00:06.957815  6456 net.cpp:141] Setting up inception_3a/relu_5x5
I0403 18:00:06.957841  6456 net.cpp:148] Top shape: 24 32 28 28 (602112)
I0403 18:00:06.957856  6456 net.cpp:156] Memory required for data: 541901856
I0403 18:00:06.957873  6456 layer_factory.hpp:77] Creating layer inception_3a/pool
I0403 18:00:06.957895  6456 net.cpp:91] Creating Layer inception_3a/pool
I0403 18:00:06.957927  6456 net.cpp:425] inception_3a/pool <- pool2/3x3_s2_pool2/3x3_s2_0_split_3
I0403 18:00:06.957948  6456 net.cpp:399] inception_3a/pool -> inception_3a/pool
I0403 18:00:06.958011  6456 net.cpp:141] Setting up inception_3a/pool
I0403 18:00:06.958036  6456 net.cpp:148] Top shape: 24 192 28 28 (3612672)
I0403 18:00:06.958051  6456 net.cpp:156] Memory required for data: 556352544
I0403 18:00:06.958067  6456 layer_factory.hpp:77] Creating layer inception_3a/pool_proj
I0403 18:00:06.958091  6456 net.cpp:91] Creating Layer inception_3a/pool_proj
I0403 18:00:06.958111  6456 net.cpp:425] inception_3a/pool_proj <- inception_3a/pool
I0403 18:00:06.958133  6456 net.cpp:399] inception_3a/pool_proj -> inception_3a/pool_proj
I0403 18:00:06.959161  6456 net.cpp:141] Setting up inception_3a/pool_proj
I0403 18:00:06.959193  6456 net.cpp:148] Top shape: 24 32 28 28 (602112)
I0403 18:00:06.959210  6456 net.cpp:156] Memory required for data: 558760992
I0403 18:00:06.959233  6456 layer_factory.hpp:77] Creating layer inception_3a/relu_pool_proj
I0403 18:00:06.959256  6456 net.cpp:91] Creating Layer inception_3a/relu_pool_proj
I0403 18:00:06.959280  6456 net.cpp:425] inception_3a/relu_pool_proj <- inception_3a/pool_proj
I0403 18:00:06.959298  6456 net.cpp:386] inception_3a/relu_pool_proj -> inception_3a/pool_proj (in-place)
I0403 18:00:06.959586  6456 net.cpp:141] Setting up inception_3a/relu_pool_proj
I0403 18:00:06.959614  6456 net.cpp:148] Top shape: 24 32 28 28 (602112)
I0403 18:00:06.959630  6456 net.cpp:156] Memory required for data: 561169440
I0403 18:00:06.959648  6456 layer_factory.hpp:77] Creating layer inception_3a/output
I0403 18:00:06.959667  6456 net.cpp:91] Creating Layer inception_3a/output
I0403 18:00:06.959684  6456 net.cpp:425] inception_3a/output <- inception_3a/1x1
I0403 18:00:06.959702  6456 net.cpp:425] inception_3a/output <- inception_3a/3x3
I0403 18:00:06.959719  6456 net.cpp:425] inception_3a/output <- inception_3a/5x5
I0403 18:00:06.959736  6456 net.cpp:425] inception_3a/output <- inception_3a/pool_proj
I0403 18:00:06.959756  6456 net.cpp:399] inception_3a/output -> inception_3a/output
I0403 18:00:06.959806  6456 net.cpp:141] Setting up inception_3a/output
I0403 18:00:06.959833  6456 net.cpp:148] Top shape: 24 256 28 28 (4816896)
I0403 18:00:06.959848  6456 net.cpp:156] Memory required for data: 580437024
I0403 18:00:06.959866  6456 layer_factory.hpp:77] Creating layer inception_3a/output_inception_3a/output_0_split
I0403 18:00:06.959883  6456 net.cpp:91] Creating Layer inception_3a/output_inception_3a/output_0_split
I0403 18:00:06.959899  6456 net.cpp:425] inception_3a/output_inception_3a/output_0_split <- inception_3a/output
I0403 18:00:06.959921  6456 net.cpp:399] inception_3a/output_inception_3a/output_0_split -> inception_3a/output_inception_3a/output_0_split_0
I0403 18:00:06.959944  6456 net.cpp:399] inception_3a/output_inception_3a/output_0_split -> inception_3a/output_inception_3a/output_0_split_1
I0403 18:00:06.959966  6456 net.cpp:399] inception_3a/output_inception_3a/output_0_split -> inception_3a/output_inception_3a/output_0_split_2
I0403 18:00:06.959990  6456 net.cpp:399] inception_3a/output_inception_3a/output_0_split -> inception_3a/output_inception_3a/output_0_split_3
I0403 18:00:06.960072  6456 net.cpp:141] Setting up inception_3a/output_inception_3a/output_0_split
I0403 18:00:06.960098  6456 net.cpp:148] Top shape: 24 256 28 28 (4816896)
I0403 18:00:06.960117  6456 net.cpp:148] Top shape: 24 256 28 28 (4816896)
I0403 18:00:06.960134  6456 net.cpp:148] Top shape: 24 256 28 28 (4816896)
I0403 18:00:06.960151  6456 net.cpp:148] Top shape: 24 256 28 28 (4816896)
I0403 18:00:06.960166  6456 net.cpp:156] Memory required for data: 657507360
I0403 18:00:06.960181  6456 layer_factory.hpp:77] Creating layer inception_3b/1x1
I0403 18:00:06.960209  6456 net.cpp:91] Creating Layer inception_3b/1x1
I0403 18:00:06.960228  6456 net.cpp:425] inception_3b/1x1 <- inception_3a/output_inception_3a/output_0_split_0
I0403 18:00:06.960250  6456 net.cpp:399] inception_3b/1x1 -> inception_3b/1x1
I0403 18:00:06.961474  6456 net.cpp:141] Setting up inception_3b/1x1
I0403 18:00:06.961519  6456 net.cpp:148] Top shape: 24 128 28 28 (2408448)
I0403 18:00:06.961536  6456 net.cpp:156] Memory required for data: 667141152
I0403 18:00:06.961556  6456 layer_factory.hpp:77] Creating layer inception_3b/relu_1x1
I0403 18:00:06.961575  6456 net.cpp:91] Creating Layer inception_3b/relu_1x1
I0403 18:00:06.961591  6456 net.cpp:425] inception_3b/relu_1x1 <- inception_3b/1x1
I0403 18:00:06.961612  6456 net.cpp:386] inception_3b/relu_1x1 -> inception_3b/1x1 (in-place)
I0403 18:00:06.961798  6456 net.cpp:141] Setting up inception_3b/relu_1x1
I0403 18:00:06.961824  6456 net.cpp:148] Top shape: 24 128 28 28 (2408448)
I0403 18:00:06.961839  6456 net.cpp:156] Memory required for data: 676774944
I0403 18:00:06.961854  6456 layer_factory.hpp:77] Creating layer inception_3b/3x3_reduce
I0403 18:00:06.961879  6456 net.cpp:91] Creating Layer inception_3b/3x3_reduce
I0403 18:00:06.961899  6456 net.cpp:425] inception_3b/3x3_reduce <- inception_3a/output_inception_3a/output_0_split_1
I0403 18:00:06.961920  6456 net.cpp:399] inception_3b/3x3_reduce -> inception_3b/3x3_reduce
I0403 18:00:06.963150  6456 net.cpp:141] Setting up inception_3b/3x3_reduce
I0403 18:00:06.963181  6456 net.cpp:148] Top shape: 24 128 28 28 (2408448)
I0403 18:00:06.963197  6456 net.cpp:156] Memory required for data: 686408736
I0403 18:00:06.963217  6456 layer_factory.hpp:77] Creating layer inception_3b/relu_3x3_reduce
I0403 18:00:06.963237  6456 net.cpp:91] Creating Layer inception_3b/relu_3x3_reduce
I0403 18:00:06.963253  6456 net.cpp:425] inception_3b/relu_3x3_reduce <- inception_3b/3x3_reduce
I0403 18:00:06.963277  6456 net.cpp:386] inception_3b/relu_3x3_reduce -> inception_3b/3x3_reduce (in-place)
I0403 18:00:06.963464  6456 net.cpp:141] Setting up inception_3b/relu_3x3_reduce
I0403 18:00:06.963490  6456 net.cpp:148] Top shape: 24 128 28 28 (2408448)
I0403 18:00:06.963506  6456 net.cpp:156] Memory required for data: 696042528
I0403 18:00:06.963522  6456 layer_factory.hpp:77] Creating layer inception_3b/3x3
I0403 18:00:06.963549  6456 net.cpp:91] Creating Layer inception_3b/3x3
I0403 18:00:06.963568  6456 net.cpp:425] inception_3b/3x3 <- inception_3b/3x3_reduce
I0403 18:00:06.963589  6456 net.cpp:399] inception_3b/3x3 -> inception_3b/3x3
I0403 18:00:06.966717  6456 net.cpp:141] Setting up inception_3b/3x3
I0403 18:00:06.966747  6456 net.cpp:148] Top shape: 24 192 28 28 (3612672)
I0403 18:00:06.966763  6456 net.cpp:156] Memory required for data: 710493216
I0403 18:00:06.966783  6456 layer_factory.hpp:77] Creating layer inception_3b/relu_3x3
I0403 18:00:06.966804  6456 net.cpp:91] Creating Layer inception_3b/relu_3x3
I0403 18:00:06.966822  6456 net.cpp:425] inception_3b/relu_3x3 <- inception_3b/3x3
I0403 18:00:06.966841  6456 net.cpp:386] inception_3b/relu_3x3 -> inception_3b/3x3 (in-place)
I0403 18:00:06.967133  6456 net.cpp:141] Setting up inception_3b/relu_3x3
I0403 18:00:06.967160  6456 net.cpp:148] Top shape: 24 192 28 28 (3612672)
I0403 18:00:06.967176  6456 net.cpp:156] Memory required for data: 724943904
I0403 18:00:06.967192  6456 layer_factory.hpp:77] Creating layer inception_3b/5x5_reduce
I0403 18:00:06.967217  6456 net.cpp:91] Creating Layer inception_3b/5x5_reduce
I0403 18:00:06.967236  6456 net.cpp:425] inception_3b/5x5_reduce <- inception_3a/output_inception_3a/output_0_split_2
I0403 18:00:06.967259  6456 net.cpp:399] inception_3b/5x5_reduce -> inception_3b/5x5_reduce
I0403 18:00:06.968322  6456 net.cpp:141] Setting up inception_3b/5x5_reduce
I0403 18:00:06.968353  6456 net.cpp:148] Top shape: 24 32 28 28 (602112)
I0403 18:00:06.968369  6456 net.cpp:156] Memory required for data: 727352352
I0403 18:00:06.968387  6456 layer_factory.hpp:77] Creating layer inception_3b/relu_5x5_reduce
I0403 18:00:06.968406  6456 net.cpp:91] Creating Layer inception_3b/relu_5x5_reduce
I0403 18:00:06.968423  6456 net.cpp:425] inception_3b/relu_5x5_reduce <- inception_3b/5x5_reduce
I0403 18:00:06.968446  6456 net.cpp:386] inception_3b/relu_5x5_reduce -> inception_3b/5x5_reduce (in-place)
I0403 18:00:06.968648  6456 net.cpp:141] Setting up inception_3b/relu_5x5_reduce
I0403 18:00:06.968675  6456 net.cpp:148] Top shape: 24 32 28 28 (602112)
I0403 18:00:06.968690  6456 net.cpp:156] Memory required for data: 729760800
I0403 18:00:06.968706  6456 layer_factory.hpp:77] Creating layer inception_3b/5x5
I0403 18:00:06.968732  6456 net.cpp:91] Creating Layer inception_3b/5x5
I0403 18:00:06.968751  6456 net.cpp:425] inception_3b/5x5 <- inception_3b/5x5_reduce
I0403 18:00:06.968775  6456 net.cpp:399] inception_3b/5x5 -> inception_3b/5x5
I0403 18:00:06.970898  6456 net.cpp:141] Setting up inception_3b/5x5
I0403 18:00:06.970932  6456 net.cpp:148] Top shape: 24 96 28 28 (1806336)
I0403 18:00:06.970947  6456 net.cpp:156] Memory required for data: 736986144
I0403 18:00:06.970966  6456 layer_factory.hpp:77] Creating layer inception_3b/relu_5x5
I0403 18:00:06.970985  6456 net.cpp:91] Creating Layer inception_3b/relu_5x5
I0403 18:00:06.971002  6456 net.cpp:425] inception_3b/relu_5x5 <- inception_3b/5x5
I0403 18:00:06.971024  6456 net.cpp:386] inception_3b/relu_5x5 -> inception_3b/5x5 (in-place)
I0403 18:00:06.971227  6456 net.cpp:141] Setting up inception_3b/relu_5x5
I0403 18:00:06.971254  6456 net.cpp:148] Top shape: 24 96 28 28 (1806336)
I0403 18:00:06.971273  6456 net.cpp:156] Memory required for data: 744211488
I0403 18:00:06.971292  6456 layer_factory.hpp:77] Creating layer inception_3b/pool
I0403 18:00:06.971310  6456 net.cpp:91] Creating Layer inception_3b/pool
I0403 18:00:06.971328  6456 net.cpp:425] inception_3b/pool <- inception_3a/output_inception_3a/output_0_split_3
I0403 18:00:06.971348  6456 net.cpp:399] inception_3b/pool -> inception_3b/pool
I0403 18:00:06.971410  6456 net.cpp:141] Setting up inception_3b/pool
I0403 18:00:06.971436  6456 net.cpp:148] Top shape: 24 256 28 28 (4816896)
I0403 18:00:06.971451  6456 net.cpp:156] Memory required for data: 763479072
I0403 18:00:06.971465  6456 layer_factory.hpp:77] Creating layer inception_3b/pool_proj
I0403 18:00:06.971489  6456 net.cpp:91] Creating Layer inception_3b/pool_proj
I0403 18:00:06.971508  6456 net.cpp:425] inception_3b/pool_proj <- inception_3b/pool
I0403 18:00:06.971530  6456 net.cpp:399] inception_3b/pool_proj -> inception_3b/pool_proj
I0403 18:00:06.972659  6456 net.cpp:141] Setting up inception_3b/pool_proj
I0403 18:00:06.972689  6456 net.cpp:148] Top shape: 24 64 28 28 (1204224)
I0403 18:00:06.972705  6456 net.cpp:156] Memory required for data: 768295968
I0403 18:00:06.972725  6456 layer_factory.hpp:77] Creating layer inception_3b/relu_pool_proj
I0403 18:00:06.972748  6456 net.cpp:91] Creating Layer inception_3b/relu_pool_proj
I0403 18:00:06.972764  6456 net.cpp:425] inception_3b/relu_pool_proj <- inception_3b/pool_proj
I0403 18:00:06.972782  6456 net.cpp:386] inception_3b/relu_pool_proj -> inception_3b/pool_proj (in-place)
I0403 18:00:06.973182  6456 net.cpp:141] Setting up inception_3b/relu_pool_proj
I0403 18:00:06.973209  6456 net.cpp:148] Top shape: 24 64 28 28 (1204224)
I0403 18:00:06.973227  6456 net.cpp:156] Memory required for data: 773112864
I0403 18:00:06.973242  6456 layer_factory.hpp:77] Creating layer inception_3b/output
I0403 18:00:06.973263  6456 net.cpp:91] Creating Layer inception_3b/output
I0403 18:00:06.973284  6456 net.cpp:425] inception_3b/output <- inception_3b/1x1
I0403 18:00:06.973304  6456 net.cpp:425] inception_3b/output <- inception_3b/3x3
I0403 18:00:06.973320  6456 net.cpp:425] inception_3b/output <- inception_3b/5x5
I0403 18:00:06.973336  6456 net.cpp:425] inception_3b/output <- inception_3b/pool_proj
I0403 18:00:06.973354  6456 net.cpp:399] inception_3b/output -> inception_3b/output
I0403 18:00:06.973403  6456 net.cpp:141] Setting up inception_3b/output
I0403 18:00:06.973428  6456 net.cpp:148] Top shape: 24 480 28 28 (9031680)
I0403 18:00:06.973443  6456 net.cpp:156] Memory required for data: 809239584
I0403 18:00:06.973459  6456 layer_factory.hpp:77] Creating layer pool3/3x3_s2
I0403 18:00:06.973476  6456 net.cpp:91] Creating Layer pool3/3x3_s2
I0403 18:00:06.973494  6456 net.cpp:425] pool3/3x3_s2 <- inception_3b/output
I0403 18:00:06.973531  6456 net.cpp:399] pool3/3x3_s2 -> pool3/3x3_s2
I0403 18:00:06.973593  6456 net.cpp:141] Setting up pool3/3x3_s2
I0403 18:00:06.973618  6456 net.cpp:148] Top shape: 24 480 14 14 (2257920)
I0403 18:00:06.973634  6456 net.cpp:156] Memory required for data: 818271264
I0403 18:00:06.973649  6456 layer_factory.hpp:77] Creating layer pool3/3x3_s2_pool3/3x3_s2_0_split
I0403 18:00:06.973670  6456 net.cpp:91] Creating Layer pool3/3x3_s2_pool3/3x3_s2_0_split
I0403 18:00:06.973685  6456 net.cpp:425] pool3/3x3_s2_pool3/3x3_s2_0_split <- pool3/3x3_s2
I0403 18:00:06.973706  6456 net.cpp:399] pool3/3x3_s2_pool3/3x3_s2_0_split -> pool3/3x3_s2_pool3/3x3_s2_0_split_0
I0403 18:00:06.973726  6456 net.cpp:399] pool3/3x3_s2_pool3/3x3_s2_0_split -> pool3/3x3_s2_pool3/3x3_s2_0_split_1
I0403 18:00:06.973747  6456 net.cpp:399] pool3/3x3_s2_pool3/3x3_s2_0_split -> pool3/3x3_s2_pool3/3x3_s2_0_split_2
I0403 18:00:06.973767  6456 net.cpp:399] pool3/3x3_s2_pool3/3x3_s2_0_split -> pool3/3x3_s2_pool3/3x3_s2_0_split_3
I0403 18:00:06.973846  6456 net.cpp:141] Setting up pool3/3x3_s2_pool3/3x3_s2_0_split
I0403 18:00:06.973871  6456 net.cpp:148] Top shape: 24 480 14 14 (2257920)
I0403 18:00:06.973887  6456 net.cpp:148] Top shape: 24 480 14 14 (2257920)
I0403 18:00:06.973903  6456 net.cpp:148] Top shape: 24 480 14 14 (2257920)
I0403 18:00:06.973919  6456 net.cpp:148] Top shape: 24 480 14 14 (2257920)
I0403 18:00:06.973934  6456 net.cpp:156] Memory required for data: 854397984
I0403 18:00:06.973949  6456 layer_factory.hpp:77] Creating layer inception_4a/1x1
I0403 18:00:06.973973  6456 net.cpp:91] Creating Layer inception_4a/1x1
I0403 18:00:06.973991  6456 net.cpp:425] inception_4a/1x1 <- pool3/3x3_s2_pool3/3x3_s2_0_split_0
I0403 18:00:06.974014  6456 net.cpp:399] inception_4a/1x1 -> inception_4a/1x1
I0403 18:00:06.975677  6456 net.cpp:141] Setting up inception_4a/1x1
I0403 18:00:06.975708  6456 net.cpp:148] Top shape: 24 192 14 14 (903168)
I0403 18:00:06.975725  6456 net.cpp:156] Memory required for data: 858010656
I0403 18:00:06.975745  6456 layer_factory.hpp:77] Creating layer inception_4a/relu_1x1
I0403 18:00:06.975764  6456 net.cpp:91] Creating Layer inception_4a/relu_1x1
I0403 18:00:06.975780  6456 net.cpp:425] inception_4a/relu_1x1 <- inception_4a/1x1
I0403 18:00:06.975797  6456 net.cpp:386] inception_4a/relu_1x1 -> inception_4a/1x1 (in-place)
I0403 18:00:06.975991  6456 net.cpp:141] Setting up inception_4a/relu_1x1
I0403 18:00:06.976017  6456 net.cpp:148] Top shape: 24 192 14 14 (903168)
I0403 18:00:06.976032  6456 net.cpp:156] Memory required for data: 861623328
I0403 18:00:06.976047  6456 layer_factory.hpp:77] Creating layer inception_4a/3x3_reduce
I0403 18:00:06.976071  6456 net.cpp:91] Creating Layer inception_4a/3x3_reduce
I0403 18:00:06.976089  6456 net.cpp:425] inception_4a/3x3_reduce <- pool3/3x3_s2_pool3/3x3_s2_0_split_1
I0403 18:00:06.976112  6456 net.cpp:399] inception_4a/3x3_reduce -> inception_4a/3x3_reduce
I0403 18:00:06.977469  6456 net.cpp:141] Setting up inception_4a/3x3_reduce
I0403 18:00:06.977499  6456 net.cpp:148] Top shape: 24 96 14 14 (451584)
I0403 18:00:06.977514  6456 net.cpp:156] Memory required for data: 863429664
I0403 18:00:06.977543  6456 layer_factory.hpp:77] Creating layer inception_4a/relu_3x3_reduce
I0403 18:00:06.977566  6456 net.cpp:91] Creating Layer inception_4a/relu_3x3_reduce
I0403 18:00:06.977581  6456 net.cpp:425] inception_4a/relu_3x3_reduce <- inception_4a/3x3_reduce
I0403 18:00:06.977599  6456 net.cpp:386] inception_4a/relu_3x3_reduce -> inception_4a/3x3_reduce (in-place)
I0403 18:00:06.977787  6456 net.cpp:141] Setting up inception_4a/relu_3x3_reduce
I0403 18:00:06.977815  6456 net.cpp:148] Top shape: 24 96 14 14 (451584)
I0403 18:00:06.977833  6456 net.cpp:156] Memory required for data: 865236000
I0403 18:00:06.977848  6456 layer_factory.hpp:77] Creating layer inception_4a/3x3
I0403 18:00:06.977871  6456 net.cpp:91] Creating Layer inception_4a/3x3
I0403 18:00:06.977890  6456 net.cpp:425] inception_4a/3x3 <- inception_4a/3x3_reduce
I0403 18:00:06.977911  6456 net.cpp:399] inception_4a/3x3 -> inception_4a/3x3
I0403 18:00:06.980753  6456 net.cpp:141] Setting up inception_4a/3x3
I0403 18:00:06.980785  6456 net.cpp:148] Top shape: 24 208 14 14 (978432)
I0403 18:00:06.980803  6456 net.cpp:156] Memory required for data: 869149728
I0403 18:00:06.980821  6456 layer_factory.hpp:77] Creating layer inception_4a/relu_3x3
I0403 18:00:06.980840  6456 net.cpp:91] Creating Layer inception_4a/relu_3x3
I0403 18:00:06.980856  6456 net.cpp:425] inception_4a/relu_3x3 <- inception_4a/3x3
I0403 18:00:06.980877  6456 net.cpp:386] inception_4a/relu_3x3 -> inception_4a/3x3 (in-place)
I0403 18:00:06.981174  6456 net.cpp:141] Setting up inception_4a/relu_3x3
I0403 18:00:06.981202  6456 net.cpp:148] Top shape: 24 208 14 14 (978432)
I0403 18:00:06.981218  6456 net.cpp:156] Memory required for data: 873063456
I0403 18:00:06.981235  6456 layer_factory.hpp:77] Creating layer inception_4a/5x5_reduce
I0403 18:00:06.981258  6456 net.cpp:91] Creating Layer inception_4a/5x5_reduce
I0403 18:00:06.981282  6456 net.cpp:425] inception_4a/5x5_reduce <- pool3/3x3_s2_pool3/3x3_s2_0_split_2
I0403 18:00:06.981307  6456 net.cpp:399] inception_4a/5x5_reduce -> inception_4a/5x5_reduce
I0403 18:00:06.982390  6456 net.cpp:141] Setting up inception_4a/5x5_reduce
I0403 18:00:06.982420  6456 net.cpp:148] Top shape: 24 16 14 14 (75264)
I0403 18:00:06.982437  6456 net.cpp:156] Memory required for data: 873364512
I0403 18:00:06.982456  6456 layer_factory.hpp:77] Creating layer inception_4a/relu_5x5_reduce
I0403 18:00:06.982475  6456 net.cpp:91] Creating Layer inception_4a/relu_5x5_reduce
I0403 18:00:06.982492  6456 net.cpp:425] inception_4a/relu_5x5_reduce <- inception_4a/5x5_reduce
I0403 18:00:06.982512  6456 net.cpp:386] inception_4a/relu_5x5_reduce -> inception_4a/5x5_reduce (in-place)
I0403 18:00:06.982699  6456 net.cpp:141] Setting up inception_4a/relu_5x5_reduce
I0403 18:00:06.982728  6456 net.cpp:148] Top shape: 24 16 14 14 (75264)
I0403 18:00:06.982743  6456 net.cpp:156] Memory required for data: 873665568
I0403 18:00:06.982758  6456 layer_factory.hpp:77] Creating layer inception_4a/5x5
I0403 18:00:06.982782  6456 net.cpp:91] Creating Layer inception_4a/5x5
I0403 18:00:06.982800  6456 net.cpp:425] inception_4a/5x5 <- inception_4a/5x5_reduce
I0403 18:00:06.982822  6456 net.cpp:399] inception_4a/5x5 -> inception_4a/5x5
I0403 18:00:06.983970  6456 net.cpp:141] Setting up inception_4a/5x5
I0403 18:00:06.984000  6456 net.cpp:148] Top shape: 24 48 14 14 (225792)
I0403 18:00:06.984016  6456 net.cpp:156] Memory required for data: 874568736
I0403 18:00:06.984036  6456 layer_factory.hpp:77] Creating layer inception_4a/relu_5x5
I0403 18:00:06.984058  6456 net.cpp:91] Creating Layer inception_4a/relu_5x5
I0403 18:00:06.984076  6456 net.cpp:425] inception_4a/relu_5x5 <- inception_4a/5x5
I0403 18:00:06.984093  6456 net.cpp:386] inception_4a/relu_5x5 -> inception_4a/5x5 (in-place)
I0403 18:00:06.984292  6456 net.cpp:141] Setting up inception_4a/relu_5x5
I0403 18:00:06.984320  6456 net.cpp:148] Top shape: 24 48 14 14 (225792)
I0403 18:00:06.984336  6456 net.cpp:156] Memory required for data: 875471904
I0403 18:00:06.984352  6456 layer_factory.hpp:77] Creating layer inception_4a/pool
I0403 18:00:06.984370  6456 net.cpp:91] Creating Layer inception_4a/pool
I0403 18:00:06.984387  6456 net.cpp:425] inception_4a/pool <- pool3/3x3_s2_pool3/3x3_s2_0_split_3
I0403 18:00:06.984408  6456 net.cpp:399] inception_4a/pool -> inception_4a/pool
I0403 18:00:06.984473  6456 net.cpp:141] Setting up inception_4a/pool
I0403 18:00:06.984498  6456 net.cpp:148] Top shape: 24 480 14 14 (2257920)
I0403 18:00:06.984513  6456 net.cpp:156] Memory required for data: 884503584
I0403 18:00:06.984529  6456 layer_factory.hpp:77] Creating layer inception_4a/pool_proj
I0403 18:00:06.984551  6456 net.cpp:91] Creating Layer inception_4a/pool_proj
I0403 18:00:06.984570  6456 net.cpp:425] inception_4a/pool_proj <- inception_4a/pool
I0403 18:00:06.984591  6456 net.cpp:399] inception_4a/pool_proj -> inception_4a/pool_proj
I0403 18:00:06.985829  6456 net.cpp:141] Setting up inception_4a/pool_proj
I0403 18:00:06.985860  6456 net.cpp:148] Top shape: 24 64 14 14 (301056)
I0403 18:00:06.985891  6456 net.cpp:156] Memory required for data: 885707808
I0403 18:00:06.985913  6456 layer_factory.hpp:77] Creating layer inception_4a/relu_pool_proj
I0403 18:00:06.985934  6456 net.cpp:91] Creating Layer inception_4a/relu_pool_proj
I0403 18:00:06.985952  6456 net.cpp:425] inception_4a/relu_pool_proj <- inception_4a/pool_proj
I0403 18:00:06.985970  6456 net.cpp:386] inception_4a/relu_pool_proj -> inception_4a/pool_proj (in-place)
I0403 18:00:06.986266  6456 net.cpp:141] Setting up inception_4a/relu_pool_proj
I0403 18:00:06.986299  6456 net.cpp:148] Top shape: 24 64 14 14 (301056)
I0403 18:00:06.986315  6456 net.cpp:156] Memory required for data: 886912032
I0403 18:00:06.986330  6456 layer_factory.hpp:77] Creating layer inception_4a/output
I0403 18:00:06.986351  6456 net.cpp:91] Creating Layer inception_4a/output
I0403 18:00:06.986368  6456 net.cpp:425] inception_4a/output <- inception_4a/1x1
I0403 18:00:06.986385  6456 net.cpp:425] inception_4a/output <- inception_4a/3x3
I0403 18:00:06.986402  6456 net.cpp:425] inception_4a/output <- inception_4a/5x5
I0403 18:00:06.986418  6456 net.cpp:425] inception_4a/output <- inception_4a/pool_proj
I0403 18:00:06.986436  6456 net.cpp:399] inception_4a/output -> inception_4a/output
I0403 18:00:06.986485  6456 net.cpp:141] Setting up inception_4a/output
I0403 18:00:06.986510  6456 net.cpp:148] Top shape: 24 512 14 14 (2408448)
I0403 18:00:06.986526  6456 net.cpp:156] Memory required for data: 896545824
I0403 18:00:06.986541  6456 layer_factory.hpp:77] Creating layer inception_4a/output_inception_4a/output_0_split
I0403 18:00:06.986558  6456 net.cpp:91] Creating Layer inception_4a/output_inception_4a/output_0_split
I0403 18:00:06.986575  6456 net.cpp:425] inception_4a/output_inception_4a/output_0_split <- inception_4a/output
I0403 18:00:06.986595  6456 net.cpp:399] inception_4a/output_inception_4a/output_0_split -> inception_4a/output_inception_4a/output_0_split_0
I0403 18:00:06.986618  6456 net.cpp:399] inception_4a/output_inception_4a/output_0_split -> inception_4a/output_inception_4a/output_0_split_1
I0403 18:00:06.986639  6456 net.cpp:399] inception_4a/output_inception_4a/output_0_split -> inception_4a/output_inception_4a/output_0_split_2
I0403 18:00:06.986663  6456 net.cpp:399] inception_4a/output_inception_4a/output_0_split -> inception_4a/output_inception_4a/output_0_split_3
I0403 18:00:06.986685  6456 net.cpp:399] inception_4a/output_inception_4a/output_0_split -> inception_4a/output_inception_4a/output_0_split_4
I0403 18:00:06.986783  6456 net.cpp:141] Setting up inception_4a/output_inception_4a/output_0_split
I0403 18:00:06.986809  6456 net.cpp:148] Top shape: 24 512 14 14 (2408448)
I0403 18:00:06.986825  6456 net.cpp:148] Top shape: 24 512 14 14 (2408448)
I0403 18:00:06.986842  6456 net.cpp:148] Top shape: 24 512 14 14 (2408448)
I0403 18:00:06.986858  6456 net.cpp:148] Top shape: 24 512 14 14 (2408448)
I0403 18:00:06.986874  6456 net.cpp:148] Top shape: 24 512 14 14 (2408448)
I0403 18:00:06.986889  6456 net.cpp:156] Memory required for data: 944714784
I0403 18:00:06.986904  6456 layer_factory.hpp:77] Creating layer loss1/ave_pool
I0403 18:00:06.986922  6456 net.cpp:91] Creating Layer loss1/ave_pool
I0403 18:00:06.986939  6456 net.cpp:425] loss1/ave_pool <- inception_4a/output_inception_4a/output_0_split_0
I0403 18:00:06.986960  6456 net.cpp:399] loss1/ave_pool -> loss1/ave_pool
I0403 18:00:06.987180  6456 net.cpp:141] Setting up loss1/ave_pool
I0403 18:00:06.987208  6456 net.cpp:148] Top shape: 24 512 4 4 (196608)
I0403 18:00:06.987223  6456 net.cpp:156] Memory required for data: 945501216
I0403 18:00:06.987238  6456 layer_factory.hpp:77] Creating layer loss1/conv
I0403 18:00:06.987263  6456 net.cpp:91] Creating Layer loss1/conv
I0403 18:00:06.987287  6456 net.cpp:425] loss1/conv <- loss1/ave_pool
I0403 18:00:06.987308  6456 net.cpp:399] loss1/conv -> loss1/conv
I0403 18:00:06.988801  6456 net.cpp:141] Setting up loss1/conv
I0403 18:00:06.988831  6456 net.cpp:148] Top shape: 24 128 4 4 (49152)
I0403 18:00:06.988862  6456 net.cpp:156] Memory required for data: 945697824
I0403 18:00:06.988881  6456 layer_factory.hpp:77] Creating layer loss1/relu_conv
I0403 18:00:06.988900  6456 net.cpp:91] Creating Layer loss1/relu_conv
I0403 18:00:06.988916  6456 net.cpp:425] loss1/relu_conv <- loss1/conv
I0403 18:00:06.988937  6456 net.cpp:386] loss1/relu_conv -> loss1/conv (in-place)
I0403 18:00:06.989243  6456 net.cpp:141] Setting up loss1/relu_conv
I0403 18:00:06.989275  6456 net.cpp:148] Top shape: 24 128 4 4 (49152)
I0403 18:00:06.989292  6456 net.cpp:156] Memory required for data: 945894432
I0403 18:00:06.989308  6456 layer_factory.hpp:77] Creating layer loss1/fc
I0403 18:00:06.989334  6456 net.cpp:91] Creating Layer loss1/fc
I0403 18:00:06.989362  6456 net.cpp:425] loss1/fc <- loss1/conv
I0403 18:00:06.989384  6456 net.cpp:399] loss1/fc -> loss1/fc
I0403 18:00:07.008594  6456 net.cpp:141] Setting up loss1/fc
I0403 18:00:07.008659  6456 net.cpp:148] Top shape: 24 1024 (24576)
I0403 18:00:07.008678  6456 net.cpp:156] Memory required for data: 945992736
I0403 18:00:07.008699  6456 layer_factory.hpp:77] Creating layer loss1/relu_fc
I0403 18:00:07.008720  6456 net.cpp:91] Creating Layer loss1/relu_fc
I0403 18:00:07.008739  6456 net.cpp:425] loss1/relu_fc <- loss1/fc
I0403 18:00:07.008759  6456 net.cpp:386] loss1/relu_fc -> loss1/fc (in-place)
I0403 18:00:07.009012  6456 net.cpp:141] Setting up loss1/relu_fc
I0403 18:00:07.009039  6456 net.cpp:148] Top shape: 24 1024 (24576)
I0403 18:00:07.009057  6456 net.cpp:156] Memory required for data: 946091040
I0403 18:00:07.009073  6456 layer_factory.hpp:77] Creating layer loss1/drop_fc
I0403 18:00:07.009104  6456 net.cpp:91] Creating Layer loss1/drop_fc
I0403 18:00:07.009122  6456 net.cpp:425] loss1/drop_fc <- loss1/fc
I0403 18:00:07.009145  6456 net.cpp:386] loss1/drop_fc -> loss1/fc (in-place)
I0403 18:00:07.009199  6456 net.cpp:141] Setting up loss1/drop_fc
I0403 18:00:07.009224  6456 net.cpp:148] Top shape: 24 1024 (24576)
I0403 18:00:07.009240  6456 net.cpp:156] Memory required for data: 946189344
I0403 18:00:07.009256  6456 layer_factory.hpp:77] Creating layer loss1/classifier_plantvillage
I0403 18:00:07.009301  6456 net.cpp:91] Creating Layer loss1/classifier_plantvillage
I0403 18:00:07.009321  6456 net.cpp:425] loss1/classifier_plantvillage <- loss1/fc
I0403 18:00:07.009341  6456 net.cpp:399] loss1/classifier_plantvillage -> loss1/classifier_plantvillage
I0403 18:00:07.010406  6456 net.cpp:141] Setting up loss1/classifier_plantvillage
I0403 18:00:07.010438  6456 net.cpp:148] Top shape: 24 38 (912)
I0403 18:00:07.010454  6456 net.cpp:156] Memory required for data: 946192992
I0403 18:00:07.010474  6456 layer_factory.hpp:77] Creating layer loss1/classifier_plantvillage_loss1/classifier_plantvillage_0_split
I0403 18:00:07.010493  6456 net.cpp:91] Creating Layer loss1/classifier_plantvillage_loss1/classifier_plantvillage_0_split
I0403 18:00:07.010509  6456 net.cpp:425] loss1/classifier_plantvillage_loss1/classifier_plantvillage_0_split <- loss1/classifier_plantvillage
I0403 18:00:07.010526  6456 net.cpp:399] loss1/classifier_plantvillage_loss1/classifier_plantvillage_0_split -> loss1/classifier_plantvillage_loss1/classifier_plantvillage_0_split_0
I0403 18:00:07.010550  6456 net.cpp:399] loss1/classifier_plantvillage_loss1/classifier_plantvillage_0_split -> loss1/classifier_plantvillage_loss1/classifier_plantvillage_0_split_1
I0403 18:00:07.010572  6456 net.cpp:399] loss1/classifier_plantvillage_loss1/classifier_plantvillage_0_split -> loss1/classifier_plantvillage_loss1/classifier_plantvillage_0_split_2
I0403 18:00:07.010642  6456 net.cpp:141] Setting up loss1/classifier_plantvillage_loss1/classifier_plantvillage_0_split
I0403 18:00:07.010666  6456 net.cpp:148] Top shape: 24 38 (912)
I0403 18:00:07.010684  6456 net.cpp:148] Top shape: 24 38 (912)
I0403 18:00:07.010699  6456 net.cpp:148] Top shape: 24 38 (912)
I0403 18:00:07.010713  6456 net.cpp:156] Memory required for data: 946203936
I0403 18:00:07.010728  6456 layer_factory.hpp:77] Creating layer inception_4b/1x1
I0403 18:00:07.010749  6456 net.cpp:91] Creating Layer inception_4b/1x1
I0403 18:00:07.010792  6456 net.cpp:425] inception_4b/1x1 <- inception_4a/output_inception_4a/output_0_split_1
I0403 18:00:07.010815  6456 net.cpp:399] inception_4b/1x1 -> inception_4b/1x1
I0403 18:00:07.012584  6456 net.cpp:141] Setting up inception_4b/1x1
I0403 18:00:07.012614  6456 net.cpp:148] Top shape: 24 160 14 14 (752640)
I0403 18:00:07.012629  6456 net.cpp:156] Memory required for data: 949214496
I0403 18:00:07.012650  6456 layer_factory.hpp:77] Creating layer inception_4b/relu_1x1
I0403 18:00:07.012667  6456 net.cpp:91] Creating Layer inception_4b/relu_1x1
I0403 18:00:07.012684  6456 net.cpp:425] inception_4b/relu_1x1 <- inception_4b/1x1
I0403 18:00:07.012704  6456 net.cpp:386] inception_4b/relu_1x1 -> inception_4b/1x1 (in-place)
I0403 18:00:07.012897  6456 net.cpp:141] Setting up inception_4b/relu_1x1
I0403 18:00:07.012923  6456 net.cpp:148] Top shape: 24 160 14 14 (752640)
I0403 18:00:07.012938  6456 net.cpp:156] Memory required for data: 952225056
I0403 18:00:07.012953  6456 layer_factory.hpp:77] Creating layer inception_4b/3x3_reduce
I0403 18:00:07.012975  6456 net.cpp:91] Creating Layer inception_4b/3x3_reduce
I0403 18:00:07.012994  6456 net.cpp:425] inception_4b/3x3_reduce <- inception_4a/output_inception_4a/output_0_split_2
I0403 18:00:07.013017  6456 net.cpp:399] inception_4b/3x3_reduce -> inception_4b/3x3_reduce
I0403 18:00:07.014421  6456 net.cpp:141] Setting up inception_4b/3x3_reduce
I0403 18:00:07.014451  6456 net.cpp:148] Top shape: 24 112 14 14 (526848)
I0403 18:00:07.014467  6456 net.cpp:156] Memory required for data: 954332448
I0403 18:00:07.014485  6456 layer_factory.hpp:77] Creating layer inception_4b/relu_3x3_reduce
I0403 18:00:07.014506  6456 net.cpp:91] Creating Layer inception_4b/relu_3x3_reduce
I0403 18:00:07.014523  6456 net.cpp:425] inception_4b/relu_3x3_reduce <- inception_4b/3x3_reduce
I0403 18:00:07.014542  6456 net.cpp:386] inception_4b/relu_3x3_reduce -> inception_4b/3x3_reduce (in-place)
I0403 18:00:07.014833  6456 net.cpp:141] Setting up inception_4b/relu_3x3_reduce
I0403 18:00:07.014861  6456 net.cpp:148] Top shape: 24 112 14 14 (526848)
I0403 18:00:07.014876  6456 net.cpp:156] Memory required for data: 956439840
I0403 18:00:07.014891  6456 layer_factory.hpp:77] Creating layer inception_4b/3x3
I0403 18:00:07.014914  6456 net.cpp:91] Creating Layer inception_4b/3x3
I0403 18:00:07.014932  6456 net.cpp:425] inception_4b/3x3 <- inception_4b/3x3_reduce
I0403 18:00:07.014955  6456 net.cpp:399] inception_4b/3x3 -> inception_4b/3x3
I0403 18:00:07.018167  6456 net.cpp:141] Setting up inception_4b/3x3
I0403 18:00:07.018201  6456 net.cpp:148] Top shape: 24 224 14 14 (1053696)
I0403 18:00:07.018219  6456 net.cpp:156] Memory required for data: 960654624
I0403 18:00:07.018239  6456 layer_factory.hpp:77] Creating layer inception_4b/relu_3x3
I0403 18:00:07.018260  6456 net.cpp:91] Creating Layer inception_4b/relu_3x3
I0403 18:00:07.018282  6456 net.cpp:425] inception_4b/relu_3x3 <- inception_4b/3x3
I0403 18:00:07.018302  6456 net.cpp:386] inception_4b/relu_3x3 -> inception_4b/3x3 (in-place)
I0403 18:00:07.018514  6456 net.cpp:141] Setting up inception_4b/relu_3x3
I0403 18:00:07.018553  6456 net.cpp:148] Top shape: 24 224 14 14 (1053696)
I0403 18:00:07.018569  6456 net.cpp:156] Memory required for data: 964869408
I0403 18:00:07.018585  6456 layer_factory.hpp:77] Creating layer inception_4b/5x5_reduce
I0403 18:00:07.018611  6456 net.cpp:91] Creating Layer inception_4b/5x5_reduce
I0403 18:00:07.018630  6456 net.cpp:425] inception_4b/5x5_reduce <- inception_4a/output_inception_4a/output_0_split_3
I0403 18:00:07.018653  6456 net.cpp:399] inception_4b/5x5_reduce -> inception_4b/5x5_reduce
I0403 18:00:07.019824  6456 net.cpp:141] Setting up inception_4b/5x5_reduce
I0403 18:00:07.019851  6456 net.cpp:148] Top shape: 24 24 14 14 (112896)
I0403 18:00:07.019867  6456 net.cpp:156] Memory required for data: 965320992
I0403 18:00:07.019886  6456 layer_factory.hpp:77] Creating layer inception_4b/relu_5x5_reduce
I0403 18:00:07.019907  6456 net.cpp:91] Creating Layer inception_4b/relu_5x5_reduce
I0403 18:00:07.019939  6456 net.cpp:425] inception_4b/relu_5x5_reduce <- inception_4b/5x5_reduce
I0403 18:00:07.019958  6456 net.cpp:386] inception_4b/relu_5x5_reduce -> inception_4b/5x5_reduce (in-place)
I0403 18:00:07.020148  6456 net.cpp:141] Setting up inception_4b/relu_5x5_reduce
I0403 18:00:07.020174  6456 net.cpp:148] Top shape: 24 24 14 14 (112896)
I0403 18:00:07.020189  6456 net.cpp:156] Memory required for data: 965772576
I0403 18:00:07.020203  6456 layer_factory.hpp:77] Creating layer inception_4b/5x5
I0403 18:00:07.020228  6456 net.cpp:91] Creating Layer inception_4b/5x5
I0403 18:00:07.020246  6456 net.cpp:425] inception_4b/5x5 <- inception_4b/5x5_reduce
I0403 18:00:07.020265  6456 net.cpp:399] inception_4b/5x5 -> inception_4b/5x5
I0403 18:00:07.021538  6456 net.cpp:141] Setting up inception_4b/5x5
I0403 18:00:07.021567  6456 net.cpp:148] Top shape: 24 64 14 14 (301056)
I0403 18:00:07.021584  6456 net.cpp:156] Memory required for data: 966976800
I0403 18:00:07.021602  6456 layer_factory.hpp:77] Creating layer inception_4b/relu_5x5
I0403 18:00:07.021621  6456 net.cpp:91] Creating Layer inception_4b/relu_5x5
I0403 18:00:07.021637  6456 net.cpp:425] inception_4b/relu_5x5 <- inception_4b/5x5
I0403 18:00:07.021657  6456 net.cpp:386] inception_4b/relu_5x5 -> inception_4b/5x5 (in-place)
I0403 18:00:07.021960  6456 net.cpp:141] Setting up inception_4b/relu_5x5
I0403 18:00:07.021987  6456 net.cpp:148] Top shape: 24 64 14 14 (301056)
I0403 18:00:07.022014  6456 net.cpp:156] Memory required for data: 968181024
I0403 18:00:07.022030  6456 layer_factory.hpp:77] Creating layer inception_4b/pool
I0403 18:00:07.022050  6456 net.cpp:91] Creating Layer inception_4b/pool
I0403 18:00:07.022068  6456 net.cpp:425] inception_4b/pool <- inception_4a/output_inception_4a/output_0_split_4
I0403 18:00:07.022089  6456 net.cpp:399] inception_4b/pool -> inception_4b/pool
I0403 18:00:07.022157  6456 net.cpp:141] Setting up inception_4b/pool
I0403 18:00:07.022182  6456 net.cpp:148] Top shape: 24 512 14 14 (2408448)
I0403 18:00:07.022197  6456 net.cpp:156] Memory required for data: 977814816
I0403 18:00:07.022213  6456 layer_factory.hpp:77] Creating layer inception_4b/pool_proj
I0403 18:00:07.022238  6456 net.cpp:91] Creating Layer inception_4b/pool_proj
I0403 18:00:07.022256  6456 net.cpp:425] inception_4b/pool_proj <- inception_4b/pool
I0403 18:00:07.022287  6456 net.cpp:399] inception_4b/pool_proj -> inception_4b/pool_proj
I0403 18:00:07.023545  6456 net.cpp:141] Setting up inception_4b/pool_proj
I0403 18:00:07.023574  6456 net.cpp:148] Top shape: 24 64 14 14 (301056)
I0403 18:00:07.023591  6456 net.cpp:156] Memory required for data: 979019040
I0403 18:00:07.023608  6456 layer_factory.hpp:77] Creating layer inception_4b/relu_pool_proj
I0403 18:00:07.023627  6456 net.cpp:91] Creating Layer inception_4b/relu_pool_proj
I0403 18:00:07.023644  6456 net.cpp:425] inception_4b/relu_pool_proj <- inception_4b/pool_proj
I0403 18:00:07.023664  6456 net.cpp:386] inception_4b/relu_pool_proj -> inception_4b/pool_proj (in-place)
I0403 18:00:07.023852  6456 net.cpp:141] Setting up inception_4b/relu_pool_proj
I0403 18:00:07.023879  6456 net.cpp:148] Top shape: 24 64 14 14 (301056)
I0403 18:00:07.023893  6456 net.cpp:156] Memory required for data: 980223264
I0403 18:00:07.023908  6456 layer_factory.hpp:77] Creating layer inception_4b/output
I0403 18:00:07.023928  6456 net.cpp:91] Creating Layer inception_4b/output
I0403 18:00:07.023946  6456 net.cpp:425] inception_4b/output <- inception_4b/1x1
I0403 18:00:07.023963  6456 net.cpp:425] inception_4b/output <- inception_4b/3x3
I0403 18:00:07.023979  6456 net.cpp:425] inception_4b/output <- inception_4b/5x5
I0403 18:00:07.023996  6456 net.cpp:425] inception_4b/output <- inception_4b/pool_proj
I0403 18:00:07.024013  6456 net.cpp:399] inception_4b/output -> inception_4b/output
I0403 18:00:07.024061  6456 net.cpp:141] Setting up inception_4b/output
I0403 18:00:07.024085  6456 net.cpp:148] Top shape: 24 512 14 14 (2408448)
I0403 18:00:07.024101  6456 net.cpp:156] Memory required for data: 989857056
I0403 18:00:07.024129  6456 layer_factory.hpp:77] Creating layer inception_4b/output_inception_4b/output_0_split
I0403 18:00:07.024160  6456 net.cpp:91] Creating Layer inception_4b/output_inception_4b/output_0_split
I0403 18:00:07.024178  6456 net.cpp:425] inception_4b/output_inception_4b/output_0_split <- inception_4b/output
I0403 18:00:07.024197  6456 net.cpp:399] inception_4b/output_inception_4b/output_0_split -> inception_4b/output_inception_4b/output_0_split_0
I0403 18:00:07.024221  6456 net.cpp:399] inception_4b/output_inception_4b/output_0_split -> inception_4b/output_inception_4b/output_0_split_1
I0403 18:00:07.024242  6456 net.cpp:399] inception_4b/output_inception_4b/output_0_split -> inception_4b/output_inception_4b/output_0_split_2
I0403 18:00:07.024265  6456 net.cpp:399] inception_4b/output_inception_4b/output_0_split -> inception_4b/output_inception_4b/output_0_split_3
I0403 18:00:07.024360  6456 net.cpp:141] Setting up inception_4b/output_inception_4b/output_0_split
I0403 18:00:07.024385  6456 net.cpp:148] Top shape: 24 512 14 14 (2408448)
I0403 18:00:07.024402  6456 net.cpp:148] Top shape: 24 512 14 14 (2408448)
I0403 18:00:07.024418  6456 net.cpp:148] Top shape: 24 512 14 14 (2408448)
I0403 18:00:07.024446  6456 net.cpp:148] Top shape: 24 512 14 14 (2408448)
I0403 18:00:07.024461  6456 net.cpp:156] Memory required for data: 1028392224
I0403 18:00:07.024476  6456 layer_factory.hpp:77] Creating layer inception_4c/1x1
I0403 18:00:07.024497  6456 net.cpp:91] Creating Layer inception_4c/1x1
I0403 18:00:07.024515  6456 net.cpp:425] inception_4c/1x1 <- inception_4b/output_inception_4b/output_0_split_0
I0403 18:00:07.024536  6456 net.cpp:399] inception_4c/1x1 -> inception_4c/1x1
I0403 18:00:07.026053  6456 net.cpp:141] Setting up inception_4c/1x1
I0403 18:00:07.026082  6456 net.cpp:148] Top shape: 24 128 14 14 (602112)
I0403 18:00:07.026103  6456 net.cpp:156] Memory required for data: 1030800672
I0403 18:00:07.026123  6456 layer_factory.hpp:77] Creating layer inception_4c/relu_1x1
I0403 18:00:07.026140  6456 net.cpp:91] Creating Layer inception_4c/relu_1x1
I0403 18:00:07.026156  6456 net.cpp:425] inception_4c/relu_1x1 <- inception_4c/1x1
I0403 18:00:07.026175  6456 net.cpp:386] inception_4c/relu_1x1 -> inception_4c/1x1 (in-place)
I0403 18:00:07.026366  6456 net.cpp:141] Setting up inception_4c/relu_1x1
I0403 18:00:07.026394  6456 net.cpp:148] Top shape: 24 128 14 14 (602112)
I0403 18:00:07.026410  6456 net.cpp:156] Memory required for data: 1033209120
I0403 18:00:07.026427  6456 layer_factory.hpp:77] Creating layer inception_4c/3x3_reduce
I0403 18:00:07.026449  6456 net.cpp:91] Creating Layer inception_4c/3x3_reduce
I0403 18:00:07.026468  6456 net.cpp:425] inception_4c/3x3_reduce <- inception_4b/output_inception_4b/output_0_split_1
I0403 18:00:07.026486  6456 net.cpp:399] inception_4c/3x3_reduce -> inception_4c/3x3_reduce
I0403 18:00:07.028560  6456 net.cpp:141] Setting up inception_4c/3x3_reduce
I0403 18:00:07.028589  6456 net.cpp:148] Top shape: 24 128 14 14 (602112)
I0403 18:00:07.028605  6456 net.cpp:156] Memory required for data: 1035617568
I0403 18:00:07.028623  6456 layer_factory.hpp:77] Creating layer inception_4c/relu_3x3_reduce
I0403 18:00:07.028641  6456 net.cpp:91] Creating Layer inception_4c/relu_3x3_reduce
I0403 18:00:07.028658  6456 net.cpp:425] inception_4c/relu_3x3_reduce <- inception_4c/3x3_reduce
I0403 18:00:07.028679  6456 net.cpp:386] inception_4c/relu_3x3_reduce -> inception_4c/3x3_reduce (in-place)
I0403 18:00:07.028977  6456 net.cpp:141] Setting up inception_4c/relu_3x3_reduce
I0403 18:00:07.029006  6456 net.cpp:148] Top shape: 24 128 14 14 (602112)
I0403 18:00:07.029021  6456 net.cpp:156] Memory required for data: 1038026016
I0403 18:00:07.029036  6456 layer_factory.hpp:77] Creating layer inception_4c/3x3
I0403 18:00:07.029059  6456 net.cpp:91] Creating Layer inception_4c/3x3
I0403 18:00:07.029078  6456 net.cpp:425] inception_4c/3x3 <- inception_4c/3x3_reduce
I0403 18:00:07.029099  6456 net.cpp:399] inception_4c/3x3 -> inception_4c/3x3
I0403 18:00:07.032893  6456 net.cpp:141] Setting up inception_4c/3x3
I0403 18:00:07.032938  6456 net.cpp:148] Top shape: 24 256 14 14 (1204224)
I0403 18:00:07.032955  6456 net.cpp:156] Memory required for data: 1042842912
I0403 18:00:07.032989  6456 layer_factory.hpp:77] Creating layer inception_4c/relu_3x3
I0403 18:00:07.033010  6456 net.cpp:91] Creating Layer inception_4c/relu_3x3
I0403 18:00:07.033040  6456 net.cpp:425] inception_4c/relu_3x3 <- inception_4c/3x3
I0403 18:00:07.033059  6456 net.cpp:386] inception_4c/relu_3x3 -> inception_4c/3x3 (in-place)
I0403 18:00:07.033252  6456 net.cpp:141] Setting up inception_4c/relu_3x3
I0403 18:00:07.033283  6456 net.cpp:148] Top shape: 24 256 14 14 (1204224)
I0403 18:00:07.033299  6456 net.cpp:156] Memory required for data: 1047659808
I0403 18:00:07.033323  6456 layer_factory.hpp:77] Creating layer inception_4c/5x5_reduce
I0403 18:00:07.033345  6456 net.cpp:91] Creating Layer inception_4c/5x5_reduce
I0403 18:00:07.033376  6456 net.cpp:425] inception_4c/5x5_reduce <- inception_4b/output_inception_4b/output_0_split_2
I0403 18:00:07.033401  6456 net.cpp:399] inception_4c/5x5_reduce -> inception_4c/5x5_reduce
I0403 18:00:07.034564  6456 net.cpp:141] Setting up inception_4c/5x5_reduce
I0403 18:00:07.034595  6456 net.cpp:148] Top shape: 24 24 14 14 (112896)
I0403 18:00:07.034610  6456 net.cpp:156] Memory required for data: 1048111392
I0403 18:00:07.034629  6456 layer_factory.hpp:77] Creating layer inception_4c/relu_5x5_reduce
I0403 18:00:07.034651  6456 net.cpp:91] Creating Layer inception_4c/relu_5x5_reduce
I0403 18:00:07.034668  6456 net.cpp:425] inception_4c/relu_5x5_reduce <- inception_4c/5x5_reduce
I0403 18:00:07.034687  6456 net.cpp:386] inception_4c/relu_5x5_reduce -> inception_4c/5x5_reduce (in-place)
I0403 18:00:07.034879  6456 net.cpp:141] Setting up inception_4c/relu_5x5_reduce
I0403 18:00:07.034905  6456 net.cpp:148] Top shape: 24 24 14 14 (112896)
I0403 18:00:07.034920  6456 net.cpp:156] Memory required for data: 1048562976
I0403 18:00:07.034937  6456 layer_factory.hpp:77] Creating layer inception_4c/5x5
I0403 18:00:07.034960  6456 net.cpp:91] Creating Layer inception_4c/5x5
I0403 18:00:07.034977  6456 net.cpp:425] inception_4c/5x5 <- inception_4c/5x5_reduce
I0403 18:00:07.035001  6456 net.cpp:399] inception_4c/5x5 -> inception_4c/5x5
I0403 18:00:07.036370  6456 net.cpp:141] Setting up inception_4c/5x5
I0403 18:00:07.036399  6456 net.cpp:148] Top shape: 24 64 14 14 (301056)
I0403 18:00:07.036415  6456 net.cpp:156] Memory required for data: 1049767200
I0403 18:00:07.036435  6456 layer_factory.hpp:77] Creating layer inception_4c/relu_5x5
I0403 18:00:07.036456  6456 net.cpp:91] Creating Layer inception_4c/relu_5x5
I0403 18:00:07.036473  6456 net.cpp:425] inception_4c/relu_5x5 <- inception_4c/5x5
I0403 18:00:07.036490  6456 net.cpp:386] inception_4c/relu_5x5 -> inception_4c/5x5 (in-place)
I0403 18:00:07.036790  6456 net.cpp:141] Setting up inception_4c/relu_5x5
I0403 18:00:07.036818  6456 net.cpp:148] Top shape: 24 64 14 14 (301056)
I0403 18:00:07.036834  6456 net.cpp:156] Memory required for data: 1050971424
I0403 18:00:07.036849  6456 layer_factory.hpp:77] Creating layer inception_4c/pool
I0403 18:00:07.036871  6456 net.cpp:91] Creating Layer inception_4c/pool
I0403 18:00:07.036888  6456 net.cpp:425] inception_4c/pool <- inception_4b/output_inception_4b/output_0_split_3
I0403 18:00:07.036906  6456 net.cpp:399] inception_4c/pool -> inception_4c/pool
I0403 18:00:07.036979  6456 net.cpp:141] Setting up inception_4c/pool
I0403 18:00:07.037004  6456 net.cpp:148] Top shape: 24 512 14 14 (2408448)
I0403 18:00:07.037019  6456 net.cpp:156] Memory required for data: 1060605216
I0403 18:00:07.037035  6456 layer_factory.hpp:77] Creating layer inception_4c/pool_proj
I0403 18:00:07.037057  6456 net.cpp:91] Creating Layer inception_4c/pool_proj
I0403 18:00:07.037075  6456 net.cpp:425] inception_4c/pool_proj <- inception_4c/pool
I0403 18:00:07.037096  6456 net.cpp:399] inception_4c/pool_proj -> inception_4c/pool_proj
I0403 18:00:07.038384  6456 net.cpp:141] Setting up inception_4c/pool_proj
I0403 18:00:07.038414  6456 net.cpp:148] Top shape: 24 64 14 14 (301056)
I0403 18:00:07.038444  6456 net.cpp:156] Memory required for data: 1061809440
I0403 18:00:07.038465  6456 layer_factory.hpp:77] Creating layer inception_4c/relu_pool_proj
I0403 18:00:07.038483  6456 net.cpp:91] Creating Layer inception_4c/relu_pool_proj
I0403 18:00:07.038499  6456 net.cpp:425] inception_4c/relu_pool_proj <- inception_4c/pool_proj
I0403 18:00:07.038522  6456 net.cpp:386] inception_4c/relu_pool_proj -> inception_4c/pool_proj (in-place)
I0403 18:00:07.038729  6456 net.cpp:141] Setting up inception_4c/relu_pool_proj
I0403 18:00:07.038755  6456 net.cpp:148] Top shape: 24 64 14 14 (301056)
I0403 18:00:07.038771  6456 net.cpp:156] Memory required for data: 1063013664
I0403 18:00:07.038786  6456 layer_factory.hpp:77] Creating layer inception_4c/output
I0403 18:00:07.038808  6456 net.cpp:91] Creating Layer inception_4c/output
I0403 18:00:07.038825  6456 net.cpp:425] inception_4c/output <- inception_4c/1x1
I0403 18:00:07.038843  6456 net.cpp:425] inception_4c/output <- inception_4c/3x3
I0403 18:00:07.038859  6456 net.cpp:425] inception_4c/output <- inception_4c/5x5
I0403 18:00:07.038877  6456 net.cpp:425] inception_4c/output <- inception_4c/pool_proj
I0403 18:00:07.038893  6456 net.cpp:399] inception_4c/output -> inception_4c/output
I0403 18:00:07.038944  6456 net.cpp:141] Setting up inception_4c/output
I0403 18:00:07.038970  6456 net.cpp:148] Top shape: 24 512 14 14 (2408448)
I0403 18:00:07.038985  6456 net.cpp:156] Memory required for data: 1072647456
I0403 18:00:07.039001  6456 layer_factory.hpp:77] Creating layer inception_4c/output_inception_4c/output_0_split
I0403 18:00:07.039032  6456 net.cpp:91] Creating Layer inception_4c/output_inception_4c/output_0_split
I0403 18:00:07.039047  6456 net.cpp:425] inception_4c/output_inception_4c/output_0_split <- inception_4c/output
I0403 18:00:07.039068  6456 net.cpp:399] inception_4c/output_inception_4c/output_0_split -> inception_4c/output_inception_4c/output_0_split_0
I0403 18:00:07.039090  6456 net.cpp:399] inception_4c/output_inception_4c/output_0_split -> inception_4c/output_inception_4c/output_0_split_1
I0403 18:00:07.039111  6456 net.cpp:399] inception_4c/output_inception_4c/output_0_split -> inception_4c/output_inception_4c/output_0_split_2
I0403 18:00:07.039132  6456 net.cpp:399] inception_4c/output_inception_4c/output_0_split -> inception_4c/output_inception_4c/output_0_split_3
I0403 18:00:07.039219  6456 net.cpp:141] Setting up inception_4c/output_inception_4c/output_0_split
I0403 18:00:07.039244  6456 net.cpp:148] Top shape: 24 512 14 14 (2408448)
I0403 18:00:07.039260  6456 net.cpp:148] Top shape: 24 512 14 14 (2408448)
I0403 18:00:07.039283  6456 net.cpp:148] Top shape: 24 512 14 14 (2408448)
I0403 18:00:07.039299  6456 net.cpp:148] Top shape: 24 512 14 14 (2408448)
I0403 18:00:07.039314  6456 net.cpp:156] Memory required for data: 1111182624
I0403 18:00:07.039330  6456 layer_factory.hpp:77] Creating layer inception_4d/1x1
I0403 18:00:07.039352  6456 net.cpp:91] Creating Layer inception_4d/1x1
I0403 18:00:07.039371  6456 net.cpp:425] inception_4d/1x1 <- inception_4c/output_inception_4c/output_0_split_0
I0403 18:00:07.039394  6456 net.cpp:399] inception_4d/1x1 -> inception_4d/1x1
I0403 18:00:07.040892  6456 net.cpp:141] Setting up inception_4d/1x1
I0403 18:00:07.040925  6456 net.cpp:148] Top shape: 24 112 14 14 (526848)
I0403 18:00:07.040942  6456 net.cpp:156] Memory required for data: 1113290016
I0403 18:00:07.040961  6456 layer_factory.hpp:77] Creating layer inception_4d/relu_1x1
I0403 18:00:07.040980  6456 net.cpp:91] Creating Layer inception_4d/relu_1x1
I0403 18:00:07.040998  6456 net.cpp:425] inception_4d/relu_1x1 <- inception_4d/1x1
I0403 18:00:07.041016  6456 net.cpp:386] inception_4d/relu_1x1 -> inception_4d/1x1 (in-place)
I0403 18:00:07.041220  6456 net.cpp:141] Setting up inception_4d/relu_1x1
I0403 18:00:07.041246  6456 net.cpp:148] Top shape: 24 112 14 14 (526848)
I0403 18:00:07.041263  6456 net.cpp:156] Memory required for data: 1115397408
I0403 18:00:07.041285  6456 layer_factory.hpp:77] Creating layer inception_4d/3x3_reduce
I0403 18:00:07.041326  6456 net.cpp:91] Creating Layer inception_4d/3x3_reduce
I0403 18:00:07.041345  6456 net.cpp:425] inception_4d/3x3_reduce <- inception_4c/output_inception_4c/output_0_split_1
I0403 18:00:07.041380  6456 net.cpp:399] inception_4d/3x3_reduce -> inception_4d/3x3_reduce
I0403 18:00:07.042970  6456 net.cpp:141] Setting up inception_4d/3x3_reduce
I0403 18:00:07.042999  6456 net.cpp:148] Top shape: 24 144 14 14 (677376)
I0403 18:00:07.043016  6456 net.cpp:156] Memory required for data: 1118106912
I0403 18:00:07.043036  6456 layer_factory.hpp:77] Creating layer inception_4d/relu_3x3_reduce
I0403 18:00:07.043058  6456 net.cpp:91] Creating Layer inception_4d/relu_3x3_reduce
I0403 18:00:07.043076  6456 net.cpp:425] inception_4d/relu_3x3_reduce <- inception_4d/3x3_reduce
I0403 18:00:07.043095  6456 net.cpp:386] inception_4d/relu_3x3_reduce -> inception_4d/3x3_reduce (in-place)
I0403 18:00:07.043429  6456 net.cpp:141] Setting up inception_4d/relu_3x3_reduce
I0403 18:00:07.043458  6456 net.cpp:148] Top shape: 24 144 14 14 (677376)
I0403 18:00:07.043475  6456 net.cpp:156] Memory required for data: 1120816416
I0403 18:00:07.043491  6456 layer_factory.hpp:77] Creating layer inception_4d/3x3
I0403 18:00:07.043516  6456 net.cpp:91] Creating Layer inception_4d/3x3
I0403 18:00:07.043535  6456 net.cpp:425] inception_4d/3x3 <- inception_4d/3x3_reduce
I0403 18:00:07.043556  6456 net.cpp:399] inception_4d/3x3 -> inception_4d/3x3
I0403 18:00:07.048094  6456 net.cpp:141] Setting up inception_4d/3x3
I0403 18:00:07.048127  6456 net.cpp:148] Top shape: 24 288 14 14 (1354752)
I0403 18:00:07.048144  6456 net.cpp:156] Memory required for data: 1126235424
I0403 18:00:07.048163  6456 layer_factory.hpp:77] Creating layer inception_4d/relu_3x3
I0403 18:00:07.048182  6456 net.cpp:91] Creating Layer inception_4d/relu_3x3
I0403 18:00:07.048198  6456 net.cpp:425] inception_4d/relu_3x3 <- inception_4d/3x3
I0403 18:00:07.048218  6456 net.cpp:386] inception_4d/relu_3x3 -> inception_4d/3x3 (in-place)
I0403 18:00:07.048418  6456 net.cpp:141] Setting up inception_4d/relu_3x3
I0403 18:00:07.048444  6456 net.cpp:148] Top shape: 24 288 14 14 (1354752)
I0403 18:00:07.048460  6456 net.cpp:156] Memory required for data: 1131654432
I0403 18:00:07.048475  6456 layer_factory.hpp:77] Creating layer inception_4d/5x5_reduce
I0403 18:00:07.048498  6456 net.cpp:91] Creating Layer inception_4d/5x5_reduce
I0403 18:00:07.048517  6456 net.cpp:425] inception_4d/5x5_reduce <- inception_4c/output_inception_4c/output_0_split_2
I0403 18:00:07.048540  6456 net.cpp:399] inception_4d/5x5_reduce -> inception_4d/5x5_reduce
I0403 18:00:07.049793  6456 net.cpp:141] Setting up inception_4d/5x5_reduce
I0403 18:00:07.049825  6456 net.cpp:148] Top shape: 24 32 14 14 (150528)
I0403 18:00:07.049841  6456 net.cpp:156] Memory required for data: 1132256544
I0403 18:00:07.049860  6456 layer_factory.hpp:77] Creating layer inception_4d/relu_5x5_reduce
I0403 18:00:07.049880  6456 net.cpp:91] Creating Layer inception_4d/relu_5x5_reduce
I0403 18:00:07.049896  6456 net.cpp:425] inception_4d/relu_5x5_reduce <- inception_4d/5x5_reduce
I0403 18:00:07.049917  6456 net.cpp:386] inception_4d/relu_5x5_reduce -> inception_4d/5x5_reduce (in-place)
I0403 18:00:07.050130  6456 net.cpp:141] Setting up inception_4d/relu_5x5_reduce
I0403 18:00:07.050156  6456 net.cpp:148] Top shape: 24 32 14 14 (150528)
I0403 18:00:07.050171  6456 net.cpp:156] Memory required for data: 1132858656
I0403 18:00:07.050186  6456 layer_factory.hpp:77] Creating layer inception_4d/5x5
I0403 18:00:07.050209  6456 net.cpp:91] Creating Layer inception_4d/5x5
I0403 18:00:07.050227  6456 net.cpp:425] inception_4d/5x5 <- inception_4d/5x5_reduce
I0403 18:00:07.050248  6456 net.cpp:399] inception_4d/5x5 -> inception_4d/5x5
I0403 18:00:07.051771  6456 net.cpp:141] Setting up inception_4d/5x5
I0403 18:00:07.051800  6456 net.cpp:148] Top shape: 24 64 14 14 (301056)
I0403 18:00:07.051816  6456 net.cpp:156] Memory required for data: 1134062880
I0403 18:00:07.051837  6456 layer_factory.hpp:77] Creating layer inception_4d/relu_5x5
I0403 18:00:07.051872  6456 net.cpp:91] Creating Layer inception_4d/relu_5x5
I0403 18:00:07.051903  6456 net.cpp:425] inception_4d/relu_5x5 <- inception_4d/5x5
I0403 18:00:07.051923  6456 net.cpp:386] inception_4d/relu_5x5 -> inception_4d/5x5 (in-place)
I0403 18:00:07.052258  6456 net.cpp:141] Setting up inception_4d/relu_5x5
I0403 18:00:07.052297  6456 net.cpp:148] Top shape: 24 64 14 14 (301056)
I0403 18:00:07.052315  6456 net.cpp:156] Memory required for data: 1135267104
I0403 18:00:07.052331  6456 layer_factory.hpp:77] Creating layer inception_4d/pool
I0403 18:00:07.052353  6456 net.cpp:91] Creating Layer inception_4d/pool
I0403 18:00:07.052371  6456 net.cpp:425] inception_4d/pool <- inception_4c/output_inception_4c/output_0_split_3
I0403 18:00:07.052389  6456 net.cpp:399] inception_4d/pool -> inception_4d/pool
I0403 18:00:07.052460  6456 net.cpp:141] Setting up inception_4d/pool
I0403 18:00:07.052490  6456 net.cpp:148] Top shape: 24 512 14 14 (2408448)
I0403 18:00:07.052505  6456 net.cpp:156] Memory required for data: 1144900896
I0403 18:00:07.052520  6456 layer_factory.hpp:77] Creating layer inception_4d/pool_proj
I0403 18:00:07.052542  6456 net.cpp:91] Creating Layer inception_4d/pool_proj
I0403 18:00:07.052559  6456 net.cpp:425] inception_4d/pool_proj <- inception_4d/pool
I0403 18:00:07.052582  6456 net.cpp:399] inception_4d/pool_proj -> inception_4d/pool_proj
I0403 18:00:07.054486  6456 net.cpp:141] Setting up inception_4d/pool_proj
I0403 18:00:07.054519  6456 net.cpp:148] Top shape: 24 64 14 14 (301056)
I0403 18:00:07.054538  6456 net.cpp:156] Memory required for data: 1146105120
I0403 18:00:07.054558  6456 layer_factory.hpp:77] Creating layer inception_4d/relu_pool_proj
I0403 18:00:07.054576  6456 net.cpp:91] Creating Layer inception_4d/relu_pool_proj
I0403 18:00:07.054594  6456 net.cpp:425] inception_4d/relu_pool_proj <- inception_4d/pool_proj
I0403 18:00:07.054615  6456 net.cpp:386] inception_4d/relu_pool_proj -> inception_4d/pool_proj (in-place)
I0403 18:00:07.054814  6456 net.cpp:141] Setting up inception_4d/relu_pool_proj
I0403 18:00:07.054841  6456 net.cpp:148] Top shape: 24 64 14 14 (301056)
I0403 18:00:07.054857  6456 net.cpp:156] Memory required for data: 1147309344
I0403 18:00:07.054872  6456 layer_factory.hpp:77] Creating layer inception_4d/output
I0403 18:00:07.054891  6456 net.cpp:91] Creating Layer inception_4d/output
I0403 18:00:07.054908  6456 net.cpp:425] inception_4d/output <- inception_4d/1x1
I0403 18:00:07.054924  6456 net.cpp:425] inception_4d/output <- inception_4d/3x3
I0403 18:00:07.054940  6456 net.cpp:425] inception_4d/output <- inception_4d/5x5
I0403 18:00:07.054957  6456 net.cpp:425] inception_4d/output <- inception_4d/pool_proj
I0403 18:00:07.054977  6456 net.cpp:399] inception_4d/output -> inception_4d/output
I0403 18:00:07.055030  6456 net.cpp:141] Setting up inception_4d/output
I0403 18:00:07.055055  6456 net.cpp:148] Top shape: 24 528 14 14 (2483712)
I0403 18:00:07.055070  6456 net.cpp:156] Memory required for data: 1157244192
I0403 18:00:07.055085  6456 layer_factory.hpp:77] Creating layer inception_4d/output_inception_4d/output_0_split
I0403 18:00:07.055105  6456 net.cpp:91] Creating Layer inception_4d/output_inception_4d/output_0_split
I0403 18:00:07.055121  6456 net.cpp:425] inception_4d/output_inception_4d/output_0_split <- inception_4d/output
I0403 18:00:07.055143  6456 net.cpp:399] inception_4d/output_inception_4d/output_0_split -> inception_4d/output_inception_4d/output_0_split_0
I0403 18:00:07.055167  6456 net.cpp:399] inception_4d/output_inception_4d/output_0_split -> inception_4d/output_inception_4d/output_0_split_1
I0403 18:00:07.055189  6456 net.cpp:399] inception_4d/output_inception_4d/output_0_split -> inception_4d/output_inception_4d/output_0_split_2
I0403 18:00:07.055210  6456 net.cpp:399] inception_4d/output_inception_4d/output_0_split -> inception_4d/output_inception_4d/output_0_split_3
I0403 18:00:07.055232  6456 net.cpp:399] inception_4d/output_inception_4d/output_0_split -> inception_4d/output_inception_4d/output_0_split_4
I0403 18:00:07.055347  6456 net.cpp:141] Setting up inception_4d/output_inception_4d/output_0_split
I0403 18:00:07.055388  6456 net.cpp:148] Top shape: 24 528 14 14 (2483712)
I0403 18:00:07.055408  6456 net.cpp:148] Top shape: 24 528 14 14 (2483712)
I0403 18:00:07.055424  6456 net.cpp:148] Top shape: 24 528 14 14 (2483712)
I0403 18:00:07.055443  6456 net.cpp:148] Top shape: 24 528 14 14 (2483712)
I0403 18:00:07.055459  6456 net.cpp:148] Top shape: 24 528 14 14 (2483712)
I0403 18:00:07.055474  6456 net.cpp:156] Memory required for data: 1206918432
I0403 18:00:07.055488  6456 layer_factory.hpp:77] Creating layer loss2/ave_pool
I0403 18:00:07.055507  6456 net.cpp:91] Creating Layer loss2/ave_pool
I0403 18:00:07.055524  6456 net.cpp:425] loss2/ave_pool <- inception_4d/output_inception_4d/output_0_split_0
I0403 18:00:07.055543  6456 net.cpp:399] loss2/ave_pool -> loss2/ave_pool
I0403 18:00:07.055881  6456 net.cpp:141] Setting up loss2/ave_pool
I0403 18:00:07.055912  6456 net.cpp:148] Top shape: 24 528 4 4 (202752)
I0403 18:00:07.055927  6456 net.cpp:156] Memory required for data: 1207729440
I0403 18:00:07.055943  6456 layer_factory.hpp:77] Creating layer loss2/conv
I0403 18:00:07.055966  6456 net.cpp:91] Creating Layer loss2/conv
I0403 18:00:07.055985  6456 net.cpp:425] loss2/conv <- loss2/ave_pool
I0403 18:00:07.056005  6456 net.cpp:399] loss2/conv -> loss2/conv
I0403 18:00:07.058027  6456 net.cpp:141] Setting up loss2/conv
I0403 18:00:07.058056  6456 net.cpp:148] Top shape: 24 128 4 4 (49152)
I0403 18:00:07.058073  6456 net.cpp:156] Memory required for data: 1207926048
I0403 18:00:07.058092  6456 layer_factory.hpp:77] Creating layer loss2/relu_conv
I0403 18:00:07.058114  6456 net.cpp:91] Creating Layer loss2/relu_conv
I0403 18:00:07.058131  6456 net.cpp:425] loss2/relu_conv <- loss2/conv
I0403 18:00:07.058150  6456 net.cpp:386] loss2/relu_conv -> loss2/conv (in-place)
I0403 18:00:07.058459  6456 net.cpp:141] Setting up loss2/relu_conv
I0403 18:00:07.058486  6456 net.cpp:148] Top shape: 24 128 4 4 (49152)
I0403 18:00:07.058502  6456 net.cpp:156] Memory required for data: 1208122656
I0403 18:00:07.058518  6456 layer_factory.hpp:77] Creating layer loss2/fc
I0403 18:00:07.058542  6456 net.cpp:91] Creating Layer loss2/fc
I0403 18:00:07.058559  6456 net.cpp:425] loss2/fc <- loss2/conv
I0403 18:00:07.058579  6456 net.cpp:399] loss2/fc -> loss2/fc
I0403 18:00:07.077491  6456 net.cpp:141] Setting up loss2/fc
I0403 18:00:07.077560  6456 net.cpp:148] Top shape: 24 1024 (24576)
I0403 18:00:07.077577  6456 net.cpp:156] Memory required for data: 1208220960
I0403 18:00:07.077599  6456 layer_factory.hpp:77] Creating layer loss2/relu_fc
I0403 18:00:07.077620  6456 net.cpp:91] Creating Layer loss2/relu_fc
I0403 18:00:07.077638  6456 net.cpp:425] loss2/relu_fc <- loss2/fc
I0403 18:00:07.077661  6456 net.cpp:386] loss2/relu_fc -> loss2/fc (in-place)
I0403 18:00:07.078035  6456 net.cpp:141] Setting up loss2/relu_fc
I0403 18:00:07.078063  6456 net.cpp:148] Top shape: 24 1024 (24576)
I0403 18:00:07.078078  6456 net.cpp:156] Memory required for data: 1208319264
I0403 18:00:07.078094  6456 layer_factory.hpp:77] Creating layer loss2/drop_fc
I0403 18:00:07.078115  6456 net.cpp:91] Creating Layer loss2/drop_fc
I0403 18:00:07.078132  6456 net.cpp:425] loss2/drop_fc <- loss2/fc
I0403 18:00:07.078153  6456 net.cpp:386] loss2/drop_fc -> loss2/fc (in-place)
I0403 18:00:07.078207  6456 net.cpp:141] Setting up loss2/drop_fc
I0403 18:00:07.078234  6456 net.cpp:148] Top shape: 24 1024 (24576)
I0403 18:00:07.078249  6456 net.cpp:156] Memory required for data: 1208417568
I0403 18:00:07.078265  6456 layer_factory.hpp:77] Creating layer loss2/classifier_plantvillage
I0403 18:00:07.078290  6456 net.cpp:91] Creating Layer loss2/classifier_plantvillage
I0403 18:00:07.078308  6456 net.cpp:425] loss2/classifier_plantvillage <- loss2/fc
I0403 18:00:07.078330  6456 net.cpp:399] loss2/classifier_plantvillage -> loss2/classifier_plantvillage
I0403 18:00:07.078773  6456 net.cpp:141] Setting up loss2/classifier_plantvillage
I0403 18:00:07.078800  6456 net.cpp:148] Top shape: 24 38 (912)
I0403 18:00:07.078842  6456 net.cpp:156] Memory required for data: 1208421216
I0403 18:00:07.078865  6456 layer_factory.hpp:77] Creating layer loss2/classifier_plantvillage_loss2/classifier_plantvillage_0_split
I0403 18:00:07.078886  6456 net.cpp:91] Creating Layer loss2/classifier_plantvillage_loss2/classifier_plantvillage_0_split
I0403 18:00:07.078904  6456 net.cpp:425] loss2/classifier_plantvillage_loss2/classifier_plantvillage_0_split <- loss2/classifier_plantvillage
I0403 18:00:07.078923  6456 net.cpp:399] loss2/classifier_plantvillage_loss2/classifier_plantvillage_0_split -> loss2/classifier_plantvillage_loss2/classifier_plantvillage_0_split_0
I0403 18:00:07.078945  6456 net.cpp:399] loss2/classifier_plantvillage_loss2/classifier_plantvillage_0_split -> loss2/classifier_plantvillage_loss2/classifier_plantvillage_0_split_1
I0403 18:00:07.078969  6456 net.cpp:399] loss2/classifier_plantvillage_loss2/classifier_plantvillage_0_split -> loss2/classifier_plantvillage_loss2/classifier_plantvillage_0_split_2
I0403 18:00:07.079053  6456 net.cpp:141] Setting up loss2/classifier_plantvillage_loss2/classifier_plantvillage_0_split
I0403 18:00:07.079078  6456 net.cpp:148] Top shape: 24 38 (912)
I0403 18:00:07.079097  6456 net.cpp:148] Top shape: 24 38 (912)
I0403 18:00:07.079113  6456 net.cpp:148] Top shape: 24 38 (912)
I0403 18:00:07.079128  6456 net.cpp:156] Memory required for data: 1208432160
I0403 18:00:07.079144  6456 layer_factory.hpp:77] Creating layer inception_4e/1x1
I0403 18:00:07.079167  6456 net.cpp:91] Creating Layer inception_4e/1x1
I0403 18:00:07.079187  6456 net.cpp:425] inception_4e/1x1 <- inception_4d/output_inception_4d/output_0_split_1
I0403 18:00:07.079208  6456 net.cpp:399] inception_4e/1x1 -> inception_4e/1x1
I0403 18:00:07.081197  6456 net.cpp:141] Setting up inception_4e/1x1
I0403 18:00:07.081228  6456 net.cpp:148] Top shape: 24 256 14 14 (1204224)
I0403 18:00:07.081244  6456 net.cpp:156] Memory required for data: 1213249056
I0403 18:00:07.081264  6456 layer_factory.hpp:77] Creating layer inception_4e/relu_1x1
I0403 18:00:07.081292  6456 net.cpp:91] Creating Layer inception_4e/relu_1x1
I0403 18:00:07.081310  6456 net.cpp:425] inception_4e/relu_1x1 <- inception_4e/1x1
I0403 18:00:07.081329  6456 net.cpp:386] inception_4e/relu_1x1 -> inception_4e/1x1 (in-place)
I0403 18:00:07.081650  6456 net.cpp:141] Setting up inception_4e/relu_1x1
I0403 18:00:07.081677  6456 net.cpp:148] Top shape: 24 256 14 14 (1204224)
I0403 18:00:07.081693  6456 net.cpp:156] Memory required for data: 1218065952
I0403 18:00:07.081709  6456 layer_factory.hpp:77] Creating layer inception_4e/3x3_reduce
I0403 18:00:07.081733  6456 net.cpp:91] Creating Layer inception_4e/3x3_reduce
I0403 18:00:07.081751  6456 net.cpp:425] inception_4e/3x3_reduce <- inception_4d/output_inception_4d/output_0_split_2
I0403 18:00:07.081773  6456 net.cpp:399] inception_4e/3x3_reduce -> inception_4e/3x3_reduce
I0403 18:00:07.084100  6456 net.cpp:141] Setting up inception_4e/3x3_reduce
I0403 18:00:07.084131  6456 net.cpp:148] Top shape: 24 160 14 14 (752640)
I0403 18:00:07.084147  6456 net.cpp:156] Memory required for data: 1221076512
I0403 18:00:07.084168  6456 layer_factory.hpp:77] Creating layer inception_4e/relu_3x3_reduce
I0403 18:00:07.084190  6456 net.cpp:91] Creating Layer inception_4e/relu_3x3_reduce
I0403 18:00:07.084208  6456 net.cpp:425] inception_4e/relu_3x3_reduce <- inception_4e/3x3_reduce
I0403 18:00:07.084228  6456 net.cpp:386] inception_4e/relu_3x3_reduce -> inception_4e/3x3_reduce (in-place)
I0403 18:00:07.084432  6456 net.cpp:141] Setting up inception_4e/relu_3x3_reduce
I0403 18:00:07.084462  6456 net.cpp:148] Top shape: 24 160 14 14 (752640)
I0403 18:00:07.084478  6456 net.cpp:156] Memory required for data: 1224087072
I0403 18:00:07.084496  6456 layer_factory.hpp:77] Creating layer inception_4e/3x3
I0403 18:00:07.084517  6456 net.cpp:91] Creating Layer inception_4e/3x3
I0403 18:00:07.084533  6456 net.cpp:425] inception_4e/3x3 <- inception_4e/3x3_reduce
I0403 18:00:07.084556  6456 net.cpp:399] inception_4e/3x3 -> inception_4e/3x3
I0403 18:00:07.089992  6456 net.cpp:141] Setting up inception_4e/3x3
I0403 18:00:07.090039  6456 net.cpp:148] Top shape: 24 320 14 14 (1505280)
I0403 18:00:07.090057  6456 net.cpp:156] Memory required for data: 1230108192
I0403 18:00:07.090077  6456 layer_factory.hpp:77] Creating layer inception_4e/relu_3x3
I0403 18:00:07.090096  6456 net.cpp:91] Creating Layer inception_4e/relu_3x3
I0403 18:00:07.090114  6456 net.cpp:425] inception_4e/relu_3x3 <- inception_4e/3x3
I0403 18:00:07.090134  6456 net.cpp:386] inception_4e/relu_3x3 -> inception_4e/3x3 (in-place)
I0403 18:00:07.090461  6456 net.cpp:141] Setting up inception_4e/relu_3x3
I0403 18:00:07.090492  6456 net.cpp:148] Top shape: 24 320 14 14 (1505280)
I0403 18:00:07.090508  6456 net.cpp:156] Memory required for data: 1236129312
I0403 18:00:07.090524  6456 layer_factory.hpp:77] Creating layer inception_4e/5x5_reduce
I0403 18:00:07.090549  6456 net.cpp:91] Creating Layer inception_4e/5x5_reduce
I0403 18:00:07.090569  6456 net.cpp:425] inception_4e/5x5_reduce <- inception_4d/output_inception_4d/output_0_split_3
I0403 18:00:07.090589  6456 net.cpp:399] inception_4e/5x5_reduce -> inception_4e/5x5_reduce
I0403 18:00:07.091749  6456 net.cpp:141] Setting up inception_4e/5x5_reduce
I0403 18:00:07.091778  6456 net.cpp:148] Top shape: 24 32 14 14 (150528)
I0403 18:00:07.091795  6456 net.cpp:156] Memory required for data: 1236731424
I0403 18:00:07.091814  6456 layer_factory.hpp:77] Creating layer inception_4e/relu_5x5_reduce
I0403 18:00:07.091837  6456 net.cpp:91] Creating Layer inception_4e/relu_5x5_reduce
I0403 18:00:07.091856  6456 net.cpp:425] inception_4e/relu_5x5_reduce <- inception_4e/5x5_reduce
I0403 18:00:07.091874  6456 net.cpp:386] inception_4e/relu_5x5_reduce -> inception_4e/5x5_reduce (in-place)
I0403 18:00:07.092195  6456 net.cpp:141] Setting up inception_4e/relu_5x5_reduce
I0403 18:00:07.092224  6456 net.cpp:148] Top shape: 24 32 14 14 (150528)
I0403 18:00:07.092241  6456 net.cpp:156] Memory required for data: 1237333536
I0403 18:00:07.092257  6456 layer_factory.hpp:77] Creating layer inception_4e/5x5
I0403 18:00:07.092314  6456 net.cpp:91] Creating Layer inception_4e/5x5
I0403 18:00:07.092339  6456 net.cpp:425] inception_4e/5x5 <- inception_4e/5x5_reduce
I0403 18:00:07.092358  6456 net.cpp:399] inception_4e/5x5 -> inception_4e/5x5
I0403 18:00:07.094342  6456 net.cpp:141] Setting up inception_4e/5x5
I0403 18:00:07.094372  6456 net.cpp:148] Top shape: 24 128 14 14 (602112)
I0403 18:00:07.094388  6456 net.cpp:156] Memory required for data: 1239741984
I0403 18:00:07.094408  6456 layer_factory.hpp:77] Creating layer inception_4e/relu_5x5
I0403 18:00:07.094429  6456 net.cpp:91] Creating Layer inception_4e/relu_5x5
I0403 18:00:07.094445  6456 net.cpp:425] inception_4e/relu_5x5 <- inception_4e/5x5
I0403 18:00:07.094466  6456 net.cpp:386] inception_4e/relu_5x5 -> inception_4e/5x5 (in-place)
I0403 18:00:07.094686  6456 net.cpp:141] Setting up inception_4e/relu_5x5
I0403 18:00:07.094712  6456 net.cpp:148] Top shape: 24 128 14 14 (602112)
I0403 18:00:07.094727  6456 net.cpp:156] Memory required for data: 1242150432
I0403 18:00:07.094743  6456 layer_factory.hpp:77] Creating layer inception_4e/pool
I0403 18:00:07.094765  6456 net.cpp:91] Creating Layer inception_4e/pool
I0403 18:00:07.094784  6456 net.cpp:425] inception_4e/pool <- inception_4d/output_inception_4d/output_0_split_4
I0403 18:00:07.094801  6456 net.cpp:399] inception_4e/pool -> inception_4e/pool
I0403 18:00:07.094878  6456 net.cpp:141] Setting up inception_4e/pool
I0403 18:00:07.094902  6456 net.cpp:148] Top shape: 24 528 14 14 (2483712)
I0403 18:00:07.094918  6456 net.cpp:156] Memory required for data: 1252085280
I0403 18:00:07.094933  6456 layer_factory.hpp:77] Creating layer inception_4e/pool_proj
I0403 18:00:07.094956  6456 net.cpp:91] Creating Layer inception_4e/pool_proj
I0403 18:00:07.094974  6456 net.cpp:425] inception_4e/pool_proj <- inception_4e/pool
I0403 18:00:07.094995  6456 net.cpp:399] inception_4e/pool_proj -> inception_4e/pool_proj
I0403 18:00:07.096585  6456 net.cpp:141] Setting up inception_4e/pool_proj
I0403 18:00:07.096631  6456 net.cpp:148] Top shape: 24 128 14 14 (602112)
I0403 18:00:07.096648  6456 net.cpp:156] Memory required for data: 1254493728
I0403 18:00:07.096668  6456 layer_factory.hpp:77] Creating layer inception_4e/relu_pool_proj
I0403 18:00:07.096688  6456 net.cpp:91] Creating Layer inception_4e/relu_pool_proj
I0403 18:00:07.096704  6456 net.cpp:425] inception_4e/relu_pool_proj <- inception_4e/pool_proj
I0403 18:00:07.096737  6456 net.cpp:386] inception_4e/relu_pool_proj -> inception_4e/pool_proj (in-place)
I0403 18:00:07.097038  6456 net.cpp:141] Setting up inception_4e/relu_pool_proj
I0403 18:00:07.097071  6456 net.cpp:148] Top shape: 24 128 14 14 (602112)
I0403 18:00:07.097089  6456 net.cpp:156] Memory required for data: 1256902176
I0403 18:00:07.097103  6456 layer_factory.hpp:77] Creating layer inception_4e/output
I0403 18:00:07.097123  6456 net.cpp:91] Creating Layer inception_4e/output
I0403 18:00:07.097138  6456 net.cpp:425] inception_4e/output <- inception_4e/1x1
I0403 18:00:07.097157  6456 net.cpp:425] inception_4e/output <- inception_4e/3x3
I0403 18:00:07.097173  6456 net.cpp:425] inception_4e/output <- inception_4e/5x5
I0403 18:00:07.097190  6456 net.cpp:425] inception_4e/output <- inception_4e/pool_proj
I0403 18:00:07.097210  6456 net.cpp:399] inception_4e/output -> inception_4e/output
I0403 18:00:07.097261  6456 net.cpp:141] Setting up inception_4e/output
I0403 18:00:07.097292  6456 net.cpp:148] Top shape: 24 832 14 14 (3913728)
I0403 18:00:07.097308  6456 net.cpp:156] Memory required for data: 1272557088
I0403 18:00:07.097324  6456 layer_factory.hpp:77] Creating layer pool4/3x3_s2
I0403 18:00:07.097347  6456 net.cpp:91] Creating Layer pool4/3x3_s2
I0403 18:00:07.097363  6456 net.cpp:425] pool4/3x3_s2 <- inception_4e/output
I0403 18:00:07.097383  6456 net.cpp:399] pool4/3x3_s2 -> pool4/3x3_s2
I0403 18:00:07.097455  6456 net.cpp:141] Setting up pool4/3x3_s2
I0403 18:00:07.097481  6456 net.cpp:148] Top shape: 24 832 7 7 (978432)
I0403 18:00:07.097496  6456 net.cpp:156] Memory required for data: 1276470816
I0403 18:00:07.097512  6456 layer_factory.hpp:77] Creating layer pool4/3x3_s2_pool4/3x3_s2_0_split
I0403 18:00:07.097530  6456 net.cpp:91] Creating Layer pool4/3x3_s2_pool4/3x3_s2_0_split
I0403 18:00:07.097550  6456 net.cpp:425] pool4/3x3_s2_pool4/3x3_s2_0_split <- pool4/3x3_s2
I0403 18:00:07.097568  6456 net.cpp:399] pool4/3x3_s2_pool4/3x3_s2_0_split -> pool4/3x3_s2_pool4/3x3_s2_0_split_0
I0403 18:00:07.097589  6456 net.cpp:399] pool4/3x3_s2_pool4/3x3_s2_0_split -> pool4/3x3_s2_pool4/3x3_s2_0_split_1
I0403 18:00:07.097609  6456 net.cpp:399] pool4/3x3_s2_pool4/3x3_s2_0_split -> pool4/3x3_s2_pool4/3x3_s2_0_split_2
I0403 18:00:07.097630  6456 net.cpp:399] pool4/3x3_s2_pool4/3x3_s2_0_split -> pool4/3x3_s2_pool4/3x3_s2_0_split_3
I0403 18:00:07.097725  6456 net.cpp:141] Setting up pool4/3x3_s2_pool4/3x3_s2_0_split
I0403 18:00:07.097750  6456 net.cpp:148] Top shape: 24 832 7 7 (978432)
I0403 18:00:07.097766  6456 net.cpp:148] Top shape: 24 832 7 7 (978432)
I0403 18:00:07.097782  6456 net.cpp:148] Top shape: 24 832 7 7 (978432)
I0403 18:00:07.097798  6456 net.cpp:148] Top shape: 24 832 7 7 (978432)
I0403 18:00:07.097813  6456 net.cpp:156] Memory required for data: 1292125728
I0403 18:00:07.097828  6456 layer_factory.hpp:77] Creating layer inception_5a/1x1
I0403 18:00:07.097851  6456 net.cpp:91] Creating Layer inception_5a/1x1
I0403 18:00:07.097870  6456 net.cpp:425] inception_5a/1x1 <- pool4/3x3_s2_pool4/3x3_s2_0_split_0
I0403 18:00:07.097892  6456 net.cpp:399] inception_5a/1x1 -> inception_5a/1x1
I0403 18:00:07.101022  6456 net.cpp:141] Setting up inception_5a/1x1
I0403 18:00:07.101052  6456 net.cpp:148] Top shape: 24 256 7 7 (301056)
I0403 18:00:07.101068  6456 net.cpp:156] Memory required for data: 1293329952
I0403 18:00:07.101088  6456 layer_factory.hpp:77] Creating layer inception_5a/relu_1x1
I0403 18:00:07.101105  6456 net.cpp:91] Creating Layer inception_5a/relu_1x1
I0403 18:00:07.101122  6456 net.cpp:425] inception_5a/relu_1x1 <- inception_5a/1x1
I0403 18:00:07.101143  6456 net.cpp:386] inception_5a/relu_1x1 -> inception_5a/1x1 (in-place)
I0403 18:00:07.101476  6456 net.cpp:141] Setting up inception_5a/relu_1x1
I0403 18:00:07.101505  6456 net.cpp:148] Top shape: 24 256 7 7 (301056)
I0403 18:00:07.101521  6456 net.cpp:156] Memory required for data: 1294534176
I0403 18:00:07.101536  6456 layer_factory.hpp:77] Creating layer inception_5a/3x3_reduce
I0403 18:00:07.101558  6456 net.cpp:91] Creating Layer inception_5a/3x3_reduce
I0403 18:00:07.101577  6456 net.cpp:425] inception_5a/3x3_reduce <- pool4/3x3_s2_pool4/3x3_s2_0_split_1
I0403 18:00:07.101599  6456 net.cpp:399] inception_5a/3x3_reduce -> inception_5a/3x3_reduce
I0403 18:00:07.104207  6456 net.cpp:141] Setting up inception_5a/3x3_reduce
I0403 18:00:07.104239  6456 net.cpp:148] Top shape: 24 160 7 7 (188160)
I0403 18:00:07.104256  6456 net.cpp:156] Memory required for data: 1295286816
I0403 18:00:07.104280  6456 layer_factory.hpp:77] Creating layer inception_5a/relu_3x3_reduce
I0403 18:00:07.104300  6456 net.cpp:91] Creating Layer inception_5a/relu_3x3_reduce
I0403 18:00:07.104317  6456 net.cpp:425] inception_5a/relu_3x3_reduce <- inception_5a/3x3_reduce
I0403 18:00:07.104339  6456 net.cpp:386] inception_5a/relu_3x3_reduce -> inception_5a/3x3_reduce (in-place)
I0403 18:00:07.104542  6456 net.cpp:141] Setting up inception_5a/relu_3x3_reduce
I0403 18:00:07.104568  6456 net.cpp:148] Top shape: 24 160 7 7 (188160)
I0403 18:00:07.104584  6456 net.cpp:156] Memory required for data: 1296039456
I0403 18:00:07.104600  6456 layer_factory.hpp:77] Creating layer inception_5a/3x3
I0403 18:00:07.104624  6456 net.cpp:91] Creating Layer inception_5a/3x3
I0403 18:00:07.104643  6456 net.cpp:425] inception_5a/3x3 <- inception_5a/3x3_reduce
I0403 18:00:07.104667  6456 net.cpp:399] inception_5a/3x3 -> inception_5a/3x3
I0403 18:00:07.110080  6456 net.cpp:141] Setting up inception_5a/3x3
I0403 18:00:07.110113  6456 net.cpp:148] Top shape: 24 320 7 7 (376320)
I0403 18:00:07.110131  6456 net.cpp:156] Memory required for data: 1297544736
I0403 18:00:07.110152  6456 layer_factory.hpp:77] Creating layer inception_5a/relu_3x3
I0403 18:00:07.110174  6456 net.cpp:91] Creating Layer inception_5a/relu_3x3
I0403 18:00:07.110194  6456 net.cpp:425] inception_5a/relu_3x3 <- inception_5a/3x3
I0403 18:00:07.110213  6456 net.cpp:386] inception_5a/relu_3x3 -> inception_5a/3x3 (in-place)
I0403 18:00:07.110559  6456 net.cpp:141] Setting up inception_5a/relu_3x3
I0403 18:00:07.110590  6456 net.cpp:148] Top shape: 24 320 7 7 (376320)
I0403 18:00:07.110608  6456 net.cpp:156] Memory required for data: 1299050016
I0403 18:00:07.110625  6456 layer_factory.hpp:77] Creating layer inception_5a/5x5_reduce
I0403 18:00:07.110652  6456 net.cpp:91] Creating Layer inception_5a/5x5_reduce
I0403 18:00:07.110674  6456 net.cpp:425] inception_5a/5x5_reduce <- pool4/3x3_s2_pool4/3x3_s2_0_split_2
I0403 18:00:07.110699  6456 net.cpp:399] inception_5a/5x5_reduce -> inception_5a/5x5_reduce
I0403 18:00:07.111963  6456 net.cpp:141] Setting up inception_5a/5x5_reduce
I0403 18:00:07.111995  6456 net.cpp:148] Top shape: 24 32 7 7 (37632)
I0403 18:00:07.112012  6456 net.cpp:156] Memory required for data: 1299200544
I0403 18:00:07.112033  6456 layer_factory.hpp:77] Creating layer inception_5a/relu_5x5_reduce
I0403 18:00:07.112057  6456 net.cpp:91] Creating Layer inception_5a/relu_5x5_reduce
I0403 18:00:07.112077  6456 net.cpp:425] inception_5a/relu_5x5_reduce <- inception_5a/5x5_reduce
I0403 18:00:07.112097  6456 net.cpp:386] inception_5a/relu_5x5_reduce -> inception_5a/5x5_reduce (in-place)
I0403 18:00:07.112426  6456 net.cpp:141] Setting up inception_5a/relu_5x5_reduce
I0403 18:00:07.112454  6456 net.cpp:148] Top shape: 24 32 7 7 (37632)
I0403 18:00:07.112479  6456 net.cpp:156] Memory required for data: 1299351072
I0403 18:00:07.112494  6456 layer_factory.hpp:77] Creating layer inception_5a/5x5
I0403 18:00:07.112519  6456 net.cpp:91] Creating Layer inception_5a/5x5
I0403 18:00:07.112537  6456 net.cpp:425] inception_5a/5x5 <- inception_5a/5x5_reduce
I0403 18:00:07.112558  6456 net.cpp:399] inception_5a/5x5 -> inception_5a/5x5
I0403 18:00:07.114433  6456 net.cpp:141] Setting up inception_5a/5x5
I0403 18:00:07.114475  6456 net.cpp:148] Top shape: 24 128 7 7 (150528)
I0403 18:00:07.114493  6456 net.cpp:156] Memory required for data: 1299953184
I0403 18:00:07.114526  6456 layer_factory.hpp:77] Creating layer inception_5a/relu_5x5
I0403 18:00:07.114547  6456 net.cpp:91] Creating Layer inception_5a/relu_5x5
I0403 18:00:07.114567  6456 net.cpp:425] inception_5a/relu_5x5 <- inception_5a/5x5
I0403 18:00:07.114584  6456 net.cpp:386] inception_5a/relu_5x5 -> inception_5a/5x5 (in-place)
I0403 18:00:07.114790  6456 net.cpp:141] Setting up inception_5a/relu_5x5
I0403 18:00:07.114831  6456 net.cpp:148] Top shape: 24 128 7 7 (150528)
I0403 18:00:07.114848  6456 net.cpp:156] Memory required for data: 1300555296
I0403 18:00:07.114864  6456 layer_factory.hpp:77] Creating layer inception_5a/pool
I0403 18:00:07.114887  6456 net.cpp:91] Creating Layer inception_5a/pool
I0403 18:00:07.114907  6456 net.cpp:425] inception_5a/pool <- pool4/3x3_s2_pool4/3x3_s2_0_split_3
I0403 18:00:07.114926  6456 net.cpp:399] inception_5a/pool -> inception_5a/pool
I0403 18:00:07.115001  6456 net.cpp:141] Setting up inception_5a/pool
I0403 18:00:07.115028  6456 net.cpp:148] Top shape: 24 832 7 7 (978432)
I0403 18:00:07.115046  6456 net.cpp:156] Memory required for data: 1304469024
I0403 18:00:07.115061  6456 layer_factory.hpp:77] Creating layer inception_5a/pool_proj
I0403 18:00:07.115085  6456 net.cpp:91] Creating Layer inception_5a/pool_proj
I0403 18:00:07.115105  6456 net.cpp:425] inception_5a/pool_proj <- inception_5a/pool
I0403 18:00:07.115126  6456 net.cpp:399] inception_5a/pool_proj -> inception_5a/pool_proj
I0403 18:00:07.117522  6456 net.cpp:141] Setting up inception_5a/pool_proj
I0403 18:00:07.117569  6456 net.cpp:148] Top shape: 24 128 7 7 (150528)
I0403 18:00:07.117588  6456 net.cpp:156] Memory required for data: 1305071136
I0403 18:00:07.117606  6456 layer_factory.hpp:77] Creating layer inception_5a/relu_pool_proj
I0403 18:00:07.117625  6456 net.cpp:91] Creating Layer inception_5a/relu_pool_proj
I0403 18:00:07.117645  6456 net.cpp:425] inception_5a/relu_pool_proj <- inception_5a/pool_proj
I0403 18:00:07.117666  6456 net.cpp:386] inception_5a/relu_pool_proj -> inception_5a/pool_proj (in-place)
I0403 18:00:07.117972  6456 net.cpp:141] Setting up inception_5a/relu_pool_proj
I0403 18:00:07.118000  6456 net.cpp:148] Top shape: 24 128 7 7 (150528)
I0403 18:00:07.118016  6456 net.cpp:156] Memory required for data: 1305673248
I0403 18:00:07.118031  6456 layer_factory.hpp:77] Creating layer inception_5a/output
I0403 18:00:07.118049  6456 net.cpp:91] Creating Layer inception_5a/output
I0403 18:00:07.118067  6456 net.cpp:425] inception_5a/output <- inception_5a/1x1
I0403 18:00:07.118084  6456 net.cpp:425] inception_5a/output <- inception_5a/3x3
I0403 18:00:07.118101  6456 net.cpp:425] inception_5a/output <- inception_5a/5x5
I0403 18:00:07.118119  6456 net.cpp:425] inception_5a/output <- inception_5a/pool_proj
I0403 18:00:07.118139  6456 net.cpp:399] inception_5a/output -> inception_5a/output
I0403 18:00:07.118190  6456 net.cpp:141] Setting up inception_5a/output
I0403 18:00:07.118216  6456 net.cpp:148] Top shape: 24 832 7 7 (978432)
I0403 18:00:07.118232  6456 net.cpp:156] Memory required for data: 1309586976
I0403 18:00:07.118248  6456 layer_factory.hpp:77] Creating layer inception_5a/output_inception_5a/output_0_split
I0403 18:00:07.118266  6456 net.cpp:91] Creating Layer inception_5a/output_inception_5a/output_0_split
I0403 18:00:07.118288  6456 net.cpp:425] inception_5a/output_inception_5a/output_0_split <- inception_5a/output
I0403 18:00:07.118307  6456 net.cpp:399] inception_5a/output_inception_5a/output_0_split -> inception_5a/output_inception_5a/output_0_split_0
I0403 18:00:07.118329  6456 net.cpp:399] inception_5a/output_inception_5a/output_0_split -> inception_5a/output_inception_5a/output_0_split_1
I0403 18:00:07.118348  6456 net.cpp:399] inception_5a/output_inception_5a/output_0_split -> inception_5a/output_inception_5a/output_0_split_2
I0403 18:00:07.118372  6456 net.cpp:399] inception_5a/output_inception_5a/output_0_split -> inception_5a/output_inception_5a/output_0_split_3
I0403 18:00:07.118491  6456 net.cpp:141] Setting up inception_5a/output_inception_5a/output_0_split
I0403 18:00:07.118516  6456 net.cpp:148] Top shape: 24 832 7 7 (978432)
I0403 18:00:07.118535  6456 net.cpp:148] Top shape: 24 832 7 7 (978432)
I0403 18:00:07.118551  6456 net.cpp:148] Top shape: 24 832 7 7 (978432)
I0403 18:00:07.118566  6456 net.cpp:148] Top shape: 24 832 7 7 (978432)
I0403 18:00:07.118582  6456 net.cpp:156] Memory required for data: 1325241888
I0403 18:00:07.118597  6456 layer_factory.hpp:77] Creating layer inception_5b/1x1
I0403 18:00:07.118619  6456 net.cpp:91] Creating Layer inception_5b/1x1
I0403 18:00:07.118638  6456 net.cpp:425] inception_5b/1x1 <- inception_5a/output_inception_5a/output_0_split_0
I0403 18:00:07.118659  6456 net.cpp:399] inception_5b/1x1 -> inception_5b/1x1
I0403 18:00:07.122627  6456 net.cpp:141] Setting up inception_5b/1x1
I0403 18:00:07.122661  6456 net.cpp:148] Top shape: 24 384 7 7 (451584)
I0403 18:00:07.122680  6456 net.cpp:156] Memory required for data: 1327048224
I0403 18:00:07.122701  6456 layer_factory.hpp:77] Creating layer inception_5b/relu_1x1
I0403 18:00:07.122720  6456 net.cpp:91] Creating Layer inception_5b/relu_1x1
I0403 18:00:07.122737  6456 net.cpp:425] inception_5b/relu_1x1 <- inception_5b/1x1
I0403 18:00:07.122758  6456 net.cpp:386] inception_5b/relu_1x1 -> inception_5b/1x1 (in-place)
I0403 18:00:07.123078  6456 net.cpp:141] Setting up inception_5b/relu_1x1
I0403 18:00:07.123111  6456 net.cpp:148] Top shape: 24 384 7 7 (451584)
I0403 18:00:07.123127  6456 net.cpp:156] Memory required for data: 1328854560
I0403 18:00:07.123143  6456 layer_factory.hpp:77] Creating layer inception_5b/3x3_reduce
I0403 18:00:07.123168  6456 net.cpp:91] Creating Layer inception_5b/3x3_reduce
I0403 18:00:07.123188  6456 net.cpp:425] inception_5b/3x3_reduce <- inception_5a/output_inception_5a/output_0_split_1
I0403 18:00:07.123209  6456 net.cpp:399] inception_5b/3x3_reduce -> inception_5b/3x3_reduce
I0403 18:00:07.125990  6456 net.cpp:141] Setting up inception_5b/3x3_reduce
I0403 18:00:07.126024  6456 net.cpp:148] Top shape: 24 192 7 7 (225792)
I0403 18:00:07.126041  6456 net.cpp:156] Memory required for data: 1329757728
I0403 18:00:07.126061  6456 layer_factory.hpp:77] Creating layer inception_5b/relu_3x3_reduce
I0403 18:00:07.126080  6456 net.cpp:91] Creating Layer inception_5b/relu_3x3_reduce
I0403 18:00:07.126097  6456 net.cpp:425] inception_5b/relu_3x3_reduce <- inception_5b/3x3_reduce
I0403 18:00:07.126119  6456 net.cpp:386] inception_5b/relu_3x3_reduce -> inception_5b/3x3_reduce (in-place)
I0403 18:00:07.126340  6456 net.cpp:141] Setting up inception_5b/relu_3x3_reduce
I0403 18:00:07.126368  6456 net.cpp:148] Top shape: 24 192 7 7 (225792)
I0403 18:00:07.126382  6456 net.cpp:156] Memory required for data: 1330660896
I0403 18:00:07.126399  6456 layer_factory.hpp:77] Creating layer inception_5b/3x3
I0403 18:00:07.126422  6456 net.cpp:91] Creating Layer inception_5b/3x3
I0403 18:00:07.126441  6456 net.cpp:425] inception_5b/3x3 <- inception_5b/3x3_reduce
I0403 18:00:07.126464  6456 net.cpp:399] inception_5b/3x3 -> inception_5b/3x3
I0403 18:00:07.133591  6456 net.cpp:141] Setting up inception_5b/3x3
I0403 18:00:07.133622  6456 net.cpp:148] Top shape: 24 384 7 7 (451584)
I0403 18:00:07.133640  6456 net.cpp:156] Memory required for data: 1332467232
I0403 18:00:07.133661  6456 layer_factory.hpp:77] Creating layer inception_5b/relu_3x3
I0403 18:00:07.133690  6456 net.cpp:91] Creating Layer inception_5b/relu_3x3
I0403 18:00:07.133716  6456 net.cpp:425] inception_5b/relu_3x3 <- inception_5b/3x3
I0403 18:00:07.133738  6456 net.cpp:386] inception_5b/relu_3x3 -> inception_5b/3x3 (in-place)
I0403 18:00:07.134050  6456 net.cpp:141] Setting up inception_5b/relu_3x3
I0403 18:00:07.134078  6456 net.cpp:148] Top shape: 24 384 7 7 (451584)
I0403 18:00:07.134094  6456 net.cpp:156] Memory required for data: 1334273568
I0403 18:00:07.134110  6456 layer_factory.hpp:77] Creating layer inception_5b/5x5_reduce
I0403 18:00:07.134165  6456 net.cpp:91] Creating Layer inception_5b/5x5_reduce
I0403 18:00:07.134186  6456 net.cpp:425] inception_5b/5x5_reduce <- inception_5a/output_inception_5a/output_0_split_2
I0403 18:00:07.134208  6456 net.cpp:399] inception_5b/5x5_reduce -> inception_5b/5x5_reduce
I0403 18:00:07.135568  6456 net.cpp:141] Setting up inception_5b/5x5_reduce
I0403 18:00:07.135601  6456 net.cpp:148] Top shape: 24 48 7 7 (56448)
I0403 18:00:07.135620  6456 net.cpp:156] Memory required for data: 1334499360
I0403 18:00:07.135642  6456 layer_factory.hpp:77] Creating layer inception_5b/relu_5x5_reduce
I0403 18:00:07.135661  6456 net.cpp:91] Creating Layer inception_5b/relu_5x5_reduce
I0403 18:00:07.135679  6456 net.cpp:425] inception_5b/relu_5x5_reduce <- inception_5b/5x5_reduce
I0403 18:00:07.135699  6456 net.cpp:386] inception_5b/relu_5x5_reduce -> inception_5b/5x5_reduce (in-place)
I0403 18:00:07.136112  6456 net.cpp:141] Setting up inception_5b/relu_5x5_reduce
I0403 18:00:07.136142  6456 net.cpp:148] Top shape: 24 48 7 7 (56448)
I0403 18:00:07.136157  6456 net.cpp:156] Memory required for data: 1334725152
I0403 18:00:07.136186  6456 layer_factory.hpp:77] Creating layer inception_5b/5x5
I0403 18:00:07.136209  6456 net.cpp:91] Creating Layer inception_5b/5x5
I0403 18:00:07.136225  6456 net.cpp:425] inception_5b/5x5 <- inception_5b/5x5_reduce
I0403 18:00:07.136245  6456 net.cpp:399] inception_5b/5x5 -> inception_5b/5x5
I0403 18:00:07.138419  6456 net.cpp:141] Setting up inception_5b/5x5
I0403 18:00:07.138450  6456 net.cpp:148] Top shape: 24 128 7 7 (150528)
I0403 18:00:07.138468  6456 net.cpp:156] Memory required for data: 1335327264
I0403 18:00:07.138487  6456 layer_factory.hpp:77] Creating layer inception_5b/relu_5x5
I0403 18:00:07.138505  6456 net.cpp:91] Creating Layer inception_5b/relu_5x5
I0403 18:00:07.138522  6456 net.cpp:425] inception_5b/relu_5x5 <- inception_5b/5x5
I0403 18:00:07.138543  6456 net.cpp:386] inception_5b/relu_5x5 -> inception_5b/5x5 (in-place)
I0403 18:00:07.138746  6456 net.cpp:141] Setting up inception_5b/relu_5x5
I0403 18:00:07.138773  6456 net.cpp:148] Top shape: 24 128 7 7 (150528)
I0403 18:00:07.138788  6456 net.cpp:156] Memory required for data: 1335929376
I0403 18:00:07.138805  6456 layer_factory.hpp:77] Creating layer inception_5b/pool
I0403 18:00:07.138826  6456 net.cpp:91] Creating Layer inception_5b/pool
I0403 18:00:07.138844  6456 net.cpp:425] inception_5b/pool <- inception_5a/output_inception_5a/output_0_split_3
I0403 18:00:07.138864  6456 net.cpp:399] inception_5b/pool -> inception_5b/pool
I0403 18:00:07.138942  6456 net.cpp:141] Setting up inception_5b/pool
I0403 18:00:07.138967  6456 net.cpp:148] Top shape: 24 832 7 7 (978432)
I0403 18:00:07.138983  6456 net.cpp:156] Memory required for data: 1339843104
I0403 18:00:07.138998  6456 layer_factory.hpp:77] Creating layer inception_5b/pool_proj
I0403 18:00:07.139021  6456 net.cpp:91] Creating Layer inception_5b/pool_proj
I0403 18:00:07.139039  6456 net.cpp:425] inception_5b/pool_proj <- inception_5b/pool
I0403 18:00:07.139063  6456 net.cpp:399] inception_5b/pool_proj -> inception_5b/pool_proj
I0403 18:00:07.141499  6456 net.cpp:141] Setting up inception_5b/pool_proj
I0403 18:00:07.141533  6456 net.cpp:148] Top shape: 24 128 7 7 (150528)
I0403 18:00:07.141551  6456 net.cpp:156] Memory required for data: 1340445216
I0403 18:00:07.141571  6456 layer_factory.hpp:77] Creating layer inception_5b/relu_pool_proj
I0403 18:00:07.141592  6456 net.cpp:91] Creating Layer inception_5b/relu_pool_proj
I0403 18:00:07.141609  6456 net.cpp:425] inception_5b/relu_pool_proj <- inception_5b/pool_proj
I0403 18:00:07.141630  6456 net.cpp:386] inception_5b/relu_pool_proj -> inception_5b/pool_proj (in-place)
I0403 18:00:07.141955  6456 net.cpp:141] Setting up inception_5b/relu_pool_proj
I0403 18:00:07.141984  6456 net.cpp:148] Top shape: 24 128 7 7 (150528)
I0403 18:00:07.142000  6456 net.cpp:156] Memory required for data: 1341047328
I0403 18:00:07.142016  6456 layer_factory.hpp:77] Creating layer inception_5b/output
I0403 18:00:07.142037  6456 net.cpp:91] Creating Layer inception_5b/output
I0403 18:00:07.142071  6456 net.cpp:425] inception_5b/output <- inception_5b/1x1
I0403 18:00:07.142091  6456 net.cpp:425] inception_5b/output <- inception_5b/3x3
I0403 18:00:07.142108  6456 net.cpp:425] inception_5b/output <- inception_5b/5x5
I0403 18:00:07.142127  6456 net.cpp:425] inception_5b/output <- inception_5b/pool_proj
I0403 18:00:07.142148  6456 net.cpp:399] inception_5b/output -> inception_5b/output
I0403 18:00:07.142205  6456 net.cpp:141] Setting up inception_5b/output
I0403 18:00:07.142233  6456 net.cpp:148] Top shape: 24 1024 7 7 (1204224)
I0403 18:00:07.142249  6456 net.cpp:156] Memory required for data: 1345864224
I0403 18:00:07.142266  6456 layer_factory.hpp:77] Creating layer pool5/7x7_s1
I0403 18:00:07.142302  6456 net.cpp:91] Creating Layer pool5/7x7_s1
I0403 18:00:07.142324  6456 net.cpp:425] pool5/7x7_s1 <- inception_5b/output
I0403 18:00:07.142350  6456 net.cpp:399] pool5/7x7_s1 -> pool5/7x7_s1
I0403 18:00:07.142586  6456 net.cpp:141] Setting up pool5/7x7_s1
I0403 18:00:07.142616  6456 net.cpp:148] Top shape: 24 1024 1 1 (24576)
I0403 18:00:07.142633  6456 net.cpp:156] Memory required for data: 1345962528
I0403 18:00:07.142650  6456 layer_factory.hpp:77] Creating layer pool5/drop_7x7_s1
I0403 18:00:07.142668  6456 net.cpp:91] Creating Layer pool5/drop_7x7_s1
I0403 18:00:07.142688  6456 net.cpp:425] pool5/drop_7x7_s1 <- pool5/7x7_s1
I0403 18:00:07.142710  6456 net.cpp:386] pool5/drop_7x7_s1 -> pool5/7x7_s1 (in-place)
I0403 18:00:07.142765  6456 net.cpp:141] Setting up pool5/drop_7x7_s1
I0403 18:00:07.142796  6456 net.cpp:148] Top shape: 24 1024 1 1 (24576)
I0403 18:00:07.142814  6456 net.cpp:156] Memory required for data: 1346060832
I0403 18:00:07.142830  6456 layer_factory.hpp:77] Creating layer loss3/classifier_plantvillage
I0403 18:00:07.142853  6456 net.cpp:91] Creating Layer loss3/classifier_plantvillage
I0403 18:00:07.142870  6456 net.cpp:425] loss3/classifier_plantvillage <- pool5/7x7_s1
I0403 18:00:07.142895  6456 net.cpp:399] loss3/classifier_plantvillage -> loss3/classifier_plantvillage
I0403 18:00:07.143363  6456 net.cpp:141] Setting up loss3/classifier_plantvillage
I0403 18:00:07.143395  6456 net.cpp:148] Top shape: 24 38 (912)
I0403 18:00:07.143414  6456 net.cpp:156] Memory required for data: 1346064480
I0403 18:00:07.143435  6456 layer_factory.hpp:77] Creating layer loss3/classifier_plantvillage_loss3/classifier_plantvillage_0_split
I0403 18:00:07.143455  6456 net.cpp:91] Creating Layer loss3/classifier_plantvillage_loss3/classifier_plantvillage_0_split
I0403 18:00:07.143474  6456 net.cpp:425] loss3/classifier_plantvillage_loss3/classifier_plantvillage_0_split <- loss3/classifier_plantvillage
I0403 18:00:07.143494  6456 net.cpp:399] loss3/classifier_plantvillage_loss3/classifier_plantvillage_0_split -> loss3/classifier_plantvillage_loss3/classifier_plantvillage_0_split_0
I0403 18:00:07.143517  6456 net.cpp:399] loss3/classifier_plantvillage_loss3/classifier_plantvillage_0_split -> loss3/classifier_plantvillage_loss3/classifier_plantvillage_0_split_1
I0403 18:00:07.143542  6456 net.cpp:399] loss3/classifier_plantvillage_loss3/classifier_plantvillage_0_split -> loss3/classifier_plantvillage_loss3/classifier_plantvillage_0_split_2
I0403 18:00:07.143566  6456 net.cpp:399] loss3/classifier_plantvillage_loss3/classifier_plantvillage_0_split -> loss3/classifier_plantvillage_loss3/classifier_plantvillage_0_split_3
I0403 18:00:07.143682  6456 net.cpp:141] Setting up loss3/classifier_plantvillage_loss3/classifier_plantvillage_0_split
I0403 18:00:07.143710  6456 net.cpp:148] Top shape: 24 38 (912)
I0403 18:00:07.143728  6456 net.cpp:148] Top shape: 24 38 (912)
I0403 18:00:07.143745  6456 net.cpp:148] Top shape: 24 38 (912)
I0403 18:00:07.143762  6456 net.cpp:148] Top shape: 24 38 (912)
I0403 18:00:07.143777  6456 net.cpp:156] Memory required for data: 1346079072
I0403 18:00:07.143793  6456 layer_factory.hpp:77] Creating layer loss1/loss
I0403 18:00:07.143821  6456 net.cpp:91] Creating Layer loss1/loss
I0403 18:00:07.143841  6456 net.cpp:425] loss1/loss <- loss1/classifier_plantvillage_loss1/classifier_plantvillage_0_split_0
I0403 18:00:07.143877  6456 net.cpp:425] loss1/loss <- label_data_1_split_0
…
