…
I0403 18:49:17.403847  7772 net.cpp:313] The NetState phase (1) differed from the phase (0) specified by a rule in layer data
I0403 18:49:17.405290  7772 net.cpp:49] Initializing net from parameters: 
state {
  phase: TEST
}
layer {
  name: "data"
  type: "Data"
  top: "data"
  top: "label"
  include {
    phase: TEST
  }
  transform_param {
    mirror: false
    crop_size: 224
    mean_file: "/home/mohanty/data/final_dataset/lmdb/grayscale-40-60/mean.binaryproto"
  }
  data_param {
    source: "/home/mohanty/data/final_dataset/lmdb/grayscale-40-60/test_db"
    batch_size: 24
    backend: LMDB
  }
}
layer {
  name: "conv1/7x7_s2"
  type: "Convolution"
  bottom: "data"
  top: "conv1/7x7_s2"
  param {
    lr_mult: 1
    decay_mult: 1
  }
  param {
    lr_mult: 2
    decay_mult: 0
  }
  convolution_param {
    num_output: 64
    pad: 3
    kernel_size: 7
    stride: 2
    weight_filler {
      type: "xavier"
      std: 0.1
    }
    bias_filler {
      type: "constant"
      value: 0.2
    }
  }
}
layer {
  name: "conv1/relu_7x7"
  type: "ReLU"
  bottom: "conv1/7x7_s2"
  top: "conv1/7x7_s2"
}
layer {
  name: "pool1/3x3_s2"
  type: "Pooling"
  bottom: "conv1/7x7_s2"
  top: "pool1/3x3_s2"
  pooling_param {
    pool: MAX
    kernel_size: 3
    stride: 2
  }
}
layer {
  name: "pool1/norm1"
  type: "LRN"
  bottom: "pool1/3x3_s2"
  top: "pool1/norm1"
  lrn_param {
    local_size: 5
    alpha: 0.0001
    beta: 0.75
  }
}
layer {
  name: "conv2/3x3_reduce"
  type: "Convolution"
  bottom: "pool1/norm1"
  top: "conv2/3x3_reduce"
  param {
    lr_mult: 1
    decay_mult: 1
  }
  param {
    lr_mult: 2
    decay_mult: 0
  }
  convolution_param {
    num_output: 64
    kernel_size: 1
    weight_filler {
      type: "xavier"
      std: 0.1
    }
    bias_filler {
      type: "constant"
      value: 0.2
    }
  }
}
layer {
  name: "conv2/relu_3x3_reduce"
  type: "ReLU"
  bottom: "conv2/3x3_reduce"
  top: "conv2/3x3_reduce"
}
layer {
  name: "conv2/3x3"
  type: "Convolution"
  bottom: "conv2/3x3_reduce"
  top: "conv2/3x3"
  param {
    lr_mult: 1
    decay_mult: 1
  }
  param {
    lr_mult: 2
    decay_mult: 0
  }
  convolution_param {
    num_output: 192
    pad: 1
    kernel_size: 3
    weight_filler {
      type: "xavier"
      std: 0.03
    }
    bias_filler {
      type: "constant"
      value: 0.2
    }
  }
}
layer {
  name: "conv2/relu_3x3"
  type: "ReLU"
  bottom: "conv2/3x3"
  top: "conv2/3x3"
}
layer {
  name: "conv2/norm2"
  type: "LRN"
  bottom: "conv2/3x3"
  top: "conv2/norm2"
  lrn_param {
    local_size: 5
    alpha: 0.0001
    beta: 0.75
  }
}
layer {
  name: "pool2/3x3_s2"
  type: "Pooling"
  bottom: "conv2/norm2"
  top: "pool2/3x3_s2"
  pooling_param {
    pool: MAX
    kernel_size: 3
    stride: 2
  }
}
layer {
  name: "inception_3a/1x1"
  type: "Convolution"
  bottom: "pool2/3x3_s2"
  top: "inception_3a/1x1"
  param {
    lr_mult: 1
    decay_mult: 1
  }
  param {
    lr_mult: 2
    decay_mult: 0
  }
  convolution_param {
    num_output: 64
    kernel_size: 1
    weight_filler {
      type: "xavier"
      std: 0.03
    }
    bias_filler {
      type: "constant"
      value: 0.2
    }
  }
}
layer {
  name: "inception_3a/relu_1x1"
  type: "ReLU"
  bottom: "inception_3a/1x1"
  top: "inception_3a/1x1"
}
layer {
  name: "inception_3a/3x3_reduce"
  type: "Convolution"
  bottom: "pool2/3x3_s2"
  top: "inception_3a/3x3_reduce"
  param {
    lr_mult: 1
    decay_mult: 1
  }
  param {
    lr_mult: 2
    decay_mult: 0
  }
  convolution_param {
    num_output: 96
    kernel_size: 1
    weight_filler {
      type: "xavier"
      std: 0.09
    }
    bias_filler {
      type: "constant"
      value: 0.2
    }
  }
}
layer {
  name: "inception_3a/relu_3x3_reduce"
  type: "ReLU"
  bottom: "inception_3a/3x3_reduce"
  top: "inception_3a/3x3_reduce"
}
layer {
  name: "inception_3a/3x3"
  type: "Convolution"
  bottom: "inception_3a/3x3_reduce"
  top: "inception_3a/3x3"
  param {
    lr_mult: 1
    decay_mult: 1
  }
  param {
    lr_mult: 2
    decay_mult: 0
  }
  convolution_param {
    num_output: 128
    pad: 1
    kernel_size: 3
    weight_filler {
      type: "xavier"
      std: 0.03
    }
    bias_filler {
      type: "constant"
      value: 0.2
    }
  }
}
layer {
  name: "inception_3a/relu_3x3"
  type: "ReLU"
  bottom: "inception_3a/3x3"
  top: "inception_3a/3x3"
}
layer {
  name: "inception_3a/5x5_reduce"
  type: "Convolution"
  bottom: "pool2/3x3_s2"
  top: "inception_3a/5x5_reduce"
  param {
    lr_mult: 1
    decay_mult: 1
  }
  param {
    lr_mult: 2
    decay_mult: 0
  }
  convolution_param {
    num_output: 16
    kernel_size: 1
    weight_filler {
      type: "xavier"
      std: 0.2
    }
    bias_filler {
      type: "constant"
      value: 0.2
    }
  }
}
layer {
  name: "inception_3a/relu_5x5_reduce"
  type: "ReLU"
  bottom: "inception_3a/5x5_reduce"
  top: "inception_3a/5x5_reduce"
}
layer {
  name: "inception_3a/5x5"
  type: "Convolution"
  bottom: "inception_3a/5x5_reduce"
  top: "inception_3a/5x5"
  param {
    lr_mult: 1
    decay_mult: 1
  }
  param {
    lr_mult: 2
    decay_mult: 0
  }
  convolution_param {
    num_output: 32
    pad: 2
    kernel_size: 5
    weight_filler {
      type: "xavier"
      std: 0.03
    }
    bias_filler {
      type: "constant"
      value: 0.2
    }
  }
}
layer {
  name: "inception_3a/relu_5x5"
  type: "ReLU"
  bottom: "inception_3a/5x5"
  top: "inception_3a/5x5"
}
layer {
  name: "inception_3a/pool"
  type: "Pooling"
  bottom: "pool2/3x3_s2"
  top: "inception_3a/pool"
  pooling_param {
    pool: MAX
    kernel_size: 3
    stride: 1
    pad: 1
  }
}
layer {
  name: "inception_3a/pool_proj"
  type: "Convolution"
  bottom: "inception_3a/pool"
  top: "inception_3a/pool_proj"
  param {
    lr_mult: 1
    decay_mult: 1
  }
  param {
    lr_mult: 2
    decay_mult: 0
  }
  convolution_param {
    num_output: 32
    kernel_size: 1
    weight_filler {
      type: "xavier"
      std: 0.1
    }
    bias_filler {
      type: "constant"
      value: 0.2
    }
  }
}
layer {
  name: "inception_3a/relu_pool_proj"
  type: "ReLU"
  bottom: "inception_3a/pool_proj"
  top: "inception_3a/pool_proj"
}
layer {
  name: "inception_3a/output"
  type: "Concat"
  bottom: "inception_3a/1x1"
  bottom: "inception_3a/3x3"
  bottom: "inception_3a/5x5"
  bottom: "inception_3a/pool_proj"
  top: "inception_3a/output"
}
layer {
  name: "inception_3b/1x1"
  type: "Convolution"
  bottom: "inception_3a/output"
  top: "inception_3b/1x1"
  param {
    lr_mult: 1
    decay_mult: 1
  }
  param {
    lr_mult: 2
    decay_mult: 0
  }
  convolution_param {
    num_output: 128
    kernel_size: 1
    weight_filler {
      type: "xavier"
      std: 0.03
    }
    bias_filler {
      type: "constant"
      value: 0.2
    }
  }
}
layer {
  name: "inception_3b/relu_1x1"
  type: "ReLU"
  bottom: "inception_3b/1x1"
  top: "inception_3b/1x1"
}
layer {
  name: "inception_3b/3x3_reduce"
  type: "Convolution"
  bottom: "inception_3a/output"
  top: "inception_3b/3x3_reduce"
  param {
    lr_mult: 1
    decay_mult: 1
  }
  param {
    lr_mult: 2
    decay_mult: 0
  }
  convolution_param {
    num_output: 128
    kernel_size: 1
    weight_filler {
      type: "xavier"
      std: 0.09
    }
    bias_filler {
      type: "constant"
      value: 0.2
    }
  }
}
layer {
  name: "inception_3b/relu_3x3_reduce"
  type: "ReLU"
  bottom: "inception_3b/3x3_reduce"
  top: "inception_3b/3x3_reduce"
}
layer {
  name: "inception_3b/3x3"
  type: "Convolution"
  bottom: "inception_3b/3x3_reduce"
  top: "inception_3b/3x3"
  param {
    lr_mult: 1
    decay_mult: 1
  }
  param {
    lr_mult: 2
    decay_mult: 0
  }
  convolution_param {
    num_output: 192
    pad: 1
    kernel_size: 3
    weight_filler {
      type: "xavier"
      std: 0.03
    }
    bias_filler {
      type: "constant"
      value: 0.2
    }
  }
}
layer {
  name: "inception_3b/relu_3x3"
  type: "ReLU"
  bottom: "inception_3b/3x3"
  top: "inception_3b/3x3"
}
layer {
  name: "inception_3b/5x5_reduce"
  type: "Convolution"
  bottom: "inception_3a/output"
  top: "inception_3b/5x5_reduce"
  param {
    lr_mult: 1
    decay_mult: 1
  }
  param {
    lr_mult: 2
    decay_mult: 0
  }
  convolution_param {
    num_output: 32
    kernel_size: 1
    weight_filler {
      type: "xavier"
      std: 0.2
    }
    bias_filler {
      type: "constant"
      value: 0.2
    }
  }
}
layer {
  name: "inception_3b/relu_5x5_reduce"
  type: "ReLU"
  bottom: "inception_3b/5x5_reduce"
  top: "inception_3b/5x5_reduce"
}
layer {
  name: "inception_3b/5x5"
  type: "Convolution"
  bottom: "inception_3b/5x5_reduce"
  top: "inception_3b/5x5"
  param {
    lr_mult: 1
    decay_mult: 1
  }
  param {
    lr_mult: 2
    decay_mult: 0
  }
  convolution_param {
    num_output: 96
    pad: 2
    kernel_size: 5
    weight_filler {
      type: "xavier"
      std: 0.03
    }
    bias_filler {
      type: "constant"
      value: 0.2
    }
  }
}
layer {
  name: "inception_3b/relu_5x5"
  type: "ReLU"
  bottom: "inception_3b/5x5"
  top: "inception_3b/5x5"
}
layer {
  name: "inception_3b/pool"
  type: "Pooling"
  bottom: "inception_3a/output"
  top: "inception_3b/pool"
  pooling_param {
    pool: MAX
    kernel_size: 3
    stride: 1
    pad: 1
  }
}
layer {
  name: "inception_3b/pool_proj"
  type: "Convolution"
  bottom: "inception_3b/pool"
  top: "inception_3b/pool_proj"
  param {
    lr_mult: 1
    decay_mult: 1
  }
  param {
    lr_mult: 2
    decay_mult: 0
  }
  convolution_param {
    num_output: 64
    kernel_size: 1
    weight_filler {
      type: "xavier"
      std: 0.1
    }
    bias_filler {
      type: "constant"
      value: 0.2
    }
  }
}
layer {
  name: "inception_3b/relu_pool_proj"
  type: "ReLU"
  bottom: "inception_3b/pool_proj"
  top: "inception_3b/pool_proj"
}
layer {
  name: "inception_3b/output"
  type: "Concat"
  bottom: "inception_3b/1x1"
  bottom: "inception_3b/3x3"
  bottom: "inception_3b/5x5"
  bottom: "inception_3b/pool_proj"
  top: "inception_3b/output"
}
layer {
  name: "pool3/3x3_s2"
  type: "Pooling"
  bottom: "inception_3b/output"
  top: "pool3/3x3_s2"
  pooling_param {
    pool: MAX
    kernel_size: 3
    stride: 2
  }
}
layer {
  name: "inception_4a/1x1"
  type: "Convolution"
  bottom: "pool3/3x3_s2"
  top: "inception_4a/1x1"
  param {
    lr_mult: 1
    decay_mult: 1
  }
  param {
    lr_mult: 2
    decay_mult: 0
  }
  convolution_param {
    num_output: 192
    kernel_size: 1
    weight_filler {
      type: "xavier"
      std: 0.03
    }
    bias_filler {
      type: "constant"
      value: 0.2
    }
  }
}
layer {
  name: "inception_4a/relu_1x1"
  type: "ReLU"
  bottom: "inception_4a/1x1"
  top: "inception_4a/1x1"
}
layer {
  name: "inception_4a/3x3_reduce"
  type: "Convolution"
  bottom: "pool3/3x3_s2"
  top: "inception_4a/3x3_reduce"
  param {
    lr_mult: 1
    decay_mult: 1
  }
  param {
    lr_mult: 2
    decay_mult: 0
  }
  convolution_param {
    num_output: 96
    kernel_size: 1
    weight_filler {
      type: "xavier"
      std: 0.09
    }
    bias_filler {
      type: "constant"
      value: 0.2
    }
  }
}
layer {
  name: "inception_4a/relu_3x3_reduce"
  type: "ReLU"
  bottom: "inception_4a/3x3_reduce"
  top: "inception_4a/3x3_reduce"
}
layer {
  name: "inception_4a/3x3"
  type: "Convolution"
  bottom: "inception_4a/3x3_reduce"
  top: "inception_4a/3x3"
  param {
    lr_mult: 1
    decay_mult: 1
  }
  param {
    lr_mult: 2
    decay_mult: 0
  }
  convolution_param {
    num_output: 208
    pad: 1
    kernel_size: 3
    weight_filler {
      type: "xavier"
      std: 0.03
    }
    bias_filler {
      type: "constant"
      value: 0.2
    }
  }
}
layer {
  name: "inception_4a/relu_3x3"
  type: "ReLU"
  bottom: "inception_4a/3x3"
  top: "inception_4a/3x3"
}
layer {
  name: "inception_4a/5x5_reduce"
  type: "Convolution"
  bottom: "pool3/3x3_s2"
  top: "inception_4a/5x5_reduce"
  param {
    lr_mult: 1
    decay_mult: 1
  }
  param {
    lr_mult: 2
    decay_mult: 0
  }
  convolution_param {
    num_output: 16
    kernel_size: 1
    weight_filler {
      type: "xavier"
      std: 0.2
    }
    bias_filler {
      type: "constant"
      value: 0.2
    }
  }
}
layer {
  name: "inception_4a/relu_5x5_reduce"
  type: "ReLU"
  bottom: "inception_4a/5x5_reduce"
  top: "inception_4a/5x5_reduce"
}
layer {
  name: "inception_4a/5x5"
  type: "Convolution"
  bottom: "inception_4a/5x5_reduce"
  top: "inception_4a/5x5"
  param {
    lr_mult: 1
    decay_mult: 1
  }
  param {
    lr_mult: 2
    decay_mult: 0
  }
  convolution_param {
    num_output: 48
    pad: 2
    kernel_size: 5
    weight_filler {
      type: "xavier"
      std: 0.03
    }
    bias_filler {
      type: "constant"
      value: 0.2
    }
  }
}
layer {
  name: "inception_4a/relu_5x5"
  type: "ReLU"
  bottom: "inception_4a/5x5"
  top: "inception_4a/5x5"
}
layer {
  name: "inception_4a/pool"
  type: "Pooling"
  bottom: "pool3/3x3_s2"
  top: "inception_4a/pool"
  pooling_param {
    pool: MAX
    kernel_size: 3
    stride: 1
    pad: 1
  }
}
layer {
  name: "inception_4a/pool_proj"
  type: "Convolution"
  bottom: "inception_4a/pool"
  top: "inception_4a/pool_proj"
  param {
    lr_mult: 1
    decay_mult: 1
  }
  param {
    lr_mult: 2
    decay_mult: 0
  }
  convolution_param {
    num_output: 64
    kernel_size: 1
    weight_filler {
      type: "xavier"
      std: 0.1
    }
    bias_filler {
      type: "constant"
      value: 0.2
    }
  }
}
layer {
  name: "inception_4a/relu_pool_proj"
  type: "ReLU"
  bottom: "inception_4a/pool_proj"
  top: "inception_4a/pool_proj"
}
layer {
  name: "inception_4a/output"
  type: "Concat"
  bottom: "inception_4a/1x1"
  bottom: "inception_4a/3x3"
  bottom: "inception_4a/5x5"
  bottom: "inception_4a/pool_proj"
  top: "inception_4a/output"
}
layer {
  name: "loss1/ave_pool"
  type: "Pooling"
  bottom: "inception_4a/output"
  top: "loss1/ave_pool"
  pooling_param {
    pool: AVE
    kernel_size: 5
    stride: 3
  }
}
layer {
  name: "loss1/conv"
  type: "Convolution"
  bottom: "loss1/ave_pool"
  top: "loss1/conv"
  param {
    lr_mult: 1
    decay_mult: 1
  }
  param {
    lr_mult: 2
    decay_mult: 0
  }
  convolution_param {
    num_output: 128
    kernel_size: 1
    weight_filler {
      type: "xavier"
      std: 0.08
    }
    bias_filler {
      type: "constant"
      value: 0.2
    }
  }
}
layer {
  name: "loss1/relu_conv"
  type: "ReLU"
  bottom: "loss1/conv"
  top: "loss1/conv"
}
layer {
  name: "loss1/fc"
  type: "InnerProduct"
  bottom: "loss1/conv"
  top: "loss1/fc"
  param {
    lr_mult: 1
    decay_mult: 1
  }
  param {
    lr_mult: 2
    decay_mult: 0
  }
  inner_product_param {
    num_output: 1024
    weight_filler {
      type: "xavier"
      std: 0.02
    }
    bias_filler {
      type: "constant"
      value: 0.2
    }
  }
}
layer {
  name: "loss1/relu_fc"
  type: "ReLU"
  bottom: "loss1/fc"
  top: "loss1/fc"
}
layer {
  name: "loss1/drop_fc"
  type: "Dropout"
  bottom: "loss1/fc"
  top: "loss1/fc"
  dropout_param {
    dropout_ratio: 0.7
  }
}
layer {
  name: "loss1/classifier_plantvillage"
  type: "InnerProduct"
  bottom: "loss1/fc"
  top: "loss1/classifier_plantvillage"
  param {
    lr_mult: 1
    decay_mult: 1
  }
  param {
    lr_mult: 2
    decay_mult: 0
  }
  inner_product_param {
    num_output: 38
    weight_filler {
      type: "xavier"
      std: 0.0009765625
    }
    bias_filler {
      type: "constant"
      value: 0
    }
  }
}
layer {
  name: "inception_4b/1x1"
  type: "Convolution"
  bottom: "inception_4a/output"
  top: "inception_4b/1x1"
  param {
    lr_mult: 1
    decay_mult: 1
  }
  param {
    lr_mult: 2
    decay_mult: 0
  }
  convolution_param {
    num_output: 160
    kernel_size: 1
    weight_filler {
      type: "xavier"
      std: 0.03
    }
    bias_filler {
      type: "constant"
      value: 0.2
    }
  }
}
layer {
  name: "inception_4b/relu_1x1"
  type: "ReLU"
  bottom: "inception_4b/1x1"
  top: "inception_4b/1x1"
}
layer {
  name: "inception_4b/3x3_reduce"
  type: "Convolution"
  bottom: "inception_4a/output"
  top: "inception_4b/3x3_reduce"
  param {
    lr_mult: 1
    decay_mult: 1
  }
  param {
    lr_mult: 2
    decay_mult: 0
  }
  convolution_param {
    num_output: 112
    kernel_size: 1
    weight_filler {
      type: "xavier"
      std: 0.09
    }
    bias_filler {
      type: "constant"
      value: 0.2
    }
  }
}
layer {
  name: "inception_4b/relu_3x3_reduce"
  type: "ReLU"
  bottom: "inception_4b/3x3_reduce"
  top: "inception_4b/3x3_reduce"
}
layer {
  name: "inception_4b/3x3"
  type: "Convolution"
  bottom: "inception_4b/3x3_reduce"
  top: "inception_4b/3x3"
  param {
    lr_mult: 1
    decay_mult: 1
  }
  param {
    lr_mult: 2
    decay_mult: 0
  }
  convolution_param {
    num_output: 224
    pad: 1
    kernel_size: 3
    weight_filler {
      type: "xavier"
      std: 0.03
    }
    bias_filler {
      type: "constant"
      value: 0.2
    }
  }
}
layer {
  name: "inception_4b/relu_3x3"
  type: "ReLU"
  bottom: "inception_4b/3x3"
  top: "inception_4b/3x3"
}
layer {
  name: "inception_4b/5x5_reduce"
  type: "Convolution"
  bottom: "inception_4a/output"
  top: "inception_4b/5x5_reduce"
  param {
    lr_mult: 1
    decay_mult: 1
  }
  param {
    lr_mult: 2
    decay_mult: 0
  }
  convolution_param {
    num_output: 24
    kernel_size: 1
    weight_filler {
      type: "xavier"
      std: 0.2
    }
    bias_filler {
      type: "constant"
      value: 0.2
    }
  }
}
layer {
  name: "inception_4b/relu_5x5_reduce"
  type: "ReLU"
  bottom: "inception_4b/5x5_reduce"
  top: "inception_4b/5x5_reduce"
}
layer {
  name: "inception_4b/5x5"
  type: "Convolution"
  bottom: "inception_4b/5x5_reduce"
  top: "inception_4b/5x5"
  param {
    lr_mult: 1
    decay_mult: 1
  }
  param {
    lr_mult: 2
    decay_mult: 0
  }
  convolution_param {
    num_output: 64
    pad: 2
    kernel_size: 5
    weight_filler {
      type: "xavier"
      std: 0.03
    }
    bias_filler {
      type: "constant"
      value: 0.2
    }
  }
}
layer {
  name: "inception_4b/relu_5x5"
  type: "ReLU"
  bottom: "inception_4b/5x5"
  top: "inception_4b/5x5"
}
layer {
  name: "inception_4b/pool"
  type: "Pooling"
  bottom: "inception_4a/output"
  top: "inception_4b/pool"
  pooling_param {
    pool: MAX
    kernel_size: 3
    stride: 1
    pad: 1
  }
}
layer {
  name: "inception_4b/pool_proj"
  type: "Convolution"
  bottom: "inception_4b/pool"
  top: "inception_4b/pool_proj"
  param {
    lr_mult: 1
    decay_mult: 1
  }
  param {
    lr_mult: 2
    decay_mult: 0
  }
  convolution_param {
    num_output: 64
    kernel_size: 1
    weight_filler {
      type: "xavier"
      std: 0.1
    }
    bias_filler {
      type: "constant"
      value: 0.2
    }
  }
}
layer {
  name: "inception_4b/relu_pool_proj"
  type: "ReLU"
  bottom: "inception_4b/pool_proj"
  top: "inception_4b/pool_proj"
}
layer {
  name: "inception_4b/output"
  type: "Concat"
  bottom: "inception_4b/1x1"
  bottom: "inception_4b/3x3"
  bottom: "inception_4b/5x5"
  bottom: "inception_4b/pool_proj"
  top: "inception_4b/output"
}
layer {
  name: "inception_4c/1x1"
  type: "Convolution"
  bottom: "inception_4b/output"
  top: "inception_4c/1x1"
  param {
    lr_mult: 1
    decay_mult: 1
  }
  param {
    lr_mult: 2
    decay_mult: 0
  }
  convolution_param {
    num_output: 128
    kernel_size: 1
    weight_filler {
      type: "xavier"
      std: 0.03
    }
    bias_filler {
      type: "constant"
      value: 0.2
    }
  }
}
layer {
  name: "inception_4c/relu_1x1"
  type: "ReLU"
  bottom: "inception_4c/1x1"
  top: "inception_4c/1x1"
}
layer {
  name: "inception_4c/3x3_reduce"
  type: "Convolution"
  bottom: "inception_4b/output"
  top: "inception_4c/3x3_reduce"
  param {
    lr_mult: 1
    decay_mult: 1
  }
  param {
    lr_mult: 2
    decay_mult: 0
  }
  convolution_param {
    num_output: 128
    kernel_size: 1
    weight_filler {
      type: "xavier"
      std: 0.09
    }
    bias_filler {
      type: "constant"
      value: 0.2
    }
  }
}
layer {
  name: "inception_4c/relu_3x3_reduce"
  type: "ReLU"
  bottom: "inception_4c/3x3_reduce"
  top: "inception_4c/3x3_reduce"
}
layer {
  name: "inception_4c/3x3"
  type: "Convolution"
  bottom: "inception_4c/3x3_reduce"
  top: "inception_4c/3x3"
  param {
    lr_mult: 1
    decay_mult: 1
  }
  param {
    lr_mult: 2
    decay_mult: 0
  }
  convolution_param {
    num_output: 256
    pad: 1
    kernel_size: 3
    weight_filler {
      type: "xavier"
      std: 0.03
    }
    bias_filler {
      type: "constant"
      value: 0.2
    }
  }
}
layer {
  name: "inception_4c/relu_3x3"
  type: "ReLU"
  bottom: "inception_4c/3x3"
  top: "inception_4c/3x3"
}
layer {
  name: "inception_4c/5x5_reduce"
  type: "Convolution"
  bottom: "inception_4b/output"
  top: "inception_4c/5x5_reduce"
  param {
    lr_mult: 1
    decay_mult: 1
  }
  param {
    lr_mult: 2
    decay_mult: 0
  }
  convolution_param {
    num_output: 24
    kernel_size: 1
    weight_filler {
      type: "xavier"
      std: 0.2
    }
    bias_filler {
      type: "constant"
      value: 0.2
    }
  }
}
layer {
  name: "inception_4c/relu_5x5_reduce"
  type: "ReLU"
  bottom: "inception_4c/5x5_reduce"
  top: "inception_4c/5x5_reduce"
}
layer {
  name: "inception_4c/5x5"
  type: "Convolution"
  bottom: "inception_4c/5x5_reduce"
  top: "inception_4c/5x5"
  param {
    lr_mult: 1
    decay_mult: 1
  }
  param {
    lr_mult: 2
    decay_mult: 0
  }
  convolution_param {
    num_output: 64
    pad: 2
    kernel_size: 5
    weight_filler {
      type: "xavier"
      std: 0.03
    }
    bias_filler {
      type: "constant"
      value: 0.2
    }
  }
}
layer {
  name: "inception_4c/relu_5x5"
  type: "ReLU"
  bottom: "inception_4c/5x5"
  top: "inception_4c/5x5"
}
layer {
  name: "inception_4c/pool"
  type: "Pooling"
  bottom: "inception_4b/output"
  top: "inception_4c/pool"
  pooling_param {
    pool: MAX
    kernel_size: 3
    stride: 1
    pad: 1
  }
}
layer {
  name: "inception_4c/pool_proj"
  type: "Convolution"
  bottom: "inception_4c/pool"
  top: "inception_4c/pool_proj"
  param {
    lr_mult: 1
    decay_mult: 1
  }
  param {
    lr_mult: 2
    decay_mult: 0
  }
  convolution_param {
    num_output: 64
    kernel_size: 1
    weight_filler {
      type: "xavier"
      std: 0.1
    }
    bias_filler {
      type: "constant"
      value: 0.2
    }
  }
}
layer {
  name: "inception_4c/relu_pool_proj"
  type: "ReLU"
  bottom: "inception_4c/pool_proj"
  top: "inception_4c/pool_proj"
}
layer {
  name: "inception_4c/output"
  type: "Concat"
  bottom: "inception_4c/1x1"
  bottom: "inception_4c/3x3"
  bottom: "inception_4c/5x5"
  bottom: "inception_4c/pool_proj"
  top: "inception_4c/output"
}
layer {
  name: "inception_4d/1x1"
  type: "Convolution"
  bottom: "inception_4c/output"
  top: "inception_4d/1x1"
  param {
    lr_mult: 1
    decay_mult: 1
  }
  param {
    lr_mult: 2
    decay_mult: 0
  }
  convolution_param {
    num_output: 112
    kernel_size: 1
    weight_filler {
      type: "xavier"
      std: 0.03
    }
    bias_filler {
      type: "constant"
      value: 0.2
    }
  }
}
layer {
  name: "inception_4d/relu_1x1"
  type: "ReLU"
  bottom: "inception_4d/1x1"
  top: "inception_4d/1x1"
}
layer {
  name: "inception_4d/3x3_reduce"
  type: "Convolution"
  bottom: "inception_4c/output"
  top: "inception_4d/3x3_reduce"
  param {
    lr_mult: 1
    decay_mult: 1
  }
  param {
    lr_mult: 2
    decay_mult: 0
  }
  convolution_param {
    num_output: 144
    kernel_size: 1
    weight_filler {
      type: "xavier"
      std: 0.09
    }
    bias_filler {
      type: "constant"
      value: 0.2
    }
  }
}
layer {
  name: "inception_4d/relu_3x3_reduce"
  type: "ReLU"
  bottom: "inception_4d/3x3_reduce"
  top: "inception_4d/3x3_reduce"
}
layer {
  name: "inception_4d/3x3"
  type: "Convolution"
  bottom: "inception_4d/3x3_reduce"
  top: "inception_4d/3x3"
  param {
    lr_mult: 1
    decay_mult: 1
  }
  param {
    lr_mult: 2
    decay_mult: 0
  }
  convolution_param {
    num_output: 288
    pad: 1
    kernel_size: 3
    weight_filler {
      type: "xavier"
      std: 0.03
    }
    bias_filler {
      type: "constant"
      value: 0.2
    }
  }
}
layer {
  name: "inception_4d/relu_3x3"
  type: "ReLU"
  bottom: "inception_4d/3x3"
  top: "inception_4d/3x3"
}
layer {
  name: "inception_4d/5x5_reduce"
  type: "Convolution"
  bottom: "inception_4c/output"
  top: "inception_4d/5x5_reduce"
  param {
    lr_mult: 1
    decay_mult: 1
  }
  param {
    lr_mult: 2
    decay_mult: 0
  }
  convolution_param {
    num_output: 32
    kernel_size: 1
    weight_filler {
      type: "xavier"
      std: 0.2
    }
    bias_filler {
      type: "constant"
      value: 0.2
    }
  }
}
layer {
  name: "inception_4d/relu_5x5_reduce"
  type: "ReLU"
  bottom: "inception_4d/5x5_reduce"
  top: "inception_4d/5x5_reduce"
}
layer {
  name: "inception_4d/5x5"
  type: "Convolution"
  bottom: "inception_4d/5x5_reduce"
  top: "inception_4d/5x5"
  param {
    lr_mult: 1
    decay_mult: 1
  }
  param {
    lr_mult: 2
    decay_mult: 0
  }
  convolution_param {
    num_output: 64
    pad: 2
    kernel_size: 5
    weight_filler {
      type: "xavier"
      std: 0.03
    }
    bias_filler {
      type: "constant"
      value: 0.2
    }
  }
}
layer {
  name: "inception_4d/relu_5x5"
  type: "ReLU"
  bottom: "inception_4d/5x5"
  top: "inception_4d/5x5"
}
layer {
  name: "inception_4d/pool"
  type: "Pooling"
  bottom: "inception_4c/output"
  top: "inception_4d/pool"
  pooling_param {
    pool: MAX
    kernel_size: 3
    stride: 1
    pad: 1
  }
}
layer {
  name: "inception_4d/pool_proj"
  type: "Convolution"
  bottom: "inception_4d/pool"
  top: "inception_4d/pool_proj"
  param {
    lr_mult: 1
    decay_mult: 1
  }
  param {
    lr_mult: 2
    decay_mult: 0
  }
  convolution_param {
    num_output: 64
    kernel_size: 1
    weight_filler {
      type: "xavier"
      std: 0.1
    }
    bias_filler {
      type: "constant"
      value: 0.2
    }
  }
}
layer {
  name: "inception_4d/relu_pool_proj"
  type: "ReLU"
  bottom: "inception_4d/pool_proj"
  top: "inception_4d/pool_proj"
}
layer {
  name: "inception_4d/output"
  type: "Concat"
  bottom: "inception_4d/1x1"
  bottom: "inception_4d/3x3"
  bottom: "inception_4d/5x5"
  bottom: "inception_4d/pool_proj"
  top: "inception_4d/output"
}
layer {
  name: "loss2/ave_pool"
  type: "Pooling"
  bottom: "inception_4d/output"
  top: "loss2/ave_pool"
  pooling_param {
    pool: AVE
    kernel_size: 5
    stride: 3
  }
}
layer {
  name: "loss2/conv"
  type: "Convolution"
  bottom: "loss2/ave_pool"
  top: "loss2/conv"
  param {
    lr_mult: 1
    decay_mult: 1
  }
  param {
    lr_mult: 2
    decay_mult: 0
  }
  convolution_param {
    num_output: 128
    kernel_size: 1
    weight_filler {
      type: "xavier"
      std: 0.08
    }
    bias_filler {
      type: "constant"
      value: 0.2
    }
  }
}
layer {
  name: "loss2/relu_conv"
  type: "ReLU"
  bottom: "loss2/conv"
  top: "loss2/conv"
}
layer {
  name: "loss2/fc"
  type: "InnerProduct"
  bottom: "loss2/conv"
  top: "loss2/fc"
  param {
    lr_mult: 1
    decay_mult: 1
  }
  param {
    lr_mult: 2
    decay_mult: 0
  }
  inner_product_param {
    num_output: 1024
    weight_filler {
      type: "xavier"
      std: 0.02
    }
    bias_filler {
      type: "constant"
      value: 0.2
    }
  }
}
layer {
  name: "loss2/relu_fc"
  type: "ReLU"
  bottom: "loss2/fc"
  top: "loss2/fc"
}
layer {
  name: "loss2/drop_fc"
  type: "Dropout"
  bottom: "loss2/fc"
  top: "loss2/fc"
  dropout_param {
    dropout_ratio: 0.7
  }
}
layer {
  name: "loss2/classifier_plantvillage"
  type: "InnerProduct"
  bottom: "loss2/fc"
  top: "loss2/classifier_plantvillage"
  param {
    lr_mult: 1
    decay_mult: 1
  }
  param {
    lr_mult: 2
    decay_mult: 0
  }
  inner_product_param {
    num_output: 38
    weight_filler {
      type: "xavier"
      std: 0.0009765625
    }
    bias_filler {
      type: "constant"
      value: 0
    }
  }
}
layer {
  name: "inception_4e/1x1"
  type: "Convolution"
  bottom: "inception_4d/output"
  top: "inception_4e/1x1"
  param {
    lr_mult: 1
    decay_mult: 1
  }
  param {
    lr_mult: 2
    decay_mult: 0
  }
  convolution_param {
    num_output: 256
    kernel_size: 1
    weight_filler {
      type: "xavier"
      std: 0.03
    }
    bias_filler {
      type: "constant"
      value: 0.2
    }
  }
}
layer {
  name: "inception_4e/relu_1x1"
  type: "ReLU"
  bottom: "inception_4e/1x1"
  top: "inception_4e/1x1"
}
layer {
  name: "inception_4e/3x3_reduce"
  type: "Convolution"
  bottom: "inception_4d/output"
  top: "inception_4e/3x3_reduce"
  param {
    lr_mult: 1
    decay_mult: 1
  }
  param {
    lr_mult: 2
    decay_mult: 0
  }
  convolution_param {
    num_output: 160
    kernel_size: 1
    weight_filler {
      type: "xavier"
      std: 0.09
    }
    bias_filler {
      type: "constant"
      value: 0.2
    }
  }
}
layer {
  name: "inception_4e/relu_3x3_reduce"
  type: "ReLU"
  bottom: "inception_4e/3x3_reduce"
  top: "inception_4e/3x3_reduce"
}
layer {
  name: "inception_4e/3x3"
  type: "Convolution"
  bottom: "inception_4e/3x3_reduce"
  top: "inception_4e/3x3"
  param {
    lr_mult: 1
    decay_mult: 1
  }
  param {
    lr_mult: 2
    decay_mult: 0
  }
  convolution_param {
    num_output: 320
    pad: 1
    kernel_size: 3
    weight_filler {
      type: "xavier"
      std: 0.03
    }
    bias_filler {
      type: "constant"
      value: 0.2
    }
  }
}
layer {
  name: "inception_4e/relu_3x3"
  type: "ReLU"
  bottom: "inception_4e/3x3"
  top: "inception_4e/3x3"
}
layer {
  name: "inception_4e/5x5_reduce"
  type: "Convolution"
  bottom: "inception_4d/output"
  top: "inception_4e/5x5_reduce"
  param {
    lr_mult: 1
    decay_mult: 1
  }
  param {
    lr_mult: 2
    decay_mult: 0
  }
  convolution_param {
    num_output: 32
    kernel_size: 1
    weight_filler {
      type: "xavier"
      std: 0.2
    }
    bias_filler {
      type: "constant"
      value: 0.2
    }
  }
}
layer {
  name: "inception_4e/relu_5x5_reduce"
  type: "ReLU"
  bottom: "inception_4e/5x5_reduce"
  top: "inception_4e/5x5_reduce"
}
layer {
  name: "inception_4e/5x5"
  type: "Convolution"
  bottom: "inception_4e/5x5_reduce"
  top: "inception_4e/
I0403 18:49:17.407655  7772 layer_factory.hpp:77] Creating layer data
I0403 18:49:17.408383  7772 net.cpp:91] Creating Layer data
I0403 18:49:17.408421  7772 net.cpp:399] data -> data
I0403 18:49:17.408483  7772 net.cpp:399] data -> label
I0403 18:49:17.408525  7772 data_transformer.cpp:25] Loading mean file from: /home/mohanty/data/final_dataset/lmdb/grayscale-40-60/mean.binaryproto
I0403 18:49:17.409690  7775 db_lmdb.cpp:38] Opened lmdb /home/mohanty/data/final_dataset/lmdb/grayscale-40-60/test_db
I0403 18:49:17.425123  7772 data_layer.cpp:41] output data size: 24,3,224,224
I0403 18:49:17.458766  7772 net.cpp:141] Setting up data
I0403 18:49:17.458879  7772 net.cpp:148] Top shape: 24 3 224 224 (3612672)
I0403 18:49:17.458909  7772 net.cpp:148] Top shape: 24 (24)
I0403 18:49:17.458930  7772 net.cpp:156] Memory required for data: 14450784
I0403 18:49:17.458963  7772 layer_factory.hpp:77] Creating layer label_data_1_split
I0403 18:49:17.458997  7772 net.cpp:91] Creating Layer label_data_1_split
I0403 18:49:17.459019  7772 net.cpp:425] label_data_1_split <- label
I0403 18:49:17.459058  7772 net.cpp:399] label_data_1_split -> label_data_1_split_0
I0403 18:49:17.459090  7772 net.cpp:399] label_data_1_split -> label_data_1_split_1
I0403 18:49:17.459116  7772 net.cpp:399] label_data_1_split -> label_data_1_split_2
I0403 18:49:17.459142  7772 net.cpp:399] label_data_1_split -> label_data_1_split_3
I0403 18:49:17.459166  7772 net.cpp:399] label_data_1_split -> label_data_1_split_4
I0403 18:49:17.459190  7772 net.cpp:399] label_data_1_split -> label_data_1_split_5
I0403 18:49:17.459214  7772 net.cpp:399] label_data_1_split -> label_data_1_split_6
I0403 18:49:17.459244  7772 net.cpp:399] label_data_1_split -> label_data_1_split_7
I0403 18:49:17.459272  7772 net.cpp:399] label_data_1_split -> label_data_1_split_8
I0403 18:49:17.459298  7772 net.cpp:399] label_data_1_split -> label_data_1_split_9
I0403 18:49:17.459435  7772 net.cpp:141] Setting up label_data_1_split
I0403 18:49:17.459463  7772 net.cpp:148] Top shape: 24 (24)
I0403 18:49:17.459484  7772 net.cpp:148] Top shape: 24 (24)
I0403 18:49:17.459504  7772 net.cpp:148] Top shape: 24 (24)
I0403 18:49:17.459524  7772 net.cpp:148] Top shape: 24 (24)
I0403 18:49:17.459543  7772 net.cpp:148] Top shape: 24 (24)
I0403 18:49:17.459563  7772 net.cpp:148] Top shape: 24 (24)
I0403 18:49:17.459583  7772 net.cpp:148] Top shape: 24 (24)
I0403 18:49:17.459602  7772 net.cpp:148] Top shape: 24 (24)
I0403 18:49:17.459621  7772 net.cpp:148] Top shape: 24 (24)
I0403 18:49:17.459645  7772 net.cpp:148] Top shape: 24 (24)
I0403 18:49:17.459704  7772 net.cpp:156] Memory required for data: 14451744
I0403 18:49:17.459725  7772 layer_factory.hpp:77] Creating layer conv1/7x7_s2
I0403 18:49:17.459764  7772 net.cpp:91] Creating Layer conv1/7x7_s2
I0403 18:49:17.459787  7772 net.cpp:425] conv1/7x7_s2 <- data
I0403 18:49:17.459811  7772 net.cpp:399] conv1/7x7_s2 -> conv1/7x7_s2
I0403 18:49:17.631283  7772 net.cpp:141] Setting up conv1/7x7_s2
I0403 18:49:17.631399  7772 net.cpp:148] Top shape: 24 64 112 112 (19267584)
I0403 18:49:17.631422  7772 net.cpp:156] Memory required for data: 91522080
I0403 18:49:17.631459  7772 layer_factory.hpp:77] Creating layer conv1/relu_7x7
I0403 18:49:17.631492  7772 net.cpp:91] Creating Layer conv1/relu_7x7
I0403 18:49:17.631515  7772 net.cpp:425] conv1/relu_7x7 <- conv1/7x7_s2
I0403 18:49:17.631542  7772 net.cpp:386] conv1/relu_7x7 -> conv1/7x7_s2 (in-place)
I0403 18:49:17.631882  7772 net.cpp:141] Setting up conv1/relu_7x7
I0403 18:49:17.631916  7772 net.cpp:148] Top shape: 24 64 112 112 (19267584)
I0403 18:49:17.631935  7772 net.cpp:156] Memory required for data: 168592416
I0403 18:49:17.631953  7772 layer_factory.hpp:77] Creating layer pool1/3x3_s2
I0403 18:49:17.631986  7772 net.cpp:91] Creating Layer pool1/3x3_s2
I0403 18:49:17.632010  7772 net.cpp:425] pool1/3x3_s2 <- conv1/7x7_s2
I0403 18:49:17.632032  7772 net.cpp:399] pool1/3x3_s2 -> pool1/3x3_s2
I0403 18:49:17.632125  7772 net.cpp:141] Setting up pool1/3x3_s2
I0403 18:49:17.632155  7772 net.cpp:148] Top shape: 24 64 56 56 (4816896)
I0403 18:49:17.632174  7772 net.cpp:156] Memory required for data: 187860000
I0403 18:49:17.632194  7772 layer_factory.hpp:77] Creating layer pool1/norm1
I0403 18:49:17.632222  7772 net.cpp:91] Creating Layer pool1/norm1
I0403 18:49:17.632243  7772 net.cpp:425] pool1/norm1 <- pool1/3x3_s2
I0403 18:49:17.632268  7772 net.cpp:399] pool1/norm1 -> pool1/norm1
I0403 18:49:17.632645  7772 net.cpp:141] Setting up pool1/norm1
I0403 18:49:17.632679  7772 net.cpp:148] Top shape: 24 64 56 56 (4816896)
I0403 18:49:17.632699  7772 net.cpp:156] Memory required for data: 207127584
I0403 18:49:17.632716  7772 layer_factory.hpp:77] Creating layer conv2/3x3_reduce
I0403 18:49:17.632748  7772 net.cpp:91] Creating Layer conv2/3x3_reduce
I0403 18:49:17.632771  7772 net.cpp:425] conv2/3x3_reduce <- pool1/norm1
I0403 18:49:17.632797  7772 net.cpp:399] conv2/3x3_reduce -> conv2/3x3_reduce
I0403 18:49:17.634549  7772 net.cpp:141] Setting up conv2/3x3_reduce
I0403 18:49:17.634591  7772 net.cpp:148] Top shape: 24 64 56 56 (4816896)
I0403 18:49:17.634614  7772 net.cpp:156] Memory required for data: 226395168
I0403 18:49:17.634641  7772 layer_factory.hpp:77] Creating layer conv2/relu_3x3_reduce
I0403 18:49:17.634665  7772 net.cpp:91] Creating Layer conv2/relu_3x3_reduce
I0403 18:49:17.634683  7772 net.cpp:425] conv2/relu_3x3_reduce <- conv2/3x3_reduce
I0403 18:49:17.634708  7772 net.cpp:386] conv2/relu_3x3_reduce -> conv2/3x3_reduce (in-place)
I0403 18:49:17.635036  7772 net.cpp:141] Setting up conv2/relu_3x3_reduce
I0403 18:49:17.635076  7772 net.cpp:148] Top shape: 24 64 56 56 (4816896)
I0403 18:49:17.635095  7772 net.cpp:156] Memory required for data: 245662752
I0403 18:49:17.635115  7772 layer_factory.hpp:77] Creating layer conv2/3x3
I0403 18:49:17.635145  7772 net.cpp:91] Creating Layer conv2/3x3
I0403 18:49:17.635167  7772 net.cpp:425] conv2/3x3 <- conv2/3x3_reduce
I0403 18:49:17.635190  7772 net.cpp:399] conv2/3x3 -> conv2/3x3
I0403 18:49:17.637965  7772 net.cpp:141] Setting up conv2/3x3
I0403 18:49:17.638005  7772 net.cpp:148] Top shape: 24 192 56 56 (14450688)
I0403 18:49:17.638027  7772 net.cpp:156] Memory required for data: 303465504
I0403 18:49:17.638054  7772 layer_factory.hpp:77] Creating layer conv2/relu_3x3
I0403 18:49:17.638077  7772 net.cpp:91] Creating Layer conv2/relu_3x3
I0403 18:49:17.638097  7772 net.cpp:425] conv2/relu_3x3 <- conv2/3x3
I0403 18:49:17.638119  7772 net.cpp:386] conv2/relu_3x3 -> conv2/3x3 (in-place)
I0403 18:49:17.638344  7772 net.cpp:141] Setting up conv2/relu_3x3
I0403 18:49:17.638375  7772 net.cpp:148] Top shape: 24 192 56 56 (14450688)
I0403 18:49:17.638432  7772 net.cpp:156] Memory required for data: 361268256
I0403 18:49:17.638450  7772 layer_factory.hpp:77] Creating layer conv2/norm2
I0403 18:49:17.638475  7772 net.cpp:91] Creating Layer conv2/norm2
I0403 18:49:17.638496  7772 net.cpp:425] conv2/norm2 <- conv2/3x3
I0403 18:49:17.638517  7772 net.cpp:399] conv2/norm2 -> conv2/norm2
I0403 18:49:17.638890  7772 net.cpp:141] Setting up conv2/norm2
I0403 18:49:17.638924  7772 net.cpp:148] Top shape: 24 192 56 56 (14450688)
I0403 18:49:17.638943  7772 net.cpp:156] Memory required for data: 419071008
I0403 18:49:17.638962  7772 layer_factory.hpp:77] Creating layer pool2/3x3_s2
I0403 18:49:17.638985  7772 net.cpp:91] Creating Layer pool2/3x3_s2
I0403 18:49:17.639005  7772 net.cpp:425] pool2/3x3_s2 <- conv2/norm2
I0403 18:49:17.639027  7772 net.cpp:399] pool2/3x3_s2 -> pool2/3x3_s2
I0403 18:49:17.639093  7772 net.cpp:141] Setting up pool2/3x3_s2
I0403 18:49:17.639122  7772 net.cpp:148] Top shape: 24 192 28 28 (3612672)
I0403 18:49:17.639140  7772 net.cpp:156] Memory required for data: 433521696
I0403 18:49:17.639159  7772 layer_factory.hpp:77] Creating layer pool2/3x3_s2_pool2/3x3_s2_0_split
I0403 18:49:17.639180  7772 net.cpp:91] Creating Layer pool2/3x3_s2_pool2/3x3_s2_0_split
I0403 18:49:17.639202  7772 net.cpp:425] pool2/3x3_s2_pool2/3x3_s2_0_split <- pool2/3x3_s2
I0403 18:49:17.639225  7772 net.cpp:399] pool2/3x3_s2_pool2/3x3_s2_0_split -> pool2/3x3_s2_pool2/3x3_s2_0_split_0
I0403 18:49:17.639248  7772 net.cpp:399] pool2/3x3_s2_pool2/3x3_s2_0_split -> pool2/3x3_s2_pool2/3x3_s2_0_split_1
I0403 18:49:17.639279  7772 net.cpp:399] pool2/3x3_s2_pool2/3x3_s2_0_split -> pool2/3x3_s2_pool2/3x3_s2_0_split_2
I0403 18:49:17.639305  7772 net.cpp:399] pool2/3x3_s2_pool2/3x3_s2_0_split -> pool2/3x3_s2_pool2/3x3_s2_0_split_3
I0403 18:49:17.639394  7772 net.cpp:141] Setting up pool2/3x3_s2_pool2/3x3_s2_0_split
I0403 18:49:17.639422  7772 net.cpp:148] Top shape: 24 192 28 28 (3612672)
I0403 18:49:17.639443  7772 net.cpp:148] Top shape: 24 192 28 28 (3612672)
I0403 18:49:17.639462  7772 net.cpp:148] Top shape: 24 192 28 28 (3612672)
I0403 18:49:17.639482  7772 net.cpp:148] Top shape: 24 192 28 28 (3612672)
I0403 18:49:17.639498  7772 net.cpp:156] Memory required for data: 491324448
I0403 18:49:17.639518  7772 layer_factory.hpp:77] Creating layer inception_3a/1x1
I0403 18:49:17.639544  7772 net.cpp:91] Creating Layer inception_3a/1x1
I0403 18:49:17.639565  7772 net.cpp:425] inception_3a/1x1 <- pool2/3x3_s2_pool2/3x3_s2_0_split_0
I0403 18:49:17.639591  7772 net.cpp:399] inception_3a/1x1 -> inception_3a/1x1
I0403 18:49:17.641444  7772 net.cpp:141] Setting up inception_3a/1x1
I0403 18:49:17.641484  7772 net.cpp:148] Top shape: 24 64 28 28 (1204224)
I0403 18:49:17.641505  7772 net.cpp:156] Memory required for data: 496141344
I0403 18:49:17.641527  7772 layer_factory.hpp:77] Creating layer inception_3a/relu_1x1
I0403 18:49:17.641549  7772 net.cpp:91] Creating Layer inception_3a/relu_1x1
I0403 18:49:17.641569  7772 net.cpp:425] inception_3a/relu_1x1 <- inception_3a/1x1
I0403 18:49:17.641592  7772 net.cpp:386] inception_3a/relu_1x1 -> inception_3a/1x1 (in-place)
I0403 18:49:17.641809  7772 net.cpp:141] Setting up inception_3a/relu_1x1
I0403 18:49:17.641841  7772 net.cpp:148] Top shape: 24 64 28 28 (1204224)
I0403 18:49:17.641860  7772 net.cpp:156] Memory required for data: 500958240
I0403 18:49:17.641878  7772 layer_factory.hpp:77] Creating layer inception_3a/3x3_reduce
I0403 18:49:17.641906  7772 net.cpp:91] Creating Layer inception_3a/3x3_reduce
I0403 18:49:17.641928  7772 net.cpp:425] inception_3a/3x3_reduce <- pool2/3x3_s2_pool2/3x3_s2_0_split_1
I0403 18:49:17.641954  7772 net.cpp:399] inception_3a/3x3_reduce -> inception_3a/3x3_reduce
I0403 18:49:17.643992  7772 net.cpp:141] Setting up inception_3a/3x3_reduce
I0403 18:49:17.644032  7772 net.cpp:148] Top shape: 24 96 28 28 (1806336)
I0403 18:49:17.644053  7772 net.cpp:156] Memory required for data: 508183584
I0403 18:49:17.644080  7772 layer_factory.hpp:77] Creating layer inception_3a/relu_3x3_reduce
I0403 18:49:17.644126  7772 net.cpp:91] Creating Layer inception_3a/relu_3x3_reduce
I0403 18:49:17.644150  7772 net.cpp:425] inception_3a/relu_3x3_reduce <- inception_3a/3x3_reduce
I0403 18:49:17.644171  7772 net.cpp:386] inception_3a/relu_3x3_reduce -> inception_3a/3x3_reduce (in-place)
I0403 18:49:17.644398  7772 net.cpp:141] Setting up inception_3a/relu_3x3_reduce
I0403 18:49:17.644430  7772 net.cpp:148] Top shape: 24 96 28 28 (1806336)
I0403 18:49:17.644449  7772 net.cpp:156] Memory required for data: 515408928
I0403 18:49:17.644467  7772 layer_factory.hpp:77] Creating layer inception_3a/3x3
I0403 18:49:17.644497  7772 net.cpp:91] Creating Layer inception_3a/3x3
I0403 18:49:17.644520  7772 net.cpp:425] inception_3a/3x3 <- inception_3a/3x3_reduce
I0403 18:49:17.644542  7772 net.cpp:399] inception_3a/3x3 -> inception_3a/3x3
I0403 18:49:17.646558  7772 net.cpp:141] Setting up inception_3a/3x3
I0403 18:49:17.646594  7772 net.cpp:148] Top shape: 24 128 28 28 (2408448)
I0403 18:49:17.646613  7772 net.cpp:156] Memory required for data: 525042720
I0403 18:49:17.646636  7772 layer_factory.hpp:77] Creating layer inception_3a/relu_3x3
I0403 18:49:17.646659  7772 net.cpp:91] Creating Layer inception_3a/relu_3x3
I0403 18:49:17.646679  7772 net.cpp:425] inception_3a/relu_3x3 <- inception_3a/3x3
I0403 18:49:17.646703  7772 net.cpp:386] inception_3a/relu_3x3 -> inception_3a/3x3 (in-place)
I0403 18:49:17.647037  7772 net.cpp:141] Setting up inception_3a/relu_3x3
I0403 18:49:17.647070  7772 net.cpp:148] Top shape: 24 128 28 28 (2408448)
I0403 18:49:17.647089  7772 net.cpp:156] Memory required for data: 534676512
I0403 18:49:17.647107  7772 layer_factory.hpp:77] Creating layer inception_3a/5x5_reduce
I0403 18:49:17.647135  7772 net.cpp:91] Creating Layer inception_3a/5x5_reduce
I0403 18:49:17.647156  7772 net.cpp:425] inception_3a/5x5_reduce <- pool2/3x3_s2_pool2/3x3_s2_0_split_2
I0403 18:49:17.647183  7772 net.cpp:399] inception_3a/5x5_reduce -> inception_3a/5x5_reduce
I0403 18:49:17.648346  7772 net.cpp:141] Setting up inception_3a/5x5_reduce
I0403 18:49:17.648381  7772 net.cpp:148] Top shape: 24 16 28 28 (301056)
I0403 18:49:17.648401  7772 net.cpp:156] Memory required for data: 535880736
I0403 18:49:17.648424  7772 layer_factory.hpp:77] Creating layer inception_3a/relu_5x5_reduce
I0403 18:49:17.648447  7772 net.cpp:91] Creating Layer inception_3a/relu_5x5_reduce
I0403 18:49:17.648466  7772 net.cpp:425] inception_3a/relu_5x5_reduce <- inception_3a/5x5_reduce
I0403 18:49:17.648490  7772 net.cpp:386] inception_3a/relu_5x5_reduce -> inception_3a/5x5_reduce (in-place)
I0403 18:49:17.648828  7772 net.cpp:141] Setting up inception_3a/relu_5x5_reduce
I0403 18:49:17.648862  7772 net.cpp:148] Top shape: 24 16 28 28 (301056)
I0403 18:49:17.648882  7772 net.cpp:156] Memory required for data: 537084960
I0403 18:49:17.648901  7772 layer_factory.hpp:77] Creating layer inception_3a/5x5
I0403 18:49:17.648931  7772 net.cpp:91] Creating Layer inception_3a/5x5
I0403 18:49:17.648952  7772 net.cpp:425] inception_3a/5x5 <- inception_3a/5x5_reduce
I0403 18:49:17.648977  7772 net.cpp:399] inception_3a/5x5 -> inception_3a/5x5
I0403 18:49:17.650200  7772 net.cpp:141] Setting up inception_3a/5x5
I0403 18:49:17.650243  7772 net.cpp:148] Top shape: 24 32 28 28 (602112)
I0403 18:49:17.650264  7772 net.cpp:156] Memory required for data: 539493408
I0403 18:49:17.650295  7772 layer_factory.hpp:77] Creating layer inception_3a/relu_5x5
I0403 18:49:17.650317  7772 net.cpp:91] Creating Layer inception_3a/relu_5x5
I0403 18:49:17.650337  7772 net.cpp:425] inception_3a/relu_5x5 <- inception_3a/5x5
I0403 18:49:17.650362  7772 net.cpp:386] inception_3a/relu_5x5 -> inception_3a/5x5 (in-place)
I0403 18:49:17.650573  7772 net.cpp:141] Setting up inception_3a/relu_5x5
I0403 18:49:17.650605  7772 net.cpp:148] Top shape: 24 32 28 28 (602112)
I0403 18:49:17.650624  7772 net.cpp:156] Memory required for data: 541901856
I0403 18:49:17.650642  7772 layer_factory.hpp:77] Creating layer inception_3a/pool
I0403 18:49:17.650665  7772 net.cpp:91] Creating Layer inception_3a/pool
I0403 18:49:17.650701  7772 net.cpp:425] inception_3a/pool <- pool2/3x3_s2_pool2/3x3_s2_0_split_3
I0403 18:49:17.650727  7772 net.cpp:399] inception_3a/pool -> inception_3a/pool
I0403 18:49:17.650799  7772 net.cpp:141] Setting up inception_3a/pool
I0403 18:49:17.650830  7772 net.cpp:148] Top shape: 24 192 28 28 (3612672)
I0403 18:49:17.650848  7772 net.cpp:156] Memory required for data: 556352544
I0403 18:49:17.650868  7772 layer_factory.hpp:77] Creating layer inception_3a/pool_proj
I0403 18:49:17.650895  7772 net.cpp:91] Creating Layer inception_3a/pool_proj
I0403 18:49:17.650918  7772 net.cpp:425] inception_3a/pool_proj <- inception_3a/pool
I0403 18:49:17.650944  7772 net.cpp:399] inception_3a/pool_proj -> inception_3a/pool_proj
I0403 18:49:17.652120  7772 net.cpp:141] Setting up inception_3a/pool_proj
I0403 18:49:17.652155  7772 net.cpp:148] Top shape: 24 32 28 28 (602112)
I0403 18:49:17.652174  7772 net.cpp:156] Memory required for data: 558760992
I0403 18:49:17.652204  7772 layer_factory.hpp:77] Creating layer inception_3a/relu_pool_proj
I0403 18:49:17.652228  7772 net.cpp:91] Creating Layer inception_3a/relu_pool_proj
I0403 18:49:17.652248  7772 net.cpp:425] inception_3a/relu_pool_proj <- inception_3a/pool_proj
I0403 18:49:17.652286  7772 net.cpp:386] inception_3a/relu_pool_proj -> inception_3a/pool_proj (in-place)
I0403 18:49:17.652627  7772 net.cpp:141] Setting up inception_3a/relu_pool_proj
I0403 18:49:17.652662  7772 net.cpp:148] Top shape: 24 32 28 28 (602112)
I0403 18:49:17.652680  7772 net.cpp:156] Memory required for data: 561169440
I0403 18:49:17.652699  7772 layer_factory.hpp:77] Creating layer inception_3a/output
I0403 18:49:17.652720  7772 net.cpp:91] Creating Layer inception_3a/output
I0403 18:49:17.652740  7772 net.cpp:425] inception_3a/output <- inception_3a/1x1
I0403 18:49:17.652760  7772 net.cpp:425] inception_3a/output <- inception_3a/3x3
I0403 18:49:17.652781  7772 net.cpp:425] inception_3a/output <- inception_3a/5x5
I0403 18:49:17.652799  7772 net.cpp:425] inception_3a/output <- inception_3a/pool_proj
I0403 18:49:17.652822  7772 net.cpp:399] inception_3a/output -> inception_3a/output
I0403 18:49:17.652879  7772 net.cpp:141] Setting up inception_3a/output
I0403 18:49:17.652912  7772 net.cpp:148] Top shape: 24 256 28 28 (4816896)
I0403 18:49:17.652931  7772 net.cpp:156] Memory required for data: 580437024
I0403 18:49:17.652950  7772 layer_factory.hpp:77] Creating layer inception_3a/output_inception_3a/output_0_split
I0403 18:49:17.652971  7772 net.cpp:91] Creating Layer inception_3a/output_inception_3a/output_0_split
I0403 18:49:17.652988  7772 net.cpp:425] inception_3a/output_inception_3a/output_0_split <- inception_3a/output
I0403 18:49:17.653010  7772 net.cpp:399] inception_3a/output_inception_3a/output_0_split -> inception_3a/output_inception_3a/output_0_split_0
I0403 18:49:17.653034  7772 net.cpp:399] inception_3a/output_inception_3a/output_0_split -> inception_3a/output_inception_3a/output_0_split_1
I0403 18:49:17.653066  7772 net.cpp:399] inception_3a/output_inception_3a/output_0_split -> inception_3a/output_inception_3a/output_0_split_2
I0403 18:49:17.653095  7772 net.cpp:399] inception_3a/output_inception_3a/output_0_split -> inception_3a/output_inception_3a/output_0_split_3
I0403 18:49:17.653189  7772 net.cpp:141] Setting up inception_3a/output_inception_3a/output_0_split
I0403 18:49:17.653221  7772 net.cpp:148] Top shape: 24 256 28 28 (4816896)
I0403 18:49:17.653242  7772 net.cpp:148] Top shape: 24 256 28 28 (4816896)
I0403 18:49:17.653262  7772 net.cpp:148] Top shape: 24 256 28 28 (4816896)
I0403 18:49:17.653290  7772 net.cpp:148] Top shape: 24 256 28 28 (4816896)
I0403 18:49:17.653308  7772 net.cpp:156] Memory required for data: 657507360
I0403 18:49:17.653326  7772 layer_factory.hpp:77] Creating layer inception_3b/1x1
I0403 18:49:17.653354  7772 net.cpp:91] Creating Layer inception_3b/1x1
I0403 18:49:17.653376  7772 net.cpp:425] inception_3b/1x1 <- inception_3a/output_inception_3a/output_0_split_0
I0403 18:49:17.653400  7772 net.cpp:399] inception_3b/1x1 -> inception_3b/1x1
I0403 18:49:17.654775  7772 net.cpp:141] Setting up inception_3b/1x1
I0403 18:49:17.654824  7772 net.cpp:148] Top shape: 24 128 28 28 (2408448)
I0403 18:49:17.654845  7772 net.cpp:156] Memory required for data: 667141152
I0403 18:49:17.654867  7772 layer_factory.hpp:77] Creating layer inception_3b/relu_1x1
I0403 18:49:17.654891  7772 net.cpp:91] Creating Layer inception_3b/relu_1x1
I0403 18:49:17.654913  7772 net.cpp:425] inception_3b/relu_1x1 <- inception_3b/1x1
I0403 18:49:17.654935  7772 net.cpp:386] inception_3b/relu_1x1 -> inception_3b/1x1 (in-place)
I0403 18:49:17.655149  7772 net.cpp:141] Setting up inception_3b/relu_1x1
I0403 18:49:17.655179  7772 net.cpp:148] Top shape: 24 128 28 28 (2408448)
I0403 18:49:17.655197  7772 net.cpp:156] Memory required for data: 676774944
I0403 18:49:17.655216  7772 layer_factory.hpp:77] Creating layer inception_3b/3x3_reduce
I0403 18:49:17.655243  7772 net.cpp:91] Creating Layer inception_3b/3x3_reduce
I0403 18:49:17.655266  7772 net.cpp:425] inception_3b/3x3_reduce <- inception_3a/output_inception_3a/output_0_split_1
I0403 18:49:17.655299  7772 net.cpp:399] inception_3b/3x3_reduce -> inception_3b/3x3_reduce
I0403 18:49:17.656668  7772 net.cpp:141] Setting up inception_3b/3x3_reduce
I0403 18:49:17.656708  7772 net.cpp:148] Top shape: 24 128 28 28 (2408448)
I0403 18:49:17.656728  7772 net.cpp:156] Memory required for data: 686408736
I0403 18:49:17.656750  7772 layer_factory.hpp:77] Creating layer inception_3b/relu_3x3_reduce
I0403 18:49:17.656772  7772 net.cpp:91] Creating Layer inception_3b/relu_3x3_reduce
I0403 18:49:17.656792  7772 net.cpp:425] inception_3b/relu_3x3_reduce <- inception_3b/3x3_reduce
I0403 18:49:17.656813  7772 net.cpp:386] inception_3b/relu_3x3_reduce -> inception_3b/3x3_reduce (in-place)
I0403 18:49:17.657024  7772 net.cpp:141] Setting up inception_3b/relu_3x3_reduce
I0403 18:49:17.657058  7772 net.cpp:148] Top shape: 24 128 28 28 (2408448)
I0403 18:49:17.657078  7772 net.cpp:156] Memory required for data: 696042528
I0403 18:49:17.657097  7772 layer_factory.hpp:77] Creating layer inception_3b/3x3
I0403 18:49:17.657127  7772 net.cpp:91] Creating Layer inception_3b/3x3
I0403 18:49:17.657150  7772 net.cpp:425] inception_3b/3x3 <- inception_3b/3x3_reduce
I0403 18:49:17.657177  7772 net.cpp:399] inception_3b/3x3 -> inception_3b/3x3
I0403 18:49:17.660696  7772 net.cpp:141] Setting up inception_3b/3x3
I0403 18:49:17.660732  7772 net.cpp:148] Top shape: 24 192 28 28 (3612672)
I0403 18:49:17.660753  7772 net.cpp:156] Memory required for data: 710493216
I0403 18:49:17.660775  7772 layer_factory.hpp:77] Creating layer inception_3b/relu_3x3
I0403 18:49:17.660797  7772 net.cpp:91] Creating Layer inception_3b/relu_3x3
I0403 18:49:17.660816  7772 net.cpp:425] inception_3b/relu_3x3 <- inception_3b/3x3
I0403 18:49:17.660840  7772 net.cpp:386] inception_3b/relu_3x3 -> inception_3b/3x3 (in-place)
I0403 18:49:17.661170  7772 net.cpp:141] Setting up inception_3b/relu_3x3
I0403 18:49:17.661203  7772 net.cpp:148] Top shape: 24 192 28 28 (3612672)
I0403 18:49:17.661222  7772 net.cpp:156] Memory required for data: 724943904
I0403 18:49:17.661242  7772 layer_factory.hpp:77] Creating layer inception_3b/5x5_reduce
I0403 18:49:17.661269  7772 net.cpp:91] Creating Layer inception_3b/5x5_reduce
I0403 18:49:17.661299  7772 net.cpp:425] inception_3b/5x5_reduce <- inception_3a/output_inception_3a/output_0_split_2
I0403 18:49:17.661327  7772 net.cpp:399] inception_3b/5x5_reduce -> inception_3b/5x5_reduce
I0403 18:49:17.662535  7772 net.cpp:141] Setting up inception_3b/5x5_reduce
I0403 18:49:17.662574  7772 net.cpp:148] Top shape: 24 32 28 28 (602112)
I0403 18:49:17.662593  7772 net.cpp:156] Memory required for data: 727352352
I0403 18:49:17.662616  7772 layer_factory.hpp:77] Creating layer inception_3b/relu_5x5_reduce
I0403 18:49:17.662639  7772 net.cpp:91] Creating Layer inception_3b/relu_5x5_reduce
I0403 18:49:17.662658  7772 net.cpp:425] inception_3b/relu_5x5_reduce <- inception_3b/5x5_reduce
I0403 18:49:17.662683  7772 net.cpp:386] inception_3b/relu_5x5_reduce -> inception_3b/5x5_reduce (in-place)
I0403 18:49:17.662920  7772 net.cpp:141] Setting up inception_3b/relu_5x5_reduce
I0403 18:49:17.662953  7772 net.cpp:148] Top shape: 24 32 28 28 (602112)
I0403 18:49:17.662971  7772 net.cpp:156] Memory required for data: 729760800
I0403 18:49:17.662991  7772 layer_factory.hpp:77] Creating layer inception_3b/5x5
I0403 18:49:17.663018  7772 net.cpp:91] Creating Layer inception_3b/5x5
I0403 18:49:17.663040  7772 net.cpp:425] inception_3b/5x5 <- inception_3b/5x5_reduce
I0403 18:49:17.663066  7772 net.cpp:399] inception_3b/5x5 -> inception_3b/5x5
I0403 18:49:17.665426  7772 net.cpp:141] Setting up inception_3b/5x5
I0403 18:49:17.665467  7772 net.cpp:148] Top shape: 24 96 28 28 (1806336)
I0403 18:49:17.665488  7772 net.cpp:156] Memory required for data: 736986144
I0403 18:49:17.665510  7772 layer_factory.hpp:77] Creating layer inception_3b/relu_5x5
I0403 18:49:17.665531  7772 net.cpp:91] Creating Layer inception_3b/relu_5x5
I0403 18:49:17.665551  7772 net.cpp:425] inception_3b/relu_5x5 <- inception_3b/5x5
I0403 18:49:17.665573  7772 net.cpp:386] inception_3b/relu_5x5 -> inception_3b/5x5 (in-place)
I0403 18:49:17.665807  7772 net.cpp:141] Setting up inception_3b/relu_5x5
I0403 18:49:17.665838  7772 net.cpp:148] Top shape: 24 96 28 28 (1806336)
I0403 18:49:17.665856  7772 net.cpp:156] Memory required for data: 744211488
I0403 18:49:17.665874  7772 layer_factory.hpp:77] Creating layer inception_3b/pool
I0403 18:49:17.665896  7772 net.cpp:91] Creating Layer inception_3b/pool
I0403 18:49:17.665915  7772 net.cpp:425] inception_3b/pool <- inception_3a/output_inception_3a/output_0_split_3
I0403 18:49:17.665938  7772 net.cpp:399] inception_3b/pool -> inception_3b/pool
I0403 18:49:17.666007  7772 net.cpp:141] Setting up inception_3b/pool
I0403 18:49:17.666044  7772 net.cpp:148] Top shape: 24 256 28 28 (4816896)
I0403 18:49:17.666064  7772 net.cpp:156] Memory required for data: 763479072
I0403 18:49:17.666084  7772 layer_factory.hpp:77] Creating layer inception_3b/pool_proj
I0403 18:49:17.666106  7772 net.cpp:91] Creating Layer inception_3b/pool_proj
I0403 18:49:17.666127  7772 net.cpp:425] inception_3b/pool_proj <- inception_3b/pool
I0403 18:49:17.666153  7772 net.cpp:399] inception_3b/pool_proj -> inception_3b/pool_proj
I0403 18:49:17.667438  7772 net.cpp:141] Setting up inception_3b/pool_proj
I0403 18:49:17.667472  7772 net.cpp:148] Top shape: 24 64 28 28 (1204224)
I0403 18:49:17.667492  7772 net.cpp:156] Memory required for data: 768295968
I0403 18:49:17.667515  7772 layer_factory.hpp:77] Creating layer inception_3b/relu_pool_proj
I0403 18:49:17.667539  7772 net.cpp:91] Creating Layer inception_3b/relu_pool_proj
I0403 18:49:17.667560  7772 net.cpp:425] inception_3b/relu_pool_proj <- inception_3b/pool_proj
I0403 18:49:17.667582  7772 net.cpp:386] inception_3b/relu_pool_proj -> inception_3b/pool_proj (in-place)
I0403 18:49:17.668025  7772 net.cpp:141] Setting up inception_3b/relu_pool_proj
I0403 18:49:17.668059  7772 net.cpp:148] Top shape: 24 64 28 28 (1204224)
I0403 18:49:17.668078  7772 net.cpp:156] Memory required for data: 773112864
I0403 18:49:17.668097  7772 layer_factory.hpp:77] Creating layer inception_3b/output
I0403 18:49:17.668118  7772 net.cpp:91] Creating Layer inception_3b/output
I0403 18:49:17.668138  7772 net.cpp:425] inception_3b/output <- inception_3b/1x1
I0403 18:49:17.668159  7772 net.cpp:425] inception_3b/output <- inception_3b/3x3
I0403 18:49:17.668179  7772 net.cpp:425] inception_3b/output <- inception_3b/5x5
I0403 18:49:17.668197  7772 net.cpp:425] inception_3b/output <- inception_3b/pool_proj
I0403 18:49:17.668221  7772 net.cpp:399] inception_3b/output -> inception_3b/output
I0403 18:49:17.668282  7772 net.cpp:141] Setting up inception_3b/output
I0403 18:49:17.668314  7772 net.cpp:148] Top shape: 24 480 28 28 (9031680)
I0403 18:49:17.668334  7772 net.cpp:156] Memory required for data: 809239584
I0403 18:49:17.668352  7772 layer_factory.hpp:77] Creating layer pool3/3x3_s2
I0403 18:49:17.668375  7772 net.cpp:91] Creating Layer pool3/3x3_s2
I0403 18:49:17.668393  7772 net.cpp:425] pool3/3x3_s2 <- inception_3b/output
I0403 18:49:17.668437  7772 net.cpp:399] pool3/3x3_s2 -> pool3/3x3_s2
I0403 18:49:17.668509  7772 net.cpp:141] Setting up pool3/3x3_s2
I0403 18:49:17.668539  7772 net.cpp:148] Top shape: 24 480 14 14 (2257920)
I0403 18:49:17.668556  7772 net.cpp:156] Memory required for data: 818271264
I0403 18:49:17.668575  7772 layer_factory.hpp:77] Creating layer pool3/3x3_s2_pool3/3x3_s2_0_split
I0403 18:49:17.668597  7772 net.cpp:91] Creating Layer pool3/3x3_s2_pool3/3x3_s2_0_split
I0403 18:49:17.668618  7772 net.cpp:425] pool3/3x3_s2_pool3/3x3_s2_0_split <- pool3/3x3_s2
I0403 18:49:17.668639  7772 net.cpp:399] pool3/3x3_s2_pool3/3x3_s2_0_split -> pool3/3x3_s2_pool3/3x3_s2_0_split_0
I0403 18:49:17.668664  7772 net.cpp:399] pool3/3x3_s2_pool3/3x3_s2_0_split -> pool3/3x3_s2_pool3/3x3_s2_0_split_1
I0403 18:49:17.668692  7772 net.cpp:399] pool3/3x3_s2_pool3/3x3_s2_0_split -> pool3/3x3_s2_pool3/3x3_s2_0_split_2
I0403 18:49:17.668718  7772 net.cpp:399] pool3/3x3_s2_pool3/3x3_s2_0_split -> pool3/3x3_s2_pool3/3x3_s2_0_split_3
I0403 18:49:17.668812  7772 net.cpp:141] Setting up pool3/3x3_s2_pool3/3x3_s2_0_split
I0403 18:49:17.668841  7772 net.cpp:148] Top shape: 24 480 14 14 (2257920)
I0403 18:49:17.668862  7772 net.cpp:148] Top shape: 24 480 14 14 (2257920)
I0403 18:49:17.668882  7772 net.cpp:148] Top shape: 24 480 14 14 (2257920)
I0403 18:49:17.668901  7772 net.cpp:148] Top shape: 24 480 14 14 (2257920)
I0403 18:49:17.668918  7772 net.cpp:156] Memory required for data: 854397984
I0403 18:49:17.668936  7772 layer_factory.hpp:77] Creating layer inception_4a/1x1
I0403 18:49:17.668963  7772 net.cpp:91] Creating Layer inception_4a/1x1
I0403 18:49:17.668985  7772 net.cpp:425] inception_4a/1x1 <- pool3/3x3_s2_pool3/3x3_s2_0_split_0
I0403 18:49:17.669010  7772 net.cpp:399] inception_4a/1x1 -> inception_4a/1x1
I0403 18:49:17.670919  7772 net.cpp:141] Setting up inception_4a/1x1
I0403 18:49:17.670954  7772 net.cpp:148] Top shape: 24 192 14 14 (903168)
I0403 18:49:17.670974  7772 net.cpp:156] Memory required for data: 858010656
I0403 18:49:17.670999  7772 layer_factory.hpp:77] Creating layer inception_4a/relu_1x1
I0403 18:49:17.671025  7772 net.cpp:91] Creating Layer inception_4a/relu_1x1
I0403 18:49:17.671044  7772 net.cpp:425] inception_4a/relu_1x1 <- inception_4a/1x1
I0403 18:49:17.671066  7772 net.cpp:386] inception_4a/relu_1x1 -> inception_4a/1x1 (in-place)
I0403 18:49:17.671291  7772 net.cpp:141] Setting up inception_4a/relu_1x1
I0403 18:49:17.671327  7772 net.cpp:148] Top shape: 24 192 14 14 (903168)
I0403 18:49:17.671347  7772 net.cpp:156] Memory required for data: 861623328
I0403 18:49:17.671365  7772 layer_factory.hpp:77] Creating layer inception_4a/3x3_reduce
I0403 18:49:17.671391  7772 net.cpp:91] Creating Layer inception_4a/3x3_reduce
I0403 18:49:17.671413  7772 net.cpp:425] inception_4a/3x3_reduce <- pool3/3x3_s2_pool3/3x3_s2_0_split_1
I0403 18:49:17.671437  7772 net.cpp:399] inception_4a/3x3_reduce -> inception_4a/3x3_reduce
I0403 18:49:17.672981  7772 net.cpp:141] Setting up inception_4a/3x3_reduce
I0403 18:49:17.673017  7772 net.cpp:148] Top shape: 24 96 14 14 (451584)
I0403 18:49:17.673037  7772 net.cpp:156] Memory required for data: 863429664
I0403 18:49:17.673066  7772 layer_factory.hpp:77] Creating layer inception_4a/relu_3x3_reduce
I0403 18:49:17.673094  7772 net.cpp:91] Creating Layer inception_4a/relu_3x3_reduce
I0403 18:49:17.673116  7772 net.cpp:425] inception_4a/relu_3x3_reduce <- inception_4a/3x3_reduce
I0403 18:49:17.673138  7772 net.cpp:386] inception_4a/relu_3x3_reduce -> inception_4a/3x3_reduce (in-place)
I0403 18:49:17.673360  7772 net.cpp:141] Setting up inception_4a/relu_3x3_reduce
I0403 18:49:17.673393  7772 net.cpp:148] Top shape: 24 96 14 14 (451584)
I0403 18:49:17.673410  7772 net.cpp:156] Memory required for data: 865236000
I0403 18:49:17.673429  7772 layer_factory.hpp:77] Creating layer inception_4a/3x3
I0403 18:49:17.673459  7772 net.cpp:91] Creating Layer inception_4a/3x3
I0403 18:49:17.673480  7772 net.cpp:425] inception_4a/3x3 <- inception_4a/3x3_reduce
I0403 18:49:17.673503  7772 net.cpp:399] inception_4a/3x3 -> inception_4a/3x3
I0403 18:49:17.676784  7772 net.cpp:141] Setting up inception_4a/3x3
I0403 18:49:17.676822  7772 net.cpp:148] Top shape: 24 208 14 14 (978432)
I0403 18:49:17.676843  7772 net.cpp:156] Memory required for data: 869149728
I0403 18:49:17.676867  7772 layer_factory.hpp:77] Creating layer inception_4a/relu_3x3
I0403 18:49:17.676888  7772 net.cpp:91] Creating Layer inception_4a/relu_3x3
I0403 18:49:17.676908  7772 net.cpp:425] inception_4a/relu_3x3 <- inception_4a/3x3
I0403 18:49:17.676929  7772 net.cpp:386] inception_4a/relu_3x3 -> inception_4a/3x3 (in-place)
I0403 18:49:17.677265  7772 net.cpp:141] Setting up inception_4a/relu_3x3
I0403 18:49:17.677306  7772 net.cpp:148] Top shape: 24 208 14 14 (978432)
I0403 18:49:17.677327  7772 net.cpp:156] Memory required for data: 873063456
I0403 18:49:17.677346  7772 layer_factory.hpp:77] Creating layer inception_4a/5x5_reduce
I0403 18:49:17.677374  7772 net.cpp:91] Creating Layer inception_4a/5x5_reduce
I0403 18:49:17.677397  7772 net.cpp:425] inception_4a/5x5_reduce <- pool3/3x3_s2_pool3/3x3_s2_0_split_2
I0403 18:49:17.677420  7772 net.cpp:399] inception_4a/5x5_reduce -> inception_4a/5x5_reduce
I0403 18:49:17.678659  7772 net.cpp:141] Setting up inception_4a/5x5_reduce
I0403 18:49:17.678697  7772 net.cpp:148] Top shape: 24 16 14 14 (75264)
I0403 18:49:17.678719  7772 net.cpp:156] Memory required for data: 873364512
I0403 18:49:17.678741  7772 layer_factory.hpp:77] Creating layer inception_4a/relu_5x5_reduce
I0403 18:49:17.678764  7772 net.cpp:91] Creating Layer inception_4a/relu_5x5_reduce
I0403 18:49:17.678783  7772 net.cpp:425] inception_4a/relu_5x5_reduce <- inception_4a/5x5_reduce
I0403 18:49:17.678808  7772 net.cpp:386] inception_4a/relu_5x5_reduce -> inception_4a/5x5_reduce (in-place)
I0403 18:49:17.679025  7772 net.cpp:141] Setting up inception_4a/relu_5x5_reduce
I0403 18:49:17.679057  7772 net.cpp:148] Top shape: 24 16 14 14 (75264)
I0403 18:49:17.679075  7772 net.cpp:156] Memory required for data: 873665568
I0403 18:49:17.679095  7772 layer_factory.hpp:77] Creating layer inception_4a/5x5
I0403 18:49:17.679122  7772 net.cpp:91] Creating Layer inception_4a/5x5
I0403 18:49:17.679142  7772 net.cpp:425] inception_4a/5x5 <- inception_4a/5x5_reduce
I0403 18:49:17.679168  7772 net.cpp:399] inception_4a/5x5 -> inception_4a/5x5
I0403 18:49:17.680480  7772 net.cpp:141] Setting up inception_4a/5x5
I0403 18:49:17.680516  7772 net.cpp:148] Top shape: 24 48 14 14 (225792)
I0403 18:49:17.680536  7772 net.cpp:156] Memory required for data: 874568736
I0403 18:49:17.680559  7772 layer_factory.hpp:77] Creating layer inception_4a/relu_5x5
I0403 18:49:17.680583  7772 net.cpp:91] Creating Layer inception_4a/relu_5x5
I0403 18:49:17.680601  7772 net.cpp:425] inception_4a/relu_5x5 <- inception_4a/5x5
I0403 18:49:17.680626  7772 net.cpp:386] inception_4a/relu_5x5 -> inception_4a/5x5 (in-place)
I0403 18:49:17.680847  7772 net.cpp:141] Setting up inception_4a/relu_5x5
I0403 18:49:17.680879  7772 net.cpp:148] Top shape: 24 48 14 14 (225792)
I0403 18:49:17.680898  7772 net.cpp:156] Memory required for data: 875471904
I0403 18:49:17.680917  7772 layer_factory.hpp:77] Creating layer inception_4a/pool
I0403 18:49:17.680943  7772 net.cpp:91] Creating Layer inception_4a/pool
I0403 18:49:17.680964  7772 net.cpp:425] inception_4a/pool <- pool3/3x3_s2_pool3/3x3_s2_0_split_3
I0403 18:49:17.680987  7772 net.cpp:399] inception_4a/pool -> inception_4a/pool
I0403 18:49:17.681063  7772 net.cpp:141] Setting up inception_4a/pool
I0403 18:49:17.681092  7772 net.cpp:148] Top shape: 24 480 14 14 (2257920)
I0403 18:49:17.681110  7772 net.cpp:156] Memory required for data: 884503584
I0403 18:49:17.681129  7772 layer_factory.hpp:77] Creating layer inception_4a/pool_proj
I0403 18:49:17.681156  7772 net.cpp:91] Creating Layer inception_4a/pool_proj
I0403 18:49:17.681179  7772 net.cpp:425] inception_4a/pool_proj <- inception_4a/pool
I0403 18:49:17.681205  7772 net.cpp:399] inception_4a/pool_proj -> inception_4a/pool_proj
I0403 18:49:17.682627  7772 net.cpp:141] Setting up inception_4a/pool_proj
I0403 18:49:17.682667  7772 net.cpp:148] Top shape: 24 64 14 14 (301056)
I0403 18:49:17.682703  7772 net.cpp:156] Memory required for data: 885707808
I0403 18:49:17.682729  7772 layer_factory.hpp:77] Creating layer inception_4a/relu_pool_proj
I0403 18:49:17.682755  7772 net.cpp:91] Creating Layer inception_4a/relu_pool_proj
I0403 18:49:17.682778  7772 net.cpp:425] inception_4a/relu_pool_proj <- inception_4a/pool_proj
I0403 18:49:17.682801  7772 net.cpp:386] inception_4a/relu_pool_proj -> inception_4a/pool_proj (in-place)
I0403 18:49:17.683137  7772 net.cpp:141] Setting up inception_4a/relu_pool_proj
I0403 18:49:17.683169  7772 net.cpp:148] Top shape: 24 64 14 14 (301056)
I0403 18:49:17.683188  7772 net.cpp:156] Memory required for data: 886912032
I0403 18:49:17.683207  7772 layer_factory.hpp:77] Creating layer inception_4a/output
I0403 18:49:17.683228  7772 net.cpp:91] Creating Layer inception_4a/output
I0403 18:49:17.683248  7772 net.cpp:425] inception_4a/output <- inception_4a/1x1
I0403 18:49:17.683269  7772 net.cpp:425] inception_4a/output <- inception_4a/3x3
I0403 18:49:17.683296  7772 net.cpp:425] inception_4a/output <- inception_4a/5x5
I0403 18:49:17.683316  7772 net.cpp:425] inception_4a/output <- inception_4a/pool_proj
I0403 18:49:17.683341  7772 net.cpp:399] inception_4a/output -> inception_4a/output
I0403 18:49:17.683400  7772 net.cpp:141] Setting up inception_4a/output
I0403 18:49:17.683429  7772 net.cpp:148] Top shape: 24 512 14 14 (2408448)
I0403 18:49:17.683449  7772 net.cpp:156] Memory required for data: 896545824
I0403 18:49:17.683466  7772 layer_factory.hpp:77] Creating layer inception_4a/output_inception_4a/output_0_split
I0403 18:49:17.683487  7772 net.cpp:91] Creating Layer inception_4a/output_inception_4a/output_0_split
I0403 18:49:17.683507  7772 net.cpp:425] inception_4a/output_inception_4a/output_0_split <- inception_4a/output
I0403 18:49:17.683531  7772 net.cpp:399] inception_4a/output_inception_4a/output_0_split -> inception_4a/output_inception_4a/output_0_split_0
I0403 18:49:17.683558  7772 net.cpp:399] inception_4a/output_inception_4a/output_0_split -> inception_4a/output_inception_4a/output_0_split_1
I0403 18:49:17.683585  7772 net.cpp:399] inception_4a/output_inception_4a/output_0_split -> inception_4a/output_inception_4a/output_0_split_2
I0403 18:49:17.683610  7772 net.cpp:399] inception_4a/output_inception_4a/output_0_split -> inception_4a/output_inception_4a/output_0_split_3
I0403 18:49:17.683636  7772 net.cpp:399] inception_4a/output_inception_4a/output_0_split -> inception_4a/output_inception_4a/output_0_split_4
I0403 18:49:17.683749  7772 net.cpp:141] Setting up inception_4a/output_inception_4a/output_0_split
I0403 18:49:17.683780  7772 net.cpp:148] Top shape: 24 512 14 14 (2408448)
I0403 18:49:17.683801  7772 net.cpp:148] Top shape: 24 512 14 14 (2408448)
I0403 18:49:17.683821  7772 net.cpp:148] Top shape: 24 512 14 14 (2408448)
I0403 18:49:17.683840  7772 net.cpp:148] Top shape: 24 512 14 14 (2408448)
I0403 18:49:17.683859  7772 net.cpp:148] Top shape: 24 512 14 14 (2408448)
I0403 18:49:17.683876  7772 net.cpp:156] Memory required for data: 944714784
I0403 18:49:17.683894  7772 layer_factory.hpp:77] Creating layer loss1/ave_pool
I0403 18:49:17.683915  7772 net.cpp:91] Creating Layer loss1/ave_pool
I0403 18:49:17.683935  7772 net.cpp:425] loss1/ave_pool <- inception_4a/output_inception_4a/output_0_split_0
I0403 18:49:17.683965  7772 net.cpp:399] loss1/ave_pool -> loss1/ave_pool
I0403 18:49:17.684217  7772 net.cpp:141] Setting up loss1/ave_pool
I0403 18:49:17.684249  7772 net.cpp:148] Top shape: 24 512 4 4 (196608)
I0403 18:49:17.684268  7772 net.cpp:156] Memory required for data: 945501216
I0403 18:49:17.684294  7772 layer_factory.hpp:77] Creating layer loss1/conv
I0403 18:49:17.684324  7772 net.cpp:91] Creating Layer loss1/conv
I0403 18:49:17.684345  7772 net.cpp:425] loss1/conv <- loss1/ave_pool
I0403 18:49:17.684370  7772 net.cpp:399] loss1/conv -> loss1/conv
I0403 18:49:17.686064  7772 net.cpp:141] Setting up loss1/conv
I0403 18:49:17.686101  7772 net.cpp:148] Top shape: 24 128 4 4 (49152)
I0403 18:49:17.686138  7772 net.cpp:156] Memory required for data: 945697824
I0403 18:49:17.686162  7772 layer_factory.hpp:77] Creating layer loss1/relu_conv
I0403 18:49:17.686185  7772 net.cpp:91] Creating Layer loss1/relu_conv
I0403 18:49:17.686205  7772 net.cpp:425] loss1/relu_conv <- loss1/conv
I0403 18:49:17.686226  7772 net.cpp:386] loss1/relu_conv -> loss1/conv (in-place)
I0403 18:49:17.686569  7772 net.cpp:141] Setting up loss1/relu_conv
I0403 18:49:17.686607  7772 net.cpp:148] Top shape: 24 128 4 4 (49152)
I0403 18:49:17.686628  7772 net.cpp:156] Memory required for data: 945894432
I0403 18:49:17.686647  7772 layer_factory.hpp:77] Creating layer loss1/fc
I0403 18:49:17.686676  7772 net.cpp:91] Creating Layer loss1/fc
I0403 18:49:17.686697  7772 net.cpp:425] loss1/fc <- loss1/conv
I0403 18:49:17.686723  7772 net.cpp:399] loss1/fc -> loss1/fc
I0403 18:49:17.709015  7772 net.cpp:141] Setting up loss1/fc
I0403 18:49:17.709059  7772 net.cpp:148] Top shape: 24 1024 (24576)
I0403 18:49:17.709081  7772 net.cpp:156] Memory required for data: 945992736
I0403 18:49:17.709106  7772 layer_factory.hpp:77] Creating layer loss1/relu_fc
I0403 18:49:17.709134  7772 net.cpp:91] Creating Layer loss1/relu_fc
I0403 18:49:17.709157  7772 net.cpp:425] loss1/relu_fc <- loss1/fc
I0403 18:49:17.709182  7772 net.cpp:386] loss1/relu_fc -> loss1/fc (in-place)
I0403 18:49:17.709429  7772 net.cpp:141] Setting up loss1/relu_fc
I0403 18:49:17.709462  7772 net.cpp:148] Top shape: 24 1024 (24576)
I0403 18:49:17.709486  7772 net.cpp:156] Memory required for data: 946091040
I0403 18:49:17.709506  7772 layer_factory.hpp:77] Creating layer loss1/drop_fc
I0403 18:49:17.709537  7772 net.cpp:91] Creating Layer loss1/drop_fc
I0403 18:49:17.709560  7772 net.cpp:425] loss1/drop_fc <- loss1/fc
I0403 18:49:17.709581  7772 net.cpp:386] loss1/drop_fc -> loss1/fc (in-place)
I0403 18:49:17.709646  7772 net.cpp:141] Setting up loss1/drop_fc
I0403 18:49:17.709676  7772 net.cpp:148] Top shape: 24 1024 (24576)
I0403 18:49:17.709694  7772 net.cpp:156] Memory required for data: 946189344
I0403 18:49:17.709714  7772 layer_factory.hpp:77] Creating layer loss1/classifier_plantvillage
I0403 18:49:17.709743  7772 net.cpp:91] Creating Layer loss1/classifier_plantvillage
I0403 18:49:17.709765  7772 net.cpp:425] loss1/classifier_plantvillage <- loss1/fc
I0403 18:49:17.709789  7772 net.cpp:399] loss1/classifier_plantvillage -> loss1/classifier_plantvillage
I0403 18:49:17.710906  7772 net.cpp:141] Setting up loss1/classifier_plantvillage
I0403 18:49:17.710943  7772 net.cpp:148] Top shape: 24 38 (912)
I0403 18:49:17.710963  7772 net.cpp:156] Memory required for data: 946192992
I0403 18:49:17.710986  7772 layer_factory.hpp:77] Creating layer loss1/classifier_plantvillage_loss1/classifier_plantvillage_0_split
I0403 18:49:17.711009  7772 net.cpp:91] Creating Layer loss1/classifier_plantvillage_loss1/classifier_plantvillage_0_split
I0403 18:49:17.711029  7772 net.cpp:425] loss1/classifier_plantvillage_loss1/classifier_plantvillage_0_split <- loss1/classifier_plantvillage
I0403 18:49:17.711050  7772 net.cpp:399] loss1/classifier_plantvillage_loss1/classifier_plantvillage_0_split -> loss1/classifier_plantvillage_loss1/classifier_plantvillage_0_split_0
I0403 18:49:17.711074  7772 net.cpp:399] loss1/classifier_plantvillage_loss1/classifier_plantvillage_0_split -> loss1/classifier_plantvillage_loss1/classifier_plantvillage_0_split_1
I0403 18:49:17.711099  7772 net.cpp:399] loss1/classifier_plantvillage_loss1/classifier_plantvillage_0_split -> loss1/classifier_plantvillage_loss1/classifier_plantvillage_0_split_2
I0403 18:49:17.711179  7772 net.cpp:141] Setting up loss1/classifier_plantvillage_loss1/classifier_plantvillage_0_split
I0403 18:49:17.711210  7772 net.cpp:148] Top shape: 24 38 (912)
I0403 18:49:17.711230  7772 net.cpp:148] Top shape: 24 38 (912)
I0403 18:49:17.711249  7772 net.cpp:148] Top shape: 24 38 (912)
I0403 18:49:17.711267  7772 net.cpp:156] Memory required for data: 946203936
I0403 18:49:17.711292  7772 layer_factory.hpp:77] Creating layer inception_4b/1x1
I0403 18:49:17.711318  7772 net.cpp:91] Creating Layer inception_4b/1x1
I0403 18:49:17.711359  7772 net.cpp:425] inception_4b/1x1 <- inception_4a/output_inception_4a/output_0_split_1
I0403 18:49:17.711386  7772 net.cpp:399] inception_4b/1x1 -> inception_4b/1x1
I0403 18:49:17.713379  7772 net.cpp:141] Setting up inception_4b/1x1
I0403 18:49:17.713418  7772 net.cpp:148] Top shape: 24 160 14 14 (752640)
I0403 18:49:17.713440  7772 net.cpp:156] Memory required for data: 949214496
I0403 18:49:17.713464  7772 layer_factory.hpp:77] Creating layer inception_4b/relu_1x1
I0403 18:49:17.713486  7772 net.cpp:91] Creating Layer inception_4b/relu_1x1
I0403 18:49:17.713506  7772 net.cpp:425] inception_4b/relu_1x1 <- inception_4b/1x1
I0403 18:49:17.713527  7772 net.cpp:386] inception_4b/relu_1x1 -> inception_4b/1x1 (in-place)
I0403 18:49:17.713752  7772 net.cpp:141] Setting up inception_4b/relu_1x1
I0403 18:49:17.713783  7772 net.cpp:148] Top shape: 24 160 14 14 (752640)
I0403 18:49:17.713804  7772 net.cpp:156] Memory required for data: 952225056
I0403 18:49:17.713821  7772 layer_factory.hpp:77] Creating layer inception_4b/3x3_reduce
I0403 18:49:17.713850  7772 net.cpp:91] Creating Layer inception_4b/3x3_reduce
I0403 18:49:17.713871  7772 net.cpp:425] inception_4b/3x3_reduce <- inception_4a/output_inception_4a/output_0_split_2
I0403 18:49:17.713898  7772 net.cpp:399] inception_4b/3x3_reduce -> inception_4b/3x3_reduce
I0403 18:49:17.715543  7772 net.cpp:141] Setting up inception_4b/3x3_reduce
I0403 18:49:17.715579  7772 net.cpp:148] Top shape: 24 112 14 14 (526848)
I0403 18:49:17.715598  7772 net.cpp:156] Memory required for data: 954332448
I0403 18:49:17.715621  7772 layer_factory.hpp:77] Creating layer inception_4b/relu_3x3_reduce
I0403 18:49:17.715643  7772 net.cpp:91] Creating Layer inception_4b/relu_3x3_reduce
I0403 18:49:17.715667  7772 net.cpp:425] inception_4b/relu_3x3_reduce <- inception_4b/3x3_reduce
I0403 18:49:17.715688  7772 net.cpp:386] inception_4b/relu_3x3_reduce -> inception_4b/3x3_reduce (in-place)
I0403 18:49:17.716024  7772 net.cpp:141] Setting up inception_4b/relu_3x3_reduce
I0403 18:49:17.716058  7772 net.cpp:148] Top shape: 24 112 14 14 (526848)
I0403 18:49:17.716078  7772 net.cpp:156] Memory required for data: 956439840
I0403 18:49:17.716096  7772 layer_factory.hpp:77] Creating layer inception_4b/3x3
I0403 18:49:17.716123  7772 net.cpp:91] Creating Layer inception_4b/3x3
I0403 18:49:17.716145  7772 net.cpp:425] inception_4b/3x3 <- inception_4b/3x3_reduce
I0403 18:49:17.716174  7772 net.cpp:399] inception_4b/3x3 -> inception_4b/3x3
I0403 18:49:17.719805  7772 net.cpp:141] Setting up inception_4b/3x3
I0403 18:49:17.719841  7772 net.cpp:148] Top shape: 24 224 14 14 (1053696)
I0403 18:49:17.719862  7772 net.cpp:156] Memory required for data: 960654624
I0403 18:49:17.719885  7772 layer_factory.hpp:77] Creating layer inception_4b/relu_3x3
I0403 18:49:17.719912  7772 net.cpp:91] Creating Layer inception_4b/relu_3x3
I0403 18:49:17.719933  7772 net.cpp:425] inception_4b/relu_3x3 <- inception_4b/3x3
I0403 18:49:17.719955  7772 net.cpp:386] inception_4b/relu_3x3 -> inception_4b/3x3 (in-place)
I0403 18:49:17.720177  7772 net.cpp:141] Setting up inception_4b/relu_3x3
I0403 18:49:17.720212  7772 net.cpp:148] Top shape: 24 224 14 14 (1053696)
I0403 18:49:17.720232  7772 net.cpp:156] Memory required for data: 964869408
I0403 18:49:17.720250  7772 layer_factory.hpp:77] Creating layer inception_4b/5x5_reduce
I0403 18:49:17.720285  7772 net.cpp:91] Creating Layer inception_4b/5x5_reduce
I0403 18:49:17.720309  7772 net.cpp:425] inception_4b/5x5_reduce <- inception_4a/output_inception_4a/output_0_split_3
I0403 18:49:17.720332  7772 net.cpp:399] inception_4b/5x5_reduce -> inception_4b/5x5_reduce
I0403 18:49:17.721660  7772 net.cpp:141] Setting up inception_4b/5x5_reduce
I0403 18:49:17.721698  7772 net.cpp:148] Top shape: 24 24 14 14 (112896)
I0403 18:49:17.721719  7772 net.cpp:156] Memory required for data: 965320992
I0403 18:49:17.721743  7772 layer_factory.hpp:77] Creating layer inception_4b/relu_5x5_reduce
I0403 18:49:17.721766  7772 net.cpp:91] Creating Layer inception_4b/relu_5x5_reduce
I0403 18:49:17.721804  7772 net.cpp:425] inception_4b/relu_5x5_reduce <- inception_4b/5x5_reduce
I0403 18:49:17.721830  7772 net.cpp:386] inception_4b/relu_5x5_reduce -> inception_4b/5x5_reduce (in-place)
I0403 18:49:17.722054  7772 net.cpp:141] Setting up inception_4b/relu_5x5_reduce
I0403 18:49:17.722085  7772 net.cpp:148] Top shape: 24 24 14 14 (112896)
I0403 18:49:17.722105  7772 net.cpp:156] Memory required for data: 965772576
I0403 18:49:17.722124  7772 layer_factory.hpp:77] Creating layer inception_4b/5x5
I0403 18:49:17.722151  7772 net.cpp:91] Creating Layer inception_4b/5x5
I0403 18:49:17.722173  7772 net.cpp:425] inception_4b/5x5 <- inception_4b/5x5_reduce
I0403 18:49:17.722200  7772 net.cpp:399] inception_4b/5x5 -> inception_4b/5x5
I0403 18:49:17.723701  7772 net.cpp:141] Setting up inception_4b/5x5
I0403 18:49:17.723740  7772 net.cpp:148] Top shape: 24 64 14 14 (301056)
I0403 18:49:17.723762  7772 net.cpp:156] Memory required for data: 966976800
I0403 18:49:17.723784  7772 layer_factory.hpp:77] Creating layer inception_4b/relu_5x5
I0403 18:49:17.723806  7772 net.cpp:91] Creating Layer inception_4b/relu_5x5
I0403 18:49:17.723826  7772 net.cpp:425] inception_4b/relu_5x5 <- inception_4b/5x5
I0403 18:49:17.723848  7772 net.cpp:386] inception_4b/relu_5x5 -> inception_4b/5x5 (in-place)
I0403 18:49:17.724191  7772 net.cpp:141] Setting up inception_4b/relu_5x5
I0403 18:49:17.724227  7772 net.cpp:148] Top shape: 24 64 14 14 (301056)
I0403 18:49:17.724247  7772 net.cpp:156] Memory required for data: 968181024
I0403 18:49:17.724267  7772 layer_factory.hpp:77] Creating layer inception_4b/pool
I0403 18:49:17.724295  7772 net.cpp:91] Creating Layer inception_4b/pool
I0403 18:49:17.724316  7772 net.cpp:425] inception_4b/pool <- inception_4a/output_inception_4a/output_0_split_4
I0403 18:49:17.724344  7772 net.cpp:399] inception_4b/pool -> inception_4b/pool
I0403 18:49:17.724423  7772 net.cpp:141] Setting up inception_4b/pool
I0403 18:49:17.724453  7772 net.cpp:148] Top shape: 24 512 14 14 (2408448)
I0403 18:49:17.724472  7772 net.cpp:156] Memory required for data: 977814816
I0403 18:49:17.724488  7772 layer_factory.hpp:77] Creating layer inception_4b/pool_proj
I0403 18:49:17.724516  7772 net.cpp:91] Creating Layer inception_4b/pool_proj
I0403 18:49:17.724539  7772 net.cpp:425] inception_4b/pool_proj <- inception_4b/pool
I0403 18:49:17.724563  7772 net.cpp:399] inception_4b/pool_proj -> inception_4b/pool_proj
I0403 18:49:17.726011  7772 net.cpp:141] Setting up inception_4b/pool_proj
I0403 18:49:17.726045  7772 net.cpp:148] Top shape: 24 64 14 14 (301056)
I0403 18:49:17.726065  7772 net.cpp:156] Memory required for data: 979019040
I0403 18:49:17.726088  7772 layer_factory.hpp:77] Creating layer inception_4b/relu_pool_proj
I0403 18:49:17.726110  7772 net.cpp:91] Creating Layer inception_4b/relu_pool_proj
I0403 18:49:17.726130  7772 net.cpp:425] inception_4b/relu_pool_proj <- inception_4b/pool_proj
I0403 18:49:17.726156  7772 net.cpp:386] inception_4b/relu_pool_proj -> inception_4b/pool_proj (in-place)
I0403 18:49:17.726385  7772 net.cpp:141] Setting up inception_4b/relu_pool_proj
I0403 18:49:17.726416  7772 net.cpp:148] Top shape: 24 64 14 14 (301056)
I0403 18:49:17.726436  7772 net.cpp:156] Memory required for data: 980223264
I0403 18:49:17.726454  7772 layer_factory.hpp:77] Creating layer inception_4b/output
I0403 18:49:17.726476  7772 net.cpp:91] Creating Layer inception_4b/output
I0403 18:49:17.726500  7772 net.cpp:425] inception_4b/output <- inception_4b/1x1
I0403 18:49:17.726521  7772 net.cpp:425] inception_4b/output <- inception_4b/3x3
I0403 18:49:17.726541  7772 net.cpp:425] inception_4b/output <- inception_4b/5x5
I0403 18:49:17.726559  7772 net.cpp:425] inception_4b/output <- inception_4b/pool_proj
I0403 18:49:17.726579  7772 net.cpp:399] inception_4b/output -> inception_4b/output
I0403 18:49:17.726634  7772 net.cpp:141] Setting up inception_4b/output
I0403 18:49:17.726665  7772 net.cpp:148] Top shape: 24 512 14 14 (2408448)
I0403 18:49:17.726686  7772 net.cpp:156] Memory required for data: 989857056
I0403 18:49:17.726722  7772 layer_factory.hpp:77] Creating layer inception_4b/output_inception_4b/output_0_split
I0403 18:49:17.726744  7772 net.cpp:91] Creating Layer inception_4b/output_inception_4b/output_0_split
I0403 18:49:17.726764  7772 net.cpp:425] inception_4b/output_inception_4b/output_0_split <- inception_4b/output
I0403 18:49:17.726789  7772 net.cpp:399] inception_4b/output_inception_4b/output_0_split -> inception_4b/output_inception_4b/output_0_split_0
I0403 18:49:17.726817  7772 net.cpp:399] inception_4b/output_inception_4b/output_0_split -> inception_4b/output_inception_4b/output_0_split_1
I0403 18:49:17.726843  7772 net.cpp:399] inception_4b/output_inception_4b/output_0_split -> inception_4b/output_inception_4b/output_0_split_2
I0403 18:49:17.726871  7772 net.cpp:399] inception_4b/output_inception_4b/output_0_split -> inception_4b/output_inception_4b/output_0_split_3
I0403 18:49:17.726970  7772 net.cpp:141] Setting up inception_4b/output_inception_4b/output_0_split
I0403 18:49:17.727002  7772 net.cpp:148] Top shape: 24 512 14 14 (2408448)
I0403 18:49:17.727025  7772 net.cpp:148] Top shape: 24 512 14 14 (2408448)
I0403 18:49:17.727046  7772 net.cpp:148] Top shape: 24 512 14 14 (2408448)
I0403 18:49:17.727063  7772 net.cpp:148] Top shape: 24 512 14 14 (2408448)
I0403 18:49:17.727082  7772 net.cpp:156] Memory required for data: 1028392224
I0403 18:49:17.727099  7772 layer_factory.hpp:77] Creating layer inception_4c/1x1
I0403 18:49:17.727128  7772 net.cpp:91] Creating Layer inception_4c/1x1
I0403 18:49:17.727149  7772 net.cpp:425] inception_4c/1x1 <- inception_4b/output_inception_4b/output_0_split_0
I0403 18:49:17.727172  7772 net.cpp:399] inception_4c/1x1 -> inception_4c/1x1
I0403 18:49:17.728920  7772 net.cpp:141] Setting up inception_4c/1x1
I0403 18:49:17.728955  7772 net.cpp:148] Top shape: 24 128 14 14 (602112)
I0403 18:49:17.728976  7772 net.cpp:156] Memory required for data: 1030800672
I0403 18:49:17.729001  7772 layer_factory.hpp:77] Creating layer inception_4c/relu_1x1
I0403 18:49:17.729024  7772 net.cpp:91] Creating Layer inception_4c/relu_1x1
I0403 18:49:17.729045  7772 net.cpp:425] inception_4c/relu_1x1 <- inception_4c/1x1
I0403 18:49:17.729068  7772 net.cpp:386] inception_4c/relu_1x1 -> inception_4c/1x1 (in-place)
I0403 18:49:17.729295  7772 net.cpp:141] Setting up inception_4c/relu_1x1
I0403 18:49:17.729327  7772 net.cpp:148] Top shape: 24 128 14 14 (602112)
I0403 18:49:17.729346  7772 net.cpp:156] Memory required for data: 1033209120
I0403 18:49:17.729367  7772 layer_factory.hpp:77] Creating layer inception_4c/3x3_reduce
I0403 18:49:17.729395  7772 net.cpp:91] Creating Layer inception_4c/3x3_reduce
I0403 18:49:17.729418  7772 net.cpp:425] inception_4c/3x3_reduce <- inception_4b/output_inception_4b/output_0_split_1
I0403 18:49:17.729442  7772 net.cpp:399] inception_4c/3x3_reduce -> inception_4c/3x3_reduce
I0403 18:49:17.731796  7772 net.cpp:141] Setting up inception_4c/3x3_reduce
I0403 18:49:17.731835  7772 net.cpp:148] Top shape: 24 128 14 14 (602112)
I0403 18:49:17.731856  7772 net.cpp:156] Memory required for data: 1035617568
I0403 18:49:17.731879  7772 layer_factory.hpp:77] Creating layer inception_4c/relu_3x3_reduce
I0403 18:49:17.731901  7772 net.cpp:91] Creating Layer inception_4c/relu_3x3_reduce
I0403 18:49:17.731920  7772 net.cpp:425] inception_4c/relu_3x3_reduce <- inception_4c/3x3_reduce
I0403 18:49:17.731945  7772 net.cpp:386] inception_4c/relu_3x3_reduce -> inception_4c/3x3_reduce (in-place)
I0403 18:49:17.732302  7772 net.cpp:141] Setting up inception_4c/relu_3x3_reduce
I0403 18:49:17.732338  7772 net.cpp:148] Top shape: 24 128 14 14 (602112)
I0403 18:49:17.732358  7772 net.cpp:156] Memory required for data: 1038026016
I0403 18:49:17.732378  7772 layer_factory.hpp:77] Creating layer inception_4c/3x3
I0403 18:49:17.732408  7772 net.cpp:91] Creating Layer inception_4c/3x3
I0403 18:49:17.732429  7772 net.cpp:425] inception_4c/3x3 <- inception_4c/3x3_reduce
I0403 18:49:17.732453  7772 net.cpp:399] inception_4c/3x3 -> inception_4c/3x3
I0403 18:49:17.736853  7772 net.cpp:141] Setting up inception_4c/3x3
I0403 18:49:17.736908  7772 net.cpp:148] Top shape: 24 256 14 14 (1204224)
I0403 18:49:17.736928  7772 net.cpp:156] Memory required for data: 1042842912
I0403 18:49:17.736969  7772 layer_factory.hpp:77] Creating layer inception_4c/relu_3x3
I0403 18:49:17.736994  7772 net.cpp:91] Creating Layer inception_4c/relu_3x3
I0403 18:49:17.737015  7772 net.cpp:425] inception_4c/relu_3x3 <- inception_4c/3x3
I0403 18:49:17.737038  7772 net.cpp:386] inception_4c/relu_3x3 -> inception_4c/3x3 (in-place)
I0403 18:49:17.737268  7772 net.cpp:141] Setting up inception_4c/relu_3x3
I0403 18:49:17.737309  7772 net.cpp:148] Top shape: 24 256 14 14 (1204224)
I0403 18:49:17.737330  7772 net.cpp:156] Memory required for data: 1047659808
I0403 18:49:17.737347  7772 layer_factory.hpp:77] Creating layer inception_4c/5x5_reduce
I0403 18:49:17.737378  7772 net.cpp:91] Creating Layer inception_4c/5x5_reduce
I0403 18:49:17.737401  7772 net.cpp:425] inception_4c/5x5_reduce <- inception_4b/output_inception_4b/output_0_split_2
I0403 18:49:17.737428  7772 net.cpp:399] inception_4c/5x5_reduce -> inception_4c/5x5_reduce
I0403 18:49:17.738754  7772 net.cpp:141] Setting up inception_4c/5x5_reduce
I0403 18:49:17.738791  7772 net.cpp:148] Top shape: 24 24 14 14 (112896)
I0403 18:49:17.738812  7772 net.cpp:156] Memory required for data: 1048111392
I0403 18:49:17.738836  7772 layer_factory.hpp:77] Creating layer inception_4c/relu_5x5_reduce
I0403 18:49:17.738857  7772 net.cpp:91] Creating Layer inception_4c/relu_5x5_reduce
I0403 18:49:17.738878  7772 net.cpp:425] inception_4c/relu_5x5_reduce <- inception_4c/5x5_reduce
I0403 18:49:17.738901  7772 net.cpp:386] inception_4c/relu_5x5_reduce -> inception_4c/5x5_reduce (in-place)
I0403 18:49:17.739128  7772 net.cpp:141] Setting up inception_4c/relu_5x5_reduce
I0403 18:49:17.739161  7772 net.cpp:148] Top shape: 24 24 14 14 (112896)
I0403 18:49:17.739178  7772 net.cpp:156] Memory required for data: 1048562976
I0403 18:49:17.739197  7772 layer_factory.hpp:77] Creating layer inception_4c/5x5
I0403 18:49:17.739224  7772 net.cpp:91] Creating Layer inception_4c/5x5
I0403 18:49:17.739246  7772 net.cpp:425] inception_4c/5x5 <- inception_4c/5x5_reduce
I0403 18:49:17.739279  7772 net.cpp:399] inception_4c/5x5 -> inception_4c/5x5
I0403 18:49:17.740787  7772 net.cpp:141] Setting up inception_4c/5x5
I0403 18:49:17.740821  7772 net.cpp:148] Top shape: 24 64 14 14 (301056)
I0403 18:49:17.740841  7772 net.cpp:156] Memory required for data: 1049767200
I0403 18:49:17.740864  7772 layer_factory.hpp:77] Creating layer inception_4c/relu_5x5
I0403 18:49:17.740890  7772 net.cpp:91] Creating Layer inception_4c/relu_5x5
I0403 18:49:17.740911  7772 net.cpp:425] inception_4c/relu_5x5 <- inception_4c/5x5
I0403 18:49:17.740932  7772 net.cpp:386] inception_4c/relu_5x5 -> inception_4c/5x5 (in-place)
I0403 18:49:17.741287  7772 net.cpp:141] Setting up inception_4c/relu_5x5
I0403 18:49:17.741322  7772 net.cpp:148] Top shape: 24 64 14 14 (301056)
I0403 18:49:17.741340  7772 net.cpp:156] Memory required for data: 1050971424
I0403 18:49:17.741358  7772 layer_factory.hpp:77] Creating layer inception_4c/pool
I0403 18:49:17.741384  7772 net.cpp:91] Creating Layer inception_4c/pool
I0403 18:49:17.741405  7772 net.cpp:425] inception_4c/pool <- inception_4b/output_inception_4b/output_0_split_3
I0403 18:49:17.741428  7772 net.cpp:399] inception_4c/pool -> inception_4c/pool
I0403 18:49:17.741509  7772 net.cpp:141] Setting up inception_4c/pool
I0403 18:49:17.741539  7772 net.cpp:148] Top shape: 24 512 14 14 (2408448)
I0403 18:49:17.741557  7772 net.cpp:156] Memory required for data: 1060605216
I0403 18:49:17.741576  7772 layer_factory.hpp:77] Creating layer inception_4c/pool_proj
I0403 18:49:17.741603  7772 net.cpp:91] Creating Layer inception_4c/pool_proj
I0403 18:49:17.741626  7772 net.cpp:425] inception_4c/pool_proj <- inception_4c/pool
I0403 18:49:17.741652  7772 net.cpp:399] inception_4c/pool_proj -> inception_4c/pool_proj
I0403 18:49:17.743139  7772 net.cpp:141] Setting up inception_4c/pool_proj
I0403 18:49:17.743178  7772 net.cpp:148] Top shape: 24 64 14 14 (301056)
I0403 18:49:17.743216  7772 net.cpp:156] Memory required for data: 1061809440
I0403 18:49:17.743239  7772 layer_factory.hpp:77] Creating layer inception_4c/relu_pool_proj
I0403 18:49:17.743262  7772 net.cpp:91] Creating Layer inception_4c/relu_pool_proj
I0403 18:49:17.743288  7772 net.cpp:425] inception_4c/relu_pool_proj <- inception_4c/pool_proj
I0403 18:49:17.743315  7772 net.cpp:386] inception_4c/relu_pool_proj -> inception_4c/pool_proj (in-place)
I0403 18:49:17.743540  7772 net.cpp:141] Setting up inception_4c/relu_pool_proj
I0403 18:49:17.743571  7772 net.cpp:148] Top shape: 24 64 14 14 (301056)
I0403 18:49:17.743589  7772 net.cpp:156] Memory required for data: 1063013664
I0403 18:49:17.743608  7772 layer_factory.hpp:77] Creating layer inception_4c/output
I0403 18:49:17.743630  7772 net.cpp:91] Creating Layer inception_4c/output
I0403 18:49:17.743649  7772 net.cpp:425] inception_4c/output <- inception_4c/1x1
I0403 18:49:17.743670  7772 net.cpp:425] inception_4c/output <- inception_4c/3x3
I0403 18:49:17.743695  7772 net.cpp:425] inception_4c/output <- inception_4c/5x5
I0403 18:49:17.743716  7772 net.cpp:425] inception_4c/output <- inception_4c/pool_proj
I0403 18:49:17.743736  7772 net.cpp:399] inception_4c/output -> inception_4c/output
I0403 18:49:17.743793  7772 net.cpp:141] Setting up inception_4c/output
I0403 18:49:17.743826  7772 net.cpp:148] Top shape: 24 512 14 14 (2408448)
I0403 18:49:17.743846  7772 net.cpp:156] Memory required for data: 1072647456
I0403 18:49:17.743865  7772 layer_factory.hpp:77] Creating layer inception_4c/output_inception_4c/output_0_split
I0403 18:49:17.743885  7772 net.cpp:91] Creating Layer inception_4c/output_inception_4c/output_0_split
I0403 18:49:17.743906  7772 net.cpp:425] inception_4c/output_inception_4c/output_0_split <- inception_4c/output
I0403 18:49:17.743930  7772 net.cpp:399] inception_4c/output_inception_4c/output_0_split -> inception_4c/output_inception_4c/output_0_split_0
I0403 18:49:17.743957  7772 net.cpp:399] inception_4c/output_inception_4c/output_0_split -> inception_4c/output_inception_4c/output_0_split_1
I0403 18:49:17.743983  7772 net.cpp:399] inception_4c/output_inception_4c/output_0_split -> inception_4c/output_inception_4c/output_0_split_2
I0403 18:49:17.744009  7772 net.cpp:399] inception_4c/output_inception_4c/output_0_split -> inception_4c/output_inception_4c/output_0_split_3
I0403 18:49:17.744114  7772 net.cpp:141] Setting up inception_4c/output_inception_4c/output_0_split
I0403 18:49:17.744145  7772 net.cpp:148] Top shape: 24 512 14 14 (2408448)
I0403 18:49:17.744168  7772 net.cpp:148] Top shape: 24 512 14 14 (2408448)
I0403 18:49:17.744189  7772 net.cpp:148] Top shape: 24 512 14 14 (2408448)
I0403 18:49:17.744206  7772 net.cpp:148] Top shape: 24 512 14 14 (2408448)
I0403 18:49:17.744223  7772 net.cpp:156] Memory required for data: 1111182624
I0403 18:49:17.744241  7772 layer_factory.hpp:77] Creating layer inception_4d/1x1
I0403 18:49:17.744266  7772 net.cpp:91] Creating Layer inception_4d/1x1
I0403 18:49:17.744294  7772 net.cpp:425] inception_4d/1x1 <- inception_4c/output_inception_4c/output_0_split_0
I0403 18:49:17.744321  7772 net.cpp:399] inception_4d/1x1 -> inception_4d/1x1
I0403 18:49:17.746002  7772 net.cpp:141] Setting up inception_4d/1x1
I0403 18:49:17.746037  7772 net.cpp:148] Top shape: 24 112 14 14 (526848)
I0403 18:49:17.746057  7772 net.cpp:156] Memory required for data: 1113290016
I0403 18:49:17.746081  7772 layer_factory.hpp:77] Creating layer inception_4d/relu_1x1
I0403 18:49:17.746109  7772 net.cpp:91] Creating Layer inception_4d/relu_1x1
I0403 18:49:17.746130  7772 net.cpp:425] inception_4d/relu_1x1 <- inception_4d/1x1
I0403 18:49:17.746151  7772 net.cpp:386] inception_4d/relu_1x1 -> inception_4d/1x1 (in-place)
I0403 18:49:17.746392  7772 net.cpp:141] Setting up inception_4d/relu_1x1
I0403 18:49:17.746426  7772 net.cpp:148] Top shape: 24 112 14 14 (526848)
I0403 18:49:17.746446  7772 net.cpp:156] Memory required for data: 1115397408
I0403 18:49:17.746464  7772 layer_factory.hpp:77] Creating layer inception_4d/3x3_reduce
I0403 18:49:17.746510  7772 net.cpp:91] Creating Layer inception_4d/3x3_reduce
I0403 18:49:17.746533  7772 net.cpp:425] inception_4d/3x3_reduce <- inception_4c/output_inception_4c/output_0_split_1
I0403 18:49:17.746557  7772 net.cpp:399] inception_4d/3x3_reduce -> inception_4d/3x3_reduce
I0403 18:49:17.748404  7772 net.cpp:141] Setting up inception_4d/3x3_reduce
I0403 18:49:17.748440  7772 net.cpp:148] Top shape: 24 144 14 14 (677376)
I0403 18:49:17.748461  7772 net.cpp:156] Memory required for data: 1118106912
I0403 18:49:17.748483  7772 layer_factory.hpp:77] Creating layer inception_4d/relu_3x3_reduce
I0403 18:49:17.748508  7772 net.cpp:91] Creating Layer inception_4d/relu_3x3_reduce
I0403 18:49:17.748529  7772 net.cpp:425] inception_4d/relu_3x3_reduce <- inception_4d/3x3_reduce
I0403 18:49:17.748553  7772 net.cpp:386] inception_4d/relu_3x3_reduce -> inception_4d/3x3_reduce (in-place)
I0403 18:49:17.748903  7772 net.cpp:141] Setting up inception_4d/relu_3x3_reduce
I0403 18:49:17.748936  7772 net.cpp:148] Top shape: 24 144 14 14 (677376)
I0403 18:49:17.748956  7772 net.cpp:156] Memory required for data: 1120816416
I0403 18:49:17.748975  7772 layer_factory.hpp:77] Creating layer inception_4d/3x3
I0403 18:49:17.749003  7772 net.cpp:91] Creating Layer inception_4d/3x3
I0403 18:49:17.749024  7772 net.cpp:425] inception_4d/3x3 <- inception_4d/3x3_reduce
I0403 18:49:17.749052  7772 net.cpp:399] inception_4d/3x3 -> inception_4d/3x3
I0403 18:49:17.754375  7772 net.cpp:141] Setting up inception_4d/3x3
I0403 18:49:17.754413  7772 net.cpp:148] Top shape: 24 288 14 14 (1354752)
I0403 18:49:17.754433  7772 net.cpp:156] Memory required for data: 1126235424
I0403 18:49:17.754456  7772 layer_factory.hpp:77] Creating layer inception_4d/relu_3x3
I0403 18:49:17.754480  7772 net.cpp:91] Creating Layer inception_4d/relu_3x3
I0403 18:49:17.754503  7772 net.cpp:425] inception_4d/relu_3x3 <- inception_4d/3x3
I0403 18:49:17.754524  7772 net.cpp:386] inception_4d/relu_3x3 -> inception_4d/3x3 (in-place)
I0403 18:49:17.754750  7772 net.cpp:141] Setting up inception_4d/relu_3x3
I0403 18:49:17.754781  7772 net.cpp:148] Top shape: 24 288 14 14 (1354752)
I0403 18:49:17.754801  7772 net.cpp:156] Memory required for data: 1131654432
I0403 18:49:17.754818  7772 layer_factory.hpp:77] Creating layer inception_4d/5x5_reduce
I0403 18:49:17.754845  7772 net.cpp:91] Creating Layer inception_4d/5x5_reduce
I0403 18:49:17.754868  7772 net.cpp:425] inception_4d/5x5_reduce <- inception_4c/output_inception_4c/output_0_split_2
I0403 18:49:17.754895  7772 net.cpp:399] inception_4d/5x5_reduce -> inception_4d/5x5_reduce
I0403 18:49:17.756295  7772 net.cpp:141] Setting up inception_4d/5x5_reduce
I0403 18:49:17.756340  7772 net.cpp:148] Top shape: 24 32 14 14 (150528)
I0403 18:49:17.756361  7772 net.cpp:156] Memory required for data: 1132256544
I0403 18:49:17.756382  7772 layer_factory.hpp:77] Creating layer inception_4d/relu_5x5_reduce
I0403 18:49:17.756404  7772 net.cpp:91] Creating Layer inception_4d/relu_5x5_reduce
I0403 18:49:17.756424  7772 net.cpp:425] inception_4d/relu_5x5_reduce <- inception_4d/5x5_reduce
I0403 18:49:17.756444  7772 net.cpp:386] inception_4d/relu_5x5_reduce -> inception_4d/5x5_reduce (in-place)
I0403 18:49:17.756676  7772 net.cpp:141] Setting up inception_4d/relu_5x5_reduce
I0403 18:49:17.756711  7772 net.cpp:148] Top shape: 24 32 14 14 (150528)
I0403 18:49:17.756729  7772 net.cpp:156] Memory required for data: 1132858656
I0403 18:49:17.756748  7772 layer_factory.hpp:77] Creating layer inception_4d/5x5
I0403 18:49:17.756775  7772 net.cpp:91] Creating Layer inception_4d/5x5
I0403 18:49:17.756796  7772 net.cpp:425] inception_4d/5x5 <- inception_4d/5x5_reduce
I0403 18:49:17.756824  7772 net.cpp:399] inception_4d/5x5 -> inception_4d/5x5
I0403 18:49:17.758607  7772 net.cpp:141] Setting up inception_4d/5x5
I0403 18:49:17.758642  7772 net.cpp:148] Top shape: 24 64 14 14 (301056)
I0403 18:49:17.758662  7772 net.cpp:156] Memory required for data: 1134062880
I0403 18:49:17.758687  7772 layer_factory.hpp:77] Creating layer inception_4d/relu_5x5
I0403 18:49:17.758726  7772 net.cpp:91] Creating Layer inception_4d/relu_5x5
I0403 18:49:17.758751  7772 net.cpp:425] inception_4d/relu_5x5 <- inception_4d/5x5
I0403 18:49:17.758774  7772 net.cpp:386] inception_4d/relu_5x5 -> inception_4d/5x5 (in-place)
I0403 18:49:17.759135  7772 net.cpp:141] Setting up inception_4d/relu_5x5
I0403 18:49:17.759167  7772 net.cpp:148] Top shape: 24 64 14 14 (301056)
I0403 18:49:17.759186  7772 net.cpp:156] Memory required for data: 1135267104
I0403 18:49:17.759204  7772 layer_factory.hpp:77] Creating layer inception_4d/pool
I0403 18:49:17.759227  7772 net.cpp:91] Creating Layer inception_4d/pool
I0403 18:49:17.759248  7772 net.cpp:425] inception_4d/pool <- inception_4c/output_inception_4c/output_0_split_3
I0403 18:49:17.759280  7772 net.cpp:399] inception_4d/pool -> inception_4d/pool
I0403 18:49:17.759364  7772 net.cpp:141] Setting up inception_4d/pool
I0403 18:49:17.759397  7772 net.cpp:148] Top shape: 24 512 14 14 (2408448)
I0403 18:49:17.759418  7772 net.cpp:156] Memory required for data: 1144900896
I0403 18:49:17.759438  7772 layer_factory.hpp:77] Creating layer inception_4d/pool_proj
I0403 18:49:17.759464  7772 net.cpp:91] Creating Layer inception_4d/pool_proj
I0403 18:49:17.759487  7772 net.cpp:425] inception_4d/pool_proj <- inception_4d/pool
I0403 18:49:17.759511  7772 net.cpp:399] inception_4d/pool_proj -> inception_4d/pool_proj
I0403 18:49:17.761675  7772 net.cpp:141] Setting up inception_4d/pool_proj
I0403 18:49:17.761713  7772 net.cpp:148] Top shape: 24 64 14 14 (301056)
I0403 18:49:17.761734  7772 net.cpp:156] Memory required for data: 1146105120
I0403 18:49:17.761756  7772 layer_factory.hpp:77] Creating layer inception_4d/relu_pool_proj
I0403 18:49:17.761781  7772 net.cpp:91] Creating Layer inception_4d/relu_pool_proj
I0403 18:49:17.761803  7772 net.cpp:425] inception_4d/relu_pool_proj <- inception_4d/pool_proj
I0403 18:49:17.761826  7772 net.cpp:386] inception_4d/relu_pool_proj -> inception_4d/pool_proj (in-place)
I0403 18:49:17.762053  7772 net.cpp:141] Setting up inception_4d/relu_pool_proj
I0403 18:49:17.762085  7772 net.cpp:148] Top shape: 24 64 14 14 (301056)
I0403 18:49:17.762104  7772 net.cpp:156] Memory required for data: 1147309344
I0403 18:49:17.762122  7772 layer_factory.hpp:77] Creating layer inception_4d/output
I0403 18:49:17.762143  7772 net.cpp:91] Creating Layer inception_4d/output
I0403 18:49:17.762162  7772 net.cpp:425] inception_4d/output <- inception_4d/1x1
I0403 18:49:17.762182  7772 net.cpp:425] inception_4d/output <- inception_4d/3x3
I0403 18:49:17.762202  7772 net.cpp:425] inception_4d/output <- inception_4d/5x5
I0403 18:49:17.762223  7772 net.cpp:425] inception_4d/output <- inception_4d/pool_proj
I0403 18:49:17.762246  7772 net.cpp:399] inception_4d/output -> inception_4d/output
I0403 18:49:17.762320  7772 net.cpp:141] Setting up inception_4d/output
I0403 18:49:17.762354  7772 net.cpp:148] Top shape: 24 528 14 14 (2483712)
I0403 18:49:17.762374  7772 net.cpp:156] Memory required for data: 1157244192
I0403 18:49:17.762393  7772 layer_factory.hpp:77] Creating layer inception_4d/output_inception_4d/output_0_split
I0403 18:49:17.762415  7772 net.cpp:91] Creating Layer inception_4d/output_inception_4d/output_0_split
I0403 18:49:17.762435  7772 net.cpp:425] inception_4d/output_inception_4d/output_0_split <- inception_4d/output
I0403 18:49:17.762459  7772 net.cpp:399] inception_4d/output_inception_4d/output_0_split -> inception_4d/output_inception_4d/output_0_split_0
I0403 18:49:17.762495  7772 net.cpp:399] inception_4d/output_inception_4d/output_0_split -> inception_4d/output_inception_4d/output_0_split_1
I0403 18:49:17.762522  7772 net.cpp:399] inception_4d/output_inception_4d/output_0_split -> inception_4d/output_inception_4d/output_0_split_2
I0403 18:49:17.762549  7772 net.cpp:399] inception_4d/output_inception_4d/output_0_split -> inception_4d/output_inception_4d/output_0_split_3
I0403 18:49:17.762574  7772 net.cpp:399] inception_4d/output_inception_4d/output_0_split -> inception_4d/output_inception_4d/output_0_split_4
I0403 18:49:17.762699  7772 net.cpp:141] Setting up inception_4d/output_inception_4d/output_0_split
I0403 18:49:17.762748  7772 net.cpp:148] Top shape: 24 528 14 14 (2483712)
I0403 18:49:17.762769  7772 net.cpp:148] Top shape: 24 528 14 14 (2483712)
I0403 18:49:17.762789  7772 net.cpp:148] Top shape: 24 528 14 14 (2483712)
I0403 18:49:17.762807  7772 net.cpp:148] Top shape: 24 528 14 14 (2483712)
I0403 18:49:17.762826  7772 net.cpp:148] Top shape: 24 528 14 14 (2483712)
I0403 18:49:17.762843  7772 net.cpp:156] Memory required for data: 1206918432
I0403 18:49:17.762861  7772 layer_factory.hpp:77] Creating layer loss2/ave_pool
I0403 18:49:17.762887  7772 net.cpp:91] Creating Layer loss2/ave_pool
I0403 18:49:17.762907  7772 net.cpp:425] loss2/ave_pool <- inception_4d/output_inception_4d/output_0_split_0
I0403 18:49:17.762928  7772 net.cpp:399] loss2/ave_pool -> loss2/ave_pool
I0403 18:49:17.763312  7772 net.cpp:141] Setting up loss2/ave_pool
I0403 18:49:17.763345  7772 net.cpp:148] Top shape: 24 528 4 4 (202752)
I0403 18:49:17.763365  7772 net.cpp:156] Memory required for data: 1207729440
I0403 18:49:17.763382  7772 layer_factory.hpp:77] Creating layer loss2/conv
I0403 18:49:17.763416  7772 net.cpp:91] Creating Layer loss2/conv
I0403 18:49:17.763437  7772 net.cpp:425] loss2/conv <- loss2/ave_pool
I0403 18:49:17.763461  7772 net.cpp:399] loss2/conv -> loss2/conv
I0403 18:49:17.765770  7772 net.cpp:141] Setting up loss2/conv
I0403 18:49:17.765805  7772 net.cpp:148] Top shape: 24 128 4 4 (49152)
I0403 18:49:17.765825  7772 net.cpp:156] Memory required for data: 1207926048
I0403 18:49:17.765849  7772 layer_factory.hpp:77] Creating layer loss2/relu_conv
I0403 18:49:17.765871  7772 net.cpp:91] Creating Layer loss2/relu_conv
I0403 18:49:17.765890  7772 net.cpp:425] loss2/relu_conv <- loss2/conv
I0403 18:49:17.765914  7772 net.cpp:386] loss2/relu_conv -> loss2/conv (in-place)
I0403 18:49:17.766259  7772 net.cpp:141] Setting up loss2/relu_conv
I0403 18:49:17.766299  7772 net.cpp:148] Top shape: 24 128 4 4 (49152)
I0403 18:49:17.766319  7772 net.cpp:156] Memory required for data: 1208122656
I0403 18:49:17.766337  7772 layer_factory.hpp:77] Creating layer loss2/fc
I0403 18:49:17.766360  7772 net.cpp:91] Creating Layer loss2/fc
I0403 18:49:17.766379  7772 net.cpp:425] loss2/fc <- loss2/conv
I0403 18:49:17.766405  7772 net.cpp:399] loss2/fc -> loss2/fc
I0403 18:49:17.788462  7772 net.cpp:141] Setting up loss2/fc
I0403 18:49:17.788506  7772 net.cpp:148] Top shape: 24 1024 (24576)
I0403 18:49:17.788525  7772 net.cpp:156] Memory required for data: 1208220960
I0403 18:49:17.788547  7772 layer_factory.hpp:77] Creating layer loss2/relu_fc
I0403 18:49:17.788568  7772 net.cpp:91] Creating Layer loss2/relu_fc
I0403 18:49:17.788589  7772 net.cpp:425] loss2/relu_fc <- loss2/fc
I0403 18:49:17.788609  7772 net.cpp:386] loss2/relu_fc -> loss2/fc (in-place)
I0403 18:49:17.788977  7772 net.cpp:141] Setting up loss2/relu_fc
I0403 18:49:17.789013  7772 net.cpp:148] Top shape: 24 1024 (24576)
I0403 18:49:17.789033  7772 net.cpp:156] Memory required for data: 1208319264
I0403 18:49:17.789052  7772 layer_factory.hpp:77] Creating layer loss2/drop_fc
I0403 18:49:17.789075  7772 net.cpp:91] Creating Layer loss2/drop_fc
I0403 18:49:17.789094  7772 net.cpp:425] loss2/drop_fc <- loss2/fc
I0403 18:49:17.789116  7772 net.cpp:386] loss2/drop_fc -> loss2/fc (in-place)
I0403 18:49:17.789177  7772 net.cpp:141] Setting up loss2/drop_fc
I0403 18:49:17.789207  7772 net.cpp:148] Top shape: 24 1024 (24576)
I0403 18:49:17.789225  7772 net.cpp:156] Memory required for data: 1208417568
I0403 18:49:17.789242  7772 layer_factory.hpp:77] Creating layer loss2/classifier_plantvillage
I0403 18:49:17.789268  7772 net.cpp:91] Creating Layer loss2/classifier_plantvillage
I0403 18:49:17.789295  7772 net.cpp:425] loss2/classifier_plantvillage <- loss2/fc
I0403 18:49:17.789319  7772 net.cpp:399] loss2/classifier_plantvillage -> loss2/classifier_plantvillage
I0403 18:49:17.789818  7772 net.cpp:141] Setting up loss2/classifier_plantvillage
I0403 18:49:17.789847  7772 net.cpp:148] Top shape: 24 38 (912)
I0403 18:49:17.789887  7772 net.cpp:156] Memory required for data: 1208421216
I0403 18:49:17.789911  7772 layer_factory.hpp:77] Creating layer loss2/classifier_plantvillage_loss2/classifier_plantvillage_0_split
I0403 18:49:17.789932  7772 net.cpp:91] Creating Layer loss2/classifier_plantvillage_loss2/classifier_plantvillage_0_split
I0403 18:49:17.789952  7772 net.cpp:425] loss2/classifier_plantvillage_loss2/classifier_plantvillage_0_split <- loss2/classifier_plantvillage
I0403 18:49:17.789976  7772 net.cpp:399] loss2/classifier_plantvillage_loss2/classifier_plantvillage_0_split -> loss2/classifier_plantvillage_loss2/classifier_plantvillage_0_split_0
I0403 18:49:17.790002  7772 net.cpp:399] loss2/classifier_plantvillage_loss2/classifier_plantvillage_0_split -> loss2/classifier_plantvillage_loss2/classifier_plantvillage_0_split_1
I0403 18:49:17.790027  7772 net.cpp:399] loss2/classifier_plantvillage_loss2/classifier_plantvillage_0_split -> loss2/classifier_plantvillage_loss2/classifier_plantvillage_0_split_2
I0403 18:49:17.790124  7772 net.cpp:141] Setting up loss2/classifier_plantvillage_loss2/classifier_plantvillage_0_split
I0403 18:49:17.790153  7772 net.cpp:148] Top shape: 24 38 (912)
I0403 18:49:17.790174  7772 net.cpp:148] Top shape: 24 38 (912)
I0403 18:49:17.790194  7772 net.cpp:148] Top shape: 24 38 (912)
I0403 18:49:17.790210  7772 net.cpp:156] Memory required for data: 1208432160
I0403 18:49:17.790227  7772 layer_factory.hpp:77] Creating layer inception_4e/1x1
I0403 18:49:17.790253  7772 net.cpp:91] Creating Layer inception_4e/1x1
I0403 18:49:17.790280  7772 net.cpp:425] inception_4e/1x1 <- inception_4d/output_inception_4d/output_0_split_1
I0403 18:49:17.790305  7772 net.cpp:399] inception_4e/1x1 -> inception_4e/1x1
I0403 18:49:17.792562  7772 net.cpp:141] Setting up inception_4e/1x1
I0403 18:49:17.792598  7772 net.cpp:148] Top shape: 24 256 14 14 (1204224)
I0403 18:49:17.792616  7772 net.cpp:156] Memory required for data: 1213249056
I0403 18:49:17.792639  7772 layer_factory.hpp:77] Creating layer inception_4e/relu_1x1
I0403 18:49:17.792664  7772 net.cpp:91] Creating Layer inception_4e/relu_1x1
I0403 18:49:17.792685  7772 net.cpp:425] inception_4e/relu_1x1 <- inception_4e/1x1
I0403 18:49:17.792707  7772 net.cpp:386] inception_4e/relu_1x1 -> inception_4e/1x1 (in-place)
I0403 18:49:17.793068  7772 net.cpp:141] Setting up inception_4e/relu_1x1
I0403 18:49:17.793100  7772 net.cpp:148] Top shape: 24 256 14 14 (1204224)
I0403 18:49:17.793119  7772 net.cpp:156] Memory required for data: 1218065952
I0403 18:49:17.793138  7772 layer_factory.hpp:77] Creating layer inception_4e/3x3_reduce
I0403 18:49:17.793165  7772 net.cpp:91] Creating Layer inception_4e/3x3_reduce
I0403 18:49:17.793187  7772 net.cpp:425] inception_4e/3x3_reduce <- inception_4d/output_inception_4d/output_0_split_2
I0403 18:49:17.793213  7772 net.cpp:399] inception_4e/3x3_reduce -> inception_4e/3x3_reduce
I0403 18:49:17.795835  7772 net.cpp:141] Setting up inception_4e/3x3_reduce
I0403 18:49:17.795871  7772 net.cpp:148] Top shape: 24 160 14 14 (752640)
I0403 18:49:17.795891  7772 net.cpp:156] Memory required for data: 1221076512
I0403 18:49:17.795913  7772 layer_factory.hpp:77] Creating layer inception_4e/relu_3x3_reduce
I0403 18:49:17.795935  7772 net.cpp:91] Creating Layer inception_4e/relu_3x3_reduce
I0403 18:49:17.795954  7772 net.cpp:425] inception_4e/relu_3x3_reduce <- inception_4e/3x3_reduce
I0403 18:49:17.795979  7772 net.cpp:386] inception_4e/relu_3x3_reduce -> inception_4e/3x3_reduce (in-place)
I0403 18:49:17.796205  7772 net.cpp:141] Setting up inception_4e/relu_3x3_reduce
I0403 18:49:17.796236  7772 net.cpp:148] Top shape: 24 160 14 14 (752640)
I0403 18:49:17.796253  7772 net.cpp:156] Memory required for data: 1224087072
I0403 18:49:17.796279  7772 layer_factory.hpp:77] Creating layer inception_4e/3x3
I0403 18:49:17.796308  7772 net.cpp:91] Creating Layer inception_4e/3x3
I0403 18:49:17.796330  7772 net.cpp:425] inception_4e/3x3 <- inception_4e/3x3_reduce
I0403 18:49:17.796355  7772 net.cpp:399] inception_4e/3x3 -> inception_4e/3x3
I0403 18:49:17.802605  7772 net.cpp:141] Setting up inception_4e/3x3
I0403 18:49:17.802661  7772 net.cpp:148] Top shape: 24 320 14 14 (1505280)
I0403 18:49:17.802685  7772 net.cpp:156] Memory required for data: 1230108192
I0403 18:49:17.802709  7772 layer_factory.hpp:77] Creating layer inception_4e/relu_3x3
I0403 18:49:17.802736  7772 net.cpp:91] Creating Layer inception_4e/relu_3x3
I0403 18:49:17.802759  7772 net.cpp:425] inception_4e/relu_3x3 <- inception_4e/3x3
I0403 18:49:17.802781  7772 net.cpp:386] inception_4e/relu_3x3 -> inception_4e/3x3 (in-place)
I0403 18:49:17.803144  7772 net.cpp:141] Setting up inception_4e/relu_3x3
I0403 18:49:17.803176  7772 net.cpp:148] Top shape: 24 320 14 14 (1505280)
I0403 18:49:17.803203  7772 net.cpp:156] Memory required for data: 1236129312
I0403 18:49:17.803222  7772 layer_factory.hpp:77] Creating layer inception_4e/5x5_reduce
I0403 18:49:17.803246  7772 net.cpp:91] Creating Layer inception_4e/5x5_reduce
I0403 18:49:17.803267  7772 net.cpp:425] inception_4e/5x5_reduce <- inception_4d/output_inception_4d/output_0_split_3
I0403 18:49:17.803300  7772 net.cpp:399] inception_4e/5x5_reduce -> inception_4e/5x5_reduce
I0403 18:49:17.804625  7772 net.cpp:141] Setting up inception_4e/5x5_reduce
I0403 18:49:17.804659  7772 net.cpp:148] Top shape: 24 32 14 14 (150528)
I0403 18:49:17.804677  7772 net.cpp:156] Memory required for data: 1236731424
I0403 18:49:17.804702  7772 layer_factory.hpp:77] Creating layer inception_4e/relu_5x5_reduce
I0403 18:49:17.804723  7772 net.cpp:91] Creating Layer inception_4e/relu_5x5_reduce
I0403 18:49:17.804746  7772 net.cpp:425] inception_4e/relu_5x5_reduce <- inception_4e/5x5_reduce
I0403 18:49:17.804767  7772 net.cpp:386] inception_4e/relu_5x5_reduce -> inception_4e/5x5_reduce (in-place)
I0403 18:49:17.805133  7772 net.cpp:141] Setting up inception_4e/relu_5x5_reduce
I0403 18:49:17.805166  7772 net.cpp:148] Top shape: 24 32 14 14 (150528)
I0403 18:49:17.805184  7772 net.cpp:156] Memory required for data: 1237333536
I0403 18:49:17.805203  7772 layer_factory.hpp:77] Creating layer inception_4e/5x5
I0403 18:49:17.805250  7772 net.cpp:91] Creating Layer inception_4e/5x5
I0403 18:49:17.805279  7772 net.cpp:425] inception_4e/5x5 <- inception_4e/5x5_reduce
I0403 18:49:17.805305  7772 net.cpp:399] inception_4e/5x5 -> inception_4e/5x5
I0403 18:49:17.807540  7772 net.cpp:141] Setting up inception_4e/5x5
I0403 18:49:17.807577  7772 net.cpp:148] Top shape: 24 128 14 14 (602112)
I0403 18:49:17.807598  7772 net.cpp:156] Memory required for data: 1239741984
I0403 18:49:17.807622  7772 layer_factory.hpp:77] Creating layer inception_4e/relu_5x5
I0403 18:49:17.807646  7772 net.cpp:91] Creating Layer inception_4e/relu_5x5
I0403 18:49:17.807667  7772 net.cpp:425] inception_4e/relu_5x5 <- inception_4e/5x5
I0403 18:49:17.807690  7772 net.cpp:386] inception_4e/relu_5x5 -> inception_4e/5x5 (in-place)
I0403 18:49:17.807935  7772 net.cpp:141] Setting up inception_4e/relu_5x5
I0403 18:49:17.807966  7772 net.cpp:148] Top shape: 24 128 14 14 (602112)
I0403 18:49:17.807984  7772 net.cpp:156] Memory required for data: 1242150432
I0403 18:49:17.808002  7772 layer_factory.hpp:77] Creating layer inception_4e/pool
I0403 18:49:17.808024  7772 net.cpp:91] Creating Layer inception_4e/pool
I0403 18:49:17.808044  7772 net.cpp:425] inception_4e/pool <- inception_4d/output_inception_4d/output_0_split_4
I0403 18:49:17.808070  7772 net.cpp:399] inception_4e/pool -> inception_4e/pool
I0403 18:49:17.808156  7772 net.cpp:141] Setting up inception_4e/pool
I0403 18:49:17.808187  7772 net.cpp:148] Top shape: 24 528 14 14 (2483712)
I0403 18:49:17.808207  7772 net.cpp:156] Memory required for data: 1252085280
I0403 18:49:17.808229  7772 layer_factory.hpp:77] Creating layer inception_4e/pool_proj
I0403 18:49:17.808259  7772 net.cpp:91] Creating Layer inception_4e/pool_proj
I0403 18:49:17.808296  7772 net.cpp:425] inception_4e/pool_proj <- inception_4e/pool
I0403 18:49:17.808321  7772 net.cpp:399] inception_4e/pool_proj -> inception_4e/pool_proj
I0403 18:49:17.810165  7772 net.cpp:141] Setting up inception_4e/pool_proj
I0403 18:49:17.810214  7772 net.cpp:148] Top shape: 24 128 14 14 (602112)
I0403 18:49:17.810235  7772 net.cpp:156] Memory required for data: 1254493728
I0403 18:49:17.810261  7772 layer_factory.hpp:77] Creating layer inception_4e/relu_pool_proj
I0403 18:49:17.810289  7772 net.cpp:91] Creating Layer inception_4e/relu_pool_proj
I0403 18:49:17.810310  7772 net.cpp:425] inception_4e/relu_pool_proj <- inception_4e/pool_proj
I0403 18:49:17.810331  7772 net.cpp:386] inception_4e/relu_pool_proj -> inception_4e/pool_proj (in-place)
I0403 18:49:17.810693  7772 net.cpp:141] Setting up inception_4e/relu_pool_proj
I0403 18:49:17.810729  7772 net.cpp:148] Top shape: 24 128 14 14 (602112)
I0403 18:49:17.810750  7772 net.cpp:156] Memory required for data: 1256902176
I0403 18:49:17.810768  7772 layer_factory.hpp:77] Creating layer inception_4e/output
I0403 18:49:17.810791  7772 net.cpp:91] Creating Layer inception_4e/output
I0403 18:49:17.810809  7772 net.cpp:425] inception_4e/output <- inception_4e/1x1
I0403 18:49:17.810829  7772 net.cpp:425] inception_4e/output <- inception_4e/3x3
I0403 18:49:17.810849  7772 net.cpp:425] inception_4e/output <- inception_4e/5x5
I0403 18:49:17.810868  7772 net.cpp:425] inception_4e/output <- inception_4e/pool_proj
I0403 18:49:17.810889  7772 net.cpp:399] inception_4e/output -> inception_4e/output
I0403 18:49:17.810951  7772 net.cpp:141] Setting up inception_4e/output
I0403 18:49:17.810981  7772 net.cpp:148] Top shape: 24 832 14 14 (3913728)
I0403 18:49:17.810999  7772 net.cpp:156] Memory required for data: 1272557088
I0403 18:49:17.811017  7772 layer_factory.hpp:77] Creating layer pool4/3x3_s2
I0403 18:49:17.811041  7772 net.cpp:91] Creating Layer pool4/3x3_s2
I0403 18:49:17.811063  7772 net.cpp:425] pool4/3x3_s2 <- inception_4e/output
I0403 18:49:17.811085  7772 net.cpp:399] pool4/3x3_s2 -> pool4/3x3_s2
I0403 18:49:17.811169  7772 net.cpp:141] Setting up pool4/3x3_s2
I0403 18:49:17.811199  7772 net.cpp:148] Top shape: 24 832 7 7 (978432)
I0403 18:49:17.811218  7772 net.cpp:156] Memory required for data: 1276470816
I0403 18:49:17.811235  7772 layer_factory.hpp:77] Creating layer pool4/3x3_s2_pool4/3x3_s2_0_split
I0403 18:49:17.811257  7772 net.cpp:91] Creating Layer pool4/3x3_s2_pool4/3x3_s2_0_split
I0403 18:49:17.811281  7772 net.cpp:425] pool4/3x3_s2_pool4/3x3_s2_0_split <- pool4/3x3_s2
I0403 18:49:17.811307  7772 net.cpp:399] pool4/3x3_s2_pool4/3x3_s2_0_split -> pool4/3x3_s2_pool4/3x3_s2_0_split_0
I0403 18:49:17.811334  7772 net.cpp:399] pool4/3x3_s2_pool4/3x3_s2_0_split -> pool4/3x3_s2_pool4/3x3_s2_0_split_1
I0403 18:49:17.811359  7772 net.cpp:399] pool4/3x3_s2_pool4/3x3_s2_0_split -> pool4/3x3_s2_pool4/3x3_s2_0_split_2
I0403 18:49:17.811384  7772 net.cpp:399] pool4/3x3_s2_pool4/3x3_s2_0_split -> pool4/3x3_s2_pool4/3x3_s2_0_split_3
I0403 18:49:17.811494  7772 net.cpp:141] Setting up pool4/3x3_s2_pool4/3x3_s2_0_split
I0403 18:49:17.811527  7772 net.cpp:148] Top shape: 24 832 7 7 (978432)
I0403 18:49:17.811549  7772 net.cpp:148] Top shape: 24 832 7 7 (978432)
I0403 18:49:17.811568  7772 net.cpp:148] Top shape: 24 832 7 7 (978432)
I0403 18:49:17.811588  7772 net.cpp:148] Top shape: 24 832 7 7 (978432)
I0403 18:49:17.811605  7772 net.cpp:156] Memory required for data: 1292125728
I0403 18:49:17.811622  7772 layer_factory.hpp:77] Creating layer inception_5a/1x1
I0403 18:49:17.811650  7772 net.cpp:91] Creating Layer inception_5a/1x1
I0403 18:49:17.811671  7772 net.cpp:425] inception_5a/1x1 <- pool4/3x3_s2_pool4/3x3_s2_0_split_0
I0403 18:49:17.811694  7772 net.cpp:399] inception_5a/1x1 -> inception_5a/1x1
I0403 18:49:17.815220  7772 net.cpp:141] Setting up inception_5a/1x1
I0403 18:49:17.815258  7772 net.cpp:148] Top shape: 24 256 7 7 (301056)
I0403 18:49:17.815284  7772 net.cpp:156] Memory required for data: 1293329952
I0403 18:49:17.815307  7772 layer_factory.hpp:77] Creating layer inception_5a/relu_1x1
I0403 18:49:17.815330  7772 net.cpp:91] Creating Layer inception_5a/relu_1x1
I0403 18:49:17.815351  7772 net.cpp:425] inception_5a/relu_1x1 <- inception_5a/1x1
I0403 18:49:17.815374  7772 net.cpp:386] inception_5a/relu_1x1 -> inception_5a/1x1 (in-place)
I0403 18:49:17.815750  7772 net.cpp:141] Setting up inception_5a/relu_1x1
I0403 18:49:17.815783  7772 net.cpp:148] Top shape: 24 256 7 7 (301056)
I0403 18:49:17.815801  7772 net.cpp:156] Memory required for data: 1294534176
I0403 18:49:17.815819  7772 layer_factory.hpp:77] Creating layer inception_5a/3x3_reduce
I0403 18:49:17.815851  7772 net.cpp:91] Creating Layer inception_5a/3x3_reduce
I0403 18:49:17.815873  7772 net.cpp:425] inception_5a/3x3_reduce <- pool4/3x3_s2_pool4/3x3_s2_0_split_1
I0403 18:49:17.815901  7772 net.cpp:399] inception_5a/3x3_reduce -> inception_5a/3x3_reduce
I0403 18:49:17.818925  7772 net.cpp:141] Setting up inception_5a/3x3_reduce
I0403 18:49:17.818963  7772 net.cpp:148] Top shape: 24 160 7 7 (188160)
I0403 18:49:17.818981  7772 net.cpp:156] Memory required for data: 1295286816
I0403 18:49:17.819005  7772 layer_factory.hpp:77] Creating layer inception_5a/relu_3x3_reduce
I0403 18:49:17.819030  7772 net.cpp:91] Creating Layer inception_5a/relu_3x3_reduce
I0403 18:49:17.819049  7772 net.cpp:425] inception_5a/relu_3x3_reduce <- inception_5a/3x3_reduce
I0403 18:49:17.819072  7772 net.cpp:386] inception_5a/relu_3x3_reduce -> inception_5a/3x3_reduce (in-place)
I0403 18:49:17.819310  7772 net.cpp:141] Setting up inception_5a/relu_3x3_reduce
I0403 18:49:17.819344  7772 net.cpp:148] Top shape: 24 160 7 7 (188160)
I0403 18:49:17.819362  7772 net.cpp:156] Memory required for data: 1296039456
I0403 18:49:17.819380  7772 layer_factory.hpp:77] Creating layer inception_5a/3x3
I0403 18:49:17.819409  7772 net.cpp:91] Creating Layer inception_5a/3x3
I0403 18:49:17.819432  7772 net.cpp:425] inception_5a/3x3 <- inception_5a/3x3_reduce
I0403 18:49:17.819458  7772 net.cpp:399] inception_5a/3x3 -> inception_5a/3x3
I0403 18:49:17.825801  7772 net.cpp:141] Setting up inception_5a/3x3
I0403 18:49:17.825844  7772 net.cpp:148] Top shape: 24 320 7 7 (376320)
I0403 18:49:17.825865  7772 net.cpp:156] Memory required for data: 1297544736
I0403 18:49:17.825887  7772 layer_factory.hpp:77] Creating layer inception_5a/relu_3x3
I0403 18:49:17.825909  7772 net.cpp:91] Creating Layer inception_5a/relu_3x3
I0403 18:49:17.825929  7772 net.cpp:425] inception_5a/relu_3x3 <- inception_5a/3x3
I0403 18:49:17.825953  7772 net.cpp:386] inception_5a/relu_3x3 -> inception_5a/3x3 (in-place)
I0403 18:49:17.826325  7772 net.cpp:141] Setting up inception_5a/relu_3x3
I0403 18:49:17.826361  7772 net.cpp:148] Top shape: 24 320 7 7 (376320)
I0403 18:49:17.826381  7772 net.cpp:156] Memory required for data: 1299050016
I0403 18:49:17.826400  7772 layer_factory.hpp:77] Creating layer inception_5a/5x5_reduce
I0403 18:49:17.826427  7772 net.cpp:91] Creating Layer inception_5a/5x5_reduce
I0403 18:49:17.826449  7772 net.cpp:425] inception_5a/5x5_reduce <- pool4/3x3_s2_pool4/3x3_s2_0_split_2
I0403 18:49:17.826473  7772 net.cpp:399] inception_5a/5x5_reduce -> inception_5a/5x5_reduce
I0403 18:49:17.827913  7772 net.cpp:141] Setting up inception_5a/5x5_reduce
I0403 18:49:17.827951  7772 net.cpp:148] Top shape: 24 32 7 7 (37632)
I0403 18:49:17.827971  7772 net.cpp:156] Memory required for data: 1299200544
I0403 18:49:17.827993  7772 layer_factory.hpp:77] Creating layer inception_5a/relu_5x5_reduce
I0403 18:49:17.828016  7772 net.cpp:91] Creating Layer inception_5a/relu_5x5_reduce
I0403 18:49:17.828035  7772 net.cpp:425] inception_5a/relu_5x5_reduce <- inception_5a/5x5_reduce
I0403 18:49:17.828059  7772 net.cpp:386] inception_5a/relu_5x5_reduce -> inception_5a/5x5_reduce (in-place)
I0403 18:49:17.828441  7772 net.cpp:141] Setting up inception_5a/relu_5x5_reduce
I0403 18:49:17.828475  7772 net.cpp:148] Top shape: 24 32 7 7 (37632)
I0403 18:49:17.828493  7772 net.cpp:156] Memory required for data: 1299351072
I0403 18:49:17.828511  7772 layer_factory.hpp:77] Creating layer inception_5a/5x5
I0403 18:49:17.828539  7772 net.cpp:91] Creating Layer inception_5a/5x5
I0403 18:49:17.828562  7772 net.cpp:425] inception_5a/5x5 <- inception_5a/5x5_reduce
I0403 18:49:17.828588  7772 net.cpp:399] inception_5a/5x5 -> inception_5a/5x5
I0403 18:49:17.830713  7772 net.cpp:141] Setting up inception_5a/5x5
I0403 18:49:17.830765  7772 net.cpp:148] Top shape: 24 128 7 7 (150528)
I0403 18:49:17.830787  7772 net.cpp:156] Memory required for data: 1299953184
I0403 18:49:17.830811  7772 layer_factory.hpp:77] Creating layer inception_5a/relu_5x5
I0403 18:49:17.830833  7772 net.cpp:91] Creating Layer inception_5a/relu_5x5
I0403 18:49:17.830854  7772 net.cpp:425] inception_5a/relu_5x5 <- inception_5a/5x5
I0403 18:49:17.830879  7772 net.cpp:386] inception_5a/relu_5x5 -> inception_5a/5x5 (in-place)
I0403 18:49:17.831116  7772 net.cpp:141] Setting up inception_5a/relu_5x5
I0403 18:49:17.831149  7772 net.cpp:148] Top shape: 24 128 7 7 (150528)
I0403 18:49:17.831167  7772 net.cpp:156] Memory required for data: 1300555296
I0403 18:49:17.831187  7772 layer_factory.hpp:77] Creating layer inception_5a/pool
I0403 18:49:17.831208  7772 net.cpp:91] Creating Layer inception_5a/pool
I0403 18:49:17.831228  7772 net.cpp:425] inception_5a/pool <- pool4/3x3_s2_pool4/3x3_s2_0_split_3
I0403 18:49:17.831253  7772 net.cpp:399] inception_5a/pool -> inception_5a/pool
I0403 18:49:17.831346  7772 net.cpp:141] Setting up inception_5a/pool
I0403 18:49:17.831377  7772 net.cpp:148] Top shape: 24 832 7 7 (978432)
I0403 18:49:17.831395  7772 net.cpp:156] Memory required for data: 1304469024
I0403 18:49:17.831414  7772 layer_factory.hpp:77] Creating layer inception_5a/pool_proj
I0403 18:49:17.831445  7772 net.cpp:91] Creating Layer inception_5a/pool_proj
I0403 18:49:17.831466  7772 net.cpp:425] inception_5a/pool_proj <- inception_5a/pool
I0403 18:49:17.831490  7772 net.cpp:399] inception_5a/pool_proj -> inception_5a/pool_proj
I0403 18:49:17.834319  7772 net.cpp:141] Setting up inception_5a/pool_proj
I0403 18:49:17.834359  7772 net.cpp:148] Top shape: 24 128 7 7 (150528)
I0403 18:49:17.834379  7772 net.cpp:156] Memory required for data: 1305071136
I0403 18:49:17.834401  7772 layer_factory.hpp:77] Creating layer inception_5a/relu_pool_proj
I0403 18:49:17.834424  7772 net.cpp:91] Creating Layer inception_5a/relu_pool_proj
I0403 18:49:17.834444  7772 net.cpp:425] inception_5a/relu_pool_proj <- inception_5a/pool_proj
I0403 18:49:17.834465  7772 net.cpp:386] inception_5a/relu_pool_proj -> inception_5a/pool_proj (in-place)
I0403 18:49:17.834820  7772 net.cpp:141] Setting up inception_5a/relu_pool_proj
I0403 18:49:17.834856  7772 net.cpp:148] Top shape: 24 128 7 7 (150528)
I0403 18:49:17.834877  7772 net.cpp:156] Memory required for data: 1305673248
I0403 18:49:17.834895  7772 layer_factory.hpp:77] Creating layer inception_5a/output
I0403 18:49:17.834915  7772 net.cpp:91] Creating Layer inception_5a/output
I0403 18:49:17.834934  7772 net.cpp:425] inception_5a/output <- inception_5a/1x1
I0403 18:49:17.834955  7772 net.cpp:425] inception_5a/output <- inception_5a/3x3
I0403 18:49:17.834975  7772 net.cpp:425] inception_5a/output <- inception_5a/5x5
I0403 18:49:17.834995  7772 net.cpp:425] inception_5a/output <- inception_5a/pool_proj
I0403 18:49:17.835016  7772 net.cpp:399] inception_5a/output -> inception_5a/output
I0403 18:49:17.835078  7772 net.cpp:141] Setting up inception_5a/output
I0403 18:49:17.835108  7772 net.cpp:148] Top shape: 24 832 7 7 (978432)
I0403 18:49:17.835125  7772 net.cpp:156] Memory required for data: 1309586976
I0403 18:49:17.835144  7772 layer_factory.hpp:77] Creating layer inception_5a/output_inception_5a/output_0_split
I0403 18:49:17.835167  7772 net.cpp:91] Creating Layer inception_5a/output_inception_5a/output_0_split
I0403 18:49:17.835187  7772 net.cpp:425] inception_5a/output_inception_5a/output_0_split <- inception_5a/output
I0403 18:49:17.835208  7772 net.cpp:399] inception_5a/output_inception_5a/output_0_split -> inception_5a/output_inception_5a/output_0_split_0
I0403 18:49:17.835232  7772 net.cpp:399] inception_5a/output_inception_5a/output_0_split -> inception_5a/output_inception_5a/output_0_split_1
I0403 18:49:17.835258  7772 net.cpp:399] inception_5a/output_inception_5a/output_0_split -> inception_5a/output_inception_5a/output_0_split_2
I0403 18:49:17.835290  7772 net.cpp:399] inception_5a/output_inception_5a/output_0_split -> inception_5a/output_inception_5a/output_0_split_3
I0403 18:49:17.835432  7772 net.cpp:141] Setting up inception_5a/output_inception_5a/output_0_split
I0403 18:49:17.835461  7772 net.cpp:148] Top shape: 24 832 7 7 (978432)
I0403 18:49:17.835480  7772 net.cpp:148] Top shape: 24 832 7 7 (978432)
I0403 18:49:17.835500  7772 net.cpp:148] Top shape: 24 832 7 7 (978432)
I0403 18:49:17.835518  7772 net.cpp:148] Top shape: 24 832 7 7 (978432)
I0403 18:49:17.835536  7772 net.cpp:156] Memory required for data: 1325241888
I0403 18:49:17.835553  7772 layer_factory.hpp:77] Creating layer inception_5b/1x1
I0403 18:49:17.835580  7772 net.cpp:91] Creating Layer inception_5b/1x1
I0403 18:49:17.835602  7772 net.cpp:425] inception_5b/1x1 <- inception_5a/output_inception_5a/output_0_split_0
I0403 18:49:17.835628  7772 net.cpp:399] inception_5b/1x1 -> inception_5b/1x1
I0403 18:49:17.840229  7772 net.cpp:141] Setting up inception_5b/1x1
I0403 18:49:17.840265  7772 net.cpp:148] Top shape: 24 384 7 7 (451584)
I0403 18:49:17.840292  7772 net.cpp:156] Memory required for data: 1327048224
I0403 18:49:17.840315  7772 layer_factory.hpp:77] Creating layer inception_5b/relu_1x1
I0403 18:49:17.840340  7772 net.cpp:91] Creating Layer inception_5b/relu_1x1
I0403 18:49:17.840361  7772 net.cpp:425] inception_5b/relu_1x1 <- inception_5b/1x1
I0403 18:49:17.840384  7772 net.cpp:386] inception_5b/relu_1x1 -> inception_5b/1x1 (in-place)
I0403 18:49:17.840760  7772 net.cpp:141] Setting up inception_5b/relu_1x1
I0403 18:49:17.840793  7772 net.cpp:148] Top shape: 24 384 7 7 (451584)
I0403 18:49:17.840813  7772 net.cpp:156] Memory required for data: 1328854560
I0403 18:49:17.840831  7772 layer_factory.hpp:77] Creating layer inception_5b/3x3_reduce
I0403 18:49:17.840862  7772 net.cpp:91] Creating Layer inception_5b/3x3_reduce
I0403 18:49:17.840884  7772 net.cpp:425] inception_5b/3x3_reduce <- inception_5a/output_inception_5a/output_0_split_1
I0403 18:49:17.840909  7772 net.cpp:399] inception_5b/3x3_reduce -> inception_5b/3x3_reduce
I0403 18:49:17.844179  7772 net.cpp:141] Setting up inception_5b/3x3_reduce
I0403 18:49:17.844219  7772 net.cpp:148] Top shape: 24 192 7 7 (225792)
I0403 18:49:17.844240  7772 net.cpp:156] Memory required for data: 1329757728
I0403 18:49:17.844264  7772 layer_factory.hpp:77] Creating layer inception_5b/relu_3x3_reduce
I0403 18:49:17.844292  7772 net.cpp:91] Creating Layer inception_5b/relu_3x3_reduce
I0403 18:49:17.844313  7772 net.cpp:425] inception_5b/relu_3x3_reduce <- inception_5b/3x3_reduce
I0403 18:49:17.844336  7772 net.cpp:386] inception_5b/relu_3x3_reduce -> inception_5b/3x3_reduce (in-place)
I0403 18:49:17.844570  7772 net.cpp:141] Setting up inception_5b/relu_3x3_reduce
I0403 18:49:17.844604  7772 net.cpp:148] Top shape: 24 192 7 7 (225792)
I0403 18:49:17.844624  7772 net.cpp:156] Memory required for data: 1330660896
I0403 18:49:17.844642  7772 layer_factory.hpp:77] Creating layer inception_5b/3x3
I0403 18:49:17.844669  7772 net.cpp:91] Creating Layer inception_5b/3x3
I0403 18:49:17.844691  7772 net.cpp:425] inception_5b/3x3 <- inception_5b/3x3_reduce
I0403 18:49:17.844718  7772 net.cpp:399] inception_5b/3x3 -> inception_5b/3x3
I0403 18:49:17.853085  7772 net.cpp:141] Setting up inception_5b/3x3
I0403 18:49:17.853124  7772 net.cpp:148] Top shape: 24 384 7 7 (451584)
I0403 18:49:17.853144  7772 net.cpp:156] Memory required for data: 1332467232
I0403 18:49:17.853168  7772 layer_factory.hpp:77] Creating layer inception_5b/relu_3x3
I0403 18:49:17.853189  7772 net.cpp:91] Creating Layer inception_5b/relu_3x3
I0403 18:49:17.853209  7772 net.cpp:425] inception_5b/relu_3x3 <- inception_5b/3x3
I0403 18:49:17.853230  7772 net.cpp:386] inception_5b/relu_3x3 -> inception_5b/3x3 (in-place)
I0403 18:49:17.853602  7772 net.cpp:141] Setting up inception_5b/relu_3x3
I0403 18:49:17.853638  7772 net.cpp:148] Top shape: 24 384 7 7 (451584)
I0403 18:49:17.853658  7772 net.cpp:156] Memory required for data: 1334273568
I0403 18:49:17.853677  7772 layer_factory.hpp:77] Creating layer inception_5b/5x5_reduce
I0403 18:49:17.853725  7772 net.cpp:91] Creating Layer inception_5b/5x5_reduce
I0403 18:49:17.853749  7772 net.cpp:425] inception_5b/5x5_reduce <- inception_5a/output_inception_5a/output_0_split_2
I0403 18:49:17.853773  7772 net.cpp:399] inception_5b/5x5_reduce -> inception_5b/5x5_reduce
I0403 18:49:17.855343  7772 net.cpp:141] Setting up inception_5b/5x5_reduce
I0403 18:49:17.855382  7772 net.cpp:148] Top shape: 24 48 7 7 (56448)
I0403 18:49:17.855401  7772 net.cpp:156] Memory required for data: 1334499360
I0403 18:49:17.855427  7772 layer_factory.hpp:77] Creating layer inception_5b/relu_5x5_reduce
I0403 18:49:17.855449  7772 net.cpp:91] Creating Layer inception_5b/relu_5x5_reduce
I0403 18:49:17.855470  7772 net.cpp:425] inception_5b/relu_5x5_reduce <- inception_5b/5x5_reduce
I0403 18:49:17.855492  7772 net.cpp:386] inception_5b/relu_5x5_reduce -> inception_5b/5x5_reduce (in-place)
I0403 18:49:17.855948  7772 net.cpp:141] Setting up inception_5b/relu_5x5_reduce
I0403 18:49:17.855981  7772 net.cpp:148] Top shape: 24 48 7 7 (56448)
I0403 18:49:17.855999  7772 net.cpp:156] Memory required for data: 1334725152
I0403 18:49:17.856019  7772 layer_factory.hpp:77] Creating layer inception_5b/5x5
I0403 18:49:17.856043  7772 net.cpp:91] Creating Layer inception_5b/5x5
I0403 18:49:17.856065  7772 net.cpp:425] inception_5b/5x5 <- inception_5b/5x5_reduce
I0403 18:49:17.856087  7772 net.cpp:399] inception_5b/5x5 -> inception_5b/5x5
I0403 18:49:17.858626  7772 net.cpp:141] Setting up inception_5b/5x5
I0403 18:49:17.858662  7772 net.cpp:148] Top shape: 24 128 7 7 (150528)
I0403 18:49:17.858682  7772 net.cpp:156] Memory required for data: 1335327264
I0403 18:49:17.858705  7772 layer_factory.hpp:77] Creating layer inception_5b/relu_5x5
I0403 18:49:17.858726  7772 net.cpp:91] Creating Layer inception_5b/relu_5x5
I0403 18:49:17.858747  7772 net.cpp:425] inception_5b/relu_5x5 <- inception_5b/5x5
I0403 18:49:17.858770  7772 net.cpp:386] inception_5b/relu_5x5 -> inception_5b/5x5 (in-place)
I0403 18:49:17.859011  7772 net.cpp:141] Setting up inception_5b/relu_5x5
I0403 18:49:17.859042  7772 net.cpp:148] Top shape: 24 128 7 7 (150528)
I0403 18:49:17.859061  7772 net.cpp:156] Memory required for data: 1335929376
I0403 18:49:17.859081  7772 layer_factory.hpp:77] Creating layer inception_5b/pool
I0403 18:49:17.859104  7772 net.cpp:91] Creating Layer inception_5b/pool
I0403 18:49:17.859125  7772 net.cpp:425] inception_5b/pool <- inception_5a/output_inception_5a/output_0_split_3
I0403 18:49:17.859148  7772 net.cpp:399] inception_5b/pool -> inception_5b/pool
I0403 18:49:17.859239  7772 net.cpp:141] Setting up inception_5b/pool
I0403 18:49:17.859269  7772 net.cpp:148] Top shape: 24 832 7 7 (978432)
I0403 18:49:17.859295  7772 net.cpp:156] Memory required for data: 1339843104
I0403 18:49:17.859313  7772 layer_factory.hpp:77] Creating layer inception_5b/pool_proj
I0403 18:49:17.859340  7772 net.cpp:91] Creating Layer inception_5b/pool_proj
I0403 18:49:17.859362  7772 net.cpp:425] inception_5b/pool_proj <- inception_5b/pool
I0403 18:49:17.859388  7772 net.cpp:399] inception_5b/pool_proj -> inception_5b/pool_proj
I0403 18:49:17.862205  7772 net.cpp:141] Setting up inception_5b/pool_proj
I0403 18:49:17.862244  7772 net.cpp:148] Top shape: 24 128 7 7 (150528)
I0403 18:49:17.862265  7772 net.cpp:156] Memory required for data: 1340445216
I0403 18:49:17.862304  7772 layer_factory.hpp:77] Creating layer inception_5b/relu_pool_proj
I0403 18:49:17.862329  7772 net.cpp:91] Creating Layer inception_5b/relu_pool_proj
I0403 18:49:17.862349  7772 net.cpp:425] inception_5b/relu_pool_proj <- inception_5b/pool_proj
I0403 18:49:17.862375  7772 net.cpp:386] inception_5b/relu_pool_proj -> inception_5b/pool_proj (in-place)
I0403 18:49:17.862735  7772 net.cpp:141] Setting up inception_5b/relu_pool_proj
I0403 18:49:17.862769  7772 net.cpp:148] Top shape: 24 128 7 7 (150528)
I0403 18:49:17.862790  7772 net.cpp:156] Memory required for data: 1341047328
I0403 18:49:17.862809  7772 layer_factory.hpp:77] Creating layer inception_5b/output
I0403 18:49:17.862830  7772 net.cpp:91] Creating Layer inception_5b/output
I0403 18:49:17.862867  7772 net.cpp:425] inception_5b/output <- inception_5b/1x1
I0403 18:49:17.862890  7772 net.cpp:425] inception_5b/output <- inception_5b/3x3
I0403 18:49:17.862910  7772 net.cpp:425] inception_5b/output <- inception_5b/5x5
I0403 18:49:17.862931  7772 net.cpp:425] inception_5b/output <- inception_5b/pool_proj
I0403 18:49:17.862951  7772 net.cpp:399] inception_5b/output -> inception_5b/output
I0403 18:49:17.863018  7772 net.cpp:141] Setting up inception_5b/output
I0403 18:49:17.863049  7772 net.cpp:148] Top shape: 24 1024 7 7 (1204224)
I0403 18:49:17.863066  7772 net.cpp:156] Memory required for data: 1345864224
I0403 18:49:17.863085  7772 layer_factory.hpp:77] Creating layer pool5/7x7_s1
I0403 18:49:17.863111  7772 net.cpp:91] Creating Layer pool5/7x7_s1
I0403 18:49:17.863131  7772 net.cpp:425] pool5/7x7_s1 <- inception_5b/output
I0403 18:49:17.863153  7772 net.cpp:399] pool5/7x7_s1 -> pool5/7x7_s1
I0403 18:49:17.863427  7772 net.cpp:141] Setting up pool5/7x7_s1
I0403 18:49:17.863462  7772 net.cpp:148] Top shape: 24 1024 1 1 (24576)
I0403 18:49:17.863482  7772 net.cpp:156] Memory required for data: 1345962528
I0403 18:49:17.863500  7772 layer_factory.hpp:77] Creating layer pool5/drop_7x7_s1
I0403 18:49:17.863522  7772 net.cpp:91] Creating Layer pool5/drop_7x7_s1
I0403 18:49:17.863540  7772 net.cpp:425] pool5/drop_7x7_s1 <- pool5/7x7_s1
I0403 18:49:17.863564  7772 net.cpp:386] pool5/drop_7x7_s1 -> pool5/7x7_s1 (in-place)
I0403 18:49:17.863626  7772 net.cpp:141] Setting up pool5/drop_7x7_s1
I0403 18:49:17.863656  7772 net.cpp:148] Top shape: 24 1024 1 1 (24576)
I0403 18:49:17.863673  7772 net.cpp:156] Memory required for data: 1346060832
I0403 18:49:17.863692  7772 layer_factory.hpp:77] Creating layer loss3/classifier_plantvillage
I0403 18:49:17.863718  7772 net.cpp:91] Creating Layer loss3/classifier_plantvillage
I0403 18:49:17.863739  7772 net.cpp:425] loss3/classifier_plantvillage <- pool5/7x7_s1
I0403 18:49:17.863765  7772 net.cpp:399] loss3/classifier_plantvillage -> loss3/classifier_plantvillage
I0403 18:49:17.864297  7772 net.cpp:141] Setting up loss3/classifier_plantvillage
I0403 18:49:17.864328  7772 net.cpp:148] Top shape: 24 38 (912)
I0403 18:49:17.864346  7772 net.cpp:156] Memory required for data: 1346064480
I0403 18:49:17.864368  7772 layer_factory.hpp:77] Creating layer loss3/classifier_plantvillage_loss3/classifier_plantvillage_0_split
I0403 18:49:17.864397  7772 net.cpp:91] Creating Layer loss3/classifier_plantvillage_loss3/classifier_plantvillage_0_split
I0403 18:49:17.864418  7772 net.cpp:425] loss3/classifier_plantvillage_loss3/classifier_plantvillage_0_split <- loss3/classifier_plantvillage
I0403 18:49:17.864440  7772 net.cpp:399] loss3/classifier_plantvillage_loss3/classifier_plantvillage_0_split -> loss3/classifier_plantvillage_loss3/classifier_plantvillage_0_split_0
I0403 18:49:17.864465  7772 net.cpp:399] loss3/classifier_plantvillage_loss3/classifier_plantvillage_0_split -> loss3/classifier_plantvillage_loss3/classifier_plantvillage_0_split_1
I0403 18:49:17.864490  7772 net.cpp:399] loss3/classifier_plantvillage_loss3/classifier_plantvillage_0_split -> loss3/classifier_plantvillage_loss3/classifier_plantvillage_0_split_2
I0403 18:49:17.864516  7772 net.cpp:399] loss3/classifier_plantvillage_loss3/classifier_plantvillage_0_split -> loss3/classifier_plantvillage_loss3/classifier_plantvillage_0_split_3
I0403 18:49:17.864639  7772 net.cpp:141] Setting up loss3/classifier_plantvillage_loss3/classifier_plantvillage_0_split
I0403 18:49:17.864668  7772 net.cpp:148] Top shape: 24 38 (912)
I0403 18:49:17.864689  7772 net.cpp:148] Top shape: 24 38 (912)
I0403 18:49:17.864709  7772 net.cpp:148] Top shape: 24 38 (912)
I0403 18:49:17.864728  7772 net.cpp:148] Top shape: 24 38 (912)
I0403 18:49:17.864744  7772 net.cpp:156] Memory required for data: 1346079072
I0403 18:49:17.864763  7772 layer_factory.hpp:77] Creating layer loss1/loss
I0403 18:49:17.864790  7772 net.cpp:91] Creating Layer loss1/loss
I0403 18:49:17.864811  7772 net.cpp:425] loss1/loss <- loss1/classifier_plantvillage_loss1/classifier_plantvillage_0_split_0
I0403 18:49:17.864850  7772 net.cpp:425] loss1/loss <- label_data_1_split_0
…
