…
I0403 18:04:12.583503  6544 net.cpp:313] The NetState phase (1) differed from the phase (0) specified by a rule in layer data
I0403 18:04:12.584748  6544 net.cpp:49] Initializing net from parameters: 
state {
  phase: TEST
}
layer {
  name: "data"
  type: "Data"
  top: "data"
  top: "label"
  include {
    phase: TEST
  }
  transform_param {
    mirror: false
    crop_size: 224
    mean_file: "/home/mohanty/data/final_dataset/lmdb/grayscale-40-60/mean.binaryproto"
  }
  data_param {
    source: "/home/mohanty/data/final_dataset/lmdb/grayscale-40-60/test_db"
    batch_size: 24
    backend: LMDB
  }
}
layer {
  name: "conv1/7x7_s2"
  type: "Convolution"
  bottom: "data"
  top: "conv1/7x7_s2"
  param {
    lr_mult: 1
    decay_mult: 1
  }
  param {
    lr_mult: 2
    decay_mult: 0
  }
  convolution_param {
    num_output: 64
    pad: 3
    kernel_size: 7
    stride: 2
    weight_filler {
      type: "xavier"
      std: 0.1
    }
    bias_filler {
      type: "constant"
      value: 0.2
    }
  }
}
layer {
  name: "conv1/relu_7x7"
  type: "ReLU"
  bottom: "conv1/7x7_s2"
  top: "conv1/7x7_s2"
}
layer {
  name: "pool1/3x3_s2"
  type: "Pooling"
  bottom: "conv1/7x7_s2"
  top: "pool1/3x3_s2"
  pooling_param {
    pool: MAX
    kernel_size: 3
    stride: 2
  }
}
layer {
  name: "pool1/norm1"
  type: "LRN"
  bottom: "pool1/3x3_s2"
  top: "pool1/norm1"
  lrn_param {
    local_size: 5
    alpha: 0.0001
    beta: 0.75
  }
}
layer {
  name: "conv2/3x3_reduce"
  type: "Convolution"
  bottom: "pool1/norm1"
  top: "conv2/3x3_reduce"
  param {
    lr_mult: 1
    decay_mult: 1
  }
  param {
    lr_mult: 2
    decay_mult: 0
  }
  convolution_param {
    num_output: 64
    kernel_size: 1
    weight_filler {
      type: "xavier"
      std: 0.1
    }
    bias_filler {
      type: "constant"
      value: 0.2
    }
  }
}
layer {
  name: "conv2/relu_3x3_reduce"
  type: "ReLU"
  bottom: "conv2/3x3_reduce"
  top: "conv2/3x3_reduce"
}
layer {
  name: "conv2/3x3"
  type: "Convolution"
  bottom: "conv2/3x3_reduce"
  top: "conv2/3x3"
  param {
    lr_mult: 1
    decay_mult: 1
  }
  param {
    lr_mult: 2
    decay_mult: 0
  }
  convolution_param {
    num_output: 192
    pad: 1
    kernel_size: 3
    weight_filler {
      type: "xavier"
      std: 0.03
    }
    bias_filler {
      type: "constant"
      value: 0.2
    }
  }
}
layer {
  name: "conv2/relu_3x3"
  type: "ReLU"
  bottom: "conv2/3x3"
  top: "conv2/3x3"
}
layer {
  name: "conv2/norm2"
  type: "LRN"
  bottom: "conv2/3x3"
  top: "conv2/norm2"
  lrn_param {
    local_size: 5
    alpha: 0.0001
    beta: 0.75
  }
}
layer {
  name: "pool2/3x3_s2"
  type: "Pooling"
  bottom: "conv2/norm2"
  top: "pool2/3x3_s2"
  pooling_param {
    pool: MAX
    kernel_size: 3
    stride: 2
  }
}
layer {
  name: "inception_3a/1x1"
  type: "Convolution"
  bottom: "pool2/3x3_s2"
  top: "inception_3a/1x1"
  param {
    lr_mult: 1
    decay_mult: 1
  }
  param {
    lr_mult: 2
    decay_mult: 0
  }
  convolution_param {
    num_output: 64
    kernel_size: 1
    weight_filler {
      type: "xavier"
      std: 0.03
    }
    bias_filler {
      type: "constant"
      value: 0.2
    }
  }
}
layer {
  name: "inception_3a/relu_1x1"
  type: "ReLU"
  bottom: "inception_3a/1x1"
  top: "inception_3a/1x1"
}
layer {
  name: "inception_3a/3x3_reduce"
  type: "Convolution"
  bottom: "pool2/3x3_s2"
  top: "inception_3a/3x3_reduce"
  param {
    lr_mult: 1
    decay_mult: 1
  }
  param {
    lr_mult: 2
    decay_mult: 0
  }
  convolution_param {
    num_output: 96
    kernel_size: 1
    weight_filler {
      type: "xavier"
      std: 0.09
    }
    bias_filler {
      type: "constant"
      value: 0.2
    }
  }
}
layer {
  name: "inception_3a/relu_3x3_reduce"
  type: "ReLU"
  bottom: "inception_3a/3x3_reduce"
  top: "inception_3a/3x3_reduce"
}
layer {
  name: "inception_3a/3x3"
  type: "Convolution"
  bottom: "inception_3a/3x3_reduce"
  top: "inception_3a/3x3"
  param {
    lr_mult: 1
    decay_mult: 1
  }
  param {
    lr_mult: 2
    decay_mult: 0
  }
  convolution_param {
    num_output: 128
    pad: 1
    kernel_size: 3
    weight_filler {
      type: "xavier"
      std: 0.03
    }
    bias_filler {
      type: "constant"
      value: 0.2
    }
  }
}
layer {
  name: "inception_3a/relu_3x3"
  type: "ReLU"
  bottom: "inception_3a/3x3"
  top: "inception_3a/3x3"
}
layer {
  name: "inception_3a/5x5_reduce"
  type: "Convolution"
  bottom: "pool2/3x3_s2"
  top: "inception_3a/5x5_reduce"
  param {
    lr_mult: 1
    decay_mult: 1
  }
  param {
    lr_mult: 2
    decay_mult: 0
  }
  convolution_param {
    num_output: 16
    kernel_size: 1
    weight_filler {
      type: "xavier"
      std: 0.2
    }
    bias_filler {
      type: "constant"
      value: 0.2
    }
  }
}
layer {
  name: "inception_3a/relu_5x5_reduce"
  type: "ReLU"
  bottom: "inception_3a/5x5_reduce"
  top: "inception_3a/5x5_reduce"
}
layer {
  name: "inception_3a/5x5"
  type: "Convolution"
  bottom: "inception_3a/5x5_reduce"
  top: "inception_3a/5x5"
  param {
    lr_mult: 1
    decay_mult: 1
  }
  param {
    lr_mult: 2
    decay_mult: 0
  }
  convolution_param {
    num_output: 32
    pad: 2
    kernel_size: 5
    weight_filler {
      type: "xavier"
      std: 0.03
    }
    bias_filler {
      type: "constant"
      value: 0.2
    }
  }
}
layer {
  name: "inception_3a/relu_5x5"
  type: "ReLU"
  bottom: "inception_3a/5x5"
  top: "inception_3a/5x5"
}
layer {
  name: "inception_3a/pool"
  type: "Pooling"
  bottom: "pool2/3x3_s2"
  top: "inception_3a/pool"
  pooling_param {
    pool: MAX
    kernel_size: 3
    stride: 1
    pad: 1
  }
}
layer {
  name: "inception_3a/pool_proj"
  type: "Convolution"
  bottom: "inception_3a/pool"
  top: "inception_3a/pool_proj"
  param {
    lr_mult: 1
    decay_mult: 1
  }
  param {
    lr_mult: 2
    decay_mult: 0
  }
  convolution_param {
    num_output: 32
    kernel_size: 1
    weight_filler {
      type: "xavier"
      std: 0.1
    }
    bias_filler {
      type: "constant"
      value: 0.2
    }
  }
}
layer {
  name: "inception_3a/relu_pool_proj"
  type: "ReLU"
  bottom: "inception_3a/pool_proj"
  top: "inception_3a/pool_proj"
}
layer {
  name: "inception_3a/output"
  type: "Concat"
  bottom: "inception_3a/1x1"
  bottom: "inception_3a/3x3"
  bottom: "inception_3a/5x5"
  bottom: "inception_3a/pool_proj"
  top: "inception_3a/output"
}
layer {
  name: "inception_3b/1x1"
  type: "Convolution"
  bottom: "inception_3a/output"
  top: "inception_3b/1x1"
  param {
    lr_mult: 1
    decay_mult: 1
  }
  param {
    lr_mult: 2
    decay_mult: 0
  }
  convolution_param {
    num_output: 128
    kernel_size: 1
    weight_filler {
      type: "xavier"
      std: 0.03
    }
    bias_filler {
      type: "constant"
      value: 0.2
    }
  }
}
layer {
  name: "inception_3b/relu_1x1"
  type: "ReLU"
  bottom: "inception_3b/1x1"
  top: "inception_3b/1x1"
}
layer {
  name: "inception_3b/3x3_reduce"
  type: "Convolution"
  bottom: "inception_3a/output"
  top: "inception_3b/3x3_reduce"
  param {
    lr_mult: 1
    decay_mult: 1
  }
  param {
    lr_mult: 2
    decay_mult: 0
  }
  convolution_param {
    num_output: 128
    kernel_size: 1
    weight_filler {
      type: "xavier"
      std: 0.09
    }
    bias_filler {
      type: "constant"
      value: 0.2
    }
  }
}
layer {
  name: "inception_3b/relu_3x3_reduce"
  type: "ReLU"
  bottom: "inception_3b/3x3_reduce"
  top: "inception_3b/3x3_reduce"
}
layer {
  name: "inception_3b/3x3"
  type: "Convolution"
  bottom: "inception_3b/3x3_reduce"
  top: "inception_3b/3x3"
  param {
    lr_mult: 1
    decay_mult: 1
  }
  param {
    lr_mult: 2
    decay_mult: 0
  }
  convolution_param {
    num_output: 192
    pad: 1
    kernel_size: 3
    weight_filler {
      type: "xavier"
      std: 0.03
    }
    bias_filler {
      type: "constant"
      value: 0.2
    }
  }
}
layer {
  name: "inception_3b/relu_3x3"
  type: "ReLU"
  bottom: "inception_3b/3x3"
  top: "inception_3b/3x3"
}
layer {
  name: "inception_3b/5x5_reduce"
  type: "Convolution"
  bottom: "inception_3a/output"
  top: "inception_3b/5x5_reduce"
  param {
    lr_mult: 1
    decay_mult: 1
  }
  param {
    lr_mult: 2
    decay_mult: 0
  }
  convolution_param {
    num_output: 32
    kernel_size: 1
    weight_filler {
      type: "xavier"
      std: 0.2
    }
    bias_filler {
      type: "constant"
      value: 0.2
    }
  }
}
layer {
  name: "inception_3b/relu_5x5_reduce"
  type: "ReLU"
  bottom: "inception_3b/5x5_reduce"
  top: "inception_3b/5x5_reduce"
}
layer {
  name: "inception_3b/5x5"
  type: "Convolution"
  bottom: "inception_3b/5x5_reduce"
  top: "inception_3b/5x5"
  param {
    lr_mult: 1
    decay_mult: 1
  }
  param {
    lr_mult: 2
    decay_mult: 0
  }
  convolution_param {
    num_output: 96
    pad: 2
    kernel_size: 5
    weight_filler {
      type: "xavier"
      std: 0.03
    }
    bias_filler {
      type: "constant"
      value: 0.2
    }
  }
}
layer {
  name: "inception_3b/relu_5x5"
  type: "ReLU"
  bottom: "inception_3b/5x5"
  top: "inception_3b/5x5"
}
layer {
  name: "inception_3b/pool"
  type: "Pooling"
  bottom: "inception_3a/output"
  top: "inception_3b/pool"
  pooling_param {
    pool: MAX
    kernel_size: 3
    stride: 1
    pad: 1
  }
}
layer {
  name: "inception_3b/pool_proj"
  type: "Convolution"
  bottom: "inception_3b/pool"
  top: "inception_3b/pool_proj"
  param {
    lr_mult: 1
    decay_mult: 1
  }
  param {
    lr_mult: 2
    decay_mult: 0
  }
  convolution_param {
    num_output: 64
    kernel_size: 1
    weight_filler {
      type: "xavier"
      std: 0.1
    }
    bias_filler {
      type: "constant"
      value: 0.2
    }
  }
}
layer {
  name: "inception_3b/relu_pool_proj"
  type: "ReLU"
  bottom: "inception_3b/pool_proj"
  top: "inception_3b/pool_proj"
}
layer {
  name: "inception_3b/output"
  type: "Concat"
  bottom: "inception_3b/1x1"
  bottom: "inception_3b/3x3"
  bottom: "inception_3b/5x5"
  bottom: "inception_3b/pool_proj"
  top: "inception_3b/output"
}
layer {
  name: "pool3/3x3_s2"
  type: "Pooling"
  bottom: "inception_3b/output"
  top: "pool3/3x3_s2"
  pooling_param {
    pool: MAX
    kernel_size: 3
    stride: 2
  }
}
layer {
  name: "inception_4a/1x1"
  type: "Convolution"
  bottom: "pool3/3x3_s2"
  top: "inception_4a/1x1"
  param {
    lr_mult: 1
    decay_mult: 1
  }
  param {
    lr_mult: 2
    decay_mult: 0
  }
  convolution_param {
    num_output: 192
    kernel_size: 1
    weight_filler {
      type: "xavier"
      std: 0.03
    }
    bias_filler {
      type: "constant"
      value: 0.2
    }
  }
}
layer {
  name: "inception_4a/relu_1x1"
  type: "ReLU"
  bottom: "inception_4a/1x1"
  top: "inception_4a/1x1"
}
layer {
  name: "inception_4a/3x3_reduce"
  type: "Convolution"
  bottom: "pool3/3x3_s2"
  top: "inception_4a/3x3_reduce"
  param {
    lr_mult: 1
    decay_mult: 1
  }
  param {
    lr_mult: 2
    decay_mult: 0
  }
  convolution_param {
    num_output: 96
    kernel_size: 1
    weight_filler {
      type: "xavier"
      std: 0.09
    }
    bias_filler {
      type: "constant"
      value: 0.2
    }
  }
}
layer {
  name: "inception_4a/relu_3x3_reduce"
  type: "ReLU"
  bottom: "inception_4a/3x3_reduce"
  top: "inception_4a/3x3_reduce"
}
layer {
  name: "inception_4a/3x3"
  type: "Convolution"
  bottom: "inception_4a/3x3_reduce"
  top: "inception_4a/3x3"
  param {
    lr_mult: 1
    decay_mult: 1
  }
  param {
    lr_mult: 2
    decay_mult: 0
  }
  convolution_param {
    num_output: 208
    pad: 1
    kernel_size: 3
    weight_filler {
      type: "xavier"
      std: 0.03
    }
    bias_filler {
      type: "constant"
      value: 0.2
    }
  }
}
layer {
  name: "inception_4a/relu_3x3"
  type: "ReLU"
  bottom: "inception_4a/3x3"
  top: "inception_4a/3x3"
}
layer {
  name: "inception_4a/5x5_reduce"
  type: "Convolution"
  bottom: "pool3/3x3_s2"
  top: "inception_4a/5x5_reduce"
  param {
    lr_mult: 1
    decay_mult: 1
  }
  param {
    lr_mult: 2
    decay_mult: 0
  }
  convolution_param {
    num_output: 16
    kernel_size: 1
    weight_filler {
      type: "xavier"
      std: 0.2
    }
    bias_filler {
      type: "constant"
      value: 0.2
    }
  }
}
layer {
  name: "inception_4a/relu_5x5_reduce"
  type: "ReLU"
  bottom: "inception_4a/5x5_reduce"
  top: "inception_4a/5x5_reduce"
}
layer {
  name: "inception_4a/5x5"
  type: "Convolution"
  bottom: "inception_4a/5x5_reduce"
  top: "inception_4a/5x5"
  param {
    lr_mult: 1
    decay_mult: 1
  }
  param {
    lr_mult: 2
    decay_mult: 0
  }
  convolution_param {
    num_output: 48
    pad: 2
    kernel_size: 5
    weight_filler {
      type: "xavier"
      std: 0.03
    }
    bias_filler {
      type: "constant"
      value: 0.2
    }
  }
}
layer {
  name: "inception_4a/relu_5x5"
  type: "ReLU"
  bottom: "inception_4a/5x5"
  top: "inception_4a/5x5"
}
layer {
  name: "inception_4a/pool"
  type: "Pooling"
  bottom: "pool3/3x3_s2"
  top: "inception_4a/pool"
  pooling_param {
    pool: MAX
    kernel_size: 3
    stride: 1
    pad: 1
  }
}
layer {
  name: "inception_4a/pool_proj"
  type: "Convolution"
  bottom: "inception_4a/pool"
  top: "inception_4a/pool_proj"
  param {
    lr_mult: 1
    decay_mult: 1
  }
  param {
    lr_mult: 2
    decay_mult: 0
  }
  convolution_param {
    num_output: 64
    kernel_size: 1
    weight_filler {
      type: "xavier"
      std: 0.1
    }
    bias_filler {
      type: "constant"
      value: 0.2
    }
  }
}
layer {
  name: "inception_4a/relu_pool_proj"
  type: "ReLU"
  bottom: "inception_4a/pool_proj"
  top: "inception_4a/pool_proj"
}
layer {
  name: "inception_4a/output"
  type: "Concat"
  bottom: "inception_4a/1x1"
  bottom: "inception_4a/3x3"
  bottom: "inception_4a/5x5"
  bottom: "inception_4a/pool_proj"
  top: "inception_4a/output"
}
layer {
  name: "loss1/ave_pool"
  type: "Pooling"
  bottom: "inception_4a/output"
  top: "loss1/ave_pool"
  pooling_param {
    pool: AVE
    kernel_size: 5
    stride: 3
  }
}
layer {
  name: "loss1/conv"
  type: "Convolution"
  bottom: "loss1/ave_pool"
  top: "loss1/conv"
  param {
    lr_mult: 1
    decay_mult: 1
  }
  param {
    lr_mult: 2
    decay_mult: 0
  }
  convolution_param {
    num_output: 128
    kernel_size: 1
    weight_filler {
      type: "xavier"
      std: 0.08
    }
    bias_filler {
      type: "constant"
      value: 0.2
    }
  }
}
layer {
  name: "loss1/relu_conv"
  type: "ReLU"
  bottom: "loss1/conv"
  top: "loss1/conv"
}
layer {
  name: "loss1/fc"
  type: "InnerProduct"
  bottom: "loss1/conv"
  top: "loss1/fc"
  param {
    lr_mult: 1
    decay_mult: 1
  }
  param {
    lr_mult: 2
    decay_mult: 0
  }
  inner_product_param {
    num_output: 1024
    weight_filler {
      type: "xavier"
      std: 0.02
    }
    bias_filler {
      type: "constant"
      value: 0.2
    }
  }
}
layer {
  name: "loss1/relu_fc"
  type: "ReLU"
  bottom: "loss1/fc"
  top: "loss1/fc"
}
layer {
  name: "loss1/drop_fc"
  type: "Dropout"
  bottom: "loss1/fc"
  top: "loss1/fc"
  dropout_param {
    dropout_ratio: 0.7
  }
}
layer {
  name: "loss1/classifier_plantvillage"
  type: "InnerProduct"
  bottom: "loss1/fc"
  top: "loss1/classifier_plantvillage"
  param {
    lr_mult: 1
    decay_mult: 1
  }
  param {
    lr_mult: 2
    decay_mult: 0
  }
  inner_product_param {
    num_output: 38
    weight_filler {
      type: "xavier"
      std: 0.0009765625
    }
    bias_filler {
      type: "constant"
      value: 0
    }
  }
}
layer {
  name: "inception_4b/1x1"
  type: "Convolution"
  bottom: "inception_4a/output"
  top: "inception_4b/1x1"
  param {
    lr_mult: 1
    decay_mult: 1
  }
  param {
    lr_mult: 2
    decay_mult: 0
  }
  convolution_param {
    num_output: 160
    kernel_size: 1
    weight_filler {
      type: "xavier"
      std: 0.03
    }
    bias_filler {
      type: "constant"
      value: 0.2
    }
  }
}
layer {
  name: "inception_4b/relu_1x1"
  type: "ReLU"
  bottom: "inception_4b/1x1"
  top: "inception_4b/1x1"
}
layer {
  name: "inception_4b/3x3_reduce"
  type: "Convolution"
  bottom: "inception_4a/output"
  top: "inception_4b/3x3_reduce"
  param {
    lr_mult: 1
    decay_mult: 1
  }
  param {
    lr_mult: 2
    decay_mult: 0
  }
  convolution_param {
    num_output: 112
    kernel_size: 1
    weight_filler {
      type: "xavier"
      std: 0.09
    }
    bias_filler {
      type: "constant"
      value: 0.2
    }
  }
}
layer {
  name: "inception_4b/relu_3x3_reduce"
  type: "ReLU"
  bottom: "inception_4b/3x3_reduce"
  top: "inception_4b/3x3_reduce"
}
layer {
  name: "inception_4b/3x3"
  type: "Convolution"
  bottom: "inception_4b/3x3_reduce"
  top: "inception_4b/3x3"
  param {
    lr_mult: 1
    decay_mult: 1
  }
  param {
    lr_mult: 2
    decay_mult: 0
  }
  convolution_param {
    num_output: 224
    pad: 1
    kernel_size: 3
    weight_filler {
      type: "xavier"
      std: 0.03
    }
    bias_filler {
      type: "constant"
      value: 0.2
    }
  }
}
layer {
  name: "inception_4b/relu_3x3"
  type: "ReLU"
  bottom: "inception_4b/3x3"
  top: "inception_4b/3x3"
}
layer {
  name: "inception_4b/5x5_reduce"
  type: "Convolution"
  bottom: "inception_4a/output"
  top: "inception_4b/5x5_reduce"
  param {
    lr_mult: 1
    decay_mult: 1
  }
  param {
    lr_mult: 2
    decay_mult: 0
  }
  convolution_param {
    num_output: 24
    kernel_size: 1
    weight_filler {
      type: "xavier"
      std: 0.2
    }
    bias_filler {
      type: "constant"
      value: 0.2
    }
  }
}
layer {
  name: "inception_4b/relu_5x5_reduce"
  type: "ReLU"
  bottom: "inception_4b/5x5_reduce"
  top: "inception_4b/5x5_reduce"
}
layer {
  name: "inception_4b/5x5"
  type: "Convolution"
  bottom: "inception_4b/5x5_reduce"
  top: "inception_4b/5x5"
  param {
    lr_mult: 1
    decay_mult: 1
  }
  param {
    lr_mult: 2
    decay_mult: 0
  }
  convolution_param {
    num_output: 64
    pad: 2
    kernel_size: 5
    weight_filler {
      type: "xavier"
      std: 0.03
    }
    bias_filler {
      type: "constant"
      value: 0.2
    }
  }
}
layer {
  name: "inception_4b/relu_5x5"
  type: "ReLU"
  bottom: "inception_4b/5x5"
  top: "inception_4b/5x5"
}
layer {
  name: "inception_4b/pool"
  type: "Pooling"
  bottom: "inception_4a/output"
  top: "inception_4b/pool"
  pooling_param {
    pool: MAX
    kernel_size: 3
    stride: 1
    pad: 1
  }
}
layer {
  name: "inception_4b/pool_proj"
  type: "Convolution"
  bottom: "inception_4b/pool"
  top: "inception_4b/pool_proj"
  param {
    lr_mult: 1
    decay_mult: 1
  }
  param {
    lr_mult: 2
    decay_mult: 0
  }
  convolution_param {
    num_output: 64
    kernel_size: 1
    weight_filler {
      type: "xavier"
      std: 0.1
    }
    bias_filler {
      type: "constant"
      value: 0.2
    }
  }
}
layer {
  name: "inception_4b/relu_pool_proj"
  type: "ReLU"
  bottom: "inception_4b/pool_proj"
  top: "inception_4b/pool_proj"
}
layer {
  name: "inception_4b/output"
  type: "Concat"
  bottom: "inception_4b/1x1"
  bottom: "inception_4b/3x3"
  bottom: "inception_4b/5x5"
  bottom: "inception_4b/pool_proj"
  top: "inception_4b/output"
}
layer {
  name: "inception_4c/1x1"
  type: "Convolution"
  bottom: "inception_4b/output"
  top: "inception_4c/1x1"
  param {
    lr_mult: 1
    decay_mult: 1
  }
  param {
    lr_mult: 2
    decay_mult: 0
  }
  convolution_param {
    num_output: 128
    kernel_size: 1
    weight_filler {
      type: "xavier"
      std: 0.03
    }
    bias_filler {
      type: "constant"
      value: 0.2
    }
  }
}
layer {
  name: "inception_4c/relu_1x1"
  type: "ReLU"
  bottom: "inception_4c/1x1"
  top: "inception_4c/1x1"
}
layer {
  name: "inception_4c/3x3_reduce"
  type: "Convolution"
  bottom: "inception_4b/output"
  top: "inception_4c/3x3_reduce"
  param {
    lr_mult: 1
    decay_mult: 1
  }
  param {
    lr_mult: 2
    decay_mult: 0
  }
  convolution_param {
    num_output: 128
    kernel_size: 1
    weight_filler {
      type: "xavier"
      std: 0.09
    }
    bias_filler {
      type: "constant"
      value: 0.2
    }
  }
}
layer {
  name: "inception_4c/relu_3x3_reduce"
  type: "ReLU"
  bottom: "inception_4c/3x3_reduce"
  top: "inception_4c/3x3_reduce"
}
layer {
  name: "inception_4c/3x3"
  type: "Convolution"
  bottom: "inception_4c/3x3_reduce"
  top: "inception_4c/3x3"
  param {
    lr_mult: 1
    decay_mult: 1
  }
  param {
    lr_mult: 2
    decay_mult: 0
  }
  convolution_param {
    num_output: 256
    pad: 1
    kernel_size: 3
    weight_filler {
      type: "xavier"
      std: 0.03
    }
    bias_filler {
      type: "constant"
      value: 0.2
    }
  }
}
layer {
  name: "inception_4c/relu_3x3"
  type: "ReLU"
  bottom: "inception_4c/3x3"
  top: "inception_4c/3x3"
}
layer {
  name: "inception_4c/5x5_reduce"
  type: "Convolution"
  bottom: "inception_4b/output"
  top: "inception_4c/5x5_reduce"
  param {
    lr_mult: 1
    decay_mult: 1
  }
  param {
    lr_mult: 2
    decay_mult: 0
  }
  convolution_param {
    num_output: 24
    kernel_size: 1
    weight_filler {
      type: "xavier"
      std: 0.2
    }
    bias_filler {
      type: "constant"
      value: 0.2
    }
  }
}
layer {
  name: "inception_4c/relu_5x5_reduce"
  type: "ReLU"
  bottom: "inception_4c/5x5_reduce"
  top: "inception_4c/5x5_reduce"
}
layer {
  name: "inception_4c/5x5"
  type: "Convolution"
  bottom: "inception_4c/5x5_reduce"
  top: "inception_4c/5x5"
  param {
    lr_mult: 1
    decay_mult: 1
  }
  param {
    lr_mult: 2
    decay_mult: 0
  }
  convolution_param {
    num_output: 64
    pad: 2
    kernel_size: 5
    weight_filler {
      type: "xavier"
      std: 0.03
    }
    bias_filler {
      type: "constant"
      value: 0.2
    }
  }
}
layer {
  name: "inception_4c/relu_5x5"
  type: "ReLU"
  bottom: "inception_4c/5x5"
  top: "inception_4c/5x5"
}
layer {
  name: "inception_4c/pool"
  type: "Pooling"
  bottom: "inception_4b/output"
  top: "inception_4c/pool"
  pooling_param {
    pool: MAX
    kernel_size: 3
    stride: 1
    pad: 1
  }
}
layer {
  name: "inception_4c/pool_proj"
  type: "Convolution"
  bottom: "inception_4c/pool"
  top: "inception_4c/pool_proj"
  param {
    lr_mult: 1
    decay_mult: 1
  }
  param {
    lr_mult: 2
    decay_mult: 0
  }
  convolution_param {
    num_output: 64
    kernel_size: 1
    weight_filler {
      type: "xavier"
      std: 0.1
    }
    bias_filler {
      type: "constant"
      value: 0.2
    }
  }
}
layer {
  name: "inception_4c/relu_pool_proj"
  type: "ReLU"
  bottom: "inception_4c/pool_proj"
  top: "inception_4c/pool_proj"
}
layer {
  name: "inception_4c/output"
  type: "Concat"
  bottom: "inception_4c/1x1"
  bottom: "inception_4c/3x3"
  bottom: "inception_4c/5x5"
  bottom: "inception_4c/pool_proj"
  top: "inception_4c/output"
}
layer {
  name: "inception_4d/1x1"
  type: "Convolution"
  bottom: "inception_4c/output"
  top: "inception_4d/1x1"
  param {
    lr_mult: 1
    decay_mult: 1
  }
  param {
    lr_mult: 2
    decay_mult: 0
  }
  convolution_param {
    num_output: 112
    kernel_size: 1
    weight_filler {
      type: "xavier"
      std: 0.03
    }
    bias_filler {
      type: "constant"
      value: 0.2
    }
  }
}
layer {
  name: "inception_4d/relu_1x1"
  type: "ReLU"
  bottom: "inception_4d/1x1"
  top: "inception_4d/1x1"
}
layer {
  name: "inception_4d/3x3_reduce"
  type: "Convolution"
  bottom: "inception_4c/output"
  top: "inception_4d/3x3_reduce"
  param {
    lr_mult: 1
    decay_mult: 1
  }
  param {
    lr_mult: 2
    decay_mult: 0
  }
  convolution_param {
    num_output: 144
    kernel_size: 1
    weight_filler {
      type: "xavier"
      std: 0.09
    }
    bias_filler {
      type: "constant"
      value: 0.2
    }
  }
}
layer {
  name: "inception_4d/relu_3x3_reduce"
  type: "ReLU"
  bottom: "inception_4d/3x3_reduce"
  top: "inception_4d/3x3_reduce"
}
layer {
  name: "inception_4d/3x3"
  type: "Convolution"
  bottom: "inception_4d/3x3_reduce"
  top: "inception_4d/3x3"
  param {
    lr_mult: 1
    decay_mult: 1
  }
  param {
    lr_mult: 2
    decay_mult: 0
  }
  convolution_param {
    num_output: 288
    pad: 1
    kernel_size: 3
    weight_filler {
      type: "xavier"
      std: 0.03
    }
    bias_filler {
      type: "constant"
      value: 0.2
    }
  }
}
layer {
  name: "inception_4d/relu_3x3"
  type: "ReLU"
  bottom: "inception_4d/3x3"
  top: "inception_4d/3x3"
}
layer {
  name: "inception_4d/5x5_reduce"
  type: "Convolution"
  bottom: "inception_4c/output"
  top: "inception_4d/5x5_reduce"
  param {
    lr_mult: 1
    decay_mult: 1
  }
  param {
    lr_mult: 2
    decay_mult: 0
  }
  convolution_param {
    num_output: 32
    kernel_size: 1
    weight_filler {
      type: "xavier"
      std: 0.2
    }
    bias_filler {
      type: "constant"
      value: 0.2
    }
  }
}
layer {
  name: "inception_4d/relu_5x5_reduce"
  type: "ReLU"
  bottom: "inception_4d/5x5_reduce"
  top: "inception_4d/5x5_reduce"
}
layer {
  name: "inception_4d/5x5"
  type: "Convolution"
  bottom: "inception_4d/5x5_reduce"
  top: "inception_4d/5x5"
  param {
    lr_mult: 1
    decay_mult: 1
  }
  param {
    lr_mult: 2
    decay_mult: 0
  }
  convolution_param {
    num_output: 64
    pad: 2
    kernel_size: 5
    weight_filler {
      type: "xavier"
      std: 0.03
    }
    bias_filler {
      type: "constant"
      value: 0.2
    }
  }
}
layer {
  name: "inception_4d/relu_5x5"
  type: "ReLU"
  bottom: "inception_4d/5x5"
  top: "inception_4d/5x5"
}
layer {
  name: "inception_4d/pool"
  type: "Pooling"
  bottom: "inception_4c/output"
  top: "inception_4d/pool"
  pooling_param {
    pool: MAX
    kernel_size: 3
    stride: 1
    pad: 1
  }
}
layer {
  name: "inception_4d/pool_proj"
  type: "Convolution"
  bottom: "inception_4d/pool"
  top: "inception_4d/pool_proj"
  param {
    lr_mult: 1
    decay_mult: 1
  }
  param {
    lr_mult: 2
    decay_mult: 0
  }
  convolution_param {
    num_output: 64
    kernel_size: 1
    weight_filler {
      type: "xavier"
      std: 0.1
    }
    bias_filler {
      type: "constant"
      value: 0.2
    }
  }
}
layer {
  name: "inception_4d/relu_pool_proj"
  type: "ReLU"
  bottom: "inception_4d/pool_proj"
  top: "inception_4d/pool_proj"
}
layer {
  name: "inception_4d/output"
  type: "Concat"
  bottom: "inception_4d/1x1"
  bottom: "inception_4d/3x3"
  bottom: "inception_4d/5x5"
  bottom: "inception_4d/pool_proj"
  top: "inception_4d/output"
}
layer {
  name: "loss2/ave_pool"
  type: "Pooling"
  bottom: "inception_4d/output"
  top: "loss2/ave_pool"
  pooling_param {
    pool: AVE
    kernel_size: 5
    stride: 3
  }
}
layer {
  name: "loss2/conv"
  type: "Convolution"
  bottom: "loss2/ave_pool"
  top: "loss2/conv"
  param {
    lr_mult: 1
    decay_mult: 1
  }
  param {
    lr_mult: 2
    decay_mult: 0
  }
  convolution_param {
    num_output: 128
    kernel_size: 1
    weight_filler {
      type: "xavier"
      std: 0.08
    }
    bias_filler {
      type: "constant"
      value: 0.2
    }
  }
}
layer {
  name: "loss2/relu_conv"
  type: "ReLU"
  bottom: "loss2/conv"
  top: "loss2/conv"
}
layer {
  name: "loss2/fc"
  type: "InnerProduct"
  bottom: "loss2/conv"
  top: "loss2/fc"
  param {
    lr_mult: 1
    decay_mult: 1
  }
  param {
    lr_mult: 2
    decay_mult: 0
  }
  inner_product_param {
    num_output: 1024
    weight_filler {
      type: "xavier"
      std: 0.02
    }
    bias_filler {
      type: "constant"
      value: 0.2
    }
  }
}
layer {
  name: "loss2/relu_fc"
  type: "ReLU"
  bottom: "loss2/fc"
  top: "loss2/fc"
}
layer {
  name: "loss2/drop_fc"
  type: "Dropout"
  bottom: "loss2/fc"
  top: "loss2/fc"
  dropout_param {
    dropout_ratio: 0.7
  }
}
layer {
  name: "loss2/classifier_plantvillage"
  type: "InnerProduct"
  bottom: "loss2/fc"
  top: "loss2/classifier_plantvillage"
  param {
    lr_mult: 1
    decay_mult: 1
  }
  param {
    lr_mult: 2
    decay_mult: 0
  }
  inner_product_param {
    num_output: 38
    weight_filler {
      type: "xavier"
      std: 0.0009765625
    }
    bias_filler {
      type: "constant"
      value: 0
    }
  }
}
layer {
  name: "inception_4e/1x1"
  type: "Convolution"
  bottom: "inception_4d/output"
  top: "inception_4e/1x1"
  param {
    lr_mult: 1
    decay_mult: 1
  }
  param {
    lr_mult: 2
    decay_mult: 0
  }
  convolution_param {
    num_output: 256
    kernel_size: 1
    weight_filler {
      type: "xavier"
      std: 0.03
    }
    bias_filler {
      type: "constant"
      value: 0.2
    }
  }
}
layer {
  name: "inception_4e/relu_1x1"
  type: "ReLU"
  bottom: "inception_4e/1x1"
  top: "inception_4e/1x1"
}
layer {
  name: "inception_4e/3x3_reduce"
  type: "Convolution"
  bottom: "inception_4d/output"
  top: "inception_4e/3x3_reduce"
  param {
    lr_mult: 1
    decay_mult: 1
  }
  param {
    lr_mult: 2
    decay_mult: 0
  }
  convolution_param {
    num_output: 160
    kernel_size: 1
    weight_filler {
      type: "xavier"
      std: 0.09
    }
    bias_filler {
      type: "constant"
      value: 0.2
    }
  }
}
layer {
  name: "inception_4e/relu_3x3_reduce"
  type: "ReLU"
  bottom: "inception_4e/3x3_reduce"
  top: "inception_4e/3x3_reduce"
}
layer {
  name: "inception_4e/3x3"
  type: "Convolution"
  bottom: "inception_4e/3x3_reduce"
  top: "inception_4e/3x3"
  param {
    lr_mult: 1
    decay_mult: 1
  }
  param {
    lr_mult: 2
    decay_mult: 0
  }
  convolution_param {
    num_output: 320
    pad: 1
    kernel_size: 3
    weight_filler {
      type: "xavier"
      std: 0.03
    }
    bias_filler {
      type: "constant"
      value: 0.2
    }
  }
}
layer {
  name: "inception_4e/relu_3x3"
  type: "ReLU"
  bottom: "inception_4e/3x3"
  top: "inception_4e/3x3"
}
layer {
  name: "inception_4e/5x5_reduce"
  type: "Convolution"
  bottom: "inception_4d/output"
  top: "inception_4e/5x5_reduce"
  param {
    lr_mult: 1
    decay_mult: 1
  }
  param {
    lr_mult: 2
    decay_mult: 0
  }
  convolution_param {
    num_output: 32
    kernel_size: 1
    weight_filler {
      type: "xavier"
      std: 0.2
    }
    bias_filler {
      type: "constant"
      value: 0.2
    }
  }
}
layer {
  name: "inception_4e/relu_5x5_reduce"
  type: "ReLU"
  bottom: "inception_4e/5x5_reduce"
  top: "inception_4e/5x5_reduce"
}
layer {
  name: "inception_4e/5x5"
  type: "Convolution"
  bottom: "inception_4e/5x5_reduce"
  top: "inception_4e/
I0403 18:04:12.586519  6544 layer_factory.hpp:77] Creating layer data
I0403 18:04:12.587143  6544 net.cpp:91] Creating Layer data
I0403 18:04:12.587178  6544 net.cpp:399] data -> data
I0403 18:04:12.587230  6544 net.cpp:399] data -> label
I0403 18:04:12.587268  6544 data_transformer.cpp:25] Loading mean file from: /home/mohanty/data/final_dataset/lmdb/grayscale-40-60/mean.binaryproto
I0403 18:04:12.588313  6548 db_lmdb.cpp:38] Opened lmdb /home/mohanty/data/final_dataset/lmdb/grayscale-40-60/test_db
I0403 18:04:12.601181  6544 data_layer.cpp:41] output data size: 24,3,224,224
I0403 18:04:12.630708  6544 net.cpp:141] Setting up data
I0403 18:04:12.630769  6544 net.cpp:148] Top shape: 24 3 224 224 (3612672)
I0403 18:04:12.630792  6544 net.cpp:148] Top shape: 24 (24)
I0403 18:04:12.630808  6544 net.cpp:156] Memory required for data: 14450784
I0403 18:04:12.630836  6544 layer_factory.hpp:77] Creating layer label_data_1_split
I0403 18:04:12.630864  6544 net.cpp:91] Creating Layer label_data_1_split
I0403 18:04:12.630883  6544 net.cpp:425] label_data_1_split <- label
I0403 18:04:12.630918  6544 net.cpp:399] label_data_1_split -> label_data_1_split_0
I0403 18:04:12.630944  6544 net.cpp:399] label_data_1_split -> label_data_1_split_1
I0403 18:04:12.630967  6544 net.cpp:399] label_data_1_split -> label_data_1_split_2
I0403 18:04:12.630991  6544 net.cpp:399] label_data_1_split -> label_data_1_split_3
I0403 18:04:12.631013  6544 net.cpp:399] label_data_1_split -> label_data_1_split_4
I0403 18:04:12.631034  6544 net.cpp:399] label_data_1_split -> label_data_1_split_5
I0403 18:04:12.631055  6544 net.cpp:399] label_data_1_split -> label_data_1_split_6
I0403 18:04:12.631078  6544 net.cpp:399] label_data_1_split -> label_data_1_split_7
I0403 18:04:12.631098  6544 net.cpp:399] label_data_1_split -> label_data_1_split_8
I0403 18:04:12.631119  6544 net.cpp:399] label_data_1_split -> label_data_1_split_9
I0403 18:04:12.631244  6544 net.cpp:141] Setting up label_data_1_split
I0403 18:04:12.631268  6544 net.cpp:148] Top shape: 24 (24)
I0403 18:04:12.631292  6544 net.cpp:148] Top shape: 24 (24)
I0403 18:04:12.631310  6544 net.cpp:148] Top shape: 24 (24)
I0403 18:04:12.631328  6544 net.cpp:148] Top shape: 24 (24)
I0403 18:04:12.631345  6544 net.cpp:148] Top shape: 24 (24)
I0403 18:04:12.631361  6544 net.cpp:148] Top shape: 24 (24)
I0403 18:04:12.631378  6544 net.cpp:148] Top shape: 24 (24)
I0403 18:04:12.631397  6544 net.cpp:148] Top shape: 24 (24)
I0403 18:04:12.631412  6544 net.cpp:148] Top shape: 24 (24)
I0403 18:04:12.631433  6544 net.cpp:148] Top shape: 24 (24)
I0403 18:04:12.631480  6544 net.cpp:156] Memory required for data: 14451744
I0403 18:04:12.631497  6544 layer_factory.hpp:77] Creating layer conv1/7x7_s2
I0403 18:04:12.631531  6544 net.cpp:91] Creating Layer conv1/7x7_s2
I0403 18:04:12.631551  6544 net.cpp:425] conv1/7x7_s2 <- data
I0403 18:04:12.631572  6544 net.cpp:399] conv1/7x7_s2 -> conv1/7x7_s2
I0403 18:04:12.777245  6544 net.cpp:141] Setting up conv1/7x7_s2
I0403 18:04:12.777361  6544 net.cpp:148] Top shape: 24 64 112 112 (19267584)
I0403 18:04:12.777380  6544 net.cpp:156] Memory required for data: 91522080
I0403 18:04:12.777412  6544 layer_factory.hpp:77] Creating layer conv1/relu_7x7
I0403 18:04:12.777441  6544 net.cpp:91] Creating Layer conv1/relu_7x7
I0403 18:04:12.777461  6544 net.cpp:425] conv1/relu_7x7 <- conv1/7x7_s2
I0403 18:04:12.777480  6544 net.cpp:386] conv1/relu_7x7 -> conv1/7x7_s2 (in-place)
I0403 18:04:12.777755  6544 net.cpp:141] Setting up conv1/relu_7x7
I0403 18:04:12.777782  6544 net.cpp:148] Top shape: 24 64 112 112 (19267584)
I0403 18:04:12.777801  6544 net.cpp:156] Memory required for data: 168592416
I0403 18:04:12.777818  6544 layer_factory.hpp:77] Creating layer pool1/3x3_s2
I0403 18:04:12.777848  6544 net.cpp:91] Creating Layer pool1/3x3_s2
I0403 18:04:12.777870  6544 net.cpp:425] pool1/3x3_s2 <- conv1/7x7_s2
I0403 18:04:12.777891  6544 net.cpp:399] pool1/3x3_s2 -> pool1/3x3_s2
I0403 18:04:12.777971  6544 net.cpp:141] Setting up pool1/3x3_s2
I0403 18:04:12.777995  6544 net.cpp:148] Top shape: 24 64 56 56 (4816896)
I0403 18:04:12.778012  6544 net.cpp:156] Memory required for data: 187860000
I0403 18:04:12.778028  6544 layer_factory.hpp:77] Creating layer pool1/norm1
I0403 18:04:12.778054  6544 net.cpp:91] Creating Layer pool1/norm1
I0403 18:04:12.778074  6544 net.cpp:425] pool1/norm1 <- pool1/3x3_s2
I0403 18:04:12.778093  6544 net.cpp:399] pool1/norm1 -> pool1/norm1
I0403 18:04:12.778398  6544 net.cpp:141] Setting up pool1/norm1
I0403 18:04:12.778427  6544 net.cpp:148] Top shape: 24 64 56 56 (4816896)
I0403 18:04:12.778444  6544 net.cpp:156] Memory required for data: 207127584
I0403 18:04:12.778460  6544 layer_factory.hpp:77] Creating layer conv2/3x3_reduce
I0403 18:04:12.778486  6544 net.cpp:91] Creating Layer conv2/3x3_reduce
I0403 18:04:12.778503  6544 net.cpp:425] conv2/3x3_reduce <- pool1/norm1
I0403 18:04:12.778523  6544 net.cpp:399] conv2/3x3_reduce -> conv2/3x3_reduce
I0403 18:04:12.779953  6544 net.cpp:141] Setting up conv2/3x3_reduce
I0403 18:04:12.779984  6544 net.cpp:148] Top shape: 24 64 56 56 (4816896)
I0403 18:04:12.780002  6544 net.cpp:156] Memory required for data: 226395168
I0403 18:04:12.780025  6544 layer_factory.hpp:77] Creating layer conv2/relu_3x3_reduce
I0403 18:04:12.780045  6544 net.cpp:91] Creating Layer conv2/relu_3x3_reduce
I0403 18:04:12.780063  6544 net.cpp:425] conv2/relu_3x3_reduce <- conv2/3x3_reduce
I0403 18:04:12.780082  6544 net.cpp:386] conv2/relu_3x3_reduce -> conv2/3x3_reduce (in-place)
I0403 18:04:12.780356  6544 net.cpp:141] Setting up conv2/relu_3x3_reduce
I0403 18:04:12.780385  6544 net.cpp:148] Top shape: 24 64 56 56 (4816896)
I0403 18:04:12.780401  6544 net.cpp:156] Memory required for data: 245662752
I0403 18:04:12.780418  6544 layer_factory.hpp:77] Creating layer conv2/3x3
I0403 18:04:12.780441  6544 net.cpp:91] Creating Layer conv2/3x3
I0403 18:04:12.780459  6544 net.cpp:425] conv2/3x3 <- conv2/3x3_reduce
I0403 18:04:12.780480  6544 net.cpp:399] conv2/3x3 -> conv2/3x3
I0403 18:04:12.782938  6544 net.cpp:141] Setting up conv2/3x3
I0403 18:04:12.782969  6544 net.cpp:148] Top shape: 24 192 56 56 (14450688)
I0403 18:04:12.782986  6544 net.cpp:156] Memory required for data: 303465504
I0403 18:04:12.783010  6544 layer_factory.hpp:77] Creating layer conv2/relu_3x3
I0403 18:04:12.783031  6544 net.cpp:91] Creating Layer conv2/relu_3x3
I0403 18:04:12.783048  6544 net.cpp:425] conv2/relu_3x3 <- conv2/3x3
I0403 18:04:12.783068  6544 net.cpp:386] conv2/relu_3x3 -> conv2/3x3 (in-place)
I0403 18:04:12.783255  6544 net.cpp:141] Setting up conv2/relu_3x3
I0403 18:04:12.783288  6544 net.cpp:148] Top shape: 24 192 56 56 (14450688)
I0403 18:04:12.783340  6544 net.cpp:156] Memory required for data: 361268256
I0403 18:04:12.783359  6544 layer_factory.hpp:77] Creating layer conv2/norm2
I0403 18:04:12.783383  6544 net.cpp:91] Creating Layer conv2/norm2
I0403 18:04:12.783402  6544 net.cpp:425] conv2/norm2 <- conv2/3x3
I0403 18:04:12.783424  6544 net.cpp:399] conv2/norm2 -> conv2/norm2
I0403 18:04:12.783751  6544 net.cpp:141] Setting up conv2/norm2
I0403 18:04:12.783782  6544 net.cpp:148] Top shape: 24 192 56 56 (14450688)
I0403 18:04:12.783798  6544 net.cpp:156] Memory required for data: 419071008
I0403 18:04:12.783815  6544 layer_factory.hpp:77] Creating layer pool2/3x3_s2
I0403 18:04:12.783834  6544 net.cpp:91] Creating Layer pool2/3x3_s2
I0403 18:04:12.783851  6544 net.cpp:425] pool2/3x3_s2 <- conv2/norm2
I0403 18:04:12.783872  6544 net.cpp:399] pool2/3x3_s2 -> pool2/3x3_s2
I0403 18:04:12.783928  6544 net.cpp:141] Setting up pool2/3x3_s2
I0403 18:04:12.783953  6544 net.cpp:148] Top shape: 24 192 28 28 (3612672)
I0403 18:04:12.783968  6544 net.cpp:156] Memory required for data: 433521696
I0403 18:04:12.783984  6544 layer_factory.hpp:77] Creating layer pool2/3x3_s2_pool2/3x3_s2_0_split
I0403 18:04:12.784004  6544 net.cpp:91] Creating Layer pool2/3x3_s2_pool2/3x3_s2_0_split
I0403 18:04:12.784021  6544 net.cpp:425] pool2/3x3_s2_pool2/3x3_s2_0_split <- pool2/3x3_s2
I0403 18:04:12.784041  6544 net.cpp:399] pool2/3x3_s2_pool2/3x3_s2_0_split -> pool2/3x3_s2_pool2/3x3_s2_0_split_0
I0403 18:04:12.784062  6544 net.cpp:399] pool2/3x3_s2_pool2/3x3_s2_0_split -> pool2/3x3_s2_pool2/3x3_s2_0_split_1
I0403 18:04:12.784083  6544 net.cpp:399] pool2/3x3_s2_pool2/3x3_s2_0_split -> pool2/3x3_s2_pool2/3x3_s2_0_split_2
I0403 18:04:12.784106  6544 net.cpp:399] pool2/3x3_s2_pool2/3x3_s2_0_split -> pool2/3x3_s2_pool2/3x3_s2_0_split_3
I0403 18:04:12.784188  6544 net.cpp:141] Setting up pool2/3x3_s2_pool2/3x3_s2_0_split
I0403 18:04:12.784212  6544 net.cpp:148] Top shape: 24 192 28 28 (3612672)
I0403 18:04:12.784229  6544 net.cpp:148] Top shape: 24 192 28 28 (3612672)
I0403 18:04:12.784246  6544 net.cpp:148] Top shape: 24 192 28 28 (3612672)
I0403 18:04:12.784262  6544 net.cpp:148] Top shape: 24 192 28 28 (3612672)
I0403 18:04:12.784282  6544 net.cpp:156] Memory required for data: 491324448
I0403 18:04:12.784299  6544 layer_factory.hpp:77] Creating layer inception_3a/1x1
I0403 18:04:12.784323  6544 net.cpp:91] Creating Layer inception_3a/1x1
I0403 18:04:12.784343  6544 net.cpp:425] inception_3a/1x1 <- pool2/3x3_s2_pool2/3x3_s2_0_split_0
I0403 18:04:12.784365  6544 net.cpp:399] inception_3a/1x1 -> inception_3a/1x1
I0403 18:04:12.786027  6544 net.cpp:141] Setting up inception_3a/1x1
I0403 18:04:12.786059  6544 net.cpp:148] Top shape: 24 64 28 28 (1204224)
I0403 18:04:12.786077  6544 net.cpp:156] Memory required for data: 496141344
I0403 18:04:12.786098  6544 layer_factory.hpp:77] Creating layer inception_3a/relu_1x1
I0403 18:04:12.786116  6544 net.cpp:91] Creating Layer inception_3a/relu_1x1
I0403 18:04:12.786134  6544 net.cpp:425] inception_3a/relu_1x1 <- inception_3a/1x1
I0403 18:04:12.786157  6544 net.cpp:386] inception_3a/relu_1x1 -> inception_3a/1x1 (in-place)
I0403 18:04:12.786350  6544 net.cpp:141] Setting up inception_3a/relu_1x1
I0403 18:04:12.786376  6544 net.cpp:148] Top shape: 24 64 28 28 (1204224)
I0403 18:04:12.786391  6544 net.cpp:156] Memory required for data: 500958240
I0403 18:04:12.786409  6544 layer_factory.hpp:77] Creating layer inception_3a/3x3_reduce
I0403 18:04:12.786433  6544 net.cpp:91] Creating Layer inception_3a/3x3_reduce
I0403 18:04:12.786453  6544 net.cpp:425] inception_3a/3x3_reduce <- pool2/3x3_s2_pool2/3x3_s2_0_split_1
I0403 18:04:12.786475  6544 net.cpp:399] inception_3a/3x3_reduce -> inception_3a/3x3_reduce
I0403 18:04:12.788269  6544 net.cpp:141] Setting up inception_3a/3x3_reduce
I0403 18:04:12.788305  6544 net.cpp:148] Top shape: 24 96 28 28 (1806336)
I0403 18:04:12.788321  6544 net.cpp:156] Memory required for data: 508183584
I0403 18:04:12.788344  6544 layer_factory.hpp:77] Creating layer inception_3a/relu_3x3_reduce
I0403 18:04:12.788384  6544 net.cpp:91] Creating Layer inception_3a/relu_3x3_reduce
I0403 18:04:12.788404  6544 net.cpp:425] inception_3a/relu_3x3_reduce <- inception_3a/3x3_reduce
I0403 18:04:12.788422  6544 net.cpp:386] inception_3a/relu_3x3_reduce -> inception_3a/3x3_reduce (in-place)
I0403 18:04:12.788619  6544 net.cpp:141] Setting up inception_3a/relu_3x3_reduce
I0403 18:04:12.788647  6544 net.cpp:148] Top shape: 24 96 28 28 (1806336)
I0403 18:04:12.788664  6544 net.cpp:156] Memory required for data: 515408928
I0403 18:04:12.788681  6544 layer_factory.hpp:77] Creating layer inception_3a/3x3
I0403 18:04:12.788707  6544 net.cpp:91] Creating Layer inception_3a/3x3
I0403 18:04:12.788727  6544 net.cpp:425] inception_3a/3x3 <- inception_3a/3x3_reduce
I0403 18:04:12.788745  6544 net.cpp:399] inception_3a/3x3 -> inception_3a/3x3
I0403 18:04:12.790508  6544 net.cpp:141] Setting up inception_3a/3x3
I0403 18:04:12.790539  6544 net.cpp:148] Top shape: 24 128 28 28 (2408448)
I0403 18:04:12.790555  6544 net.cpp:156] Memory required for data: 525042720
I0403 18:04:12.790575  6544 layer_factory.hpp:77] Creating layer inception_3a/relu_3x3
I0403 18:04:12.790596  6544 net.cpp:91] Creating Layer inception_3a/relu_3x3
I0403 18:04:12.790613  6544 net.cpp:425] inception_3a/relu_3x3 <- inception_3a/3x3
I0403 18:04:12.790632  6544 net.cpp:386] inception_3a/relu_3x3 -> inception_3a/3x3 (in-place)
I0403 18:04:12.790920  6544 net.cpp:141] Setting up inception_3a/relu_3x3
I0403 18:04:12.790948  6544 net.cpp:148] Top shape: 24 128 28 28 (2408448)
I0403 18:04:12.790963  6544 net.cpp:156] Memory required for data: 534676512
I0403 18:04:12.790979  6544 layer_factory.hpp:77] Creating layer inception_3a/5x5_reduce
I0403 18:04:12.791003  6544 net.cpp:91] Creating Layer inception_3a/5x5_reduce
I0403 18:04:12.791021  6544 net.cpp:425] inception_3a/5x5_reduce <- pool2/3x3_s2_pool2/3x3_s2_0_split_2
I0403 18:04:12.791049  6544 net.cpp:399] inception_3a/5x5_reduce -> inception_3a/5x5_reduce
I0403 18:04:12.792078  6544 net.cpp:141] Setting up inception_3a/5x5_reduce
I0403 18:04:12.792107  6544 net.cpp:148] Top shape: 24 16 28 28 (301056)
I0403 18:04:12.792124  6544 net.cpp:156] Memory required for data: 535880736
I0403 18:04:12.792143  6544 layer_factory.hpp:77] Creating layer inception_3a/relu_5x5_reduce
I0403 18:04:12.792165  6544 net.cpp:91] Creating Layer inception_3a/relu_5x5_reduce
I0403 18:04:12.792182  6544 net.cpp:425] inception_3a/relu_5x5_reduce <- inception_3a/5x5_reduce
I0403 18:04:12.792201  6544 net.cpp:386] inception_3a/relu_5x5_reduce -> inception_3a/5x5_reduce (in-place)
I0403 18:04:12.792518  6544 net.cpp:141] Setting up inception_3a/relu_5x5_reduce
I0403 18:04:12.792546  6544 net.cpp:148] Top shape: 24 16 28 28 (301056)
I0403 18:04:12.792563  6544 net.cpp:156] Memory required for data: 537084960
I0403 18:04:12.792579  6544 layer_factory.hpp:77] Creating layer inception_3a/5x5
I0403 18:04:12.792606  6544 net.cpp:91] Creating Layer inception_3a/5x5
I0403 18:04:12.792625  6544 net.cpp:425] inception_3a/5x5 <- inception_3a/5x5_reduce
I0403 18:04:12.792645  6544 net.cpp:399] inception_3a/5x5 -> inception_3a/5x5
I0403 18:04:12.793741  6544 net.cpp:141] Setting up inception_3a/5x5
I0403 18:04:12.793771  6544 net.cpp:148] Top shape: 24 32 28 28 (602112)
I0403 18:04:12.793787  6544 net.cpp:156] Memory required for data: 539493408
I0403 18:04:12.793807  6544 layer_factory.hpp:77] Creating layer inception_3a/relu_5x5
I0403 18:04:12.793825  6544 net.cpp:91] Creating Layer inception_3a/relu_5x5
I0403 18:04:12.793841  6544 net.cpp:425] inception_3a/relu_5x5 <- inception_3a/5x5
I0403 18:04:12.793862  6544 net.cpp:386] inception_3a/relu_5x5 -> inception_3a/5x5 (in-place)
I0403 18:04:12.794051  6544 net.cpp:141] Setting up inception_3a/relu_5x5
I0403 18:04:12.794077  6544 net.cpp:148] Top shape: 24 32 28 28 (602112)
I0403 18:04:12.794093  6544 net.cpp:156] Memory required for data: 541901856
I0403 18:04:12.794109  6544 layer_factory.hpp:77] Creating layer inception_3a/pool
I0403 18:04:12.794131  6544 net.cpp:91] Creating Layer inception_3a/pool
I0403 18:04:12.794163  6544 net.cpp:425] inception_3a/pool <- pool2/3x3_s2_pool2/3x3_s2_0_split_3
I0403 18:04:12.794186  6544 net.cpp:399] inception_3a/pool -> inception_3a/pool
I0403 18:04:12.794253  6544 net.cpp:141] Setting up inception_3a/pool
I0403 18:04:12.794286  6544 net.cpp:148] Top shape: 24 192 28 28 (3612672)
I0403 18:04:12.794302  6544 net.cpp:156] Memory required for data: 556352544
I0403 18:04:12.794318  6544 layer_factory.hpp:77] Creating layer inception_3a/pool_proj
I0403 18:04:12.794342  6544 net.cpp:91] Creating Layer inception_3a/pool_proj
I0403 18:04:12.794361  6544 net.cpp:425] inception_3a/pool_proj <- inception_3a/pool
I0403 18:04:12.794385  6544 net.cpp:399] inception_3a/pool_proj -> inception_3a/pool_proj
I0403 18:04:12.795413  6544 net.cpp:141] Setting up inception_3a/pool_proj
I0403 18:04:12.795445  6544 net.cpp:148] Top shape: 24 32 28 28 (602112)
I0403 18:04:12.795462  6544 net.cpp:156] Memory required for data: 558760992
I0403 18:04:12.795485  6544 layer_factory.hpp:77] Creating layer inception_3a/relu_pool_proj
I0403 18:04:12.795508  6544 net.cpp:91] Creating Layer inception_3a/relu_pool_proj
I0403 18:04:12.795526  6544 net.cpp:425] inception_3a/relu_pool_proj <- inception_3a/pool_proj
I0403 18:04:12.795545  6544 net.cpp:386] inception_3a/relu_pool_proj -> inception_3a/pool_proj (in-place)
I0403 18:04:12.795835  6544 net.cpp:141] Setting up inception_3a/relu_pool_proj
I0403 18:04:12.795861  6544 net.cpp:148] Top shape: 24 32 28 28 (602112)
I0403 18:04:12.795877  6544 net.cpp:156] Memory required for data: 561169440
I0403 18:04:12.795893  6544 layer_factory.hpp:77] Creating layer inception_3a/output
I0403 18:04:12.795913  6544 net.cpp:91] Creating Layer inception_3a/output
I0403 18:04:12.795930  6544 net.cpp:425] inception_3a/output <- inception_3a/1x1
I0403 18:04:12.795948  6544 net.cpp:425] inception_3a/output <- inception_3a/3x3
I0403 18:04:12.795965  6544 net.cpp:425] inception_3a/output <- inception_3a/5x5
I0403 18:04:12.795984  6544 net.cpp:425] inception_3a/output <- inception_3a/pool_proj
I0403 18:04:12.796003  6544 net.cpp:399] inception_3a/output -> inception_3a/output
I0403 18:04:12.796052  6544 net.cpp:141] Setting up inception_3a/output
I0403 18:04:12.796079  6544 net.cpp:148] Top shape: 24 256 28 28 (4816896)
I0403 18:04:12.796095  6544 net.cpp:156] Memory required for data: 580437024
I0403 18:04:12.796111  6544 layer_factory.hpp:77] Creating layer inception_3a/output_inception_3a/output_0_split
I0403 18:04:12.796129  6544 net.cpp:91] Creating Layer inception_3a/output_inception_3a/output_0_split
I0403 18:04:12.796146  6544 net.cpp:425] inception_3a/output_inception_3a/output_0_split <- inception_3a/output
I0403 18:04:12.796165  6544 net.cpp:399] inception_3a/output_inception_3a/output_0_split -> inception_3a/output_inception_3a/output_0_split_0
I0403 18:04:12.796190  6544 net.cpp:399] inception_3a/output_inception_3a/output_0_split -> inception_3a/output_inception_3a/output_0_split_1
I0403 18:04:12.796216  6544 net.cpp:399] inception_3a/output_inception_3a/output_0_split -> inception_3a/output_inception_3a/output_0_split_2
I0403 18:04:12.796237  6544 net.cpp:399] inception_3a/output_inception_3a/output_0_split -> inception_3a/output_inception_3a/output_0_split_3
I0403 18:04:12.796324  6544 net.cpp:141] Setting up inception_3a/output_inception_3a/output_0_split
I0403 18:04:12.796351  6544 net.cpp:148] Top shape: 24 256 28 28 (4816896)
I0403 18:04:12.796370  6544 net.cpp:148] Top shape: 24 256 28 28 (4816896)
I0403 18:04:12.796388  6544 net.cpp:148] Top shape: 24 256 28 28 (4816896)
I0403 18:04:12.796404  6544 net.cpp:148] Top shape: 24 256 28 28 (4816896)
I0403 18:04:12.796421  6544 net.cpp:156] Memory required for data: 657507360
I0403 18:04:12.796435  6544 layer_factory.hpp:77] Creating layer inception_3b/1x1
I0403 18:04:12.796459  6544 net.cpp:91] Creating Layer inception_3b/1x1
I0403 18:04:12.796478  6544 net.cpp:425] inception_3b/1x1 <- inception_3a/output_inception_3a/output_0_split_0
I0403 18:04:12.796500  6544 net.cpp:399] inception_3b/1x1 -> inception_3b/1x1
I0403 18:04:12.797701  6544 net.cpp:141] Setting up inception_3b/1x1
I0403 18:04:12.797746  6544 net.cpp:148] Top shape: 24 128 28 28 (2408448)
I0403 18:04:12.797765  6544 net.cpp:156] Memory required for data: 667141152
I0403 18:04:12.797785  6544 layer_factory.hpp:77] Creating layer inception_3b/relu_1x1
I0403 18:04:12.797804  6544 net.cpp:91] Creating Layer inception_3b/relu_1x1
I0403 18:04:12.797822  6544 net.cpp:425] inception_3b/relu_1x1 <- inception_3b/1x1
I0403 18:04:12.797844  6544 net.cpp:386] inception_3b/relu_1x1 -> inception_3b/1x1 (in-place)
I0403 18:04:12.798033  6544 net.cpp:141] Setting up inception_3b/relu_1x1
I0403 18:04:12.798060  6544 net.cpp:148] Top shape: 24 128 28 28 (2408448)
I0403 18:04:12.798076  6544 net.cpp:156] Memory required for data: 676774944
I0403 18:04:12.798092  6544 layer_factory.hpp:77] Creating layer inception_3b/3x3_reduce
I0403 18:04:12.798116  6544 net.cpp:91] Creating Layer inception_3b/3x3_reduce
I0403 18:04:12.798135  6544 net.cpp:425] inception_3b/3x3_reduce <- inception_3a/output_inception_3a/output_0_split_1
I0403 18:04:12.798158  6544 net.cpp:399] inception_3b/3x3_reduce -> inception_3b/3x3_reduce
I0403 18:04:12.799373  6544 net.cpp:141] Setting up inception_3b/3x3_reduce
I0403 18:04:12.799402  6544 net.cpp:148] Top shape: 24 128 28 28 (2408448)
I0403 18:04:12.799418  6544 net.cpp:156] Memory required for data: 686408736
I0403 18:04:12.799439  6544 layer_factory.hpp:77] Creating layer inception_3b/relu_3x3_reduce
I0403 18:04:12.799458  6544 net.cpp:91] Creating Layer inception_3b/relu_3x3_reduce
I0403 18:04:12.799475  6544 net.cpp:425] inception_3b/relu_3x3_reduce <- inception_3b/3x3_reduce
I0403 18:04:12.799497  6544 net.cpp:386] inception_3b/relu_3x3_reduce -> inception_3b/3x3_reduce (in-place)
I0403 18:04:12.799684  6544 net.cpp:141] Setting up inception_3b/relu_3x3_reduce
I0403 18:04:12.799710  6544 net.cpp:148] Top shape: 24 128 28 28 (2408448)
I0403 18:04:12.799724  6544 net.cpp:156] Memory required for data: 696042528
I0403 18:04:12.799741  6544 layer_factory.hpp:77] Creating layer inception_3b/3x3
I0403 18:04:12.799768  6544 net.cpp:91] Creating Layer inception_3b/3x3
I0403 18:04:12.799787  6544 net.cpp:425] inception_3b/3x3 <- inception_3b/3x3_reduce
I0403 18:04:12.799808  6544 net.cpp:399] inception_3b/3x3 -> inception_3b/3x3
I0403 18:04:12.802906  6544 net.cpp:141] Setting up inception_3b/3x3
I0403 18:04:12.802937  6544 net.cpp:148] Top shape: 24 192 28 28 (3612672)
I0403 18:04:12.802953  6544 net.cpp:156] Memory required for data: 710493216
I0403 18:04:12.802973  6544 layer_factory.hpp:77] Creating layer inception_3b/relu_3x3
I0403 18:04:12.802995  6544 net.cpp:91] Creating Layer inception_3b/relu_3x3
I0403 18:04:12.803014  6544 net.cpp:425] inception_3b/relu_3x3 <- inception_3b/3x3
I0403 18:04:12.803031  6544 net.cpp:386] inception_3b/relu_3x3 -> inception_3b/3x3 (in-place)
I0403 18:04:12.803330  6544 net.cpp:141] Setting up inception_3b/relu_3x3
I0403 18:04:12.803359  6544 net.cpp:148] Top shape: 24 192 28 28 (3612672)
I0403 18:04:12.803375  6544 net.cpp:156] Memory required for data: 724943904
I0403 18:04:12.803390  6544 layer_factory.hpp:77] Creating layer inception_3b/5x5_reduce
I0403 18:04:12.803416  6544 net.cpp:91] Creating Layer inception_3b/5x5_reduce
I0403 18:04:12.803434  6544 net.cpp:425] inception_3b/5x5_reduce <- inception_3a/output_inception_3a/output_0_split_2
I0403 18:04:12.803458  6544 net.cpp:399] inception_3b/5x5_reduce -> inception_3b/5x5_reduce
I0403 18:04:12.804509  6544 net.cpp:141] Setting up inception_3b/5x5_reduce
I0403 18:04:12.804538  6544 net.cpp:148] Top shape: 24 32 28 28 (602112)
I0403 18:04:12.804555  6544 net.cpp:156] Memory required for data: 727352352
I0403 18:04:12.804576  6544 layer_factory.hpp:77] Creating layer inception_3b/relu_5x5_reduce
I0403 18:04:12.804594  6544 net.cpp:91] Creating Layer inception_3b/relu_5x5_reduce
I0403 18:04:12.804611  6544 net.cpp:425] inception_3b/relu_5x5_reduce <- inception_3b/5x5_reduce
I0403 18:04:12.804633  6544 net.cpp:386] inception_3b/relu_5x5_reduce -> inception_3b/5x5_reduce (in-place)
I0403 18:04:12.804836  6544 net.cpp:141] Setting up inception_3b/relu_5x5_reduce
I0403 18:04:12.804864  6544 net.cpp:148] Top shape: 24 32 28 28 (602112)
I0403 18:04:12.804880  6544 net.cpp:156] Memory required for data: 729760800
I0403 18:04:12.804896  6544 layer_factory.hpp:77] Creating layer inception_3b/5x5
I0403 18:04:12.804921  6544 net.cpp:91] Creating Layer inception_3b/5x5
I0403 18:04:12.804939  6544 net.cpp:425] inception_3b/5x5 <- inception_3b/5x5_reduce
I0403 18:04:12.804963  6544 net.cpp:399] inception_3b/5x5 -> inception_3b/5x5
I0403 18:04:12.807093  6544 net.cpp:141] Setting up inception_3b/5x5
I0403 18:04:12.807126  6544 net.cpp:148] Top shape: 24 96 28 28 (1806336)
I0403 18:04:12.807143  6544 net.cpp:156] Memory required for data: 736986144
I0403 18:04:12.807163  6544 layer_factory.hpp:77] Creating layer inception_3b/relu_5x5
I0403 18:04:12.807183  6544 net.cpp:91] Creating Layer inception_3b/relu_5x5
I0403 18:04:12.807199  6544 net.cpp:425] inception_3b/relu_5x5 <- inception_3b/5x5
I0403 18:04:12.807220  6544 net.cpp:386] inception_3b/relu_5x5 -> inception_3b/5x5 (in-place)
I0403 18:04:12.807432  6544 net.cpp:141] Setting up inception_3b/relu_5x5
I0403 18:04:12.807459  6544 net.cpp:148] Top shape: 24 96 28 28 (1806336)
I0403 18:04:12.807476  6544 net.cpp:156] Memory required for data: 744211488
I0403 18:04:12.807490  6544 layer_factory.hpp:77] Creating layer inception_3b/pool
I0403 18:04:12.807510  6544 net.cpp:91] Creating Layer inception_3b/pool
I0403 18:04:12.807528  6544 net.cpp:425] inception_3b/pool <- inception_3a/output_inception_3a/output_0_split_3
I0403 18:04:12.807546  6544 net.cpp:399] inception_3b/pool -> inception_3b/pool
I0403 18:04:12.807607  6544 net.cpp:141] Setting up inception_3b/pool
I0403 18:04:12.807631  6544 net.cpp:148] Top shape: 24 256 28 28 (4816896)
I0403 18:04:12.807646  6544 net.cpp:156] Memory required for data: 763479072
I0403 18:04:12.807663  6544 layer_factory.hpp:77] Creating layer inception_3b/pool_proj
I0403 18:04:12.807687  6544 net.cpp:91] Creating Layer inception_3b/pool_proj
I0403 18:04:12.807705  6544 net.cpp:425] inception_3b/pool_proj <- inception_3b/pool
I0403 18:04:12.807729  6544 net.cpp:399] inception_3b/pool_proj -> inception_3b/pool_proj
I0403 18:04:12.808854  6544 net.cpp:141] Setting up inception_3b/pool_proj
I0403 18:04:12.808884  6544 net.cpp:148] Top shape: 24 64 28 28 (1204224)
I0403 18:04:12.808900  6544 net.cpp:156] Memory required for data: 768295968
I0403 18:04:12.808919  6544 layer_factory.hpp:77] Creating layer inception_3b/relu_pool_proj
I0403 18:04:12.808943  6544 net.cpp:91] Creating Layer inception_3b/relu_pool_proj
I0403 18:04:12.808959  6544 net.cpp:425] inception_3b/relu_pool_proj <- inception_3b/pool_proj
I0403 18:04:12.808979  6544 net.cpp:386] inception_3b/relu_pool_proj -> inception_3b/pool_proj (in-place)
I0403 18:04:12.809388  6544 net.cpp:141] Setting up inception_3b/relu_pool_proj
I0403 18:04:12.809417  6544 net.cpp:148] Top shape: 24 64 28 28 (1204224)
I0403 18:04:12.809433  6544 net.cpp:156] Memory required for data: 773112864
I0403 18:04:12.809448  6544 layer_factory.hpp:77] Creating layer inception_3b/output
I0403 18:04:12.809470  6544 net.cpp:91] Creating Layer inception_3b/output
I0403 18:04:12.809489  6544 net.cpp:425] inception_3b/output <- inception_3b/1x1
I0403 18:04:12.809506  6544 net.cpp:425] inception_3b/output <- inception_3b/3x3
I0403 18:04:12.809525  6544 net.cpp:425] inception_3b/output <- inception_3b/5x5
I0403 18:04:12.809540  6544 net.cpp:425] inception_3b/output <- inception_3b/pool_proj
I0403 18:04:12.809558  6544 net.cpp:399] inception_3b/output -> inception_3b/output
I0403 18:04:12.809607  6544 net.cpp:141] Setting up inception_3b/output
I0403 18:04:12.809633  6544 net.cpp:148] Top shape: 24 480 28 28 (9031680)
I0403 18:04:12.809648  6544 net.cpp:156] Memory required for data: 809239584
I0403 18:04:12.809664  6544 layer_factory.hpp:77] Creating layer pool3/3x3_s2
I0403 18:04:12.809684  6544 net.cpp:91] Creating Layer pool3/3x3_s2
I0403 18:04:12.809700  6544 net.cpp:425] pool3/3x3_s2 <- inception_3b/output
I0403 18:04:12.809738  6544 net.cpp:399] pool3/3x3_s2 -> pool3/3x3_s2
I0403 18:04:12.809800  6544 net.cpp:141] Setting up pool3/3x3_s2
I0403 18:04:12.809825  6544 net.cpp:148] Top shape: 24 480 14 14 (2257920)
I0403 18:04:12.809840  6544 net.cpp:156] Memory required for data: 818271264
I0403 18:04:12.809855  6544 layer_factory.hpp:77] Creating layer pool3/3x3_s2_pool3/3x3_s2_0_split
I0403 18:04:12.809876  6544 net.cpp:91] Creating Layer pool3/3x3_s2_pool3/3x3_s2_0_split
I0403 18:04:12.809895  6544 net.cpp:425] pool3/3x3_s2_pool3/3x3_s2_0_split <- pool3/3x3_s2
I0403 18:04:12.809917  6544 net.cpp:399] pool3/3x3_s2_pool3/3x3_s2_0_split -> pool3/3x3_s2_pool3/3x3_s2_0_split_0
I0403 18:04:12.809938  6544 net.cpp:399] pool3/3x3_s2_pool3/3x3_s2_0_split -> pool3/3x3_s2_pool3/3x3_s2_0_split_1
I0403 18:04:12.809960  6544 net.cpp:399] pool3/3x3_s2_pool3/3x3_s2_0_split -> pool3/3x3_s2_pool3/3x3_s2_0_split_2
I0403 18:04:12.809980  6544 net.cpp:399] pool3/3x3_s2_pool3/3x3_s2_0_split -> pool3/3x3_s2_pool3/3x3_s2_0_split_3
I0403 18:04:12.810060  6544 net.cpp:141] Setting up pool3/3x3_s2_pool3/3x3_s2_0_split
I0403 18:04:12.810084  6544 net.cpp:148] Top shape: 24 480 14 14 (2257920)
I0403 18:04:12.810101  6544 net.cpp:148] Top shape: 24 480 14 14 (2257920)
I0403 18:04:12.810118  6544 net.cpp:148] Top shape: 24 480 14 14 (2257920)
I0403 18:04:12.810135  6544 net.cpp:148] Top shape: 24 480 14 14 (2257920)
I0403 18:04:12.810150  6544 net.cpp:156] Memory required for data: 854397984
I0403 18:04:12.810166  6544 layer_factory.hpp:77] Creating layer inception_4a/1x1
I0403 18:04:12.810190  6544 net.cpp:91] Creating Layer inception_4a/1x1
I0403 18:04:12.810209  6544 net.cpp:425] inception_4a/1x1 <- pool3/3x3_s2_pool3/3x3_s2_0_split_0
I0403 18:04:12.810232  6544 net.cpp:399] inception_4a/1x1 -> inception_4a/1x1
I0403 18:04:12.811895  6544 net.cpp:141] Setting up inception_4a/1x1
I0403 18:04:12.811928  6544 net.cpp:148] Top shape: 24 192 14 14 (903168)
I0403 18:04:12.811944  6544 net.cpp:156] Memory required for data: 858010656
I0403 18:04:12.811965  6544 layer_factory.hpp:77] Creating layer inception_4a/relu_1x1
I0403 18:04:12.811985  6544 net.cpp:91] Creating Layer inception_4a/relu_1x1
I0403 18:04:12.812001  6544 net.cpp:425] inception_4a/relu_1x1 <- inception_4a/1x1
I0403 18:04:12.812019  6544 net.cpp:386] inception_4a/relu_1x1 -> inception_4a/1x1 (in-place)
I0403 18:04:12.812208  6544 net.cpp:141] Setting up inception_4a/relu_1x1
I0403 18:04:12.812237  6544 net.cpp:148] Top shape: 24 192 14 14 (903168)
I0403 18:04:12.812255  6544 net.cpp:156] Memory required for data: 861623328
I0403 18:04:12.812281  6544 layer_factory.hpp:77] Creating layer inception_4a/3x3_reduce
I0403 18:04:12.812309  6544 net.cpp:91] Creating Layer inception_4a/3x3_reduce
I0403 18:04:12.812327  6544 net.cpp:425] inception_4a/3x3_reduce <- pool3/3x3_s2_pool3/3x3_s2_0_split_1
I0403 18:04:12.812350  6544 net.cpp:399] inception_4a/3x3_reduce -> inception_4a/3x3_reduce
I0403 18:04:12.813704  6544 net.cpp:141] Setting up inception_4a/3x3_reduce
I0403 18:04:12.813735  6544 net.cpp:148] Top shape: 24 96 14 14 (451584)
I0403 18:04:12.813750  6544 net.cpp:156] Memory required for data: 863429664
I0403 18:04:12.813779  6544 layer_factory.hpp:77] Creating layer inception_4a/relu_3x3_reduce
I0403 18:04:12.813801  6544 net.cpp:91] Creating Layer inception_4a/relu_3x3_reduce
I0403 18:04:12.813818  6544 net.cpp:425] inception_4a/relu_3x3_reduce <- inception_4a/3x3_reduce
I0403 18:04:12.813838  6544 net.cpp:386] inception_4a/relu_3x3_reduce -> inception_4a/3x3_reduce (in-place)
I0403 18:04:12.814029  6544 net.cpp:141] Setting up inception_4a/relu_3x3_reduce
I0403 18:04:12.814059  6544 net.cpp:148] Top shape: 24 96 14 14 (451584)
I0403 18:04:12.814074  6544 net.cpp:156] Memory required for data: 865236000
I0403 18:04:12.814091  6544 layer_factory.hpp:77] Creating layer inception_4a/3x3
I0403 18:04:12.814116  6544 net.cpp:91] Creating Layer inception_4a/3x3
I0403 18:04:12.814134  6544 net.cpp:425] inception_4a/3x3 <- inception_4a/3x3_reduce
I0403 18:04:12.814155  6544 net.cpp:399] inception_4a/3x3 -> inception_4a/3x3
I0403 18:04:12.817020  6544 net.cpp:141] Setting up inception_4a/3x3
I0403 18:04:12.817050  6544 net.cpp:148] Top shape: 24 208 14 14 (978432)
I0403 18:04:12.817066  6544 net.cpp:156] Memory required for data: 869149728
I0403 18:04:12.817086  6544 layer_factory.hpp:77] Creating layer inception_4a/relu_3x3
I0403 18:04:12.817106  6544 net.cpp:91] Creating Layer inception_4a/relu_3x3
I0403 18:04:12.817123  6544 net.cpp:425] inception_4a/relu_3x3 <- inception_4a/3x3
I0403 18:04:12.817145  6544 net.cpp:386] inception_4a/relu_3x3 -> inception_4a/3x3 (in-place)
I0403 18:04:12.817445  6544 net.cpp:141] Setting up inception_4a/relu_3x3
I0403 18:04:12.817472  6544 net.cpp:148] Top shape: 24 208 14 14 (978432)
I0403 18:04:12.817488  6544 net.cpp:156] Memory required for data: 873063456
I0403 18:04:12.817504  6544 layer_factory.hpp:77] Creating layer inception_4a/5x5_reduce
I0403 18:04:12.817539  6544 net.cpp:91] Creating Layer inception_4a/5x5_reduce
I0403 18:04:12.817558  6544 net.cpp:425] inception_4a/5x5_reduce <- pool3/3x3_s2_pool3/3x3_s2_0_split_2
I0403 18:04:12.817584  6544 net.cpp:399] inception_4a/5x5_reduce -> inception_4a/5x5_reduce
I0403 18:04:12.818636  6544 net.cpp:141] Setting up inception_4a/5x5_reduce
I0403 18:04:12.818665  6544 net.cpp:148] Top shape: 24 16 14 14 (75264)
I0403 18:04:12.818681  6544 net.cpp:156] Memory required for data: 873364512
I0403 18:04:12.818701  6544 layer_factory.hpp:77] Creating layer inception_4a/relu_5x5_reduce
I0403 18:04:12.818720  6544 net.cpp:91] Creating Layer inception_4a/relu_5x5_reduce
I0403 18:04:12.818737  6544 net.cpp:425] inception_4a/relu_5x5_reduce <- inception_4a/5x5_reduce
I0403 18:04:12.818758  6544 net.cpp:386] inception_4a/relu_5x5_reduce -> inception_4a/5x5_reduce (in-place)
I0403 18:04:12.818940  6544 net.cpp:141] Setting up inception_4a/relu_5x5_reduce
I0403 18:04:12.818965  6544 net.cpp:148] Top shape: 24 16 14 14 (75264)
I0403 18:04:12.818980  6544 net.cpp:156] Memory required for data: 873665568
I0403 18:04:12.818996  6544 layer_factory.hpp:77] Creating layer inception_4a/5x5
I0403 18:04:12.819020  6544 net.cpp:91] Creating Layer inception_4a/5x5
I0403 18:04:12.819038  6544 net.cpp:425] inception_4a/5x5 <- inception_4a/5x5_reduce
I0403 18:04:12.819061  6544 net.cpp:399] inception_4a/5x5 -> inception_4a/5x5
I0403 18:04:12.820216  6544 net.cpp:141] Setting up inception_4a/5x5
I0403 18:04:12.820245  6544 net.cpp:148] Top shape: 24 48 14 14 (225792)
I0403 18:04:12.820261  6544 net.cpp:156] Memory required for data: 874568736
I0403 18:04:12.820284  6544 layer_factory.hpp:77] Creating layer inception_4a/relu_5x5
I0403 18:04:12.820307  6544 net.cpp:91] Creating Layer inception_4a/relu_5x5
I0403 18:04:12.820324  6544 net.cpp:425] inception_4a/relu_5x5 <- inception_4a/5x5
I0403 18:04:12.820343  6544 net.cpp:386] inception_4a/relu_5x5 -> inception_4a/5x5 (in-place)
I0403 18:04:12.820528  6544 net.cpp:141] Setting up inception_4a/relu_5x5
I0403 18:04:12.820556  6544 net.cpp:148] Top shape: 24 48 14 14 (225792)
I0403 18:04:12.820574  6544 net.cpp:156] Memory required for data: 875471904
I0403 18:04:12.820590  6544 layer_factory.hpp:77] Creating layer inception_4a/pool
I0403 18:04:12.820608  6544 net.cpp:91] Creating Layer inception_4a/pool
I0403 18:04:12.820624  6544 net.cpp:425] inception_4a/pool <- pool3/3x3_s2_pool3/3x3_s2_0_split_3
I0403 18:04:12.820646  6544 net.cpp:399] inception_4a/pool -> inception_4a/pool
I0403 18:04:12.820708  6544 net.cpp:141] Setting up inception_4a/pool
I0403 18:04:12.820732  6544 net.cpp:148] Top shape: 24 480 14 14 (2257920)
I0403 18:04:12.820747  6544 net.cpp:156] Memory required for data: 884503584
I0403 18:04:12.820762  6544 layer_factory.hpp:77] Creating layer inception_4a/pool_proj
I0403 18:04:12.820785  6544 net.cpp:91] Creating Layer inception_4a/pool_proj
I0403 18:04:12.820803  6544 net.cpp:425] inception_4a/pool_proj <- inception_4a/pool
I0403 18:04:12.820825  6544 net.cpp:399] inception_4a/pool_proj -> inception_4a/pool_proj
I0403 18:04:12.822074  6544 net.cpp:141] Setting up inception_4a/pool_proj
I0403 18:04:12.822104  6544 net.cpp:148] Top shape: 24 64 14 14 (301056)
I0403 18:04:12.822135  6544 net.cpp:156] Memory required for data: 885707808
I0403 18:04:12.822156  6544 layer_factory.hpp:77] Creating layer inception_4a/relu_pool_proj
I0403 18:04:12.822177  6544 net.cpp:91] Creating Layer inception_4a/relu_pool_proj
I0403 18:04:12.822196  6544 net.cpp:425] inception_4a/relu_pool_proj <- inception_4a/pool_proj
I0403 18:04:12.822214  6544 net.cpp:386] inception_4a/relu_pool_proj -> inception_4a/pool_proj (in-place)
I0403 18:04:12.822518  6544 net.cpp:141] Setting up inception_4a/relu_pool_proj
I0403 18:04:12.822546  6544 net.cpp:148] Top shape: 24 64 14 14 (301056)
I0403 18:04:12.822561  6544 net.cpp:156] Memory required for data: 886912032
I0403 18:04:12.822576  6544 layer_factory.hpp:77] Creating layer inception_4a/output
I0403 18:04:12.822598  6544 net.cpp:91] Creating Layer inception_4a/output
I0403 18:04:12.822615  6544 net.cpp:425] inception_4a/output <- inception_4a/1x1
I0403 18:04:12.822633  6544 net.cpp:425] inception_4a/output <- inception_4a/3x3
I0403 18:04:12.822649  6544 net.cpp:425] inception_4a/output <- inception_4a/5x5
I0403 18:04:12.822666  6544 net.cpp:425] inception_4a/output <- inception_4a/pool_proj
I0403 18:04:12.822684  6544 net.cpp:399] inception_4a/output -> inception_4a/output
I0403 18:04:12.822729  6544 net.cpp:141] Setting up inception_4a/output
I0403 18:04:12.822753  6544 net.cpp:148] Top shape: 24 512 14 14 (2408448)
I0403 18:04:12.822769  6544 net.cpp:156] Memory required for data: 896545824
I0403 18:04:12.822784  6544 layer_factory.hpp:77] Creating layer inception_4a/output_inception_4a/output_0_split
I0403 18:04:12.822803  6544 net.cpp:91] Creating Layer inception_4a/output_inception_4a/output_0_split
I0403 18:04:12.822818  6544 net.cpp:425] inception_4a/output_inception_4a/output_0_split <- inception_4a/output
I0403 18:04:12.822839  6544 net.cpp:399] inception_4a/output_inception_4a/output_0_split -> inception_4a/output_inception_4a/output_0_split_0
I0403 18:04:12.822862  6544 net.cpp:399] inception_4a/output_inception_4a/output_0_split -> inception_4a/output_inception_4a/output_0_split_1
I0403 18:04:12.822885  6544 net.cpp:399] inception_4a/output_inception_4a/output_0_split -> inception_4a/output_inception_4a/output_0_split_2
I0403 18:04:12.822908  6544 net.cpp:399] inception_4a/output_inception_4a/output_0_split -> inception_4a/output_inception_4a/output_0_split_3
I0403 18:04:12.822931  6544 net.cpp:399] inception_4a/output_inception_4a/output_0_split -> inception_4a/output_inception_4a/output_0_split_4
I0403 18:04:12.823024  6544 net.cpp:141] Setting up inception_4a/output_inception_4a/output_0_split
I0403 18:04:12.823047  6544 net.cpp:148] Top shape: 24 512 14 14 (2408448)
I0403 18:04:12.823065  6544 net.cpp:148] Top shape: 24 512 14 14 (2408448)
I0403 18:04:12.823081  6544 net.cpp:148] Top shape: 24 512 14 14 (2408448)
I0403 18:04:12.823097  6544 net.cpp:148] Top shape: 24 512 14 14 (2408448)
I0403 18:04:12.823114  6544 net.cpp:148] Top shape: 24 512 14 14 (2408448)
I0403 18:04:12.823129  6544 net.cpp:156] Memory required for data: 944714784
I0403 18:04:12.823145  6544 layer_factory.hpp:77] Creating layer loss1/ave_pool
I0403 18:04:12.823163  6544 net.cpp:91] Creating Layer loss1/ave_pool
I0403 18:04:12.823179  6544 net.cpp:425] loss1/ave_pool <- inception_4a/output_inception_4a/output_0_split_0
I0403 18:04:12.823201  6544 net.cpp:399] loss1/ave_pool -> loss1/ave_pool
I0403 18:04:12.823447  6544 net.cpp:141] Setting up loss1/ave_pool
I0403 18:04:12.823475  6544 net.cpp:148] Top shape: 24 512 4 4 (196608)
I0403 18:04:12.823492  6544 net.cpp:156] Memory required for data: 945501216
I0403 18:04:12.823508  6544 layer_factory.hpp:77] Creating layer loss1/conv
I0403 18:04:12.823532  6544 net.cpp:91] Creating Layer loss1/conv
I0403 18:04:12.823551  6544 net.cpp:425] loss1/conv <- loss1/ave_pool
I0403 18:04:12.823583  6544 net.cpp:399] loss1/conv -> loss1/conv
I0403 18:04:12.825042  6544 net.cpp:141] Setting up loss1/conv
I0403 18:04:12.825072  6544 net.cpp:148] Top shape: 24 128 4 4 (49152)
I0403 18:04:12.825106  6544 net.cpp:156] Memory required for data: 945697824
I0403 18:04:12.825127  6544 layer_factory.hpp:77] Creating layer loss1/relu_conv
I0403 18:04:12.825146  6544 net.cpp:91] Creating Layer loss1/relu_conv
I0403 18:04:12.825162  6544 net.cpp:425] loss1/relu_conv <- loss1/conv
I0403 18:04:12.825183  6544 net.cpp:386] loss1/relu_conv -> loss1/conv (in-place)
I0403 18:04:12.825480  6544 net.cpp:141] Setting up loss1/relu_conv
I0403 18:04:12.825507  6544 net.cpp:148] Top shape: 24 128 4 4 (49152)
I0403 18:04:12.825522  6544 net.cpp:156] Memory required for data: 945894432
I0403 18:04:12.825538  6544 layer_factory.hpp:77] Creating layer loss1/fc
I0403 18:04:12.825563  6544 net.cpp:91] Creating Layer loss1/fc
I0403 18:04:12.825582  6544 net.cpp:425] loss1/fc <- loss1/conv
I0403 18:04:12.825603  6544 net.cpp:399] loss1/fc -> loss1/fc
I0403 18:04:12.844550  6544 net.cpp:141] Setting up loss1/fc
I0403 18:04:12.844607  6544 net.cpp:148] Top shape: 24 1024 (24576)
I0403 18:04:12.844624  6544 net.cpp:156] Memory required for data: 945992736
I0403 18:04:12.844643  6544 layer_factory.hpp:77] Creating layer loss1/relu_fc
I0403 18:04:12.844662  6544 net.cpp:91] Creating Layer loss1/relu_fc
I0403 18:04:12.844678  6544 net.cpp:425] loss1/relu_fc <- loss1/fc
I0403 18:04:12.844696  6544 net.cpp:386] loss1/relu_fc -> loss1/fc (in-place)
I0403 18:04:12.844888  6544 net.cpp:141] Setting up loss1/relu_fc
I0403 18:04:12.844913  6544 net.cpp:148] Top shape: 24 1024 (24576)
I0403 18:04:12.844928  6544 net.cpp:156] Memory required for data: 946091040
I0403 18:04:12.844944  6544 layer_factory.hpp:77] Creating layer loss1/drop_fc
I0403 18:04:12.844970  6544 net.cpp:91] Creating Layer loss1/drop_fc
I0403 18:04:12.844987  6544 net.cpp:425] loss1/drop_fc <- loss1/fc
I0403 18:04:12.845006  6544 net.cpp:386] loss1/drop_fc -> loss1/fc (in-place)
I0403 18:04:12.845059  6544 net.cpp:141] Setting up loss1/drop_fc
I0403 18:04:12.845082  6544 net.cpp:148] Top shape: 24 1024 (24576)
I0403 18:04:12.845098  6544 net.cpp:156] Memory required for data: 946189344
I0403 18:04:12.845114  6544 layer_factory.hpp:77] Creating layer loss1/classifier_plantvillage
I0403 18:04:12.845137  6544 net.cpp:91] Creating Layer loss1/classifier_plantvillage
I0403 18:04:12.845155  6544 net.cpp:425] loss1/classifier_plantvillage <- loss1/fc
I0403 18:04:12.845172  6544 net.cpp:399] loss1/classifier_plantvillage -> loss1/classifier_plantvillage
I0403 18:04:12.846146  6544 net.cpp:141] Setting up loss1/classifier_plantvillage
I0403 18:04:12.846176  6544 net.cpp:148] Top shape: 24 38 (912)
I0403 18:04:12.846194  6544 net.cpp:156] Memory required for data: 946192992
I0403 18:04:12.846213  6544 layer_factory.hpp:77] Creating layer loss1/classifier_plantvillage_loss1/classifier_plantvillage_0_split
I0403 18:04:12.846231  6544 net.cpp:91] Creating Layer loss1/classifier_plantvillage_loss1/classifier_plantvillage_0_split
I0403 18:04:12.846248  6544 net.cpp:425] loss1/classifier_plantvillage_loss1/classifier_plantvillage_0_split <- loss1/classifier_plantvillage
I0403 18:04:12.846266  6544 net.cpp:399] loss1/classifier_plantvillage_loss1/classifier_plantvillage_0_split -> loss1/classifier_plantvillage_loss1/classifier_plantvillage_0_split_0
I0403 18:04:12.846297  6544 net.cpp:399] loss1/classifier_plantvillage_loss1/classifier_plantvillage_0_split -> loss1/classifier_plantvillage_loss1/classifier_plantvillage_0_split_1
I0403 18:04:12.846320  6544 net.cpp:399] loss1/classifier_plantvillage_loss1/classifier_plantvillage_0_split -> loss1/classifier_plantvillage_loss1/classifier_plantvillage_0_split_2
I0403 18:04:12.846386  6544 net.cpp:141] Setting up loss1/classifier_plantvillage_loss1/classifier_plantvillage_0_split
I0403 18:04:12.846410  6544 net.cpp:148] Top shape: 24 38 (912)
I0403 18:04:12.846427  6544 net.cpp:148] Top shape: 24 38 (912)
I0403 18:04:12.846443  6544 net.cpp:148] Top shape: 24 38 (912)
I0403 18:04:12.846458  6544 net.cpp:156] Memory required for data: 946203936
I0403 18:04:12.846473  6544 layer_factory.hpp:77] Creating layer inception_4b/1x1
I0403 18:04:12.846494  6544 net.cpp:91] Creating Layer inception_4b/1x1
I0403 18:04:12.846529  6544 net.cpp:425] inception_4b/1x1 <- inception_4a/output_inception_4a/output_0_split_1
I0403 18:04:12.846552  6544 net.cpp:399] inception_4b/1x1 -> inception_4b/1x1
I0403 18:04:12.848218  6544 net.cpp:141] Setting up inception_4b/1x1
I0403 18:04:12.848248  6544 net.cpp:148] Top shape: 24 160 14 14 (752640)
I0403 18:04:12.848263  6544 net.cpp:156] Memory required for data: 949214496
I0403 18:04:12.848287  6544 layer_factory.hpp:77] Creating layer inception_4b/relu_1x1
I0403 18:04:12.848306  6544 net.cpp:91] Creating Layer inception_4b/relu_1x1
I0403 18:04:12.848323  6544 net.cpp:425] inception_4b/relu_1x1 <- inception_4b/1x1
I0403 18:04:12.848345  6544 net.cpp:386] inception_4b/relu_1x1 -> inception_4b/1x1 (in-place)
I0403 18:04:12.848526  6544 net.cpp:141] Setting up inception_4b/relu_1x1
I0403 18:04:12.848551  6544 net.cpp:148] Top shape: 24 160 14 14 (752640)
I0403 18:04:12.848567  6544 net.cpp:156] Memory required for data: 952225056
I0403 18:04:12.848582  6544 layer_factory.hpp:77] Creating layer inception_4b/3x3_reduce
I0403 18:04:12.848605  6544 net.cpp:91] Creating Layer inception_4b/3x3_reduce
I0403 18:04:12.848623  6544 net.cpp:425] inception_4b/3x3_reduce <- inception_4a/output_inception_4a/output_0_split_2
I0403 18:04:12.848646  6544 net.cpp:399] inception_4b/3x3_reduce -> inception_4b/3x3_reduce
I0403 18:04:12.850009  6544 net.cpp:141] Setting up inception_4b/3x3_reduce
I0403 18:04:12.850038  6544 net.cpp:148] Top shape: 24 112 14 14 (526848)
I0403 18:04:12.850052  6544 net.cpp:156] Memory required for data: 954332448
I0403 18:04:12.850071  6544 layer_factory.hpp:77] Creating layer inception_4b/relu_3x3_reduce
I0403 18:04:12.850093  6544 net.cpp:91] Creating Layer inception_4b/relu_3x3_reduce
I0403 18:04:12.850111  6544 net.cpp:425] inception_4b/relu_3x3_reduce <- inception_4b/3x3_reduce
I0403 18:04:12.850128  6544 net.cpp:386] inception_4b/relu_3x3_reduce -> inception_4b/3x3_reduce (in-place)
I0403 18:04:12.850427  6544 net.cpp:141] Setting up inception_4b/relu_3x3_reduce
I0403 18:04:12.850455  6544 net.cpp:148] Top shape: 24 112 14 14 (526848)
I0403 18:04:12.850469  6544 net.cpp:156] Memory required for data: 956439840
I0403 18:04:12.850484  6544 layer_factory.hpp:77] Creating layer inception_4b/3x3
I0403 18:04:12.850507  6544 net.cpp:91] Creating Layer inception_4b/3x3
I0403 18:04:12.850525  6544 net.cpp:425] inception_4b/3x3 <- inception_4b/3x3_reduce
I0403 18:04:12.850548  6544 net.cpp:399] inception_4b/3x3 -> inception_4b/3x3
I0403 18:04:12.853746  6544 net.cpp:141] Setting up inception_4b/3x3
I0403 18:04:12.853778  6544 net.cpp:148] Top shape: 24 224 14 14 (1053696)
I0403 18:04:12.853796  6544 net.cpp:156] Memory required for data: 960654624
I0403 18:04:12.853816  6544 layer_factory.hpp:77] Creating layer inception_4b/relu_3x3
I0403 18:04:12.853834  6544 net.cpp:91] Creating Layer inception_4b/relu_3x3
I0403 18:04:12.853852  6544 net.cpp:425] inception_4b/relu_3x3 <- inception_4b/3x3
I0403 18:04:12.853870  6544 net.cpp:386] inception_4b/relu_3x3 -> inception_4b/3x3 (in-place)
I0403 18:04:12.854064  6544 net.cpp:141] Setting up inception_4b/relu_3x3
I0403 18:04:12.854090  6544 net.cpp:148] Top shape: 24 224 14 14 (1053696)
I0403 18:04:12.854105  6544 net.cpp:156] Memory required for data: 964869408
I0403 18:04:12.854120  6544 layer_factory.hpp:77] Creating layer inception_4b/5x5_reduce
I0403 18:04:12.854146  6544 net.cpp:91] Creating Layer inception_4b/5x5_reduce
I0403 18:04:12.854166  6544 net.cpp:425] inception_4b/5x5_reduce <- inception_4a/output_inception_4a/output_0_split_3
I0403 18:04:12.854192  6544 net.cpp:399] inception_4b/5x5_reduce -> inception_4b/5x5_reduce
I0403 18:04:12.855381  6544 net.cpp:141] Setting up inception_4b/5x5_reduce
I0403 18:04:12.855411  6544 net.cpp:148] Top shape: 24 24 14 14 (112896)
I0403 18:04:12.855428  6544 net.cpp:156] Memory required for data: 965320992
I0403 18:04:12.855448  6544 layer_factory.hpp:77] Creating layer inception_4b/relu_5x5_reduce
I0403 18:04:12.855473  6544 net.cpp:91] Creating Layer inception_4b/relu_5x5_reduce
I0403 18:04:12.855505  6544 net.cpp:425] inception_4b/relu_5x5_reduce <- inception_4b/5x5_reduce
I0403 18:04:12.855525  6544 net.cpp:386] inception_4b/relu_5x5_reduce -> inception_4b/5x5_reduce (in-place)
I0403 18:04:12.855731  6544 net.cpp:141] Setting up inception_4b/relu_5x5_reduce
I0403 18:04:12.855756  6544 net.cpp:148] Top shape: 24 24 14 14 (112896)
I0403 18:04:12.855772  6544 net.cpp:156] Memory required for data: 965772576
I0403 18:04:12.855787  6544 layer_factory.hpp:77] Creating layer inception_4b/5x5
I0403 18:04:12.855811  6544 net.cpp:91] Creating Layer inception_4b/5x5
I0403 18:04:12.855830  6544 net.cpp:425] inception_4b/5x5 <- inception_4b/5x5_reduce
I0403 18:04:12.855850  6544 net.cpp:399] inception_4b/5x5 -> inception_4b/5x5
I0403 18:04:12.857167  6544 net.cpp:141] Setting up inception_4b/5x5
I0403 18:04:12.857195  6544 net.cpp:148] Top shape: 24 64 14 14 (301056)
I0403 18:04:12.857211  6544 net.cpp:156] Memory required for data: 966976800
I0403 18:04:12.857231  6544 layer_factory.hpp:77] Creating layer inception_4b/relu_5x5
I0403 18:04:12.857249  6544 net.cpp:91] Creating Layer inception_4b/relu_5x5
I0403 18:04:12.857266  6544 net.cpp:425] inception_4b/relu_5x5 <- inception_4b/5x5
I0403 18:04:12.857305  6544 net.cpp:386] inception_4b/relu_5x5 -> inception_4b/5x5 (in-place)
I0403 18:04:12.857621  6544 net.cpp:141] Setting up inception_4b/relu_5x5
I0403 18:04:12.857650  6544 net.cpp:148] Top shape: 24 64 14 14 (301056)
I0403 18:04:12.857666  6544 net.cpp:156] Memory required for data: 968181024
I0403 18:04:12.857681  6544 layer_factory.hpp:77] Creating layer inception_4b/pool
I0403 18:04:12.857702  6544 net.cpp:91] Creating Layer inception_4b/pool
I0403 18:04:12.857717  6544 net.cpp:425] inception_4b/pool <- inception_4a/output_inception_4a/output_0_split_4
I0403 18:04:12.857739  6544 net.cpp:399] inception_4b/pool -> inception_4b/pool
I0403 18:04:12.857805  6544 net.cpp:141] Setting up inception_4b/pool
I0403 18:04:12.857830  6544 net.cpp:148] Top shape: 24 512 14 14 (2408448)
I0403 18:04:12.857844  6544 net.cpp:156] Memory required for data: 977814816
I0403 18:04:12.857861  6544 layer_factory.hpp:77] Creating layer inception_4b/pool_proj
I0403 18:04:12.857887  6544 net.cpp:91] Creating Layer inception_4b/pool_proj
I0403 18:04:12.857903  6544 net.cpp:425] inception_4b/pool_proj <- inception_4b/pool
I0403 18:04:12.857923  6544 net.cpp:399] inception_4b/pool_proj -> inception_4b/pool_proj
I0403 18:04:12.859212  6544 net.cpp:141] Setting up inception_4b/pool_proj
I0403 18:04:12.859241  6544 net.cpp:148] Top shape: 24 64 14 14 (301056)
I0403 18:04:12.859257  6544 net.cpp:156] Memory required for data: 979019040
I0403 18:04:12.859280  6544 layer_factory.hpp:77] Creating layer inception_4b/relu_pool_proj
I0403 18:04:12.859313  6544 net.cpp:91] Creating Layer inception_4b/relu_pool_proj
I0403 18:04:12.859331  6544 net.cpp:425] inception_4b/relu_pool_proj <- inception_4b/pool_proj
I0403 18:04:12.859352  6544 net.cpp:386] inception_4b/relu_pool_proj -> inception_4b/pool_proj (in-place)
I0403 18:04:12.859549  6544 net.cpp:141] Setting up inception_4b/relu_pool_proj
I0403 18:04:12.859588  6544 net.cpp:148] Top shape: 24 64 14 14 (301056)
I0403 18:04:12.859604  6544 net.cpp:156] Memory required for data: 980223264
I0403 18:04:12.859619  6544 layer_factory.hpp:77] Creating layer inception_4b/output
I0403 18:04:12.859642  6544 net.cpp:91] Creating Layer inception_4b/output
I0403 18:04:12.859658  6544 net.cpp:425] inception_4b/output <- inception_4b/1x1
I0403 18:04:12.859676  6544 net.cpp:425] inception_4b/output <- inception_4b/3x3
I0403 18:04:12.859694  6544 net.cpp:425] inception_4b/output <- inception_4b/5x5
I0403 18:04:12.859709  6544 net.cpp:425] inception_4b/output <- inception_4b/pool_proj
I0403 18:04:12.859726  6544 net.cpp:399] inception_4b/output -> inception_4b/output
I0403 18:04:12.859776  6544 net.cpp:141] Setting up inception_4b/output
I0403 18:04:12.859799  6544 net.cpp:148] Top shape: 24 512 14 14 (2408448)
I0403 18:04:12.859814  6544 net.cpp:156] Memory required for data: 989857056
I0403 18:04:12.859844  6544 layer_factory.hpp:77] Creating layer inception_4b/output_inception_4b/output_0_split
I0403 18:04:12.859863  6544 net.cpp:91] Creating Layer inception_4b/output_inception_4b/output_0_split
I0403 18:04:12.859879  6544 net.cpp:425] inception_4b/output_inception_4b/output_0_split <- inception_4b/output
I0403 18:04:12.859901  6544 net.cpp:399] inception_4b/output_inception_4b/output_0_split -> inception_4b/output_inception_4b/output_0_split_0
I0403 18:04:12.859925  6544 net.cpp:399] inception_4b/output_inception_4b/output_0_split -> inception_4b/output_inception_4b/output_0_split_1
I0403 18:04:12.859946  6544 net.cpp:399] inception_4b/output_inception_4b/output_0_split -> inception_4b/output_inception_4b/output_0_split_2
I0403 18:04:12.859967  6544 net.cpp:399] inception_4b/output_inception_4b/output_0_split -> inception_4b/output_inception_4b/output_0_split_3
I0403 18:04:12.860055  6544 net.cpp:141] Setting up inception_4b/output_inception_4b/output_0_split
I0403 18:04:12.860079  6544 net.cpp:148] Top shape: 24 512 14 14 (2408448)
I0403 18:04:12.860095  6544 net.cpp:148] Top shape: 24 512 14 14 (2408448)
I0403 18:04:12.860111  6544 net.cpp:148] Top shape: 24 512 14 14 (2408448)
I0403 18:04:12.860127  6544 net.cpp:148] Top shape: 24 512 14 14 (2408448)
I0403 18:04:12.860142  6544 net.cpp:156] Memory required for data: 1028392224
I0403 18:04:12.860158  6544 layer_factory.hpp:77] Creating layer inception_4c/1x1
I0403 18:04:12.860183  6544 net.cpp:91] Creating Layer inception_4c/1x1
I0403 18:04:12.860200  6544 net.cpp:425] inception_4c/1x1 <- inception_4b/output_inception_4b/output_0_split_0
I0403 18:04:12.860222  6544 net.cpp:399] inception_4c/1x1 -> inception_4c/1x1
I0403 18:04:12.861786  6544 net.cpp:141] Setting up inception_4c/1x1
I0403 18:04:12.861815  6544 net.cpp:148] Top shape: 24 128 14 14 (602112)
I0403 18:04:12.861835  6544 net.cpp:156] Memory required for data: 1030800672
I0403 18:04:12.861855  6544 layer_factory.hpp:77] Creating layer inception_4c/relu_1x1
I0403 18:04:12.861873  6544 net.cpp:91] Creating Layer inception_4c/relu_1x1
I0403 18:04:12.861891  6544 net.cpp:425] inception_4c/relu_1x1 <- inception_4c/1x1
I0403 18:04:12.861907  6544 net.cpp:386] inception_4c/relu_1x1 -> inception_4c/1x1 (in-place)
I0403 18:04:12.862103  6544 net.cpp:141] Setting up inception_4c/relu_1x1
I0403 18:04:12.862131  6544 net.cpp:148] Top shape: 24 128 14 14 (602112)
I0403 18:04:12.862146  6544 net.cpp:156] Memory required for data: 1033209120
I0403 18:04:12.862164  6544 layer_factory.hpp:77] Creating layer inception_4c/3x3_reduce
I0403 18:04:12.862186  6544 net.cpp:91] Creating Layer inception_4c/3x3_reduce
I0403 18:04:12.862205  6544 net.cpp:425] inception_4c/3x3_reduce <- inception_4b/output_inception_4b/output_0_split_1
I0403 18:04:12.862223  6544 net.cpp:399] inception_4c/3x3_reduce -> inception_4c/3x3_reduce
I0403 18:04:12.864372  6544 net.cpp:141] Setting up inception_4c/3x3_reduce
I0403 18:04:12.864405  6544 net.cpp:148] Top shape: 24 128 14 14 (602112)
I0403 18:04:12.864423  6544 net.cpp:156] Memory required for data: 1035617568
I0403 18:04:12.864444  6544 layer_factory.hpp:77] Creating layer inception_4c/relu_3x3_reduce
I0403 18:04:12.864464  6544 net.cpp:91] Creating Layer inception_4c/relu_3x3_reduce
I0403 18:04:12.864480  6544 net.cpp:425] inception_4c/relu_3x3_reduce <- inception_4c/3x3_reduce
I0403 18:04:12.864502  6544 net.cpp:386] inception_4c/relu_3x3_reduce -> inception_4c/3x3_reduce (in-place)
I0403 18:04:12.864815  6544 net.cpp:141] Setting up inception_4c/relu_3x3_reduce
I0403 18:04:12.864845  6544 net.cpp:148] Top shape: 24 128 14 14 (602112)
I0403 18:04:12.864861  6544 net.cpp:156] Memory required for data: 1038026016
I0403 18:04:12.864877  6544 layer_factory.hpp:77] Creating layer inception_4c/3x3
I0403 18:04:12.864902  6544 net.cpp:91] Creating Layer inception_4c/3x3
I0403 18:04:12.864920  6544 net.cpp:425] inception_4c/3x3 <- inception_4c/3x3_reduce
I0403 18:04:12.864948  6544 net.cpp:399] inception_4c/3x3 -> inception_4c/3x3
I0403 18:04:12.868763  6544 net.cpp:141] Setting up inception_4c/3x3
I0403 18:04:12.868808  6544 net.cpp:148] Top shape: 24 256 14 14 (1204224)
I0403 18:04:12.868825  6544 net.cpp:156] Memory required for data: 1042842912
I0403 18:04:12.868860  6544 layer_factory.hpp:77] Creating layer inception_4c/relu_3x3
I0403 18:04:12.868881  6544 net.cpp:91] Creating Layer inception_4c/relu_3x3
I0403 18:04:12.868898  6544 net.cpp:425] inception_4c/relu_3x3 <- inception_4c/3x3
I0403 18:04:12.868919  6544 net.cpp:386] inception_4c/relu_3x3 -> inception_4c/3x3 (in-place)
I0403 18:04:12.869114  6544 net.cpp:141] Setting up inception_4c/relu_3x3
I0403 18:04:12.869140  6544 net.cpp:148] Top shape: 24 256 14 14 (1204224)
I0403 18:04:12.869155  6544 net.cpp:156] Memory required for data: 1047659808
I0403 18:04:12.869171  6544 layer_factory.hpp:77] Creating layer inception_4c/5x5_reduce
I0403 18:04:12.869195  6544 net.cpp:91] Creating Layer inception_4c/5x5_reduce
I0403 18:04:12.869212  6544 net.cpp:425] inception_4c/5x5_reduce <- inception_4b/output_inception_4b/output_0_split_2
I0403 18:04:12.869236  6544 net.cpp:399] inception_4c/5x5_reduce -> inception_4c/5x5_reduce
I0403 18:04:12.870378  6544 net.cpp:141] Setting up inception_4c/5x5_reduce
I0403 18:04:12.870407  6544 net.cpp:148] Top shape: 24 24 14 14 (112896)
I0403 18:04:12.870424  6544 net.cpp:156] Memory required for data: 1048111392
I0403 18:04:12.870442  6544 layer_factory.hpp:77] Creating layer inception_4c/relu_5x5_reduce
I0403 18:04:12.870465  6544 net.cpp:91] Creating Layer inception_4c/relu_5x5_reduce
I0403 18:04:12.870481  6544 net.cpp:425] inception_4c/relu_5x5_reduce <- inception_4c/5x5_reduce
I0403 18:04:12.870501  6544 net.cpp:386] inception_4c/relu_5x5_reduce -> inception_4c/5x5_reduce (in-place)
I0403 18:04:12.870697  6544 net.cpp:141] Setting up inception_4c/relu_5x5_reduce
I0403 18:04:12.870721  6544 net.cpp:148] Top shape: 24 24 14 14 (112896)
I0403 18:04:12.870738  6544 net.cpp:156] Memory required for data: 1048562976
I0403 18:04:12.870754  6544 layer_factory.hpp:77] Creating layer inception_4c/5x5
I0403 18:04:12.870776  6544 net.cpp:91] Creating Layer inception_4c/5x5
I0403 18:04:12.870795  6544 net.cpp:425] inception_4c/5x5 <- inception_4c/5x5_reduce
I0403 18:04:12.870817  6544 net.cpp:399] inception_4c/5x5 -> inception_4c/5x5
I0403 18:04:12.872139  6544 net.cpp:141] Setting up inception_4c/5x5
I0403 18:04:12.872169  6544 net.cpp:148] Top shape: 24 64 14 14 (301056)
I0403 18:04:12.872184  6544 net.cpp:156] Memory required for data: 1049767200
I0403 18:04:12.872203  6544 layer_factory.hpp:77] Creating layer inception_4c/relu_5x5
I0403 18:04:12.872225  6544 net.cpp:91] Creating Layer inception_4c/relu_5x5
I0403 18:04:12.872241  6544 net.cpp:425] inception_4c/relu_5x5 <- inception_4c/5x5
I0403 18:04:12.872259  6544 net.cpp:386] inception_4c/relu_5x5 -> inception_4c/5x5 (in-place)
I0403 18:04:12.872571  6544 net.cpp:141] Setting up inception_4c/relu_5x5
I0403 18:04:12.872598  6544 net.cpp:148] Top shape: 24 64 14 14 (301056)
I0403 18:04:12.872614  6544 net.cpp:156] Memory required for data: 1050971424
I0403 18:04:12.872629  6544 layer_factory.hpp:77] Creating layer inception_4c/pool
I0403 18:04:12.872650  6544 net.cpp:91] Creating Layer inception_4c/pool
I0403 18:04:12.872668  6544 net.cpp:425] inception_4c/pool <- inception_4b/output_inception_4b/output_0_split_3
I0403 18:04:12.872687  6544 net.cpp:399] inception_4c/pool -> inception_4c/pool
I0403 18:04:12.872756  6544 net.cpp:141] Setting up inception_4c/pool
I0403 18:04:12.872779  6544 net.cpp:148] Top shape: 24 512 14 14 (2408448)
I0403 18:04:12.872794  6544 net.cpp:156] Memory required for data: 1060605216
I0403 18:04:12.872810  6544 layer_factory.hpp:77] Creating layer inception_4c/pool_proj
I0403 18:04:12.872833  6544 net.cpp:91] Creating Layer inception_4c/pool_proj
I0403 18:04:12.872851  6544 net.cpp:425] inception_4c/pool_proj <- inception_4c/pool
I0403 18:04:12.872874  6544 net.cpp:399] inception_4c/pool_proj -> inception_4c/pool_proj
I0403 18:04:12.874146  6544 net.cpp:141] Setting up inception_4c/pool_proj
I0403 18:04:12.874176  6544 net.cpp:148] Top shape: 24 64 14 14 (301056)
I0403 18:04:12.874218  6544 net.cpp:156] Memory required for data: 1061809440
I0403 18:04:12.874239  6544 layer_factory.hpp:77] Creating layer inception_4c/relu_pool_proj
I0403 18:04:12.874259  6544 net.cpp:91] Creating Layer inception_4c/relu_pool_proj
I0403 18:04:12.874281  6544 net.cpp:425] inception_4c/relu_pool_proj <- inception_4c/pool_proj
I0403 18:04:12.874305  6544 net.cpp:386] inception_4c/relu_pool_proj -> inception_4c/pool_proj (in-place)
I0403 18:04:12.874521  6544 net.cpp:141] Setting up inception_4c/relu_pool_proj
I0403 18:04:12.874547  6544 net.cpp:148] Top shape: 24 64 14 14 (301056)
I0403 18:04:12.874562  6544 net.cpp:156] Memory required for data: 1063013664
I0403 18:04:12.874578  6544 layer_factory.hpp:77] Creating layer inception_4c/output
I0403 18:04:12.874598  6544 net.cpp:91] Creating Layer inception_4c/output
I0403 18:04:12.874615  6544 net.cpp:425] inception_4c/output <- inception_4c/1x1
I0403 18:04:12.874632  6544 net.cpp:425] inception_4c/output <- inception_4c/3x3
I0403 18:04:12.874649  6544 net.cpp:425] inception_4c/output <- inception_4c/5x5
I0403 18:04:12.874666  6544 net.cpp:425] inception_4c/output <- inception_4c/pool_proj
I0403 18:04:12.874683  6544 net.cpp:399] inception_4c/output -> inception_4c/output
I0403 18:04:12.874733  6544 net.cpp:141] Setting up inception_4c/output
I0403 18:04:12.874758  6544 net.cpp:148] Top shape: 24 512 14 14 (2408448)
I0403 18:04:12.874771  6544 net.cpp:156] Memory required for data: 1072647456
I0403 18:04:12.874786  6544 layer_factory.hpp:77] Creating layer inception_4c/output_inception_4c/output_0_split
I0403 18:04:12.874804  6544 net.cpp:91] Creating Layer inception_4c/output_inception_4c/output_0_split
I0403 18:04:12.874819  6544 net.cpp:425] inception_4c/output_inception_4c/output_0_split <- inception_4c/output
I0403 18:04:12.874840  6544 net.cpp:399] inception_4c/output_inception_4c/output_0_split -> inception_4c/output_inception_4c/output_0_split_0
I0403 18:04:12.874861  6544 net.cpp:399] inception_4c/output_inception_4c/output_0_split -> inception_4c/output_inception_4c/output_0_split_1
I0403 18:04:12.874882  6544 net.cpp:399] inception_4c/output_inception_4c/output_0_split -> inception_4c/output_inception_4c/output_0_split_2
I0403 18:04:12.874902  6544 net.cpp:399] inception_4c/output_inception_4c/output_0_split -> inception_4c/output_inception_4c/output_0_split_3
I0403 18:04:12.874989  6544 net.cpp:141] Setting up inception_4c/output_inception_4c/output_0_split
I0403 18:04:12.875013  6544 net.cpp:148] Top shape: 24 512 14 14 (2408448)
I0403 18:04:12.875030  6544 net.cpp:148] Top shape: 24 512 14 14 (2408448)
I0403 18:04:12.875047  6544 net.cpp:148] Top shape: 24 512 14 14 (2408448)
I0403 18:04:12.875063  6544 net.cpp:148] Top shape: 24 512 14 14 (2408448)
I0403 18:04:12.875077  6544 net.cpp:156] Memory required for data: 1111182624
I0403 18:04:12.875092  6544 layer_factory.hpp:77] Creating layer inception_4d/1x1
I0403 18:04:12.875116  6544 net.cpp:91] Creating Layer inception_4d/1x1
I0403 18:04:12.875135  6544 net.cpp:425] inception_4d/1x1 <- inception_4c/output_inception_4c/output_0_split_0
I0403 18:04:12.875157  6544 net.cpp:399] inception_4d/1x1 -> inception_4d/1x1
I0403 18:04:12.876636  6544 net.cpp:141] Setting up inception_4d/1x1
I0403 18:04:12.876667  6544 net.cpp:148] Top shape: 24 112 14 14 (526848)
I0403 18:04:12.876684  6544 net.cpp:156] Memory required for data: 1113290016
I0403 18:04:12.876703  6544 layer_factory.hpp:77] Creating layer inception_4d/relu_1x1
I0403 18:04:12.876723  6544 net.cpp:91] Creating Layer inception_4d/relu_1x1
I0403 18:04:12.876739  6544 net.cpp:425] inception_4d/relu_1x1 <- inception_4d/1x1
I0403 18:04:12.876756  6544 net.cpp:386] inception_4d/relu_1x1 -> inception_4d/1x1 (in-place)
I0403 18:04:12.876953  6544 net.cpp:141] Setting up inception_4d/relu_1x1
I0403 18:04:12.876978  6544 net.cpp:148] Top shape: 24 112 14 14 (526848)
I0403 18:04:12.876993  6544 net.cpp:156] Memory required for data: 1115397408
I0403 18:04:12.877009  6544 layer_factory.hpp:77] Creating layer inception_4d/3x3_reduce
I0403 18:04:12.877048  6544 net.cpp:91] Creating Layer inception_4d/3x3_reduce
I0403 18:04:12.877066  6544 net.cpp:425] inception_4d/3x3_reduce <- inception_4c/output_inception_4c/output_0_split_1
I0403 18:04:12.877089  6544 net.cpp:399] inception_4d/3x3_reduce -> inception_4d/3x3_reduce
I0403 18:04:12.878695  6544 net.cpp:141] Setting up inception_4d/3x3_reduce
I0403 18:04:12.878722  6544 net.cpp:148] Top shape: 24 144 14 14 (677376)
I0403 18:04:12.878737  6544 net.cpp:156] Memory required for data: 1118106912
I0403 18:04:12.878756  6544 layer_factory.hpp:77] Creating layer inception_4d/relu_3x3_reduce
I0403 18:04:12.878778  6544 net.cpp:91] Creating Layer inception_4d/relu_3x3_reduce
I0403 18:04:12.878795  6544 net.cpp:425] inception_4d/relu_3x3_reduce <- inception_4d/3x3_reduce
I0403 18:04:12.878814  6544 net.cpp:386] inception_4d/relu_3x3_reduce -> inception_4d/3x3_reduce (in-place)
I0403 18:04:12.879120  6544 net.cpp:141] Setting up inception_4d/relu_3x3_reduce
I0403 18:04:12.879148  6544 net.cpp:148] Top shape: 24 144 14 14 (677376)
I0403 18:04:12.879164  6544 net.cpp:156] Memory required for data: 1120816416
I0403 18:04:12.879179  6544 layer_factory.hpp:77] Creating layer inception_4d/3x3
I0403 18:04:12.879204  6544 net.cpp:91] Creating Layer inception_4d/3x3
I0403 18:04:12.879221  6544 net.cpp:425] inception_4d/3x3 <- inception_4d/3x3_reduce
I0403 18:04:12.879242  6544 net.cpp:399] inception_4d/3x3 -> inception_4d/3x3
I0403 18:04:12.883877  6544 net.cpp:141] Setting up inception_4d/3x3
I0403 18:04:12.883913  6544 net.cpp:148] Top shape: 24 288 14 14 (1354752)
I0403 18:04:12.883929  6544 net.cpp:156] Memory required for data: 1126235424
I0403 18:04:12.883950  6544 layer_factory.hpp:77] Creating layer inception_4d/relu_3x3
I0403 18:04:12.883970  6544 net.cpp:91] Creating Layer inception_4d/relu_3x3
I0403 18:04:12.883986  6544 net.cpp:425] inception_4d/relu_3x3 <- inception_4d/3x3
I0403 18:04:12.884007  6544 net.cpp:386] inception_4d/relu_3x3 -> inception_4d/3x3 (in-place)
I0403 18:04:12.884207  6544 net.cpp:141] Setting up inception_4d/relu_3x3
I0403 18:04:12.884233  6544 net.cpp:148] Top shape: 24 288 14 14 (1354752)
I0403 18:04:12.884249  6544 net.cpp:156] Memory required for data: 1131654432
I0403 18:04:12.884264  6544 layer_factory.hpp:77] Creating layer inception_4d/5x5_reduce
I0403 18:04:12.884294  6544 net.cpp:91] Creating Layer inception_4d/5x5_reduce
I0403 18:04:12.884315  6544 net.cpp:425] inception_4d/5x5_reduce <- inception_4c/output_inception_4c/output_0_split_2
I0403 18:04:12.884337  6544 net.cpp:399] inception_4d/5x5_reduce -> inception_4d/5x5_reduce
I0403 18:04:12.885566  6544 net.cpp:141] Setting up inception_4d/5x5_reduce
I0403 18:04:12.885599  6544 net.cpp:148] Top shape: 24 32 14 14 (150528)
I0403 18:04:12.885617  6544 net.cpp:156] Memory required for data: 1132256544
I0403 18:04:12.885637  6544 layer_factory.hpp:77] Creating layer inception_4d/relu_5x5_reduce
I0403 18:04:12.885658  6544 net.cpp:91] Creating Layer inception_4d/relu_5x5_reduce
I0403 18:04:12.885674  6544 net.cpp:425] inception_4d/relu_5x5_reduce <- inception_4d/5x5_reduce
I0403 18:04:12.885695  6544 net.cpp:386] inception_4d/relu_5x5_reduce -> inception_4d/5x5_reduce (in-place)
I0403 18:04:12.885900  6544 net.cpp:141] Setting up inception_4d/relu_5x5_reduce
I0403 18:04:12.885926  6544 net.cpp:148] Top shape: 24 32 14 14 (150528)
I0403 18:04:12.885942  6544 net.cpp:156] Memory required for data: 1132858656
I0403 18:04:12.885958  6544 layer_factory.hpp:77] Creating layer inception_4d/5x5
I0403 18:04:12.885982  6544 net.cpp:91] Creating Layer inception_4d/5x5
I0403 18:04:12.886001  6544 net.cpp:425] inception_4d/5x5 <- inception_4d/5x5_reduce
I0403 18:04:12.886023  6544 net.cpp:399] inception_4d/5x5 -> inception_4d/5x5
I0403 18:04:12.887608  6544 net.cpp:141] Setting up inception_4d/5x5
I0403 18:04:12.887637  6544 net.cpp:148] Top shape: 24 64 14 14 (301056)
I0403 18:04:12.887655  6544 net.cpp:156] Memory required for data: 1134062880
I0403 18:04:12.887676  6544 layer_factory.hpp:77] Creating layer inception_4d/relu_5x5
I0403 18:04:12.887713  6544 net.cpp:91] Creating Layer inception_4d/relu_5x5
I0403 18:04:12.887733  6544 net.cpp:425] inception_4d/relu_5x5 <- inception_4d/5x5
I0403 18:04:12.887751  6544 net.cpp:386] inception_4d/relu_5x5 -> inception_4d/5x5 (in-place)
I0403 18:04:12.888070  6544 net.cpp:141] Setting up inception_4d/relu_5x5
I0403 18:04:12.888098  6544 net.cpp:148] Top shape: 24 64 14 14 (301056)
I0403 18:04:12.888114  6544 net.cpp:156] Memory required for data: 1135267104
I0403 18:04:12.888130  6544 layer_factory.hpp:77] Creating layer inception_4d/pool
I0403 18:04:12.888152  6544 net.cpp:91] Creating Layer inception_4d/pool
I0403 18:04:12.888171  6544 net.cpp:425] inception_4d/pool <- inception_4c/output_inception_4c/output_0_split_3
I0403 18:04:12.888190  6544 net.cpp:399] inception_4d/pool -> inception_4d/pool
I0403 18:04:12.888263  6544 net.cpp:141] Setting up inception_4d/pool
I0403 18:04:12.888294  6544 net.cpp:148] Top shape: 24 512 14 14 (2408448)
I0403 18:04:12.888310  6544 net.cpp:156] Memory required for data: 1144900896
I0403 18:04:12.888325  6544 layer_factory.hpp:77] Creating layer inception_4d/pool_proj
I0403 18:04:12.888350  6544 net.cpp:91] Creating Layer inception_4d/pool_proj
I0403 18:04:12.888370  6544 net.cpp:425] inception_4d/pool_proj <- inception_4d/pool
I0403 18:04:12.888392  6544 net.cpp:399] inception_4d/pool_proj -> inception_4d/pool_proj
I0403 18:04:12.890295  6544 net.cpp:141] Setting up inception_4d/pool_proj
I0403 18:04:12.890331  6544 net.cpp:148] Top shape: 24 64 14 14 (301056)
I0403 18:04:12.890348  6544 net.cpp:156] Memory required for data: 1146105120
I0403 18:04:12.890368  6544 layer_factory.hpp:77] Creating layer inception_4d/relu_pool_proj
I0403 18:04:12.890388  6544 net.cpp:91] Creating Layer inception_4d/relu_pool_proj
I0403 18:04:12.890405  6544 net.cpp:425] inception_4d/relu_pool_proj <- inception_4d/pool_proj
I0403 18:04:12.890427  6544 net.cpp:386] inception_4d/relu_pool_proj -> inception_4d/pool_proj (in-place)
I0403 18:04:12.890630  6544 net.cpp:141] Setting up inception_4d/relu_pool_proj
I0403 18:04:12.890656  6544 net.cpp:148] Top shape: 24 64 14 14 (301056)
I0403 18:04:12.890672  6544 net.cpp:156] Memory required for data: 1147309344
I0403 18:04:12.890688  6544 layer_factory.hpp:77] Creating layer inception_4d/output
I0403 18:04:12.890707  6544 net.cpp:91] Creating Layer inception_4d/output
I0403 18:04:12.890724  6544 net.cpp:425] inception_4d/output <- inception_4d/1x1
I0403 18:04:12.890741  6544 net.cpp:425] inception_4d/output <- inception_4d/3x3
I0403 18:04:12.890759  6544 net.cpp:425] inception_4d/output <- inception_4d/5x5
I0403 18:04:12.890776  6544 net.cpp:425] inception_4d/output <- inception_4d/pool_proj
I0403 18:04:12.890796  6544 net.cpp:399] inception_4d/output -> inception_4d/output
I0403 18:04:12.890846  6544 net.cpp:141] Setting up inception_4d/output
I0403 18:04:12.890874  6544 net.cpp:148] Top shape: 24 528 14 14 (2483712)
I0403 18:04:12.890889  6544 net.cpp:156] Memory required for data: 1157244192
I0403 18:04:12.890905  6544 layer_factory.hpp:77] Creating layer inception_4d/output_inception_4d/output_0_split
I0403 18:04:12.890924  6544 net.cpp:91] Creating Layer inception_4d/output_inception_4d/output_0_split
I0403 18:04:12.890941  6544 net.cpp:425] inception_4d/output_inception_4d/output_0_split <- inception_4d/output
I0403 18:04:12.890964  6544 net.cpp:399] inception_4d/output_inception_4d/output_0_split -> inception_4d/output_inception_4d/output_0_split_0
I0403 18:04:12.890986  6544 net.cpp:399] inception_4d/output_inception_4d/output_0_split -> inception_4d/output_inception_4d/output_0_split_1
I0403 18:04:12.891008  6544 net.cpp:399] inception_4d/output_inception_4d/output_0_split -> inception_4d/output_inception_4d/output_0_split_2
I0403 18:04:12.891031  6544 net.cpp:399] inception_4d/output_inception_4d/output_0_split -> inception_4d/output_inception_4d/output_0_split_3
I0403 18:04:12.891052  6544 net.cpp:399] inception_4d/output_inception_4d/output_0_split -> inception_4d/output_inception_4d/output_0_split_4
I0403 18:04:12.891163  6544 net.cpp:141] Setting up inception_4d/output_inception_4d/output_0_split
I0403 18:04:12.891204  6544 net.cpp:148] Top shape: 24 528 14 14 (2483712)
I0403 18:04:12.891222  6544 net.cpp:148] Top shape: 24 528 14 14 (2483712)
I0403 18:04:12.891239  6544 net.cpp:148] Top shape: 24 528 14 14 (2483712)
I0403 18:04:12.891255  6544 net.cpp:148] Top shape: 24 528 14 14 (2483712)
I0403 18:04:12.891278  6544 net.cpp:148] Top shape: 24 528 14 14 (2483712)
I0403 18:04:12.891294  6544 net.cpp:156] Memory required for data: 1206918432
I0403 18:04:12.891309  6544 layer_factory.hpp:77] Creating layer loss2/ave_pool
I0403 18:04:12.891329  6544 net.cpp:91] Creating Layer loss2/ave_pool
I0403 18:04:12.891345  6544 net.cpp:425] loss2/ave_pool <- inception_4d/output_inception_4d/output_0_split_0
I0403 18:04:12.891366  6544 net.cpp:399] loss2/ave_pool -> loss2/ave_pool
I0403 18:04:12.891700  6544 net.cpp:141] Setting up loss2/ave_pool
I0403 18:04:12.891731  6544 net.cpp:148] Top shape: 24 528 4 4 (202752)
I0403 18:04:12.891749  6544 net.cpp:156] Memory required for data: 1207729440
I0403 18:04:12.891767  6544 layer_factory.hpp:77] Creating layer loss2/conv
I0403 18:04:12.891790  6544 net.cpp:91] Creating Layer loss2/conv
I0403 18:04:12.891808  6544 net.cpp:425] loss2/conv <- loss2/ave_pool
I0403 18:04:12.891829  6544 net.cpp:399] loss2/conv -> loss2/conv
I0403 18:04:12.893908  6544 net.cpp:141] Setting up loss2/conv
I0403 18:04:12.893939  6544 net.cpp:148] Top shape: 24 128 4 4 (49152)
I0403 18:04:12.893956  6544 net.cpp:156] Memory required for data: 1207926048
I0403 18:04:12.893975  6544 layer_factory.hpp:77] Creating layer loss2/relu_conv
I0403 18:04:12.893997  6544 net.cpp:91] Creating Layer loss2/relu_conv
I0403 18:04:12.894016  6544 net.cpp:425] loss2/relu_conv <- loss2/conv
I0403 18:04:12.894034  6544 net.cpp:386] loss2/relu_conv -> loss2/conv (in-place)
I0403 18:04:12.894348  6544 net.cpp:141] Setting up loss2/relu_conv
I0403 18:04:12.894376  6544 net.cpp:148] Top shape: 24 128 4 4 (49152)
I0403 18:04:12.894392  6544 net.cpp:156] Memory required for data: 1208122656
I0403 18:04:12.894407  6544 layer_factory.hpp:77] Creating layer loss2/fc
I0403 18:04:12.894430  6544 net.cpp:91] Creating Layer loss2/fc
I0403 18:04:12.894448  6544 net.cpp:425] loss2/fc <- loss2/conv
I0403 18:04:12.894469  6544 net.cpp:399] loss2/fc -> loss2/fc
I0403 18:04:12.912794  6544 net.cpp:141] Setting up loss2/fc
I0403 18:04:12.912832  6544 net.cpp:148] Top shape: 24 1024 (24576)
I0403 18:04:12.912847  6544 net.cpp:156] Memory required for data: 1208220960
I0403 18:04:12.912865  6544 layer_factory.hpp:77] Creating layer loss2/relu_fc
I0403 18:04:12.912883  6544 net.cpp:91] Creating Layer loss2/relu_fc
I0403 18:04:12.912900  6544 net.cpp:425] loss2/relu_fc <- loss2/fc
I0403 18:04:12.912920  6544 net.cpp:386] loss2/relu_fc -> loss2/fc (in-place)
I0403 18:04:12.913239  6544 net.cpp:141] Setting up loss2/relu_fc
I0403 18:04:12.913266  6544 net.cpp:148] Top shape: 24 1024 (24576)
I0403 18:04:12.913286  6544 net.cpp:156] Memory required for data: 1208319264
I0403 18:04:12.913301  6544 layer_factory.hpp:77] Creating layer loss2/drop_fc
I0403 18:04:12.913319  6544 net.cpp:91] Creating Layer loss2/drop_fc
I0403 18:04:12.913336  6544 net.cpp:425] loss2/drop_fc <- loss2/fc
I0403 18:04:12.913357  6544 net.cpp:386] loss2/drop_fc -> loss2/fc (in-place)
I0403 18:04:12.913406  6544 net.cpp:141] Setting up loss2/drop_fc
I0403 18:04:12.913431  6544 net.cpp:148] Top shape: 24 1024 (24576)
I0403 18:04:12.913446  6544 net.cpp:156] Memory required for data: 1208417568
I0403 18:04:12.913461  6544 layer_factory.hpp:77] Creating layer loss2/classifier_plantvillage
I0403 18:04:12.913480  6544 net.cpp:91] Creating Layer loss2/classifier_plantvillage
I0403 18:04:12.913496  6544 net.cpp:425] loss2/classifier_plantvillage <- loss2/fc
I0403 18:04:12.913517  6544 net.cpp:399] loss2/classifier_plantvillage -> loss2/classifier_plantvillage
I0403 18:04:12.913929  6544 net.cpp:141] Setting up loss2/classifier_plantvillage
I0403 18:04:12.913954  6544 net.cpp:148] Top shape: 24 38 (912)
I0403 18:04:12.913988  6544 net.cpp:156] Memory required for data: 1208421216
I0403 18:04:12.914008  6544 layer_factory.hpp:77] Creating layer loss2/classifier_plantvillage_loss2/classifier_plantvillage_0_split
I0403 18:04:12.914028  6544 net.cpp:91] Creating Layer loss2/classifier_plantvillage_loss2/classifier_plantvillage_0_split
I0403 18:04:12.914047  6544 net.cpp:425] loss2/classifier_plantvillage_loss2/classifier_plantvillage_0_split <- loss2/classifier_plantvillage
I0403 18:04:12.914065  6544 net.cpp:399] loss2/classifier_plantvillage_loss2/classifier_plantvillage_0_split -> loss2/classifier_plantvillage_loss2/classifier_plantvillage_0_split_0
I0403 18:04:12.914085  6544 net.cpp:399] loss2/classifier_plantvillage_loss2/classifier_plantvillage_0_split -> loss2/classifier_plantvillage_loss2/classifier_plantvillage_0_split_1
I0403 18:04:12.914106  6544 net.cpp:399] loss2/classifier_plantvillage_loss2/classifier_plantvillage_0_split -> loss2/classifier_plantvillage_loss2/classifier_plantvillage_0_split_2
I0403 18:04:12.914188  6544 net.cpp:141] Setting up loss2/classifier_plantvillage_loss2/classifier_plantvillage_0_split
I0403 18:04:12.914211  6544 net.cpp:148] Top shape: 24 38 (912)
I0403 18:04:12.914227  6544 net.cpp:148] Top shape: 24 38 (912)
I0403 18:04:12.914243  6544 net.cpp:148] Top shape: 24 38 (912)
I0403 18:04:12.914258  6544 net.cpp:156] Memory required for data: 1208432160
I0403 18:04:12.914276  6544 layer_factory.hpp:77] Creating layer inception_4e/1x1
I0403 18:04:12.914301  6544 net.cpp:91] Creating Layer inception_4e/1x1
I0403 18:04:12.914320  6544 net.cpp:425] inception_4e/1x1 <- inception_4d/output_inception_4d/output_0_split_1
I0403 18:04:12.914338  6544 net.cpp:399] inception_4e/1x1 -> inception_4e/1x1
I0403 18:04:12.916167  6544 net.cpp:141] Setting up inception_4e/1x1
I0403 18:04:12.916193  6544 net.cpp:148] Top shape: 24 256 14 14 (1204224)
I0403 18:04:12.916209  6544 net.cpp:156] Memory required for data: 1213249056
I0403 18:04:12.916240  6544 layer_factory.hpp:77] Creating layer inception_4e/relu_1x1
I0403 18:04:12.916261  6544 net.cpp:91] Creating Layer inception_4e/relu_1x1
I0403 18:04:12.916285  6544 net.cpp:425] inception_4e/relu_1x1 <- inception_4e/1x1
I0403 18:04:12.916302  6544 net.cpp:386] inception_4e/relu_1x1 -> inception_4e/1x1 (in-place)
I0403 18:04:12.916618  6544 net.cpp:141] Setting up inception_4e/relu_1x1
I0403 18:04:12.916645  6544 net.cpp:148] Top shape: 24 256 14 14 (1204224)
I0403 18:04:12.916659  6544 net.cpp:156] Memory required for data: 1218065952
I0403 18:04:12.916676  6544 layer_factory.hpp:77] Creating layer inception_4e/3x3_reduce
I0403 18:04:12.916698  6544 net.cpp:91] Creating Layer inception_4e/3x3_reduce
I0403 18:04:12.916717  6544 net.cpp:425] inception_4e/3x3_reduce <- inception_4d/output_inception_4d/output_0_split_2
I0403 18:04:12.916738  6544 net.cpp:399] inception_4e/3x3_reduce -> inception_4e/3x3_reduce
I0403 18:04:12.918890  6544 net.cpp:141] Setting up inception_4e/3x3_reduce
I0403 18:04:12.918920  6544 net.cpp:148] Top shape: 24 160 14 14 (752640)
I0403 18:04:12.918936  6544 net.cpp:156] Memory required for data: 1221076512
I0403 18:04:12.918954  6544 layer_factory.hpp:77] Creating layer inception_4e/relu_3x3_reduce
I0403 18:04:12.918975  6544 net.cpp:91] Creating Layer inception_4e/relu_3x3_reduce
I0403 18:04:12.918992  6544 net.cpp:425] inception_4e/relu_3x3_reduce <- inception_4e/3x3_reduce
I0403 18:04:12.919009  6544 net.cpp:386] inception_4e/relu_3x3_reduce -> inception_4e/3x3_reduce (in-place)
I0403 18:04:12.919199  6544 net.cpp:141] Setting up inception_4e/relu_3x3_reduce
I0403 18:04:12.919225  6544 net.cpp:148] Top shape: 24 160 14 14 (752640)
I0403 18:04:12.919244  6544 net.cpp:156] Memory required for data: 1224087072
I0403 18:04:12.919260  6544 layer_factory.hpp:77] Creating layer inception_4e/3x3
I0403 18:04:12.919284  6544 net.cpp:91] Creating Layer inception_4e/3x3
I0403 18:04:12.919303  6544 net.cpp:425] inception_4e/3x3 <- inception_4e/3x3_reduce
I0403 18:04:12.919323  6544 net.cpp:399] inception_4e/3x3 -> inception_4e/3x3
I0403 18:04:12.924424  6544 net.cpp:141] Setting up inception_4e/3x3
I0403 18:04:12.924468  6544 net.cpp:148] Top shape: 24 320 14 14 (1505280)
I0403 18:04:12.924485  6544 net.cpp:156] Memory required for data: 1230108192
I0403 18:04:12.924504  6544 layer_factory.hpp:77] Creating layer inception_4e/relu_3x3
I0403 18:04:12.924522  6544 net.cpp:91] Creating Layer inception_4e/relu_3x3
I0403 18:04:12.924538  6544 net.cpp:425] inception_4e/relu_3x3 <- inception_4e/3x3
I0403 18:04:12.924556  6544 net.cpp:386] inception_4e/relu_3x3 -> inception_4e/3x3 (in-place)
I0403 18:04:12.924865  6544 net.cpp:141] Setting up inception_4e/relu_3x3
I0403 18:04:12.924893  6544 net.cpp:148] Top shape: 24 320 14 14 (1505280)
I0403 18:04:12.924909  6544 net.cpp:156] Memory required for data: 1236129312
I0403 18:04:12.924924  6544 layer_factory.hpp:77] Creating layer inception_4e/5x5_reduce
I0403 18:04:12.924948  6544 net.cpp:91] Creating Layer inception_4e/5x5_reduce
I0403 18:04:12.924968  6544 net.cpp:425] inception_4e/5x5_reduce <- inception_4d/output_inception_4d/output_0_split_3
I0403 18:04:12.924988  6544 net.cpp:399] inception_4e/5x5_reduce -> inception_4e/5x5_reduce
I0403 18:04:12.926115  6544 net.cpp:141] Setting up inception_4e/5x5_reduce
I0403 18:04:12.926143  6544 net.cpp:148] Top shape: 24 32 14 14 (150528)
I0403 18:04:12.926158  6544 net.cpp:156] Memory required for data: 1236731424
I0403 18:04:12.926177  6544 layer_factory.hpp:77] Creating layer inception_4e/relu_5x5_reduce
I0403 18:04:12.926198  6544 net.cpp:91] Creating Layer inception_4e/relu_5x5_reduce
I0403 18:04:12.926228  6544 net.cpp:425] inception_4e/relu_5x5_reduce <- inception_4e/5x5_reduce
I0403 18:04:12.926246  6544 net.cpp:386] inception_4e/relu_5x5_reduce -> inception_4e/5x5_reduce (in-place)
I0403 18:04:12.926576  6544 net.cpp:141] Setting up inception_4e/relu_5x5_reduce
I0403 18:04:12.926602  6544 net.cpp:148] Top shape: 24 32 14 14 (150528)
I0403 18:04:12.926617  6544 net.cpp:156] Memory required for data: 1237333536
I0403 18:04:12.926633  6544 layer_factory.hpp:77] Creating layer inception_4e/5x5
I0403 18:04:12.926672  6544 net.cpp:91] Creating Layer inception_4e/5x5
I0403 18:04:12.926692  6544 net.cpp:425] inception_4e/5x5 <- inception_4e/5x5_reduce
I0403 18:04:12.926712  6544 net.cpp:399] inception_4e/5x5 -> inception_4e/5x5
I0403 18:04:12.928581  6544 net.cpp:141] Setting up inception_4e/5x5
I0403 18:04:12.928608  6544 net.cpp:148] Top shape: 24 128 14 14 (602112)
I0403 18:04:12.928624  6544 net.cpp:156] Memory required for data: 1239741984
I0403 18:04:12.928643  6544 layer_factory.hpp:77] Creating layer inception_4e/relu_5x5
I0403 18:04:12.928661  6544 net.cpp:91] Creating Layer inception_4e/relu_5x5
I0403 18:04:12.928678  6544 net.cpp:425] inception_4e/relu_5x5 <- inception_4e/5x5
I0403 18:04:12.928696  6544 net.cpp:386] inception_4e/relu_5x5 -> inception_4e/5x5 (in-place)
I0403 18:04:12.928900  6544 net.cpp:141] Setting up inception_4e/relu_5x5
I0403 18:04:12.928925  6544 net.cpp:148] Top shape: 24 128 14 14 (602112)
I0403 18:04:12.928939  6544 net.cpp:156] Memory required for data: 1242150432
I0403 18:04:12.928954  6544 layer_factory.hpp:77] Creating layer inception_4e/pool
I0403 18:04:12.928975  6544 net.cpp:91] Creating Layer inception_4e/pool
I0403 18:04:12.928992  6544 net.cpp:425] inception_4e/pool <- inception_4d/output_inception_4d/output_0_split_4
I0403 18:04:12.929010  6544 net.cpp:399] inception_4e/pool -> inception_4e/pool
I0403 18:04:12.929082  6544 net.cpp:141] Setting up inception_4e/pool
I0403 18:04:12.929106  6544 net.cpp:148] Top shape: 24 528 14 14 (2483712)
I0403 18:04:12.929121  6544 net.cpp:156] Memory required for data: 1252085280
I0403 18:04:12.929136  6544 layer_factory.hpp:77] Creating layer inception_4e/pool_proj
I0403 18:04:12.929158  6544 net.cpp:91] Creating Layer inception_4e/pool_proj
I0403 18:04:12.929175  6544 net.cpp:425] inception_4e/pool_proj <- inception_4e/pool
I0403 18:04:12.929196  6544 net.cpp:399] inception_4e/pool_proj -> inception_4e/pool_proj
I0403 18:04:12.930713  6544 net.cpp:141] Setting up inception_4e/pool_proj
I0403 18:04:12.930755  6544 net.cpp:148] Top shape: 24 128 14 14 (602112)
I0403 18:04:12.930773  6544 net.cpp:156] Memory required for data: 1254493728
I0403 18:04:12.930793  6544 layer_factory.hpp:77] Creating layer inception_4e/relu_pool_proj
I0403 18:04:12.930809  6544 net.cpp:91] Creating Layer inception_4e/relu_pool_proj
I0403 18:04:12.930826  6544 net.cpp:425] inception_4e/relu_pool_proj <- inception_4e/pool_proj
I0403 18:04:12.930846  6544 net.cpp:386] inception_4e/relu_pool_proj -> inception_4e/pool_proj (in-place)
I0403 18:04:12.931138  6544 net.cpp:141] Setting up inception_4e/relu_pool_proj
I0403 18:04:12.931165  6544 net.cpp:148] Top shape: 24 128 14 14 (602112)
I0403 18:04:12.931181  6544 net.cpp:156] Memory required for data: 1256902176
I0403 18:04:12.931196  6544 layer_factory.hpp:77] Creating layer inception_4e/output
I0403 18:04:12.931227  6544 net.cpp:91] Creating Layer inception_4e/output
I0403 18:04:12.931243  6544 net.cpp:425] inception_4e/output <- inception_4e/1x1
I0403 18:04:12.931262  6544 net.cpp:425] inception_4e/output <- inception_4e/3x3
I0403 18:04:12.931284  6544 net.cpp:425] inception_4e/output <- inception_4e/5x5
I0403 18:04:12.931301  6544 net.cpp:425] inception_4e/output <- inception_4e/pool_proj
I0403 18:04:12.931321  6544 net.cpp:399] inception_4e/output -> inception_4e/output
I0403 18:04:12.931373  6544 net.cpp:141] Setting up inception_4e/output
I0403 18:04:12.931396  6544 net.cpp:148] Top shape: 24 832 14 14 (3913728)
I0403 18:04:12.931412  6544 net.cpp:156] Memory required for data: 1272557088
I0403 18:04:12.931428  6544 layer_factory.hpp:77] Creating layer pool4/3x3_s2
I0403 18:04:12.931449  6544 net.cpp:91] Creating Layer pool4/3x3_s2
I0403 18:04:12.931466  6544 net.cpp:425] pool4/3x3_s2 <- inception_4e/output
I0403 18:04:12.931484  6544 net.cpp:399] pool4/3x3_s2 -> pool4/3x3_s2
I0403 18:04:12.931566  6544 net.cpp:141] Setting up pool4/3x3_s2
I0403 18:04:12.931589  6544 net.cpp:148] Top shape: 24 832 7 7 (978432)
I0403 18:04:12.931603  6544 net.cpp:156] Memory required for data: 1276470816
I0403 18:04:12.931619  6544 layer_factory.hpp:77] Creating layer pool4/3x3_s2_pool4/3x3_s2_0_split
I0403 18:04:12.931637  6544 net.cpp:91] Creating Layer pool4/3x3_s2_pool4/3x3_s2_0_split
I0403 18:04:12.931653  6544 net.cpp:425] pool4/3x3_s2_pool4/3x3_s2_0_split <- pool4/3x3_s2
I0403 18:04:12.931673  6544 net.cpp:399] pool4/3x3_s2_pool4/3x3_s2_0_split -> pool4/3x3_s2_pool4/3x3_s2_0_split_0
I0403 18:04:12.931692  6544 net.cpp:399] pool4/3x3_s2_pool4/3x3_s2_0_split -> pool4/3x3_s2_pool4/3x3_s2_0_split_1
I0403 18:04:12.931712  6544 net.cpp:399] pool4/3x3_s2_pool4/3x3_s2_0_split -> pool4/3x3_s2_pool4/3x3_s2_0_split_2
I0403 18:04:12.931733  6544 net.cpp:399] pool4/3x3_s2_pool4/3x3_s2_0_split -> pool4/3x3_s2_pool4/3x3_s2_0_split_3
I0403 18:04:12.931826  6544 net.cpp:141] Setting up pool4/3x3_s2_pool4/3x3_s2_0_split
I0403 18:04:12.931849  6544 net.cpp:148] Top shape: 24 832 7 7 (978432)
I0403 18:04:12.931865  6544 net.cpp:148] Top shape: 24 832 7 7 (978432)
I0403 18:04:12.931881  6544 net.cpp:148] Top shape: 24 832 7 7 (978432)
I0403 18:04:12.931910  6544 net.cpp:148] Top shape: 24 832 7 7 (978432)
I0403 18:04:12.931924  6544 net.cpp:156] Memory required for data: 1292125728
I0403 18:04:12.931941  6544 layer_factory.hpp:77] Creating layer inception_5a/1x1
I0403 18:04:12.931965  6544 net.cpp:91] Creating Layer inception_5a/1x1
I0403 18:04:12.931983  6544 net.cpp:425] inception_5a/1x1 <- pool4/3x3_s2_pool4/3x3_s2_0_split_0
I0403 18:04:12.932006  6544 net.cpp:399] inception_5a/1x1 -> inception_5a/1x1
I0403 18:04:12.934911  6544 net.cpp:141] Setting up inception_5a/1x1
I0403 18:04:12.934939  6544 net.cpp:148] Top shape: 24 256 7 7 (301056)
I0403 18:04:12.934954  6544 net.cpp:156] Memory required for data: 1293329952
I0403 18:04:12.934973  6544 layer_factory.hpp:77] Creating layer inception_5a/relu_1x1
I0403 18:04:12.934990  6544 net.cpp:91] Creating Layer inception_5a/relu_1x1
I0403 18:04:12.935008  6544 net.cpp:425] inception_5a/relu_1x1 <- inception_5a/1x1
I0403 18:04:12.935027  6544 net.cpp:386] inception_5a/relu_1x1 -> inception_5a/1x1 (in-place)
I0403 18:04:12.935362  6544 net.cpp:141] Setting up inception_5a/relu_1x1
I0403 18:04:12.935390  6544 net.cpp:148] Top shape: 24 256 7 7 (301056)
I0403 18:04:12.935405  6544 net.cpp:156] Memory required for data: 1294534176
I0403 18:04:12.935421  6544 layer_factory.hpp:77] Creating layer inception_5a/3x3_reduce
I0403 18:04:12.935446  6544 net.cpp:91] Creating Layer inception_5a/3x3_reduce
I0403 18:04:12.935463  6544 net.cpp:425] inception_5a/3x3_reduce <- pool4/3x3_s2_pool4/3x3_s2_0_split_1
I0403 18:04:12.935487  6544 net.cpp:399] inception_5a/3x3_reduce -> inception_5a/3x3_reduce
I0403 18:04:12.938014  6544 net.cpp:141] Setting up inception_5a/3x3_reduce
I0403 18:04:12.938047  6544 net.cpp:148] Top shape: 24 160 7 7 (188160)
I0403 18:04:12.938065  6544 net.cpp:156] Memory required for data: 1295286816
I0403 18:04:12.938083  6544 layer_factory.hpp:77] Creating layer inception_5a/relu_3x3_reduce
I0403 18:04:12.938102  6544 net.cpp:91] Creating Layer inception_5a/relu_3x3_reduce
I0403 18:04:12.938117  6544 net.cpp:425] inception_5a/relu_3x3_reduce <- inception_5a/3x3_reduce
I0403 18:04:12.938138  6544 net.cpp:386] inception_5a/relu_3x3_reduce -> inception_5a/3x3_reduce (in-place)
I0403 18:04:12.938333  6544 net.cpp:141] Setting up inception_5a/relu_3x3_reduce
I0403 18:04:12.938359  6544 net.cpp:148] Top shape: 24 160 7 7 (188160)
I0403 18:04:12.938372  6544 net.cpp:156] Memory required for data: 1296039456
I0403 18:04:12.938387  6544 layer_factory.hpp:77] Creating layer inception_5a/3x3
I0403 18:04:12.938410  6544 net.cpp:91] Creating Layer inception_5a/3x3
I0403 18:04:12.938428  6544 net.cpp:425] inception_5a/3x3 <- inception_5a/3x3_reduce
I0403 18:04:12.938451  6544 net.cpp:399] inception_5a/3x3 -> inception_5a/3x3
I0403 18:04:12.943758  6544 net.cpp:141] Setting up inception_5a/3x3
I0403 18:04:12.943789  6544 net.cpp:148] Top shape: 24 320 7 7 (376320)
I0403 18:04:12.943805  6544 net.cpp:156] Memory required for data: 1297544736
I0403 18:04:12.943825  6544 layer_factory.hpp:77] Creating layer inception_5a/relu_3x3
I0403 18:04:12.943845  6544 net.cpp:91] Creating Layer inception_5a/relu_3x3
I0403 18:04:12.943861  6544 net.cpp:425] inception_5a/relu_3x3 <- inception_5a/3x3
I0403 18:04:12.943879  6544 net.cpp:386] inception_5a/relu_3x3 -> inception_5a/3x3 (in-place)
I0403 18:04:12.944190  6544 net.cpp:141] Setting up inception_5a/relu_3x3
I0403 18:04:12.944216  6544 net.cpp:148] Top shape: 24 320 7 7 (376320)
I0403 18:04:12.944231  6544 net.cpp:156] Memory required for data: 1299050016
I0403 18:04:12.944247  6544 layer_factory.hpp:77] Creating layer inception_5a/5x5_reduce
I0403 18:04:12.944275  6544 net.cpp:91] Creating Layer inception_5a/5x5_reduce
I0403 18:04:12.944295  6544 net.cpp:425] inception_5a/5x5_reduce <- pool4/3x3_s2_pool4/3x3_s2_0_split_2
I0403 18:04:12.944319  6544 net.cpp:399] inception_5a/5x5_reduce -> inception_5a/5x5_reduce
I0403 18:04:12.945538  6544 net.cpp:141] Setting up inception_5a/5x5_reduce
I0403 18:04:12.945566  6544 net.cpp:148] Top shape: 24 32 7 7 (37632)
I0403 18:04:12.945582  6544 net.cpp:156] Memory required for data: 1299200544
I0403 18:04:12.945602  6544 layer_factory.hpp:77] Creating layer inception_5a/relu_5x5_reduce
I0403 18:04:12.945622  6544 net.cpp:91] Creating Layer inception_5a/relu_5x5_reduce
I0403 18:04:12.945641  6544 net.cpp:425] inception_5a/relu_5x5_reduce <- inception_5a/5x5_reduce
I0403 18:04:12.945658  6544 net.cpp:386] inception_5a/relu_5x5_reduce -> inception_5a/5x5_reduce (in-place)
I0403 18:04:12.945967  6544 net.cpp:141] Setting up inception_5a/relu_5x5_reduce
I0403 18:04:12.945993  6544 net.cpp:148] Top shape: 24 32 7 7 (37632)
I0403 18:04:12.946009  6544 net.cpp:156] Memory required for data: 1299351072
I0403 18:04:12.946025  6544 layer_factory.hpp:77] Creating layer inception_5a/5x5
I0403 18:04:12.946048  6544 net.cpp:91] Creating Layer inception_5a/5x5
I0403 18:04:12.946068  6544 net.cpp:425] inception_5a/5x5 <- inception_5a/5x5_reduce
I0403 18:04:12.946090  6544 net.cpp:399] inception_5a/5x5 -> inception_5a/5x5
I0403 18:04:12.947888  6544 net.cpp:141] Setting up inception_5a/5x5
I0403 18:04:12.947932  6544 net.cpp:148] Top shape: 24 128 7 7 (150528)
I0403 18:04:12.947948  6544 net.cpp:156] Memory required for data: 1299953184
I0403 18:04:12.947968  6544 layer_factory.hpp:77] Creating layer inception_5a/relu_5x5
I0403 18:04:12.947985  6544 net.cpp:91] Creating Layer inception_5a/relu_5x5
I0403 18:04:12.948005  6544 net.cpp:425] inception_5a/relu_5x5 <- inception_5a/5x5
I0403 18:04:12.948024  6544 net.cpp:386] inception_5a/relu_5x5 -> inception_5a/5x5 (in-place)
I0403 18:04:12.948235  6544 net.cpp:141] Setting up inception_5a/relu_5x5
I0403 18:04:12.948261  6544 net.cpp:148] Top shape: 24 128 7 7 (150528)
I0403 18:04:12.948282  6544 net.cpp:156] Memory required for data: 1300555296
I0403 18:04:12.948299  6544 layer_factory.hpp:77] Creating layer inception_5a/pool
I0403 18:04:12.948320  6544 net.cpp:91] Creating Layer inception_5a/pool
I0403 18:04:12.948339  6544 net.cpp:425] inception_5a/pool <- pool4/3x3_s2_pool4/3x3_s2_0_split_3
I0403 18:04:12.948359  6544 net.cpp:399] inception_5a/pool -> inception_5a/pool
I0403 18:04:12.948436  6544 net.cpp:141] Setting up inception_5a/pool
I0403 18:04:12.948462  6544 net.cpp:148] Top shape: 24 832 7 7 (978432)
I0403 18:04:12.948477  6544 net.cpp:156] Memory required for data: 1304469024
I0403 18:04:12.948493  6544 layer_factory.hpp:77] Creating layer inception_5a/pool_proj
I0403 18:04:12.948529  6544 net.cpp:91] Creating Layer inception_5a/pool_proj
I0403 18:04:12.948547  6544 net.cpp:425] inception_5a/pool_proj <- inception_5a/pool
I0403 18:04:12.948568  6544 net.cpp:399] inception_5a/pool_proj -> inception_5a/pool_proj
I0403 18:04:12.950937  6544 net.cpp:141] Setting up inception_5a/pool_proj
I0403 18:04:12.950968  6544 net.cpp:148] Top shape: 24 128 7 7 (150528)
I0403 18:04:12.950983  6544 net.cpp:156] Memory required for data: 1305071136
I0403 18:04:12.951002  6544 layer_factory.hpp:77] Creating layer inception_5a/relu_pool_proj
I0403 18:04:12.951022  6544 net.cpp:91] Creating Layer inception_5a/relu_pool_proj
I0403 18:04:12.951038  6544 net.cpp:425] inception_5a/relu_pool_proj <- inception_5a/pool_proj
I0403 18:04:12.951061  6544 net.cpp:386] inception_5a/relu_pool_proj -> inception_5a/pool_proj (in-place)
I0403 18:04:12.951378  6544 net.cpp:141] Setting up inception_5a/relu_pool_proj
I0403 18:04:12.951406  6544 net.cpp:148] Top shape: 24 128 7 7 (150528)
I0403 18:04:12.951421  6544 net.cpp:156] Memory required for data: 1305673248
I0403 18:04:12.951437  6544 layer_factory.hpp:77] Creating layer inception_5a/output
I0403 18:04:12.951455  6544 net.cpp:91] Creating Layer inception_5a/output
I0403 18:04:12.951472  6544 net.cpp:425] inception_5a/output <- inception_5a/1x1
I0403 18:04:12.951488  6544 net.cpp:425] inception_5a/output <- inception_5a/3x3
I0403 18:04:12.951505  6544 net.cpp:425] inception_5a/output <- inception_5a/5x5
I0403 18:04:12.951522  6544 net.cpp:425] inception_5a/output <- inception_5a/pool_proj
I0403 18:04:12.951541  6544 net.cpp:399] inception_5a/output -> inception_5a/output
I0403 18:04:12.951594  6544 net.cpp:141] Setting up inception_5a/output
I0403 18:04:12.951618  6544 net.cpp:148] Top shape: 24 832 7 7 (978432)
I0403 18:04:12.951637  6544 net.cpp:156] Memory required for data: 1309586976
I0403 18:04:12.951652  6544 layer_factory.hpp:77] Creating layer inception_5a/output_inception_5a/output_0_split
I0403 18:04:12.951670  6544 net.cpp:91] Creating Layer inception_5a/output_inception_5a/output_0_split
I0403 18:04:12.951686  6544 net.cpp:425] inception_5a/output_inception_5a/output_0_split <- inception_5a/output
I0403 18:04:12.951704  6544 net.cpp:399] inception_5a/output_inception_5a/output_0_split -> inception_5a/output_inception_5a/output_0_split_0
I0403 18:04:12.951725  6544 net.cpp:399] inception_5a/output_inception_5a/output_0_split -> inception_5a/output_inception_5a/output_0_split_1
I0403 18:04:12.951746  6544 net.cpp:399] inception_5a/output_inception_5a/output_0_split -> inception_5a/output_inception_5a/output_0_split_2
I0403 18:04:12.951769  6544 net.cpp:399] inception_5a/output_inception_5a/output_0_split -> inception_5a/output_inception_5a/output_0_split_3
I0403 18:04:12.951889  6544 net.cpp:141] Setting up inception_5a/output_inception_5a/output_0_split
I0403 18:04:12.951913  6544 net.cpp:148] Top shape: 24 832 7 7 (978432)
I0403 18:04:12.951930  6544 net.cpp:148] Top shape: 24 832 7 7 (978432)
I0403 18:04:12.951947  6544 net.cpp:148] Top shape: 24 832 7 7 (978432)
I0403 18:04:12.951964  6544 net.cpp:148] Top shape: 24 832 7 7 (978432)
I0403 18:04:12.951978  6544 net.cpp:156] Memory required for data: 1325241888
I0403 18:04:12.951994  6544 layer_factory.hpp:77] Creating layer inception_5b/1x1
I0403 18:04:12.952018  6544 net.cpp:91] Creating Layer inception_5b/1x1
I0403 18:04:12.952036  6544 net.cpp:425] inception_5b/1x1 <- inception_5a/output_inception_5a/output_0_split_0
I0403 18:04:12.952059  6544 net.cpp:399] inception_5b/1x1 -> inception_5b/1x1
I0403 18:04:12.955996  6544 net.cpp:141] Setting up inception_5b/1x1
I0403 18:04:12.956032  6544 net.cpp:148] Top shape: 24 384 7 7 (451584)
I0403 18:04:12.956049  6544 net.cpp:156] Memory required for data: 1327048224
I0403 18:04:12.956069  6544 layer_factory.hpp:77] Creating layer inception_5b/relu_1x1
I0403 18:04:12.956087  6544 net.cpp:91] Creating Layer inception_5b/relu_1x1
I0403 18:04:12.956104  6544 net.cpp:425] inception_5b/relu_1x1 <- inception_5b/1x1
I0403 18:04:12.956125  6544 net.cpp:386] inception_5b/relu_1x1 -> inception_5b/1x1 (in-place)
I0403 18:04:12.956451  6544 net.cpp:141] Setting up inception_5b/relu_1x1
I0403 18:04:12.956480  6544 net.cpp:148] Top shape: 24 384 7 7 (451584)
I0403 18:04:12.956497  6544 net.cpp:156] Memory required for data: 1328854560
I0403 18:04:12.956513  6544 layer_factory.hpp:77] Creating layer inception_5b/3x3_reduce
I0403 18:04:12.956537  6544 net.cpp:91] Creating Layer inception_5b/3x3_reduce
I0403 18:04:12.956557  6544 net.cpp:425] inception_5b/3x3_reduce <- inception_5a/output_inception_5a/output_0_split_1
I0403 18:04:12.956576  6544 net.cpp:399] inception_5b/3x3_reduce -> inception_5b/3x3_reduce
I0403 18:04:12.959386  6544 net.cpp:141] Setting up inception_5b/3x3_reduce
I0403 18:04:12.959421  6544 net.cpp:148] Top shape: 24 192 7 7 (225792)
I0403 18:04:12.959439  6544 net.cpp:156] Memory required for data: 1329757728
I0403 18:04:12.959457  6544 layer_factory.hpp:77] Creating layer inception_5b/relu_3x3_reduce
I0403 18:04:12.959476  6544 net.cpp:91] Creating Layer inception_5b/relu_3x3_reduce
I0403 18:04:12.959492  6544 net.cpp:425] inception_5b/relu_3x3_reduce <- inception_5b/3x3_reduce
I0403 18:04:12.959513  6544 net.cpp:386] inception_5b/relu_3x3_reduce -> inception_5b/3x3_reduce (in-place)
I0403 18:04:12.959718  6544 net.cpp:141] Setting up inception_5b/relu_3x3_reduce
I0403 18:04:12.959743  6544 net.cpp:148] Top shape: 24 192 7 7 (225792)
I0403 18:04:12.959758  6544 net.cpp:156] Memory required for data: 1330660896
I0403 18:04:12.959774  6544 layer_factory.hpp:77] Creating layer inception_5b/3x3
I0403 18:04:12.959797  6544 net.cpp:91] Creating Layer inception_5b/3x3
I0403 18:04:12.959815  6544 net.cpp:425] inception_5b/3x3 <- inception_5b/3x3_reduce
I0403 18:04:12.959838  6544 net.cpp:399] inception_5b/3x3 -> inception_5b/3x3
I0403 18:04:12.966929  6544 net.cpp:141] Setting up inception_5b/3x3
I0403 18:04:12.966963  6544 net.cpp:148] Top shape: 24 384 7 7 (451584)
I0403 18:04:12.966979  6544 net.cpp:156] Memory required for data: 1332467232
I0403 18:04:12.967000  6544 layer_factory.hpp:77] Creating layer inception_5b/relu_3x3
I0403 18:04:12.967018  6544 net.cpp:91] Creating Layer inception_5b/relu_3x3
I0403 18:04:12.967036  6544 net.cpp:425] inception_5b/relu_3x3 <- inception_5b/3x3
I0403 18:04:12.967056  6544 net.cpp:386] inception_5b/relu_3x3 -> inception_5b/3x3 (in-place)
I0403 18:04:12.967377  6544 net.cpp:141] Setting up inception_5b/relu_3x3
I0403 18:04:12.967406  6544 net.cpp:148] Top shape: 24 384 7 7 (451584)
I0403 18:04:12.967422  6544 net.cpp:156] Memory required for data: 1334273568
I0403 18:04:12.967437  6544 layer_factory.hpp:77] Creating layer inception_5b/5x5_reduce
I0403 18:04:12.967480  6544 net.cpp:91] Creating Layer inception_5b/5x5_reduce
I0403 18:04:12.967499  6544 net.cpp:425] inception_5b/5x5_reduce <- inception_5a/output_inception_5a/output_0_split_2
I0403 18:04:12.967524  6544 net.cpp:399] inception_5b/5x5_reduce -> inception_5b/5x5_reduce
I0403 18:04:12.968917  6544 net.cpp:141] Setting up inception_5b/5x5_reduce
I0403 18:04:12.968950  6544 net.cpp:148] Top shape: 24 48 7 7 (56448)
I0403 18:04:12.968967  6544 net.cpp:156] Memory required for data: 1334499360
I0403 18:04:12.968987  6544 layer_factory.hpp:77] Creating layer inception_5b/relu_5x5_reduce
I0403 18:04:12.969007  6544 net.cpp:91] Creating Layer inception_5b/relu_5x5_reduce
I0403 18:04:12.969024  6544 net.cpp:425] inception_5b/relu_5x5_reduce <- inception_5b/5x5_reduce
I0403 18:04:12.969045  6544 net.cpp:386] inception_5b/relu_5x5_reduce -> inception_5b/5x5_reduce (in-place)
I0403 18:04:12.969465  6544 net.cpp:141] Setting up inception_5b/relu_5x5_reduce
I0403 18:04:12.969493  6544 net.cpp:148] Top shape: 24 48 7 7 (56448)
I0403 18:04:12.969509  6544 net.cpp:156] Memory required for data: 1334725152
I0403 18:04:12.969527  6544 layer_factory.hpp:77] Creating layer inception_5b/5x5
I0403 18:04:12.969547  6544 net.cpp:91] Creating Layer inception_5b/5x5
I0403 18:04:12.969564  6544 net.cpp:425] inception_5b/5x5 <- inception_5b/5x5_reduce
I0403 18:04:12.969584  6544 net.cpp:399] inception_5b/5x5 -> inception_5b/5x5
I0403 18:04:12.971799  6544 net.cpp:141] Setting up inception_5b/5x5
I0403 18:04:12.971828  6544 net.cpp:148] Top shape: 24 128 7 7 (150528)
I0403 18:04:12.971844  6544 net.cpp:156] Memory required for data: 1335327264
I0403 18:04:12.971863  6544 layer_factory.hpp:77] Creating layer inception_5b/relu_5x5
I0403 18:04:12.971881  6544 net.cpp:91] Creating Layer inception_5b/relu_5x5
I0403 18:04:12.971897  6544 net.cpp:425] inception_5b/relu_5x5 <- inception_5b/5x5
I0403 18:04:12.971922  6544 net.cpp:386] inception_5b/relu_5x5 -> inception_5b/5x5 (in-place)
I0403 18:04:12.972131  6544 net.cpp:141] Setting up inception_5b/relu_5x5
I0403 18:04:12.972157  6544 net.cpp:148] Top shape: 24 128 7 7 (150528)
I0403 18:04:12.972172  6544 net.cpp:156] Memory required for data: 1335929376
I0403 18:04:12.972188  6544 layer_factory.hpp:77] Creating layer inception_5b/pool
I0403 18:04:12.972209  6544 net.cpp:91] Creating Layer inception_5b/pool
I0403 18:04:12.972229  6544 net.cpp:425] inception_5b/pool <- inception_5a/output_inception_5a/output_0_split_3
I0403 18:04:12.972249  6544 net.cpp:399] inception_5b/pool -> inception_5b/pool
I0403 18:04:12.972337  6544 net.cpp:141] Setting up inception_5b/pool
I0403 18:04:12.972362  6544 net.cpp:148] Top shape: 24 832 7 7 (978432)
I0403 18:04:12.972376  6544 net.cpp:156] Memory required for data: 1339843104
I0403 18:04:12.972393  6544 layer_factory.hpp:77] Creating layer inception_5b/pool_proj
I0403 18:04:12.972415  6544 net.cpp:91] Creating Layer inception_5b/pool_proj
I0403 18:04:12.972434  6544 net.cpp:425] inception_5b/pool_proj <- inception_5b/pool
I0403 18:04:12.972456  6544 net.cpp:399] inception_5b/pool_proj -> inception_5b/pool_proj
I0403 18:04:12.974922  6544 net.cpp:141] Setting up inception_5b/pool_proj
I0403 18:04:12.974956  6544 net.cpp:148] Top shape: 24 128 7 7 (150528)
I0403 18:04:12.974972  6544 net.cpp:156] Memory required for data: 1340445216
I0403 18:04:12.974992  6544 layer_factory.hpp:77] Creating layer inception_5b/relu_pool_proj
I0403 18:04:12.975011  6544 net.cpp:91] Creating Layer inception_5b/relu_pool_proj
I0403 18:04:12.975029  6544 net.cpp:425] inception_5b/relu_pool_proj <- inception_5b/pool_proj
I0403 18:04:12.975050  6544 net.cpp:386] inception_5b/relu_pool_proj -> inception_5b/pool_proj (in-place)
I0403 18:04:12.975368  6544 net.cpp:141] Setting up inception_5b/relu_pool_proj
I0403 18:04:12.975396  6544 net.cpp:148] Top shape: 24 128 7 7 (150528)
I0403 18:04:12.975412  6544 net.cpp:156] Memory required for data: 1341047328
I0403 18:04:12.975428  6544 layer_factory.hpp:77] Creating layer inception_5b/output
I0403 18:04:12.975447  6544 net.cpp:91] Creating Layer inception_5b/output
I0403 18:04:12.975479  6544 net.cpp:425] inception_5b/output <- inception_5b/1x1
I0403 18:04:12.975499  6544 net.cpp:425] inception_5b/output <- inception_5b/3x3
I0403 18:04:12.975515  6544 net.cpp:425] inception_5b/output <- inception_5b/5x5
I0403 18:04:12.975533  6544 net.cpp:425] inception_5b/output <- inception_5b/pool_proj
I0403 18:04:12.975553  6544 net.cpp:399] inception_5b/output -> inception_5b/output
I0403 18:04:12.975607  6544 net.cpp:141] Setting up inception_5b/output
I0403 18:04:12.975631  6544 net.cpp:148] Top shape: 24 1024 7 7 (1204224)
I0403 18:04:12.975646  6544 net.cpp:156] Memory required for data: 1345864224
I0403 18:04:12.975662  6544 layer_factory.hpp:77] Creating layer pool5/7x7_s1
I0403 18:04:12.975682  6544 net.cpp:91] Creating Layer pool5/7x7_s1
I0403 18:04:12.975699  6544 net.cpp:425] pool5/7x7_s1 <- inception_5b/output
I0403 18:04:12.975719  6544 net.cpp:399] pool5/7x7_s1 -> pool5/7x7_s1
I0403 18:04:12.975951  6544 net.cpp:141] Setting up pool5/7x7_s1
I0403 18:04:12.975978  6544 net.cpp:148] Top shape: 24 1024 1 1 (24576)
I0403 18:04:12.975993  6544 net.cpp:156] Memory required for data: 1345962528
I0403 18:04:12.976009  6544 layer_factory.hpp:77] Creating layer pool5/drop_7x7_s1
I0403 18:04:12.976028  6544 net.cpp:91] Creating Layer pool5/drop_7x7_s1
I0403 18:04:12.976045  6544 net.cpp:425] pool5/drop_7x7_s1 <- pool5/7x7_s1
I0403 18:04:12.976066  6544 net.cpp:386] pool5/drop_7x7_s1 -> pool5/7x7_s1 (in-place)
I0403 18:04:12.976119  6544 net.cpp:141] Setting up pool5/drop_7x7_s1
I0403 18:04:12.976145  6544 net.cpp:148] Top shape: 24 1024 1 1 (24576)
I0403 18:04:12.976161  6544 net.cpp:156] Memory required for data: 1346060832
I0403 18:04:12.976176  6544 layer_factory.hpp:77] Creating layer loss3/classifier_plantvillage
I0403 18:04:12.976197  6544 net.cpp:91] Creating Layer loss3/classifier_plantvillage
I0403 18:04:12.976214  6544 net.cpp:425] loss3/classifier_plantvillage <- pool5/7x7_s1
I0403 18:04:12.976251  6544 net.cpp:399] loss3/classifier_plantvillage -> loss3/classifier_plantvillage
I0403 18:04:12.976718  6544 net.cpp:141] Setting up loss3/classifier_plantvillage
I0403 18:04:12.976747  6544 net.cpp:148] Top shape: 24 38 (912)
I0403 18:04:12.976763  6544 net.cpp:156] Memory required for data: 1346064480
I0403 18:04:12.976781  6544 layer_factory.hpp:77] Creating layer loss3/classifier_plantvillage_loss3/classifier_plantvillage_0_split
I0403 18:04:12.976801  6544 net.cpp:91] Creating Layer loss3/classifier_plantvillage_loss3/classifier_plantvillage_0_split
I0403 18:04:12.976819  6544 net.cpp:425] loss3/classifier_plantvillage_loss3/classifier_plantvillage_0_split <- loss3/classifier_plantvillage
I0403 18:04:12.976837  6544 net.cpp:399] loss3/classifier_plantvillage_loss3/classifier_plantvillage_0_split -> loss3/classifier_plantvillage_loss3/classifier_plantvillage_0_split_0
I0403 18:04:12.976858  6544 net.cpp:399] loss3/classifier_plantvillage_loss3/classifier_plantvillage_0_split -> loss3/classifier_plantvillage_loss3/classifier_plantvillage_0_split_1
I0403 18:04:12.976881  6544 net.cpp:399] loss3/classifier_plantvillage_loss3/classifier_plantvillage_0_split -> loss3/classifier_plantvillage_loss3/classifier_plantvillage_0_split_2
I0403 18:04:12.976904  6544 net.cpp:399] loss3/classifier_plantvillage_loss3/classifier_plantvillage_0_split -> loss3/classifier_plantvillage_loss3/classifier_plantvillage_0_split_3
I0403 18:04:12.977010  6544 net.cpp:141] Setting up loss3/classifier_plantvillage_loss3/classifier_plantvillage_0_split
I0403 18:04:12.977035  6544 net.cpp:148] Top shape: 24 38 (912)
I0403 18:04:12.977051  6544 net.cpp:148] Top shape: 24 38 (912)
I0403 18:04:12.977067  6544 net.cpp:148] Top shape: 24 38 (912)
I0403 18:04:12.977083  6544 net.cpp:148] Top shape: 24 38 (912)
I0403 18:04:12.977098  6544 net.cpp:156] Memory required for data: 1346079072
I0403 18:04:12.977113  6544 layer_factory.hpp:77] Creating layer loss1/loss
I0403 18:04:12.977136  6544 net.cpp:91] Creating Layer loss1/loss
I0403 18:04:12.977154  6544 net.cpp:425] loss1/loss <- loss1/classifier_plantvillage_loss1/classifier_plantvillage_0_split_0
I0403 18:04:12.977188  6544 net.cpp:425] loss1/loss <- label_data_1_split_0
…
