…
I0403 18:45:11.900470  7491 net.cpp:313] The NetState phase (1) differed from the phase (0) specified by a rule in layer data
I0403 18:45:11.902837  7491 net.cpp:49] Initializing net from parameters: 
state {
  phase: TEST
}
layer {
  name: "data"
  type: "Data"
  top: "data"
  top: "label"
  include {
    phase: TEST
  }
  transform_param {
    mirror: false
    crop_size: 224
    mean_file: "/home/mohanty/data/final_dataset/lmdb/grayscale-40-60/mean.binaryproto"
  }
  data_param {
    source: "/home/mohanty/data/final_dataset/lmdb/grayscale-40-60/test_db"
    batch_size: 24
    backend: LMDB
  }
}
layer {
  name: "conv1/7x7_s2"
  type: "Convolution"
  bottom: "data"
  top: "conv1/7x7_s2"
  param {
    lr_mult: 1
    decay_mult: 1
  }
  param {
    lr_mult: 2
    decay_mult: 0
  }
  convolution_param {
    num_output: 64
    pad: 3
    kernel_size: 7
    stride: 2
    weight_filler {
      type: "xavier"
      std: 0.1
    }
    bias_filler {
      type: "constant"
      value: 0.2
    }
  }
}
layer {
  name: "conv1/relu_7x7"
  type: "ReLU"
  bottom: "conv1/7x7_s2"
  top: "conv1/7x7_s2"
}
layer {
  name: "pool1/3x3_s2"
  type: "Pooling"
  bottom: "conv1/7x7_s2"
  top: "pool1/3x3_s2"
  pooling_param {
    pool: MAX
    kernel_size: 3
    stride: 2
  }
}
layer {
  name: "pool1/norm1"
  type: "LRN"
  bottom: "pool1/3x3_s2"
  top: "pool1/norm1"
  lrn_param {
    local_size: 5
    alpha: 0.0001
    beta: 0.75
  }
}
layer {
  name: "conv2/3x3_reduce"
  type: "Convolution"
  bottom: "pool1/norm1"
  top: "conv2/3x3_reduce"
  param {
    lr_mult: 1
    decay_mult: 1
  }
  param {
    lr_mult: 2
    decay_mult: 0
  }
  convolution_param {
    num_output: 64
    kernel_size: 1
    weight_filler {
      type: "xavier"
      std: 0.1
    }
    bias_filler {
      type: "constant"
      value: 0.2
    }
  }
}
layer {
  name: "conv2/relu_3x3_reduce"
  type: "ReLU"
  bottom: "conv2/3x3_reduce"
  top: "conv2/3x3_reduce"
}
layer {
  name: "conv2/3x3"
  type: "Convolution"
  bottom: "conv2/3x3_reduce"
  top: "conv2/3x3"
  param {
    lr_mult: 1
    decay_mult: 1
  }
  param {
    lr_mult: 2
    decay_mult: 0
  }
  convolution_param {
    num_output: 192
    pad: 1
    kernel_size: 3
    weight_filler {
      type: "xavier"
      std: 0.03
    }
    bias_filler {
      type: "constant"
      value: 0.2
    }
  }
}
layer {
  name: "conv2/relu_3x3"
  type: "ReLU"
  bottom: "conv2/3x3"
  top: "conv2/3x3"
}
layer {
  name: "conv2/norm2"
  type: "LRN"
  bottom: "conv2/3x3"
  top: "conv2/norm2"
  lrn_param {
    local_size: 5
    alpha: 0.0001
    beta: 0.75
  }
}
layer {
  name: "pool2/3x3_s2"
  type: "Pooling"
  bottom: "conv2/norm2"
  top: "pool2/3x3_s2"
  pooling_param {
    pool: MAX
    kernel_size: 3
    stride: 2
  }
}
layer {
  name: "inception_3a/1x1"
  type: "Convolution"
  bottom: "pool2/3x3_s2"
  top: "inception_3a/1x1"
  param {
    lr_mult: 1
    decay_mult: 1
  }
  param {
    lr_mult: 2
    decay_mult: 0
  }
  convolution_param {
    num_output: 64
    kernel_size: 1
    weight_filler {
      type: "xavier"
      std: 0.03
    }
    bias_filler {
      type: "constant"
      value: 0.2
    }
  }
}
layer {
  name: "inception_3a/relu_1x1"
  type: "ReLU"
  bottom: "inception_3a/1x1"
  top: "inception_3a/1x1"
}
layer {
  name: "inception_3a/3x3_reduce"
  type: "Convolution"
  bottom: "pool2/3x3_s2"
  top: "inception_3a/3x3_reduce"
  param {
    lr_mult: 1
    decay_mult: 1
  }
  param {
    lr_mult: 2
    decay_mult: 0
  }
  convolution_param {
    num_output: 96
    kernel_size: 1
    weight_filler {
      type: "xavier"
      std: 0.09
    }
    bias_filler {
      type: "constant"
      value: 0.2
    }
  }
}
layer {
  name: "inception_3a/relu_3x3_reduce"
  type: "ReLU"
  bottom: "inception_3a/3x3_reduce"
  top: "inception_3a/3x3_reduce"
}
layer {
  name: "inception_3a/3x3"
  type: "Convolution"
  bottom: "inception_3a/3x3_reduce"
  top: "inception_3a/3x3"
  param {
    lr_mult: 1
    decay_mult: 1
  }
  param {
    lr_mult: 2
    decay_mult: 0
  }
  convolution_param {
    num_output: 128
    pad: 1
    kernel_size: 3
    weight_filler {
      type: "xavier"
      std: 0.03
    }
    bias_filler {
      type: "constant"
      value: 0.2
    }
  }
}
layer {
  name: "inception_3a/relu_3x3"
  type: "ReLU"
  bottom: "inception_3a/3x3"
  top: "inception_3a/3x3"
}
layer {
  name: "inception_3a/5x5_reduce"
  type: "Convolution"
  bottom: "pool2/3x3_s2"
  top: "inception_3a/5x5_reduce"
  param {
    lr_mult: 1
    decay_mult: 1
  }
  param {
    lr_mult: 2
    decay_mult: 0
  }
  convolution_param {
    num_output: 16
    kernel_size: 1
    weight_filler {
      type: "xavier"
      std: 0.2
    }
    bias_filler {
      type: "constant"
      value: 0.2
    }
  }
}
layer {
  name: "inception_3a/relu_5x5_reduce"
  type: "ReLU"
  bottom: "inception_3a/5x5_reduce"
  top: "inception_3a/5x5_reduce"
}
layer {
  name: "inception_3a/5x5"
  type: "Convolution"
  bottom: "inception_3a/5x5_reduce"
  top: "inception_3a/5x5"
  param {
    lr_mult: 1
    decay_mult: 1
  }
  param {
    lr_mult: 2
    decay_mult: 0
  }
  convolution_param {
    num_output: 32
    pad: 2
    kernel_size: 5
    weight_filler {
      type: "xavier"
      std: 0.03
    }
    bias_filler {
      type: "constant"
      value: 0.2
    }
  }
}
layer {
  name: "inception_3a/relu_5x5"
  type: "ReLU"
  bottom: "inception_3a/5x5"
  top: "inception_3a/5x5"
}
layer {
  name: "inception_3a/pool"
  type: "Pooling"
  bottom: "pool2/3x3_s2"
  top: "inception_3a/pool"
  pooling_param {
    pool: MAX
    kernel_size: 3
    stride: 1
    pad: 1
  }
}
layer {
  name: "inception_3a/pool_proj"
  type: "Convolution"
  bottom: "inception_3a/pool"
  top: "inception_3a/pool_proj"
  param {
    lr_mult: 1
    decay_mult: 1
  }
  param {
    lr_mult: 2
    decay_mult: 0
  }
  convolution_param {
    num_output: 32
    kernel_size: 1
    weight_filler {
      type: "xavier"
      std: 0.1
    }
    bias_filler {
      type: "constant"
      value: 0.2
    }
  }
}
layer {
  name: "inception_3a/relu_pool_proj"
  type: "ReLU"
  bottom: "inception_3a/pool_proj"
  top: "inception_3a/pool_proj"
}
layer {
  name: "inception_3a/output"
  type: "Concat"
  bottom: "inception_3a/1x1"
  bottom: "inception_3a/3x3"
  bottom: "inception_3a/5x5"
  bottom: "inception_3a/pool_proj"
  top: "inception_3a/output"
}
layer {
  name: "inception_3b/1x1"
  type: "Convolution"
  bottom: "inception_3a/output"
  top: "inception_3b/1x1"
  param {
    lr_mult: 1
    decay_mult: 1
  }
  param {
    lr_mult: 2
    decay_mult: 0
  }
  convolution_param {
    num_output: 128
    kernel_size: 1
    weight_filler {
      type: "xavier"
      std: 0.03
    }
    bias_filler {
      type: "constant"
      value: 0.2
    }
  }
}
layer {
  name: "inception_3b/relu_1x1"
  type: "ReLU"
  bottom: "inception_3b/1x1"
  top: "inception_3b/1x1"
}
layer {
  name: "inception_3b/3x3_reduce"
  type: "Convolution"
  bottom: "inception_3a/output"
  top: "inception_3b/3x3_reduce"
  param {
    lr_mult: 1
    decay_mult: 1
  }
  param {
    lr_mult: 2
    decay_mult: 0
  }
  convolution_param {
    num_output: 128
    kernel_size: 1
    weight_filler {
      type: "xavier"
      std: 0.09
    }
    bias_filler {
      type: "constant"
      value: 0.2
    }
  }
}
layer {
  name: "inception_3b/relu_3x3_reduce"
  type: "ReLU"
  bottom: "inception_3b/3x3_reduce"
  top: "inception_3b/3x3_reduce"
}
layer {
  name: "inception_3b/3x3"
  type: "Convolution"
  bottom: "inception_3b/3x3_reduce"
  top: "inception_3b/3x3"
  param {
    lr_mult: 1
    decay_mult: 1
  }
  param {
    lr_mult: 2
    decay_mult: 0
  }
  convolution_param {
    num_output: 192
    pad: 1
    kernel_size: 3
    weight_filler {
      type: "xavier"
      std: 0.03
    }
    bias_filler {
      type: "constant"
      value: 0.2
    }
  }
}
layer {
  name: "inception_3b/relu_3x3"
  type: "ReLU"
  bottom: "inception_3b/3x3"
  top: "inception_3b/3x3"
}
layer {
  name: "inception_3b/5x5_reduce"
  type: "Convolution"
  bottom: "inception_3a/output"
  top: "inception_3b/5x5_reduce"
  param {
    lr_mult: 1
    decay_mult: 1
  }
  param {
    lr_mult: 2
    decay_mult: 0
  }
  convolution_param {
    num_output: 32
    kernel_size: 1
    weight_filler {
      type: "xavier"
      std: 0.2
    }
    bias_filler {
      type: "constant"
      value: 0.2
    }
  }
}
layer {
  name: "inception_3b/relu_5x5_reduce"
  type: "ReLU"
  bottom: "inception_3b/5x5_reduce"
  top: "inception_3b/5x5_reduce"
}
layer {
  name: "inception_3b/5x5"
  type: "Convolution"
  bottom: "inception_3b/5x5_reduce"
  top: "inception_3b/5x5"
  param {
    lr_mult: 1
    decay_mult: 1
  }
  param {
    lr_mult: 2
    decay_mult: 0
  }
  convolution_param {
    num_output: 96
    pad: 2
    kernel_size: 5
    weight_filler {
      type: "xavier"
      std: 0.03
    }
    bias_filler {
      type: "constant"
      value: 0.2
    }
  }
}
layer {
  name: "inception_3b/relu_5x5"
  type: "ReLU"
  bottom: "inception_3b/5x5"
  top: "inception_3b/5x5"
}
layer {
  name: "inception_3b/pool"
  type: "Pooling"
  bottom: "inception_3a/output"
  top: "inception_3b/pool"
  pooling_param {
    pool: MAX
    kernel_size: 3
    stride: 1
    pad: 1
  }
}
layer {
  name: "inception_3b/pool_proj"
  type: "Convolution"
  bottom: "inception_3b/pool"
  top: "inception_3b/pool_proj"
  param {
    lr_mult: 1
    decay_mult: 1
  }
  param {
    lr_mult: 2
    decay_mult: 0
  }
  convolution_param {
    num_output: 64
    kernel_size: 1
    weight_filler {
      type: "xavier"
      std: 0.1
    }
    bias_filler {
      type: "constant"
      value: 0.2
    }
  }
}
layer {
  name: "inception_3b/relu_pool_proj"
  type: "ReLU"
  bottom: "inception_3b/pool_proj"
  top: "inception_3b/pool_proj"
}
layer {
  name: "inception_3b/output"
  type: "Concat"
  bottom: "inception_3b/1x1"
  bottom: "inception_3b/3x3"
  bottom: "inception_3b/5x5"
  bottom: "inception_3b/pool_proj"
  top: "inception_3b/output"
}
layer {
  name: "pool3/3x3_s2"
  type: "Pooling"
  bottom: "inception_3b/output"
  top: "pool3/3x3_s2"
  pooling_param {
    pool: MAX
    kernel_size: 3
    stride: 2
  }
}
layer {
  name: "inception_4a/1x1"
  type: "Convolution"
  bottom: "pool3/3x3_s2"
  top: "inception_4a/1x1"
  param {
    lr_mult: 1
    decay_mult: 1
  }
  param {
    lr_mult: 2
    decay_mult: 0
  }
  convolution_param {
    num_output: 192
    kernel_size: 1
    weight_filler {
      type: "xavier"
      std: 0.03
    }
    bias_filler {
      type: "constant"
      value: 0.2
    }
  }
}
layer {
  name: "inception_4a/relu_1x1"
  type: "ReLU"
  bottom: "inception_4a/1x1"
  top: "inception_4a/1x1"
}
layer {
  name: "inception_4a/3x3_reduce"
  type: "Convolution"
  bottom: "pool3/3x3_s2"
  top: "inception_4a/3x3_reduce"
  param {
    lr_mult: 1
    decay_mult: 1
  }
  param {
    lr_mult: 2
    decay_mult: 0
  }
  convolution_param {
    num_output: 96
    kernel_size: 1
    weight_filler {
      type: "xavier"
      std: 0.09
    }
    bias_filler {
      type: "constant"
      value: 0.2
    }
  }
}
layer {
  name: "inception_4a/relu_3x3_reduce"
  type: "ReLU"
  bottom: "inception_4a/3x3_reduce"
  top: "inception_4a/3x3_reduce"
}
layer {
  name: "inception_4a/3x3"
  type: "Convolution"
  bottom: "inception_4a/3x3_reduce"
  top: "inception_4a/3x3"
  param {
    lr_mult: 1
    decay_mult: 1
  }
  param {
    lr_mult: 2
    decay_mult: 0
  }
  convolution_param {
    num_output: 208
    pad: 1
    kernel_size: 3
    weight_filler {
      type: "xavier"
      std: 0.03
    }
    bias_filler {
      type: "constant"
      value: 0.2
    }
  }
}
layer {
  name: "inception_4a/relu_3x3"
  type: "ReLU"
  bottom: "inception_4a/3x3"
  top: "inception_4a/3x3"
}
layer {
  name: "inception_4a/5x5_reduce"
  type: "Convolution"
  bottom: "pool3/3x3_s2"
  top: "inception_4a/5x5_reduce"
  param {
    lr_mult: 1
    decay_mult: 1
  }
  param {
    lr_mult: 2
    decay_mult: 0
  }
  convolution_param {
    num_output: 16
    kernel_size: 1
    weight_filler {
      type: "xavier"
      std: 0.2
    }
    bias_filler {
      type: "constant"
      value: 0.2
    }
  }
}
layer {
  name: "inception_4a/relu_5x5_reduce"
  type: "ReLU"
  bottom: "inception_4a/5x5_reduce"
  top: "inception_4a/5x5_reduce"
}
layer {
  name: "inception_4a/5x5"
  type: "Convolution"
  bottom: "inception_4a/5x5_reduce"
  top: "inception_4a/5x5"
  param {
    lr_mult: 1
    decay_mult: 1
  }
  param {
    lr_mult: 2
    decay_mult: 0
  }
  convolution_param {
    num_output: 48
    pad: 2
    kernel_size: 5
    weight_filler {
      type: "xavier"
      std: 0.03
    }
    bias_filler {
      type: "constant"
      value: 0.2
    }
  }
}
layer {
  name: "inception_4a/relu_5x5"
  type: "ReLU"
  bottom: "inception_4a/5x5"
  top: "inception_4a/5x5"
}
layer {
  name: "inception_4a/pool"
  type: "Pooling"
  bottom: "pool3/3x3_s2"
  top: "inception_4a/pool"
  pooling_param {
    pool: MAX
    kernel_size: 3
    stride: 1
    pad: 1
  }
}
layer {
  name: "inception_4a/pool_proj"
  type: "Convolution"
  bottom: "inception_4a/pool"
  top: "inception_4a/pool_proj"
  param {
    lr_mult: 1
    decay_mult: 1
  }
  param {
    lr_mult: 2
    decay_mult: 0
  }
  convolution_param {
    num_output: 64
    kernel_size: 1
    weight_filler {
      type: "xavier"
      std: 0.1
    }
    bias_filler {
      type: "constant"
      value: 0.2
    }
  }
}
layer {
  name: "inception_4a/relu_pool_proj"
  type: "ReLU"
  bottom: "inception_4a/pool_proj"
  top: "inception_4a/pool_proj"
}
layer {
  name: "inception_4a/output"
  type: "Concat"
  bottom: "inception_4a/1x1"
  bottom: "inception_4a/3x3"
  bottom: "inception_4a/5x5"
  bottom: "inception_4a/pool_proj"
  top: "inception_4a/output"
}
layer {
  name: "loss1/ave_pool"
  type: "Pooling"
  bottom: "inception_4a/output"
  top: "loss1/ave_pool"
  pooling_param {
    pool: AVE
    kernel_size: 5
    stride: 3
  }
}
layer {
  name: "loss1/conv"
  type: "Convolution"
  bottom: "loss1/ave_pool"
  top: "loss1/conv"
  param {
    lr_mult: 1
    decay_mult: 1
  }
  param {
    lr_mult: 2
    decay_mult: 0
  }
  convolution_param {
    num_output: 128
    kernel_size: 1
    weight_filler {
      type: "xavier"
      std: 0.08
    }
    bias_filler {
      type: "constant"
      value: 0.2
    }
  }
}
layer {
  name: "loss1/relu_conv"
  type: "ReLU"
  bottom: "loss1/conv"
  top: "loss1/conv"
}
layer {
  name: "loss1/fc"
  type: "InnerProduct"
  bottom: "loss1/conv"
  top: "loss1/fc"
  param {
    lr_mult: 1
    decay_mult: 1
  }
  param {
    lr_mult: 2
    decay_mult: 0
  }
  inner_product_param {
    num_output: 1024
    weight_filler {
      type: "xavier"
      std: 0.02
    }
    bias_filler {
      type: "constant"
      value: 0.2
    }
  }
}
layer {
  name: "loss1/relu_fc"
  type: "ReLU"
  bottom: "loss1/fc"
  top: "loss1/fc"
}
layer {
  name: "loss1/drop_fc"
  type: "Dropout"
  bottom: "loss1/fc"
  top: "loss1/fc"
  dropout_param {
    dropout_ratio: 0.7
  }
}
layer {
  name: "loss1/classifier_plantvillage"
  type: "InnerProduct"
  bottom: "loss1/fc"
  top: "loss1/classifier_plantvillage"
  param {
    lr_mult: 1
    decay_mult: 1
  }
  param {
    lr_mult: 2
    decay_mult: 0
  }
  inner_product_param {
    num_output: 38
    weight_filler {
      type: "xavier"
      std: 0.0009765625
    }
    bias_filler {
      type: "constant"
      value: 0
    }
  }
}
layer {
  name: "inception_4b/1x1"
  type: "Convolution"
  bottom: "inception_4a/output"
  top: "inception_4b/1x1"
  param {
    lr_mult: 1
    decay_mult: 1
  }
  param {
    lr_mult: 2
    decay_mult: 0
  }
  convolution_param {
    num_output: 160
    kernel_size: 1
    weight_filler {
      type: "xavier"
      std: 0.03
    }
    bias_filler {
      type: "constant"
      value: 0.2
    }
  }
}
layer {
  name: "inception_4b/relu_1x1"
  type: "ReLU"
  bottom: "inception_4b/1x1"
  top: "inception_4b/1x1"
}
layer {
  name: "inception_4b/3x3_reduce"
  type: "Convolution"
  bottom: "inception_4a/output"
  top: "inception_4b/3x3_reduce"
  param {
    lr_mult: 1
    decay_mult: 1
  }
  param {
    lr_mult: 2
    decay_mult: 0
  }
  convolution_param {
    num_output: 112
    kernel_size: 1
    weight_filler {
      type: "xavier"
      std: 0.09
    }
    bias_filler {
      type: "constant"
      value: 0.2
    }
  }
}
layer {
  name: "inception_4b/relu_3x3_reduce"
  type: "ReLU"
  bottom: "inception_4b/3x3_reduce"
  top: "inception_4b/3x3_reduce"
}
layer {
  name: "inception_4b/3x3"
  type: "Convolution"
  bottom: "inception_4b/3x3_reduce"
  top: "inception_4b/3x3"
  param {
    lr_mult: 1
    decay_mult: 1
  }
  param {
    lr_mult: 2
    decay_mult: 0
  }
  convolution_param {
    num_output: 224
    pad: 1
    kernel_size: 3
    weight_filler {
      type: "xavier"
      std: 0.03
    }
    bias_filler {
      type: "constant"
      value: 0.2
    }
  }
}
layer {
  name: "inception_4b/relu_3x3"
  type: "ReLU"
  bottom: "inception_4b/3x3"
  top: "inception_4b/3x3"
}
layer {
  name: "inception_4b/5x5_reduce"
  type: "Convolution"
  bottom: "inception_4a/output"
  top: "inception_4b/5x5_reduce"
  param {
    lr_mult: 1
    decay_mult: 1
  }
  param {
    lr_mult: 2
    decay_mult: 0
  }
  convolution_param {
    num_output: 24
    kernel_size: 1
    weight_filler {
      type: "xavier"
      std: 0.2
    }
    bias_filler {
      type: "constant"
      value: 0.2
    }
  }
}
layer {
  name: "inception_4b/relu_5x5_reduce"
  type: "ReLU"
  bottom: "inception_4b/5x5_reduce"
  top: "inception_4b/5x5_reduce"
}
layer {
  name: "inception_4b/5x5"
  type: "Convolution"
  bottom: "inception_4b/5x5_reduce"
  top: "inception_4b/5x5"
  param {
    lr_mult: 1
    decay_mult: 1
  }
  param {
    lr_mult: 2
    decay_mult: 0
  }
  convolution_param {
    num_output: 64
    pad: 2
    kernel_size: 5
    weight_filler {
      type: "xavier"
      std: 0.03
    }
    bias_filler {
      type: "constant"
      value: 0.2
    }
  }
}
layer {
  name: "inception_4b/relu_5x5"
  type: "ReLU"
  bottom: "inception_4b/5x5"
  top: "inception_4b/5x5"
}
layer {
  name: "inception_4b/pool"
  type: "Pooling"
  bottom: "inception_4a/output"
  top: "inception_4b/pool"
  pooling_param {
    pool: MAX
    kernel_size: 3
    stride: 1
    pad: 1
  }
}
layer {
  name: "inception_4b/pool_proj"
  type: "Convolution"
  bottom: "inception_4b/pool"
  top: "inception_4b/pool_proj"
  param {
    lr_mult: 1
    decay_mult: 1
  }
  param {
    lr_mult: 2
    decay_mult: 0
  }
  convolution_param {
    num_output: 64
    kernel_size: 1
    weight_filler {
      type: "xavier"
      std: 0.1
    }
    bias_filler {
      type: "constant"
      value: 0.2
    }
  }
}
layer {
  name: "inception_4b/relu_pool_proj"
  type: "ReLU"
  bottom: "inception_4b/pool_proj"
  top: "inception_4b/pool_proj"
}
layer {
  name: "inception_4b/output"
  type: "Concat"
  bottom: "inception_4b/1x1"
  bottom: "inception_4b/3x3"
  bottom: "inception_4b/5x5"
  bottom: "inception_4b/pool_proj"
  top: "inception_4b/output"
}
layer {
  name: "inception_4c/1x1"
  type: "Convolution"
  bottom: "inception_4b/output"
  top: "inception_4c/1x1"
  param {
    lr_mult: 1
    decay_mult: 1
  }
  param {
    lr_mult: 2
    decay_mult: 0
  }
  convolution_param {
    num_output: 128
    kernel_size: 1
    weight_filler {
      type: "xavier"
      std: 0.03
    }
    bias_filler {
      type: "constant"
      value: 0.2
    }
  }
}
layer {
  name: "inception_4c/relu_1x1"
  type: "ReLU"
  bottom: "inception_4c/1x1"
  top: "inception_4c/1x1"
}
layer {
  name: "inception_4c/3x3_reduce"
  type: "Convolution"
  bottom: "inception_4b/output"
  top: "inception_4c/3x3_reduce"
  param {
    lr_mult: 1
    decay_mult: 1
  }
  param {
    lr_mult: 2
    decay_mult: 0
  }
  convolution_param {
    num_output: 128
    kernel_size: 1
    weight_filler {
      type: "xavier"
      std: 0.09
    }
    bias_filler {
      type: "constant"
      value: 0.2
    }
  }
}
layer {
  name: "inception_4c/relu_3x3_reduce"
  type: "ReLU"
  bottom: "inception_4c/3x3_reduce"
  top: "inception_4c/3x3_reduce"
}
layer {
  name: "inception_4c/3x3"
  type: "Convolution"
  bottom: "inception_4c/3x3_reduce"
  top: "inception_4c/3x3"
  param {
    lr_mult: 1
    decay_mult: 1
  }
  param {
    lr_mult: 2
    decay_mult: 0
  }
  convolution_param {
    num_output: 256
    pad: 1
    kernel_size: 3
    weight_filler {
      type: "xavier"
      std: 0.03
    }
    bias_filler {
      type: "constant"
      value: 0.2
    }
  }
}
layer {
  name: "inception_4c/relu_3x3"
  type: "ReLU"
  bottom: "inception_4c/3x3"
  top: "inception_4c/3x3"
}
layer {
  name: "inception_4c/5x5_reduce"
  type: "Convolution"
  bottom: "inception_4b/output"
  top: "inception_4c/5x5_reduce"
  param {
    lr_mult: 1
    decay_mult: 1
  }
  param {
    lr_mult: 2
    decay_mult: 0
  }
  convolution_param {
    num_output: 24
    kernel_size: 1
    weight_filler {
      type: "xavier"
      std: 0.2
    }
    bias_filler {
      type: "constant"
      value: 0.2
    }
  }
}
layer {
  name: "inception_4c/relu_5x5_reduce"
  type: "ReLU"
  bottom: "inception_4c/5x5_reduce"
  top: "inception_4c/5x5_reduce"
}
layer {
  name: "inception_4c/5x5"
  type: "Convolution"
  bottom: "inception_4c/5x5_reduce"
  top: "inception_4c/5x5"
  param {
    lr_mult: 1
    decay_mult: 1
  }
  param {
    lr_mult: 2
    decay_mult: 0
  }
  convolution_param {
    num_output: 64
    pad: 2
    kernel_size: 5
    weight_filler {
      type: "xavier"
      std: 0.03
    }
    bias_filler {
      type: "constant"
      value: 0.2
    }
  }
}
layer {
  name: "inception_4c/relu_5x5"
  type: "ReLU"
  bottom: "inception_4c/5x5"
  top: "inception_4c/5x5"
}
layer {
  name: "inception_4c/pool"
  type: "Pooling"
  bottom: "inception_4b/output"
  top: "inception_4c/pool"
  pooling_param {
    pool: MAX
    kernel_size: 3
    stride: 1
    pad: 1
  }
}
layer {
  name: "inception_4c/pool_proj"
  type: "Convolution"
  bottom: "inception_4c/pool"
  top: "inception_4c/pool_proj"
  param {
    lr_mult: 1
    decay_mult: 1
  }
  param {
    lr_mult: 2
    decay_mult: 0
  }
  convolution_param {
    num_output: 64
    kernel_size: 1
    weight_filler {
      type: "xavier"
      std: 0.1
    }
    bias_filler {
      type: "constant"
      value: 0.2
    }
  }
}
layer {
  name: "inception_4c/relu_pool_proj"
  type: "ReLU"
  bottom: "inception_4c/pool_proj"
  top: "inception_4c/pool_proj"
}
layer {
  name: "inception_4c/output"
  type: "Concat"
  bottom: "inception_4c/1x1"
  bottom: "inception_4c/3x3"
  bottom: "inception_4c/5x5"
  bottom: "inception_4c/pool_proj"
  top: "inception_4c/output"
}
layer {
  name: "inception_4d/1x1"
  type: "Convolution"
  bottom: "inception_4c/output"
  top: "inception_4d/1x1"
  param {
    lr_mult: 1
    decay_mult: 1
  }
  param {
    lr_mult: 2
    decay_mult: 0
  }
  convolution_param {
    num_output: 112
    kernel_size: 1
    weight_filler {
      type: "xavier"
      std: 0.03
    }
    bias_filler {
      type: "constant"
      value: 0.2
    }
  }
}
layer {
  name: "inception_4d/relu_1x1"
  type: "ReLU"
  bottom: "inception_4d/1x1"
  top: "inception_4d/1x1"
}
layer {
  name: "inception_4d/3x3_reduce"
  type: "Convolution"
  bottom: "inception_4c/output"
  top: "inception_4d/3x3_reduce"
  param {
    lr_mult: 1
    decay_mult: 1
  }
  param {
    lr_mult: 2
    decay_mult: 0
  }
  convolution_param {
    num_output: 144
    kernel_size: 1
    weight_filler {
      type: "xavier"
      std: 0.09
    }
    bias_filler {
      type: "constant"
      value: 0.2
    }
  }
}
layer {
  name: "inception_4d/relu_3x3_reduce"
  type: "ReLU"
  bottom: "inception_4d/3x3_reduce"
  top: "inception_4d/3x3_reduce"
}
layer {
  name: "inception_4d/3x3"
  type: "Convolution"
  bottom: "inception_4d/3x3_reduce"
  top: "inception_4d/3x3"
  param {
    lr_mult: 1
    decay_mult: 1
  }
  param {
    lr_mult: 2
    decay_mult: 0
  }
  convolution_param {
    num_output: 288
    pad: 1
    kernel_size: 3
    weight_filler {
      type: "xavier"
      std: 0.03
    }
    bias_filler {
      type: "constant"
      value: 0.2
    }
  }
}
layer {
  name: "inception_4d/relu_3x3"
  type: "ReLU"
  bottom: "inception_4d/3x3"
  top: "inception_4d/3x3"
}
layer {
  name: "inception_4d/5x5_reduce"
  type: "Convolution"
  bottom: "inception_4c/output"
  top: "inception_4d/5x5_reduce"
  param {
    lr_mult: 1
    decay_mult: 1
  }
  param {
    lr_mult: 2
    decay_mult: 0
  }
  convolution_param {
    num_output: 32
    kernel_size: 1
    weight_filler {
      type: "xavier"
      std: 0.2
    }
    bias_filler {
      type: "constant"
      value: 0.2
    }
  }
}
layer {
  name: "inception_4d/relu_5x5_reduce"
  type: "ReLU"
  bottom: "inception_4d/5x5_reduce"
  top: "inception_4d/5x5_reduce"
}
layer {
  name: "inception_4d/5x5"
  type: "Convolution"
  bottom: "inception_4d/5x5_reduce"
  top: "inception_4d/5x5"
  param {
    lr_mult: 1
    decay_mult: 1
  }
  param {
    lr_mult: 2
    decay_mult: 0
  }
  convolution_param {
    num_output: 64
    pad: 2
    kernel_size: 5
    weight_filler {
      type: "xavier"
      std: 0.03
    }
    bias_filler {
      type: "constant"
      value: 0.2
    }
  }
}
layer {
  name: "inception_4d/relu_5x5"
  type: "ReLU"
  bottom: "inception_4d/5x5"
  top: "inception_4d/5x5"
}
layer {
  name: "inception_4d/pool"
  type: "Pooling"
  bottom: "inception_4c/output"
  top: "inception_4d/pool"
  pooling_param {
    pool: MAX
    kernel_size: 3
    stride: 1
    pad: 1
  }
}
layer {
  name: "inception_4d/pool_proj"
  type: "Convolution"
  bottom: "inception_4d/pool"
  top: "inception_4d/pool_proj"
  param {
    lr_mult: 1
    decay_mult: 1
  }
  param {
    lr_mult: 2
    decay_mult: 0
  }
  convolution_param {
    num_output: 64
    kernel_size: 1
    weight_filler {
      type: "xavier"
      std: 0.1
    }
    bias_filler {
      type: "constant"
      value: 0.2
    }
  }
}
layer {
  name: "inception_4d/relu_pool_proj"
  type: "ReLU"
  bottom: "inception_4d/pool_proj"
  top: "inception_4d/pool_proj"
}
layer {
  name: "inception_4d/output"
  type: "Concat"
  bottom: "inception_4d/1x1"
  bottom: "inception_4d/3x3"
  bottom: "inception_4d/5x5"
  bottom: "inception_4d/pool_proj"
  top: "inception_4d/output"
}
layer {
  name: "loss2/ave_pool"
  type: "Pooling"
  bottom: "inception_4d/output"
  top: "loss2/ave_pool"
  pooling_param {
    pool: AVE
    kernel_size: 5
    stride: 3
  }
}
layer {
  name: "loss2/conv"
  type: "Convolution"
  bottom: "loss2/ave_pool"
  top: "loss2/conv"
  param {
    lr_mult: 1
    decay_mult: 1
  }
  param {
    lr_mult: 2
    decay_mult: 0
  }
  convolution_param {
    num_output: 128
    kernel_size: 1
    weight_filler {
      type: "xavier"
      std: 0.08
    }
    bias_filler {
      type: "constant"
      value: 0.2
    }
  }
}
layer {
  name: "loss2/relu_conv"
  type: "ReLU"
  bottom: "loss2/conv"
  top: "loss2/conv"
}
layer {
  name: "loss2/fc"
  type: "InnerProduct"
  bottom: "loss2/conv"
  top: "loss2/fc"
  param {
    lr_mult: 1
    decay_mult: 1
  }
  param {
    lr_mult: 2
    decay_mult: 0
  }
  inner_product_param {
    num_output: 1024
    weight_filler {
      type: "xavier"
      std: 0.02
    }
    bias_filler {
      type: "constant"
      value: 0.2
    }
  }
}
layer {
  name: "loss2/relu_fc"
  type: "ReLU"
  bottom: "loss2/fc"
  top: "loss2/fc"
}
layer {
  name: "loss2/drop_fc"
  type: "Dropout"
  bottom: "loss2/fc"
  top: "loss2/fc"
  dropout_param {
    dropout_ratio: 0.7
  }
}
layer {
  name: "loss2/classifier_plantvillage"
  type: "InnerProduct"
  bottom: "loss2/fc"
  top: "loss2/classifier_plantvillage"
  param {
    lr_mult: 1
    decay_mult: 1
  }
  param {
    lr_mult: 2
    decay_mult: 0
  }
  inner_product_param {
    num_output: 38
    weight_filler {
      type: "xavier"
      std: 0.0009765625
    }
    bias_filler {
      type: "constant"
      value: 0
    }
  }
}
layer {
  name: "inception_4e/1x1"
  type: "Convolution"
  bottom: "inception_4d/output"
  top: "inception_4e/1x1"
  param {
    lr_mult: 1
    decay_mult: 1
  }
  param {
    lr_mult: 2
    decay_mult: 0
  }
  convolution_param {
    num_output: 256
    kernel_size: 1
    weight_filler {
      type: "xavier"
      std: 0.03
    }
    bias_filler {
      type: "constant"
      value: 0.2
    }
  }
}
layer {
  name: "inception_4e/relu_1x1"
  type: "ReLU"
  bottom: "inception_4e/1x1"
  top: "inception_4e/1x1"
}
layer {
  name: "inception_4e/3x3_reduce"
  type: "Convolution"
  bottom: "inception_4d/output"
  top: "inception_4e/3x3_reduce"
  param {
    lr_mult: 1
    decay_mult: 1
  }
  param {
    lr_mult: 2
    decay_mult: 0
  }
  convolution_param {
    num_output: 160
    kernel_size: 1
    weight_filler {
      type: "xavier"
      std: 0.09
    }
    bias_filler {
      type: "constant"
      value: 0.2
    }
  }
}
layer {
  name: "inception_4e/relu_3x3_reduce"
  type: "ReLU"
  bottom: "inception_4e/3x3_reduce"
  top: "inception_4e/3x3_reduce"
}
layer {
  name: "inception_4e/3x3"
  type: "Convolution"
  bottom: "inception_4e/3x3_reduce"
  top: "inception_4e/3x3"
  param {
    lr_mult: 1
    decay_mult: 1
  }
  param {
    lr_mult: 2
    decay_mult: 0
  }
  convolution_param {
    num_output: 320
    pad: 1
    kernel_size: 3
    weight_filler {
      type: "xavier"
      std: 0.03
    }
    bias_filler {
      type: "constant"
      value: 0.2
    }
  }
}
layer {
  name: "inception_4e/relu_3x3"
  type: "ReLU"
  bottom: "inception_4e/3x3"
  top: "inception_4e/3x3"
}
layer {
  name: "inception_4e/5x5_reduce"
  type: "Convolution"
  bottom: "inception_4d/output"
  top: "inception_4e/5x5_reduce"
  param {
    lr_mult: 1
    decay_mult: 1
  }
  param {
    lr_mult: 2
    decay_mult: 0
  }
  convolution_param {
    num_output: 32
    kernel_size: 1
    weight_filler {
      type: "xavier"
      std: 0.2
    }
    bias_filler {
      type: "constant"
      value: 0.2
    }
  }
}
layer {
  name: "inception_4e/relu_5x5_reduce"
  type: "ReLU"
  bottom: "inception_4e/5x5_reduce"
  top: "inception_4e/5x5_reduce"
}
layer {
  name: "inception_4e/5x5"
  type: "Convolution"
  bottom: "inception_4e/5x5_reduce"
  top: "inception_4e/
I0403 18:45:11.904778  7491 layer_factory.hpp:77] Creating layer data
I0403 18:45:11.905508  7491 net.cpp:91] Creating Layer data
I0403 18:45:11.905546  7491 net.cpp:399] data -> data
I0403 18:45:11.905606  7491 net.cpp:399] data -> label
I0403 18:45:11.905650  7491 data_transformer.cpp:25] Loading mean file from: /home/mohanty/data/final_dataset/lmdb/grayscale-40-60/mean.binaryproto
I0403 18:45:11.906811  7493 db_lmdb.cpp:38] Opened lmdb /home/mohanty/data/final_dataset/lmdb/grayscale-40-60/test_db
I0403 18:45:11.921825  7491 data_layer.cpp:41] output data size: 24,3,224,224
I0403 18:45:11.954151  7491 net.cpp:141] Setting up data
I0403 18:45:11.954259  7491 net.cpp:148] Top shape: 24 3 224 224 (3612672)
I0403 18:45:11.954291  7491 net.cpp:148] Top shape: 24 (24)
I0403 18:45:11.954313  7491 net.cpp:156] Memory required for data: 14450784
I0403 18:45:11.954345  7491 layer_factory.hpp:77] Creating layer label_data_1_split
I0403 18:45:11.954378  7491 net.cpp:91] Creating Layer label_data_1_split
I0403 18:45:11.954401  7491 net.cpp:425] label_data_1_split <- label
I0403 18:45:11.954442  7491 net.cpp:399] label_data_1_split -> label_data_1_split_0
I0403 18:45:11.954475  7491 net.cpp:399] label_data_1_split -> label_data_1_split_1
I0403 18:45:11.954501  7491 net.cpp:399] label_data_1_split -> label_data_1_split_2
I0403 18:45:11.954529  7491 net.cpp:399] label_data_1_split -> label_data_1_split_3
I0403 18:45:11.954553  7491 net.cpp:399] label_data_1_split -> label_data_1_split_4
I0403 18:45:11.954577  7491 net.cpp:399] label_data_1_split -> label_data_1_split_5
I0403 18:45:11.954602  7491 net.cpp:399] label_data_1_split -> label_data_1_split_6
I0403 18:45:11.954628  7491 net.cpp:399] label_data_1_split -> label_data_1_split_7
I0403 18:45:11.954654  7491 net.cpp:399] label_data_1_split -> label_data_1_split_8
I0403 18:45:11.954680  7491 net.cpp:399] label_data_1_split -> label_data_1_split_9
I0403 18:45:11.954823  7491 net.cpp:141] Setting up label_data_1_split
I0403 18:45:11.954854  7491 net.cpp:148] Top shape: 24 (24)
I0403 18:45:11.954877  7491 net.cpp:148] Top shape: 24 (24)
I0403 18:45:11.954900  7491 net.cpp:148] Top shape: 24 (24)
I0403 18:45:11.954921  7491 net.cpp:148] Top shape: 24 (24)
I0403 18:45:11.954942  7491 net.cpp:148] Top shape: 24 (24)
I0403 18:45:11.954962  7491 net.cpp:148] Top shape: 24 (24)
I0403 18:45:11.954982  7491 net.cpp:148] Top shape: 24 (24)
I0403 18:45:11.955003  7491 net.cpp:148] Top shape: 24 (24)
I0403 18:45:11.955024  7491 net.cpp:148] Top shape: 24 (24)
I0403 18:45:11.955045  7491 net.cpp:148] Top shape: 24 (24)
I0403 18:45:11.955101  7491 net.cpp:156] Memory required for data: 14451744
I0403 18:45:11.955122  7491 layer_factory.hpp:77] Creating layer conv1/7x7_s2
I0403 18:45:11.955163  7491 net.cpp:91] Creating Layer conv1/7x7_s2
I0403 18:45:11.955186  7491 net.cpp:425] conv1/7x7_s2 <- data
I0403 18:45:11.955210  7491 net.cpp:399] conv1/7x7_s2 -> conv1/7x7_s2
I0403 18:45:12.126718  7491 net.cpp:141] Setting up conv1/7x7_s2
I0403 18:45:12.126838  7491 net.cpp:148] Top shape: 24 64 112 112 (19267584)
I0403 18:45:12.126860  7491 net.cpp:156] Memory required for data: 91522080
I0403 18:45:12.126899  7491 layer_factory.hpp:77] Creating layer conv1/relu_7x7
I0403 18:45:12.126935  7491 net.cpp:91] Creating Layer conv1/relu_7x7
I0403 18:45:12.126957  7491 net.cpp:425] conv1/relu_7x7 <- conv1/7x7_s2
I0403 18:45:12.126981  7491 net.cpp:386] conv1/relu_7x7 -> conv1/7x7_s2 (in-place)
I0403 18:45:12.127292  7491 net.cpp:141] Setting up conv1/relu_7x7
I0403 18:45:12.127327  7491 net.cpp:148] Top shape: 24 64 112 112 (19267584)
I0403 18:45:12.127347  7491 net.cpp:156] Memory required for data: 168592416
I0403 18:45:12.127367  7491 layer_factory.hpp:77] Creating layer pool1/3x3_s2
I0403 18:45:12.127399  7491 net.cpp:91] Creating Layer pool1/3x3_s2
I0403 18:45:12.127424  7491 net.cpp:425] pool1/3x3_s2 <- conv1/7x7_s2
I0403 18:45:12.127449  7491 net.cpp:399] pool1/3x3_s2 -> pool1/3x3_s2
I0403 18:45:12.127542  7491 net.cpp:141] Setting up pool1/3x3_s2
I0403 18:45:12.127575  7491 net.cpp:148] Top shape: 24 64 56 56 (4816896)
I0403 18:45:12.127595  7491 net.cpp:156] Memory required for data: 187860000
I0403 18:45:12.127614  7491 layer_factory.hpp:77] Creating layer pool1/norm1
I0403 18:45:12.127645  7491 net.cpp:91] Creating Layer pool1/norm1
I0403 18:45:12.127668  7491 net.cpp:425] pool1/norm1 <- pool1/3x3_s2
I0403 18:45:12.127692  7491 net.cpp:399] pool1/norm1 -> pool1/norm1
I0403 18:45:12.128031  7491 net.cpp:141] Setting up pool1/norm1
I0403 18:45:12.128067  7491 net.cpp:148] Top shape: 24 64 56 56 (4816896)
I0403 18:45:12.128087  7491 net.cpp:156] Memory required for data: 207127584
I0403 18:45:12.128106  7491 layer_factory.hpp:77] Creating layer conv2/3x3_reduce
I0403 18:45:12.128137  7491 net.cpp:91] Creating Layer conv2/3x3_reduce
I0403 18:45:12.128159  7491 net.cpp:425] conv2/3x3_reduce <- pool1/norm1
I0403 18:45:12.128183  7491 net.cpp:399] conv2/3x3_reduce -> conv2/3x3_reduce
I0403 18:45:12.129817  7491 net.cpp:141] Setting up conv2/3x3_reduce
I0403 18:45:12.129853  7491 net.cpp:148] Top shape: 24 64 56 56 (4816896)
I0403 18:45:12.129871  7491 net.cpp:156] Memory required for data: 226395168
I0403 18:45:12.129899  7491 layer_factory.hpp:77] Creating layer conv2/relu_3x3_reduce
I0403 18:45:12.129921  7491 net.cpp:91] Creating Layer conv2/relu_3x3_reduce
I0403 18:45:12.129940  7491 net.cpp:425] conv2/relu_3x3_reduce <- conv2/3x3_reduce
I0403 18:45:12.129964  7491 net.cpp:386] conv2/relu_3x3_reduce -> conv2/3x3_reduce (in-place)
I0403 18:45:12.130295  7491 net.cpp:141] Setting up conv2/relu_3x3_reduce
I0403 18:45:12.130327  7491 net.cpp:148] Top shape: 24 64 56 56 (4816896)
I0403 18:45:12.130348  7491 net.cpp:156] Memory required for data: 245662752
I0403 18:45:12.130367  7491 layer_factory.hpp:77] Creating layer conv2/3x3
I0403 18:45:12.130398  7491 net.cpp:91] Creating Layer conv2/3x3
I0403 18:45:12.130420  7491 net.cpp:425] conv2/3x3 <- conv2/3x3_reduce
I0403 18:45:12.130446  7491 net.cpp:399] conv2/3x3 -> conv2/3x3
I0403 18:45:12.133234  7491 net.cpp:141] Setting up conv2/3x3
I0403 18:45:12.133276  7491 net.cpp:148] Top shape: 24 192 56 56 (14450688)
I0403 18:45:12.133297  7491 net.cpp:156] Memory required for data: 303465504
I0403 18:45:12.133324  7491 layer_factory.hpp:77] Creating layer conv2/relu_3x3
I0403 18:45:12.133347  7491 net.cpp:91] Creating Layer conv2/relu_3x3
I0403 18:45:12.133366  7491 net.cpp:425] conv2/relu_3x3 <- conv2/3x3
I0403 18:45:12.133390  7491 net.cpp:386] conv2/relu_3x3 -> conv2/3x3 (in-place)
I0403 18:45:12.133607  7491 net.cpp:141] Setting up conv2/relu_3x3
I0403 18:45:12.133638  7491 net.cpp:148] Top shape: 24 192 56 56 (14450688)
I0403 18:45:12.133692  7491 net.cpp:156] Memory required for data: 361268256
I0403 18:45:12.133713  7491 layer_factory.hpp:77] Creating layer conv2/norm2
I0403 18:45:12.133738  7491 net.cpp:91] Creating Layer conv2/norm2
I0403 18:45:12.133759  7491 net.cpp:425] conv2/norm2 <- conv2/3x3
I0403 18:45:12.133783  7491 net.cpp:399] conv2/norm2 -> conv2/norm2
I0403 18:45:12.134145  7491 net.cpp:141] Setting up conv2/norm2
I0403 18:45:12.134181  7491 net.cpp:148] Top shape: 24 192 56 56 (14450688)
I0403 18:45:12.134202  7491 net.cpp:156] Memory required for data: 419071008
I0403 18:45:12.134219  7491 layer_factory.hpp:77] Creating layer pool2/3x3_s2
I0403 18:45:12.134246  7491 net.cpp:91] Creating Layer pool2/3x3_s2
I0403 18:45:12.134269  7491 net.cpp:425] pool2/3x3_s2 <- conv2/norm2
I0403 18:45:12.134294  7491 net.cpp:399] pool2/3x3_s2 -> pool2/3x3_s2
I0403 18:45:12.134359  7491 net.cpp:141] Setting up pool2/3x3_s2
I0403 18:45:12.134387  7491 net.cpp:148] Top shape: 24 192 28 28 (3612672)
I0403 18:45:12.134405  7491 net.cpp:156] Memory required for data: 433521696
I0403 18:45:12.134423  7491 layer_factory.hpp:77] Creating layer pool2/3x3_s2_pool2/3x3_s2_0_split
I0403 18:45:12.134449  7491 net.cpp:91] Creating Layer pool2/3x3_s2_pool2/3x3_s2_0_split
I0403 18:45:12.134469  7491 net.cpp:425] pool2/3x3_s2_pool2/3x3_s2_0_split <- pool2/3x3_s2
I0403 18:45:12.134491  7491 net.cpp:399] pool2/3x3_s2_pool2/3x3_s2_0_split -> pool2/3x3_s2_pool2/3x3_s2_0_split_0
I0403 18:45:12.134516  7491 net.cpp:399] pool2/3x3_s2_pool2/3x3_s2_0_split -> pool2/3x3_s2_pool2/3x3_s2_0_split_1
I0403 18:45:12.134542  7491 net.cpp:399] pool2/3x3_s2_pool2/3x3_s2_0_split -> pool2/3x3_s2_pool2/3x3_s2_0_split_2
I0403 18:45:12.134567  7491 net.cpp:399] pool2/3x3_s2_pool2/3x3_s2_0_split -> pool2/3x3_s2_pool2/3x3_s2_0_split_3
I0403 18:45:12.134654  7491 net.cpp:141] Setting up pool2/3x3_s2_pool2/3x3_s2_0_split
I0403 18:45:12.134681  7491 net.cpp:148] Top shape: 24 192 28 28 (3612672)
I0403 18:45:12.134702  7491 net.cpp:148] Top shape: 24 192 28 28 (3612672)
I0403 18:45:12.134723  7491 net.cpp:148] Top shape: 24 192 28 28 (3612672)
I0403 18:45:12.134743  7491 net.cpp:148] Top shape: 24 192 28 28 (3612672)
I0403 18:45:12.134760  7491 net.cpp:156] Memory required for data: 491324448
I0403 18:45:12.134778  7491 layer_factory.hpp:77] Creating layer inception_3a/1x1
I0403 18:45:12.134809  7491 net.cpp:91] Creating Layer inception_3a/1x1
I0403 18:45:12.134830  7491 net.cpp:425] inception_3a/1x1 <- pool2/3x3_s2_pool2/3x3_s2_0_split_0
I0403 18:45:12.134856  7491 net.cpp:399] inception_3a/1x1 -> inception_3a/1x1
I0403 18:45:12.136705  7491 net.cpp:141] Setting up inception_3a/1x1
I0403 18:45:12.136745  7491 net.cpp:148] Top shape: 24 64 28 28 (1204224)
I0403 18:45:12.136766  7491 net.cpp:156] Memory required for data: 496141344
I0403 18:45:12.136790  7491 layer_factory.hpp:77] Creating layer inception_3a/relu_1x1
I0403 18:45:12.136812  7491 net.cpp:91] Creating Layer inception_3a/relu_1x1
I0403 18:45:12.136832  7491 net.cpp:425] inception_3a/relu_1x1 <- inception_3a/1x1
I0403 18:45:12.136857  7491 net.cpp:386] inception_3a/relu_1x1 -> inception_3a/1x1 (in-place)
I0403 18:45:12.137070  7491 net.cpp:141] Setting up inception_3a/relu_1x1
I0403 18:45:12.137101  7491 net.cpp:148] Top shape: 24 64 28 28 (1204224)
I0403 18:45:12.137120  7491 net.cpp:156] Memory required for data: 500958240
I0403 18:45:12.137140  7491 layer_factory.hpp:77] Creating layer inception_3a/3x3_reduce
I0403 18:45:12.137166  7491 net.cpp:91] Creating Layer inception_3a/3x3_reduce
I0403 18:45:12.137189  7491 net.cpp:425] inception_3a/3x3_reduce <- pool2/3x3_s2_pool2/3x3_s2_0_split_1
I0403 18:45:12.137215  7491 net.cpp:399] inception_3a/3x3_reduce -> inception_3a/3x3_reduce
I0403 18:45:12.139245  7491 net.cpp:141] Setting up inception_3a/3x3_reduce
I0403 18:45:12.139282  7491 net.cpp:148] Top shape: 24 96 28 28 (1806336)
I0403 18:45:12.139302  7491 net.cpp:156] Memory required for data: 508183584
I0403 18:45:12.139328  7491 layer_factory.hpp:77] Creating layer inception_3a/relu_3x3_reduce
I0403 18:45:12.139377  7491 net.cpp:91] Creating Layer inception_3a/relu_3x3_reduce
I0403 18:45:12.139401  7491 net.cpp:425] inception_3a/relu_3x3_reduce <- inception_3a/3x3_reduce
I0403 18:45:12.139425  7491 net.cpp:386] inception_3a/relu_3x3_reduce -> inception_3a/3x3_reduce (in-place)
I0403 18:45:12.139647  7491 net.cpp:141] Setting up inception_3a/relu_3x3_reduce
I0403 18:45:12.139680  7491 net.cpp:148] Top shape: 24 96 28 28 (1806336)
I0403 18:45:12.139700  7491 net.cpp:156] Memory required for data: 515408928
I0403 18:45:12.139719  7491 layer_factory.hpp:77] Creating layer inception_3a/3x3
I0403 18:45:12.139747  7491 net.cpp:91] Creating Layer inception_3a/3x3
I0403 18:45:12.139770  7491 net.cpp:425] inception_3a/3x3 <- inception_3a/3x3_reduce
I0403 18:45:12.139794  7491 net.cpp:399] inception_3a/3x3 -> inception_3a/3x3
I0403 18:45:12.141806  7491 net.cpp:141] Setting up inception_3a/3x3
I0403 18:45:12.141841  7491 net.cpp:148] Top shape: 24 128 28 28 (2408448)
I0403 18:45:12.141860  7491 net.cpp:156] Memory required for data: 525042720
I0403 18:45:12.141883  7491 layer_factory.hpp:77] Creating layer inception_3a/relu_3x3
I0403 18:45:12.141911  7491 net.cpp:91] Creating Layer inception_3a/relu_3x3
I0403 18:45:12.141932  7491 net.cpp:425] inception_3a/relu_3x3 <- inception_3a/3x3
I0403 18:45:12.141953  7491 net.cpp:386] inception_3a/relu_3x3 -> inception_3a/3x3 (in-place)
I0403 18:45:12.142292  7491 net.cpp:141] Setting up inception_3a/relu_3x3
I0403 18:45:12.142325  7491 net.cpp:148] Top shape: 24 128 28 28 (2408448)
I0403 18:45:12.142344  7491 net.cpp:156] Memory required for data: 534676512
I0403 18:45:12.142364  7491 layer_factory.hpp:77] Creating layer inception_3a/5x5_reduce
I0403 18:45:12.142392  7491 net.cpp:91] Creating Layer inception_3a/5x5_reduce
I0403 18:45:12.142412  7491 net.cpp:425] inception_3a/5x5_reduce <- pool2/3x3_s2_pool2/3x3_s2_0_split_2
I0403 18:45:12.142439  7491 net.cpp:399] inception_3a/5x5_reduce -> inception_3a/5x5_reduce
I0403 18:45:12.143610  7491 net.cpp:141] Setting up inception_3a/5x5_reduce
I0403 18:45:12.143645  7491 net.cpp:148] Top shape: 24 16 28 28 (301056)
I0403 18:45:12.143664  7491 net.cpp:156] Memory required for data: 535880736
I0403 18:45:12.143687  7491 layer_factory.hpp:77] Creating layer inception_3a/relu_5x5_reduce
I0403 18:45:12.143717  7491 net.cpp:91] Creating Layer inception_3a/relu_5x5_reduce
I0403 18:45:12.143738  7491 net.cpp:425] inception_3a/relu_5x5_reduce <- inception_3a/5x5_reduce
I0403 18:45:12.143759  7491 net.cpp:386] inception_3a/relu_5x5_reduce -> inception_3a/5x5_reduce (in-place)
I0403 18:45:12.144089  7491 net.cpp:141] Setting up inception_3a/relu_5x5_reduce
I0403 18:45:12.144121  7491 net.cpp:148] Top shape: 24 16 28 28 (301056)
I0403 18:45:12.144140  7491 net.cpp:156] Memory required for data: 537084960
I0403 18:45:12.144160  7491 layer_factory.hpp:77] Creating layer inception_3a/5x5
I0403 18:45:12.144187  7491 net.cpp:91] Creating Layer inception_3a/5x5
I0403 18:45:12.144209  7491 net.cpp:425] inception_3a/5x5 <- inception_3a/5x5_reduce
I0403 18:45:12.144235  7491 net.cpp:399] inception_3a/5x5 -> inception_3a/5x5
I0403 18:45:12.145478  7491 net.cpp:141] Setting up inception_3a/5x5
I0403 18:45:12.145512  7491 net.cpp:148] Top shape: 24 32 28 28 (602112)
I0403 18:45:12.145532  7491 net.cpp:156] Memory required for data: 539493408
I0403 18:45:12.145556  7491 layer_factory.hpp:77] Creating layer inception_3a/relu_5x5
I0403 18:45:12.145579  7491 net.cpp:91] Creating Layer inception_3a/relu_5x5
I0403 18:45:12.145599  7491 net.cpp:425] inception_3a/relu_5x5 <- inception_3a/5x5
I0403 18:45:12.145624  7491 net.cpp:386] inception_3a/relu_5x5 -> inception_3a/5x5 (in-place)
I0403 18:45:12.145838  7491 net.cpp:141] Setting up inception_3a/relu_5x5
I0403 18:45:12.145869  7491 net.cpp:148] Top shape: 24 32 28 28 (602112)
I0403 18:45:12.145889  7491 net.cpp:156] Memory required for data: 541901856
I0403 18:45:12.145906  7491 layer_factory.hpp:77] Creating layer inception_3a/pool
I0403 18:45:12.145931  7491 net.cpp:91] Creating Layer inception_3a/pool
I0403 18:45:12.145967  7491 net.cpp:425] inception_3a/pool <- pool2/3x3_s2_pool2/3x3_s2_0_split_3
I0403 18:45:12.145992  7491 net.cpp:399] inception_3a/pool -> inception_3a/pool
I0403 18:45:12.146062  7491 net.cpp:141] Setting up inception_3a/pool
I0403 18:45:12.146093  7491 net.cpp:148] Top shape: 24 192 28 28 (3612672)
I0403 18:45:12.146111  7491 net.cpp:156] Memory required for data: 556352544
I0403 18:45:12.146131  7491 layer_factory.hpp:77] Creating layer inception_3a/pool_proj
I0403 18:45:12.146158  7491 net.cpp:91] Creating Layer inception_3a/pool_proj
I0403 18:45:12.146180  7491 net.cpp:425] inception_3a/pool_proj <- inception_3a/pool
I0403 18:45:12.146208  7491 net.cpp:399] inception_3a/pool_proj -> inception_3a/pool_proj
I0403 18:45:12.147370  7491 net.cpp:141] Setting up inception_3a/pool_proj
I0403 18:45:12.147413  7491 net.cpp:148] Top shape: 24 32 28 28 (602112)
I0403 18:45:12.147433  7491 net.cpp:156] Memory required for data: 558760992
I0403 18:45:12.147460  7491 layer_factory.hpp:77] Creating layer inception_3a/relu_pool_proj
I0403 18:45:12.147487  7491 net.cpp:91] Creating Layer inception_3a/relu_pool_proj
I0403 18:45:12.147508  7491 net.cpp:425] inception_3a/relu_pool_proj <- inception_3a/pool_proj
I0403 18:45:12.147532  7491 net.cpp:386] inception_3a/relu_pool_proj -> inception_3a/pool_proj (in-place)
I0403 18:45:12.147857  7491 net.cpp:141] Setting up inception_3a/relu_pool_proj
I0403 18:45:12.147889  7491 net.cpp:148] Top shape: 24 32 28 28 (602112)
I0403 18:45:12.147908  7491 net.cpp:156] Memory required for data: 561169440
I0403 18:45:12.147927  7491 layer_factory.hpp:77] Creating layer inception_3a/output
I0403 18:45:12.147950  7491 net.cpp:91] Creating Layer inception_3a/output
I0403 18:45:12.147969  7491 net.cpp:425] inception_3a/output <- inception_3a/1x1
I0403 18:45:12.147989  7491 net.cpp:425] inception_3a/output <- inception_3a/3x3
I0403 18:45:12.148010  7491 net.cpp:425] inception_3a/output <- inception_3a/5x5
I0403 18:45:12.148030  7491 net.cpp:425] inception_3a/output <- inception_3a/pool_proj
I0403 18:45:12.148053  7491 net.cpp:399] inception_3a/output -> inception_3a/output
I0403 18:45:12.148110  7491 net.cpp:141] Setting up inception_3a/output
I0403 18:45:12.148144  7491 net.cpp:148] Top shape: 24 256 28 28 (4816896)
I0403 18:45:12.148162  7491 net.cpp:156] Memory required for data: 580437024
I0403 18:45:12.148181  7491 layer_factory.hpp:77] Creating layer inception_3a/output_inception_3a/output_0_split
I0403 18:45:12.148202  7491 net.cpp:91] Creating Layer inception_3a/output_inception_3a/output_0_split
I0403 18:45:12.148221  7491 net.cpp:425] inception_3a/output_inception_3a/output_0_split <- inception_3a/output
I0403 18:45:12.148252  7491 net.cpp:399] inception_3a/output_inception_3a/output_0_split -> inception_3a/output_inception_3a/output_0_split_0
I0403 18:45:12.148280  7491 net.cpp:399] inception_3a/output_inception_3a/output_0_split -> inception_3a/output_inception_3a/output_0_split_1
I0403 18:45:12.148308  7491 net.cpp:399] inception_3a/output_inception_3a/output_0_split -> inception_3a/output_inception_3a/output_0_split_2
I0403 18:45:12.148334  7491 net.cpp:399] inception_3a/output_inception_3a/output_0_split -> inception_3a/output_inception_3a/output_0_split_3
I0403 18:45:12.148425  7491 net.cpp:141] Setting up inception_3a/output_inception_3a/output_0_split
I0403 18:45:12.148454  7491 net.cpp:148] Top shape: 24 256 28 28 (4816896)
I0403 18:45:12.148476  7491 net.cpp:148] Top shape: 24 256 28 28 (4816896)
I0403 18:45:12.148496  7491 net.cpp:148] Top shape: 24 256 28 28 (4816896)
I0403 18:45:12.148516  7491 net.cpp:148] Top shape: 24 256 28 28 (4816896)
I0403 18:45:12.148535  7491 net.cpp:156] Memory required for data: 657507360
I0403 18:45:12.148551  7491 layer_factory.hpp:77] Creating layer inception_3b/1x1
I0403 18:45:12.148578  7491 net.cpp:91] Creating Layer inception_3b/1x1
I0403 18:45:12.148602  7491 net.cpp:425] inception_3b/1x1 <- inception_3a/output_inception_3a/output_0_split_0
I0403 18:45:12.148627  7491 net.cpp:399] inception_3b/1x1 -> inception_3b/1x1
I0403 18:45:12.150001  7491 net.cpp:141] Setting up inception_3b/1x1
I0403 18:45:12.150053  7491 net.cpp:148] Top shape: 24 128 28 28 (2408448)
I0403 18:45:12.150074  7491 net.cpp:156] Memory required for data: 667141152
I0403 18:45:12.150097  7491 layer_factory.hpp:77] Creating layer inception_3b/relu_1x1
I0403 18:45:12.150120  7491 net.cpp:91] Creating Layer inception_3b/relu_1x1
I0403 18:45:12.150140  7491 net.cpp:425] inception_3b/relu_1x1 <- inception_3b/1x1
I0403 18:45:12.150164  7491 net.cpp:386] inception_3b/relu_1x1 -> inception_3b/1x1 (in-place)
I0403 18:45:12.150385  7491 net.cpp:141] Setting up inception_3b/relu_1x1
I0403 18:45:12.150416  7491 net.cpp:148] Top shape: 24 128 28 28 (2408448)
I0403 18:45:12.150436  7491 net.cpp:156] Memory required for data: 676774944
I0403 18:45:12.150454  7491 layer_factory.hpp:77] Creating layer inception_3b/3x3_reduce
I0403 18:45:12.150482  7491 net.cpp:91] Creating Layer inception_3b/3x3_reduce
I0403 18:45:12.150504  7491 net.cpp:425] inception_3b/3x3_reduce <- inception_3a/output_inception_3a/output_0_split_1
I0403 18:45:12.150532  7491 net.cpp:399] inception_3b/3x3_reduce -> inception_3b/3x3_reduce
I0403 18:45:12.151919  7491 net.cpp:141] Setting up inception_3b/3x3_reduce
I0403 18:45:12.151957  7491 net.cpp:148] Top shape: 24 128 28 28 (2408448)
I0403 18:45:12.151978  7491 net.cpp:156] Memory required for data: 686408736
I0403 18:45:12.151999  7491 layer_factory.hpp:77] Creating layer inception_3b/relu_3x3_reduce
I0403 18:45:12.152022  7491 net.cpp:91] Creating Layer inception_3b/relu_3x3_reduce
I0403 18:45:12.152042  7491 net.cpp:425] inception_3b/relu_3x3_reduce <- inception_3b/3x3_reduce
I0403 18:45:12.152067  7491 net.cpp:386] inception_3b/relu_3x3_reduce -> inception_3b/3x3_reduce (in-place)
I0403 18:45:12.152295  7491 net.cpp:141] Setting up inception_3b/relu_3x3_reduce
I0403 18:45:12.152328  7491 net.cpp:148] Top shape: 24 128 28 28 (2408448)
I0403 18:45:12.152346  7491 net.cpp:156] Memory required for data: 696042528
I0403 18:45:12.152365  7491 layer_factory.hpp:77] Creating layer inception_3b/3x3
I0403 18:45:12.152397  7491 net.cpp:91] Creating Layer inception_3b/3x3
I0403 18:45:12.152420  7491 net.cpp:425] inception_3b/3x3 <- inception_3b/3x3_reduce
I0403 18:45:12.152443  7491 net.cpp:399] inception_3b/3x3 -> inception_3b/3x3
I0403 18:45:12.155982  7491 net.cpp:141] Setting up inception_3b/3x3
I0403 18:45:12.156018  7491 net.cpp:148] Top shape: 24 192 28 28 (3612672)
I0403 18:45:12.156038  7491 net.cpp:156] Memory required for data: 710493216
I0403 18:45:12.156061  7491 layer_factory.hpp:77] Creating layer inception_3b/relu_3x3
I0403 18:45:12.156088  7491 net.cpp:91] Creating Layer inception_3b/relu_3x3
I0403 18:45:12.156108  7491 net.cpp:425] inception_3b/relu_3x3 <- inception_3b/3x3
I0403 18:45:12.156131  7491 net.cpp:386] inception_3b/relu_3x3 -> inception_3b/3x3 (in-place)
I0403 18:45:12.156471  7491 net.cpp:141] Setting up inception_3b/relu_3x3
I0403 18:45:12.156505  7491 net.cpp:148] Top shape: 24 192 28 28 (3612672)
I0403 18:45:12.156524  7491 net.cpp:156] Memory required for data: 724943904
I0403 18:45:12.156543  7491 layer_factory.hpp:77] Creating layer inception_3b/5x5_reduce
I0403 18:45:12.156574  7491 net.cpp:91] Creating Layer inception_3b/5x5_reduce
I0403 18:45:12.156596  7491 net.cpp:425] inception_3b/5x5_reduce <- inception_3a/output_inception_3a/output_0_split_2
I0403 18:45:12.156625  7491 net.cpp:399] inception_3b/5x5_reduce -> inception_3b/5x5_reduce
I0403 18:45:12.157832  7491 net.cpp:141] Setting up inception_3b/5x5_reduce
I0403 18:45:12.157867  7491 net.cpp:148] Top shape: 24 32 28 28 (602112)
I0403 18:45:12.157886  7491 net.cpp:156] Memory required for data: 727352352
I0403 18:45:12.157908  7491 layer_factory.hpp:77] Creating layer inception_3b/relu_5x5_reduce
I0403 18:45:12.157932  7491 net.cpp:91] Creating Layer inception_3b/relu_5x5_reduce
I0403 18:45:12.157955  7491 net.cpp:425] inception_3b/relu_5x5_reduce <- inception_3b/5x5_reduce
I0403 18:45:12.157977  7491 net.cpp:386] inception_3b/relu_5x5_reduce -> inception_3b/5x5_reduce (in-place)
I0403 18:45:12.158212  7491 net.cpp:141] Setting up inception_3b/relu_5x5_reduce
I0403 18:45:12.158251  7491 net.cpp:148] Top shape: 24 32 28 28 (602112)
I0403 18:45:12.158272  7491 net.cpp:156] Memory required for data: 729760800
I0403 18:45:12.158290  7491 layer_factory.hpp:77] Creating layer inception_3b/5x5
I0403 18:45:12.158318  7491 net.cpp:91] Creating Layer inception_3b/5x5
I0403 18:45:12.158341  7491 net.cpp:425] inception_3b/5x5 <- inception_3b/5x5_reduce
I0403 18:45:12.158368  7491 net.cpp:399] inception_3b/5x5 -> inception_3b/5x5
I0403 18:45:12.160776  7491 net.cpp:141] Setting up inception_3b/5x5
I0403 18:45:12.160820  7491 net.cpp:148] Top shape: 24 96 28 28 (1806336)
I0403 18:45:12.160842  7491 net.cpp:156] Memory required for data: 736986144
I0403 18:45:12.160866  7491 layer_factory.hpp:77] Creating layer inception_3b/relu_5x5
I0403 18:45:12.160889  7491 net.cpp:91] Creating Layer inception_3b/relu_5x5
I0403 18:45:12.160909  7491 net.cpp:425] inception_3b/relu_5x5 <- inception_3b/5x5
I0403 18:45:12.160933  7491 net.cpp:386] inception_3b/relu_5x5 -> inception_3b/5x5 (in-place)
I0403 18:45:12.161171  7491 net.cpp:141] Setting up inception_3b/relu_5x5
I0403 18:45:12.161203  7491 net.cpp:148] Top shape: 24 96 28 28 (1806336)
I0403 18:45:12.161221  7491 net.cpp:156] Memory required for data: 744211488
I0403 18:45:12.161247  7491 layer_factory.hpp:77] Creating layer inception_3b/pool
I0403 18:45:12.161272  7491 net.cpp:91] Creating Layer inception_3b/pool
I0403 18:45:12.161291  7491 net.cpp:425] inception_3b/pool <- inception_3a/output_inception_3a/output_0_split_3
I0403 18:45:12.161315  7491 net.cpp:399] inception_3b/pool -> inception_3b/pool
I0403 18:45:12.161384  7491 net.cpp:141] Setting up inception_3b/pool
I0403 18:45:12.161414  7491 net.cpp:148] Top shape: 24 256 28 28 (4816896)
I0403 18:45:12.161432  7491 net.cpp:156] Memory required for data: 763479072
I0403 18:45:12.161453  7491 layer_factory.hpp:77] Creating layer inception_3b/pool_proj
I0403 18:45:12.161483  7491 net.cpp:91] Creating Layer inception_3b/pool_proj
I0403 18:45:12.161505  7491 net.cpp:425] inception_3b/pool_proj <- inception_3b/pool
I0403 18:45:12.161530  7491 net.cpp:399] inception_3b/pool_proj -> inception_3b/pool_proj
I0403 18:45:12.162828  7491 net.cpp:141] Setting up inception_3b/pool_proj
I0403 18:45:12.162863  7491 net.cpp:148] Top shape: 24 64 28 28 (1204224)
I0403 18:45:12.162883  7491 net.cpp:156] Memory required for data: 768295968
I0403 18:45:12.162907  7491 layer_factory.hpp:77] Creating layer inception_3b/relu_pool_proj
I0403 18:45:12.162933  7491 net.cpp:91] Creating Layer inception_3b/relu_pool_proj
I0403 18:45:12.162955  7491 net.cpp:425] inception_3b/relu_pool_proj <- inception_3b/pool_proj
I0403 18:45:12.162977  7491 net.cpp:386] inception_3b/relu_pool_proj -> inception_3b/pool_proj (in-place)
I0403 18:45:12.163432  7491 net.cpp:141] Setting up inception_3b/relu_pool_proj
I0403 18:45:12.163465  7491 net.cpp:148] Top shape: 24 64 28 28 (1204224)
I0403 18:45:12.163485  7491 net.cpp:156] Memory required for data: 773112864
I0403 18:45:12.163503  7491 layer_factory.hpp:77] Creating layer inception_3b/output
I0403 18:45:12.163529  7491 net.cpp:91] Creating Layer inception_3b/output
I0403 18:45:12.163548  7491 net.cpp:425] inception_3b/output <- inception_3b/1x1
I0403 18:45:12.163570  7491 net.cpp:425] inception_3b/output <- inception_3b/3x3
I0403 18:45:12.163591  7491 net.cpp:425] inception_3b/output <- inception_3b/5x5
I0403 18:45:12.163611  7491 net.cpp:425] inception_3b/output <- inception_3b/pool_proj
I0403 18:45:12.163632  7491 net.cpp:399] inception_3b/output -> inception_3b/output
I0403 18:45:12.163689  7491 net.cpp:141] Setting up inception_3b/output
I0403 18:45:12.163718  7491 net.cpp:148] Top shape: 24 480 28 28 (9031680)
I0403 18:45:12.163738  7491 net.cpp:156] Memory required for data: 809239584
I0403 18:45:12.163755  7491 layer_factory.hpp:77] Creating layer pool3/3x3_s2
I0403 18:45:12.163777  7491 net.cpp:91] Creating Layer pool3/3x3_s2
I0403 18:45:12.163796  7491 net.cpp:425] pool3/3x3_s2 <- inception_3b/output
I0403 18:45:12.163846  7491 net.cpp:399] pool3/3x3_s2 -> pool3/3x3_s2
I0403 18:45:12.163918  7491 net.cpp:141] Setting up pool3/3x3_s2
I0403 18:45:12.163951  7491 net.cpp:148] Top shape: 24 480 14 14 (2257920)
I0403 18:45:12.163971  7491 net.cpp:156] Memory required for data: 818271264
I0403 18:45:12.163988  7491 layer_factory.hpp:77] Creating layer pool3/3x3_s2_pool3/3x3_s2_0_split
I0403 18:45:12.164010  7491 net.cpp:91] Creating Layer pool3/3x3_s2_pool3/3x3_s2_0_split
I0403 18:45:12.164028  7491 net.cpp:425] pool3/3x3_s2_pool3/3x3_s2_0_split <- pool3/3x3_s2
I0403 18:45:12.164050  7491 net.cpp:399] pool3/3x3_s2_pool3/3x3_s2_0_split -> pool3/3x3_s2_pool3/3x3_s2_0_split_0
I0403 18:45:12.164073  7491 net.cpp:399] pool3/3x3_s2_pool3/3x3_s2_0_split -> pool3/3x3_s2_pool3/3x3_s2_0_split_1
I0403 18:45:12.164100  7491 net.cpp:399] pool3/3x3_s2_pool3/3x3_s2_0_split -> pool3/3x3_s2_pool3/3x3_s2_0_split_2
I0403 18:45:12.164125  7491 net.cpp:399] pool3/3x3_s2_pool3/3x3_s2_0_split -> pool3/3x3_s2_pool3/3x3_s2_0_split_3
I0403 18:45:12.164221  7491 net.cpp:141] Setting up pool3/3x3_s2_pool3/3x3_s2_0_split
I0403 18:45:12.164258  7491 net.cpp:148] Top shape: 24 480 14 14 (2257920)
I0403 18:45:12.164280  7491 net.cpp:148] Top shape: 24 480 14 14 (2257920)
I0403 18:45:12.164299  7491 net.cpp:148] Top shape: 24 480 14 14 (2257920)
I0403 18:45:12.164319  7491 net.cpp:148] Top shape: 24 480 14 14 (2257920)
I0403 18:45:12.164337  7491 net.cpp:156] Memory required for data: 854397984
I0403 18:45:12.164355  7491 layer_factory.hpp:77] Creating layer inception_4a/1x1
I0403 18:45:12.164382  7491 net.cpp:91] Creating Layer inception_4a/1x1
I0403 18:45:12.164405  7491 net.cpp:425] inception_4a/1x1 <- pool3/3x3_s2_pool3/3x3_s2_0_split_0
I0403 18:45:12.164434  7491 net.cpp:399] inception_4a/1x1 -> inception_4a/1x1
I0403 18:45:12.166363  7491 net.cpp:141] Setting up inception_4a/1x1
I0403 18:45:12.166398  7491 net.cpp:148] Top shape: 24 192 14 14 (903168)
I0403 18:45:12.166416  7491 net.cpp:156] Memory required for data: 858010656
I0403 18:45:12.166440  7491 layer_factory.hpp:77] Creating layer inception_4a/relu_1x1
I0403 18:45:12.166465  7491 net.cpp:91] Creating Layer inception_4a/relu_1x1
I0403 18:45:12.166486  7491 net.cpp:425] inception_4a/relu_1x1 <- inception_4a/1x1
I0403 18:45:12.166509  7491 net.cpp:386] inception_4a/relu_1x1 -> inception_4a/1x1 (in-place)
I0403 18:45:12.166728  7491 net.cpp:141] Setting up inception_4a/relu_1x1
I0403 18:45:12.166759  7491 net.cpp:148] Top shape: 24 192 14 14 (903168)
I0403 18:45:12.166777  7491 net.cpp:156] Memory required for data: 861623328
I0403 18:45:12.166796  7491 layer_factory.hpp:77] Creating layer inception_4a/3x3_reduce
I0403 18:45:12.166824  7491 net.cpp:91] Creating Layer inception_4a/3x3_reduce
I0403 18:45:12.166846  7491 net.cpp:425] inception_4a/3x3_reduce <- pool3/3x3_s2_pool3/3x3_s2_0_split_1
I0403 18:45:12.166874  7491 net.cpp:399] inception_4a/3x3_reduce -> inception_4a/3x3_reduce
I0403 18:45:12.168439  7491 net.cpp:141] Setting up inception_4a/3x3_reduce
I0403 18:45:12.168474  7491 net.cpp:148] Top shape: 24 96 14 14 (451584)
I0403 18:45:12.168498  7491 net.cpp:156] Memory required for data: 863429664
I0403 18:45:12.168526  7491 layer_factory.hpp:77] Creating layer inception_4a/relu_3x3_reduce
I0403 18:45:12.168553  7491 net.cpp:91] Creating Layer inception_4a/relu_3x3_reduce
I0403 18:45:12.168576  7491 net.cpp:425] inception_4a/relu_3x3_reduce <- inception_4a/3x3_reduce
I0403 18:45:12.168598  7491 net.cpp:386] inception_4a/relu_3x3_reduce -> inception_4a/3x3_reduce (in-place)
I0403 18:45:12.168817  7491 net.cpp:141] Setting up inception_4a/relu_3x3_reduce
I0403 18:45:12.168855  7491 net.cpp:148] Top shape: 24 96 14 14 (451584)
I0403 18:45:12.168876  7491 net.cpp:156] Memory required for data: 865236000
I0403 18:45:12.168895  7491 layer_factory.hpp:77] Creating layer inception_4a/3x3
I0403 18:45:12.168922  7491 net.cpp:91] Creating Layer inception_4a/3x3
I0403 18:45:12.168946  7491 net.cpp:425] inception_4a/3x3 <- inception_4a/3x3_reduce
I0403 18:45:12.168968  7491 net.cpp:399] inception_4a/3x3 -> inception_4a/3x3
I0403 18:45:12.172277  7491 net.cpp:141] Setting up inception_4a/3x3
I0403 18:45:12.172317  7491 net.cpp:148] Top shape: 24 208 14 14 (978432)
I0403 18:45:12.172339  7491 net.cpp:156] Memory required for data: 869149728
I0403 18:45:12.172363  7491 layer_factory.hpp:77] Creating layer inception_4a/relu_3x3
I0403 18:45:12.172384  7491 net.cpp:91] Creating Layer inception_4a/relu_3x3
I0403 18:45:12.172405  7491 net.cpp:425] inception_4a/relu_3x3 <- inception_4a/3x3
I0403 18:45:12.172430  7491 net.cpp:386] inception_4a/relu_3x3 -> inception_4a/3x3 (in-place)
I0403 18:45:12.172761  7491 net.cpp:141] Setting up inception_4a/relu_3x3
I0403 18:45:12.172797  7491 net.cpp:148] Top shape: 24 208 14 14 (978432)
I0403 18:45:12.172817  7491 net.cpp:156] Memory required for data: 873063456
I0403 18:45:12.172837  7491 layer_factory.hpp:77] Creating layer inception_4a/5x5_reduce
I0403 18:45:12.172866  7491 net.cpp:91] Creating Layer inception_4a/5x5_reduce
I0403 18:45:12.172889  7491 net.cpp:425] inception_4a/5x5_reduce <- pool3/3x3_s2_pool3/3x3_s2_0_split_2
I0403 18:45:12.172912  7491 net.cpp:399] inception_4a/5x5_reduce -> inception_4a/5x5_reduce
I0403 18:45:12.174159  7491 net.cpp:141] Setting up inception_4a/5x5_reduce
I0403 18:45:12.174193  7491 net.cpp:148] Top shape: 24 16 14 14 (75264)
I0403 18:45:12.174213  7491 net.cpp:156] Memory required for data: 873364512
I0403 18:45:12.174237  7491 layer_factory.hpp:77] Creating layer inception_4a/relu_5x5_reduce
I0403 18:45:12.174266  7491 net.cpp:91] Creating Layer inception_4a/relu_5x5_reduce
I0403 18:45:12.174286  7491 net.cpp:425] inception_4a/relu_5x5_reduce <- inception_4a/5x5_reduce
I0403 18:45:12.174311  7491 net.cpp:386] inception_4a/relu_5x5_reduce -> inception_4a/5x5_reduce (in-place)
I0403 18:45:12.174538  7491 net.cpp:141] Setting up inception_4a/relu_5x5_reduce
I0403 18:45:12.174569  7491 net.cpp:148] Top shape: 24 16 14 14 (75264)
I0403 18:45:12.174588  7491 net.cpp:156] Memory required for data: 873665568
I0403 18:45:12.174607  7491 layer_factory.hpp:77] Creating layer inception_4a/5x5
I0403 18:45:12.174633  7491 net.cpp:91] Creating Layer inception_4a/5x5
I0403 18:45:12.174656  7491 net.cpp:425] inception_4a/5x5 <- inception_4a/5x5_reduce
I0403 18:45:12.174682  7491 net.cpp:399] inception_4a/5x5 -> inception_4a/5x5
I0403 18:45:12.176003  7491 net.cpp:141] Setting up inception_4a/5x5
I0403 18:45:12.176038  7491 net.cpp:148] Top shape: 24 48 14 14 (225792)
I0403 18:45:12.176057  7491 net.cpp:156] Memory required for data: 874568736
I0403 18:45:12.176079  7491 layer_factory.hpp:77] Creating layer inception_4a/relu_5x5
I0403 18:45:12.176105  7491 net.cpp:91] Creating Layer inception_4a/relu_5x5
I0403 18:45:12.176126  7491 net.cpp:425] inception_4a/relu_5x5 <- inception_4a/5x5
I0403 18:45:12.176148  7491 net.cpp:386] inception_4a/relu_5x5 -> inception_4a/5x5 (in-place)
I0403 18:45:12.176376  7491 net.cpp:141] Setting up inception_4a/relu_5x5
I0403 18:45:12.176410  7491 net.cpp:148] Top shape: 24 48 14 14 (225792)
I0403 18:45:12.176429  7491 net.cpp:156] Memory required for data: 875471904
I0403 18:45:12.176447  7491 layer_factory.hpp:77] Creating layer inception_4a/pool
I0403 18:45:12.176470  7491 net.cpp:91] Creating Layer inception_4a/pool
I0403 18:45:12.176491  7491 net.cpp:425] inception_4a/pool <- pool3/3x3_s2_pool3/3x3_s2_0_split_3
I0403 18:45:12.176517  7491 net.cpp:399] inception_4a/pool -> inception_4a/pool
I0403 18:45:12.176592  7491 net.cpp:141] Setting up inception_4a/pool
I0403 18:45:12.176621  7491 net.cpp:148] Top shape: 24 480 14 14 (2257920)
I0403 18:45:12.176640  7491 net.cpp:156] Memory required for data: 884503584
I0403 18:45:12.176658  7491 layer_factory.hpp:77] Creating layer inception_4a/pool_proj
I0403 18:45:12.176687  7491 net.cpp:91] Creating Layer inception_4a/pool_proj
I0403 18:45:12.176709  7491 net.cpp:425] inception_4a/pool_proj <- inception_4a/pool
I0403 18:45:12.176735  7491 net.cpp:399] inception_4a/pool_proj -> inception_4a/pool_proj
I0403 18:45:12.178148  7491 net.cpp:141] Setting up inception_4a/pool_proj
I0403 18:45:12.178184  7491 net.cpp:148] Top shape: 24 64 14 14 (301056)
I0403 18:45:12.178221  7491 net.cpp:156] Memory required for data: 885707808
I0403 18:45:12.178252  7491 layer_factory.hpp:77] Creating layer inception_4a/relu_pool_proj
I0403 18:45:12.178282  7491 net.cpp:91] Creating Layer inception_4a/relu_pool_proj
I0403 18:45:12.178303  7491 net.cpp:425] inception_4a/relu_pool_proj <- inception_4a/pool_proj
I0403 18:45:12.178324  7491 net.cpp:386] inception_4a/relu_pool_proj -> inception_4a/pool_proj (in-place)
I0403 18:45:12.178665  7491 net.cpp:141] Setting up inception_4a/relu_pool_proj
I0403 18:45:12.178699  7491 net.cpp:148] Top shape: 24 64 14 14 (301056)
I0403 18:45:12.178721  7491 net.cpp:156] Memory required for data: 886912032
I0403 18:45:12.178741  7491 layer_factory.hpp:77] Creating layer inception_4a/output
I0403 18:45:12.178762  7491 net.cpp:91] Creating Layer inception_4a/output
I0403 18:45:12.178782  7491 net.cpp:425] inception_4a/output <- inception_4a/1x1
I0403 18:45:12.178802  7491 net.cpp:425] inception_4a/output <- inception_4a/3x3
I0403 18:45:12.178822  7491 net.cpp:425] inception_4a/output <- inception_4a/5x5
I0403 18:45:12.178841  7491 net.cpp:425] inception_4a/output <- inception_4a/pool_proj
I0403 18:45:12.178864  7491 net.cpp:399] inception_4a/output -> inception_4a/output
I0403 18:45:12.178921  7491 net.cpp:141] Setting up inception_4a/output
I0403 18:45:12.178951  7491 net.cpp:148] Top shape: 24 512 14 14 (2408448)
I0403 18:45:12.178969  7491 net.cpp:156] Memory required for data: 896545824
I0403 18:45:12.178987  7491 layer_factory.hpp:77] Creating layer inception_4a/output_inception_4a/output_0_split
I0403 18:45:12.179008  7491 net.cpp:91] Creating Layer inception_4a/output_inception_4a/output_0_split
I0403 18:45:12.179028  7491 net.cpp:425] inception_4a/output_inception_4a/output_0_split <- inception_4a/output
I0403 18:45:12.179054  7491 net.cpp:399] inception_4a/output_inception_4a/output_0_split -> inception_4a/output_inception_4a/output_0_split_0
I0403 18:45:12.179080  7491 net.cpp:399] inception_4a/output_inception_4a/output_0_split -> inception_4a/output_inception_4a/output_0_split_1
I0403 18:45:12.179105  7491 net.cpp:399] inception_4a/output_inception_4a/output_0_split -> inception_4a/output_inception_4a/output_0_split_2
I0403 18:45:12.179129  7491 net.cpp:399] inception_4a/output_inception_4a/output_0_split -> inception_4a/output_inception_4a/output_0_split_3
I0403 18:45:12.179154  7491 net.cpp:399] inception_4a/output_inception_4a/output_0_split -> inception_4a/output_inception_4a/output_0_split_4
I0403 18:45:12.179277  7491 net.cpp:141] Setting up inception_4a/output_inception_4a/output_0_split
I0403 18:45:12.179308  7491 net.cpp:148] Top shape: 24 512 14 14 (2408448)
I0403 18:45:12.179329  7491 net.cpp:148] Top shape: 24 512 14 14 (2408448)
I0403 18:45:12.179348  7491 net.cpp:148] Top shape: 24 512 14 14 (2408448)
I0403 18:45:12.179366  7491 net.cpp:148] Top shape: 24 512 14 14 (2408448)
I0403 18:45:12.179388  7491 net.cpp:148] Top shape: 24 512 14 14 (2408448)
I0403 18:45:12.179405  7491 net.cpp:156] Memory required for data: 944714784
I0403 18:45:12.179424  7491 layer_factory.hpp:77] Creating layer loss1/ave_pool
I0403 18:45:12.179445  7491 net.cpp:91] Creating Layer loss1/ave_pool
I0403 18:45:12.179464  7491 net.cpp:425] loss1/ave_pool <- inception_4a/output_inception_4a/output_0_split_0
I0403 18:45:12.179488  7491 net.cpp:399] loss1/ave_pool -> loss1/ave_pool
I0403 18:45:12.179739  7491 net.cpp:141] Setting up loss1/ave_pool
I0403 18:45:12.179774  7491 net.cpp:148] Top shape: 24 512 4 4 (196608)
I0403 18:45:12.179795  7491 net.cpp:156] Memory required for data: 945501216
I0403 18:45:12.179813  7491 layer_factory.hpp:77] Creating layer loss1/conv
I0403 18:45:12.179839  7491 net.cpp:91] Creating Layer loss1/conv
I0403 18:45:12.179859  7491 net.cpp:425] loss1/conv <- loss1/ave_pool
I0403 18:45:12.179885  7491 net.cpp:399] loss1/conv -> loss1/conv
I0403 18:45:12.181615  7491 net.cpp:141] Setting up loss1/conv
I0403 18:45:12.181653  7491 net.cpp:148] Top shape: 24 128 4 4 (49152)
I0403 18:45:12.181689  7491 net.cpp:156] Memory required for data: 945697824
I0403 18:45:12.181715  7491 layer_factory.hpp:77] Creating layer loss1/relu_conv
I0403 18:45:12.181736  7491 net.cpp:91] Creating Layer loss1/relu_conv
I0403 18:45:12.181756  7491 net.cpp:425] loss1/relu_conv <- loss1/conv
I0403 18:45:12.181782  7491 net.cpp:386] loss1/relu_conv -> loss1/conv (in-place)
I0403 18:45:12.182132  7491 net.cpp:141] Setting up loss1/relu_conv
I0403 18:45:12.182168  7491 net.cpp:148] Top shape: 24 128 4 4 (49152)
I0403 18:45:12.182188  7491 net.cpp:156] Memory required for data: 945894432
I0403 18:45:12.182207  7491 layer_factory.hpp:77] Creating layer loss1/fc
I0403 18:45:12.182237  7491 net.cpp:91] Creating Layer loss1/fc
I0403 18:45:12.182276  7491 net.cpp:425] loss1/fc <- loss1/conv
I0403 18:45:12.182302  7491 net.cpp:399] loss1/fc -> loss1/fc
I0403 18:45:12.204344  7491 net.cpp:141] Setting up loss1/fc
I0403 18:45:12.204388  7491 net.cpp:148] Top shape: 24 1024 (24576)
I0403 18:45:12.204409  7491 net.cpp:156] Memory required for data: 945992736
I0403 18:45:12.204433  7491 layer_factory.hpp:77] Creating layer loss1/relu_fc
I0403 18:45:12.204460  7491 net.cpp:91] Creating Layer loss1/relu_fc
I0403 18:45:12.204481  7491 net.cpp:425] loss1/relu_fc <- loss1/fc
I0403 18:45:12.204504  7491 net.cpp:386] loss1/relu_fc -> loss1/fc (in-place)
I0403 18:45:12.204736  7491 net.cpp:141] Setting up loss1/relu_fc
I0403 18:45:12.204768  7491 net.cpp:148] Top shape: 24 1024 (24576)
I0403 18:45:12.204787  7491 net.cpp:156] Memory required for data: 946091040
I0403 18:45:12.204805  7491 layer_factory.hpp:77] Creating layer loss1/drop_fc
I0403 18:45:12.204838  7491 net.cpp:91] Creating Layer loss1/drop_fc
I0403 18:45:12.204860  7491 net.cpp:425] loss1/drop_fc <- loss1/fc
I0403 18:45:12.204885  7491 net.cpp:386] loss1/drop_fc -> loss1/fc (in-place)
I0403 18:45:12.204951  7491 net.cpp:141] Setting up loss1/drop_fc
I0403 18:45:12.204980  7491 net.cpp:148] Top shape: 24 1024 (24576)
I0403 18:45:12.204998  7491 net.cpp:156] Memory required for data: 946189344
I0403 18:45:12.205016  7491 layer_factory.hpp:77] Creating layer loss1/classifier_plantvillage
I0403 18:45:12.205044  7491 net.cpp:91] Creating Layer loss1/classifier_plantvillage
I0403 18:45:12.205065  7491 net.cpp:425] loss1/classifier_plantvillage <- loss1/fc
I0403 18:45:12.205088  7491 net.cpp:399] loss1/classifier_plantvillage -> loss1/classifier_plantvillage
I0403 18:45:12.206217  7491 net.cpp:141] Setting up loss1/classifier_plantvillage
I0403 18:45:12.206259  7491 net.cpp:148] Top shape: 24 38 (912)
I0403 18:45:12.206279  7491 net.cpp:156] Memory required for data: 946192992
I0403 18:45:12.206302  7491 layer_factory.hpp:77] Creating layer loss1/classifier_plantvillage_loss1/classifier_plantvillage_0_split
I0403 18:45:12.206329  7491 net.cpp:91] Creating Layer loss1/classifier_plantvillage_loss1/classifier_plantvillage_0_split
I0403 18:45:12.206351  7491 net.cpp:425] loss1/classifier_plantvillage_loss1/classifier_plantvillage_0_split <- loss1/classifier_plantvillage
I0403 18:45:12.206373  7491 net.cpp:399] loss1/classifier_plantvillage_loss1/classifier_plantvillage_0_split -> loss1/classifier_plantvillage_loss1/classifier_plantvillage_0_split_0
I0403 18:45:12.206403  7491 net.cpp:399] loss1/classifier_plantvillage_loss1/classifier_plantvillage_0_split -> loss1/classifier_plantvillage_loss1/classifier_plantvillage_0_split_1
I0403 18:45:12.206429  7491 net.cpp:399] loss1/classifier_plantvillage_loss1/classifier_plantvillage_0_split -> loss1/classifier_plantvillage_loss1/classifier_plantvillage_0_split_2
I0403 18:45:12.206511  7491 net.cpp:141] Setting up loss1/classifier_plantvillage_loss1/classifier_plantvillage_0_split
I0403 18:45:12.206542  7491 net.cpp:148] Top shape: 24 38 (912)
I0403 18:45:12.206564  7491 net.cpp:148] Top shape: 24 38 (912)
I0403 18:45:12.206584  7491 net.cpp:148] Top shape: 24 38 (912)
I0403 18:45:12.206603  7491 net.cpp:156] Memory required for data: 946203936
I0403 18:45:12.206620  7491 layer_factory.hpp:77] Creating layer inception_4b/1x1
I0403 18:45:12.206647  7491 net.cpp:91] Creating Layer inception_4b/1x1
I0403 18:45:12.206691  7491 net.cpp:425] inception_4b/1x1 <- inception_4a/output_inception_4a/output_0_split_1
I0403 18:45:12.206717  7491 net.cpp:399] inception_4b/1x1 -> inception_4b/1x1
I0403 18:45:12.208710  7491 net.cpp:141] Setting up inception_4b/1x1
I0403 18:45:12.208748  7491 net.cpp:148] Top shape: 24 160 14 14 (752640)
I0403 18:45:12.208770  7491 net.cpp:156] Memory required for data: 949214496
I0403 18:45:12.208792  7491 layer_factory.hpp:77] Creating layer inception_4b/relu_1x1
I0403 18:45:12.208817  7491 net.cpp:91] Creating Layer inception_4b/relu_1x1
I0403 18:45:12.208837  7491 net.cpp:425] inception_4b/relu_1x1 <- inception_4b/1x1
I0403 18:45:12.208863  7491 net.cpp:386] inception_4b/relu_1x1 -> inception_4b/1x1 (in-place)
I0403 18:45:12.209087  7491 net.cpp:141] Setting up inception_4b/relu_1x1
I0403 18:45:12.209120  7491 net.cpp:148] Top shape: 24 160 14 14 (752640)
I0403 18:45:12.209139  7491 net.cpp:156] Memory required for data: 952225056
I0403 18:45:12.209157  7491 layer_factory.hpp:77] Creating layer inception_4b/3x3_reduce
I0403 18:45:12.209187  7491 net.cpp:91] Creating Layer inception_4b/3x3_reduce
I0403 18:45:12.209209  7491 net.cpp:425] inception_4b/3x3_reduce <- inception_4a/output_inception_4a/output_0_split_2
I0403 18:45:12.209238  7491 net.cpp:399] inception_4b/3x3_reduce -> inception_4b/3x3_reduce
I0403 18:45:12.210901  7491 net.cpp:141] Setting up inception_4b/3x3_reduce
I0403 18:45:12.210937  7491 net.cpp:148] Top shape: 24 112 14 14 (526848)
I0403 18:45:12.210955  7491 net.cpp:156] Memory required for data: 954332448
I0403 18:45:12.210979  7491 layer_factory.hpp:77] Creating layer inception_4b/relu_3x3_reduce
I0403 18:45:12.211005  7491 net.cpp:91] Creating Layer inception_4b/relu_3x3_reduce
I0403 18:45:12.211026  7491 net.cpp:425] inception_4b/relu_3x3_reduce <- inception_4b/3x3_reduce
I0403 18:45:12.211050  7491 net.cpp:386] inception_4b/relu_3x3_reduce -> inception_4b/3x3_reduce (in-place)
I0403 18:45:12.211403  7491 net.cpp:141] Setting up inception_4b/relu_3x3_reduce
I0403 18:45:12.211437  7491 net.cpp:148] Top shape: 24 112 14 14 (526848)
I0403 18:45:12.211455  7491 net.cpp:156] Memory required for data: 956439840
I0403 18:45:12.211475  7491 layer_factory.hpp:77] Creating layer inception_4b/3x3
I0403 18:45:12.211503  7491 net.cpp:91] Creating Layer inception_4b/3x3
I0403 18:45:12.211525  7491 net.cpp:425] inception_4b/3x3 <- inception_4b/3x3_reduce
I0403 18:45:12.211551  7491 net.cpp:399] inception_4b/3x3 -> inception_4b/3x3
I0403 18:45:12.215229  7491 net.cpp:141] Setting up inception_4b/3x3
I0403 18:45:12.215272  7491 net.cpp:148] Top shape: 24 224 14 14 (1053696)
I0403 18:45:12.215293  7491 net.cpp:156] Memory required for data: 960654624
I0403 18:45:12.215315  7491 layer_factory.hpp:77] Creating layer inception_4b/relu_3x3
I0403 18:45:12.215343  7491 net.cpp:91] Creating Layer inception_4b/relu_3x3
I0403 18:45:12.215363  7491 net.cpp:425] inception_4b/relu_3x3 <- inception_4b/3x3
I0403 18:45:12.215384  7491 net.cpp:386] inception_4b/relu_3x3 -> inception_4b/3x3 (in-place)
I0403 18:45:12.215611  7491 net.cpp:141] Setting up inception_4b/relu_3x3
I0403 18:45:12.215643  7491 net.cpp:148] Top shape: 24 224 14 14 (1053696)
I0403 18:45:12.215662  7491 net.cpp:156] Memory required for data: 964869408
I0403 18:45:12.215682  7491 layer_factory.hpp:77] Creating layer inception_4b/5x5_reduce
I0403 18:45:12.215709  7491 net.cpp:91] Creating Layer inception_4b/5x5_reduce
I0403 18:45:12.215731  7491 net.cpp:425] inception_4b/5x5_reduce <- inception_4a/output_inception_4a/output_0_split_3
I0403 18:45:12.215760  7491 net.cpp:399] inception_4b/5x5_reduce -> inception_4b/5x5_reduce
I0403 18:45:12.217092  7491 net.cpp:141] Setting up inception_4b/5x5_reduce
I0403 18:45:12.217126  7491 net.cpp:148] Top shape: 24 24 14 14 (112896)
I0403 18:45:12.217146  7491 net.cpp:156] Memory required for data: 965320992
I0403 18:45:12.217170  7491 layer_factory.hpp:77] Creating layer inception_4b/relu_5x5_reduce
I0403 18:45:12.217191  7491 net.cpp:91] Creating Layer inception_4b/relu_5x5_reduce
I0403 18:45:12.217229  7491 net.cpp:425] inception_4b/relu_5x5_reduce <- inception_4b/5x5_reduce
I0403 18:45:12.217262  7491 net.cpp:386] inception_4b/relu_5x5_reduce -> inception_4b/5x5_reduce (in-place)
I0403 18:45:12.217496  7491 net.cpp:141] Setting up inception_4b/relu_5x5_reduce
I0403 18:45:12.217530  7491 net.cpp:148] Top shape: 24 24 14 14 (112896)
I0403 18:45:12.217547  7491 net.cpp:156] Memory required for data: 965772576
I0403 18:45:12.217566  7491 layer_factory.hpp:77] Creating layer inception_4b/5x5
I0403 18:45:12.217595  7491 net.cpp:91] Creating Layer inception_4b/5x5
I0403 18:45:12.217617  7491 net.cpp:425] inception_4b/5x5 <- inception_4b/5x5_reduce
I0403 18:45:12.217644  7491 net.cpp:399] inception_4b/5x5 -> inception_4b/5x5
I0403 18:45:12.219157  7491 net.cpp:141] Setting up inception_4b/5x5
I0403 18:45:12.219195  7491 net.cpp:148] Top shape: 24 64 14 14 (301056)
I0403 18:45:12.219215  7491 net.cpp:156] Memory required for data: 966976800
I0403 18:45:12.219238  7491 layer_factory.hpp:77] Creating layer inception_4b/relu_5x5
I0403 18:45:12.219267  7491 net.cpp:91] Creating Layer inception_4b/relu_5x5
I0403 18:45:12.219287  7491 net.cpp:425] inception_4b/relu_5x5 <- inception_4b/5x5
I0403 18:45:12.219313  7491 net.cpp:386] inception_4b/relu_5x5 -> inception_4b/5x5 (in-place)
I0403 18:45:12.219660  7491 net.cpp:141] Setting up inception_4b/relu_5x5
I0403 18:45:12.219696  7491 net.cpp:148] Top shape: 24 64 14 14 (301056)
I0403 18:45:12.219714  7491 net.cpp:156] Memory required for data: 968181024
I0403 18:45:12.219734  7491 layer_factory.hpp:77] Creating layer inception_4b/pool
I0403 18:45:12.219758  7491 net.cpp:91] Creating Layer inception_4b/pool
I0403 18:45:12.219779  7491 net.cpp:425] inception_4b/pool <- inception_4a/output_inception_4a/output_0_split_4
I0403 18:45:12.219805  7491 net.cpp:399] inception_4b/pool -> inception_4b/pool
I0403 18:45:12.219884  7491 net.cpp:141] Setting up inception_4b/pool
I0403 18:45:12.219918  7491 net.cpp:148] Top shape: 24 512 14 14 (2408448)
I0403 18:45:12.219938  7491 net.cpp:156] Memory required for data: 977814816
I0403 18:45:12.219957  7491 layer_factory.hpp:77] Creating layer inception_4b/pool_proj
I0403 18:45:12.219985  7491 net.cpp:91] Creating Layer inception_4b/pool_proj
I0403 18:45:12.220008  7491 net.cpp:425] inception_4b/pool_proj <- inception_4b/pool
I0403 18:45:12.220033  7491 net.cpp:399] inception_4b/pool_proj -> inception_4b/pool_proj
I0403 18:45:12.221524  7491 net.cpp:141] Setting up inception_4b/pool_proj
I0403 18:45:12.221559  7491 net.cpp:148] Top shape: 24 64 14 14 (301056)
I0403 18:45:12.221577  7491 net.cpp:156] Memory required for data: 979019040
I0403 18:45:12.221601  7491 layer_factory.hpp:77] Creating layer inception_4b/relu_pool_proj
I0403 18:45:12.221627  7491 net.cpp:91] Creating Layer inception_4b/relu_pool_proj
I0403 18:45:12.221649  7491 net.cpp:425] inception_4b/relu_pool_proj <- inception_4b/pool_proj
I0403 18:45:12.221671  7491 net.cpp:386] inception_4b/relu_pool_proj -> inception_4b/pool_proj (in-place)
I0403 18:45:12.221901  7491 net.cpp:141] Setting up inception_4b/relu_pool_proj
I0403 18:45:12.221932  7491 net.cpp:148] Top shape: 24 64 14 14 (301056)
I0403 18:45:12.221951  7491 net.cpp:156] Memory required for data: 980223264
I0403 18:45:12.221971  7491 layer_factory.hpp:77] Creating layer inception_4b/output
I0403 18:45:12.221995  7491 net.cpp:91] Creating Layer inception_4b/output
I0403 18:45:12.222014  7491 net.cpp:425] inception_4b/output <- inception_4b/1x1
I0403 18:45:12.222035  7491 net.cpp:425] inception_4b/output <- inception_4b/3x3
I0403 18:45:12.222056  7491 net.cpp:425] inception_4b/output <- inception_4b/5x5
I0403 18:45:12.222075  7491 net.cpp:425] inception_4b/output <- inception_4b/pool_proj
I0403 18:45:12.222098  7491 net.cpp:399] inception_4b/output -> inception_4b/output
I0403 18:45:12.222157  7491 net.cpp:141] Setting up inception_4b/output
I0403 18:45:12.222187  7491 net.cpp:148] Top shape: 24 512 14 14 (2408448)
I0403 18:45:12.222205  7491 net.cpp:156] Memory required for data: 989857056
I0403 18:45:12.222251  7491 layer_factory.hpp:77] Creating layer inception_4b/output_inception_4b/output_0_split
I0403 18:45:12.222280  7491 net.cpp:91] Creating Layer inception_4b/output_inception_4b/output_0_split
I0403 18:45:12.222298  7491 net.cpp:425] inception_4b/output_inception_4b/output_0_split <- inception_4b/output
I0403 18:45:12.222322  7491 net.cpp:399] inception_4b/output_inception_4b/output_0_split -> inception_4b/output_inception_4b/output_0_split_0
I0403 18:45:12.222349  7491 net.cpp:399] inception_4b/output_inception_4b/output_0_split -> inception_4b/output_inception_4b/output_0_split_1
I0403 18:45:12.222374  7491 net.cpp:399] inception_4b/output_inception_4b/output_0_split -> inception_4b/output_inception_4b/output_0_split_2
I0403 18:45:12.222398  7491 net.cpp:399] inception_4b/output_inception_4b/output_0_split -> inception_4b/output_inception_4b/output_0_split_3
I0403 18:45:12.222506  7491 net.cpp:141] Setting up inception_4b/output_inception_4b/output_0_split
I0403 18:45:12.222537  7491 net.cpp:148] Top shape: 24 512 14 14 (2408448)
I0403 18:45:12.222560  7491 net.cpp:148] Top shape: 24 512 14 14 (2408448)
I0403 18:45:12.222580  7491 net.cpp:148] Top shape: 24 512 14 14 (2408448)
I0403 18:45:12.222601  7491 net.cpp:148] Top shape: 24 512 14 14 (2408448)
I0403 18:45:12.222620  7491 net.cpp:156] Memory required for data: 1028392224
I0403 18:45:12.222637  7491 layer_factory.hpp:77] Creating layer inception_4c/1x1
I0403 18:45:12.222666  7491 net.cpp:91] Creating Layer inception_4c/1x1
I0403 18:45:12.222687  7491 net.cpp:425] inception_4c/1x1 <- inception_4b/output_inception_4b/output_0_split_0
I0403 18:45:12.222712  7491 net.cpp:399] inception_4c/1x1 -> inception_4c/1x1
I0403 18:45:12.224480  7491 net.cpp:141] Setting up inception_4c/1x1
I0403 18:45:12.224514  7491 net.cpp:148] Top shape: 24 128 14 14 (602112)
I0403 18:45:12.224534  7491 net.cpp:156] Memory required for data: 1030800672
I0403 18:45:12.224557  7491 layer_factory.hpp:77] Creating layer inception_4c/relu_1x1
I0403 18:45:12.224584  7491 net.cpp:91] Creating Layer inception_4c/relu_1x1
I0403 18:45:12.224606  7491 net.cpp:425] inception_4c/relu_1x1 <- inception_4c/1x1
I0403 18:45:12.224628  7491 net.cpp:386] inception_4c/relu_1x1 -> inception_4c/1x1 (in-place)
I0403 18:45:12.224853  7491 net.cpp:141] Setting up inception_4c/relu_1x1
I0403 18:45:12.224891  7491 net.cpp:148] Top shape: 24 128 14 14 (602112)
I0403 18:45:12.224911  7491 net.cpp:156] Memory required for data: 1033209120
I0403 18:45:12.224931  7491 layer_factory.hpp:77] Creating layer inception_4c/3x3_reduce
I0403 18:45:12.224959  7491 net.cpp:91] Creating Layer inception_4c/3x3_reduce
I0403 18:45:12.224982  7491 net.cpp:425] inception_4c/3x3_reduce <- inception_4b/output_inception_4b/output_0_split_1
I0403 18:45:12.225006  7491 net.cpp:399] inception_4c/3x3_reduce -> inception_4c/3x3_reduce
I0403 18:45:12.227411  7491 net.cpp:141] Setting up inception_4c/3x3_reduce
I0403 18:45:12.227447  7491 net.cpp:148] Top shape: 24 128 14 14 (602112)
I0403 18:45:12.227466  7491 net.cpp:156] Memory required for data: 1035617568
I0403 18:45:12.227488  7491 layer_factory.hpp:77] Creating layer inception_4c/relu_3x3_reduce
I0403 18:45:12.227511  7491 net.cpp:91] Creating Layer inception_4c/relu_3x3_reduce
I0403 18:45:12.227531  7491 net.cpp:425] inception_4c/relu_3x3_reduce <- inception_4c/3x3_reduce
I0403 18:45:12.227557  7491 net.cpp:386] inception_4c/relu_3x3_reduce -> inception_4c/3x3_reduce (in-place)
I0403 18:45:12.227910  7491 net.cpp:141] Setting up inception_4c/relu_3x3_reduce
I0403 18:45:12.227944  7491 net.cpp:148] Top shape: 24 128 14 14 (602112)
I0403 18:45:12.227962  7491 net.cpp:156] Memory required for data: 1038026016
I0403 18:45:12.227983  7491 layer_factory.hpp:77] Creating layer inception_4c/3x3
I0403 18:45:12.228013  7491 net.cpp:91] Creating Layer inception_4c/3x3
I0403 18:45:12.228036  7491 net.cpp:425] inception_4c/3x3 <- inception_4c/3x3_reduce
I0403 18:45:12.228063  7491 net.cpp:399] inception_4c/3x3 -> inception_4c/3x3
I0403 18:45:12.232511  7491 net.cpp:141] Setting up inception_4c/3x3
I0403 18:45:12.232563  7491 net.cpp:148] Top shape: 24 256 14 14 (1204224)
I0403 18:45:12.232585  7491 net.cpp:156] Memory required for data: 1042842912
I0403 18:45:12.232625  7491 layer_factory.hpp:77] Creating layer inception_4c/relu_3x3
I0403 18:45:12.232651  7491 net.cpp:91] Creating Layer inception_4c/relu_3x3
I0403 18:45:12.232697  7491 net.cpp:425] inception_4c/relu_3x3 <- inception_4c/3x3
I0403 18:45:12.232720  7491 net.cpp:386] inception_4c/relu_3x3 -> inception_4c/3x3 (in-place)
I0403 18:45:12.232942  7491 net.cpp:141] Setting up inception_4c/relu_3x3
I0403 18:45:12.232975  7491 net.cpp:148] Top shape: 24 256 14 14 (1204224)
I0403 18:45:12.232996  7491 net.cpp:156] Memory required for data: 1047659808
I0403 18:45:12.233016  7491 layer_factory.hpp:77] Creating layer inception_4c/5x5_reduce
I0403 18:45:12.233045  7491 net.cpp:91] Creating Layer inception_4c/5x5_reduce
I0403 18:45:12.233068  7491 net.cpp:425] inception_4c/5x5_reduce <- inception_4b/output_inception_4b/output_0_split_2
I0403 18:45:12.233094  7491 net.cpp:399] inception_4c/5x5_reduce -> inception_4c/5x5_reduce
I0403 18:45:12.234463  7491 net.cpp:141] Setting up inception_4c/5x5_reduce
I0403 18:45:12.234499  7491 net.cpp:148] Top shape: 24 24 14 14 (112896)
I0403 18:45:12.234519  7491 net.cpp:156] Memory required for data: 1048111392
I0403 18:45:12.234539  7491 layer_factory.hpp:77] Creating layer inception_4c/relu_5x5_reduce
I0403 18:45:12.234562  7491 net.cpp:91] Creating Layer inception_4c/relu_5x5_reduce
I0403 18:45:12.234582  7491 net.cpp:425] inception_4c/relu_5x5_reduce <- inception_4c/5x5_reduce
I0403 18:45:12.234608  7491 net.cpp:386] inception_4c/relu_5x5_reduce -> inception_4c/5x5_reduce (in-place)
I0403 18:45:12.234835  7491 net.cpp:141] Setting up inception_4c/relu_5x5_reduce
I0403 18:45:12.234868  7491 net.cpp:148] Top shape: 24 24 14 14 (112896)
I0403 18:45:12.234885  7491 net.cpp:156] Memory required for data: 1048562976
I0403 18:45:12.234904  7491 layer_factory.hpp:77] Creating layer inception_4c/5x5
I0403 18:45:12.234935  7491 net.cpp:91] Creating Layer inception_4c/5x5
I0403 18:45:12.234957  7491 net.cpp:425] inception_4c/5x5 <- inception_4c/5x5_reduce
I0403 18:45:12.234983  7491 net.cpp:399] inception_4c/5x5 -> inception_4c/5x5
I0403 18:45:12.236523  7491 net.cpp:141] Setting up inception_4c/5x5
I0403 18:45:12.236558  7491 net.cpp:148] Top shape: 24 64 14 14 (301056)
I0403 18:45:12.236578  7491 net.cpp:156] Memory required for data: 1049767200
I0403 18:45:12.236601  7491 layer_factory.hpp:77] Creating layer inception_4c/relu_5x5
I0403 18:45:12.236627  7491 net.cpp:91] Creating Layer inception_4c/relu_5x5
I0403 18:45:12.236649  7491 net.cpp:425] inception_4c/relu_5x5 <- inception_4c/5x5
I0403 18:45:12.236671  7491 net.cpp:386] inception_4c/relu_5x5 -> inception_4c/5x5 (in-place)
I0403 18:45:12.237020  7491 net.cpp:141] Setting up inception_4c/relu_5x5
I0403 18:45:12.237053  7491 net.cpp:148] Top shape: 24 64 14 14 (301056)
I0403 18:45:12.237072  7491 net.cpp:156] Memory required for data: 1050971424
I0403 18:45:12.237092  7491 layer_factory.hpp:77] Creating layer inception_4c/pool
I0403 18:45:12.237117  7491 net.cpp:91] Creating Layer inception_4c/pool
I0403 18:45:12.237138  7491 net.cpp:425] inception_4c/pool <- inception_4b/output_inception_4b/output_0_split_3
I0403 18:45:12.237161  7491 net.cpp:399] inception_4c/pool -> inception_4c/pool
I0403 18:45:12.237251  7491 net.cpp:141] Setting up inception_4c/pool
I0403 18:45:12.237282  7491 net.cpp:148] Top shape: 24 512 14 14 (2408448)
I0403 18:45:12.237300  7491 net.cpp:156] Memory required for data: 1060605216
I0403 18:45:12.237318  7491 layer_factory.hpp:77] Creating layer inception_4c/pool_proj
I0403 18:45:12.237345  7491 net.cpp:91] Creating Layer inception_4c/pool_proj
I0403 18:45:12.237366  7491 net.cpp:425] inception_4c/pool_proj <- inception_4c/pool
I0403 18:45:12.237392  7491 net.cpp:399] inception_4c/pool_proj -> inception_4c/pool_proj
I0403 18:45:12.238921  7491 net.cpp:141] Setting up inception_4c/pool_proj
I0403 18:45:12.238956  7491 net.cpp:148] Top shape: 24 64 14 14 (301056)
I0403 18:45:12.238992  7491 net.cpp:156] Memory required for data: 1061809440
I0403 18:45:12.239018  7491 layer_factory.hpp:77] Creating layer inception_4c/relu_pool_proj
I0403 18:45:12.239040  7491 net.cpp:91] Creating Layer inception_4c/relu_pool_proj
I0403 18:45:12.239064  7491 net.cpp:425] inception_4c/relu_pool_proj <- inception_4c/pool_proj
I0403 18:45:12.239086  7491 net.cpp:386] inception_4c/relu_pool_proj -> inception_4c/pool_proj (in-place)
I0403 18:45:12.239322  7491 net.cpp:141] Setting up inception_4c/relu_pool_proj
I0403 18:45:12.239354  7491 net.cpp:148] Top shape: 24 64 14 14 (301056)
I0403 18:45:12.239373  7491 net.cpp:156] Memory required for data: 1063013664
I0403 18:45:12.239393  7491 layer_factory.hpp:77] Creating layer inception_4c/output
I0403 18:45:12.239415  7491 net.cpp:91] Creating Layer inception_4c/output
I0403 18:45:12.239435  7491 net.cpp:425] inception_4c/output <- inception_4c/1x1
I0403 18:45:12.239462  7491 net.cpp:425] inception_4c/output <- inception_4c/3x3
I0403 18:45:12.239485  7491 net.cpp:425] inception_4c/output <- inception_4c/5x5
I0403 18:45:12.239506  7491 net.cpp:425] inception_4c/output <- inception_4c/pool_proj
I0403 18:45:12.239526  7491 net.cpp:399] inception_4c/output -> inception_4c/output
I0403 18:45:12.239586  7491 net.cpp:141] Setting up inception_4c/output
I0403 18:45:12.239616  7491 net.cpp:148] Top shape: 24 512 14 14 (2408448)
I0403 18:45:12.239635  7491 net.cpp:156] Memory required for data: 1072647456
I0403 18:45:12.239653  7491 layer_factory.hpp:77] Creating layer inception_4c/output_inception_4c/output_0_split
I0403 18:45:12.239675  7491 net.cpp:91] Creating Layer inception_4c/output_inception_4c/output_0_split
I0403 18:45:12.239693  7491 net.cpp:425] inception_4c/output_inception_4c/output_0_split <- inception_4c/output
I0403 18:45:12.239718  7491 net.cpp:399] inception_4c/output_inception_4c/output_0_split -> inception_4c/output_inception_4c/output_0_split_0
I0403 18:45:12.239744  7491 net.cpp:399] inception_4c/output_inception_4c/output_0_split -> inception_4c/output_inception_4c/output_0_split_1
I0403 18:45:12.239769  7491 net.cpp:399] inception_4c/output_inception_4c/output_0_split -> inception_4c/output_inception_4c/output_0_split_2
I0403 18:45:12.239794  7491 net.cpp:399] inception_4c/output_inception_4c/output_0_split -> inception_4c/output_inception_4c/output_0_split_3
I0403 18:45:12.239903  7491 net.cpp:141] Setting up inception_4c/output_inception_4c/output_0_split
I0403 18:45:12.239936  7491 net.cpp:148] Top shape: 24 512 14 14 (2408448)
I0403 18:45:12.239959  7491 net.cpp:148] Top shape: 24 512 14 14 (2408448)
I0403 18:45:12.239980  7491 net.cpp:148] Top shape: 24 512 14 14 (2408448)
I0403 18:45:12.240000  7491 net.cpp:148] Top shape: 24 512 14 14 (2408448)
I0403 18:45:12.240016  7491 net.cpp:156] Memory required for data: 1111182624
I0403 18:45:12.240034  7491 layer_factory.hpp:77] Creating layer inception_4d/1x1
I0403 18:45:12.240062  7491 net.cpp:91] Creating Layer inception_4d/1x1
I0403 18:45:12.240084  7491 net.cpp:425] inception_4d/1x1 <- inception_4c/output_inception_4c/output_0_split_0
I0403 18:45:12.240108  7491 net.cpp:399] inception_4d/1x1 -> inception_4d/1x1
I0403 18:45:12.241816  7491 net.cpp:141] Setting up inception_4d/1x1
I0403 18:45:12.241854  7491 net.cpp:148] Top shape: 24 112 14 14 (526848)
I0403 18:45:12.241875  7491 net.cpp:156] Memory required for data: 1113290016
I0403 18:45:12.241899  7491 layer_factory.hpp:77] Creating layer inception_4d/relu_1x1
I0403 18:45:12.241921  7491 net.cpp:91] Creating Layer inception_4d/relu_1x1
I0403 18:45:12.241941  7491 net.cpp:425] inception_4d/relu_1x1 <- inception_4d/1x1
I0403 18:45:12.241966  7491 net.cpp:386] inception_4d/relu_1x1 -> inception_4d/1x1 (in-place)
I0403 18:45:12.242208  7491 net.cpp:141] Setting up inception_4d/relu_1x1
I0403 18:45:12.242251  7491 net.cpp:148] Top shape: 24 112 14 14 (526848)
I0403 18:45:12.242274  7491 net.cpp:156] Memory required for data: 1115397408
I0403 18:45:12.242293  7491 layer_factory.hpp:77] Creating layer inception_4d/3x3_reduce
I0403 18:45:12.242338  7491 net.cpp:91] Creating Layer inception_4d/3x3_reduce
I0403 18:45:12.242362  7491 net.cpp:425] inception_4d/3x3_reduce <- inception_4c/output_inception_4c/output_0_split_1
I0403 18:45:12.242388  7491 net.cpp:399] inception_4d/3x3_reduce -> inception_4d/3x3_reduce
I0403 18:45:12.244272  7491 net.cpp:141] Setting up inception_4d/3x3_reduce
I0403 18:45:12.244307  7491 net.cpp:148] Top shape: 24 144 14 14 (677376)
I0403 18:45:12.244325  7491 net.cpp:156] Memory required for data: 1118106912
I0403 18:45:12.244349  7491 layer_factory.hpp:77] Creating layer inception_4d/relu_3x3_reduce
I0403 18:45:12.244374  7491 net.cpp:91] Creating Layer inception_4d/relu_3x3_reduce
I0403 18:45:12.244393  7491 net.cpp:425] inception_4d/relu_3x3_reduce <- inception_4d/3x3_reduce
I0403 18:45:12.244415  7491 net.cpp:386] inception_4d/relu_3x3_reduce -> inception_4d/3x3_reduce (in-place)
I0403 18:45:12.244777  7491 net.cpp:141] Setting up inception_4d/relu_3x3_reduce
I0403 18:45:12.244809  7491 net.cpp:148] Top shape: 24 144 14 14 (677376)
I0403 18:45:12.244828  7491 net.cpp:156] Memory required for data: 1120816416
I0403 18:45:12.244848  7491 layer_factory.hpp:77] Creating layer inception_4d/3x3
I0403 18:45:12.244875  7491 net.cpp:91] Creating Layer inception_4d/3x3
I0403 18:45:12.244896  7491 net.cpp:425] inception_4d/3x3 <- inception_4d/3x3_reduce
I0403 18:45:12.244922  7491 net.cpp:399] inception_4d/3x3 -> inception_4d/3x3
I0403 18:45:12.250188  7491 net.cpp:141] Setting up inception_4d/3x3
I0403 18:45:12.250227  7491 net.cpp:148] Top shape: 24 288 14 14 (1354752)
I0403 18:45:12.250254  7491 net.cpp:156] Memory required for data: 1126235424
I0403 18:45:12.250278  7491 layer_factory.hpp:77] Creating layer inception_4d/relu_3x3
I0403 18:45:12.250301  7491 net.cpp:91] Creating Layer inception_4d/relu_3x3
I0403 18:45:12.250321  7491 net.cpp:425] inception_4d/relu_3x3 <- inception_4d/3x3
I0403 18:45:12.250350  7491 net.cpp:386] inception_4d/relu_3x3 -> inception_4d/3x3 (in-place)
I0403 18:45:12.250581  7491 net.cpp:141] Setting up inception_4d/relu_3x3
I0403 18:45:12.250612  7491 net.cpp:148] Top shape: 24 288 14 14 (1354752)
I0403 18:45:12.250630  7491 net.cpp:156] Memory required for data: 1131654432
I0403 18:45:12.250649  7491 layer_factory.hpp:77] Creating layer inception_4d/5x5_reduce
I0403 18:45:12.250676  7491 net.cpp:91] Creating Layer inception_4d/5x5_reduce
I0403 18:45:12.250699  7491 net.cpp:425] inception_4d/5x5_reduce <- inception_4c/output_inception_4c/output_0_split_2
I0403 18:45:12.250726  7491 net.cpp:399] inception_4d/5x5_reduce -> inception_4d/5x5_reduce
I0403 18:45:12.252141  7491 net.cpp:141] Setting up inception_4d/5x5_reduce
I0403 18:45:12.252179  7491 net.cpp:148] Top shape: 24 32 14 14 (150528)
I0403 18:45:12.252199  7491 net.cpp:156] Memory required for data: 1132256544
I0403 18:45:12.252221  7491 layer_factory.hpp:77] Creating layer inception_4d/relu_5x5_reduce
I0403 18:45:12.252256  7491 net.cpp:91] Creating Layer inception_4d/relu_5x5_reduce
I0403 18:45:12.252279  7491 net.cpp:425] inception_4d/relu_5x5_reduce <- inception_4d/5x5_reduce
I0403 18:45:12.252305  7491 net.cpp:386] inception_4d/relu_5x5_reduce -> inception_4d/5x5_reduce (in-place)
I0403 18:45:12.252540  7491 net.cpp:141] Setting up inception_4d/relu_5x5_reduce
I0403 18:45:12.252571  7491 net.cpp:148] Top shape: 24 32 14 14 (150528)
I0403 18:45:12.252589  7491 net.cpp:156] Memory required for data: 1132858656
I0403 18:45:12.252607  7491 layer_factory.hpp:77] Creating layer inception_4d/5x5
I0403 18:45:12.252635  7491 net.cpp:91] Creating Layer inception_4d/5x5
I0403 18:45:12.252657  7491 net.cpp:425] inception_4d/5x5 <- inception_4d/5x5_reduce
I0403 18:45:12.252684  7491 net.cpp:399] inception_4d/5x5 -> inception_4d/5x5
I0403 18:45:12.254494  7491 net.cpp:141] Setting up inception_4d/5x5
I0403 18:45:12.254529  7491 net.cpp:148] Top shape: 24 64 14 14 (301056)
I0403 18:45:12.254549  7491 net.cpp:156] Memory required for data: 1134062880
I0403 18:45:12.254573  7491 layer_factory.hpp:77] Creating layer inception_4d/relu_5x5
I0403 18:45:12.254616  7491 net.cpp:91] Creating Layer inception_4d/relu_5x5
I0403 18:45:12.254638  7491 net.cpp:425] inception_4d/relu_5x5 <- inception_4d/5x5
I0403 18:45:12.254660  7491 net.cpp:386] inception_4d/relu_5x5 -> inception_4d/5x5 (in-place)
I0403 18:45:12.255030  7491 net.cpp:141] Setting up inception_4d/relu_5x5
I0403 18:45:12.255062  7491 net.cpp:148] Top shape: 24 64 14 14 (301056)
I0403 18:45:12.255080  7491 net.cpp:156] Memory required for data: 1135267104
I0403 18:45:12.255100  7491 layer_factory.hpp:77] Creating layer inception_4d/pool
I0403 18:45:12.255120  7491 net.cpp:91] Creating Layer inception_4d/pool
I0403 18:45:12.255141  7491 net.cpp:425] inception_4d/pool <- inception_4c/output_inception_4c/output_0_split_3
I0403 18:45:12.255165  7491 net.cpp:399] inception_4d/pool -> inception_4d/pool
I0403 18:45:12.255255  7491 net.cpp:141] Setting up inception_4d/pool
I0403 18:45:12.255286  7491 net.cpp:148] Top shape: 24 512 14 14 (2408448)
I0403 18:45:12.255305  7491 net.cpp:156] Memory required for data: 1144900896
I0403 18:45:12.255322  7491 layer_factory.hpp:77] Creating layer inception_4d/pool_proj
I0403 18:45:12.255352  7491 net.cpp:91] Creating Layer inception_4d/pool_proj
I0403 18:45:12.255373  7491 net.cpp:425] inception_4d/pool_proj <- inception_4d/pool
I0403 18:45:12.255396  7491 net.cpp:399] inception_4d/pool_proj -> inception_4d/pool_proj
I0403 18:45:12.257571  7491 net.cpp:141] Setting up inception_4d/pool_proj
I0403 18:45:12.257611  7491 net.cpp:148] Top shape: 24 64 14 14 (301056)
I0403 18:45:12.257632  7491 net.cpp:156] Memory required for data: 1146105120
I0403 18:45:12.257654  7491 layer_factory.hpp:77] Creating layer inception_4d/relu_pool_proj
I0403 18:45:12.257678  7491 net.cpp:91] Creating Layer inception_4d/relu_pool_proj
I0403 18:45:12.257697  7491 net.cpp:425] inception_4d/relu_pool_proj <- inception_4d/pool_proj
I0403 18:45:12.257721  7491 net.cpp:386] inception_4d/relu_pool_proj -> inception_4d/pool_proj (in-place)
I0403 18:45:12.257956  7491 net.cpp:141] Setting up inception_4d/relu_pool_proj
I0403 18:45:12.257987  7491 net.cpp:148] Top shape: 24 64 14 14 (301056)
I0403 18:45:12.258004  7491 net.cpp:156] Memory required for data: 1147309344
I0403 18:45:12.258023  7491 layer_factory.hpp:77] Creating layer inception_4d/output
I0403 18:45:12.258044  7491 net.cpp:91] Creating Layer inception_4d/output
I0403 18:45:12.258064  7491 net.cpp:425] inception_4d/output <- inception_4d/1x1
I0403 18:45:12.258083  7491 net.cpp:425] inception_4d/output <- inception_4d/3x3
I0403 18:45:12.258103  7491 net.cpp:425] inception_4d/output <- inception_4d/5x5
I0403 18:45:12.258123  7491 net.cpp:425] inception_4d/output <- inception_4d/pool_proj
I0403 18:45:12.258152  7491 net.cpp:399] inception_4d/output -> inception_4d/output
I0403 18:45:12.258210  7491 net.cpp:141] Setting up inception_4d/output
I0403 18:45:12.258246  7491 net.cpp:148] Top shape: 24 528 14 14 (2483712)
I0403 18:45:12.258267  7491 net.cpp:156] Memory required for data: 1157244192
I0403 18:45:12.258286  7491 layer_factory.hpp:77] Creating layer inception_4d/output_inception_4d/output_0_split
I0403 18:45:12.258307  7491 net.cpp:91] Creating Layer inception_4d/output_inception_4d/output_0_split
I0403 18:45:12.258327  7491 net.cpp:425] inception_4d/output_inception_4d/output_0_split <- inception_4d/output
I0403 18:45:12.258352  7491 net.cpp:399] inception_4d/output_inception_4d/output_0_split -> inception_4d/output_inception_4d/output_0_split_0
I0403 18:45:12.258378  7491 net.cpp:399] inception_4d/output_inception_4d/output_0_split -> inception_4d/output_inception_4d/output_0_split_1
I0403 18:45:12.258404  7491 net.cpp:399] inception_4d/output_inception_4d/output_0_split -> inception_4d/output_inception_4d/output_0_split_2
I0403 18:45:12.258430  7491 net.cpp:399] inception_4d/output_inception_4d/output_0_split -> inception_4d/output_inception_4d/output_0_split_3
I0403 18:45:12.258453  7491 net.cpp:399] inception_4d/output_inception_4d/output_0_split -> inception_4d/output_inception_4d/output_0_split_4
I0403 18:45:12.258581  7491 net.cpp:141] Setting up inception_4d/output_inception_4d/output_0_split
I0403 18:45:12.258625  7491 net.cpp:148] Top shape: 24 528 14 14 (2483712)
I0403 18:45:12.258647  7491 net.cpp:148] Top shape: 24 528 14 14 (2483712)
I0403 18:45:12.258666  7491 net.cpp:148] Top shape: 24 528 14 14 (2483712)
I0403 18:45:12.258685  7491 net.cpp:148] Top shape: 24 528 14 14 (2483712)
I0403 18:45:12.258705  7491 net.cpp:148] Top shape: 24 528 14 14 (2483712)
I0403 18:45:12.258723  7491 net.cpp:156] Memory required for data: 1206918432
I0403 18:45:12.258740  7491 layer_factory.hpp:77] Creating layer loss2/ave_pool
I0403 18:45:12.258764  7491 net.cpp:91] Creating Layer loss2/ave_pool
I0403 18:45:12.258786  7491 net.cpp:425] loss2/ave_pool <- inception_4d/output_inception_4d/output_0_split_0
I0403 18:45:12.258811  7491 net.cpp:399] loss2/ave_pool -> loss2/ave_pool
I0403 18:45:12.259199  7491 net.cpp:141] Setting up loss2/ave_pool
I0403 18:45:12.259235  7491 net.cpp:148] Top shape: 24 528 4 4 (202752)
I0403 18:45:12.259261  7491 net.cpp:156] Memory required for data: 1207729440
I0403 18:45:12.259281  7491 layer_factory.hpp:77] Creating layer loss2/conv
I0403 18:45:12.259308  7491 net.cpp:91] Creating Layer loss2/conv
I0403 18:45:12.259330  7491 net.cpp:425] loss2/conv <- loss2/ave_pool
I0403 18:45:12.259354  7491 net.cpp:399] loss2/conv -> loss2/conv
I0403 18:45:12.261685  7491 net.cpp:141] Setting up loss2/conv
I0403 18:45:12.261720  7491 net.cpp:148] Top shape: 24 128 4 4 (49152)
I0403 18:45:12.261740  7491 net.cpp:156] Memory required for data: 1207926048
I0403 18:45:12.261762  7491 layer_factory.hpp:77] Creating layer loss2/relu_conv
I0403 18:45:12.261788  7491 net.cpp:91] Creating Layer loss2/relu_conv
I0403 18:45:12.261811  7491 net.cpp:425] loss2/relu_conv <- loss2/conv
I0403 18:45:12.261832  7491 net.cpp:386] loss2/relu_conv -> loss2/conv (in-place)
I0403 18:45:12.262183  7491 net.cpp:141] Setting up loss2/relu_conv
I0403 18:45:12.262217  7491 net.cpp:148] Top shape: 24 128 4 4 (49152)
I0403 18:45:12.262234  7491 net.cpp:156] Memory required for data: 1208122656
I0403 18:45:12.262269  7491 layer_factory.hpp:77] Creating layer loss2/fc
I0403 18:45:12.262297  7491 net.cpp:91] Creating Layer loss2/fc
I0403 18:45:12.262320  7491 net.cpp:425] loss2/fc <- loss2/conv
I0403 18:45:12.262343  7491 net.cpp:399] loss2/fc -> loss2/fc
I0403 18:45:12.284605  7491 net.cpp:141] Setting up loss2/fc
I0403 18:45:12.284648  7491 net.cpp:148] Top shape: 24 1024 (24576)
I0403 18:45:12.284667  7491 net.cpp:156] Memory required for data: 1208220960
I0403 18:45:12.284690  7491 layer_factory.hpp:77] Creating layer loss2/relu_fc
I0403 18:45:12.284714  7491 net.cpp:91] Creating Layer loss2/relu_fc
I0403 18:45:12.284735  7491 net.cpp:425] loss2/relu_fc <- loss2/fc
I0403 18:45:12.284760  7491 net.cpp:386] loss2/relu_fc -> loss2/fc (in-place)
I0403 18:45:12.285127  7491 net.cpp:141] Setting up loss2/relu_fc
I0403 18:45:12.285163  7491 net.cpp:148] Top shape: 24 1024 (24576)
I0403 18:45:12.285183  7491 net.cpp:156] Memory required for data: 1208319264
I0403 18:45:12.285202  7491 layer_factory.hpp:77] Creating layer loss2/drop_fc
I0403 18:45:12.285224  7491 net.cpp:91] Creating Layer loss2/drop_fc
I0403 18:45:12.285249  7491 net.cpp:425] loss2/drop_fc <- loss2/fc
I0403 18:45:12.285277  7491 net.cpp:386] loss2/drop_fc -> loss2/fc (in-place)
I0403 18:45:12.285341  7491 net.cpp:141] Setting up loss2/drop_fc
I0403 18:45:12.285369  7491 net.cpp:148] Top shape: 24 1024 (24576)
I0403 18:45:12.285387  7491 net.cpp:156] Memory required for data: 1208417568
I0403 18:45:12.285405  7491 layer_factory.hpp:77] Creating layer loss2/classifier_plantvillage
I0403 18:45:12.285432  7491 net.cpp:91] Creating Layer loss2/classifier_plantvillage
I0403 18:45:12.285452  7491 net.cpp:425] loss2/classifier_plantvillage <- loss2/fc
I0403 18:45:12.285480  7491 net.cpp:399] loss2/classifier_plantvillage -> loss2/classifier_plantvillage
I0403 18:45:12.285979  7491 net.cpp:141] Setting up loss2/classifier_plantvillage
I0403 18:45:12.286011  7491 net.cpp:148] Top shape: 24 38 (912)
I0403 18:45:12.286051  7491 net.cpp:156] Memory required for data: 1208421216
I0403 18:45:12.286077  7491 layer_factory.hpp:77] Creating layer loss2/classifier_plantvillage_loss2/classifier_plantvillage_0_split
I0403 18:45:12.286103  7491 net.cpp:91] Creating Layer loss2/classifier_plantvillage_loss2/classifier_plantvillage_0_split
I0403 18:45:12.286123  7491 net.cpp:425] loss2/classifier_plantvillage_loss2/classifier_plantvillage_0_split <- loss2/classifier_plantvillage
I0403 18:45:12.286145  7491 net.cpp:399] loss2/classifier_plantvillage_loss2/classifier_plantvillage_0_split -> loss2/classifier_plantvillage_loss2/classifier_plantvillage_0_split_0
I0403 18:45:12.286171  7491 net.cpp:399] loss2/classifier_plantvillage_loss2/classifier_plantvillage_0_split -> loss2/classifier_plantvillage_loss2/classifier_plantvillage_0_split_1
I0403 18:45:12.286197  7491 net.cpp:399] loss2/classifier_plantvillage_loss2/classifier_plantvillage_0_split -> loss2/classifier_plantvillage_loss2/classifier_plantvillage_0_split_2
I0403 18:45:12.286309  7491 net.cpp:141] Setting up loss2/classifier_plantvillage_loss2/classifier_plantvillage_0_split
I0403 18:45:12.286339  7491 net.cpp:148] Top shape: 24 38 (912)
I0403 18:45:12.286360  7491 net.cpp:148] Top shape: 24 38 (912)
I0403 18:45:12.286381  7491 net.cpp:148] Top shape: 24 38 (912)
I0403 18:45:12.286397  7491 net.cpp:156] Memory required for data: 1208432160
I0403 18:45:12.286417  7491 layer_factory.hpp:77] Creating layer inception_4e/1x1
I0403 18:45:12.286440  7491 net.cpp:91] Creating Layer inception_4e/1x1
I0403 18:45:12.286463  7491 net.cpp:425] inception_4e/1x1 <- inception_4d/output_inception_4d/output_0_split_1
I0403 18:45:12.286489  7491 net.cpp:399] inception_4e/1x1 -> inception_4e/1x1
I0403 18:45:12.288758  7491 net.cpp:141] Setting up inception_4e/1x1
I0403 18:45:12.288792  7491 net.cpp:148] Top shape: 24 256 14 14 (1204224)
I0403 18:45:12.288811  7491 net.cpp:156] Memory required for data: 1213249056
I0403 18:45:12.288835  7491 layer_factory.hpp:77] Creating layer inception_4e/relu_1x1
I0403 18:45:12.288859  7491 net.cpp:91] Creating Layer inception_4e/relu_1x1
I0403 18:45:12.288880  7491 net.cpp:425] inception_4e/relu_1x1 <- inception_4e/1x1
I0403 18:45:12.288902  7491 net.cpp:386] inception_4e/relu_1x1 -> inception_4e/1x1 (in-place)
I0403 18:45:12.289273  7491 net.cpp:141] Setting up inception_4e/relu_1x1
I0403 18:45:12.289306  7491 net.cpp:148] Top shape: 24 256 14 14 (1204224)
I0403 18:45:12.289325  7491 net.cpp:156] Memory required for data: 1218065952
I0403 18:45:12.289345  7491 layer_factory.hpp:77] Creating layer inception_4e/3x3_reduce
I0403 18:45:12.289371  7491 net.cpp:91] Creating Layer inception_4e/3x3_reduce
I0403 18:45:12.289392  7491 net.cpp:425] inception_4e/3x3_reduce <- inception_4d/output_inception_4d/output_0_split_2
I0403 18:45:12.289419  7491 net.cpp:399] inception_4e/3x3_reduce -> inception_4e/3x3_reduce
I0403 18:45:12.292057  7491 net.cpp:141] Setting up inception_4e/3x3_reduce
I0403 18:45:12.292095  7491 net.cpp:148] Top shape: 24 160 14 14 (752640)
I0403 18:45:12.292114  7491 net.cpp:156] Memory required for data: 1221076512
I0403 18:45:12.292138  7491 layer_factory.hpp:77] Creating layer inception_4e/relu_3x3_reduce
I0403 18:45:12.292163  7491 net.cpp:91] Creating Layer inception_4e/relu_3x3_reduce
I0403 18:45:12.292184  7491 net.cpp:425] inception_4e/relu_3x3_reduce <- inception_4e/3x3_reduce
I0403 18:45:12.292207  7491 net.cpp:386] inception_4e/relu_3x3_reduce -> inception_4e/3x3_reduce (in-place)
I0403 18:45:12.292459  7491 net.cpp:141] Setting up inception_4e/relu_3x3_reduce
I0403 18:45:12.292490  7491 net.cpp:148] Top shape: 24 160 14 14 (752640)
I0403 18:45:12.292510  7491 net.cpp:156] Memory required for data: 1224087072
I0403 18:45:12.292529  7491 layer_factory.hpp:77] Creating layer inception_4e/3x3
I0403 18:45:12.292557  7491 net.cpp:91] Creating Layer inception_4e/3x3
I0403 18:45:12.292582  7491 net.cpp:425] inception_4e/3x3 <- inception_4e/3x3_reduce
I0403 18:45:12.292605  7491 net.cpp:399] inception_4e/3x3 -> inception_4e/3x3
I0403 18:45:12.298871  7491 net.cpp:141] Setting up inception_4e/3x3
I0403 18:45:12.298923  7491 net.cpp:148] Top shape: 24 320 14 14 (1505280)
I0403 18:45:12.298943  7491 net.cpp:156] Memory required for data: 1230108192
I0403 18:45:12.298965  7491 layer_factory.hpp:77] Creating layer inception_4e/relu_3x3
I0403 18:45:12.298991  7491 net.cpp:91] Creating Layer inception_4e/relu_3x3
I0403 18:45:12.299011  7491 net.cpp:425] inception_4e/relu_3x3 <- inception_4e/3x3
I0403 18:45:12.299033  7491 net.cpp:386] inception_4e/relu_3x3 -> inception_4e/3x3 (in-place)
I0403 18:45:12.299415  7491 net.cpp:141] Setting up inception_4e/relu_3x3
I0403 18:45:12.299450  7491 net.cpp:148] Top shape: 24 320 14 14 (1505280)
I0403 18:45:12.299471  7491 net.cpp:156] Memory required for data: 1236129312
I0403 18:45:12.299489  7491 layer_factory.hpp:77] Creating layer inception_4e/5x5_reduce
I0403 18:45:12.299520  7491 net.cpp:91] Creating Layer inception_4e/5x5_reduce
I0403 18:45:12.299542  7491 net.cpp:425] inception_4e/5x5_reduce <- inception_4d/output_inception_4d/output_0_split_3
I0403 18:45:12.299566  7491 net.cpp:399] inception_4e/5x5_reduce -> inception_4e/5x5_reduce
I0403 18:45:12.300906  7491 net.cpp:141] Setting up inception_4e/5x5_reduce
I0403 18:45:12.300940  7491 net.cpp:148] Top shape: 24 32 14 14 (150528)
I0403 18:45:12.300959  7491 net.cpp:156] Memory required for data: 1236731424
I0403 18:45:12.300981  7491 layer_factory.hpp:77] Creating layer inception_4e/relu_5x5_reduce
I0403 18:45:12.301007  7491 net.cpp:91] Creating Layer inception_4e/relu_5x5_reduce
I0403 18:45:12.301028  7491 net.cpp:425] inception_4e/relu_5x5_reduce <- inception_4e/5x5_reduce
I0403 18:45:12.301050  7491 net.cpp:386] inception_4e/relu_5x5_reduce -> inception_4e/5x5_reduce (in-place)
I0403 18:45:12.301419  7491 net.cpp:141] Setting up inception_4e/relu_5x5_reduce
I0403 18:45:12.301451  7491 net.cpp:148] Top shape: 24 32 14 14 (150528)
I0403 18:45:12.301470  7491 net.cpp:156] Memory required for data: 1237333536
I0403 18:45:12.301491  7491 layer_factory.hpp:77] Creating layer inception_4e/5x5
I0403 18:45:12.301538  7491 net.cpp:91] Creating Layer inception_4e/5x5
I0403 18:45:12.301563  7491 net.cpp:425] inception_4e/5x5 <- inception_4e/5x5_reduce
I0403 18:45:12.301587  7491 net.cpp:399] inception_4e/5x5 -> inception_4e/5x5
I0403 18:45:12.303884  7491 net.cpp:141] Setting up inception_4e/5x5
I0403 18:45:12.303920  7491 net.cpp:148] Top shape: 24 128 14 14 (602112)
I0403 18:45:12.303939  7491 net.cpp:156] Memory required for data: 1239741984
I0403 18:45:12.303964  7491 layer_factory.hpp:77] Creating layer inception_4e/relu_5x5
I0403 18:45:12.303987  7491 net.cpp:91] Creating Layer inception_4e/relu_5x5
I0403 18:45:12.304008  7491 net.cpp:425] inception_4e/relu_5x5 <- inception_4e/5x5
I0403 18:45:12.304033  7491 net.cpp:386] inception_4e/relu_5x5 -> inception_4e/5x5 (in-place)
I0403 18:45:12.304289  7491 net.cpp:141] Setting up inception_4e/relu_5x5
I0403 18:45:12.304322  7491 net.cpp:148] Top shape: 24 128 14 14 (602112)
I0403 18:45:12.304340  7491 net.cpp:156] Memory required for data: 1242150432
I0403 18:45:12.304359  7491 layer_factory.hpp:77] Creating layer inception_4e/pool
I0403 18:45:12.304390  7491 net.cpp:91] Creating Layer inception_4e/pool
I0403 18:45:12.304412  7491 net.cpp:425] inception_4e/pool <- inception_4d/output_inception_4d/output_0_split_4
I0403 18:45:12.304435  7491 net.cpp:399] inception_4e/pool -> inception_4e/pool
I0403 18:45:12.304525  7491 net.cpp:141] Setting up inception_4e/pool
I0403 18:45:12.304555  7491 net.cpp:148] Top shape: 24 528 14 14 (2483712)
I0403 18:45:12.304575  7491 net.cpp:156] Memory required for data: 1252085280
I0403 18:45:12.304594  7491 layer_factory.hpp:77] Creating layer inception_4e/pool_proj
I0403 18:45:12.304621  7491 net.cpp:91] Creating Layer inception_4e/pool_proj
I0403 18:45:12.304643  7491 net.cpp:425] inception_4e/pool_proj <- inception_4e/pool
I0403 18:45:12.304669  7491 net.cpp:399] inception_4e/pool_proj -> inception_4e/pool_proj
I0403 18:45:12.306552  7491 net.cpp:141] Setting up inception_4e/pool_proj
I0403 18:45:12.306603  7491 net.cpp:148] Top shape: 24 128 14 14 (602112)
I0403 18:45:12.306624  7491 net.cpp:156] Memory required for data: 1254493728
I0403 18:45:12.306648  7491 layer_factory.hpp:77] Creating layer inception_4e/relu_pool_proj
I0403 18:45:12.306671  7491 net.cpp:91] Creating Layer inception_4e/relu_pool_proj
I0403 18:45:12.306692  7491 net.cpp:425] inception_4e/relu_pool_proj <- inception_4e/pool_proj
I0403 18:45:12.306717  7491 net.cpp:386] inception_4e/relu_pool_proj -> inception_4e/pool_proj (in-place)
I0403 18:45:12.307075  7491 net.cpp:141] Setting up inception_4e/relu_pool_proj
I0403 18:45:12.307111  7491 net.cpp:148] Top shape: 24 128 14 14 (602112)
I0403 18:45:12.307132  7491 net.cpp:156] Memory required for data: 1256902176
I0403 18:45:12.307152  7491 layer_factory.hpp:77] Creating layer inception_4e/output
I0403 18:45:12.307174  7491 net.cpp:91] Creating Layer inception_4e/output
I0403 18:45:12.307194  7491 net.cpp:425] inception_4e/output <- inception_4e/1x1
I0403 18:45:12.307215  7491 net.cpp:425] inception_4e/output <- inception_4e/3x3
I0403 18:45:12.307236  7491 net.cpp:425] inception_4e/output <- inception_4e/5x5
I0403 18:45:12.307263  7491 net.cpp:425] inception_4e/output <- inception_4e/pool_proj
I0403 18:45:12.307286  7491 net.cpp:399] inception_4e/output -> inception_4e/output
I0403 18:45:12.307350  7491 net.cpp:141] Setting up inception_4e/output
I0403 18:45:12.307380  7491 net.cpp:148] Top shape: 24 832 14 14 (3913728)
I0403 18:45:12.307399  7491 net.cpp:156] Memory required for data: 1272557088
I0403 18:45:12.307417  7491 layer_factory.hpp:77] Creating layer pool4/3x3_s2
I0403 18:45:12.307442  7491 net.cpp:91] Creating Layer pool4/3x3_s2
I0403 18:45:12.307463  7491 net.cpp:425] pool4/3x3_s2 <- inception_4e/output
I0403 18:45:12.307487  7491 net.cpp:399] pool4/3x3_s2 -> pool4/3x3_s2
I0403 18:45:12.307574  7491 net.cpp:141] Setting up pool4/3x3_s2
I0403 18:45:12.307603  7491 net.cpp:148] Top shape: 24 832 7 7 (978432)
I0403 18:45:12.307622  7491 net.cpp:156] Memory required for data: 1276470816
I0403 18:45:12.307641  7491 layer_factory.hpp:77] Creating layer pool4/3x3_s2_pool4/3x3_s2_0_split
I0403 18:45:12.307662  7491 net.cpp:91] Creating Layer pool4/3x3_s2_pool4/3x3_s2_0_split
I0403 18:45:12.307682  7491 net.cpp:425] pool4/3x3_s2_pool4/3x3_s2_0_split <- pool4/3x3_s2
I0403 18:45:12.307705  7491 net.cpp:399] pool4/3x3_s2_pool4/3x3_s2_0_split -> pool4/3x3_s2_pool4/3x3_s2_0_split_0
I0403 18:45:12.307732  7491 net.cpp:399] pool4/3x3_s2_pool4/3x3_s2_0_split -> pool4/3x3_s2_pool4/3x3_s2_0_split_1
I0403 18:45:12.307759  7491 net.cpp:399] pool4/3x3_s2_pool4/3x3_s2_0_split -> pool4/3x3_s2_pool4/3x3_s2_0_split_2
I0403 18:45:12.307785  7491 net.cpp:399] pool4/3x3_s2_pool4/3x3_s2_0_split -> pool4/3x3_s2_pool4/3x3_s2_0_split_3
I0403 18:45:12.307901  7491 net.cpp:141] Setting up pool4/3x3_s2_pool4/3x3_s2_0_split
I0403 18:45:12.307934  7491 net.cpp:148] Top shape: 24 832 7 7 (978432)
I0403 18:45:12.307956  7491 net.cpp:148] Top shape: 24 832 7 7 (978432)
I0403 18:45:12.307976  7491 net.cpp:148] Top shape: 24 832 7 7 (978432)
I0403 18:45:12.307996  7491 net.cpp:148] Top shape: 24 832 7 7 (978432)
I0403 18:45:12.308013  7491 net.cpp:156] Memory required for data: 1292125728
I0403 18:45:12.308032  7491 layer_factory.hpp:77] Creating layer inception_5a/1x1
I0403 18:45:12.308059  7491 net.cpp:91] Creating Layer inception_5a/1x1
I0403 18:45:12.308080  7491 net.cpp:425] inception_5a/1x1 <- pool4/3x3_s2_pool4/3x3_s2_0_split_0
I0403 18:45:12.308107  7491 net.cpp:399] inception_5a/1x1 -> inception_5a/1x1
I0403 18:45:12.311676  7491 net.cpp:141] Setting up inception_5a/1x1
I0403 18:45:12.311712  7491 net.cpp:148] Top shape: 24 256 7 7 (301056)
I0403 18:45:12.311733  7491 net.cpp:156] Memory required for data: 1293329952
I0403 18:45:12.311756  7491 layer_factory.hpp:77] Creating layer inception_5a/relu_1x1
I0403 18:45:12.311781  7491 net.cpp:91] Creating Layer inception_5a/relu_1x1
I0403 18:45:12.311803  7491 net.cpp:425] inception_5a/relu_1x1 <- inception_5a/1x1
I0403 18:45:12.311826  7491 net.cpp:386] inception_5a/relu_1x1 -> inception_5a/1x1 (in-place)
I0403 18:45:12.312208  7491 net.cpp:141] Setting up inception_5a/relu_1x1
I0403 18:45:12.312255  7491 net.cpp:148] Top shape: 24 256 7 7 (301056)
I0403 18:45:12.312278  7491 net.cpp:156] Memory required for data: 1294534176
I0403 18:45:12.312299  7491 layer_factory.hpp:77] Creating layer inception_5a/3x3_reduce
I0403 18:45:12.312326  7491 net.cpp:91] Creating Layer inception_5a/3x3_reduce
I0403 18:45:12.312348  7491 net.cpp:425] inception_5a/3x3_reduce <- pool4/3x3_s2_pool4/3x3_s2_0_split_1
I0403 18:45:12.312376  7491 net.cpp:399] inception_5a/3x3_reduce -> inception_5a/3x3_reduce
I0403 18:45:12.315400  7491 net.cpp:141] Setting up inception_5a/3x3_reduce
I0403 18:45:12.315438  7491 net.cpp:148] Top shape: 24 160 7 7 (188160)
I0403 18:45:12.315459  7491 net.cpp:156] Memory required for data: 1295286816
I0403 18:45:12.315481  7491 layer_factory.hpp:77] Creating layer inception_5a/relu_3x3_reduce
I0403 18:45:12.315503  7491 net.cpp:91] Creating Layer inception_5a/relu_3x3_reduce
I0403 18:45:12.315523  7491 net.cpp:425] inception_5a/relu_3x3_reduce <- inception_5a/3x3_reduce
I0403 18:45:12.315546  7491 net.cpp:386] inception_5a/relu_3x3_reduce -> inception_5a/3x3_reduce (in-place)
I0403 18:45:12.315786  7491 net.cpp:141] Setting up inception_5a/relu_3x3_reduce
I0403 18:45:12.315817  7491 net.cpp:148] Top shape: 24 160 7 7 (188160)
I0403 18:45:12.315835  7491 net.cpp:156] Memory required for data: 1296039456
I0403 18:45:12.315852  7491 layer_factory.hpp:77] Creating layer inception_5a/3x3
I0403 18:45:12.315881  7491 net.cpp:91] Creating Layer inception_5a/3x3
I0403 18:45:12.315902  7491 net.cpp:425] inception_5a/3x3 <- inception_5a/3x3_reduce
I0403 18:45:12.315930  7491 net.cpp:399] inception_5a/3x3 -> inception_5a/3x3
I0403 18:45:12.322187  7491 net.cpp:141] Setting up inception_5a/3x3
I0403 18:45:12.322226  7491 net.cpp:148] Top shape: 24 320 7 7 (376320)
I0403 18:45:12.322257  7491 net.cpp:156] Memory required for data: 1297544736
I0403 18:45:12.322284  7491 layer_factory.hpp:77] Creating layer inception_5a/relu_3x3
I0403 18:45:12.322307  7491 net.cpp:91] Creating Layer inception_5a/relu_3x3
I0403 18:45:12.322327  7491 net.cpp:425] inception_5a/relu_3x3 <- inception_5a/3x3
I0403 18:45:12.322352  7491 net.cpp:386] inception_5a/relu_3x3 -> inception_5a/3x3 (in-place)
I0403 18:45:12.322722  7491 net.cpp:141] Setting up inception_5a/relu_3x3
I0403 18:45:12.322756  7491 net.cpp:148] Top shape: 24 320 7 7 (376320)
I0403 18:45:12.322773  7491 net.cpp:156] Memory required for data: 1299050016
I0403 18:45:12.322793  7491 layer_factory.hpp:77] Creating layer inception_5a/5x5_reduce
I0403 18:45:12.322820  7491 net.cpp:91] Creating Layer inception_5a/5x5_reduce
I0403 18:45:12.322842  7491 net.cpp:425] inception_5a/5x5_reduce <- pool4/3x3_s2_pool4/3x3_s2_0_split_2
I0403 18:45:12.322870  7491 net.cpp:399] inception_5a/5x5_reduce -> inception_5a/5x5_reduce
I0403 18:45:12.324349  7491 net.cpp:141] Setting up inception_5a/5x5_reduce
I0403 18:45:12.324384  7491 net.cpp:148] Top shape: 24 32 7 7 (37632)
I0403 18:45:12.324404  7491 net.cpp:156] Memory required for data: 1299200544
I0403 18:45:12.324427  7491 layer_factory.hpp:77] Creating layer inception_5a/relu_5x5_reduce
I0403 18:45:12.324453  7491 net.cpp:91] Creating Layer inception_5a/relu_5x5_reduce
I0403 18:45:12.324475  7491 net.cpp:425] inception_5a/relu_5x5_reduce <- inception_5a/5x5_reduce
I0403 18:45:12.324496  7491 net.cpp:386] inception_5a/relu_5x5_reduce -> inception_5a/5x5_reduce (in-place)
I0403 18:45:12.324862  7491 net.cpp:141] Setting up inception_5a/relu_5x5_reduce
I0403 18:45:12.324893  7491 net.cpp:148] Top shape: 24 32 7 7 (37632)
I0403 18:45:12.324913  7491 net.cpp:156] Memory required for data: 1299351072
I0403 18:45:12.324933  7491 layer_factory.hpp:77] Creating layer inception_5a/5x5
I0403 18:45:12.324959  7491 net.cpp:91] Creating Layer inception_5a/5x5
I0403 18:45:12.324981  7491 net.cpp:425] inception_5a/5x5 <- inception_5a/5x5_reduce
I0403 18:45:12.325007  7491 net.cpp:399] inception_5a/5x5 -> inception_5a/5x5
I0403 18:45:12.327154  7491 net.cpp:141] Setting up inception_5a/5x5
I0403 18:45:12.327203  7491 net.cpp:148] Top shape: 24 128 7 7 (150528)
I0403 18:45:12.327224  7491 net.cpp:156] Memory required for data: 1299953184
I0403 18:45:12.327252  7491 layer_factory.hpp:77] Creating layer inception_5a/relu_5x5
I0403 18:45:12.327276  7491 net.cpp:91] Creating Layer inception_5a/relu_5x5
I0403 18:45:12.327296  7491 net.cpp:425] inception_5a/relu_5x5 <- inception_5a/5x5
I0403 18:45:12.327322  7491 net.cpp:386] inception_5a/relu_5x5 -> inception_5a/5x5 (in-place)
I0403 18:45:12.327569  7491 net.cpp:141] Setting up inception_5a/relu_5x5
I0403 18:45:12.327600  7491 net.cpp:148] Top shape: 24 128 7 7 (150528)
I0403 18:45:12.327617  7491 net.cpp:156] Memory required for data: 1300555296
I0403 18:45:12.327636  7491 layer_factory.hpp:77] Creating layer inception_5a/pool
I0403 18:45:12.327661  7491 net.cpp:91] Creating Layer inception_5a/pool
I0403 18:45:12.327682  7491 net.cpp:425] inception_5a/pool <- pool4/3x3_s2_pool4/3x3_s2_0_split_3
I0403 18:45:12.327704  7491 net.cpp:399] inception_5a/pool -> inception_5a/pool
I0403 18:45:12.327793  7491 net.cpp:141] Setting up inception_5a/pool
I0403 18:45:12.327823  7491 net.cpp:148] Top shape: 24 832 7 7 (978432)
I0403 18:45:12.327841  7491 net.cpp:156] Memory required for data: 1304469024
I0403 18:45:12.327859  7491 layer_factory.hpp:77] Creating layer inception_5a/pool_proj
I0403 18:45:12.327888  7491 net.cpp:91] Creating Layer inception_5a/pool_proj
I0403 18:45:12.327908  7491 net.cpp:425] inception_5a/pool_proj <- inception_5a/pool
I0403 18:45:12.327935  7491 net.cpp:399] inception_5a/pool_proj -> inception_5a/pool_proj
I0403 18:45:12.330750  7491 net.cpp:141] Setting up inception_5a/pool_proj
I0403 18:45:12.330790  7491 net.cpp:148] Top shape: 24 128 7 7 (150528)
I0403 18:45:12.330811  7491 net.cpp:156] Memory required for data: 1305071136
I0403 18:45:12.330835  7491 layer_factory.hpp:77] Creating layer inception_5a/relu_pool_proj
I0403 18:45:12.330857  7491 net.cpp:91] Creating Layer inception_5a/relu_pool_proj
I0403 18:45:12.330878  7491 net.cpp:425] inception_5a/relu_pool_proj <- inception_5a/pool_proj
I0403 18:45:12.330904  7491 net.cpp:386] inception_5a/relu_pool_proj -> inception_5a/pool_proj (in-place)
I0403 18:45:12.331269  7491 net.cpp:141] Setting up inception_5a/relu_pool_proj
I0403 18:45:12.331305  7491 net.cpp:148] Top shape: 24 128 7 7 (150528)
I0403 18:45:12.331324  7491 net.cpp:156] Memory required for data: 1305673248
I0403 18:45:12.331343  7491 layer_factory.hpp:77] Creating layer inception_5a/output
I0403 18:45:12.331364  7491 net.cpp:91] Creating Layer inception_5a/output
I0403 18:45:12.331384  7491 net.cpp:425] inception_5a/output <- inception_5a/1x1
I0403 18:45:12.331406  7491 net.cpp:425] inception_5a/output <- inception_5a/3x3
I0403 18:45:12.331426  7491 net.cpp:425] inception_5a/output <- inception_5a/5x5
I0403 18:45:12.331446  7491 net.cpp:425] inception_5a/output <- inception_5a/pool_proj
I0403 18:45:12.331470  7491 net.cpp:399] inception_5a/output -> inception_5a/output
I0403 18:45:12.331532  7491 net.cpp:141] Setting up inception_5a/output
I0403 18:45:12.331562  7491 net.cpp:148] Top shape: 24 832 7 7 (978432)
I0403 18:45:12.331580  7491 net.cpp:156] Memory required for data: 1309586976
I0403 18:45:12.331599  7491 layer_factory.hpp:77] Creating layer inception_5a/output_inception_5a/output_0_split
I0403 18:45:12.331625  7491 net.cpp:91] Creating Layer inception_5a/output_inception_5a/output_0_split
I0403 18:45:12.331645  7491 net.cpp:425] inception_5a/output_inception_5a/output_0_split <- inception_5a/output
I0403 18:45:12.331667  7491 net.cpp:399] inception_5a/output_inception_5a/output_0_split -> inception_5a/output_inception_5a/output_0_split_0
I0403 18:45:12.331693  7491 net.cpp:399] inception_5a/output_inception_5a/output_0_split -> inception_5a/output_inception_5a/output_0_split_1
I0403 18:45:12.331723  7491 net.cpp:399] inception_5a/output_inception_5a/output_0_split -> inception_5a/output_inception_5a/output_0_split_2
I0403 18:45:12.331751  7491 net.cpp:399] inception_5a/output_inception_5a/output_0_split -> inception_5a/output_inception_5a/output_0_split_3
I0403 18:45:12.331895  7491 net.cpp:141] Setting up inception_5a/output_inception_5a/output_0_split
I0403 18:45:12.331926  7491 net.cpp:148] Top shape: 24 832 7 7 (978432)
I0403 18:45:12.331946  7491 net.cpp:148] Top shape: 24 832 7 7 (978432)
I0403 18:45:12.331967  7491 net.cpp:148] Top shape: 24 832 7 7 (978432)
I0403 18:45:12.331986  7491 net.cpp:148] Top shape: 24 832 7 7 (978432)
I0403 18:45:12.332003  7491 net.cpp:156] Memory required for data: 1325241888
I0403 18:45:12.332021  7491 layer_factory.hpp:77] Creating layer inception_5b/1x1
I0403 18:45:12.332049  7491 net.cpp:91] Creating Layer inception_5b/1x1
I0403 18:45:12.332072  7491 net.cpp:425] inception_5b/1x1 <- inception_5a/output_inception_5a/output_0_split_0
I0403 18:45:12.332099  7491 net.cpp:399] inception_5b/1x1 -> inception_5b/1x1
I0403 18:45:12.336779  7491 net.cpp:141] Setting up inception_5b/1x1
I0403 18:45:12.336819  7491 net.cpp:148] Top shape: 24 384 7 7 (451584)
I0403 18:45:12.336839  7491 net.cpp:156] Memory required for data: 1327048224
I0403 18:45:12.336861  7491 layer_factory.hpp:77] Creating layer inception_5b/relu_1x1
I0403 18:45:12.336884  7491 net.cpp:91] Creating Layer inception_5b/relu_1x1
I0403 18:45:12.336905  7491 net.cpp:425] inception_5b/relu_1x1 <- inception_5b/1x1
I0403 18:45:12.336926  7491 net.cpp:386] inception_5b/relu_1x1 -> inception_5b/1x1 (in-place)
I0403 18:45:12.337309  7491 net.cpp:141] Setting up inception_5b/relu_1x1
I0403 18:45:12.337345  7491 net.cpp:148] Top shape: 24 384 7 7 (451584)
I0403 18:45:12.337365  7491 net.cpp:156] Memory required for data: 1328854560
I0403 18:45:12.337383  7491 layer_factory.hpp:77] Creating layer inception_5b/3x3_reduce
I0403 18:45:12.337411  7491 net.cpp:91] Creating Layer inception_5b/3x3_reduce
I0403 18:45:12.337435  7491 net.cpp:425] inception_5b/3x3_reduce <- inception_5a/output_inception_5a/output_0_split_1
I0403 18:45:12.337460  7491 net.cpp:399] inception_5b/3x3_reduce -> inception_5b/3x3_reduce
I0403 18:45:12.340764  7491 net.cpp:141] Setting up inception_5b/3x3_reduce
I0403 18:45:12.340808  7491 net.cpp:148] Top shape: 24 192 7 7 (225792)
I0403 18:45:12.340831  7491 net.cpp:156] Memory required for data: 1329757728
I0403 18:45:12.340853  7491 layer_factory.hpp:77] Creating layer inception_5b/relu_3x3_reduce
I0403 18:45:12.340878  7491 net.cpp:91] Creating Layer inception_5b/relu_3x3_reduce
I0403 18:45:12.340898  7491 net.cpp:425] inception_5b/relu_3x3_reduce <- inception_5b/3x3_reduce
I0403 18:45:12.340922  7491 net.cpp:386] inception_5b/relu_3x3_reduce -> inception_5b/3x3_reduce (in-place)
I0403 18:45:12.341161  7491 net.cpp:141] Setting up inception_5b/relu_3x3_reduce
I0403 18:45:12.341192  7491 net.cpp:148] Top shape: 24 192 7 7 (225792)
I0403 18:45:12.341210  7491 net.cpp:156] Memory required for data: 1330660896
I0403 18:45:12.341229  7491 layer_factory.hpp:77] Creating layer inception_5b/3x3
I0403 18:45:12.341264  7491 net.cpp:91] Creating Layer inception_5b/3x3
I0403 18:45:12.341287  7491 net.cpp:425] inception_5b/3x3 <- inception_5b/3x3_reduce
I0403 18:45:12.341315  7491 net.cpp:399] inception_5b/3x3 -> inception_5b/3x3
I0403 18:45:12.349778  7491 net.cpp:141] Setting up inception_5b/3x3
I0403 18:45:12.349817  7491 net.cpp:148] Top shape: 24 384 7 7 (451584)
I0403 18:45:12.349838  7491 net.cpp:156] Memory required for data: 1332467232
I0403 18:45:12.349860  7491 layer_factory.hpp:77] Creating layer inception_5b/relu_3x3
I0403 18:45:12.349884  7491 net.cpp:91] Creating Layer inception_5b/relu_3x3
I0403 18:45:12.349905  7491 net.cpp:425] inception_5b/relu_3x3 <- inception_5b/3x3
I0403 18:45:12.349928  7491 net.cpp:386] inception_5b/relu_3x3 -> inception_5b/3x3 (in-place)
I0403 18:45:12.350309  7491 net.cpp:141] Setting up inception_5b/relu_3x3
I0403 18:45:12.350345  7491 net.cpp:148] Top shape: 24 384 7 7 (451584)
I0403 18:45:12.350366  7491 net.cpp:156] Memory required for data: 1334273568
I0403 18:45:12.350385  7491 layer_factory.hpp:77] Creating layer inception_5b/5x5_reduce
I0403 18:45:12.350433  7491 net.cpp:91] Creating Layer inception_5b/5x5_reduce
I0403 18:45:12.350458  7491 net.cpp:425] inception_5b/5x5_reduce <- inception_5a/output_inception_5a/output_0_split_2
I0403 18:45:12.350482  7491 net.cpp:399] inception_5b/5x5_reduce -> inception_5b/5x5_reduce
I0403 18:45:12.352074  7491 net.cpp:141] Setting up inception_5b/5x5_reduce
I0403 18:45:12.352111  7491 net.cpp:148] Top shape: 24 48 7 7 (56448)
I0403 18:45:12.352131  7491 net.cpp:156] Memory required for data: 1334499360
I0403 18:45:12.352154  7491 layer_factory.hpp:77] Creating layer inception_5b/relu_5x5_reduce
I0403 18:45:12.352176  7491 net.cpp:91] Creating Layer inception_5b/relu_5x5_reduce
I0403 18:45:12.352197  7491 net.cpp:425] inception_5b/relu_5x5_reduce <- inception_5b/5x5_reduce
I0403 18:45:12.352222  7491 net.cpp:386] inception_5b/relu_5x5_reduce -> inception_5b/5x5_reduce (in-place)
I0403 18:45:12.352700  7491 net.cpp:141] Setting up inception_5b/relu_5x5_reduce
I0403 18:45:12.352735  7491 net.cpp:148] Top shape: 24 48 7 7 (56448)
I0403 18:45:12.352754  7491 net.cpp:156] Memory required for data: 1334725152
I0403 18:45:12.352773  7491 layer_factory.hpp:77] Creating layer inception_5b/5x5
I0403 18:45:12.352798  7491 net.cpp:91] Creating Layer inception_5b/5x5
I0403 18:45:12.352819  7491 net.cpp:425] inception_5b/5x5 <- inception_5b/5x5_reduce
I0403 18:45:12.352844  7491 net.cpp:399] inception_5b/5x5 -> inception_5b/5x5
I0403 18:45:12.355397  7491 net.cpp:141] Setting up inception_5b/5x5
I0403 18:45:12.355432  7491 net.cpp:148] Top shape: 24 128 7 7 (150528)
I0403 18:45:12.355451  7491 net.cpp:156] Memory required for data: 1335327264
I0403 18:45:12.355474  7491 layer_factory.hpp:77] Creating layer inception_5b/relu_5x5
I0403 18:45:12.355497  7491 net.cpp:91] Creating Layer inception_5b/relu_5x5
I0403 18:45:12.355522  7491 net.cpp:425] inception_5b/relu_5x5 <- inception_5b/5x5
I0403 18:45:12.355545  7491 net.cpp:386] inception_5b/relu_5x5 -> inception_5b/5x5 (in-place)
I0403 18:45:12.355792  7491 net.cpp:141] Setting up inception_5b/relu_5x5
I0403 18:45:12.355823  7491 net.cpp:148] Top shape: 24 128 7 7 (150528)
I0403 18:45:12.355841  7491 net.cpp:156] Memory required for data: 1335929376
I0403 18:45:12.355860  7491 layer_factory.hpp:77] Creating layer inception_5b/pool
I0403 18:45:12.355885  7491 net.cpp:91] Creating Layer inception_5b/pool
I0403 18:45:12.355906  7491 net.cpp:425] inception_5b/pool <- inception_5a/output_inception_5a/output_0_split_3
I0403 18:45:12.355929  7491 net.cpp:399] inception_5b/pool -> inception_5b/pool
I0403 18:45:12.356022  7491 net.cpp:141] Setting up inception_5b/pool
I0403 18:45:12.356053  7491 net.cpp:148] Top shape: 24 832 7 7 (978432)
I0403 18:45:12.356071  7491 net.cpp:156] Memory required for data: 1339843104
I0403 18:45:12.356091  7491 layer_factory.hpp:77] Creating layer inception_5b/pool_proj
I0403 18:45:12.356118  7491 net.cpp:91] Creating Layer inception_5b/pool_proj
I0403 18:45:12.356142  7491 net.cpp:425] inception_5b/pool_proj <- inception_5b/pool
I0403 18:45:12.356168  7491 net.cpp:399] inception_5b/pool_proj -> inception_5b/pool_proj
I0403 18:45:12.359038  7491 net.cpp:141] Setting up inception_5b/pool_proj
I0403 18:45:12.359074  7491 net.cpp:148] Top shape: 24 128 7 7 (150528)
I0403 18:45:12.359096  7491 net.cpp:156] Memory required for data: 1340445216
I0403 18:45:12.359118  7491 layer_factory.hpp:77] Creating layer inception_5b/relu_pool_proj
I0403 18:45:12.359141  7491 net.cpp:91] Creating Layer inception_5b/relu_pool_proj
I0403 18:45:12.359163  7491 net.cpp:425] inception_5b/relu_pool_proj <- inception_5b/pool_proj
I0403 18:45:12.359189  7491 net.cpp:386] inception_5b/relu_pool_proj -> inception_5b/pool_proj (in-place)
I0403 18:45:12.359563  7491 net.cpp:141] Setting up inception_5b/relu_pool_proj
I0403 18:45:12.359597  7491 net.cpp:148] Top shape: 24 128 7 7 (150528)
I0403 18:45:12.359616  7491 net.cpp:156] Memory required for data: 1341047328
I0403 18:45:12.359634  7491 layer_factory.hpp:77] Creating layer inception_5b/output
I0403 18:45:12.359655  7491 net.cpp:91] Creating Layer inception_5b/output
I0403 18:45:12.359693  7491 net.cpp:425] inception_5b/output <- inception_5b/1x1
I0403 18:45:12.359716  7491 net.cpp:425] inception_5b/output <- inception_5b/3x3
I0403 18:45:12.359738  7491 net.cpp:425] inception_5b/output <- inception_5b/5x5
I0403 18:45:12.359758  7491 net.cpp:425] inception_5b/output <- inception_5b/pool_proj
I0403 18:45:12.359784  7491 net.cpp:399] inception_5b/output -> inception_5b/output
I0403 18:45:12.359848  7491 net.cpp:141] Setting up inception_5b/output
I0403 18:45:12.359880  7491 net.cpp:148] Top shape: 24 1024 7 7 (1204224)
I0403 18:45:12.359900  7491 net.cpp:156] Memory required for data: 1345864224
I0403 18:45:12.359918  7491 layer_factory.hpp:77] Creating layer pool5/7x7_s1
I0403 18:45:12.359941  7491 net.cpp:91] Creating Layer pool5/7x7_s1
I0403 18:45:12.359961  7491 net.cpp:425] pool5/7x7_s1 <- inception_5b/output
I0403 18:45:12.359982  7491 net.cpp:399] pool5/7x7_s1 -> pool5/7x7_s1
I0403 18:45:12.360268  7491 net.cpp:141] Setting up pool5/7x7_s1
I0403 18:45:12.360299  7491 net.cpp:148] Top shape: 24 1024 1 1 (24576)
I0403 18:45:12.360318  7491 net.cpp:156] Memory required for data: 1345962528
I0403 18:45:12.360337  7491 layer_factory.hpp:77] Creating layer pool5/drop_7x7_s1
I0403 18:45:12.360360  7491 net.cpp:91] Creating Layer pool5/drop_7x7_s1
I0403 18:45:12.360381  7491 net.cpp:425] pool5/drop_7x7_s1 <- pool5/7x7_s1
I0403 18:45:12.360406  7491 net.cpp:386] pool5/drop_7x7_s1 -> pool5/7x7_s1 (in-place)
I0403 18:45:12.360469  7491 net.cpp:141] Setting up pool5/drop_7x7_s1
I0403 18:45:12.360502  7491 net.cpp:148] Top shape: 24 1024 1 1 (24576)
I0403 18:45:12.360520  7491 net.cpp:156] Memory required for data: 1346060832
I0403 18:45:12.360540  7491 layer_factory.hpp:77] Creating layer loss3/classifier_plantvillage
I0403 18:45:12.360564  7491 net.cpp:91] Creating Layer loss3/classifier_plantvillage
I0403 18:45:12.360585  7491 net.cpp:425] loss3/classifier_plantvillage <- pool5/7x7_s1
I0403 18:45:12.360610  7491 net.cpp:399] loss3/classifier_plantvillage -> loss3/classifier_plantvillage
I0403 18:45:12.361143  7491 net.cpp:141] Setting up loss3/classifier_plantvillage
I0403 18:45:12.361174  7491 net.cpp:148] Top shape: 24 38 (912)
I0403 18:45:12.361194  7491 net.cpp:156] Memory required for data: 1346064480
I0403 18:45:12.361217  7491 layer_factory.hpp:77] Creating layer loss3/classifier_plantvillage_loss3/classifier_plantvillage_0_split
I0403 18:45:12.361248  7491 net.cpp:91] Creating Layer loss3/classifier_plantvillage_loss3/classifier_plantvillage_0_split
I0403 18:45:12.361273  7491 net.cpp:425] loss3/classifier_plantvillage_loss3/classifier_plantvillage_0_split <- loss3/classifier_plantvillage
I0403 18:45:12.361297  7491 net.cpp:399] loss3/classifier_plantvillage_loss3/classifier_plantvillage_0_split -> loss3/classifier_plantvillage_loss3/classifier_plantvillage_0_split_0
I0403 18:45:12.361325  7491 net.cpp:399] loss3/classifier_plantvillage_loss3/classifier_plantvillage_0_split -> loss3/classifier_plantvillage_loss3/classifier_plantvillage_0_split_1
I0403 18:45:12.361354  7491 net.cpp:399] loss3/classifier_plantvillage_loss3/classifier_plantvillage_0_split -> loss3/classifier_plantvillage_loss3/classifier_plantvillage_0_split_2
I0403 18:45:12.361378  7491 net.cpp:399] loss3/classifier_plantvillage_loss3/classifier_plantvillage_0_split -> loss3/classifier_plantvillage_loss3/classifier_plantvillage_0_split_3
I0403 18:45:12.361510  7491 net.cpp:141] Setting up loss3/classifier_plantvillage_loss3/classifier_plantvillage_0_split
I0403 18:45:12.361538  7491 net.cpp:148] Top shape: 24 38 (912)
I0403 18:45:12.361559  7491 net.cpp:148] Top shape: 24 38 (912)
I0403 18:45:12.361578  7491 net.cpp:148] Top shape: 24 38 (912)
I0403 18:45:12.361598  7491 net.cpp:148] Top shape: 24 38 (912)
I0403 18:45:12.361615  7491 net.cpp:156] Memory required for data: 1346079072
I0403 18:45:12.361634  7491 layer_factory.hpp:77] Creating layer loss1/loss
I0403 18:45:12.361661  7491 net.cpp:91] Creating Layer loss1/loss
I0403 18:45:12.361682  7491 net.cpp:425] loss1/loss <- loss1/classifier_plantvillage_loss1/classifier_plantvillage_0_split_0
I0403 18:45:12.361721  7491 net.cpp:425] loss1/loss <- label_data_1_split_0
…
