…
I0403 18:34:57.798323  7137 net.cpp:313] The NetState phase (1) differed from the phase (0) specified by a rule in layer data
I0403 18:34:57.799449  7137 net.cpp:49] Initializing net from parameters: 
state {
  phase: TEST
}
layer {
  name: "data"
  type: "Data"
  top: "data"
  top: "label"
  include {
    phase: TEST
  }
  transform_param {
    mirror: false
    crop_size: 224
    mean_file: "/home/mohanty/data/final_dataset/lmdb/grayscale-40-60/mean.binaryproto"
  }
  data_param {
    source: "/home/mohanty/data/final_dataset/lmdb/grayscale-40-60/test_db"
    batch_size: 24
    backend: LMDB
  }
}
layer {
  name: "conv1/7x7_s2"
  type: "Convolution"
  bottom: "data"
  top: "conv1/7x7_s2"
  param {
    lr_mult: 1
    decay_mult: 1
  }
  param {
    lr_mult: 2
    decay_mult: 0
  }
  convolution_param {
    num_output: 64
    pad: 3
    kernel_size: 7
    stride: 2
    weight_filler {
      type: "xavier"
      std: 0.1
    }
    bias_filler {
      type: "constant"
      value: 0.2
    }
  }
}
layer {
  name: "conv1/relu_7x7"
  type: "ReLU"
  bottom: "conv1/7x7_s2"
  top: "conv1/7x7_s2"
}
layer {
  name: "pool1/3x3_s2"
  type: "Pooling"
  bottom: "conv1/7x7_s2"
  top: "pool1/3x3_s2"
  pooling_param {
    pool: MAX
    kernel_size: 3
    stride: 2
  }
}
layer {
  name: "pool1/norm1"
  type: "LRN"
  bottom: "pool1/3x3_s2"
  top: "pool1/norm1"
  lrn_param {
    local_size: 5
    alpha: 0.0001
    beta: 0.75
  }
}
layer {
  name: "conv2/3x3_reduce"
  type: "Convolution"
  bottom: "pool1/norm1"
  top: "conv2/3x3_reduce"
  param {
    lr_mult: 1
    decay_mult: 1
  }
  param {
    lr_mult: 2
    decay_mult: 0
  }
  convolution_param {
    num_output: 64
    kernel_size: 1
    weight_filler {
      type: "xavier"
      std: 0.1
    }
    bias_filler {
      type: "constant"
      value: 0.2
    }
  }
}
layer {
  name: "conv2/relu_3x3_reduce"
  type: "ReLU"
  bottom: "conv2/3x3_reduce"
  top: "conv2/3x3_reduce"
}
layer {
  name: "conv2/3x3"
  type: "Convolution"
  bottom: "conv2/3x3_reduce"
  top: "conv2/3x3"
  param {
    lr_mult: 1
    decay_mult: 1
  }
  param {
    lr_mult: 2
    decay_mult: 0
  }
  convolution_param {
    num_output: 192
    pad: 1
    kernel_size: 3
    weight_filler {
      type: "xavier"
      std: 0.03
    }
    bias_filler {
      type: "constant"
      value: 0.2
    }
  }
}
layer {
  name: "conv2/relu_3x3"
  type: "ReLU"
  bottom: "conv2/3x3"
  top: "conv2/3x3"
}
layer {
  name: "conv2/norm2"
  type: "LRN"
  bottom: "conv2/3x3"
  top: "conv2/norm2"
  lrn_param {
    local_size: 5
    alpha: 0.0001
    beta: 0.75
  }
}
layer {
  name: "pool2/3x3_s2"
  type: "Pooling"
  bottom: "conv2/norm2"
  top: "pool2/3x3_s2"
  pooling_param {
    pool: MAX
    kernel_size: 3
    stride: 2
  }
}
layer {
  name: "inception_3a/1x1"
  type: "Convolution"
  bottom: "pool2/3x3_s2"
  top: "inception_3a/1x1"
  param {
    lr_mult: 1
    decay_mult: 1
  }
  param {
    lr_mult: 2
    decay_mult: 0
  }
  convolution_param {
    num_output: 64
    kernel_size: 1
    weight_filler {
      type: "xavier"
      std: 0.03
    }
    bias_filler {
      type: "constant"
      value: 0.2
    }
  }
}
layer {
  name: "inception_3a/relu_1x1"
  type: "ReLU"
  bottom: "inception_3a/1x1"
  top: "inception_3a/1x1"
}
layer {
  name: "inception_3a/3x3_reduce"
  type: "Convolution"
  bottom: "pool2/3x3_s2"
  top: "inception_3a/3x3_reduce"
  param {
    lr_mult: 1
    decay_mult: 1
  }
  param {
    lr_mult: 2
    decay_mult: 0
  }
  convolution_param {
    num_output: 96
    kernel_size: 1
    weight_filler {
      type: "xavier"
      std: 0.09
    }
    bias_filler {
      type: "constant"
      value: 0.2
    }
  }
}
layer {
  name: "inception_3a/relu_3x3_reduce"
  type: "ReLU"
  bottom: "inception_3a/3x3_reduce"
  top: "inception_3a/3x3_reduce"
}
layer {
  name: "inception_3a/3x3"
  type: "Convolution"
  bottom: "inception_3a/3x3_reduce"
  top: "inception_3a/3x3"
  param {
    lr_mult: 1
    decay_mult: 1
  }
  param {
    lr_mult: 2
    decay_mult: 0
  }
  convolution_param {
    num_output: 128
    pad: 1
    kernel_size: 3
    weight_filler {
      type: "xavier"
      std: 0.03
    }
    bias_filler {
      type: "constant"
      value: 0.2
    }
  }
}
layer {
  name: "inception_3a/relu_3x3"
  type: "ReLU"
  bottom: "inception_3a/3x3"
  top: "inception_3a/3x3"
}
layer {
  name: "inception_3a/5x5_reduce"
  type: "Convolution"
  bottom: "pool2/3x3_s2"
  top: "inception_3a/5x5_reduce"
  param {
    lr_mult: 1
    decay_mult: 1
  }
  param {
    lr_mult: 2
    decay_mult: 0
  }
  convolution_param {
    num_output: 16
    kernel_size: 1
    weight_filler {
      type: "xavier"
      std: 0.2
    }
    bias_filler {
      type: "constant"
      value: 0.2
    }
  }
}
layer {
  name: "inception_3a/relu_5x5_reduce"
  type: "ReLU"
  bottom: "inception_3a/5x5_reduce"
  top: "inception_3a/5x5_reduce"
}
layer {
  name: "inception_3a/5x5"
  type: "Convolution"
  bottom: "inception_3a/5x5_reduce"
  top: "inception_3a/5x5"
  param {
    lr_mult: 1
    decay_mult: 1
  }
  param {
    lr_mult: 2
    decay_mult: 0
  }
  convolution_param {
    num_output: 32
    pad: 2
    kernel_size: 5
    weight_filler {
      type: "xavier"
      std: 0.03
    }
    bias_filler {
      type: "constant"
      value: 0.2
    }
  }
}
layer {
  name: "inception_3a/relu_5x5"
  type: "ReLU"
  bottom: "inception_3a/5x5"
  top: "inception_3a/5x5"
}
layer {
  name: "inception_3a/pool"
  type: "Pooling"
  bottom: "pool2/3x3_s2"
  top: "inception_3a/pool"
  pooling_param {
    pool: MAX
    kernel_size: 3
    stride: 1
    pad: 1
  }
}
layer {
  name: "inception_3a/pool_proj"
  type: "Convolution"
  bottom: "inception_3a/pool"
  top: "inception_3a/pool_proj"
  param {
    lr_mult: 1
    decay_mult: 1
  }
  param {
    lr_mult: 2
    decay_mult: 0
  }
  convolution_param {
    num_output: 32
    kernel_size: 1
    weight_filler {
      type: "xavier"
      std: 0.1
    }
    bias_filler {
      type: "constant"
      value: 0.2
    }
  }
}
layer {
  name: "inception_3a/relu_pool_proj"
  type: "ReLU"
  bottom: "inception_3a/pool_proj"
  top: "inception_3a/pool_proj"
}
layer {
  name: "inception_3a/output"
  type: "Concat"
  bottom: "inception_3a/1x1"
  bottom: "inception_3a/3x3"
  bottom: "inception_3a/5x5"
  bottom: "inception_3a/pool_proj"
  top: "inception_3a/output"
}
layer {
  name: "inception_3b/1x1"
  type: "Convolution"
  bottom: "inception_3a/output"
  top: "inception_3b/1x1"
  param {
    lr_mult: 1
    decay_mult: 1
  }
  param {
    lr_mult: 2
    decay_mult: 0
  }
  convolution_param {
    num_output: 128
    kernel_size: 1
    weight_filler {
      type: "xavier"
      std: 0.03
    }
    bias_filler {
      type: "constant"
      value: 0.2
    }
  }
}
layer {
  name: "inception_3b/relu_1x1"
  type: "ReLU"
  bottom: "inception_3b/1x1"
  top: "inception_3b/1x1"
}
layer {
  name: "inception_3b/3x3_reduce"
  type: "Convolution"
  bottom: "inception_3a/output"
  top: "inception_3b/3x3_reduce"
  param {
    lr_mult: 1
    decay_mult: 1
  }
  param {
    lr_mult: 2
    decay_mult: 0
  }
  convolution_param {
    num_output: 128
    kernel_size: 1
    weight_filler {
      type: "xavier"
      std: 0.09
    }
    bias_filler {
      type: "constant"
      value: 0.2
    }
  }
}
layer {
  name: "inception_3b/relu_3x3_reduce"
  type: "ReLU"
  bottom: "inception_3b/3x3_reduce"
  top: "inception_3b/3x3_reduce"
}
layer {
  name: "inception_3b/3x3"
  type: "Convolution"
  bottom: "inception_3b/3x3_reduce"
  top: "inception_3b/3x3"
  param {
    lr_mult: 1
    decay_mult: 1
  }
  param {
    lr_mult: 2
    decay_mult: 0
  }
  convolution_param {
    num_output: 192
    pad: 1
    kernel_size: 3
    weight_filler {
      type: "xavier"
      std: 0.03
    }
    bias_filler {
      type: "constant"
      value: 0.2
    }
  }
}
layer {
  name: "inception_3b/relu_3x3"
  type: "ReLU"
  bottom: "inception_3b/3x3"
  top: "inception_3b/3x3"
}
layer {
  name: "inception_3b/5x5_reduce"
  type: "Convolution"
  bottom: "inception_3a/output"
  top: "inception_3b/5x5_reduce"
  param {
    lr_mult: 1
    decay_mult: 1
  }
  param {
    lr_mult: 2
    decay_mult: 0
  }
  convolution_param {
    num_output: 32
    kernel_size: 1
    weight_filler {
      type: "xavier"
      std: 0.2
    }
    bias_filler {
      type: "constant"
      value: 0.2
    }
  }
}
layer {
  name: "inception_3b/relu_5x5_reduce"
  type: "ReLU"
  bottom: "inception_3b/5x5_reduce"
  top: "inception_3b/5x5_reduce"
}
layer {
  name: "inception_3b/5x5"
  type: "Convolution"
  bottom: "inception_3b/5x5_reduce"
  top: "inception_3b/5x5"
  param {
    lr_mult: 1
    decay_mult: 1
  }
  param {
    lr_mult: 2
    decay_mult: 0
  }
  convolution_param {
    num_output: 96
    pad: 2
    kernel_size: 5
    weight_filler {
      type: "xavier"
      std: 0.03
    }
    bias_filler {
      type: "constant"
      value: 0.2
    }
  }
}
layer {
  name: "inception_3b/relu_5x5"
  type: "ReLU"
  bottom: "inception_3b/5x5"
  top: "inception_3b/5x5"
}
layer {
  name: "inception_3b/pool"
  type: "Pooling"
  bottom: "inception_3a/output"
  top: "inception_3b/pool"
  pooling_param {
    pool: MAX
    kernel_size: 3
    stride: 1
    pad: 1
  }
}
layer {
  name: "inception_3b/pool_proj"
  type: "Convolution"
  bottom: "inception_3b/pool"
  top: "inception_3b/pool_proj"
  param {
    lr_mult: 1
    decay_mult: 1
  }
  param {
    lr_mult: 2
    decay_mult: 0
  }
  convolution_param {
    num_output: 64
    kernel_size: 1
    weight_filler {
      type: "xavier"
      std: 0.1
    }
    bias_filler {
      type: "constant"
      value: 0.2
    }
  }
}
layer {
  name: "inception_3b/relu_pool_proj"
  type: "ReLU"
  bottom: "inception_3b/pool_proj"
  top: "inception_3b/pool_proj"
}
layer {
  name: "inception_3b/output"
  type: "Concat"
  bottom: "inception_3b/1x1"
  bottom: "inception_3b/3x3"
  bottom: "inception_3b/5x5"
  bottom: "inception_3b/pool_proj"
  top: "inception_3b/output"
}
layer {
  name: "pool3/3x3_s2"
  type: "Pooling"
  bottom: "inception_3b/output"
  top: "pool3/3x3_s2"
  pooling_param {
    pool: MAX
    kernel_size: 3
    stride: 2
  }
}
layer {
  name: "inception_4a/1x1"
  type: "Convolution"
  bottom: "pool3/3x3_s2"
  top: "inception_4a/1x1"
  param {
    lr_mult: 1
    decay_mult: 1
  }
  param {
    lr_mult: 2
    decay_mult: 0
  }
  convolution_param {
    num_output: 192
    kernel_size: 1
    weight_filler {
      type: "xavier"
      std: 0.03
    }
    bias_filler {
      type: "constant"
      value: 0.2
    }
  }
}
layer {
  name: "inception_4a/relu_1x1"
  type: "ReLU"
  bottom: "inception_4a/1x1"
  top: "inception_4a/1x1"
}
layer {
  name: "inception_4a/3x3_reduce"
  type: "Convolution"
  bottom: "pool3/3x3_s2"
  top: "inception_4a/3x3_reduce"
  param {
    lr_mult: 1
    decay_mult: 1
  }
  param {
    lr_mult: 2
    decay_mult: 0
  }
  convolution_param {
    num_output: 96
    kernel_size: 1
    weight_filler {
      type: "xavier"
      std: 0.09
    }
    bias_filler {
      type: "constant"
      value: 0.2
    }
  }
}
layer {
  name: "inception_4a/relu_3x3_reduce"
  type: "ReLU"
  bottom: "inception_4a/3x3_reduce"
  top: "inception_4a/3x3_reduce"
}
layer {
  name: "inception_4a/3x3"
  type: "Convolution"
  bottom: "inception_4a/3x3_reduce"
  top: "inception_4a/3x3"
  param {
    lr_mult: 1
    decay_mult: 1
  }
  param {
    lr_mult: 2
    decay_mult: 0
  }
  convolution_param {
    num_output: 208
    pad: 1
    kernel_size: 3
    weight_filler {
      type: "xavier"
      std: 0.03
    }
    bias_filler {
      type: "constant"
      value: 0.2
    }
  }
}
layer {
  name: "inception_4a/relu_3x3"
  type: "ReLU"
  bottom: "inception_4a/3x3"
  top: "inception_4a/3x3"
}
layer {
  name: "inception_4a/5x5_reduce"
  type: "Convolution"
  bottom: "pool3/3x3_s2"
  top: "inception_4a/5x5_reduce"
  param {
    lr_mult: 1
    decay_mult: 1
  }
  param {
    lr_mult: 2
    decay_mult: 0
  }
  convolution_param {
    num_output: 16
    kernel_size: 1
    weight_filler {
      type: "xavier"
      std: 0.2
    }
    bias_filler {
      type: "constant"
      value: 0.2
    }
  }
}
layer {
  name: "inception_4a/relu_5x5_reduce"
  type: "ReLU"
  bottom: "inception_4a/5x5_reduce"
  top: "inception_4a/5x5_reduce"
}
layer {
  name: "inception_4a/5x5"
  type: "Convolution"
  bottom: "inception_4a/5x5_reduce"
  top: "inception_4a/5x5"
  param {
    lr_mult: 1
    decay_mult: 1
  }
  param {
    lr_mult: 2
    decay_mult: 0
  }
  convolution_param {
    num_output: 48
    pad: 2
    kernel_size: 5
    weight_filler {
      type: "xavier"
      std: 0.03
    }
    bias_filler {
      type: "constant"
      value: 0.2
    }
  }
}
layer {
  name: "inception_4a/relu_5x5"
  type: "ReLU"
  bottom: "inception_4a/5x5"
  top: "inception_4a/5x5"
}
layer {
  name: "inception_4a/pool"
  type: "Pooling"
  bottom: "pool3/3x3_s2"
  top: "inception_4a/pool"
  pooling_param {
    pool: MAX
    kernel_size: 3
    stride: 1
    pad: 1
  }
}
layer {
  name: "inception_4a/pool_proj"
  type: "Convolution"
  bottom: "inception_4a/pool"
  top: "inception_4a/pool_proj"
  param {
    lr_mult: 1
    decay_mult: 1
  }
  param {
    lr_mult: 2
    decay_mult: 0
  }
  convolution_param {
    num_output: 64
    kernel_size: 1
    weight_filler {
      type: "xavier"
      std: 0.1
    }
    bias_filler {
      type: "constant"
      value: 0.2
    }
  }
}
layer {
  name: "inception_4a/relu_pool_proj"
  type: "ReLU"
  bottom: "inception_4a/pool_proj"
  top: "inception_4a/pool_proj"
}
layer {
  name: "inception_4a/output"
  type: "Concat"
  bottom: "inception_4a/1x1"
  bottom: "inception_4a/3x3"
  bottom: "inception_4a/5x5"
  bottom: "inception_4a/pool_proj"
  top: "inception_4a/output"
}
layer {
  name: "loss1/ave_pool"
  type: "Pooling"
  bottom: "inception_4a/output"
  top: "loss1/ave_pool"
  pooling_param {
    pool: AVE
    kernel_size: 5
    stride: 3
  }
}
layer {
  name: "loss1/conv"
  type: "Convolution"
  bottom: "loss1/ave_pool"
  top: "loss1/conv"
  param {
    lr_mult: 1
    decay_mult: 1
  }
  param {
    lr_mult: 2
    decay_mult: 0
  }
  convolution_param {
    num_output: 128
    kernel_size: 1
    weight_filler {
      type: "xavier"
      std: 0.08
    }
    bias_filler {
      type: "constant"
      value: 0.2
    }
  }
}
layer {
  name: "loss1/relu_conv"
  type: "ReLU"
  bottom: "loss1/conv"
  top: "loss1/conv"
}
layer {
  name: "loss1/fc"
  type: "InnerProduct"
  bottom: "loss1/conv"
  top: "loss1/fc"
  param {
    lr_mult: 1
    decay_mult: 1
  }
  param {
    lr_mult: 2
    decay_mult: 0
  }
  inner_product_param {
    num_output: 1024
    weight_filler {
      type: "xavier"
      std: 0.02
    }
    bias_filler {
      type: "constant"
      value: 0.2
    }
  }
}
layer {
  name: "loss1/relu_fc"
  type: "ReLU"
  bottom: "loss1/fc"
  top: "loss1/fc"
}
layer {
  name: "loss1/drop_fc"
  type: "Dropout"
  bottom: "loss1/fc"
  top: "loss1/fc"
  dropout_param {
    dropout_ratio: 0.7
  }
}
layer {
  name: "loss1/classifier_plantvillage"
  type: "InnerProduct"
  bottom: "loss1/fc"
  top: "loss1/classifier_plantvillage"
  param {
    lr_mult: 1
    decay_mult: 1
  }
  param {
    lr_mult: 2
    decay_mult: 0
  }
  inner_product_param {
    num_output: 38
    weight_filler {
      type: "xavier"
      std: 0.0009765625
    }
    bias_filler {
      type: "constant"
      value: 0
    }
  }
}
layer {
  name: "inception_4b/1x1"
  type: "Convolution"
  bottom: "inception_4a/output"
  top: "inception_4b/1x1"
  param {
    lr_mult: 1
    decay_mult: 1
  }
  param {
    lr_mult: 2
    decay_mult: 0
  }
  convolution_param {
    num_output: 160
    kernel_size: 1
    weight_filler {
      type: "xavier"
      std: 0.03
    }
    bias_filler {
      type: "constant"
      value: 0.2
    }
  }
}
layer {
  name: "inception_4b/relu_1x1"
  type: "ReLU"
  bottom: "inception_4b/1x1"
  top: "inception_4b/1x1"
}
layer {
  name: "inception_4b/3x3_reduce"
  type: "Convolution"
  bottom: "inception_4a/output"
  top: "inception_4b/3x3_reduce"
  param {
    lr_mult: 1
    decay_mult: 1
  }
  param {
    lr_mult: 2
    decay_mult: 0
  }
  convolution_param {
    num_output: 112
    kernel_size: 1
    weight_filler {
      type: "xavier"
      std: 0.09
    }
    bias_filler {
      type: "constant"
      value: 0.2
    }
  }
}
layer {
  name: "inception_4b/relu_3x3_reduce"
  type: "ReLU"
  bottom: "inception_4b/3x3_reduce"
  top: "inception_4b/3x3_reduce"
}
layer {
  name: "inception_4b/3x3"
  type: "Convolution"
  bottom: "inception_4b/3x3_reduce"
  top: "inception_4b/3x3"
  param {
    lr_mult: 1
    decay_mult: 1
  }
  param {
    lr_mult: 2
    decay_mult: 0
  }
  convolution_param {
    num_output: 224
    pad: 1
    kernel_size: 3
    weight_filler {
      type: "xavier"
      std: 0.03
    }
    bias_filler {
      type: "constant"
      value: 0.2
    }
  }
}
layer {
  name: "inception_4b/relu_3x3"
  type: "ReLU"
  bottom: "inception_4b/3x3"
  top: "inception_4b/3x3"
}
layer {
  name: "inception_4b/5x5_reduce"
  type: "Convolution"
  bottom: "inception_4a/output"
  top: "inception_4b/5x5_reduce"
  param {
    lr_mult: 1
    decay_mult: 1
  }
  param {
    lr_mult: 2
    decay_mult: 0
  }
  convolution_param {
    num_output: 24
    kernel_size: 1
    weight_filler {
      type: "xavier"
      std: 0.2
    }
    bias_filler {
      type: "constant"
      value: 0.2
    }
  }
}
layer {
  name: "inception_4b/relu_5x5_reduce"
  type: "ReLU"
  bottom: "inception_4b/5x5_reduce"
  top: "inception_4b/5x5_reduce"
}
layer {
  name: "inception_4b/5x5"
  type: "Convolution"
  bottom: "inception_4b/5x5_reduce"
  top: "inception_4b/5x5"
  param {
    lr_mult: 1
    decay_mult: 1
  }
  param {
    lr_mult: 2
    decay_mult: 0
  }
  convolution_param {
    num_output: 64
    pad: 2
    kernel_size: 5
    weight_filler {
      type: "xavier"
      std: 0.03
    }
    bias_filler {
      type: "constant"
      value: 0.2
    }
  }
}
layer {
  name: "inception_4b/relu_5x5"
  type: "ReLU"
  bottom: "inception_4b/5x5"
  top: "inception_4b/5x5"
}
layer {
  name: "inception_4b/pool"
  type: "Pooling"
  bottom: "inception_4a/output"
  top: "inception_4b/pool"
  pooling_param {
    pool: MAX
    kernel_size: 3
    stride: 1
    pad: 1
  }
}
layer {
  name: "inception_4b/pool_proj"
  type: "Convolution"
  bottom: "inception_4b/pool"
  top: "inception_4b/pool_proj"
  param {
    lr_mult: 1
    decay_mult: 1
  }
  param {
    lr_mult: 2
    decay_mult: 0
  }
  convolution_param {
    num_output: 64
    kernel_size: 1
    weight_filler {
      type: "xavier"
      std: 0.1
    }
    bias_filler {
      type: "constant"
      value: 0.2
    }
  }
}
layer {
  name: "inception_4b/relu_pool_proj"
  type: "ReLU"
  bottom: "inception_4b/pool_proj"
  top: "inception_4b/pool_proj"
}
layer {
  name: "inception_4b/output"
  type: "Concat"
  bottom: "inception_4b/1x1"
  bottom: "inception_4b/3x3"
  bottom: "inception_4b/5x5"
  bottom: "inception_4b/pool_proj"
  top: "inception_4b/output"
}
layer {
  name: "inception_4c/1x1"
  type: "Convolution"
  bottom: "inception_4b/output"
  top: "inception_4c/1x1"
  param {
    lr_mult: 1
    decay_mult: 1
  }
  param {
    lr_mult: 2
    decay_mult: 0
  }
  convolution_param {
    num_output: 128
    kernel_size: 1
    weight_filler {
      type: "xavier"
      std: 0.03
    }
    bias_filler {
      type: "constant"
      value: 0.2
    }
  }
}
layer {
  name: "inception_4c/relu_1x1"
  type: "ReLU"
  bottom: "inception_4c/1x1"
  top: "inception_4c/1x1"
}
layer {
  name: "inception_4c/3x3_reduce"
  type: "Convolution"
  bottom: "inception_4b/output"
  top: "inception_4c/3x3_reduce"
  param {
    lr_mult: 1
    decay_mult: 1
  }
  param {
    lr_mult: 2
    decay_mult: 0
  }
  convolution_param {
    num_output: 128
    kernel_size: 1
    weight_filler {
      type: "xavier"
      std: 0.09
    }
    bias_filler {
      type: "constant"
      value: 0.2
    }
  }
}
layer {
  name: "inception_4c/relu_3x3_reduce"
  type: "ReLU"
  bottom: "inception_4c/3x3_reduce"
  top: "inception_4c/3x3_reduce"
}
layer {
  name: "inception_4c/3x3"
  type: "Convolution"
  bottom: "inception_4c/3x3_reduce"
  top: "inception_4c/3x3"
  param {
    lr_mult: 1
    decay_mult: 1
  }
  param {
    lr_mult: 2
    decay_mult: 0
  }
  convolution_param {
    num_output: 256
    pad: 1
    kernel_size: 3
    weight_filler {
      type: "xavier"
      std: 0.03
    }
    bias_filler {
      type: "constant"
      value: 0.2
    }
  }
}
layer {
  name: "inception_4c/relu_3x3"
  type: "ReLU"
  bottom: "inception_4c/3x3"
  top: "inception_4c/3x3"
}
layer {
  name: "inception_4c/5x5_reduce"
  type: "Convolution"
  bottom: "inception_4b/output"
  top: "inception_4c/5x5_reduce"
  param {
    lr_mult: 1
    decay_mult: 1
  }
  param {
    lr_mult: 2
    decay_mult: 0
  }
  convolution_param {
    num_output: 24
    kernel_size: 1
    weight_filler {
      type: "xavier"
      std: 0.2
    }
    bias_filler {
      type: "constant"
      value: 0.2
    }
  }
}
layer {
  name: "inception_4c/relu_5x5_reduce"
  type: "ReLU"
  bottom: "inception_4c/5x5_reduce"
  top: "inception_4c/5x5_reduce"
}
layer {
  name: "inception_4c/5x5"
  type: "Convolution"
  bottom: "inception_4c/5x5_reduce"
  top: "inception_4c/5x5"
  param {
    lr_mult: 1
    decay_mult: 1
  }
  param {
    lr_mult: 2
    decay_mult: 0
  }
  convolution_param {
    num_output: 64
    pad: 2
    kernel_size: 5
    weight_filler {
      type: "xavier"
      std: 0.03
    }
    bias_filler {
      type: "constant"
      value: 0.2
    }
  }
}
layer {
  name: "inception_4c/relu_5x5"
  type: "ReLU"
  bottom: "inception_4c/5x5"
  top: "inception_4c/5x5"
}
layer {
  name: "inception_4c/pool"
  type: "Pooling"
  bottom: "inception_4b/output"
  top: "inception_4c/pool"
  pooling_param {
    pool: MAX
    kernel_size: 3
    stride: 1
    pad: 1
  }
}
layer {
  name: "inception_4c/pool_proj"
  type: "Convolution"
  bottom: "inception_4c/pool"
  top: "inception_4c/pool_proj"
  param {
    lr_mult: 1
    decay_mult: 1
  }
  param {
    lr_mult: 2
    decay_mult: 0
  }
  convolution_param {
    num_output: 64
    kernel_size: 1
    weight_filler {
      type: "xavier"
      std: 0.1
    }
    bias_filler {
      type: "constant"
      value: 0.2
    }
  }
}
layer {
  name: "inception_4c/relu_pool_proj"
  type: "ReLU"
  bottom: "inception_4c/pool_proj"
  top: "inception_4c/pool_proj"
}
layer {
  name: "inception_4c/output"
  type: "Concat"
  bottom: "inception_4c/1x1"
  bottom: "inception_4c/3x3"
  bottom: "inception_4c/5x5"
  bottom: "inception_4c/pool_proj"
  top: "inception_4c/output"
}
layer {
  name: "inception_4d/1x1"
  type: "Convolution"
  bottom: "inception_4c/output"
  top: "inception_4d/1x1"
  param {
    lr_mult: 1
    decay_mult: 1
  }
  param {
    lr_mult: 2
    decay_mult: 0
  }
  convolution_param {
    num_output: 112
    kernel_size: 1
    weight_filler {
      type: "xavier"
      std: 0.03
    }
    bias_filler {
      type: "constant"
      value: 0.2
    }
  }
}
layer {
  name: "inception_4d/relu_1x1"
  type: "ReLU"
  bottom: "inception_4d/1x1"
  top: "inception_4d/1x1"
}
layer {
  name: "inception_4d/3x3_reduce"
  type: "Convolution"
  bottom: "inception_4c/output"
  top: "inception_4d/3x3_reduce"
  param {
    lr_mult: 1
    decay_mult: 1
  }
  param {
    lr_mult: 2
    decay_mult: 0
  }
  convolution_param {
    num_output: 144
    kernel_size: 1
    weight_filler {
      type: "xavier"
      std: 0.09
    }
    bias_filler {
      type: "constant"
      value: 0.2
    }
  }
}
layer {
  name: "inception_4d/relu_3x3_reduce"
  type: "ReLU"
  bottom: "inception_4d/3x3_reduce"
  top: "inception_4d/3x3_reduce"
}
layer {
  name: "inception_4d/3x3"
  type: "Convolution"
  bottom: "inception_4d/3x3_reduce"
  top: "inception_4d/3x3"
  param {
    lr_mult: 1
    decay_mult: 1
  }
  param {
    lr_mult: 2
    decay_mult: 0
  }
  convolution_param {
    num_output: 288
    pad: 1
    kernel_size: 3
    weight_filler {
      type: "xavier"
      std: 0.03
    }
    bias_filler {
      type: "constant"
      value: 0.2
    }
  }
}
layer {
  name: "inception_4d/relu_3x3"
  type: "ReLU"
  bottom: "inception_4d/3x3"
  top: "inception_4d/3x3"
}
layer {
  name: "inception_4d/5x5_reduce"
  type: "Convolution"
  bottom: "inception_4c/output"
  top: "inception_4d/5x5_reduce"
  param {
    lr_mult: 1
    decay_mult: 1
  }
  param {
    lr_mult: 2
    decay_mult: 0
  }
  convolution_param {
    num_output: 32
    kernel_size: 1
    weight_filler {
      type: "xavier"
      std: 0.2
    }
    bias_filler {
      type: "constant"
      value: 0.2
    }
  }
}
layer {
  name: "inception_4d/relu_5x5_reduce"
  type: "ReLU"
  bottom: "inception_4d/5x5_reduce"
  top: "inception_4d/5x5_reduce"
}
layer {
  name: "inception_4d/5x5"
  type: "Convolution"
  bottom: "inception_4d/5x5_reduce"
  top: "inception_4d/5x5"
  param {
    lr_mult: 1
    decay_mult: 1
  }
  param {
    lr_mult: 2
    decay_mult: 0
  }
  convolution_param {
    num_output: 64
    pad: 2
    kernel_size: 5
    weight_filler {
      type: "xavier"
      std: 0.03
    }
    bias_filler {
      type: "constant"
      value: 0.2
    }
  }
}
layer {
  name: "inception_4d/relu_5x5"
  type: "ReLU"
  bottom: "inception_4d/5x5"
  top: "inception_4d/5x5"
}
layer {
  name: "inception_4d/pool"
  type: "Pooling"
  bottom: "inception_4c/output"
  top: "inception_4d/pool"
  pooling_param {
    pool: MAX
    kernel_size: 3
    stride: 1
    pad: 1
  }
}
layer {
  name: "inception_4d/pool_proj"
  type: "Convolution"
  bottom: "inception_4d/pool"
  top: "inception_4d/pool_proj"
  param {
    lr_mult: 1
    decay_mult: 1
  }
  param {
    lr_mult: 2
    decay_mult: 0
  }
  convolution_param {
    num_output: 64
    kernel_size: 1
    weight_filler {
      type: "xavier"
      std: 0.1
    }
    bias_filler {
      type: "constant"
      value: 0.2
    }
  }
}
layer {
  name: "inception_4d/relu_pool_proj"
  type: "ReLU"
  bottom: "inception_4d/pool_proj"
  top: "inception_4d/pool_proj"
}
layer {
  name: "inception_4d/output"
  type: "Concat"
  bottom: "inception_4d/1x1"
  bottom: "inception_4d/3x3"
  bottom: "inception_4d/5x5"
  bottom: "inception_4d/pool_proj"
  top: "inception_4d/output"
}
layer {
  name: "loss2/ave_pool"
  type: "Pooling"
  bottom: "inception_4d/output"
  top: "loss2/ave_pool"
  pooling_param {
    pool: AVE
    kernel_size: 5
    stride: 3
  }
}
layer {
  name: "loss2/conv"
  type: "Convolution"
  bottom: "loss2/ave_pool"
  top: "loss2/conv"
  param {
    lr_mult: 1
    decay_mult: 1
  }
  param {
    lr_mult: 2
    decay_mult: 0
  }
  convolution_param {
    num_output: 128
    kernel_size: 1
    weight_filler {
      type: "xavier"
      std: 0.08
    }
    bias_filler {
      type: "constant"
      value: 0.2
    }
  }
}
layer {
  name: "loss2/relu_conv"
  type: "ReLU"
  bottom: "loss2/conv"
  top: "loss2/conv"
}
layer {
  name: "loss2/fc"
  type: "InnerProduct"
  bottom: "loss2/conv"
  top: "loss2/fc"
  param {
    lr_mult: 1
    decay_mult: 1
  }
  param {
    lr_mult: 2
    decay_mult: 0
  }
  inner_product_param {
    num_output: 1024
    weight_filler {
      type: "xavier"
      std: 0.02
    }
    bias_filler {
      type: "constant"
      value: 0.2
    }
  }
}
layer {
  name: "loss2/relu_fc"
  type: "ReLU"
  bottom: "loss2/fc"
  top: "loss2/fc"
}
layer {
  name: "loss2/drop_fc"
  type: "Dropout"
  bottom: "loss2/fc"
  top: "loss2/fc"
  dropout_param {
    dropout_ratio: 0.7
  }
}
layer {
  name: "loss2/classifier_plantvillage"
  type: "InnerProduct"
  bottom: "loss2/fc"
  top: "loss2/classifier_plantvillage"
  param {
    lr_mult: 1
    decay_mult: 1
  }
  param {
    lr_mult: 2
    decay_mult: 0
  }
  inner_product_param {
    num_output: 38
    weight_filler {
      type: "xavier"
      std: 0.0009765625
    }
    bias_filler {
      type: "constant"
      value: 0
    }
  }
}
layer {
  name: "inception_4e/1x1"
  type: "Convolution"
  bottom: "inception_4d/output"
  top: "inception_4e/1x1"
  param {
    lr_mult: 1
    decay_mult: 1
  }
  param {
    lr_mult: 2
    decay_mult: 0
  }
  convolution_param {
    num_output: 256
    kernel_size: 1
    weight_filler {
      type: "xavier"
      std: 0.03
    }
    bias_filler {
      type: "constant"
      value: 0.2
    }
  }
}
layer {
  name: "inception_4e/relu_1x1"
  type: "ReLU"
  bottom: "inception_4e/1x1"
  top: "inception_4e/1x1"
}
layer {
  name: "inception_4e/3x3_reduce"
  type: "Convolution"
  bottom: "inception_4d/output"
  top: "inception_4e/3x3_reduce"
  param {
    lr_mult: 1
    decay_mult: 1
  }
  param {
    lr_mult: 2
    decay_mult: 0
  }
  convolution_param {
    num_output: 160
    kernel_size: 1
    weight_filler {
      type: "xavier"
      std: 0.09
    }
    bias_filler {
      type: "constant"
      value: 0.2
    }
  }
}
layer {
  name: "inception_4e/relu_3x3_reduce"
  type: "ReLU"
  bottom: "inception_4e/3x3_reduce"
  top: "inception_4e/3x3_reduce"
}
layer {
  name: "inception_4e/3x3"
  type: "Convolution"
  bottom: "inception_4e/3x3_reduce"
  top: "inception_4e/3x3"
  param {
    lr_mult: 1
    decay_mult: 1
  }
  param {
    lr_mult: 2
    decay_mult: 0
  }
  convolution_param {
    num_output: 320
    pad: 1
    kernel_size: 3
    weight_filler {
      type: "xavier"
      std: 0.03
    }
    bias_filler {
      type: "constant"
      value: 0.2
    }
  }
}
layer {
  name: "inception_4e/relu_3x3"
  type: "ReLU"
  bottom: "inception_4e/3x3"
  top: "inception_4e/3x3"
}
layer {
  name: "inception_4e/5x5_reduce"
  type: "Convolution"
  bottom: "inception_4d/output"
  top: "inception_4e/5x5_reduce"
  param {
    lr_mult: 1
    decay_mult: 1
  }
  param {
    lr_mult: 2
    decay_mult: 0
  }
  convolution_param {
    num_output: 32
    kernel_size: 1
    weight_filler {
      type: "xavier"
      std: 0.2
    }
    bias_filler {
      type: "constant"
      value: 0.2
    }
  }
}
layer {
  name: "inception_4e/relu_5x5_reduce"
  type: "ReLU"
  bottom: "inception_4e/5x5_reduce"
  top: "inception_4e/5x5_reduce"
}
layer {
  name: "inception_4e/5x5"
  type: "Convolution"
  bottom: "inception_4e/5x5_reduce"
  top: "inception_4e/
I0403 18:34:57.801043  7137 layer_factory.hpp:77] Creating layer data
I0403 18:34:57.801637  7137 net.cpp:91] Creating Layer data
I0403 18:34:57.801669  7137 net.cpp:399] data -> data
I0403 18:34:57.801720  7137 net.cpp:399] data -> label
I0403 18:34:57.801755  7137 data_transformer.cpp:25] Loading mean file from: /home/mohanty/data/final_dataset/lmdb/grayscale-40-60/mean.binaryproto
I0403 18:34:57.802744  7142 db_lmdb.cpp:38] Opened lmdb /home/mohanty/data/final_dataset/lmdb/grayscale-40-60/test_db
I0403 18:34:57.815311  7137 data_layer.cpp:41] output data size: 24,3,224,224
I0403 18:34:57.843082  7137 net.cpp:141] Setting up data
I0403 18:34:57.843202  7137 net.cpp:148] Top shape: 24 3 224 224 (3612672)
I0403 18:34:57.843227  7137 net.cpp:148] Top shape: 24 (24)
I0403 18:34:57.843245  7137 net.cpp:156] Memory required for data: 14450784
I0403 18:34:57.843278  7137 layer_factory.hpp:77] Creating layer label_data_1_split
I0403 18:34:57.843309  7137 net.cpp:91] Creating Layer label_data_1_split
I0403 18:34:57.843329  7137 net.cpp:425] label_data_1_split <- label
I0403 18:34:57.843364  7137 net.cpp:399] label_data_1_split -> label_data_1_split_0
I0403 18:34:57.843392  7137 net.cpp:399] label_data_1_split -> label_data_1_split_1
I0403 18:34:57.843415  7137 net.cpp:399] label_data_1_split -> label_data_1_split_2
I0403 18:34:57.843438  7137 net.cpp:399] label_data_1_split -> label_data_1_split_3
I0403 18:34:57.843461  7137 net.cpp:399] label_data_1_split -> label_data_1_split_4
I0403 18:34:57.843484  7137 net.cpp:399] label_data_1_split -> label_data_1_split_5
I0403 18:34:57.843507  7137 net.cpp:399] label_data_1_split -> label_data_1_split_6
I0403 18:34:57.843529  7137 net.cpp:399] label_data_1_split -> label_data_1_split_7
I0403 18:34:57.843550  7137 net.cpp:399] label_data_1_split -> label_data_1_split_8
I0403 18:34:57.843571  7137 net.cpp:399] label_data_1_split -> label_data_1_split_9
I0403 18:34:57.843691  7137 net.cpp:141] Setting up label_data_1_split
I0403 18:34:57.843718  7137 net.cpp:148] Top shape: 24 (24)
I0403 18:34:57.843735  7137 net.cpp:148] Top shape: 24 (24)
I0403 18:34:57.843755  7137 net.cpp:148] Top shape: 24 (24)
I0403 18:34:57.843770  7137 net.cpp:148] Top shape: 24 (24)
I0403 18:34:57.843786  7137 net.cpp:148] Top shape: 24 (24)
I0403 18:34:57.843803  7137 net.cpp:148] Top shape: 24 (24)
I0403 18:34:57.843819  7137 net.cpp:148] Top shape: 24 (24)
I0403 18:34:57.843837  7137 net.cpp:148] Top shape: 24 (24)
I0403 18:34:57.843853  7137 net.cpp:148] Top shape: 24 (24)
I0403 18:34:57.843873  7137 net.cpp:148] Top shape: 24 (24)
I0403 18:34:57.843919  7137 net.cpp:156] Memory required for data: 14451744
I0403 18:34:57.843936  7137 layer_factory.hpp:77] Creating layer conv1/7x7_s2
I0403 18:34:57.843972  7137 net.cpp:91] Creating Layer conv1/7x7_s2
I0403 18:34:57.843993  7137 net.cpp:425] conv1/7x7_s2 <- data
I0403 18:34:57.844015  7137 net.cpp:399] conv1/7x7_s2 -> conv1/7x7_s2
I0403 18:34:57.984251  7137 net.cpp:141] Setting up conv1/7x7_s2
I0403 18:34:57.984351  7137 net.cpp:148] Top shape: 24 64 112 112 (19267584)
I0403 18:34:57.984369  7137 net.cpp:156] Memory required for data: 91522080
I0403 18:34:57.984400  7137 layer_factory.hpp:77] Creating layer conv1/relu_7x7
I0403 18:34:57.984427  7137 net.cpp:91] Creating Layer conv1/relu_7x7
I0403 18:34:57.984447  7137 net.cpp:425] conv1/relu_7x7 <- conv1/7x7_s2
I0403 18:34:57.984467  7137 net.cpp:386] conv1/relu_7x7 -> conv1/7x7_s2 (in-place)
I0403 18:34:57.984741  7137 net.cpp:141] Setting up conv1/relu_7x7
I0403 18:34:57.984784  7137 net.cpp:148] Top shape: 24 64 112 112 (19267584)
I0403 18:34:57.984802  7137 net.cpp:156] Memory required for data: 168592416
I0403 18:34:57.984817  7137 layer_factory.hpp:77] Creating layer pool1/3x3_s2
I0403 18:34:57.984843  7137 net.cpp:91] Creating Layer pool1/3x3_s2
I0403 18:34:57.984861  7137 net.cpp:425] pool1/3x3_s2 <- conv1/7x7_s2
I0403 18:34:57.984882  7137 net.cpp:399] pool1/3x3_s2 -> pool1/3x3_s2
I0403 18:34:57.984959  7137 net.cpp:141] Setting up pool1/3x3_s2
I0403 18:34:57.984985  7137 net.cpp:148] Top shape: 24 64 56 56 (4816896)
I0403 18:34:57.985002  7137 net.cpp:156] Memory required for data: 187860000
I0403 18:34:57.985016  7137 layer_factory.hpp:77] Creating layer pool1/norm1
I0403 18:34:57.985044  7137 net.cpp:91] Creating Layer pool1/norm1
I0403 18:34:57.985075  7137 net.cpp:425] pool1/norm1 <- pool1/3x3_s2
I0403 18:34:57.985096  7137 net.cpp:399] pool1/norm1 -> pool1/norm1
I0403 18:34:57.985435  7137 net.cpp:141] Setting up pool1/norm1
I0403 18:34:57.985465  7137 net.cpp:148] Top shape: 24 64 56 56 (4816896)
I0403 18:34:57.985481  7137 net.cpp:156] Memory required for data: 207127584
I0403 18:34:57.985496  7137 layer_factory.hpp:77] Creating layer conv2/3x3_reduce
I0403 18:34:57.985522  7137 net.cpp:91] Creating Layer conv2/3x3_reduce
I0403 18:34:57.985540  7137 net.cpp:425] conv2/3x3_reduce <- pool1/norm1
I0403 18:34:57.985559  7137 net.cpp:399] conv2/3x3_reduce -> conv2/3x3_reduce
I0403 18:34:57.986999  7137 net.cpp:141] Setting up conv2/3x3_reduce
I0403 18:34:57.987028  7137 net.cpp:148] Top shape: 24 64 56 56 (4816896)
I0403 18:34:57.987043  7137 net.cpp:156] Memory required for data: 226395168
I0403 18:34:57.987067  7137 layer_factory.hpp:77] Creating layer conv2/relu_3x3_reduce
I0403 18:34:57.987087  7137 net.cpp:91] Creating Layer conv2/relu_3x3_reduce
I0403 18:34:57.987103  7137 net.cpp:425] conv2/relu_3x3_reduce <- conv2/3x3_reduce
I0403 18:34:57.987121  7137 net.cpp:386] conv2/relu_3x3_reduce -> conv2/3x3_reduce (in-place)
I0403 18:34:57.987407  7137 net.cpp:141] Setting up conv2/relu_3x3_reduce
I0403 18:34:57.987434  7137 net.cpp:148] Top shape: 24 64 56 56 (4816896)
I0403 18:34:57.987449  7137 net.cpp:156] Memory required for data: 245662752
I0403 18:34:57.987465  7137 layer_factory.hpp:77] Creating layer conv2/3x3
I0403 18:34:57.987491  7137 net.cpp:91] Creating Layer conv2/3x3
I0403 18:34:57.987510  7137 net.cpp:425] conv2/3x3 <- conv2/3x3_reduce
I0403 18:34:57.987534  7137 net.cpp:399] conv2/3x3 -> conv2/3x3
I0403 18:34:57.989871  7137 net.cpp:141] Setting up conv2/3x3
I0403 18:34:57.989902  7137 net.cpp:148] Top shape: 24 192 56 56 (14450688)
I0403 18:34:57.989922  7137 net.cpp:156] Memory required for data: 303465504
I0403 18:34:57.989948  7137 layer_factory.hpp:77] Creating layer conv2/relu_3x3
I0403 18:34:57.989969  7137 net.cpp:91] Creating Layer conv2/relu_3x3
I0403 18:34:57.989987  7137 net.cpp:425] conv2/relu_3x3 <- conv2/3x3
I0403 18:34:57.990008  7137 net.cpp:386] conv2/relu_3x3 -> conv2/3x3 (in-place)
I0403 18:34:57.990185  7137 net.cpp:141] Setting up conv2/relu_3x3
I0403 18:34:57.990216  7137 net.cpp:148] Top shape: 24 192 56 56 (14450688)
I0403 18:34:57.990263  7137 net.cpp:156] Memory required for data: 361268256
I0403 18:34:57.990288  7137 layer_factory.hpp:77] Creating layer conv2/norm2
I0403 18:34:57.990309  7137 net.cpp:91] Creating Layer conv2/norm2
I0403 18:34:57.990331  7137 net.cpp:425] conv2/norm2 <- conv2/3x3
I0403 18:34:57.990358  7137 net.cpp:399] conv2/norm2 -> conv2/norm2
I0403 18:34:57.990669  7137 net.cpp:141] Setting up conv2/norm2
I0403 18:34:57.990695  7137 net.cpp:148] Top shape: 24 192 56 56 (14450688)
I0403 18:34:57.990710  7137 net.cpp:156] Memory required for data: 419071008
I0403 18:34:57.990725  7137 layer_factory.hpp:77] Creating layer pool2/3x3_s2
I0403 18:34:57.990742  7137 net.cpp:91] Creating Layer pool2/3x3_s2
I0403 18:34:57.990766  7137 net.cpp:425] pool2/3x3_s2 <- conv2/norm2
I0403 18:34:57.990782  7137 net.cpp:399] pool2/3x3_s2 -> pool2/3x3_s2
I0403 18:34:57.990839  7137 net.cpp:141] Setting up pool2/3x3_s2
I0403 18:34:57.990861  7137 net.cpp:148] Top shape: 24 192 28 28 (3612672)
I0403 18:34:57.990876  7137 net.cpp:156] Memory required for data: 433521696
I0403 18:34:57.990892  7137 layer_factory.hpp:77] Creating layer pool2/3x3_s2_pool2/3x3_s2_0_split
I0403 18:34:57.990911  7137 net.cpp:91] Creating Layer pool2/3x3_s2_pool2/3x3_s2_0_split
I0403 18:34:57.990926  7137 net.cpp:425] pool2/3x3_s2_pool2/3x3_s2_0_split <- pool2/3x3_s2
I0403 18:34:57.990945  7137 net.cpp:399] pool2/3x3_s2_pool2/3x3_s2_0_split -> pool2/3x3_s2_pool2/3x3_s2_0_split_0
I0403 18:34:57.990967  7137 net.cpp:399] pool2/3x3_s2_pool2/3x3_s2_0_split -> pool2/3x3_s2_pool2/3x3_s2_0_split_1
I0403 18:34:57.990988  7137 net.cpp:399] pool2/3x3_s2_pool2/3x3_s2_0_split -> pool2/3x3_s2_pool2/3x3_s2_0_split_2
I0403 18:34:57.991008  7137 net.cpp:399] pool2/3x3_s2_pool2/3x3_s2_0_split -> pool2/3x3_s2_pool2/3x3_s2_0_split_3
I0403 18:34:57.991080  7137 net.cpp:141] Setting up pool2/3x3_s2_pool2/3x3_s2_0_split
I0403 18:34:57.991117  7137 net.cpp:148] Top shape: 24 192 28 28 (3612672)
I0403 18:34:57.991134  7137 net.cpp:148] Top shape: 24 192 28 28 (3612672)
I0403 18:34:57.991150  7137 net.cpp:148] Top shape: 24 192 28 28 (3612672)
I0403 18:34:57.991168  7137 net.cpp:148] Top shape: 24 192 28 28 (3612672)
I0403 18:34:57.991181  7137 net.cpp:156] Memory required for data: 491324448
I0403 18:34:57.991196  7137 layer_factory.hpp:77] Creating layer inception_3a/1x1
I0403 18:34:57.991221  7137 net.cpp:91] Creating Layer inception_3a/1x1
I0403 18:34:57.991240  7137 net.cpp:425] inception_3a/1x1 <- pool2/3x3_s2_pool2/3x3_s2_0_split_0
I0403 18:34:57.991274  7137 net.cpp:399] inception_3a/1x1 -> inception_3a/1x1
I0403 18:34:57.992899  7137 net.cpp:141] Setting up inception_3a/1x1
I0403 18:34:57.992928  7137 net.cpp:148] Top shape: 24 64 28 28 (1204224)
I0403 18:34:57.992944  7137 net.cpp:156] Memory required for data: 496141344
I0403 18:34:57.992964  7137 layer_factory.hpp:77] Creating layer inception_3a/relu_1x1
I0403 18:34:57.992985  7137 net.cpp:91] Creating Layer inception_3a/relu_1x1
I0403 18:34:57.993000  7137 net.cpp:425] inception_3a/relu_1x1 <- inception_3a/1x1
I0403 18:34:57.993018  7137 net.cpp:386] inception_3a/relu_1x1 -> inception_3a/1x1 (in-place)
I0403 18:34:57.993188  7137 net.cpp:141] Setting up inception_3a/relu_1x1
I0403 18:34:57.993216  7137 net.cpp:148] Top shape: 24 64 28 28 (1204224)
I0403 18:34:57.993232  7137 net.cpp:156] Memory required for data: 500958240
I0403 18:34:57.993247  7137 layer_factory.hpp:77] Creating layer inception_3a/3x3_reduce
I0403 18:34:57.993268  7137 net.cpp:91] Creating Layer inception_3a/3x3_reduce
I0403 18:34:57.993290  7137 net.cpp:425] inception_3a/3x3_reduce <- pool2/3x3_s2_pool2/3x3_s2_0_split_1
I0403 18:34:57.993311  7137 net.cpp:399] inception_3a/3x3_reduce -> inception_3a/3x3_reduce
I0403 18:34:57.994971  7137 net.cpp:141] Setting up inception_3a/3x3_reduce
I0403 18:34:57.995002  7137 net.cpp:148] Top shape: 24 96 28 28 (1806336)
I0403 18:34:57.995023  7137 net.cpp:156] Memory required for data: 508183584
I0403 18:34:57.995053  7137 layer_factory.hpp:77] Creating layer inception_3a/relu_3x3_reduce
I0403 18:34:57.995090  7137 net.cpp:91] Creating Layer inception_3a/relu_3x3_reduce
I0403 18:34:57.995110  7137 net.cpp:425] inception_3a/relu_3x3_reduce <- inception_3a/3x3_reduce
I0403 18:34:57.995128  7137 net.cpp:386] inception_3a/relu_3x3_reduce -> inception_3a/3x3_reduce (in-place)
I0403 18:34:57.995332  7137 net.cpp:141] Setting up inception_3a/relu_3x3_reduce
I0403 18:34:57.995357  7137 net.cpp:148] Top shape: 24 96 28 28 (1806336)
I0403 18:34:57.995373  7137 net.cpp:156] Memory required for data: 515408928
I0403 18:34:57.995388  7137 layer_factory.hpp:77] Creating layer inception_3a/3x3
I0403 18:34:57.995411  7137 net.cpp:91] Creating Layer inception_3a/3x3
I0403 18:34:57.995429  7137 net.cpp:425] inception_3a/3x3 <- inception_3a/3x3_reduce
I0403 18:34:57.995451  7137 net.cpp:399] inception_3a/3x3 -> inception_3a/3x3
I0403 18:34:57.997092  7137 net.cpp:141] Setting up inception_3a/3x3
I0403 18:34:57.997120  7137 net.cpp:148] Top shape: 24 128 28 28 (2408448)
I0403 18:34:57.997138  7137 net.cpp:156] Memory required for data: 525042720
I0403 18:34:57.997156  7137 layer_factory.hpp:77] Creating layer inception_3a/relu_3x3
I0403 18:34:57.997179  7137 net.cpp:91] Creating Layer inception_3a/relu_3x3
I0403 18:34:57.997197  7137 net.cpp:425] inception_3a/relu_3x3 <- inception_3a/3x3
I0403 18:34:57.997216  7137 net.cpp:386] inception_3a/relu_3x3 -> inception_3a/3x3 (in-place)
I0403 18:34:57.997493  7137 net.cpp:141] Setting up inception_3a/relu_3x3
I0403 18:34:57.997521  7137 net.cpp:148] Top shape: 24 128 28 28 (2408448)
I0403 18:34:57.997536  7137 net.cpp:156] Memory required for data: 534676512
I0403 18:34:57.997551  7137 layer_factory.hpp:77] Creating layer inception_3a/5x5_reduce
I0403 18:34:57.997576  7137 net.cpp:91] Creating Layer inception_3a/5x5_reduce
I0403 18:34:57.997594  7137 net.cpp:425] inception_3a/5x5_reduce <- pool2/3x3_s2_pool2/3x3_s2_0_split_2
I0403 18:34:57.997614  7137 net.cpp:399] inception_3a/5x5_reduce -> inception_3a/5x5_reduce
I0403 18:34:57.998606  7137 net.cpp:141] Setting up inception_3a/5x5_reduce
I0403 18:34:57.998638  7137 net.cpp:148] Top shape: 24 16 28 28 (301056)
I0403 18:34:57.998656  7137 net.cpp:156] Memory required for data: 535880736
I0403 18:34:57.998675  7137 layer_factory.hpp:77] Creating layer inception_3a/relu_5x5_reduce
I0403 18:34:57.998695  7137 net.cpp:91] Creating Layer inception_3a/relu_5x5_reduce
I0403 18:34:57.998713  7137 net.cpp:425] inception_3a/relu_5x5_reduce <- inception_3a/5x5_reduce
I0403 18:34:57.998736  7137 net.cpp:386] inception_3a/relu_5x5_reduce -> inception_3a/5x5_reduce (in-place)
I0403 18:34:57.999027  7137 net.cpp:141] Setting up inception_3a/relu_5x5_reduce
I0403 18:34:57.999055  7137 net.cpp:148] Top shape: 24 16 28 28 (301056)
I0403 18:34:57.999073  7137 net.cpp:156] Memory required for data: 537084960
I0403 18:34:57.999089  7137 layer_factory.hpp:77] Creating layer inception_3a/5x5
I0403 18:34:57.999112  7137 net.cpp:91] Creating Layer inception_3a/5x5
I0403 18:34:57.999131  7137 net.cpp:425] inception_3a/5x5 <- inception_3a/5x5_reduce
I0403 18:34:57.999163  7137 net.cpp:399] inception_3a/5x5 -> inception_3a/5x5
I0403 18:34:58.000231  7137 net.cpp:141] Setting up inception_3a/5x5
I0403 18:34:58.000262  7137 net.cpp:148] Top shape: 24 32 28 28 (602112)
I0403 18:34:58.000294  7137 net.cpp:156] Memory required for data: 539493408
I0403 18:34:58.000313  7137 layer_factory.hpp:77] Creating layer inception_3a/relu_5x5
I0403 18:34:58.000336  7137 net.cpp:91] Creating Layer inception_3a/relu_5x5
I0403 18:34:58.000355  7137 net.cpp:425] inception_3a/relu_5x5 <- inception_3a/5x5
I0403 18:34:58.000373  7137 net.cpp:386] inception_3a/relu_5x5 -> inception_3a/5x5 (in-place)
I0403 18:34:58.000545  7137 net.cpp:141] Setting up inception_3a/relu_5x5
I0403 18:34:58.000573  7137 net.cpp:148] Top shape: 24 32 28 28 (602112)
I0403 18:34:58.000589  7137 net.cpp:156] Memory required for data: 541901856
I0403 18:34:58.000604  7137 layer_factory.hpp:77] Creating layer inception_3a/pool
I0403 18:34:58.000622  7137 net.cpp:91] Creating Layer inception_3a/pool
I0403 18:34:58.000654  7137 net.cpp:425] inception_3a/pool <- pool2/3x3_s2_pool2/3x3_s2_0_split_3
I0403 18:34:58.000676  7137 net.cpp:399] inception_3a/pool -> inception_3a/pool
I0403 18:34:58.000735  7137 net.cpp:141] Setting up inception_3a/pool
I0403 18:34:58.000761  7137 net.cpp:148] Top shape: 24 192 28 28 (3612672)
I0403 18:34:58.000776  7137 net.cpp:156] Memory required for data: 556352544
I0403 18:34:58.000792  7137 layer_factory.hpp:77] Creating layer inception_3a/pool_proj
I0403 18:34:58.000813  7137 net.cpp:91] Creating Layer inception_3a/pool_proj
I0403 18:34:58.000833  7137 net.cpp:425] inception_3a/pool_proj <- inception_3a/pool
I0403 18:34:58.000855  7137 net.cpp:399] inception_3a/pool_proj -> inception_3a/pool_proj
I0403 18:34:58.001806  7137 net.cpp:141] Setting up inception_3a/pool_proj
I0403 18:34:58.001834  7137 net.cpp:148] Top shape: 24 32 28 28 (602112)
I0403 18:34:58.001849  7137 net.cpp:156] Memory required for data: 558760992
I0403 18:34:58.001873  7137 layer_factory.hpp:77] Creating layer inception_3a/relu_pool_proj
I0403 18:34:58.001893  7137 net.cpp:91] Creating Layer inception_3a/relu_pool_proj
I0403 18:34:58.001909  7137 net.cpp:425] inception_3a/relu_pool_proj <- inception_3a/pool_proj
I0403 18:34:58.001929  7137 net.cpp:386] inception_3a/relu_pool_proj -> inception_3a/pool_proj (in-place)
I0403 18:34:58.002195  7137 net.cpp:141] Setting up inception_3a/relu_pool_proj
I0403 18:34:58.002221  7137 net.cpp:148] Top shape: 24 32 28 28 (602112)
I0403 18:34:58.002236  7137 net.cpp:156] Memory required for data: 561169440
I0403 18:34:58.002252  7137 layer_factory.hpp:77] Creating layer inception_3a/output
I0403 18:34:58.002282  7137 net.cpp:91] Creating Layer inception_3a/output
I0403 18:34:58.002301  7137 net.cpp:425] inception_3a/output <- inception_3a/1x1
I0403 18:34:58.002320  7137 net.cpp:425] inception_3a/output <- inception_3a/3x3
I0403 18:34:58.002336  7137 net.cpp:425] inception_3a/output <- inception_3a/5x5
I0403 18:34:58.002351  7137 net.cpp:425] inception_3a/output <- inception_3a/pool_proj
I0403 18:34:58.002367  7137 net.cpp:399] inception_3a/output -> inception_3a/output
I0403 18:34:58.002415  7137 net.cpp:141] Setting up inception_3a/output
I0403 18:34:58.002439  7137 net.cpp:148] Top shape: 24 256 28 28 (4816896)
I0403 18:34:58.002454  7137 net.cpp:156] Memory required for data: 580437024
I0403 18:34:58.002468  7137 layer_factory.hpp:77] Creating layer inception_3a/output_inception_3a/output_0_split
I0403 18:34:58.002486  7137 net.cpp:91] Creating Layer inception_3a/output_inception_3a/output_0_split
I0403 18:34:58.002501  7137 net.cpp:425] inception_3a/output_inception_3a/output_0_split <- inception_3a/output
I0403 18:34:58.002521  7137 net.cpp:399] inception_3a/output_inception_3a/output_0_split -> inception_3a/output_inception_3a/output_0_split_0
I0403 18:34:58.002542  7137 net.cpp:399] inception_3a/output_inception_3a/output_0_split -> inception_3a/output_inception_3a/output_0_split_1
I0403 18:34:58.002567  7137 net.cpp:399] inception_3a/output_inception_3a/output_0_split -> inception_3a/output_inception_3a/output_0_split_2
I0403 18:34:58.002589  7137 net.cpp:399] inception_3a/output_inception_3a/output_0_split -> inception_3a/output_inception_3a/output_0_split_3
I0403 18:34:58.002661  7137 net.cpp:141] Setting up inception_3a/output_inception_3a/output_0_split
I0403 18:34:58.002684  7137 net.cpp:148] Top shape: 24 256 28 28 (4816896)
I0403 18:34:58.002703  7137 net.cpp:148] Top shape: 24 256 28 28 (4816896)
I0403 18:34:58.002720  7137 net.cpp:148] Top shape: 24 256 28 28 (4816896)
I0403 18:34:58.002735  7137 net.cpp:148] Top shape: 24 256 28 28 (4816896)
I0403 18:34:58.002748  7137 net.cpp:156] Memory required for data: 657507360
I0403 18:34:58.002763  7137 layer_factory.hpp:77] Creating layer inception_3b/1x1
I0403 18:34:58.002784  7137 net.cpp:91] Creating Layer inception_3b/1x1
I0403 18:34:58.002800  7137 net.cpp:425] inception_3b/1x1 <- inception_3a/output_inception_3a/output_0_split_0
I0403 18:34:58.002822  7137 net.cpp:399] inception_3b/1x1 -> inception_3b/1x1
I0403 18:34:58.003973  7137 net.cpp:141] Setting up inception_3b/1x1
I0403 18:34:58.004014  7137 net.cpp:148] Top shape: 24 128 28 28 (2408448)
I0403 18:34:58.004031  7137 net.cpp:156] Memory required for data: 667141152
I0403 18:34:58.004051  7137 layer_factory.hpp:77] Creating layer inception_3b/relu_1x1
I0403 18:34:58.004073  7137 net.cpp:91] Creating Layer inception_3b/relu_1x1
I0403 18:34:58.004092  7137 net.cpp:425] inception_3b/relu_1x1 <- inception_3b/1x1
I0403 18:34:58.004109  7137 net.cpp:386] inception_3b/relu_1x1 -> inception_3b/1x1 (in-place)
I0403 18:34:58.004288  7137 net.cpp:141] Setting up inception_3b/relu_1x1
I0403 18:34:58.004313  7137 net.cpp:148] Top shape: 24 128 28 28 (2408448)
I0403 18:34:58.004328  7137 net.cpp:156] Memory required for data: 676774944
I0403 18:34:58.004344  7137 layer_factory.hpp:77] Creating layer inception_3b/3x3_reduce
I0403 18:34:58.004369  7137 net.cpp:91] Creating Layer inception_3b/3x3_reduce
I0403 18:34:58.004385  7137 net.cpp:425] inception_3b/3x3_reduce <- inception_3a/output_inception_3a/output_0_split_1
I0403 18:34:58.004405  7137 net.cpp:399] inception_3b/3x3_reduce -> inception_3b/3x3_reduce
I0403 18:34:58.005528  7137 net.cpp:141] Setting up inception_3b/3x3_reduce
I0403 18:34:58.005558  7137 net.cpp:148] Top shape: 24 128 28 28 (2408448)
I0403 18:34:58.005573  7137 net.cpp:156] Memory required for data: 686408736
I0403 18:34:58.005591  7137 layer_factory.hpp:77] Creating layer inception_3b/relu_3x3_reduce
I0403 18:34:58.005612  7137 net.cpp:91] Creating Layer inception_3b/relu_3x3_reduce
I0403 18:34:58.005630  7137 net.cpp:425] inception_3b/relu_3x3_reduce <- inception_3b/3x3_reduce
I0403 18:34:58.005647  7137 net.cpp:386] inception_3b/relu_3x3_reduce -> inception_3b/3x3_reduce (in-place)
I0403 18:34:58.005817  7137 net.cpp:141] Setting up inception_3b/relu_3x3_reduce
I0403 18:34:58.005844  7137 net.cpp:148] Top shape: 24 128 28 28 (2408448)
I0403 18:34:58.005861  7137 net.cpp:156] Memory required for data: 696042528
I0403 18:34:58.005875  7137 layer_factory.hpp:77] Creating layer inception_3b/3x3
I0403 18:34:58.005899  7137 net.cpp:91] Creating Layer inception_3b/3x3
I0403 18:34:58.005918  7137 net.cpp:425] inception_3b/3x3 <- inception_3b/3x3_reduce
I0403 18:34:58.005939  7137 net.cpp:399] inception_3b/3x3 -> inception_3b/3x3
I0403 18:34:58.008880  7137 net.cpp:141] Setting up inception_3b/3x3
I0403 18:34:58.008910  7137 net.cpp:148] Top shape: 24 192 28 28 (3612672)
I0403 18:34:58.008927  7137 net.cpp:156] Memory required for data: 710493216
I0403 18:34:58.008946  7137 layer_factory.hpp:77] Creating layer inception_3b/relu_3x3
I0403 18:34:58.008970  7137 net.cpp:91] Creating Layer inception_3b/relu_3x3
I0403 18:34:58.008990  7137 net.cpp:425] inception_3b/relu_3x3 <- inception_3b/3x3
I0403 18:34:58.009008  7137 net.cpp:386] inception_3b/relu_3x3 -> inception_3b/3x3 (in-place)
I0403 18:34:58.009284  7137 net.cpp:141] Setting up inception_3b/relu_3x3
I0403 18:34:58.009311  7137 net.cpp:148] Top shape: 24 192 28 28 (3612672)
I0403 18:34:58.009327  7137 net.cpp:156] Memory required for data: 724943904
I0403 18:34:58.009342  7137 layer_factory.hpp:77] Creating layer inception_3b/5x5_reduce
I0403 18:34:58.009371  7137 net.cpp:91] Creating Layer inception_3b/5x5_reduce
I0403 18:34:58.009389  7137 net.cpp:425] inception_3b/5x5_reduce <- inception_3a/output_inception_3a/output_0_split_2
I0403 18:34:58.009410  7137 net.cpp:399] inception_3b/5x5_reduce -> inception_3b/5x5_reduce
I0403 18:34:58.010385  7137 net.cpp:141] Setting up inception_3b/5x5_reduce
I0403 18:34:58.010413  7137 net.cpp:148] Top shape: 24 32 28 28 (602112)
I0403 18:34:58.010431  7137 net.cpp:156] Memory required for data: 727352352
I0403 18:34:58.010449  7137 layer_factory.hpp:77] Creating layer inception_3b/relu_5x5_reduce
I0403 18:34:58.010470  7137 net.cpp:91] Creating Layer inception_3b/relu_5x5_reduce
I0403 18:34:58.010490  7137 net.cpp:425] inception_3b/relu_5x5_reduce <- inception_3b/5x5_reduce
I0403 18:34:58.010509  7137 net.cpp:386] inception_3b/relu_5x5_reduce -> inception_3b/5x5_reduce (in-place)
I0403 18:34:58.010695  7137 net.cpp:141] Setting up inception_3b/relu_5x5_reduce
I0403 18:34:58.010726  7137 net.cpp:148] Top shape: 24 32 28 28 (602112)
I0403 18:34:58.010742  7137 net.cpp:156] Memory required for data: 729760800
I0403 18:34:58.010758  7137 layer_factory.hpp:77] Creating layer inception_3b/5x5
I0403 18:34:58.010781  7137 net.cpp:91] Creating Layer inception_3b/5x5
I0403 18:34:58.010799  7137 net.cpp:425] inception_3b/5x5 <- inception_3b/5x5_reduce
I0403 18:34:58.010818  7137 net.cpp:399] inception_3b/5x5 -> inception_3b/5x5
I0403 18:34:58.012797  7137 net.cpp:141] Setting up inception_3b/5x5
I0403 18:34:58.012827  7137 net.cpp:148] Top shape: 24 96 28 28 (1806336)
I0403 18:34:58.012845  7137 net.cpp:156] Memory required for data: 736986144
I0403 18:34:58.012863  7137 layer_factory.hpp:77] Creating layer inception_3b/relu_5x5
I0403 18:34:58.012886  7137 net.cpp:91] Creating Layer inception_3b/relu_5x5
I0403 18:34:58.012903  7137 net.cpp:425] inception_3b/relu_5x5 <- inception_3b/5x5
I0403 18:34:58.012922  7137 net.cpp:386] inception_3b/relu_5x5 -> inception_3b/5x5 (in-place)
I0403 18:34:58.013113  7137 net.cpp:141] Setting up inception_3b/relu_5x5
I0403 18:34:58.013139  7137 net.cpp:148] Top shape: 24 96 28 28 (1806336)
I0403 18:34:58.013154  7137 net.cpp:156] Memory required for data: 744211488
I0403 18:34:58.013171  7137 layer_factory.hpp:77] Creating layer inception_3b/pool
I0403 18:34:58.013190  7137 net.cpp:91] Creating Layer inception_3b/pool
I0403 18:34:58.013206  7137 net.cpp:425] inception_3b/pool <- inception_3a/output_inception_3a/output_0_split_3
I0403 18:34:58.013223  7137 net.cpp:399] inception_3b/pool -> inception_3b/pool
I0403 18:34:58.013284  7137 net.cpp:141] Setting up inception_3b/pool
I0403 18:34:58.013310  7137 net.cpp:148] Top shape: 24 256 28 28 (4816896)
I0403 18:34:58.013325  7137 net.cpp:156] Memory required for data: 763479072
I0403 18:34:58.013342  7137 layer_factory.hpp:77] Creating layer inception_3b/pool_proj
I0403 18:34:58.013365  7137 net.cpp:91] Creating Layer inception_3b/pool_proj
I0403 18:34:58.013382  7137 net.cpp:425] inception_3b/pool_proj <- inception_3b/pool
I0403 18:34:58.013406  7137 net.cpp:399] inception_3b/pool_proj -> inception_3b/pool_proj
I0403 18:34:58.014456  7137 net.cpp:141] Setting up inception_3b/pool_proj
I0403 18:34:58.014483  7137 net.cpp:148] Top shape: 24 64 28 28 (1204224)
I0403 18:34:58.014499  7137 net.cpp:156] Memory required for data: 768295968
I0403 18:34:58.014518  7137 layer_factory.hpp:77] Creating layer inception_3b/relu_pool_proj
I0403 18:34:58.014538  7137 net.cpp:91] Creating Layer inception_3b/relu_pool_proj
I0403 18:34:58.014554  7137 net.cpp:425] inception_3b/relu_pool_proj <- inception_3b/pool_proj
I0403 18:34:58.014572  7137 net.cpp:386] inception_3b/relu_pool_proj -> inception_3b/pool_proj (in-place)
I0403 18:34:58.014952  7137 net.cpp:141] Setting up inception_3b/relu_pool_proj
I0403 18:34:58.014981  7137 net.cpp:148] Top shape: 24 64 28 28 (1204224)
I0403 18:34:58.014997  7137 net.cpp:156] Memory required for data: 773112864
I0403 18:34:58.015013  7137 layer_factory.hpp:77] Creating layer inception_3b/output
I0403 18:34:58.015030  7137 net.cpp:91] Creating Layer inception_3b/output
I0403 18:34:58.015046  7137 net.cpp:425] inception_3b/output <- inception_3b/1x1
I0403 18:34:58.015064  7137 net.cpp:425] inception_3b/output <- inception_3b/3x3
I0403 18:34:58.015079  7137 net.cpp:425] inception_3b/output <- inception_3b/5x5
I0403 18:34:58.015095  7137 net.cpp:425] inception_3b/output <- inception_3b/pool_proj
I0403 18:34:58.015113  7137 net.cpp:399] inception_3b/output -> inception_3b/output
I0403 18:34:58.015161  7137 net.cpp:141] Setting up inception_3b/output
I0403 18:34:58.015183  7137 net.cpp:148] Top shape: 24 480 28 28 (9031680)
I0403 18:34:58.015198  7137 net.cpp:156] Memory required for data: 809239584
I0403 18:34:58.015213  7137 layer_factory.hpp:77] Creating layer pool3/3x3_s2
I0403 18:34:58.015234  7137 net.cpp:91] Creating Layer pool3/3x3_s2
I0403 18:34:58.015252  7137 net.cpp:425] pool3/3x3_s2 <- inception_3b/output
I0403 18:34:58.015303  7137 net.cpp:399] pool3/3x3_s2 -> pool3/3x3_s2
I0403 18:34:58.015367  7137 net.cpp:141] Setting up pool3/3x3_s2
I0403 18:34:58.015391  7137 net.cpp:148] Top shape: 24 480 14 14 (2257920)
I0403 18:34:58.015408  7137 net.cpp:156] Memory required for data: 818271264
I0403 18:34:58.015424  7137 layer_factory.hpp:77] Creating layer pool3/3x3_s2_pool3/3x3_s2_0_split
I0403 18:34:58.015442  7137 net.cpp:91] Creating Layer pool3/3x3_s2_pool3/3x3_s2_0_split
I0403 18:34:58.015458  7137 net.cpp:425] pool3/3x3_s2_pool3/3x3_s2_0_split <- pool3/3x3_s2
I0403 18:34:58.015480  7137 net.cpp:399] pool3/3x3_s2_pool3/3x3_s2_0_split -> pool3/3x3_s2_pool3/3x3_s2_0_split_0
I0403 18:34:58.015501  7137 net.cpp:399] pool3/3x3_s2_pool3/3x3_s2_0_split -> pool3/3x3_s2_pool3/3x3_s2_0_split_1
I0403 18:34:58.015522  7137 net.cpp:399] pool3/3x3_s2_pool3/3x3_s2_0_split -> pool3/3x3_s2_pool3/3x3_s2_0_split_2
I0403 18:34:58.015543  7137 net.cpp:399] pool3/3x3_s2_pool3/3x3_s2_0_split -> pool3/3x3_s2_pool3/3x3_s2_0_split_3
I0403 18:34:58.015631  7137 net.cpp:141] Setting up pool3/3x3_s2_pool3/3x3_s2_0_split
I0403 18:34:58.015657  7137 net.cpp:148] Top shape: 24 480 14 14 (2257920)
I0403 18:34:58.015674  7137 net.cpp:148] Top shape: 24 480 14 14 (2257920)
I0403 18:34:58.015691  7137 net.cpp:148] Top shape: 24 480 14 14 (2257920)
I0403 18:34:58.015707  7137 net.cpp:148] Top shape: 24 480 14 14 (2257920)
I0403 18:34:58.015720  7137 net.cpp:156] Memory required for data: 854397984
I0403 18:34:58.015734  7137 layer_factory.hpp:77] Creating layer inception_4a/1x1
I0403 18:34:58.015758  7137 net.cpp:91] Creating Layer inception_4a/1x1
I0403 18:34:58.015777  7137 net.cpp:425] inception_4a/1x1 <- pool3/3x3_s2_pool3/3x3_s2_0_split_0
I0403 18:34:58.015799  7137 net.cpp:399] inception_4a/1x1 -> inception_4a/1x1
I0403 18:34:58.017350  7137 net.cpp:141] Setting up inception_4a/1x1
I0403 18:34:58.017381  7137 net.cpp:148] Top shape: 24 192 14 14 (903168)
I0403 18:34:58.017396  7137 net.cpp:156] Memory required for data: 858010656
I0403 18:34:58.017416  7137 layer_factory.hpp:77] Creating layer inception_4a/relu_1x1
I0403 18:34:58.017434  7137 net.cpp:91] Creating Layer inception_4a/relu_1x1
I0403 18:34:58.017452  7137 net.cpp:425] inception_4a/relu_1x1 <- inception_4a/1x1
I0403 18:34:58.017472  7137 net.cpp:386] inception_4a/relu_1x1 -> inception_4a/1x1 (in-place)
I0403 18:34:58.017648  7137 net.cpp:141] Setting up inception_4a/relu_1x1
I0403 18:34:58.017675  7137 net.cpp:148] Top shape: 24 192 14 14 (903168)
I0403 18:34:58.017690  7137 net.cpp:156] Memory required for data: 861623328
I0403 18:34:58.017704  7137 layer_factory.hpp:77] Creating layer inception_4a/3x3_reduce
I0403 18:34:58.017729  7137 net.cpp:91] Creating Layer inception_4a/3x3_reduce
I0403 18:34:58.017747  7137 net.cpp:425] inception_4a/3x3_reduce <- pool3/3x3_s2_pool3/3x3_s2_0_split_1
I0403 18:34:58.017770  7137 net.cpp:399] inception_4a/3x3_reduce -> inception_4a/3x3_reduce
I0403 18:34:58.019049  7137 net.cpp:141] Setting up inception_4a/3x3_reduce
I0403 18:34:58.019081  7137 net.cpp:148] Top shape: 24 96 14 14 (451584)
I0403 18:34:58.019098  7137 net.cpp:156] Memory required for data: 863429664
I0403 18:34:58.019125  7137 layer_factory.hpp:77] Creating layer inception_4a/relu_3x3_reduce
I0403 18:34:58.019145  7137 net.cpp:91] Creating Layer inception_4a/relu_3x3_reduce
I0403 18:34:58.019162  7137 net.cpp:425] inception_4a/relu_3x3_reduce <- inception_4a/3x3_reduce
I0403 18:34:58.019179  7137 net.cpp:386] inception_4a/relu_3x3_reduce -> inception_4a/3x3_reduce (in-place)
I0403 18:34:58.019377  7137 net.cpp:141] Setting up inception_4a/relu_3x3_reduce
I0403 18:34:58.019403  7137 net.cpp:148] Top shape: 24 96 14 14 (451584)
I0403 18:34:58.019419  7137 net.cpp:156] Memory required for data: 865236000
I0403 18:34:58.019435  7137 layer_factory.hpp:77] Creating layer inception_4a/3x3
I0403 18:34:58.019459  7137 net.cpp:91] Creating Layer inception_4a/3x3
I0403 18:34:58.019479  7137 net.cpp:425] inception_4a/3x3 <- inception_4a/3x3_reduce
I0403 18:34:58.019500  7137 net.cpp:399] inception_4a/3x3 -> inception_4a/3x3
I0403 18:34:58.022207  7137 net.cpp:141] Setting up inception_4a/3x3
I0403 18:34:58.022238  7137 net.cpp:148] Top shape: 24 208 14 14 (978432)
I0403 18:34:58.022256  7137 net.cpp:156] Memory required for data: 869149728
I0403 18:34:58.022287  7137 layer_factory.hpp:77] Creating layer inception_4a/relu_3x3
I0403 18:34:58.022313  7137 net.cpp:91] Creating Layer inception_4a/relu_3x3
I0403 18:34:58.022332  7137 net.cpp:425] inception_4a/relu_3x3 <- inception_4a/3x3
I0403 18:34:58.022351  7137 net.cpp:386] inception_4a/relu_3x3 -> inception_4a/3x3 (in-place)
I0403 18:34:58.022634  7137 net.cpp:141] Setting up inception_4a/relu_3x3
I0403 18:34:58.022660  7137 net.cpp:148] Top shape: 24 208 14 14 (978432)
I0403 18:34:58.022677  7137 net.cpp:156] Memory required for data: 873063456
I0403 18:34:58.022693  7137 layer_factory.hpp:77] Creating layer inception_4a/5x5_reduce
I0403 18:34:58.022716  7137 net.cpp:91] Creating Layer inception_4a/5x5_reduce
I0403 18:34:58.022735  7137 net.cpp:425] inception_4a/5x5_reduce <- pool3/3x3_s2_pool3/3x3_s2_0_split_2
I0403 18:34:58.022758  7137 net.cpp:399] inception_4a/5x5_reduce -> inception_4a/5x5_reduce
I0403 18:34:58.023828  7137 net.cpp:141] Setting up inception_4a/5x5_reduce
I0403 18:34:58.023856  7137 net.cpp:148] Top shape: 24 16 14 14 (75264)
I0403 18:34:58.023872  7137 net.cpp:156] Memory required for data: 873364512
I0403 18:34:58.023892  7137 layer_factory.hpp:77] Creating layer inception_4a/relu_5x5_reduce
I0403 18:34:58.023912  7137 net.cpp:91] Creating Layer inception_4a/relu_5x5_reduce
I0403 18:34:58.023931  7137 net.cpp:425] inception_4a/relu_5x5_reduce <- inception_4a/5x5_reduce
I0403 18:34:58.023949  7137 net.cpp:386] inception_4a/relu_5x5_reduce -> inception_4a/5x5_reduce (in-place)
I0403 18:34:58.024128  7137 net.cpp:141] Setting up inception_4a/relu_5x5_reduce
I0403 18:34:58.024158  7137 net.cpp:148] Top shape: 24 16 14 14 (75264)
I0403 18:34:58.024174  7137 net.cpp:156] Memory required for data: 873665568
I0403 18:34:58.024189  7137 layer_factory.hpp:77] Creating layer inception_4a/5x5
I0403 18:34:58.024211  7137 net.cpp:91] Creating Layer inception_4a/5x5
I0403 18:34:58.024230  7137 net.cpp:425] inception_4a/5x5 <- inception_4a/5x5_reduce
I0403 18:34:58.024250  7137 net.cpp:399] inception_4a/5x5 -> inception_4a/5x5
I0403 18:34:58.025343  7137 net.cpp:141] Setting up inception_4a/5x5
I0403 18:34:58.025375  7137 net.cpp:148] Top shape: 24 48 14 14 (225792)
I0403 18:34:58.025393  7137 net.cpp:156] Memory required for data: 874568736
I0403 18:34:58.025413  7137 layer_factory.hpp:77] Creating layer inception_4a/relu_5x5
I0403 18:34:58.025434  7137 net.cpp:91] Creating Layer inception_4a/relu_5x5
I0403 18:34:58.025449  7137 net.cpp:425] inception_4a/relu_5x5 <- inception_4a/5x5
I0403 18:34:58.025470  7137 net.cpp:386] inception_4a/relu_5x5 -> inception_4a/5x5 (in-place)
I0403 18:34:58.025651  7137 net.cpp:141] Setting up inception_4a/relu_5x5
I0403 18:34:58.025677  7137 net.cpp:148] Top shape: 24 48 14 14 (225792)
I0403 18:34:58.025692  7137 net.cpp:156] Memory required for data: 875471904
I0403 18:34:58.025707  7137 layer_factory.hpp:77] Creating layer inception_4a/pool
I0403 18:34:58.025725  7137 net.cpp:91] Creating Layer inception_4a/pool
I0403 18:34:58.025741  7137 net.cpp:425] inception_4a/pool <- pool3/3x3_s2_pool3/3x3_s2_0_split_3
I0403 18:34:58.025765  7137 net.cpp:399] inception_4a/pool -> inception_4a/pool
I0403 18:34:58.025828  7137 net.cpp:141] Setting up inception_4a/pool
I0403 18:34:58.025851  7137 net.cpp:148] Top shape: 24 480 14 14 (2257920)
I0403 18:34:58.025867  7137 net.cpp:156] Memory required for data: 884503584
I0403 18:34:58.025882  7137 layer_factory.hpp:77] Creating layer inception_4a/pool_proj
I0403 18:34:58.025905  7137 net.cpp:91] Creating Layer inception_4a/pool_proj
I0403 18:34:58.025923  7137 net.cpp:425] inception_4a/pool_proj <- inception_4a/pool
I0403 18:34:58.025943  7137 net.cpp:399] inception_4a/pool_proj -> inception_4a/pool_proj
I0403 18:34:58.027117  7137 net.cpp:141] Setting up inception_4a/pool_proj
I0403 18:34:58.027149  7137 net.cpp:148] Top shape: 24 64 14 14 (301056)
I0403 18:34:58.027184  7137 net.cpp:156] Memory required for data: 885707808
I0403 18:34:58.027202  7137 layer_factory.hpp:77] Creating layer inception_4a/relu_pool_proj
I0403 18:34:58.027223  7137 net.cpp:91] Creating Layer inception_4a/relu_pool_proj
I0403 18:34:58.027241  7137 net.cpp:425] inception_4a/relu_pool_proj <- inception_4a/pool_proj
I0403 18:34:58.027262  7137 net.cpp:386] inception_4a/relu_pool_proj -> inception_4a/pool_proj (in-place)
I0403 18:34:58.027581  7137 net.cpp:141] Setting up inception_4a/relu_pool_proj
I0403 18:34:58.027611  7137 net.cpp:148] Top shape: 24 64 14 14 (301056)
I0403 18:34:58.027628  7137 net.cpp:156] Memory required for data: 886912032
I0403 18:34:58.027644  7137 layer_factory.hpp:77] Creating layer inception_4a/output
I0403 18:34:58.027662  7137 net.cpp:91] Creating Layer inception_4a/output
I0403 18:34:58.027678  7137 net.cpp:425] inception_4a/output <- inception_4a/1x1
I0403 18:34:58.027696  7137 net.cpp:425] inception_4a/output <- inception_4a/3x3
I0403 18:34:58.027714  7137 net.cpp:425] inception_4a/output <- inception_4a/5x5
I0403 18:34:58.027731  7137 net.cpp:425] inception_4a/output <- inception_4a/pool_proj
I0403 18:34:58.027751  7137 net.cpp:399] inception_4a/output -> inception_4a/output
I0403 18:34:58.027797  7137 net.cpp:141] Setting up inception_4a/output
I0403 18:34:58.027822  7137 net.cpp:148] Top shape: 24 512 14 14 (2408448)
I0403 18:34:58.027838  7137 net.cpp:156] Memory required for data: 896545824
I0403 18:34:58.027854  7137 layer_factory.hpp:77] Creating layer inception_4a/output_inception_4a/output_0_split
I0403 18:34:58.027875  7137 net.cpp:91] Creating Layer inception_4a/output_inception_4a/output_0_split
I0403 18:34:58.027894  7137 net.cpp:425] inception_4a/output_inception_4a/output_0_split <- inception_4a/output
I0403 18:34:58.027911  7137 net.cpp:399] inception_4a/output_inception_4a/output_0_split -> inception_4a/output_inception_4a/output_0_split_0
I0403 18:34:58.027937  7137 net.cpp:399] inception_4a/output_inception_4a/output_0_split -> inception_4a/output_inception_4a/output_0_split_1
I0403 18:34:58.027959  7137 net.cpp:399] inception_4a/output_inception_4a/output_0_split -> inception_4a/output_inception_4a/output_0_split_2
I0403 18:34:58.027979  7137 net.cpp:399] inception_4a/output_inception_4a/output_0_split -> inception_4a/output_inception_4a/output_0_split_3
I0403 18:34:58.028000  7137 net.cpp:399] inception_4a/output_inception_4a/output_0_split -> inception_4a/output_inception_4a/output_0_split_4
I0403 18:34:58.028093  7137 net.cpp:141] Setting up inception_4a/output_inception_4a/output_0_split
I0403 18:34:58.028117  7137 net.cpp:148] Top shape: 24 512 14 14 (2408448)
I0403 18:34:58.028133  7137 net.cpp:148] Top shape: 24 512 14 14 (2408448)
I0403 18:34:58.028151  7137 net.cpp:148] Top shape: 24 512 14 14 (2408448)
I0403 18:34:58.028167  7137 net.cpp:148] Top shape: 24 512 14 14 (2408448)
I0403 18:34:58.028182  7137 net.cpp:148] Top shape: 24 512 14 14 (2408448)
I0403 18:34:58.028195  7137 net.cpp:156] Memory required for data: 944714784
I0403 18:34:58.028209  7137 layer_factory.hpp:77] Creating layer loss1/ave_pool
I0403 18:34:58.028229  7137 net.cpp:91] Creating Layer loss1/ave_pool
I0403 18:34:58.028247  7137 net.cpp:425] loss1/ave_pool <- inception_4a/output_inception_4a/output_0_split_0
I0403 18:34:58.028265  7137 net.cpp:399] loss1/ave_pool -> loss1/ave_pool
I0403 18:34:58.028477  7137 net.cpp:141] Setting up loss1/ave_pool
I0403 18:34:58.028506  7137 net.cpp:148] Top shape: 24 512 4 4 (196608)
I0403 18:34:58.028522  7137 net.cpp:156] Memory required for data: 945501216
I0403 18:34:58.028537  7137 layer_factory.hpp:77] Creating layer loss1/conv
I0403 18:34:58.028560  7137 net.cpp:91] Creating Layer loss1/conv
I0403 18:34:58.028578  7137 net.cpp:425] loss1/conv <- loss1/ave_pool
I0403 18:34:58.028602  7137 net.cpp:399] loss1/conv -> loss1/conv
I0403 18:34:58.030015  7137 net.cpp:141] Setting up loss1/conv
I0403 18:34:58.030046  7137 net.cpp:148] Top shape: 24 128 4 4 (49152)
I0403 18:34:58.030076  7137 net.cpp:156] Memory required for data: 945697824
I0403 18:34:58.030097  7137 layer_factory.hpp:77] Creating layer loss1/relu_conv
I0403 18:34:58.030118  7137 net.cpp:91] Creating Layer loss1/relu_conv
I0403 18:34:58.030138  7137 net.cpp:425] loss1/relu_conv <- loss1/conv
I0403 18:34:58.030158  7137 net.cpp:386] loss1/relu_conv -> loss1/conv (in-place)
I0403 18:34:58.030444  7137 net.cpp:141] Setting up loss1/relu_conv
I0403 18:34:58.030472  7137 net.cpp:148] Top shape: 24 128 4 4 (49152)
I0403 18:34:58.030489  7137 net.cpp:156] Memory required for data: 945894432
I0403 18:34:58.030505  7137 layer_factory.hpp:77] Creating layer loss1/fc
I0403 18:34:58.030531  7137 net.cpp:91] Creating Layer loss1/fc
I0403 18:34:58.030550  7137 net.cpp:425] loss1/fc <- loss1/conv
I0403 18:34:58.030570  7137 net.cpp:399] loss1/fc -> loss1/fc
I0403 18:34:58.048528  7137 net.cpp:141] Setting up loss1/fc
I0403 18:34:58.048563  7137 net.cpp:148] Top shape: 24 1024 (24576)
I0403 18:34:58.048579  7137 net.cpp:156] Memory required for data: 945992736
I0403 18:34:58.048599  7137 layer_factory.hpp:77] Creating layer loss1/relu_fc
I0403 18:34:58.048619  7137 net.cpp:91] Creating Layer loss1/relu_fc
I0403 18:34:58.048635  7137 net.cpp:425] loss1/relu_fc <- loss1/fc
I0403 18:34:58.048657  7137 net.cpp:386] loss1/relu_fc -> loss1/fc (in-place)
I0403 18:34:58.048852  7137 net.cpp:141] Setting up loss1/relu_fc
I0403 18:34:58.048877  7137 net.cpp:148] Top shape: 24 1024 (24576)
I0403 18:34:58.048892  7137 net.cpp:156] Memory required for data: 946091040
I0403 18:34:58.048907  7137 layer_factory.hpp:77] Creating layer loss1/drop_fc
I0403 18:34:58.048934  7137 net.cpp:91] Creating Layer loss1/drop_fc
I0403 18:34:58.048951  7137 net.cpp:425] loss1/drop_fc <- loss1/fc
I0403 18:34:58.048971  7137 net.cpp:386] loss1/drop_fc -> loss1/fc (in-place)
I0403 18:34:58.049022  7137 net.cpp:141] Setting up loss1/drop_fc
I0403 18:34:58.049047  7137 net.cpp:148] Top shape: 24 1024 (24576)
I0403 18:34:58.049063  7137 net.cpp:156] Memory required for data: 946189344
I0403 18:34:58.049078  7137 layer_factory.hpp:77] Creating layer loss1/classifier_plantvillage
I0403 18:34:58.049095  7137 net.cpp:91] Creating Layer loss1/classifier_plantvillage
I0403 18:34:58.049111  7137 net.cpp:425] loss1/classifier_plantvillage <- loss1/fc
I0403 18:34:58.049134  7137 net.cpp:399] loss1/classifier_plantvillage -> loss1/classifier_plantvillage
I0403 18:34:58.050034  7137 net.cpp:141] Setting up loss1/classifier_plantvillage
I0403 18:34:58.050062  7137 net.cpp:148] Top shape: 24 38 (912)
I0403 18:34:58.050076  7137 net.cpp:156] Memory required for data: 946192992
I0403 18:34:58.050096  7137 layer_factory.hpp:77] Creating layer loss1/classifier_plantvillage_loss1/classifier_plantvillage_0_split
I0403 18:34:58.050114  7137 net.cpp:91] Creating Layer loss1/classifier_plantvillage_loss1/classifier_plantvillage_0_split
I0403 18:34:58.050129  7137 net.cpp:425] loss1/classifier_plantvillage_loss1/classifier_plantvillage_0_split <- loss1/classifier_plantvillage
I0403 18:34:58.050149  7137 net.cpp:399] loss1/classifier_plantvillage_loss1/classifier_plantvillage_0_split -> loss1/classifier_plantvillage_loss1/classifier_plantvillage_0_split_0
I0403 18:34:58.050173  7137 net.cpp:399] loss1/classifier_plantvillage_loss1/classifier_plantvillage_0_split -> loss1/classifier_plantvillage_loss1/classifier_plantvillage_0_split_1
I0403 18:34:58.050192  7137 net.cpp:399] loss1/classifier_plantvillage_loss1/classifier_plantvillage_0_split -> loss1/classifier_plantvillage_loss1/classifier_plantvillage_0_split_2
I0403 18:34:58.050259  7137 net.cpp:141] Setting up loss1/classifier_plantvillage_loss1/classifier_plantvillage_0_split
I0403 18:34:58.050287  7137 net.cpp:148] Top shape: 24 38 (912)
I0403 18:34:58.050303  7137 net.cpp:148] Top shape: 24 38 (912)
I0403 18:34:58.050318  7137 net.cpp:148] Top shape: 24 38 (912)
I0403 18:34:58.050333  7137 net.cpp:156] Memory required for data: 946203936
I0403 18:34:58.050346  7137 layer_factory.hpp:77] Creating layer inception_4b/1x1
I0403 18:34:58.050369  7137 net.cpp:91] Creating Layer inception_4b/1x1
I0403 18:34:58.050406  7137 net.cpp:425] inception_4b/1x1 <- inception_4a/output_inception_4a/output_0_split_1
I0403 18:34:58.050427  7137 net.cpp:399] inception_4b/1x1 -> inception_4b/1x1
I0403 18:34:58.052137  7137 net.cpp:141] Setting up inception_4b/1x1
I0403 18:34:58.052166  7137 net.cpp:148] Top shape: 24 160 14 14 (752640)
I0403 18:34:58.052183  7137 net.cpp:156] Memory required for data: 949214496
I0403 18:34:58.052203  7137 layer_factory.hpp:77] Creating layer inception_4b/relu_1x1
I0403 18:34:58.052225  7137 net.cpp:91] Creating Layer inception_4b/relu_1x1
I0403 18:34:58.052244  7137 net.cpp:425] inception_4b/relu_1x1 <- inception_4b/1x1
I0403 18:34:58.052263  7137 net.cpp:386] inception_4b/relu_1x1 -> inception_4b/1x1 (in-place)
I0403 18:34:58.052450  7137 net.cpp:141] Setting up inception_4b/relu_1x1
I0403 18:34:58.052480  7137 net.cpp:148] Top shape: 24 160 14 14 (752640)
I0403 18:34:58.052496  7137 net.cpp:156] Memory required for data: 952225056
I0403 18:34:58.052511  7137 layer_factory.hpp:77] Creating layer inception_4b/3x3_reduce
I0403 18:34:58.052536  7137 net.cpp:91] Creating Layer inception_4b/3x3_reduce
I0403 18:34:58.052556  7137 net.cpp:425] inception_4b/3x3_reduce <- inception_4a/output_inception_4a/output_0_split_2
I0403 18:34:58.052575  7137 net.cpp:399] inception_4b/3x3_reduce -> inception_4b/3x3_reduce
I0403 18:34:58.053937  7137 net.cpp:141] Setting up inception_4b/3x3_reduce
I0403 18:34:58.053968  7137 net.cpp:148] Top shape: 24 112 14 14 (526848)
I0403 18:34:58.053987  7137 net.cpp:156] Memory required for data: 954332448
I0403 18:34:58.054005  7137 layer_factory.hpp:77] Creating layer inception_4b/relu_3x3_reduce
I0403 18:34:58.054025  7137 net.cpp:91] Creating Layer inception_4b/relu_3x3_reduce
I0403 18:34:58.054041  7137 net.cpp:425] inception_4b/relu_3x3_reduce <- inception_4b/3x3_reduce
I0403 18:34:58.054060  7137 net.cpp:386] inception_4b/relu_3x3_reduce -> inception_4b/3x3_reduce (in-place)
I0403 18:34:58.054340  7137 net.cpp:141] Setting up inception_4b/relu_3x3_reduce
I0403 18:34:58.054369  7137 net.cpp:148] Top shape: 24 112 14 14 (526848)
I0403 18:34:58.054386  7137 net.cpp:156] Memory required for data: 956439840
I0403 18:34:58.054401  7137 layer_factory.hpp:77] Creating layer inception_4b/3x3
I0403 18:34:58.054424  7137 net.cpp:91] Creating Layer inception_4b/3x3
I0403 18:34:58.054442  7137 net.cpp:425] inception_4b/3x3 <- inception_4b/3x3_reduce
I0403 18:34:58.054461  7137 net.cpp:399] inception_4b/3x3 -> inception_4b/3x3
I0403 18:34:58.057412  7137 net.cpp:141] Setting up inception_4b/3x3
I0403 18:34:58.057441  7137 net.cpp:148] Top shape: 24 224 14 14 (1053696)
I0403 18:34:58.057458  7137 net.cpp:156] Memory required for data: 960654624
I0403 18:34:58.057477  7137 layer_factory.hpp:77] Creating layer inception_4b/relu_3x3
I0403 18:34:58.057497  7137 net.cpp:91] Creating Layer inception_4b/relu_3x3
I0403 18:34:58.057517  7137 net.cpp:425] inception_4b/relu_3x3 <- inception_4b/3x3
I0403 18:34:58.057538  7137 net.cpp:386] inception_4b/relu_3x3 -> inception_4b/3x3 (in-place)
I0403 18:34:58.057718  7137 net.cpp:141] Setting up inception_4b/relu_3x3
I0403 18:34:58.057744  7137 net.cpp:148] Top shape: 24 224 14 14 (1053696)
I0403 18:34:58.057760  7137 net.cpp:156] Memory required for data: 964869408
I0403 18:34:58.057775  7137 layer_factory.hpp:77] Creating layer inception_4b/5x5_reduce
I0403 18:34:58.057797  7137 net.cpp:91] Creating Layer inception_4b/5x5_reduce
I0403 18:34:58.057816  7137 net.cpp:425] inception_4b/5x5_reduce <- inception_4a/output_inception_4a/output_0_split_3
I0403 18:34:58.057838  7137 net.cpp:399] inception_4b/5x5_reduce -> inception_4b/5x5_reduce
I0403 18:34:58.058903  7137 net.cpp:141] Setting up inception_4b/5x5_reduce
I0403 18:34:58.058930  7137 net.cpp:148] Top shape: 24 24 14 14 (112896)
I0403 18:34:58.058946  7137 net.cpp:156] Memory required for data: 965320992
I0403 18:34:58.058965  7137 layer_factory.hpp:77] Creating layer inception_4b/relu_5x5_reduce
I0403 18:34:58.058986  7137 net.cpp:91] Creating Layer inception_4b/relu_5x5_reduce
I0403 18:34:58.059017  7137 net.cpp:425] inception_4b/relu_5x5_reduce <- inception_4b/5x5_reduce
I0403 18:34:58.059036  7137 net.cpp:386] inception_4b/relu_5x5_reduce -> inception_4b/5x5_reduce (in-place)
I0403 18:34:58.059217  7137 net.cpp:141] Setting up inception_4b/relu_5x5_reduce
I0403 18:34:58.059244  7137 net.cpp:148] Top shape: 24 24 14 14 (112896)
I0403 18:34:58.059259  7137 net.cpp:156] Memory required for data: 965772576
I0403 18:34:58.059291  7137 layer_factory.hpp:77] Creating layer inception_4b/5x5
I0403 18:34:58.059316  7137 net.cpp:91] Creating Layer inception_4b/5x5
I0403 18:34:58.059335  7137 net.cpp:425] inception_4b/5x5 <- inception_4b/5x5_reduce
I0403 18:34:58.059355  7137 net.cpp:399] inception_4b/5x5 -> inception_4b/5x5
I0403 18:34:58.060565  7137 net.cpp:141] Setting up inception_4b/5x5
I0403 18:34:58.060592  7137 net.cpp:148] Top shape: 24 64 14 14 (301056)
I0403 18:34:58.060611  7137 net.cpp:156] Memory required for data: 966976800
I0403 18:34:58.060631  7137 layer_factory.hpp:77] Creating layer inception_4b/relu_5x5
I0403 18:34:58.060652  7137 net.cpp:91] Creating Layer inception_4b/relu_5x5
I0403 18:34:58.060670  7137 net.cpp:425] inception_4b/relu_5x5 <- inception_4b/5x5
I0403 18:34:58.060689  7137 net.cpp:386] inception_4b/relu_5x5 -> inception_4b/5x5 (in-place)
I0403 18:34:58.060967  7137 net.cpp:141] Setting up inception_4b/relu_5x5
I0403 18:34:58.060995  7137 net.cpp:148] Top shape: 24 64 14 14 (301056)
I0403 18:34:58.061012  7137 net.cpp:156] Memory required for data: 968181024
I0403 18:34:58.061027  7137 layer_factory.hpp:77] Creating layer inception_4b/pool
I0403 18:34:58.061050  7137 net.cpp:91] Creating Layer inception_4b/pool
I0403 18:34:58.061069  7137 net.cpp:425] inception_4b/pool <- inception_4a/output_inception_4a/output_0_split_4
I0403 18:34:58.061087  7137 net.cpp:399] inception_4b/pool -> inception_4b/pool
I0403 18:34:58.061152  7137 net.cpp:141] Setting up inception_4b/pool
I0403 18:34:58.061177  7137 net.cpp:148] Top shape: 24 512 14 14 (2408448)
I0403 18:34:58.061192  7137 net.cpp:156] Memory required for data: 977814816
I0403 18:34:58.061205  7137 layer_factory.hpp:77] Creating layer inception_4b/pool_proj
I0403 18:34:58.061228  7137 net.cpp:91] Creating Layer inception_4b/pool_proj
I0403 18:34:58.061245  7137 net.cpp:425] inception_4b/pool_proj <- inception_4b/pool
I0403 18:34:58.061267  7137 net.cpp:399] inception_4b/pool_proj -> inception_4b/pool_proj
I0403 18:34:58.062486  7137 net.cpp:141] Setting up inception_4b/pool_proj
I0403 18:34:58.062515  7137 net.cpp:148] Top shape: 24 64 14 14 (301056)
I0403 18:34:58.062531  7137 net.cpp:156] Memory required for data: 979019040
I0403 18:34:58.062551  7137 layer_factory.hpp:77] Creating layer inception_4b/relu_pool_proj
I0403 18:34:58.062572  7137 net.cpp:91] Creating Layer inception_4b/relu_pool_proj
I0403 18:34:58.062590  7137 net.cpp:425] inception_4b/relu_pool_proj <- inception_4b/pool_proj
I0403 18:34:58.062609  7137 net.cpp:386] inception_4b/relu_pool_proj -> inception_4b/pool_proj (in-place)
I0403 18:34:58.062785  7137 net.cpp:141] Setting up inception_4b/relu_pool_proj
I0403 18:34:58.062814  7137 net.cpp:148] Top shape: 24 64 14 14 (301056)
I0403 18:34:58.062829  7137 net.cpp:156] Memory required for data: 980223264
I0403 18:34:58.062845  7137 layer_factory.hpp:77] Creating layer inception_4b/output
I0403 18:34:58.062863  7137 net.cpp:91] Creating Layer inception_4b/output
I0403 18:34:58.062880  7137 net.cpp:425] inception_4b/output <- inception_4b/1x1
I0403 18:34:58.062897  7137 net.cpp:425] inception_4b/output <- inception_4b/3x3
I0403 18:34:58.062914  7137 net.cpp:425] inception_4b/output <- inception_4b/5x5
I0403 18:34:58.062929  7137 net.cpp:425] inception_4b/output <- inception_4b/pool_proj
I0403 18:34:58.062947  7137 net.cpp:399] inception_4b/output -> inception_4b/output
I0403 18:34:58.062994  7137 net.cpp:141] Setting up inception_4b/output
I0403 18:34:58.063017  7137 net.cpp:148] Top shape: 24 512 14 14 (2408448)
I0403 18:34:58.063032  7137 net.cpp:156] Memory required for data: 989857056
I0403 18:34:58.063061  7137 layer_factory.hpp:77] Creating layer inception_4b/output_inception_4b/output_0_split
I0403 18:34:58.063081  7137 net.cpp:91] Creating Layer inception_4b/output_inception_4b/output_0_split
I0403 18:34:58.063097  7137 net.cpp:425] inception_4b/output_inception_4b/output_0_split <- inception_4b/output
I0403 18:34:58.063114  7137 net.cpp:399] inception_4b/output_inception_4b/output_0_split -> inception_4b/output_inception_4b/output_0_split_0
I0403 18:34:58.063135  7137 net.cpp:399] inception_4b/output_inception_4b/output_0_split -> inception_4b/output_inception_4b/output_0_split_1
I0403 18:34:58.063158  7137 net.cpp:399] inception_4b/output_inception_4b/output_0_split -> inception_4b/output_inception_4b/output_0_split_2
I0403 18:34:58.063179  7137 net.cpp:399] inception_4b/output_inception_4b/output_0_split -> inception_4b/output_inception_4b/output_0_split_3
I0403 18:34:58.063266  7137 net.cpp:141] Setting up inception_4b/output_inception_4b/output_0_split
I0403 18:34:58.063305  7137 net.cpp:148] Top shape: 24 512 14 14 (2408448)
I0403 18:34:58.063323  7137 net.cpp:148] Top shape: 24 512 14 14 (2408448)
I0403 18:34:58.063340  7137 net.cpp:148] Top shape: 24 512 14 14 (2408448)
I0403 18:34:58.063356  7137 net.cpp:148] Top shape: 24 512 14 14 (2408448)
I0403 18:34:58.063370  7137 net.cpp:156] Memory required for data: 1028392224
I0403 18:34:58.063385  7137 layer_factory.hpp:77] Creating layer inception_4c/1x1
I0403 18:34:58.063407  7137 net.cpp:91] Creating Layer inception_4c/1x1
I0403 18:34:58.063426  7137 net.cpp:425] inception_4c/1x1 <- inception_4b/output_inception_4b/output_0_split_0
I0403 18:34:58.063446  7137 net.cpp:399] inception_4c/1x1 -> inception_4c/1x1
I0403 18:34:58.064870  7137 net.cpp:141] Setting up inception_4c/1x1
I0403 18:34:58.064899  7137 net.cpp:148] Top shape: 24 128 14 14 (602112)
I0403 18:34:58.064916  7137 net.cpp:156] Memory required for data: 1030800672
I0403 18:34:58.064934  7137 layer_factory.hpp:77] Creating layer inception_4c/relu_1x1
I0403 18:34:58.064951  7137 net.cpp:91] Creating Layer inception_4c/relu_1x1
I0403 18:34:58.064968  7137 net.cpp:425] inception_4c/relu_1x1 <- inception_4c/1x1
I0403 18:34:58.064988  7137 net.cpp:386] inception_4c/relu_1x1 -> inception_4c/1x1 (in-place)
I0403 18:34:58.065171  7137 net.cpp:141] Setting up inception_4c/relu_1x1
I0403 18:34:58.065196  7137 net.cpp:148] Top shape: 24 128 14 14 (602112)
I0403 18:34:58.065212  7137 net.cpp:156] Memory required for data: 1033209120
I0403 18:34:58.065227  7137 layer_factory.hpp:77] Creating layer inception_4c/3x3_reduce
I0403 18:34:58.065250  7137 net.cpp:91] Creating Layer inception_4c/3x3_reduce
I0403 18:34:58.065274  7137 net.cpp:425] inception_4c/3x3_reduce <- inception_4b/output_inception_4b/output_0_split_1
I0403 18:34:58.065299  7137 net.cpp:399] inception_4c/3x3_reduce -> inception_4c/3x3_reduce
I0403 18:34:58.067234  7137 net.cpp:141] Setting up inception_4c/3x3_reduce
I0403 18:34:58.067263  7137 net.cpp:148] Top shape: 24 128 14 14 (602112)
I0403 18:34:58.067298  7137 net.cpp:156] Memory required for data: 1035617568
I0403 18:34:58.067319  7137 layer_factory.hpp:77] Creating layer inception_4c/relu_3x3_reduce
I0403 18:34:58.067342  7137 net.cpp:91] Creating Layer inception_4c/relu_3x3_reduce
I0403 18:34:58.067363  7137 net.cpp:425] inception_4c/relu_3x3_reduce <- inception_4c/3x3_reduce
I0403 18:34:58.067383  7137 net.cpp:386] inception_4c/relu_3x3_reduce -> inception_4c/3x3_reduce (in-place)
I0403 18:34:58.067682  7137 net.cpp:141] Setting up inception_4c/relu_3x3_reduce
I0403 18:34:58.067708  7137 net.cpp:148] Top shape: 24 128 14 14 (602112)
I0403 18:34:58.067725  7137 net.cpp:156] Memory required for data: 1038026016
I0403 18:34:58.067741  7137 layer_factory.hpp:77] Creating layer inception_4c/3x3
I0403 18:34:58.067765  7137 net.cpp:91] Creating Layer inception_4c/3x3
I0403 18:34:58.067786  7137 net.cpp:425] inception_4c/3x3 <- inception_4c/3x3_reduce
I0403 18:34:58.067809  7137 net.cpp:399] inception_4c/3x3 -> inception_4c/3x3
I0403 18:34:58.071398  7137 net.cpp:141] Setting up inception_4c/3x3
I0403 18:34:58.071442  7137 net.cpp:148] Top shape: 24 256 14 14 (1204224)
I0403 18:34:58.071458  7137 net.cpp:156] Memory required for data: 1042842912
I0403 18:34:58.071494  7137 layer_factory.hpp:77] Creating layer inception_4c/relu_3x3
I0403 18:34:58.071518  7137 net.cpp:91] Creating Layer inception_4c/relu_3x3
I0403 18:34:58.071538  7137 net.cpp:425] inception_4c/relu_3x3 <- inception_4c/3x3
I0403 18:34:58.071555  7137 net.cpp:386] inception_4c/relu_3x3 -> inception_4c/3x3 (in-place)
I0403 18:34:58.071758  7137 net.cpp:141] Setting up inception_4c/relu_3x3
I0403 18:34:58.071785  7137 net.cpp:148] Top shape: 24 256 14 14 (1204224)
I0403 18:34:58.071802  7137 net.cpp:156] Memory required for data: 1047659808
I0403 18:34:58.071820  7137 layer_factory.hpp:77] Creating layer inception_4c/5x5_reduce
I0403 18:34:58.071842  7137 net.cpp:91] Creating Layer inception_4c/5x5_reduce
I0403 18:34:58.071862  7137 net.cpp:425] inception_4c/5x5_reduce <- inception_4b/output_inception_4b/output_0_split_2
I0403 18:34:58.071887  7137 net.cpp:399] inception_4c/5x5_reduce -> inception_4c/5x5_reduce
I0403 18:34:58.072988  7137 net.cpp:141] Setting up inception_4c/5x5_reduce
I0403 18:34:58.073016  7137 net.cpp:148] Top shape: 24 24 14 14 (112896)
I0403 18:34:58.073031  7137 net.cpp:156] Memory required for data: 1048111392
I0403 18:34:58.073050  7137 layer_factory.hpp:77] Creating layer inception_4c/relu_5x5_reduce
I0403 18:34:58.073070  7137 net.cpp:91] Creating Layer inception_4c/relu_5x5_reduce
I0403 18:34:58.073086  7137 net.cpp:425] inception_4c/relu_5x5_reduce <- inception_4c/5x5_reduce
I0403 18:34:58.073103  7137 net.cpp:386] inception_4c/relu_5x5_reduce -> inception_4c/5x5_reduce (in-place)
I0403 18:34:58.073287  7137 net.cpp:141] Setting up inception_4c/relu_5x5_reduce
I0403 18:34:58.073312  7137 net.cpp:148] Top shape: 24 24 14 14 (112896)
I0403 18:34:58.073328  7137 net.cpp:156] Memory required for data: 1048562976
I0403 18:34:58.073343  7137 layer_factory.hpp:77] Creating layer inception_4c/5x5
I0403 18:34:58.073364  7137 net.cpp:91] Creating Layer inception_4c/5x5
I0403 18:34:58.073382  7137 net.cpp:425] inception_4c/5x5 <- inception_4c/5x5_reduce
I0403 18:34:58.073400  7137 net.cpp:399] inception_4c/5x5 -> inception_4c/5x5
I0403 18:34:58.074607  7137 net.cpp:141] Setting up inception_4c/5x5
I0403 18:34:58.074638  7137 net.cpp:148] Top shape: 24 64 14 14 (301056)
I0403 18:34:58.074656  7137 net.cpp:156] Memory required for data: 1049767200
I0403 18:34:58.074674  7137 layer_factory.hpp:77] Creating layer inception_4c/relu_5x5
I0403 18:34:58.074692  7137 net.cpp:91] Creating Layer inception_4c/relu_5x5
I0403 18:34:58.074708  7137 net.cpp:425] inception_4c/relu_5x5 <- inception_4c/5x5
I0403 18:34:58.074728  7137 net.cpp:386] inception_4c/relu_5x5 -> inception_4c/5x5 (in-place)
I0403 18:34:58.075006  7137 net.cpp:141] Setting up inception_4c/relu_5x5
I0403 18:34:58.075033  7137 net.cpp:148] Top shape: 24 64 14 14 (301056)
I0403 18:34:58.075049  7137 net.cpp:156] Memory required for data: 1050971424
I0403 18:34:58.075063  7137 layer_factory.hpp:77] Creating layer inception_4c/pool
I0403 18:34:58.075081  7137 net.cpp:91] Creating Layer inception_4c/pool
I0403 18:34:58.075098  7137 net.cpp:425] inception_4c/pool <- inception_4b/output_inception_4b/output_0_split_3
I0403 18:34:58.075119  7137 net.cpp:399] inception_4c/pool -> inception_4c/pool
I0403 18:34:58.075182  7137 net.cpp:141] Setting up inception_4c/pool
I0403 18:34:58.075206  7137 net.cpp:148] Top shape: 24 512 14 14 (2408448)
I0403 18:34:58.075220  7137 net.cpp:156] Memory required for data: 1060605216
I0403 18:34:58.075235  7137 layer_factory.hpp:77] Creating layer inception_4c/pool_proj
I0403 18:34:58.075258  7137 net.cpp:91] Creating Layer inception_4c/pool_proj
I0403 18:34:58.075294  7137 net.cpp:425] inception_4c/pool_proj <- inception_4c/pool
I0403 18:34:58.075315  7137 net.cpp:399] inception_4c/pool_proj -> inception_4c/pool_proj
I0403 18:34:58.076525  7137 net.cpp:141] Setting up inception_4c/pool_proj
I0403 18:34:58.076553  7137 net.cpp:148] Top shape: 24 64 14 14 (301056)
I0403 18:34:58.076586  7137 net.cpp:156] Memory required for data: 1061809440
I0403 18:34:58.076607  7137 layer_factory.hpp:77] Creating layer inception_4c/relu_pool_proj
I0403 18:34:58.076628  7137 net.cpp:91] Creating Layer inception_4c/relu_pool_proj
I0403 18:34:58.076645  7137 net.cpp:425] inception_4c/relu_pool_proj <- inception_4c/pool_proj
I0403 18:34:58.076665  7137 net.cpp:386] inception_4c/relu_pool_proj -> inception_4c/pool_proj (in-place)
I0403 18:34:58.076843  7137 net.cpp:141] Setting up inception_4c/relu_pool_proj
I0403 18:34:58.076870  7137 net.cpp:148] Top shape: 24 64 14 14 (301056)
I0403 18:34:58.076886  7137 net.cpp:156] Memory required for data: 1063013664
I0403 18:34:58.076903  7137 layer_factory.hpp:77] Creating layer inception_4c/output
I0403 18:34:58.076922  7137 net.cpp:91] Creating Layer inception_4c/output
I0403 18:34:58.076939  7137 net.cpp:425] inception_4c/output <- inception_4c/1x1
I0403 18:34:58.076956  7137 net.cpp:425] inception_4c/output <- inception_4c/3x3
I0403 18:34:58.076972  7137 net.cpp:425] inception_4c/output <- inception_4c/5x5
I0403 18:34:58.076988  7137 net.cpp:425] inception_4c/output <- inception_4c/pool_proj
I0403 18:34:58.077004  7137 net.cpp:399] inception_4c/output -> inception_4c/output
I0403 18:34:58.077051  7137 net.cpp:141] Setting up inception_4c/output
I0403 18:34:58.077075  7137 net.cpp:148] Top shape: 24 512 14 14 (2408448)
I0403 18:34:58.077088  7137 net.cpp:156] Memory required for data: 1072647456
I0403 18:34:58.077102  7137 layer_factory.hpp:77] Creating layer inception_4c/output_inception_4c/output_0_split
I0403 18:34:58.077121  7137 net.cpp:91] Creating Layer inception_4c/output_inception_4c/output_0_split
I0403 18:34:58.077137  7137 net.cpp:425] inception_4c/output_inception_4c/output_0_split <- inception_4c/output
I0403 18:34:58.077155  7137 net.cpp:399] inception_4c/output_inception_4c/output_0_split -> inception_4c/output_inception_4c/output_0_split_0
I0403 18:34:58.077175  7137 net.cpp:399] inception_4c/output_inception_4c/output_0_split -> inception_4c/output_inception_4c/output_0_split_1
I0403 18:34:58.077196  7137 net.cpp:399] inception_4c/output_inception_4c/output_0_split -> inception_4c/output_inception_4c/output_0_split_2
I0403 18:34:58.077217  7137 net.cpp:399] inception_4c/output_inception_4c/output_0_split -> inception_4c/output_inception_4c/output_0_split_3
I0403 18:34:58.077322  7137 net.cpp:141] Setting up inception_4c/output_inception_4c/output_0_split
I0403 18:34:58.077345  7137 net.cpp:148] Top shape: 24 512 14 14 (2408448)
I0403 18:34:58.077363  7137 net.cpp:148] Top shape: 24 512 14 14 (2408448)
I0403 18:34:58.077378  7137 net.cpp:148] Top shape: 24 512 14 14 (2408448)
I0403 18:34:58.077394  7137 net.cpp:148] Top shape: 24 512 14 14 (2408448)
I0403 18:34:58.077409  7137 net.cpp:156] Memory required for data: 1111182624
I0403 18:34:58.077424  7137 layer_factory.hpp:77] Creating layer inception_4d/1x1
I0403 18:34:58.077445  7137 net.cpp:91] Creating Layer inception_4d/1x1
I0403 18:34:58.077463  7137 net.cpp:425] inception_4d/1x1 <- inception_4c/output_inception_4c/output_0_split_0
I0403 18:34:58.077484  7137 net.cpp:399] inception_4d/1x1 -> inception_4d/1x1
I0403 18:34:58.078851  7137 net.cpp:141] Setting up inception_4d/1x1
I0403 18:34:58.078881  7137 net.cpp:148] Top shape: 24 112 14 14 (526848)
I0403 18:34:58.078898  7137 net.cpp:156] Memory required for data: 1113290016
I0403 18:34:58.078917  7137 layer_factory.hpp:77] Creating layer inception_4d/relu_1x1
I0403 18:34:58.078935  7137 net.cpp:91] Creating Layer inception_4d/relu_1x1
I0403 18:34:58.078953  7137 net.cpp:425] inception_4d/relu_1x1 <- inception_4d/1x1
I0403 18:34:58.078974  7137 net.cpp:386] inception_4d/relu_1x1 -> inception_4d/1x1 (in-place)
I0403 18:34:58.079155  7137 net.cpp:141] Setting up inception_4d/relu_1x1
I0403 18:34:58.079181  7137 net.cpp:148] Top shape: 24 112 14 14 (526848)
I0403 18:34:58.079197  7137 net.cpp:156] Memory required for data: 1115397408
I0403 18:34:58.079213  7137 layer_factory.hpp:77] Creating layer inception_4d/3x3_reduce
I0403 18:34:58.079248  7137 net.cpp:91] Creating Layer inception_4d/3x3_reduce
I0403 18:34:58.079267  7137 net.cpp:425] inception_4d/3x3_reduce <- inception_4c/output_inception_4c/output_0_split_1
I0403 18:34:58.079305  7137 net.cpp:399] inception_4d/3x3_reduce -> inception_4d/3x3_reduce
I0403 18:34:58.080814  7137 net.cpp:141] Setting up inception_4d/3x3_reduce
I0403 18:34:58.080847  7137 net.cpp:148] Top shape: 24 144 14 14 (677376)
I0403 18:34:58.080863  7137 net.cpp:156] Memory required for data: 1118106912
I0403 18:34:58.080881  7137 layer_factory.hpp:77] Creating layer inception_4d/relu_3x3_reduce
I0403 18:34:58.080900  7137 net.cpp:91] Creating Layer inception_4d/relu_3x3_reduce
I0403 18:34:58.080916  7137 net.cpp:425] inception_4d/relu_3x3_reduce <- inception_4d/3x3_reduce
I0403 18:34:58.080935  7137 net.cpp:386] inception_4d/relu_3x3_reduce -> inception_4d/3x3_reduce (in-place)
I0403 18:34:58.081218  7137 net.cpp:141] Setting up inception_4d/relu_3x3_reduce
I0403 18:34:58.081246  7137 net.cpp:148] Top shape: 24 144 14 14 (677376)
I0403 18:34:58.081262  7137 net.cpp:156] Memory required for data: 1120816416
I0403 18:34:58.081282  7137 layer_factory.hpp:77] Creating layer inception_4d/3x3
I0403 18:34:58.081305  7137 net.cpp:91] Creating Layer inception_4d/3x3
I0403 18:34:58.081322  7137 net.cpp:425] inception_4d/3x3 <- inception_4d/3x3_reduce
I0403 18:34:58.081342  7137 net.cpp:399] inception_4d/3x3 -> inception_4d/3x3
I0403 18:34:58.085552  7137 net.cpp:141] Setting up inception_4d/3x3
I0403 18:34:58.085595  7137 net.cpp:148] Top shape: 24 288 14 14 (1354752)
I0403 18:34:58.085613  7137 net.cpp:156] Memory required for data: 1126235424
I0403 18:34:58.085633  7137 layer_factory.hpp:77] Creating layer inception_4d/relu_3x3
I0403 18:34:58.085654  7137 net.cpp:91] Creating Layer inception_4d/relu_3x3
I0403 18:34:58.085671  7137 net.cpp:425] inception_4d/relu_3x3 <- inception_4d/3x3
I0403 18:34:58.085690  7137 net.cpp:386] inception_4d/relu_3x3 -> inception_4d/3x3 (in-place)
I0403 18:34:58.085883  7137 net.cpp:141] Setting up inception_4d/relu_3x3
I0403 18:34:58.085909  7137 net.cpp:148] Top shape: 24 288 14 14 (1354752)
I0403 18:34:58.085925  7137 net.cpp:156] Memory required for data: 1131654432
I0403 18:34:58.085940  7137 layer_factory.hpp:77] Creating layer inception_4d/5x5_reduce
I0403 18:34:58.085963  7137 net.cpp:91] Creating Layer inception_4d/5x5_reduce
I0403 18:34:58.085980  7137 net.cpp:425] inception_4d/5x5_reduce <- inception_4c/output_inception_4c/output_0_split_2
I0403 18:34:58.085999  7137 net.cpp:399] inception_4d/5x5_reduce -> inception_4d/5x5_reduce
I0403 18:34:58.087118  7137 net.cpp:141] Setting up inception_4d/5x5_reduce
I0403 18:34:58.087148  7137 net.cpp:148] Top shape: 24 32 14 14 (150528)
I0403 18:34:58.087165  7137 net.cpp:156] Memory required for data: 1132256544
I0403 18:34:58.087185  7137 layer_factory.hpp:77] Creating layer inception_4d/relu_5x5_reduce
I0403 18:34:58.087204  7137 net.cpp:91] Creating Layer inception_4d/relu_5x5_reduce
I0403 18:34:58.087221  7137 net.cpp:425] inception_4d/relu_5x5_reduce <- inception_4d/5x5_reduce
I0403 18:34:58.087241  7137 net.cpp:386] inception_4d/relu_5x5_reduce -> inception_4d/5x5_reduce (in-place)
I0403 18:34:58.087450  7137 net.cpp:141] Setting up inception_4d/relu_5x5_reduce
I0403 18:34:58.087476  7137 net.cpp:148] Top shape: 24 32 14 14 (150528)
I0403 18:34:58.087491  7137 net.cpp:156] Memory required for data: 1132858656
I0403 18:34:58.087505  7137 layer_factory.hpp:77] Creating layer inception_4d/5x5
I0403 18:34:58.087528  7137 net.cpp:91] Creating Layer inception_4d/5x5
I0403 18:34:58.087546  7137 net.cpp:425] inception_4d/5x5 <- inception_4d/5x5_reduce
I0403 18:34:58.087579  7137 net.cpp:399] inception_4d/5x5 -> inception_4d/5x5
I0403 18:34:58.089028  7137 net.cpp:141] Setting up inception_4d/5x5
I0403 18:34:58.089061  7137 net.cpp:148] Top shape: 24 64 14 14 (301056)
I0403 18:34:58.089078  7137 net.cpp:156] Memory required for data: 1134062880
I0403 18:34:58.089100  7137 layer_factory.hpp:77] Creating layer inception_4d/relu_5x5
I0403 18:34:58.089135  7137 net.cpp:91] Creating Layer inception_4d/relu_5x5
I0403 18:34:58.089154  7137 net.cpp:425] inception_4d/relu_5x5 <- inception_4d/5x5
I0403 18:34:58.089172  7137 net.cpp:386] inception_4d/relu_5x5 -> inception_4d/5x5 (in-place)
I0403 18:34:58.089475  7137 net.cpp:141] Setting up inception_4d/relu_5x5
I0403 18:34:58.089505  7137 net.cpp:148] Top shape: 24 64 14 14 (301056)
I0403 18:34:58.089524  7137 net.cpp:156] Memory required for data: 1135267104
I0403 18:34:58.089539  7137 layer_factory.hpp:77] Creating layer inception_4d/pool
I0403 18:34:58.089558  7137 net.cpp:91] Creating Layer inception_4d/pool
I0403 18:34:58.089576  7137 net.cpp:425] inception_4d/pool <- inception_4c/output_inception_4c/output_0_split_3
I0403 18:34:58.089596  7137 net.cpp:399] inception_4d/pool -> inception_4d/pool
I0403 18:34:58.089663  7137 net.cpp:141] Setting up inception_4d/pool
I0403 18:34:58.089689  7137 net.cpp:148] Top shape: 24 512 14 14 (2408448)
I0403 18:34:58.089704  7137 net.cpp:156] Memory required for data: 1144900896
I0403 18:34:58.089721  7137 layer_factory.hpp:77] Creating layer inception_4d/pool_proj
I0403 18:34:58.089743  7137 net.cpp:91] Creating Layer inception_4d/pool_proj
I0403 18:34:58.089764  7137 net.cpp:425] inception_4d/pool_proj <- inception_4d/pool
I0403 18:34:58.089787  7137 net.cpp:399] inception_4d/pool_proj -> inception_4d/pool_proj
I0403 18:34:58.091580  7137 net.cpp:141] Setting up inception_4d/pool_proj
I0403 18:34:58.091611  7137 net.cpp:148] Top shape: 24 64 14 14 (301056)
I0403 18:34:58.091627  7137 net.cpp:156] Memory required for data: 1146105120
I0403 18:34:58.091647  7137 layer_factory.hpp:77] Creating layer inception_4d/relu_pool_proj
I0403 18:34:58.091670  7137 net.cpp:91] Creating Layer inception_4d/relu_pool_proj
I0403 18:34:58.091687  7137 net.cpp:425] inception_4d/relu_pool_proj <- inception_4d/pool_proj
I0403 18:34:58.091704  7137 net.cpp:386] inception_4d/relu_pool_proj -> inception_4d/pool_proj (in-place)
I0403 18:34:58.091889  7137 net.cpp:141] Setting up inception_4d/relu_pool_proj
I0403 18:34:58.091914  7137 net.cpp:148] Top shape: 24 64 14 14 (301056)
I0403 18:34:58.091929  7137 net.cpp:156] Memory required for data: 1147309344
I0403 18:34:58.091945  7137 layer_factory.hpp:77] Creating layer inception_4d/output
I0403 18:34:58.091964  7137 net.cpp:91] Creating Layer inception_4d/output
I0403 18:34:58.091981  7137 net.cpp:425] inception_4d/output <- inception_4d/1x1
I0403 18:34:58.091998  7137 net.cpp:425] inception_4d/output <- inception_4d/3x3
I0403 18:34:58.092015  7137 net.cpp:425] inception_4d/output <- inception_4d/5x5
I0403 18:34:58.092031  7137 net.cpp:425] inception_4d/output <- inception_4d/pool_proj
I0403 18:34:58.092048  7137 net.cpp:399] inception_4d/output -> inception_4d/output
I0403 18:34:58.092097  7137 net.cpp:141] Setting up inception_4d/output
I0403 18:34:58.092121  7137 net.cpp:148] Top shape: 24 528 14 14 (2483712)
I0403 18:34:58.092136  7137 net.cpp:156] Memory required for data: 1157244192
I0403 18:34:58.092151  7137 layer_factory.hpp:77] Creating layer inception_4d/output_inception_4d/output_0_split
I0403 18:34:58.092170  7137 net.cpp:91] Creating Layer inception_4d/output_inception_4d/output_0_split
I0403 18:34:58.092186  7137 net.cpp:425] inception_4d/output_inception_4d/output_0_split <- inception_4d/output
I0403 18:34:58.092206  7137 net.cpp:399] inception_4d/output_inception_4d/output_0_split -> inception_4d/output_inception_4d/output_0_split_0
I0403 18:34:58.092228  7137 net.cpp:399] inception_4d/output_inception_4d/output_0_split -> inception_4d/output_inception_4d/output_0_split_1
I0403 18:34:58.092249  7137 net.cpp:399] inception_4d/output_inception_4d/output_0_split -> inception_4d/output_inception_4d/output_0_split_2
I0403 18:34:58.092269  7137 net.cpp:399] inception_4d/output_inception_4d/output_0_split -> inception_4d/output_inception_4d/output_0_split_3
I0403 18:34:58.092308  7137 net.cpp:399] inception_4d/output_inception_4d/output_0_split -> inception_4d/output_inception_4d/output_0_split_4
I0403 18:34:58.092409  7137 net.cpp:141] Setting up inception_4d/output_inception_4d/output_0_split
I0403 18:34:58.092447  7137 net.cpp:148] Top shape: 24 528 14 14 (2483712)
I0403 18:34:58.092463  7137 net.cpp:148] Top shape: 24 528 14 14 (2483712)
I0403 18:34:58.092479  7137 net.cpp:148] Top shape: 24 528 14 14 (2483712)
I0403 18:34:58.092494  7137 net.cpp:148] Top shape: 24 528 14 14 (2483712)
I0403 18:34:58.092510  7137 net.cpp:148] Top shape: 24 528 14 14 (2483712)
I0403 18:34:58.092525  7137 net.cpp:156] Memory required for data: 1206918432
I0403 18:34:58.092540  7137 layer_factory.hpp:77] Creating layer loss2/ave_pool
I0403 18:34:58.092556  7137 net.cpp:91] Creating Layer loss2/ave_pool
I0403 18:34:58.092572  7137 net.cpp:425] loss2/ave_pool <- inception_4d/output_inception_4d/output_0_split_0
I0403 18:34:58.092592  7137 net.cpp:399] loss2/ave_pool -> loss2/ave_pool
I0403 18:34:58.092905  7137 net.cpp:141] Setting up loss2/ave_pool
I0403 18:34:58.092931  7137 net.cpp:148] Top shape: 24 528 4 4 (202752)
I0403 18:34:58.092947  7137 net.cpp:156] Memory required for data: 1207729440
I0403 18:34:58.092962  7137 layer_factory.hpp:77] Creating layer loss2/conv
I0403 18:34:58.092983  7137 net.cpp:91] Creating Layer loss2/conv
I0403 18:34:58.093003  7137 net.cpp:425] loss2/conv <- loss2/ave_pool
I0403 18:34:58.093024  7137 net.cpp:399] loss2/conv -> loss2/conv
I0403 18:34:58.095000  7137 net.cpp:141] Setting up loss2/conv
I0403 18:34:58.095033  7137 net.cpp:148] Top shape: 24 128 4 4 (49152)
I0403 18:34:58.095051  7137 net.cpp:156] Memory required for data: 1207926048
I0403 18:34:58.095070  7137 layer_factory.hpp:77] Creating layer loss2/relu_conv
I0403 18:34:58.095090  7137 net.cpp:91] Creating Layer loss2/relu_conv
I0403 18:34:58.095109  7137 net.cpp:425] loss2/relu_conv <- loss2/conv
I0403 18:34:58.095129  7137 net.cpp:386] loss2/relu_conv -> loss2/conv (in-place)
I0403 18:34:58.095441  7137 net.cpp:141] Setting up loss2/relu_conv
I0403 18:34:58.095470  7137 net.cpp:148] Top shape: 24 128 4 4 (49152)
I0403 18:34:58.095487  7137 net.cpp:156] Memory required for data: 1208122656
I0403 18:34:58.095504  7137 layer_factory.hpp:77] Creating layer loss2/fc
I0403 18:34:58.095526  7137 net.cpp:91] Creating Layer loss2/fc
I0403 18:34:58.095546  7137 net.cpp:425] loss2/fc <- loss2/conv
I0403 18:34:58.095580  7137 net.cpp:399] loss2/fc -> loss2/fc
I0403 18:34:58.114001  7137 net.cpp:141] Setting up loss2/fc
I0403 18:34:58.114073  7137 net.cpp:148] Top shape: 24 1024 (24576)
I0403 18:34:58.114092  7137 net.cpp:156] Memory required for data: 1208220960
I0403 18:34:58.114114  7137 layer_factory.hpp:77] Creating layer loss2/relu_fc
I0403 18:34:58.114138  7137 net.cpp:91] Creating Layer loss2/relu_fc
I0403 18:34:58.114159  7137 net.cpp:425] loss2/relu_fc <- loss2/fc
I0403 18:34:58.114178  7137 net.cpp:386] loss2/relu_fc -> loss2/fc (in-place)
I0403 18:34:58.114540  7137 net.cpp:141] Setting up loss2/relu_fc
I0403 18:34:58.114568  7137 net.cpp:148] Top shape: 24 1024 (24576)
I0403 18:34:58.114585  7137 net.cpp:156] Memory required for data: 1208319264
I0403 18:34:58.114601  7137 layer_factory.hpp:77] Creating layer loss2/drop_fc
I0403 18:34:58.114620  7137 net.cpp:91] Creating Layer loss2/drop_fc
I0403 18:34:58.114637  7137 net.cpp:425] loss2/drop_fc <- loss2/fc
I0403 18:34:58.114657  7137 net.cpp:386] loss2/drop_fc -> loss2/fc (in-place)
I0403 18:34:58.114713  7137 net.cpp:141] Setting up loss2/drop_fc
I0403 18:34:58.114738  7137 net.cpp:148] Top shape: 24 1024 (24576)
I0403 18:34:58.114753  7137 net.cpp:156] Memory required for data: 1208417568
I0403 18:34:58.114768  7137 layer_factory.hpp:77] Creating layer loss2/classifier_plantvillage
I0403 18:34:58.114787  7137 net.cpp:91] Creating Layer loss2/classifier_plantvillage
I0403 18:34:58.114804  7137 net.cpp:425] loss2/classifier_plantvillage <- loss2/fc
I0403 18:34:58.114828  7137 net.cpp:399] loss2/classifier_plantvillage -> loss2/classifier_plantvillage
I0403 18:34:58.115247  7137 net.cpp:141] Setting up loss2/classifier_plantvillage
I0403 18:34:58.115290  7137 net.cpp:148] Top shape: 24 38 (912)
I0403 18:34:58.115336  7137 net.cpp:156] Memory required for data: 1208421216
I0403 18:34:58.115356  7137 layer_factory.hpp:77] Creating layer loss2/classifier_plantvillage_loss2/classifier_plantvillage_0_split
I0403 18:34:58.115380  7137 net.cpp:91] Creating Layer loss2/classifier_plantvillage_loss2/classifier_plantvillage_0_split
I0403 18:34:58.115397  7137 net.cpp:425] loss2/classifier_plantvillage_loss2/classifier_plantvillage_0_split <- loss2/classifier_plantvillage
I0403 18:34:58.115420  7137 net.cpp:399] loss2/classifier_plantvillage_loss2/classifier_plantvillage_0_split -> loss2/classifier_plantvillage_loss2/classifier_plantvillage_0_split_0
I0403 18:34:58.115442  7137 net.cpp:399] loss2/classifier_plantvillage_loss2/classifier_plantvillage_0_split -> loss2/classifier_plantvillage_loss2/classifier_plantvillage_0_split_1
I0403 18:34:58.115464  7137 net.cpp:399] loss2/classifier_plantvillage_loss2/classifier_plantvillage_0_split -> loss2/classifier_plantvillage_loss2/classifier_plantvillage_0_split_2
I0403 18:34:58.115545  7137 net.cpp:141] Setting up loss2/classifier_plantvillage_loss2/classifier_plantvillage_0_split
I0403 18:34:58.115581  7137 net.cpp:148] Top shape: 24 38 (912)
I0403 18:34:58.115598  7137 net.cpp:148] Top shape: 24 38 (912)
I0403 18:34:58.115614  7137 net.cpp:148] Top shape: 24 38 (912)
I0403 18:34:58.115629  7137 net.cpp:156] Memory required for data: 1208432160
I0403 18:34:58.115644  7137 layer_factory.hpp:77] Creating layer inception_4e/1x1
I0403 18:34:58.115669  7137 net.cpp:91] Creating Layer inception_4e/1x1
I0403 18:34:58.115687  7137 net.cpp:425] inception_4e/1x1 <- inception_4d/output_inception_4d/output_0_split_1
I0403 18:34:58.115707  7137 net.cpp:399] inception_4e/1x1 -> inception_4e/1x1
I0403 18:34:58.117645  7137 net.cpp:141] Setting up inception_4e/1x1
I0403 18:34:58.117677  7137 net.cpp:148] Top shape: 24 256 14 14 (1204224)
I0403 18:34:58.117697  7137 net.cpp:156] Memory required for data: 1213249056
I0403 18:34:58.117715  7137 layer_factory.hpp:77] Creating layer inception_4e/relu_1x1
I0403 18:34:58.117733  7137 net.cpp:91] Creating Layer inception_4e/relu_1x1
I0403 18:34:58.117751  7137 net.cpp:425] inception_4e/relu_1x1 <- inception_4e/1x1
I0403 18:34:58.117769  7137 net.cpp:386] inception_4e/relu_1x1 -> inception_4e/1x1 (in-place)
I0403 18:34:58.118068  7137 net.cpp:141] Setting up inception_4e/relu_1x1
I0403 18:34:58.118098  7137 net.cpp:148] Top shape: 24 256 14 14 (1204224)
I0403 18:34:58.118114  7137 net.cpp:156] Memory required for data: 1218065952
I0403 18:34:58.118129  7137 layer_factory.hpp:77] Creating layer inception_4e/3x3_reduce
I0403 18:34:58.118152  7137 net.cpp:91] Creating Layer inception_4e/3x3_reduce
I0403 18:34:58.118170  7137 net.cpp:425] inception_4e/3x3_reduce <- inception_4d/output_inception_4d/output_0_split_2
I0403 18:34:58.118191  7137 net.cpp:399] inception_4e/3x3_reduce -> inception_4e/3x3_reduce
I0403 18:34:58.120406  7137 net.cpp:141] Setting up inception_4e/3x3_reduce
I0403 18:34:58.120436  7137 net.cpp:148] Top shape: 24 160 14 14 (752640)
I0403 18:34:58.120452  7137 net.cpp:156] Memory required for data: 1221076512
I0403 18:34:58.120471  7137 layer_factory.hpp:77] Creating layer inception_4e/relu_3x3_reduce
I0403 18:34:58.120492  7137 net.cpp:91] Creating Layer inception_4e/relu_3x3_reduce
I0403 18:34:58.120509  7137 net.cpp:425] inception_4e/relu_3x3_reduce <- inception_4e/3x3_reduce
I0403 18:34:58.120527  7137 net.cpp:386] inception_4e/relu_3x3_reduce -> inception_4e/3x3_reduce (in-place)
I0403 18:34:58.120715  7137 net.cpp:141] Setting up inception_4e/relu_3x3_reduce
I0403 18:34:58.120741  7137 net.cpp:148] Top shape: 24 160 14 14 (752640)
I0403 18:34:58.120757  7137 net.cpp:156] Memory required for data: 1224087072
I0403 18:34:58.120774  7137 layer_factory.hpp:77] Creating layer inception_4e/3x3
I0403 18:34:58.120795  7137 net.cpp:91] Creating Layer inception_4e/3x3
I0403 18:34:58.120815  7137 net.cpp:425] inception_4e/3x3 <- inception_4e/3x3_reduce
I0403 18:34:58.120837  7137 net.cpp:399] inception_4e/3x3 -> inception_4e/3x3
I0403 18:34:58.126061  7137 net.cpp:141] Setting up inception_4e/3x3
I0403 18:34:58.126106  7137 net.cpp:148] Top shape: 24 320 14 14 (1505280)
I0403 18:34:58.126124  7137 net.cpp:156] Memory required for data: 1230108192
I0403 18:34:58.126147  7137 layer_factory.hpp:77] Creating layer inception_4e/relu_3x3
I0403 18:34:58.126168  7137 net.cpp:91] Creating Layer inception_4e/relu_3x3
I0403 18:34:58.126186  7137 net.cpp:425] inception_4e/relu_3x3 <- inception_4e/3x3
I0403 18:34:58.126207  7137 net.cpp:386] inception_4e/relu_3x3 -> inception_4e/3x3 (in-place)
I0403 18:34:58.126518  7137 net.cpp:141] Setting up inception_4e/relu_3x3
I0403 18:34:58.126545  7137 net.cpp:148] Top shape: 24 320 14 14 (1505280)
I0403 18:34:58.126561  7137 net.cpp:156] Memory required for data: 1236129312
I0403 18:34:58.126579  7137 layer_factory.hpp:77] Creating layer inception_4e/5x5_reduce
I0403 18:34:58.126603  7137 net.cpp:91] Creating Layer inception_4e/5x5_reduce
I0403 18:34:58.126622  7137 net.cpp:425] inception_4e/5x5_reduce <- inception_4d/output_inception_4d/output_0_split_3
I0403 18:34:58.126644  7137 net.cpp:399] inception_4e/5x5_reduce -> inception_4e/5x5_reduce
I0403 18:34:58.127766  7137 net.cpp:141] Setting up inception_4e/5x5_reduce
I0403 18:34:58.127799  7137 net.cpp:148] Top shape: 24 32 14 14 (150528)
I0403 18:34:58.127817  7137 net.cpp:156] Memory required for data: 1236731424
I0403 18:34:58.127837  7137 layer_factory.hpp:77] Creating layer inception_4e/relu_5x5_reduce
I0403 18:34:58.127859  7137 net.cpp:91] Creating Layer inception_4e/relu_5x5_reduce
I0403 18:34:58.127878  7137 net.cpp:425] inception_4e/relu_5x5_reduce <- inception_4e/5x5_reduce
I0403 18:34:58.127897  7137 net.cpp:386] inception_4e/relu_5x5_reduce -> inception_4e/5x5_reduce (in-place)
I0403 18:34:58.128203  7137 net.cpp:141] Setting up inception_4e/relu_5x5_reduce
I0403 18:34:58.128233  7137 net.cpp:148] Top shape: 24 32 14 14 (150528)
I0403 18:34:58.128250  7137 net.cpp:156] Memory required for data: 1237333536
I0403 18:34:58.128268  7137 layer_factory.hpp:77] Creating layer inception_4e/5x5
I0403 18:34:58.128312  7137 net.cpp:91] Creating Layer inception_4e/5x5
I0403 18:34:58.128334  7137 net.cpp:425] inception_4e/5x5 <- inception_4e/5x5_reduce
I0403 18:34:58.128355  7137 net.cpp:399] inception_4e/5x5 -> inception_4e/5x5
I0403 18:34:58.130149  7137 net.cpp:141] Setting up inception_4e/5x5
I0403 18:34:58.130179  7137 net.cpp:148] Top shape: 24 128 14 14 (602112)
I0403 18:34:58.130197  7137 net.cpp:156] Memory required for data: 1239741984
I0403 18:34:58.130216  7137 layer_factory.hpp:77] Creating layer inception_4e/relu_5x5
I0403 18:34:58.130236  7137 net.cpp:91] Creating Layer inception_4e/relu_5x5
I0403 18:34:58.130252  7137 net.cpp:425] inception_4e/relu_5x5 <- inception_4e/5x5
I0403 18:34:58.130273  7137 net.cpp:386] inception_4e/relu_5x5 -> inception_4e/5x5 (in-place)
I0403 18:34:58.130470  7137 net.cpp:141] Setting up inception_4e/relu_5x5
I0403 18:34:58.130497  7137 net.cpp:148] Top shape: 24 128 14 14 (602112)
I0403 18:34:58.130513  7137 net.cpp:156] Memory required for data: 1242150432
I0403 18:34:58.130529  7137 layer_factory.hpp:77] Creating layer inception_4e/pool
I0403 18:34:58.130548  7137 net.cpp:91] Creating Layer inception_4e/pool
I0403 18:34:58.130563  7137 net.cpp:425] inception_4e/pool <- inception_4d/output_inception_4d/output_0_split_4
I0403 18:34:58.130584  7137 net.cpp:399] inception_4e/pool -> inception_4e/pool
I0403 18:34:58.130653  7137 net.cpp:141] Setting up inception_4e/pool
I0403 18:34:58.130678  7137 net.cpp:148] Top shape: 24 528 14 14 (2483712)
I0403 18:34:58.130693  7137 net.cpp:156] Memory required for data: 1252085280
I0403 18:34:58.130708  7137 layer_factory.hpp:77] Creating layer inception_4e/pool_proj
I0403 18:34:58.130730  7137 net.cpp:91] Creating Layer inception_4e/pool_proj
I0403 18:34:58.130748  7137 net.cpp:425] inception_4e/pool_proj <- inception_4e/pool
I0403 18:34:58.130769  7137 net.cpp:399] inception_4e/pool_proj -> inception_4e/pool_proj
I0403 18:34:58.132280  7137 net.cpp:141] Setting up inception_4e/pool_proj
I0403 18:34:58.132319  7137 net.cpp:148] Top shape: 24 128 14 14 (602112)
I0403 18:34:58.132338  7137 net.cpp:156] Memory required for data: 1254493728
I0403 18:34:58.132356  7137 layer_factory.hpp:77] Creating layer inception_4e/relu_pool_proj
I0403 18:34:58.132376  7137 net.cpp:91] Creating Layer inception_4e/relu_pool_proj
I0403 18:34:58.132395  7137 net.cpp:425] inception_4e/relu_pool_proj <- inception_4e/pool_proj
I0403 18:34:58.132412  7137 net.cpp:386] inception_4e/relu_pool_proj -> inception_4e/pool_proj (in-place)
I0403 18:34:58.132699  7137 net.cpp:141] Setting up inception_4e/relu_pool_proj
I0403 18:34:58.132725  7137 net.cpp:148] Top shape: 24 128 14 14 (602112)
I0403 18:34:58.132740  7137 net.cpp:156] Memory required for data: 1256902176
I0403 18:34:58.132755  7137 layer_factory.hpp:77] Creating layer inception_4e/output
I0403 18:34:58.132772  7137 net.cpp:91] Creating Layer inception_4e/output
I0403 18:34:58.132791  7137 net.cpp:425] inception_4e/output <- inception_4e/1x1
I0403 18:34:58.132808  7137 net.cpp:425] inception_4e/output <- inception_4e/3x3
I0403 18:34:58.132824  7137 net.cpp:425] inception_4e/output <- inception_4e/5x5
I0403 18:34:58.132839  7137 net.cpp:425] inception_4e/output <- inception_4e/pool_proj
I0403 18:34:58.132855  7137 net.cpp:399] inception_4e/output -> inception_4e/output
I0403 18:34:58.132904  7137 net.cpp:141] Setting up inception_4e/output
I0403 18:34:58.132928  7137 net.cpp:148] Top shape: 24 832 14 14 (3913728)
I0403 18:34:58.132944  7137 net.cpp:156] Memory required for data: 1272557088
I0403 18:34:58.132959  7137 layer_factory.hpp:77] Creating layer pool4/3x3_s2
I0403 18:34:58.132975  7137 net.cpp:91] Creating Layer pool4/3x3_s2
I0403 18:34:58.132990  7137 net.cpp:425] pool4/3x3_s2 <- inception_4e/output
I0403 18:34:58.133011  7137 net.cpp:399] pool4/3x3_s2 -> pool4/3x3_s2
I0403 18:34:58.133077  7137 net.cpp:141] Setting up pool4/3x3_s2
I0403 18:34:58.133102  7137 net.cpp:148] Top shape: 24 832 7 7 (978432)
I0403 18:34:58.133117  7137 net.cpp:156] Memory required for data: 1276470816
I0403 18:34:58.133132  7137 layer_factory.hpp:77] Creating layer pool4/3x3_s2_pool4/3x3_s2_0_split
I0403 18:34:58.133149  7137 net.cpp:91] Creating Layer pool4/3x3_s2_pool4/3x3_s2_0_split
I0403 18:34:58.133177  7137 net.cpp:425] pool4/3x3_s2_pool4/3x3_s2_0_split <- pool4/3x3_s2
I0403 18:34:58.133195  7137 net.cpp:399] pool4/3x3_s2_pool4/3x3_s2_0_split -> pool4/3x3_s2_pool4/3x3_s2_0_split_0
I0403 18:34:58.133215  7137 net.cpp:399] pool4/3x3_s2_pool4/3x3_s2_0_split -> pool4/3x3_s2_pool4/3x3_s2_0_split_1
I0403 18:34:58.133241  7137 net.cpp:399] pool4/3x3_s2_pool4/3x3_s2_0_split -> pool4/3x3_s2_pool4/3x3_s2_0_split_2
I0403 18:34:58.133265  7137 net.cpp:399] pool4/3x3_s2_pool4/3x3_s2_0_split -> pool4/3x3_s2_pool4/3x3_s2_0_split_3
I0403 18:34:58.133378  7137 net.cpp:141] Setting up pool4/3x3_s2_pool4/3x3_s2_0_split
I0403 18:34:58.133402  7137 net.cpp:148] Top shape: 24 832 7 7 (978432)
I0403 18:34:58.133420  7137 net.cpp:148] Top shape: 24 832 7 7 (978432)
I0403 18:34:58.133437  7137 net.cpp:148] Top shape: 24 832 7 7 (978432)
I0403 18:34:58.133466  7137 net.cpp:148] Top shape: 24 832 7 7 (978432)
I0403 18:34:58.133481  7137 net.cpp:156] Memory required for data: 1292125728
I0403 18:34:58.133496  7137 layer_factory.hpp:77] Creating layer inception_5a/1x1
I0403 18:34:58.133533  7137 net.cpp:91] Creating Layer inception_5a/1x1
I0403 18:34:58.133551  7137 net.cpp:425] inception_5a/1x1 <- pool4/3x3_s2_pool4/3x3_s2_0_split_0
I0403 18:34:58.133585  7137 net.cpp:399] inception_5a/1x1 -> inception_5a/1x1
I0403 18:34:58.136458  7137 net.cpp:141] Setting up inception_5a/1x1
I0403 18:34:58.136488  7137 net.cpp:148] Top shape: 24 256 7 7 (301056)
I0403 18:34:58.136504  7137 net.cpp:156] Memory required for data: 1293329952
I0403 18:34:58.136523  7137 layer_factory.hpp:77] Creating layer inception_5a/relu_1x1
I0403 18:34:58.136543  7137 net.cpp:91] Creating Layer inception_5a/relu_1x1
I0403 18:34:58.136559  7137 net.cpp:425] inception_5a/relu_1x1 <- inception_5a/1x1
I0403 18:34:58.136576  7137 net.cpp:386] inception_5a/relu_1x1 -> inception_5a/1x1 (in-place)
I0403 18:34:58.136881  7137 net.cpp:141] Setting up inception_5a/relu_1x1
I0403 18:34:58.136907  7137 net.cpp:148] Top shape: 24 256 7 7 (301056)
I0403 18:34:58.136922  7137 net.cpp:156] Memory required for data: 1294534176
I0403 18:34:58.136937  7137 layer_factory.hpp:77] Creating layer inception_5a/3x3_reduce
I0403 18:34:58.136960  7137 net.cpp:91] Creating Layer inception_5a/3x3_reduce
I0403 18:34:58.136979  7137 net.cpp:425] inception_5a/3x3_reduce <- pool4/3x3_s2_pool4/3x3_s2_0_split_1
I0403 18:34:58.136998  7137 net.cpp:399] inception_5a/3x3_reduce -> inception_5a/3x3_reduce
I0403 18:34:58.139503  7137 net.cpp:141] Setting up inception_5a/3x3_reduce
I0403 18:34:58.139533  7137 net.cpp:148] Top shape: 24 160 7 7 (188160)
I0403 18:34:58.139551  7137 net.cpp:156] Memory required for data: 1295286816
I0403 18:34:58.139583  7137 layer_factory.hpp:77] Creating layer inception_5a/relu_3x3_reduce
I0403 18:34:58.139601  7137 net.cpp:91] Creating Layer inception_5a/relu_3x3_reduce
I0403 18:34:58.139623  7137 net.cpp:425] inception_5a/relu_3x3_reduce <- inception_5a/3x3_reduce
I0403 18:34:58.139642  7137 net.cpp:386] inception_5a/relu_3x3_reduce -> inception_5a/3x3_reduce (in-place)
I0403 18:34:58.139827  7137 net.cpp:141] Setting up inception_5a/relu_3x3_reduce
I0403 18:34:58.139852  7137 net.cpp:148] Top shape: 24 160 7 7 (188160)
I0403 18:34:58.139868  7137 net.cpp:156] Memory required for data: 1296039456
I0403 18:34:58.139883  7137 layer_factory.hpp:77] Creating layer inception_5a/3x3
I0403 18:34:58.139905  7137 net.cpp:91] Creating Layer inception_5a/3x3
I0403 18:34:58.139926  7137 net.cpp:425] inception_5a/3x3 <- inception_5a/3x3_reduce
I0403 18:34:58.139947  7137 net.cpp:399] inception_5a/3x3 -> inception_5a/3x3
I0403 18:34:58.144984  7137 net.cpp:141] Setting up inception_5a/3x3
I0403 18:34:58.145015  7137 net.cpp:148] Top shape: 24 320 7 7 (376320)
I0403 18:34:58.145031  7137 net.cpp:156] Memory required for data: 1297544736
I0403 18:34:58.145051  7137 layer_factory.hpp:77] Creating layer inception_5a/relu_3x3
I0403 18:34:58.145073  7137 net.cpp:91] Creating Layer inception_5a/relu_3x3
I0403 18:34:58.145092  7137 net.cpp:425] inception_5a/relu_3x3 <- inception_5a/3x3
I0403 18:34:58.145109  7137 net.cpp:386] inception_5a/relu_3x3 -> inception_5a/3x3 (in-place)
I0403 18:34:58.145400  7137 net.cpp:141] Setting up inception_5a/relu_3x3
I0403 18:34:58.145426  7137 net.cpp:148] Top shape: 24 320 7 7 (376320)
I0403 18:34:58.145440  7137 net.cpp:156] Memory required for data: 1299050016
I0403 18:34:58.145455  7137 layer_factory.hpp:77] Creating layer inception_5a/5x5_reduce
I0403 18:34:58.145478  7137 net.cpp:91] Creating Layer inception_5a/5x5_reduce
I0403 18:34:58.145496  7137 net.cpp:425] inception_5a/5x5_reduce <- pool4/3x3_s2_pool4/3x3_s2_0_split_2
I0403 18:34:58.145516  7137 net.cpp:399] inception_5a/5x5_reduce -> inception_5a/5x5_reduce
I0403 18:34:58.146692  7137 net.cpp:141] Setting up inception_5a/5x5_reduce
I0403 18:34:58.146721  7137 net.cpp:148] Top shape: 24 32 7 7 (37632)
I0403 18:34:58.146739  7137 net.cpp:156] Memory required for data: 1299200544
I0403 18:34:58.146756  7137 layer_factory.hpp:77] Creating layer inception_5a/relu_5x5_reduce
I0403 18:34:58.146777  7137 net.cpp:91] Creating Layer inception_5a/relu_5x5_reduce
I0403 18:34:58.146795  7137 net.cpp:425] inception_5a/relu_5x5_reduce <- inception_5a/5x5_reduce
I0403 18:34:58.146812  7137 net.cpp:386] inception_5a/relu_5x5_reduce -> inception_5a/5x5_reduce (in-place)
I0403 18:34:58.147104  7137 net.cpp:141] Setting up inception_5a/relu_5x5_reduce
I0403 18:34:58.147128  7137 net.cpp:148] Top shape: 24 32 7 7 (37632)
I0403 18:34:58.147143  7137 net.cpp:156] Memory required for data: 1299351072
I0403 18:34:58.147158  7137 layer_factory.hpp:77] Creating layer inception_5a/5x5
I0403 18:34:58.147181  7137 net.cpp:91] Creating Layer inception_5a/5x5
I0403 18:34:58.147199  7137 net.cpp:425] inception_5a/5x5 <- inception_5a/5x5_reduce
I0403 18:34:58.147219  7137 net.cpp:399] inception_5a/5x5 -> inception_5a/5x5
I0403 18:34:58.148941  7137 net.cpp:141] Setting up inception_5a/5x5
I0403 18:34:58.148982  7137 net.cpp:148] Top shape: 24 128 7 7 (150528)
I0403 18:34:58.148999  7137 net.cpp:156] Memory required for data: 1299953184
I0403 18:34:58.149019  7137 layer_factory.hpp:77] Creating layer inception_5a/relu_5x5
I0403 18:34:58.149039  7137 net.cpp:91] Creating Layer inception_5a/relu_5x5
I0403 18:34:58.149055  7137 net.cpp:425] inception_5a/relu_5x5 <- inception_5a/5x5
I0403 18:34:58.149072  7137 net.cpp:386] inception_5a/relu_5x5 -> inception_5a/5x5 (in-place)
I0403 18:34:58.149260  7137 net.cpp:141] Setting up inception_5a/relu_5x5
I0403 18:34:58.149304  7137 net.cpp:148] Top shape: 24 128 7 7 (150528)
I0403 18:34:58.149320  7137 net.cpp:156] Memory required for data: 1300555296
I0403 18:34:58.149335  7137 layer_factory.hpp:77] Creating layer inception_5a/pool
I0403 18:34:58.149353  7137 net.cpp:91] Creating Layer inception_5a/pool
I0403 18:34:58.149369  7137 net.cpp:425] inception_5a/pool <- pool4/3x3_s2_pool4/3x3_s2_0_split_3
I0403 18:34:58.149390  7137 net.cpp:399] inception_5a/pool -> inception_5a/pool
I0403 18:34:58.149462  7137 net.cpp:141] Setting up inception_5a/pool
I0403 18:34:58.149487  7137 net.cpp:148] Top shape: 24 832 7 7 (978432)
I0403 18:34:58.149502  7137 net.cpp:156] Memory required for data: 1304469024
I0403 18:34:58.149515  7137 layer_factory.hpp:77] Creating layer inception_5a/pool_proj
I0403 18:34:58.149538  7137 net.cpp:91] Creating Layer inception_5a/pool_proj
I0403 18:34:58.149555  7137 net.cpp:425] inception_5a/pool_proj <- inception_5a/pool
I0403 18:34:58.149590  7137 net.cpp:399] inception_5a/pool_proj -> inception_5a/pool_proj
I0403 18:34:58.151885  7137 net.cpp:141] Setting up inception_5a/pool_proj
I0403 18:34:58.151916  7137 net.cpp:148] Top shape: 24 128 7 7 (150528)
I0403 18:34:58.151933  7137 net.cpp:156] Memory required for data: 1305071136
I0403 18:34:58.151952  7137 layer_factory.hpp:77] Creating layer inception_5a/relu_pool_proj
I0403 18:34:58.151974  7137 net.cpp:91] Creating Layer inception_5a/relu_pool_proj
I0403 18:34:58.151993  7137 net.cpp:425] inception_5a/relu_pool_proj <- inception_5a/pool_proj
I0403 18:34:58.152010  7137 net.cpp:386] inception_5a/relu_pool_proj -> inception_5a/pool_proj (in-place)
I0403 18:34:58.152315  7137 net.cpp:141] Setting up inception_5a/relu_pool_proj
I0403 18:34:58.152343  7137 net.cpp:148] Top shape: 24 128 7 7 (150528)
I0403 18:34:58.152357  7137 net.cpp:156] Memory required for data: 1305673248
I0403 18:34:58.152372  7137 layer_factory.hpp:77] Creating layer inception_5a/output
I0403 18:34:58.152390  7137 net.cpp:91] Creating Layer inception_5a/output
I0403 18:34:58.152407  7137 net.cpp:425] inception_5a/output <- inception_5a/1x1
I0403 18:34:58.152426  7137 net.cpp:425] inception_5a/output <- inception_5a/3x3
I0403 18:34:58.152441  7137 net.cpp:425] inception_5a/output <- inception_5a/5x5
I0403 18:34:58.152456  7137 net.cpp:425] inception_5a/output <- inception_5a/pool_proj
I0403 18:34:58.152475  7137 net.cpp:399] inception_5a/output -> inception_5a/output
I0403 18:34:58.152529  7137 net.cpp:141] Setting up inception_5a/output
I0403 18:34:58.152552  7137 net.cpp:148] Top shape: 24 832 7 7 (978432)
I0403 18:34:58.152567  7137 net.cpp:156] Memory required for data: 1309586976
I0403 18:34:58.152582  7137 layer_factory.hpp:77] Creating layer inception_5a/output_inception_5a/output_0_split
I0403 18:34:58.152600  7137 net.cpp:91] Creating Layer inception_5a/output_inception_5a/output_0_split
I0403 18:34:58.152616  7137 net.cpp:425] inception_5a/output_inception_5a/output_0_split <- inception_5a/output
I0403 18:34:58.152636  7137 net.cpp:399] inception_5a/output_inception_5a/output_0_split -> inception_5a/output_inception_5a/output_0_split_0
I0403 18:34:58.152657  7137 net.cpp:399] inception_5a/output_inception_5a/output_0_split -> inception_5a/output_inception_5a/output_0_split_1
I0403 18:34:58.152679  7137 net.cpp:399] inception_5a/output_inception_5a/output_0_split -> inception_5a/output_inception_5a/output_0_split_2
I0403 18:34:58.152699  7137 net.cpp:399] inception_5a/output_inception_5a/output_0_split -> inception_5a/output_inception_5a/output_0_split_3
I0403 18:34:58.152811  7137 net.cpp:141] Setting up inception_5a/output_inception_5a/output_0_split
I0403 18:34:58.152834  7137 net.cpp:148] Top shape: 24 832 7 7 (978432)
I0403 18:34:58.152850  7137 net.cpp:148] Top shape: 24 832 7 7 (978432)
I0403 18:34:58.152866  7137 net.cpp:148] Top shape: 24 832 7 7 (978432)
I0403 18:34:58.152883  7137 net.cpp:148] Top shape: 24 832 7 7 (978432)
I0403 18:34:58.152895  7137 net.cpp:156] Memory required for data: 1325241888
I0403 18:34:58.152910  7137 layer_factory.hpp:77] Creating layer inception_5b/1x1
I0403 18:34:58.152933  7137 net.cpp:91] Creating Layer inception_5b/1x1
I0403 18:34:58.152951  7137 net.cpp:425] inception_5b/1x1 <- inception_5a/output_inception_5a/output_0_split_0
I0403 18:34:58.152971  7137 net.cpp:399] inception_5b/1x1 -> inception_5b/1x1
I0403 18:34:58.156728  7137 net.cpp:141] Setting up inception_5b/1x1
I0403 18:34:58.156759  7137 net.cpp:148] Top shape: 24 384 7 7 (451584)
I0403 18:34:58.156776  7137 net.cpp:156] Memory required for data: 1327048224
I0403 18:34:58.156797  7137 layer_factory.hpp:77] Creating layer inception_5b/relu_1x1
I0403 18:34:58.156818  7137 net.cpp:91] Creating Layer inception_5b/relu_1x1
I0403 18:34:58.156836  7137 net.cpp:425] inception_5b/relu_1x1 <- inception_5b/1x1
I0403 18:34:58.156855  7137 net.cpp:386] inception_5b/relu_1x1 -> inception_5b/1x1 (in-place)
I0403 18:34:58.157156  7137 net.cpp:141] Setting up inception_5b/relu_1x1
I0403 18:34:58.157183  7137 net.cpp:148] Top shape: 24 384 7 7 (451584)
I0403 18:34:58.157198  7137 net.cpp:156] Memory required for data: 1328854560
I0403 18:34:58.157214  7137 layer_factory.hpp:77] Creating layer inception_5b/3x3_reduce
I0403 18:34:58.157237  7137 net.cpp:91] Creating Layer inception_5b/3x3_reduce
I0403 18:34:58.157255  7137 net.cpp:425] inception_5b/3x3_reduce <- inception_5a/output_inception_5a/output_0_split_1
I0403 18:34:58.157295  7137 net.cpp:399] inception_5b/3x3_reduce -> inception_5b/3x3_reduce
I0403 18:34:58.159982  7137 net.cpp:141] Setting up inception_5b/3x3_reduce
I0403 18:34:58.160013  7137 net.cpp:148] Top shape: 24 192 7 7 (225792)
I0403 18:34:58.160030  7137 net.cpp:156] Memory required for data: 1329757728
I0403 18:34:58.160050  7137 layer_factory.hpp:77] Creating layer inception_5b/relu_3x3_reduce
I0403 18:34:58.160069  7137 net.cpp:91] Creating Layer inception_5b/relu_3x3_reduce
I0403 18:34:58.160086  7137 net.cpp:425] inception_5b/relu_3x3_reduce <- inception_5b/3x3_reduce
I0403 18:34:58.160105  7137 net.cpp:386] inception_5b/relu_3x3_reduce -> inception_5b/3x3_reduce (in-place)
I0403 18:34:58.160298  7137 net.cpp:141] Setting up inception_5b/relu_3x3_reduce
I0403 18:34:58.160326  7137 net.cpp:148] Top shape: 24 192 7 7 (225792)
I0403 18:34:58.160341  7137 net.cpp:156] Memory required for data: 1330660896
I0403 18:34:58.160357  7137 layer_factory.hpp:77] Creating layer inception_5b/3x3
I0403 18:34:58.160379  7137 net.cpp:91] Creating Layer inception_5b/3x3
I0403 18:34:58.160398  7137 net.cpp:425] inception_5b/3x3 <- inception_5b/3x3_reduce
I0403 18:34:58.160420  7137 net.cpp:399] inception_5b/3x3 -> inception_5b/3x3
I0403 18:34:58.167114  7137 net.cpp:141] Setting up inception_5b/3x3
I0403 18:34:58.167145  7137 net.cpp:148] Top shape: 24 384 7 7 (451584)
I0403 18:34:58.167162  7137 net.cpp:156] Memory required for data: 1332467232
I0403 18:34:58.167183  7137 layer_factory.hpp:77] Creating layer inception_5b/relu_3x3
I0403 18:34:58.167202  7137 net.cpp:91] Creating Layer inception_5b/relu_3x3
I0403 18:34:58.167220  7137 net.cpp:425] inception_5b/relu_3x3 <- inception_5b/3x3
I0403 18:34:58.167238  7137 net.cpp:386] inception_5b/relu_3x3 -> inception_5b/3x3 (in-place)
I0403 18:34:58.167551  7137 net.cpp:141] Setting up inception_5b/relu_3x3
I0403 18:34:58.167593  7137 net.cpp:148] Top shape: 24 384 7 7 (451584)
I0403 18:34:58.167609  7137 net.cpp:156] Memory required for data: 1334273568
I0403 18:34:58.167624  7137 layer_factory.hpp:77] Creating layer inception_5b/5x5_reduce
I0403 18:34:58.167664  7137 net.cpp:91] Creating Layer inception_5b/5x5_reduce
I0403 18:34:58.167682  7137 net.cpp:425] inception_5b/5x5_reduce <- inception_5a/output_inception_5a/output_0_split_2
I0403 18:34:58.167706  7137 net.cpp:399] inception_5b/5x5_reduce -> inception_5b/5x5_reduce
I0403 18:34:58.168954  7137 net.cpp:141] Setting up inception_5b/5x5_reduce
I0403 18:34:58.168984  7137 net.cpp:148] Top shape: 24 48 7 7 (56448)
I0403 18:34:58.169001  7137 net.cpp:156] Memory required for data: 1334499360
I0403 18:34:58.169020  7137 layer_factory.hpp:77] Creating layer inception_5b/relu_5x5_reduce
I0403 18:34:58.169041  7137 net.cpp:91] Creating Layer inception_5b/relu_5x5_reduce
I0403 18:34:58.169060  7137 net.cpp:425] inception_5b/relu_5x5_reduce <- inception_5b/5x5_reduce
I0403 18:34:58.169080  7137 net.cpp:386] inception_5b/relu_5x5_reduce -> inception_5b/5x5_reduce (in-place)
I0403 18:34:58.169455  7137 net.cpp:141] Setting up inception_5b/relu_5x5_reduce
I0403 18:34:58.169481  7137 net.cpp:148] Top shape: 24 48 7 7 (56448)
I0403 18:34:58.169497  7137 net.cpp:156] Memory required for data: 1334725152
I0403 18:34:58.169512  7137 layer_factory.hpp:77] Creating layer inception_5b/5x5
I0403 18:34:58.169533  7137 net.cpp:91] Creating Layer inception_5b/5x5
I0403 18:34:58.169549  7137 net.cpp:425] inception_5b/5x5 <- inception_5b/5x5_reduce
I0403 18:34:58.169570  7137 net.cpp:399] inception_5b/5x5 -> inception_5b/5x5
I0403 18:34:58.171617  7137 net.cpp:141] Setting up inception_5b/5x5
I0403 18:34:58.171645  7137 net.cpp:148] Top shape: 24 128 7 7 (150528)
I0403 18:34:58.171660  7137 net.cpp:156] Memory required for data: 1335327264
I0403 18:34:58.171679  7137 layer_factory.hpp:77] Creating layer inception_5b/relu_5x5
I0403 18:34:58.171700  7137 net.cpp:91] Creating Layer inception_5b/relu_5x5
I0403 18:34:58.171720  7137 net.cpp:425] inception_5b/relu_5x5 <- inception_5b/5x5
I0403 18:34:58.171738  7137 net.cpp:386] inception_5b/relu_5x5 -> inception_5b/5x5 (in-place)
I0403 18:34:58.171927  7137 net.cpp:141] Setting up inception_5b/relu_5x5
I0403 18:34:58.171955  7137 net.cpp:148] Top shape: 24 128 7 7 (150528)
I0403 18:34:58.171972  7137 net.cpp:156] Memory required for data: 1335929376
I0403 18:34:58.171986  7137 layer_factory.hpp:77] Creating layer inception_5b/pool
I0403 18:34:58.172005  7137 net.cpp:91] Creating Layer inception_5b/pool
I0403 18:34:58.172024  7137 net.cpp:425] inception_5b/pool <- inception_5a/output_inception_5a/output_0_split_3
I0403 18:34:58.172044  7137 net.cpp:399] inception_5b/pool -> inception_5b/pool
I0403 18:34:58.172116  7137 net.cpp:141] Setting up inception_5b/pool
I0403 18:34:58.172139  7137 net.cpp:148] Top shape: 24 832 7 7 (978432)
I0403 18:34:58.172153  7137 net.cpp:156] Memory required for data: 1339843104
I0403 18:34:58.172169  7137 layer_factory.hpp:77] Creating layer inception_5b/pool_proj
I0403 18:34:58.172193  7137 net.cpp:91] Creating Layer inception_5b/pool_proj
I0403 18:34:58.172211  7137 net.cpp:425] inception_5b/pool_proj <- inception_5b/pool
I0403 18:34:58.172230  7137 net.cpp:399] inception_5b/pool_proj -> inception_5b/pool_proj
I0403 18:34:58.174547  7137 net.cpp:141] Setting up inception_5b/pool_proj
I0403 18:34:58.174577  7137 net.cpp:148] Top shape: 24 128 7 7 (150528)
I0403 18:34:58.174593  7137 net.cpp:156] Memory required for data: 1340445216
I0403 18:34:58.174612  7137 layer_factory.hpp:77] Creating layer inception_5b/relu_pool_proj
I0403 18:34:58.174634  7137 net.cpp:91] Creating Layer inception_5b/relu_pool_proj
I0403 18:34:58.174651  7137 net.cpp:425] inception_5b/relu_pool_proj <- inception_5b/pool_proj
I0403 18:34:58.174669  7137 net.cpp:386] inception_5b/relu_pool_proj -> inception_5b/pool_proj (in-place)
I0403 18:34:58.174965  7137 net.cpp:141] Setting up inception_5b/relu_pool_proj
I0403 18:34:58.174993  7137 net.cpp:148] Top shape: 24 128 7 7 (150528)
I0403 18:34:58.175009  7137 net.cpp:156] Memory required for data: 1341047328
I0403 18:34:58.175024  7137 layer_factory.hpp:77] Creating layer inception_5b/output
I0403 18:34:58.175043  7137 net.cpp:91] Creating Layer inception_5b/output
I0403 18:34:58.175073  7137 net.cpp:425] inception_5b/output <- inception_5b/1x1
I0403 18:34:58.175091  7137 net.cpp:425] inception_5b/output <- inception_5b/3x3
I0403 18:34:58.175107  7137 net.cpp:425] inception_5b/output <- inception_5b/5x5
I0403 18:34:58.175123  7137 net.cpp:425] inception_5b/output <- inception_5b/pool_proj
I0403 18:34:58.175139  7137 net.cpp:399] inception_5b/output -> inception_5b/output
I0403 18:34:58.175190  7137 net.cpp:141] Setting up inception_5b/output
I0403 18:34:58.175217  7137 net.cpp:148] Top shape: 24 1024 7 7 (1204224)
I0403 18:34:58.175233  7137 net.cpp:156] Memory required for data: 1345864224
I0403 18:34:58.175247  7137 layer_factory.hpp:77] Creating layer pool5/7x7_s1
I0403 18:34:58.175264  7137 net.cpp:91] Creating Layer pool5/7x7_s1
I0403 18:34:58.175302  7137 net.cpp:425] pool5/7x7_s1 <- inception_5b/output
I0403 18:34:58.175323  7137 net.cpp:399] pool5/7x7_s1 -> pool5/7x7_s1
I0403 18:34:58.175554  7137 net.cpp:141] Setting up pool5/7x7_s1
I0403 18:34:58.175592  7137 net.cpp:148] Top shape: 24 1024 1 1 (24576)
I0403 18:34:58.175607  7137 net.cpp:156] Memory required for data: 1345962528
I0403 18:34:58.175623  7137 layer_factory.hpp:77] Creating layer pool5/drop_7x7_s1
I0403 18:34:58.175643  7137 net.cpp:91] Creating Layer pool5/drop_7x7_s1
I0403 18:34:58.175662  7137 net.cpp:425] pool5/drop_7x7_s1 <- pool5/7x7_s1
I0403 18:34:58.175680  7137 net.cpp:386] pool5/drop_7x7_s1 -> pool5/7x7_s1 (in-place)
I0403 18:34:58.175730  7137 net.cpp:141] Setting up pool5/drop_7x7_s1
I0403 18:34:58.175755  7137 net.cpp:148] Top shape: 24 1024 1 1 (24576)
I0403 18:34:58.175770  7137 net.cpp:156] Memory required for data: 1346060832
I0403 18:34:58.175786  7137 layer_factory.hpp:77] Creating layer loss3/classifier_plantvillage
I0403 18:34:58.175807  7137 net.cpp:91] Creating Layer loss3/classifier_plantvillage
I0403 18:34:58.175824  7137 net.cpp:425] loss3/classifier_plantvillage <- pool5/7x7_s1
I0403 18:34:58.175843  7137 net.cpp:399] loss3/classifier_plantvillage -> loss3/classifier_plantvillage
I0403 18:34:58.176261  7137 net.cpp:141] Setting up loss3/classifier_plantvillage
I0403 18:34:58.176290  7137 net.cpp:148] Top shape: 24 38 (912)
I0403 18:34:58.176306  7137 net.cpp:156] Memory required for data: 1346064480
I0403 18:34:58.176324  7137 layer_factory.hpp:77] Creating layer loss3/classifier_plantvillage_loss3/classifier_plantvillage_0_split
I0403 18:34:58.176342  7137 net.cpp:91] Creating Layer loss3/classifier_plantvillage_loss3/classifier_plantvillage_0_split
I0403 18:34:58.176357  7137 net.cpp:425] loss3/classifier_plantvillage_loss3/classifier_plantvillage_0_split <- loss3/classifier_plantvillage
I0403 18:34:58.176378  7137 net.cpp:399] loss3/classifier_plantvillage_loss3/classifier_plantvillage_0_split -> loss3/classifier_plantvillage_loss3/classifier_plantvillage_0_split_0
I0403 18:34:58.176399  7137 net.cpp:399] loss3/classifier_plantvillage_loss3/classifier_plantvillage_0_split -> loss3/classifier_plantvillage_loss3/classifier_plantvillage_0_split_1
I0403 18:34:58.176420  7137 net.cpp:399] loss3/classifier_plantvillage_loss3/classifier_plantvillage_0_split -> loss3/classifier_plantvillage_loss3/classifier_plantvillage_0_split_2
I0403 18:34:58.176441  7137 net.cpp:399] loss3/classifier_plantvillage_loss3/classifier_plantvillage_0_split -> loss3/classifier_plantvillage_loss3/classifier_plantvillage_0_split_3
I0403 18:34:58.176545  7137 net.cpp:141] Setting up loss3/classifier_plantvillage_loss3/classifier_plantvillage_0_split
I0403 18:34:58.176573  7137 net.cpp:148] Top shape: 24 38 (912)
I0403 18:34:58.176589  7137 net.cpp:148] Top shape: 24 38 (912)
I0403 18:34:58.176604  7137 net.cpp:148] Top shape: 24 38 (912)
I0403 18:34:58.176620  7137 net.cpp:148] Top shape: 24 38 (912)
I0403 18:34:58.176635  7137 net.cpp:156] Memory required for data: 1346079072
I0403 18:34:58.176650  7137 layer_factory.hpp:77] Creating layer loss1/loss
I0403 18:34:58.176671  7137 net.cpp:91] Creating Layer loss1/loss
I0403 18:34:58.176690  7137 net.cpp:425] loss1/loss <- loss1/classifier_plantvillage_loss1/classifier_plantvillage_0_split_0
I0403 18:34:58.176720  7137 net.cpp:425] loss1/loss <- label_data_1_split_0
…
