…
I0403 18:18:33.317747  6798 net.cpp:313] The NetState phase (1) differed from the phase (0) specified by a rule in layer data
I0403 18:18:33.318913  6798 net.cpp:49] Initializing net from parameters: 
state {
  phase: TEST
}
layer {
  name: "data"
  type: "Data"
  top: "data"
  top: "label"
  include {
    phase: TEST
  }
  transform_param {
    mirror: false
    crop_size: 224
    mean_file: "/home/mohanty/data/final_dataset/lmdb/grayscale-40-60/mean.binaryproto"
  }
  data_param {
    source: "/home/mohanty/data/final_dataset/lmdb/grayscale-40-60/test_db"
    batch_size: 24
    backend: LMDB
  }
}
layer {
  name: "conv1/7x7_s2"
  type: "Convolution"
  bottom: "data"
  top: "conv1/7x7_s2"
  param {
    lr_mult: 1
    decay_mult: 1
  }
  param {
    lr_mult: 2
    decay_mult: 0
  }
  convolution_param {
    num_output: 64
    pad: 3
    kernel_size: 7
    stride: 2
    weight_filler {
      type: "xavier"
      std: 0.1
    }
    bias_filler {
      type: "constant"
      value: 0.2
    }
  }
}
layer {
  name: "conv1/relu_7x7"
  type: "ReLU"
  bottom: "conv1/7x7_s2"
  top: "conv1/7x7_s2"
}
layer {
  name: "pool1/3x3_s2"
  type: "Pooling"
  bottom: "conv1/7x7_s2"
  top: "pool1/3x3_s2"
  pooling_param {
    pool: MAX
    kernel_size: 3
    stride: 2
  }
}
layer {
  name: "pool1/norm1"
  type: "LRN"
  bottom: "pool1/3x3_s2"
  top: "pool1/norm1"
  lrn_param {
    local_size: 5
    alpha: 0.0001
    beta: 0.75
  }
}
layer {
  name: "conv2/3x3_reduce"
  type: "Convolution"
  bottom: "pool1/norm1"
  top: "conv2/3x3_reduce"
  param {
    lr_mult: 1
    decay_mult: 1
  }
  param {
    lr_mult: 2
    decay_mult: 0
  }
  convolution_param {
    num_output: 64
    kernel_size: 1
    weight_filler {
      type: "xavier"
      std: 0.1
    }
    bias_filler {
      type: "constant"
      value: 0.2
    }
  }
}
layer {
  name: "conv2/relu_3x3_reduce"
  type: "ReLU"
  bottom: "conv2/3x3_reduce"
  top: "conv2/3x3_reduce"
}
layer {
  name: "conv2/3x3"
  type: "Convolution"
  bottom: "conv2/3x3_reduce"
  top: "conv2/3x3"
  param {
    lr_mult: 1
    decay_mult: 1
  }
  param {
    lr_mult: 2
    decay_mult: 0
  }
  convolution_param {
    num_output: 192
    pad: 1
    kernel_size: 3
    weight_filler {
      type: "xavier"
      std: 0.03
    }
    bias_filler {
      type: "constant"
      value: 0.2
    }
  }
}
layer {
  name: "conv2/relu_3x3"
  type: "ReLU"
  bottom: "conv2/3x3"
  top: "conv2/3x3"
}
layer {
  name: "conv2/norm2"
  type: "LRN"
  bottom: "conv2/3x3"
  top: "conv2/norm2"
  lrn_param {
    local_size: 5
    alpha: 0.0001
    beta: 0.75
  }
}
layer {
  name: "pool2/3x3_s2"
  type: "Pooling"
  bottom: "conv2/norm2"
  top: "pool2/3x3_s2"
  pooling_param {
    pool: MAX
    kernel_size: 3
    stride: 2
  }
}
layer {
  name: "inception_3a/1x1"
  type: "Convolution"
  bottom: "pool2/3x3_s2"
  top: "inception_3a/1x1"
  param {
    lr_mult: 1
    decay_mult: 1
  }
  param {
    lr_mult: 2
    decay_mult: 0
  }
  convolution_param {
    num_output: 64
    kernel_size: 1
    weight_filler {
      type: "xavier"
      std: 0.03
    }
    bias_filler {
      type: "constant"
      value: 0.2
    }
  }
}
layer {
  name: "inception_3a/relu_1x1"
  type: "ReLU"
  bottom: "inception_3a/1x1"
  top: "inception_3a/1x1"
}
layer {
  name: "inception_3a/3x3_reduce"
  type: "Convolution"
  bottom: "pool2/3x3_s2"
  top: "inception_3a/3x3_reduce"
  param {
    lr_mult: 1
    decay_mult: 1
  }
  param {
    lr_mult: 2
    decay_mult: 0
  }
  convolution_param {
    num_output: 96
    kernel_size: 1
    weight_filler {
      type: "xavier"
      std: 0.09
    }
    bias_filler {
      type: "constant"
      value: 0.2
    }
  }
}
layer {
  name: "inception_3a/relu_3x3_reduce"
  type: "ReLU"
  bottom: "inception_3a/3x3_reduce"
  top: "inception_3a/3x3_reduce"
}
layer {
  name: "inception_3a/3x3"
  type: "Convolution"
  bottom: "inception_3a/3x3_reduce"
  top: "inception_3a/3x3"
  param {
    lr_mult: 1
    decay_mult: 1
  }
  param {
    lr_mult: 2
    decay_mult: 0
  }
  convolution_param {
    num_output: 128
    pad: 1
    kernel_size: 3
    weight_filler {
      type: "xavier"
      std: 0.03
    }
    bias_filler {
      type: "constant"
      value: 0.2
    }
  }
}
layer {
  name: "inception_3a/relu_3x3"
  type: "ReLU"
  bottom: "inception_3a/3x3"
  top: "inception_3a/3x3"
}
layer {
  name: "inception_3a/5x5_reduce"
  type: "Convolution"
  bottom: "pool2/3x3_s2"
  top: "inception_3a/5x5_reduce"
  param {
    lr_mult: 1
    decay_mult: 1
  }
  param {
    lr_mult: 2
    decay_mult: 0
  }
  convolution_param {
    num_output: 16
    kernel_size: 1
    weight_filler {
      type: "xavier"
      std: 0.2
    }
    bias_filler {
      type: "constant"
      value: 0.2
    }
  }
}
layer {
  name: "inception_3a/relu_5x5_reduce"
  type: "ReLU"
  bottom: "inception_3a/5x5_reduce"
  top: "inception_3a/5x5_reduce"
}
layer {
  name: "inception_3a/5x5"
  type: "Convolution"
  bottom: "inception_3a/5x5_reduce"
  top: "inception_3a/5x5"
  param {
    lr_mult: 1
    decay_mult: 1
  }
  param {
    lr_mult: 2
    decay_mult: 0
  }
  convolution_param {
    num_output: 32
    pad: 2
    kernel_size: 5
    weight_filler {
      type: "xavier"
      std: 0.03
    }
    bias_filler {
      type: "constant"
      value: 0.2
    }
  }
}
layer {
  name: "inception_3a/relu_5x5"
  type: "ReLU"
  bottom: "inception_3a/5x5"
  top: "inception_3a/5x5"
}
layer {
  name: "inception_3a/pool"
  type: "Pooling"
  bottom: "pool2/3x3_s2"
  top: "inception_3a/pool"
  pooling_param {
    pool: MAX
    kernel_size: 3
    stride: 1
    pad: 1
  }
}
layer {
  name: "inception_3a/pool_proj"
  type: "Convolution"
  bottom: "inception_3a/pool"
  top: "inception_3a/pool_proj"
  param {
    lr_mult: 1
    decay_mult: 1
  }
  param {
    lr_mult: 2
    decay_mult: 0
  }
  convolution_param {
    num_output: 32
    kernel_size: 1
    weight_filler {
      type: "xavier"
      std: 0.1
    }
    bias_filler {
      type: "constant"
      value: 0.2
    }
  }
}
layer {
  name: "inception_3a/relu_pool_proj"
  type: "ReLU"
  bottom: "inception_3a/pool_proj"
  top: "inception_3a/pool_proj"
}
layer {
  name: "inception_3a/output"
  type: "Concat"
  bottom: "inception_3a/1x1"
  bottom: "inception_3a/3x3"
  bottom: "inception_3a/5x5"
  bottom: "inception_3a/pool_proj"
  top: "inception_3a/output"
}
layer {
  name: "inception_3b/1x1"
  type: "Convolution"
  bottom: "inception_3a/output"
  top: "inception_3b/1x1"
  param {
    lr_mult: 1
    decay_mult: 1
  }
  param {
    lr_mult: 2
    decay_mult: 0
  }
  convolution_param {
    num_output: 128
    kernel_size: 1
    weight_filler {
      type: "xavier"
      std: 0.03
    }
    bias_filler {
      type: "constant"
      value: 0.2
    }
  }
}
layer {
  name: "inception_3b/relu_1x1"
  type: "ReLU"
  bottom: "inception_3b/1x1"
  top: "inception_3b/1x1"
}
layer {
  name: "inception_3b/3x3_reduce"
  type: "Convolution"
  bottom: "inception_3a/output"
  top: "inception_3b/3x3_reduce"
  param {
    lr_mult: 1
    decay_mult: 1
  }
  param {
    lr_mult: 2
    decay_mult: 0
  }
  convolution_param {
    num_output: 128
    kernel_size: 1
    weight_filler {
      type: "xavier"
      std: 0.09
    }
    bias_filler {
      type: "constant"
      value: 0.2
    }
  }
}
layer {
  name: "inception_3b/relu_3x3_reduce"
  type: "ReLU"
  bottom: "inception_3b/3x3_reduce"
  top: "inception_3b/3x3_reduce"
}
layer {
  name: "inception_3b/3x3"
  type: "Convolution"
  bottom: "inception_3b/3x3_reduce"
  top: "inception_3b/3x3"
  param {
    lr_mult: 1
    decay_mult: 1
  }
  param {
    lr_mult: 2
    decay_mult: 0
  }
  convolution_param {
    num_output: 192
    pad: 1
    kernel_size: 3
    weight_filler {
      type: "xavier"
      std: 0.03
    }
    bias_filler {
      type: "constant"
      value: 0.2
    }
  }
}
layer {
  name: "inception_3b/relu_3x3"
  type: "ReLU"
  bottom: "inception_3b/3x3"
  top: "inception_3b/3x3"
}
layer {
  name: "inception_3b/5x5_reduce"
  type: "Convolution"
  bottom: "inception_3a/output"
  top: "inception_3b/5x5_reduce"
  param {
    lr_mult: 1
    decay_mult: 1
  }
  param {
    lr_mult: 2
    decay_mult: 0
  }
  convolution_param {
    num_output: 32
    kernel_size: 1
    weight_filler {
      type: "xavier"
      std: 0.2
    }
    bias_filler {
      type: "constant"
      value: 0.2
    }
  }
}
layer {
  name: "inception_3b/relu_5x5_reduce"
  type: "ReLU"
  bottom: "inception_3b/5x5_reduce"
  top: "inception_3b/5x5_reduce"
}
layer {
  name: "inception_3b/5x5"
  type: "Convolution"
  bottom: "inception_3b/5x5_reduce"
  top: "inception_3b/5x5"
  param {
    lr_mult: 1
    decay_mult: 1
  }
  param {
    lr_mult: 2
    decay_mult: 0
  }
  convolution_param {
    num_output: 96
    pad: 2
    kernel_size: 5
    weight_filler {
      type: "xavier"
      std: 0.03
    }
    bias_filler {
      type: "constant"
      value: 0.2
    }
  }
}
layer {
  name: "inception_3b/relu_5x5"
  type: "ReLU"
  bottom: "inception_3b/5x5"
  top: "inception_3b/5x5"
}
layer {
  name: "inception_3b/pool"
  type: "Pooling"
  bottom: "inception_3a/output"
  top: "inception_3b/pool"
  pooling_param {
    pool: MAX
    kernel_size: 3
    stride: 1
    pad: 1
  }
}
layer {
  name: "inception_3b/pool_proj"
  type: "Convolution"
  bottom: "inception_3b/pool"
  top: "inception_3b/pool_proj"
  param {
    lr_mult: 1
    decay_mult: 1
  }
  param {
    lr_mult: 2
    decay_mult: 0
  }
  convolution_param {
    num_output: 64
    kernel_size: 1
    weight_filler {
      type: "xavier"
      std: 0.1
    }
    bias_filler {
      type: "constant"
      value: 0.2
    }
  }
}
layer {
  name: "inception_3b/relu_pool_proj"
  type: "ReLU"
  bottom: "inception_3b/pool_proj"
  top: "inception_3b/pool_proj"
}
layer {
  name: "inception_3b/output"
  type: "Concat"
  bottom: "inception_3b/1x1"
  bottom: "inception_3b/3x3"
  bottom: "inception_3b/5x5"
  bottom: "inception_3b/pool_proj"
  top: "inception_3b/output"
}
layer {
  name: "pool3/3x3_s2"
  type: "Pooling"
  bottom: "inception_3b/output"
  top: "pool3/3x3_s2"
  pooling_param {
    pool: MAX
    kernel_size: 3
    stride: 2
  }
}
layer {
  name: "inception_4a/1x1"
  type: "Convolution"
  bottom: "pool3/3x3_s2"
  top: "inception_4a/1x1"
  param {
    lr_mult: 1
    decay_mult: 1
  }
  param {
    lr_mult: 2
    decay_mult: 0
  }
  convolution_param {
    num_output: 192
    kernel_size: 1
    weight_filler {
      type: "xavier"
      std: 0.03
    }
    bias_filler {
      type: "constant"
      value: 0.2
    }
  }
}
layer {
  name: "inception_4a/relu_1x1"
  type: "ReLU"
  bottom: "inception_4a/1x1"
  top: "inception_4a/1x1"
}
layer {
  name: "inception_4a/3x3_reduce"
  type: "Convolution"
  bottom: "pool3/3x3_s2"
  top: "inception_4a/3x3_reduce"
  param {
    lr_mult: 1
    decay_mult: 1
  }
  param {
    lr_mult: 2
    decay_mult: 0
  }
  convolution_param {
    num_output: 96
    kernel_size: 1
    weight_filler {
      type: "xavier"
      std: 0.09
    }
    bias_filler {
      type: "constant"
      value: 0.2
    }
  }
}
layer {
  name: "inception_4a/relu_3x3_reduce"
  type: "ReLU"
  bottom: "inception_4a/3x3_reduce"
  top: "inception_4a/3x3_reduce"
}
layer {
  name: "inception_4a/3x3"
  type: "Convolution"
  bottom: "inception_4a/3x3_reduce"
  top: "inception_4a/3x3"
  param {
    lr_mult: 1
    decay_mult: 1
  }
  param {
    lr_mult: 2
    decay_mult: 0
  }
  convolution_param {
    num_output: 208
    pad: 1
    kernel_size: 3
    weight_filler {
      type: "xavier"
      std: 0.03
    }
    bias_filler {
      type: "constant"
      value: 0.2
    }
  }
}
layer {
  name: "inception_4a/relu_3x3"
  type: "ReLU"
  bottom: "inception_4a/3x3"
  top: "inception_4a/3x3"
}
layer {
  name: "inception_4a/5x5_reduce"
  type: "Convolution"
  bottom: "pool3/3x3_s2"
  top: "inception_4a/5x5_reduce"
  param {
    lr_mult: 1
    decay_mult: 1
  }
  param {
    lr_mult: 2
    decay_mult: 0
  }
  convolution_param {
    num_output: 16
    kernel_size: 1
    weight_filler {
      type: "xavier"
      std: 0.2
    }
    bias_filler {
      type: "constant"
      value: 0.2
    }
  }
}
layer {
  name: "inception_4a/relu_5x5_reduce"
  type: "ReLU"
  bottom: "inception_4a/5x5_reduce"
  top: "inception_4a/5x5_reduce"
}
layer {
  name: "inception_4a/5x5"
  type: "Convolution"
  bottom: "inception_4a/5x5_reduce"
  top: "inception_4a/5x5"
  param {
    lr_mult: 1
    decay_mult: 1
  }
  param {
    lr_mult: 2
    decay_mult: 0
  }
  convolution_param {
    num_output: 48
    pad: 2
    kernel_size: 5
    weight_filler {
      type: "xavier"
      std: 0.03
    }
    bias_filler {
      type: "constant"
      value: 0.2
    }
  }
}
layer {
  name: "inception_4a/relu_5x5"
  type: "ReLU"
  bottom: "inception_4a/5x5"
  top: "inception_4a/5x5"
}
layer {
  name: "inception_4a/pool"
  type: "Pooling"
  bottom: "pool3/3x3_s2"
  top: "inception_4a/pool"
  pooling_param {
    pool: MAX
    kernel_size: 3
    stride: 1
    pad: 1
  }
}
layer {
  name: "inception_4a/pool_proj"
  type: "Convolution"
  bottom: "inception_4a/pool"
  top: "inception_4a/pool_proj"
  param {
    lr_mult: 1
    decay_mult: 1
  }
  param {
    lr_mult: 2
    decay_mult: 0
  }
  convolution_param {
    num_output: 64
    kernel_size: 1
    weight_filler {
      type: "xavier"
      std: 0.1
    }
    bias_filler {
      type: "constant"
      value: 0.2
    }
  }
}
layer {
  name: "inception_4a/relu_pool_proj"
  type: "ReLU"
  bottom: "inception_4a/pool_proj"
  top: "inception_4a/pool_proj"
}
layer {
  name: "inception_4a/output"
  type: "Concat"
  bottom: "inception_4a/1x1"
  bottom: "inception_4a/3x3"
  bottom: "inception_4a/5x5"
  bottom: "inception_4a/pool_proj"
  top: "inception_4a/output"
}
layer {
  name: "loss1/ave_pool"
  type: "Pooling"
  bottom: "inception_4a/output"
  top: "loss1/ave_pool"
  pooling_param {
    pool: AVE
    kernel_size: 5
    stride: 3
  }
}
layer {
  name: "loss1/conv"
  type: "Convolution"
  bottom: "loss1/ave_pool"
  top: "loss1/conv"
  param {
    lr_mult: 1
    decay_mult: 1
  }
  param {
    lr_mult: 2
    decay_mult: 0
  }
  convolution_param {
    num_output: 128
    kernel_size: 1
    weight_filler {
      type: "xavier"
      std: 0.08
    }
    bias_filler {
      type: "constant"
      value: 0.2
    }
  }
}
layer {
  name: "loss1/relu_conv"
  type: "ReLU"
  bottom: "loss1/conv"
  top: "loss1/conv"
}
layer {
  name: "loss1/fc"
  type: "InnerProduct"
  bottom: "loss1/conv"
  top: "loss1/fc"
  param {
    lr_mult: 1
    decay_mult: 1
  }
  param {
    lr_mult: 2
    decay_mult: 0
  }
  inner_product_param {
    num_output: 1024
    weight_filler {
      type: "xavier"
      std: 0.02
    }
    bias_filler {
      type: "constant"
      value: 0.2
    }
  }
}
layer {
  name: "loss1/relu_fc"
  type: "ReLU"
  bottom: "loss1/fc"
  top: "loss1/fc"
}
layer {
  name: "loss1/drop_fc"
  type: "Dropout"
  bottom: "loss1/fc"
  top: "loss1/fc"
  dropout_param {
    dropout_ratio: 0.7
  }
}
layer {
  name: "loss1/classifier_plantvillage"
  type: "InnerProduct"
  bottom: "loss1/fc"
  top: "loss1/classifier_plantvillage"
  param {
    lr_mult: 1
    decay_mult: 1
  }
  param {
    lr_mult: 2
    decay_mult: 0
  }
  inner_product_param {
    num_output: 38
    weight_filler {
      type: "xavier"
      std: 0.0009765625
    }
    bias_filler {
      type: "constant"
      value: 0
    }
  }
}
layer {
  name: "inception_4b/1x1"
  type: "Convolution"
  bottom: "inception_4a/output"
  top: "inception_4b/1x1"
  param {
    lr_mult: 1
    decay_mult: 1
  }
  param {
    lr_mult: 2
    decay_mult: 0
  }
  convolution_param {
    num_output: 160
    kernel_size: 1
    weight_filler {
      type: "xavier"
      std: 0.03
    }
    bias_filler {
      type: "constant"
      value: 0.2
    }
  }
}
layer {
  name: "inception_4b/relu_1x1"
  type: "ReLU"
  bottom: "inception_4b/1x1"
  top: "inception_4b/1x1"
}
layer {
  name: "inception_4b/3x3_reduce"
  type: "Convolution"
  bottom: "inception_4a/output"
  top: "inception_4b/3x3_reduce"
  param {
    lr_mult: 1
    decay_mult: 1
  }
  param {
    lr_mult: 2
    decay_mult: 0
  }
  convolution_param {
    num_output: 112
    kernel_size: 1
    weight_filler {
      type: "xavier"
      std: 0.09
    }
    bias_filler {
      type: "constant"
      value: 0.2
    }
  }
}
layer {
  name: "inception_4b/relu_3x3_reduce"
  type: "ReLU"
  bottom: "inception_4b/3x3_reduce"
  top: "inception_4b/3x3_reduce"
}
layer {
  name: "inception_4b/3x3"
  type: "Convolution"
  bottom: "inception_4b/3x3_reduce"
  top: "inception_4b/3x3"
  param {
    lr_mult: 1
    decay_mult: 1
  }
  param {
    lr_mult: 2
    decay_mult: 0
  }
  convolution_param {
    num_output: 224
    pad: 1
    kernel_size: 3
    weight_filler {
      type: "xavier"
      std: 0.03
    }
    bias_filler {
      type: "constant"
      value: 0.2
    }
  }
}
layer {
  name: "inception_4b/relu_3x3"
  type: "ReLU"
  bottom: "inception_4b/3x3"
  top: "inception_4b/3x3"
}
layer {
  name: "inception_4b/5x5_reduce"
  type: "Convolution"
  bottom: "inception_4a/output"
  top: "inception_4b/5x5_reduce"
  param {
    lr_mult: 1
    decay_mult: 1
  }
  param {
    lr_mult: 2
    decay_mult: 0
  }
  convolution_param {
    num_output: 24
    kernel_size: 1
    weight_filler {
      type: "xavier"
      std: 0.2
    }
    bias_filler {
      type: "constant"
      value: 0.2
    }
  }
}
layer {
  name: "inception_4b/relu_5x5_reduce"
  type: "ReLU"
  bottom: "inception_4b/5x5_reduce"
  top: "inception_4b/5x5_reduce"
}
layer {
  name: "inception_4b/5x5"
  type: "Convolution"
  bottom: "inception_4b/5x5_reduce"
  top: "inception_4b/5x5"
  param {
    lr_mult: 1
    decay_mult: 1
  }
  param {
    lr_mult: 2
    decay_mult: 0
  }
  convolution_param {
    num_output: 64
    pad: 2
    kernel_size: 5
    weight_filler {
      type: "xavier"
      std: 0.03
    }
    bias_filler {
      type: "constant"
      value: 0.2
    }
  }
}
layer {
  name: "inception_4b/relu_5x5"
  type: "ReLU"
  bottom: "inception_4b/5x5"
  top: "inception_4b/5x5"
}
layer {
  name: "inception_4b/pool"
  type: "Pooling"
  bottom: "inception_4a/output"
  top: "inception_4b/pool"
  pooling_param {
    pool: MAX
    kernel_size: 3
    stride: 1
    pad: 1
  }
}
layer {
  name: "inception_4b/pool_proj"
  type: "Convolution"
  bottom: "inception_4b/pool"
  top: "inception_4b/pool_proj"
  param {
    lr_mult: 1
    decay_mult: 1
  }
  param {
    lr_mult: 2
    decay_mult: 0
  }
  convolution_param {
    num_output: 64
    kernel_size: 1
    weight_filler {
      type: "xavier"
      std: 0.1
    }
    bias_filler {
      type: "constant"
      value: 0.2
    }
  }
}
layer {
  name: "inception_4b/relu_pool_proj"
  type: "ReLU"
  bottom: "inception_4b/pool_proj"
  top: "inception_4b/pool_proj"
}
layer {
  name: "inception_4b/output"
  type: "Concat"
  bottom: "inception_4b/1x1"
  bottom: "inception_4b/3x3"
  bottom: "inception_4b/5x5"
  bottom: "inception_4b/pool_proj"
  top: "inception_4b/output"
}
layer {
  name: "inception_4c/1x1"
  type: "Convolution"
  bottom: "inception_4b/output"
  top: "inception_4c/1x1"
  param {
    lr_mult: 1
    decay_mult: 1
  }
  param {
    lr_mult: 2
    decay_mult: 0
  }
  convolution_param {
    num_output: 128
    kernel_size: 1
    weight_filler {
      type: "xavier"
      std: 0.03
    }
    bias_filler {
      type: "constant"
      value: 0.2
    }
  }
}
layer {
  name: "inception_4c/relu_1x1"
  type: "ReLU"
  bottom: "inception_4c/1x1"
  top: "inception_4c/1x1"
}
layer {
  name: "inception_4c/3x3_reduce"
  type: "Convolution"
  bottom: "inception_4b/output"
  top: "inception_4c/3x3_reduce"
  param {
    lr_mult: 1
    decay_mult: 1
  }
  param {
    lr_mult: 2
    decay_mult: 0
  }
  convolution_param {
    num_output: 128
    kernel_size: 1
    weight_filler {
      type: "xavier"
      std: 0.09
    }
    bias_filler {
      type: "constant"
      value: 0.2
    }
  }
}
layer {
  name: "inception_4c/relu_3x3_reduce"
  type: "ReLU"
  bottom: "inception_4c/3x3_reduce"
  top: "inception_4c/3x3_reduce"
}
layer {
  name: "inception_4c/3x3"
  type: "Convolution"
  bottom: "inception_4c/3x3_reduce"
  top: "inception_4c/3x3"
  param {
    lr_mult: 1
    decay_mult: 1
  }
  param {
    lr_mult: 2
    decay_mult: 0
  }
  convolution_param {
    num_output: 256
    pad: 1
    kernel_size: 3
    weight_filler {
      type: "xavier"
      std: 0.03
    }
    bias_filler {
      type: "constant"
      value: 0.2
    }
  }
}
layer {
  name: "inception_4c/relu_3x3"
  type: "ReLU"
  bottom: "inception_4c/3x3"
  top: "inception_4c/3x3"
}
layer {
  name: "inception_4c/5x5_reduce"
  type: "Convolution"
  bottom: "inception_4b/output"
  top: "inception_4c/5x5_reduce"
  param {
    lr_mult: 1
    decay_mult: 1
  }
  param {
    lr_mult: 2
    decay_mult: 0
  }
  convolution_param {
    num_output: 24
    kernel_size: 1
    weight_filler {
      type: "xavier"
      std: 0.2
    }
    bias_filler {
      type: "constant"
      value: 0.2
    }
  }
}
layer {
  name: "inception_4c/relu_5x5_reduce"
  type: "ReLU"
  bottom: "inception_4c/5x5_reduce"
  top: "inception_4c/5x5_reduce"
}
layer {
  name: "inception_4c/5x5"
  type: "Convolution"
  bottom: "inception_4c/5x5_reduce"
  top: "inception_4c/5x5"
  param {
    lr_mult: 1
    decay_mult: 1
  }
  param {
    lr_mult: 2
    decay_mult: 0
  }
  convolution_param {
    num_output: 64
    pad: 2
    kernel_size: 5
    weight_filler {
      type: "xavier"
      std: 0.03
    }
    bias_filler {
      type: "constant"
      value: 0.2
    }
  }
}
layer {
  name: "inception_4c/relu_5x5"
  type: "ReLU"
  bottom: "inception_4c/5x5"
  top: "inception_4c/5x5"
}
layer {
  name: "inception_4c/pool"
  type: "Pooling"
  bottom: "inception_4b/output"
  top: "inception_4c/pool"
  pooling_param {
    pool: MAX
    kernel_size: 3
    stride: 1
    pad: 1
  }
}
layer {
  name: "inception_4c/pool_proj"
  type: "Convolution"
  bottom: "inception_4c/pool"
  top: "inception_4c/pool_proj"
  param {
    lr_mult: 1
    decay_mult: 1
  }
  param {
    lr_mult: 2
    decay_mult: 0
  }
  convolution_param {
    num_output: 64
    kernel_size: 1
    weight_filler {
      type: "xavier"
      std: 0.1
    }
    bias_filler {
      type: "constant"
      value: 0.2
    }
  }
}
layer {
  name: "inception_4c/relu_pool_proj"
  type: "ReLU"
  bottom: "inception_4c/pool_proj"
  top: "inception_4c/pool_proj"
}
layer {
  name: "inception_4c/output"
  type: "Concat"
  bottom: "inception_4c/1x1"
  bottom: "inception_4c/3x3"
  bottom: "inception_4c/5x5"
  bottom: "inception_4c/pool_proj"
  top: "inception_4c/output"
}
layer {
  name: "inception_4d/1x1"
  type: "Convolution"
  bottom: "inception_4c/output"
  top: "inception_4d/1x1"
  param {
    lr_mult: 1
    decay_mult: 1
  }
  param {
    lr_mult: 2
    decay_mult: 0
  }
  convolution_param {
    num_output: 112
    kernel_size: 1
    weight_filler {
      type: "xavier"
      std: 0.03
    }
    bias_filler {
      type: "constant"
      value: 0.2
    }
  }
}
layer {
  name: "inception_4d/relu_1x1"
  type: "ReLU"
  bottom: "inception_4d/1x1"
  top: "inception_4d/1x1"
}
layer {
  name: "inception_4d/3x3_reduce"
  type: "Convolution"
  bottom: "inception_4c/output"
  top: "inception_4d/3x3_reduce"
  param {
    lr_mult: 1
    decay_mult: 1
  }
  param {
    lr_mult: 2
    decay_mult: 0
  }
  convolution_param {
    num_output: 144
    kernel_size: 1
    weight_filler {
      type: "xavier"
      std: 0.09
    }
    bias_filler {
      type: "constant"
      value: 0.2
    }
  }
}
layer {
  name: "inception_4d/relu_3x3_reduce"
  type: "ReLU"
  bottom: "inception_4d/3x3_reduce"
  top: "inception_4d/3x3_reduce"
}
layer {
  name: "inception_4d/3x3"
  type: "Convolution"
  bottom: "inception_4d/3x3_reduce"
  top: "inception_4d/3x3"
  param {
    lr_mult: 1
    decay_mult: 1
  }
  param {
    lr_mult: 2
    decay_mult: 0
  }
  convolution_param {
    num_output: 288
    pad: 1
    kernel_size: 3
    weight_filler {
      type: "xavier"
      std: 0.03
    }
    bias_filler {
      type: "constant"
      value: 0.2
    }
  }
}
layer {
  name: "inception_4d/relu_3x3"
  type: "ReLU"
  bottom: "inception_4d/3x3"
  top: "inception_4d/3x3"
}
layer {
  name: "inception_4d/5x5_reduce"
  type: "Convolution"
  bottom: "inception_4c/output"
  top: "inception_4d/5x5_reduce"
  param {
    lr_mult: 1
    decay_mult: 1
  }
  param {
    lr_mult: 2
    decay_mult: 0
  }
  convolution_param {
    num_output: 32
    kernel_size: 1
    weight_filler {
      type: "xavier"
      std: 0.2
    }
    bias_filler {
      type: "constant"
      value: 0.2
    }
  }
}
layer {
  name: "inception_4d/relu_5x5_reduce"
  type: "ReLU"
  bottom: "inception_4d/5x5_reduce"
  top: "inception_4d/5x5_reduce"
}
layer {
  name: "inception_4d/5x5"
  type: "Convolution"
  bottom: "inception_4d/5x5_reduce"
  top: "inception_4d/5x5"
  param {
    lr_mult: 1
    decay_mult: 1
  }
  param {
    lr_mult: 2
    decay_mult: 0
  }
  convolution_param {
    num_output: 64
    pad: 2
    kernel_size: 5
    weight_filler {
      type: "xavier"
      std: 0.03
    }
    bias_filler {
      type: "constant"
      value: 0.2
    }
  }
}
layer {
  name: "inception_4d/relu_5x5"
  type: "ReLU"
  bottom: "inception_4d/5x5"
  top: "inception_4d/5x5"
}
layer {
  name: "inception_4d/pool"
  type: "Pooling"
  bottom: "inception_4c/output"
  top: "inception_4d/pool"
  pooling_param {
    pool: MAX
    kernel_size: 3
    stride: 1
    pad: 1
  }
}
layer {
  name: "inception_4d/pool_proj"
  type: "Convolution"
  bottom: "inception_4d/pool"
  top: "inception_4d/pool_proj"
  param {
    lr_mult: 1
    decay_mult: 1
  }
  param {
    lr_mult: 2
    decay_mult: 0
  }
  convolution_param {
    num_output: 64
    kernel_size: 1
    weight_filler {
      type: "xavier"
      std: 0.1
    }
    bias_filler {
      type: "constant"
      value: 0.2
    }
  }
}
layer {
  name: "inception_4d/relu_pool_proj"
  type: "ReLU"
  bottom: "inception_4d/pool_proj"
  top: "inception_4d/pool_proj"
}
layer {
  name: "inception_4d/output"
  type: "Concat"
  bottom: "inception_4d/1x1"
  bottom: "inception_4d/3x3"
  bottom: "inception_4d/5x5"
  bottom: "inception_4d/pool_proj"
  top: "inception_4d/output"
}
layer {
  name: "loss2/ave_pool"
  type: "Pooling"
  bottom: "inception_4d/output"
  top: "loss2/ave_pool"
  pooling_param {
    pool: AVE
    kernel_size: 5
    stride: 3
  }
}
layer {
  name: "loss2/conv"
  type: "Convolution"
  bottom: "loss2/ave_pool"
  top: "loss2/conv"
  param {
    lr_mult: 1
    decay_mult: 1
  }
  param {
    lr_mult: 2
    decay_mult: 0
  }
  convolution_param {
    num_output: 128
    kernel_size: 1
    weight_filler {
      type: "xavier"
      std: 0.08
    }
    bias_filler {
      type: "constant"
      value: 0.2
    }
  }
}
layer {
  name: "loss2/relu_conv"
  type: "ReLU"
  bottom: "loss2/conv"
  top: "loss2/conv"
}
layer {
  name: "loss2/fc"
  type: "InnerProduct"
  bottom: "loss2/conv"
  top: "loss2/fc"
  param {
    lr_mult: 1
    decay_mult: 1
  }
  param {
    lr_mult: 2
    decay_mult: 0
  }
  inner_product_param {
    num_output: 1024
    weight_filler {
      type: "xavier"
      std: 0.02
    }
    bias_filler {
      type: "constant"
      value: 0.2
    }
  }
}
layer {
  name: "loss2/relu_fc"
  type: "ReLU"
  bottom: "loss2/fc"
  top: "loss2/fc"
}
layer {
  name: "loss2/drop_fc"
  type: "Dropout"
  bottom: "loss2/fc"
  top: "loss2/fc"
  dropout_param {
    dropout_ratio: 0.7
  }
}
layer {
  name: "loss2/classifier_plantvillage"
  type: "InnerProduct"
  bottom: "loss2/fc"
  top: "loss2/classifier_plantvillage"
  param {
    lr_mult: 1
    decay_mult: 1
  }
  param {
    lr_mult: 2
    decay_mult: 0
  }
  inner_product_param {
    num_output: 38
    weight_filler {
      type: "xavier"
      std: 0.0009765625
    }
    bias_filler {
      type: "constant"
      value: 0
    }
  }
}
layer {
  name: "inception_4e/1x1"
  type: "Convolution"
  bottom: "inception_4d/output"
  top: "inception_4e/1x1"
  param {
    lr_mult: 1
    decay_mult: 1
  }
  param {
    lr_mult: 2
    decay_mult: 0
  }
  convolution_param {
    num_output: 256
    kernel_size: 1
    weight_filler {
      type: "xavier"
      std: 0.03
    }
    bias_filler {
      type: "constant"
      value: 0.2
    }
  }
}
layer {
  name: "inception_4e/relu_1x1"
  type: "ReLU"
  bottom: "inception_4e/1x1"
  top: "inception_4e/1x1"
}
layer {
  name: "inception_4e/3x3_reduce"
  type: "Convolution"
  bottom: "inception_4d/output"
  top: "inception_4e/3x3_reduce"
  param {
    lr_mult: 1
    decay_mult: 1
  }
  param {
    lr_mult: 2
    decay_mult: 0
  }
  convolution_param {
    num_output: 160
    kernel_size: 1
    weight_filler {
      type: "xavier"
      std: 0.09
    }
    bias_filler {
      type: "constant"
      value: 0.2
    }
  }
}
layer {
  name: "inception_4e/relu_3x3_reduce"
  type: "ReLU"
  bottom: "inception_4e/3x3_reduce"
  top: "inception_4e/3x3_reduce"
}
layer {
  name: "inception_4e/3x3"
  type: "Convolution"
  bottom: "inception_4e/3x3_reduce"
  top: "inception_4e/3x3"
  param {
    lr_mult: 1
    decay_mult: 1
  }
  param {
    lr_mult: 2
    decay_mult: 0
  }
  convolution_param {
    num_output: 320
    pad: 1
    kernel_size: 3
    weight_filler {
      type: "xavier"
      std: 0.03
    }
    bias_filler {
      type: "constant"
      value: 0.2
    }
  }
}
layer {
  name: "inception_4e/relu_3x3"
  type: "ReLU"
  bottom: "inception_4e/3x3"
  top: "inception_4e/3x3"
}
layer {
  name: "inception_4e/5x5_reduce"
  type: "Convolution"
  bottom: "inception_4d/output"
  top: "inception_4e/5x5_reduce"
  param {
    lr_mult: 1
    decay_mult: 1
  }
  param {
    lr_mult: 2
    decay_mult: 0
  }
  convolution_param {
    num_output: 32
    kernel_size: 1
    weight_filler {
      type: "xavier"
      std: 0.2
    }
    bias_filler {
      type: "constant"
      value: 0.2
    }
  }
}
layer {
  name: "inception_4e/relu_5x5_reduce"
  type: "ReLU"
  bottom: "inception_4e/5x5_reduce"
  top: "inception_4e/5x5_reduce"
}
layer {
  name: "inception_4e/5x5"
  type: "Convolution"
  bottom: "inception_4e/5x5_reduce"
  top: "inception_4e/
I0403 18:18:33.320613  6798 layer_factory.hpp:77] Creating layer data
I0403 18:18:33.321219  6798 net.cpp:91] Creating Layer data
I0403 18:18:33.321256  6798 net.cpp:399] data -> data
I0403 18:18:33.321310  6798 net.cpp:399] data -> label
I0403 18:18:33.321346  6798 data_transformer.cpp:25] Loading mean file from: /home/mohanty/data/final_dataset/lmdb/grayscale-40-60/mean.binaryproto
I0403 18:18:33.322459  6800 db_lmdb.cpp:38] Opened lmdb /home/mohanty/data/final_dataset/lmdb/grayscale-40-60/test_db
I0403 18:18:33.335378  6798 data_layer.cpp:41] output data size: 24,3,224,224
I0403 18:18:33.364027  6798 net.cpp:141] Setting up data
I0403 18:18:33.364102  6798 net.cpp:148] Top shape: 24 3 224 224 (3612672)
I0403 18:18:33.364125  6798 net.cpp:148] Top shape: 24 (24)
I0403 18:18:33.364140  6798 net.cpp:156] Memory required for data: 14450784
I0403 18:18:33.364166  6798 layer_factory.hpp:77] Creating layer label_data_1_split
I0403 18:18:33.364190  6798 net.cpp:91] Creating Layer label_data_1_split
I0403 18:18:33.364207  6798 net.cpp:425] label_data_1_split <- label
I0403 18:18:33.364243  6798 net.cpp:399] label_data_1_split -> label_data_1_split_0
I0403 18:18:33.364270  6798 net.cpp:399] label_data_1_split -> label_data_1_split_1
I0403 18:18:33.364291  6798 net.cpp:399] label_data_1_split -> label_data_1_split_2
I0403 18:18:33.364311  6798 net.cpp:399] label_data_1_split -> label_data_1_split_3
I0403 18:18:33.364329  6798 net.cpp:399] label_data_1_split -> label_data_1_split_4
I0403 18:18:33.364348  6798 net.cpp:399] label_data_1_split -> label_data_1_split_5
I0403 18:18:33.364367  6798 net.cpp:399] label_data_1_split -> label_data_1_split_6
I0403 18:18:33.364387  6798 net.cpp:399] label_data_1_split -> label_data_1_split_7
I0403 18:18:33.364406  6798 net.cpp:399] label_data_1_split -> label_data_1_split_8
I0403 18:18:33.364425  6798 net.cpp:399] label_data_1_split -> label_data_1_split_9
I0403 18:18:33.364540  6798 net.cpp:141] Setting up label_data_1_split
I0403 18:18:33.364563  6798 net.cpp:148] Top shape: 24 (24)
I0403 18:18:33.364581  6798 net.cpp:148] Top shape: 24 (24)
I0403 18:18:33.364598  6798 net.cpp:148] Top shape: 24 (24)
I0403 18:18:33.364614  6798 net.cpp:148] Top shape: 24 (24)
I0403 18:18:33.364629  6798 net.cpp:148] Top shape: 24 (24)
I0403 18:18:33.364645  6798 net.cpp:148] Top shape: 24 (24)
I0403 18:18:33.364660  6798 net.cpp:148] Top shape: 24 (24)
I0403 18:18:33.364676  6798 net.cpp:148] Top shape: 24 (24)
I0403 18:18:33.364692  6798 net.cpp:148] Top shape: 24 (24)
I0403 18:18:33.364711  6798 net.cpp:148] Top shape: 24 (24)
I0403 18:18:33.364773  6798 net.cpp:156] Memory required for data: 14451744
I0403 18:18:33.364789  6798 layer_factory.hpp:77] Creating layer conv1/7x7_s2
I0403 18:18:33.364821  6798 net.cpp:91] Creating Layer conv1/7x7_s2
I0403 18:18:33.364852  6798 net.cpp:425] conv1/7x7_s2 <- data
I0403 18:18:33.364873  6798 net.cpp:399] conv1/7x7_s2 -> conv1/7x7_s2
I0403 18:18:33.512747  6798 net.cpp:141] Setting up conv1/7x7_s2
I0403 18:18:33.512856  6798 net.cpp:148] Top shape: 24 64 112 112 (19267584)
I0403 18:18:33.512874  6798 net.cpp:156] Memory required for data: 91522080
I0403 18:18:33.512905  6798 layer_factory.hpp:77] Creating layer conv1/relu_7x7
I0403 18:18:33.512934  6798 net.cpp:91] Creating Layer conv1/relu_7x7
I0403 18:18:33.512953  6798 net.cpp:425] conv1/relu_7x7 <- conv1/7x7_s2
I0403 18:18:33.512974  6798 net.cpp:386] conv1/relu_7x7 -> conv1/7x7_s2 (in-place)
I0403 18:18:33.513237  6798 net.cpp:141] Setting up conv1/relu_7x7
I0403 18:18:33.513270  6798 net.cpp:148] Top shape: 24 64 112 112 (19267584)
I0403 18:18:33.513288  6798 net.cpp:156] Memory required for data: 168592416
I0403 18:18:33.513303  6798 layer_factory.hpp:77] Creating layer pool1/3x3_s2
I0403 18:18:33.513330  6798 net.cpp:91] Creating Layer pool1/3x3_s2
I0403 18:18:33.513350  6798 net.cpp:425] pool1/3x3_s2 <- conv1/7x7_s2
I0403 18:18:33.513370  6798 net.cpp:399] pool1/3x3_s2 -> pool1/3x3_s2
I0403 18:18:33.513447  6798 net.cpp:141] Setting up pool1/3x3_s2
I0403 18:18:33.513473  6798 net.cpp:148] Top shape: 24 64 56 56 (4816896)
I0403 18:18:33.513489  6798 net.cpp:156] Memory required for data: 187860000
I0403 18:18:33.513504  6798 layer_factory.hpp:77] Creating layer pool1/norm1
I0403 18:18:33.513530  6798 net.cpp:91] Creating Layer pool1/norm1
I0403 18:18:33.513548  6798 net.cpp:425] pool1/norm1 <- pool1/3x3_s2
I0403 18:18:33.513567  6798 net.cpp:399] pool1/norm1 -> pool1/norm1
I0403 18:18:33.513869  6798 net.cpp:141] Setting up pool1/norm1
I0403 18:18:33.513896  6798 net.cpp:148] Top shape: 24 64 56 56 (4816896)
I0403 18:18:33.513913  6798 net.cpp:156] Memory required for data: 207127584
I0403 18:18:33.513929  6798 layer_factory.hpp:77] Creating layer conv2/3x3_reduce
I0403 18:18:33.513957  6798 net.cpp:91] Creating Layer conv2/3x3_reduce
I0403 18:18:33.513977  6798 net.cpp:425] conv2/3x3_reduce <- pool1/norm1
I0403 18:18:33.513998  6798 net.cpp:399] conv2/3x3_reduce -> conv2/3x3_reduce
I0403 18:18:33.515413  6798 net.cpp:141] Setting up conv2/3x3_reduce
I0403 18:18:33.515444  6798 net.cpp:148] Top shape: 24 64 56 56 (4816896)
I0403 18:18:33.515461  6798 net.cpp:156] Memory required for data: 226395168
I0403 18:18:33.515483  6798 layer_factory.hpp:77] Creating layer conv2/relu_3x3_reduce
I0403 18:18:33.515502  6798 net.cpp:91] Creating Layer conv2/relu_3x3_reduce
I0403 18:18:33.515518  6798 net.cpp:425] conv2/relu_3x3_reduce <- conv2/3x3_reduce
I0403 18:18:33.515537  6798 net.cpp:386] conv2/relu_3x3_reduce -> conv2/3x3_reduce (in-place)
I0403 18:18:33.515799  6798 net.cpp:141] Setting up conv2/relu_3x3_reduce
I0403 18:18:33.515826  6798 net.cpp:148] Top shape: 24 64 56 56 (4816896)
I0403 18:18:33.515842  6798 net.cpp:156] Memory required for data: 245662752
I0403 18:18:33.515859  6798 layer_factory.hpp:77] Creating layer conv2/3x3
I0403 18:18:33.515882  6798 net.cpp:91] Creating Layer conv2/3x3
I0403 18:18:33.515900  6798 net.cpp:425] conv2/3x3 <- conv2/3x3_reduce
I0403 18:18:33.515919  6798 net.cpp:399] conv2/3x3 -> conv2/3x3
I0403 18:18:33.518265  6798 net.cpp:141] Setting up conv2/3x3
I0403 18:18:33.518296  6798 net.cpp:148] Top shape: 24 192 56 56 (14450688)
I0403 18:18:33.518313  6798 net.cpp:156] Memory required for data: 303465504
I0403 18:18:33.518335  6798 layer_factory.hpp:77] Creating layer conv2/relu_3x3
I0403 18:18:33.518357  6798 net.cpp:91] Creating Layer conv2/relu_3x3
I0403 18:18:33.518373  6798 net.cpp:425] conv2/relu_3x3 <- conv2/3x3
I0403 18:18:33.518391  6798 net.cpp:386] conv2/relu_3x3 -> conv2/3x3 (in-place)
I0403 18:18:33.518560  6798 net.cpp:141] Setting up conv2/relu_3x3
I0403 18:18:33.518586  6798 net.cpp:148] Top shape: 24 192 56 56 (14450688)
I0403 18:18:33.518638  6798 net.cpp:156] Memory required for data: 361268256
I0403 18:18:33.518656  6798 layer_factory.hpp:77] Creating layer conv2/norm2
I0403 18:18:33.518677  6798 net.cpp:91] Creating Layer conv2/norm2
I0403 18:18:33.518694  6798 net.cpp:425] conv2/norm2 <- conv2/3x3
I0403 18:18:33.518713  6798 net.cpp:399] conv2/norm2 -> conv2/norm2
I0403 18:18:33.519021  6798 net.cpp:141] Setting up conv2/norm2
I0403 18:18:33.519049  6798 net.cpp:148] Top shape: 24 192 56 56 (14450688)
I0403 18:18:33.519065  6798 net.cpp:156] Memory required for data: 419071008
I0403 18:18:33.519081  6798 layer_factory.hpp:77] Creating layer pool2/3x3_s2
I0403 18:18:33.519100  6798 net.cpp:91] Creating Layer pool2/3x3_s2
I0403 18:18:33.519119  6798 net.cpp:425] pool2/3x3_s2 <- conv2/norm2
I0403 18:18:33.519137  6798 net.cpp:399] pool2/3x3_s2 -> pool2/3x3_s2
I0403 18:18:33.519189  6798 net.cpp:141] Setting up pool2/3x3_s2
I0403 18:18:33.519217  6798 net.cpp:148] Top shape: 24 192 28 28 (3612672)
I0403 18:18:33.519232  6798 net.cpp:156] Memory required for data: 433521696
I0403 18:18:33.519253  6798 layer_factory.hpp:77] Creating layer pool2/3x3_s2_pool2/3x3_s2_0_split
I0403 18:18:33.519273  6798 net.cpp:91] Creating Layer pool2/3x3_s2_pool2/3x3_s2_0_split
I0403 18:18:33.519289  6798 net.cpp:425] pool2/3x3_s2_pool2/3x3_s2_0_split <- pool2/3x3_s2
I0403 18:18:33.519309  6798 net.cpp:399] pool2/3x3_s2_pool2/3x3_s2_0_split -> pool2/3x3_s2_pool2/3x3_s2_0_split_0
I0403 18:18:33.519330  6798 net.cpp:399] pool2/3x3_s2_pool2/3x3_s2_0_split -> pool2/3x3_s2_pool2/3x3_s2_0_split_1
I0403 18:18:33.519350  6798 net.cpp:399] pool2/3x3_s2_pool2/3x3_s2_0_split -> pool2/3x3_s2_pool2/3x3_s2_0_split_2
I0403 18:18:33.519369  6798 net.cpp:399] pool2/3x3_s2_pool2/3x3_s2_0_split -> pool2/3x3_s2_pool2/3x3_s2_0_split_3
I0403 18:18:33.519438  6798 net.cpp:141] Setting up pool2/3x3_s2_pool2/3x3_s2_0_split
I0403 18:18:33.519462  6798 net.cpp:148] Top shape: 24 192 28 28 (3612672)
I0403 18:18:33.519479  6798 net.cpp:148] Top shape: 24 192 28 28 (3612672)
I0403 18:18:33.519496  6798 net.cpp:148] Top shape: 24 192 28 28 (3612672)
I0403 18:18:33.519512  6798 net.cpp:148] Top shape: 24 192 28 28 (3612672)
I0403 18:18:33.519526  6798 net.cpp:156] Memory required for data: 491324448
I0403 18:18:33.519542  6798 layer_factory.hpp:77] Creating layer inception_3a/1x1
I0403 18:18:33.519563  6798 net.cpp:91] Creating Layer inception_3a/1x1
I0403 18:18:33.519580  6798 net.cpp:425] inception_3a/1x1 <- pool2/3x3_s2_pool2/3x3_s2_0_split_0
I0403 18:18:33.519599  6798 net.cpp:399] inception_3a/1x1 -> inception_3a/1x1
I0403 18:18:33.521139  6798 net.cpp:141] Setting up inception_3a/1x1
I0403 18:18:33.521170  6798 net.cpp:148] Top shape: 24 64 28 28 (1204224)
I0403 18:18:33.521188  6798 net.cpp:156] Memory required for data: 496141344
I0403 18:18:33.521208  6798 layer_factory.hpp:77] Creating layer inception_3a/relu_1x1
I0403 18:18:33.521226  6798 net.cpp:91] Creating Layer inception_3a/relu_1x1
I0403 18:18:33.521247  6798 net.cpp:425] inception_3a/relu_1x1 <- inception_3a/1x1
I0403 18:18:33.521266  6798 net.cpp:386] inception_3a/relu_1x1 -> inception_3a/1x1 (in-place)
I0403 18:18:33.521435  6798 net.cpp:141] Setting up inception_3a/relu_1x1
I0403 18:18:33.521462  6798 net.cpp:148] Top shape: 24 64 28 28 (1204224)
I0403 18:18:33.521477  6798 net.cpp:156] Memory required for data: 500958240
I0403 18:18:33.521492  6798 layer_factory.hpp:77] Creating layer inception_3a/3x3_reduce
I0403 18:18:33.521513  6798 net.cpp:91] Creating Layer inception_3a/3x3_reduce
I0403 18:18:33.521530  6798 net.cpp:425] inception_3a/3x3_reduce <- pool2/3x3_s2_pool2/3x3_s2_0_split_1
I0403 18:18:33.521550  6798 net.cpp:399] inception_3a/3x3_reduce -> inception_3a/3x3_reduce
I0403 18:18:33.523262  6798 net.cpp:141] Setting up inception_3a/3x3_reduce
I0403 18:18:33.523293  6798 net.cpp:148] Top shape: 24 96 28 28 (1806336)
I0403 18:18:33.523308  6798 net.cpp:156] Memory required for data: 508183584
I0403 18:18:33.523331  6798 layer_factory.hpp:77] Creating layer inception_3a/relu_3x3_reduce
I0403 18:18:33.523371  6798 net.cpp:91] Creating Layer inception_3a/relu_3x3_reduce
I0403 18:18:33.523391  6798 net.cpp:425] inception_3a/relu_3x3_reduce <- inception_3a/3x3_reduce
I0403 18:18:33.523411  6798 net.cpp:386] inception_3a/relu_3x3_reduce -> inception_3a/3x3_reduce (in-place)
I0403 18:18:33.523600  6798 net.cpp:141] Setting up inception_3a/relu_3x3_reduce
I0403 18:18:33.523630  6798 net.cpp:148] Top shape: 24 96 28 28 (1806336)
I0403 18:18:33.523646  6798 net.cpp:156] Memory required for data: 515408928
I0403 18:18:33.523661  6798 layer_factory.hpp:77] Creating layer inception_3a/3x3
I0403 18:18:33.523686  6798 net.cpp:91] Creating Layer inception_3a/3x3
I0403 18:18:33.523704  6798 net.cpp:425] inception_3a/3x3 <- inception_3a/3x3_reduce
I0403 18:18:33.523725  6798 net.cpp:399] inception_3a/3x3 -> inception_3a/3x3
I0403 18:18:33.525471  6798 net.cpp:141] Setting up inception_3a/3x3
I0403 18:18:33.525501  6798 net.cpp:148] Top shape: 24 128 28 28 (2408448)
I0403 18:18:33.525518  6798 net.cpp:156] Memory required for data: 525042720
I0403 18:18:33.525537  6798 layer_factory.hpp:77] Creating layer inception_3a/relu_3x3
I0403 18:18:33.525559  6798 net.cpp:91] Creating Layer inception_3a/relu_3x3
I0403 18:18:33.525576  6798 net.cpp:425] inception_3a/relu_3x3 <- inception_3a/3x3
I0403 18:18:33.525594  6798 net.cpp:386] inception_3a/relu_3x3 -> inception_3a/3x3 (in-place)
I0403 18:18:33.525879  6798 net.cpp:141] Setting up inception_3a/relu_3x3
I0403 18:18:33.525908  6798 net.cpp:148] Top shape: 24 128 28 28 (2408448)
I0403 18:18:33.525924  6798 net.cpp:156] Memory required for data: 534676512
I0403 18:18:33.525940  6798 layer_factory.hpp:77] Creating layer inception_3a/5x5_reduce
I0403 18:18:33.525965  6798 net.cpp:91] Creating Layer inception_3a/5x5_reduce
I0403 18:18:33.525990  6798 net.cpp:425] inception_3a/5x5_reduce <- pool2/3x3_s2_pool2/3x3_s2_0_split_2
I0403 18:18:33.526016  6798 net.cpp:399] inception_3a/5x5_reduce -> inception_3a/5x5_reduce
I0403 18:18:33.527039  6798 net.cpp:141] Setting up inception_3a/5x5_reduce
I0403 18:18:33.527070  6798 net.cpp:148] Top shape: 24 16 28 28 (301056)
I0403 18:18:33.527086  6798 net.cpp:156] Memory required for data: 535880736
I0403 18:18:33.527104  6798 layer_factory.hpp:77] Creating layer inception_3a/relu_5x5_reduce
I0403 18:18:33.527128  6798 net.cpp:91] Creating Layer inception_3a/relu_5x5_reduce
I0403 18:18:33.527146  6798 net.cpp:425] inception_3a/relu_5x5_reduce <- inception_3a/5x5_reduce
I0403 18:18:33.527165  6798 net.cpp:386] inception_3a/relu_5x5_reduce -> inception_3a/5x5_reduce (in-place)
I0403 18:18:33.527464  6798 net.cpp:141] Setting up inception_3a/relu_5x5_reduce
I0403 18:18:33.527495  6798 net.cpp:148] Top shape: 24 16 28 28 (301056)
I0403 18:18:33.527513  6798 net.cpp:156] Memory required for data: 537084960
I0403 18:18:33.527529  6798 layer_factory.hpp:77] Creating layer inception_3a/5x5
I0403 18:18:33.527551  6798 net.cpp:91] Creating Layer inception_3a/5x5
I0403 18:18:33.527568  6798 net.cpp:425] inception_3a/5x5 <- inception_3a/5x5_reduce
I0403 18:18:33.527592  6798 net.cpp:399] inception_3a/5x5 -> inception_3a/5x5
I0403 18:18:33.528666  6798 net.cpp:141] Setting up inception_3a/5x5
I0403 18:18:33.528695  6798 net.cpp:148] Top shape: 24 32 28 28 (602112)
I0403 18:18:33.528712  6798 net.cpp:156] Memory required for data: 539493408
I0403 18:18:33.528730  6798 layer_factory.hpp:77] Creating layer inception_3a/relu_5x5
I0403 18:18:33.528753  6798 net.cpp:91] Creating Layer inception_3a/relu_5x5
I0403 18:18:33.528770  6798 net.cpp:425] inception_3a/relu_5x5 <- inception_3a/5x5
I0403 18:18:33.528789  6798 net.cpp:386] inception_3a/relu_5x5 -> inception_3a/5x5 (in-place)
I0403 18:18:33.528970  6798 net.cpp:141] Setting up inception_3a/relu_5x5
I0403 18:18:33.528995  6798 net.cpp:148] Top shape: 24 32 28 28 (602112)
I0403 18:18:33.529011  6798 net.cpp:156] Memory required for data: 541901856
I0403 18:18:33.529026  6798 layer_factory.hpp:77] Creating layer inception_3a/pool
I0403 18:18:33.529048  6798 net.cpp:91] Creating Layer inception_3a/pool
I0403 18:18:33.529080  6798 net.cpp:425] inception_3a/pool <- pool2/3x3_s2_pool2/3x3_s2_0_split_3
I0403 18:18:33.529103  6798 net.cpp:399] inception_3a/pool -> inception_3a/pool
I0403 18:18:33.529166  6798 net.cpp:141] Setting up inception_3a/pool
I0403 18:18:33.529191  6798 net.cpp:148] Top shape: 24 192 28 28 (3612672)
I0403 18:18:33.529206  6798 net.cpp:156] Memory required for data: 556352544
I0403 18:18:33.529222  6798 layer_factory.hpp:77] Creating layer inception_3a/pool_proj
I0403 18:18:33.529249  6798 net.cpp:91] Creating Layer inception_3a/pool_proj
I0403 18:18:33.529269  6798 net.cpp:425] inception_3a/pool_proj <- inception_3a/pool
I0403 18:18:33.529291  6798 net.cpp:399] inception_3a/pool_proj -> inception_3a/pool_proj
I0403 18:18:33.530305  6798 net.cpp:141] Setting up inception_3a/pool_proj
I0403 18:18:33.530338  6798 net.cpp:148] Top shape: 24 32 28 28 (602112)
I0403 18:18:33.530354  6798 net.cpp:156] Memory required for data: 558760992
I0403 18:18:33.530377  6798 layer_factory.hpp:77] Creating layer inception_3a/relu_pool_proj
I0403 18:18:33.530400  6798 net.cpp:91] Creating Layer inception_3a/relu_pool_proj
I0403 18:18:33.530418  6798 net.cpp:425] inception_3a/relu_pool_proj <- inception_3a/pool_proj
I0403 18:18:33.530436  6798 net.cpp:386] inception_3a/relu_pool_proj -> inception_3a/pool_proj (in-place)
I0403 18:18:33.530725  6798 net.cpp:141] Setting up inception_3a/relu_pool_proj
I0403 18:18:33.530751  6798 net.cpp:148] Top shape: 24 32 28 28 (602112)
I0403 18:18:33.530767  6798 net.cpp:156] Memory required for data: 561169440
I0403 18:18:33.530784  6798 layer_factory.hpp:77] Creating layer inception_3a/output
I0403 18:18:33.530803  6798 net.cpp:91] Creating Layer inception_3a/output
I0403 18:18:33.530820  6798 net.cpp:425] inception_3a/output <- inception_3a/1x1
I0403 18:18:33.530838  6798 net.cpp:425] inception_3a/output <- inception_3a/3x3
I0403 18:18:33.530870  6798 net.cpp:425] inception_3a/output <- inception_3a/5x5
I0403 18:18:33.530887  6798 net.cpp:425] inception_3a/output <- inception_3a/pool_proj
I0403 18:18:33.530905  6798 net.cpp:399] inception_3a/output -> inception_3a/output
I0403 18:18:33.530951  6798 net.cpp:141] Setting up inception_3a/output
I0403 18:18:33.530977  6798 net.cpp:148] Top shape: 24 256 28 28 (4816896)
I0403 18:18:33.530994  6798 net.cpp:156] Memory required for data: 580437024
I0403 18:18:33.531009  6798 layer_factory.hpp:77] Creating layer inception_3a/output_inception_3a/output_0_split
I0403 18:18:33.531026  6798 net.cpp:91] Creating Layer inception_3a/output_inception_3a/output_0_split
I0403 18:18:33.531043  6798 net.cpp:425] inception_3a/output_inception_3a/output_0_split <- inception_3a/output
I0403 18:18:33.531065  6798 net.cpp:399] inception_3a/output_inception_3a/output_0_split -> inception_3a/output_inception_3a/output_0_split_0
I0403 18:18:33.531088  6798 net.cpp:399] inception_3a/output_inception_3a/output_0_split -> inception_3a/output_inception_3a/output_0_split_1
I0403 18:18:33.531111  6798 net.cpp:399] inception_3a/output_inception_3a/output_0_split -> inception_3a/output_inception_3a/output_0_split_2
I0403 18:18:33.531131  6798 net.cpp:399] inception_3a/output_inception_3a/output_0_split -> inception_3a/output_inception_3a/output_0_split_3
I0403 18:18:33.531209  6798 net.cpp:141] Setting up inception_3a/output_inception_3a/output_0_split
I0403 18:18:33.531234  6798 net.cpp:148] Top shape: 24 256 28 28 (4816896)
I0403 18:18:33.531255  6798 net.cpp:148] Top shape: 24 256 28 28 (4816896)
I0403 18:18:33.531273  6798 net.cpp:148] Top shape: 24 256 28 28 (4816896)
I0403 18:18:33.531291  6798 net.cpp:148] Top shape: 24 256 28 28 (4816896)
I0403 18:18:33.531306  6798 net.cpp:156] Memory required for data: 657507360
I0403 18:18:33.531321  6798 layer_factory.hpp:77] Creating layer inception_3b/1x1
I0403 18:18:33.531344  6798 net.cpp:91] Creating Layer inception_3b/1x1
I0403 18:18:33.531361  6798 net.cpp:425] inception_3b/1x1 <- inception_3a/output_inception_3a/output_0_split_0
I0403 18:18:33.531383  6798 net.cpp:399] inception_3b/1x1 -> inception_3b/1x1
I0403 18:18:33.532567  6798 net.cpp:141] Setting up inception_3b/1x1
I0403 18:18:33.532608  6798 net.cpp:148] Top shape: 24 128 28 28 (2408448)
I0403 18:18:33.532624  6798 net.cpp:156] Memory required for data: 667141152
I0403 18:18:33.532641  6798 layer_factory.hpp:77] Creating layer inception_3b/relu_1x1
I0403 18:18:33.532660  6798 net.cpp:91] Creating Layer inception_3b/relu_1x1
I0403 18:18:33.532675  6798 net.cpp:425] inception_3b/relu_1x1 <- inception_3b/1x1
I0403 18:18:33.532696  6798 net.cpp:386] inception_3b/relu_1x1 -> inception_3b/1x1 (in-place)
I0403 18:18:33.532873  6798 net.cpp:141] Setting up inception_3b/relu_1x1
I0403 18:18:33.532898  6798 net.cpp:148] Top shape: 24 128 28 28 (2408448)
I0403 18:18:33.532913  6798 net.cpp:156] Memory required for data: 676774944
I0403 18:18:33.532928  6798 layer_factory.hpp:77] Creating layer inception_3b/3x3_reduce
I0403 18:18:33.532950  6798 net.cpp:91] Creating Layer inception_3b/3x3_reduce
I0403 18:18:33.532968  6798 net.cpp:425] inception_3b/3x3_reduce <- inception_3a/output_inception_3a/output_0_split_1
I0403 18:18:33.532989  6798 net.cpp:399] inception_3b/3x3_reduce -> inception_3b/3x3_reduce
I0403 18:18:33.534165  6798 net.cpp:141] Setting up inception_3b/3x3_reduce
I0403 18:18:33.534196  6798 net.cpp:148] Top shape: 24 128 28 28 (2408448)
I0403 18:18:33.534214  6798 net.cpp:156] Memory required for data: 686408736
I0403 18:18:33.534232  6798 layer_factory.hpp:77] Creating layer inception_3b/relu_3x3_reduce
I0403 18:18:33.534255  6798 net.cpp:91] Creating Layer inception_3b/relu_3x3_reduce
I0403 18:18:33.534273  6798 net.cpp:425] inception_3b/relu_3x3_reduce <- inception_3b/3x3_reduce
I0403 18:18:33.534294  6798 net.cpp:386] inception_3b/relu_3x3_reduce -> inception_3b/3x3_reduce (in-place)
I0403 18:18:33.534471  6798 net.cpp:141] Setting up inception_3b/relu_3x3_reduce
I0403 18:18:33.534497  6798 net.cpp:148] Top shape: 24 128 28 28 (2408448)
I0403 18:18:33.534512  6798 net.cpp:156] Memory required for data: 696042528
I0403 18:18:33.534526  6798 layer_factory.hpp:77] Creating layer inception_3b/3x3
I0403 18:18:33.534554  6798 net.cpp:91] Creating Layer inception_3b/3x3
I0403 18:18:33.534571  6798 net.cpp:425] inception_3b/3x3 <- inception_3b/3x3_reduce
I0403 18:18:33.534591  6798 net.cpp:399] inception_3b/3x3 -> inception_3b/3x3
I0403 18:18:33.537587  6798 net.cpp:141] Setting up inception_3b/3x3
I0403 18:18:33.537617  6798 net.cpp:148] Top shape: 24 192 28 28 (3612672)
I0403 18:18:33.537633  6798 net.cpp:156] Memory required for data: 710493216
I0403 18:18:33.537652  6798 layer_factory.hpp:77] Creating layer inception_3b/relu_3x3
I0403 18:18:33.537674  6798 net.cpp:91] Creating Layer inception_3b/relu_3x3
I0403 18:18:33.537690  6798 net.cpp:425] inception_3b/relu_3x3 <- inception_3b/3x3
I0403 18:18:33.537709  6798 net.cpp:386] inception_3b/relu_3x3 -> inception_3b/3x3 (in-place)
I0403 18:18:33.537991  6798 net.cpp:141] Setting up inception_3b/relu_3x3
I0403 18:18:33.538017  6798 net.cpp:148] Top shape: 24 192 28 28 (3612672)
I0403 18:18:33.538033  6798 net.cpp:156] Memory required for data: 724943904
I0403 18:18:33.538048  6798 layer_factory.hpp:77] Creating layer inception_3b/5x5_reduce
I0403 18:18:33.538072  6798 net.cpp:91] Creating Layer inception_3b/5x5_reduce
I0403 18:18:33.538090  6798 net.cpp:425] inception_3b/5x5_reduce <- inception_3a/output_inception_3a/output_0_split_2
I0403 18:18:33.538112  6798 net.cpp:399] inception_3b/5x5_reduce -> inception_3b/5x5_reduce
I0403 18:18:33.539126  6798 net.cpp:141] Setting up inception_3b/5x5_reduce
I0403 18:18:33.539156  6798 net.cpp:148] Top shape: 24 32 28 28 (602112)
I0403 18:18:33.539171  6798 net.cpp:156] Memory required for data: 727352352
I0403 18:18:33.539191  6798 layer_factory.hpp:77] Creating layer inception_3b/relu_5x5_reduce
I0403 18:18:33.539212  6798 net.cpp:91] Creating Layer inception_3b/relu_5x5_reduce
I0403 18:18:33.539229  6798 net.cpp:425] inception_3b/relu_5x5_reduce <- inception_3b/5x5_reduce
I0403 18:18:33.539252  6798 net.cpp:386] inception_3b/relu_5x5_reduce -> inception_3b/5x5_reduce (in-place)
I0403 18:18:33.539450  6798 net.cpp:141] Setting up inception_3b/relu_5x5_reduce
I0403 18:18:33.539476  6798 net.cpp:148] Top shape: 24 32 28 28 (602112)
I0403 18:18:33.539491  6798 net.cpp:156] Memory required for data: 729760800
I0403 18:18:33.539507  6798 layer_factory.hpp:77] Creating layer inception_3b/5x5
I0403 18:18:33.539530  6798 net.cpp:91] Creating Layer inception_3b/5x5
I0403 18:18:33.539551  6798 net.cpp:425] inception_3b/5x5 <- inception_3b/5x5_reduce
I0403 18:18:33.539569  6798 net.cpp:399] inception_3b/5x5 -> inception_3b/5x5
I0403 18:18:33.541592  6798 net.cpp:141] Setting up inception_3b/5x5
I0403 18:18:33.541625  6798 net.cpp:148] Top shape: 24 96 28 28 (1806336)
I0403 18:18:33.541642  6798 net.cpp:156] Memory required for data: 736986144
I0403 18:18:33.541661  6798 layer_factory.hpp:77] Creating layer inception_3b/relu_5x5
I0403 18:18:33.541679  6798 net.cpp:91] Creating Layer inception_3b/relu_5x5
I0403 18:18:33.541695  6798 net.cpp:425] inception_3b/relu_5x5 <- inception_3b/5x5
I0403 18:18:33.541718  6798 net.cpp:386] inception_3b/relu_5x5 -> inception_3b/5x5 (in-place)
I0403 18:18:33.541916  6798 net.cpp:141] Setting up inception_3b/relu_5x5
I0403 18:18:33.541942  6798 net.cpp:148] Top shape: 24 96 28 28 (1806336)
I0403 18:18:33.541957  6798 net.cpp:156] Memory required for data: 744211488
I0403 18:18:33.541972  6798 layer_factory.hpp:77] Creating layer inception_3b/pool
I0403 18:18:33.541991  6798 net.cpp:91] Creating Layer inception_3b/pool
I0403 18:18:33.542007  6798 net.cpp:425] inception_3b/pool <- inception_3a/output_inception_3a/output_0_split_3
I0403 18:18:33.542027  6798 net.cpp:399] inception_3b/pool -> inception_3b/pool
I0403 18:18:33.542083  6798 net.cpp:141] Setting up inception_3b/pool
I0403 18:18:33.542107  6798 net.cpp:148] Top shape: 24 256 28 28 (4816896)
I0403 18:18:33.542121  6798 net.cpp:156] Memory required for data: 763479072
I0403 18:18:33.542136  6798 layer_factory.hpp:77] Creating layer inception_3b/pool_proj
I0403 18:18:33.542161  6798 net.cpp:91] Creating Layer inception_3b/pool_proj
I0403 18:18:33.542178  6798 net.cpp:425] inception_3b/pool_proj <- inception_3b/pool
I0403 18:18:33.542198  6798 net.cpp:399] inception_3b/pool_proj -> inception_3b/pool_proj
I0403 18:18:33.543301  6798 net.cpp:141] Setting up inception_3b/pool_proj
I0403 18:18:33.543330  6798 net.cpp:148] Top shape: 24 64 28 28 (1204224)
I0403 18:18:33.543346  6798 net.cpp:156] Memory required for data: 768295968
I0403 18:18:33.543365  6798 layer_factory.hpp:77] Creating layer inception_3b/relu_pool_proj
I0403 18:18:33.543386  6798 net.cpp:91] Creating Layer inception_3b/relu_pool_proj
I0403 18:18:33.543404  6798 net.cpp:425] inception_3b/relu_pool_proj <- inception_3b/pool_proj
I0403 18:18:33.543422  6798 net.cpp:386] inception_3b/relu_pool_proj -> inception_3b/pool_proj (in-place)
I0403 18:18:33.543812  6798 net.cpp:141] Setting up inception_3b/relu_pool_proj
I0403 18:18:33.543838  6798 net.cpp:148] Top shape: 24 64 28 28 (1204224)
I0403 18:18:33.543855  6798 net.cpp:156] Memory required for data: 773112864
I0403 18:18:33.543870  6798 layer_factory.hpp:77] Creating layer inception_3b/output
I0403 18:18:33.543892  6798 net.cpp:91] Creating Layer inception_3b/output
I0403 18:18:33.543908  6798 net.cpp:425] inception_3b/output <- inception_3b/1x1
I0403 18:18:33.543926  6798 net.cpp:425] inception_3b/output <- inception_3b/3x3
I0403 18:18:33.543942  6798 net.cpp:425] inception_3b/output <- inception_3b/5x5
I0403 18:18:33.543958  6798 net.cpp:425] inception_3b/output <- inception_3b/pool_proj
I0403 18:18:33.543977  6798 net.cpp:399] inception_3b/output -> inception_3b/output
I0403 18:18:33.544023  6798 net.cpp:141] Setting up inception_3b/output
I0403 18:18:33.544047  6798 net.cpp:148] Top shape: 24 480 28 28 (9031680)
I0403 18:18:33.544062  6798 net.cpp:156] Memory required for data: 809239584
I0403 18:18:33.544077  6798 layer_factory.hpp:77] Creating layer pool3/3x3_s2
I0403 18:18:33.544095  6798 net.cpp:91] Creating Layer pool3/3x3_s2
I0403 18:18:33.544111  6798 net.cpp:425] pool3/3x3_s2 <- inception_3b/output
I0403 18:18:33.544147  6798 net.cpp:399] pool3/3x3_s2 -> pool3/3x3_s2
I0403 18:18:33.544209  6798 net.cpp:141] Setting up pool3/3x3_s2
I0403 18:18:33.544235  6798 net.cpp:148] Top shape: 24 480 14 14 (2257920)
I0403 18:18:33.544271  6798 net.cpp:156] Memory required for data: 818271264
I0403 18:18:33.544288  6798 layer_factory.hpp:77] Creating layer pool3/3x3_s2_pool3/3x3_s2_0_split
I0403 18:18:33.544306  6798 net.cpp:91] Creating Layer pool3/3x3_s2_pool3/3x3_s2_0_split
I0403 18:18:33.544324  6798 net.cpp:425] pool3/3x3_s2_pool3/3x3_s2_0_split <- pool3/3x3_s2
I0403 18:18:33.544342  6798 net.cpp:399] pool3/3x3_s2_pool3/3x3_s2_0_split -> pool3/3x3_s2_pool3/3x3_s2_0_split_0
I0403 18:18:33.544364  6798 net.cpp:399] pool3/3x3_s2_pool3/3x3_s2_0_split -> pool3/3x3_s2_pool3/3x3_s2_0_split_1
I0403 18:18:33.544385  6798 net.cpp:399] pool3/3x3_s2_pool3/3x3_s2_0_split -> pool3/3x3_s2_pool3/3x3_s2_0_split_2
I0403 18:18:33.544405  6798 net.cpp:399] pool3/3x3_s2_pool3/3x3_s2_0_split -> pool3/3x3_s2_pool3/3x3_s2_0_split_3
I0403 18:18:33.544487  6798 net.cpp:141] Setting up pool3/3x3_s2_pool3/3x3_s2_0_split
I0403 18:18:33.544512  6798 net.cpp:148] Top shape: 24 480 14 14 (2257920)
I0403 18:18:33.544529  6798 net.cpp:148] Top shape: 24 480 14 14 (2257920)
I0403 18:18:33.544546  6798 net.cpp:148] Top shape: 24 480 14 14 (2257920)
I0403 18:18:33.544562  6798 net.cpp:148] Top shape: 24 480 14 14 (2257920)
I0403 18:18:33.544576  6798 net.cpp:156] Memory required for data: 854397984
I0403 18:18:33.544594  6798 layer_factory.hpp:77] Creating layer inception_4a/1x1
I0403 18:18:33.544618  6798 net.cpp:91] Creating Layer inception_4a/1x1
I0403 18:18:33.544636  6798 net.cpp:425] inception_4a/1x1 <- pool3/3x3_s2_pool3/3x3_s2_0_split_0
I0403 18:18:33.544657  6798 net.cpp:399] inception_4a/1x1 -> inception_4a/1x1
I0403 18:18:33.546319  6798 net.cpp:141] Setting up inception_4a/1x1
I0403 18:18:33.546347  6798 net.cpp:148] Top shape: 24 192 14 14 (903168)
I0403 18:18:33.546363  6798 net.cpp:156] Memory required for data: 858010656
I0403 18:18:33.546383  6798 layer_factory.hpp:77] Creating layer inception_4a/relu_1x1
I0403 18:18:33.546406  6798 net.cpp:91] Creating Layer inception_4a/relu_1x1
I0403 18:18:33.546423  6798 net.cpp:425] inception_4a/relu_1x1 <- inception_4a/1x1
I0403 18:18:33.546442  6798 net.cpp:386] inception_4a/relu_1x1 -> inception_4a/1x1 (in-place)
I0403 18:18:33.546633  6798 net.cpp:141] Setting up inception_4a/relu_1x1
I0403 18:18:33.546659  6798 net.cpp:148] Top shape: 24 192 14 14 (903168)
I0403 18:18:33.546675  6798 net.cpp:156] Memory required for data: 861623328
I0403 18:18:33.546691  6798 layer_factory.hpp:77] Creating layer inception_4a/3x3_reduce
I0403 18:18:33.546715  6798 net.cpp:91] Creating Layer inception_4a/3x3_reduce
I0403 18:18:33.546735  6798 net.cpp:425] inception_4a/3x3_reduce <- pool3/3x3_s2_pool3/3x3_s2_0_split_1
I0403 18:18:33.546756  6798 net.cpp:399] inception_4a/3x3_reduce -> inception_4a/3x3_reduce
I0403 18:18:33.548107  6798 net.cpp:141] Setting up inception_4a/3x3_reduce
I0403 18:18:33.548141  6798 net.cpp:148] Top shape: 24 96 14 14 (451584)
I0403 18:18:33.548157  6798 net.cpp:156] Memory required for data: 863429664
I0403 18:18:33.548182  6798 layer_factory.hpp:77] Creating layer inception_4a/relu_3x3_reduce
I0403 18:18:33.548204  6798 net.cpp:91] Creating Layer inception_4a/relu_3x3_reduce
I0403 18:18:33.548223  6798 net.cpp:425] inception_4a/relu_3x3_reduce <- inception_4a/3x3_reduce
I0403 18:18:33.548243  6798 net.cpp:386] inception_4a/relu_3x3_reduce -> inception_4a/3x3_reduce (in-place)
I0403 18:18:33.548430  6798 net.cpp:141] Setting up inception_4a/relu_3x3_reduce
I0403 18:18:33.548459  6798 net.cpp:148] Top shape: 24 96 14 14 (451584)
I0403 18:18:33.548473  6798 net.cpp:156] Memory required for data: 865236000
I0403 18:18:33.548491  6798 layer_factory.hpp:77] Creating layer inception_4a/3x3
I0403 18:18:33.548513  6798 net.cpp:91] Creating Layer inception_4a/3x3
I0403 18:18:33.548532  6798 net.cpp:425] inception_4a/3x3 <- inception_4a/3x3_reduce
I0403 18:18:33.548555  6798 net.cpp:399] inception_4a/3x3 -> inception_4a/3x3
I0403 18:18:33.551404  6798 net.cpp:141] Setting up inception_4a/3x3
I0403 18:18:33.551439  6798 net.cpp:148] Top shape: 24 208 14 14 (978432)
I0403 18:18:33.551457  6798 net.cpp:156] Memory required for data: 869149728
I0403 18:18:33.551477  6798 layer_factory.hpp:77] Creating layer inception_4a/relu_3x3
I0403 18:18:33.551496  6798 net.cpp:91] Creating Layer inception_4a/relu_3x3
I0403 18:18:33.551512  6798 net.cpp:425] inception_4a/relu_3x3 <- inception_4a/3x3
I0403 18:18:33.551533  6798 net.cpp:386] inception_4a/relu_3x3 -> inception_4a/3x3 (in-place)
I0403 18:18:33.551826  6798 net.cpp:141] Setting up inception_4a/relu_3x3
I0403 18:18:33.551856  6798 net.cpp:148] Top shape: 24 208 14 14 (978432)
I0403 18:18:33.551872  6798 net.cpp:156] Memory required for data: 873063456
I0403 18:18:33.551888  6798 layer_factory.hpp:77] Creating layer inception_4a/5x5_reduce
I0403 18:18:33.551913  6798 net.cpp:91] Creating Layer inception_4a/5x5_reduce
I0403 18:18:33.551933  6798 net.cpp:425] inception_4a/5x5_reduce <- pool3/3x3_s2_pool3/3x3_s2_0_split_2
I0403 18:18:33.551955  6798 net.cpp:399] inception_4a/5x5_reduce -> inception_4a/5x5_reduce
I0403 18:18:33.553046  6798 net.cpp:141] Setting up inception_4a/5x5_reduce
I0403 18:18:33.553076  6798 net.cpp:148] Top shape: 24 16 14 14 (75264)
I0403 18:18:33.553093  6798 net.cpp:156] Memory required for data: 873364512
I0403 18:18:33.553112  6798 layer_factory.hpp:77] Creating layer inception_4a/relu_5x5_reduce
I0403 18:18:33.553134  6798 net.cpp:91] Creating Layer inception_4a/relu_5x5_reduce
I0403 18:18:33.553153  6798 net.cpp:425] inception_4a/relu_5x5_reduce <- inception_4a/5x5_reduce
I0403 18:18:33.553171  6798 net.cpp:386] inception_4a/relu_5x5_reduce -> inception_4a/5x5_reduce (in-place)
I0403 18:18:33.553365  6798 net.cpp:141] Setting up inception_4a/relu_5x5_reduce
I0403 18:18:33.553391  6798 net.cpp:148] Top shape: 24 16 14 14 (75264)
I0403 18:18:33.553406  6798 net.cpp:156] Memory required for data: 873665568
I0403 18:18:33.553422  6798 layer_factory.hpp:77] Creating layer inception_4a/5x5
I0403 18:18:33.553445  6798 net.cpp:91] Creating Layer inception_4a/5x5
I0403 18:18:33.553464  6798 net.cpp:425] inception_4a/5x5 <- inception_4a/5x5_reduce
I0403 18:18:33.553488  6798 net.cpp:399] inception_4a/5x5 -> inception_4a/5x5
I0403 18:18:33.554641  6798 net.cpp:141] Setting up inception_4a/5x5
I0403 18:18:33.554671  6798 net.cpp:148] Top shape: 24 48 14 14 (225792)
I0403 18:18:33.554685  6798 net.cpp:156] Memory required for data: 874568736
I0403 18:18:33.554705  6798 layer_factory.hpp:77] Creating layer inception_4a/relu_5x5
I0403 18:18:33.554730  6798 net.cpp:91] Creating Layer inception_4a/relu_5x5
I0403 18:18:33.554747  6798 net.cpp:425] inception_4a/relu_5x5 <- inception_4a/5x5
I0403 18:18:33.554766  6798 net.cpp:386] inception_4a/relu_5x5 -> inception_4a/5x5 (in-place)
I0403 18:18:33.554955  6798 net.cpp:141] Setting up inception_4a/relu_5x5
I0403 18:18:33.554986  6798 net.cpp:148] Top shape: 24 48 14 14 (225792)
I0403 18:18:33.555002  6798 net.cpp:156] Memory required for data: 875471904
I0403 18:18:33.555018  6798 layer_factory.hpp:77] Creating layer inception_4a/pool
I0403 18:18:33.555037  6798 net.cpp:91] Creating Layer inception_4a/pool
I0403 18:18:33.555055  6798 net.cpp:425] inception_4a/pool <- pool3/3x3_s2_pool3/3x3_s2_0_split_3
I0403 18:18:33.555076  6798 net.cpp:399] inception_4a/pool -> inception_4a/pool
I0403 18:18:33.555140  6798 net.cpp:141] Setting up inception_4a/pool
I0403 18:18:33.555166  6798 net.cpp:148] Top shape: 24 480 14 14 (2257920)
I0403 18:18:33.555181  6798 net.cpp:156] Memory required for data: 884503584
I0403 18:18:33.555197  6798 layer_factory.hpp:77] Creating layer inception_4a/pool_proj
I0403 18:18:33.555220  6798 net.cpp:91] Creating Layer inception_4a/pool_proj
I0403 18:18:33.555243  6798 net.cpp:425] inception_4a/pool_proj <- inception_4a/pool
I0403 18:18:33.555266  6798 net.cpp:399] inception_4a/pool_proj -> inception_4a/pool_proj
I0403 18:18:33.556510  6798 net.cpp:141] Setting up inception_4a/pool_proj
I0403 18:18:33.556546  6798 net.cpp:148] Top shape: 24 64 14 14 (301056)
I0403 18:18:33.556578  6798 net.cpp:156] Memory required for data: 885707808
I0403 18:18:33.556599  6798 layer_factory.hpp:77] Creating layer inception_4a/relu_pool_proj
I0403 18:18:33.556619  6798 net.cpp:91] Creating Layer inception_4a/relu_pool_proj
I0403 18:18:33.556637  6798 net.cpp:425] inception_4a/relu_pool_proj <- inception_4a/pool_proj
I0403 18:18:33.556654  6798 net.cpp:386] inception_4a/relu_pool_proj -> inception_4a/pool_proj (in-place)
I0403 18:18:33.556951  6798 net.cpp:141] Setting up inception_4a/relu_pool_proj
I0403 18:18:33.556982  6798 net.cpp:148] Top shape: 24 64 14 14 (301056)
I0403 18:18:33.556998  6798 net.cpp:156] Memory required for data: 886912032
I0403 18:18:33.557014  6798 layer_factory.hpp:77] Creating layer inception_4a/output
I0403 18:18:33.557034  6798 net.cpp:91] Creating Layer inception_4a/output
I0403 18:18:33.557049  6798 net.cpp:425] inception_4a/output <- inception_4a/1x1
I0403 18:18:33.557067  6798 net.cpp:425] inception_4a/output <- inception_4a/3x3
I0403 18:18:33.557083  6798 net.cpp:425] inception_4a/output <- inception_4a/5x5
I0403 18:18:33.557101  6798 net.cpp:425] inception_4a/output <- inception_4a/pool_proj
I0403 18:18:33.557119  6798 net.cpp:399] inception_4a/output -> inception_4a/output
I0403 18:18:33.557168  6798 net.cpp:141] Setting up inception_4a/output
I0403 18:18:33.557193  6798 net.cpp:148] Top shape: 24 512 14 14 (2408448)
I0403 18:18:33.557209  6798 net.cpp:156] Memory required for data: 896545824
I0403 18:18:33.557224  6798 layer_factory.hpp:77] Creating layer inception_4a/output_inception_4a/output_0_split
I0403 18:18:33.557250  6798 net.cpp:91] Creating Layer inception_4a/output_inception_4a/output_0_split
I0403 18:18:33.557267  6798 net.cpp:425] inception_4a/output_inception_4a/output_0_split <- inception_4a/output
I0403 18:18:33.557286  6798 net.cpp:399] inception_4a/output_inception_4a/output_0_split -> inception_4a/output_inception_4a/output_0_split_0
I0403 18:18:33.557308  6798 net.cpp:399] inception_4a/output_inception_4a/output_0_split -> inception_4a/output_inception_4a/output_0_split_1
I0403 18:18:33.557329  6798 net.cpp:399] inception_4a/output_inception_4a/output_0_split -> inception_4a/output_inception_4a/output_0_split_2
I0403 18:18:33.557350  6798 net.cpp:399] inception_4a/output_inception_4a/output_0_split -> inception_4a/output_inception_4a/output_0_split_3
I0403 18:18:33.557373  6798 net.cpp:399] inception_4a/output_inception_4a/output_0_split -> inception_4a/output_inception_4a/output_0_split_4
I0403 18:18:33.557478  6798 net.cpp:141] Setting up inception_4a/output_inception_4a/output_0_split
I0403 18:18:33.557503  6798 net.cpp:148] Top shape: 24 512 14 14 (2408448)
I0403 18:18:33.557521  6798 net.cpp:148] Top shape: 24 512 14 14 (2408448)
I0403 18:18:33.557538  6798 net.cpp:148] Top shape: 24 512 14 14 (2408448)
I0403 18:18:33.557554  6798 net.cpp:148] Top shape: 24 512 14 14 (2408448)
I0403 18:18:33.557570  6798 net.cpp:148] Top shape: 24 512 14 14 (2408448)
I0403 18:18:33.557585  6798 net.cpp:156] Memory required for data: 944714784
I0403 18:18:33.557601  6798 layer_factory.hpp:77] Creating layer loss1/ave_pool
I0403 18:18:33.557620  6798 net.cpp:91] Creating Layer loss1/ave_pool
I0403 18:18:33.557636  6798 net.cpp:425] loss1/ave_pool <- inception_4a/output_inception_4a/output_0_split_0
I0403 18:18:33.557658  6798 net.cpp:399] loss1/ave_pool -> loss1/ave_pool
I0403 18:18:33.557876  6798 net.cpp:141] Setting up loss1/ave_pool
I0403 18:18:33.557905  6798 net.cpp:148] Top shape: 24 512 4 4 (196608)
I0403 18:18:33.557922  6798 net.cpp:156] Memory required for data: 945501216
I0403 18:18:33.557939  6798 layer_factory.hpp:77] Creating layer loss1/conv
I0403 18:18:33.557961  6798 net.cpp:91] Creating Layer loss1/conv
I0403 18:18:33.557981  6798 net.cpp:425] loss1/conv <- loss1/ave_pool
I0403 18:18:33.557999  6798 net.cpp:399] loss1/conv -> loss1/conv
I0403 18:18:33.559509  6798 net.cpp:141] Setting up loss1/conv
I0403 18:18:33.559538  6798 net.cpp:148] Top shape: 24 128 4 4 (49152)
I0403 18:18:33.559571  6798 net.cpp:156] Memory required for data: 945697824
I0403 18:18:33.559592  6798 layer_factory.hpp:77] Creating layer loss1/relu_conv
I0403 18:18:33.559612  6798 net.cpp:91] Creating Layer loss1/relu_conv
I0403 18:18:33.559628  6798 net.cpp:425] loss1/relu_conv <- loss1/conv
I0403 18:18:33.559648  6798 net.cpp:386] loss1/relu_conv -> loss1/conv (in-place)
I0403 18:18:33.559942  6798 net.cpp:141] Setting up loss1/relu_conv
I0403 18:18:33.559970  6798 net.cpp:148] Top shape: 24 128 4 4 (49152)
I0403 18:18:33.559986  6798 net.cpp:156] Memory required for data: 945894432
I0403 18:18:33.560003  6798 layer_factory.hpp:77] Creating layer loss1/fc
I0403 18:18:33.560029  6798 net.cpp:91] Creating Layer loss1/fc
I0403 18:18:33.560050  6798 net.cpp:425] loss1/fc <- loss1/conv
I0403 18:18:33.560070  6798 net.cpp:399] loss1/fc -> loss1/fc
I0403 18:18:33.578342  6798 net.cpp:141] Setting up loss1/fc
I0403 18:18:33.578380  6798 net.cpp:148] Top shape: 24 1024 (24576)
I0403 18:18:33.578397  6798 net.cpp:156] Memory required for data: 945992736
I0403 18:18:33.578415  6798 layer_factory.hpp:77] Creating layer loss1/relu_fc
I0403 18:18:33.578439  6798 net.cpp:91] Creating Layer loss1/relu_fc
I0403 18:18:33.578457  6798 net.cpp:425] loss1/relu_fc <- loss1/fc
I0403 18:18:33.578475  6798 net.cpp:386] loss1/relu_fc -> loss1/fc (in-place)
I0403 18:18:33.578670  6798 net.cpp:141] Setting up loss1/relu_fc
I0403 18:18:33.578694  6798 net.cpp:148] Top shape: 24 1024 (24576)
I0403 18:18:33.578709  6798 net.cpp:156] Memory required for data: 946091040
I0403 18:18:33.578724  6798 layer_factory.hpp:77] Creating layer loss1/drop_fc
I0403 18:18:33.578752  6798 net.cpp:91] Creating Layer loss1/drop_fc
I0403 18:18:33.578770  6798 net.cpp:425] loss1/drop_fc <- loss1/fc
I0403 18:18:33.578790  6798 net.cpp:386] loss1/drop_fc -> loss1/fc (in-place)
I0403 18:18:33.578843  6798 net.cpp:141] Setting up loss1/drop_fc
I0403 18:18:33.578866  6798 net.cpp:148] Top shape: 24 1024 (24576)
I0403 18:18:33.578882  6798 net.cpp:156] Memory required for data: 946189344
I0403 18:18:33.578897  6798 layer_factory.hpp:77] Creating layer loss1/classifier_plantvillage
I0403 18:18:33.578920  6798 net.cpp:91] Creating Layer loss1/classifier_plantvillage
I0403 18:18:33.578938  6798 net.cpp:425] loss1/classifier_plantvillage <- loss1/fc
I0403 18:18:33.578960  6798 net.cpp:399] loss1/classifier_plantvillage -> loss1/classifier_plantvillage
I0403 18:18:33.579910  6798 net.cpp:141] Setting up loss1/classifier_plantvillage
I0403 18:18:33.579942  6798 net.cpp:148] Top shape: 24 38 (912)
I0403 18:18:33.579958  6798 net.cpp:156] Memory required for data: 946192992
I0403 18:18:33.579977  6798 layer_factory.hpp:77] Creating layer loss1/classifier_plantvillage_loss1/classifier_plantvillage_0_split
I0403 18:18:33.579996  6798 net.cpp:91] Creating Layer loss1/classifier_plantvillage_loss1/classifier_plantvillage_0_split
I0403 18:18:33.580013  6798 net.cpp:425] loss1/classifier_plantvillage_loss1/classifier_plantvillage_0_split <- loss1/classifier_plantvillage
I0403 18:18:33.580034  6798 net.cpp:399] loss1/classifier_plantvillage_loss1/classifier_plantvillage_0_split -> loss1/classifier_plantvillage_loss1/classifier_plantvillage_0_split_0
I0403 18:18:33.580055  6798 net.cpp:399] loss1/classifier_plantvillage_loss1/classifier_plantvillage_0_split -> loss1/classifier_plantvillage_loss1/classifier_plantvillage_0_split_1
I0403 18:18:33.580076  6798 net.cpp:399] loss1/classifier_plantvillage_loss1/classifier_plantvillage_0_split -> loss1/classifier_plantvillage_loss1/classifier_plantvillage_0_split_2
I0403 18:18:33.580144  6798 net.cpp:141] Setting up loss1/classifier_plantvillage_loss1/classifier_plantvillage_0_split
I0403 18:18:33.580168  6798 net.cpp:148] Top shape: 24 38 (912)
I0403 18:18:33.580183  6798 net.cpp:148] Top shape: 24 38 (912)
I0403 18:18:33.580200  6798 net.cpp:148] Top shape: 24 38 (912)
I0403 18:18:33.580214  6798 net.cpp:156] Memory required for data: 946203936
I0403 18:18:33.580229  6798 layer_factory.hpp:77] Creating layer inception_4b/1x1
I0403 18:18:33.580255  6798 net.cpp:91] Creating Layer inception_4b/1x1
I0403 18:18:33.580291  6798 net.cpp:425] inception_4b/1x1 <- inception_4a/output_inception_4a/output_0_split_1
I0403 18:18:33.580312  6798 net.cpp:399] inception_4b/1x1 -> inception_4b/1x1
I0403 18:18:33.581993  6798 net.cpp:141] Setting up inception_4b/1x1
I0403 18:18:33.582022  6798 net.cpp:148] Top shape: 24 160 14 14 (752640)
I0403 18:18:33.582039  6798 net.cpp:156] Memory required for data: 949214496
I0403 18:18:33.582058  6798 layer_factory.hpp:77] Creating layer inception_4b/relu_1x1
I0403 18:18:33.582077  6798 net.cpp:91] Creating Layer inception_4b/relu_1x1
I0403 18:18:33.582096  6798 net.cpp:425] inception_4b/relu_1x1 <- inception_4b/1x1
I0403 18:18:33.582113  6798 net.cpp:386] inception_4b/relu_1x1 -> inception_4b/1x1 (in-place)
I0403 18:18:33.582314  6798 net.cpp:141] Setting up inception_4b/relu_1x1
I0403 18:18:33.582340  6798 net.cpp:148] Top shape: 24 160 14 14 (752640)
I0403 18:18:33.582355  6798 net.cpp:156] Memory required for data: 952225056
I0403 18:18:33.582370  6798 layer_factory.hpp:77] Creating layer inception_4b/3x3_reduce
I0403 18:18:33.582393  6798 net.cpp:91] Creating Layer inception_4b/3x3_reduce
I0403 18:18:33.582412  6798 net.cpp:425] inception_4b/3x3_reduce <- inception_4a/output_inception_4a/output_0_split_2
I0403 18:18:33.582433  6798 net.cpp:399] inception_4b/3x3_reduce -> inception_4b/3x3_reduce
I0403 18:18:33.583829  6798 net.cpp:141] Setting up inception_4b/3x3_reduce
I0403 18:18:33.583858  6798 net.cpp:148] Top shape: 24 112 14 14 (526848)
I0403 18:18:33.583875  6798 net.cpp:156] Memory required for data: 954332448
I0403 18:18:33.583894  6798 layer_factory.hpp:77] Creating layer inception_4b/relu_3x3_reduce
I0403 18:18:33.583915  6798 net.cpp:91] Creating Layer inception_4b/relu_3x3_reduce
I0403 18:18:33.583932  6798 net.cpp:425] inception_4b/relu_3x3_reduce <- inception_4b/3x3_reduce
I0403 18:18:33.583950  6798 net.cpp:386] inception_4b/relu_3x3_reduce -> inception_4b/3x3_reduce (in-place)
I0403 18:18:33.584244  6798 net.cpp:141] Setting up inception_4b/relu_3x3_reduce
I0403 18:18:33.584271  6798 net.cpp:148] Top shape: 24 112 14 14 (526848)
I0403 18:18:33.584287  6798 net.cpp:156] Memory required for data: 956439840
I0403 18:18:33.584301  6798 layer_factory.hpp:77] Creating layer inception_4b/3x3
I0403 18:18:33.584324  6798 net.cpp:91] Creating Layer inception_4b/3x3
I0403 18:18:33.584342  6798 net.cpp:425] inception_4b/3x3 <- inception_4b/3x3_reduce
I0403 18:18:33.584363  6798 net.cpp:399] inception_4b/3x3 -> inception_4b/3x3
I0403 18:18:33.587450  6798 net.cpp:141] Setting up inception_4b/3x3
I0403 18:18:33.587483  6798 net.cpp:148] Top shape: 24 224 14 14 (1053696)
I0403 18:18:33.587499  6798 net.cpp:156] Memory required for data: 960654624
I0403 18:18:33.587518  6798 layer_factory.hpp:77] Creating layer inception_4b/relu_3x3
I0403 18:18:33.587537  6798 net.cpp:91] Creating Layer inception_4b/relu_3x3
I0403 18:18:33.587553  6798 net.cpp:425] inception_4b/relu_3x3 <- inception_4b/3x3
I0403 18:18:33.587574  6798 net.cpp:386] inception_4b/relu_3x3 -> inception_4b/3x3 (in-place)
I0403 18:18:33.587760  6798 net.cpp:141] Setting up inception_4b/relu_3x3
I0403 18:18:33.587785  6798 net.cpp:148] Top shape: 24 224 14 14 (1053696)
I0403 18:18:33.587800  6798 net.cpp:156] Memory required for data: 964869408
I0403 18:18:33.587816  6798 layer_factory.hpp:77] Creating layer inception_4b/5x5_reduce
I0403 18:18:33.587838  6798 net.cpp:91] Creating Layer inception_4b/5x5_reduce
I0403 18:18:33.587857  6798 net.cpp:425] inception_4b/5x5_reduce <- inception_4a/output_inception_4a/output_0_split_3
I0403 18:18:33.587880  6798 net.cpp:399] inception_4b/5x5_reduce -> inception_4b/5x5_reduce
I0403 18:18:33.589004  6798 net.cpp:141] Setting up inception_4b/5x5_reduce
I0403 18:18:33.589033  6798 net.cpp:148] Top shape: 24 24 14 14 (112896)
I0403 18:18:33.589049  6798 net.cpp:156] Memory required for data: 965320992
I0403 18:18:33.589067  6798 layer_factory.hpp:77] Creating layer inception_4b/relu_5x5_reduce
I0403 18:18:33.589089  6798 net.cpp:91] Creating Layer inception_4b/relu_5x5_reduce
I0403 18:18:33.589121  6798 net.cpp:425] inception_4b/relu_5x5_reduce <- inception_4b/5x5_reduce
I0403 18:18:33.589140  6798 net.cpp:386] inception_4b/relu_5x5_reduce -> inception_4b/5x5_reduce (in-place)
I0403 18:18:33.589334  6798 net.cpp:141] Setting up inception_4b/relu_5x5_reduce
I0403 18:18:33.589359  6798 net.cpp:148] Top shape: 24 24 14 14 (112896)
I0403 18:18:33.589377  6798 net.cpp:156] Memory required for data: 965772576
I0403 18:18:33.589392  6798 layer_factory.hpp:77] Creating layer inception_4b/5x5
I0403 18:18:33.589412  6798 net.cpp:91] Creating Layer inception_4b/5x5
I0403 18:18:33.589431  6798 net.cpp:425] inception_4b/5x5 <- inception_4b/5x5_reduce
I0403 18:18:33.589452  6798 net.cpp:399] inception_4b/5x5 -> inception_4b/5x5
I0403 18:18:33.590723  6798 net.cpp:141] Setting up inception_4b/5x5
I0403 18:18:33.590750  6798 net.cpp:148] Top shape: 24 64 14 14 (301056)
I0403 18:18:33.590766  6798 net.cpp:156] Memory required for data: 966976800
I0403 18:18:33.590785  6798 layer_factory.hpp:77] Creating layer inception_4b/relu_5x5
I0403 18:18:33.590803  6798 net.cpp:91] Creating Layer inception_4b/relu_5x5
I0403 18:18:33.590823  6798 net.cpp:425] inception_4b/relu_5x5 <- inception_4b/5x5
I0403 18:18:33.590842  6798 net.cpp:386] inception_4b/relu_5x5 -> inception_4b/5x5 (in-place)
I0403 18:18:33.591135  6798 net.cpp:141] Setting up inception_4b/relu_5x5
I0403 18:18:33.591161  6798 net.cpp:148] Top shape: 24 64 14 14 (301056)
I0403 18:18:33.591176  6798 net.cpp:156] Memory required for data: 968181024
I0403 18:18:33.591192  6798 layer_factory.hpp:77] Creating layer inception_4b/pool
I0403 18:18:33.591212  6798 net.cpp:91] Creating Layer inception_4b/pool
I0403 18:18:33.591228  6798 net.cpp:425] inception_4b/pool <- inception_4a/output_inception_4a/output_0_split_4
I0403 18:18:33.591254  6798 net.cpp:399] inception_4b/pool -> inception_4b/pool
I0403 18:18:33.591321  6798 net.cpp:141] Setting up inception_4b/pool
I0403 18:18:33.591348  6798 net.cpp:148] Top shape: 24 512 14 14 (2408448)
I0403 18:18:33.591363  6798 net.cpp:156] Memory required for data: 977814816
I0403 18:18:33.591378  6798 layer_factory.hpp:77] Creating layer inception_4b/pool_proj
I0403 18:18:33.591401  6798 net.cpp:91] Creating Layer inception_4b/pool_proj
I0403 18:18:33.591419  6798 net.cpp:425] inception_4b/pool_proj <- inception_4b/pool
I0403 18:18:33.591439  6798 net.cpp:399] inception_4b/pool_proj -> inception_4b/pool_proj
I0403 18:18:33.592696  6798 net.cpp:141] Setting up inception_4b/pool_proj
I0403 18:18:33.592725  6798 net.cpp:148] Top shape: 24 64 14 14 (301056)
I0403 18:18:33.592741  6798 net.cpp:156] Memory required for data: 979019040
I0403 18:18:33.592759  6798 layer_factory.hpp:77] Creating layer inception_4b/relu_pool_proj
I0403 18:18:33.592780  6798 net.cpp:91] Creating Layer inception_4b/relu_pool_proj
I0403 18:18:33.592797  6798 net.cpp:425] inception_4b/relu_pool_proj <- inception_4b/pool_proj
I0403 18:18:33.592815  6798 net.cpp:386] inception_4b/relu_pool_proj -> inception_4b/pool_proj (in-place)
I0403 18:18:33.593001  6798 net.cpp:141] Setting up inception_4b/relu_pool_proj
I0403 18:18:33.593026  6798 net.cpp:148] Top shape: 24 64 14 14 (301056)
I0403 18:18:33.593040  6798 net.cpp:156] Memory required for data: 980223264
I0403 18:18:33.593056  6798 layer_factory.hpp:77] Creating layer inception_4b/output
I0403 18:18:33.593076  6798 net.cpp:91] Creating Layer inception_4b/output
I0403 18:18:33.593092  6798 net.cpp:425] inception_4b/output <- inception_4b/1x1
I0403 18:18:33.593111  6798 net.cpp:425] inception_4b/output <- inception_4b/3x3
I0403 18:18:33.593128  6798 net.cpp:425] inception_4b/output <- inception_4b/5x5
I0403 18:18:33.593144  6798 net.cpp:425] inception_4b/output <- inception_4b/pool_proj
I0403 18:18:33.593161  6798 net.cpp:399] inception_4b/output -> inception_4b/output
I0403 18:18:33.593209  6798 net.cpp:141] Setting up inception_4b/output
I0403 18:18:33.593233  6798 net.cpp:148] Top shape: 24 512 14 14 (2408448)
I0403 18:18:33.593268  6798 net.cpp:156] Memory required for data: 989857056
I0403 18:18:33.593299  6798 layer_factory.hpp:77] Creating layer inception_4b/output_inception_4b/output_0_split
I0403 18:18:33.593317  6798 net.cpp:91] Creating Layer inception_4b/output_inception_4b/output_0_split
I0403 18:18:33.593334  6798 net.cpp:425] inception_4b/output_inception_4b/output_0_split <- inception_4b/output
I0403 18:18:33.593355  6798 net.cpp:399] inception_4b/output_inception_4b/output_0_split -> inception_4b/output_inception_4b/output_0_split_0
I0403 18:18:33.593379  6798 net.cpp:399] inception_4b/output_inception_4b/output_0_split -> inception_4b/output_inception_4b/output_0_split_1
I0403 18:18:33.593400  6798 net.cpp:399] inception_4b/output_inception_4b/output_0_split -> inception_4b/output_inception_4b/output_0_split_2
I0403 18:18:33.593420  6798 net.cpp:399] inception_4b/output_inception_4b/output_0_split -> inception_4b/output_inception_4b/output_0_split_3
I0403 18:18:33.593515  6798 net.cpp:141] Setting up inception_4b/output_inception_4b/output_0_split
I0403 18:18:33.593544  6798 net.cpp:148] Top shape: 24 512 14 14 (2408448)
I0403 18:18:33.593561  6798 net.cpp:148] Top shape: 24 512 14 14 (2408448)
I0403 18:18:33.593578  6798 net.cpp:148] Top shape: 24 512 14 14 (2408448)
I0403 18:18:33.593595  6798 net.cpp:148] Top shape: 24 512 14 14 (2408448)
I0403 18:18:33.593610  6798 net.cpp:156] Memory required for data: 1028392224
I0403 18:18:33.593626  6798 layer_factory.hpp:77] Creating layer inception_4c/1x1
I0403 18:18:33.593648  6798 net.cpp:91] Creating Layer inception_4c/1x1
I0403 18:18:33.593667  6798 net.cpp:425] inception_4c/1x1 <- inception_4b/output_inception_4b/output_0_split_0
I0403 18:18:33.593686  6798 net.cpp:399] inception_4c/1x1 -> inception_4c/1x1
I0403 18:18:33.595228  6798 net.cpp:141] Setting up inception_4c/1x1
I0403 18:18:33.595263  6798 net.cpp:148] Top shape: 24 128 14 14 (602112)
I0403 18:18:33.595279  6798 net.cpp:156] Memory required for data: 1030800672
I0403 18:18:33.595299  6798 layer_factory.hpp:77] Creating layer inception_4c/relu_1x1
I0403 18:18:33.595321  6798 net.cpp:91] Creating Layer inception_4c/relu_1x1
I0403 18:18:33.595340  6798 net.cpp:425] inception_4c/relu_1x1 <- inception_4c/1x1
I0403 18:18:33.595358  6798 net.cpp:386] inception_4c/relu_1x1 -> inception_4c/1x1 (in-place)
I0403 18:18:33.595553  6798 net.cpp:141] Setting up inception_4c/relu_1x1
I0403 18:18:33.595579  6798 net.cpp:148] Top shape: 24 128 14 14 (602112)
I0403 18:18:33.595594  6798 net.cpp:156] Memory required for data: 1033209120
I0403 18:18:33.595610  6798 layer_factory.hpp:77] Creating layer inception_4c/3x3_reduce
I0403 18:18:33.595633  6798 net.cpp:91] Creating Layer inception_4c/3x3_reduce
I0403 18:18:33.595652  6798 net.cpp:425] inception_4c/3x3_reduce <- inception_4b/output_inception_4b/output_0_split_1
I0403 18:18:33.595675  6798 net.cpp:399] inception_4c/3x3_reduce -> inception_4c/3x3_reduce
I0403 18:18:33.597759  6798 net.cpp:141] Setting up inception_4c/3x3_reduce
I0403 18:18:33.597790  6798 net.cpp:148] Top shape: 24 128 14 14 (602112)
I0403 18:18:33.597805  6798 net.cpp:156] Memory required for data: 1035617568
I0403 18:18:33.597825  6798 layer_factory.hpp:77] Creating layer inception_4c/relu_3x3_reduce
I0403 18:18:33.597843  6798 net.cpp:91] Creating Layer inception_4c/relu_3x3_reduce
I0403 18:18:33.597862  6798 net.cpp:425] inception_4c/relu_3x3_reduce <- inception_4c/3x3_reduce
I0403 18:18:33.597882  6798 net.cpp:386] inception_4c/relu_3x3_reduce -> inception_4c/3x3_reduce (in-place)
I0403 18:18:33.598184  6798 net.cpp:141] Setting up inception_4c/relu_3x3_reduce
I0403 18:18:33.598212  6798 net.cpp:148] Top shape: 24 128 14 14 (602112)
I0403 18:18:33.598228  6798 net.cpp:156] Memory required for data: 1038026016
I0403 18:18:33.598250  6798 layer_factory.hpp:77] Creating layer inception_4c/3x3
I0403 18:18:33.598276  6798 net.cpp:91] Creating Layer inception_4c/3x3
I0403 18:18:33.598294  6798 net.cpp:425] inception_4c/3x3 <- inception_4c/3x3_reduce
I0403 18:18:33.598316  6798 net.cpp:399] inception_4c/3x3 -> inception_4c/3x3
I0403 18:18:33.602157  6798 net.cpp:141] Setting up inception_4c/3x3
I0403 18:18:33.602205  6798 net.cpp:148] Top shape: 24 256 14 14 (1204224)
I0403 18:18:33.602221  6798 net.cpp:156] Memory required for data: 1042842912
I0403 18:18:33.602267  6798 layer_factory.hpp:77] Creating layer inception_4c/relu_3x3
I0403 18:18:33.602293  6798 net.cpp:91] Creating Layer inception_4c/relu_3x3
I0403 18:18:33.602311  6798 net.cpp:425] inception_4c/relu_3x3 <- inception_4c/3x3
I0403 18:18:33.602330  6798 net.cpp:386] inception_4c/relu_3x3 -> inception_4c/3x3 (in-place)
I0403 18:18:33.602527  6798 net.cpp:141] Setting up inception_4c/relu_3x3
I0403 18:18:33.602553  6798 net.cpp:148] Top shape: 24 256 14 14 (1204224)
I0403 18:18:33.602569  6798 net.cpp:156] Memory required for data: 1047659808
I0403 18:18:33.602584  6798 layer_factory.hpp:77] Creating layer inception_4c/5x5_reduce
I0403 18:18:33.602609  6798 net.cpp:91] Creating Layer inception_4c/5x5_reduce
I0403 18:18:33.602628  6798 net.cpp:425] inception_4c/5x5_reduce <- inception_4b/output_inception_4b/output_0_split_2
I0403 18:18:33.602651  6798 net.cpp:399] inception_4c/5x5_reduce -> inception_4c/5x5_reduce
I0403 18:18:33.603816  6798 net.cpp:141] Setting up inception_4c/5x5_reduce
I0403 18:18:33.603847  6798 net.cpp:148] Top shape: 24 24 14 14 (112896)
I0403 18:18:33.603863  6798 net.cpp:156] Memory required for data: 1048111392
I0403 18:18:33.603883  6798 layer_factory.hpp:77] Creating layer inception_4c/relu_5x5_reduce
I0403 18:18:33.603902  6798 net.cpp:91] Creating Layer inception_4c/relu_5x5_reduce
I0403 18:18:33.603919  6798 net.cpp:425] inception_4c/relu_5x5_reduce <- inception_4c/5x5_reduce
I0403 18:18:33.603940  6798 net.cpp:386] inception_4c/relu_5x5_reduce -> inception_4c/5x5_reduce (in-place)
I0403 18:18:33.604138  6798 net.cpp:141] Setting up inception_4c/relu_5x5_reduce
I0403 18:18:33.604164  6798 net.cpp:148] Top shape: 24 24 14 14 (112896)
I0403 18:18:33.604179  6798 net.cpp:156] Memory required for data: 1048562976
I0403 18:18:33.604195  6798 layer_factory.hpp:77] Creating layer inception_4c/5x5
I0403 18:18:33.604218  6798 net.cpp:91] Creating Layer inception_4c/5x5
I0403 18:18:33.604238  6798 net.cpp:425] inception_4c/5x5 <- inception_4c/5x5_reduce
I0403 18:18:33.604266  6798 net.cpp:399] inception_4c/5x5 -> inception_4c/5x5
I0403 18:18:33.605597  6798 net.cpp:141] Setting up inception_4c/5x5
I0403 18:18:33.605626  6798 net.cpp:148] Top shape: 24 64 14 14 (301056)
I0403 18:18:33.605643  6798 net.cpp:156] Memory required for data: 1049767200
I0403 18:18:33.605661  6798 layer_factory.hpp:77] Creating layer inception_4c/relu_5x5
I0403 18:18:33.605682  6798 net.cpp:91] Creating Layer inception_4c/relu_5x5
I0403 18:18:33.605701  6798 net.cpp:425] inception_4c/relu_5x5 <- inception_4c/5x5
I0403 18:18:33.605720  6798 net.cpp:386] inception_4c/relu_5x5 -> inception_4c/5x5 (in-place)
I0403 18:18:33.606026  6798 net.cpp:141] Setting up inception_4c/relu_5x5
I0403 18:18:33.606055  6798 net.cpp:148] Top shape: 24 64 14 14 (301056)
I0403 18:18:33.606070  6798 net.cpp:156] Memory required for data: 1050971424
I0403 18:18:33.606086  6798 layer_factory.hpp:77] Creating layer inception_4c/pool
I0403 18:18:33.606108  6798 net.cpp:91] Creating Layer inception_4c/pool
I0403 18:18:33.606127  6798 net.cpp:425] inception_4c/pool <- inception_4b/output_inception_4b/output_0_split_3
I0403 18:18:33.606147  6798 net.cpp:399] inception_4c/pool -> inception_4c/pool
I0403 18:18:33.606218  6798 net.cpp:141] Setting up inception_4c/pool
I0403 18:18:33.606247  6798 net.cpp:148] Top shape: 24 512 14 14 (2408448)
I0403 18:18:33.606266  6798 net.cpp:156] Memory required for data: 1060605216
I0403 18:18:33.606281  6798 layer_factory.hpp:77] Creating layer inception_4c/pool_proj
I0403 18:18:33.606304  6798 net.cpp:91] Creating Layer inception_4c/pool_proj
I0403 18:18:33.606323  6798 net.cpp:425] inception_4c/pool_proj <- inception_4c/pool
I0403 18:18:33.606345  6798 net.cpp:399] inception_4c/pool_proj -> inception_4c/pool_proj
I0403 18:18:33.607661  6798 net.cpp:141] Setting up inception_4c/pool_proj
I0403 18:18:33.607691  6798 net.cpp:148] Top shape: 24 64 14 14 (301056)
I0403 18:18:33.607722  6798 net.cpp:156] Memory required for data: 1061809440
I0403 18:18:33.607743  6798 layer_factory.hpp:77] Creating layer inception_4c/relu_pool_proj
I0403 18:18:33.607764  6798 net.cpp:91] Creating Layer inception_4c/relu_pool_proj
I0403 18:18:33.607781  6798 net.cpp:425] inception_4c/relu_pool_proj <- inception_4c/pool_proj
I0403 18:18:33.607800  6798 net.cpp:386] inception_4c/relu_pool_proj -> inception_4c/pool_proj (in-place)
I0403 18:18:33.607996  6798 net.cpp:141] Setting up inception_4c/relu_pool_proj
I0403 18:18:33.608022  6798 net.cpp:148] Top shape: 24 64 14 14 (301056)
I0403 18:18:33.608037  6798 net.cpp:156] Memory required for data: 1063013664
I0403 18:18:33.608053  6798 layer_factory.hpp:77] Creating layer inception_4c/output
I0403 18:18:33.608074  6798 net.cpp:91] Creating Layer inception_4c/output
I0403 18:18:33.608091  6798 net.cpp:425] inception_4c/output <- inception_4c/1x1
I0403 18:18:33.608109  6798 net.cpp:425] inception_4c/output <- inception_4c/3x3
I0403 18:18:33.608125  6798 net.cpp:425] inception_4c/output <- inception_4c/5x5
I0403 18:18:33.608142  6798 net.cpp:425] inception_4c/output <- inception_4c/pool_proj
I0403 18:18:33.608160  6798 net.cpp:399] inception_4c/output -> inception_4c/output
I0403 18:18:33.608212  6798 net.cpp:141] Setting up inception_4c/output
I0403 18:18:33.608237  6798 net.cpp:148] Top shape: 24 512 14 14 (2408448)
I0403 18:18:33.608256  6798 net.cpp:156] Memory required for data: 1072647456
I0403 18:18:33.608273  6798 layer_factory.hpp:77] Creating layer inception_4c/output_inception_4c/output_0_split
I0403 18:18:33.608291  6798 net.cpp:91] Creating Layer inception_4c/output_inception_4c/output_0_split
I0403 18:18:33.608309  6798 net.cpp:425] inception_4c/output_inception_4c/output_0_split <- inception_4c/output
I0403 18:18:33.608330  6798 net.cpp:399] inception_4c/output_inception_4c/output_0_split -> inception_4c/output_inception_4c/output_0_split_0
I0403 18:18:33.608353  6798 net.cpp:399] inception_4c/output_inception_4c/output_0_split -> inception_4c/output_inception_4c/output_0_split_1
I0403 18:18:33.608374  6798 net.cpp:399] inception_4c/output_inception_4c/output_0_split -> inception_4c/output_inception_4c/output_0_split_2
I0403 18:18:33.608397  6798 net.cpp:399] inception_4c/output_inception_4c/output_0_split -> inception_4c/output_inception_4c/output_0_split_3
I0403 18:18:33.608491  6798 net.cpp:141] Setting up inception_4c/output_inception_4c/output_0_split
I0403 18:18:33.608520  6798 net.cpp:148] Top shape: 24 512 14 14 (2408448)
I0403 18:18:33.608536  6798 net.cpp:148] Top shape: 24 512 14 14 (2408448)
I0403 18:18:33.608554  6798 net.cpp:148] Top shape: 24 512 14 14 (2408448)
I0403 18:18:33.608572  6798 net.cpp:148] Top shape: 24 512 14 14 (2408448)
I0403 18:18:33.608585  6798 net.cpp:156] Memory required for data: 1111182624
I0403 18:18:33.608602  6798 layer_factory.hpp:77] Creating layer inception_4d/1x1
I0403 18:18:33.608624  6798 net.cpp:91] Creating Layer inception_4d/1x1
I0403 18:18:33.608644  6798 net.cpp:425] inception_4d/1x1 <- inception_4c/output_inception_4c/output_0_split_0
I0403 18:18:33.608664  6798 net.cpp:399] inception_4d/1x1 -> inception_4d/1x1
I0403 18:18:33.610153  6798 net.cpp:141] Setting up inception_4d/1x1
I0403 18:18:33.610186  6798 net.cpp:148] Top shape: 24 112 14 14 (526848)
I0403 18:18:33.610203  6798 net.cpp:156] Memory required for data: 1113290016
I0403 18:18:33.610224  6798 layer_factory.hpp:77] Creating layer inception_4d/relu_1x1
I0403 18:18:33.610246  6798 net.cpp:91] Creating Layer inception_4d/relu_1x1
I0403 18:18:33.610265  6798 net.cpp:425] inception_4d/relu_1x1 <- inception_4d/1x1
I0403 18:18:33.610286  6798 net.cpp:386] inception_4d/relu_1x1 -> inception_4d/1x1 (in-place)
I0403 18:18:33.610488  6798 net.cpp:141] Setting up inception_4d/relu_1x1
I0403 18:18:33.610514  6798 net.cpp:148] Top shape: 24 112 14 14 (526848)
I0403 18:18:33.610530  6798 net.cpp:156] Memory required for data: 1115397408
I0403 18:18:33.610546  6798 layer_factory.hpp:77] Creating layer inception_4d/3x3_reduce
I0403 18:18:33.610584  6798 net.cpp:91] Creating Layer inception_4d/3x3_reduce
I0403 18:18:33.610605  6798 net.cpp:425] inception_4d/3x3_reduce <- inception_4c/output_inception_4c/output_0_split_1
I0403 18:18:33.610626  6798 net.cpp:399] inception_4d/3x3_reduce -> inception_4d/3x3_reduce
I0403 18:18:33.612257  6798 net.cpp:141] Setting up inception_4d/3x3_reduce
I0403 18:18:33.612287  6798 net.cpp:148] Top shape: 24 144 14 14 (677376)
I0403 18:18:33.612308  6798 net.cpp:156] Memory required for data: 1118106912
I0403 18:18:33.612329  6798 layer_factory.hpp:77] Creating layer inception_4d/relu_3x3_reduce
I0403 18:18:33.612349  6798 net.cpp:91] Creating Layer inception_4d/relu_3x3_reduce
I0403 18:18:33.612365  6798 net.cpp:425] inception_4d/relu_3x3_reduce <- inception_4d/3x3_reduce
I0403 18:18:33.612396  6798 net.cpp:386] inception_4d/relu_3x3_reduce -> inception_4d/3x3_reduce (in-place)
I0403 18:18:33.612695  6798 net.cpp:141] Setting up inception_4d/relu_3x3_reduce
I0403 18:18:33.612725  6798 net.cpp:148] Top shape: 24 144 14 14 (677376)
I0403 18:18:33.612741  6798 net.cpp:156] Memory required for data: 1120816416
I0403 18:18:33.612757  6798 layer_factory.hpp:77] Creating layer inception_4d/3x3
I0403 18:18:33.612779  6798 net.cpp:91] Creating Layer inception_4d/3x3
I0403 18:18:33.612797  6798 net.cpp:425] inception_4d/3x3 <- inception_4d/3x3_reduce
I0403 18:18:33.612818  6798 net.cpp:399] inception_4d/3x3 -> inception_4d/3x3
I0403 18:18:33.617260  6798 net.cpp:141] Setting up inception_4d/3x3
I0403 18:18:33.617291  6798 net.cpp:148] Top shape: 24 288 14 14 (1354752)
I0403 18:18:33.617307  6798 net.cpp:156] Memory required for data: 1126235424
I0403 18:18:33.617326  6798 layer_factory.hpp:77] Creating layer inception_4d/relu_3x3
I0403 18:18:33.617346  6798 net.cpp:91] Creating Layer inception_4d/relu_3x3
I0403 18:18:33.617362  6798 net.cpp:425] inception_4d/relu_3x3 <- inception_4d/3x3
I0403 18:18:33.617382  6798 net.cpp:386] inception_4d/relu_3x3 -> inception_4d/3x3 (in-place)
I0403 18:18:33.617574  6798 net.cpp:141] Setting up inception_4d/relu_3x3
I0403 18:18:33.617599  6798 net.cpp:148] Top shape: 24 288 14 14 (1354752)
I0403 18:18:33.617614  6798 net.cpp:156] Memory required for data: 1131654432
I0403 18:18:33.617630  6798 layer_factory.hpp:77] Creating layer inception_4d/5x5_reduce
I0403 18:18:33.617652  6798 net.cpp:91] Creating Layer inception_4d/5x5_reduce
I0403 18:18:33.617669  6798 net.cpp:425] inception_4d/5x5_reduce <- inception_4c/output_inception_4c/output_0_split_2
I0403 18:18:33.617691  6798 net.cpp:399] inception_4d/5x5_reduce -> inception_4d/5x5_reduce
I0403 18:18:33.618893  6798 net.cpp:141] Setting up inception_4d/5x5_reduce
I0403 18:18:33.618926  6798 net.cpp:148] Top shape: 24 32 14 14 (150528)
I0403 18:18:33.618942  6798 net.cpp:156] Memory required for data: 1132256544
I0403 18:18:33.618960  6798 layer_factory.hpp:77] Creating layer inception_4d/relu_5x5_reduce
I0403 18:18:33.618978  6798 net.cpp:91] Creating Layer inception_4d/relu_5x5_reduce
I0403 18:18:33.618995  6798 net.cpp:425] inception_4d/relu_5x5_reduce <- inception_4d/5x5_reduce
I0403 18:18:33.619015  6798 net.cpp:386] inception_4d/relu_5x5_reduce -> inception_4d/5x5_reduce (in-place)
I0403 18:18:33.619210  6798 net.cpp:141] Setting up inception_4d/relu_5x5_reduce
I0403 18:18:33.619235  6798 net.cpp:148] Top shape: 24 32 14 14 (150528)
I0403 18:18:33.619254  6798 net.cpp:156] Memory required for data: 1132858656
I0403 18:18:33.619271  6798 layer_factory.hpp:77] Creating layer inception_4d/5x5
I0403 18:18:33.619294  6798 net.cpp:91] Creating Layer inception_4d/5x5
I0403 18:18:33.619313  6798 net.cpp:425] inception_4d/5x5 <- inception_4d/5x5_reduce
I0403 18:18:33.619334  6798 net.cpp:399] inception_4d/5x5 -> inception_4d/5x5
I0403 18:18:33.620833  6798 net.cpp:141] Setting up inception_4d/5x5
I0403 18:18:33.620860  6798 net.cpp:148] Top shape: 24 64 14 14 (301056)
I0403 18:18:33.620877  6798 net.cpp:156] Memory required for data: 1134062880
I0403 18:18:33.620895  6798 layer_factory.hpp:77] Creating layer inception_4d/relu_5x5
I0403 18:18:33.620930  6798 net.cpp:91] Creating Layer inception_4d/relu_5x5
I0403 18:18:33.620949  6798 net.cpp:425] inception_4d/relu_5x5 <- inception_4d/5x5
I0403 18:18:33.620965  6798 net.cpp:386] inception_4d/relu_5x5 -> inception_4d/5x5 (in-place)
I0403 18:18:33.621270  6798 net.cpp:141] Setting up inception_4d/relu_5x5
I0403 18:18:33.621296  6798 net.cpp:148] Top shape: 24 64 14 14 (301056)
I0403 18:18:33.621310  6798 net.cpp:156] Memory required for data: 1135267104
I0403 18:18:33.621325  6798 layer_factory.hpp:77] Creating layer inception_4d/pool
I0403 18:18:33.621346  6798 net.cpp:91] Creating Layer inception_4d/pool
I0403 18:18:33.621363  6798 net.cpp:425] inception_4d/pool <- inception_4c/output_inception_4c/output_0_split_3
I0403 18:18:33.621382  6798 net.cpp:399] inception_4d/pool -> inception_4d/pool
I0403 18:18:33.621451  6798 net.cpp:141] Setting up inception_4d/pool
I0403 18:18:33.621474  6798 net.cpp:148] Top shape: 24 512 14 14 (2408448)
I0403 18:18:33.621490  6798 net.cpp:156] Memory required for data: 1144900896
I0403 18:18:33.621505  6798 layer_factory.hpp:77] Creating layer inception_4d/pool_proj
I0403 18:18:33.621526  6798 net.cpp:91] Creating Layer inception_4d/pool_proj
I0403 18:18:33.621544  6798 net.cpp:425] inception_4d/pool_proj <- inception_4d/pool
I0403 18:18:33.621565  6798 net.cpp:399] inception_4d/pool_proj -> inception_4d/pool_proj
I0403 18:18:33.623371  6798 net.cpp:141] Setting up inception_4d/pool_proj
I0403 18:18:33.623399  6798 net.cpp:148] Top shape: 24 64 14 14 (301056)
I0403 18:18:33.623415  6798 net.cpp:156] Memory required for data: 1146105120
I0403 18:18:33.623433  6798 layer_factory.hpp:77] Creating layer inception_4d/relu_pool_proj
I0403 18:18:33.623452  6798 net.cpp:91] Creating Layer inception_4d/relu_pool_proj
I0403 18:18:33.623468  6798 net.cpp:425] inception_4d/relu_pool_proj <- inception_4d/pool_proj
I0403 18:18:33.623487  6798 net.cpp:386] inception_4d/relu_pool_proj -> inception_4d/pool_proj (in-place)
I0403 18:18:33.623675  6798 net.cpp:141] Setting up inception_4d/relu_pool_proj
I0403 18:18:33.623700  6798 net.cpp:148] Top shape: 24 64 14 14 (301056)
I0403 18:18:33.623715  6798 net.cpp:156] Memory required for data: 1147309344
I0403 18:18:33.623730  6798 layer_factory.hpp:77] Creating layer inception_4d/output
I0403 18:18:33.623747  6798 net.cpp:91] Creating Layer inception_4d/output
I0403 18:18:33.623764  6798 net.cpp:425] inception_4d/output <- inception_4d/1x1
I0403 18:18:33.623782  6798 net.cpp:425] inception_4d/output <- inception_4d/3x3
I0403 18:18:33.623800  6798 net.cpp:425] inception_4d/output <- inception_4d/5x5
I0403 18:18:33.623816  6798 net.cpp:425] inception_4d/output <- inception_4d/pool_proj
I0403 18:18:33.623831  6798 net.cpp:399] inception_4d/output -> inception_4d/output
I0403 18:18:33.623879  6798 net.cpp:141] Setting up inception_4d/output
I0403 18:18:33.623904  6798 net.cpp:148] Top shape: 24 528 14 14 (2483712)
I0403 18:18:33.623919  6798 net.cpp:156] Memory required for data: 1157244192
I0403 18:18:33.623934  6798 layer_factory.hpp:77] Creating layer inception_4d/output_inception_4d/output_0_split
I0403 18:18:33.623953  6798 net.cpp:91] Creating Layer inception_4d/output_inception_4d/output_0_split
I0403 18:18:33.623970  6798 net.cpp:425] inception_4d/output_inception_4d/output_0_split <- inception_4d/output
I0403 18:18:33.623988  6798 net.cpp:399] inception_4d/output_inception_4d/output_0_split -> inception_4d/output_inception_4d/output_0_split_0
I0403 18:18:33.624011  6798 net.cpp:399] inception_4d/output_inception_4d/output_0_split -> inception_4d/output_inception_4d/output_0_split_1
I0403 18:18:33.624030  6798 net.cpp:399] inception_4d/output_inception_4d/output_0_split -> inception_4d/output_inception_4d/output_0_split_2
I0403 18:18:33.624050  6798 net.cpp:399] inception_4d/output_inception_4d/output_0_split -> inception_4d/output_inception_4d/output_0_split_3
I0403 18:18:33.624070  6798 net.cpp:399] inception_4d/output_inception_4d/output_0_split -> inception_4d/output_inception_4d/output_0_split_4
I0403 18:18:33.624174  6798 net.cpp:141] Setting up inception_4d/output_inception_4d/output_0_split
I0403 18:18:33.624212  6798 net.cpp:148] Top shape: 24 528 14 14 (2483712)
I0403 18:18:33.624230  6798 net.cpp:148] Top shape: 24 528 14 14 (2483712)
I0403 18:18:33.624253  6798 net.cpp:148] Top shape: 24 528 14 14 (2483712)
I0403 18:18:33.624269  6798 net.cpp:148] Top shape: 24 528 14 14 (2483712)
I0403 18:18:33.624284  6798 net.cpp:148] Top shape: 24 528 14 14 (2483712)
I0403 18:18:33.624297  6798 net.cpp:156] Memory required for data: 1206918432
I0403 18:18:33.624312  6798 layer_factory.hpp:77] Creating layer loss2/ave_pool
I0403 18:18:33.624330  6798 net.cpp:91] Creating Layer loss2/ave_pool
I0403 18:18:33.624346  6798 net.cpp:425] loss2/ave_pool <- inception_4d/output_inception_4d/output_0_split_0
I0403 18:18:33.624368  6798 net.cpp:399] loss2/ave_pool -> loss2/ave_pool
I0403 18:18:33.624685  6798 net.cpp:141] Setting up loss2/ave_pool
I0403 18:18:33.624711  6798 net.cpp:148] Top shape: 24 528 4 4 (202752)
I0403 18:18:33.624725  6798 net.cpp:156] Memory required for data: 1207729440
I0403 18:18:33.624740  6798 layer_factory.hpp:77] Creating layer loss2/conv
I0403 18:18:33.624763  6798 net.cpp:91] Creating Layer loss2/conv
I0403 18:18:33.624781  6798 net.cpp:425] loss2/conv <- loss2/ave_pool
I0403 18:18:33.624801  6798 net.cpp:399] loss2/conv -> loss2/conv
I0403 18:18:33.626731  6798 net.cpp:141] Setting up loss2/conv
I0403 18:18:33.626760  6798 net.cpp:148] Top shape: 24 128 4 4 (49152)
I0403 18:18:33.626775  6798 net.cpp:156] Memory required for data: 1207926048
I0403 18:18:33.626794  6798 layer_factory.hpp:77] Creating layer loss2/relu_conv
I0403 18:18:33.626816  6798 net.cpp:91] Creating Layer loss2/relu_conv
I0403 18:18:33.626833  6798 net.cpp:425] loss2/relu_conv <- loss2/conv
I0403 18:18:33.626850  6798 net.cpp:386] loss2/relu_conv -> loss2/conv (in-place)
I0403 18:18:33.627137  6798 net.cpp:141] Setting up loss2/relu_conv
I0403 18:18:33.627163  6798 net.cpp:148] Top shape: 24 128 4 4 (49152)
I0403 18:18:33.627178  6798 net.cpp:156] Memory required for data: 1208122656
I0403 18:18:33.627194  6798 layer_factory.hpp:77] Creating layer loss2/fc
I0403 18:18:33.627215  6798 net.cpp:91] Creating Layer loss2/fc
I0403 18:18:33.627233  6798 net.cpp:425] loss2/fc <- loss2/conv
I0403 18:18:33.627256  6798 net.cpp:399] loss2/fc -> loss2/fc
I0403 18:18:33.645149  6798 net.cpp:141] Setting up loss2/fc
I0403 18:18:33.645186  6798 net.cpp:148] Top shape: 24 1024 (24576)
I0403 18:18:33.645201  6798 net.cpp:156] Memory required for data: 1208220960
I0403 18:18:33.645220  6798 layer_factory.hpp:77] Creating layer loss2/relu_fc
I0403 18:18:33.645241  6798 net.cpp:91] Creating Layer loss2/relu_fc
I0403 18:18:33.645259  6798 net.cpp:425] loss2/relu_fc <- loss2/fc
I0403 18:18:33.645278  6798 net.cpp:386] loss2/relu_fc -> loss2/fc (in-place)
I0403 18:18:33.645591  6798 net.cpp:141] Setting up loss2/relu_fc
I0403 18:18:33.645617  6798 net.cpp:148] Top shape: 24 1024 (24576)
I0403 18:18:33.645632  6798 net.cpp:156] Memory required for data: 1208319264
I0403 18:18:33.645647  6798 layer_factory.hpp:77] Creating layer loss2/drop_fc
I0403 18:18:33.645665  6798 net.cpp:91] Creating Layer loss2/drop_fc
I0403 18:18:33.645680  6798 net.cpp:425] loss2/drop_fc <- loss2/fc
I0403 18:18:33.645700  6798 net.cpp:386] loss2/drop_fc -> loss2/fc (in-place)
I0403 18:18:33.645750  6798 net.cpp:141] Setting up loss2/drop_fc
I0403 18:18:33.645774  6798 net.cpp:148] Top shape: 24 1024 (24576)
I0403 18:18:33.645788  6798 net.cpp:156] Memory required for data: 1208417568
I0403 18:18:33.645803  6798 layer_factory.hpp:77] Creating layer loss2/classifier_plantvillage
I0403 18:18:33.645825  6798 net.cpp:91] Creating Layer loss2/classifier_plantvillage
I0403 18:18:33.645843  6798 net.cpp:425] loss2/classifier_plantvillage <- loss2/fc
I0403 18:18:33.645864  6798 net.cpp:399] loss2/classifier_plantvillage -> loss2/classifier_plantvillage
I0403 18:18:33.646286  6798 net.cpp:141] Setting up loss2/classifier_plantvillage
I0403 18:18:33.646316  6798 net.cpp:148] Top shape: 24 38 (912)
I0403 18:18:33.646349  6798 net.cpp:156] Memory required for data: 1208421216
I0403 18:18:33.646369  6798 layer_factory.hpp:77] Creating layer loss2/classifier_plantvillage_loss2/classifier_plantvillage_0_split
I0403 18:18:33.646389  6798 net.cpp:91] Creating Layer loss2/classifier_plantvillage_loss2/classifier_plantvillage_0_split
I0403 18:18:33.646404  6798 net.cpp:425] loss2/classifier_plantvillage_loss2/classifier_plantvillage_0_split <- loss2/classifier_plantvillage
I0403 18:18:33.646423  6798 net.cpp:399] loss2/classifier_plantvillage_loss2/classifier_plantvillage_0_split -> loss2/classifier_plantvillage_loss2/classifier_plantvillage_0_split_0
I0403 18:18:33.646445  6798 net.cpp:399] loss2/classifier_plantvillage_loss2/classifier_plantvillage_0_split -> loss2/classifier_plantvillage_loss2/classifier_plantvillage_0_split_1
I0403 18:18:33.646466  6798 net.cpp:399] loss2/classifier_plantvillage_loss2/classifier_plantvillage_0_split -> loss2/classifier_plantvillage_loss2/classifier_plantvillage_0_split_2
I0403 18:18:33.646546  6798 net.cpp:141] Setting up loss2/classifier_plantvillage_loss2/classifier_plantvillage_0_split
I0403 18:18:33.646570  6798 net.cpp:148] Top shape: 24 38 (912)
I0403 18:18:33.646587  6798 net.cpp:148] Top shape: 24 38 (912)
I0403 18:18:33.646603  6798 net.cpp:148] Top shape: 24 38 (912)
I0403 18:18:33.646617  6798 net.cpp:156] Memory required for data: 1208432160
I0403 18:18:33.646632  6798 layer_factory.hpp:77] Creating layer inception_4e/1x1
I0403 18:18:33.646652  6798 net.cpp:91] Creating Layer inception_4e/1x1
I0403 18:18:33.646669  6798 net.cpp:425] inception_4e/1x1 <- inception_4d/output_inception_4d/output_0_split_1
I0403 18:18:33.646690  6798 net.cpp:399] inception_4e/1x1 -> inception_4e/1x1
I0403 18:18:33.648581  6798 net.cpp:141] Setting up inception_4e/1x1
I0403 18:18:33.648609  6798 net.cpp:148] Top shape: 24 256 14 14 (1204224)
I0403 18:18:33.648625  6798 net.cpp:156] Memory required for data: 1213249056
I0403 18:18:33.648644  6798 layer_factory.hpp:77] Creating layer inception_4e/relu_1x1
I0403 18:18:33.648665  6798 net.cpp:91] Creating Layer inception_4e/relu_1x1
I0403 18:18:33.648682  6798 net.cpp:425] inception_4e/relu_1x1 <- inception_4e/1x1
I0403 18:18:33.648700  6798 net.cpp:386] inception_4e/relu_1x1 -> inception_4e/1x1 (in-place)
I0403 18:18:33.649005  6798 net.cpp:141] Setting up inception_4e/relu_1x1
I0403 18:18:33.649031  6798 net.cpp:148] Top shape: 24 256 14 14 (1204224)
I0403 18:18:33.649047  6798 net.cpp:156] Memory required for data: 1218065952
I0403 18:18:33.649061  6798 layer_factory.hpp:77] Creating layer inception_4e/3x3_reduce
I0403 18:18:33.649083  6798 net.cpp:91] Creating Layer inception_4e/3x3_reduce
I0403 18:18:33.649101  6798 net.cpp:425] inception_4e/3x3_reduce <- inception_4d/output_inception_4d/output_0_split_2
I0403 18:18:33.649124  6798 net.cpp:399] inception_4e/3x3_reduce -> inception_4e/3x3_reduce
I0403 18:18:33.651340  6798 net.cpp:141] Setting up inception_4e/3x3_reduce
I0403 18:18:33.651370  6798 net.cpp:148] Top shape: 24 160 14 14 (752640)
I0403 18:18:33.651384  6798 net.cpp:156] Memory required for data: 1221076512
I0403 18:18:33.651403  6798 layer_factory.hpp:77] Creating layer inception_4e/relu_3x3_reduce
I0403 18:18:33.651424  6798 net.cpp:91] Creating Layer inception_4e/relu_3x3_reduce
I0403 18:18:33.651443  6798 net.cpp:425] inception_4e/relu_3x3_reduce <- inception_4e/3x3_reduce
I0403 18:18:33.651459  6798 net.cpp:386] inception_4e/relu_3x3_reduce -> inception_4e/3x3_reduce (in-place)
I0403 18:18:33.651655  6798 net.cpp:141] Setting up inception_4e/relu_3x3_reduce
I0403 18:18:33.651681  6798 net.cpp:148] Top shape: 24 160 14 14 (752640)
I0403 18:18:33.651696  6798 net.cpp:156] Memory required for data: 1224087072
I0403 18:18:33.651712  6798 layer_factory.hpp:77] Creating layer inception_4e/3x3
I0403 18:18:33.651736  6798 net.cpp:91] Creating Layer inception_4e/3x3
I0403 18:18:33.651754  6798 net.cpp:425] inception_4e/3x3 <- inception_4e/3x3_reduce
I0403 18:18:33.651773  6798 net.cpp:399] inception_4e/3x3 -> inception_4e/3x3
I0403 18:18:33.656985  6798 net.cpp:141] Setting up inception_4e/3x3
I0403 18:18:33.657027  6798 net.cpp:148] Top shape: 24 320 14 14 (1505280)
I0403 18:18:33.657043  6798 net.cpp:156] Memory required for data: 1230108192
I0403 18:18:33.657063  6798 layer_factory.hpp:77] Creating layer inception_4e/relu_3x3
I0403 18:18:33.657083  6798 net.cpp:91] Creating Layer inception_4e/relu_3x3
I0403 18:18:33.657102  6798 net.cpp:425] inception_4e/relu_3x3 <- inception_4e/3x3
I0403 18:18:33.657119  6798 net.cpp:386] inception_4e/relu_3x3 -> inception_4e/3x3 (in-place)
I0403 18:18:33.657433  6798 net.cpp:141] Setting up inception_4e/relu_3x3
I0403 18:18:33.657462  6798 net.cpp:148] Top shape: 24 320 14 14 (1505280)
I0403 18:18:33.657479  6798 net.cpp:156] Memory required for data: 1236129312
I0403 18:18:33.657495  6798 layer_factory.hpp:77] Creating layer inception_4e/5x5_reduce
I0403 18:18:33.657517  6798 net.cpp:91] Creating Layer inception_4e/5x5_reduce
I0403 18:18:33.657536  6798 net.cpp:425] inception_4e/5x5_reduce <- inception_4d/output_inception_4d/output_0_split_3
I0403 18:18:33.657557  6798 net.cpp:399] inception_4e/5x5_reduce -> inception_4e/5x5_reduce
I0403 18:18:33.658670  6798 net.cpp:141] Setting up inception_4e/5x5_reduce
I0403 18:18:33.658699  6798 net.cpp:148] Top shape: 24 32 14 14 (150528)
I0403 18:18:33.658715  6798 net.cpp:156] Memory required for data: 1236731424
I0403 18:18:33.658733  6798 layer_factory.hpp:77] Creating layer inception_4e/relu_5x5_reduce
I0403 18:18:33.658756  6798 net.cpp:91] Creating Layer inception_4e/relu_5x5_reduce
I0403 18:18:33.658773  6798 net.cpp:425] inception_4e/relu_5x5_reduce <- inception_4e/5x5_reduce
I0403 18:18:33.658790  6798 net.cpp:386] inception_4e/relu_5x5_reduce -> inception_4e/5x5_reduce (in-place)
I0403 18:18:33.659101  6798 net.cpp:141] Setting up inception_4e/relu_5x5_reduce
I0403 18:18:33.659128  6798 net.cpp:148] Top shape: 24 32 14 14 (150528)
I0403 18:18:33.659143  6798 net.cpp:156] Memory required for data: 1237333536
I0403 18:18:33.659160  6798 layer_factory.hpp:77] Creating layer inception_4e/5x5
I0403 18:18:33.659198  6798 net.cpp:91] Creating Layer inception_4e/5x5
I0403 18:18:33.659219  6798 net.cpp:425] inception_4e/5x5 <- inception_4e/5x5_reduce
I0403 18:18:33.659243  6798 net.cpp:399] inception_4e/5x5 -> inception_4e/5x5
I0403 18:18:33.661151  6798 net.cpp:141] Setting up inception_4e/5x5
I0403 18:18:33.661180  6798 net.cpp:148] Top shape: 24 128 14 14 (602112)
I0403 18:18:33.661195  6798 net.cpp:156] Memory required for data: 1239741984
I0403 18:18:33.661216  6798 layer_factory.hpp:77] Creating layer inception_4e/relu_5x5
I0403 18:18:33.661234  6798 net.cpp:91] Creating Layer inception_4e/relu_5x5
I0403 18:18:33.661255  6798 net.cpp:425] inception_4e/relu_5x5 <- inception_4e/5x5
I0403 18:18:33.661276  6798 net.cpp:386] inception_4e/relu_5x5 -> inception_4e/5x5 (in-place)
I0403 18:18:33.661480  6798 net.cpp:141] Setting up inception_4e/relu_5x5
I0403 18:18:33.661506  6798 net.cpp:148] Top shape: 24 128 14 14 (602112)
I0403 18:18:33.661521  6798 net.cpp:156] Memory required for data: 1242150432
I0403 18:18:33.661536  6798 layer_factory.hpp:77] Creating layer inception_4e/pool
I0403 18:18:33.661556  6798 net.cpp:91] Creating Layer inception_4e/pool
I0403 18:18:33.661574  6798 net.cpp:425] inception_4e/pool <- inception_4d/output_inception_4d/output_0_split_4
I0403 18:18:33.661592  6798 net.cpp:399] inception_4e/pool -> inception_4e/pool
I0403 18:18:33.661667  6798 net.cpp:141] Setting up inception_4e/pool
I0403 18:18:33.661691  6798 net.cpp:148] Top shape: 24 528 14 14 (2483712)
I0403 18:18:33.661706  6798 net.cpp:156] Memory required for data: 1252085280
I0403 18:18:33.661721  6798 layer_factory.hpp:77] Creating layer inception_4e/pool_proj
I0403 18:18:33.661743  6798 net.cpp:91] Creating Layer inception_4e/pool_proj
I0403 18:18:33.661762  6798 net.cpp:425] inception_4e/pool_proj <- inception_4e/pool
I0403 18:18:33.661783  6798 net.cpp:399] inception_4e/pool_proj -> inception_4e/pool_proj
I0403 18:18:33.663357  6798 net.cpp:141] Setting up inception_4e/pool_proj
I0403 18:18:33.663398  6798 net.cpp:148] Top shape: 24 128 14 14 (602112)
I0403 18:18:33.663414  6798 net.cpp:156] Memory required for data: 1254493728
I0403 18:18:33.663434  6798 layer_factory.hpp:77] Creating layer inception_4e/relu_pool_proj
I0403 18:18:33.663452  6798 net.cpp:91] Creating Layer inception_4e/relu_pool_proj
I0403 18:18:33.663468  6798 net.cpp:425] inception_4e/relu_pool_proj <- inception_4e/pool_proj
I0403 18:18:33.663488  6798 net.cpp:386] inception_4e/relu_pool_proj -> inception_4e/pool_proj (in-place)
I0403 18:18:33.663792  6798 net.cpp:141] Setting up inception_4e/relu_pool_proj
I0403 18:18:33.663820  6798 net.cpp:148] Top shape: 24 128 14 14 (602112)
I0403 18:18:33.663835  6798 net.cpp:156] Memory required for data: 1256902176
I0403 18:18:33.663849  6798 layer_factory.hpp:77] Creating layer inception_4e/output
I0403 18:18:33.663868  6798 net.cpp:91] Creating Layer inception_4e/output
I0403 18:18:33.663884  6798 net.cpp:425] inception_4e/output <- inception_4e/1x1
I0403 18:18:33.663902  6798 net.cpp:425] inception_4e/output <- inception_4e/3x3
I0403 18:18:33.663919  6798 net.cpp:425] inception_4e/output <- inception_4e/5x5
I0403 18:18:33.663935  6798 net.cpp:425] inception_4e/output <- inception_4e/pool_proj
I0403 18:18:33.663956  6798 net.cpp:399] inception_4e/output -> inception_4e/output
I0403 18:18:33.664006  6798 net.cpp:141] Setting up inception_4e/output
I0403 18:18:33.664033  6798 net.cpp:148] Top shape: 24 832 14 14 (3913728)
I0403 18:18:33.664050  6798 net.cpp:156] Memory required for data: 1272557088
I0403 18:18:33.664065  6798 layer_factory.hpp:77] Creating layer pool4/3x3_s2
I0403 18:18:33.664083  6798 net.cpp:91] Creating Layer pool4/3x3_s2
I0403 18:18:33.664099  6798 net.cpp:425] pool4/3x3_s2 <- inception_4e/output
I0403 18:18:33.664119  6798 net.cpp:399] pool4/3x3_s2 -> pool4/3x3_s2
I0403 18:18:33.664191  6798 net.cpp:141] Setting up pool4/3x3_s2
I0403 18:18:33.664216  6798 net.cpp:148] Top shape: 24 832 7 7 (978432)
I0403 18:18:33.664230  6798 net.cpp:156] Memory required for data: 1276470816
I0403 18:18:33.664250  6798 layer_factory.hpp:77] Creating layer pool4/3x3_s2_pool4/3x3_s2_0_split
I0403 18:18:33.664270  6798 net.cpp:91] Creating Layer pool4/3x3_s2_pool4/3x3_s2_0_split
I0403 18:18:33.664288  6798 net.cpp:425] pool4/3x3_s2_pool4/3x3_s2_0_split <- pool4/3x3_s2
I0403 18:18:33.664307  6798 net.cpp:399] pool4/3x3_s2_pool4/3x3_s2_0_split -> pool4/3x3_s2_pool4/3x3_s2_0_split_0
I0403 18:18:33.664330  6798 net.cpp:399] pool4/3x3_s2_pool4/3x3_s2_0_split -> pool4/3x3_s2_pool4/3x3_s2_0_split_1
I0403 18:18:33.664350  6798 net.cpp:399] pool4/3x3_s2_pool4/3x3_s2_0_split -> pool4/3x3_s2_pool4/3x3_s2_0_split_2
I0403 18:18:33.664371  6798 net.cpp:399] pool4/3x3_s2_pool4/3x3_s2_0_split -> pool4/3x3_s2_pool4/3x3_s2_0_split_3
I0403 18:18:33.664469  6798 net.cpp:141] Setting up pool4/3x3_s2_pool4/3x3_s2_0_split
I0403 18:18:33.664494  6798 net.cpp:148] Top shape: 24 832 7 7 (978432)
I0403 18:18:33.664511  6798 net.cpp:148] Top shape: 24 832 7 7 (978432)
I0403 18:18:33.664528  6798 net.cpp:148] Top shape: 24 832 7 7 (978432)
I0403 18:18:33.664544  6798 net.cpp:148] Top shape: 24 832 7 7 (978432)
I0403 18:18:33.664559  6798 net.cpp:156] Memory required for data: 1292125728
I0403 18:18:33.664573  6798 layer_factory.hpp:77] Creating layer inception_5a/1x1
I0403 18:18:33.664597  6798 net.cpp:91] Creating Layer inception_5a/1x1
I0403 18:18:33.664615  6798 net.cpp:425] inception_5a/1x1 <- pool4/3x3_s2_pool4/3x3_s2_0_split_0
I0403 18:18:33.664649  6798 net.cpp:399] inception_5a/1x1 -> inception_5a/1x1
I0403 18:18:33.667639  6798 net.cpp:141] Setting up inception_5a/1x1
I0403 18:18:33.667670  6798 net.cpp:148] Top shape: 24 256 7 7 (301056)
I0403 18:18:33.667686  6798 net.cpp:156] Memory required for data: 1293329952
I0403 18:18:33.667706  6798 layer_factory.hpp:77] Creating layer inception_5a/relu_1x1
I0403 18:18:33.667726  6798 net.cpp:91] Creating Layer inception_5a/relu_1x1
I0403 18:18:33.667743  6798 net.cpp:425] inception_5a/relu_1x1 <- inception_5a/1x1
I0403 18:18:33.667762  6798 net.cpp:386] inception_5a/relu_1x1 -> inception_5a/1x1 (in-place)
I0403 18:18:33.668087  6798 net.cpp:141] Setting up inception_5a/relu_1x1
I0403 18:18:33.668115  6798 net.cpp:148] Top shape: 24 256 7 7 (301056)
I0403 18:18:33.668131  6798 net.cpp:156] Memory required for data: 1294534176
I0403 18:18:33.668146  6798 layer_factory.hpp:77] Creating layer inception_5a/3x3_reduce
I0403 18:18:33.668169  6798 net.cpp:91] Creating Layer inception_5a/3x3_reduce
I0403 18:18:33.668187  6798 net.cpp:425] inception_5a/3x3_reduce <- pool4/3x3_s2_pool4/3x3_s2_0_split_1
I0403 18:18:33.668210  6798 net.cpp:399] inception_5a/3x3_reduce -> inception_5a/3x3_reduce
I0403 18:18:33.670789  6798 net.cpp:141] Setting up inception_5a/3x3_reduce
I0403 18:18:33.670821  6798 net.cpp:148] Top shape: 24 160 7 7 (188160)
I0403 18:18:33.670838  6798 net.cpp:156] Memory required for data: 1295286816
I0403 18:18:33.670857  6798 layer_factory.hpp:77] Creating layer inception_5a/relu_3x3_reduce
I0403 18:18:33.670877  6798 net.cpp:91] Creating Layer inception_5a/relu_3x3_reduce
I0403 18:18:33.670894  6798 net.cpp:425] inception_5a/relu_3x3_reduce <- inception_5a/3x3_reduce
I0403 18:18:33.670912  6798 net.cpp:386] inception_5a/relu_3x3_reduce -> inception_5a/3x3_reduce (in-place)
I0403 18:18:33.671113  6798 net.cpp:141] Setting up inception_5a/relu_3x3_reduce
I0403 18:18:33.671138  6798 net.cpp:148] Top shape: 24 160 7 7 (188160)
I0403 18:18:33.671151  6798 net.cpp:156] Memory required for data: 1296039456
I0403 18:18:33.671169  6798 layer_factory.hpp:77] Creating layer inception_5a/3x3
I0403 18:18:33.671190  6798 net.cpp:91] Creating Layer inception_5a/3x3
I0403 18:18:33.671208  6798 net.cpp:425] inception_5a/3x3 <- inception_5a/3x3_reduce
I0403 18:18:33.671231  6798 net.cpp:399] inception_5a/3x3 -> inception_5a/3x3
I0403 18:18:33.676489  6798 net.cpp:141] Setting up inception_5a/3x3
I0403 18:18:33.676520  6798 net.cpp:148] Top shape: 24 320 7 7 (376320)
I0403 18:18:33.676535  6798 net.cpp:156] Memory required for data: 1297544736
I0403 18:18:33.676555  6798 layer_factory.hpp:77] Creating layer inception_5a/relu_3x3
I0403 18:18:33.676574  6798 net.cpp:91] Creating Layer inception_5a/relu_3x3
I0403 18:18:33.676591  6798 net.cpp:425] inception_5a/relu_3x3 <- inception_5a/3x3
I0403 18:18:33.676612  6798 net.cpp:386] inception_5a/relu_3x3 -> inception_5a/3x3 (in-place)
I0403 18:18:33.676919  6798 net.cpp:141] Setting up inception_5a/relu_3x3
I0403 18:18:33.676946  6798 net.cpp:148] Top shape: 24 320 7 7 (376320)
I0403 18:18:33.676962  6798 net.cpp:156] Memory required for data: 1299050016
I0403 18:18:33.676977  6798 layer_factory.hpp:77] Creating layer inception_5a/5x5_reduce
I0403 18:18:33.677001  6798 net.cpp:91] Creating Layer inception_5a/5x5_reduce
I0403 18:18:33.677019  6798 net.cpp:425] inception_5a/5x5_reduce <- pool4/3x3_s2_pool4/3x3_s2_0_split_2
I0403 18:18:33.677042  6798 net.cpp:399] inception_5a/5x5_reduce -> inception_5a/5x5_reduce
I0403 18:18:33.678319  6798 net.cpp:141] Setting up inception_5a/5x5_reduce
I0403 18:18:33.678351  6798 net.cpp:148] Top shape: 24 32 7 7 (37632)
I0403 18:18:33.678367  6798 net.cpp:156] Memory required for data: 1299200544
I0403 18:18:33.678387  6798 layer_factory.hpp:77] Creating layer inception_5a/relu_5x5_reduce
I0403 18:18:33.678406  6798 net.cpp:91] Creating Layer inception_5a/relu_5x5_reduce
I0403 18:18:33.678423  6798 net.cpp:425] inception_5a/relu_5x5_reduce <- inception_5a/5x5_reduce
I0403 18:18:33.678442  6798 net.cpp:386] inception_5a/relu_5x5_reduce -> inception_5a/5x5_reduce (in-place)
I0403 18:18:33.678752  6798 net.cpp:141] Setting up inception_5a/relu_5x5_reduce
I0403 18:18:33.678779  6798 net.cpp:148] Top shape: 24 32 7 7 (37632)
I0403 18:18:33.678794  6798 net.cpp:156] Memory required for data: 1299351072
I0403 18:18:33.678810  6798 layer_factory.hpp:77] Creating layer inception_5a/5x5
I0403 18:18:33.678833  6798 net.cpp:91] Creating Layer inception_5a/5x5
I0403 18:18:33.678851  6798 net.cpp:425] inception_5a/5x5 <- inception_5a/5x5_reduce
I0403 18:18:33.678874  6798 net.cpp:399] inception_5a/5x5 -> inception_5a/5x5
I0403 18:18:33.680683  6798 net.cpp:141] Setting up inception_5a/5x5
I0403 18:18:33.680728  6798 net.cpp:148] Top shape: 24 128 7 7 (150528)
I0403 18:18:33.680744  6798 net.cpp:156] Memory required for data: 1299953184
I0403 18:18:33.680763  6798 layer_factory.hpp:77] Creating layer inception_5a/relu_5x5
I0403 18:18:33.680783  6798 net.cpp:91] Creating Layer inception_5a/relu_5x5
I0403 18:18:33.680799  6798 net.cpp:425] inception_5a/relu_5x5 <- inception_5a/5x5
I0403 18:18:33.680819  6798 net.cpp:386] inception_5a/relu_5x5 -> inception_5a/5x5 (in-place)
I0403 18:18:33.681020  6798 net.cpp:141] Setting up inception_5a/relu_5x5
I0403 18:18:33.681046  6798 net.cpp:148] Top shape: 24 128 7 7 (150528)
I0403 18:18:33.681061  6798 net.cpp:156] Memory required for data: 1300555296
I0403 18:18:33.681074  6798 layer_factory.hpp:77] Creating layer inception_5a/pool
I0403 18:18:33.681095  6798 net.cpp:91] Creating Layer inception_5a/pool
I0403 18:18:33.681113  6798 net.cpp:425] inception_5a/pool <- pool4/3x3_s2_pool4/3x3_s2_0_split_3
I0403 18:18:33.681131  6798 net.cpp:399] inception_5a/pool -> inception_5a/pool
I0403 18:18:33.681207  6798 net.cpp:141] Setting up inception_5a/pool
I0403 18:18:33.681232  6798 net.cpp:148] Top shape: 24 832 7 7 (978432)
I0403 18:18:33.681254  6798 net.cpp:156] Memory required for data: 1304469024
I0403 18:18:33.681270  6798 layer_factory.hpp:77] Creating layer inception_5a/pool_proj
I0403 18:18:33.681293  6798 net.cpp:91] Creating Layer inception_5a/pool_proj
I0403 18:18:33.681313  6798 net.cpp:425] inception_5a/pool_proj <- inception_5a/pool
I0403 18:18:33.681334  6798 net.cpp:399] inception_5a/pool_proj -> inception_5a/pool_proj
I0403 18:18:33.683749  6798 net.cpp:141] Setting up inception_5a/pool_proj
I0403 18:18:33.683782  6798 net.cpp:148] Top shape: 24 128 7 7 (150528)
I0403 18:18:33.683799  6798 net.cpp:156] Memory required for data: 1305071136
I0403 18:18:33.683818  6798 layer_factory.hpp:77] Creating layer inception_5a/relu_pool_proj
I0403 18:18:33.683836  6798 net.cpp:91] Creating Layer inception_5a/relu_pool_proj
I0403 18:18:33.683853  6798 net.cpp:425] inception_5a/relu_pool_proj <- inception_5a/pool_proj
I0403 18:18:33.683873  6798 net.cpp:386] inception_5a/relu_pool_proj -> inception_5a/pool_proj (in-place)
I0403 18:18:33.684186  6798 net.cpp:141] Setting up inception_5a/relu_pool_proj
I0403 18:18:33.684216  6798 net.cpp:148] Top shape: 24 128 7 7 (150528)
I0403 18:18:33.684231  6798 net.cpp:156] Memory required for data: 1305673248
I0403 18:18:33.684252  6798 layer_factory.hpp:77] Creating layer inception_5a/output
I0403 18:18:33.684270  6798 net.cpp:91] Creating Layer inception_5a/output
I0403 18:18:33.684288  6798 net.cpp:425] inception_5a/output <- inception_5a/1x1
I0403 18:18:33.684305  6798 net.cpp:425] inception_5a/output <- inception_5a/3x3
I0403 18:18:33.684322  6798 net.cpp:425] inception_5a/output <- inception_5a/5x5
I0403 18:18:33.684339  6798 net.cpp:425] inception_5a/output <- inception_5a/pool_proj
I0403 18:18:33.684358  6798 net.cpp:399] inception_5a/output -> inception_5a/output
I0403 18:18:33.684411  6798 net.cpp:141] Setting up inception_5a/output
I0403 18:18:33.684434  6798 net.cpp:148] Top shape: 24 832 7 7 (978432)
I0403 18:18:33.684449  6798 net.cpp:156] Memory required for data: 1309586976
I0403 18:18:33.684464  6798 layer_factory.hpp:77] Creating layer inception_5a/output_inception_5a/output_0_split
I0403 18:18:33.684484  6798 net.cpp:91] Creating Layer inception_5a/output_inception_5a/output_0_split
I0403 18:18:33.684501  6798 net.cpp:425] inception_5a/output_inception_5a/output_0_split <- inception_5a/output
I0403 18:18:33.684520  6798 net.cpp:399] inception_5a/output_inception_5a/output_0_split -> inception_5a/output_inception_5a/output_0_split_0
I0403 18:18:33.684542  6798 net.cpp:399] inception_5a/output_inception_5a/output_0_split -> inception_5a/output_inception_5a/output_0_split_1
I0403 18:18:33.684567  6798 net.cpp:399] inception_5a/output_inception_5a/output_0_split -> inception_5a/output_inception_5a/output_0_split_2
I0403 18:18:33.684590  6798 net.cpp:399] inception_5a/output_inception_5a/output_0_split -> inception_5a/output_inception_5a/output_0_split_3
I0403 18:18:33.684707  6798 net.cpp:141] Setting up inception_5a/output_inception_5a/output_0_split
I0403 18:18:33.684732  6798 net.cpp:148] Top shape: 24 832 7 7 (978432)
I0403 18:18:33.684748  6798 net.cpp:148] Top shape: 24 832 7 7 (978432)
I0403 18:18:33.684764  6798 net.cpp:148] Top shape: 24 832 7 7 (978432)
I0403 18:18:33.684780  6798 net.cpp:148] Top shape: 24 832 7 7 (978432)
I0403 18:18:33.684795  6798 net.cpp:156] Memory required for data: 1325241888
I0403 18:18:33.684811  6798 layer_factory.hpp:77] Creating layer inception_5b/1x1
I0403 18:18:33.684834  6798 net.cpp:91] Creating Layer inception_5b/1x1
I0403 18:18:33.684851  6798 net.cpp:425] inception_5b/1x1 <- inception_5a/output_inception_5a/output_0_split_0
I0403 18:18:33.684873  6798 net.cpp:399] inception_5b/1x1 -> inception_5b/1x1
I0403 18:18:33.688802  6798 net.cpp:141] Setting up inception_5b/1x1
I0403 18:18:33.688837  6798 net.cpp:148] Top shape: 24 384 7 7 (451584)
I0403 18:18:33.688853  6798 net.cpp:156] Memory required for data: 1327048224
I0403 18:18:33.688874  6798 layer_factory.hpp:77] Creating layer inception_5b/relu_1x1
I0403 18:18:33.688892  6798 net.cpp:91] Creating Layer inception_5b/relu_1x1
I0403 18:18:33.688910  6798 net.cpp:425] inception_5b/relu_1x1 <- inception_5b/1x1
I0403 18:18:33.688927  6798 net.cpp:386] inception_5b/relu_1x1 -> inception_5b/1x1 (in-place)
I0403 18:18:33.689251  6798 net.cpp:141] Setting up inception_5b/relu_1x1
I0403 18:18:33.689281  6798 net.cpp:148] Top shape: 24 384 7 7 (451584)
I0403 18:18:33.689298  6798 net.cpp:156] Memory required for data: 1328854560
I0403 18:18:33.689313  6798 layer_factory.hpp:77] Creating layer inception_5b/3x3_reduce
I0403 18:18:33.689337  6798 net.cpp:91] Creating Layer inception_5b/3x3_reduce
I0403 18:18:33.689355  6798 net.cpp:425] inception_5b/3x3_reduce <- inception_5a/output_inception_5a/output_0_split_1
I0403 18:18:33.689375  6798 net.cpp:399] inception_5b/3x3_reduce -> inception_5b/3x3_reduce
I0403 18:18:33.692162  6798 net.cpp:141] Setting up inception_5b/3x3_reduce
I0403 18:18:33.692194  6798 net.cpp:148] Top shape: 24 192 7 7 (225792)
I0403 18:18:33.692211  6798 net.cpp:156] Memory required for data: 1329757728
I0403 18:18:33.692230  6798 layer_factory.hpp:77] Creating layer inception_5b/relu_3x3_reduce
I0403 18:18:33.692262  6798 net.cpp:91] Creating Layer inception_5b/relu_3x3_reduce
I0403 18:18:33.692281  6798 net.cpp:425] inception_5b/relu_3x3_reduce <- inception_5b/3x3_reduce
I0403 18:18:33.692302  6798 net.cpp:386] inception_5b/relu_3x3_reduce -> inception_5b/3x3_reduce (in-place)
I0403 18:18:33.692502  6798 net.cpp:141] Setting up inception_5b/relu_3x3_reduce
I0403 18:18:33.692528  6798 net.cpp:148] Top shape: 24 192 7 7 (225792)
I0403 18:18:33.692543  6798 net.cpp:156] Memory required for data: 1330660896
I0403 18:18:33.692559  6798 layer_factory.hpp:77] Creating layer inception_5b/3x3
I0403 18:18:33.692580  6798 net.cpp:91] Creating Layer inception_5b/3x3
I0403 18:18:33.692598  6798 net.cpp:425] inception_5b/3x3 <- inception_5b/3x3_reduce
I0403 18:18:33.692621  6798 net.cpp:399] inception_5b/3x3 -> inception_5b/3x3
I0403 18:18:33.699641  6798 net.cpp:141] Setting up inception_5b/3x3
I0403 18:18:33.699676  6798 net.cpp:148] Top shape: 24 384 7 7 (451584)
I0403 18:18:33.699693  6798 net.cpp:156] Memory required for data: 1332467232
I0403 18:18:33.699712  6798 layer_factory.hpp:77] Creating layer inception_5b/relu_3x3
I0403 18:18:33.699730  6798 net.cpp:91] Creating Layer inception_5b/relu_3x3
I0403 18:18:33.699748  6798 net.cpp:425] inception_5b/relu_3x3 <- inception_5b/3x3
I0403 18:18:33.699770  6798 net.cpp:386] inception_5b/relu_3x3 -> inception_5b/3x3 (in-place)
I0403 18:18:33.700088  6798 net.cpp:141] Setting up inception_5b/relu_3x3
I0403 18:18:33.700117  6798 net.cpp:148] Top shape: 24 384 7 7 (451584)
I0403 18:18:33.700134  6798 net.cpp:156] Memory required for data: 1334273568
I0403 18:18:33.700148  6798 layer_factory.hpp:77] Creating layer inception_5b/5x5_reduce
I0403 18:18:33.700191  6798 net.cpp:91] Creating Layer inception_5b/5x5_reduce
I0403 18:18:33.700212  6798 net.cpp:425] inception_5b/5x5_reduce <- inception_5a/output_inception_5a/output_0_split_2
I0403 18:18:33.700235  6798 net.cpp:399] inception_5b/5x5_reduce -> inception_5b/5x5_reduce
I0403 18:18:33.701618  6798 net.cpp:141] Setting up inception_5b/5x5_reduce
I0403 18:18:33.701648  6798 net.cpp:148] Top shape: 24 48 7 7 (56448)
I0403 18:18:33.701664  6798 net.cpp:156] Memory required for data: 1334499360
I0403 18:18:33.701683  6798 layer_factory.hpp:77] Creating layer inception_5b/relu_5x5_reduce
I0403 18:18:33.701702  6798 net.cpp:91] Creating Layer inception_5b/relu_5x5_reduce
I0403 18:18:33.701720  6798 net.cpp:425] inception_5b/relu_5x5_reduce <- inception_5b/5x5_reduce
I0403 18:18:33.701741  6798 net.cpp:386] inception_5b/relu_5x5_reduce -> inception_5b/5x5_reduce (in-place)
I0403 18:18:33.702152  6798 net.cpp:141] Setting up inception_5b/relu_5x5_reduce
I0403 18:18:33.702181  6798 net.cpp:148] Top shape: 24 48 7 7 (56448)
I0403 18:18:33.702196  6798 net.cpp:156] Memory required for data: 1334725152
I0403 18:18:33.702213  6798 layer_factory.hpp:77] Creating layer inception_5b/5x5
I0403 18:18:33.702235  6798 net.cpp:91] Creating Layer inception_5b/5x5
I0403 18:18:33.702267  6798 net.cpp:425] inception_5b/5x5 <- inception_5b/5x5_reduce
I0403 18:18:33.702291  6798 net.cpp:399] inception_5b/5x5 -> inception_5b/5x5
I0403 18:18:33.704546  6798 net.cpp:141] Setting up inception_5b/5x5
I0403 18:18:33.704576  6798 net.cpp:148] Top shape: 24 128 7 7 (150528)
I0403 18:18:33.704593  6798 net.cpp:156] Memory required for data: 1335327264
I0403 18:18:33.704612  6798 layer_factory.hpp:77] Creating layer inception_5b/relu_5x5
I0403 18:18:33.704637  6798 net.cpp:91] Creating Layer inception_5b/relu_5x5
I0403 18:18:33.704654  6798 net.cpp:425] inception_5b/relu_5x5 <- inception_5b/5x5
I0403 18:18:33.704673  6798 net.cpp:386] inception_5b/relu_5x5 -> inception_5b/5x5 (in-place)
I0403 18:18:33.704881  6798 net.cpp:141] Setting up inception_5b/relu_5x5
I0403 18:18:33.704907  6798 net.cpp:148] Top shape: 24 128 7 7 (150528)
I0403 18:18:33.704922  6798 net.cpp:156] Memory required for data: 1335929376
I0403 18:18:33.704938  6798 layer_factory.hpp:77] Creating layer inception_5b/pool
I0403 18:18:33.704960  6798 net.cpp:91] Creating Layer inception_5b/pool
I0403 18:18:33.704978  6798 net.cpp:425] inception_5b/pool <- inception_5a/output_inception_5a/output_0_split_3
I0403 18:18:33.704998  6798 net.cpp:399] inception_5b/pool -> inception_5b/pool
I0403 18:18:33.705080  6798 net.cpp:141] Setting up inception_5b/pool
I0403 18:18:33.705104  6798 net.cpp:148] Top shape: 24 832 7 7 (978432)
I0403 18:18:33.705119  6798 net.cpp:156] Memory required for data: 1339843104
I0403 18:18:33.705134  6798 layer_factory.hpp:77] Creating layer inception_5b/pool_proj
I0403 18:18:33.705158  6798 net.cpp:91] Creating Layer inception_5b/pool_proj
I0403 18:18:33.705176  6798 net.cpp:425] inception_5b/pool_proj <- inception_5b/pool
I0403 18:18:33.705200  6798 net.cpp:399] inception_5b/pool_proj -> inception_5b/pool_proj
I0403 18:18:33.707715  6798 net.cpp:141] Setting up inception_5b/pool_proj
I0403 18:18:33.707746  6798 net.cpp:148] Top shape: 24 128 7 7 (150528)
I0403 18:18:33.707763  6798 net.cpp:156] Memory required for data: 1340445216
I0403 18:18:33.707782  6798 layer_factory.hpp:77] Creating layer inception_5b/relu_pool_proj
I0403 18:18:33.707801  6798 net.cpp:91] Creating Layer inception_5b/relu_pool_proj
I0403 18:18:33.707818  6798 net.cpp:425] inception_5b/relu_pool_proj <- inception_5b/pool_proj
I0403 18:18:33.707839  6798 net.cpp:386] inception_5b/relu_pool_proj -> inception_5b/pool_proj (in-place)
I0403 18:18:33.708161  6798 net.cpp:141] Setting up inception_5b/relu_pool_proj
I0403 18:18:33.708189  6798 net.cpp:148] Top shape: 24 128 7 7 (150528)
I0403 18:18:33.708205  6798 net.cpp:156] Memory required for data: 1341047328
I0403 18:18:33.708220  6798 layer_factory.hpp:77] Creating layer inception_5b/output
I0403 18:18:33.708245  6798 net.cpp:91] Creating Layer inception_5b/output
I0403 18:18:33.708279  6798 net.cpp:425] inception_5b/output <- inception_5b/1x1
I0403 18:18:33.708299  6798 net.cpp:425] inception_5b/output <- inception_5b/3x3
I0403 18:18:33.708317  6798 net.cpp:425] inception_5b/output <- inception_5b/5x5
I0403 18:18:33.708333  6798 net.cpp:425] inception_5b/output <- inception_5b/pool_proj
I0403 18:18:33.708354  6798 net.cpp:399] inception_5b/output -> inception_5b/output
I0403 18:18:33.708411  6798 net.cpp:141] Setting up inception_5b/output
I0403 18:18:33.708438  6798 net.cpp:148] Top shape: 24 1024 7 7 (1204224)
I0403 18:18:33.708456  6798 net.cpp:156] Memory required for data: 1345864224
I0403 18:18:33.708472  6798 layer_factory.hpp:77] Creating layer pool5/7x7_s1
I0403 18:18:33.708490  6798 net.cpp:91] Creating Layer pool5/7x7_s1
I0403 18:18:33.708508  6798 net.cpp:425] pool5/7x7_s1 <- inception_5b/output
I0403 18:18:33.708526  6798 net.cpp:399] pool5/7x7_s1 -> pool5/7x7_s1
I0403 18:18:33.708762  6798 net.cpp:141] Setting up pool5/7x7_s1
I0403 18:18:33.708789  6798 net.cpp:148] Top shape: 24 1024 1 1 (24576)
I0403 18:18:33.708806  6798 net.cpp:156] Memory required for data: 1345962528
I0403 18:18:33.708822  6798 layer_factory.hpp:77] Creating layer pool5/drop_7x7_s1
I0403 18:18:33.708840  6798 net.cpp:91] Creating Layer pool5/drop_7x7_s1
I0403 18:18:33.708856  6798 net.cpp:425] pool5/drop_7x7_s1 <- pool5/7x7_s1
I0403 18:18:33.708878  6798 net.cpp:386] pool5/drop_7x7_s1 -> pool5/7x7_s1 (in-place)
I0403 18:18:33.708931  6798 net.cpp:141] Setting up pool5/drop_7x7_s1
I0403 18:18:33.708959  6798 net.cpp:148] Top shape: 24 1024 1 1 (24576)
I0403 18:18:33.708976  6798 net.cpp:156] Memory required for data: 1346060832
I0403 18:18:33.708991  6798 layer_factory.hpp:77] Creating layer loss3/classifier_plantvillage
I0403 18:18:33.709012  6798 net.cpp:91] Creating Layer loss3/classifier_plantvillage
I0403 18:18:33.709028  6798 net.cpp:425] loss3/classifier_plantvillage <- pool5/7x7_s1
I0403 18:18:33.709050  6798 net.cpp:399] loss3/classifier_plantvillage -> loss3/classifier_plantvillage
I0403 18:18:33.709522  6798 net.cpp:141] Setting up loss3/classifier_plantvillage
I0403 18:18:33.709547  6798 net.cpp:148] Top shape: 24 38 (912)
I0403 18:18:33.709563  6798 net.cpp:156] Memory required for data: 1346064480
I0403 18:18:33.709580  6798 layer_factory.hpp:77] Creating layer loss3/classifier_plantvillage_loss3/classifier_plantvillage_0_split
I0403 18:18:33.709604  6798 net.cpp:91] Creating Layer loss3/classifier_plantvillage_loss3/classifier_plantvillage_0_split
I0403 18:18:33.709620  6798 net.cpp:425] loss3/classifier_plantvillage_loss3/classifier_plantvillage_0_split <- loss3/classifier_plantvillage
I0403 18:18:33.709640  6798 net.cpp:399] loss3/classifier_plantvillage_loss3/classifier_plantvillage_0_split -> loss3/classifier_plantvillage_loss3/classifier_plantvillage_0_split_0
I0403 18:18:33.709664  6798 net.cpp:399] loss3/classifier_plantvillage_loss3/classifier_plantvillage_0_split -> loss3/classifier_plantvillage_loss3/classifier_plantvillage_0_split_1
I0403 18:18:33.709687  6798 net.cpp:399] loss3/classifier_plantvillage_loss3/classifier_plantvillage_0_split -> loss3/classifier_plantvillage_loss3/classifier_plantvillage_0_split_2
I0403 18:18:33.709709  6798 net.cpp:399] loss3/classifier_plantvillage_loss3/classifier_plantvillage_0_split -> loss3/classifier_plantvillage_loss3/classifier_plantvillage_0_split_3
I0403 18:18:33.709815  6798 net.cpp:141] Setting up loss3/classifier_plantvillage_loss3/classifier_plantvillage_0_split
I0403 18:18:33.709839  6798 net.cpp:148] Top shape: 24 38 (912)
I0403 18:18:33.709856  6798 net.cpp:148] Top shape: 24 38 (912)
I0403 18:18:33.709873  6798 net.cpp:148] Top shape: 24 38 (912)
I0403 18:18:33.709889  6798 net.cpp:148] Top shape: 24 38 (912)
I0403 18:18:33.709903  6798 net.cpp:156] Memory required for data: 1346079072
I0403 18:18:33.709918  6798 layer_factory.hpp:77] Creating layer loss1/loss
I0403 18:18:33.709940  6798 net.cpp:91] Creating Layer loss1/loss
I0403 18:18:33.709959  6798 net.cpp:425] loss1/loss <- loss1/classifier_plantvillage_loss1/classifier_plantvillage_0_split_0
I0403 18:18:33.709990  6798 net.cpp:425] loss1/loss <- label_data_1_split_0
…
