…
I0403 18:51:19.833214  7915 net.cpp:313] The NetState phase (1) differed from the phase (0) specified by a rule in layer data
I0403 18:51:19.834368  7915 net.cpp:49] Initializing net from parameters: 
state {
  phase: TEST
}
layer {
  name: "data"
  type: "Data"
  top: "data"
  top: "label"
  include {
    phase: TEST
  }
  transform_param {
    mirror: false
    crop_size: 224
    mean_file: "/home/mohanty/data/final_dataset/lmdb/grayscale-40-60/mean.binaryproto"
  }
  data_param {
    source: "/home/mohanty/data/final_dataset/lmdb/grayscale-40-60/test_db"
    batch_size: 24
    backend: LMDB
  }
}
layer {
  name: "conv1/7x7_s2"
  type: "Convolution"
  bottom: "data"
  top: "conv1/7x7_s2"
  param {
    lr_mult: 1
    decay_mult: 1
  }
  param {
    lr_mult: 2
    decay_mult: 0
  }
  convolution_param {
    num_output: 64
    pad: 3
    kernel_size: 7
    stride: 2
    weight_filler {
      type: "xavier"
      std: 0.1
    }
    bias_filler {
      type: "constant"
      value: 0.2
    }
  }
}
layer {
  name: "conv1/relu_7x7"
  type: "ReLU"
  bottom: "conv1/7x7_s2"
  top: "conv1/7x7_s2"
}
layer {
  name: "pool1/3x3_s2"
  type: "Pooling"
  bottom: "conv1/7x7_s2"
  top: "pool1/3x3_s2"
  pooling_param {
    pool: MAX
    kernel_size: 3
    stride: 2
  }
}
layer {
  name: "pool1/norm1"
  type: "LRN"
  bottom: "pool1/3x3_s2"
  top: "pool1/norm1"
  lrn_param {
    local_size: 5
    alpha: 0.0001
    beta: 0.75
  }
}
layer {
  name: "conv2/3x3_reduce"
  type: "Convolution"
  bottom: "pool1/norm1"
  top: "conv2/3x3_reduce"
  param {
    lr_mult: 1
    decay_mult: 1
  }
  param {
    lr_mult: 2
    decay_mult: 0
  }
  convolution_param {
    num_output: 64
    kernel_size: 1
    weight_filler {
      type: "xavier"
      std: 0.1
    }
    bias_filler {
      type: "constant"
      value: 0.2
    }
  }
}
layer {
  name: "conv2/relu_3x3_reduce"
  type: "ReLU"
  bottom: "conv2/3x3_reduce"
  top: "conv2/3x3_reduce"
}
layer {
  name: "conv2/3x3"
  type: "Convolution"
  bottom: "conv2/3x3_reduce"
  top: "conv2/3x3"
  param {
    lr_mult: 1
    decay_mult: 1
  }
  param {
    lr_mult: 2
    decay_mult: 0
  }
  convolution_param {
    num_output: 192
    pad: 1
    kernel_size: 3
    weight_filler {
      type: "xavier"
      std: 0.03
    }
    bias_filler {
      type: "constant"
      value: 0.2
    }
  }
}
layer {
  name: "conv2/relu_3x3"
  type: "ReLU"
  bottom: "conv2/3x3"
  top: "conv2/3x3"
}
layer {
  name: "conv2/norm2"
  type: "LRN"
  bottom: "conv2/3x3"
  top: "conv2/norm2"
  lrn_param {
    local_size: 5
    alpha: 0.0001
    beta: 0.75
  }
}
layer {
  name: "pool2/3x3_s2"
  type: "Pooling"
  bottom: "conv2/norm2"
  top: "pool2/3x3_s2"
  pooling_param {
    pool: MAX
    kernel_size: 3
    stride: 2
  }
}
layer {
  name: "inception_3a/1x1"
  type: "Convolution"
  bottom: "pool2/3x3_s2"
  top: "inception_3a/1x1"
  param {
    lr_mult: 1
    decay_mult: 1
  }
  param {
    lr_mult: 2
    decay_mult: 0
  }
  convolution_param {
    num_output: 64
    kernel_size: 1
    weight_filler {
      type: "xavier"
      std: 0.03
    }
    bias_filler {
      type: "constant"
      value: 0.2
    }
  }
}
layer {
  name: "inception_3a/relu_1x1"
  type: "ReLU"
  bottom: "inception_3a/1x1"
  top: "inception_3a/1x1"
}
layer {
  name: "inception_3a/3x3_reduce"
  type: "Convolution"
  bottom: "pool2/3x3_s2"
  top: "inception_3a/3x3_reduce"
  param {
    lr_mult: 1
    decay_mult: 1
  }
  param {
    lr_mult: 2
    decay_mult: 0
  }
  convolution_param {
    num_output: 96
    kernel_size: 1
    weight_filler {
      type: "xavier"
      std: 0.09
    }
    bias_filler {
      type: "constant"
      value: 0.2
    }
  }
}
layer {
  name: "inception_3a/relu_3x3_reduce"
  type: "ReLU"
  bottom: "inception_3a/3x3_reduce"
  top: "inception_3a/3x3_reduce"
}
layer {
  name: "inception_3a/3x3"
  type: "Convolution"
  bottom: "inception_3a/3x3_reduce"
  top: "inception_3a/3x3"
  param {
    lr_mult: 1
    decay_mult: 1
  }
  param {
    lr_mult: 2
    decay_mult: 0
  }
  convolution_param {
    num_output: 128
    pad: 1
    kernel_size: 3
    weight_filler {
      type: "xavier"
      std: 0.03
    }
    bias_filler {
      type: "constant"
      value: 0.2
    }
  }
}
layer {
  name: "inception_3a/relu_3x3"
  type: "ReLU"
  bottom: "inception_3a/3x3"
  top: "inception_3a/3x3"
}
layer {
  name: "inception_3a/5x5_reduce"
  type: "Convolution"
  bottom: "pool2/3x3_s2"
  top: "inception_3a/5x5_reduce"
  param {
    lr_mult: 1
    decay_mult: 1
  }
  param {
    lr_mult: 2
    decay_mult: 0
  }
  convolution_param {
    num_output: 16
    kernel_size: 1
    weight_filler {
      type: "xavier"
      std: 0.2
    }
    bias_filler {
      type: "constant"
      value: 0.2
    }
  }
}
layer {
  name: "inception_3a/relu_5x5_reduce"
  type: "ReLU"
  bottom: "inception_3a/5x5_reduce"
  top: "inception_3a/5x5_reduce"
}
layer {
  name: "inception_3a/5x5"
  type: "Convolution"
  bottom: "inception_3a/5x5_reduce"
  top: "inception_3a/5x5"
  param {
    lr_mult: 1
    decay_mult: 1
  }
  param {
    lr_mult: 2
    decay_mult: 0
  }
  convolution_param {
    num_output: 32
    pad: 2
    kernel_size: 5
    weight_filler {
      type: "xavier"
      std: 0.03
    }
    bias_filler {
      type: "constant"
      value: 0.2
    }
  }
}
layer {
  name: "inception_3a/relu_5x5"
  type: "ReLU"
  bottom: "inception_3a/5x5"
  top: "inception_3a/5x5"
}
layer {
  name: "inception_3a/pool"
  type: "Pooling"
  bottom: "pool2/3x3_s2"
  top: "inception_3a/pool"
  pooling_param {
    pool: MAX
    kernel_size: 3
    stride: 1
    pad: 1
  }
}
layer {
  name: "inception_3a/pool_proj"
  type: "Convolution"
  bottom: "inception_3a/pool"
  top: "inception_3a/pool_proj"
  param {
    lr_mult: 1
    decay_mult: 1
  }
  param {
    lr_mult: 2
    decay_mult: 0
  }
  convolution_param {
    num_output: 32
    kernel_size: 1
    weight_filler {
      type: "xavier"
      std: 0.1
    }
    bias_filler {
      type: "constant"
      value: 0.2
    }
  }
}
layer {
  name: "inception_3a/relu_pool_proj"
  type: "ReLU"
  bottom: "inception_3a/pool_proj"
  top: "inception_3a/pool_proj"
}
layer {
  name: "inception_3a/output"
  type: "Concat"
  bottom: "inception_3a/1x1"
  bottom: "inception_3a/3x3"
  bottom: "inception_3a/5x5"
  bottom: "inception_3a/pool_proj"
  top: "inception_3a/output"
}
layer {
  name: "inception_3b/1x1"
  type: "Convolution"
  bottom: "inception_3a/output"
  top: "inception_3b/1x1"
  param {
    lr_mult: 1
    decay_mult: 1
  }
  param {
    lr_mult: 2
    decay_mult: 0
  }
  convolution_param {
    num_output: 128
    kernel_size: 1
    weight_filler {
      type: "xavier"
      std: 0.03
    }
    bias_filler {
      type: "constant"
      value: 0.2
    }
  }
}
layer {
  name: "inception_3b/relu_1x1"
  type: "ReLU"
  bottom: "inception_3b/1x1"
  top: "inception_3b/1x1"
}
layer {
  name: "inception_3b/3x3_reduce"
  type: "Convolution"
  bottom: "inception_3a/output"
  top: "inception_3b/3x3_reduce"
  param {
    lr_mult: 1
    decay_mult: 1
  }
  param {
    lr_mult: 2
    decay_mult: 0
  }
  convolution_param {
    num_output: 128
    kernel_size: 1
    weight_filler {
      type: "xavier"
      std: 0.09
    }
    bias_filler {
      type: "constant"
      value: 0.2
    }
  }
}
layer {
  name: "inception_3b/relu_3x3_reduce"
  type: "ReLU"
  bottom: "inception_3b/3x3_reduce"
  top: "inception_3b/3x3_reduce"
}
layer {
  name: "inception_3b/3x3"
  type: "Convolution"
  bottom: "inception_3b/3x3_reduce"
  top: "inception_3b/3x3"
  param {
    lr_mult: 1
    decay_mult: 1
  }
  param {
    lr_mult: 2
    decay_mult: 0
  }
  convolution_param {
    num_output: 192
    pad: 1
    kernel_size: 3
    weight_filler {
      type: "xavier"
      std: 0.03
    }
    bias_filler {
      type: "constant"
      value: 0.2
    }
  }
}
layer {
  name: "inception_3b/relu_3x3"
  type: "ReLU"
  bottom: "inception_3b/3x3"
  top: "inception_3b/3x3"
}
layer {
  name: "inception_3b/5x5_reduce"
  type: "Convolution"
  bottom: "inception_3a/output"
  top: "inception_3b/5x5_reduce"
  param {
    lr_mult: 1
    decay_mult: 1
  }
  param {
    lr_mult: 2
    decay_mult: 0
  }
  convolution_param {
    num_output: 32
    kernel_size: 1
    weight_filler {
      type: "xavier"
      std: 0.2
    }
    bias_filler {
      type: "constant"
      value: 0.2
    }
  }
}
layer {
  name: "inception_3b/relu_5x5_reduce"
  type: "ReLU"
  bottom: "inception_3b/5x5_reduce"
  top: "inception_3b/5x5_reduce"
}
layer {
  name: "inception_3b/5x5"
  type: "Convolution"
  bottom: "inception_3b/5x5_reduce"
  top: "inception_3b/5x5"
  param {
    lr_mult: 1
    decay_mult: 1
  }
  param {
    lr_mult: 2
    decay_mult: 0
  }
  convolution_param {
    num_output: 96
    pad: 2
    kernel_size: 5
    weight_filler {
      type: "xavier"
      std: 0.03
    }
    bias_filler {
      type: "constant"
      value: 0.2
    }
  }
}
layer {
  name: "inception_3b/relu_5x5"
  type: "ReLU"
  bottom: "inception_3b/5x5"
  top: "inception_3b/5x5"
}
layer {
  name: "inception_3b/pool"
  type: "Pooling"
  bottom: "inception_3a/output"
  top: "inception_3b/pool"
  pooling_param {
    pool: MAX
    kernel_size: 3
    stride: 1
    pad: 1
  }
}
layer {
  name: "inception_3b/pool_proj"
  type: "Convolution"
  bottom: "inception_3b/pool"
  top: "inception_3b/pool_proj"
  param {
    lr_mult: 1
    decay_mult: 1
  }
  param {
    lr_mult: 2
    decay_mult: 0
  }
  convolution_param {
    num_output: 64
    kernel_size: 1
    weight_filler {
      type: "xavier"
      std: 0.1
    }
    bias_filler {
      type: "constant"
      value: 0.2
    }
  }
}
layer {
  name: "inception_3b/relu_pool_proj"
  type: "ReLU"
  bottom: "inception_3b/pool_proj"
  top: "inception_3b/pool_proj"
}
layer {
  name: "inception_3b/output"
  type: "Concat"
  bottom: "inception_3b/1x1"
  bottom: "inception_3b/3x3"
  bottom: "inception_3b/5x5"
  bottom: "inception_3b/pool_proj"
  top: "inception_3b/output"
}
layer {
  name: "pool3/3x3_s2"
  type: "Pooling"
  bottom: "inception_3b/output"
  top: "pool3/3x3_s2"
  pooling_param {
    pool: MAX
    kernel_size: 3
    stride: 2
  }
}
layer {
  name: "inception_4a/1x1"
  type: "Convolution"
  bottom: "pool3/3x3_s2"
  top: "inception_4a/1x1"
  param {
    lr_mult: 1
    decay_mult: 1
  }
  param {
    lr_mult: 2
    decay_mult: 0
  }
  convolution_param {
    num_output: 192
    kernel_size: 1
    weight_filler {
      type: "xavier"
      std: 0.03
    }
    bias_filler {
      type: "constant"
      value: 0.2
    }
  }
}
layer {
  name: "inception_4a/relu_1x1"
  type: "ReLU"
  bottom: "inception_4a/1x1"
  top: "inception_4a/1x1"
}
layer {
  name: "inception_4a/3x3_reduce"
  type: "Convolution"
  bottom: "pool3/3x3_s2"
  top: "inception_4a/3x3_reduce"
  param {
    lr_mult: 1
    decay_mult: 1
  }
  param {
    lr_mult: 2
    decay_mult: 0
  }
  convolution_param {
    num_output: 96
    kernel_size: 1
    weight_filler {
      type: "xavier"
      std: 0.09
    }
    bias_filler {
      type: "constant"
      value: 0.2
    }
  }
}
layer {
  name: "inception_4a/relu_3x3_reduce"
  type: "ReLU"
  bottom: "inception_4a/3x3_reduce"
  top: "inception_4a/3x3_reduce"
}
layer {
  name: "inception_4a/3x3"
  type: "Convolution"
  bottom: "inception_4a/3x3_reduce"
  top: "inception_4a/3x3"
  param {
    lr_mult: 1
    decay_mult: 1
  }
  param {
    lr_mult: 2
    decay_mult: 0
  }
  convolution_param {
    num_output: 208
    pad: 1
    kernel_size: 3
    weight_filler {
      type: "xavier"
      std: 0.03
    }
    bias_filler {
      type: "constant"
      value: 0.2
    }
  }
}
layer {
  name: "inception_4a/relu_3x3"
  type: "ReLU"
  bottom: "inception_4a/3x3"
  top: "inception_4a/3x3"
}
layer {
  name: "inception_4a/5x5_reduce"
  type: "Convolution"
  bottom: "pool3/3x3_s2"
  top: "inception_4a/5x5_reduce"
  param {
    lr_mult: 1
    decay_mult: 1
  }
  param {
    lr_mult: 2
    decay_mult: 0
  }
  convolution_param {
    num_output: 16
    kernel_size: 1
    weight_filler {
      type: "xavier"
      std: 0.2
    }
    bias_filler {
      type: "constant"
      value: 0.2
    }
  }
}
layer {
  name: "inception_4a/relu_5x5_reduce"
  type: "ReLU"
  bottom: "inception_4a/5x5_reduce"
  top: "inception_4a/5x5_reduce"
}
layer {
  name: "inception_4a/5x5"
  type: "Convolution"
  bottom: "inception_4a/5x5_reduce"
  top: "inception_4a/5x5"
  param {
    lr_mult: 1
    decay_mult: 1
  }
  param {
    lr_mult: 2
    decay_mult: 0
  }
  convolution_param {
    num_output: 48
    pad: 2
    kernel_size: 5
    weight_filler {
      type: "xavier"
      std: 0.03
    }
    bias_filler {
      type: "constant"
      value: 0.2
    }
  }
}
layer {
  name: "inception_4a/relu_5x5"
  type: "ReLU"
  bottom: "inception_4a/5x5"
  top: "inception_4a/5x5"
}
layer {
  name: "inception_4a/pool"
  type: "Pooling"
  bottom: "pool3/3x3_s2"
  top: "inception_4a/pool"
  pooling_param {
    pool: MAX
    kernel_size: 3
    stride: 1
    pad: 1
  }
}
layer {
  name: "inception_4a/pool_proj"
  type: "Convolution"
  bottom: "inception_4a/pool"
  top: "inception_4a/pool_proj"
  param {
    lr_mult: 1
    decay_mult: 1
  }
  param {
    lr_mult: 2
    decay_mult: 0
  }
  convolution_param {
    num_output: 64
    kernel_size: 1
    weight_filler {
      type: "xavier"
      std: 0.1
    }
    bias_filler {
      type: "constant"
      value: 0.2
    }
  }
}
layer {
  name: "inception_4a/relu_pool_proj"
  type: "ReLU"
  bottom: "inception_4a/pool_proj"
  top: "inception_4a/pool_proj"
}
layer {
  name: "inception_4a/output"
  type: "Concat"
  bottom: "inception_4a/1x1"
  bottom: "inception_4a/3x3"
  bottom: "inception_4a/5x5"
  bottom: "inception_4a/pool_proj"
  top: "inception_4a/output"
}
layer {
  name: "loss1/ave_pool"
  type: "Pooling"
  bottom: "inception_4a/output"
  top: "loss1/ave_pool"
  pooling_param {
    pool: AVE
    kernel_size: 5
    stride: 3
  }
}
layer {
  name: "loss1/conv"
  type: "Convolution"
  bottom: "loss1/ave_pool"
  top: "loss1/conv"
  param {
    lr_mult: 1
    decay_mult: 1
  }
  param {
    lr_mult: 2
    decay_mult: 0
  }
  convolution_param {
    num_output: 128
    kernel_size: 1
    weight_filler {
      type: "xavier"
      std: 0.08
    }
    bias_filler {
      type: "constant"
      value: 0.2
    }
  }
}
layer {
  name: "loss1/relu_conv"
  type: "ReLU"
  bottom: "loss1/conv"
  top: "loss1/conv"
}
layer {
  name: "loss1/fc"
  type: "InnerProduct"
  bottom: "loss1/conv"
  top: "loss1/fc"
  param {
    lr_mult: 1
    decay_mult: 1
  }
  param {
    lr_mult: 2
    decay_mult: 0
  }
  inner_product_param {
    num_output: 1024
    weight_filler {
      type: "xavier"
      std: 0.02
    }
    bias_filler {
      type: "constant"
      value: 0.2
    }
  }
}
layer {
  name: "loss1/relu_fc"
  type: "ReLU"
  bottom: "loss1/fc"
  top: "loss1/fc"
}
layer {
  name: "loss1/drop_fc"
  type: "Dropout"
  bottom: "loss1/fc"
  top: "loss1/fc"
  dropout_param {
    dropout_ratio: 0.7
  }
}
layer {
  name: "loss1/classifier_plantvillage"
  type: "InnerProduct"
  bottom: "loss1/fc"
  top: "loss1/classifier_plantvillage"
  param {
    lr_mult: 1
    decay_mult: 1
  }
  param {
    lr_mult: 2
    decay_mult: 0
  }
  inner_product_param {
    num_output: 38
    weight_filler {
      type: "xavier"
      std: 0.0009765625
    }
    bias_filler {
      type: "constant"
      value: 0
    }
  }
}
layer {
  name: "inception_4b/1x1"
  type: "Convolution"
  bottom: "inception_4a/output"
  top: "inception_4b/1x1"
  param {
    lr_mult: 1
    decay_mult: 1
  }
  param {
    lr_mult: 2
    decay_mult: 0
  }
  convolution_param {
    num_output: 160
    kernel_size: 1
    weight_filler {
      type: "xavier"
      std: 0.03
    }
    bias_filler {
      type: "constant"
      value: 0.2
    }
  }
}
layer {
  name: "inception_4b/relu_1x1"
  type: "ReLU"
  bottom: "inception_4b/1x1"
  top: "inception_4b/1x1"
}
layer {
  name: "inception_4b/3x3_reduce"
  type: "Convolution"
  bottom: "inception_4a/output"
  top: "inception_4b/3x3_reduce"
  param {
    lr_mult: 1
    decay_mult: 1
  }
  param {
    lr_mult: 2
    decay_mult: 0
  }
  convolution_param {
    num_output: 112
    kernel_size: 1
    weight_filler {
      type: "xavier"
      std: 0.09
    }
    bias_filler {
      type: "constant"
      value: 0.2
    }
  }
}
layer {
  name: "inception_4b/relu_3x3_reduce"
  type: "ReLU"
  bottom: "inception_4b/3x3_reduce"
  top: "inception_4b/3x3_reduce"
}
layer {
  name: "inception_4b/3x3"
  type: "Convolution"
  bottom: "inception_4b/3x3_reduce"
  top: "inception_4b/3x3"
  param {
    lr_mult: 1
    decay_mult: 1
  }
  param {
    lr_mult: 2
    decay_mult: 0
  }
  convolution_param {
    num_output: 224
    pad: 1
    kernel_size: 3
    weight_filler {
      type: "xavier"
      std: 0.03
    }
    bias_filler {
      type: "constant"
      value: 0.2
    }
  }
}
layer {
  name: "inception_4b/relu_3x3"
  type: "ReLU"
  bottom: "inception_4b/3x3"
  top: "inception_4b/3x3"
}
layer {
  name: "inception_4b/5x5_reduce"
  type: "Convolution"
  bottom: "inception_4a/output"
  top: "inception_4b/5x5_reduce"
  param {
    lr_mult: 1
    decay_mult: 1
  }
  param {
    lr_mult: 2
    decay_mult: 0
  }
  convolution_param {
    num_output: 24
    kernel_size: 1
    weight_filler {
      type: "xavier"
      std: 0.2
    }
    bias_filler {
      type: "constant"
      value: 0.2
    }
  }
}
layer {
  name: "inception_4b/relu_5x5_reduce"
  type: "ReLU"
  bottom: "inception_4b/5x5_reduce"
  top: "inception_4b/5x5_reduce"
}
layer {
  name: "inception_4b/5x5"
  type: "Convolution"
  bottom: "inception_4b/5x5_reduce"
  top: "inception_4b/5x5"
  param {
    lr_mult: 1
    decay_mult: 1
  }
  param {
    lr_mult: 2
    decay_mult: 0
  }
  convolution_param {
    num_output: 64
    pad: 2
    kernel_size: 5
    weight_filler {
      type: "xavier"
      std: 0.03
    }
    bias_filler {
      type: "constant"
      value: 0.2
    }
  }
}
layer {
  name: "inception_4b/relu_5x5"
  type: "ReLU"
  bottom: "inception_4b/5x5"
  top: "inception_4b/5x5"
}
layer {
  name: "inception_4b/pool"
  type: "Pooling"
  bottom: "inception_4a/output"
  top: "inception_4b/pool"
  pooling_param {
    pool: MAX
    kernel_size: 3
    stride: 1
    pad: 1
  }
}
layer {
  name: "inception_4b/pool_proj"
  type: "Convolution"
  bottom: "inception_4b/pool"
  top: "inception_4b/pool_proj"
  param {
    lr_mult: 1
    decay_mult: 1
  }
  param {
    lr_mult: 2
    decay_mult: 0
  }
  convolution_param {
    num_output: 64
    kernel_size: 1
    weight_filler {
      type: "xavier"
      std: 0.1
    }
    bias_filler {
      type: "constant"
      value: 0.2
    }
  }
}
layer {
  name: "inception_4b/relu_pool_proj"
  type: "ReLU"
  bottom: "inception_4b/pool_proj"
  top: "inception_4b/pool_proj"
}
layer {
  name: "inception_4b/output"
  type: "Concat"
  bottom: "inception_4b/1x1"
  bottom: "inception_4b/3x3"
  bottom: "inception_4b/5x5"
  bottom: "inception_4b/pool_proj"
  top: "inception_4b/output"
}
layer {
  name: "inception_4c/1x1"
  type: "Convolution"
  bottom: "inception_4b/output"
  top: "inception_4c/1x1"
  param {
    lr_mult: 1
    decay_mult: 1
  }
  param {
    lr_mult: 2
    decay_mult: 0
  }
  convolution_param {
    num_output: 128
    kernel_size: 1
    weight_filler {
      type: "xavier"
      std: 0.03
    }
    bias_filler {
      type: "constant"
      value: 0.2
    }
  }
}
layer {
  name: "inception_4c/relu_1x1"
  type: "ReLU"
  bottom: "inception_4c/1x1"
  top: "inception_4c/1x1"
}
layer {
  name: "inception_4c/3x3_reduce"
  type: "Convolution"
  bottom: "inception_4b/output"
  top: "inception_4c/3x3_reduce"
  param {
    lr_mult: 1
    decay_mult: 1
  }
  param {
    lr_mult: 2
    decay_mult: 0
  }
  convolution_param {
    num_output: 128
    kernel_size: 1
    weight_filler {
      type: "xavier"
      std: 0.09
    }
    bias_filler {
      type: "constant"
      value: 0.2
    }
  }
}
layer {
  name: "inception_4c/relu_3x3_reduce"
  type: "ReLU"
  bottom: "inception_4c/3x3_reduce"
  top: "inception_4c/3x3_reduce"
}
layer {
  name: "inception_4c/3x3"
  type: "Convolution"
  bottom: "inception_4c/3x3_reduce"
  top: "inception_4c/3x3"
  param {
    lr_mult: 1
    decay_mult: 1
  }
  param {
    lr_mult: 2
    decay_mult: 0
  }
  convolution_param {
    num_output: 256
    pad: 1
    kernel_size: 3
    weight_filler {
      type: "xavier"
      std: 0.03
    }
    bias_filler {
      type: "constant"
      value: 0.2
    }
  }
}
layer {
  name: "inception_4c/relu_3x3"
  type: "ReLU"
  bottom: "inception_4c/3x3"
  top: "inception_4c/3x3"
}
layer {
  name: "inception_4c/5x5_reduce"
  type: "Convolution"
  bottom: "inception_4b/output"
  top: "inception_4c/5x5_reduce"
  param {
    lr_mult: 1
    decay_mult: 1
  }
  param {
    lr_mult: 2
    decay_mult: 0
  }
  convolution_param {
    num_output: 24
    kernel_size: 1
    weight_filler {
      type: "xavier"
      std: 0.2
    }
    bias_filler {
      type: "constant"
      value: 0.2
    }
  }
}
layer {
  name: "inception_4c/relu_5x5_reduce"
  type: "ReLU"
  bottom: "inception_4c/5x5_reduce"
  top: "inception_4c/5x5_reduce"
}
layer {
  name: "inception_4c/5x5"
  type: "Convolution"
  bottom: "inception_4c/5x5_reduce"
  top: "inception_4c/5x5"
  param {
    lr_mult: 1
    decay_mult: 1
  }
  param {
    lr_mult: 2
    decay_mult: 0
  }
  convolution_param {
    num_output: 64
    pad: 2
    kernel_size: 5
    weight_filler {
      type: "xavier"
      std: 0.03
    }
    bias_filler {
      type: "constant"
      value: 0.2
    }
  }
}
layer {
  name: "inception_4c/relu_5x5"
  type: "ReLU"
  bottom: "inception_4c/5x5"
  top: "inception_4c/5x5"
}
layer {
  name: "inception_4c/pool"
  type: "Pooling"
  bottom: "inception_4b/output"
  top: "inception_4c/pool"
  pooling_param {
    pool: MAX
    kernel_size: 3
    stride: 1
    pad: 1
  }
}
layer {
  name: "inception_4c/pool_proj"
  type: "Convolution"
  bottom: "inception_4c/pool"
  top: "inception_4c/pool_proj"
  param {
    lr_mult: 1
    decay_mult: 1
  }
  param {
    lr_mult: 2
    decay_mult: 0
  }
  convolution_param {
    num_output: 64
    kernel_size: 1
    weight_filler {
      type: "xavier"
      std: 0.1
    }
    bias_filler {
      type: "constant"
      value: 0.2
    }
  }
}
layer {
  name: "inception_4c/relu_pool_proj"
  type: "ReLU"
  bottom: "inception_4c/pool_proj"
  top: "inception_4c/pool_proj"
}
layer {
  name: "inception_4c/output"
  type: "Concat"
  bottom: "inception_4c/1x1"
  bottom: "inception_4c/3x3"
  bottom: "inception_4c/5x5"
  bottom: "inception_4c/pool_proj"
  top: "inception_4c/output"
}
layer {
  name: "inception_4d/1x1"
  type: "Convolution"
  bottom: "inception_4c/output"
  top: "inception_4d/1x1"
  param {
    lr_mult: 1
    decay_mult: 1
  }
  param {
    lr_mult: 2
    decay_mult: 0
  }
  convolution_param {
    num_output: 112
    kernel_size: 1
    weight_filler {
      type: "xavier"
      std: 0.03
    }
    bias_filler {
      type: "constant"
      value: 0.2
    }
  }
}
layer {
  name: "inception_4d/relu_1x1"
  type: "ReLU"
  bottom: "inception_4d/1x1"
  top: "inception_4d/1x1"
}
layer {
  name: "inception_4d/3x3_reduce"
  type: "Convolution"
  bottom: "inception_4c/output"
  top: "inception_4d/3x3_reduce"
  param {
    lr_mult: 1
    decay_mult: 1
  }
  param {
    lr_mult: 2
    decay_mult: 0
  }
  convolution_param {
    num_output: 144
    kernel_size: 1
    weight_filler {
      type: "xavier"
      std: 0.09
    }
    bias_filler {
      type: "constant"
      value: 0.2
    }
  }
}
layer {
  name: "inception_4d/relu_3x3_reduce"
  type: "ReLU"
  bottom: "inception_4d/3x3_reduce"
  top: "inception_4d/3x3_reduce"
}
layer {
  name: "inception_4d/3x3"
  type: "Convolution"
  bottom: "inception_4d/3x3_reduce"
  top: "inception_4d/3x3"
  param {
    lr_mult: 1
    decay_mult: 1
  }
  param {
    lr_mult: 2
    decay_mult: 0
  }
  convolution_param {
    num_output: 288
    pad: 1
    kernel_size: 3
    weight_filler {
      type: "xavier"
      std: 0.03
    }
    bias_filler {
      type: "constant"
      value: 0.2
    }
  }
}
layer {
  name: "inception_4d/relu_3x3"
  type: "ReLU"
  bottom: "inception_4d/3x3"
  top: "inception_4d/3x3"
}
layer {
  name: "inception_4d/5x5_reduce"
  type: "Convolution"
  bottom: "inception_4c/output"
  top: "inception_4d/5x5_reduce"
  param {
    lr_mult: 1
    decay_mult: 1
  }
  param {
    lr_mult: 2
    decay_mult: 0
  }
  convolution_param {
    num_output: 32
    kernel_size: 1
    weight_filler {
      type: "xavier"
      std: 0.2
    }
    bias_filler {
      type: "constant"
      value: 0.2
    }
  }
}
layer {
  name: "inception_4d/relu_5x5_reduce"
  type: "ReLU"
  bottom: "inception_4d/5x5_reduce"
  top: "inception_4d/5x5_reduce"
}
layer {
  name: "inception_4d/5x5"
  type: "Convolution"
  bottom: "inception_4d/5x5_reduce"
  top: "inception_4d/5x5"
  param {
    lr_mult: 1
    decay_mult: 1
  }
  param {
    lr_mult: 2
    decay_mult: 0
  }
  convolution_param {
    num_output: 64
    pad: 2
    kernel_size: 5
    weight_filler {
      type: "xavier"
      std: 0.03
    }
    bias_filler {
      type: "constant"
      value: 0.2
    }
  }
}
layer {
  name: "inception_4d/relu_5x5"
  type: "ReLU"
  bottom: "inception_4d/5x5"
  top: "inception_4d/5x5"
}
layer {
  name: "inception_4d/pool"
  type: "Pooling"
  bottom: "inception_4c/output"
  top: "inception_4d/pool"
  pooling_param {
    pool: MAX
    kernel_size: 3
    stride: 1
    pad: 1
  }
}
layer {
  name: "inception_4d/pool_proj"
  type: "Convolution"
  bottom: "inception_4d/pool"
  top: "inception_4d/pool_proj"
  param {
    lr_mult: 1
    decay_mult: 1
  }
  param {
    lr_mult: 2
    decay_mult: 0
  }
  convolution_param {
    num_output: 64
    kernel_size: 1
    weight_filler {
      type: "xavier"
      std: 0.1
    }
    bias_filler {
      type: "constant"
      value: 0.2
    }
  }
}
layer {
  name: "inception_4d/relu_pool_proj"
  type: "ReLU"
  bottom: "inception_4d/pool_proj"
  top: "inception_4d/pool_proj"
}
layer {
  name: "inception_4d/output"
  type: "Concat"
  bottom: "inception_4d/1x1"
  bottom: "inception_4d/3x3"
  bottom: "inception_4d/5x5"
  bottom: "inception_4d/pool_proj"
  top: "inception_4d/output"
}
layer {
  name: "loss2/ave_pool"
  type: "Pooling"
  bottom: "inception_4d/output"
  top: "loss2/ave_pool"
  pooling_param {
    pool: AVE
    kernel_size: 5
    stride: 3
  }
}
layer {
  name: "loss2/conv"
  type: "Convolution"
  bottom: "loss2/ave_pool"
  top: "loss2/conv"
  param {
    lr_mult: 1
    decay_mult: 1
  }
  param {
    lr_mult: 2
    decay_mult: 0
  }
  convolution_param {
    num_output: 128
    kernel_size: 1
    weight_filler {
      type: "xavier"
      std: 0.08
    }
    bias_filler {
      type: "constant"
      value: 0.2
    }
  }
}
layer {
  name: "loss2/relu_conv"
  type: "ReLU"
  bottom: "loss2/conv"
  top: "loss2/conv"
}
layer {
  name: "loss2/fc"
  type: "InnerProduct"
  bottom: "loss2/conv"
  top: "loss2/fc"
  param {
    lr_mult: 1
    decay_mult: 1
  }
  param {
    lr_mult: 2
    decay_mult: 0
  }
  inner_product_param {
    num_output: 1024
    weight_filler {
      type: "xavier"
      std: 0.02
    }
    bias_filler {
      type: "constant"
      value: 0.2
    }
  }
}
layer {
  name: "loss2/relu_fc"
  type: "ReLU"
  bottom: "loss2/fc"
  top: "loss2/fc"
}
layer {
  name: "loss2/drop_fc"
  type: "Dropout"
  bottom: "loss2/fc"
  top: "loss2/fc"
  dropout_param {
    dropout_ratio: 0.7
  }
}
layer {
  name: "loss2/classifier_plantvillage"
  type: "InnerProduct"
  bottom: "loss2/fc"
  top: "loss2/classifier_plantvillage"
  param {
    lr_mult: 1
    decay_mult: 1
  }
  param {
    lr_mult: 2
    decay_mult: 0
  }
  inner_product_param {
    num_output: 38
    weight_filler {
      type: "xavier"
      std: 0.0009765625
    }
    bias_filler {
      type: "constant"
      value: 0
    }
  }
}
layer {
  name: "inception_4e/1x1"
  type: "Convolution"
  bottom: "inception_4d/output"
  top: "inception_4e/1x1"
  param {
    lr_mult: 1
    decay_mult: 1
  }
  param {
    lr_mult: 2
    decay_mult: 0
  }
  convolution_param {
    num_output: 256
    kernel_size: 1
    weight_filler {
      type: "xavier"
      std: 0.03
    }
    bias_filler {
      type: "constant"
      value: 0.2
    }
  }
}
layer {
  name: "inception_4e/relu_1x1"
  type: "ReLU"
  bottom: "inception_4e/1x1"
  top: "inception_4e/1x1"
}
layer {
  name: "inception_4e/3x3_reduce"
  type: "Convolution"
  bottom: "inception_4d/output"
  top: "inception_4e/3x3_reduce"
  param {
    lr_mult: 1
    decay_mult: 1
  }
  param {
    lr_mult: 2
    decay_mult: 0
  }
  convolution_param {
    num_output: 160
    kernel_size: 1
    weight_filler {
      type: "xavier"
      std: 0.09
    }
    bias_filler {
      type: "constant"
      value: 0.2
    }
  }
}
layer {
  name: "inception_4e/relu_3x3_reduce"
  type: "ReLU"
  bottom: "inception_4e/3x3_reduce"
  top: "inception_4e/3x3_reduce"
}
layer {
  name: "inception_4e/3x3"
  type: "Convolution"
  bottom: "inception_4e/3x3_reduce"
  top: "inception_4e/3x3"
  param {
    lr_mult: 1
    decay_mult: 1
  }
  param {
    lr_mult: 2
    decay_mult: 0
  }
  convolution_param {
    num_output: 320
    pad: 1
    kernel_size: 3
    weight_filler {
      type: "xavier"
      std: 0.03
    }
    bias_filler {
      type: "constant"
      value: 0.2
    }
  }
}
layer {
  name: "inception_4e/relu_3x3"
  type: "ReLU"
  bottom: "inception_4e/3x3"
  top: "inception_4e/3x3"
}
layer {
  name: "inception_4e/5x5_reduce"
  type: "Convolution"
  bottom: "inception_4d/output"
  top: "inception_4e/5x5_reduce"
  param {
    lr_mult: 1
    decay_mult: 1
  }
  param {
    lr_mult: 2
    decay_mult: 0
  }
  convolution_param {
    num_output: 32
    kernel_size: 1
    weight_filler {
      type: "xavier"
      std: 0.2
    }
    bias_filler {
      type: "constant"
      value: 0.2
    }
  }
}
layer {
  name: "inception_4e/relu_5x5_reduce"
  type: "ReLU"
  bottom: "inception_4e/5x5_reduce"
  top: "inception_4e/5x5_reduce"
}
layer {
  name: "inception_4e/5x5"
  type: "Convolution"
  bottom: "inception_4e/5x5_reduce"
  top: "inception_4e/
I0403 18:51:19.836442  7915 layer_factory.hpp:77] Creating layer data
I0403 18:51:19.837047  7915 net.cpp:91] Creating Layer data
I0403 18:51:19.837079  7915 net.cpp:399] data -> data
I0403 18:51:19.837132  7915 net.cpp:399] data -> label
I0403 18:51:19.837170  7915 data_transformer.cpp:25] Loading mean file from: /home/mohanty/data/final_dataset/lmdb/grayscale-40-60/mean.binaryproto
I0403 18:51:19.838302  7917 db_lmdb.cpp:38] Opened lmdb /home/mohanty/data/final_dataset/lmdb/grayscale-40-60/test_db
I0403 18:51:19.851227  7915 data_layer.cpp:41] output data size: 24,3,224,224
I0403 18:51:19.878924  7915 net.cpp:141] Setting up data
I0403 18:51:19.879024  7915 net.cpp:148] Top shape: 24 3 224 224 (3612672)
I0403 18:51:19.879047  7915 net.cpp:148] Top shape: 24 (24)
I0403 18:51:19.879065  7915 net.cpp:156] Memory required for data: 14450784
I0403 18:51:19.879093  7915 layer_factory.hpp:77] Creating layer label_data_1_split
I0403 18:51:19.879120  7915 net.cpp:91] Creating Layer label_data_1_split
I0403 18:51:19.879140  7915 net.cpp:425] label_data_1_split <- label
I0403 18:51:19.879174  7915 net.cpp:399] label_data_1_split -> label_data_1_split_0
I0403 18:51:19.879204  7915 net.cpp:399] label_data_1_split -> label_data_1_split_1
I0403 18:51:19.879226  7915 net.cpp:399] label_data_1_split -> label_data_1_split_2
I0403 18:51:19.879248  7915 net.cpp:399] label_data_1_split -> label_data_1_split_3
I0403 18:51:19.879269  7915 net.cpp:399] label_data_1_split -> label_data_1_split_4
I0403 18:51:19.879297  7915 net.cpp:399] label_data_1_split -> label_data_1_split_5
I0403 18:51:19.879319  7915 net.cpp:399] label_data_1_split -> label_data_1_split_6
I0403 18:51:19.879341  7915 net.cpp:399] label_data_1_split -> label_data_1_split_7
I0403 18:51:19.879360  7915 net.cpp:399] label_data_1_split -> label_data_1_split_8
I0403 18:51:19.879381  7915 net.cpp:399] label_data_1_split -> label_data_1_split_9
I0403 18:51:19.879499  7915 net.cpp:141] Setting up label_data_1_split
I0403 18:51:19.879524  7915 net.cpp:148] Top shape: 24 (24)
I0403 18:51:19.879541  7915 net.cpp:148] Top shape: 24 (24)
I0403 18:51:19.879557  7915 net.cpp:148] Top shape: 24 (24)
I0403 18:51:19.879573  7915 net.cpp:148] Top shape: 24 (24)
I0403 18:51:19.879588  7915 net.cpp:148] Top shape: 24 (24)
I0403 18:51:19.879606  7915 net.cpp:148] Top shape: 24 (24)
I0403 18:51:19.879622  7915 net.cpp:148] Top shape: 24 (24)
I0403 18:51:19.879638  7915 net.cpp:148] Top shape: 24 (24)
I0403 18:51:19.879654  7915 net.cpp:148] Top shape: 24 (24)
I0403 18:51:19.879673  7915 net.cpp:148] Top shape: 24 (24)
I0403 18:51:19.879720  7915 net.cpp:156] Memory required for data: 14451744
I0403 18:51:19.879737  7915 layer_factory.hpp:77] Creating layer conv1/7x7_s2
I0403 18:51:19.879771  7915 net.cpp:91] Creating Layer conv1/7x7_s2
I0403 18:51:19.879791  7915 net.cpp:425] conv1/7x7_s2 <- data
I0403 18:51:19.879812  7915 net.cpp:399] conv1/7x7_s2 -> conv1/7x7_s2
I0403 18:51:20.024518  7915 net.cpp:141] Setting up conv1/7x7_s2
I0403 18:51:20.024626  7915 net.cpp:148] Top shape: 24 64 112 112 (19267584)
I0403 18:51:20.024643  7915 net.cpp:156] Memory required for data: 91522080
I0403 18:51:20.024674  7915 layer_factory.hpp:77] Creating layer conv1/relu_7x7
I0403 18:51:20.024700  7915 net.cpp:91] Creating Layer conv1/relu_7x7
I0403 18:51:20.024719  7915 net.cpp:425] conv1/relu_7x7 <- conv1/7x7_s2
I0403 18:51:20.024737  7915 net.cpp:386] conv1/relu_7x7 -> conv1/7x7_s2 (in-place)
I0403 18:51:20.024986  7915 net.cpp:141] Setting up conv1/relu_7x7
I0403 18:51:20.025012  7915 net.cpp:148] Top shape: 24 64 112 112 (19267584)
I0403 18:51:20.025028  7915 net.cpp:156] Memory required for data: 168592416
I0403 18:51:20.025043  7915 layer_factory.hpp:77] Creating layer pool1/3x3_s2
I0403 18:51:20.025068  7915 net.cpp:91] Creating Layer pool1/3x3_s2
I0403 18:51:20.025085  7915 net.cpp:425] pool1/3x3_s2 <- conv1/7x7_s2
I0403 18:51:20.025104  7915 net.cpp:399] pool1/3x3_s2 -> pool1/3x3_s2
I0403 18:51:20.025174  7915 net.cpp:141] Setting up pool1/3x3_s2
I0403 18:51:20.025198  7915 net.cpp:148] Top shape: 24 64 56 56 (4816896)
I0403 18:51:20.025213  7915 net.cpp:156] Memory required for data: 187860000
I0403 18:51:20.025228  7915 layer_factory.hpp:77] Creating layer pool1/norm1
I0403 18:51:20.025251  7915 net.cpp:91] Creating Layer pool1/norm1
I0403 18:51:20.025269  7915 net.cpp:425] pool1/norm1 <- pool1/3x3_s2
I0403 18:51:20.025292  7915 net.cpp:399] pool1/norm1 -> pool1/norm1
I0403 18:51:20.025564  7915 net.cpp:141] Setting up pool1/norm1
I0403 18:51:20.025591  7915 net.cpp:148] Top shape: 24 64 56 56 (4816896)
I0403 18:51:20.025606  7915 net.cpp:156] Memory required for data: 207127584
I0403 18:51:20.025621  7915 layer_factory.hpp:77] Creating layer conv2/3x3_reduce
I0403 18:51:20.025645  7915 net.cpp:91] Creating Layer conv2/3x3_reduce
I0403 18:51:20.025660  7915 net.cpp:425] conv2/3x3_reduce <- pool1/norm1
I0403 18:51:20.025678  7915 net.cpp:399] conv2/3x3_reduce -> conv2/3x3_reduce
I0403 18:51:20.026971  7915 net.cpp:141] Setting up conv2/3x3_reduce
I0403 18:51:20.027000  7915 net.cpp:148] Top shape: 24 64 56 56 (4816896)
I0403 18:51:20.027015  7915 net.cpp:156] Memory required for data: 226395168
I0403 18:51:20.027036  7915 layer_factory.hpp:77] Creating layer conv2/relu_3x3_reduce
I0403 18:51:20.027055  7915 net.cpp:91] Creating Layer conv2/relu_3x3_reduce
I0403 18:51:20.027068  7915 net.cpp:425] conv2/relu_3x3_reduce <- conv2/3x3_reduce
I0403 18:51:20.027084  7915 net.cpp:386] conv2/relu_3x3_reduce -> conv2/3x3_reduce (in-place)
I0403 18:51:20.027334  7915 net.cpp:141] Setting up conv2/relu_3x3_reduce
I0403 18:51:20.027360  7915 net.cpp:148] Top shape: 24 64 56 56 (4816896)
I0403 18:51:20.027375  7915 net.cpp:156] Memory required for data: 245662752
I0403 18:51:20.027391  7915 layer_factory.hpp:77] Creating layer conv2/3x3
I0403 18:51:20.027413  7915 net.cpp:91] Creating Layer conv2/3x3
I0403 18:51:20.027429  7915 net.cpp:425] conv2/3x3 <- conv2/3x3_reduce
I0403 18:51:20.027448  7915 net.cpp:399] conv2/3x3 -> conv2/3x3
I0403 18:51:20.029673  7915 net.cpp:141] Setting up conv2/3x3
I0403 18:51:20.029706  7915 net.cpp:148] Top shape: 24 192 56 56 (14450688)
I0403 18:51:20.029723  7915 net.cpp:156] Memory required for data: 303465504
I0403 18:51:20.029744  7915 layer_factory.hpp:77] Creating layer conv2/relu_3x3
I0403 18:51:20.029763  7915 net.cpp:91] Creating Layer conv2/relu_3x3
I0403 18:51:20.029779  7915 net.cpp:425] conv2/relu_3x3 <- conv2/3x3
I0403 18:51:20.029798  7915 net.cpp:386] conv2/relu_3x3 -> conv2/3x3 (in-place)
I0403 18:51:20.029968  7915 net.cpp:141] Setting up conv2/relu_3x3
I0403 18:51:20.029991  7915 net.cpp:148] Top shape: 24 192 56 56 (14450688)
I0403 18:51:20.030042  7915 net.cpp:156] Memory required for data: 361268256
I0403 18:51:20.030060  7915 layer_factory.hpp:77] Creating layer conv2/norm2
I0403 18:51:20.030081  7915 net.cpp:91] Creating Layer conv2/norm2
I0403 18:51:20.030097  7915 net.cpp:425] conv2/norm2 <- conv2/3x3
I0403 18:51:20.030115  7915 net.cpp:399] conv2/norm2 -> conv2/norm2
I0403 18:51:20.030421  7915 net.cpp:141] Setting up conv2/norm2
I0403 18:51:20.030449  7915 net.cpp:148] Top shape: 24 192 56 56 (14450688)
I0403 18:51:20.030467  7915 net.cpp:156] Memory required for data: 419071008
I0403 18:51:20.030483  7915 layer_factory.hpp:77] Creating layer pool2/3x3_s2
I0403 18:51:20.030511  7915 net.cpp:91] Creating Layer pool2/3x3_s2
I0403 18:51:20.030527  7915 net.cpp:425] pool2/3x3_s2 <- conv2/norm2
I0403 18:51:20.030544  7915 net.cpp:399] pool2/3x3_s2 -> pool2/3x3_s2
I0403 18:51:20.030596  7915 net.cpp:141] Setting up pool2/3x3_s2
I0403 18:51:20.030617  7915 net.cpp:148] Top shape: 24 192 28 28 (3612672)
I0403 18:51:20.030632  7915 net.cpp:156] Memory required for data: 433521696
I0403 18:51:20.030647  7915 layer_factory.hpp:77] Creating layer pool2/3x3_s2_pool2/3x3_s2_0_split
I0403 18:51:20.030665  7915 net.cpp:91] Creating Layer pool2/3x3_s2_pool2/3x3_s2_0_split
I0403 18:51:20.030679  7915 net.cpp:425] pool2/3x3_s2_pool2/3x3_s2_0_split <- pool2/3x3_s2
I0403 18:51:20.030699  7915 net.cpp:399] pool2/3x3_s2_pool2/3x3_s2_0_split -> pool2/3x3_s2_pool2/3x3_s2_0_split_0
I0403 18:51:20.030719  7915 net.cpp:399] pool2/3x3_s2_pool2/3x3_s2_0_split -> pool2/3x3_s2_pool2/3x3_s2_0_split_1
I0403 18:51:20.030740  7915 net.cpp:399] pool2/3x3_s2_pool2/3x3_s2_0_split -> pool2/3x3_s2_pool2/3x3_s2_0_split_2
I0403 18:51:20.030758  7915 net.cpp:399] pool2/3x3_s2_pool2/3x3_s2_0_split -> pool2/3x3_s2_pool2/3x3_s2_0_split_3
I0403 18:51:20.030828  7915 net.cpp:141] Setting up pool2/3x3_s2_pool2/3x3_s2_0_split
I0403 18:51:20.030850  7915 net.cpp:148] Top shape: 24 192 28 28 (3612672)
I0403 18:51:20.030865  7915 net.cpp:148] Top shape: 24 192 28 28 (3612672)
I0403 18:51:20.030880  7915 net.cpp:148] Top shape: 24 192 28 28 (3612672)
I0403 18:51:20.030896  7915 net.cpp:148] Top shape: 24 192 28 28 (3612672)
I0403 18:51:20.030910  7915 net.cpp:156] Memory required for data: 491324448
I0403 18:51:20.030923  7915 layer_factory.hpp:77] Creating layer inception_3a/1x1
I0403 18:51:20.030946  7915 net.cpp:91] Creating Layer inception_3a/1x1
I0403 18:51:20.030962  7915 net.cpp:425] inception_3a/1x1 <- pool2/3x3_s2_pool2/3x3_s2_0_split_0
I0403 18:51:20.030982  7915 net.cpp:399] inception_3a/1x1 -> inception_3a/1x1
I0403 18:51:20.032541  7915 net.cpp:141] Setting up inception_3a/1x1
I0403 18:51:20.032572  7915 net.cpp:148] Top shape: 24 64 28 28 (1204224)
I0403 18:51:20.032589  7915 net.cpp:156] Memory required for data: 496141344
I0403 18:51:20.032608  7915 layer_factory.hpp:77] Creating layer inception_3a/relu_1x1
I0403 18:51:20.032625  7915 net.cpp:91] Creating Layer inception_3a/relu_1x1
I0403 18:51:20.032641  7915 net.cpp:425] inception_3a/relu_1x1 <- inception_3a/1x1
I0403 18:51:20.032663  7915 net.cpp:386] inception_3a/relu_1x1 -> inception_3a/1x1 (in-place)
I0403 18:51:20.032826  7915 net.cpp:141] Setting up inception_3a/relu_1x1
I0403 18:51:20.032851  7915 net.cpp:148] Top shape: 24 64 28 28 (1204224)
I0403 18:51:20.032866  7915 net.cpp:156] Memory required for data: 500958240
I0403 18:51:20.032879  7915 layer_factory.hpp:77] Creating layer inception_3a/3x3_reduce
I0403 18:51:20.032901  7915 net.cpp:91] Creating Layer inception_3a/3x3_reduce
I0403 18:51:20.032917  7915 net.cpp:425] inception_3a/3x3_reduce <- pool2/3x3_s2_pool2/3x3_s2_0_split_1
I0403 18:51:20.032938  7915 net.cpp:399] inception_3a/3x3_reduce -> inception_3a/3x3_reduce
I0403 18:51:20.034559  7915 net.cpp:141] Setting up inception_3a/3x3_reduce
I0403 18:51:20.034590  7915 net.cpp:148] Top shape: 24 96 28 28 (1806336)
I0403 18:51:20.034607  7915 net.cpp:156] Memory required for data: 508183584
I0403 18:51:20.034628  7915 layer_factory.hpp:77] Creating layer inception_3a/relu_3x3_reduce
I0403 18:51:20.034662  7915 net.cpp:91] Creating Layer inception_3a/relu_3x3_reduce
I0403 18:51:20.034679  7915 net.cpp:425] inception_3a/relu_3x3_reduce <- inception_3a/3x3_reduce
I0403 18:51:20.034699  7915 net.cpp:386] inception_3a/relu_3x3_reduce -> inception_3a/3x3_reduce (in-place)
I0403 18:51:20.034869  7915 net.cpp:141] Setting up inception_3a/relu_3x3_reduce
I0403 18:51:20.034900  7915 net.cpp:148] Top shape: 24 96 28 28 (1806336)
I0403 18:51:20.034916  7915 net.cpp:156] Memory required for data: 515408928
I0403 18:51:20.034931  7915 layer_factory.hpp:77] Creating layer inception_3a/3x3
I0403 18:51:20.034952  7915 net.cpp:91] Creating Layer inception_3a/3x3
I0403 18:51:20.034968  7915 net.cpp:425] inception_3a/3x3 <- inception_3a/3x3_reduce
I0403 18:51:20.034991  7915 net.cpp:399] inception_3a/3x3 -> inception_3a/3x3
I0403 18:51:20.036552  7915 net.cpp:141] Setting up inception_3a/3x3
I0403 18:51:20.036582  7915 net.cpp:148] Top shape: 24 128 28 28 (2408448)
I0403 18:51:20.036598  7915 net.cpp:156] Memory required for data: 525042720
I0403 18:51:20.036615  7915 layer_factory.hpp:77] Creating layer inception_3a/relu_3x3
I0403 18:51:20.036633  7915 net.cpp:91] Creating Layer inception_3a/relu_3x3
I0403 18:51:20.036648  7915 net.cpp:425] inception_3a/relu_3x3 <- inception_3a/3x3
I0403 18:51:20.036666  7915 net.cpp:386] inception_3a/relu_3x3 -> inception_3a/3x3 (in-place)
I0403 18:51:20.036922  7915 net.cpp:141] Setting up inception_3a/relu_3x3
I0403 18:51:20.036949  7915 net.cpp:148] Top shape: 24 128 28 28 (2408448)
I0403 18:51:20.036967  7915 net.cpp:156] Memory required for data: 534676512
I0403 18:51:20.036980  7915 layer_factory.hpp:77] Creating layer inception_3a/5x5_reduce
I0403 18:51:20.037003  7915 net.cpp:91] Creating Layer inception_3a/5x5_reduce
I0403 18:51:20.037019  7915 net.cpp:425] inception_3a/5x5_reduce <- pool2/3x3_s2_pool2/3x3_s2_0_split_2
I0403 18:51:20.037040  7915 net.cpp:399] inception_3a/5x5_reduce -> inception_3a/5x5_reduce
I0403 18:51:20.037945  7915 net.cpp:141] Setting up inception_3a/5x5_reduce
I0403 18:51:20.037971  7915 net.cpp:148] Top shape: 24 16 28 28 (301056)
I0403 18:51:20.037986  7915 net.cpp:156] Memory required for data: 535880736
I0403 18:51:20.038003  7915 layer_factory.hpp:77] Creating layer inception_3a/relu_5x5_reduce
I0403 18:51:20.038024  7915 net.cpp:91] Creating Layer inception_3a/relu_5x5_reduce
I0403 18:51:20.038040  7915 net.cpp:425] inception_3a/relu_5x5_reduce <- inception_3a/5x5_reduce
I0403 18:51:20.038058  7915 net.cpp:386] inception_3a/relu_5x5_reduce -> inception_3a/5x5_reduce (in-place)
I0403 18:51:20.038321  7915 net.cpp:141] Setting up inception_3a/relu_5x5_reduce
I0403 18:51:20.038347  7915 net.cpp:148] Top shape: 24 16 28 28 (301056)
I0403 18:51:20.038360  7915 net.cpp:156] Memory required for data: 537084960
I0403 18:51:20.038375  7915 layer_factory.hpp:77] Creating layer inception_3a/5x5
I0403 18:51:20.038401  7915 net.cpp:91] Creating Layer inception_3a/5x5
I0403 18:51:20.038417  7915 net.cpp:425] inception_3a/5x5 <- inception_3a/5x5_reduce
I0403 18:51:20.038437  7915 net.cpp:399] inception_3a/5x5 -> inception_3a/5x5
I0403 18:51:20.039393  7915 net.cpp:141] Setting up inception_3a/5x5
I0403 18:51:20.039423  7915 net.cpp:148] Top shape: 24 32 28 28 (602112)
I0403 18:51:20.039440  7915 net.cpp:156] Memory required for data: 539493408
I0403 18:51:20.039458  7915 layer_factory.hpp:77] Creating layer inception_3a/relu_5x5
I0403 18:51:20.039475  7915 net.cpp:91] Creating Layer inception_3a/relu_5x5
I0403 18:51:20.039490  7915 net.cpp:425] inception_3a/relu_5x5 <- inception_3a/5x5
I0403 18:51:20.039510  7915 net.cpp:386] inception_3a/relu_5x5 -> inception_3a/5x5 (in-place)
I0403 18:51:20.039674  7915 net.cpp:141] Setting up inception_3a/relu_5x5
I0403 18:51:20.039696  7915 net.cpp:148] Top shape: 24 32 28 28 (602112)
I0403 18:51:20.039711  7915 net.cpp:156] Memory required for data: 541901856
I0403 18:51:20.039726  7915 layer_factory.hpp:77] Creating layer inception_3a/pool
I0403 18:51:20.039743  7915 net.cpp:91] Creating Layer inception_3a/pool
I0403 18:51:20.039770  7915 net.cpp:425] inception_3a/pool <- pool2/3x3_s2_pool2/3x3_s2_0_split_3
I0403 18:51:20.039791  7915 net.cpp:399] inception_3a/pool -> inception_3a/pool
I0403 18:51:20.039846  7915 net.cpp:141] Setting up inception_3a/pool
I0403 18:51:20.039868  7915 net.cpp:148] Top shape: 24 192 28 28 (3612672)
I0403 18:51:20.039882  7915 net.cpp:156] Memory required for data: 556352544
I0403 18:51:20.039896  7915 layer_factory.hpp:77] Creating layer inception_3a/pool_proj
I0403 18:51:20.039919  7915 net.cpp:91] Creating Layer inception_3a/pool_proj
I0403 18:51:20.039937  7915 net.cpp:425] inception_3a/pool_proj <- inception_3a/pool
I0403 18:51:20.039954  7915 net.cpp:399] inception_3a/pool_proj -> inception_3a/pool_proj
I0403 18:51:20.040854  7915 net.cpp:141] Setting up inception_3a/pool_proj
I0403 18:51:20.040882  7915 net.cpp:148] Top shape: 24 32 28 28 (602112)
I0403 18:51:20.040899  7915 net.cpp:156] Memory required for data: 558760992
I0403 18:51:20.040921  7915 layer_factory.hpp:77] Creating layer inception_3a/relu_pool_proj
I0403 18:51:20.040942  7915 net.cpp:91] Creating Layer inception_3a/relu_pool_proj
I0403 18:51:20.040958  7915 net.cpp:425] inception_3a/relu_pool_proj <- inception_3a/pool_proj
I0403 18:51:20.040976  7915 net.cpp:386] inception_3a/relu_pool_proj -> inception_3a/pool_proj (in-place)
I0403 18:51:20.041230  7915 net.cpp:141] Setting up inception_3a/relu_pool_proj
I0403 18:51:20.041261  7915 net.cpp:148] Top shape: 24 32 28 28 (602112)
I0403 18:51:20.041285  7915 net.cpp:156] Memory required for data: 561169440
I0403 18:51:20.041299  7915 layer_factory.hpp:77] Creating layer inception_3a/output
I0403 18:51:20.041317  7915 net.cpp:91] Creating Layer inception_3a/output
I0403 18:51:20.041332  7915 net.cpp:425] inception_3a/output <- inception_3a/1x1
I0403 18:51:20.041349  7915 net.cpp:425] inception_3a/output <- inception_3a/3x3
I0403 18:51:20.041364  7915 net.cpp:425] inception_3a/output <- inception_3a/5x5
I0403 18:51:20.041379  7915 net.cpp:425] inception_3a/output <- inception_3a/pool_proj
I0403 18:51:20.041398  7915 net.cpp:399] inception_3a/output -> inception_3a/output
I0403 18:51:20.041441  7915 net.cpp:141] Setting up inception_3a/output
I0403 18:51:20.041463  7915 net.cpp:148] Top shape: 24 256 28 28 (4816896)
I0403 18:51:20.041477  7915 net.cpp:156] Memory required for data: 580437024
I0403 18:51:20.041491  7915 layer_factory.hpp:77] Creating layer inception_3a/output_inception_3a/output_0_split
I0403 18:51:20.041510  7915 net.cpp:91] Creating Layer inception_3a/output_inception_3a/output_0_split
I0403 18:51:20.041527  7915 net.cpp:425] inception_3a/output_inception_3a/output_0_split <- inception_3a/output
I0403 18:51:20.041543  7915 net.cpp:399] inception_3a/output_inception_3a/output_0_split -> inception_3a/output_inception_3a/output_0_split_0
I0403 18:51:20.041565  7915 net.cpp:399] inception_3a/output_inception_3a/output_0_split -> inception_3a/output_inception_3a/output_0_split_1
I0403 18:51:20.041586  7915 net.cpp:399] inception_3a/output_inception_3a/output_0_split -> inception_3a/output_inception_3a/output_0_split_2
I0403 18:51:20.041606  7915 net.cpp:399] inception_3a/output_inception_3a/output_0_split -> inception_3a/output_inception_3a/output_0_split_3
I0403 18:51:20.041676  7915 net.cpp:141] Setting up inception_3a/output_inception_3a/output_0_split
I0403 18:51:20.041700  7915 net.cpp:148] Top shape: 24 256 28 28 (4816896)
I0403 18:51:20.041718  7915 net.cpp:148] Top shape: 24 256 28 28 (4816896)
I0403 18:51:20.041733  7915 net.cpp:148] Top shape: 24 256 28 28 (4816896)
I0403 18:51:20.041749  7915 net.cpp:148] Top shape: 24 256 28 28 (4816896)
I0403 18:51:20.041761  7915 net.cpp:156] Memory required for data: 657507360
I0403 18:51:20.041775  7915 layer_factory.hpp:77] Creating layer inception_3b/1x1
I0403 18:51:20.041796  7915 net.cpp:91] Creating Layer inception_3b/1x1
I0403 18:51:20.041813  7915 net.cpp:425] inception_3b/1x1 <- inception_3a/output_inception_3a/output_0_split_0
I0403 18:51:20.041831  7915 net.cpp:399] inception_3b/1x1 -> inception_3b/1x1
I0403 18:51:20.042906  7915 net.cpp:141] Setting up inception_3b/1x1
I0403 18:51:20.042946  7915 net.cpp:148] Top shape: 24 128 28 28 (2408448)
I0403 18:51:20.042963  7915 net.cpp:156] Memory required for data: 667141152
I0403 18:51:20.042981  7915 layer_factory.hpp:77] Creating layer inception_3b/relu_1x1
I0403 18:51:20.042999  7915 net.cpp:91] Creating Layer inception_3b/relu_1x1
I0403 18:51:20.043014  7915 net.cpp:425] inception_3b/relu_1x1 <- inception_3b/1x1
I0403 18:51:20.043030  7915 net.cpp:386] inception_3b/relu_1x1 -> inception_3b/1x1 (in-place)
I0403 18:51:20.043192  7915 net.cpp:141] Setting up inception_3b/relu_1x1
I0403 18:51:20.043216  7915 net.cpp:148] Top shape: 24 128 28 28 (2408448)
I0403 18:51:20.043231  7915 net.cpp:156] Memory required for data: 676774944
I0403 18:51:20.043246  7915 layer_factory.hpp:77] Creating layer inception_3b/3x3_reduce
I0403 18:51:20.043265  7915 net.cpp:91] Creating Layer inception_3b/3x3_reduce
I0403 18:51:20.043288  7915 net.cpp:425] inception_3b/3x3_reduce <- inception_3a/output_inception_3a/output_0_split_1
I0403 18:51:20.043309  7915 net.cpp:399] inception_3b/3x3_reduce -> inception_3b/3x3_reduce
I0403 18:51:20.044386  7915 net.cpp:141] Setting up inception_3b/3x3_reduce
I0403 18:51:20.044414  7915 net.cpp:148] Top shape: 24 128 28 28 (2408448)
I0403 18:51:20.044430  7915 net.cpp:156] Memory required for data: 686408736
I0403 18:51:20.044447  7915 layer_factory.hpp:77] Creating layer inception_3b/relu_3x3_reduce
I0403 18:51:20.044478  7915 net.cpp:91] Creating Layer inception_3b/relu_3x3_reduce
I0403 18:51:20.044493  7915 net.cpp:425] inception_3b/relu_3x3_reduce <- inception_3b/3x3_reduce
I0403 18:51:20.044510  7915 net.cpp:386] inception_3b/relu_3x3_reduce -> inception_3b/3x3_reduce (in-place)
I0403 18:51:20.044677  7915 net.cpp:141] Setting up inception_3b/relu_3x3_reduce
I0403 18:51:20.044700  7915 net.cpp:148] Top shape: 24 128 28 28 (2408448)
I0403 18:51:20.044714  7915 net.cpp:156] Memory required for data: 696042528
I0403 18:51:20.044728  7915 layer_factory.hpp:77] Creating layer inception_3b/3x3
I0403 18:51:20.044751  7915 net.cpp:91] Creating Layer inception_3b/3x3
I0403 18:51:20.044770  7915 net.cpp:425] inception_3b/3x3 <- inception_3b/3x3_reduce
I0403 18:51:20.044790  7915 net.cpp:399] inception_3b/3x3 -> inception_3b/3x3
I0403 18:51:20.047523  7915 net.cpp:141] Setting up inception_3b/3x3
I0403 18:51:20.047552  7915 net.cpp:148] Top shape: 24 192 28 28 (3612672)
I0403 18:51:20.047569  7915 net.cpp:156] Memory required for data: 710493216
I0403 18:51:20.047586  7915 layer_factory.hpp:77] Creating layer inception_3b/relu_3x3
I0403 18:51:20.047603  7915 net.cpp:91] Creating Layer inception_3b/relu_3x3
I0403 18:51:20.047618  7915 net.cpp:425] inception_3b/relu_3x3 <- inception_3b/3x3
I0403 18:51:20.047637  7915 net.cpp:386] inception_3b/relu_3x3 -> inception_3b/3x3 (in-place)
I0403 18:51:20.047899  7915 net.cpp:141] Setting up inception_3b/relu_3x3
I0403 18:51:20.047926  7915 net.cpp:148] Top shape: 24 192 28 28 (3612672)
I0403 18:51:20.047941  7915 net.cpp:156] Memory required for data: 724943904
I0403 18:51:20.047956  7915 layer_factory.hpp:77] Creating layer inception_3b/5x5_reduce
I0403 18:51:20.047978  7915 net.cpp:91] Creating Layer inception_3b/5x5_reduce
I0403 18:51:20.047996  7915 net.cpp:425] inception_3b/5x5_reduce <- inception_3a/output_inception_3a/output_0_split_2
I0403 18:51:20.048015  7915 net.cpp:399] inception_3b/5x5_reduce -> inception_3b/5x5_reduce
I0403 18:51:20.049008  7915 net.cpp:141] Setting up inception_3b/5x5_reduce
I0403 18:51:20.049038  7915 net.cpp:148] Top shape: 24 32 28 28 (602112)
I0403 18:51:20.049055  7915 net.cpp:156] Memory required for data: 727352352
I0403 18:51:20.049073  7915 layer_factory.hpp:77] Creating layer inception_3b/relu_5x5_reduce
I0403 18:51:20.049091  7915 net.cpp:91] Creating Layer inception_3b/relu_5x5_reduce
I0403 18:51:20.049108  7915 net.cpp:425] inception_3b/relu_5x5_reduce <- inception_3b/5x5_reduce
I0403 18:51:20.049126  7915 net.cpp:386] inception_3b/relu_5x5_reduce -> inception_3b/5x5_reduce (in-place)
I0403 18:51:20.049317  7915 net.cpp:141] Setting up inception_3b/relu_5x5_reduce
I0403 18:51:20.049342  7915 net.cpp:148] Top shape: 24 32 28 28 (602112)
I0403 18:51:20.049357  7915 net.cpp:156] Memory required for data: 729760800
I0403 18:51:20.049383  7915 layer_factory.hpp:77] Creating layer inception_3b/5x5
I0403 18:51:20.049406  7915 net.cpp:91] Creating Layer inception_3b/5x5
I0403 18:51:20.049422  7915 net.cpp:425] inception_3b/5x5 <- inception_3b/5x5_reduce
I0403 18:51:20.049442  7915 net.cpp:399] inception_3b/5x5 -> inception_3b/5x5
I0403 18:51:20.051297  7915 net.cpp:141] Setting up inception_3b/5x5
I0403 18:51:20.051326  7915 net.cpp:148] Top shape: 24 96 28 28 (1806336)
I0403 18:51:20.051339  7915 net.cpp:156] Memory required for data: 736986144
I0403 18:51:20.051357  7915 layer_factory.hpp:77] Creating layer inception_3b/relu_5x5
I0403 18:51:20.051376  7915 net.cpp:91] Creating Layer inception_3b/relu_5x5
I0403 18:51:20.051391  7915 net.cpp:425] inception_3b/relu_5x5 <- inception_3b/5x5
I0403 18:51:20.051409  7915 net.cpp:386] inception_3b/relu_5x5 -> inception_3b/5x5 (in-place)
I0403 18:51:20.051594  7915 net.cpp:141] Setting up inception_3b/relu_5x5
I0403 18:51:20.051617  7915 net.cpp:148] Top shape: 24 96 28 28 (1806336)
I0403 18:51:20.051632  7915 net.cpp:156] Memory required for data: 744211488
I0403 18:51:20.051646  7915 layer_factory.hpp:77] Creating layer inception_3b/pool
I0403 18:51:20.051662  7915 net.cpp:91] Creating Layer inception_3b/pool
I0403 18:51:20.051677  7915 net.cpp:425] inception_3b/pool <- inception_3a/output_inception_3a/output_0_split_3
I0403 18:51:20.051694  7915 net.cpp:399] inception_3b/pool -> inception_3b/pool
I0403 18:51:20.051748  7915 net.cpp:141] Setting up inception_3b/pool
I0403 18:51:20.051769  7915 net.cpp:148] Top shape: 24 256 28 28 (4816896)
I0403 18:51:20.051784  7915 net.cpp:156] Memory required for data: 763479072
I0403 18:51:20.051797  7915 layer_factory.hpp:77] Creating layer inception_3b/pool_proj
I0403 18:51:20.051820  7915 net.cpp:91] Creating Layer inception_3b/pool_proj
I0403 18:51:20.051836  7915 net.cpp:425] inception_3b/pool_proj <- inception_3b/pool
I0403 18:51:20.051853  7915 net.cpp:399] inception_3b/pool_proj -> inception_3b/pool_proj
I0403 18:51:20.052850  7915 net.cpp:141] Setting up inception_3b/pool_proj
I0403 18:51:20.052876  7915 net.cpp:148] Top shape: 24 64 28 28 (1204224)
I0403 18:51:20.052891  7915 net.cpp:156] Memory required for data: 768295968
I0403 18:51:20.052909  7915 layer_factory.hpp:77] Creating layer inception_3b/relu_pool_proj
I0403 18:51:20.052928  7915 net.cpp:91] Creating Layer inception_3b/relu_pool_proj
I0403 18:51:20.052944  7915 net.cpp:425] inception_3b/relu_pool_proj <- inception_3b/pool_proj
I0403 18:51:20.052960  7915 net.cpp:386] inception_3b/relu_pool_proj -> inception_3b/pool_proj (in-place)
I0403 18:51:20.053318  7915 net.cpp:141] Setting up inception_3b/relu_pool_proj
I0403 18:51:20.053342  7915 net.cpp:148] Top shape: 24 64 28 28 (1204224)
I0403 18:51:20.053356  7915 net.cpp:156] Memory required for data: 773112864
I0403 18:51:20.053371  7915 layer_factory.hpp:77] Creating layer inception_3b/output
I0403 18:51:20.053387  7915 net.cpp:91] Creating Layer inception_3b/output
I0403 18:51:20.053402  7915 net.cpp:425] inception_3b/output <- inception_3b/1x1
I0403 18:51:20.053418  7915 net.cpp:425] inception_3b/output <- inception_3b/3x3
I0403 18:51:20.053433  7915 net.cpp:425] inception_3b/output <- inception_3b/5x5
I0403 18:51:20.053447  7915 net.cpp:425] inception_3b/output <- inception_3b/pool_proj
I0403 18:51:20.053465  7915 net.cpp:399] inception_3b/output -> inception_3b/output
I0403 18:51:20.053506  7915 net.cpp:141] Setting up inception_3b/output
I0403 18:51:20.053530  7915 net.cpp:148] Top shape: 24 480 28 28 (9031680)
I0403 18:51:20.053545  7915 net.cpp:156] Memory required for data: 809239584
I0403 18:51:20.053560  7915 layer_factory.hpp:77] Creating layer pool3/3x3_s2
I0403 18:51:20.053576  7915 net.cpp:91] Creating Layer pool3/3x3_s2
I0403 18:51:20.053591  7915 net.cpp:425] pool3/3x3_s2 <- inception_3b/output
I0403 18:51:20.053624  7915 net.cpp:399] pool3/3x3_s2 -> pool3/3x3_s2
I0403 18:51:20.053679  7915 net.cpp:141] Setting up pool3/3x3_s2
I0403 18:51:20.053701  7915 net.cpp:148] Top shape: 24 480 14 14 (2257920)
I0403 18:51:20.053715  7915 net.cpp:156] Memory required for data: 818271264
I0403 18:51:20.053730  7915 layer_factory.hpp:77] Creating layer pool3/3x3_s2_pool3/3x3_s2_0_split
I0403 18:51:20.053747  7915 net.cpp:91] Creating Layer pool3/3x3_s2_pool3/3x3_s2_0_split
I0403 18:51:20.053762  7915 net.cpp:425] pool3/3x3_s2_pool3/3x3_s2_0_split <- pool3/3x3_s2
I0403 18:51:20.053778  7915 net.cpp:399] pool3/3x3_s2_pool3/3x3_s2_0_split -> pool3/3x3_s2_pool3/3x3_s2_0_split_0
I0403 18:51:20.053797  7915 net.cpp:399] pool3/3x3_s2_pool3/3x3_s2_0_split -> pool3/3x3_s2_pool3/3x3_s2_0_split_1
I0403 18:51:20.053815  7915 net.cpp:399] pool3/3x3_s2_pool3/3x3_s2_0_split -> pool3/3x3_s2_pool3/3x3_s2_0_split_2
I0403 18:51:20.053835  7915 net.cpp:399] pool3/3x3_s2_pool3/3x3_s2_0_split -> pool3/3x3_s2_pool3/3x3_s2_0_split_3
I0403 18:51:20.053908  7915 net.cpp:141] Setting up pool3/3x3_s2_pool3/3x3_s2_0_split
I0403 18:51:20.053930  7915 net.cpp:148] Top shape: 24 480 14 14 (2257920)
I0403 18:51:20.053946  7915 net.cpp:148] Top shape: 24 480 14 14 (2257920)
I0403 18:51:20.053959  7915 net.cpp:148] Top shape: 24 480 14 14 (2257920)
I0403 18:51:20.053974  7915 net.cpp:148] Top shape: 24 480 14 14 (2257920)
I0403 18:51:20.053987  7915 net.cpp:156] Memory required for data: 854397984
I0403 18:51:20.054002  7915 layer_factory.hpp:77] Creating layer inception_4a/1x1
I0403 18:51:20.054023  7915 net.cpp:91] Creating Layer inception_4a/1x1
I0403 18:51:20.054039  7915 net.cpp:425] inception_4a/1x1 <- pool3/3x3_s2_pool3/3x3_s2_0_split_0
I0403 18:51:20.054062  7915 net.cpp:399] inception_4a/1x1 -> inception_4a/1x1
I0403 18:51:20.055562  7915 net.cpp:141] Setting up inception_4a/1x1
I0403 18:51:20.055588  7915 net.cpp:148] Top shape: 24 192 14 14 (903168)
I0403 18:51:20.055603  7915 net.cpp:156] Memory required for data: 858010656
I0403 18:51:20.055620  7915 layer_factory.hpp:77] Creating layer inception_4a/relu_1x1
I0403 18:51:20.055640  7915 net.cpp:91] Creating Layer inception_4a/relu_1x1
I0403 18:51:20.055655  7915 net.cpp:425] inception_4a/relu_1x1 <- inception_4a/1x1
I0403 18:51:20.055672  7915 net.cpp:386] inception_4a/relu_1x1 -> inception_4a/1x1 (in-place)
I0403 18:51:20.055840  7915 net.cpp:141] Setting up inception_4a/relu_1x1
I0403 18:51:20.055867  7915 net.cpp:148] Top shape: 24 192 14 14 (903168)
I0403 18:51:20.055882  7915 net.cpp:156] Memory required for data: 861623328
I0403 18:51:20.055896  7915 layer_factory.hpp:77] Creating layer inception_4a/3x3_reduce
I0403 18:51:20.055917  7915 net.cpp:91] Creating Layer inception_4a/3x3_reduce
I0403 18:51:20.055933  7915 net.cpp:425] inception_4a/3x3_reduce <- pool3/3x3_s2_pool3/3x3_s2_0_split_1
I0403 18:51:20.055951  7915 net.cpp:399] inception_4a/3x3_reduce -> inception_4a/3x3_reduce
I0403 18:51:20.057143  7915 net.cpp:141] Setting up inception_4a/3x3_reduce
I0403 18:51:20.057170  7915 net.cpp:148] Top shape: 24 96 14 14 (451584)
I0403 18:51:20.057184  7915 net.cpp:156] Memory required for data: 863429664
I0403 18:51:20.057209  7915 layer_factory.hpp:77] Creating layer inception_4a/relu_3x3_reduce
I0403 18:51:20.057227  7915 net.cpp:91] Creating Layer inception_4a/relu_3x3_reduce
I0403 18:51:20.057243  7915 net.cpp:425] inception_4a/relu_3x3_reduce <- inception_4a/3x3_reduce
I0403 18:51:20.057262  7915 net.cpp:386] inception_4a/relu_3x3_reduce -> inception_4a/3x3_reduce (in-place)
I0403 18:51:20.057435  7915 net.cpp:141] Setting up inception_4a/relu_3x3_reduce
I0403 18:51:20.057461  7915 net.cpp:148] Top shape: 24 96 14 14 (451584)
I0403 18:51:20.057476  7915 net.cpp:156] Memory required for data: 865236000
I0403 18:51:20.057489  7915 layer_factory.hpp:77] Creating layer inception_4a/3x3
I0403 18:51:20.057508  7915 net.cpp:91] Creating Layer inception_4a/3x3
I0403 18:51:20.057524  7915 net.cpp:425] inception_4a/3x3 <- inception_4a/3x3_reduce
I0403 18:51:20.057543  7915 net.cpp:399] inception_4a/3x3 -> inception_4a/3x3
I0403 18:51:20.060083  7915 net.cpp:141] Setting up inception_4a/3x3
I0403 18:51:20.060113  7915 net.cpp:148] Top shape: 24 208 14 14 (978432)
I0403 18:51:20.060128  7915 net.cpp:156] Memory required for data: 869149728
I0403 18:51:20.060148  7915 layer_factory.hpp:77] Creating layer inception_4a/relu_3x3
I0403 18:51:20.060165  7915 net.cpp:91] Creating Layer inception_4a/relu_3x3
I0403 18:51:20.060181  7915 net.cpp:425] inception_4a/relu_3x3 <- inception_4a/3x3
I0403 18:51:20.060199  7915 net.cpp:386] inception_4a/relu_3x3 -> inception_4a/3x3 (in-place)
I0403 18:51:20.060464  7915 net.cpp:141] Setting up inception_4a/relu_3x3
I0403 18:51:20.060492  7915 net.cpp:148] Top shape: 24 208 14 14 (978432)
I0403 18:51:20.060508  7915 net.cpp:156] Memory required for data: 873063456
I0403 18:51:20.060523  7915 layer_factory.hpp:77] Creating layer inception_4a/5x5_reduce
I0403 18:51:20.060545  7915 net.cpp:91] Creating Layer inception_4a/5x5_reduce
I0403 18:51:20.060561  7915 net.cpp:425] inception_4a/5x5_reduce <- pool3/3x3_s2_pool3/3x3_s2_0_split_2
I0403 18:51:20.060580  7915 net.cpp:399] inception_4a/5x5_reduce -> inception_4a/5x5_reduce
I0403 18:51:20.061534  7915 net.cpp:141] Setting up inception_4a/5x5_reduce
I0403 18:51:20.061575  7915 net.cpp:148] Top shape: 24 16 14 14 (75264)
I0403 18:51:20.061591  7915 net.cpp:156] Memory required for data: 873364512
I0403 18:51:20.061609  7915 layer_factory.hpp:77] Creating layer inception_4a/relu_5x5_reduce
I0403 18:51:20.061626  7915 net.cpp:91] Creating Layer inception_4a/relu_5x5_reduce
I0403 18:51:20.061642  7915 net.cpp:425] inception_4a/relu_5x5_reduce <- inception_4a/5x5_reduce
I0403 18:51:20.061661  7915 net.cpp:386] inception_4a/relu_5x5_reduce -> inception_4a/5x5_reduce (in-place)
I0403 18:51:20.061833  7915 net.cpp:141] Setting up inception_4a/relu_5x5_reduce
I0403 18:51:20.061869  7915 net.cpp:148] Top shape: 24 16 14 14 (75264)
I0403 18:51:20.061884  7915 net.cpp:156] Memory required for data: 873665568
I0403 18:51:20.061898  7915 layer_factory.hpp:77] Creating layer inception_4a/5x5
I0403 18:51:20.061920  7915 net.cpp:91] Creating Layer inception_4a/5x5
I0403 18:51:20.061939  7915 net.cpp:425] inception_4a/5x5 <- inception_4a/5x5_reduce
I0403 18:51:20.061959  7915 net.cpp:399] inception_4a/5x5 -> inception_4a/5x5
I0403 18:51:20.062996  7915 net.cpp:141] Setting up inception_4a/5x5
I0403 18:51:20.063024  7915 net.cpp:148] Top shape: 24 48 14 14 (225792)
I0403 18:51:20.063040  7915 net.cpp:156] Memory required for data: 874568736
I0403 18:51:20.063057  7915 layer_factory.hpp:77] Creating layer inception_4a/relu_5x5
I0403 18:51:20.063077  7915 net.cpp:91] Creating Layer inception_4a/relu_5x5
I0403 18:51:20.063092  7915 net.cpp:425] inception_4a/relu_5x5 <- inception_4a/5x5
I0403 18:51:20.063110  7915 net.cpp:386] inception_4a/relu_5x5 -> inception_4a/5x5 (in-place)
I0403 18:51:20.063282  7915 net.cpp:141] Setting up inception_4a/relu_5x5
I0403 18:51:20.063305  7915 net.cpp:148] Top shape: 24 48 14 14 (225792)
I0403 18:51:20.063320  7915 net.cpp:156] Memory required for data: 875471904
I0403 18:51:20.063334  7915 layer_factory.hpp:77] Creating layer inception_4a/pool
I0403 18:51:20.063354  7915 net.cpp:91] Creating Layer inception_4a/pool
I0403 18:51:20.063371  7915 net.cpp:425] inception_4a/pool <- pool3/3x3_s2_pool3/3x3_s2_0_split_3
I0403 18:51:20.063388  7915 net.cpp:399] inception_4a/pool -> inception_4a/pool
I0403 18:51:20.063448  7915 net.cpp:141] Setting up inception_4a/pool
I0403 18:51:20.063472  7915 net.cpp:148] Top shape: 24 480 14 14 (2257920)
I0403 18:51:20.063485  7915 net.cpp:156] Memory required for data: 884503584
I0403 18:51:20.063499  7915 layer_factory.hpp:77] Creating layer inception_4a/pool_proj
I0403 18:51:20.063520  7915 net.cpp:91] Creating Layer inception_4a/pool_proj
I0403 18:51:20.063537  7915 net.cpp:425] inception_4a/pool_proj <- inception_4a/pool
I0403 18:51:20.063558  7915 net.cpp:399] inception_4a/pool_proj -> inception_4a/pool_proj
I0403 18:51:20.064653  7915 net.cpp:141] Setting up inception_4a/pool_proj
I0403 18:51:20.064683  7915 net.cpp:148] Top shape: 24 64 14 14 (301056)
I0403 18:51:20.064713  7915 net.cpp:156] Memory required for data: 885707808
I0403 18:51:20.064733  7915 layer_factory.hpp:77] Creating layer inception_4a/relu_pool_proj
I0403 18:51:20.064754  7915 net.cpp:91] Creating Layer inception_4a/relu_pool_proj
I0403 18:51:20.064769  7915 net.cpp:425] inception_4a/relu_pool_proj <- inception_4a/pool_proj
I0403 18:51:20.064786  7915 net.cpp:386] inception_4a/relu_pool_proj -> inception_4a/pool_proj (in-place)
I0403 18:51:20.065055  7915 net.cpp:141] Setting up inception_4a/relu_pool_proj
I0403 18:51:20.065081  7915 net.cpp:148] Top shape: 24 64 14 14 (301056)
I0403 18:51:20.065095  7915 net.cpp:156] Memory required for data: 886912032
I0403 18:51:20.065110  7915 layer_factory.hpp:77] Creating layer inception_4a/output
I0403 18:51:20.065130  7915 net.cpp:91] Creating Layer inception_4a/output
I0403 18:51:20.065146  7915 net.cpp:425] inception_4a/output <- inception_4a/1x1
I0403 18:51:20.065162  7915 net.cpp:425] inception_4a/output <- inception_4a/3x3
I0403 18:51:20.065177  7915 net.cpp:425] inception_4a/output <- inception_4a/5x5
I0403 18:51:20.065192  7915 net.cpp:425] inception_4a/output <- inception_4a/pool_proj
I0403 18:51:20.065209  7915 net.cpp:399] inception_4a/output -> inception_4a/output
I0403 18:51:20.065253  7915 net.cpp:141] Setting up inception_4a/output
I0403 18:51:20.065284  7915 net.cpp:148] Top shape: 24 512 14 14 (2408448)
I0403 18:51:20.065299  7915 net.cpp:156] Memory required for data: 896545824
I0403 18:51:20.065313  7915 layer_factory.hpp:77] Creating layer inception_4a/output_inception_4a/output_0_split
I0403 18:51:20.065340  7915 net.cpp:91] Creating Layer inception_4a/output_inception_4a/output_0_split
I0403 18:51:20.065356  7915 net.cpp:425] inception_4a/output_inception_4a/output_0_split <- inception_4a/output
I0403 18:51:20.065376  7915 net.cpp:399] inception_4a/output_inception_4a/output_0_split -> inception_4a/output_inception_4a/output_0_split_0
I0403 18:51:20.065395  7915 net.cpp:399] inception_4a/output_inception_4a/output_0_split -> inception_4a/output_inception_4a/output_0_split_1
I0403 18:51:20.065417  7915 net.cpp:399] inception_4a/output_inception_4a/output_0_split -> inception_4a/output_inception_4a/output_0_split_2
I0403 18:51:20.065435  7915 net.cpp:399] inception_4a/output_inception_4a/output_0_split -> inception_4a/output_inception_4a/output_0_split_3
I0403 18:51:20.065454  7915 net.cpp:399] inception_4a/output_inception_4a/output_0_split -> inception_4a/output_inception_4a/output_0_split_4
I0403 18:51:20.065544  7915 net.cpp:141] Setting up inception_4a/output_inception_4a/output_0_split
I0403 18:51:20.065578  7915 net.cpp:148] Top shape: 24 512 14 14 (2408448)
I0403 18:51:20.065596  7915 net.cpp:148] Top shape: 24 512 14 14 (2408448)
I0403 18:51:20.065621  7915 net.cpp:148] Top shape: 24 512 14 14 (2408448)
I0403 18:51:20.065637  7915 net.cpp:148] Top shape: 24 512 14 14 (2408448)
I0403 18:51:20.065652  7915 net.cpp:148] Top shape: 24 512 14 14 (2408448)
I0403 18:51:20.065666  7915 net.cpp:156] Memory required for data: 944714784
I0403 18:51:20.065681  7915 layer_factory.hpp:77] Creating layer loss1/ave_pool
I0403 18:51:20.065697  7915 net.cpp:91] Creating Layer loss1/ave_pool
I0403 18:51:20.065714  7915 net.cpp:425] loss1/ave_pool <- inception_4a/output_inception_4a/output_0_split_0
I0403 18:51:20.065734  7915 net.cpp:399] loss1/ave_pool -> loss1/ave_pool
I0403 18:51:20.065943  7915 net.cpp:141] Setting up loss1/ave_pool
I0403 18:51:20.065968  7915 net.cpp:148] Top shape: 24 512 4 4 (196608)
I0403 18:51:20.065982  7915 net.cpp:156] Memory required for data: 945501216
I0403 18:51:20.065997  7915 layer_factory.hpp:77] Creating layer loss1/conv
I0403 18:51:20.066018  7915 net.cpp:91] Creating Layer loss1/conv
I0403 18:51:20.066036  7915 net.cpp:425] loss1/conv <- loss1/ave_pool
I0403 18:51:20.066056  7915 net.cpp:399] loss1/conv -> loss1/conv
I0403 18:51:20.067409  7915 net.cpp:141] Setting up loss1/conv
I0403 18:51:20.067438  7915 net.cpp:148] Top shape: 24 128 4 4 (49152)
I0403 18:51:20.067466  7915 net.cpp:156] Memory required for data: 945697824
I0403 18:51:20.067484  7915 layer_factory.hpp:77] Creating layer loss1/relu_conv
I0403 18:51:20.067502  7915 net.cpp:91] Creating Layer loss1/relu_conv
I0403 18:51:20.067518  7915 net.cpp:425] loss1/relu_conv <- loss1/conv
I0403 18:51:20.067536  7915 net.cpp:386] loss1/relu_conv -> loss1/conv (in-place)
I0403 18:51:20.067800  7915 net.cpp:141] Setting up loss1/relu_conv
I0403 18:51:20.067827  7915 net.cpp:148] Top shape: 24 128 4 4 (49152)
I0403 18:51:20.067842  7915 net.cpp:156] Memory required for data: 945894432
I0403 18:51:20.067857  7915 layer_factory.hpp:77] Creating layer loss1/fc
I0403 18:51:20.067880  7915 net.cpp:91] Creating Layer loss1/fc
I0403 18:51:20.067898  7915 net.cpp:425] loss1/fc <- loss1/conv
I0403 18:51:20.067917  7915 net.cpp:399] loss1/fc -> loss1/fc
I0403 18:51:20.085134  7915 net.cpp:141] Setting up loss1/fc
I0403 18:51:20.085168  7915 net.cpp:148] Top shape: 24 1024 (24576)
I0403 18:51:20.085183  7915 net.cpp:156] Memory required for data: 945992736
I0403 18:51:20.085202  7915 layer_factory.hpp:77] Creating layer loss1/relu_fc
I0403 18:51:20.085222  7915 net.cpp:91] Creating Layer loss1/relu_fc
I0403 18:51:20.085239  7915 net.cpp:425] loss1/relu_fc <- loss1/fc
I0403 18:51:20.085255  7915 net.cpp:386] loss1/relu_fc -> loss1/fc (in-place)
I0403 18:51:20.085429  7915 net.cpp:141] Setting up loss1/relu_fc
I0403 18:51:20.085455  7915 net.cpp:148] Top shape: 24 1024 (24576)
I0403 18:51:20.085471  7915 net.cpp:156] Memory required for data: 946091040
I0403 18:51:20.085485  7915 layer_factory.hpp:77] Creating layer loss1/drop_fc
I0403 18:51:20.085510  7915 net.cpp:91] Creating Layer loss1/drop_fc
I0403 18:51:20.085527  7915 net.cpp:425] loss1/drop_fc <- loss1/fc
I0403 18:51:20.085544  7915 net.cpp:386] loss1/drop_fc -> loss1/fc (in-place)
I0403 18:51:20.085608  7915 net.cpp:141] Setting up loss1/drop_fc
I0403 18:51:20.085629  7915 net.cpp:148] Top shape: 24 1024 (24576)
I0403 18:51:20.085644  7915 net.cpp:156] Memory required for data: 946189344
I0403 18:51:20.085659  7915 layer_factory.hpp:77] Creating layer loss1/classifier_plantvillage
I0403 18:51:20.085676  7915 net.cpp:91] Creating Layer loss1/classifier_plantvillage
I0403 18:51:20.085691  7915 net.cpp:425] loss1/classifier_plantvillage <- loss1/fc
I0403 18:51:20.085712  7915 net.cpp:399] loss1/classifier_plantvillage -> loss1/classifier_plantvillage
I0403 18:51:20.086585  7915 net.cpp:141] Setting up loss1/classifier_plantvillage
I0403 18:51:20.086612  7915 net.cpp:148] Top shape: 24 38 (912)
I0403 18:51:20.086627  7915 net.cpp:156] Memory required for data: 946192992
I0403 18:51:20.086643  7915 layer_factory.hpp:77] Creating layer loss1/classifier_plantvillage_loss1/classifier_plantvillage_0_split
I0403 18:51:20.086663  7915 net.cpp:91] Creating Layer loss1/classifier_plantvillage_loss1/classifier_plantvillage_0_split
I0403 18:51:20.086678  7915 net.cpp:425] loss1/classifier_plantvillage_loss1/classifier_plantvillage_0_split <- loss1/classifier_plantvillage
I0403 18:51:20.086694  7915 net.cpp:399] loss1/classifier_plantvillage_loss1/classifier_plantvillage_0_split -> loss1/classifier_plantvillage_loss1/classifier_plantvillage_0_split_0
I0403 18:51:20.086715  7915 net.cpp:399] loss1/classifier_plantvillage_loss1/classifier_plantvillage_0_split -> loss1/classifier_plantvillage_loss1/classifier_plantvillage_0_split_1
I0403 18:51:20.086740  7915 net.cpp:399] loss1/classifier_plantvillage_loss1/classifier_plantvillage_0_split -> loss1/classifier_plantvillage_loss1/classifier_plantvillage_0_split_2
I0403 18:51:20.086802  7915 net.cpp:141] Setting up loss1/classifier_plantvillage_loss1/classifier_plantvillage_0_split
I0403 18:51:20.086823  7915 net.cpp:148] Top shape: 24 38 (912)
I0403 18:51:20.086839  7915 net.cpp:148] Top shape: 24 38 (912)
I0403 18:51:20.086853  7915 net.cpp:148] Top shape: 24 38 (912)
I0403 18:51:20.086868  7915 net.cpp:156] Memory required for data: 946203936
I0403 18:51:20.086881  7915 layer_factory.hpp:77] Creating layer inception_4b/1x1
I0403 18:51:20.086902  7915 net.cpp:91] Creating Layer inception_4b/1x1
I0403 18:51:20.086932  7915 net.cpp:425] inception_4b/1x1 <- inception_4a/output_inception_4a/output_0_split_1
I0403 18:51:20.086951  7915 net.cpp:399] inception_4b/1x1 -> inception_4b/1x1
I0403 18:51:20.088476  7915 net.cpp:141] Setting up inception_4b/1x1
I0403 18:51:20.088510  7915 net.cpp:148] Top shape: 24 160 14 14 (752640)
I0403 18:51:20.088526  7915 net.cpp:156] Memory required for data: 949214496
I0403 18:51:20.088544  7915 layer_factory.hpp:77] Creating layer inception_4b/relu_1x1
I0403 18:51:20.088562  7915 net.cpp:91] Creating Layer inception_4b/relu_1x1
I0403 18:51:20.088577  7915 net.cpp:425] inception_4b/relu_1x1 <- inception_4b/1x1
I0403 18:51:20.088595  7915 net.cpp:386] inception_4b/relu_1x1 -> inception_4b/1x1 (in-place)
I0403 18:51:20.088762  7915 net.cpp:141] Setting up inception_4b/relu_1x1
I0403 18:51:20.088785  7915 net.cpp:148] Top shape: 24 160 14 14 (752640)
I0403 18:51:20.088799  7915 net.cpp:156] Memory required for data: 952225056
I0403 18:51:20.088814  7915 layer_factory.hpp:77] Creating layer inception_4b/3x3_reduce
I0403 18:51:20.088835  7915 net.cpp:91] Creating Layer inception_4b/3x3_reduce
I0403 18:51:20.088852  7915 net.cpp:425] inception_4b/3x3_reduce <- inception_4a/output_inception_4a/output_0_split_2
I0403 18:51:20.088872  7915 net.cpp:399] inception_4b/3x3_reduce -> inception_4b/3x3_reduce
I0403 18:51:20.090178  7915 net.cpp:141] Setting up inception_4b/3x3_reduce
I0403 18:51:20.090204  7915 net.cpp:148] Top shape: 24 112 14 14 (526848)
I0403 18:51:20.090219  7915 net.cpp:156] Memory required for data: 954332448
I0403 18:51:20.090236  7915 layer_factory.hpp:77] Creating layer inception_4b/relu_3x3_reduce
I0403 18:51:20.090255  7915 net.cpp:91] Creating Layer inception_4b/relu_3x3_reduce
I0403 18:51:20.090270  7915 net.cpp:425] inception_4b/relu_3x3_reduce <- inception_4b/3x3_reduce
I0403 18:51:20.090294  7915 net.cpp:386] inception_4b/relu_3x3_reduce -> inception_4b/3x3_reduce (in-place)
I0403 18:51:20.090560  7915 net.cpp:141] Setting up inception_4b/relu_3x3_reduce
I0403 18:51:20.090585  7915 net.cpp:148] Top shape: 24 112 14 14 (526848)
I0403 18:51:20.090602  7915 net.cpp:156] Memory required for data: 956439840
I0403 18:51:20.090616  7915 layer_factory.hpp:77] Creating layer inception_4b/3x3
I0403 18:51:20.090638  7915 net.cpp:91] Creating Layer inception_4b/3x3
I0403 18:51:20.090656  7915 net.cpp:425] inception_4b/3x3 <- inception_4b/3x3_reduce
I0403 18:51:20.090677  7915 net.cpp:399] inception_4b/3x3 -> inception_4b/3x3
I0403 18:51:20.093526  7915 net.cpp:141] Setting up inception_4b/3x3
I0403 18:51:20.093555  7915 net.cpp:148] Top shape: 24 224 14 14 (1053696)
I0403 18:51:20.093569  7915 net.cpp:156] Memory required for data: 960654624
I0403 18:51:20.093587  7915 layer_factory.hpp:77] Creating layer inception_4b/relu_3x3
I0403 18:51:20.093608  7915 net.cpp:91] Creating Layer inception_4b/relu_3x3
I0403 18:51:20.093624  7915 net.cpp:425] inception_4b/relu_3x3 <- inception_4b/3x3
I0403 18:51:20.093641  7915 net.cpp:386] inception_4b/relu_3x3 -> inception_4b/3x3 (in-place)
I0403 18:51:20.093809  7915 net.cpp:141] Setting up inception_4b/relu_3x3
I0403 18:51:20.093835  7915 net.cpp:148] Top shape: 24 224 14 14 (1053696)
I0403 18:51:20.093852  7915 net.cpp:156] Memory required for data: 964869408
I0403 18:51:20.093865  7915 layer_factory.hpp:77] Creating layer inception_4b/5x5_reduce
I0403 18:51:20.093889  7915 net.cpp:91] Creating Layer inception_4b/5x5_reduce
I0403 18:51:20.093906  7915 net.cpp:425] inception_4b/5x5_reduce <- inception_4a/output_inception_4a/output_0_split_3
I0403 18:51:20.093925  7915 net.cpp:399] inception_4b/5x5_reduce -> inception_4b/5x5_reduce
I0403 18:51:20.094952  7915 net.cpp:141] Setting up inception_4b/5x5_reduce
I0403 18:51:20.094980  7915 net.cpp:148] Top shape: 24 24 14 14 (112896)
I0403 18:51:20.094995  7915 net.cpp:156] Memory required for data: 965320992
I0403 18:51:20.095012  7915 layer_factory.hpp:77] Creating layer inception_4b/relu_5x5_reduce
I0403 18:51:20.095031  7915 net.cpp:91] Creating Layer inception_4b/relu_5x5_reduce
I0403 18:51:20.095060  7915 net.cpp:425] inception_4b/relu_5x5_reduce <- inception_4b/5x5_reduce
I0403 18:51:20.095080  7915 net.cpp:386] inception_4b/relu_5x5_reduce -> inception_4b/5x5_reduce (in-place)
I0403 18:51:20.095252  7915 net.cpp:141] Setting up inception_4b/relu_5x5_reduce
I0403 18:51:20.095280  7915 net.cpp:148] Top shape: 24 24 14 14 (112896)
I0403 18:51:20.095295  7915 net.cpp:156] Memory required for data: 965772576
I0403 18:51:20.095309  7915 layer_factory.hpp:77] Creating layer inception_4b/5x5
I0403 18:51:20.095331  7915 net.cpp:91] Creating Layer inception_4b/5x5
I0403 18:51:20.095350  7915 net.cpp:425] inception_4b/5x5 <- inception_4b/5x5_reduce
I0403 18:51:20.095369  7915 net.cpp:399] inception_4b/5x5 -> inception_4b/5x5
I0403 18:51:20.096534  7915 net.cpp:141] Setting up inception_4b/5x5
I0403 18:51:20.096563  7915 net.cpp:148] Top shape: 24 64 14 14 (301056)
I0403 18:51:20.096580  7915 net.cpp:156] Memory required for data: 966976800
I0403 18:51:20.096598  7915 layer_factory.hpp:77] Creating layer inception_4b/relu_5x5
I0403 18:51:20.096616  7915 net.cpp:91] Creating Layer inception_4b/relu_5x5
I0403 18:51:20.096631  7915 net.cpp:425] inception_4b/relu_5x5 <- inception_4b/5x5
I0403 18:51:20.096649  7915 net.cpp:386] inception_4b/relu_5x5 -> inception_4b/5x5 (in-place)
I0403 18:51:20.096917  7915 net.cpp:141] Setting up inception_4b/relu_5x5
I0403 18:51:20.096946  7915 net.cpp:148] Top shape: 24 64 14 14 (301056)
I0403 18:51:20.096961  7915 net.cpp:156] Memory required for data: 968181024
I0403 18:51:20.096976  7915 layer_factory.hpp:77] Creating layer inception_4b/pool
I0403 18:51:20.096992  7915 net.cpp:91] Creating Layer inception_4b/pool
I0403 18:51:20.097008  7915 net.cpp:425] inception_4b/pool <- inception_4a/output_inception_4a/output_0_split_4
I0403 18:51:20.097028  7915 net.cpp:399] inception_4b/pool -> inception_4b/pool
I0403 18:51:20.097087  7915 net.cpp:141] Setting up inception_4b/pool
I0403 18:51:20.097110  7915 net.cpp:148] Top shape: 24 512 14 14 (2408448)
I0403 18:51:20.097124  7915 net.cpp:156] Memory required for data: 977814816
I0403 18:51:20.097139  7915 layer_factory.hpp:77] Creating layer inception_4b/pool_proj
I0403 18:51:20.097160  7915 net.cpp:91] Creating Layer inception_4b/pool_proj
I0403 18:51:20.097177  7915 net.cpp:425] inception_4b/pool_proj <- inception_4b/pool
I0403 18:51:20.097198  7915 net.cpp:399] inception_4b/pool_proj -> inception_4b/pool_proj
I0403 18:51:20.098335  7915 net.cpp:141] Setting up inception_4b/pool_proj
I0403 18:51:20.098363  7915 net.cpp:148] Top shape: 24 64 14 14 (301056)
I0403 18:51:20.098379  7915 net.cpp:156] Memory required for data: 979019040
I0403 18:51:20.098397  7915 layer_factory.hpp:77] Creating layer inception_4b/relu_pool_proj
I0403 18:51:20.098415  7915 net.cpp:91] Creating Layer inception_4b/relu_pool_proj
I0403 18:51:20.098431  7915 net.cpp:425] inception_4b/relu_pool_proj <- inception_4b/pool_proj
I0403 18:51:20.098451  7915 net.cpp:386] inception_4b/relu_pool_proj -> inception_4b/pool_proj (in-place)
I0403 18:51:20.098618  7915 net.cpp:141] Setting up inception_4b/relu_pool_proj
I0403 18:51:20.098644  7915 net.cpp:148] Top shape: 24 64 14 14 (301056)
I0403 18:51:20.098657  7915 net.cpp:156] Memory required for data: 980223264
I0403 18:51:20.098672  7915 layer_factory.hpp:77] Creating layer inception_4b/output
I0403 18:51:20.098688  7915 net.cpp:91] Creating Layer inception_4b/output
I0403 18:51:20.098703  7915 net.cpp:425] inception_4b/output <- inception_4b/1x1
I0403 18:51:20.098721  7915 net.cpp:425] inception_4b/output <- inception_4b/3x3
I0403 18:51:20.098737  7915 net.cpp:425] inception_4b/output <- inception_4b/5x5
I0403 18:51:20.098752  7915 net.cpp:425] inception_4b/output <- inception_4b/pool_proj
I0403 18:51:20.098770  7915 net.cpp:399] inception_4b/output -> inception_4b/output
I0403 18:51:20.098817  7915 net.cpp:141] Setting up inception_4b/output
I0403 18:51:20.098841  7915 net.cpp:148] Top shape: 24 512 14 14 (2408448)
I0403 18:51:20.098855  7915 net.cpp:156] Memory required for data: 989857056
I0403 18:51:20.098883  7915 layer_factory.hpp:77] Creating layer inception_4b/output_inception_4b/output_0_split
I0403 18:51:20.098901  7915 net.cpp:91] Creating Layer inception_4b/output_inception_4b/output_0_split
I0403 18:51:20.098915  7915 net.cpp:425] inception_4b/output_inception_4b/output_0_split <- inception_4b/output
I0403 18:51:20.098937  7915 net.cpp:399] inception_4b/output_inception_4b/output_0_split -> inception_4b/output_inception_4b/output_0_split_0
I0403 18:51:20.098959  7915 net.cpp:399] inception_4b/output_inception_4b/output_0_split -> inception_4b/output_inception_4b/output_0_split_1
I0403 18:51:20.098980  7915 net.cpp:399] inception_4b/output_inception_4b/output_0_split -> inception_4b/output_inception_4b/output_0_split_2
I0403 18:51:20.099002  7915 net.cpp:399] inception_4b/output_inception_4b/output_0_split -> inception_4b/output_inception_4b/output_0_split_3
I0403 18:51:20.099082  7915 net.cpp:141] Setting up inception_4b/output_inception_4b/output_0_split
I0403 18:51:20.099104  7915 net.cpp:148] Top shape: 24 512 14 14 (2408448)
I0403 18:51:20.099120  7915 net.cpp:148] Top shape: 24 512 14 14 (2408448)
I0403 18:51:20.099134  7915 net.cpp:148] Top shape: 24 512 14 14 (2408448)
I0403 18:51:20.099151  7915 net.cpp:148] Top shape: 24 512 14 14 (2408448)
I0403 18:51:20.099164  7915 net.cpp:156] Memory required for data: 1028392224
I0403 18:51:20.099179  7915 layer_factory.hpp:77] Creating layer inception_4c/1x1
I0403 18:51:20.099202  7915 net.cpp:91] Creating Layer inception_4c/1x1
I0403 18:51:20.099220  7915 net.cpp:425] inception_4c/1x1 <- inception_4b/output_inception_4b/output_0_split_0
I0403 18:51:20.099237  7915 net.cpp:399] inception_4c/1x1 -> inception_4c/1x1
I0403 18:51:20.100582  7915 net.cpp:141] Setting up inception_4c/1x1
I0403 18:51:20.100610  7915 net.cpp:148] Top shape: 24 128 14 14 (602112)
I0403 18:51:20.100625  7915 net.cpp:156] Memory required for data: 1030800672
I0403 18:51:20.100643  7915 layer_factory.hpp:77] Creating layer inception_4c/relu_1x1
I0403 18:51:20.100663  7915 net.cpp:91] Creating Layer inception_4c/relu_1x1
I0403 18:51:20.100680  7915 net.cpp:425] inception_4c/relu_1x1 <- inception_4c/1x1
I0403 18:51:20.100697  7915 net.cpp:386] inception_4c/relu_1x1 -> inception_4c/1x1 (in-place)
I0403 18:51:20.100865  7915 net.cpp:141] Setting up inception_4c/relu_1x1
I0403 18:51:20.100891  7915 net.cpp:148] Top shape: 24 128 14 14 (602112)
I0403 18:51:20.100906  7915 net.cpp:156] Memory required for data: 1033209120
I0403 18:51:20.100920  7915 layer_factory.hpp:77] Creating layer inception_4c/3x3_reduce
I0403 18:51:20.100942  7915 net.cpp:91] Creating Layer inception_4c/3x3_reduce
I0403 18:51:20.100960  7915 net.cpp:425] inception_4c/3x3_reduce <- inception_4b/output_inception_4b/output_0_split_1
I0403 18:51:20.100978  7915 net.cpp:399] inception_4c/3x3_reduce -> inception_4c/3x3_reduce
I0403 18:51:20.102846  7915 net.cpp:141] Setting up inception_4c/3x3_reduce
I0403 18:51:20.102877  7915 net.cpp:148] Top shape: 24 128 14 14 (602112)
I0403 18:51:20.102893  7915 net.cpp:156] Memory required for data: 1035617568
I0403 18:51:20.102912  7915 layer_factory.hpp:77] Creating layer inception_4c/relu_3x3_reduce
I0403 18:51:20.102929  7915 net.cpp:91] Creating Layer inception_4c/relu_3x3_reduce
I0403 18:51:20.102946  7915 net.cpp:425] inception_4c/relu_3x3_reduce <- inception_4c/3x3_reduce
I0403 18:51:20.102963  7915 net.cpp:386] inception_4c/relu_3x3_reduce -> inception_4c/3x3_reduce (in-place)
I0403 18:51:20.103232  7915 net.cpp:141] Setting up inception_4c/relu_3x3_reduce
I0403 18:51:20.103260  7915 net.cpp:148] Top shape: 24 128 14 14 (602112)
I0403 18:51:20.103281  7915 net.cpp:156] Memory required for data: 1038026016
I0403 18:51:20.103297  7915 layer_factory.hpp:77] Creating layer inception_4c/3x3
I0403 18:51:20.103320  7915 net.cpp:91] Creating Layer inception_4c/3x3
I0403 18:51:20.103339  7915 net.cpp:425] inception_4c/3x3 <- inception_4c/3x3_reduce
I0403 18:51:20.103358  7915 net.cpp:399] inception_4c/3x3 -> inception_4c/3x3
I0403 18:51:20.106775  7915 net.cpp:141] Setting up inception_4c/3x3
I0403 18:51:20.106817  7915 net.cpp:148] Top shape: 24 256 14 14 (1204224)
I0403 18:51:20.106833  7915 net.cpp:156] Memory required for data: 1042842912
I0403 18:51:20.106868  7915 layer_factory.hpp:77] Creating layer inception_4c/relu_3x3
I0403 18:51:20.106887  7915 net.cpp:91] Creating Layer inception_4c/relu_3x3
I0403 18:51:20.106904  7915 net.cpp:425] inception_4c/relu_3x3 <- inception_4c/3x3
I0403 18:51:20.106922  7915 net.cpp:386] inception_4c/relu_3x3 -> inception_4c/3x3 (in-place)
I0403 18:51:20.107094  7915 net.cpp:141] Setting up inception_4c/relu_3x3
I0403 18:51:20.107120  7915 net.cpp:148] Top shape: 24 256 14 14 (1204224)
I0403 18:51:20.107132  7915 net.cpp:156] Memory required for data: 1047659808
I0403 18:51:20.107148  7915 layer_factory.hpp:77] Creating layer inception_4c/5x5_reduce
I0403 18:51:20.107170  7915 net.cpp:91] Creating Layer inception_4c/5x5_reduce
I0403 18:51:20.107187  7915 net.cpp:425] inception_4c/5x5_reduce <- inception_4b/output_inception_4b/output_0_split_2
I0403 18:51:20.107208  7915 net.cpp:399] inception_4c/5x5_reduce -> inception_4c/5x5_reduce
I0403 18:51:20.108239  7915 net.cpp:141] Setting up inception_4c/5x5_reduce
I0403 18:51:20.108268  7915 net.cpp:148] Top shape: 24 24 14 14 (112896)
I0403 18:51:20.108288  7915 net.cpp:156] Memory required for data: 1048111392
I0403 18:51:20.108306  7915 layer_factory.hpp:77] Creating layer inception_4c/relu_5x5_reduce
I0403 18:51:20.108324  7915 net.cpp:91] Creating Layer inception_4c/relu_5x5_reduce
I0403 18:51:20.108337  7915 net.cpp:425] inception_4c/relu_5x5_reduce <- inception_4c/5x5_reduce
I0403 18:51:20.108355  7915 net.cpp:386] inception_4c/relu_5x5_reduce -> inception_4c/5x5_reduce (in-place)
I0403 18:51:20.108530  7915 net.cpp:141] Setting up inception_4c/relu_5x5_reduce
I0403 18:51:20.108553  7915 net.cpp:148] Top shape: 24 24 14 14 (112896)
I0403 18:51:20.108568  7915 net.cpp:156] Memory required for data: 1048562976
I0403 18:51:20.108584  7915 layer_factory.hpp:77] Creating layer inception_4c/5x5
I0403 18:51:20.108605  7915 net.cpp:91] Creating Layer inception_4c/5x5
I0403 18:51:20.108623  7915 net.cpp:425] inception_4c/5x5 <- inception_4c/5x5_reduce
I0403 18:51:20.108642  7915 net.cpp:399] inception_4c/5x5 -> inception_4c/5x5
I0403 18:51:20.109819  7915 net.cpp:141] Setting up inception_4c/5x5
I0403 18:51:20.109846  7915 net.cpp:148] Top shape: 24 64 14 14 (301056)
I0403 18:51:20.109863  7915 net.cpp:156] Memory required for data: 1049767200
I0403 18:51:20.109879  7915 layer_factory.hpp:77] Creating layer inception_4c/relu_5x5
I0403 18:51:20.109899  7915 net.cpp:91] Creating Layer inception_4c/relu_5x5
I0403 18:51:20.109915  7915 net.cpp:425] inception_4c/relu_5x5 <- inception_4c/5x5
I0403 18:51:20.109931  7915 net.cpp:386] inception_4c/relu_5x5 -> inception_4c/5x5 (in-place)
I0403 18:51:20.110213  7915 net.cpp:141] Setting up inception_4c/relu_5x5
I0403 18:51:20.110239  7915 net.cpp:148] Top shape: 24 64 14 14 (301056)
I0403 18:51:20.110254  7915 net.cpp:156] Memory required for data: 1050971424
I0403 18:51:20.110267  7915 layer_factory.hpp:77] Creating layer inception_4c/pool
I0403 18:51:20.110291  7915 net.cpp:91] Creating Layer inception_4c/pool
I0403 18:51:20.110307  7915 net.cpp:425] inception_4c/pool <- inception_4b/output_inception_4b/output_0_split_3
I0403 18:51:20.110328  7915 net.cpp:399] inception_4c/pool -> inception_4c/pool
I0403 18:51:20.110393  7915 net.cpp:141] Setting up inception_4c/pool
I0403 18:51:20.110415  7915 net.cpp:148] Top shape: 24 512 14 14 (2408448)
I0403 18:51:20.110430  7915 net.cpp:156] Memory required for data: 1060605216
I0403 18:51:20.110443  7915 layer_factory.hpp:77] Creating layer inception_4c/pool_proj
I0403 18:51:20.110465  7915 net.cpp:91] Creating Layer inception_4c/pool_proj
I0403 18:51:20.110482  7915 net.cpp:425] inception_4c/pool_proj <- inception_4c/pool
I0403 18:51:20.110503  7915 net.cpp:399] inception_4c/pool_proj -> inception_4c/pool_proj
I0403 18:51:20.111661  7915 net.cpp:141] Setting up inception_4c/pool_proj
I0403 18:51:20.111690  7915 net.cpp:148] Top shape: 24 64 14 14 (301056)
I0403 18:51:20.111718  7915 net.cpp:156] Memory required for data: 1061809440
I0403 18:51:20.111737  7915 layer_factory.hpp:77] Creating layer inception_4c/relu_pool_proj
I0403 18:51:20.111754  7915 net.cpp:91] Creating Layer inception_4c/relu_pool_proj
I0403 18:51:20.111770  7915 net.cpp:425] inception_4c/relu_pool_proj <- inception_4c/pool_proj
I0403 18:51:20.111791  7915 net.cpp:386] inception_4c/relu_pool_proj -> inception_4c/pool_proj (in-place)
I0403 18:51:20.111961  7915 net.cpp:141] Setting up inception_4c/relu_pool_proj
I0403 18:51:20.111985  7915 net.cpp:148] Top shape: 24 64 14 14 (301056)
I0403 18:51:20.111999  7915 net.cpp:156] Memory required for data: 1063013664
I0403 18:51:20.112015  7915 layer_factory.hpp:77] Creating layer inception_4c/output
I0403 18:51:20.112032  7915 net.cpp:91] Creating Layer inception_4c/output
I0403 18:51:20.112047  7915 net.cpp:425] inception_4c/output <- inception_4c/1x1
I0403 18:51:20.112062  7915 net.cpp:425] inception_4c/output <- inception_4c/3x3
I0403 18:51:20.112077  7915 net.cpp:425] inception_4c/output <- inception_4c/5x5
I0403 18:51:20.112092  7915 net.cpp:425] inception_4c/output <- inception_4c/pool_proj
I0403 18:51:20.112110  7915 net.cpp:399] inception_4c/output -> inception_4c/output
I0403 18:51:20.112157  7915 net.cpp:141] Setting up inception_4c/output
I0403 18:51:20.112181  7915 net.cpp:148] Top shape: 24 512 14 14 (2408448)
I0403 18:51:20.112195  7915 net.cpp:156] Memory required for data: 1072647456
I0403 18:51:20.112210  7915 layer_factory.hpp:77] Creating layer inception_4c/output_inception_4c/output_0_split
I0403 18:51:20.112226  7915 net.cpp:91] Creating Layer inception_4c/output_inception_4c/output_0_split
I0403 18:51:20.112241  7915 net.cpp:425] inception_4c/output_inception_4c/output_0_split <- inception_4c/output
I0403 18:51:20.112258  7915 net.cpp:399] inception_4c/output_inception_4c/output_0_split -> inception_4c/output_inception_4c/output_0_split_0
I0403 18:51:20.112292  7915 net.cpp:399] inception_4c/output_inception_4c/output_0_split -> inception_4c/output_inception_4c/output_0_split_1
I0403 18:51:20.112314  7915 net.cpp:399] inception_4c/output_inception_4c/output_0_split -> inception_4c/output_inception_4c/output_0_split_2
I0403 18:51:20.112334  7915 net.cpp:399] inception_4c/output_inception_4c/output_0_split -> inception_4c/output_inception_4c/output_0_split_3
I0403 18:51:20.112416  7915 net.cpp:141] Setting up inception_4c/output_inception_4c/output_0_split
I0403 18:51:20.112439  7915 net.cpp:148] Top shape: 24 512 14 14 (2408448)
I0403 18:51:20.112454  7915 net.cpp:148] Top shape: 24 512 14 14 (2408448)
I0403 18:51:20.112470  7915 net.cpp:148] Top shape: 24 512 14 14 (2408448)
I0403 18:51:20.112488  7915 net.cpp:148] Top shape: 24 512 14 14 (2408448)
I0403 18:51:20.112500  7915 net.cpp:156] Memory required for data: 1111182624
I0403 18:51:20.112514  7915 layer_factory.hpp:77] Creating layer inception_4d/1x1
I0403 18:51:20.112539  7915 net.cpp:91] Creating Layer inception_4d/1x1
I0403 18:51:20.112555  7915 net.cpp:425] inception_4d/1x1 <- inception_4c/output_inception_4c/output_0_split_0
I0403 18:51:20.112573  7915 net.cpp:399] inception_4d/1x1 -> inception_4d/1x1
I0403 18:51:20.113914  7915 net.cpp:141] Setting up inception_4d/1x1
I0403 18:51:20.113942  7915 net.cpp:148] Top shape: 24 112 14 14 (526848)
I0403 18:51:20.113960  7915 net.cpp:156] Memory required for data: 1113290016
I0403 18:51:20.113976  7915 layer_factory.hpp:77] Creating layer inception_4d/relu_1x1
I0403 18:51:20.113997  7915 net.cpp:91] Creating Layer inception_4d/relu_1x1
I0403 18:51:20.114015  7915 net.cpp:425] inception_4d/relu_1x1 <- inception_4d/1x1
I0403 18:51:20.114032  7915 net.cpp:386] inception_4d/relu_1x1 -> inception_4d/1x1 (in-place)
I0403 18:51:20.114210  7915 net.cpp:141] Setting up inception_4d/relu_1x1
I0403 18:51:20.114235  7915 net.cpp:148] Top shape: 24 112 14 14 (526848)
I0403 18:51:20.114250  7915 net.cpp:156] Memory required for data: 1115397408
I0403 18:51:20.114264  7915 layer_factory.hpp:77] Creating layer inception_4d/3x3_reduce
I0403 18:51:20.114305  7915 net.cpp:91] Creating Layer inception_4d/3x3_reduce
I0403 18:51:20.114326  7915 net.cpp:425] inception_4d/3x3_reduce <- inception_4c/output_inception_4c/output_0_split_1
I0403 18:51:20.114347  7915 net.cpp:399] inception_4d/3x3_reduce -> inception_4d/3x3_reduce
I0403 18:51:20.115770  7915 net.cpp:141] Setting up inception_4d/3x3_reduce
I0403 18:51:20.115799  7915 net.cpp:148] Top shape: 24 144 14 14 (677376)
I0403 18:51:20.115814  7915 net.cpp:156] Memory required for data: 1118106912
I0403 18:51:20.115833  7915 layer_factory.hpp:77] Creating layer inception_4d/relu_3x3_reduce
I0403 18:51:20.115854  7915 net.cpp:91] Creating Layer inception_4d/relu_3x3_reduce
I0403 18:51:20.115870  7915 net.cpp:425] inception_4d/relu_3x3_reduce <- inception_4d/3x3_reduce
I0403 18:51:20.115888  7915 net.cpp:386] inception_4d/relu_3x3_reduce -> inception_4d/3x3_reduce (in-place)
I0403 18:51:20.116161  7915 net.cpp:141] Setting up inception_4d/relu_3x3_reduce
I0403 18:51:20.116188  7915 net.cpp:148] Top shape: 24 144 14 14 (677376)
I0403 18:51:20.116202  7915 net.cpp:156] Memory required for data: 1120816416
I0403 18:51:20.116217  7915 layer_factory.hpp:77] Creating layer inception_4d/3x3
I0403 18:51:20.116240  7915 net.cpp:91] Creating Layer inception_4d/3x3
I0403 18:51:20.116258  7915 net.cpp:425] inception_4d/3x3 <- inception_4d/3x3_reduce
I0403 18:51:20.116284  7915 net.cpp:399] inception_4d/3x3 -> inception_4d/3x3
I0403 18:51:20.120419  7915 net.cpp:141] Setting up inception_4d/3x3
I0403 18:51:20.120450  7915 net.cpp:148] Top shape: 24 288 14 14 (1354752)
I0403 18:51:20.120467  7915 net.cpp:156] Memory required for data: 1126235424
I0403 18:51:20.120486  7915 layer_factory.hpp:77] Creating layer inception_4d/relu_3x3
I0403 18:51:20.120503  7915 net.cpp:91] Creating Layer inception_4d/relu_3x3
I0403 18:51:20.120519  7915 net.cpp:425] inception_4d/relu_3x3 <- inception_4d/3x3
I0403 18:51:20.120535  7915 net.cpp:386] inception_4d/relu_3x3 -> inception_4d/3x3 (in-place)
I0403 18:51:20.120713  7915 net.cpp:141] Setting up inception_4d/relu_3x3
I0403 18:51:20.120740  7915 net.cpp:148] Top shape: 24 288 14 14 (1354752)
I0403 18:51:20.120756  7915 net.cpp:156] Memory required for data: 1131654432
I0403 18:51:20.120772  7915 layer_factory.hpp:77] Creating layer inception_4d/5x5_reduce
I0403 18:51:20.120798  7915 net.cpp:91] Creating Layer inception_4d/5x5_reduce
I0403 18:51:20.120815  7915 net.cpp:425] inception_4d/5x5_reduce <- inception_4c/output_inception_4c/output_0_split_2
I0403 18:51:20.120838  7915 net.cpp:399] inception_4d/5x5_reduce -> inception_4d/5x5_reduce
I0403 18:51:20.121953  7915 net.cpp:141] Setting up inception_4d/5x5_reduce
I0403 18:51:20.121981  7915 net.cpp:148] Top shape: 24 32 14 14 (150528)
I0403 18:51:20.121997  7915 net.cpp:156] Memory required for data: 1132256544
I0403 18:51:20.122015  7915 layer_factory.hpp:77] Creating layer inception_4d/relu_5x5_reduce
I0403 18:51:20.122035  7915 net.cpp:91] Creating Layer inception_4d/relu_5x5_reduce
I0403 18:51:20.122051  7915 net.cpp:425] inception_4d/relu_5x5_reduce <- inception_4d/5x5_reduce
I0403 18:51:20.122067  7915 net.cpp:386] inception_4d/relu_5x5_reduce -> inception_4d/5x5_reduce (in-place)
I0403 18:51:20.122267  7915 net.cpp:141] Setting up inception_4d/relu_5x5_reduce
I0403 18:51:20.122303  7915 net.cpp:148] Top shape: 24 32 14 14 (150528)
I0403 18:51:20.122318  7915 net.cpp:156] Memory required for data: 1132858656
I0403 18:51:20.122334  7915 layer_factory.hpp:77] Creating layer inception_4d/5x5
I0403 18:51:20.122355  7915 net.cpp:91] Creating Layer inception_4d/5x5
I0403 18:51:20.122375  7915 net.cpp:425] inception_4d/5x5 <- inception_4d/5x5_reduce
I0403 18:51:20.122396  7915 net.cpp:399] inception_4d/5x5 -> inception_4d/5x5
I0403 18:51:20.123822  7915 net.cpp:141] Setting up inception_4d/5x5
I0403 18:51:20.123862  7915 net.cpp:148] Top shape: 24 64 14 14 (301056)
I0403 18:51:20.123878  7915 net.cpp:156] Memory required for data: 1134062880
I0403 18:51:20.123895  7915 layer_factory.hpp:77] Creating layer inception_4d/relu_5x5
I0403 18:51:20.123926  7915 net.cpp:91] Creating Layer inception_4d/relu_5x5
I0403 18:51:20.123942  7915 net.cpp:425] inception_4d/relu_5x5 <- inception_4d/5x5
I0403 18:51:20.123961  7915 net.cpp:386] inception_4d/relu_5x5 -> inception_4d/5x5 (in-place)
I0403 18:51:20.124251  7915 net.cpp:141] Setting up inception_4d/relu_5x5
I0403 18:51:20.124281  7915 net.cpp:148] Top shape: 24 64 14 14 (301056)
I0403 18:51:20.124299  7915 net.cpp:156] Memory required for data: 1135267104
I0403 18:51:20.124313  7915 layer_factory.hpp:77] Creating layer inception_4d/pool
I0403 18:51:20.124330  7915 net.cpp:91] Creating Layer inception_4d/pool
I0403 18:51:20.124346  7915 net.cpp:425] inception_4d/pool <- inception_4c/output_inception_4c/output_0_split_3
I0403 18:51:20.124366  7915 net.cpp:399] inception_4d/pool -> inception_4d/pool
I0403 18:51:20.124431  7915 net.cpp:141] Setting up inception_4d/pool
I0403 18:51:20.124454  7915 net.cpp:148] Top shape: 24 512 14 14 (2408448)
I0403 18:51:20.124469  7915 net.cpp:156] Memory required for data: 1144900896
I0403 18:51:20.124482  7915 layer_factory.hpp:77] Creating layer inception_4d/pool_proj
I0403 18:51:20.124510  7915 net.cpp:91] Creating Layer inception_4d/pool_proj
I0403 18:51:20.124526  7915 net.cpp:425] inception_4d/pool_proj <- inception_4d/pool
I0403 18:51:20.124544  7915 net.cpp:399] inception_4d/pool_proj -> inception_4d/pool_proj
I0403 18:51:20.126230  7915 net.cpp:141] Setting up inception_4d/pool_proj
I0403 18:51:20.126260  7915 net.cpp:148] Top shape: 24 64 14 14 (301056)
I0403 18:51:20.126281  7915 net.cpp:156] Memory required for data: 1146105120
I0403 18:51:20.126299  7915 layer_factory.hpp:77] Creating layer inception_4d/relu_pool_proj
I0403 18:51:20.126318  7915 net.cpp:91] Creating Layer inception_4d/relu_pool_proj
I0403 18:51:20.126334  7915 net.cpp:425] inception_4d/relu_pool_proj <- inception_4d/pool_proj
I0403 18:51:20.126350  7915 net.cpp:386] inception_4d/relu_pool_proj -> inception_4d/pool_proj (in-place)
I0403 18:51:20.126526  7915 net.cpp:141] Setting up inception_4d/relu_pool_proj
I0403 18:51:20.126550  7915 net.cpp:148] Top shape: 24 64 14 14 (301056)
I0403 18:51:20.126564  7915 net.cpp:156] Memory required for data: 1147309344
I0403 18:51:20.126579  7915 layer_factory.hpp:77] Creating layer inception_4d/output
I0403 18:51:20.126595  7915 net.cpp:91] Creating Layer inception_4d/output
I0403 18:51:20.126610  7915 net.cpp:425] inception_4d/output <- inception_4d/1x1
I0403 18:51:20.126626  7915 net.cpp:425] inception_4d/output <- inception_4d/3x3
I0403 18:51:20.126641  7915 net.cpp:425] inception_4d/output <- inception_4d/5x5
I0403 18:51:20.126657  7915 net.cpp:425] inception_4d/output <- inception_4d/pool_proj
I0403 18:51:20.126674  7915 net.cpp:399] inception_4d/output -> inception_4d/output
I0403 18:51:20.126719  7915 net.cpp:141] Setting up inception_4d/output
I0403 18:51:20.126741  7915 net.cpp:148] Top shape: 24 528 14 14 (2483712)
I0403 18:51:20.126755  7915 net.cpp:156] Memory required for data: 1157244192
I0403 18:51:20.126770  7915 layer_factory.hpp:77] Creating layer inception_4d/output_inception_4d/output_0_split
I0403 18:51:20.126788  7915 net.cpp:91] Creating Layer inception_4d/output_inception_4d/output_0_split
I0403 18:51:20.126804  7915 net.cpp:425] inception_4d/output_inception_4d/output_0_split <- inception_4d/output
I0403 18:51:20.126824  7915 net.cpp:399] inception_4d/output_inception_4d/output_0_split -> inception_4d/output_inception_4d/output_0_split_0
I0403 18:51:20.126845  7915 net.cpp:399] inception_4d/output_inception_4d/output_0_split -> inception_4d/output_inception_4d/output_0_split_1
I0403 18:51:20.126866  7915 net.cpp:399] inception_4d/output_inception_4d/output_0_split -> inception_4d/output_inception_4d/output_0_split_2
I0403 18:51:20.126886  7915 net.cpp:399] inception_4d/output_inception_4d/output_0_split -> inception_4d/output_inception_4d/output_0_split_3
I0403 18:51:20.126905  7915 net.cpp:399] inception_4d/output_inception_4d/output_0_split -> inception_4d/output_inception_4d/output_0_split_4
I0403 18:51:20.127001  7915 net.cpp:141] Setting up inception_4d/output_inception_4d/output_0_split
I0403 18:51:20.127034  7915 net.cpp:148] Top shape: 24 528 14 14 (2483712)
I0403 18:51:20.127050  7915 net.cpp:148] Top shape: 24 528 14 14 (2483712)
I0403 18:51:20.127066  7915 net.cpp:148] Top shape: 24 528 14 14 (2483712)
I0403 18:51:20.127080  7915 net.cpp:148] Top shape: 24 528 14 14 (2483712)
I0403 18:51:20.127095  7915 net.cpp:148] Top shape: 24 528 14 14 (2483712)
I0403 18:51:20.127109  7915 net.cpp:156] Memory required for data: 1206918432
I0403 18:51:20.127122  7915 layer_factory.hpp:77] Creating layer loss2/ave_pool
I0403 18:51:20.127141  7915 net.cpp:91] Creating Layer loss2/ave_pool
I0403 18:51:20.127157  7915 net.cpp:425] loss2/ave_pool <- inception_4d/output_inception_4d/output_0_split_0
I0403 18:51:20.127174  7915 net.cpp:399] loss2/ave_pool -> loss2/ave_pool
I0403 18:51:20.127475  7915 net.cpp:141] Setting up loss2/ave_pool
I0403 18:51:20.127503  7915 net.cpp:148] Top shape: 24 528 4 4 (202752)
I0403 18:51:20.127518  7915 net.cpp:156] Memory required for data: 1207729440
I0403 18:51:20.127534  7915 layer_factory.hpp:77] Creating layer loss2/conv
I0403 18:51:20.127555  7915 net.cpp:91] Creating Layer loss2/conv
I0403 18:51:20.127573  7915 net.cpp:425] loss2/conv <- loss2/ave_pool
I0403 18:51:20.127591  7915 net.cpp:399] loss2/conv -> loss2/conv
I0403 18:51:20.129387  7915 net.cpp:141] Setting up loss2/conv
I0403 18:51:20.129415  7915 net.cpp:148] Top shape: 24 128 4 4 (49152)
I0403 18:51:20.129431  7915 net.cpp:156] Memory required for data: 1207926048
I0403 18:51:20.129448  7915 layer_factory.hpp:77] Creating layer loss2/relu_conv
I0403 18:51:20.129467  7915 net.cpp:91] Creating Layer loss2/relu_conv
I0403 18:51:20.129483  7915 net.cpp:425] loss2/relu_conv <- loss2/conv
I0403 18:51:20.129500  7915 net.cpp:386] loss2/relu_conv -> loss2/conv (in-place)
I0403 18:51:20.129770  7915 net.cpp:141] Setting up loss2/relu_conv
I0403 18:51:20.129794  7915 net.cpp:148] Top shape: 24 128 4 4 (49152)
I0403 18:51:20.129811  7915 net.cpp:156] Memory required for data: 1208122656
I0403 18:51:20.129824  7915 layer_factory.hpp:77] Creating layer loss2/fc
I0403 18:51:20.129845  7915 net.cpp:91] Creating Layer loss2/fc
I0403 18:51:20.129863  7915 net.cpp:425] loss2/fc <- loss2/conv
I0403 18:51:20.129879  7915 net.cpp:399] loss2/fc -> loss2/fc
I0403 18:51:20.146761  7915 net.cpp:141] Setting up loss2/fc
I0403 18:51:20.146800  7915 net.cpp:148] Top shape: 24 1024 (24576)
I0403 18:51:20.146816  7915 net.cpp:156] Memory required for data: 1208220960
I0403 18:51:20.146834  7915 layer_factory.hpp:77] Creating layer loss2/relu_fc
I0403 18:51:20.146857  7915 net.cpp:91] Creating Layer loss2/relu_fc
I0403 18:51:20.146873  7915 net.cpp:425] loss2/relu_fc <- loss2/fc
I0403 18:51:20.146893  7915 net.cpp:386] loss2/relu_fc -> loss2/fc (in-place)
I0403 18:51:20.147181  7915 net.cpp:141] Setting up loss2/relu_fc
I0403 18:51:20.147208  7915 net.cpp:148] Top shape: 24 1024 (24576)
I0403 18:51:20.147224  7915 net.cpp:156] Memory required for data: 1208319264
I0403 18:51:20.147238  7915 layer_factory.hpp:77] Creating layer loss2/drop_fc
I0403 18:51:20.147254  7915 net.cpp:91] Creating Layer loss2/drop_fc
I0403 18:51:20.147275  7915 net.cpp:425] loss2/drop_fc <- loss2/fc
I0403 18:51:20.147297  7915 net.cpp:386] loss2/drop_fc -> loss2/fc (in-place)
I0403 18:51:20.147346  7915 net.cpp:141] Setting up loss2/drop_fc
I0403 18:51:20.147367  7915 net.cpp:148] Top shape: 24 1024 (24576)
I0403 18:51:20.147382  7915 net.cpp:156] Memory required for data: 1208417568
I0403 18:51:20.147394  7915 layer_factory.hpp:77] Creating layer loss2/classifier_plantvillage
I0403 18:51:20.147416  7915 net.cpp:91] Creating Layer loss2/classifier_plantvillage
I0403 18:51:20.147433  7915 net.cpp:425] loss2/classifier_plantvillage <- loss2/fc
I0403 18:51:20.147455  7915 net.cpp:399] loss2/classifier_plantvillage -> loss2/classifier_plantvillage
I0403 18:51:20.147830  7915 net.cpp:141] Setting up loss2/classifier_plantvillage
I0403 18:51:20.147855  7915 net.cpp:148] Top shape: 24 38 (912)
I0403 18:51:20.147886  7915 net.cpp:156] Memory required for data: 1208421216
I0403 18:51:20.147903  7915 layer_factory.hpp:77] Creating layer loss2/classifier_plantvillage_loss2/classifier_plantvillage_0_split
I0403 18:51:20.147922  7915 net.cpp:91] Creating Layer loss2/classifier_plantvillage_loss2/classifier_plantvillage_0_split
I0403 18:51:20.147941  7915 net.cpp:425] loss2/classifier_plantvillage_loss2/classifier_plantvillage_0_split <- loss2/classifier_plantvillage
I0403 18:51:20.147959  7915 net.cpp:399] loss2/classifier_plantvillage_loss2/classifier_plantvillage_0_split -> loss2/classifier_plantvillage_loss2/classifier_plantvillage_0_split_0
I0403 18:51:20.147979  7915 net.cpp:399] loss2/classifier_plantvillage_loss2/classifier_plantvillage_0_split -> loss2/classifier_plantvillage_loss2/classifier_plantvillage_0_split_1
I0403 18:51:20.147999  7915 net.cpp:399] loss2/classifier_plantvillage_loss2/classifier_plantvillage_0_split -> loss2/classifier_plantvillage_loss2/classifier_plantvillage_0_split_2
I0403 18:51:20.148073  7915 net.cpp:141] Setting up loss2/classifier_plantvillage_loss2/classifier_plantvillage_0_split
I0403 18:51:20.148097  7915 net.cpp:148] Top shape: 24 38 (912)
I0403 18:51:20.148113  7915 net.cpp:148] Top shape: 24 38 (912)
I0403 18:51:20.148129  7915 net.cpp:148] Top shape: 24 38 (912)
I0403 18:51:20.148144  7915 net.cpp:156] Memory required for data: 1208432160
I0403 18:51:20.148157  7915 layer_factory.hpp:77] Creating layer inception_4e/1x1
I0403 18:51:20.148176  7915 net.cpp:91] Creating Layer inception_4e/1x1
I0403 18:51:20.148192  7915 net.cpp:425] inception_4e/1x1 <- inception_4d/output_inception_4d/output_0_split_1
I0403 18:51:20.148213  7915 net.cpp:399] inception_4e/1x1 -> inception_4e/1x1
I0403 18:51:20.149930  7915 net.cpp:141] Setting up inception_4e/1x1
I0403 18:51:20.149958  7915 net.cpp:148] Top shape: 24 256 14 14 (1204224)
I0403 18:51:20.149973  7915 net.cpp:156] Memory required for data: 1213249056
I0403 18:51:20.149991  7915 layer_factory.hpp:77] Creating layer inception_4e/relu_1x1
I0403 18:51:20.150009  7915 net.cpp:91] Creating Layer inception_4e/relu_1x1
I0403 18:51:20.150027  7915 net.cpp:425] inception_4e/relu_1x1 <- inception_4e/1x1
I0403 18:51:20.150044  7915 net.cpp:386] inception_4e/relu_1x1 -> inception_4e/1x1 (in-place)
I0403 18:51:20.150333  7915 net.cpp:141] Setting up inception_4e/relu_1x1
I0403 18:51:20.150359  7915 net.cpp:148] Top shape: 24 256 14 14 (1204224)
I0403 18:51:20.150374  7915 net.cpp:156] Memory required for data: 1218065952
I0403 18:51:20.150388  7915 layer_factory.hpp:77] Creating layer inception_4e/3x3_reduce
I0403 18:51:20.150411  7915 net.cpp:91] Creating Layer inception_4e/3x3_reduce
I0403 18:51:20.150429  7915 net.cpp:425] inception_4e/3x3_reduce <- inception_4d/output_inception_4d/output_0_split_2
I0403 18:51:20.150450  7915 net.cpp:399] inception_4e/3x3_reduce -> inception_4e/3x3_reduce
I0403 18:51:20.152503  7915 net.cpp:141] Setting up inception_4e/3x3_reduce
I0403 18:51:20.152531  7915 net.cpp:148] Top shape: 24 160 14 14 (752640)
I0403 18:51:20.152546  7915 net.cpp:156] Memory required for data: 1221076512
I0403 18:51:20.152565  7915 layer_factory.hpp:77] Creating layer inception_4e/relu_3x3_reduce
I0403 18:51:20.152581  7915 net.cpp:91] Creating Layer inception_4e/relu_3x3_reduce
I0403 18:51:20.152596  7915 net.cpp:425] inception_4e/relu_3x3_reduce <- inception_4e/3x3_reduce
I0403 18:51:20.152616  7915 net.cpp:386] inception_4e/relu_3x3_reduce -> inception_4e/3x3_reduce (in-place)
I0403 18:51:20.152793  7915 net.cpp:141] Setting up inception_4e/relu_3x3_reduce
I0403 18:51:20.152818  7915 net.cpp:148] Top shape: 24 160 14 14 (752640)
I0403 18:51:20.152832  7915 net.cpp:156] Memory required for data: 1224087072
I0403 18:51:20.152848  7915 layer_factory.hpp:77] Creating layer inception_4e/3x3
I0403 18:51:20.152868  7915 net.cpp:91] Creating Layer inception_4e/3x3
I0403 18:51:20.152886  7915 net.cpp:425] inception_4e/3x3 <- inception_4e/3x3_reduce
I0403 18:51:20.152906  7915 net.cpp:399] inception_4e/3x3 -> inception_4e/3x3
I0403 18:51:20.157737  7915 net.cpp:141] Setting up inception_4e/3x3
I0403 18:51:20.157778  7915 net.cpp:148] Top shape: 24 320 14 14 (1505280)
I0403 18:51:20.157794  7915 net.cpp:156] Memory required for data: 1230108192
I0403 18:51:20.157814  7915 layer_factory.hpp:77] Creating layer inception_4e/relu_3x3
I0403 18:51:20.157832  7915 net.cpp:91] Creating Layer inception_4e/relu_3x3
I0403 18:51:20.157848  7915 net.cpp:425] inception_4e/relu_3x3 <- inception_4e/3x3
I0403 18:51:20.157866  7915 net.cpp:386] inception_4e/relu_3x3 -> inception_4e/3x3 (in-place)
I0403 18:51:20.158149  7915 net.cpp:141] Setting up inception_4e/relu_3x3
I0403 18:51:20.158175  7915 net.cpp:148] Top shape: 24 320 14 14 (1505280)
I0403 18:51:20.158190  7915 net.cpp:156] Memory required for data: 1236129312
I0403 18:51:20.158205  7915 layer_factory.hpp:77] Creating layer inception_4e/5x5_reduce
I0403 18:51:20.158229  7915 net.cpp:91] Creating Layer inception_4e/5x5_reduce
I0403 18:51:20.158246  7915 net.cpp:425] inception_4e/5x5_reduce <- inception_4d/output_inception_4d/output_0_split_3
I0403 18:51:20.158264  7915 net.cpp:399] inception_4e/5x5_reduce -> inception_4e/5x5_reduce
I0403 18:51:20.159299  7915 net.cpp:141] Setting up inception_4e/5x5_reduce
I0403 18:51:20.159327  7915 net.cpp:148] Top shape: 24 32 14 14 (150528)
I0403 18:51:20.159343  7915 net.cpp:156] Memory required for data: 1236731424
I0403 18:51:20.159361  7915 layer_factory.hpp:77] Creating layer inception_4e/relu_5x5_reduce
I0403 18:51:20.159379  7915 net.cpp:91] Creating Layer inception_4e/relu_5x5_reduce
I0403 18:51:20.159395  7915 net.cpp:425] inception_4e/relu_5x5_reduce <- inception_4e/5x5_reduce
I0403 18:51:20.159415  7915 net.cpp:386] inception_4e/relu_5x5_reduce -> inception_4e/5x5_reduce (in-place)
I0403 18:51:20.159718  7915 net.cpp:141] Setting up inception_4e/relu_5x5_reduce
I0403 18:51:20.159744  7915 net.cpp:148] Top shape: 24 32 14 14 (150528)
I0403 18:51:20.159759  7915 net.cpp:156] Memory required for data: 1237333536
I0403 18:51:20.159772  7915 layer_factory.hpp:77] Creating layer inception_4e/5x5
I0403 18:51:20.159809  7915 net.cpp:91] Creating Layer inception_4e/5x5
I0403 18:51:20.159829  7915 net.cpp:425] inception_4e/5x5 <- inception_4e/5x5_reduce
I0403 18:51:20.159848  7915 net.cpp:399] inception_4e/5x5 -> inception_4e/5x5
I0403 18:51:20.161584  7915 net.cpp:141] Setting up inception_4e/5x5
I0403 18:51:20.161614  7915 net.cpp:148] Top shape: 24 128 14 14 (602112)
I0403 18:51:20.161630  7915 net.cpp:156] Memory required for data: 1239741984
I0403 18:51:20.161648  7915 layer_factory.hpp:77] Creating layer inception_4e/relu_5x5
I0403 18:51:20.161666  7915 net.cpp:91] Creating Layer inception_4e/relu_5x5
I0403 18:51:20.161682  7915 net.cpp:425] inception_4e/relu_5x5 <- inception_4e/5x5
I0403 18:51:20.161701  7915 net.cpp:386] inception_4e/relu_5x5 -> inception_4e/5x5 (in-place)
I0403 18:51:20.161892  7915 net.cpp:141] Setting up inception_4e/relu_5x5
I0403 18:51:20.161917  7915 net.cpp:148] Top shape: 24 128 14 14 (602112)
I0403 18:51:20.161931  7915 net.cpp:156] Memory required for data: 1242150432
I0403 18:51:20.161945  7915 layer_factory.hpp:77] Creating layer inception_4e/pool
I0403 18:51:20.161963  7915 net.cpp:91] Creating Layer inception_4e/pool
I0403 18:51:20.161980  7915 net.cpp:425] inception_4e/pool <- inception_4d/output_inception_4d/output_0_split_4
I0403 18:51:20.162000  7915 net.cpp:399] inception_4e/pool -> inception_4e/pool
I0403 18:51:20.162070  7915 net.cpp:141] Setting up inception_4e/pool
I0403 18:51:20.162092  7915 net.cpp:148] Top shape: 24 528 14 14 (2483712)
I0403 18:51:20.162106  7915 net.cpp:156] Memory required for data: 1252085280
I0403 18:51:20.162122  7915 layer_factory.hpp:77] Creating layer inception_4e/pool_proj
I0403 18:51:20.162142  7915 net.cpp:91] Creating Layer inception_4e/pool_proj
I0403 18:51:20.162161  7915 net.cpp:425] inception_4e/pool_proj <- inception_4e/pool
I0403 18:51:20.162183  7915 net.cpp:399] inception_4e/pool_proj -> inception_4e/pool_proj
I0403 18:51:20.163614  7915 net.cpp:141] Setting up inception_4e/pool_proj
I0403 18:51:20.163653  7915 net.cpp:148] Top shape: 24 128 14 14 (602112)
I0403 18:51:20.163671  7915 net.cpp:156] Memory required for data: 1254493728
I0403 18:51:20.163688  7915 layer_factory.hpp:77] Creating layer inception_4e/relu_pool_proj
I0403 18:51:20.163705  7915 net.cpp:91] Creating Layer inception_4e/relu_pool_proj
I0403 18:51:20.163722  7915 net.cpp:425] inception_4e/relu_pool_proj <- inception_4e/pool_proj
I0403 18:51:20.163739  7915 net.cpp:386] inception_4e/relu_pool_proj -> inception_4e/pool_proj (in-place)
I0403 18:51:20.164021  7915 net.cpp:141] Setting up inception_4e/relu_pool_proj
I0403 18:51:20.164049  7915 net.cpp:148] Top shape: 24 128 14 14 (602112)
I0403 18:51:20.164064  7915 net.cpp:156] Memory required for data: 1256902176
I0403 18:51:20.164080  7915 layer_factory.hpp:77] Creating layer inception_4e/output
I0403 18:51:20.164098  7915 net.cpp:91] Creating Layer inception_4e/output
I0403 18:51:20.164113  7915 net.cpp:425] inception_4e/output <- inception_4e/1x1
I0403 18:51:20.164129  7915 net.cpp:425] inception_4e/output <- inception_4e/3x3
I0403 18:51:20.164145  7915 net.cpp:425] inception_4e/output <- inception_4e/5x5
I0403 18:51:20.164160  7915 net.cpp:425] inception_4e/output <- inception_4e/pool_proj
I0403 18:51:20.164177  7915 net.cpp:399] inception_4e/output -> inception_4e/output
I0403 18:51:20.164227  7915 net.cpp:141] Setting up inception_4e/output
I0403 18:51:20.164250  7915 net.cpp:148] Top shape: 24 832 14 14 (3913728)
I0403 18:51:20.164264  7915 net.cpp:156] Memory required for data: 1272557088
I0403 18:51:20.164284  7915 layer_factory.hpp:77] Creating layer pool4/3x3_s2
I0403 18:51:20.164305  7915 net.cpp:91] Creating Layer pool4/3x3_s2
I0403 18:51:20.164321  7915 net.cpp:425] pool4/3x3_s2 <- inception_4e/output
I0403 18:51:20.164340  7915 net.cpp:399] pool4/3x3_s2 -> pool4/3x3_s2
I0403 18:51:20.164407  7915 net.cpp:141] Setting up pool4/3x3_s2
I0403 18:51:20.164430  7915 net.cpp:148] Top shape: 24 832 7 7 (978432)
I0403 18:51:20.164445  7915 net.cpp:156] Memory required for data: 1276470816
I0403 18:51:20.164459  7915 layer_factory.hpp:77] Creating layer pool4/3x3_s2_pool4/3x3_s2_0_split
I0403 18:51:20.164476  7915 net.cpp:91] Creating Layer pool4/3x3_s2_pool4/3x3_s2_0_split
I0403 18:51:20.164492  7915 net.cpp:425] pool4/3x3_s2_pool4/3x3_s2_0_split <- pool4/3x3_s2
I0403 18:51:20.164511  7915 net.cpp:399] pool4/3x3_s2_pool4/3x3_s2_0_split -> pool4/3x3_s2_pool4/3x3_s2_0_split_0
I0403 18:51:20.164532  7915 net.cpp:399] pool4/3x3_s2_pool4/3x3_s2_0_split -> pool4/3x3_s2_pool4/3x3_s2_0_split_1
I0403 18:51:20.164551  7915 net.cpp:399] pool4/3x3_s2_pool4/3x3_s2_0_split -> pool4/3x3_s2_pool4/3x3_s2_0_split_2
I0403 18:51:20.164572  7915 net.cpp:399] pool4/3x3_s2_pool4/3x3_s2_0_split -> pool4/3x3_s2_pool4/3x3_s2_0_split_3
I0403 18:51:20.164659  7915 net.cpp:141] Setting up pool4/3x3_s2_pool4/3x3_s2_0_split
I0403 18:51:20.164685  7915 net.cpp:148] Top shape: 24 832 7 7 (978432)
I0403 18:51:20.164701  7915 net.cpp:148] Top shape: 24 832 7 7 (978432)
I0403 18:51:20.164716  7915 net.cpp:148] Top shape: 24 832 7 7 (978432)
I0403 18:51:20.164731  7915 net.cpp:148] Top shape: 24 832 7 7 (978432)
I0403 18:51:20.164746  7915 net.cpp:156] Memory required for data: 1292125728
I0403 18:51:20.164759  7915 layer_factory.hpp:77] Creating layer inception_5a/1x1
I0403 18:51:20.164782  7915 net.cpp:91] Creating Layer inception_5a/1x1
I0403 18:51:20.164798  7915 net.cpp:425] inception_5a/1x1 <- pool4/3x3_s2_pool4/3x3_s2_0_split_0
I0403 18:51:20.164816  7915 net.cpp:399] inception_5a/1x1 -> inception_5a/1x1
I0403 18:51:20.167567  7915 net.cpp:141] Setting up inception_5a/1x1
I0403 18:51:20.167599  7915 net.cpp:148] Top shape: 24 256 7 7 (301056)
I0403 18:51:20.167616  7915 net.cpp:156] Memory required for data: 1293329952
I0403 18:51:20.167635  7915 layer_factory.hpp:77] Creating layer inception_5a/relu_1x1
I0403 18:51:20.167654  7915 net.cpp:91] Creating Layer inception_5a/relu_1x1
I0403 18:51:20.167670  7915 net.cpp:425] inception_5a/relu_1x1 <- inception_5a/1x1
I0403 18:51:20.167690  7915 net.cpp:386] inception_5a/relu_1x1 -> inception_5a/1x1 (in-place)
I0403 18:51:20.167989  7915 net.cpp:141] Setting up inception_5a/relu_1x1
I0403 18:51:20.168016  7915 net.cpp:148] Top shape: 24 256 7 7 (301056)
I0403 18:51:20.168033  7915 net.cpp:156] Memory required for data: 1294534176
I0403 18:51:20.168048  7915 layer_factory.hpp:77] Creating layer inception_5a/3x3_reduce
I0403 18:51:20.168071  7915 net.cpp:91] Creating Layer inception_5a/3x3_reduce
I0403 18:51:20.168088  7915 net.cpp:425] inception_5a/3x3_reduce <- pool4/3x3_s2_pool4/3x3_s2_0_split_1
I0403 18:51:20.168107  7915 net.cpp:399] inception_5a/3x3_reduce -> inception_5a/3x3_reduce
I0403 18:51:20.170500  7915 net.cpp:141] Setting up inception_5a/3x3_reduce
I0403 18:51:20.170528  7915 net.cpp:148] Top shape: 24 160 7 7 (188160)
I0403 18:51:20.170545  7915 net.cpp:156] Memory required for data: 1295286816
I0403 18:51:20.170564  7915 layer_factory.hpp:77] Creating layer inception_5a/relu_3x3_reduce
I0403 18:51:20.170585  7915 net.cpp:91] Creating Layer inception_5a/relu_3x3_reduce
I0403 18:51:20.170601  7915 net.cpp:425] inception_5a/relu_3x3_reduce <- inception_5a/3x3_reduce
I0403 18:51:20.170619  7915 net.cpp:386] inception_5a/relu_3x3_reduce -> inception_5a/3x3_reduce (in-place)
I0403 18:51:20.170799  7915 net.cpp:141] Setting up inception_5a/relu_3x3_reduce
I0403 18:51:20.170826  7915 net.cpp:148] Top shape: 24 160 7 7 (188160)
I0403 18:51:20.170842  7915 net.cpp:156] Memory required for data: 1296039456
I0403 18:51:20.170858  7915 layer_factory.hpp:77] Creating layer inception_5a/3x3
I0403 18:51:20.170881  7915 net.cpp:91] Creating Layer inception_5a/3x3
I0403 18:51:20.170898  7915 net.cpp:425] inception_5a/3x3 <- inception_5a/3x3_reduce
I0403 18:51:20.170917  7915 net.cpp:399] inception_5a/3x3 -> inception_5a/3x3
I0403 18:51:20.175783  7915 net.cpp:141] Setting up inception_5a/3x3
I0403 18:51:20.175814  7915 net.cpp:148] Top shape: 24 320 7 7 (376320)
I0403 18:51:20.175830  7915 net.cpp:156] Memory required for data: 1297544736
I0403 18:51:20.175848  7915 layer_factory.hpp:77] Creating layer inception_5a/relu_3x3
I0403 18:51:20.175865  7915 net.cpp:91] Creating Layer inception_5a/relu_3x3
I0403 18:51:20.175881  7915 net.cpp:425] inception_5a/relu_3x3 <- inception_5a/3x3
I0403 18:51:20.175900  7915 net.cpp:386] inception_5a/relu_3x3 -> inception_5a/3x3 (in-place)
I0403 18:51:20.176179  7915 net.cpp:141] Setting up inception_5a/relu_3x3
I0403 18:51:20.176205  7915 net.cpp:148] Top shape: 24 320 7 7 (376320)
I0403 18:51:20.176220  7915 net.cpp:156] Memory required for data: 1299050016
I0403 18:51:20.176234  7915 layer_factory.hpp:77] Creating layer inception_5a/5x5_reduce
I0403 18:51:20.176256  7915 net.cpp:91] Creating Layer inception_5a/5x5_reduce
I0403 18:51:20.176277  7915 net.cpp:425] inception_5a/5x5_reduce <- pool4/3x3_s2_pool4/3x3_s2_0_split_2
I0403 18:51:20.176301  7915 net.cpp:399] inception_5a/5x5_reduce -> inception_5a/5x5_reduce
I0403 18:51:20.177410  7915 net.cpp:141] Setting up inception_5a/5x5_reduce
I0403 18:51:20.177453  7915 net.cpp:148] Top shape: 24 32 7 7 (37632)
I0403 18:51:20.177469  7915 net.cpp:156] Memory required for data: 1299200544
I0403 18:51:20.177486  7915 layer_factory.hpp:77] Creating layer inception_5a/relu_5x5_reduce
I0403 18:51:20.177505  7915 net.cpp:91] Creating Layer inception_5a/relu_5x5_reduce
I0403 18:51:20.177523  7915 net.cpp:425] inception_5a/relu_5x5_reduce <- inception_5a/5x5_reduce
I0403 18:51:20.177541  7915 net.cpp:386] inception_5a/relu_5x5_reduce -> inception_5a/5x5_reduce (in-place)
I0403 18:51:20.177845  7915 net.cpp:141] Setting up inception_5a/relu_5x5_reduce
I0403 18:51:20.177870  7915 net.cpp:148] Top shape: 24 32 7 7 (37632)
I0403 18:51:20.177884  7915 net.cpp:156] Memory required for data: 1299351072
I0403 18:51:20.177898  7915 layer_factory.hpp:77] Creating layer inception_5a/5x5
I0403 18:51:20.177920  7915 net.cpp:91] Creating Layer inception_5a/5x5
I0403 18:51:20.177937  7915 net.cpp:425] inception_5a/5x5 <- inception_5a/5x5_reduce
I0403 18:51:20.177958  7915 net.cpp:399] inception_5a/5x5 -> inception_5a/5x5
I0403 18:51:20.179590  7915 net.cpp:141] Setting up inception_5a/5x5
I0403 18:51:20.179630  7915 net.cpp:148] Top shape: 24 128 7 7 (150528)
I0403 18:51:20.179646  7915 net.cpp:156] Memory required for data: 1299953184
I0403 18:51:20.179663  7915 layer_factory.hpp:77] Creating layer inception_5a/relu_5x5
I0403 18:51:20.179682  7915 net.cpp:91] Creating Layer inception_5a/relu_5x5
I0403 18:51:20.179698  7915 net.cpp:425] inception_5a/relu_5x5 <- inception_5a/5x5
I0403 18:51:20.179718  7915 net.cpp:386] inception_5a/relu_5x5 -> inception_5a/5x5 (in-place)
I0403 18:51:20.179899  7915 net.cpp:141] Setting up inception_5a/relu_5x5
I0403 18:51:20.179924  7915 net.cpp:148] Top shape: 24 128 7 7 (150528)
I0403 18:51:20.179937  7915 net.cpp:156] Memory required for data: 1300555296
I0403 18:51:20.179952  7915 layer_factory.hpp:77] Creating layer inception_5a/pool
I0403 18:51:20.179970  7915 net.cpp:91] Creating Layer inception_5a/pool
I0403 18:51:20.179987  7915 net.cpp:425] inception_5a/pool <- pool4/3x3_s2_pool4/3x3_s2_0_split_3
I0403 18:51:20.180004  7915 net.cpp:399] inception_5a/pool -> inception_5a/pool
I0403 18:51:20.180071  7915 net.cpp:141] Setting up inception_5a/pool
I0403 18:51:20.180094  7915 net.cpp:148] Top shape: 24 832 7 7 (978432)
I0403 18:51:20.180109  7915 net.cpp:156] Memory required for data: 1304469024
I0403 18:51:20.180124  7915 layer_factory.hpp:77] Creating layer inception_5a/pool_proj
I0403 18:51:20.180145  7915 net.cpp:91] Creating Layer inception_5a/pool_proj
I0403 18:51:20.180161  7915 net.cpp:425] inception_5a/pool_proj <- inception_5a/pool
I0403 18:51:20.180181  7915 net.cpp:399] inception_5a/pool_proj -> inception_5a/pool_proj
I0403 18:51:20.182373  7915 net.cpp:141] Setting up inception_5a/pool_proj
I0403 18:51:20.182404  7915 net.cpp:148] Top shape: 24 128 7 7 (150528)
I0403 18:51:20.182420  7915 net.cpp:156] Memory required for data: 1305071136
I0403 18:51:20.182438  7915 layer_factory.hpp:77] Creating layer inception_5a/relu_pool_proj
I0403 18:51:20.182456  7915 net.cpp:91] Creating Layer inception_5a/relu_pool_proj
I0403 18:51:20.182472  7915 net.cpp:425] inception_5a/relu_pool_proj <- inception_5a/pool_proj
I0403 18:51:20.182490  7915 net.cpp:386] inception_5a/relu_pool_proj -> inception_5a/pool_proj (in-place)
I0403 18:51:20.182771  7915 net.cpp:141] Setting up inception_5a/relu_pool_proj
I0403 18:51:20.182798  7915 net.cpp:148] Top shape: 24 128 7 7 (150528)
I0403 18:51:20.182813  7915 net.cpp:156] Memory required for data: 1305673248
I0403 18:51:20.182828  7915 layer_factory.hpp:77] Creating layer inception_5a/output
I0403 18:51:20.182845  7915 net.cpp:91] Creating Layer inception_5a/output
I0403 18:51:20.182860  7915 net.cpp:425] inception_5a/output <- inception_5a/1x1
I0403 18:51:20.182876  7915 net.cpp:425] inception_5a/output <- inception_5a/3x3
I0403 18:51:20.182893  7915 net.cpp:425] inception_5a/output <- inception_5a/5x5
I0403 18:51:20.182907  7915 net.cpp:425] inception_5a/output <- inception_5a/pool_proj
I0403 18:51:20.182924  7915 net.cpp:399] inception_5a/output -> inception_5a/output
I0403 18:51:20.182972  7915 net.cpp:141] Setting up inception_5a/output
I0403 18:51:20.182994  7915 net.cpp:148] Top shape: 24 832 7 7 (978432)
I0403 18:51:20.183008  7915 net.cpp:156] Memory required for data: 1309586976
I0403 18:51:20.183022  7915 layer_factory.hpp:77] Creating layer inception_5a/output_inception_5a/output_0_split
I0403 18:51:20.183039  7915 net.cpp:91] Creating Layer inception_5a/output_inception_5a/output_0_split
I0403 18:51:20.183053  7915 net.cpp:425] inception_5a/output_inception_5a/output_0_split <- inception_5a/output
I0403 18:51:20.183073  7915 net.cpp:399] inception_5a/output_inception_5a/output_0_split -> inception_5a/output_inception_5a/output_0_split_0
I0403 18:51:20.183094  7915 net.cpp:399] inception_5a/output_inception_5a/output_0_split -> inception_5a/output_inception_5a/output_0_split_1
I0403 18:51:20.183112  7915 net.cpp:399] inception_5a/output_inception_5a/output_0_split -> inception_5a/output_inception_5a/output_0_split_2
I0403 18:51:20.183135  7915 net.cpp:399] inception_5a/output_inception_5a/output_0_split -> inception_5a/output_inception_5a/output_0_split_3
I0403 18:51:20.183240  7915 net.cpp:141] Setting up inception_5a/output_inception_5a/output_0_split
I0403 18:51:20.183264  7915 net.cpp:148] Top shape: 24 832 7 7 (978432)
I0403 18:51:20.183285  7915 net.cpp:148] Top shape: 24 832 7 7 (978432)
I0403 18:51:20.183300  7915 net.cpp:148] Top shape: 24 832 7 7 (978432)
I0403 18:51:20.183315  7915 net.cpp:148] Top shape: 24 832 7 7 (978432)
I0403 18:51:20.183328  7915 net.cpp:156] Memory required for data: 1325241888
I0403 18:51:20.183343  7915 layer_factory.hpp:77] Creating layer inception_5b/1x1
I0403 18:51:20.183365  7915 net.cpp:91] Creating Layer inception_5b/1x1
I0403 18:51:20.183382  7915 net.cpp:425] inception_5b/1x1 <- inception_5a/output_inception_5a/output_0_split_0
I0403 18:51:20.183401  7915 net.cpp:399] inception_5b/1x1 -> inception_5b/1x1
I0403 18:51:20.186978  7915 net.cpp:141] Setting up inception_5b/1x1
I0403 18:51:20.187006  7915 net.cpp:148] Top shape: 24 384 7 7 (451584)
I0403 18:51:20.187022  7915 net.cpp:156] Memory required for data: 1327048224
I0403 18:51:20.187041  7915 layer_factory.hpp:77] Creating layer inception_5b/relu_1x1
I0403 18:51:20.187060  7915 net.cpp:91] Creating Layer inception_5b/relu_1x1
I0403 18:51:20.187077  7915 net.cpp:425] inception_5b/relu_1x1 <- inception_5b/1x1
I0403 18:51:20.187093  7915 net.cpp:386] inception_5b/relu_1x1 -> inception_5b/1x1 (in-place)
I0403 18:51:20.187394  7915 net.cpp:141] Setting up inception_5b/relu_1x1
I0403 18:51:20.187420  7915 net.cpp:148] Top shape: 24 384 7 7 (451584)
I0403 18:51:20.187434  7915 net.cpp:156] Memory required for data: 1328854560
I0403 18:51:20.187449  7915 layer_factory.hpp:77] Creating layer inception_5b/3x3_reduce
I0403 18:51:20.187471  7915 net.cpp:91] Creating Layer inception_5b/3x3_reduce
I0403 18:51:20.187489  7915 net.cpp:425] inception_5b/3x3_reduce <- inception_5a/output_inception_5a/output_0_split_1
I0403 18:51:20.187510  7915 net.cpp:399] inception_5b/3x3_reduce -> inception_5b/3x3_reduce
I0403 18:51:20.190076  7915 net.cpp:141] Setting up inception_5b/3x3_reduce
I0403 18:51:20.190105  7915 net.cpp:148] Top shape: 24 192 7 7 (225792)
I0403 18:51:20.190120  7915 net.cpp:156] Memory required for data: 1329757728
I0403 18:51:20.190138  7915 layer_factory.hpp:77] Creating layer inception_5b/relu_3x3_reduce
I0403 18:51:20.190157  7915 net.cpp:91] Creating Layer inception_5b/relu_3x3_reduce
I0403 18:51:20.190173  7915 net.cpp:425] inception_5b/relu_3x3_reduce <- inception_5b/3x3_reduce
I0403 18:51:20.190191  7915 net.cpp:386] inception_5b/relu_3x3_reduce -> inception_5b/3x3_reduce (in-place)
I0403 18:51:20.190381  7915 net.cpp:141] Setting up inception_5b/relu_3x3_reduce
I0403 18:51:20.190404  7915 net.cpp:148] Top shape: 24 192 7 7 (225792)
I0403 18:51:20.190419  7915 net.cpp:156] Memory required for data: 1330660896
I0403 18:51:20.190433  7915 layer_factory.hpp:77] Creating layer inception_5b/3x3
I0403 18:51:20.190457  7915 net.cpp:91] Creating Layer inception_5b/3x3
I0403 18:51:20.190475  7915 net.cpp:425] inception_5b/3x3 <- inception_5b/3x3_reduce
I0403 18:51:20.190497  7915 net.cpp:399] inception_5b/3x3 -> inception_5b/3x3
I0403 18:51:20.196943  7915 net.cpp:141] Setting up inception_5b/3x3
I0403 18:51:20.196972  7915 net.cpp:148] Top shape: 24 384 7 7 (451584)
I0403 18:51:20.196990  7915 net.cpp:156] Memory required for data: 1332467232
I0403 18:51:20.197007  7915 layer_factory.hpp:77] Creating layer inception_5b/relu_3x3
I0403 18:51:20.197026  7915 net.cpp:91] Creating Layer inception_5b/relu_3x3
I0403 18:51:20.197041  7915 net.cpp:425] inception_5b/relu_3x3 <- inception_5b/3x3
I0403 18:51:20.197060  7915 net.cpp:386] inception_5b/relu_3x3 -> inception_5b/3x3 (in-place)
I0403 18:51:20.197351  7915 net.cpp:141] Setting up inception_5b/relu_3x3
I0403 18:51:20.197379  7915 net.cpp:148] Top shape: 24 384 7 7 (451584)
I0403 18:51:20.197394  7915 net.cpp:156] Memory required for data: 1334273568
I0403 18:51:20.197409  7915 layer_factory.hpp:77] Creating layer inception_5b/5x5_reduce
I0403 18:51:20.197448  7915 net.cpp:91] Creating Layer inception_5b/5x5_reduce
I0403 18:51:20.197468  7915 net.cpp:425] inception_5b/5x5_reduce <- inception_5a/output_inception_5a/output_0_split_2
I0403 18:51:20.197487  7915 net.cpp:399] inception_5b/5x5_reduce -> inception_5b/5x5_reduce
I0403 18:51:20.198704  7915 net.cpp:141] Setting up inception_5b/5x5_reduce
I0403 18:51:20.198732  7915 net.cpp:148] Top shape: 24 48 7 7 (56448)
I0403 18:51:20.198750  7915 net.cpp:156] Memory required for data: 1334499360
I0403 18:51:20.198767  7915 layer_factory.hpp:77] Creating layer inception_5b/relu_5x5_reduce
I0403 18:51:20.198784  7915 net.cpp:91] Creating Layer inception_5b/relu_5x5_reduce
I0403 18:51:20.198801  7915 net.cpp:425] inception_5b/relu_5x5_reduce <- inception_5b/5x5_reduce
I0403 18:51:20.198818  7915 net.cpp:386] inception_5b/relu_5x5_reduce -> inception_5b/5x5_reduce (in-place)
I0403 18:51:20.199182  7915 net.cpp:141] Setting up inception_5b/relu_5x5_reduce
I0403 18:51:20.199208  7915 net.cpp:148] Top shape: 24 48 7 7 (56448)
I0403 18:51:20.199223  7915 net.cpp:156] Memory required for data: 1334725152
I0403 18:51:20.199239  7915 layer_factory.hpp:77] Creating layer inception_5b/5x5
I0403 18:51:20.199259  7915 net.cpp:91] Creating Layer inception_5b/5x5
I0403 18:51:20.199280  7915 net.cpp:425] inception_5b/5x5 <- inception_5b/5x5_reduce
I0403 18:51:20.199301  7915 net.cpp:399] inception_5b/5x5 -> inception_5b/5x5
I0403 18:51:20.201380  7915 net.cpp:141] Setting up inception_5b/5x5
I0403 18:51:20.201411  7915 net.cpp:148] Top shape: 24 128 7 7 (150528)
I0403 18:51:20.201428  7915 net.cpp:156] Memory required for data: 1335327264
I0403 18:51:20.201447  7915 layer_factory.hpp:77] Creating layer inception_5b/relu_5x5
I0403 18:51:20.201478  7915 net.cpp:91] Creating Layer inception_5b/relu_5x5
I0403 18:51:20.201494  7915 net.cpp:425] inception_5b/relu_5x5 <- inception_5b/5x5
I0403 18:51:20.201514  7915 net.cpp:386] inception_5b/relu_5x5 -> inception_5b/5x5 (in-place)
I0403 18:51:20.201700  7915 net.cpp:141] Setting up inception_5b/relu_5x5
I0403 18:51:20.201725  7915 net.cpp:148] Top shape: 24 128 7 7 (150528)
I0403 18:51:20.201740  7915 net.cpp:156] Memory required for data: 1335929376
I0403 18:51:20.201755  7915 layer_factory.hpp:77] Creating layer inception_5b/pool
I0403 18:51:20.201771  7915 net.cpp:91] Creating Layer inception_5b/pool
I0403 18:51:20.201787  7915 net.cpp:425] inception_5b/pool <- inception_5a/output_inception_5a/output_0_split_3
I0403 18:51:20.201807  7915 net.cpp:399] inception_5b/pool -> inception_5b/pool
I0403 18:51:20.201879  7915 net.cpp:141] Setting up inception_5b/pool
I0403 18:51:20.201903  7915 net.cpp:148] Top shape: 24 832 7 7 (978432)
I0403 18:51:20.201917  7915 net.cpp:156] Memory required for data: 1339843104
I0403 18:51:20.201931  7915 layer_factory.hpp:77] Creating layer inception_5b/pool_proj
I0403 18:51:20.201952  7915 net.cpp:91] Creating Layer inception_5b/pool_proj
I0403 18:51:20.201969  7915 net.cpp:425] inception_5b/pool_proj <- inception_5b/pool
I0403 18:51:20.201989  7915 net.cpp:399] inception_5b/pool_proj -> inception_5b/pool_proj
I0403 18:51:20.204219  7915 net.cpp:141] Setting up inception_5b/pool_proj
I0403 18:51:20.204251  7915 net.cpp:148] Top shape: 24 128 7 7 (150528)
I0403 18:51:20.204267  7915 net.cpp:156] Memory required for data: 1340445216
I0403 18:51:20.204290  7915 layer_factory.hpp:77] Creating layer inception_5b/relu_pool_proj
I0403 18:51:20.204310  7915 net.cpp:91] Creating Layer inception_5b/relu_pool_proj
I0403 18:51:20.204326  7915 net.cpp:425] inception_5b/relu_pool_proj <- inception_5b/pool_proj
I0403 18:51:20.204342  7915 net.cpp:386] inception_5b/relu_pool_proj -> inception_5b/pool_proj (in-place)
I0403 18:51:20.204629  7915 net.cpp:141] Setting up inception_5b/relu_pool_proj
I0403 18:51:20.204658  7915 net.cpp:148] Top shape: 24 128 7 7 (150528)
I0403 18:51:20.204674  7915 net.cpp:156] Memory required for data: 1341047328
I0403 18:51:20.204687  7915 layer_factory.hpp:77] Creating layer inception_5b/output
I0403 18:51:20.204704  7915 net.cpp:91] Creating Layer inception_5b/output
I0403 18:51:20.204733  7915 net.cpp:425] inception_5b/output <- inception_5b/1x1
I0403 18:51:20.204751  7915 net.cpp:425] inception_5b/output <- inception_5b/3x3
I0403 18:51:20.204767  7915 net.cpp:425] inception_5b/output <- inception_5b/5x5
I0403 18:51:20.204782  7915 net.cpp:425] inception_5b/output <- inception_5b/pool_proj
I0403 18:51:20.204799  7915 net.cpp:399] inception_5b/output -> inception_5b/output
I0403 18:51:20.204851  7915 net.cpp:141] Setting up inception_5b/output
I0403 18:51:20.204874  7915 net.cpp:148] Top shape: 24 1024 7 7 (1204224)
I0403 18:51:20.204888  7915 net.cpp:156] Memory required for data: 1345864224
I0403 18:51:20.204902  7915 layer_factory.hpp:77] Creating layer pool5/7x7_s1
I0403 18:51:20.204922  7915 net.cpp:91] Creating Layer pool5/7x7_s1
I0403 18:51:20.204939  7915 net.cpp:425] pool5/7x7_s1 <- inception_5b/output
I0403 18:51:20.204957  7915 net.cpp:399] pool5/7x7_s1 -> pool5/7x7_s1
I0403 18:51:20.205168  7915 net.cpp:141] Setting up pool5/7x7_s1
I0403 18:51:20.205191  7915 net.cpp:148] Top shape: 24 1024 1 1 (24576)
I0403 18:51:20.205206  7915 net.cpp:156] Memory required for data: 1345962528
I0403 18:51:20.205220  7915 layer_factory.hpp:77] Creating layer pool5/drop_7x7_s1
I0403 18:51:20.205238  7915 net.cpp:91] Creating Layer pool5/drop_7x7_s1
I0403 18:51:20.205255  7915 net.cpp:425] pool5/drop_7x7_s1 <- pool5/7x7_s1
I0403 18:51:20.205278  7915 net.cpp:386] pool5/drop_7x7_s1 -> pool5/7x7_s1 (in-place)
I0403 18:51:20.205328  7915 net.cpp:141] Setting up pool5/drop_7x7_s1
I0403 18:51:20.205350  7915 net.cpp:148] Top shape: 24 1024 1 1 (24576)
I0403 18:51:20.205365  7915 net.cpp:156] Memory required for data: 1346060832
I0403 18:51:20.205380  7915 layer_factory.hpp:77] Creating layer loss3/classifier_plantvillage
I0403 18:51:20.205401  7915 net.cpp:91] Creating Layer loss3/classifier_plantvillage
I0403 18:51:20.205418  7915 net.cpp:425] loss3/classifier_plantvillage <- pool5/7x7_s1
I0403 18:51:20.205441  7915 net.cpp:399] loss3/classifier_plantvillage -> loss3/classifier_plantvillage
I0403 18:51:20.205847  7915 net.cpp:141] Setting up loss3/classifier_plantvillage
I0403 18:51:20.205873  7915 net.cpp:148] Top shape: 24 38 (912)
I0403 18:51:20.205888  7915 net.cpp:156] Memory required for data: 1346064480
I0403 18:51:20.205904  7915 layer_factory.hpp:77] Creating layer loss3/classifier_plantvillage_loss3/classifier_plantvillage_0_split
I0403 18:51:20.205924  7915 net.cpp:91] Creating Layer loss3/classifier_plantvillage_loss3/classifier_plantvillage_0_split
I0403 18:51:20.205940  7915 net.cpp:425] loss3/classifier_plantvillage_loss3/classifier_plantvillage_0_split <- loss3/classifier_plantvillage
I0403 18:51:20.205960  7915 net.cpp:399] loss3/classifier_plantvillage_loss3/classifier_plantvillage_0_split -> loss3/classifier_plantvillage_loss3/classifier_plantvillage_0_split_0
I0403 18:51:20.205982  7915 net.cpp:399] loss3/classifier_plantvillage_loss3/classifier_plantvillage_0_split -> loss3/classifier_plantvillage_loss3/classifier_plantvillage_0_split_1
I0403 18:51:20.206001  7915 net.cpp:399] loss3/classifier_plantvillage_loss3/classifier_plantvillage_0_split -> loss3/classifier_plantvillage_loss3/classifier_plantvillage_0_split_2
I0403 18:51:20.206027  7915 net.cpp:399] loss3/classifier_plantvillage_loss3/classifier_plantvillage_0_split -> loss3/classifier_plantvillage_loss3/classifier_plantvillage_0_split_3
I0403 18:51:20.206125  7915 net.cpp:141] Setting up loss3/classifier_plantvillage_loss3/classifier_plantvillage_0_split
I0403 18:51:20.206147  7915 net.cpp:148] Top shape: 24 38 (912)
I0403 18:51:20.206162  7915 net.cpp:148] Top shape: 24 38 (912)
I0403 18:51:20.206179  7915 net.cpp:148] Top shape: 24 38 (912)
I0403 18:51:20.206193  7915 net.cpp:148] Top shape: 24 38 (912)
I0403 18:51:20.206207  7915 net.cpp:156] Memory required for data: 1346079072
I0403 18:51:20.206221  7915 layer_factory.hpp:77] Creating layer loss1/loss
I0403 18:51:20.206243  7915 net.cpp:91] Creating Layer loss1/loss
I0403 18:51:20.206259  7915 net.cpp:425] loss1/loss <- loss1/classifier_plantvillage_loss1/classifier_plantvillage_0_split_0
I0403 18:51:20.206295  7915 net.cpp:425] loss1/loss <- label_data_1_split_0
…
