…
I0403 18:43:09.166169  7293 net.cpp:313] The NetState phase (1) differed from the phase (0) specified by a rule in layer data
I0403 18:43:09.167366  7293 net.cpp:49] Initializing net from parameters: 
state {
  phase: TEST
}
layer {
  name: "data"
  type: "Data"
  top: "data"
  top: "label"
  include {
    phase: TEST
  }
  transform_param {
    mirror: false
    crop_size: 224
    mean_file: "/home/mohanty/data/final_dataset/lmdb/grayscale-40-60/mean.binaryproto"
  }
  data_param {
    source: "/home/mohanty/data/final_dataset/lmdb/grayscale-40-60/test_db"
    batch_size: 24
    backend: LMDB
  }
}
layer {
  name: "conv1/7x7_s2"
  type: "Convolution"
  bottom: "data"
  top: "conv1/7x7_s2"
  param {
    lr_mult: 1
    decay_mult: 1
  }
  param {
    lr_mult: 2
    decay_mult: 0
  }
  convolution_param {
    num_output: 64
    pad: 3
    kernel_size: 7
    stride: 2
    weight_filler {
      type: "xavier"
      std: 0.1
    }
    bias_filler {
      type: "constant"
      value: 0.2
    }
  }
}
layer {
  name: "conv1/relu_7x7"
  type: "ReLU"
  bottom: "conv1/7x7_s2"
  top: "conv1/7x7_s2"
}
layer {
  name: "pool1/3x3_s2"
  type: "Pooling"
  bottom: "conv1/7x7_s2"
  top: "pool1/3x3_s2"
  pooling_param {
    pool: MAX
    kernel_size: 3
    stride: 2
  }
}
layer {
  name: "pool1/norm1"
  type: "LRN"
  bottom: "pool1/3x3_s2"
  top: "pool1/norm1"
  lrn_param {
    local_size: 5
    alpha: 0.0001
    beta: 0.75
  }
}
layer {
  name: "conv2/3x3_reduce"
  type: "Convolution"
  bottom: "pool1/norm1"
  top: "conv2/3x3_reduce"
  param {
    lr_mult: 1
    decay_mult: 1
  }
  param {
    lr_mult: 2
    decay_mult: 0
  }
  convolution_param {
    num_output: 64
    kernel_size: 1
    weight_filler {
      type: "xavier"
      std: 0.1
    }
    bias_filler {
      type: "constant"
      value: 0.2
    }
  }
}
layer {
  name: "conv2/relu_3x3_reduce"
  type: "ReLU"
  bottom: "conv2/3x3_reduce"
  top: "conv2/3x3_reduce"
}
layer {
  name: "conv2/3x3"
  type: "Convolution"
  bottom: "conv2/3x3_reduce"
  top: "conv2/3x3"
  param {
    lr_mult: 1
    decay_mult: 1
  }
  param {
    lr_mult: 2
    decay_mult: 0
  }
  convolution_param {
    num_output: 192
    pad: 1
    kernel_size: 3
    weight_filler {
      type: "xavier"
      std: 0.03
    }
    bias_filler {
      type: "constant"
      value: 0.2
    }
  }
}
layer {
  name: "conv2/relu_3x3"
  type: "ReLU"
  bottom: "conv2/3x3"
  top: "conv2/3x3"
}
layer {
  name: "conv2/norm2"
  type: "LRN"
  bottom: "conv2/3x3"
  top: "conv2/norm2"
  lrn_param {
    local_size: 5
    alpha: 0.0001
    beta: 0.75
  }
}
layer {
  name: "pool2/3x3_s2"
  type: "Pooling"
  bottom: "conv2/norm2"
  top: "pool2/3x3_s2"
  pooling_param {
    pool: MAX
    kernel_size: 3
    stride: 2
  }
}
layer {
  name: "inception_3a/1x1"
  type: "Convolution"
  bottom: "pool2/3x3_s2"
  top: "inception_3a/1x1"
  param {
    lr_mult: 1
    decay_mult: 1
  }
  param {
    lr_mult: 2
    decay_mult: 0
  }
  convolution_param {
    num_output: 64
    kernel_size: 1
    weight_filler {
      type: "xavier"
      std: 0.03
    }
    bias_filler {
      type: "constant"
      value: 0.2
    }
  }
}
layer {
  name: "inception_3a/relu_1x1"
  type: "ReLU"
  bottom: "inception_3a/1x1"
  top: "inception_3a/1x1"
}
layer {
  name: "inception_3a/3x3_reduce"
  type: "Convolution"
  bottom: "pool2/3x3_s2"
  top: "inception_3a/3x3_reduce"
  param {
    lr_mult: 1
    decay_mult: 1
  }
  param {
    lr_mult: 2
    decay_mult: 0
  }
  convolution_param {
    num_output: 96
    kernel_size: 1
    weight_filler {
      type: "xavier"
      std: 0.09
    }
    bias_filler {
      type: "constant"
      value: 0.2
    }
  }
}
layer {
  name: "inception_3a/relu_3x3_reduce"
  type: "ReLU"
  bottom: "inception_3a/3x3_reduce"
  top: "inception_3a/3x3_reduce"
}
layer {
  name: "inception_3a/3x3"
  type: "Convolution"
  bottom: "inception_3a/3x3_reduce"
  top: "inception_3a/3x3"
  param {
    lr_mult: 1
    decay_mult: 1
  }
  param {
    lr_mult: 2
    decay_mult: 0
  }
  convolution_param {
    num_output: 128
    pad: 1
    kernel_size: 3
    weight_filler {
      type: "xavier"
      std: 0.03
    }
    bias_filler {
      type: "constant"
      value: 0.2
    }
  }
}
layer {
  name: "inception_3a/relu_3x3"
  type: "ReLU"
  bottom: "inception_3a/3x3"
  top: "inception_3a/3x3"
}
layer {
  name: "inception_3a/5x5_reduce"
  type: "Convolution"
  bottom: "pool2/3x3_s2"
  top: "inception_3a/5x5_reduce"
  param {
    lr_mult: 1
    decay_mult: 1
  }
  param {
    lr_mult: 2
    decay_mult: 0
  }
  convolution_param {
    num_output: 16
    kernel_size: 1
    weight_filler {
      type: "xavier"
      std: 0.2
    }
    bias_filler {
      type: "constant"
      value: 0.2
    }
  }
}
layer {
  name: "inception_3a/relu_5x5_reduce"
  type: "ReLU"
  bottom: "inception_3a/5x5_reduce"
  top: "inception_3a/5x5_reduce"
}
layer {
  name: "inception_3a/5x5"
  type: "Convolution"
  bottom: "inception_3a/5x5_reduce"
  top: "inception_3a/5x5"
  param {
    lr_mult: 1
    decay_mult: 1
  }
  param {
    lr_mult: 2
    decay_mult: 0
  }
  convolution_param {
    num_output: 32
    pad: 2
    kernel_size: 5
    weight_filler {
      type: "xavier"
      std: 0.03
    }
    bias_filler {
      type: "constant"
      value: 0.2
    }
  }
}
layer {
  name: "inception_3a/relu_5x5"
  type: "ReLU"
  bottom: "inception_3a/5x5"
  top: "inception_3a/5x5"
}
layer {
  name: "inception_3a/pool"
  type: "Pooling"
  bottom: "pool2/3x3_s2"
  top: "inception_3a/pool"
  pooling_param {
    pool: MAX
    kernel_size: 3
    stride: 1
    pad: 1
  }
}
layer {
  name: "inception_3a/pool_proj"
  type: "Convolution"
  bottom: "inception_3a/pool"
  top: "inception_3a/pool_proj"
  param {
    lr_mult: 1
    decay_mult: 1
  }
  param {
    lr_mult: 2
    decay_mult: 0
  }
  convolution_param {
    num_output: 32
    kernel_size: 1
    weight_filler {
      type: "xavier"
      std: 0.1
    }
    bias_filler {
      type: "constant"
      value: 0.2
    }
  }
}
layer {
  name: "inception_3a/relu_pool_proj"
  type: "ReLU"
  bottom: "inception_3a/pool_proj"
  top: "inception_3a/pool_proj"
}
layer {
  name: "inception_3a/output"
  type: "Concat"
  bottom: "inception_3a/1x1"
  bottom: "inception_3a/3x3"
  bottom: "inception_3a/5x5"
  bottom: "inception_3a/pool_proj"
  top: "inception_3a/output"
}
layer {
  name: "inception_3b/1x1"
  type: "Convolution"
  bottom: "inception_3a/output"
  top: "inception_3b/1x1"
  param {
    lr_mult: 1
    decay_mult: 1
  }
  param {
    lr_mult: 2
    decay_mult: 0
  }
  convolution_param {
    num_output: 128
    kernel_size: 1
    weight_filler {
      type: "xavier"
      std: 0.03
    }
    bias_filler {
      type: "constant"
      value: 0.2
    }
  }
}
layer {
  name: "inception_3b/relu_1x1"
  type: "ReLU"
  bottom: "inception_3b/1x1"
  top: "inception_3b/1x1"
}
layer {
  name: "inception_3b/3x3_reduce"
  type: "Convolution"
  bottom: "inception_3a/output"
  top: "inception_3b/3x3_reduce"
  param {
    lr_mult: 1
    decay_mult: 1
  }
  param {
    lr_mult: 2
    decay_mult: 0
  }
  convolution_param {
    num_output: 128
    kernel_size: 1
    weight_filler {
      type: "xavier"
      std: 0.09
    }
    bias_filler {
      type: "constant"
      value: 0.2
    }
  }
}
layer {
  name: "inception_3b/relu_3x3_reduce"
  type: "ReLU"
  bottom: "inception_3b/3x3_reduce"
  top: "inception_3b/3x3_reduce"
}
layer {
  name: "inception_3b/3x3"
  type: "Convolution"
  bottom: "inception_3b/3x3_reduce"
  top: "inception_3b/3x3"
  param {
    lr_mult: 1
    decay_mult: 1
  }
  param {
    lr_mult: 2
    decay_mult: 0
  }
  convolution_param {
    num_output: 192
    pad: 1
    kernel_size: 3
    weight_filler {
      type: "xavier"
      std: 0.03
    }
    bias_filler {
      type: "constant"
      value: 0.2
    }
  }
}
layer {
  name: "inception_3b/relu_3x3"
  type: "ReLU"
  bottom: "inception_3b/3x3"
  top: "inception_3b/3x3"
}
layer {
  name: "inception_3b/5x5_reduce"
  type: "Convolution"
  bottom: "inception_3a/output"
  top: "inception_3b/5x5_reduce"
  param {
    lr_mult: 1
    decay_mult: 1
  }
  param {
    lr_mult: 2
    decay_mult: 0
  }
  convolution_param {
    num_output: 32
    kernel_size: 1
    weight_filler {
      type: "xavier"
      std: 0.2
    }
    bias_filler {
      type: "constant"
      value: 0.2
    }
  }
}
layer {
  name: "inception_3b/relu_5x5_reduce"
  type: "ReLU"
  bottom: "inception_3b/5x5_reduce"
  top: "inception_3b/5x5_reduce"
}
layer {
  name: "inception_3b/5x5"
  type: "Convolution"
  bottom: "inception_3b/5x5_reduce"
  top: "inception_3b/5x5"
  param {
    lr_mult: 1
    decay_mult: 1
  }
  param {
    lr_mult: 2
    decay_mult: 0
  }
  convolution_param {
    num_output: 96
    pad: 2
    kernel_size: 5
    weight_filler {
      type: "xavier"
      std: 0.03
    }
    bias_filler {
      type: "constant"
      value: 0.2
    }
  }
}
layer {
  name: "inception_3b/relu_5x5"
  type: "ReLU"
  bottom: "inception_3b/5x5"
  top: "inception_3b/5x5"
}
layer {
  name: "inception_3b/pool"
  type: "Pooling"
  bottom: "inception_3a/output"
  top: "inception_3b/pool"
  pooling_param {
    pool: MAX
    kernel_size: 3
    stride: 1
    pad: 1
  }
}
layer {
  name: "inception_3b/pool_proj"
  type: "Convolution"
  bottom: "inception_3b/pool"
  top: "inception_3b/pool_proj"
  param {
    lr_mult: 1
    decay_mult: 1
  }
  param {
    lr_mult: 2
    decay_mult: 0
  }
  convolution_param {
    num_output: 64
    kernel_size: 1
    weight_filler {
      type: "xavier"
      std: 0.1
    }
    bias_filler {
      type: "constant"
      value: 0.2
    }
  }
}
layer {
  name: "inception_3b/relu_pool_proj"
  type: "ReLU"
  bottom: "inception_3b/pool_proj"
  top: "inception_3b/pool_proj"
}
layer {
  name: "inception_3b/output"
  type: "Concat"
  bottom: "inception_3b/1x1"
  bottom: "inception_3b/3x3"
  bottom: "inception_3b/5x5"
  bottom: "inception_3b/pool_proj"
  top: "inception_3b/output"
}
layer {
  name: "pool3/3x3_s2"
  type: "Pooling"
  bottom: "inception_3b/output"
  top: "pool3/3x3_s2"
  pooling_param {
    pool: MAX
    kernel_size: 3
    stride: 2
  }
}
layer {
  name: "inception_4a/1x1"
  type: "Convolution"
  bottom: "pool3/3x3_s2"
  top: "inception_4a/1x1"
  param {
    lr_mult: 1
    decay_mult: 1
  }
  param {
    lr_mult: 2
    decay_mult: 0
  }
  convolution_param {
    num_output: 192
    kernel_size: 1
    weight_filler {
      type: "xavier"
      std: 0.03
    }
    bias_filler {
      type: "constant"
      value: 0.2
    }
  }
}
layer {
  name: "inception_4a/relu_1x1"
  type: "ReLU"
  bottom: "inception_4a/1x1"
  top: "inception_4a/1x1"
}
layer {
  name: "inception_4a/3x3_reduce"
  type: "Convolution"
  bottom: "pool3/3x3_s2"
  top: "inception_4a/3x3_reduce"
  param {
    lr_mult: 1
    decay_mult: 1
  }
  param {
    lr_mult: 2
    decay_mult: 0
  }
  convolution_param {
    num_output: 96
    kernel_size: 1
    weight_filler {
      type: "xavier"
      std: 0.09
    }
    bias_filler {
      type: "constant"
      value: 0.2
    }
  }
}
layer {
  name: "inception_4a/relu_3x3_reduce"
  type: "ReLU"
  bottom: "inception_4a/3x3_reduce"
  top: "inception_4a/3x3_reduce"
}
layer {
  name: "inception_4a/3x3"
  type: "Convolution"
  bottom: "inception_4a/3x3_reduce"
  top: "inception_4a/3x3"
  param {
    lr_mult: 1
    decay_mult: 1
  }
  param {
    lr_mult: 2
    decay_mult: 0
  }
  convolution_param {
    num_output: 208
    pad: 1
    kernel_size: 3
    weight_filler {
      type: "xavier"
      std: 0.03
    }
    bias_filler {
      type: "constant"
      value: 0.2
    }
  }
}
layer {
  name: "inception_4a/relu_3x3"
  type: "ReLU"
  bottom: "inception_4a/3x3"
  top: "inception_4a/3x3"
}
layer {
  name: "inception_4a/5x5_reduce"
  type: "Convolution"
  bottom: "pool3/3x3_s2"
  top: "inception_4a/5x5_reduce"
  param {
    lr_mult: 1
    decay_mult: 1
  }
  param {
    lr_mult: 2
    decay_mult: 0
  }
  convolution_param {
    num_output: 16
    kernel_size: 1
    weight_filler {
      type: "xavier"
      std: 0.2
    }
    bias_filler {
      type: "constant"
      value: 0.2
    }
  }
}
layer {
  name: "inception_4a/relu_5x5_reduce"
  type: "ReLU"
  bottom: "inception_4a/5x5_reduce"
  top: "inception_4a/5x5_reduce"
}
layer {
  name: "inception_4a/5x5"
  type: "Convolution"
  bottom: "inception_4a/5x5_reduce"
  top: "inception_4a/5x5"
  param {
    lr_mult: 1
    decay_mult: 1
  }
  param {
    lr_mult: 2
    decay_mult: 0
  }
  convolution_param {
    num_output: 48
    pad: 2
    kernel_size: 5
    weight_filler {
      type: "xavier"
      std: 0.03
    }
    bias_filler {
      type: "constant"
      value: 0.2
    }
  }
}
layer {
  name: "inception_4a/relu_5x5"
  type: "ReLU"
  bottom: "inception_4a/5x5"
  top: "inception_4a/5x5"
}
layer {
  name: "inception_4a/pool"
  type: "Pooling"
  bottom: "pool3/3x3_s2"
  top: "inception_4a/pool"
  pooling_param {
    pool: MAX
    kernel_size: 3
    stride: 1
    pad: 1
  }
}
layer {
  name: "inception_4a/pool_proj"
  type: "Convolution"
  bottom: "inception_4a/pool"
  top: "inception_4a/pool_proj"
  param {
    lr_mult: 1
    decay_mult: 1
  }
  param {
    lr_mult: 2
    decay_mult: 0
  }
  convolution_param {
    num_output: 64
    kernel_size: 1
    weight_filler {
      type: "xavier"
      std: 0.1
    }
    bias_filler {
      type: "constant"
      value: 0.2
    }
  }
}
layer {
  name: "inception_4a/relu_pool_proj"
  type: "ReLU"
  bottom: "inception_4a/pool_proj"
  top: "inception_4a/pool_proj"
}
layer {
  name: "inception_4a/output"
  type: "Concat"
  bottom: "inception_4a/1x1"
  bottom: "inception_4a/3x3"
  bottom: "inception_4a/5x5"
  bottom: "inception_4a/pool_proj"
  top: "inception_4a/output"
}
layer {
  name: "loss1/ave_pool"
  type: "Pooling"
  bottom: "inception_4a/output"
  top: "loss1/ave_pool"
  pooling_param {
    pool: AVE
    kernel_size: 5
    stride: 3
  }
}
layer {
  name: "loss1/conv"
  type: "Convolution"
  bottom: "loss1/ave_pool"
  top: "loss1/conv"
  param {
    lr_mult: 1
    decay_mult: 1
  }
  param {
    lr_mult: 2
    decay_mult: 0
  }
  convolution_param {
    num_output: 128
    kernel_size: 1
    weight_filler {
      type: "xavier"
      std: 0.08
    }
    bias_filler {
      type: "constant"
      value: 0.2
    }
  }
}
layer {
  name: "loss1/relu_conv"
  type: "ReLU"
  bottom: "loss1/conv"
  top: "loss1/conv"
}
layer {
  name: "loss1/fc"
  type: "InnerProduct"
  bottom: "loss1/conv"
  top: "loss1/fc"
  param {
    lr_mult: 1
    decay_mult: 1
  }
  param {
    lr_mult: 2
    decay_mult: 0
  }
  inner_product_param {
    num_output: 1024
    weight_filler {
      type: "xavier"
      std: 0.02
    }
    bias_filler {
      type: "constant"
      value: 0.2
    }
  }
}
layer {
  name: "loss1/relu_fc"
  type: "ReLU"
  bottom: "loss1/fc"
  top: "loss1/fc"
}
layer {
  name: "loss1/drop_fc"
  type: "Dropout"
  bottom: "loss1/fc"
  top: "loss1/fc"
  dropout_param {
    dropout_ratio: 0.7
  }
}
layer {
  name: "loss1/classifier_plantvillage"
  type: "InnerProduct"
  bottom: "loss1/fc"
  top: "loss1/classifier_plantvillage"
  param {
    lr_mult: 1
    decay_mult: 1
  }
  param {
    lr_mult: 2
    decay_mult: 0
  }
  inner_product_param {
    num_output: 38
    weight_filler {
      type: "xavier"
      std: 0.0009765625
    }
    bias_filler {
      type: "constant"
      value: 0
    }
  }
}
layer {
  name: "inception_4b/1x1"
  type: "Convolution"
  bottom: "inception_4a/output"
  top: "inception_4b/1x1"
  param {
    lr_mult: 1
    decay_mult: 1
  }
  param {
    lr_mult: 2
    decay_mult: 0
  }
  convolution_param {
    num_output: 160
    kernel_size: 1
    weight_filler {
      type: "xavier"
      std: 0.03
    }
    bias_filler {
      type: "constant"
      value: 0.2
    }
  }
}
layer {
  name: "inception_4b/relu_1x1"
  type: "ReLU"
  bottom: "inception_4b/1x1"
  top: "inception_4b/1x1"
}
layer {
  name: "inception_4b/3x3_reduce"
  type: "Convolution"
  bottom: "inception_4a/output"
  top: "inception_4b/3x3_reduce"
  param {
    lr_mult: 1
    decay_mult: 1
  }
  param {
    lr_mult: 2
    decay_mult: 0
  }
  convolution_param {
    num_output: 112
    kernel_size: 1
    weight_filler {
      type: "xavier"
      std: 0.09
    }
    bias_filler {
      type: "constant"
      value: 0.2
    }
  }
}
layer {
  name: "inception_4b/relu_3x3_reduce"
  type: "ReLU"
  bottom: "inception_4b/3x3_reduce"
  top: "inception_4b/3x3_reduce"
}
layer {
  name: "inception_4b/3x3"
  type: "Convolution"
  bottom: "inception_4b/3x3_reduce"
  top: "inception_4b/3x3"
  param {
    lr_mult: 1
    decay_mult: 1
  }
  param {
    lr_mult: 2
    decay_mult: 0
  }
  convolution_param {
    num_output: 224
    pad: 1
    kernel_size: 3
    weight_filler {
      type: "xavier"
      std: 0.03
    }
    bias_filler {
      type: "constant"
      value: 0.2
    }
  }
}
layer {
  name: "inception_4b/relu_3x3"
  type: "ReLU"
  bottom: "inception_4b/3x3"
  top: "inception_4b/3x3"
}
layer {
  name: "inception_4b/5x5_reduce"
  type: "Convolution"
  bottom: "inception_4a/output"
  top: "inception_4b/5x5_reduce"
  param {
    lr_mult: 1
    decay_mult: 1
  }
  param {
    lr_mult: 2
    decay_mult: 0
  }
  convolution_param {
    num_output: 24
    kernel_size: 1
    weight_filler {
      type: "xavier"
      std: 0.2
    }
    bias_filler {
      type: "constant"
      value: 0.2
    }
  }
}
layer {
  name: "inception_4b/relu_5x5_reduce"
  type: "ReLU"
  bottom: "inception_4b/5x5_reduce"
  top: "inception_4b/5x5_reduce"
}
layer {
  name: "inception_4b/5x5"
  type: "Convolution"
  bottom: "inception_4b/5x5_reduce"
  top: "inception_4b/5x5"
  param {
    lr_mult: 1
    decay_mult: 1
  }
  param {
    lr_mult: 2
    decay_mult: 0
  }
  convolution_param {
    num_output: 64
    pad: 2
    kernel_size: 5
    weight_filler {
      type: "xavier"
      std: 0.03
    }
    bias_filler {
      type: "constant"
      value: 0.2
    }
  }
}
layer {
  name: "inception_4b/relu_5x5"
  type: "ReLU"
  bottom: "inception_4b/5x5"
  top: "inception_4b/5x5"
}
layer {
  name: "inception_4b/pool"
  type: "Pooling"
  bottom: "inception_4a/output"
  top: "inception_4b/pool"
  pooling_param {
    pool: MAX
    kernel_size: 3
    stride: 1
    pad: 1
  }
}
layer {
  name: "inception_4b/pool_proj"
  type: "Convolution"
  bottom: "inception_4b/pool"
  top: "inception_4b/pool_proj"
  param {
    lr_mult: 1
    decay_mult: 1
  }
  param {
    lr_mult: 2
    decay_mult: 0
  }
  convolution_param {
    num_output: 64
    kernel_size: 1
    weight_filler {
      type: "xavier"
      std: 0.1
    }
    bias_filler {
      type: "constant"
      value: 0.2
    }
  }
}
layer {
  name: "inception_4b/relu_pool_proj"
  type: "ReLU"
  bottom: "inception_4b/pool_proj"
  top: "inception_4b/pool_proj"
}
layer {
  name: "inception_4b/output"
  type: "Concat"
  bottom: "inception_4b/1x1"
  bottom: "inception_4b/3x3"
  bottom: "inception_4b/5x5"
  bottom: "inception_4b/pool_proj"
  top: "inception_4b/output"
}
layer {
  name: "inception_4c/1x1"
  type: "Convolution"
  bottom: "inception_4b/output"
  top: "inception_4c/1x1"
  param {
    lr_mult: 1
    decay_mult: 1
  }
  param {
    lr_mult: 2
    decay_mult: 0
  }
  convolution_param {
    num_output: 128
    kernel_size: 1
    weight_filler {
      type: "xavier"
      std: 0.03
    }
    bias_filler {
      type: "constant"
      value: 0.2
    }
  }
}
layer {
  name: "inception_4c/relu_1x1"
  type: "ReLU"
  bottom: "inception_4c/1x1"
  top: "inception_4c/1x1"
}
layer {
  name: "inception_4c/3x3_reduce"
  type: "Convolution"
  bottom: "inception_4b/output"
  top: "inception_4c/3x3_reduce"
  param {
    lr_mult: 1
    decay_mult: 1
  }
  param {
    lr_mult: 2
    decay_mult: 0
  }
  convolution_param {
    num_output: 128
    kernel_size: 1
    weight_filler {
      type: "xavier"
      std: 0.09
    }
    bias_filler {
      type: "constant"
      value: 0.2
    }
  }
}
layer {
  name: "inception_4c/relu_3x3_reduce"
  type: "ReLU"
  bottom: "inception_4c/3x3_reduce"
  top: "inception_4c/3x3_reduce"
}
layer {
  name: "inception_4c/3x3"
  type: "Convolution"
  bottom: "inception_4c/3x3_reduce"
  top: "inception_4c/3x3"
  param {
    lr_mult: 1
    decay_mult: 1
  }
  param {
    lr_mult: 2
    decay_mult: 0
  }
  convolution_param {
    num_output: 256
    pad: 1
    kernel_size: 3
    weight_filler {
      type: "xavier"
      std: 0.03
    }
    bias_filler {
      type: "constant"
      value: 0.2
    }
  }
}
layer {
  name: "inception_4c/relu_3x3"
  type: "ReLU"
  bottom: "inception_4c/3x3"
  top: "inception_4c/3x3"
}
layer {
  name: "inception_4c/5x5_reduce"
  type: "Convolution"
  bottom: "inception_4b/output"
  top: "inception_4c/5x5_reduce"
  param {
    lr_mult: 1
    decay_mult: 1
  }
  param {
    lr_mult: 2
    decay_mult: 0
  }
  convolution_param {
    num_output: 24
    kernel_size: 1
    weight_filler {
      type: "xavier"
      std: 0.2
    }
    bias_filler {
      type: "constant"
      value: 0.2
    }
  }
}
layer {
  name: "inception_4c/relu_5x5_reduce"
  type: "ReLU"
  bottom: "inception_4c/5x5_reduce"
  top: "inception_4c/5x5_reduce"
}
layer {
  name: "inception_4c/5x5"
  type: "Convolution"
  bottom: "inception_4c/5x5_reduce"
  top: "inception_4c/5x5"
  param {
    lr_mult: 1
    decay_mult: 1
  }
  param {
    lr_mult: 2
    decay_mult: 0
  }
  convolution_param {
    num_output: 64
    pad: 2
    kernel_size: 5
    weight_filler {
      type: "xavier"
      std: 0.03
    }
    bias_filler {
      type: "constant"
      value: 0.2
    }
  }
}
layer {
  name: "inception_4c/relu_5x5"
  type: "ReLU"
  bottom: "inception_4c/5x5"
  top: "inception_4c/5x5"
}
layer {
  name: "inception_4c/pool"
  type: "Pooling"
  bottom: "inception_4b/output"
  top: "inception_4c/pool"
  pooling_param {
    pool: MAX
    kernel_size: 3
    stride: 1
    pad: 1
  }
}
layer {
  name: "inception_4c/pool_proj"
  type: "Convolution"
  bottom: "inception_4c/pool"
  top: "inception_4c/pool_proj"
  param {
    lr_mult: 1
    decay_mult: 1
  }
  param {
    lr_mult: 2
    decay_mult: 0
  }
  convolution_param {
    num_output: 64
    kernel_size: 1
    weight_filler {
      type: "xavier"
      std: 0.1
    }
    bias_filler {
      type: "constant"
      value: 0.2
    }
  }
}
layer {
  name: "inception_4c/relu_pool_proj"
  type: "ReLU"
  bottom: "inception_4c/pool_proj"
  top: "inception_4c/pool_proj"
}
layer {
  name: "inception_4c/output"
  type: "Concat"
  bottom: "inception_4c/1x1"
  bottom: "inception_4c/3x3"
  bottom: "inception_4c/5x5"
  bottom: "inception_4c/pool_proj"
  top: "inception_4c/output"
}
layer {
  name: "inception_4d/1x1"
  type: "Convolution"
  bottom: "inception_4c/output"
  top: "inception_4d/1x1"
  param {
    lr_mult: 1
    decay_mult: 1
  }
  param {
    lr_mult: 2
    decay_mult: 0
  }
  convolution_param {
    num_output: 112
    kernel_size: 1
    weight_filler {
      type: "xavier"
      std: 0.03
    }
    bias_filler {
      type: "constant"
      value: 0.2
    }
  }
}
layer {
  name: "inception_4d/relu_1x1"
  type: "ReLU"
  bottom: "inception_4d/1x1"
  top: "inception_4d/1x1"
}
layer {
  name: "inception_4d/3x3_reduce"
  type: "Convolution"
  bottom: "inception_4c/output"
  top: "inception_4d/3x3_reduce"
  param {
    lr_mult: 1
    decay_mult: 1
  }
  param {
    lr_mult: 2
    decay_mult: 0
  }
  convolution_param {
    num_output: 144
    kernel_size: 1
    weight_filler {
      type: "xavier"
      std: 0.09
    }
    bias_filler {
      type: "constant"
      value: 0.2
    }
  }
}
layer {
  name: "inception_4d/relu_3x3_reduce"
  type: "ReLU"
  bottom: "inception_4d/3x3_reduce"
  top: "inception_4d/3x3_reduce"
}
layer {
  name: "inception_4d/3x3"
  type: "Convolution"
  bottom: "inception_4d/3x3_reduce"
  top: "inception_4d/3x3"
  param {
    lr_mult: 1
    decay_mult: 1
  }
  param {
    lr_mult: 2
    decay_mult: 0
  }
  convolution_param {
    num_output: 288
    pad: 1
    kernel_size: 3
    weight_filler {
      type: "xavier"
      std: 0.03
    }
    bias_filler {
      type: "constant"
      value: 0.2
    }
  }
}
layer {
  name: "inception_4d/relu_3x3"
  type: "ReLU"
  bottom: "inception_4d/3x3"
  top: "inception_4d/3x3"
}
layer {
  name: "inception_4d/5x5_reduce"
  type: "Convolution"
  bottom: "inception_4c/output"
  top: "inception_4d/5x5_reduce"
  param {
    lr_mult: 1
    decay_mult: 1
  }
  param {
    lr_mult: 2
    decay_mult: 0
  }
  convolution_param {
    num_output: 32
    kernel_size: 1
    weight_filler {
      type: "xavier"
      std: 0.2
    }
    bias_filler {
      type: "constant"
      value: 0.2
    }
  }
}
layer {
  name: "inception_4d/relu_5x5_reduce"
  type: "ReLU"
  bottom: "inception_4d/5x5_reduce"
  top: "inception_4d/5x5_reduce"
}
layer {
  name: "inception_4d/5x5"
  type: "Convolution"
  bottom: "inception_4d/5x5_reduce"
  top: "inception_4d/5x5"
  param {
    lr_mult: 1
    decay_mult: 1
  }
  param {
    lr_mult: 2
    decay_mult: 0
  }
  convolution_param {
    num_output: 64
    pad: 2
    kernel_size: 5
    weight_filler {
      type: "xavier"
      std: 0.03
    }
    bias_filler {
      type: "constant"
      value: 0.2
    }
  }
}
layer {
  name: "inception_4d/relu_5x5"
  type: "ReLU"
  bottom: "inception_4d/5x5"
  top: "inception_4d/5x5"
}
layer {
  name: "inception_4d/pool"
  type: "Pooling"
  bottom: "inception_4c/output"
  top: "inception_4d/pool"
  pooling_param {
    pool: MAX
    kernel_size: 3
    stride: 1
    pad: 1
  }
}
layer {
  name: "inception_4d/pool_proj"
  type: "Convolution"
  bottom: "inception_4d/pool"
  top: "inception_4d/pool_proj"
  param {
    lr_mult: 1
    decay_mult: 1
  }
  param {
    lr_mult: 2
    decay_mult: 0
  }
  convolution_param {
    num_output: 64
    kernel_size: 1
    weight_filler {
      type: "xavier"
      std: 0.1
    }
    bias_filler {
      type: "constant"
      value: 0.2
    }
  }
}
layer {
  name: "inception_4d/relu_pool_proj"
  type: "ReLU"
  bottom: "inception_4d/pool_proj"
  top: "inception_4d/pool_proj"
}
layer {
  name: "inception_4d/output"
  type: "Concat"
  bottom: "inception_4d/1x1"
  bottom: "inception_4d/3x3"
  bottom: "inception_4d/5x5"
  bottom: "inception_4d/pool_proj"
  top: "inception_4d/output"
}
layer {
  name: "loss2/ave_pool"
  type: "Pooling"
  bottom: "inception_4d/output"
  top: "loss2/ave_pool"
  pooling_param {
    pool: AVE
    kernel_size: 5
    stride: 3
  }
}
layer {
  name: "loss2/conv"
  type: "Convolution"
  bottom: "loss2/ave_pool"
  top: "loss2/conv"
  param {
    lr_mult: 1
    decay_mult: 1
  }
  param {
    lr_mult: 2
    decay_mult: 0
  }
  convolution_param {
    num_output: 128
    kernel_size: 1
    weight_filler {
      type: "xavier"
      std: 0.08
    }
    bias_filler {
      type: "constant"
      value: 0.2
    }
  }
}
layer {
  name: "loss2/relu_conv"
  type: "ReLU"
  bottom: "loss2/conv"
  top: "loss2/conv"
}
layer {
  name: "loss2/fc"
  type: "InnerProduct"
  bottom: "loss2/conv"
  top: "loss2/fc"
  param {
    lr_mult: 1
    decay_mult: 1
  }
  param {
    lr_mult: 2
    decay_mult: 0
  }
  inner_product_param {
    num_output: 1024
    weight_filler {
      type: "xavier"
      std: 0.02
    }
    bias_filler {
      type: "constant"
      value: 0.2
    }
  }
}
layer {
  name: "loss2/relu_fc"
  type: "ReLU"
  bottom: "loss2/fc"
  top: "loss2/fc"
}
layer {
  name: "loss2/drop_fc"
  type: "Dropout"
  bottom: "loss2/fc"
  top: "loss2/fc"
  dropout_param {
    dropout_ratio: 0.7
  }
}
layer {
  name: "loss2/classifier_plantvillage"
  type: "InnerProduct"
  bottom: "loss2/fc"
  top: "loss2/classifier_plantvillage"
  param {
    lr_mult: 1
    decay_mult: 1
  }
  param {
    lr_mult: 2
    decay_mult: 0
  }
  inner_product_param {
    num_output: 38
    weight_filler {
      type: "xavier"
      std: 0.0009765625
    }
    bias_filler {
      type: "constant"
      value: 0
    }
  }
}
layer {
  name: "inception_4e/1x1"
  type: "Convolution"
  bottom: "inception_4d/output"
  top: "inception_4e/1x1"
  param {
    lr_mult: 1
    decay_mult: 1
  }
  param {
    lr_mult: 2
    decay_mult: 0
  }
  convolution_param {
    num_output: 256
    kernel_size: 1
    weight_filler {
      type: "xavier"
      std: 0.03
    }
    bias_filler {
      type: "constant"
      value: 0.2
    }
  }
}
layer {
  name: "inception_4e/relu_1x1"
  type: "ReLU"
  bottom: "inception_4e/1x1"
  top: "inception_4e/1x1"
}
layer {
  name: "inception_4e/3x3_reduce"
  type: "Convolution"
  bottom: "inception_4d/output"
  top: "inception_4e/3x3_reduce"
  param {
    lr_mult: 1
    decay_mult: 1
  }
  param {
    lr_mult: 2
    decay_mult: 0
  }
  convolution_param {
    num_output: 160
    kernel_size: 1
    weight_filler {
      type: "xavier"
      std: 0.09
    }
    bias_filler {
      type: "constant"
      value: 0.2
    }
  }
}
layer {
  name: "inception_4e/relu_3x3_reduce"
  type: "ReLU"
  bottom: "inception_4e/3x3_reduce"
  top: "inception_4e/3x3_reduce"
}
layer {
  name: "inception_4e/3x3"
  type: "Convolution"
  bottom: "inception_4e/3x3_reduce"
  top: "inception_4e/3x3"
  param {
    lr_mult: 1
    decay_mult: 1
  }
  param {
    lr_mult: 2
    decay_mult: 0
  }
  convolution_param {
    num_output: 320
    pad: 1
    kernel_size: 3
    weight_filler {
      type: "xavier"
      std: 0.03
    }
    bias_filler {
      type: "constant"
      value: 0.2
    }
  }
}
layer {
  name: "inception_4e/relu_3x3"
  type: "ReLU"
  bottom: "inception_4e/3x3"
  top: "inception_4e/3x3"
}
layer {
  name: "inception_4e/5x5_reduce"
  type: "Convolution"
  bottom: "inception_4d/output"
  top: "inception_4e/5x5_reduce"
  param {
    lr_mult: 1
    decay_mult: 1
  }
  param {
    lr_mult: 2
    decay_mult: 0
  }
  convolution_param {
    num_output: 32
    kernel_size: 1
    weight_filler {
      type: "xavier"
      std: 0.2
    }
    bias_filler {
      type: "constant"
      value: 0.2
    }
  }
}
layer {
  name: "inception_4e/relu_5x5_reduce"
  type: "ReLU"
  bottom: "inception_4e/5x5_reduce"
  top: "inception_4e/5x5_reduce"
}
layer {
  name: "inception_4e/5x5"
  type: "Convolution"
  bottom: "inception_4e/5x5_reduce"
  top: "inception_4e/
I0403 18:43:09.169065  7293 layer_factory.hpp:77] Creating layer data
I0403 18:43:09.169729  7293 net.cpp:91] Creating Layer data
I0403 18:43:09.169761  7293 net.cpp:399] data -> data
I0403 18:43:09.169816  7293 net.cpp:399] data -> label
I0403 18:43:09.169853  7293 data_transformer.cpp:25] Loading mean file from: /home/mohanty/data/final_dataset/lmdb/grayscale-40-60/mean.binaryproto
I0403 18:43:09.170935  7296 db_lmdb.cpp:38] Opened lmdb /home/mohanty/data/final_dataset/lmdb/grayscale-40-60/test_db
I0403 18:43:09.183905  7293 data_layer.cpp:41] output data size: 24,3,224,224
I0403 18:43:09.211834  7293 net.cpp:141] Setting up data
I0403 18:43:09.211932  7293 net.cpp:148] Top shape: 24 3 224 224 (3612672)
I0403 18:43:09.211957  7293 net.cpp:148] Top shape: 24 (24)
I0403 18:43:09.211987  7293 net.cpp:156] Memory required for data: 14450784
I0403 18:43:09.212016  7293 layer_factory.hpp:77] Creating layer label_data_1_split
I0403 18:43:09.212044  7293 net.cpp:91] Creating Layer label_data_1_split
I0403 18:43:09.212064  7293 net.cpp:425] label_data_1_split <- label
I0403 18:43:09.212096  7293 net.cpp:399] label_data_1_split -> label_data_1_split_0
I0403 18:43:09.212127  7293 net.cpp:399] label_data_1_split -> label_data_1_split_1
I0403 18:43:09.212149  7293 net.cpp:399] label_data_1_split -> label_data_1_split_2
I0403 18:43:09.212172  7293 net.cpp:399] label_data_1_split -> label_data_1_split_3
I0403 18:43:09.212191  7293 net.cpp:399] label_data_1_split -> label_data_1_split_4
I0403 18:43:09.212211  7293 net.cpp:399] label_data_1_split -> label_data_1_split_5
I0403 18:43:09.212231  7293 net.cpp:399] label_data_1_split -> label_data_1_split_6
I0403 18:43:09.212251  7293 net.cpp:399] label_data_1_split -> label_data_1_split_7
I0403 18:43:09.212294  7293 net.cpp:399] label_data_1_split -> label_data_1_split_8
I0403 18:43:09.212318  7293 net.cpp:399] label_data_1_split -> label_data_1_split_9
I0403 18:43:09.212438  7293 net.cpp:141] Setting up label_data_1_split
I0403 18:43:09.212462  7293 net.cpp:148] Top shape: 24 (24)
I0403 18:43:09.212479  7293 net.cpp:148] Top shape: 24 (24)
I0403 18:43:09.212496  7293 net.cpp:148] Top shape: 24 (24)
I0403 18:43:09.212512  7293 net.cpp:148] Top shape: 24 (24)
I0403 18:43:09.212528  7293 net.cpp:148] Top shape: 24 (24)
I0403 18:43:09.212544  7293 net.cpp:148] Top shape: 24 (24)
I0403 18:43:09.212559  7293 net.cpp:148] Top shape: 24 (24)
I0403 18:43:09.212575  7293 net.cpp:148] Top shape: 24 (24)
I0403 18:43:09.212591  7293 net.cpp:148] Top shape: 24 (24)
I0403 18:43:09.212610  7293 net.cpp:148] Top shape: 24 (24)
I0403 18:43:09.212651  7293 net.cpp:156] Memory required for data: 14451744
I0403 18:43:09.212669  7293 layer_factory.hpp:77] Creating layer conv1/7x7_s2
I0403 18:43:09.212702  7293 net.cpp:91] Creating Layer conv1/7x7_s2
I0403 18:43:09.212720  7293 net.cpp:425] conv1/7x7_s2 <- data
I0403 18:43:09.212743  7293 net.cpp:399] conv1/7x7_s2 -> conv1/7x7_s2
I0403 18:43:09.355018  7293 net.cpp:141] Setting up conv1/7x7_s2
I0403 18:43:09.355129  7293 net.cpp:148] Top shape: 24 64 112 112 (19267584)
I0403 18:43:09.355149  7293 net.cpp:156] Memory required for data: 91522080
I0403 18:43:09.355181  7293 layer_factory.hpp:77] Creating layer conv1/relu_7x7
I0403 18:43:09.355209  7293 net.cpp:91] Creating Layer conv1/relu_7x7
I0403 18:43:09.355228  7293 net.cpp:425] conv1/relu_7x7 <- conv1/7x7_s2
I0403 18:43:09.355250  7293 net.cpp:386] conv1/relu_7x7 -> conv1/7x7_s2 (in-place)
I0403 18:43:09.355530  7293 net.cpp:141] Setting up conv1/relu_7x7
I0403 18:43:09.355561  7293 net.cpp:148] Top shape: 24 64 112 112 (19267584)
I0403 18:43:09.355577  7293 net.cpp:156] Memory required for data: 168592416
I0403 18:43:09.355594  7293 layer_factory.hpp:77] Creating layer pool1/3x3_s2
I0403 18:43:09.355618  7293 net.cpp:91] Creating Layer pool1/3x3_s2
I0403 18:43:09.355638  7293 net.cpp:425] pool1/3x3_s2 <- conv1/7x7_s2
I0403 18:43:09.355659  7293 net.cpp:399] pool1/3x3_s2 -> pool1/3x3_s2
I0403 18:43:09.355736  7293 net.cpp:141] Setting up pool1/3x3_s2
I0403 18:43:09.355762  7293 net.cpp:148] Top shape: 24 64 56 56 (4816896)
I0403 18:43:09.355778  7293 net.cpp:156] Memory required for data: 187860000
I0403 18:43:09.355794  7293 layer_factory.hpp:77] Creating layer pool1/norm1
I0403 18:43:09.355820  7293 net.cpp:91] Creating Layer pool1/norm1
I0403 18:43:09.355839  7293 net.cpp:425] pool1/norm1 <- pool1/3x3_s2
I0403 18:43:09.355864  7293 net.cpp:399] pool1/norm1 -> pool1/norm1
I0403 18:43:09.356168  7293 net.cpp:141] Setting up pool1/norm1
I0403 18:43:09.356197  7293 net.cpp:148] Top shape: 24 64 56 56 (4816896)
I0403 18:43:09.356215  7293 net.cpp:156] Memory required for data: 207127584
I0403 18:43:09.356230  7293 layer_factory.hpp:77] Creating layer conv2/3x3_reduce
I0403 18:43:09.356259  7293 net.cpp:91] Creating Layer conv2/3x3_reduce
I0403 18:43:09.356283  7293 net.cpp:425] conv2/3x3_reduce <- pool1/norm1
I0403 18:43:09.356307  7293 net.cpp:399] conv2/3x3_reduce -> conv2/3x3_reduce
I0403 18:43:09.357619  7293 net.cpp:141] Setting up conv2/3x3_reduce
I0403 18:43:09.357651  7293 net.cpp:148] Top shape: 24 64 56 56 (4816896)
I0403 18:43:09.357673  7293 net.cpp:156] Memory required for data: 226395168
I0403 18:43:09.357697  7293 layer_factory.hpp:77] Creating layer conv2/relu_3x3_reduce
I0403 18:43:09.357719  7293 net.cpp:91] Creating Layer conv2/relu_3x3_reduce
I0403 18:43:09.357738  7293 net.cpp:425] conv2/relu_3x3_reduce <- conv2/3x3_reduce
I0403 18:43:09.357756  7293 net.cpp:386] conv2/relu_3x3_reduce -> conv2/3x3_reduce (in-place)
I0403 18:43:09.358029  7293 net.cpp:141] Setting up conv2/relu_3x3_reduce
I0403 18:43:09.358058  7293 net.cpp:148] Top shape: 24 64 56 56 (4816896)
I0403 18:43:09.358074  7293 net.cpp:156] Memory required for data: 245662752
I0403 18:43:09.358093  7293 layer_factory.hpp:77] Creating layer conv2/3x3
I0403 18:43:09.358121  7293 net.cpp:91] Creating Layer conv2/3x3
I0403 18:43:09.358140  7293 net.cpp:425] conv2/3x3 <- conv2/3x3_reduce
I0403 18:43:09.358161  7293 net.cpp:399] conv2/3x3 -> conv2/3x3
I0403 18:43:09.360530  7293 net.cpp:141] Setting up conv2/3x3
I0403 18:43:09.360563  7293 net.cpp:148] Top shape: 24 192 56 56 (14450688)
I0403 18:43:09.360580  7293 net.cpp:156] Memory required for data: 303465504
I0403 18:43:09.360604  7293 layer_factory.hpp:77] Creating layer conv2/relu_3x3
I0403 18:43:09.360627  7293 net.cpp:91] Creating Layer conv2/relu_3x3
I0403 18:43:09.360646  7293 net.cpp:425] conv2/relu_3x3 <- conv2/3x3
I0403 18:43:09.360666  7293 net.cpp:386] conv2/relu_3x3 -> conv2/3x3 (in-place)
I0403 18:43:09.360846  7293 net.cpp:141] Setting up conv2/relu_3x3
I0403 18:43:09.360873  7293 net.cpp:148] Top shape: 24 192 56 56 (14450688)
I0403 18:43:09.360924  7293 net.cpp:156] Memory required for data: 361268256
I0403 18:43:09.360941  7293 layer_factory.hpp:77] Creating layer conv2/norm2
I0403 18:43:09.360961  7293 net.cpp:91] Creating Layer conv2/norm2
I0403 18:43:09.360980  7293 net.cpp:425] conv2/norm2 <- conv2/3x3
I0403 18:43:09.360997  7293 net.cpp:399] conv2/norm2 -> conv2/norm2
I0403 18:43:09.361362  7293 net.cpp:141] Setting up conv2/norm2
I0403 18:43:09.361392  7293 net.cpp:148] Top shape: 24 192 56 56 (14450688)
I0403 18:43:09.361407  7293 net.cpp:156] Memory required for data: 419071008
I0403 18:43:09.361423  7293 layer_factory.hpp:77] Creating layer pool2/3x3_s2
I0403 18:43:09.361444  7293 net.cpp:91] Creating Layer pool2/3x3_s2
I0403 18:43:09.361461  7293 net.cpp:425] pool2/3x3_s2 <- conv2/norm2
I0403 18:43:09.361480  7293 net.cpp:399] pool2/3x3_s2 -> pool2/3x3_s2
I0403 18:43:09.361552  7293 net.cpp:141] Setting up pool2/3x3_s2
I0403 18:43:09.361577  7293 net.cpp:148] Top shape: 24 192 28 28 (3612672)
I0403 18:43:09.361591  7293 net.cpp:156] Memory required for data: 433521696
I0403 18:43:09.361606  7293 layer_factory.hpp:77] Creating layer pool2/3x3_s2_pool2/3x3_s2_0_split
I0403 18:43:09.361625  7293 net.cpp:91] Creating Layer pool2/3x3_s2_pool2/3x3_s2_0_split
I0403 18:43:09.361642  7293 net.cpp:425] pool2/3x3_s2_pool2/3x3_s2_0_split <- pool2/3x3_s2
I0403 18:43:09.361663  7293 net.cpp:399] pool2/3x3_s2_pool2/3x3_s2_0_split -> pool2/3x3_s2_pool2/3x3_s2_0_split_0
I0403 18:43:09.361685  7293 net.cpp:399] pool2/3x3_s2_pool2/3x3_s2_0_split -> pool2/3x3_s2_pool2/3x3_s2_0_split_1
I0403 18:43:09.361706  7293 net.cpp:399] pool2/3x3_s2_pool2/3x3_s2_0_split -> pool2/3x3_s2_pool2/3x3_s2_0_split_2
I0403 18:43:09.361726  7293 net.cpp:399] pool2/3x3_s2_pool2/3x3_s2_0_split -> pool2/3x3_s2_pool2/3x3_s2_0_split_3
I0403 18:43:09.361799  7293 net.cpp:141] Setting up pool2/3x3_s2_pool2/3x3_s2_0_split
I0403 18:43:09.361825  7293 net.cpp:148] Top shape: 24 192 28 28 (3612672)
I0403 18:43:09.361845  7293 net.cpp:148] Top shape: 24 192 28 28 (3612672)
I0403 18:43:09.361861  7293 net.cpp:148] Top shape: 24 192 28 28 (3612672)
I0403 18:43:09.361878  7293 net.cpp:148] Top shape: 24 192 28 28 (3612672)
I0403 18:43:09.361892  7293 net.cpp:156] Memory required for data: 491324448
I0403 18:43:09.361907  7293 layer_factory.hpp:77] Creating layer inception_3a/1x1
I0403 18:43:09.361932  7293 net.cpp:91] Creating Layer inception_3a/1x1
I0403 18:43:09.361950  7293 net.cpp:425] inception_3a/1x1 <- pool2/3x3_s2_pool2/3x3_s2_0_split_0
I0403 18:43:09.361971  7293 net.cpp:399] inception_3a/1x1 -> inception_3a/1x1
I0403 18:43:09.363581  7293 net.cpp:141] Setting up inception_3a/1x1
I0403 18:43:09.363611  7293 net.cpp:148] Top shape: 24 64 28 28 (1204224)
I0403 18:43:09.363627  7293 net.cpp:156] Memory required for data: 496141344
I0403 18:43:09.363647  7293 layer_factory.hpp:77] Creating layer inception_3a/relu_1x1
I0403 18:43:09.363670  7293 net.cpp:91] Creating Layer inception_3a/relu_1x1
I0403 18:43:09.363687  7293 net.cpp:425] inception_3a/relu_1x1 <- inception_3a/1x1
I0403 18:43:09.363704  7293 net.cpp:386] inception_3a/relu_1x1 -> inception_3a/1x1 (in-place)
I0403 18:43:09.363884  7293 net.cpp:141] Setting up inception_3a/relu_1x1
I0403 18:43:09.363914  7293 net.cpp:148] Top shape: 24 64 28 28 (1204224)
I0403 18:43:09.363930  7293 net.cpp:156] Memory required for data: 500958240
I0403 18:43:09.363945  7293 layer_factory.hpp:77] Creating layer inception_3a/3x3_reduce
I0403 18:43:09.363968  7293 net.cpp:91] Creating Layer inception_3a/3x3_reduce
I0403 18:43:09.363986  7293 net.cpp:425] inception_3a/3x3_reduce <- pool2/3x3_s2_pool2/3x3_s2_0_split_1
I0403 18:43:09.364006  7293 net.cpp:399] inception_3a/3x3_reduce -> inception_3a/3x3_reduce
I0403 18:43:09.365772  7293 net.cpp:141] Setting up inception_3a/3x3_reduce
I0403 18:43:09.365803  7293 net.cpp:148] Top shape: 24 96 28 28 (1806336)
I0403 18:43:09.365820  7293 net.cpp:156] Memory required for data: 508183584
I0403 18:43:09.365844  7293 layer_factory.hpp:77] Creating layer inception_3a/relu_3x3_reduce
I0403 18:43:09.365885  7293 net.cpp:91] Creating Layer inception_3a/relu_3x3_reduce
I0403 18:43:09.365905  7293 net.cpp:425] inception_3a/relu_3x3_reduce <- inception_3a/3x3_reduce
I0403 18:43:09.365926  7293 net.cpp:386] inception_3a/relu_3x3_reduce -> inception_3a/3x3_reduce (in-place)
I0403 18:43:09.366112  7293 net.cpp:141] Setting up inception_3a/relu_3x3_reduce
I0403 18:43:09.366139  7293 net.cpp:148] Top shape: 24 96 28 28 (1806336)
I0403 18:43:09.366154  7293 net.cpp:156] Memory required for data: 515408928
I0403 18:43:09.366170  7293 layer_factory.hpp:77] Creating layer inception_3a/3x3
I0403 18:43:09.366194  7293 net.cpp:91] Creating Layer inception_3a/3x3
I0403 18:43:09.366212  7293 net.cpp:425] inception_3a/3x3 <- inception_3a/3x3_reduce
I0403 18:43:09.366235  7293 net.cpp:399] inception_3a/3x3 -> inception_3a/3x3
I0403 18:43:09.367915  7293 net.cpp:141] Setting up inception_3a/3x3
I0403 18:43:09.367949  7293 net.cpp:148] Top shape: 24 128 28 28 (2408448)
I0403 18:43:09.367966  7293 net.cpp:156] Memory required for data: 525042720
I0403 18:43:09.367987  7293 layer_factory.hpp:77] Creating layer inception_3a/relu_3x3
I0403 18:43:09.368008  7293 net.cpp:91] Creating Layer inception_3a/relu_3x3
I0403 18:43:09.368026  7293 net.cpp:425] inception_3a/relu_3x3 <- inception_3a/3x3
I0403 18:43:09.368044  7293 net.cpp:386] inception_3a/relu_3x3 -> inception_3a/3x3 (in-place)
I0403 18:43:09.368330  7293 net.cpp:141] Setting up inception_3a/relu_3x3
I0403 18:43:09.368361  7293 net.cpp:148] Top shape: 24 128 28 28 (2408448)
I0403 18:43:09.368381  7293 net.cpp:156] Memory required for data: 534676512
I0403 18:43:09.368396  7293 layer_factory.hpp:77] Creating layer inception_3a/5x5_reduce
I0403 18:43:09.368420  7293 net.cpp:91] Creating Layer inception_3a/5x5_reduce
I0403 18:43:09.368438  7293 net.cpp:425] inception_3a/5x5_reduce <- pool2/3x3_s2_pool2/3x3_s2_0_split_2
I0403 18:43:09.368458  7293 net.cpp:399] inception_3a/5x5_reduce -> inception_3a/5x5_reduce
I0403 18:43:09.369453  7293 net.cpp:141] Setting up inception_3a/5x5_reduce
I0403 18:43:09.369484  7293 net.cpp:148] Top shape: 24 16 28 28 (301056)
I0403 18:43:09.369501  7293 net.cpp:156] Memory required for data: 535880736
I0403 18:43:09.369532  7293 layer_factory.hpp:77] Creating layer inception_3a/relu_5x5_reduce
I0403 18:43:09.369550  7293 net.cpp:91] Creating Layer inception_3a/relu_5x5_reduce
I0403 18:43:09.369566  7293 net.cpp:425] inception_3a/relu_5x5_reduce <- inception_3a/5x5_reduce
I0403 18:43:09.369586  7293 net.cpp:386] inception_3a/relu_5x5_reduce -> inception_3a/5x5_reduce (in-place)
I0403 18:43:09.369877  7293 net.cpp:141] Setting up inception_3a/relu_5x5_reduce
I0403 18:43:09.369905  7293 net.cpp:148] Top shape: 24 16 28 28 (301056)
I0403 18:43:09.369920  7293 net.cpp:156] Memory required for data: 537084960
I0403 18:43:09.369954  7293 layer_factory.hpp:77] Creating layer inception_3a/5x5
I0403 18:43:09.369981  7293 net.cpp:91] Creating Layer inception_3a/5x5
I0403 18:43:09.369999  7293 net.cpp:425] inception_3a/5x5 <- inception_3a/5x5_reduce
I0403 18:43:09.370023  7293 net.cpp:399] inception_3a/5x5 -> inception_3a/5x5
I0403 18:43:09.371058  7293 net.cpp:141] Setting up inception_3a/5x5
I0403 18:43:09.371089  7293 net.cpp:148] Top shape: 24 32 28 28 (602112)
I0403 18:43:09.371106  7293 net.cpp:156] Memory required for data: 539493408
I0403 18:43:09.371126  7293 layer_factory.hpp:77] Creating layer inception_3a/relu_5x5
I0403 18:43:09.371145  7293 net.cpp:91] Creating Layer inception_3a/relu_5x5
I0403 18:43:09.371160  7293 net.cpp:425] inception_3a/relu_5x5 <- inception_3a/5x5
I0403 18:43:09.371177  7293 net.cpp:386] inception_3a/relu_5x5 -> inception_3a/5x5 (in-place)
I0403 18:43:09.371362  7293 net.cpp:141] Setting up inception_3a/relu_5x5
I0403 18:43:09.371392  7293 net.cpp:148] Top shape: 24 32 28 28 (602112)
I0403 18:43:09.371407  7293 net.cpp:156] Memory required for data: 541901856
I0403 18:43:09.371423  7293 layer_factory.hpp:77] Creating layer inception_3a/pool
I0403 18:43:09.371441  7293 net.cpp:91] Creating Layer inception_3a/pool
I0403 18:43:09.371474  7293 net.cpp:425] inception_3a/pool <- pool2/3x3_s2_pool2/3x3_s2_0_split_3
I0403 18:43:09.371495  7293 net.cpp:399] inception_3a/pool -> inception_3a/pool
I0403 18:43:09.371556  7293 net.cpp:141] Setting up inception_3a/pool
I0403 18:43:09.371582  7293 net.cpp:148] Top shape: 24 192 28 28 (3612672)
I0403 18:43:09.371598  7293 net.cpp:156] Memory required for data: 556352544
I0403 18:43:09.371613  7293 layer_factory.hpp:77] Creating layer inception_3a/pool_proj
I0403 18:43:09.371637  7293 net.cpp:91] Creating Layer inception_3a/pool_proj
I0403 18:43:09.371656  7293 net.cpp:425] inception_3a/pool_proj <- inception_3a/pool
I0403 18:43:09.371675  7293 net.cpp:399] inception_3a/pool_proj -> inception_3a/pool_proj
I0403 18:43:09.372670  7293 net.cpp:141] Setting up inception_3a/pool_proj
I0403 18:43:09.372700  7293 net.cpp:148] Top shape: 24 32 28 28 (602112)
I0403 18:43:09.372716  7293 net.cpp:156] Memory required for data: 558760992
I0403 18:43:09.372740  7293 layer_factory.hpp:77] Creating layer inception_3a/relu_pool_proj
I0403 18:43:09.372761  7293 net.cpp:91] Creating Layer inception_3a/relu_pool_proj
I0403 18:43:09.372776  7293 net.cpp:425] inception_3a/relu_pool_proj <- inception_3a/pool_proj
I0403 18:43:09.372797  7293 net.cpp:386] inception_3a/relu_pool_proj -> inception_3a/pool_proj (in-place)
I0403 18:43:09.373073  7293 net.cpp:141] Setting up inception_3a/relu_pool_proj
I0403 18:43:09.373103  7293 net.cpp:148] Top shape: 24 32 28 28 (602112)
I0403 18:43:09.373119  7293 net.cpp:156] Memory required for data: 561169440
I0403 18:43:09.373136  7293 layer_factory.hpp:77] Creating layer inception_3a/output
I0403 18:43:09.373153  7293 net.cpp:91] Creating Layer inception_3a/output
I0403 18:43:09.373170  7293 net.cpp:425] inception_3a/output <- inception_3a/1x1
I0403 18:43:09.373188  7293 net.cpp:425] inception_3a/output <- inception_3a/3x3
I0403 18:43:09.373203  7293 net.cpp:425] inception_3a/output <- inception_3a/5x5
I0403 18:43:09.373232  7293 net.cpp:425] inception_3a/output <- inception_3a/pool_proj
I0403 18:43:09.373250  7293 net.cpp:399] inception_3a/output -> inception_3a/output
I0403 18:43:09.373304  7293 net.cpp:141] Setting up inception_3a/output
I0403 18:43:09.373329  7293 net.cpp:148] Top shape: 24 256 28 28 (4816896)
I0403 18:43:09.373345  7293 net.cpp:156] Memory required for data: 580437024
I0403 18:43:09.373361  7293 layer_factory.hpp:77] Creating layer inception_3a/output_inception_3a/output_0_split
I0403 18:43:09.373381  7293 net.cpp:91] Creating Layer inception_3a/output_inception_3a/output_0_split
I0403 18:43:09.373399  7293 net.cpp:425] inception_3a/output_inception_3a/output_0_split <- inception_3a/output
I0403 18:43:09.373417  7293 net.cpp:399] inception_3a/output_inception_3a/output_0_split -> inception_3a/output_inception_3a/output_0_split_0
I0403 18:43:09.373437  7293 net.cpp:399] inception_3a/output_inception_3a/output_0_split -> inception_3a/output_inception_3a/output_0_split_1
I0403 18:43:09.373463  7293 net.cpp:399] inception_3a/output_inception_3a/output_0_split -> inception_3a/output_inception_3a/output_0_split_2
I0403 18:43:09.373486  7293 net.cpp:399] inception_3a/output_inception_3a/output_0_split -> inception_3a/output_inception_3a/output_0_split_3
I0403 18:43:09.373579  7293 net.cpp:141] Setting up inception_3a/output_inception_3a/output_0_split
I0403 18:43:09.373601  7293 net.cpp:148] Top shape: 24 256 28 28 (4816896)
I0403 18:43:09.373618  7293 net.cpp:148] Top shape: 24 256 28 28 (4816896)
I0403 18:43:09.373634  7293 net.cpp:148] Top shape: 24 256 28 28 (4816896)
I0403 18:43:09.373651  7293 net.cpp:148] Top shape: 24 256 28 28 (4816896)
I0403 18:43:09.373663  7293 net.cpp:156] Memory required for data: 657507360
I0403 18:43:09.373678  7293 layer_factory.hpp:77] Creating layer inception_3b/1x1
I0403 18:43:09.373703  7293 net.cpp:91] Creating Layer inception_3b/1x1
I0403 18:43:09.373720  7293 net.cpp:425] inception_3b/1x1 <- inception_3a/output_inception_3a/output_0_split_0
I0403 18:43:09.373739  7293 net.cpp:399] inception_3b/1x1 -> inception_3b/1x1
I0403 18:43:09.374876  7293 net.cpp:141] Setting up inception_3b/1x1
I0403 18:43:09.374915  7293 net.cpp:148] Top shape: 24 128 28 28 (2408448)
I0403 18:43:09.374933  7293 net.cpp:156] Memory required for data: 667141152
I0403 18:43:09.374951  7293 layer_factory.hpp:77] Creating layer inception_3b/relu_1x1
I0403 18:43:09.374971  7293 net.cpp:91] Creating Layer inception_3b/relu_1x1
I0403 18:43:09.374989  7293 net.cpp:425] inception_3b/relu_1x1 <- inception_3b/1x1
I0403 18:43:09.375006  7293 net.cpp:386] inception_3b/relu_1x1 -> inception_3b/1x1 (in-place)
I0403 18:43:09.375182  7293 net.cpp:141] Setting up inception_3b/relu_1x1
I0403 18:43:09.375211  7293 net.cpp:148] Top shape: 24 128 28 28 (2408448)
I0403 18:43:09.375226  7293 net.cpp:156] Memory required for data: 676774944
I0403 18:43:09.375241  7293 layer_factory.hpp:77] Creating layer inception_3b/3x3_reduce
I0403 18:43:09.375262  7293 net.cpp:91] Creating Layer inception_3b/3x3_reduce
I0403 18:43:09.375284  7293 net.cpp:425] inception_3b/3x3_reduce <- inception_3a/output_inception_3a/output_0_split_1
I0403 18:43:09.375303  7293 net.cpp:399] inception_3b/3x3_reduce -> inception_3b/3x3_reduce
I0403 18:43:09.376431  7293 net.cpp:141] Setting up inception_3b/3x3_reduce
I0403 18:43:09.376459  7293 net.cpp:148] Top shape: 24 128 28 28 (2408448)
I0403 18:43:09.376476  7293 net.cpp:156] Memory required for data: 686408736
I0403 18:43:09.376494  7293 layer_factory.hpp:77] Creating layer inception_3b/relu_3x3_reduce
I0403 18:43:09.376514  7293 net.cpp:91] Creating Layer inception_3b/relu_3x3_reduce
I0403 18:43:09.376531  7293 net.cpp:425] inception_3b/relu_3x3_reduce <- inception_3b/3x3_reduce
I0403 18:43:09.376549  7293 net.cpp:386] inception_3b/relu_3x3_reduce -> inception_3b/3x3_reduce (in-place)
I0403 18:43:09.376718  7293 net.cpp:141] Setting up inception_3b/relu_3x3_reduce
I0403 18:43:09.376744  7293 net.cpp:148] Top shape: 24 128 28 28 (2408448)
I0403 18:43:09.376760  7293 net.cpp:156] Memory required for data: 696042528
I0403 18:43:09.376775  7293 layer_factory.hpp:77] Creating layer inception_3b/3x3
I0403 18:43:09.376799  7293 net.cpp:91] Creating Layer inception_3b/3x3
I0403 18:43:09.376816  7293 net.cpp:425] inception_3b/3x3 <- inception_3b/3x3_reduce
I0403 18:43:09.376838  7293 net.cpp:399] inception_3b/3x3 -> inception_3b/3x3
I0403 18:43:09.379751  7293 net.cpp:141] Setting up inception_3b/3x3
I0403 18:43:09.379786  7293 net.cpp:148] Top shape: 24 192 28 28 (3612672)
I0403 18:43:09.379802  7293 net.cpp:156] Memory required for data: 710493216
I0403 18:43:09.379822  7293 layer_factory.hpp:77] Creating layer inception_3b/relu_3x3
I0403 18:43:09.379839  7293 net.cpp:91] Creating Layer inception_3b/relu_3x3
I0403 18:43:09.379856  7293 net.cpp:425] inception_3b/relu_3x3 <- inception_3b/3x3
I0403 18:43:09.379874  7293 net.cpp:386] inception_3b/relu_3x3 -> inception_3b/3x3 (in-place)
I0403 18:43:09.380146  7293 net.cpp:141] Setting up inception_3b/relu_3x3
I0403 18:43:09.380177  7293 net.cpp:148] Top shape: 24 192 28 28 (3612672)
I0403 18:43:09.380194  7293 net.cpp:156] Memory required for data: 724943904
I0403 18:43:09.380209  7293 layer_factory.hpp:77] Creating layer inception_3b/5x5_reduce
I0403 18:43:09.380233  7293 net.cpp:91] Creating Layer inception_3b/5x5_reduce
I0403 18:43:09.380250  7293 net.cpp:425] inception_3b/5x5_reduce <- inception_3a/output_inception_3a/output_0_split_2
I0403 18:43:09.380270  7293 net.cpp:399] inception_3b/5x5_reduce -> inception_3b/5x5_reduce
I0403 18:43:09.381245  7293 net.cpp:141] Setting up inception_3b/5x5_reduce
I0403 18:43:09.381291  7293 net.cpp:148] Top shape: 24 32 28 28 (602112)
I0403 18:43:09.381310  7293 net.cpp:156] Memory required for data: 727352352
I0403 18:43:09.381330  7293 layer_factory.hpp:77] Creating layer inception_3b/relu_5x5_reduce
I0403 18:43:09.381348  7293 net.cpp:91] Creating Layer inception_3b/relu_5x5_reduce
I0403 18:43:09.381364  7293 net.cpp:425] inception_3b/relu_5x5_reduce <- inception_3b/5x5_reduce
I0403 18:43:09.381381  7293 net.cpp:386] inception_3b/relu_5x5_reduce -> inception_3b/5x5_reduce (in-place)
I0403 18:43:09.381589  7293 net.cpp:141] Setting up inception_3b/relu_5x5_reduce
I0403 18:43:09.381614  7293 net.cpp:148] Top shape: 24 32 28 28 (602112)
I0403 18:43:09.381629  7293 net.cpp:156] Memory required for data: 729760800
I0403 18:43:09.381644  7293 layer_factory.hpp:77] Creating layer inception_3b/5x5
I0403 18:43:09.381666  7293 net.cpp:91] Creating Layer inception_3b/5x5
I0403 18:43:09.381685  7293 net.cpp:425] inception_3b/5x5 <- inception_3b/5x5_reduce
I0403 18:43:09.381705  7293 net.cpp:399] inception_3b/5x5 -> inception_3b/5x5
I0403 18:43:09.383647  7293 net.cpp:141] Setting up inception_3b/5x5
I0403 18:43:09.383677  7293 net.cpp:148] Top shape: 24 96 28 28 (1806336)
I0403 18:43:09.383694  7293 net.cpp:156] Memory required for data: 736986144
I0403 18:43:09.383713  7293 layer_factory.hpp:77] Creating layer inception_3b/relu_5x5
I0403 18:43:09.383735  7293 net.cpp:91] Creating Layer inception_3b/relu_5x5
I0403 18:43:09.383754  7293 net.cpp:425] inception_3b/relu_5x5 <- inception_3b/5x5
I0403 18:43:09.383770  7293 net.cpp:386] inception_3b/relu_5x5 -> inception_3b/5x5 (in-place)
I0403 18:43:09.383960  7293 net.cpp:141] Setting up inception_3b/relu_5x5
I0403 18:43:09.383987  7293 net.cpp:148] Top shape: 24 96 28 28 (1806336)
I0403 18:43:09.384002  7293 net.cpp:156] Memory required for data: 744211488
I0403 18:43:09.384017  7293 layer_factory.hpp:77] Creating layer inception_3b/pool
I0403 18:43:09.384034  7293 net.cpp:91] Creating Layer inception_3b/pool
I0403 18:43:09.384050  7293 net.cpp:425] inception_3b/pool <- inception_3a/output_inception_3a/output_0_split_3
I0403 18:43:09.384068  7293 net.cpp:399] inception_3b/pool -> inception_3b/pool
I0403 18:43:09.384121  7293 net.cpp:141] Setting up inception_3b/pool
I0403 18:43:09.384145  7293 net.cpp:148] Top shape: 24 256 28 28 (4816896)
I0403 18:43:09.384160  7293 net.cpp:156] Memory required for data: 763479072
I0403 18:43:09.384174  7293 layer_factory.hpp:77] Creating layer inception_3b/pool_proj
I0403 18:43:09.384196  7293 net.cpp:91] Creating Layer inception_3b/pool_proj
I0403 18:43:09.384214  7293 net.cpp:425] inception_3b/pool_proj <- inception_3b/pool
I0403 18:43:09.384235  7293 net.cpp:399] inception_3b/pool_proj -> inception_3b/pool_proj
I0403 18:43:09.385290  7293 net.cpp:141] Setting up inception_3b/pool_proj
I0403 18:43:09.385321  7293 net.cpp:148] Top shape: 24 64 28 28 (1204224)
I0403 18:43:09.385337  7293 net.cpp:156] Memory required for data: 768295968
I0403 18:43:09.385355  7293 layer_factory.hpp:77] Creating layer inception_3b/relu_pool_proj
I0403 18:43:09.385375  7293 net.cpp:91] Creating Layer inception_3b/relu_pool_proj
I0403 18:43:09.385395  7293 net.cpp:425] inception_3b/relu_pool_proj <- inception_3b/pool_proj
I0403 18:43:09.385412  7293 net.cpp:386] inception_3b/relu_pool_proj -> inception_3b/pool_proj (in-place)
I0403 18:43:09.385804  7293 net.cpp:141] Setting up inception_3b/relu_pool_proj
I0403 18:43:09.385830  7293 net.cpp:148] Top shape: 24 64 28 28 (1204224)
I0403 18:43:09.385846  7293 net.cpp:156] Memory required for data: 773112864
I0403 18:43:09.385861  7293 layer_factory.hpp:77] Creating layer inception_3b/output
I0403 18:43:09.385879  7293 net.cpp:91] Creating Layer inception_3b/output
I0403 18:43:09.385893  7293 net.cpp:425] inception_3b/output <- inception_3b/1x1
I0403 18:43:09.385910  7293 net.cpp:425] inception_3b/output <- inception_3b/3x3
I0403 18:43:09.385926  7293 net.cpp:425] inception_3b/output <- inception_3b/5x5
I0403 18:43:09.385941  7293 net.cpp:425] inception_3b/output <- inception_3b/pool_proj
I0403 18:43:09.385960  7293 net.cpp:399] inception_3b/output -> inception_3b/output
I0403 18:43:09.386003  7293 net.cpp:141] Setting up inception_3b/output
I0403 18:43:09.386029  7293 net.cpp:148] Top shape: 24 480 28 28 (9031680)
I0403 18:43:09.386044  7293 net.cpp:156] Memory required for data: 809239584
I0403 18:43:09.386059  7293 layer_factory.hpp:77] Creating layer pool3/3x3_s2
I0403 18:43:09.386075  7293 net.cpp:91] Creating Layer pool3/3x3_s2
I0403 18:43:09.386090  7293 net.cpp:425] pool3/3x3_s2 <- inception_3b/output
I0403 18:43:09.386123  7293 net.cpp:399] pool3/3x3_s2 -> pool3/3x3_s2
I0403 18:43:09.386183  7293 net.cpp:141] Setting up pool3/3x3_s2
I0403 18:43:09.386207  7293 net.cpp:148] Top shape: 24 480 14 14 (2257920)
I0403 18:43:09.386222  7293 net.cpp:156] Memory required for data: 818271264
I0403 18:43:09.386236  7293 layer_factory.hpp:77] Creating layer pool3/3x3_s2_pool3/3x3_s2_0_split
I0403 18:43:09.386253  7293 net.cpp:91] Creating Layer pool3/3x3_s2_pool3/3x3_s2_0_split
I0403 18:43:09.386267  7293 net.cpp:425] pool3/3x3_s2_pool3/3x3_s2_0_split <- pool3/3x3_s2
I0403 18:43:09.386292  7293 net.cpp:399] pool3/3x3_s2_pool3/3x3_s2_0_split -> pool3/3x3_s2_pool3/3x3_s2_0_split_0
I0403 18:43:09.386313  7293 net.cpp:399] pool3/3x3_s2_pool3/3x3_s2_0_split -> pool3/3x3_s2_pool3/3x3_s2_0_split_1
I0403 18:43:09.386332  7293 net.cpp:399] pool3/3x3_s2_pool3/3x3_s2_0_split -> pool3/3x3_s2_pool3/3x3_s2_0_split_2
I0403 18:43:09.386351  7293 net.cpp:399] pool3/3x3_s2_pool3/3x3_s2_0_split -> pool3/3x3_s2_pool3/3x3_s2_0_split_3
I0403 18:43:09.386431  7293 net.cpp:141] Setting up pool3/3x3_s2_pool3/3x3_s2_0_split
I0403 18:43:09.386453  7293 net.cpp:148] Top shape: 24 480 14 14 (2257920)
I0403 18:43:09.386469  7293 net.cpp:148] Top shape: 24 480 14 14 (2257920)
I0403 18:43:09.386485  7293 net.cpp:148] Top shape: 24 480 14 14 (2257920)
I0403 18:43:09.386502  7293 net.cpp:148] Top shape: 24 480 14 14 (2257920)
I0403 18:43:09.386514  7293 net.cpp:156] Memory required for data: 854397984
I0403 18:43:09.386529  7293 layer_factory.hpp:77] Creating layer inception_4a/1x1
I0403 18:43:09.386550  7293 net.cpp:91] Creating Layer inception_4a/1x1
I0403 18:43:09.386567  7293 net.cpp:425] inception_4a/1x1 <- pool3/3x3_s2_pool3/3x3_s2_0_split_0
I0403 18:43:09.386589  7293 net.cpp:399] inception_4a/1x1 -> inception_4a/1x1
I0403 18:43:09.388144  7293 net.cpp:141] Setting up inception_4a/1x1
I0403 18:43:09.388171  7293 net.cpp:148] Top shape: 24 192 14 14 (903168)
I0403 18:43:09.388187  7293 net.cpp:156] Memory required for data: 858010656
I0403 18:43:09.388206  7293 layer_factory.hpp:77] Creating layer inception_4a/relu_1x1
I0403 18:43:09.388227  7293 net.cpp:91] Creating Layer inception_4a/relu_1x1
I0403 18:43:09.388244  7293 net.cpp:425] inception_4a/relu_1x1 <- inception_4a/1x1
I0403 18:43:09.388262  7293 net.cpp:386] inception_4a/relu_1x1 -> inception_4a/1x1 (in-place)
I0403 18:43:09.388442  7293 net.cpp:141] Setting up inception_4a/relu_1x1
I0403 18:43:09.388468  7293 net.cpp:148] Top shape: 24 192 14 14 (903168)
I0403 18:43:09.388484  7293 net.cpp:156] Memory required for data: 861623328
I0403 18:43:09.388499  7293 layer_factory.hpp:77] Creating layer inception_4a/3x3_reduce
I0403 18:43:09.388523  7293 net.cpp:91] Creating Layer inception_4a/3x3_reduce
I0403 18:43:09.388540  7293 net.cpp:425] inception_4a/3x3_reduce <- pool3/3x3_s2_pool3/3x3_s2_0_split_1
I0403 18:43:09.388559  7293 net.cpp:399] inception_4a/3x3_reduce -> inception_4a/3x3_reduce
I0403 18:43:09.389873  7293 net.cpp:141] Setting up inception_4a/3x3_reduce
I0403 18:43:09.389902  7293 net.cpp:148] Top shape: 24 96 14 14 (451584)
I0403 18:43:09.389919  7293 net.cpp:156] Memory required for data: 863429664
I0403 18:43:09.389943  7293 layer_factory.hpp:77] Creating layer inception_4a/relu_3x3_reduce
I0403 18:43:09.389966  7293 net.cpp:91] Creating Layer inception_4a/relu_3x3_reduce
I0403 18:43:09.389982  7293 net.cpp:425] inception_4a/relu_3x3_reduce <- inception_4a/3x3_reduce
I0403 18:43:09.390003  7293 net.cpp:386] inception_4a/relu_3x3_reduce -> inception_4a/3x3_reduce (in-place)
I0403 18:43:09.390178  7293 net.cpp:141] Setting up inception_4a/relu_3x3_reduce
I0403 18:43:09.390203  7293 net.cpp:148] Top shape: 24 96 14 14 (451584)
I0403 18:43:09.390218  7293 net.cpp:156] Memory required for data: 865236000
I0403 18:43:09.390233  7293 layer_factory.hpp:77] Creating layer inception_4a/3x3
I0403 18:43:09.390255  7293 net.cpp:91] Creating Layer inception_4a/3x3
I0403 18:43:09.390276  7293 net.cpp:425] inception_4a/3x3 <- inception_4a/3x3_reduce
I0403 18:43:09.390300  7293 net.cpp:399] inception_4a/3x3 -> inception_4a/3x3
I0403 18:43:09.392977  7293 net.cpp:141] Setting up inception_4a/3x3
I0403 18:43:09.393007  7293 net.cpp:148] Top shape: 24 208 14 14 (978432)
I0403 18:43:09.393023  7293 net.cpp:156] Memory required for data: 869149728
I0403 18:43:09.393043  7293 layer_factory.hpp:77] Creating layer inception_4a/relu_3x3
I0403 18:43:09.393064  7293 net.cpp:91] Creating Layer inception_4a/relu_3x3
I0403 18:43:09.393079  7293 net.cpp:425] inception_4a/relu_3x3 <- inception_4a/3x3
I0403 18:43:09.393097  7293 net.cpp:386] inception_4a/relu_3x3 -> inception_4a/3x3 (in-place)
I0403 18:43:09.393401  7293 net.cpp:141] Setting up inception_4a/relu_3x3
I0403 18:43:09.393429  7293 net.cpp:148] Top shape: 24 208 14 14 (978432)
I0403 18:43:09.393443  7293 net.cpp:156] Memory required for data: 873063456
I0403 18:43:09.393460  7293 layer_factory.hpp:77] Creating layer inception_4a/5x5_reduce
I0403 18:43:09.393482  7293 net.cpp:91] Creating Layer inception_4a/5x5_reduce
I0403 18:43:09.393501  7293 net.cpp:425] inception_4a/5x5_reduce <- pool3/3x3_s2_pool3/3x3_s2_0_split_2
I0403 18:43:09.393522  7293 net.cpp:399] inception_4a/5x5_reduce -> inception_4a/5x5_reduce
I0403 18:43:09.394556  7293 net.cpp:141] Setting up inception_4a/5x5_reduce
I0403 18:43:09.394587  7293 net.cpp:148] Top shape: 24 16 14 14 (75264)
I0403 18:43:09.394604  7293 net.cpp:156] Memory required for data: 873364512
I0403 18:43:09.394624  7293 layer_factory.hpp:77] Creating layer inception_4a/relu_5x5_reduce
I0403 18:43:09.394642  7293 net.cpp:91] Creating Layer inception_4a/relu_5x5_reduce
I0403 18:43:09.394659  7293 net.cpp:425] inception_4a/relu_5x5_reduce <- inception_4a/5x5_reduce
I0403 18:43:09.394676  7293 net.cpp:386] inception_4a/relu_5x5_reduce -> inception_4a/5x5_reduce (in-place)
I0403 18:43:09.394855  7293 net.cpp:141] Setting up inception_4a/relu_5x5_reduce
I0403 18:43:09.394882  7293 net.cpp:148] Top shape: 24 16 14 14 (75264)
I0403 18:43:09.394899  7293 net.cpp:156] Memory required for data: 873665568
I0403 18:43:09.394914  7293 layer_factory.hpp:77] Creating layer inception_4a/5x5
I0403 18:43:09.394937  7293 net.cpp:91] Creating Layer inception_4a/5x5
I0403 18:43:09.394954  7293 net.cpp:425] inception_4a/5x5 <- inception_4a/5x5_reduce
I0403 18:43:09.394975  7293 net.cpp:399] inception_4a/5x5 -> inception_4a/5x5
I0403 18:43:09.396052  7293 net.cpp:141] Setting up inception_4a/5x5
I0403 18:43:09.396080  7293 net.cpp:148] Top shape: 24 48 14 14 (225792)
I0403 18:43:09.396095  7293 net.cpp:156] Memory required for data: 874568736
I0403 18:43:09.396114  7293 layer_factory.hpp:77] Creating layer inception_4a/relu_5x5
I0403 18:43:09.396132  7293 net.cpp:91] Creating Layer inception_4a/relu_5x5
I0403 18:43:09.396147  7293 net.cpp:425] inception_4a/relu_5x5 <- inception_4a/5x5
I0403 18:43:09.396167  7293 net.cpp:386] inception_4a/relu_5x5 -> inception_4a/5x5 (in-place)
I0403 18:43:09.396347  7293 net.cpp:141] Setting up inception_4a/relu_5x5
I0403 18:43:09.396373  7293 net.cpp:148] Top shape: 24 48 14 14 (225792)
I0403 18:43:09.396389  7293 net.cpp:156] Memory required for data: 875471904
I0403 18:43:09.396404  7293 layer_factory.hpp:77] Creating layer inception_4a/pool
I0403 18:43:09.396422  7293 net.cpp:91] Creating Layer inception_4a/pool
I0403 18:43:09.396440  7293 net.cpp:425] inception_4a/pool <- pool3/3x3_s2_pool3/3x3_s2_0_split_3
I0403 18:43:09.396457  7293 net.cpp:399] inception_4a/pool -> inception_4a/pool
I0403 18:43:09.396520  7293 net.cpp:141] Setting up inception_4a/pool
I0403 18:43:09.396544  7293 net.cpp:148] Top shape: 24 480 14 14 (2257920)
I0403 18:43:09.396559  7293 net.cpp:156] Memory required for data: 884503584
I0403 18:43:09.396572  7293 layer_factory.hpp:77] Creating layer inception_4a/pool_proj
I0403 18:43:09.396595  7293 net.cpp:91] Creating Layer inception_4a/pool_proj
I0403 18:43:09.396612  7293 net.cpp:425] inception_4a/pool_proj <- inception_4a/pool
I0403 18:43:09.396633  7293 net.cpp:399] inception_4a/pool_proj -> inception_4a/pool_proj
I0403 18:43:09.397825  7293 net.cpp:141] Setting up inception_4a/pool_proj
I0403 18:43:09.397857  7293 net.cpp:148] Top shape: 24 64 14 14 (301056)
I0403 18:43:09.397888  7293 net.cpp:156] Memory required for data: 885707808
I0403 18:43:09.397909  7293 layer_factory.hpp:77] Creating layer inception_4a/relu_pool_proj
I0403 18:43:09.397928  7293 net.cpp:91] Creating Layer inception_4a/relu_pool_proj
I0403 18:43:09.397944  7293 net.cpp:425] inception_4a/relu_pool_proj <- inception_4a/pool_proj
I0403 18:43:09.397965  7293 net.cpp:386] inception_4a/relu_pool_proj -> inception_4a/pool_proj (in-place)
I0403 18:43:09.398246  7293 net.cpp:141] Setting up inception_4a/relu_pool_proj
I0403 18:43:09.398277  7293 net.cpp:148] Top shape: 24 64 14 14 (301056)
I0403 18:43:09.398295  7293 net.cpp:156] Memory required for data: 886912032
I0403 18:43:09.398313  7293 layer_factory.hpp:77] Creating layer inception_4a/output
I0403 18:43:09.398330  7293 net.cpp:91] Creating Layer inception_4a/output
I0403 18:43:09.398345  7293 net.cpp:425] inception_4a/output <- inception_4a/1x1
I0403 18:43:09.398361  7293 net.cpp:425] inception_4a/output <- inception_4a/3x3
I0403 18:43:09.398376  7293 net.cpp:425] inception_4a/output <- inception_4a/5x5
I0403 18:43:09.398391  7293 net.cpp:425] inception_4a/output <- inception_4a/pool_proj
I0403 18:43:09.398411  7293 net.cpp:399] inception_4a/output -> inception_4a/output
I0403 18:43:09.398454  7293 net.cpp:141] Setting up inception_4a/output
I0403 18:43:09.398480  7293 net.cpp:148] Top shape: 24 512 14 14 (2408448)
I0403 18:43:09.398495  7293 net.cpp:156] Memory required for data: 896545824
I0403 18:43:09.398510  7293 layer_factory.hpp:77] Creating layer inception_4a/output_inception_4a/output_0_split
I0403 18:43:09.398527  7293 net.cpp:91] Creating Layer inception_4a/output_inception_4a/output_0_split
I0403 18:43:09.398542  7293 net.cpp:425] inception_4a/output_inception_4a/output_0_split <- inception_4a/output
I0403 18:43:09.398561  7293 net.cpp:399] inception_4a/output_inception_4a/output_0_split -> inception_4a/output_inception_4a/output_0_split_0
I0403 18:43:09.398581  7293 net.cpp:399] inception_4a/output_inception_4a/output_0_split -> inception_4a/output_inception_4a/output_0_split_1
I0403 18:43:09.398602  7293 net.cpp:399] inception_4a/output_inception_4a/output_0_split -> inception_4a/output_inception_4a/output_0_split_2
I0403 18:43:09.398622  7293 net.cpp:399] inception_4a/output_inception_4a/output_0_split -> inception_4a/output_inception_4a/output_0_split_3
I0403 18:43:09.398641  7293 net.cpp:399] inception_4a/output_inception_4a/output_0_split -> inception_4a/output_inception_4a/output_0_split_4
I0403 18:43:09.398732  7293 net.cpp:141] Setting up inception_4a/output_inception_4a/output_0_split
I0403 18:43:09.398758  7293 net.cpp:148] Top shape: 24 512 14 14 (2408448)
I0403 18:43:09.398775  7293 net.cpp:148] Top shape: 24 512 14 14 (2408448)
I0403 18:43:09.398792  7293 net.cpp:148] Top shape: 24 512 14 14 (2408448)
I0403 18:43:09.398807  7293 net.cpp:148] Top shape: 24 512 14 14 (2408448)
I0403 18:43:09.398823  7293 net.cpp:148] Top shape: 24 512 14 14 (2408448)
I0403 18:43:09.398835  7293 net.cpp:156] Memory required for data: 944714784
I0403 18:43:09.398849  7293 layer_factory.hpp:77] Creating layer loss1/ave_pool
I0403 18:43:09.398866  7293 net.cpp:91] Creating Layer loss1/ave_pool
I0403 18:43:09.398882  7293 net.cpp:425] loss1/ave_pool <- inception_4a/output_inception_4a/output_0_split_0
I0403 18:43:09.398900  7293 net.cpp:399] loss1/ave_pool -> loss1/ave_pool
I0403 18:43:09.399104  7293 net.cpp:141] Setting up loss1/ave_pool
I0403 18:43:09.399130  7293 net.cpp:148] Top shape: 24 512 4 4 (196608)
I0403 18:43:09.399144  7293 net.cpp:156] Memory required for data: 945501216
I0403 18:43:09.399159  7293 layer_factory.hpp:77] Creating layer loss1/conv
I0403 18:43:09.399181  7293 net.cpp:91] Creating Layer loss1/conv
I0403 18:43:09.399199  7293 net.cpp:425] loss1/conv <- loss1/ave_pool
I0403 18:43:09.399219  7293 net.cpp:399] loss1/conv -> loss1/conv
I0403 18:43:09.400626  7293 net.cpp:141] Setting up loss1/conv
I0403 18:43:09.400655  7293 net.cpp:148] Top shape: 24 128 4 4 (49152)
I0403 18:43:09.400684  7293 net.cpp:156] Memory required for data: 945697824
I0403 18:43:09.400703  7293 layer_factory.hpp:77] Creating layer loss1/relu_conv
I0403 18:43:09.400725  7293 net.cpp:91] Creating Layer loss1/relu_conv
I0403 18:43:09.400743  7293 net.cpp:425] loss1/relu_conv <- loss1/conv
I0403 18:43:09.400761  7293 net.cpp:386] loss1/relu_conv -> loss1/conv (in-place)
I0403 18:43:09.401033  7293 net.cpp:141] Setting up loss1/relu_conv
I0403 18:43:09.401060  7293 net.cpp:148] Top shape: 24 128 4 4 (49152)
I0403 18:43:09.401075  7293 net.cpp:156] Memory required for data: 945894432
I0403 18:43:09.401093  7293 layer_factory.hpp:77] Creating layer loss1/fc
I0403 18:43:09.401118  7293 net.cpp:91] Creating Layer loss1/fc
I0403 18:43:09.401136  7293 net.cpp:425] loss1/fc <- loss1/conv
I0403 18:43:09.401155  7293 net.cpp:399] loss1/fc -> loss1/fc
I0403 18:43:09.418540  7293 net.cpp:141] Setting up loss1/fc
I0403 18:43:09.418576  7293 net.cpp:148] Top shape: 24 1024 (24576)
I0403 18:43:09.418591  7293 net.cpp:156] Memory required for data: 945992736
I0403 18:43:09.418611  7293 layer_factory.hpp:77] Creating layer loss1/relu_fc
I0403 18:43:09.418629  7293 net.cpp:91] Creating Layer loss1/relu_fc
I0403 18:43:09.418648  7293 net.cpp:425] loss1/relu_fc <- loss1/fc
I0403 18:43:09.418665  7293 net.cpp:386] loss1/relu_fc -> loss1/fc (in-place)
I0403 18:43:09.418854  7293 net.cpp:141] Setting up loss1/relu_fc
I0403 18:43:09.418880  7293 net.cpp:148] Top shape: 24 1024 (24576)
I0403 18:43:09.418895  7293 net.cpp:156] Memory required for data: 946091040
I0403 18:43:09.418911  7293 layer_factory.hpp:77] Creating layer loss1/drop_fc
I0403 18:43:09.418939  7293 net.cpp:91] Creating Layer loss1/drop_fc
I0403 18:43:09.418956  7293 net.cpp:425] loss1/drop_fc <- loss1/fc
I0403 18:43:09.418973  7293 net.cpp:386] loss1/drop_fc -> loss1/fc (in-place)
I0403 18:43:09.419020  7293 net.cpp:141] Setting up loss1/drop_fc
I0403 18:43:09.419046  7293 net.cpp:148] Top shape: 24 1024 (24576)
I0403 18:43:09.419061  7293 net.cpp:156] Memory required for data: 946189344
I0403 18:43:09.419077  7293 layer_factory.hpp:77] Creating layer loss1/classifier_plantvillage
I0403 18:43:09.419095  7293 net.cpp:91] Creating Layer loss1/classifier_plantvillage
I0403 18:43:09.419111  7293 net.cpp:425] loss1/classifier_plantvillage <- loss1/fc
I0403 18:43:09.419134  7293 net.cpp:399] loss1/classifier_plantvillage -> loss1/classifier_plantvillage
I0403 18:43:09.420042  7293 net.cpp:141] Setting up loss1/classifier_plantvillage
I0403 18:43:09.420070  7293 net.cpp:148] Top shape: 24 38 (912)
I0403 18:43:09.420085  7293 net.cpp:156] Memory required for data: 946192992
I0403 18:43:09.420104  7293 layer_factory.hpp:77] Creating layer loss1/classifier_plantvillage_loss1/classifier_plantvillage_0_split
I0403 18:43:09.420125  7293 net.cpp:91] Creating Layer loss1/classifier_plantvillage_loss1/classifier_plantvillage_0_split
I0403 18:43:09.420141  7293 net.cpp:425] loss1/classifier_plantvillage_loss1/classifier_plantvillage_0_split <- loss1/classifier_plantvillage
I0403 18:43:09.420159  7293 net.cpp:399] loss1/classifier_plantvillage_loss1/classifier_plantvillage_0_split -> loss1/classifier_plantvillage_loss1/classifier_plantvillage_0_split_0
I0403 18:43:09.420179  7293 net.cpp:399] loss1/classifier_plantvillage_loss1/classifier_plantvillage_0_split -> loss1/classifier_plantvillage_loss1/classifier_plantvillage_0_split_1
I0403 18:43:09.420198  7293 net.cpp:399] loss1/classifier_plantvillage_loss1/classifier_plantvillage_0_split -> loss1/classifier_plantvillage_loss1/classifier_plantvillage_0_split_2
I0403 18:43:09.420265  7293 net.cpp:141] Setting up loss1/classifier_plantvillage_loss1/classifier_plantvillage_0_split
I0403 18:43:09.420292  7293 net.cpp:148] Top shape: 24 38 (912)
I0403 18:43:09.420310  7293 net.cpp:148] Top shape: 24 38 (912)
I0403 18:43:09.420325  7293 net.cpp:148] Top shape: 24 38 (912)
I0403 18:43:09.420339  7293 net.cpp:156] Memory required for data: 946203936
I0403 18:43:09.420352  7293 layer_factory.hpp:77] Creating layer inception_4b/1x1
I0403 18:43:09.420372  7293 net.cpp:91] Creating Layer inception_4b/1x1
I0403 18:43:09.420405  7293 net.cpp:425] inception_4b/1x1 <- inception_4a/output_inception_4a/output_0_split_1
I0403 18:43:09.420428  7293 net.cpp:399] inception_4b/1x1 -> inception_4b/1x1
I0403 18:43:09.422051  7293 net.cpp:141] Setting up inception_4b/1x1
I0403 18:43:09.422085  7293 net.cpp:148] Top shape: 24 160 14 14 (752640)
I0403 18:43:09.422102  7293 net.cpp:156] Memory required for data: 949214496
I0403 18:43:09.422121  7293 layer_factory.hpp:77] Creating layer inception_4b/relu_1x1
I0403 18:43:09.422138  7293 net.cpp:91] Creating Layer inception_4b/relu_1x1
I0403 18:43:09.422154  7293 net.cpp:425] inception_4b/relu_1x1 <- inception_4b/1x1
I0403 18:43:09.422171  7293 net.cpp:386] inception_4b/relu_1x1 -> inception_4b/1x1 (in-place)
I0403 18:43:09.422358  7293 net.cpp:141] Setting up inception_4b/relu_1x1
I0403 18:43:09.422385  7293 net.cpp:148] Top shape: 24 160 14 14 (752640)
I0403 18:43:09.422400  7293 net.cpp:156] Memory required for data: 952225056
I0403 18:43:09.422415  7293 layer_factory.hpp:77] Creating layer inception_4b/3x3_reduce
I0403 18:43:09.422437  7293 net.cpp:91] Creating Layer inception_4b/3x3_reduce
I0403 18:43:09.422454  7293 net.cpp:425] inception_4b/3x3_reduce <- inception_4a/output_inception_4a/output_0_split_2
I0403 18:43:09.422474  7293 net.cpp:399] inception_4b/3x3_reduce -> inception_4b/3x3_reduce
I0403 18:43:09.423841  7293 net.cpp:141] Setting up inception_4b/3x3_reduce
I0403 18:43:09.423874  7293 net.cpp:148] Top shape: 24 112 14 14 (526848)
I0403 18:43:09.423893  7293 net.cpp:156] Memory required for data: 954332448
I0403 18:43:09.423913  7293 layer_factory.hpp:77] Creating layer inception_4b/relu_3x3_reduce
I0403 18:43:09.423933  7293 net.cpp:91] Creating Layer inception_4b/relu_3x3_reduce
I0403 18:43:09.423949  7293 net.cpp:425] inception_4b/relu_3x3_reduce <- inception_4b/3x3_reduce
I0403 18:43:09.423969  7293 net.cpp:386] inception_4b/relu_3x3_reduce -> inception_4b/3x3_reduce (in-place)
I0403 18:43:09.424253  7293 net.cpp:141] Setting up inception_4b/relu_3x3_reduce
I0403 18:43:09.424288  7293 net.cpp:148] Top shape: 24 112 14 14 (526848)
I0403 18:43:09.424307  7293 net.cpp:156] Memory required for data: 956439840
I0403 18:43:09.424322  7293 layer_factory.hpp:77] Creating layer inception_4b/3x3
I0403 18:43:09.424345  7293 net.cpp:91] Creating Layer inception_4b/3x3
I0403 18:43:09.424365  7293 net.cpp:425] inception_4b/3x3 <- inception_4b/3x3_reduce
I0403 18:43:09.424384  7293 net.cpp:399] inception_4b/3x3 -> inception_4b/3x3
I0403 18:43:09.427409  7293 net.cpp:141] Setting up inception_4b/3x3
I0403 18:43:09.427441  7293 net.cpp:148] Top shape: 24 224 14 14 (1053696)
I0403 18:43:09.427458  7293 net.cpp:156] Memory required for data: 960654624
I0403 18:43:09.427476  7293 layer_factory.hpp:77] Creating layer inception_4b/relu_3x3
I0403 18:43:09.427500  7293 net.cpp:91] Creating Layer inception_4b/relu_3x3
I0403 18:43:09.427516  7293 net.cpp:425] inception_4b/relu_3x3 <- inception_4b/3x3
I0403 18:43:09.427533  7293 net.cpp:386] inception_4b/relu_3x3 -> inception_4b/3x3 (in-place)
I0403 18:43:09.427717  7293 net.cpp:141] Setting up inception_4b/relu_3x3
I0403 18:43:09.427743  7293 net.cpp:148] Top shape: 24 224 14 14 (1053696)
I0403 18:43:09.427758  7293 net.cpp:156] Memory required for data: 964869408
I0403 18:43:09.427773  7293 layer_factory.hpp:77] Creating layer inception_4b/5x5_reduce
I0403 18:43:09.427799  7293 net.cpp:91] Creating Layer inception_4b/5x5_reduce
I0403 18:43:09.427817  7293 net.cpp:425] inception_4b/5x5_reduce <- inception_4a/output_inception_4a/output_0_split_3
I0403 18:43:09.427837  7293 net.cpp:399] inception_4b/5x5_reduce -> inception_4b/5x5_reduce
I0403 18:43:09.428917  7293 net.cpp:141] Setting up inception_4b/5x5_reduce
I0403 18:43:09.428949  7293 net.cpp:148] Top shape: 24 24 14 14 (112896)
I0403 18:43:09.428966  7293 net.cpp:156] Memory required for data: 965320992
I0403 18:43:09.428987  7293 layer_factory.hpp:77] Creating layer inception_4b/relu_5x5_reduce
I0403 18:43:09.429006  7293 net.cpp:91] Creating Layer inception_4b/relu_5x5_reduce
I0403 18:43:09.429039  7293 net.cpp:425] inception_4b/relu_5x5_reduce <- inception_4b/5x5_reduce
I0403 18:43:09.429064  7293 net.cpp:386] inception_4b/relu_5x5_reduce -> inception_4b/5x5_reduce (in-place)
I0403 18:43:09.429249  7293 net.cpp:141] Setting up inception_4b/relu_5x5_reduce
I0403 18:43:09.429280  7293 net.cpp:148] Top shape: 24 24 14 14 (112896)
I0403 18:43:09.429311  7293 net.cpp:156] Memory required for data: 965772576
I0403 18:43:09.429327  7293 layer_factory.hpp:77] Creating layer inception_4b/5x5
I0403 18:43:09.429349  7293 net.cpp:91] Creating Layer inception_4b/5x5
I0403 18:43:09.429369  7293 net.cpp:425] inception_4b/5x5 <- inception_4b/5x5_reduce
I0403 18:43:09.429391  7293 net.cpp:399] inception_4b/5x5 -> inception_4b/5x5
I0403 18:43:09.430629  7293 net.cpp:141] Setting up inception_4b/5x5
I0403 18:43:09.430660  7293 net.cpp:148] Top shape: 24 64 14 14 (301056)
I0403 18:43:09.430678  7293 net.cpp:156] Memory required for data: 966976800
I0403 18:43:09.430698  7293 layer_factory.hpp:77] Creating layer inception_4b/relu_5x5
I0403 18:43:09.430717  7293 net.cpp:91] Creating Layer inception_4b/relu_5x5
I0403 18:43:09.430735  7293 net.cpp:425] inception_4b/relu_5x5 <- inception_4b/5x5
I0403 18:43:09.430754  7293 net.cpp:386] inception_4b/relu_5x5 -> inception_4b/5x5 (in-place)
I0403 18:43:09.431041  7293 net.cpp:141] Setting up inception_4b/relu_5x5
I0403 18:43:09.431071  7293 net.cpp:148] Top shape: 24 64 14 14 (301056)
I0403 18:43:09.431087  7293 net.cpp:156] Memory required for data: 968181024
I0403 18:43:09.431102  7293 layer_factory.hpp:77] Creating layer inception_4b/pool
I0403 18:43:09.431124  7293 net.cpp:91] Creating Layer inception_4b/pool
I0403 18:43:09.431141  7293 net.cpp:425] inception_4b/pool <- inception_4a/output_inception_4a/output_0_split_4
I0403 18:43:09.431160  7293 net.cpp:399] inception_4b/pool -> inception_4b/pool
I0403 18:43:09.431229  7293 net.cpp:141] Setting up inception_4b/pool
I0403 18:43:09.431254  7293 net.cpp:148] Top shape: 24 512 14 14 (2408448)
I0403 18:43:09.431269  7293 net.cpp:156] Memory required for data: 977814816
I0403 18:43:09.431290  7293 layer_factory.hpp:77] Creating layer inception_4b/pool_proj
I0403 18:43:09.431314  7293 net.cpp:91] Creating Layer inception_4b/pool_proj
I0403 18:43:09.431331  7293 net.cpp:425] inception_4b/pool_proj <- inception_4b/pool
I0403 18:43:09.431354  7293 net.cpp:399] inception_4b/pool_proj -> inception_4b/pool_proj
I0403 18:43:09.432562  7293 net.cpp:141] Setting up inception_4b/pool_proj
I0403 18:43:09.432595  7293 net.cpp:148] Top shape: 24 64 14 14 (301056)
I0403 18:43:09.432612  7293 net.cpp:156] Memory required for data: 979019040
I0403 18:43:09.432632  7293 layer_factory.hpp:77] Creating layer inception_4b/relu_pool_proj
I0403 18:43:09.432653  7293 net.cpp:91] Creating Layer inception_4b/relu_pool_proj
I0403 18:43:09.432672  7293 net.cpp:425] inception_4b/relu_pool_proj <- inception_4b/pool_proj
I0403 18:43:09.432688  7293 net.cpp:386] inception_4b/relu_pool_proj -> inception_4b/pool_proj (in-place)
I0403 18:43:09.432873  7293 net.cpp:141] Setting up inception_4b/relu_pool_proj
I0403 18:43:09.432899  7293 net.cpp:148] Top shape: 24 64 14 14 (301056)
I0403 18:43:09.432915  7293 net.cpp:156] Memory required for data: 980223264
I0403 18:43:09.432932  7293 layer_factory.hpp:77] Creating layer inception_4b/output
I0403 18:43:09.432950  7293 net.cpp:91] Creating Layer inception_4b/output
I0403 18:43:09.432965  7293 net.cpp:425] inception_4b/output <- inception_4b/1x1
I0403 18:43:09.432982  7293 net.cpp:425] inception_4b/output <- inception_4b/3x3
I0403 18:43:09.432998  7293 net.cpp:425] inception_4b/output <- inception_4b/5x5
I0403 18:43:09.433013  7293 net.cpp:425] inception_4b/output <- inception_4b/pool_proj
I0403 18:43:09.433034  7293 net.cpp:399] inception_4b/output -> inception_4b/output
I0403 18:43:09.433080  7293 net.cpp:141] Setting up inception_4b/output
I0403 18:43:09.433106  7293 net.cpp:148] Top shape: 24 512 14 14 (2408448)
I0403 18:43:09.433121  7293 net.cpp:156] Memory required for data: 989857056
I0403 18:43:09.433150  7293 layer_factory.hpp:77] Creating layer inception_4b/output_inception_4b/output_0_split
I0403 18:43:09.433168  7293 net.cpp:91] Creating Layer inception_4b/output_inception_4b/output_0_split
I0403 18:43:09.433184  7293 net.cpp:425] inception_4b/output_inception_4b/output_0_split <- inception_4b/output
I0403 18:43:09.433202  7293 net.cpp:399] inception_4b/output_inception_4b/output_0_split -> inception_4b/output_inception_4b/output_0_split_0
I0403 18:43:09.433225  7293 net.cpp:399] inception_4b/output_inception_4b/output_0_split -> inception_4b/output_inception_4b/output_0_split_1
I0403 18:43:09.433246  7293 net.cpp:399] inception_4b/output_inception_4b/output_0_split -> inception_4b/output_inception_4b/output_0_split_2
I0403 18:43:09.433266  7293 net.cpp:399] inception_4b/output_inception_4b/output_0_split -> inception_4b/output_inception_4b/output_0_split_3
I0403 18:43:09.433370  7293 net.cpp:141] Setting up inception_4b/output_inception_4b/output_0_split
I0403 18:43:09.433394  7293 net.cpp:148] Top shape: 24 512 14 14 (2408448)
I0403 18:43:09.433413  7293 net.cpp:148] Top shape: 24 512 14 14 (2408448)
I0403 18:43:09.433429  7293 net.cpp:148] Top shape: 24 512 14 14 (2408448)
I0403 18:43:09.433445  7293 net.cpp:148] Top shape: 24 512 14 14 (2408448)
I0403 18:43:09.433459  7293 net.cpp:156] Memory required for data: 1028392224
I0403 18:43:09.433475  7293 layer_factory.hpp:77] Creating layer inception_4c/1x1
I0403 18:43:09.433498  7293 net.cpp:91] Creating Layer inception_4c/1x1
I0403 18:43:09.433516  7293 net.cpp:425] inception_4c/1x1 <- inception_4b/output_inception_4b/output_0_split_0
I0403 18:43:09.433538  7293 net.cpp:399] inception_4c/1x1 -> inception_4c/1x1
I0403 18:43:09.434993  7293 net.cpp:141] Setting up inception_4c/1x1
I0403 18:43:09.435022  7293 net.cpp:148] Top shape: 24 128 14 14 (602112)
I0403 18:43:09.435039  7293 net.cpp:156] Memory required for data: 1030800672
I0403 18:43:09.435058  7293 layer_factory.hpp:77] Creating layer inception_4c/relu_1x1
I0403 18:43:09.435080  7293 net.cpp:91] Creating Layer inception_4c/relu_1x1
I0403 18:43:09.435096  7293 net.cpp:425] inception_4c/relu_1x1 <- inception_4c/1x1
I0403 18:43:09.435112  7293 net.cpp:386] inception_4c/relu_1x1 -> inception_4c/1x1 (in-place)
I0403 18:43:09.435297  7293 net.cpp:141] Setting up inception_4c/relu_1x1
I0403 18:43:09.435320  7293 net.cpp:148] Top shape: 24 128 14 14 (602112)
I0403 18:43:09.435335  7293 net.cpp:156] Memory required for data: 1033209120
I0403 18:43:09.435349  7293 layer_factory.hpp:77] Creating layer inception_4c/3x3_reduce
I0403 18:43:09.435374  7293 net.cpp:91] Creating Layer inception_4c/3x3_reduce
I0403 18:43:09.435390  7293 net.cpp:425] inception_4c/3x3_reduce <- inception_4b/output_inception_4b/output_0_split_1
I0403 18:43:09.435412  7293 net.cpp:399] inception_4c/3x3_reduce -> inception_4c/3x3_reduce
I0403 18:43:09.437410  7293 net.cpp:141] Setting up inception_4c/3x3_reduce
I0403 18:43:09.437443  7293 net.cpp:148] Top shape: 24 128 14 14 (602112)
I0403 18:43:09.437460  7293 net.cpp:156] Memory required for data: 1035617568
I0403 18:43:09.437481  7293 layer_factory.hpp:77] Creating layer inception_4c/relu_3x3_reduce
I0403 18:43:09.437502  7293 net.cpp:91] Creating Layer inception_4c/relu_3x3_reduce
I0403 18:43:09.437522  7293 net.cpp:425] inception_4c/relu_3x3_reduce <- inception_4c/3x3_reduce
I0403 18:43:09.437542  7293 net.cpp:386] inception_4c/relu_3x3_reduce -> inception_4c/3x3_reduce (in-place)
I0403 18:43:09.437849  7293 net.cpp:141] Setting up inception_4c/relu_3x3_reduce
I0403 18:43:09.437877  7293 net.cpp:148] Top shape: 24 128 14 14 (602112)
I0403 18:43:09.437893  7293 net.cpp:156] Memory required for data: 1038026016
I0403 18:43:09.437908  7293 layer_factory.hpp:77] Creating layer inception_4c/3x3
I0403 18:43:09.437934  7293 net.cpp:91] Creating Layer inception_4c/3x3
I0403 18:43:09.437964  7293 net.cpp:425] inception_4c/3x3 <- inception_4c/3x3_reduce
I0403 18:43:09.437983  7293 net.cpp:399] inception_4c/3x3 -> inception_4c/3x3
I0403 18:43:09.441666  7293 net.cpp:141] Setting up inception_4c/3x3
I0403 18:43:09.441712  7293 net.cpp:148] Top shape: 24 256 14 14 (1204224)
I0403 18:43:09.441731  7293 net.cpp:156] Memory required for data: 1042842912
I0403 18:43:09.441766  7293 layer_factory.hpp:77] Creating layer inception_4c/relu_3x3
I0403 18:43:09.441787  7293 net.cpp:91] Creating Layer inception_4c/relu_3x3
I0403 18:43:09.441803  7293 net.cpp:425] inception_4c/relu_3x3 <- inception_4c/3x3
I0403 18:43:09.441822  7293 net.cpp:386] inception_4c/relu_3x3 -> inception_4c/3x3 (in-place)
I0403 18:43:09.442005  7293 net.cpp:141] Setting up inception_4c/relu_3x3
I0403 18:43:09.442034  7293 net.cpp:148] Top shape: 24 256 14 14 (1204224)
I0403 18:43:09.442050  7293 net.cpp:156] Memory required for data: 1047659808
I0403 18:43:09.442066  7293 layer_factory.hpp:77] Creating layer inception_4c/5x5_reduce
I0403 18:43:09.442090  7293 net.cpp:91] Creating Layer inception_4c/5x5_reduce
I0403 18:43:09.442108  7293 net.cpp:425] inception_4c/5x5_reduce <- inception_4b/output_inception_4b/output_0_split_2
I0403 18:43:09.442128  7293 net.cpp:399] inception_4c/5x5_reduce -> inception_4c/5x5_reduce
I0403 18:43:09.443236  7293 net.cpp:141] Setting up inception_4c/5x5_reduce
I0403 18:43:09.443269  7293 net.cpp:148] Top shape: 24 24 14 14 (112896)
I0403 18:43:09.443294  7293 net.cpp:156] Memory required for data: 1048111392
I0403 18:43:09.443313  7293 layer_factory.hpp:77] Creating layer inception_4c/relu_5x5_reduce
I0403 18:43:09.443332  7293 net.cpp:91] Creating Layer inception_4c/relu_5x5_reduce
I0403 18:43:09.443349  7293 net.cpp:425] inception_4c/relu_5x5_reduce <- inception_4c/5x5_reduce
I0403 18:43:09.443370  7293 net.cpp:386] inception_4c/relu_5x5_reduce -> inception_4c/5x5_reduce (in-place)
I0403 18:43:09.443557  7293 net.cpp:141] Setting up inception_4c/relu_5x5_reduce
I0403 18:43:09.443583  7293 net.cpp:148] Top shape: 24 24 14 14 (112896)
I0403 18:43:09.443600  7293 net.cpp:156] Memory required for data: 1048562976
I0403 18:43:09.443615  7293 layer_factory.hpp:77] Creating layer inception_4c/5x5
I0403 18:43:09.443639  7293 net.cpp:91] Creating Layer inception_4c/5x5
I0403 18:43:09.443657  7293 net.cpp:425] inception_4c/5x5 <- inception_4c/5x5_reduce
I0403 18:43:09.443680  7293 net.cpp:399] inception_4c/5x5 -> inception_4c/5x5
I0403 18:43:09.444927  7293 net.cpp:141] Setting up inception_4c/5x5
I0403 18:43:09.444957  7293 net.cpp:148] Top shape: 24 64 14 14 (301056)
I0403 18:43:09.444974  7293 net.cpp:156] Memory required for data: 1049767200
I0403 18:43:09.444993  7293 layer_factory.hpp:77] Creating layer inception_4c/relu_5x5
I0403 18:43:09.445011  7293 net.cpp:91] Creating Layer inception_4c/relu_5x5
I0403 18:43:09.445060  7293 net.cpp:425] inception_4c/relu_5x5 <- inception_4c/5x5
I0403 18:43:09.445078  7293 net.cpp:386] inception_4c/relu_5x5 -> inception_4c/5x5 (in-place)
I0403 18:43:09.445407  7293 net.cpp:141] Setting up inception_4c/relu_5x5
I0403 18:43:09.445436  7293 net.cpp:148] Top shape: 24 64 14 14 (301056)
I0403 18:43:09.445453  7293 net.cpp:156] Memory required for data: 1050971424
I0403 18:43:09.445469  7293 layer_factory.hpp:77] Creating layer inception_4c/pool
I0403 18:43:09.445487  7293 net.cpp:91] Creating Layer inception_4c/pool
I0403 18:43:09.445504  7293 net.cpp:425] inception_4c/pool <- inception_4b/output_inception_4b/output_0_split_3
I0403 18:43:09.445528  7293 net.cpp:399] inception_4c/pool -> inception_4c/pool
I0403 18:43:09.445606  7293 net.cpp:141] Setting up inception_4c/pool
I0403 18:43:09.445634  7293 net.cpp:148] Top shape: 24 512 14 14 (2408448)
I0403 18:43:09.445650  7293 net.cpp:156] Memory required for data: 1060605216
I0403 18:43:09.445664  7293 layer_factory.hpp:77] Creating layer inception_4c/pool_proj
I0403 18:43:09.445688  7293 net.cpp:91] Creating Layer inception_4c/pool_proj
I0403 18:43:09.445704  7293 net.cpp:425] inception_4c/pool_proj <- inception_4c/pool
I0403 18:43:09.445722  7293 net.cpp:399] inception_4c/pool_proj -> inception_4c/pool_proj
I0403 18:43:09.446943  7293 net.cpp:141] Setting up inception_4c/pool_proj
I0403 18:43:09.446976  7293 net.cpp:148] Top shape: 24 64 14 14 (301056)
I0403 18:43:09.447010  7293 net.cpp:156] Memory required for data: 1061809440
I0403 18:43:09.447031  7293 layer_factory.hpp:77] Creating layer inception_4c/relu_pool_proj
I0403 18:43:09.447051  7293 net.cpp:91] Creating Layer inception_4c/relu_pool_proj
I0403 18:43:09.447068  7293 net.cpp:425] inception_4c/relu_pool_proj <- inception_4c/pool_proj
I0403 18:43:09.447085  7293 net.cpp:386] inception_4c/relu_pool_proj -> inception_4c/pool_proj (in-place)
I0403 18:43:09.447273  7293 net.cpp:141] Setting up inception_4c/relu_pool_proj
I0403 18:43:09.447299  7293 net.cpp:148] Top shape: 24 64 14 14 (301056)
I0403 18:43:09.447314  7293 net.cpp:156] Memory required for data: 1063013664
I0403 18:43:09.447329  7293 layer_factory.hpp:77] Creating layer inception_4c/output
I0403 18:43:09.447345  7293 net.cpp:91] Creating Layer inception_4c/output
I0403 18:43:09.447360  7293 net.cpp:425] inception_4c/output <- inception_4c/1x1
I0403 18:43:09.447376  7293 net.cpp:425] inception_4c/output <- inception_4c/3x3
I0403 18:43:09.447391  7293 net.cpp:425] inception_4c/output <- inception_4c/5x5
I0403 18:43:09.447407  7293 net.cpp:425] inception_4c/output <- inception_4c/pool_proj
I0403 18:43:09.447427  7293 net.cpp:399] inception_4c/output -> inception_4c/output
I0403 18:43:09.447473  7293 net.cpp:141] Setting up inception_4c/output
I0403 18:43:09.447495  7293 net.cpp:148] Top shape: 24 512 14 14 (2408448)
I0403 18:43:09.447510  7293 net.cpp:156] Memory required for data: 1072647456
I0403 18:43:09.447525  7293 layer_factory.hpp:77] Creating layer inception_4c/output_inception_4c/output_0_split
I0403 18:43:09.447543  7293 net.cpp:91] Creating Layer inception_4c/output_inception_4c/output_0_split
I0403 18:43:09.447559  7293 net.cpp:425] inception_4c/output_inception_4c/output_0_split <- inception_4c/output
I0403 18:43:09.447577  7293 net.cpp:399] inception_4c/output_inception_4c/output_0_split -> inception_4c/output_inception_4c/output_0_split_0
I0403 18:43:09.447599  7293 net.cpp:399] inception_4c/output_inception_4c/output_0_split -> inception_4c/output_inception_4c/output_0_split_1
I0403 18:43:09.447620  7293 net.cpp:399] inception_4c/output_inception_4c/output_0_split -> inception_4c/output_inception_4c/output_0_split_2
I0403 18:43:09.447640  7293 net.cpp:399] inception_4c/output_inception_4c/output_0_split -> inception_4c/output_inception_4c/output_0_split_3
I0403 18:43:09.447726  7293 net.cpp:141] Setting up inception_4c/output_inception_4c/output_0_split
I0403 18:43:09.447749  7293 net.cpp:148] Top shape: 24 512 14 14 (2408448)
I0403 18:43:09.447767  7293 net.cpp:148] Top shape: 24 512 14 14 (2408448)
I0403 18:43:09.447782  7293 net.cpp:148] Top shape: 24 512 14 14 (2408448)
I0403 18:43:09.447798  7293 net.cpp:148] Top shape: 24 512 14 14 (2408448)
I0403 18:43:09.447811  7293 net.cpp:156] Memory required for data: 1111182624
I0403 18:43:09.447825  7293 layer_factory.hpp:77] Creating layer inception_4d/1x1
I0403 18:43:09.447847  7293 net.cpp:91] Creating Layer inception_4d/1x1
I0403 18:43:09.447865  7293 net.cpp:425] inception_4d/1x1 <- inception_4c/output_inception_4c/output_0_split_0
I0403 18:43:09.447886  7293 net.cpp:399] inception_4d/1x1 -> inception_4d/1x1
I0403 18:43:09.449291  7293 net.cpp:141] Setting up inception_4d/1x1
I0403 18:43:09.449323  7293 net.cpp:148] Top shape: 24 112 14 14 (526848)
I0403 18:43:09.449342  7293 net.cpp:156] Memory required for data: 1113290016
I0403 18:43:09.449362  7293 layer_factory.hpp:77] Creating layer inception_4d/relu_1x1
I0403 18:43:09.449383  7293 net.cpp:91] Creating Layer inception_4d/relu_1x1
I0403 18:43:09.449400  7293 net.cpp:425] inception_4d/relu_1x1 <- inception_4d/1x1
I0403 18:43:09.449420  7293 net.cpp:386] inception_4d/relu_1x1 -> inception_4d/1x1 (in-place)
I0403 18:43:09.449622  7293 net.cpp:141] Setting up inception_4d/relu_1x1
I0403 18:43:09.449647  7293 net.cpp:148] Top shape: 24 112 14 14 (526848)
I0403 18:43:09.449662  7293 net.cpp:156] Memory required for data: 1115397408
I0403 18:43:09.449677  7293 layer_factory.hpp:77] Creating layer inception_4d/3x3_reduce
I0403 18:43:09.449714  7293 net.cpp:91] Creating Layer inception_4d/3x3_reduce
I0403 18:43:09.449734  7293 net.cpp:425] inception_4d/3x3_reduce <- inception_4c/output_inception_4c/output_0_split_1
I0403 18:43:09.449753  7293 net.cpp:399] inception_4d/3x3_reduce -> inception_4d/3x3_reduce
I0403 18:43:09.451287  7293 net.cpp:141] Setting up inception_4d/3x3_reduce
I0403 18:43:09.451316  7293 net.cpp:148] Top shape: 24 144 14 14 (677376)
I0403 18:43:09.451335  7293 net.cpp:156] Memory required for data: 1118106912
I0403 18:43:09.451354  7293 layer_factory.hpp:77] Creating layer inception_4d/relu_3x3_reduce
I0403 18:43:09.451372  7293 net.cpp:91] Creating Layer inception_4d/relu_3x3_reduce
I0403 18:43:09.451390  7293 net.cpp:425] inception_4d/relu_3x3_reduce <- inception_4d/3x3_reduce
I0403 18:43:09.451409  7293 net.cpp:386] inception_4d/relu_3x3_reduce -> inception_4d/3x3_reduce (in-place)
I0403 18:43:09.451702  7293 net.cpp:141] Setting up inception_4d/relu_3x3_reduce
I0403 18:43:09.451730  7293 net.cpp:148] Top shape: 24 144 14 14 (677376)
I0403 18:43:09.451747  7293 net.cpp:156] Memory required for data: 1120816416
I0403 18:43:09.451762  7293 layer_factory.hpp:77] Creating layer inception_4d/3x3
I0403 18:43:09.451784  7293 net.cpp:91] Creating Layer inception_4d/3x3
I0403 18:43:09.451803  7293 net.cpp:425] inception_4d/3x3 <- inception_4d/3x3_reduce
I0403 18:43:09.451828  7293 net.cpp:399] inception_4d/3x3 -> inception_4d/3x3
I0403 18:43:09.456130  7293 net.cpp:141] Setting up inception_4d/3x3
I0403 18:43:09.456161  7293 net.cpp:148] Top shape: 24 288 14 14 (1354752)
I0403 18:43:09.456178  7293 net.cpp:156] Memory required for data: 1126235424
I0403 18:43:09.456198  7293 layer_factory.hpp:77] Creating layer inception_4d/relu_3x3
I0403 18:43:09.456219  7293 net.cpp:91] Creating Layer inception_4d/relu_3x3
I0403 18:43:09.456236  7293 net.cpp:425] inception_4d/relu_3x3 <- inception_4d/3x3
I0403 18:43:09.456254  7293 net.cpp:386] inception_4d/relu_3x3 -> inception_4d/3x3 (in-place)
I0403 18:43:09.456441  7293 net.cpp:141] Setting up inception_4d/relu_3x3
I0403 18:43:09.456470  7293 net.cpp:148] Top shape: 24 288 14 14 (1354752)
I0403 18:43:09.456485  7293 net.cpp:156] Memory required for data: 1131654432
I0403 18:43:09.456499  7293 layer_factory.hpp:77] Creating layer inception_4d/5x5_reduce
I0403 18:43:09.456521  7293 net.cpp:91] Creating Layer inception_4d/5x5_reduce
I0403 18:43:09.456539  7293 net.cpp:425] inception_4d/5x5_reduce <- inception_4c/output_inception_4c/output_0_split_2
I0403 18:43:09.456558  7293 net.cpp:399] inception_4d/5x5_reduce -> inception_4d/5x5_reduce
I0403 18:43:09.457743  7293 net.cpp:141] Setting up inception_4d/5x5_reduce
I0403 18:43:09.457773  7293 net.cpp:148] Top shape: 24 32 14 14 (150528)
I0403 18:43:09.457789  7293 net.cpp:156] Memory required for data: 1132256544
I0403 18:43:09.457808  7293 layer_factory.hpp:77] Creating layer inception_4d/relu_5x5_reduce
I0403 18:43:09.457829  7293 net.cpp:91] Creating Layer inception_4d/relu_5x5_reduce
I0403 18:43:09.457846  7293 net.cpp:425] inception_4d/relu_5x5_reduce <- inception_4d/5x5_reduce
I0403 18:43:09.457864  7293 net.cpp:386] inception_4d/relu_5x5_reduce -> inception_4d/5x5_reduce (in-place)
I0403 18:43:09.458057  7293 net.cpp:141] Setting up inception_4d/relu_5x5_reduce
I0403 18:43:09.458084  7293 net.cpp:148] Top shape: 24 32 14 14 (150528)
I0403 18:43:09.458101  7293 net.cpp:156] Memory required for data: 1132858656
I0403 18:43:09.458115  7293 layer_factory.hpp:77] Creating layer inception_4d/5x5
I0403 18:43:09.458137  7293 net.cpp:91] Creating Layer inception_4d/5x5
I0403 18:43:09.458155  7293 net.cpp:425] inception_4d/5x5 <- inception_4d/5x5_reduce
I0403 18:43:09.458173  7293 net.cpp:399] inception_4d/5x5 -> inception_4d/5x5
I0403 18:43:09.459651  7293 net.cpp:141] Setting up inception_4d/5x5
I0403 18:43:09.459682  7293 net.cpp:148] Top shape: 24 64 14 14 (301056)
I0403 18:43:09.459698  7293 net.cpp:156] Memory required for data: 1134062880
I0403 18:43:09.459718  7293 layer_factory.hpp:77] Creating layer inception_4d/relu_5x5
I0403 18:43:09.459751  7293 net.cpp:91] Creating Layer inception_4d/relu_5x5
I0403 18:43:09.459769  7293 net.cpp:425] inception_4d/relu_5x5 <- inception_4d/5x5
I0403 18:43:09.459789  7293 net.cpp:386] inception_4d/relu_5x5 -> inception_4d/5x5 (in-place)
I0403 18:43:09.460090  7293 net.cpp:141] Setting up inception_4d/relu_5x5
I0403 18:43:09.460119  7293 net.cpp:148] Top shape: 24 64 14 14 (301056)
I0403 18:43:09.460134  7293 net.cpp:156] Memory required for data: 1135267104
I0403 18:43:09.460150  7293 layer_factory.hpp:77] Creating layer inception_4d/pool
I0403 18:43:09.460167  7293 net.cpp:91] Creating Layer inception_4d/pool
I0403 18:43:09.460183  7293 net.cpp:425] inception_4d/pool <- inception_4c/output_inception_4c/output_0_split_3
I0403 18:43:09.460203  7293 net.cpp:399] inception_4d/pool -> inception_4d/pool
I0403 18:43:09.460273  7293 net.cpp:141] Setting up inception_4d/pool
I0403 18:43:09.460299  7293 net.cpp:148] Top shape: 24 512 14 14 (2408448)
I0403 18:43:09.460314  7293 net.cpp:156] Memory required for data: 1144900896
I0403 18:43:09.460328  7293 layer_factory.hpp:77] Creating layer inception_4d/pool_proj
I0403 18:43:09.460350  7293 net.cpp:91] Creating Layer inception_4d/pool_proj
I0403 18:43:09.460367  7293 net.cpp:425] inception_4d/pool_proj <- inception_4d/pool
I0403 18:43:09.460388  7293 net.cpp:399] inception_4d/pool_proj -> inception_4d/pool_proj
I0403 18:43:09.462188  7293 net.cpp:141] Setting up inception_4d/pool_proj
I0403 18:43:09.462218  7293 net.cpp:148] Top shape: 24 64 14 14 (301056)
I0403 18:43:09.462234  7293 net.cpp:156] Memory required for data: 1146105120
I0403 18:43:09.462252  7293 layer_factory.hpp:77] Creating layer inception_4d/relu_pool_proj
I0403 18:43:09.462285  7293 net.cpp:91] Creating Layer inception_4d/relu_pool_proj
I0403 18:43:09.462306  7293 net.cpp:425] inception_4d/relu_pool_proj <- inception_4d/pool_proj
I0403 18:43:09.462323  7293 net.cpp:386] inception_4d/relu_pool_proj -> inception_4d/pool_proj (in-place)
I0403 18:43:09.462509  7293 net.cpp:141] Setting up inception_4d/relu_pool_proj
I0403 18:43:09.462537  7293 net.cpp:148] Top shape: 24 64 14 14 (301056)
I0403 18:43:09.462553  7293 net.cpp:156] Memory required for data: 1147309344
I0403 18:43:09.462568  7293 layer_factory.hpp:77] Creating layer inception_4d/output
I0403 18:43:09.462585  7293 net.cpp:91] Creating Layer inception_4d/output
I0403 18:43:09.462600  7293 net.cpp:425] inception_4d/output <- inception_4d/1x1
I0403 18:43:09.462616  7293 net.cpp:425] inception_4d/output <- inception_4d/3x3
I0403 18:43:09.462646  7293 net.cpp:425] inception_4d/output <- inception_4d/5x5
I0403 18:43:09.462661  7293 net.cpp:425] inception_4d/output <- inception_4d/pool_proj
I0403 18:43:09.462677  7293 net.cpp:399] inception_4d/output -> inception_4d/output
I0403 18:43:09.462723  7293 net.cpp:141] Setting up inception_4d/output
I0403 18:43:09.462746  7293 net.cpp:148] Top shape: 24 528 14 14 (2483712)
I0403 18:43:09.462760  7293 net.cpp:156] Memory required for data: 1157244192
I0403 18:43:09.462774  7293 layer_factory.hpp:77] Creating layer inception_4d/output_inception_4d/output_0_split
I0403 18:43:09.462795  7293 net.cpp:91] Creating Layer inception_4d/output_inception_4d/output_0_split
I0403 18:43:09.462810  7293 net.cpp:425] inception_4d/output_inception_4d/output_0_split <- inception_4d/output
I0403 18:43:09.462827  7293 net.cpp:399] inception_4d/output_inception_4d/output_0_split -> inception_4d/output_inception_4d/output_0_split_0
I0403 18:43:09.462846  7293 net.cpp:399] inception_4d/output_inception_4d/output_0_split -> inception_4d/output_inception_4d/output_0_split_1
I0403 18:43:09.462867  7293 net.cpp:399] inception_4d/output_inception_4d/output_0_split -> inception_4d/output_inception_4d/output_0_split_2
I0403 18:43:09.462888  7293 net.cpp:399] inception_4d/output_inception_4d/output_0_split -> inception_4d/output_inception_4d/output_0_split_3
I0403 18:43:09.462909  7293 net.cpp:399] inception_4d/output_inception_4d/output_0_split -> inception_4d/output_inception_4d/output_0_split_4
I0403 18:43:09.463011  7293 net.cpp:141] Setting up inception_4d/output_inception_4d/output_0_split
I0403 18:43:09.463047  7293 net.cpp:148] Top shape: 24 528 14 14 (2483712)
I0403 18:43:09.463063  7293 net.cpp:148] Top shape: 24 528 14 14 (2483712)
I0403 18:43:09.463078  7293 net.cpp:148] Top shape: 24 528 14 14 (2483712)
I0403 18:43:09.463093  7293 net.cpp:148] Top shape: 24 528 14 14 (2483712)
I0403 18:43:09.463109  7293 net.cpp:148] Top shape: 24 528 14 14 (2483712)
I0403 18:43:09.463122  7293 net.cpp:156] Memory required for data: 1206918432
I0403 18:43:09.463136  7293 layer_factory.hpp:77] Creating layer loss2/ave_pool
I0403 18:43:09.463157  7293 net.cpp:91] Creating Layer loss2/ave_pool
I0403 18:43:09.463174  7293 net.cpp:425] loss2/ave_pool <- inception_4d/output_inception_4d/output_0_split_0
I0403 18:43:09.463192  7293 net.cpp:399] loss2/ave_pool -> loss2/ave_pool
I0403 18:43:09.463505  7293 net.cpp:141] Setting up loss2/ave_pool
I0403 18:43:09.463531  7293 net.cpp:148] Top shape: 24 528 4 4 (202752)
I0403 18:43:09.463547  7293 net.cpp:156] Memory required for data: 1207729440
I0403 18:43:09.463562  7293 layer_factory.hpp:77] Creating layer loss2/conv
I0403 18:43:09.463585  7293 net.cpp:91] Creating Layer loss2/conv
I0403 18:43:09.463603  7293 net.cpp:425] loss2/conv <- loss2/ave_pool
I0403 18:43:09.463624  7293 net.cpp:399] loss2/conv -> loss2/conv
I0403 18:43:09.465528  7293 net.cpp:141] Setting up loss2/conv
I0403 18:43:09.465559  7293 net.cpp:148] Top shape: 24 128 4 4 (49152)
I0403 18:43:09.465590  7293 net.cpp:156] Memory required for data: 1207926048
I0403 18:43:09.465607  7293 layer_factory.hpp:77] Creating layer loss2/relu_conv
I0403 18:43:09.465626  7293 net.cpp:91] Creating Layer loss2/relu_conv
I0403 18:43:09.465641  7293 net.cpp:425] loss2/relu_conv <- loss2/conv
I0403 18:43:09.465659  7293 net.cpp:386] loss2/relu_conv -> loss2/conv (in-place)
I0403 18:43:09.465944  7293 net.cpp:141] Setting up loss2/relu_conv
I0403 18:43:09.465970  7293 net.cpp:148] Top shape: 24 128 4 4 (49152)
I0403 18:43:09.465986  7293 net.cpp:156] Memory required for data: 1208122656
I0403 18:43:09.466001  7293 layer_factory.hpp:77] Creating layer loss2/fc
I0403 18:43:09.466019  7293 net.cpp:91] Creating Layer loss2/fc
I0403 18:43:09.466037  7293 net.cpp:425] loss2/fc <- loss2/conv
I0403 18:43:09.466056  7293 net.cpp:399] loss2/fc -> loss2/fc
I0403 18:43:09.483844  7293 net.cpp:141] Setting up loss2/fc
I0403 18:43:09.483882  7293 net.cpp:148] Top shape: 24 1024 (24576)
I0403 18:43:09.483898  7293 net.cpp:156] Memory required for data: 1208220960
I0403 18:43:09.483918  7293 layer_factory.hpp:77] Creating layer loss2/relu_fc
I0403 18:43:09.483937  7293 net.cpp:91] Creating Layer loss2/relu_fc
I0403 18:43:09.483953  7293 net.cpp:425] loss2/relu_fc <- loss2/fc
I0403 18:43:09.483973  7293 net.cpp:386] loss2/relu_fc -> loss2/fc (in-place)
I0403 18:43:09.484314  7293 net.cpp:141] Setting up loss2/relu_fc
I0403 18:43:09.484346  7293 net.cpp:148] Top shape: 24 1024 (24576)
I0403 18:43:09.484365  7293 net.cpp:156] Memory required for data: 1208319264
I0403 18:43:09.484382  7293 layer_factory.hpp:77] Creating layer loss2/drop_fc
I0403 18:43:09.484402  7293 net.cpp:91] Creating Layer loss2/drop_fc
I0403 18:43:09.484419  7293 net.cpp:425] loss2/drop_fc <- loss2/fc
I0403 18:43:09.484437  7293 net.cpp:386] loss2/drop_fc -> loss2/fc (in-place)
I0403 18:43:09.484503  7293 net.cpp:141] Setting up loss2/drop_fc
I0403 18:43:09.484527  7293 net.cpp:148] Top shape: 24 1024 (24576)
I0403 18:43:09.484556  7293 net.cpp:156] Memory required for data: 1208417568
I0403 18:43:09.484572  7293 layer_factory.hpp:77] Creating layer loss2/classifier_plantvillage
I0403 18:43:09.484597  7293 net.cpp:91] Creating Layer loss2/classifier_plantvillage
I0403 18:43:09.484617  7293 net.cpp:425] loss2/classifier_plantvillage <- loss2/fc
I0403 18:43:09.484637  7293 net.cpp:399] loss2/classifier_plantvillage -> loss2/classifier_plantvillage
I0403 18:43:09.485052  7293 net.cpp:141] Setting up loss2/classifier_plantvillage
I0403 18:43:09.485080  7293 net.cpp:148] Top shape: 24 38 (912)
I0403 18:43:09.485111  7293 net.cpp:156] Memory required for data: 1208421216
I0403 18:43:09.485131  7293 layer_factory.hpp:77] Creating layer loss2/classifier_plantvillage_loss2/classifier_plantvillage_0_split
I0403 18:43:09.485160  7293 net.cpp:91] Creating Layer loss2/classifier_plantvillage_loss2/classifier_plantvillage_0_split
I0403 18:43:09.485177  7293 net.cpp:425] loss2/classifier_plantvillage_loss2/classifier_plantvillage_0_split <- loss2/classifier_plantvillage
I0403 18:43:09.485195  7293 net.cpp:399] loss2/classifier_plantvillage_loss2/classifier_plantvillage_0_split -> loss2/classifier_plantvillage_loss2/classifier_plantvillage_0_split_0
I0403 18:43:09.485218  7293 net.cpp:399] loss2/classifier_plantvillage_loss2/classifier_plantvillage_0_split -> loss2/classifier_plantvillage_loss2/classifier_plantvillage_0_split_1
I0403 18:43:09.485237  7293 net.cpp:399] loss2/classifier_plantvillage_loss2/classifier_plantvillage_0_split -> loss2/classifier_plantvillage_loss2/classifier_plantvillage_0_split_2
I0403 18:43:09.485332  7293 net.cpp:141] Setting up loss2/classifier_plantvillage_loss2/classifier_plantvillage_0_split
I0403 18:43:09.485358  7293 net.cpp:148] Top shape: 24 38 (912)
I0403 18:43:09.485376  7293 net.cpp:148] Top shape: 24 38 (912)
I0403 18:43:09.485393  7293 net.cpp:148] Top shape: 24 38 (912)
I0403 18:43:09.485406  7293 net.cpp:156] Memory required for data: 1208432160
I0403 18:43:09.485421  7293 layer_factory.hpp:77] Creating layer inception_4e/1x1
I0403 18:43:09.485443  7293 net.cpp:91] Creating Layer inception_4e/1x1
I0403 18:43:09.485460  7293 net.cpp:425] inception_4e/1x1 <- inception_4d/output_inception_4d/output_0_split_1
I0403 18:43:09.485481  7293 net.cpp:399] inception_4e/1x1 -> inception_4e/1x1
I0403 18:43:09.487268  7293 net.cpp:141] Setting up inception_4e/1x1
I0403 18:43:09.487303  7293 net.cpp:148] Top shape: 24 256 14 14 (1204224)
I0403 18:43:09.487323  7293 net.cpp:156] Memory required for data: 1213249056
I0403 18:43:09.487342  7293 layer_factory.hpp:77] Creating layer inception_4e/relu_1x1
I0403 18:43:09.487360  7293 net.cpp:91] Creating Layer inception_4e/relu_1x1
I0403 18:43:09.487376  7293 net.cpp:425] inception_4e/relu_1x1 <- inception_4e/1x1
I0403 18:43:09.487396  7293 net.cpp:386] inception_4e/relu_1x1 -> inception_4e/1x1 (in-place)
I0403 18:43:09.487685  7293 net.cpp:141] Setting up inception_4e/relu_1x1
I0403 18:43:09.487715  7293 net.cpp:148] Top shape: 24 256 14 14 (1204224)
I0403 18:43:09.487731  7293 net.cpp:156] Memory required for data: 1218065952
I0403 18:43:09.487746  7293 layer_factory.hpp:77] Creating layer inception_4e/3x3_reduce
I0403 18:43:09.487767  7293 net.cpp:91] Creating Layer inception_4e/3x3_reduce
I0403 18:43:09.487784  7293 net.cpp:425] inception_4e/3x3_reduce <- inception_4d/output_inception_4d/output_0_split_2
I0403 18:43:09.487805  7293 net.cpp:399] inception_4e/3x3_reduce -> inception_4e/3x3_reduce
I0403 18:43:09.489938  7293 net.cpp:141] Setting up inception_4e/3x3_reduce
I0403 18:43:09.489971  7293 net.cpp:148] Top shape: 24 160 14 14 (752640)
I0403 18:43:09.489989  7293 net.cpp:156] Memory required for data: 1221076512
I0403 18:43:09.490008  7293 layer_factory.hpp:77] Creating layer inception_4e/relu_3x3_reduce
I0403 18:43:09.490027  7293 net.cpp:91] Creating Layer inception_4e/relu_3x3_reduce
I0403 18:43:09.490044  7293 net.cpp:425] inception_4e/relu_3x3_reduce <- inception_4e/3x3_reduce
I0403 18:43:09.490062  7293 net.cpp:386] inception_4e/relu_3x3_reduce -> inception_4e/3x3_reduce (in-place)
I0403 18:43:09.490249  7293 net.cpp:141] Setting up inception_4e/relu_3x3_reduce
I0403 18:43:09.490283  7293 net.cpp:148] Top shape: 24 160 14 14 (752640)
I0403 18:43:09.490299  7293 net.cpp:156] Memory required for data: 1224087072
I0403 18:43:09.490314  7293 layer_factory.hpp:77] Creating layer inception_4e/3x3
I0403 18:43:09.490347  7293 net.cpp:91] Creating Layer inception_4e/3x3
I0403 18:43:09.490365  7293 net.cpp:425] inception_4e/3x3 <- inception_4e/3x3_reduce
I0403 18:43:09.490386  7293 net.cpp:399] inception_4e/3x3 -> inception_4e/3x3
I0403 18:43:09.495347  7293 net.cpp:141] Setting up inception_4e/3x3
I0403 18:43:09.495390  7293 net.cpp:148] Top shape: 24 320 14 14 (1505280)
I0403 18:43:09.495407  7293 net.cpp:156] Memory required for data: 1230108192
I0403 18:43:09.495426  7293 layer_factory.hpp:77] Creating layer inception_4e/relu_3x3
I0403 18:43:09.495447  7293 net.cpp:91] Creating Layer inception_4e/relu_3x3
I0403 18:43:09.495466  7293 net.cpp:425] inception_4e/relu_3x3 <- inception_4e/3x3
I0403 18:43:09.495484  7293 net.cpp:386] inception_4e/relu_3x3 -> inception_4e/3x3 (in-place)
I0403 18:43:09.495775  7293 net.cpp:141] Setting up inception_4e/relu_3x3
I0403 18:43:09.495801  7293 net.cpp:148] Top shape: 24 320 14 14 (1505280)
I0403 18:43:09.495817  7293 net.cpp:156] Memory required for data: 1236129312
I0403 18:43:09.495832  7293 layer_factory.hpp:77] Creating layer inception_4e/5x5_reduce
I0403 18:43:09.495854  7293 net.cpp:91] Creating Layer inception_4e/5x5_reduce
I0403 18:43:09.495873  7293 net.cpp:425] inception_4e/5x5_reduce <- inception_4d/output_inception_4d/output_0_split_3
I0403 18:43:09.495895  7293 net.cpp:399] inception_4e/5x5_reduce -> inception_4e/5x5_reduce
I0403 18:43:09.496943  7293 net.cpp:141] Setting up inception_4e/5x5_reduce
I0403 18:43:09.496975  7293 net.cpp:148] Top shape: 24 32 14 14 (150528)
I0403 18:43:09.496992  7293 net.cpp:156] Memory required for data: 1236731424
I0403 18:43:09.497011  7293 layer_factory.hpp:77] Creating layer inception_4e/relu_5x5_reduce
I0403 18:43:09.497030  7293 net.cpp:91] Creating Layer inception_4e/relu_5x5_reduce
I0403 18:43:09.497047  7293 net.cpp:425] inception_4e/relu_5x5_reduce <- inception_4e/5x5_reduce
I0403 18:43:09.497067  7293 net.cpp:386] inception_4e/relu_5x5_reduce -> inception_4e/5x5_reduce (in-place)
I0403 18:43:09.497375  7293 net.cpp:141] Setting up inception_4e/relu_5x5_reduce
I0403 18:43:09.497406  7293 net.cpp:148] Top shape: 24 32 14 14 (150528)
I0403 18:43:09.497422  7293 net.cpp:156] Memory required for data: 1237333536
I0403 18:43:09.497438  7293 layer_factory.hpp:77] Creating layer inception_4e/5x5
I0403 18:43:09.497478  7293 net.cpp:91] Creating Layer inception_4e/5x5
I0403 18:43:09.497498  7293 net.cpp:425] inception_4e/5x5 <- inception_4e/5x5_reduce
I0403 18:43:09.497516  7293 net.cpp:399] inception_4e/5x5 -> inception_4e/5x5
I0403 18:43:09.499327  7293 net.cpp:141] Setting up inception_4e/5x5
I0403 18:43:09.499356  7293 net.cpp:148] Top shape: 24 128 14 14 (602112)
I0403 18:43:09.499372  7293 net.cpp:156] Memory required for data: 1239741984
I0403 18:43:09.499392  7293 layer_factory.hpp:77] Creating layer inception_4e/relu_5x5
I0403 18:43:09.499413  7293 net.cpp:91] Creating Layer inception_4e/relu_5x5
I0403 18:43:09.499429  7293 net.cpp:425] inception_4e/relu_5x5 <- inception_4e/5x5
I0403 18:43:09.499447  7293 net.cpp:386] inception_4e/relu_5x5 -> inception_4e/5x5 (in-place)
I0403 18:43:09.499640  7293 net.cpp:141] Setting up inception_4e/relu_5x5
I0403 18:43:09.499665  7293 net.cpp:148] Top shape: 24 128 14 14 (602112)
I0403 18:43:09.499682  7293 net.cpp:156] Memory required for data: 1242150432
I0403 18:43:09.499697  7293 layer_factory.hpp:77] Creating layer inception_4e/pool
I0403 18:43:09.499716  7293 net.cpp:91] Creating Layer inception_4e/pool
I0403 18:43:09.499732  7293 net.cpp:425] inception_4e/pool <- inception_4d/output_inception_4d/output_0_split_4
I0403 18:43:09.499752  7293 net.cpp:399] inception_4e/pool -> inception_4e/pool
I0403 18:43:09.499822  7293 net.cpp:141] Setting up inception_4e/pool
I0403 18:43:09.499847  7293 net.cpp:148] Top shape: 24 528 14 14 (2483712)
I0403 18:43:09.499862  7293 net.cpp:156] Memory required for data: 1252085280
I0403 18:43:09.499877  7293 layer_factory.hpp:77] Creating layer inception_4e/pool_proj
I0403 18:43:09.499902  7293 net.cpp:91] Creating Layer inception_4e/pool_proj
I0403 18:43:09.499918  7293 net.cpp:425] inception_4e/pool_proj <- inception_4e/pool
I0403 18:43:09.499938  7293 net.cpp:399] inception_4e/pool_proj -> inception_4e/pool_proj
I0403 18:43:09.501456  7293 net.cpp:141] Setting up inception_4e/pool_proj
I0403 18:43:09.501495  7293 net.cpp:148] Top shape: 24 128 14 14 (602112)
I0403 18:43:09.501513  7293 net.cpp:156] Memory required for data: 1254493728
I0403 18:43:09.501533  7293 layer_factory.hpp:77] Creating layer inception_4e/relu_pool_proj
I0403 18:43:09.501554  7293 net.cpp:91] Creating Layer inception_4e/relu_pool_proj
I0403 18:43:09.501584  7293 net.cpp:425] inception_4e/relu_pool_proj <- inception_4e/pool_proj
I0403 18:43:09.501600  7293 net.cpp:386] inception_4e/relu_pool_proj -> inception_4e/pool_proj (in-place)
I0403 18:43:09.501884  7293 net.cpp:141] Setting up inception_4e/relu_pool_proj
I0403 18:43:09.501910  7293 net.cpp:148] Top shape: 24 128 14 14 (602112)
I0403 18:43:09.501924  7293 net.cpp:156] Memory required for data: 1256902176
I0403 18:43:09.501938  7293 layer_factory.hpp:77] Creating layer inception_4e/output
I0403 18:43:09.501957  7293 net.cpp:91] Creating Layer inception_4e/output
I0403 18:43:09.501973  7293 net.cpp:425] inception_4e/output <- inception_4e/1x1
I0403 18:43:09.501991  7293 net.cpp:425] inception_4e/output <- inception_4e/3x3
I0403 18:43:09.502007  7293 net.cpp:425] inception_4e/output <- inception_4e/5x5
I0403 18:43:09.502020  7293 net.cpp:425] inception_4e/output <- inception_4e/pool_proj
I0403 18:43:09.502037  7293 net.cpp:399] inception_4e/output -> inception_4e/output
I0403 18:43:09.502085  7293 net.cpp:141] Setting up inception_4e/output
I0403 18:43:09.502109  7293 net.cpp:148] Top shape: 24 832 14 14 (3913728)
I0403 18:43:09.502122  7293 net.cpp:156] Memory required for data: 1272557088
I0403 18:43:09.502137  7293 layer_factory.hpp:77] Creating layer pool4/3x3_s2
I0403 18:43:09.502154  7293 net.cpp:91] Creating Layer pool4/3x3_s2
I0403 18:43:09.502169  7293 net.cpp:425] pool4/3x3_s2 <- inception_4e/output
I0403 18:43:09.502189  7293 net.cpp:399] pool4/3x3_s2 -> pool4/3x3_s2
I0403 18:43:09.502254  7293 net.cpp:141] Setting up pool4/3x3_s2
I0403 18:43:09.502288  7293 net.cpp:148] Top shape: 24 832 7 7 (978432)
I0403 18:43:09.502305  7293 net.cpp:156] Memory required for data: 1276470816
I0403 18:43:09.502320  7293 layer_factory.hpp:77] Creating layer pool4/3x3_s2_pool4/3x3_s2_0_split
I0403 18:43:09.502339  7293 net.cpp:91] Creating Layer pool4/3x3_s2_pool4/3x3_s2_0_split
I0403 18:43:09.502357  7293 net.cpp:425] pool4/3x3_s2_pool4/3x3_s2_0_split <- pool4/3x3_s2
I0403 18:43:09.502378  7293 net.cpp:399] pool4/3x3_s2_pool4/3x3_s2_0_split -> pool4/3x3_s2_pool4/3x3_s2_0_split_0
I0403 18:43:09.502399  7293 net.cpp:399] pool4/3x3_s2_pool4/3x3_s2_0_split -> pool4/3x3_s2_pool4/3x3_s2_0_split_1
I0403 18:43:09.502419  7293 net.cpp:399] pool4/3x3_s2_pool4/3x3_s2_0_split -> pool4/3x3_s2_pool4/3x3_s2_0_split_2
I0403 18:43:09.502439  7293 net.cpp:399] pool4/3x3_s2_pool4/3x3_s2_0_split -> pool4/3x3_s2_pool4/3x3_s2_0_split_3
I0403 18:43:09.502526  7293 net.cpp:141] Setting up pool4/3x3_s2_pool4/3x3_s2_0_split
I0403 18:43:09.502550  7293 net.cpp:148] Top shape: 24 832 7 7 (978432)
I0403 18:43:09.502568  7293 net.cpp:148] Top shape: 24 832 7 7 (978432)
I0403 18:43:09.502583  7293 net.cpp:148] Top shape: 24 832 7 7 (978432)
I0403 18:43:09.502599  7293 net.cpp:148] Top shape: 24 832 7 7 (978432)
I0403 18:43:09.502611  7293 net.cpp:156] Memory required for data: 1292125728
I0403 18:43:09.502625  7293 layer_factory.hpp:77] Creating layer inception_5a/1x1
I0403 18:43:09.502645  7293 net.cpp:91] Creating Layer inception_5a/1x1
I0403 18:43:09.502661  7293 net.cpp:425] inception_5a/1x1 <- pool4/3x3_s2_pool4/3x3_s2_0_split_0
I0403 18:43:09.502682  7293 net.cpp:399] inception_5a/1x1 -> inception_5a/1x1
I0403 18:43:09.505511  7293 net.cpp:141] Setting up inception_5a/1x1
I0403 18:43:09.505544  7293 net.cpp:148] Top shape: 24 256 7 7 (301056)
I0403 18:43:09.505563  7293 net.cpp:156] Memory required for data: 1293329952
I0403 18:43:09.505594  7293 layer_factory.hpp:77] Creating layer inception_5a/relu_1x1
I0403 18:43:09.505611  7293 net.cpp:91] Creating Layer inception_5a/relu_1x1
I0403 18:43:09.505627  7293 net.cpp:425] inception_5a/relu_1x1 <- inception_5a/1x1
I0403 18:43:09.505645  7293 net.cpp:386] inception_5a/relu_1x1 -> inception_5a/1x1 (in-place)
I0403 18:43:09.505947  7293 net.cpp:141] Setting up inception_5a/relu_1x1
I0403 18:43:09.505977  7293 net.cpp:148] Top shape: 24 256 7 7 (301056)
I0403 18:43:09.505995  7293 net.cpp:156] Memory required for data: 1294534176
I0403 18:43:09.506008  7293 layer_factory.hpp:77] Creating layer inception_5a/3x3_reduce
I0403 18:43:09.506031  7293 net.cpp:91] Creating Layer inception_5a/3x3_reduce
I0403 18:43:09.506047  7293 net.cpp:425] inception_5a/3x3_reduce <- pool4/3x3_s2_pool4/3x3_s2_0_split_1
I0403 18:43:09.506065  7293 net.cpp:399] inception_5a/3x3_reduce -> inception_5a/3x3_reduce
I0403 18:43:09.508452  7293 net.cpp:141] Setting up inception_5a/3x3_reduce
I0403 18:43:09.508484  7293 net.cpp:148] Top shape: 24 160 7 7 (188160)
I0403 18:43:09.508501  7293 net.cpp:156] Memory required for data: 1295286816
I0403 18:43:09.508519  7293 layer_factory.hpp:77] Creating layer inception_5a/relu_3x3_reduce
I0403 18:43:09.508539  7293 net.cpp:91] Creating Layer inception_5a/relu_3x3_reduce
I0403 18:43:09.508558  7293 net.cpp:425] inception_5a/relu_3x3_reduce <- inception_5a/3x3_reduce
I0403 18:43:09.508576  7293 net.cpp:386] inception_5a/relu_3x3_reduce -> inception_5a/3x3_reduce (in-place)
I0403 18:43:09.508759  7293 net.cpp:141] Setting up inception_5a/relu_3x3_reduce
I0403 18:43:09.508785  7293 net.cpp:148] Top shape: 24 160 7 7 (188160)
I0403 18:43:09.508800  7293 net.cpp:156] Memory required for data: 1296039456
I0403 18:43:09.508815  7293 layer_factory.hpp:77] Creating layer inception_5a/3x3
I0403 18:43:09.508836  7293 net.cpp:91] Creating Layer inception_5a/3x3
I0403 18:43:09.508853  7293 net.cpp:425] inception_5a/3x3 <- inception_5a/3x3_reduce
I0403 18:43:09.508872  7293 net.cpp:399] inception_5a/3x3 -> inception_5a/3x3
I0403 18:43:09.513980  7293 net.cpp:141] Setting up inception_5a/3x3
I0403 18:43:09.514014  7293 net.cpp:148] Top shape: 24 320 7 7 (376320)
I0403 18:43:09.514029  7293 net.cpp:156] Memory required for data: 1297544736
I0403 18:43:09.514047  7293 layer_factory.hpp:77] Creating layer inception_5a/relu_3x3
I0403 18:43:09.514068  7293 net.cpp:91] Creating Layer inception_5a/relu_3x3
I0403 18:43:09.514086  7293 net.cpp:425] inception_5a/relu_3x3 <- inception_5a/3x3
I0403 18:43:09.514104  7293 net.cpp:386] inception_5a/relu_3x3 -> inception_5a/3x3 (in-place)
I0403 18:43:09.514412  7293 net.cpp:141] Setting up inception_5a/relu_3x3
I0403 18:43:09.514441  7293 net.cpp:148] Top shape: 24 320 7 7 (376320)
I0403 18:43:09.514456  7293 net.cpp:156] Memory required for data: 1299050016
I0403 18:43:09.514472  7293 layer_factory.hpp:77] Creating layer inception_5a/5x5_reduce
I0403 18:43:09.514497  7293 net.cpp:91] Creating Layer inception_5a/5x5_reduce
I0403 18:43:09.514515  7293 net.cpp:425] inception_5a/5x5_reduce <- pool4/3x3_s2_pool4/3x3_s2_0_split_2
I0403 18:43:09.514535  7293 net.cpp:399] inception_5a/5x5_reduce -> inception_5a/5x5_reduce
I0403 18:43:09.515714  7293 net.cpp:141] Setting up inception_5a/5x5_reduce
I0403 18:43:09.515748  7293 net.cpp:148] Top shape: 24 32 7 7 (37632)
I0403 18:43:09.515764  7293 net.cpp:156] Memory required for data: 1299200544
I0403 18:43:09.515785  7293 layer_factory.hpp:77] Creating layer inception_5a/relu_5x5_reduce
I0403 18:43:09.515805  7293 net.cpp:91] Creating Layer inception_5a/relu_5x5_reduce
I0403 18:43:09.515821  7293 net.cpp:425] inception_5a/relu_5x5_reduce <- inception_5a/5x5_reduce
I0403 18:43:09.515841  7293 net.cpp:386] inception_5a/relu_5x5_reduce -> inception_5a/5x5_reduce (in-place)
I0403 18:43:09.516144  7293 net.cpp:141] Setting up inception_5a/relu_5x5_reduce
I0403 18:43:09.516170  7293 net.cpp:148] Top shape: 24 32 7 7 (37632)
I0403 18:43:09.516187  7293 net.cpp:156] Memory required for data: 1299351072
I0403 18:43:09.516202  7293 layer_factory.hpp:77] Creating layer inception_5a/5x5
I0403 18:43:09.516225  7293 net.cpp:91] Creating Layer inception_5a/5x5
I0403 18:43:09.516244  7293 net.cpp:425] inception_5a/5x5 <- inception_5a/5x5_reduce
I0403 18:43:09.516266  7293 net.cpp:399] inception_5a/5x5 -> inception_5a/5x5
I0403 18:43:09.518031  7293 net.cpp:141] Setting up inception_5a/5x5
I0403 18:43:09.518075  7293 net.cpp:148] Top shape: 24 128 7 7 (150528)
I0403 18:43:09.518092  7293 net.cpp:156] Memory required for data: 1299953184
I0403 18:43:09.518113  7293 layer_factory.hpp:77] Creating layer inception_5a/relu_5x5
I0403 18:43:09.518134  7293 net.cpp:91] Creating Layer inception_5a/relu_5x5
I0403 18:43:09.518153  7293 net.cpp:425] inception_5a/relu_5x5 <- inception_5a/5x5
I0403 18:43:09.518172  7293 net.cpp:386] inception_5a/relu_5x5 -> inception_5a/5x5 (in-place)
I0403 18:43:09.518373  7293 net.cpp:141] Setting up inception_5a/relu_5x5
I0403 18:43:09.518400  7293 net.cpp:148] Top shape: 24 128 7 7 (150528)
I0403 18:43:09.518416  7293 net.cpp:156] Memory required for data: 1300555296
I0403 18:43:09.518432  7293 layer_factory.hpp:77] Creating layer inception_5a/pool
I0403 18:43:09.518450  7293 net.cpp:91] Creating Layer inception_5a/pool
I0403 18:43:09.518466  7293 net.cpp:425] inception_5a/pool <- pool4/3x3_s2_pool4/3x3_s2_0_split_3
I0403 18:43:09.518486  7293 net.cpp:399] inception_5a/pool -> inception_5a/pool
I0403 18:43:09.518559  7293 net.cpp:141] Setting up inception_5a/pool
I0403 18:43:09.518584  7293 net.cpp:148] Top shape: 24 832 7 7 (978432)
I0403 18:43:09.518599  7293 net.cpp:156] Memory required for data: 1304469024
I0403 18:43:09.518615  7293 layer_factory.hpp:77] Creating layer inception_5a/pool_proj
I0403 18:43:09.518638  7293 net.cpp:91] Creating Layer inception_5a/pool_proj
I0403 18:43:09.518656  7293 net.cpp:425] inception_5a/pool_proj <- inception_5a/pool
I0403 18:43:09.518674  7293 net.cpp:399] inception_5a/pool_proj -> inception_5a/pool_proj
I0403 18:43:09.520990  7293 net.cpp:141] Setting up inception_5a/pool_proj
I0403 18:43:09.521023  7293 net.cpp:148] Top shape: 24 128 7 7 (150528)
I0403 18:43:09.521040  7293 net.cpp:156] Memory required for data: 1305071136
I0403 18:43:09.521061  7293 layer_factory.hpp:77] Creating layer inception_5a/relu_pool_proj
I0403 18:43:09.521082  7293 net.cpp:91] Creating Layer inception_5a/relu_pool_proj
I0403 18:43:09.521100  7293 net.cpp:425] inception_5a/relu_pool_proj <- inception_5a/pool_proj
I0403 18:43:09.521119  7293 net.cpp:386] inception_5a/relu_pool_proj -> inception_5a/pool_proj (in-place)
I0403 18:43:09.521442  7293 net.cpp:141] Setting up inception_5a/relu_pool_proj
I0403 18:43:09.521472  7293 net.cpp:148] Top shape: 24 128 7 7 (150528)
I0403 18:43:09.521491  7293 net.cpp:156] Memory required for data: 1305673248
I0403 18:43:09.521505  7293 layer_factory.hpp:77] Creating layer inception_5a/output
I0403 18:43:09.521528  7293 net.cpp:91] Creating Layer inception_5a/output
I0403 18:43:09.521548  7293 net.cpp:425] inception_5a/output <- inception_5a/1x1
I0403 18:43:09.521577  7293 net.cpp:425] inception_5a/output <- inception_5a/3x3
I0403 18:43:09.521595  7293 net.cpp:425] inception_5a/output <- inception_5a/5x5
I0403 18:43:09.521611  7293 net.cpp:425] inception_5a/output <- inception_5a/pool_proj
I0403 18:43:09.521628  7293 net.cpp:399] inception_5a/output -> inception_5a/output
I0403 18:43:09.521679  7293 net.cpp:141] Setting up inception_5a/output
I0403 18:43:09.521704  7293 net.cpp:148] Top shape: 24 832 7 7 (978432)
I0403 18:43:09.521719  7293 net.cpp:156] Memory required for data: 1309586976
I0403 18:43:09.521734  7293 layer_factory.hpp:77] Creating layer inception_5a/output_inception_5a/output_0_split
I0403 18:43:09.521752  7293 net.cpp:91] Creating Layer inception_5a/output_inception_5a/output_0_split
I0403 18:43:09.521769  7293 net.cpp:425] inception_5a/output_inception_5a/output_0_split <- inception_5a/output
I0403 18:43:09.521787  7293 net.cpp:399] inception_5a/output_inception_5a/output_0_split -> inception_5a/output_inception_5a/output_0_split_0
I0403 18:43:09.521811  7293 net.cpp:399] inception_5a/output_inception_5a/output_0_split -> inception_5a/output_inception_5a/output_0_split_1
I0403 18:43:09.521831  7293 net.cpp:399] inception_5a/output_inception_5a/output_0_split -> inception_5a/output_inception_5a/output_0_split_2
I0403 18:43:09.521852  7293 net.cpp:399] inception_5a/output_inception_5a/output_0_split -> inception_5a/output_inception_5a/output_0_split_3
I0403 18:43:09.521966  7293 net.cpp:141] Setting up inception_5a/output_inception_5a/output_0_split
I0403 18:43:09.521992  7293 net.cpp:148] Top shape: 24 832 7 7 (978432)
I0403 18:43:09.522008  7293 net.cpp:148] Top shape: 24 832 7 7 (978432)
I0403 18:43:09.522025  7293 net.cpp:148] Top shape: 24 832 7 7 (978432)
I0403 18:43:09.522040  7293 net.cpp:148] Top shape: 24 832 7 7 (978432)
I0403 18:43:09.522054  7293 net.cpp:156] Memory required for data: 1325241888
I0403 18:43:09.522070  7293 layer_factory.hpp:77] Creating layer inception_5b/1x1
I0403 18:43:09.522092  7293 net.cpp:91] Creating Layer inception_5b/1x1
I0403 18:43:09.522111  7293 net.cpp:425] inception_5b/1x1 <- inception_5a/output_inception_5a/output_0_split_0
I0403 18:43:09.522132  7293 net.cpp:399] inception_5b/1x1 -> inception_5b/1x1
I0403 18:43:09.525991  7293 net.cpp:141] Setting up inception_5b/1x1
I0403 18:43:09.526024  7293 net.cpp:148] Top shape: 24 384 7 7 (451584)
I0403 18:43:09.526041  7293 net.cpp:156] Memory required for data: 1327048224
I0403 18:43:09.526062  7293 layer_factory.hpp:77] Creating layer inception_5b/relu_1x1
I0403 18:43:09.526085  7293 net.cpp:91] Creating Layer inception_5b/relu_1x1
I0403 18:43:09.526103  7293 net.cpp:425] inception_5b/relu_1x1 <- inception_5b/1x1
I0403 18:43:09.526120  7293 net.cpp:386] inception_5b/relu_1x1 -> inception_5b/1x1 (in-place)
I0403 18:43:09.526437  7293 net.cpp:141] Setting up inception_5b/relu_1x1
I0403 18:43:09.526463  7293 net.cpp:148] Top shape: 24 384 7 7 (451584)
I0403 18:43:09.526479  7293 net.cpp:156] Memory required for data: 1328854560
I0403 18:43:09.526494  7293 layer_factory.hpp:77] Creating layer inception_5b/3x3_reduce
I0403 18:43:09.526518  7293 net.cpp:91] Creating Layer inception_5b/3x3_reduce
I0403 18:43:09.526537  7293 net.cpp:425] inception_5b/3x3_reduce <- inception_5a/output_inception_5a/output_0_split_1
I0403 18:43:09.526561  7293 net.cpp:399] inception_5b/3x3_reduce -> inception_5b/3x3_reduce
I0403 18:43:09.529266  7293 net.cpp:141] Setting up inception_5b/3x3_reduce
I0403 18:43:09.529314  7293 net.cpp:148] Top shape: 24 192 7 7 (225792)
I0403 18:43:09.529331  7293 net.cpp:156] Memory required for data: 1329757728
I0403 18:43:09.529350  7293 layer_factory.hpp:77] Creating layer inception_5b/relu_3x3_reduce
I0403 18:43:09.529373  7293 net.cpp:91] Creating Layer inception_5b/relu_3x3_reduce
I0403 18:43:09.529392  7293 net.cpp:425] inception_5b/relu_3x3_reduce <- inception_5b/3x3_reduce
I0403 18:43:09.529412  7293 net.cpp:386] inception_5b/relu_3x3_reduce -> inception_5b/3x3_reduce (in-place)
I0403 18:43:09.529626  7293 net.cpp:141] Setting up inception_5b/relu_3x3_reduce
I0403 18:43:09.529655  7293 net.cpp:148] Top shape: 24 192 7 7 (225792)
I0403 18:43:09.529671  7293 net.cpp:156] Memory required for data: 1330660896
I0403 18:43:09.529687  7293 layer_factory.hpp:77] Creating layer inception_5b/3x3
I0403 18:43:09.529709  7293 net.cpp:91] Creating Layer inception_5b/3x3
I0403 18:43:09.529729  7293 net.cpp:425] inception_5b/3x3 <- inception_5b/3x3_reduce
I0403 18:43:09.529749  7293 net.cpp:399] inception_5b/3x3 -> inception_5b/3x3
I0403 18:43:09.536653  7293 net.cpp:141] Setting up inception_5b/3x3
I0403 18:43:09.536687  7293 net.cpp:148] Top shape: 24 384 7 7 (451584)
I0403 18:43:09.536705  7293 net.cpp:156] Memory required for data: 1332467232
I0403 18:43:09.536725  7293 layer_factory.hpp:77] Creating layer inception_5b/relu_3x3
I0403 18:43:09.536746  7293 net.cpp:91] Creating Layer inception_5b/relu_3x3
I0403 18:43:09.536763  7293 net.cpp:425] inception_5b/relu_3x3 <- inception_5b/3x3
I0403 18:43:09.536782  7293 net.cpp:386] inception_5b/relu_3x3 -> inception_5b/3x3 (in-place)
I0403 18:43:09.537081  7293 net.cpp:141] Setting up inception_5b/relu_3x3
I0403 18:43:09.537108  7293 net.cpp:148] Top shape: 24 384 7 7 (451584)
I0403 18:43:09.537124  7293 net.cpp:156] Memory required for data: 1334273568
I0403 18:43:09.537140  7293 layer_factory.hpp:77] Creating layer inception_5b/5x5_reduce
I0403 18:43:09.537184  7293 net.cpp:91] Creating Layer inception_5b/5x5_reduce
I0403 18:43:09.537204  7293 net.cpp:425] inception_5b/5x5_reduce <- inception_5a/output_inception_5a/output_0_split_2
I0403 18:43:09.537228  7293 net.cpp:399] inception_5b/5x5_reduce -> inception_5b/5x5_reduce
I0403 18:43:09.538558  7293 net.cpp:141] Setting up inception_5b/5x5_reduce
I0403 18:43:09.538588  7293 net.cpp:148] Top shape: 24 48 7 7 (56448)
I0403 18:43:09.538604  7293 net.cpp:156] Memory required for data: 1334499360
I0403 18:43:09.538624  7293 layer_factory.hpp:77] Creating layer inception_5b/relu_5x5_reduce
I0403 18:43:09.538645  7293 net.cpp:91] Creating Layer inception_5b/relu_5x5_reduce
I0403 18:43:09.538661  7293 net.cpp:425] inception_5b/relu_5x5_reduce <- inception_5b/5x5_reduce
I0403 18:43:09.538681  7293 net.cpp:386] inception_5b/relu_5x5_reduce -> inception_5b/5x5_reduce (in-place)
I0403 18:43:09.539062  7293 net.cpp:141] Setting up inception_5b/relu_5x5_reduce
I0403 18:43:09.539091  7293 net.cpp:148] Top shape: 24 48 7 7 (56448)
I0403 18:43:09.539108  7293 net.cpp:156] Memory required for data: 1334725152
I0403 18:43:09.539126  7293 layer_factory.hpp:77] Creating layer inception_5b/5x5
I0403 18:43:09.539149  7293 net.cpp:91] Creating Layer inception_5b/5x5
I0403 18:43:09.539166  7293 net.cpp:425] inception_5b/5x5 <- inception_5b/5x5_reduce
I0403 18:43:09.539187  7293 net.cpp:399] inception_5b/5x5 -> inception_5b/5x5
I0403 18:43:09.541299  7293 net.cpp:141] Setting up inception_5b/5x5
I0403 18:43:09.541332  7293 net.cpp:148] Top shape: 24 128 7 7 (150528)
I0403 18:43:09.541352  7293 net.cpp:156] Memory required for data: 1335327264
I0403 18:43:09.541373  7293 layer_factory.hpp:77] Creating layer inception_5b/relu_5x5
I0403 18:43:09.541393  7293 net.cpp:91] Creating Layer inception_5b/relu_5x5
I0403 18:43:09.541410  7293 net.cpp:425] inception_5b/relu_5x5 <- inception_5b/5x5
I0403 18:43:09.541429  7293 net.cpp:386] inception_5b/relu_5x5 -> inception_5b/5x5 (in-place)
I0403 18:43:09.541646  7293 net.cpp:141] Setting up inception_5b/relu_5x5
I0403 18:43:09.541672  7293 net.cpp:148] Top shape: 24 128 7 7 (150528)
I0403 18:43:09.541688  7293 net.cpp:156] Memory required for data: 1335929376
I0403 18:43:09.541705  7293 layer_factory.hpp:77] Creating layer inception_5b/pool
I0403 18:43:09.541725  7293 net.cpp:91] Creating Layer inception_5b/pool
I0403 18:43:09.541741  7293 net.cpp:425] inception_5b/pool <- inception_5a/output_inception_5a/output_0_split_3
I0403 18:43:09.541762  7293 net.cpp:399] inception_5b/pool -> inception_5b/pool
I0403 18:43:09.541838  7293 net.cpp:141] Setting up inception_5b/pool
I0403 18:43:09.541865  7293 net.cpp:148] Top shape: 24 832 7 7 (978432)
I0403 18:43:09.541880  7293 net.cpp:156] Memory required for data: 1339843104
I0403 18:43:09.541896  7293 layer_factory.hpp:77] Creating layer inception_5b/pool_proj
I0403 18:43:09.541919  7293 net.cpp:91] Creating Layer inception_5b/pool_proj
I0403 18:43:09.541937  7293 net.cpp:425] inception_5b/pool_proj <- inception_5b/pool
I0403 18:43:09.541956  7293 net.cpp:399] inception_5b/pool_proj -> inception_5b/pool_proj
I0403 18:43:09.544340  7293 net.cpp:141] Setting up inception_5b/pool_proj
I0403 18:43:09.544374  7293 net.cpp:148] Top shape: 24 128 7 7 (150528)
I0403 18:43:09.544390  7293 net.cpp:156] Memory required for data: 1340445216
I0403 18:43:09.544409  7293 layer_factory.hpp:77] Creating layer inception_5b/relu_pool_proj
I0403 18:43:09.544431  7293 net.cpp:91] Creating Layer inception_5b/relu_pool_proj
I0403 18:43:09.544448  7293 net.cpp:425] inception_5b/relu_pool_proj <- inception_5b/pool_proj
I0403 18:43:09.544466  7293 net.cpp:386] inception_5b/relu_pool_proj -> inception_5b/pool_proj (in-place)
I0403 18:43:09.544778  7293 net.cpp:141] Setting up inception_5b/relu_pool_proj
I0403 18:43:09.544806  7293 net.cpp:148] Top shape: 24 128 7 7 (150528)
I0403 18:43:09.544822  7293 net.cpp:156] Memory required for data: 1341047328
I0403 18:43:09.544838  7293 layer_factory.hpp:77] Creating layer inception_5b/output
I0403 18:43:09.544858  7293 net.cpp:91] Creating Layer inception_5b/output
I0403 18:43:09.544889  7293 net.cpp:425] inception_5b/output <- inception_5b/1x1
I0403 18:43:09.544908  7293 net.cpp:425] inception_5b/output <- inception_5b/3x3
I0403 18:43:09.544924  7293 net.cpp:425] inception_5b/output <- inception_5b/5x5
I0403 18:43:09.544939  7293 net.cpp:425] inception_5b/output <- inception_5b/pool_proj
I0403 18:43:09.544957  7293 net.cpp:399] inception_5b/output -> inception_5b/output
I0403 18:43:09.545011  7293 net.cpp:141] Setting up inception_5b/output
I0403 18:43:09.545034  7293 net.cpp:148] Top shape: 24 1024 7 7 (1204224)
I0403 18:43:09.545050  7293 net.cpp:156] Memory required for data: 1345864224
I0403 18:43:09.545064  7293 layer_factory.hpp:77] Creating layer pool5/7x7_s1
I0403 18:43:09.545083  7293 net.cpp:91] Creating Layer pool5/7x7_s1
I0403 18:43:09.545099  7293 net.cpp:425] pool5/7x7_s1 <- inception_5b/output
I0403 18:43:09.545120  7293 net.cpp:399] pool5/7x7_s1 -> pool5/7x7_s1
I0403 18:43:09.545364  7293 net.cpp:141] Setting up pool5/7x7_s1
I0403 18:43:09.545393  7293 net.cpp:148] Top shape: 24 1024 1 1 (24576)
I0403 18:43:09.545410  7293 net.cpp:156] Memory required for data: 1345962528
I0403 18:43:09.545426  7293 layer_factory.hpp:77] Creating layer pool5/drop_7x7_s1
I0403 18:43:09.545445  7293 net.cpp:91] Creating Layer pool5/drop_7x7_s1
I0403 18:43:09.545461  7293 net.cpp:425] pool5/drop_7x7_s1 <- pool5/7x7_s1
I0403 18:43:09.545478  7293 net.cpp:386] pool5/drop_7x7_s1 -> pool5/7x7_s1 (in-place)
I0403 18:43:09.545538  7293 net.cpp:141] Setting up pool5/drop_7x7_s1
I0403 18:43:09.545563  7293 net.cpp:148] Top shape: 24 1024 1 1 (24576)
I0403 18:43:09.545591  7293 net.cpp:156] Memory required for data: 1346060832
I0403 18:43:09.545606  7293 layer_factory.hpp:77] Creating layer loss3/classifier_plantvillage
I0403 18:43:09.545629  7293 net.cpp:91] Creating Layer loss3/classifier_plantvillage
I0403 18:43:09.545645  7293 net.cpp:425] loss3/classifier_plantvillage <- pool5/7x7_s1
I0403 18:43:09.545665  7293 net.cpp:399] loss3/classifier_plantvillage -> loss3/classifier_plantvillage
I0403 18:43:09.546095  7293 net.cpp:141] Setting up loss3/classifier_plantvillage
I0403 18:43:09.546121  7293 net.cpp:148] Top shape: 24 38 (912)
I0403 18:43:09.546136  7293 net.cpp:156] Memory required for data: 1346064480
I0403 18:43:09.546154  7293 layer_factory.hpp:77] Creating layer loss3/classifier_plantvillage_loss3/classifier_plantvillage_0_split
I0403 18:43:09.546175  7293 net.cpp:91] Creating Layer loss3/classifier_plantvillage_loss3/classifier_plantvillage_0_split
I0403 18:43:09.546190  7293 net.cpp:425] loss3/classifier_plantvillage_loss3/classifier_plantvillage_0_split <- loss3/classifier_plantvillage
I0403 18:43:09.546212  7293 net.cpp:399] loss3/classifier_plantvillage_loss3/classifier_plantvillage_0_split -> loss3/classifier_plantvillage_loss3/classifier_plantvillage_0_split_0
I0403 18:43:09.546233  7293 net.cpp:399] loss3/classifier_plantvillage_loss3/classifier_plantvillage_0_split -> loss3/classifier_plantvillage_loss3/classifier_plantvillage_0_split_1
I0403 18:43:09.546253  7293 net.cpp:399] loss3/classifier_plantvillage_loss3/classifier_plantvillage_0_split -> loss3/classifier_plantvillage_loss3/classifier_plantvillage_0_split_2
I0403 18:43:09.546278  7293 net.cpp:399] loss3/classifier_plantvillage_loss3/classifier_plantvillage_0_split -> loss3/classifier_plantvillage_loss3/classifier_plantvillage_0_split_3
I0403 18:43:09.546383  7293 net.cpp:141] Setting up loss3/classifier_plantvillage_loss3/classifier_plantvillage_0_split
I0403 18:43:09.546408  7293 net.cpp:148] Top shape: 24 38 (912)
I0403 18:43:09.546424  7293 net.cpp:148] Top shape: 24 38 (912)
I0403 18:43:09.546440  7293 net.cpp:148] Top shape: 24 38 (912)
I0403 18:43:09.546455  7293 net.cpp:148] Top shape: 24 38 (912)
I0403 18:43:09.546469  7293 net.cpp:156] Memory required for data: 1346079072
I0403 18:43:09.546485  7293 layer_factory.hpp:77] Creating layer loss1/loss
I0403 18:43:09.546509  7293 net.cpp:91] Creating Layer loss1/loss
I0403 18:43:09.546525  7293 net.cpp:425] loss1/loss <- loss1/classifier_plantvillage_loss1/classifier_plantvillage_0_split_0
I0403 18:43:09.546555  7293 net.cpp:425] loss1/loss <- label_data_1_split_0
…
