…
I0403 18:55:25.583443  8143 net.cpp:313] The NetState phase (1) differed from the phase (0) specified by a rule in layer data
I0403 18:55:25.584828  8143 net.cpp:49] Initializing net from parameters: 
state {
  phase: TEST
}
layer {
  name: "data"
  type: "Data"
  top: "data"
  top: "label"
  include {
    phase: TEST
  }
  transform_param {
    mirror: false
    crop_size: 224
    mean_file: "/home/mohanty/data/final_dataset/lmdb/grayscale-40-60/mean.binaryproto"
  }
  data_param {
    source: "/home/mohanty/data/final_dataset/lmdb/grayscale-40-60/test_db"
    batch_size: 24
    backend: LMDB
  }
}
layer {
  name: "conv1/7x7_s2"
  type: "Convolution"
  bottom: "data"
  top: "conv1/7x7_s2"
  param {
    lr_mult: 1
    decay_mult: 1
  }
  param {
    lr_mult: 2
    decay_mult: 0
  }
  convolution_param {
    num_output: 64
    pad: 3
    kernel_size: 7
    stride: 2
    weight_filler {
      type: "xavier"
      std: 0.1
    }
    bias_filler {
      type: "constant"
      value: 0.2
    }
  }
}
layer {
  name: "conv1/relu_7x7"
  type: "ReLU"
  bottom: "conv1/7x7_s2"
  top: "conv1/7x7_s2"
}
layer {
  name: "pool1/3x3_s2"
  type: "Pooling"
  bottom: "conv1/7x7_s2"
  top: "pool1/3x3_s2"
  pooling_param {
    pool: MAX
    kernel_size: 3
    stride: 2
  }
}
layer {
  name: "pool1/norm1"
  type: "LRN"
  bottom: "pool1/3x3_s2"
  top: "pool1/norm1"
  lrn_param {
    local_size: 5
    alpha: 0.0001
    beta: 0.75
  }
}
layer {
  name: "conv2/3x3_reduce"
  type: "Convolution"
  bottom: "pool1/norm1"
  top: "conv2/3x3_reduce"
  param {
    lr_mult: 1
    decay_mult: 1
  }
  param {
    lr_mult: 2
    decay_mult: 0
  }
  convolution_param {
    num_output: 64
    kernel_size: 1
    weight_filler {
      type: "xavier"
      std: 0.1
    }
    bias_filler {
      type: "constant"
      value: 0.2
    }
  }
}
layer {
  name: "conv2/relu_3x3_reduce"
  type: "ReLU"
  bottom: "conv2/3x3_reduce"
  top: "conv2/3x3_reduce"
}
layer {
  name: "conv2/3x3"
  type: "Convolution"
  bottom: "conv2/3x3_reduce"
  top: "conv2/3x3"
  param {
    lr_mult: 1
    decay_mult: 1
  }
  param {
    lr_mult: 2
    decay_mult: 0
  }
  convolution_param {
    num_output: 192
    pad: 1
    kernel_size: 3
    weight_filler {
      type: "xavier"
      std: 0.03
    }
    bias_filler {
      type: "constant"
      value: 0.2
    }
  }
}
layer {
  name: "conv2/relu_3x3"
  type: "ReLU"
  bottom: "conv2/3x3"
  top: "conv2/3x3"
}
layer {
  name: "conv2/norm2"
  type: "LRN"
  bottom: "conv2/3x3"
  top: "conv2/norm2"
  lrn_param {
    local_size: 5
    alpha: 0.0001
    beta: 0.75
  }
}
layer {
  name: "pool2/3x3_s2"
  type: "Pooling"
  bottom: "conv2/norm2"
  top: "pool2/3x3_s2"
  pooling_param {
    pool: MAX
    kernel_size: 3
    stride: 2
  }
}
layer {
  name: "inception_3a/1x1"
  type: "Convolution"
  bottom: "pool2/3x3_s2"
  top: "inception_3a/1x1"
  param {
    lr_mult: 1
    decay_mult: 1
  }
  param {
    lr_mult: 2
    decay_mult: 0
  }
  convolution_param {
    num_output: 64
    kernel_size: 1
    weight_filler {
      type: "xavier"
      std: 0.03
    }
    bias_filler {
      type: "constant"
      value: 0.2
    }
  }
}
layer {
  name: "inception_3a/relu_1x1"
  type: "ReLU"
  bottom: "inception_3a/1x1"
  top: "inception_3a/1x1"
}
layer {
  name: "inception_3a/3x3_reduce"
  type: "Convolution"
  bottom: "pool2/3x3_s2"
  top: "inception_3a/3x3_reduce"
  param {
    lr_mult: 1
    decay_mult: 1
  }
  param {
    lr_mult: 2
    decay_mult: 0
  }
  convolution_param {
    num_output: 96
    kernel_size: 1
    weight_filler {
      type: "xavier"
      std: 0.09
    }
    bias_filler {
      type: "constant"
      value: 0.2
    }
  }
}
layer {
  name: "inception_3a/relu_3x3_reduce"
  type: "ReLU"
  bottom: "inception_3a/3x3_reduce"
  top: "inception_3a/3x3_reduce"
}
layer {
  name: "inception_3a/3x3"
  type: "Convolution"
  bottom: "inception_3a/3x3_reduce"
  top: "inception_3a/3x3"
  param {
    lr_mult: 1
    decay_mult: 1
  }
  param {
    lr_mult: 2
    decay_mult: 0
  }
  convolution_param {
    num_output: 128
    pad: 1
    kernel_size: 3
    weight_filler {
      type: "xavier"
      std: 0.03
    }
    bias_filler {
      type: "constant"
      value: 0.2
    }
  }
}
layer {
  name: "inception_3a/relu_3x3"
  type: "ReLU"
  bottom: "inception_3a/3x3"
  top: "inception_3a/3x3"
}
layer {
  name: "inception_3a/5x5_reduce"
  type: "Convolution"
  bottom: "pool2/3x3_s2"
  top: "inception_3a/5x5_reduce"
  param {
    lr_mult: 1
    decay_mult: 1
  }
  param {
    lr_mult: 2
    decay_mult: 0
  }
  convolution_param {
    num_output: 16
    kernel_size: 1
    weight_filler {
      type: "xavier"
      std: 0.2
    }
    bias_filler {
      type: "constant"
      value: 0.2
    }
  }
}
layer {
  name: "inception_3a/relu_5x5_reduce"
  type: "ReLU"
  bottom: "inception_3a/5x5_reduce"
  top: "inception_3a/5x5_reduce"
}
layer {
  name: "inception_3a/5x5"
  type: "Convolution"
  bottom: "inception_3a/5x5_reduce"
  top: "inception_3a/5x5"
  param {
    lr_mult: 1
    decay_mult: 1
  }
  param {
    lr_mult: 2
    decay_mult: 0
  }
  convolution_param {
    num_output: 32
    pad: 2
    kernel_size: 5
    weight_filler {
      type: "xavier"
      std: 0.03
    }
    bias_filler {
      type: "constant"
      value: 0.2
    }
  }
}
layer {
  name: "inception_3a/relu_5x5"
  type: "ReLU"
  bottom: "inception_3a/5x5"
  top: "inception_3a/5x5"
}
layer {
  name: "inception_3a/pool"
  type: "Pooling"
  bottom: "pool2/3x3_s2"
  top: "inception_3a/pool"
  pooling_param {
    pool: MAX
    kernel_size: 3
    stride: 1
    pad: 1
  }
}
layer {
  name: "inception_3a/pool_proj"
  type: "Convolution"
  bottom: "inception_3a/pool"
  top: "inception_3a/pool_proj"
  param {
    lr_mult: 1
    decay_mult: 1
  }
  param {
    lr_mult: 2
    decay_mult: 0
  }
  convolution_param {
    num_output: 32
    kernel_size: 1
    weight_filler {
      type: "xavier"
      std: 0.1
    }
    bias_filler {
      type: "constant"
      value: 0.2
    }
  }
}
layer {
  name: "inception_3a/relu_pool_proj"
  type: "ReLU"
  bottom: "inception_3a/pool_proj"
  top: "inception_3a/pool_proj"
}
layer {
  name: "inception_3a/output"
  type: "Concat"
  bottom: "inception_3a/1x1"
  bottom: "inception_3a/3x3"
  bottom: "inception_3a/5x5"
  bottom: "inception_3a/pool_proj"
  top: "inception_3a/output"
}
layer {
  name: "inception_3b/1x1"
  type: "Convolution"
  bottom: "inception_3a/output"
  top: "inception_3b/1x1"
  param {
    lr_mult: 1
    decay_mult: 1
  }
  param {
    lr_mult: 2
    decay_mult: 0
  }
  convolution_param {
    num_output: 128
    kernel_size: 1
    weight_filler {
      type: "xavier"
      std: 0.03
    }
    bias_filler {
      type: "constant"
      value: 0.2
    }
  }
}
layer {
  name: "inception_3b/relu_1x1"
  type: "ReLU"
  bottom: "inception_3b/1x1"
  top: "inception_3b/1x1"
}
layer {
  name: "inception_3b/3x3_reduce"
  type: "Convolution"
  bottom: "inception_3a/output"
  top: "inception_3b/3x3_reduce"
  param {
    lr_mult: 1
    decay_mult: 1
  }
  param {
    lr_mult: 2
    decay_mult: 0
  }
  convolution_param {
    num_output: 128
    kernel_size: 1
    weight_filler {
      type: "xavier"
      std: 0.09
    }
    bias_filler {
      type: "constant"
      value: 0.2
    }
  }
}
layer {
  name: "inception_3b/relu_3x3_reduce"
  type: "ReLU"
  bottom: "inception_3b/3x3_reduce"
  top: "inception_3b/3x3_reduce"
}
layer {
  name: "inception_3b/3x3"
  type: "Convolution"
  bottom: "inception_3b/3x3_reduce"
  top: "inception_3b/3x3"
  param {
    lr_mult: 1
    decay_mult: 1
  }
  param {
    lr_mult: 2
    decay_mult: 0
  }
  convolution_param {
    num_output: 192
    pad: 1
    kernel_size: 3
    weight_filler {
      type: "xavier"
      std: 0.03
    }
    bias_filler {
      type: "constant"
      value: 0.2
    }
  }
}
layer {
  name: "inception_3b/relu_3x3"
  type: "ReLU"
  bottom: "inception_3b/3x3"
  top: "inception_3b/3x3"
}
layer {
  name: "inception_3b/5x5_reduce"
  type: "Convolution"
  bottom: "inception_3a/output"
  top: "inception_3b/5x5_reduce"
  param {
    lr_mult: 1
    decay_mult: 1
  }
  param {
    lr_mult: 2
    decay_mult: 0
  }
  convolution_param {
    num_output: 32
    kernel_size: 1
    weight_filler {
      type: "xavier"
      std: 0.2
    }
    bias_filler {
      type: "constant"
      value: 0.2
    }
  }
}
layer {
  name: "inception_3b/relu_5x5_reduce"
  type: "ReLU"
  bottom: "inception_3b/5x5_reduce"
  top: "inception_3b/5x5_reduce"
}
layer {
  name: "inception_3b/5x5"
  type: "Convolution"
  bottom: "inception_3b/5x5_reduce"
  top: "inception_3b/5x5"
  param {
    lr_mult: 1
    decay_mult: 1
  }
  param {
    lr_mult: 2
    decay_mult: 0
  }
  convolution_param {
    num_output: 96
    pad: 2
    kernel_size: 5
    weight_filler {
      type: "xavier"
      std: 0.03
    }
    bias_filler {
      type: "constant"
      value: 0.2
    }
  }
}
layer {
  name: "inception_3b/relu_5x5"
  type: "ReLU"
  bottom: "inception_3b/5x5"
  top: "inception_3b/5x5"
}
layer {
  name: "inception_3b/pool"
  type: "Pooling"
  bottom: "inception_3a/output"
  top: "inception_3b/pool"
  pooling_param {
    pool: MAX
    kernel_size: 3
    stride: 1
    pad: 1
  }
}
layer {
  name: "inception_3b/pool_proj"
  type: "Convolution"
  bottom: "inception_3b/pool"
  top: "inception_3b/pool_proj"
  param {
    lr_mult: 1
    decay_mult: 1
  }
  param {
    lr_mult: 2
    decay_mult: 0
  }
  convolution_param {
    num_output: 64
    kernel_size: 1
    weight_filler {
      type: "xavier"
      std: 0.1
    }
    bias_filler {
      type: "constant"
      value: 0.2
    }
  }
}
layer {
  name: "inception_3b/relu_pool_proj"
  type: "ReLU"
  bottom: "inception_3b/pool_proj"
  top: "inception_3b/pool_proj"
}
layer {
  name: "inception_3b/output"
  type: "Concat"
  bottom: "inception_3b/1x1"
  bottom: "inception_3b/3x3"
  bottom: "inception_3b/5x5"
  bottom: "inception_3b/pool_proj"
  top: "inception_3b/output"
}
layer {
  name: "pool3/3x3_s2"
  type: "Pooling"
  bottom: "inception_3b/output"
  top: "pool3/3x3_s2"
  pooling_param {
    pool: MAX
    kernel_size: 3
    stride: 2
  }
}
layer {
  name: "inception_4a/1x1"
  type: "Convolution"
  bottom: "pool3/3x3_s2"
  top: "inception_4a/1x1"
  param {
    lr_mult: 1
    decay_mult: 1
  }
  param {
    lr_mult: 2
    decay_mult: 0
  }
  convolution_param {
    num_output: 192
    kernel_size: 1
    weight_filler {
      type: "xavier"
      std: 0.03
    }
    bias_filler {
      type: "constant"
      value: 0.2
    }
  }
}
layer {
  name: "inception_4a/relu_1x1"
  type: "ReLU"
  bottom: "inception_4a/1x1"
  top: "inception_4a/1x1"
}
layer {
  name: "inception_4a/3x3_reduce"
  type: "Convolution"
  bottom: "pool3/3x3_s2"
  top: "inception_4a/3x3_reduce"
  param {
    lr_mult: 1
    decay_mult: 1
  }
  param {
    lr_mult: 2
    decay_mult: 0
  }
  convolution_param {
    num_output: 96
    kernel_size: 1
    weight_filler {
      type: "xavier"
      std: 0.09
    }
    bias_filler {
      type: "constant"
      value: 0.2
    }
  }
}
layer {
  name: "inception_4a/relu_3x3_reduce"
  type: "ReLU"
  bottom: "inception_4a/3x3_reduce"
  top: "inception_4a/3x3_reduce"
}
layer {
  name: "inception_4a/3x3"
  type: "Convolution"
  bottom: "inception_4a/3x3_reduce"
  top: "inception_4a/3x3"
  param {
    lr_mult: 1
    decay_mult: 1
  }
  param {
    lr_mult: 2
    decay_mult: 0
  }
  convolution_param {
    num_output: 208
    pad: 1
    kernel_size: 3
    weight_filler {
      type: "xavier"
      std: 0.03
    }
    bias_filler {
      type: "constant"
      value: 0.2
    }
  }
}
layer {
  name: "inception_4a/relu_3x3"
  type: "ReLU"
  bottom: "inception_4a/3x3"
  top: "inception_4a/3x3"
}
layer {
  name: "inception_4a/5x5_reduce"
  type: "Convolution"
  bottom: "pool3/3x3_s2"
  top: "inception_4a/5x5_reduce"
  param {
    lr_mult: 1
    decay_mult: 1
  }
  param {
    lr_mult: 2
    decay_mult: 0
  }
  convolution_param {
    num_output: 16
    kernel_size: 1
    weight_filler {
      type: "xavier"
      std: 0.2
    }
    bias_filler {
      type: "constant"
      value: 0.2
    }
  }
}
layer {
  name: "inception_4a/relu_5x5_reduce"
  type: "ReLU"
  bottom: "inception_4a/5x5_reduce"
  top: "inception_4a/5x5_reduce"
}
layer {
  name: "inception_4a/5x5"
  type: "Convolution"
  bottom: "inception_4a/5x5_reduce"
  top: "inception_4a/5x5"
  param {
    lr_mult: 1
    decay_mult: 1
  }
  param {
    lr_mult: 2
    decay_mult: 0
  }
  convolution_param {
    num_output: 48
    pad: 2
    kernel_size: 5
    weight_filler {
      type: "xavier"
      std: 0.03
    }
    bias_filler {
      type: "constant"
      value: 0.2
    }
  }
}
layer {
  name: "inception_4a/relu_5x5"
  type: "ReLU"
  bottom: "inception_4a/5x5"
  top: "inception_4a/5x5"
}
layer {
  name: "inception_4a/pool"
  type: "Pooling"
  bottom: "pool3/3x3_s2"
  top: "inception_4a/pool"
  pooling_param {
    pool: MAX
    kernel_size: 3
    stride: 1
    pad: 1
  }
}
layer {
  name: "inception_4a/pool_proj"
  type: "Convolution"
  bottom: "inception_4a/pool"
  top: "inception_4a/pool_proj"
  param {
    lr_mult: 1
    decay_mult: 1
  }
  param {
    lr_mult: 2
    decay_mult: 0
  }
  convolution_param {
    num_output: 64
    kernel_size: 1
    weight_filler {
      type: "xavier"
      std: 0.1
    }
    bias_filler {
      type: "constant"
      value: 0.2
    }
  }
}
layer {
  name: "inception_4a/relu_pool_proj"
  type: "ReLU"
  bottom: "inception_4a/pool_proj"
  top: "inception_4a/pool_proj"
}
layer {
  name: "inception_4a/output"
  type: "Concat"
  bottom: "inception_4a/1x1"
  bottom: "inception_4a/3x3"
  bottom: "inception_4a/5x5"
  bottom: "inception_4a/pool_proj"
  top: "inception_4a/output"
}
layer {
  name: "loss1/ave_pool"
  type: "Pooling"
  bottom: "inception_4a/output"
  top: "loss1/ave_pool"
  pooling_param {
    pool: AVE
    kernel_size: 5
    stride: 3
  }
}
layer {
  name: "loss1/conv"
  type: "Convolution"
  bottom: "loss1/ave_pool"
  top: "loss1/conv"
  param {
    lr_mult: 1
    decay_mult: 1
  }
  param {
    lr_mult: 2
    decay_mult: 0
  }
  convolution_param {
    num_output: 128
    kernel_size: 1
    weight_filler {
      type: "xavier"
      std: 0.08
    }
    bias_filler {
      type: "constant"
      value: 0.2
    }
  }
}
layer {
  name: "loss1/relu_conv"
  type: "ReLU"
  bottom: "loss1/conv"
  top: "loss1/conv"
}
layer {
  name: "loss1/fc"
  type: "InnerProduct"
  bottom: "loss1/conv"
  top: "loss1/fc"
  param {
    lr_mult: 1
    decay_mult: 1
  }
  param {
    lr_mult: 2
    decay_mult: 0
  }
  inner_product_param {
    num_output: 1024
    weight_filler {
      type: "xavier"
      std: 0.02
    }
    bias_filler {
      type: "constant"
      value: 0.2
    }
  }
}
layer {
  name: "loss1/relu_fc"
  type: "ReLU"
  bottom: "loss1/fc"
  top: "loss1/fc"
}
layer {
  name: "loss1/drop_fc"
  type: "Dropout"
  bottom: "loss1/fc"
  top: "loss1/fc"
  dropout_param {
    dropout_ratio: 0.7
  }
}
layer {
  name: "loss1/classifier_plantvillage"
  type: "InnerProduct"
  bottom: "loss1/fc"
  top: "loss1/classifier_plantvillage"
  param {
    lr_mult: 1
    decay_mult: 1
  }
  param {
    lr_mult: 2
    decay_mult: 0
  }
  inner_product_param {
    num_output: 38
    weight_filler {
      type: "xavier"
      std: 0.0009765625
    }
    bias_filler {
      type: "constant"
      value: 0
    }
  }
}
layer {
  name: "inception_4b/1x1"
  type: "Convolution"
  bottom: "inception_4a/output"
  top: "inception_4b/1x1"
  param {
    lr_mult: 1
    decay_mult: 1
  }
  param {
    lr_mult: 2
    decay_mult: 0
  }
  convolution_param {
    num_output: 160
    kernel_size: 1
    weight_filler {
      type: "xavier"
      std: 0.03
    }
    bias_filler {
      type: "constant"
      value: 0.2
    }
  }
}
layer {
  name: "inception_4b/relu_1x1"
  type: "ReLU"
  bottom: "inception_4b/1x1"
  top: "inception_4b/1x1"
}
layer {
  name: "inception_4b/3x3_reduce"
  type: "Convolution"
  bottom: "inception_4a/output"
  top: "inception_4b/3x3_reduce"
  param {
    lr_mult: 1
    decay_mult: 1
  }
  param {
    lr_mult: 2
    decay_mult: 0
  }
  convolution_param {
    num_output: 112
    kernel_size: 1
    weight_filler {
      type: "xavier"
      std: 0.09
    }
    bias_filler {
      type: "constant"
      value: 0.2
    }
  }
}
layer {
  name: "inception_4b/relu_3x3_reduce"
  type: "ReLU"
  bottom: "inception_4b/3x3_reduce"
  top: "inception_4b/3x3_reduce"
}
layer {
  name: "inception_4b/3x3"
  type: "Convolution"
  bottom: "inception_4b/3x3_reduce"
  top: "inception_4b/3x3"
  param {
    lr_mult: 1
    decay_mult: 1
  }
  param {
    lr_mult: 2
    decay_mult: 0
  }
  convolution_param {
    num_output: 224
    pad: 1
    kernel_size: 3
    weight_filler {
      type: "xavier"
      std: 0.03
    }
    bias_filler {
      type: "constant"
      value: 0.2
    }
  }
}
layer {
  name: "inception_4b/relu_3x3"
  type: "ReLU"
  bottom: "inception_4b/3x3"
  top: "inception_4b/3x3"
}
layer {
  name: "inception_4b/5x5_reduce"
  type: "Convolution"
  bottom: "inception_4a/output"
  top: "inception_4b/5x5_reduce"
  param {
    lr_mult: 1
    decay_mult: 1
  }
  param {
    lr_mult: 2
    decay_mult: 0
  }
  convolution_param {
    num_output: 24
    kernel_size: 1
    weight_filler {
      type: "xavier"
      std: 0.2
    }
    bias_filler {
      type: "constant"
      value: 0.2
    }
  }
}
layer {
  name: "inception_4b/relu_5x5_reduce"
  type: "ReLU"
  bottom: "inception_4b/5x5_reduce"
  top: "inception_4b/5x5_reduce"
}
layer {
  name: "inception_4b/5x5"
  type: "Convolution"
  bottom: "inception_4b/5x5_reduce"
  top: "inception_4b/5x5"
  param {
    lr_mult: 1
    decay_mult: 1
  }
  param {
    lr_mult: 2
    decay_mult: 0
  }
  convolution_param {
    num_output: 64
    pad: 2
    kernel_size: 5
    weight_filler {
      type: "xavier"
      std: 0.03
    }
    bias_filler {
      type: "constant"
      value: 0.2
    }
  }
}
layer {
  name: "inception_4b/relu_5x5"
  type: "ReLU"
  bottom: "inception_4b/5x5"
  top: "inception_4b/5x5"
}
layer {
  name: "inception_4b/pool"
  type: "Pooling"
  bottom: "inception_4a/output"
  top: "inception_4b/pool"
  pooling_param {
    pool: MAX
    kernel_size: 3
    stride: 1
    pad: 1
  }
}
layer {
  name: "inception_4b/pool_proj"
  type: "Convolution"
  bottom: "inception_4b/pool"
  top: "inception_4b/pool_proj"
  param {
    lr_mult: 1
    decay_mult: 1
  }
  param {
    lr_mult: 2
    decay_mult: 0
  }
  convolution_param {
    num_output: 64
    kernel_size: 1
    weight_filler {
      type: "xavier"
      std: 0.1
    }
    bias_filler {
      type: "constant"
      value: 0.2
    }
  }
}
layer {
  name: "inception_4b/relu_pool_proj"
  type: "ReLU"
  bottom: "inception_4b/pool_proj"
  top: "inception_4b/pool_proj"
}
layer {
  name: "inception_4b/output"
  type: "Concat"
  bottom: "inception_4b/1x1"
  bottom: "inception_4b/3x3"
  bottom: "inception_4b/5x5"
  bottom: "inception_4b/pool_proj"
  top: "inception_4b/output"
}
layer {
  name: "inception_4c/1x1"
  type: "Convolution"
  bottom: "inception_4b/output"
  top: "inception_4c/1x1"
  param {
    lr_mult: 1
    decay_mult: 1
  }
  param {
    lr_mult: 2
    decay_mult: 0
  }
  convolution_param {
    num_output: 128
    kernel_size: 1
    weight_filler {
      type: "xavier"
      std: 0.03
    }
    bias_filler {
      type: "constant"
      value: 0.2
    }
  }
}
layer {
  name: "inception_4c/relu_1x1"
  type: "ReLU"
  bottom: "inception_4c/1x1"
  top: "inception_4c/1x1"
}
layer {
  name: "inception_4c/3x3_reduce"
  type: "Convolution"
  bottom: "inception_4b/output"
  top: "inception_4c/3x3_reduce"
  param {
    lr_mult: 1
    decay_mult: 1
  }
  param {
    lr_mult: 2
    decay_mult: 0
  }
  convolution_param {
    num_output: 128
    kernel_size: 1
    weight_filler {
      type: "xavier"
      std: 0.09
    }
    bias_filler {
      type: "constant"
      value: 0.2
    }
  }
}
layer {
  name: "inception_4c/relu_3x3_reduce"
  type: "ReLU"
  bottom: "inception_4c/3x3_reduce"
  top: "inception_4c/3x3_reduce"
}
layer {
  name: "inception_4c/3x3"
  type: "Convolution"
  bottom: "inception_4c/3x3_reduce"
  top: "inception_4c/3x3"
  param {
    lr_mult: 1
    decay_mult: 1
  }
  param {
    lr_mult: 2
    decay_mult: 0
  }
  convolution_param {
    num_output: 256
    pad: 1
    kernel_size: 3
    weight_filler {
      type: "xavier"
      std: 0.03
    }
    bias_filler {
      type: "constant"
      value: 0.2
    }
  }
}
layer {
  name: "inception_4c/relu_3x3"
  type: "ReLU"
  bottom: "inception_4c/3x3"
  top: "inception_4c/3x3"
}
layer {
  name: "inception_4c/5x5_reduce"
  type: "Convolution"
  bottom: "inception_4b/output"
  top: "inception_4c/5x5_reduce"
  param {
    lr_mult: 1
    decay_mult: 1
  }
  param {
    lr_mult: 2
    decay_mult: 0
  }
  convolution_param {
    num_output: 24
    kernel_size: 1
    weight_filler {
      type: "xavier"
      std: 0.2
    }
    bias_filler {
      type: "constant"
      value: 0.2
    }
  }
}
layer {
  name: "inception_4c/relu_5x5_reduce"
  type: "ReLU"
  bottom: "inception_4c/5x5_reduce"
  top: "inception_4c/5x5_reduce"
}
layer {
  name: "inception_4c/5x5"
  type: "Convolution"
  bottom: "inception_4c/5x5_reduce"
  top: "inception_4c/5x5"
  param {
    lr_mult: 1
    decay_mult: 1
  }
  param {
    lr_mult: 2
    decay_mult: 0
  }
  convolution_param {
    num_output: 64
    pad: 2
    kernel_size: 5
    weight_filler {
      type: "xavier"
      std: 0.03
    }
    bias_filler {
      type: "constant"
      value: 0.2
    }
  }
}
layer {
  name: "inception_4c/relu_5x5"
  type: "ReLU"
  bottom: "inception_4c/5x5"
  top: "inception_4c/5x5"
}
layer {
  name: "inception_4c/pool"
  type: "Pooling"
  bottom: "inception_4b/output"
  top: "inception_4c/pool"
  pooling_param {
    pool: MAX
    kernel_size: 3
    stride: 1
    pad: 1
  }
}
layer {
  name: "inception_4c/pool_proj"
  type: "Convolution"
  bottom: "inception_4c/pool"
  top: "inception_4c/pool_proj"
  param {
    lr_mult: 1
    decay_mult: 1
  }
  param {
    lr_mult: 2
    decay_mult: 0
  }
  convolution_param {
    num_output: 64
    kernel_size: 1
    weight_filler {
      type: "xavier"
      std: 0.1
    }
    bias_filler {
      type: "constant"
      value: 0.2
    }
  }
}
layer {
  name: "inception_4c/relu_pool_proj"
  type: "ReLU"
  bottom: "inception_4c/pool_proj"
  top: "inception_4c/pool_proj"
}
layer {
  name: "inception_4c/output"
  type: "Concat"
  bottom: "inception_4c/1x1"
  bottom: "inception_4c/3x3"
  bottom: "inception_4c/5x5"
  bottom: "inception_4c/pool_proj"
  top: "inception_4c/output"
}
layer {
  name: "inception_4d/1x1"
  type: "Convolution"
  bottom: "inception_4c/output"
  top: "inception_4d/1x1"
  param {
    lr_mult: 1
    decay_mult: 1
  }
  param {
    lr_mult: 2
    decay_mult: 0
  }
  convolution_param {
    num_output: 112
    kernel_size: 1
    weight_filler {
      type: "xavier"
      std: 0.03
    }
    bias_filler {
      type: "constant"
      value: 0.2
    }
  }
}
layer {
  name: "inception_4d/relu_1x1"
  type: "ReLU"
  bottom: "inception_4d/1x1"
  top: "inception_4d/1x1"
}
layer {
  name: "inception_4d/3x3_reduce"
  type: "Convolution"
  bottom: "inception_4c/output"
  top: "inception_4d/3x3_reduce"
  param {
    lr_mult: 1
    decay_mult: 1
  }
  param {
    lr_mult: 2
    decay_mult: 0
  }
  convolution_param {
    num_output: 144
    kernel_size: 1
    weight_filler {
      type: "xavier"
      std: 0.09
    }
    bias_filler {
      type: "constant"
      value: 0.2
    }
  }
}
layer {
  name: "inception_4d/relu_3x3_reduce"
  type: "ReLU"
  bottom: "inception_4d/3x3_reduce"
  top: "inception_4d/3x3_reduce"
}
layer {
  name: "inception_4d/3x3"
  type: "Convolution"
  bottom: "inception_4d/3x3_reduce"
  top: "inception_4d/3x3"
  param {
    lr_mult: 1
    decay_mult: 1
  }
  param {
    lr_mult: 2
    decay_mult: 0
  }
  convolution_param {
    num_output: 288
    pad: 1
    kernel_size: 3
    weight_filler {
      type: "xavier"
      std: 0.03
    }
    bias_filler {
      type: "constant"
      value: 0.2
    }
  }
}
layer {
  name: "inception_4d/relu_3x3"
  type: "ReLU"
  bottom: "inception_4d/3x3"
  top: "inception_4d/3x3"
}
layer {
  name: "inception_4d/5x5_reduce"
  type: "Convolution"
  bottom: "inception_4c/output"
  top: "inception_4d/5x5_reduce"
  param {
    lr_mult: 1
    decay_mult: 1
  }
  param {
    lr_mult: 2
    decay_mult: 0
  }
  convolution_param {
    num_output: 32
    kernel_size: 1
    weight_filler {
      type: "xavier"
      std: 0.2
    }
    bias_filler {
      type: "constant"
      value: 0.2
    }
  }
}
layer {
  name: "inception_4d/relu_5x5_reduce"
  type: "ReLU"
  bottom: "inception_4d/5x5_reduce"
  top: "inception_4d/5x5_reduce"
}
layer {
  name: "inception_4d/5x5"
  type: "Convolution"
  bottom: "inception_4d/5x5_reduce"
  top: "inception_4d/5x5"
  param {
    lr_mult: 1
    decay_mult: 1
  }
  param {
    lr_mult: 2
    decay_mult: 0
  }
  convolution_param {
    num_output: 64
    pad: 2
    kernel_size: 5
    weight_filler {
      type: "xavier"
      std: 0.03
    }
    bias_filler {
      type: "constant"
      value: 0.2
    }
  }
}
layer {
  name: "inception_4d/relu_5x5"
  type: "ReLU"
  bottom: "inception_4d/5x5"
  top: "inception_4d/5x5"
}
layer {
  name: "inception_4d/pool"
  type: "Pooling"
  bottom: "inception_4c/output"
  top: "inception_4d/pool"
  pooling_param {
    pool: MAX
    kernel_size: 3
    stride: 1
    pad: 1
  }
}
layer {
  name: "inception_4d/pool_proj"
  type: "Convolution"
  bottom: "inception_4d/pool"
  top: "inception_4d/pool_proj"
  param {
    lr_mult: 1
    decay_mult: 1
  }
  param {
    lr_mult: 2
    decay_mult: 0
  }
  convolution_param {
    num_output: 64
    kernel_size: 1
    weight_filler {
      type: "xavier"
      std: 0.1
    }
    bias_filler {
      type: "constant"
      value: 0.2
    }
  }
}
layer {
  name: "inception_4d/relu_pool_proj"
  type: "ReLU"
  bottom: "inception_4d/pool_proj"
  top: "inception_4d/pool_proj"
}
layer {
  name: "inception_4d/output"
  type: "Concat"
  bottom: "inception_4d/1x1"
  bottom: "inception_4d/3x3"
  bottom: "inception_4d/5x5"
  bottom: "inception_4d/pool_proj"
  top: "inception_4d/output"
}
layer {
  name: "loss2/ave_pool"
  type: "Pooling"
  bottom: "inception_4d/output"
  top: "loss2/ave_pool"
  pooling_param {
    pool: AVE
    kernel_size: 5
    stride: 3
  }
}
layer {
  name: "loss2/conv"
  type: "Convolution"
  bottom: "loss2/ave_pool"
  top: "loss2/conv"
  param {
    lr_mult: 1
    decay_mult: 1
  }
  param {
    lr_mult: 2
    decay_mult: 0
  }
  convolution_param {
    num_output: 128
    kernel_size: 1
    weight_filler {
      type: "xavier"
      std: 0.08
    }
    bias_filler {
      type: "constant"
      value: 0.2
    }
  }
}
layer {
  name: "loss2/relu_conv"
  type: "ReLU"
  bottom: "loss2/conv"
  top: "loss2/conv"
}
layer {
  name: "loss2/fc"
  type: "InnerProduct"
  bottom: "loss2/conv"
  top: "loss2/fc"
  param {
    lr_mult: 1
    decay_mult: 1
  }
  param {
    lr_mult: 2
    decay_mult: 0
  }
  inner_product_param {
    num_output: 1024
    weight_filler {
      type: "xavier"
      std: 0.02
    }
    bias_filler {
      type: "constant"
      value: 0.2
    }
  }
}
layer {
  name: "loss2/relu_fc"
  type: "ReLU"
  bottom: "loss2/fc"
  top: "loss2/fc"
}
layer {
  name: "loss2/drop_fc"
  type: "Dropout"
  bottom: "loss2/fc"
  top: "loss2/fc"
  dropout_param {
    dropout_ratio: 0.7
  }
}
layer {
  name: "loss2/classifier_plantvillage"
  type: "InnerProduct"
  bottom: "loss2/fc"
  top: "loss2/classifier_plantvillage"
  param {
    lr_mult: 1
    decay_mult: 1
  }
  param {
    lr_mult: 2
    decay_mult: 0
  }
  inner_product_param {
    num_output: 38
    weight_filler {
      type: "xavier"
      std: 0.0009765625
    }
    bias_filler {
      type: "constant"
      value: 0
    }
  }
}
layer {
  name: "inception_4e/1x1"
  type: "Convolution"
  bottom: "inception_4d/output"
  top: "inception_4e/1x1"
  param {
    lr_mult: 1
    decay_mult: 1
  }
  param {
    lr_mult: 2
    decay_mult: 0
  }
  convolution_param {
    num_output: 256
    kernel_size: 1
    weight_filler {
      type: "xavier"
      std: 0.03
    }
    bias_filler {
      type: "constant"
      value: 0.2
    }
  }
}
layer {
  name: "inception_4e/relu_1x1"
  type: "ReLU"
  bottom: "inception_4e/1x1"
  top: "inception_4e/1x1"
}
layer {
  name: "inception_4e/3x3_reduce"
  type: "Convolution"
  bottom: "inception_4d/output"
  top: "inception_4e/3x3_reduce"
  param {
    lr_mult: 1
    decay_mult: 1
  }
  param {
    lr_mult: 2
    decay_mult: 0
  }
  convolution_param {
    num_output: 160
    kernel_size: 1
    weight_filler {
      type: "xavier"
      std: 0.09
    }
    bias_filler {
      type: "constant"
      value: 0.2
    }
  }
}
layer {
  name: "inception_4e/relu_3x3_reduce"
  type: "ReLU"
  bottom: "inception_4e/3x3_reduce"
  top: "inception_4e/3x3_reduce"
}
layer {
  name: "inception_4e/3x3"
  type: "Convolution"
  bottom: "inception_4e/3x3_reduce"
  top: "inception_4e/3x3"
  param {
    lr_mult: 1
    decay_mult: 1
  }
  param {
    lr_mult: 2
    decay_mult: 0
  }
  convolution_param {
    num_output: 320
    pad: 1
    kernel_size: 3
    weight_filler {
      type: "xavier"
      std: 0.03
    }
    bias_filler {
      type: "constant"
      value: 0.2
    }
  }
}
layer {
  name: "inception_4e/relu_3x3"
  type: "ReLU"
  bottom: "inception_4e/3x3"
  top: "inception_4e/3x3"
}
layer {
  name: "inception_4e/5x5_reduce"
  type: "Convolution"
  bottom: "inception_4d/output"
  top: "inception_4e/5x5_reduce"
  param {
    lr_mult: 1
    decay_mult: 1
  }
  param {
    lr_mult: 2
    decay_mult: 0
  }
  convolution_param {
    num_output: 32
    kernel_size: 1
    weight_filler {
      type: "xavier"
      std: 0.2
    }
    bias_filler {
      type: "constant"
      value: 0.2
    }
  }
}
layer {
  name: "inception_4e/relu_5x5_reduce"
  type: "ReLU"
  bottom: "inception_4e/5x5_reduce"
  top: "inception_4e/5x5_reduce"
}
layer {
  name: "inception_4e/5x5"
  type: "Convolution"
  bottom: "inception_4e/5x5_reduce"
  top: "inception_4e/
I0403 18:55:25.587057  8143 layer_factory.hpp:77] Creating layer data
I0403 18:55:25.587785  8143 net.cpp:91] Creating Layer data
I0403 18:55:25.587821  8143 net.cpp:399] data -> data
I0403 18:55:25.587880  8143 net.cpp:399] data -> label
I0403 18:55:25.587924  8143 data_transformer.cpp:25] Loading mean file from: /home/mohanty/data/final_dataset/lmdb/grayscale-40-60/mean.binaryproto
I0403 18:55:25.589058  8145 db_lmdb.cpp:38] Opened lmdb /home/mohanty/data/final_dataset/lmdb/grayscale-40-60/test_db
I0403 18:55:25.604297  8143 data_layer.cpp:41] output data size: 24,3,224,224
I0403 18:55:25.637855  8143 net.cpp:141] Setting up data
I0403 18:55:25.637959  8143 net.cpp:148] Top shape: 24 3 224 224 (3612672)
I0403 18:55:25.637989  8143 net.cpp:148] Top shape: 24 (24)
I0403 18:55:25.638008  8143 net.cpp:156] Memory required for data: 14450784
I0403 18:55:25.638042  8143 layer_factory.hpp:77] Creating layer label_data_1_split
I0403 18:55:25.638074  8143 net.cpp:91] Creating Layer label_data_1_split
I0403 18:55:25.638098  8143 net.cpp:425] label_data_1_split <- label
I0403 18:55:25.638137  8143 net.cpp:399] label_data_1_split -> label_data_1_split_0
I0403 18:55:25.638171  8143 net.cpp:399] label_data_1_split -> label_data_1_split_1
I0403 18:55:25.638200  8143 net.cpp:399] label_data_1_split -> label_data_1_split_2
I0403 18:55:25.638226  8143 net.cpp:399] label_data_1_split -> label_data_1_split_3
I0403 18:55:25.638257  8143 net.cpp:399] label_data_1_split -> label_data_1_split_4
I0403 18:55:25.638283  8143 net.cpp:399] label_data_1_split -> label_data_1_split_5
I0403 18:55:25.638309  8143 net.cpp:399] label_data_1_split -> label_data_1_split_6
I0403 18:55:25.638334  8143 net.cpp:399] label_data_1_split -> label_data_1_split_7
I0403 18:55:25.638360  8143 net.cpp:399] label_data_1_split -> label_data_1_split_8
I0403 18:55:25.638386  8143 net.cpp:399] label_data_1_split -> label_data_1_split_9
I0403 18:55:25.638527  8143 net.cpp:141] Setting up label_data_1_split
I0403 18:55:25.638558  8143 net.cpp:148] Top shape: 24 (24)
I0403 18:55:25.638581  8143 net.cpp:148] Top shape: 24 (24)
I0403 18:55:25.638602  8143 net.cpp:148] Top shape: 24 (24)
I0403 18:55:25.638622  8143 net.cpp:148] Top shape: 24 (24)
I0403 18:55:25.638643  8143 net.cpp:148] Top shape: 24 (24)
I0403 18:55:25.638662  8143 net.cpp:148] Top shape: 24 (24)
I0403 18:55:25.638680  8143 net.cpp:148] Top shape: 24 (24)
I0403 18:55:25.638700  8143 net.cpp:148] Top shape: 24 (24)
I0403 18:55:25.638718  8143 net.cpp:148] Top shape: 24 (24)
I0403 18:55:25.638739  8143 net.cpp:148] Top shape: 24 (24)
I0403 18:55:25.638793  8143 net.cpp:156] Memory required for data: 14451744
I0403 18:55:25.638814  8143 layer_factory.hpp:77] Creating layer conv1/7x7_s2
I0403 18:55:25.638854  8143 net.cpp:91] Creating Layer conv1/7x7_s2
I0403 18:55:25.638878  8143 net.cpp:425] conv1/7x7_s2 <- data
I0403 18:55:25.638902  8143 net.cpp:399] conv1/7x7_s2 -> conv1/7x7_s2
I0403 18:55:25.810417  8143 net.cpp:141] Setting up conv1/7x7_s2
I0403 18:55:25.810536  8143 net.cpp:148] Top shape: 24 64 112 112 (19267584)
I0403 18:55:25.810557  8143 net.cpp:156] Memory required for data: 91522080
I0403 18:55:25.810595  8143 layer_factory.hpp:77] Creating layer conv1/relu_7x7
I0403 18:55:25.810627  8143 net.cpp:91] Creating Layer conv1/relu_7x7
I0403 18:55:25.810650  8143 net.cpp:425] conv1/relu_7x7 <- conv1/7x7_s2
I0403 18:55:25.810674  8143 net.cpp:386] conv1/relu_7x7 -> conv1/7x7_s2 (in-place)
I0403 18:55:25.810972  8143 net.cpp:141] Setting up conv1/relu_7x7
I0403 18:55:25.811007  8143 net.cpp:148] Top shape: 24 64 112 112 (19267584)
I0403 18:55:25.811025  8143 net.cpp:156] Memory required for data: 168592416
I0403 18:55:25.811044  8143 layer_factory.hpp:77] Creating layer pool1/3x3_s2
I0403 18:55:25.811074  8143 net.cpp:91] Creating Layer pool1/3x3_s2
I0403 18:55:25.811096  8143 net.cpp:425] pool1/3x3_s2 <- conv1/7x7_s2
I0403 18:55:25.811120  8143 net.cpp:399] pool1/3x3_s2 -> pool1/3x3_s2
I0403 18:55:25.811234  8143 net.cpp:141] Setting up pool1/3x3_s2
I0403 18:55:25.811274  8143 net.cpp:148] Top shape: 24 64 56 56 (4816896)
I0403 18:55:25.811293  8143 net.cpp:156] Memory required for data: 187860000
I0403 18:55:25.811311  8143 layer_factory.hpp:77] Creating layer pool1/norm1
I0403 18:55:25.811342  8143 net.cpp:91] Creating Layer pool1/norm1
I0403 18:55:25.811362  8143 net.cpp:425] pool1/norm1 <- pool1/3x3_s2
I0403 18:55:25.811384  8143 net.cpp:399] pool1/norm1 -> pool1/norm1
I0403 18:55:25.811727  8143 net.cpp:141] Setting up pool1/norm1
I0403 18:55:25.811760  8143 net.cpp:148] Top shape: 24 64 56 56 (4816896)
I0403 18:55:25.811780  8143 net.cpp:156] Memory required for data: 207127584
I0403 18:55:25.811800  8143 layer_factory.hpp:77] Creating layer conv2/3x3_reduce
I0403 18:55:25.811830  8143 net.cpp:91] Creating Layer conv2/3x3_reduce
I0403 18:55:25.811851  8143 net.cpp:425] conv2/3x3_reduce <- pool1/norm1
I0403 18:55:25.811874  8143 net.cpp:399] conv2/3x3_reduce -> conv2/3x3_reduce
I0403 18:55:25.813472  8143 net.cpp:141] Setting up conv2/3x3_reduce
I0403 18:55:25.813508  8143 net.cpp:148] Top shape: 24 64 56 56 (4816896)
I0403 18:55:25.813529  8143 net.cpp:156] Memory required for data: 226395168
I0403 18:55:25.813555  8143 layer_factory.hpp:77] Creating layer conv2/relu_3x3_reduce
I0403 18:55:25.813580  8143 net.cpp:91] Creating Layer conv2/relu_3x3_reduce
I0403 18:55:25.813599  8143 net.cpp:425] conv2/relu_3x3_reduce <- conv2/3x3_reduce
I0403 18:55:25.813621  8143 net.cpp:386] conv2/relu_3x3_reduce -> conv2/3x3_reduce (in-place)
I0403 18:55:25.813938  8143 net.cpp:141] Setting up conv2/relu_3x3_reduce
I0403 18:55:25.813972  8143 net.cpp:148] Top shape: 24 64 56 56 (4816896)
I0403 18:55:25.813990  8143 net.cpp:156] Memory required for data: 245662752
I0403 18:55:25.814008  8143 layer_factory.hpp:77] Creating layer conv2/3x3
I0403 18:55:25.814034  8143 net.cpp:91] Creating Layer conv2/3x3
I0403 18:55:25.814056  8143 net.cpp:425] conv2/3x3 <- conv2/3x3_reduce
I0403 18:55:25.814082  8143 net.cpp:399] conv2/3x3 -> conv2/3x3
I0403 18:55:25.816859  8143 net.cpp:141] Setting up conv2/3x3
I0403 18:55:25.816895  8143 net.cpp:148] Top shape: 24 192 56 56 (14450688)
I0403 18:55:25.816915  8143 net.cpp:156] Memory required for data: 303465504
I0403 18:55:25.816941  8143 layer_factory.hpp:77] Creating layer conv2/relu_3x3
I0403 18:55:25.816968  8143 net.cpp:91] Creating Layer conv2/relu_3x3
I0403 18:55:25.816989  8143 net.cpp:425] conv2/relu_3x3 <- conv2/3x3
I0403 18:55:25.817010  8143 net.cpp:386] conv2/relu_3x3 -> conv2/3x3 (in-place)
I0403 18:55:25.817221  8143 net.cpp:141] Setting up conv2/relu_3x3
I0403 18:55:25.817260  8143 net.cpp:148] Top shape: 24 192 56 56 (14450688)
I0403 18:55:25.817317  8143 net.cpp:156] Memory required for data: 361268256
I0403 18:55:25.817337  8143 layer_factory.hpp:77] Creating layer conv2/norm2
I0403 18:55:25.817363  8143 net.cpp:91] Creating Layer conv2/norm2
I0403 18:55:25.817384  8143 net.cpp:425] conv2/norm2 <- conv2/3x3
I0403 18:55:25.817407  8143 net.cpp:399] conv2/norm2 -> conv2/norm2
I0403 18:55:25.817775  8143 net.cpp:141] Setting up conv2/norm2
I0403 18:55:25.817811  8143 net.cpp:148] Top shape: 24 192 56 56 (14450688)
I0403 18:55:25.817832  8143 net.cpp:156] Memory required for data: 419071008
I0403 18:55:25.817852  8143 layer_factory.hpp:77] Creating layer pool2/3x3_s2
I0403 18:55:25.817873  8143 net.cpp:91] Creating Layer pool2/3x3_s2
I0403 18:55:25.817891  8143 net.cpp:425] pool2/3x3_s2 <- conv2/norm2
I0403 18:55:25.817916  8143 net.cpp:399] pool2/3x3_s2 -> pool2/3x3_s2
I0403 18:55:25.817980  8143 net.cpp:141] Setting up pool2/3x3_s2
I0403 18:55:25.818011  8143 net.cpp:148] Top shape: 24 192 28 28 (3612672)
I0403 18:55:25.818029  8143 net.cpp:156] Memory required for data: 433521696
I0403 18:55:25.818048  8143 layer_factory.hpp:77] Creating layer pool2/3x3_s2_pool2/3x3_s2_0_split
I0403 18:55:25.818068  8143 net.cpp:91] Creating Layer pool2/3x3_s2_pool2/3x3_s2_0_split
I0403 18:55:25.818087  8143 net.cpp:425] pool2/3x3_s2_pool2/3x3_s2_0_split <- pool2/3x3_s2
I0403 18:55:25.818109  8143 net.cpp:399] pool2/3x3_s2_pool2/3x3_s2_0_split -> pool2/3x3_s2_pool2/3x3_s2_0_split_0
I0403 18:55:25.818131  8143 net.cpp:399] pool2/3x3_s2_pool2/3x3_s2_0_split -> pool2/3x3_s2_pool2/3x3_s2_0_split_1
I0403 18:55:25.818157  8143 net.cpp:399] pool2/3x3_s2_pool2/3x3_s2_0_split -> pool2/3x3_s2_pool2/3x3_s2_0_split_2
I0403 18:55:25.818183  8143 net.cpp:399] pool2/3x3_s2_pool2/3x3_s2_0_split -> pool2/3x3_s2_pool2/3x3_s2_0_split_3
I0403 18:55:25.818279  8143 net.cpp:141] Setting up pool2/3x3_s2_pool2/3x3_s2_0_split
I0403 18:55:25.818307  8143 net.cpp:148] Top shape: 24 192 28 28 (3612672)
I0403 18:55:25.818328  8143 net.cpp:148] Top shape: 24 192 28 28 (3612672)
I0403 18:55:25.818348  8143 net.cpp:148] Top shape: 24 192 28 28 (3612672)
I0403 18:55:25.818367  8143 net.cpp:148] Top shape: 24 192 28 28 (3612672)
I0403 18:55:25.818383  8143 net.cpp:156] Memory required for data: 491324448
I0403 18:55:25.818402  8143 layer_factory.hpp:77] Creating layer inception_3a/1x1
I0403 18:55:25.818429  8143 net.cpp:91] Creating Layer inception_3a/1x1
I0403 18:55:25.818450  8143 net.cpp:425] inception_3a/1x1 <- pool2/3x3_s2_pool2/3x3_s2_0_split_0
I0403 18:55:25.818476  8143 net.cpp:399] inception_3a/1x1 -> inception_3a/1x1
I0403 18:55:25.820341  8143 net.cpp:141] Setting up inception_3a/1x1
I0403 18:55:25.820376  8143 net.cpp:148] Top shape: 24 64 28 28 (1204224)
I0403 18:55:25.820395  8143 net.cpp:156] Memory required for data: 496141344
I0403 18:55:25.820417  8143 layer_factory.hpp:77] Creating layer inception_3a/relu_1x1
I0403 18:55:25.820441  8143 net.cpp:91] Creating Layer inception_3a/relu_1x1
I0403 18:55:25.820461  8143 net.cpp:425] inception_3a/relu_1x1 <- inception_3a/1x1
I0403 18:55:25.820485  8143 net.cpp:386] inception_3a/relu_1x1 -> inception_3a/1x1 (in-place)
I0403 18:55:25.820699  8143 net.cpp:141] Setting up inception_3a/relu_1x1
I0403 18:55:25.820729  8143 net.cpp:148] Top shape: 24 64 28 28 (1204224)
I0403 18:55:25.820749  8143 net.cpp:156] Memory required for data: 500958240
I0403 18:55:25.820768  8143 layer_factory.hpp:77] Creating layer inception_3a/3x3_reduce
I0403 18:55:25.820796  8143 net.cpp:91] Creating Layer inception_3a/3x3_reduce
I0403 18:55:25.820818  8143 net.cpp:425] inception_3a/3x3_reduce <- pool2/3x3_s2_pool2/3x3_s2_0_split_1
I0403 18:55:25.820843  8143 net.cpp:399] inception_3a/3x3_reduce -> inception_3a/3x3_reduce
I0403 18:55:25.822868  8143 net.cpp:141] Setting up inception_3a/3x3_reduce
I0403 18:55:25.822904  8143 net.cpp:148] Top shape: 24 96 28 28 (1806336)
I0403 18:55:25.822923  8143 net.cpp:156] Memory required for data: 508183584
I0403 18:55:25.822949  8143 layer_factory.hpp:77] Creating layer inception_3a/relu_3x3_reduce
I0403 18:55:25.822999  8143 net.cpp:91] Creating Layer inception_3a/relu_3x3_reduce
I0403 18:55:25.823022  8143 net.cpp:425] inception_3a/relu_3x3_reduce <- inception_3a/3x3_reduce
I0403 18:55:25.823045  8143 net.cpp:386] inception_3a/relu_3x3_reduce -> inception_3a/3x3_reduce (in-place)
I0403 18:55:25.823271  8143 net.cpp:141] Setting up inception_3a/relu_3x3_reduce
I0403 18:55:25.823304  8143 net.cpp:148] Top shape: 24 96 28 28 (1806336)
I0403 18:55:25.823323  8143 net.cpp:156] Memory required for data: 515408928
I0403 18:55:25.823340  8143 layer_factory.hpp:77] Creating layer inception_3a/3x3
I0403 18:55:25.823369  8143 net.cpp:91] Creating Layer inception_3a/3x3
I0403 18:55:25.823390  8143 net.cpp:425] inception_3a/3x3 <- inception_3a/3x3_reduce
I0403 18:55:25.823413  8143 net.cpp:399] inception_3a/3x3 -> inception_3a/3x3
I0403 18:55:25.825405  8143 net.cpp:141] Setting up inception_3a/3x3
I0403 18:55:25.825441  8143 net.cpp:148] Top shape: 24 128 28 28 (2408448)
I0403 18:55:25.825460  8143 net.cpp:156] Memory required for data: 525042720
I0403 18:55:25.825484  8143 layer_factory.hpp:77] Creating layer inception_3a/relu_3x3
I0403 18:55:25.825508  8143 net.cpp:91] Creating Layer inception_3a/relu_3x3
I0403 18:55:25.825530  8143 net.cpp:425] inception_3a/relu_3x3 <- inception_3a/3x3
I0403 18:55:25.825551  8143 net.cpp:386] inception_3a/relu_3x3 -> inception_3a/3x3 (in-place)
I0403 18:55:25.825871  8143 net.cpp:141] Setting up inception_3a/relu_3x3
I0403 18:55:25.825904  8143 net.cpp:148] Top shape: 24 128 28 28 (2408448)
I0403 18:55:25.825923  8143 net.cpp:156] Memory required for data: 534676512
I0403 18:55:25.825942  8143 layer_factory.hpp:77] Creating layer inception_3a/5x5_reduce
I0403 18:55:25.825969  8143 net.cpp:91] Creating Layer inception_3a/5x5_reduce
I0403 18:55:25.825991  8143 net.cpp:425] inception_3a/5x5_reduce <- pool2/3x3_s2_pool2/3x3_s2_0_split_2
I0403 18:55:25.826017  8143 net.cpp:399] inception_3a/5x5_reduce -> inception_3a/5x5_reduce
I0403 18:55:25.827178  8143 net.cpp:141] Setting up inception_3a/5x5_reduce
I0403 18:55:25.827211  8143 net.cpp:148] Top shape: 24 16 28 28 (301056)
I0403 18:55:25.827231  8143 net.cpp:156] Memory required for data: 535880736
I0403 18:55:25.827262  8143 layer_factory.hpp:77] Creating layer inception_3a/relu_5x5_reduce
I0403 18:55:25.827293  8143 net.cpp:91] Creating Layer inception_3a/relu_5x5_reduce
I0403 18:55:25.827316  8143 net.cpp:425] inception_3a/relu_5x5_reduce <- inception_3a/5x5_reduce
I0403 18:55:25.827337  8143 net.cpp:386] inception_3a/relu_5x5_reduce -> inception_3a/5x5_reduce (in-place)
I0403 18:55:25.827666  8143 net.cpp:141] Setting up inception_3a/relu_5x5_reduce
I0403 18:55:25.827698  8143 net.cpp:148] Top shape: 24 16 28 28 (301056)
I0403 18:55:25.827718  8143 net.cpp:156] Memory required for data: 537084960
I0403 18:55:25.827735  8143 layer_factory.hpp:77] Creating layer inception_3a/5x5
I0403 18:55:25.827765  8143 net.cpp:91] Creating Layer inception_3a/5x5
I0403 18:55:25.827787  8143 net.cpp:425] inception_3a/5x5 <- inception_3a/5x5_reduce
I0403 18:55:25.827811  8143 net.cpp:399] inception_3a/5x5 -> inception_3a/5x5
I0403 18:55:25.829025  8143 net.cpp:141] Setting up inception_3a/5x5
I0403 18:55:25.829058  8143 net.cpp:148] Top shape: 24 32 28 28 (602112)
I0403 18:55:25.829079  8143 net.cpp:156] Memory required for data: 539493408
I0403 18:55:25.829103  8143 layer_factory.hpp:77] Creating layer inception_3a/relu_5x5
I0403 18:55:25.829126  8143 net.cpp:91] Creating Layer inception_3a/relu_5x5
I0403 18:55:25.829147  8143 net.cpp:425] inception_3a/relu_5x5 <- inception_3a/5x5
I0403 18:55:25.829171  8143 net.cpp:386] inception_3a/relu_5x5 -> inception_3a/5x5 (in-place)
I0403 18:55:25.829387  8143 net.cpp:141] Setting up inception_3a/relu_5x5
I0403 18:55:25.829419  8143 net.cpp:148] Top shape: 24 32 28 28 (602112)
I0403 18:55:25.829438  8143 net.cpp:156] Memory required for data: 541901856
I0403 18:55:25.829457  8143 layer_factory.hpp:77] Creating layer inception_3a/pool
I0403 18:55:25.829483  8143 net.cpp:91] Creating Layer inception_3a/pool
I0403 18:55:25.829519  8143 net.cpp:425] inception_3a/pool <- pool2/3x3_s2_pool2/3x3_s2_0_split_3
I0403 18:55:25.829542  8143 net.cpp:399] inception_3a/pool -> inception_3a/pool
I0403 18:55:25.829613  8143 net.cpp:141] Setting up inception_3a/pool
I0403 18:55:25.829641  8143 net.cpp:148] Top shape: 24 192 28 28 (3612672)
I0403 18:55:25.829659  8143 net.cpp:156] Memory required for data: 556352544
I0403 18:55:25.829676  8143 layer_factory.hpp:77] Creating layer inception_3a/pool_proj
I0403 18:55:25.829704  8143 net.cpp:91] Creating Layer inception_3a/pool_proj
I0403 18:55:25.829725  8143 net.cpp:425] inception_3a/pool_proj <- inception_3a/pool
I0403 18:55:25.829752  8143 net.cpp:399] inception_3a/pool_proj -> inception_3a/pool_proj
I0403 18:55:25.830904  8143 net.cpp:141] Setting up inception_3a/pool_proj
I0403 18:55:25.830940  8143 net.cpp:148] Top shape: 24 32 28 28 (602112)
I0403 18:55:25.830960  8143 net.cpp:156] Memory required for data: 558760992
I0403 18:55:25.830986  8143 layer_factory.hpp:77] Creating layer inception_3a/relu_pool_proj
I0403 18:55:25.831017  8143 net.cpp:91] Creating Layer inception_3a/relu_pool_proj
I0403 18:55:25.831038  8143 net.cpp:425] inception_3a/relu_pool_proj <- inception_3a/pool_proj
I0403 18:55:25.831061  8143 net.cpp:386] inception_3a/relu_pool_proj -> inception_3a/pool_proj (in-place)
I0403 18:55:25.831393  8143 net.cpp:141] Setting up inception_3a/relu_pool_proj
I0403 18:55:25.831423  8143 net.cpp:148] Top shape: 24 32 28 28 (602112)
I0403 18:55:25.831442  8143 net.cpp:156] Memory required for data: 561169440
I0403 18:55:25.831461  8143 layer_factory.hpp:77] Creating layer inception_3a/output
I0403 18:55:25.831483  8143 net.cpp:91] Creating Layer inception_3a/output
I0403 18:55:25.831504  8143 net.cpp:425] inception_3a/output <- inception_3a/1x1
I0403 18:55:25.831526  8143 net.cpp:425] inception_3a/output <- inception_3a/3x3
I0403 18:55:25.831545  8143 net.cpp:425] inception_3a/output <- inception_3a/5x5
I0403 18:55:25.831565  8143 net.cpp:425] inception_3a/output <- inception_3a/pool_proj
I0403 18:55:25.831589  8143 net.cpp:399] inception_3a/output -> inception_3a/output
I0403 18:55:25.831648  8143 net.cpp:141] Setting up inception_3a/output
I0403 18:55:25.831677  8143 net.cpp:148] Top shape: 24 256 28 28 (4816896)
I0403 18:55:25.831696  8143 net.cpp:156] Memory required for data: 580437024
I0403 18:55:25.831714  8143 layer_factory.hpp:77] Creating layer inception_3a/output_inception_3a/output_0_split
I0403 18:55:25.831734  8143 net.cpp:91] Creating Layer inception_3a/output_inception_3a/output_0_split
I0403 18:55:25.831753  8143 net.cpp:425] inception_3a/output_inception_3a/output_0_split <- inception_3a/output
I0403 18:55:25.831778  8143 net.cpp:399] inception_3a/output_inception_3a/output_0_split -> inception_3a/output_inception_3a/output_0_split_0
I0403 18:55:25.831804  8143 net.cpp:399] inception_3a/output_inception_3a/output_0_split -> inception_3a/output_inception_3a/output_0_split_1
I0403 18:55:25.831831  8143 net.cpp:399] inception_3a/output_inception_3a/output_0_split -> inception_3a/output_inception_3a/output_0_split_2
I0403 18:55:25.831856  8143 net.cpp:399] inception_3a/output_inception_3a/output_0_split -> inception_3a/output_inception_3a/output_0_split_3
I0403 18:55:25.831950  8143 net.cpp:141] Setting up inception_3a/output_inception_3a/output_0_split
I0403 18:55:25.831979  8143 net.cpp:148] Top shape: 24 256 28 28 (4816896)
I0403 18:55:25.831998  8143 net.cpp:148] Top shape: 24 256 28 28 (4816896)
I0403 18:55:25.832018  8143 net.cpp:148] Top shape: 24 256 28 28 (4816896)
I0403 18:55:25.832037  8143 net.cpp:148] Top shape: 24 256 28 28 (4816896)
I0403 18:55:25.832056  8143 net.cpp:156] Memory required for data: 657507360
I0403 18:55:25.832074  8143 layer_factory.hpp:77] Creating layer inception_3b/1x1
I0403 18:55:25.832103  8143 net.cpp:91] Creating Layer inception_3b/1x1
I0403 18:55:25.832124  8143 net.cpp:425] inception_3b/1x1 <- inception_3a/output_inception_3a/output_0_split_0
I0403 18:55:25.832150  8143 net.cpp:399] inception_3b/1x1 -> inception_3b/1x1
I0403 18:55:25.833539  8143 net.cpp:141] Setting up inception_3b/1x1
I0403 18:55:25.833587  8143 net.cpp:148] Top shape: 24 128 28 28 (2408448)
I0403 18:55:25.833607  8143 net.cpp:156] Memory required for data: 667141152
I0403 18:55:25.833629  8143 layer_factory.hpp:77] Creating layer inception_3b/relu_1x1
I0403 18:55:25.833652  8143 net.cpp:91] Creating Layer inception_3b/relu_1x1
I0403 18:55:25.833672  8143 net.cpp:425] inception_3b/relu_1x1 <- inception_3b/1x1
I0403 18:55:25.833698  8143 net.cpp:386] inception_3b/relu_1x1 -> inception_3b/1x1 (in-place)
I0403 18:55:25.833907  8143 net.cpp:141] Setting up inception_3b/relu_1x1
I0403 18:55:25.833938  8143 net.cpp:148] Top shape: 24 128 28 28 (2408448)
I0403 18:55:25.833957  8143 net.cpp:156] Memory required for data: 676774944
I0403 18:55:25.833974  8143 layer_factory.hpp:77] Creating layer inception_3b/3x3_reduce
I0403 18:55:25.834003  8143 net.cpp:91] Creating Layer inception_3b/3x3_reduce
I0403 18:55:25.834025  8143 net.cpp:425] inception_3b/3x3_reduce <- inception_3a/output_inception_3a/output_0_split_1
I0403 18:55:25.834053  8143 net.cpp:399] inception_3b/3x3_reduce -> inception_3b/3x3_reduce
I0403 18:55:25.835438  8143 net.cpp:141] Setting up inception_3b/3x3_reduce
I0403 18:55:25.835471  8143 net.cpp:148] Top shape: 24 128 28 28 (2408448)
I0403 18:55:25.835490  8143 net.cpp:156] Memory required for data: 686408736
I0403 18:55:25.835513  8143 layer_factory.hpp:77] Creating layer inception_3b/relu_3x3_reduce
I0403 18:55:25.835536  8143 net.cpp:91] Creating Layer inception_3b/relu_3x3_reduce
I0403 18:55:25.835557  8143 net.cpp:425] inception_3b/relu_3x3_reduce <- inception_3b/3x3_reduce
I0403 18:55:25.835580  8143 net.cpp:386] inception_3b/relu_3x3_reduce -> inception_3b/3x3_reduce (in-place)
I0403 18:55:25.835788  8143 net.cpp:141] Setting up inception_3b/relu_3x3_reduce
I0403 18:55:25.835819  8143 net.cpp:148] Top shape: 24 128 28 28 (2408448)
I0403 18:55:25.835837  8143 net.cpp:156] Memory required for data: 696042528
I0403 18:55:25.835857  8143 layer_factory.hpp:77] Creating layer inception_3b/3x3
I0403 18:55:25.835888  8143 net.cpp:91] Creating Layer inception_3b/3x3
I0403 18:55:25.835911  8143 net.cpp:425] inception_3b/3x3 <- inception_3b/3x3_reduce
I0403 18:55:25.835935  8143 net.cpp:399] inception_3b/3x3 -> inception_3b/3x3
I0403 18:55:25.839442  8143 net.cpp:141] Setting up inception_3b/3x3
I0403 18:55:25.839476  8143 net.cpp:148] Top shape: 24 192 28 28 (3612672)
I0403 18:55:25.839496  8143 net.cpp:156] Memory required for data: 710493216
I0403 18:55:25.839519  8143 layer_factory.hpp:77] Creating layer inception_3b/relu_3x3
I0403 18:55:25.839545  8143 net.cpp:91] Creating Layer inception_3b/relu_3x3
I0403 18:55:25.839565  8143 net.cpp:425] inception_3b/relu_3x3 <- inception_3b/3x3
I0403 18:55:25.839587  8143 net.cpp:386] inception_3b/relu_3x3 -> inception_3b/3x3 (in-place)
I0403 18:55:25.839920  8143 net.cpp:141] Setting up inception_3b/relu_3x3
I0403 18:55:25.839953  8143 net.cpp:148] Top shape: 24 192 28 28 (3612672)
I0403 18:55:25.839972  8143 net.cpp:156] Memory required for data: 724943904
I0403 18:55:25.839993  8143 layer_factory.hpp:77] Creating layer inception_3b/5x5_reduce
I0403 18:55:25.840021  8143 net.cpp:91] Creating Layer inception_3b/5x5_reduce
I0403 18:55:25.840044  8143 net.cpp:425] inception_3b/5x5_reduce <- inception_3a/output_inception_3a/output_0_split_2
I0403 18:55:25.840070  8143 net.cpp:399] inception_3b/5x5_reduce -> inception_3b/5x5_reduce
I0403 18:55:25.841275  8143 net.cpp:141] Setting up inception_3b/5x5_reduce
I0403 18:55:25.841310  8143 net.cpp:148] Top shape: 24 32 28 28 (602112)
I0403 18:55:25.841330  8143 net.cpp:156] Memory required for data: 727352352
I0403 18:55:25.841352  8143 layer_factory.hpp:77] Creating layer inception_3b/relu_5x5_reduce
I0403 18:55:25.841377  8143 net.cpp:91] Creating Layer inception_3b/relu_5x5_reduce
I0403 18:55:25.841398  8143 net.cpp:425] inception_3b/relu_5x5_reduce <- inception_3b/5x5_reduce
I0403 18:55:25.841428  8143 net.cpp:386] inception_3b/relu_5x5_reduce -> inception_3b/5x5_reduce (in-place)
I0403 18:55:25.841662  8143 net.cpp:141] Setting up inception_3b/relu_5x5_reduce
I0403 18:55:25.841693  8143 net.cpp:148] Top shape: 24 32 28 28 (602112)
I0403 18:55:25.841714  8143 net.cpp:156] Memory required for data: 729760800
I0403 18:55:25.841734  8143 layer_factory.hpp:77] Creating layer inception_3b/5x5
I0403 18:55:25.841760  8143 net.cpp:91] Creating Layer inception_3b/5x5
I0403 18:55:25.841781  8143 net.cpp:425] inception_3b/5x5 <- inception_3b/5x5_reduce
I0403 18:55:25.841807  8143 net.cpp:399] inception_3b/5x5 -> inception_3b/5x5
I0403 18:55:25.844198  8143 net.cpp:141] Setting up inception_3b/5x5
I0403 18:55:25.844234  8143 net.cpp:148] Top shape: 24 96 28 28 (1806336)
I0403 18:55:25.844261  8143 net.cpp:156] Memory required for data: 736986144
I0403 18:55:25.844285  8143 layer_factory.hpp:77] Creating layer inception_3b/relu_5x5
I0403 18:55:25.844307  8143 net.cpp:91] Creating Layer inception_3b/relu_5x5
I0403 18:55:25.844327  8143 net.cpp:425] inception_3b/relu_5x5 <- inception_3b/5x5
I0403 18:55:25.844357  8143 net.cpp:386] inception_3b/relu_5x5 -> inception_3b/5x5 (in-place)
I0403 18:55:25.844590  8143 net.cpp:141] Setting up inception_3b/relu_5x5
I0403 18:55:25.844622  8143 net.cpp:148] Top shape: 24 96 28 28 (1806336)
I0403 18:55:25.844640  8143 net.cpp:156] Memory required for data: 744211488
I0403 18:55:25.844660  8143 layer_factory.hpp:77] Creating layer inception_3b/pool
I0403 18:55:25.844681  8143 net.cpp:91] Creating Layer inception_3b/pool
I0403 18:55:25.844702  8143 net.cpp:425] inception_3b/pool <- inception_3a/output_inception_3a/output_0_split_3
I0403 18:55:25.844725  8143 net.cpp:399] inception_3b/pool -> inception_3b/pool
I0403 18:55:25.844797  8143 net.cpp:141] Setting up inception_3b/pool
I0403 18:55:25.844826  8143 net.cpp:148] Top shape: 24 256 28 28 (4816896)
I0403 18:55:25.844844  8143 net.cpp:156] Memory required for data: 763479072
I0403 18:55:25.844863  8143 layer_factory.hpp:77] Creating layer inception_3b/pool_proj
I0403 18:55:25.844892  8143 net.cpp:91] Creating Layer inception_3b/pool_proj
I0403 18:55:25.844913  8143 net.cpp:425] inception_3b/pool_proj <- inception_3b/pool
I0403 18:55:25.844940  8143 net.cpp:399] inception_3b/pool_proj -> inception_3b/pool_proj
I0403 18:55:25.846210  8143 net.cpp:141] Setting up inception_3b/pool_proj
I0403 18:55:25.846252  8143 net.cpp:148] Top shape: 24 64 28 28 (1204224)
I0403 18:55:25.846274  8143 net.cpp:156] Memory required for data: 768295968
I0403 18:55:25.846297  8143 layer_factory.hpp:77] Creating layer inception_3b/relu_pool_proj
I0403 18:55:25.846320  8143 net.cpp:91] Creating Layer inception_3b/relu_pool_proj
I0403 18:55:25.846340  8143 net.cpp:425] inception_3b/relu_pool_proj <- inception_3b/pool_proj
I0403 18:55:25.846361  8143 net.cpp:386] inception_3b/relu_pool_proj -> inception_3b/pool_proj (in-place)
I0403 18:55:25.846806  8143 net.cpp:141] Setting up inception_3b/relu_pool_proj
I0403 18:55:25.846837  8143 net.cpp:148] Top shape: 24 64 28 28 (1204224)
I0403 18:55:25.846856  8143 net.cpp:156] Memory required for data: 773112864
I0403 18:55:25.846875  8143 layer_factory.hpp:77] Creating layer inception_3b/output
I0403 18:55:25.846900  8143 net.cpp:91] Creating Layer inception_3b/output
I0403 18:55:25.846921  8143 net.cpp:425] inception_3b/output <- inception_3b/1x1
I0403 18:55:25.846942  8143 net.cpp:425] inception_3b/output <- inception_3b/3x3
I0403 18:55:25.846962  8143 net.cpp:425] inception_3b/output <- inception_3b/5x5
I0403 18:55:25.846982  8143 net.cpp:425] inception_3b/output <- inception_3b/pool_proj
I0403 18:55:25.847003  8143 net.cpp:399] inception_3b/output -> inception_3b/output
I0403 18:55:25.847059  8143 net.cpp:141] Setting up inception_3b/output
I0403 18:55:25.847087  8143 net.cpp:148] Top shape: 24 480 28 28 (9031680)
I0403 18:55:25.847106  8143 net.cpp:156] Memory required for data: 809239584
I0403 18:55:25.847123  8143 layer_factory.hpp:77] Creating layer pool3/3x3_s2
I0403 18:55:25.847146  8143 net.cpp:91] Creating Layer pool3/3x3_s2
I0403 18:55:25.847164  8143 net.cpp:425] pool3/3x3_s2 <- inception_3b/output
I0403 18:55:25.847213  8143 net.cpp:399] pool3/3x3_s2 -> pool3/3x3_s2
I0403 18:55:25.847290  8143 net.cpp:141] Setting up pool3/3x3_s2
I0403 18:55:25.847321  8143 net.cpp:148] Top shape: 24 480 14 14 (2257920)
I0403 18:55:25.847338  8143 net.cpp:156] Memory required for data: 818271264
I0403 18:55:25.847357  8143 layer_factory.hpp:77] Creating layer pool3/3x3_s2_pool3/3x3_s2_0_split
I0403 18:55:25.847381  8143 net.cpp:91] Creating Layer pool3/3x3_s2_pool3/3x3_s2_0_split
I0403 18:55:25.847403  8143 net.cpp:425] pool3/3x3_s2_pool3/3x3_s2_0_split <- pool3/3x3_s2
I0403 18:55:25.847427  8143 net.cpp:399] pool3/3x3_s2_pool3/3x3_s2_0_split -> pool3/3x3_s2_pool3/3x3_s2_0_split_0
I0403 18:55:25.847451  8143 net.cpp:399] pool3/3x3_s2_pool3/3x3_s2_0_split -> pool3/3x3_s2_pool3/3x3_s2_0_split_1
I0403 18:55:25.847476  8143 net.cpp:399] pool3/3x3_s2_pool3/3x3_s2_0_split -> pool3/3x3_s2_pool3/3x3_s2_0_split_2
I0403 18:55:25.847501  8143 net.cpp:399] pool3/3x3_s2_pool3/3x3_s2_0_split -> pool3/3x3_s2_pool3/3x3_s2_0_split_3
I0403 18:55:25.847591  8143 net.cpp:141] Setting up pool3/3x3_s2_pool3/3x3_s2_0_split
I0403 18:55:25.847622  8143 net.cpp:148] Top shape: 24 480 14 14 (2257920)
I0403 18:55:25.847645  8143 net.cpp:148] Top shape: 24 480 14 14 (2257920)
I0403 18:55:25.847666  8143 net.cpp:148] Top shape: 24 480 14 14 (2257920)
I0403 18:55:25.847686  8143 net.cpp:148] Top shape: 24 480 14 14 (2257920)
I0403 18:55:25.847702  8143 net.cpp:156] Memory required for data: 854397984
I0403 18:55:25.847721  8143 layer_factory.hpp:77] Creating layer inception_4a/1x1
I0403 18:55:25.847746  8143 net.cpp:91] Creating Layer inception_4a/1x1
I0403 18:55:25.847767  8143 net.cpp:425] inception_4a/1x1 <- pool3/3x3_s2_pool3/3x3_s2_0_split_0
I0403 18:55:25.847795  8143 net.cpp:399] inception_4a/1x1 -> inception_4a/1x1
I0403 18:55:25.849709  8143 net.cpp:141] Setting up inception_4a/1x1
I0403 18:55:25.849746  8143 net.cpp:148] Top shape: 24 192 14 14 (903168)
I0403 18:55:25.849767  8143 net.cpp:156] Memory required for data: 858010656
I0403 18:55:25.849789  8143 layer_factory.hpp:77] Creating layer inception_4a/relu_1x1
I0403 18:55:25.849812  8143 net.cpp:91] Creating Layer inception_4a/relu_1x1
I0403 18:55:25.849833  8143 net.cpp:425] inception_4a/relu_1x1 <- inception_4a/1x1
I0403 18:55:25.849854  8143 net.cpp:386] inception_4a/relu_1x1 -> inception_4a/1x1 (in-place)
I0403 18:55:25.850070  8143 net.cpp:141] Setting up inception_4a/relu_1x1
I0403 18:55:25.850100  8143 net.cpp:148] Top shape: 24 192 14 14 (903168)
I0403 18:55:25.850119  8143 net.cpp:156] Memory required for data: 861623328
I0403 18:55:25.850137  8143 layer_factory.hpp:77] Creating layer inception_4a/3x3_reduce
I0403 18:55:25.850165  8143 net.cpp:91] Creating Layer inception_4a/3x3_reduce
I0403 18:55:25.850188  8143 net.cpp:425] inception_4a/3x3_reduce <- pool3/3x3_s2_pool3/3x3_s2_0_split_1
I0403 18:55:25.850213  8143 net.cpp:399] inception_4a/3x3_reduce -> inception_4a/3x3_reduce
I0403 18:55:25.851743  8143 net.cpp:141] Setting up inception_4a/3x3_reduce
I0403 18:55:25.851780  8143 net.cpp:148] Top shape: 24 96 14 14 (451584)
I0403 18:55:25.851800  8143 net.cpp:156] Memory required for data: 863429664
I0403 18:55:25.851831  8143 layer_factory.hpp:77] Creating layer inception_4a/relu_3x3_reduce
I0403 18:55:25.851857  8143 net.cpp:91] Creating Layer inception_4a/relu_3x3_reduce
I0403 18:55:25.851877  8143 net.cpp:425] inception_4a/relu_3x3_reduce <- inception_4a/3x3_reduce
I0403 18:55:25.851900  8143 net.cpp:386] inception_4a/relu_3x3_reduce -> inception_4a/3x3_reduce (in-place)
I0403 18:55:25.852111  8143 net.cpp:141] Setting up inception_4a/relu_3x3_reduce
I0403 18:55:25.852149  8143 net.cpp:148] Top shape: 24 96 14 14 (451584)
I0403 18:55:25.852169  8143 net.cpp:156] Memory required for data: 865236000
I0403 18:55:25.852187  8143 layer_factory.hpp:77] Creating layer inception_4a/3x3
I0403 18:55:25.852216  8143 net.cpp:91] Creating Layer inception_4a/3x3
I0403 18:55:25.852236  8143 net.cpp:425] inception_4a/3x3 <- inception_4a/3x3_reduce
I0403 18:55:25.852278  8143 net.cpp:399] inception_4a/3x3 -> inception_4a/3x3
I0403 18:55:25.855505  8143 net.cpp:141] Setting up inception_4a/3x3
I0403 18:55:25.855540  8143 net.cpp:148] Top shape: 24 208 14 14 (978432)
I0403 18:55:25.855561  8143 net.cpp:156] Memory required for data: 869149728
I0403 18:55:25.855583  8143 layer_factory.hpp:77] Creating layer inception_4a/relu_3x3
I0403 18:55:25.855607  8143 net.cpp:91] Creating Layer inception_4a/relu_3x3
I0403 18:55:25.855625  8143 net.cpp:425] inception_4a/relu_3x3 <- inception_4a/3x3
I0403 18:55:25.855650  8143 net.cpp:386] inception_4a/relu_3x3 -> inception_4a/3x3 (in-place)
I0403 18:55:25.855984  8143 net.cpp:141] Setting up inception_4a/relu_3x3
I0403 18:55:25.856017  8143 net.cpp:148] Top shape: 24 208 14 14 (978432)
I0403 18:55:25.856036  8143 net.cpp:156] Memory required for data: 873063456
I0403 18:55:25.856056  8143 layer_factory.hpp:77] Creating layer inception_4a/5x5_reduce
I0403 18:55:25.856083  8143 net.cpp:91] Creating Layer inception_4a/5x5_reduce
I0403 18:55:25.856106  8143 net.cpp:425] inception_4a/5x5_reduce <- pool3/3x3_s2_pool3/3x3_s2_0_split_2
I0403 18:55:25.856133  8143 net.cpp:399] inception_4a/5x5_reduce -> inception_4a/5x5_reduce
I0403 18:55:25.857372  8143 net.cpp:141] Setting up inception_4a/5x5_reduce
I0403 18:55:25.857405  8143 net.cpp:148] Top shape: 24 16 14 14 (75264)
I0403 18:55:25.857425  8143 net.cpp:156] Memory required for data: 873364512
I0403 18:55:25.857450  8143 layer_factory.hpp:77] Creating layer inception_4a/relu_5x5_reduce
I0403 18:55:25.857471  8143 net.cpp:91] Creating Layer inception_4a/relu_5x5_reduce
I0403 18:55:25.857491  8143 net.cpp:425] inception_4a/relu_5x5_reduce <- inception_4a/5x5_reduce
I0403 18:55:25.857514  8143 net.cpp:386] inception_4a/relu_5x5_reduce -> inception_4a/5x5_reduce (in-place)
I0403 18:55:25.857738  8143 net.cpp:141] Setting up inception_4a/relu_5x5_reduce
I0403 18:55:25.857769  8143 net.cpp:148] Top shape: 24 16 14 14 (75264)
I0403 18:55:25.857787  8143 net.cpp:156] Memory required for data: 873665568
I0403 18:55:25.857806  8143 layer_factory.hpp:77] Creating layer inception_4a/5x5
I0403 18:55:25.857833  8143 net.cpp:91] Creating Layer inception_4a/5x5
I0403 18:55:25.857856  8143 net.cpp:425] inception_4a/5x5 <- inception_4a/5x5_reduce
I0403 18:55:25.857882  8143 net.cpp:399] inception_4a/5x5 -> inception_4a/5x5
I0403 18:55:25.859182  8143 net.cpp:141] Setting up inception_4a/5x5
I0403 18:55:25.859215  8143 net.cpp:148] Top shape: 24 48 14 14 (225792)
I0403 18:55:25.859233  8143 net.cpp:156] Memory required for data: 874568736
I0403 18:55:25.859266  8143 layer_factory.hpp:77] Creating layer inception_4a/relu_5x5
I0403 18:55:25.859290  8143 net.cpp:91] Creating Layer inception_4a/relu_5x5
I0403 18:55:25.859311  8143 net.cpp:425] inception_4a/relu_5x5 <- inception_4a/5x5
I0403 18:55:25.859333  8143 net.cpp:386] inception_4a/relu_5x5 -> inception_4a/5x5 (in-place)
I0403 18:55:25.859549  8143 net.cpp:141] Setting up inception_4a/relu_5x5
I0403 18:55:25.859580  8143 net.cpp:148] Top shape: 24 48 14 14 (225792)
I0403 18:55:25.859598  8143 net.cpp:156] Memory required for data: 875471904
I0403 18:55:25.859616  8143 layer_factory.hpp:77] Creating layer inception_4a/pool
I0403 18:55:25.859637  8143 net.cpp:91] Creating Layer inception_4a/pool
I0403 18:55:25.859658  8143 net.cpp:425] inception_4a/pool <- pool3/3x3_s2_pool3/3x3_s2_0_split_3
I0403 18:55:25.859683  8143 net.cpp:399] inception_4a/pool -> inception_4a/pool
I0403 18:55:25.859755  8143 net.cpp:141] Setting up inception_4a/pool
I0403 18:55:25.859784  8143 net.cpp:148] Top shape: 24 480 14 14 (2257920)
I0403 18:55:25.859802  8143 net.cpp:156] Memory required for data: 884503584
I0403 18:55:25.859822  8143 layer_factory.hpp:77] Creating layer inception_4a/pool_proj
I0403 18:55:25.859849  8143 net.cpp:91] Creating Layer inception_4a/pool_proj
I0403 18:55:25.859871  8143 net.cpp:425] inception_4a/pool_proj <- inception_4a/pool
I0403 18:55:25.859894  8143 net.cpp:399] inception_4a/pool_proj -> inception_4a/pool_proj
I0403 18:55:25.861310  8143 net.cpp:141] Setting up inception_4a/pool_proj
I0403 18:55:25.861348  8143 net.cpp:148] Top shape: 24 64 14 14 (301056)
I0403 18:55:25.861387  8143 net.cpp:156] Memory required for data: 885707808
I0403 18:55:25.861412  8143 layer_factory.hpp:77] Creating layer inception_4a/relu_pool_proj
I0403 18:55:25.861435  8143 net.cpp:91] Creating Layer inception_4a/relu_pool_proj
I0403 18:55:25.861455  8143 net.cpp:425] inception_4a/relu_pool_proj <- inception_4a/pool_proj
I0403 18:55:25.861480  8143 net.cpp:386] inception_4a/relu_pool_proj -> inception_4a/pool_proj (in-place)
I0403 18:55:25.861820  8143 net.cpp:141] Setting up inception_4a/relu_pool_proj
I0403 18:55:25.861856  8143 net.cpp:148] Top shape: 24 64 14 14 (301056)
I0403 18:55:25.861876  8143 net.cpp:156] Memory required for data: 886912032
I0403 18:55:25.861894  8143 layer_factory.hpp:77] Creating layer inception_4a/output
I0403 18:55:25.861918  8143 net.cpp:91] Creating Layer inception_4a/output
I0403 18:55:25.861937  8143 net.cpp:425] inception_4a/output <- inception_4a/1x1
I0403 18:55:25.861958  8143 net.cpp:425] inception_4a/output <- inception_4a/3x3
I0403 18:55:25.861979  8143 net.cpp:425] inception_4a/output <- inception_4a/5x5
I0403 18:55:25.861997  8143 net.cpp:425] inception_4a/output <- inception_4a/pool_proj
I0403 18:55:25.862018  8143 net.cpp:399] inception_4a/output -> inception_4a/output
I0403 18:55:25.862076  8143 net.cpp:141] Setting up inception_4a/output
I0403 18:55:25.862105  8143 net.cpp:148] Top shape: 24 512 14 14 (2408448)
I0403 18:55:25.862123  8143 net.cpp:156] Memory required for data: 896545824
I0403 18:55:25.862141  8143 layer_factory.hpp:77] Creating layer inception_4a/output_inception_4a/output_0_split
I0403 18:55:25.862164  8143 net.cpp:91] Creating Layer inception_4a/output_inception_4a/output_0_split
I0403 18:55:25.862182  8143 net.cpp:425] inception_4a/output_inception_4a/output_0_split <- inception_4a/output
I0403 18:55:25.862207  8143 net.cpp:399] inception_4a/output_inception_4a/output_0_split -> inception_4a/output_inception_4a/output_0_split_0
I0403 18:55:25.862233  8143 net.cpp:399] inception_4a/output_inception_4a/output_0_split -> inception_4a/output_inception_4a/output_0_split_1
I0403 18:55:25.862277  8143 net.cpp:399] inception_4a/output_inception_4a/output_0_split -> inception_4a/output_inception_4a/output_0_split_2
I0403 18:55:25.862309  8143 net.cpp:399] inception_4a/output_inception_4a/output_0_split -> inception_4a/output_inception_4a/output_0_split_3
I0403 18:55:25.862334  8143 net.cpp:399] inception_4a/output_inception_4a/output_0_split -> inception_4a/output_inception_4a/output_0_split_4
I0403 18:55:25.862447  8143 net.cpp:141] Setting up inception_4a/output_inception_4a/output_0_split
I0403 18:55:25.862475  8143 net.cpp:148] Top shape: 24 512 14 14 (2408448)
I0403 18:55:25.862496  8143 net.cpp:148] Top shape: 24 512 14 14 (2408448)
I0403 18:55:25.862515  8143 net.cpp:148] Top shape: 24 512 14 14 (2408448)
I0403 18:55:25.862535  8143 net.cpp:148] Top shape: 24 512 14 14 (2408448)
I0403 18:55:25.862555  8143 net.cpp:148] Top shape: 24 512 14 14 (2408448)
I0403 18:55:25.862571  8143 net.cpp:156] Memory required for data: 944714784
I0403 18:55:25.862591  8143 layer_factory.hpp:77] Creating layer loss1/ave_pool
I0403 18:55:25.862612  8143 net.cpp:91] Creating Layer loss1/ave_pool
I0403 18:55:25.862632  8143 net.cpp:425] loss1/ave_pool <- inception_4a/output_inception_4a/output_0_split_0
I0403 18:55:25.862654  8143 net.cpp:399] loss1/ave_pool -> loss1/ave_pool
I0403 18:55:25.862902  8143 net.cpp:141] Setting up loss1/ave_pool
I0403 18:55:25.862936  8143 net.cpp:148] Top shape: 24 512 4 4 (196608)
I0403 18:55:25.862956  8143 net.cpp:156] Memory required for data: 945501216
I0403 18:55:25.862973  8143 layer_factory.hpp:77] Creating layer loss1/conv
I0403 18:55:25.863001  8143 net.cpp:91] Creating Layer loss1/conv
I0403 18:55:25.863023  8143 net.cpp:425] loss1/conv <- loss1/ave_pool
I0403 18:55:25.863045  8143 net.cpp:399] loss1/conv -> loss1/conv
I0403 18:55:25.864760  8143 net.cpp:141] Setting up loss1/conv
I0403 18:55:25.864795  8143 net.cpp:148] Top shape: 24 128 4 4 (49152)
I0403 18:55:25.864830  8143 net.cpp:156] Memory required for data: 945697824
I0403 18:55:25.864856  8143 layer_factory.hpp:77] Creating layer loss1/relu_conv
I0403 18:55:25.864876  8143 net.cpp:91] Creating Layer loss1/relu_conv
I0403 18:55:25.864897  8143 net.cpp:425] loss1/relu_conv <- loss1/conv
I0403 18:55:25.864920  8143 net.cpp:386] loss1/relu_conv -> loss1/conv (in-place)
I0403 18:55:25.865273  8143 net.cpp:141] Setting up loss1/relu_conv
I0403 18:55:25.865306  8143 net.cpp:148] Top shape: 24 128 4 4 (49152)
I0403 18:55:25.865325  8143 net.cpp:156] Memory required for data: 945894432
I0403 18:55:25.865342  8143 layer_factory.hpp:77] Creating layer loss1/fc
I0403 18:55:25.865371  8143 net.cpp:91] Creating Layer loss1/fc
I0403 18:55:25.865393  8143 net.cpp:425] loss1/fc <- loss1/conv
I0403 18:55:25.865418  8143 net.cpp:399] loss1/fc -> loss1/fc
I0403 18:55:25.887421  8143 net.cpp:141] Setting up loss1/fc
I0403 18:55:25.887464  8143 net.cpp:148] Top shape: 24 1024 (24576)
I0403 18:55:25.887485  8143 net.cpp:156] Memory required for data: 945992736
I0403 18:55:25.887511  8143 layer_factory.hpp:77] Creating layer loss1/relu_fc
I0403 18:55:25.887533  8143 net.cpp:91] Creating Layer loss1/relu_fc
I0403 18:55:25.887554  8143 net.cpp:425] loss1/relu_fc <- loss1/fc
I0403 18:55:25.887575  8143 net.cpp:386] loss1/relu_fc -> loss1/fc (in-place)
I0403 18:55:25.887805  8143 net.cpp:141] Setting up loss1/relu_fc
I0403 18:55:25.887838  8143 net.cpp:148] Top shape: 24 1024 (24576)
I0403 18:55:25.887857  8143 net.cpp:156] Memory required for data: 946091040
I0403 18:55:25.887876  8143 layer_factory.hpp:77] Creating layer loss1/drop_fc
I0403 18:55:25.887907  8143 net.cpp:91] Creating Layer loss1/drop_fc
I0403 18:55:25.887929  8143 net.cpp:425] loss1/drop_fc <- loss1/fc
I0403 18:55:25.887953  8143 net.cpp:386] loss1/drop_fc -> loss1/fc (in-place)
I0403 18:55:25.888017  8143 net.cpp:141] Setting up loss1/drop_fc
I0403 18:55:25.888046  8143 net.cpp:148] Top shape: 24 1024 (24576)
I0403 18:55:25.888064  8143 net.cpp:156] Memory required for data: 946189344
I0403 18:55:25.888082  8143 layer_factory.hpp:77] Creating layer loss1/classifier_plantvillage
I0403 18:55:25.888109  8143 net.cpp:91] Creating Layer loss1/classifier_plantvillage
I0403 18:55:25.888131  8143 net.cpp:425] loss1/classifier_plantvillage <- loss1/fc
I0403 18:55:25.888156  8143 net.cpp:399] loss1/classifier_plantvillage -> loss1/classifier_plantvillage
I0403 18:55:25.889282  8143 net.cpp:141] Setting up loss1/classifier_plantvillage
I0403 18:55:25.889317  8143 net.cpp:148] Top shape: 24 38 (912)
I0403 18:55:25.889338  8143 net.cpp:156] Memory required for data: 946192992
I0403 18:55:25.889358  8143 layer_factory.hpp:77] Creating layer loss1/classifier_plantvillage_loss1/classifier_plantvillage_0_split
I0403 18:55:25.889381  8143 net.cpp:91] Creating Layer loss1/classifier_plantvillage_loss1/classifier_plantvillage_0_split
I0403 18:55:25.889401  8143 net.cpp:425] loss1/classifier_plantvillage_loss1/classifier_plantvillage_0_split <- loss1/classifier_plantvillage
I0403 18:55:25.889430  8143 net.cpp:399] loss1/classifier_plantvillage_loss1/classifier_plantvillage_0_split -> loss1/classifier_plantvillage_loss1/classifier_plantvillage_0_split_0
I0403 18:55:25.889454  8143 net.cpp:399] loss1/classifier_plantvillage_loss1/classifier_plantvillage_0_split -> loss1/classifier_plantvillage_loss1/classifier_plantvillage_0_split_1
I0403 18:55:25.889482  8143 net.cpp:399] loss1/classifier_plantvillage_loss1/classifier_plantvillage_0_split -> loss1/classifier_plantvillage_loss1/classifier_plantvillage_0_split_2
I0403 18:55:25.889562  8143 net.cpp:141] Setting up loss1/classifier_plantvillage_loss1/classifier_plantvillage_0_split
I0403 18:55:25.889590  8143 net.cpp:148] Top shape: 24 38 (912)
I0403 18:55:25.889611  8143 net.cpp:148] Top shape: 24 38 (912)
I0403 18:55:25.889631  8143 net.cpp:148] Top shape: 24 38 (912)
I0403 18:55:25.889649  8143 net.cpp:156] Memory required for data: 946203936
I0403 18:55:25.889667  8143 layer_factory.hpp:77] Creating layer inception_4b/1x1
I0403 18:55:25.889694  8143 net.cpp:91] Creating Layer inception_4b/1x1
I0403 18:55:25.889736  8143 net.cpp:425] inception_4b/1x1 <- inception_4a/output_inception_4a/output_0_split_1
I0403 18:55:25.889765  8143 net.cpp:399] inception_4b/1x1 -> inception_4b/1x1
I0403 18:55:25.891744  8143 net.cpp:141] Setting up inception_4b/1x1
I0403 18:55:25.891778  8143 net.cpp:148] Top shape: 24 160 14 14 (752640)
I0403 18:55:25.891798  8143 net.cpp:156] Memory required for data: 949214496
I0403 18:55:25.891821  8143 layer_factory.hpp:77] Creating layer inception_4b/relu_1x1
I0403 18:55:25.891844  8143 net.cpp:91] Creating Layer inception_4b/relu_1x1
I0403 18:55:25.891863  8143 net.cpp:425] inception_4b/relu_1x1 <- inception_4b/1x1
I0403 18:55:25.891890  8143 net.cpp:386] inception_4b/relu_1x1 -> inception_4b/1x1 (in-place)
I0403 18:55:25.892110  8143 net.cpp:141] Setting up inception_4b/relu_1x1
I0403 18:55:25.892143  8143 net.cpp:148] Top shape: 24 160 14 14 (752640)
I0403 18:55:25.892161  8143 net.cpp:156] Memory required for data: 952225056
I0403 18:55:25.892180  8143 layer_factory.hpp:77] Creating layer inception_4b/3x3_reduce
I0403 18:55:25.892207  8143 net.cpp:91] Creating Layer inception_4b/3x3_reduce
I0403 18:55:25.892230  8143 net.cpp:425] inception_4b/3x3_reduce <- inception_4a/output_inception_4a/output_0_split_2
I0403 18:55:25.892272  8143 net.cpp:399] inception_4b/3x3_reduce -> inception_4b/3x3_reduce
I0403 18:55:25.893937  8143 net.cpp:141] Setting up inception_4b/3x3_reduce
I0403 18:55:25.893971  8143 net.cpp:148] Top shape: 24 112 14 14 (526848)
I0403 18:55:25.893990  8143 net.cpp:156] Memory required for data: 954332448
I0403 18:55:25.894012  8143 layer_factory.hpp:77] Creating layer inception_4b/relu_3x3_reduce
I0403 18:55:25.894039  8143 net.cpp:91] Creating Layer inception_4b/relu_3x3_reduce
I0403 18:55:25.894060  8143 net.cpp:425] inception_4b/relu_3x3_reduce <- inception_4b/3x3_reduce
I0403 18:55:25.894083  8143 net.cpp:386] inception_4b/relu_3x3_reduce -> inception_4b/3x3_reduce (in-place)
I0403 18:55:25.894439  8143 net.cpp:141] Setting up inception_4b/relu_3x3_reduce
I0403 18:55:25.894472  8143 net.cpp:148] Top shape: 24 112 14 14 (526848)
I0403 18:55:25.894491  8143 net.cpp:156] Memory required for data: 956439840
I0403 18:55:25.894511  8143 layer_factory.hpp:77] Creating layer inception_4b/3x3
I0403 18:55:25.894543  8143 net.cpp:91] Creating Layer inception_4b/3x3
I0403 18:55:25.894567  8143 net.cpp:425] inception_4b/3x3 <- inception_4b/3x3_reduce
I0403 18:55:25.894593  8143 net.cpp:399] inception_4b/3x3 -> inception_4b/3x3
I0403 18:55:25.898229  8143 net.cpp:141] Setting up inception_4b/3x3
I0403 18:55:25.898275  8143 net.cpp:148] Top shape: 24 224 14 14 (1053696)
I0403 18:55:25.898298  8143 net.cpp:156] Memory required for data: 960654624
I0403 18:55:25.898321  8143 layer_factory.hpp:77] Creating layer inception_4b/relu_3x3
I0403 18:55:25.898344  8143 net.cpp:91] Creating Layer inception_4b/relu_3x3
I0403 18:55:25.898363  8143 net.cpp:425] inception_4b/relu_3x3 <- inception_4b/3x3
I0403 18:55:25.898388  8143 net.cpp:386] inception_4b/relu_3x3 -> inception_4b/3x3 (in-place)
I0403 18:55:25.898612  8143 net.cpp:141] Setting up inception_4b/relu_3x3
I0403 18:55:25.898644  8143 net.cpp:148] Top shape: 24 224 14 14 (1053696)
I0403 18:55:25.898663  8143 net.cpp:156] Memory required for data: 964869408
I0403 18:55:25.898682  8143 layer_factory.hpp:77] Creating layer inception_4b/5x5_reduce
I0403 18:55:25.898712  8143 net.cpp:91] Creating Layer inception_4b/5x5_reduce
I0403 18:55:25.898736  8143 net.cpp:425] inception_4b/5x5_reduce <- inception_4a/output_inception_4a/output_0_split_3
I0403 18:55:25.898761  8143 net.cpp:399] inception_4b/5x5_reduce -> inception_4b/5x5_reduce
I0403 18:55:25.900069  8143 net.cpp:141] Setting up inception_4b/5x5_reduce
I0403 18:55:25.900104  8143 net.cpp:148] Top shape: 24 24 14 14 (112896)
I0403 18:55:25.900122  8143 net.cpp:156] Memory required for data: 965320992
I0403 18:55:25.900146  8143 layer_factory.hpp:77] Creating layer inception_4b/relu_5x5_reduce
I0403 18:55:25.900171  8143 net.cpp:91] Creating Layer inception_4b/relu_5x5_reduce
I0403 18:55:25.900212  8143 net.cpp:425] inception_4b/relu_5x5_reduce <- inception_4b/5x5_reduce
I0403 18:55:25.900233  8143 net.cpp:386] inception_4b/relu_5x5_reduce -> inception_4b/5x5_reduce (in-place)
I0403 18:55:25.900467  8143 net.cpp:141] Setting up inception_4b/relu_5x5_reduce
I0403 18:55:25.900499  8143 net.cpp:148] Top shape: 24 24 14 14 (112896)
I0403 18:55:25.900518  8143 net.cpp:156] Memory required for data: 965772576
I0403 18:55:25.900537  8143 layer_factory.hpp:77] Creating layer inception_4b/5x5
I0403 18:55:25.900568  8143 net.cpp:91] Creating Layer inception_4b/5x5
I0403 18:55:25.900589  8143 net.cpp:425] inception_4b/5x5 <- inception_4b/5x5_reduce
I0403 18:55:25.900612  8143 net.cpp:399] inception_4b/5x5 -> inception_4b/5x5
I0403 18:55:25.902101  8143 net.cpp:141] Setting up inception_4b/5x5
I0403 18:55:25.902137  8143 net.cpp:148] Top shape: 24 64 14 14 (301056)
I0403 18:55:25.902156  8143 net.cpp:156] Memory required for data: 966976800
I0403 18:55:25.902179  8143 layer_factory.hpp:77] Creating layer inception_4b/relu_5x5
I0403 18:55:25.902200  8143 net.cpp:91] Creating Layer inception_4b/relu_5x5
I0403 18:55:25.902220  8143 net.cpp:425] inception_4b/relu_5x5 <- inception_4b/5x5
I0403 18:55:25.902259  8143 net.cpp:386] inception_4b/relu_5x5 -> inception_4b/5x5 (in-place)
I0403 18:55:25.902608  8143 net.cpp:141] Setting up inception_4b/relu_5x5
I0403 18:55:25.902642  8143 net.cpp:148] Top shape: 24 64 14 14 (301056)
I0403 18:55:25.902662  8143 net.cpp:156] Memory required for data: 968181024
I0403 18:55:25.902679  8143 layer_factory.hpp:77] Creating layer inception_4b/pool
I0403 18:55:25.902701  8143 net.cpp:91] Creating Layer inception_4b/pool
I0403 18:55:25.902721  8143 net.cpp:425] inception_4b/pool <- inception_4a/output_inception_4a/output_0_split_4
I0403 18:55:25.902750  8143 net.cpp:399] inception_4b/pool -> inception_4b/pool
I0403 18:55:25.902828  8143 net.cpp:141] Setting up inception_4b/pool
I0403 18:55:25.902859  8143 net.cpp:148] Top shape: 24 512 14 14 (2408448)
I0403 18:55:25.902878  8143 net.cpp:156] Memory required for data: 977814816
I0403 18:55:25.902895  8143 layer_factory.hpp:77] Creating layer inception_4b/pool_proj
I0403 18:55:25.902925  8143 net.cpp:91] Creating Layer inception_4b/pool_proj
I0403 18:55:25.902947  8143 net.cpp:425] inception_4b/pool_proj <- inception_4b/pool
I0403 18:55:25.902971  8143 net.cpp:399] inception_4b/pool_proj -> inception_4b/pool_proj
I0403 18:55:25.904446  8143 net.cpp:141] Setting up inception_4b/pool_proj
I0403 18:55:25.904481  8143 net.cpp:148] Top shape: 24 64 14 14 (301056)
I0403 18:55:25.904500  8143 net.cpp:156] Memory required for data: 979019040
I0403 18:55:25.904522  8143 layer_factory.hpp:77] Creating layer inception_4b/relu_pool_proj
I0403 18:55:25.904547  8143 net.cpp:91] Creating Layer inception_4b/relu_pool_proj
I0403 18:55:25.904568  8143 net.cpp:425] inception_4b/relu_pool_proj <- inception_4b/pool_proj
I0403 18:55:25.904590  8143 net.cpp:386] inception_4b/relu_pool_proj -> inception_4b/pool_proj (in-place)
I0403 18:55:25.904816  8143 net.cpp:141] Setting up inception_4b/relu_pool_proj
I0403 18:55:25.904850  8143 net.cpp:148] Top shape: 24 64 14 14 (301056)
I0403 18:55:25.904868  8143 net.cpp:156] Memory required for data: 980223264
I0403 18:55:25.904888  8143 layer_factory.hpp:77] Creating layer inception_4b/output
I0403 18:55:25.904911  8143 net.cpp:91] Creating Layer inception_4b/output
I0403 18:55:25.904930  8143 net.cpp:425] inception_4b/output <- inception_4b/1x1
I0403 18:55:25.904953  8143 net.cpp:425] inception_4b/output <- inception_4b/3x3
I0403 18:55:25.904973  8143 net.cpp:425] inception_4b/output <- inception_4b/5x5
I0403 18:55:25.904992  8143 net.cpp:425] inception_4b/output <- inception_4b/pool_proj
I0403 18:55:25.905014  8143 net.cpp:399] inception_4b/output -> inception_4b/output
I0403 18:55:25.905072  8143 net.cpp:141] Setting up inception_4b/output
I0403 18:55:25.905102  8143 net.cpp:148] Top shape: 24 512 14 14 (2408448)
I0403 18:55:25.905122  8143 net.cpp:156] Memory required for data: 989857056
I0403 18:55:25.905158  8143 layer_factory.hpp:77] Creating layer inception_4b/output_inception_4b/output_0_split
I0403 18:55:25.905179  8143 net.cpp:91] Creating Layer inception_4b/output_inception_4b/output_0_split
I0403 18:55:25.905203  8143 net.cpp:425] inception_4b/output_inception_4b/output_0_split <- inception_4b/output
I0403 18:55:25.905226  8143 net.cpp:399] inception_4b/output_inception_4b/output_0_split -> inception_4b/output_inception_4b/output_0_split_0
I0403 18:55:25.905261  8143 net.cpp:399] inception_4b/output_inception_4b/output_0_split -> inception_4b/output_inception_4b/output_0_split_1
I0403 18:55:25.905287  8143 net.cpp:399] inception_4b/output_inception_4b/output_0_split -> inception_4b/output_inception_4b/output_0_split_2
I0403 18:55:25.905313  8143 net.cpp:399] inception_4b/output_inception_4b/output_0_split -> inception_4b/output_inception_4b/output_0_split_3
I0403 18:55:25.905416  8143 net.cpp:141] Setting up inception_4b/output_inception_4b/output_0_split
I0403 18:55:25.905447  8143 net.cpp:148] Top shape: 24 512 14 14 (2408448)
I0403 18:55:25.905467  8143 net.cpp:148] Top shape: 24 512 14 14 (2408448)
I0403 18:55:25.905488  8143 net.cpp:148] Top shape: 24 512 14 14 (2408448)
I0403 18:55:25.905508  8143 net.cpp:148] Top shape: 24 512 14 14 (2408448)
I0403 18:55:25.905526  8143 net.cpp:156] Memory required for data: 1028392224
I0403 18:55:25.905545  8143 layer_factory.hpp:77] Creating layer inception_4c/1x1
I0403 18:55:25.905573  8143 net.cpp:91] Creating Layer inception_4c/1x1
I0403 18:55:25.905596  8143 net.cpp:425] inception_4c/1x1 <- inception_4b/output_inception_4b/output_0_split_0
I0403 18:55:25.905621  8143 net.cpp:399] inception_4c/1x1 -> inception_4c/1x1
I0403 18:55:25.907374  8143 net.cpp:141] Setting up inception_4c/1x1
I0403 18:55:25.907414  8143 net.cpp:148] Top shape: 24 128 14 14 (602112)
I0403 18:55:25.907435  8143 net.cpp:156] Memory required for data: 1030800672
I0403 18:55:25.907459  8143 layer_factory.hpp:77] Creating layer inception_4c/relu_1x1
I0403 18:55:25.907482  8143 net.cpp:91] Creating Layer inception_4c/relu_1x1
I0403 18:55:25.907502  8143 net.cpp:425] inception_4c/relu_1x1 <- inception_4c/1x1
I0403 18:55:25.907524  8143 net.cpp:386] inception_4c/relu_1x1 -> inception_4c/1x1 (in-place)
I0403 18:55:25.907752  8143 net.cpp:141] Setting up inception_4c/relu_1x1
I0403 18:55:25.907784  8143 net.cpp:148] Top shape: 24 128 14 14 (602112)
I0403 18:55:25.907802  8143 net.cpp:156] Memory required for data: 1033209120
I0403 18:55:25.907821  8143 layer_factory.hpp:77] Creating layer inception_4c/3x3_reduce
I0403 18:55:25.907848  8143 net.cpp:91] Creating Layer inception_4c/3x3_reduce
I0403 18:55:25.907871  8143 net.cpp:425] inception_4c/3x3_reduce <- inception_4b/output_inception_4b/output_0_split_1
I0403 18:55:25.907899  8143 net.cpp:399] inception_4c/3x3_reduce -> inception_4c/3x3_reduce
I0403 18:55:25.910302  8143 net.cpp:141] Setting up inception_4c/3x3_reduce
I0403 18:55:25.910338  8143 net.cpp:148] Top shape: 24 128 14 14 (602112)
I0403 18:55:25.910357  8143 net.cpp:156] Memory required for data: 1035617568
I0403 18:55:25.910380  8143 layer_factory.hpp:77] Creating layer inception_4c/relu_3x3_reduce
I0403 18:55:25.910406  8143 net.cpp:91] Creating Layer inception_4c/relu_3x3_reduce
I0403 18:55:25.910428  8143 net.cpp:425] inception_4c/relu_3x3_reduce <- inception_4c/3x3_reduce
I0403 18:55:25.910449  8143 net.cpp:386] inception_4c/relu_3x3_reduce -> inception_4c/3x3_reduce (in-place)
I0403 18:55:25.910795  8143 net.cpp:141] Setting up inception_4c/relu_3x3_reduce
I0403 18:55:25.910828  8143 net.cpp:148] Top shape: 24 128 14 14 (602112)
I0403 18:55:25.910847  8143 net.cpp:156] Memory required for data: 1038026016
I0403 18:55:25.910866  8143 layer_factory.hpp:77] Creating layer inception_4c/3x3
I0403 18:55:25.910893  8143 net.cpp:91] Creating Layer inception_4c/3x3
I0403 18:55:25.910915  8143 net.cpp:425] inception_4c/3x3 <- inception_4c/3x3_reduce
I0403 18:55:25.910943  8143 net.cpp:399] inception_4c/3x3 -> inception_4c/3x3
I0403 18:55:25.915361  8143 net.cpp:141] Setting up inception_4c/3x3
I0403 18:55:25.915413  8143 net.cpp:148] Top shape: 24 256 14 14 (1204224)
I0403 18:55:25.915432  8143 net.cpp:156] Memory required for data: 1042842912
I0403 18:55:25.915472  8143 layer_factory.hpp:77] Creating layer inception_4c/relu_3x3
I0403 18:55:25.915500  8143 net.cpp:91] Creating Layer inception_4c/relu_3x3
I0403 18:55:25.915521  8143 net.cpp:425] inception_4c/relu_3x3 <- inception_4c/3x3
I0403 18:55:25.915544  8143 net.cpp:386] inception_4c/relu_3x3 -> inception_4c/3x3 (in-place)
I0403 18:55:25.915766  8143 net.cpp:141] Setting up inception_4c/relu_3x3
I0403 18:55:25.915796  8143 net.cpp:148] Top shape: 24 256 14 14 (1204224)
I0403 18:55:25.915813  8143 net.cpp:156] Memory required for data: 1047659808
I0403 18:55:25.915832  8143 layer_factory.hpp:77] Creating layer inception_4c/5x5_reduce
I0403 18:55:25.915860  8143 net.cpp:91] Creating Layer inception_4c/5x5_reduce
I0403 18:55:25.915881  8143 net.cpp:425] inception_4c/5x5_reduce <- inception_4b/output_inception_4b/output_0_split_2
I0403 18:55:25.915909  8143 net.cpp:399] inception_4c/5x5_reduce -> inception_4c/5x5_reduce
I0403 18:55:25.917232  8143 net.cpp:141] Setting up inception_4c/5x5_reduce
I0403 18:55:25.917270  8143 net.cpp:148] Top shape: 24 24 14 14 (112896)
I0403 18:55:25.917290  8143 net.cpp:156] Memory required for data: 1048111392
I0403 18:55:25.917314  8143 layer_factory.hpp:77] Creating layer inception_4c/relu_5x5_reduce
I0403 18:55:25.917338  8143 net.cpp:91] Creating Layer inception_4c/relu_5x5_reduce
I0403 18:55:25.917359  8143 net.cpp:425] inception_4c/relu_5x5_reduce <- inception_4c/5x5_reduce
I0403 18:55:25.917381  8143 net.cpp:386] inception_4c/relu_5x5_reduce -> inception_4c/5x5_reduce (in-place)
I0403 18:55:25.917606  8143 net.cpp:141] Setting up inception_4c/relu_5x5_reduce
I0403 18:55:25.917636  8143 net.cpp:148] Top shape: 24 24 14 14 (112896)
I0403 18:55:25.917654  8143 net.cpp:156] Memory required for data: 1048562976
I0403 18:55:25.917672  8143 layer_factory.hpp:77] Creating layer inception_4c/5x5
I0403 18:55:25.917706  8143 net.cpp:91] Creating Layer inception_4c/5x5
I0403 18:55:25.917727  8143 net.cpp:425] inception_4c/5x5 <- inception_4c/5x5_reduce
I0403 18:55:25.917749  8143 net.cpp:399] inception_4c/5x5 -> inception_4c/5x5
I0403 18:55:25.919260  8143 net.cpp:141] Setting up inception_4c/5x5
I0403 18:55:25.919296  8143 net.cpp:148] Top shape: 24 64 14 14 (301056)
I0403 18:55:25.919315  8143 net.cpp:156] Memory required for data: 1049767200
I0403 18:55:25.919338  8143 layer_factory.hpp:77] Creating layer inception_4c/relu_5x5
I0403 18:55:25.919359  8143 net.cpp:91] Creating Layer inception_4c/relu_5x5
I0403 18:55:25.919379  8143 net.cpp:425] inception_4c/relu_5x5 <- inception_4c/5x5
I0403 18:55:25.919400  8143 net.cpp:386] inception_4c/relu_5x5 -> inception_4c/5x5 (in-place)
I0403 18:55:25.919744  8143 net.cpp:141] Setting up inception_4c/relu_5x5
I0403 18:55:25.919778  8143 net.cpp:148] Top shape: 24 64 14 14 (301056)
I0403 18:55:25.919798  8143 net.cpp:156] Memory required for data: 1050971424
I0403 18:55:25.919816  8143 layer_factory.hpp:77] Creating layer inception_4c/pool
I0403 18:55:25.919839  8143 net.cpp:91] Creating Layer inception_4c/pool
I0403 18:55:25.919859  8143 net.cpp:425] inception_4c/pool <- inception_4b/output_inception_4b/output_0_split_3
I0403 18:55:25.919883  8143 net.cpp:399] inception_4c/pool -> inception_4c/pool
I0403 18:55:25.919962  8143 net.cpp:141] Setting up inception_4c/pool
I0403 18:55:25.919991  8143 net.cpp:148] Top shape: 24 512 14 14 (2408448)
I0403 18:55:25.920008  8143 net.cpp:156] Memory required for data: 1060605216
I0403 18:55:25.920027  8143 layer_factory.hpp:77] Creating layer inception_4c/pool_proj
I0403 18:55:25.920053  8143 net.cpp:91] Creating Layer inception_4c/pool_proj
I0403 18:55:25.920074  8143 net.cpp:425] inception_4c/pool_proj <- inception_4c/pool
I0403 18:55:25.920099  8143 net.cpp:399] inception_4c/pool_proj -> inception_4c/pool_proj
I0403 18:55:25.921597  8143 net.cpp:141] Setting up inception_4c/pool_proj
I0403 18:55:25.921630  8143 net.cpp:148] Top shape: 24 64 14 14 (301056)
I0403 18:55:25.921666  8143 net.cpp:156] Memory required for data: 1061809440
I0403 18:55:25.921689  8143 layer_factory.hpp:77] Creating layer inception_4c/relu_pool_proj
I0403 18:55:25.921716  8143 net.cpp:91] Creating Layer inception_4c/relu_pool_proj
I0403 18:55:25.921737  8143 net.cpp:425] inception_4c/relu_pool_proj <- inception_4c/pool_proj
I0403 18:55:25.921758  8143 net.cpp:386] inception_4c/relu_pool_proj -> inception_4c/pool_proj (in-place)
I0403 18:55:25.921982  8143 net.cpp:141] Setting up inception_4c/relu_pool_proj
I0403 18:55:25.922013  8143 net.cpp:148] Top shape: 24 64 14 14 (301056)
I0403 18:55:25.922034  8143 net.cpp:156] Memory required for data: 1063013664
I0403 18:55:25.922052  8143 layer_factory.hpp:77] Creating layer inception_4c/output
I0403 18:55:25.922073  8143 net.cpp:91] Creating Layer inception_4c/output
I0403 18:55:25.922093  8143 net.cpp:425] inception_4c/output <- inception_4c/1x1
I0403 18:55:25.922113  8143 net.cpp:425] inception_4c/output <- inception_4c/3x3
I0403 18:55:25.922132  8143 net.cpp:425] inception_4c/output <- inception_4c/5x5
I0403 18:55:25.922150  8143 net.cpp:425] inception_4c/output <- inception_4c/pool_proj
I0403 18:55:25.922170  8143 net.cpp:399] inception_4c/output -> inception_4c/output
I0403 18:55:25.922233  8143 net.cpp:141] Setting up inception_4c/output
I0403 18:55:25.922276  8143 net.cpp:148] Top shape: 24 512 14 14 (2408448)
I0403 18:55:25.922294  8143 net.cpp:156] Memory required for data: 1072647456
I0403 18:55:25.922312  8143 layer_factory.hpp:77] Creating layer inception_4c/output_inception_4c/output_0_split
I0403 18:55:25.922333  8143 net.cpp:91] Creating Layer inception_4c/output_inception_4c/output_0_split
I0403 18:55:25.922353  8143 net.cpp:425] inception_4c/output_inception_4c/output_0_split <- inception_4c/output
I0403 18:55:25.922377  8143 net.cpp:399] inception_4c/output_inception_4c/output_0_split -> inception_4c/output_inception_4c/output_0_split_0
I0403 18:55:25.922404  8143 net.cpp:399] inception_4c/output_inception_4c/output_0_split -> inception_4c/output_inception_4c/output_0_split_1
I0403 18:55:25.922427  8143 net.cpp:399] inception_4c/output_inception_4c/output_0_split -> inception_4c/output_inception_4c/output_0_split_2
I0403 18:55:25.922451  8143 net.cpp:399] inception_4c/output_inception_4c/output_0_split -> inception_4c/output_inception_4c/output_0_split_3
I0403 18:55:25.922554  8143 net.cpp:141] Setting up inception_4c/output_inception_4c/output_0_split
I0403 18:55:25.922581  8143 net.cpp:148] Top shape: 24 512 14 14 (2408448)
I0403 18:55:25.922601  8143 net.cpp:148] Top shape: 24 512 14 14 (2408448)
I0403 18:55:25.922621  8143 net.cpp:148] Top shape: 24 512 14 14 (2408448)
I0403 18:55:25.922638  8143 net.cpp:148] Top shape: 24 512 14 14 (2408448)
I0403 18:55:25.922655  8143 net.cpp:156] Memory required for data: 1111182624
I0403 18:55:25.922673  8143 layer_factory.hpp:77] Creating layer inception_4d/1x1
I0403 18:55:25.922701  8143 net.cpp:91] Creating Layer inception_4d/1x1
I0403 18:55:25.922722  8143 net.cpp:425] inception_4d/1x1 <- inception_4c/output_inception_4c/output_0_split_0
I0403 18:55:25.922749  8143 net.cpp:399] inception_4d/1x1 -> inception_4d/1x1
I0403 18:55:25.924448  8143 net.cpp:141] Setting up inception_4d/1x1
I0403 18:55:25.924482  8143 net.cpp:148] Top shape: 24 112 14 14 (526848)
I0403 18:55:25.924501  8143 net.cpp:156] Memory required for data: 1113290016
I0403 18:55:25.924525  8143 layer_factory.hpp:77] Creating layer inception_4d/relu_1x1
I0403 18:55:25.924546  8143 net.cpp:91] Creating Layer inception_4d/relu_1x1
I0403 18:55:25.924566  8143 net.cpp:425] inception_4d/relu_1x1 <- inception_4d/1x1
I0403 18:55:25.924590  8143 net.cpp:386] inception_4d/relu_1x1 -> inception_4d/1x1 (in-place)
I0403 18:55:25.924819  8143 net.cpp:141] Setting up inception_4d/relu_1x1
I0403 18:55:25.924850  8143 net.cpp:148] Top shape: 24 112 14 14 (526848)
I0403 18:55:25.924868  8143 net.cpp:156] Memory required for data: 1115397408
I0403 18:55:25.924887  8143 layer_factory.hpp:77] Creating layer inception_4d/3x3_reduce
I0403 18:55:25.924932  8143 net.cpp:91] Creating Layer inception_4d/3x3_reduce
I0403 18:55:25.924954  8143 net.cpp:425] inception_4d/3x3_reduce <- inception_4c/output_inception_4c/output_0_split_1
I0403 18:55:25.924980  8143 net.cpp:399] inception_4d/3x3_reduce -> inception_4d/3x3_reduce
I0403 18:55:25.926836  8143 net.cpp:141] Setting up inception_4d/3x3_reduce
I0403 18:55:25.926873  8143 net.cpp:148] Top shape: 24 144 14 14 (677376)
I0403 18:55:25.926894  8143 net.cpp:156] Memory required for data: 1118106912
I0403 18:55:25.926919  8143 layer_factory.hpp:77] Creating layer inception_4d/relu_3x3_reduce
I0403 18:55:25.926946  8143 net.cpp:91] Creating Layer inception_4d/relu_3x3_reduce
I0403 18:55:25.926970  8143 net.cpp:425] inception_4d/relu_3x3_reduce <- inception_4d/3x3_reduce
I0403 18:55:25.926991  8143 net.cpp:386] inception_4d/relu_3x3_reduce -> inception_4d/3x3_reduce (in-place)
I0403 18:55:25.927350  8143 net.cpp:141] Setting up inception_4d/relu_3x3_reduce
I0403 18:55:25.927382  8143 net.cpp:148] Top shape: 24 144 14 14 (677376)
I0403 18:55:25.927400  8143 net.cpp:156] Memory required for data: 1120816416
I0403 18:55:25.927419  8143 layer_factory.hpp:77] Creating layer inception_4d/3x3
I0403 18:55:25.927449  8143 net.cpp:91] Creating Layer inception_4d/3x3
I0403 18:55:25.927471  8143 net.cpp:425] inception_4d/3x3 <- inception_4d/3x3_reduce
I0403 18:55:25.927495  8143 net.cpp:399] inception_4d/3x3 -> inception_4d/3x3
I0403 18:55:25.932752  8143 net.cpp:141] Setting up inception_4d/3x3
I0403 18:55:25.932792  8143 net.cpp:148] Top shape: 24 288 14 14 (1354752)
I0403 18:55:25.932812  8143 net.cpp:156] Memory required for data: 1126235424
I0403 18:55:25.932835  8143 layer_factory.hpp:77] Creating layer inception_4d/relu_3x3
I0403 18:55:25.932857  8143 net.cpp:91] Creating Layer inception_4d/relu_3x3
I0403 18:55:25.932878  8143 net.cpp:425] inception_4d/relu_3x3 <- inception_4d/3x3
I0403 18:55:25.932905  8143 net.cpp:386] inception_4d/relu_3x3 -> inception_4d/3x3 (in-place)
I0403 18:55:25.933131  8143 net.cpp:141] Setting up inception_4d/relu_3x3
I0403 18:55:25.933162  8143 net.cpp:148] Top shape: 24 288 14 14 (1354752)
I0403 18:55:25.933181  8143 net.cpp:156] Memory required for data: 1131654432
I0403 18:55:25.933198  8143 layer_factory.hpp:77] Creating layer inception_4d/5x5_reduce
I0403 18:55:25.933226  8143 net.cpp:91] Creating Layer inception_4d/5x5_reduce
I0403 18:55:25.933256  8143 net.cpp:425] inception_4d/5x5_reduce <- inception_4c/output_inception_4c/output_0_split_2
I0403 18:55:25.933284  8143 net.cpp:399] inception_4d/5x5_reduce -> inception_4d/5x5_reduce
I0403 18:55:25.934680  8143 net.cpp:141] Setting up inception_4d/5x5_reduce
I0403 18:55:25.934715  8143 net.cpp:148] Top shape: 24 32 14 14 (150528)
I0403 18:55:25.934733  8143 net.cpp:156] Memory required for data: 1132256544
I0403 18:55:25.934757  8143 layer_factory.hpp:77] Creating layer inception_4d/relu_5x5_reduce
I0403 18:55:25.934779  8143 net.cpp:91] Creating Layer inception_4d/relu_5x5_reduce
I0403 18:55:25.934800  8143 net.cpp:425] inception_4d/relu_5x5_reduce <- inception_4d/5x5_reduce
I0403 18:55:25.934824  8143 net.cpp:386] inception_4d/relu_5x5_reduce -> inception_4d/5x5_reduce (in-place)
I0403 18:55:25.935057  8143 net.cpp:141] Setting up inception_4d/relu_5x5_reduce
I0403 18:55:25.935088  8143 net.cpp:148] Top shape: 24 32 14 14 (150528)
I0403 18:55:25.935106  8143 net.cpp:156] Memory required for data: 1132858656
I0403 18:55:25.935124  8143 layer_factory.hpp:77] Creating layer inception_4d/5x5
I0403 18:55:25.935151  8143 net.cpp:91] Creating Layer inception_4d/5x5
I0403 18:55:25.935173  8143 net.cpp:425] inception_4d/5x5 <- inception_4d/5x5_reduce
I0403 18:55:25.935200  8143 net.cpp:399] inception_4d/5x5 -> inception_4d/5x5
I0403 18:55:25.936978  8143 net.cpp:141] Setting up inception_4d/5x5
I0403 18:55:25.937012  8143 net.cpp:148] Top shape: 24 64 14 14 (301056)
I0403 18:55:25.937032  8143 net.cpp:156] Memory required for data: 1134062880
I0403 18:55:25.937057  8143 layer_factory.hpp:77] Creating layer inception_4d/relu_5x5
I0403 18:55:25.937101  8143 net.cpp:91] Creating Layer inception_4d/relu_5x5
I0403 18:55:25.937124  8143 net.cpp:425] inception_4d/relu_5x5 <- inception_4d/5x5
I0403 18:55:25.937146  8143 net.cpp:386] inception_4d/relu_5x5 -> inception_4d/5x5 (in-place)
I0403 18:55:25.937517  8143 net.cpp:141] Setting up inception_4d/relu_5x5
I0403 18:55:25.937549  8143 net.cpp:148] Top shape: 24 64 14 14 (301056)
I0403 18:55:25.937568  8143 net.cpp:156] Memory required for data: 1135267104
I0403 18:55:25.937587  8143 layer_factory.hpp:77] Creating layer inception_4d/pool
I0403 18:55:25.937611  8143 net.cpp:91] Creating Layer inception_4d/pool
I0403 18:55:25.937633  8143 net.cpp:425] inception_4d/pool <- inception_4c/output_inception_4c/output_0_split_3
I0403 18:55:25.937655  8143 net.cpp:399] inception_4d/pool -> inception_4d/pool
I0403 18:55:25.937739  8143 net.cpp:141] Setting up inception_4d/pool
I0403 18:55:25.937769  8143 net.cpp:148] Top shape: 24 512 14 14 (2408448)
I0403 18:55:25.937788  8143 net.cpp:156] Memory required for data: 1144900896
I0403 18:55:25.937805  8143 layer_factory.hpp:77] Creating layer inception_4d/pool_proj
I0403 18:55:25.937834  8143 net.cpp:91] Creating Layer inception_4d/pool_proj
I0403 18:55:25.937855  8143 net.cpp:425] inception_4d/pool_proj <- inception_4d/pool
I0403 18:55:25.937881  8143 net.cpp:399] inception_4d/pool_proj -> inception_4d/pool_proj
I0403 18:55:25.940060  8143 net.cpp:141] Setting up inception_4d/pool_proj
I0403 18:55:25.940099  8143 net.cpp:148] Top shape: 24 64 14 14 (301056)
I0403 18:55:25.940119  8143 net.cpp:156] Memory required for data: 1146105120
I0403 18:55:25.940143  8143 layer_factory.hpp:77] Creating layer inception_4d/relu_pool_proj
I0403 18:55:25.940166  8143 net.cpp:91] Creating Layer inception_4d/relu_pool_proj
I0403 18:55:25.940186  8143 net.cpp:425] inception_4d/relu_pool_proj <- inception_4d/pool_proj
I0403 18:55:25.940210  8143 net.cpp:386] inception_4d/relu_pool_proj -> inception_4d/pool_proj (in-place)
I0403 18:55:25.940444  8143 net.cpp:141] Setting up inception_4d/relu_pool_proj
I0403 18:55:25.940475  8143 net.cpp:148] Top shape: 24 64 14 14 (301056)
I0403 18:55:25.940493  8143 net.cpp:156] Memory required for data: 1147309344
I0403 18:55:25.940511  8143 layer_factory.hpp:77] Creating layer inception_4d/output
I0403 18:55:25.940532  8143 net.cpp:91] Creating Layer inception_4d/output
I0403 18:55:25.940552  8143 net.cpp:425] inception_4d/output <- inception_4d/1x1
I0403 18:55:25.940572  8143 net.cpp:425] inception_4d/output <- inception_4d/3x3
I0403 18:55:25.940593  8143 net.cpp:425] inception_4d/output <- inception_4d/5x5
I0403 18:55:25.940613  8143 net.cpp:425] inception_4d/output <- inception_4d/pool_proj
I0403 18:55:25.940636  8143 net.cpp:399] inception_4d/output -> inception_4d/output
I0403 18:55:25.940704  8143 net.cpp:141] Setting up inception_4d/output
I0403 18:55:25.940732  8143 net.cpp:148] Top shape: 24 528 14 14 (2483712)
I0403 18:55:25.940752  8143 net.cpp:156] Memory required for data: 1157244192
I0403 18:55:25.940769  8143 layer_factory.hpp:77] Creating layer inception_4d/output_inception_4d/output_0_split
I0403 18:55:25.940790  8143 net.cpp:91] Creating Layer inception_4d/output_inception_4d/output_0_split
I0403 18:55:25.940810  8143 net.cpp:425] inception_4d/output_inception_4d/output_0_split <- inception_4d/output
I0403 18:55:25.940836  8143 net.cpp:399] inception_4d/output_inception_4d/output_0_split -> inception_4d/output_inception_4d/output_0_split_0
I0403 18:55:25.940865  8143 net.cpp:399] inception_4d/output_inception_4d/output_0_split -> inception_4d/output_inception_4d/output_0_split_1
I0403 18:55:25.940889  8143 net.cpp:399] inception_4d/output_inception_4d/output_0_split -> inception_4d/output_inception_4d/output_0_split_2
I0403 18:55:25.940915  8143 net.cpp:399] inception_4d/output_inception_4d/output_0_split -> inception_4d/output_inception_4d/output_0_split_3
I0403 18:55:25.940940  8143 net.cpp:399] inception_4d/output_inception_4d/output_0_split -> inception_4d/output_inception_4d/output_0_split_4
I0403 18:55:25.941064  8143 net.cpp:141] Setting up inception_4d/output_inception_4d/output_0_split
I0403 18:55:25.941112  8143 net.cpp:148] Top shape: 24 528 14 14 (2483712)
I0403 18:55:25.941133  8143 net.cpp:148] Top shape: 24 528 14 14 (2483712)
I0403 18:55:25.941151  8143 net.cpp:148] Top shape: 24 528 14 14 (2483712)
I0403 18:55:25.941170  8143 net.cpp:148] Top shape: 24 528 14 14 (2483712)
I0403 18:55:25.941190  8143 net.cpp:148] Top shape: 24 528 14 14 (2483712)
I0403 18:55:25.941208  8143 net.cpp:156] Memory required for data: 1206918432
I0403 18:55:25.941226  8143 layer_factory.hpp:77] Creating layer loss2/ave_pool
I0403 18:55:25.941254  8143 net.cpp:91] Creating Layer loss2/ave_pool
I0403 18:55:25.941275  8143 net.cpp:425] loss2/ave_pool <- inception_4d/output_inception_4d/output_0_split_0
I0403 18:55:25.941301  8143 net.cpp:399] loss2/ave_pool -> loss2/ave_pool
I0403 18:55:25.941684  8143 net.cpp:141] Setting up loss2/ave_pool
I0403 18:55:25.941717  8143 net.cpp:148] Top shape: 24 528 4 4 (202752)
I0403 18:55:25.941736  8143 net.cpp:156] Memory required for data: 1207729440
I0403 18:55:25.941754  8143 layer_factory.hpp:77] Creating layer loss2/conv
I0403 18:55:25.941782  8143 net.cpp:91] Creating Layer loss2/conv
I0403 18:55:25.941805  8143 net.cpp:425] loss2/conv <- loss2/ave_pool
I0403 18:55:25.941831  8143 net.cpp:399] loss2/conv -> loss2/conv
I0403 18:55:25.944170  8143 net.cpp:141] Setting up loss2/conv
I0403 18:55:25.944207  8143 net.cpp:148] Top shape: 24 128 4 4 (49152)
I0403 18:55:25.944227  8143 net.cpp:156] Memory required for data: 1207926048
I0403 18:55:25.944257  8143 layer_factory.hpp:77] Creating layer loss2/relu_conv
I0403 18:55:25.944283  8143 net.cpp:91] Creating Layer loss2/relu_conv
I0403 18:55:25.944305  8143 net.cpp:425] loss2/relu_conv <- loss2/conv
I0403 18:55:25.944326  8143 net.cpp:386] loss2/relu_conv -> loss2/conv (in-place)
I0403 18:55:25.944679  8143 net.cpp:141] Setting up loss2/relu_conv
I0403 18:55:25.944710  8143 net.cpp:148] Top shape: 24 128 4 4 (49152)
I0403 18:55:25.944730  8143 net.cpp:156] Memory required for data: 1208122656
I0403 18:55:25.944747  8143 layer_factory.hpp:77] Creating layer loss2/fc
I0403 18:55:25.944774  8143 net.cpp:91] Creating Layer loss2/fc
I0403 18:55:25.944795  8143 net.cpp:425] loss2/fc <- loss2/conv
I0403 18:55:25.944821  8143 net.cpp:399] loss2/fc -> loss2/fc
I0403 18:55:25.967006  8143 net.cpp:141] Setting up loss2/fc
I0403 18:55:25.967056  8143 net.cpp:148] Top shape: 24 1024 (24576)
I0403 18:55:25.967077  8143 net.cpp:156] Memory required for data: 1208220960
I0403 18:55:25.967102  8143 layer_factory.hpp:77] Creating layer loss2/relu_fc
I0403 18:55:25.967125  8143 net.cpp:91] Creating Layer loss2/relu_fc
I0403 18:55:25.967149  8143 net.cpp:425] loss2/relu_fc <- loss2/fc
I0403 18:55:25.967173  8143 net.cpp:386] loss2/relu_fc -> loss2/fc (in-place)
I0403 18:55:25.967543  8143 net.cpp:141] Setting up loss2/relu_fc
I0403 18:55:25.967576  8143 net.cpp:148] Top shape: 24 1024 (24576)
I0403 18:55:25.967594  8143 net.cpp:156] Memory required for data: 1208319264
I0403 18:55:25.967613  8143 layer_factory.hpp:77] Creating layer loss2/drop_fc
I0403 18:55:25.967636  8143 net.cpp:91] Creating Layer loss2/drop_fc
I0403 18:55:25.967655  8143 net.cpp:425] loss2/drop_fc <- loss2/fc
I0403 18:55:25.967680  8143 net.cpp:386] loss2/drop_fc -> loss2/fc (in-place)
I0403 18:55:25.967741  8143 net.cpp:141] Setting up loss2/drop_fc
I0403 18:55:25.967773  8143 net.cpp:148] Top shape: 24 1024 (24576)
I0403 18:55:25.967792  8143 net.cpp:156] Memory required for data: 1208417568
I0403 18:55:25.967809  8143 layer_factory.hpp:77] Creating layer loss2/classifier_plantvillage
I0403 18:55:25.967833  8143 net.cpp:91] Creating Layer loss2/classifier_plantvillage
I0403 18:55:25.967851  8143 net.cpp:425] loss2/classifier_plantvillage <- loss2/fc
I0403 18:55:25.967877  8143 net.cpp:399] loss2/classifier_plantvillage -> loss2/classifier_plantvillage
I0403 18:55:25.968380  8143 net.cpp:141] Setting up loss2/classifier_plantvillage
I0403 18:55:25.968411  8143 net.cpp:148] Top shape: 24 38 (912)
I0403 18:55:25.968448  8143 net.cpp:156] Memory required for data: 1208421216
I0403 18:55:25.968472  8143 layer_factory.hpp:77] Creating layer loss2/classifier_plantvillage_loss2/classifier_plantvillage_0_split
I0403 18:55:25.968497  8143 net.cpp:91] Creating Layer loss2/classifier_plantvillage_loss2/classifier_plantvillage_0_split
I0403 18:55:25.968518  8143 net.cpp:425] loss2/classifier_plantvillage_loss2/classifier_plantvillage_0_split <- loss2/classifier_plantvillage
I0403 18:55:25.968539  8143 net.cpp:399] loss2/classifier_plantvillage_loss2/classifier_plantvillage_0_split -> loss2/classifier_plantvillage_loss2/classifier_plantvillage_0_split_0
I0403 18:55:25.968564  8143 net.cpp:399] loss2/classifier_plantvillage_loss2/classifier_plantvillage_0_split -> loss2/classifier_plantvillage_loss2/classifier_plantvillage_0_split_1
I0403 18:55:25.968593  8143 net.cpp:399] loss2/classifier_plantvillage_loss2/classifier_plantvillage_0_split -> loss2/classifier_plantvillage_loss2/classifier_plantvillage_0_split_2
I0403 18:55:25.968693  8143 net.cpp:141] Setting up loss2/classifier_plantvillage_loss2/classifier_plantvillage_0_split
I0403 18:55:25.968720  8143 net.cpp:148] Top shape: 24 38 (912)
I0403 18:55:25.968740  8143 net.cpp:148] Top shape: 24 38 (912)
I0403 18:55:25.968760  8143 net.cpp:148] Top shape: 24 38 (912)
I0403 18:55:25.968776  8143 net.cpp:156] Memory required for data: 1208432160
I0403 18:55:25.968794  8143 layer_factory.hpp:77] Creating layer inception_4e/1x1
I0403 18:55:25.968822  8143 net.cpp:91] Creating Layer inception_4e/1x1
I0403 18:55:25.968843  8143 net.cpp:425] inception_4e/1x1 <- inception_4d/output_inception_4d/output_0_split_1
I0403 18:55:25.968868  8143 net.cpp:399] inception_4e/1x1 -> inception_4e/1x1
I0403 18:55:25.971102  8143 net.cpp:141] Setting up inception_4e/1x1
I0403 18:55:25.971138  8143 net.cpp:148] Top shape: 24 256 14 14 (1204224)
I0403 18:55:25.971156  8143 net.cpp:156] Memory required for data: 1213249056
I0403 18:55:25.971179  8143 layer_factory.hpp:77] Creating layer inception_4e/relu_1x1
I0403 18:55:25.971210  8143 net.cpp:91] Creating Layer inception_4e/relu_1x1
I0403 18:55:25.971230  8143 net.cpp:425] inception_4e/relu_1x1 <- inception_4e/1x1
I0403 18:55:25.971258  8143 net.cpp:386] inception_4e/relu_1x1 -> inception_4e/1x1 (in-place)
I0403 18:55:25.971622  8143 net.cpp:141] Setting up inception_4e/relu_1x1
I0403 18:55:25.971654  8143 net.cpp:148] Top shape: 24 256 14 14 (1204224)
I0403 18:55:25.971673  8143 net.cpp:156] Memory required for data: 1218065952
I0403 18:55:25.971693  8143 layer_factory.hpp:77] Creating layer inception_4e/3x3_reduce
I0403 18:55:25.971721  8143 net.cpp:91] Creating Layer inception_4e/3x3_reduce
I0403 18:55:25.971743  8143 net.cpp:425] inception_4e/3x3_reduce <- inception_4d/output_inception_4d/output_0_split_2
I0403 18:55:25.971771  8143 net.cpp:399] inception_4e/3x3_reduce -> inception_4e/3x3_reduce
I0403 18:55:25.974390  8143 net.cpp:141] Setting up inception_4e/3x3_reduce
I0403 18:55:25.974426  8143 net.cpp:148] Top shape: 24 160 14 14 (752640)
I0403 18:55:25.974445  8143 net.cpp:156] Memory required for data: 1221076512
I0403 18:55:25.974469  8143 layer_factory.hpp:77] Creating layer inception_4e/relu_3x3_reduce
I0403 18:55:25.974493  8143 net.cpp:91] Creating Layer inception_4e/relu_3x3_reduce
I0403 18:55:25.974514  8143 net.cpp:425] inception_4e/relu_3x3_reduce <- inception_4e/3x3_reduce
I0403 18:55:25.974535  8143 net.cpp:386] inception_4e/relu_3x3_reduce -> inception_4e/3x3_reduce (in-place)
I0403 18:55:25.974764  8143 net.cpp:141] Setting up inception_4e/relu_3x3_reduce
I0403 18:55:25.974803  8143 net.cpp:148] Top shape: 24 160 14 14 (752640)
I0403 18:55:25.974823  8143 net.cpp:156] Memory required for data: 1224087072
I0403 18:55:25.974843  8143 layer_factory.hpp:77] Creating layer inception_4e/3x3
I0403 18:55:25.974870  8143 net.cpp:91] Creating Layer inception_4e/3x3
I0403 18:55:25.974892  8143 net.cpp:425] inception_4e/3x3 <- inception_4e/3x3_reduce
I0403 18:55:25.974916  8143 net.cpp:399] inception_4e/3x3 -> inception_4e/3x3
I0403 18:55:25.981184  8143 net.cpp:141] Setting up inception_4e/3x3
I0403 18:55:25.981237  8143 net.cpp:148] Top shape: 24 320 14 14 (1505280)
I0403 18:55:25.981266  8143 net.cpp:156] Memory required for data: 1230108192
I0403 18:55:25.981289  8143 layer_factory.hpp:77] Creating layer inception_4e/relu_3x3
I0403 18:55:25.981312  8143 net.cpp:91] Creating Layer inception_4e/relu_3x3
I0403 18:55:25.981333  8143 net.cpp:425] inception_4e/relu_3x3 <- inception_4e/3x3
I0403 18:55:25.981353  8143 net.cpp:386] inception_4e/relu_3x3 -> inception_4e/3x3 (in-place)
I0403 18:55:25.981724  8143 net.cpp:141] Setting up inception_4e/relu_3x3
I0403 18:55:25.981757  8143 net.cpp:148] Top shape: 24 320 14 14 (1505280)
I0403 18:55:25.981775  8143 net.cpp:156] Memory required for data: 1236129312
I0403 18:55:25.981793  8143 layer_factory.hpp:77] Creating layer inception_4e/5x5_reduce
I0403 18:55:25.981822  8143 net.cpp:91] Creating Layer inception_4e/5x5_reduce
I0403 18:55:25.981844  8143 net.cpp:425] inception_4e/5x5_reduce <- inception_4d/output_inception_4d/output_0_split_3
I0403 18:55:25.981871  8143 net.cpp:399] inception_4e/5x5_reduce -> inception_4e/5x5_reduce
I0403 18:55:25.983203  8143 net.cpp:141] Setting up inception_4e/5x5_reduce
I0403 18:55:25.983237  8143 net.cpp:148] Top shape: 24 32 14 14 (150528)
I0403 18:55:25.983264  8143 net.cpp:156] Memory required for data: 1236731424
I0403 18:55:25.983288  8143 layer_factory.hpp:77] Creating layer inception_4e/relu_5x5_reduce
I0403 18:55:25.983312  8143 net.cpp:91] Creating Layer inception_4e/relu_5x5_reduce
I0403 18:55:25.983333  8143 net.cpp:425] inception_4e/relu_5x5_reduce <- inception_4e/5x5_reduce
I0403 18:55:25.983355  8143 net.cpp:386] inception_4e/relu_5x5_reduce -> inception_4e/5x5_reduce (in-place)
I0403 18:55:25.983716  8143 net.cpp:141] Setting up inception_4e/relu_5x5_reduce
I0403 18:55:25.983747  8143 net.cpp:148] Top shape: 24 32 14 14 (150528)
I0403 18:55:25.983767  8143 net.cpp:156] Memory required for data: 1237333536
I0403 18:55:25.983784  8143 layer_factory.hpp:77] Creating layer inception_4e/5x5
I0403 18:55:25.983830  8143 net.cpp:91] Creating Layer inception_4e/5x5
I0403 18:55:25.983855  8143 net.cpp:425] inception_4e/5x5 <- inception_4e/5x5_reduce
I0403 18:55:25.983880  8143 net.cpp:399] inception_4e/5x5 -> inception_4e/5x5
I0403 18:55:25.986141  8143 net.cpp:141] Setting up inception_4e/5x5
I0403 18:55:25.986176  8143 net.cpp:148] Top shape: 24 128 14 14 (602112)
I0403 18:55:25.986194  8143 net.cpp:156] Memory required for data: 1239741984
I0403 18:55:25.986217  8143 layer_factory.hpp:77] Creating layer inception_4e/relu_5x5
I0403 18:55:25.986248  8143 net.cpp:91] Creating Layer inception_4e/relu_5x5
I0403 18:55:25.986271  8143 net.cpp:425] inception_4e/relu_5x5 <- inception_4e/5x5
I0403 18:55:25.986294  8143 net.cpp:386] inception_4e/relu_5x5 -> inception_4e/5x5 (in-place)
I0403 18:55:25.986536  8143 net.cpp:141] Setting up inception_4e/relu_5x5
I0403 18:55:25.986565  8143 net.cpp:148] Top shape: 24 128 14 14 (602112)
I0403 18:55:25.986583  8143 net.cpp:156] Memory required for data: 1242150432
I0403 18:55:25.986601  8143 layer_factory.hpp:77] Creating layer inception_4e/pool
I0403 18:55:25.986630  8143 net.cpp:91] Creating Layer inception_4e/pool
I0403 18:55:25.986650  8143 net.cpp:425] inception_4e/pool <- inception_4d/output_inception_4d/output_0_split_4
I0403 18:55:25.986673  8143 net.cpp:399] inception_4e/pool -> inception_4e/pool
I0403 18:55:25.986760  8143 net.cpp:141] Setting up inception_4e/pool
I0403 18:55:25.986789  8143 net.cpp:148] Top shape: 24 528 14 14 (2483712)
I0403 18:55:25.986807  8143 net.cpp:156] Memory required for data: 1252085280
I0403 18:55:25.986825  8143 layer_factory.hpp:77] Creating layer inception_4e/pool_proj
I0403 18:55:25.986853  8143 net.cpp:91] Creating Layer inception_4e/pool_proj
I0403 18:55:25.986874  8143 net.cpp:425] inception_4e/pool_proj <- inception_4e/pool
I0403 18:55:25.986899  8143 net.cpp:399] inception_4e/pool_proj -> inception_4e/pool_proj
I0403 18:55:25.988741  8143 net.cpp:141] Setting up inception_4e/pool_proj
I0403 18:55:25.988788  8143 net.cpp:148] Top shape: 24 128 14 14 (602112)
I0403 18:55:25.988808  8143 net.cpp:156] Memory required for data: 1254493728
I0403 18:55:25.988831  8143 layer_factory.hpp:77] Creating layer inception_4e/relu_pool_proj
I0403 18:55:25.988853  8143 net.cpp:91] Creating Layer inception_4e/relu_pool_proj
I0403 18:55:25.988873  8143 net.cpp:425] inception_4e/relu_pool_proj <- inception_4e/pool_proj
I0403 18:55:25.988896  8143 net.cpp:386] inception_4e/relu_pool_proj -> inception_4e/pool_proj (in-place)
I0403 18:55:25.989253  8143 net.cpp:141] Setting up inception_4e/relu_pool_proj
I0403 18:55:25.989285  8143 net.cpp:148] Top shape: 24 128 14 14 (602112)
I0403 18:55:25.989303  8143 net.cpp:156] Memory required for data: 1256902176
I0403 18:55:25.989321  8143 layer_factory.hpp:77] Creating layer inception_4e/output
I0403 18:55:25.989342  8143 net.cpp:91] Creating Layer inception_4e/output
I0403 18:55:25.989362  8143 net.cpp:425] inception_4e/output <- inception_4e/1x1
I0403 18:55:25.989382  8143 net.cpp:425] inception_4e/output <- inception_4e/3x3
I0403 18:55:25.989403  8143 net.cpp:425] inception_4e/output <- inception_4e/5x5
I0403 18:55:25.989421  8143 net.cpp:425] inception_4e/output <- inception_4e/pool_proj
I0403 18:55:25.989444  8143 net.cpp:399] inception_4e/output -> inception_4e/output
I0403 18:55:25.989506  8143 net.cpp:141] Setting up inception_4e/output
I0403 18:55:25.989537  8143 net.cpp:148] Top shape: 24 832 14 14 (3913728)
I0403 18:55:25.989555  8143 net.cpp:156] Memory required for data: 1272557088
I0403 18:55:25.989574  8143 layer_factory.hpp:77] Creating layer pool4/3x3_s2
I0403 18:55:25.989595  8143 net.cpp:91] Creating Layer pool4/3x3_s2
I0403 18:55:25.989614  8143 net.cpp:425] pool4/3x3_s2 <- inception_4e/output
I0403 18:55:25.989641  8143 net.cpp:399] pool4/3x3_s2 -> pool4/3x3_s2
I0403 18:55:25.989723  8143 net.cpp:141] Setting up pool4/3x3_s2
I0403 18:55:25.989751  8143 net.cpp:148] Top shape: 24 832 7 7 (978432)
I0403 18:55:25.989769  8143 net.cpp:156] Memory required for data: 1276470816
I0403 18:55:25.989787  8143 layer_factory.hpp:77] Creating layer pool4/3x3_s2_pool4/3x3_s2_0_split
I0403 18:55:25.989811  8143 net.cpp:91] Creating Layer pool4/3x3_s2_pool4/3x3_s2_0_split
I0403 18:55:25.989831  8143 net.cpp:425] pool4/3x3_s2_pool4/3x3_s2_0_split <- pool4/3x3_s2
I0403 18:55:25.989852  8143 net.cpp:399] pool4/3x3_s2_pool4/3x3_s2_0_split -> pool4/3x3_s2_pool4/3x3_s2_0_split_0
I0403 18:55:25.989876  8143 net.cpp:399] pool4/3x3_s2_pool4/3x3_s2_0_split -> pool4/3x3_s2_pool4/3x3_s2_0_split_1
I0403 18:55:25.989902  8143 net.cpp:399] pool4/3x3_s2_pool4/3x3_s2_0_split -> pool4/3x3_s2_pool4/3x3_s2_0_split_2
I0403 18:55:25.989925  8143 net.cpp:399] pool4/3x3_s2_pool4/3x3_s2_0_split -> pool4/3x3_s2_pool4/3x3_s2_0_split_3
I0403 18:55:25.990038  8143 net.cpp:141] Setting up pool4/3x3_s2_pool4/3x3_s2_0_split
I0403 18:55:25.990067  8143 net.cpp:148] Top shape: 24 832 7 7 (978432)
I0403 18:55:25.990087  8143 net.cpp:148] Top shape: 24 832 7 7 (978432)
I0403 18:55:25.990106  8143 net.cpp:148] Top shape: 24 832 7 7 (978432)
I0403 18:55:25.990125  8143 net.cpp:148] Top shape: 24 832 7 7 (978432)
I0403 18:55:25.990142  8143 net.cpp:156] Memory required for data: 1292125728
I0403 18:55:25.990160  8143 layer_factory.hpp:77] Creating layer inception_5a/1x1
I0403 18:55:25.990187  8143 net.cpp:91] Creating Layer inception_5a/1x1
I0403 18:55:25.990209  8143 net.cpp:425] inception_5a/1x1 <- pool4/3x3_s2_pool4/3x3_s2_0_split_0
I0403 18:55:25.990236  8143 net.cpp:399] inception_5a/1x1 -> inception_5a/1x1
I0403 18:55:25.993739  8143 net.cpp:141] Setting up inception_5a/1x1
I0403 18:55:25.993775  8143 net.cpp:148] Top shape: 24 256 7 7 (301056)
I0403 18:55:25.993794  8143 net.cpp:156] Memory required for data: 1293329952
I0403 18:55:25.993818  8143 layer_factory.hpp:77] Creating layer inception_5a/relu_1x1
I0403 18:55:25.993841  8143 net.cpp:91] Creating Layer inception_5a/relu_1x1
I0403 18:55:25.993861  8143 net.cpp:425] inception_5a/relu_1x1 <- inception_5a/1x1
I0403 18:55:25.993883  8143 net.cpp:386] inception_5a/relu_1x1 -> inception_5a/1x1 (in-place)
I0403 18:55:25.994264  8143 net.cpp:141] Setting up inception_5a/relu_1x1
I0403 18:55:25.994297  8143 net.cpp:148] Top shape: 24 256 7 7 (301056)
I0403 18:55:25.994315  8143 net.cpp:156] Memory required for data: 1294534176
I0403 18:55:25.994334  8143 layer_factory.hpp:77] Creating layer inception_5a/3x3_reduce
I0403 18:55:25.994361  8143 net.cpp:91] Creating Layer inception_5a/3x3_reduce
I0403 18:55:25.994384  8143 net.cpp:425] inception_5a/3x3_reduce <- pool4/3x3_s2_pool4/3x3_s2_0_split_1
I0403 18:55:25.994410  8143 net.cpp:399] inception_5a/3x3_reduce -> inception_5a/3x3_reduce
I0403 18:55:25.997398  8143 net.cpp:141] Setting up inception_5a/3x3_reduce
I0403 18:55:25.997437  8143 net.cpp:148] Top shape: 24 160 7 7 (188160)
I0403 18:55:25.997457  8143 net.cpp:156] Memory required for data: 1295286816
I0403 18:55:25.997479  8143 layer_factory.hpp:77] Creating layer inception_5a/relu_3x3_reduce
I0403 18:55:25.997503  8143 net.cpp:91] Creating Layer inception_5a/relu_3x3_reduce
I0403 18:55:25.997524  8143 net.cpp:425] inception_5a/relu_3x3_reduce <- inception_5a/3x3_reduce
I0403 18:55:25.997547  8143 net.cpp:386] inception_5a/relu_3x3_reduce -> inception_5a/3x3_reduce (in-place)
I0403 18:55:25.997782  8143 net.cpp:141] Setting up inception_5a/relu_3x3_reduce
I0403 18:55:25.997812  8143 net.cpp:148] Top shape: 24 160 7 7 (188160)
I0403 18:55:25.997830  8143 net.cpp:156] Memory required for data: 1296039456
I0403 18:55:25.997848  8143 layer_factory.hpp:77] Creating layer inception_5a/3x3
I0403 18:55:25.997874  8143 net.cpp:91] Creating Layer inception_5a/3x3
I0403 18:55:25.997896  8143 net.cpp:425] inception_5a/3x3 <- inception_5a/3x3_reduce
I0403 18:55:25.997925  8143 net.cpp:399] inception_5a/3x3 -> inception_5a/3x3
I0403 18:55:26.004181  8143 net.cpp:141] Setting up inception_5a/3x3
I0403 18:55:26.004221  8143 net.cpp:148] Top shape: 24 320 7 7 (376320)
I0403 18:55:26.004246  8143 net.cpp:156] Memory required for data: 1297544736
I0403 18:55:26.004272  8143 layer_factory.hpp:77] Creating layer inception_5a/relu_3x3
I0403 18:55:26.004299  8143 net.cpp:91] Creating Layer inception_5a/relu_3x3
I0403 18:55:26.004323  8143 net.cpp:425] inception_5a/relu_3x3 <- inception_5a/3x3
I0403 18:55:26.004348  8143 net.cpp:386] inception_5a/relu_3x3 -> inception_5a/3x3 (in-place)
I0403 18:55:26.004708  8143 net.cpp:141] Setting up inception_5a/relu_3x3
I0403 18:55:26.004740  8143 net.cpp:148] Top shape: 24 320 7 7 (376320)
I0403 18:55:26.004760  8143 net.cpp:156] Memory required for data: 1299050016
I0403 18:55:26.004778  8143 layer_factory.hpp:77] Creating layer inception_5a/5x5_reduce
I0403 18:55:26.004806  8143 net.cpp:91] Creating Layer inception_5a/5x5_reduce
I0403 18:55:26.004828  8143 net.cpp:425] inception_5a/5x5_reduce <- pool4/3x3_s2_pool4/3x3_s2_0_split_2
I0403 18:55:26.004858  8143 net.cpp:399] inception_5a/5x5_reduce -> inception_5a/5x5_reduce
I0403 18:55:26.006307  8143 net.cpp:141] Setting up inception_5a/5x5_reduce
I0403 18:55:26.006342  8143 net.cpp:148] Top shape: 24 32 7 7 (37632)
I0403 18:55:26.006361  8143 net.cpp:156] Memory required for data: 1299200544
I0403 18:55:26.006384  8143 layer_factory.hpp:77] Creating layer inception_5a/relu_5x5_reduce
I0403 18:55:26.006410  8143 net.cpp:91] Creating Layer inception_5a/relu_5x5_reduce
I0403 18:55:26.006431  8143 net.cpp:425] inception_5a/relu_5x5_reduce <- inception_5a/5x5_reduce
I0403 18:55:26.006453  8143 net.cpp:386] inception_5a/relu_5x5_reduce -> inception_5a/5x5_reduce (in-place)
I0403 18:55:26.006814  8143 net.cpp:141] Setting up inception_5a/relu_5x5_reduce
I0403 18:55:26.006846  8143 net.cpp:148] Top shape: 24 32 7 7 (37632)
I0403 18:55:26.006865  8143 net.cpp:156] Memory required for data: 1299351072
I0403 18:55:26.006883  8143 layer_factory.hpp:77] Creating layer inception_5a/5x5
I0403 18:55:26.006911  8143 net.cpp:91] Creating Layer inception_5a/5x5
I0403 18:55:26.006933  8143 net.cpp:425] inception_5a/5x5 <- inception_5a/5x5_reduce
I0403 18:55:26.006959  8143 net.cpp:399] inception_5a/5x5 -> inception_5a/5x5
I0403 18:55:26.009088  8143 net.cpp:141] Setting up inception_5a/5x5
I0403 18:55:26.009137  8143 net.cpp:148] Top shape: 24 128 7 7 (150528)
I0403 18:55:26.009157  8143 net.cpp:156] Memory required for data: 1299953184
I0403 18:55:26.009181  8143 layer_factory.hpp:77] Creating layer inception_5a/relu_5x5
I0403 18:55:26.009204  8143 net.cpp:91] Creating Layer inception_5a/relu_5x5
I0403 18:55:26.009227  8143 net.cpp:425] inception_5a/relu_5x5 <- inception_5a/5x5
I0403 18:55:26.009254  8143 net.cpp:386] inception_5a/relu_5x5 -> inception_5a/5x5 (in-place)
I0403 18:55:26.009498  8143 net.cpp:141] Setting up inception_5a/relu_5x5
I0403 18:55:26.009529  8143 net.cpp:148] Top shape: 24 128 7 7 (150528)
I0403 18:55:26.009548  8143 net.cpp:156] Memory required for data: 1300555296
I0403 18:55:26.009567  8143 layer_factory.hpp:77] Creating layer inception_5a/pool
I0403 18:55:26.009593  8143 net.cpp:91] Creating Layer inception_5a/pool
I0403 18:55:26.009613  8143 net.cpp:425] inception_5a/pool <- pool4/3x3_s2_pool4/3x3_s2_0_split_3
I0403 18:55:26.009635  8143 net.cpp:399] inception_5a/pool -> inception_5a/pool
I0403 18:55:26.009721  8143 net.cpp:141] Setting up inception_5a/pool
I0403 18:55:26.009750  8143 net.cpp:148] Top shape: 24 832 7 7 (978432)
I0403 18:55:26.009768  8143 net.cpp:156] Memory required for data: 1304469024
I0403 18:55:26.009786  8143 layer_factory.hpp:77] Creating layer inception_5a/pool_proj
I0403 18:55:26.009814  8143 net.cpp:91] Creating Layer inception_5a/pool_proj
I0403 18:55:26.009836  8143 net.cpp:425] inception_5a/pool_proj <- inception_5a/pool
I0403 18:55:26.009861  8143 net.cpp:399] inception_5a/pool_proj -> inception_5a/pool_proj
I0403 18:55:26.012684  8143 net.cpp:141] Setting up inception_5a/pool_proj
I0403 18:55:26.012720  8143 net.cpp:148] Top shape: 24 128 7 7 (150528)
I0403 18:55:26.012739  8143 net.cpp:156] Memory required for data: 1305071136
I0403 18:55:26.012763  8143 layer_factory.hpp:77] Creating layer inception_5a/relu_pool_proj
I0403 18:55:26.012785  8143 net.cpp:91] Creating Layer inception_5a/relu_pool_proj
I0403 18:55:26.012804  8143 net.cpp:425] inception_5a/relu_pool_proj <- inception_5a/pool_proj
I0403 18:55:26.012830  8143 net.cpp:386] inception_5a/relu_pool_proj -> inception_5a/pool_proj (in-place)
I0403 18:55:26.013186  8143 net.cpp:141] Setting up inception_5a/relu_pool_proj
I0403 18:55:26.013219  8143 net.cpp:148] Top shape: 24 128 7 7 (150528)
I0403 18:55:26.013243  8143 net.cpp:156] Memory required for data: 1305673248
I0403 18:55:26.013263  8143 layer_factory.hpp:77] Creating layer inception_5a/output
I0403 18:55:26.013285  8143 net.cpp:91] Creating Layer inception_5a/output
I0403 18:55:26.013305  8143 net.cpp:425] inception_5a/output <- inception_5a/1x1
I0403 18:55:26.013327  8143 net.cpp:425] inception_5a/output <- inception_5a/3x3
I0403 18:55:26.013347  8143 net.cpp:425] inception_5a/output <- inception_5a/5x5
I0403 18:55:26.013367  8143 net.cpp:425] inception_5a/output <- inception_5a/pool_proj
I0403 18:55:26.013391  8143 net.cpp:399] inception_5a/output -> inception_5a/output
I0403 18:55:26.013453  8143 net.cpp:141] Setting up inception_5a/output
I0403 18:55:26.013484  8143 net.cpp:148] Top shape: 24 832 7 7 (978432)
I0403 18:55:26.013504  8143 net.cpp:156] Memory required for data: 1309586976
I0403 18:55:26.013523  8143 layer_factory.hpp:77] Creating layer inception_5a/output_inception_5a/output_0_split
I0403 18:55:26.013545  8143 net.cpp:91] Creating Layer inception_5a/output_inception_5a/output_0_split
I0403 18:55:26.013564  8143 net.cpp:425] inception_5a/output_inception_5a/output_0_split <- inception_5a/output
I0403 18:55:26.013586  8143 net.cpp:399] inception_5a/output_inception_5a/output_0_split -> inception_5a/output_inception_5a/output_0_split_0
I0403 18:55:26.013610  8143 net.cpp:399] inception_5a/output_inception_5a/output_0_split -> inception_5a/output_inception_5a/output_0_split_1
I0403 18:55:26.013639  8143 net.cpp:399] inception_5a/output_inception_5a/output_0_split -> inception_5a/output_inception_5a/output_0_split_2
I0403 18:55:26.013666  8143 net.cpp:399] inception_5a/output_inception_5a/output_0_split -> inception_5a/output_inception_5a/output_0_split_3
I0403 18:55:26.013810  8143 net.cpp:141] Setting up inception_5a/output_inception_5a/output_0_split
I0403 18:55:26.013840  8143 net.cpp:148] Top shape: 24 832 7 7 (978432)
I0403 18:55:26.013860  8143 net.cpp:148] Top shape: 24 832 7 7 (978432)
I0403 18:55:26.013880  8143 net.cpp:148] Top shape: 24 832 7 7 (978432)
I0403 18:55:26.013900  8143 net.cpp:148] Top shape: 24 832 7 7 (978432)
I0403 18:55:26.013916  8143 net.cpp:156] Memory required for data: 1325241888
I0403 18:55:26.013936  8143 layer_factory.hpp:77] Creating layer inception_5b/1x1
I0403 18:55:26.013962  8143 net.cpp:91] Creating Layer inception_5b/1x1
I0403 18:55:26.013984  8143 net.cpp:425] inception_5b/1x1 <- inception_5a/output_inception_5a/output_0_split_0
I0403 18:55:26.014011  8143 net.cpp:399] inception_5b/1x1 -> inception_5b/1x1
I0403 18:55:26.018651  8143 net.cpp:141] Setting up inception_5b/1x1
I0403 18:55:26.018689  8143 net.cpp:148] Top shape: 24 384 7 7 (451584)
I0403 18:55:26.018712  8143 net.cpp:156] Memory required for data: 1327048224
I0403 18:55:26.018733  8143 layer_factory.hpp:77] Creating layer inception_5b/relu_1x1
I0403 18:55:26.018757  8143 net.cpp:91] Creating Layer inception_5b/relu_1x1
I0403 18:55:26.018777  8143 net.cpp:425] inception_5b/relu_1x1 <- inception_5b/1x1
I0403 18:55:26.018801  8143 net.cpp:386] inception_5b/relu_1x1 -> inception_5b/1x1 (in-place)
I0403 18:55:26.019170  8143 net.cpp:141] Setting up inception_5b/relu_1x1
I0403 18:55:26.019203  8143 net.cpp:148] Top shape: 24 384 7 7 (451584)
I0403 18:55:26.019223  8143 net.cpp:156] Memory required for data: 1328854560
I0403 18:55:26.019246  8143 layer_factory.hpp:77] Creating layer inception_5b/3x3_reduce
I0403 18:55:26.019279  8143 net.cpp:91] Creating Layer inception_5b/3x3_reduce
I0403 18:55:26.019300  8143 net.cpp:425] inception_5b/3x3_reduce <- inception_5a/output_inception_5a/output_0_split_1
I0403 18:55:26.019325  8143 net.cpp:399] inception_5b/3x3_reduce -> inception_5b/3x3_reduce
I0403 18:55:26.022622  8143 net.cpp:141] Setting up inception_5b/3x3_reduce
I0403 18:55:26.022660  8143 net.cpp:148] Top shape: 24 192 7 7 (225792)
I0403 18:55:26.022677  8143 net.cpp:156] Memory required for data: 1329757728
I0403 18:55:26.022701  8143 layer_factory.hpp:77] Creating layer inception_5b/relu_3x3_reduce
I0403 18:55:26.022724  8143 net.cpp:91] Creating Layer inception_5b/relu_3x3_reduce
I0403 18:55:26.022744  8143 net.cpp:425] inception_5b/relu_3x3_reduce <- inception_5b/3x3_reduce
I0403 18:55:26.022774  8143 net.cpp:386] inception_5b/relu_3x3_reduce -> inception_5b/3x3_reduce (in-place)
I0403 18:55:26.023012  8143 net.cpp:141] Setting up inception_5b/relu_3x3_reduce
I0403 18:55:26.023044  8143 net.cpp:148] Top shape: 24 192 7 7 (225792)
I0403 18:55:26.023062  8143 net.cpp:156] Memory required for data: 1330660896
I0403 18:55:26.023082  8143 layer_factory.hpp:77] Creating layer inception_5b/3x3
I0403 18:55:26.023108  8143 net.cpp:91] Creating Layer inception_5b/3x3
I0403 18:55:26.023131  8143 net.cpp:425] inception_5b/3x3 <- inception_5b/3x3_reduce
I0403 18:55:26.023159  8143 net.cpp:399] inception_5b/3x3 -> inception_5b/3x3
I0403 18:55:26.031595  8143 net.cpp:141] Setting up inception_5b/3x3
I0403 18:55:26.031633  8143 net.cpp:148] Top shape: 24 384 7 7 (451584)
I0403 18:55:26.031654  8143 net.cpp:156] Memory required for data: 1332467232
I0403 18:55:26.031680  8143 layer_factory.hpp:77] Creating layer inception_5b/relu_3x3
I0403 18:55:26.031704  8143 net.cpp:91] Creating Layer inception_5b/relu_3x3
I0403 18:55:26.031726  8143 net.cpp:425] inception_5b/relu_3x3 <- inception_5b/3x3
I0403 18:55:26.031754  8143 net.cpp:386] inception_5b/relu_3x3 -> inception_5b/3x3 (in-place)
I0403 18:55:26.032121  8143 net.cpp:141] Setting up inception_5b/relu_3x3
I0403 18:55:26.032153  8143 net.cpp:148] Top shape: 24 384 7 7 (451584)
I0403 18:55:26.032172  8143 net.cpp:156] Memory required for data: 1334273568
I0403 18:55:26.032191  8143 layer_factory.hpp:77] Creating layer inception_5b/5x5_reduce
I0403 18:55:26.032251  8143 net.cpp:91] Creating Layer inception_5b/5x5_reduce
I0403 18:55:26.032277  8143 net.cpp:425] inception_5b/5x5_reduce <- inception_5a/output_inception_5a/output_0_split_2
I0403 18:55:26.032307  8143 net.cpp:399] inception_5b/5x5_reduce -> inception_5b/5x5_reduce
I0403 18:55:26.033874  8143 net.cpp:141] Setting up inception_5b/5x5_reduce
I0403 18:55:26.033910  8143 net.cpp:148] Top shape: 24 48 7 7 (56448)
I0403 18:55:26.033929  8143 net.cpp:156] Memory required for data: 1334499360
I0403 18:55:26.033952  8143 layer_factory.hpp:77] Creating layer inception_5b/relu_5x5_reduce
I0403 18:55:26.033974  8143 net.cpp:91] Creating Layer inception_5b/relu_5x5_reduce
I0403 18:55:26.033995  8143 net.cpp:425] inception_5b/relu_5x5_reduce <- inception_5b/5x5_reduce
I0403 18:55:26.034019  8143 net.cpp:386] inception_5b/relu_5x5_reduce -> inception_5b/5x5_reduce (in-place)
I0403 18:55:26.034487  8143 net.cpp:141] Setting up inception_5b/relu_5x5_reduce
I0403 18:55:26.034519  8143 net.cpp:148] Top shape: 24 48 7 7 (56448)
I0403 18:55:26.034538  8143 net.cpp:156] Memory required for data: 1334725152
I0403 18:55:26.034557  8143 layer_factory.hpp:77] Creating layer inception_5b/5x5
I0403 18:55:26.034584  8143 net.cpp:91] Creating Layer inception_5b/5x5
I0403 18:55:26.034605  8143 net.cpp:425] inception_5b/5x5 <- inception_5b/5x5_reduce
I0403 18:55:26.034628  8143 net.cpp:399] inception_5b/5x5 -> inception_5b/5x5
I0403 18:55:26.037147  8143 net.cpp:141] Setting up inception_5b/5x5
I0403 18:55:26.037181  8143 net.cpp:148] Top shape: 24 128 7 7 (150528)
I0403 18:55:26.037200  8143 net.cpp:156] Memory required for data: 1335327264
I0403 18:55:26.037223  8143 layer_factory.hpp:77] Creating layer inception_5b/relu_5x5
I0403 18:55:26.037256  8143 net.cpp:91] Creating Layer inception_5b/relu_5x5
I0403 18:55:26.037279  8143 net.cpp:425] inception_5b/relu_5x5 <- inception_5b/5x5
I0403 18:55:26.037302  8143 net.cpp:386] inception_5b/relu_5x5 -> inception_5b/5x5 (in-place)
I0403 18:55:26.037545  8143 net.cpp:141] Setting up inception_5b/relu_5x5
I0403 18:55:26.037578  8143 net.cpp:148] Top shape: 24 128 7 7 (150528)
I0403 18:55:26.037597  8143 net.cpp:156] Memory required for data: 1335929376
I0403 18:55:26.037616  8143 layer_factory.hpp:77] Creating layer inception_5b/pool
I0403 18:55:26.037638  8143 net.cpp:91] Creating Layer inception_5b/pool
I0403 18:55:26.037658  8143 net.cpp:425] inception_5b/pool <- inception_5a/output_inception_5a/output_0_split_3
I0403 18:55:26.037681  8143 net.cpp:399] inception_5b/pool -> inception_5b/pool
I0403 18:55:26.037771  8143 net.cpp:141] Setting up inception_5b/pool
I0403 18:55:26.037801  8143 net.cpp:148] Top shape: 24 832 7 7 (978432)
I0403 18:55:26.037818  8143 net.cpp:156] Memory required for data: 1339843104
I0403 18:55:26.037837  8143 layer_factory.hpp:77] Creating layer inception_5b/pool_proj
I0403 18:55:26.037866  8143 net.cpp:91] Creating Layer inception_5b/pool_proj
I0403 18:55:26.037889  8143 net.cpp:425] inception_5b/pool_proj <- inception_5b/pool
I0403 18:55:26.037915  8143 net.cpp:399] inception_5b/pool_proj -> inception_5b/pool_proj
I0403 18:55:26.040745  8143 net.cpp:141] Setting up inception_5b/pool_proj
I0403 18:55:26.040781  8143 net.cpp:148] Top shape: 24 128 7 7 (150528)
I0403 18:55:26.040801  8143 net.cpp:156] Memory required for data: 1340445216
I0403 18:55:26.040823  8143 layer_factory.hpp:77] Creating layer inception_5b/relu_pool_proj
I0403 18:55:26.040849  8143 net.cpp:91] Creating Layer inception_5b/relu_pool_proj
I0403 18:55:26.040870  8143 net.cpp:425] inception_5b/relu_pool_proj <- inception_5b/pool_proj
I0403 18:55:26.040892  8143 net.cpp:386] inception_5b/relu_pool_proj -> inception_5b/pool_proj (in-place)
I0403 18:55:26.041260  8143 net.cpp:141] Setting up inception_5b/relu_pool_proj
I0403 18:55:26.041292  8143 net.cpp:148] Top shape: 24 128 7 7 (150528)
I0403 18:55:26.041311  8143 net.cpp:156] Memory required for data: 1341047328
I0403 18:55:26.041331  8143 layer_factory.hpp:77] Creating layer inception_5b/output
I0403 18:55:26.041352  8143 net.cpp:91] Creating Layer inception_5b/output
I0403 18:55:26.041389  8143 net.cpp:425] inception_5b/output <- inception_5b/1x1
I0403 18:55:26.041412  8143 net.cpp:425] inception_5b/output <- inception_5b/3x3
I0403 18:55:26.041435  8143 net.cpp:425] inception_5b/output <- inception_5b/5x5
I0403 18:55:26.041455  8143 net.cpp:425] inception_5b/output <- inception_5b/pool_proj
I0403 18:55:26.041478  8143 net.cpp:399] inception_5b/output -> inception_5b/output
I0403 18:55:26.041543  8143 net.cpp:141] Setting up inception_5b/output
I0403 18:55:26.041575  8143 net.cpp:148] Top shape: 24 1024 7 7 (1204224)
I0403 18:55:26.041594  8143 net.cpp:156] Memory required for data: 1345864224
I0403 18:55:26.041612  8143 layer_factory.hpp:77] Creating layer pool5/7x7_s1
I0403 18:55:26.041635  8143 net.cpp:91] Creating Layer pool5/7x7_s1
I0403 18:55:26.041654  8143 net.cpp:425] pool5/7x7_s1 <- inception_5b/output
I0403 18:55:26.041681  8143 net.cpp:399] pool5/7x7_s1 -> pool5/7x7_s1
I0403 18:55:26.041954  8143 net.cpp:141] Setting up pool5/7x7_s1
I0403 18:55:26.041985  8143 net.cpp:148] Top shape: 24 1024 1 1 (24576)
I0403 18:55:26.042002  8143 net.cpp:156] Memory required for data: 1345962528
I0403 18:55:26.042019  8143 layer_factory.hpp:77] Creating layer pool5/drop_7x7_s1
I0403 18:55:26.042042  8143 net.cpp:91] Creating Layer pool5/drop_7x7_s1
I0403 18:55:26.042067  8143 net.cpp:425] pool5/drop_7x7_s1 <- pool5/7x7_s1
I0403 18:55:26.042088  8143 net.cpp:386] pool5/drop_7x7_s1 -> pool5/7x7_s1 (in-place)
I0403 18:55:26.042147  8143 net.cpp:141] Setting up pool5/drop_7x7_s1
I0403 18:55:26.042181  8143 net.cpp:148] Top shape: 24 1024 1 1 (24576)
I0403 18:55:26.042198  8143 net.cpp:156] Memory required for data: 1346060832
I0403 18:55:26.042217  8143 layer_factory.hpp:77] Creating layer loss3/classifier_plantvillage
I0403 18:55:26.042254  8143 net.cpp:91] Creating Layer loss3/classifier_plantvillage
I0403 18:55:26.042279  8143 net.cpp:425] loss3/classifier_plantvillage <- pool5/7x7_s1
I0403 18:55:26.042307  8143 net.cpp:399] loss3/classifier_plantvillage -> loss3/classifier_plantvillage
I0403 18:55:26.042829  8143 net.cpp:141] Setting up loss3/classifier_plantvillage
I0403 18:55:26.042862  8143 net.cpp:148] Top shape: 24 38 (912)
I0403 18:55:26.042882  8143 net.cpp:156] Memory required for data: 1346064480
I0403 18:55:26.042906  8143 layer_factory.hpp:77] Creating layer loss3/classifier_plantvillage_loss3/classifier_plantvillage_0_split
I0403 18:55:26.042929  8143 net.cpp:91] Creating Layer loss3/classifier_plantvillage_loss3/classifier_plantvillage_0_split
I0403 18:55:26.042950  8143 net.cpp:425] loss3/classifier_plantvillage_loss3/classifier_plantvillage_0_split <- loss3/classifier_plantvillage
I0403 18:55:26.042973  8143 net.cpp:399] loss3/classifier_plantvillage_loss3/classifier_plantvillage_0_split -> loss3/classifier_plantvillage_loss3/classifier_plantvillage_0_split_0
I0403 18:55:26.043004  8143 net.cpp:399] loss3/classifier_plantvillage_loss3/classifier_plantvillage_0_split -> loss3/classifier_plantvillage_loss3/classifier_plantvillage_0_split_1
I0403 18:55:26.043031  8143 net.cpp:399] loss3/classifier_plantvillage_loss3/classifier_plantvillage_0_split -> loss3/classifier_plantvillage_loss3/classifier_plantvillage_0_split_2
I0403 18:55:26.043058  8143 net.cpp:399] loss3/classifier_plantvillage_loss3/classifier_plantvillage_0_split -> loss3/classifier_plantvillage_loss3/classifier_plantvillage_0_split_3
I0403 18:55:26.043184  8143 net.cpp:141] Setting up loss3/classifier_plantvillage_loss3/classifier_plantvillage_0_split
I0403 18:55:26.043215  8143 net.cpp:148] Top shape: 24 38 (912)
I0403 18:55:26.043236  8143 net.cpp:148] Top shape: 24 38 (912)
I0403 18:55:26.043262  8143 net.cpp:148] Top shape: 24 38 (912)
I0403 18:55:26.043283  8143 net.cpp:148] Top shape: 24 38 (912)
I0403 18:55:26.043300  8143 net.cpp:156] Memory required for data: 1346079072
I0403 18:55:26.043318  8143 layer_factory.hpp:77] Creating layer loss1/loss
I0403 18:55:26.043349  8143 net.cpp:91] Creating Layer loss1/loss
I0403 18:55:26.043371  8143 net.cpp:425] loss1/loss <- loss1/classifier_plantvillage_loss1/classifier_plantvillage_0_split_0
I0403 18:55:26.043409  8143 net.cpp:425] loss1/loss <- label_data_1_split_0
…
