…
I0403 18:41:06.350709  7264 net.cpp:313] The NetState phase (1) differed from the phase (0) specified by a rule in layer data
I0403 18:41:06.351924  7264 net.cpp:49] Initializing net from parameters: 
state {
  phase: TEST
}
layer {
  name: "data"
  type: "Data"
  top: "data"
  top: "label"
  include {
    phase: TEST
  }
  transform_param {
    mirror: false
    crop_size: 224
    mean_file: "/home/mohanty/data/final_dataset/lmdb/grayscale-40-60/mean.binaryproto"
  }
  data_param {
    source: "/home/mohanty/data/final_dataset/lmdb/grayscale-40-60/test_db"
    batch_size: 24
    backend: LMDB
  }
}
layer {
  name: "conv1/7x7_s2"
  type: "Convolution"
  bottom: "data"
  top: "conv1/7x7_s2"
  param {
    lr_mult: 1
    decay_mult: 1
  }
  param {
    lr_mult: 2
    decay_mult: 0
  }
  convolution_param {
    num_output: 64
    pad: 3
    kernel_size: 7
    stride: 2
    weight_filler {
      type: "xavier"
      std: 0.1
    }
    bias_filler {
      type: "constant"
      value: 0.2
    }
  }
}
layer {
  name: "conv1/relu_7x7"
  type: "ReLU"
  bottom: "conv1/7x7_s2"
  top: "conv1/7x7_s2"
}
layer {
  name: "pool1/3x3_s2"
  type: "Pooling"
  bottom: "conv1/7x7_s2"
  top: "pool1/3x3_s2"
  pooling_param {
    pool: MAX
    kernel_size: 3
    stride: 2
  }
}
layer {
  name: "pool1/norm1"
  type: "LRN"
  bottom: "pool1/3x3_s2"
  top: "pool1/norm1"
  lrn_param {
    local_size: 5
    alpha: 0.0001
    beta: 0.75
  }
}
layer {
  name: "conv2/3x3_reduce"
  type: "Convolution"
  bottom: "pool1/norm1"
  top: "conv2/3x3_reduce"
  param {
    lr_mult: 1
    decay_mult: 1
  }
  param {
    lr_mult: 2
    decay_mult: 0
  }
  convolution_param {
    num_output: 64
    kernel_size: 1
    weight_filler {
      type: "xavier"
      std: 0.1
    }
    bias_filler {
      type: "constant"
      value: 0.2
    }
  }
}
layer {
  name: "conv2/relu_3x3_reduce"
  type: "ReLU"
  bottom: "conv2/3x3_reduce"
  top: "conv2/3x3_reduce"
}
layer {
  name: "conv2/3x3"
  type: "Convolution"
  bottom: "conv2/3x3_reduce"
  top: "conv2/3x3"
  param {
    lr_mult: 1
    decay_mult: 1
  }
  param {
    lr_mult: 2
    decay_mult: 0
  }
  convolution_param {
    num_output: 192
    pad: 1
    kernel_size: 3
    weight_filler {
      type: "xavier"
      std: 0.03
    }
    bias_filler {
      type: "constant"
      value: 0.2
    }
  }
}
layer {
  name: "conv2/relu_3x3"
  type: "ReLU"
  bottom: "conv2/3x3"
  top: "conv2/3x3"
}
layer {
  name: "conv2/norm2"
  type: "LRN"
  bottom: "conv2/3x3"
  top: "conv2/norm2"
  lrn_param {
    local_size: 5
    alpha: 0.0001
    beta: 0.75
  }
}
layer {
  name: "pool2/3x3_s2"
  type: "Pooling"
  bottom: "conv2/norm2"
  top: "pool2/3x3_s2"
  pooling_param {
    pool: MAX
    kernel_size: 3
    stride: 2
  }
}
layer {
  name: "inception_3a/1x1"
  type: "Convolution"
  bottom: "pool2/3x3_s2"
  top: "inception_3a/1x1"
  param {
    lr_mult: 1
    decay_mult: 1
  }
  param {
    lr_mult: 2
    decay_mult: 0
  }
  convolution_param {
    num_output: 64
    kernel_size: 1
    weight_filler {
      type: "xavier"
      std: 0.03
    }
    bias_filler {
      type: "constant"
      value: 0.2
    }
  }
}
layer {
  name: "inception_3a/relu_1x1"
  type: "ReLU"
  bottom: "inception_3a/1x1"
  top: "inception_3a/1x1"
}
layer {
  name: "inception_3a/3x3_reduce"
  type: "Convolution"
  bottom: "pool2/3x3_s2"
  top: "inception_3a/3x3_reduce"
  param {
    lr_mult: 1
    decay_mult: 1
  }
  param {
    lr_mult: 2
    decay_mult: 0
  }
  convolution_param {
    num_output: 96
    kernel_size: 1
    weight_filler {
      type: "xavier"
      std: 0.09
    }
    bias_filler {
      type: "constant"
      value: 0.2
    }
  }
}
layer {
  name: "inception_3a/relu_3x3_reduce"
  type: "ReLU"
  bottom: "inception_3a/3x3_reduce"
  top: "inception_3a/3x3_reduce"
}
layer {
  name: "inception_3a/3x3"
  type: "Convolution"
  bottom: "inception_3a/3x3_reduce"
  top: "inception_3a/3x3"
  param {
    lr_mult: 1
    decay_mult: 1
  }
  param {
    lr_mult: 2
    decay_mult: 0
  }
  convolution_param {
    num_output: 128
    pad: 1
    kernel_size: 3
    weight_filler {
      type: "xavier"
      std: 0.03
    }
    bias_filler {
      type: "constant"
      value: 0.2
    }
  }
}
layer {
  name: "inception_3a/relu_3x3"
  type: "ReLU"
  bottom: "inception_3a/3x3"
  top: "inception_3a/3x3"
}
layer {
  name: "inception_3a/5x5_reduce"
  type: "Convolution"
  bottom: "pool2/3x3_s2"
  top: "inception_3a/5x5_reduce"
  param {
    lr_mult: 1
    decay_mult: 1
  }
  param {
    lr_mult: 2
    decay_mult: 0
  }
  convolution_param {
    num_output: 16
    kernel_size: 1
    weight_filler {
      type: "xavier"
      std: 0.2
    }
    bias_filler {
      type: "constant"
      value: 0.2
    }
  }
}
layer {
  name: "inception_3a/relu_5x5_reduce"
  type: "ReLU"
  bottom: "inception_3a/5x5_reduce"
  top: "inception_3a/5x5_reduce"
}
layer {
  name: "inception_3a/5x5"
  type: "Convolution"
  bottom: "inception_3a/5x5_reduce"
  top: "inception_3a/5x5"
  param {
    lr_mult: 1
    decay_mult: 1
  }
  param {
    lr_mult: 2
    decay_mult: 0
  }
  convolution_param {
    num_output: 32
    pad: 2
    kernel_size: 5
    weight_filler {
      type: "xavier"
      std: 0.03
    }
    bias_filler {
      type: "constant"
      value: 0.2
    }
  }
}
layer {
  name: "inception_3a/relu_5x5"
  type: "ReLU"
  bottom: "inception_3a/5x5"
  top: "inception_3a/5x5"
}
layer {
  name: "inception_3a/pool"
  type: "Pooling"
  bottom: "pool2/3x3_s2"
  top: "inception_3a/pool"
  pooling_param {
    pool: MAX
    kernel_size: 3
    stride: 1
    pad: 1
  }
}
layer {
  name: "inception_3a/pool_proj"
  type: "Convolution"
  bottom: "inception_3a/pool"
  top: "inception_3a/pool_proj"
  param {
    lr_mult: 1
    decay_mult: 1
  }
  param {
    lr_mult: 2
    decay_mult: 0
  }
  convolution_param {
    num_output: 32
    kernel_size: 1
    weight_filler {
      type: "xavier"
      std: 0.1
    }
    bias_filler {
      type: "constant"
      value: 0.2
    }
  }
}
layer {
  name: "inception_3a/relu_pool_proj"
  type: "ReLU"
  bottom: "inception_3a/pool_proj"
  top: "inception_3a/pool_proj"
}
layer {
  name: "inception_3a/output"
  type: "Concat"
  bottom: "inception_3a/1x1"
  bottom: "inception_3a/3x3"
  bottom: "inception_3a/5x5"
  bottom: "inception_3a/pool_proj"
  top: "inception_3a/output"
}
layer {
  name: "inception_3b/1x1"
  type: "Convolution"
  bottom: "inception_3a/output"
  top: "inception_3b/1x1"
  param {
    lr_mult: 1
    decay_mult: 1
  }
  param {
    lr_mult: 2
    decay_mult: 0
  }
  convolution_param {
    num_output: 128
    kernel_size: 1
    weight_filler {
      type: "xavier"
      std: 0.03
    }
    bias_filler {
      type: "constant"
      value: 0.2
    }
  }
}
layer {
  name: "inception_3b/relu_1x1"
  type: "ReLU"
  bottom: "inception_3b/1x1"
  top: "inception_3b/1x1"
}
layer {
  name: "inception_3b/3x3_reduce"
  type: "Convolution"
  bottom: "inception_3a/output"
  top: "inception_3b/3x3_reduce"
  param {
    lr_mult: 1
    decay_mult: 1
  }
  param {
    lr_mult: 2
    decay_mult: 0
  }
  convolution_param {
    num_output: 128
    kernel_size: 1
    weight_filler {
      type: "xavier"
      std: 0.09
    }
    bias_filler {
      type: "constant"
      value: 0.2
    }
  }
}
layer {
  name: "inception_3b/relu_3x3_reduce"
  type: "ReLU"
  bottom: "inception_3b/3x3_reduce"
  top: "inception_3b/3x3_reduce"
}
layer {
  name: "inception_3b/3x3"
  type: "Convolution"
  bottom: "inception_3b/3x3_reduce"
  top: "inception_3b/3x3"
  param {
    lr_mult: 1
    decay_mult: 1
  }
  param {
    lr_mult: 2
    decay_mult: 0
  }
  convolution_param {
    num_output: 192
    pad: 1
    kernel_size: 3
    weight_filler {
      type: "xavier"
      std: 0.03
    }
    bias_filler {
      type: "constant"
      value: 0.2
    }
  }
}
layer {
  name: "inception_3b/relu_3x3"
  type: "ReLU"
  bottom: "inception_3b/3x3"
  top: "inception_3b/3x3"
}
layer {
  name: "inception_3b/5x5_reduce"
  type: "Convolution"
  bottom: "inception_3a/output"
  top: "inception_3b/5x5_reduce"
  param {
    lr_mult: 1
    decay_mult: 1
  }
  param {
    lr_mult: 2
    decay_mult: 0
  }
  convolution_param {
    num_output: 32
    kernel_size: 1
    weight_filler {
      type: "xavier"
      std: 0.2
    }
    bias_filler {
      type: "constant"
      value: 0.2
    }
  }
}
layer {
  name: "inception_3b/relu_5x5_reduce"
  type: "ReLU"
  bottom: "inception_3b/5x5_reduce"
  top: "inception_3b/5x5_reduce"
}
layer {
  name: "inception_3b/5x5"
  type: "Convolution"
  bottom: "inception_3b/5x5_reduce"
  top: "inception_3b/5x5"
  param {
    lr_mult: 1
    decay_mult: 1
  }
  param {
    lr_mult: 2
    decay_mult: 0
  }
  convolution_param {
    num_output: 96
    pad: 2
    kernel_size: 5
    weight_filler {
      type: "xavier"
      std: 0.03
    }
    bias_filler {
      type: "constant"
      value: 0.2
    }
  }
}
layer {
  name: "inception_3b/relu_5x5"
  type: "ReLU"
  bottom: "inception_3b/5x5"
  top: "inception_3b/5x5"
}
layer {
  name: "inception_3b/pool"
  type: "Pooling"
  bottom: "inception_3a/output"
  top: "inception_3b/pool"
  pooling_param {
    pool: MAX
    kernel_size: 3
    stride: 1
    pad: 1
  }
}
layer {
  name: "inception_3b/pool_proj"
  type: "Convolution"
  bottom: "inception_3b/pool"
  top: "inception_3b/pool_proj"
  param {
    lr_mult: 1
    decay_mult: 1
  }
  param {
    lr_mult: 2
    decay_mult: 0
  }
  convolution_param {
    num_output: 64
    kernel_size: 1
    weight_filler {
      type: "xavier"
      std: 0.1
    }
    bias_filler {
      type: "constant"
      value: 0.2
    }
  }
}
layer {
  name: "inception_3b/relu_pool_proj"
  type: "ReLU"
  bottom: "inception_3b/pool_proj"
  top: "inception_3b/pool_proj"
}
layer {
  name: "inception_3b/output"
  type: "Concat"
  bottom: "inception_3b/1x1"
  bottom: "inception_3b/3x3"
  bottom: "inception_3b/5x5"
  bottom: "inception_3b/pool_proj"
  top: "inception_3b/output"
}
layer {
  name: "pool3/3x3_s2"
  type: "Pooling"
  bottom: "inception_3b/output"
  top: "pool3/3x3_s2"
  pooling_param {
    pool: MAX
    kernel_size: 3
    stride: 2
  }
}
layer {
  name: "inception_4a/1x1"
  type: "Convolution"
  bottom: "pool3/3x3_s2"
  top: "inception_4a/1x1"
  param {
    lr_mult: 1
    decay_mult: 1
  }
  param {
    lr_mult: 2
    decay_mult: 0
  }
  convolution_param {
    num_output: 192
    kernel_size: 1
    weight_filler {
      type: "xavier"
      std: 0.03
    }
    bias_filler {
      type: "constant"
      value: 0.2
    }
  }
}
layer {
  name: "inception_4a/relu_1x1"
  type: "ReLU"
  bottom: "inception_4a/1x1"
  top: "inception_4a/1x1"
}
layer {
  name: "inception_4a/3x3_reduce"
  type: "Convolution"
  bottom: "pool3/3x3_s2"
  top: "inception_4a/3x3_reduce"
  param {
    lr_mult: 1
    decay_mult: 1
  }
  param {
    lr_mult: 2
    decay_mult: 0
  }
  convolution_param {
    num_output: 96
    kernel_size: 1
    weight_filler {
      type: "xavier"
      std: 0.09
    }
    bias_filler {
      type: "constant"
      value: 0.2
    }
  }
}
layer {
  name: "inception_4a/relu_3x3_reduce"
  type: "ReLU"
  bottom: "inception_4a/3x3_reduce"
  top: "inception_4a/3x3_reduce"
}
layer {
  name: "inception_4a/3x3"
  type: "Convolution"
  bottom: "inception_4a/3x3_reduce"
  top: "inception_4a/3x3"
  param {
    lr_mult: 1
    decay_mult: 1
  }
  param {
    lr_mult: 2
    decay_mult: 0
  }
  convolution_param {
    num_output: 208
    pad: 1
    kernel_size: 3
    weight_filler {
      type: "xavier"
      std: 0.03
    }
    bias_filler {
      type: "constant"
      value: 0.2
    }
  }
}
layer {
  name: "inception_4a/relu_3x3"
  type: "ReLU"
  bottom: "inception_4a/3x3"
  top: "inception_4a/3x3"
}
layer {
  name: "inception_4a/5x5_reduce"
  type: "Convolution"
  bottom: "pool3/3x3_s2"
  top: "inception_4a/5x5_reduce"
  param {
    lr_mult: 1
    decay_mult: 1
  }
  param {
    lr_mult: 2
    decay_mult: 0
  }
  convolution_param {
    num_output: 16
    kernel_size: 1
    weight_filler {
      type: "xavier"
      std: 0.2
    }
    bias_filler {
      type: "constant"
      value: 0.2
    }
  }
}
layer {
  name: "inception_4a/relu_5x5_reduce"
  type: "ReLU"
  bottom: "inception_4a/5x5_reduce"
  top: "inception_4a/5x5_reduce"
}
layer {
  name: "inception_4a/5x5"
  type: "Convolution"
  bottom: "inception_4a/5x5_reduce"
  top: "inception_4a/5x5"
  param {
    lr_mult: 1
    decay_mult: 1
  }
  param {
    lr_mult: 2
    decay_mult: 0
  }
  convolution_param {
    num_output: 48
    pad: 2
    kernel_size: 5
    weight_filler {
      type: "xavier"
      std: 0.03
    }
    bias_filler {
      type: "constant"
      value: 0.2
    }
  }
}
layer {
  name: "inception_4a/relu_5x5"
  type: "ReLU"
  bottom: "inception_4a/5x5"
  top: "inception_4a/5x5"
}
layer {
  name: "inception_4a/pool"
  type: "Pooling"
  bottom: "pool3/3x3_s2"
  top: "inception_4a/pool"
  pooling_param {
    pool: MAX
    kernel_size: 3
    stride: 1
    pad: 1
  }
}
layer {
  name: "inception_4a/pool_proj"
  type: "Convolution"
  bottom: "inception_4a/pool"
  top: "inception_4a/pool_proj"
  param {
    lr_mult: 1
    decay_mult: 1
  }
  param {
    lr_mult: 2
    decay_mult: 0
  }
  convolution_param {
    num_output: 64
    kernel_size: 1
    weight_filler {
      type: "xavier"
      std: 0.1
    }
    bias_filler {
      type: "constant"
      value: 0.2
    }
  }
}
layer {
  name: "inception_4a/relu_pool_proj"
  type: "ReLU"
  bottom: "inception_4a/pool_proj"
  top: "inception_4a/pool_proj"
}
layer {
  name: "inception_4a/output"
  type: "Concat"
  bottom: "inception_4a/1x1"
  bottom: "inception_4a/3x3"
  bottom: "inception_4a/5x5"
  bottom: "inception_4a/pool_proj"
  top: "inception_4a/output"
}
layer {
  name: "loss1/ave_pool"
  type: "Pooling"
  bottom: "inception_4a/output"
  top: "loss1/ave_pool"
  pooling_param {
    pool: AVE
    kernel_size: 5
    stride: 3
  }
}
layer {
  name: "loss1/conv"
  type: "Convolution"
  bottom: "loss1/ave_pool"
  top: "loss1/conv"
  param {
    lr_mult: 1
    decay_mult: 1
  }
  param {
    lr_mult: 2
    decay_mult: 0
  }
  convolution_param {
    num_output: 128
    kernel_size: 1
    weight_filler {
      type: "xavier"
      std: 0.08
    }
    bias_filler {
      type: "constant"
      value: 0.2
    }
  }
}
layer {
  name: "loss1/relu_conv"
  type: "ReLU"
  bottom: "loss1/conv"
  top: "loss1/conv"
}
layer {
  name: "loss1/fc"
  type: "InnerProduct"
  bottom: "loss1/conv"
  top: "loss1/fc"
  param {
    lr_mult: 1
    decay_mult: 1
  }
  param {
    lr_mult: 2
    decay_mult: 0
  }
  inner_product_param {
    num_output: 1024
    weight_filler {
      type: "xavier"
      std: 0.02
    }
    bias_filler {
      type: "constant"
      value: 0.2
    }
  }
}
layer {
  name: "loss1/relu_fc"
  type: "ReLU"
  bottom: "loss1/fc"
  top: "loss1/fc"
}
layer {
  name: "loss1/drop_fc"
  type: "Dropout"
  bottom: "loss1/fc"
  top: "loss1/fc"
  dropout_param {
    dropout_ratio: 0.7
  }
}
layer {
  name: "loss1/classifier_plantvillage"
  type: "InnerProduct"
  bottom: "loss1/fc"
  top: "loss1/classifier_plantvillage"
  param {
    lr_mult: 1
    decay_mult: 1
  }
  param {
    lr_mult: 2
    decay_mult: 0
  }
  inner_product_param {
    num_output: 38
    weight_filler {
      type: "xavier"
      std: 0.0009765625
    }
    bias_filler {
      type: "constant"
      value: 0
    }
  }
}
layer {
  name: "inception_4b/1x1"
  type: "Convolution"
  bottom: "inception_4a/output"
  top: "inception_4b/1x1"
  param {
    lr_mult: 1
    decay_mult: 1
  }
  param {
    lr_mult: 2
    decay_mult: 0
  }
  convolution_param {
    num_output: 160
    kernel_size: 1
    weight_filler {
      type: "xavier"
      std: 0.03
    }
    bias_filler {
      type: "constant"
      value: 0.2
    }
  }
}
layer {
  name: "inception_4b/relu_1x1"
  type: "ReLU"
  bottom: "inception_4b/1x1"
  top: "inception_4b/1x1"
}
layer {
  name: "inception_4b/3x3_reduce"
  type: "Convolution"
  bottom: "inception_4a/output"
  top: "inception_4b/3x3_reduce"
  param {
    lr_mult: 1
    decay_mult: 1
  }
  param {
    lr_mult: 2
    decay_mult: 0
  }
  convolution_param {
    num_output: 112
    kernel_size: 1
    weight_filler {
      type: "xavier"
      std: 0.09
    }
    bias_filler {
      type: "constant"
      value: 0.2
    }
  }
}
layer {
  name: "inception_4b/relu_3x3_reduce"
  type: "ReLU"
  bottom: "inception_4b/3x3_reduce"
  top: "inception_4b/3x3_reduce"
}
layer {
  name: "inception_4b/3x3"
  type: "Convolution"
  bottom: "inception_4b/3x3_reduce"
  top: "inception_4b/3x3"
  param {
    lr_mult: 1
    decay_mult: 1
  }
  param {
    lr_mult: 2
    decay_mult: 0
  }
  convolution_param {
    num_output: 224
    pad: 1
    kernel_size: 3
    weight_filler {
      type: "xavier"
      std: 0.03
    }
    bias_filler {
      type: "constant"
      value: 0.2
    }
  }
}
layer {
  name: "inception_4b/relu_3x3"
  type: "ReLU"
  bottom: "inception_4b/3x3"
  top: "inception_4b/3x3"
}
layer {
  name: "inception_4b/5x5_reduce"
  type: "Convolution"
  bottom: "inception_4a/output"
  top: "inception_4b/5x5_reduce"
  param {
    lr_mult: 1
    decay_mult: 1
  }
  param {
    lr_mult: 2
    decay_mult: 0
  }
  convolution_param {
    num_output: 24
    kernel_size: 1
    weight_filler {
      type: "xavier"
      std: 0.2
    }
    bias_filler {
      type: "constant"
      value: 0.2
    }
  }
}
layer {
  name: "inception_4b/relu_5x5_reduce"
  type: "ReLU"
  bottom: "inception_4b/5x5_reduce"
  top: "inception_4b/5x5_reduce"
}
layer {
  name: "inception_4b/5x5"
  type: "Convolution"
  bottom: "inception_4b/5x5_reduce"
  top: "inception_4b/5x5"
  param {
    lr_mult: 1
    decay_mult: 1
  }
  param {
    lr_mult: 2
    decay_mult: 0
  }
  convolution_param {
    num_output: 64
    pad: 2
    kernel_size: 5
    weight_filler {
      type: "xavier"
      std: 0.03
    }
    bias_filler {
      type: "constant"
      value: 0.2
    }
  }
}
layer {
  name: "inception_4b/relu_5x5"
  type: "ReLU"
  bottom: "inception_4b/5x5"
  top: "inception_4b/5x5"
}
layer {
  name: "inception_4b/pool"
  type: "Pooling"
  bottom: "inception_4a/output"
  top: "inception_4b/pool"
  pooling_param {
    pool: MAX
    kernel_size: 3
    stride: 1
    pad: 1
  }
}
layer {
  name: "inception_4b/pool_proj"
  type: "Convolution"
  bottom: "inception_4b/pool"
  top: "inception_4b/pool_proj"
  param {
    lr_mult: 1
    decay_mult: 1
  }
  param {
    lr_mult: 2
    decay_mult: 0
  }
  convolution_param {
    num_output: 64
    kernel_size: 1
    weight_filler {
      type: "xavier"
      std: 0.1
    }
    bias_filler {
      type: "constant"
      value: 0.2
    }
  }
}
layer {
  name: "inception_4b/relu_pool_proj"
  type: "ReLU"
  bottom: "inception_4b/pool_proj"
  top: "inception_4b/pool_proj"
}
layer {
  name: "inception_4b/output"
  type: "Concat"
  bottom: "inception_4b/1x1"
  bottom: "inception_4b/3x3"
  bottom: "inception_4b/5x5"
  bottom: "inception_4b/pool_proj"
  top: "inception_4b/output"
}
layer {
  name: "inception_4c/1x1"
  type: "Convolution"
  bottom: "inception_4b/output"
  top: "inception_4c/1x1"
  param {
    lr_mult: 1
    decay_mult: 1
  }
  param {
    lr_mult: 2
    decay_mult: 0
  }
  convolution_param {
    num_output: 128
    kernel_size: 1
    weight_filler {
      type: "xavier"
      std: 0.03
    }
    bias_filler {
      type: "constant"
      value: 0.2
    }
  }
}
layer {
  name: "inception_4c/relu_1x1"
  type: "ReLU"
  bottom: "inception_4c/1x1"
  top: "inception_4c/1x1"
}
layer {
  name: "inception_4c/3x3_reduce"
  type: "Convolution"
  bottom: "inception_4b/output"
  top: "inception_4c/3x3_reduce"
  param {
    lr_mult: 1
    decay_mult: 1
  }
  param {
    lr_mult: 2
    decay_mult: 0
  }
  convolution_param {
    num_output: 128
    kernel_size: 1
    weight_filler {
      type: "xavier"
      std: 0.09
    }
    bias_filler {
      type: "constant"
      value: 0.2
    }
  }
}
layer {
  name: "inception_4c/relu_3x3_reduce"
  type: "ReLU"
  bottom: "inception_4c/3x3_reduce"
  top: "inception_4c/3x3_reduce"
}
layer {
  name: "inception_4c/3x3"
  type: "Convolution"
  bottom: "inception_4c/3x3_reduce"
  top: "inception_4c/3x3"
  param {
    lr_mult: 1
    decay_mult: 1
  }
  param {
    lr_mult: 2
    decay_mult: 0
  }
  convolution_param {
    num_output: 256
    pad: 1
    kernel_size: 3
    weight_filler {
      type: "xavier"
      std: 0.03
    }
    bias_filler {
      type: "constant"
      value: 0.2
    }
  }
}
layer {
  name: "inception_4c/relu_3x3"
  type: "ReLU"
  bottom: "inception_4c/3x3"
  top: "inception_4c/3x3"
}
layer {
  name: "inception_4c/5x5_reduce"
  type: "Convolution"
  bottom: "inception_4b/output"
  top: "inception_4c/5x5_reduce"
  param {
    lr_mult: 1
    decay_mult: 1
  }
  param {
    lr_mult: 2
    decay_mult: 0
  }
  convolution_param {
    num_output: 24
    kernel_size: 1
    weight_filler {
      type: "xavier"
      std: 0.2
    }
    bias_filler {
      type: "constant"
      value: 0.2
    }
  }
}
layer {
  name: "inception_4c/relu_5x5_reduce"
  type: "ReLU"
  bottom: "inception_4c/5x5_reduce"
  top: "inception_4c/5x5_reduce"
}
layer {
  name: "inception_4c/5x5"
  type: "Convolution"
  bottom: "inception_4c/5x5_reduce"
  top: "inception_4c/5x5"
  param {
    lr_mult: 1
    decay_mult: 1
  }
  param {
    lr_mult: 2
    decay_mult: 0
  }
  convolution_param {
    num_output: 64
    pad: 2
    kernel_size: 5
    weight_filler {
      type: "xavier"
      std: 0.03
    }
    bias_filler {
      type: "constant"
      value: 0.2
    }
  }
}
layer {
  name: "inception_4c/relu_5x5"
  type: "ReLU"
  bottom: "inception_4c/5x5"
  top: "inception_4c/5x5"
}
layer {
  name: "inception_4c/pool"
  type: "Pooling"
  bottom: "inception_4b/output"
  top: "inception_4c/pool"
  pooling_param {
    pool: MAX
    kernel_size: 3
    stride: 1
    pad: 1
  }
}
layer {
  name: "inception_4c/pool_proj"
  type: "Convolution"
  bottom: "inception_4c/pool"
  top: "inception_4c/pool_proj"
  param {
    lr_mult: 1
    decay_mult: 1
  }
  param {
    lr_mult: 2
    decay_mult: 0
  }
  convolution_param {
    num_output: 64
    kernel_size: 1
    weight_filler {
      type: "xavier"
      std: 0.1
    }
    bias_filler {
      type: "constant"
      value: 0.2
    }
  }
}
layer {
  name: "inception_4c/relu_pool_proj"
  type: "ReLU"
  bottom: "inception_4c/pool_proj"
  top: "inception_4c/pool_proj"
}
layer {
  name: "inception_4c/output"
  type: "Concat"
  bottom: "inception_4c/1x1"
  bottom: "inception_4c/3x3"
  bottom: "inception_4c/5x5"
  bottom: "inception_4c/pool_proj"
  top: "inception_4c/output"
}
layer {
  name: "inception_4d/1x1"
  type: "Convolution"
  bottom: "inception_4c/output"
  top: "inception_4d/1x1"
  param {
    lr_mult: 1
    decay_mult: 1
  }
  param {
    lr_mult: 2
    decay_mult: 0
  }
  convolution_param {
    num_output: 112
    kernel_size: 1
    weight_filler {
      type: "xavier"
      std: 0.03
    }
    bias_filler {
      type: "constant"
      value: 0.2
    }
  }
}
layer {
  name: "inception_4d/relu_1x1"
  type: "ReLU"
  bottom: "inception_4d/1x1"
  top: "inception_4d/1x1"
}
layer {
  name: "inception_4d/3x3_reduce"
  type: "Convolution"
  bottom: "inception_4c/output"
  top: "inception_4d/3x3_reduce"
  param {
    lr_mult: 1
    decay_mult: 1
  }
  param {
    lr_mult: 2
    decay_mult: 0
  }
  convolution_param {
    num_output: 144
    kernel_size: 1
    weight_filler {
      type: "xavier"
      std: 0.09
    }
    bias_filler {
      type: "constant"
      value: 0.2
    }
  }
}
layer {
  name: "inception_4d/relu_3x3_reduce"
  type: "ReLU"
  bottom: "inception_4d/3x3_reduce"
  top: "inception_4d/3x3_reduce"
}
layer {
  name: "inception_4d/3x3"
  type: "Convolution"
  bottom: "inception_4d/3x3_reduce"
  top: "inception_4d/3x3"
  param {
    lr_mult: 1
    decay_mult: 1
  }
  param {
    lr_mult: 2
    decay_mult: 0
  }
  convolution_param {
    num_output: 288
    pad: 1
    kernel_size: 3
    weight_filler {
      type: "xavier"
      std: 0.03
    }
    bias_filler {
      type: "constant"
      value: 0.2
    }
  }
}
layer {
  name: "inception_4d/relu_3x3"
  type: "ReLU"
  bottom: "inception_4d/3x3"
  top: "inception_4d/3x3"
}
layer {
  name: "inception_4d/5x5_reduce"
  type: "Convolution"
  bottom: "inception_4c/output"
  top: "inception_4d/5x5_reduce"
  param {
    lr_mult: 1
    decay_mult: 1
  }
  param {
    lr_mult: 2
    decay_mult: 0
  }
  convolution_param {
    num_output: 32
    kernel_size: 1
    weight_filler {
      type: "xavier"
      std: 0.2
    }
    bias_filler {
      type: "constant"
      value: 0.2
    }
  }
}
layer {
  name: "inception_4d/relu_5x5_reduce"
  type: "ReLU"
  bottom: "inception_4d/5x5_reduce"
  top: "inception_4d/5x5_reduce"
}
layer {
  name: "inception_4d/5x5"
  type: "Convolution"
  bottom: "inception_4d/5x5_reduce"
  top: "inception_4d/5x5"
  param {
    lr_mult: 1
    decay_mult: 1
  }
  param {
    lr_mult: 2
    decay_mult: 0
  }
  convolution_param {
    num_output: 64
    pad: 2
    kernel_size: 5
    weight_filler {
      type: "xavier"
      std: 0.03
    }
    bias_filler {
      type: "constant"
      value: 0.2
    }
  }
}
layer {
  name: "inception_4d/relu_5x5"
  type: "ReLU"
  bottom: "inception_4d/5x5"
  top: "inception_4d/5x5"
}
layer {
  name: "inception_4d/pool"
  type: "Pooling"
  bottom: "inception_4c/output"
  top: "inception_4d/pool"
  pooling_param {
    pool: MAX
    kernel_size: 3
    stride: 1
    pad: 1
  }
}
layer {
  name: "inception_4d/pool_proj"
  type: "Convolution"
  bottom: "inception_4d/pool"
  top: "inception_4d/pool_proj"
  param {
    lr_mult: 1
    decay_mult: 1
  }
  param {
    lr_mult: 2
    decay_mult: 0
  }
  convolution_param {
    num_output: 64
    kernel_size: 1
    weight_filler {
      type: "xavier"
      std: 0.1
    }
    bias_filler {
      type: "constant"
      value: 0.2
    }
  }
}
layer {
  name: "inception_4d/relu_pool_proj"
  type: "ReLU"
  bottom: "inception_4d/pool_proj"
  top: "inception_4d/pool_proj"
}
layer {
  name: "inception_4d/output"
  type: "Concat"
  bottom: "inception_4d/1x1"
  bottom: "inception_4d/3x3"
  bottom: "inception_4d/5x5"
  bottom: "inception_4d/pool_proj"
  top: "inception_4d/output"
}
layer {
  name: "loss2/ave_pool"
  type: "Pooling"
  bottom: "inception_4d/output"
  top: "loss2/ave_pool"
  pooling_param {
    pool: AVE
    kernel_size: 5
    stride: 3
  }
}
layer {
  name: "loss2/conv"
  type: "Convolution"
  bottom: "loss2/ave_pool"
  top: "loss2/conv"
  param {
    lr_mult: 1
    decay_mult: 1
  }
  param {
    lr_mult: 2
    decay_mult: 0
  }
  convolution_param {
    num_output: 128
    kernel_size: 1
    weight_filler {
      type: "xavier"
      std: 0.08
    }
    bias_filler {
      type: "constant"
      value: 0.2
    }
  }
}
layer {
  name: "loss2/relu_conv"
  type: "ReLU"
  bottom: "loss2/conv"
  top: "loss2/conv"
}
layer {
  name: "loss2/fc"
  type: "InnerProduct"
  bottom: "loss2/conv"
  top: "loss2/fc"
  param {
    lr_mult: 1
    decay_mult: 1
  }
  param {
    lr_mult: 2
    decay_mult: 0
  }
  inner_product_param {
    num_output: 1024
    weight_filler {
      type: "xavier"
      std: 0.02
    }
    bias_filler {
      type: "constant"
      value: 0.2
    }
  }
}
layer {
  name: "loss2/relu_fc"
  type: "ReLU"
  bottom: "loss2/fc"
  top: "loss2/fc"
}
layer {
  name: "loss2/drop_fc"
  type: "Dropout"
  bottom: "loss2/fc"
  top: "loss2/fc"
  dropout_param {
    dropout_ratio: 0.7
  }
}
layer {
  name: "loss2/classifier_plantvillage"
  type: "InnerProduct"
  bottom: "loss2/fc"
  top: "loss2/classifier_plantvillage"
  param {
    lr_mult: 1
    decay_mult: 1
  }
  param {
    lr_mult: 2
    decay_mult: 0
  }
  inner_product_param {
    num_output: 38
    weight_filler {
      type: "xavier"
      std: 0.0009765625
    }
    bias_filler {
      type: "constant"
      value: 0
    }
  }
}
layer {
  name: "inception_4e/1x1"
  type: "Convolution"
  bottom: "inception_4d/output"
  top: "inception_4e/1x1"
  param {
    lr_mult: 1
    decay_mult: 1
  }
  param {
    lr_mult: 2
    decay_mult: 0
  }
  convolution_param {
    num_output: 256
    kernel_size: 1
    weight_filler {
      type: "xavier"
      std: 0.03
    }
    bias_filler {
      type: "constant"
      value: 0.2
    }
  }
}
layer {
  name: "inception_4e/relu_1x1"
  type: "ReLU"
  bottom: "inception_4e/1x1"
  top: "inception_4e/1x1"
}
layer {
  name: "inception_4e/3x3_reduce"
  type: "Convolution"
  bottom: "inception_4d/output"
  top: "inception_4e/3x3_reduce"
  param {
    lr_mult: 1
    decay_mult: 1
  }
  param {
    lr_mult: 2
    decay_mult: 0
  }
  convolution_param {
    num_output: 160
    kernel_size: 1
    weight_filler {
      type: "xavier"
      std: 0.09
    }
    bias_filler {
      type: "constant"
      value: 0.2
    }
  }
}
layer {
  name: "inception_4e/relu_3x3_reduce"
  type: "ReLU"
  bottom: "inception_4e/3x3_reduce"
  top: "inception_4e/3x3_reduce"
}
layer {
  name: "inception_4e/3x3"
  type: "Convolution"
  bottom: "inception_4e/3x3_reduce"
  top: "inception_4e/3x3"
  param {
    lr_mult: 1
    decay_mult: 1
  }
  param {
    lr_mult: 2
    decay_mult: 0
  }
  convolution_param {
    num_output: 320
    pad: 1
    kernel_size: 3
    weight_filler {
      type: "xavier"
      std: 0.03
    }
    bias_filler {
      type: "constant"
      value: 0.2
    }
  }
}
layer {
  name: "inception_4e/relu_3x3"
  type: "ReLU"
  bottom: "inception_4e/3x3"
  top: "inception_4e/3x3"
}
layer {
  name: "inception_4e/5x5_reduce"
  type: "Convolution"
  bottom: "inception_4d/output"
  top: "inception_4e/5x5_reduce"
  param {
    lr_mult: 1
    decay_mult: 1
  }
  param {
    lr_mult: 2
    decay_mult: 0
  }
  convolution_param {
    num_output: 32
    kernel_size: 1
    weight_filler {
      type: "xavier"
      std: 0.2
    }
    bias_filler {
      type: "constant"
      value: 0.2
    }
  }
}
layer {
  name: "inception_4e/relu_5x5_reduce"
  type: "ReLU"
  bottom: "inception_4e/5x5_reduce"
  top: "inception_4e/5x5_reduce"
}
layer {
  name: "inception_4e/5x5"
  type: "Convolution"
  bottom: "inception_4e/5x5_reduce"
  top: "inception_4e/
I0403 18:41:06.353622  7264 layer_factory.hpp:77] Creating layer data
I0403 18:41:06.354281  7264 net.cpp:91] Creating Layer data
I0403 18:41:06.354315  7264 net.cpp:399] data -> data
I0403 18:41:06.354369  7264 net.cpp:399] data -> label
I0403 18:41:06.354406  7264 data_transformer.cpp:25] Loading mean file from: /home/mohanty/data/final_dataset/lmdb/grayscale-40-60/mean.binaryproto
I0403 18:41:06.355541  7267 db_lmdb.cpp:38] Opened lmdb /home/mohanty/data/final_dataset/lmdb/grayscale-40-60/test_db
I0403 18:41:06.368589  7264 data_layer.cpp:41] output data size: 24,3,224,224
I0403 18:41:06.397080  7264 net.cpp:141] Setting up data
I0403 18:41:06.397173  7264 net.cpp:148] Top shape: 24 3 224 224 (3612672)
I0403 18:41:06.397198  7264 net.cpp:148] Top shape: 24 (24)
I0403 18:41:06.397217  7264 net.cpp:156] Memory required for data: 14450784
I0403 18:41:06.397248  7264 layer_factory.hpp:77] Creating layer label_data_1_split
I0403 18:41:06.397279  7264 net.cpp:91] Creating Layer label_data_1_split
I0403 18:41:06.397297  7264 net.cpp:425] label_data_1_split <- label
I0403 18:41:06.397331  7264 net.cpp:399] label_data_1_split -> label_data_1_split_0
I0403 18:41:06.397361  7264 net.cpp:399] label_data_1_split -> label_data_1_split_1
I0403 18:41:06.397383  7264 net.cpp:399] label_data_1_split -> label_data_1_split_2
I0403 18:41:06.397406  7264 net.cpp:399] label_data_1_split -> label_data_1_split_3
I0403 18:41:06.397428  7264 net.cpp:399] label_data_1_split -> label_data_1_split_4
I0403 18:41:06.397449  7264 net.cpp:399] label_data_1_split -> label_data_1_split_5
I0403 18:41:06.397469  7264 net.cpp:399] label_data_1_split -> label_data_1_split_6
I0403 18:41:06.397491  7264 net.cpp:399] label_data_1_split -> label_data_1_split_7
I0403 18:41:06.397512  7264 net.cpp:399] label_data_1_split -> label_data_1_split_8
I0403 18:41:06.397533  7264 net.cpp:399] label_data_1_split -> label_data_1_split_9
I0403 18:41:06.397655  7264 net.cpp:141] Setting up label_data_1_split
I0403 18:41:06.397678  7264 net.cpp:148] Top shape: 24 (24)
I0403 18:41:06.397696  7264 net.cpp:148] Top shape: 24 (24)
I0403 18:41:06.397712  7264 net.cpp:148] Top shape: 24 (24)
I0403 18:41:06.397729  7264 net.cpp:148] Top shape: 24 (24)
I0403 18:41:06.397745  7264 net.cpp:148] Top shape: 24 (24)
I0403 18:41:06.397763  7264 net.cpp:148] Top shape: 24 (24)
I0403 18:41:06.397778  7264 net.cpp:148] Top shape: 24 (24)
I0403 18:41:06.397795  7264 net.cpp:148] Top shape: 24 (24)
I0403 18:41:06.397812  7264 net.cpp:148] Top shape: 24 (24)
I0403 18:41:06.397830  7264 net.cpp:148] Top shape: 24 (24)
I0403 18:41:06.397879  7264 net.cpp:156] Memory required for data: 14451744
I0403 18:41:06.397897  7264 layer_factory.hpp:77] Creating layer conv1/7x7_s2
I0403 18:41:06.397929  7264 net.cpp:91] Creating Layer conv1/7x7_s2
I0403 18:41:06.397950  7264 net.cpp:425] conv1/7x7_s2 <- data
I0403 18:41:06.397974  7264 net.cpp:399] conv1/7x7_s2 -> conv1/7x7_s2
I0403 18:41:06.543247  7264 net.cpp:141] Setting up conv1/7x7_s2
I0403 18:41:06.543356  7264 net.cpp:148] Top shape: 24 64 112 112 (19267584)
I0403 18:41:06.543377  7264 net.cpp:156] Memory required for data: 91522080
I0403 18:41:06.543412  7264 layer_factory.hpp:77] Creating layer conv1/relu_7x7
I0403 18:41:06.543443  7264 net.cpp:91] Creating Layer conv1/relu_7x7
I0403 18:41:06.543463  7264 net.cpp:425] conv1/relu_7x7 <- conv1/7x7_s2
I0403 18:41:06.543484  7264 net.cpp:386] conv1/relu_7x7 -> conv1/7x7_s2 (in-place)
I0403 18:41:06.543754  7264 net.cpp:141] Setting up conv1/relu_7x7
I0403 18:41:06.543786  7264 net.cpp:148] Top shape: 24 64 112 112 (19267584)
I0403 18:41:06.543803  7264 net.cpp:156] Memory required for data: 168592416
I0403 18:41:06.543823  7264 layer_factory.hpp:77] Creating layer pool1/3x3_s2
I0403 18:41:06.543849  7264 net.cpp:91] Creating Layer pool1/3x3_s2
I0403 18:41:06.543872  7264 net.cpp:425] pool1/3x3_s2 <- conv1/7x7_s2
I0403 18:41:06.543892  7264 net.cpp:399] pool1/3x3_s2 -> pool1/3x3_s2
I0403 18:41:06.543969  7264 net.cpp:141] Setting up pool1/3x3_s2
I0403 18:41:06.543995  7264 net.cpp:148] Top shape: 24 64 56 56 (4816896)
I0403 18:41:06.544011  7264 net.cpp:156] Memory required for data: 187860000
I0403 18:41:06.544028  7264 layer_factory.hpp:77] Creating layer pool1/norm1
I0403 18:41:06.544054  7264 net.cpp:91] Creating Layer pool1/norm1
I0403 18:41:06.544072  7264 net.cpp:425] pool1/norm1 <- pool1/3x3_s2
I0403 18:41:06.544091  7264 net.cpp:399] pool1/norm1 -> pool1/norm1
I0403 18:41:06.544394  7264 net.cpp:141] Setting up pool1/norm1
I0403 18:41:06.544422  7264 net.cpp:148] Top shape: 24 64 56 56 (4816896)
I0403 18:41:06.544438  7264 net.cpp:156] Memory required for data: 207127584
I0403 18:41:06.544456  7264 layer_factory.hpp:77] Creating layer conv2/3x3_reduce
I0403 18:41:06.544483  7264 net.cpp:91] Creating Layer conv2/3x3_reduce
I0403 18:41:06.544502  7264 net.cpp:425] conv2/3x3_reduce <- pool1/norm1
I0403 18:41:06.544523  7264 net.cpp:399] conv2/3x3_reduce -> conv2/3x3_reduce
I0403 18:41:06.545956  7264 net.cpp:141] Setting up conv2/3x3_reduce
I0403 18:41:06.545989  7264 net.cpp:148] Top shape: 24 64 56 56 (4816896)
I0403 18:41:06.546007  7264 net.cpp:156] Memory required for data: 226395168
I0403 18:41:06.546030  7264 layer_factory.hpp:77] Creating layer conv2/relu_3x3_reduce
I0403 18:41:06.546052  7264 net.cpp:91] Creating Layer conv2/relu_3x3_reduce
I0403 18:41:06.546072  7264 net.cpp:425] conv2/relu_3x3_reduce <- conv2/3x3_reduce
I0403 18:41:06.546090  7264 net.cpp:386] conv2/relu_3x3_reduce -> conv2/3x3_reduce (in-place)
I0403 18:41:06.546360  7264 net.cpp:141] Setting up conv2/relu_3x3_reduce
I0403 18:41:06.546391  7264 net.cpp:148] Top shape: 24 64 56 56 (4816896)
I0403 18:41:06.546406  7264 net.cpp:156] Memory required for data: 245662752
I0403 18:41:06.546424  7264 layer_factory.hpp:77] Creating layer conv2/3x3
I0403 18:41:06.546449  7264 net.cpp:91] Creating Layer conv2/3x3
I0403 18:41:06.546468  7264 net.cpp:425] conv2/3x3 <- conv2/3x3_reduce
I0403 18:41:06.546489  7264 net.cpp:399] conv2/3x3 -> conv2/3x3
I0403 18:41:06.548840  7264 net.cpp:141] Setting up conv2/3x3
I0403 18:41:06.548874  7264 net.cpp:148] Top shape: 24 192 56 56 (14450688)
I0403 18:41:06.548893  7264 net.cpp:156] Memory required for data: 303465504
I0403 18:41:06.548915  7264 layer_factory.hpp:77] Creating layer conv2/relu_3x3
I0403 18:41:06.548938  7264 net.cpp:91] Creating Layer conv2/relu_3x3
I0403 18:41:06.548956  7264 net.cpp:425] conv2/relu_3x3 <- conv2/3x3
I0403 18:41:06.548976  7264 net.cpp:386] conv2/relu_3x3 -> conv2/3x3 (in-place)
I0403 18:41:06.549142  7264 net.cpp:141] Setting up conv2/relu_3x3
I0403 18:41:06.549170  7264 net.cpp:148] Top shape: 24 192 56 56 (14450688)
I0403 18:41:06.549226  7264 net.cpp:156] Memory required for data: 361268256
I0403 18:41:06.549247  7264 layer_factory.hpp:77] Creating layer conv2/norm2
I0403 18:41:06.549271  7264 net.cpp:91] Creating Layer conv2/norm2
I0403 18:41:06.549290  7264 net.cpp:425] conv2/norm2 <- conv2/3x3
I0403 18:41:06.549311  7264 net.cpp:399] conv2/norm2 -> conv2/norm2
I0403 18:41:06.549607  7264 net.cpp:141] Setting up conv2/norm2
I0403 18:41:06.549634  7264 net.cpp:148] Top shape: 24 192 56 56 (14450688)
I0403 18:41:06.549650  7264 net.cpp:156] Memory required for data: 419071008
I0403 18:41:06.549667  7264 layer_factory.hpp:77] Creating layer pool2/3x3_s2
I0403 18:41:06.549686  7264 net.cpp:91] Creating Layer pool2/3x3_s2
I0403 18:41:06.549705  7264 net.cpp:425] pool2/3x3_s2 <- conv2/norm2
I0403 18:41:06.549723  7264 net.cpp:399] pool2/3x3_s2 -> pool2/3x3_s2
I0403 18:41:06.549777  7264 net.cpp:141] Setting up pool2/3x3_s2
I0403 18:41:06.549801  7264 net.cpp:148] Top shape: 24 192 28 28 (3612672)
I0403 18:41:06.549816  7264 net.cpp:156] Memory required for data: 433521696
I0403 18:41:06.549834  7264 layer_factory.hpp:77] Creating layer pool2/3x3_s2_pool2/3x3_s2_0_split
I0403 18:41:06.549854  7264 net.cpp:91] Creating Layer pool2/3x3_s2_pool2/3x3_s2_0_split
I0403 18:41:06.549870  7264 net.cpp:425] pool2/3x3_s2_pool2/3x3_s2_0_split <- pool2/3x3_s2
I0403 18:41:06.549888  7264 net.cpp:399] pool2/3x3_s2_pool2/3x3_s2_0_split -> pool2/3x3_s2_pool2/3x3_s2_0_split_0
I0403 18:41:06.549909  7264 net.cpp:399] pool2/3x3_s2_pool2/3x3_s2_0_split -> pool2/3x3_s2_pool2/3x3_s2_0_split_1
I0403 18:41:06.549931  7264 net.cpp:399] pool2/3x3_s2_pool2/3x3_s2_0_split -> pool2/3x3_s2_pool2/3x3_s2_0_split_2
I0403 18:41:06.549952  7264 net.cpp:399] pool2/3x3_s2_pool2/3x3_s2_0_split -> pool2/3x3_s2_pool2/3x3_s2_0_split_3
I0403 18:41:06.550024  7264 net.cpp:141] Setting up pool2/3x3_s2_pool2/3x3_s2_0_split
I0403 18:41:06.550047  7264 net.cpp:148] Top shape: 24 192 28 28 (3612672)
I0403 18:41:06.550065  7264 net.cpp:148] Top shape: 24 192 28 28 (3612672)
I0403 18:41:06.550082  7264 net.cpp:148] Top shape: 24 192 28 28 (3612672)
I0403 18:41:06.550101  7264 net.cpp:148] Top shape: 24 192 28 28 (3612672)
I0403 18:41:06.550115  7264 net.cpp:156] Memory required for data: 491324448
I0403 18:41:06.550132  7264 layer_factory.hpp:77] Creating layer inception_3a/1x1
I0403 18:41:06.550154  7264 net.cpp:91] Creating Layer inception_3a/1x1
I0403 18:41:06.550173  7264 net.cpp:425] inception_3a/1x1 <- pool2/3x3_s2_pool2/3x3_s2_0_split_0
I0403 18:41:06.550191  7264 net.cpp:399] inception_3a/1x1 -> inception_3a/1x1
I0403 18:41:06.551825  7264 net.cpp:141] Setting up inception_3a/1x1
I0403 18:41:06.551857  7264 net.cpp:148] Top shape: 24 64 28 28 (1204224)
I0403 18:41:06.551874  7264 net.cpp:156] Memory required for data: 496141344
I0403 18:41:06.551895  7264 layer_factory.hpp:77] Creating layer inception_3a/relu_1x1
I0403 18:41:06.551915  7264 net.cpp:91] Creating Layer inception_3a/relu_1x1
I0403 18:41:06.551933  7264 net.cpp:425] inception_3a/relu_1x1 <- inception_3a/1x1
I0403 18:41:06.551954  7264 net.cpp:386] inception_3a/relu_1x1 -> inception_3a/1x1 (in-place)
I0403 18:41:06.552134  7264 net.cpp:141] Setting up inception_3a/relu_1x1
I0403 18:41:06.552161  7264 net.cpp:148] Top shape: 24 64 28 28 (1204224)
I0403 18:41:06.552177  7264 net.cpp:156] Memory required for data: 500958240
I0403 18:41:06.552194  7264 layer_factory.hpp:77] Creating layer inception_3a/3x3_reduce
I0403 18:41:06.552218  7264 net.cpp:91] Creating Layer inception_3a/3x3_reduce
I0403 18:41:06.552237  7264 net.cpp:425] inception_3a/3x3_reduce <- pool2/3x3_s2_pool2/3x3_s2_0_split_1
I0403 18:41:06.552273  7264 net.cpp:399] inception_3a/3x3_reduce -> inception_3a/3x3_reduce
I0403 18:41:06.554064  7264 net.cpp:141] Setting up inception_3a/3x3_reduce
I0403 18:41:06.554096  7264 net.cpp:148] Top shape: 24 96 28 28 (1806336)
I0403 18:41:06.554116  7264 net.cpp:156] Memory required for data: 508183584
I0403 18:41:06.554139  7264 layer_factory.hpp:77] Creating layer inception_3a/relu_3x3_reduce
I0403 18:41:06.554180  7264 net.cpp:91] Creating Layer inception_3a/relu_3x3_reduce
I0403 18:41:06.554201  7264 net.cpp:425] inception_3a/relu_3x3_reduce <- inception_3a/3x3_reduce
I0403 18:41:06.554222  7264 net.cpp:386] inception_3a/relu_3x3_reduce -> inception_3a/3x3_reduce (in-place)
I0403 18:41:06.554416  7264 net.cpp:141] Setting up inception_3a/relu_3x3_reduce
I0403 18:41:06.554448  7264 net.cpp:148] Top shape: 24 96 28 28 (1806336)
I0403 18:41:06.554466  7264 net.cpp:156] Memory required for data: 515408928
I0403 18:41:06.554484  7264 layer_factory.hpp:77] Creating layer inception_3a/3x3
I0403 18:41:06.554509  7264 net.cpp:91] Creating Layer inception_3a/3x3
I0403 18:41:06.554529  7264 net.cpp:425] inception_3a/3x3 <- inception_3a/3x3_reduce
I0403 18:41:06.554551  7264 net.cpp:399] inception_3a/3x3 -> inception_3a/3x3
I0403 18:41:06.556285  7264 net.cpp:141] Setting up inception_3a/3x3
I0403 18:41:06.556318  7264 net.cpp:148] Top shape: 24 128 28 28 (2408448)
I0403 18:41:06.556335  7264 net.cpp:156] Memory required for data: 525042720
I0403 18:41:06.556356  7264 layer_factory.hpp:77] Creating layer inception_3a/relu_3x3
I0403 18:41:06.556380  7264 net.cpp:91] Creating Layer inception_3a/relu_3x3
I0403 18:41:06.556398  7264 net.cpp:425] inception_3a/relu_3x3 <- inception_3a/3x3
I0403 18:41:06.556417  7264 net.cpp:386] inception_3a/relu_3x3 -> inception_3a/3x3 (in-place)
I0403 18:41:06.556706  7264 net.cpp:141] Setting up inception_3a/relu_3x3
I0403 18:41:06.556735  7264 net.cpp:148] Top shape: 24 128 28 28 (2408448)
I0403 18:41:06.556749  7264 net.cpp:156] Memory required for data: 534676512
I0403 18:41:06.556766  7264 layer_factory.hpp:77] Creating layer inception_3a/5x5_reduce
I0403 18:41:06.556790  7264 net.cpp:91] Creating Layer inception_3a/5x5_reduce
I0403 18:41:06.556809  7264 net.cpp:425] inception_3a/5x5_reduce <- pool2/3x3_s2_pool2/3x3_s2_0_split_2
I0403 18:41:06.556833  7264 net.cpp:399] inception_3a/5x5_reduce -> inception_3a/5x5_reduce
I0403 18:41:06.557842  7264 net.cpp:141] Setting up inception_3a/5x5_reduce
I0403 18:41:06.557873  7264 net.cpp:148] Top shape: 24 16 28 28 (301056)
I0403 18:41:06.557890  7264 net.cpp:156] Memory required for data: 535880736
I0403 18:41:06.557910  7264 layer_factory.hpp:77] Creating layer inception_3a/relu_5x5_reduce
I0403 18:41:06.557934  7264 net.cpp:91] Creating Layer inception_3a/relu_5x5_reduce
I0403 18:41:06.557951  7264 net.cpp:425] inception_3a/relu_5x5_reduce <- inception_3a/5x5_reduce
I0403 18:41:06.557971  7264 net.cpp:386] inception_3a/relu_5x5_reduce -> inception_3a/5x5_reduce (in-place)
I0403 18:41:06.558269  7264 net.cpp:141] Setting up inception_3a/relu_5x5_reduce
I0403 18:41:06.558301  7264 net.cpp:148] Top shape: 24 16 28 28 (301056)
I0403 18:41:06.558320  7264 net.cpp:156] Memory required for data: 537084960
I0403 18:41:06.558336  7264 layer_factory.hpp:77] Creating layer inception_3a/5x5
I0403 18:41:06.558360  7264 net.cpp:91] Creating Layer inception_3a/5x5
I0403 18:41:06.558382  7264 net.cpp:425] inception_3a/5x5 <- inception_3a/5x5_reduce
I0403 18:41:06.558401  7264 net.cpp:399] inception_3a/5x5 -> inception_3a/5x5
I0403 18:41:06.559474  7264 net.cpp:141] Setting up inception_3a/5x5
I0403 18:41:06.559506  7264 net.cpp:148] Top shape: 24 32 28 28 (602112)
I0403 18:41:06.559525  7264 net.cpp:156] Memory required for data: 539493408
I0403 18:41:06.559545  7264 layer_factory.hpp:77] Creating layer inception_3a/relu_5x5
I0403 18:41:06.559567  7264 net.cpp:91] Creating Layer inception_3a/relu_5x5
I0403 18:41:06.559597  7264 net.cpp:425] inception_3a/relu_5x5 <- inception_3a/5x5
I0403 18:41:06.559617  7264 net.cpp:386] inception_3a/relu_5x5 -> inception_3a/5x5 (in-place)
I0403 18:41:06.559798  7264 net.cpp:141] Setting up inception_3a/relu_5x5
I0403 18:41:06.559823  7264 net.cpp:148] Top shape: 24 32 28 28 (602112)
I0403 18:41:06.559841  7264 net.cpp:156] Memory required for data: 541901856
I0403 18:41:06.559859  7264 layer_factory.hpp:77] Creating layer inception_3a/pool
I0403 18:41:06.559877  7264 net.cpp:91] Creating Layer inception_3a/pool
I0403 18:41:06.559908  7264 net.cpp:425] inception_3a/pool <- pool2/3x3_s2_pool2/3x3_s2_0_split_3
I0403 18:41:06.559927  7264 net.cpp:399] inception_3a/pool -> inception_3a/pool
I0403 18:41:06.559988  7264 net.cpp:141] Setting up inception_3a/pool
I0403 18:41:06.560012  7264 net.cpp:148] Top shape: 24 192 28 28 (3612672)
I0403 18:41:06.560029  7264 net.cpp:156] Memory required for data: 556352544
I0403 18:41:06.560045  7264 layer_factory.hpp:77] Creating layer inception_3a/pool_proj
I0403 18:41:06.560067  7264 net.cpp:91] Creating Layer inception_3a/pool_proj
I0403 18:41:06.560086  7264 net.cpp:425] inception_3a/pool_proj <- inception_3a/pool
I0403 18:41:06.560108  7264 net.cpp:399] inception_3a/pool_proj -> inception_3a/pool_proj
I0403 18:41:06.561100  7264 net.cpp:141] Setting up inception_3a/pool_proj
I0403 18:41:06.561131  7264 net.cpp:148] Top shape: 24 32 28 28 (602112)
I0403 18:41:06.561148  7264 net.cpp:156] Memory required for data: 558760992
I0403 18:41:06.561172  7264 layer_factory.hpp:77] Creating layer inception_3a/relu_pool_proj
I0403 18:41:06.561195  7264 net.cpp:91] Creating Layer inception_3a/relu_pool_proj
I0403 18:41:06.561214  7264 net.cpp:425] inception_3a/relu_pool_proj <- inception_3a/pool_proj
I0403 18:41:06.561234  7264 net.cpp:386] inception_3a/relu_pool_proj -> inception_3a/pool_proj (in-place)
I0403 18:41:06.561522  7264 net.cpp:141] Setting up inception_3a/relu_pool_proj
I0403 18:41:06.561552  7264 net.cpp:148] Top shape: 24 32 28 28 (602112)
I0403 18:41:06.561568  7264 net.cpp:156] Memory required for data: 561169440
I0403 18:41:06.561586  7264 layer_factory.hpp:77] Creating layer inception_3a/output
I0403 18:41:06.561605  7264 net.cpp:91] Creating Layer inception_3a/output
I0403 18:41:06.561622  7264 net.cpp:425] inception_3a/output <- inception_3a/1x1
I0403 18:41:06.561641  7264 net.cpp:425] inception_3a/output <- inception_3a/3x3
I0403 18:41:06.561660  7264 net.cpp:425] inception_3a/output <- inception_3a/5x5
I0403 18:41:06.561677  7264 net.cpp:425] inception_3a/output <- inception_3a/pool_proj
I0403 18:41:06.561698  7264 net.cpp:399] inception_3a/output -> inception_3a/output
I0403 18:41:06.561749  7264 net.cpp:141] Setting up inception_3a/output
I0403 18:41:06.561775  7264 net.cpp:148] Top shape: 24 256 28 28 (4816896)
I0403 18:41:06.561791  7264 net.cpp:156] Memory required for data: 580437024
I0403 18:41:06.561807  7264 layer_factory.hpp:77] Creating layer inception_3a/output_inception_3a/output_0_split
I0403 18:41:06.561825  7264 net.cpp:91] Creating Layer inception_3a/output_inception_3a/output_0_split
I0403 18:41:06.561842  7264 net.cpp:425] inception_3a/output_inception_3a/output_0_split <- inception_3a/output
I0403 18:41:06.561864  7264 net.cpp:399] inception_3a/output_inception_3a/output_0_split -> inception_3a/output_inception_3a/output_0_split_0
I0403 18:41:06.561888  7264 net.cpp:399] inception_3a/output_inception_3a/output_0_split -> inception_3a/output_inception_3a/output_0_split_1
I0403 18:41:06.561911  7264 net.cpp:399] inception_3a/output_inception_3a/output_0_split -> inception_3a/output_inception_3a/output_0_split_2
I0403 18:41:06.561938  7264 net.cpp:399] inception_3a/output_inception_3a/output_0_split -> inception_3a/output_inception_3a/output_0_split_3
I0403 18:41:06.562016  7264 net.cpp:141] Setting up inception_3a/output_inception_3a/output_0_split
I0403 18:41:06.562041  7264 net.cpp:148] Top shape: 24 256 28 28 (4816896)
I0403 18:41:06.562057  7264 net.cpp:148] Top shape: 24 256 28 28 (4816896)
I0403 18:41:06.562074  7264 net.cpp:148] Top shape: 24 256 28 28 (4816896)
I0403 18:41:06.562091  7264 net.cpp:148] Top shape: 24 256 28 28 (4816896)
I0403 18:41:06.562105  7264 net.cpp:156] Memory required for data: 657507360
I0403 18:41:06.562120  7264 layer_factory.hpp:77] Creating layer inception_3b/1x1
I0403 18:41:06.562144  7264 net.cpp:91] Creating Layer inception_3b/1x1
I0403 18:41:06.562163  7264 net.cpp:425] inception_3b/1x1 <- inception_3a/output_inception_3a/output_0_split_0
I0403 18:41:06.562185  7264 net.cpp:399] inception_3b/1x1 -> inception_3b/1x1
I0403 18:41:06.563357  7264 net.cpp:141] Setting up inception_3b/1x1
I0403 18:41:06.563400  7264 net.cpp:148] Top shape: 24 128 28 28 (2408448)
I0403 18:41:06.563417  7264 net.cpp:156] Memory required for data: 667141152
I0403 18:41:06.563437  7264 layer_factory.hpp:77] Creating layer inception_3b/relu_1x1
I0403 18:41:06.563457  7264 net.cpp:91] Creating Layer inception_3b/relu_1x1
I0403 18:41:06.563472  7264 net.cpp:425] inception_3b/relu_1x1 <- inception_3b/1x1
I0403 18:41:06.563494  7264 net.cpp:386] inception_3b/relu_1x1 -> inception_3b/1x1 (in-place)
I0403 18:41:06.563673  7264 net.cpp:141] Setting up inception_3b/relu_1x1
I0403 18:41:06.563699  7264 net.cpp:148] Top shape: 24 128 28 28 (2408448)
I0403 18:41:06.563714  7264 net.cpp:156] Memory required for data: 676774944
I0403 18:41:06.563730  7264 layer_factory.hpp:77] Creating layer inception_3b/3x3_reduce
I0403 18:41:06.563751  7264 net.cpp:91] Creating Layer inception_3b/3x3_reduce
I0403 18:41:06.563769  7264 net.cpp:425] inception_3b/3x3_reduce <- inception_3a/output_inception_3a/output_0_split_1
I0403 18:41:06.563791  7264 net.cpp:399] inception_3b/3x3_reduce -> inception_3b/3x3_reduce
I0403 18:41:06.564954  7264 net.cpp:141] Setting up inception_3b/3x3_reduce
I0403 18:41:06.564985  7264 net.cpp:148] Top shape: 24 128 28 28 (2408448)
I0403 18:41:06.565002  7264 net.cpp:156] Memory required for data: 686408736
I0403 18:41:06.565023  7264 layer_factory.hpp:77] Creating layer inception_3b/relu_3x3_reduce
I0403 18:41:06.565042  7264 net.cpp:91] Creating Layer inception_3b/relu_3x3_reduce
I0403 18:41:06.565058  7264 net.cpp:425] inception_3b/relu_3x3_reduce <- inception_3b/3x3_reduce
I0403 18:41:06.565078  7264 net.cpp:386] inception_3b/relu_3x3_reduce -> inception_3b/3x3_reduce (in-place)
I0403 18:41:06.565263  7264 net.cpp:141] Setting up inception_3b/relu_3x3_reduce
I0403 18:41:06.565289  7264 net.cpp:148] Top shape: 24 128 28 28 (2408448)
I0403 18:41:06.565304  7264 net.cpp:156] Memory required for data: 696042528
I0403 18:41:06.565320  7264 layer_factory.hpp:77] Creating layer inception_3b/3x3
I0403 18:41:06.565347  7264 net.cpp:91] Creating Layer inception_3b/3x3
I0403 18:41:06.565366  7264 net.cpp:425] inception_3b/3x3 <- inception_3b/3x3_reduce
I0403 18:41:06.565385  7264 net.cpp:399] inception_3b/3x3 -> inception_3b/3x3
I0403 18:41:06.568346  7264 net.cpp:141] Setting up inception_3b/3x3
I0403 18:41:06.568377  7264 net.cpp:148] Top shape: 24 192 28 28 (3612672)
I0403 18:41:06.568393  7264 net.cpp:156] Memory required for data: 710493216
I0403 18:41:06.568413  7264 layer_factory.hpp:77] Creating layer inception_3b/relu_3x3
I0403 18:41:06.568436  7264 net.cpp:91] Creating Layer inception_3b/relu_3x3
I0403 18:41:06.568456  7264 net.cpp:425] inception_3b/relu_3x3 <- inception_3b/3x3
I0403 18:41:06.568475  7264 net.cpp:386] inception_3b/relu_3x3 -> inception_3b/3x3 (in-place)
I0403 18:41:06.568761  7264 net.cpp:141] Setting up inception_3b/relu_3x3
I0403 18:41:06.568789  7264 net.cpp:148] Top shape: 24 192 28 28 (3612672)
I0403 18:41:06.568804  7264 net.cpp:156] Memory required for data: 724943904
I0403 18:41:06.568819  7264 layer_factory.hpp:77] Creating layer inception_3b/5x5_reduce
I0403 18:41:06.568845  7264 net.cpp:91] Creating Layer inception_3b/5x5_reduce
I0403 18:41:06.568862  7264 net.cpp:425] inception_3b/5x5_reduce <- inception_3a/output_inception_3a/output_0_split_2
I0403 18:41:06.568886  7264 net.cpp:399] inception_3b/5x5_reduce -> inception_3b/5x5_reduce
I0403 18:41:06.569902  7264 net.cpp:141] Setting up inception_3b/5x5_reduce
I0403 18:41:06.569931  7264 net.cpp:148] Top shape: 24 32 28 28 (602112)
I0403 18:41:06.569947  7264 net.cpp:156] Memory required for data: 727352352
I0403 18:41:06.569965  7264 layer_factory.hpp:77] Creating layer inception_3b/relu_5x5_reduce
I0403 18:41:06.569986  7264 net.cpp:91] Creating Layer inception_3b/relu_5x5_reduce
I0403 18:41:06.570003  7264 net.cpp:425] inception_3b/relu_5x5_reduce <- inception_3b/5x5_reduce
I0403 18:41:06.570022  7264 net.cpp:386] inception_3b/relu_5x5_reduce -> inception_3b/5x5_reduce (in-place)
I0403 18:41:06.570216  7264 net.cpp:141] Setting up inception_3b/relu_5x5_reduce
I0403 18:41:06.570248  7264 net.cpp:148] Top shape: 24 32 28 28 (602112)
I0403 18:41:06.570266  7264 net.cpp:156] Memory required for data: 729760800
I0403 18:41:06.570281  7264 layer_factory.hpp:77] Creating layer inception_3b/5x5
I0403 18:41:06.570302  7264 net.cpp:91] Creating Layer inception_3b/5x5
I0403 18:41:06.570319  7264 net.cpp:425] inception_3b/5x5 <- inception_3b/5x5_reduce
I0403 18:41:06.570341  7264 net.cpp:399] inception_3b/5x5 -> inception_3b/5x5
I0403 18:41:06.572383  7264 net.cpp:141] Setting up inception_3b/5x5
I0403 18:41:06.572415  7264 net.cpp:148] Top shape: 24 96 28 28 (1806336)
I0403 18:41:06.572432  7264 net.cpp:156] Memory required for data: 736986144
I0403 18:41:06.572453  7264 layer_factory.hpp:77] Creating layer inception_3b/relu_5x5
I0403 18:41:06.572473  7264 net.cpp:91] Creating Layer inception_3b/relu_5x5
I0403 18:41:06.572489  7264 net.cpp:425] inception_3b/relu_5x5 <- inception_3b/5x5
I0403 18:41:06.572510  7264 net.cpp:386] inception_3b/relu_5x5 -> inception_3b/5x5 (in-place)
I0403 18:41:06.572707  7264 net.cpp:141] Setting up inception_3b/relu_5x5
I0403 18:41:06.572734  7264 net.cpp:148] Top shape: 24 96 28 28 (1806336)
I0403 18:41:06.572751  7264 net.cpp:156] Memory required for data: 744211488
I0403 18:41:06.572798  7264 layer_factory.hpp:77] Creating layer inception_3b/pool
I0403 18:41:06.572818  7264 net.cpp:91] Creating Layer inception_3b/pool
I0403 18:41:06.572835  7264 net.cpp:425] inception_3b/pool <- inception_3a/output_inception_3a/output_0_split_3
I0403 18:41:06.572854  7264 net.cpp:399] inception_3b/pool -> inception_3b/pool
I0403 18:41:06.572913  7264 net.cpp:141] Setting up inception_3b/pool
I0403 18:41:06.572937  7264 net.cpp:148] Top shape: 24 256 28 28 (4816896)
I0403 18:41:06.572952  7264 net.cpp:156] Memory required for data: 763479072
I0403 18:41:06.572968  7264 layer_factory.hpp:77] Creating layer inception_3b/pool_proj
I0403 18:41:06.572993  7264 net.cpp:91] Creating Layer inception_3b/pool_proj
I0403 18:41:06.573011  7264 net.cpp:425] inception_3b/pool_proj <- inception_3b/pool
I0403 18:41:06.573034  7264 net.cpp:399] inception_3b/pool_proj -> inception_3b/pool_proj
I0403 18:41:06.574117  7264 net.cpp:141] Setting up inception_3b/pool_proj
I0403 18:41:06.574148  7264 net.cpp:148] Top shape: 24 64 28 28 (1204224)
I0403 18:41:06.574165  7264 net.cpp:156] Memory required for data: 768295968
I0403 18:41:06.574184  7264 layer_factory.hpp:77] Creating layer inception_3b/relu_pool_proj
I0403 18:41:06.574203  7264 net.cpp:91] Creating Layer inception_3b/relu_pool_proj
I0403 18:41:06.574219  7264 net.cpp:425] inception_3b/relu_pool_proj <- inception_3b/pool_proj
I0403 18:41:06.574239  7264 net.cpp:386] inception_3b/relu_pool_proj -> inception_3b/pool_proj (in-place)
I0403 18:41:06.574636  7264 net.cpp:141] Setting up inception_3b/relu_pool_proj
I0403 18:41:06.574663  7264 net.cpp:148] Top shape: 24 64 28 28 (1204224)
I0403 18:41:06.574678  7264 net.cpp:156] Memory required for data: 773112864
I0403 18:41:06.574695  7264 layer_factory.hpp:77] Creating layer inception_3b/output
I0403 18:41:06.574715  7264 net.cpp:91] Creating Layer inception_3b/output
I0403 18:41:06.574733  7264 net.cpp:425] inception_3b/output <- inception_3b/1x1
I0403 18:41:06.574750  7264 net.cpp:425] inception_3b/output <- inception_3b/3x3
I0403 18:41:06.574767  7264 net.cpp:425] inception_3b/output <- inception_3b/5x5
I0403 18:41:06.574784  7264 net.cpp:425] inception_3b/output <- inception_3b/pool_proj
I0403 18:41:06.574801  7264 net.cpp:399] inception_3b/output -> inception_3b/output
I0403 18:41:06.574848  7264 net.cpp:141] Setting up inception_3b/output
I0403 18:41:06.574872  7264 net.cpp:148] Top shape: 24 480 28 28 (9031680)
I0403 18:41:06.574885  7264 net.cpp:156] Memory required for data: 809239584
I0403 18:41:06.574901  7264 layer_factory.hpp:77] Creating layer pool3/3x3_s2
I0403 18:41:06.574919  7264 net.cpp:91] Creating Layer pool3/3x3_s2
I0403 18:41:06.574936  7264 net.cpp:425] pool3/3x3_s2 <- inception_3b/output
I0403 18:41:06.574972  7264 net.cpp:399] pool3/3x3_s2 -> pool3/3x3_s2
I0403 18:41:06.575033  7264 net.cpp:141] Setting up pool3/3x3_s2
I0403 18:41:06.575057  7264 net.cpp:148] Top shape: 24 480 14 14 (2257920)
I0403 18:41:06.575073  7264 net.cpp:156] Memory required for data: 818271264
I0403 18:41:06.575088  7264 layer_factory.hpp:77] Creating layer pool3/3x3_s2_pool3/3x3_s2_0_split
I0403 18:41:06.575108  7264 net.cpp:91] Creating Layer pool3/3x3_s2_pool3/3x3_s2_0_split
I0403 18:41:06.575124  7264 net.cpp:425] pool3/3x3_s2_pool3/3x3_s2_0_split <- pool3/3x3_s2
I0403 18:41:06.575144  7264 net.cpp:399] pool3/3x3_s2_pool3/3x3_s2_0_split -> pool3/3x3_s2_pool3/3x3_s2_0_split_0
I0403 18:41:06.575165  7264 net.cpp:399] pool3/3x3_s2_pool3/3x3_s2_0_split -> pool3/3x3_s2_pool3/3x3_s2_0_split_1
I0403 18:41:06.575184  7264 net.cpp:399] pool3/3x3_s2_pool3/3x3_s2_0_split -> pool3/3x3_s2_pool3/3x3_s2_0_split_2
I0403 18:41:06.575206  7264 net.cpp:399] pool3/3x3_s2_pool3/3x3_s2_0_split -> pool3/3x3_s2_pool3/3x3_s2_0_split_3
I0403 18:41:06.575286  7264 net.cpp:141] Setting up pool3/3x3_s2_pool3/3x3_s2_0_split
I0403 18:41:06.575314  7264 net.cpp:148] Top shape: 24 480 14 14 (2257920)
I0403 18:41:06.575331  7264 net.cpp:148] Top shape: 24 480 14 14 (2257920)
I0403 18:41:06.575347  7264 net.cpp:148] Top shape: 24 480 14 14 (2257920)
I0403 18:41:06.575363  7264 net.cpp:148] Top shape: 24 480 14 14 (2257920)
I0403 18:41:06.575378  7264 net.cpp:156] Memory required for data: 854397984
I0403 18:41:06.575393  7264 layer_factory.hpp:77] Creating layer inception_4a/1x1
I0403 18:41:06.575415  7264 net.cpp:91] Creating Layer inception_4a/1x1
I0403 18:41:06.575433  7264 net.cpp:425] inception_4a/1x1 <- pool3/3x3_s2_pool3/3x3_s2_0_split_0
I0403 18:41:06.575453  7264 net.cpp:399] inception_4a/1x1 -> inception_4a/1x1
I0403 18:41:06.577093  7264 net.cpp:141] Setting up inception_4a/1x1
I0403 18:41:06.577127  7264 net.cpp:148] Top shape: 24 192 14 14 (903168)
I0403 18:41:06.577145  7264 net.cpp:156] Memory required for data: 858010656
I0403 18:41:06.577167  7264 layer_factory.hpp:77] Creating layer inception_4a/relu_1x1
I0403 18:41:06.577186  7264 net.cpp:91] Creating Layer inception_4a/relu_1x1
I0403 18:41:06.577203  7264 net.cpp:425] inception_4a/relu_1x1 <- inception_4a/1x1
I0403 18:41:06.577221  7264 net.cpp:386] inception_4a/relu_1x1 -> inception_4a/1x1 (in-place)
I0403 18:41:06.577415  7264 net.cpp:141] Setting up inception_4a/relu_1x1
I0403 18:41:06.577445  7264 net.cpp:148] Top shape: 24 192 14 14 (903168)
I0403 18:41:06.577461  7264 net.cpp:156] Memory required for data: 861623328
I0403 18:41:06.577478  7264 layer_factory.hpp:77] Creating layer inception_4a/3x3_reduce
I0403 18:41:06.577503  7264 net.cpp:91] Creating Layer inception_4a/3x3_reduce
I0403 18:41:06.577523  7264 net.cpp:425] inception_4a/3x3_reduce <- pool3/3x3_s2_pool3/3x3_s2_0_split_1
I0403 18:41:06.577548  7264 net.cpp:399] inception_4a/3x3_reduce -> inception_4a/3x3_reduce
I0403 18:41:06.578894  7264 net.cpp:141] Setting up inception_4a/3x3_reduce
I0403 18:41:06.578929  7264 net.cpp:148] Top shape: 24 96 14 14 (451584)
I0403 18:41:06.578948  7264 net.cpp:156] Memory required for data: 863429664
I0403 18:41:06.578976  7264 layer_factory.hpp:77] Creating layer inception_4a/relu_3x3_reduce
I0403 18:41:06.578999  7264 net.cpp:91] Creating Layer inception_4a/relu_3x3_reduce
I0403 18:41:06.579017  7264 net.cpp:425] inception_4a/relu_3x3_reduce <- inception_4a/3x3_reduce
I0403 18:41:06.579037  7264 net.cpp:386] inception_4a/relu_3x3_reduce -> inception_4a/3x3_reduce (in-place)
I0403 18:41:06.579224  7264 net.cpp:141] Setting up inception_4a/relu_3x3_reduce
I0403 18:41:06.579258  7264 net.cpp:148] Top shape: 24 96 14 14 (451584)
I0403 18:41:06.579277  7264 net.cpp:156] Memory required for data: 865236000
I0403 18:41:06.579293  7264 layer_factory.hpp:77] Creating layer inception_4a/3x3
I0403 18:41:06.579315  7264 net.cpp:91] Creating Layer inception_4a/3x3
I0403 18:41:06.579334  7264 net.cpp:425] inception_4a/3x3 <- inception_4a/3x3_reduce
I0403 18:41:06.579357  7264 net.cpp:399] inception_4a/3x3 -> inception_4a/3x3
I0403 18:41:06.582167  7264 net.cpp:141] Setting up inception_4a/3x3
I0403 18:41:06.582201  7264 net.cpp:148] Top shape: 24 208 14 14 (978432)
I0403 18:41:06.582221  7264 net.cpp:156] Memory required for data: 869149728
I0403 18:41:06.582244  7264 layer_factory.hpp:77] Creating layer inception_4a/relu_3x3
I0403 18:41:06.582267  7264 net.cpp:91] Creating Layer inception_4a/relu_3x3
I0403 18:41:06.582285  7264 net.cpp:425] inception_4a/relu_3x3 <- inception_4a/3x3
I0403 18:41:06.582307  7264 net.cpp:386] inception_4a/relu_3x3 -> inception_4a/3x3 (in-place)
I0403 18:41:06.582607  7264 net.cpp:141] Setting up inception_4a/relu_3x3
I0403 18:41:06.582636  7264 net.cpp:148] Top shape: 24 208 14 14 (978432)
I0403 18:41:06.582654  7264 net.cpp:156] Memory required for data: 873063456
I0403 18:41:06.582670  7264 layer_factory.hpp:77] Creating layer inception_4a/5x5_reduce
I0403 18:41:06.582695  7264 net.cpp:91] Creating Layer inception_4a/5x5_reduce
I0403 18:41:06.582715  7264 net.cpp:425] inception_4a/5x5_reduce <- pool3/3x3_s2_pool3/3x3_s2_0_split_2
I0403 18:41:06.582737  7264 net.cpp:399] inception_4a/5x5_reduce -> inception_4a/5x5_reduce
I0403 18:41:06.583847  7264 net.cpp:141] Setting up inception_4a/5x5_reduce
I0403 18:41:06.583880  7264 net.cpp:148] Top shape: 24 16 14 14 (75264)
I0403 18:41:06.583899  7264 net.cpp:156] Memory required for data: 873364512
I0403 18:41:06.583920  7264 layer_factory.hpp:77] Creating layer inception_4a/relu_5x5_reduce
I0403 18:41:06.583941  7264 net.cpp:91] Creating Layer inception_4a/relu_5x5_reduce
I0403 18:41:06.583959  7264 net.cpp:425] inception_4a/relu_5x5_reduce <- inception_4a/5x5_reduce
I0403 18:41:06.583978  7264 net.cpp:386] inception_4a/relu_5x5_reduce -> inception_4a/5x5_reduce (in-place)
I0403 18:41:06.584167  7264 net.cpp:141] Setting up inception_4a/relu_5x5_reduce
I0403 18:41:06.584193  7264 net.cpp:148] Top shape: 24 16 14 14 (75264)
I0403 18:41:06.584213  7264 net.cpp:156] Memory required for data: 873665568
I0403 18:41:06.584230  7264 layer_factory.hpp:77] Creating layer inception_4a/5x5
I0403 18:41:06.584257  7264 net.cpp:91] Creating Layer inception_4a/5x5
I0403 18:41:06.584278  7264 net.cpp:425] inception_4a/5x5 <- inception_4a/5x5_reduce
I0403 18:41:06.584302  7264 net.cpp:399] inception_4a/5x5 -> inception_4a/5x5
I0403 18:41:06.585464  7264 net.cpp:141] Setting up inception_4a/5x5
I0403 18:41:06.585495  7264 net.cpp:148] Top shape: 24 48 14 14 (225792)
I0403 18:41:06.585515  7264 net.cpp:156] Memory required for data: 874568736
I0403 18:41:06.585536  7264 layer_factory.hpp:77] Creating layer inception_4a/relu_5x5
I0403 18:41:06.585558  7264 net.cpp:91] Creating Layer inception_4a/relu_5x5
I0403 18:41:06.585577  7264 net.cpp:425] inception_4a/relu_5x5 <- inception_4a/5x5
I0403 18:41:06.585597  7264 net.cpp:386] inception_4a/relu_5x5 -> inception_4a/5x5 (in-place)
I0403 18:41:06.585788  7264 net.cpp:141] Setting up inception_4a/relu_5x5
I0403 18:41:06.585814  7264 net.cpp:148] Top shape: 24 48 14 14 (225792)
I0403 18:41:06.585830  7264 net.cpp:156] Memory required for data: 875471904
I0403 18:41:06.585846  7264 layer_factory.hpp:77] Creating layer inception_4a/pool
I0403 18:41:06.585866  7264 net.cpp:91] Creating Layer inception_4a/pool
I0403 18:41:06.585883  7264 net.cpp:425] inception_4a/pool <- pool3/3x3_s2_pool3/3x3_s2_0_split_3
I0403 18:41:06.585908  7264 net.cpp:399] inception_4a/pool -> inception_4a/pool
I0403 18:41:06.585974  7264 net.cpp:141] Setting up inception_4a/pool
I0403 18:41:06.586000  7264 net.cpp:148] Top shape: 24 480 14 14 (2257920)
I0403 18:41:06.586015  7264 net.cpp:156] Memory required for data: 884503584
I0403 18:41:06.586031  7264 layer_factory.hpp:77] Creating layer inception_4a/pool_proj
I0403 18:41:06.586057  7264 net.cpp:91] Creating Layer inception_4a/pool_proj
I0403 18:41:06.586076  7264 net.cpp:425] inception_4a/pool_proj <- inception_4a/pool
I0403 18:41:06.586098  7264 net.cpp:399] inception_4a/pool_proj -> inception_4a/pool_proj
I0403 18:41:06.587340  7264 net.cpp:141] Setting up inception_4a/pool_proj
I0403 18:41:06.587376  7264 net.cpp:148] Top shape: 24 64 14 14 (301056)
I0403 18:41:06.587414  7264 net.cpp:156] Memory required for data: 885707808
I0403 18:41:06.587435  7264 layer_factory.hpp:77] Creating layer inception_4a/relu_pool_proj
I0403 18:41:06.587456  7264 net.cpp:91] Creating Layer inception_4a/relu_pool_proj
I0403 18:41:06.587473  7264 net.cpp:425] inception_4a/relu_pool_proj <- inception_4a/pool_proj
I0403 18:41:06.587497  7264 net.cpp:386] inception_4a/relu_pool_proj -> inception_4a/pool_proj (in-place)
I0403 18:41:06.587793  7264 net.cpp:141] Setting up inception_4a/relu_pool_proj
I0403 18:41:06.587826  7264 net.cpp:148] Top shape: 24 64 14 14 (301056)
I0403 18:41:06.587844  7264 net.cpp:156] Memory required for data: 886912032
I0403 18:41:06.587862  7264 layer_factory.hpp:77] Creating layer inception_4a/output
I0403 18:41:06.587882  7264 net.cpp:91] Creating Layer inception_4a/output
I0403 18:41:06.587899  7264 net.cpp:425] inception_4a/output <- inception_4a/1x1
I0403 18:41:06.587918  7264 net.cpp:425] inception_4a/output <- inception_4a/3x3
I0403 18:41:06.587935  7264 net.cpp:425] inception_4a/output <- inception_4a/5x5
I0403 18:41:06.587954  7264 net.cpp:425] inception_4a/output <- inception_4a/pool_proj
I0403 18:41:06.587973  7264 net.cpp:399] inception_4a/output -> inception_4a/output
I0403 18:41:06.588026  7264 net.cpp:141] Setting up inception_4a/output
I0403 18:41:06.588050  7264 net.cpp:148] Top shape: 24 512 14 14 (2408448)
I0403 18:41:06.588066  7264 net.cpp:156] Memory required for data: 896545824
I0403 18:41:06.588083  7264 layer_factory.hpp:77] Creating layer inception_4a/output_inception_4a/output_0_split
I0403 18:41:06.588104  7264 net.cpp:91] Creating Layer inception_4a/output_inception_4a/output_0_split
I0403 18:41:06.588122  7264 net.cpp:425] inception_4a/output_inception_4a/output_0_split <- inception_4a/output
I0403 18:41:06.588142  7264 net.cpp:399] inception_4a/output_inception_4a/output_0_split -> inception_4a/output_inception_4a/output_0_split_0
I0403 18:41:06.588165  7264 net.cpp:399] inception_4a/output_inception_4a/output_0_split -> inception_4a/output_inception_4a/output_0_split_1
I0403 18:41:06.588191  7264 net.cpp:399] inception_4a/output_inception_4a/output_0_split -> inception_4a/output_inception_4a/output_0_split_2
I0403 18:41:06.588215  7264 net.cpp:399] inception_4a/output_inception_4a/output_0_split -> inception_4a/output_inception_4a/output_0_split_3
I0403 18:41:06.588238  7264 net.cpp:399] inception_4a/output_inception_4a/output_0_split -> inception_4a/output_inception_4a/output_0_split_4
I0403 18:41:06.588342  7264 net.cpp:141] Setting up inception_4a/output_inception_4a/output_0_split
I0403 18:41:06.588368  7264 net.cpp:148] Top shape: 24 512 14 14 (2408448)
I0403 18:41:06.588387  7264 net.cpp:148] Top shape: 24 512 14 14 (2408448)
I0403 18:41:06.588403  7264 net.cpp:148] Top shape: 24 512 14 14 (2408448)
I0403 18:41:06.588421  7264 net.cpp:148] Top shape: 24 512 14 14 (2408448)
I0403 18:41:06.588438  7264 net.cpp:148] Top shape: 24 512 14 14 (2408448)
I0403 18:41:06.588454  7264 net.cpp:156] Memory required for data: 944714784
I0403 18:41:06.588470  7264 layer_factory.hpp:77] Creating layer loss1/ave_pool
I0403 18:41:06.588488  7264 net.cpp:91] Creating Layer loss1/ave_pool
I0403 18:41:06.588506  7264 net.cpp:425] loss1/ave_pool <- inception_4a/output_inception_4a/output_0_split_0
I0403 18:41:06.588528  7264 net.cpp:399] loss1/ave_pool -> loss1/ave_pool
I0403 18:41:06.588750  7264 net.cpp:141] Setting up loss1/ave_pool
I0403 18:41:06.588780  7264 net.cpp:148] Top shape: 24 512 4 4 (196608)
I0403 18:41:06.588798  7264 net.cpp:156] Memory required for data: 945501216
I0403 18:41:06.588816  7264 layer_factory.hpp:77] Creating layer loss1/conv
I0403 18:41:06.588840  7264 net.cpp:91] Creating Layer loss1/conv
I0403 18:41:06.588858  7264 net.cpp:425] loss1/conv <- loss1/ave_pool
I0403 18:41:06.588881  7264 net.cpp:399] loss1/conv -> loss1/conv
I0403 18:41:06.590379  7264 net.cpp:141] Setting up loss1/conv
I0403 18:41:06.590410  7264 net.cpp:148] Top shape: 24 128 4 4 (49152)
I0403 18:41:06.590445  7264 net.cpp:156] Memory required for data: 945697824
I0403 18:41:06.590466  7264 layer_factory.hpp:77] Creating layer loss1/relu_conv
I0403 18:41:06.590486  7264 net.cpp:91] Creating Layer loss1/relu_conv
I0403 18:41:06.590504  7264 net.cpp:425] loss1/relu_conv <- loss1/conv
I0403 18:41:06.590526  7264 net.cpp:386] loss1/relu_conv -> loss1/conv (in-place)
I0403 18:41:06.590827  7264 net.cpp:141] Setting up loss1/relu_conv
I0403 18:41:06.590855  7264 net.cpp:148] Top shape: 24 128 4 4 (49152)
I0403 18:41:06.590872  7264 net.cpp:156] Memory required for data: 945894432
I0403 18:41:06.590888  7264 layer_factory.hpp:77] Creating layer loss1/fc
I0403 18:41:06.590914  7264 net.cpp:91] Creating Layer loss1/fc
I0403 18:41:06.590932  7264 net.cpp:425] loss1/fc <- loss1/conv
I0403 18:41:06.590955  7264 net.cpp:399] loss1/fc -> loss1/fc
I0403 18:41:06.609972  7264 net.cpp:141] Setting up loss1/fc
I0403 18:41:06.610040  7264 net.cpp:148] Top shape: 24 1024 (24576)
I0403 18:41:06.610057  7264 net.cpp:156] Memory required for data: 945992736
I0403 18:41:06.610080  7264 layer_factory.hpp:77] Creating layer loss1/relu_fc
I0403 18:41:06.610101  7264 net.cpp:91] Creating Layer loss1/relu_fc
I0403 18:41:06.610121  7264 net.cpp:425] loss1/relu_fc <- loss1/fc
I0403 18:41:06.610141  7264 net.cpp:386] loss1/relu_fc -> loss1/fc (in-place)
I0403 18:41:06.610369  7264 net.cpp:141] Setting up loss1/relu_fc
I0403 18:41:06.610397  7264 net.cpp:148] Top shape: 24 1024 (24576)
I0403 18:41:06.610412  7264 net.cpp:156] Memory required for data: 946091040
I0403 18:41:06.610430  7264 layer_factory.hpp:77] Creating layer loss1/drop_fc
I0403 18:41:06.610460  7264 net.cpp:91] Creating Layer loss1/drop_fc
I0403 18:41:06.610478  7264 net.cpp:425] loss1/drop_fc <- loss1/fc
I0403 18:41:06.610501  7264 net.cpp:386] loss1/drop_fc -> loss1/fc (in-place)
I0403 18:41:06.610555  7264 net.cpp:141] Setting up loss1/drop_fc
I0403 18:41:06.610579  7264 net.cpp:148] Top shape: 24 1024 (24576)
I0403 18:41:06.610594  7264 net.cpp:156] Memory required for data: 946189344
I0403 18:41:06.610611  7264 layer_factory.hpp:77] Creating layer loss1/classifier_plantvillage
I0403 18:41:06.610640  7264 net.cpp:91] Creating Layer loss1/classifier_plantvillage
I0403 18:41:06.610658  7264 net.cpp:425] loss1/classifier_plantvillage <- loss1/fc
I0403 18:41:06.610680  7264 net.cpp:399] loss1/classifier_plantvillage -> loss1/classifier_plantvillage
I0403 18:41:06.611651  7264 net.cpp:141] Setting up loss1/classifier_plantvillage
I0403 18:41:06.611681  7264 net.cpp:148] Top shape: 24 38 (912)
I0403 18:41:06.611697  7264 net.cpp:156] Memory required for data: 946192992
I0403 18:41:06.611717  7264 layer_factory.hpp:77] Creating layer loss1/classifier_plantvillage_loss1/classifier_plantvillage_0_split
I0403 18:41:06.611737  7264 net.cpp:91] Creating Layer loss1/classifier_plantvillage_loss1/classifier_plantvillage_0_split
I0403 18:41:06.611753  7264 net.cpp:425] loss1/classifier_plantvillage_loss1/classifier_plantvillage_0_split <- loss1/classifier_plantvillage
I0403 18:41:06.611774  7264 net.cpp:399] loss1/classifier_plantvillage_loss1/classifier_plantvillage_0_split -> loss1/classifier_plantvillage_loss1/classifier_plantvillage_0_split_0
I0403 18:41:06.611799  7264 net.cpp:399] loss1/classifier_plantvillage_loss1/classifier_plantvillage_0_split -> loss1/classifier_plantvillage_loss1/classifier_plantvillage_0_split_1
I0403 18:41:06.611820  7264 net.cpp:399] loss1/classifier_plantvillage_loss1/classifier_plantvillage_0_split -> loss1/classifier_plantvillage_loss1/classifier_plantvillage_0_split_2
I0403 18:41:06.611891  7264 net.cpp:141] Setting up loss1/classifier_plantvillage_loss1/classifier_plantvillage_0_split
I0403 18:41:06.611915  7264 net.cpp:148] Top shape: 24 38 (912)
I0403 18:41:06.611932  7264 net.cpp:148] Top shape: 24 38 (912)
I0403 18:41:06.611948  7264 net.cpp:148] Top shape: 24 38 (912)
I0403 18:41:06.611963  7264 net.cpp:156] Memory required for data: 946203936
I0403 18:41:06.611979  7264 layer_factory.hpp:77] Creating layer inception_4b/1x1
I0403 18:41:06.612004  7264 net.cpp:91] Creating Layer inception_4b/1x1
I0403 18:41:06.612051  7264 net.cpp:425] inception_4b/1x1 <- inception_4a/output_inception_4a/output_0_split_1
I0403 18:41:06.612072  7264 net.cpp:399] inception_4b/1x1 -> inception_4b/1x1
I0403 18:41:06.613862  7264 net.cpp:141] Setting up inception_4b/1x1
I0403 18:41:06.613893  7264 net.cpp:148] Top shape: 24 160 14 14 (752640)
I0403 18:41:06.613911  7264 net.cpp:156] Memory required for data: 949214496
I0403 18:41:06.613934  7264 layer_factory.hpp:77] Creating layer inception_4b/relu_1x1
I0403 18:41:06.613952  7264 net.cpp:91] Creating Layer inception_4b/relu_1x1
I0403 18:41:06.613970  7264 net.cpp:425] inception_4b/relu_1x1 <- inception_4b/1x1
I0403 18:41:06.613992  7264 net.cpp:386] inception_4b/relu_1x1 -> inception_4b/1x1 (in-place)
I0403 18:41:06.614184  7264 net.cpp:141] Setting up inception_4b/relu_1x1
I0403 18:41:06.614212  7264 net.cpp:148] Top shape: 24 160 14 14 (752640)
I0403 18:41:06.614229  7264 net.cpp:156] Memory required for data: 952225056
I0403 18:41:06.614249  7264 layer_factory.hpp:77] Creating layer inception_4b/3x3_reduce
I0403 18:41:06.614274  7264 net.cpp:91] Creating Layer inception_4b/3x3_reduce
I0403 18:41:06.614295  7264 net.cpp:425] inception_4b/3x3_reduce <- inception_4a/output_inception_4a/output_0_split_2
I0403 18:41:06.614318  7264 net.cpp:399] inception_4b/3x3_reduce -> inception_4b/3x3_reduce
I0403 18:41:06.615780  7264 net.cpp:141] Setting up inception_4b/3x3_reduce
I0403 18:41:06.615811  7264 net.cpp:148] Top shape: 24 112 14 14 (526848)
I0403 18:41:06.615829  7264 net.cpp:156] Memory required for data: 954332448
I0403 18:41:06.615850  7264 layer_factory.hpp:77] Creating layer inception_4b/relu_3x3_reduce
I0403 18:41:06.615871  7264 net.cpp:91] Creating Layer inception_4b/relu_3x3_reduce
I0403 18:41:06.615890  7264 net.cpp:425] inception_4b/relu_3x3_reduce <- inception_4b/3x3_reduce
I0403 18:41:06.615911  7264 net.cpp:386] inception_4b/relu_3x3_reduce -> inception_4b/3x3_reduce (in-place)
I0403 18:41:06.616209  7264 net.cpp:141] Setting up inception_4b/relu_3x3_reduce
I0403 18:41:06.616237  7264 net.cpp:148] Top shape: 24 112 14 14 (526848)
I0403 18:41:06.616258  7264 net.cpp:156] Memory required for data: 956439840
I0403 18:41:06.616276  7264 layer_factory.hpp:77] Creating layer inception_4b/3x3
I0403 18:41:06.616299  7264 net.cpp:91] Creating Layer inception_4b/3x3
I0403 18:41:06.616318  7264 net.cpp:425] inception_4b/3x3 <- inception_4b/3x3_reduce
I0403 18:41:06.616340  7264 net.cpp:399] inception_4b/3x3 -> inception_4b/3x3
I0403 18:41:06.619463  7264 net.cpp:141] Setting up inception_4b/3x3
I0403 18:41:06.619498  7264 net.cpp:148] Top shape: 24 224 14 14 (1053696)
I0403 18:41:06.619515  7264 net.cpp:156] Memory required for data: 960654624
I0403 18:41:06.619535  7264 layer_factory.hpp:77] Creating layer inception_4b/relu_3x3
I0403 18:41:06.619554  7264 net.cpp:91] Creating Layer inception_4b/relu_3x3
I0403 18:41:06.619570  7264 net.cpp:425] inception_4b/relu_3x3 <- inception_4b/3x3
I0403 18:41:06.619590  7264 net.cpp:386] inception_4b/relu_3x3 -> inception_4b/3x3 (in-place)
I0403 18:41:06.619781  7264 net.cpp:141] Setting up inception_4b/relu_3x3
I0403 18:41:06.619808  7264 net.cpp:148] Top shape: 24 224 14 14 (1053696)
I0403 18:41:06.619825  7264 net.cpp:156] Memory required for data: 964869408
I0403 18:41:06.619840  7264 layer_factory.hpp:77] Creating layer inception_4b/5x5_reduce
I0403 18:41:06.619864  7264 net.cpp:91] Creating Layer inception_4b/5x5_reduce
I0403 18:41:06.619882  7264 net.cpp:425] inception_4b/5x5_reduce <- inception_4a/output_inception_4a/output_0_split_3
I0403 18:41:06.619905  7264 net.cpp:399] inception_4b/5x5_reduce -> inception_4b/5x5_reduce
I0403 18:41:06.621027  7264 net.cpp:141] Setting up inception_4b/5x5_reduce
I0403 18:41:06.621057  7264 net.cpp:148] Top shape: 24 24 14 14 (112896)
I0403 18:41:06.621073  7264 net.cpp:156] Memory required for data: 965320992
I0403 18:41:06.621093  7264 layer_factory.hpp:77] Creating layer inception_4b/relu_5x5_reduce
I0403 18:41:06.621114  7264 net.cpp:91] Creating Layer inception_4b/relu_5x5_reduce
I0403 18:41:06.621145  7264 net.cpp:425] inception_4b/relu_5x5_reduce <- inception_4b/5x5_reduce
I0403 18:41:06.621166  7264 net.cpp:386] inception_4b/relu_5x5_reduce -> inception_4b/5x5_reduce (in-place)
I0403 18:41:06.621362  7264 net.cpp:141] Setting up inception_4b/relu_5x5_reduce
I0403 18:41:06.621389  7264 net.cpp:148] Top shape: 24 24 14 14 (112896)
I0403 18:41:06.621404  7264 net.cpp:156] Memory required for data: 965772576
I0403 18:41:06.621420  7264 layer_factory.hpp:77] Creating layer inception_4b/5x5
I0403 18:41:06.621445  7264 net.cpp:91] Creating Layer inception_4b/5x5
I0403 18:41:06.621465  7264 net.cpp:425] inception_4b/5x5 <- inception_4b/5x5_reduce
I0403 18:41:06.621486  7264 net.cpp:399] inception_4b/5x5 -> inception_4b/5x5
I0403 18:41:06.622762  7264 net.cpp:141] Setting up inception_4b/5x5
I0403 18:41:06.622791  7264 net.cpp:148] Top shape: 24 64 14 14 (301056)
I0403 18:41:06.622807  7264 net.cpp:156] Memory required for data: 966976800
I0403 18:41:06.622825  7264 layer_factory.hpp:77] Creating layer inception_4b/relu_5x5
I0403 18:41:06.622845  7264 net.cpp:91] Creating Layer inception_4b/relu_5x5
I0403 18:41:06.622861  7264 net.cpp:425] inception_4b/relu_5x5 <- inception_4b/5x5
I0403 18:41:06.622882  7264 net.cpp:386] inception_4b/relu_5x5 -> inception_4b/5x5 (in-place)
I0403 18:41:06.623178  7264 net.cpp:141] Setting up inception_4b/relu_5x5
I0403 18:41:06.623206  7264 net.cpp:148] Top shape: 24 64 14 14 (301056)
I0403 18:41:06.623222  7264 net.cpp:156] Memory required for data: 968181024
I0403 18:41:06.623237  7264 layer_factory.hpp:77] Creating layer inception_4b/pool
I0403 18:41:06.623263  7264 net.cpp:91] Creating Layer inception_4b/pool
I0403 18:41:06.623281  7264 net.cpp:425] inception_4b/pool <- inception_4a/output_inception_4a/output_0_split_4
I0403 18:41:06.623306  7264 net.cpp:399] inception_4b/pool -> inception_4b/pool
I0403 18:41:06.623374  7264 net.cpp:141] Setting up inception_4b/pool
I0403 18:41:06.623399  7264 net.cpp:148] Top shape: 24 512 14 14 (2408448)
I0403 18:41:06.623415  7264 net.cpp:156] Memory required for data: 977814816
I0403 18:41:06.623431  7264 layer_factory.hpp:77] Creating layer inception_4b/pool_proj
I0403 18:41:06.623458  7264 net.cpp:91] Creating Layer inception_4b/pool_proj
I0403 18:41:06.623477  7264 net.cpp:425] inception_4b/pool_proj <- inception_4b/pool
I0403 18:41:06.623497  7264 net.cpp:399] inception_4b/pool_proj -> inception_4b/pool_proj
I0403 18:41:06.624748  7264 net.cpp:141] Setting up inception_4b/pool_proj
I0403 18:41:06.624778  7264 net.cpp:148] Top shape: 24 64 14 14 (301056)
I0403 18:41:06.624794  7264 net.cpp:156] Memory required for data: 979019040
I0403 18:41:06.624814  7264 layer_factory.hpp:77] Creating layer inception_4b/relu_pool_proj
I0403 18:41:06.624835  7264 net.cpp:91] Creating Layer inception_4b/relu_pool_proj
I0403 18:41:06.624855  7264 net.cpp:425] inception_4b/relu_pool_proj <- inception_4b/pool_proj
I0403 18:41:06.624873  7264 net.cpp:386] inception_4b/relu_pool_proj -> inception_4b/pool_proj (in-place)
I0403 18:41:06.625061  7264 net.cpp:141] Setting up inception_4b/relu_pool_proj
I0403 18:41:06.625089  7264 net.cpp:148] Top shape: 24 64 14 14 (301056)
I0403 18:41:06.625105  7264 net.cpp:156] Memory required for data: 980223264
I0403 18:41:06.625121  7264 layer_factory.hpp:77] Creating layer inception_4b/output
I0403 18:41:06.625139  7264 net.cpp:91] Creating Layer inception_4b/output
I0403 18:41:06.625156  7264 net.cpp:425] inception_4b/output <- inception_4b/1x1
I0403 18:41:06.625174  7264 net.cpp:425] inception_4b/output <- inception_4b/3x3
I0403 18:41:06.625190  7264 net.cpp:425] inception_4b/output <- inception_4b/5x5
I0403 18:41:06.625207  7264 net.cpp:425] inception_4b/output <- inception_4b/pool_proj
I0403 18:41:06.625226  7264 net.cpp:399] inception_4b/output -> inception_4b/output
I0403 18:41:06.625280  7264 net.cpp:141] Setting up inception_4b/output
I0403 18:41:06.625305  7264 net.cpp:148] Top shape: 24 512 14 14 (2408448)
I0403 18:41:06.625320  7264 net.cpp:156] Memory required for data: 989857056
I0403 18:41:06.625349  7264 layer_factory.hpp:77] Creating layer inception_4b/output_inception_4b/output_0_split
I0403 18:41:06.625368  7264 net.cpp:91] Creating Layer inception_4b/output_inception_4b/output_0_split
I0403 18:41:06.625388  7264 net.cpp:425] inception_4b/output_inception_4b/output_0_split <- inception_4b/output
I0403 18:41:06.625407  7264 net.cpp:399] inception_4b/output_inception_4b/output_0_split -> inception_4b/output_inception_4b/output_0_split_0
I0403 18:41:06.625428  7264 net.cpp:399] inception_4b/output_inception_4b/output_0_split -> inception_4b/output_inception_4b/output_0_split_1
I0403 18:41:06.625452  7264 net.cpp:399] inception_4b/output_inception_4b/output_0_split -> inception_4b/output_inception_4b/output_0_split_2
I0403 18:41:06.625471  7264 net.cpp:399] inception_4b/output_inception_4b/output_0_split -> inception_4b/output_inception_4b/output_0_split_3
I0403 18:41:06.625561  7264 net.cpp:141] Setting up inception_4b/output_inception_4b/output_0_split
I0403 18:41:06.625586  7264 net.cpp:148] Top shape: 24 512 14 14 (2408448)
I0403 18:41:06.625603  7264 net.cpp:148] Top shape: 24 512 14 14 (2408448)
I0403 18:41:06.625619  7264 net.cpp:148] Top shape: 24 512 14 14 (2408448)
I0403 18:41:06.625636  7264 net.cpp:148] Top shape: 24 512 14 14 (2408448)
I0403 18:41:06.625651  7264 net.cpp:156] Memory required for data: 1028392224
I0403 18:41:06.625668  7264 layer_factory.hpp:77] Creating layer inception_4c/1x1
I0403 18:41:06.625690  7264 net.cpp:91] Creating Layer inception_4c/1x1
I0403 18:41:06.625708  7264 net.cpp:425] inception_4c/1x1 <- inception_4b/output_inception_4b/output_0_split_0
I0403 18:41:06.625731  7264 net.cpp:399] inception_4c/1x1 -> inception_4c/1x1
I0403 18:41:06.627216  7264 net.cpp:141] Setting up inception_4c/1x1
I0403 18:41:06.627256  7264 net.cpp:148] Top shape: 24 128 14 14 (602112)
I0403 18:41:06.627277  7264 net.cpp:156] Memory required for data: 1030800672
I0403 18:41:06.627296  7264 layer_factory.hpp:77] Creating layer inception_4c/relu_1x1
I0403 18:41:06.627316  7264 net.cpp:91] Creating Layer inception_4c/relu_1x1
I0403 18:41:06.627334  7264 net.cpp:425] inception_4c/relu_1x1 <- inception_4c/1x1
I0403 18:41:06.627352  7264 net.cpp:386] inception_4c/relu_1x1 -> inception_4c/1x1 (in-place)
I0403 18:41:06.627545  7264 net.cpp:141] Setting up inception_4c/relu_1x1
I0403 18:41:06.627573  7264 net.cpp:148] Top shape: 24 128 14 14 (602112)
I0403 18:41:06.627588  7264 net.cpp:156] Memory required for data: 1033209120
I0403 18:41:06.627604  7264 layer_factory.hpp:77] Creating layer inception_4c/3x3_reduce
I0403 18:41:06.627627  7264 net.cpp:91] Creating Layer inception_4c/3x3_reduce
I0403 18:41:06.627646  7264 net.cpp:425] inception_4c/3x3_reduce <- inception_4b/output_inception_4b/output_0_split_1
I0403 18:41:06.627670  7264 net.cpp:399] inception_4c/3x3_reduce -> inception_4c/3x3_reduce
I0403 18:41:06.629714  7264 net.cpp:141] Setting up inception_4c/3x3_reduce
I0403 18:41:06.629745  7264 net.cpp:148] Top shape: 24 128 14 14 (602112)
I0403 18:41:06.629763  7264 net.cpp:156] Memory required for data: 1035617568
I0403 18:41:06.629784  7264 layer_factory.hpp:77] Creating layer inception_4c/relu_3x3_reduce
I0403 18:41:06.629806  7264 net.cpp:91] Creating Layer inception_4c/relu_3x3_reduce
I0403 18:41:06.629824  7264 net.cpp:425] inception_4c/relu_3x3_reduce <- inception_4c/3x3_reduce
I0403 18:41:06.629842  7264 net.cpp:386] inception_4c/relu_3x3_reduce -> inception_4c/3x3_reduce (in-place)
I0403 18:41:06.630141  7264 net.cpp:141] Setting up inception_4c/relu_3x3_reduce
I0403 18:41:06.630170  7264 net.cpp:148] Top shape: 24 128 14 14 (602112)
I0403 18:41:06.630187  7264 net.cpp:156] Memory required for data: 1038026016
I0403 18:41:06.630203  7264 layer_factory.hpp:77] Creating layer inception_4c/3x3
I0403 18:41:06.630228  7264 net.cpp:91] Creating Layer inception_4c/3x3
I0403 18:41:06.630251  7264 net.cpp:425] inception_4c/3x3 <- inception_4c/3x3_reduce
I0403 18:41:06.630276  7264 net.cpp:399] inception_4c/3x3 -> inception_4c/3x3
I0403 18:41:06.634012  7264 net.cpp:141] Setting up inception_4c/3x3
I0403 18:41:06.634057  7264 net.cpp:148] Top shape: 24 256 14 14 (1204224)
I0403 18:41:06.634075  7264 net.cpp:156] Memory required for data: 1042842912
I0403 18:41:06.634110  7264 layer_factory.hpp:77] Creating layer inception_4c/relu_3x3
I0403 18:41:06.634135  7264 net.cpp:91] Creating Layer inception_4c/relu_3x3
I0403 18:41:06.634155  7264 net.cpp:425] inception_4c/relu_3x3 <- inception_4c/3x3
I0403 18:41:06.634174  7264 net.cpp:386] inception_4c/relu_3x3 -> inception_4c/3x3 (in-place)
I0403 18:41:06.634367  7264 net.cpp:141] Setting up inception_4c/relu_3x3
I0403 18:41:06.634394  7264 net.cpp:148] Top shape: 24 256 14 14 (1204224)
I0403 18:41:06.634410  7264 net.cpp:156] Memory required for data: 1047659808
I0403 18:41:06.634426  7264 layer_factory.hpp:77] Creating layer inception_4c/5x5_reduce
I0403 18:41:06.634450  7264 net.cpp:91] Creating Layer inception_4c/5x5_reduce
I0403 18:41:06.634470  7264 net.cpp:425] inception_4c/5x5_reduce <- inception_4b/output_inception_4b/output_0_split_2
I0403 18:41:06.634492  7264 net.cpp:399] inception_4c/5x5_reduce -> inception_4c/5x5_reduce
I0403 18:41:06.635628  7264 net.cpp:141] Setting up inception_4c/5x5_reduce
I0403 18:41:06.635659  7264 net.cpp:148] Top shape: 24 24 14 14 (112896)
I0403 18:41:06.635678  7264 net.cpp:156] Memory required for data: 1048111392
I0403 18:41:06.635699  7264 layer_factory.hpp:77] Creating layer inception_4c/relu_5x5_reduce
I0403 18:41:06.635720  7264 net.cpp:91] Creating Layer inception_4c/relu_5x5_reduce
I0403 18:41:06.635737  7264 net.cpp:425] inception_4c/relu_5x5_reduce <- inception_4c/5x5_reduce
I0403 18:41:06.635756  7264 net.cpp:386] inception_4c/relu_5x5_reduce -> inception_4c/5x5_reduce (in-place)
I0403 18:41:06.635948  7264 net.cpp:141] Setting up inception_4c/relu_5x5_reduce
I0403 18:41:06.635974  7264 net.cpp:148] Top shape: 24 24 14 14 (112896)
I0403 18:41:06.635989  7264 net.cpp:156] Memory required for data: 1048562976
I0403 18:41:06.636006  7264 layer_factory.hpp:77] Creating layer inception_4c/5x5
I0403 18:41:06.636030  7264 net.cpp:91] Creating Layer inception_4c/5x5
I0403 18:41:06.636049  7264 net.cpp:425] inception_4c/5x5 <- inception_4c/5x5_reduce
I0403 18:41:06.636070  7264 net.cpp:399] inception_4c/5x5 -> inception_4c/5x5
I0403 18:41:06.637359  7264 net.cpp:141] Setting up inception_4c/5x5
I0403 18:41:06.637392  7264 net.cpp:148] Top shape: 24 64 14 14 (301056)
I0403 18:41:06.637411  7264 net.cpp:156] Memory required for data: 1049767200
I0403 18:41:06.637430  7264 layer_factory.hpp:77] Creating layer inception_4c/relu_5x5
I0403 18:41:06.637451  7264 net.cpp:91] Creating Layer inception_4c/relu_5x5
I0403 18:41:06.637470  7264 net.cpp:425] inception_4c/relu_5x5 <- inception_4c/5x5
I0403 18:41:06.637490  7264 net.cpp:386] inception_4c/relu_5x5 -> inception_4c/5x5 (in-place)
I0403 18:41:06.637787  7264 net.cpp:141] Setting up inception_4c/relu_5x5
I0403 18:41:06.637817  7264 net.cpp:148] Top shape: 24 64 14 14 (301056)
I0403 18:41:06.637835  7264 net.cpp:156] Memory required for data: 1050971424
I0403 18:41:06.637850  7264 layer_factory.hpp:77] Creating layer inception_4c/pool
I0403 18:41:06.637871  7264 net.cpp:91] Creating Layer inception_4c/pool
I0403 18:41:06.637887  7264 net.cpp:425] inception_4c/pool <- inception_4b/output_inception_4b/output_0_split_3
I0403 18:41:06.637907  7264 net.cpp:399] inception_4c/pool -> inception_4c/pool
I0403 18:41:06.637975  7264 net.cpp:141] Setting up inception_4c/pool
I0403 18:41:06.638000  7264 net.cpp:148] Top shape: 24 512 14 14 (2408448)
I0403 18:41:06.638015  7264 net.cpp:156] Memory required for data: 1060605216
I0403 18:41:06.638031  7264 layer_factory.hpp:77] Creating layer inception_4c/pool_proj
I0403 18:41:06.638054  7264 net.cpp:91] Creating Layer inception_4c/pool_proj
I0403 18:41:06.638073  7264 net.cpp:425] inception_4c/pool_proj <- inception_4c/pool
I0403 18:41:06.638095  7264 net.cpp:399] inception_4c/pool_proj -> inception_4c/pool_proj
I0403 18:41:06.639366  7264 net.cpp:141] Setting up inception_4c/pool_proj
I0403 18:41:06.639396  7264 net.cpp:148] Top shape: 24 64 14 14 (301056)
I0403 18:41:06.639433  7264 net.cpp:156] Memory required for data: 1061809440
I0403 18:41:06.639456  7264 layer_factory.hpp:77] Creating layer inception_4c/relu_pool_proj
I0403 18:41:06.639479  7264 net.cpp:91] Creating Layer inception_4c/relu_pool_proj
I0403 18:41:06.639497  7264 net.cpp:425] inception_4c/relu_pool_proj <- inception_4c/pool_proj
I0403 18:41:06.639515  7264 net.cpp:386] inception_4c/relu_pool_proj -> inception_4c/pool_proj (in-place)
I0403 18:41:06.639704  7264 net.cpp:141] Setting up inception_4c/relu_pool_proj
I0403 18:41:06.639732  7264 net.cpp:148] Top shape: 24 64 14 14 (301056)
I0403 18:41:06.639750  7264 net.cpp:156] Memory required for data: 1063013664
I0403 18:41:06.639765  7264 layer_factory.hpp:77] Creating layer inception_4c/output
I0403 18:41:06.639785  7264 net.cpp:91] Creating Layer inception_4c/output
I0403 18:41:06.639801  7264 net.cpp:425] inception_4c/output <- inception_4c/1x1
I0403 18:41:06.639817  7264 net.cpp:425] inception_4c/output <- inception_4c/3x3
I0403 18:41:06.639834  7264 net.cpp:425] inception_4c/output <- inception_4c/5x5
I0403 18:41:06.639853  7264 net.cpp:425] inception_4c/output <- inception_4c/pool_proj
I0403 18:41:06.639870  7264 net.cpp:399] inception_4c/output -> inception_4c/output
I0403 18:41:06.639920  7264 net.cpp:141] Setting up inception_4c/output
I0403 18:41:06.639945  7264 net.cpp:148] Top shape: 24 512 14 14 (2408448)
I0403 18:41:06.639961  7264 net.cpp:156] Memory required for data: 1072647456
I0403 18:41:06.639976  7264 layer_factory.hpp:77] Creating layer inception_4c/output_inception_4c/output_0_split
I0403 18:41:06.639993  7264 net.cpp:91] Creating Layer inception_4c/output_inception_4c/output_0_split
I0403 18:41:06.640009  7264 net.cpp:425] inception_4c/output_inception_4c/output_0_split <- inception_4c/output
I0403 18:41:06.640032  7264 net.cpp:399] inception_4c/output_inception_4c/output_0_split -> inception_4c/output_inception_4c/output_0_split_0
I0403 18:41:06.640053  7264 net.cpp:399] inception_4c/output_inception_4c/output_0_split -> inception_4c/output_inception_4c/output_0_split_1
I0403 18:41:06.640074  7264 net.cpp:399] inception_4c/output_inception_4c/output_0_split -> inception_4c/output_inception_4c/output_0_split_2
I0403 18:41:06.640094  7264 net.cpp:399] inception_4c/output_inception_4c/output_0_split -> inception_4c/output_inception_4c/output_0_split_3
I0403 18:41:06.640185  7264 net.cpp:141] Setting up inception_4c/output_inception_4c/output_0_split
I0403 18:41:06.640210  7264 net.cpp:148] Top shape: 24 512 14 14 (2408448)
I0403 18:41:06.640228  7264 net.cpp:148] Top shape: 24 512 14 14 (2408448)
I0403 18:41:06.640249  7264 net.cpp:148] Top shape: 24 512 14 14 (2408448)
I0403 18:41:06.640266  7264 net.cpp:148] Top shape: 24 512 14 14 (2408448)
I0403 18:41:06.640281  7264 net.cpp:156] Memory required for data: 1111182624
I0403 18:41:06.640297  7264 layer_factory.hpp:77] Creating layer inception_4d/1x1
I0403 18:41:06.640321  7264 net.cpp:91] Creating Layer inception_4d/1x1
I0403 18:41:06.640339  7264 net.cpp:425] inception_4d/1x1 <- inception_4c/output_inception_4c/output_0_split_0
I0403 18:41:06.640362  7264 net.cpp:399] inception_4d/1x1 -> inception_4d/1x1
I0403 18:41:06.641788  7264 net.cpp:141] Setting up inception_4d/1x1
I0403 18:41:06.641819  7264 net.cpp:148] Top shape: 24 112 14 14 (526848)
I0403 18:41:06.641839  7264 net.cpp:156] Memory required for data: 1113290016
I0403 18:41:06.641858  7264 layer_factory.hpp:77] Creating layer inception_4d/relu_1x1
I0403 18:41:06.641878  7264 net.cpp:91] Creating Layer inception_4d/relu_1x1
I0403 18:41:06.641896  7264 net.cpp:425] inception_4d/relu_1x1 <- inception_4d/1x1
I0403 18:41:06.641916  7264 net.cpp:386] inception_4d/relu_1x1 -> inception_4d/1x1 (in-place)
I0403 18:41:06.642108  7264 net.cpp:141] Setting up inception_4d/relu_1x1
I0403 18:41:06.642134  7264 net.cpp:148] Top shape: 24 112 14 14 (526848)
I0403 18:41:06.642151  7264 net.cpp:156] Memory required for data: 1115397408
I0403 18:41:06.642168  7264 layer_factory.hpp:77] Creating layer inception_4d/3x3_reduce
I0403 18:41:06.642206  7264 net.cpp:91] Creating Layer inception_4d/3x3_reduce
I0403 18:41:06.642226  7264 net.cpp:425] inception_4d/3x3_reduce <- inception_4c/output_inception_4c/output_0_split_1
I0403 18:41:06.642262  7264 net.cpp:399] inception_4d/3x3_reduce -> inception_4d/3x3_reduce
I0403 18:41:06.643893  7264 net.cpp:141] Setting up inception_4d/3x3_reduce
I0403 18:41:06.643925  7264 net.cpp:148] Top shape: 24 144 14 14 (677376)
I0403 18:41:06.643944  7264 net.cpp:156] Memory required for data: 1118106912
I0403 18:41:06.643967  7264 layer_factory.hpp:77] Creating layer inception_4d/relu_3x3_reduce
I0403 18:41:06.643990  7264 net.cpp:91] Creating Layer inception_4d/relu_3x3_reduce
I0403 18:41:06.644008  7264 net.cpp:425] inception_4d/relu_3x3_reduce <- inception_4d/3x3_reduce
I0403 18:41:06.644027  7264 net.cpp:386] inception_4d/relu_3x3_reduce -> inception_4d/3x3_reduce (in-place)
I0403 18:41:06.644337  7264 net.cpp:141] Setting up inception_4d/relu_3x3_reduce
I0403 18:41:06.644371  7264 net.cpp:148] Top shape: 24 144 14 14 (677376)
I0403 18:41:06.644389  7264 net.cpp:156] Memory required for data: 1120816416
I0403 18:41:06.644407  7264 layer_factory.hpp:77] Creating layer inception_4d/3x3
I0403 18:41:06.644428  7264 net.cpp:91] Creating Layer inception_4d/3x3
I0403 18:41:06.644448  7264 net.cpp:425] inception_4d/3x3 <- inception_4d/3x3_reduce
I0403 18:41:06.644470  7264 net.cpp:399] inception_4d/3x3 -> inception_4d/3x3
I0403 18:41:06.648905  7264 net.cpp:141] Setting up inception_4d/3x3
I0403 18:41:06.648938  7264 net.cpp:148] Top shape: 24 288 14 14 (1354752)
I0403 18:41:06.648955  7264 net.cpp:156] Memory required for data: 1126235424
I0403 18:41:06.648975  7264 layer_factory.hpp:77] Creating layer inception_4d/relu_3x3
I0403 18:41:06.648994  7264 net.cpp:91] Creating Layer inception_4d/relu_3x3
I0403 18:41:06.649013  7264 net.cpp:425] inception_4d/relu_3x3 <- inception_4d/3x3
I0403 18:41:06.649034  7264 net.cpp:386] inception_4d/relu_3x3 -> inception_4d/3x3 (in-place)
I0403 18:41:06.649224  7264 net.cpp:141] Setting up inception_4d/relu_3x3
I0403 18:41:06.649255  7264 net.cpp:148] Top shape: 24 288 14 14 (1354752)
I0403 18:41:06.649272  7264 net.cpp:156] Memory required for data: 1131654432
I0403 18:41:06.649289  7264 layer_factory.hpp:77] Creating layer inception_4d/5x5_reduce
I0403 18:41:06.649312  7264 net.cpp:91] Creating Layer inception_4d/5x5_reduce
I0403 18:41:06.649333  7264 net.cpp:425] inception_4d/5x5_reduce <- inception_4c/output_inception_4c/output_0_split_2
I0403 18:41:06.649355  7264 net.cpp:399] inception_4d/5x5_reduce -> inception_4d/5x5_reduce
I0403 18:41:06.650542  7264 net.cpp:141] Setting up inception_4d/5x5_reduce
I0403 18:41:06.650574  7264 net.cpp:148] Top shape: 24 32 14 14 (150528)
I0403 18:41:06.650593  7264 net.cpp:156] Memory required for data: 1132256544
I0403 18:41:06.650612  7264 layer_factory.hpp:77] Creating layer inception_4d/relu_5x5_reduce
I0403 18:41:06.650632  7264 net.cpp:91] Creating Layer inception_4d/relu_5x5_reduce
I0403 18:41:06.650650  7264 net.cpp:425] inception_4d/relu_5x5_reduce <- inception_4d/5x5_reduce
I0403 18:41:06.650672  7264 net.cpp:386] inception_4d/relu_5x5_reduce -> inception_4d/5x5_reduce (in-place)
I0403 18:41:06.650874  7264 net.cpp:141] Setting up inception_4d/relu_5x5_reduce
I0403 18:41:06.650902  7264 net.cpp:148] Top shape: 24 32 14 14 (150528)
I0403 18:41:06.650918  7264 net.cpp:156] Memory required for data: 1132858656
I0403 18:41:06.650933  7264 layer_factory.hpp:77] Creating layer inception_4d/5x5
I0403 18:41:06.650957  7264 net.cpp:91] Creating Layer inception_4d/5x5
I0403 18:41:06.650976  7264 net.cpp:425] inception_4d/5x5 <- inception_4d/5x5_reduce
I0403 18:41:06.650998  7264 net.cpp:399] inception_4d/5x5 -> inception_4d/5x5
I0403 18:41:06.652514  7264 net.cpp:141] Setting up inception_4d/5x5
I0403 18:41:06.652547  7264 net.cpp:148] Top shape: 24 64 14 14 (301056)
I0403 18:41:06.652565  7264 net.cpp:156] Memory required for data: 1134062880
I0403 18:41:06.652588  7264 layer_factory.hpp:77] Creating layer inception_4d/relu_5x5
I0403 18:41:06.652626  7264 net.cpp:91] Creating Layer inception_4d/relu_5x5
I0403 18:41:06.652645  7264 net.cpp:425] inception_4d/relu_5x5 <- inception_4d/5x5
I0403 18:41:06.652663  7264 net.cpp:386] inception_4d/relu_5x5 -> inception_4d/5x5 (in-place)
I0403 18:41:06.652969  7264 net.cpp:141] Setting up inception_4d/relu_5x5
I0403 18:41:06.652998  7264 net.cpp:148] Top shape: 24 64 14 14 (301056)
I0403 18:41:06.653013  7264 net.cpp:156] Memory required for data: 1135267104
I0403 18:41:06.653030  7264 layer_factory.hpp:77] Creating layer inception_4d/pool
I0403 18:41:06.653050  7264 net.cpp:91] Creating Layer inception_4d/pool
I0403 18:41:06.653069  7264 net.cpp:425] inception_4d/pool <- inception_4c/output_inception_4c/output_0_split_3
I0403 18:41:06.653089  7264 net.cpp:399] inception_4d/pool -> inception_4d/pool
I0403 18:41:06.653159  7264 net.cpp:141] Setting up inception_4d/pool
I0403 18:41:06.653184  7264 net.cpp:148] Top shape: 24 512 14 14 (2408448)
I0403 18:41:06.653200  7264 net.cpp:156] Memory required for data: 1144900896
I0403 18:41:06.653216  7264 layer_factory.hpp:77] Creating layer inception_4d/pool_proj
I0403 18:41:06.653244  7264 net.cpp:91] Creating Layer inception_4d/pool_proj
I0403 18:41:06.653264  7264 net.cpp:425] inception_4d/pool_proj <- inception_4d/pool
I0403 18:41:06.653287  7264 net.cpp:399] inception_4d/pool_proj -> inception_4d/pool_proj
I0403 18:41:06.655092  7264 net.cpp:141] Setting up inception_4d/pool_proj
I0403 18:41:06.655122  7264 net.cpp:148] Top shape: 24 64 14 14 (301056)
I0403 18:41:06.655139  7264 net.cpp:156] Memory required for data: 1146105120
I0403 18:41:06.655159  7264 layer_factory.hpp:77] Creating layer inception_4d/relu_pool_proj
I0403 18:41:06.655177  7264 net.cpp:91] Creating Layer inception_4d/relu_pool_proj
I0403 18:41:06.655194  7264 net.cpp:425] inception_4d/relu_pool_proj <- inception_4d/pool_proj
I0403 18:41:06.655215  7264 net.cpp:386] inception_4d/relu_pool_proj -> inception_4d/pool_proj (in-place)
I0403 18:41:06.655410  7264 net.cpp:141] Setting up inception_4d/relu_pool_proj
I0403 18:41:06.655436  7264 net.cpp:148] Top shape: 24 64 14 14 (301056)
I0403 18:41:06.655452  7264 net.cpp:156] Memory required for data: 1147309344
I0403 18:41:06.655467  7264 layer_factory.hpp:77] Creating layer inception_4d/output
I0403 18:41:06.655485  7264 net.cpp:91] Creating Layer inception_4d/output
I0403 18:41:06.655501  7264 net.cpp:425] inception_4d/output <- inception_4d/1x1
I0403 18:41:06.655521  7264 net.cpp:425] inception_4d/output <- inception_4d/3x3
I0403 18:41:06.655539  7264 net.cpp:425] inception_4d/output <- inception_4d/5x5
I0403 18:41:06.655557  7264 net.cpp:425] inception_4d/output <- inception_4d/pool_proj
I0403 18:41:06.655575  7264 net.cpp:399] inception_4d/output -> inception_4d/output
I0403 18:41:06.655627  7264 net.cpp:141] Setting up inception_4d/output
I0403 18:41:06.655650  7264 net.cpp:148] Top shape: 24 528 14 14 (2483712)
I0403 18:41:06.655665  7264 net.cpp:156] Memory required for data: 1157244192
I0403 18:41:06.655681  7264 layer_factory.hpp:77] Creating layer inception_4d/output_inception_4d/output_0_split
I0403 18:41:06.655699  7264 net.cpp:91] Creating Layer inception_4d/output_inception_4d/output_0_split
I0403 18:41:06.655715  7264 net.cpp:425] inception_4d/output_inception_4d/output_0_split <- inception_4d/output
I0403 18:41:06.655736  7264 net.cpp:399] inception_4d/output_inception_4d/output_0_split -> inception_4d/output_inception_4d/output_0_split_0
I0403 18:41:06.655761  7264 net.cpp:399] inception_4d/output_inception_4d/output_0_split -> inception_4d/output_inception_4d/output_0_split_1
I0403 18:41:06.655782  7264 net.cpp:399] inception_4d/output_inception_4d/output_0_split -> inception_4d/output_inception_4d/output_0_split_2
I0403 18:41:06.655805  7264 net.cpp:399] inception_4d/output_inception_4d/output_0_split -> inception_4d/output_inception_4d/output_0_split_3
I0403 18:41:06.655827  7264 net.cpp:399] inception_4d/output_inception_4d/output_0_split -> inception_4d/output_inception_4d/output_0_split_4
I0403 18:41:06.655931  7264 net.cpp:141] Setting up inception_4d/output_inception_4d/output_0_split
I0403 18:41:06.655968  7264 net.cpp:148] Top shape: 24 528 14 14 (2483712)
I0403 18:41:06.655987  7264 net.cpp:148] Top shape: 24 528 14 14 (2483712)
I0403 18:41:06.656003  7264 net.cpp:148] Top shape: 24 528 14 14 (2483712)
I0403 18:41:06.656020  7264 net.cpp:148] Top shape: 24 528 14 14 (2483712)
I0403 18:41:06.656036  7264 net.cpp:148] Top shape: 24 528 14 14 (2483712)
I0403 18:41:06.656050  7264 net.cpp:156] Memory required for data: 1206918432
I0403 18:41:06.656066  7264 layer_factory.hpp:77] Creating layer loss2/ave_pool
I0403 18:41:06.656085  7264 net.cpp:91] Creating Layer loss2/ave_pool
I0403 18:41:06.656101  7264 net.cpp:425] loss2/ave_pool <- inception_4d/output_inception_4d/output_0_split_0
I0403 18:41:06.656122  7264 net.cpp:399] loss2/ave_pool -> loss2/ave_pool
I0403 18:41:06.656450  7264 net.cpp:141] Setting up loss2/ave_pool
I0403 18:41:06.656477  7264 net.cpp:148] Top shape: 24 528 4 4 (202752)
I0403 18:41:06.656492  7264 net.cpp:156] Memory required for data: 1207729440
I0403 18:41:06.656507  7264 layer_factory.hpp:77] Creating layer loss2/conv
I0403 18:41:06.656530  7264 net.cpp:91] Creating Layer loss2/conv
I0403 18:41:06.656550  7264 net.cpp:425] loss2/conv <- loss2/ave_pool
I0403 18:41:06.656572  7264 net.cpp:399] loss2/conv -> loss2/conv
I0403 18:41:06.658524  7264 net.cpp:141] Setting up loss2/conv
I0403 18:41:06.658556  7264 net.cpp:148] Top shape: 24 128 4 4 (49152)
I0403 18:41:06.658573  7264 net.cpp:156] Memory required for data: 1207926048
I0403 18:41:06.658593  7264 layer_factory.hpp:77] Creating layer loss2/relu_conv
I0403 18:41:06.658617  7264 net.cpp:91] Creating Layer loss2/relu_conv
I0403 18:41:06.658635  7264 net.cpp:425] loss2/relu_conv <- loss2/conv
I0403 18:41:06.658656  7264 net.cpp:386] loss2/relu_conv -> loss2/conv (in-place)
I0403 18:41:06.658957  7264 net.cpp:141] Setting up loss2/relu_conv
I0403 18:41:06.658987  7264 net.cpp:148] Top shape: 24 128 4 4 (49152)
I0403 18:41:06.659003  7264 net.cpp:156] Memory required for data: 1208122656
I0403 18:41:06.659020  7264 layer_factory.hpp:77] Creating layer loss2/fc
I0403 18:41:06.659042  7264 net.cpp:91] Creating Layer loss2/fc
I0403 18:41:06.659060  7264 net.cpp:425] loss2/fc <- loss2/conv
I0403 18:41:06.659082  7264 net.cpp:399] loss2/fc -> loss2/fc
I0403 18:41:06.677739  7264 net.cpp:141] Setting up loss2/fc
I0403 18:41:06.677798  7264 net.cpp:148] Top shape: 24 1024 (24576)
I0403 18:41:06.677816  7264 net.cpp:156] Memory required for data: 1208220960
I0403 18:41:06.677837  7264 layer_factory.hpp:77] Creating layer loss2/relu_fc
I0403 18:41:06.677860  7264 net.cpp:91] Creating Layer loss2/relu_fc
I0403 18:41:06.677877  7264 net.cpp:425] loss2/relu_fc <- loss2/fc
I0403 18:41:06.677899  7264 net.cpp:386] loss2/relu_fc -> loss2/fc (in-place)
I0403 18:41:06.678244  7264 net.cpp:141] Setting up loss2/relu_fc
I0403 18:41:06.678274  7264 net.cpp:148] Top shape: 24 1024 (24576)
I0403 18:41:06.678292  7264 net.cpp:156] Memory required for data: 1208319264
I0403 18:41:06.678309  7264 layer_factory.hpp:77] Creating layer loss2/drop_fc
I0403 18:41:06.678330  7264 net.cpp:91] Creating Layer loss2/drop_fc
I0403 18:41:06.678349  7264 net.cpp:425] loss2/drop_fc <- loss2/fc
I0403 18:41:06.678371  7264 net.cpp:386] loss2/drop_fc -> loss2/fc (in-place)
I0403 18:41:06.678426  7264 net.cpp:141] Setting up loss2/drop_fc
I0403 18:41:06.678457  7264 net.cpp:148] Top shape: 24 1024 (24576)
I0403 18:41:06.678473  7264 net.cpp:156] Memory required for data: 1208417568
I0403 18:41:06.678489  7264 layer_factory.hpp:77] Creating layer loss2/classifier_plantvillage
I0403 18:41:06.678510  7264 net.cpp:91] Creating Layer loss2/classifier_plantvillage
I0403 18:41:06.678527  7264 net.cpp:425] loss2/classifier_plantvillage <- loss2/fc
I0403 18:41:06.678551  7264 net.cpp:399] loss2/classifier_plantvillage -> loss2/classifier_plantvillage
I0403 18:41:06.678992  7264 net.cpp:141] Setting up loss2/classifier_plantvillage
I0403 18:41:06.679018  7264 net.cpp:148] Top shape: 24 38 (912)
I0403 18:41:06.679056  7264 net.cpp:156] Memory required for data: 1208421216
I0403 18:41:06.679077  7264 layer_factory.hpp:77] Creating layer loss2/classifier_plantvillage_loss2/classifier_plantvillage_0_split
I0403 18:41:06.679100  7264 net.cpp:91] Creating Layer loss2/classifier_plantvillage_loss2/classifier_plantvillage_0_split
I0403 18:41:06.679117  7264 net.cpp:425] loss2/classifier_plantvillage_loss2/classifier_plantvillage_0_split <- loss2/classifier_plantvillage
I0403 18:41:06.679136  7264 net.cpp:399] loss2/classifier_plantvillage_loss2/classifier_plantvillage_0_split -> loss2/classifier_plantvillage_loss2/classifier_plantvillage_0_split_0
I0403 18:41:06.679160  7264 net.cpp:399] loss2/classifier_plantvillage_loss2/classifier_plantvillage_0_split -> loss2/classifier_plantvillage_loss2/classifier_plantvillage_0_split_1
I0403 18:41:06.679185  7264 net.cpp:399] loss2/classifier_plantvillage_loss2/classifier_plantvillage_0_split -> loss2/classifier_plantvillage_loss2/classifier_plantvillage_0_split_2
I0403 18:41:06.679275  7264 net.cpp:141] Setting up loss2/classifier_plantvillage_loss2/classifier_plantvillage_0_split
I0403 18:41:06.679301  7264 net.cpp:148] Top shape: 24 38 (912)
I0403 18:41:06.679318  7264 net.cpp:148] Top shape: 24 38 (912)
I0403 18:41:06.679335  7264 net.cpp:148] Top shape: 24 38 (912)
I0403 18:41:06.679350  7264 net.cpp:156] Memory required for data: 1208432160
I0403 18:41:06.679368  7264 layer_factory.hpp:77] Creating layer inception_4e/1x1
I0403 18:41:06.679393  7264 net.cpp:91] Creating Layer inception_4e/1x1
I0403 18:41:06.679411  7264 net.cpp:425] inception_4e/1x1 <- inception_4d/output_inception_4d/output_0_split_1
I0403 18:41:06.679431  7264 net.cpp:399] inception_4e/1x1 -> inception_4e/1x1
I0403 18:41:06.681401  7264 net.cpp:141] Setting up inception_4e/1x1
I0403 18:41:06.681434  7264 net.cpp:148] Top shape: 24 256 14 14 (1204224)
I0403 18:41:06.681455  7264 net.cpp:156] Memory required for data: 1213249056
I0403 18:41:06.681476  7264 layer_factory.hpp:77] Creating layer inception_4e/relu_1x1
I0403 18:41:06.681498  7264 net.cpp:91] Creating Layer inception_4e/relu_1x1
I0403 18:41:06.681516  7264 net.cpp:425] inception_4e/relu_1x1 <- inception_4e/1x1
I0403 18:41:06.681535  7264 net.cpp:386] inception_4e/relu_1x1 -> inception_4e/1x1 (in-place)
I0403 18:41:06.681856  7264 net.cpp:141] Setting up inception_4e/relu_1x1
I0403 18:41:06.681886  7264 net.cpp:148] Top shape: 24 256 14 14 (1204224)
I0403 18:41:06.681907  7264 net.cpp:156] Memory required for data: 1218065952
I0403 18:41:06.681926  7264 layer_factory.hpp:77] Creating layer inception_4e/3x3_reduce
I0403 18:41:06.681948  7264 net.cpp:91] Creating Layer inception_4e/3x3_reduce
I0403 18:41:06.681967  7264 net.cpp:425] inception_4e/3x3_reduce <- inception_4d/output_inception_4d/output_0_split_2
I0403 18:41:06.681989  7264 net.cpp:399] inception_4e/3x3_reduce -> inception_4e/3x3_reduce
I0403 18:41:06.684322  7264 net.cpp:141] Setting up inception_4e/3x3_reduce
I0403 18:41:06.684355  7264 net.cpp:148] Top shape: 24 160 14 14 (752640)
I0403 18:41:06.684370  7264 net.cpp:156] Memory required for data: 1221076512
I0403 18:41:06.684391  7264 layer_factory.hpp:77] Creating layer inception_4e/relu_3x3_reduce
I0403 18:41:06.684412  7264 net.cpp:91] Creating Layer inception_4e/relu_3x3_reduce
I0403 18:41:06.684432  7264 net.cpp:425] inception_4e/relu_3x3_reduce <- inception_4e/3x3_reduce
I0403 18:41:06.684450  7264 net.cpp:386] inception_4e/relu_3x3_reduce -> inception_4e/3x3_reduce (in-place)
I0403 18:41:06.684649  7264 net.cpp:141] Setting up inception_4e/relu_3x3_reduce
I0403 18:41:06.684679  7264 net.cpp:148] Top shape: 24 160 14 14 (752640)
I0403 18:41:06.684695  7264 net.cpp:156] Memory required for data: 1224087072
I0403 18:41:06.684711  7264 layer_factory.hpp:77] Creating layer inception_4e/3x3
I0403 18:41:06.684736  7264 net.cpp:91] Creating Layer inception_4e/3x3
I0403 18:41:06.684756  7264 net.cpp:425] inception_4e/3x3 <- inception_4e/3x3_reduce
I0403 18:41:06.684775  7264 net.cpp:399] inception_4e/3x3 -> inception_4e/3x3
I0403 18:41:06.690160  7264 net.cpp:141] Setting up inception_4e/3x3
I0403 18:41:06.690210  7264 net.cpp:148] Top shape: 24 320 14 14 (1505280)
I0403 18:41:06.690232  7264 net.cpp:156] Memory required for data: 1230108192
I0403 18:41:06.690259  7264 layer_factory.hpp:77] Creating layer inception_4e/relu_3x3
I0403 18:41:06.690282  7264 net.cpp:91] Creating Layer inception_4e/relu_3x3
I0403 18:41:06.690301  7264 net.cpp:425] inception_4e/relu_3x3 <- inception_4e/3x3
I0403 18:41:06.690320  7264 net.cpp:386] inception_4e/relu_3x3 -> inception_4e/3x3 (in-place)
I0403 18:41:06.690649  7264 net.cpp:141] Setting up inception_4e/relu_3x3
I0403 18:41:06.690680  7264 net.cpp:148] Top shape: 24 320 14 14 (1505280)
I0403 18:41:06.690696  7264 net.cpp:156] Memory required for data: 1236129312
I0403 18:41:06.690713  7264 layer_factory.hpp:77] Creating layer inception_4e/5x5_reduce
I0403 18:41:06.690738  7264 net.cpp:91] Creating Layer inception_4e/5x5_reduce
I0403 18:41:06.690759  7264 net.cpp:425] inception_4e/5x5_reduce <- inception_4d/output_inception_4d/output_0_split_3
I0403 18:41:06.690783  7264 net.cpp:399] inception_4e/5x5_reduce -> inception_4e/5x5_reduce
I0403 18:41:06.691938  7264 net.cpp:141] Setting up inception_4e/5x5_reduce
I0403 18:41:06.691970  7264 net.cpp:148] Top shape: 24 32 14 14 (150528)
I0403 18:41:06.691988  7264 net.cpp:156] Memory required for data: 1236731424
I0403 18:41:06.692008  7264 layer_factory.hpp:77] Creating layer inception_4e/relu_5x5_reduce
I0403 18:41:06.692031  7264 net.cpp:91] Creating Layer inception_4e/relu_5x5_reduce
I0403 18:41:06.692052  7264 net.cpp:425] inception_4e/relu_5x5_reduce <- inception_4e/5x5_reduce
I0403 18:41:06.692073  7264 net.cpp:386] inception_4e/relu_5x5_reduce -> inception_4e/5x5_reduce (in-place)
I0403 18:41:06.692402  7264 net.cpp:141] Setting up inception_4e/relu_5x5_reduce
I0403 18:41:06.692433  7264 net.cpp:148] Top shape: 24 32 14 14 (150528)
I0403 18:41:06.692451  7264 net.cpp:156] Memory required for data: 1237333536
I0403 18:41:06.692467  7264 layer_factory.hpp:77] Creating layer inception_4e/5x5
I0403 18:41:06.692510  7264 net.cpp:91] Creating Layer inception_4e/5x5
I0403 18:41:06.692534  7264 net.cpp:425] inception_4e/5x5 <- inception_4e/5x5_reduce
I0403 18:41:06.692558  7264 net.cpp:399] inception_4e/5x5 -> inception_4e/5x5
I0403 18:41:06.694532  7264 net.cpp:141] Setting up inception_4e/5x5
I0403 18:41:06.694564  7264 net.cpp:148] Top shape: 24 128 14 14 (602112)
I0403 18:41:06.694583  7264 net.cpp:156] Memory required for data: 1239741984
I0403 18:41:06.694605  7264 layer_factory.hpp:77] Creating layer inception_4e/relu_5x5
I0403 18:41:06.694629  7264 net.cpp:91] Creating Layer inception_4e/relu_5x5
I0403 18:41:06.694649  7264 net.cpp:425] inception_4e/relu_5x5 <- inception_4e/5x5
I0403 18:41:06.694669  7264 net.cpp:386] inception_4e/relu_5x5 -> inception_4e/5x5 (in-place)
I0403 18:41:06.694885  7264 net.cpp:141] Setting up inception_4e/relu_5x5
I0403 18:41:06.694916  7264 net.cpp:148] Top shape: 24 128 14 14 (602112)
I0403 18:41:06.694931  7264 net.cpp:156] Memory required for data: 1242150432
I0403 18:41:06.694947  7264 layer_factory.hpp:77] Creating layer inception_4e/pool
I0403 18:41:06.694970  7264 net.cpp:91] Creating Layer inception_4e/pool
I0403 18:41:06.694990  7264 net.cpp:425] inception_4e/pool <- inception_4d/output_inception_4d/output_0_split_4
I0403 18:41:06.695011  7264 net.cpp:399] inception_4e/pool -> inception_4e/pool
I0403 18:41:06.695089  7264 net.cpp:141] Setting up inception_4e/pool
I0403 18:41:06.695116  7264 net.cpp:148] Top shape: 24 528 14 14 (2483712)
I0403 18:41:06.695132  7264 net.cpp:156] Memory required for data: 1252085280
I0403 18:41:06.695148  7264 layer_factory.hpp:77] Creating layer inception_4e/pool_proj
I0403 18:41:06.695173  7264 net.cpp:91] Creating Layer inception_4e/pool_proj
I0403 18:41:06.695193  7264 net.cpp:425] inception_4e/pool_proj <- inception_4e/pool
I0403 18:41:06.695216  7264 net.cpp:399] inception_4e/pool_proj -> inception_4e/pool_proj
I0403 18:41:06.696830  7264 net.cpp:141] Setting up inception_4e/pool_proj
I0403 18:41:06.696874  7264 net.cpp:148] Top shape: 24 128 14 14 (602112)
I0403 18:41:06.696895  7264 net.cpp:156] Memory required for data: 1254493728
I0403 18:41:06.696916  7264 layer_factory.hpp:77] Creating layer inception_4e/relu_pool_proj
I0403 18:41:06.696938  7264 net.cpp:91] Creating Layer inception_4e/relu_pool_proj
I0403 18:41:06.696959  7264 net.cpp:425] inception_4e/relu_pool_proj <- inception_4e/pool_proj
I0403 18:41:06.696979  7264 net.cpp:386] inception_4e/relu_pool_proj -> inception_4e/pool_proj (in-place)
I0403 18:41:06.697294  7264 net.cpp:141] Setting up inception_4e/relu_pool_proj
I0403 18:41:06.697324  7264 net.cpp:148] Top shape: 24 128 14 14 (602112)
I0403 18:41:06.697340  7264 net.cpp:156] Memory required for data: 1256902176
I0403 18:41:06.697356  7264 layer_factory.hpp:77] Creating layer inception_4e/output
I0403 18:41:06.697377  7264 net.cpp:91] Creating Layer inception_4e/output
I0403 18:41:06.697393  7264 net.cpp:425] inception_4e/output <- inception_4e/1x1
I0403 18:41:06.697412  7264 net.cpp:425] inception_4e/output <- inception_4e/3x3
I0403 18:41:06.697429  7264 net.cpp:425] inception_4e/output <- inception_4e/5x5
I0403 18:41:06.697446  7264 net.cpp:425] inception_4e/output <- inception_4e/pool_proj
I0403 18:41:06.697469  7264 net.cpp:399] inception_4e/output -> inception_4e/output
I0403 18:41:06.697522  7264 net.cpp:141] Setting up inception_4e/output
I0403 18:41:06.697551  7264 net.cpp:148] Top shape: 24 832 14 14 (3913728)
I0403 18:41:06.697568  7264 net.cpp:156] Memory required for data: 1272557088
I0403 18:41:06.697584  7264 layer_factory.hpp:77] Creating layer pool4/3x3_s2
I0403 18:41:06.697604  7264 net.cpp:91] Creating Layer pool4/3x3_s2
I0403 18:41:06.697621  7264 net.cpp:425] pool4/3x3_s2 <- inception_4e/output
I0403 18:41:06.697644  7264 net.cpp:399] pool4/3x3_s2 -> pool4/3x3_s2
I0403 18:41:06.697717  7264 net.cpp:141] Setting up pool4/3x3_s2
I0403 18:41:06.697743  7264 net.cpp:148] Top shape: 24 832 7 7 (978432)
I0403 18:41:06.697759  7264 net.cpp:156] Memory required for data: 1276470816
I0403 18:41:06.697775  7264 layer_factory.hpp:77] Creating layer pool4/3x3_s2_pool4/3x3_s2_0_split
I0403 18:41:06.697799  7264 net.cpp:91] Creating Layer pool4/3x3_s2_pool4/3x3_s2_0_split
I0403 18:41:06.697819  7264 net.cpp:425] pool4/3x3_s2_pool4/3x3_s2_0_split <- pool4/3x3_s2
I0403 18:41:06.697839  7264 net.cpp:399] pool4/3x3_s2_pool4/3x3_s2_0_split -> pool4/3x3_s2_pool4/3x3_s2_0_split_0
I0403 18:41:06.697861  7264 net.cpp:399] pool4/3x3_s2_pool4/3x3_s2_0_split -> pool4/3x3_s2_pool4/3x3_s2_0_split_1
I0403 18:41:06.697883  7264 net.cpp:399] pool4/3x3_s2_pool4/3x3_s2_0_split -> pool4/3x3_s2_pool4/3x3_s2_0_split_2
I0403 18:41:06.697904  7264 net.cpp:399] pool4/3x3_s2_pool4/3x3_s2_0_split -> pool4/3x3_s2_pool4/3x3_s2_0_split_3
I0403 18:41:06.698004  7264 net.cpp:141] Setting up pool4/3x3_s2_pool4/3x3_s2_0_split
I0403 18:41:06.698030  7264 net.cpp:148] Top shape: 24 832 7 7 (978432)
I0403 18:41:06.698048  7264 net.cpp:148] Top shape: 24 832 7 7 (978432)
I0403 18:41:06.698065  7264 net.cpp:148] Top shape: 24 832 7 7 (978432)
I0403 18:41:06.698082  7264 net.cpp:148] Top shape: 24 832 7 7 (978432)
I0403 18:41:06.698098  7264 net.cpp:156] Memory required for data: 1292125728
I0403 18:41:06.698113  7264 layer_factory.hpp:77] Creating layer inception_5a/1x1
I0403 18:41:06.698137  7264 net.cpp:91] Creating Layer inception_5a/1x1
I0403 18:41:06.698158  7264 net.cpp:425] inception_5a/1x1 <- pool4/3x3_s2_pool4/3x3_s2_0_split_0
I0403 18:41:06.698181  7264 net.cpp:399] inception_5a/1x1 -> inception_5a/1x1
I0403 18:41:06.701259  7264 net.cpp:141] Setting up inception_5a/1x1
I0403 18:41:06.701293  7264 net.cpp:148] Top shape: 24 256 7 7 (301056)
I0403 18:41:06.701318  7264 net.cpp:156] Memory required for data: 1293329952
I0403 18:41:06.701340  7264 layer_factory.hpp:77] Creating layer inception_5a/relu_1x1
I0403 18:41:06.701362  7264 net.cpp:91] Creating Layer inception_5a/relu_1x1
I0403 18:41:06.701381  7264 net.cpp:425] inception_5a/relu_1x1 <- inception_5a/1x1
I0403 18:41:06.701400  7264 net.cpp:386] inception_5a/relu_1x1 -> inception_5a/1x1 (in-place)
I0403 18:41:06.701733  7264 net.cpp:141] Setting up inception_5a/relu_1x1
I0403 18:41:06.701762  7264 net.cpp:148] Top shape: 24 256 7 7 (301056)
I0403 18:41:06.701779  7264 net.cpp:156] Memory required for data: 1294534176
I0403 18:41:06.701795  7264 layer_factory.hpp:77] Creating layer inception_5a/3x3_reduce
I0403 18:41:06.701820  7264 net.cpp:91] Creating Layer inception_5a/3x3_reduce
I0403 18:41:06.701840  7264 net.cpp:425] inception_5a/3x3_reduce <- pool4/3x3_s2_pool4/3x3_s2_0_split_1
I0403 18:41:06.701864  7264 net.cpp:399] inception_5a/3x3_reduce -> inception_5a/3x3_reduce
I0403 18:41:06.704555  7264 net.cpp:141] Setting up inception_5a/3x3_reduce
I0403 18:41:06.704592  7264 net.cpp:148] Top shape: 24 160 7 7 (188160)
I0403 18:41:06.704613  7264 net.cpp:156] Memory required for data: 1295286816
I0403 18:41:06.704633  7264 layer_factory.hpp:77] Creating layer inception_5a/relu_3x3_reduce
I0403 18:41:06.704655  7264 net.cpp:91] Creating Layer inception_5a/relu_3x3_reduce
I0403 18:41:06.704674  7264 net.cpp:425] inception_5a/relu_3x3_reduce <- inception_5a/3x3_reduce
I0403 18:41:06.704696  7264 net.cpp:386] inception_5a/relu_3x3_reduce -> inception_5a/3x3_reduce (in-place)
I0403 18:41:06.704901  7264 net.cpp:141] Setting up inception_5a/relu_3x3_reduce
I0403 18:41:06.704931  7264 net.cpp:148] Top shape: 24 160 7 7 (188160)
I0403 18:41:06.704947  7264 net.cpp:156] Memory required for data: 1296039456
I0403 18:41:06.704963  7264 layer_factory.hpp:77] Creating layer inception_5a/3x3
I0403 18:41:06.704988  7264 net.cpp:91] Creating Layer inception_5a/3x3
I0403 18:41:06.705008  7264 net.cpp:425] inception_5a/3x3 <- inception_5a/3x3_reduce
I0403 18:41:06.705034  7264 net.cpp:399] inception_5a/3x3 -> inception_5a/3x3
I0403 18:41:06.710322  7264 net.cpp:141] Setting up inception_5a/3x3
I0403 18:41:06.710357  7264 net.cpp:148] Top shape: 24 320 7 7 (376320)
I0403 18:41:06.710376  7264 net.cpp:156] Memory required for data: 1297544736
I0403 18:41:06.710397  7264 layer_factory.hpp:77] Creating layer inception_5a/relu_3x3
I0403 18:41:06.710419  7264 net.cpp:91] Creating Layer inception_5a/relu_3x3
I0403 18:41:06.710440  7264 net.cpp:425] inception_5a/relu_3x3 <- inception_5a/3x3
I0403 18:41:06.710461  7264 net.cpp:386] inception_5a/relu_3x3 -> inception_5a/3x3 (in-place)
I0403 18:41:06.710767  7264 net.cpp:141] Setting up inception_5a/relu_3x3
I0403 18:41:06.710796  7264 net.cpp:148] Top shape: 24 320 7 7 (376320)
I0403 18:41:06.710813  7264 net.cpp:156] Memory required for data: 1299050016
I0403 18:41:06.710829  7264 layer_factory.hpp:77] Creating layer inception_5a/5x5_reduce
I0403 18:41:06.710853  7264 net.cpp:91] Creating Layer inception_5a/5x5_reduce
I0403 18:41:06.710872  7264 net.cpp:425] inception_5a/5x5_reduce <- pool4/3x3_s2_pool4/3x3_s2_0_split_2
I0403 18:41:06.710896  7264 net.cpp:399] inception_5a/5x5_reduce -> inception_5a/5x5_reduce
I0403 18:41:06.712128  7264 net.cpp:141] Setting up inception_5a/5x5_reduce
I0403 18:41:06.712160  7264 net.cpp:148] Top shape: 24 32 7 7 (37632)
I0403 18:41:06.712177  7264 net.cpp:156] Memory required for data: 1299200544
I0403 18:41:06.712198  7264 layer_factory.hpp:77] Creating layer inception_5a/relu_5x5_reduce
I0403 18:41:06.712221  7264 net.cpp:91] Creating Layer inception_5a/relu_5x5_reduce
I0403 18:41:06.712250  7264 net.cpp:425] inception_5a/relu_5x5_reduce <- inception_5a/5x5_reduce
I0403 18:41:06.712273  7264 net.cpp:386] inception_5a/relu_5x5_reduce -> inception_5a/5x5_reduce (in-place)
I0403 18:41:06.712600  7264 net.cpp:141] Setting up inception_5a/relu_5x5_reduce
I0403 18:41:06.712627  7264 net.cpp:148] Top shape: 24 32 7 7 (37632)
I0403 18:41:06.712643  7264 net.cpp:156] Memory required for data: 1299351072
I0403 18:41:06.712659  7264 layer_factory.hpp:77] Creating layer inception_5a/5x5
I0403 18:41:06.712682  7264 net.cpp:91] Creating Layer inception_5a/5x5
I0403 18:41:06.712702  7264 net.cpp:425] inception_5a/5x5 <- inception_5a/5x5_reduce
I0403 18:41:06.712723  7264 net.cpp:399] inception_5a/5x5 -> inception_5a/5x5
I0403 18:41:06.714514  7264 net.cpp:141] Setting up inception_5a/5x5
I0403 18:41:06.714557  7264 net.cpp:148] Top shape: 24 128 7 7 (150528)
I0403 18:41:06.714576  7264 net.cpp:156] Memory required for data: 1299953184
I0403 18:41:06.714596  7264 layer_factory.hpp:77] Creating layer inception_5a/relu_5x5
I0403 18:41:06.714617  7264 net.cpp:91] Creating Layer inception_5a/relu_5x5
I0403 18:41:06.714634  7264 net.cpp:425] inception_5a/relu_5x5 <- inception_5a/5x5
I0403 18:41:06.714654  7264 net.cpp:386] inception_5a/relu_5x5 -> inception_5a/5x5 (in-place)
I0403 18:41:06.714854  7264 net.cpp:141] Setting up inception_5a/relu_5x5
I0403 18:41:06.714879  7264 net.cpp:148] Top shape: 24 128 7 7 (150528)
I0403 18:41:06.714895  7264 net.cpp:156] Memory required for data: 1300555296
I0403 18:41:06.714910  7264 layer_factory.hpp:77] Creating layer inception_5a/pool
I0403 18:41:06.714931  7264 net.cpp:91] Creating Layer inception_5a/pool
I0403 18:41:06.714951  7264 net.cpp:425] inception_5a/pool <- pool4/3x3_s2_pool4/3x3_s2_0_split_3
I0403 18:41:06.714969  7264 net.cpp:399] inception_5a/pool -> inception_5a/pool
I0403 18:41:06.715042  7264 net.cpp:141] Setting up inception_5a/pool
I0403 18:41:06.715067  7264 net.cpp:148] Top shape: 24 832 7 7 (978432)
I0403 18:41:06.715082  7264 net.cpp:156] Memory required for data: 1304469024
I0403 18:41:06.715098  7264 layer_factory.hpp:77] Creating layer inception_5a/pool_proj
I0403 18:41:06.715121  7264 net.cpp:91] Creating Layer inception_5a/pool_proj
I0403 18:41:06.715140  7264 net.cpp:425] inception_5a/pool_proj <- inception_5a/pool
I0403 18:41:06.715162  7264 net.cpp:399] inception_5a/pool_proj -> inception_5a/pool_proj
I0403 18:41:06.717561  7264 net.cpp:141] Setting up inception_5a/pool_proj
I0403 18:41:06.717594  7264 net.cpp:148] Top shape: 24 128 7 7 (150528)
I0403 18:41:06.717612  7264 net.cpp:156] Memory required for data: 1305071136
I0403 18:41:06.717631  7264 layer_factory.hpp:77] Creating layer inception_5a/relu_pool_proj
I0403 18:41:06.717650  7264 net.cpp:91] Creating Layer inception_5a/relu_pool_proj
I0403 18:41:06.717669  7264 net.cpp:425] inception_5a/relu_pool_proj <- inception_5a/pool_proj
I0403 18:41:06.717691  7264 net.cpp:386] inception_5a/relu_pool_proj -> inception_5a/pool_proj (in-place)
I0403 18:41:06.717999  7264 net.cpp:141] Setting up inception_5a/relu_pool_proj
I0403 18:41:06.718029  7264 net.cpp:148] Top shape: 24 128 7 7 (150528)
I0403 18:41:06.718045  7264 net.cpp:156] Memory required for data: 1305673248
I0403 18:41:06.718060  7264 layer_factory.hpp:77] Creating layer inception_5a/output
I0403 18:41:06.718078  7264 net.cpp:91] Creating Layer inception_5a/output
I0403 18:41:06.718096  7264 net.cpp:425] inception_5a/output <- inception_5a/1x1
I0403 18:41:06.718112  7264 net.cpp:425] inception_5a/output <- inception_5a/3x3
I0403 18:41:06.718130  7264 net.cpp:425] inception_5a/output <- inception_5a/5x5
I0403 18:41:06.718147  7264 net.cpp:425] inception_5a/output <- inception_5a/pool_proj
I0403 18:41:06.718168  7264 net.cpp:399] inception_5a/output -> inception_5a/output
I0403 18:41:06.718219  7264 net.cpp:141] Setting up inception_5a/output
I0403 18:41:06.718250  7264 net.cpp:148] Top shape: 24 832 7 7 (978432)
I0403 18:41:06.718267  7264 net.cpp:156] Memory required for data: 1309586976
I0403 18:41:06.718283  7264 layer_factory.hpp:77] Creating layer inception_5a/output_inception_5a/output_0_split
I0403 18:41:06.718302  7264 net.cpp:91] Creating Layer inception_5a/output_inception_5a/output_0_split
I0403 18:41:06.718318  7264 net.cpp:425] inception_5a/output_inception_5a/output_0_split <- inception_5a/output
I0403 18:41:06.718336  7264 net.cpp:399] inception_5a/output_inception_5a/output_0_split -> inception_5a/output_inception_5a/output_0_split_0
I0403 18:41:06.718358  7264 net.cpp:399] inception_5a/output_inception_5a/output_0_split -> inception_5a/output_inception_5a/output_0_split_1
I0403 18:41:06.718382  7264 net.cpp:399] inception_5a/output_inception_5a/output_0_split -> inception_5a/output_inception_5a/output_0_split_2
I0403 18:41:06.718405  7264 net.cpp:399] inception_5a/output_inception_5a/output_0_split -> inception_5a/output_inception_5a/output_0_split_3
I0403 18:41:06.718523  7264 net.cpp:141] Setting up inception_5a/output_inception_5a/output_0_split
I0403 18:41:06.718549  7264 net.cpp:148] Top shape: 24 832 7 7 (978432)
I0403 18:41:06.718565  7264 net.cpp:148] Top shape: 24 832 7 7 (978432)
I0403 18:41:06.718582  7264 net.cpp:148] Top shape: 24 832 7 7 (978432)
I0403 18:41:06.718598  7264 net.cpp:148] Top shape: 24 832 7 7 (978432)
I0403 18:41:06.718613  7264 net.cpp:156] Memory required for data: 1325241888
I0403 18:41:06.718628  7264 layer_factory.hpp:77] Creating layer inception_5b/1x1
I0403 18:41:06.718652  7264 net.cpp:91] Creating Layer inception_5b/1x1
I0403 18:41:06.718670  7264 net.cpp:425] inception_5b/1x1 <- inception_5a/output_inception_5a/output_0_split_0
I0403 18:41:06.718691  7264 net.cpp:399] inception_5b/1x1 -> inception_5b/1x1
I0403 18:41:06.722595  7264 net.cpp:141] Setting up inception_5b/1x1
I0403 18:41:06.722630  7264 net.cpp:148] Top shape: 24 384 7 7 (451584)
I0403 18:41:06.722650  7264 net.cpp:156] Memory required for data: 1327048224
I0403 18:41:06.722671  7264 layer_factory.hpp:77] Creating layer inception_5b/relu_1x1
I0403 18:41:06.722688  7264 net.cpp:91] Creating Layer inception_5b/relu_1x1
I0403 18:41:06.722707  7264 net.cpp:425] inception_5b/relu_1x1 <- inception_5b/1x1
I0403 18:41:06.722728  7264 net.cpp:386] inception_5b/relu_1x1 -> inception_5b/1x1 (in-place)
I0403 18:41:06.723044  7264 net.cpp:141] Setting up inception_5b/relu_1x1
I0403 18:41:06.723073  7264 net.cpp:148] Top shape: 24 384 7 7 (451584)
I0403 18:41:06.723090  7264 net.cpp:156] Memory required for data: 1328854560
I0403 18:41:06.723105  7264 layer_factory.hpp:77] Creating layer inception_5b/3x3_reduce
I0403 18:41:06.723129  7264 net.cpp:91] Creating Layer inception_5b/3x3_reduce
I0403 18:41:06.723148  7264 net.cpp:425] inception_5b/3x3_reduce <- inception_5a/output_inception_5a/output_0_split_1
I0403 18:41:06.723170  7264 net.cpp:399] inception_5b/3x3_reduce -> inception_5b/3x3_reduce
I0403 18:41:06.725931  7264 net.cpp:141] Setting up inception_5b/3x3_reduce
I0403 18:41:06.725965  7264 net.cpp:148] Top shape: 24 192 7 7 (225792)
I0403 18:41:06.725983  7264 net.cpp:156] Memory required for data: 1329757728
I0403 18:41:06.726003  7264 layer_factory.hpp:77] Creating layer inception_5b/relu_3x3_reduce
I0403 18:41:06.726022  7264 net.cpp:91] Creating Layer inception_5b/relu_3x3_reduce
I0403 18:41:06.726040  7264 net.cpp:425] inception_5b/relu_3x3_reduce <- inception_5b/3x3_reduce
I0403 18:41:06.726061  7264 net.cpp:386] inception_5b/relu_3x3_reduce -> inception_5b/3x3_reduce (in-place)
I0403 18:41:06.726266  7264 net.cpp:141] Setting up inception_5b/relu_3x3_reduce
I0403 18:41:06.726295  7264 net.cpp:148] Top shape: 24 192 7 7 (225792)
I0403 18:41:06.726311  7264 net.cpp:156] Memory required for data: 1330660896
I0403 18:41:06.726327  7264 layer_factory.hpp:77] Creating layer inception_5b/3x3
I0403 18:41:06.726351  7264 net.cpp:91] Creating Layer inception_5b/3x3
I0403 18:41:06.726372  7264 net.cpp:425] inception_5b/3x3 <- inception_5b/3x3_reduce
I0403 18:41:06.726395  7264 net.cpp:399] inception_5b/3x3 -> inception_5b/3x3
I0403 18:41:06.733397  7264 net.cpp:141] Setting up inception_5b/3x3
I0403 18:41:06.733431  7264 net.cpp:148] Top shape: 24 384 7 7 (451584)
I0403 18:41:06.733448  7264 net.cpp:156] Memory required for data: 1332467232
I0403 18:41:06.733469  7264 layer_factory.hpp:77] Creating layer inception_5b/relu_3x3
I0403 18:41:06.733490  7264 net.cpp:91] Creating Layer inception_5b/relu_3x3
I0403 18:41:06.733510  7264 net.cpp:425] inception_5b/relu_3x3 <- inception_5b/3x3
I0403 18:41:06.733531  7264 net.cpp:386] inception_5b/relu_3x3 -> inception_5b/3x3 (in-place)
I0403 18:41:06.733844  7264 net.cpp:141] Setting up inception_5b/relu_3x3
I0403 18:41:06.733873  7264 net.cpp:148] Top shape: 24 384 7 7 (451584)
I0403 18:41:06.733889  7264 net.cpp:156] Memory required for data: 1334273568
I0403 18:41:06.733906  7264 layer_factory.hpp:77] Creating layer inception_5b/5x5_reduce
I0403 18:41:06.733947  7264 net.cpp:91] Creating Layer inception_5b/5x5_reduce
I0403 18:41:06.733968  7264 net.cpp:425] inception_5b/5x5_reduce <- inception_5a/output_inception_5a/output_0_split_2
I0403 18:41:06.733994  7264 net.cpp:399] inception_5b/5x5_reduce -> inception_5b/5x5_reduce
I0403 18:41:06.735329  7264 net.cpp:141] Setting up inception_5b/5x5_reduce
I0403 18:41:06.735360  7264 net.cpp:148] Top shape: 24 48 7 7 (56448)
I0403 18:41:06.735378  7264 net.cpp:156] Memory required for data: 1334499360
I0403 18:41:06.735399  7264 layer_factory.hpp:77] Creating layer inception_5b/relu_5x5_reduce
I0403 18:41:06.735417  7264 net.cpp:91] Creating Layer inception_5b/relu_5x5_reduce
I0403 18:41:06.735437  7264 net.cpp:425] inception_5b/relu_5x5_reduce <- inception_5b/5x5_reduce
I0403 18:41:06.735456  7264 net.cpp:386] inception_5b/relu_5x5_reduce -> inception_5b/5x5_reduce (in-place)
I0403 18:41:06.735852  7264 net.cpp:141] Setting up inception_5b/relu_5x5_reduce
I0403 18:41:06.735880  7264 net.cpp:148] Top shape: 24 48 7 7 (56448)
I0403 18:41:06.735896  7264 net.cpp:156] Memory required for data: 1334725152
I0403 18:41:06.735911  7264 layer_factory.hpp:77] Creating layer inception_5b/5x5
I0403 18:41:06.735934  7264 net.cpp:91] Creating Layer inception_5b/5x5
I0403 18:41:06.735950  7264 net.cpp:425] inception_5b/5x5 <- inception_5b/5x5_reduce
I0403 18:41:06.735970  7264 net.cpp:399] inception_5b/5x5 -> inception_5b/5x5
I0403 18:41:06.738101  7264 net.cpp:141] Setting up inception_5b/5x5
I0403 18:41:06.738132  7264 net.cpp:148] Top shape: 24 128 7 7 (150528)
I0403 18:41:06.738150  7264 net.cpp:156] Memory required for data: 1335327264
I0403 18:41:06.738171  7264 layer_factory.hpp:77] Creating layer inception_5b/relu_5x5
I0403 18:41:06.738194  7264 net.cpp:91] Creating Layer inception_5b/relu_5x5
I0403 18:41:06.738214  7264 net.cpp:425] inception_5b/relu_5x5 <- inception_5b/5x5
I0403 18:41:06.738232  7264 net.cpp:386] inception_5b/relu_5x5 -> inception_5b/5x5 (in-place)
I0403 18:41:06.738440  7264 net.cpp:141] Setting up inception_5b/relu_5x5
I0403 18:41:06.738469  7264 net.cpp:148] Top shape: 24 128 7 7 (150528)
I0403 18:41:06.738487  7264 net.cpp:156] Memory required for data: 1335929376
I0403 18:41:06.738502  7264 layer_factory.hpp:77] Creating layer inception_5b/pool
I0403 18:41:06.738520  7264 net.cpp:91] Creating Layer inception_5b/pool
I0403 18:41:06.738538  7264 net.cpp:425] inception_5b/pool <- inception_5a/output_inception_5a/output_0_split_3
I0403 18:41:06.738556  7264 net.cpp:399] inception_5b/pool -> inception_5b/pool
I0403 18:41:06.738634  7264 net.cpp:141] Setting up inception_5b/pool
I0403 18:41:06.738659  7264 net.cpp:148] Top shape: 24 832 7 7 (978432)
I0403 18:41:06.738674  7264 net.cpp:156] Memory required for data: 1339843104
I0403 18:41:06.738689  7264 layer_factory.hpp:77] Creating layer inception_5b/pool_proj
I0403 18:41:06.738713  7264 net.cpp:91] Creating Layer inception_5b/pool_proj
I0403 18:41:06.738732  7264 net.cpp:425] inception_5b/pool_proj <- inception_5b/pool
I0403 18:41:06.738754  7264 net.cpp:399] inception_5b/pool_proj -> inception_5b/pool_proj
I0403 18:41:06.741158  7264 net.cpp:141] Setting up inception_5b/pool_proj
I0403 18:41:06.741191  7264 net.cpp:148] Top shape: 24 128 7 7 (150528)
I0403 18:41:06.741209  7264 net.cpp:156] Memory required for data: 1340445216
I0403 18:41:06.741227  7264 layer_factory.hpp:77] Creating layer inception_5b/relu_pool_proj
I0403 18:41:06.741256  7264 net.cpp:91] Creating Layer inception_5b/relu_pool_proj
I0403 18:41:06.741277  7264 net.cpp:425] inception_5b/relu_pool_proj <- inception_5b/pool_proj
I0403 18:41:06.741297  7264 net.cpp:386] inception_5b/relu_pool_proj -> inception_5b/pool_proj (in-place)
I0403 18:41:06.741607  7264 net.cpp:141] Setting up inception_5b/relu_pool_proj
I0403 18:41:06.741636  7264 net.cpp:148] Top shape: 24 128 7 7 (150528)
I0403 18:41:06.741653  7264 net.cpp:156] Memory required for data: 1341047328
I0403 18:41:06.741670  7264 layer_factory.hpp:77] Creating layer inception_5b/output
I0403 18:41:06.741688  7264 net.cpp:91] Creating Layer inception_5b/output
I0403 18:41:06.741722  7264 net.cpp:425] inception_5b/output <- inception_5b/1x1
I0403 18:41:06.741742  7264 net.cpp:425] inception_5b/output <- inception_5b/3x3
I0403 18:41:06.741760  7264 net.cpp:425] inception_5b/output <- inception_5b/5x5
I0403 18:41:06.741778  7264 net.cpp:425] inception_5b/output <- inception_5b/pool_proj
I0403 18:41:06.741801  7264 net.cpp:399] inception_5b/output -> inception_5b/output
I0403 18:41:06.741855  7264 net.cpp:141] Setting up inception_5b/output
I0403 18:41:06.741885  7264 net.cpp:148] Top shape: 24 1024 7 7 (1204224)
I0403 18:41:06.741902  7264 net.cpp:156] Memory required for data: 1345864224
I0403 18:41:06.741919  7264 layer_factory.hpp:77] Creating layer pool5/7x7_s1
I0403 18:41:06.741937  7264 net.cpp:91] Creating Layer pool5/7x7_s1
I0403 18:41:06.741955  7264 net.cpp:425] pool5/7x7_s1 <- inception_5b/output
I0403 18:41:06.741978  7264 net.cpp:399] pool5/7x7_s1 -> pool5/7x7_s1
I0403 18:41:06.742204  7264 net.cpp:141] Setting up pool5/7x7_s1
I0403 18:41:06.742231  7264 net.cpp:148] Top shape: 24 1024 1 1 (24576)
I0403 18:41:06.742259  7264 net.cpp:156] Memory required for data: 1345962528
I0403 18:41:06.742279  7264 layer_factory.hpp:77] Creating layer pool5/drop_7x7_s1
I0403 18:41:06.742300  7264 net.cpp:91] Creating Layer pool5/drop_7x7_s1
I0403 18:41:06.742318  7264 net.cpp:425] pool5/drop_7x7_s1 <- pool5/7x7_s1
I0403 18:41:06.742337  7264 net.cpp:386] pool5/drop_7x7_s1 -> pool5/7x7_s1 (in-place)
I0403 18:41:06.742389  7264 net.cpp:141] Setting up pool5/drop_7x7_s1
I0403 18:41:06.742416  7264 net.cpp:148] Top shape: 24 1024 1 1 (24576)
I0403 18:41:06.742434  7264 net.cpp:156] Memory required for data: 1346060832
I0403 18:41:06.742449  7264 layer_factory.hpp:77] Creating layer loss3/classifier_plantvillage
I0403 18:41:06.742470  7264 net.cpp:91] Creating Layer loss3/classifier_plantvillage
I0403 18:41:06.742486  7264 net.cpp:425] loss3/classifier_plantvillage <- pool5/7x7_s1
I0403 18:41:06.742508  7264 net.cpp:399] loss3/classifier_plantvillage -> loss3/classifier_plantvillage
I0403 18:41:06.742954  7264 net.cpp:141] Setting up loss3/classifier_plantvillage
I0403 18:41:06.742982  7264 net.cpp:148] Top shape: 24 38 (912)
I0403 18:41:06.742998  7264 net.cpp:156] Memory required for data: 1346064480
I0403 18:41:06.743017  7264 layer_factory.hpp:77] Creating layer loss3/classifier_plantvillage_loss3/classifier_plantvillage_0_split
I0403 18:41:06.743037  7264 net.cpp:91] Creating Layer loss3/classifier_plantvillage_loss3/classifier_plantvillage_0_split
I0403 18:41:06.743054  7264 net.cpp:425] loss3/classifier_plantvillage_loss3/classifier_plantvillage_0_split <- loss3/classifier_plantvillage
I0403 18:41:06.743073  7264 net.cpp:399] loss3/classifier_plantvillage_loss3/classifier_plantvillage_0_split -> loss3/classifier_plantvillage_loss3/classifier_plantvillage_0_split_0
I0403 18:41:06.743100  7264 net.cpp:399] loss3/classifier_plantvillage_loss3/classifier_plantvillage_0_split -> loss3/classifier_plantvillage_loss3/classifier_plantvillage_0_split_1
I0403 18:41:06.743124  7264 net.cpp:399] loss3/classifier_plantvillage_loss3/classifier_plantvillage_0_split -> loss3/classifier_plantvillage_loss3/classifier_plantvillage_0_split_2
I0403 18:41:06.743145  7264 net.cpp:399] loss3/classifier_plantvillage_loss3/classifier_plantvillage_0_split -> loss3/classifier_plantvillage_loss3/classifier_plantvillage_0_split_3
I0403 18:41:06.743260  7264 net.cpp:141] Setting up loss3/classifier_plantvillage_loss3/classifier_plantvillage_0_split
I0403 18:41:06.743285  7264 net.cpp:148] Top shape: 24 38 (912)
I0403 18:41:06.743302  7264 net.cpp:148] Top shape: 24 38 (912)
I0403 18:41:06.743319  7264 net.cpp:148] Top shape: 24 38 (912)
I0403 18:41:06.743335  7264 net.cpp:148] Top shape: 24 38 (912)
I0403 18:41:06.743350  7264 net.cpp:156] Memory required for data: 1346079072
I0403 18:41:06.743366  7264 layer_factory.hpp:77] Creating layer loss1/loss
I0403 18:41:06.743391  7264 net.cpp:91] Creating Layer loss1/loss
I0403 18:41:06.743412  7264 net.cpp:425] loss1/loss <- loss1/classifier_plantvillage_loss1/classifier_plantvillage_0_split_0
I0403 18:41:06.743443  7264 net.cpp:425] loss1/loss <- label_data_1_split_0
…
