…
I0403 18:14:27.764885  6719 net.cpp:313] The NetState phase (1) differed from the phase (0) specified by a rule in layer data
I0403 18:14:27.766032  6719 net.cpp:49] Initializing net from parameters: 
state {
  phase: TEST
}
layer {
  name: "data"
  type: "Data"
  top: "data"
  top: "label"
  include {
    phase: TEST
  }
  transform_param {
    mirror: false
    crop_size: 224
    mean_file: "/home/mohanty/data/final_dataset/lmdb/grayscale-40-60/mean.binaryproto"
  }
  data_param {
    source: "/home/mohanty/data/final_dataset/lmdb/grayscale-40-60/test_db"
    batch_size: 24
    backend: LMDB
  }
}
layer {
  name: "conv1/7x7_s2"
  type: "Convolution"
  bottom: "data"
  top: "conv1/7x7_s2"
  param {
    lr_mult: 1
    decay_mult: 1
  }
  param {
    lr_mult: 2
    decay_mult: 0
  }
  convolution_param {
    num_output: 64
    pad: 3
    kernel_size: 7
    stride: 2
    weight_filler {
      type: "xavier"
      std: 0.1
    }
    bias_filler {
      type: "constant"
      value: 0.2
    }
  }
}
layer {
  name: "conv1/relu_7x7"
  type: "ReLU"
  bottom: "conv1/7x7_s2"
  top: "conv1/7x7_s2"
}
layer {
  name: "pool1/3x3_s2"
  type: "Pooling"
  bottom: "conv1/7x7_s2"
  top: "pool1/3x3_s2"
  pooling_param {
    pool: MAX
    kernel_size: 3
    stride: 2
  }
}
layer {
  name: "pool1/norm1"
  type: "LRN"
  bottom: "pool1/3x3_s2"
  top: "pool1/norm1"
  lrn_param {
    local_size: 5
    alpha: 0.0001
    beta: 0.75
  }
}
layer {
  name: "conv2/3x3_reduce"
  type: "Convolution"
  bottom: "pool1/norm1"
  top: "conv2/3x3_reduce"
  param {
    lr_mult: 1
    decay_mult: 1
  }
  param {
    lr_mult: 2
    decay_mult: 0
  }
  convolution_param {
    num_output: 64
    kernel_size: 1
    weight_filler {
      type: "xavier"
      std: 0.1
    }
    bias_filler {
      type: "constant"
      value: 0.2
    }
  }
}
layer {
  name: "conv2/relu_3x3_reduce"
  type: "ReLU"
  bottom: "conv2/3x3_reduce"
  top: "conv2/3x3_reduce"
}
layer {
  name: "conv2/3x3"
  type: "Convolution"
  bottom: "conv2/3x3_reduce"
  top: "conv2/3x3"
  param {
    lr_mult: 1
    decay_mult: 1
  }
  param {
    lr_mult: 2
    decay_mult: 0
  }
  convolution_param {
    num_output: 192
    pad: 1
    kernel_size: 3
    weight_filler {
      type: "xavier"
      std: 0.03
    }
    bias_filler {
      type: "constant"
      value: 0.2
    }
  }
}
layer {
  name: "conv2/relu_3x3"
  type: "ReLU"
  bottom: "conv2/3x3"
  top: "conv2/3x3"
}
layer {
  name: "conv2/norm2"
  type: "LRN"
  bottom: "conv2/3x3"
  top: "conv2/norm2"
  lrn_param {
    local_size: 5
    alpha: 0.0001
    beta: 0.75
  }
}
layer {
  name: "pool2/3x3_s2"
  type: "Pooling"
  bottom: "conv2/norm2"
  top: "pool2/3x3_s2"
  pooling_param {
    pool: MAX
    kernel_size: 3
    stride: 2
  }
}
layer {
  name: "inception_3a/1x1"
  type: "Convolution"
  bottom: "pool2/3x3_s2"
  top: "inception_3a/1x1"
  param {
    lr_mult: 1
    decay_mult: 1
  }
  param {
    lr_mult: 2
    decay_mult: 0
  }
  convolution_param {
    num_output: 64
    kernel_size: 1
    weight_filler {
      type: "xavier"
      std: 0.03
    }
    bias_filler {
      type: "constant"
      value: 0.2
    }
  }
}
layer {
  name: "inception_3a/relu_1x1"
  type: "ReLU"
  bottom: "inception_3a/1x1"
  top: "inception_3a/1x1"
}
layer {
  name: "inception_3a/3x3_reduce"
  type: "Convolution"
  bottom: "pool2/3x3_s2"
  top: "inception_3a/3x3_reduce"
  param {
    lr_mult: 1
    decay_mult: 1
  }
  param {
    lr_mult: 2
    decay_mult: 0
  }
  convolution_param {
    num_output: 96
    kernel_size: 1
    weight_filler {
      type: "xavier"
      std: 0.09
    }
    bias_filler {
      type: "constant"
      value: 0.2
    }
  }
}
layer {
  name: "inception_3a/relu_3x3_reduce"
  type: "ReLU"
  bottom: "inception_3a/3x3_reduce"
  top: "inception_3a/3x3_reduce"
}
layer {
  name: "inception_3a/3x3"
  type: "Convolution"
  bottom: "inception_3a/3x3_reduce"
  top: "inception_3a/3x3"
  param {
    lr_mult: 1
    decay_mult: 1
  }
  param {
    lr_mult: 2
    decay_mult: 0
  }
  convolution_param {
    num_output: 128
    pad: 1
    kernel_size: 3
    weight_filler {
      type: "xavier"
      std: 0.03
    }
    bias_filler {
      type: "constant"
      value: 0.2
    }
  }
}
layer {
  name: "inception_3a/relu_3x3"
  type: "ReLU"
  bottom: "inception_3a/3x3"
  top: "inception_3a/3x3"
}
layer {
  name: "inception_3a/5x5_reduce"
  type: "Convolution"
  bottom: "pool2/3x3_s2"
  top: "inception_3a/5x5_reduce"
  param {
    lr_mult: 1
    decay_mult: 1
  }
  param {
    lr_mult: 2
    decay_mult: 0
  }
  convolution_param {
    num_output: 16
    kernel_size: 1
    weight_filler {
      type: "xavier"
      std: 0.2
    }
    bias_filler {
      type: "constant"
      value: 0.2
    }
  }
}
layer {
  name: "inception_3a/relu_5x5_reduce"
  type: "ReLU"
  bottom: "inception_3a/5x5_reduce"
  top: "inception_3a/5x5_reduce"
}
layer {
  name: "inception_3a/5x5"
  type: "Convolution"
  bottom: "inception_3a/5x5_reduce"
  top: "inception_3a/5x5"
  param {
    lr_mult: 1
    decay_mult: 1
  }
  param {
    lr_mult: 2
    decay_mult: 0
  }
  convolution_param {
    num_output: 32
    pad: 2
    kernel_size: 5
    weight_filler {
      type: "xavier"
      std: 0.03
    }
    bias_filler {
      type: "constant"
      value: 0.2
    }
  }
}
layer {
  name: "inception_3a/relu_5x5"
  type: "ReLU"
  bottom: "inception_3a/5x5"
  top: "inception_3a/5x5"
}
layer {
  name: "inception_3a/pool"
  type: "Pooling"
  bottom: "pool2/3x3_s2"
  top: "inception_3a/pool"
  pooling_param {
    pool: MAX
    kernel_size: 3
    stride: 1
    pad: 1
  }
}
layer {
  name: "inception_3a/pool_proj"
  type: "Convolution"
  bottom: "inception_3a/pool"
  top: "inception_3a/pool_proj"
  param {
    lr_mult: 1
    decay_mult: 1
  }
  param {
    lr_mult: 2
    decay_mult: 0
  }
  convolution_param {
    num_output: 32
    kernel_size: 1
    weight_filler {
      type: "xavier"
      std: 0.1
    }
    bias_filler {
      type: "constant"
      value: 0.2
    }
  }
}
layer {
  name: "inception_3a/relu_pool_proj"
  type: "ReLU"
  bottom: "inception_3a/pool_proj"
  top: "inception_3a/pool_proj"
}
layer {
  name: "inception_3a/output"
  type: "Concat"
  bottom: "inception_3a/1x1"
  bottom: "inception_3a/3x3"
  bottom: "inception_3a/5x5"
  bottom: "inception_3a/pool_proj"
  top: "inception_3a/output"
}
layer {
  name: "inception_3b/1x1"
  type: "Convolution"
  bottom: "inception_3a/output"
  top: "inception_3b/1x1"
  param {
    lr_mult: 1
    decay_mult: 1
  }
  param {
    lr_mult: 2
    decay_mult: 0
  }
  convolution_param {
    num_output: 128
    kernel_size: 1
    weight_filler {
      type: "xavier"
      std: 0.03
    }
    bias_filler {
      type: "constant"
      value: 0.2
    }
  }
}
layer {
  name: "inception_3b/relu_1x1"
  type: "ReLU"
  bottom: "inception_3b/1x1"
  top: "inception_3b/1x1"
}
layer {
  name: "inception_3b/3x3_reduce"
  type: "Convolution"
  bottom: "inception_3a/output"
  top: "inception_3b/3x3_reduce"
  param {
    lr_mult: 1
    decay_mult: 1
  }
  param {
    lr_mult: 2
    decay_mult: 0
  }
  convolution_param {
    num_output: 128
    kernel_size: 1
    weight_filler {
      type: "xavier"
      std: 0.09
    }
    bias_filler {
      type: "constant"
      value: 0.2
    }
  }
}
layer {
  name: "inception_3b/relu_3x3_reduce"
  type: "ReLU"
  bottom: "inception_3b/3x3_reduce"
  top: "inception_3b/3x3_reduce"
}
layer {
  name: "inception_3b/3x3"
  type: "Convolution"
  bottom: "inception_3b/3x3_reduce"
  top: "inception_3b/3x3"
  param {
    lr_mult: 1
    decay_mult: 1
  }
  param {
    lr_mult: 2
    decay_mult: 0
  }
  convolution_param {
    num_output: 192
    pad: 1
    kernel_size: 3
    weight_filler {
      type: "xavier"
      std: 0.03
    }
    bias_filler {
      type: "constant"
      value: 0.2
    }
  }
}
layer {
  name: "inception_3b/relu_3x3"
  type: "ReLU"
  bottom: "inception_3b/3x3"
  top: "inception_3b/3x3"
}
layer {
  name: "inception_3b/5x5_reduce"
  type: "Convolution"
  bottom: "inception_3a/output"
  top: "inception_3b/5x5_reduce"
  param {
    lr_mult: 1
    decay_mult: 1
  }
  param {
    lr_mult: 2
    decay_mult: 0
  }
  convolution_param {
    num_output: 32
    kernel_size: 1
    weight_filler {
      type: "xavier"
      std: 0.2
    }
    bias_filler {
      type: "constant"
      value: 0.2
    }
  }
}
layer {
  name: "inception_3b/relu_5x5_reduce"
  type: "ReLU"
  bottom: "inception_3b/5x5_reduce"
  top: "inception_3b/5x5_reduce"
}
layer {
  name: "inception_3b/5x5"
  type: "Convolution"
  bottom: "inception_3b/5x5_reduce"
  top: "inception_3b/5x5"
  param {
    lr_mult: 1
    decay_mult: 1
  }
  param {
    lr_mult: 2
    decay_mult: 0
  }
  convolution_param {
    num_output: 96
    pad: 2
    kernel_size: 5
    weight_filler {
      type: "xavier"
      std: 0.03
    }
    bias_filler {
      type: "constant"
      value: 0.2
    }
  }
}
layer {
  name: "inception_3b/relu_5x5"
  type: "ReLU"
  bottom: "inception_3b/5x5"
  top: "inception_3b/5x5"
}
layer {
  name: "inception_3b/pool"
  type: "Pooling"
  bottom: "inception_3a/output"
  top: "inception_3b/pool"
  pooling_param {
    pool: MAX
    kernel_size: 3
    stride: 1
    pad: 1
  }
}
layer {
  name: "inception_3b/pool_proj"
  type: "Convolution"
  bottom: "inception_3b/pool"
  top: "inception_3b/pool_proj"
  param {
    lr_mult: 1
    decay_mult: 1
  }
  param {
    lr_mult: 2
    decay_mult: 0
  }
  convolution_param {
    num_output: 64
    kernel_size: 1
    weight_filler {
      type: "xavier"
      std: 0.1
    }
    bias_filler {
      type: "constant"
      value: 0.2
    }
  }
}
layer {
  name: "inception_3b/relu_pool_proj"
  type: "ReLU"
  bottom: "inception_3b/pool_proj"
  top: "inception_3b/pool_proj"
}
layer {
  name: "inception_3b/output"
  type: "Concat"
  bottom: "inception_3b/1x1"
  bottom: "inception_3b/3x3"
  bottom: "inception_3b/5x5"
  bottom: "inception_3b/pool_proj"
  top: "inception_3b/output"
}
layer {
  name: "pool3/3x3_s2"
  type: "Pooling"
  bottom: "inception_3b/output"
  top: "pool3/3x3_s2"
  pooling_param {
    pool: MAX
    kernel_size: 3
    stride: 2
  }
}
layer {
  name: "inception_4a/1x1"
  type: "Convolution"
  bottom: "pool3/3x3_s2"
  top: "inception_4a/1x1"
  param {
    lr_mult: 1
    decay_mult: 1
  }
  param {
    lr_mult: 2
    decay_mult: 0
  }
  convolution_param {
    num_output: 192
    kernel_size: 1
    weight_filler {
      type: "xavier"
      std: 0.03
    }
    bias_filler {
      type: "constant"
      value: 0.2
    }
  }
}
layer {
  name: "inception_4a/relu_1x1"
  type: "ReLU"
  bottom: "inception_4a/1x1"
  top: "inception_4a/1x1"
}
layer {
  name: "inception_4a/3x3_reduce"
  type: "Convolution"
  bottom: "pool3/3x3_s2"
  top: "inception_4a/3x3_reduce"
  param {
    lr_mult: 1
    decay_mult: 1
  }
  param {
    lr_mult: 2
    decay_mult: 0
  }
  convolution_param {
    num_output: 96
    kernel_size: 1
    weight_filler {
      type: "xavier"
      std: 0.09
    }
    bias_filler {
      type: "constant"
      value: 0.2
    }
  }
}
layer {
  name: "inception_4a/relu_3x3_reduce"
  type: "ReLU"
  bottom: "inception_4a/3x3_reduce"
  top: "inception_4a/3x3_reduce"
}
layer {
  name: "inception_4a/3x3"
  type: "Convolution"
  bottom: "inception_4a/3x3_reduce"
  top: "inception_4a/3x3"
  param {
    lr_mult: 1
    decay_mult: 1
  }
  param {
    lr_mult: 2
    decay_mult: 0
  }
  convolution_param {
    num_output: 208
    pad: 1
    kernel_size: 3
    weight_filler {
      type: "xavier"
      std: 0.03
    }
    bias_filler {
      type: "constant"
      value: 0.2
    }
  }
}
layer {
  name: "inception_4a/relu_3x3"
  type: "ReLU"
  bottom: "inception_4a/3x3"
  top: "inception_4a/3x3"
}
layer {
  name: "inception_4a/5x5_reduce"
  type: "Convolution"
  bottom: "pool3/3x3_s2"
  top: "inception_4a/5x5_reduce"
  param {
    lr_mult: 1
    decay_mult: 1
  }
  param {
    lr_mult: 2
    decay_mult: 0
  }
  convolution_param {
    num_output: 16
    kernel_size: 1
    weight_filler {
      type: "xavier"
      std: 0.2
    }
    bias_filler {
      type: "constant"
      value: 0.2
    }
  }
}
layer {
  name: "inception_4a/relu_5x5_reduce"
  type: "ReLU"
  bottom: "inception_4a/5x5_reduce"
  top: "inception_4a/5x5_reduce"
}
layer {
  name: "inception_4a/5x5"
  type: "Convolution"
  bottom: "inception_4a/5x5_reduce"
  top: "inception_4a/5x5"
  param {
    lr_mult: 1
    decay_mult: 1
  }
  param {
    lr_mult: 2
    decay_mult: 0
  }
  convolution_param {
    num_output: 48
    pad: 2
    kernel_size: 5
    weight_filler {
      type: "xavier"
      std: 0.03
    }
    bias_filler {
      type: "constant"
      value: 0.2
    }
  }
}
layer {
  name: "inception_4a/relu_5x5"
  type: "ReLU"
  bottom: "inception_4a/5x5"
  top: "inception_4a/5x5"
}
layer {
  name: "inception_4a/pool"
  type: "Pooling"
  bottom: "pool3/3x3_s2"
  top: "inception_4a/pool"
  pooling_param {
    pool: MAX
    kernel_size: 3
    stride: 1
    pad: 1
  }
}
layer {
  name: "inception_4a/pool_proj"
  type: "Convolution"
  bottom: "inception_4a/pool"
  top: "inception_4a/pool_proj"
  param {
    lr_mult: 1
    decay_mult: 1
  }
  param {
    lr_mult: 2
    decay_mult: 0
  }
  convolution_param {
    num_output: 64
    kernel_size: 1
    weight_filler {
      type: "xavier"
      std: 0.1
    }
    bias_filler {
      type: "constant"
      value: 0.2
    }
  }
}
layer {
  name: "inception_4a/relu_pool_proj"
  type: "ReLU"
  bottom: "inception_4a/pool_proj"
  top: "inception_4a/pool_proj"
}
layer {
  name: "inception_4a/output"
  type: "Concat"
  bottom: "inception_4a/1x1"
  bottom: "inception_4a/3x3"
  bottom: "inception_4a/5x5"
  bottom: "inception_4a/pool_proj"
  top: "inception_4a/output"
}
layer {
  name: "loss1/ave_pool"
  type: "Pooling"
  bottom: "inception_4a/output"
  top: "loss1/ave_pool"
  pooling_param {
    pool: AVE
    kernel_size: 5
    stride: 3
  }
}
layer {
  name: "loss1/conv"
  type: "Convolution"
  bottom: "loss1/ave_pool"
  top: "loss1/conv"
  param {
    lr_mult: 1
    decay_mult: 1
  }
  param {
    lr_mult: 2
    decay_mult: 0
  }
  convolution_param {
    num_output: 128
    kernel_size: 1
    weight_filler {
      type: "xavier"
      std: 0.08
    }
    bias_filler {
      type: "constant"
      value: 0.2
    }
  }
}
layer {
  name: "loss1/relu_conv"
  type: "ReLU"
  bottom: "loss1/conv"
  top: "loss1/conv"
}
layer {
  name: "loss1/fc"
  type: "InnerProduct"
  bottom: "loss1/conv"
  top: "loss1/fc"
  param {
    lr_mult: 1
    decay_mult: 1
  }
  param {
    lr_mult: 2
    decay_mult: 0
  }
  inner_product_param {
    num_output: 1024
    weight_filler {
      type: "xavier"
      std: 0.02
    }
    bias_filler {
      type: "constant"
      value: 0.2
    }
  }
}
layer {
  name: "loss1/relu_fc"
  type: "ReLU"
  bottom: "loss1/fc"
  top: "loss1/fc"
}
layer {
  name: "loss1/drop_fc"
  type: "Dropout"
  bottom: "loss1/fc"
  top: "loss1/fc"
  dropout_param {
    dropout_ratio: 0.7
  }
}
layer {
  name: "loss1/classifier_plantvillage"
  type: "InnerProduct"
  bottom: "loss1/fc"
  top: "loss1/classifier_plantvillage"
  param {
    lr_mult: 1
    decay_mult: 1
  }
  param {
    lr_mult: 2
    decay_mult: 0
  }
  inner_product_param {
    num_output: 38
    weight_filler {
      type: "xavier"
      std: 0.0009765625
    }
    bias_filler {
      type: "constant"
      value: 0
    }
  }
}
layer {
  name: "inception_4b/1x1"
  type: "Convolution"
  bottom: "inception_4a/output"
  top: "inception_4b/1x1"
  param {
    lr_mult: 1
    decay_mult: 1
  }
  param {
    lr_mult: 2
    decay_mult: 0
  }
  convolution_param {
    num_output: 160
    kernel_size: 1
    weight_filler {
      type: "xavier"
      std: 0.03
    }
    bias_filler {
      type: "constant"
      value: 0.2
    }
  }
}
layer {
  name: "inception_4b/relu_1x1"
  type: "ReLU"
  bottom: "inception_4b/1x1"
  top: "inception_4b/1x1"
}
layer {
  name: "inception_4b/3x3_reduce"
  type: "Convolution"
  bottom: "inception_4a/output"
  top: "inception_4b/3x3_reduce"
  param {
    lr_mult: 1
    decay_mult: 1
  }
  param {
    lr_mult: 2
    decay_mult: 0
  }
  convolution_param {
    num_output: 112
    kernel_size: 1
    weight_filler {
      type: "xavier"
      std: 0.09
    }
    bias_filler {
      type: "constant"
      value: 0.2
    }
  }
}
layer {
  name: "inception_4b/relu_3x3_reduce"
  type: "ReLU"
  bottom: "inception_4b/3x3_reduce"
  top: "inception_4b/3x3_reduce"
}
layer {
  name: "inception_4b/3x3"
  type: "Convolution"
  bottom: "inception_4b/3x3_reduce"
  top: "inception_4b/3x3"
  param {
    lr_mult: 1
    decay_mult: 1
  }
  param {
    lr_mult: 2
    decay_mult: 0
  }
  convolution_param {
    num_output: 224
    pad: 1
    kernel_size: 3
    weight_filler {
      type: "xavier"
      std: 0.03
    }
    bias_filler {
      type: "constant"
      value: 0.2
    }
  }
}
layer {
  name: "inception_4b/relu_3x3"
  type: "ReLU"
  bottom: "inception_4b/3x3"
  top: "inception_4b/3x3"
}
layer {
  name: "inception_4b/5x5_reduce"
  type: "Convolution"
  bottom: "inception_4a/output"
  top: "inception_4b/5x5_reduce"
  param {
    lr_mult: 1
    decay_mult: 1
  }
  param {
    lr_mult: 2
    decay_mult: 0
  }
  convolution_param {
    num_output: 24
    kernel_size: 1
    weight_filler {
      type: "xavier"
      std: 0.2
    }
    bias_filler {
      type: "constant"
      value: 0.2
    }
  }
}
layer {
  name: "inception_4b/relu_5x5_reduce"
  type: "ReLU"
  bottom: "inception_4b/5x5_reduce"
  top: "inception_4b/5x5_reduce"
}
layer {
  name: "inception_4b/5x5"
  type: "Convolution"
  bottom: "inception_4b/5x5_reduce"
  top: "inception_4b/5x5"
  param {
    lr_mult: 1
    decay_mult: 1
  }
  param {
    lr_mult: 2
    decay_mult: 0
  }
  convolution_param {
    num_output: 64
    pad: 2
    kernel_size: 5
    weight_filler {
      type: "xavier"
      std: 0.03
    }
    bias_filler {
      type: "constant"
      value: 0.2
    }
  }
}
layer {
  name: "inception_4b/relu_5x5"
  type: "ReLU"
  bottom: "inception_4b/5x5"
  top: "inception_4b/5x5"
}
layer {
  name: "inception_4b/pool"
  type: "Pooling"
  bottom: "inception_4a/output"
  top: "inception_4b/pool"
  pooling_param {
    pool: MAX
    kernel_size: 3
    stride: 1
    pad: 1
  }
}
layer {
  name: "inception_4b/pool_proj"
  type: "Convolution"
  bottom: "inception_4b/pool"
  top: "inception_4b/pool_proj"
  param {
    lr_mult: 1
    decay_mult: 1
  }
  param {
    lr_mult: 2
    decay_mult: 0
  }
  convolution_param {
    num_output: 64
    kernel_size: 1
    weight_filler {
      type: "xavier"
      std: 0.1
    }
    bias_filler {
      type: "constant"
      value: 0.2
    }
  }
}
layer {
  name: "inception_4b/relu_pool_proj"
  type: "ReLU"
  bottom: "inception_4b/pool_proj"
  top: "inception_4b/pool_proj"
}
layer {
  name: "inception_4b/output"
  type: "Concat"
  bottom: "inception_4b/1x1"
  bottom: "inception_4b/3x3"
  bottom: "inception_4b/5x5"
  bottom: "inception_4b/pool_proj"
  top: "inception_4b/output"
}
layer {
  name: "inception_4c/1x1"
  type: "Convolution"
  bottom: "inception_4b/output"
  top: "inception_4c/1x1"
  param {
    lr_mult: 1
    decay_mult: 1
  }
  param {
    lr_mult: 2
    decay_mult: 0
  }
  convolution_param {
    num_output: 128
    kernel_size: 1
    weight_filler {
      type: "xavier"
      std: 0.03
    }
    bias_filler {
      type: "constant"
      value: 0.2
    }
  }
}
layer {
  name: "inception_4c/relu_1x1"
  type: "ReLU"
  bottom: "inception_4c/1x1"
  top: "inception_4c/1x1"
}
layer {
  name: "inception_4c/3x3_reduce"
  type: "Convolution"
  bottom: "inception_4b/output"
  top: "inception_4c/3x3_reduce"
  param {
    lr_mult: 1
    decay_mult: 1
  }
  param {
    lr_mult: 2
    decay_mult: 0
  }
  convolution_param {
    num_output: 128
    kernel_size: 1
    weight_filler {
      type: "xavier"
      std: 0.09
    }
    bias_filler {
      type: "constant"
      value: 0.2
    }
  }
}
layer {
  name: "inception_4c/relu_3x3_reduce"
  type: "ReLU"
  bottom: "inception_4c/3x3_reduce"
  top: "inception_4c/3x3_reduce"
}
layer {
  name: "inception_4c/3x3"
  type: "Convolution"
  bottom: "inception_4c/3x3_reduce"
  top: "inception_4c/3x3"
  param {
    lr_mult: 1
    decay_mult: 1
  }
  param {
    lr_mult: 2
    decay_mult: 0
  }
  convolution_param {
    num_output: 256
    pad: 1
    kernel_size: 3
    weight_filler {
      type: "xavier"
      std: 0.03
    }
    bias_filler {
      type: "constant"
      value: 0.2
    }
  }
}
layer {
  name: "inception_4c/relu_3x3"
  type: "ReLU"
  bottom: "inception_4c/3x3"
  top: "inception_4c/3x3"
}
layer {
  name: "inception_4c/5x5_reduce"
  type: "Convolution"
  bottom: "inception_4b/output"
  top: "inception_4c/5x5_reduce"
  param {
    lr_mult: 1
    decay_mult: 1
  }
  param {
    lr_mult: 2
    decay_mult: 0
  }
  convolution_param {
    num_output: 24
    kernel_size: 1
    weight_filler {
      type: "xavier"
      std: 0.2
    }
    bias_filler {
      type: "constant"
      value: 0.2
    }
  }
}
layer {
  name: "inception_4c/relu_5x5_reduce"
  type: "ReLU"
  bottom: "inception_4c/5x5_reduce"
  top: "inception_4c/5x5_reduce"
}
layer {
  name: "inception_4c/5x5"
  type: "Convolution"
  bottom: "inception_4c/5x5_reduce"
  top: "inception_4c/5x5"
  param {
    lr_mult: 1
    decay_mult: 1
  }
  param {
    lr_mult: 2
    decay_mult: 0
  }
  convolution_param {
    num_output: 64
    pad: 2
    kernel_size: 5
    weight_filler {
      type: "xavier"
      std: 0.03
    }
    bias_filler {
      type: "constant"
      value: 0.2
    }
  }
}
layer {
  name: "inception_4c/relu_5x5"
  type: "ReLU"
  bottom: "inception_4c/5x5"
  top: "inception_4c/5x5"
}
layer {
  name: "inception_4c/pool"
  type: "Pooling"
  bottom: "inception_4b/output"
  top: "inception_4c/pool"
  pooling_param {
    pool: MAX
    kernel_size: 3
    stride: 1
    pad: 1
  }
}
layer {
  name: "inception_4c/pool_proj"
  type: "Convolution"
  bottom: "inception_4c/pool"
  top: "inception_4c/pool_proj"
  param {
    lr_mult: 1
    decay_mult: 1
  }
  param {
    lr_mult: 2
    decay_mult: 0
  }
  convolution_param {
    num_output: 64
    kernel_size: 1
    weight_filler {
      type: "xavier"
      std: 0.1
    }
    bias_filler {
      type: "constant"
      value: 0.2
    }
  }
}
layer {
  name: "inception_4c/relu_pool_proj"
  type: "ReLU"
  bottom: "inception_4c/pool_proj"
  top: "inception_4c/pool_proj"
}
layer {
  name: "inception_4c/output"
  type: "Concat"
  bottom: "inception_4c/1x1"
  bottom: "inception_4c/3x3"
  bottom: "inception_4c/5x5"
  bottom: "inception_4c/pool_proj"
  top: "inception_4c/output"
}
layer {
  name: "inception_4d/1x1"
  type: "Convolution"
  bottom: "inception_4c/output"
  top: "inception_4d/1x1"
  param {
    lr_mult: 1
    decay_mult: 1
  }
  param {
    lr_mult: 2
    decay_mult: 0
  }
  convolution_param {
    num_output: 112
    kernel_size: 1
    weight_filler {
      type: "xavier"
      std: 0.03
    }
    bias_filler {
      type: "constant"
      value: 0.2
    }
  }
}
layer {
  name: "inception_4d/relu_1x1"
  type: "ReLU"
  bottom: "inception_4d/1x1"
  top: "inception_4d/1x1"
}
layer {
  name: "inception_4d/3x3_reduce"
  type: "Convolution"
  bottom: "inception_4c/output"
  top: "inception_4d/3x3_reduce"
  param {
    lr_mult: 1
    decay_mult: 1
  }
  param {
    lr_mult: 2
    decay_mult: 0
  }
  convolution_param {
    num_output: 144
    kernel_size: 1
    weight_filler {
      type: "xavier"
      std: 0.09
    }
    bias_filler {
      type: "constant"
      value: 0.2
    }
  }
}
layer {
  name: "inception_4d/relu_3x3_reduce"
  type: "ReLU"
  bottom: "inception_4d/3x3_reduce"
  top: "inception_4d/3x3_reduce"
}
layer {
  name: "inception_4d/3x3"
  type: "Convolution"
  bottom: "inception_4d/3x3_reduce"
  top: "inception_4d/3x3"
  param {
    lr_mult: 1
    decay_mult: 1
  }
  param {
    lr_mult: 2
    decay_mult: 0
  }
  convolution_param {
    num_output: 288
    pad: 1
    kernel_size: 3
    weight_filler {
      type: "xavier"
      std: 0.03
    }
    bias_filler {
      type: "constant"
      value: 0.2
    }
  }
}
layer {
  name: "inception_4d/relu_3x3"
  type: "ReLU"
  bottom: "inception_4d/3x3"
  top: "inception_4d/3x3"
}
layer {
  name: "inception_4d/5x5_reduce"
  type: "Convolution"
  bottom: "inception_4c/output"
  top: "inception_4d/5x5_reduce"
  param {
    lr_mult: 1
    decay_mult: 1
  }
  param {
    lr_mult: 2
    decay_mult: 0
  }
  convolution_param {
    num_output: 32
    kernel_size: 1
    weight_filler {
      type: "xavier"
      std: 0.2
    }
    bias_filler {
      type: "constant"
      value: 0.2
    }
  }
}
layer {
  name: "inception_4d/relu_5x5_reduce"
  type: "ReLU"
  bottom: "inception_4d/5x5_reduce"
  top: "inception_4d/5x5_reduce"
}
layer {
  name: "inception_4d/5x5"
  type: "Convolution"
  bottom: "inception_4d/5x5_reduce"
  top: "inception_4d/5x5"
  param {
    lr_mult: 1
    decay_mult: 1
  }
  param {
    lr_mult: 2
    decay_mult: 0
  }
  convolution_param {
    num_output: 64
    pad: 2
    kernel_size: 5
    weight_filler {
      type: "xavier"
      std: 0.03
    }
    bias_filler {
      type: "constant"
      value: 0.2
    }
  }
}
layer {
  name: "inception_4d/relu_5x5"
  type: "ReLU"
  bottom: "inception_4d/5x5"
  top: "inception_4d/5x5"
}
layer {
  name: "inception_4d/pool"
  type: "Pooling"
  bottom: "inception_4c/output"
  top: "inception_4d/pool"
  pooling_param {
    pool: MAX
    kernel_size: 3
    stride: 1
    pad: 1
  }
}
layer {
  name: "inception_4d/pool_proj"
  type: "Convolution"
  bottom: "inception_4d/pool"
  top: "inception_4d/pool_proj"
  param {
    lr_mult: 1
    decay_mult: 1
  }
  param {
    lr_mult: 2
    decay_mult: 0
  }
  convolution_param {
    num_output: 64
    kernel_size: 1
    weight_filler {
      type: "xavier"
      std: 0.1
    }
    bias_filler {
      type: "constant"
      value: 0.2
    }
  }
}
layer {
  name: "inception_4d/relu_pool_proj"
  type: "ReLU"
  bottom: "inception_4d/pool_proj"
  top: "inception_4d/pool_proj"
}
layer {
  name: "inception_4d/output"
  type: "Concat"
  bottom: "inception_4d/1x1"
  bottom: "inception_4d/3x3"
  bottom: "inception_4d/5x5"
  bottom: "inception_4d/pool_proj"
  top: "inception_4d/output"
}
layer {
  name: "loss2/ave_pool"
  type: "Pooling"
  bottom: "inception_4d/output"
  top: "loss2/ave_pool"
  pooling_param {
    pool: AVE
    kernel_size: 5
    stride: 3
  }
}
layer {
  name: "loss2/conv"
  type: "Convolution"
  bottom: "loss2/ave_pool"
  top: "loss2/conv"
  param {
    lr_mult: 1
    decay_mult: 1
  }
  param {
    lr_mult: 2
    decay_mult: 0
  }
  convolution_param {
    num_output: 128
    kernel_size: 1
    weight_filler {
      type: "xavier"
      std: 0.08
    }
    bias_filler {
      type: "constant"
      value: 0.2
    }
  }
}
layer {
  name: "loss2/relu_conv"
  type: "ReLU"
  bottom: "loss2/conv"
  top: "loss2/conv"
}
layer {
  name: "loss2/fc"
  type: "InnerProduct"
  bottom: "loss2/conv"
  top: "loss2/fc"
  param {
    lr_mult: 1
    decay_mult: 1
  }
  param {
    lr_mult: 2
    decay_mult: 0
  }
  inner_product_param {
    num_output: 1024
    weight_filler {
      type: "xavier"
      std: 0.02
    }
    bias_filler {
      type: "constant"
      value: 0.2
    }
  }
}
layer {
  name: "loss2/relu_fc"
  type: "ReLU"
  bottom: "loss2/fc"
  top: "loss2/fc"
}
layer {
  name: "loss2/drop_fc"
  type: "Dropout"
  bottom: "loss2/fc"
  top: "loss2/fc"
  dropout_param {
    dropout_ratio: 0.7
  }
}
layer {
  name: "loss2/classifier_plantvillage"
  type: "InnerProduct"
  bottom: "loss2/fc"
  top: "loss2/classifier_plantvillage"
  param {
    lr_mult: 1
    decay_mult: 1
  }
  param {
    lr_mult: 2
    decay_mult: 0
  }
  inner_product_param {
    num_output: 38
    weight_filler {
      type: "xavier"
      std: 0.0009765625
    }
    bias_filler {
      type: "constant"
      value: 0
    }
  }
}
layer {
  name: "inception_4e/1x1"
  type: "Convolution"
  bottom: "inception_4d/output"
  top: "inception_4e/1x1"
  param {
    lr_mult: 1
    decay_mult: 1
  }
  param {
    lr_mult: 2
    decay_mult: 0
  }
  convolution_param {
    num_output: 256
    kernel_size: 1
    weight_filler {
      type: "xavier"
      std: 0.03
    }
    bias_filler {
      type: "constant"
      value: 0.2
    }
  }
}
layer {
  name: "inception_4e/relu_1x1"
  type: "ReLU"
  bottom: "inception_4e/1x1"
  top: "inception_4e/1x1"
}
layer {
  name: "inception_4e/3x3_reduce"
  type: "Convolution"
  bottom: "inception_4d/output"
  top: "inception_4e/3x3_reduce"
  param {
    lr_mult: 1
    decay_mult: 1
  }
  param {
    lr_mult: 2
    decay_mult: 0
  }
  convolution_param {
    num_output: 160
    kernel_size: 1
    weight_filler {
      type: "xavier"
      std: 0.09
    }
    bias_filler {
      type: "constant"
      value: 0.2
    }
  }
}
layer {
  name: "inception_4e/relu_3x3_reduce"
  type: "ReLU"
  bottom: "inception_4e/3x3_reduce"
  top: "inception_4e/3x3_reduce"
}
layer {
  name: "inception_4e/3x3"
  type: "Convolution"
  bottom: "inception_4e/3x3_reduce"
  top: "inception_4e/3x3"
  param {
    lr_mult: 1
    decay_mult: 1
  }
  param {
    lr_mult: 2
    decay_mult: 0
  }
  convolution_param {
    num_output: 320
    pad: 1
    kernel_size: 3
    weight_filler {
      type: "xavier"
      std: 0.03
    }
    bias_filler {
      type: "constant"
      value: 0.2
    }
  }
}
layer {
  name: "inception_4e/relu_3x3"
  type: "ReLU"
  bottom: "inception_4e/3x3"
  top: "inception_4e/3x3"
}
layer {
  name: "inception_4e/5x5_reduce"
  type: "Convolution"
  bottom: "inception_4d/output"
  top: "inception_4e/5x5_reduce"
  param {
    lr_mult: 1
    decay_mult: 1
  }
  param {
    lr_mult: 2
    decay_mult: 0
  }
  convolution_param {
    num_output: 32
    kernel_size: 1
    weight_filler {
      type: "xavier"
      std: 0.2
    }
    bias_filler {
      type: "constant"
      value: 0.2
    }
  }
}
layer {
  name: "inception_4e/relu_5x5_reduce"
  type: "ReLU"
  bottom: "inception_4e/5x5_reduce"
  top: "inception_4e/5x5_reduce"
}
layer {
  name: "inception_4e/5x5"
  type: "Convolution"
  bottom: "inception_4e/5x5_reduce"
  top: "inception_4e/
I0403 18:14:27.767654  6719 layer_factory.hpp:77] Creating layer data
I0403 18:14:27.768231  6719 net.cpp:91] Creating Layer data
I0403 18:14:27.768272  6719 net.cpp:399] data -> data
I0403 18:14:27.768322  6719 net.cpp:399] data -> label
I0403 18:14:27.768357  6719 data_transformer.cpp:25] Loading mean file from: /home/mohanty/data/final_dataset/lmdb/grayscale-40-60/mean.binaryproto
I0403 18:14:27.769397  6724 db_lmdb.cpp:38] Opened lmdb /home/mohanty/data/final_dataset/lmdb/grayscale-40-60/test_db
I0403 18:14:27.781672  6719 data_layer.cpp:41] output data size: 24,3,224,224
I0403 18:14:27.810223  6719 net.cpp:141] Setting up data
I0403 18:14:27.810364  6719 net.cpp:148] Top shape: 24 3 224 224 (3612672)
I0403 18:14:27.810386  6719 net.cpp:148] Top shape: 24 (24)
I0403 18:14:27.810400  6719 net.cpp:156] Memory required for data: 14450784
I0403 18:14:27.810427  6719 layer_factory.hpp:77] Creating layer label_data_1_split
I0403 18:14:27.810456  6719 net.cpp:91] Creating Layer label_data_1_split
I0403 18:14:27.810473  6719 net.cpp:425] label_data_1_split <- label
I0403 18:14:27.810505  6719 net.cpp:399] label_data_1_split -> label_data_1_split_0
I0403 18:14:27.810533  6719 net.cpp:399] label_data_1_split -> label_data_1_split_1
I0403 18:14:27.810554  6719 net.cpp:399] label_data_1_split -> label_data_1_split_2
I0403 18:14:27.810576  6719 net.cpp:399] label_data_1_split -> label_data_1_split_3
I0403 18:14:27.810595  6719 net.cpp:399] label_data_1_split -> label_data_1_split_4
I0403 18:14:27.810616  6719 net.cpp:399] label_data_1_split -> label_data_1_split_5
I0403 18:14:27.810636  6719 net.cpp:399] label_data_1_split -> label_data_1_split_6
I0403 18:14:27.810658  6719 net.cpp:399] label_data_1_split -> label_data_1_split_7
I0403 18:14:27.810678  6719 net.cpp:399] label_data_1_split -> label_data_1_split_8
I0403 18:14:27.810698  6719 net.cpp:399] label_data_1_split -> label_data_1_split_9
I0403 18:14:27.810812  6719 net.cpp:141] Setting up label_data_1_split
I0403 18:14:27.810837  6719 net.cpp:148] Top shape: 24 (24)
I0403 18:14:27.810854  6719 net.cpp:148] Top shape: 24 (24)
I0403 18:14:27.810871  6719 net.cpp:148] Top shape: 24 (24)
I0403 18:14:27.810889  6719 net.cpp:148] Top shape: 24 (24)
I0403 18:14:27.810905  6719 net.cpp:148] Top shape: 24 (24)
I0403 18:14:27.810921  6719 net.cpp:148] Top shape: 24 (24)
I0403 18:14:27.810938  6719 net.cpp:148] Top shape: 24 (24)
I0403 18:14:27.810955  6719 net.cpp:148] Top shape: 24 (24)
I0403 18:14:27.810971  6719 net.cpp:148] Top shape: 24 (24)
I0403 18:14:27.810988  6719 net.cpp:148] Top shape: 24 (24)
I0403 18:14:27.811038  6719 net.cpp:156] Memory required for data: 14451744
I0403 18:14:27.811054  6719 layer_factory.hpp:77] Creating layer conv1/7x7_s2
I0403 18:14:27.811086  6719 net.cpp:91] Creating Layer conv1/7x7_s2
I0403 18:14:27.811108  6719 net.cpp:425] conv1/7x7_s2 <- data
I0403 18:14:27.811131  6719 net.cpp:399] conv1/7x7_s2 -> conv1/7x7_s2
I0403 18:14:27.956845  6719 net.cpp:141] Setting up conv1/7x7_s2
I0403 18:14:27.956965  6719 net.cpp:148] Top shape: 24 64 112 112 (19267584)
I0403 18:14:27.956982  6719 net.cpp:156] Memory required for data: 91522080
I0403 18:14:27.957012  6719 layer_factory.hpp:77] Creating layer conv1/relu_7x7
I0403 18:14:27.957039  6719 net.cpp:91] Creating Layer conv1/relu_7x7
I0403 18:14:27.957057  6719 net.cpp:425] conv1/relu_7x7 <- conv1/7x7_s2
I0403 18:14:27.957077  6719 net.cpp:386] conv1/relu_7x7 -> conv1/7x7_s2 (in-place)
I0403 18:14:27.957335  6719 net.cpp:141] Setting up conv1/relu_7x7
I0403 18:14:27.957362  6719 net.cpp:148] Top shape: 24 64 112 112 (19267584)
I0403 18:14:27.957377  6719 net.cpp:156] Memory required for data: 168592416
I0403 18:14:27.957392  6719 layer_factory.hpp:77] Creating layer pool1/3x3_s2
I0403 18:14:27.957417  6719 net.cpp:91] Creating Layer pool1/3x3_s2
I0403 18:14:27.957435  6719 net.cpp:425] pool1/3x3_s2 <- conv1/7x7_s2
I0403 18:14:27.957454  6719 net.cpp:399] pool1/3x3_s2 -> pool1/3x3_s2
I0403 18:14:27.957526  6719 net.cpp:141] Setting up pool1/3x3_s2
I0403 18:14:27.957551  6719 net.cpp:148] Top shape: 24 64 56 56 (4816896)
I0403 18:14:27.957566  6719 net.cpp:156] Memory required for data: 187860000
I0403 18:14:27.957581  6719 layer_factory.hpp:77] Creating layer pool1/norm1
I0403 18:14:27.957604  6719 net.cpp:91] Creating Layer pool1/norm1
I0403 18:14:27.957623  6719 net.cpp:425] pool1/norm1 <- pool1/3x3_s2
I0403 18:14:27.957639  6719 net.cpp:399] pool1/norm1 -> pool1/norm1
I0403 18:14:27.957917  6719 net.cpp:141] Setting up pool1/norm1
I0403 18:14:27.957944  6719 net.cpp:148] Top shape: 24 64 56 56 (4816896)
I0403 18:14:27.957959  6719 net.cpp:156] Memory required for data: 207127584
I0403 18:14:27.957974  6719 layer_factory.hpp:77] Creating layer conv2/3x3_reduce
I0403 18:14:27.957999  6719 net.cpp:91] Creating Layer conv2/3x3_reduce
I0403 18:14:27.958015  6719 net.cpp:425] conv2/3x3_reduce <- pool1/norm1
I0403 18:14:27.958034  6719 net.cpp:399] conv2/3x3_reduce -> conv2/3x3_reduce
I0403 18:14:27.959355  6719 net.cpp:141] Setting up conv2/3x3_reduce
I0403 18:14:27.959384  6719 net.cpp:148] Top shape: 24 64 56 56 (4816896)
I0403 18:14:27.959400  6719 net.cpp:156] Memory required for data: 226395168
I0403 18:14:27.959420  6719 layer_factory.hpp:77] Creating layer conv2/relu_3x3_reduce
I0403 18:14:27.959439  6719 net.cpp:91] Creating Layer conv2/relu_3x3_reduce
I0403 18:14:27.959453  6719 net.cpp:425] conv2/relu_3x3_reduce <- conv2/3x3_reduce
I0403 18:14:27.959470  6719 net.cpp:386] conv2/relu_3x3_reduce -> conv2/3x3_reduce (in-place)
I0403 18:14:27.959729  6719 net.cpp:141] Setting up conv2/relu_3x3_reduce
I0403 18:14:27.959756  6719 net.cpp:148] Top shape: 24 64 56 56 (4816896)
I0403 18:14:27.959771  6719 net.cpp:156] Memory required for data: 245662752
I0403 18:14:27.959787  6719 layer_factory.hpp:77] Creating layer conv2/3x3
I0403 18:14:27.959812  6719 net.cpp:91] Creating Layer conv2/3x3
I0403 18:14:27.959830  6719 net.cpp:425] conv2/3x3 <- conv2/3x3_reduce
I0403 18:14:27.959849  6719 net.cpp:399] conv2/3x3 -> conv2/3x3
I0403 18:14:27.962142  6719 net.cpp:141] Setting up conv2/3x3
I0403 18:14:27.962172  6719 net.cpp:148] Top shape: 24 192 56 56 (14450688)
I0403 18:14:27.962188  6719 net.cpp:156] Memory required for data: 303465504
I0403 18:14:27.962209  6719 layer_factory.hpp:77] Creating layer conv2/relu_3x3
I0403 18:14:27.962230  6719 net.cpp:91] Creating Layer conv2/relu_3x3
I0403 18:14:27.962258  6719 net.cpp:425] conv2/relu_3x3 <- conv2/3x3
I0403 18:14:27.962277  6719 net.cpp:386] conv2/relu_3x3 -> conv2/3x3 (in-place)
I0403 18:14:27.962453  6719 net.cpp:141] Setting up conv2/relu_3x3
I0403 18:14:27.962478  6719 net.cpp:148] Top shape: 24 192 56 56 (14450688)
I0403 18:14:27.962528  6719 net.cpp:156] Memory required for data: 361268256
I0403 18:14:27.962545  6719 layer_factory.hpp:77] Creating layer conv2/norm2
I0403 18:14:27.962563  6719 net.cpp:91] Creating Layer conv2/norm2
I0403 18:14:27.962579  6719 net.cpp:425] conv2/norm2 <- conv2/3x3
I0403 18:14:27.962599  6719 net.cpp:399] conv2/norm2 -> conv2/norm2
I0403 18:14:27.962898  6719 net.cpp:141] Setting up conv2/norm2
I0403 18:14:27.962925  6719 net.cpp:148] Top shape: 24 192 56 56 (14450688)
I0403 18:14:27.962941  6719 net.cpp:156] Memory required for data: 419071008
I0403 18:14:27.962957  6719 layer_factory.hpp:77] Creating layer pool2/3x3_s2
I0403 18:14:27.962976  6719 net.cpp:91] Creating Layer pool2/3x3_s2
I0403 18:14:27.962993  6719 net.cpp:425] pool2/3x3_s2 <- conv2/norm2
I0403 18:14:27.963011  6719 net.cpp:399] pool2/3x3_s2 -> pool2/3x3_s2
I0403 18:14:27.963065  6719 net.cpp:141] Setting up pool2/3x3_s2
I0403 18:14:27.963088  6719 net.cpp:148] Top shape: 24 192 28 28 (3612672)
I0403 18:14:27.963101  6719 net.cpp:156] Memory required for data: 433521696
I0403 18:14:27.963116  6719 layer_factory.hpp:77] Creating layer pool2/3x3_s2_pool2/3x3_s2_0_split
I0403 18:14:27.963135  6719 net.cpp:91] Creating Layer pool2/3x3_s2_pool2/3x3_s2_0_split
I0403 18:14:27.963150  6719 net.cpp:425] pool2/3x3_s2_pool2/3x3_s2_0_split <- pool2/3x3_s2
I0403 18:14:27.963170  6719 net.cpp:399] pool2/3x3_s2_pool2/3x3_s2_0_split -> pool2/3x3_s2_pool2/3x3_s2_0_split_0
I0403 18:14:27.963191  6719 net.cpp:399] pool2/3x3_s2_pool2/3x3_s2_0_split -> pool2/3x3_s2_pool2/3x3_s2_0_split_1
I0403 18:14:27.963212  6719 net.cpp:399] pool2/3x3_s2_pool2/3x3_s2_0_split -> pool2/3x3_s2_pool2/3x3_s2_0_split_2
I0403 18:14:27.963230  6719 net.cpp:399] pool2/3x3_s2_pool2/3x3_s2_0_split -> pool2/3x3_s2_pool2/3x3_s2_0_split_3
I0403 18:14:27.963305  6719 net.cpp:141] Setting up pool2/3x3_s2_pool2/3x3_s2_0_split
I0403 18:14:27.963331  6719 net.cpp:148] Top shape: 24 192 28 28 (3612672)
I0403 18:14:27.963349  6719 net.cpp:148] Top shape: 24 192 28 28 (3612672)
I0403 18:14:27.963366  6719 net.cpp:148] Top shape: 24 192 28 28 (3612672)
I0403 18:14:27.963382  6719 net.cpp:148] Top shape: 24 192 28 28 (3612672)
I0403 18:14:27.963395  6719 net.cpp:156] Memory required for data: 491324448
I0403 18:14:27.963410  6719 layer_factory.hpp:77] Creating layer inception_3a/1x1
I0403 18:14:27.963433  6719 net.cpp:91] Creating Layer inception_3a/1x1
I0403 18:14:27.963450  6719 net.cpp:425] inception_3a/1x1 <- pool2/3x3_s2_pool2/3x3_s2_0_split_0
I0403 18:14:27.963469  6719 net.cpp:399] inception_3a/1x1 -> inception_3a/1x1
I0403 18:14:27.965001  6719 net.cpp:141] Setting up inception_3a/1x1
I0403 18:14:27.965031  6719 net.cpp:148] Top shape: 24 64 28 28 (1204224)
I0403 18:14:27.965047  6719 net.cpp:156] Memory required for data: 496141344
I0403 18:14:27.965066  6719 layer_factory.hpp:77] Creating layer inception_3a/relu_1x1
I0403 18:14:27.965086  6719 net.cpp:91] Creating Layer inception_3a/relu_1x1
I0403 18:14:27.965104  6719 net.cpp:425] inception_3a/relu_1x1 <- inception_3a/1x1
I0403 18:14:27.965121  6719 net.cpp:386] inception_3a/relu_1x1 -> inception_3a/1x1 (in-place)
I0403 18:14:27.965301  6719 net.cpp:141] Setting up inception_3a/relu_1x1
I0403 18:14:27.965329  6719 net.cpp:148] Top shape: 24 64 28 28 (1204224)
I0403 18:14:27.965345  6719 net.cpp:156] Memory required for data: 500958240
I0403 18:14:27.965360  6719 layer_factory.hpp:77] Creating layer inception_3a/3x3_reduce
I0403 18:14:27.965383  6719 net.cpp:91] Creating Layer inception_3a/3x3_reduce
I0403 18:14:27.965400  6719 net.cpp:425] inception_3a/3x3_reduce <- pool2/3x3_s2_pool2/3x3_s2_0_split_1
I0403 18:14:27.965420  6719 net.cpp:399] inception_3a/3x3_reduce -> inception_3a/3x3_reduce
I0403 18:14:27.967095  6719 net.cpp:141] Setting up inception_3a/3x3_reduce
I0403 18:14:27.967124  6719 net.cpp:148] Top shape: 24 96 28 28 (1806336)
I0403 18:14:27.967140  6719 net.cpp:156] Memory required for data: 508183584
I0403 18:14:27.967161  6719 layer_factory.hpp:77] Creating layer inception_3a/relu_3x3_reduce
I0403 18:14:27.967198  6719 net.cpp:91] Creating Layer inception_3a/relu_3x3_reduce
I0403 18:14:27.967217  6719 net.cpp:425] inception_3a/relu_3x3_reduce <- inception_3a/3x3_reduce
I0403 18:14:27.967237  6719 net.cpp:386] inception_3a/relu_3x3_reduce -> inception_3a/3x3_reduce (in-place)
I0403 18:14:27.967423  6719 net.cpp:141] Setting up inception_3a/relu_3x3_reduce
I0403 18:14:27.967448  6719 net.cpp:148] Top shape: 24 96 28 28 (1806336)
I0403 18:14:27.967463  6719 net.cpp:156] Memory required for data: 515408928
I0403 18:14:27.967478  6719 layer_factory.hpp:77] Creating layer inception_3a/3x3
I0403 18:14:27.967516  6719 net.cpp:91] Creating Layer inception_3a/3x3
I0403 18:14:27.967535  6719 net.cpp:425] inception_3a/3x3 <- inception_3a/3x3_reduce
I0403 18:14:27.967557  6719 net.cpp:399] inception_3a/3x3 -> inception_3a/3x3
I0403 18:14:27.969244  6719 net.cpp:141] Setting up inception_3a/3x3
I0403 18:14:27.969275  6719 net.cpp:148] Top shape: 24 128 28 28 (2408448)
I0403 18:14:27.969292  6719 net.cpp:156] Memory required for data: 525042720
I0403 18:14:27.969311  6719 layer_factory.hpp:77] Creating layer inception_3a/relu_3x3
I0403 18:14:27.969331  6719 net.cpp:91] Creating Layer inception_3a/relu_3x3
I0403 18:14:27.969346  6719 net.cpp:425] inception_3a/relu_3x3 <- inception_3a/3x3
I0403 18:14:27.969363  6719 net.cpp:386] inception_3a/relu_3x3 -> inception_3a/3x3 (in-place)
I0403 18:14:27.969645  6719 net.cpp:141] Setting up inception_3a/relu_3x3
I0403 18:14:27.969676  6719 net.cpp:148] Top shape: 24 128 28 28 (2408448)
I0403 18:14:27.969692  6719 net.cpp:156] Memory required for data: 534676512
I0403 18:14:27.969708  6719 layer_factory.hpp:77] Creating layer inception_3a/5x5_reduce
I0403 18:14:27.969732  6719 net.cpp:91] Creating Layer inception_3a/5x5_reduce
I0403 18:14:27.969749  6719 net.cpp:425] inception_3a/5x5_reduce <- pool2/3x3_s2_pool2/3x3_s2_0_split_2
I0403 18:14:27.969769  6719 net.cpp:399] inception_3a/5x5_reduce -> inception_3a/5x5_reduce
I0403 18:14:27.970752  6719 net.cpp:141] Setting up inception_3a/5x5_reduce
I0403 18:14:27.970783  6719 net.cpp:148] Top shape: 24 16 28 28 (301056)
I0403 18:14:27.970801  6719 net.cpp:156] Memory required for data: 535880736
I0403 18:14:27.970820  6719 layer_factory.hpp:77] Creating layer inception_3a/relu_5x5_reduce
I0403 18:14:27.970839  6719 net.cpp:91] Creating Layer inception_3a/relu_5x5_reduce
I0403 18:14:27.970854  6719 net.cpp:425] inception_3a/relu_5x5_reduce <- inception_3a/5x5_reduce
I0403 18:14:27.970875  6719 net.cpp:386] inception_3a/relu_5x5_reduce -> inception_3a/5x5_reduce (in-place)
I0403 18:14:27.971166  6719 net.cpp:141] Setting up inception_3a/relu_5x5_reduce
I0403 18:14:27.971194  6719 net.cpp:148] Top shape: 24 16 28 28 (301056)
I0403 18:14:27.971210  6719 net.cpp:156] Memory required for data: 537084960
I0403 18:14:27.971225  6719 layer_factory.hpp:77] Creating layer inception_3a/5x5
I0403 18:14:27.971256  6719 net.cpp:91] Creating Layer inception_3a/5x5
I0403 18:14:27.971276  6719 net.cpp:425] inception_3a/5x5 <- inception_3a/5x5_reduce
I0403 18:14:27.971297  6719 net.cpp:399] inception_3a/5x5 -> inception_3a/5x5
I0403 18:14:27.972342  6719 net.cpp:141] Setting up inception_3a/5x5
I0403 18:14:27.972370  6719 net.cpp:148] Top shape: 24 32 28 28 (602112)
I0403 18:14:27.972390  6719 net.cpp:156] Memory required for data: 539493408
I0403 18:14:27.972410  6719 layer_factory.hpp:77] Creating layer inception_3a/relu_5x5
I0403 18:14:27.972429  6719 net.cpp:91] Creating Layer inception_3a/relu_5x5
I0403 18:14:27.972445  6719 net.cpp:425] inception_3a/relu_5x5 <- inception_3a/5x5
I0403 18:14:27.972462  6719 net.cpp:386] inception_3a/relu_5x5 -> inception_3a/5x5 (in-place)
I0403 18:14:27.972640  6719 net.cpp:141] Setting up inception_3a/relu_5x5
I0403 18:14:27.972668  6719 net.cpp:148] Top shape: 24 32 28 28 (602112)
I0403 18:14:27.972684  6719 net.cpp:156] Memory required for data: 541901856
I0403 18:14:27.972699  6719 layer_factory.hpp:77] Creating layer inception_3a/pool
I0403 18:14:27.972718  6719 net.cpp:91] Creating Layer inception_3a/pool
I0403 18:14:27.972748  6719 net.cpp:425] inception_3a/pool <- pool2/3x3_s2_pool2/3x3_s2_0_split_3
I0403 18:14:27.972771  6719 net.cpp:399] inception_3a/pool -> inception_3a/pool
I0403 18:14:27.972829  6719 net.cpp:141] Setting up inception_3a/pool
I0403 18:14:27.972857  6719 net.cpp:148] Top shape: 24 192 28 28 (3612672)
I0403 18:14:27.972872  6719 net.cpp:156] Memory required for data: 556352544
I0403 18:14:27.972887  6719 layer_factory.hpp:77] Creating layer inception_3a/pool_proj
I0403 18:14:27.972908  6719 net.cpp:91] Creating Layer inception_3a/pool_proj
I0403 18:14:27.972925  6719 net.cpp:425] inception_3a/pool_proj <- inception_3a/pool
I0403 18:14:27.972949  6719 net.cpp:399] inception_3a/pool_proj -> inception_3a/pool_proj
I0403 18:14:27.973933  6719 net.cpp:141] Setting up inception_3a/pool_proj
I0403 18:14:27.973963  6719 net.cpp:148] Top shape: 24 32 28 28 (602112)
I0403 18:14:27.973978  6719 net.cpp:156] Memory required for data: 558760992
I0403 18:14:27.974004  6719 layer_factory.hpp:77] Creating layer inception_3a/relu_pool_proj
I0403 18:14:27.974025  6719 net.cpp:91] Creating Layer inception_3a/relu_pool_proj
I0403 18:14:27.974041  6719 net.cpp:425] inception_3a/relu_pool_proj <- inception_3a/pool_proj
I0403 18:14:27.974062  6719 net.cpp:386] inception_3a/relu_pool_proj -> inception_3a/pool_proj (in-place)
I0403 18:14:27.974340  6719 net.cpp:141] Setting up inception_3a/relu_pool_proj
I0403 18:14:27.974370  6719 net.cpp:148] Top shape: 24 32 28 28 (602112)
I0403 18:14:27.974387  6719 net.cpp:156] Memory required for data: 561169440
I0403 18:14:27.974402  6719 layer_factory.hpp:77] Creating layer inception_3a/output
I0403 18:14:27.974421  6719 net.cpp:91] Creating Layer inception_3a/output
I0403 18:14:27.974437  6719 net.cpp:425] inception_3a/output <- inception_3a/1x1
I0403 18:14:27.974454  6719 net.cpp:425] inception_3a/output <- inception_3a/3x3
I0403 18:14:27.974470  6719 net.cpp:425] inception_3a/output <- inception_3a/5x5
I0403 18:14:27.974488  6719 net.cpp:425] inception_3a/output <- inception_3a/pool_proj
I0403 18:14:27.974503  6719 net.cpp:399] inception_3a/output -> inception_3a/output
I0403 18:14:27.974557  6719 net.cpp:141] Setting up inception_3a/output
I0403 18:14:27.974581  6719 net.cpp:148] Top shape: 24 256 28 28 (4816896)
I0403 18:14:27.974596  6719 net.cpp:156] Memory required for data: 580437024
I0403 18:14:27.974612  6719 layer_factory.hpp:77] Creating layer inception_3a/output_inception_3a/output_0_split
I0403 18:14:27.974632  6719 net.cpp:91] Creating Layer inception_3a/output_inception_3a/output_0_split
I0403 18:14:27.974649  6719 net.cpp:425] inception_3a/output_inception_3a/output_0_split <- inception_3a/output
I0403 18:14:27.974666  6719 net.cpp:399] inception_3a/output_inception_3a/output_0_split -> inception_3a/output_inception_3a/output_0_split_0
I0403 18:14:27.974688  6719 net.cpp:399] inception_3a/output_inception_3a/output_0_split -> inception_3a/output_inception_3a/output_0_split_1
I0403 18:14:27.974714  6719 net.cpp:399] inception_3a/output_inception_3a/output_0_split -> inception_3a/output_inception_3a/output_0_split_2
I0403 18:14:27.974735  6719 net.cpp:399] inception_3a/output_inception_3a/output_0_split -> inception_3a/output_inception_3a/output_0_split_3
I0403 18:14:27.974814  6719 net.cpp:141] Setting up inception_3a/output_inception_3a/output_0_split
I0403 18:14:27.974838  6719 net.cpp:148] Top shape: 24 256 28 28 (4816896)
I0403 18:14:27.974855  6719 net.cpp:148] Top shape: 24 256 28 28 (4816896)
I0403 18:14:27.974872  6719 net.cpp:148] Top shape: 24 256 28 28 (4816896)
I0403 18:14:27.974889  6719 net.cpp:148] Top shape: 24 256 28 28 (4816896)
I0403 18:14:27.974902  6719 net.cpp:156] Memory required for data: 657507360
I0403 18:14:27.974917  6719 layer_factory.hpp:77] Creating layer inception_3b/1x1
I0403 18:14:27.974941  6719 net.cpp:91] Creating Layer inception_3b/1x1
I0403 18:14:27.974961  6719 net.cpp:425] inception_3b/1x1 <- inception_3a/output_inception_3a/output_0_split_0
I0403 18:14:27.974979  6719 net.cpp:399] inception_3b/1x1 -> inception_3b/1x1
I0403 18:14:27.976141  6719 net.cpp:141] Setting up inception_3b/1x1
I0403 18:14:27.976182  6719 net.cpp:148] Top shape: 24 128 28 28 (2408448)
I0403 18:14:27.976199  6719 net.cpp:156] Memory required for data: 667141152
I0403 18:14:27.976218  6719 layer_factory.hpp:77] Creating layer inception_3b/relu_1x1
I0403 18:14:27.976243  6719 net.cpp:91] Creating Layer inception_3b/relu_1x1
I0403 18:14:27.976261  6719 net.cpp:425] inception_3b/relu_1x1 <- inception_3b/1x1
I0403 18:14:27.976279  6719 net.cpp:386] inception_3b/relu_1x1 -> inception_3b/1x1 (in-place)
I0403 18:14:27.976459  6719 net.cpp:141] Setting up inception_3b/relu_1x1
I0403 18:14:27.976488  6719 net.cpp:148] Top shape: 24 128 28 28 (2408448)
I0403 18:14:27.976505  6719 net.cpp:156] Memory required for data: 676774944
I0403 18:14:27.976521  6719 layer_factory.hpp:77] Creating layer inception_3b/3x3_reduce
I0403 18:14:27.976544  6719 net.cpp:91] Creating Layer inception_3b/3x3_reduce
I0403 18:14:27.976562  6719 net.cpp:425] inception_3b/3x3_reduce <- inception_3a/output_inception_3a/output_0_split_1
I0403 18:14:27.976583  6719 net.cpp:399] inception_3b/3x3_reduce -> inception_3b/3x3_reduce
I0403 18:14:27.977746  6719 net.cpp:141] Setting up inception_3b/3x3_reduce
I0403 18:14:27.977776  6719 net.cpp:148] Top shape: 24 128 28 28 (2408448)
I0403 18:14:27.977790  6719 net.cpp:156] Memory required for data: 686408736
I0403 18:14:27.977809  6719 layer_factory.hpp:77] Creating layer inception_3b/relu_3x3_reduce
I0403 18:14:27.977830  6719 net.cpp:91] Creating Layer inception_3b/relu_3x3_reduce
I0403 18:14:27.977849  6719 net.cpp:425] inception_3b/relu_3x3_reduce <- inception_3b/3x3_reduce
I0403 18:14:27.977867  6719 net.cpp:386] inception_3b/relu_3x3_reduce -> inception_3b/3x3_reduce (in-place)
I0403 18:14:27.978045  6719 net.cpp:141] Setting up inception_3b/relu_3x3_reduce
I0403 18:14:27.978076  6719 net.cpp:148] Top shape: 24 128 28 28 (2408448)
I0403 18:14:27.978093  6719 net.cpp:156] Memory required for data: 696042528
I0403 18:14:27.978109  6719 layer_factory.hpp:77] Creating layer inception_3b/3x3
I0403 18:14:27.978134  6719 net.cpp:91] Creating Layer inception_3b/3x3
I0403 18:14:27.978153  6719 net.cpp:425] inception_3b/3x3 <- inception_3b/3x3_reduce
I0403 18:14:27.978176  6719 net.cpp:399] inception_3b/3x3 -> inception_3b/3x3
I0403 18:14:27.981189  6719 net.cpp:141] Setting up inception_3b/3x3
I0403 18:14:27.981221  6719 net.cpp:148] Top shape: 24 192 28 28 (3612672)
I0403 18:14:27.981237  6719 net.cpp:156] Memory required for data: 710493216
I0403 18:14:27.981263  6719 layer_factory.hpp:77] Creating layer inception_3b/relu_3x3
I0403 18:14:27.981282  6719 net.cpp:91] Creating Layer inception_3b/relu_3x3
I0403 18:14:27.981298  6719 net.cpp:425] inception_3b/relu_3x3 <- inception_3b/3x3
I0403 18:14:27.981317  6719 net.cpp:386] inception_3b/relu_3x3 -> inception_3b/3x3 (in-place)
I0403 18:14:27.981600  6719 net.cpp:141] Setting up inception_3b/relu_3x3
I0403 18:14:27.981631  6719 net.cpp:148] Top shape: 24 192 28 28 (3612672)
I0403 18:14:27.981645  6719 net.cpp:156] Memory required for data: 724943904
I0403 18:14:27.981662  6719 layer_factory.hpp:77] Creating layer inception_3b/5x5_reduce
I0403 18:14:27.981685  6719 net.cpp:91] Creating Layer inception_3b/5x5_reduce
I0403 18:14:27.981704  6719 net.cpp:425] inception_3b/5x5_reduce <- inception_3a/output_inception_3a/output_0_split_2
I0403 18:14:27.981724  6719 net.cpp:399] inception_3b/5x5_reduce -> inception_3b/5x5_reduce
I0403 18:14:27.982782  6719 net.cpp:141] Setting up inception_3b/5x5_reduce
I0403 18:14:27.982815  6719 net.cpp:148] Top shape: 24 32 28 28 (602112)
I0403 18:14:27.982832  6719 net.cpp:156] Memory required for data: 727352352
I0403 18:14:27.982853  6719 layer_factory.hpp:77] Creating layer inception_3b/relu_5x5_reduce
I0403 18:14:27.982873  6719 net.cpp:91] Creating Layer inception_3b/relu_5x5_reduce
I0403 18:14:27.982890  6719 net.cpp:425] inception_3b/relu_5x5_reduce <- inception_3b/5x5_reduce
I0403 18:14:27.982908  6719 net.cpp:386] inception_3b/relu_5x5_reduce -> inception_3b/5x5_reduce (in-place)
I0403 18:14:27.983116  6719 net.cpp:141] Setting up inception_3b/relu_5x5_reduce
I0403 18:14:27.983146  6719 net.cpp:148] Top shape: 24 32 28 28 (602112)
I0403 18:14:27.983162  6719 net.cpp:156] Memory required for data: 729760800
I0403 18:14:27.983180  6719 layer_factory.hpp:77] Creating layer inception_3b/5x5
I0403 18:14:27.983203  6719 net.cpp:91] Creating Layer inception_3b/5x5
I0403 18:14:27.983222  6719 net.cpp:425] inception_3b/5x5 <- inception_3b/5x5_reduce
I0403 18:14:27.983247  6719 net.cpp:399] inception_3b/5x5 -> inception_3b/5x5
I0403 18:14:27.985360  6719 net.cpp:141] Setting up inception_3b/5x5
I0403 18:14:27.985391  6719 net.cpp:148] Top shape: 24 96 28 28 (1806336)
I0403 18:14:27.985409  6719 net.cpp:156] Memory required for data: 736986144
I0403 18:14:27.985429  6719 layer_factory.hpp:77] Creating layer inception_3b/relu_5x5
I0403 18:14:27.985450  6719 net.cpp:91] Creating Layer inception_3b/relu_5x5
I0403 18:14:27.985467  6719 net.cpp:425] inception_3b/relu_5x5 <- inception_3b/5x5
I0403 18:14:27.985486  6719 net.cpp:386] inception_3b/relu_5x5 -> inception_3b/5x5 (in-place)
I0403 18:14:27.985697  6719 net.cpp:141] Setting up inception_3b/relu_5x5
I0403 18:14:27.985724  6719 net.cpp:148] Top shape: 24 96 28 28 (1806336)
I0403 18:14:27.985739  6719 net.cpp:156] Memory required for data: 744211488
I0403 18:14:27.985755  6719 layer_factory.hpp:77] Creating layer inception_3b/pool
I0403 18:14:27.985774  6719 net.cpp:91] Creating Layer inception_3b/pool
I0403 18:14:27.985792  6719 net.cpp:425] inception_3b/pool <- inception_3a/output_inception_3a/output_0_split_3
I0403 18:14:27.985812  6719 net.cpp:399] inception_3b/pool -> inception_3b/pool
I0403 18:14:27.985870  6719 net.cpp:141] Setting up inception_3b/pool
I0403 18:14:27.985894  6719 net.cpp:148] Top shape: 24 256 28 28 (4816896)
I0403 18:14:27.985910  6719 net.cpp:156] Memory required for data: 763479072
I0403 18:14:27.985925  6719 layer_factory.hpp:77] Creating layer inception_3b/pool_proj
I0403 18:14:27.985949  6719 net.cpp:91] Creating Layer inception_3b/pool_proj
I0403 18:14:27.985968  6719 net.cpp:425] inception_3b/pool_proj <- inception_3b/pool
I0403 18:14:27.985991  6719 net.cpp:399] inception_3b/pool_proj -> inception_3b/pool_proj
I0403 18:14:27.987120  6719 net.cpp:141] Setting up inception_3b/pool_proj
I0403 18:14:27.987150  6719 net.cpp:148] Top shape: 24 64 28 28 (1204224)
I0403 18:14:27.987166  6719 net.cpp:156] Memory required for data: 768295968
I0403 18:14:27.987186  6719 layer_factory.hpp:77] Creating layer inception_3b/relu_pool_proj
I0403 18:14:27.987206  6719 net.cpp:91] Creating Layer inception_3b/relu_pool_proj
I0403 18:14:27.987223  6719 net.cpp:425] inception_3b/relu_pool_proj <- inception_3b/pool_proj
I0403 18:14:27.987249  6719 net.cpp:386] inception_3b/relu_pool_proj -> inception_3b/pool_proj (in-place)
I0403 18:14:27.987654  6719 net.cpp:141] Setting up inception_3b/relu_pool_proj
I0403 18:14:27.987682  6719 net.cpp:148] Top shape: 24 64 28 28 (1204224)
I0403 18:14:27.987699  6719 net.cpp:156] Memory required for data: 773112864
I0403 18:14:27.987715  6719 layer_factory.hpp:77] Creating layer inception_3b/output
I0403 18:14:27.987733  6719 net.cpp:91] Creating Layer inception_3b/output
I0403 18:14:27.987751  6719 net.cpp:425] inception_3b/output <- inception_3b/1x1
I0403 18:14:27.987767  6719 net.cpp:425] inception_3b/output <- inception_3b/3x3
I0403 18:14:27.987784  6719 net.cpp:425] inception_3b/output <- inception_3b/5x5
I0403 18:14:27.987800  6719 net.cpp:425] inception_3b/output <- inception_3b/pool_proj
I0403 18:14:27.987819  6719 net.cpp:399] inception_3b/output -> inception_3b/output
I0403 18:14:27.987867  6719 net.cpp:141] Setting up inception_3b/output
I0403 18:14:27.987893  6719 net.cpp:148] Top shape: 24 480 28 28 (9031680)
I0403 18:14:27.987910  6719 net.cpp:156] Memory required for data: 809239584
I0403 18:14:27.987926  6719 layer_factory.hpp:77] Creating layer pool3/3x3_s2
I0403 18:14:27.987947  6719 net.cpp:91] Creating Layer pool3/3x3_s2
I0403 18:14:27.987964  6719 net.cpp:425] pool3/3x3_s2 <- inception_3b/output
I0403 18:14:27.988000  6719 net.cpp:399] pool3/3x3_s2 -> pool3/3x3_s2
I0403 18:14:27.988065  6719 net.cpp:141] Setting up pool3/3x3_s2
I0403 18:14:27.988090  6719 net.cpp:148] Top shape: 24 480 14 14 (2257920)
I0403 18:14:27.988106  6719 net.cpp:156] Memory required for data: 818271264
I0403 18:14:27.988121  6719 layer_factory.hpp:77] Creating layer pool3/3x3_s2_pool3/3x3_s2_0_split
I0403 18:14:27.988139  6719 net.cpp:91] Creating Layer pool3/3x3_s2_pool3/3x3_s2_0_split
I0403 18:14:27.988155  6719 net.cpp:425] pool3/3x3_s2_pool3/3x3_s2_0_split <- pool3/3x3_s2
I0403 18:14:27.988176  6719 net.cpp:399] pool3/3x3_s2_pool3/3x3_s2_0_split -> pool3/3x3_s2_pool3/3x3_s2_0_split_0
I0403 18:14:27.988198  6719 net.cpp:399] pool3/3x3_s2_pool3/3x3_s2_0_split -> pool3/3x3_s2_pool3/3x3_s2_0_split_1
I0403 18:14:27.988220  6719 net.cpp:399] pool3/3x3_s2_pool3/3x3_s2_0_split -> pool3/3x3_s2_pool3/3x3_s2_0_split_2
I0403 18:14:27.988245  6719 net.cpp:399] pool3/3x3_s2_pool3/3x3_s2_0_split -> pool3/3x3_s2_pool3/3x3_s2_0_split_3
I0403 18:14:27.988332  6719 net.cpp:141] Setting up pool3/3x3_s2_pool3/3x3_s2_0_split
I0403 18:14:27.988358  6719 net.cpp:148] Top shape: 24 480 14 14 (2257920)
I0403 18:14:27.988375  6719 net.cpp:148] Top shape: 24 480 14 14 (2257920)
I0403 18:14:27.988392  6719 net.cpp:148] Top shape: 24 480 14 14 (2257920)
I0403 18:14:27.988409  6719 net.cpp:148] Top shape: 24 480 14 14 (2257920)
I0403 18:14:27.988422  6719 net.cpp:156] Memory required for data: 854397984
I0403 18:14:27.988438  6719 layer_factory.hpp:77] Creating layer inception_4a/1x1
I0403 18:14:27.988462  6719 net.cpp:91] Creating Layer inception_4a/1x1
I0403 18:14:27.988481  6719 net.cpp:425] inception_4a/1x1 <- pool3/3x3_s2_pool3/3x3_s2_0_split_0
I0403 18:14:27.988502  6719 net.cpp:399] inception_4a/1x1 -> inception_4a/1x1
I0403 18:14:27.990160  6719 net.cpp:141] Setting up inception_4a/1x1
I0403 18:14:27.990190  6719 net.cpp:148] Top shape: 24 192 14 14 (903168)
I0403 18:14:27.990206  6719 net.cpp:156] Memory required for data: 858010656
I0403 18:14:27.990226  6719 layer_factory.hpp:77] Creating layer inception_4a/relu_1x1
I0403 18:14:27.990254  6719 net.cpp:91] Creating Layer inception_4a/relu_1x1
I0403 18:14:27.990273  6719 net.cpp:425] inception_4a/relu_1x1 <- inception_4a/1x1
I0403 18:14:27.990291  6719 net.cpp:386] inception_4a/relu_1x1 -> inception_4a/1x1 (in-place)
I0403 18:14:27.990483  6719 net.cpp:141] Setting up inception_4a/relu_1x1
I0403 18:14:27.990510  6719 net.cpp:148] Top shape: 24 192 14 14 (903168)
I0403 18:14:27.990525  6719 net.cpp:156] Memory required for data: 861623328
I0403 18:14:27.990541  6719 layer_factory.hpp:77] Creating layer inception_4a/3x3_reduce
I0403 18:14:27.990566  6719 net.cpp:91] Creating Layer inception_4a/3x3_reduce
I0403 18:14:27.990586  6719 net.cpp:425] inception_4a/3x3_reduce <- pool3/3x3_s2_pool3/3x3_s2_0_split_1
I0403 18:14:27.990607  6719 net.cpp:399] inception_4a/3x3_reduce -> inception_4a/3x3_reduce
I0403 18:14:27.991960  6719 net.cpp:141] Setting up inception_4a/3x3_reduce
I0403 18:14:27.991989  6719 net.cpp:148] Top shape: 24 96 14 14 (451584)
I0403 18:14:27.992005  6719 net.cpp:156] Memory required for data: 863429664
I0403 18:14:27.992033  6719 layer_factory.hpp:77] Creating layer inception_4a/relu_3x3_reduce
I0403 18:14:27.992054  6719 net.cpp:91] Creating Layer inception_4a/relu_3x3_reduce
I0403 18:14:27.992070  6719 net.cpp:425] inception_4a/relu_3x3_reduce <- inception_4a/3x3_reduce
I0403 18:14:27.992091  6719 net.cpp:386] inception_4a/relu_3x3_reduce -> inception_4a/3x3_reduce (in-place)
I0403 18:14:27.992292  6719 net.cpp:141] Setting up inception_4a/relu_3x3_reduce
I0403 18:14:27.992321  6719 net.cpp:148] Top shape: 24 96 14 14 (451584)
I0403 18:14:27.992336  6719 net.cpp:156] Memory required for data: 865236000
I0403 18:14:27.992352  6719 layer_factory.hpp:77] Creating layer inception_4a/3x3
I0403 18:14:27.992375  6719 net.cpp:91] Creating Layer inception_4a/3x3
I0403 18:14:27.992394  6719 net.cpp:425] inception_4a/3x3 <- inception_4a/3x3_reduce
I0403 18:14:27.992416  6719 net.cpp:399] inception_4a/3x3 -> inception_4a/3x3
I0403 18:14:27.995283  6719 net.cpp:141] Setting up inception_4a/3x3
I0403 18:14:27.995316  6719 net.cpp:148] Top shape: 24 208 14 14 (978432)
I0403 18:14:27.995332  6719 net.cpp:156] Memory required for data: 869149728
I0403 18:14:27.995352  6719 layer_factory.hpp:77] Creating layer inception_4a/relu_3x3
I0403 18:14:27.995374  6719 net.cpp:91] Creating Layer inception_4a/relu_3x3
I0403 18:14:27.995393  6719 net.cpp:425] inception_4a/relu_3x3 <- inception_4a/3x3
I0403 18:14:27.995410  6719 net.cpp:386] inception_4a/relu_3x3 -> inception_4a/3x3 (in-place)
I0403 18:14:27.995702  6719 net.cpp:141] Setting up inception_4a/relu_3x3
I0403 18:14:27.995730  6719 net.cpp:148] Top shape: 24 208 14 14 (978432)
I0403 18:14:27.995745  6719 net.cpp:156] Memory required for data: 873063456
I0403 18:14:27.995762  6719 layer_factory.hpp:77] Creating layer inception_4a/5x5_reduce
I0403 18:14:27.995787  6719 net.cpp:91] Creating Layer inception_4a/5x5_reduce
I0403 18:14:27.995806  6719 net.cpp:425] inception_4a/5x5_reduce <- pool3/3x3_s2_pool3/3x3_s2_0_split_2
I0403 18:14:27.995831  6719 net.cpp:399] inception_4a/5x5_reduce -> inception_4a/5x5_reduce
I0403 18:14:27.996911  6719 net.cpp:141] Setting up inception_4a/5x5_reduce
I0403 18:14:27.996939  6719 net.cpp:148] Top shape: 24 16 14 14 (75264)
I0403 18:14:27.996955  6719 net.cpp:156] Memory required for data: 873364512
I0403 18:14:27.996975  6719 layer_factory.hpp:77] Creating layer inception_4a/relu_5x5_reduce
I0403 18:14:27.996999  6719 net.cpp:91] Creating Layer inception_4a/relu_5x5_reduce
I0403 18:14:27.997016  6719 net.cpp:425] inception_4a/relu_5x5_reduce <- inception_4a/5x5_reduce
I0403 18:14:27.997035  6719 net.cpp:386] inception_4a/relu_5x5_reduce -> inception_4a/5x5_reduce (in-place)
I0403 18:14:27.997227  6719 net.cpp:141] Setting up inception_4a/relu_5x5_reduce
I0403 18:14:27.997261  6719 net.cpp:148] Top shape: 24 16 14 14 (75264)
I0403 18:14:27.997277  6719 net.cpp:156] Memory required for data: 873665568
I0403 18:14:27.997294  6719 layer_factory.hpp:77] Creating layer inception_4a/5x5
I0403 18:14:27.997318  6719 net.cpp:91] Creating Layer inception_4a/5x5
I0403 18:14:27.997336  6719 net.cpp:425] inception_4a/5x5 <- inception_4a/5x5_reduce
I0403 18:14:27.997357  6719 net.cpp:399] inception_4a/5x5 -> inception_4a/5x5
I0403 18:14:27.998519  6719 net.cpp:141] Setting up inception_4a/5x5
I0403 18:14:27.998548  6719 net.cpp:148] Top shape: 24 48 14 14 (225792)
I0403 18:14:27.998565  6719 net.cpp:156] Memory required for data: 874568736
I0403 18:14:27.998585  6719 layer_factory.hpp:77] Creating layer inception_4a/relu_5x5
I0403 18:14:27.998605  6719 net.cpp:91] Creating Layer inception_4a/relu_5x5
I0403 18:14:27.998621  6719 net.cpp:425] inception_4a/relu_5x5 <- inception_4a/5x5
I0403 18:14:27.998643  6719 net.cpp:386] inception_4a/relu_5x5 -> inception_4a/5x5 (in-place)
I0403 18:14:27.998831  6719 net.cpp:141] Setting up inception_4a/relu_5x5
I0403 18:14:27.998857  6719 net.cpp:148] Top shape: 24 48 14 14 (225792)
I0403 18:14:27.998873  6719 net.cpp:156] Memory required for data: 875471904
I0403 18:14:27.998889  6719 layer_factory.hpp:77] Creating layer inception_4a/pool
I0403 18:14:27.998911  6719 net.cpp:91] Creating Layer inception_4a/pool
I0403 18:14:27.998929  6719 net.cpp:425] inception_4a/pool <- pool3/3x3_s2_pool3/3x3_s2_0_split_3
I0403 18:14:27.998949  6719 net.cpp:399] inception_4a/pool -> inception_4a/pool
I0403 18:14:27.999013  6719 net.cpp:141] Setting up inception_4a/pool
I0403 18:14:27.999037  6719 net.cpp:148] Top shape: 24 480 14 14 (2257920)
I0403 18:14:27.999053  6719 net.cpp:156] Memory required for data: 884503584
I0403 18:14:27.999070  6719 layer_factory.hpp:77] Creating layer inception_4a/pool_proj
I0403 18:14:27.999094  6719 net.cpp:91] Creating Layer inception_4a/pool_proj
I0403 18:14:27.999112  6719 net.cpp:425] inception_4a/pool_proj <- inception_4a/pool
I0403 18:14:27.999135  6719 net.cpp:399] inception_4a/pool_proj -> inception_4a/pool_proj
I0403 18:14:28.000382  6719 net.cpp:141] Setting up inception_4a/pool_proj
I0403 18:14:28.000414  6719 net.cpp:148] Top shape: 24 64 14 14 (301056)
I0403 18:14:28.000449  6719 net.cpp:156] Memory required for data: 885707808
I0403 18:14:28.000470  6719 layer_factory.hpp:77] Creating layer inception_4a/relu_pool_proj
I0403 18:14:28.000489  6719 net.cpp:91] Creating Layer inception_4a/relu_pool_proj
I0403 18:14:28.000505  6719 net.cpp:425] inception_4a/relu_pool_proj <- inception_4a/pool_proj
I0403 18:14:28.000529  6719 net.cpp:386] inception_4a/relu_pool_proj -> inception_4a/pool_proj (in-place)
I0403 18:14:28.000834  6719 net.cpp:141] Setting up inception_4a/relu_pool_proj
I0403 18:14:28.000862  6719 net.cpp:148] Top shape: 24 64 14 14 (301056)
I0403 18:14:28.000880  6719 net.cpp:156] Memory required for data: 886912032
I0403 18:14:28.000895  6719 layer_factory.hpp:77] Creating layer inception_4a/output
I0403 18:14:28.000915  6719 net.cpp:91] Creating Layer inception_4a/output
I0403 18:14:28.000931  6719 net.cpp:425] inception_4a/output <- inception_4a/1x1
I0403 18:14:28.000948  6719 net.cpp:425] inception_4a/output <- inception_4a/3x3
I0403 18:14:28.000965  6719 net.cpp:425] inception_4a/output <- inception_4a/5x5
I0403 18:14:28.000983  6719 net.cpp:425] inception_4a/output <- inception_4a/pool_proj
I0403 18:14:28.001004  6719 net.cpp:399] inception_4a/output -> inception_4a/output
I0403 18:14:28.001051  6719 net.cpp:141] Setting up inception_4a/output
I0403 18:14:28.001080  6719 net.cpp:148] Top shape: 24 512 14 14 (2408448)
I0403 18:14:28.001096  6719 net.cpp:156] Memory required for data: 896545824
I0403 18:14:28.001112  6719 layer_factory.hpp:77] Creating layer inception_4a/output_inception_4a/output_0_split
I0403 18:14:28.001130  6719 net.cpp:91] Creating Layer inception_4a/output_inception_4a/output_0_split
I0403 18:14:28.001148  6719 net.cpp:425] inception_4a/output_inception_4a/output_0_split <- inception_4a/output
I0403 18:14:28.001168  6719 net.cpp:399] inception_4a/output_inception_4a/output_0_split -> inception_4a/output_inception_4a/output_0_split_0
I0403 18:14:28.001193  6719 net.cpp:399] inception_4a/output_inception_4a/output_0_split -> inception_4a/output_inception_4a/output_0_split_1
I0403 18:14:28.001215  6719 net.cpp:399] inception_4a/output_inception_4a/output_0_split -> inception_4a/output_inception_4a/output_0_split_2
I0403 18:14:28.001242  6719 net.cpp:399] inception_4a/output_inception_4a/output_0_split -> inception_4a/output_inception_4a/output_0_split_3
I0403 18:14:28.001266  6719 net.cpp:399] inception_4a/output_inception_4a/output_0_split -> inception_4a/output_inception_4a/output_0_split_4
I0403 18:14:28.001376  6719 net.cpp:141] Setting up inception_4a/output_inception_4a/output_0_split
I0403 18:14:28.001401  6719 net.cpp:148] Top shape: 24 512 14 14 (2408448)
I0403 18:14:28.001420  6719 net.cpp:148] Top shape: 24 512 14 14 (2408448)
I0403 18:14:28.001436  6719 net.cpp:148] Top shape: 24 512 14 14 (2408448)
I0403 18:14:28.001453  6719 net.cpp:148] Top shape: 24 512 14 14 (2408448)
I0403 18:14:28.001469  6719 net.cpp:148] Top shape: 24 512 14 14 (2408448)
I0403 18:14:28.001484  6719 net.cpp:156] Memory required for data: 944714784
I0403 18:14:28.001500  6719 layer_factory.hpp:77] Creating layer loss1/ave_pool
I0403 18:14:28.001519  6719 net.cpp:91] Creating Layer loss1/ave_pool
I0403 18:14:28.001536  6719 net.cpp:425] loss1/ave_pool <- inception_4a/output_inception_4a/output_0_split_0
I0403 18:14:28.001554  6719 net.cpp:399] loss1/ave_pool -> loss1/ave_pool
I0403 18:14:28.001772  6719 net.cpp:141] Setting up loss1/ave_pool
I0403 18:14:28.001801  6719 net.cpp:148] Top shape: 24 512 4 4 (196608)
I0403 18:14:28.001816  6719 net.cpp:156] Memory required for data: 945501216
I0403 18:14:28.001833  6719 layer_factory.hpp:77] Creating layer loss1/conv
I0403 18:14:28.001857  6719 net.cpp:91] Creating Layer loss1/conv
I0403 18:14:28.001876  6719 net.cpp:425] loss1/conv <- loss1/ave_pool
I0403 18:14:28.001899  6719 net.cpp:399] loss1/conv -> loss1/conv
I0403 18:14:28.003382  6719 net.cpp:141] Setting up loss1/conv
I0403 18:14:28.003412  6719 net.cpp:148] Top shape: 24 128 4 4 (49152)
I0403 18:14:28.003456  6719 net.cpp:156] Memory required for data: 945697824
I0403 18:14:28.003476  6719 layer_factory.hpp:77] Creating layer loss1/relu_conv
I0403 18:14:28.003499  6719 net.cpp:91] Creating Layer loss1/relu_conv
I0403 18:14:28.003515  6719 net.cpp:425] loss1/relu_conv <- loss1/conv
I0403 18:14:28.003533  6719 net.cpp:386] loss1/relu_conv -> loss1/conv (in-place)
I0403 18:14:28.003820  6719 net.cpp:141] Setting up loss1/relu_conv
I0403 18:14:28.003849  6719 net.cpp:148] Top shape: 24 128 4 4 (49152)
I0403 18:14:28.003865  6719 net.cpp:156] Memory required for data: 945894432
I0403 18:14:28.003880  6719 layer_factory.hpp:77] Creating layer loss1/fc
I0403 18:14:28.003906  6719 net.cpp:91] Creating Layer loss1/fc
I0403 18:14:28.003926  6719 net.cpp:425] loss1/fc <- loss1/conv
I0403 18:14:28.003945  6719 net.cpp:399] loss1/fc -> loss1/fc
I0403 18:14:28.022006  6719 net.cpp:141] Setting up loss1/fc
I0403 18:14:28.022047  6719 net.cpp:148] Top shape: 24 1024 (24576)
I0403 18:14:28.022061  6719 net.cpp:156] Memory required for data: 945992736
I0403 18:14:28.022079  6719 layer_factory.hpp:77] Creating layer loss1/relu_fc
I0403 18:14:28.022099  6719 net.cpp:91] Creating Layer loss1/relu_fc
I0403 18:14:28.022114  6719 net.cpp:425] loss1/relu_fc <- loss1/fc
I0403 18:14:28.022133  6719 net.cpp:386] loss1/relu_fc -> loss1/fc (in-place)
I0403 18:14:28.022336  6719 net.cpp:141] Setting up loss1/relu_fc
I0403 18:14:28.022361  6719 net.cpp:148] Top shape: 24 1024 (24576)
I0403 18:14:28.022375  6719 net.cpp:156] Memory required for data: 946091040
I0403 18:14:28.022390  6719 layer_factory.hpp:77] Creating layer loss1/drop_fc
I0403 18:14:28.022419  6719 net.cpp:91] Creating Layer loss1/drop_fc
I0403 18:14:28.022436  6719 net.cpp:425] loss1/drop_fc <- loss1/fc
I0403 18:14:28.022454  6719 net.cpp:386] loss1/drop_fc -> loss1/fc (in-place)
I0403 18:14:28.022501  6719 net.cpp:141] Setting up loss1/drop_fc
I0403 18:14:28.022527  6719 net.cpp:148] Top shape: 24 1024 (24576)
I0403 18:14:28.022542  6719 net.cpp:156] Memory required for data: 946189344
I0403 18:14:28.022557  6719 layer_factory.hpp:77] Creating layer loss1/classifier_plantvillage
I0403 18:14:28.022575  6719 net.cpp:91] Creating Layer loss1/classifier_plantvillage
I0403 18:14:28.022590  6719 net.cpp:425] loss1/classifier_plantvillage <- loss1/fc
I0403 18:14:28.022610  6719 net.cpp:399] loss1/classifier_plantvillage -> loss1/classifier_plantvillage
I0403 18:14:28.023524  6719 net.cpp:141] Setting up loss1/classifier_plantvillage
I0403 18:14:28.023552  6719 net.cpp:148] Top shape: 24 38 (912)
I0403 18:14:28.023567  6719 net.cpp:156] Memory required for data: 946192992
I0403 18:14:28.023586  6719 layer_factory.hpp:77] Creating layer loss1/classifier_plantvillage_loss1/classifier_plantvillage_0_split
I0403 18:14:28.023607  6719 net.cpp:91] Creating Layer loss1/classifier_plantvillage_loss1/classifier_plantvillage_0_split
I0403 18:14:28.023622  6719 net.cpp:425] loss1/classifier_plantvillage_loss1/classifier_plantvillage_0_split <- loss1/classifier_plantvillage
I0403 18:14:28.023640  6719 net.cpp:399] loss1/classifier_plantvillage_loss1/classifier_plantvillage_0_split -> loss1/classifier_plantvillage_loss1/classifier_plantvillage_0_split_0
I0403 18:14:28.023660  6719 net.cpp:399] loss1/classifier_plantvillage_loss1/classifier_plantvillage_0_split -> loss1/classifier_plantvillage_loss1/classifier_plantvillage_0_split_1
I0403 18:14:28.023680  6719 net.cpp:399] loss1/classifier_plantvillage_loss1/classifier_plantvillage_0_split -> loss1/classifier_plantvillage_loss1/classifier_plantvillage_0_split_2
I0403 18:14:28.023746  6719 net.cpp:141] Setting up loss1/classifier_plantvillage_loss1/classifier_plantvillage_0_split
I0403 18:14:28.023768  6719 net.cpp:148] Top shape: 24 38 (912)
I0403 18:14:28.023784  6719 net.cpp:148] Top shape: 24 38 (912)
I0403 18:14:28.023799  6719 net.cpp:148] Top shape: 24 38 (912)
I0403 18:14:28.023813  6719 net.cpp:156] Memory required for data: 946203936
I0403 18:14:28.023828  6719 layer_factory.hpp:77] Creating layer inception_4b/1x1
I0403 18:14:28.023847  6719 net.cpp:91] Creating Layer inception_4b/1x1
I0403 18:14:28.023881  6719 net.cpp:425] inception_4b/1x1 <- inception_4a/output_inception_4a/output_0_split_1
I0403 18:14:28.023903  6719 net.cpp:399] inception_4b/1x1 -> inception_4b/1x1
I0403 18:14:28.025548  6719 net.cpp:141] Setting up inception_4b/1x1
I0403 18:14:28.025575  6719 net.cpp:148] Top shape: 24 160 14 14 (752640)
I0403 18:14:28.025591  6719 net.cpp:156] Memory required for data: 949214496
I0403 18:14:28.025609  6719 layer_factory.hpp:77] Creating layer inception_4b/relu_1x1
I0403 18:14:28.025629  6719 net.cpp:91] Creating Layer inception_4b/relu_1x1
I0403 18:14:28.025645  6719 net.cpp:425] inception_4b/relu_1x1 <- inception_4b/1x1
I0403 18:14:28.025661  6719 net.cpp:386] inception_4b/relu_1x1 -> inception_4b/1x1 (in-place)
I0403 18:14:28.025840  6719 net.cpp:141] Setting up inception_4b/relu_1x1
I0403 18:14:28.025867  6719 net.cpp:148] Top shape: 24 160 14 14 (752640)
I0403 18:14:28.025882  6719 net.cpp:156] Memory required for data: 952225056
I0403 18:14:28.025897  6719 layer_factory.hpp:77] Creating layer inception_4b/3x3_reduce
I0403 18:14:28.025918  6719 net.cpp:91] Creating Layer inception_4b/3x3_reduce
I0403 18:14:28.025935  6719 net.cpp:425] inception_4b/3x3_reduce <- inception_4a/output_inception_4a/output_0_split_2
I0403 18:14:28.025954  6719 net.cpp:399] inception_4b/3x3_reduce -> inception_4b/3x3_reduce
I0403 18:14:28.027298  6719 net.cpp:141] Setting up inception_4b/3x3_reduce
I0403 18:14:28.027329  6719 net.cpp:148] Top shape: 24 112 14 14 (526848)
I0403 18:14:28.027346  6719 net.cpp:156] Memory required for data: 954332448
I0403 18:14:28.027364  6719 layer_factory.hpp:77] Creating layer inception_4b/relu_3x3_reduce
I0403 18:14:28.027381  6719 net.cpp:91] Creating Layer inception_4b/relu_3x3_reduce
I0403 18:14:28.027396  6719 net.cpp:425] inception_4b/relu_3x3_reduce <- inception_4b/3x3_reduce
I0403 18:14:28.027416  6719 net.cpp:386] inception_4b/relu_3x3_reduce -> inception_4b/3x3_reduce (in-place)
I0403 18:14:28.027688  6719 net.cpp:141] Setting up inception_4b/relu_3x3_reduce
I0403 18:14:28.027717  6719 net.cpp:148] Top shape: 24 112 14 14 (526848)
I0403 18:14:28.027732  6719 net.cpp:156] Memory required for data: 956439840
I0403 18:14:28.027746  6719 layer_factory.hpp:77] Creating layer inception_4b/3x3
I0403 18:14:28.027768  6719 net.cpp:91] Creating Layer inception_4b/3x3
I0403 18:14:28.027786  6719 net.cpp:425] inception_4b/3x3 <- inception_4b/3x3_reduce
I0403 18:14:28.027803  6719 net.cpp:399] inception_4b/3x3 -> inception_4b/3x3
I0403 18:14:28.030820  6719 net.cpp:141] Setting up inception_4b/3x3
I0403 18:14:28.030848  6719 net.cpp:148] Top shape: 24 224 14 14 (1053696)
I0403 18:14:28.030864  6719 net.cpp:156] Memory required for data: 960654624
I0403 18:14:28.030882  6719 layer_factory.hpp:77] Creating layer inception_4b/relu_3x3
I0403 18:14:28.030903  6719 net.cpp:91] Creating Layer inception_4b/relu_3x3
I0403 18:14:28.030920  6719 net.cpp:425] inception_4b/relu_3x3 <- inception_4b/3x3
I0403 18:14:28.030936  6719 net.cpp:386] inception_4b/relu_3x3 -> inception_4b/3x3 (in-place)
I0403 18:14:28.031116  6719 net.cpp:141] Setting up inception_4b/relu_3x3
I0403 18:14:28.031141  6719 net.cpp:148] Top shape: 24 224 14 14 (1053696)
I0403 18:14:28.031157  6719 net.cpp:156] Memory required for data: 964869408
I0403 18:14:28.031170  6719 layer_factory.hpp:77] Creating layer inception_4b/5x5_reduce
I0403 18:14:28.031196  6719 net.cpp:91] Creating Layer inception_4b/5x5_reduce
I0403 18:14:28.031214  6719 net.cpp:425] inception_4b/5x5_reduce <- inception_4a/output_inception_4a/output_0_split_3
I0403 18:14:28.031234  6719 net.cpp:399] inception_4b/5x5_reduce -> inception_4b/5x5_reduce
I0403 18:14:28.032335  6719 net.cpp:141] Setting up inception_4b/5x5_reduce
I0403 18:14:28.032363  6719 net.cpp:148] Top shape: 24 24 14 14 (112896)
I0403 18:14:28.032378  6719 net.cpp:156] Memory required for data: 965320992
I0403 18:14:28.032397  6719 layer_factory.hpp:77] Creating layer inception_4b/relu_5x5_reduce
I0403 18:14:28.032418  6719 net.cpp:91] Creating Layer inception_4b/relu_5x5_reduce
I0403 18:14:28.032449  6719 net.cpp:425] inception_4b/relu_5x5_reduce <- inception_4b/5x5_reduce
I0403 18:14:28.032466  6719 net.cpp:386] inception_4b/relu_5x5_reduce -> inception_4b/5x5_reduce (in-place)
I0403 18:14:28.032655  6719 net.cpp:141] Setting up inception_4b/relu_5x5_reduce
I0403 18:14:28.032680  6719 net.cpp:148] Top shape: 24 24 14 14 (112896)
I0403 18:14:28.032693  6719 net.cpp:156] Memory required for data: 965772576
I0403 18:14:28.032708  6719 layer_factory.hpp:77] Creating layer inception_4b/5x5
I0403 18:14:28.032730  6719 net.cpp:91] Creating Layer inception_4b/5x5
I0403 18:14:28.032748  6719 net.cpp:425] inception_4b/5x5 <- inception_4b/5x5_reduce
I0403 18:14:28.032769  6719 net.cpp:399] inception_4b/5x5 -> inception_4b/5x5
I0403 18:14:28.033999  6719 net.cpp:141] Setting up inception_4b/5x5
I0403 18:14:28.034027  6719 net.cpp:148] Top shape: 24 64 14 14 (301056)
I0403 18:14:28.034042  6719 net.cpp:156] Memory required for data: 966976800
I0403 18:14:28.034061  6719 layer_factory.hpp:77] Creating layer inception_4b/relu_5x5
I0403 18:14:28.034083  6719 net.cpp:91] Creating Layer inception_4b/relu_5x5
I0403 18:14:28.034101  6719 net.cpp:425] inception_4b/relu_5x5 <- inception_4b/5x5
I0403 18:14:28.034117  6719 net.cpp:386] inception_4b/relu_5x5 -> inception_4b/5x5 (in-place)
I0403 18:14:28.034405  6719 net.cpp:141] Setting up inception_4b/relu_5x5
I0403 18:14:28.034432  6719 net.cpp:148] Top shape: 24 64 14 14 (301056)
I0403 18:14:28.034448  6719 net.cpp:156] Memory required for data: 968181024
I0403 18:14:28.034463  6719 layer_factory.hpp:77] Creating layer inception_4b/pool
I0403 18:14:28.034485  6719 net.cpp:91] Creating Layer inception_4b/pool
I0403 18:14:28.034502  6719 net.cpp:425] inception_4b/pool <- inception_4a/output_inception_4a/output_0_split_4
I0403 18:14:28.034520  6719 net.cpp:399] inception_4b/pool -> inception_4b/pool
I0403 18:14:28.034586  6719 net.cpp:141] Setting up inception_4b/pool
I0403 18:14:28.034610  6719 net.cpp:148] Top shape: 24 512 14 14 (2408448)
I0403 18:14:28.034626  6719 net.cpp:156] Memory required for data: 977814816
I0403 18:14:28.034641  6719 layer_factory.hpp:77] Creating layer inception_4b/pool_proj
I0403 18:14:28.034663  6719 net.cpp:91] Creating Layer inception_4b/pool_proj
I0403 18:14:28.034680  6719 net.cpp:425] inception_4b/pool_proj <- inception_4b/pool
I0403 18:14:28.034701  6719 net.cpp:399] inception_4b/pool_proj -> inception_4b/pool_proj
I0403 18:14:28.035907  6719 net.cpp:141] Setting up inception_4b/pool_proj
I0403 18:14:28.035939  6719 net.cpp:148] Top shape: 24 64 14 14 (301056)
I0403 18:14:28.035955  6719 net.cpp:156] Memory required for data: 979019040
I0403 18:14:28.035974  6719 layer_factory.hpp:77] Creating layer inception_4b/relu_pool_proj
I0403 18:14:28.035992  6719 net.cpp:91] Creating Layer inception_4b/relu_pool_proj
I0403 18:14:28.036007  6719 net.cpp:425] inception_4b/relu_pool_proj <- inception_4b/pool_proj
I0403 18:14:28.036025  6719 net.cpp:386] inception_4b/relu_pool_proj -> inception_4b/pool_proj (in-place)
I0403 18:14:28.036211  6719 net.cpp:141] Setting up inception_4b/relu_pool_proj
I0403 18:14:28.036237  6719 net.cpp:148] Top shape: 24 64 14 14 (301056)
I0403 18:14:28.036255  6719 net.cpp:156] Memory required for data: 980223264
I0403 18:14:28.036272  6719 layer_factory.hpp:77] Creating layer inception_4b/output
I0403 18:14:28.036289  6719 net.cpp:91] Creating Layer inception_4b/output
I0403 18:14:28.036304  6719 net.cpp:425] inception_4b/output <- inception_4b/1x1
I0403 18:14:28.036322  6719 net.cpp:425] inception_4b/output <- inception_4b/3x3
I0403 18:14:28.036339  6719 net.cpp:425] inception_4b/output <- inception_4b/5x5
I0403 18:14:28.036355  6719 net.cpp:425] inception_4b/output <- inception_4b/pool_proj
I0403 18:14:28.036375  6719 net.cpp:399] inception_4b/output -> inception_4b/output
I0403 18:14:28.036419  6719 net.cpp:141] Setting up inception_4b/output
I0403 18:14:28.036443  6719 net.cpp:148] Top shape: 24 512 14 14 (2408448)
I0403 18:14:28.036458  6719 net.cpp:156] Memory required for data: 989857056
I0403 18:14:28.036487  6719 layer_factory.hpp:77] Creating layer inception_4b/output_inception_4b/output_0_split
I0403 18:14:28.036509  6719 net.cpp:91] Creating Layer inception_4b/output_inception_4b/output_0_split
I0403 18:14:28.036526  6719 net.cpp:425] inception_4b/output_inception_4b/output_0_split <- inception_4b/output
I0403 18:14:28.036543  6719 net.cpp:399] inception_4b/output_inception_4b/output_0_split -> inception_4b/output_inception_4b/output_0_split_0
I0403 18:14:28.036571  6719 net.cpp:399] inception_4b/output_inception_4b/output_0_split -> inception_4b/output_inception_4b/output_0_split_1
I0403 18:14:28.036592  6719 net.cpp:399] inception_4b/output_inception_4b/output_0_split -> inception_4b/output_inception_4b/output_0_split_2
I0403 18:14:28.036612  6719 net.cpp:399] inception_4b/output_inception_4b/output_0_split -> inception_4b/output_inception_4b/output_0_split_3
I0403 18:14:28.036695  6719 net.cpp:141] Setting up inception_4b/output_inception_4b/output_0_split
I0403 18:14:28.036717  6719 net.cpp:148] Top shape: 24 512 14 14 (2408448)
I0403 18:14:28.036734  6719 net.cpp:148] Top shape: 24 512 14 14 (2408448)
I0403 18:14:28.036751  6719 net.cpp:148] Top shape: 24 512 14 14 (2408448)
I0403 18:14:28.036767  6719 net.cpp:148] Top shape: 24 512 14 14 (2408448)
I0403 18:14:28.036780  6719 net.cpp:156] Memory required for data: 1028392224
I0403 18:14:28.036795  6719 layer_factory.hpp:77] Creating layer inception_4c/1x1
I0403 18:14:28.036818  6719 net.cpp:91] Creating Layer inception_4c/1x1
I0403 18:14:28.036836  6719 net.cpp:425] inception_4c/1x1 <- inception_4b/output_inception_4b/output_0_split_0
I0403 18:14:28.036857  6719 net.cpp:399] inception_4c/1x1 -> inception_4c/1x1
I0403 18:14:28.038302  6719 net.cpp:141] Setting up inception_4c/1x1
I0403 18:14:28.038331  6719 net.cpp:148] Top shape: 24 128 14 14 (602112)
I0403 18:14:28.038347  6719 net.cpp:156] Memory required for data: 1030800672
I0403 18:14:28.038365  6719 layer_factory.hpp:77] Creating layer inception_4c/relu_1x1
I0403 18:14:28.038383  6719 net.cpp:91] Creating Layer inception_4c/relu_1x1
I0403 18:14:28.038430  6719 net.cpp:425] inception_4c/relu_1x1 <- inception_4c/1x1
I0403 18:14:28.038449  6719 net.cpp:386] inception_4c/relu_1x1 -> inception_4c/1x1 (in-place)
I0403 18:14:28.038633  6719 net.cpp:141] Setting up inception_4c/relu_1x1
I0403 18:14:28.038660  6719 net.cpp:148] Top shape: 24 128 14 14 (602112)
I0403 18:14:28.038674  6719 net.cpp:156] Memory required for data: 1033209120
I0403 18:14:28.038702  6719 layer_factory.hpp:77] Creating layer inception_4c/3x3_reduce
I0403 18:14:28.038725  6719 net.cpp:91] Creating Layer inception_4c/3x3_reduce
I0403 18:14:28.038743  6719 net.cpp:425] inception_4c/3x3_reduce <- inception_4b/output_inception_4b/output_0_split_1
I0403 18:14:28.038765  6719 net.cpp:399] inception_4c/3x3_reduce -> inception_4c/3x3_reduce
I0403 18:14:28.040760  6719 net.cpp:141] Setting up inception_4c/3x3_reduce
I0403 18:14:28.040788  6719 net.cpp:148] Top shape: 24 128 14 14 (602112)
I0403 18:14:28.040803  6719 net.cpp:156] Memory required for data: 1035617568
I0403 18:14:28.040822  6719 layer_factory.hpp:77] Creating layer inception_4c/relu_3x3_reduce
I0403 18:14:28.040843  6719 net.cpp:91] Creating Layer inception_4c/relu_3x3_reduce
I0403 18:14:28.040859  6719 net.cpp:425] inception_4c/relu_3x3_reduce <- inception_4c/3x3_reduce
I0403 18:14:28.040876  6719 net.cpp:386] inception_4c/relu_3x3_reduce -> inception_4c/3x3_reduce (in-place)
I0403 18:14:28.041159  6719 net.cpp:141] Setting up inception_4c/relu_3x3_reduce
I0403 18:14:28.041187  6719 net.cpp:148] Top shape: 24 128 14 14 (602112)
I0403 18:14:28.041203  6719 net.cpp:156] Memory required for data: 1038026016
I0403 18:14:28.041218  6719 layer_factory.hpp:77] Creating layer inception_4c/3x3
I0403 18:14:28.041244  6719 net.cpp:91] Creating Layer inception_4c/3x3
I0403 18:14:28.041265  6719 net.cpp:425] inception_4c/3x3 <- inception_4c/3x3_reduce
I0403 18:14:28.041285  6719 net.cpp:399] inception_4c/3x3 -> inception_4c/3x3
I0403 18:14:28.044946  6719 net.cpp:141] Setting up inception_4c/3x3
I0403 18:14:28.044991  6719 net.cpp:148] Top shape: 24 256 14 14 (1204224)
I0403 18:14:28.045007  6719 net.cpp:156] Memory required for data: 1042842912
I0403 18:14:28.045043  6719 layer_factory.hpp:77] Creating layer inception_4c/relu_3x3
I0403 18:14:28.045064  6719 net.cpp:91] Creating Layer inception_4c/relu_3x3
I0403 18:14:28.045080  6719 net.cpp:425] inception_4c/relu_3x3 <- inception_4c/3x3
I0403 18:14:28.045099  6719 net.cpp:386] inception_4c/relu_3x3 -> inception_4c/3x3 (in-place)
I0403 18:14:28.045287  6719 net.cpp:141] Setting up inception_4c/relu_3x3
I0403 18:14:28.045316  6719 net.cpp:148] Top shape: 24 256 14 14 (1204224)
I0403 18:14:28.045332  6719 net.cpp:156] Memory required for data: 1047659808
I0403 18:14:28.045347  6719 layer_factory.hpp:77] Creating layer inception_4c/5x5_reduce
I0403 18:14:28.045372  6719 net.cpp:91] Creating Layer inception_4c/5x5_reduce
I0403 18:14:28.045389  6719 net.cpp:425] inception_4c/5x5_reduce <- inception_4b/output_inception_4b/output_0_split_2
I0403 18:14:28.045408  6719 net.cpp:399] inception_4c/5x5_reduce -> inception_4c/5x5_reduce
I0403 18:14:28.046531  6719 net.cpp:141] Setting up inception_4c/5x5_reduce
I0403 18:14:28.046561  6719 net.cpp:148] Top shape: 24 24 14 14 (112896)
I0403 18:14:28.046577  6719 net.cpp:156] Memory required for data: 1048111392
I0403 18:14:28.046597  6719 layer_factory.hpp:77] Creating layer inception_4c/relu_5x5_reduce
I0403 18:14:28.046617  6719 net.cpp:91] Creating Layer inception_4c/relu_5x5_reduce
I0403 18:14:28.046635  6719 net.cpp:425] inception_4c/relu_5x5_reduce <- inception_4c/5x5_reduce
I0403 18:14:28.046653  6719 net.cpp:386] inception_4c/relu_5x5_reduce -> inception_4c/5x5_reduce (in-place)
I0403 18:14:28.046865  6719 net.cpp:141] Setting up inception_4c/relu_5x5_reduce
I0403 18:14:28.046890  6719 net.cpp:148] Top shape: 24 24 14 14 (112896)
I0403 18:14:28.046905  6719 net.cpp:156] Memory required for data: 1048562976
I0403 18:14:28.046919  6719 layer_factory.hpp:77] Creating layer inception_4c/5x5
I0403 18:14:28.046941  6719 net.cpp:91] Creating Layer inception_4c/5x5
I0403 18:14:28.046958  6719 net.cpp:425] inception_4c/5x5 <- inception_4c/5x5_reduce
I0403 18:14:28.046979  6719 net.cpp:399] inception_4c/5x5 -> inception_4c/5x5
I0403 18:14:28.048192  6719 net.cpp:141] Setting up inception_4c/5x5
I0403 18:14:28.048220  6719 net.cpp:148] Top shape: 24 64 14 14 (301056)
I0403 18:14:28.048236  6719 net.cpp:156] Memory required for data: 1049767200
I0403 18:14:28.048259  6719 layer_factory.hpp:77] Creating layer inception_4c/relu_5x5
I0403 18:14:28.048277  6719 net.cpp:91] Creating Layer inception_4c/relu_5x5
I0403 18:14:28.048293  6719 net.cpp:425] inception_4c/relu_5x5 <- inception_4c/5x5
I0403 18:14:28.048312  6719 net.cpp:386] inception_4c/relu_5x5 -> inception_4c/5x5 (in-place)
I0403 18:14:28.048596  6719 net.cpp:141] Setting up inception_4c/relu_5x5
I0403 18:14:28.048621  6719 net.cpp:148] Top shape: 24 64 14 14 (301056)
I0403 18:14:28.048637  6719 net.cpp:156] Memory required for data: 1050971424
I0403 18:14:28.048651  6719 layer_factory.hpp:77] Creating layer inception_4c/pool
I0403 18:14:28.048669  6719 net.cpp:91] Creating Layer inception_4c/pool
I0403 18:14:28.048686  6719 net.cpp:425] inception_4c/pool <- inception_4b/output_inception_4b/output_0_split_3
I0403 18:14:28.048707  6719 net.cpp:399] inception_4c/pool -> inception_4c/pool
I0403 18:14:28.048769  6719 net.cpp:141] Setting up inception_4c/pool
I0403 18:14:28.048794  6719 net.cpp:148] Top shape: 24 512 14 14 (2408448)
I0403 18:14:28.048810  6719 net.cpp:156] Memory required for data: 1060605216
I0403 18:14:28.048825  6719 layer_factory.hpp:77] Creating layer inception_4c/pool_proj
I0403 18:14:28.048847  6719 net.cpp:91] Creating Layer inception_4c/pool_proj
I0403 18:14:28.048864  6719 net.cpp:425] inception_4c/pool_proj <- inception_4c/pool
I0403 18:14:28.048882  6719 net.cpp:399] inception_4c/pool_proj -> inception_4c/pool_proj
I0403 18:14:28.050065  6719 net.cpp:141] Setting up inception_4c/pool_proj
I0403 18:14:28.050096  6719 net.cpp:148] Top shape: 24 64 14 14 (301056)
I0403 18:14:28.050125  6719 net.cpp:156] Memory required for data: 1061809440
I0403 18:14:28.050144  6719 layer_factory.hpp:77] Creating layer inception_4c/relu_pool_proj
I0403 18:14:28.050163  6719 net.cpp:91] Creating Layer inception_4c/relu_pool_proj
I0403 18:14:28.050179  6719 net.cpp:425] inception_4c/relu_pool_proj <- inception_4c/pool_proj
I0403 18:14:28.050194  6719 net.cpp:386] inception_4c/relu_pool_proj -> inception_4c/pool_proj (in-place)
I0403 18:14:28.050376  6719 net.cpp:141] Setting up inception_4c/relu_pool_proj
I0403 18:14:28.050403  6719 net.cpp:148] Top shape: 24 64 14 14 (301056)
I0403 18:14:28.050418  6719 net.cpp:156] Memory required for data: 1063013664
I0403 18:14:28.050432  6719 layer_factory.hpp:77] Creating layer inception_4c/output
I0403 18:14:28.050449  6719 net.cpp:91] Creating Layer inception_4c/output
I0403 18:14:28.050464  6719 net.cpp:425] inception_4c/output <- inception_4c/1x1
I0403 18:14:28.050482  6719 net.cpp:425] inception_4c/output <- inception_4c/3x3
I0403 18:14:28.050496  6719 net.cpp:425] inception_4c/output <- inception_4c/5x5
I0403 18:14:28.050513  6719 net.cpp:425] inception_4c/output <- inception_4c/pool_proj
I0403 18:14:28.050531  6719 net.cpp:399] inception_4c/output -> inception_4c/output
I0403 18:14:28.050576  6719 net.cpp:141] Setting up inception_4c/output
I0403 18:14:28.050598  6719 net.cpp:148] Top shape: 24 512 14 14 (2408448)
I0403 18:14:28.050612  6719 net.cpp:156] Memory required for data: 1072647456
I0403 18:14:28.050627  6719 layer_factory.hpp:77] Creating layer inception_4c/output_inception_4c/output_0_split
I0403 18:14:28.050647  6719 net.cpp:91] Creating Layer inception_4c/output_inception_4c/output_0_split
I0403 18:14:28.050663  6719 net.cpp:425] inception_4c/output_inception_4c/output_0_split <- inception_4c/output
I0403 18:14:28.050680  6719 net.cpp:399] inception_4c/output_inception_4c/output_0_split -> inception_4c/output_inception_4c/output_0_split_0
I0403 18:14:28.050700  6719 net.cpp:399] inception_4c/output_inception_4c/output_0_split -> inception_4c/output_inception_4c/output_0_split_1
I0403 18:14:28.050724  6719 net.cpp:399] inception_4c/output_inception_4c/output_0_split -> inception_4c/output_inception_4c/output_0_split_2
I0403 18:14:28.050745  6719 net.cpp:399] inception_4c/output_inception_4c/output_0_split -> inception_4c/output_inception_4c/output_0_split_3
I0403 18:14:28.050824  6719 net.cpp:141] Setting up inception_4c/output_inception_4c/output_0_split
I0403 18:14:28.050848  6719 net.cpp:148] Top shape: 24 512 14 14 (2408448)
I0403 18:14:28.050863  6719 net.cpp:148] Top shape: 24 512 14 14 (2408448)
I0403 18:14:28.050879  6719 net.cpp:148] Top shape: 24 512 14 14 (2408448)
I0403 18:14:28.050894  6719 net.cpp:148] Top shape: 24 512 14 14 (2408448)
I0403 18:14:28.050907  6719 net.cpp:156] Memory required for data: 1111182624
I0403 18:14:28.050921  6719 layer_factory.hpp:77] Creating layer inception_4d/1x1
I0403 18:14:28.050943  6719 net.cpp:91] Creating Layer inception_4d/1x1
I0403 18:14:28.050961  6719 net.cpp:425] inception_4d/1x1 <- inception_4c/output_inception_4c/output_0_split_0
I0403 18:14:28.050981  6719 net.cpp:399] inception_4d/1x1 -> inception_4d/1x1
I0403 18:14:28.052335  6719 net.cpp:141] Setting up inception_4d/1x1
I0403 18:14:28.052363  6719 net.cpp:148] Top shape: 24 112 14 14 (526848)
I0403 18:14:28.052377  6719 net.cpp:156] Memory required for data: 1113290016
I0403 18:14:28.052395  6719 layer_factory.hpp:77] Creating layer inception_4d/relu_1x1
I0403 18:14:28.052417  6719 net.cpp:91] Creating Layer inception_4d/relu_1x1
I0403 18:14:28.052433  6719 net.cpp:425] inception_4d/relu_1x1 <- inception_4d/1x1
I0403 18:14:28.052449  6719 net.cpp:386] inception_4d/relu_1x1 -> inception_4d/1x1 (in-place)
I0403 18:14:28.052635  6719 net.cpp:141] Setting up inception_4d/relu_1x1
I0403 18:14:28.052660  6719 net.cpp:148] Top shape: 24 112 14 14 (526848)
I0403 18:14:28.052675  6719 net.cpp:156] Memory required for data: 1115397408
I0403 18:14:28.052688  6719 layer_factory.hpp:77] Creating layer inception_4d/3x3_reduce
I0403 18:14:28.052726  6719 net.cpp:91] Creating Layer inception_4d/3x3_reduce
I0403 18:14:28.052744  6719 net.cpp:425] inception_4d/3x3_reduce <- inception_4c/output_inception_4c/output_0_split_1
I0403 18:14:28.052763  6719 net.cpp:399] inception_4d/3x3_reduce -> inception_4d/3x3_reduce
I0403 18:14:28.054224  6719 net.cpp:141] Setting up inception_4d/3x3_reduce
I0403 18:14:28.054255  6719 net.cpp:148] Top shape: 24 144 14 14 (677376)
I0403 18:14:28.054271  6719 net.cpp:156] Memory required for data: 1118106912
I0403 18:14:28.054288  6719 layer_factory.hpp:77] Creating layer inception_4d/relu_3x3_reduce
I0403 18:14:28.054307  6719 net.cpp:91] Creating Layer inception_4d/relu_3x3_reduce
I0403 18:14:28.054323  6719 net.cpp:425] inception_4d/relu_3x3_reduce <- inception_4d/3x3_reduce
I0403 18:14:28.054342  6719 net.cpp:386] inception_4d/relu_3x3_reduce -> inception_4d/3x3_reduce (in-place)
I0403 18:14:28.054621  6719 net.cpp:141] Setting up inception_4d/relu_3x3_reduce
I0403 18:14:28.054648  6719 net.cpp:148] Top shape: 24 144 14 14 (677376)
I0403 18:14:28.054663  6719 net.cpp:156] Memory required for data: 1120816416
I0403 18:14:28.054677  6719 layer_factory.hpp:77] Creating layer inception_4d/3x3
I0403 18:14:28.054699  6719 net.cpp:91] Creating Layer inception_4d/3x3
I0403 18:14:28.054718  6719 net.cpp:425] inception_4d/3x3 <- inception_4d/3x3_reduce
I0403 18:14:28.054738  6719 net.cpp:399] inception_4d/3x3 -> inception_4d/3x3
I0403 18:14:28.058980  6719 net.cpp:141] Setting up inception_4d/3x3
I0403 18:14:28.059010  6719 net.cpp:148] Top shape: 24 288 14 14 (1354752)
I0403 18:14:28.059026  6719 net.cpp:156] Memory required for data: 1126235424
I0403 18:14:28.059043  6719 layer_factory.hpp:77] Creating layer inception_4d/relu_3x3
I0403 18:14:28.059063  6719 net.cpp:91] Creating Layer inception_4d/relu_3x3
I0403 18:14:28.059080  6719 net.cpp:425] inception_4d/relu_3x3 <- inception_4d/3x3
I0403 18:14:28.059098  6719 net.cpp:386] inception_4d/relu_3x3 -> inception_4d/3x3 (in-place)
I0403 18:14:28.059285  6719 net.cpp:141] Setting up inception_4d/relu_3x3
I0403 18:14:28.059312  6719 net.cpp:148] Top shape: 24 288 14 14 (1354752)
I0403 18:14:28.059327  6719 net.cpp:156] Memory required for data: 1131654432
I0403 18:14:28.059342  6719 layer_factory.hpp:77] Creating layer inception_4d/5x5_reduce
I0403 18:14:28.059365  6719 net.cpp:91] Creating Layer inception_4d/5x5_reduce
I0403 18:14:28.059382  6719 net.cpp:425] inception_4d/5x5_reduce <- inception_4c/output_inception_4c/output_0_split_2
I0403 18:14:28.059401  6719 net.cpp:399] inception_4d/5x5_reduce -> inception_4d/5x5_reduce
I0403 18:14:28.060564  6719 net.cpp:141] Setting up inception_4d/5x5_reduce
I0403 18:14:28.060592  6719 net.cpp:148] Top shape: 24 32 14 14 (150528)
I0403 18:14:28.060609  6719 net.cpp:156] Memory required for data: 1132256544
I0403 18:14:28.060627  6719 layer_factory.hpp:77] Creating layer inception_4d/relu_5x5_reduce
I0403 18:14:28.060647  6719 net.cpp:91] Creating Layer inception_4d/relu_5x5_reduce
I0403 18:14:28.060665  6719 net.cpp:425] inception_4d/relu_5x5_reduce <- inception_4d/5x5_reduce
I0403 18:14:28.060683  6719 net.cpp:386] inception_4d/relu_5x5_reduce -> inception_4d/5x5_reduce (in-place)
I0403 18:14:28.060873  6719 net.cpp:141] Setting up inception_4d/relu_5x5_reduce
I0403 18:14:28.060901  6719 net.cpp:148] Top shape: 24 32 14 14 (150528)
I0403 18:14:28.060916  6719 net.cpp:156] Memory required for data: 1132858656
I0403 18:14:28.060931  6719 layer_factory.hpp:77] Creating layer inception_4d/5x5
I0403 18:14:28.060955  6719 net.cpp:91] Creating Layer inception_4d/5x5
I0403 18:14:28.060973  6719 net.cpp:425] inception_4d/5x5 <- inception_4d/5x5_reduce
I0403 18:14:28.060992  6719 net.cpp:399] inception_4d/5x5 -> inception_4d/5x5
I0403 18:14:28.062480  6719 net.cpp:141] Setting up inception_4d/5x5
I0403 18:14:28.062511  6719 net.cpp:148] Top shape: 24 64 14 14 (301056)
I0403 18:14:28.062528  6719 net.cpp:156] Memory required for data: 1134062880
I0403 18:14:28.062548  6719 layer_factory.hpp:77] Creating layer inception_4d/relu_5x5
I0403 18:14:28.062582  6719 net.cpp:91] Creating Layer inception_4d/relu_5x5
I0403 18:14:28.062599  6719 net.cpp:425] inception_4d/relu_5x5 <- inception_4d/5x5
I0403 18:14:28.062620  6719 net.cpp:386] inception_4d/relu_5x5 -> inception_4d/5x5 (in-place)
I0403 18:14:28.062922  6719 net.cpp:141] Setting up inception_4d/relu_5x5
I0403 18:14:28.062950  6719 net.cpp:148] Top shape: 24 64 14 14 (301056)
I0403 18:14:28.062966  6719 net.cpp:156] Memory required for data: 1135267104
I0403 18:14:28.062983  6719 layer_factory.hpp:77] Creating layer inception_4d/pool
I0403 18:14:28.063001  6719 net.cpp:91] Creating Layer inception_4d/pool
I0403 18:14:28.063017  6719 net.cpp:425] inception_4d/pool <- inception_4c/output_inception_4c/output_0_split_3
I0403 18:14:28.063038  6719 net.cpp:399] inception_4d/pool -> inception_4d/pool
I0403 18:14:28.063104  6719 net.cpp:141] Setting up inception_4d/pool
I0403 18:14:28.063128  6719 net.cpp:148] Top shape: 24 512 14 14 (2408448)
I0403 18:14:28.063143  6719 net.cpp:156] Memory required for data: 1144900896
I0403 18:14:28.063158  6719 layer_factory.hpp:77] Creating layer inception_4d/pool_proj
I0403 18:14:28.063185  6719 net.cpp:91] Creating Layer inception_4d/pool_proj
I0403 18:14:28.063204  6719 net.cpp:425] inception_4d/pool_proj <- inception_4d/pool
I0403 18:14:28.063223  6719 net.cpp:399] inception_4d/pool_proj -> inception_4d/pool_proj
I0403 18:14:28.065038  6719 net.cpp:141] Setting up inception_4d/pool_proj
I0403 18:14:28.065068  6719 net.cpp:148] Top shape: 24 64 14 14 (301056)
I0403 18:14:28.065084  6719 net.cpp:156] Memory required for data: 1146105120
I0403 18:14:28.065104  6719 layer_factory.hpp:77] Creating layer inception_4d/relu_pool_proj
I0403 18:14:28.065124  6719 net.cpp:91] Creating Layer inception_4d/relu_pool_proj
I0403 18:14:28.065140  6719 net.cpp:425] inception_4d/relu_pool_proj <- inception_4d/pool_proj
I0403 18:14:28.065157  6719 net.cpp:386] inception_4d/relu_pool_proj -> inception_4d/pool_proj (in-place)
I0403 18:14:28.065346  6719 net.cpp:141] Setting up inception_4d/relu_pool_proj
I0403 18:14:28.065376  6719 net.cpp:148] Top shape: 24 64 14 14 (301056)
I0403 18:14:28.065392  6719 net.cpp:156] Memory required for data: 1147309344
I0403 18:14:28.065407  6719 layer_factory.hpp:77] Creating layer inception_4d/output
I0403 18:14:28.065424  6719 net.cpp:91] Creating Layer inception_4d/output
I0403 18:14:28.065439  6719 net.cpp:425] inception_4d/output <- inception_4d/1x1
I0403 18:14:28.065457  6719 net.cpp:425] inception_4d/output <- inception_4d/3x3
I0403 18:14:28.065472  6719 net.cpp:425] inception_4d/output <- inception_4d/5x5
I0403 18:14:28.065490  6719 net.cpp:425] inception_4d/output <- inception_4d/pool_proj
I0403 18:14:28.065506  6719 net.cpp:399] inception_4d/output -> inception_4d/output
I0403 18:14:28.065557  6719 net.cpp:141] Setting up inception_4d/output
I0403 18:14:28.065582  6719 net.cpp:148] Top shape: 24 528 14 14 (2483712)
I0403 18:14:28.065595  6719 net.cpp:156] Memory required for data: 1157244192
I0403 18:14:28.065611  6719 layer_factory.hpp:77] Creating layer inception_4d/output_inception_4d/output_0_split
I0403 18:14:28.065632  6719 net.cpp:91] Creating Layer inception_4d/output_inception_4d/output_0_split
I0403 18:14:28.065649  6719 net.cpp:425] inception_4d/output_inception_4d/output_0_split <- inception_4d/output
I0403 18:14:28.065666  6719 net.cpp:399] inception_4d/output_inception_4d/output_0_split -> inception_4d/output_inception_4d/output_0_split_0
I0403 18:14:28.065687  6719 net.cpp:399] inception_4d/output_inception_4d/output_0_split -> inception_4d/output_inception_4d/output_0_split_1
I0403 18:14:28.065707  6719 net.cpp:399] inception_4d/output_inception_4d/output_0_split -> inception_4d/output_inception_4d/output_0_split_2
I0403 18:14:28.065731  6719 net.cpp:399] inception_4d/output_inception_4d/output_0_split -> inception_4d/output_inception_4d/output_0_split_3
I0403 18:14:28.065752  6719 net.cpp:399] inception_4d/output_inception_4d/output_0_split -> inception_4d/output_inception_4d/output_0_split_4
I0403 18:14:28.065855  6719 net.cpp:141] Setting up inception_4d/output_inception_4d/output_0_split
I0403 18:14:28.065892  6719 net.cpp:148] Top shape: 24 528 14 14 (2483712)
I0403 18:14:28.065909  6719 net.cpp:148] Top shape: 24 528 14 14 (2483712)
I0403 18:14:28.065925  6719 net.cpp:148] Top shape: 24 528 14 14 (2483712)
I0403 18:14:28.065943  6719 net.cpp:148] Top shape: 24 528 14 14 (2483712)
I0403 18:14:28.065958  6719 net.cpp:148] Top shape: 24 528 14 14 (2483712)
I0403 18:14:28.065973  6719 net.cpp:156] Memory required for data: 1206918432
I0403 18:14:28.065989  6719 layer_factory.hpp:77] Creating layer loss2/ave_pool
I0403 18:14:28.066009  6719 net.cpp:91] Creating Layer loss2/ave_pool
I0403 18:14:28.066025  6719 net.cpp:425] loss2/ave_pool <- inception_4d/output_inception_4d/output_0_split_0
I0403 18:14:28.066046  6719 net.cpp:399] loss2/ave_pool -> loss2/ave_pool
I0403 18:14:28.066386  6719 net.cpp:141] Setting up loss2/ave_pool
I0403 18:14:28.066414  6719 net.cpp:148] Top shape: 24 528 4 4 (202752)
I0403 18:14:28.066429  6719 net.cpp:156] Memory required for data: 1207729440
I0403 18:14:28.066445  6719 layer_factory.hpp:77] Creating layer loss2/conv
I0403 18:14:28.066469  6719 net.cpp:91] Creating Layer loss2/conv
I0403 18:14:28.066488  6719 net.cpp:425] loss2/conv <- loss2/ave_pool
I0403 18:14:28.066510  6719 net.cpp:399] loss2/conv -> loss2/conv
I0403 18:14:28.068488  6719 net.cpp:141] Setting up loss2/conv
I0403 18:14:28.068521  6719 net.cpp:148] Top shape: 24 128 4 4 (49152)
I0403 18:14:28.068538  6719 net.cpp:156] Memory required for data: 1207926048
I0403 18:14:28.068558  6719 layer_factory.hpp:77] Creating layer loss2/relu_conv
I0403 18:14:28.068578  6719 net.cpp:91] Creating Layer loss2/relu_conv
I0403 18:14:28.068594  6719 net.cpp:425] loss2/relu_conv <- loss2/conv
I0403 18:14:28.068614  6719 net.cpp:386] loss2/relu_conv -> loss2/conv (in-place)
I0403 18:14:28.068907  6719 net.cpp:141] Setting up loss2/relu_conv
I0403 18:14:28.068936  6719 net.cpp:148] Top shape: 24 128 4 4 (49152)
I0403 18:14:28.068953  6719 net.cpp:156] Memory required for data: 1208122656
I0403 18:14:28.068969  6719 layer_factory.hpp:77] Creating layer loss2/fc
I0403 18:14:28.068989  6719 net.cpp:91] Creating Layer loss2/fc
I0403 18:14:28.069006  6719 net.cpp:425] loss2/fc <- loss2/conv
I0403 18:14:28.069028  6719 net.cpp:399] loss2/fc -> loss2/fc
I0403 18:14:28.087539  6719 net.cpp:141] Setting up loss2/fc
I0403 18:14:28.087622  6719 net.cpp:148] Top shape: 24 1024 (24576)
I0403 18:14:28.087640  6719 net.cpp:156] Memory required for data: 1208220960
I0403 18:14:28.087659  6719 layer_factory.hpp:77] Creating layer loss2/relu_fc
I0403 18:14:28.087680  6719 net.cpp:91] Creating Layer loss2/relu_fc
I0403 18:14:28.087698  6719 net.cpp:425] loss2/relu_fc <- loss2/fc
I0403 18:14:28.087718  6719 net.cpp:386] loss2/relu_fc -> loss2/fc (in-place)
I0403 18:14:28.088078  6719 net.cpp:141] Setting up loss2/relu_fc
I0403 18:14:28.088104  6719 net.cpp:148] Top shape: 24 1024 (24576)
I0403 18:14:28.088120  6719 net.cpp:156] Memory required for data: 1208319264
I0403 18:14:28.088135  6719 layer_factory.hpp:77] Creating layer loss2/drop_fc
I0403 18:14:28.088156  6719 net.cpp:91] Creating Layer loss2/drop_fc
I0403 18:14:28.088174  6719 net.cpp:425] loss2/drop_fc <- loss2/fc
I0403 18:14:28.088192  6719 net.cpp:386] loss2/drop_fc -> loss2/fc (in-place)
I0403 18:14:28.088248  6719 net.cpp:141] Setting up loss2/drop_fc
I0403 18:14:28.088271  6719 net.cpp:148] Top shape: 24 1024 (24576)
I0403 18:14:28.088285  6719 net.cpp:156] Memory required for data: 1208417568
I0403 18:14:28.088301  6719 layer_factory.hpp:77] Creating layer loss2/classifier_plantvillage
I0403 18:14:28.088325  6719 net.cpp:91] Creating Layer loss2/classifier_plantvillage
I0403 18:14:28.088341  6719 net.cpp:425] loss2/classifier_plantvillage <- loss2/fc
I0403 18:14:28.088361  6719 net.cpp:399] loss2/classifier_plantvillage -> loss2/classifier_plantvillage
I0403 18:14:28.088778  6719 net.cpp:141] Setting up loss2/classifier_plantvillage
I0403 18:14:28.088804  6719 net.cpp:148] Top shape: 24 38 (912)
I0403 18:14:28.088846  6719 net.cpp:156] Memory required for data: 1208421216
I0403 18:14:28.088865  6719 layer_factory.hpp:77] Creating layer loss2/classifier_plantvillage_loss2/classifier_plantvillage_0_split
I0403 18:14:28.088883  6719 net.cpp:91] Creating Layer loss2/classifier_plantvillage_loss2/classifier_plantvillage_0_split
I0403 18:14:28.088899  6719 net.cpp:425] loss2/classifier_plantvillage_loss2/classifier_plantvillage_0_split <- loss2/classifier_plantvillage
I0403 18:14:28.088919  6719 net.cpp:399] loss2/classifier_plantvillage_loss2/classifier_plantvillage_0_split -> loss2/classifier_plantvillage_loss2/classifier_plantvillage_0_split_0
I0403 18:14:28.088942  6719 net.cpp:399] loss2/classifier_plantvillage_loss2/classifier_plantvillage_0_split -> loss2/classifier_plantvillage_loss2/classifier_plantvillage_0_split_1
I0403 18:14:28.088963  6719 net.cpp:399] loss2/classifier_plantvillage_loss2/classifier_plantvillage_0_split -> loss2/classifier_plantvillage_loss2/classifier_plantvillage_0_split_2
I0403 18:14:28.089042  6719 net.cpp:141] Setting up loss2/classifier_plantvillage_loss2/classifier_plantvillage_0_split
I0403 18:14:28.089068  6719 net.cpp:148] Top shape: 24 38 (912)
I0403 18:14:28.089085  6719 net.cpp:148] Top shape: 24 38 (912)
I0403 18:14:28.089102  6719 net.cpp:148] Top shape: 24 38 (912)
I0403 18:14:28.089115  6719 net.cpp:156] Memory required for data: 1208432160
I0403 18:14:28.089130  6719 layer_factory.hpp:77] Creating layer inception_4e/1x1
I0403 18:14:28.089155  6719 net.cpp:91] Creating Layer inception_4e/1x1
I0403 18:14:28.089174  6719 net.cpp:425] inception_4e/1x1 <- inception_4d/output_inception_4d/output_0_split_1
I0403 18:14:28.089195  6719 net.cpp:399] inception_4e/1x1 -> inception_4e/1x1
I0403 18:14:28.091063  6719 net.cpp:141] Setting up inception_4e/1x1
I0403 18:14:28.091092  6719 net.cpp:148] Top shape: 24 256 14 14 (1204224)
I0403 18:14:28.091109  6719 net.cpp:156] Memory required for data: 1213249056
I0403 18:14:28.091126  6719 layer_factory.hpp:77] Creating layer inception_4e/relu_1x1
I0403 18:14:28.091145  6719 net.cpp:91] Creating Layer inception_4e/relu_1x1
I0403 18:14:28.091161  6719 net.cpp:425] inception_4e/relu_1x1 <- inception_4e/1x1
I0403 18:14:28.091181  6719 net.cpp:386] inception_4e/relu_1x1 -> inception_4e/1x1 (in-place)
I0403 18:14:28.091490  6719 net.cpp:141] Setting up inception_4e/relu_1x1
I0403 18:14:28.091521  6719 net.cpp:148] Top shape: 24 256 14 14 (1204224)
I0403 18:14:28.091536  6719 net.cpp:156] Memory required for data: 1218065952
I0403 18:14:28.091552  6719 layer_factory.hpp:77] Creating layer inception_4e/3x3_reduce
I0403 18:14:28.091574  6719 net.cpp:91] Creating Layer inception_4e/3x3_reduce
I0403 18:14:28.091593  6719 net.cpp:425] inception_4e/3x3_reduce <- inception_4d/output_inception_4d/output_0_split_2
I0403 18:14:28.091611  6719 net.cpp:399] inception_4e/3x3_reduce -> inception_4e/3x3_reduce
I0403 18:14:28.093786  6719 net.cpp:141] Setting up inception_4e/3x3_reduce
I0403 18:14:28.093817  6719 net.cpp:148] Top shape: 24 160 14 14 (752640)
I0403 18:14:28.093834  6719 net.cpp:156] Memory required for data: 1221076512
I0403 18:14:28.093853  6719 layer_factory.hpp:77] Creating layer inception_4e/relu_3x3_reduce
I0403 18:14:28.093871  6719 net.cpp:91] Creating Layer inception_4e/relu_3x3_reduce
I0403 18:14:28.093888  6719 net.cpp:425] inception_4e/relu_3x3_reduce <- inception_4e/3x3_reduce
I0403 18:14:28.093905  6719 net.cpp:386] inception_4e/relu_3x3_reduce -> inception_4e/3x3_reduce (in-place)
I0403 18:14:28.094095  6719 net.cpp:141] Setting up inception_4e/relu_3x3_reduce
I0403 18:14:28.094121  6719 net.cpp:148] Top shape: 24 160 14 14 (752640)
I0403 18:14:28.094135  6719 net.cpp:156] Memory required for data: 1224087072
I0403 18:14:28.094151  6719 layer_factory.hpp:77] Creating layer inception_4e/3x3
I0403 18:14:28.094173  6719 net.cpp:91] Creating Layer inception_4e/3x3
I0403 18:14:28.094192  6719 net.cpp:425] inception_4e/3x3 <- inception_4e/3x3_reduce
I0403 18:14:28.094214  6719 net.cpp:399] inception_4e/3x3 -> inception_4e/3x3
I0403 18:14:28.099280  6719 net.cpp:141] Setting up inception_4e/3x3
I0403 18:14:28.099321  6719 net.cpp:148] Top shape: 24 320 14 14 (1505280)
I0403 18:14:28.099337  6719 net.cpp:156] Memory required for data: 1230108192
I0403 18:14:28.099355  6719 layer_factory.hpp:77] Creating layer inception_4e/relu_3x3
I0403 18:14:28.099375  6719 net.cpp:91] Creating Layer inception_4e/relu_3x3
I0403 18:14:28.099391  6719 net.cpp:425] inception_4e/relu_3x3 <- inception_4e/3x3
I0403 18:14:28.099409  6719 net.cpp:386] inception_4e/relu_3x3 -> inception_4e/3x3 (in-place)
I0403 18:14:28.099699  6719 net.cpp:141] Setting up inception_4e/relu_3x3
I0403 18:14:28.099725  6719 net.cpp:148] Top shape: 24 320 14 14 (1505280)
I0403 18:14:28.099740  6719 net.cpp:156] Memory required for data: 1236129312
I0403 18:14:28.099755  6719 layer_factory.hpp:77] Creating layer inception_4e/5x5_reduce
I0403 18:14:28.099776  6719 net.cpp:91] Creating Layer inception_4e/5x5_reduce
I0403 18:14:28.099793  6719 net.cpp:425] inception_4e/5x5_reduce <- inception_4d/output_inception_4d/output_0_split_3
I0403 18:14:28.099815  6719 net.cpp:399] inception_4e/5x5_reduce -> inception_4e/5x5_reduce
I0403 18:14:28.100860  6719 net.cpp:141] Setting up inception_4e/5x5_reduce
I0403 18:14:28.100890  6719 net.cpp:148] Top shape: 24 32 14 14 (150528)
I0403 18:14:28.100906  6719 net.cpp:156] Memory required for data: 1236731424
I0403 18:14:28.100924  6719 layer_factory.hpp:77] Creating layer inception_4e/relu_5x5_reduce
I0403 18:14:28.100941  6719 net.cpp:91] Creating Layer inception_4e/relu_5x5_reduce
I0403 18:14:28.100957  6719 net.cpp:425] inception_4e/relu_5x5_reduce <- inception_4e/5x5_reduce
I0403 18:14:28.100977  6719 net.cpp:386] inception_4e/relu_5x5_reduce -> inception_4e/5x5_reduce (in-place)
I0403 18:14:28.101270  6719 net.cpp:141] Setting up inception_4e/relu_5x5_reduce
I0403 18:14:28.101300  6719 net.cpp:148] Top shape: 24 32 14 14 (150528)
I0403 18:14:28.101315  6719 net.cpp:156] Memory required for data: 1237333536
I0403 18:14:28.101330  6719 layer_factory.hpp:77] Creating layer inception_4e/5x5
I0403 18:14:28.101369  6719 net.cpp:91] Creating Layer inception_4e/5x5
I0403 18:14:28.101388  6719 net.cpp:425] inception_4e/5x5 <- inception_4e/5x5_reduce
I0403 18:14:28.101408  6719 net.cpp:399] inception_4e/5x5 -> inception_4e/5x5
I0403 18:14:28.103196  6719 net.cpp:141] Setting up inception_4e/5x5
I0403 18:14:28.103224  6719 net.cpp:148] Top shape: 24 128 14 14 (602112)
I0403 18:14:28.103243  6719 net.cpp:156] Memory required for data: 1239741984
I0403 18:14:28.103263  6719 layer_factory.hpp:77] Creating layer inception_4e/relu_5x5
I0403 18:14:28.103284  6719 net.cpp:91] Creating Layer inception_4e/relu_5x5
I0403 18:14:28.103302  6719 net.cpp:425] inception_4e/relu_5x5 <- inception_4e/5x5
I0403 18:14:28.103319  6719 net.cpp:386] inception_4e/relu_5x5 -> inception_4e/5x5 (in-place)
I0403 18:14:28.103509  6719 net.cpp:141] Setting up inception_4e/relu_5x5
I0403 18:14:28.103535  6719 net.cpp:148] Top shape: 24 128 14 14 (602112)
I0403 18:14:28.103549  6719 net.cpp:156] Memory required for data: 1242150432
I0403 18:14:28.103564  6719 layer_factory.hpp:77] Creating layer inception_4e/pool
I0403 18:14:28.103585  6719 net.cpp:91] Creating Layer inception_4e/pool
I0403 18:14:28.103600  6719 net.cpp:425] inception_4e/pool <- inception_4d/output_inception_4d/output_0_split_4
I0403 18:14:28.103620  6719 net.cpp:399] inception_4e/pool -> inception_4e/pool
I0403 18:14:28.103688  6719 net.cpp:141] Setting up inception_4e/pool
I0403 18:14:28.103711  6719 net.cpp:148] Top shape: 24 528 14 14 (2483712)
I0403 18:14:28.103726  6719 net.cpp:156] Memory required for data: 1252085280
I0403 18:14:28.103741  6719 layer_factory.hpp:77] Creating layer inception_4e/pool_proj
I0403 18:14:28.103765  6719 net.cpp:91] Creating Layer inception_4e/pool_proj
I0403 18:14:28.103781  6719 net.cpp:425] inception_4e/pool_proj <- inception_4e/pool
I0403 18:14:28.103798  6719 net.cpp:399] inception_4e/pool_proj -> inception_4e/pool_proj
I0403 18:14:28.105273  6719 net.cpp:141] Setting up inception_4e/pool_proj
I0403 18:14:28.105311  6719 net.cpp:148] Top shape: 24 128 14 14 (602112)
I0403 18:14:28.105326  6719 net.cpp:156] Memory required for data: 1254493728
I0403 18:14:28.105345  6719 layer_factory.hpp:77] Creating layer inception_4e/relu_pool_proj
I0403 18:14:28.105365  6719 net.cpp:91] Creating Layer inception_4e/relu_pool_proj
I0403 18:14:28.105381  6719 net.cpp:425] inception_4e/relu_pool_proj <- inception_4e/pool_proj
I0403 18:14:28.105397  6719 net.cpp:386] inception_4e/relu_pool_proj -> inception_4e/pool_proj (in-place)
I0403 18:14:28.105692  6719 net.cpp:141] Setting up inception_4e/relu_pool_proj
I0403 18:14:28.105720  6719 net.cpp:148] Top shape: 24 128 14 14 (602112)
I0403 18:14:28.105734  6719 net.cpp:156] Memory required for data: 1256902176
I0403 18:14:28.105749  6719 layer_factory.hpp:77] Creating layer inception_4e/output
I0403 18:14:28.105768  6719 net.cpp:91] Creating Layer inception_4e/output
I0403 18:14:28.105785  6719 net.cpp:425] inception_4e/output <- inception_4e/1x1
I0403 18:14:28.105803  6719 net.cpp:425] inception_4e/output <- inception_4e/3x3
I0403 18:14:28.105818  6719 net.cpp:425] inception_4e/output <- inception_4e/5x5
I0403 18:14:28.105834  6719 net.cpp:425] inception_4e/output <- inception_4e/pool_proj
I0403 18:14:28.105849  6719 net.cpp:399] inception_4e/output -> inception_4e/output
I0403 18:14:28.105900  6719 net.cpp:141] Setting up inception_4e/output
I0403 18:14:28.105922  6719 net.cpp:148] Top shape: 24 832 14 14 (3913728)
I0403 18:14:28.105937  6719 net.cpp:156] Memory required for data: 1272557088
I0403 18:14:28.105950  6719 layer_factory.hpp:77] Creating layer pool4/3x3_s2
I0403 18:14:28.105968  6719 net.cpp:91] Creating Layer pool4/3x3_s2
I0403 18:14:28.105983  6719 net.cpp:425] pool4/3x3_s2 <- inception_4e/output
I0403 18:14:28.106003  6719 net.cpp:399] pool4/3x3_s2 -> pool4/3x3_s2
I0403 18:14:28.106067  6719 net.cpp:141] Setting up pool4/3x3_s2
I0403 18:14:28.106091  6719 net.cpp:148] Top shape: 24 832 7 7 (978432)
I0403 18:14:28.106106  6719 net.cpp:156] Memory required for data: 1276470816
I0403 18:14:28.106119  6719 layer_factory.hpp:77] Creating layer pool4/3x3_s2_pool4/3x3_s2_0_split
I0403 18:14:28.106139  6719 net.cpp:91] Creating Layer pool4/3x3_s2_pool4/3x3_s2_0_split
I0403 18:14:28.106156  6719 net.cpp:425] pool4/3x3_s2_pool4/3x3_s2_0_split <- pool4/3x3_s2
I0403 18:14:28.106175  6719 net.cpp:399] pool4/3x3_s2_pool4/3x3_s2_0_split -> pool4/3x3_s2_pool4/3x3_s2_0_split_0
I0403 18:14:28.106196  6719 net.cpp:399] pool4/3x3_s2_pool4/3x3_s2_0_split -> pool4/3x3_s2_pool4/3x3_s2_0_split_1
I0403 18:14:28.106216  6719 net.cpp:399] pool4/3x3_s2_pool4/3x3_s2_0_split -> pool4/3x3_s2_pool4/3x3_s2_0_split_2
I0403 18:14:28.106235  6719 net.cpp:399] pool4/3x3_s2_pool4/3x3_s2_0_split -> pool4/3x3_s2_pool4/3x3_s2_0_split_3
I0403 18:14:28.106329  6719 net.cpp:141] Setting up pool4/3x3_s2_pool4/3x3_s2_0_split
I0403 18:14:28.106353  6719 net.cpp:148] Top shape: 24 832 7 7 (978432)
I0403 18:14:28.106369  6719 net.cpp:148] Top shape: 24 832 7 7 (978432)
I0403 18:14:28.106385  6719 net.cpp:148] Top shape: 24 832 7 7 (978432)
I0403 18:14:28.106400  6719 net.cpp:148] Top shape: 24 832 7 7 (978432)
I0403 18:14:28.106413  6719 net.cpp:156] Memory required for data: 1292125728
I0403 18:14:28.106427  6719 layer_factory.hpp:77] Creating layer inception_5a/1x1
I0403 18:14:28.106449  6719 net.cpp:91] Creating Layer inception_5a/1x1
I0403 18:14:28.106467  6719 net.cpp:425] inception_5a/1x1 <- pool4/3x3_s2_pool4/3x3_s2_0_split_0
I0403 18:14:28.106487  6719 net.cpp:399] inception_5a/1x1 -> inception_5a/1x1
I0403 18:14:28.109292  6719 net.cpp:141] Setting up inception_5a/1x1
I0403 18:14:28.109324  6719 net.cpp:148] Top shape: 24 256 7 7 (301056)
I0403 18:14:28.109340  6719 net.cpp:156] Memory required for data: 1293329952
I0403 18:14:28.109359  6719 layer_factory.hpp:77] Creating layer inception_5a/relu_1x1
I0403 18:14:28.109375  6719 net.cpp:91] Creating Layer inception_5a/relu_1x1
I0403 18:14:28.109390  6719 net.cpp:425] inception_5a/relu_1x1 <- inception_5a/1x1
I0403 18:14:28.109406  6719 net.cpp:386] inception_5a/relu_1x1 -> inception_5a/1x1 (in-place)
I0403 18:14:28.109717  6719 net.cpp:141] Setting up inception_5a/relu_1x1
I0403 18:14:28.109746  6719 net.cpp:148] Top shape: 24 256 7 7 (301056)
I0403 18:14:28.109762  6719 net.cpp:156] Memory required for data: 1294534176
I0403 18:14:28.109776  6719 layer_factory.hpp:77] Creating layer inception_5a/3x3_reduce
I0403 18:14:28.109798  6719 net.cpp:91] Creating Layer inception_5a/3x3_reduce
I0403 18:14:28.109815  6719 net.cpp:425] inception_5a/3x3_reduce <- pool4/3x3_s2_pool4/3x3_s2_0_split_1
I0403 18:14:28.109834  6719 net.cpp:399] inception_5a/3x3_reduce -> inception_5a/3x3_reduce
I0403 18:14:28.112287  6719 net.cpp:141] Setting up inception_5a/3x3_reduce
I0403 18:14:28.112316  6719 net.cpp:148] Top shape: 24 160 7 7 (188160)
I0403 18:14:28.112331  6719 net.cpp:156] Memory required for data: 1295286816
I0403 18:14:28.112349  6719 layer_factory.hpp:77] Creating layer inception_5a/relu_3x3_reduce
I0403 18:14:28.112370  6719 net.cpp:91] Creating Layer inception_5a/relu_3x3_reduce
I0403 18:14:28.112387  6719 net.cpp:425] inception_5a/relu_3x3_reduce <- inception_5a/3x3_reduce
I0403 18:14:28.112406  6719 net.cpp:386] inception_5a/relu_3x3_reduce -> inception_5a/3x3_reduce (in-place)
I0403 18:14:28.112589  6719 net.cpp:141] Setting up inception_5a/relu_3x3_reduce
I0403 18:14:28.112615  6719 net.cpp:148] Top shape: 24 160 7 7 (188160)
I0403 18:14:28.112630  6719 net.cpp:156] Memory required for data: 1296039456
I0403 18:14:28.112646  6719 layer_factory.hpp:77] Creating layer inception_5a/3x3
I0403 18:14:28.112665  6719 net.cpp:91] Creating Layer inception_5a/3x3
I0403 18:14:28.112682  6719 net.cpp:425] inception_5a/3x3 <- inception_5a/3x3_reduce
I0403 18:14:28.112704  6719 net.cpp:399] inception_5a/3x3 -> inception_5a/3x3
I0403 18:14:28.117638  6719 net.cpp:141] Setting up inception_5a/3x3
I0403 18:14:28.117668  6719 net.cpp:148] Top shape: 24 320 7 7 (376320)
I0403 18:14:28.117696  6719 net.cpp:156] Memory required for data: 1297544736
I0403 18:14:28.117714  6719 layer_factory.hpp:77] Creating layer inception_5a/relu_3x3
I0403 18:14:28.117735  6719 net.cpp:91] Creating Layer inception_5a/relu_3x3
I0403 18:14:28.117753  6719 net.cpp:425] inception_5a/relu_3x3 <- inception_5a/3x3
I0403 18:14:28.117772  6719 net.cpp:386] inception_5a/relu_3x3 -> inception_5a/3x3 (in-place)
I0403 18:14:28.118079  6719 net.cpp:141] Setting up inception_5a/relu_3x3
I0403 18:14:28.118105  6719 net.cpp:148] Top shape: 24 320 7 7 (376320)
I0403 18:14:28.118121  6719 net.cpp:156] Memory required for data: 1299050016
I0403 18:14:28.118136  6719 layer_factory.hpp:77] Creating layer inception_5a/5x5_reduce
I0403 18:14:28.118162  6719 net.cpp:91] Creating Layer inception_5a/5x5_reduce
I0403 18:14:28.118180  6719 net.cpp:425] inception_5a/5x5_reduce <- pool4/3x3_s2_pool4/3x3_s2_0_split_2
I0403 18:14:28.118199  6719 net.cpp:399] inception_5a/5x5_reduce -> inception_5a/5x5_reduce
I0403 18:14:28.119385  6719 net.cpp:141] Setting up inception_5a/5x5_reduce
I0403 18:14:28.119417  6719 net.cpp:148] Top shape: 24 32 7 7 (37632)
I0403 18:14:28.119433  6719 net.cpp:156] Memory required for data: 1299200544
I0403 18:14:28.119452  6719 layer_factory.hpp:77] Creating layer inception_5a/relu_5x5_reduce
I0403 18:14:28.119470  6719 net.cpp:91] Creating Layer inception_5a/relu_5x5_reduce
I0403 18:14:28.119487  6719 net.cpp:425] inception_5a/relu_5x5_reduce <- inception_5a/5x5_reduce
I0403 18:14:28.119503  6719 net.cpp:386] inception_5a/relu_5x5_reduce -> inception_5a/5x5_reduce (in-place)
I0403 18:14:28.119799  6719 net.cpp:141] Setting up inception_5a/relu_5x5_reduce
I0403 18:14:28.119827  6719 net.cpp:148] Top shape: 24 32 7 7 (37632)
I0403 18:14:28.119842  6719 net.cpp:156] Memory required for data: 1299351072
I0403 18:14:28.119869  6719 layer_factory.hpp:77] Creating layer inception_5a/5x5
I0403 18:14:28.119892  6719 net.cpp:91] Creating Layer inception_5a/5x5
I0403 18:14:28.119910  6719 net.cpp:425] inception_5a/5x5 <- inception_5a/5x5_reduce
I0403 18:14:28.119932  6719 net.cpp:399] inception_5a/5x5 -> inception_5a/5x5
I0403 18:14:28.121635  6719 net.cpp:141] Setting up inception_5a/5x5
I0403 18:14:28.121675  6719 net.cpp:148] Top shape: 24 128 7 7 (150528)
I0403 18:14:28.121690  6719 net.cpp:156] Memory required for data: 1299953184
I0403 18:14:28.121707  6719 layer_factory.hpp:77] Creating layer inception_5a/relu_5x5
I0403 18:14:28.121727  6719 net.cpp:91] Creating Layer inception_5a/relu_5x5
I0403 18:14:28.121743  6719 net.cpp:425] inception_5a/relu_5x5 <- inception_5a/5x5
I0403 18:14:28.121760  6719 net.cpp:386] inception_5a/relu_5x5 -> inception_5a/5x5 (in-place)
I0403 18:14:28.121947  6719 net.cpp:141] Setting up inception_5a/relu_5x5
I0403 18:14:28.121971  6719 net.cpp:148] Top shape: 24 128 7 7 (150528)
I0403 18:14:28.121986  6719 net.cpp:156] Memory required for data: 1300555296
I0403 18:14:28.122000  6719 layer_factory.hpp:77] Creating layer inception_5a/pool
I0403 18:14:28.122016  6719 net.cpp:91] Creating Layer inception_5a/pool
I0403 18:14:28.122032  6719 net.cpp:425] inception_5a/pool <- pool4/3x3_s2_pool4/3x3_s2_0_split_3
I0403 18:14:28.122053  6719 net.cpp:399] inception_5a/pool -> inception_5a/pool
I0403 18:14:28.122123  6719 net.cpp:141] Setting up inception_5a/pool
I0403 18:14:28.122145  6719 net.cpp:148] Top shape: 24 832 7 7 (978432)
I0403 18:14:28.122160  6719 net.cpp:156] Memory required for data: 1304469024
I0403 18:14:28.122174  6719 layer_factory.hpp:77] Creating layer inception_5a/pool_proj
I0403 18:14:28.122198  6719 net.cpp:91] Creating Layer inception_5a/pool_proj
I0403 18:14:28.122217  6719 net.cpp:425] inception_5a/pool_proj <- inception_5a/pool
I0403 18:14:28.122236  6719 net.cpp:399] inception_5a/pool_proj -> inception_5a/pool_proj
I0403 18:14:28.124497  6719 net.cpp:141] Setting up inception_5a/pool_proj
I0403 18:14:28.124526  6719 net.cpp:148] Top shape: 24 128 7 7 (150528)
I0403 18:14:28.124541  6719 net.cpp:156] Memory required for data: 1305071136
I0403 18:14:28.124559  6719 layer_factory.hpp:77] Creating layer inception_5a/relu_pool_proj
I0403 18:14:28.124579  6719 net.cpp:91] Creating Layer inception_5a/relu_pool_proj
I0403 18:14:28.124595  6719 net.cpp:425] inception_5a/relu_pool_proj <- inception_5a/pool_proj
I0403 18:14:28.124614  6719 net.cpp:386] inception_5a/relu_pool_proj -> inception_5a/pool_proj (in-place)
I0403 18:14:28.124903  6719 net.cpp:141] Setting up inception_5a/relu_pool_proj
I0403 18:14:28.124929  6719 net.cpp:148] Top shape: 24 128 7 7 (150528)
I0403 18:14:28.124943  6719 net.cpp:156] Memory required for data: 1305673248
I0403 18:14:28.124958  6719 layer_factory.hpp:77] Creating layer inception_5a/output
I0403 18:14:28.124977  6719 net.cpp:91] Creating Layer inception_5a/output
I0403 18:14:28.124995  6719 net.cpp:425] inception_5a/output <- inception_5a/1x1
I0403 18:14:28.125011  6719 net.cpp:425] inception_5a/output <- inception_5a/3x3
I0403 18:14:28.125027  6719 net.cpp:425] inception_5a/output <- inception_5a/5x5
I0403 18:14:28.125048  6719 net.cpp:425] inception_5a/output <- inception_5a/pool_proj
I0403 18:14:28.125064  6719 net.cpp:399] inception_5a/output -> inception_5a/output
I0403 18:14:28.125114  6719 net.cpp:141] Setting up inception_5a/output
I0403 18:14:28.125138  6719 net.cpp:148] Top shape: 24 832 7 7 (978432)
I0403 18:14:28.125152  6719 net.cpp:156] Memory required for data: 1309586976
I0403 18:14:28.125167  6719 layer_factory.hpp:77] Creating layer inception_5a/output_inception_5a/output_0_split
I0403 18:14:28.125185  6719 net.cpp:91] Creating Layer inception_5a/output_inception_5a/output_0_split
I0403 18:14:28.125200  6719 net.cpp:425] inception_5a/output_inception_5a/output_0_split <- inception_5a/output
I0403 18:14:28.125219  6719 net.cpp:399] inception_5a/output_inception_5a/output_0_split -> inception_5a/output_inception_5a/output_0_split_0
I0403 18:14:28.125244  6719 net.cpp:399] inception_5a/output_inception_5a/output_0_split -> inception_5a/output_inception_5a/output_0_split_1
I0403 18:14:28.125280  6719 net.cpp:399] inception_5a/output_inception_5a/output_0_split -> inception_5a/output_inception_5a/output_0_split_2
I0403 18:14:28.125301  6719 net.cpp:399] inception_5a/output_inception_5a/output_0_split -> inception_5a/output_inception_5a/output_0_split_3
I0403 18:14:28.125413  6719 net.cpp:141] Setting up inception_5a/output_inception_5a/output_0_split
I0403 18:14:28.125442  6719 net.cpp:148] Top shape: 24 832 7 7 (978432)
I0403 18:14:28.125458  6719 net.cpp:148] Top shape: 24 832 7 7 (978432)
I0403 18:14:28.125474  6719 net.cpp:148] Top shape: 24 832 7 7 (978432)
I0403 18:14:28.125491  6719 net.cpp:148] Top shape: 24 832 7 7 (978432)
I0403 18:14:28.125504  6719 net.cpp:156] Memory required for data: 1325241888
I0403 18:14:28.125519  6719 layer_factory.hpp:77] Creating layer inception_5b/1x1
I0403 18:14:28.125542  6719 net.cpp:91] Creating Layer inception_5b/1x1
I0403 18:14:28.125560  6719 net.cpp:425] inception_5b/1x1 <- inception_5a/output_inception_5a/output_0_split_0
I0403 18:14:28.125579  6719 net.cpp:399] inception_5b/1x1 -> inception_5b/1x1
I0403 18:14:28.129390  6719 net.cpp:141] Setting up inception_5b/1x1
I0403 18:14:28.129421  6719 net.cpp:148] Top shape: 24 384 7 7 (451584)
I0403 18:14:28.129437  6719 net.cpp:156] Memory required for data: 1327048224
I0403 18:14:28.129456  6719 layer_factory.hpp:77] Creating layer inception_5b/relu_1x1
I0403 18:14:28.129478  6719 net.cpp:91] Creating Layer inception_5b/relu_1x1
I0403 18:14:28.129495  6719 net.cpp:425] inception_5b/relu_1x1 <- inception_5b/1x1
I0403 18:14:28.129514  6719 net.cpp:386] inception_5b/relu_1x1 -> inception_5b/1x1 (in-place)
I0403 18:14:28.129822  6719 net.cpp:141] Setting up inception_5b/relu_1x1
I0403 18:14:28.129849  6719 net.cpp:148] Top shape: 24 384 7 7 (451584)
I0403 18:14:28.129863  6719 net.cpp:156] Memory required for data: 1328854560
I0403 18:14:28.129878  6719 layer_factory.hpp:77] Creating layer inception_5b/3x3_reduce
I0403 18:14:28.129901  6719 net.cpp:91] Creating Layer inception_5b/3x3_reduce
I0403 18:14:28.129920  6719 net.cpp:425] inception_5b/3x3_reduce <- inception_5a/output_inception_5a/output_0_split_1
I0403 18:14:28.129943  6719 net.cpp:399] inception_5b/3x3_reduce -> inception_5b/3x3_reduce
I0403 18:14:28.132679  6719 net.cpp:141] Setting up inception_5b/3x3_reduce
I0403 18:14:28.132709  6719 net.cpp:148] Top shape: 24 192 7 7 (225792)
I0403 18:14:28.132725  6719 net.cpp:156] Memory required for data: 1329757728
I0403 18:14:28.132745  6719 layer_factory.hpp:77] Creating layer inception_5b/relu_3x3_reduce
I0403 18:14:28.132764  6719 net.cpp:91] Creating Layer inception_5b/relu_3x3_reduce
I0403 18:14:28.132781  6719 net.cpp:425] inception_5b/relu_3x3_reduce <- inception_5b/3x3_reduce
I0403 18:14:28.132800  6719 net.cpp:386] inception_5b/relu_3x3_reduce -> inception_5b/3x3_reduce (in-place)
I0403 18:14:28.132994  6719 net.cpp:141] Setting up inception_5b/relu_3x3_reduce
I0403 18:14:28.133021  6719 net.cpp:148] Top shape: 24 192 7 7 (225792)
I0403 18:14:28.133036  6719 net.cpp:156] Memory required for data: 1330660896
I0403 18:14:28.133050  6719 layer_factory.hpp:77] Creating layer inception_5b/3x3
I0403 18:14:28.133075  6719 net.cpp:91] Creating Layer inception_5b/3x3
I0403 18:14:28.133095  6719 net.cpp:425] inception_5b/3x3 <- inception_5b/3x3_reduce
I0403 18:14:28.133113  6719 net.cpp:399] inception_5b/3x3 -> inception_5b/3x3
I0403 18:14:28.139914  6719 net.cpp:141] Setting up inception_5b/3x3
I0403 18:14:28.139943  6719 net.cpp:148] Top shape: 24 384 7 7 (451584)
I0403 18:14:28.139960  6719 net.cpp:156] Memory required for data: 1332467232
I0403 18:14:28.139978  6719 layer_factory.hpp:77] Creating layer inception_5b/relu_3x3
I0403 18:14:28.139999  6719 net.cpp:91] Creating Layer inception_5b/relu_3x3
I0403 18:14:28.140017  6719 net.cpp:425] inception_5b/relu_3x3 <- inception_5b/3x3
I0403 18:14:28.140035  6719 net.cpp:386] inception_5b/relu_3x3 -> inception_5b/3x3 (in-place)
I0403 18:14:28.140339  6719 net.cpp:141] Setting up inception_5b/relu_3x3
I0403 18:14:28.140367  6719 net.cpp:148] Top shape: 24 384 7 7 (451584)
I0403 18:14:28.140382  6719 net.cpp:156] Memory required for data: 1334273568
I0403 18:14:28.140396  6719 layer_factory.hpp:77] Creating layer inception_5b/5x5_reduce
I0403 18:14:28.140435  6719 net.cpp:91] Creating Layer inception_5b/5x5_reduce
I0403 18:14:28.140455  6719 net.cpp:425] inception_5b/5x5_reduce <- inception_5a/output_inception_5a/output_0_split_2
I0403 18:14:28.140476  6719 net.cpp:399] inception_5b/5x5_reduce -> inception_5b/5x5_reduce
I0403 18:14:28.141759  6719 net.cpp:141] Setting up inception_5b/5x5_reduce
I0403 18:14:28.141788  6719 net.cpp:148] Top shape: 24 48 7 7 (56448)
I0403 18:14:28.141803  6719 net.cpp:156] Memory required for data: 1334499360
I0403 18:14:28.141822  6719 layer_factory.hpp:77] Creating layer inception_5b/relu_5x5_reduce
I0403 18:14:28.141842  6719 net.cpp:91] Creating Layer inception_5b/relu_5x5_reduce
I0403 18:14:28.141858  6719 net.cpp:425] inception_5b/relu_5x5_reduce <- inception_5b/5x5_reduce
I0403 18:14:28.141876  6719 net.cpp:386] inception_5b/relu_5x5_reduce -> inception_5b/5x5_reduce (in-place)
I0403 18:14:28.142262  6719 net.cpp:141] Setting up inception_5b/relu_5x5_reduce
I0403 18:14:28.142290  6719 net.cpp:148] Top shape: 24 48 7 7 (56448)
I0403 18:14:28.142305  6719 net.cpp:156] Memory required for data: 1334725152
I0403 18:14:28.142321  6719 layer_factory.hpp:77] Creating layer inception_5b/5x5
I0403 18:14:28.142343  6719 net.cpp:91] Creating Layer inception_5b/5x5
I0403 18:14:28.142359  6719 net.cpp:425] inception_5b/5x5 <- inception_5b/5x5_reduce
I0403 18:14:28.142377  6719 net.cpp:399] inception_5b/5x5 -> inception_5b/5x5
I0403 18:14:28.144448  6719 net.cpp:141] Setting up inception_5b/5x5
I0403 18:14:28.144479  6719 net.cpp:148] Top shape: 24 128 7 7 (150528)
I0403 18:14:28.144495  6719 net.cpp:156] Memory required for data: 1335327264
I0403 18:14:28.144512  6719 layer_factory.hpp:77] Creating layer inception_5b/relu_5x5
I0403 18:14:28.144531  6719 net.cpp:91] Creating Layer inception_5b/relu_5x5
I0403 18:14:28.144546  6719 net.cpp:425] inception_5b/relu_5x5 <- inception_5b/5x5
I0403 18:14:28.144563  6719 net.cpp:386] inception_5b/relu_5x5 -> inception_5b/5x5 (in-place)
I0403 18:14:28.144755  6719 net.cpp:141] Setting up inception_5b/relu_5x5
I0403 18:14:28.144783  6719 net.cpp:148] Top shape: 24 128 7 7 (150528)
I0403 18:14:28.144798  6719 net.cpp:156] Memory required for data: 1335929376
I0403 18:14:28.144812  6719 layer_factory.hpp:77] Creating layer inception_5b/pool
I0403 18:14:28.144830  6719 net.cpp:91] Creating Layer inception_5b/pool
I0403 18:14:28.144846  6719 net.cpp:425] inception_5b/pool <- inception_5a/output_inception_5a/output_0_split_3
I0403 18:14:28.144866  6719 net.cpp:399] inception_5b/pool -> inception_5b/pool
I0403 18:14:28.144937  6719 net.cpp:141] Setting up inception_5b/pool
I0403 18:14:28.144963  6719 net.cpp:148] Top shape: 24 832 7 7 (978432)
I0403 18:14:28.144976  6719 net.cpp:156] Memory required for data: 1339843104
I0403 18:14:28.144991  6719 layer_factory.hpp:77] Creating layer inception_5b/pool_proj
I0403 18:14:28.145012  6719 net.cpp:91] Creating Layer inception_5b/pool_proj
I0403 18:14:28.145030  6719 net.cpp:425] inception_5b/pool_proj <- inception_5b/pool
I0403 18:14:28.145050  6719 net.cpp:399] inception_5b/pool_proj -> inception_5b/pool_proj
I0403 18:14:28.147330  6719 net.cpp:141] Setting up inception_5b/pool_proj
I0403 18:14:28.147358  6719 net.cpp:148] Top shape: 24 128 7 7 (150528)
I0403 18:14:28.147373  6719 net.cpp:156] Memory required for data: 1340445216
I0403 18:14:28.147392  6719 layer_factory.hpp:77] Creating layer inception_5b/relu_pool_proj
I0403 18:14:28.147411  6719 net.cpp:91] Creating Layer inception_5b/relu_pool_proj
I0403 18:14:28.147428  6719 net.cpp:425] inception_5b/relu_pool_proj <- inception_5b/pool_proj
I0403 18:14:28.147445  6719 net.cpp:386] inception_5b/relu_pool_proj -> inception_5b/pool_proj (in-place)
I0403 18:14:28.147755  6719 net.cpp:141] Setting up inception_5b/relu_pool_proj
I0403 18:14:28.147783  6719 net.cpp:148] Top shape: 24 128 7 7 (150528)
I0403 18:14:28.147799  6719 net.cpp:156] Memory required for data: 1341047328
I0403 18:14:28.147814  6719 layer_factory.hpp:77] Creating layer inception_5b/output
I0403 18:14:28.147833  6719 net.cpp:91] Creating Layer inception_5b/output
I0403 18:14:28.147864  6719 net.cpp:425] inception_5b/output <- inception_5b/1x1
I0403 18:14:28.147882  6719 net.cpp:425] inception_5b/output <- inception_5b/3x3
I0403 18:14:28.147899  6719 net.cpp:425] inception_5b/output <- inception_5b/5x5
I0403 18:14:28.147914  6719 net.cpp:425] inception_5b/output <- inception_5b/pool_proj
I0403 18:14:28.147932  6719 net.cpp:399] inception_5b/output -> inception_5b/output
I0403 18:14:28.147986  6719 net.cpp:141] Setting up inception_5b/output
I0403 18:14:28.148011  6719 net.cpp:148] Top shape: 24 1024 7 7 (1204224)
I0403 18:14:28.148025  6719 net.cpp:156] Memory required for data: 1345864224
I0403 18:14:28.148041  6719 layer_factory.hpp:77] Creating layer pool5/7x7_s1
I0403 18:14:28.148058  6719 net.cpp:91] Creating Layer pool5/7x7_s1
I0403 18:14:28.148074  6719 net.cpp:425] pool5/7x7_s1 <- inception_5b/output
I0403 18:14:28.148095  6719 net.cpp:399] pool5/7x7_s1 -> pool5/7x7_s1
I0403 18:14:28.148322  6719 net.cpp:141] Setting up pool5/7x7_s1
I0403 18:14:28.148349  6719 net.cpp:148] Top shape: 24 1024 1 1 (24576)
I0403 18:14:28.148363  6719 net.cpp:156] Memory required for data: 1345962528
I0403 18:14:28.148377  6719 layer_factory.hpp:77] Creating layer pool5/drop_7x7_s1
I0403 18:14:28.148397  6719 net.cpp:91] Creating Layer pool5/drop_7x7_s1
I0403 18:14:28.148414  6719 net.cpp:425] pool5/drop_7x7_s1 <- pool5/7x7_s1
I0403 18:14:28.148432  6719 net.cpp:386] pool5/drop_7x7_s1 -> pool5/7x7_s1 (in-place)
I0403 18:14:28.148483  6719 net.cpp:141] Setting up pool5/drop_7x7_s1
I0403 18:14:28.148506  6719 net.cpp:148] Top shape: 24 1024 1 1 (24576)
I0403 18:14:28.148520  6719 net.cpp:156] Memory required for data: 1346060832
I0403 18:14:28.148535  6719 layer_factory.hpp:77] Creating layer loss3/classifier_plantvillage
I0403 18:14:28.148557  6719 net.cpp:91] Creating Layer loss3/classifier_plantvillage
I0403 18:14:28.148574  6719 net.cpp:425] loss3/classifier_plantvillage <- pool5/7x7_s1
I0403 18:14:28.148593  6719 net.cpp:399] loss3/classifier_plantvillage -> loss3/classifier_plantvillage
I0403 18:14:28.149025  6719 net.cpp:141] Setting up loss3/classifier_plantvillage
I0403 18:14:28.149050  6719 net.cpp:148] Top shape: 24 38 (912)
I0403 18:14:28.149065  6719 net.cpp:156] Memory required for data: 1346064480
I0403 18:14:28.149082  6719 layer_factory.hpp:77] Creating layer loss3/classifier_plantvillage_loss3/classifier_plantvillage_0_split
I0403 18:14:28.149101  6719 net.cpp:91] Creating Layer loss3/classifier_plantvillage_loss3/classifier_plantvillage_0_split
I0403 18:14:28.149116  6719 net.cpp:425] loss3/classifier_plantvillage_loss3/classifier_plantvillage_0_split <- loss3/classifier_plantvillage
I0403 18:14:28.149138  6719 net.cpp:399] loss3/classifier_plantvillage_loss3/classifier_plantvillage_0_split -> loss3/classifier_plantvillage_loss3/classifier_plantvillage_0_split_0
I0403 18:14:28.149159  6719 net.cpp:399] loss3/classifier_plantvillage_loss3/classifier_plantvillage_0_split -> loss3/classifier_plantvillage_loss3/classifier_plantvillage_0_split_1
I0403 18:14:28.149180  6719 net.cpp:399] loss3/classifier_plantvillage_loss3/classifier_plantvillage_0_split -> loss3/classifier_plantvillage_loss3/classifier_plantvillage_0_split_2
I0403 18:14:28.149199  6719 net.cpp:399] loss3/classifier_plantvillage_loss3/classifier_plantvillage_0_split -> loss3/classifier_plantvillage_loss3/classifier_plantvillage_0_split_3
I0403 18:14:28.149308  6719 net.cpp:141] Setting up loss3/classifier_plantvillage_loss3/classifier_plantvillage_0_split
I0403 18:14:28.149333  6719 net.cpp:148] Top shape: 24 38 (912)
I0403 18:14:28.149349  6719 net.cpp:148] Top shape: 24 38 (912)
I0403 18:14:28.149366  6719 net.cpp:148] Top shape: 24 38 (912)
I0403 18:14:28.149381  6719 net.cpp:148] Top shape: 24 38 (912)
I0403 18:14:28.149396  6719 net.cpp:156] Memory required for data: 1346079072
I0403 18:14:28.149410  6719 layer_factory.hpp:77] Creating layer loss1/loss
I0403 18:14:28.149435  6719 net.cpp:91] Creating Layer loss1/loss
I0403 18:14:28.149452  6719 net.cpp:425] loss1/loss <- loss1/classifier_plantvillage_loss1/classifier_plantvillage_0_split_0
I0403 18:14:28.149483  6719 net.cpp:425] loss1/loss <- label_data_1_split_0
…
