…
I0403 18:10:22.224987  6647 net.cpp:313] The NetState phase (1) differed from the phase (0) specified by a rule in layer data
I0403 18:10:22.226138  6647 net.cpp:49] Initializing net from parameters: 
state {
  phase: TEST
}
layer {
  name: "data"
  type: "Data"
  top: "data"
  top: "label"
  include {
    phase: TEST
  }
  transform_param {
    mirror: false
    crop_size: 224
    mean_file: "/home/mohanty/data/final_dataset/lmdb/grayscale-40-60/mean.binaryproto"
  }
  data_param {
    source: "/home/mohanty/data/final_dataset/lmdb/grayscale-40-60/test_db"
    batch_size: 24
    backend: LMDB
  }
}
layer {
  name: "conv1/7x7_s2"
  type: "Convolution"
  bottom: "data"
  top: "conv1/7x7_s2"
  param {
    lr_mult: 1
    decay_mult: 1
  }
  param {
    lr_mult: 2
    decay_mult: 0
  }
  convolution_param {
    num_output: 64
    pad: 3
    kernel_size: 7
    stride: 2
    weight_filler {
      type: "xavier"
      std: 0.1
    }
    bias_filler {
      type: "constant"
      value: 0.2
    }
  }
}
layer {
  name: "conv1/relu_7x7"
  type: "ReLU"
  bottom: "conv1/7x7_s2"
  top: "conv1/7x7_s2"
}
layer {
  name: "pool1/3x3_s2"
  type: "Pooling"
  bottom: "conv1/7x7_s2"
  top: "pool1/3x3_s2"
  pooling_param {
    pool: MAX
    kernel_size: 3
    stride: 2
  }
}
layer {
  name: "pool1/norm1"
  type: "LRN"
  bottom: "pool1/3x3_s2"
  top: "pool1/norm1"
  lrn_param {
    local_size: 5
    alpha: 0.0001
    beta: 0.75
  }
}
layer {
  name: "conv2/3x3_reduce"
  type: "Convolution"
  bottom: "pool1/norm1"
  top: "conv2/3x3_reduce"
  param {
    lr_mult: 1
    decay_mult: 1
  }
  param {
    lr_mult: 2
    decay_mult: 0
  }
  convolution_param {
    num_output: 64
    kernel_size: 1
    weight_filler {
      type: "xavier"
      std: 0.1
    }
    bias_filler {
      type: "constant"
      value: 0.2
    }
  }
}
layer {
  name: "conv2/relu_3x3_reduce"
  type: "ReLU"
  bottom: "conv2/3x3_reduce"
  top: "conv2/3x3_reduce"
}
layer {
  name: "conv2/3x3"
  type: "Convolution"
  bottom: "conv2/3x3_reduce"
  top: "conv2/3x3"
  param {
    lr_mult: 1
    decay_mult: 1
  }
  param {
    lr_mult: 2
    decay_mult: 0
  }
  convolution_param {
    num_output: 192
    pad: 1
    kernel_size: 3
    weight_filler {
      type: "xavier"
      std: 0.03
    }
    bias_filler {
      type: "constant"
      value: 0.2
    }
  }
}
layer {
  name: "conv2/relu_3x3"
  type: "ReLU"
  bottom: "conv2/3x3"
  top: "conv2/3x3"
}
layer {
  name: "conv2/norm2"
  type: "LRN"
  bottom: "conv2/3x3"
  top: "conv2/norm2"
  lrn_param {
    local_size: 5
    alpha: 0.0001
    beta: 0.75
  }
}
layer {
  name: "pool2/3x3_s2"
  type: "Pooling"
  bottom: "conv2/norm2"
  top: "pool2/3x3_s2"
  pooling_param {
    pool: MAX
    kernel_size: 3
    stride: 2
  }
}
layer {
  name: "inception_3a/1x1"
  type: "Convolution"
  bottom: "pool2/3x3_s2"
  top: "inception_3a/1x1"
  param {
    lr_mult: 1
    decay_mult: 1
  }
  param {
    lr_mult: 2
    decay_mult: 0
  }
  convolution_param {
    num_output: 64
    kernel_size: 1
    weight_filler {
      type: "xavier"
      std: 0.03
    }
    bias_filler {
      type: "constant"
      value: 0.2
    }
  }
}
layer {
  name: "inception_3a/relu_1x1"
  type: "ReLU"
  bottom: "inception_3a/1x1"
  top: "inception_3a/1x1"
}
layer {
  name: "inception_3a/3x3_reduce"
  type: "Convolution"
  bottom: "pool2/3x3_s2"
  top: "inception_3a/3x3_reduce"
  param {
    lr_mult: 1
    decay_mult: 1
  }
  param {
    lr_mult: 2
    decay_mult: 0
  }
  convolution_param {
    num_output: 96
    kernel_size: 1
    weight_filler {
      type: "xavier"
      std: 0.09
    }
    bias_filler {
      type: "constant"
      value: 0.2
    }
  }
}
layer {
  name: "inception_3a/relu_3x3_reduce"
  type: "ReLU"
  bottom: "inception_3a/3x3_reduce"
  top: "inception_3a/3x3_reduce"
}
layer {
  name: "inception_3a/3x3"
  type: "Convolution"
  bottom: "inception_3a/3x3_reduce"
  top: "inception_3a/3x3"
  param {
    lr_mult: 1
    decay_mult: 1
  }
  param {
    lr_mult: 2
    decay_mult: 0
  }
  convolution_param {
    num_output: 128
    pad: 1
    kernel_size: 3
    weight_filler {
      type: "xavier"
      std: 0.03
    }
    bias_filler {
      type: "constant"
      value: 0.2
    }
  }
}
layer {
  name: "inception_3a/relu_3x3"
  type: "ReLU"
  bottom: "inception_3a/3x3"
  top: "inception_3a/3x3"
}
layer {
  name: "inception_3a/5x5_reduce"
  type: "Convolution"
  bottom: "pool2/3x3_s2"
  top: "inception_3a/5x5_reduce"
  param {
    lr_mult: 1
    decay_mult: 1
  }
  param {
    lr_mult: 2
    decay_mult: 0
  }
  convolution_param {
    num_output: 16
    kernel_size: 1
    weight_filler {
      type: "xavier"
      std: 0.2
    }
    bias_filler {
      type: "constant"
      value: 0.2
    }
  }
}
layer {
  name: "inception_3a/relu_5x5_reduce"
  type: "ReLU"
  bottom: "inception_3a/5x5_reduce"
  top: "inception_3a/5x5_reduce"
}
layer {
  name: "inception_3a/5x5"
  type: "Convolution"
  bottom: "inception_3a/5x5_reduce"
  top: "inception_3a/5x5"
  param {
    lr_mult: 1
    decay_mult: 1
  }
  param {
    lr_mult: 2
    decay_mult: 0
  }
  convolution_param {
    num_output: 32
    pad: 2
    kernel_size: 5
    weight_filler {
      type: "xavier"
      std: 0.03
    }
    bias_filler {
      type: "constant"
      value: 0.2
    }
  }
}
layer {
  name: "inception_3a/relu_5x5"
  type: "ReLU"
  bottom: "inception_3a/5x5"
  top: "inception_3a/5x5"
}
layer {
  name: "inception_3a/pool"
  type: "Pooling"
  bottom: "pool2/3x3_s2"
  top: "inception_3a/pool"
  pooling_param {
    pool: MAX
    kernel_size: 3
    stride: 1
    pad: 1
  }
}
layer {
  name: "inception_3a/pool_proj"
  type: "Convolution"
  bottom: "inception_3a/pool"
  top: "inception_3a/pool_proj"
  param {
    lr_mult: 1
    decay_mult: 1
  }
  param {
    lr_mult: 2
    decay_mult: 0
  }
  convolution_param {
    num_output: 32
    kernel_size: 1
    weight_filler {
      type: "xavier"
      std: 0.1
    }
    bias_filler {
      type: "constant"
      value: 0.2
    }
  }
}
layer {
  name: "inception_3a/relu_pool_proj"
  type: "ReLU"
  bottom: "inception_3a/pool_proj"
  top: "inception_3a/pool_proj"
}
layer {
  name: "inception_3a/output"
  type: "Concat"
  bottom: "inception_3a/1x1"
  bottom: "inception_3a/3x3"
  bottom: "inception_3a/5x5"
  bottom: "inception_3a/pool_proj"
  top: "inception_3a/output"
}
layer {
  name: "inception_3b/1x1"
  type: "Convolution"
  bottom: "inception_3a/output"
  top: "inception_3b/1x1"
  param {
    lr_mult: 1
    decay_mult: 1
  }
  param {
    lr_mult: 2
    decay_mult: 0
  }
  convolution_param {
    num_output: 128
    kernel_size: 1
    weight_filler {
      type: "xavier"
      std: 0.03
    }
    bias_filler {
      type: "constant"
      value: 0.2
    }
  }
}
layer {
  name: "inception_3b/relu_1x1"
  type: "ReLU"
  bottom: "inception_3b/1x1"
  top: "inception_3b/1x1"
}
layer {
  name: "inception_3b/3x3_reduce"
  type: "Convolution"
  bottom: "inception_3a/output"
  top: "inception_3b/3x3_reduce"
  param {
    lr_mult: 1
    decay_mult: 1
  }
  param {
    lr_mult: 2
    decay_mult: 0
  }
  convolution_param {
    num_output: 128
    kernel_size: 1
    weight_filler {
      type: "xavier"
      std: 0.09
    }
    bias_filler {
      type: "constant"
      value: 0.2
    }
  }
}
layer {
  name: "inception_3b/relu_3x3_reduce"
  type: "ReLU"
  bottom: "inception_3b/3x3_reduce"
  top: "inception_3b/3x3_reduce"
}
layer {
  name: "inception_3b/3x3"
  type: "Convolution"
  bottom: "inception_3b/3x3_reduce"
  top: "inception_3b/3x3"
  param {
    lr_mult: 1
    decay_mult: 1
  }
  param {
    lr_mult: 2
    decay_mult: 0
  }
  convolution_param {
    num_output: 192
    pad: 1
    kernel_size: 3
    weight_filler {
      type: "xavier"
      std: 0.03
    }
    bias_filler {
      type: "constant"
      value: 0.2
    }
  }
}
layer {
  name: "inception_3b/relu_3x3"
  type: "ReLU"
  bottom: "inception_3b/3x3"
  top: "inception_3b/3x3"
}
layer {
  name: "inception_3b/5x5_reduce"
  type: "Convolution"
  bottom: "inception_3a/output"
  top: "inception_3b/5x5_reduce"
  param {
    lr_mult: 1
    decay_mult: 1
  }
  param {
    lr_mult: 2
    decay_mult: 0
  }
  convolution_param {
    num_output: 32
    kernel_size: 1
    weight_filler {
      type: "xavier"
      std: 0.2
    }
    bias_filler {
      type: "constant"
      value: 0.2
    }
  }
}
layer {
  name: "inception_3b/relu_5x5_reduce"
  type: "ReLU"
  bottom: "inception_3b/5x5_reduce"
  top: "inception_3b/5x5_reduce"
}
layer {
  name: "inception_3b/5x5"
  type: "Convolution"
  bottom: "inception_3b/5x5_reduce"
  top: "inception_3b/5x5"
  param {
    lr_mult: 1
    decay_mult: 1
  }
  param {
    lr_mult: 2
    decay_mult: 0
  }
  convolution_param {
    num_output: 96
    pad: 2
    kernel_size: 5
    weight_filler {
      type: "xavier"
      std: 0.03
    }
    bias_filler {
      type: "constant"
      value: 0.2
    }
  }
}
layer {
  name: "inception_3b/relu_5x5"
  type: "ReLU"
  bottom: "inception_3b/5x5"
  top: "inception_3b/5x5"
}
layer {
  name: "inception_3b/pool"
  type: "Pooling"
  bottom: "inception_3a/output"
  top: "inception_3b/pool"
  pooling_param {
    pool: MAX
    kernel_size: 3
    stride: 1
    pad: 1
  }
}
layer {
  name: "inception_3b/pool_proj"
  type: "Convolution"
  bottom: "inception_3b/pool"
  top: "inception_3b/pool_proj"
  param {
    lr_mult: 1
    decay_mult: 1
  }
  param {
    lr_mult: 2
    decay_mult: 0
  }
  convolution_param {
    num_output: 64
    kernel_size: 1
    weight_filler {
      type: "xavier"
      std: 0.1
    }
    bias_filler {
      type: "constant"
      value: 0.2
    }
  }
}
layer {
  name: "inception_3b/relu_pool_proj"
  type: "ReLU"
  bottom: "inception_3b/pool_proj"
  top: "inception_3b/pool_proj"
}
layer {
  name: "inception_3b/output"
  type: "Concat"
  bottom: "inception_3b/1x1"
  bottom: "inception_3b/3x3"
  bottom: "inception_3b/5x5"
  bottom: "inception_3b/pool_proj"
  top: "inception_3b/output"
}
layer {
  name: "pool3/3x3_s2"
  type: "Pooling"
  bottom: "inception_3b/output"
  top: "pool3/3x3_s2"
  pooling_param {
    pool: MAX
    kernel_size: 3
    stride: 2
  }
}
layer {
  name: "inception_4a/1x1"
  type: "Convolution"
  bottom: "pool3/3x3_s2"
  top: "inception_4a/1x1"
  param {
    lr_mult: 1
    decay_mult: 1
  }
  param {
    lr_mult: 2
    decay_mult: 0
  }
  convolution_param {
    num_output: 192
    kernel_size: 1
    weight_filler {
      type: "xavier"
      std: 0.03
    }
    bias_filler {
      type: "constant"
      value: 0.2
    }
  }
}
layer {
  name: "inception_4a/relu_1x1"
  type: "ReLU"
  bottom: "inception_4a/1x1"
  top: "inception_4a/1x1"
}
layer {
  name: "inception_4a/3x3_reduce"
  type: "Convolution"
  bottom: "pool3/3x3_s2"
  top: "inception_4a/3x3_reduce"
  param {
    lr_mult: 1
    decay_mult: 1
  }
  param {
    lr_mult: 2
    decay_mult: 0
  }
  convolution_param {
    num_output: 96
    kernel_size: 1
    weight_filler {
      type: "xavier"
      std: 0.09
    }
    bias_filler {
      type: "constant"
      value: 0.2
    }
  }
}
layer {
  name: "inception_4a/relu_3x3_reduce"
  type: "ReLU"
  bottom: "inception_4a/3x3_reduce"
  top: "inception_4a/3x3_reduce"
}
layer {
  name: "inception_4a/3x3"
  type: "Convolution"
  bottom: "inception_4a/3x3_reduce"
  top: "inception_4a/3x3"
  param {
    lr_mult: 1
    decay_mult: 1
  }
  param {
    lr_mult: 2
    decay_mult: 0
  }
  convolution_param {
    num_output: 208
    pad: 1
    kernel_size: 3
    weight_filler {
      type: "xavier"
      std: 0.03
    }
    bias_filler {
      type: "constant"
      value: 0.2
    }
  }
}
layer {
  name: "inception_4a/relu_3x3"
  type: "ReLU"
  bottom: "inception_4a/3x3"
  top: "inception_4a/3x3"
}
layer {
  name: "inception_4a/5x5_reduce"
  type: "Convolution"
  bottom: "pool3/3x3_s2"
  top: "inception_4a/5x5_reduce"
  param {
    lr_mult: 1
    decay_mult: 1
  }
  param {
    lr_mult: 2
    decay_mult: 0
  }
  convolution_param {
    num_output: 16
    kernel_size: 1
    weight_filler {
      type: "xavier"
      std: 0.2
    }
    bias_filler {
      type: "constant"
      value: 0.2
    }
  }
}
layer {
  name: "inception_4a/relu_5x5_reduce"
  type: "ReLU"
  bottom: "inception_4a/5x5_reduce"
  top: "inception_4a/5x5_reduce"
}
layer {
  name: "inception_4a/5x5"
  type: "Convolution"
  bottom: "inception_4a/5x5_reduce"
  top: "inception_4a/5x5"
  param {
    lr_mult: 1
    decay_mult: 1
  }
  param {
    lr_mult: 2
    decay_mult: 0
  }
  convolution_param {
    num_output: 48
    pad: 2
    kernel_size: 5
    weight_filler {
      type: "xavier"
      std: 0.03
    }
    bias_filler {
      type: "constant"
      value: 0.2
    }
  }
}
layer {
  name: "inception_4a/relu_5x5"
  type: "ReLU"
  bottom: "inception_4a/5x5"
  top: "inception_4a/5x5"
}
layer {
  name: "inception_4a/pool"
  type: "Pooling"
  bottom: "pool3/3x3_s2"
  top: "inception_4a/pool"
  pooling_param {
    pool: MAX
    kernel_size: 3
    stride: 1
    pad: 1
  }
}
layer {
  name: "inception_4a/pool_proj"
  type: "Convolution"
  bottom: "inception_4a/pool"
  top: "inception_4a/pool_proj"
  param {
    lr_mult: 1
    decay_mult: 1
  }
  param {
    lr_mult: 2
    decay_mult: 0
  }
  convolution_param {
    num_output: 64
    kernel_size: 1
    weight_filler {
      type: "xavier"
      std: 0.1
    }
    bias_filler {
      type: "constant"
      value: 0.2
    }
  }
}
layer {
  name: "inception_4a/relu_pool_proj"
  type: "ReLU"
  bottom: "inception_4a/pool_proj"
  top: "inception_4a/pool_proj"
}
layer {
  name: "inception_4a/output"
  type: "Concat"
  bottom: "inception_4a/1x1"
  bottom: "inception_4a/3x3"
  bottom: "inception_4a/5x5"
  bottom: "inception_4a/pool_proj"
  top: "inception_4a/output"
}
layer {
  name: "loss1/ave_pool"
  type: "Pooling"
  bottom: "inception_4a/output"
  top: "loss1/ave_pool"
  pooling_param {
    pool: AVE
    kernel_size: 5
    stride: 3
  }
}
layer {
  name: "loss1/conv"
  type: "Convolution"
  bottom: "loss1/ave_pool"
  top: "loss1/conv"
  param {
    lr_mult: 1
    decay_mult: 1
  }
  param {
    lr_mult: 2
    decay_mult: 0
  }
  convolution_param {
    num_output: 128
    kernel_size: 1
    weight_filler {
      type: "xavier"
      std: 0.08
    }
    bias_filler {
      type: "constant"
      value: 0.2
    }
  }
}
layer {
  name: "loss1/relu_conv"
  type: "ReLU"
  bottom: "loss1/conv"
  top: "loss1/conv"
}
layer {
  name: "loss1/fc"
  type: "InnerProduct"
  bottom: "loss1/conv"
  top: "loss1/fc"
  param {
    lr_mult: 1
    decay_mult: 1
  }
  param {
    lr_mult: 2
    decay_mult: 0
  }
  inner_product_param {
    num_output: 1024
    weight_filler {
      type: "xavier"
      std: 0.02
    }
    bias_filler {
      type: "constant"
      value: 0.2
    }
  }
}
layer {
  name: "loss1/relu_fc"
  type: "ReLU"
  bottom: "loss1/fc"
  top: "loss1/fc"
}
layer {
  name: "loss1/drop_fc"
  type: "Dropout"
  bottom: "loss1/fc"
  top: "loss1/fc"
  dropout_param {
    dropout_ratio: 0.7
  }
}
layer {
  name: "loss1/classifier_plantvillage"
  type: "InnerProduct"
  bottom: "loss1/fc"
  top: "loss1/classifier_plantvillage"
  param {
    lr_mult: 1
    decay_mult: 1
  }
  param {
    lr_mult: 2
    decay_mult: 0
  }
  inner_product_param {
    num_output: 38
    weight_filler {
      type: "xavier"
      std: 0.0009765625
    }
    bias_filler {
      type: "constant"
      value: 0
    }
  }
}
layer {
  name: "inception_4b/1x1"
  type: "Convolution"
  bottom: "inception_4a/output"
  top: "inception_4b/1x1"
  param {
    lr_mult: 1
    decay_mult: 1
  }
  param {
    lr_mult: 2
    decay_mult: 0
  }
  convolution_param {
    num_output: 160
    kernel_size: 1
    weight_filler {
      type: "xavier"
      std: 0.03
    }
    bias_filler {
      type: "constant"
      value: 0.2
    }
  }
}
layer {
  name: "inception_4b/relu_1x1"
  type: "ReLU"
  bottom: "inception_4b/1x1"
  top: "inception_4b/1x1"
}
layer {
  name: "inception_4b/3x3_reduce"
  type: "Convolution"
  bottom: "inception_4a/output"
  top: "inception_4b/3x3_reduce"
  param {
    lr_mult: 1
    decay_mult: 1
  }
  param {
    lr_mult: 2
    decay_mult: 0
  }
  convolution_param {
    num_output: 112
    kernel_size: 1
    weight_filler {
      type: "xavier"
      std: 0.09
    }
    bias_filler {
      type: "constant"
      value: 0.2
    }
  }
}
layer {
  name: "inception_4b/relu_3x3_reduce"
  type: "ReLU"
  bottom: "inception_4b/3x3_reduce"
  top: "inception_4b/3x3_reduce"
}
layer {
  name: "inception_4b/3x3"
  type: "Convolution"
  bottom: "inception_4b/3x3_reduce"
  top: "inception_4b/3x3"
  param {
    lr_mult: 1
    decay_mult: 1
  }
  param {
    lr_mult: 2
    decay_mult: 0
  }
  convolution_param {
    num_output: 224
    pad: 1
    kernel_size: 3
    weight_filler {
      type: "xavier"
      std: 0.03
    }
    bias_filler {
      type: "constant"
      value: 0.2
    }
  }
}
layer {
  name: "inception_4b/relu_3x3"
  type: "ReLU"
  bottom: "inception_4b/3x3"
  top: "inception_4b/3x3"
}
layer {
  name: "inception_4b/5x5_reduce"
  type: "Convolution"
  bottom: "inception_4a/output"
  top: "inception_4b/5x5_reduce"
  param {
    lr_mult: 1
    decay_mult: 1
  }
  param {
    lr_mult: 2
    decay_mult: 0
  }
  convolution_param {
    num_output: 24
    kernel_size: 1
    weight_filler {
      type: "xavier"
      std: 0.2
    }
    bias_filler {
      type: "constant"
      value: 0.2
    }
  }
}
layer {
  name: "inception_4b/relu_5x5_reduce"
  type: "ReLU"
  bottom: "inception_4b/5x5_reduce"
  top: "inception_4b/5x5_reduce"
}
layer {
  name: "inception_4b/5x5"
  type: "Convolution"
  bottom: "inception_4b/5x5_reduce"
  top: "inception_4b/5x5"
  param {
    lr_mult: 1
    decay_mult: 1
  }
  param {
    lr_mult: 2
    decay_mult: 0
  }
  convolution_param {
    num_output: 64
    pad: 2
    kernel_size: 5
    weight_filler {
      type: "xavier"
      std: 0.03
    }
    bias_filler {
      type: "constant"
      value: 0.2
    }
  }
}
layer {
  name: "inception_4b/relu_5x5"
  type: "ReLU"
  bottom: "inception_4b/5x5"
  top: "inception_4b/5x5"
}
layer {
  name: "inception_4b/pool"
  type: "Pooling"
  bottom: "inception_4a/output"
  top: "inception_4b/pool"
  pooling_param {
    pool: MAX
    kernel_size: 3
    stride: 1
    pad: 1
  }
}
layer {
  name: "inception_4b/pool_proj"
  type: "Convolution"
  bottom: "inception_4b/pool"
  top: "inception_4b/pool_proj"
  param {
    lr_mult: 1
    decay_mult: 1
  }
  param {
    lr_mult: 2
    decay_mult: 0
  }
  convolution_param {
    num_output: 64
    kernel_size: 1
    weight_filler {
      type: "xavier"
      std: 0.1
    }
    bias_filler {
      type: "constant"
      value: 0.2
    }
  }
}
layer {
  name: "inception_4b/relu_pool_proj"
  type: "ReLU"
  bottom: "inception_4b/pool_proj"
  top: "inception_4b/pool_proj"
}
layer {
  name: "inception_4b/output"
  type: "Concat"
  bottom: "inception_4b/1x1"
  bottom: "inception_4b/3x3"
  bottom: "inception_4b/5x5"
  bottom: "inception_4b/pool_proj"
  top: "inception_4b/output"
}
layer {
  name: "inception_4c/1x1"
  type: "Convolution"
  bottom: "inception_4b/output"
  top: "inception_4c/1x1"
  param {
    lr_mult: 1
    decay_mult: 1
  }
  param {
    lr_mult: 2
    decay_mult: 0
  }
  convolution_param {
    num_output: 128
    kernel_size: 1
    weight_filler {
      type: "xavier"
      std: 0.03
    }
    bias_filler {
      type: "constant"
      value: 0.2
    }
  }
}
layer {
  name: "inception_4c/relu_1x1"
  type: "ReLU"
  bottom: "inception_4c/1x1"
  top: "inception_4c/1x1"
}
layer {
  name: "inception_4c/3x3_reduce"
  type: "Convolution"
  bottom: "inception_4b/output"
  top: "inception_4c/3x3_reduce"
  param {
    lr_mult: 1
    decay_mult: 1
  }
  param {
    lr_mult: 2
    decay_mult: 0
  }
  convolution_param {
    num_output: 128
    kernel_size: 1
    weight_filler {
      type: "xavier"
      std: 0.09
    }
    bias_filler {
      type: "constant"
      value: 0.2
    }
  }
}
layer {
  name: "inception_4c/relu_3x3_reduce"
  type: "ReLU"
  bottom: "inception_4c/3x3_reduce"
  top: "inception_4c/3x3_reduce"
}
layer {
  name: "inception_4c/3x3"
  type: "Convolution"
  bottom: "inception_4c/3x3_reduce"
  top: "inception_4c/3x3"
  param {
    lr_mult: 1
    decay_mult: 1
  }
  param {
    lr_mult: 2
    decay_mult: 0
  }
  convolution_param {
    num_output: 256
    pad: 1
    kernel_size: 3
    weight_filler {
      type: "xavier"
      std: 0.03
    }
    bias_filler {
      type: "constant"
      value: 0.2
    }
  }
}
layer {
  name: "inception_4c/relu_3x3"
  type: "ReLU"
  bottom: "inception_4c/3x3"
  top: "inception_4c/3x3"
}
layer {
  name: "inception_4c/5x5_reduce"
  type: "Convolution"
  bottom: "inception_4b/output"
  top: "inception_4c/5x5_reduce"
  param {
    lr_mult: 1
    decay_mult: 1
  }
  param {
    lr_mult: 2
    decay_mult: 0
  }
  convolution_param {
    num_output: 24
    kernel_size: 1
    weight_filler {
      type: "xavier"
      std: 0.2
    }
    bias_filler {
      type: "constant"
      value: 0.2
    }
  }
}
layer {
  name: "inception_4c/relu_5x5_reduce"
  type: "ReLU"
  bottom: "inception_4c/5x5_reduce"
  top: "inception_4c/5x5_reduce"
}
layer {
  name: "inception_4c/5x5"
  type: "Convolution"
  bottom: "inception_4c/5x5_reduce"
  top: "inception_4c/5x5"
  param {
    lr_mult: 1
    decay_mult: 1
  }
  param {
    lr_mult: 2
    decay_mult: 0
  }
  convolution_param {
    num_output: 64
    pad: 2
    kernel_size: 5
    weight_filler {
      type: "xavier"
      std: 0.03
    }
    bias_filler {
      type: "constant"
      value: 0.2
    }
  }
}
layer {
  name: "inception_4c/relu_5x5"
  type: "ReLU"
  bottom: "inception_4c/5x5"
  top: "inception_4c/5x5"
}
layer {
  name: "inception_4c/pool"
  type: "Pooling"
  bottom: "inception_4b/output"
  top: "inception_4c/pool"
  pooling_param {
    pool: MAX
    kernel_size: 3
    stride: 1
    pad: 1
  }
}
layer {
  name: "inception_4c/pool_proj"
  type: "Convolution"
  bottom: "inception_4c/pool"
  top: "inception_4c/pool_proj"
  param {
    lr_mult: 1
    decay_mult: 1
  }
  param {
    lr_mult: 2
    decay_mult: 0
  }
  convolution_param {
    num_output: 64
    kernel_size: 1
    weight_filler {
      type: "xavier"
      std: 0.1
    }
    bias_filler {
      type: "constant"
      value: 0.2
    }
  }
}
layer {
  name: "inception_4c/relu_pool_proj"
  type: "ReLU"
  bottom: "inception_4c/pool_proj"
  top: "inception_4c/pool_proj"
}
layer {
  name: "inception_4c/output"
  type: "Concat"
  bottom: "inception_4c/1x1"
  bottom: "inception_4c/3x3"
  bottom: "inception_4c/5x5"
  bottom: "inception_4c/pool_proj"
  top: "inception_4c/output"
}
layer {
  name: "inception_4d/1x1"
  type: "Convolution"
  bottom: "inception_4c/output"
  top: "inception_4d/1x1"
  param {
    lr_mult: 1
    decay_mult: 1
  }
  param {
    lr_mult: 2
    decay_mult: 0
  }
  convolution_param {
    num_output: 112
    kernel_size: 1
    weight_filler {
      type: "xavier"
      std: 0.03
    }
    bias_filler {
      type: "constant"
      value: 0.2
    }
  }
}
layer {
  name: "inception_4d/relu_1x1"
  type: "ReLU"
  bottom: "inception_4d/1x1"
  top: "inception_4d/1x1"
}
layer {
  name: "inception_4d/3x3_reduce"
  type: "Convolution"
  bottom: "inception_4c/output"
  top: "inception_4d/3x3_reduce"
  param {
    lr_mult: 1
    decay_mult: 1
  }
  param {
    lr_mult: 2
    decay_mult: 0
  }
  convolution_param {
    num_output: 144
    kernel_size: 1
    weight_filler {
      type: "xavier"
      std: 0.09
    }
    bias_filler {
      type: "constant"
      value: 0.2
    }
  }
}
layer {
  name: "inception_4d/relu_3x3_reduce"
  type: "ReLU"
  bottom: "inception_4d/3x3_reduce"
  top: "inception_4d/3x3_reduce"
}
layer {
  name: "inception_4d/3x3"
  type: "Convolution"
  bottom: "inception_4d/3x3_reduce"
  top: "inception_4d/3x3"
  param {
    lr_mult: 1
    decay_mult: 1
  }
  param {
    lr_mult: 2
    decay_mult: 0
  }
  convolution_param {
    num_output: 288
    pad: 1
    kernel_size: 3
    weight_filler {
      type: "xavier"
      std: 0.03
    }
    bias_filler {
      type: "constant"
      value: 0.2
    }
  }
}
layer {
  name: "inception_4d/relu_3x3"
  type: "ReLU"
  bottom: "inception_4d/3x3"
  top: "inception_4d/3x3"
}
layer {
  name: "inception_4d/5x5_reduce"
  type: "Convolution"
  bottom: "inception_4c/output"
  top: "inception_4d/5x5_reduce"
  param {
    lr_mult: 1
    decay_mult: 1
  }
  param {
    lr_mult: 2
    decay_mult: 0
  }
  convolution_param {
    num_output: 32
    kernel_size: 1
    weight_filler {
      type: "xavier"
      std: 0.2
    }
    bias_filler {
      type: "constant"
      value: 0.2
    }
  }
}
layer {
  name: "inception_4d/relu_5x5_reduce"
  type: "ReLU"
  bottom: "inception_4d/5x5_reduce"
  top: "inception_4d/5x5_reduce"
}
layer {
  name: "inception_4d/5x5"
  type: "Convolution"
  bottom: "inception_4d/5x5_reduce"
  top: "inception_4d/5x5"
  param {
    lr_mult: 1
    decay_mult: 1
  }
  param {
    lr_mult: 2
    decay_mult: 0
  }
  convolution_param {
    num_output: 64
    pad: 2
    kernel_size: 5
    weight_filler {
      type: "xavier"
      std: 0.03
    }
    bias_filler {
      type: "constant"
      value: 0.2
    }
  }
}
layer {
  name: "inception_4d/relu_5x5"
  type: "ReLU"
  bottom: "inception_4d/5x5"
  top: "inception_4d/5x5"
}
layer {
  name: "inception_4d/pool"
  type: "Pooling"
  bottom: "inception_4c/output"
  top: "inception_4d/pool"
  pooling_param {
    pool: MAX
    kernel_size: 3
    stride: 1
    pad: 1
  }
}
layer {
  name: "inception_4d/pool_proj"
  type: "Convolution"
  bottom: "inception_4d/pool"
  top: "inception_4d/pool_proj"
  param {
    lr_mult: 1
    decay_mult: 1
  }
  param {
    lr_mult: 2
    decay_mult: 0
  }
  convolution_param {
    num_output: 64
    kernel_size: 1
    weight_filler {
      type: "xavier"
      std: 0.1
    }
    bias_filler {
      type: "constant"
      value: 0.2
    }
  }
}
layer {
  name: "inception_4d/relu_pool_proj"
  type: "ReLU"
  bottom: "inception_4d/pool_proj"
  top: "inception_4d/pool_proj"
}
layer {
  name: "inception_4d/output"
  type: "Concat"
  bottom: "inception_4d/1x1"
  bottom: "inception_4d/3x3"
  bottom: "inception_4d/5x5"
  bottom: "inception_4d/pool_proj"
  top: "inception_4d/output"
}
layer {
  name: "loss2/ave_pool"
  type: "Pooling"
  bottom: "inception_4d/output"
  top: "loss2/ave_pool"
  pooling_param {
    pool: AVE
    kernel_size: 5
    stride: 3
  }
}
layer {
  name: "loss2/conv"
  type: "Convolution"
  bottom: "loss2/ave_pool"
  top: "loss2/conv"
  param {
    lr_mult: 1
    decay_mult: 1
  }
  param {
    lr_mult: 2
    decay_mult: 0
  }
  convolution_param {
    num_output: 128
    kernel_size: 1
    weight_filler {
      type: "xavier"
      std: 0.08
    }
    bias_filler {
      type: "constant"
      value: 0.2
    }
  }
}
layer {
  name: "loss2/relu_conv"
  type: "ReLU"
  bottom: "loss2/conv"
  top: "loss2/conv"
}
layer {
  name: "loss2/fc"
  type: "InnerProduct"
  bottom: "loss2/conv"
  top: "loss2/fc"
  param {
    lr_mult: 1
    decay_mult: 1
  }
  param {
    lr_mult: 2
    decay_mult: 0
  }
  inner_product_param {
    num_output: 1024
    weight_filler {
      type: "xavier"
      std: 0.02
    }
    bias_filler {
      type: "constant"
      value: 0.2
    }
  }
}
layer {
  name: "loss2/relu_fc"
  type: "ReLU"
  bottom: "loss2/fc"
  top: "loss2/fc"
}
layer {
  name: "loss2/drop_fc"
  type: "Dropout"
  bottom: "loss2/fc"
  top: "loss2/fc"
  dropout_param {
    dropout_ratio: 0.7
  }
}
layer {
  name: "loss2/classifier_plantvillage"
  type: "InnerProduct"
  bottom: "loss2/fc"
  top: "loss2/classifier_plantvillage"
  param {
    lr_mult: 1
    decay_mult: 1
  }
  param {
    lr_mult: 2
    decay_mult: 0
  }
  inner_product_param {
    num_output: 38
    weight_filler {
      type: "xavier"
      std: 0.0009765625
    }
    bias_filler {
      type: "constant"
      value: 0
    }
  }
}
layer {
  name: "inception_4e/1x1"
  type: "Convolution"
  bottom: "inception_4d/output"
  top: "inception_4e/1x1"
  param {
    lr_mult: 1
    decay_mult: 1
  }
  param {
    lr_mult: 2
    decay_mult: 0
  }
  convolution_param {
    num_output: 256
    kernel_size: 1
    weight_filler {
      type: "xavier"
      std: 0.03
    }
    bias_filler {
      type: "constant"
      value: 0.2
    }
  }
}
layer {
  name: "inception_4e/relu_1x1"
  type: "ReLU"
  bottom: "inception_4e/1x1"
  top: "inception_4e/1x1"
}
layer {
  name: "inception_4e/3x3_reduce"
  type: "Convolution"
  bottom: "inception_4d/output"
  top: "inception_4e/3x3_reduce"
  param {
    lr_mult: 1
    decay_mult: 1
  }
  param {
    lr_mult: 2
    decay_mult: 0
  }
  convolution_param {
    num_output: 160
    kernel_size: 1
    weight_filler {
      type: "xavier"
      std: 0.09
    }
    bias_filler {
      type: "constant"
      value: 0.2
    }
  }
}
layer {
  name: "inception_4e/relu_3x3_reduce"
  type: "ReLU"
  bottom: "inception_4e/3x3_reduce"
  top: "inception_4e/3x3_reduce"
}
layer {
  name: "inception_4e/3x3"
  type: "Convolution"
  bottom: "inception_4e/3x3_reduce"
  top: "inception_4e/3x3"
  param {
    lr_mult: 1
    decay_mult: 1
  }
  param {
    lr_mult: 2
    decay_mult: 0
  }
  convolution_param {
    num_output: 320
    pad: 1
    kernel_size: 3
    weight_filler {
      type: "xavier"
      std: 0.03
    }
    bias_filler {
      type: "constant"
      value: 0.2
    }
  }
}
layer {
  name: "inception_4e/relu_3x3"
  type: "ReLU"
  bottom: "inception_4e/3x3"
  top: "inception_4e/3x3"
}
layer {
  name: "inception_4e/5x5_reduce"
  type: "Convolution"
  bottom: "inception_4d/output"
  top: "inception_4e/5x5_reduce"
  param {
    lr_mult: 1
    decay_mult: 1
  }
  param {
    lr_mult: 2
    decay_mult: 0
  }
  convolution_param {
    num_output: 32
    kernel_size: 1
    weight_filler {
      type: "xavier"
      std: 0.2
    }
    bias_filler {
      type: "constant"
      value: 0.2
    }
  }
}
layer {
  name: "inception_4e/relu_5x5_reduce"
  type: "ReLU"
  bottom: "inception_4e/5x5_reduce"
  top: "inception_4e/5x5_reduce"
}
layer {
  name: "inception_4e/5x5"
  type: "Convolution"
  bottom: "inception_4e/5x5_reduce"
  top: "inception_4e/
I0403 18:10:22.227762  6647 layer_factory.hpp:77] Creating layer data
I0403 18:10:22.228358  6647 net.cpp:91] Creating Layer data
I0403 18:10:22.228389  6647 net.cpp:399] data -> data
I0403 18:10:22.228438  6647 net.cpp:399] data -> label
I0403 18:10:22.228474  6647 data_transformer.cpp:25] Loading mean file from: /home/mohanty/data/final_dataset/lmdb/grayscale-40-60/mean.binaryproto
I0403 18:10:22.229499  6650 db_lmdb.cpp:38] Opened lmdb /home/mohanty/data/final_dataset/lmdb/grayscale-40-60/test_db
I0403 18:10:22.242523  6647 data_layer.cpp:41] output data size: 24,3,224,224
I0403 18:10:22.271616  6647 net.cpp:141] Setting up data
I0403 18:10:22.271677  6647 net.cpp:148] Top shape: 24 3 224 224 (3612672)
I0403 18:10:22.271699  6647 net.cpp:148] Top shape: 24 (24)
I0403 18:10:22.271714  6647 net.cpp:156] Memory required for data: 14450784
I0403 18:10:22.271740  6647 layer_factory.hpp:77] Creating layer label_data_1_split
I0403 18:10:22.271765  6647 net.cpp:91] Creating Layer label_data_1_split
I0403 18:10:22.271782  6647 net.cpp:425] label_data_1_split <- label
I0403 18:10:22.271813  6647 net.cpp:399] label_data_1_split -> label_data_1_split_0
I0403 18:10:22.271841  6647 net.cpp:399] label_data_1_split -> label_data_1_split_1
I0403 18:10:22.271859  6647 net.cpp:399] label_data_1_split -> label_data_1_split_2
I0403 18:10:22.271878  6647 net.cpp:399] label_data_1_split -> label_data_1_split_3
I0403 18:10:22.271898  6647 net.cpp:399] label_data_1_split -> label_data_1_split_4
I0403 18:10:22.271917  6647 net.cpp:399] label_data_1_split -> label_data_1_split_5
I0403 18:10:22.271935  6647 net.cpp:399] label_data_1_split -> label_data_1_split_6
I0403 18:10:22.271955  6647 net.cpp:399] label_data_1_split -> label_data_1_split_7
I0403 18:10:22.271975  6647 net.cpp:399] label_data_1_split -> label_data_1_split_8
I0403 18:10:22.271993  6647 net.cpp:399] label_data_1_split -> label_data_1_split_9
I0403 18:10:22.272105  6647 net.cpp:141] Setting up label_data_1_split
I0403 18:10:22.272130  6647 net.cpp:148] Top shape: 24 (24)
I0403 18:10:22.272146  6647 net.cpp:148] Top shape: 24 (24)
I0403 18:10:22.272162  6647 net.cpp:148] Top shape: 24 (24)
I0403 18:10:22.272178  6647 net.cpp:148] Top shape: 24 (24)
I0403 18:10:22.272193  6647 net.cpp:148] Top shape: 24 (24)
I0403 18:10:22.272208  6647 net.cpp:148] Top shape: 24 (24)
I0403 18:10:22.272223  6647 net.cpp:148] Top shape: 24 (24)
I0403 18:10:22.272248  6647 net.cpp:148] Top shape: 24 (24)
I0403 18:10:22.272267  6647 net.cpp:148] Top shape: 24 (24)
I0403 18:10:22.272286  6647 net.cpp:148] Top shape: 24 (24)
I0403 18:10:22.272320  6647 net.cpp:156] Memory required for data: 14451744
I0403 18:10:22.272336  6647 layer_factory.hpp:77] Creating layer conv1/7x7_s2
I0403 18:10:22.272367  6647 net.cpp:91] Creating Layer conv1/7x7_s2
I0403 18:10:22.272384  6647 net.cpp:425] conv1/7x7_s2 <- data
I0403 18:10:22.272403  6647 net.cpp:399] conv1/7x7_s2 -> conv1/7x7_s2
I0403 18:10:22.413569  6647 net.cpp:141] Setting up conv1/7x7_s2
I0403 18:10:22.413652  6647 net.cpp:148] Top shape: 24 64 112 112 (19267584)
I0403 18:10:22.413669  6647 net.cpp:156] Memory required for data: 91522080
I0403 18:10:22.413700  6647 layer_factory.hpp:77] Creating layer conv1/relu_7x7
I0403 18:10:22.413732  6647 net.cpp:91] Creating Layer conv1/relu_7x7
I0403 18:10:22.413750  6647 net.cpp:425] conv1/relu_7x7 <- conv1/7x7_s2
I0403 18:10:22.413769  6647 net.cpp:386] conv1/relu_7x7 -> conv1/7x7_s2 (in-place)
I0403 18:10:22.414055  6647 net.cpp:141] Setting up conv1/relu_7x7
I0403 18:10:22.414083  6647 net.cpp:148] Top shape: 24 64 112 112 (19267584)
I0403 18:10:22.414098  6647 net.cpp:156] Memory required for data: 168592416
I0403 18:10:22.414114  6647 layer_factory.hpp:77] Creating layer pool1/3x3_s2
I0403 18:10:22.414141  6647 net.cpp:91] Creating Layer pool1/3x3_s2
I0403 18:10:22.414160  6647 net.cpp:425] pool1/3x3_s2 <- conv1/7x7_s2
I0403 18:10:22.414180  6647 net.cpp:399] pool1/3x3_s2 -> pool1/3x3_s2
I0403 18:10:22.414264  6647 net.cpp:141] Setting up pool1/3x3_s2
I0403 18:10:22.414289  6647 net.cpp:148] Top shape: 24 64 56 56 (4816896)
I0403 18:10:22.414304  6647 net.cpp:156] Memory required for data: 187860000
I0403 18:10:22.414319  6647 layer_factory.hpp:77] Creating layer pool1/norm1
I0403 18:10:22.414345  6647 net.cpp:91] Creating Layer pool1/norm1
I0403 18:10:22.414363  6647 net.cpp:425] pool1/norm1 <- pool1/3x3_s2
I0403 18:10:22.414381  6647 net.cpp:399] pool1/norm1 -> pool1/norm1
I0403 18:10:22.414747  6647 net.cpp:141] Setting up pool1/norm1
I0403 18:10:22.414778  6647 net.cpp:148] Top shape: 24 64 56 56 (4816896)
I0403 18:10:22.414794  6647 net.cpp:156] Memory required for data: 207127584
I0403 18:10:22.414809  6647 layer_factory.hpp:77] Creating layer conv2/3x3_reduce
I0403 18:10:22.414834  6647 net.cpp:91] Creating Layer conv2/3x3_reduce
I0403 18:10:22.414851  6647 net.cpp:425] conv2/3x3_reduce <- pool1/norm1
I0403 18:10:22.414875  6647 net.cpp:399] conv2/3x3_reduce -> conv2/3x3_reduce
I0403 18:10:22.416399  6647 net.cpp:141] Setting up conv2/3x3_reduce
I0403 18:10:22.416429  6647 net.cpp:148] Top shape: 24 64 56 56 (4816896)
I0403 18:10:22.416445  6647 net.cpp:156] Memory required for data: 226395168
I0403 18:10:22.416466  6647 layer_factory.hpp:77] Creating layer conv2/relu_3x3_reduce
I0403 18:10:22.416484  6647 net.cpp:91] Creating Layer conv2/relu_3x3_reduce
I0403 18:10:22.416501  6647 net.cpp:425] conv2/relu_3x3_reduce <- conv2/3x3_reduce
I0403 18:10:22.416522  6647 net.cpp:386] conv2/relu_3x3_reduce -> conv2/3x3_reduce (in-place)
I0403 18:10:22.416803  6647 net.cpp:141] Setting up conv2/relu_3x3_reduce
I0403 18:10:22.416831  6647 net.cpp:148] Top shape: 24 64 56 56 (4816896)
I0403 18:10:22.416846  6647 net.cpp:156] Memory required for data: 245662752
I0403 18:10:22.416862  6647 layer_factory.hpp:77] Creating layer conv2/3x3
I0403 18:10:22.416889  6647 net.cpp:91] Creating Layer conv2/3x3
I0403 18:10:22.416909  6647 net.cpp:425] conv2/3x3 <- conv2/3x3_reduce
I0403 18:10:22.416931  6647 net.cpp:399] conv2/3x3 -> conv2/3x3
I0403 18:10:22.419420  6647 net.cpp:141] Setting up conv2/3x3
I0403 18:10:22.419452  6647 net.cpp:148] Top shape: 24 192 56 56 (14450688)
I0403 18:10:22.419469  6647 net.cpp:156] Memory required for data: 303465504
I0403 18:10:22.419492  6647 layer_factory.hpp:77] Creating layer conv2/relu_3x3
I0403 18:10:22.419513  6647 net.cpp:91] Creating Layer conv2/relu_3x3
I0403 18:10:22.419530  6647 net.cpp:425] conv2/relu_3x3 <- conv2/3x3
I0403 18:10:22.419549  6647 net.cpp:386] conv2/relu_3x3 -> conv2/3x3 (in-place)
I0403 18:10:22.419734  6647 net.cpp:141] Setting up conv2/relu_3x3
I0403 18:10:22.419764  6647 net.cpp:148] Top shape: 24 192 56 56 (14450688)
I0403 18:10:22.419837  6647 net.cpp:156] Memory required for data: 361268256
I0403 18:10:22.419858  6647 layer_factory.hpp:77] Creating layer conv2/norm2
I0403 18:10:22.419877  6647 net.cpp:91] Creating Layer conv2/norm2
I0403 18:10:22.419893  6647 net.cpp:425] conv2/norm2 <- conv2/3x3
I0403 18:10:22.419914  6647 net.cpp:399] conv2/norm2 -> conv2/norm2
I0403 18:10:22.420248  6647 net.cpp:141] Setting up conv2/norm2
I0403 18:10:22.420277  6647 net.cpp:148] Top shape: 24 192 56 56 (14450688)
I0403 18:10:22.420294  6647 net.cpp:156] Memory required for data: 419071008
I0403 18:10:22.420308  6647 layer_factory.hpp:77] Creating layer pool2/3x3_s2
I0403 18:10:22.420326  6647 net.cpp:91] Creating Layer pool2/3x3_s2
I0403 18:10:22.420343  6647 net.cpp:425] pool2/3x3_s2 <- conv2/norm2
I0403 18:10:22.420364  6647 net.cpp:399] pool2/3x3_s2 -> pool2/3x3_s2
I0403 18:10:22.420421  6647 net.cpp:141] Setting up pool2/3x3_s2
I0403 18:10:22.420445  6647 net.cpp:148] Top shape: 24 192 28 28 (3612672)
I0403 18:10:22.420461  6647 net.cpp:156] Memory required for data: 433521696
I0403 18:10:22.420477  6647 layer_factory.hpp:77] Creating layer pool2/3x3_s2_pool2/3x3_s2_0_split
I0403 18:10:22.420498  6647 net.cpp:91] Creating Layer pool2/3x3_s2_pool2/3x3_s2_0_split
I0403 18:10:22.420516  6647 net.cpp:425] pool2/3x3_s2_pool2/3x3_s2_0_split <- pool2/3x3_s2
I0403 18:10:22.420534  6647 net.cpp:399] pool2/3x3_s2_pool2/3x3_s2_0_split -> pool2/3x3_s2_pool2/3x3_s2_0_split_0
I0403 18:10:22.420558  6647 net.cpp:399] pool2/3x3_s2_pool2/3x3_s2_0_split -> pool2/3x3_s2_pool2/3x3_s2_0_split_1
I0403 18:10:22.420580  6647 net.cpp:399] pool2/3x3_s2_pool2/3x3_s2_0_split -> pool2/3x3_s2_pool2/3x3_s2_0_split_2
I0403 18:10:22.420599  6647 net.cpp:399] pool2/3x3_s2_pool2/3x3_s2_0_split -> pool2/3x3_s2_pool2/3x3_s2_0_split_3
I0403 18:10:22.420675  6647 net.cpp:141] Setting up pool2/3x3_s2_pool2/3x3_s2_0_split
I0403 18:10:22.420699  6647 net.cpp:148] Top shape: 24 192 28 28 (3612672)
I0403 18:10:22.420717  6647 net.cpp:148] Top shape: 24 192 28 28 (3612672)
I0403 18:10:22.420733  6647 net.cpp:148] Top shape: 24 192 28 28 (3612672)
I0403 18:10:22.420749  6647 net.cpp:148] Top shape: 24 192 28 28 (3612672)
I0403 18:10:22.420764  6647 net.cpp:156] Memory required for data: 491324448
I0403 18:10:22.420778  6647 layer_factory.hpp:77] Creating layer inception_3a/1x1
I0403 18:10:22.420804  6647 net.cpp:91] Creating Layer inception_3a/1x1
I0403 18:10:22.420821  6647 net.cpp:425] inception_3a/1x1 <- pool2/3x3_s2_pool2/3x3_s2_0_split_0
I0403 18:10:22.420843  6647 net.cpp:399] inception_3a/1x1 -> inception_3a/1x1
I0403 18:10:22.422483  6647 net.cpp:141] Setting up inception_3a/1x1
I0403 18:10:22.422514  6647 net.cpp:148] Top shape: 24 64 28 28 (1204224)
I0403 18:10:22.422530  6647 net.cpp:156] Memory required for data: 496141344
I0403 18:10:22.422549  6647 layer_factory.hpp:77] Creating layer inception_3a/relu_1x1
I0403 18:10:22.422569  6647 net.cpp:91] Creating Layer inception_3a/relu_1x1
I0403 18:10:22.422588  6647 net.cpp:425] inception_3a/relu_1x1 <- inception_3a/1x1
I0403 18:10:22.422606  6647 net.cpp:386] inception_3a/relu_1x1 -> inception_3a/1x1 (in-place)
I0403 18:10:22.422788  6647 net.cpp:141] Setting up inception_3a/relu_1x1
I0403 18:10:22.422816  6647 net.cpp:148] Top shape: 24 64 28 28 (1204224)
I0403 18:10:22.422829  6647 net.cpp:156] Memory required for data: 500958240
I0403 18:10:22.422844  6647 layer_factory.hpp:77] Creating layer inception_3a/3x3_reduce
I0403 18:10:22.422868  6647 net.cpp:91] Creating Layer inception_3a/3x3_reduce
I0403 18:10:22.422888  6647 net.cpp:425] inception_3a/3x3_reduce <- pool2/3x3_s2_pool2/3x3_s2_0_split_1
I0403 18:10:22.422909  6647 net.cpp:399] inception_3a/3x3_reduce -> inception_3a/3x3_reduce
I0403 18:10:22.424646  6647 net.cpp:141] Setting up inception_3a/3x3_reduce
I0403 18:10:22.424676  6647 net.cpp:148] Top shape: 24 96 28 28 (1806336)
I0403 18:10:22.424691  6647 net.cpp:156] Memory required for data: 508183584
I0403 18:10:22.424713  6647 layer_factory.hpp:77] Creating layer inception_3a/relu_3x3_reduce
I0403 18:10:22.424752  6647 net.cpp:91] Creating Layer inception_3a/relu_3x3_reduce
I0403 18:10:22.424772  6647 net.cpp:425] inception_3a/relu_3x3_reduce <- inception_3a/3x3_reduce
I0403 18:10:22.424789  6647 net.cpp:386] inception_3a/relu_3x3_reduce -> inception_3a/3x3_reduce (in-place)
I0403 18:10:22.424975  6647 net.cpp:141] Setting up inception_3a/relu_3x3_reduce
I0403 18:10:22.425003  6647 net.cpp:148] Top shape: 24 96 28 28 (1806336)
I0403 18:10:22.425019  6647 net.cpp:156] Memory required for data: 515408928
I0403 18:10:22.425034  6647 layer_factory.hpp:77] Creating layer inception_3a/3x3
I0403 18:10:22.425057  6647 net.cpp:91] Creating Layer inception_3a/3x3
I0403 18:10:22.425076  6647 net.cpp:425] inception_3a/3x3 <- inception_3a/3x3_reduce
I0403 18:10:22.425098  6647 net.cpp:399] inception_3a/3x3 -> inception_3a/3x3
I0403 18:10:22.426798  6647 net.cpp:141] Setting up inception_3a/3x3
I0403 18:10:22.426828  6647 net.cpp:148] Top shape: 24 128 28 28 (2408448)
I0403 18:10:22.426844  6647 net.cpp:156] Memory required for data: 525042720
I0403 18:10:22.426863  6647 layer_factory.hpp:77] Creating layer inception_3a/relu_3x3
I0403 18:10:22.426884  6647 net.cpp:91] Creating Layer inception_3a/relu_3x3
I0403 18:10:22.426901  6647 net.cpp:425] inception_3a/relu_3x3 <- inception_3a/3x3
I0403 18:10:22.426920  6647 net.cpp:386] inception_3a/relu_3x3 -> inception_3a/3x3 (in-place)
I0403 18:10:22.427206  6647 net.cpp:141] Setting up inception_3a/relu_3x3
I0403 18:10:22.427233  6647 net.cpp:148] Top shape: 24 128 28 28 (2408448)
I0403 18:10:22.427253  6647 net.cpp:156] Memory required for data: 534676512
I0403 18:10:22.427269  6647 layer_factory.hpp:77] Creating layer inception_3a/5x5_reduce
I0403 18:10:22.427294  6647 net.cpp:91] Creating Layer inception_3a/5x5_reduce
I0403 18:10:22.427311  6647 net.cpp:425] inception_3a/5x5_reduce <- pool2/3x3_s2_pool2/3x3_s2_0_split_2
I0403 18:10:22.427333  6647 net.cpp:399] inception_3a/5x5_reduce -> inception_3a/5x5_reduce
I0403 18:10:22.428338  6647 net.cpp:141] Setting up inception_3a/5x5_reduce
I0403 18:10:22.428367  6647 net.cpp:148] Top shape: 24 16 28 28 (301056)
I0403 18:10:22.428383  6647 net.cpp:156] Memory required for data: 535880736
I0403 18:10:22.428401  6647 layer_factory.hpp:77] Creating layer inception_3a/relu_5x5_reduce
I0403 18:10:22.428421  6647 net.cpp:91] Creating Layer inception_3a/relu_5x5_reduce
I0403 18:10:22.428437  6647 net.cpp:425] inception_3a/relu_5x5_reduce <- inception_3a/5x5_reduce
I0403 18:10:22.428455  6647 net.cpp:386] inception_3a/relu_5x5_reduce -> inception_3a/5x5_reduce (in-place)
I0403 18:10:22.428750  6647 net.cpp:141] Setting up inception_3a/relu_5x5_reduce
I0403 18:10:22.428779  6647 net.cpp:148] Top shape: 24 16 28 28 (301056)
I0403 18:10:22.428794  6647 net.cpp:156] Memory required for data: 537084960
I0403 18:10:22.428809  6647 layer_factory.hpp:77] Creating layer inception_3a/5x5
I0403 18:10:22.428833  6647 net.cpp:91] Creating Layer inception_3a/5x5
I0403 18:10:22.428850  6647 net.cpp:425] inception_3a/5x5 <- inception_3a/5x5_reduce
I0403 18:10:22.428870  6647 net.cpp:399] inception_3a/5x5 -> inception_3a/5x5
I0403 18:10:22.429920  6647 net.cpp:141] Setting up inception_3a/5x5
I0403 18:10:22.429949  6647 net.cpp:148] Top shape: 24 32 28 28 (602112)
I0403 18:10:22.429965  6647 net.cpp:156] Memory required for data: 539493408
I0403 18:10:22.429983  6647 layer_factory.hpp:77] Creating layer inception_3a/relu_5x5
I0403 18:10:22.430006  6647 net.cpp:91] Creating Layer inception_3a/relu_5x5
I0403 18:10:22.430022  6647 net.cpp:425] inception_3a/relu_5x5 <- inception_3a/5x5
I0403 18:10:22.430040  6647 net.cpp:386] inception_3a/relu_5x5 -> inception_3a/5x5 (in-place)
I0403 18:10:22.430217  6647 net.cpp:141] Setting up inception_3a/relu_5x5
I0403 18:10:22.430246  6647 net.cpp:148] Top shape: 24 32 28 28 (602112)
I0403 18:10:22.430263  6647 net.cpp:156] Memory required for data: 541901856
I0403 18:10:22.430277  6647 layer_factory.hpp:77] Creating layer inception_3a/pool
I0403 18:10:22.430299  6647 net.cpp:91] Creating Layer inception_3a/pool
I0403 18:10:22.430330  6647 net.cpp:425] inception_3a/pool <- pool2/3x3_s2_pool2/3x3_s2_0_split_3
I0403 18:10:22.430349  6647 net.cpp:399] inception_3a/pool -> inception_3a/pool
I0403 18:10:22.430409  6647 net.cpp:141] Setting up inception_3a/pool
I0403 18:10:22.430433  6647 net.cpp:148] Top shape: 24 192 28 28 (3612672)
I0403 18:10:22.430449  6647 net.cpp:156] Memory required for data: 556352544
I0403 18:10:22.430464  6647 layer_factory.hpp:77] Creating layer inception_3a/pool_proj
I0403 18:10:22.430486  6647 net.cpp:91] Creating Layer inception_3a/pool_proj
I0403 18:10:22.430505  6647 net.cpp:425] inception_3a/pool_proj <- inception_3a/pool
I0403 18:10:22.430527  6647 net.cpp:399] inception_3a/pool_proj -> inception_3a/pool_proj
I0403 18:10:22.431524  6647 net.cpp:141] Setting up inception_3a/pool_proj
I0403 18:10:22.431555  6647 net.cpp:148] Top shape: 24 32 28 28 (602112)
I0403 18:10:22.431571  6647 net.cpp:156] Memory required for data: 558760992
I0403 18:10:22.431592  6647 layer_factory.hpp:77] Creating layer inception_3a/relu_pool_proj
I0403 18:10:22.431613  6647 net.cpp:91] Creating Layer inception_3a/relu_pool_proj
I0403 18:10:22.431632  6647 net.cpp:425] inception_3a/relu_pool_proj <- inception_3a/pool_proj
I0403 18:10:22.431650  6647 net.cpp:386] inception_3a/relu_pool_proj -> inception_3a/pool_proj (in-place)
I0403 18:10:22.431929  6647 net.cpp:141] Setting up inception_3a/relu_pool_proj
I0403 18:10:22.431957  6647 net.cpp:148] Top shape: 24 32 28 28 (602112)
I0403 18:10:22.431972  6647 net.cpp:156] Memory required for data: 561169440
I0403 18:10:22.431987  6647 layer_factory.hpp:77] Creating layer inception_3a/output
I0403 18:10:22.432008  6647 net.cpp:91] Creating Layer inception_3a/output
I0403 18:10:22.432024  6647 net.cpp:425] inception_3a/output <- inception_3a/1x1
I0403 18:10:22.432041  6647 net.cpp:425] inception_3a/output <- inception_3a/3x3
I0403 18:10:22.432060  6647 net.cpp:425] inception_3a/output <- inception_3a/5x5
I0403 18:10:22.432075  6647 net.cpp:425] inception_3a/output <- inception_3a/pool_proj
I0403 18:10:22.432092  6647 net.cpp:399] inception_3a/output -> inception_3a/output
I0403 18:10:22.432139  6647 net.cpp:141] Setting up inception_3a/output
I0403 18:10:22.432165  6647 net.cpp:148] Top shape: 24 256 28 28 (4816896)
I0403 18:10:22.432181  6647 net.cpp:156] Memory required for data: 580437024
I0403 18:10:22.432196  6647 layer_factory.hpp:77] Creating layer inception_3a/output_inception_3a/output_0_split
I0403 18:10:22.432214  6647 net.cpp:91] Creating Layer inception_3a/output_inception_3a/output_0_split
I0403 18:10:22.432230  6647 net.cpp:425] inception_3a/output_inception_3a/output_0_split <- inception_3a/output
I0403 18:10:22.432262  6647 net.cpp:399] inception_3a/output_inception_3a/output_0_split -> inception_3a/output_inception_3a/output_0_split_0
I0403 18:10:22.432286  6647 net.cpp:399] inception_3a/output_inception_3a/output_0_split -> inception_3a/output_inception_3a/output_0_split_1
I0403 18:10:22.432309  6647 net.cpp:399] inception_3a/output_inception_3a/output_0_split -> inception_3a/output_inception_3a/output_0_split_2
I0403 18:10:22.432330  6647 net.cpp:399] inception_3a/output_inception_3a/output_0_split -> inception_3a/output_inception_3a/output_0_split_3
I0403 18:10:22.432413  6647 net.cpp:141] Setting up inception_3a/output_inception_3a/output_0_split
I0403 18:10:22.432436  6647 net.cpp:148] Top shape: 24 256 28 28 (4816896)
I0403 18:10:22.432453  6647 net.cpp:148] Top shape: 24 256 28 28 (4816896)
I0403 18:10:22.432469  6647 net.cpp:148] Top shape: 24 256 28 28 (4816896)
I0403 18:10:22.432485  6647 net.cpp:148] Top shape: 24 256 28 28 (4816896)
I0403 18:10:22.432500  6647 net.cpp:156] Memory required for data: 657507360
I0403 18:10:22.432515  6647 layer_factory.hpp:77] Creating layer inception_3b/1x1
I0403 18:10:22.432538  6647 net.cpp:91] Creating Layer inception_3b/1x1
I0403 18:10:22.432555  6647 net.cpp:425] inception_3b/1x1 <- inception_3a/output_inception_3a/output_0_split_0
I0403 18:10:22.432577  6647 net.cpp:399] inception_3b/1x1 -> inception_3b/1x1
I0403 18:10:22.433745  6647 net.cpp:141] Setting up inception_3b/1x1
I0403 18:10:22.433786  6647 net.cpp:148] Top shape: 24 128 28 28 (2408448)
I0403 18:10:22.433802  6647 net.cpp:156] Memory required for data: 667141152
I0403 18:10:22.433820  6647 layer_factory.hpp:77] Creating layer inception_3b/relu_1x1
I0403 18:10:22.433838  6647 net.cpp:91] Creating Layer inception_3b/relu_1x1
I0403 18:10:22.433854  6647 net.cpp:425] inception_3b/relu_1x1 <- inception_3b/1x1
I0403 18:10:22.433873  6647 net.cpp:386] inception_3b/relu_1x1 -> inception_3b/1x1 (in-place)
I0403 18:10:22.434054  6647 net.cpp:141] Setting up inception_3b/relu_1x1
I0403 18:10:22.434080  6647 net.cpp:148] Top shape: 24 128 28 28 (2408448)
I0403 18:10:22.434094  6647 net.cpp:156] Memory required for data: 676774944
I0403 18:10:22.434110  6647 layer_factory.hpp:77] Creating layer inception_3b/3x3_reduce
I0403 18:10:22.434134  6647 net.cpp:91] Creating Layer inception_3b/3x3_reduce
I0403 18:10:22.434151  6647 net.cpp:425] inception_3b/3x3_reduce <- inception_3a/output_inception_3a/output_0_split_1
I0403 18:10:22.434175  6647 net.cpp:399] inception_3b/3x3_reduce -> inception_3b/3x3_reduce
I0403 18:10:22.435360  6647 net.cpp:141] Setting up inception_3b/3x3_reduce
I0403 18:10:22.435392  6647 net.cpp:148] Top shape: 24 128 28 28 (2408448)
I0403 18:10:22.435410  6647 net.cpp:156] Memory required for data: 686408736
I0403 18:10:22.435430  6647 layer_factory.hpp:77] Creating layer inception_3b/relu_3x3_reduce
I0403 18:10:22.435448  6647 net.cpp:91] Creating Layer inception_3b/relu_3x3_reduce
I0403 18:10:22.435464  6647 net.cpp:425] inception_3b/relu_3x3_reduce <- inception_3b/3x3_reduce
I0403 18:10:22.435498  6647 net.cpp:386] inception_3b/relu_3x3_reduce -> inception_3b/3x3_reduce (in-place)
I0403 18:10:22.435674  6647 net.cpp:141] Setting up inception_3b/relu_3x3_reduce
I0403 18:10:22.435700  6647 net.cpp:148] Top shape: 24 128 28 28 (2408448)
I0403 18:10:22.435715  6647 net.cpp:156] Memory required for data: 696042528
I0403 18:10:22.435731  6647 layer_factory.hpp:77] Creating layer inception_3b/3x3
I0403 18:10:22.435758  6647 net.cpp:91] Creating Layer inception_3b/3x3
I0403 18:10:22.435777  6647 net.cpp:425] inception_3b/3x3 <- inception_3b/3x3_reduce
I0403 18:10:22.435796  6647 net.cpp:399] inception_3b/3x3 -> inception_3b/3x3
I0403 18:10:22.438741  6647 net.cpp:141] Setting up inception_3b/3x3
I0403 18:10:22.438771  6647 net.cpp:148] Top shape: 24 192 28 28 (3612672)
I0403 18:10:22.438787  6647 net.cpp:156] Memory required for data: 710493216
I0403 18:10:22.438807  6647 layer_factory.hpp:77] Creating layer inception_3b/relu_3x3
I0403 18:10:22.438827  6647 net.cpp:91] Creating Layer inception_3b/relu_3x3
I0403 18:10:22.438843  6647 net.cpp:425] inception_3b/relu_3x3 <- inception_3b/3x3
I0403 18:10:22.438860  6647 net.cpp:386] inception_3b/relu_3x3 -> inception_3b/3x3 (in-place)
I0403 18:10:22.439132  6647 net.cpp:141] Setting up inception_3b/relu_3x3
I0403 18:10:22.439158  6647 net.cpp:148] Top shape: 24 192 28 28 (3612672)
I0403 18:10:22.439173  6647 net.cpp:156] Memory required for data: 724943904
I0403 18:10:22.439188  6647 layer_factory.hpp:77] Creating layer inception_3b/5x5_reduce
I0403 18:10:22.439210  6647 net.cpp:91] Creating Layer inception_3b/5x5_reduce
I0403 18:10:22.439229  6647 net.cpp:425] inception_3b/5x5_reduce <- inception_3a/output_inception_3a/output_0_split_2
I0403 18:10:22.439254  6647 net.cpp:399] inception_3b/5x5_reduce -> inception_3b/5x5_reduce
I0403 18:10:22.440243  6647 net.cpp:141] Setting up inception_3b/5x5_reduce
I0403 18:10:22.440274  6647 net.cpp:148] Top shape: 24 32 28 28 (602112)
I0403 18:10:22.440295  6647 net.cpp:156] Memory required for data: 727352352
I0403 18:10:22.440313  6647 layer_factory.hpp:77] Creating layer inception_3b/relu_5x5_reduce
I0403 18:10:22.440335  6647 net.cpp:91] Creating Layer inception_3b/relu_5x5_reduce
I0403 18:10:22.440351  6647 net.cpp:425] inception_3b/relu_5x5_reduce <- inception_3b/5x5_reduce
I0403 18:10:22.440371  6647 net.cpp:386] inception_3b/relu_5x5_reduce -> inception_3b/5x5_reduce (in-place)
I0403 18:10:22.440563  6647 net.cpp:141] Setting up inception_3b/relu_5x5_reduce
I0403 18:10:22.440593  6647 net.cpp:148] Top shape: 24 32 28 28 (602112)
I0403 18:10:22.440613  6647 net.cpp:156] Memory required for data: 729760800
I0403 18:10:22.440636  6647 layer_factory.hpp:77] Creating layer inception_3b/5x5
I0403 18:10:22.440670  6647 net.cpp:91] Creating Layer inception_3b/5x5
I0403 18:10:22.440690  6647 net.cpp:425] inception_3b/5x5 <- inception_3b/5x5_reduce
I0403 18:10:22.440709  6647 net.cpp:399] inception_3b/5x5 -> inception_3b/5x5
I0403 18:10:22.442708  6647 net.cpp:141] Setting up inception_3b/5x5
I0403 18:10:22.442739  6647 net.cpp:148] Top shape: 24 96 28 28 (1806336)
I0403 18:10:22.442754  6647 net.cpp:156] Memory required for data: 736986144
I0403 18:10:22.442773  6647 layer_factory.hpp:77] Creating layer inception_3b/relu_5x5
I0403 18:10:22.442790  6647 net.cpp:91] Creating Layer inception_3b/relu_5x5
I0403 18:10:22.442806  6647 net.cpp:425] inception_3b/relu_5x5 <- inception_3b/5x5
I0403 18:10:22.442826  6647 net.cpp:386] inception_3b/relu_5x5 -> inception_3b/5x5 (in-place)
I0403 18:10:22.443019  6647 net.cpp:141] Setting up inception_3b/relu_5x5
I0403 18:10:22.443045  6647 net.cpp:148] Top shape: 24 96 28 28 (1806336)
I0403 18:10:22.443059  6647 net.cpp:156] Memory required for data: 744211488
I0403 18:10:22.443074  6647 layer_factory.hpp:77] Creating layer inception_3b/pool
I0403 18:10:22.443092  6647 net.cpp:91] Creating Layer inception_3b/pool
I0403 18:10:22.443109  6647 net.cpp:425] inception_3b/pool <- inception_3a/output_inception_3a/output_0_split_3
I0403 18:10:22.443128  6647 net.cpp:399] inception_3b/pool -> inception_3b/pool
I0403 18:10:22.443191  6647 net.cpp:141] Setting up inception_3b/pool
I0403 18:10:22.443213  6647 net.cpp:148] Top shape: 24 256 28 28 (4816896)
I0403 18:10:22.443228  6647 net.cpp:156] Memory required for data: 763479072
I0403 18:10:22.443248  6647 layer_factory.hpp:77] Creating layer inception_3b/pool_proj
I0403 18:10:22.443270  6647 net.cpp:91] Creating Layer inception_3b/pool_proj
I0403 18:10:22.443289  6647 net.cpp:425] inception_3b/pool_proj <- inception_3b/pool
I0403 18:10:22.443310  6647 net.cpp:399] inception_3b/pool_proj -> inception_3b/pool_proj
I0403 18:10:22.444391  6647 net.cpp:141] Setting up inception_3b/pool_proj
I0403 18:10:22.444419  6647 net.cpp:148] Top shape: 24 64 28 28 (1204224)
I0403 18:10:22.444435  6647 net.cpp:156] Memory required for data: 768295968
I0403 18:10:22.444455  6647 layer_factory.hpp:77] Creating layer inception_3b/relu_pool_proj
I0403 18:10:22.444489  6647 net.cpp:91] Creating Layer inception_3b/relu_pool_proj
I0403 18:10:22.444504  6647 net.cpp:425] inception_3b/relu_pool_proj <- inception_3b/pool_proj
I0403 18:10:22.444535  6647 net.cpp:386] inception_3b/relu_pool_proj -> inception_3b/pool_proj (in-place)
I0403 18:10:22.444918  6647 net.cpp:141] Setting up inception_3b/relu_pool_proj
I0403 18:10:22.444944  6647 net.cpp:148] Top shape: 24 64 28 28 (1204224)
I0403 18:10:22.444959  6647 net.cpp:156] Memory required for data: 773112864
I0403 18:10:22.444974  6647 layer_factory.hpp:77] Creating layer inception_3b/output
I0403 18:10:22.444994  6647 net.cpp:91] Creating Layer inception_3b/output
I0403 18:10:22.445009  6647 net.cpp:425] inception_3b/output <- inception_3b/1x1
I0403 18:10:22.445025  6647 net.cpp:425] inception_3b/output <- inception_3b/3x3
I0403 18:10:22.445041  6647 net.cpp:425] inception_3b/output <- inception_3b/5x5
I0403 18:10:22.445057  6647 net.cpp:425] inception_3b/output <- inception_3b/pool_proj
I0403 18:10:22.445075  6647 net.cpp:399] inception_3b/output -> inception_3b/output
I0403 18:10:22.445118  6647 net.cpp:141] Setting up inception_3b/output
I0403 18:10:22.445142  6647 net.cpp:148] Top shape: 24 480 28 28 (9031680)
I0403 18:10:22.445154  6647 net.cpp:156] Memory required for data: 809239584
I0403 18:10:22.445181  6647 layer_factory.hpp:77] Creating layer pool3/3x3_s2
I0403 18:10:22.445199  6647 net.cpp:91] Creating Layer pool3/3x3_s2
I0403 18:10:22.445214  6647 net.cpp:425] pool3/3x3_s2 <- inception_3b/output
I0403 18:10:22.445266  6647 net.cpp:399] pool3/3x3_s2 -> pool3/3x3_s2
I0403 18:10:22.445329  6647 net.cpp:141] Setting up pool3/3x3_s2
I0403 18:10:22.445353  6647 net.cpp:148] Top shape: 24 480 14 14 (2257920)
I0403 18:10:22.445368  6647 net.cpp:156] Memory required for data: 818271264
I0403 18:10:22.445382  6647 layer_factory.hpp:77] Creating layer pool3/3x3_s2_pool3/3x3_s2_0_split
I0403 18:10:22.445400  6647 net.cpp:91] Creating Layer pool3/3x3_s2_pool3/3x3_s2_0_split
I0403 18:10:22.445416  6647 net.cpp:425] pool3/3x3_s2_pool3/3x3_s2_0_split <- pool3/3x3_s2
I0403 18:10:22.445433  6647 net.cpp:399] pool3/3x3_s2_pool3/3x3_s2_0_split -> pool3/3x3_s2_pool3/3x3_s2_0_split_0
I0403 18:10:22.445467  6647 net.cpp:399] pool3/3x3_s2_pool3/3x3_s2_0_split -> pool3/3x3_s2_pool3/3x3_s2_0_split_1
I0403 18:10:22.445487  6647 net.cpp:399] pool3/3x3_s2_pool3/3x3_s2_0_split -> pool3/3x3_s2_pool3/3x3_s2_0_split_2
I0403 18:10:22.445505  6647 net.cpp:399] pool3/3x3_s2_pool3/3x3_s2_0_split -> pool3/3x3_s2_pool3/3x3_s2_0_split_3
I0403 18:10:22.445593  6647 net.cpp:141] Setting up pool3/3x3_s2_pool3/3x3_s2_0_split
I0403 18:10:22.445616  6647 net.cpp:148] Top shape: 24 480 14 14 (2257920)
I0403 18:10:22.445631  6647 net.cpp:148] Top shape: 24 480 14 14 (2257920)
I0403 18:10:22.445646  6647 net.cpp:148] Top shape: 24 480 14 14 (2257920)
I0403 18:10:22.445659  6647 net.cpp:148] Top shape: 24 480 14 14 (2257920)
I0403 18:10:22.445672  6647 net.cpp:156] Memory required for data: 854397984
I0403 18:10:22.445686  6647 layer_factory.hpp:77] Creating layer inception_4a/1x1
I0403 18:10:22.445708  6647 net.cpp:91] Creating Layer inception_4a/1x1
I0403 18:10:22.445726  6647 net.cpp:425] inception_4a/1x1 <- pool3/3x3_s2_pool3/3x3_s2_0_split_0
I0403 18:10:22.445744  6647 net.cpp:399] inception_4a/1x1 -> inception_4a/1x1
I0403 18:10:22.447262  6647 net.cpp:141] Setting up inception_4a/1x1
I0403 18:10:22.447290  6647 net.cpp:148] Top shape: 24 192 14 14 (903168)
I0403 18:10:22.447306  6647 net.cpp:156] Memory required for data: 858010656
I0403 18:10:22.447324  6647 layer_factory.hpp:77] Creating layer inception_4a/relu_1x1
I0403 18:10:22.447341  6647 net.cpp:91] Creating Layer inception_4a/relu_1x1
I0403 18:10:22.447355  6647 net.cpp:425] inception_4a/relu_1x1 <- inception_4a/1x1
I0403 18:10:22.447374  6647 net.cpp:386] inception_4a/relu_1x1 -> inception_4a/1x1 (in-place)
I0403 18:10:22.447547  6647 net.cpp:141] Setting up inception_4a/relu_1x1
I0403 18:10:22.447572  6647 net.cpp:148] Top shape: 24 192 14 14 (903168)
I0403 18:10:22.447588  6647 net.cpp:156] Memory required for data: 861623328
I0403 18:10:22.447602  6647 layer_factory.hpp:77] Creating layer inception_4a/3x3_reduce
I0403 18:10:22.447624  6647 net.cpp:91] Creating Layer inception_4a/3x3_reduce
I0403 18:10:22.447641  6647 net.cpp:425] inception_4a/3x3_reduce <- pool3/3x3_s2_pool3/3x3_s2_0_split_1
I0403 18:10:22.447662  6647 net.cpp:399] inception_4a/3x3_reduce -> inception_4a/3x3_reduce
I0403 18:10:22.448962  6647 net.cpp:141] Setting up inception_4a/3x3_reduce
I0403 18:10:22.448993  6647 net.cpp:148] Top shape: 24 96 14 14 (451584)
I0403 18:10:22.449008  6647 net.cpp:156] Memory required for data: 863429664
I0403 18:10:22.449030  6647 layer_factory.hpp:77] Creating layer inception_4a/relu_3x3_reduce
I0403 18:10:22.449051  6647 net.cpp:91] Creating Layer inception_4a/relu_3x3_reduce
I0403 18:10:22.449069  6647 net.cpp:425] inception_4a/relu_3x3_reduce <- inception_4a/3x3_reduce
I0403 18:10:22.449085  6647 net.cpp:386] inception_4a/relu_3x3_reduce -> inception_4a/3x3_reduce (in-place)
I0403 18:10:22.449267  6647 net.cpp:141] Setting up inception_4a/relu_3x3_reduce
I0403 18:10:22.449292  6647 net.cpp:148] Top shape: 24 96 14 14 (451584)
I0403 18:10:22.449306  6647 net.cpp:156] Memory required for data: 865236000
I0403 18:10:22.449321  6647 layer_factory.hpp:77] Creating layer inception_4a/3x3
I0403 18:10:22.449342  6647 net.cpp:91] Creating Layer inception_4a/3x3
I0403 18:10:22.449362  6647 net.cpp:425] inception_4a/3x3 <- inception_4a/3x3_reduce
I0403 18:10:22.449383  6647 net.cpp:399] inception_4a/3x3 -> inception_4a/3x3
I0403 18:10:22.452070  6647 net.cpp:141] Setting up inception_4a/3x3
I0403 18:10:22.452098  6647 net.cpp:148] Top shape: 24 208 14 14 (978432)
I0403 18:10:22.452113  6647 net.cpp:156] Memory required for data: 869149728
I0403 18:10:22.452131  6647 layer_factory.hpp:77] Creating layer inception_4a/relu_3x3
I0403 18:10:22.452149  6647 net.cpp:91] Creating Layer inception_4a/relu_3x3
I0403 18:10:22.452165  6647 net.cpp:425] inception_4a/relu_3x3 <- inception_4a/3x3
I0403 18:10:22.452185  6647 net.cpp:386] inception_4a/relu_3x3 -> inception_4a/3x3 (in-place)
I0403 18:10:22.452474  6647 net.cpp:141] Setting up inception_4a/relu_3x3
I0403 18:10:22.452500  6647 net.cpp:148] Top shape: 24 208 14 14 (978432)
I0403 18:10:22.452515  6647 net.cpp:156] Memory required for data: 873063456
I0403 18:10:22.452530  6647 layer_factory.hpp:77] Creating layer inception_4a/5x5_reduce
I0403 18:10:22.452554  6647 net.cpp:91] Creating Layer inception_4a/5x5_reduce
I0403 18:10:22.452572  6647 net.cpp:425] inception_4a/5x5_reduce <- pool3/3x3_s2_pool3/3x3_s2_0_split_2
I0403 18:10:22.452594  6647 net.cpp:399] inception_4a/5x5_reduce -> inception_4a/5x5_reduce
I0403 18:10:22.453619  6647 net.cpp:141] Setting up inception_4a/5x5_reduce
I0403 18:10:22.453646  6647 net.cpp:148] Top shape: 24 16 14 14 (75264)
I0403 18:10:22.453661  6647 net.cpp:156] Memory required for data: 873364512
I0403 18:10:22.453680  6647 layer_factory.hpp:77] Creating layer inception_4a/relu_5x5_reduce
I0403 18:10:22.453701  6647 net.cpp:91] Creating Layer inception_4a/relu_5x5_reduce
I0403 18:10:22.453717  6647 net.cpp:425] inception_4a/relu_5x5_reduce <- inception_4a/5x5_reduce
I0403 18:10:22.453734  6647 net.cpp:386] inception_4a/relu_5x5_reduce -> inception_4a/5x5_reduce (in-place)
I0403 18:10:22.453914  6647 net.cpp:141] Setting up inception_4a/relu_5x5_reduce
I0403 18:10:22.453939  6647 net.cpp:148] Top shape: 24 16 14 14 (75264)
I0403 18:10:22.453954  6647 net.cpp:156] Memory required for data: 873665568
I0403 18:10:22.453969  6647 layer_factory.hpp:77] Creating layer inception_4a/5x5
I0403 18:10:22.453990  6647 net.cpp:91] Creating Layer inception_4a/5x5
I0403 18:10:22.454010  6647 net.cpp:425] inception_4a/5x5 <- inception_4a/5x5_reduce
I0403 18:10:22.454028  6647 net.cpp:399] inception_4a/5x5 -> inception_4a/5x5
I0403 18:10:22.455116  6647 net.cpp:141] Setting up inception_4a/5x5
I0403 18:10:22.455144  6647 net.cpp:148] Top shape: 24 48 14 14 (225792)
I0403 18:10:22.455158  6647 net.cpp:156] Memory required for data: 874568736
I0403 18:10:22.455176  6647 layer_factory.hpp:77] Creating layer inception_4a/relu_5x5
I0403 18:10:22.455198  6647 net.cpp:91] Creating Layer inception_4a/relu_5x5
I0403 18:10:22.455214  6647 net.cpp:425] inception_4a/relu_5x5 <- inception_4a/5x5
I0403 18:10:22.455230  6647 net.cpp:386] inception_4a/relu_5x5 -> inception_4a/5x5 (in-place)
I0403 18:10:22.455415  6647 net.cpp:141] Setting up inception_4a/relu_5x5
I0403 18:10:22.455443  6647 net.cpp:148] Top shape: 24 48 14 14 (225792)
I0403 18:10:22.455458  6647 net.cpp:156] Memory required for data: 875471904
I0403 18:10:22.455473  6647 layer_factory.hpp:77] Creating layer inception_4a/pool
I0403 18:10:22.455492  6647 net.cpp:91] Creating Layer inception_4a/pool
I0403 18:10:22.455507  6647 net.cpp:425] inception_4a/pool <- pool3/3x3_s2_pool3/3x3_s2_0_split_3
I0403 18:10:22.455526  6647 net.cpp:399] inception_4a/pool -> inception_4a/pool
I0403 18:10:22.455588  6647 net.cpp:141] Setting up inception_4a/pool
I0403 18:10:22.455611  6647 net.cpp:148] Top shape: 24 480 14 14 (2257920)
I0403 18:10:22.455626  6647 net.cpp:156] Memory required for data: 884503584
I0403 18:10:22.455641  6647 layer_factory.hpp:77] Creating layer inception_4a/pool_proj
I0403 18:10:22.455662  6647 net.cpp:91] Creating Layer inception_4a/pool_proj
I0403 18:10:22.455679  6647 net.cpp:425] inception_4a/pool_proj <- inception_4a/pool
I0403 18:10:22.455700  6647 net.cpp:399] inception_4a/pool_proj -> inception_4a/pool_proj
I0403 18:10:22.456867  6647 net.cpp:141] Setting up inception_4a/pool_proj
I0403 18:10:22.456900  6647 net.cpp:148] Top shape: 24 64 14 14 (301056)
I0403 18:10:22.456933  6647 net.cpp:156] Memory required for data: 885707808
I0403 18:10:22.456951  6647 layer_factory.hpp:77] Creating layer inception_4a/relu_pool_proj
I0403 18:10:22.456969  6647 net.cpp:91] Creating Layer inception_4a/relu_pool_proj
I0403 18:10:22.456984  6647 net.cpp:425] inception_4a/relu_pool_proj <- inception_4a/pool_proj
I0403 18:10:22.457012  6647 net.cpp:386] inception_4a/relu_pool_proj -> inception_4a/pool_proj (in-place)
I0403 18:10:22.457325  6647 net.cpp:141] Setting up inception_4a/relu_pool_proj
I0403 18:10:22.457355  6647 net.cpp:148] Top shape: 24 64 14 14 (301056)
I0403 18:10:22.457370  6647 net.cpp:156] Memory required for data: 886912032
I0403 18:10:22.457384  6647 layer_factory.hpp:77] Creating layer inception_4a/output
I0403 18:10:22.457401  6647 net.cpp:91] Creating Layer inception_4a/output
I0403 18:10:22.457417  6647 net.cpp:425] inception_4a/output <- inception_4a/1x1
I0403 18:10:22.457434  6647 net.cpp:425] inception_4a/output <- inception_4a/3x3
I0403 18:10:22.457449  6647 net.cpp:425] inception_4a/output <- inception_4a/5x5
I0403 18:10:22.457465  6647 net.cpp:425] inception_4a/output <- inception_4a/pool_proj
I0403 18:10:22.457482  6647 net.cpp:399] inception_4a/output -> inception_4a/output
I0403 18:10:22.457527  6647 net.cpp:141] Setting up inception_4a/output
I0403 18:10:22.457551  6647 net.cpp:148] Top shape: 24 512 14 14 (2408448)
I0403 18:10:22.457566  6647 net.cpp:156] Memory required for data: 896545824
I0403 18:10:22.457581  6647 layer_factory.hpp:77] Creating layer inception_4a/output_inception_4a/output_0_split
I0403 18:10:22.457600  6647 net.cpp:91] Creating Layer inception_4a/output_inception_4a/output_0_split
I0403 18:10:22.457617  6647 net.cpp:425] inception_4a/output_inception_4a/output_0_split <- inception_4a/output
I0403 18:10:22.457633  6647 net.cpp:399] inception_4a/output_inception_4a/output_0_split -> inception_4a/output_inception_4a/output_0_split_0
I0403 18:10:22.457654  6647 net.cpp:399] inception_4a/output_inception_4a/output_0_split -> inception_4a/output_inception_4a/output_0_split_1
I0403 18:10:22.457674  6647 net.cpp:399] inception_4a/output_inception_4a/output_0_split -> inception_4a/output_inception_4a/output_0_split_2
I0403 18:10:22.457696  6647 net.cpp:399] inception_4a/output_inception_4a/output_0_split -> inception_4a/output_inception_4a/output_0_split_3
I0403 18:10:22.457717  6647 net.cpp:399] inception_4a/output_inception_4a/output_0_split -> inception_4a/output_inception_4a/output_0_split_4
I0403 18:10:22.457813  6647 net.cpp:141] Setting up inception_4a/output_inception_4a/output_0_split
I0403 18:10:22.457835  6647 net.cpp:148] Top shape: 24 512 14 14 (2408448)
I0403 18:10:22.457852  6647 net.cpp:148] Top shape: 24 512 14 14 (2408448)
I0403 18:10:22.457867  6647 net.cpp:148] Top shape: 24 512 14 14 (2408448)
I0403 18:10:22.457883  6647 net.cpp:148] Top shape: 24 512 14 14 (2408448)
I0403 18:10:22.457898  6647 net.cpp:148] Top shape: 24 512 14 14 (2408448)
I0403 18:10:22.457912  6647 net.cpp:156] Memory required for data: 944714784
I0403 18:10:22.457926  6647 layer_factory.hpp:77] Creating layer loss1/ave_pool
I0403 18:10:22.457950  6647 net.cpp:91] Creating Layer loss1/ave_pool
I0403 18:10:22.457967  6647 net.cpp:425] loss1/ave_pool <- inception_4a/output_inception_4a/output_0_split_0
I0403 18:10:22.457985  6647 net.cpp:399] loss1/ave_pool -> loss1/ave_pool
I0403 18:10:22.458195  6647 net.cpp:141] Setting up loss1/ave_pool
I0403 18:10:22.458225  6647 net.cpp:148] Top shape: 24 512 4 4 (196608)
I0403 18:10:22.458243  6647 net.cpp:156] Memory required for data: 945501216
I0403 18:10:22.458259  6647 layer_factory.hpp:77] Creating layer loss1/conv
I0403 18:10:22.458282  6647 net.cpp:91] Creating Layer loss1/conv
I0403 18:10:22.458299  6647 net.cpp:425] loss1/conv <- loss1/ave_pool
I0403 18:10:22.458318  6647 net.cpp:399] loss1/conv -> loss1/conv
I0403 18:10:22.459748  6647 net.cpp:141] Setting up loss1/conv
I0403 18:10:22.459776  6647 net.cpp:148] Top shape: 24 128 4 4 (49152)
I0403 18:10:22.459806  6647 net.cpp:156] Memory required for data: 945697824
I0403 18:10:22.459826  6647 layer_factory.hpp:77] Creating layer loss1/relu_conv
I0403 18:10:22.459844  6647 net.cpp:91] Creating Layer loss1/relu_conv
I0403 18:10:22.459863  6647 net.cpp:425] loss1/relu_conv <- loss1/conv
I0403 18:10:22.459880  6647 net.cpp:386] loss1/relu_conv -> loss1/conv (in-place)
I0403 18:10:22.460167  6647 net.cpp:141] Setting up loss1/relu_conv
I0403 18:10:22.460193  6647 net.cpp:148] Top shape: 24 128 4 4 (49152)
I0403 18:10:22.460208  6647 net.cpp:156] Memory required for data: 945894432
I0403 18:10:22.460224  6647 layer_factory.hpp:77] Creating layer loss1/fc
I0403 18:10:22.460252  6647 net.cpp:91] Creating Layer loss1/fc
I0403 18:10:22.460273  6647 net.cpp:425] loss1/fc <- loss1/conv
I0403 18:10:22.460291  6647 net.cpp:399] loss1/fc -> loss1/fc
I0403 18:10:22.478055  6647 net.cpp:141] Setting up loss1/fc
I0403 18:10:22.478091  6647 net.cpp:148] Top shape: 24 1024 (24576)
I0403 18:10:22.478106  6647 net.cpp:156] Memory required for data: 945992736
I0403 18:10:22.478122  6647 layer_factory.hpp:77] Creating layer loss1/relu_fc
I0403 18:10:22.478143  6647 net.cpp:91] Creating Layer loss1/relu_fc
I0403 18:10:22.478160  6647 net.cpp:425] loss1/relu_fc <- loss1/fc
I0403 18:10:22.478176  6647 net.cpp:386] loss1/relu_fc -> loss1/fc (in-place)
I0403 18:10:22.478374  6647 net.cpp:141] Setting up loss1/relu_fc
I0403 18:10:22.478399  6647 net.cpp:148] Top shape: 24 1024 (24576)
I0403 18:10:22.478413  6647 net.cpp:156] Memory required for data: 946091040
I0403 18:10:22.478427  6647 layer_factory.hpp:77] Creating layer loss1/drop_fc
I0403 18:10:22.478452  6647 net.cpp:91] Creating Layer loss1/drop_fc
I0403 18:10:22.478469  6647 net.cpp:425] loss1/drop_fc <- loss1/fc
I0403 18:10:22.478488  6647 net.cpp:386] loss1/drop_fc -> loss1/fc (in-place)
I0403 18:10:22.478538  6647 net.cpp:141] Setting up loss1/drop_fc
I0403 18:10:22.478561  6647 net.cpp:148] Top shape: 24 1024 (24576)
I0403 18:10:22.478574  6647 net.cpp:156] Memory required for data: 946189344
I0403 18:10:22.478590  6647 layer_factory.hpp:77] Creating layer loss1/classifier_plantvillage
I0403 18:10:22.478610  6647 net.cpp:91] Creating Layer loss1/classifier_plantvillage
I0403 18:10:22.478627  6647 net.cpp:425] loss1/classifier_plantvillage <- loss1/fc
I0403 18:10:22.478646  6647 net.cpp:399] loss1/classifier_plantvillage -> loss1/classifier_plantvillage
I0403 18:10:22.479553  6647 net.cpp:141] Setting up loss1/classifier_plantvillage
I0403 18:10:22.479583  6647 net.cpp:148] Top shape: 24 38 (912)
I0403 18:10:22.479599  6647 net.cpp:156] Memory required for data: 946192992
I0403 18:10:22.479617  6647 layer_factory.hpp:77] Creating layer loss1/classifier_plantvillage_loss1/classifier_plantvillage_0_split
I0403 18:10:22.479635  6647 net.cpp:91] Creating Layer loss1/classifier_plantvillage_loss1/classifier_plantvillage_0_split
I0403 18:10:22.479650  6647 net.cpp:425] loss1/classifier_plantvillage_loss1/classifier_plantvillage_0_split <- loss1/classifier_plantvillage
I0403 18:10:22.479671  6647 net.cpp:399] loss1/classifier_plantvillage_loss1/classifier_plantvillage_0_split -> loss1/classifier_plantvillage_loss1/classifier_plantvillage_0_split_0
I0403 18:10:22.479692  6647 net.cpp:399] loss1/classifier_plantvillage_loss1/classifier_plantvillage_0_split -> loss1/classifier_plantvillage_loss1/classifier_plantvillage_0_split_1
I0403 18:10:22.479713  6647 net.cpp:399] loss1/classifier_plantvillage_loss1/classifier_plantvillage_0_split -> loss1/classifier_plantvillage_loss1/classifier_plantvillage_0_split_2
I0403 18:10:22.479778  6647 net.cpp:141] Setting up loss1/classifier_plantvillage_loss1/classifier_plantvillage_0_split
I0403 18:10:22.479800  6647 net.cpp:148] Top shape: 24 38 (912)
I0403 18:10:22.479815  6647 net.cpp:148] Top shape: 24 38 (912)
I0403 18:10:22.479830  6647 net.cpp:148] Top shape: 24 38 (912)
I0403 18:10:22.479845  6647 net.cpp:156] Memory required for data: 946203936
I0403 18:10:22.479858  6647 layer_factory.hpp:77] Creating layer inception_4b/1x1
I0403 18:10:22.479881  6647 net.cpp:91] Creating Layer inception_4b/1x1
I0403 18:10:22.479915  6647 net.cpp:425] inception_4b/1x1 <- inception_4a/output_inception_4a/output_0_split_1
I0403 18:10:22.479935  6647 net.cpp:399] inception_4b/1x1 -> inception_4b/1x1
I0403 18:10:22.481541  6647 net.cpp:141] Setting up inception_4b/1x1
I0403 18:10:22.481570  6647 net.cpp:148] Top shape: 24 160 14 14 (752640)
I0403 18:10:22.481585  6647 net.cpp:156] Memory required for data: 949214496
I0403 18:10:22.481602  6647 layer_factory.hpp:77] Creating layer inception_4b/relu_1x1
I0403 18:10:22.481621  6647 net.cpp:91] Creating Layer inception_4b/relu_1x1
I0403 18:10:22.481637  6647 net.cpp:425] inception_4b/relu_1x1 <- inception_4b/1x1
I0403 18:10:22.481654  6647 net.cpp:386] inception_4b/relu_1x1 -> inception_4b/1x1 (in-place)
I0403 18:10:22.481832  6647 net.cpp:141] Setting up inception_4b/relu_1x1
I0403 18:10:22.481856  6647 net.cpp:148] Top shape: 24 160 14 14 (752640)
I0403 18:10:22.481870  6647 net.cpp:156] Memory required for data: 952225056
I0403 18:10:22.481884  6647 layer_factory.hpp:77] Creating layer inception_4b/3x3_reduce
I0403 18:10:22.481906  6647 net.cpp:91] Creating Layer inception_4b/3x3_reduce
I0403 18:10:22.481925  6647 net.cpp:425] inception_4b/3x3_reduce <- inception_4a/output_inception_4a/output_0_split_2
I0403 18:10:22.481945  6647 net.cpp:399] inception_4b/3x3_reduce -> inception_4b/3x3_reduce
I0403 18:10:22.483270  6647 net.cpp:141] Setting up inception_4b/3x3_reduce
I0403 18:10:22.483297  6647 net.cpp:148] Top shape: 24 112 14 14 (526848)
I0403 18:10:22.483312  6647 net.cpp:156] Memory required for data: 954332448
I0403 18:10:22.483330  6647 layer_factory.hpp:77] Creating layer inception_4b/relu_3x3_reduce
I0403 18:10:22.483350  6647 net.cpp:91] Creating Layer inception_4b/relu_3x3_reduce
I0403 18:10:22.483366  6647 net.cpp:425] inception_4b/relu_3x3_reduce <- inception_4b/3x3_reduce
I0403 18:10:22.483382  6647 net.cpp:386] inception_4b/relu_3x3_reduce -> inception_4b/3x3_reduce (in-place)
I0403 18:10:22.483656  6647 net.cpp:141] Setting up inception_4b/relu_3x3_reduce
I0403 18:10:22.483682  6647 net.cpp:148] Top shape: 24 112 14 14 (526848)
I0403 18:10:22.483697  6647 net.cpp:156] Memory required for data: 956439840
I0403 18:10:22.483711  6647 layer_factory.hpp:77] Creating layer inception_4b/3x3
I0403 18:10:22.483732  6647 net.cpp:91] Creating Layer inception_4b/3x3
I0403 18:10:22.483749  6647 net.cpp:425] inception_4b/3x3 <- inception_4b/3x3_reduce
I0403 18:10:22.483770  6647 net.cpp:399] inception_4b/3x3 -> inception_4b/3x3
I0403 18:10:22.486698  6647 net.cpp:141] Setting up inception_4b/3x3
I0403 18:10:22.486727  6647 net.cpp:148] Top shape: 24 224 14 14 (1053696)
I0403 18:10:22.486743  6647 net.cpp:156] Memory required for data: 960654624
I0403 18:10:22.486762  6647 layer_factory.hpp:77] Creating layer inception_4b/relu_3x3
I0403 18:10:22.486779  6647 net.cpp:91] Creating Layer inception_4b/relu_3x3
I0403 18:10:22.486794  6647 net.cpp:425] inception_4b/relu_3x3 <- inception_4b/3x3
I0403 18:10:22.486815  6647 net.cpp:386] inception_4b/relu_3x3 -> inception_4b/3x3 (in-place)
I0403 18:10:22.486992  6647 net.cpp:141] Setting up inception_4b/relu_3x3
I0403 18:10:22.487016  6647 net.cpp:148] Top shape: 24 224 14 14 (1053696)
I0403 18:10:22.487030  6647 net.cpp:156] Memory required for data: 964869408
I0403 18:10:22.487045  6647 layer_factory.hpp:77] Creating layer inception_4b/5x5_reduce
I0403 18:10:22.487066  6647 net.cpp:91] Creating Layer inception_4b/5x5_reduce
I0403 18:10:22.487083  6647 net.cpp:425] inception_4b/5x5_reduce <- inception_4a/output_inception_4a/output_0_split_3
I0403 18:10:22.487107  6647 net.cpp:399] inception_4b/5x5_reduce -> inception_4b/5x5_reduce
I0403 18:10:22.488173  6647 net.cpp:141] Setting up inception_4b/5x5_reduce
I0403 18:10:22.488199  6647 net.cpp:148] Top shape: 24 24 14 14 (112896)
I0403 18:10:22.488214  6647 net.cpp:156] Memory required for data: 965320992
I0403 18:10:22.488232  6647 layer_factory.hpp:77] Creating layer inception_4b/relu_5x5_reduce
I0403 18:10:22.488257  6647 net.cpp:91] Creating Layer inception_4b/relu_5x5_reduce
I0403 18:10:22.488287  6647 net.cpp:425] inception_4b/relu_5x5_reduce <- inception_4b/5x5_reduce
I0403 18:10:22.488306  6647 net.cpp:386] inception_4b/relu_5x5_reduce -> inception_4b/5x5_reduce (in-place)
I0403 18:10:22.488482  6647 net.cpp:141] Setting up inception_4b/relu_5x5_reduce
I0403 18:10:22.488510  6647 net.cpp:148] Top shape: 24 24 14 14 (112896)
I0403 18:10:22.488524  6647 net.cpp:156] Memory required for data: 965772576
I0403 18:10:22.488539  6647 layer_factory.hpp:77] Creating layer inception_4b/5x5
I0403 18:10:22.488561  6647 net.cpp:91] Creating Layer inception_4b/5x5
I0403 18:10:22.488579  6647 net.cpp:425] inception_4b/5x5 <- inception_4b/5x5_reduce
I0403 18:10:22.488597  6647 net.cpp:399] inception_4b/5x5 -> inception_4b/5x5
I0403 18:10:22.489799  6647 net.cpp:141] Setting up inception_4b/5x5
I0403 18:10:22.489825  6647 net.cpp:148] Top shape: 24 64 14 14 (301056)
I0403 18:10:22.489840  6647 net.cpp:156] Memory required for data: 966976800
I0403 18:10:22.489857  6647 layer_factory.hpp:77] Creating layer inception_4b/relu_5x5
I0403 18:10:22.489877  6647 net.cpp:91] Creating Layer inception_4b/relu_5x5
I0403 18:10:22.489894  6647 net.cpp:425] inception_4b/relu_5x5 <- inception_4b/5x5
I0403 18:10:22.489912  6647 net.cpp:386] inception_4b/relu_5x5 -> inception_4b/5x5 (in-place)
I0403 18:10:22.490198  6647 net.cpp:141] Setting up inception_4b/relu_5x5
I0403 18:10:22.490224  6647 net.cpp:148] Top shape: 24 64 14 14 (301056)
I0403 18:10:22.490242  6647 net.cpp:156] Memory required for data: 968181024
I0403 18:10:22.490258  6647 layer_factory.hpp:77] Creating layer inception_4b/pool
I0403 18:10:22.490275  6647 net.cpp:91] Creating Layer inception_4b/pool
I0403 18:10:22.490290  6647 net.cpp:425] inception_4b/pool <- inception_4a/output_inception_4a/output_0_split_4
I0403 18:10:22.490311  6647 net.cpp:399] inception_4b/pool -> inception_4b/pool
I0403 18:10:22.490375  6647 net.cpp:141] Setting up inception_4b/pool
I0403 18:10:22.490397  6647 net.cpp:148] Top shape: 24 512 14 14 (2408448)
I0403 18:10:22.490412  6647 net.cpp:156] Memory required for data: 977814816
I0403 18:10:22.490427  6647 layer_factory.hpp:77] Creating layer inception_4b/pool_proj
I0403 18:10:22.490448  6647 net.cpp:91] Creating Layer inception_4b/pool_proj
I0403 18:10:22.490465  6647 net.cpp:425] inception_4b/pool_proj <- inception_4b/pool
I0403 18:10:22.490486  6647 net.cpp:399] inception_4b/pool_proj -> inception_4b/pool_proj
I0403 18:10:22.491662  6647 net.cpp:141] Setting up inception_4b/pool_proj
I0403 18:10:22.491688  6647 net.cpp:148] Top shape: 24 64 14 14 (301056)
I0403 18:10:22.491704  6647 net.cpp:156] Memory required for data: 979019040
I0403 18:10:22.491721  6647 layer_factory.hpp:77] Creating layer inception_4b/relu_pool_proj
I0403 18:10:22.491741  6647 net.cpp:91] Creating Layer inception_4b/relu_pool_proj
I0403 18:10:22.491757  6647 net.cpp:425] inception_4b/relu_pool_proj <- inception_4b/pool_proj
I0403 18:10:22.491773  6647 net.cpp:386] inception_4b/relu_pool_proj -> inception_4b/pool_proj (in-place)
I0403 18:10:22.491951  6647 net.cpp:141] Setting up inception_4b/relu_pool_proj
I0403 18:10:22.491976  6647 net.cpp:148] Top shape: 24 64 14 14 (301056)
I0403 18:10:22.491989  6647 net.cpp:156] Memory required for data: 980223264
I0403 18:10:22.492004  6647 layer_factory.hpp:77] Creating layer inception_4b/output
I0403 18:10:22.492023  6647 net.cpp:91] Creating Layer inception_4b/output
I0403 18:10:22.492039  6647 net.cpp:425] inception_4b/output <- inception_4b/1x1
I0403 18:10:22.492056  6647 net.cpp:425] inception_4b/output <- inception_4b/3x3
I0403 18:10:22.492072  6647 net.cpp:425] inception_4b/output <- inception_4b/5x5
I0403 18:10:22.492087  6647 net.cpp:425] inception_4b/output <- inception_4b/pool_proj
I0403 18:10:22.492105  6647 net.cpp:399] inception_4b/output -> inception_4b/output
I0403 18:10:22.492151  6647 net.cpp:141] Setting up inception_4b/output
I0403 18:10:22.492172  6647 net.cpp:148] Top shape: 24 512 14 14 (2408448)
I0403 18:10:22.492190  6647 net.cpp:156] Memory required for data: 989857056
I0403 18:10:22.492218  6647 layer_factory.hpp:77] Creating layer inception_4b/output_inception_4b/output_0_split
I0403 18:10:22.492235  6647 net.cpp:91] Creating Layer inception_4b/output_inception_4b/output_0_split
I0403 18:10:22.492261  6647 net.cpp:425] inception_4b/output_inception_4b/output_0_split <- inception_4b/output
I0403 18:10:22.492281  6647 net.cpp:399] inception_4b/output_inception_4b/output_0_split -> inception_4b/output_inception_4b/output_0_split_0
I0403 18:10:22.492305  6647 net.cpp:399] inception_4b/output_inception_4b/output_0_split -> inception_4b/output_inception_4b/output_0_split_1
I0403 18:10:22.492324  6647 net.cpp:399] inception_4b/output_inception_4b/output_0_split -> inception_4b/output_inception_4b/output_0_split_2
I0403 18:10:22.492343  6647 net.cpp:399] inception_4b/output_inception_4b/output_0_split -> inception_4b/output_inception_4b/output_0_split_3
I0403 18:10:22.492429  6647 net.cpp:141] Setting up inception_4b/output_inception_4b/output_0_split
I0403 18:10:22.492452  6647 net.cpp:148] Top shape: 24 512 14 14 (2408448)
I0403 18:10:22.492468  6647 net.cpp:148] Top shape: 24 512 14 14 (2408448)
I0403 18:10:22.492482  6647 net.cpp:148] Top shape: 24 512 14 14 (2408448)
I0403 18:10:22.492497  6647 net.cpp:148] Top shape: 24 512 14 14 (2408448)
I0403 18:10:22.492511  6647 net.cpp:156] Memory required for data: 1028392224
I0403 18:10:22.492525  6647 layer_factory.hpp:77] Creating layer inception_4c/1x1
I0403 18:10:22.492550  6647 net.cpp:91] Creating Layer inception_4c/1x1
I0403 18:10:22.492568  6647 net.cpp:425] inception_4c/1x1 <- inception_4b/output_inception_4b/output_0_split_0
I0403 18:10:22.492588  6647 net.cpp:399] inception_4c/1x1 -> inception_4c/1x1
I0403 18:10:22.494035  6647 net.cpp:141] Setting up inception_4c/1x1
I0403 18:10:22.494063  6647 net.cpp:148] Top shape: 24 128 14 14 (602112)
I0403 18:10:22.494079  6647 net.cpp:156] Memory required for data: 1030800672
I0403 18:10:22.494097  6647 layer_factory.hpp:77] Creating layer inception_4c/relu_1x1
I0403 18:10:22.494118  6647 net.cpp:91] Creating Layer inception_4c/relu_1x1
I0403 18:10:22.494134  6647 net.cpp:425] inception_4c/relu_1x1 <- inception_4c/1x1
I0403 18:10:22.494153  6647 net.cpp:386] inception_4c/relu_1x1 -> inception_4c/1x1 (in-place)
I0403 18:10:22.494340  6647 net.cpp:141] Setting up inception_4c/relu_1x1
I0403 18:10:22.494365  6647 net.cpp:148] Top shape: 24 128 14 14 (602112)
I0403 18:10:22.494379  6647 net.cpp:156] Memory required for data: 1033209120
I0403 18:10:22.494395  6647 layer_factory.hpp:77] Creating layer inception_4c/3x3_reduce
I0403 18:10:22.494416  6647 net.cpp:91] Creating Layer inception_4c/3x3_reduce
I0403 18:10:22.494434  6647 net.cpp:425] inception_4c/3x3_reduce <- inception_4b/output_inception_4b/output_0_split_1
I0403 18:10:22.494456  6647 net.cpp:399] inception_4c/3x3_reduce -> inception_4c/3x3_reduce
I0403 18:10:22.496459  6647 net.cpp:141] Setting up inception_4c/3x3_reduce
I0403 18:10:22.496487  6647 net.cpp:148] Top shape: 24 128 14 14 (602112)
I0403 18:10:22.496502  6647 net.cpp:156] Memory required for data: 1035617568
I0403 18:10:22.496520  6647 layer_factory.hpp:77] Creating layer inception_4c/relu_3x3_reduce
I0403 18:10:22.496538  6647 net.cpp:91] Creating Layer inception_4c/relu_3x3_reduce
I0403 18:10:22.496554  6647 net.cpp:425] inception_4c/relu_3x3_reduce <- inception_4c/3x3_reduce
I0403 18:10:22.496573  6647 net.cpp:386] inception_4c/relu_3x3_reduce -> inception_4c/3x3_reduce (in-place)
I0403 18:10:22.496861  6647 net.cpp:141] Setting up inception_4c/relu_3x3_reduce
I0403 18:10:22.496889  6647 net.cpp:148] Top shape: 24 128 14 14 (602112)
I0403 18:10:22.496906  6647 net.cpp:156] Memory required for data: 1038026016
I0403 18:10:22.496920  6647 layer_factory.hpp:77] Creating layer inception_4c/3x3
I0403 18:10:22.496943  6647 net.cpp:91] Creating Layer inception_4c/3x3
I0403 18:10:22.496963  6647 net.cpp:425] inception_4c/3x3 <- inception_4c/3x3_reduce
I0403 18:10:22.496984  6647 net.cpp:399] inception_4c/3x3 -> inception_4c/3x3
I0403 18:10:22.500733  6647 net.cpp:141] Setting up inception_4c/3x3
I0403 18:10:22.500777  6647 net.cpp:148] Top shape: 24 256 14 14 (1204224)
I0403 18:10:22.500793  6647 net.cpp:156] Memory required for data: 1042842912
I0403 18:10:22.500826  6647 layer_factory.hpp:77] Creating layer inception_4c/relu_3x3
I0403 18:10:22.500849  6647 net.cpp:91] Creating Layer inception_4c/relu_3x3
I0403 18:10:22.500866  6647 net.cpp:425] inception_4c/relu_3x3 <- inception_4c/3x3
I0403 18:10:22.500885  6647 net.cpp:386] inception_4c/relu_3x3 -> inception_4c/3x3 (in-place)
I0403 18:10:22.501075  6647 net.cpp:141] Setting up inception_4c/relu_3x3
I0403 18:10:22.501101  6647 net.cpp:148] Top shape: 24 256 14 14 (1204224)
I0403 18:10:22.501116  6647 net.cpp:156] Memory required for data: 1047659808
I0403 18:10:22.501132  6647 layer_factory.hpp:77] Creating layer inception_4c/5x5_reduce
I0403 18:10:22.501155  6647 net.cpp:91] Creating Layer inception_4c/5x5_reduce
I0403 18:10:22.501173  6647 net.cpp:425] inception_4c/5x5_reduce <- inception_4b/output_inception_4b/output_0_split_2
I0403 18:10:22.501197  6647 net.cpp:399] inception_4c/5x5_reduce -> inception_4c/5x5_reduce
I0403 18:10:22.502343  6647 net.cpp:141] Setting up inception_4c/5x5_reduce
I0403 18:10:22.502372  6647 net.cpp:148] Top shape: 24 24 14 14 (112896)
I0403 18:10:22.502388  6647 net.cpp:156] Memory required for data: 1048111392
I0403 18:10:22.502408  6647 layer_factory.hpp:77] Creating layer inception_4c/relu_5x5_reduce
I0403 18:10:22.502429  6647 net.cpp:91] Creating Layer inception_4c/relu_5x5_reduce
I0403 18:10:22.502445  6647 net.cpp:425] inception_4c/relu_5x5_reduce <- inception_4c/5x5_reduce
I0403 18:10:22.502463  6647 net.cpp:386] inception_4c/relu_5x5_reduce -> inception_4c/5x5_reduce (in-place)
I0403 18:10:22.502655  6647 net.cpp:141] Setting up inception_4c/relu_5x5_reduce
I0403 18:10:22.502683  6647 net.cpp:148] Top shape: 24 24 14 14 (112896)
I0403 18:10:22.502699  6647 net.cpp:156] Memory required for data: 1048562976
I0403 18:10:22.502715  6647 layer_factory.hpp:77] Creating layer inception_4c/5x5
I0403 18:10:22.502735  6647 net.cpp:91] Creating Layer inception_4c/5x5
I0403 18:10:22.502753  6647 net.cpp:425] inception_4c/5x5 <- inception_4c/5x5_reduce
I0403 18:10:22.502775  6647 net.cpp:399] inception_4c/5x5 -> inception_4c/5x5
I0403 18:10:22.504078  6647 net.cpp:141] Setting up inception_4c/5x5
I0403 18:10:22.504107  6647 net.cpp:148] Top shape: 24 64 14 14 (301056)
I0403 18:10:22.504123  6647 net.cpp:156] Memory required for data: 1049767200
I0403 18:10:22.504142  6647 layer_factory.hpp:77] Creating layer inception_4c/relu_5x5
I0403 18:10:22.504163  6647 net.cpp:91] Creating Layer inception_4c/relu_5x5
I0403 18:10:22.504179  6647 net.cpp:425] inception_4c/relu_5x5 <- inception_4c/5x5
I0403 18:10:22.504197  6647 net.cpp:386] inception_4c/relu_5x5 -> inception_4c/5x5 (in-place)
I0403 18:10:22.504508  6647 net.cpp:141] Setting up inception_4c/relu_5x5
I0403 18:10:22.504535  6647 net.cpp:148] Top shape: 24 64 14 14 (301056)
I0403 18:10:22.504551  6647 net.cpp:156] Memory required for data: 1050971424
I0403 18:10:22.504567  6647 layer_factory.hpp:77] Creating layer inception_4c/pool
I0403 18:10:22.504588  6647 net.cpp:91] Creating Layer inception_4c/pool
I0403 18:10:22.504606  6647 net.cpp:425] inception_4c/pool <- inception_4b/output_inception_4b/output_0_split_3
I0403 18:10:22.504624  6647 net.cpp:399] inception_4c/pool -> inception_4c/pool
I0403 18:10:22.504693  6647 net.cpp:141] Setting up inception_4c/pool
I0403 18:10:22.504719  6647 net.cpp:148] Top shape: 24 512 14 14 (2408448)
I0403 18:10:22.504734  6647 net.cpp:156] Memory required for data: 1060605216
I0403 18:10:22.504750  6647 layer_factory.hpp:77] Creating layer inception_4c/pool_proj
I0403 18:10:22.504772  6647 net.cpp:91] Creating Layer inception_4c/pool_proj
I0403 18:10:22.504789  6647 net.cpp:425] inception_4c/pool_proj <- inception_4c/pool
I0403 18:10:22.504812  6647 net.cpp:399] inception_4c/pool_proj -> inception_4c/pool_proj
I0403 18:10:22.506090  6647 net.cpp:141] Setting up inception_4c/pool_proj
I0403 18:10:22.506119  6647 net.cpp:148] Top shape: 24 64 14 14 (301056)
I0403 18:10:22.506150  6647 net.cpp:156] Memory required for data: 1061809440
I0403 18:10:22.506168  6647 layer_factory.hpp:77] Creating layer inception_4c/relu_pool_proj
I0403 18:10:22.506191  6647 net.cpp:91] Creating Layer inception_4c/relu_pool_proj
I0403 18:10:22.506206  6647 net.cpp:425] inception_4c/relu_pool_proj <- inception_4c/pool_proj
I0403 18:10:22.506224  6647 net.cpp:386] inception_4c/relu_pool_proj -> inception_4c/pool_proj (in-place)
I0403 18:10:22.506415  6647 net.cpp:141] Setting up inception_4c/relu_pool_proj
I0403 18:10:22.506443  6647 net.cpp:148] Top shape: 24 64 14 14 (301056)
I0403 18:10:22.506458  6647 net.cpp:156] Memory required for data: 1063013664
I0403 18:10:22.506471  6647 layer_factory.hpp:77] Creating layer inception_4c/output
I0403 18:10:22.506492  6647 net.cpp:91] Creating Layer inception_4c/output
I0403 18:10:22.506508  6647 net.cpp:425] inception_4c/output <- inception_4c/1x1
I0403 18:10:22.506526  6647 net.cpp:425] inception_4c/output <- inception_4c/3x3
I0403 18:10:22.506543  6647 net.cpp:425] inception_4c/output <- inception_4c/5x5
I0403 18:10:22.506559  6647 net.cpp:425] inception_4c/output <- inception_4c/pool_proj
I0403 18:10:22.506577  6647 net.cpp:399] inception_4c/output -> inception_4c/output
I0403 18:10:22.506626  6647 net.cpp:141] Setting up inception_4c/output
I0403 18:10:22.506650  6647 net.cpp:148] Top shape: 24 512 14 14 (2408448)
I0403 18:10:22.506664  6647 net.cpp:156] Memory required for data: 1072647456
I0403 18:10:22.506680  6647 layer_factory.hpp:77] Creating layer inception_4c/output_inception_4c/output_0_split
I0403 18:10:22.506698  6647 net.cpp:91] Creating Layer inception_4c/output_inception_4c/output_0_split
I0403 18:10:22.506713  6647 net.cpp:425] inception_4c/output_inception_4c/output_0_split <- inception_4c/output
I0403 18:10:22.506734  6647 net.cpp:399] inception_4c/output_inception_4c/output_0_split -> inception_4c/output_inception_4c/output_0_split_0
I0403 18:10:22.506757  6647 net.cpp:399] inception_4c/output_inception_4c/output_0_split -> inception_4c/output_inception_4c/output_0_split_1
I0403 18:10:22.506778  6647 net.cpp:399] inception_4c/output_inception_4c/output_0_split -> inception_4c/output_inception_4c/output_0_split_2
I0403 18:10:22.506798  6647 net.cpp:399] inception_4c/output_inception_4c/output_0_split -> inception_4c/output_inception_4c/output_0_split_3
I0403 18:10:22.506888  6647 net.cpp:141] Setting up inception_4c/output_inception_4c/output_0_split
I0403 18:10:22.506914  6647 net.cpp:148] Top shape: 24 512 14 14 (2408448)
I0403 18:10:22.506932  6647 net.cpp:148] Top shape: 24 512 14 14 (2408448)
I0403 18:10:22.506947  6647 net.cpp:148] Top shape: 24 512 14 14 (2408448)
I0403 18:10:22.506963  6647 net.cpp:148] Top shape: 24 512 14 14 (2408448)
I0403 18:10:22.506978  6647 net.cpp:156] Memory required for data: 1111182624
I0403 18:10:22.506994  6647 layer_factory.hpp:77] Creating layer inception_4d/1x1
I0403 18:10:22.507016  6647 net.cpp:91] Creating Layer inception_4d/1x1
I0403 18:10:22.507035  6647 net.cpp:425] inception_4d/1x1 <- inception_4c/output_inception_4c/output_0_split_0
I0403 18:10:22.507056  6647 net.cpp:399] inception_4d/1x1 -> inception_4d/1x1
I0403 18:10:22.508488  6647 net.cpp:141] Setting up inception_4d/1x1
I0403 18:10:22.508519  6647 net.cpp:148] Top shape: 24 112 14 14 (526848)
I0403 18:10:22.508536  6647 net.cpp:156] Memory required for data: 1113290016
I0403 18:10:22.508555  6647 layer_factory.hpp:77] Creating layer inception_4d/relu_1x1
I0403 18:10:22.508574  6647 net.cpp:91] Creating Layer inception_4d/relu_1x1
I0403 18:10:22.508590  6647 net.cpp:425] inception_4d/relu_1x1 <- inception_4d/1x1
I0403 18:10:22.508610  6647 net.cpp:386] inception_4d/relu_1x1 -> inception_4d/1x1 (in-place)
I0403 18:10:22.508805  6647 net.cpp:141] Setting up inception_4d/relu_1x1
I0403 18:10:22.508831  6647 net.cpp:148] Top shape: 24 112 14 14 (526848)
I0403 18:10:22.508846  6647 net.cpp:156] Memory required for data: 1115397408
I0403 18:10:22.508862  6647 layer_factory.hpp:77] Creating layer inception_4d/3x3_reduce
I0403 18:10:22.508898  6647 net.cpp:91] Creating Layer inception_4d/3x3_reduce
I0403 18:10:22.508919  6647 net.cpp:425] inception_4d/3x3_reduce <- inception_4c/output_inception_4c/output_0_split_1
I0403 18:10:22.508940  6647 net.cpp:399] inception_4d/3x3_reduce -> inception_4d/3x3_reduce
I0403 18:10:22.510534  6647 net.cpp:141] Setting up inception_4d/3x3_reduce
I0403 18:10:22.510563  6647 net.cpp:148] Top shape: 24 144 14 14 (677376)
I0403 18:10:22.510581  6647 net.cpp:156] Memory required for data: 1118106912
I0403 18:10:22.510598  6647 layer_factory.hpp:77] Creating layer inception_4d/relu_3x3_reduce
I0403 18:10:22.510617  6647 net.cpp:91] Creating Layer inception_4d/relu_3x3_reduce
I0403 18:10:22.510633  6647 net.cpp:425] inception_4d/relu_3x3_reduce <- inception_4d/3x3_reduce
I0403 18:10:22.510651  6647 net.cpp:386] inception_4d/relu_3x3_reduce -> inception_4d/3x3_reduce (in-place)
I0403 18:10:22.510951  6647 net.cpp:141] Setting up inception_4d/relu_3x3_reduce
I0403 18:10:22.510982  6647 net.cpp:148] Top shape: 24 144 14 14 (677376)
I0403 18:10:22.510998  6647 net.cpp:156] Memory required for data: 1120816416
I0403 18:10:22.511013  6647 layer_factory.hpp:77] Creating layer inception_4d/3x3
I0403 18:10:22.511036  6647 net.cpp:91] Creating Layer inception_4d/3x3
I0403 18:10:22.511055  6647 net.cpp:425] inception_4d/3x3 <- inception_4d/3x3_reduce
I0403 18:10:22.511075  6647 net.cpp:399] inception_4d/3x3 -> inception_4d/3x3
I0403 18:10:22.515557  6647 net.cpp:141] Setting up inception_4d/3x3
I0403 18:10:22.515585  6647 net.cpp:148] Top shape: 24 288 14 14 (1354752)
I0403 18:10:22.515600  6647 net.cpp:156] Memory required for data: 1126235424
I0403 18:10:22.515619  6647 layer_factory.hpp:77] Creating layer inception_4d/relu_3x3
I0403 18:10:22.515635  6647 net.cpp:91] Creating Layer inception_4d/relu_3x3
I0403 18:10:22.515651  6647 net.cpp:425] inception_4d/relu_3x3 <- inception_4d/3x3
I0403 18:10:22.515671  6647 net.cpp:386] inception_4d/relu_3x3 -> inception_4d/3x3 (in-place)
I0403 18:10:22.515856  6647 net.cpp:141] Setting up inception_4d/relu_3x3
I0403 18:10:22.515880  6647 net.cpp:148] Top shape: 24 288 14 14 (1354752)
I0403 18:10:22.515895  6647 net.cpp:156] Memory required for data: 1131654432
I0403 18:10:22.515909  6647 layer_factory.hpp:77] Creating layer inception_4d/5x5_reduce
I0403 18:10:22.515933  6647 net.cpp:91] Creating Layer inception_4d/5x5_reduce
I0403 18:10:22.515950  6647 net.cpp:425] inception_4d/5x5_reduce <- inception_4c/output_inception_4c/output_0_split_2
I0403 18:10:22.515971  6647 net.cpp:399] inception_4d/5x5_reduce -> inception_4d/5x5_reduce
I0403 18:10:22.517134  6647 net.cpp:141] Setting up inception_4d/5x5_reduce
I0403 18:10:22.517168  6647 net.cpp:148] Top shape: 24 32 14 14 (150528)
I0403 18:10:22.517185  6647 net.cpp:156] Memory required for data: 1132256544
I0403 18:10:22.517216  6647 layer_factory.hpp:77] Creating layer inception_4d/relu_5x5_reduce
I0403 18:10:22.517235  6647 net.cpp:91] Creating Layer inception_4d/relu_5x5_reduce
I0403 18:10:22.517256  6647 net.cpp:425] inception_4d/relu_5x5_reduce <- inception_4d/5x5_reduce
I0403 18:10:22.517277  6647 net.cpp:386] inception_4d/relu_5x5_reduce -> inception_4d/5x5_reduce (in-place)
I0403 18:10:22.517475  6647 net.cpp:141] Setting up inception_4d/relu_5x5_reduce
I0403 18:10:22.517513  6647 net.cpp:148] Top shape: 24 32 14 14 (150528)
I0403 18:10:22.517527  6647 net.cpp:156] Memory required for data: 1132858656
I0403 18:10:22.517542  6647 layer_factory.hpp:77] Creating layer inception_4d/5x5
I0403 18:10:22.517576  6647 net.cpp:91] Creating Layer inception_4d/5x5
I0403 18:10:22.517596  6647 net.cpp:425] inception_4d/5x5 <- inception_4d/5x5_reduce
I0403 18:10:22.517617  6647 net.cpp:399] inception_4d/5x5 -> inception_4d/5x5
I0403 18:10:22.519162  6647 net.cpp:141] Setting up inception_4d/5x5
I0403 18:10:22.519191  6647 net.cpp:148] Top shape: 24 64 14 14 (301056)
I0403 18:10:22.519206  6647 net.cpp:156] Memory required for data: 1134062880
I0403 18:10:22.519227  6647 layer_factory.hpp:77] Creating layer inception_4d/relu_5x5
I0403 18:10:22.519266  6647 net.cpp:91] Creating Layer inception_4d/relu_5x5
I0403 18:10:22.519285  6647 net.cpp:425] inception_4d/relu_5x5 <- inception_4d/5x5
I0403 18:10:22.519302  6647 net.cpp:386] inception_4d/relu_5x5 -> inception_4d/5x5 (in-place)
I0403 18:10:22.519605  6647 net.cpp:141] Setting up inception_4d/relu_5x5
I0403 18:10:22.519631  6647 net.cpp:148] Top shape: 24 64 14 14 (301056)
I0403 18:10:22.519646  6647 net.cpp:156] Memory required for data: 1135267104
I0403 18:10:22.519661  6647 layer_factory.hpp:77] Creating layer inception_4d/pool
I0403 18:10:22.519682  6647 net.cpp:91] Creating Layer inception_4d/pool
I0403 18:10:22.519698  6647 net.cpp:425] inception_4d/pool <- inception_4c/output_inception_4c/output_0_split_3
I0403 18:10:22.519716  6647 net.cpp:399] inception_4d/pool -> inception_4d/pool
I0403 18:10:22.519785  6647 net.cpp:141] Setting up inception_4d/pool
I0403 18:10:22.519810  6647 net.cpp:148] Top shape: 24 512 14 14 (2408448)
I0403 18:10:22.519825  6647 net.cpp:156] Memory required for data: 1144900896
I0403 18:10:22.519840  6647 layer_factory.hpp:77] Creating layer inception_4d/pool_proj
I0403 18:10:22.519863  6647 net.cpp:91] Creating Layer inception_4d/pool_proj
I0403 18:10:22.519881  6647 net.cpp:425] inception_4d/pool_proj <- inception_4d/pool
I0403 18:10:22.519901  6647 net.cpp:399] inception_4d/pool_proj -> inception_4d/pool_proj
I0403 18:10:22.521745  6647 net.cpp:141] Setting up inception_4d/pool_proj
I0403 18:10:22.521777  6647 net.cpp:148] Top shape: 24 64 14 14 (301056)
I0403 18:10:22.521793  6647 net.cpp:156] Memory required for data: 1146105120
I0403 18:10:22.521811  6647 layer_factory.hpp:77] Creating layer inception_4d/relu_pool_proj
I0403 18:10:22.521831  6647 net.cpp:91] Creating Layer inception_4d/relu_pool_proj
I0403 18:10:22.521847  6647 net.cpp:425] inception_4d/relu_pool_proj <- inception_4d/pool_proj
I0403 18:10:22.521867  6647 net.cpp:386] inception_4d/relu_pool_proj -> inception_4d/pool_proj (in-place)
I0403 18:10:22.522053  6647 net.cpp:141] Setting up inception_4d/relu_pool_proj
I0403 18:10:22.522078  6647 net.cpp:148] Top shape: 24 64 14 14 (301056)
I0403 18:10:22.522094  6647 net.cpp:156] Memory required for data: 1147309344
I0403 18:10:22.522107  6647 layer_factory.hpp:77] Creating layer inception_4d/output
I0403 18:10:22.522126  6647 net.cpp:91] Creating Layer inception_4d/output
I0403 18:10:22.522143  6647 net.cpp:425] inception_4d/output <- inception_4d/1x1
I0403 18:10:22.522161  6647 net.cpp:425] inception_4d/output <- inception_4d/3x3
I0403 18:10:22.522176  6647 net.cpp:425] inception_4d/output <- inception_4d/5x5
I0403 18:10:22.522192  6647 net.cpp:425] inception_4d/output <- inception_4d/pool_proj
I0403 18:10:22.522209  6647 net.cpp:399] inception_4d/output -> inception_4d/output
I0403 18:10:22.522264  6647 net.cpp:141] Setting up inception_4d/output
I0403 18:10:22.522291  6647 net.cpp:148] Top shape: 24 528 14 14 (2483712)
I0403 18:10:22.522306  6647 net.cpp:156] Memory required for data: 1157244192
I0403 18:10:22.522321  6647 layer_factory.hpp:77] Creating layer inception_4d/output_inception_4d/output_0_split
I0403 18:10:22.522339  6647 net.cpp:91] Creating Layer inception_4d/output_inception_4d/output_0_split
I0403 18:10:22.522356  6647 net.cpp:425] inception_4d/output_inception_4d/output_0_split <- inception_4d/output
I0403 18:10:22.522375  6647 net.cpp:399] inception_4d/output_inception_4d/output_0_split -> inception_4d/output_inception_4d/output_0_split_0
I0403 18:10:22.522397  6647 net.cpp:399] inception_4d/output_inception_4d/output_0_split -> inception_4d/output_inception_4d/output_0_split_1
I0403 18:10:22.522416  6647 net.cpp:399] inception_4d/output_inception_4d/output_0_split -> inception_4d/output_inception_4d/output_0_split_2
I0403 18:10:22.522436  6647 net.cpp:399] inception_4d/output_inception_4d/output_0_split -> inception_4d/output_inception_4d/output_0_split_3
I0403 18:10:22.522456  6647 net.cpp:399] inception_4d/output_inception_4d/output_0_split -> inception_4d/output_inception_4d/output_0_split_4
I0403 18:10:22.522562  6647 net.cpp:141] Setting up inception_4d/output_inception_4d/output_0_split
I0403 18:10:22.522598  6647 net.cpp:148] Top shape: 24 528 14 14 (2483712)
I0403 18:10:22.522617  6647 net.cpp:148] Top shape: 24 528 14 14 (2483712)
I0403 18:10:22.522634  6647 net.cpp:148] Top shape: 24 528 14 14 (2483712)
I0403 18:10:22.522650  6647 net.cpp:148] Top shape: 24 528 14 14 (2483712)
I0403 18:10:22.522665  6647 net.cpp:148] Top shape: 24 528 14 14 (2483712)
I0403 18:10:22.522680  6647 net.cpp:156] Memory required for data: 1206918432
I0403 18:10:22.522694  6647 layer_factory.hpp:77] Creating layer loss2/ave_pool
I0403 18:10:22.522711  6647 net.cpp:91] Creating Layer loss2/ave_pool
I0403 18:10:22.522727  6647 net.cpp:425] loss2/ave_pool <- inception_4d/output_inception_4d/output_0_split_0
I0403 18:10:22.522748  6647 net.cpp:399] loss2/ave_pool -> loss2/ave_pool
I0403 18:10:22.523066  6647 net.cpp:141] Setting up loss2/ave_pool
I0403 18:10:22.523093  6647 net.cpp:148] Top shape: 24 528 4 4 (202752)
I0403 18:10:22.523108  6647 net.cpp:156] Memory required for data: 1207729440
I0403 18:10:22.523124  6647 layer_factory.hpp:77] Creating layer loss2/conv
I0403 18:10:22.523149  6647 net.cpp:91] Creating Layer loss2/conv
I0403 18:10:22.523167  6647 net.cpp:425] loss2/conv <- loss2/ave_pool
I0403 18:10:22.523190  6647 net.cpp:399] loss2/conv -> loss2/conv
I0403 18:10:22.525130  6647 net.cpp:141] Setting up loss2/conv
I0403 18:10:22.525159  6647 net.cpp:148] Top shape: 24 128 4 4 (49152)
I0403 18:10:22.525176  6647 net.cpp:156] Memory required for data: 1207926048
I0403 18:10:22.525194  6647 layer_factory.hpp:77] Creating layer loss2/relu_conv
I0403 18:10:22.525215  6647 net.cpp:91] Creating Layer loss2/relu_conv
I0403 18:10:22.525233  6647 net.cpp:425] loss2/relu_conv <- loss2/conv
I0403 18:10:22.525254  6647 net.cpp:386] loss2/relu_conv -> loss2/conv (in-place)
I0403 18:10:22.525543  6647 net.cpp:141] Setting up loss2/relu_conv
I0403 18:10:22.525569  6647 net.cpp:148] Top shape: 24 128 4 4 (49152)
I0403 18:10:22.525584  6647 net.cpp:156] Memory required for data: 1208122656
I0403 18:10:22.525600  6647 layer_factory.hpp:77] Creating layer loss2/fc
I0403 18:10:22.525621  6647 net.cpp:91] Creating Layer loss2/fc
I0403 18:10:22.525638  6647 net.cpp:425] loss2/fc <- loss2/conv
I0403 18:10:22.525656  6647 net.cpp:399] loss2/fc -> loss2/fc
I0403 18:10:22.543349  6647 net.cpp:141] Setting up loss2/fc
I0403 18:10:22.543381  6647 net.cpp:148] Top shape: 24 1024 (24576)
I0403 18:10:22.543397  6647 net.cpp:156] Memory required for data: 1208220960
I0403 18:10:22.543416  6647 layer_factory.hpp:77] Creating layer loss2/relu_fc
I0403 18:10:22.543436  6647 net.cpp:91] Creating Layer loss2/relu_fc
I0403 18:10:22.543452  6647 net.cpp:425] loss2/relu_fc <- loss2/fc
I0403 18:10:22.543472  6647 net.cpp:386] loss2/relu_fc -> loss2/fc (in-place)
I0403 18:10:22.543797  6647 net.cpp:141] Setting up loss2/relu_fc
I0403 18:10:22.543823  6647 net.cpp:148] Top shape: 24 1024 (24576)
I0403 18:10:22.543838  6647 net.cpp:156] Memory required for data: 1208319264
I0403 18:10:22.543853  6647 layer_factory.hpp:77] Creating layer loss2/drop_fc
I0403 18:10:22.543869  6647 net.cpp:91] Creating Layer loss2/drop_fc
I0403 18:10:22.543885  6647 net.cpp:425] loss2/drop_fc <- loss2/fc
I0403 18:10:22.543905  6647 net.cpp:386] loss2/drop_fc -> loss2/fc (in-place)
I0403 18:10:22.543952  6647 net.cpp:141] Setting up loss2/drop_fc
I0403 18:10:22.543979  6647 net.cpp:148] Top shape: 24 1024 (24576)
I0403 18:10:22.543993  6647 net.cpp:156] Memory required for data: 1208417568
I0403 18:10:22.544008  6647 layer_factory.hpp:77] Creating layer loss2/classifier_plantvillage
I0403 18:10:22.544025  6647 net.cpp:91] Creating Layer loss2/classifier_plantvillage
I0403 18:10:22.544041  6647 net.cpp:425] loss2/classifier_plantvillage <- loss2/fc
I0403 18:10:22.544061  6647 net.cpp:399] loss2/classifier_plantvillage -> loss2/classifier_plantvillage
I0403 18:10:22.544461  6647 net.cpp:141] Setting up loss2/classifier_plantvillage
I0403 18:10:22.544488  6647 net.cpp:148] Top shape: 24 38 (912)
I0403 18:10:22.544523  6647 net.cpp:156] Memory required for data: 1208421216
I0403 18:10:22.544541  6647 layer_factory.hpp:77] Creating layer loss2/classifier_plantvillage_loss2/classifier_plantvillage_0_split
I0403 18:10:22.544559  6647 net.cpp:91] Creating Layer loss2/classifier_plantvillage_loss2/classifier_plantvillage_0_split
I0403 18:10:22.544575  6647 net.cpp:425] loss2/classifier_plantvillage_loss2/classifier_plantvillage_0_split <- loss2/classifier_plantvillage
I0403 18:10:22.544595  6647 net.cpp:399] loss2/classifier_plantvillage_loss2/classifier_plantvillage_0_split -> loss2/classifier_plantvillage_loss2/classifier_plantvillage_0_split_0
I0403 18:10:22.544615  6647 net.cpp:399] loss2/classifier_plantvillage_loss2/classifier_plantvillage_0_split -> loss2/classifier_plantvillage_loss2/classifier_plantvillage_0_split_1
I0403 18:10:22.544636  6647 net.cpp:399] loss2/classifier_plantvillage_loss2/classifier_plantvillage_0_split -> loss2/classifier_plantvillage_loss2/classifier_plantvillage_0_split_2
I0403 18:10:22.544713  6647 net.cpp:141] Setting up loss2/classifier_plantvillage_loss2/classifier_plantvillage_0_split
I0403 18:10:22.544735  6647 net.cpp:148] Top shape: 24 38 (912)
I0403 18:10:22.544750  6647 net.cpp:148] Top shape: 24 38 (912)
I0403 18:10:22.544766  6647 net.cpp:148] Top shape: 24 38 (912)
I0403 18:10:22.544780  6647 net.cpp:156] Memory required for data: 1208432160
I0403 18:10:22.544793  6647 layer_factory.hpp:77] Creating layer inception_4e/1x1
I0403 18:10:22.544813  6647 net.cpp:91] Creating Layer inception_4e/1x1
I0403 18:10:22.544829  6647 net.cpp:425] inception_4e/1x1 <- inception_4d/output_inception_4d/output_0_split_1
I0403 18:10:22.544850  6647 net.cpp:399] inception_4e/1x1 -> inception_4e/1x1
I0403 18:10:22.546654  6647 net.cpp:141] Setting up inception_4e/1x1
I0403 18:10:22.546681  6647 net.cpp:148] Top shape: 24 256 14 14 (1204224)
I0403 18:10:22.546697  6647 net.cpp:156] Memory required for data: 1213249056
I0403 18:10:22.546715  6647 layer_factory.hpp:77] Creating layer inception_4e/relu_1x1
I0403 18:10:22.546736  6647 net.cpp:91] Creating Layer inception_4e/relu_1x1
I0403 18:10:22.546751  6647 net.cpp:425] inception_4e/relu_1x1 <- inception_4e/1x1
I0403 18:10:22.546767  6647 net.cpp:386] inception_4e/relu_1x1 -> inception_4e/1x1 (in-place)
I0403 18:10:22.547057  6647 net.cpp:141] Setting up inception_4e/relu_1x1
I0403 18:10:22.547083  6647 net.cpp:148] Top shape: 24 256 14 14 (1204224)
I0403 18:10:22.547097  6647 net.cpp:156] Memory required for data: 1218065952
I0403 18:10:22.547111  6647 layer_factory.hpp:77] Creating layer inception_4e/3x3_reduce
I0403 18:10:22.547135  6647 net.cpp:91] Creating Layer inception_4e/3x3_reduce
I0403 18:10:22.547152  6647 net.cpp:425] inception_4e/3x3_reduce <- inception_4d/output_inception_4d/output_0_split_2
I0403 18:10:22.547171  6647 net.cpp:399] inception_4e/3x3_reduce -> inception_4e/3x3_reduce
I0403 18:10:22.549321  6647 net.cpp:141] Setting up inception_4e/3x3_reduce
I0403 18:10:22.549350  6647 net.cpp:148] Top shape: 24 160 14 14 (752640)
I0403 18:10:22.549365  6647 net.cpp:156] Memory required for data: 1221076512
I0403 18:10:22.549383  6647 layer_factory.hpp:77] Creating layer inception_4e/relu_3x3_reduce
I0403 18:10:22.549404  6647 net.cpp:91] Creating Layer inception_4e/relu_3x3_reduce
I0403 18:10:22.549422  6647 net.cpp:425] inception_4e/relu_3x3_reduce <- inception_4e/3x3_reduce
I0403 18:10:22.549439  6647 net.cpp:386] inception_4e/relu_3x3_reduce -> inception_4e/3x3_reduce (in-place)
I0403 18:10:22.549625  6647 net.cpp:141] Setting up inception_4e/relu_3x3_reduce
I0403 18:10:22.549650  6647 net.cpp:148] Top shape: 24 160 14 14 (752640)
I0403 18:10:22.549665  6647 net.cpp:156] Memory required for data: 1224087072
I0403 18:10:22.549679  6647 layer_factory.hpp:77] Creating layer inception_4e/3x3
I0403 18:10:22.549702  6647 net.cpp:91] Creating Layer inception_4e/3x3
I0403 18:10:22.549721  6647 net.cpp:425] inception_4e/3x3 <- inception_4e/3x3_reduce
I0403 18:10:22.549738  6647 net.cpp:399] inception_4e/3x3 -> inception_4e/3x3
I0403 18:10:22.554874  6647 net.cpp:141] Setting up inception_4e/3x3
I0403 18:10:22.554918  6647 net.cpp:148] Top shape: 24 320 14 14 (1505280)
I0403 18:10:22.554934  6647 net.cpp:156] Memory required for data: 1230108192
I0403 18:10:22.554954  6647 layer_factory.hpp:77] Creating layer inception_4e/relu_3x3
I0403 18:10:22.554970  6647 net.cpp:91] Creating Layer inception_4e/relu_3x3
I0403 18:10:22.554986  6647 net.cpp:425] inception_4e/relu_3x3 <- inception_4e/3x3
I0403 18:10:22.555006  6647 net.cpp:386] inception_4e/relu_3x3 -> inception_4e/3x3 (in-place)
I0403 18:10:22.555310  6647 net.cpp:141] Setting up inception_4e/relu_3x3
I0403 18:10:22.555338  6647 net.cpp:148] Top shape: 24 320 14 14 (1505280)
I0403 18:10:22.555354  6647 net.cpp:156] Memory required for data: 1236129312
I0403 18:10:22.555369  6647 layer_factory.hpp:77] Creating layer inception_4e/5x5_reduce
I0403 18:10:22.555392  6647 net.cpp:91] Creating Layer inception_4e/5x5_reduce
I0403 18:10:22.555410  6647 net.cpp:425] inception_4e/5x5_reduce <- inception_4d/output_inception_4d/output_0_split_3
I0403 18:10:22.555430  6647 net.cpp:399] inception_4e/5x5_reduce -> inception_4e/5x5_reduce
I0403 18:10:22.556514  6647 net.cpp:141] Setting up inception_4e/5x5_reduce
I0403 18:10:22.556542  6647 net.cpp:148] Top shape: 24 32 14 14 (150528)
I0403 18:10:22.556557  6647 net.cpp:156] Memory required for data: 1236731424
I0403 18:10:22.556576  6647 layer_factory.hpp:77] Creating layer inception_4e/relu_5x5_reduce
I0403 18:10:22.556596  6647 net.cpp:91] Creating Layer inception_4e/relu_5x5_reduce
I0403 18:10:22.556612  6647 net.cpp:425] inception_4e/relu_5x5_reduce <- inception_4e/5x5_reduce
I0403 18:10:22.556629  6647 net.cpp:386] inception_4e/relu_5x5_reduce -> inception_4e/5x5_reduce (in-place)
I0403 18:10:22.556932  6647 net.cpp:141] Setting up inception_4e/relu_5x5_reduce
I0403 18:10:22.556959  6647 net.cpp:148] Top shape: 24 32 14 14 (150528)
I0403 18:10:22.556974  6647 net.cpp:156] Memory required for data: 1237333536
I0403 18:10:22.556989  6647 layer_factory.hpp:77] Creating layer inception_4e/5x5
I0403 18:10:22.557027  6647 net.cpp:91] Creating Layer inception_4e/5x5
I0403 18:10:22.557047  6647 net.cpp:425] inception_4e/5x5 <- inception_4e/5x5_reduce
I0403 18:10:22.557070  6647 net.cpp:399] inception_4e/5x5 -> inception_4e/5x5
I0403 18:10:22.558956  6647 net.cpp:141] Setting up inception_4e/5x5
I0403 18:10:22.558984  6647 net.cpp:148] Top shape: 24 128 14 14 (602112)
I0403 18:10:22.559000  6647 net.cpp:156] Memory required for data: 1239741984
I0403 18:10:22.559018  6647 layer_factory.hpp:77] Creating layer inception_4e/relu_5x5
I0403 18:10:22.559036  6647 net.cpp:91] Creating Layer inception_4e/relu_5x5
I0403 18:10:22.559051  6647 net.cpp:425] inception_4e/relu_5x5 <- inception_4e/5x5
I0403 18:10:22.559072  6647 net.cpp:386] inception_4e/relu_5x5 -> inception_4e/5x5 (in-place)
I0403 18:10:22.559278  6647 net.cpp:141] Setting up inception_4e/relu_5x5
I0403 18:10:22.559303  6647 net.cpp:148] Top shape: 24 128 14 14 (602112)
I0403 18:10:22.559319  6647 net.cpp:156] Memory required for data: 1242150432
I0403 18:10:22.559334  6647 layer_factory.hpp:77] Creating layer inception_4e/pool
I0403 18:10:22.559355  6647 net.cpp:91] Creating Layer inception_4e/pool
I0403 18:10:22.559371  6647 net.cpp:425] inception_4e/pool <- inception_4d/output_inception_4d/output_0_split_4
I0403 18:10:22.559389  6647 net.cpp:399] inception_4e/pool -> inception_4e/pool
I0403 18:10:22.559463  6647 net.cpp:141] Setting up inception_4e/pool
I0403 18:10:22.559485  6647 net.cpp:148] Top shape: 24 528 14 14 (2483712)
I0403 18:10:22.559500  6647 net.cpp:156] Memory required for data: 1252085280
I0403 18:10:22.559515  6647 layer_factory.hpp:77] Creating layer inception_4e/pool_proj
I0403 18:10:22.559537  6647 net.cpp:91] Creating Layer inception_4e/pool_proj
I0403 18:10:22.559556  6647 net.cpp:425] inception_4e/pool_proj <- inception_4e/pool
I0403 18:10:22.559577  6647 net.cpp:399] inception_4e/pool_proj -> inception_4e/pool_proj
I0403 18:10:22.561089  6647 net.cpp:141] Setting up inception_4e/pool_proj
I0403 18:10:22.561130  6647 net.cpp:148] Top shape: 24 128 14 14 (602112)
I0403 18:10:22.561144  6647 net.cpp:156] Memory required for data: 1254493728
I0403 18:10:22.561162  6647 layer_factory.hpp:77] Creating layer inception_4e/relu_pool_proj
I0403 18:10:22.561182  6647 net.cpp:91] Creating Layer inception_4e/relu_pool_proj
I0403 18:10:22.561197  6647 net.cpp:425] inception_4e/relu_pool_proj <- inception_4e/pool_proj
I0403 18:10:22.561218  6647 net.cpp:386] inception_4e/relu_pool_proj -> inception_4e/pool_proj (in-place)
I0403 18:10:22.561519  6647 net.cpp:141] Setting up inception_4e/relu_pool_proj
I0403 18:10:22.561547  6647 net.cpp:148] Top shape: 24 128 14 14 (602112)
I0403 18:10:22.561561  6647 net.cpp:156] Memory required for data: 1256902176
I0403 18:10:22.561575  6647 layer_factory.hpp:77] Creating layer inception_4e/output
I0403 18:10:22.561594  6647 net.cpp:91] Creating Layer inception_4e/output
I0403 18:10:22.561609  6647 net.cpp:425] inception_4e/output <- inception_4e/1x1
I0403 18:10:22.561626  6647 net.cpp:425] inception_4e/output <- inception_4e/3x3
I0403 18:10:22.561642  6647 net.cpp:425] inception_4e/output <- inception_4e/5x5
I0403 18:10:22.561657  6647 net.cpp:425] inception_4e/output <- inception_4e/pool_proj
I0403 18:10:22.561677  6647 net.cpp:399] inception_4e/output -> inception_4e/output
I0403 18:10:22.561727  6647 net.cpp:141] Setting up inception_4e/output
I0403 18:10:22.561753  6647 net.cpp:148] Top shape: 24 832 14 14 (3913728)
I0403 18:10:22.561767  6647 net.cpp:156] Memory required for data: 1272557088
I0403 18:10:22.561781  6647 layer_factory.hpp:77] Creating layer pool4/3x3_s2
I0403 18:10:22.561800  6647 net.cpp:91] Creating Layer pool4/3x3_s2
I0403 18:10:22.561815  6647 net.cpp:425] pool4/3x3_s2 <- inception_4e/output
I0403 18:10:22.561833  6647 net.cpp:399] pool4/3x3_s2 -> pool4/3x3_s2
I0403 18:10:22.561902  6647 net.cpp:141] Setting up pool4/3x3_s2
I0403 18:10:22.561924  6647 net.cpp:148] Top shape: 24 832 7 7 (978432)
I0403 18:10:22.561939  6647 net.cpp:156] Memory required for data: 1276470816
I0403 18:10:22.561954  6647 layer_factory.hpp:77] Creating layer pool4/3x3_s2_pool4/3x3_s2_0_split
I0403 18:10:22.561970  6647 net.cpp:91] Creating Layer pool4/3x3_s2_pool4/3x3_s2_0_split
I0403 18:10:22.561985  6647 net.cpp:425] pool4/3x3_s2_pool4/3x3_s2_0_split <- pool4/3x3_s2
I0403 18:10:22.562005  6647 net.cpp:399] pool4/3x3_s2_pool4/3x3_s2_0_split -> pool4/3x3_s2_pool4/3x3_s2_0_split_0
I0403 18:10:22.562026  6647 net.cpp:399] pool4/3x3_s2_pool4/3x3_s2_0_split -> pool4/3x3_s2_pool4/3x3_s2_0_split_1
I0403 18:10:22.562046  6647 net.cpp:399] pool4/3x3_s2_pool4/3x3_s2_0_split -> pool4/3x3_s2_pool4/3x3_s2_0_split_2
I0403 18:10:22.562067  6647 net.cpp:399] pool4/3x3_s2_pool4/3x3_s2_0_split -> pool4/3x3_s2_pool4/3x3_s2_0_split_3
I0403 18:10:22.562160  6647 net.cpp:141] Setting up pool4/3x3_s2_pool4/3x3_s2_0_split
I0403 18:10:22.562185  6647 net.cpp:148] Top shape: 24 832 7 7 (978432)
I0403 18:10:22.562201  6647 net.cpp:148] Top shape: 24 832 7 7 (978432)
I0403 18:10:22.562216  6647 net.cpp:148] Top shape: 24 832 7 7 (978432)
I0403 18:10:22.562232  6647 net.cpp:148] Top shape: 24 832 7 7 (978432)
I0403 18:10:22.562257  6647 net.cpp:156] Memory required for data: 1292125728
I0403 18:10:22.562273  6647 layer_factory.hpp:77] Creating layer inception_5a/1x1
I0403 18:10:22.562294  6647 net.cpp:91] Creating Layer inception_5a/1x1
I0403 18:10:22.562312  6647 net.cpp:425] inception_5a/1x1 <- pool4/3x3_s2_pool4/3x3_s2_0_split_0
I0403 18:10:22.562333  6647 net.cpp:399] inception_5a/1x1 -> inception_5a/1x1
I0403 18:10:22.565323  6647 net.cpp:141] Setting up inception_5a/1x1
I0403 18:10:22.565353  6647 net.cpp:148] Top shape: 24 256 7 7 (301056)
I0403 18:10:22.565368  6647 net.cpp:156] Memory required for data: 1293329952
I0403 18:10:22.565387  6647 layer_factory.hpp:77] Creating layer inception_5a/relu_1x1
I0403 18:10:22.565407  6647 net.cpp:91] Creating Layer inception_5a/relu_1x1
I0403 18:10:22.565424  6647 net.cpp:425] inception_5a/relu_1x1 <- inception_5a/1x1
I0403 18:10:22.565443  6647 net.cpp:386] inception_5a/relu_1x1 -> inception_5a/1x1 (in-place)
I0403 18:10:22.565763  6647 net.cpp:141] Setting up inception_5a/relu_1x1
I0403 18:10:22.565790  6647 net.cpp:148] Top shape: 24 256 7 7 (301056)
I0403 18:10:22.565804  6647 net.cpp:156] Memory required for data: 1294534176
I0403 18:10:22.565819  6647 layer_factory.hpp:77] Creating layer inception_5a/3x3_reduce
I0403 18:10:22.565842  6647 net.cpp:91] Creating Layer inception_5a/3x3_reduce
I0403 18:10:22.565860  6647 net.cpp:425] inception_5a/3x3_reduce <- pool4/3x3_s2_pool4/3x3_s2_0_split_1
I0403 18:10:22.565886  6647 net.cpp:399] inception_5a/3x3_reduce -> inception_5a/3x3_reduce
I0403 18:10:22.568428  6647 net.cpp:141] Setting up inception_5a/3x3_reduce
I0403 18:10:22.568457  6647 net.cpp:148] Top shape: 24 160 7 7 (188160)
I0403 18:10:22.568472  6647 net.cpp:156] Memory required for data: 1295286816
I0403 18:10:22.568490  6647 layer_factory.hpp:77] Creating layer inception_5a/relu_3x3_reduce
I0403 18:10:22.568507  6647 net.cpp:91] Creating Layer inception_5a/relu_3x3_reduce
I0403 18:10:22.568522  6647 net.cpp:425] inception_5a/relu_3x3_reduce <- inception_5a/3x3_reduce
I0403 18:10:22.568542  6647 net.cpp:386] inception_5a/relu_3x3_reduce -> inception_5a/3x3_reduce (in-place)
I0403 18:10:22.568728  6647 net.cpp:141] Setting up inception_5a/relu_3x3_reduce
I0403 18:10:22.568753  6647 net.cpp:148] Top shape: 24 160 7 7 (188160)
I0403 18:10:22.568768  6647 net.cpp:156] Memory required for data: 1296039456
I0403 18:10:22.568783  6647 layer_factory.hpp:77] Creating layer inception_5a/3x3
I0403 18:10:22.568805  6647 net.cpp:91] Creating Layer inception_5a/3x3
I0403 18:10:22.568824  6647 net.cpp:425] inception_5a/3x3 <- inception_5a/3x3_reduce
I0403 18:10:22.568845  6647 net.cpp:399] inception_5a/3x3 -> inception_5a/3x3
I0403 18:10:22.573796  6647 net.cpp:141] Setting up inception_5a/3x3
I0403 18:10:22.573823  6647 net.cpp:148] Top shape: 24 320 7 7 (376320)
I0403 18:10:22.573838  6647 net.cpp:156] Memory required for data: 1297544736
I0403 18:10:22.573858  6647 layer_factory.hpp:77] Creating layer inception_5a/relu_3x3
I0403 18:10:22.573876  6647 net.cpp:91] Creating Layer inception_5a/relu_3x3
I0403 18:10:22.573894  6647 net.cpp:425] inception_5a/relu_3x3 <- inception_5a/3x3
I0403 18:10:22.573910  6647 net.cpp:386] inception_5a/relu_3x3 -> inception_5a/3x3 (in-place)
I0403 18:10:22.574199  6647 net.cpp:141] Setting up inception_5a/relu_3x3
I0403 18:10:22.574225  6647 net.cpp:148] Top shape: 24 320 7 7 (376320)
I0403 18:10:22.574244  6647 net.cpp:156] Memory required for data: 1299050016
I0403 18:10:22.574259  6647 layer_factory.hpp:77] Creating layer inception_5a/5x5_reduce
I0403 18:10:22.574281  6647 net.cpp:91] Creating Layer inception_5a/5x5_reduce
I0403 18:10:22.574300  6647 net.cpp:425] inception_5a/5x5_reduce <- pool4/3x3_s2_pool4/3x3_s2_0_split_2
I0403 18:10:22.574321  6647 net.cpp:399] inception_5a/5x5_reduce -> inception_5a/5x5_reduce
I0403 18:10:22.575476  6647 net.cpp:141] Setting up inception_5a/5x5_reduce
I0403 18:10:22.575506  6647 net.cpp:148] Top shape: 24 32 7 7 (37632)
I0403 18:10:22.575521  6647 net.cpp:156] Memory required for data: 1299200544
I0403 18:10:22.575539  6647 layer_factory.hpp:77] Creating layer inception_5a/relu_5x5_reduce
I0403 18:10:22.575557  6647 net.cpp:91] Creating Layer inception_5a/relu_5x5_reduce
I0403 18:10:22.575573  6647 net.cpp:425] inception_5a/relu_5x5_reduce <- inception_5a/5x5_reduce
I0403 18:10:22.575589  6647 net.cpp:386] inception_5a/relu_5x5_reduce -> inception_5a/5x5_reduce (in-place)
I0403 18:10:22.575884  6647 net.cpp:141] Setting up inception_5a/relu_5x5_reduce
I0403 18:10:22.575909  6647 net.cpp:148] Top shape: 24 32 7 7 (37632)
I0403 18:10:22.575924  6647 net.cpp:156] Memory required for data: 1299351072
I0403 18:10:22.575938  6647 layer_factory.hpp:77] Creating layer inception_5a/5x5
I0403 18:10:22.575960  6647 net.cpp:91] Creating Layer inception_5a/5x5
I0403 18:10:22.575979  6647 net.cpp:425] inception_5a/5x5 <- inception_5a/5x5_reduce
I0403 18:10:22.576000  6647 net.cpp:399] inception_5a/5x5 -> inception_5a/5x5
I0403 18:10:22.577694  6647 net.cpp:141] Setting up inception_5a/5x5
I0403 18:10:22.577733  6647 net.cpp:148] Top shape: 24 128 7 7 (150528)
I0403 18:10:22.577749  6647 net.cpp:156] Memory required for data: 1299953184
I0403 18:10:22.577766  6647 layer_factory.hpp:77] Creating layer inception_5a/relu_5x5
I0403 18:10:22.577783  6647 net.cpp:91] Creating Layer inception_5a/relu_5x5
I0403 18:10:22.577800  6647 net.cpp:425] inception_5a/relu_5x5 <- inception_5a/5x5
I0403 18:10:22.577818  6647 net.cpp:386] inception_5a/relu_5x5 -> inception_5a/5x5 (in-place)
I0403 18:10:22.578021  6647 net.cpp:141] Setting up inception_5a/relu_5x5
I0403 18:10:22.578047  6647 net.cpp:148] Top shape: 24 128 7 7 (150528)
I0403 18:10:22.578061  6647 net.cpp:156] Memory required for data: 1300555296
I0403 18:10:22.578076  6647 layer_factory.hpp:77] Creating layer inception_5a/pool
I0403 18:10:22.578096  6647 net.cpp:91] Creating Layer inception_5a/pool
I0403 18:10:22.578114  6647 net.cpp:425] inception_5a/pool <- pool4/3x3_s2_pool4/3x3_s2_0_split_3
I0403 18:10:22.578132  6647 net.cpp:399] inception_5a/pool -> inception_5a/pool
I0403 18:10:22.578205  6647 net.cpp:141] Setting up inception_5a/pool
I0403 18:10:22.578229  6647 net.cpp:148] Top shape: 24 832 7 7 (978432)
I0403 18:10:22.578260  6647 net.cpp:156] Memory required for data: 1304469024
I0403 18:10:22.578276  6647 layer_factory.hpp:77] Creating layer inception_5a/pool_proj
I0403 18:10:22.578297  6647 net.cpp:91] Creating Layer inception_5a/pool_proj
I0403 18:10:22.578316  6647 net.cpp:425] inception_5a/pool_proj <- inception_5a/pool
I0403 18:10:22.578336  6647 net.cpp:399] inception_5a/pool_proj -> inception_5a/pool_proj
I0403 18:10:22.580616  6647 net.cpp:141] Setting up inception_5a/pool_proj
I0403 18:10:22.580644  6647 net.cpp:148] Top shape: 24 128 7 7 (150528)
I0403 18:10:22.580659  6647 net.cpp:156] Memory required for data: 1305071136
I0403 18:10:22.580677  6647 layer_factory.hpp:77] Creating layer inception_5a/relu_pool_proj
I0403 18:10:22.580694  6647 net.cpp:91] Creating Layer inception_5a/relu_pool_proj
I0403 18:10:22.580710  6647 net.cpp:425] inception_5a/relu_pool_proj <- inception_5a/pool_proj
I0403 18:10:22.580731  6647 net.cpp:386] inception_5a/relu_pool_proj -> inception_5a/pool_proj (in-place)
I0403 18:10:22.581025  6647 net.cpp:141] Setting up inception_5a/relu_pool_proj
I0403 18:10:22.581050  6647 net.cpp:148] Top shape: 24 128 7 7 (150528)
I0403 18:10:22.581065  6647 net.cpp:156] Memory required for data: 1305673248
I0403 18:10:22.581079  6647 layer_factory.hpp:77] Creating layer inception_5a/output
I0403 18:10:22.581096  6647 net.cpp:91] Creating Layer inception_5a/output
I0403 18:10:22.581111  6647 net.cpp:425] inception_5a/output <- inception_5a/1x1
I0403 18:10:22.581128  6647 net.cpp:425] inception_5a/output <- inception_5a/3x3
I0403 18:10:22.581145  6647 net.cpp:425] inception_5a/output <- inception_5a/5x5
I0403 18:10:22.581161  6647 net.cpp:425] inception_5a/output <- inception_5a/pool_proj
I0403 18:10:22.581179  6647 net.cpp:399] inception_5a/output -> inception_5a/output
I0403 18:10:22.581228  6647 net.cpp:141] Setting up inception_5a/output
I0403 18:10:22.581257  6647 net.cpp:148] Top shape: 24 832 7 7 (978432)
I0403 18:10:22.581272  6647 net.cpp:156] Memory required for data: 1309586976
I0403 18:10:22.581287  6647 layer_factory.hpp:77] Creating layer inception_5a/output_inception_5a/output_0_split
I0403 18:10:22.581305  6647 net.cpp:91] Creating Layer inception_5a/output_inception_5a/output_0_split
I0403 18:10:22.581321  6647 net.cpp:425] inception_5a/output_inception_5a/output_0_split <- inception_5a/output
I0403 18:10:22.581337  6647 net.cpp:399] inception_5a/output_inception_5a/output_0_split -> inception_5a/output_inception_5a/output_0_split_0
I0403 18:10:22.581362  6647 net.cpp:399] inception_5a/output_inception_5a/output_0_split -> inception_5a/output_inception_5a/output_0_split_1
I0403 18:10:22.581382  6647 net.cpp:399] inception_5a/output_inception_5a/output_0_split -> inception_5a/output_inception_5a/output_0_split_2
I0403 18:10:22.581414  6647 net.cpp:399] inception_5a/output_inception_5a/output_0_split -> inception_5a/output_inception_5a/output_0_split_3
I0403 18:10:22.581526  6647 net.cpp:141] Setting up inception_5a/output_inception_5a/output_0_split
I0403 18:10:22.581550  6647 net.cpp:148] Top shape: 24 832 7 7 (978432)
I0403 18:10:22.581567  6647 net.cpp:148] Top shape: 24 832 7 7 (978432)
I0403 18:10:22.581581  6647 net.cpp:148] Top shape: 24 832 7 7 (978432)
I0403 18:10:22.581598  6647 net.cpp:148] Top shape: 24 832 7 7 (978432)
I0403 18:10:22.581611  6647 net.cpp:156] Memory required for data: 1325241888
I0403 18:10:22.581626  6647 layer_factory.hpp:77] Creating layer inception_5b/1x1
I0403 18:10:22.581648  6647 net.cpp:91] Creating Layer inception_5b/1x1
I0403 18:10:22.581665  6647 net.cpp:425] inception_5b/1x1 <- inception_5a/output_inception_5a/output_0_split_0
I0403 18:10:22.581687  6647 net.cpp:399] inception_5b/1x1 -> inception_5b/1x1
I0403 18:10:22.585515  6647 net.cpp:141] Setting up inception_5b/1x1
I0403 18:10:22.585546  6647 net.cpp:148] Top shape: 24 384 7 7 (451584)
I0403 18:10:22.585561  6647 net.cpp:156] Memory required for data: 1327048224
I0403 18:10:22.585580  6647 layer_factory.hpp:77] Creating layer inception_5b/relu_1x1
I0403 18:10:22.585598  6647 net.cpp:91] Creating Layer inception_5b/relu_1x1
I0403 18:10:22.585614  6647 net.cpp:425] inception_5b/relu_1x1 <- inception_5b/1x1
I0403 18:10:22.585633  6647 net.cpp:386] inception_5b/relu_1x1 -> inception_5b/1x1 (in-place)
I0403 18:10:22.585943  6647 net.cpp:141] Setting up inception_5b/relu_1x1
I0403 18:10:22.585971  6647 net.cpp:148] Top shape: 24 384 7 7 (451584)
I0403 18:10:22.585988  6647 net.cpp:156] Memory required for data: 1328854560
I0403 18:10:22.586002  6647 layer_factory.hpp:77] Creating layer inception_5b/3x3_reduce
I0403 18:10:22.586024  6647 net.cpp:91] Creating Layer inception_5b/3x3_reduce
I0403 18:10:22.586042  6647 net.cpp:425] inception_5b/3x3_reduce <- inception_5a/output_inception_5a/output_0_split_1
I0403 18:10:22.586066  6647 net.cpp:399] inception_5b/3x3_reduce -> inception_5b/3x3_reduce
I0403 18:10:22.588767  6647 net.cpp:141] Setting up inception_5b/3x3_reduce
I0403 18:10:22.588798  6647 net.cpp:148] Top shape: 24 192 7 7 (225792)
I0403 18:10:22.588814  6647 net.cpp:156] Memory required for data: 1329757728
I0403 18:10:22.588832  6647 layer_factory.hpp:77] Creating layer inception_5b/relu_3x3_reduce
I0403 18:10:22.588851  6647 net.cpp:91] Creating Layer inception_5b/relu_3x3_reduce
I0403 18:10:22.588867  6647 net.cpp:425] inception_5b/relu_3x3_reduce <- inception_5b/3x3_reduce
I0403 18:10:22.588887  6647 net.cpp:386] inception_5b/relu_3x3_reduce -> inception_5b/3x3_reduce (in-place)
I0403 18:10:22.589082  6647 net.cpp:141] Setting up inception_5b/relu_3x3_reduce
I0403 18:10:22.589107  6647 net.cpp:148] Top shape: 24 192 7 7 (225792)
I0403 18:10:22.589121  6647 net.cpp:156] Memory required for data: 1330660896
I0403 18:10:22.589136  6647 layer_factory.hpp:77] Creating layer inception_5b/3x3
I0403 18:10:22.589159  6647 net.cpp:91] Creating Layer inception_5b/3x3
I0403 18:10:22.589177  6647 net.cpp:425] inception_5b/3x3 <- inception_5b/3x3_reduce
I0403 18:10:22.589200  6647 net.cpp:399] inception_5b/3x3 -> inception_5b/3x3
I0403 18:10:22.596015  6647 net.cpp:141] Setting up inception_5b/3x3
I0403 18:10:22.596050  6647 net.cpp:148] Top shape: 24 384 7 7 (451584)
I0403 18:10:22.596065  6647 net.cpp:156] Memory required for data: 1332467232
I0403 18:10:22.596084  6647 layer_factory.hpp:77] Creating layer inception_5b/relu_3x3
I0403 18:10:22.596102  6647 net.cpp:91] Creating Layer inception_5b/relu_3x3
I0403 18:10:22.596119  6647 net.cpp:425] inception_5b/relu_3x3 <- inception_5b/3x3
I0403 18:10:22.596140  6647 net.cpp:386] inception_5b/relu_3x3 -> inception_5b/3x3 (in-place)
I0403 18:10:22.596451  6647 net.cpp:141] Setting up inception_5b/relu_3x3
I0403 18:10:22.596477  6647 net.cpp:148] Top shape: 24 384 7 7 (451584)
I0403 18:10:22.596493  6647 net.cpp:156] Memory required for data: 1334273568
I0403 18:10:22.596508  6647 layer_factory.hpp:77] Creating layer inception_5b/5x5_reduce
I0403 18:10:22.596549  6647 net.cpp:91] Creating Layer inception_5b/5x5_reduce
I0403 18:10:22.596568  6647 net.cpp:425] inception_5b/5x5_reduce <- inception_5a/output_inception_5a/output_0_split_2
I0403 18:10:22.596591  6647 net.cpp:399] inception_5b/5x5_reduce -> inception_5b/5x5_reduce
I0403 18:10:22.597894  6647 net.cpp:141] Setting up inception_5b/5x5_reduce
I0403 18:10:22.597923  6647 net.cpp:148] Top shape: 24 48 7 7 (56448)
I0403 18:10:22.597939  6647 net.cpp:156] Memory required for data: 1334499360
I0403 18:10:22.597956  6647 layer_factory.hpp:77] Creating layer inception_5b/relu_5x5_reduce
I0403 18:10:22.597975  6647 net.cpp:91] Creating Layer inception_5b/relu_5x5_reduce
I0403 18:10:22.597991  6647 net.cpp:425] inception_5b/relu_5x5_reduce <- inception_5b/5x5_reduce
I0403 18:10:22.598011  6647 net.cpp:386] inception_5b/relu_5x5_reduce -> inception_5b/5x5_reduce (in-place)
I0403 18:10:22.598400  6647 net.cpp:141] Setting up inception_5b/relu_5x5_reduce
I0403 18:10:22.598428  6647 net.cpp:148] Top shape: 24 48 7 7 (56448)
I0403 18:10:22.598443  6647 net.cpp:156] Memory required for data: 1334725152
I0403 18:10:22.598458  6647 layer_factory.hpp:77] Creating layer inception_5b/5x5
I0403 18:10:22.598477  6647 net.cpp:91] Creating Layer inception_5b/5x5
I0403 18:10:22.598495  6647 net.cpp:425] inception_5b/5x5 <- inception_5b/5x5_reduce
I0403 18:10:22.598513  6647 net.cpp:399] inception_5b/5x5 -> inception_5b/5x5
I0403 18:10:22.600611  6647 net.cpp:141] Setting up inception_5b/5x5
I0403 18:10:22.600639  6647 net.cpp:148] Top shape: 24 128 7 7 (150528)
I0403 18:10:22.600654  6647 net.cpp:156] Memory required for data: 1335327264
I0403 18:10:22.600672  6647 layer_factory.hpp:77] Creating layer inception_5b/relu_5x5
I0403 18:10:22.600692  6647 net.cpp:91] Creating Layer inception_5b/relu_5x5
I0403 18:10:22.600709  6647 net.cpp:425] inception_5b/relu_5x5 <- inception_5b/5x5
I0403 18:10:22.600728  6647 net.cpp:386] inception_5b/relu_5x5 -> inception_5b/5x5 (in-place)
I0403 18:10:22.600925  6647 net.cpp:141] Setting up inception_5b/relu_5x5
I0403 18:10:22.600950  6647 net.cpp:148] Top shape: 24 128 7 7 (150528)
I0403 18:10:22.600966  6647 net.cpp:156] Memory required for data: 1335929376
I0403 18:10:22.600980  6647 layer_factory.hpp:77] Creating layer inception_5b/pool
I0403 18:10:22.601001  6647 net.cpp:91] Creating Layer inception_5b/pool
I0403 18:10:22.601018  6647 net.cpp:425] inception_5b/pool <- inception_5a/output_inception_5a/output_0_split_3
I0403 18:10:22.601037  6647 net.cpp:399] inception_5b/pool -> inception_5b/pool
I0403 18:10:22.601114  6647 net.cpp:141] Setting up inception_5b/pool
I0403 18:10:22.601136  6647 net.cpp:148] Top shape: 24 832 7 7 (978432)
I0403 18:10:22.601151  6647 net.cpp:156] Memory required for data: 1339843104
I0403 18:10:22.601166  6647 layer_factory.hpp:77] Creating layer inception_5b/pool_proj
I0403 18:10:22.601188  6647 net.cpp:91] Creating Layer inception_5b/pool_proj
I0403 18:10:22.601207  6647 net.cpp:425] inception_5b/pool_proj <- inception_5b/pool
I0403 18:10:22.601228  6647 net.cpp:399] inception_5b/pool_proj -> inception_5b/pool_proj
I0403 18:10:22.603593  6647 net.cpp:141] Setting up inception_5b/pool_proj
I0403 18:10:22.603621  6647 net.cpp:148] Top shape: 24 128 7 7 (150528)
I0403 18:10:22.603636  6647 net.cpp:156] Memory required for data: 1340445216
I0403 18:10:22.603654  6647 layer_factory.hpp:77] Creating layer inception_5b/relu_pool_proj
I0403 18:10:22.603673  6647 net.cpp:91] Creating Layer inception_5b/relu_pool_proj
I0403 18:10:22.603690  6647 net.cpp:425] inception_5b/relu_pool_proj <- inception_5b/pool_proj
I0403 18:10:22.603710  6647 net.cpp:386] inception_5b/relu_pool_proj -> inception_5b/pool_proj (in-place)
I0403 18:10:22.604019  6647 net.cpp:141] Setting up inception_5b/relu_pool_proj
I0403 18:10:22.604045  6647 net.cpp:148] Top shape: 24 128 7 7 (150528)
I0403 18:10:22.604061  6647 net.cpp:156] Memory required for data: 1341047328
I0403 18:10:22.604077  6647 layer_factory.hpp:77] Creating layer inception_5b/output
I0403 18:10:22.604095  6647 net.cpp:91] Creating Layer inception_5b/output
I0403 18:10:22.604126  6647 net.cpp:425] inception_5b/output <- inception_5b/1x1
I0403 18:10:22.604145  6647 net.cpp:425] inception_5b/output <- inception_5b/3x3
I0403 18:10:22.604161  6647 net.cpp:425] inception_5b/output <- inception_5b/5x5
I0403 18:10:22.604176  6647 net.cpp:425] inception_5b/output <- inception_5b/pool_proj
I0403 18:10:22.604195  6647 net.cpp:399] inception_5b/output -> inception_5b/output
I0403 18:10:22.604269  6647 net.cpp:141] Setting up inception_5b/output
I0403 18:10:22.604296  6647 net.cpp:148] Top shape: 24 1024 7 7 (1204224)
I0403 18:10:22.604312  6647 net.cpp:156] Memory required for data: 1345864224
I0403 18:10:22.604327  6647 layer_factory.hpp:77] Creating layer pool5/7x7_s1
I0403 18:10:22.604346  6647 net.cpp:91] Creating Layer pool5/7x7_s1
I0403 18:10:22.604362  6647 net.cpp:425] pool5/7x7_s1 <- inception_5b/output
I0403 18:10:22.604383  6647 net.cpp:399] pool5/7x7_s1 -> pool5/7x7_s1
I0403 18:10:22.604611  6647 net.cpp:141] Setting up pool5/7x7_s1
I0403 18:10:22.604638  6647 net.cpp:148] Top shape: 24 1024 1 1 (24576)
I0403 18:10:22.604653  6647 net.cpp:156] Memory required for data: 1345962528
I0403 18:10:22.604668  6647 layer_factory.hpp:77] Creating layer pool5/drop_7x7_s1
I0403 18:10:22.604686  6647 net.cpp:91] Creating Layer pool5/drop_7x7_s1
I0403 18:10:22.604703  6647 net.cpp:425] pool5/drop_7x7_s1 <- pool5/7x7_s1
I0403 18:10:22.604723  6647 net.cpp:386] pool5/drop_7x7_s1 -> pool5/7x7_s1 (in-place)
I0403 18:10:22.604776  6647 net.cpp:141] Setting up pool5/drop_7x7_s1
I0403 18:10:22.604802  6647 net.cpp:148] Top shape: 24 1024 1 1 (24576)
I0403 18:10:22.604817  6647 net.cpp:156] Memory required for data: 1346060832
I0403 18:10:22.604831  6647 layer_factory.hpp:77] Creating layer loss3/classifier_plantvillage
I0403 18:10:22.604851  6647 net.cpp:91] Creating Layer loss3/classifier_plantvillage
I0403 18:10:22.604867  6647 net.cpp:425] loss3/classifier_plantvillage <- pool5/7x7_s1
I0403 18:10:22.604889  6647 net.cpp:399] loss3/classifier_plantvillage -> loss3/classifier_plantvillage
I0403 18:10:22.605343  6647 net.cpp:141] Setting up loss3/classifier_plantvillage
I0403 18:10:22.605368  6647 net.cpp:148] Top shape: 24 38 (912)
I0403 18:10:22.605383  6647 net.cpp:156] Memory required for data: 1346064480
I0403 18:10:22.605401  6647 layer_factory.hpp:77] Creating layer loss3/classifier_plantvillage_loss3/classifier_plantvillage_0_split
I0403 18:10:22.605425  6647 net.cpp:91] Creating Layer loss3/classifier_plantvillage_loss3/classifier_plantvillage_0_split
I0403 18:10:22.605443  6647 net.cpp:425] loss3/classifier_plantvillage_loss3/classifier_plantvillage_0_split <- loss3/classifier_plantvillage
I0403 18:10:22.605460  6647 net.cpp:399] loss3/classifier_plantvillage_loss3/classifier_plantvillage_0_split -> loss3/classifier_plantvillage_loss3/classifier_plantvillage_0_split_0
I0403 18:10:22.605484  6647 net.cpp:399] loss3/classifier_plantvillage_loss3/classifier_plantvillage_0_split -> loss3/classifier_plantvillage_loss3/classifier_plantvillage_0_split_1
I0403 18:10:22.605505  6647 net.cpp:399] loss3/classifier_plantvillage_loss3/classifier_plantvillage_0_split -> loss3/classifier_plantvillage_loss3/classifier_plantvillage_0_split_2
I0403 18:10:22.605525  6647 net.cpp:399] loss3/classifier_plantvillage_loss3/classifier_plantvillage_0_split -> loss3/classifier_plantvillage_loss3/classifier_plantvillage_0_split_3
I0403 18:10:22.605634  6647 net.cpp:141] Setting up loss3/classifier_plantvillage_loss3/classifier_plantvillage_0_split
I0403 18:10:22.605659  6647 net.cpp:148] Top shape: 24 38 (912)
I0403 18:10:22.605675  6647 net.cpp:148] Top shape: 24 38 (912)
I0403 18:10:22.605692  6647 net.cpp:148] Top shape: 24 38 (912)
I0403 18:10:22.605707  6647 net.cpp:148] Top shape: 24 38 (912)
I0403 18:10:22.605720  6647 net.cpp:156] Memory required for data: 1346079072
I0403 18:10:22.605736  6647 layer_factory.hpp:77] Creating layer loss1/loss
I0403 18:10:22.605757  6647 net.cpp:91] Creating Layer loss1/loss
I0403 18:10:22.605775  6647 net.cpp:425] loss1/loss <- loss1/classifier_plantvillage_loss1/classifier_plantvillage_0_split_0
I0403 18:10:22.605808  6647 net.cpp:425] loss1/loss <- label_data_1_split_0
…
