…
I0403 18:24:42.096493  6928 net.cpp:313] The NetState phase (1) differed from the phase (0) specified by a rule in layer data
I0403 18:24:42.097632  6928 net.cpp:49] Initializing net from parameters: 
state {
  phase: TEST
}
layer {
  name: "data"
  type: "Data"
  top: "data"
  top: "label"
  include {
    phase: TEST
  }
  transform_param {
    mirror: false
    crop_size: 224
    mean_file: "/home/mohanty/data/final_dataset/lmdb/grayscale-40-60/mean.binaryproto"
  }
  data_param {
    source: "/home/mohanty/data/final_dataset/lmdb/grayscale-40-60/test_db"
    batch_size: 24
    backend: LMDB
  }
}
layer {
  name: "conv1/7x7_s2"
  type: "Convolution"
  bottom: "data"
  top: "conv1/7x7_s2"
  param {
    lr_mult: 1
    decay_mult: 1
  }
  param {
    lr_mult: 2
    decay_mult: 0
  }
  convolution_param {
    num_output: 64
    pad: 3
    kernel_size: 7
    stride: 2
    weight_filler {
      type: "xavier"
      std: 0.1
    }
    bias_filler {
      type: "constant"
      value: 0.2
    }
  }
}
layer {
  name: "conv1/relu_7x7"
  type: "ReLU"
  bottom: "conv1/7x7_s2"
  top: "conv1/7x7_s2"
}
layer {
  name: "pool1/3x3_s2"
  type: "Pooling"
  bottom: "conv1/7x7_s2"
  top: "pool1/3x3_s2"
  pooling_param {
    pool: MAX
    kernel_size: 3
    stride: 2
  }
}
layer {
  name: "pool1/norm1"
  type: "LRN"
  bottom: "pool1/3x3_s2"
  top: "pool1/norm1"
  lrn_param {
    local_size: 5
    alpha: 0.0001
    beta: 0.75
  }
}
layer {
  name: "conv2/3x3_reduce"
  type: "Convolution"
  bottom: "pool1/norm1"
  top: "conv2/3x3_reduce"
  param {
    lr_mult: 1
    decay_mult: 1
  }
  param {
    lr_mult: 2
    decay_mult: 0
  }
  convolution_param {
    num_output: 64
    kernel_size: 1
    weight_filler {
      type: "xavier"
      std: 0.1
    }
    bias_filler {
      type: "constant"
      value: 0.2
    }
  }
}
layer {
  name: "conv2/relu_3x3_reduce"
  type: "ReLU"
  bottom: "conv2/3x3_reduce"
  top: "conv2/3x3_reduce"
}
layer {
  name: "conv2/3x3"
  type: "Convolution"
  bottom: "conv2/3x3_reduce"
  top: "conv2/3x3"
  param {
    lr_mult: 1
    decay_mult: 1
  }
  param {
    lr_mult: 2
    decay_mult: 0
  }
  convolution_param {
    num_output: 192
    pad: 1
    kernel_size: 3
    weight_filler {
      type: "xavier"
      std: 0.03
    }
    bias_filler {
      type: "constant"
      value: 0.2
    }
  }
}
layer {
  name: "conv2/relu_3x3"
  type: "ReLU"
  bottom: "conv2/3x3"
  top: "conv2/3x3"
}
layer {
  name: "conv2/norm2"
  type: "LRN"
  bottom: "conv2/3x3"
  top: "conv2/norm2"
  lrn_param {
    local_size: 5
    alpha: 0.0001
    beta: 0.75
  }
}
layer {
  name: "pool2/3x3_s2"
  type: "Pooling"
  bottom: "conv2/norm2"
  top: "pool2/3x3_s2"
  pooling_param {
    pool: MAX
    kernel_size: 3
    stride: 2
  }
}
layer {
  name: "inception_3a/1x1"
  type: "Convolution"
  bottom: "pool2/3x3_s2"
  top: "inception_3a/1x1"
  param {
    lr_mult: 1
    decay_mult: 1
  }
  param {
    lr_mult: 2
    decay_mult: 0
  }
  convolution_param {
    num_output: 64
    kernel_size: 1
    weight_filler {
      type: "xavier"
      std: 0.03
    }
    bias_filler {
      type: "constant"
      value: 0.2
    }
  }
}
layer {
  name: "inception_3a/relu_1x1"
  type: "ReLU"
  bottom: "inception_3a/1x1"
  top: "inception_3a/1x1"
}
layer {
  name: "inception_3a/3x3_reduce"
  type: "Convolution"
  bottom: "pool2/3x3_s2"
  top: "inception_3a/3x3_reduce"
  param {
    lr_mult: 1
    decay_mult: 1
  }
  param {
    lr_mult: 2
    decay_mult: 0
  }
  convolution_param {
    num_output: 96
    kernel_size: 1
    weight_filler {
      type: "xavier"
      std: 0.09
    }
    bias_filler {
      type: "constant"
      value: 0.2
    }
  }
}
layer {
  name: "inception_3a/relu_3x3_reduce"
  type: "ReLU"
  bottom: "inception_3a/3x3_reduce"
  top: "inception_3a/3x3_reduce"
}
layer {
  name: "inception_3a/3x3"
  type: "Convolution"
  bottom: "inception_3a/3x3_reduce"
  top: "inception_3a/3x3"
  param {
    lr_mult: 1
    decay_mult: 1
  }
  param {
    lr_mult: 2
    decay_mult: 0
  }
  convolution_param {
    num_output: 128
    pad: 1
    kernel_size: 3
    weight_filler {
      type: "xavier"
      std: 0.03
    }
    bias_filler {
      type: "constant"
      value: 0.2
    }
  }
}
layer {
  name: "inception_3a/relu_3x3"
  type: "ReLU"
  bottom: "inception_3a/3x3"
  top: "inception_3a/3x3"
}
layer {
  name: "inception_3a/5x5_reduce"
  type: "Convolution"
  bottom: "pool2/3x3_s2"
  top: "inception_3a/5x5_reduce"
  param {
    lr_mult: 1
    decay_mult: 1
  }
  param {
    lr_mult: 2
    decay_mult: 0
  }
  convolution_param {
    num_output: 16
    kernel_size: 1
    weight_filler {
      type: "xavier"
      std: 0.2
    }
    bias_filler {
      type: "constant"
      value: 0.2
    }
  }
}
layer {
  name: "inception_3a/relu_5x5_reduce"
  type: "ReLU"
  bottom: "inception_3a/5x5_reduce"
  top: "inception_3a/5x5_reduce"
}
layer {
  name: "inception_3a/5x5"
  type: "Convolution"
  bottom: "inception_3a/5x5_reduce"
  top: "inception_3a/5x5"
  param {
    lr_mult: 1
    decay_mult: 1
  }
  param {
    lr_mult: 2
    decay_mult: 0
  }
  convolution_param {
    num_output: 32
    pad: 2
    kernel_size: 5
    weight_filler {
      type: "xavier"
      std: 0.03
    }
    bias_filler {
      type: "constant"
      value: 0.2
    }
  }
}
layer {
  name: "inception_3a/relu_5x5"
  type: "ReLU"
  bottom: "inception_3a/5x5"
  top: "inception_3a/5x5"
}
layer {
  name: "inception_3a/pool"
  type: "Pooling"
  bottom: "pool2/3x3_s2"
  top: "inception_3a/pool"
  pooling_param {
    pool: MAX
    kernel_size: 3
    stride: 1
    pad: 1
  }
}
layer {
  name: "inception_3a/pool_proj"
  type: "Convolution"
  bottom: "inception_3a/pool"
  top: "inception_3a/pool_proj"
  param {
    lr_mult: 1
    decay_mult: 1
  }
  param {
    lr_mult: 2
    decay_mult: 0
  }
  convolution_param {
    num_output: 32
    kernel_size: 1
    weight_filler {
      type: "xavier"
      std: 0.1
    }
    bias_filler {
      type: "constant"
      value: 0.2
    }
  }
}
layer {
  name: "inception_3a/relu_pool_proj"
  type: "ReLU"
  bottom: "inception_3a/pool_proj"
  top: "inception_3a/pool_proj"
}
layer {
  name: "inception_3a/output"
  type: "Concat"
  bottom: "inception_3a/1x1"
  bottom: "inception_3a/3x3"
  bottom: "inception_3a/5x5"
  bottom: "inception_3a/pool_proj"
  top: "inception_3a/output"
}
layer {
  name: "inception_3b/1x1"
  type: "Convolution"
  bottom: "inception_3a/output"
  top: "inception_3b/1x1"
  param {
    lr_mult: 1
    decay_mult: 1
  }
  param {
    lr_mult: 2
    decay_mult: 0
  }
  convolution_param {
    num_output: 128
    kernel_size: 1
    weight_filler {
      type: "xavier"
      std: 0.03
    }
    bias_filler {
      type: "constant"
      value: 0.2
    }
  }
}
layer {
  name: "inception_3b/relu_1x1"
  type: "ReLU"
  bottom: "inception_3b/1x1"
  top: "inception_3b/1x1"
}
layer {
  name: "inception_3b/3x3_reduce"
  type: "Convolution"
  bottom: "inception_3a/output"
  top: "inception_3b/3x3_reduce"
  param {
    lr_mult: 1
    decay_mult: 1
  }
  param {
    lr_mult: 2
    decay_mult: 0
  }
  convolution_param {
    num_output: 128
    kernel_size: 1
    weight_filler {
      type: "xavier"
      std: 0.09
    }
    bias_filler {
      type: "constant"
      value: 0.2
    }
  }
}
layer {
  name: "inception_3b/relu_3x3_reduce"
  type: "ReLU"
  bottom: "inception_3b/3x3_reduce"
  top: "inception_3b/3x3_reduce"
}
layer {
  name: "inception_3b/3x3"
  type: "Convolution"
  bottom: "inception_3b/3x3_reduce"
  top: "inception_3b/3x3"
  param {
    lr_mult: 1
    decay_mult: 1
  }
  param {
    lr_mult: 2
    decay_mult: 0
  }
  convolution_param {
    num_output: 192
    pad: 1
    kernel_size: 3
    weight_filler {
      type: "xavier"
      std: 0.03
    }
    bias_filler {
      type: "constant"
      value: 0.2
    }
  }
}
layer {
  name: "inception_3b/relu_3x3"
  type: "ReLU"
  bottom: "inception_3b/3x3"
  top: "inception_3b/3x3"
}
layer {
  name: "inception_3b/5x5_reduce"
  type: "Convolution"
  bottom: "inception_3a/output"
  top: "inception_3b/5x5_reduce"
  param {
    lr_mult: 1
    decay_mult: 1
  }
  param {
    lr_mult: 2
    decay_mult: 0
  }
  convolution_param {
    num_output: 32
    kernel_size: 1
    weight_filler {
      type: "xavier"
      std: 0.2
    }
    bias_filler {
      type: "constant"
      value: 0.2
    }
  }
}
layer {
  name: "inception_3b/relu_5x5_reduce"
  type: "ReLU"
  bottom: "inception_3b/5x5_reduce"
  top: "inception_3b/5x5_reduce"
}
layer {
  name: "inception_3b/5x5"
  type: "Convolution"
  bottom: "inception_3b/5x5_reduce"
  top: "inception_3b/5x5"
  param {
    lr_mult: 1
    decay_mult: 1
  }
  param {
    lr_mult: 2
    decay_mult: 0
  }
  convolution_param {
    num_output: 96
    pad: 2
    kernel_size: 5
    weight_filler {
      type: "xavier"
      std: 0.03
    }
    bias_filler {
      type: "constant"
      value: 0.2
    }
  }
}
layer {
  name: "inception_3b/relu_5x5"
  type: "ReLU"
  bottom: "inception_3b/5x5"
  top: "inception_3b/5x5"
}
layer {
  name: "inception_3b/pool"
  type: "Pooling"
  bottom: "inception_3a/output"
  top: "inception_3b/pool"
  pooling_param {
    pool: MAX
    kernel_size: 3
    stride: 1
    pad: 1
  }
}
layer {
  name: "inception_3b/pool_proj"
  type: "Convolution"
  bottom: "inception_3b/pool"
  top: "inception_3b/pool_proj"
  param {
    lr_mult: 1
    decay_mult: 1
  }
  param {
    lr_mult: 2
    decay_mult: 0
  }
  convolution_param {
    num_output: 64
    kernel_size: 1
    weight_filler {
      type: "xavier"
      std: 0.1
    }
    bias_filler {
      type: "constant"
      value: 0.2
    }
  }
}
layer {
  name: "inception_3b/relu_pool_proj"
  type: "ReLU"
  bottom: "inception_3b/pool_proj"
  top: "inception_3b/pool_proj"
}
layer {
  name: "inception_3b/output"
  type: "Concat"
  bottom: "inception_3b/1x1"
  bottom: "inception_3b/3x3"
  bottom: "inception_3b/5x5"
  bottom: "inception_3b/pool_proj"
  top: "inception_3b/output"
}
layer {
  name: "pool3/3x3_s2"
  type: "Pooling"
  bottom: "inception_3b/output"
  top: "pool3/3x3_s2"
  pooling_param {
    pool: MAX
    kernel_size: 3
    stride: 2
  }
}
layer {
  name: "inception_4a/1x1"
  type: "Convolution"
  bottom: "pool3/3x3_s2"
  top: "inception_4a/1x1"
  param {
    lr_mult: 1
    decay_mult: 1
  }
  param {
    lr_mult: 2
    decay_mult: 0
  }
  convolution_param {
    num_output: 192
    kernel_size: 1
    weight_filler {
      type: "xavier"
      std: 0.03
    }
    bias_filler {
      type: "constant"
      value: 0.2
    }
  }
}
layer {
  name: "inception_4a/relu_1x1"
  type: "ReLU"
  bottom: "inception_4a/1x1"
  top: "inception_4a/1x1"
}
layer {
  name: "inception_4a/3x3_reduce"
  type: "Convolution"
  bottom: "pool3/3x3_s2"
  top: "inception_4a/3x3_reduce"
  param {
    lr_mult: 1
    decay_mult: 1
  }
  param {
    lr_mult: 2
    decay_mult: 0
  }
  convolution_param {
    num_output: 96
    kernel_size: 1
    weight_filler {
      type: "xavier"
      std: 0.09
    }
    bias_filler {
      type: "constant"
      value: 0.2
    }
  }
}
layer {
  name: "inception_4a/relu_3x3_reduce"
  type: "ReLU"
  bottom: "inception_4a/3x3_reduce"
  top: "inception_4a/3x3_reduce"
}
layer {
  name: "inception_4a/3x3"
  type: "Convolution"
  bottom: "inception_4a/3x3_reduce"
  top: "inception_4a/3x3"
  param {
    lr_mult: 1
    decay_mult: 1
  }
  param {
    lr_mult: 2
    decay_mult: 0
  }
  convolution_param {
    num_output: 208
    pad: 1
    kernel_size: 3
    weight_filler {
      type: "xavier"
      std: 0.03
    }
    bias_filler {
      type: "constant"
      value: 0.2
    }
  }
}
layer {
  name: "inception_4a/relu_3x3"
  type: "ReLU"
  bottom: "inception_4a/3x3"
  top: "inception_4a/3x3"
}
layer {
  name: "inception_4a/5x5_reduce"
  type: "Convolution"
  bottom: "pool3/3x3_s2"
  top: "inception_4a/5x5_reduce"
  param {
    lr_mult: 1
    decay_mult: 1
  }
  param {
    lr_mult: 2
    decay_mult: 0
  }
  convolution_param {
    num_output: 16
    kernel_size: 1
    weight_filler {
      type: "xavier"
      std: 0.2
    }
    bias_filler {
      type: "constant"
      value: 0.2
    }
  }
}
layer {
  name: "inception_4a/relu_5x5_reduce"
  type: "ReLU"
  bottom: "inception_4a/5x5_reduce"
  top: "inception_4a/5x5_reduce"
}
layer {
  name: "inception_4a/5x5"
  type: "Convolution"
  bottom: "inception_4a/5x5_reduce"
  top: "inception_4a/5x5"
  param {
    lr_mult: 1
    decay_mult: 1
  }
  param {
    lr_mult: 2
    decay_mult: 0
  }
  convolution_param {
    num_output: 48
    pad: 2
    kernel_size: 5
    weight_filler {
      type: "xavier"
      std: 0.03
    }
    bias_filler {
      type: "constant"
      value: 0.2
    }
  }
}
layer {
  name: "inception_4a/relu_5x5"
  type: "ReLU"
  bottom: "inception_4a/5x5"
  top: "inception_4a/5x5"
}
layer {
  name: "inception_4a/pool"
  type: "Pooling"
  bottom: "pool3/3x3_s2"
  top: "inception_4a/pool"
  pooling_param {
    pool: MAX
    kernel_size: 3
    stride: 1
    pad: 1
  }
}
layer {
  name: "inception_4a/pool_proj"
  type: "Convolution"
  bottom: "inception_4a/pool"
  top: "inception_4a/pool_proj"
  param {
    lr_mult: 1
    decay_mult: 1
  }
  param {
    lr_mult: 2
    decay_mult: 0
  }
  convolution_param {
    num_output: 64
    kernel_size: 1
    weight_filler {
      type: "xavier"
      std: 0.1
    }
    bias_filler {
      type: "constant"
      value: 0.2
    }
  }
}
layer {
  name: "inception_4a/relu_pool_proj"
  type: "ReLU"
  bottom: "inception_4a/pool_proj"
  top: "inception_4a/pool_proj"
}
layer {
  name: "inception_4a/output"
  type: "Concat"
  bottom: "inception_4a/1x1"
  bottom: "inception_4a/3x3"
  bottom: "inception_4a/5x5"
  bottom: "inception_4a/pool_proj"
  top: "inception_4a/output"
}
layer {
  name: "loss1/ave_pool"
  type: "Pooling"
  bottom: "inception_4a/output"
  top: "loss1/ave_pool"
  pooling_param {
    pool: AVE
    kernel_size: 5
    stride: 3
  }
}
layer {
  name: "loss1/conv"
  type: "Convolution"
  bottom: "loss1/ave_pool"
  top: "loss1/conv"
  param {
    lr_mult: 1
    decay_mult: 1
  }
  param {
    lr_mult: 2
    decay_mult: 0
  }
  convolution_param {
    num_output: 128
    kernel_size: 1
    weight_filler {
      type: "xavier"
      std: 0.08
    }
    bias_filler {
      type: "constant"
      value: 0.2
    }
  }
}
layer {
  name: "loss1/relu_conv"
  type: "ReLU"
  bottom: "loss1/conv"
  top: "loss1/conv"
}
layer {
  name: "loss1/fc"
  type: "InnerProduct"
  bottom: "loss1/conv"
  top: "loss1/fc"
  param {
    lr_mult: 1
    decay_mult: 1
  }
  param {
    lr_mult: 2
    decay_mult: 0
  }
  inner_product_param {
    num_output: 1024
    weight_filler {
      type: "xavier"
      std: 0.02
    }
    bias_filler {
      type: "constant"
      value: 0.2
    }
  }
}
layer {
  name: "loss1/relu_fc"
  type: "ReLU"
  bottom: "loss1/fc"
  top: "loss1/fc"
}
layer {
  name: "loss1/drop_fc"
  type: "Dropout"
  bottom: "loss1/fc"
  top: "loss1/fc"
  dropout_param {
    dropout_ratio: 0.7
  }
}
layer {
  name: "loss1/classifier_plantvillage"
  type: "InnerProduct"
  bottom: "loss1/fc"
  top: "loss1/classifier_plantvillage"
  param {
    lr_mult: 1
    decay_mult: 1
  }
  param {
    lr_mult: 2
    decay_mult: 0
  }
  inner_product_param {
    num_output: 38
    weight_filler {
      type: "xavier"
      std: 0.0009765625
    }
    bias_filler {
      type: "constant"
      value: 0
    }
  }
}
layer {
  name: "inception_4b/1x1"
  type: "Convolution"
  bottom: "inception_4a/output"
  top: "inception_4b/1x1"
  param {
    lr_mult: 1
    decay_mult: 1
  }
  param {
    lr_mult: 2
    decay_mult: 0
  }
  convolution_param {
    num_output: 160
    kernel_size: 1
    weight_filler {
      type: "xavier"
      std: 0.03
    }
    bias_filler {
      type: "constant"
      value: 0.2
    }
  }
}
layer {
  name: "inception_4b/relu_1x1"
  type: "ReLU"
  bottom: "inception_4b/1x1"
  top: "inception_4b/1x1"
}
layer {
  name: "inception_4b/3x3_reduce"
  type: "Convolution"
  bottom: "inception_4a/output"
  top: "inception_4b/3x3_reduce"
  param {
    lr_mult: 1
    decay_mult: 1
  }
  param {
    lr_mult: 2
    decay_mult: 0
  }
  convolution_param {
    num_output: 112
    kernel_size: 1
    weight_filler {
      type: "xavier"
      std: 0.09
    }
    bias_filler {
      type: "constant"
      value: 0.2
    }
  }
}
layer {
  name: "inception_4b/relu_3x3_reduce"
  type: "ReLU"
  bottom: "inception_4b/3x3_reduce"
  top: "inception_4b/3x3_reduce"
}
layer {
  name: "inception_4b/3x3"
  type: "Convolution"
  bottom: "inception_4b/3x3_reduce"
  top: "inception_4b/3x3"
  param {
    lr_mult: 1
    decay_mult: 1
  }
  param {
    lr_mult: 2
    decay_mult: 0
  }
  convolution_param {
    num_output: 224
    pad: 1
    kernel_size: 3
    weight_filler {
      type: "xavier"
      std: 0.03
    }
    bias_filler {
      type: "constant"
      value: 0.2
    }
  }
}
layer {
  name: "inception_4b/relu_3x3"
  type: "ReLU"
  bottom: "inception_4b/3x3"
  top: "inception_4b/3x3"
}
layer {
  name: "inception_4b/5x5_reduce"
  type: "Convolution"
  bottom: "inception_4a/output"
  top: "inception_4b/5x5_reduce"
  param {
    lr_mult: 1
    decay_mult: 1
  }
  param {
    lr_mult: 2
    decay_mult: 0
  }
  convolution_param {
    num_output: 24
    kernel_size: 1
    weight_filler {
      type: "xavier"
      std: 0.2
    }
    bias_filler {
      type: "constant"
      value: 0.2
    }
  }
}
layer {
  name: "inception_4b/relu_5x5_reduce"
  type: "ReLU"
  bottom: "inception_4b/5x5_reduce"
  top: "inception_4b/5x5_reduce"
}
layer {
  name: "inception_4b/5x5"
  type: "Convolution"
  bottom: "inception_4b/5x5_reduce"
  top: "inception_4b/5x5"
  param {
    lr_mult: 1
    decay_mult: 1
  }
  param {
    lr_mult: 2
    decay_mult: 0
  }
  convolution_param {
    num_output: 64
    pad: 2
    kernel_size: 5
    weight_filler {
      type: "xavier"
      std: 0.03
    }
    bias_filler {
      type: "constant"
      value: 0.2
    }
  }
}
layer {
  name: "inception_4b/relu_5x5"
  type: "ReLU"
  bottom: "inception_4b/5x5"
  top: "inception_4b/5x5"
}
layer {
  name: "inception_4b/pool"
  type: "Pooling"
  bottom: "inception_4a/output"
  top: "inception_4b/pool"
  pooling_param {
    pool: MAX
    kernel_size: 3
    stride: 1
    pad: 1
  }
}
layer {
  name: "inception_4b/pool_proj"
  type: "Convolution"
  bottom: "inception_4b/pool"
  top: "inception_4b/pool_proj"
  param {
    lr_mult: 1
    decay_mult: 1
  }
  param {
    lr_mult: 2
    decay_mult: 0
  }
  convolution_param {
    num_output: 64
    kernel_size: 1
    weight_filler {
      type: "xavier"
      std: 0.1
    }
    bias_filler {
      type: "constant"
      value: 0.2
    }
  }
}
layer {
  name: "inception_4b/relu_pool_proj"
  type: "ReLU"
  bottom: "inception_4b/pool_proj"
  top: "inception_4b/pool_proj"
}
layer {
  name: "inception_4b/output"
  type: "Concat"
  bottom: "inception_4b/1x1"
  bottom: "inception_4b/3x3"
  bottom: "inception_4b/5x5"
  bottom: "inception_4b/pool_proj"
  top: "inception_4b/output"
}
layer {
  name: "inception_4c/1x1"
  type: "Convolution"
  bottom: "inception_4b/output"
  top: "inception_4c/1x1"
  param {
    lr_mult: 1
    decay_mult: 1
  }
  param {
    lr_mult: 2
    decay_mult: 0
  }
  convolution_param {
    num_output: 128
    kernel_size: 1
    weight_filler {
      type: "xavier"
      std: 0.03
    }
    bias_filler {
      type: "constant"
      value: 0.2
    }
  }
}
layer {
  name: "inception_4c/relu_1x1"
  type: "ReLU"
  bottom: "inception_4c/1x1"
  top: "inception_4c/1x1"
}
layer {
  name: "inception_4c/3x3_reduce"
  type: "Convolution"
  bottom: "inception_4b/output"
  top: "inception_4c/3x3_reduce"
  param {
    lr_mult: 1
    decay_mult: 1
  }
  param {
    lr_mult: 2
    decay_mult: 0
  }
  convolution_param {
    num_output: 128
    kernel_size: 1
    weight_filler {
      type: "xavier"
      std: 0.09
    }
    bias_filler {
      type: "constant"
      value: 0.2
    }
  }
}
layer {
  name: "inception_4c/relu_3x3_reduce"
  type: "ReLU"
  bottom: "inception_4c/3x3_reduce"
  top: "inception_4c/3x3_reduce"
}
layer {
  name: "inception_4c/3x3"
  type: "Convolution"
  bottom: "inception_4c/3x3_reduce"
  top: "inception_4c/3x3"
  param {
    lr_mult: 1
    decay_mult: 1
  }
  param {
    lr_mult: 2
    decay_mult: 0
  }
  convolution_param {
    num_output: 256
    pad: 1
    kernel_size: 3
    weight_filler {
      type: "xavier"
      std: 0.03
    }
    bias_filler {
      type: "constant"
      value: 0.2
    }
  }
}
layer {
  name: "inception_4c/relu_3x3"
  type: "ReLU"
  bottom: "inception_4c/3x3"
  top: "inception_4c/3x3"
}
layer {
  name: "inception_4c/5x5_reduce"
  type: "Convolution"
  bottom: "inception_4b/output"
  top: "inception_4c/5x5_reduce"
  param {
    lr_mult: 1
    decay_mult: 1
  }
  param {
    lr_mult: 2
    decay_mult: 0
  }
  convolution_param {
    num_output: 24
    kernel_size: 1
    weight_filler {
      type: "xavier"
      std: 0.2
    }
    bias_filler {
      type: "constant"
      value: 0.2
    }
  }
}
layer {
  name: "inception_4c/relu_5x5_reduce"
  type: "ReLU"
  bottom: "inception_4c/5x5_reduce"
  top: "inception_4c/5x5_reduce"
}
layer {
  name: "inception_4c/5x5"
  type: "Convolution"
  bottom: "inception_4c/5x5_reduce"
  top: "inception_4c/5x5"
  param {
    lr_mult: 1
    decay_mult: 1
  }
  param {
    lr_mult: 2
    decay_mult: 0
  }
  convolution_param {
    num_output: 64
    pad: 2
    kernel_size: 5
    weight_filler {
      type: "xavier"
      std: 0.03
    }
    bias_filler {
      type: "constant"
      value: 0.2
    }
  }
}
layer {
  name: "inception_4c/relu_5x5"
  type: "ReLU"
  bottom: "inception_4c/5x5"
  top: "inception_4c/5x5"
}
layer {
  name: "inception_4c/pool"
  type: "Pooling"
  bottom: "inception_4b/output"
  top: "inception_4c/pool"
  pooling_param {
    pool: MAX
    kernel_size: 3
    stride: 1
    pad: 1
  }
}
layer {
  name: "inception_4c/pool_proj"
  type: "Convolution"
  bottom: "inception_4c/pool"
  top: "inception_4c/pool_proj"
  param {
    lr_mult: 1
    decay_mult: 1
  }
  param {
    lr_mult: 2
    decay_mult: 0
  }
  convolution_param {
    num_output: 64
    kernel_size: 1
    weight_filler {
      type: "xavier"
      std: 0.1
    }
    bias_filler {
      type: "constant"
      value: 0.2
    }
  }
}
layer {
  name: "inception_4c/relu_pool_proj"
  type: "ReLU"
  bottom: "inception_4c/pool_proj"
  top: "inception_4c/pool_proj"
}
layer {
  name: "inception_4c/output"
  type: "Concat"
  bottom: "inception_4c/1x1"
  bottom: "inception_4c/3x3"
  bottom: "inception_4c/5x5"
  bottom: "inception_4c/pool_proj"
  top: "inception_4c/output"
}
layer {
  name: "inception_4d/1x1"
  type: "Convolution"
  bottom: "inception_4c/output"
  top: "inception_4d/1x1"
  param {
    lr_mult: 1
    decay_mult: 1
  }
  param {
    lr_mult: 2
    decay_mult: 0
  }
  convolution_param {
    num_output: 112
    kernel_size: 1
    weight_filler {
      type: "xavier"
      std: 0.03
    }
    bias_filler {
      type: "constant"
      value: 0.2
    }
  }
}
layer {
  name: "inception_4d/relu_1x1"
  type: "ReLU"
  bottom: "inception_4d/1x1"
  top: "inception_4d/1x1"
}
layer {
  name: "inception_4d/3x3_reduce"
  type: "Convolution"
  bottom: "inception_4c/output"
  top: "inception_4d/3x3_reduce"
  param {
    lr_mult: 1
    decay_mult: 1
  }
  param {
    lr_mult: 2
    decay_mult: 0
  }
  convolution_param {
    num_output: 144
    kernel_size: 1
    weight_filler {
      type: "xavier"
      std: 0.09
    }
    bias_filler {
      type: "constant"
      value: 0.2
    }
  }
}
layer {
  name: "inception_4d/relu_3x3_reduce"
  type: "ReLU"
  bottom: "inception_4d/3x3_reduce"
  top: "inception_4d/3x3_reduce"
}
layer {
  name: "inception_4d/3x3"
  type: "Convolution"
  bottom: "inception_4d/3x3_reduce"
  top: "inception_4d/3x3"
  param {
    lr_mult: 1
    decay_mult: 1
  }
  param {
    lr_mult: 2
    decay_mult: 0
  }
  convolution_param {
    num_output: 288
    pad: 1
    kernel_size: 3
    weight_filler {
      type: "xavier"
      std: 0.03
    }
    bias_filler {
      type: "constant"
      value: 0.2
    }
  }
}
layer {
  name: "inception_4d/relu_3x3"
  type: "ReLU"
  bottom: "inception_4d/3x3"
  top: "inception_4d/3x3"
}
layer {
  name: "inception_4d/5x5_reduce"
  type: "Convolution"
  bottom: "inception_4c/output"
  top: "inception_4d/5x5_reduce"
  param {
    lr_mult: 1
    decay_mult: 1
  }
  param {
    lr_mult: 2
    decay_mult: 0
  }
  convolution_param {
    num_output: 32
    kernel_size: 1
    weight_filler {
      type: "xavier"
      std: 0.2
    }
    bias_filler {
      type: "constant"
      value: 0.2
    }
  }
}
layer {
  name: "inception_4d/relu_5x5_reduce"
  type: "ReLU"
  bottom: "inception_4d/5x5_reduce"
  top: "inception_4d/5x5_reduce"
}
layer {
  name: "inception_4d/5x5"
  type: "Convolution"
  bottom: "inception_4d/5x5_reduce"
  top: "inception_4d/5x5"
  param {
    lr_mult: 1
    decay_mult: 1
  }
  param {
    lr_mult: 2
    decay_mult: 0
  }
  convolution_param {
    num_output: 64
    pad: 2
    kernel_size: 5
    weight_filler {
      type: "xavier"
      std: 0.03
    }
    bias_filler {
      type: "constant"
      value: 0.2
    }
  }
}
layer {
  name: "inception_4d/relu_5x5"
  type: "ReLU"
  bottom: "inception_4d/5x5"
  top: "inception_4d/5x5"
}
layer {
  name: "inception_4d/pool"
  type: "Pooling"
  bottom: "inception_4c/output"
  top: "inception_4d/pool"
  pooling_param {
    pool: MAX
    kernel_size: 3
    stride: 1
    pad: 1
  }
}
layer {
  name: "inception_4d/pool_proj"
  type: "Convolution"
  bottom: "inception_4d/pool"
  top: "inception_4d/pool_proj"
  param {
    lr_mult: 1
    decay_mult: 1
  }
  param {
    lr_mult: 2
    decay_mult: 0
  }
  convolution_param {
    num_output: 64
    kernel_size: 1
    weight_filler {
      type: "xavier"
      std: 0.1
    }
    bias_filler {
      type: "constant"
      value: 0.2
    }
  }
}
layer {
  name: "inception_4d/relu_pool_proj"
  type: "ReLU"
  bottom: "inception_4d/pool_proj"
  top: "inception_4d/pool_proj"
}
layer {
  name: "inception_4d/output"
  type: "Concat"
  bottom: "inception_4d/1x1"
  bottom: "inception_4d/3x3"
  bottom: "inception_4d/5x5"
  bottom: "inception_4d/pool_proj"
  top: "inception_4d/output"
}
layer {
  name: "loss2/ave_pool"
  type: "Pooling"
  bottom: "inception_4d/output"
  top: "loss2/ave_pool"
  pooling_param {
    pool: AVE
    kernel_size: 5
    stride: 3
  }
}
layer {
  name: "loss2/conv"
  type: "Convolution"
  bottom: "loss2/ave_pool"
  top: "loss2/conv"
  param {
    lr_mult: 1
    decay_mult: 1
  }
  param {
    lr_mult: 2
    decay_mult: 0
  }
  convolution_param {
    num_output: 128
    kernel_size: 1
    weight_filler {
      type: "xavier"
      std: 0.08
    }
    bias_filler {
      type: "constant"
      value: 0.2
    }
  }
}
layer {
  name: "loss2/relu_conv"
  type: "ReLU"
  bottom: "loss2/conv"
  top: "loss2/conv"
}
layer {
  name: "loss2/fc"
  type: "InnerProduct"
  bottom: "loss2/conv"
  top: "loss2/fc"
  param {
    lr_mult: 1
    decay_mult: 1
  }
  param {
    lr_mult: 2
    decay_mult: 0
  }
  inner_product_param {
    num_output: 1024
    weight_filler {
      type: "xavier"
      std: 0.02
    }
    bias_filler {
      type: "constant"
      value: 0.2
    }
  }
}
layer {
  name: "loss2/relu_fc"
  type: "ReLU"
  bottom: "loss2/fc"
  top: "loss2/fc"
}
layer {
  name: "loss2/drop_fc"
  type: "Dropout"
  bottom: "loss2/fc"
  top: "loss2/fc"
  dropout_param {
    dropout_ratio: 0.7
  }
}
layer {
  name: "loss2/classifier_plantvillage"
  type: "InnerProduct"
  bottom: "loss2/fc"
  top: "loss2/classifier_plantvillage"
  param {
    lr_mult: 1
    decay_mult: 1
  }
  param {
    lr_mult: 2
    decay_mult: 0
  }
  inner_product_param {
    num_output: 38
    weight_filler {
      type: "xavier"
      std: 0.0009765625
    }
    bias_filler {
      type: "constant"
      value: 0
    }
  }
}
layer {
  name: "inception_4e/1x1"
  type: "Convolution"
  bottom: "inception_4d/output"
  top: "inception_4e/1x1"
  param {
    lr_mult: 1
    decay_mult: 1
  }
  param {
    lr_mult: 2
    decay_mult: 0
  }
  convolution_param {
    num_output: 256
    kernel_size: 1
    weight_filler {
      type: "xavier"
      std: 0.03
    }
    bias_filler {
      type: "constant"
      value: 0.2
    }
  }
}
layer {
  name: "inception_4e/relu_1x1"
  type: "ReLU"
  bottom: "inception_4e/1x1"
  top: "inception_4e/1x1"
}
layer {
  name: "inception_4e/3x3_reduce"
  type: "Convolution"
  bottom: "inception_4d/output"
  top: "inception_4e/3x3_reduce"
  param {
    lr_mult: 1
    decay_mult: 1
  }
  param {
    lr_mult: 2
    decay_mult: 0
  }
  convolution_param {
    num_output: 160
    kernel_size: 1
    weight_filler {
      type: "xavier"
      std: 0.09
    }
    bias_filler {
      type: "constant"
      value: 0.2
    }
  }
}
layer {
  name: "inception_4e/relu_3x3_reduce"
  type: "ReLU"
  bottom: "inception_4e/3x3_reduce"
  top: "inception_4e/3x3_reduce"
}
layer {
  name: "inception_4e/3x3"
  type: "Convolution"
  bottom: "inception_4e/3x3_reduce"
  top: "inception_4e/3x3"
  param {
    lr_mult: 1
    decay_mult: 1
  }
  param {
    lr_mult: 2
    decay_mult: 0
  }
  convolution_param {
    num_output: 320
    pad: 1
    kernel_size: 3
    weight_filler {
      type: "xavier"
      std: 0.03
    }
    bias_filler {
      type: "constant"
      value: 0.2
    }
  }
}
layer {
  name: "inception_4e/relu_3x3"
  type: "ReLU"
  bottom: "inception_4e/3x3"
  top: "inception_4e/3x3"
}
layer {
  name: "inception_4e/5x5_reduce"
  type: "Convolution"
  bottom: "inception_4d/output"
  top: "inception_4e/5x5_reduce"
  param {
    lr_mult: 1
    decay_mult: 1
  }
  param {
    lr_mult: 2
    decay_mult: 0
  }
  convolution_param {
    num_output: 32
    kernel_size: 1
    weight_filler {
      type: "xavier"
      std: 0.2
    }
    bias_filler {
      type: "constant"
      value: 0.2
    }
  }
}
layer {
  name: "inception_4e/relu_5x5_reduce"
  type: "ReLU"
  bottom: "inception_4e/5x5_reduce"
  top: "inception_4e/5x5_reduce"
}
layer {
  name: "inception_4e/5x5"
  type: "Convolution"
  bottom: "inception_4e/5x5_reduce"
  top: "inception_4e/
I0403 18:24:42.099217  6928 layer_factory.hpp:77] Creating layer data
I0403 18:24:42.099812  6928 net.cpp:91] Creating Layer data
I0403 18:24:42.099843  6928 net.cpp:399] data -> data
I0403 18:24:42.099891  6928 net.cpp:399] data -> label
I0403 18:24:42.099930  6928 data_transformer.cpp:25] Loading mean file from: /home/mohanty/data/final_dataset/lmdb/grayscale-40-60/mean.binaryproto
I0403 18:24:42.100939  6933 db_lmdb.cpp:38] Opened lmdb /home/mohanty/data/final_dataset/lmdb/grayscale-40-60/test_db
I0403 18:24:42.113265  6928 data_layer.cpp:41] output data size: 24,3,224,224
I0403 18:24:42.142459  6928 net.cpp:141] Setting up data
I0403 18:24:42.142578  6928 net.cpp:148] Top shape: 24 3 224 224 (3612672)
I0403 18:24:42.142602  6928 net.cpp:148] Top shape: 24 (24)
I0403 18:24:42.142618  6928 net.cpp:156] Memory required for data: 14450784
I0403 18:24:42.142644  6928 layer_factory.hpp:77] Creating layer label_data_1_split
I0403 18:24:42.142673  6928 net.cpp:91] Creating Layer label_data_1_split
I0403 18:24:42.142690  6928 net.cpp:425] label_data_1_split <- label
I0403 18:24:42.142722  6928 net.cpp:399] label_data_1_split -> label_data_1_split_0
I0403 18:24:42.142751  6928 net.cpp:399] label_data_1_split -> label_data_1_split_1
I0403 18:24:42.142772  6928 net.cpp:399] label_data_1_split -> label_data_1_split_2
I0403 18:24:42.142793  6928 net.cpp:399] label_data_1_split -> label_data_1_split_3
I0403 18:24:42.142812  6928 net.cpp:399] label_data_1_split -> label_data_1_split_4
I0403 18:24:42.142832  6928 net.cpp:399] label_data_1_split -> label_data_1_split_5
I0403 18:24:42.142851  6928 net.cpp:399] label_data_1_split -> label_data_1_split_6
I0403 18:24:42.142874  6928 net.cpp:399] label_data_1_split -> label_data_1_split_7
I0403 18:24:42.142892  6928 net.cpp:399] label_data_1_split -> label_data_1_split_8
I0403 18:24:42.142913  6928 net.cpp:399] label_data_1_split -> label_data_1_split_9
I0403 18:24:42.143030  6928 net.cpp:141] Setting up label_data_1_split
I0403 18:24:42.143054  6928 net.cpp:148] Top shape: 24 (24)
I0403 18:24:42.143072  6928 net.cpp:148] Top shape: 24 (24)
I0403 18:24:42.143090  6928 net.cpp:148] Top shape: 24 (24)
I0403 18:24:42.143106  6928 net.cpp:148] Top shape: 24 (24)
I0403 18:24:42.143122  6928 net.cpp:148] Top shape: 24 (24)
I0403 18:24:42.143139  6928 net.cpp:148] Top shape: 24 (24)
I0403 18:24:42.143154  6928 net.cpp:148] Top shape: 24 (24)
I0403 18:24:42.143170  6928 net.cpp:148] Top shape: 24 (24)
I0403 18:24:42.143187  6928 net.cpp:148] Top shape: 24 (24)
I0403 18:24:42.143204  6928 net.cpp:148] Top shape: 24 (24)
I0403 18:24:42.143251  6928 net.cpp:156] Memory required for data: 14451744
I0403 18:24:42.143267  6928 layer_factory.hpp:77] Creating layer conv1/7x7_s2
I0403 18:24:42.143304  6928 net.cpp:91] Creating Layer conv1/7x7_s2
I0403 18:24:42.143326  6928 net.cpp:425] conv1/7x7_s2 <- data
I0403 18:24:42.143347  6928 net.cpp:399] conv1/7x7_s2 -> conv1/7x7_s2
I0403 18:24:42.288394  6928 net.cpp:141] Setting up conv1/7x7_s2
I0403 18:24:42.288504  6928 net.cpp:148] Top shape: 24 64 112 112 (19267584)
I0403 18:24:42.288522  6928 net.cpp:156] Memory required for data: 91522080
I0403 18:24:42.288552  6928 layer_factory.hpp:77] Creating layer conv1/relu_7x7
I0403 18:24:42.288580  6928 net.cpp:91] Creating Layer conv1/relu_7x7
I0403 18:24:42.288599  6928 net.cpp:425] conv1/relu_7x7 <- conv1/7x7_s2
I0403 18:24:42.288619  6928 net.cpp:386] conv1/relu_7x7 -> conv1/7x7_s2 (in-place)
I0403 18:24:42.288923  6928 net.cpp:141] Setting up conv1/relu_7x7
I0403 18:24:42.288950  6928 net.cpp:148] Top shape: 24 64 112 112 (19267584)
I0403 18:24:42.288965  6928 net.cpp:156] Memory required for data: 168592416
I0403 18:24:42.288980  6928 layer_factory.hpp:77] Creating layer pool1/3x3_s2
I0403 18:24:42.289006  6928 net.cpp:91] Creating Layer pool1/3x3_s2
I0403 18:24:42.289024  6928 net.cpp:425] pool1/3x3_s2 <- conv1/7x7_s2
I0403 18:24:42.289042  6928 net.cpp:399] pool1/3x3_s2 -> pool1/3x3_s2
I0403 18:24:42.289118  6928 net.cpp:141] Setting up pool1/3x3_s2
I0403 18:24:42.289141  6928 net.cpp:148] Top shape: 24 64 56 56 (4816896)
I0403 18:24:42.289156  6928 net.cpp:156] Memory required for data: 187860000
I0403 18:24:42.289171  6928 layer_factory.hpp:77] Creating layer pool1/norm1
I0403 18:24:42.289196  6928 net.cpp:91] Creating Layer pool1/norm1
I0403 18:24:42.289213  6928 net.cpp:425] pool1/norm1 <- pool1/3x3_s2
I0403 18:24:42.289232  6928 net.cpp:399] pool1/norm1 -> pool1/norm1
I0403 18:24:42.289546  6928 net.cpp:141] Setting up pool1/norm1
I0403 18:24:42.289574  6928 net.cpp:148] Top shape: 24 64 56 56 (4816896)
I0403 18:24:42.289592  6928 net.cpp:156] Memory required for data: 207127584
I0403 18:24:42.289608  6928 layer_factory.hpp:77] Creating layer conv2/3x3_reduce
I0403 18:24:42.289644  6928 net.cpp:91] Creating Layer conv2/3x3_reduce
I0403 18:24:42.289661  6928 net.cpp:425] conv2/3x3_reduce <- pool1/norm1
I0403 18:24:42.289680  6928 net.cpp:399] conv2/3x3_reduce -> conv2/3x3_reduce
I0403 18:24:42.291116  6928 net.cpp:141] Setting up conv2/3x3_reduce
I0403 18:24:42.291147  6928 net.cpp:148] Top shape: 24 64 56 56 (4816896)
I0403 18:24:42.291163  6928 net.cpp:156] Memory required for data: 226395168
I0403 18:24:42.291184  6928 layer_factory.hpp:77] Creating layer conv2/relu_3x3_reduce
I0403 18:24:42.291203  6928 net.cpp:91] Creating Layer conv2/relu_3x3_reduce
I0403 18:24:42.291220  6928 net.cpp:425] conv2/relu_3x3_reduce <- conv2/3x3_reduce
I0403 18:24:42.291237  6928 net.cpp:386] conv2/relu_3x3_reduce -> conv2/3x3_reduce (in-place)
I0403 18:24:42.291496  6928 net.cpp:141] Setting up conv2/relu_3x3_reduce
I0403 18:24:42.291524  6928 net.cpp:148] Top shape: 24 64 56 56 (4816896)
I0403 18:24:42.291540  6928 net.cpp:156] Memory required for data: 245662752
I0403 18:24:42.291556  6928 layer_factory.hpp:77] Creating layer conv2/3x3
I0403 18:24:42.291579  6928 net.cpp:91] Creating Layer conv2/3x3
I0403 18:24:42.291596  6928 net.cpp:425] conv2/3x3 <- conv2/3x3_reduce
I0403 18:24:42.291615  6928 net.cpp:399] conv2/3x3 -> conv2/3x3
I0403 18:24:42.293879  6928 net.cpp:141] Setting up conv2/3x3
I0403 18:24:42.293908  6928 net.cpp:148] Top shape: 24 192 56 56 (14450688)
I0403 18:24:42.293925  6928 net.cpp:156] Memory required for data: 303465504
I0403 18:24:42.293946  6928 layer_factory.hpp:77] Creating layer conv2/relu_3x3
I0403 18:24:42.293965  6928 net.cpp:91] Creating Layer conv2/relu_3x3
I0403 18:24:42.293982  6928 net.cpp:425] conv2/relu_3x3 <- conv2/3x3
I0403 18:24:42.293998  6928 net.cpp:386] conv2/relu_3x3 -> conv2/3x3 (in-place)
I0403 18:24:42.294157  6928 net.cpp:141] Setting up conv2/relu_3x3
I0403 18:24:42.294194  6928 net.cpp:148] Top shape: 24 192 56 56 (14450688)
I0403 18:24:42.294244  6928 net.cpp:156] Memory required for data: 361268256
I0403 18:24:42.294260  6928 layer_factory.hpp:77] Creating layer conv2/norm2
I0403 18:24:42.294283  6928 net.cpp:91] Creating Layer conv2/norm2
I0403 18:24:42.294302  6928 net.cpp:425] conv2/norm2 <- conv2/3x3
I0403 18:24:42.294322  6928 net.cpp:399] conv2/norm2 -> conv2/norm2
I0403 18:24:42.294618  6928 net.cpp:141] Setting up conv2/norm2
I0403 18:24:42.294646  6928 net.cpp:148] Top shape: 24 192 56 56 (14450688)
I0403 18:24:42.294661  6928 net.cpp:156] Memory required for data: 419071008
I0403 18:24:42.294677  6928 layer_factory.hpp:77] Creating layer pool2/3x3_s2
I0403 18:24:42.294695  6928 net.cpp:91] Creating Layer pool2/3x3_s2
I0403 18:24:42.294711  6928 net.cpp:425] pool2/3x3_s2 <- conv2/norm2
I0403 18:24:42.294729  6928 net.cpp:399] pool2/3x3_s2 -> pool2/3x3_s2
I0403 18:24:42.294777  6928 net.cpp:141] Setting up pool2/3x3_s2
I0403 18:24:42.294800  6928 net.cpp:148] Top shape: 24 192 28 28 (3612672)
I0403 18:24:42.294816  6928 net.cpp:156] Memory required for data: 433521696
I0403 18:24:42.294831  6928 layer_factory.hpp:77] Creating layer pool2/3x3_s2_pool2/3x3_s2_0_split
I0403 18:24:42.294849  6928 net.cpp:91] Creating Layer pool2/3x3_s2_pool2/3x3_s2_0_split
I0403 18:24:42.294864  6928 net.cpp:425] pool2/3x3_s2_pool2/3x3_s2_0_split <- pool2/3x3_s2
I0403 18:24:42.294881  6928 net.cpp:399] pool2/3x3_s2_pool2/3x3_s2_0_split -> pool2/3x3_s2_pool2/3x3_s2_0_split_0
I0403 18:24:42.294901  6928 net.cpp:399] pool2/3x3_s2_pool2/3x3_s2_0_split -> pool2/3x3_s2_pool2/3x3_s2_0_split_1
I0403 18:24:42.294922  6928 net.cpp:399] pool2/3x3_s2_pool2/3x3_s2_0_split -> pool2/3x3_s2_pool2/3x3_s2_0_split_2
I0403 18:24:42.294940  6928 net.cpp:399] pool2/3x3_s2_pool2/3x3_s2_0_split -> pool2/3x3_s2_pool2/3x3_s2_0_split_3
I0403 18:24:42.295006  6928 net.cpp:141] Setting up pool2/3x3_s2_pool2/3x3_s2_0_split
I0403 18:24:42.295027  6928 net.cpp:148] Top shape: 24 192 28 28 (3612672)
I0403 18:24:42.295045  6928 net.cpp:148] Top shape: 24 192 28 28 (3612672)
I0403 18:24:42.295061  6928 net.cpp:148] Top shape: 24 192 28 28 (3612672)
I0403 18:24:42.295078  6928 net.cpp:148] Top shape: 24 192 28 28 (3612672)
I0403 18:24:42.295092  6928 net.cpp:156] Memory required for data: 491324448
I0403 18:24:42.295109  6928 layer_factory.hpp:77] Creating layer inception_3a/1x1
I0403 18:24:42.295128  6928 net.cpp:91] Creating Layer inception_3a/1x1
I0403 18:24:42.295145  6928 net.cpp:425] inception_3a/1x1 <- pool2/3x3_s2_pool2/3x3_s2_0_split_0
I0403 18:24:42.295164  6928 net.cpp:399] inception_3a/1x1 -> inception_3a/1x1
I0403 18:24:42.296681  6928 net.cpp:141] Setting up inception_3a/1x1
I0403 18:24:42.296711  6928 net.cpp:148] Top shape: 24 64 28 28 (1204224)
I0403 18:24:42.296727  6928 net.cpp:156] Memory required for data: 496141344
I0403 18:24:42.296746  6928 layer_factory.hpp:77] Creating layer inception_3a/relu_1x1
I0403 18:24:42.296766  6928 net.cpp:91] Creating Layer inception_3a/relu_1x1
I0403 18:24:42.296782  6928 net.cpp:425] inception_3a/relu_1x1 <- inception_3a/1x1
I0403 18:24:42.296799  6928 net.cpp:386] inception_3a/relu_1x1 -> inception_3a/1x1 (in-place)
I0403 18:24:42.296963  6928 net.cpp:141] Setting up inception_3a/relu_1x1
I0403 18:24:42.296989  6928 net.cpp:148] Top shape: 24 64 28 28 (1204224)
I0403 18:24:42.297003  6928 net.cpp:156] Memory required for data: 500958240
I0403 18:24:42.297020  6928 layer_factory.hpp:77] Creating layer inception_3a/3x3_reduce
I0403 18:24:42.297046  6928 net.cpp:91] Creating Layer inception_3a/3x3_reduce
I0403 18:24:42.297065  6928 net.cpp:425] inception_3a/3x3_reduce <- pool2/3x3_s2_pool2/3x3_s2_0_split_1
I0403 18:24:42.297086  6928 net.cpp:399] inception_3a/3x3_reduce -> inception_3a/3x3_reduce
I0403 18:24:42.298856  6928 net.cpp:141] Setting up inception_3a/3x3_reduce
I0403 18:24:42.298885  6928 net.cpp:148] Top shape: 24 96 28 28 (1806336)
I0403 18:24:42.298902  6928 net.cpp:156] Memory required for data: 508183584
I0403 18:24:42.298923  6928 layer_factory.hpp:77] Creating layer inception_3a/relu_3x3_reduce
I0403 18:24:42.298962  6928 net.cpp:91] Creating Layer inception_3a/relu_3x3_reduce
I0403 18:24:42.298980  6928 net.cpp:425] inception_3a/relu_3x3_reduce <- inception_3a/3x3_reduce
I0403 18:24:42.298998  6928 net.cpp:386] inception_3a/relu_3x3_reduce -> inception_3a/3x3_reduce (in-place)
I0403 18:24:42.299190  6928 net.cpp:141] Setting up inception_3a/relu_3x3_reduce
I0403 18:24:42.299227  6928 net.cpp:148] Top shape: 24 96 28 28 (1806336)
I0403 18:24:42.299243  6928 net.cpp:156] Memory required for data: 515408928
I0403 18:24:42.299259  6928 layer_factory.hpp:77] Creating layer inception_3a/3x3
I0403 18:24:42.299288  6928 net.cpp:91] Creating Layer inception_3a/3x3
I0403 18:24:42.299309  6928 net.cpp:425] inception_3a/3x3 <- inception_3a/3x3_reduce
I0403 18:24:42.299330  6928 net.cpp:399] inception_3a/3x3 -> inception_3a/3x3
I0403 18:24:42.301036  6928 net.cpp:141] Setting up inception_3a/3x3
I0403 18:24:42.301064  6928 net.cpp:148] Top shape: 24 128 28 28 (2408448)
I0403 18:24:42.301080  6928 net.cpp:156] Memory required for data: 525042720
I0403 18:24:42.301100  6928 layer_factory.hpp:77] Creating layer inception_3a/relu_3x3
I0403 18:24:42.301121  6928 net.cpp:91] Creating Layer inception_3a/relu_3x3
I0403 18:24:42.301139  6928 net.cpp:425] inception_3a/relu_3x3 <- inception_3a/3x3
I0403 18:24:42.301156  6928 net.cpp:386] inception_3a/relu_3x3 -> inception_3a/3x3 (in-place)
I0403 18:24:42.301437  6928 net.cpp:141] Setting up inception_3a/relu_3x3
I0403 18:24:42.301465  6928 net.cpp:148] Top shape: 24 128 28 28 (2408448)
I0403 18:24:42.301481  6928 net.cpp:156] Memory required for data: 534676512
I0403 18:24:42.301496  6928 layer_factory.hpp:77] Creating layer inception_3a/5x5_reduce
I0403 18:24:42.301522  6928 net.cpp:91] Creating Layer inception_3a/5x5_reduce
I0403 18:24:42.301538  6928 net.cpp:425] inception_3a/5x5_reduce <- pool2/3x3_s2_pool2/3x3_s2_0_split_2
I0403 18:24:42.301560  6928 net.cpp:399] inception_3a/5x5_reduce -> inception_3a/5x5_reduce
I0403 18:24:42.302551  6928 net.cpp:141] Setting up inception_3a/5x5_reduce
I0403 18:24:42.302579  6928 net.cpp:148] Top shape: 24 16 28 28 (301056)
I0403 18:24:42.302599  6928 net.cpp:156] Memory required for data: 535880736
I0403 18:24:42.302618  6928 layer_factory.hpp:77] Creating layer inception_3a/relu_5x5_reduce
I0403 18:24:42.302637  6928 net.cpp:91] Creating Layer inception_3a/relu_5x5_reduce
I0403 18:24:42.302654  6928 net.cpp:425] inception_3a/relu_5x5_reduce <- inception_3a/5x5_reduce
I0403 18:24:42.302670  6928 net.cpp:386] inception_3a/relu_5x5_reduce -> inception_3a/5x5_reduce (in-place)
I0403 18:24:42.302963  6928 net.cpp:141] Setting up inception_3a/relu_5x5_reduce
I0403 18:24:42.302994  6928 net.cpp:148] Top shape: 24 16 28 28 (301056)
I0403 18:24:42.303009  6928 net.cpp:156] Memory required for data: 537084960
I0403 18:24:42.303025  6928 layer_factory.hpp:77] Creating layer inception_3a/5x5
I0403 18:24:42.303048  6928 net.cpp:91] Creating Layer inception_3a/5x5
I0403 18:24:42.303066  6928 net.cpp:425] inception_3a/5x5 <- inception_3a/5x5_reduce
I0403 18:24:42.303086  6928 net.cpp:399] inception_3a/5x5 -> inception_3a/5x5
I0403 18:24:42.304121  6928 net.cpp:141] Setting up inception_3a/5x5
I0403 18:24:42.304148  6928 net.cpp:148] Top shape: 24 32 28 28 (602112)
I0403 18:24:42.304164  6928 net.cpp:156] Memory required for data: 539493408
I0403 18:24:42.304183  6928 layer_factory.hpp:77] Creating layer inception_3a/relu_5x5
I0403 18:24:42.304204  6928 net.cpp:91] Creating Layer inception_3a/relu_5x5
I0403 18:24:42.304221  6928 net.cpp:425] inception_3a/relu_5x5 <- inception_3a/5x5
I0403 18:24:42.304239  6928 net.cpp:386] inception_3a/relu_5x5 -> inception_3a/5x5 (in-place)
I0403 18:24:42.304425  6928 net.cpp:141] Setting up inception_3a/relu_5x5
I0403 18:24:42.304450  6928 net.cpp:148] Top shape: 24 32 28 28 (602112)
I0403 18:24:42.304466  6928 net.cpp:156] Memory required for data: 541901856
I0403 18:24:42.304481  6928 layer_factory.hpp:77] Creating layer inception_3a/pool
I0403 18:24:42.304502  6928 net.cpp:91] Creating Layer inception_3a/pool
I0403 18:24:42.304533  6928 net.cpp:425] inception_3a/pool <- pool2/3x3_s2_pool2/3x3_s2_0_split_3
I0403 18:24:42.304553  6928 net.cpp:399] inception_3a/pool -> inception_3a/pool
I0403 18:24:42.304615  6928 net.cpp:141] Setting up inception_3a/pool
I0403 18:24:42.304641  6928 net.cpp:148] Top shape: 24 192 28 28 (3612672)
I0403 18:24:42.304654  6928 net.cpp:156] Memory required for data: 556352544
I0403 18:24:42.304669  6928 layer_factory.hpp:77] Creating layer inception_3a/pool_proj
I0403 18:24:42.304693  6928 net.cpp:91] Creating Layer inception_3a/pool_proj
I0403 18:24:42.304710  6928 net.cpp:425] inception_3a/pool_proj <- inception_3a/pool
I0403 18:24:42.304731  6928 net.cpp:399] inception_3a/pool_proj -> inception_3a/pool_proj
I0403 18:24:42.305714  6928 net.cpp:141] Setting up inception_3a/pool_proj
I0403 18:24:42.305745  6928 net.cpp:148] Top shape: 24 32 28 28 (602112)
I0403 18:24:42.305763  6928 net.cpp:156] Memory required for data: 558760992
I0403 18:24:42.305786  6928 layer_factory.hpp:77] Creating layer inception_3a/relu_pool_proj
I0403 18:24:42.305806  6928 net.cpp:91] Creating Layer inception_3a/relu_pool_proj
I0403 18:24:42.305822  6928 net.cpp:425] inception_3a/relu_pool_proj <- inception_3a/pool_proj
I0403 18:24:42.305840  6928 net.cpp:386] inception_3a/relu_pool_proj -> inception_3a/pool_proj (in-place)
I0403 18:24:42.306119  6928 net.cpp:141] Setting up inception_3a/relu_pool_proj
I0403 18:24:42.306146  6928 net.cpp:148] Top shape: 24 32 28 28 (602112)
I0403 18:24:42.306161  6928 net.cpp:156] Memory required for data: 561169440
I0403 18:24:42.306176  6928 layer_factory.hpp:77] Creating layer inception_3a/output
I0403 18:24:42.306198  6928 net.cpp:91] Creating Layer inception_3a/output
I0403 18:24:42.306215  6928 net.cpp:425] inception_3a/output <- inception_3a/1x1
I0403 18:24:42.306231  6928 net.cpp:425] inception_3a/output <- inception_3a/3x3
I0403 18:24:42.306247  6928 net.cpp:425] inception_3a/output <- inception_3a/5x5
I0403 18:24:42.306264  6928 net.cpp:425] inception_3a/output <- inception_3a/pool_proj
I0403 18:24:42.306300  6928 net.cpp:399] inception_3a/output -> inception_3a/output
I0403 18:24:42.306354  6928 net.cpp:141] Setting up inception_3a/output
I0403 18:24:42.306377  6928 net.cpp:148] Top shape: 24 256 28 28 (4816896)
I0403 18:24:42.306393  6928 net.cpp:156] Memory required for data: 580437024
I0403 18:24:42.306408  6928 layer_factory.hpp:77] Creating layer inception_3a/output_inception_3a/output_0_split
I0403 18:24:42.306427  6928 net.cpp:91] Creating Layer inception_3a/output_inception_3a/output_0_split
I0403 18:24:42.306443  6928 net.cpp:425] inception_3a/output_inception_3a/output_0_split <- inception_3a/output
I0403 18:24:42.306463  6928 net.cpp:399] inception_3a/output_inception_3a/output_0_split -> inception_3a/output_inception_3a/output_0_split_0
I0403 18:24:42.306486  6928 net.cpp:399] inception_3a/output_inception_3a/output_0_split -> inception_3a/output_inception_3a/output_0_split_1
I0403 18:24:42.306509  6928 net.cpp:399] inception_3a/output_inception_3a/output_0_split -> inception_3a/output_inception_3a/output_0_split_2
I0403 18:24:42.306531  6928 net.cpp:399] inception_3a/output_inception_3a/output_0_split -> inception_3a/output_inception_3a/output_0_split_3
I0403 18:24:42.306609  6928 net.cpp:141] Setting up inception_3a/output_inception_3a/output_0_split
I0403 18:24:42.306633  6928 net.cpp:148] Top shape: 24 256 28 28 (4816896)
I0403 18:24:42.306650  6928 net.cpp:148] Top shape: 24 256 28 28 (4816896)
I0403 18:24:42.306666  6928 net.cpp:148] Top shape: 24 256 28 28 (4816896)
I0403 18:24:42.306682  6928 net.cpp:148] Top shape: 24 256 28 28 (4816896)
I0403 18:24:42.306697  6928 net.cpp:156] Memory required for data: 657507360
I0403 18:24:42.306712  6928 layer_factory.hpp:77] Creating layer inception_3b/1x1
I0403 18:24:42.306735  6928 net.cpp:91] Creating Layer inception_3b/1x1
I0403 18:24:42.306753  6928 net.cpp:425] inception_3b/1x1 <- inception_3a/output_inception_3a/output_0_split_0
I0403 18:24:42.306774  6928 net.cpp:399] inception_3b/1x1 -> inception_3b/1x1
I0403 18:24:42.307939  6928 net.cpp:141] Setting up inception_3b/1x1
I0403 18:24:42.307979  6928 net.cpp:148] Top shape: 24 128 28 28 (2408448)
I0403 18:24:42.307996  6928 net.cpp:156] Memory required for data: 667141152
I0403 18:24:42.308015  6928 layer_factory.hpp:77] Creating layer inception_3b/relu_1x1
I0403 18:24:42.308033  6928 net.cpp:91] Creating Layer inception_3b/relu_1x1
I0403 18:24:42.308049  6928 net.cpp:425] inception_3b/relu_1x1 <- inception_3b/1x1
I0403 18:24:42.308069  6928 net.cpp:386] inception_3b/relu_1x1 -> inception_3b/1x1 (in-place)
I0403 18:24:42.308248  6928 net.cpp:141] Setting up inception_3b/relu_1x1
I0403 18:24:42.308279  6928 net.cpp:148] Top shape: 24 128 28 28 (2408448)
I0403 18:24:42.308295  6928 net.cpp:156] Memory required for data: 676774944
I0403 18:24:42.308311  6928 layer_factory.hpp:77] Creating layer inception_3b/3x3_reduce
I0403 18:24:42.308334  6928 net.cpp:91] Creating Layer inception_3b/3x3_reduce
I0403 18:24:42.308352  6928 net.cpp:425] inception_3b/3x3_reduce <- inception_3a/output_inception_3a/output_0_split_1
I0403 18:24:42.308375  6928 net.cpp:399] inception_3b/3x3_reduce -> inception_3b/3x3_reduce
I0403 18:24:42.309528  6928 net.cpp:141] Setting up inception_3b/3x3_reduce
I0403 18:24:42.309557  6928 net.cpp:148] Top shape: 24 128 28 28 (2408448)
I0403 18:24:42.309573  6928 net.cpp:156] Memory required for data: 686408736
I0403 18:24:42.309592  6928 layer_factory.hpp:77] Creating layer inception_3b/relu_3x3_reduce
I0403 18:24:42.309615  6928 net.cpp:91] Creating Layer inception_3b/relu_3x3_reduce
I0403 18:24:42.309631  6928 net.cpp:425] inception_3b/relu_3x3_reduce <- inception_3b/3x3_reduce
I0403 18:24:42.309650  6928 net.cpp:386] inception_3b/relu_3x3_reduce -> inception_3b/3x3_reduce (in-place)
I0403 18:24:42.309831  6928 net.cpp:141] Setting up inception_3b/relu_3x3_reduce
I0403 18:24:42.309857  6928 net.cpp:148] Top shape: 24 128 28 28 (2408448)
I0403 18:24:42.309872  6928 net.cpp:156] Memory required for data: 696042528
I0403 18:24:42.309890  6928 layer_factory.hpp:77] Creating layer inception_3b/3x3
I0403 18:24:42.309916  6928 net.cpp:91] Creating Layer inception_3b/3x3
I0403 18:24:42.309934  6928 net.cpp:425] inception_3b/3x3 <- inception_3b/3x3_reduce
I0403 18:24:42.309953  6928 net.cpp:399] inception_3b/3x3 -> inception_3b/3x3
I0403 18:24:42.312966  6928 net.cpp:141] Setting up inception_3b/3x3
I0403 18:24:42.312996  6928 net.cpp:148] Top shape: 24 192 28 28 (3612672)
I0403 18:24:42.313014  6928 net.cpp:156] Memory required for data: 710493216
I0403 18:24:42.313033  6928 layer_factory.hpp:77] Creating layer inception_3b/relu_3x3
I0403 18:24:42.313055  6928 net.cpp:91] Creating Layer inception_3b/relu_3x3
I0403 18:24:42.313071  6928 net.cpp:425] inception_3b/relu_3x3 <- inception_3b/3x3
I0403 18:24:42.313089  6928 net.cpp:386] inception_3b/relu_3x3 -> inception_3b/3x3 (in-place)
I0403 18:24:42.313377  6928 net.cpp:141] Setting up inception_3b/relu_3x3
I0403 18:24:42.313405  6928 net.cpp:148] Top shape: 24 192 28 28 (3612672)
I0403 18:24:42.313419  6928 net.cpp:156] Memory required for data: 724943904
I0403 18:24:42.313436  6928 layer_factory.hpp:77] Creating layer inception_3b/5x5_reduce
I0403 18:24:42.313459  6928 net.cpp:91] Creating Layer inception_3b/5x5_reduce
I0403 18:24:42.313477  6928 net.cpp:425] inception_3b/5x5_reduce <- inception_3a/output_inception_3a/output_0_split_2
I0403 18:24:42.313500  6928 net.cpp:399] inception_3b/5x5_reduce -> inception_3b/5x5_reduce
I0403 18:24:42.314539  6928 net.cpp:141] Setting up inception_3b/5x5_reduce
I0403 18:24:42.314568  6928 net.cpp:148] Top shape: 24 32 28 28 (602112)
I0403 18:24:42.314582  6928 net.cpp:156] Memory required for data: 727352352
I0403 18:24:42.314601  6928 layer_factory.hpp:77] Creating layer inception_3b/relu_5x5_reduce
I0403 18:24:42.314622  6928 net.cpp:91] Creating Layer inception_3b/relu_5x5_reduce
I0403 18:24:42.314638  6928 net.cpp:425] inception_3b/relu_5x5_reduce <- inception_3b/5x5_reduce
I0403 18:24:42.314654  6928 net.cpp:386] inception_3b/relu_5x5_reduce -> inception_3b/5x5_reduce (in-place)
I0403 18:24:42.314844  6928 net.cpp:141] Setting up inception_3b/relu_5x5_reduce
I0403 18:24:42.314873  6928 net.cpp:148] Top shape: 24 32 28 28 (602112)
I0403 18:24:42.314889  6928 net.cpp:156] Memory required for data: 729760800
I0403 18:24:42.314905  6928 layer_factory.hpp:77] Creating layer inception_3b/5x5
I0403 18:24:42.314927  6928 net.cpp:91] Creating Layer inception_3b/5x5
I0403 18:24:42.314944  6928 net.cpp:425] inception_3b/5x5 <- inception_3b/5x5_reduce
I0403 18:24:42.314965  6928 net.cpp:399] inception_3b/5x5 -> inception_3b/5x5
I0403 18:24:42.316951  6928 net.cpp:141] Setting up inception_3b/5x5
I0403 18:24:42.316980  6928 net.cpp:148] Top shape: 24 96 28 28 (1806336)
I0403 18:24:42.316995  6928 net.cpp:156] Memory required for data: 736986144
I0403 18:24:42.317013  6928 layer_factory.hpp:77] Creating layer inception_3b/relu_5x5
I0403 18:24:42.317031  6928 net.cpp:91] Creating Layer inception_3b/relu_5x5
I0403 18:24:42.317050  6928 net.cpp:425] inception_3b/relu_5x5 <- inception_3b/5x5
I0403 18:24:42.317068  6928 net.cpp:386] inception_3b/relu_5x5 -> inception_3b/5x5 (in-place)
I0403 18:24:42.317263  6928 net.cpp:141] Setting up inception_3b/relu_5x5
I0403 18:24:42.317293  6928 net.cpp:148] Top shape: 24 96 28 28 (1806336)
I0403 18:24:42.317309  6928 net.cpp:156] Memory required for data: 744211488
I0403 18:24:42.317324  6928 layer_factory.hpp:77] Creating layer inception_3b/pool
I0403 18:24:42.317342  6928 net.cpp:91] Creating Layer inception_3b/pool
I0403 18:24:42.317359  6928 net.cpp:425] inception_3b/pool <- inception_3a/output_inception_3a/output_0_split_3
I0403 18:24:42.317378  6928 net.cpp:399] inception_3b/pool -> inception_3b/pool
I0403 18:24:42.317436  6928 net.cpp:141] Setting up inception_3b/pool
I0403 18:24:42.317461  6928 net.cpp:148] Top shape: 24 256 28 28 (4816896)
I0403 18:24:42.317476  6928 net.cpp:156] Memory required for data: 763479072
I0403 18:24:42.317490  6928 layer_factory.hpp:77] Creating layer inception_3b/pool_proj
I0403 18:24:42.317513  6928 net.cpp:91] Creating Layer inception_3b/pool_proj
I0403 18:24:42.317530  6928 net.cpp:425] inception_3b/pool_proj <- inception_3b/pool
I0403 18:24:42.317553  6928 net.cpp:399] inception_3b/pool_proj -> inception_3b/pool_proj
I0403 18:24:42.318598  6928 net.cpp:141] Setting up inception_3b/pool_proj
I0403 18:24:42.318627  6928 net.cpp:148] Top shape: 24 64 28 28 (1204224)
I0403 18:24:42.318644  6928 net.cpp:156] Memory required for data: 768295968
I0403 18:24:42.318662  6928 layer_factory.hpp:77] Creating layer inception_3b/relu_pool_proj
I0403 18:24:42.318681  6928 net.cpp:91] Creating Layer inception_3b/relu_pool_proj
I0403 18:24:42.318696  6928 net.cpp:425] inception_3b/relu_pool_proj <- inception_3b/pool_proj
I0403 18:24:42.318716  6928 net.cpp:386] inception_3b/relu_pool_proj -> inception_3b/pool_proj (in-place)
I0403 18:24:42.319092  6928 net.cpp:141] Setting up inception_3b/relu_pool_proj
I0403 18:24:42.319121  6928 net.cpp:148] Top shape: 24 64 28 28 (1204224)
I0403 18:24:42.319139  6928 net.cpp:156] Memory required for data: 773112864
I0403 18:24:42.319154  6928 layer_factory.hpp:77] Creating layer inception_3b/output
I0403 18:24:42.319170  6928 net.cpp:91] Creating Layer inception_3b/output
I0403 18:24:42.319187  6928 net.cpp:425] inception_3b/output <- inception_3b/1x1
I0403 18:24:42.319205  6928 net.cpp:425] inception_3b/output <- inception_3b/3x3
I0403 18:24:42.319221  6928 net.cpp:425] inception_3b/output <- inception_3b/5x5
I0403 18:24:42.319236  6928 net.cpp:425] inception_3b/output <- inception_3b/pool_proj
I0403 18:24:42.319252  6928 net.cpp:399] inception_3b/output -> inception_3b/output
I0403 18:24:42.319301  6928 net.cpp:141] Setting up inception_3b/output
I0403 18:24:42.319325  6928 net.cpp:148] Top shape: 24 480 28 28 (9031680)
I0403 18:24:42.319340  6928 net.cpp:156] Memory required for data: 809239584
I0403 18:24:42.319355  6928 layer_factory.hpp:77] Creating layer pool3/3x3_s2
I0403 18:24:42.319375  6928 net.cpp:91] Creating Layer pool3/3x3_s2
I0403 18:24:42.319391  6928 net.cpp:425] pool3/3x3_s2 <- inception_3b/output
I0403 18:24:42.319423  6928 net.cpp:399] pool3/3x3_s2 -> pool3/3x3_s2
I0403 18:24:42.319483  6928 net.cpp:141] Setting up pool3/3x3_s2
I0403 18:24:42.319506  6928 net.cpp:148] Top shape: 24 480 14 14 (2257920)
I0403 18:24:42.319521  6928 net.cpp:156] Memory required for data: 818271264
I0403 18:24:42.319536  6928 layer_factory.hpp:77] Creating layer pool3/3x3_s2_pool3/3x3_s2_0_split
I0403 18:24:42.319552  6928 net.cpp:91] Creating Layer pool3/3x3_s2_pool3/3x3_s2_0_split
I0403 18:24:42.319568  6928 net.cpp:425] pool3/3x3_s2_pool3/3x3_s2_0_split <- pool3/3x3_s2
I0403 18:24:42.319588  6928 net.cpp:399] pool3/3x3_s2_pool3/3x3_s2_0_split -> pool3/3x3_s2_pool3/3x3_s2_0_split_0
I0403 18:24:42.319609  6928 net.cpp:399] pool3/3x3_s2_pool3/3x3_s2_0_split -> pool3/3x3_s2_pool3/3x3_s2_0_split_1
I0403 18:24:42.319628  6928 net.cpp:399] pool3/3x3_s2_pool3/3x3_s2_0_split -> pool3/3x3_s2_pool3/3x3_s2_0_split_2
I0403 18:24:42.319648  6928 net.cpp:399] pool3/3x3_s2_pool3/3x3_s2_0_split -> pool3/3x3_s2_pool3/3x3_s2_0_split_3
I0403 18:24:42.319728  6928 net.cpp:141] Setting up pool3/3x3_s2_pool3/3x3_s2_0_split
I0403 18:24:42.319754  6928 net.cpp:148] Top shape: 24 480 14 14 (2257920)
I0403 18:24:42.319771  6928 net.cpp:148] Top shape: 24 480 14 14 (2257920)
I0403 18:24:42.319787  6928 net.cpp:148] Top shape: 24 480 14 14 (2257920)
I0403 18:24:42.319802  6928 net.cpp:148] Top shape: 24 480 14 14 (2257920)
I0403 18:24:42.319815  6928 net.cpp:156] Memory required for data: 854397984
I0403 18:24:42.319829  6928 layer_factory.hpp:77] Creating layer inception_4a/1x1
I0403 18:24:42.319851  6928 net.cpp:91] Creating Layer inception_4a/1x1
I0403 18:24:42.319869  6928 net.cpp:425] inception_4a/1x1 <- pool3/3x3_s2_pool3/3x3_s2_0_split_0
I0403 18:24:42.319888  6928 net.cpp:399] inception_4a/1x1 -> inception_4a/1x1
I0403 18:24:42.321447  6928 net.cpp:141] Setting up inception_4a/1x1
I0403 18:24:42.321482  6928 net.cpp:148] Top shape: 24 192 14 14 (903168)
I0403 18:24:42.321501  6928 net.cpp:156] Memory required for data: 858010656
I0403 18:24:42.321523  6928 layer_factory.hpp:77] Creating layer inception_4a/relu_1x1
I0403 18:24:42.321547  6928 net.cpp:91] Creating Layer inception_4a/relu_1x1
I0403 18:24:42.321570  6928 net.cpp:425] inception_4a/relu_1x1 <- inception_4a/1x1
I0403 18:24:42.321599  6928 net.cpp:386] inception_4a/relu_1x1 -> inception_4a/1x1 (in-place)
I0403 18:24:42.321774  6928 net.cpp:141] Setting up inception_4a/relu_1x1
I0403 18:24:42.321799  6928 net.cpp:148] Top shape: 24 192 14 14 (903168)
I0403 18:24:42.321813  6928 net.cpp:156] Memory required for data: 861623328
I0403 18:24:42.321828  6928 layer_factory.hpp:77] Creating layer inception_4a/3x3_reduce
I0403 18:24:42.321851  6928 net.cpp:91] Creating Layer inception_4a/3x3_reduce
I0403 18:24:42.321867  6928 net.cpp:425] inception_4a/3x3_reduce <- pool3/3x3_s2_pool3/3x3_s2_0_split_1
I0403 18:24:42.321888  6928 net.cpp:399] inception_4a/3x3_reduce -> inception_4a/3x3_reduce
I0403 18:24:42.323166  6928 net.cpp:141] Setting up inception_4a/3x3_reduce
I0403 18:24:42.323197  6928 net.cpp:148] Top shape: 24 96 14 14 (451584)
I0403 18:24:42.323212  6928 net.cpp:156] Memory required for data: 863429664
I0403 18:24:42.323236  6928 layer_factory.hpp:77] Creating layer inception_4a/relu_3x3_reduce
I0403 18:24:42.323258  6928 net.cpp:91] Creating Layer inception_4a/relu_3x3_reduce
I0403 18:24:42.323279  6928 net.cpp:425] inception_4a/relu_3x3_reduce <- inception_4a/3x3_reduce
I0403 18:24:42.323298  6928 net.cpp:386] inception_4a/relu_3x3_reduce -> inception_4a/3x3_reduce (in-place)
I0403 18:24:42.323477  6928 net.cpp:141] Setting up inception_4a/relu_3x3_reduce
I0403 18:24:42.323503  6928 net.cpp:148] Top shape: 24 96 14 14 (451584)
I0403 18:24:42.323518  6928 net.cpp:156] Memory required for data: 865236000
I0403 18:24:42.323531  6928 layer_factory.hpp:77] Creating layer inception_4a/3x3
I0403 18:24:42.323554  6928 net.cpp:91] Creating Layer inception_4a/3x3
I0403 18:24:42.323571  6928 net.cpp:425] inception_4a/3x3 <- inception_4a/3x3_reduce
I0403 18:24:42.323592  6928 net.cpp:399] inception_4a/3x3 -> inception_4a/3x3
I0403 18:24:42.326278  6928 net.cpp:141] Setting up inception_4a/3x3
I0403 18:24:42.326306  6928 net.cpp:148] Top shape: 24 208 14 14 (978432)
I0403 18:24:42.326321  6928 net.cpp:156] Memory required for data: 869149728
I0403 18:24:42.326340  6928 layer_factory.hpp:77] Creating layer inception_4a/relu_3x3
I0403 18:24:42.326360  6928 net.cpp:91] Creating Layer inception_4a/relu_3x3
I0403 18:24:42.326377  6928 net.cpp:425] inception_4a/relu_3x3 <- inception_4a/3x3
I0403 18:24:42.326395  6928 net.cpp:386] inception_4a/relu_3x3 -> inception_4a/3x3 (in-place)
I0403 18:24:42.326661  6928 net.cpp:141] Setting up inception_4a/relu_3x3
I0403 18:24:42.326686  6928 net.cpp:148] Top shape: 24 208 14 14 (978432)
I0403 18:24:42.326701  6928 net.cpp:156] Memory required for data: 873063456
I0403 18:24:42.326715  6928 layer_factory.hpp:77] Creating layer inception_4a/5x5_reduce
I0403 18:24:42.326738  6928 net.cpp:91] Creating Layer inception_4a/5x5_reduce
I0403 18:24:42.326756  6928 net.cpp:425] inception_4a/5x5_reduce <- pool3/3x3_s2_pool3/3x3_s2_0_split_2
I0403 18:24:42.326776  6928 net.cpp:399] inception_4a/5x5_reduce -> inception_4a/5x5_reduce
I0403 18:24:42.327775  6928 net.cpp:141] Setting up inception_4a/5x5_reduce
I0403 18:24:42.327802  6928 net.cpp:148] Top shape: 24 16 14 14 (75264)
I0403 18:24:42.327817  6928 net.cpp:156] Memory required for data: 873364512
I0403 18:24:42.327836  6928 layer_factory.hpp:77] Creating layer inception_4a/relu_5x5_reduce
I0403 18:24:42.327857  6928 net.cpp:91] Creating Layer inception_4a/relu_5x5_reduce
I0403 18:24:42.327872  6928 net.cpp:425] inception_4a/relu_5x5_reduce <- inception_4a/5x5_reduce
I0403 18:24:42.327890  6928 net.cpp:386] inception_4a/relu_5x5_reduce -> inception_4a/5x5_reduce (in-place)
I0403 18:24:42.328065  6928 net.cpp:141] Setting up inception_4a/relu_5x5_reduce
I0403 18:24:42.328090  6928 net.cpp:148] Top shape: 24 16 14 14 (75264)
I0403 18:24:42.328105  6928 net.cpp:156] Memory required for data: 873665568
I0403 18:24:42.328121  6928 layer_factory.hpp:77] Creating layer inception_4a/5x5
I0403 18:24:42.328145  6928 net.cpp:91] Creating Layer inception_4a/5x5
I0403 18:24:42.328163  6928 net.cpp:425] inception_4a/5x5 <- inception_4a/5x5_reduce
I0403 18:24:42.328182  6928 net.cpp:399] inception_4a/5x5 -> inception_4a/5x5
I0403 18:24:42.329289  6928 net.cpp:141] Setting up inception_4a/5x5
I0403 18:24:42.329319  6928 net.cpp:148] Top shape: 24 48 14 14 (225792)
I0403 18:24:42.329336  6928 net.cpp:156] Memory required for data: 874568736
I0403 18:24:42.329356  6928 layer_factory.hpp:77] Creating layer inception_4a/relu_5x5
I0403 18:24:42.329375  6928 net.cpp:91] Creating Layer inception_4a/relu_5x5
I0403 18:24:42.329391  6928 net.cpp:425] inception_4a/relu_5x5 <- inception_4a/5x5
I0403 18:24:42.329408  6928 net.cpp:386] inception_4a/relu_5x5 -> inception_4a/5x5 (in-place)
I0403 18:24:42.329589  6928 net.cpp:141] Setting up inception_4a/relu_5x5
I0403 18:24:42.329614  6928 net.cpp:148] Top shape: 24 48 14 14 (225792)
I0403 18:24:42.329629  6928 net.cpp:156] Memory required for data: 875471904
I0403 18:24:42.329645  6928 layer_factory.hpp:77] Creating layer inception_4a/pool
I0403 18:24:42.329663  6928 net.cpp:91] Creating Layer inception_4a/pool
I0403 18:24:42.329680  6928 net.cpp:425] inception_4a/pool <- pool3/3x3_s2_pool3/3x3_s2_0_split_3
I0403 18:24:42.329701  6928 net.cpp:399] inception_4a/pool -> inception_4a/pool
I0403 18:24:42.329761  6928 net.cpp:141] Setting up inception_4a/pool
I0403 18:24:42.329788  6928 net.cpp:148] Top shape: 24 480 14 14 (2257920)
I0403 18:24:42.329803  6928 net.cpp:156] Memory required for data: 884503584
I0403 18:24:42.329818  6928 layer_factory.hpp:77] Creating layer inception_4a/pool_proj
I0403 18:24:42.329840  6928 net.cpp:91] Creating Layer inception_4a/pool_proj
I0403 18:24:42.329859  6928 net.cpp:425] inception_4a/pool_proj <- inception_4a/pool
I0403 18:24:42.329877  6928 net.cpp:399] inception_4a/pool_proj -> inception_4a/pool_proj
I0403 18:24:42.331049  6928 net.cpp:141] Setting up inception_4a/pool_proj
I0403 18:24:42.331081  6928 net.cpp:148] Top shape: 24 64 14 14 (301056)
I0403 18:24:42.331111  6928 net.cpp:156] Memory required for data: 885707808
I0403 18:24:42.331130  6928 layer_factory.hpp:77] Creating layer inception_4a/relu_pool_proj
I0403 18:24:42.331149  6928 net.cpp:91] Creating Layer inception_4a/relu_pool_proj
I0403 18:24:42.331166  6928 net.cpp:425] inception_4a/relu_pool_proj <- inception_4a/pool_proj
I0403 18:24:42.331185  6928 net.cpp:386] inception_4a/relu_pool_proj -> inception_4a/pool_proj (in-place)
I0403 18:24:42.331470  6928 net.cpp:141] Setting up inception_4a/relu_pool_proj
I0403 18:24:42.331498  6928 net.cpp:148] Top shape: 24 64 14 14 (301056)
I0403 18:24:42.331514  6928 net.cpp:156] Memory required for data: 886912032
I0403 18:24:42.331529  6928 layer_factory.hpp:77] Creating layer inception_4a/output
I0403 18:24:42.331547  6928 net.cpp:91] Creating Layer inception_4a/output
I0403 18:24:42.331562  6928 net.cpp:425] inception_4a/output <- inception_4a/1x1
I0403 18:24:42.331578  6928 net.cpp:425] inception_4a/output <- inception_4a/3x3
I0403 18:24:42.331593  6928 net.cpp:425] inception_4a/output <- inception_4a/5x5
I0403 18:24:42.331609  6928 net.cpp:425] inception_4a/output <- inception_4a/pool_proj
I0403 18:24:42.331627  6928 net.cpp:399] inception_4a/output -> inception_4a/output
I0403 18:24:42.331673  6928 net.cpp:141] Setting up inception_4a/output
I0403 18:24:42.331696  6928 net.cpp:148] Top shape: 24 512 14 14 (2408448)
I0403 18:24:42.331712  6928 net.cpp:156] Memory required for data: 896545824
I0403 18:24:42.331725  6928 layer_factory.hpp:77] Creating layer inception_4a/output_inception_4a/output_0_split
I0403 18:24:42.331746  6928 net.cpp:91] Creating Layer inception_4a/output_inception_4a/output_0_split
I0403 18:24:42.331763  6928 net.cpp:425] inception_4a/output_inception_4a/output_0_split <- inception_4a/output
I0403 18:24:42.331780  6928 net.cpp:399] inception_4a/output_inception_4a/output_0_split -> inception_4a/output_inception_4a/output_0_split_0
I0403 18:24:42.331800  6928 net.cpp:399] inception_4a/output_inception_4a/output_0_split -> inception_4a/output_inception_4a/output_0_split_1
I0403 18:24:42.331823  6928 net.cpp:399] inception_4a/output_inception_4a/output_0_split -> inception_4a/output_inception_4a/output_0_split_2
I0403 18:24:42.331845  6928 net.cpp:399] inception_4a/output_inception_4a/output_0_split -> inception_4a/output_inception_4a/output_0_split_3
I0403 18:24:42.331864  6928 net.cpp:399] inception_4a/output_inception_4a/output_0_split -> inception_4a/output_inception_4a/output_0_split_4
I0403 18:24:42.331959  6928 net.cpp:141] Setting up inception_4a/output_inception_4a/output_0_split
I0403 18:24:42.331982  6928 net.cpp:148] Top shape: 24 512 14 14 (2408448)
I0403 18:24:42.332000  6928 net.cpp:148] Top shape: 24 512 14 14 (2408448)
I0403 18:24:42.332015  6928 net.cpp:148] Top shape: 24 512 14 14 (2408448)
I0403 18:24:42.332031  6928 net.cpp:148] Top shape: 24 512 14 14 (2408448)
I0403 18:24:42.332046  6928 net.cpp:148] Top shape: 24 512 14 14 (2408448)
I0403 18:24:42.332059  6928 net.cpp:156] Memory required for data: 944714784
I0403 18:24:42.332073  6928 layer_factory.hpp:77] Creating layer loss1/ave_pool
I0403 18:24:42.332093  6928 net.cpp:91] Creating Layer loss1/ave_pool
I0403 18:24:42.332110  6928 net.cpp:425] loss1/ave_pool <- inception_4a/output_inception_4a/output_0_split_0
I0403 18:24:42.332129  6928 net.cpp:399] loss1/ave_pool -> loss1/ave_pool
I0403 18:24:42.332348  6928 net.cpp:141] Setting up loss1/ave_pool
I0403 18:24:42.332377  6928 net.cpp:148] Top shape: 24 512 4 4 (196608)
I0403 18:24:42.332392  6928 net.cpp:156] Memory required for data: 945501216
I0403 18:24:42.332407  6928 layer_factory.hpp:77] Creating layer loss1/conv
I0403 18:24:42.332429  6928 net.cpp:91] Creating Layer loss1/conv
I0403 18:24:42.332448  6928 net.cpp:425] loss1/conv <- loss1/ave_pool
I0403 18:24:42.332468  6928 net.cpp:399] loss1/conv -> loss1/conv
I0403 18:24:42.333885  6928 net.cpp:141] Setting up loss1/conv
I0403 18:24:42.333914  6928 net.cpp:148] Top shape: 24 128 4 4 (49152)
I0403 18:24:42.333943  6928 net.cpp:156] Memory required for data: 945697824
I0403 18:24:42.333963  6928 layer_factory.hpp:77] Creating layer loss1/relu_conv
I0403 18:24:42.333984  6928 net.cpp:91] Creating Layer loss1/relu_conv
I0403 18:24:42.334000  6928 net.cpp:425] loss1/relu_conv <- loss1/conv
I0403 18:24:42.334017  6928 net.cpp:386] loss1/relu_conv -> loss1/conv (in-place)
I0403 18:24:42.334306  6928 net.cpp:141] Setting up loss1/relu_conv
I0403 18:24:42.334331  6928 net.cpp:148] Top shape: 24 128 4 4 (49152)
I0403 18:24:42.334347  6928 net.cpp:156] Memory required for data: 945894432
I0403 18:24:42.334362  6928 layer_factory.hpp:77] Creating layer loss1/fc
I0403 18:24:42.334388  6928 net.cpp:91] Creating Layer loss1/fc
I0403 18:24:42.334406  6928 net.cpp:425] loss1/fc <- loss1/conv
I0403 18:24:42.334424  6928 net.cpp:399] loss1/fc -> loss1/fc
I0403 18:24:42.352382  6928 net.cpp:141] Setting up loss1/fc
I0403 18:24:42.352417  6928 net.cpp:148] Top shape: 24 1024 (24576)
I0403 18:24:42.352432  6928 net.cpp:156] Memory required for data: 945992736
I0403 18:24:42.352450  6928 layer_factory.hpp:77] Creating layer loss1/relu_fc
I0403 18:24:42.352468  6928 net.cpp:91] Creating Layer loss1/relu_fc
I0403 18:24:42.352484  6928 net.cpp:425] loss1/relu_fc <- loss1/fc
I0403 18:24:42.352504  6928 net.cpp:386] loss1/relu_fc -> loss1/fc (in-place)
I0403 18:24:42.352687  6928 net.cpp:141] Setting up loss1/relu_fc
I0403 18:24:42.352711  6928 net.cpp:148] Top shape: 24 1024 (24576)
I0403 18:24:42.352726  6928 net.cpp:156] Memory required for data: 946091040
I0403 18:24:42.352741  6928 layer_factory.hpp:77] Creating layer loss1/drop_fc
I0403 18:24:42.352769  6928 net.cpp:91] Creating Layer loss1/drop_fc
I0403 18:24:42.352788  6928 net.cpp:425] loss1/drop_fc <- loss1/fc
I0403 18:24:42.352805  6928 net.cpp:386] loss1/drop_fc -> loss1/fc (in-place)
I0403 18:24:42.352855  6928 net.cpp:141] Setting up loss1/drop_fc
I0403 18:24:42.352877  6928 net.cpp:148] Top shape: 24 1024 (24576)
I0403 18:24:42.352892  6928 net.cpp:156] Memory required for data: 946189344
I0403 18:24:42.352907  6928 layer_factory.hpp:77] Creating layer loss1/classifier_plantvillage
I0403 18:24:42.352929  6928 net.cpp:91] Creating Layer loss1/classifier_plantvillage
I0403 18:24:42.352947  6928 net.cpp:425] loss1/classifier_plantvillage <- loss1/fc
I0403 18:24:42.352967  6928 net.cpp:399] loss1/classifier_plantvillage -> loss1/classifier_plantvillage
I0403 18:24:42.353935  6928 net.cpp:141] Setting up loss1/classifier_plantvillage
I0403 18:24:42.353963  6928 net.cpp:148] Top shape: 24 38 (912)
I0403 18:24:42.353977  6928 net.cpp:156] Memory required for data: 946192992
I0403 18:24:42.353996  6928 layer_factory.hpp:77] Creating layer loss1/classifier_plantvillage_loss1/classifier_plantvillage_0_split
I0403 18:24:42.354014  6928 net.cpp:91] Creating Layer loss1/classifier_plantvillage_loss1/classifier_plantvillage_0_split
I0403 18:24:42.354029  6928 net.cpp:425] loss1/classifier_plantvillage_loss1/classifier_plantvillage_0_split <- loss1/classifier_plantvillage
I0403 18:24:42.354049  6928 net.cpp:399] loss1/classifier_plantvillage_loss1/classifier_plantvillage_0_split -> loss1/classifier_plantvillage_loss1/classifier_plantvillage_0_split_0
I0403 18:24:42.354070  6928 net.cpp:399] loss1/classifier_plantvillage_loss1/classifier_plantvillage_0_split -> loss1/classifier_plantvillage_loss1/classifier_plantvillage_0_split_1
I0403 18:24:42.354091  6928 net.cpp:399] loss1/classifier_plantvillage_loss1/classifier_plantvillage_0_split -> loss1/classifier_plantvillage_loss1/classifier_plantvillage_0_split_2
I0403 18:24:42.354156  6928 net.cpp:141] Setting up loss1/classifier_plantvillage_loss1/classifier_plantvillage_0_split
I0403 18:24:42.354182  6928 net.cpp:148] Top shape: 24 38 (912)
I0403 18:24:42.354199  6928 net.cpp:148] Top shape: 24 38 (912)
I0403 18:24:42.354214  6928 net.cpp:148] Top shape: 24 38 (912)
I0403 18:24:42.354228  6928 net.cpp:156] Memory required for data: 946203936
I0403 18:24:42.354243  6928 layer_factory.hpp:77] Creating layer inception_4b/1x1
I0403 18:24:42.354264  6928 net.cpp:91] Creating Layer inception_4b/1x1
I0403 18:24:42.354300  6928 net.cpp:425] inception_4b/1x1 <- inception_4a/output_inception_4a/output_0_split_1
I0403 18:24:42.354321  6928 net.cpp:399] inception_4b/1x1 -> inception_4b/1x1
I0403 18:24:42.355913  6928 net.cpp:141] Setting up inception_4b/1x1
I0403 18:24:42.355940  6928 net.cpp:148] Top shape: 24 160 14 14 (752640)
I0403 18:24:42.355955  6928 net.cpp:156] Memory required for data: 949214496
I0403 18:24:42.355974  6928 layer_factory.hpp:77] Creating layer inception_4b/relu_1x1
I0403 18:24:42.355994  6928 net.cpp:91] Creating Layer inception_4b/relu_1x1
I0403 18:24:42.356011  6928 net.cpp:425] inception_4b/relu_1x1 <- inception_4b/1x1
I0403 18:24:42.356029  6928 net.cpp:386] inception_4b/relu_1x1 -> inception_4b/1x1 (in-place)
I0403 18:24:42.356204  6928 net.cpp:141] Setting up inception_4b/relu_1x1
I0403 18:24:42.356230  6928 net.cpp:148] Top shape: 24 160 14 14 (752640)
I0403 18:24:42.356245  6928 net.cpp:156] Memory required for data: 952225056
I0403 18:24:42.356258  6928 layer_factory.hpp:77] Creating layer inception_4b/3x3_reduce
I0403 18:24:42.356286  6928 net.cpp:91] Creating Layer inception_4b/3x3_reduce
I0403 18:24:42.356304  6928 net.cpp:425] inception_4b/3x3_reduce <- inception_4a/output_inception_4a/output_0_split_2
I0403 18:24:42.356323  6928 net.cpp:399] inception_4b/3x3_reduce -> inception_4b/3x3_reduce
I0403 18:24:42.357667  6928 net.cpp:141] Setting up inception_4b/3x3_reduce
I0403 18:24:42.357693  6928 net.cpp:148] Top shape: 24 112 14 14 (526848)
I0403 18:24:42.357708  6928 net.cpp:156] Memory required for data: 954332448
I0403 18:24:42.357727  6928 layer_factory.hpp:77] Creating layer inception_4b/relu_3x3_reduce
I0403 18:24:42.357748  6928 net.cpp:91] Creating Layer inception_4b/relu_3x3_reduce
I0403 18:24:42.357766  6928 net.cpp:425] inception_4b/relu_3x3_reduce <- inception_4b/3x3_reduce
I0403 18:24:42.357784  6928 net.cpp:386] inception_4b/relu_3x3_reduce -> inception_4b/3x3_reduce (in-place)
I0403 18:24:42.358062  6928 net.cpp:141] Setting up inception_4b/relu_3x3_reduce
I0403 18:24:42.358088  6928 net.cpp:148] Top shape: 24 112 14 14 (526848)
I0403 18:24:42.358104  6928 net.cpp:156] Memory required for data: 956439840
I0403 18:24:42.358119  6928 layer_factory.hpp:77] Creating layer inception_4b/3x3
I0403 18:24:42.358144  6928 net.cpp:91] Creating Layer inception_4b/3x3
I0403 18:24:42.358160  6928 net.cpp:425] inception_4b/3x3 <- inception_4b/3x3_reduce
I0403 18:24:42.358180  6928 net.cpp:399] inception_4b/3x3 -> inception_4b/3x3
I0403 18:24:42.361124  6928 net.cpp:141] Setting up inception_4b/3x3
I0403 18:24:42.361156  6928 net.cpp:148] Top shape: 24 224 14 14 (1053696)
I0403 18:24:42.361174  6928 net.cpp:156] Memory required for data: 960654624
I0403 18:24:42.361192  6928 layer_factory.hpp:77] Creating layer inception_4b/relu_3x3
I0403 18:24:42.361210  6928 net.cpp:91] Creating Layer inception_4b/relu_3x3
I0403 18:24:42.361227  6928 net.cpp:425] inception_4b/relu_3x3 <- inception_4b/3x3
I0403 18:24:42.361245  6928 net.cpp:386] inception_4b/relu_3x3 -> inception_4b/3x3 (in-place)
I0403 18:24:42.361443  6928 net.cpp:141] Setting up inception_4b/relu_3x3
I0403 18:24:42.361469  6928 net.cpp:148] Top shape: 24 224 14 14 (1053696)
I0403 18:24:42.361484  6928 net.cpp:156] Memory required for data: 964869408
I0403 18:24:42.361498  6928 layer_factory.hpp:77] Creating layer inception_4b/5x5_reduce
I0403 18:24:42.361521  6928 net.cpp:91] Creating Layer inception_4b/5x5_reduce
I0403 18:24:42.361538  6928 net.cpp:425] inception_4b/5x5_reduce <- inception_4a/output_inception_4a/output_0_split_3
I0403 18:24:42.361562  6928 net.cpp:399] inception_4b/5x5_reduce -> inception_4b/5x5_reduce
I0403 18:24:42.362645  6928 net.cpp:141] Setting up inception_4b/5x5_reduce
I0403 18:24:42.362671  6928 net.cpp:148] Top shape: 24 24 14 14 (112896)
I0403 18:24:42.362686  6928 net.cpp:156] Memory required for data: 965320992
I0403 18:24:42.362704  6928 layer_factory.hpp:77] Creating layer inception_4b/relu_5x5_reduce
I0403 18:24:42.362725  6928 net.cpp:91] Creating Layer inception_4b/relu_5x5_reduce
I0403 18:24:42.362757  6928 net.cpp:425] inception_4b/relu_5x5_reduce <- inception_4b/5x5_reduce
I0403 18:24:42.362776  6928 net.cpp:386] inception_4b/relu_5x5_reduce -> inception_4b/5x5_reduce (in-place)
I0403 18:24:42.362958  6928 net.cpp:141] Setting up inception_4b/relu_5x5_reduce
I0403 18:24:42.362987  6928 net.cpp:148] Top shape: 24 24 14 14 (112896)
I0403 18:24:42.363003  6928 net.cpp:156] Memory required for data: 965772576
I0403 18:24:42.363018  6928 layer_factory.hpp:77] Creating layer inception_4b/5x5
I0403 18:24:42.363039  6928 net.cpp:91] Creating Layer inception_4b/5x5
I0403 18:24:42.363057  6928 net.cpp:425] inception_4b/5x5 <- inception_4b/5x5_reduce
I0403 18:24:42.363076  6928 net.cpp:399] inception_4b/5x5 -> inception_4b/5x5
I0403 18:24:42.364277  6928 net.cpp:141] Setting up inception_4b/5x5
I0403 18:24:42.364305  6928 net.cpp:148] Top shape: 24 64 14 14 (301056)
I0403 18:24:42.364321  6928 net.cpp:156] Memory required for data: 966976800
I0403 18:24:42.364341  6928 layer_factory.hpp:77] Creating layer inception_4b/relu_5x5
I0403 18:24:42.364363  6928 net.cpp:91] Creating Layer inception_4b/relu_5x5
I0403 18:24:42.364378  6928 net.cpp:425] inception_4b/relu_5x5 <- inception_4b/5x5
I0403 18:24:42.364398  6928 net.cpp:386] inception_4b/relu_5x5 -> inception_4b/5x5 (in-place)
I0403 18:24:42.364677  6928 net.cpp:141] Setting up inception_4b/relu_5x5
I0403 18:24:42.364703  6928 net.cpp:148] Top shape: 24 64 14 14 (301056)
I0403 18:24:42.364719  6928 net.cpp:156] Memory required for data: 968181024
I0403 18:24:42.364733  6928 layer_factory.hpp:77] Creating layer inception_4b/pool
I0403 18:24:42.364754  6928 net.cpp:91] Creating Layer inception_4b/pool
I0403 18:24:42.364773  6928 net.cpp:425] inception_4b/pool <- inception_4a/output_inception_4a/output_0_split_4
I0403 18:24:42.364791  6928 net.cpp:399] inception_4b/pool -> inception_4b/pool
I0403 18:24:42.364856  6928 net.cpp:141] Setting up inception_4b/pool
I0403 18:24:42.364881  6928 net.cpp:148] Top shape: 24 512 14 14 (2408448)
I0403 18:24:42.364894  6928 net.cpp:156] Memory required for data: 977814816
I0403 18:24:42.364909  6928 layer_factory.hpp:77] Creating layer inception_4b/pool_proj
I0403 18:24:42.364931  6928 net.cpp:91] Creating Layer inception_4b/pool_proj
I0403 18:24:42.364948  6928 net.cpp:425] inception_4b/pool_proj <- inception_4b/pool
I0403 18:24:42.364969  6928 net.cpp:399] inception_4b/pool_proj -> inception_4b/pool_proj
I0403 18:24:42.366178  6928 net.cpp:141] Setting up inception_4b/pool_proj
I0403 18:24:42.366205  6928 net.cpp:148] Top shape: 24 64 14 14 (301056)
I0403 18:24:42.366221  6928 net.cpp:156] Memory required for data: 979019040
I0403 18:24:42.366240  6928 layer_factory.hpp:77] Creating layer inception_4b/relu_pool_proj
I0403 18:24:42.366261  6928 net.cpp:91] Creating Layer inception_4b/relu_pool_proj
I0403 18:24:42.366283  6928 net.cpp:425] inception_4b/relu_pool_proj <- inception_4b/pool_proj
I0403 18:24:42.366302  6928 net.cpp:386] inception_4b/relu_pool_proj -> inception_4b/pool_proj (in-place)
I0403 18:24:42.366484  6928 net.cpp:141] Setting up inception_4b/relu_pool_proj
I0403 18:24:42.366513  6928 net.cpp:148] Top shape: 24 64 14 14 (301056)
I0403 18:24:42.366528  6928 net.cpp:156] Memory required for data: 980223264
I0403 18:24:42.366542  6928 layer_factory.hpp:77] Creating layer inception_4b/output
I0403 18:24:42.366559  6928 net.cpp:91] Creating Layer inception_4b/output
I0403 18:24:42.366575  6928 net.cpp:425] inception_4b/output <- inception_4b/1x1
I0403 18:24:42.366591  6928 net.cpp:425] inception_4b/output <- inception_4b/3x3
I0403 18:24:42.366608  6928 net.cpp:425] inception_4b/output <- inception_4b/5x5
I0403 18:24:42.366623  6928 net.cpp:425] inception_4b/output <- inception_4b/pool_proj
I0403 18:24:42.366641  6928 net.cpp:399] inception_4b/output -> inception_4b/output
I0403 18:24:42.366686  6928 net.cpp:141] Setting up inception_4b/output
I0403 18:24:42.366709  6928 net.cpp:148] Top shape: 24 512 14 14 (2408448)
I0403 18:24:42.366724  6928 net.cpp:156] Memory required for data: 989857056
I0403 18:24:42.366752  6928 layer_factory.hpp:77] Creating layer inception_4b/output_inception_4b/output_0_split
I0403 18:24:42.366770  6928 net.cpp:91] Creating Layer inception_4b/output_inception_4b/output_0_split
I0403 18:24:42.366786  6928 net.cpp:425] inception_4b/output_inception_4b/output_0_split <- inception_4b/output
I0403 18:24:42.366804  6928 net.cpp:399] inception_4b/output_inception_4b/output_0_split -> inception_4b/output_inception_4b/output_0_split_0
I0403 18:24:42.366827  6928 net.cpp:399] inception_4b/output_inception_4b/output_0_split -> inception_4b/output_inception_4b/output_0_split_1
I0403 18:24:42.366847  6928 net.cpp:399] inception_4b/output_inception_4b/output_0_split -> inception_4b/output_inception_4b/output_0_split_2
I0403 18:24:42.366869  6928 net.cpp:399] inception_4b/output_inception_4b/output_0_split -> inception_4b/output_inception_4b/output_0_split_3
I0403 18:24:42.366953  6928 net.cpp:141] Setting up inception_4b/output_inception_4b/output_0_split
I0403 18:24:42.366976  6928 net.cpp:148] Top shape: 24 512 14 14 (2408448)
I0403 18:24:42.366993  6928 net.cpp:148] Top shape: 24 512 14 14 (2408448)
I0403 18:24:42.367008  6928 net.cpp:148] Top shape: 24 512 14 14 (2408448)
I0403 18:24:42.367024  6928 net.cpp:148] Top shape: 24 512 14 14 (2408448)
I0403 18:24:42.367038  6928 net.cpp:156] Memory required for data: 1028392224
I0403 18:24:42.367051  6928 layer_factory.hpp:77] Creating layer inception_4c/1x1
I0403 18:24:42.367074  6928 net.cpp:91] Creating Layer inception_4c/1x1
I0403 18:24:42.367091  6928 net.cpp:425] inception_4c/1x1 <- inception_4b/output_inception_4b/output_0_split_0
I0403 18:24:42.367112  6928 net.cpp:399] inception_4c/1x1 -> inception_4c/1x1
I0403 18:24:42.368510  6928 net.cpp:141] Setting up inception_4c/1x1
I0403 18:24:42.368541  6928 net.cpp:148] Top shape: 24 128 14 14 (602112)
I0403 18:24:42.368556  6928 net.cpp:156] Memory required for data: 1030800672
I0403 18:24:42.368573  6928 layer_factory.hpp:77] Creating layer inception_4c/relu_1x1
I0403 18:24:42.368592  6928 net.cpp:91] Creating Layer inception_4c/relu_1x1
I0403 18:24:42.368607  6928 net.cpp:425] inception_4c/relu_1x1 <- inception_4c/1x1
I0403 18:24:42.368625  6928 net.cpp:386] inception_4c/relu_1x1 -> inception_4c/1x1 (in-place)
I0403 18:24:42.368804  6928 net.cpp:141] Setting up inception_4c/relu_1x1
I0403 18:24:42.368827  6928 net.cpp:148] Top shape: 24 128 14 14 (602112)
I0403 18:24:42.368841  6928 net.cpp:156] Memory required for data: 1033209120
I0403 18:24:42.368856  6928 layer_factory.hpp:77] Creating layer inception_4c/3x3_reduce
I0403 18:24:42.368878  6928 net.cpp:91] Creating Layer inception_4c/3x3_reduce
I0403 18:24:42.368896  6928 net.cpp:425] inception_4c/3x3_reduce <- inception_4b/output_inception_4b/output_0_split_1
I0403 18:24:42.368916  6928 net.cpp:399] inception_4c/3x3_reduce -> inception_4c/3x3_reduce
I0403 18:24:42.370869  6928 net.cpp:141] Setting up inception_4c/3x3_reduce
I0403 18:24:42.370898  6928 net.cpp:148] Top shape: 24 128 14 14 (602112)
I0403 18:24:42.370911  6928 net.cpp:156] Memory required for data: 1035617568
I0403 18:24:42.370930  6928 layer_factory.hpp:77] Creating layer inception_4c/relu_3x3_reduce
I0403 18:24:42.370949  6928 net.cpp:91] Creating Layer inception_4c/relu_3x3_reduce
I0403 18:24:42.370966  6928 net.cpp:425] inception_4c/relu_3x3_reduce <- inception_4c/3x3_reduce
I0403 18:24:42.370983  6928 net.cpp:386] inception_4c/relu_3x3_reduce -> inception_4c/3x3_reduce (in-place)
I0403 18:24:42.371260  6928 net.cpp:141] Setting up inception_4c/relu_3x3_reduce
I0403 18:24:42.371289  6928 net.cpp:148] Top shape: 24 128 14 14 (602112)
I0403 18:24:42.371304  6928 net.cpp:156] Memory required for data: 1038026016
I0403 18:24:42.371318  6928 layer_factory.hpp:77] Creating layer inception_4c/3x3
I0403 18:24:42.371340  6928 net.cpp:91] Creating Layer inception_4c/3x3
I0403 18:24:42.371357  6928 net.cpp:425] inception_4c/3x3 <- inception_4c/3x3_reduce
I0403 18:24:42.371378  6928 net.cpp:399] inception_4c/3x3 -> inception_4c/3x3
I0403 18:24:42.375053  6928 net.cpp:141] Setting up inception_4c/3x3
I0403 18:24:42.375095  6928 net.cpp:148] Top shape: 24 256 14 14 (1204224)
I0403 18:24:42.375111  6928 net.cpp:156] Memory required for data: 1042842912
I0403 18:24:42.375143  6928 layer_factory.hpp:77] Creating layer inception_4c/relu_3x3
I0403 18:24:42.375165  6928 net.cpp:91] Creating Layer inception_4c/relu_3x3
I0403 18:24:42.375182  6928 net.cpp:425] inception_4c/relu_3x3 <- inception_4c/3x3
I0403 18:24:42.375200  6928 net.cpp:386] inception_4c/relu_3x3 -> inception_4c/3x3 (in-place)
I0403 18:24:42.375391  6928 net.cpp:141] Setting up inception_4c/relu_3x3
I0403 18:24:42.375416  6928 net.cpp:148] Top shape: 24 256 14 14 (1204224)
I0403 18:24:42.375430  6928 net.cpp:156] Memory required for data: 1047659808
I0403 18:24:42.375447  6928 layer_factory.hpp:77] Creating layer inception_4c/5x5_reduce
I0403 18:24:42.375468  6928 net.cpp:91] Creating Layer inception_4c/5x5_reduce
I0403 18:24:42.375485  6928 net.cpp:425] inception_4c/5x5_reduce <- inception_4b/output_inception_4b/output_0_split_2
I0403 18:24:42.375509  6928 net.cpp:399] inception_4c/5x5_reduce -> inception_4c/5x5_reduce
I0403 18:24:42.376624  6928 net.cpp:141] Setting up inception_4c/5x5_reduce
I0403 18:24:42.376652  6928 net.cpp:148] Top shape: 24 24 14 14 (112896)
I0403 18:24:42.376667  6928 net.cpp:156] Memory required for data: 1048111392
I0403 18:24:42.376685  6928 layer_factory.hpp:77] Creating layer inception_4c/relu_5x5_reduce
I0403 18:24:42.376706  6928 net.cpp:91] Creating Layer inception_4c/relu_5x5_reduce
I0403 18:24:42.376724  6928 net.cpp:425] inception_4c/relu_5x5_reduce <- inception_4c/5x5_reduce
I0403 18:24:42.376741  6928 net.cpp:386] inception_4c/relu_5x5_reduce -> inception_4c/5x5_reduce (in-place)
I0403 18:24:42.376927  6928 net.cpp:141] Setting up inception_4c/relu_5x5_reduce
I0403 18:24:42.376955  6928 net.cpp:148] Top shape: 24 24 14 14 (112896)
I0403 18:24:42.376971  6928 net.cpp:156] Memory required for data: 1048562976
I0403 18:24:42.376986  6928 layer_factory.hpp:77] Creating layer inception_4c/5x5
I0403 18:24:42.377007  6928 net.cpp:91] Creating Layer inception_4c/5x5
I0403 18:24:42.377025  6928 net.cpp:425] inception_4c/5x5 <- inception_4c/5x5_reduce
I0403 18:24:42.377043  6928 net.cpp:399] inception_4c/5x5 -> inception_4c/5x5
I0403 18:24:42.378347  6928 net.cpp:141] Setting up inception_4c/5x5
I0403 18:24:42.378376  6928 net.cpp:148] Top shape: 24 64 14 14 (301056)
I0403 18:24:42.378393  6928 net.cpp:156] Memory required for data: 1049767200
I0403 18:24:42.378412  6928 layer_factory.hpp:77] Creating layer inception_4c/relu_5x5
I0403 18:24:42.378432  6928 net.cpp:91] Creating Layer inception_4c/relu_5x5
I0403 18:24:42.378448  6928 net.cpp:425] inception_4c/relu_5x5 <- inception_4c/5x5
I0403 18:24:42.378468  6928 net.cpp:386] inception_4c/relu_5x5 -> inception_4c/5x5 (in-place)
I0403 18:24:42.378757  6928 net.cpp:141] Setting up inception_4c/relu_5x5
I0403 18:24:42.378787  6928 net.cpp:148] Top shape: 24 64 14 14 (301056)
I0403 18:24:42.378803  6928 net.cpp:156] Memory required for data: 1050971424
I0403 18:24:42.378818  6928 layer_factory.hpp:77] Creating layer inception_4c/pool
I0403 18:24:42.378835  6928 net.cpp:91] Creating Layer inception_4c/pool
I0403 18:24:42.378851  6928 net.cpp:425] inception_4c/pool <- inception_4b/output_inception_4b/output_0_split_3
I0403 18:24:42.378871  6928 net.cpp:399] inception_4c/pool -> inception_4c/pool
I0403 18:24:42.378937  6928 net.cpp:141] Setting up inception_4c/pool
I0403 18:24:42.378962  6928 net.cpp:148] Top shape: 24 512 14 14 (2408448)
I0403 18:24:42.378978  6928 net.cpp:156] Memory required for data: 1060605216
I0403 18:24:42.378991  6928 layer_factory.hpp:77] Creating layer inception_4c/pool_proj
I0403 18:24:42.379014  6928 net.cpp:91] Creating Layer inception_4c/pool_proj
I0403 18:24:42.379030  6928 net.cpp:425] inception_4c/pool_proj <- inception_4c/pool
I0403 18:24:42.379051  6928 net.cpp:399] inception_4c/pool_proj -> inception_4c/pool_proj
I0403 18:24:42.380331  6928 net.cpp:141] Setting up inception_4c/pool_proj
I0403 18:24:42.380360  6928 net.cpp:148] Top shape: 24 64 14 14 (301056)
I0403 18:24:42.380391  6928 net.cpp:156] Memory required for data: 1061809440
I0403 18:24:42.380410  6928 layer_factory.hpp:77] Creating layer inception_4c/relu_pool_proj
I0403 18:24:42.380432  6928 net.cpp:91] Creating Layer inception_4c/relu_pool_proj
I0403 18:24:42.380450  6928 net.cpp:425] inception_4c/relu_pool_proj <- inception_4c/pool_proj
I0403 18:24:42.380468  6928 net.cpp:386] inception_4c/relu_pool_proj -> inception_4c/pool_proj (in-place)
I0403 18:24:42.380662  6928 net.cpp:141] Setting up inception_4c/relu_pool_proj
I0403 18:24:42.380688  6928 net.cpp:148] Top shape: 24 64 14 14 (301056)
I0403 18:24:42.380703  6928 net.cpp:156] Memory required for data: 1063013664
I0403 18:24:42.380718  6928 layer_factory.hpp:77] Creating layer inception_4c/output
I0403 18:24:42.380738  6928 net.cpp:91] Creating Layer inception_4c/output
I0403 18:24:42.380755  6928 net.cpp:425] inception_4c/output <- inception_4c/1x1
I0403 18:24:42.380774  6928 net.cpp:425] inception_4c/output <- inception_4c/3x3
I0403 18:24:42.380789  6928 net.cpp:425] inception_4c/output <- inception_4c/5x5
I0403 18:24:42.380806  6928 net.cpp:425] inception_4c/output <- inception_4c/pool_proj
I0403 18:24:42.380825  6928 net.cpp:399] inception_4c/output -> inception_4c/output
I0403 18:24:42.380873  6928 net.cpp:141] Setting up inception_4c/output
I0403 18:24:42.380897  6928 net.cpp:148] Top shape: 24 512 14 14 (2408448)
I0403 18:24:42.380913  6928 net.cpp:156] Memory required for data: 1072647456
I0403 18:24:42.380928  6928 layer_factory.hpp:77] Creating layer inception_4c/output_inception_4c/output_0_split
I0403 18:24:42.380945  6928 net.cpp:91] Creating Layer inception_4c/output_inception_4c/output_0_split
I0403 18:24:42.380962  6928 net.cpp:425] inception_4c/output_inception_4c/output_0_split <- inception_4c/output
I0403 18:24:42.380982  6928 net.cpp:399] inception_4c/output_inception_4c/output_0_split -> inception_4c/output_inception_4c/output_0_split_0
I0403 18:24:42.381006  6928 net.cpp:399] inception_4c/output_inception_4c/output_0_split -> inception_4c/output_inception_4c/output_0_split_1
I0403 18:24:42.381026  6928 net.cpp:399] inception_4c/output_inception_4c/output_0_split -> inception_4c/output_inception_4c/output_0_split_2
I0403 18:24:42.381048  6928 net.cpp:399] inception_4c/output_inception_4c/output_0_split -> inception_4c/output_inception_4c/output_0_split_3
I0403 18:24:42.381145  6928 net.cpp:141] Setting up inception_4c/output_inception_4c/output_0_split
I0403 18:24:42.381170  6928 net.cpp:148] Top shape: 24 512 14 14 (2408448)
I0403 18:24:42.381186  6928 net.cpp:148] Top shape: 24 512 14 14 (2408448)
I0403 18:24:42.381202  6928 net.cpp:148] Top shape: 24 512 14 14 (2408448)
I0403 18:24:42.381219  6928 net.cpp:148] Top shape: 24 512 14 14 (2408448)
I0403 18:24:42.381233  6928 net.cpp:156] Memory required for data: 1111182624
I0403 18:24:42.381248  6928 layer_factory.hpp:77] Creating layer inception_4d/1x1
I0403 18:24:42.381275  6928 net.cpp:91] Creating Layer inception_4d/1x1
I0403 18:24:42.381309  6928 net.cpp:425] inception_4d/1x1 <- inception_4c/output_inception_4c/output_0_split_0
I0403 18:24:42.381330  6928 net.cpp:399] inception_4d/1x1 -> inception_4d/1x1
I0403 18:24:42.382791  6928 net.cpp:141] Setting up inception_4d/1x1
I0403 18:24:42.382820  6928 net.cpp:148] Top shape: 24 112 14 14 (526848)
I0403 18:24:42.382836  6928 net.cpp:156] Memory required for data: 1113290016
I0403 18:24:42.382855  6928 layer_factory.hpp:77] Creating layer inception_4d/relu_1x1
I0403 18:24:42.382874  6928 net.cpp:91] Creating Layer inception_4d/relu_1x1
I0403 18:24:42.382891  6928 net.cpp:425] inception_4d/relu_1x1 <- inception_4d/1x1
I0403 18:24:42.382911  6928 net.cpp:386] inception_4d/relu_1x1 -> inception_4d/1x1 (in-place)
I0403 18:24:42.383103  6928 net.cpp:141] Setting up inception_4d/relu_1x1
I0403 18:24:42.383129  6928 net.cpp:148] Top shape: 24 112 14 14 (526848)
I0403 18:24:42.383144  6928 net.cpp:156] Memory required for data: 1115397408
I0403 18:24:42.383160  6928 layer_factory.hpp:77] Creating layer inception_4d/3x3_reduce
I0403 18:24:42.383198  6928 net.cpp:91] Creating Layer inception_4d/3x3_reduce
I0403 18:24:42.383218  6928 net.cpp:425] inception_4d/3x3_reduce <- inception_4c/output_inception_4c/output_0_split_1
I0403 18:24:42.383240  6928 net.cpp:399] inception_4d/3x3_reduce -> inception_4d/3x3_reduce
I0403 18:24:42.384807  6928 net.cpp:141] Setting up inception_4d/3x3_reduce
I0403 18:24:42.384837  6928 net.cpp:148] Top shape: 24 144 14 14 (677376)
I0403 18:24:42.384855  6928 net.cpp:156] Memory required for data: 1118106912
I0403 18:24:42.384873  6928 layer_factory.hpp:77] Creating layer inception_4d/relu_3x3_reduce
I0403 18:24:42.384892  6928 net.cpp:91] Creating Layer inception_4d/relu_3x3_reduce
I0403 18:24:42.384909  6928 net.cpp:425] inception_4d/relu_3x3_reduce <- inception_4d/3x3_reduce
I0403 18:24:42.384927  6928 net.cpp:386] inception_4d/relu_3x3_reduce -> inception_4d/3x3_reduce (in-place)
I0403 18:24:42.385223  6928 net.cpp:141] Setting up inception_4d/relu_3x3_reduce
I0403 18:24:42.385254  6928 net.cpp:148] Top shape: 24 144 14 14 (677376)
I0403 18:24:42.385274  6928 net.cpp:156] Memory required for data: 1120816416
I0403 18:24:42.385304  6928 layer_factory.hpp:77] Creating layer inception_4d/3x3
I0403 18:24:42.385329  6928 net.cpp:91] Creating Layer inception_4d/3x3
I0403 18:24:42.385346  6928 net.cpp:425] inception_4d/3x3 <- inception_4d/3x3_reduce
I0403 18:24:42.385366  6928 net.cpp:399] inception_4d/3x3 -> inception_4d/3x3
I0403 18:24:42.389914  6928 net.cpp:141] Setting up inception_4d/3x3
I0403 18:24:42.389945  6928 net.cpp:148] Top shape: 24 288 14 14 (1354752)
I0403 18:24:42.389961  6928 net.cpp:156] Memory required for data: 1126235424
I0403 18:24:42.389981  6928 layer_factory.hpp:77] Creating layer inception_4d/relu_3x3
I0403 18:24:42.390000  6928 net.cpp:91] Creating Layer inception_4d/relu_3x3
I0403 18:24:42.390017  6928 net.cpp:425] inception_4d/relu_3x3 <- inception_4d/3x3
I0403 18:24:42.390038  6928 net.cpp:386] inception_4d/relu_3x3 -> inception_4d/3x3 (in-place)
I0403 18:24:42.390233  6928 net.cpp:141] Setting up inception_4d/relu_3x3
I0403 18:24:42.390259  6928 net.cpp:148] Top shape: 24 288 14 14 (1354752)
I0403 18:24:42.390278  6928 net.cpp:156] Memory required for data: 1131654432
I0403 18:24:42.390293  6928 layer_factory.hpp:77] Creating layer inception_4d/5x5_reduce
I0403 18:24:42.390316  6928 net.cpp:91] Creating Layer inception_4d/5x5_reduce
I0403 18:24:42.390334  6928 net.cpp:425] inception_4d/5x5_reduce <- inception_4c/output_inception_4c/output_0_split_2
I0403 18:24:42.390357  6928 net.cpp:399] inception_4d/5x5_reduce -> inception_4d/5x5_reduce
I0403 18:24:42.391561  6928 net.cpp:141] Setting up inception_4d/5x5_reduce
I0403 18:24:42.391589  6928 net.cpp:148] Top shape: 24 32 14 14 (150528)
I0403 18:24:42.391605  6928 net.cpp:156] Memory required for data: 1132256544
I0403 18:24:42.391623  6928 layer_factory.hpp:77] Creating layer inception_4d/relu_5x5_reduce
I0403 18:24:42.391641  6928 net.cpp:91] Creating Layer inception_4d/relu_5x5_reduce
I0403 18:24:42.391662  6928 net.cpp:425] inception_4d/relu_5x5_reduce <- inception_4d/5x5_reduce
I0403 18:24:42.391681  6928 net.cpp:386] inception_4d/relu_5x5_reduce -> inception_4d/5x5_reduce (in-place)
I0403 18:24:42.391876  6928 net.cpp:141] Setting up inception_4d/relu_5x5_reduce
I0403 18:24:42.391903  6928 net.cpp:148] Top shape: 24 32 14 14 (150528)
I0403 18:24:42.391917  6928 net.cpp:156] Memory required for data: 1132858656
I0403 18:24:42.391932  6928 layer_factory.hpp:77] Creating layer inception_4d/5x5
I0403 18:24:42.391957  6928 net.cpp:91] Creating Layer inception_4d/5x5
I0403 18:24:42.391974  6928 net.cpp:425] inception_4d/5x5 <- inception_4d/5x5_reduce
I0403 18:24:42.391996  6928 net.cpp:399] inception_4d/5x5 -> inception_4d/5x5
I0403 18:24:42.393550  6928 net.cpp:141] Setting up inception_4d/5x5
I0403 18:24:42.393591  6928 net.cpp:148] Top shape: 24 64 14 14 (301056)
I0403 18:24:42.393607  6928 net.cpp:156] Memory required for data: 1134062880
I0403 18:24:42.393628  6928 layer_factory.hpp:77] Creating layer inception_4d/relu_5x5
I0403 18:24:42.393666  6928 net.cpp:91] Creating Layer inception_4d/relu_5x5
I0403 18:24:42.393684  6928 net.cpp:425] inception_4d/relu_5x5 <- inception_4d/5x5
I0403 18:24:42.393703  6928 net.cpp:386] inception_4d/relu_5x5 -> inception_4d/5x5 (in-place)
I0403 18:24:42.394017  6928 net.cpp:141] Setting up inception_4d/relu_5x5
I0403 18:24:42.394044  6928 net.cpp:148] Top shape: 24 64 14 14 (301056)
I0403 18:24:42.394059  6928 net.cpp:156] Memory required for data: 1135267104
I0403 18:24:42.394075  6928 layer_factory.hpp:77] Creating layer inception_4d/pool
I0403 18:24:42.394098  6928 net.cpp:91] Creating Layer inception_4d/pool
I0403 18:24:42.394115  6928 net.cpp:425] inception_4d/pool <- inception_4c/output_inception_4c/output_0_split_3
I0403 18:24:42.394134  6928 net.cpp:399] inception_4d/pool -> inception_4d/pool
I0403 18:24:42.394203  6928 net.cpp:141] Setting up inception_4d/pool
I0403 18:24:42.394228  6928 net.cpp:148] Top shape: 24 512 14 14 (2408448)
I0403 18:24:42.394243  6928 net.cpp:156] Memory required for data: 1144900896
I0403 18:24:42.394259  6928 layer_factory.hpp:77] Creating layer inception_4d/pool_proj
I0403 18:24:42.394286  6928 net.cpp:91] Creating Layer inception_4d/pool_proj
I0403 18:24:42.394306  6928 net.cpp:425] inception_4d/pool_proj <- inception_4d/pool
I0403 18:24:42.394328  6928 net.cpp:399] inception_4d/pool_proj -> inception_4d/pool_proj
I0403 18:24:42.396188  6928 net.cpp:141] Setting up inception_4d/pool_proj
I0403 18:24:42.396219  6928 net.cpp:148] Top shape: 24 64 14 14 (301056)
I0403 18:24:42.396234  6928 net.cpp:156] Memory required for data: 1146105120
I0403 18:24:42.396255  6928 layer_factory.hpp:77] Creating layer inception_4d/relu_pool_proj
I0403 18:24:42.396276  6928 net.cpp:91] Creating Layer inception_4d/relu_pool_proj
I0403 18:24:42.396294  6928 net.cpp:425] inception_4d/relu_pool_proj <- inception_4d/pool_proj
I0403 18:24:42.396314  6928 net.cpp:386] inception_4d/relu_pool_proj -> inception_4d/pool_proj (in-place)
I0403 18:24:42.396507  6928 net.cpp:141] Setting up inception_4d/relu_pool_proj
I0403 18:24:42.396533  6928 net.cpp:148] Top shape: 24 64 14 14 (301056)
I0403 18:24:42.396549  6928 net.cpp:156] Memory required for data: 1147309344
I0403 18:24:42.396565  6928 layer_factory.hpp:77] Creating layer inception_4d/output
I0403 18:24:42.396585  6928 net.cpp:91] Creating Layer inception_4d/output
I0403 18:24:42.396602  6928 net.cpp:425] inception_4d/output <- inception_4d/1x1
I0403 18:24:42.396620  6928 net.cpp:425] inception_4d/output <- inception_4d/3x3
I0403 18:24:42.396636  6928 net.cpp:425] inception_4d/output <- inception_4d/5x5
I0403 18:24:42.396653  6928 net.cpp:425] inception_4d/output <- inception_4d/pool_proj
I0403 18:24:42.396670  6928 net.cpp:399] inception_4d/output -> inception_4d/output
I0403 18:24:42.396721  6928 net.cpp:141] Setting up inception_4d/output
I0403 18:24:42.396745  6928 net.cpp:148] Top shape: 24 528 14 14 (2483712)
I0403 18:24:42.396760  6928 net.cpp:156] Memory required for data: 1157244192
I0403 18:24:42.396776  6928 layer_factory.hpp:77] Creating layer inception_4d/output_inception_4d/output_0_split
I0403 18:24:42.396795  6928 net.cpp:91] Creating Layer inception_4d/output_inception_4d/output_0_split
I0403 18:24:42.396811  6928 net.cpp:425] inception_4d/output_inception_4d/output_0_split <- inception_4d/output
I0403 18:24:42.396832  6928 net.cpp:399] inception_4d/output_inception_4d/output_0_split -> inception_4d/output_inception_4d/output_0_split_0
I0403 18:24:42.396855  6928 net.cpp:399] inception_4d/output_inception_4d/output_0_split -> inception_4d/output_inception_4d/output_0_split_1
I0403 18:24:42.396877  6928 net.cpp:399] inception_4d/output_inception_4d/output_0_split -> inception_4d/output_inception_4d/output_0_split_2
I0403 18:24:42.396898  6928 net.cpp:399] inception_4d/output_inception_4d/output_0_split -> inception_4d/output_inception_4d/output_0_split_3
I0403 18:24:42.396919  6928 net.cpp:399] inception_4d/output_inception_4d/output_0_split -> inception_4d/output_inception_4d/output_0_split_4
I0403 18:24:42.397032  6928 net.cpp:141] Setting up inception_4d/output_inception_4d/output_0_split
I0403 18:24:42.397068  6928 net.cpp:148] Top shape: 24 528 14 14 (2483712)
I0403 18:24:42.397088  6928 net.cpp:148] Top shape: 24 528 14 14 (2483712)
I0403 18:24:42.397105  6928 net.cpp:148] Top shape: 24 528 14 14 (2483712)
I0403 18:24:42.397121  6928 net.cpp:148] Top shape: 24 528 14 14 (2483712)
I0403 18:24:42.397136  6928 net.cpp:148] Top shape: 24 528 14 14 (2483712)
I0403 18:24:42.397151  6928 net.cpp:156] Memory required for data: 1206918432
I0403 18:24:42.397166  6928 layer_factory.hpp:77] Creating layer loss2/ave_pool
I0403 18:24:42.397184  6928 net.cpp:91] Creating Layer loss2/ave_pool
I0403 18:24:42.397202  6928 net.cpp:425] loss2/ave_pool <- inception_4d/output_inception_4d/output_0_split_0
I0403 18:24:42.397222  6928 net.cpp:399] loss2/ave_pool -> loss2/ave_pool
I0403 18:24:42.397593  6928 net.cpp:141] Setting up loss2/ave_pool
I0403 18:24:42.397619  6928 net.cpp:148] Top shape: 24 528 4 4 (202752)
I0403 18:24:42.397634  6928 net.cpp:156] Memory required for data: 1207729440
I0403 18:24:42.397650  6928 layer_factory.hpp:77] Creating layer loss2/conv
I0403 18:24:42.397671  6928 net.cpp:91] Creating Layer loss2/conv
I0403 18:24:42.397691  6928 net.cpp:425] loss2/conv <- loss2/ave_pool
I0403 18:24:42.397712  6928 net.cpp:399] loss2/conv -> loss2/conv
I0403 18:24:42.399665  6928 net.cpp:141] Setting up loss2/conv
I0403 18:24:42.399694  6928 net.cpp:148] Top shape: 24 128 4 4 (49152)
I0403 18:24:42.399713  6928 net.cpp:156] Memory required for data: 1207926048
I0403 18:24:42.399731  6928 layer_factory.hpp:77] Creating layer loss2/relu_conv
I0403 18:24:42.399750  6928 net.cpp:91] Creating Layer loss2/relu_conv
I0403 18:24:42.399766  6928 net.cpp:425] loss2/relu_conv <- loss2/conv
I0403 18:24:42.399785  6928 net.cpp:386] loss2/relu_conv -> loss2/conv (in-place)
I0403 18:24:42.400075  6928 net.cpp:141] Setting up loss2/relu_conv
I0403 18:24:42.400101  6928 net.cpp:148] Top shape: 24 128 4 4 (49152)
I0403 18:24:42.400120  6928 net.cpp:156] Memory required for data: 1208122656
I0403 18:24:42.400136  6928 layer_factory.hpp:77] Creating layer loss2/fc
I0403 18:24:42.400156  6928 net.cpp:91] Creating Layer loss2/fc
I0403 18:24:42.400172  6928 net.cpp:425] loss2/fc <- loss2/conv
I0403 18:24:42.400193  6928 net.cpp:399] loss2/fc -> loss2/fc
I0403 18:24:42.418246  6928 net.cpp:141] Setting up loss2/fc
I0403 18:24:42.418287  6928 net.cpp:148] Top shape: 24 1024 (24576)
I0403 18:24:42.418303  6928 net.cpp:156] Memory required for data: 1208220960
I0403 18:24:42.418321  6928 layer_factory.hpp:77] Creating layer loss2/relu_fc
I0403 18:24:42.418342  6928 net.cpp:91] Creating Layer loss2/relu_fc
I0403 18:24:42.418360  6928 net.cpp:425] loss2/relu_fc <- loss2/fc
I0403 18:24:42.418378  6928 net.cpp:386] loss2/relu_fc -> loss2/fc (in-place)
I0403 18:24:42.418720  6928 net.cpp:141] Setting up loss2/relu_fc
I0403 18:24:42.418745  6928 net.cpp:148] Top shape: 24 1024 (24576)
I0403 18:24:42.418761  6928 net.cpp:156] Memory required for data: 1208319264
I0403 18:24:42.418774  6928 layer_factory.hpp:77] Creating layer loss2/drop_fc
I0403 18:24:42.418793  6928 net.cpp:91] Creating Layer loss2/drop_fc
I0403 18:24:42.418812  6928 net.cpp:425] loss2/drop_fc <- loss2/fc
I0403 18:24:42.418828  6928 net.cpp:386] loss2/drop_fc -> loss2/fc (in-place)
I0403 18:24:42.418874  6928 net.cpp:141] Setting up loss2/drop_fc
I0403 18:24:42.418900  6928 net.cpp:148] Top shape: 24 1024 (24576)
I0403 18:24:42.418913  6928 net.cpp:156] Memory required for data: 1208417568
I0403 18:24:42.418927  6928 layer_factory.hpp:77] Creating layer loss2/classifier_plantvillage
I0403 18:24:42.418946  6928 net.cpp:91] Creating Layer loss2/classifier_plantvillage
I0403 18:24:42.418961  6928 net.cpp:425] loss2/classifier_plantvillage <- loss2/fc
I0403 18:24:42.418982  6928 net.cpp:399] loss2/classifier_plantvillage -> loss2/classifier_plantvillage
I0403 18:24:42.419389  6928 net.cpp:141] Setting up loss2/classifier_plantvillage
I0403 18:24:42.419415  6928 net.cpp:148] Top shape: 24 38 (912)
I0403 18:24:42.419452  6928 net.cpp:156] Memory required for data: 1208421216
I0403 18:24:42.419472  6928 layer_factory.hpp:77] Creating layer loss2/classifier_plantvillage_loss2/classifier_plantvillage_0_split
I0403 18:24:42.419492  6928 net.cpp:91] Creating Layer loss2/classifier_plantvillage_loss2/classifier_plantvillage_0_split
I0403 18:24:42.419507  6928 net.cpp:425] loss2/classifier_plantvillage_loss2/classifier_plantvillage_0_split <- loss2/classifier_plantvillage
I0403 18:24:42.419525  6928 net.cpp:399] loss2/classifier_plantvillage_loss2/classifier_plantvillage_0_split -> loss2/classifier_plantvillage_loss2/classifier_plantvillage_0_split_0
I0403 18:24:42.419544  6928 net.cpp:399] loss2/classifier_plantvillage_loss2/classifier_plantvillage_0_split -> loss2/classifier_plantvillage_loss2/classifier_plantvillage_0_split_1
I0403 18:24:42.419566  6928 net.cpp:399] loss2/classifier_plantvillage_loss2/classifier_plantvillage_0_split -> loss2/classifier_plantvillage_loss2/classifier_plantvillage_0_split_2
I0403 18:24:42.419644  6928 net.cpp:141] Setting up loss2/classifier_plantvillage_loss2/classifier_plantvillage_0_split
I0403 18:24:42.419667  6928 net.cpp:148] Top shape: 24 38 (912)
I0403 18:24:42.419682  6928 net.cpp:148] Top shape: 24 38 (912)
I0403 18:24:42.419697  6928 net.cpp:148] Top shape: 24 38 (912)
I0403 18:24:42.419710  6928 net.cpp:156] Memory required for data: 1208432160
I0403 18:24:42.419724  6928 layer_factory.hpp:77] Creating layer inception_4e/1x1
I0403 18:24:42.419746  6928 net.cpp:91] Creating Layer inception_4e/1x1
I0403 18:24:42.419764  6928 net.cpp:425] inception_4e/1x1 <- inception_4d/output_inception_4d/output_0_split_1
I0403 18:24:42.419785  6928 net.cpp:399] inception_4e/1x1 -> inception_4e/1x1
I0403 18:24:42.421620  6928 net.cpp:141] Setting up inception_4e/1x1
I0403 18:24:42.421648  6928 net.cpp:148] Top shape: 24 256 14 14 (1204224)
I0403 18:24:42.421663  6928 net.cpp:156] Memory required for data: 1213249056
I0403 18:24:42.421681  6928 layer_factory.hpp:77] Creating layer inception_4e/relu_1x1
I0403 18:24:42.421701  6928 net.cpp:91] Creating Layer inception_4e/relu_1x1
I0403 18:24:42.421717  6928 net.cpp:425] inception_4e/relu_1x1 <- inception_4e/1x1
I0403 18:24:42.421733  6928 net.cpp:386] inception_4e/relu_1x1 -> inception_4e/1x1 (in-place)
I0403 18:24:42.422029  6928 net.cpp:141] Setting up inception_4e/relu_1x1
I0403 18:24:42.422054  6928 net.cpp:148] Top shape: 24 256 14 14 (1204224)
I0403 18:24:42.422068  6928 net.cpp:156] Memory required for data: 1218065952
I0403 18:24:42.422082  6928 layer_factory.hpp:77] Creating layer inception_4e/3x3_reduce
I0403 18:24:42.422107  6928 net.cpp:91] Creating Layer inception_4e/3x3_reduce
I0403 18:24:42.422123  6928 net.cpp:425] inception_4e/3x3_reduce <- inception_4d/output_inception_4d/output_0_split_2
I0403 18:24:42.422142  6928 net.cpp:399] inception_4e/3x3_reduce -> inception_4e/3x3_reduce
I0403 18:24:42.424259  6928 net.cpp:141] Setting up inception_4e/3x3_reduce
I0403 18:24:42.424291  6928 net.cpp:148] Top shape: 24 160 14 14 (752640)
I0403 18:24:42.424307  6928 net.cpp:156] Memory required for data: 1221076512
I0403 18:24:42.424325  6928 layer_factory.hpp:77] Creating layer inception_4e/relu_3x3_reduce
I0403 18:24:42.424345  6928 net.cpp:91] Creating Layer inception_4e/relu_3x3_reduce
I0403 18:24:42.424362  6928 net.cpp:425] inception_4e/relu_3x3_reduce <- inception_4e/3x3_reduce
I0403 18:24:42.424378  6928 net.cpp:386] inception_4e/relu_3x3_reduce -> inception_4e/3x3_reduce (in-place)
I0403 18:24:42.424562  6928 net.cpp:141] Setting up inception_4e/relu_3x3_reduce
I0403 18:24:42.424590  6928 net.cpp:148] Top shape: 24 160 14 14 (752640)
I0403 18:24:42.424605  6928 net.cpp:156] Memory required for data: 1224087072
I0403 18:24:42.424619  6928 layer_factory.hpp:77] Creating layer inception_4e/3x3
I0403 18:24:42.424641  6928 net.cpp:91] Creating Layer inception_4e/3x3
I0403 18:24:42.424659  6928 net.cpp:425] inception_4e/3x3 <- inception_4e/3x3_reduce
I0403 18:24:42.424676  6928 net.cpp:399] inception_4e/3x3 -> inception_4e/3x3
I0403 18:24:42.429703  6928 net.cpp:141] Setting up inception_4e/3x3
I0403 18:24:42.429746  6928 net.cpp:148] Top shape: 24 320 14 14 (1505280)
I0403 18:24:42.429764  6928 net.cpp:156] Memory required for data: 1230108192
I0403 18:24:42.429781  6928 layer_factory.hpp:77] Creating layer inception_4e/relu_3x3
I0403 18:24:42.429800  6928 net.cpp:91] Creating Layer inception_4e/relu_3x3
I0403 18:24:42.429814  6928 net.cpp:425] inception_4e/relu_3x3 <- inception_4e/3x3
I0403 18:24:42.429834  6928 net.cpp:386] inception_4e/relu_3x3 -> inception_4e/3x3 (in-place)
I0403 18:24:42.430129  6928 net.cpp:141] Setting up inception_4e/relu_3x3
I0403 18:24:42.430155  6928 net.cpp:148] Top shape: 24 320 14 14 (1505280)
I0403 18:24:42.430169  6928 net.cpp:156] Memory required for data: 1236129312
I0403 18:24:42.430184  6928 layer_factory.hpp:77] Creating layer inception_4e/5x5_reduce
I0403 18:24:42.430207  6928 net.cpp:91] Creating Layer inception_4e/5x5_reduce
I0403 18:24:42.430223  6928 net.cpp:425] inception_4e/5x5_reduce <- inception_4d/output_inception_4d/output_0_split_3
I0403 18:24:42.430249  6928 net.cpp:399] inception_4e/5x5_reduce -> inception_4e/5x5_reduce
I0403 18:24:42.431303  6928 net.cpp:141] Setting up inception_4e/5x5_reduce
I0403 18:24:42.431329  6928 net.cpp:148] Top shape: 24 32 14 14 (150528)
I0403 18:24:42.431344  6928 net.cpp:156] Memory required for data: 1236731424
I0403 18:24:42.431361  6928 layer_factory.hpp:77] Creating layer inception_4e/relu_5x5_reduce
I0403 18:24:42.431382  6928 net.cpp:91] Creating Layer inception_4e/relu_5x5_reduce
I0403 18:24:42.431398  6928 net.cpp:425] inception_4e/relu_5x5_reduce <- inception_4e/5x5_reduce
I0403 18:24:42.431416  6928 net.cpp:386] inception_4e/relu_5x5_reduce -> inception_4e/5x5_reduce (in-place)
I0403 18:24:42.431707  6928 net.cpp:141] Setting up inception_4e/relu_5x5_reduce
I0403 18:24:42.431733  6928 net.cpp:148] Top shape: 24 32 14 14 (150528)
I0403 18:24:42.431747  6928 net.cpp:156] Memory required for data: 1237333536
I0403 18:24:42.431762  6928 layer_factory.hpp:77] Creating layer inception_4e/5x5
I0403 18:24:42.431802  6928 net.cpp:91] Creating Layer inception_4e/5x5
I0403 18:24:42.431819  6928 net.cpp:425] inception_4e/5x5 <- inception_4e/5x5_reduce
I0403 18:24:42.431838  6928 net.cpp:399] inception_4e/5x5 -> inception_4e/5x5
I0403 18:24:42.433687  6928 net.cpp:141] Setting up inception_4e/5x5
I0403 18:24:42.433714  6928 net.cpp:148] Top shape: 24 128 14 14 (602112)
I0403 18:24:42.433729  6928 net.cpp:156] Memory required for data: 1239741984
I0403 18:24:42.433749  6928 layer_factory.hpp:77] Creating layer inception_4e/relu_5x5
I0403 18:24:42.433770  6928 net.cpp:91] Creating Layer inception_4e/relu_5x5
I0403 18:24:42.433787  6928 net.cpp:425] inception_4e/relu_5x5 <- inception_4e/5x5
I0403 18:24:42.433804  6928 net.cpp:386] inception_4e/relu_5x5 -> inception_4e/5x5 (in-place)
I0403 18:24:42.433995  6928 net.cpp:141] Setting up inception_4e/relu_5x5
I0403 18:24:42.434021  6928 net.cpp:148] Top shape: 24 128 14 14 (602112)
I0403 18:24:42.434036  6928 net.cpp:156] Memory required for data: 1242150432
I0403 18:24:42.434051  6928 layer_factory.hpp:77] Creating layer inception_4e/pool
I0403 18:24:42.434069  6928 net.cpp:91] Creating Layer inception_4e/pool
I0403 18:24:42.434085  6928 net.cpp:425] inception_4e/pool <- inception_4d/output_inception_4d/output_0_split_4
I0403 18:24:42.434103  6928 net.cpp:399] inception_4e/pool -> inception_4e/pool
I0403 18:24:42.434172  6928 net.cpp:141] Setting up inception_4e/pool
I0403 18:24:42.434195  6928 net.cpp:148] Top shape: 24 528 14 14 (2483712)
I0403 18:24:42.434209  6928 net.cpp:156] Memory required for data: 1252085280
I0403 18:24:42.434224  6928 layer_factory.hpp:77] Creating layer inception_4e/pool_proj
I0403 18:24:42.434245  6928 net.cpp:91] Creating Layer inception_4e/pool_proj
I0403 18:24:42.434262  6928 net.cpp:425] inception_4e/pool_proj <- inception_4e/pool
I0403 18:24:42.434309  6928 net.cpp:399] inception_4e/pool_proj -> inception_4e/pool_proj
I0403 18:24:42.435835  6928 net.cpp:141] Setting up inception_4e/pool_proj
I0403 18:24:42.435875  6928 net.cpp:148] Top shape: 24 128 14 14 (602112)
I0403 18:24:42.435890  6928 net.cpp:156] Memory required for data: 1254493728
I0403 18:24:42.435909  6928 layer_factory.hpp:77] Creating layer inception_4e/relu_pool_proj
I0403 18:24:42.435926  6928 net.cpp:91] Creating Layer inception_4e/relu_pool_proj
I0403 18:24:42.435942  6928 net.cpp:425] inception_4e/relu_pool_proj <- inception_4e/pool_proj
I0403 18:24:42.435962  6928 net.cpp:386] inception_4e/relu_pool_proj -> inception_4e/pool_proj (in-place)
I0403 18:24:42.436264  6928 net.cpp:141] Setting up inception_4e/relu_pool_proj
I0403 18:24:42.436293  6928 net.cpp:148] Top shape: 24 128 14 14 (602112)
I0403 18:24:42.436308  6928 net.cpp:156] Memory required for data: 1256902176
I0403 18:24:42.436324  6928 layer_factory.hpp:77] Creating layer inception_4e/output
I0403 18:24:42.436342  6928 net.cpp:91] Creating Layer inception_4e/output
I0403 18:24:42.436357  6928 net.cpp:425] inception_4e/output <- inception_4e/1x1
I0403 18:24:42.436374  6928 net.cpp:425] inception_4e/output <- inception_4e/3x3
I0403 18:24:42.436391  6928 net.cpp:425] inception_4e/output <- inception_4e/5x5
I0403 18:24:42.436406  6928 net.cpp:425] inception_4e/output <- inception_4e/pool_proj
I0403 18:24:42.436426  6928 net.cpp:399] inception_4e/output -> inception_4e/output
I0403 18:24:42.436476  6928 net.cpp:141] Setting up inception_4e/output
I0403 18:24:42.436502  6928 net.cpp:148] Top shape: 24 832 14 14 (3913728)
I0403 18:24:42.436518  6928 net.cpp:156] Memory required for data: 1272557088
I0403 18:24:42.436533  6928 layer_factory.hpp:77] Creating layer pool4/3x3_s2
I0403 18:24:42.436553  6928 net.cpp:91] Creating Layer pool4/3x3_s2
I0403 18:24:42.436568  6928 net.cpp:425] pool4/3x3_s2 <- inception_4e/output
I0403 18:24:42.436589  6928 net.cpp:399] pool4/3x3_s2 -> pool4/3x3_s2
I0403 18:24:42.436657  6928 net.cpp:141] Setting up pool4/3x3_s2
I0403 18:24:42.436681  6928 net.cpp:148] Top shape: 24 832 7 7 (978432)
I0403 18:24:42.436697  6928 net.cpp:156] Memory required for data: 1276470816
I0403 18:24:42.436710  6928 layer_factory.hpp:77] Creating layer pool4/3x3_s2_pool4/3x3_s2_0_split
I0403 18:24:42.436731  6928 net.cpp:91] Creating Layer pool4/3x3_s2_pool4/3x3_s2_0_split
I0403 18:24:42.436748  6928 net.cpp:425] pool4/3x3_s2_pool4/3x3_s2_0_split <- pool4/3x3_s2
I0403 18:24:42.436766  6928 net.cpp:399] pool4/3x3_s2_pool4/3x3_s2_0_split -> pool4/3x3_s2_pool4/3x3_s2_0_split_0
I0403 18:24:42.436785  6928 net.cpp:399] pool4/3x3_s2_pool4/3x3_s2_0_split -> pool4/3x3_s2_pool4/3x3_s2_0_split_1
I0403 18:24:42.436808  6928 net.cpp:399] pool4/3x3_s2_pool4/3x3_s2_0_split -> pool4/3x3_s2_pool4/3x3_s2_0_split_2
I0403 18:24:42.436830  6928 net.cpp:399] pool4/3x3_s2_pool4/3x3_s2_0_split -> pool4/3x3_s2_pool4/3x3_s2_0_split_3
I0403 18:24:42.436921  6928 net.cpp:141] Setting up pool4/3x3_s2_pool4/3x3_s2_0_split
I0403 18:24:42.436944  6928 net.cpp:148] Top shape: 24 832 7 7 (978432)
I0403 18:24:42.436960  6928 net.cpp:148] Top shape: 24 832 7 7 (978432)
I0403 18:24:42.436976  6928 net.cpp:148] Top shape: 24 832 7 7 (978432)
I0403 18:24:42.436991  6928 net.cpp:148] Top shape: 24 832 7 7 (978432)
I0403 18:24:42.437005  6928 net.cpp:156] Memory required for data: 1292125728
I0403 18:24:42.437019  6928 layer_factory.hpp:77] Creating layer inception_5a/1x1
I0403 18:24:42.437042  6928 net.cpp:91] Creating Layer inception_5a/1x1
I0403 18:24:42.437060  6928 net.cpp:425] inception_5a/1x1 <- pool4/3x3_s2_pool4/3x3_s2_0_split_0
I0403 18:24:42.437082  6928 net.cpp:399] inception_5a/1x1 -> inception_5a/1x1
I0403 18:24:42.440019  6928 net.cpp:141] Setting up inception_5a/1x1
I0403 18:24:42.440048  6928 net.cpp:148] Top shape: 24 256 7 7 (301056)
I0403 18:24:42.440064  6928 net.cpp:156] Memory required for data: 1293329952
I0403 18:24:42.440083  6928 layer_factory.hpp:77] Creating layer inception_5a/relu_1x1
I0403 18:24:42.440104  6928 net.cpp:91] Creating Layer inception_5a/relu_1x1
I0403 18:24:42.440120  6928 net.cpp:425] inception_5a/relu_1x1 <- inception_5a/1x1
I0403 18:24:42.440138  6928 net.cpp:386] inception_5a/relu_1x1 -> inception_5a/1x1 (in-place)
I0403 18:24:42.440461  6928 net.cpp:141] Setting up inception_5a/relu_1x1
I0403 18:24:42.440488  6928 net.cpp:148] Top shape: 24 256 7 7 (301056)
I0403 18:24:42.440502  6928 net.cpp:156] Memory required for data: 1294534176
I0403 18:24:42.440517  6928 layer_factory.hpp:77] Creating layer inception_5a/3x3_reduce
I0403 18:24:42.440539  6928 net.cpp:91] Creating Layer inception_5a/3x3_reduce
I0403 18:24:42.440557  6928 net.cpp:425] inception_5a/3x3_reduce <- pool4/3x3_s2_pool4/3x3_s2_0_split_1
I0403 18:24:42.440579  6928 net.cpp:399] inception_5a/3x3_reduce -> inception_5a/3x3_reduce
I0403 18:24:42.443110  6928 net.cpp:141] Setting up inception_5a/3x3_reduce
I0403 18:24:42.443140  6928 net.cpp:148] Top shape: 24 160 7 7 (188160)
I0403 18:24:42.443156  6928 net.cpp:156] Memory required for data: 1295286816
I0403 18:24:42.443174  6928 layer_factory.hpp:77] Creating layer inception_5a/relu_3x3_reduce
I0403 18:24:42.443193  6928 net.cpp:91] Creating Layer inception_5a/relu_3x3_reduce
I0403 18:24:42.443209  6928 net.cpp:425] inception_5a/relu_3x3_reduce <- inception_5a/3x3_reduce
I0403 18:24:42.443228  6928 net.cpp:386] inception_5a/relu_3x3_reduce -> inception_5a/3x3_reduce (in-place)
I0403 18:24:42.443424  6928 net.cpp:141] Setting up inception_5a/relu_3x3_reduce
I0403 18:24:42.443449  6928 net.cpp:148] Top shape: 24 160 7 7 (188160)
I0403 18:24:42.443464  6928 net.cpp:156] Memory required for data: 1296039456
I0403 18:24:42.443480  6928 layer_factory.hpp:77] Creating layer inception_5a/3x3
I0403 18:24:42.443501  6928 net.cpp:91] Creating Layer inception_5a/3x3
I0403 18:24:42.443519  6928 net.cpp:425] inception_5a/3x3 <- inception_5a/3x3_reduce
I0403 18:24:42.443542  6928 net.cpp:399] inception_5a/3x3 -> inception_5a/3x3
I0403 18:24:42.448742  6928 net.cpp:141] Setting up inception_5a/3x3
I0403 18:24:42.448773  6928 net.cpp:148] Top shape: 24 320 7 7 (376320)
I0403 18:24:42.448788  6928 net.cpp:156] Memory required for data: 1297544736
I0403 18:24:42.448807  6928 layer_factory.hpp:77] Creating layer inception_5a/relu_3x3
I0403 18:24:42.448827  6928 net.cpp:91] Creating Layer inception_5a/relu_3x3
I0403 18:24:42.448845  6928 net.cpp:425] inception_5a/relu_3x3 <- inception_5a/3x3
I0403 18:24:42.448863  6928 net.cpp:386] inception_5a/relu_3x3 -> inception_5a/3x3 (in-place)
I0403 18:24:42.449165  6928 net.cpp:141] Setting up inception_5a/relu_3x3
I0403 18:24:42.449193  6928 net.cpp:148] Top shape: 24 320 7 7 (376320)
I0403 18:24:42.449208  6928 net.cpp:156] Memory required for data: 1299050016
I0403 18:24:42.449223  6928 layer_factory.hpp:77] Creating layer inception_5a/5x5_reduce
I0403 18:24:42.449245  6928 net.cpp:91] Creating Layer inception_5a/5x5_reduce
I0403 18:24:42.449264  6928 net.cpp:425] inception_5a/5x5_reduce <- pool4/3x3_s2_pool4/3x3_s2_0_split_2
I0403 18:24:42.449304  6928 net.cpp:399] inception_5a/5x5_reduce -> inception_5a/5x5_reduce
I0403 18:24:42.450508  6928 net.cpp:141] Setting up inception_5a/5x5_reduce
I0403 18:24:42.450539  6928 net.cpp:148] Top shape: 24 32 7 7 (37632)
I0403 18:24:42.450556  6928 net.cpp:156] Memory required for data: 1299200544
I0403 18:24:42.450575  6928 layer_factory.hpp:77] Creating layer inception_5a/relu_5x5_reduce
I0403 18:24:42.450593  6928 net.cpp:91] Creating Layer inception_5a/relu_5x5_reduce
I0403 18:24:42.450609  6928 net.cpp:425] inception_5a/relu_5x5_reduce <- inception_5a/5x5_reduce
I0403 18:24:42.450625  6928 net.cpp:386] inception_5a/relu_5x5_reduce -> inception_5a/5x5_reduce (in-place)
I0403 18:24:42.450932  6928 net.cpp:141] Setting up inception_5a/relu_5x5_reduce
I0403 18:24:42.450958  6928 net.cpp:148] Top shape: 24 32 7 7 (37632)
I0403 18:24:42.450976  6928 net.cpp:156] Memory required for data: 1299351072
I0403 18:24:42.450992  6928 layer_factory.hpp:77] Creating layer inception_5a/5x5
I0403 18:24:42.451012  6928 net.cpp:91] Creating Layer inception_5a/5x5
I0403 18:24:42.451028  6928 net.cpp:425] inception_5a/5x5 <- inception_5a/5x5_reduce
I0403 18:24:42.451050  6928 net.cpp:399] inception_5a/5x5 -> inception_5a/5x5
I0403 18:24:42.452800  6928 net.cpp:141] Setting up inception_5a/5x5
I0403 18:24:42.452839  6928 net.cpp:148] Top shape: 24 128 7 7 (150528)
I0403 18:24:42.452855  6928 net.cpp:156] Memory required for data: 1299953184
I0403 18:24:42.452874  6928 layer_factory.hpp:77] Creating layer inception_5a/relu_5x5
I0403 18:24:42.452894  6928 net.cpp:91] Creating Layer inception_5a/relu_5x5
I0403 18:24:42.452911  6928 net.cpp:425] inception_5a/relu_5x5 <- inception_5a/5x5
I0403 18:24:42.452927  6928 net.cpp:386] inception_5a/relu_5x5 -> inception_5a/5x5 (in-place)
I0403 18:24:42.453112  6928 net.cpp:141] Setting up inception_5a/relu_5x5
I0403 18:24:42.453140  6928 net.cpp:148] Top shape: 24 128 7 7 (150528)
I0403 18:24:42.453155  6928 net.cpp:156] Memory required for data: 1300555296
I0403 18:24:42.453168  6928 layer_factory.hpp:77] Creating layer inception_5a/pool
I0403 18:24:42.453186  6928 net.cpp:91] Creating Layer inception_5a/pool
I0403 18:24:42.453202  6928 net.cpp:425] inception_5a/pool <- pool4/3x3_s2_pool4/3x3_s2_0_split_3
I0403 18:24:42.453220  6928 net.cpp:399] inception_5a/pool -> inception_5a/pool
I0403 18:24:42.453311  6928 net.cpp:141] Setting up inception_5a/pool
I0403 18:24:42.453335  6928 net.cpp:148] Top shape: 24 832 7 7 (978432)
I0403 18:24:42.453349  6928 net.cpp:156] Memory required for data: 1304469024
I0403 18:24:42.453364  6928 layer_factory.hpp:77] Creating layer inception_5a/pool_proj
I0403 18:24:42.453385  6928 net.cpp:91] Creating Layer inception_5a/pool_proj
I0403 18:24:42.453403  6928 net.cpp:425] inception_5a/pool_proj <- inception_5a/pool
I0403 18:24:42.453424  6928 net.cpp:399] inception_5a/pool_proj -> inception_5a/pool_proj
I0403 18:24:42.455696  6928 net.cpp:141] Setting up inception_5a/pool_proj
I0403 18:24:42.455725  6928 net.cpp:148] Top shape: 24 128 7 7 (150528)
I0403 18:24:42.455740  6928 net.cpp:156] Memory required for data: 1305071136
I0403 18:24:42.455759  6928 layer_factory.hpp:77] Creating layer inception_5a/relu_pool_proj
I0403 18:24:42.455780  6928 net.cpp:91] Creating Layer inception_5a/relu_pool_proj
I0403 18:24:42.455796  6928 net.cpp:425] inception_5a/relu_pool_proj <- inception_5a/pool_proj
I0403 18:24:42.455813  6928 net.cpp:386] inception_5a/relu_pool_proj -> inception_5a/pool_proj (in-place)
I0403 18:24:42.456101  6928 net.cpp:141] Setting up inception_5a/relu_pool_proj
I0403 18:24:42.456126  6928 net.cpp:148] Top shape: 24 128 7 7 (150528)
I0403 18:24:42.456141  6928 net.cpp:156] Memory required for data: 1305673248
I0403 18:24:42.456156  6928 layer_factory.hpp:77] Creating layer inception_5a/output
I0403 18:24:42.456173  6928 net.cpp:91] Creating Layer inception_5a/output
I0403 18:24:42.456189  6928 net.cpp:425] inception_5a/output <- inception_5a/1x1
I0403 18:24:42.456207  6928 net.cpp:425] inception_5a/output <- inception_5a/3x3
I0403 18:24:42.456221  6928 net.cpp:425] inception_5a/output <- inception_5a/5x5
I0403 18:24:42.456238  6928 net.cpp:425] inception_5a/output <- inception_5a/pool_proj
I0403 18:24:42.456256  6928 net.cpp:399] inception_5a/output -> inception_5a/output
I0403 18:24:42.456308  6928 net.cpp:141] Setting up inception_5a/output
I0403 18:24:42.456334  6928 net.cpp:148] Top shape: 24 832 7 7 (978432)
I0403 18:24:42.456348  6928 net.cpp:156] Memory required for data: 1309586976
I0403 18:24:42.456363  6928 layer_factory.hpp:77] Creating layer inception_5a/output_inception_5a/output_0_split
I0403 18:24:42.456380  6928 net.cpp:91] Creating Layer inception_5a/output_inception_5a/output_0_split
I0403 18:24:42.456396  6928 net.cpp:425] inception_5a/output_inception_5a/output_0_split <- inception_5a/output
I0403 18:24:42.456416  6928 net.cpp:399] inception_5a/output_inception_5a/output_0_split -> inception_5a/output_inception_5a/output_0_split_0
I0403 18:24:42.456439  6928 net.cpp:399] inception_5a/output_inception_5a/output_0_split -> inception_5a/output_inception_5a/output_0_split_1
I0403 18:24:42.456459  6928 net.cpp:399] inception_5a/output_inception_5a/output_0_split -> inception_5a/output_inception_5a/output_0_split_2
I0403 18:24:42.456480  6928 net.cpp:399] inception_5a/output_inception_5a/output_0_split -> inception_5a/output_inception_5a/output_0_split_3
I0403 18:24:42.456588  6928 net.cpp:141] Setting up inception_5a/output_inception_5a/output_0_split
I0403 18:24:42.456611  6928 net.cpp:148] Top shape: 24 832 7 7 (978432)
I0403 18:24:42.456626  6928 net.cpp:148] Top shape: 24 832 7 7 (978432)
I0403 18:24:42.456642  6928 net.cpp:148] Top shape: 24 832 7 7 (978432)
I0403 18:24:42.456657  6928 net.cpp:148] Top shape: 24 832 7 7 (978432)
I0403 18:24:42.456670  6928 net.cpp:156] Memory required for data: 1325241888
I0403 18:24:42.456686  6928 layer_factory.hpp:77] Creating layer inception_5b/1x1
I0403 18:24:42.456707  6928 net.cpp:91] Creating Layer inception_5b/1x1
I0403 18:24:42.456724  6928 net.cpp:425] inception_5b/1x1 <- inception_5a/output_inception_5a/output_0_split_0
I0403 18:24:42.456746  6928 net.cpp:399] inception_5b/1x1 -> inception_5b/1x1
I0403 18:24:42.460475  6928 net.cpp:141] Setting up inception_5b/1x1
I0403 18:24:42.460505  6928 net.cpp:148] Top shape: 24 384 7 7 (451584)
I0403 18:24:42.460520  6928 net.cpp:156] Memory required for data: 1327048224
I0403 18:24:42.460537  6928 layer_factory.hpp:77] Creating layer inception_5b/relu_1x1
I0403 18:24:42.460556  6928 net.cpp:91] Creating Layer inception_5b/relu_1x1
I0403 18:24:42.460572  6928 net.cpp:425] inception_5b/relu_1x1 <- inception_5b/1x1
I0403 18:24:42.460590  6928 net.cpp:386] inception_5b/relu_1x1 -> inception_5b/1x1 (in-place)
I0403 18:24:42.460892  6928 net.cpp:141] Setting up inception_5b/relu_1x1
I0403 18:24:42.460917  6928 net.cpp:148] Top shape: 24 384 7 7 (451584)
I0403 18:24:42.460932  6928 net.cpp:156] Memory required for data: 1328854560
I0403 18:24:42.460947  6928 layer_factory.hpp:77] Creating layer inception_5b/3x3_reduce
I0403 18:24:42.460968  6928 net.cpp:91] Creating Layer inception_5b/3x3_reduce
I0403 18:24:42.460984  6928 net.cpp:425] inception_5b/3x3_reduce <- inception_5a/output_inception_5a/output_0_split_1
I0403 18:24:42.461007  6928 net.cpp:399] inception_5b/3x3_reduce -> inception_5b/3x3_reduce
I0403 18:24:42.463738  6928 net.cpp:141] Setting up inception_5b/3x3_reduce
I0403 18:24:42.463768  6928 net.cpp:148] Top shape: 24 192 7 7 (225792)
I0403 18:24:42.463783  6928 net.cpp:156] Memory required for data: 1329757728
I0403 18:24:42.463800  6928 layer_factory.hpp:77] Creating layer inception_5b/relu_3x3_reduce
I0403 18:24:42.463819  6928 net.cpp:91] Creating Layer inception_5b/relu_3x3_reduce
I0403 18:24:42.463838  6928 net.cpp:425] inception_5b/relu_3x3_reduce <- inception_5b/3x3_reduce
I0403 18:24:42.463856  6928 net.cpp:386] inception_5b/relu_3x3_reduce -> inception_5b/3x3_reduce (in-place)
I0403 18:24:42.464051  6928 net.cpp:141] Setting up inception_5b/relu_3x3_reduce
I0403 18:24:42.464074  6928 net.cpp:148] Top shape: 24 192 7 7 (225792)
I0403 18:24:42.464089  6928 net.cpp:156] Memory required for data: 1330660896
I0403 18:24:42.464104  6928 layer_factory.hpp:77] Creating layer inception_5b/3x3
I0403 18:24:42.464126  6928 net.cpp:91] Creating Layer inception_5b/3x3
I0403 18:24:42.464144  6928 net.cpp:425] inception_5b/3x3 <- inception_5b/3x3_reduce
I0403 18:24:42.464165  6928 net.cpp:399] inception_5b/3x3 -> inception_5b/3x3
I0403 18:24:42.471019  6928 net.cpp:141] Setting up inception_5b/3x3
I0403 18:24:42.471050  6928 net.cpp:148] Top shape: 24 384 7 7 (451584)
I0403 18:24:42.471065  6928 net.cpp:156] Memory required for data: 1332467232
I0403 18:24:42.471084  6928 layer_factory.hpp:77] Creating layer inception_5b/relu_3x3
I0403 18:24:42.471106  6928 net.cpp:91] Creating Layer inception_5b/relu_3x3
I0403 18:24:42.471122  6928 net.cpp:425] inception_5b/relu_3x3 <- inception_5b/3x3
I0403 18:24:42.471140  6928 net.cpp:386] inception_5b/relu_3x3 -> inception_5b/3x3 (in-place)
I0403 18:24:42.471464  6928 net.cpp:141] Setting up inception_5b/relu_3x3
I0403 18:24:42.471503  6928 net.cpp:148] Top shape: 24 384 7 7 (451584)
I0403 18:24:42.471518  6928 net.cpp:156] Memory required for data: 1334273568
I0403 18:24:42.471531  6928 layer_factory.hpp:77] Creating layer inception_5b/5x5_reduce
I0403 18:24:42.471572  6928 net.cpp:91] Creating Layer inception_5b/5x5_reduce
I0403 18:24:42.471591  6928 net.cpp:425] inception_5b/5x5_reduce <- inception_5a/output_inception_5a/output_0_split_2
I0403 18:24:42.471613  6928 net.cpp:399] inception_5b/5x5_reduce -> inception_5b/5x5_reduce
I0403 18:24:42.472911  6928 net.cpp:141] Setting up inception_5b/5x5_reduce
I0403 18:24:42.472939  6928 net.cpp:148] Top shape: 24 48 7 7 (56448)
I0403 18:24:42.472955  6928 net.cpp:156] Memory required for data: 1334499360
I0403 18:24:42.472973  6928 layer_factory.hpp:77] Creating layer inception_5b/relu_5x5_reduce
I0403 18:24:42.472991  6928 net.cpp:91] Creating Layer inception_5b/relu_5x5_reduce
I0403 18:24:42.473008  6928 net.cpp:425] inception_5b/relu_5x5_reduce <- inception_5b/5x5_reduce
I0403 18:24:42.473028  6928 net.cpp:386] inception_5b/relu_5x5_reduce -> inception_5b/5x5_reduce (in-place)
I0403 18:24:42.473414  6928 net.cpp:141] Setting up inception_5b/relu_5x5_reduce
I0403 18:24:42.473441  6928 net.cpp:148] Top shape: 24 48 7 7 (56448)
I0403 18:24:42.473456  6928 net.cpp:156] Memory required for data: 1334725152
I0403 18:24:42.473472  6928 layer_factory.hpp:77] Creating layer inception_5b/5x5
I0403 18:24:42.473494  6928 net.cpp:91] Creating Layer inception_5b/5x5
I0403 18:24:42.473510  6928 net.cpp:425] inception_5b/5x5 <- inception_5b/5x5_reduce
I0403 18:24:42.473529  6928 net.cpp:399] inception_5b/5x5 -> inception_5b/5x5
I0403 18:24:42.475685  6928 net.cpp:141] Setting up inception_5b/5x5
I0403 18:24:42.475713  6928 net.cpp:148] Top shape: 24 128 7 7 (150528)
I0403 18:24:42.475728  6928 net.cpp:156] Memory required for data: 1335327264
I0403 18:24:42.475746  6928 layer_factory.hpp:77] Creating layer inception_5b/relu_5x5
I0403 18:24:42.475767  6928 net.cpp:91] Creating Layer inception_5b/relu_5x5
I0403 18:24:42.475785  6928 net.cpp:425] inception_5b/relu_5x5 <- inception_5b/5x5
I0403 18:24:42.475801  6928 net.cpp:386] inception_5b/relu_5x5 -> inception_5b/5x5 (in-place)
I0403 18:24:42.475999  6928 net.cpp:141] Setting up inception_5b/relu_5x5
I0403 18:24:42.476027  6928 net.cpp:148] Top shape: 24 128 7 7 (150528)
I0403 18:24:42.476042  6928 net.cpp:156] Memory required for data: 1335929376
I0403 18:24:42.476058  6928 layer_factory.hpp:77] Creating layer inception_5b/pool
I0403 18:24:42.476075  6928 net.cpp:91] Creating Layer inception_5b/pool
I0403 18:24:42.476091  6928 net.cpp:425] inception_5b/pool <- inception_5a/output_inception_5a/output_0_split_3
I0403 18:24:42.476114  6928 net.cpp:399] inception_5b/pool -> inception_5b/pool
I0403 18:24:42.476188  6928 net.cpp:141] Setting up inception_5b/pool
I0403 18:24:42.476212  6928 net.cpp:148] Top shape: 24 832 7 7 (978432)
I0403 18:24:42.476227  6928 net.cpp:156] Memory required for data: 1339843104
I0403 18:24:42.476241  6928 layer_factory.hpp:77] Creating layer inception_5b/pool_proj
I0403 18:24:42.476263  6928 net.cpp:91] Creating Layer inception_5b/pool_proj
I0403 18:24:42.476285  6928 net.cpp:425] inception_5b/pool_proj <- inception_5b/pool
I0403 18:24:42.476308  6928 net.cpp:399] inception_5b/pool_proj -> inception_5b/pool_proj
I0403 18:24:42.478710  6928 net.cpp:141] Setting up inception_5b/pool_proj
I0403 18:24:42.478739  6928 net.cpp:148] Top shape: 24 128 7 7 (150528)
I0403 18:24:42.478756  6928 net.cpp:156] Memory required for data: 1340445216
I0403 18:24:42.478775  6928 layer_factory.hpp:77] Creating layer inception_5b/relu_pool_proj
I0403 18:24:42.478796  6928 net.cpp:91] Creating Layer inception_5b/relu_pool_proj
I0403 18:24:42.478813  6928 net.cpp:425] inception_5b/relu_pool_proj <- inception_5b/pool_proj
I0403 18:24:42.478831  6928 net.cpp:386] inception_5b/relu_pool_proj -> inception_5b/pool_proj (in-place)
I0403 18:24:42.479138  6928 net.cpp:141] Setting up inception_5b/relu_pool_proj
I0403 18:24:42.479166  6928 net.cpp:148] Top shape: 24 128 7 7 (150528)
I0403 18:24:42.479181  6928 net.cpp:156] Memory required for data: 1341047328
I0403 18:24:42.479195  6928 layer_factory.hpp:77] Creating layer inception_5b/output
I0403 18:24:42.479212  6928 net.cpp:91] Creating Layer inception_5b/output
I0403 18:24:42.479243  6928 net.cpp:425] inception_5b/output <- inception_5b/1x1
I0403 18:24:42.479261  6928 net.cpp:425] inception_5b/output <- inception_5b/3x3
I0403 18:24:42.479285  6928 net.cpp:425] inception_5b/output <- inception_5b/5x5
I0403 18:24:42.479301  6928 net.cpp:425] inception_5b/output <- inception_5b/pool_proj
I0403 18:24:42.479321  6928 net.cpp:399] inception_5b/output -> inception_5b/output
I0403 18:24:42.479373  6928 net.cpp:141] Setting up inception_5b/output
I0403 18:24:42.479400  6928 net.cpp:148] Top shape: 24 1024 7 7 (1204224)
I0403 18:24:42.479415  6928 net.cpp:156] Memory required for data: 1345864224
I0403 18:24:42.479431  6928 layer_factory.hpp:77] Creating layer pool5/7x7_s1
I0403 18:24:42.479449  6928 net.cpp:91] Creating Layer pool5/7x7_s1
I0403 18:24:42.479465  6928 net.cpp:425] pool5/7x7_s1 <- inception_5b/output
I0403 18:24:42.479485  6928 net.cpp:399] pool5/7x7_s1 -> pool5/7x7_s1
I0403 18:24:42.479707  6928 net.cpp:141] Setting up pool5/7x7_s1
I0403 18:24:42.479733  6928 net.cpp:148] Top shape: 24 1024 1 1 (24576)
I0403 18:24:42.479748  6928 net.cpp:156] Memory required for data: 1345962528
I0403 18:24:42.479763  6928 layer_factory.hpp:77] Creating layer pool5/drop_7x7_s1
I0403 18:24:42.479781  6928 net.cpp:91] Creating Layer pool5/drop_7x7_s1
I0403 18:24:42.479797  6928 net.cpp:425] pool5/drop_7x7_s1 <- pool5/7x7_s1
I0403 18:24:42.479817  6928 net.cpp:386] pool5/drop_7x7_s1 -> pool5/7x7_s1 (in-place)
I0403 18:24:42.479871  6928 net.cpp:141] Setting up pool5/drop_7x7_s1
I0403 18:24:42.479894  6928 net.cpp:148] Top shape: 24 1024 1 1 (24576)
I0403 18:24:42.479908  6928 net.cpp:156] Memory required for data: 1346060832
I0403 18:24:42.479923  6928 layer_factory.hpp:77] Creating layer loss3/classifier_plantvillage
I0403 18:24:42.479943  6928 net.cpp:91] Creating Layer loss3/classifier_plantvillage
I0403 18:24:42.479959  6928 net.cpp:425] loss3/classifier_plantvillage <- pool5/7x7_s1
I0403 18:24:42.479979  6928 net.cpp:399] loss3/classifier_plantvillage -> loss3/classifier_plantvillage
I0403 18:24:42.480437  6928 net.cpp:141] Setting up loss3/classifier_plantvillage
I0403 18:24:42.480463  6928 net.cpp:148] Top shape: 24 38 (912)
I0403 18:24:42.480490  6928 net.cpp:156] Memory required for data: 1346064480
I0403 18:24:42.480509  6928 layer_factory.hpp:77] Creating layer loss3/classifier_plantvillage_loss3/classifier_plantvillage_0_split
I0403 18:24:42.480530  6928 net.cpp:91] Creating Layer loss3/classifier_plantvillage_loss3/classifier_plantvillage_0_split
I0403 18:24:42.480547  6928 net.cpp:425] loss3/classifier_plantvillage_loss3/classifier_plantvillage_0_split <- loss3/classifier_plantvillage
I0403 18:24:42.480569  6928 net.cpp:399] loss3/classifier_plantvillage_loss3/classifier_plantvillage_0_split -> loss3/classifier_plantvillage_loss3/classifier_plantvillage_0_split_0
I0403 18:24:42.480592  6928 net.cpp:399] loss3/classifier_plantvillage_loss3/classifier_plantvillage_0_split -> loss3/classifier_plantvillage_loss3/classifier_plantvillage_0_split_1
I0403 18:24:42.480613  6928 net.cpp:399] loss3/classifier_plantvillage_loss3/classifier_plantvillage_0_split -> loss3/classifier_plantvillage_loss3/classifier_plantvillage_0_split_2
I0403 18:24:42.480633  6928 net.cpp:399] loss3/classifier_plantvillage_loss3/classifier_plantvillage_0_split -> loss3/classifier_plantvillage_loss3/classifier_plantvillage_0_split_3
I0403 18:24:42.480738  6928 net.cpp:141] Setting up loss3/classifier_plantvillage_loss3/classifier_plantvillage_0_split
I0403 18:24:42.480762  6928 net.cpp:148] Top shape: 24 38 (912)
I0403 18:24:42.480779  6928 net.cpp:148] Top shape: 24 38 (912)
I0403 18:24:42.480795  6928 net.cpp:148] Top shape: 24 38 (912)
I0403 18:24:42.480811  6928 net.cpp:148] Top shape: 24 38 (912)
I0403 18:24:42.480825  6928 net.cpp:156] Memory required for data: 1346079072
I0403 18:24:42.480840  6928 layer_factory.hpp:77] Creating layer loss1/loss
I0403 18:24:42.480862  6928 net.cpp:91] Creating Layer loss1/loss
I0403 18:24:42.480880  6928 net.cpp:425] loss1/loss <- loss1/classifier_plantvillage_loss1/classifier_plantvillage_0_split_0
I0403 18:24:42.480911  6928 net.cpp:425] loss1/loss <- label_data_1_split_0
…
