…
I0403 18:39:03.396566  7215 net.cpp:313] The NetState phase (1) differed from the phase (0) specified by a rule in layer data
I0403 18:39:03.397779  7215 net.cpp:49] Initializing net from parameters: 
state {
  phase: TEST
}
layer {
  name: "data"
  type: "Data"
  top: "data"
  top: "label"
  include {
    phase: TEST
  }
  transform_param {
    mirror: false
    crop_size: 224
    mean_file: "/home/mohanty/data/final_dataset/lmdb/grayscale-40-60/mean.binaryproto"
  }
  data_param {
    source: "/home/mohanty/data/final_dataset/lmdb/grayscale-40-60/test_db"
    batch_size: 24
    backend: LMDB
  }
}
layer {
  name: "conv1/7x7_s2"
  type: "Convolution"
  bottom: "data"
  top: "conv1/7x7_s2"
  param {
    lr_mult: 1
    decay_mult: 1
  }
  param {
    lr_mult: 2
    decay_mult: 0
  }
  convolution_param {
    num_output: 64
    pad: 3
    kernel_size: 7
    stride: 2
    weight_filler {
      type: "xavier"
      std: 0.1
    }
    bias_filler {
      type: "constant"
      value: 0.2
    }
  }
}
layer {
  name: "conv1/relu_7x7"
  type: "ReLU"
  bottom: "conv1/7x7_s2"
  top: "conv1/7x7_s2"
}
layer {
  name: "pool1/3x3_s2"
  type: "Pooling"
  bottom: "conv1/7x7_s2"
  top: "pool1/3x3_s2"
  pooling_param {
    pool: MAX
    kernel_size: 3
    stride: 2
  }
}
layer {
  name: "pool1/norm1"
  type: "LRN"
  bottom: "pool1/3x3_s2"
  top: "pool1/norm1"
  lrn_param {
    local_size: 5
    alpha: 0.0001
    beta: 0.75
  }
}
layer {
  name: "conv2/3x3_reduce"
  type: "Convolution"
  bottom: "pool1/norm1"
  top: "conv2/3x3_reduce"
  param {
    lr_mult: 1
    decay_mult: 1
  }
  param {
    lr_mult: 2
    decay_mult: 0
  }
  convolution_param {
    num_output: 64
    kernel_size: 1
    weight_filler {
      type: "xavier"
      std: 0.1
    }
    bias_filler {
      type: "constant"
      value: 0.2
    }
  }
}
layer {
  name: "conv2/relu_3x3_reduce"
  type: "ReLU"
  bottom: "conv2/3x3_reduce"
  top: "conv2/3x3_reduce"
}
layer {
  name: "conv2/3x3"
  type: "Convolution"
  bottom: "conv2/3x3_reduce"
  top: "conv2/3x3"
  param {
    lr_mult: 1
    decay_mult: 1
  }
  param {
    lr_mult: 2
    decay_mult: 0
  }
  convolution_param {
    num_output: 192
    pad: 1
    kernel_size: 3
    weight_filler {
      type: "xavier"
      std: 0.03
    }
    bias_filler {
      type: "constant"
      value: 0.2
    }
  }
}
layer {
  name: "conv2/relu_3x3"
  type: "ReLU"
  bottom: "conv2/3x3"
  top: "conv2/3x3"
}
layer {
  name: "conv2/norm2"
  type: "LRN"
  bottom: "conv2/3x3"
  top: "conv2/norm2"
  lrn_param {
    local_size: 5
    alpha: 0.0001
    beta: 0.75
  }
}
layer {
  name: "pool2/3x3_s2"
  type: "Pooling"
  bottom: "conv2/norm2"
  top: "pool2/3x3_s2"
  pooling_param {
    pool: MAX
    kernel_size: 3
    stride: 2
  }
}
layer {
  name: "inception_3a/1x1"
  type: "Convolution"
  bottom: "pool2/3x3_s2"
  top: "inception_3a/1x1"
  param {
    lr_mult: 1
    decay_mult: 1
  }
  param {
    lr_mult: 2
    decay_mult: 0
  }
  convolution_param {
    num_output: 64
    kernel_size: 1
    weight_filler {
      type: "xavier"
      std: 0.03
    }
    bias_filler {
      type: "constant"
      value: 0.2
    }
  }
}
layer {
  name: "inception_3a/relu_1x1"
  type: "ReLU"
  bottom: "inception_3a/1x1"
  top: "inception_3a/1x1"
}
layer {
  name: "inception_3a/3x3_reduce"
  type: "Convolution"
  bottom: "pool2/3x3_s2"
  top: "inception_3a/3x3_reduce"
  param {
    lr_mult: 1
    decay_mult: 1
  }
  param {
    lr_mult: 2
    decay_mult: 0
  }
  convolution_param {
    num_output: 96
    kernel_size: 1
    weight_filler {
      type: "xavier"
      std: 0.09
    }
    bias_filler {
      type: "constant"
      value: 0.2
    }
  }
}
layer {
  name: "inception_3a/relu_3x3_reduce"
  type: "ReLU"
  bottom: "inception_3a/3x3_reduce"
  top: "inception_3a/3x3_reduce"
}
layer {
  name: "inception_3a/3x3"
  type: "Convolution"
  bottom: "inception_3a/3x3_reduce"
  top: "inception_3a/3x3"
  param {
    lr_mult: 1
    decay_mult: 1
  }
  param {
    lr_mult: 2
    decay_mult: 0
  }
  convolution_param {
    num_output: 128
    pad: 1
    kernel_size: 3
    weight_filler {
      type: "xavier"
      std: 0.03
    }
    bias_filler {
      type: "constant"
      value: 0.2
    }
  }
}
layer {
  name: "inception_3a/relu_3x3"
  type: "ReLU"
  bottom: "inception_3a/3x3"
  top: "inception_3a/3x3"
}
layer {
  name: "inception_3a/5x5_reduce"
  type: "Convolution"
  bottom: "pool2/3x3_s2"
  top: "inception_3a/5x5_reduce"
  param {
    lr_mult: 1
    decay_mult: 1
  }
  param {
    lr_mult: 2
    decay_mult: 0
  }
  convolution_param {
    num_output: 16
    kernel_size: 1
    weight_filler {
      type: "xavier"
      std: 0.2
    }
    bias_filler {
      type: "constant"
      value: 0.2
    }
  }
}
layer {
  name: "inception_3a/relu_5x5_reduce"
  type: "ReLU"
  bottom: "inception_3a/5x5_reduce"
  top: "inception_3a/5x5_reduce"
}
layer {
  name: "inception_3a/5x5"
  type: "Convolution"
  bottom: "inception_3a/5x5_reduce"
  top: "inception_3a/5x5"
  param {
    lr_mult: 1
    decay_mult: 1
  }
  param {
    lr_mult: 2
    decay_mult: 0
  }
  convolution_param {
    num_output: 32
    pad: 2
    kernel_size: 5
    weight_filler {
      type: "xavier"
      std: 0.03
    }
    bias_filler {
      type: "constant"
      value: 0.2
    }
  }
}
layer {
  name: "inception_3a/relu_5x5"
  type: "ReLU"
  bottom: "inception_3a/5x5"
  top: "inception_3a/5x5"
}
layer {
  name: "inception_3a/pool"
  type: "Pooling"
  bottom: "pool2/3x3_s2"
  top: "inception_3a/pool"
  pooling_param {
    pool: MAX
    kernel_size: 3
    stride: 1
    pad: 1
  }
}
layer {
  name: "inception_3a/pool_proj"
  type: "Convolution"
  bottom: "inception_3a/pool"
  top: "inception_3a/pool_proj"
  param {
    lr_mult: 1
    decay_mult: 1
  }
  param {
    lr_mult: 2
    decay_mult: 0
  }
  convolution_param {
    num_output: 32
    kernel_size: 1
    weight_filler {
      type: "xavier"
      std: 0.1
    }
    bias_filler {
      type: "constant"
      value: 0.2
    }
  }
}
layer {
  name: "inception_3a/relu_pool_proj"
  type: "ReLU"
  bottom: "inception_3a/pool_proj"
  top: "inception_3a/pool_proj"
}
layer {
  name: "inception_3a/output"
  type: "Concat"
  bottom: "inception_3a/1x1"
  bottom: "inception_3a/3x3"
  bottom: "inception_3a/5x5"
  bottom: "inception_3a/pool_proj"
  top: "inception_3a/output"
}
layer {
  name: "inception_3b/1x1"
  type: "Convolution"
  bottom: "inception_3a/output"
  top: "inception_3b/1x1"
  param {
    lr_mult: 1
    decay_mult: 1
  }
  param {
    lr_mult: 2
    decay_mult: 0
  }
  convolution_param {
    num_output: 128
    kernel_size: 1
    weight_filler {
      type: "xavier"
      std: 0.03
    }
    bias_filler {
      type: "constant"
      value: 0.2
    }
  }
}
layer {
  name: "inception_3b/relu_1x1"
  type: "ReLU"
  bottom: "inception_3b/1x1"
  top: "inception_3b/1x1"
}
layer {
  name: "inception_3b/3x3_reduce"
  type: "Convolution"
  bottom: "inception_3a/output"
  top: "inception_3b/3x3_reduce"
  param {
    lr_mult: 1
    decay_mult: 1
  }
  param {
    lr_mult: 2
    decay_mult: 0
  }
  convolution_param {
    num_output: 128
    kernel_size: 1
    weight_filler {
      type: "xavier"
      std: 0.09
    }
    bias_filler {
      type: "constant"
      value: 0.2
    }
  }
}
layer {
  name: "inception_3b/relu_3x3_reduce"
  type: "ReLU"
  bottom: "inception_3b/3x3_reduce"
  top: "inception_3b/3x3_reduce"
}
layer {
  name: "inception_3b/3x3"
  type: "Convolution"
  bottom: "inception_3b/3x3_reduce"
  top: "inception_3b/3x3"
  param {
    lr_mult: 1
    decay_mult: 1
  }
  param {
    lr_mult: 2
    decay_mult: 0
  }
  convolution_param {
    num_output: 192
    pad: 1
    kernel_size: 3
    weight_filler {
      type: "xavier"
      std: 0.03
    }
    bias_filler {
      type: "constant"
      value: 0.2
    }
  }
}
layer {
  name: "inception_3b/relu_3x3"
  type: "ReLU"
  bottom: "inception_3b/3x3"
  top: "inception_3b/3x3"
}
layer {
  name: "inception_3b/5x5_reduce"
  type: "Convolution"
  bottom: "inception_3a/output"
  top: "inception_3b/5x5_reduce"
  param {
    lr_mult: 1
    decay_mult: 1
  }
  param {
    lr_mult: 2
    decay_mult: 0
  }
  convolution_param {
    num_output: 32
    kernel_size: 1
    weight_filler {
      type: "xavier"
      std: 0.2
    }
    bias_filler {
      type: "constant"
      value: 0.2
    }
  }
}
layer {
  name: "inception_3b/relu_5x5_reduce"
  type: "ReLU"
  bottom: "inception_3b/5x5_reduce"
  top: "inception_3b/5x5_reduce"
}
layer {
  name: "inception_3b/5x5"
  type: "Convolution"
  bottom: "inception_3b/5x5_reduce"
  top: "inception_3b/5x5"
  param {
    lr_mult: 1
    decay_mult: 1
  }
  param {
    lr_mult: 2
    decay_mult: 0
  }
  convolution_param {
    num_output: 96
    pad: 2
    kernel_size: 5
    weight_filler {
      type: "xavier"
      std: 0.03
    }
    bias_filler {
      type: "constant"
      value: 0.2
    }
  }
}
layer {
  name: "inception_3b/relu_5x5"
  type: "ReLU"
  bottom: "inception_3b/5x5"
  top: "inception_3b/5x5"
}
layer {
  name: "inception_3b/pool"
  type: "Pooling"
  bottom: "inception_3a/output"
  top: "inception_3b/pool"
  pooling_param {
    pool: MAX
    kernel_size: 3
    stride: 1
    pad: 1
  }
}
layer {
  name: "inception_3b/pool_proj"
  type: "Convolution"
  bottom: "inception_3b/pool"
  top: "inception_3b/pool_proj"
  param {
    lr_mult: 1
    decay_mult: 1
  }
  param {
    lr_mult: 2
    decay_mult: 0
  }
  convolution_param {
    num_output: 64
    kernel_size: 1
    weight_filler {
      type: "xavier"
      std: 0.1
    }
    bias_filler {
      type: "constant"
      value: 0.2
    }
  }
}
layer {
  name: "inception_3b/relu_pool_proj"
  type: "ReLU"
  bottom: "inception_3b/pool_proj"
  top: "inception_3b/pool_proj"
}
layer {
  name: "inception_3b/output"
  type: "Concat"
  bottom: "inception_3b/1x1"
  bottom: "inception_3b/3x3"
  bottom: "inception_3b/5x5"
  bottom: "inception_3b/pool_proj"
  top: "inception_3b/output"
}
layer {
  name: "pool3/3x3_s2"
  type: "Pooling"
  bottom: "inception_3b/output"
  top: "pool3/3x3_s2"
  pooling_param {
    pool: MAX
    kernel_size: 3
    stride: 2
  }
}
layer {
  name: "inception_4a/1x1"
  type: "Convolution"
  bottom: "pool3/3x3_s2"
  top: "inception_4a/1x1"
  param {
    lr_mult: 1
    decay_mult: 1
  }
  param {
    lr_mult: 2
    decay_mult: 0
  }
  convolution_param {
    num_output: 192
    kernel_size: 1
    weight_filler {
      type: "xavier"
      std: 0.03
    }
    bias_filler {
      type: "constant"
      value: 0.2
    }
  }
}
layer {
  name: "inception_4a/relu_1x1"
  type: "ReLU"
  bottom: "inception_4a/1x1"
  top: "inception_4a/1x1"
}
layer {
  name: "inception_4a/3x3_reduce"
  type: "Convolution"
  bottom: "pool3/3x3_s2"
  top: "inception_4a/3x3_reduce"
  param {
    lr_mult: 1
    decay_mult: 1
  }
  param {
    lr_mult: 2
    decay_mult: 0
  }
  convolution_param {
    num_output: 96
    kernel_size: 1
    weight_filler {
      type: "xavier"
      std: 0.09
    }
    bias_filler {
      type: "constant"
      value: 0.2
    }
  }
}
layer {
  name: "inception_4a/relu_3x3_reduce"
  type: "ReLU"
  bottom: "inception_4a/3x3_reduce"
  top: "inception_4a/3x3_reduce"
}
layer {
  name: "inception_4a/3x3"
  type: "Convolution"
  bottom: "inception_4a/3x3_reduce"
  top: "inception_4a/3x3"
  param {
    lr_mult: 1
    decay_mult: 1
  }
  param {
    lr_mult: 2
    decay_mult: 0
  }
  convolution_param {
    num_output: 208
    pad: 1
    kernel_size: 3
    weight_filler {
      type: "xavier"
      std: 0.03
    }
    bias_filler {
      type: "constant"
      value: 0.2
    }
  }
}
layer {
  name: "inception_4a/relu_3x3"
  type: "ReLU"
  bottom: "inception_4a/3x3"
  top: "inception_4a/3x3"
}
layer {
  name: "inception_4a/5x5_reduce"
  type: "Convolution"
  bottom: "pool3/3x3_s2"
  top: "inception_4a/5x5_reduce"
  param {
    lr_mult: 1
    decay_mult: 1
  }
  param {
    lr_mult: 2
    decay_mult: 0
  }
  convolution_param {
    num_output: 16
    kernel_size: 1
    weight_filler {
      type: "xavier"
      std: 0.2
    }
    bias_filler {
      type: "constant"
      value: 0.2
    }
  }
}
layer {
  name: "inception_4a/relu_5x5_reduce"
  type: "ReLU"
  bottom: "inception_4a/5x5_reduce"
  top: "inception_4a/5x5_reduce"
}
layer {
  name: "inception_4a/5x5"
  type: "Convolution"
  bottom: "inception_4a/5x5_reduce"
  top: "inception_4a/5x5"
  param {
    lr_mult: 1
    decay_mult: 1
  }
  param {
    lr_mult: 2
    decay_mult: 0
  }
  convolution_param {
    num_output: 48
    pad: 2
    kernel_size: 5
    weight_filler {
      type: "xavier"
      std: 0.03
    }
    bias_filler {
      type: "constant"
      value: 0.2
    }
  }
}
layer {
  name: "inception_4a/relu_5x5"
  type: "ReLU"
  bottom: "inception_4a/5x5"
  top: "inception_4a/5x5"
}
layer {
  name: "inception_4a/pool"
  type: "Pooling"
  bottom: "pool3/3x3_s2"
  top: "inception_4a/pool"
  pooling_param {
    pool: MAX
    kernel_size: 3
    stride: 1
    pad: 1
  }
}
layer {
  name: "inception_4a/pool_proj"
  type: "Convolution"
  bottom: "inception_4a/pool"
  top: "inception_4a/pool_proj"
  param {
    lr_mult: 1
    decay_mult: 1
  }
  param {
    lr_mult: 2
    decay_mult: 0
  }
  convolution_param {
    num_output: 64
    kernel_size: 1
    weight_filler {
      type: "xavier"
      std: 0.1
    }
    bias_filler {
      type: "constant"
      value: 0.2
    }
  }
}
layer {
  name: "inception_4a/relu_pool_proj"
  type: "ReLU"
  bottom: "inception_4a/pool_proj"
  top: "inception_4a/pool_proj"
}
layer {
  name: "inception_4a/output"
  type: "Concat"
  bottom: "inception_4a/1x1"
  bottom: "inception_4a/3x3"
  bottom: "inception_4a/5x5"
  bottom: "inception_4a/pool_proj"
  top: "inception_4a/output"
}
layer {
  name: "loss1/ave_pool"
  type: "Pooling"
  bottom: "inception_4a/output"
  top: "loss1/ave_pool"
  pooling_param {
    pool: AVE
    kernel_size: 5
    stride: 3
  }
}
layer {
  name: "loss1/conv"
  type: "Convolution"
  bottom: "loss1/ave_pool"
  top: "loss1/conv"
  param {
    lr_mult: 1
    decay_mult: 1
  }
  param {
    lr_mult: 2
    decay_mult: 0
  }
  convolution_param {
    num_output: 128
    kernel_size: 1
    weight_filler {
      type: "xavier"
      std: 0.08
    }
    bias_filler {
      type: "constant"
      value: 0.2
    }
  }
}
layer {
  name: "loss1/relu_conv"
  type: "ReLU"
  bottom: "loss1/conv"
  top: "loss1/conv"
}
layer {
  name: "loss1/fc"
  type: "InnerProduct"
  bottom: "loss1/conv"
  top: "loss1/fc"
  param {
    lr_mult: 1
    decay_mult: 1
  }
  param {
    lr_mult: 2
    decay_mult: 0
  }
  inner_product_param {
    num_output: 1024
    weight_filler {
      type: "xavier"
      std: 0.02
    }
    bias_filler {
      type: "constant"
      value: 0.2
    }
  }
}
layer {
  name: "loss1/relu_fc"
  type: "ReLU"
  bottom: "loss1/fc"
  top: "loss1/fc"
}
layer {
  name: "loss1/drop_fc"
  type: "Dropout"
  bottom: "loss1/fc"
  top: "loss1/fc"
  dropout_param {
    dropout_ratio: 0.7
  }
}
layer {
  name: "loss1/classifier_plantvillage"
  type: "InnerProduct"
  bottom: "loss1/fc"
  top: "loss1/classifier_plantvillage"
  param {
    lr_mult: 1
    decay_mult: 1
  }
  param {
    lr_mult: 2
    decay_mult: 0
  }
  inner_product_param {
    num_output: 38
    weight_filler {
      type: "xavier"
      std: 0.0009765625
    }
    bias_filler {
      type: "constant"
      value: 0
    }
  }
}
layer {
  name: "inception_4b/1x1"
  type: "Convolution"
  bottom: "inception_4a/output"
  top: "inception_4b/1x1"
  param {
    lr_mult: 1
    decay_mult: 1
  }
  param {
    lr_mult: 2
    decay_mult: 0
  }
  convolution_param {
    num_output: 160
    kernel_size: 1
    weight_filler {
      type: "xavier"
      std: 0.03
    }
    bias_filler {
      type: "constant"
      value: 0.2
    }
  }
}
layer {
  name: "inception_4b/relu_1x1"
  type: "ReLU"
  bottom: "inception_4b/1x1"
  top: "inception_4b/1x1"
}
layer {
  name: "inception_4b/3x3_reduce"
  type: "Convolution"
  bottom: "inception_4a/output"
  top: "inception_4b/3x3_reduce"
  param {
    lr_mult: 1
    decay_mult: 1
  }
  param {
    lr_mult: 2
    decay_mult: 0
  }
  convolution_param {
    num_output: 112
    kernel_size: 1
    weight_filler {
      type: "xavier"
      std: 0.09
    }
    bias_filler {
      type: "constant"
      value: 0.2
    }
  }
}
layer {
  name: "inception_4b/relu_3x3_reduce"
  type: "ReLU"
  bottom: "inception_4b/3x3_reduce"
  top: "inception_4b/3x3_reduce"
}
layer {
  name: "inception_4b/3x3"
  type: "Convolution"
  bottom: "inception_4b/3x3_reduce"
  top: "inception_4b/3x3"
  param {
    lr_mult: 1
    decay_mult: 1
  }
  param {
    lr_mult: 2
    decay_mult: 0
  }
  convolution_param {
    num_output: 224
    pad: 1
    kernel_size: 3
    weight_filler {
      type: "xavier"
      std: 0.03
    }
    bias_filler {
      type: "constant"
      value: 0.2
    }
  }
}
layer {
  name: "inception_4b/relu_3x3"
  type: "ReLU"
  bottom: "inception_4b/3x3"
  top: "inception_4b/3x3"
}
layer {
  name: "inception_4b/5x5_reduce"
  type: "Convolution"
  bottom: "inception_4a/output"
  top: "inception_4b/5x5_reduce"
  param {
    lr_mult: 1
    decay_mult: 1
  }
  param {
    lr_mult: 2
    decay_mult: 0
  }
  convolution_param {
    num_output: 24
    kernel_size: 1
    weight_filler {
      type: "xavier"
      std: 0.2
    }
    bias_filler {
      type: "constant"
      value: 0.2
    }
  }
}
layer {
  name: "inception_4b/relu_5x5_reduce"
  type: "ReLU"
  bottom: "inception_4b/5x5_reduce"
  top: "inception_4b/5x5_reduce"
}
layer {
  name: "inception_4b/5x5"
  type: "Convolution"
  bottom: "inception_4b/5x5_reduce"
  top: "inception_4b/5x5"
  param {
    lr_mult: 1
    decay_mult: 1
  }
  param {
    lr_mult: 2
    decay_mult: 0
  }
  convolution_param {
    num_output: 64
    pad: 2
    kernel_size: 5
    weight_filler {
      type: "xavier"
      std: 0.03
    }
    bias_filler {
      type: "constant"
      value: 0.2
    }
  }
}
layer {
  name: "inception_4b/relu_5x5"
  type: "ReLU"
  bottom: "inception_4b/5x5"
  top: "inception_4b/5x5"
}
layer {
  name: "inception_4b/pool"
  type: "Pooling"
  bottom: "inception_4a/output"
  top: "inception_4b/pool"
  pooling_param {
    pool: MAX
    kernel_size: 3
    stride: 1
    pad: 1
  }
}
layer {
  name: "inception_4b/pool_proj"
  type: "Convolution"
  bottom: "inception_4b/pool"
  top: "inception_4b/pool_proj"
  param {
    lr_mult: 1
    decay_mult: 1
  }
  param {
    lr_mult: 2
    decay_mult: 0
  }
  convolution_param {
    num_output: 64
    kernel_size: 1
    weight_filler {
      type: "xavier"
      std: 0.1
    }
    bias_filler {
      type: "constant"
      value: 0.2
    }
  }
}
layer {
  name: "inception_4b/relu_pool_proj"
  type: "ReLU"
  bottom: "inception_4b/pool_proj"
  top: "inception_4b/pool_proj"
}
layer {
  name: "inception_4b/output"
  type: "Concat"
  bottom: "inception_4b/1x1"
  bottom: "inception_4b/3x3"
  bottom: "inception_4b/5x5"
  bottom: "inception_4b/pool_proj"
  top: "inception_4b/output"
}
layer {
  name: "inception_4c/1x1"
  type: "Convolution"
  bottom: "inception_4b/output"
  top: "inception_4c/1x1"
  param {
    lr_mult: 1
    decay_mult: 1
  }
  param {
    lr_mult: 2
    decay_mult: 0
  }
  convolution_param {
    num_output: 128
    kernel_size: 1
    weight_filler {
      type: "xavier"
      std: 0.03
    }
    bias_filler {
      type: "constant"
      value: 0.2
    }
  }
}
layer {
  name: "inception_4c/relu_1x1"
  type: "ReLU"
  bottom: "inception_4c/1x1"
  top: "inception_4c/1x1"
}
layer {
  name: "inception_4c/3x3_reduce"
  type: "Convolution"
  bottom: "inception_4b/output"
  top: "inception_4c/3x3_reduce"
  param {
    lr_mult: 1
    decay_mult: 1
  }
  param {
    lr_mult: 2
    decay_mult: 0
  }
  convolution_param {
    num_output: 128
    kernel_size: 1
    weight_filler {
      type: "xavier"
      std: 0.09
    }
    bias_filler {
      type: "constant"
      value: 0.2
    }
  }
}
layer {
  name: "inception_4c/relu_3x3_reduce"
  type: "ReLU"
  bottom: "inception_4c/3x3_reduce"
  top: "inception_4c/3x3_reduce"
}
layer {
  name: "inception_4c/3x3"
  type: "Convolution"
  bottom: "inception_4c/3x3_reduce"
  top: "inception_4c/3x3"
  param {
    lr_mult: 1
    decay_mult: 1
  }
  param {
    lr_mult: 2
    decay_mult: 0
  }
  convolution_param {
    num_output: 256
    pad: 1
    kernel_size: 3
    weight_filler {
      type: "xavier"
      std: 0.03
    }
    bias_filler {
      type: "constant"
      value: 0.2
    }
  }
}
layer {
  name: "inception_4c/relu_3x3"
  type: "ReLU"
  bottom: "inception_4c/3x3"
  top: "inception_4c/3x3"
}
layer {
  name: "inception_4c/5x5_reduce"
  type: "Convolution"
  bottom: "inception_4b/output"
  top: "inception_4c/5x5_reduce"
  param {
    lr_mult: 1
    decay_mult: 1
  }
  param {
    lr_mult: 2
    decay_mult: 0
  }
  convolution_param {
    num_output: 24
    kernel_size: 1
    weight_filler {
      type: "xavier"
      std: 0.2
    }
    bias_filler {
      type: "constant"
      value: 0.2
    }
  }
}
layer {
  name: "inception_4c/relu_5x5_reduce"
  type: "ReLU"
  bottom: "inception_4c/5x5_reduce"
  top: "inception_4c/5x5_reduce"
}
layer {
  name: "inception_4c/5x5"
  type: "Convolution"
  bottom: "inception_4c/5x5_reduce"
  top: "inception_4c/5x5"
  param {
    lr_mult: 1
    decay_mult: 1
  }
  param {
    lr_mult: 2
    decay_mult: 0
  }
  convolution_param {
    num_output: 64
    pad: 2
    kernel_size: 5
    weight_filler {
      type: "xavier"
      std: 0.03
    }
    bias_filler {
      type: "constant"
      value: 0.2
    }
  }
}
layer {
  name: "inception_4c/relu_5x5"
  type: "ReLU"
  bottom: "inception_4c/5x5"
  top: "inception_4c/5x5"
}
layer {
  name: "inception_4c/pool"
  type: "Pooling"
  bottom: "inception_4b/output"
  top: "inception_4c/pool"
  pooling_param {
    pool: MAX
    kernel_size: 3
    stride: 1
    pad: 1
  }
}
layer {
  name: "inception_4c/pool_proj"
  type: "Convolution"
  bottom: "inception_4c/pool"
  top: "inception_4c/pool_proj"
  param {
    lr_mult: 1
    decay_mult: 1
  }
  param {
    lr_mult: 2
    decay_mult: 0
  }
  convolution_param {
    num_output: 64
    kernel_size: 1
    weight_filler {
      type: "xavier"
      std: 0.1
    }
    bias_filler {
      type: "constant"
      value: 0.2
    }
  }
}
layer {
  name: "inception_4c/relu_pool_proj"
  type: "ReLU"
  bottom: "inception_4c/pool_proj"
  top: "inception_4c/pool_proj"
}
layer {
  name: "inception_4c/output"
  type: "Concat"
  bottom: "inception_4c/1x1"
  bottom: "inception_4c/3x3"
  bottom: "inception_4c/5x5"
  bottom: "inception_4c/pool_proj"
  top: "inception_4c/output"
}
layer {
  name: "inception_4d/1x1"
  type: "Convolution"
  bottom: "inception_4c/output"
  top: "inception_4d/1x1"
  param {
    lr_mult: 1
    decay_mult: 1
  }
  param {
    lr_mult: 2
    decay_mult: 0
  }
  convolution_param {
    num_output: 112
    kernel_size: 1
    weight_filler {
      type: "xavier"
      std: 0.03
    }
    bias_filler {
      type: "constant"
      value: 0.2
    }
  }
}
layer {
  name: "inception_4d/relu_1x1"
  type: "ReLU"
  bottom: "inception_4d/1x1"
  top: "inception_4d/1x1"
}
layer {
  name: "inception_4d/3x3_reduce"
  type: "Convolution"
  bottom: "inception_4c/output"
  top: "inception_4d/3x3_reduce"
  param {
    lr_mult: 1
    decay_mult: 1
  }
  param {
    lr_mult: 2
    decay_mult: 0
  }
  convolution_param {
    num_output: 144
    kernel_size: 1
    weight_filler {
      type: "xavier"
      std: 0.09
    }
    bias_filler {
      type: "constant"
      value: 0.2
    }
  }
}
layer {
  name: "inception_4d/relu_3x3_reduce"
  type: "ReLU"
  bottom: "inception_4d/3x3_reduce"
  top: "inception_4d/3x3_reduce"
}
layer {
  name: "inception_4d/3x3"
  type: "Convolution"
  bottom: "inception_4d/3x3_reduce"
  top: "inception_4d/3x3"
  param {
    lr_mult: 1
    decay_mult: 1
  }
  param {
    lr_mult: 2
    decay_mult: 0
  }
  convolution_param {
    num_output: 288
    pad: 1
    kernel_size: 3
    weight_filler {
      type: "xavier"
      std: 0.03
    }
    bias_filler {
      type: "constant"
      value: 0.2
    }
  }
}
layer {
  name: "inception_4d/relu_3x3"
  type: "ReLU"
  bottom: "inception_4d/3x3"
  top: "inception_4d/3x3"
}
layer {
  name: "inception_4d/5x5_reduce"
  type: "Convolution"
  bottom: "inception_4c/output"
  top: "inception_4d/5x5_reduce"
  param {
    lr_mult: 1
    decay_mult: 1
  }
  param {
    lr_mult: 2
    decay_mult: 0
  }
  convolution_param {
    num_output: 32
    kernel_size: 1
    weight_filler {
      type: "xavier"
      std: 0.2
    }
    bias_filler {
      type: "constant"
      value: 0.2
    }
  }
}
layer {
  name: "inception_4d/relu_5x5_reduce"
  type: "ReLU"
  bottom: "inception_4d/5x5_reduce"
  top: "inception_4d/5x5_reduce"
}
layer {
  name: "inception_4d/5x5"
  type: "Convolution"
  bottom: "inception_4d/5x5_reduce"
  top: "inception_4d/5x5"
  param {
    lr_mult: 1
    decay_mult: 1
  }
  param {
    lr_mult: 2
    decay_mult: 0
  }
  convolution_param {
    num_output: 64
    pad: 2
    kernel_size: 5
    weight_filler {
      type: "xavier"
      std: 0.03
    }
    bias_filler {
      type: "constant"
      value: 0.2
    }
  }
}
layer {
  name: "inception_4d/relu_5x5"
  type: "ReLU"
  bottom: "inception_4d/5x5"
  top: "inception_4d/5x5"
}
layer {
  name: "inception_4d/pool"
  type: "Pooling"
  bottom: "inception_4c/output"
  top: "inception_4d/pool"
  pooling_param {
    pool: MAX
    kernel_size: 3
    stride: 1
    pad: 1
  }
}
layer {
  name: "inception_4d/pool_proj"
  type: "Convolution"
  bottom: "inception_4d/pool"
  top: "inception_4d/pool_proj"
  param {
    lr_mult: 1
    decay_mult: 1
  }
  param {
    lr_mult: 2
    decay_mult: 0
  }
  convolution_param {
    num_output: 64
    kernel_size: 1
    weight_filler {
      type: "xavier"
      std: 0.1
    }
    bias_filler {
      type: "constant"
      value: 0.2
    }
  }
}
layer {
  name: "inception_4d/relu_pool_proj"
  type: "ReLU"
  bottom: "inception_4d/pool_proj"
  top: "inception_4d/pool_proj"
}
layer {
  name: "inception_4d/output"
  type: "Concat"
  bottom: "inception_4d/1x1"
  bottom: "inception_4d/3x3"
  bottom: "inception_4d/5x5"
  bottom: "inception_4d/pool_proj"
  top: "inception_4d/output"
}
layer {
  name: "loss2/ave_pool"
  type: "Pooling"
  bottom: "inception_4d/output"
  top: "loss2/ave_pool"
  pooling_param {
    pool: AVE
    kernel_size: 5
    stride: 3
  }
}
layer {
  name: "loss2/conv"
  type: "Convolution"
  bottom: "loss2/ave_pool"
  top: "loss2/conv"
  param {
    lr_mult: 1
    decay_mult: 1
  }
  param {
    lr_mult: 2
    decay_mult: 0
  }
  convolution_param {
    num_output: 128
    kernel_size: 1
    weight_filler {
      type: "xavier"
      std: 0.08
    }
    bias_filler {
      type: "constant"
      value: 0.2
    }
  }
}
layer {
  name: "loss2/relu_conv"
  type: "ReLU"
  bottom: "loss2/conv"
  top: "loss2/conv"
}
layer {
  name: "loss2/fc"
  type: "InnerProduct"
  bottom: "loss2/conv"
  top: "loss2/fc"
  param {
    lr_mult: 1
    decay_mult: 1
  }
  param {
    lr_mult: 2
    decay_mult: 0
  }
  inner_product_param {
    num_output: 1024
    weight_filler {
      type: "xavier"
      std: 0.02
    }
    bias_filler {
      type: "constant"
      value: 0.2
    }
  }
}
layer {
  name: "loss2/relu_fc"
  type: "ReLU"
  bottom: "loss2/fc"
  top: "loss2/fc"
}
layer {
  name: "loss2/drop_fc"
  type: "Dropout"
  bottom: "loss2/fc"
  top: "loss2/fc"
  dropout_param {
    dropout_ratio: 0.7
  }
}
layer {
  name: "loss2/classifier_plantvillage"
  type: "InnerProduct"
  bottom: "loss2/fc"
  top: "loss2/classifier_plantvillage"
  param {
    lr_mult: 1
    decay_mult: 1
  }
  param {
    lr_mult: 2
    decay_mult: 0
  }
  inner_product_param {
    num_output: 38
    weight_filler {
      type: "xavier"
      std: 0.0009765625
    }
    bias_filler {
      type: "constant"
      value: 0
    }
  }
}
layer {
  name: "inception_4e/1x1"
  type: "Convolution"
  bottom: "inception_4d/output"
  top: "inception_4e/1x1"
  param {
    lr_mult: 1
    decay_mult: 1
  }
  param {
    lr_mult: 2
    decay_mult: 0
  }
  convolution_param {
    num_output: 256
    kernel_size: 1
    weight_filler {
      type: "xavier"
      std: 0.03
    }
    bias_filler {
      type: "constant"
      value: 0.2
    }
  }
}
layer {
  name: "inception_4e/relu_1x1"
  type: "ReLU"
  bottom: "inception_4e/1x1"
  top: "inception_4e/1x1"
}
layer {
  name: "inception_4e/3x3_reduce"
  type: "Convolution"
  bottom: "inception_4d/output"
  top: "inception_4e/3x3_reduce"
  param {
    lr_mult: 1
    decay_mult: 1
  }
  param {
    lr_mult: 2
    decay_mult: 0
  }
  convolution_param {
    num_output: 160
    kernel_size: 1
    weight_filler {
      type: "xavier"
      std: 0.09
    }
    bias_filler {
      type: "constant"
      value: 0.2
    }
  }
}
layer {
  name: "inception_4e/relu_3x3_reduce"
  type: "ReLU"
  bottom: "inception_4e/3x3_reduce"
  top: "inception_4e/3x3_reduce"
}
layer {
  name: "inception_4e/3x3"
  type: "Convolution"
  bottom: "inception_4e/3x3_reduce"
  top: "inception_4e/3x3"
  param {
    lr_mult: 1
    decay_mult: 1
  }
  param {
    lr_mult: 2
    decay_mult: 0
  }
  convolution_param {
    num_output: 320
    pad: 1
    kernel_size: 3
    weight_filler {
      type: "xavier"
      std: 0.03
    }
    bias_filler {
      type: "constant"
      value: 0.2
    }
  }
}
layer {
  name: "inception_4e/relu_3x3"
  type: "ReLU"
  bottom: "inception_4e/3x3"
  top: "inception_4e/3x3"
}
layer {
  name: "inception_4e/5x5_reduce"
  type: "Convolution"
  bottom: "inception_4d/output"
  top: "inception_4e/5x5_reduce"
  param {
    lr_mult: 1
    decay_mult: 1
  }
  param {
    lr_mult: 2
    decay_mult: 0
  }
  convolution_param {
    num_output: 32
    kernel_size: 1
    weight_filler {
      type: "xavier"
      std: 0.2
    }
    bias_filler {
      type: "constant"
      value: 0.2
    }
  }
}
layer {
  name: "inception_4e/relu_5x5_reduce"
  type: "ReLU"
  bottom: "inception_4e/5x5_reduce"
  top: "inception_4e/5x5_reduce"
}
layer {
  name: "inception_4e/5x5"
  type: "Convolution"
  bottom: "inception_4e/5x5_reduce"
  top: "inception_4e/
I0403 18:39:03.399503  7215 layer_factory.hpp:77] Creating layer data
I0403 18:39:03.400125  7215 net.cpp:91] Creating Layer data
I0403 18:39:03.400156  7215 net.cpp:399] data -> data
I0403 18:39:03.400208  7215 net.cpp:399] data -> label
I0403 18:39:03.400251  7215 data_transformer.cpp:25] Loading mean file from: /home/mohanty/data/final_dataset/lmdb/grayscale-40-60/mean.binaryproto
I0403 18:39:03.401356  7218 db_lmdb.cpp:38] Opened lmdb /home/mohanty/data/final_dataset/lmdb/grayscale-40-60/test_db
I0403 18:39:03.414191  7215 data_layer.cpp:41] output data size: 24,3,224,224
I0403 18:39:03.442941  7215 net.cpp:141] Setting up data
I0403 18:39:03.443004  7215 net.cpp:148] Top shape: 24 3 224 224 (3612672)
I0403 18:39:03.443028  7215 net.cpp:148] Top shape: 24 (24)
I0403 18:39:03.443044  7215 net.cpp:156] Memory required for data: 14450784
I0403 18:39:03.443074  7215 layer_factory.hpp:77] Creating layer label_data_1_split
I0403 18:39:03.443101  7215 net.cpp:91] Creating Layer label_data_1_split
I0403 18:39:03.443120  7215 net.cpp:425] label_data_1_split <- label
I0403 18:39:03.443151  7215 net.cpp:399] label_data_1_split -> label_data_1_split_0
I0403 18:39:03.443179  7215 net.cpp:399] label_data_1_split -> label_data_1_split_1
I0403 18:39:03.443200  7215 net.cpp:399] label_data_1_split -> label_data_1_split_2
I0403 18:39:03.443222  7215 net.cpp:399] label_data_1_split -> label_data_1_split_3
I0403 18:39:03.443243  7215 net.cpp:399] label_data_1_split -> label_data_1_split_4
I0403 18:39:03.443264  7215 net.cpp:399] label_data_1_split -> label_data_1_split_5
I0403 18:39:03.443289  7215 net.cpp:399] label_data_1_split -> label_data_1_split_6
I0403 18:39:03.443310  7215 net.cpp:399] label_data_1_split -> label_data_1_split_7
I0403 18:39:03.443331  7215 net.cpp:399] label_data_1_split -> label_data_1_split_8
I0403 18:39:03.443353  7215 net.cpp:399] label_data_1_split -> label_data_1_split_9
I0403 18:39:03.443475  7215 net.cpp:141] Setting up label_data_1_split
I0403 18:39:03.443498  7215 net.cpp:148] Top shape: 24 (24)
I0403 18:39:03.443516  7215 net.cpp:148] Top shape: 24 (24)
I0403 18:39:03.443532  7215 net.cpp:148] Top shape: 24 (24)
I0403 18:39:03.443548  7215 net.cpp:148] Top shape: 24 (24)
I0403 18:39:03.443564  7215 net.cpp:148] Top shape: 24 (24)
I0403 18:39:03.443581  7215 net.cpp:148] Top shape: 24 (24)
I0403 18:39:03.443598  7215 net.cpp:148] Top shape: 24 (24)
I0403 18:39:03.443614  7215 net.cpp:148] Top shape: 24 (24)
I0403 18:39:03.443630  7215 net.cpp:148] Top shape: 24 (24)
I0403 18:39:03.443648  7215 net.cpp:148] Top shape: 24 (24)
I0403 18:39:03.443696  7215 net.cpp:156] Memory required for data: 14451744
I0403 18:39:03.443713  7215 layer_factory.hpp:77] Creating layer conv1/7x7_s2
I0403 18:39:03.443747  7215 net.cpp:91] Creating Layer conv1/7x7_s2
I0403 18:39:03.443765  7215 net.cpp:425] conv1/7x7_s2 <- data
I0403 18:39:03.443785  7215 net.cpp:399] conv1/7x7_s2 -> conv1/7x7_s2
I0403 18:39:03.592351  7215 net.cpp:141] Setting up conv1/7x7_s2
I0403 18:39:03.592464  7215 net.cpp:148] Top shape: 24 64 112 112 (19267584)
I0403 18:39:03.592483  7215 net.cpp:156] Memory required for data: 91522080
I0403 18:39:03.592516  7215 layer_factory.hpp:77] Creating layer conv1/relu_7x7
I0403 18:39:03.592543  7215 net.cpp:91] Creating Layer conv1/relu_7x7
I0403 18:39:03.592566  7215 net.cpp:425] conv1/relu_7x7 <- conv1/7x7_s2
I0403 18:39:03.592587  7215 net.cpp:386] conv1/relu_7x7 -> conv1/7x7_s2 (in-place)
I0403 18:39:03.592856  7215 net.cpp:141] Setting up conv1/relu_7x7
I0403 18:39:03.592886  7215 net.cpp:148] Top shape: 24 64 112 112 (19267584)
I0403 18:39:03.592903  7215 net.cpp:156] Memory required for data: 168592416
I0403 18:39:03.592921  7215 layer_factory.hpp:77] Creating layer pool1/3x3_s2
I0403 18:39:03.592947  7215 net.cpp:91] Creating Layer pool1/3x3_s2
I0403 18:39:03.592967  7215 net.cpp:425] pool1/3x3_s2 <- conv1/7x7_s2
I0403 18:39:03.592989  7215 net.cpp:399] pool1/3x3_s2 -> pool1/3x3_s2
I0403 18:39:03.593065  7215 net.cpp:141] Setting up pool1/3x3_s2
I0403 18:39:03.593092  7215 net.cpp:148] Top shape: 24 64 56 56 (4816896)
I0403 18:39:03.593109  7215 net.cpp:156] Memory required for data: 187860000
I0403 18:39:03.593125  7215 layer_factory.hpp:77] Creating layer pool1/norm1
I0403 18:39:03.593152  7215 net.cpp:91] Creating Layer pool1/norm1
I0403 18:39:03.593171  7215 net.cpp:425] pool1/norm1 <- pool1/3x3_s2
I0403 18:39:03.593191  7215 net.cpp:399] pool1/norm1 -> pool1/norm1
I0403 18:39:03.593490  7215 net.cpp:141] Setting up pool1/norm1
I0403 18:39:03.593521  7215 net.cpp:148] Top shape: 24 64 56 56 (4816896)
I0403 18:39:03.593539  7215 net.cpp:156] Memory required for data: 207127584
I0403 18:39:03.593555  7215 layer_factory.hpp:77] Creating layer conv2/3x3_reduce
I0403 18:39:03.593582  7215 net.cpp:91] Creating Layer conv2/3x3_reduce
I0403 18:39:03.593602  7215 net.cpp:425] conv2/3x3_reduce <- pool1/norm1
I0403 18:39:03.593622  7215 net.cpp:399] conv2/3x3_reduce -> conv2/3x3_reduce
I0403 18:39:03.595019  7215 net.cpp:141] Setting up conv2/3x3_reduce
I0403 18:39:03.595052  7215 net.cpp:148] Top shape: 24 64 56 56 (4816896)
I0403 18:39:03.595068  7215 net.cpp:156] Memory required for data: 226395168
I0403 18:39:03.595090  7215 layer_factory.hpp:77] Creating layer conv2/relu_3x3_reduce
I0403 18:39:03.595111  7215 net.cpp:91] Creating Layer conv2/relu_3x3_reduce
I0403 18:39:03.595129  7215 net.cpp:425] conv2/relu_3x3_reduce <- conv2/3x3_reduce
I0403 18:39:03.595147  7215 net.cpp:386] conv2/relu_3x3_reduce -> conv2/3x3_reduce (in-place)
I0403 18:39:03.595413  7215 net.cpp:141] Setting up conv2/relu_3x3_reduce
I0403 18:39:03.595443  7215 net.cpp:148] Top shape: 24 64 56 56 (4816896)
I0403 18:39:03.595458  7215 net.cpp:156] Memory required for data: 245662752
I0403 18:39:03.595475  7215 layer_factory.hpp:77] Creating layer conv2/3x3
I0403 18:39:03.595499  7215 net.cpp:91] Creating Layer conv2/3x3
I0403 18:39:03.595516  7215 net.cpp:425] conv2/3x3 <- conv2/3x3_reduce
I0403 18:39:03.595537  7215 net.cpp:399] conv2/3x3 -> conv2/3x3
I0403 18:39:03.597859  7215 net.cpp:141] Setting up conv2/3x3
I0403 18:39:03.597893  7215 net.cpp:148] Top shape: 24 192 56 56 (14450688)
I0403 18:39:03.597910  7215 net.cpp:156] Memory required for data: 303465504
I0403 18:39:03.597934  7215 layer_factory.hpp:77] Creating layer conv2/relu_3x3
I0403 18:39:03.597955  7215 net.cpp:91] Creating Layer conv2/relu_3x3
I0403 18:39:03.597973  7215 net.cpp:425] conv2/relu_3x3 <- conv2/3x3
I0403 18:39:03.597991  7215 net.cpp:386] conv2/relu_3x3 -> conv2/3x3 (in-place)
I0403 18:39:03.598162  7215 net.cpp:141] Setting up conv2/relu_3x3
I0403 18:39:03.598191  7215 net.cpp:148] Top shape: 24 192 56 56 (14450688)
I0403 18:39:03.598243  7215 net.cpp:156] Memory required for data: 361268256
I0403 18:39:03.598263  7215 layer_factory.hpp:77] Creating layer conv2/norm2
I0403 18:39:03.598284  7215 net.cpp:91] Creating Layer conv2/norm2
I0403 18:39:03.598299  7215 net.cpp:425] conv2/norm2 <- conv2/3x3
I0403 18:39:03.598318  7215 net.cpp:399] conv2/norm2 -> conv2/norm2
I0403 18:39:03.598616  7215 net.cpp:141] Setting up conv2/norm2
I0403 18:39:03.598645  7215 net.cpp:148] Top shape: 24 192 56 56 (14450688)
I0403 18:39:03.598661  7215 net.cpp:156] Memory required for data: 419071008
I0403 18:39:03.598678  7215 layer_factory.hpp:77] Creating layer pool2/3x3_s2
I0403 18:39:03.598697  7215 net.cpp:91] Creating Layer pool2/3x3_s2
I0403 18:39:03.598714  7215 net.cpp:425] pool2/3x3_s2 <- conv2/norm2
I0403 18:39:03.598733  7215 net.cpp:399] pool2/3x3_s2 -> pool2/3x3_s2
I0403 18:39:03.598786  7215 net.cpp:141] Setting up pool2/3x3_s2
I0403 18:39:03.598810  7215 net.cpp:148] Top shape: 24 192 28 28 (3612672)
I0403 18:39:03.598826  7215 net.cpp:156] Memory required for data: 433521696
I0403 18:39:03.598842  7215 layer_factory.hpp:77] Creating layer pool2/3x3_s2_pool2/3x3_s2_0_split
I0403 18:39:03.598862  7215 net.cpp:91] Creating Layer pool2/3x3_s2_pool2/3x3_s2_0_split
I0403 18:39:03.598877  7215 net.cpp:425] pool2/3x3_s2_pool2/3x3_s2_0_split <- pool2/3x3_s2
I0403 18:39:03.598896  7215 net.cpp:399] pool2/3x3_s2_pool2/3x3_s2_0_split -> pool2/3x3_s2_pool2/3x3_s2_0_split_0
I0403 18:39:03.598917  7215 net.cpp:399] pool2/3x3_s2_pool2/3x3_s2_0_split -> pool2/3x3_s2_pool2/3x3_s2_0_split_1
I0403 18:39:03.598939  7215 net.cpp:399] pool2/3x3_s2_pool2/3x3_s2_0_split -> pool2/3x3_s2_pool2/3x3_s2_0_split_2
I0403 18:39:03.598960  7215 net.cpp:399] pool2/3x3_s2_pool2/3x3_s2_0_split -> pool2/3x3_s2_pool2/3x3_s2_0_split_3
I0403 18:39:03.599028  7215 net.cpp:141] Setting up pool2/3x3_s2_pool2/3x3_s2_0_split
I0403 18:39:03.599052  7215 net.cpp:148] Top shape: 24 192 28 28 (3612672)
I0403 18:39:03.599069  7215 net.cpp:148] Top shape: 24 192 28 28 (3612672)
I0403 18:39:03.599086  7215 net.cpp:148] Top shape: 24 192 28 28 (3612672)
I0403 18:39:03.599103  7215 net.cpp:148] Top shape: 24 192 28 28 (3612672)
I0403 18:39:03.599119  7215 net.cpp:156] Memory required for data: 491324448
I0403 18:39:03.599135  7215 layer_factory.hpp:77] Creating layer inception_3a/1x1
I0403 18:39:03.599159  7215 net.cpp:91] Creating Layer inception_3a/1x1
I0403 18:39:03.599175  7215 net.cpp:425] inception_3a/1x1 <- pool2/3x3_s2_pool2/3x3_s2_0_split_0
I0403 18:39:03.599195  7215 net.cpp:399] inception_3a/1x1 -> inception_3a/1x1
I0403 18:39:03.600764  7215 net.cpp:141] Setting up inception_3a/1x1
I0403 18:39:03.600795  7215 net.cpp:148] Top shape: 24 64 28 28 (1204224)
I0403 18:39:03.600811  7215 net.cpp:156] Memory required for data: 496141344
I0403 18:39:03.600832  7215 layer_factory.hpp:77] Creating layer inception_3a/relu_1x1
I0403 18:39:03.600850  7215 net.cpp:91] Creating Layer inception_3a/relu_1x1
I0403 18:39:03.600867  7215 net.cpp:425] inception_3a/relu_1x1 <- inception_3a/1x1
I0403 18:39:03.600884  7215 net.cpp:386] inception_3a/relu_1x1 -> inception_3a/1x1 (in-place)
I0403 18:39:03.601050  7215 net.cpp:141] Setting up inception_3a/relu_1x1
I0403 18:39:03.601078  7215 net.cpp:148] Top shape: 24 64 28 28 (1204224)
I0403 18:39:03.601092  7215 net.cpp:156] Memory required for data: 500958240
I0403 18:39:03.601109  7215 layer_factory.hpp:77] Creating layer inception_3a/3x3_reduce
I0403 18:39:03.601130  7215 net.cpp:91] Creating Layer inception_3a/3x3_reduce
I0403 18:39:03.601148  7215 net.cpp:425] inception_3a/3x3_reduce <- pool2/3x3_s2_pool2/3x3_s2_0_split_1
I0403 18:39:03.601167  7215 net.cpp:399] inception_3a/3x3_reduce -> inception_3a/3x3_reduce
I0403 18:39:03.602880  7215 net.cpp:141] Setting up inception_3a/3x3_reduce
I0403 18:39:03.602912  7215 net.cpp:148] Top shape: 24 96 28 28 (1806336)
I0403 18:39:03.602931  7215 net.cpp:156] Memory required for data: 508183584
I0403 18:39:03.602954  7215 layer_factory.hpp:77] Creating layer inception_3a/relu_3x3_reduce
I0403 18:39:03.602991  7215 net.cpp:91] Creating Layer inception_3a/relu_3x3_reduce
I0403 18:39:03.603009  7215 net.cpp:425] inception_3a/relu_3x3_reduce <- inception_3a/3x3_reduce
I0403 18:39:03.603029  7215 net.cpp:386] inception_3a/relu_3x3_reduce -> inception_3a/3x3_reduce (in-place)
I0403 18:39:03.603206  7215 net.cpp:141] Setting up inception_3a/relu_3x3_reduce
I0403 18:39:03.603234  7215 net.cpp:148] Top shape: 24 96 28 28 (1806336)
I0403 18:39:03.603253  7215 net.cpp:156] Memory required for data: 515408928
I0403 18:39:03.603271  7215 layer_factory.hpp:77] Creating layer inception_3a/3x3
I0403 18:39:03.603293  7215 net.cpp:91] Creating Layer inception_3a/3x3
I0403 18:39:03.603312  7215 net.cpp:425] inception_3a/3x3 <- inception_3a/3x3_reduce
I0403 18:39:03.603334  7215 net.cpp:399] inception_3a/3x3 -> inception_3a/3x3
I0403 18:39:03.605067  7215 net.cpp:141] Setting up inception_3a/3x3
I0403 18:39:03.605098  7215 net.cpp:148] Top shape: 24 128 28 28 (2408448)
I0403 18:39:03.605115  7215 net.cpp:156] Memory required for data: 525042720
I0403 18:39:03.605134  7215 layer_factory.hpp:77] Creating layer inception_3a/relu_3x3
I0403 18:39:03.605159  7215 net.cpp:91] Creating Layer inception_3a/relu_3x3
I0403 18:39:03.605176  7215 net.cpp:425] inception_3a/relu_3x3 <- inception_3a/3x3
I0403 18:39:03.605196  7215 net.cpp:386] inception_3a/relu_3x3 -> inception_3a/3x3 (in-place)
I0403 18:39:03.605487  7215 net.cpp:141] Setting up inception_3a/relu_3x3
I0403 18:39:03.605515  7215 net.cpp:148] Top shape: 24 128 28 28 (2408448)
I0403 18:39:03.605531  7215 net.cpp:156] Memory required for data: 534676512
I0403 18:39:03.605547  7215 layer_factory.hpp:77] Creating layer inception_3a/5x5_reduce
I0403 18:39:03.605571  7215 net.cpp:91] Creating Layer inception_3a/5x5_reduce
I0403 18:39:03.605589  7215 net.cpp:425] inception_3a/5x5_reduce <- pool2/3x3_s2_pool2/3x3_s2_0_split_2
I0403 18:39:03.605612  7215 net.cpp:399] inception_3a/5x5_reduce -> inception_3a/5x5_reduce
I0403 18:39:03.606626  7215 net.cpp:141] Setting up inception_3a/5x5_reduce
I0403 18:39:03.606659  7215 net.cpp:148] Top shape: 24 16 28 28 (301056)
I0403 18:39:03.606678  7215 net.cpp:156] Memory required for data: 535880736
I0403 18:39:03.606699  7215 layer_factory.hpp:77] Creating layer inception_3a/relu_5x5_reduce
I0403 18:39:03.606719  7215 net.cpp:91] Creating Layer inception_3a/relu_5x5_reduce
I0403 18:39:03.606737  7215 net.cpp:425] inception_3a/relu_5x5_reduce <- inception_3a/5x5_reduce
I0403 18:39:03.606756  7215 net.cpp:386] inception_3a/relu_5x5_reduce -> inception_3a/5x5_reduce (in-place)
I0403 18:39:03.607051  7215 net.cpp:141] Setting up inception_3a/relu_5x5_reduce
I0403 18:39:03.607082  7215 net.cpp:148] Top shape: 24 16 28 28 (301056)
I0403 18:39:03.607098  7215 net.cpp:156] Memory required for data: 537084960
I0403 18:39:03.607115  7215 layer_factory.hpp:77] Creating layer inception_3a/5x5
I0403 18:39:03.607139  7215 net.cpp:91] Creating Layer inception_3a/5x5
I0403 18:39:03.607157  7215 net.cpp:425] inception_3a/5x5 <- inception_3a/5x5_reduce
I0403 18:39:03.607177  7215 net.cpp:399] inception_3a/5x5 -> inception_3a/5x5
I0403 18:39:03.608244  7215 net.cpp:141] Setting up inception_3a/5x5
I0403 18:39:03.608275  7215 net.cpp:148] Top shape: 24 32 28 28 (602112)
I0403 18:39:03.608292  7215 net.cpp:156] Memory required for data: 539493408
I0403 18:39:03.608312  7215 layer_factory.hpp:77] Creating layer inception_3a/relu_5x5
I0403 18:39:03.608335  7215 net.cpp:91] Creating Layer inception_3a/relu_5x5
I0403 18:39:03.608355  7215 net.cpp:425] inception_3a/relu_5x5 <- inception_3a/5x5
I0403 18:39:03.608376  7215 net.cpp:386] inception_3a/relu_5x5 -> inception_3a/5x5 (in-place)
I0403 18:39:03.608561  7215 net.cpp:141] Setting up inception_3a/relu_5x5
I0403 18:39:03.608587  7215 net.cpp:148] Top shape: 24 32 28 28 (602112)
I0403 18:39:03.608603  7215 net.cpp:156] Memory required for data: 541901856
I0403 18:39:03.608619  7215 layer_factory.hpp:77] Creating layer inception_3a/pool
I0403 18:39:03.608642  7215 net.cpp:91] Creating Layer inception_3a/pool
I0403 18:39:03.608674  7215 net.cpp:425] inception_3a/pool <- pool2/3x3_s2_pool2/3x3_s2_0_split_3
I0403 18:39:03.608696  7215 net.cpp:399] inception_3a/pool -> inception_3a/pool
I0403 18:39:03.608757  7215 net.cpp:141] Setting up inception_3a/pool
I0403 18:39:03.608780  7215 net.cpp:148] Top shape: 24 192 28 28 (3612672)
I0403 18:39:03.608796  7215 net.cpp:156] Memory required for data: 556352544
I0403 18:39:03.608811  7215 layer_factory.hpp:77] Creating layer inception_3a/pool_proj
I0403 18:39:03.608835  7215 net.cpp:91] Creating Layer inception_3a/pool_proj
I0403 18:39:03.608853  7215 net.cpp:425] inception_3a/pool_proj <- inception_3a/pool
I0403 18:39:03.608875  7215 net.cpp:399] inception_3a/pool_proj -> inception_3a/pool_proj
I0403 18:39:03.609880  7215 net.cpp:141] Setting up inception_3a/pool_proj
I0403 18:39:03.609912  7215 net.cpp:148] Top shape: 24 32 28 28 (602112)
I0403 18:39:03.609930  7215 net.cpp:156] Memory required for data: 558760992
I0403 18:39:03.609956  7215 layer_factory.hpp:77] Creating layer inception_3a/relu_pool_proj
I0403 18:39:03.609977  7215 net.cpp:91] Creating Layer inception_3a/relu_pool_proj
I0403 18:39:03.609995  7215 net.cpp:425] inception_3a/relu_pool_proj <- inception_3a/pool_proj
I0403 18:39:03.610013  7215 net.cpp:386] inception_3a/relu_pool_proj -> inception_3a/pool_proj (in-place)
I0403 18:39:03.610306  7215 net.cpp:141] Setting up inception_3a/relu_pool_proj
I0403 18:39:03.610335  7215 net.cpp:148] Top shape: 24 32 28 28 (602112)
I0403 18:39:03.610352  7215 net.cpp:156] Memory required for data: 561169440
I0403 18:39:03.610368  7215 layer_factory.hpp:77] Creating layer inception_3a/output
I0403 18:39:03.610390  7215 net.cpp:91] Creating Layer inception_3a/output
I0403 18:39:03.610409  7215 net.cpp:425] inception_3a/output <- inception_3a/1x1
I0403 18:39:03.610427  7215 net.cpp:425] inception_3a/output <- inception_3a/3x3
I0403 18:39:03.610445  7215 net.cpp:425] inception_3a/output <- inception_3a/5x5
I0403 18:39:03.610462  7215 net.cpp:425] inception_3a/output <- inception_3a/pool_proj
I0403 18:39:03.610481  7215 net.cpp:399] inception_3a/output -> inception_3a/output
I0403 18:39:03.610532  7215 net.cpp:141] Setting up inception_3a/output
I0403 18:39:03.610558  7215 net.cpp:148] Top shape: 24 256 28 28 (4816896)
I0403 18:39:03.610572  7215 net.cpp:156] Memory required for data: 580437024
I0403 18:39:03.610589  7215 layer_factory.hpp:77] Creating layer inception_3a/output_inception_3a/output_0_split
I0403 18:39:03.610608  7215 net.cpp:91] Creating Layer inception_3a/output_inception_3a/output_0_split
I0403 18:39:03.610623  7215 net.cpp:425] inception_3a/output_inception_3a/output_0_split <- inception_3a/output
I0403 18:39:03.610644  7215 net.cpp:399] inception_3a/output_inception_3a/output_0_split -> inception_3a/output_inception_3a/output_0_split_0
I0403 18:39:03.610667  7215 net.cpp:399] inception_3a/output_inception_3a/output_0_split -> inception_3a/output_inception_3a/output_0_split_1
I0403 18:39:03.610690  7215 net.cpp:399] inception_3a/output_inception_3a/output_0_split -> inception_3a/output_inception_3a/output_0_split_2
I0403 18:39:03.610714  7215 net.cpp:399] inception_3a/output_inception_3a/output_0_split -> inception_3a/output_inception_3a/output_0_split_3
I0403 18:39:03.610795  7215 net.cpp:141] Setting up inception_3a/output_inception_3a/output_0_split
I0403 18:39:03.610818  7215 net.cpp:148] Top shape: 24 256 28 28 (4816896)
I0403 18:39:03.610836  7215 net.cpp:148] Top shape: 24 256 28 28 (4816896)
I0403 18:39:03.610852  7215 net.cpp:148] Top shape: 24 256 28 28 (4816896)
I0403 18:39:03.610869  7215 net.cpp:148] Top shape: 24 256 28 28 (4816896)
I0403 18:39:03.610883  7215 net.cpp:156] Memory required for data: 657507360
I0403 18:39:03.610898  7215 layer_factory.hpp:77] Creating layer inception_3b/1x1
I0403 18:39:03.610923  7215 net.cpp:91] Creating Layer inception_3b/1x1
I0403 18:39:03.610940  7215 net.cpp:425] inception_3b/1x1 <- inception_3a/output_inception_3a/output_0_split_0
I0403 18:39:03.610962  7215 net.cpp:399] inception_3b/1x1 -> inception_3b/1x1
I0403 18:39:03.612155  7215 net.cpp:141] Setting up inception_3b/1x1
I0403 18:39:03.612200  7215 net.cpp:148] Top shape: 24 128 28 28 (2408448)
I0403 18:39:03.612215  7215 net.cpp:156] Memory required for data: 667141152
I0403 18:39:03.612236  7215 layer_factory.hpp:77] Creating layer inception_3b/relu_1x1
I0403 18:39:03.612267  7215 net.cpp:91] Creating Layer inception_3b/relu_1x1
I0403 18:39:03.612284  7215 net.cpp:425] inception_3b/relu_1x1 <- inception_3b/1x1
I0403 18:39:03.612305  7215 net.cpp:386] inception_3b/relu_1x1 -> inception_3b/1x1 (in-place)
I0403 18:39:03.612490  7215 net.cpp:141] Setting up inception_3b/relu_1x1
I0403 18:39:03.612517  7215 net.cpp:148] Top shape: 24 128 28 28 (2408448)
I0403 18:39:03.612532  7215 net.cpp:156] Memory required for data: 676774944
I0403 18:39:03.612547  7215 layer_factory.hpp:77] Creating layer inception_3b/3x3_reduce
I0403 18:39:03.612571  7215 net.cpp:91] Creating Layer inception_3b/3x3_reduce
I0403 18:39:03.612588  7215 net.cpp:425] inception_3b/3x3_reduce <- inception_3a/output_inception_3a/output_0_split_1
I0403 18:39:03.612610  7215 net.cpp:399] inception_3b/3x3_reduce -> inception_3b/3x3_reduce
I0403 18:39:03.613806  7215 net.cpp:141] Setting up inception_3b/3x3_reduce
I0403 18:39:03.613837  7215 net.cpp:148] Top shape: 24 128 28 28 (2408448)
I0403 18:39:03.613852  7215 net.cpp:156] Memory required for data: 686408736
I0403 18:39:03.613873  7215 layer_factory.hpp:77] Creating layer inception_3b/relu_3x3_reduce
I0403 18:39:03.613894  7215 net.cpp:91] Creating Layer inception_3b/relu_3x3_reduce
I0403 18:39:03.613912  7215 net.cpp:425] inception_3b/relu_3x3_reduce <- inception_3b/3x3_reduce
I0403 18:39:03.613931  7215 net.cpp:386] inception_3b/relu_3x3_reduce -> inception_3b/3x3_reduce (in-place)
I0403 18:39:03.614114  7215 net.cpp:141] Setting up inception_3b/relu_3x3_reduce
I0403 18:39:03.614140  7215 net.cpp:148] Top shape: 24 128 28 28 (2408448)
I0403 18:39:03.614156  7215 net.cpp:156] Memory required for data: 696042528
I0403 18:39:03.614171  7215 layer_factory.hpp:77] Creating layer inception_3b/3x3
I0403 18:39:03.614200  7215 net.cpp:91] Creating Layer inception_3b/3x3
I0403 18:39:03.614218  7215 net.cpp:425] inception_3b/3x3 <- inception_3b/3x3_reduce
I0403 18:39:03.614238  7215 net.cpp:399] inception_3b/3x3 -> inception_3b/3x3
I0403 18:39:03.617288  7215 net.cpp:141] Setting up inception_3b/3x3
I0403 18:39:03.617321  7215 net.cpp:148] Top shape: 24 192 28 28 (3612672)
I0403 18:39:03.617337  7215 net.cpp:156] Memory required for data: 710493216
I0403 18:39:03.617357  7215 layer_factory.hpp:77] Creating layer inception_3b/relu_3x3
I0403 18:39:03.617379  7215 net.cpp:91] Creating Layer inception_3b/relu_3x3
I0403 18:39:03.617398  7215 net.cpp:425] inception_3b/relu_3x3 <- inception_3b/3x3
I0403 18:39:03.617419  7215 net.cpp:386] inception_3b/relu_3x3 -> inception_3b/3x3 (in-place)
I0403 18:39:03.617713  7215 net.cpp:141] Setting up inception_3b/relu_3x3
I0403 18:39:03.617741  7215 net.cpp:148] Top shape: 24 192 28 28 (3612672)
I0403 18:39:03.617758  7215 net.cpp:156] Memory required for data: 724943904
I0403 18:39:03.617772  7215 layer_factory.hpp:77] Creating layer inception_3b/5x5_reduce
I0403 18:39:03.617797  7215 net.cpp:91] Creating Layer inception_3b/5x5_reduce
I0403 18:39:03.617815  7215 net.cpp:425] inception_3b/5x5_reduce <- inception_3a/output_inception_3a/output_0_split_2
I0403 18:39:03.617838  7215 net.cpp:399] inception_3b/5x5_reduce -> inception_3b/5x5_reduce
I0403 18:39:03.618891  7215 net.cpp:141] Setting up inception_3b/5x5_reduce
I0403 18:39:03.618921  7215 net.cpp:148] Top shape: 24 32 28 28 (602112)
I0403 18:39:03.618937  7215 net.cpp:156] Memory required for data: 727352352
I0403 18:39:03.618955  7215 layer_factory.hpp:77] Creating layer inception_3b/relu_5x5_reduce
I0403 18:39:03.618978  7215 net.cpp:91] Creating Layer inception_3b/relu_5x5_reduce
I0403 18:39:03.618995  7215 net.cpp:425] inception_3b/relu_5x5_reduce <- inception_3b/5x5_reduce
I0403 18:39:03.619014  7215 net.cpp:386] inception_3b/relu_5x5_reduce -> inception_3b/5x5_reduce (in-place)
I0403 18:39:03.619217  7215 net.cpp:141] Setting up inception_3b/relu_5x5_reduce
I0403 18:39:03.619251  7215 net.cpp:148] Top shape: 24 32 28 28 (602112)
I0403 18:39:03.619268  7215 net.cpp:156] Memory required for data: 729760800
I0403 18:39:03.619284  7215 layer_factory.hpp:77] Creating layer inception_3b/5x5
I0403 18:39:03.619308  7215 net.cpp:91] Creating Layer inception_3b/5x5
I0403 18:39:03.619326  7215 net.cpp:425] inception_3b/5x5 <- inception_3b/5x5_reduce
I0403 18:39:03.619345  7215 net.cpp:399] inception_3b/5x5 -> inception_3b/5x5
I0403 18:39:03.621418  7215 net.cpp:141] Setting up inception_3b/5x5
I0403 18:39:03.621450  7215 net.cpp:148] Top shape: 24 96 28 28 (1806336)
I0403 18:39:03.621467  7215 net.cpp:156] Memory required for data: 736986144
I0403 18:39:03.621487  7215 layer_factory.hpp:77] Creating layer inception_3b/relu_5x5
I0403 18:39:03.621510  7215 net.cpp:91] Creating Layer inception_3b/relu_5x5
I0403 18:39:03.621528  7215 net.cpp:425] inception_3b/relu_5x5 <- inception_3b/5x5
I0403 18:39:03.621547  7215 net.cpp:386] inception_3b/relu_5x5 -> inception_3b/5x5 (in-place)
I0403 18:39:03.621755  7215 net.cpp:141] Setting up inception_3b/relu_5x5
I0403 18:39:03.621783  7215 net.cpp:148] Top shape: 24 96 28 28 (1806336)
I0403 18:39:03.621798  7215 net.cpp:156] Memory required for data: 744211488
I0403 18:39:03.621814  7215 layer_factory.hpp:77] Creating layer inception_3b/pool
I0403 18:39:03.621834  7215 net.cpp:91] Creating Layer inception_3b/pool
I0403 18:39:03.621850  7215 net.cpp:425] inception_3b/pool <- inception_3a/output_inception_3a/output_0_split_3
I0403 18:39:03.621870  7215 net.cpp:399] inception_3b/pool -> inception_3b/pool
I0403 18:39:03.621932  7215 net.cpp:141] Setting up inception_3b/pool
I0403 18:39:03.621955  7215 net.cpp:148] Top shape: 24 256 28 28 (4816896)
I0403 18:39:03.621970  7215 net.cpp:156] Memory required for data: 763479072
I0403 18:39:03.621985  7215 layer_factory.hpp:77] Creating layer inception_3b/pool_proj
I0403 18:39:03.622009  7215 net.cpp:91] Creating Layer inception_3b/pool_proj
I0403 18:39:03.622026  7215 net.cpp:425] inception_3b/pool_proj <- inception_3b/pool
I0403 18:39:03.622048  7215 net.cpp:399] inception_3b/pool_proj -> inception_3b/pool_proj
I0403 18:39:03.623164  7215 net.cpp:141] Setting up inception_3b/pool_proj
I0403 18:39:03.623196  7215 net.cpp:148] Top shape: 24 64 28 28 (1204224)
I0403 18:39:03.623214  7215 net.cpp:156] Memory required for data: 768295968
I0403 18:39:03.623232  7215 layer_factory.hpp:77] Creating layer inception_3b/relu_pool_proj
I0403 18:39:03.623256  7215 net.cpp:91] Creating Layer inception_3b/relu_pool_proj
I0403 18:39:03.623273  7215 net.cpp:425] inception_3b/relu_pool_proj <- inception_3b/pool_proj
I0403 18:39:03.623294  7215 net.cpp:386] inception_3b/relu_pool_proj -> inception_3b/pool_proj (in-place)
I0403 18:39:03.623704  7215 net.cpp:141] Setting up inception_3b/relu_pool_proj
I0403 18:39:03.623742  7215 net.cpp:148] Top shape: 24 64 28 28 (1204224)
I0403 18:39:03.623759  7215 net.cpp:156] Memory required for data: 773112864
I0403 18:39:03.623775  7215 layer_factory.hpp:77] Creating layer inception_3b/output
I0403 18:39:03.623793  7215 net.cpp:91] Creating Layer inception_3b/output
I0403 18:39:03.623811  7215 net.cpp:425] inception_3b/output <- inception_3b/1x1
I0403 18:39:03.623826  7215 net.cpp:425] inception_3b/output <- inception_3b/3x3
I0403 18:39:03.623843  7215 net.cpp:425] inception_3b/output <- inception_3b/5x5
I0403 18:39:03.623860  7215 net.cpp:425] inception_3b/output <- inception_3b/pool_proj
I0403 18:39:03.623878  7215 net.cpp:399] inception_3b/output -> inception_3b/output
I0403 18:39:03.623926  7215 net.cpp:141] Setting up inception_3b/output
I0403 18:39:03.623950  7215 net.cpp:148] Top shape: 24 480 28 28 (9031680)
I0403 18:39:03.623966  7215 net.cpp:156] Memory required for data: 809239584
I0403 18:39:03.623981  7215 layer_factory.hpp:77] Creating layer pool3/3x3_s2
I0403 18:39:03.624002  7215 net.cpp:91] Creating Layer pool3/3x3_s2
I0403 18:39:03.624019  7215 net.cpp:425] pool3/3x3_s2 <- inception_3b/output
I0403 18:39:03.624055  7215 net.cpp:399] pool3/3x3_s2 -> pool3/3x3_s2
I0403 18:39:03.624119  7215 net.cpp:141] Setting up pool3/3x3_s2
I0403 18:39:03.624145  7215 net.cpp:148] Top shape: 24 480 14 14 (2257920)
I0403 18:39:03.624160  7215 net.cpp:156] Memory required for data: 818271264
I0403 18:39:03.624176  7215 layer_factory.hpp:77] Creating layer pool3/3x3_s2_pool3/3x3_s2_0_split
I0403 18:39:03.624194  7215 net.cpp:91] Creating Layer pool3/3x3_s2_pool3/3x3_s2_0_split
I0403 18:39:03.624210  7215 net.cpp:425] pool3/3x3_s2_pool3/3x3_s2_0_split <- pool3/3x3_s2
I0403 18:39:03.624231  7215 net.cpp:399] pool3/3x3_s2_pool3/3x3_s2_0_split -> pool3/3x3_s2_pool3/3x3_s2_0_split_0
I0403 18:39:03.624258  7215 net.cpp:399] pool3/3x3_s2_pool3/3x3_s2_0_split -> pool3/3x3_s2_pool3/3x3_s2_0_split_1
I0403 18:39:03.624281  7215 net.cpp:399] pool3/3x3_s2_pool3/3x3_s2_0_split -> pool3/3x3_s2_pool3/3x3_s2_0_split_2
I0403 18:39:03.624302  7215 net.cpp:399] pool3/3x3_s2_pool3/3x3_s2_0_split -> pool3/3x3_s2_pool3/3x3_s2_0_split_3
I0403 18:39:03.624387  7215 net.cpp:141] Setting up pool3/3x3_s2_pool3/3x3_s2_0_split
I0403 18:39:03.624414  7215 net.cpp:148] Top shape: 24 480 14 14 (2257920)
I0403 18:39:03.624433  7215 net.cpp:148] Top shape: 24 480 14 14 (2257920)
I0403 18:39:03.624450  7215 net.cpp:148] Top shape: 24 480 14 14 (2257920)
I0403 18:39:03.624469  7215 net.cpp:148] Top shape: 24 480 14 14 (2257920)
I0403 18:39:03.624482  7215 net.cpp:156] Memory required for data: 854397984
I0403 18:39:03.624497  7215 layer_factory.hpp:77] Creating layer inception_4a/1x1
I0403 18:39:03.624521  7215 net.cpp:91] Creating Layer inception_4a/1x1
I0403 18:39:03.624541  7215 net.cpp:425] inception_4a/1x1 <- pool3/3x3_s2_pool3/3x3_s2_0_split_0
I0403 18:39:03.624562  7215 net.cpp:399] inception_4a/1x1 -> inception_4a/1x1
I0403 18:39:03.626212  7215 net.cpp:141] Setting up inception_4a/1x1
I0403 18:39:03.626250  7215 net.cpp:148] Top shape: 24 192 14 14 (903168)
I0403 18:39:03.626267  7215 net.cpp:156] Memory required for data: 858010656
I0403 18:39:03.626286  7215 layer_factory.hpp:77] Creating layer inception_4a/relu_1x1
I0403 18:39:03.626307  7215 net.cpp:91] Creating Layer inception_4a/relu_1x1
I0403 18:39:03.626323  7215 net.cpp:425] inception_4a/relu_1x1 <- inception_4a/1x1
I0403 18:39:03.626345  7215 net.cpp:386] inception_4a/relu_1x1 -> inception_4a/1x1 (in-place)
I0403 18:39:03.626525  7215 net.cpp:141] Setting up inception_4a/relu_1x1
I0403 18:39:03.626551  7215 net.cpp:148] Top shape: 24 192 14 14 (903168)
I0403 18:39:03.626566  7215 net.cpp:156] Memory required for data: 861623328
I0403 18:39:03.626581  7215 layer_factory.hpp:77] Creating layer inception_4a/3x3_reduce
I0403 18:39:03.626605  7215 net.cpp:91] Creating Layer inception_4a/3x3_reduce
I0403 18:39:03.626624  7215 net.cpp:425] inception_4a/3x3_reduce <- pool3/3x3_s2_pool3/3x3_s2_0_split_1
I0403 18:39:03.626646  7215 net.cpp:399] inception_4a/3x3_reduce -> inception_4a/3x3_reduce
I0403 18:39:03.627984  7215 net.cpp:141] Setting up inception_4a/3x3_reduce
I0403 18:39:03.628013  7215 net.cpp:148] Top shape: 24 96 14 14 (451584)
I0403 18:39:03.628029  7215 net.cpp:156] Memory required for data: 863429664
I0403 18:39:03.628057  7215 layer_factory.hpp:77] Creating layer inception_4a/relu_3x3_reduce
I0403 18:39:03.628077  7215 net.cpp:91] Creating Layer inception_4a/relu_3x3_reduce
I0403 18:39:03.628094  7215 net.cpp:425] inception_4a/relu_3x3_reduce <- inception_4a/3x3_reduce
I0403 18:39:03.628115  7215 net.cpp:386] inception_4a/relu_3x3_reduce -> inception_4a/3x3_reduce (in-place)
I0403 18:39:03.628301  7215 net.cpp:141] Setting up inception_4a/relu_3x3_reduce
I0403 18:39:03.628329  7215 net.cpp:148] Top shape: 24 96 14 14 (451584)
I0403 18:39:03.628343  7215 net.cpp:156] Memory required for data: 865236000
I0403 18:39:03.628360  7215 layer_factory.hpp:77] Creating layer inception_4a/3x3
I0403 18:39:03.628382  7215 net.cpp:91] Creating Layer inception_4a/3x3
I0403 18:39:03.628401  7215 net.cpp:425] inception_4a/3x3 <- inception_4a/3x3_reduce
I0403 18:39:03.628422  7215 net.cpp:399] inception_4a/3x3 -> inception_4a/3x3
I0403 18:39:03.631219  7215 net.cpp:141] Setting up inception_4a/3x3
I0403 18:39:03.631255  7215 net.cpp:148] Top shape: 24 208 14 14 (978432)
I0403 18:39:03.631273  7215 net.cpp:156] Memory required for data: 869149728
I0403 18:39:03.631294  7215 layer_factory.hpp:77] Creating layer inception_4a/relu_3x3
I0403 18:39:03.631317  7215 net.cpp:91] Creating Layer inception_4a/relu_3x3
I0403 18:39:03.631333  7215 net.cpp:425] inception_4a/relu_3x3 <- inception_4a/3x3
I0403 18:39:03.631351  7215 net.cpp:386] inception_4a/relu_3x3 -> inception_4a/3x3 (in-place)
I0403 18:39:03.631636  7215 net.cpp:141] Setting up inception_4a/relu_3x3
I0403 18:39:03.631664  7215 net.cpp:148] Top shape: 24 208 14 14 (978432)
I0403 18:39:03.631680  7215 net.cpp:156] Memory required for data: 873063456
I0403 18:39:03.631695  7215 layer_factory.hpp:77] Creating layer inception_4a/5x5_reduce
I0403 18:39:03.631721  7215 net.cpp:91] Creating Layer inception_4a/5x5_reduce
I0403 18:39:03.631739  7215 net.cpp:425] inception_4a/5x5_reduce <- pool3/3x3_s2_pool3/3x3_s2_0_split_2
I0403 18:39:03.631762  7215 net.cpp:399] inception_4a/5x5_reduce -> inception_4a/5x5_reduce
I0403 18:39:03.632812  7215 net.cpp:141] Setting up inception_4a/5x5_reduce
I0403 18:39:03.632843  7215 net.cpp:148] Top shape: 24 16 14 14 (75264)
I0403 18:39:03.632859  7215 net.cpp:156] Memory required for data: 873364512
I0403 18:39:03.632879  7215 layer_factory.hpp:77] Creating layer inception_4a/relu_5x5_reduce
I0403 18:39:03.632900  7215 net.cpp:91] Creating Layer inception_4a/relu_5x5_reduce
I0403 18:39:03.632917  7215 net.cpp:425] inception_4a/relu_5x5_reduce <- inception_4a/5x5_reduce
I0403 18:39:03.632936  7215 net.cpp:386] inception_4a/relu_5x5_reduce -> inception_4a/5x5_reduce (in-place)
I0403 18:39:03.633126  7215 net.cpp:141] Setting up inception_4a/relu_5x5_reduce
I0403 18:39:03.633152  7215 net.cpp:148] Top shape: 24 16 14 14 (75264)
I0403 18:39:03.633167  7215 net.cpp:156] Memory required for data: 873665568
I0403 18:39:03.633183  7215 layer_factory.hpp:77] Creating layer inception_4a/5x5
I0403 18:39:03.633206  7215 net.cpp:91] Creating Layer inception_4a/5x5
I0403 18:39:03.633226  7215 net.cpp:425] inception_4a/5x5 <- inception_4a/5x5_reduce
I0403 18:39:03.633266  7215 net.cpp:399] inception_4a/5x5 -> inception_4a/5x5
I0403 18:39:03.634421  7215 net.cpp:141] Setting up inception_4a/5x5
I0403 18:39:03.634454  7215 net.cpp:148] Top shape: 24 48 14 14 (225792)
I0403 18:39:03.634474  7215 net.cpp:156] Memory required for data: 874568736
I0403 18:39:03.634492  7215 layer_factory.hpp:77] Creating layer inception_4a/relu_5x5
I0403 18:39:03.634511  7215 net.cpp:91] Creating Layer inception_4a/relu_5x5
I0403 18:39:03.634528  7215 net.cpp:425] inception_4a/relu_5x5 <- inception_4a/5x5
I0403 18:39:03.634547  7215 net.cpp:386] inception_4a/relu_5x5 -> inception_4a/5x5 (in-place)
I0403 18:39:03.634735  7215 net.cpp:141] Setting up inception_4a/relu_5x5
I0403 18:39:03.634763  7215 net.cpp:148] Top shape: 24 48 14 14 (225792)
I0403 18:39:03.634778  7215 net.cpp:156] Memory required for data: 875471904
I0403 18:39:03.634793  7215 layer_factory.hpp:77] Creating layer inception_4a/pool
I0403 18:39:03.634811  7215 net.cpp:91] Creating Layer inception_4a/pool
I0403 18:39:03.634829  7215 net.cpp:425] inception_4a/pool <- pool3/3x3_s2_pool3/3x3_s2_0_split_3
I0403 18:39:03.634850  7215 net.cpp:399] inception_4a/pool -> inception_4a/pool
I0403 18:39:03.634913  7215 net.cpp:141] Setting up inception_4a/pool
I0403 18:39:03.634940  7215 net.cpp:148] Top shape: 24 480 14 14 (2257920)
I0403 18:39:03.634955  7215 net.cpp:156] Memory required for data: 884503584
I0403 18:39:03.634970  7215 layer_factory.hpp:77] Creating layer inception_4a/pool_proj
I0403 18:39:03.634994  7215 net.cpp:91] Creating Layer inception_4a/pool_proj
I0403 18:39:03.635011  7215 net.cpp:425] inception_4a/pool_proj <- inception_4a/pool
I0403 18:39:03.635031  7215 net.cpp:399] inception_4a/pool_proj -> inception_4a/pool_proj
I0403 18:39:03.636246  7215 net.cpp:141] Setting up inception_4a/pool_proj
I0403 18:39:03.636281  7215 net.cpp:148] Top shape: 24 64 14 14 (301056)
I0403 18:39:03.636314  7215 net.cpp:156] Memory required for data: 885707808
I0403 18:39:03.636337  7215 layer_factory.hpp:77] Creating layer inception_4a/relu_pool_proj
I0403 18:39:03.636358  7215 net.cpp:91] Creating Layer inception_4a/relu_pool_proj
I0403 18:39:03.636375  7215 net.cpp:425] inception_4a/relu_pool_proj <- inception_4a/pool_proj
I0403 18:39:03.636397  7215 net.cpp:386] inception_4a/relu_pool_proj -> inception_4a/pool_proj (in-place)
I0403 18:39:03.636694  7215 net.cpp:141] Setting up inception_4a/relu_pool_proj
I0403 18:39:03.636725  7215 net.cpp:148] Top shape: 24 64 14 14 (301056)
I0403 18:39:03.636741  7215 net.cpp:156] Memory required for data: 886912032
I0403 18:39:03.636759  7215 layer_factory.hpp:77] Creating layer inception_4a/output
I0403 18:39:03.636778  7215 net.cpp:91] Creating Layer inception_4a/output
I0403 18:39:03.636795  7215 net.cpp:425] inception_4a/output <- inception_4a/1x1
I0403 18:39:03.636811  7215 net.cpp:425] inception_4a/output <- inception_4a/3x3
I0403 18:39:03.636828  7215 net.cpp:425] inception_4a/output <- inception_4a/5x5
I0403 18:39:03.636845  7215 net.cpp:425] inception_4a/output <- inception_4a/pool_proj
I0403 18:39:03.636863  7215 net.cpp:399] inception_4a/output -> inception_4a/output
I0403 18:39:03.636911  7215 net.cpp:141] Setting up inception_4a/output
I0403 18:39:03.636934  7215 net.cpp:148] Top shape: 24 512 14 14 (2408448)
I0403 18:39:03.636950  7215 net.cpp:156] Memory required for data: 896545824
I0403 18:39:03.636965  7215 layer_factory.hpp:77] Creating layer inception_4a/output_inception_4a/output_0_split
I0403 18:39:03.636986  7215 net.cpp:91] Creating Layer inception_4a/output_inception_4a/output_0_split
I0403 18:39:03.637002  7215 net.cpp:425] inception_4a/output_inception_4a/output_0_split <- inception_4a/output
I0403 18:39:03.637020  7215 net.cpp:399] inception_4a/output_inception_4a/output_0_split -> inception_4a/output_inception_4a/output_0_split_0
I0403 18:39:03.637042  7215 net.cpp:399] inception_4a/output_inception_4a/output_0_split -> inception_4a/output_inception_4a/output_0_split_1
I0403 18:39:03.637064  7215 net.cpp:399] inception_4a/output_inception_4a/output_0_split -> inception_4a/output_inception_4a/output_0_split_2
I0403 18:39:03.637086  7215 net.cpp:399] inception_4a/output_inception_4a/output_0_split -> inception_4a/output_inception_4a/output_0_split_3
I0403 18:39:03.637106  7215 net.cpp:399] inception_4a/output_inception_4a/output_0_split -> inception_4a/output_inception_4a/output_0_split_4
I0403 18:39:03.637202  7215 net.cpp:141] Setting up inception_4a/output_inception_4a/output_0_split
I0403 18:39:03.637225  7215 net.cpp:148] Top shape: 24 512 14 14 (2408448)
I0403 18:39:03.637248  7215 net.cpp:148] Top shape: 24 512 14 14 (2408448)
I0403 18:39:03.637277  7215 net.cpp:148] Top shape: 24 512 14 14 (2408448)
I0403 18:39:03.637293  7215 net.cpp:148] Top shape: 24 512 14 14 (2408448)
I0403 18:39:03.637310  7215 net.cpp:148] Top shape: 24 512 14 14 (2408448)
I0403 18:39:03.637325  7215 net.cpp:156] Memory required for data: 944714784
I0403 18:39:03.637341  7215 layer_factory.hpp:77] Creating layer loss1/ave_pool
I0403 18:39:03.637362  7215 net.cpp:91] Creating Layer loss1/ave_pool
I0403 18:39:03.637379  7215 net.cpp:425] loss1/ave_pool <- inception_4a/output_inception_4a/output_0_split_0
I0403 18:39:03.637398  7215 net.cpp:399] loss1/ave_pool -> loss1/ave_pool
I0403 18:39:03.637629  7215 net.cpp:141] Setting up loss1/ave_pool
I0403 18:39:03.637655  7215 net.cpp:148] Top shape: 24 512 4 4 (196608)
I0403 18:39:03.637670  7215 net.cpp:156] Memory required for data: 945501216
I0403 18:39:03.637686  7215 layer_factory.hpp:77] Creating layer loss1/conv
I0403 18:39:03.637709  7215 net.cpp:91] Creating Layer loss1/conv
I0403 18:39:03.637727  7215 net.cpp:425] loss1/conv <- loss1/ave_pool
I0403 18:39:03.637749  7215 net.cpp:399] loss1/conv -> loss1/conv
I0403 18:39:03.639204  7215 net.cpp:141] Setting up loss1/conv
I0403 18:39:03.639235  7215 net.cpp:148] Top shape: 24 128 4 4 (49152)
I0403 18:39:03.639272  7215 net.cpp:156] Memory required for data: 945697824
I0403 18:39:03.639295  7215 layer_factory.hpp:77] Creating layer loss1/relu_conv
I0403 18:39:03.639317  7215 net.cpp:91] Creating Layer loss1/relu_conv
I0403 18:39:03.639335  7215 net.cpp:425] loss1/relu_conv <- loss1/conv
I0403 18:39:03.639354  7215 net.cpp:386] loss1/relu_conv -> loss1/conv (in-place)
I0403 18:39:03.639647  7215 net.cpp:141] Setting up loss1/relu_conv
I0403 18:39:03.639674  7215 net.cpp:148] Top shape: 24 128 4 4 (49152)
I0403 18:39:03.639690  7215 net.cpp:156] Memory required for data: 945894432
I0403 18:39:03.639706  7215 layer_factory.hpp:77] Creating layer loss1/fc
I0403 18:39:03.639734  7215 net.cpp:91] Creating Layer loss1/fc
I0403 18:39:03.639752  7215 net.cpp:425] loss1/fc <- loss1/conv
I0403 18:39:03.639771  7215 net.cpp:399] loss1/fc -> loss1/fc
I0403 18:39:03.658064  7215 net.cpp:141] Setting up loss1/fc
I0403 18:39:03.658100  7215 net.cpp:148] Top shape: 24 1024 (24576)
I0403 18:39:03.658116  7215 net.cpp:156] Memory required for data: 945992736
I0403 18:39:03.658135  7215 layer_factory.hpp:77] Creating layer loss1/relu_fc
I0403 18:39:03.658154  7215 net.cpp:91] Creating Layer loss1/relu_fc
I0403 18:39:03.658170  7215 net.cpp:425] loss1/relu_fc <- loss1/fc
I0403 18:39:03.658191  7215 net.cpp:386] loss1/relu_fc -> loss1/fc (in-place)
I0403 18:39:03.658380  7215 net.cpp:141] Setting up loss1/relu_fc
I0403 18:39:03.658406  7215 net.cpp:148] Top shape: 24 1024 (24576)
I0403 18:39:03.658421  7215 net.cpp:156] Memory required for data: 946091040
I0403 18:39:03.658435  7215 layer_factory.hpp:77] Creating layer loss1/drop_fc
I0403 18:39:03.658463  7215 net.cpp:91] Creating Layer loss1/drop_fc
I0403 18:39:03.658481  7215 net.cpp:425] loss1/drop_fc <- loss1/fc
I0403 18:39:03.658499  7215 net.cpp:386] loss1/drop_fc -> loss1/fc (in-place)
I0403 18:39:03.658548  7215 net.cpp:141] Setting up loss1/drop_fc
I0403 18:39:03.658571  7215 net.cpp:148] Top shape: 24 1024 (24576)
I0403 18:39:03.658584  7215 net.cpp:156] Memory required for data: 946189344
I0403 18:39:03.658599  7215 layer_factory.hpp:77] Creating layer loss1/classifier_plantvillage
I0403 18:39:03.658622  7215 net.cpp:91] Creating Layer loss1/classifier_plantvillage
I0403 18:39:03.658638  7215 net.cpp:425] loss1/classifier_plantvillage <- loss1/fc
I0403 18:39:03.658658  7215 net.cpp:399] loss1/classifier_plantvillage -> loss1/classifier_plantvillage
I0403 18:39:03.659595  7215 net.cpp:141] Setting up loss1/classifier_plantvillage
I0403 18:39:03.659624  7215 net.cpp:148] Top shape: 24 38 (912)
I0403 18:39:03.659641  7215 net.cpp:156] Memory required for data: 946192992
I0403 18:39:03.659660  7215 layer_factory.hpp:77] Creating layer loss1/classifier_plantvillage_loss1/classifier_plantvillage_0_split
I0403 18:39:03.659679  7215 net.cpp:91] Creating Layer loss1/classifier_plantvillage_loss1/classifier_plantvillage_0_split
I0403 18:39:03.659696  7215 net.cpp:425] loss1/classifier_plantvillage_loss1/classifier_plantvillage_0_split <- loss1/classifier_plantvillage
I0403 18:39:03.659716  7215 net.cpp:399] loss1/classifier_plantvillage_loss1/classifier_plantvillage_0_split -> loss1/classifier_plantvillage_loss1/classifier_plantvillage_0_split_0
I0403 18:39:03.659739  7215 net.cpp:399] loss1/classifier_plantvillage_loss1/classifier_plantvillage_0_split -> loss1/classifier_plantvillage_loss1/classifier_plantvillage_0_split_1
I0403 18:39:03.659759  7215 net.cpp:399] loss1/classifier_plantvillage_loss1/classifier_plantvillage_0_split -> loss1/classifier_plantvillage_loss1/classifier_plantvillage_0_split_2
I0403 18:39:03.659824  7215 net.cpp:141] Setting up loss1/classifier_plantvillage_loss1/classifier_plantvillage_0_split
I0403 18:39:03.659849  7215 net.cpp:148] Top shape: 24 38 (912)
I0403 18:39:03.659867  7215 net.cpp:148] Top shape: 24 38 (912)
I0403 18:39:03.659881  7215 net.cpp:148] Top shape: 24 38 (912)
I0403 18:39:03.659895  7215 net.cpp:156] Memory required for data: 946203936
I0403 18:39:03.659909  7215 layer_factory.hpp:77] Creating layer inception_4b/1x1
I0403 18:39:03.659929  7215 net.cpp:91] Creating Layer inception_4b/1x1
I0403 18:39:03.659962  7215 net.cpp:425] inception_4b/1x1 <- inception_4a/output_inception_4a/output_0_split_1
I0403 18:39:03.659983  7215 net.cpp:399] inception_4b/1x1 -> inception_4b/1x1
I0403 18:39:03.661656  7215 net.cpp:141] Setting up inception_4b/1x1
I0403 18:39:03.661685  7215 net.cpp:148] Top shape: 24 160 14 14 (752640)
I0403 18:39:03.661701  7215 net.cpp:156] Memory required for data: 949214496
I0403 18:39:03.661720  7215 layer_factory.hpp:77] Creating layer inception_4b/relu_1x1
I0403 18:39:03.661741  7215 net.cpp:91] Creating Layer inception_4b/relu_1x1
I0403 18:39:03.661757  7215 net.cpp:425] inception_4b/relu_1x1 <- inception_4b/1x1
I0403 18:39:03.661774  7215 net.cpp:386] inception_4b/relu_1x1 -> inception_4b/1x1 (in-place)
I0403 18:39:03.661957  7215 net.cpp:141] Setting up inception_4b/relu_1x1
I0403 18:39:03.661981  7215 net.cpp:148] Top shape: 24 160 14 14 (752640)
I0403 18:39:03.661996  7215 net.cpp:156] Memory required for data: 952225056
I0403 18:39:03.662011  7215 layer_factory.hpp:77] Creating layer inception_4b/3x3_reduce
I0403 18:39:03.662035  7215 net.cpp:91] Creating Layer inception_4b/3x3_reduce
I0403 18:39:03.662052  7215 net.cpp:425] inception_4b/3x3_reduce <- inception_4a/output_inception_4a/output_0_split_2
I0403 18:39:03.662072  7215 net.cpp:399] inception_4b/3x3_reduce -> inception_4b/3x3_reduce
I0403 18:39:03.663439  7215 net.cpp:141] Setting up inception_4b/3x3_reduce
I0403 18:39:03.663468  7215 net.cpp:148] Top shape: 24 112 14 14 (526848)
I0403 18:39:03.663485  7215 net.cpp:156] Memory required for data: 954332448
I0403 18:39:03.663503  7215 layer_factory.hpp:77] Creating layer inception_4b/relu_3x3_reduce
I0403 18:39:03.663527  7215 net.cpp:91] Creating Layer inception_4b/relu_3x3_reduce
I0403 18:39:03.663544  7215 net.cpp:425] inception_4b/relu_3x3_reduce <- inception_4b/3x3_reduce
I0403 18:39:03.663563  7215 net.cpp:386] inception_4b/relu_3x3_reduce -> inception_4b/3x3_reduce (in-place)
I0403 18:39:03.663848  7215 net.cpp:141] Setting up inception_4b/relu_3x3_reduce
I0403 18:39:03.663875  7215 net.cpp:148] Top shape: 24 112 14 14 (526848)
I0403 18:39:03.663892  7215 net.cpp:156] Memory required for data: 956439840
I0403 18:39:03.663908  7215 layer_factory.hpp:77] Creating layer inception_4b/3x3
I0403 18:39:03.663931  7215 net.cpp:91] Creating Layer inception_4b/3x3
I0403 18:39:03.663950  7215 net.cpp:425] inception_4b/3x3 <- inception_4b/3x3_reduce
I0403 18:39:03.663969  7215 net.cpp:399] inception_4b/3x3 -> inception_4b/3x3
I0403 18:39:03.667002  7215 net.cpp:141] Setting up inception_4b/3x3
I0403 18:39:03.667038  7215 net.cpp:148] Top shape: 24 224 14 14 (1053696)
I0403 18:39:03.667055  7215 net.cpp:156] Memory required for data: 960654624
I0403 18:39:03.667075  7215 layer_factory.hpp:77] Creating layer inception_4b/relu_3x3
I0403 18:39:03.667094  7215 net.cpp:91] Creating Layer inception_4b/relu_3x3
I0403 18:39:03.667111  7215 net.cpp:425] inception_4b/relu_3x3 <- inception_4b/3x3
I0403 18:39:03.667131  7215 net.cpp:386] inception_4b/relu_3x3 -> inception_4b/3x3 (in-place)
I0403 18:39:03.667316  7215 net.cpp:141] Setting up inception_4b/relu_3x3
I0403 18:39:03.667342  7215 net.cpp:148] Top shape: 24 224 14 14 (1053696)
I0403 18:39:03.667357  7215 net.cpp:156] Memory required for data: 964869408
I0403 18:39:03.667373  7215 layer_factory.hpp:77] Creating layer inception_4b/5x5_reduce
I0403 18:39:03.667398  7215 net.cpp:91] Creating Layer inception_4b/5x5_reduce
I0403 18:39:03.667415  7215 net.cpp:425] inception_4b/5x5_reduce <- inception_4a/output_inception_4a/output_0_split_3
I0403 18:39:03.667438  7215 net.cpp:399] inception_4b/5x5_reduce -> inception_4b/5x5_reduce
I0403 18:39:03.668524  7215 net.cpp:141] Setting up inception_4b/5x5_reduce
I0403 18:39:03.668553  7215 net.cpp:148] Top shape: 24 24 14 14 (112896)
I0403 18:39:03.668568  7215 net.cpp:156] Memory required for data: 965320992
I0403 18:39:03.668588  7215 layer_factory.hpp:77] Creating layer inception_4b/relu_5x5_reduce
I0403 18:39:03.668608  7215 net.cpp:91] Creating Layer inception_4b/relu_5x5_reduce
I0403 18:39:03.668639  7215 net.cpp:425] inception_4b/relu_5x5_reduce <- inception_4b/5x5_reduce
I0403 18:39:03.668659  7215 net.cpp:386] inception_4b/relu_5x5_reduce -> inception_4b/5x5_reduce (in-place)
I0403 18:39:03.668845  7215 net.cpp:141] Setting up inception_4b/relu_5x5_reduce
I0403 18:39:03.668874  7215 net.cpp:148] Top shape: 24 24 14 14 (112896)
I0403 18:39:03.668889  7215 net.cpp:156] Memory required for data: 965772576
I0403 18:39:03.668905  7215 layer_factory.hpp:77] Creating layer inception_4b/5x5
I0403 18:39:03.668927  7215 net.cpp:91] Creating Layer inception_4b/5x5
I0403 18:39:03.668946  7215 net.cpp:425] inception_4b/5x5 <- inception_4b/5x5_reduce
I0403 18:39:03.668967  7215 net.cpp:399] inception_4b/5x5 -> inception_4b/5x5
I0403 18:39:03.670224  7215 net.cpp:141] Setting up inception_4b/5x5
I0403 18:39:03.670258  7215 net.cpp:148] Top shape: 24 64 14 14 (301056)
I0403 18:39:03.670274  7215 net.cpp:156] Memory required for data: 966976800
I0403 18:39:03.670294  7215 layer_factory.hpp:77] Creating layer inception_4b/relu_5x5
I0403 18:39:03.670313  7215 net.cpp:91] Creating Layer inception_4b/relu_5x5
I0403 18:39:03.670331  7215 net.cpp:425] inception_4b/relu_5x5 <- inception_4b/5x5
I0403 18:39:03.670348  7215 net.cpp:386] inception_4b/relu_5x5 -> inception_4b/5x5 (in-place)
I0403 18:39:03.670634  7215 net.cpp:141] Setting up inception_4b/relu_5x5
I0403 18:39:03.670660  7215 net.cpp:148] Top shape: 24 64 14 14 (301056)
I0403 18:39:03.670675  7215 net.cpp:156] Memory required for data: 968181024
I0403 18:39:03.670689  7215 layer_factory.hpp:77] Creating layer inception_4b/pool
I0403 18:39:03.670711  7215 net.cpp:91] Creating Layer inception_4b/pool
I0403 18:39:03.670727  7215 net.cpp:425] inception_4b/pool <- inception_4a/output_inception_4a/output_0_split_4
I0403 18:39:03.670747  7215 net.cpp:399] inception_4b/pool -> inception_4b/pool
I0403 18:39:03.670811  7215 net.cpp:141] Setting up inception_4b/pool
I0403 18:39:03.670835  7215 net.cpp:148] Top shape: 24 512 14 14 (2408448)
I0403 18:39:03.670850  7215 net.cpp:156] Memory required for data: 977814816
I0403 18:39:03.670864  7215 layer_factory.hpp:77] Creating layer inception_4b/pool_proj
I0403 18:39:03.670887  7215 net.cpp:91] Creating Layer inception_4b/pool_proj
I0403 18:39:03.670905  7215 net.cpp:425] inception_4b/pool_proj <- inception_4b/pool
I0403 18:39:03.670928  7215 net.cpp:399] inception_4b/pool_proj -> inception_4b/pool_proj
I0403 18:39:03.672152  7215 net.cpp:141] Setting up inception_4b/pool_proj
I0403 18:39:03.672183  7215 net.cpp:148] Top shape: 24 64 14 14 (301056)
I0403 18:39:03.672200  7215 net.cpp:156] Memory required for data: 979019040
I0403 18:39:03.672219  7215 layer_factory.hpp:77] Creating layer inception_4b/relu_pool_proj
I0403 18:39:03.672255  7215 net.cpp:91] Creating Layer inception_4b/relu_pool_proj
I0403 18:39:03.672277  7215 net.cpp:425] inception_4b/relu_pool_proj <- inception_4b/pool_proj
I0403 18:39:03.672297  7215 net.cpp:386] inception_4b/relu_pool_proj -> inception_4b/pool_proj (in-place)
I0403 18:39:03.672489  7215 net.cpp:141] Setting up inception_4b/relu_pool_proj
I0403 18:39:03.672519  7215 net.cpp:148] Top shape: 24 64 14 14 (301056)
I0403 18:39:03.672538  7215 net.cpp:156] Memory required for data: 980223264
I0403 18:39:03.672554  7215 layer_factory.hpp:77] Creating layer inception_4b/output
I0403 18:39:03.672574  7215 net.cpp:91] Creating Layer inception_4b/output
I0403 18:39:03.672590  7215 net.cpp:425] inception_4b/output <- inception_4b/1x1
I0403 18:39:03.672608  7215 net.cpp:425] inception_4b/output <- inception_4b/3x3
I0403 18:39:03.672626  7215 net.cpp:425] inception_4b/output <- inception_4b/5x5
I0403 18:39:03.672642  7215 net.cpp:425] inception_4b/output <- inception_4b/pool_proj
I0403 18:39:03.672662  7215 net.cpp:399] inception_4b/output -> inception_4b/output
I0403 18:39:03.672713  7215 net.cpp:141] Setting up inception_4b/output
I0403 18:39:03.672739  7215 net.cpp:148] Top shape: 24 512 14 14 (2408448)
I0403 18:39:03.672754  7215 net.cpp:156] Memory required for data: 989857056
I0403 18:39:03.672785  7215 layer_factory.hpp:77] Creating layer inception_4b/output_inception_4b/output_0_split
I0403 18:39:03.672806  7215 net.cpp:91] Creating Layer inception_4b/output_inception_4b/output_0_split
I0403 18:39:03.672823  7215 net.cpp:425] inception_4b/output_inception_4b/output_0_split <- inception_4b/output
I0403 18:39:03.672845  7215 net.cpp:399] inception_4b/output_inception_4b/output_0_split -> inception_4b/output_inception_4b/output_0_split_0
I0403 18:39:03.672868  7215 net.cpp:399] inception_4b/output_inception_4b/output_0_split -> inception_4b/output_inception_4b/output_0_split_1
I0403 18:39:03.672889  7215 net.cpp:399] inception_4b/output_inception_4b/output_0_split -> inception_4b/output_inception_4b/output_0_split_2
I0403 18:39:03.672914  7215 net.cpp:399] inception_4b/output_inception_4b/output_0_split -> inception_4b/output_inception_4b/output_0_split_3
I0403 18:39:03.673002  7215 net.cpp:141] Setting up inception_4b/output_inception_4b/output_0_split
I0403 18:39:03.673028  7215 net.cpp:148] Top shape: 24 512 14 14 (2408448)
I0403 18:39:03.673046  7215 net.cpp:148] Top shape: 24 512 14 14 (2408448)
I0403 18:39:03.673064  7215 net.cpp:148] Top shape: 24 512 14 14 (2408448)
I0403 18:39:03.673081  7215 net.cpp:148] Top shape: 24 512 14 14 (2408448)
I0403 18:39:03.673096  7215 net.cpp:156] Memory required for data: 1028392224
I0403 18:39:03.673111  7215 layer_factory.hpp:77] Creating layer inception_4c/1x1
I0403 18:39:03.673135  7215 net.cpp:91] Creating Layer inception_4c/1x1
I0403 18:39:03.673154  7215 net.cpp:425] inception_4c/1x1 <- inception_4b/output_inception_4b/output_0_split_0
I0403 18:39:03.673177  7215 net.cpp:399] inception_4c/1x1 -> inception_4c/1x1
I0403 18:39:03.674690  7215 net.cpp:141] Setting up inception_4c/1x1
I0403 18:39:03.674726  7215 net.cpp:148] Top shape: 24 128 14 14 (602112)
I0403 18:39:03.674743  7215 net.cpp:156] Memory required for data: 1030800672
I0403 18:39:03.674762  7215 layer_factory.hpp:77] Creating layer inception_4c/relu_1x1
I0403 18:39:03.674782  7215 net.cpp:91] Creating Layer inception_4c/relu_1x1
I0403 18:39:03.674799  7215 net.cpp:425] inception_4c/relu_1x1 <- inception_4c/1x1
I0403 18:39:03.674819  7215 net.cpp:386] inception_4c/relu_1x1 -> inception_4c/1x1 (in-place)
I0403 18:39:03.675006  7215 net.cpp:141] Setting up inception_4c/relu_1x1
I0403 18:39:03.675032  7215 net.cpp:148] Top shape: 24 128 14 14 (602112)
I0403 18:39:03.675047  7215 net.cpp:156] Memory required for data: 1033209120
I0403 18:39:03.675061  7215 layer_factory.hpp:77] Creating layer inception_4c/3x3_reduce
I0403 18:39:03.675086  7215 net.cpp:91] Creating Layer inception_4c/3x3_reduce
I0403 18:39:03.675103  7215 net.cpp:425] inception_4c/3x3_reduce <- inception_4b/output_inception_4b/output_0_split_1
I0403 18:39:03.675125  7215 net.cpp:399] inception_4c/3x3_reduce -> inception_4c/3x3_reduce
I0403 18:39:03.677150  7215 net.cpp:141] Setting up inception_4c/3x3_reduce
I0403 18:39:03.677181  7215 net.cpp:148] Top shape: 24 128 14 14 (602112)
I0403 18:39:03.677197  7215 net.cpp:156] Memory required for data: 1035617568
I0403 18:39:03.677217  7215 layer_factory.hpp:77] Creating layer inception_4c/relu_3x3_reduce
I0403 18:39:03.677242  7215 net.cpp:91] Creating Layer inception_4c/relu_3x3_reduce
I0403 18:39:03.677275  7215 net.cpp:425] inception_4c/relu_3x3_reduce <- inception_4c/3x3_reduce
I0403 18:39:03.677294  7215 net.cpp:386] inception_4c/relu_3x3_reduce -> inception_4c/3x3_reduce (in-place)
I0403 18:39:03.677608  7215 net.cpp:141] Setting up inception_4c/relu_3x3_reduce
I0403 18:39:03.677637  7215 net.cpp:148] Top shape: 24 128 14 14 (602112)
I0403 18:39:03.677654  7215 net.cpp:156] Memory required for data: 1038026016
I0403 18:39:03.677670  7215 layer_factory.hpp:77] Creating layer inception_4c/3x3
I0403 18:39:03.677692  7215 net.cpp:91] Creating Layer inception_4c/3x3
I0403 18:39:03.677712  7215 net.cpp:425] inception_4c/3x3 <- inception_4c/3x3_reduce
I0403 18:39:03.677736  7215 net.cpp:399] inception_4c/3x3 -> inception_4c/3x3
I0403 18:39:03.681505  7215 net.cpp:141] Setting up inception_4c/3x3
I0403 18:39:03.681565  7215 net.cpp:148] Top shape: 24 256 14 14 (1204224)
I0403 18:39:03.681586  7215 net.cpp:156] Memory required for data: 1042842912
I0403 18:39:03.681619  7215 layer_factory.hpp:77] Creating layer inception_4c/relu_3x3
I0403 18:39:03.681643  7215 net.cpp:91] Creating Layer inception_4c/relu_3x3
I0403 18:39:03.681663  7215 net.cpp:425] inception_4c/relu_3x3 <- inception_4c/3x3
I0403 18:39:03.681681  7215 net.cpp:386] inception_4c/relu_3x3 -> inception_4c/3x3 (in-place)
I0403 18:39:03.681871  7215 net.cpp:141] Setting up inception_4c/relu_3x3
I0403 18:39:03.681898  7215 net.cpp:148] Top shape: 24 256 14 14 (1204224)
I0403 18:39:03.681913  7215 net.cpp:156] Memory required for data: 1047659808
I0403 18:39:03.681929  7215 layer_factory.hpp:77] Creating layer inception_4c/5x5_reduce
I0403 18:39:03.681952  7215 net.cpp:91] Creating Layer inception_4c/5x5_reduce
I0403 18:39:03.681972  7215 net.cpp:425] inception_4c/5x5_reduce <- inception_4b/output_inception_4b/output_0_split_2
I0403 18:39:03.681994  7215 net.cpp:399] inception_4c/5x5_reduce -> inception_4c/5x5_reduce
I0403 18:39:03.683169  7215 net.cpp:141] Setting up inception_4c/5x5_reduce
I0403 18:39:03.683200  7215 net.cpp:148] Top shape: 24 24 14 14 (112896)
I0403 18:39:03.683217  7215 net.cpp:156] Memory required for data: 1048111392
I0403 18:39:03.683236  7215 layer_factory.hpp:77] Creating layer inception_4c/relu_5x5_reduce
I0403 18:39:03.683264  7215 net.cpp:91] Creating Layer inception_4c/relu_5x5_reduce
I0403 18:39:03.683282  7215 net.cpp:425] inception_4c/relu_5x5_reduce <- inception_4c/5x5_reduce
I0403 18:39:03.683301  7215 net.cpp:386] inception_4c/relu_5x5_reduce -> inception_4c/5x5_reduce (in-place)
I0403 18:39:03.683493  7215 net.cpp:141] Setting up inception_4c/relu_5x5_reduce
I0403 18:39:03.683523  7215 net.cpp:148] Top shape: 24 24 14 14 (112896)
I0403 18:39:03.683540  7215 net.cpp:156] Memory required for data: 1048562976
I0403 18:39:03.683555  7215 layer_factory.hpp:77] Creating layer inception_4c/5x5
I0403 18:39:03.683578  7215 net.cpp:91] Creating Layer inception_4c/5x5
I0403 18:39:03.683599  7215 net.cpp:425] inception_4c/5x5 <- inception_4c/5x5_reduce
I0403 18:39:03.683621  7215 net.cpp:399] inception_4c/5x5 -> inception_4c/5x5
I0403 18:39:03.684912  7215 net.cpp:141] Setting up inception_4c/5x5
I0403 18:39:03.684945  7215 net.cpp:148] Top shape: 24 64 14 14 (301056)
I0403 18:39:03.684964  7215 net.cpp:156] Memory required for data: 1049767200
I0403 18:39:03.684983  7215 layer_factory.hpp:77] Creating layer inception_4c/relu_5x5
I0403 18:39:03.685003  7215 net.cpp:91] Creating Layer inception_4c/relu_5x5
I0403 18:39:03.685024  7215 net.cpp:425] inception_4c/relu_5x5 <- inception_4c/5x5
I0403 18:39:03.685045  7215 net.cpp:386] inception_4c/relu_5x5 -> inception_4c/5x5 (in-place)
I0403 18:39:03.685362  7215 net.cpp:141] Setting up inception_4c/relu_5x5
I0403 18:39:03.685394  7215 net.cpp:148] Top shape: 24 64 14 14 (301056)
I0403 18:39:03.685410  7215 net.cpp:156] Memory required for data: 1050971424
I0403 18:39:03.685426  7215 layer_factory.hpp:77] Creating layer inception_4c/pool
I0403 18:39:03.685446  7215 net.cpp:91] Creating Layer inception_4c/pool
I0403 18:39:03.685462  7215 net.cpp:425] inception_4c/pool <- inception_4b/output_inception_4b/output_0_split_3
I0403 18:39:03.685489  7215 net.cpp:399] inception_4c/pool -> inception_4c/pool
I0403 18:39:03.685572  7215 net.cpp:141] Setting up inception_4c/pool
I0403 18:39:03.685597  7215 net.cpp:148] Top shape: 24 512 14 14 (2408448)
I0403 18:39:03.685612  7215 net.cpp:156] Memory required for data: 1060605216
I0403 18:39:03.685629  7215 layer_factory.hpp:77] Creating layer inception_4c/pool_proj
I0403 18:39:03.685652  7215 net.cpp:91] Creating Layer inception_4c/pool_proj
I0403 18:39:03.685672  7215 net.cpp:425] inception_4c/pool_proj <- inception_4c/pool
I0403 18:39:03.685696  7215 net.cpp:399] inception_4c/pool_proj -> inception_4c/pool_proj
I0403 18:39:03.686959  7215 net.cpp:141] Setting up inception_4c/pool_proj
I0403 18:39:03.686991  7215 net.cpp:148] Top shape: 24 64 14 14 (301056)
I0403 18:39:03.687026  7215 net.cpp:156] Memory required for data: 1061809440
I0403 18:39:03.687047  7215 layer_factory.hpp:77] Creating layer inception_4c/relu_pool_proj
I0403 18:39:03.687072  7215 net.cpp:91] Creating Layer inception_4c/relu_pool_proj
I0403 18:39:03.687090  7215 net.cpp:425] inception_4c/relu_pool_proj <- inception_4c/pool_proj
I0403 18:39:03.687110  7215 net.cpp:386] inception_4c/relu_pool_proj -> inception_4c/pool_proj (in-place)
I0403 18:39:03.687305  7215 net.cpp:141] Setting up inception_4c/relu_pool_proj
I0403 18:39:03.687336  7215 net.cpp:148] Top shape: 24 64 14 14 (301056)
I0403 18:39:03.687353  7215 net.cpp:156] Memory required for data: 1063013664
I0403 18:39:03.687371  7215 layer_factory.hpp:77] Creating layer inception_4c/output
I0403 18:39:03.687387  7215 net.cpp:91] Creating Layer inception_4c/output
I0403 18:39:03.687404  7215 net.cpp:425] inception_4c/output <- inception_4c/1x1
I0403 18:39:03.687420  7215 net.cpp:425] inception_4c/output <- inception_4c/3x3
I0403 18:39:03.687438  7215 net.cpp:425] inception_4c/output <- inception_4c/5x5
I0403 18:39:03.687454  7215 net.cpp:425] inception_4c/output <- inception_4c/pool_proj
I0403 18:39:03.687472  7215 net.cpp:399] inception_4c/output -> inception_4c/output
I0403 18:39:03.687522  7215 net.cpp:141] Setting up inception_4c/output
I0403 18:39:03.687546  7215 net.cpp:148] Top shape: 24 512 14 14 (2408448)
I0403 18:39:03.687562  7215 net.cpp:156] Memory required for data: 1072647456
I0403 18:39:03.687577  7215 layer_factory.hpp:77] Creating layer inception_4c/output_inception_4c/output_0_split
I0403 18:39:03.687595  7215 net.cpp:91] Creating Layer inception_4c/output_inception_4c/output_0_split
I0403 18:39:03.687611  7215 net.cpp:425] inception_4c/output_inception_4c/output_0_split <- inception_4c/output
I0403 18:39:03.687633  7215 net.cpp:399] inception_4c/output_inception_4c/output_0_split -> inception_4c/output_inception_4c/output_0_split_0
I0403 18:39:03.687655  7215 net.cpp:399] inception_4c/output_inception_4c/output_0_split -> inception_4c/output_inception_4c/output_0_split_1
I0403 18:39:03.687679  7215 net.cpp:399] inception_4c/output_inception_4c/output_0_split -> inception_4c/output_inception_4c/output_0_split_2
I0403 18:39:03.687702  7215 net.cpp:399] inception_4c/output_inception_4c/output_0_split -> inception_4c/output_inception_4c/output_0_split_3
I0403 18:39:03.687794  7215 net.cpp:141] Setting up inception_4c/output_inception_4c/output_0_split
I0403 18:39:03.687819  7215 net.cpp:148] Top shape: 24 512 14 14 (2408448)
I0403 18:39:03.687837  7215 net.cpp:148] Top shape: 24 512 14 14 (2408448)
I0403 18:39:03.687855  7215 net.cpp:148] Top shape: 24 512 14 14 (2408448)
I0403 18:39:03.687870  7215 net.cpp:148] Top shape: 24 512 14 14 (2408448)
I0403 18:39:03.687885  7215 net.cpp:156] Memory required for data: 1111182624
I0403 18:39:03.687901  7215 layer_factory.hpp:77] Creating layer inception_4d/1x1
I0403 18:39:03.687925  7215 net.cpp:91] Creating Layer inception_4d/1x1
I0403 18:39:03.687943  7215 net.cpp:425] inception_4d/1x1 <- inception_4c/output_inception_4c/output_0_split_0
I0403 18:39:03.687966  7215 net.cpp:399] inception_4d/1x1 -> inception_4d/1x1
I0403 18:39:03.689411  7215 net.cpp:141] Setting up inception_4d/1x1
I0403 18:39:03.689445  7215 net.cpp:148] Top shape: 24 112 14 14 (526848)
I0403 18:39:03.689463  7215 net.cpp:156] Memory required for data: 1113290016
I0403 18:39:03.689482  7215 layer_factory.hpp:77] Creating layer inception_4d/relu_1x1
I0403 18:39:03.689502  7215 net.cpp:91] Creating Layer inception_4d/relu_1x1
I0403 18:39:03.689519  7215 net.cpp:425] inception_4d/relu_1x1 <- inception_4d/1x1
I0403 18:39:03.689553  7215 net.cpp:386] inception_4d/relu_1x1 -> inception_4d/1x1 (in-place)
I0403 18:39:03.689744  7215 net.cpp:141] Setting up inception_4d/relu_1x1
I0403 18:39:03.689771  7215 net.cpp:148] Top shape: 24 112 14 14 (526848)
I0403 18:39:03.689787  7215 net.cpp:156] Memory required for data: 1115397408
I0403 18:39:03.689803  7215 layer_factory.hpp:77] Creating layer inception_4d/3x3_reduce
I0403 18:39:03.689841  7215 net.cpp:91] Creating Layer inception_4d/3x3_reduce
I0403 18:39:03.689862  7215 net.cpp:425] inception_4d/3x3_reduce <- inception_4c/output_inception_4c/output_0_split_1
I0403 18:39:03.689885  7215 net.cpp:399] inception_4d/3x3_reduce -> inception_4d/3x3_reduce
I0403 18:39:03.691465  7215 net.cpp:141] Setting up inception_4d/3x3_reduce
I0403 18:39:03.691500  7215 net.cpp:148] Top shape: 24 144 14 14 (677376)
I0403 18:39:03.691520  7215 net.cpp:156] Memory required for data: 1118106912
I0403 18:39:03.691552  7215 layer_factory.hpp:77] Creating layer inception_4d/relu_3x3_reduce
I0403 18:39:03.691572  7215 net.cpp:91] Creating Layer inception_4d/relu_3x3_reduce
I0403 18:39:03.691591  7215 net.cpp:425] inception_4d/relu_3x3_reduce <- inception_4d/3x3_reduce
I0403 18:39:03.691612  7215 net.cpp:386] inception_4d/relu_3x3_reduce -> inception_4d/3x3_reduce (in-place)
I0403 18:39:03.691910  7215 net.cpp:141] Setting up inception_4d/relu_3x3_reduce
I0403 18:39:03.691941  7215 net.cpp:148] Top shape: 24 144 14 14 (677376)
I0403 18:39:03.691961  7215 net.cpp:156] Memory required for data: 1120816416
I0403 18:39:03.691977  7215 layer_factory.hpp:77] Creating layer inception_4d/3x3
I0403 18:39:03.691999  7215 net.cpp:91] Creating Layer inception_4d/3x3
I0403 18:39:03.692018  7215 net.cpp:425] inception_4d/3x3 <- inception_4d/3x3_reduce
I0403 18:39:03.692039  7215 net.cpp:399] inception_4d/3x3 -> inception_4d/3x3
I0403 18:39:03.696451  7215 net.cpp:141] Setting up inception_4d/3x3
I0403 18:39:03.696483  7215 net.cpp:148] Top shape: 24 288 14 14 (1354752)
I0403 18:39:03.696501  7215 net.cpp:156] Memory required for data: 1126235424
I0403 18:39:03.696519  7215 layer_factory.hpp:77] Creating layer inception_4d/relu_3x3
I0403 18:39:03.696537  7215 net.cpp:91] Creating Layer inception_4d/relu_3x3
I0403 18:39:03.696553  7215 net.cpp:425] inception_4d/relu_3x3 <- inception_4d/3x3
I0403 18:39:03.696573  7215 net.cpp:386] inception_4d/relu_3x3 -> inception_4d/3x3 (in-place)
I0403 18:39:03.696763  7215 net.cpp:141] Setting up inception_4d/relu_3x3
I0403 18:39:03.696789  7215 net.cpp:148] Top shape: 24 288 14 14 (1354752)
I0403 18:39:03.696805  7215 net.cpp:156] Memory required for data: 1131654432
I0403 18:39:03.696821  7215 layer_factory.hpp:77] Creating layer inception_4d/5x5_reduce
I0403 18:39:03.696844  7215 net.cpp:91] Creating Layer inception_4d/5x5_reduce
I0403 18:39:03.696861  7215 net.cpp:425] inception_4d/5x5_reduce <- inception_4c/output_inception_4c/output_0_split_2
I0403 18:39:03.696882  7215 net.cpp:399] inception_4d/5x5_reduce -> inception_4d/5x5_reduce
I0403 18:39:03.698070  7215 net.cpp:141] Setting up inception_4d/5x5_reduce
I0403 18:39:03.698099  7215 net.cpp:148] Top shape: 24 32 14 14 (150528)
I0403 18:39:03.698117  7215 net.cpp:156] Memory required for data: 1132256544
I0403 18:39:03.698135  7215 layer_factory.hpp:77] Creating layer inception_4d/relu_5x5_reduce
I0403 18:39:03.698156  7215 net.cpp:91] Creating Layer inception_4d/relu_5x5_reduce
I0403 18:39:03.698176  7215 net.cpp:425] inception_4d/relu_5x5_reduce <- inception_4d/5x5_reduce
I0403 18:39:03.698194  7215 net.cpp:386] inception_4d/relu_5x5_reduce -> inception_4d/5x5_reduce (in-place)
I0403 18:39:03.698386  7215 net.cpp:141] Setting up inception_4d/relu_5x5_reduce
I0403 18:39:03.698413  7215 net.cpp:148] Top shape: 24 32 14 14 (150528)
I0403 18:39:03.698429  7215 net.cpp:156] Memory required for data: 1132858656
I0403 18:39:03.698446  7215 layer_factory.hpp:77] Creating layer inception_4d/5x5
I0403 18:39:03.698468  7215 net.cpp:91] Creating Layer inception_4d/5x5
I0403 18:39:03.698488  7215 net.cpp:425] inception_4d/5x5 <- inception_4d/5x5_reduce
I0403 18:39:03.698510  7215 net.cpp:399] inception_4d/5x5 -> inception_4d/5x5
I0403 18:39:03.699981  7215 net.cpp:141] Setting up inception_4d/5x5
I0403 18:39:03.700011  7215 net.cpp:148] Top shape: 24 64 14 14 (301056)
I0403 18:39:03.700027  7215 net.cpp:156] Memory required for data: 1134062880
I0403 18:39:03.700047  7215 layer_factory.hpp:77] Creating layer inception_4d/relu_5x5
I0403 18:39:03.700083  7215 net.cpp:91] Creating Layer inception_4d/relu_5x5
I0403 18:39:03.700103  7215 net.cpp:425] inception_4d/relu_5x5 <- inception_4d/5x5
I0403 18:39:03.700120  7215 net.cpp:386] inception_4d/relu_5x5 -> inception_4d/5x5 (in-place)
I0403 18:39:03.700425  7215 net.cpp:141] Setting up inception_4d/relu_5x5
I0403 18:39:03.700453  7215 net.cpp:148] Top shape: 24 64 14 14 (301056)
I0403 18:39:03.700467  7215 net.cpp:156] Memory required for data: 1135267104
I0403 18:39:03.700481  7215 layer_factory.hpp:77] Creating layer inception_4d/pool
I0403 18:39:03.700501  7215 net.cpp:91] Creating Layer inception_4d/pool
I0403 18:39:03.700520  7215 net.cpp:425] inception_4d/pool <- inception_4c/output_inception_4c/output_0_split_3
I0403 18:39:03.700538  7215 net.cpp:399] inception_4d/pool -> inception_4d/pool
I0403 18:39:03.700606  7215 net.cpp:141] Setting up inception_4d/pool
I0403 18:39:03.700629  7215 net.cpp:148] Top shape: 24 512 14 14 (2408448)
I0403 18:39:03.700644  7215 net.cpp:156] Memory required for data: 1144900896
I0403 18:39:03.700659  7215 layer_factory.hpp:77] Creating layer inception_4d/pool_proj
I0403 18:39:03.700680  7215 net.cpp:91] Creating Layer inception_4d/pool_proj
I0403 18:39:03.700697  7215 net.cpp:425] inception_4d/pool_proj <- inception_4d/pool
I0403 18:39:03.700718  7215 net.cpp:399] inception_4d/pool_proj -> inception_4d/pool_proj
I0403 18:39:03.702549  7215 net.cpp:141] Setting up inception_4d/pool_proj
I0403 18:39:03.702580  7215 net.cpp:148] Top shape: 24 64 14 14 (301056)
I0403 18:39:03.702595  7215 net.cpp:156] Memory required for data: 1146105120
I0403 18:39:03.702615  7215 layer_factory.hpp:77] Creating layer inception_4d/relu_pool_proj
I0403 18:39:03.702633  7215 net.cpp:91] Creating Layer inception_4d/relu_pool_proj
I0403 18:39:03.702651  7215 net.cpp:425] inception_4d/relu_pool_proj <- inception_4d/pool_proj
I0403 18:39:03.702672  7215 net.cpp:386] inception_4d/relu_pool_proj -> inception_4d/pool_proj (in-place)
I0403 18:39:03.702859  7215 net.cpp:141] Setting up inception_4d/relu_pool_proj
I0403 18:39:03.702884  7215 net.cpp:148] Top shape: 24 64 14 14 (301056)
I0403 18:39:03.702899  7215 net.cpp:156] Memory required for data: 1147309344
I0403 18:39:03.702913  7215 layer_factory.hpp:77] Creating layer inception_4d/output
I0403 18:39:03.702934  7215 net.cpp:91] Creating Layer inception_4d/output
I0403 18:39:03.702950  7215 net.cpp:425] inception_4d/output <- inception_4d/1x1
I0403 18:39:03.702966  7215 net.cpp:425] inception_4d/output <- inception_4d/3x3
I0403 18:39:03.702983  7215 net.cpp:425] inception_4d/output <- inception_4d/5x5
I0403 18:39:03.703001  7215 net.cpp:425] inception_4d/output <- inception_4d/pool_proj
I0403 18:39:03.703017  7215 net.cpp:399] inception_4d/output -> inception_4d/output
I0403 18:39:03.703065  7215 net.cpp:141] Setting up inception_4d/output
I0403 18:39:03.703088  7215 net.cpp:148] Top shape: 24 528 14 14 (2483712)
I0403 18:39:03.703104  7215 net.cpp:156] Memory required for data: 1157244192
I0403 18:39:03.703119  7215 layer_factory.hpp:77] Creating layer inception_4d/output_inception_4d/output_0_split
I0403 18:39:03.703135  7215 net.cpp:91] Creating Layer inception_4d/output_inception_4d/output_0_split
I0403 18:39:03.703150  7215 net.cpp:425] inception_4d/output_inception_4d/output_0_split <- inception_4d/output
I0403 18:39:03.703171  7215 net.cpp:399] inception_4d/output_inception_4d/output_0_split -> inception_4d/output_inception_4d/output_0_split_0
I0403 18:39:03.703192  7215 net.cpp:399] inception_4d/output_inception_4d/output_0_split -> inception_4d/output_inception_4d/output_0_split_1
I0403 18:39:03.703213  7215 net.cpp:399] inception_4d/output_inception_4d/output_0_split -> inception_4d/output_inception_4d/output_0_split_2
I0403 18:39:03.703235  7215 net.cpp:399] inception_4d/output_inception_4d/output_0_split -> inception_4d/output_inception_4d/output_0_split_3
I0403 18:39:03.703261  7215 net.cpp:399] inception_4d/output_inception_4d/output_0_split -> inception_4d/output_inception_4d/output_0_split_4
I0403 18:39:03.703368  7215 net.cpp:141] Setting up inception_4d/output_inception_4d/output_0_split
I0403 18:39:03.703404  7215 net.cpp:148] Top shape: 24 528 14 14 (2483712)
I0403 18:39:03.703420  7215 net.cpp:148] Top shape: 24 528 14 14 (2483712)
I0403 18:39:03.703438  7215 net.cpp:148] Top shape: 24 528 14 14 (2483712)
I0403 18:39:03.703454  7215 net.cpp:148] Top shape: 24 528 14 14 (2483712)
I0403 18:39:03.703469  7215 net.cpp:148] Top shape: 24 528 14 14 (2483712)
I0403 18:39:03.703483  7215 net.cpp:156] Memory required for data: 1206918432
I0403 18:39:03.703497  7215 layer_factory.hpp:77] Creating layer loss2/ave_pool
I0403 18:39:03.703516  7215 net.cpp:91] Creating Layer loss2/ave_pool
I0403 18:39:03.703531  7215 net.cpp:425] loss2/ave_pool <- inception_4d/output_inception_4d/output_0_split_0
I0403 18:39:03.703553  7215 net.cpp:399] loss2/ave_pool -> loss2/ave_pool
I0403 18:39:03.703865  7215 net.cpp:141] Setting up loss2/ave_pool
I0403 18:39:03.703891  7215 net.cpp:148] Top shape: 24 528 4 4 (202752)
I0403 18:39:03.703907  7215 net.cpp:156] Memory required for data: 1207729440
I0403 18:39:03.703922  7215 layer_factory.hpp:77] Creating layer loss2/conv
I0403 18:39:03.703944  7215 net.cpp:91] Creating Layer loss2/conv
I0403 18:39:03.703963  7215 net.cpp:425] loss2/conv <- loss2/ave_pool
I0403 18:39:03.703984  7215 net.cpp:399] loss2/conv -> loss2/conv
I0403 18:39:03.705905  7215 net.cpp:141] Setting up loss2/conv
I0403 18:39:03.705937  7215 net.cpp:148] Top shape: 24 128 4 4 (49152)
I0403 18:39:03.705955  7215 net.cpp:156] Memory required for data: 1207926048
I0403 18:39:03.705976  7215 layer_factory.hpp:77] Creating layer loss2/relu_conv
I0403 18:39:03.705994  7215 net.cpp:91] Creating Layer loss2/relu_conv
I0403 18:39:03.706012  7215 net.cpp:425] loss2/relu_conv <- loss2/conv
I0403 18:39:03.706029  7215 net.cpp:386] loss2/relu_conv -> loss2/conv (in-place)
I0403 18:39:03.706321  7215 net.cpp:141] Setting up loss2/relu_conv
I0403 18:39:03.706349  7215 net.cpp:148] Top shape: 24 128 4 4 (49152)
I0403 18:39:03.706367  7215 net.cpp:156] Memory required for data: 1208122656
I0403 18:39:03.706383  7215 layer_factory.hpp:77] Creating layer loss2/fc
I0403 18:39:03.706403  7215 net.cpp:91] Creating Layer loss2/fc
I0403 18:39:03.706419  7215 net.cpp:425] loss2/fc <- loss2/conv
I0403 18:39:03.706441  7215 net.cpp:399] loss2/fc -> loss2/fc
I0403 18:39:03.724103  7215 net.cpp:141] Setting up loss2/fc
I0403 18:39:03.724140  7215 net.cpp:148] Top shape: 24 1024 (24576)
I0403 18:39:03.724156  7215 net.cpp:156] Memory required for data: 1208220960
I0403 18:39:03.724175  7215 layer_factory.hpp:77] Creating layer loss2/relu_fc
I0403 18:39:03.724197  7215 net.cpp:91] Creating Layer loss2/relu_fc
I0403 18:39:03.724215  7215 net.cpp:425] loss2/relu_fc <- loss2/fc
I0403 18:39:03.724232  7215 net.cpp:386] loss2/relu_fc -> loss2/fc (in-place)
I0403 18:39:03.724547  7215 net.cpp:141] Setting up loss2/relu_fc
I0403 18:39:03.724576  7215 net.cpp:148] Top shape: 24 1024 (24576)
I0403 18:39:03.724591  7215 net.cpp:156] Memory required for data: 1208319264
I0403 18:39:03.724607  7215 layer_factory.hpp:77] Creating layer loss2/drop_fc
I0403 18:39:03.724628  7215 net.cpp:91] Creating Layer loss2/drop_fc
I0403 18:39:03.724647  7215 net.cpp:425] loss2/drop_fc <- loss2/fc
I0403 18:39:03.724663  7215 net.cpp:386] loss2/drop_fc -> loss2/fc (in-place)
I0403 18:39:03.724712  7215 net.cpp:141] Setting up loss2/drop_fc
I0403 18:39:03.724737  7215 net.cpp:148] Top shape: 24 1024 (24576)
I0403 18:39:03.724752  7215 net.cpp:156] Memory required for data: 1208417568
I0403 18:39:03.724767  7215 layer_factory.hpp:77] Creating layer loss2/classifier_plantvillage
I0403 18:39:03.724786  7215 net.cpp:91] Creating Layer loss2/classifier_plantvillage
I0403 18:39:03.724802  7215 net.cpp:425] loss2/classifier_plantvillage <- loss2/fc
I0403 18:39:03.724822  7215 net.cpp:399] loss2/classifier_plantvillage -> loss2/classifier_plantvillage
I0403 18:39:03.725224  7215 net.cpp:141] Setting up loss2/classifier_plantvillage
I0403 18:39:03.725265  7215 net.cpp:148] Top shape: 24 38 (912)
I0403 18:39:03.725301  7215 net.cpp:156] Memory required for data: 1208421216
I0403 18:39:03.725320  7215 layer_factory.hpp:77] Creating layer loss2/classifier_plantvillage_loss2/classifier_plantvillage_0_split
I0403 18:39:03.725339  7215 net.cpp:91] Creating Layer loss2/classifier_plantvillage_loss2/classifier_plantvillage_0_split
I0403 18:39:03.725356  7215 net.cpp:425] loss2/classifier_plantvillage_loss2/classifier_plantvillage_0_split <- loss2/classifier_plantvillage
I0403 18:39:03.725375  7215 net.cpp:399] loss2/classifier_plantvillage_loss2/classifier_plantvillage_0_split -> loss2/classifier_plantvillage_loss2/classifier_plantvillage_0_split_0
I0403 18:39:03.725400  7215 net.cpp:399] loss2/classifier_plantvillage_loss2/classifier_plantvillage_0_split -> loss2/classifier_plantvillage_loss2/classifier_plantvillage_0_split_1
I0403 18:39:03.725424  7215 net.cpp:399] loss2/classifier_plantvillage_loss2/classifier_plantvillage_0_split -> loss2/classifier_plantvillage_loss2/classifier_plantvillage_0_split_2
I0403 18:39:03.725500  7215 net.cpp:141] Setting up loss2/classifier_plantvillage_loss2/classifier_plantvillage_0_split
I0403 18:39:03.725524  7215 net.cpp:148] Top shape: 24 38 (912)
I0403 18:39:03.725551  7215 net.cpp:148] Top shape: 24 38 (912)
I0403 18:39:03.725567  7215 net.cpp:148] Top shape: 24 38 (912)
I0403 18:39:03.725582  7215 net.cpp:156] Memory required for data: 1208432160
I0403 18:39:03.725597  7215 layer_factory.hpp:77] Creating layer inception_4e/1x1
I0403 18:39:03.725620  7215 net.cpp:91] Creating Layer inception_4e/1x1
I0403 18:39:03.725636  7215 net.cpp:425] inception_4e/1x1 <- inception_4d/output_inception_4d/output_0_split_1
I0403 18:39:03.725658  7215 net.cpp:399] inception_4e/1x1 -> inception_4e/1x1
I0403 18:39:03.727442  7215 net.cpp:141] Setting up inception_4e/1x1
I0403 18:39:03.727473  7215 net.cpp:148] Top shape: 24 256 14 14 (1204224)
I0403 18:39:03.727489  7215 net.cpp:156] Memory required for data: 1213249056
I0403 18:39:03.727509  7215 layer_factory.hpp:77] Creating layer inception_4e/relu_1x1
I0403 18:39:03.727530  7215 net.cpp:91] Creating Layer inception_4e/relu_1x1
I0403 18:39:03.727545  7215 net.cpp:425] inception_4e/relu_1x1 <- inception_4e/1x1
I0403 18:39:03.727563  7215 net.cpp:386] inception_4e/relu_1x1 -> inception_4e/1x1 (in-place)
I0403 18:39:03.727855  7215 net.cpp:141] Setting up inception_4e/relu_1x1
I0403 18:39:03.727883  7215 net.cpp:148] Top shape: 24 256 14 14 (1204224)
I0403 18:39:03.727898  7215 net.cpp:156] Memory required for data: 1218065952
I0403 18:39:03.727913  7215 layer_factory.hpp:77] Creating layer inception_4e/3x3_reduce
I0403 18:39:03.727938  7215 net.cpp:91] Creating Layer inception_4e/3x3_reduce
I0403 18:39:03.727957  7215 net.cpp:425] inception_4e/3x3_reduce <- inception_4d/output_inception_4d/output_0_split_2
I0403 18:39:03.727977  7215 net.cpp:399] inception_4e/3x3_reduce -> inception_4e/3x3_reduce
I0403 18:39:03.730089  7215 net.cpp:141] Setting up inception_4e/3x3_reduce
I0403 18:39:03.730118  7215 net.cpp:148] Top shape: 24 160 14 14 (752640)
I0403 18:39:03.730134  7215 net.cpp:156] Memory required for data: 1221076512
I0403 18:39:03.730154  7215 layer_factory.hpp:77] Creating layer inception_4e/relu_3x3_reduce
I0403 18:39:03.730175  7215 net.cpp:91] Creating Layer inception_4e/relu_3x3_reduce
I0403 18:39:03.730192  7215 net.cpp:425] inception_4e/relu_3x3_reduce <- inception_4e/3x3_reduce
I0403 18:39:03.730211  7215 net.cpp:386] inception_4e/relu_3x3_reduce -> inception_4e/3x3_reduce (in-place)
I0403 18:39:03.730397  7215 net.cpp:141] Setting up inception_4e/relu_3x3_reduce
I0403 18:39:03.730425  7215 net.cpp:148] Top shape: 24 160 14 14 (752640)
I0403 18:39:03.730443  7215 net.cpp:156] Memory required for data: 1224087072
I0403 18:39:03.730458  7215 layer_factory.hpp:77] Creating layer inception_4e/3x3
I0403 18:39:03.730480  7215 net.cpp:91] Creating Layer inception_4e/3x3
I0403 18:39:03.730499  7215 net.cpp:425] inception_4e/3x3 <- inception_4e/3x3_reduce
I0403 18:39:03.730518  7215 net.cpp:399] inception_4e/3x3 -> inception_4e/3x3
I0403 18:39:03.735494  7215 net.cpp:141] Setting up inception_4e/3x3
I0403 18:39:03.735541  7215 net.cpp:148] Top shape: 24 320 14 14 (1505280)
I0403 18:39:03.735560  7215 net.cpp:156] Memory required for data: 1230108192
I0403 18:39:03.735579  7215 layer_factory.hpp:77] Creating layer inception_4e/relu_3x3
I0403 18:39:03.735599  7215 net.cpp:91] Creating Layer inception_4e/relu_3x3
I0403 18:39:03.735616  7215 net.cpp:425] inception_4e/relu_3x3 <- inception_4e/3x3
I0403 18:39:03.735635  7215 net.cpp:386] inception_4e/relu_3x3 -> inception_4e/3x3 (in-place)
I0403 18:39:03.735929  7215 net.cpp:141] Setting up inception_4e/relu_3x3
I0403 18:39:03.735959  7215 net.cpp:148] Top shape: 24 320 14 14 (1505280)
I0403 18:39:03.735972  7215 net.cpp:156] Memory required for data: 1236129312
I0403 18:39:03.735988  7215 layer_factory.hpp:77] Creating layer inception_4e/5x5_reduce
I0403 18:39:03.736013  7215 net.cpp:91] Creating Layer inception_4e/5x5_reduce
I0403 18:39:03.736032  7215 net.cpp:425] inception_4e/5x5_reduce <- inception_4d/output_inception_4d/output_0_split_3
I0403 18:39:03.736057  7215 net.cpp:399] inception_4e/5x5_reduce -> inception_4e/5x5_reduce
I0403 18:39:03.737108  7215 net.cpp:141] Setting up inception_4e/5x5_reduce
I0403 18:39:03.737136  7215 net.cpp:148] Top shape: 24 32 14 14 (150528)
I0403 18:39:03.737154  7215 net.cpp:156] Memory required for data: 1236731424
I0403 18:39:03.737172  7215 layer_factory.hpp:77] Creating layer inception_4e/relu_5x5_reduce
I0403 18:39:03.737193  7215 net.cpp:91] Creating Layer inception_4e/relu_5x5_reduce
I0403 18:39:03.737212  7215 net.cpp:425] inception_4e/relu_5x5_reduce <- inception_4e/5x5_reduce
I0403 18:39:03.737231  7215 net.cpp:386] inception_4e/relu_5x5_reduce -> inception_4e/5x5_reduce (in-place)
I0403 18:39:03.737675  7215 net.cpp:141] Setting up inception_4e/relu_5x5_reduce
I0403 18:39:03.737701  7215 net.cpp:148] Top shape: 24 32 14 14 (150528)
I0403 18:39:03.737716  7215 net.cpp:156] Memory required for data: 1237333536
I0403 18:39:03.737731  7215 layer_factory.hpp:77] Creating layer inception_4e/5x5
I0403 18:39:03.737771  7215 net.cpp:91] Creating Layer inception_4e/5x5
I0403 18:39:03.737792  7215 net.cpp:425] inception_4e/5x5 <- inception_4e/5x5_reduce
I0403 18:39:03.737812  7215 net.cpp:399] inception_4e/5x5 -> inception_4e/5x5
I0403 18:39:03.739619  7215 net.cpp:141] Setting up inception_4e/5x5
I0403 18:39:03.739650  7215 net.cpp:148] Top shape: 24 128 14 14 (602112)
I0403 18:39:03.739666  7215 net.cpp:156] Memory required for data: 1239741984
I0403 18:39:03.739687  7215 layer_factory.hpp:77] Creating layer inception_4e/relu_5x5
I0403 18:39:03.739709  7215 net.cpp:91] Creating Layer inception_4e/relu_5x5
I0403 18:39:03.739727  7215 net.cpp:425] inception_4e/relu_5x5 <- inception_4e/5x5
I0403 18:39:03.739744  7215 net.cpp:386] inception_4e/relu_5x5 -> inception_4e/5x5 (in-place)
I0403 18:39:03.739936  7215 net.cpp:141] Setting up inception_4e/relu_5x5
I0403 18:39:03.739964  7215 net.cpp:148] Top shape: 24 128 14 14 (602112)
I0403 18:39:03.739979  7215 net.cpp:156] Memory required for data: 1242150432
I0403 18:39:03.739994  7215 layer_factory.hpp:77] Creating layer inception_4e/pool
I0403 18:39:03.740012  7215 net.cpp:91] Creating Layer inception_4e/pool
I0403 18:39:03.740027  7215 net.cpp:425] inception_4e/pool <- inception_4d/output_inception_4d/output_0_split_4
I0403 18:39:03.740046  7215 net.cpp:399] inception_4e/pool -> inception_4e/pool
I0403 18:39:03.740115  7215 net.cpp:141] Setting up inception_4e/pool
I0403 18:39:03.740139  7215 net.cpp:148] Top shape: 24 528 14 14 (2483712)
I0403 18:39:03.740152  7215 net.cpp:156] Memory required for data: 1252085280
I0403 18:39:03.740167  7215 layer_factory.hpp:77] Creating layer inception_4e/pool_proj
I0403 18:39:03.740188  7215 net.cpp:91] Creating Layer inception_4e/pool_proj
I0403 18:39:03.740206  7215 net.cpp:425] inception_4e/pool_proj <- inception_4e/pool
I0403 18:39:03.740229  7215 net.cpp:399] inception_4e/pool_proj -> inception_4e/pool_proj
I0403 18:39:03.741755  7215 net.cpp:141] Setting up inception_4e/pool_proj
I0403 18:39:03.741796  7215 net.cpp:148] Top shape: 24 128 14 14 (602112)
I0403 18:39:03.741813  7215 net.cpp:156] Memory required for data: 1254493728
I0403 18:39:03.741832  7215 layer_factory.hpp:77] Creating layer inception_4e/relu_pool_proj
I0403 18:39:03.741850  7215 net.cpp:91] Creating Layer inception_4e/relu_pool_proj
I0403 18:39:03.741868  7215 net.cpp:425] inception_4e/relu_pool_proj <- inception_4e/pool_proj
I0403 18:39:03.741888  7215 net.cpp:386] inception_4e/relu_pool_proj -> inception_4e/pool_proj (in-place)
I0403 18:39:03.742182  7215 net.cpp:141] Setting up inception_4e/relu_pool_proj
I0403 18:39:03.742209  7215 net.cpp:148] Top shape: 24 128 14 14 (602112)
I0403 18:39:03.742225  7215 net.cpp:156] Memory required for data: 1256902176
I0403 18:39:03.742250  7215 layer_factory.hpp:77] Creating layer inception_4e/output
I0403 18:39:03.742272  7215 net.cpp:91] Creating Layer inception_4e/output
I0403 18:39:03.742291  7215 net.cpp:425] inception_4e/output <- inception_4e/1x1
I0403 18:39:03.742310  7215 net.cpp:425] inception_4e/output <- inception_4e/3x3
I0403 18:39:03.742326  7215 net.cpp:425] inception_4e/output <- inception_4e/5x5
I0403 18:39:03.742341  7215 net.cpp:425] inception_4e/output <- inception_4e/pool_proj
I0403 18:39:03.742360  7215 net.cpp:399] inception_4e/output -> inception_4e/output
I0403 18:39:03.742409  7215 net.cpp:141] Setting up inception_4e/output
I0403 18:39:03.742439  7215 net.cpp:148] Top shape: 24 832 14 14 (3913728)
I0403 18:39:03.742455  7215 net.cpp:156] Memory required for data: 1272557088
I0403 18:39:03.742480  7215 layer_factory.hpp:77] Creating layer pool4/3x3_s2
I0403 18:39:03.742496  7215 net.cpp:91] Creating Layer pool4/3x3_s2
I0403 18:39:03.742511  7215 net.cpp:425] pool4/3x3_s2 <- inception_4e/output
I0403 18:39:03.742532  7215 net.cpp:399] pool4/3x3_s2 -> pool4/3x3_s2
I0403 18:39:03.742596  7215 net.cpp:141] Setting up pool4/3x3_s2
I0403 18:39:03.742620  7215 net.cpp:148] Top shape: 24 832 7 7 (978432)
I0403 18:39:03.742633  7215 net.cpp:156] Memory required for data: 1276470816
I0403 18:39:03.742647  7215 layer_factory.hpp:77] Creating layer pool4/3x3_s2_pool4/3x3_s2_0_split
I0403 18:39:03.742667  7215 net.cpp:91] Creating Layer pool4/3x3_s2_pool4/3x3_s2_0_split
I0403 18:39:03.742682  7215 net.cpp:425] pool4/3x3_s2_pool4/3x3_s2_0_split <- pool4/3x3_s2
I0403 18:39:03.742699  7215 net.cpp:399] pool4/3x3_s2_pool4/3x3_s2_0_split -> pool4/3x3_s2_pool4/3x3_s2_0_split_0
I0403 18:39:03.742719  7215 net.cpp:399] pool4/3x3_s2_pool4/3x3_s2_0_split -> pool4/3x3_s2_pool4/3x3_s2_0_split_1
I0403 18:39:03.742740  7215 net.cpp:399] pool4/3x3_s2_pool4/3x3_s2_0_split -> pool4/3x3_s2_pool4/3x3_s2_0_split_2
I0403 18:39:03.742759  7215 net.cpp:399] pool4/3x3_s2_pool4/3x3_s2_0_split -> pool4/3x3_s2_pool4/3x3_s2_0_split_3
I0403 18:39:03.742846  7215 net.cpp:141] Setting up pool4/3x3_s2_pool4/3x3_s2_0_split
I0403 18:39:03.742867  7215 net.cpp:148] Top shape: 24 832 7 7 (978432)
I0403 18:39:03.742883  7215 net.cpp:148] Top shape: 24 832 7 7 (978432)
I0403 18:39:03.742898  7215 net.cpp:148] Top shape: 24 832 7 7 (978432)
I0403 18:39:03.742913  7215 net.cpp:148] Top shape: 24 832 7 7 (978432)
I0403 18:39:03.742928  7215 net.cpp:156] Memory required for data: 1292125728
I0403 18:39:03.742940  7215 layer_factory.hpp:77] Creating layer inception_5a/1x1
I0403 18:39:03.742962  7215 net.cpp:91] Creating Layer inception_5a/1x1
I0403 18:39:03.742980  7215 net.cpp:425] inception_5a/1x1 <- pool4/3x3_s2_pool4/3x3_s2_0_split_0
I0403 18:39:03.743000  7215 net.cpp:399] inception_5a/1x1 -> inception_5a/1x1
I0403 18:39:03.745846  7215 net.cpp:141] Setting up inception_5a/1x1
I0403 18:39:03.745874  7215 net.cpp:148] Top shape: 24 256 7 7 (301056)
I0403 18:39:03.745892  7215 net.cpp:156] Memory required for data: 1293329952
I0403 18:39:03.745910  7215 layer_factory.hpp:77] Creating layer inception_5a/relu_1x1
I0403 18:39:03.745932  7215 net.cpp:91] Creating Layer inception_5a/relu_1x1
I0403 18:39:03.745950  7215 net.cpp:425] inception_5a/relu_1x1 <- inception_5a/1x1
I0403 18:39:03.745968  7215 net.cpp:386] inception_5a/relu_1x1 -> inception_5a/1x1 (in-place)
I0403 18:39:03.746294  7215 net.cpp:141] Setting up inception_5a/relu_1x1
I0403 18:39:03.746321  7215 net.cpp:148] Top shape: 24 256 7 7 (301056)
I0403 18:39:03.746338  7215 net.cpp:156] Memory required for data: 1294534176
I0403 18:39:03.746353  7215 layer_factory.hpp:77] Creating layer inception_5a/3x3_reduce
I0403 18:39:03.746376  7215 net.cpp:91] Creating Layer inception_5a/3x3_reduce
I0403 18:39:03.746394  7215 net.cpp:425] inception_5a/3x3_reduce <- pool4/3x3_s2_pool4/3x3_s2_0_split_1
I0403 18:39:03.746417  7215 net.cpp:399] inception_5a/3x3_reduce -> inception_5a/3x3_reduce
I0403 18:39:03.748812  7215 net.cpp:141] Setting up inception_5a/3x3_reduce
I0403 18:39:03.748842  7215 net.cpp:148] Top shape: 24 160 7 7 (188160)
I0403 18:39:03.748857  7215 net.cpp:156] Memory required for data: 1295286816
I0403 18:39:03.748877  7215 layer_factory.hpp:77] Creating layer inception_5a/relu_3x3_reduce
I0403 18:39:03.748893  7215 net.cpp:91] Creating Layer inception_5a/relu_3x3_reduce
I0403 18:39:03.748909  7215 net.cpp:425] inception_5a/relu_3x3_reduce <- inception_5a/3x3_reduce
I0403 18:39:03.748929  7215 net.cpp:386] inception_5a/relu_3x3_reduce -> inception_5a/3x3_reduce (in-place)
I0403 18:39:03.749114  7215 net.cpp:141] Setting up inception_5a/relu_3x3_reduce
I0403 18:39:03.749138  7215 net.cpp:148] Top shape: 24 160 7 7 (188160)
I0403 18:39:03.749152  7215 net.cpp:156] Memory required for data: 1296039456
I0403 18:39:03.749166  7215 layer_factory.hpp:77] Creating layer inception_5a/3x3
I0403 18:39:03.749188  7215 net.cpp:91] Creating Layer inception_5a/3x3
I0403 18:39:03.749205  7215 net.cpp:425] inception_5a/3x3 <- inception_5a/3x3_reduce
I0403 18:39:03.749227  7215 net.cpp:399] inception_5a/3x3 -> inception_5a/3x3
I0403 18:39:03.754215  7215 net.cpp:141] Setting up inception_5a/3x3
I0403 18:39:03.754247  7215 net.cpp:148] Top shape: 24 320 7 7 (376320)
I0403 18:39:03.754264  7215 net.cpp:156] Memory required for data: 1297544736
I0403 18:39:03.754284  7215 layer_factory.hpp:77] Creating layer inception_5a/relu_3x3
I0403 18:39:03.754303  7215 net.cpp:91] Creating Layer inception_5a/relu_3x3
I0403 18:39:03.754320  7215 net.cpp:425] inception_5a/relu_3x3 <- inception_5a/3x3
I0403 18:39:03.754338  7215 net.cpp:386] inception_5a/relu_3x3 -> inception_5a/3x3 (in-place)
I0403 18:39:03.754628  7215 net.cpp:141] Setting up inception_5a/relu_3x3
I0403 18:39:03.754654  7215 net.cpp:148] Top shape: 24 320 7 7 (376320)
I0403 18:39:03.754669  7215 net.cpp:156] Memory required for data: 1299050016
I0403 18:39:03.754684  7215 layer_factory.hpp:77] Creating layer inception_5a/5x5_reduce
I0403 18:39:03.754706  7215 net.cpp:91] Creating Layer inception_5a/5x5_reduce
I0403 18:39:03.754724  7215 net.cpp:425] inception_5a/5x5_reduce <- pool4/3x3_s2_pool4/3x3_s2_0_split_2
I0403 18:39:03.754746  7215 net.cpp:399] inception_5a/5x5_reduce -> inception_5a/5x5_reduce
I0403 18:39:03.755923  7215 net.cpp:141] Setting up inception_5a/5x5_reduce
I0403 18:39:03.755956  7215 net.cpp:148] Top shape: 24 32 7 7 (37632)
I0403 18:39:03.755973  7215 net.cpp:156] Memory required for data: 1299200544
I0403 18:39:03.755992  7215 layer_factory.hpp:77] Creating layer inception_5a/relu_5x5_reduce
I0403 18:39:03.756009  7215 net.cpp:91] Creating Layer inception_5a/relu_5x5_reduce
I0403 18:39:03.756026  7215 net.cpp:425] inception_5a/relu_5x5_reduce <- inception_5a/5x5_reduce
I0403 18:39:03.756044  7215 net.cpp:386] inception_5a/relu_5x5_reduce -> inception_5a/5x5_reduce (in-place)
I0403 18:39:03.756345  7215 net.cpp:141] Setting up inception_5a/relu_5x5_reduce
I0403 18:39:03.756374  7215 net.cpp:148] Top shape: 24 32 7 7 (37632)
I0403 18:39:03.756389  7215 net.cpp:156] Memory required for data: 1299351072
I0403 18:39:03.756405  7215 layer_factory.hpp:77] Creating layer inception_5a/5x5
I0403 18:39:03.756425  7215 net.cpp:91] Creating Layer inception_5a/5x5
I0403 18:39:03.756444  7215 net.cpp:425] inception_5a/5x5 <- inception_5a/5x5_reduce
I0403 18:39:03.756466  7215 net.cpp:399] inception_5a/5x5 -> inception_5a/5x5
I0403 18:39:03.758180  7215 net.cpp:141] Setting up inception_5a/5x5
I0403 18:39:03.758220  7215 net.cpp:148] Top shape: 24 128 7 7 (150528)
I0403 18:39:03.758236  7215 net.cpp:156] Memory required for data: 1299953184
I0403 18:39:03.758260  7215 layer_factory.hpp:77] Creating layer inception_5a/relu_5x5
I0403 18:39:03.758280  7215 net.cpp:91] Creating Layer inception_5a/relu_5x5
I0403 18:39:03.758298  7215 net.cpp:425] inception_5a/relu_5x5 <- inception_5a/5x5
I0403 18:39:03.758314  7215 net.cpp:386] inception_5a/relu_5x5 -> inception_5a/5x5 (in-place)
I0403 18:39:03.758499  7215 net.cpp:141] Setting up inception_5a/relu_5x5
I0403 18:39:03.758527  7215 net.cpp:148] Top shape: 24 128 7 7 (150528)
I0403 18:39:03.758541  7215 net.cpp:156] Memory required for data: 1300555296
I0403 18:39:03.758556  7215 layer_factory.hpp:77] Creating layer inception_5a/pool
I0403 18:39:03.758574  7215 net.cpp:91] Creating Layer inception_5a/pool
I0403 18:39:03.758589  7215 net.cpp:425] inception_5a/pool <- pool4/3x3_s2_pool4/3x3_s2_0_split_3
I0403 18:39:03.758606  7215 net.cpp:399] inception_5a/pool -> inception_5a/pool
I0403 18:39:03.758678  7215 net.cpp:141] Setting up inception_5a/pool
I0403 18:39:03.758700  7215 net.cpp:148] Top shape: 24 832 7 7 (978432)
I0403 18:39:03.758715  7215 net.cpp:156] Memory required for data: 1304469024
I0403 18:39:03.758728  7215 layer_factory.hpp:77] Creating layer inception_5a/pool_proj
I0403 18:39:03.758750  7215 net.cpp:91] Creating Layer inception_5a/pool_proj
I0403 18:39:03.758767  7215 net.cpp:425] inception_5a/pool_proj <- inception_5a/pool
I0403 18:39:03.758788  7215 net.cpp:399] inception_5a/pool_proj -> inception_5a/pool_proj
I0403 18:39:03.760998  7215 net.cpp:141] Setting up inception_5a/pool_proj
I0403 18:39:03.761029  7215 net.cpp:148] Top shape: 24 128 7 7 (150528)
I0403 18:39:03.761045  7215 net.cpp:156] Memory required for data: 1305071136
I0403 18:39:03.761065  7215 layer_factory.hpp:77] Creating layer inception_5a/relu_pool_proj
I0403 18:39:03.761085  7215 net.cpp:91] Creating Layer inception_5a/relu_pool_proj
I0403 18:39:03.761113  7215 net.cpp:425] inception_5a/relu_pool_proj <- inception_5a/pool_proj
I0403 18:39:03.761131  7215 net.cpp:386] inception_5a/relu_pool_proj -> inception_5a/pool_proj (in-place)
I0403 18:39:03.761431  7215 net.cpp:141] Setting up inception_5a/relu_pool_proj
I0403 18:39:03.761472  7215 net.cpp:148] Top shape: 24 128 7 7 (150528)
I0403 18:39:03.761488  7215 net.cpp:156] Memory required for data: 1305673248
I0403 18:39:03.761505  7215 layer_factory.hpp:77] Creating layer inception_5a/output
I0403 18:39:03.761524  7215 net.cpp:91] Creating Layer inception_5a/output
I0403 18:39:03.761540  7215 net.cpp:425] inception_5a/output <- inception_5a/1x1
I0403 18:39:03.761559  7215 net.cpp:425] inception_5a/output <- inception_5a/3x3
I0403 18:39:03.761576  7215 net.cpp:425] inception_5a/output <- inception_5a/5x5
I0403 18:39:03.761593  7215 net.cpp:425] inception_5a/output <- inception_5a/pool_proj
I0403 18:39:03.761615  7215 net.cpp:399] inception_5a/output -> inception_5a/output
I0403 18:39:03.761667  7215 net.cpp:141] Setting up inception_5a/output
I0403 18:39:03.761696  7215 net.cpp:148] Top shape: 24 832 7 7 (978432)
I0403 18:39:03.761713  7215 net.cpp:156] Memory required for data: 1309586976
I0403 18:39:03.761741  7215 layer_factory.hpp:77] Creating layer inception_5a/output_inception_5a/output_0_split
I0403 18:39:03.761759  7215 net.cpp:91] Creating Layer inception_5a/output_inception_5a/output_0_split
I0403 18:39:03.761776  7215 net.cpp:425] inception_5a/output_inception_5a/output_0_split <- inception_5a/output
I0403 18:39:03.761798  7215 net.cpp:399] inception_5a/output_inception_5a/output_0_split -> inception_5a/output_inception_5a/output_0_split_0
I0403 18:39:03.761821  7215 net.cpp:399] inception_5a/output_inception_5a/output_0_split -> inception_5a/output_inception_5a/output_0_split_1
I0403 18:39:03.761842  7215 net.cpp:399] inception_5a/output_inception_5a/output_0_split -> inception_5a/output_inception_5a/output_0_split_2
I0403 18:39:03.761862  7215 net.cpp:399] inception_5a/output_inception_5a/output_0_split -> inception_5a/output_inception_5a/output_0_split_3
I0403 18:39:03.761975  7215 net.cpp:141] Setting up inception_5a/output_inception_5a/output_0_split
I0403 18:39:03.761999  7215 net.cpp:148] Top shape: 24 832 7 7 (978432)
I0403 18:39:03.762020  7215 net.cpp:148] Top shape: 24 832 7 7 (978432)
I0403 18:39:03.762037  7215 net.cpp:148] Top shape: 24 832 7 7 (978432)
I0403 18:39:03.762053  7215 net.cpp:148] Top shape: 24 832 7 7 (978432)
I0403 18:39:03.762068  7215 net.cpp:156] Memory required for data: 1325241888
I0403 18:39:03.762082  7215 layer_factory.hpp:77] Creating layer inception_5b/1x1
I0403 18:39:03.762102  7215 net.cpp:91] Creating Layer inception_5b/1x1
I0403 18:39:03.762120  7215 net.cpp:425] inception_5b/1x1 <- inception_5a/output_inception_5a/output_0_split_0
I0403 18:39:03.762145  7215 net.cpp:399] inception_5b/1x1 -> inception_5b/1x1
I0403 18:39:03.765959  7215 net.cpp:141] Setting up inception_5b/1x1
I0403 18:39:03.765995  7215 net.cpp:148] Top shape: 24 384 7 7 (451584)
I0403 18:39:03.766010  7215 net.cpp:156] Memory required for data: 1327048224
I0403 18:39:03.766031  7215 layer_factory.hpp:77] Creating layer inception_5b/relu_1x1
I0403 18:39:03.766052  7215 net.cpp:91] Creating Layer inception_5b/relu_1x1
I0403 18:39:03.766069  7215 net.cpp:425] inception_5b/relu_1x1 <- inception_5b/1x1
I0403 18:39:03.766089  7215 net.cpp:386] inception_5b/relu_1x1 -> inception_5b/1x1 (in-place)
I0403 18:39:03.766402  7215 net.cpp:141] Setting up inception_5b/relu_1x1
I0403 18:39:03.766432  7215 net.cpp:148] Top shape: 24 384 7 7 (451584)
I0403 18:39:03.766448  7215 net.cpp:156] Memory required for data: 1328854560
I0403 18:39:03.766464  7215 layer_factory.hpp:77] Creating layer inception_5b/3x3_reduce
I0403 18:39:03.766489  7215 net.cpp:91] Creating Layer inception_5b/3x3_reduce
I0403 18:39:03.766506  7215 net.cpp:425] inception_5b/3x3_reduce <- inception_5a/output_inception_5a/output_0_split_1
I0403 18:39:03.766528  7215 net.cpp:399] inception_5b/3x3_reduce -> inception_5b/3x3_reduce
I0403 18:39:03.769230  7215 net.cpp:141] Setting up inception_5b/3x3_reduce
I0403 18:39:03.769268  7215 net.cpp:148] Top shape: 24 192 7 7 (225792)
I0403 18:39:03.769286  7215 net.cpp:156] Memory required for data: 1329757728
I0403 18:39:03.769306  7215 layer_factory.hpp:77] Creating layer inception_5b/relu_3x3_reduce
I0403 18:39:03.769328  7215 net.cpp:91] Creating Layer inception_5b/relu_3x3_reduce
I0403 18:39:03.769347  7215 net.cpp:425] inception_5b/relu_3x3_reduce <- inception_5b/3x3_reduce
I0403 18:39:03.769366  7215 net.cpp:386] inception_5b/relu_3x3_reduce -> inception_5b/3x3_reduce (in-place)
I0403 18:39:03.769577  7215 net.cpp:141] Setting up inception_5b/relu_3x3_reduce
I0403 18:39:03.769603  7215 net.cpp:148] Top shape: 24 192 7 7 (225792)
I0403 18:39:03.769618  7215 net.cpp:156] Memory required for data: 1330660896
I0403 18:39:03.769634  7215 layer_factory.hpp:77] Creating layer inception_5b/3x3
I0403 18:39:03.769655  7215 net.cpp:91] Creating Layer inception_5b/3x3
I0403 18:39:03.769673  7215 net.cpp:425] inception_5b/3x3 <- inception_5b/3x3_reduce
I0403 18:39:03.769696  7215 net.cpp:399] inception_5b/3x3 -> inception_5b/3x3
I0403 18:39:03.776551  7215 net.cpp:141] Setting up inception_5b/3x3
I0403 18:39:03.776582  7215 net.cpp:148] Top shape: 24 384 7 7 (451584)
I0403 18:39:03.776599  7215 net.cpp:156] Memory required for data: 1332467232
I0403 18:39:03.776620  7215 layer_factory.hpp:77] Creating layer inception_5b/relu_3x3
I0403 18:39:03.776640  7215 net.cpp:91] Creating Layer inception_5b/relu_3x3
I0403 18:39:03.776657  7215 net.cpp:425] inception_5b/relu_3x3 <- inception_5b/3x3
I0403 18:39:03.776675  7215 net.cpp:386] inception_5b/relu_3x3 -> inception_5b/3x3 (in-place)
I0403 18:39:03.776976  7215 net.cpp:141] Setting up inception_5b/relu_3x3
I0403 18:39:03.777004  7215 net.cpp:148] Top shape: 24 384 7 7 (451584)
I0403 18:39:03.777021  7215 net.cpp:156] Memory required for data: 1334273568
I0403 18:39:03.777037  7215 layer_factory.hpp:77] Creating layer inception_5b/5x5_reduce
I0403 18:39:03.777077  7215 net.cpp:91] Creating Layer inception_5b/5x5_reduce
I0403 18:39:03.777096  7215 net.cpp:425] inception_5b/5x5_reduce <- inception_5a/output_inception_5a/output_0_split_2
I0403 18:39:03.777120  7215 net.cpp:399] inception_5b/5x5_reduce -> inception_5b/5x5_reduce
I0403 18:39:03.778465  7215 net.cpp:141] Setting up inception_5b/5x5_reduce
I0403 18:39:03.778508  7215 net.cpp:148] Top shape: 24 48 7 7 (56448)
I0403 18:39:03.778524  7215 net.cpp:156] Memory required for data: 1334499360
I0403 18:39:03.778545  7215 layer_factory.hpp:77] Creating layer inception_5b/relu_5x5_reduce
I0403 18:39:03.778564  7215 net.cpp:91] Creating Layer inception_5b/relu_5x5_reduce
I0403 18:39:03.778581  7215 net.cpp:425] inception_5b/relu_5x5_reduce <- inception_5b/5x5_reduce
I0403 18:39:03.778601  7215 net.cpp:386] inception_5b/relu_5x5_reduce -> inception_5b/5x5_reduce (in-place)
I0403 18:39:03.778980  7215 net.cpp:141] Setting up inception_5b/relu_5x5_reduce
I0403 18:39:03.779008  7215 net.cpp:148] Top shape: 24 48 7 7 (56448)
I0403 18:39:03.779024  7215 net.cpp:156] Memory required for data: 1334725152
I0403 18:39:03.779042  7215 layer_factory.hpp:77] Creating layer inception_5b/5x5
I0403 18:39:03.779062  7215 net.cpp:91] Creating Layer inception_5b/5x5
I0403 18:39:03.779078  7215 net.cpp:425] inception_5b/5x5 <- inception_5b/5x5_reduce
I0403 18:39:03.779099  7215 net.cpp:399] inception_5b/5x5 -> inception_5b/5x5
I0403 18:39:03.781183  7215 net.cpp:141] Setting up inception_5b/5x5
I0403 18:39:03.781225  7215 net.cpp:148] Top shape: 24 128 7 7 (150528)
I0403 18:39:03.781246  7215 net.cpp:156] Memory required for data: 1335327264
I0403 18:39:03.781268  7215 layer_factory.hpp:77] Creating layer inception_5b/relu_5x5
I0403 18:39:03.781293  7215 net.cpp:91] Creating Layer inception_5b/relu_5x5
I0403 18:39:03.781312  7215 net.cpp:425] inception_5b/relu_5x5 <- inception_5b/5x5
I0403 18:39:03.781332  7215 net.cpp:386] inception_5b/relu_5x5 -> inception_5b/5x5 (in-place)
I0403 18:39:03.781546  7215 net.cpp:141] Setting up inception_5b/relu_5x5
I0403 18:39:03.781574  7215 net.cpp:148] Top shape: 24 128 7 7 (150528)
I0403 18:39:03.781590  7215 net.cpp:156] Memory required for data: 1335929376
I0403 18:39:03.781606  7215 layer_factory.hpp:77] Creating layer inception_5b/pool
I0403 18:39:03.781625  7215 net.cpp:91] Creating Layer inception_5b/pool
I0403 18:39:03.781642  7215 net.cpp:425] inception_5b/pool <- inception_5a/output_inception_5a/output_0_split_3
I0403 18:39:03.781666  7215 net.cpp:399] inception_5b/pool -> inception_5b/pool
I0403 18:39:03.781739  7215 net.cpp:141] Setting up inception_5b/pool
I0403 18:39:03.781764  7215 net.cpp:148] Top shape: 24 832 7 7 (978432)
I0403 18:39:03.781779  7215 net.cpp:156] Memory required for data: 1339843104
I0403 18:39:03.781795  7215 layer_factory.hpp:77] Creating layer inception_5b/pool_proj
I0403 18:39:03.781817  7215 net.cpp:91] Creating Layer inception_5b/pool_proj
I0403 18:39:03.781836  7215 net.cpp:425] inception_5b/pool_proj <- inception_5b/pool
I0403 18:39:03.781857  7215 net.cpp:399] inception_5b/pool_proj -> inception_5b/pool_proj
I0403 18:39:03.784203  7215 net.cpp:141] Setting up inception_5b/pool_proj
I0403 18:39:03.784234  7215 net.cpp:148] Top shape: 24 128 7 7 (150528)
I0403 18:39:03.784256  7215 net.cpp:156] Memory required for data: 1340445216
I0403 18:39:03.784276  7215 layer_factory.hpp:77] Creating layer inception_5b/relu_pool_proj
I0403 18:39:03.784298  7215 net.cpp:91] Creating Layer inception_5b/relu_pool_proj
I0403 18:39:03.784315  7215 net.cpp:425] inception_5b/relu_pool_proj <- inception_5b/pool_proj
I0403 18:39:03.784332  7215 net.cpp:386] inception_5b/relu_pool_proj -> inception_5b/pool_proj (in-place)
I0403 18:39:03.784636  7215 net.cpp:141] Setting up inception_5b/relu_pool_proj
I0403 18:39:03.784664  7215 net.cpp:148] Top shape: 24 128 7 7 (150528)
I0403 18:39:03.784680  7215 net.cpp:156] Memory required for data: 1341047328
I0403 18:39:03.784696  7215 layer_factory.hpp:77] Creating layer inception_5b/output
I0403 18:39:03.784714  7215 net.cpp:91] Creating Layer inception_5b/output
I0403 18:39:03.784744  7215 net.cpp:425] inception_5b/output <- inception_5b/1x1
I0403 18:39:03.784762  7215 net.cpp:425] inception_5b/output <- inception_5b/3x3
I0403 18:39:03.784778  7215 net.cpp:425] inception_5b/output <- inception_5b/5x5
I0403 18:39:03.784795  7215 net.cpp:425] inception_5b/output <- inception_5b/pool_proj
I0403 18:39:03.784814  7215 net.cpp:399] inception_5b/output -> inception_5b/output
I0403 18:39:03.784869  7215 net.cpp:141] Setting up inception_5b/output
I0403 18:39:03.784893  7215 net.cpp:148] Top shape: 24 1024 7 7 (1204224)
I0403 18:39:03.784909  7215 net.cpp:156] Memory required for data: 1345864224
I0403 18:39:03.784924  7215 layer_factory.hpp:77] Creating layer pool5/7x7_s1
I0403 18:39:03.784942  7215 net.cpp:91] Creating Layer pool5/7x7_s1
I0403 18:39:03.784958  7215 net.cpp:425] pool5/7x7_s1 <- inception_5b/output
I0403 18:39:03.784979  7215 net.cpp:399] pool5/7x7_s1 -> pool5/7x7_s1
I0403 18:39:03.785212  7215 net.cpp:141] Setting up pool5/7x7_s1
I0403 18:39:03.785243  7215 net.cpp:148] Top shape: 24 1024 1 1 (24576)
I0403 18:39:03.785260  7215 net.cpp:156] Memory required for data: 1345962528
I0403 18:39:03.785275  7215 layer_factory.hpp:77] Creating layer pool5/drop_7x7_s1
I0403 18:39:03.785297  7215 net.cpp:91] Creating Layer pool5/drop_7x7_s1
I0403 18:39:03.785316  7215 net.cpp:425] pool5/drop_7x7_s1 <- pool5/7x7_s1
I0403 18:39:03.785334  7215 net.cpp:386] pool5/drop_7x7_s1 -> pool5/7x7_s1 (in-place)
I0403 18:39:03.785387  7215 net.cpp:141] Setting up pool5/drop_7x7_s1
I0403 18:39:03.785411  7215 net.cpp:148] Top shape: 24 1024 1 1 (24576)
I0403 18:39:03.785428  7215 net.cpp:156] Memory required for data: 1346060832
I0403 18:39:03.785442  7215 layer_factory.hpp:77] Creating layer loss3/classifier_plantvillage
I0403 18:39:03.785462  7215 net.cpp:91] Creating Layer loss3/classifier_plantvillage
I0403 18:39:03.785490  7215 net.cpp:425] loss3/classifier_plantvillage <- pool5/7x7_s1
I0403 18:39:03.785511  7215 net.cpp:399] loss3/classifier_plantvillage -> loss3/classifier_plantvillage
I0403 18:39:03.785948  7215 net.cpp:141] Setting up loss3/classifier_plantvillage
I0403 18:39:03.785974  7215 net.cpp:148] Top shape: 24 38 (912)
I0403 18:39:03.785987  7215 net.cpp:156] Memory required for data: 1346064480
I0403 18:39:03.786005  7215 layer_factory.hpp:77] Creating layer loss3/classifier_plantvillage_loss3/classifier_plantvillage_0_split
I0403 18:39:03.786026  7215 net.cpp:91] Creating Layer loss3/classifier_plantvillage_loss3/classifier_plantvillage_0_split
I0403 18:39:03.786041  7215 net.cpp:425] loss3/classifier_plantvillage_loss3/classifier_plantvillage_0_split <- loss3/classifier_plantvillage
I0403 18:39:03.786062  7215 net.cpp:399] loss3/classifier_plantvillage_loss3/classifier_plantvillage_0_split -> loss3/classifier_plantvillage_loss3/classifier_plantvillage_0_split_0
I0403 18:39:03.786084  7215 net.cpp:399] loss3/classifier_plantvillage_loss3/classifier_plantvillage_0_split -> loss3/classifier_plantvillage_loss3/classifier_plantvillage_0_split_1
I0403 18:39:03.786105  7215 net.cpp:399] loss3/classifier_plantvillage_loss3/classifier_plantvillage_0_split -> loss3/classifier_plantvillage_loss3/classifier_plantvillage_0_split_2
I0403 18:39:03.786128  7215 net.cpp:399] loss3/classifier_plantvillage_loss3/classifier_plantvillage_0_split -> loss3/classifier_plantvillage_loss3/classifier_plantvillage_0_split_3
I0403 18:39:03.786231  7215 net.cpp:141] Setting up loss3/classifier_plantvillage_loss3/classifier_plantvillage_0_split
I0403 18:39:03.786260  7215 net.cpp:148] Top shape: 24 38 (912)
I0403 18:39:03.786276  7215 net.cpp:148] Top shape: 24 38 (912)
I0403 18:39:03.786293  7215 net.cpp:148] Top shape: 24 38 (912)
I0403 18:39:03.786309  7215 net.cpp:148] Top shape: 24 38 (912)
I0403 18:39:03.786324  7215 net.cpp:156] Memory required for data: 1346079072
I0403 18:39:03.786339  7215 layer_factory.hpp:77] Creating layer loss1/loss
I0403 18:39:03.786360  7215 net.cpp:91] Creating Layer loss1/loss
I0403 18:39:03.786378  7215 net.cpp:425] loss1/loss <- loss1/classifier_plantvillage_loss1/classifier_plantvillage_0_split_0
I0403 18:39:03.786408  7215 net.cpp:425] loss1/loss <- label_data_1_split_0
…
