…
I0403 18:30:50.260871  7075 net.cpp:313] The NetState phase (1) differed from the phase (0) specified by a rule in layer data
I0403 18:30:50.262104  7075 net.cpp:49] Initializing net from parameters: 
state {
  phase: TEST
}
layer {
  name: "data"
  type: "Data"
  top: "data"
  top: "label"
  include {
    phase: TEST
  }
  transform_param {
    mirror: false
    crop_size: 224
    mean_file: "/home/mohanty/data/final_dataset/lmdb/grayscale-40-60/mean.binaryproto"
  }
  data_param {
    source: "/home/mohanty/data/final_dataset/lmdb/grayscale-40-60/test_db"
    batch_size: 24
    backend: LMDB
  }
}
layer {
  name: "conv1/7x7_s2"
  type: "Convolution"
  bottom: "data"
  top: "conv1/7x7_s2"
  param {
    lr_mult: 1
    decay_mult: 1
  }
  param {
    lr_mult: 2
    decay_mult: 0
  }
  convolution_param {
    num_output: 64
    pad: 3
    kernel_size: 7
    stride: 2
    weight_filler {
      type: "xavier"
      std: 0.1
    }
    bias_filler {
      type: "constant"
      value: 0.2
    }
  }
}
layer {
  name: "conv1/relu_7x7"
  type: "ReLU"
  bottom: "conv1/7x7_s2"
  top: "conv1/7x7_s2"
}
layer {
  name: "pool1/3x3_s2"
  type: "Pooling"
  bottom: "conv1/7x7_s2"
  top: "pool1/3x3_s2"
  pooling_param {
    pool: MAX
    kernel_size: 3
    stride: 2
  }
}
layer {
  name: "pool1/norm1"
  type: "LRN"
  bottom: "pool1/3x3_s2"
  top: "pool1/norm1"
  lrn_param {
    local_size: 5
    alpha: 0.0001
    beta: 0.75
  }
}
layer {
  name: "conv2/3x3_reduce"
  type: "Convolution"
  bottom: "pool1/norm1"
  top: "conv2/3x3_reduce"
  param {
    lr_mult: 1
    decay_mult: 1
  }
  param {
    lr_mult: 2
    decay_mult: 0
  }
  convolution_param {
    num_output: 64
    kernel_size: 1
    weight_filler {
      type: "xavier"
      std: 0.1
    }
    bias_filler {
      type: "constant"
      value: 0.2
    }
  }
}
layer {
  name: "conv2/relu_3x3_reduce"
  type: "ReLU"
  bottom: "conv2/3x3_reduce"
  top: "conv2/3x3_reduce"
}
layer {
  name: "conv2/3x3"
  type: "Convolution"
  bottom: "conv2/3x3_reduce"
  top: "conv2/3x3"
  param {
    lr_mult: 1
    decay_mult: 1
  }
  param {
    lr_mult: 2
    decay_mult: 0
  }
  convolution_param {
    num_output: 192
    pad: 1
    kernel_size: 3
    weight_filler {
      type: "xavier"
      std: 0.03
    }
    bias_filler {
      type: "constant"
      value: 0.2
    }
  }
}
layer {
  name: "conv2/relu_3x3"
  type: "ReLU"
  bottom: "conv2/3x3"
  top: "conv2/3x3"
}
layer {
  name: "conv2/norm2"
  type: "LRN"
  bottom: "conv2/3x3"
  top: "conv2/norm2"
  lrn_param {
    local_size: 5
    alpha: 0.0001
    beta: 0.75
  }
}
layer {
  name: "pool2/3x3_s2"
  type: "Pooling"
  bottom: "conv2/norm2"
  top: "pool2/3x3_s2"
  pooling_param {
    pool: MAX
    kernel_size: 3
    stride: 2
  }
}
layer {
  name: "inception_3a/1x1"
  type: "Convolution"
  bottom: "pool2/3x3_s2"
  top: "inception_3a/1x1"
  param {
    lr_mult: 1
    decay_mult: 1
  }
  param {
    lr_mult: 2
    decay_mult: 0
  }
  convolution_param {
    num_output: 64
    kernel_size: 1
    weight_filler {
      type: "xavier"
      std: 0.03
    }
    bias_filler {
      type: "constant"
      value: 0.2
    }
  }
}
layer {
  name: "inception_3a/relu_1x1"
  type: "ReLU"
  bottom: "inception_3a/1x1"
  top: "inception_3a/1x1"
}
layer {
  name: "inception_3a/3x3_reduce"
  type: "Convolution"
  bottom: "pool2/3x3_s2"
  top: "inception_3a/3x3_reduce"
  param {
    lr_mult: 1
    decay_mult: 1
  }
  param {
    lr_mult: 2
    decay_mult: 0
  }
  convolution_param {
    num_output: 96
    kernel_size: 1
    weight_filler {
      type: "xavier"
      std: 0.09
    }
    bias_filler {
      type: "constant"
      value: 0.2
    }
  }
}
layer {
  name: "inception_3a/relu_3x3_reduce"
  type: "ReLU"
  bottom: "inception_3a/3x3_reduce"
  top: "inception_3a/3x3_reduce"
}
layer {
  name: "inception_3a/3x3"
  type: "Convolution"
  bottom: "inception_3a/3x3_reduce"
  top: "inception_3a/3x3"
  param {
    lr_mult: 1
    decay_mult: 1
  }
  param {
    lr_mult: 2
    decay_mult: 0
  }
  convolution_param {
    num_output: 128
    pad: 1
    kernel_size: 3
    weight_filler {
      type: "xavier"
      std: 0.03
    }
    bias_filler {
      type: "constant"
      value: 0.2
    }
  }
}
layer {
  name: "inception_3a/relu_3x3"
  type: "ReLU"
  bottom: "inception_3a/3x3"
  top: "inception_3a/3x3"
}
layer {
  name: "inception_3a/5x5_reduce"
  type: "Convolution"
  bottom: "pool2/3x3_s2"
  top: "inception_3a/5x5_reduce"
  param {
    lr_mult: 1
    decay_mult: 1
  }
  param {
    lr_mult: 2
    decay_mult: 0
  }
  convolution_param {
    num_output: 16
    kernel_size: 1
    weight_filler {
      type: "xavier"
      std: 0.2
    }
    bias_filler {
      type: "constant"
      value: 0.2
    }
  }
}
layer {
  name: "inception_3a/relu_5x5_reduce"
  type: "ReLU"
  bottom: "inception_3a/5x5_reduce"
  top: "inception_3a/5x5_reduce"
}
layer {
  name: "inception_3a/5x5"
  type: "Convolution"
  bottom: "inception_3a/5x5_reduce"
  top: "inception_3a/5x5"
  param {
    lr_mult: 1
    decay_mult: 1
  }
  param {
    lr_mult: 2
    decay_mult: 0
  }
  convolution_param {
    num_output: 32
    pad: 2
    kernel_size: 5
    weight_filler {
      type: "xavier"
      std: 0.03
    }
    bias_filler {
      type: "constant"
      value: 0.2
    }
  }
}
layer {
  name: "inception_3a/relu_5x5"
  type: "ReLU"
  bottom: "inception_3a/5x5"
  top: "inception_3a/5x5"
}
layer {
  name: "inception_3a/pool"
  type: "Pooling"
  bottom: "pool2/3x3_s2"
  top: "inception_3a/pool"
  pooling_param {
    pool: MAX
    kernel_size: 3
    stride: 1
    pad: 1
  }
}
layer {
  name: "inception_3a/pool_proj"
  type: "Convolution"
  bottom: "inception_3a/pool"
  top: "inception_3a/pool_proj"
  param {
    lr_mult: 1
    decay_mult: 1
  }
  param {
    lr_mult: 2
    decay_mult: 0
  }
  convolution_param {
    num_output: 32
    kernel_size: 1
    weight_filler {
      type: "xavier"
      std: 0.1
    }
    bias_filler {
      type: "constant"
      value: 0.2
    }
  }
}
layer {
  name: "inception_3a/relu_pool_proj"
  type: "ReLU"
  bottom: "inception_3a/pool_proj"
  top: "inception_3a/pool_proj"
}
layer {
  name: "inception_3a/output"
  type: "Concat"
  bottom: "inception_3a/1x1"
  bottom: "inception_3a/3x3"
  bottom: "inception_3a/5x5"
  bottom: "inception_3a/pool_proj"
  top: "inception_3a/output"
}
layer {
  name: "inception_3b/1x1"
  type: "Convolution"
  bottom: "inception_3a/output"
  top: "inception_3b/1x1"
  param {
    lr_mult: 1
    decay_mult: 1
  }
  param {
    lr_mult: 2
    decay_mult: 0
  }
  convolution_param {
    num_output: 128
    kernel_size: 1
    weight_filler {
      type: "xavier"
      std: 0.03
    }
    bias_filler {
      type: "constant"
      value: 0.2
    }
  }
}
layer {
  name: "inception_3b/relu_1x1"
  type: "ReLU"
  bottom: "inception_3b/1x1"
  top: "inception_3b/1x1"
}
layer {
  name: "inception_3b/3x3_reduce"
  type: "Convolution"
  bottom: "inception_3a/output"
  top: "inception_3b/3x3_reduce"
  param {
    lr_mult: 1
    decay_mult: 1
  }
  param {
    lr_mult: 2
    decay_mult: 0
  }
  convolution_param {
    num_output: 128
    kernel_size: 1
    weight_filler {
      type: "xavier"
      std: 0.09
    }
    bias_filler {
      type: "constant"
      value: 0.2
    }
  }
}
layer {
  name: "inception_3b/relu_3x3_reduce"
  type: "ReLU"
  bottom: "inception_3b/3x3_reduce"
  top: "inception_3b/3x3_reduce"
}
layer {
  name: "inception_3b/3x3"
  type: "Convolution"
  bottom: "inception_3b/3x3_reduce"
  top: "inception_3b/3x3"
  param {
    lr_mult: 1
    decay_mult: 1
  }
  param {
    lr_mult: 2
    decay_mult: 0
  }
  convolution_param {
    num_output: 192
    pad: 1
    kernel_size: 3
    weight_filler {
      type: "xavier"
      std: 0.03
    }
    bias_filler {
      type: "constant"
      value: 0.2
    }
  }
}
layer {
  name: "inception_3b/relu_3x3"
  type: "ReLU"
  bottom: "inception_3b/3x3"
  top: "inception_3b/3x3"
}
layer {
  name: "inception_3b/5x5_reduce"
  type: "Convolution"
  bottom: "inception_3a/output"
  top: "inception_3b/5x5_reduce"
  param {
    lr_mult: 1
    decay_mult: 1
  }
  param {
    lr_mult: 2
    decay_mult: 0
  }
  convolution_param {
    num_output: 32
    kernel_size: 1
    weight_filler {
      type: "xavier"
      std: 0.2
    }
    bias_filler {
      type: "constant"
      value: 0.2
    }
  }
}
layer {
  name: "inception_3b/relu_5x5_reduce"
  type: "ReLU"
  bottom: "inception_3b/5x5_reduce"
  top: "inception_3b/5x5_reduce"
}
layer {
  name: "inception_3b/5x5"
  type: "Convolution"
  bottom: "inception_3b/5x5_reduce"
  top: "inception_3b/5x5"
  param {
    lr_mult: 1
    decay_mult: 1
  }
  param {
    lr_mult: 2
    decay_mult: 0
  }
  convolution_param {
    num_output: 96
    pad: 2
    kernel_size: 5
    weight_filler {
      type: "xavier"
      std: 0.03
    }
    bias_filler {
      type: "constant"
      value: 0.2
    }
  }
}
layer {
  name: "inception_3b/relu_5x5"
  type: "ReLU"
  bottom: "inception_3b/5x5"
  top: "inception_3b/5x5"
}
layer {
  name: "inception_3b/pool"
  type: "Pooling"
  bottom: "inception_3a/output"
  top: "inception_3b/pool"
  pooling_param {
    pool: MAX
    kernel_size: 3
    stride: 1
    pad: 1
  }
}
layer {
  name: "inception_3b/pool_proj"
  type: "Convolution"
  bottom: "inception_3b/pool"
  top: "inception_3b/pool_proj"
  param {
    lr_mult: 1
    decay_mult: 1
  }
  param {
    lr_mult: 2
    decay_mult: 0
  }
  convolution_param {
    num_output: 64
    kernel_size: 1
    weight_filler {
      type: "xavier"
      std: 0.1
    }
    bias_filler {
      type: "constant"
      value: 0.2
    }
  }
}
layer {
  name: "inception_3b/relu_pool_proj"
  type: "ReLU"
  bottom: "inception_3b/pool_proj"
  top: "inception_3b/pool_proj"
}
layer {
  name: "inception_3b/output"
  type: "Concat"
  bottom: "inception_3b/1x1"
  bottom: "inception_3b/3x3"
  bottom: "inception_3b/5x5"
  bottom: "inception_3b/pool_proj"
  top: "inception_3b/output"
}
layer {
  name: "pool3/3x3_s2"
  type: "Pooling"
  bottom: "inception_3b/output"
  top: "pool3/3x3_s2"
  pooling_param {
    pool: MAX
    kernel_size: 3
    stride: 2
  }
}
layer {
  name: "inception_4a/1x1"
  type: "Convolution"
  bottom: "pool3/3x3_s2"
  top: "inception_4a/1x1"
  param {
    lr_mult: 1
    decay_mult: 1
  }
  param {
    lr_mult: 2
    decay_mult: 0
  }
  convolution_param {
    num_output: 192
    kernel_size: 1
    weight_filler {
      type: "xavier"
      std: 0.03
    }
    bias_filler {
      type: "constant"
      value: 0.2
    }
  }
}
layer {
  name: "inception_4a/relu_1x1"
  type: "ReLU"
  bottom: "inception_4a/1x1"
  top: "inception_4a/1x1"
}
layer {
  name: "inception_4a/3x3_reduce"
  type: "Convolution"
  bottom: "pool3/3x3_s2"
  top: "inception_4a/3x3_reduce"
  param {
    lr_mult: 1
    decay_mult: 1
  }
  param {
    lr_mult: 2
    decay_mult: 0
  }
  convolution_param {
    num_output: 96
    kernel_size: 1
    weight_filler {
      type: "xavier"
      std: 0.09
    }
    bias_filler {
      type: "constant"
      value: 0.2
    }
  }
}
layer {
  name: "inception_4a/relu_3x3_reduce"
  type: "ReLU"
  bottom: "inception_4a/3x3_reduce"
  top: "inception_4a/3x3_reduce"
}
layer {
  name: "inception_4a/3x3"
  type: "Convolution"
  bottom: "inception_4a/3x3_reduce"
  top: "inception_4a/3x3"
  param {
    lr_mult: 1
    decay_mult: 1
  }
  param {
    lr_mult: 2
    decay_mult: 0
  }
  convolution_param {
    num_output: 208
    pad: 1
    kernel_size: 3
    weight_filler {
      type: "xavier"
      std: 0.03
    }
    bias_filler {
      type: "constant"
      value: 0.2
    }
  }
}
layer {
  name: "inception_4a/relu_3x3"
  type: "ReLU"
  bottom: "inception_4a/3x3"
  top: "inception_4a/3x3"
}
layer {
  name: "inception_4a/5x5_reduce"
  type: "Convolution"
  bottom: "pool3/3x3_s2"
  top: "inception_4a/5x5_reduce"
  param {
    lr_mult: 1
    decay_mult: 1
  }
  param {
    lr_mult: 2
    decay_mult: 0
  }
  convolution_param {
    num_output: 16
    kernel_size: 1
    weight_filler {
      type: "xavier"
      std: 0.2
    }
    bias_filler {
      type: "constant"
      value: 0.2
    }
  }
}
layer {
  name: "inception_4a/relu_5x5_reduce"
  type: "ReLU"
  bottom: "inception_4a/5x5_reduce"
  top: "inception_4a/5x5_reduce"
}
layer {
  name: "inception_4a/5x5"
  type: "Convolution"
  bottom: "inception_4a/5x5_reduce"
  top: "inception_4a/5x5"
  param {
    lr_mult: 1
    decay_mult: 1
  }
  param {
    lr_mult: 2
    decay_mult: 0
  }
  convolution_param {
    num_output: 48
    pad: 2
    kernel_size: 5
    weight_filler {
      type: "xavier"
      std: 0.03
    }
    bias_filler {
      type: "constant"
      value: 0.2
    }
  }
}
layer {
  name: "inception_4a/relu_5x5"
  type: "ReLU"
  bottom: "inception_4a/5x5"
  top: "inception_4a/5x5"
}
layer {
  name: "inception_4a/pool"
  type: "Pooling"
  bottom: "pool3/3x3_s2"
  top: "inception_4a/pool"
  pooling_param {
    pool: MAX
    kernel_size: 3
    stride: 1
    pad: 1
  }
}
layer {
  name: "inception_4a/pool_proj"
  type: "Convolution"
  bottom: "inception_4a/pool"
  top: "inception_4a/pool_proj"
  param {
    lr_mult: 1
    decay_mult: 1
  }
  param {
    lr_mult: 2
    decay_mult: 0
  }
  convolution_param {
    num_output: 64
    kernel_size: 1
    weight_filler {
      type: "xavier"
      std: 0.1
    }
    bias_filler {
      type: "constant"
      value: 0.2
    }
  }
}
layer {
  name: "inception_4a/relu_pool_proj"
  type: "ReLU"
  bottom: "inception_4a/pool_proj"
  top: "inception_4a/pool_proj"
}
layer {
  name: "inception_4a/output"
  type: "Concat"
  bottom: "inception_4a/1x1"
  bottom: "inception_4a/3x3"
  bottom: "inception_4a/5x5"
  bottom: "inception_4a/pool_proj"
  top: "inception_4a/output"
}
layer {
  name: "loss1/ave_pool"
  type: "Pooling"
  bottom: "inception_4a/output"
  top: "loss1/ave_pool"
  pooling_param {
    pool: AVE
    kernel_size: 5
    stride: 3
  }
}
layer {
  name: "loss1/conv"
  type: "Convolution"
  bottom: "loss1/ave_pool"
  top: "loss1/conv"
  param {
    lr_mult: 1
    decay_mult: 1
  }
  param {
    lr_mult: 2
    decay_mult: 0
  }
  convolution_param {
    num_output: 128
    kernel_size: 1
    weight_filler {
      type: "xavier"
      std: 0.08
    }
    bias_filler {
      type: "constant"
      value: 0.2
    }
  }
}
layer {
  name: "loss1/relu_conv"
  type: "ReLU"
  bottom: "loss1/conv"
  top: "loss1/conv"
}
layer {
  name: "loss1/fc"
  type: "InnerProduct"
  bottom: "loss1/conv"
  top: "loss1/fc"
  param {
    lr_mult: 1
    decay_mult: 1
  }
  param {
    lr_mult: 2
    decay_mult: 0
  }
  inner_product_param {
    num_output: 1024
    weight_filler {
      type: "xavier"
      std: 0.02
    }
    bias_filler {
      type: "constant"
      value: 0.2
    }
  }
}
layer {
  name: "loss1/relu_fc"
  type: "ReLU"
  bottom: "loss1/fc"
  top: "loss1/fc"
}
layer {
  name: "loss1/drop_fc"
  type: "Dropout"
  bottom: "loss1/fc"
  top: "loss1/fc"
  dropout_param {
    dropout_ratio: 0.7
  }
}
layer {
  name: "loss1/classifier_plantvillage"
  type: "InnerProduct"
  bottom: "loss1/fc"
  top: "loss1/classifier_plantvillage"
  param {
    lr_mult: 1
    decay_mult: 1
  }
  param {
    lr_mult: 2
    decay_mult: 0
  }
  inner_product_param {
    num_output: 38
    weight_filler {
      type: "xavier"
      std: 0.0009765625
    }
    bias_filler {
      type: "constant"
      value: 0
    }
  }
}
layer {
  name: "inception_4b/1x1"
  type: "Convolution"
  bottom: "inception_4a/output"
  top: "inception_4b/1x1"
  param {
    lr_mult: 1
    decay_mult: 1
  }
  param {
    lr_mult: 2
    decay_mult: 0
  }
  convolution_param {
    num_output: 160
    kernel_size: 1
    weight_filler {
      type: "xavier"
      std: 0.03
    }
    bias_filler {
      type: "constant"
      value: 0.2
    }
  }
}
layer {
  name: "inception_4b/relu_1x1"
  type: "ReLU"
  bottom: "inception_4b/1x1"
  top: "inception_4b/1x1"
}
layer {
  name: "inception_4b/3x3_reduce"
  type: "Convolution"
  bottom: "inception_4a/output"
  top: "inception_4b/3x3_reduce"
  param {
    lr_mult: 1
    decay_mult: 1
  }
  param {
    lr_mult: 2
    decay_mult: 0
  }
  convolution_param {
    num_output: 112
    kernel_size: 1
    weight_filler {
      type: "xavier"
      std: 0.09
    }
    bias_filler {
      type: "constant"
      value: 0.2
    }
  }
}
layer {
  name: "inception_4b/relu_3x3_reduce"
  type: "ReLU"
  bottom: "inception_4b/3x3_reduce"
  top: "inception_4b/3x3_reduce"
}
layer {
  name: "inception_4b/3x3"
  type: "Convolution"
  bottom: "inception_4b/3x3_reduce"
  top: "inception_4b/3x3"
  param {
    lr_mult: 1
    decay_mult: 1
  }
  param {
    lr_mult: 2
    decay_mult: 0
  }
  convolution_param {
    num_output: 224
    pad: 1
    kernel_size: 3
    weight_filler {
      type: "xavier"
      std: 0.03
    }
    bias_filler {
      type: "constant"
      value: 0.2
    }
  }
}
layer {
  name: "inception_4b/relu_3x3"
  type: "ReLU"
  bottom: "inception_4b/3x3"
  top: "inception_4b/3x3"
}
layer {
  name: "inception_4b/5x5_reduce"
  type: "Convolution"
  bottom: "inception_4a/output"
  top: "inception_4b/5x5_reduce"
  param {
    lr_mult: 1
    decay_mult: 1
  }
  param {
    lr_mult: 2
    decay_mult: 0
  }
  convolution_param {
    num_output: 24
    kernel_size: 1
    weight_filler {
      type: "xavier"
      std: 0.2
    }
    bias_filler {
      type: "constant"
      value: 0.2
    }
  }
}
layer {
  name: "inception_4b/relu_5x5_reduce"
  type: "ReLU"
  bottom: "inception_4b/5x5_reduce"
  top: "inception_4b/5x5_reduce"
}
layer {
  name: "inception_4b/5x5"
  type: "Convolution"
  bottom: "inception_4b/5x5_reduce"
  top: "inception_4b/5x5"
  param {
    lr_mult: 1
    decay_mult: 1
  }
  param {
    lr_mult: 2
    decay_mult: 0
  }
  convolution_param {
    num_output: 64
    pad: 2
    kernel_size: 5
    weight_filler {
      type: "xavier"
      std: 0.03
    }
    bias_filler {
      type: "constant"
      value: 0.2
    }
  }
}
layer {
  name: "inception_4b/relu_5x5"
  type: "ReLU"
  bottom: "inception_4b/5x5"
  top: "inception_4b/5x5"
}
layer {
  name: "inception_4b/pool"
  type: "Pooling"
  bottom: "inception_4a/output"
  top: "inception_4b/pool"
  pooling_param {
    pool: MAX
    kernel_size: 3
    stride: 1
    pad: 1
  }
}
layer {
  name: "inception_4b/pool_proj"
  type: "Convolution"
  bottom: "inception_4b/pool"
  top: "inception_4b/pool_proj"
  param {
    lr_mult: 1
    decay_mult: 1
  }
  param {
    lr_mult: 2
    decay_mult: 0
  }
  convolution_param {
    num_output: 64
    kernel_size: 1
    weight_filler {
      type: "xavier"
      std: 0.1
    }
    bias_filler {
      type: "constant"
      value: 0.2
    }
  }
}
layer {
  name: "inception_4b/relu_pool_proj"
  type: "ReLU"
  bottom: "inception_4b/pool_proj"
  top: "inception_4b/pool_proj"
}
layer {
  name: "inception_4b/output"
  type: "Concat"
  bottom: "inception_4b/1x1"
  bottom: "inception_4b/3x3"
  bottom: "inception_4b/5x5"
  bottom: "inception_4b/pool_proj"
  top: "inception_4b/output"
}
layer {
  name: "inception_4c/1x1"
  type: "Convolution"
  bottom: "inception_4b/output"
  top: "inception_4c/1x1"
  param {
    lr_mult: 1
    decay_mult: 1
  }
  param {
    lr_mult: 2
    decay_mult: 0
  }
  convolution_param {
    num_output: 128
    kernel_size: 1
    weight_filler {
      type: "xavier"
      std: 0.03
    }
    bias_filler {
      type: "constant"
      value: 0.2
    }
  }
}
layer {
  name: "inception_4c/relu_1x1"
  type: "ReLU"
  bottom: "inception_4c/1x1"
  top: "inception_4c/1x1"
}
layer {
  name: "inception_4c/3x3_reduce"
  type: "Convolution"
  bottom: "inception_4b/output"
  top: "inception_4c/3x3_reduce"
  param {
    lr_mult: 1
    decay_mult: 1
  }
  param {
    lr_mult: 2
    decay_mult: 0
  }
  convolution_param {
    num_output: 128
    kernel_size: 1
    weight_filler {
      type: "xavier"
      std: 0.09
    }
    bias_filler {
      type: "constant"
      value: 0.2
    }
  }
}
layer {
  name: "inception_4c/relu_3x3_reduce"
  type: "ReLU"
  bottom: "inception_4c/3x3_reduce"
  top: "inception_4c/3x3_reduce"
}
layer {
  name: "inception_4c/3x3"
  type: "Convolution"
  bottom: "inception_4c/3x3_reduce"
  top: "inception_4c/3x3"
  param {
    lr_mult: 1
    decay_mult: 1
  }
  param {
    lr_mult: 2
    decay_mult: 0
  }
  convolution_param {
    num_output: 256
    pad: 1
    kernel_size: 3
    weight_filler {
      type: "xavier"
      std: 0.03
    }
    bias_filler {
      type: "constant"
      value: 0.2
    }
  }
}
layer {
  name: "inception_4c/relu_3x3"
  type: "ReLU"
  bottom: "inception_4c/3x3"
  top: "inception_4c/3x3"
}
layer {
  name: "inception_4c/5x5_reduce"
  type: "Convolution"
  bottom: "inception_4b/output"
  top: "inception_4c/5x5_reduce"
  param {
    lr_mult: 1
    decay_mult: 1
  }
  param {
    lr_mult: 2
    decay_mult: 0
  }
  convolution_param {
    num_output: 24
    kernel_size: 1
    weight_filler {
      type: "xavier"
      std: 0.2
    }
    bias_filler {
      type: "constant"
      value: 0.2
    }
  }
}
layer {
  name: "inception_4c/relu_5x5_reduce"
  type: "ReLU"
  bottom: "inception_4c/5x5_reduce"
  top: "inception_4c/5x5_reduce"
}
layer {
  name: "inception_4c/5x5"
  type: "Convolution"
  bottom: "inception_4c/5x5_reduce"
  top: "inception_4c/5x5"
  param {
    lr_mult: 1
    decay_mult: 1
  }
  param {
    lr_mult: 2
    decay_mult: 0
  }
  convolution_param {
    num_output: 64
    pad: 2
    kernel_size: 5
    weight_filler {
      type: "xavier"
      std: 0.03
    }
    bias_filler {
      type: "constant"
      value: 0.2
    }
  }
}
layer {
  name: "inception_4c/relu_5x5"
  type: "ReLU"
  bottom: "inception_4c/5x5"
  top: "inception_4c/5x5"
}
layer {
  name: "inception_4c/pool"
  type: "Pooling"
  bottom: "inception_4b/output"
  top: "inception_4c/pool"
  pooling_param {
    pool: MAX
    kernel_size: 3
    stride: 1
    pad: 1
  }
}
layer {
  name: "inception_4c/pool_proj"
  type: "Convolution"
  bottom: "inception_4c/pool"
  top: "inception_4c/pool_proj"
  param {
    lr_mult: 1
    decay_mult: 1
  }
  param {
    lr_mult: 2
    decay_mult: 0
  }
  convolution_param {
    num_output: 64
    kernel_size: 1
    weight_filler {
      type: "xavier"
      std: 0.1
    }
    bias_filler {
      type: "constant"
      value: 0.2
    }
  }
}
layer {
  name: "inception_4c/relu_pool_proj"
  type: "ReLU"
  bottom: "inception_4c/pool_proj"
  top: "inception_4c/pool_proj"
}
layer {
  name: "inception_4c/output"
  type: "Concat"
  bottom: "inception_4c/1x1"
  bottom: "inception_4c/3x3"
  bottom: "inception_4c/5x5"
  bottom: "inception_4c/pool_proj"
  top: "inception_4c/output"
}
layer {
  name: "inception_4d/1x1"
  type: "Convolution"
  bottom: "inception_4c/output"
  top: "inception_4d/1x1"
  param {
    lr_mult: 1
    decay_mult: 1
  }
  param {
    lr_mult: 2
    decay_mult: 0
  }
  convolution_param {
    num_output: 112
    kernel_size: 1
    weight_filler {
      type: "xavier"
      std: 0.03
    }
    bias_filler {
      type: "constant"
      value: 0.2
    }
  }
}
layer {
  name: "inception_4d/relu_1x1"
  type: "ReLU"
  bottom: "inception_4d/1x1"
  top: "inception_4d/1x1"
}
layer {
  name: "inception_4d/3x3_reduce"
  type: "Convolution"
  bottom: "inception_4c/output"
  top: "inception_4d/3x3_reduce"
  param {
    lr_mult: 1
    decay_mult: 1
  }
  param {
    lr_mult: 2
    decay_mult: 0
  }
  convolution_param {
    num_output: 144
    kernel_size: 1
    weight_filler {
      type: "xavier"
      std: 0.09
    }
    bias_filler {
      type: "constant"
      value: 0.2
    }
  }
}
layer {
  name: "inception_4d/relu_3x3_reduce"
  type: "ReLU"
  bottom: "inception_4d/3x3_reduce"
  top: "inception_4d/3x3_reduce"
}
layer {
  name: "inception_4d/3x3"
  type: "Convolution"
  bottom: "inception_4d/3x3_reduce"
  top: "inception_4d/3x3"
  param {
    lr_mult: 1
    decay_mult: 1
  }
  param {
    lr_mult: 2
    decay_mult: 0
  }
  convolution_param {
    num_output: 288
    pad: 1
    kernel_size: 3
    weight_filler {
      type: "xavier"
      std: 0.03
    }
    bias_filler {
      type: "constant"
      value: 0.2
    }
  }
}
layer {
  name: "inception_4d/relu_3x3"
  type: "ReLU"
  bottom: "inception_4d/3x3"
  top: "inception_4d/3x3"
}
layer {
  name: "inception_4d/5x5_reduce"
  type: "Convolution"
  bottom: "inception_4c/output"
  top: "inception_4d/5x5_reduce"
  param {
    lr_mult: 1
    decay_mult: 1
  }
  param {
    lr_mult: 2
    decay_mult: 0
  }
  convolution_param {
    num_output: 32
    kernel_size: 1
    weight_filler {
      type: "xavier"
      std: 0.2
    }
    bias_filler {
      type: "constant"
      value: 0.2
    }
  }
}
layer {
  name: "inception_4d/relu_5x5_reduce"
  type: "ReLU"
  bottom: "inception_4d/5x5_reduce"
  top: "inception_4d/5x5_reduce"
}
layer {
  name: "inception_4d/5x5"
  type: "Convolution"
  bottom: "inception_4d/5x5_reduce"
  top: "inception_4d/5x5"
  param {
    lr_mult: 1
    decay_mult: 1
  }
  param {
    lr_mult: 2
    decay_mult: 0
  }
  convolution_param {
    num_output: 64
    pad: 2
    kernel_size: 5
    weight_filler {
      type: "xavier"
      std: 0.03
    }
    bias_filler {
      type: "constant"
      value: 0.2
    }
  }
}
layer {
  name: "inception_4d/relu_5x5"
  type: "ReLU"
  bottom: "inception_4d/5x5"
  top: "inception_4d/5x5"
}
layer {
  name: "inception_4d/pool"
  type: "Pooling"
  bottom: "inception_4c/output"
  top: "inception_4d/pool"
  pooling_param {
    pool: MAX
    kernel_size: 3
    stride: 1
    pad: 1
  }
}
layer {
  name: "inception_4d/pool_proj"
  type: "Convolution"
  bottom: "inception_4d/pool"
  top: "inception_4d/pool_proj"
  param {
    lr_mult: 1
    decay_mult: 1
  }
  param {
    lr_mult: 2
    decay_mult: 0
  }
  convolution_param {
    num_output: 64
    kernel_size: 1
    weight_filler {
      type: "xavier"
      std: 0.1
    }
    bias_filler {
      type: "constant"
      value: 0.2
    }
  }
}
layer {
  name: "inception_4d/relu_pool_proj"
  type: "ReLU"
  bottom: "inception_4d/pool_proj"
  top: "inception_4d/pool_proj"
}
layer {
  name: "inception_4d/output"
  type: "Concat"
  bottom: "inception_4d/1x1"
  bottom: "inception_4d/3x3"
  bottom: "inception_4d/5x5"
  bottom: "inception_4d/pool_proj"
  top: "inception_4d/output"
}
layer {
  name: "loss2/ave_pool"
  type: "Pooling"
  bottom: "inception_4d/output"
  top: "loss2/ave_pool"
  pooling_param {
    pool: AVE
    kernel_size: 5
    stride: 3
  }
}
layer {
  name: "loss2/conv"
  type: "Convolution"
  bottom: "loss2/ave_pool"
  top: "loss2/conv"
  param {
    lr_mult: 1
    decay_mult: 1
  }
  param {
    lr_mult: 2
    decay_mult: 0
  }
  convolution_param {
    num_output: 128
    kernel_size: 1
    weight_filler {
      type: "xavier"
      std: 0.08
    }
    bias_filler {
      type: "constant"
      value: 0.2
    }
  }
}
layer {
  name: "loss2/relu_conv"
  type: "ReLU"
  bottom: "loss2/conv"
  top: "loss2/conv"
}
layer {
  name: "loss2/fc"
  type: "InnerProduct"
  bottom: "loss2/conv"
  top: "loss2/fc"
  param {
    lr_mult: 1
    decay_mult: 1
  }
  param {
    lr_mult: 2
    decay_mult: 0
  }
  inner_product_param {
    num_output: 1024
    weight_filler {
      type: "xavier"
      std: 0.02
    }
    bias_filler {
      type: "constant"
      value: 0.2
    }
  }
}
layer {
  name: "loss2/relu_fc"
  type: "ReLU"
  bottom: "loss2/fc"
  top: "loss2/fc"
}
layer {
  name: "loss2/drop_fc"
  type: "Dropout"
  bottom: "loss2/fc"
  top: "loss2/fc"
  dropout_param {
    dropout_ratio: 0.7
  }
}
layer {
  name: "loss2/classifier_plantvillage"
  type: "InnerProduct"
  bottom: "loss2/fc"
  top: "loss2/classifier_plantvillage"
  param {
    lr_mult: 1
    decay_mult: 1
  }
  param {
    lr_mult: 2
    decay_mult: 0
  }
  inner_product_param {
    num_output: 38
    weight_filler {
      type: "xavier"
      std: 0.0009765625
    }
    bias_filler {
      type: "constant"
      value: 0
    }
  }
}
layer {
  name: "inception_4e/1x1"
  type: "Convolution"
  bottom: "inception_4d/output"
  top: "inception_4e/1x1"
  param {
    lr_mult: 1
    decay_mult: 1
  }
  param {
    lr_mult: 2
    decay_mult: 0
  }
  convolution_param {
    num_output: 256
    kernel_size: 1
    weight_filler {
      type: "xavier"
      std: 0.03
    }
    bias_filler {
      type: "constant"
      value: 0.2
    }
  }
}
layer {
  name: "inception_4e/relu_1x1"
  type: "ReLU"
  bottom: "inception_4e/1x1"
  top: "inception_4e/1x1"
}
layer {
  name: "inception_4e/3x3_reduce"
  type: "Convolution"
  bottom: "inception_4d/output"
  top: "inception_4e/3x3_reduce"
  param {
    lr_mult: 1
    decay_mult: 1
  }
  param {
    lr_mult: 2
    decay_mult: 0
  }
  convolution_param {
    num_output: 160
    kernel_size: 1
    weight_filler {
      type: "xavier"
      std: 0.09
    }
    bias_filler {
      type: "constant"
      value: 0.2
    }
  }
}
layer {
  name: "inception_4e/relu_3x3_reduce"
  type: "ReLU"
  bottom: "inception_4e/3x3_reduce"
  top: "inception_4e/3x3_reduce"
}
layer {
  name: "inception_4e/3x3"
  type: "Convolution"
  bottom: "inception_4e/3x3_reduce"
  top: "inception_4e/3x3"
  param {
    lr_mult: 1
    decay_mult: 1
  }
  param {
    lr_mult: 2
    decay_mult: 0
  }
  convolution_param {
    num_output: 320
    pad: 1
    kernel_size: 3
    weight_filler {
      type: "xavier"
      std: 0.03
    }
    bias_filler {
      type: "constant"
      value: 0.2
    }
  }
}
layer {
  name: "inception_4e/relu_3x3"
  type: "ReLU"
  bottom: "inception_4e/3x3"
  top: "inception_4e/3x3"
}
layer {
  name: "inception_4e/5x5_reduce"
  type: "Convolution"
  bottom: "inception_4d/output"
  top: "inception_4e/5x5_reduce"
  param {
    lr_mult: 1
    decay_mult: 1
  }
  param {
    lr_mult: 2
    decay_mult: 0
  }
  convolution_param {
    num_output: 32
    kernel_size: 1
    weight_filler {
      type: "xavier"
      std: 0.2
    }
    bias_filler {
      type: "constant"
      value: 0.2
    }
  }
}
layer {
  name: "inception_4e/relu_5x5_reduce"
  type: "ReLU"
  bottom: "inception_4e/5x5_reduce"
  top: "inception_4e/5x5_reduce"
}
layer {
  name: "inception_4e/5x5"
  type: "Convolution"
  bottom: "inception_4e/5x5_reduce"
  top: "inception_4e/
I0403 18:30:50.263792  7075 layer_factory.hpp:77] Creating layer data
I0403 18:30:50.264395  7075 net.cpp:91] Creating Layer data
I0403 18:30:50.264428  7075 net.cpp:399] data -> data
I0403 18:30:50.264478  7075 net.cpp:399] data -> label
I0403 18:30:50.264514  7075 data_transformer.cpp:25] Loading mean file from: /home/mohanty/data/final_dataset/lmdb/grayscale-40-60/mean.binaryproto
I0403 18:30:50.265589  7078 db_lmdb.cpp:38] Opened lmdb /home/mohanty/data/final_dataset/lmdb/grayscale-40-60/test_db
I0403 18:30:50.278129  7075 data_layer.cpp:41] output data size: 24,3,224,224
I0403 18:30:50.306324  7075 net.cpp:141] Setting up data
I0403 18:30:50.306412  7075 net.cpp:148] Top shape: 24 3 224 224 (3612672)
I0403 18:30:50.306433  7075 net.cpp:148] Top shape: 24 (24)
I0403 18:30:50.306449  7075 net.cpp:156] Memory required for data: 14450784
I0403 18:30:50.306475  7075 layer_factory.hpp:77] Creating layer label_data_1_split
I0403 18:30:50.306500  7075 net.cpp:91] Creating Layer label_data_1_split
I0403 18:30:50.306517  7075 net.cpp:425] label_data_1_split <- label
I0403 18:30:50.306548  7075 net.cpp:399] label_data_1_split -> label_data_1_split_0
I0403 18:30:50.306574  7075 net.cpp:399] label_data_1_split -> label_data_1_split_1
I0403 18:30:50.306596  7075 net.cpp:399] label_data_1_split -> label_data_1_split_2
I0403 18:30:50.306615  7075 net.cpp:399] label_data_1_split -> label_data_1_split_3
I0403 18:30:50.306634  7075 net.cpp:399] label_data_1_split -> label_data_1_split_4
I0403 18:30:50.306654  7075 net.cpp:399] label_data_1_split -> label_data_1_split_5
I0403 18:30:50.306674  7075 net.cpp:399] label_data_1_split -> label_data_1_split_6
I0403 18:30:50.306694  7075 net.cpp:399] label_data_1_split -> label_data_1_split_7
I0403 18:30:50.306712  7075 net.cpp:399] label_data_1_split -> label_data_1_split_8
I0403 18:30:50.306732  7075 net.cpp:399] label_data_1_split -> label_data_1_split_9
I0403 18:30:50.306846  7075 net.cpp:141] Setting up label_data_1_split
I0403 18:30:50.306869  7075 net.cpp:148] Top shape: 24 (24)
I0403 18:30:50.306885  7075 net.cpp:148] Top shape: 24 (24)
I0403 18:30:50.306900  7075 net.cpp:148] Top shape: 24 (24)
I0403 18:30:50.306915  7075 net.cpp:148] Top shape: 24 (24)
I0403 18:30:50.306931  7075 net.cpp:148] Top shape: 24 (24)
I0403 18:30:50.306946  7075 net.cpp:148] Top shape: 24 (24)
I0403 18:30:50.306962  7075 net.cpp:148] Top shape: 24 (24)
I0403 18:30:50.306977  7075 net.cpp:148] Top shape: 24 (24)
I0403 18:30:50.306993  7075 net.cpp:148] Top shape: 24 (24)
I0403 18:30:50.307010  7075 net.cpp:148] Top shape: 24 (24)
I0403 18:30:50.307051  7075 net.cpp:156] Memory required for data: 14451744
I0403 18:30:50.307067  7075 layer_factory.hpp:77] Creating layer conv1/7x7_s2
I0403 18:30:50.307099  7075 net.cpp:91] Creating Layer conv1/7x7_s2
I0403 18:30:50.307117  7075 net.cpp:425] conv1/7x7_s2 <- data
I0403 18:30:50.307137  7075 net.cpp:399] conv1/7x7_s2 -> conv1/7x7_s2
I0403 18:30:50.447763  7075 net.cpp:141] Setting up conv1/7x7_s2
I0403 18:30:50.447875  7075 net.cpp:148] Top shape: 24 64 112 112 (19267584)
I0403 18:30:50.447893  7075 net.cpp:156] Memory required for data: 91522080
I0403 18:30:50.447926  7075 layer_factory.hpp:77] Creating layer conv1/relu_7x7
I0403 18:30:50.447953  7075 net.cpp:91] Creating Layer conv1/relu_7x7
I0403 18:30:50.447971  7075 net.cpp:425] conv1/relu_7x7 <- conv1/7x7_s2
I0403 18:30:50.447996  7075 net.cpp:386] conv1/relu_7x7 -> conv1/7x7_s2 (in-place)
I0403 18:30:50.448261  7075 net.cpp:141] Setting up conv1/relu_7x7
I0403 18:30:50.448294  7075 net.cpp:148] Top shape: 24 64 112 112 (19267584)
I0403 18:30:50.448312  7075 net.cpp:156] Memory required for data: 168592416
I0403 18:30:50.448329  7075 layer_factory.hpp:77] Creating layer pool1/3x3_s2
I0403 18:30:50.448355  7075 net.cpp:91] Creating Layer pool1/3x3_s2
I0403 18:30:50.448372  7075 net.cpp:425] pool1/3x3_s2 <- conv1/7x7_s2
I0403 18:30:50.448393  7075 net.cpp:399] pool1/3x3_s2 -> pool1/3x3_s2
I0403 18:30:50.448470  7075 net.cpp:141] Setting up pool1/3x3_s2
I0403 18:30:50.448498  7075 net.cpp:148] Top shape: 24 64 56 56 (4816896)
I0403 18:30:50.448513  7075 net.cpp:156] Memory required for data: 187860000
I0403 18:30:50.448529  7075 layer_factory.hpp:77] Creating layer pool1/norm1
I0403 18:30:50.448552  7075 net.cpp:91] Creating Layer pool1/norm1
I0403 18:30:50.448570  7075 net.cpp:425] pool1/norm1 <- pool1/3x3_s2
I0403 18:30:50.448590  7075 net.cpp:399] pool1/norm1 -> pool1/norm1
I0403 18:30:50.448891  7075 net.cpp:141] Setting up pool1/norm1
I0403 18:30:50.448918  7075 net.cpp:148] Top shape: 24 64 56 56 (4816896)
I0403 18:30:50.448935  7075 net.cpp:156] Memory required for data: 207127584
I0403 18:30:50.448950  7075 layer_factory.hpp:77] Creating layer conv2/3x3_reduce
I0403 18:30:50.448976  7075 net.cpp:91] Creating Layer conv2/3x3_reduce
I0403 18:30:50.448994  7075 net.cpp:425] conv2/3x3_reduce <- pool1/norm1
I0403 18:30:50.449018  7075 net.cpp:399] conv2/3x3_reduce -> conv2/3x3_reduce
I0403 18:30:50.450495  7075 net.cpp:141] Setting up conv2/3x3_reduce
I0403 18:30:50.450536  7075 net.cpp:148] Top shape: 24 64 56 56 (4816896)
I0403 18:30:50.450552  7075 net.cpp:156] Memory required for data: 226395168
I0403 18:30:50.450574  7075 layer_factory.hpp:77] Creating layer conv2/relu_3x3_reduce
I0403 18:30:50.450595  7075 net.cpp:91] Creating Layer conv2/relu_3x3_reduce
I0403 18:30:50.450613  7075 net.cpp:425] conv2/relu_3x3_reduce <- conv2/3x3_reduce
I0403 18:30:50.450630  7075 net.cpp:386] conv2/relu_3x3_reduce -> conv2/3x3_reduce (in-place)
I0403 18:30:50.450902  7075 net.cpp:141] Setting up conv2/relu_3x3_reduce
I0403 18:30:50.450930  7075 net.cpp:148] Top shape: 24 64 56 56 (4816896)
I0403 18:30:50.450945  7075 net.cpp:156] Memory required for data: 245662752
I0403 18:30:50.450960  7075 layer_factory.hpp:77] Creating layer conv2/3x3
I0403 18:30:50.450989  7075 net.cpp:91] Creating Layer conv2/3x3
I0403 18:30:50.451006  7075 net.cpp:425] conv2/3x3 <- conv2/3x3_reduce
I0403 18:30:50.451025  7075 net.cpp:399] conv2/3x3 -> conv2/3x3
I0403 18:30:50.453384  7075 net.cpp:141] Setting up conv2/3x3
I0403 18:30:50.453415  7075 net.cpp:148] Top shape: 24 192 56 56 (14450688)
I0403 18:30:50.453431  7075 net.cpp:156] Memory required for data: 303465504
I0403 18:30:50.453454  7075 layer_factory.hpp:77] Creating layer conv2/relu_3x3
I0403 18:30:50.453474  7075 net.cpp:91] Creating Layer conv2/relu_3x3
I0403 18:30:50.453491  7075 net.cpp:425] conv2/relu_3x3 <- conv2/3x3
I0403 18:30:50.453511  7075 net.cpp:386] conv2/relu_3x3 -> conv2/3x3 (in-place)
I0403 18:30:50.453709  7075 net.cpp:141] Setting up conv2/relu_3x3
I0403 18:30:50.453735  7075 net.cpp:148] Top shape: 24 192 56 56 (14450688)
I0403 18:30:50.453783  7075 net.cpp:156] Memory required for data: 361268256
I0403 18:30:50.453799  7075 layer_factory.hpp:77] Creating layer conv2/norm2
I0403 18:30:50.453819  7075 net.cpp:91] Creating Layer conv2/norm2
I0403 18:30:50.453836  7075 net.cpp:425] conv2/norm2 <- conv2/3x3
I0403 18:30:50.453855  7075 net.cpp:399] conv2/norm2 -> conv2/norm2
I0403 18:30:50.454164  7075 net.cpp:141] Setting up conv2/norm2
I0403 18:30:50.454192  7075 net.cpp:148] Top shape: 24 192 56 56 (14450688)
I0403 18:30:50.454207  7075 net.cpp:156] Memory required for data: 419071008
I0403 18:30:50.454223  7075 layer_factory.hpp:77] Creating layer pool2/3x3_s2
I0403 18:30:50.454244  7075 net.cpp:91] Creating Layer pool2/3x3_s2
I0403 18:30:50.454262  7075 net.cpp:425] pool2/3x3_s2 <- conv2/norm2
I0403 18:30:50.454285  7075 net.cpp:399] pool2/3x3_s2 -> pool2/3x3_s2
I0403 18:30:50.454344  7075 net.cpp:141] Setting up pool2/3x3_s2
I0403 18:30:50.454367  7075 net.cpp:148] Top shape: 24 192 28 28 (3612672)
I0403 18:30:50.454381  7075 net.cpp:156] Memory required for data: 433521696
I0403 18:30:50.454397  7075 layer_factory.hpp:77] Creating layer pool2/3x3_s2_pool2/3x3_s2_0_split
I0403 18:30:50.454416  7075 net.cpp:91] Creating Layer pool2/3x3_s2_pool2/3x3_s2_0_split
I0403 18:30:50.454430  7075 net.cpp:425] pool2/3x3_s2_pool2/3x3_s2_0_split <- pool2/3x3_s2
I0403 18:30:50.454450  7075 net.cpp:399] pool2/3x3_s2_pool2/3x3_s2_0_split -> pool2/3x3_s2_pool2/3x3_s2_0_split_0
I0403 18:30:50.454471  7075 net.cpp:399] pool2/3x3_s2_pool2/3x3_s2_0_split -> pool2/3x3_s2_pool2/3x3_s2_0_split_1
I0403 18:30:50.454490  7075 net.cpp:399] pool2/3x3_s2_pool2/3x3_s2_0_split -> pool2/3x3_s2_pool2/3x3_s2_0_split_2
I0403 18:30:50.454509  7075 net.cpp:399] pool2/3x3_s2_pool2/3x3_s2_0_split -> pool2/3x3_s2_pool2/3x3_s2_0_split_3
I0403 18:30:50.454581  7075 net.cpp:141] Setting up pool2/3x3_s2_pool2/3x3_s2_0_split
I0403 18:30:50.454607  7075 net.cpp:148] Top shape: 24 192 28 28 (3612672)
I0403 18:30:50.454624  7075 net.cpp:148] Top shape: 24 192 28 28 (3612672)
I0403 18:30:50.454640  7075 net.cpp:148] Top shape: 24 192 28 28 (3612672)
I0403 18:30:50.454656  7075 net.cpp:148] Top shape: 24 192 28 28 (3612672)
I0403 18:30:50.454670  7075 net.cpp:156] Memory required for data: 491324448
I0403 18:30:50.454685  7075 layer_factory.hpp:77] Creating layer inception_3a/1x1
I0403 18:30:50.454709  7075 net.cpp:91] Creating Layer inception_3a/1x1
I0403 18:30:50.454725  7075 net.cpp:425] inception_3a/1x1 <- pool2/3x3_s2_pool2/3x3_s2_0_split_0
I0403 18:30:50.454746  7075 net.cpp:399] inception_3a/1x1 -> inception_3a/1x1
I0403 18:30:50.456372  7075 net.cpp:141] Setting up inception_3a/1x1
I0403 18:30:50.456401  7075 net.cpp:148] Top shape: 24 64 28 28 (1204224)
I0403 18:30:50.456418  7075 net.cpp:156] Memory required for data: 496141344
I0403 18:30:50.456437  7075 layer_factory.hpp:77] Creating layer inception_3a/relu_1x1
I0403 18:30:50.456459  7075 net.cpp:91] Creating Layer inception_3a/relu_1x1
I0403 18:30:50.456475  7075 net.cpp:425] inception_3a/relu_1x1 <- inception_3a/1x1
I0403 18:30:50.456493  7075 net.cpp:386] inception_3a/relu_1x1 -> inception_3a/1x1 (in-place)
I0403 18:30:50.456671  7075 net.cpp:141] Setting up inception_3a/relu_1x1
I0403 18:30:50.456699  7075 net.cpp:148] Top shape: 24 64 28 28 (1204224)
I0403 18:30:50.456715  7075 net.cpp:156] Memory required for data: 500958240
I0403 18:30:50.456730  7075 layer_factory.hpp:77] Creating layer inception_3a/3x3_reduce
I0403 18:30:50.456753  7075 net.cpp:91] Creating Layer inception_3a/3x3_reduce
I0403 18:30:50.456769  7075 net.cpp:425] inception_3a/3x3_reduce <- pool2/3x3_s2_pool2/3x3_s2_0_split_1
I0403 18:30:50.456789  7075 net.cpp:399] inception_3a/3x3_reduce -> inception_3a/3x3_reduce
I0403 18:30:50.458551  7075 net.cpp:141] Setting up inception_3a/3x3_reduce
I0403 18:30:50.458581  7075 net.cpp:148] Top shape: 24 96 28 28 (1806336)
I0403 18:30:50.458597  7075 net.cpp:156] Memory required for data: 508183584
I0403 18:30:50.458619  7075 layer_factory.hpp:77] Creating layer inception_3a/relu_3x3_reduce
I0403 18:30:50.458658  7075 net.cpp:91] Creating Layer inception_3a/relu_3x3_reduce
I0403 18:30:50.458675  7075 net.cpp:425] inception_3a/relu_3x3_reduce <- inception_3a/3x3_reduce
I0403 18:30:50.458696  7075 net.cpp:386] inception_3a/relu_3x3_reduce -> inception_3a/3x3_reduce (in-place)
I0403 18:30:50.458881  7075 net.cpp:141] Setting up inception_3a/relu_3x3_reduce
I0403 18:30:50.458906  7075 net.cpp:148] Top shape: 24 96 28 28 (1806336)
I0403 18:30:50.458922  7075 net.cpp:156] Memory required for data: 515408928
I0403 18:30:50.458937  7075 layer_factory.hpp:77] Creating layer inception_3a/3x3
I0403 18:30:50.458961  7075 net.cpp:91] Creating Layer inception_3a/3x3
I0403 18:30:50.458978  7075 net.cpp:425] inception_3a/3x3 <- inception_3a/3x3_reduce
I0403 18:30:50.459002  7075 net.cpp:399] inception_3a/3x3 -> inception_3a/3x3
I0403 18:30:50.460691  7075 net.cpp:141] Setting up inception_3a/3x3
I0403 18:30:50.460722  7075 net.cpp:148] Top shape: 24 128 28 28 (2408448)
I0403 18:30:50.460739  7075 net.cpp:156] Memory required for data: 525042720
I0403 18:30:50.460758  7075 layer_factory.hpp:77] Creating layer inception_3a/relu_3x3
I0403 18:30:50.460777  7075 net.cpp:91] Creating Layer inception_3a/relu_3x3
I0403 18:30:50.460793  7075 net.cpp:425] inception_3a/relu_3x3 <- inception_3a/3x3
I0403 18:30:50.460810  7075 net.cpp:386] inception_3a/relu_3x3 -> inception_3a/3x3 (in-place)
I0403 18:30:50.461091  7075 net.cpp:141] Setting up inception_3a/relu_3x3
I0403 18:30:50.461122  7075 net.cpp:148] Top shape: 24 128 28 28 (2408448)
I0403 18:30:50.461138  7075 net.cpp:156] Memory required for data: 534676512
I0403 18:30:50.461153  7075 layer_factory.hpp:77] Creating layer inception_3a/5x5_reduce
I0403 18:30:50.461175  7075 net.cpp:91] Creating Layer inception_3a/5x5_reduce
I0403 18:30:50.461194  7075 net.cpp:425] inception_3a/5x5_reduce <- pool2/3x3_s2_pool2/3x3_s2_0_split_2
I0403 18:30:50.461212  7075 net.cpp:399] inception_3a/5x5_reduce -> inception_3a/5x5_reduce
I0403 18:30:50.462204  7075 net.cpp:141] Setting up inception_3a/5x5_reduce
I0403 18:30:50.462232  7075 net.cpp:148] Top shape: 24 16 28 28 (301056)
I0403 18:30:50.462249  7075 net.cpp:156] Memory required for data: 535880736
I0403 18:30:50.462267  7075 layer_factory.hpp:77] Creating layer inception_3a/relu_5x5_reduce
I0403 18:30:50.462298  7075 net.cpp:91] Creating Layer inception_3a/relu_5x5_reduce
I0403 18:30:50.462316  7075 net.cpp:425] inception_3a/relu_5x5_reduce <- inception_3a/5x5_reduce
I0403 18:30:50.462337  7075 net.cpp:386] inception_3a/relu_5x5_reduce -> inception_3a/5x5_reduce (in-place)
I0403 18:30:50.462632  7075 net.cpp:141] Setting up inception_3a/relu_5x5_reduce
I0403 18:30:50.462658  7075 net.cpp:148] Top shape: 24 16 28 28 (301056)
I0403 18:30:50.462673  7075 net.cpp:156] Memory required for data: 537084960
I0403 18:30:50.462688  7075 layer_factory.hpp:77] Creating layer inception_3a/5x5
I0403 18:30:50.462712  7075 net.cpp:91] Creating Layer inception_3a/5x5
I0403 18:30:50.462728  7075 net.cpp:425] inception_3a/5x5 <- inception_3a/5x5_reduce
I0403 18:30:50.462749  7075 net.cpp:399] inception_3a/5x5 -> inception_3a/5x5
I0403 18:30:50.463750  7075 net.cpp:141] Setting up inception_3a/5x5
I0403 18:30:50.463780  7075 net.cpp:148] Top shape: 24 32 28 28 (602112)
I0403 18:30:50.463798  7075 net.cpp:156] Memory required for data: 539493408
I0403 18:30:50.463816  7075 layer_factory.hpp:77] Creating layer inception_3a/relu_5x5
I0403 18:30:50.463835  7075 net.cpp:91] Creating Layer inception_3a/relu_5x5
I0403 18:30:50.463851  7075 net.cpp:425] inception_3a/relu_5x5 <- inception_3a/5x5
I0403 18:30:50.463868  7075 net.cpp:386] inception_3a/relu_5x5 -> inception_3a/5x5 (in-place)
I0403 18:30:50.464043  7075 net.cpp:141] Setting up inception_3a/relu_5x5
I0403 18:30:50.464071  7075 net.cpp:148] Top shape: 24 32 28 28 (602112)
I0403 18:30:50.464085  7075 net.cpp:156] Memory required for data: 541901856
I0403 18:30:50.464100  7075 layer_factory.hpp:77] Creating layer inception_3a/pool
I0403 18:30:50.464118  7075 net.cpp:91] Creating Layer inception_3a/pool
I0403 18:30:50.464148  7075 net.cpp:425] inception_3a/pool <- pool2/3x3_s2_pool2/3x3_s2_0_split_3
I0403 18:30:50.464170  7075 net.cpp:399] inception_3a/pool -> inception_3a/pool
I0403 18:30:50.464227  7075 net.cpp:141] Setting up inception_3a/pool
I0403 18:30:50.464254  7075 net.cpp:148] Top shape: 24 192 28 28 (3612672)
I0403 18:30:50.464268  7075 net.cpp:156] Memory required for data: 556352544
I0403 18:30:50.464287  7075 layer_factory.hpp:77] Creating layer inception_3a/pool_proj
I0403 18:30:50.464313  7075 net.cpp:91] Creating Layer inception_3a/pool_proj
I0403 18:30:50.464330  7075 net.cpp:425] inception_3a/pool_proj <- inception_3a/pool
I0403 18:30:50.464349  7075 net.cpp:399] inception_3a/pool_proj -> inception_3a/pool_proj
I0403 18:30:50.465299  7075 net.cpp:141] Setting up inception_3a/pool_proj
I0403 18:30:50.465328  7075 net.cpp:148] Top shape: 24 32 28 28 (602112)
I0403 18:30:50.465343  7075 net.cpp:156] Memory required for data: 558760992
I0403 18:30:50.465368  7075 layer_factory.hpp:77] Creating layer inception_3a/relu_pool_proj
I0403 18:30:50.465386  7075 net.cpp:91] Creating Layer inception_3a/relu_pool_proj
I0403 18:30:50.465415  7075 net.cpp:425] inception_3a/relu_pool_proj <- inception_3a/pool_proj
I0403 18:30:50.465435  7075 net.cpp:386] inception_3a/relu_pool_proj -> inception_3a/pool_proj (in-place)
I0403 18:30:50.465700  7075 net.cpp:141] Setting up inception_3a/relu_pool_proj
I0403 18:30:50.465728  7075 net.cpp:148] Top shape: 24 32 28 28 (602112)
I0403 18:30:50.465742  7075 net.cpp:156] Memory required for data: 561169440
I0403 18:30:50.465757  7075 layer_factory.hpp:77] Creating layer inception_3a/output
I0403 18:30:50.465775  7075 net.cpp:91] Creating Layer inception_3a/output
I0403 18:30:50.465791  7075 net.cpp:425] inception_3a/output <- inception_3a/1x1
I0403 18:30:50.465807  7075 net.cpp:425] inception_3a/output <- inception_3a/3x3
I0403 18:30:50.465822  7075 net.cpp:425] inception_3a/output <- inception_3a/5x5
I0403 18:30:50.465838  7075 net.cpp:425] inception_3a/output <- inception_3a/pool_proj
I0403 18:30:50.465853  7075 net.cpp:399] inception_3a/output -> inception_3a/output
I0403 18:30:50.465900  7075 net.cpp:141] Setting up inception_3a/output
I0403 18:30:50.465922  7075 net.cpp:148] Top shape: 24 256 28 28 (4816896)
I0403 18:30:50.465937  7075 net.cpp:156] Memory required for data: 580437024
I0403 18:30:50.465951  7075 layer_factory.hpp:77] Creating layer inception_3a/output_inception_3a/output_0_split
I0403 18:30:50.465970  7075 net.cpp:91] Creating Layer inception_3a/output_inception_3a/output_0_split
I0403 18:30:50.465986  7075 net.cpp:425] inception_3a/output_inception_3a/output_0_split <- inception_3a/output
I0403 18:30:50.466002  7075 net.cpp:399] inception_3a/output_inception_3a/output_0_split -> inception_3a/output_inception_3a/output_0_split_0
I0403 18:30:50.466023  7075 net.cpp:399] inception_3a/output_inception_3a/output_0_split -> inception_3a/output_inception_3a/output_0_split_1
I0403 18:30:50.466048  7075 net.cpp:399] inception_3a/output_inception_3a/output_0_split -> inception_3a/output_inception_3a/output_0_split_2
I0403 18:30:50.466068  7075 net.cpp:399] inception_3a/output_inception_3a/output_0_split -> inception_3a/output_inception_3a/output_0_split_3
I0403 18:30:50.466140  7075 net.cpp:141] Setting up inception_3a/output_inception_3a/output_0_split
I0403 18:30:50.466162  7075 net.cpp:148] Top shape: 24 256 28 28 (4816896)
I0403 18:30:50.466178  7075 net.cpp:148] Top shape: 24 256 28 28 (4816896)
I0403 18:30:50.466195  7075 net.cpp:148] Top shape: 24 256 28 28 (4816896)
I0403 18:30:50.466210  7075 net.cpp:148] Top shape: 24 256 28 28 (4816896)
I0403 18:30:50.466224  7075 net.cpp:156] Memory required for data: 657507360
I0403 18:30:50.466238  7075 layer_factory.hpp:77] Creating layer inception_3b/1x1
I0403 18:30:50.466262  7075 net.cpp:91] Creating Layer inception_3b/1x1
I0403 18:30:50.466296  7075 net.cpp:425] inception_3b/1x1 <- inception_3a/output_inception_3a/output_0_split_0
I0403 18:30:50.466316  7075 net.cpp:399] inception_3b/1x1 -> inception_3b/1x1
I0403 18:30:50.467427  7075 net.cpp:141] Setting up inception_3b/1x1
I0403 18:30:50.467466  7075 net.cpp:148] Top shape: 24 128 28 28 (2408448)
I0403 18:30:50.467481  7075 net.cpp:156] Memory required for data: 667141152
I0403 18:30:50.467501  7075 layer_factory.hpp:77] Creating layer inception_3b/relu_1x1
I0403 18:30:50.467520  7075 net.cpp:91] Creating Layer inception_3b/relu_1x1
I0403 18:30:50.467537  7075 net.cpp:425] inception_3b/relu_1x1 <- inception_3b/1x1
I0403 18:30:50.467555  7075 net.cpp:386] inception_3b/relu_1x1 -> inception_3b/1x1 (in-place)
I0403 18:30:50.467722  7075 net.cpp:141] Setting up inception_3b/relu_1x1
I0403 18:30:50.467749  7075 net.cpp:148] Top shape: 24 128 28 28 (2408448)
I0403 18:30:50.467764  7075 net.cpp:156] Memory required for data: 676774944
I0403 18:30:50.467778  7075 layer_factory.hpp:77] Creating layer inception_3b/3x3_reduce
I0403 18:30:50.467799  7075 net.cpp:91] Creating Layer inception_3b/3x3_reduce
I0403 18:30:50.467815  7075 net.cpp:425] inception_3b/3x3_reduce <- inception_3a/output_inception_3a/output_0_split_1
I0403 18:30:50.467834  7075 net.cpp:399] inception_3b/3x3_reduce -> inception_3b/3x3_reduce
I0403 18:30:50.468961  7075 net.cpp:141] Setting up inception_3b/3x3_reduce
I0403 18:30:50.468991  7075 net.cpp:148] Top shape: 24 128 28 28 (2408448)
I0403 18:30:50.469005  7075 net.cpp:156] Memory required for data: 686408736
I0403 18:30:50.469023  7075 layer_factory.hpp:77] Creating layer inception_3b/relu_3x3_reduce
I0403 18:30:50.469044  7075 net.cpp:91] Creating Layer inception_3b/relu_3x3_reduce
I0403 18:30:50.469060  7075 net.cpp:425] inception_3b/relu_3x3_reduce <- inception_3b/3x3_reduce
I0403 18:30:50.469079  7075 net.cpp:386] inception_3b/relu_3x3_reduce -> inception_3b/3x3_reduce (in-place)
I0403 18:30:50.469267  7075 net.cpp:141] Setting up inception_3b/relu_3x3_reduce
I0403 18:30:50.469300  7075 net.cpp:148] Top shape: 24 128 28 28 (2408448)
I0403 18:30:50.469317  7075 net.cpp:156] Memory required for data: 696042528
I0403 18:30:50.469333  7075 layer_factory.hpp:77] Creating layer inception_3b/3x3
I0403 18:30:50.469358  7075 net.cpp:91] Creating Layer inception_3b/3x3
I0403 18:30:50.469378  7075 net.cpp:425] inception_3b/3x3 <- inception_3b/3x3_reduce
I0403 18:30:50.469401  7075 net.cpp:399] inception_3b/3x3 -> inception_3b/3x3
I0403 18:30:50.472326  7075 net.cpp:141] Setting up inception_3b/3x3
I0403 18:30:50.472357  7075 net.cpp:148] Top shape: 24 192 28 28 (3612672)
I0403 18:30:50.472373  7075 net.cpp:156] Memory required for data: 710493216
I0403 18:30:50.472393  7075 layer_factory.hpp:77] Creating layer inception_3b/relu_3x3
I0403 18:30:50.472409  7075 net.cpp:91] Creating Layer inception_3b/relu_3x3
I0403 18:30:50.472424  7075 net.cpp:425] inception_3b/relu_3x3 <- inception_3b/3x3
I0403 18:30:50.472441  7075 net.cpp:386] inception_3b/relu_3x3 -> inception_3b/3x3 (in-place)
I0403 18:30:50.472718  7075 net.cpp:141] Setting up inception_3b/relu_3x3
I0403 18:30:50.472748  7075 net.cpp:148] Top shape: 24 192 28 28 (3612672)
I0403 18:30:50.472764  7075 net.cpp:156] Memory required for data: 724943904
I0403 18:30:50.472779  7075 layer_factory.hpp:77] Creating layer inception_3b/5x5_reduce
I0403 18:30:50.472801  7075 net.cpp:91] Creating Layer inception_3b/5x5_reduce
I0403 18:30:50.472820  7075 net.cpp:425] inception_3b/5x5_reduce <- inception_3a/output_inception_3a/output_0_split_2
I0403 18:30:50.472838  7075 net.cpp:399] inception_3b/5x5_reduce -> inception_3b/5x5_reduce
I0403 18:30:50.473829  7075 net.cpp:141] Setting up inception_3b/5x5_reduce
I0403 18:30:50.473860  7075 net.cpp:148] Top shape: 24 32 28 28 (602112)
I0403 18:30:50.473877  7075 net.cpp:156] Memory required for data: 727352352
I0403 18:30:50.473896  7075 layer_factory.hpp:77] Creating layer inception_3b/relu_5x5_reduce
I0403 18:30:50.473914  7075 net.cpp:91] Creating Layer inception_3b/relu_5x5_reduce
I0403 18:30:50.473929  7075 net.cpp:425] inception_3b/relu_5x5_reduce <- inception_3b/5x5_reduce
I0403 18:30:50.473947  7075 net.cpp:386] inception_3b/relu_5x5_reduce -> inception_3b/5x5_reduce (in-place)
I0403 18:30:50.474134  7075 net.cpp:141] Setting up inception_3b/relu_5x5_reduce
I0403 18:30:50.474159  7075 net.cpp:148] Top shape: 24 32 28 28 (602112)
I0403 18:30:50.474174  7075 net.cpp:156] Memory required for data: 729760800
I0403 18:30:50.474190  7075 layer_factory.hpp:77] Creating layer inception_3b/5x5
I0403 18:30:50.474211  7075 net.cpp:91] Creating Layer inception_3b/5x5
I0403 18:30:50.474228  7075 net.cpp:425] inception_3b/5x5 <- inception_3b/5x5_reduce
I0403 18:30:50.474251  7075 net.cpp:399] inception_3b/5x5 -> inception_3b/5x5
I0403 18:30:50.476261  7075 net.cpp:141] Setting up inception_3b/5x5
I0403 18:30:50.476295  7075 net.cpp:148] Top shape: 24 96 28 28 (1806336)
I0403 18:30:50.476311  7075 net.cpp:156] Memory required for data: 736986144
I0403 18:30:50.476330  7075 layer_factory.hpp:77] Creating layer inception_3b/relu_5x5
I0403 18:30:50.476351  7075 net.cpp:91] Creating Layer inception_3b/relu_5x5
I0403 18:30:50.476366  7075 net.cpp:425] inception_3b/relu_5x5 <- inception_3b/5x5
I0403 18:30:50.476384  7075 net.cpp:386] inception_3b/relu_5x5 -> inception_3b/5x5 (in-place)
I0403 18:30:50.476575  7075 net.cpp:141] Setting up inception_3b/relu_5x5
I0403 18:30:50.476601  7075 net.cpp:148] Top shape: 24 96 28 28 (1806336)
I0403 18:30:50.476616  7075 net.cpp:156] Memory required for data: 744211488
I0403 18:30:50.476630  7075 layer_factory.hpp:77] Creating layer inception_3b/pool
I0403 18:30:50.476647  7075 net.cpp:91] Creating Layer inception_3b/pool
I0403 18:30:50.476665  7075 net.cpp:425] inception_3b/pool <- inception_3a/output_inception_3a/output_0_split_3
I0403 18:30:50.476683  7075 net.cpp:399] inception_3b/pool -> inception_3b/pool
I0403 18:30:50.476738  7075 net.cpp:141] Setting up inception_3b/pool
I0403 18:30:50.476761  7075 net.cpp:148] Top shape: 24 256 28 28 (4816896)
I0403 18:30:50.476775  7075 net.cpp:156] Memory required for data: 763479072
I0403 18:30:50.476789  7075 layer_factory.hpp:77] Creating layer inception_3b/pool_proj
I0403 18:30:50.476811  7075 net.cpp:91] Creating Layer inception_3b/pool_proj
I0403 18:30:50.476829  7075 net.cpp:425] inception_3b/pool_proj <- inception_3b/pool
I0403 18:30:50.476850  7075 net.cpp:399] inception_3b/pool_proj -> inception_3b/pool_proj
I0403 18:30:50.477897  7075 net.cpp:141] Setting up inception_3b/pool_proj
I0403 18:30:50.477926  7075 net.cpp:148] Top shape: 24 64 28 28 (1204224)
I0403 18:30:50.477941  7075 net.cpp:156] Memory required for data: 768295968
I0403 18:30:50.477958  7075 layer_factory.hpp:77] Creating layer inception_3b/relu_pool_proj
I0403 18:30:50.477977  7075 net.cpp:91] Creating Layer inception_3b/relu_pool_proj
I0403 18:30:50.477996  7075 net.cpp:425] inception_3b/relu_pool_proj <- inception_3b/pool_proj
I0403 18:30:50.478013  7075 net.cpp:386] inception_3b/relu_pool_proj -> inception_3b/pool_proj (in-place)
I0403 18:30:50.478392  7075 net.cpp:141] Setting up inception_3b/relu_pool_proj
I0403 18:30:50.478418  7075 net.cpp:148] Top shape: 24 64 28 28 (1204224)
I0403 18:30:50.478435  7075 net.cpp:156] Memory required for data: 773112864
I0403 18:30:50.478449  7075 layer_factory.hpp:77] Creating layer inception_3b/output
I0403 18:30:50.478466  7075 net.cpp:91] Creating Layer inception_3b/output
I0403 18:30:50.478482  7075 net.cpp:425] inception_3b/output <- inception_3b/1x1
I0403 18:30:50.478499  7075 net.cpp:425] inception_3b/output <- inception_3b/3x3
I0403 18:30:50.478514  7075 net.cpp:425] inception_3b/output <- inception_3b/5x5
I0403 18:30:50.478529  7075 net.cpp:425] inception_3b/output <- inception_3b/pool_proj
I0403 18:30:50.478549  7075 net.cpp:399] inception_3b/output -> inception_3b/output
I0403 18:30:50.478592  7075 net.cpp:141] Setting up inception_3b/output
I0403 18:30:50.478617  7075 net.cpp:148] Top shape: 24 480 28 28 (9031680)
I0403 18:30:50.478633  7075 net.cpp:156] Memory required for data: 809239584
I0403 18:30:50.478647  7075 layer_factory.hpp:77] Creating layer pool3/3x3_s2
I0403 18:30:50.478664  7075 net.cpp:91] Creating Layer pool3/3x3_s2
I0403 18:30:50.478679  7075 net.cpp:425] pool3/3x3_s2 <- inception_3b/output
I0403 18:30:50.478711  7075 net.cpp:399] pool3/3x3_s2 -> pool3/3x3_s2
I0403 18:30:50.478772  7075 net.cpp:141] Setting up pool3/3x3_s2
I0403 18:30:50.478796  7075 net.cpp:148] Top shape: 24 480 14 14 (2257920)
I0403 18:30:50.478809  7075 net.cpp:156] Memory required for data: 818271264
I0403 18:30:50.478823  7075 layer_factory.hpp:77] Creating layer pool3/3x3_s2_pool3/3x3_s2_0_split
I0403 18:30:50.478840  7075 net.cpp:91] Creating Layer pool3/3x3_s2_pool3/3x3_s2_0_split
I0403 18:30:50.478855  7075 net.cpp:425] pool3/3x3_s2_pool3/3x3_s2_0_split <- pool3/3x3_s2
I0403 18:30:50.478875  7075 net.cpp:399] pool3/3x3_s2_pool3/3x3_s2_0_split -> pool3/3x3_s2_pool3/3x3_s2_0_split_0
I0403 18:30:50.478895  7075 net.cpp:399] pool3/3x3_s2_pool3/3x3_s2_0_split -> pool3/3x3_s2_pool3/3x3_s2_0_split_1
I0403 18:30:50.478915  7075 net.cpp:399] pool3/3x3_s2_pool3/3x3_s2_0_split -> pool3/3x3_s2_pool3/3x3_s2_0_split_2
I0403 18:30:50.478935  7075 net.cpp:399] pool3/3x3_s2_pool3/3x3_s2_0_split -> pool3/3x3_s2_pool3/3x3_s2_0_split_3
I0403 18:30:50.479017  7075 net.cpp:141] Setting up pool3/3x3_s2_pool3/3x3_s2_0_split
I0403 18:30:50.479040  7075 net.cpp:148] Top shape: 24 480 14 14 (2257920)
I0403 18:30:50.479056  7075 net.cpp:148] Top shape: 24 480 14 14 (2257920)
I0403 18:30:50.479073  7075 net.cpp:148] Top shape: 24 480 14 14 (2257920)
I0403 18:30:50.479089  7075 net.cpp:148] Top shape: 24 480 14 14 (2257920)
I0403 18:30:50.479101  7075 net.cpp:156] Memory required for data: 854397984
I0403 18:30:50.479115  7075 layer_factory.hpp:77] Creating layer inception_4a/1x1
I0403 18:30:50.479137  7075 net.cpp:91] Creating Layer inception_4a/1x1
I0403 18:30:50.479154  7075 net.cpp:425] inception_4a/1x1 <- pool3/3x3_s2_pool3/3x3_s2_0_split_0
I0403 18:30:50.479176  7075 net.cpp:399] inception_4a/1x1 -> inception_4a/1x1
I0403 18:30:50.480733  7075 net.cpp:141] Setting up inception_4a/1x1
I0403 18:30:50.480761  7075 net.cpp:148] Top shape: 24 192 14 14 (903168)
I0403 18:30:50.480775  7075 net.cpp:156] Memory required for data: 858010656
I0403 18:30:50.480794  7075 layer_factory.hpp:77] Creating layer inception_4a/relu_1x1
I0403 18:30:50.480815  7075 net.cpp:91] Creating Layer inception_4a/relu_1x1
I0403 18:30:50.480831  7075 net.cpp:425] inception_4a/relu_1x1 <- inception_4a/1x1
I0403 18:30:50.480850  7075 net.cpp:386] inception_4a/relu_1x1 -> inception_4a/1x1 (in-place)
I0403 18:30:50.481024  7075 net.cpp:141] Setting up inception_4a/relu_1x1
I0403 18:30:50.481047  7075 net.cpp:148] Top shape: 24 192 14 14 (903168)
I0403 18:30:50.481062  7075 net.cpp:156] Memory required for data: 861623328
I0403 18:30:50.481076  7075 layer_factory.hpp:77] Creating layer inception_4a/3x3_reduce
I0403 18:30:50.481102  7075 net.cpp:91] Creating Layer inception_4a/3x3_reduce
I0403 18:30:50.481120  7075 net.cpp:425] inception_4a/3x3_reduce <- pool3/3x3_s2_pool3/3x3_s2_0_split_1
I0403 18:30:50.481139  7075 net.cpp:399] inception_4a/3x3_reduce -> inception_4a/3x3_reduce
I0403 18:30:50.482432  7075 net.cpp:141] Setting up inception_4a/3x3_reduce
I0403 18:30:50.482461  7075 net.cpp:148] Top shape: 24 96 14 14 (451584)
I0403 18:30:50.482477  7075 net.cpp:156] Memory required for data: 863429664
I0403 18:30:50.482503  7075 layer_factory.hpp:77] Creating layer inception_4a/relu_3x3_reduce
I0403 18:30:50.482524  7075 net.cpp:91] Creating Layer inception_4a/relu_3x3_reduce
I0403 18:30:50.482542  7075 net.cpp:425] inception_4a/relu_3x3_reduce <- inception_4a/3x3_reduce
I0403 18:30:50.482561  7075 net.cpp:386] inception_4a/relu_3x3_reduce -> inception_4a/3x3_reduce (in-place)
I0403 18:30:50.482750  7075 net.cpp:141] Setting up inception_4a/relu_3x3_reduce
I0403 18:30:50.482775  7075 net.cpp:148] Top shape: 24 96 14 14 (451584)
I0403 18:30:50.482789  7075 net.cpp:156] Memory required for data: 865236000
I0403 18:30:50.482805  7075 layer_factory.hpp:77] Creating layer inception_4a/3x3
I0403 18:30:50.482826  7075 net.cpp:91] Creating Layer inception_4a/3x3
I0403 18:30:50.482844  7075 net.cpp:425] inception_4a/3x3 <- inception_4a/3x3_reduce
I0403 18:30:50.482867  7075 net.cpp:399] inception_4a/3x3 -> inception_4a/3x3
I0403 18:30:50.485544  7075 net.cpp:141] Setting up inception_4a/3x3
I0403 18:30:50.485574  7075 net.cpp:148] Top shape: 24 208 14 14 (978432)
I0403 18:30:50.485589  7075 net.cpp:156] Memory required for data: 869149728
I0403 18:30:50.485607  7075 layer_factory.hpp:77] Creating layer inception_4a/relu_3x3
I0403 18:30:50.485627  7075 net.cpp:91] Creating Layer inception_4a/relu_3x3
I0403 18:30:50.485644  7075 net.cpp:425] inception_4a/relu_3x3 <- inception_4a/3x3
I0403 18:30:50.485662  7075 net.cpp:386] inception_4a/relu_3x3 -> inception_4a/3x3 (in-place)
I0403 18:30:50.485936  7075 net.cpp:141] Setting up inception_4a/relu_3x3
I0403 18:30:50.485963  7075 net.cpp:148] Top shape: 24 208 14 14 (978432)
I0403 18:30:50.485977  7075 net.cpp:156] Memory required for data: 873063456
I0403 18:30:50.485993  7075 layer_factory.hpp:77] Creating layer inception_4a/5x5_reduce
I0403 18:30:50.486016  7075 net.cpp:91] Creating Layer inception_4a/5x5_reduce
I0403 18:30:50.486033  7075 net.cpp:425] inception_4a/5x5_reduce <- pool3/3x3_s2_pool3/3x3_s2_0_split_2
I0403 18:30:50.486055  7075 net.cpp:399] inception_4a/5x5_reduce -> inception_4a/5x5_reduce
I0403 18:30:50.487098  7075 net.cpp:141] Setting up inception_4a/5x5_reduce
I0403 18:30:50.487140  7075 net.cpp:148] Top shape: 24 16 14 14 (75264)
I0403 18:30:50.487157  7075 net.cpp:156] Memory required for data: 873364512
I0403 18:30:50.487175  7075 layer_factory.hpp:77] Creating layer inception_4a/relu_5x5_reduce
I0403 18:30:50.487195  7075 net.cpp:91] Creating Layer inception_4a/relu_5x5_reduce
I0403 18:30:50.487210  7075 net.cpp:425] inception_4a/relu_5x5_reduce <- inception_4a/5x5_reduce
I0403 18:30:50.487226  7075 net.cpp:386] inception_4a/relu_5x5_reduce -> inception_4a/5x5_reduce (in-place)
I0403 18:30:50.487406  7075 net.cpp:141] Setting up inception_4a/relu_5x5_reduce
I0403 18:30:50.487432  7075 net.cpp:148] Top shape: 24 16 14 14 (75264)
I0403 18:30:50.487447  7075 net.cpp:156] Memory required for data: 873665568
I0403 18:30:50.487462  7075 layer_factory.hpp:77] Creating layer inception_4a/5x5
I0403 18:30:50.487483  7075 net.cpp:91] Creating Layer inception_4a/5x5
I0403 18:30:50.487501  7075 net.cpp:425] inception_4a/5x5 <- inception_4a/5x5_reduce
I0403 18:30:50.487521  7075 net.cpp:399] inception_4a/5x5 -> inception_4a/5x5
I0403 18:30:50.488579  7075 net.cpp:141] Setting up inception_4a/5x5
I0403 18:30:50.488605  7075 net.cpp:148] Top shape: 24 48 14 14 (225792)
I0403 18:30:50.488620  7075 net.cpp:156] Memory required for data: 874568736
I0403 18:30:50.488638  7075 layer_factory.hpp:77] Creating layer inception_4a/relu_5x5
I0403 18:30:50.488656  7075 net.cpp:91] Creating Layer inception_4a/relu_5x5
I0403 18:30:50.488672  7075 net.cpp:425] inception_4a/relu_5x5 <- inception_4a/5x5
I0403 18:30:50.488690  7075 net.cpp:386] inception_4a/relu_5x5 -> inception_4a/5x5 (in-place)
I0403 18:30:50.488864  7075 net.cpp:141] Setting up inception_4a/relu_5x5
I0403 18:30:50.488888  7075 net.cpp:148] Top shape: 24 48 14 14 (225792)
I0403 18:30:50.488901  7075 net.cpp:156] Memory required for data: 875471904
I0403 18:30:50.488915  7075 layer_factory.hpp:77] Creating layer inception_4a/pool
I0403 18:30:50.488935  7075 net.cpp:91] Creating Layer inception_4a/pool
I0403 18:30:50.488952  7075 net.cpp:425] inception_4a/pool <- pool3/3x3_s2_pool3/3x3_s2_0_split_3
I0403 18:30:50.488970  7075 net.cpp:399] inception_4a/pool -> inception_4a/pool
I0403 18:30:50.489028  7075 net.cpp:141] Setting up inception_4a/pool
I0403 18:30:50.489050  7075 net.cpp:148] Top shape: 24 480 14 14 (2257920)
I0403 18:30:50.489064  7075 net.cpp:156] Memory required for data: 884503584
I0403 18:30:50.489079  7075 layer_factory.hpp:77] Creating layer inception_4a/pool_proj
I0403 18:30:50.489100  7075 net.cpp:91] Creating Layer inception_4a/pool_proj
I0403 18:30:50.489117  7075 net.cpp:425] inception_4a/pool_proj <- inception_4a/pool
I0403 18:30:50.489137  7075 net.cpp:399] inception_4a/pool_proj -> inception_4a/pool_proj
I0403 18:30:50.490275  7075 net.cpp:141] Setting up inception_4a/pool_proj
I0403 18:30:50.490305  7075 net.cpp:148] Top shape: 24 64 14 14 (301056)
I0403 18:30:50.490334  7075 net.cpp:156] Memory required for data: 885707808
I0403 18:30:50.490353  7075 layer_factory.hpp:77] Creating layer inception_4a/relu_pool_proj
I0403 18:30:50.490370  7075 net.cpp:91] Creating Layer inception_4a/relu_pool_proj
I0403 18:30:50.490386  7075 net.cpp:425] inception_4a/relu_pool_proj <- inception_4a/pool_proj
I0403 18:30:50.490407  7075 net.cpp:386] inception_4a/relu_pool_proj -> inception_4a/pool_proj (in-place)
I0403 18:30:50.490689  7075 net.cpp:141] Setting up inception_4a/relu_pool_proj
I0403 18:30:50.490713  7075 net.cpp:148] Top shape: 24 64 14 14 (301056)
I0403 18:30:50.490727  7075 net.cpp:156] Memory required for data: 886912032
I0403 18:30:50.490742  7075 layer_factory.hpp:77] Creating layer inception_4a/output
I0403 18:30:50.490759  7075 net.cpp:91] Creating Layer inception_4a/output
I0403 18:30:50.490774  7075 net.cpp:425] inception_4a/output <- inception_4a/1x1
I0403 18:30:50.490790  7075 net.cpp:425] inception_4a/output <- inception_4a/3x3
I0403 18:30:50.490805  7075 net.cpp:425] inception_4a/output <- inception_4a/5x5
I0403 18:30:50.490820  7075 net.cpp:425] inception_4a/output <- inception_4a/pool_proj
I0403 18:30:50.490839  7075 net.cpp:399] inception_4a/output -> inception_4a/output
I0403 18:30:50.490882  7075 net.cpp:141] Setting up inception_4a/output
I0403 18:30:50.490907  7075 net.cpp:148] Top shape: 24 512 14 14 (2408448)
I0403 18:30:50.490921  7075 net.cpp:156] Memory required for data: 896545824
I0403 18:30:50.490936  7075 layer_factory.hpp:77] Creating layer inception_4a/output_inception_4a/output_0_split
I0403 18:30:50.490952  7075 net.cpp:91] Creating Layer inception_4a/output_inception_4a/output_0_split
I0403 18:30:50.490967  7075 net.cpp:425] inception_4a/output_inception_4a/output_0_split <- inception_4a/output
I0403 18:30:50.490988  7075 net.cpp:399] inception_4a/output_inception_4a/output_0_split -> inception_4a/output_inception_4a/output_0_split_0
I0403 18:30:50.491008  7075 net.cpp:399] inception_4a/output_inception_4a/output_0_split -> inception_4a/output_inception_4a/output_0_split_1
I0403 18:30:50.491029  7075 net.cpp:399] inception_4a/output_inception_4a/output_0_split -> inception_4a/output_inception_4a/output_0_split_2
I0403 18:30:50.491047  7075 net.cpp:399] inception_4a/output_inception_4a/output_0_split -> inception_4a/output_inception_4a/output_0_split_3
I0403 18:30:50.491065  7075 net.cpp:399] inception_4a/output_inception_4a/output_0_split -> inception_4a/output_inception_4a/output_0_split_4
I0403 18:30:50.491154  7075 net.cpp:141] Setting up inception_4a/output_inception_4a/output_0_split
I0403 18:30:50.491179  7075 net.cpp:148] Top shape: 24 512 14 14 (2408448)
I0403 18:30:50.491197  7075 net.cpp:148] Top shape: 24 512 14 14 (2408448)
I0403 18:30:50.491212  7075 net.cpp:148] Top shape: 24 512 14 14 (2408448)
I0403 18:30:50.491227  7075 net.cpp:148] Top shape: 24 512 14 14 (2408448)
I0403 18:30:50.491242  7075 net.cpp:148] Top shape: 24 512 14 14 (2408448)
I0403 18:30:50.491256  7075 net.cpp:156] Memory required for data: 944714784
I0403 18:30:50.491276  7075 layer_factory.hpp:77] Creating layer loss1/ave_pool
I0403 18:30:50.491307  7075 net.cpp:91] Creating Layer loss1/ave_pool
I0403 18:30:50.491322  7075 net.cpp:425] loss1/ave_pool <- inception_4a/output_inception_4a/output_0_split_0
I0403 18:30:50.491340  7075 net.cpp:399] loss1/ave_pool -> loss1/ave_pool
I0403 18:30:50.491546  7075 net.cpp:141] Setting up loss1/ave_pool
I0403 18:30:50.491585  7075 net.cpp:148] Top shape: 24 512 4 4 (196608)
I0403 18:30:50.491600  7075 net.cpp:156] Memory required for data: 945501216
I0403 18:30:50.491613  7075 layer_factory.hpp:77] Creating layer loss1/conv
I0403 18:30:50.491636  7075 net.cpp:91] Creating Layer loss1/conv
I0403 18:30:50.491652  7075 net.cpp:425] loss1/conv <- loss1/ave_pool
I0403 18:30:50.491672  7075 net.cpp:399] loss1/conv -> loss1/conv
I0403 18:30:50.493078  7075 net.cpp:141] Setting up loss1/conv
I0403 18:30:50.493106  7075 net.cpp:148] Top shape: 24 128 4 4 (49152)
I0403 18:30:50.493134  7075 net.cpp:156] Memory required for data: 945697824
I0403 18:30:50.493155  7075 layer_factory.hpp:77] Creating layer loss1/relu_conv
I0403 18:30:50.493175  7075 net.cpp:91] Creating Layer loss1/relu_conv
I0403 18:30:50.493191  7075 net.cpp:425] loss1/relu_conv <- loss1/conv
I0403 18:30:50.493207  7075 net.cpp:386] loss1/relu_conv -> loss1/conv (in-place)
I0403 18:30:50.493482  7075 net.cpp:141] Setting up loss1/relu_conv
I0403 18:30:50.493507  7075 net.cpp:148] Top shape: 24 128 4 4 (49152)
I0403 18:30:50.493522  7075 net.cpp:156] Memory required for data: 945894432
I0403 18:30:50.493538  7075 layer_factory.hpp:77] Creating layer loss1/fc
I0403 18:30:50.493562  7075 net.cpp:91] Creating Layer loss1/fc
I0403 18:30:50.493580  7075 net.cpp:425] loss1/fc <- loss1/conv
I0403 18:30:50.493603  7075 net.cpp:399] loss1/fc -> loss1/fc
I0403 18:30:50.511126  7075 net.cpp:141] Setting up loss1/fc
I0403 18:30:50.511158  7075 net.cpp:148] Top shape: 24 1024 (24576)
I0403 18:30:50.511173  7075 net.cpp:156] Memory required for data: 945992736
I0403 18:30:50.511191  7075 layer_factory.hpp:77] Creating layer loss1/relu_fc
I0403 18:30:50.511209  7075 net.cpp:91] Creating Layer loss1/relu_fc
I0403 18:30:50.511240  7075 net.cpp:425] loss1/relu_fc <- loss1/fc
I0403 18:30:50.511256  7075 net.cpp:386] loss1/relu_fc -> loss1/fc (in-place)
I0403 18:30:50.511451  7075 net.cpp:141] Setting up loss1/relu_fc
I0403 18:30:50.511476  7075 net.cpp:148] Top shape: 24 1024 (24576)
I0403 18:30:50.511490  7075 net.cpp:156] Memory required for data: 946091040
I0403 18:30:50.511505  7075 layer_factory.hpp:77] Creating layer loss1/drop_fc
I0403 18:30:50.511544  7075 net.cpp:91] Creating Layer loss1/drop_fc
I0403 18:30:50.511564  7075 net.cpp:425] loss1/drop_fc <- loss1/fc
I0403 18:30:50.511579  7075 net.cpp:386] loss1/drop_fc -> loss1/fc (in-place)
I0403 18:30:50.511627  7075 net.cpp:141] Setting up loss1/drop_fc
I0403 18:30:50.511652  7075 net.cpp:148] Top shape: 24 1024 (24576)
I0403 18:30:50.511667  7075 net.cpp:156] Memory required for data: 946189344
I0403 18:30:50.511682  7075 layer_factory.hpp:77] Creating layer loss1/classifier_plantvillage
I0403 18:30:50.511701  7075 net.cpp:91] Creating Layer loss1/classifier_plantvillage
I0403 18:30:50.511718  7075 net.cpp:425] loss1/classifier_plantvillage <- loss1/fc
I0403 18:30:50.511739  7075 net.cpp:399] loss1/classifier_plantvillage -> loss1/classifier_plantvillage
I0403 18:30:50.512642  7075 net.cpp:141] Setting up loss1/classifier_plantvillage
I0403 18:30:50.512670  7075 net.cpp:148] Top shape: 24 38 (912)
I0403 18:30:50.512684  7075 net.cpp:156] Memory required for data: 946192992
I0403 18:30:50.512702  7075 layer_factory.hpp:77] Creating layer loss1/classifier_plantvillage_loss1/classifier_plantvillage_0_split
I0403 18:30:50.512723  7075 net.cpp:91] Creating Layer loss1/classifier_plantvillage_loss1/classifier_plantvillage_0_split
I0403 18:30:50.512739  7075 net.cpp:425] loss1/classifier_plantvillage_loss1/classifier_plantvillage_0_split <- loss1/classifier_plantvillage
I0403 18:30:50.512756  7075 net.cpp:399] loss1/classifier_plantvillage_loss1/classifier_plantvillage_0_split -> loss1/classifier_plantvillage_loss1/classifier_plantvillage_0_split_0
I0403 18:30:50.512776  7075 net.cpp:399] loss1/classifier_plantvillage_loss1/classifier_plantvillage_0_split -> loss1/classifier_plantvillage_loss1/classifier_plantvillage_0_split_1
I0403 18:30:50.512795  7075 net.cpp:399] loss1/classifier_plantvillage_loss1/classifier_plantvillage_0_split -> loss1/classifier_plantvillage_loss1/classifier_plantvillage_0_split_2
I0403 18:30:50.512862  7075 net.cpp:141] Setting up loss1/classifier_plantvillage_loss1/classifier_plantvillage_0_split
I0403 18:30:50.512884  7075 net.cpp:148] Top shape: 24 38 (912)
I0403 18:30:50.512900  7075 net.cpp:148] Top shape: 24 38 (912)
I0403 18:30:50.512915  7075 net.cpp:148] Top shape: 24 38 (912)
I0403 18:30:50.512928  7075 net.cpp:156] Memory required for data: 946203936
I0403 18:30:50.512943  7075 layer_factory.hpp:77] Creating layer inception_4b/1x1
I0403 18:30:50.512962  7075 net.cpp:91] Creating Layer inception_4b/1x1
I0403 18:30:50.512992  7075 net.cpp:425] inception_4b/1x1 <- inception_4a/output_inception_4a/output_0_split_1
I0403 18:30:50.513015  7075 net.cpp:399] inception_4b/1x1 -> inception_4b/1x1
I0403 18:30:50.514659  7075 net.cpp:141] Setting up inception_4b/1x1
I0403 18:30:50.514690  7075 net.cpp:148] Top shape: 24 160 14 14 (752640)
I0403 18:30:50.514706  7075 net.cpp:156] Memory required for data: 949214496
I0403 18:30:50.514724  7075 layer_factory.hpp:77] Creating layer inception_4b/relu_1x1
I0403 18:30:50.514742  7075 net.cpp:91] Creating Layer inception_4b/relu_1x1
I0403 18:30:50.514757  7075 net.cpp:425] inception_4b/relu_1x1 <- inception_4b/1x1
I0403 18:30:50.514776  7075 net.cpp:386] inception_4b/relu_1x1 -> inception_4b/1x1 (in-place)
I0403 18:30:50.514955  7075 net.cpp:141] Setting up inception_4b/relu_1x1
I0403 18:30:50.514981  7075 net.cpp:148] Top shape: 24 160 14 14 (752640)
I0403 18:30:50.514997  7075 net.cpp:156] Memory required for data: 952225056
I0403 18:30:50.515012  7075 layer_factory.hpp:77] Creating layer inception_4b/3x3_reduce
I0403 18:30:50.515034  7075 net.cpp:91] Creating Layer inception_4b/3x3_reduce
I0403 18:30:50.515053  7075 net.cpp:425] inception_4b/3x3_reduce <- inception_4a/output_inception_4a/output_0_split_2
I0403 18:30:50.515072  7075 net.cpp:399] inception_4b/3x3_reduce -> inception_4b/3x3_reduce
I0403 18:30:50.516502  7075 net.cpp:141] Setting up inception_4b/3x3_reduce
I0403 18:30:50.516535  7075 net.cpp:148] Top shape: 24 112 14 14 (526848)
I0403 18:30:50.516551  7075 net.cpp:156] Memory required for data: 954332448
I0403 18:30:50.516571  7075 layer_factory.hpp:77] Creating layer inception_4b/relu_3x3_reduce
I0403 18:30:50.516588  7075 net.cpp:91] Creating Layer inception_4b/relu_3x3_reduce
I0403 18:30:50.516604  7075 net.cpp:425] inception_4b/relu_3x3_reduce <- inception_4b/3x3_reduce
I0403 18:30:50.516625  7075 net.cpp:386] inception_4b/relu_3x3_reduce -> inception_4b/3x3_reduce (in-place)
I0403 18:30:50.516912  7075 net.cpp:141] Setting up inception_4b/relu_3x3_reduce
I0403 18:30:50.516942  7075 net.cpp:148] Top shape: 24 112 14 14 (526848)
I0403 18:30:50.516958  7075 net.cpp:156] Memory required for data: 956439840
I0403 18:30:50.516973  7075 layer_factory.hpp:77] Creating layer inception_4b/3x3
I0403 18:30:50.516996  7075 net.cpp:91] Creating Layer inception_4b/3x3
I0403 18:30:50.517015  7075 net.cpp:425] inception_4b/3x3 <- inception_4b/3x3_reduce
I0403 18:30:50.517035  7075 net.cpp:399] inception_4b/3x3 -> inception_4b/3x3
I0403 18:30:50.520123  7075 net.cpp:141] Setting up inception_4b/3x3
I0403 18:30:50.520153  7075 net.cpp:148] Top shape: 24 224 14 14 (1053696)
I0403 18:30:50.520170  7075 net.cpp:156] Memory required for data: 960654624
I0403 18:30:50.520190  7075 layer_factory.hpp:77] Creating layer inception_4b/relu_3x3
I0403 18:30:50.520210  7075 net.cpp:91] Creating Layer inception_4b/relu_3x3
I0403 18:30:50.520227  7075 net.cpp:425] inception_4b/relu_3x3 <- inception_4b/3x3
I0403 18:30:50.520246  7075 net.cpp:386] inception_4b/relu_3x3 -> inception_4b/3x3 (in-place)
I0403 18:30:50.520437  7075 net.cpp:141] Setting up inception_4b/relu_3x3
I0403 18:30:50.520462  7075 net.cpp:148] Top shape: 24 224 14 14 (1053696)
I0403 18:30:50.520478  7075 net.cpp:156] Memory required for data: 964869408
I0403 18:30:50.520493  7075 layer_factory.hpp:77] Creating layer inception_4b/5x5_reduce
I0403 18:30:50.520517  7075 net.cpp:91] Creating Layer inception_4b/5x5_reduce
I0403 18:30:50.520536  7075 net.cpp:425] inception_4b/5x5_reduce <- inception_4a/output_inception_4a/output_0_split_3
I0403 18:30:50.520556  7075 net.cpp:399] inception_4b/5x5_reduce -> inception_4b/5x5_reduce
I0403 18:30:50.521678  7075 net.cpp:141] Setting up inception_4b/5x5_reduce
I0403 18:30:50.521710  7075 net.cpp:148] Top shape: 24 24 14 14 (112896)
I0403 18:30:50.521726  7075 net.cpp:156] Memory required for data: 965320992
I0403 18:30:50.521745  7075 layer_factory.hpp:77] Creating layer inception_4b/relu_5x5_reduce
I0403 18:30:50.521764  7075 net.cpp:91] Creating Layer inception_4b/relu_5x5_reduce
I0403 18:30:50.521796  7075 net.cpp:425] inception_4b/relu_5x5_reduce <- inception_4b/5x5_reduce
I0403 18:30:50.521817  7075 net.cpp:386] inception_4b/relu_5x5_reduce -> inception_4b/5x5_reduce (in-place)
I0403 18:30:50.522007  7075 net.cpp:141] Setting up inception_4b/relu_5x5_reduce
I0403 18:30:50.522032  7075 net.cpp:148] Top shape: 24 24 14 14 (112896)
I0403 18:30:50.522047  7075 net.cpp:156] Memory required for data: 965772576
I0403 18:30:50.522063  7075 layer_factory.hpp:77] Creating layer inception_4b/5x5
I0403 18:30:50.522086  7075 net.cpp:91] Creating Layer inception_4b/5x5
I0403 18:30:50.522104  7075 net.cpp:425] inception_4b/5x5 <- inception_4b/5x5_reduce
I0403 18:30:50.522126  7075 net.cpp:399] inception_4b/5x5 -> inception_4b/5x5
I0403 18:30:50.523421  7075 net.cpp:141] Setting up inception_4b/5x5
I0403 18:30:50.523453  7075 net.cpp:148] Top shape: 24 64 14 14 (301056)
I0403 18:30:50.523470  7075 net.cpp:156] Memory required for data: 966976800
I0403 18:30:50.523490  7075 layer_factory.hpp:77] Creating layer inception_4b/relu_5x5
I0403 18:30:50.523509  7075 net.cpp:91] Creating Layer inception_4b/relu_5x5
I0403 18:30:50.523526  7075 net.cpp:425] inception_4b/relu_5x5 <- inception_4b/5x5
I0403 18:30:50.523545  7075 net.cpp:386] inception_4b/relu_5x5 -> inception_4b/5x5 (in-place)
I0403 18:30:50.523849  7075 net.cpp:141] Setting up inception_4b/relu_5x5
I0403 18:30:50.523879  7075 net.cpp:148] Top shape: 24 64 14 14 (301056)
I0403 18:30:50.523895  7075 net.cpp:156] Memory required for data: 968181024
I0403 18:30:50.523910  7075 layer_factory.hpp:77] Creating layer inception_4b/pool
I0403 18:30:50.523929  7075 net.cpp:91] Creating Layer inception_4b/pool
I0403 18:30:50.523947  7075 net.cpp:425] inception_4b/pool <- inception_4a/output_inception_4a/output_0_split_4
I0403 18:30:50.523965  7075 net.cpp:399] inception_4b/pool -> inception_4b/pool
I0403 18:30:50.524032  7075 net.cpp:141] Setting up inception_4b/pool
I0403 18:30:50.524057  7075 net.cpp:148] Top shape: 24 512 14 14 (2408448)
I0403 18:30:50.524071  7075 net.cpp:156] Memory required for data: 977814816
I0403 18:30:50.524087  7075 layer_factory.hpp:77] Creating layer inception_4b/pool_proj
I0403 18:30:50.524111  7075 net.cpp:91] Creating Layer inception_4b/pool_proj
I0403 18:30:50.524130  7075 net.cpp:425] inception_4b/pool_proj <- inception_4b/pool
I0403 18:30:50.524152  7075 net.cpp:399] inception_4b/pool_proj -> inception_4b/pool_proj
I0403 18:30:50.525390  7075 net.cpp:141] Setting up inception_4b/pool_proj
I0403 18:30:50.525424  7075 net.cpp:148] Top shape: 24 64 14 14 (301056)
I0403 18:30:50.525439  7075 net.cpp:156] Memory required for data: 979019040
I0403 18:30:50.525460  7075 layer_factory.hpp:77] Creating layer inception_4b/relu_pool_proj
I0403 18:30:50.525480  7075 net.cpp:91] Creating Layer inception_4b/relu_pool_proj
I0403 18:30:50.525496  7075 net.cpp:425] inception_4b/relu_pool_proj <- inception_4b/pool_proj
I0403 18:30:50.525512  7075 net.cpp:386] inception_4b/relu_pool_proj -> inception_4b/pool_proj (in-place)
I0403 18:30:50.525703  7075 net.cpp:141] Setting up inception_4b/relu_pool_proj
I0403 18:30:50.525728  7075 net.cpp:148] Top shape: 24 64 14 14 (301056)
I0403 18:30:50.525743  7075 net.cpp:156] Memory required for data: 980223264
I0403 18:30:50.525761  7075 layer_factory.hpp:77] Creating layer inception_4b/output
I0403 18:30:50.525779  7075 net.cpp:91] Creating Layer inception_4b/output
I0403 18:30:50.525794  7075 net.cpp:425] inception_4b/output <- inception_4b/1x1
I0403 18:30:50.525811  7075 net.cpp:425] inception_4b/output <- inception_4b/3x3
I0403 18:30:50.525827  7075 net.cpp:425] inception_4b/output <- inception_4b/5x5
I0403 18:30:50.525843  7075 net.cpp:425] inception_4b/output <- inception_4b/pool_proj
I0403 18:30:50.525862  7075 net.cpp:399] inception_4b/output -> inception_4b/output
I0403 18:30:50.525909  7075 net.cpp:141] Setting up inception_4b/output
I0403 18:30:50.525935  7075 net.cpp:148] Top shape: 24 512 14 14 (2408448)
I0403 18:30:50.525951  7075 net.cpp:156] Memory required for data: 989857056
I0403 18:30:50.525980  7075 layer_factory.hpp:77] Creating layer inception_4b/output_inception_4b/output_0_split
I0403 18:30:50.526000  7075 net.cpp:91] Creating Layer inception_4b/output_inception_4b/output_0_split
I0403 18:30:50.526015  7075 net.cpp:425] inception_4b/output_inception_4b/output_0_split <- inception_4b/output
I0403 18:30:50.526033  7075 net.cpp:399] inception_4b/output_inception_4b/output_0_split -> inception_4b/output_inception_4b/output_0_split_0
I0403 18:30:50.526058  7075 net.cpp:399] inception_4b/output_inception_4b/output_0_split -> inception_4b/output_inception_4b/output_0_split_1
I0403 18:30:50.526079  7075 net.cpp:399] inception_4b/output_inception_4b/output_0_split -> inception_4b/output_inception_4b/output_0_split_2
I0403 18:30:50.526100  7075 net.cpp:399] inception_4b/output_inception_4b/output_0_split -> inception_4b/output_inception_4b/output_0_split_3
I0403 18:30:50.526185  7075 net.cpp:141] Setting up inception_4b/output_inception_4b/output_0_split
I0403 18:30:50.526208  7075 net.cpp:148] Top shape: 24 512 14 14 (2408448)
I0403 18:30:50.526226  7075 net.cpp:148] Top shape: 24 512 14 14 (2408448)
I0403 18:30:50.526242  7075 net.cpp:148] Top shape: 24 512 14 14 (2408448)
I0403 18:30:50.526258  7075 net.cpp:148] Top shape: 24 512 14 14 (2408448)
I0403 18:30:50.526275  7075 net.cpp:156] Memory required for data: 1028392224
I0403 18:30:50.526293  7075 layer_factory.hpp:77] Creating layer inception_4c/1x1
I0403 18:30:50.526314  7075 net.cpp:91] Creating Layer inception_4c/1x1
I0403 18:30:50.526332  7075 net.cpp:425] inception_4c/1x1 <- inception_4b/output_inception_4b/output_0_split_0
I0403 18:30:50.526355  7075 net.cpp:399] inception_4c/1x1 -> inception_4c/1x1
I0403 18:30:50.527871  7075 net.cpp:141] Setting up inception_4c/1x1
I0403 18:30:50.527900  7075 net.cpp:148] Top shape: 24 128 14 14 (602112)
I0403 18:30:50.527915  7075 net.cpp:156] Memory required for data: 1030800672
I0403 18:30:50.527935  7075 layer_factory.hpp:77] Creating layer inception_4c/relu_1x1
I0403 18:30:50.527956  7075 net.cpp:91] Creating Layer inception_4c/relu_1x1
I0403 18:30:50.527972  7075 net.cpp:425] inception_4c/relu_1x1 <- inception_4c/1x1
I0403 18:30:50.527989  7075 net.cpp:386] inception_4c/relu_1x1 -> inception_4c/1x1 (in-place)
I0403 18:30:50.528175  7075 net.cpp:141] Setting up inception_4c/relu_1x1
I0403 18:30:50.528200  7075 net.cpp:148] Top shape: 24 128 14 14 (602112)
I0403 18:30:50.528214  7075 net.cpp:156] Memory required for data: 1033209120
I0403 18:30:50.528230  7075 layer_factory.hpp:77] Creating layer inception_4c/3x3_reduce
I0403 18:30:50.528254  7075 net.cpp:91] Creating Layer inception_4c/3x3_reduce
I0403 18:30:50.528276  7075 net.cpp:425] inception_4c/3x3_reduce <- inception_4b/output_inception_4b/output_0_split_1
I0403 18:30:50.528301  7075 net.cpp:399] inception_4c/3x3_reduce -> inception_4c/3x3_reduce
I0403 18:30:50.530325  7075 net.cpp:141] Setting up inception_4c/3x3_reduce
I0403 18:30:50.530356  7075 net.cpp:148] Top shape: 24 128 14 14 (602112)
I0403 18:30:50.530374  7075 net.cpp:156] Memory required for data: 1035617568
I0403 18:30:50.530392  7075 layer_factory.hpp:77] Creating layer inception_4c/relu_3x3_reduce
I0403 18:30:50.530413  7075 net.cpp:91] Creating Layer inception_4c/relu_3x3_reduce
I0403 18:30:50.530431  7075 net.cpp:425] inception_4c/relu_3x3_reduce <- inception_4c/3x3_reduce
I0403 18:30:50.530450  7075 net.cpp:386] inception_4c/relu_3x3_reduce -> inception_4c/3x3_reduce (in-place)
I0403 18:30:50.530761  7075 net.cpp:141] Setting up inception_4c/relu_3x3_reduce
I0403 18:30:50.530788  7075 net.cpp:148] Top shape: 24 128 14 14 (602112)
I0403 18:30:50.530803  7075 net.cpp:156] Memory required for data: 1038026016
I0403 18:30:50.530817  7075 layer_factory.hpp:77] Creating layer inception_4c/3x3
I0403 18:30:50.530844  7075 net.cpp:91] Creating Layer inception_4c/3x3
I0403 18:30:50.530861  7075 net.cpp:425] inception_4c/3x3 <- inception_4c/3x3_reduce
I0403 18:30:50.530881  7075 net.cpp:399] inception_4c/3x3 -> inception_4c/3x3
I0403 18:30:50.534667  7075 net.cpp:141] Setting up inception_4c/3x3
I0403 18:30:50.534713  7075 net.cpp:148] Top shape: 24 256 14 14 (1204224)
I0403 18:30:50.534729  7075 net.cpp:156] Memory required for data: 1042842912
I0403 18:30:50.534761  7075 layer_factory.hpp:77] Creating layer inception_4c/relu_3x3
I0403 18:30:50.534782  7075 net.cpp:91] Creating Layer inception_4c/relu_3x3
I0403 18:30:50.534797  7075 net.cpp:425] inception_4c/relu_3x3 <- inception_4c/3x3
I0403 18:30:50.534816  7075 net.cpp:386] inception_4c/relu_3x3 -> inception_4c/3x3 (in-place)
I0403 18:30:50.534997  7075 net.cpp:141] Setting up inception_4c/relu_3x3
I0403 18:30:50.535024  7075 net.cpp:148] Top shape: 24 256 14 14 (1204224)
I0403 18:30:50.535039  7075 net.cpp:156] Memory required for data: 1047659808
I0403 18:30:50.535054  7075 layer_factory.hpp:77] Creating layer inception_4c/5x5_reduce
I0403 18:30:50.535078  7075 net.cpp:91] Creating Layer inception_4c/5x5_reduce
I0403 18:30:50.535095  7075 net.cpp:425] inception_4c/5x5_reduce <- inception_4b/output_inception_4b/output_0_split_2
I0403 18:30:50.535115  7075 net.cpp:399] inception_4c/5x5_reduce -> inception_4c/5x5_reduce
I0403 18:30:50.536217  7075 net.cpp:141] Setting up inception_4c/5x5_reduce
I0403 18:30:50.536245  7075 net.cpp:148] Top shape: 24 24 14 14 (112896)
I0403 18:30:50.536260  7075 net.cpp:156] Memory required for data: 1048111392
I0403 18:30:50.536285  7075 layer_factory.hpp:77] Creating layer inception_4c/relu_5x5_reduce
I0403 18:30:50.536306  7075 net.cpp:91] Creating Layer inception_4c/relu_5x5_reduce
I0403 18:30:50.536322  7075 net.cpp:425] inception_4c/relu_5x5_reduce <- inception_4c/5x5_reduce
I0403 18:30:50.536339  7075 net.cpp:386] inception_4c/relu_5x5_reduce -> inception_4c/5x5_reduce (in-place)
I0403 18:30:50.536525  7075 net.cpp:141] Setting up inception_4c/relu_5x5_reduce
I0403 18:30:50.536550  7075 net.cpp:148] Top shape: 24 24 14 14 (112896)
I0403 18:30:50.536563  7075 net.cpp:156] Memory required for data: 1048562976
I0403 18:30:50.536578  7075 layer_factory.hpp:77] Creating layer inception_4c/5x5
I0403 18:30:50.536600  7075 net.cpp:91] Creating Layer inception_4c/5x5
I0403 18:30:50.536619  7075 net.cpp:425] inception_4c/5x5 <- inception_4c/5x5_reduce
I0403 18:30:50.536640  7075 net.cpp:399] inception_4c/5x5 -> inception_4c/5x5
I0403 18:30:50.537888  7075 net.cpp:141] Setting up inception_4c/5x5
I0403 18:30:50.537914  7075 net.cpp:148] Top shape: 24 64 14 14 (301056)
I0403 18:30:50.537930  7075 net.cpp:156] Memory required for data: 1049767200
I0403 18:30:50.537948  7075 layer_factory.hpp:77] Creating layer inception_4c/relu_5x5
I0403 18:30:50.537966  7075 net.cpp:91] Creating Layer inception_4c/relu_5x5
I0403 18:30:50.537982  7075 net.cpp:425] inception_4c/relu_5x5 <- inception_4c/5x5
I0403 18:30:50.538002  7075 net.cpp:386] inception_4c/relu_5x5 -> inception_4c/5x5 (in-place)
I0403 18:30:50.538293  7075 net.cpp:141] Setting up inception_4c/relu_5x5
I0403 18:30:50.538321  7075 net.cpp:148] Top shape: 24 64 14 14 (301056)
I0403 18:30:50.538336  7075 net.cpp:156] Memory required for data: 1050971424
I0403 18:30:50.538350  7075 layer_factory.hpp:77] Creating layer inception_4c/pool
I0403 18:30:50.538369  7075 net.cpp:91] Creating Layer inception_4c/pool
I0403 18:30:50.538384  7075 net.cpp:425] inception_4c/pool <- inception_4b/output_inception_4b/output_0_split_3
I0403 18:30:50.538406  7075 net.cpp:399] inception_4c/pool -> inception_4c/pool
I0403 18:30:50.538471  7075 net.cpp:141] Setting up inception_4c/pool
I0403 18:30:50.538496  7075 net.cpp:148] Top shape: 24 512 14 14 (2408448)
I0403 18:30:50.538512  7075 net.cpp:156] Memory required for data: 1060605216
I0403 18:30:50.538527  7075 layer_factory.hpp:77] Creating layer inception_4c/pool_proj
I0403 18:30:50.538548  7075 net.cpp:91] Creating Layer inception_4c/pool_proj
I0403 18:30:50.538565  7075 net.cpp:425] inception_4c/pool_proj <- inception_4c/pool
I0403 18:30:50.538583  7075 net.cpp:399] inception_4c/pool_proj -> inception_4c/pool_proj
I0403 18:30:50.539834  7075 net.cpp:141] Setting up inception_4c/pool_proj
I0403 18:30:50.539866  7075 net.cpp:148] Top shape: 24 64 14 14 (301056)
I0403 18:30:50.539896  7075 net.cpp:156] Memory required for data: 1061809440
I0403 18:30:50.539916  7075 layer_factory.hpp:77] Creating layer inception_4c/relu_pool_proj
I0403 18:30:50.539935  7075 net.cpp:91] Creating Layer inception_4c/relu_pool_proj
I0403 18:30:50.539952  7075 net.cpp:425] inception_4c/relu_pool_proj <- inception_4c/pool_proj
I0403 18:30:50.539968  7075 net.cpp:386] inception_4c/relu_pool_proj -> inception_4c/pool_proj (in-place)
I0403 18:30:50.540151  7075 net.cpp:141] Setting up inception_4c/relu_pool_proj
I0403 18:30:50.540176  7075 net.cpp:148] Top shape: 24 64 14 14 (301056)
I0403 18:30:50.540191  7075 net.cpp:156] Memory required for data: 1063013664
I0403 18:30:50.540206  7075 layer_factory.hpp:77] Creating layer inception_4c/output
I0403 18:30:50.540223  7075 net.cpp:91] Creating Layer inception_4c/output
I0403 18:30:50.540238  7075 net.cpp:425] inception_4c/output <- inception_4c/1x1
I0403 18:30:50.540256  7075 net.cpp:425] inception_4c/output <- inception_4c/3x3
I0403 18:30:50.540274  7075 net.cpp:425] inception_4c/output <- inception_4c/5x5
I0403 18:30:50.540292  7075 net.cpp:425] inception_4c/output <- inception_4c/pool_proj
I0403 18:30:50.540313  7075 net.cpp:399] inception_4c/output -> inception_4c/output
I0403 18:30:50.540359  7075 net.cpp:141] Setting up inception_4c/output
I0403 18:30:50.540381  7075 net.cpp:148] Top shape: 24 512 14 14 (2408448)
I0403 18:30:50.540395  7075 net.cpp:156] Memory required for data: 1072647456
I0403 18:30:50.540411  7075 layer_factory.hpp:77] Creating layer inception_4c/output_inception_4c/output_0_split
I0403 18:30:50.540431  7075 net.cpp:91] Creating Layer inception_4c/output_inception_4c/output_0_split
I0403 18:30:50.540448  7075 net.cpp:425] inception_4c/output_inception_4c/output_0_split <- inception_4c/output
I0403 18:30:50.540464  7075 net.cpp:399] inception_4c/output_inception_4c/output_0_split -> inception_4c/output_inception_4c/output_0_split_0
I0403 18:30:50.540488  7075 net.cpp:399] inception_4c/output_inception_4c/output_0_split -> inception_4c/output_inception_4c/output_0_split_1
I0403 18:30:50.540508  7075 net.cpp:399] inception_4c/output_inception_4c/output_0_split -> inception_4c/output_inception_4c/output_0_split_2
I0403 18:30:50.540529  7075 net.cpp:399] inception_4c/output_inception_4c/output_0_split -> inception_4c/output_inception_4c/output_0_split_3
I0403 18:30:50.540616  7075 net.cpp:141] Setting up inception_4c/output_inception_4c/output_0_split
I0403 18:30:50.540638  7075 net.cpp:148] Top shape: 24 512 14 14 (2408448)
I0403 18:30:50.540654  7075 net.cpp:148] Top shape: 24 512 14 14 (2408448)
I0403 18:30:50.540669  7075 net.cpp:148] Top shape: 24 512 14 14 (2408448)
I0403 18:30:50.540685  7075 net.cpp:148] Top shape: 24 512 14 14 (2408448)
I0403 18:30:50.540699  7075 net.cpp:156] Memory required for data: 1111182624
I0403 18:30:50.540712  7075 layer_factory.hpp:77] Creating layer inception_4d/1x1
I0403 18:30:50.540734  7075 net.cpp:91] Creating Layer inception_4d/1x1
I0403 18:30:50.540752  7075 net.cpp:425] inception_4d/1x1 <- inception_4c/output_inception_4c/output_0_split_0
I0403 18:30:50.540774  7075 net.cpp:399] inception_4d/1x1 -> inception_4d/1x1
I0403 18:30:50.542155  7075 net.cpp:141] Setting up inception_4d/1x1
I0403 18:30:50.542184  7075 net.cpp:148] Top shape: 24 112 14 14 (526848)
I0403 18:30:50.542201  7075 net.cpp:156] Memory required for data: 1113290016
I0403 18:30:50.542218  7075 layer_factory.hpp:77] Creating layer inception_4d/relu_1x1
I0403 18:30:50.542240  7075 net.cpp:91] Creating Layer inception_4d/relu_1x1
I0403 18:30:50.542256  7075 net.cpp:425] inception_4d/relu_1x1 <- inception_4d/1x1
I0403 18:30:50.542282  7075 net.cpp:386] inception_4d/relu_1x1 -> inception_4d/1x1 (in-place)
I0403 18:30:50.542470  7075 net.cpp:141] Setting up inception_4d/relu_1x1
I0403 18:30:50.542496  7075 net.cpp:148] Top shape: 24 112 14 14 (526848)
I0403 18:30:50.542511  7075 net.cpp:156] Memory required for data: 1115397408
I0403 18:30:50.542526  7075 layer_factory.hpp:77] Creating layer inception_4d/3x3_reduce
I0403 18:30:50.542563  7075 net.cpp:91] Creating Layer inception_4d/3x3_reduce
I0403 18:30:50.542582  7075 net.cpp:425] inception_4d/3x3_reduce <- inception_4c/output_inception_4c/output_0_split_1
I0403 18:30:50.542601  7075 net.cpp:399] inception_4d/3x3_reduce -> inception_4d/3x3_reduce
I0403 18:30:50.544109  7075 net.cpp:141] Setting up inception_4d/3x3_reduce
I0403 18:30:50.544137  7075 net.cpp:148] Top shape: 24 144 14 14 (677376)
I0403 18:30:50.544152  7075 net.cpp:156] Memory required for data: 1118106912
I0403 18:30:50.544170  7075 layer_factory.hpp:77] Creating layer inception_4d/relu_3x3_reduce
I0403 18:30:50.544188  7075 net.cpp:91] Creating Layer inception_4d/relu_3x3_reduce
I0403 18:30:50.544203  7075 net.cpp:425] inception_4d/relu_3x3_reduce <- inception_4d/3x3_reduce
I0403 18:30:50.544222  7075 net.cpp:386] inception_4d/relu_3x3_reduce -> inception_4d/3x3_reduce (in-place)
I0403 18:30:50.544514  7075 net.cpp:141] Setting up inception_4d/relu_3x3_reduce
I0403 18:30:50.544543  7075 net.cpp:148] Top shape: 24 144 14 14 (677376)
I0403 18:30:50.544559  7075 net.cpp:156] Memory required for data: 1120816416
I0403 18:30:50.544574  7075 layer_factory.hpp:77] Creating layer inception_4d/3x3
I0403 18:30:50.544596  7075 net.cpp:91] Creating Layer inception_4d/3x3
I0403 18:30:50.544615  7075 net.cpp:425] inception_4d/3x3 <- inception_4d/3x3_reduce
I0403 18:30:50.544636  7075 net.cpp:399] inception_4d/3x3 -> inception_4d/3x3
I0403 18:30:50.548998  7075 net.cpp:141] Setting up inception_4d/3x3
I0403 18:30:50.549031  7075 net.cpp:148] Top shape: 24 288 14 14 (1354752)
I0403 18:30:50.549046  7075 net.cpp:156] Memory required for data: 1126235424
I0403 18:30:50.549064  7075 layer_factory.hpp:77] Creating layer inception_4d/relu_3x3
I0403 18:30:50.549084  7075 net.cpp:91] Creating Layer inception_4d/relu_3x3
I0403 18:30:50.549101  7075 net.cpp:425] inception_4d/relu_3x3 <- inception_4d/3x3
I0403 18:30:50.549118  7075 net.cpp:386] inception_4d/relu_3x3 -> inception_4d/3x3 (in-place)
I0403 18:30:50.549306  7075 net.cpp:141] Setting up inception_4d/relu_3x3
I0403 18:30:50.549334  7075 net.cpp:148] Top shape: 24 288 14 14 (1354752)
I0403 18:30:50.549348  7075 net.cpp:156] Memory required for data: 1131654432
I0403 18:30:50.549365  7075 layer_factory.hpp:77] Creating layer inception_4d/5x5_reduce
I0403 18:30:50.549386  7075 net.cpp:91] Creating Layer inception_4d/5x5_reduce
I0403 18:30:50.549403  7075 net.cpp:425] inception_4d/5x5_reduce <- inception_4c/output_inception_4c/output_0_split_2
I0403 18:30:50.549422  7075 net.cpp:399] inception_4d/5x5_reduce -> inception_4d/5x5_reduce
I0403 18:30:50.550570  7075 net.cpp:141] Setting up inception_4d/5x5_reduce
I0403 18:30:50.550598  7075 net.cpp:148] Top shape: 24 32 14 14 (150528)
I0403 18:30:50.550616  7075 net.cpp:156] Memory required for data: 1132256544
I0403 18:30:50.550633  7075 layer_factory.hpp:77] Creating layer inception_4d/relu_5x5_reduce
I0403 18:30:50.550654  7075 net.cpp:91] Creating Layer inception_4d/relu_5x5_reduce
I0403 18:30:50.550671  7075 net.cpp:425] inception_4d/relu_5x5_reduce <- inception_4d/5x5_reduce
I0403 18:30:50.550689  7075 net.cpp:386] inception_4d/relu_5x5_reduce -> inception_4d/5x5_reduce (in-place)
I0403 18:30:50.550878  7075 net.cpp:141] Setting up inception_4d/relu_5x5_reduce
I0403 18:30:50.550905  7075 net.cpp:148] Top shape: 24 32 14 14 (150528)
I0403 18:30:50.550921  7075 net.cpp:156] Memory required for data: 1132858656
I0403 18:30:50.550936  7075 layer_factory.hpp:77] Creating layer inception_4d/5x5
I0403 18:30:50.550959  7075 net.cpp:91] Creating Layer inception_4d/5x5
I0403 18:30:50.550977  7075 net.cpp:425] inception_4d/5x5 <- inception_4d/5x5_reduce
I0403 18:30:50.550997  7075 net.cpp:399] inception_4d/5x5 -> inception_4d/5x5
I0403 18:30:50.552494  7075 net.cpp:141] Setting up inception_4d/5x5
I0403 18:30:50.552525  7075 net.cpp:148] Top shape: 24 64 14 14 (301056)
I0403 18:30:50.552541  7075 net.cpp:156] Memory required for data: 1134062880
I0403 18:30:50.552561  7075 layer_factory.hpp:77] Creating layer inception_4d/relu_5x5
I0403 18:30:50.552594  7075 net.cpp:91] Creating Layer inception_4d/relu_5x5
I0403 18:30:50.552611  7075 net.cpp:425] inception_4d/relu_5x5 <- inception_4d/5x5
I0403 18:30:50.552631  7075 net.cpp:386] inception_4d/relu_5x5 -> inception_4d/5x5 (in-place)
I0403 18:30:50.552935  7075 net.cpp:141] Setting up inception_4d/relu_5x5
I0403 18:30:50.552963  7075 net.cpp:148] Top shape: 24 64 14 14 (301056)
I0403 18:30:50.552979  7075 net.cpp:156] Memory required for data: 1135267104
I0403 18:30:50.552994  7075 layer_factory.hpp:77] Creating layer inception_4d/pool
I0403 18:30:50.553012  7075 net.cpp:91] Creating Layer inception_4d/pool
I0403 18:30:50.553028  7075 net.cpp:425] inception_4d/pool <- inception_4c/output_inception_4c/output_0_split_3
I0403 18:30:50.553050  7075 net.cpp:399] inception_4d/pool -> inception_4d/pool
I0403 18:30:50.553118  7075 net.cpp:141] Setting up inception_4d/pool
I0403 18:30:50.553143  7075 net.cpp:148] Top shape: 24 512 14 14 (2408448)
I0403 18:30:50.553158  7075 net.cpp:156] Memory required for data: 1144900896
I0403 18:30:50.553174  7075 layer_factory.hpp:77] Creating layer inception_4d/pool_proj
I0403 18:30:50.553194  7075 net.cpp:91] Creating Layer inception_4d/pool_proj
I0403 18:30:50.553212  7075 net.cpp:425] inception_4d/pool_proj <- inception_4d/pool
I0403 18:30:50.553232  7075 net.cpp:399] inception_4d/pool_proj -> inception_4d/pool_proj
I0403 18:30:50.555071  7075 net.cpp:141] Setting up inception_4d/pool_proj
I0403 18:30:50.555100  7075 net.cpp:148] Top shape: 24 64 14 14 (301056)
I0403 18:30:50.555116  7075 net.cpp:156] Memory required for data: 1146105120
I0403 18:30:50.555135  7075 layer_factory.hpp:77] Creating layer inception_4d/relu_pool_proj
I0403 18:30:50.555155  7075 net.cpp:91] Creating Layer inception_4d/relu_pool_proj
I0403 18:30:50.555172  7075 net.cpp:425] inception_4d/relu_pool_proj <- inception_4d/pool_proj
I0403 18:30:50.555189  7075 net.cpp:386] inception_4d/relu_pool_proj -> inception_4d/pool_proj (in-place)
I0403 18:30:50.555395  7075 net.cpp:141] Setting up inception_4d/relu_pool_proj
I0403 18:30:50.555423  7075 net.cpp:148] Top shape: 24 64 14 14 (301056)
I0403 18:30:50.555440  7075 net.cpp:156] Memory required for data: 1147309344
I0403 18:30:50.555455  7075 layer_factory.hpp:77] Creating layer inception_4d/output
I0403 18:30:50.555474  7075 net.cpp:91] Creating Layer inception_4d/output
I0403 18:30:50.555490  7075 net.cpp:425] inception_4d/output <- inception_4d/1x1
I0403 18:30:50.555506  7075 net.cpp:425] inception_4d/output <- inception_4d/3x3
I0403 18:30:50.555523  7075 net.cpp:425] inception_4d/output <- inception_4d/5x5
I0403 18:30:50.555541  7075 net.cpp:425] inception_4d/output <- inception_4d/pool_proj
I0403 18:30:50.555557  7075 net.cpp:399] inception_4d/output -> inception_4d/output
I0403 18:30:50.555619  7075 net.cpp:141] Setting up inception_4d/output
I0403 18:30:50.555641  7075 net.cpp:148] Top shape: 24 528 14 14 (2483712)
I0403 18:30:50.555655  7075 net.cpp:156] Memory required for data: 1157244192
I0403 18:30:50.555672  7075 layer_factory.hpp:77] Creating layer inception_4d/output_inception_4d/output_0_split
I0403 18:30:50.555692  7075 net.cpp:91] Creating Layer inception_4d/output_inception_4d/output_0_split
I0403 18:30:50.555709  7075 net.cpp:425] inception_4d/output_inception_4d/output_0_split <- inception_4d/output
I0403 18:30:50.555727  7075 net.cpp:399] inception_4d/output_inception_4d/output_0_split -> inception_4d/output_inception_4d/output_0_split_0
I0403 18:30:50.555747  7075 net.cpp:399] inception_4d/output_inception_4d/output_0_split -> inception_4d/output_inception_4d/output_0_split_1
I0403 18:30:50.555768  7075 net.cpp:399] inception_4d/output_inception_4d/output_0_split -> inception_4d/output_inception_4d/output_0_split_2
I0403 18:30:50.555790  7075 net.cpp:399] inception_4d/output_inception_4d/output_0_split -> inception_4d/output_inception_4d/output_0_split_3
I0403 18:30:50.555811  7075 net.cpp:399] inception_4d/output_inception_4d/output_0_split -> inception_4d/output_inception_4d/output_0_split_4
I0403 18:30:50.555918  7075 net.cpp:141] Setting up inception_4d/output_inception_4d/output_0_split
I0403 18:30:50.555954  7075 net.cpp:148] Top shape: 24 528 14 14 (2483712)
I0403 18:30:50.555971  7075 net.cpp:148] Top shape: 24 528 14 14 (2483712)
I0403 18:30:50.555986  7075 net.cpp:148] Top shape: 24 528 14 14 (2483712)
I0403 18:30:50.556002  7075 net.cpp:148] Top shape: 24 528 14 14 (2483712)
I0403 18:30:50.556017  7075 net.cpp:148] Top shape: 24 528 14 14 (2483712)
I0403 18:30:50.556032  7075 net.cpp:156] Memory required for data: 1206918432
I0403 18:30:50.556046  7075 layer_factory.hpp:77] Creating layer loss2/ave_pool
I0403 18:30:50.556067  7075 net.cpp:91] Creating Layer loss2/ave_pool
I0403 18:30:50.556083  7075 net.cpp:425] loss2/ave_pool <- inception_4d/output_inception_4d/output_0_split_0
I0403 18:30:50.556103  7075 net.cpp:399] loss2/ave_pool -> loss2/ave_pool
I0403 18:30:50.556417  7075 net.cpp:141] Setting up loss2/ave_pool
I0403 18:30:50.556444  7075 net.cpp:148] Top shape: 24 528 4 4 (202752)
I0403 18:30:50.556459  7075 net.cpp:156] Memory required for data: 1207729440
I0403 18:30:50.556474  7075 layer_factory.hpp:77] Creating layer loss2/conv
I0403 18:30:50.556496  7075 net.cpp:91] Creating Layer loss2/conv
I0403 18:30:50.556514  7075 net.cpp:425] loss2/conv <- loss2/ave_pool
I0403 18:30:50.556535  7075 net.cpp:399] loss2/conv -> loss2/conv
I0403 18:30:50.558455  7075 net.cpp:141] Setting up loss2/conv
I0403 18:30:50.558485  7075 net.cpp:148] Top shape: 24 128 4 4 (49152)
I0403 18:30:50.558501  7075 net.cpp:156] Memory required for data: 1207926048
I0403 18:30:50.558521  7075 layer_factory.hpp:77] Creating layer loss2/relu_conv
I0403 18:30:50.558538  7075 net.cpp:91] Creating Layer loss2/relu_conv
I0403 18:30:50.558554  7075 net.cpp:425] loss2/relu_conv <- loss2/conv
I0403 18:30:50.558574  7075 net.cpp:386] loss2/relu_conv -> loss2/conv (in-place)
I0403 18:30:50.558859  7075 net.cpp:141] Setting up loss2/relu_conv
I0403 18:30:50.558890  7075 net.cpp:148] Top shape: 24 128 4 4 (49152)
I0403 18:30:50.558905  7075 net.cpp:156] Memory required for data: 1208122656
I0403 18:30:50.558922  7075 layer_factory.hpp:77] Creating layer loss2/fc
I0403 18:30:50.558940  7075 net.cpp:91] Creating Layer loss2/fc
I0403 18:30:50.558957  7075 net.cpp:425] loss2/fc <- loss2/conv
I0403 18:30:50.558979  7075 net.cpp:399] loss2/fc -> loss2/fc
I0403 18:30:50.576844  7075 net.cpp:141] Setting up loss2/fc
I0403 18:30:50.576885  7075 net.cpp:148] Top shape: 24 1024 (24576)
I0403 18:30:50.576900  7075 net.cpp:156] Memory required for data: 1208220960
I0403 18:30:50.576920  7075 layer_factory.hpp:77] Creating layer loss2/relu_fc
I0403 18:30:50.576937  7075 net.cpp:91] Creating Layer loss2/relu_fc
I0403 18:30:50.576953  7075 net.cpp:425] loss2/relu_fc <- loss2/fc
I0403 18:30:50.576970  7075 net.cpp:386] loss2/relu_fc -> loss2/fc (in-place)
I0403 18:30:50.577265  7075 net.cpp:141] Setting up loss2/relu_fc
I0403 18:30:50.577294  7075 net.cpp:148] Top shape: 24 1024 (24576)
I0403 18:30:50.577313  7075 net.cpp:156] Memory required for data: 1208319264
I0403 18:30:50.577328  7075 layer_factory.hpp:77] Creating layer loss2/drop_fc
I0403 18:30:50.577345  7075 net.cpp:91] Creating Layer loss2/drop_fc
I0403 18:30:50.577361  7075 net.cpp:425] loss2/drop_fc <- loss2/fc
I0403 18:30:50.577378  7075 net.cpp:386] loss2/drop_fc -> loss2/fc (in-place)
I0403 18:30:50.577428  7075 net.cpp:141] Setting up loss2/drop_fc
I0403 18:30:50.577450  7075 net.cpp:148] Top shape: 24 1024 (24576)
I0403 18:30:50.577464  7075 net.cpp:156] Memory required for data: 1208417568
I0403 18:30:50.577479  7075 layer_factory.hpp:77] Creating layer loss2/classifier_plantvillage
I0403 18:30:50.577499  7075 net.cpp:91] Creating Layer loss2/classifier_plantvillage
I0403 18:30:50.577515  7075 net.cpp:425] loss2/classifier_plantvillage <- loss2/fc
I0403 18:30:50.577533  7075 net.cpp:399] loss2/classifier_plantvillage -> loss2/classifier_plantvillage
I0403 18:30:50.577929  7075 net.cpp:141] Setting up loss2/classifier_plantvillage
I0403 18:30:50.577955  7075 net.cpp:148] Top shape: 24 38 (912)
I0403 18:30:50.577985  7075 net.cpp:156] Memory required for data: 1208421216
I0403 18:30:50.578004  7075 layer_factory.hpp:77] Creating layer loss2/classifier_plantvillage_loss2/classifier_plantvillage_0_split
I0403 18:30:50.578022  7075 net.cpp:91] Creating Layer loss2/classifier_plantvillage_loss2/classifier_plantvillage_0_split
I0403 18:30:50.578037  7075 net.cpp:425] loss2/classifier_plantvillage_loss2/classifier_plantvillage_0_split <- loss2/classifier_plantvillage
I0403 18:30:50.578057  7075 net.cpp:399] loss2/classifier_plantvillage_loss2/classifier_plantvillage_0_split -> loss2/classifier_plantvillage_loss2/classifier_plantvillage_0_split_0
I0403 18:30:50.578078  7075 net.cpp:399] loss2/classifier_plantvillage_loss2/classifier_plantvillage_0_split -> loss2/classifier_plantvillage_loss2/classifier_plantvillage_0_split_1
I0403 18:30:50.578099  7075 net.cpp:399] loss2/classifier_plantvillage_loss2/classifier_plantvillage_0_split -> loss2/classifier_plantvillage_loss2/classifier_plantvillage_0_split_2
I0403 18:30:50.578174  7075 net.cpp:141] Setting up loss2/classifier_plantvillage_loss2/classifier_plantvillage_0_split
I0403 18:30:50.578199  7075 net.cpp:148] Top shape: 24 38 (912)
I0403 18:30:50.578217  7075 net.cpp:148] Top shape: 24 38 (912)
I0403 18:30:50.578232  7075 net.cpp:148] Top shape: 24 38 (912)
I0403 18:30:50.578244  7075 net.cpp:156] Memory required for data: 1208432160
I0403 18:30:50.578258  7075 layer_factory.hpp:77] Creating layer inception_4e/1x1
I0403 18:30:50.578297  7075 net.cpp:91] Creating Layer inception_4e/1x1
I0403 18:30:50.578315  7075 net.cpp:425] inception_4e/1x1 <- inception_4d/output_inception_4d/output_0_split_1
I0403 18:30:50.578335  7075 net.cpp:399] inception_4e/1x1 -> inception_4e/1x1
I0403 18:30:50.580155  7075 net.cpp:141] Setting up inception_4e/1x1
I0403 18:30:50.580185  7075 net.cpp:148] Top shape: 24 256 14 14 (1204224)
I0403 18:30:50.580200  7075 net.cpp:156] Memory required for data: 1213249056
I0403 18:30:50.580220  7075 layer_factory.hpp:77] Creating layer inception_4e/relu_1x1
I0403 18:30:50.580236  7075 net.cpp:91] Creating Layer inception_4e/relu_1x1
I0403 18:30:50.580251  7075 net.cpp:425] inception_4e/relu_1x1 <- inception_4e/1x1
I0403 18:30:50.580273  7075 net.cpp:386] inception_4e/relu_1x1 -> inception_4e/1x1 (in-place)
I0403 18:30:50.580567  7075 net.cpp:141] Setting up inception_4e/relu_1x1
I0403 18:30:50.580595  7075 net.cpp:148] Top shape: 24 256 14 14 (1204224)
I0403 18:30:50.580611  7075 net.cpp:156] Memory required for data: 1218065952
I0403 18:30:50.580626  7075 layer_factory.hpp:77] Creating layer inception_4e/3x3_reduce
I0403 18:30:50.580648  7075 net.cpp:91] Creating Layer inception_4e/3x3_reduce
I0403 18:30:50.580664  7075 net.cpp:425] inception_4e/3x3_reduce <- inception_4d/output_inception_4d/output_0_split_2
I0403 18:30:50.580685  7075 net.cpp:399] inception_4e/3x3_reduce -> inception_4e/3x3_reduce
I0403 18:30:50.582784  7075 net.cpp:141] Setting up inception_4e/3x3_reduce
I0403 18:30:50.582814  7075 net.cpp:148] Top shape: 24 160 14 14 (752640)
I0403 18:30:50.582830  7075 net.cpp:156] Memory required for data: 1221076512
I0403 18:30:50.582849  7075 layer_factory.hpp:77] Creating layer inception_4e/relu_3x3_reduce
I0403 18:30:50.582865  7075 net.cpp:91] Creating Layer inception_4e/relu_3x3_reduce
I0403 18:30:50.582881  7075 net.cpp:425] inception_4e/relu_3x3_reduce <- inception_4e/3x3_reduce
I0403 18:30:50.582897  7075 net.cpp:386] inception_4e/relu_3x3_reduce -> inception_4e/3x3_reduce (in-place)
I0403 18:30:50.583081  7075 net.cpp:141] Setting up inception_4e/relu_3x3_reduce
I0403 18:30:50.583106  7075 net.cpp:148] Top shape: 24 160 14 14 (752640)
I0403 18:30:50.583120  7075 net.cpp:156] Memory required for data: 1224087072
I0403 18:30:50.583135  7075 layer_factory.hpp:77] Creating layer inception_4e/3x3
I0403 18:30:50.583156  7075 net.cpp:91] Creating Layer inception_4e/3x3
I0403 18:30:50.583173  7075 net.cpp:425] inception_4e/3x3 <- inception_4e/3x3_reduce
I0403 18:30:50.583194  7075 net.cpp:399] inception_4e/3x3 -> inception_4e/3x3
I0403 18:30:50.588183  7075 net.cpp:141] Setting up inception_4e/3x3
I0403 18:30:50.588224  7075 net.cpp:148] Top shape: 24 320 14 14 (1505280)
I0403 18:30:50.588239  7075 net.cpp:156] Memory required for data: 1230108192
I0403 18:30:50.588258  7075 layer_factory.hpp:77] Creating layer inception_4e/relu_3x3
I0403 18:30:50.588281  7075 net.cpp:91] Creating Layer inception_4e/relu_3x3
I0403 18:30:50.588299  7075 net.cpp:425] inception_4e/relu_3x3 <- inception_4e/3x3
I0403 18:30:50.588316  7075 net.cpp:386] inception_4e/relu_3x3 -> inception_4e/3x3 (in-place)
I0403 18:30:50.588606  7075 net.cpp:141] Setting up inception_4e/relu_3x3
I0403 18:30:50.588631  7075 net.cpp:148] Top shape: 24 320 14 14 (1505280)
I0403 18:30:50.588646  7075 net.cpp:156] Memory required for data: 1236129312
I0403 18:30:50.588661  7075 layer_factory.hpp:77] Creating layer inception_4e/5x5_reduce
I0403 18:30:50.588682  7075 net.cpp:91] Creating Layer inception_4e/5x5_reduce
I0403 18:30:50.588699  7075 net.cpp:425] inception_4e/5x5_reduce <- inception_4d/output_inception_4d/output_0_split_3
I0403 18:30:50.588721  7075 net.cpp:399] inception_4e/5x5_reduce -> inception_4e/5x5_reduce
I0403 18:30:50.589774  7075 net.cpp:141] Setting up inception_4e/5x5_reduce
I0403 18:30:50.589803  7075 net.cpp:148] Top shape: 24 32 14 14 (150528)
I0403 18:30:50.589818  7075 net.cpp:156] Memory required for data: 1236731424
I0403 18:30:50.589836  7075 layer_factory.hpp:77] Creating layer inception_4e/relu_5x5_reduce
I0403 18:30:50.589854  7075 net.cpp:91] Creating Layer inception_4e/relu_5x5_reduce
I0403 18:30:50.589870  7075 net.cpp:425] inception_4e/relu_5x5_reduce <- inception_4e/5x5_reduce
I0403 18:30:50.589890  7075 net.cpp:386] inception_4e/relu_5x5_reduce -> inception_4e/5x5_reduce (in-place)
I0403 18:30:50.590176  7075 net.cpp:141] Setting up inception_4e/relu_5x5_reduce
I0403 18:30:50.590204  7075 net.cpp:148] Top shape: 24 32 14 14 (150528)
I0403 18:30:50.590219  7075 net.cpp:156] Memory required for data: 1237333536
I0403 18:30:50.590235  7075 layer_factory.hpp:77] Creating layer inception_4e/5x5
I0403 18:30:50.590277  7075 net.cpp:91] Creating Layer inception_4e/5x5
I0403 18:30:50.590297  7075 net.cpp:425] inception_4e/5x5 <- inception_4e/5x5_reduce
I0403 18:30:50.590317  7075 net.cpp:399] inception_4e/5x5 -> inception_4e/5x5
I0403 18:30:50.592100  7075 net.cpp:141] Setting up inception_4e/5x5
I0403 18:30:50.592128  7075 net.cpp:148] Top shape: 24 128 14 14 (602112)
I0403 18:30:50.592142  7075 net.cpp:156] Memory required for data: 1239741984
I0403 18:30:50.592161  7075 layer_factory.hpp:77] Creating layer inception_4e/relu_5x5
I0403 18:30:50.592181  7075 net.cpp:91] Creating Layer inception_4e/relu_5x5
I0403 18:30:50.592197  7075 net.cpp:425] inception_4e/relu_5x5 <- inception_4e/5x5
I0403 18:30:50.592214  7075 net.cpp:386] inception_4e/relu_5x5 -> inception_4e/5x5 (in-place)
I0403 18:30:50.592417  7075 net.cpp:141] Setting up inception_4e/relu_5x5
I0403 18:30:50.592440  7075 net.cpp:148] Top shape: 24 128 14 14 (602112)
I0403 18:30:50.592456  7075 net.cpp:156] Memory required for data: 1242150432
I0403 18:30:50.592470  7075 layer_factory.hpp:77] Creating layer inception_4e/pool
I0403 18:30:50.592489  7075 net.cpp:91] Creating Layer inception_4e/pool
I0403 18:30:50.592504  7075 net.cpp:425] inception_4e/pool <- inception_4d/output_inception_4d/output_0_split_4
I0403 18:30:50.592524  7075 net.cpp:399] inception_4e/pool -> inception_4e/pool
I0403 18:30:50.592592  7075 net.cpp:141] Setting up inception_4e/pool
I0403 18:30:50.592614  7075 net.cpp:148] Top shape: 24 528 14 14 (2483712)
I0403 18:30:50.592628  7075 net.cpp:156] Memory required for data: 1252085280
I0403 18:30:50.592641  7075 layer_factory.hpp:77] Creating layer inception_4e/pool_proj
I0403 18:30:50.592665  7075 net.cpp:91] Creating Layer inception_4e/pool_proj
I0403 18:30:50.592682  7075 net.cpp:425] inception_4e/pool_proj <- inception_4e/pool
I0403 18:30:50.592700  7075 net.cpp:399] inception_4e/pool_proj -> inception_4e/pool_proj
I0403 18:30:50.594172  7075 net.cpp:141] Setting up inception_4e/pool_proj
I0403 18:30:50.594210  7075 net.cpp:148] Top shape: 24 128 14 14 (602112)
I0403 18:30:50.594225  7075 net.cpp:156] Memory required for data: 1254493728
I0403 18:30:50.594244  7075 layer_factory.hpp:77] Creating layer inception_4e/relu_pool_proj
I0403 18:30:50.594262  7075 net.cpp:91] Creating Layer inception_4e/relu_pool_proj
I0403 18:30:50.594296  7075 net.cpp:425] inception_4e/relu_pool_proj <- inception_4e/pool_proj
I0403 18:30:50.594316  7075 net.cpp:386] inception_4e/relu_pool_proj -> inception_4e/pool_proj (in-place)
I0403 18:30:50.594625  7075 net.cpp:141] Setting up inception_4e/relu_pool_proj
I0403 18:30:50.594652  7075 net.cpp:148] Top shape: 24 128 14 14 (602112)
I0403 18:30:50.594666  7075 net.cpp:156] Memory required for data: 1256902176
I0403 18:30:50.594682  7075 layer_factory.hpp:77] Creating layer inception_4e/output
I0403 18:30:50.594701  7075 net.cpp:91] Creating Layer inception_4e/output
I0403 18:30:50.594717  7075 net.cpp:425] inception_4e/output <- inception_4e/1x1
I0403 18:30:50.594733  7075 net.cpp:425] inception_4e/output <- inception_4e/3x3
I0403 18:30:50.594750  7075 net.cpp:425] inception_4e/output <- inception_4e/5x5
I0403 18:30:50.594765  7075 net.cpp:425] inception_4e/output <- inception_4e/pool_proj
I0403 18:30:50.594781  7075 net.cpp:399] inception_4e/output -> inception_4e/output
I0403 18:30:50.594830  7075 net.cpp:141] Setting up inception_4e/output
I0403 18:30:50.594852  7075 net.cpp:148] Top shape: 24 832 14 14 (3913728)
I0403 18:30:50.594867  7075 net.cpp:156] Memory required for data: 1272557088
I0403 18:30:50.594882  7075 layer_factory.hpp:77] Creating layer pool4/3x3_s2
I0403 18:30:50.594899  7075 net.cpp:91] Creating Layer pool4/3x3_s2
I0403 18:30:50.594914  7075 net.cpp:425] pool4/3x3_s2 <- inception_4e/output
I0403 18:30:50.594934  7075 net.cpp:399] pool4/3x3_s2 -> pool4/3x3_s2
I0403 18:30:50.594998  7075 net.cpp:141] Setting up pool4/3x3_s2
I0403 18:30:50.595021  7075 net.cpp:148] Top shape: 24 832 7 7 (978432)
I0403 18:30:50.595036  7075 net.cpp:156] Memory required for data: 1276470816
I0403 18:30:50.595051  7075 layer_factory.hpp:77] Creating layer pool4/3x3_s2_pool4/3x3_s2_0_split
I0403 18:30:50.595070  7075 net.cpp:91] Creating Layer pool4/3x3_s2_pool4/3x3_s2_0_split
I0403 18:30:50.595088  7075 net.cpp:425] pool4/3x3_s2_pool4/3x3_s2_0_split <- pool4/3x3_s2
I0403 18:30:50.595106  7075 net.cpp:399] pool4/3x3_s2_pool4/3x3_s2_0_split -> pool4/3x3_s2_pool4/3x3_s2_0_split_0
I0403 18:30:50.595125  7075 net.cpp:399] pool4/3x3_s2_pool4/3x3_s2_0_split -> pool4/3x3_s2_pool4/3x3_s2_0_split_1
I0403 18:30:50.595145  7075 net.cpp:399] pool4/3x3_s2_pool4/3x3_s2_0_split -> pool4/3x3_s2_pool4/3x3_s2_0_split_2
I0403 18:30:50.595165  7075 net.cpp:399] pool4/3x3_s2_pool4/3x3_s2_0_split -> pool4/3x3_s2_pool4/3x3_s2_0_split_3
I0403 18:30:50.595252  7075 net.cpp:141] Setting up pool4/3x3_s2_pool4/3x3_s2_0_split
I0403 18:30:50.595278  7075 net.cpp:148] Top shape: 24 832 7 7 (978432)
I0403 18:30:50.595310  7075 net.cpp:148] Top shape: 24 832 7 7 (978432)
I0403 18:30:50.595325  7075 net.cpp:148] Top shape: 24 832 7 7 (978432)
I0403 18:30:50.595341  7075 net.cpp:148] Top shape: 24 832 7 7 (978432)
I0403 18:30:50.595355  7075 net.cpp:156] Memory required for data: 1292125728
I0403 18:30:50.595369  7075 layer_factory.hpp:77] Creating layer inception_5a/1x1
I0403 18:30:50.595391  7075 net.cpp:91] Creating Layer inception_5a/1x1
I0403 18:30:50.595407  7075 net.cpp:425] inception_5a/1x1 <- pool4/3x3_s2_pool4/3x3_s2_0_split_0
I0403 18:30:50.595427  7075 net.cpp:399] inception_5a/1x1 -> inception_5a/1x1
I0403 18:30:50.598240  7075 net.cpp:141] Setting up inception_5a/1x1
I0403 18:30:50.598274  7075 net.cpp:148] Top shape: 24 256 7 7 (301056)
I0403 18:30:50.598292  7075 net.cpp:156] Memory required for data: 1293329952
I0403 18:30:50.598310  7075 layer_factory.hpp:77] Creating layer inception_5a/relu_1x1
I0403 18:30:50.598328  7075 net.cpp:91] Creating Layer inception_5a/relu_1x1
I0403 18:30:50.598343  7075 net.cpp:425] inception_5a/relu_1x1 <- inception_5a/1x1
I0403 18:30:50.598361  7075 net.cpp:386] inception_5a/relu_1x1 -> inception_5a/1x1 (in-place)
I0403 18:30:50.598667  7075 net.cpp:141] Setting up inception_5a/relu_1x1
I0403 18:30:50.598695  7075 net.cpp:148] Top shape: 24 256 7 7 (301056)
I0403 18:30:50.598711  7075 net.cpp:156] Memory required for data: 1294534176
I0403 18:30:50.598726  7075 layer_factory.hpp:77] Creating layer inception_5a/3x3_reduce
I0403 18:30:50.598747  7075 net.cpp:91] Creating Layer inception_5a/3x3_reduce
I0403 18:30:50.598764  7075 net.cpp:425] inception_5a/3x3_reduce <- pool4/3x3_s2_pool4/3x3_s2_0_split_1
I0403 18:30:50.598784  7075 net.cpp:399] inception_5a/3x3_reduce -> inception_5a/3x3_reduce
I0403 18:30:50.601233  7075 net.cpp:141] Setting up inception_5a/3x3_reduce
I0403 18:30:50.601260  7075 net.cpp:148] Top shape: 24 160 7 7 (188160)
I0403 18:30:50.601280  7075 net.cpp:156] Memory required for data: 1295286816
I0403 18:30:50.601299  7075 layer_factory.hpp:77] Creating layer inception_5a/relu_3x3_reduce
I0403 18:30:50.601320  7075 net.cpp:91] Creating Layer inception_5a/relu_3x3_reduce
I0403 18:30:50.601336  7075 net.cpp:425] inception_5a/relu_3x3_reduce <- inception_5a/3x3_reduce
I0403 18:30:50.601353  7075 net.cpp:386] inception_5a/relu_3x3_reduce -> inception_5a/3x3_reduce (in-place)
I0403 18:30:50.601537  7075 net.cpp:141] Setting up inception_5a/relu_3x3_reduce
I0403 18:30:50.601567  7075 net.cpp:148] Top shape: 24 160 7 7 (188160)
I0403 18:30:50.601583  7075 net.cpp:156] Memory required for data: 1296039456
I0403 18:30:50.601598  7075 layer_factory.hpp:77] Creating layer inception_5a/3x3
I0403 18:30:50.601619  7075 net.cpp:91] Creating Layer inception_5a/3x3
I0403 18:30:50.601637  7075 net.cpp:425] inception_5a/3x3 <- inception_5a/3x3_reduce
I0403 18:30:50.601655  7075 net.cpp:399] inception_5a/3x3 -> inception_5a/3x3
I0403 18:30:50.606811  7075 net.cpp:141] Setting up inception_5a/3x3
I0403 18:30:50.606842  7075 net.cpp:148] Top shape: 24 320 7 7 (376320)
I0403 18:30:50.606856  7075 net.cpp:156] Memory required for data: 1297544736
I0403 18:30:50.606875  7075 layer_factory.hpp:77] Creating layer inception_5a/relu_3x3
I0403 18:30:50.606896  7075 net.cpp:91] Creating Layer inception_5a/relu_3x3
I0403 18:30:50.606914  7075 net.cpp:425] inception_5a/relu_3x3 <- inception_5a/3x3
I0403 18:30:50.606930  7075 net.cpp:386] inception_5a/relu_3x3 -> inception_5a/3x3 (in-place)
I0403 18:30:50.607226  7075 net.cpp:141] Setting up inception_5a/relu_3x3
I0403 18:30:50.607252  7075 net.cpp:148] Top shape: 24 320 7 7 (376320)
I0403 18:30:50.607269  7075 net.cpp:156] Memory required for data: 1299050016
I0403 18:30:50.607288  7075 layer_factory.hpp:77] Creating layer inception_5a/5x5_reduce
I0403 18:30:50.607317  7075 net.cpp:91] Creating Layer inception_5a/5x5_reduce
I0403 18:30:50.607336  7075 net.cpp:425] inception_5a/5x5_reduce <- pool4/3x3_s2_pool4/3x3_s2_0_split_2
I0403 18:30:50.607355  7075 net.cpp:399] inception_5a/5x5_reduce -> inception_5a/5x5_reduce
I0403 18:30:50.608538  7075 net.cpp:141] Setting up inception_5a/5x5_reduce
I0403 18:30:50.608569  7075 net.cpp:148] Top shape: 24 32 7 7 (37632)
I0403 18:30:50.608587  7075 net.cpp:156] Memory required for data: 1299200544
I0403 18:30:50.608605  7075 layer_factory.hpp:77] Creating layer inception_5a/relu_5x5_reduce
I0403 18:30:50.608623  7075 net.cpp:91] Creating Layer inception_5a/relu_5x5_reduce
I0403 18:30:50.608639  7075 net.cpp:425] inception_5a/relu_5x5_reduce <- inception_5a/5x5_reduce
I0403 18:30:50.608659  7075 net.cpp:386] inception_5a/relu_5x5_reduce -> inception_5a/5x5_reduce (in-place)
I0403 18:30:50.608965  7075 net.cpp:141] Setting up inception_5a/relu_5x5_reduce
I0403 18:30:50.608990  7075 net.cpp:148] Top shape: 24 32 7 7 (37632)
I0403 18:30:50.609005  7075 net.cpp:156] Memory required for data: 1299351072
I0403 18:30:50.609021  7075 layer_factory.hpp:77] Creating layer inception_5a/5x5
I0403 18:30:50.609043  7075 net.cpp:91] Creating Layer inception_5a/5x5
I0403 18:30:50.609061  7075 net.cpp:425] inception_5a/5x5 <- inception_5a/5x5_reduce
I0403 18:30:50.609082  7075 net.cpp:399] inception_5a/5x5 -> inception_5a/5x5
I0403 18:30:50.610853  7075 net.cpp:141] Setting up inception_5a/5x5
I0403 18:30:50.610894  7075 net.cpp:148] Top shape: 24 128 7 7 (150528)
I0403 18:30:50.610910  7075 net.cpp:156] Memory required for data: 1299953184
I0403 18:30:50.610929  7075 layer_factory.hpp:77] Creating layer inception_5a/relu_5x5
I0403 18:30:50.610949  7075 net.cpp:91] Creating Layer inception_5a/relu_5x5
I0403 18:30:50.610966  7075 net.cpp:425] inception_5a/relu_5x5 <- inception_5a/5x5
I0403 18:30:50.610983  7075 net.cpp:386] inception_5a/relu_5x5 -> inception_5a/5x5 (in-place)
I0403 18:30:50.611177  7075 net.cpp:141] Setting up inception_5a/relu_5x5
I0403 18:30:50.611202  7075 net.cpp:148] Top shape: 24 128 7 7 (150528)
I0403 18:30:50.611218  7075 net.cpp:156] Memory required for data: 1300555296
I0403 18:30:50.611232  7075 layer_factory.hpp:77] Creating layer inception_5a/pool
I0403 18:30:50.611249  7075 net.cpp:91] Creating Layer inception_5a/pool
I0403 18:30:50.611265  7075 net.cpp:425] inception_5a/pool <- pool4/3x3_s2_pool4/3x3_s2_0_split_3
I0403 18:30:50.611305  7075 net.cpp:399] inception_5a/pool -> inception_5a/pool
I0403 18:30:50.611397  7075 net.cpp:141] Setting up inception_5a/pool
I0403 18:30:50.611421  7075 net.cpp:148] Top shape: 24 832 7 7 (978432)
I0403 18:30:50.611436  7075 net.cpp:156] Memory required for data: 1304469024
I0403 18:30:50.611452  7075 layer_factory.hpp:77] Creating layer inception_5a/pool_proj
I0403 18:30:50.611477  7075 net.cpp:91] Creating Layer inception_5a/pool_proj
I0403 18:30:50.611496  7075 net.cpp:425] inception_5a/pool_proj <- inception_5a/pool
I0403 18:30:50.611517  7075 net.cpp:399] inception_5a/pool_proj -> inception_5a/pool_proj
I0403 18:30:50.613939  7075 net.cpp:141] Setting up inception_5a/pool_proj
I0403 18:30:50.613968  7075 net.cpp:148] Top shape: 24 128 7 7 (150528)
I0403 18:30:50.613984  7075 net.cpp:156] Memory required for data: 1305071136
I0403 18:30:50.614003  7075 layer_factory.hpp:77] Creating layer inception_5a/relu_pool_proj
I0403 18:30:50.614025  7075 net.cpp:91] Creating Layer inception_5a/relu_pool_proj
I0403 18:30:50.614043  7075 net.cpp:425] inception_5a/relu_pool_proj <- inception_5a/pool_proj
I0403 18:30:50.614061  7075 net.cpp:386] inception_5a/relu_pool_proj -> inception_5a/pool_proj (in-place)
I0403 18:30:50.614375  7075 net.cpp:141] Setting up inception_5a/relu_pool_proj
I0403 18:30:50.614403  7075 net.cpp:148] Top shape: 24 128 7 7 (150528)
I0403 18:30:50.614418  7075 net.cpp:156] Memory required for data: 1305673248
I0403 18:30:50.614434  7075 layer_factory.hpp:77] Creating layer inception_5a/output
I0403 18:30:50.614454  7075 net.cpp:91] Creating Layer inception_5a/output
I0403 18:30:50.614471  7075 net.cpp:425] inception_5a/output <- inception_5a/1x1
I0403 18:30:50.614488  7075 net.cpp:425] inception_5a/output <- inception_5a/3x3
I0403 18:30:50.614505  7075 net.cpp:425] inception_5a/output <- inception_5a/5x5
I0403 18:30:50.614521  7075 net.cpp:425] inception_5a/output <- inception_5a/pool_proj
I0403 18:30:50.614537  7075 net.cpp:399] inception_5a/output -> inception_5a/output
I0403 18:30:50.614593  7075 net.cpp:141] Setting up inception_5a/output
I0403 18:30:50.614617  7075 net.cpp:148] Top shape: 24 832 7 7 (978432)
I0403 18:30:50.614631  7075 net.cpp:156] Memory required for data: 1309586976
I0403 18:30:50.614647  7075 layer_factory.hpp:77] Creating layer inception_5a/output_inception_5a/output_0_split
I0403 18:30:50.614665  7075 net.cpp:91] Creating Layer inception_5a/output_inception_5a/output_0_split
I0403 18:30:50.614680  7075 net.cpp:425] inception_5a/output_inception_5a/output_0_split <- inception_5a/output
I0403 18:30:50.614699  7075 net.cpp:399] inception_5a/output_inception_5a/output_0_split -> inception_5a/output_inception_5a/output_0_split_0
I0403 18:30:50.614722  7075 net.cpp:399] inception_5a/output_inception_5a/output_0_split -> inception_5a/output_inception_5a/output_0_split_1
I0403 18:30:50.614742  7075 net.cpp:399] inception_5a/output_inception_5a/output_0_split -> inception_5a/output_inception_5a/output_0_split_2
I0403 18:30:50.614763  7075 net.cpp:399] inception_5a/output_inception_5a/output_0_split -> inception_5a/output_inception_5a/output_0_split_3
I0403 18:30:50.614881  7075 net.cpp:141] Setting up inception_5a/output_inception_5a/output_0_split
I0403 18:30:50.614907  7075 net.cpp:148] Top shape: 24 832 7 7 (978432)
I0403 18:30:50.614923  7075 net.cpp:148] Top shape: 24 832 7 7 (978432)
I0403 18:30:50.614939  7075 net.cpp:148] Top shape: 24 832 7 7 (978432)
I0403 18:30:50.614954  7075 net.cpp:148] Top shape: 24 832 7 7 (978432)
I0403 18:30:50.614970  7075 net.cpp:156] Memory required for data: 1325241888
I0403 18:30:50.614985  7075 layer_factory.hpp:77] Creating layer inception_5b/1x1
I0403 18:30:50.615008  7075 net.cpp:91] Creating Layer inception_5b/1x1
I0403 18:30:50.615027  7075 net.cpp:425] inception_5b/1x1 <- inception_5a/output_inception_5a/output_0_split_0
I0403 18:30:50.615049  7075 net.cpp:399] inception_5b/1x1 -> inception_5b/1x1
I0403 18:30:50.619006  7075 net.cpp:141] Setting up inception_5b/1x1
I0403 18:30:50.619037  7075 net.cpp:148] Top shape: 24 384 7 7 (451584)
I0403 18:30:50.619053  7075 net.cpp:156] Memory required for data: 1327048224
I0403 18:30:50.619073  7075 layer_factory.hpp:77] Creating layer inception_5b/relu_1x1
I0403 18:30:50.619094  7075 net.cpp:91] Creating Layer inception_5b/relu_1x1
I0403 18:30:50.619112  7075 net.cpp:425] inception_5b/relu_1x1 <- inception_5b/1x1
I0403 18:30:50.619129  7075 net.cpp:386] inception_5b/relu_1x1 -> inception_5b/1x1 (in-place)
I0403 18:30:50.619468  7075 net.cpp:141] Setting up inception_5b/relu_1x1
I0403 18:30:50.619495  7075 net.cpp:148] Top shape: 24 384 7 7 (451584)
I0403 18:30:50.619511  7075 net.cpp:156] Memory required for data: 1328854560
I0403 18:30:50.619529  7075 layer_factory.hpp:77] Creating layer inception_5b/3x3_reduce
I0403 18:30:50.619552  7075 net.cpp:91] Creating Layer inception_5b/3x3_reduce
I0403 18:30:50.619583  7075 net.cpp:425] inception_5b/3x3_reduce <- inception_5a/output_inception_5a/output_0_split_1
I0403 18:30:50.619606  7075 net.cpp:399] inception_5b/3x3_reduce -> inception_5b/3x3_reduce
I0403 18:30:50.622397  7075 net.cpp:141] Setting up inception_5b/3x3_reduce
I0403 18:30:50.622427  7075 net.cpp:148] Top shape: 24 192 7 7 (225792)
I0403 18:30:50.622443  7075 net.cpp:156] Memory required for data: 1329757728
I0403 18:30:50.622463  7075 layer_factory.hpp:77] Creating layer inception_5b/relu_3x3_reduce
I0403 18:30:50.622485  7075 net.cpp:91] Creating Layer inception_5b/relu_3x3_reduce
I0403 18:30:50.622503  7075 net.cpp:425] inception_5b/relu_3x3_reduce <- inception_5b/3x3_reduce
I0403 18:30:50.622520  7075 net.cpp:386] inception_5b/relu_3x3_reduce -> inception_5b/3x3_reduce (in-place)
I0403 18:30:50.622722  7075 net.cpp:141] Setting up inception_5b/relu_3x3_reduce
I0403 18:30:50.622750  7075 net.cpp:148] Top shape: 24 192 7 7 (225792)
I0403 18:30:50.622766  7075 net.cpp:156] Memory required for data: 1330660896
I0403 18:30:50.622781  7075 layer_factory.hpp:77] Creating layer inception_5b/3x3
I0403 18:30:50.622804  7075 net.cpp:91] Creating Layer inception_5b/3x3
I0403 18:30:50.622822  7075 net.cpp:425] inception_5b/3x3 <- inception_5b/3x3_reduce
I0403 18:30:50.622843  7075 net.cpp:399] inception_5b/3x3 -> inception_5b/3x3
I0403 18:30:50.629930  7075 net.cpp:141] Setting up inception_5b/3x3
I0403 18:30:50.629964  7075 net.cpp:148] Top shape: 24 384 7 7 (451584)
I0403 18:30:50.629981  7075 net.cpp:156] Memory required for data: 1332467232
I0403 18:30:50.629999  7075 layer_factory.hpp:77] Creating layer inception_5b/relu_3x3
I0403 18:30:50.630022  7075 net.cpp:91] Creating Layer inception_5b/relu_3x3
I0403 18:30:50.630039  7075 net.cpp:425] inception_5b/relu_3x3 <- inception_5b/3x3
I0403 18:30:50.630058  7075 net.cpp:386] inception_5b/relu_3x3 -> inception_5b/3x3 (in-place)
I0403 18:30:50.630373  7075 net.cpp:141] Setting up inception_5b/relu_3x3
I0403 18:30:50.630400  7075 net.cpp:148] Top shape: 24 384 7 7 (451584)
I0403 18:30:50.630415  7075 net.cpp:156] Memory required for data: 1334273568
I0403 18:30:50.630430  7075 layer_factory.hpp:77] Creating layer inception_5b/5x5_reduce
I0403 18:30:50.630491  7075 net.cpp:91] Creating Layer inception_5b/5x5_reduce
I0403 18:30:50.630511  7075 net.cpp:425] inception_5b/5x5_reduce <- inception_5a/output_inception_5a/output_0_split_2
I0403 18:30:50.630532  7075 net.cpp:399] inception_5b/5x5_reduce -> inception_5b/5x5_reduce
I0403 18:30:50.631827  7075 net.cpp:141] Setting up inception_5b/5x5_reduce
I0403 18:30:50.631856  7075 net.cpp:148] Top shape: 24 48 7 7 (56448)
I0403 18:30:50.631871  7075 net.cpp:156] Memory required for data: 1334499360
I0403 18:30:50.631889  7075 layer_factory.hpp:77] Creating layer inception_5b/relu_5x5_reduce
I0403 18:30:50.631909  7075 net.cpp:91] Creating Layer inception_5b/relu_5x5_reduce
I0403 18:30:50.631927  7075 net.cpp:425] inception_5b/relu_5x5_reduce <- inception_5b/5x5_reduce
I0403 18:30:50.631943  7075 net.cpp:386] inception_5b/relu_5x5_reduce -> inception_5b/5x5_reduce (in-place)
I0403 18:30:50.632334  7075 net.cpp:141] Setting up inception_5b/relu_5x5_reduce
I0403 18:30:50.632360  7075 net.cpp:148] Top shape: 24 48 7 7 (56448)
I0403 18:30:50.632375  7075 net.cpp:156] Memory required for data: 1334725152
I0403 18:30:50.632390  7075 layer_factory.hpp:77] Creating layer inception_5b/5x5
I0403 18:30:50.632411  7075 net.cpp:91] Creating Layer inception_5b/5x5
I0403 18:30:50.632428  7075 net.cpp:425] inception_5b/5x5 <- inception_5b/5x5_reduce
I0403 18:30:50.632447  7075 net.cpp:399] inception_5b/5x5 -> inception_5b/5x5
I0403 18:30:50.634563  7075 net.cpp:141] Setting up inception_5b/5x5
I0403 18:30:50.634608  7075 net.cpp:148] Top shape: 24 128 7 7 (150528)
I0403 18:30:50.634624  7075 net.cpp:156] Memory required for data: 1335327264
I0403 18:30:50.634640  7075 layer_factory.hpp:77] Creating layer inception_5b/relu_5x5
I0403 18:30:50.634660  7075 net.cpp:91] Creating Layer inception_5b/relu_5x5
I0403 18:30:50.634675  7075 net.cpp:425] inception_5b/relu_5x5 <- inception_5b/5x5
I0403 18:30:50.634692  7075 net.cpp:386] inception_5b/relu_5x5 -> inception_5b/5x5 (in-place)
I0403 18:30:50.634894  7075 net.cpp:141] Setting up inception_5b/relu_5x5
I0403 18:30:50.634920  7075 net.cpp:148] Top shape: 24 128 7 7 (150528)
I0403 18:30:50.634937  7075 net.cpp:156] Memory required for data: 1335929376
I0403 18:30:50.634953  7075 layer_factory.hpp:77] Creating layer inception_5b/pool
I0403 18:30:50.634969  7075 net.cpp:91] Creating Layer inception_5b/pool
I0403 18:30:50.634985  7075 net.cpp:425] inception_5b/pool <- inception_5a/output_inception_5a/output_0_split_3
I0403 18:30:50.635007  7075 net.cpp:399] inception_5b/pool -> inception_5b/pool
I0403 18:30:50.635082  7075 net.cpp:141] Setting up inception_5b/pool
I0403 18:30:50.635108  7075 net.cpp:148] Top shape: 24 832 7 7 (978432)
I0403 18:30:50.635123  7075 net.cpp:156] Memory required for data: 1339843104
I0403 18:30:50.635138  7075 layer_factory.hpp:77] Creating layer inception_5b/pool_proj
I0403 18:30:50.635159  7075 net.cpp:91] Creating Layer inception_5b/pool_proj
I0403 18:30:50.635177  7075 net.cpp:425] inception_5b/pool_proj <- inception_5b/pool
I0403 18:30:50.635196  7075 net.cpp:399] inception_5b/pool_proj -> inception_5b/pool_proj
I0403 18:30:50.637579  7075 net.cpp:141] Setting up inception_5b/pool_proj
I0403 18:30:50.637609  7075 net.cpp:148] Top shape: 24 128 7 7 (150528)
I0403 18:30:50.637624  7075 net.cpp:156] Memory required for data: 1340445216
I0403 18:30:50.637642  7075 layer_factory.hpp:77] Creating layer inception_5b/relu_pool_proj
I0403 18:30:50.637663  7075 net.cpp:91] Creating Layer inception_5b/relu_pool_proj
I0403 18:30:50.637681  7075 net.cpp:425] inception_5b/relu_pool_proj <- inception_5b/pool_proj
I0403 18:30:50.637698  7075 net.cpp:386] inception_5b/relu_pool_proj -> inception_5b/pool_proj (in-place)
I0403 18:30:50.638000  7075 net.cpp:141] Setting up inception_5b/relu_pool_proj
I0403 18:30:50.638027  7075 net.cpp:148] Top shape: 24 128 7 7 (150528)
I0403 18:30:50.638042  7075 net.cpp:156] Memory required for data: 1341047328
I0403 18:30:50.638056  7075 layer_factory.hpp:77] Creating layer inception_5b/output
I0403 18:30:50.638077  7075 net.cpp:91] Creating Layer inception_5b/output
I0403 18:30:50.638106  7075 net.cpp:425] inception_5b/output <- inception_5b/1x1
I0403 18:30:50.638124  7075 net.cpp:425] inception_5b/output <- inception_5b/3x3
I0403 18:30:50.638140  7075 net.cpp:425] inception_5b/output <- inception_5b/5x5
I0403 18:30:50.638156  7075 net.cpp:425] inception_5b/output <- inception_5b/pool_proj
I0403 18:30:50.638173  7075 net.cpp:399] inception_5b/output -> inception_5b/output
I0403 18:30:50.638227  7075 net.cpp:141] Setting up inception_5b/output
I0403 18:30:50.638252  7075 net.cpp:148] Top shape: 24 1024 7 7 (1204224)
I0403 18:30:50.638267  7075 net.cpp:156] Memory required for data: 1345864224
I0403 18:30:50.638285  7075 layer_factory.hpp:77] Creating layer pool5/7x7_s1
I0403 18:30:50.638303  7075 net.cpp:91] Creating Layer pool5/7x7_s1
I0403 18:30:50.638319  7075 net.cpp:425] pool5/7x7_s1 <- inception_5b/output
I0403 18:30:50.638339  7075 net.cpp:399] pool5/7x7_s1 -> pool5/7x7_s1
I0403 18:30:50.638559  7075 net.cpp:141] Setting up pool5/7x7_s1
I0403 18:30:50.638587  7075 net.cpp:148] Top shape: 24 1024 1 1 (24576)
I0403 18:30:50.638604  7075 net.cpp:156] Memory required for data: 1345962528
I0403 18:30:50.638618  7075 layer_factory.hpp:77] Creating layer pool5/drop_7x7_s1
I0403 18:30:50.638636  7075 net.cpp:91] Creating Layer pool5/drop_7x7_s1
I0403 18:30:50.638655  7075 net.cpp:425] pool5/drop_7x7_s1 <- pool5/7x7_s1
I0403 18:30:50.638676  7075 net.cpp:386] pool5/drop_7x7_s1 -> pool5/7x7_s1 (in-place)
I0403 18:30:50.638730  7075 net.cpp:141] Setting up pool5/drop_7x7_s1
I0403 18:30:50.638752  7075 net.cpp:148] Top shape: 24 1024 1 1 (24576)
I0403 18:30:50.638767  7075 net.cpp:156] Memory required for data: 1346060832
I0403 18:30:50.638782  7075 layer_factory.hpp:77] Creating layer loss3/classifier_plantvillage
I0403 18:30:50.638808  7075 net.cpp:91] Creating Layer loss3/classifier_plantvillage
I0403 18:30:50.638826  7075 net.cpp:425] loss3/classifier_plantvillage <- pool5/7x7_s1
I0403 18:30:50.638844  7075 net.cpp:399] loss3/classifier_plantvillage -> loss3/classifier_plantvillage
I0403 18:30:50.639284  7075 net.cpp:141] Setting up loss3/classifier_plantvillage
I0403 18:30:50.639309  7075 net.cpp:148] Top shape: 24 38 (912)
I0403 18:30:50.639325  7075 net.cpp:156] Memory required for data: 1346064480
I0403 18:30:50.639343  7075 layer_factory.hpp:77] Creating layer loss3/classifier_plantvillage_loss3/classifier_plantvillage_0_split
I0403 18:30:50.639363  7075 net.cpp:91] Creating Layer loss3/classifier_plantvillage_loss3/classifier_plantvillage_0_split
I0403 18:30:50.639379  7075 net.cpp:425] loss3/classifier_plantvillage_loss3/classifier_plantvillage_0_split <- loss3/classifier_plantvillage
I0403 18:30:50.639400  7075 net.cpp:399] loss3/classifier_plantvillage_loss3/classifier_plantvillage_0_split -> loss3/classifier_plantvillage_loss3/classifier_plantvillage_0_split_0
I0403 18:30:50.639421  7075 net.cpp:399] loss3/classifier_plantvillage_loss3/classifier_plantvillage_0_split -> loss3/classifier_plantvillage_loss3/classifier_plantvillage_0_split_1
I0403 18:30:50.639441  7075 net.cpp:399] loss3/classifier_plantvillage_loss3/classifier_plantvillage_0_split -> loss3/classifier_plantvillage_loss3/classifier_plantvillage_0_split_2
I0403 18:30:50.639462  7075 net.cpp:399] loss3/classifier_plantvillage_loss3/classifier_plantvillage_0_split -> loss3/classifier_plantvillage_loss3/classifier_plantvillage_0_split_3
I0403 18:30:50.639569  7075 net.cpp:141] Setting up loss3/classifier_plantvillage_loss3/classifier_plantvillage_0_split
I0403 18:30:50.639592  7075 net.cpp:148] Top shape: 24 38 (912)
I0403 18:30:50.639610  7075 net.cpp:148] Top shape: 24 38 (912)
I0403 18:30:50.639626  7075 net.cpp:148] Top shape: 24 38 (912)
I0403 18:30:50.639642  7075 net.cpp:148] Top shape: 24 38 (912)
I0403 18:30:50.639655  7075 net.cpp:156] Memory required for data: 1346079072
I0403 18:30:50.639669  7075 layer_factory.hpp:77] Creating layer loss1/loss
I0403 18:30:50.639690  7075 net.cpp:91] Creating Layer loss1/loss
I0403 18:30:50.639708  7075 net.cpp:425] loss1/loss <- loss1/classifier_plantvillage_loss1/classifier_plantvillage_0_split_0
I0403 18:30:50.639739  7075 net.cpp:425] loss1/loss <- label_data_1_split_0
…
