…
I0403 18:20:36.113904  6833 net.cpp:313] The NetState phase (1) differed from the phase (0) specified by a rule in layer data
I0403 18:20:36.115083  6833 net.cpp:49] Initializing net from parameters: 
state {
  phase: TEST
}
layer {
  name: "data"
  type: "Data"
  top: "data"
  top: "label"
  include {
    phase: TEST
  }
  transform_param {
    mirror: false
    crop_size: 224
    mean_file: "/home/mohanty/data/final_dataset/lmdb/grayscale-40-60/mean.binaryproto"
  }
  data_param {
    source: "/home/mohanty/data/final_dataset/lmdb/grayscale-40-60/test_db"
    batch_size: 24
    backend: LMDB
  }
}
layer {
  name: "conv1/7x7_s2"
  type: "Convolution"
  bottom: "data"
  top: "conv1/7x7_s2"
  param {
    lr_mult: 1
    decay_mult: 1
  }
  param {
    lr_mult: 2
    decay_mult: 0
  }
  convolution_param {
    num_output: 64
    pad: 3
    kernel_size: 7
    stride: 2
    weight_filler {
      type: "xavier"
      std: 0.1
    }
    bias_filler {
      type: "constant"
      value: 0.2
    }
  }
}
layer {
  name: "conv1/relu_7x7"
  type: "ReLU"
  bottom: "conv1/7x7_s2"
  top: "conv1/7x7_s2"
}
layer {
  name: "pool1/3x3_s2"
  type: "Pooling"
  bottom: "conv1/7x7_s2"
  top: "pool1/3x3_s2"
  pooling_param {
    pool: MAX
    kernel_size: 3
    stride: 2
  }
}
layer {
  name: "pool1/norm1"
  type: "LRN"
  bottom: "pool1/3x3_s2"
  top: "pool1/norm1"
  lrn_param {
    local_size: 5
    alpha: 0.0001
    beta: 0.75
  }
}
layer {
  name: "conv2/3x3_reduce"
  type: "Convolution"
  bottom: "pool1/norm1"
  top: "conv2/3x3_reduce"
  param {
    lr_mult: 1
    decay_mult: 1
  }
  param {
    lr_mult: 2
    decay_mult: 0
  }
  convolution_param {
    num_output: 64
    kernel_size: 1
    weight_filler {
      type: "xavier"
      std: 0.1
    }
    bias_filler {
      type: "constant"
      value: 0.2
    }
  }
}
layer {
  name: "conv2/relu_3x3_reduce"
  type: "ReLU"
  bottom: "conv2/3x3_reduce"
  top: "conv2/3x3_reduce"
}
layer {
  name: "conv2/3x3"
  type: "Convolution"
  bottom: "conv2/3x3_reduce"
  top: "conv2/3x3"
  param {
    lr_mult: 1
    decay_mult: 1
  }
  param {
    lr_mult: 2
    decay_mult: 0
  }
  convolution_param {
    num_output: 192
    pad: 1
    kernel_size: 3
    weight_filler {
      type: "xavier"
      std: 0.03
    }
    bias_filler {
      type: "constant"
      value: 0.2
    }
  }
}
layer {
  name: "conv2/relu_3x3"
  type: "ReLU"
  bottom: "conv2/3x3"
  top: "conv2/3x3"
}
layer {
  name: "conv2/norm2"
  type: "LRN"
  bottom: "conv2/3x3"
  top: "conv2/norm2"
  lrn_param {
    local_size: 5
    alpha: 0.0001
    beta: 0.75
  }
}
layer {
  name: "pool2/3x3_s2"
  type: "Pooling"
  bottom: "conv2/norm2"
  top: "pool2/3x3_s2"
  pooling_param {
    pool: MAX
    kernel_size: 3
    stride: 2
  }
}
layer {
  name: "inception_3a/1x1"
  type: "Convolution"
  bottom: "pool2/3x3_s2"
  top: "inception_3a/1x1"
  param {
    lr_mult: 1
    decay_mult: 1
  }
  param {
    lr_mult: 2
    decay_mult: 0
  }
  convolution_param {
    num_output: 64
    kernel_size: 1
    weight_filler {
      type: "xavier"
      std: 0.03
    }
    bias_filler {
      type: "constant"
      value: 0.2
    }
  }
}
layer {
  name: "inception_3a/relu_1x1"
  type: "ReLU"
  bottom: "inception_3a/1x1"
  top: "inception_3a/1x1"
}
layer {
  name: "inception_3a/3x3_reduce"
  type: "Convolution"
  bottom: "pool2/3x3_s2"
  top: "inception_3a/3x3_reduce"
  param {
    lr_mult: 1
    decay_mult: 1
  }
  param {
    lr_mult: 2
    decay_mult: 0
  }
  convolution_param {
    num_output: 96
    kernel_size: 1
    weight_filler {
      type: "xavier"
      std: 0.09
    }
    bias_filler {
      type: "constant"
      value: 0.2
    }
  }
}
layer {
  name: "inception_3a/relu_3x3_reduce"
  type: "ReLU"
  bottom: "inception_3a/3x3_reduce"
  top: "inception_3a/3x3_reduce"
}
layer {
  name: "inception_3a/3x3"
  type: "Convolution"
  bottom: "inception_3a/3x3_reduce"
  top: "inception_3a/3x3"
  param {
    lr_mult: 1
    decay_mult: 1
  }
  param {
    lr_mult: 2
    decay_mult: 0
  }
  convolution_param {
    num_output: 128
    pad: 1
    kernel_size: 3
    weight_filler {
      type: "xavier"
      std: 0.03
    }
    bias_filler {
      type: "constant"
      value: 0.2
    }
  }
}
layer {
  name: "inception_3a/relu_3x3"
  type: "ReLU"
  bottom: "inception_3a/3x3"
  top: "inception_3a/3x3"
}
layer {
  name: "inception_3a/5x5_reduce"
  type: "Convolution"
  bottom: "pool2/3x3_s2"
  top: "inception_3a/5x5_reduce"
  param {
    lr_mult: 1
    decay_mult: 1
  }
  param {
    lr_mult: 2
    decay_mult: 0
  }
  convolution_param {
    num_output: 16
    kernel_size: 1
    weight_filler {
      type: "xavier"
      std: 0.2
    }
    bias_filler {
      type: "constant"
      value: 0.2
    }
  }
}
layer {
  name: "inception_3a/relu_5x5_reduce"
  type: "ReLU"
  bottom: "inception_3a/5x5_reduce"
  top: "inception_3a/5x5_reduce"
}
layer {
  name: "inception_3a/5x5"
  type: "Convolution"
  bottom: "inception_3a/5x5_reduce"
  top: "inception_3a/5x5"
  param {
    lr_mult: 1
    decay_mult: 1
  }
  param {
    lr_mult: 2
    decay_mult: 0
  }
  convolution_param {
    num_output: 32
    pad: 2
    kernel_size: 5
    weight_filler {
      type: "xavier"
      std: 0.03
    }
    bias_filler {
      type: "constant"
      value: 0.2
    }
  }
}
layer {
  name: "inception_3a/relu_5x5"
  type: "ReLU"
  bottom: "inception_3a/5x5"
  top: "inception_3a/5x5"
}
layer {
  name: "inception_3a/pool"
  type: "Pooling"
  bottom: "pool2/3x3_s2"
  top: "inception_3a/pool"
  pooling_param {
    pool: MAX
    kernel_size: 3
    stride: 1
    pad: 1
  }
}
layer {
  name: "inception_3a/pool_proj"
  type: "Convolution"
  bottom: "inception_3a/pool"
  top: "inception_3a/pool_proj"
  param {
    lr_mult: 1
    decay_mult: 1
  }
  param {
    lr_mult: 2
    decay_mult: 0
  }
  convolution_param {
    num_output: 32
    kernel_size: 1
    weight_filler {
      type: "xavier"
      std: 0.1
    }
    bias_filler {
      type: "constant"
      value: 0.2
    }
  }
}
layer {
  name: "inception_3a/relu_pool_proj"
  type: "ReLU"
  bottom: "inception_3a/pool_proj"
  top: "inception_3a/pool_proj"
}
layer {
  name: "inception_3a/output"
  type: "Concat"
  bottom: "inception_3a/1x1"
  bottom: "inception_3a/3x3"
  bottom: "inception_3a/5x5"
  bottom: "inception_3a/pool_proj"
  top: "inception_3a/output"
}
layer {
  name: "inception_3b/1x1"
  type: "Convolution"
  bottom: "inception_3a/output"
  top: "inception_3b/1x1"
  param {
    lr_mult: 1
    decay_mult: 1
  }
  param {
    lr_mult: 2
    decay_mult: 0
  }
  convolution_param {
    num_output: 128
    kernel_size: 1
    weight_filler {
      type: "xavier"
      std: 0.03
    }
    bias_filler {
      type: "constant"
      value: 0.2
    }
  }
}
layer {
  name: "inception_3b/relu_1x1"
  type: "ReLU"
  bottom: "inception_3b/1x1"
  top: "inception_3b/1x1"
}
layer {
  name: "inception_3b/3x3_reduce"
  type: "Convolution"
  bottom: "inception_3a/output"
  top: "inception_3b/3x3_reduce"
  param {
    lr_mult: 1
    decay_mult: 1
  }
  param {
    lr_mult: 2
    decay_mult: 0
  }
  convolution_param {
    num_output: 128
    kernel_size: 1
    weight_filler {
      type: "xavier"
      std: 0.09
    }
    bias_filler {
      type: "constant"
      value: 0.2
    }
  }
}
layer {
  name: "inception_3b/relu_3x3_reduce"
  type: "ReLU"
  bottom: "inception_3b/3x3_reduce"
  top: "inception_3b/3x3_reduce"
}
layer {
  name: "inception_3b/3x3"
  type: "Convolution"
  bottom: "inception_3b/3x3_reduce"
  top: "inception_3b/3x3"
  param {
    lr_mult: 1
    decay_mult: 1
  }
  param {
    lr_mult: 2
    decay_mult: 0
  }
  convolution_param {
    num_output: 192
    pad: 1
    kernel_size: 3
    weight_filler {
      type: "xavier"
      std: 0.03
    }
    bias_filler {
      type: "constant"
      value: 0.2
    }
  }
}
layer {
  name: "inception_3b/relu_3x3"
  type: "ReLU"
  bottom: "inception_3b/3x3"
  top: "inception_3b/3x3"
}
layer {
  name: "inception_3b/5x5_reduce"
  type: "Convolution"
  bottom: "inception_3a/output"
  top: "inception_3b/5x5_reduce"
  param {
    lr_mult: 1
    decay_mult: 1
  }
  param {
    lr_mult: 2
    decay_mult: 0
  }
  convolution_param {
    num_output: 32
    kernel_size: 1
    weight_filler {
      type: "xavier"
      std: 0.2
    }
    bias_filler {
      type: "constant"
      value: 0.2
    }
  }
}
layer {
  name: "inception_3b/relu_5x5_reduce"
  type: "ReLU"
  bottom: "inception_3b/5x5_reduce"
  top: "inception_3b/5x5_reduce"
}
layer {
  name: "inception_3b/5x5"
  type: "Convolution"
  bottom: "inception_3b/5x5_reduce"
  top: "inception_3b/5x5"
  param {
    lr_mult: 1
    decay_mult: 1
  }
  param {
    lr_mult: 2
    decay_mult: 0
  }
  convolution_param {
    num_output: 96
    pad: 2
    kernel_size: 5
    weight_filler {
      type: "xavier"
      std: 0.03
    }
    bias_filler {
      type: "constant"
      value: 0.2
    }
  }
}
layer {
  name: "inception_3b/relu_5x5"
  type: "ReLU"
  bottom: "inception_3b/5x5"
  top: "inception_3b/5x5"
}
layer {
  name: "inception_3b/pool"
  type: "Pooling"
  bottom: "inception_3a/output"
  top: "inception_3b/pool"
  pooling_param {
    pool: MAX
    kernel_size: 3
    stride: 1
    pad: 1
  }
}
layer {
  name: "inception_3b/pool_proj"
  type: "Convolution"
  bottom: "inception_3b/pool"
  top: "inception_3b/pool_proj"
  param {
    lr_mult: 1
    decay_mult: 1
  }
  param {
    lr_mult: 2
    decay_mult: 0
  }
  convolution_param {
    num_output: 64
    kernel_size: 1
    weight_filler {
      type: "xavier"
      std: 0.1
    }
    bias_filler {
      type: "constant"
      value: 0.2
    }
  }
}
layer {
  name: "inception_3b/relu_pool_proj"
  type: "ReLU"
  bottom: "inception_3b/pool_proj"
  top: "inception_3b/pool_proj"
}
layer {
  name: "inception_3b/output"
  type: "Concat"
  bottom: "inception_3b/1x1"
  bottom: "inception_3b/3x3"
  bottom: "inception_3b/5x5"
  bottom: "inception_3b/pool_proj"
  top: "inception_3b/output"
}
layer {
  name: "pool3/3x3_s2"
  type: "Pooling"
  bottom: "inception_3b/output"
  top: "pool3/3x3_s2"
  pooling_param {
    pool: MAX
    kernel_size: 3
    stride: 2
  }
}
layer {
  name: "inception_4a/1x1"
  type: "Convolution"
  bottom: "pool3/3x3_s2"
  top: "inception_4a/1x1"
  param {
    lr_mult: 1
    decay_mult: 1
  }
  param {
    lr_mult: 2
    decay_mult: 0
  }
  convolution_param {
    num_output: 192
    kernel_size: 1
    weight_filler {
      type: "xavier"
      std: 0.03
    }
    bias_filler {
      type: "constant"
      value: 0.2
    }
  }
}
layer {
  name: "inception_4a/relu_1x1"
  type: "ReLU"
  bottom: "inception_4a/1x1"
  top: "inception_4a/1x1"
}
layer {
  name: "inception_4a/3x3_reduce"
  type: "Convolution"
  bottom: "pool3/3x3_s2"
  top: "inception_4a/3x3_reduce"
  param {
    lr_mult: 1
    decay_mult: 1
  }
  param {
    lr_mult: 2
    decay_mult: 0
  }
  convolution_param {
    num_output: 96
    kernel_size: 1
    weight_filler {
      type: "xavier"
      std: 0.09
    }
    bias_filler {
      type: "constant"
      value: 0.2
    }
  }
}
layer {
  name: "inception_4a/relu_3x3_reduce"
  type: "ReLU"
  bottom: "inception_4a/3x3_reduce"
  top: "inception_4a/3x3_reduce"
}
layer {
  name: "inception_4a/3x3"
  type: "Convolution"
  bottom: "inception_4a/3x3_reduce"
  top: "inception_4a/3x3"
  param {
    lr_mult: 1
    decay_mult: 1
  }
  param {
    lr_mult: 2
    decay_mult: 0
  }
  convolution_param {
    num_output: 208
    pad: 1
    kernel_size: 3
    weight_filler {
      type: "xavier"
      std: 0.03
    }
    bias_filler {
      type: "constant"
      value: 0.2
    }
  }
}
layer {
  name: "inception_4a/relu_3x3"
  type: "ReLU"
  bottom: "inception_4a/3x3"
  top: "inception_4a/3x3"
}
layer {
  name: "inception_4a/5x5_reduce"
  type: "Convolution"
  bottom: "pool3/3x3_s2"
  top: "inception_4a/5x5_reduce"
  param {
    lr_mult: 1
    decay_mult: 1
  }
  param {
    lr_mult: 2
    decay_mult: 0
  }
  convolution_param {
    num_output: 16
    kernel_size: 1
    weight_filler {
      type: "xavier"
      std: 0.2
    }
    bias_filler {
      type: "constant"
      value: 0.2
    }
  }
}
layer {
  name: "inception_4a/relu_5x5_reduce"
  type: "ReLU"
  bottom: "inception_4a/5x5_reduce"
  top: "inception_4a/5x5_reduce"
}
layer {
  name: "inception_4a/5x5"
  type: "Convolution"
  bottom: "inception_4a/5x5_reduce"
  top: "inception_4a/5x5"
  param {
    lr_mult: 1
    decay_mult: 1
  }
  param {
    lr_mult: 2
    decay_mult: 0
  }
  convolution_param {
    num_output: 48
    pad: 2
    kernel_size: 5
    weight_filler {
      type: "xavier"
      std: 0.03
    }
    bias_filler {
      type: "constant"
      value: 0.2
    }
  }
}
layer {
  name: "inception_4a/relu_5x5"
  type: "ReLU"
  bottom: "inception_4a/5x5"
  top: "inception_4a/5x5"
}
layer {
  name: "inception_4a/pool"
  type: "Pooling"
  bottom: "pool3/3x3_s2"
  top: "inception_4a/pool"
  pooling_param {
    pool: MAX
    kernel_size: 3
    stride: 1
    pad: 1
  }
}
layer {
  name: "inception_4a/pool_proj"
  type: "Convolution"
  bottom: "inception_4a/pool"
  top: "inception_4a/pool_proj"
  param {
    lr_mult: 1
    decay_mult: 1
  }
  param {
    lr_mult: 2
    decay_mult: 0
  }
  convolution_param {
    num_output: 64
    kernel_size: 1
    weight_filler {
      type: "xavier"
      std: 0.1
    }
    bias_filler {
      type: "constant"
      value: 0.2
    }
  }
}
layer {
  name: "inception_4a/relu_pool_proj"
  type: "ReLU"
  bottom: "inception_4a/pool_proj"
  top: "inception_4a/pool_proj"
}
layer {
  name: "inception_4a/output"
  type: "Concat"
  bottom: "inception_4a/1x1"
  bottom: "inception_4a/3x3"
  bottom: "inception_4a/5x5"
  bottom: "inception_4a/pool_proj"
  top: "inception_4a/output"
}
layer {
  name: "loss1/ave_pool"
  type: "Pooling"
  bottom: "inception_4a/output"
  top: "loss1/ave_pool"
  pooling_param {
    pool: AVE
    kernel_size: 5
    stride: 3
  }
}
layer {
  name: "loss1/conv"
  type: "Convolution"
  bottom: "loss1/ave_pool"
  top: "loss1/conv"
  param {
    lr_mult: 1
    decay_mult: 1
  }
  param {
    lr_mult: 2
    decay_mult: 0
  }
  convolution_param {
    num_output: 128
    kernel_size: 1
    weight_filler {
      type: "xavier"
      std: 0.08
    }
    bias_filler {
      type: "constant"
      value: 0.2
    }
  }
}
layer {
  name: "loss1/relu_conv"
  type: "ReLU"
  bottom: "loss1/conv"
  top: "loss1/conv"
}
layer {
  name: "loss1/fc"
  type: "InnerProduct"
  bottom: "loss1/conv"
  top: "loss1/fc"
  param {
    lr_mult: 1
    decay_mult: 1
  }
  param {
    lr_mult: 2
    decay_mult: 0
  }
  inner_product_param {
    num_output: 1024
    weight_filler {
      type: "xavier"
      std: 0.02
    }
    bias_filler {
      type: "constant"
      value: 0.2
    }
  }
}
layer {
  name: "loss1/relu_fc"
  type: "ReLU"
  bottom: "loss1/fc"
  top: "loss1/fc"
}
layer {
  name: "loss1/drop_fc"
  type: "Dropout"
  bottom: "loss1/fc"
  top: "loss1/fc"
  dropout_param {
    dropout_ratio: 0.7
  }
}
layer {
  name: "loss1/classifier_plantvillage"
  type: "InnerProduct"
  bottom: "loss1/fc"
  top: "loss1/classifier_plantvillage"
  param {
    lr_mult: 1
    decay_mult: 1
  }
  param {
    lr_mult: 2
    decay_mult: 0
  }
  inner_product_param {
    num_output: 38
    weight_filler {
      type: "xavier"
      std: 0.0009765625
    }
    bias_filler {
      type: "constant"
      value: 0
    }
  }
}
layer {
  name: "inception_4b/1x1"
  type: "Convolution"
  bottom: "inception_4a/output"
  top: "inception_4b/1x1"
  param {
    lr_mult: 1
    decay_mult: 1
  }
  param {
    lr_mult: 2
    decay_mult: 0
  }
  convolution_param {
    num_output: 160
    kernel_size: 1
    weight_filler {
      type: "xavier"
      std: 0.03
    }
    bias_filler {
      type: "constant"
      value: 0.2
    }
  }
}
layer {
  name: "inception_4b/relu_1x1"
  type: "ReLU"
  bottom: "inception_4b/1x1"
  top: "inception_4b/1x1"
}
layer {
  name: "inception_4b/3x3_reduce"
  type: "Convolution"
  bottom: "inception_4a/output"
  top: "inception_4b/3x3_reduce"
  param {
    lr_mult: 1
    decay_mult: 1
  }
  param {
    lr_mult: 2
    decay_mult: 0
  }
  convolution_param {
    num_output: 112
    kernel_size: 1
    weight_filler {
      type: "xavier"
      std: 0.09
    }
    bias_filler {
      type: "constant"
      value: 0.2
    }
  }
}
layer {
  name: "inception_4b/relu_3x3_reduce"
  type: "ReLU"
  bottom: "inception_4b/3x3_reduce"
  top: "inception_4b/3x3_reduce"
}
layer {
  name: "inception_4b/3x3"
  type: "Convolution"
  bottom: "inception_4b/3x3_reduce"
  top: "inception_4b/3x3"
  param {
    lr_mult: 1
    decay_mult: 1
  }
  param {
    lr_mult: 2
    decay_mult: 0
  }
  convolution_param {
    num_output: 224
    pad: 1
    kernel_size: 3
    weight_filler {
      type: "xavier"
      std: 0.03
    }
    bias_filler {
      type: "constant"
      value: 0.2
    }
  }
}
layer {
  name: "inception_4b/relu_3x3"
  type: "ReLU"
  bottom: "inception_4b/3x3"
  top: "inception_4b/3x3"
}
layer {
  name: "inception_4b/5x5_reduce"
  type: "Convolution"
  bottom: "inception_4a/output"
  top: "inception_4b/5x5_reduce"
  param {
    lr_mult: 1
    decay_mult: 1
  }
  param {
    lr_mult: 2
    decay_mult: 0
  }
  convolution_param {
    num_output: 24
    kernel_size: 1
    weight_filler {
      type: "xavier"
      std: 0.2
    }
    bias_filler {
      type: "constant"
      value: 0.2
    }
  }
}
layer {
  name: "inception_4b/relu_5x5_reduce"
  type: "ReLU"
  bottom: "inception_4b/5x5_reduce"
  top: "inception_4b/5x5_reduce"
}
layer {
  name: "inception_4b/5x5"
  type: "Convolution"
  bottom: "inception_4b/5x5_reduce"
  top: "inception_4b/5x5"
  param {
    lr_mult: 1
    decay_mult: 1
  }
  param {
    lr_mult: 2
    decay_mult: 0
  }
  convolution_param {
    num_output: 64
    pad: 2
    kernel_size: 5
    weight_filler {
      type: "xavier"
      std: 0.03
    }
    bias_filler {
      type: "constant"
      value: 0.2
    }
  }
}
layer {
  name: "inception_4b/relu_5x5"
  type: "ReLU"
  bottom: "inception_4b/5x5"
  top: "inception_4b/5x5"
}
layer {
  name: "inception_4b/pool"
  type: "Pooling"
  bottom: "inception_4a/output"
  top: "inception_4b/pool"
  pooling_param {
    pool: MAX
    kernel_size: 3
    stride: 1
    pad: 1
  }
}
layer {
  name: "inception_4b/pool_proj"
  type: "Convolution"
  bottom: "inception_4b/pool"
  top: "inception_4b/pool_proj"
  param {
    lr_mult: 1
    decay_mult: 1
  }
  param {
    lr_mult: 2
    decay_mult: 0
  }
  convolution_param {
    num_output: 64
    kernel_size: 1
    weight_filler {
      type: "xavier"
      std: 0.1
    }
    bias_filler {
      type: "constant"
      value: 0.2
    }
  }
}
layer {
  name: "inception_4b/relu_pool_proj"
  type: "ReLU"
  bottom: "inception_4b/pool_proj"
  top: "inception_4b/pool_proj"
}
layer {
  name: "inception_4b/output"
  type: "Concat"
  bottom: "inception_4b/1x1"
  bottom: "inception_4b/3x3"
  bottom: "inception_4b/5x5"
  bottom: "inception_4b/pool_proj"
  top: "inception_4b/output"
}
layer {
  name: "inception_4c/1x1"
  type: "Convolution"
  bottom: "inception_4b/output"
  top: "inception_4c/1x1"
  param {
    lr_mult: 1
    decay_mult: 1
  }
  param {
    lr_mult: 2
    decay_mult: 0
  }
  convolution_param {
    num_output: 128
    kernel_size: 1
    weight_filler {
      type: "xavier"
      std: 0.03
    }
    bias_filler {
      type: "constant"
      value: 0.2
    }
  }
}
layer {
  name: "inception_4c/relu_1x1"
  type: "ReLU"
  bottom: "inception_4c/1x1"
  top: "inception_4c/1x1"
}
layer {
  name: "inception_4c/3x3_reduce"
  type: "Convolution"
  bottom: "inception_4b/output"
  top: "inception_4c/3x3_reduce"
  param {
    lr_mult: 1
    decay_mult: 1
  }
  param {
    lr_mult: 2
    decay_mult: 0
  }
  convolution_param {
    num_output: 128
    kernel_size: 1
    weight_filler {
      type: "xavier"
      std: 0.09
    }
    bias_filler {
      type: "constant"
      value: 0.2
    }
  }
}
layer {
  name: "inception_4c/relu_3x3_reduce"
  type: "ReLU"
  bottom: "inception_4c/3x3_reduce"
  top: "inception_4c/3x3_reduce"
}
layer {
  name: "inception_4c/3x3"
  type: "Convolution"
  bottom: "inception_4c/3x3_reduce"
  top: "inception_4c/3x3"
  param {
    lr_mult: 1
    decay_mult: 1
  }
  param {
    lr_mult: 2
    decay_mult: 0
  }
  convolution_param {
    num_output: 256
    pad: 1
    kernel_size: 3
    weight_filler {
      type: "xavier"
      std: 0.03
    }
    bias_filler {
      type: "constant"
      value: 0.2
    }
  }
}
layer {
  name: "inception_4c/relu_3x3"
  type: "ReLU"
  bottom: "inception_4c/3x3"
  top: "inception_4c/3x3"
}
layer {
  name: "inception_4c/5x5_reduce"
  type: "Convolution"
  bottom: "inception_4b/output"
  top: "inception_4c/5x5_reduce"
  param {
    lr_mult: 1
    decay_mult: 1
  }
  param {
    lr_mult: 2
    decay_mult: 0
  }
  convolution_param {
    num_output: 24
    kernel_size: 1
    weight_filler {
      type: "xavier"
      std: 0.2
    }
    bias_filler {
      type: "constant"
      value: 0.2
    }
  }
}
layer {
  name: "inception_4c/relu_5x5_reduce"
  type: "ReLU"
  bottom: "inception_4c/5x5_reduce"
  top: "inception_4c/5x5_reduce"
}
layer {
  name: "inception_4c/5x5"
  type: "Convolution"
  bottom: "inception_4c/5x5_reduce"
  top: "inception_4c/5x5"
  param {
    lr_mult: 1
    decay_mult: 1
  }
  param {
    lr_mult: 2
    decay_mult: 0
  }
  convolution_param {
    num_output: 64
    pad: 2
    kernel_size: 5
    weight_filler {
      type: "xavier"
      std: 0.03
    }
    bias_filler {
      type: "constant"
      value: 0.2
    }
  }
}
layer {
  name: "inception_4c/relu_5x5"
  type: "ReLU"
  bottom: "inception_4c/5x5"
  top: "inception_4c/5x5"
}
layer {
  name: "inception_4c/pool"
  type: "Pooling"
  bottom: "inception_4b/output"
  top: "inception_4c/pool"
  pooling_param {
    pool: MAX
    kernel_size: 3
    stride: 1
    pad: 1
  }
}
layer {
  name: "inception_4c/pool_proj"
  type: "Convolution"
  bottom: "inception_4c/pool"
  top: "inception_4c/pool_proj"
  param {
    lr_mult: 1
    decay_mult: 1
  }
  param {
    lr_mult: 2
    decay_mult: 0
  }
  convolution_param {
    num_output: 64
    kernel_size: 1
    weight_filler {
      type: "xavier"
      std: 0.1
    }
    bias_filler {
      type: "constant"
      value: 0.2
    }
  }
}
layer {
  name: "inception_4c/relu_pool_proj"
  type: "ReLU"
  bottom: "inception_4c/pool_proj"
  top: "inception_4c/pool_proj"
}
layer {
  name: "inception_4c/output"
  type: "Concat"
  bottom: "inception_4c/1x1"
  bottom: "inception_4c/3x3"
  bottom: "inception_4c/5x5"
  bottom: "inception_4c/pool_proj"
  top: "inception_4c/output"
}
layer {
  name: "inception_4d/1x1"
  type: "Convolution"
  bottom: "inception_4c/output"
  top: "inception_4d/1x1"
  param {
    lr_mult: 1
    decay_mult: 1
  }
  param {
    lr_mult: 2
    decay_mult: 0
  }
  convolution_param {
    num_output: 112
    kernel_size: 1
    weight_filler {
      type: "xavier"
      std: 0.03
    }
    bias_filler {
      type: "constant"
      value: 0.2
    }
  }
}
layer {
  name: "inception_4d/relu_1x1"
  type: "ReLU"
  bottom: "inception_4d/1x1"
  top: "inception_4d/1x1"
}
layer {
  name: "inception_4d/3x3_reduce"
  type: "Convolution"
  bottom: "inception_4c/output"
  top: "inception_4d/3x3_reduce"
  param {
    lr_mult: 1
    decay_mult: 1
  }
  param {
    lr_mult: 2
    decay_mult: 0
  }
  convolution_param {
    num_output: 144
    kernel_size: 1
    weight_filler {
      type: "xavier"
      std: 0.09
    }
    bias_filler {
      type: "constant"
      value: 0.2
    }
  }
}
layer {
  name: "inception_4d/relu_3x3_reduce"
  type: "ReLU"
  bottom: "inception_4d/3x3_reduce"
  top: "inception_4d/3x3_reduce"
}
layer {
  name: "inception_4d/3x3"
  type: "Convolution"
  bottom: "inception_4d/3x3_reduce"
  top: "inception_4d/3x3"
  param {
    lr_mult: 1
    decay_mult: 1
  }
  param {
    lr_mult: 2
    decay_mult: 0
  }
  convolution_param {
    num_output: 288
    pad: 1
    kernel_size: 3
    weight_filler {
      type: "xavier"
      std: 0.03
    }
    bias_filler {
      type: "constant"
      value: 0.2
    }
  }
}
layer {
  name: "inception_4d/relu_3x3"
  type: "ReLU"
  bottom: "inception_4d/3x3"
  top: "inception_4d/3x3"
}
layer {
  name: "inception_4d/5x5_reduce"
  type: "Convolution"
  bottom: "inception_4c/output"
  top: "inception_4d/5x5_reduce"
  param {
    lr_mult: 1
    decay_mult: 1
  }
  param {
    lr_mult: 2
    decay_mult: 0
  }
  convolution_param {
    num_output: 32
    kernel_size: 1
    weight_filler {
      type: "xavier"
      std: 0.2
    }
    bias_filler {
      type: "constant"
      value: 0.2
    }
  }
}
layer {
  name: "inception_4d/relu_5x5_reduce"
  type: "ReLU"
  bottom: "inception_4d/5x5_reduce"
  top: "inception_4d/5x5_reduce"
}
layer {
  name: "inception_4d/5x5"
  type: "Convolution"
  bottom: "inception_4d/5x5_reduce"
  top: "inception_4d/5x5"
  param {
    lr_mult: 1
    decay_mult: 1
  }
  param {
    lr_mult: 2
    decay_mult: 0
  }
  convolution_param {
    num_output: 64
    pad: 2
    kernel_size: 5
    weight_filler {
      type: "xavier"
      std: 0.03
    }
    bias_filler {
      type: "constant"
      value: 0.2
    }
  }
}
layer {
  name: "inception_4d/relu_5x5"
  type: "ReLU"
  bottom: "inception_4d/5x5"
  top: "inception_4d/5x5"
}
layer {
  name: "inception_4d/pool"
  type: "Pooling"
  bottom: "inception_4c/output"
  top: "inception_4d/pool"
  pooling_param {
    pool: MAX
    kernel_size: 3
    stride: 1
    pad: 1
  }
}
layer {
  name: "inception_4d/pool_proj"
  type: "Convolution"
  bottom: "inception_4d/pool"
  top: "inception_4d/pool_proj"
  param {
    lr_mult: 1
    decay_mult: 1
  }
  param {
    lr_mult: 2
    decay_mult: 0
  }
  convolution_param {
    num_output: 64
    kernel_size: 1
    weight_filler {
      type: "xavier"
      std: 0.1
    }
    bias_filler {
      type: "constant"
      value: 0.2
    }
  }
}
layer {
  name: "inception_4d/relu_pool_proj"
  type: "ReLU"
  bottom: "inception_4d/pool_proj"
  top: "inception_4d/pool_proj"
}
layer {
  name: "inception_4d/output"
  type: "Concat"
  bottom: "inception_4d/1x1"
  bottom: "inception_4d/3x3"
  bottom: "inception_4d/5x5"
  bottom: "inception_4d/pool_proj"
  top: "inception_4d/output"
}
layer {
  name: "loss2/ave_pool"
  type: "Pooling"
  bottom: "inception_4d/output"
  top: "loss2/ave_pool"
  pooling_param {
    pool: AVE
    kernel_size: 5
    stride: 3
  }
}
layer {
  name: "loss2/conv"
  type: "Convolution"
  bottom: "loss2/ave_pool"
  top: "loss2/conv"
  param {
    lr_mult: 1
    decay_mult: 1
  }
  param {
    lr_mult: 2
    decay_mult: 0
  }
  convolution_param {
    num_output: 128
    kernel_size: 1
    weight_filler {
      type: "xavier"
      std: 0.08
    }
    bias_filler {
      type: "constant"
      value: 0.2
    }
  }
}
layer {
  name: "loss2/relu_conv"
  type: "ReLU"
  bottom: "loss2/conv"
  top: "loss2/conv"
}
layer {
  name: "loss2/fc"
  type: "InnerProduct"
  bottom: "loss2/conv"
  top: "loss2/fc"
  param {
    lr_mult: 1
    decay_mult: 1
  }
  param {
    lr_mult: 2
    decay_mult: 0
  }
  inner_product_param {
    num_output: 1024
    weight_filler {
      type: "xavier"
      std: 0.02
    }
    bias_filler {
      type: "constant"
      value: 0.2
    }
  }
}
layer {
  name: "loss2/relu_fc"
  type: "ReLU"
  bottom: "loss2/fc"
  top: "loss2/fc"
}
layer {
  name: "loss2/drop_fc"
  type: "Dropout"
  bottom: "loss2/fc"
  top: "loss2/fc"
  dropout_param {
    dropout_ratio: 0.7
  }
}
layer {
  name: "loss2/classifier_plantvillage"
  type: "InnerProduct"
  bottom: "loss2/fc"
  top: "loss2/classifier_plantvillage"
  param {
    lr_mult: 1
    decay_mult: 1
  }
  param {
    lr_mult: 2
    decay_mult: 0
  }
  inner_product_param {
    num_output: 38
    weight_filler {
      type: "xavier"
      std: 0.0009765625
    }
    bias_filler {
      type: "constant"
      value: 0
    }
  }
}
layer {
  name: "inception_4e/1x1"
  type: "Convolution"
  bottom: "inception_4d/output"
  top: "inception_4e/1x1"
  param {
    lr_mult: 1
    decay_mult: 1
  }
  param {
    lr_mult: 2
    decay_mult: 0
  }
  convolution_param {
    num_output: 256
    kernel_size: 1
    weight_filler {
      type: "xavier"
      std: 0.03
    }
    bias_filler {
      type: "constant"
      value: 0.2
    }
  }
}
layer {
  name: "inception_4e/relu_1x1"
  type: "ReLU"
  bottom: "inception_4e/1x1"
  top: "inception_4e/1x1"
}
layer {
  name: "inception_4e/3x3_reduce"
  type: "Convolution"
  bottom: "inception_4d/output"
  top: "inception_4e/3x3_reduce"
  param {
    lr_mult: 1
    decay_mult: 1
  }
  param {
    lr_mult: 2
    decay_mult: 0
  }
  convolution_param {
    num_output: 160
    kernel_size: 1
    weight_filler {
      type: "xavier"
      std: 0.09
    }
    bias_filler {
      type: "constant"
      value: 0.2
    }
  }
}
layer {
  name: "inception_4e/relu_3x3_reduce"
  type: "ReLU"
  bottom: "inception_4e/3x3_reduce"
  top: "inception_4e/3x3_reduce"
}
layer {
  name: "inception_4e/3x3"
  type: "Convolution"
  bottom: "inception_4e/3x3_reduce"
  top: "inception_4e/3x3"
  param {
    lr_mult: 1
    decay_mult: 1
  }
  param {
    lr_mult: 2
    decay_mult: 0
  }
  convolution_param {
    num_output: 320
    pad: 1
    kernel_size: 3
    weight_filler {
      type: "xavier"
      std: 0.03
    }
    bias_filler {
      type: "constant"
      value: 0.2
    }
  }
}
layer {
  name: "inception_4e/relu_3x3"
  type: "ReLU"
  bottom: "inception_4e/3x3"
  top: "inception_4e/3x3"
}
layer {
  name: "inception_4e/5x5_reduce"
  type: "Convolution"
  bottom: "inception_4d/output"
  top: "inception_4e/5x5_reduce"
  param {
    lr_mult: 1
    decay_mult: 1
  }
  param {
    lr_mult: 2
    decay_mult: 0
  }
  convolution_param {
    num_output: 32
    kernel_size: 1
    weight_filler {
      type: "xavier"
      std: 0.2
    }
    bias_filler {
      type: "constant"
      value: 0.2
    }
  }
}
layer {
  name: "inception_4e/relu_5x5_reduce"
  type: "ReLU"
  bottom: "inception_4e/5x5_reduce"
  top: "inception_4e/5x5_reduce"
}
layer {
  name: "inception_4e/5x5"
  type: "Convolution"
  bottom: "inception_4e/5x5_reduce"
  top: "inception_4e/
I0403 18:20:36.116875  6833 layer_factory.hpp:77] Creating layer data
I0403 18:20:36.117508  6833 net.cpp:91] Creating Layer data
I0403 18:20:36.117539  6833 net.cpp:399] data -> data
I0403 18:20:36.117594  6833 net.cpp:399] data -> label
I0403 18:20:36.117631  6833 data_transformer.cpp:25] Loading mean file from: /home/mohanty/data/final_dataset/lmdb/grayscale-40-60/mean.binaryproto
I0403 18:20:36.118710  6845 db_lmdb.cpp:38] Opened lmdb /home/mohanty/data/final_dataset/lmdb/grayscale-40-60/test_db
I0403 18:20:36.131726  6833 data_layer.cpp:41] output data size: 24,3,224,224
I0403 18:20:36.161330  6833 net.cpp:141] Setting up data
I0403 18:20:36.161392  6833 net.cpp:148] Top shape: 24 3 224 224 (3612672)
I0403 18:20:36.161415  6833 net.cpp:148] Top shape: 24 (24)
I0403 18:20:36.161430  6833 net.cpp:156] Memory required for data: 14450784
I0403 18:20:36.161458  6833 layer_factory.hpp:77] Creating layer label_data_1_split
I0403 18:20:36.161484  6833 net.cpp:91] Creating Layer label_data_1_split
I0403 18:20:36.161502  6833 net.cpp:425] label_data_1_split <- label
I0403 18:20:36.161535  6833 net.cpp:399] label_data_1_split -> label_data_1_split_0
I0403 18:20:36.161562  6833 net.cpp:399] label_data_1_split -> label_data_1_split_1
I0403 18:20:36.161584  6833 net.cpp:399] label_data_1_split -> label_data_1_split_2
I0403 18:20:36.161605  6833 net.cpp:399] label_data_1_split -> label_data_1_split_3
I0403 18:20:36.161625  6833 net.cpp:399] label_data_1_split -> label_data_1_split_4
I0403 18:20:36.161645  6833 net.cpp:399] label_data_1_split -> label_data_1_split_5
I0403 18:20:36.161665  6833 net.cpp:399] label_data_1_split -> label_data_1_split_6
I0403 18:20:36.161685  6833 net.cpp:399] label_data_1_split -> label_data_1_split_7
I0403 18:20:36.161706  6833 net.cpp:399] label_data_1_split -> label_data_1_split_8
I0403 18:20:36.161726  6833 net.cpp:399] label_data_1_split -> label_data_1_split_9
I0403 18:20:36.161849  6833 net.cpp:141] Setting up label_data_1_split
I0403 18:20:36.161871  6833 net.cpp:148] Top shape: 24 (24)
I0403 18:20:36.161888  6833 net.cpp:148] Top shape: 24 (24)
I0403 18:20:36.161905  6833 net.cpp:148] Top shape: 24 (24)
I0403 18:20:36.161921  6833 net.cpp:148] Top shape: 24 (24)
I0403 18:20:36.161937  6833 net.cpp:148] Top shape: 24 (24)
I0403 18:20:36.161953  6833 net.cpp:148] Top shape: 24 (24)
I0403 18:20:36.161969  6833 net.cpp:148] Top shape: 24 (24)
I0403 18:20:36.161985  6833 net.cpp:148] Top shape: 24 (24)
I0403 18:20:36.162001  6833 net.cpp:148] Top shape: 24 (24)
I0403 18:20:36.162020  6833 net.cpp:148] Top shape: 24 (24)
I0403 18:20:36.162055  6833 net.cpp:156] Memory required for data: 14451744
I0403 18:20:36.162071  6833 layer_factory.hpp:77] Creating layer conv1/7x7_s2
I0403 18:20:36.162104  6833 net.cpp:91] Creating Layer conv1/7x7_s2
I0403 18:20:36.162124  6833 net.cpp:425] conv1/7x7_s2 <- data
I0403 18:20:36.162144  6833 net.cpp:399] conv1/7x7_s2 -> conv1/7x7_s2
I0403 18:20:36.303303  6833 net.cpp:141] Setting up conv1/7x7_s2
I0403 18:20:36.303416  6833 net.cpp:148] Top shape: 24 64 112 112 (19267584)
I0403 18:20:36.303432  6833 net.cpp:156] Memory required for data: 91522080
I0403 18:20:36.303463  6833 layer_factory.hpp:77] Creating layer conv1/relu_7x7
I0403 18:20:36.303504  6833 net.cpp:91] Creating Layer conv1/relu_7x7
I0403 18:20:36.303529  6833 net.cpp:425] conv1/relu_7x7 <- conv1/7x7_s2
I0403 18:20:36.303550  6833 net.cpp:386] conv1/relu_7x7 -> conv1/7x7_s2 (in-place)
I0403 18:20:36.303813  6833 net.cpp:141] Setting up conv1/relu_7x7
I0403 18:20:36.303841  6833 net.cpp:148] Top shape: 24 64 112 112 (19267584)
I0403 18:20:36.303856  6833 net.cpp:156] Memory required for data: 168592416
I0403 18:20:36.303874  6833 layer_factory.hpp:77] Creating layer pool1/3x3_s2
I0403 18:20:36.303900  6833 net.cpp:91] Creating Layer pool1/3x3_s2
I0403 18:20:36.303916  6833 net.cpp:425] pool1/3x3_s2 <- conv1/7x7_s2
I0403 18:20:36.303936  6833 net.cpp:399] pool1/3x3_s2 -> pool1/3x3_s2
I0403 18:20:36.304008  6833 net.cpp:141] Setting up pool1/3x3_s2
I0403 18:20:36.304033  6833 net.cpp:148] Top shape: 24 64 56 56 (4816896)
I0403 18:20:36.304047  6833 net.cpp:156] Memory required for data: 187860000
I0403 18:20:36.304062  6833 layer_factory.hpp:77] Creating layer pool1/norm1
I0403 18:20:36.304086  6833 net.cpp:91] Creating Layer pool1/norm1
I0403 18:20:36.304103  6833 net.cpp:425] pool1/norm1 <- pool1/3x3_s2
I0403 18:20:36.304121  6833 net.cpp:399] pool1/norm1 -> pool1/norm1
I0403 18:20:36.304424  6833 net.cpp:141] Setting up pool1/norm1
I0403 18:20:36.304451  6833 net.cpp:148] Top shape: 24 64 56 56 (4816896)
I0403 18:20:36.304466  6833 net.cpp:156] Memory required for data: 207127584
I0403 18:20:36.304481  6833 layer_factory.hpp:77] Creating layer conv2/3x3_reduce
I0403 18:20:36.304507  6833 net.cpp:91] Creating Layer conv2/3x3_reduce
I0403 18:20:36.304523  6833 net.cpp:425] conv2/3x3_reduce <- pool1/norm1
I0403 18:20:36.304543  6833 net.cpp:399] conv2/3x3_reduce -> conv2/3x3_reduce
I0403 18:20:36.305917  6833 net.cpp:141] Setting up conv2/3x3_reduce
I0403 18:20:36.305946  6833 net.cpp:148] Top shape: 24 64 56 56 (4816896)
I0403 18:20:36.305963  6833 net.cpp:156] Memory required for data: 226395168
I0403 18:20:36.305984  6833 layer_factory.hpp:77] Creating layer conv2/relu_3x3_reduce
I0403 18:20:36.306002  6833 net.cpp:91] Creating Layer conv2/relu_3x3_reduce
I0403 18:20:36.306020  6833 net.cpp:425] conv2/relu_3x3_reduce <- conv2/3x3_reduce
I0403 18:20:36.306035  6833 net.cpp:386] conv2/relu_3x3_reduce -> conv2/3x3_reduce (in-place)
I0403 18:20:36.306313  6833 net.cpp:141] Setting up conv2/relu_3x3_reduce
I0403 18:20:36.306340  6833 net.cpp:148] Top shape: 24 64 56 56 (4816896)
I0403 18:20:36.306356  6833 net.cpp:156] Memory required for data: 245662752
I0403 18:20:36.306371  6833 layer_factory.hpp:77] Creating layer conv2/3x3
I0403 18:20:36.306396  6833 net.cpp:91] Creating Layer conv2/3x3
I0403 18:20:36.306412  6833 net.cpp:425] conv2/3x3 <- conv2/3x3_reduce
I0403 18:20:36.306432  6833 net.cpp:399] conv2/3x3 -> conv2/3x3
I0403 18:20:36.308753  6833 net.cpp:141] Setting up conv2/3x3
I0403 18:20:36.308784  6833 net.cpp:148] Top shape: 24 192 56 56 (14450688)
I0403 18:20:36.308800  6833 net.cpp:156] Memory required for data: 303465504
I0403 18:20:36.308821  6833 layer_factory.hpp:77] Creating layer conv2/relu_3x3
I0403 18:20:36.308841  6833 net.cpp:91] Creating Layer conv2/relu_3x3
I0403 18:20:36.308857  6833 net.cpp:425] conv2/relu_3x3 <- conv2/3x3
I0403 18:20:36.308874  6833 net.cpp:386] conv2/relu_3x3 -> conv2/3x3 (in-place)
I0403 18:20:36.309041  6833 net.cpp:141] Setting up conv2/relu_3x3
I0403 18:20:36.309067  6833 net.cpp:148] Top shape: 24 192 56 56 (14450688)
I0403 18:20:36.309114  6833 net.cpp:156] Memory required for data: 361268256
I0403 18:20:36.309130  6833 layer_factory.hpp:77] Creating layer conv2/norm2
I0403 18:20:36.309149  6833 net.cpp:91] Creating Layer conv2/norm2
I0403 18:20:36.309166  6833 net.cpp:425] conv2/norm2 <- conv2/3x3
I0403 18:20:36.309183  6833 net.cpp:399] conv2/norm2 -> conv2/norm2
I0403 18:20:36.309484  6833 net.cpp:141] Setting up conv2/norm2
I0403 18:20:36.309512  6833 net.cpp:148] Top shape: 24 192 56 56 (14450688)
I0403 18:20:36.309527  6833 net.cpp:156] Memory required for data: 419071008
I0403 18:20:36.309543  6833 layer_factory.hpp:77] Creating layer pool2/3x3_s2
I0403 18:20:36.309564  6833 net.cpp:91] Creating Layer pool2/3x3_s2
I0403 18:20:36.309582  6833 net.cpp:425] pool2/3x3_s2 <- conv2/norm2
I0403 18:20:36.309600  6833 net.cpp:399] pool2/3x3_s2 -> pool2/3x3_s2
I0403 18:20:36.309654  6833 net.cpp:141] Setting up pool2/3x3_s2
I0403 18:20:36.309677  6833 net.cpp:148] Top shape: 24 192 28 28 (3612672)
I0403 18:20:36.309692  6833 net.cpp:156] Memory required for data: 433521696
I0403 18:20:36.309707  6833 layer_factory.hpp:77] Creating layer pool2/3x3_s2_pool2/3x3_s2_0_split
I0403 18:20:36.309730  6833 net.cpp:91] Creating Layer pool2/3x3_s2_pool2/3x3_s2_0_split
I0403 18:20:36.309746  6833 net.cpp:425] pool2/3x3_s2_pool2/3x3_s2_0_split <- pool2/3x3_s2
I0403 18:20:36.309762  6833 net.cpp:399] pool2/3x3_s2_pool2/3x3_s2_0_split -> pool2/3x3_s2_pool2/3x3_s2_0_split_0
I0403 18:20:36.309782  6833 net.cpp:399] pool2/3x3_s2_pool2/3x3_s2_0_split -> pool2/3x3_s2_pool2/3x3_s2_0_split_1
I0403 18:20:36.309803  6833 net.cpp:399] pool2/3x3_s2_pool2/3x3_s2_0_split -> pool2/3x3_s2_pool2/3x3_s2_0_split_2
I0403 18:20:36.309823  6833 net.cpp:399] pool2/3x3_s2_pool2/3x3_s2_0_split -> pool2/3x3_s2_pool2/3x3_s2_0_split_3
I0403 18:20:36.309895  6833 net.cpp:141] Setting up pool2/3x3_s2_pool2/3x3_s2_0_split
I0403 18:20:36.309917  6833 net.cpp:148] Top shape: 24 192 28 28 (3612672)
I0403 18:20:36.309934  6833 net.cpp:148] Top shape: 24 192 28 28 (3612672)
I0403 18:20:36.309950  6833 net.cpp:148] Top shape: 24 192 28 28 (3612672)
I0403 18:20:36.309967  6833 net.cpp:148] Top shape: 24 192 28 28 (3612672)
I0403 18:20:36.309981  6833 net.cpp:156] Memory required for data: 491324448
I0403 18:20:36.309996  6833 layer_factory.hpp:77] Creating layer inception_3a/1x1
I0403 18:20:36.310019  6833 net.cpp:91] Creating Layer inception_3a/1x1
I0403 18:20:36.310036  6833 net.cpp:425] inception_3a/1x1 <- pool2/3x3_s2_pool2/3x3_s2_0_split_0
I0403 18:20:36.310057  6833 net.cpp:399] inception_3a/1x1 -> inception_3a/1x1
I0403 18:20:36.311666  6833 net.cpp:141] Setting up inception_3a/1x1
I0403 18:20:36.311697  6833 net.cpp:148] Top shape: 24 64 28 28 (1204224)
I0403 18:20:36.311714  6833 net.cpp:156] Memory required for data: 496141344
I0403 18:20:36.311734  6833 layer_factory.hpp:77] Creating layer inception_3a/relu_1x1
I0403 18:20:36.311753  6833 net.cpp:91] Creating Layer inception_3a/relu_1x1
I0403 18:20:36.311769  6833 net.cpp:425] inception_3a/relu_1x1 <- inception_3a/1x1
I0403 18:20:36.311789  6833 net.cpp:386] inception_3a/relu_1x1 -> inception_3a/1x1 (in-place)
I0403 18:20:36.311972  6833 net.cpp:141] Setting up inception_3a/relu_1x1
I0403 18:20:36.311998  6833 net.cpp:148] Top shape: 24 64 28 28 (1204224)
I0403 18:20:36.312013  6833 net.cpp:156] Memory required for data: 500958240
I0403 18:20:36.312028  6833 layer_factory.hpp:77] Creating layer inception_3a/3x3_reduce
I0403 18:20:36.312052  6833 net.cpp:91] Creating Layer inception_3a/3x3_reduce
I0403 18:20:36.312069  6833 net.cpp:425] inception_3a/3x3_reduce <- pool2/3x3_s2_pool2/3x3_s2_0_split_1
I0403 18:20:36.312090  6833 net.cpp:399] inception_3a/3x3_reduce -> inception_3a/3x3_reduce
I0403 18:20:36.313886  6833 net.cpp:141] Setting up inception_3a/3x3_reduce
I0403 18:20:36.313920  6833 net.cpp:148] Top shape: 24 96 28 28 (1806336)
I0403 18:20:36.313936  6833 net.cpp:156] Memory required for data: 508183584
I0403 18:20:36.313959  6833 layer_factory.hpp:77] Creating layer inception_3a/relu_3x3_reduce
I0403 18:20:36.313999  6833 net.cpp:91] Creating Layer inception_3a/relu_3x3_reduce
I0403 18:20:36.314018  6833 net.cpp:425] inception_3a/relu_3x3_reduce <- inception_3a/3x3_reduce
I0403 18:20:36.314038  6833 net.cpp:386] inception_3a/relu_3x3_reduce -> inception_3a/3x3_reduce (in-place)
I0403 18:20:36.314227  6833 net.cpp:141] Setting up inception_3a/relu_3x3_reduce
I0403 18:20:36.314259  6833 net.cpp:148] Top shape: 24 96 28 28 (1806336)
I0403 18:20:36.314275  6833 net.cpp:156] Memory required for data: 515408928
I0403 18:20:36.314291  6833 layer_factory.hpp:77] Creating layer inception_3a/3x3
I0403 18:20:36.314316  6833 net.cpp:91] Creating Layer inception_3a/3x3
I0403 18:20:36.314335  6833 net.cpp:425] inception_3a/3x3 <- inception_3a/3x3_reduce
I0403 18:20:36.314357  6833 net.cpp:399] inception_3a/3x3 -> inception_3a/3x3
I0403 18:20:36.316097  6833 net.cpp:141] Setting up inception_3a/3x3
I0403 18:20:36.316126  6833 net.cpp:148] Top shape: 24 128 28 28 (2408448)
I0403 18:20:36.316143  6833 net.cpp:156] Memory required for data: 525042720
I0403 18:20:36.316161  6833 layer_factory.hpp:77] Creating layer inception_3a/relu_3x3
I0403 18:20:36.316180  6833 net.cpp:91] Creating Layer inception_3a/relu_3x3
I0403 18:20:36.316196  6833 net.cpp:425] inception_3a/relu_3x3 <- inception_3a/3x3
I0403 18:20:36.316217  6833 net.cpp:386] inception_3a/relu_3x3 -> inception_3a/3x3 (in-place)
I0403 18:20:36.316510  6833 net.cpp:141] Setting up inception_3a/relu_3x3
I0403 18:20:36.316537  6833 net.cpp:148] Top shape: 24 128 28 28 (2408448)
I0403 18:20:36.316553  6833 net.cpp:156] Memory required for data: 534676512
I0403 18:20:36.316568  6833 layer_factory.hpp:77] Creating layer inception_3a/5x5_reduce
I0403 18:20:36.316592  6833 net.cpp:91] Creating Layer inception_3a/5x5_reduce
I0403 18:20:36.316611  6833 net.cpp:425] inception_3a/5x5_reduce <- pool2/3x3_s2_pool2/3x3_s2_0_split_2
I0403 18:20:36.316632  6833 net.cpp:399] inception_3a/5x5_reduce -> inception_3a/5x5_reduce
I0403 18:20:36.317648  6833 net.cpp:141] Setting up inception_3a/5x5_reduce
I0403 18:20:36.317677  6833 net.cpp:148] Top shape: 24 16 28 28 (301056)
I0403 18:20:36.317694  6833 net.cpp:156] Memory required for data: 535880736
I0403 18:20:36.317713  6833 layer_factory.hpp:77] Creating layer inception_3a/relu_5x5_reduce
I0403 18:20:36.317733  6833 net.cpp:91] Creating Layer inception_3a/relu_5x5_reduce
I0403 18:20:36.317749  6833 net.cpp:425] inception_3a/relu_5x5_reduce <- inception_3a/5x5_reduce
I0403 18:20:36.317770  6833 net.cpp:386] inception_3a/relu_5x5_reduce -> inception_3a/5x5_reduce (in-place)
I0403 18:20:36.318070  6833 net.cpp:141] Setting up inception_3a/relu_5x5_reduce
I0403 18:20:36.318097  6833 net.cpp:148] Top shape: 24 16 28 28 (301056)
I0403 18:20:36.318114  6833 net.cpp:156] Memory required for data: 537084960
I0403 18:20:36.318130  6833 layer_factory.hpp:77] Creating layer inception_3a/5x5
I0403 18:20:36.318153  6833 net.cpp:91] Creating Layer inception_3a/5x5
I0403 18:20:36.318171  6833 net.cpp:425] inception_3a/5x5 <- inception_3a/5x5_reduce
I0403 18:20:36.318193  6833 net.cpp:399] inception_3a/5x5 -> inception_3a/5x5
I0403 18:20:36.319275  6833 net.cpp:141] Setting up inception_3a/5x5
I0403 18:20:36.319308  6833 net.cpp:148] Top shape: 24 32 28 28 (602112)
I0403 18:20:36.319325  6833 net.cpp:156] Memory required for data: 539493408
I0403 18:20:36.319344  6833 layer_factory.hpp:77] Creating layer inception_3a/relu_5x5
I0403 18:20:36.319363  6833 net.cpp:91] Creating Layer inception_3a/relu_5x5
I0403 18:20:36.319380  6833 net.cpp:425] inception_3a/relu_5x5 <- inception_3a/5x5
I0403 18:20:36.319401  6833 net.cpp:386] inception_3a/relu_5x5 -> inception_3a/5x5 (in-place)
I0403 18:20:36.319592  6833 net.cpp:141] Setting up inception_3a/relu_5x5
I0403 18:20:36.319618  6833 net.cpp:148] Top shape: 24 32 28 28 (602112)
I0403 18:20:36.319633  6833 net.cpp:156] Memory required for data: 541901856
I0403 18:20:36.319648  6833 layer_factory.hpp:77] Creating layer inception_3a/pool
I0403 18:20:36.319666  6833 net.cpp:91] Creating Layer inception_3a/pool
I0403 18:20:36.319700  6833 net.cpp:425] inception_3a/pool <- pool2/3x3_s2_pool2/3x3_s2_0_split_3
I0403 18:20:36.319720  6833 net.cpp:399] inception_3a/pool -> inception_3a/pool
I0403 18:20:36.319778  6833 net.cpp:141] Setting up inception_3a/pool
I0403 18:20:36.319803  6833 net.cpp:148] Top shape: 24 192 28 28 (3612672)
I0403 18:20:36.319818  6833 net.cpp:156] Memory required for data: 556352544
I0403 18:20:36.319833  6833 layer_factory.hpp:77] Creating layer inception_3a/pool_proj
I0403 18:20:36.319854  6833 net.cpp:91] Creating Layer inception_3a/pool_proj
I0403 18:20:36.319872  6833 net.cpp:425] inception_3a/pool_proj <- inception_3a/pool
I0403 18:20:36.319895  6833 net.cpp:399] inception_3a/pool_proj -> inception_3a/pool_proj
I0403 18:20:36.320924  6833 net.cpp:141] Setting up inception_3a/pool_proj
I0403 18:20:36.320951  6833 net.cpp:148] Top shape: 24 32 28 28 (602112)
I0403 18:20:36.320966  6833 net.cpp:156] Memory required for data: 558760992
I0403 18:20:36.320991  6833 layer_factory.hpp:77] Creating layer inception_3a/relu_pool_proj
I0403 18:20:36.321012  6833 net.cpp:91] Creating Layer inception_3a/relu_pool_proj
I0403 18:20:36.321027  6833 net.cpp:425] inception_3a/relu_pool_proj <- inception_3a/pool_proj
I0403 18:20:36.321048  6833 net.cpp:386] inception_3a/relu_pool_proj -> inception_3a/pool_proj (in-place)
I0403 18:20:36.321337  6833 net.cpp:141] Setting up inception_3a/relu_pool_proj
I0403 18:20:36.321364  6833 net.cpp:148] Top shape: 24 32 28 28 (602112)
I0403 18:20:36.321382  6833 net.cpp:156] Memory required for data: 561169440
I0403 18:20:36.321395  6833 layer_factory.hpp:77] Creating layer inception_3a/output
I0403 18:20:36.321413  6833 net.cpp:91] Creating Layer inception_3a/output
I0403 18:20:36.321429  6833 net.cpp:425] inception_3a/output <- inception_3a/1x1
I0403 18:20:36.321446  6833 net.cpp:425] inception_3a/output <- inception_3a/3x3
I0403 18:20:36.321461  6833 net.cpp:425] inception_3a/output <- inception_3a/5x5
I0403 18:20:36.321478  6833 net.cpp:425] inception_3a/output <- inception_3a/pool_proj
I0403 18:20:36.321497  6833 net.cpp:399] inception_3a/output -> inception_3a/output
I0403 18:20:36.321545  6833 net.cpp:141] Setting up inception_3a/output
I0403 18:20:36.321573  6833 net.cpp:148] Top shape: 24 256 28 28 (4816896)
I0403 18:20:36.321588  6833 net.cpp:156] Memory required for data: 580437024
I0403 18:20:36.321604  6833 layer_factory.hpp:77] Creating layer inception_3a/output_inception_3a/output_0_split
I0403 18:20:36.321620  6833 net.cpp:91] Creating Layer inception_3a/output_inception_3a/output_0_split
I0403 18:20:36.321636  6833 net.cpp:425] inception_3a/output_inception_3a/output_0_split <- inception_3a/output
I0403 18:20:36.321653  6833 net.cpp:399] inception_3a/output_inception_3a/output_0_split -> inception_3a/output_inception_3a/output_0_split_0
I0403 18:20:36.321673  6833 net.cpp:399] inception_3a/output_inception_3a/output_0_split -> inception_3a/output_inception_3a/output_0_split_1
I0403 18:20:36.321697  6833 net.cpp:399] inception_3a/output_inception_3a/output_0_split -> inception_3a/output_inception_3a/output_0_split_2
I0403 18:20:36.321720  6833 net.cpp:399] inception_3a/output_inception_3a/output_0_split -> inception_3a/output_inception_3a/output_0_split_3
I0403 18:20:36.321801  6833 net.cpp:141] Setting up inception_3a/output_inception_3a/output_0_split
I0403 18:20:36.321827  6833 net.cpp:148] Top shape: 24 256 28 28 (4816896)
I0403 18:20:36.321846  6833 net.cpp:148] Top shape: 24 256 28 28 (4816896)
I0403 18:20:36.321862  6833 net.cpp:148] Top shape: 24 256 28 28 (4816896)
I0403 18:20:36.321879  6833 net.cpp:148] Top shape: 24 256 28 28 (4816896)
I0403 18:20:36.321893  6833 net.cpp:156] Memory required for data: 657507360
I0403 18:20:36.321908  6833 layer_factory.hpp:77] Creating layer inception_3b/1x1
I0403 18:20:36.321931  6833 net.cpp:91] Creating Layer inception_3b/1x1
I0403 18:20:36.321949  6833 net.cpp:425] inception_3b/1x1 <- inception_3a/output_inception_3a/output_0_split_0
I0403 18:20:36.321969  6833 net.cpp:399] inception_3b/1x1 -> inception_3b/1x1
I0403 18:20:36.323174  6833 net.cpp:141] Setting up inception_3b/1x1
I0403 18:20:36.323215  6833 net.cpp:148] Top shape: 24 128 28 28 (2408448)
I0403 18:20:36.323230  6833 net.cpp:156] Memory required for data: 667141152
I0403 18:20:36.323267  6833 layer_factory.hpp:77] Creating layer inception_3b/relu_1x1
I0403 18:20:36.323290  6833 net.cpp:91] Creating Layer inception_3b/relu_1x1
I0403 18:20:36.323307  6833 net.cpp:425] inception_3b/relu_1x1 <- inception_3b/1x1
I0403 18:20:36.323325  6833 net.cpp:386] inception_3b/relu_1x1 -> inception_3b/1x1 (in-place)
I0403 18:20:36.323513  6833 net.cpp:141] Setting up inception_3b/relu_1x1
I0403 18:20:36.323551  6833 net.cpp:148] Top shape: 24 128 28 28 (2408448)
I0403 18:20:36.323567  6833 net.cpp:156] Memory required for data: 676774944
I0403 18:20:36.323581  6833 layer_factory.hpp:77] Creating layer inception_3b/3x3_reduce
I0403 18:20:36.323604  6833 net.cpp:91] Creating Layer inception_3b/3x3_reduce
I0403 18:20:36.323621  6833 net.cpp:425] inception_3b/3x3_reduce <- inception_3a/output_inception_3a/output_0_split_1
I0403 18:20:36.323644  6833 net.cpp:399] inception_3b/3x3_reduce -> inception_3b/3x3_reduce
I0403 18:20:36.324803  6833 net.cpp:141] Setting up inception_3b/3x3_reduce
I0403 18:20:36.324836  6833 net.cpp:148] Top shape: 24 128 28 28 (2408448)
I0403 18:20:36.324852  6833 net.cpp:156] Memory required for data: 686408736
I0403 18:20:36.324870  6833 layer_factory.hpp:77] Creating layer inception_3b/relu_3x3_reduce
I0403 18:20:36.324889  6833 net.cpp:91] Creating Layer inception_3b/relu_3x3_reduce
I0403 18:20:36.324905  6833 net.cpp:425] inception_3b/relu_3x3_reduce <- inception_3b/3x3_reduce
I0403 18:20:36.324923  6833 net.cpp:386] inception_3b/relu_3x3_reduce -> inception_3b/3x3_reduce (in-place)
I0403 18:20:36.325101  6833 net.cpp:141] Setting up inception_3b/relu_3x3_reduce
I0403 18:20:36.325125  6833 net.cpp:148] Top shape: 24 128 28 28 (2408448)
I0403 18:20:36.325140  6833 net.cpp:156] Memory required for data: 696042528
I0403 18:20:36.325155  6833 layer_factory.hpp:77] Creating layer inception_3b/3x3
I0403 18:20:36.325181  6833 net.cpp:91] Creating Layer inception_3b/3x3
I0403 18:20:36.325199  6833 net.cpp:425] inception_3b/3x3 <- inception_3b/3x3_reduce
I0403 18:20:36.325222  6833 net.cpp:399] inception_3b/3x3 -> inception_3b/3x3
I0403 18:20:36.328253  6833 net.cpp:141] Setting up inception_3b/3x3
I0403 18:20:36.328282  6833 net.cpp:148] Top shape: 24 192 28 28 (3612672)
I0403 18:20:36.328299  6833 net.cpp:156] Memory required for data: 710493216
I0403 18:20:36.328318  6833 layer_factory.hpp:77] Creating layer inception_3b/relu_3x3
I0403 18:20:36.328337  6833 net.cpp:91] Creating Layer inception_3b/relu_3x3
I0403 18:20:36.328353  6833 net.cpp:425] inception_3b/relu_3x3 <- inception_3b/3x3
I0403 18:20:36.328374  6833 net.cpp:386] inception_3b/relu_3x3 -> inception_3b/3x3 (in-place)
I0403 18:20:36.328660  6833 net.cpp:141] Setting up inception_3b/relu_3x3
I0403 18:20:36.328686  6833 net.cpp:148] Top shape: 24 192 28 28 (3612672)
I0403 18:20:36.328701  6833 net.cpp:156] Memory required for data: 724943904
I0403 18:20:36.328716  6833 layer_factory.hpp:77] Creating layer inception_3b/5x5_reduce
I0403 18:20:36.328739  6833 net.cpp:91] Creating Layer inception_3b/5x5_reduce
I0403 18:20:36.328758  6833 net.cpp:425] inception_3b/5x5_reduce <- inception_3a/output_inception_3a/output_0_split_2
I0403 18:20:36.328780  6833 net.cpp:399] inception_3b/5x5_reduce -> inception_3b/5x5_reduce
I0403 18:20:36.329802  6833 net.cpp:141] Setting up inception_3b/5x5_reduce
I0403 18:20:36.329830  6833 net.cpp:148] Top shape: 24 32 28 28 (602112)
I0403 18:20:36.329846  6833 net.cpp:156] Memory required for data: 727352352
I0403 18:20:36.329865  6833 layer_factory.hpp:77] Creating layer inception_3b/relu_5x5_reduce
I0403 18:20:36.329884  6833 net.cpp:91] Creating Layer inception_3b/relu_5x5_reduce
I0403 18:20:36.329900  6833 net.cpp:425] inception_3b/relu_5x5_reduce <- inception_3b/5x5_reduce
I0403 18:20:36.329919  6833 net.cpp:386] inception_3b/relu_5x5_reduce -> inception_3b/5x5_reduce (in-place)
I0403 18:20:36.330117  6833 net.cpp:141] Setting up inception_3b/relu_5x5_reduce
I0403 18:20:36.330143  6833 net.cpp:148] Top shape: 24 32 28 28 (602112)
I0403 18:20:36.330158  6833 net.cpp:156] Memory required for data: 729760800
I0403 18:20:36.330174  6833 layer_factory.hpp:77] Creating layer inception_3b/5x5
I0403 18:20:36.330196  6833 net.cpp:91] Creating Layer inception_3b/5x5
I0403 18:20:36.330214  6833 net.cpp:425] inception_3b/5x5 <- inception_3b/5x5_reduce
I0403 18:20:36.330236  6833 net.cpp:399] inception_3b/5x5 -> inception_3b/5x5
I0403 18:20:36.332334  6833 net.cpp:141] Setting up inception_3b/5x5
I0403 18:20:36.332367  6833 net.cpp:148] Top shape: 24 96 28 28 (1806336)
I0403 18:20:36.332383  6833 net.cpp:156] Memory required for data: 736986144
I0403 18:20:36.332401  6833 layer_factory.hpp:77] Creating layer inception_3b/relu_5x5
I0403 18:20:36.332418  6833 net.cpp:91] Creating Layer inception_3b/relu_5x5
I0403 18:20:36.332434  6833 net.cpp:425] inception_3b/relu_5x5 <- inception_3b/5x5
I0403 18:20:36.332453  6833 net.cpp:386] inception_3b/relu_5x5 -> inception_3b/5x5 (in-place)
I0403 18:20:36.332645  6833 net.cpp:141] Setting up inception_3b/relu_5x5
I0403 18:20:36.332670  6833 net.cpp:148] Top shape: 24 96 28 28 (1806336)
I0403 18:20:36.332685  6833 net.cpp:156] Memory required for data: 744211488
I0403 18:20:36.332700  6833 layer_factory.hpp:77] Creating layer inception_3b/pool
I0403 18:20:36.332716  6833 net.cpp:91] Creating Layer inception_3b/pool
I0403 18:20:36.332733  6833 net.cpp:425] inception_3b/pool <- inception_3a/output_inception_3a/output_0_split_3
I0403 18:20:36.332752  6833 net.cpp:399] inception_3b/pool -> inception_3b/pool
I0403 18:20:36.332809  6833 net.cpp:141] Setting up inception_3b/pool
I0403 18:20:36.332834  6833 net.cpp:148] Top shape: 24 256 28 28 (4816896)
I0403 18:20:36.332849  6833 net.cpp:156] Memory required for data: 763479072
I0403 18:20:36.332864  6833 layer_factory.hpp:77] Creating layer inception_3b/pool_proj
I0403 18:20:36.332886  6833 net.cpp:91] Creating Layer inception_3b/pool_proj
I0403 18:20:36.332904  6833 net.cpp:425] inception_3b/pool_proj <- inception_3b/pool
I0403 18:20:36.332924  6833 net.cpp:399] inception_3b/pool_proj -> inception_3b/pool_proj
I0403 18:20:36.334020  6833 net.cpp:141] Setting up inception_3b/pool_proj
I0403 18:20:36.334048  6833 net.cpp:148] Top shape: 24 64 28 28 (1204224)
I0403 18:20:36.334064  6833 net.cpp:156] Memory required for data: 768295968
I0403 18:20:36.334082  6833 layer_factory.hpp:77] Creating layer inception_3b/relu_pool_proj
I0403 18:20:36.334102  6833 net.cpp:91] Creating Layer inception_3b/relu_pool_proj
I0403 18:20:36.334120  6833 net.cpp:425] inception_3b/relu_pool_proj <- inception_3b/pool_proj
I0403 18:20:36.334137  6833 net.cpp:386] inception_3b/relu_pool_proj -> inception_3b/pool_proj (in-place)
I0403 18:20:36.334565  6833 net.cpp:141] Setting up inception_3b/relu_pool_proj
I0403 18:20:36.334591  6833 net.cpp:148] Top shape: 24 64 28 28 (1204224)
I0403 18:20:36.334605  6833 net.cpp:156] Memory required for data: 773112864
I0403 18:20:36.334620  6833 layer_factory.hpp:77] Creating layer inception_3b/output
I0403 18:20:36.334638  6833 net.cpp:91] Creating Layer inception_3b/output
I0403 18:20:36.334653  6833 net.cpp:425] inception_3b/output <- inception_3b/1x1
I0403 18:20:36.334669  6833 net.cpp:425] inception_3b/output <- inception_3b/3x3
I0403 18:20:36.334686  6833 net.cpp:425] inception_3b/output <- inception_3b/5x5
I0403 18:20:36.334700  6833 net.cpp:425] inception_3b/output <- inception_3b/pool_proj
I0403 18:20:36.334718  6833 net.cpp:399] inception_3b/output -> inception_3b/output
I0403 18:20:36.334763  6833 net.cpp:141] Setting up inception_3b/output
I0403 18:20:36.334787  6833 net.cpp:148] Top shape: 24 480 28 28 (9031680)
I0403 18:20:36.334803  6833 net.cpp:156] Memory required for data: 809239584
I0403 18:20:36.334817  6833 layer_factory.hpp:77] Creating layer pool3/3x3_s2
I0403 18:20:36.334835  6833 net.cpp:91] Creating Layer pool3/3x3_s2
I0403 18:20:36.334849  6833 net.cpp:425] pool3/3x3_s2 <- inception_3b/output
I0403 18:20:36.334884  6833 net.cpp:399] pool3/3x3_s2 -> pool3/3x3_s2
I0403 18:20:36.334944  6833 net.cpp:141] Setting up pool3/3x3_s2
I0403 18:20:36.334966  6833 net.cpp:148] Top shape: 24 480 14 14 (2257920)
I0403 18:20:36.334980  6833 net.cpp:156] Memory required for data: 818271264
I0403 18:20:36.334995  6833 layer_factory.hpp:77] Creating layer pool3/3x3_s2_pool3/3x3_s2_0_split
I0403 18:20:36.335014  6833 net.cpp:91] Creating Layer pool3/3x3_s2_pool3/3x3_s2_0_split
I0403 18:20:36.335031  6833 net.cpp:425] pool3/3x3_s2_pool3/3x3_s2_0_split <- pool3/3x3_s2
I0403 18:20:36.335047  6833 net.cpp:399] pool3/3x3_s2_pool3/3x3_s2_0_split -> pool3/3x3_s2_pool3/3x3_s2_0_split_0
I0403 18:20:36.335067  6833 net.cpp:399] pool3/3x3_s2_pool3/3x3_s2_0_split -> pool3/3x3_s2_pool3/3x3_s2_0_split_1
I0403 18:20:36.335088  6833 net.cpp:399] pool3/3x3_s2_pool3/3x3_s2_0_split -> pool3/3x3_s2_pool3/3x3_s2_0_split_2
I0403 18:20:36.335108  6833 net.cpp:399] pool3/3x3_s2_pool3/3x3_s2_0_split -> pool3/3x3_s2_pool3/3x3_s2_0_split_3
I0403 18:20:36.335182  6833 net.cpp:141] Setting up pool3/3x3_s2_pool3/3x3_s2_0_split
I0403 18:20:36.335204  6833 net.cpp:148] Top shape: 24 480 14 14 (2257920)
I0403 18:20:36.335222  6833 net.cpp:148] Top shape: 24 480 14 14 (2257920)
I0403 18:20:36.335237  6833 net.cpp:148] Top shape: 24 480 14 14 (2257920)
I0403 18:20:36.335258  6833 net.cpp:148] Top shape: 24 480 14 14 (2257920)
I0403 18:20:36.335273  6833 net.cpp:156] Memory required for data: 854397984
I0403 18:20:36.335286  6833 layer_factory.hpp:77] Creating layer inception_4a/1x1
I0403 18:20:36.335309  6833 net.cpp:91] Creating Layer inception_4a/1x1
I0403 18:20:36.335326  6833 net.cpp:425] inception_4a/1x1 <- pool3/3x3_s2_pool3/3x3_s2_0_split_0
I0403 18:20:36.335348  6833 net.cpp:399] inception_4a/1x1 -> inception_4a/1x1
I0403 18:20:36.336910  6833 net.cpp:141] Setting up inception_4a/1x1
I0403 18:20:36.336937  6833 net.cpp:148] Top shape: 24 192 14 14 (903168)
I0403 18:20:36.336952  6833 net.cpp:156] Memory required for data: 858010656
I0403 18:20:36.336971  6833 layer_factory.hpp:77] Creating layer inception_4a/relu_1x1
I0403 18:20:36.336992  6833 net.cpp:91] Creating Layer inception_4a/relu_1x1
I0403 18:20:36.337009  6833 net.cpp:425] inception_4a/relu_1x1 <- inception_4a/1x1
I0403 18:20:36.337025  6833 net.cpp:386] inception_4a/relu_1x1 -> inception_4a/1x1 (in-place)
I0403 18:20:36.337203  6833 net.cpp:141] Setting up inception_4a/relu_1x1
I0403 18:20:36.337229  6833 net.cpp:148] Top shape: 24 192 14 14 (903168)
I0403 18:20:36.337250  6833 net.cpp:156] Memory required for data: 861623328
I0403 18:20:36.337266  6833 layer_factory.hpp:77] Creating layer inception_4a/3x3_reduce
I0403 18:20:36.337301  6833 net.cpp:91] Creating Layer inception_4a/3x3_reduce
I0403 18:20:36.337317  6833 net.cpp:425] inception_4a/3x3_reduce <- pool3/3x3_s2_pool3/3x3_s2_0_split_1
I0403 18:20:36.337335  6833 net.cpp:399] inception_4a/3x3_reduce -> inception_4a/3x3_reduce
I0403 18:20:36.338601  6833 net.cpp:141] Setting up inception_4a/3x3_reduce
I0403 18:20:36.338629  6833 net.cpp:148] Top shape: 24 96 14 14 (451584)
I0403 18:20:36.338644  6833 net.cpp:156] Memory required for data: 863429664
I0403 18:20:36.338681  6833 layer_factory.hpp:77] Creating layer inception_4a/relu_3x3_reduce
I0403 18:20:36.338702  6833 net.cpp:91] Creating Layer inception_4a/relu_3x3_reduce
I0403 18:20:36.338719  6833 net.cpp:425] inception_4a/relu_3x3_reduce <- inception_4a/3x3_reduce
I0403 18:20:36.338737  6833 net.cpp:386] inception_4a/relu_3x3_reduce -> inception_4a/3x3_reduce (in-place)
I0403 18:20:36.338909  6833 net.cpp:141] Setting up inception_4a/relu_3x3_reduce
I0403 18:20:36.338934  6833 net.cpp:148] Top shape: 24 96 14 14 (451584)
I0403 18:20:36.338949  6833 net.cpp:156] Memory required for data: 865236000
I0403 18:20:36.338964  6833 layer_factory.hpp:77] Creating layer inception_4a/3x3
I0403 18:20:36.338989  6833 net.cpp:91] Creating Layer inception_4a/3x3
I0403 18:20:36.339006  6833 net.cpp:425] inception_4a/3x3 <- inception_4a/3x3_reduce
I0403 18:20:36.339026  6833 net.cpp:399] inception_4a/3x3 -> inception_4a/3x3
I0403 18:20:36.341706  6833 net.cpp:141] Setting up inception_4a/3x3
I0403 18:20:36.341734  6833 net.cpp:148] Top shape: 24 208 14 14 (978432)
I0403 18:20:36.341750  6833 net.cpp:156] Memory required for data: 869149728
I0403 18:20:36.341768  6833 layer_factory.hpp:77] Creating layer inception_4a/relu_3x3
I0403 18:20:36.341785  6833 net.cpp:91] Creating Layer inception_4a/relu_3x3
I0403 18:20:36.341800  6833 net.cpp:425] inception_4a/relu_3x3 <- inception_4a/3x3
I0403 18:20:36.341817  6833 net.cpp:386] inception_4a/relu_3x3 -> inception_4a/3x3 (in-place)
I0403 18:20:36.342089  6833 net.cpp:141] Setting up inception_4a/relu_3x3
I0403 18:20:36.342116  6833 net.cpp:148] Top shape: 24 208 14 14 (978432)
I0403 18:20:36.342131  6833 net.cpp:156] Memory required for data: 873063456
I0403 18:20:36.342145  6833 layer_factory.hpp:77] Creating layer inception_4a/5x5_reduce
I0403 18:20:36.342167  6833 net.cpp:91] Creating Layer inception_4a/5x5_reduce
I0403 18:20:36.342185  6833 net.cpp:425] inception_4a/5x5_reduce <- pool3/3x3_s2_pool3/3x3_s2_0_split_2
I0403 18:20:36.342203  6833 net.cpp:399] inception_4a/5x5_reduce -> inception_4a/5x5_reduce
I0403 18:20:36.343230  6833 net.cpp:141] Setting up inception_4a/5x5_reduce
I0403 18:20:36.343263  6833 net.cpp:148] Top shape: 24 16 14 14 (75264)
I0403 18:20:36.343279  6833 net.cpp:156] Memory required for data: 873364512
I0403 18:20:36.343297  6833 layer_factory.hpp:77] Creating layer inception_4a/relu_5x5_reduce
I0403 18:20:36.343314  6833 net.cpp:91] Creating Layer inception_4a/relu_5x5_reduce
I0403 18:20:36.343330  6833 net.cpp:425] inception_4a/relu_5x5_reduce <- inception_4a/5x5_reduce
I0403 18:20:36.343350  6833 net.cpp:386] inception_4a/relu_5x5_reduce -> inception_4a/5x5_reduce (in-place)
I0403 18:20:36.343523  6833 net.cpp:141] Setting up inception_4a/relu_5x5_reduce
I0403 18:20:36.343547  6833 net.cpp:148] Top shape: 24 16 14 14 (75264)
I0403 18:20:36.343561  6833 net.cpp:156] Memory required for data: 873665568
I0403 18:20:36.343575  6833 layer_factory.hpp:77] Creating layer inception_4a/5x5
I0403 18:20:36.343598  6833 net.cpp:91] Creating Layer inception_4a/5x5
I0403 18:20:36.343616  6833 net.cpp:425] inception_4a/5x5 <- inception_4a/5x5_reduce
I0403 18:20:36.343636  6833 net.cpp:399] inception_4a/5x5 -> inception_4a/5x5
I0403 18:20:36.344686  6833 net.cpp:141] Setting up inception_4a/5x5
I0403 18:20:36.344713  6833 net.cpp:148] Top shape: 24 48 14 14 (225792)
I0403 18:20:36.344727  6833 net.cpp:156] Memory required for data: 874568736
I0403 18:20:36.344746  6833 layer_factory.hpp:77] Creating layer inception_4a/relu_5x5
I0403 18:20:36.344769  6833 net.cpp:91] Creating Layer inception_4a/relu_5x5
I0403 18:20:36.344784  6833 net.cpp:425] inception_4a/relu_5x5 <- inception_4a/5x5
I0403 18:20:36.344800  6833 net.cpp:386] inception_4a/relu_5x5 -> inception_4a/5x5 (in-place)
I0403 18:20:36.344971  6833 net.cpp:141] Setting up inception_4a/relu_5x5
I0403 18:20:36.344995  6833 net.cpp:148] Top shape: 24 48 14 14 (225792)
I0403 18:20:36.345010  6833 net.cpp:156] Memory required for data: 875471904
I0403 18:20:36.345024  6833 layer_factory.hpp:77] Creating layer inception_4a/pool
I0403 18:20:36.345044  6833 net.cpp:91] Creating Layer inception_4a/pool
I0403 18:20:36.345059  6833 net.cpp:425] inception_4a/pool <- pool3/3x3_s2_pool3/3x3_s2_0_split_3
I0403 18:20:36.345075  6833 net.cpp:399] inception_4a/pool -> inception_4a/pool
I0403 18:20:36.345134  6833 net.cpp:141] Setting up inception_4a/pool
I0403 18:20:36.345157  6833 net.cpp:148] Top shape: 24 480 14 14 (2257920)
I0403 18:20:36.345171  6833 net.cpp:156] Memory required for data: 884503584
I0403 18:20:36.345185  6833 layer_factory.hpp:77] Creating layer inception_4a/pool_proj
I0403 18:20:36.345206  6833 net.cpp:91] Creating Layer inception_4a/pool_proj
I0403 18:20:36.345222  6833 net.cpp:425] inception_4a/pool_proj <- inception_4a/pool
I0403 18:20:36.345260  6833 net.cpp:399] inception_4a/pool_proj -> inception_4a/pool_proj
I0403 18:20:36.346448  6833 net.cpp:141] Setting up inception_4a/pool_proj
I0403 18:20:36.346478  6833 net.cpp:148] Top shape: 24 64 14 14 (301056)
I0403 18:20:36.346509  6833 net.cpp:156] Memory required for data: 885707808
I0403 18:20:36.346529  6833 layer_factory.hpp:77] Creating layer inception_4a/relu_pool_proj
I0403 18:20:36.346563  6833 net.cpp:91] Creating Layer inception_4a/relu_pool_proj
I0403 18:20:36.346580  6833 net.cpp:425] inception_4a/relu_pool_proj <- inception_4a/pool_proj
I0403 18:20:36.346596  6833 net.cpp:386] inception_4a/relu_pool_proj -> inception_4a/pool_proj (in-place)
I0403 18:20:36.346876  6833 net.cpp:141] Setting up inception_4a/relu_pool_proj
I0403 18:20:36.346902  6833 net.cpp:148] Top shape: 24 64 14 14 (301056)
I0403 18:20:36.346917  6833 net.cpp:156] Memory required for data: 886912032
I0403 18:20:36.346932  6833 layer_factory.hpp:77] Creating layer inception_4a/output
I0403 18:20:36.346949  6833 net.cpp:91] Creating Layer inception_4a/output
I0403 18:20:36.346964  6833 net.cpp:425] inception_4a/output <- inception_4a/1x1
I0403 18:20:36.346983  6833 net.cpp:425] inception_4a/output <- inception_4a/3x3
I0403 18:20:36.346999  6833 net.cpp:425] inception_4a/output <- inception_4a/5x5
I0403 18:20:36.347015  6833 net.cpp:425] inception_4a/output <- inception_4a/pool_proj
I0403 18:20:36.347033  6833 net.cpp:399] inception_4a/output -> inception_4a/output
I0403 18:20:36.347077  6833 net.cpp:141] Setting up inception_4a/output
I0403 18:20:36.347100  6833 net.cpp:148] Top shape: 24 512 14 14 (2408448)
I0403 18:20:36.347115  6833 net.cpp:156] Memory required for data: 896545824
I0403 18:20:36.347129  6833 layer_factory.hpp:77] Creating layer inception_4a/output_inception_4a/output_0_split
I0403 18:20:36.347147  6833 net.cpp:91] Creating Layer inception_4a/output_inception_4a/output_0_split
I0403 18:20:36.347163  6833 net.cpp:425] inception_4a/output_inception_4a/output_0_split <- inception_4a/output
I0403 18:20:36.347182  6833 net.cpp:399] inception_4a/output_inception_4a/output_0_split -> inception_4a/output_inception_4a/output_0_split_0
I0403 18:20:36.347203  6833 net.cpp:399] inception_4a/output_inception_4a/output_0_split -> inception_4a/output_inception_4a/output_0_split_1
I0403 18:20:36.347223  6833 net.cpp:399] inception_4a/output_inception_4a/output_0_split -> inception_4a/output_inception_4a/output_0_split_2
I0403 18:20:36.347259  6833 net.cpp:399] inception_4a/output_inception_4a/output_0_split -> inception_4a/output_inception_4a/output_0_split_3
I0403 18:20:36.347281  6833 net.cpp:399] inception_4a/output_inception_4a/output_0_split -> inception_4a/output_inception_4a/output_0_split_4
I0403 18:20:36.347381  6833 net.cpp:141] Setting up inception_4a/output_inception_4a/output_0_split
I0403 18:20:36.347405  6833 net.cpp:148] Top shape: 24 512 14 14 (2408448)
I0403 18:20:36.347422  6833 net.cpp:148] Top shape: 24 512 14 14 (2408448)
I0403 18:20:36.347439  6833 net.cpp:148] Top shape: 24 512 14 14 (2408448)
I0403 18:20:36.347455  6833 net.cpp:148] Top shape: 24 512 14 14 (2408448)
I0403 18:20:36.347470  6833 net.cpp:148] Top shape: 24 512 14 14 (2408448)
I0403 18:20:36.347484  6833 net.cpp:156] Memory required for data: 944714784
I0403 18:20:36.347501  6833 layer_factory.hpp:77] Creating layer loss1/ave_pool
I0403 18:20:36.347517  6833 net.cpp:91] Creating Layer loss1/ave_pool
I0403 18:20:36.347546  6833 net.cpp:425] loss1/ave_pool <- inception_4a/output_inception_4a/output_0_split_0
I0403 18:20:36.347566  6833 net.cpp:399] loss1/ave_pool -> loss1/ave_pool
I0403 18:20:36.347774  6833 net.cpp:141] Setting up loss1/ave_pool
I0403 18:20:36.347800  6833 net.cpp:148] Top shape: 24 512 4 4 (196608)
I0403 18:20:36.347815  6833 net.cpp:156] Memory required for data: 945501216
I0403 18:20:36.347829  6833 layer_factory.hpp:77] Creating layer loss1/conv
I0403 18:20:36.347851  6833 net.cpp:91] Creating Layer loss1/conv
I0403 18:20:36.347868  6833 net.cpp:425] loss1/conv <- loss1/ave_pool
I0403 18:20:36.347888  6833 net.cpp:399] loss1/conv -> loss1/conv
I0403 18:20:36.349321  6833 net.cpp:141] Setting up loss1/conv
I0403 18:20:36.349351  6833 net.cpp:148] Top shape: 24 128 4 4 (49152)
I0403 18:20:36.349380  6833 net.cpp:156] Memory required for data: 945697824
I0403 18:20:36.349400  6833 layer_factory.hpp:77] Creating layer loss1/relu_conv
I0403 18:20:36.349417  6833 net.cpp:91] Creating Layer loss1/relu_conv
I0403 18:20:36.349432  6833 net.cpp:425] loss1/relu_conv <- loss1/conv
I0403 18:20:36.349449  6833 net.cpp:386] loss1/relu_conv -> loss1/conv (in-place)
I0403 18:20:36.349731  6833 net.cpp:141] Setting up loss1/relu_conv
I0403 18:20:36.349759  6833 net.cpp:148] Top shape: 24 128 4 4 (49152)
I0403 18:20:36.349776  6833 net.cpp:156] Memory required for data: 945894432
I0403 18:20:36.349791  6833 layer_factory.hpp:77] Creating layer loss1/fc
I0403 18:20:36.349814  6833 net.cpp:91] Creating Layer loss1/fc
I0403 18:20:36.349833  6833 net.cpp:425] loss1/fc <- loss1/conv
I0403 18:20:36.349853  6833 net.cpp:399] loss1/fc -> loss1/fc
I0403 18:20:36.367943  6833 net.cpp:141] Setting up loss1/fc
I0403 18:20:36.367979  6833 net.cpp:148] Top shape: 24 1024 (24576)
I0403 18:20:36.367992  6833 net.cpp:156] Memory required for data: 945992736
I0403 18:20:36.368010  6833 layer_factory.hpp:77] Creating layer loss1/relu_fc
I0403 18:20:36.368031  6833 net.cpp:91] Creating Layer loss1/relu_fc
I0403 18:20:36.368046  6833 net.cpp:425] loss1/relu_fc <- loss1/fc
I0403 18:20:36.368063  6833 net.cpp:386] loss1/relu_fc -> loss1/fc (in-place)
I0403 18:20:36.368250  6833 net.cpp:141] Setting up loss1/relu_fc
I0403 18:20:36.368276  6833 net.cpp:148] Top shape: 24 1024 (24576)
I0403 18:20:36.368291  6833 net.cpp:156] Memory required for data: 946091040
I0403 18:20:36.368305  6833 layer_factory.hpp:77] Creating layer loss1/drop_fc
I0403 18:20:36.368331  6833 net.cpp:91] Creating Layer loss1/drop_fc
I0403 18:20:36.368347  6833 net.cpp:425] loss1/drop_fc <- loss1/fc
I0403 18:20:36.368365  6833 net.cpp:386] loss1/drop_fc -> loss1/fc (in-place)
I0403 18:20:36.368414  6833 net.cpp:141] Setting up loss1/drop_fc
I0403 18:20:36.368437  6833 net.cpp:148] Top shape: 24 1024 (24576)
I0403 18:20:36.368451  6833 net.cpp:156] Memory required for data: 946189344
I0403 18:20:36.368465  6833 layer_factory.hpp:77] Creating layer loss1/classifier_plantvillage
I0403 18:20:36.368487  6833 net.cpp:91] Creating Layer loss1/classifier_plantvillage
I0403 18:20:36.368504  6833 net.cpp:425] loss1/classifier_plantvillage <- loss1/fc
I0403 18:20:36.368520  6833 net.cpp:399] loss1/classifier_plantvillage -> loss1/classifier_plantvillage
I0403 18:20:36.369415  6833 net.cpp:141] Setting up loss1/classifier_plantvillage
I0403 18:20:36.369444  6833 net.cpp:148] Top shape: 24 38 (912)
I0403 18:20:36.369459  6833 net.cpp:156] Memory required for data: 946192992
I0403 18:20:36.369477  6833 layer_factory.hpp:77] Creating layer loss1/classifier_plantvillage_loss1/classifier_plantvillage_0_split
I0403 18:20:36.369494  6833 net.cpp:91] Creating Layer loss1/classifier_plantvillage_loss1/classifier_plantvillage_0_split
I0403 18:20:36.369509  6833 net.cpp:425] loss1/classifier_plantvillage_loss1/classifier_plantvillage_0_split <- loss1/classifier_plantvillage
I0403 18:20:36.369525  6833 net.cpp:399] loss1/classifier_plantvillage_loss1/classifier_plantvillage_0_split -> loss1/classifier_plantvillage_loss1/classifier_plantvillage_0_split_0
I0403 18:20:36.369545  6833 net.cpp:399] loss1/classifier_plantvillage_loss1/classifier_plantvillage_0_split -> loss1/classifier_plantvillage_loss1/classifier_plantvillage_0_split_1
I0403 18:20:36.369565  6833 net.cpp:399] loss1/classifier_plantvillage_loss1/classifier_plantvillage_0_split -> loss1/classifier_plantvillage_loss1/classifier_plantvillage_0_split_2
I0403 18:20:36.369629  6833 net.cpp:141] Setting up loss1/classifier_plantvillage_loss1/classifier_plantvillage_0_split
I0403 18:20:36.369652  6833 net.cpp:148] Top shape: 24 38 (912)
I0403 18:20:36.369666  6833 net.cpp:148] Top shape: 24 38 (912)
I0403 18:20:36.369681  6833 net.cpp:148] Top shape: 24 38 (912)
I0403 18:20:36.369694  6833 net.cpp:156] Memory required for data: 946203936
I0403 18:20:36.369709  6833 layer_factory.hpp:77] Creating layer inception_4b/1x1
I0403 18:20:36.369729  6833 net.cpp:91] Creating Layer inception_4b/1x1
I0403 18:20:36.369761  6833 net.cpp:425] inception_4b/1x1 <- inception_4a/output_inception_4a/output_0_split_1
I0403 18:20:36.369783  6833 net.cpp:399] inception_4b/1x1 -> inception_4b/1x1
I0403 18:20:36.371419  6833 net.cpp:141] Setting up inception_4b/1x1
I0403 18:20:36.371450  6833 net.cpp:148] Top shape: 24 160 14 14 (752640)
I0403 18:20:36.371466  6833 net.cpp:156] Memory required for data: 949214496
I0403 18:20:36.371485  6833 layer_factory.hpp:77] Creating layer inception_4b/relu_1x1
I0403 18:20:36.371502  6833 net.cpp:91] Creating Layer inception_4b/relu_1x1
I0403 18:20:36.371518  6833 net.cpp:425] inception_4b/relu_1x1 <- inception_4b/1x1
I0403 18:20:36.371551  6833 net.cpp:386] inception_4b/relu_1x1 -> inception_4b/1x1 (in-place)
I0403 18:20:36.371729  6833 net.cpp:141] Setting up inception_4b/relu_1x1
I0403 18:20:36.371753  6833 net.cpp:148] Top shape: 24 160 14 14 (752640)
I0403 18:20:36.371767  6833 net.cpp:156] Memory required for data: 952225056
I0403 18:20:36.371781  6833 layer_factory.hpp:77] Creating layer inception_4b/3x3_reduce
I0403 18:20:36.371803  6833 net.cpp:91] Creating Layer inception_4b/3x3_reduce
I0403 18:20:36.371819  6833 net.cpp:425] inception_4b/3x3_reduce <- inception_4a/output_inception_4a/output_0_split_2
I0403 18:20:36.371843  6833 net.cpp:399] inception_4b/3x3_reduce -> inception_4b/3x3_reduce
I0403 18:20:36.373174  6833 net.cpp:141] Setting up inception_4b/3x3_reduce
I0403 18:20:36.373203  6833 net.cpp:148] Top shape: 24 112 14 14 (526848)
I0403 18:20:36.373230  6833 net.cpp:156] Memory required for data: 954332448
I0403 18:20:36.373252  6833 layer_factory.hpp:77] Creating layer inception_4b/relu_3x3_reduce
I0403 18:20:36.373286  6833 net.cpp:91] Creating Layer inception_4b/relu_3x3_reduce
I0403 18:20:36.373303  6833 net.cpp:425] inception_4b/relu_3x3_reduce <- inception_4b/3x3_reduce
I0403 18:20:36.373320  6833 net.cpp:386] inception_4b/relu_3x3_reduce -> inception_4b/3x3_reduce (in-place)
I0403 18:20:36.373608  6833 net.cpp:141] Setting up inception_4b/relu_3x3_reduce
I0403 18:20:36.373634  6833 net.cpp:148] Top shape: 24 112 14 14 (526848)
I0403 18:20:36.373648  6833 net.cpp:156] Memory required for data: 956439840
I0403 18:20:36.373662  6833 layer_factory.hpp:77] Creating layer inception_4b/3x3
I0403 18:20:36.373684  6833 net.cpp:91] Creating Layer inception_4b/3x3
I0403 18:20:36.373702  6833 net.cpp:425] inception_4b/3x3 <- inception_4b/3x3_reduce
I0403 18:20:36.373723  6833 net.cpp:399] inception_4b/3x3 -> inception_4b/3x3
I0403 18:20:36.376660  6833 net.cpp:141] Setting up inception_4b/3x3
I0403 18:20:36.376688  6833 net.cpp:148] Top shape: 24 224 14 14 (1053696)
I0403 18:20:36.376703  6833 net.cpp:156] Memory required for data: 960654624
I0403 18:20:36.376721  6833 layer_factory.hpp:77] Creating layer inception_4b/relu_3x3
I0403 18:20:36.376740  6833 net.cpp:91] Creating Layer inception_4b/relu_3x3
I0403 18:20:36.376756  6833 net.cpp:425] inception_4b/relu_3x3 <- inception_4b/3x3
I0403 18:20:36.376775  6833 net.cpp:386] inception_4b/relu_3x3 -> inception_4b/3x3 (in-place)
I0403 18:20:36.376951  6833 net.cpp:141] Setting up inception_4b/relu_3x3
I0403 18:20:36.376977  6833 net.cpp:148] Top shape: 24 224 14 14 (1053696)
I0403 18:20:36.376992  6833 net.cpp:156] Memory required for data: 964869408
I0403 18:20:36.377007  6833 layer_factory.hpp:77] Creating layer inception_4b/5x5_reduce
I0403 18:20:36.377027  6833 net.cpp:91] Creating Layer inception_4b/5x5_reduce
I0403 18:20:36.377044  6833 net.cpp:425] inception_4b/5x5_reduce <- inception_4a/output_inception_4a/output_0_split_3
I0403 18:20:36.377063  6833 net.cpp:399] inception_4b/5x5_reduce -> inception_4b/5x5_reduce
I0403 18:20:36.378115  6833 net.cpp:141] Setting up inception_4b/5x5_reduce
I0403 18:20:36.378144  6833 net.cpp:148] Top shape: 24 24 14 14 (112896)
I0403 18:20:36.378159  6833 net.cpp:156] Memory required for data: 965320992
I0403 18:20:36.378190  6833 layer_factory.hpp:77] Creating layer inception_4b/relu_5x5_reduce
I0403 18:20:36.378207  6833 net.cpp:91] Creating Layer inception_4b/relu_5x5_reduce
I0403 18:20:36.378237  6833 net.cpp:425] inception_4b/relu_5x5_reduce <- inception_4b/5x5_reduce
I0403 18:20:36.378265  6833 net.cpp:386] inception_4b/relu_5x5_reduce -> inception_4b/5x5_reduce (in-place)
I0403 18:20:36.378451  6833 net.cpp:141] Setting up inception_4b/relu_5x5_reduce
I0403 18:20:36.378476  6833 net.cpp:148] Top shape: 24 24 14 14 (112896)
I0403 18:20:36.378490  6833 net.cpp:156] Memory required for data: 965772576
I0403 18:20:36.378504  6833 layer_factory.hpp:77] Creating layer inception_4b/5x5
I0403 18:20:36.378527  6833 net.cpp:91] Creating Layer inception_4b/5x5
I0403 18:20:36.378545  6833 net.cpp:425] inception_4b/5x5 <- inception_4b/5x5_reduce
I0403 18:20:36.378566  6833 net.cpp:399] inception_4b/5x5 -> inception_4b/5x5
I0403 18:20:36.379827  6833 net.cpp:141] Setting up inception_4b/5x5
I0403 18:20:36.379856  6833 net.cpp:148] Top shape: 24 64 14 14 (301056)
I0403 18:20:36.379871  6833 net.cpp:156] Memory required for data: 966976800
I0403 18:20:36.379889  6833 layer_factory.hpp:77] Creating layer inception_4b/relu_5x5
I0403 18:20:36.379906  6833 net.cpp:91] Creating Layer inception_4b/relu_5x5
I0403 18:20:36.379921  6833 net.cpp:425] inception_4b/relu_5x5 <- inception_4b/5x5
I0403 18:20:36.379942  6833 net.cpp:386] inception_4b/relu_5x5 -> inception_4b/5x5 (in-place)
I0403 18:20:36.380221  6833 net.cpp:141] Setting up inception_4b/relu_5x5
I0403 18:20:36.380254  6833 net.cpp:148] Top shape: 24 64 14 14 (301056)
I0403 18:20:36.380270  6833 net.cpp:156] Memory required for data: 968181024
I0403 18:20:36.380285  6833 layer_factory.hpp:77] Creating layer inception_4b/pool
I0403 18:20:36.380303  6833 net.cpp:91] Creating Layer inception_4b/pool
I0403 18:20:36.380319  6833 net.cpp:425] inception_4b/pool <- inception_4a/output_inception_4a/output_0_split_4
I0403 18:20:36.380338  6833 net.cpp:399] inception_4b/pool -> inception_4b/pool
I0403 18:20:36.380400  6833 net.cpp:141] Setting up inception_4b/pool
I0403 18:20:36.380424  6833 net.cpp:148] Top shape: 24 512 14 14 (2408448)
I0403 18:20:36.380437  6833 net.cpp:156] Memory required for data: 977814816
I0403 18:20:36.380452  6833 layer_factory.hpp:77] Creating layer inception_4b/pool_proj
I0403 18:20:36.380475  6833 net.cpp:91] Creating Layer inception_4b/pool_proj
I0403 18:20:36.380493  6833 net.cpp:425] inception_4b/pool_proj <- inception_4b/pool
I0403 18:20:36.380511  6833 net.cpp:399] inception_4b/pool_proj -> inception_4b/pool_proj
I0403 18:20:36.381680  6833 net.cpp:141] Setting up inception_4b/pool_proj
I0403 18:20:36.381707  6833 net.cpp:148] Top shape: 24 64 14 14 (301056)
I0403 18:20:36.381722  6833 net.cpp:156] Memory required for data: 979019040
I0403 18:20:36.381739  6833 layer_factory.hpp:77] Creating layer inception_4b/relu_pool_proj
I0403 18:20:36.381757  6833 net.cpp:91] Creating Layer inception_4b/relu_pool_proj
I0403 18:20:36.381772  6833 net.cpp:425] inception_4b/relu_pool_proj <- inception_4b/pool_proj
I0403 18:20:36.381793  6833 net.cpp:386] inception_4b/relu_pool_proj -> inception_4b/pool_proj (in-place)
I0403 18:20:36.381968  6833 net.cpp:141] Setting up inception_4b/relu_pool_proj
I0403 18:20:36.381991  6833 net.cpp:148] Top shape: 24 64 14 14 (301056)
I0403 18:20:36.382006  6833 net.cpp:156] Memory required for data: 980223264
I0403 18:20:36.382021  6833 layer_factory.hpp:77] Creating layer inception_4b/output
I0403 18:20:36.382037  6833 net.cpp:91] Creating Layer inception_4b/output
I0403 18:20:36.382055  6833 net.cpp:425] inception_4b/output <- inception_4b/1x1
I0403 18:20:36.382071  6833 net.cpp:425] inception_4b/output <- inception_4b/3x3
I0403 18:20:36.382087  6833 net.cpp:425] inception_4b/output <- inception_4b/5x5
I0403 18:20:36.382103  6833 net.cpp:425] inception_4b/output <- inception_4b/pool_proj
I0403 18:20:36.382120  6833 net.cpp:399] inception_4b/output -> inception_4b/output
I0403 18:20:36.382163  6833 net.cpp:141] Setting up inception_4b/output
I0403 18:20:36.382187  6833 net.cpp:148] Top shape: 24 512 14 14 (2408448)
I0403 18:20:36.382203  6833 net.cpp:156] Memory required for data: 989857056
I0403 18:20:36.382230  6833 layer_factory.hpp:77] Creating layer inception_4b/output_inception_4b/output_0_split
I0403 18:20:36.382271  6833 net.cpp:91] Creating Layer inception_4b/output_inception_4b/output_0_split
I0403 18:20:36.382288  6833 net.cpp:425] inception_4b/output_inception_4b/output_0_split <- inception_4b/output
I0403 18:20:36.382309  6833 net.cpp:399] inception_4b/output_inception_4b/output_0_split -> inception_4b/output_inception_4b/output_0_split_0
I0403 18:20:36.382330  6833 net.cpp:399] inception_4b/output_inception_4b/output_0_split -> inception_4b/output_inception_4b/output_0_split_1
I0403 18:20:36.382351  6833 net.cpp:399] inception_4b/output_inception_4b/output_0_split -> inception_4b/output_inception_4b/output_0_split_2
I0403 18:20:36.382371  6833 net.cpp:399] inception_4b/output_inception_4b/output_0_split -> inception_4b/output_inception_4b/output_0_split_3
I0403 18:20:36.382454  6833 net.cpp:141] Setting up inception_4b/output_inception_4b/output_0_split
I0403 18:20:36.382480  6833 net.cpp:148] Top shape: 24 512 14 14 (2408448)
I0403 18:20:36.382498  6833 net.cpp:148] Top shape: 24 512 14 14 (2408448)
I0403 18:20:36.382513  6833 net.cpp:148] Top shape: 24 512 14 14 (2408448)
I0403 18:20:36.382529  6833 net.cpp:148] Top shape: 24 512 14 14 (2408448)
I0403 18:20:36.382553  6833 net.cpp:156] Memory required for data: 1028392224
I0403 18:20:36.382567  6833 layer_factory.hpp:77] Creating layer inception_4c/1x1
I0403 18:20:36.382592  6833 net.cpp:91] Creating Layer inception_4c/1x1
I0403 18:20:36.382609  6833 net.cpp:425] inception_4c/1x1 <- inception_4b/output_inception_4b/output_0_split_0
I0403 18:20:36.382627  6833 net.cpp:399] inception_4c/1x1 -> inception_4c/1x1
I0403 18:20:36.384021  6833 net.cpp:141] Setting up inception_4c/1x1
I0403 18:20:36.384047  6833 net.cpp:148] Top shape: 24 128 14 14 (602112)
I0403 18:20:36.384062  6833 net.cpp:156] Memory required for data: 1030800672
I0403 18:20:36.384079  6833 layer_factory.hpp:77] Creating layer inception_4c/relu_1x1
I0403 18:20:36.384099  6833 net.cpp:91] Creating Layer inception_4c/relu_1x1
I0403 18:20:36.384114  6833 net.cpp:425] inception_4c/relu_1x1 <- inception_4c/1x1
I0403 18:20:36.384130  6833 net.cpp:386] inception_4c/relu_1x1 -> inception_4c/1x1 (in-place)
I0403 18:20:36.384328  6833 net.cpp:141] Setting up inception_4c/relu_1x1
I0403 18:20:36.384353  6833 net.cpp:148] Top shape: 24 128 14 14 (602112)
I0403 18:20:36.384367  6833 net.cpp:156] Memory required for data: 1033209120
I0403 18:20:36.384382  6833 layer_factory.hpp:77] Creating layer inception_4c/3x3_reduce
I0403 18:20:36.384407  6833 net.cpp:91] Creating Layer inception_4c/3x3_reduce
I0403 18:20:36.384423  6833 net.cpp:425] inception_4c/3x3_reduce <- inception_4b/output_inception_4b/output_0_split_1
I0403 18:20:36.384443  6833 net.cpp:399] inception_4c/3x3_reduce -> inception_4c/3x3_reduce
I0403 18:20:36.386450  6833 net.cpp:141] Setting up inception_4c/3x3_reduce
I0403 18:20:36.386484  6833 net.cpp:148] Top shape: 24 128 14 14 (602112)
I0403 18:20:36.386502  6833 net.cpp:156] Memory required for data: 1035617568
I0403 18:20:36.386521  6833 layer_factory.hpp:77] Creating layer inception_4c/relu_3x3_reduce
I0403 18:20:36.386550  6833 net.cpp:91] Creating Layer inception_4c/relu_3x3_reduce
I0403 18:20:36.386567  6833 net.cpp:425] inception_4c/relu_3x3_reduce <- inception_4c/3x3_reduce
I0403 18:20:36.386586  6833 net.cpp:386] inception_4c/relu_3x3_reduce -> inception_4c/3x3_reduce (in-place)
I0403 18:20:36.386873  6833 net.cpp:141] Setting up inception_4c/relu_3x3_reduce
I0403 18:20:36.386900  6833 net.cpp:148] Top shape: 24 128 14 14 (602112)
I0403 18:20:36.386917  6833 net.cpp:156] Memory required for data: 1038026016
I0403 18:20:36.386931  6833 layer_factory.hpp:77] Creating layer inception_4c/3x3
I0403 18:20:36.386956  6833 net.cpp:91] Creating Layer inception_4c/3x3
I0403 18:20:36.386975  6833 net.cpp:425] inception_4c/3x3 <- inception_4c/3x3_reduce
I0403 18:20:36.386992  6833 net.cpp:399] inception_4c/3x3 -> inception_4c/3x3
I0403 18:20:36.390664  6833 net.cpp:141] Setting up inception_4c/3x3
I0403 18:20:36.390707  6833 net.cpp:148] Top shape: 24 256 14 14 (1204224)
I0403 18:20:36.390722  6833 net.cpp:156] Memory required for data: 1042842912
I0403 18:20:36.390754  6833 layer_factory.hpp:77] Creating layer inception_4c/relu_3x3
I0403 18:20:36.390774  6833 net.cpp:91] Creating Layer inception_4c/relu_3x3
I0403 18:20:36.390789  6833 net.cpp:425] inception_4c/relu_3x3 <- inception_4c/3x3
I0403 18:20:36.390810  6833 net.cpp:386] inception_4c/relu_3x3 -> inception_4c/3x3 (in-place)
I0403 18:20:36.390995  6833 net.cpp:141] Setting up inception_4c/relu_3x3
I0403 18:20:36.391022  6833 net.cpp:148] Top shape: 24 256 14 14 (1204224)
I0403 18:20:36.391037  6833 net.cpp:156] Memory required for data: 1047659808
I0403 18:20:36.391053  6833 layer_factory.hpp:77] Creating layer inception_4c/5x5_reduce
I0403 18:20:36.391075  6833 net.cpp:91] Creating Layer inception_4c/5x5_reduce
I0403 18:20:36.391093  6833 net.cpp:425] inception_4c/5x5_reduce <- inception_4b/output_inception_4b/output_0_split_2
I0403 18:20:36.391114  6833 net.cpp:399] inception_4c/5x5_reduce -> inception_4c/5x5_reduce
I0403 18:20:36.392207  6833 net.cpp:141] Setting up inception_4c/5x5_reduce
I0403 18:20:36.392237  6833 net.cpp:148] Top shape: 24 24 14 14 (112896)
I0403 18:20:36.392266  6833 net.cpp:156] Memory required for data: 1048111392
I0403 18:20:36.392284  6833 layer_factory.hpp:77] Creating layer inception_4c/relu_5x5_reduce
I0403 18:20:36.392303  6833 net.cpp:91] Creating Layer inception_4c/relu_5x5_reduce
I0403 18:20:36.392319  6833 net.cpp:425] inception_4c/relu_5x5_reduce <- inception_4c/5x5_reduce
I0403 18:20:36.392339  6833 net.cpp:386] inception_4c/relu_5x5_reduce -> inception_4c/5x5_reduce (in-place)
I0403 18:20:36.392523  6833 net.cpp:141] Setting up inception_4c/relu_5x5_reduce
I0403 18:20:36.392546  6833 net.cpp:148] Top shape: 24 24 14 14 (112896)
I0403 18:20:36.392560  6833 net.cpp:156] Memory required for data: 1048562976
I0403 18:20:36.392575  6833 layer_factory.hpp:77] Creating layer inception_4c/5x5
I0403 18:20:36.392596  6833 net.cpp:91] Creating Layer inception_4c/5x5
I0403 18:20:36.392612  6833 net.cpp:425] inception_4c/5x5 <- inception_4c/5x5_reduce
I0403 18:20:36.392633  6833 net.cpp:399] inception_4c/5x5 -> inception_4c/5x5
I0403 18:20:36.393882  6833 net.cpp:141] Setting up inception_4c/5x5
I0403 18:20:36.393908  6833 net.cpp:148] Top shape: 24 64 14 14 (301056)
I0403 18:20:36.393923  6833 net.cpp:156] Memory required for data: 1049767200
I0403 18:20:36.393941  6833 layer_factory.hpp:77] Creating layer inception_4c/relu_5x5
I0403 18:20:36.393961  6833 net.cpp:91] Creating Layer inception_4c/relu_5x5
I0403 18:20:36.393978  6833 net.cpp:425] inception_4c/relu_5x5 <- inception_4c/5x5
I0403 18:20:36.393996  6833 net.cpp:386] inception_4c/relu_5x5 -> inception_4c/5x5 (in-place)
I0403 18:20:36.394311  6833 net.cpp:141] Setting up inception_4c/relu_5x5
I0403 18:20:36.394338  6833 net.cpp:148] Top shape: 24 64 14 14 (301056)
I0403 18:20:36.394354  6833 net.cpp:156] Memory required for data: 1050971424
I0403 18:20:36.394369  6833 layer_factory.hpp:77] Creating layer inception_4c/pool
I0403 18:20:36.394390  6833 net.cpp:91] Creating Layer inception_4c/pool
I0403 18:20:36.394408  6833 net.cpp:425] inception_4c/pool <- inception_4b/output_inception_4b/output_0_split_3
I0403 18:20:36.394428  6833 net.cpp:399] inception_4c/pool -> inception_4c/pool
I0403 18:20:36.394495  6833 net.cpp:141] Setting up inception_4c/pool
I0403 18:20:36.394520  6833 net.cpp:148] Top shape: 24 512 14 14 (2408448)
I0403 18:20:36.394536  6833 net.cpp:156] Memory required for data: 1060605216
I0403 18:20:36.394564  6833 layer_factory.hpp:77] Creating layer inception_4c/pool_proj
I0403 18:20:36.394587  6833 net.cpp:91] Creating Layer inception_4c/pool_proj
I0403 18:20:36.394603  6833 net.cpp:425] inception_4c/pool_proj <- inception_4c/pool
I0403 18:20:36.394624  6833 net.cpp:399] inception_4c/pool_proj -> inception_4c/pool_proj
I0403 18:20:36.395930  6833 net.cpp:141] Setting up inception_4c/pool_proj
I0403 18:20:36.395959  6833 net.cpp:148] Top shape: 24 64 14 14 (301056)
I0403 18:20:36.395989  6833 net.cpp:156] Memory required for data: 1061809440
I0403 18:20:36.396010  6833 layer_factory.hpp:77] Creating layer inception_4c/relu_pool_proj
I0403 18:20:36.396028  6833 net.cpp:91] Creating Layer inception_4c/relu_pool_proj
I0403 18:20:36.396045  6833 net.cpp:425] inception_4c/relu_pool_proj <- inception_4c/pool_proj
I0403 18:20:36.396065  6833 net.cpp:386] inception_4c/relu_pool_proj -> inception_4c/pool_proj (in-place)
I0403 18:20:36.396261  6833 net.cpp:141] Setting up inception_4c/relu_pool_proj
I0403 18:20:36.396288  6833 net.cpp:148] Top shape: 24 64 14 14 (301056)
I0403 18:20:36.396302  6833 net.cpp:156] Memory required for data: 1063013664
I0403 18:20:36.396318  6833 layer_factory.hpp:77] Creating layer inception_4c/output
I0403 18:20:36.396335  6833 net.cpp:91] Creating Layer inception_4c/output
I0403 18:20:36.396352  6833 net.cpp:425] inception_4c/output <- inception_4c/1x1
I0403 18:20:36.396368  6833 net.cpp:425] inception_4c/output <- inception_4c/3x3
I0403 18:20:36.396387  6833 net.cpp:425] inception_4c/output <- inception_4c/5x5
I0403 18:20:36.396404  6833 net.cpp:425] inception_4c/output <- inception_4c/pool_proj
I0403 18:20:36.396422  6833 net.cpp:399] inception_4c/output -> inception_4c/output
I0403 18:20:36.396468  6833 net.cpp:141] Setting up inception_4c/output
I0403 18:20:36.396494  6833 net.cpp:148] Top shape: 24 512 14 14 (2408448)
I0403 18:20:36.396510  6833 net.cpp:156] Memory required for data: 1072647456
I0403 18:20:36.396527  6833 layer_factory.hpp:77] Creating layer inception_4c/output_inception_4c/output_0_split
I0403 18:20:36.396544  6833 net.cpp:91] Creating Layer inception_4c/output_inception_4c/output_0_split
I0403 18:20:36.396559  6833 net.cpp:425] inception_4c/output_inception_4c/output_0_split <- inception_4c/output
I0403 18:20:36.396579  6833 net.cpp:399] inception_4c/output_inception_4c/output_0_split -> inception_4c/output_inception_4c/output_0_split_0
I0403 18:20:36.396600  6833 net.cpp:399] inception_4c/output_inception_4c/output_0_split -> inception_4c/output_inception_4c/output_0_split_1
I0403 18:20:36.396620  6833 net.cpp:399] inception_4c/output_inception_4c/output_0_split -> inception_4c/output_inception_4c/output_0_split_2
I0403 18:20:36.396641  6833 net.cpp:399] inception_4c/output_inception_4c/output_0_split -> inception_4c/output_inception_4c/output_0_split_3
I0403 18:20:36.396728  6833 net.cpp:141] Setting up inception_4c/output_inception_4c/output_0_split
I0403 18:20:36.396754  6833 net.cpp:148] Top shape: 24 512 14 14 (2408448)
I0403 18:20:36.396771  6833 net.cpp:148] Top shape: 24 512 14 14 (2408448)
I0403 18:20:36.396787  6833 net.cpp:148] Top shape: 24 512 14 14 (2408448)
I0403 18:20:36.396805  6833 net.cpp:148] Top shape: 24 512 14 14 (2408448)
I0403 18:20:36.396817  6833 net.cpp:156] Memory required for data: 1111182624
I0403 18:20:36.396832  6833 layer_factory.hpp:77] Creating layer inception_4d/1x1
I0403 18:20:36.396852  6833 net.cpp:91] Creating Layer inception_4d/1x1
I0403 18:20:36.396868  6833 net.cpp:425] inception_4d/1x1 <- inception_4c/output_inception_4c/output_0_split_0
I0403 18:20:36.396889  6833 net.cpp:399] inception_4d/1x1 -> inception_4d/1x1
I0403 18:20:36.398337  6833 net.cpp:141] Setting up inception_4d/1x1
I0403 18:20:36.398367  6833 net.cpp:148] Top shape: 24 112 14 14 (526848)
I0403 18:20:36.398387  6833 net.cpp:156] Memory required for data: 1113290016
I0403 18:20:36.398406  6833 layer_factory.hpp:77] Creating layer inception_4d/relu_1x1
I0403 18:20:36.398425  6833 net.cpp:91] Creating Layer inception_4d/relu_1x1
I0403 18:20:36.398443  6833 net.cpp:425] inception_4d/relu_1x1 <- inception_4d/1x1
I0403 18:20:36.398461  6833 net.cpp:386] inception_4d/relu_1x1 -> inception_4d/1x1 (in-place)
I0403 18:20:36.398670  6833 net.cpp:141] Setting up inception_4d/relu_1x1
I0403 18:20:36.398699  6833 net.cpp:148] Top shape: 24 112 14 14 (526848)
I0403 18:20:36.398713  6833 net.cpp:156] Memory required for data: 1115397408
I0403 18:20:36.398730  6833 layer_factory.hpp:77] Creating layer inception_4d/3x3_reduce
I0403 18:20:36.398767  6833 net.cpp:91] Creating Layer inception_4d/3x3_reduce
I0403 18:20:36.398787  6833 net.cpp:425] inception_4d/3x3_reduce <- inception_4c/output_inception_4c/output_0_split_1
I0403 18:20:36.398807  6833 net.cpp:399] inception_4d/3x3_reduce -> inception_4d/3x3_reduce
I0403 18:20:36.400367  6833 net.cpp:141] Setting up inception_4d/3x3_reduce
I0403 18:20:36.400395  6833 net.cpp:148] Top shape: 24 144 14 14 (677376)
I0403 18:20:36.400410  6833 net.cpp:156] Memory required for data: 1118106912
I0403 18:20:36.400429  6833 layer_factory.hpp:77] Creating layer inception_4d/relu_3x3_reduce
I0403 18:20:36.400449  6833 net.cpp:91] Creating Layer inception_4d/relu_3x3_reduce
I0403 18:20:36.400466  6833 net.cpp:425] inception_4d/relu_3x3_reduce <- inception_4d/3x3_reduce
I0403 18:20:36.400483  6833 net.cpp:386] inception_4d/relu_3x3_reduce -> inception_4d/3x3_reduce (in-place)
I0403 18:20:36.400780  6833 net.cpp:141] Setting up inception_4d/relu_3x3_reduce
I0403 18:20:36.400807  6833 net.cpp:148] Top shape: 24 144 14 14 (677376)
I0403 18:20:36.400823  6833 net.cpp:156] Memory required for data: 1120816416
I0403 18:20:36.400838  6833 layer_factory.hpp:77] Creating layer inception_4d/3x3
I0403 18:20:36.400861  6833 net.cpp:91] Creating Layer inception_4d/3x3
I0403 18:20:36.400879  6833 net.cpp:425] inception_4d/3x3 <- inception_4d/3x3_reduce
I0403 18:20:36.400902  6833 net.cpp:399] inception_4d/3x3 -> inception_4d/3x3
I0403 18:20:36.405447  6833 net.cpp:141] Setting up inception_4d/3x3
I0403 18:20:36.405478  6833 net.cpp:148] Top shape: 24 288 14 14 (1354752)
I0403 18:20:36.405494  6833 net.cpp:156] Memory required for data: 1126235424
I0403 18:20:36.405514  6833 layer_factory.hpp:77] Creating layer inception_4d/relu_3x3
I0403 18:20:36.405537  6833 net.cpp:91] Creating Layer inception_4d/relu_3x3
I0403 18:20:36.405555  6833 net.cpp:425] inception_4d/relu_3x3 <- inception_4d/3x3
I0403 18:20:36.405573  6833 net.cpp:386] inception_4d/relu_3x3 -> inception_4d/3x3 (in-place)
I0403 18:20:36.405778  6833 net.cpp:141] Setting up inception_4d/relu_3x3
I0403 18:20:36.405804  6833 net.cpp:148] Top shape: 24 288 14 14 (1354752)
I0403 18:20:36.405819  6833 net.cpp:156] Memory required for data: 1131654432
I0403 18:20:36.405835  6833 layer_factory.hpp:77] Creating layer inception_4d/5x5_reduce
I0403 18:20:36.405859  6833 net.cpp:91] Creating Layer inception_4d/5x5_reduce
I0403 18:20:36.405877  6833 net.cpp:425] inception_4d/5x5_reduce <- inception_4c/output_inception_4c/output_0_split_2
I0403 18:20:36.405900  6833 net.cpp:399] inception_4d/5x5_reduce -> inception_4d/5x5_reduce
I0403 18:20:36.407130  6833 net.cpp:141] Setting up inception_4d/5x5_reduce
I0403 18:20:36.407162  6833 net.cpp:148] Top shape: 24 32 14 14 (150528)
I0403 18:20:36.407178  6833 net.cpp:156] Memory required for data: 1132256544
I0403 18:20:36.407196  6833 layer_factory.hpp:77] Creating layer inception_4d/relu_5x5_reduce
I0403 18:20:36.407215  6833 net.cpp:91] Creating Layer inception_4d/relu_5x5_reduce
I0403 18:20:36.407232  6833 net.cpp:425] inception_4d/relu_5x5_reduce <- inception_4d/5x5_reduce
I0403 18:20:36.407255  6833 net.cpp:386] inception_4d/relu_5x5_reduce -> inception_4d/5x5_reduce (in-place)
I0403 18:20:36.407471  6833 net.cpp:141] Setting up inception_4d/relu_5x5_reduce
I0403 18:20:36.407500  6833 net.cpp:148] Top shape: 24 32 14 14 (150528)
I0403 18:20:36.407516  6833 net.cpp:156] Memory required for data: 1132858656
I0403 18:20:36.407531  6833 layer_factory.hpp:77] Creating layer inception_4d/5x5
I0403 18:20:36.407555  6833 net.cpp:91] Creating Layer inception_4d/5x5
I0403 18:20:36.407573  6833 net.cpp:425] inception_4d/5x5 <- inception_4d/5x5_reduce
I0403 18:20:36.407595  6833 net.cpp:399] inception_4d/5x5 -> inception_4d/5x5
I0403 18:20:36.409174  6833 net.cpp:141] Setting up inception_4d/5x5
I0403 18:20:36.409204  6833 net.cpp:148] Top shape: 24 64 14 14 (301056)
I0403 18:20:36.409219  6833 net.cpp:156] Memory required for data: 1134062880
I0403 18:20:36.409245  6833 layer_factory.hpp:77] Creating layer inception_4d/relu_5x5
I0403 18:20:36.409281  6833 net.cpp:91] Creating Layer inception_4d/relu_5x5
I0403 18:20:36.409302  6833 net.cpp:425] inception_4d/relu_5x5 <- inception_4d/5x5
I0403 18:20:36.409334  6833 net.cpp:386] inception_4d/relu_5x5 -> inception_4d/5x5 (in-place)
I0403 18:20:36.409667  6833 net.cpp:141] Setting up inception_4d/relu_5x5
I0403 18:20:36.409694  6833 net.cpp:148] Top shape: 24 64 14 14 (301056)
I0403 18:20:36.409710  6833 net.cpp:156] Memory required for data: 1135267104
I0403 18:20:36.409725  6833 layer_factory.hpp:77] Creating layer inception_4d/pool
I0403 18:20:36.409744  6833 net.cpp:91] Creating Layer inception_4d/pool
I0403 18:20:36.409760  6833 net.cpp:425] inception_4d/pool <- inception_4c/output_inception_4c/output_0_split_3
I0403 18:20:36.409781  6833 net.cpp:399] inception_4d/pool -> inception_4d/pool
I0403 18:20:36.409848  6833 net.cpp:141] Setting up inception_4d/pool
I0403 18:20:36.409875  6833 net.cpp:148] Top shape: 24 512 14 14 (2408448)
I0403 18:20:36.409890  6833 net.cpp:156] Memory required for data: 1144900896
I0403 18:20:36.409905  6833 layer_factory.hpp:77] Creating layer inception_4d/pool_proj
I0403 18:20:36.409929  6833 net.cpp:91] Creating Layer inception_4d/pool_proj
I0403 18:20:36.409946  6833 net.cpp:425] inception_4d/pool_proj <- inception_4d/pool
I0403 18:20:36.409966  6833 net.cpp:399] inception_4d/pool_proj -> inception_4d/pool_proj
I0403 18:20:36.411881  6833 net.cpp:141] Setting up inception_4d/pool_proj
I0403 18:20:36.411912  6833 net.cpp:148] Top shape: 24 64 14 14 (301056)
I0403 18:20:36.411928  6833 net.cpp:156] Memory required for data: 1146105120
I0403 18:20:36.411947  6833 layer_factory.hpp:77] Creating layer inception_4d/relu_pool_proj
I0403 18:20:36.411968  6833 net.cpp:91] Creating Layer inception_4d/relu_pool_proj
I0403 18:20:36.411985  6833 net.cpp:425] inception_4d/relu_pool_proj <- inception_4d/pool_proj
I0403 18:20:36.412003  6833 net.cpp:386] inception_4d/relu_pool_proj -> inception_4d/pool_proj (in-place)
I0403 18:20:36.412197  6833 net.cpp:141] Setting up inception_4d/relu_pool_proj
I0403 18:20:36.412223  6833 net.cpp:148] Top shape: 24 64 14 14 (301056)
I0403 18:20:36.412248  6833 net.cpp:156] Memory required for data: 1147309344
I0403 18:20:36.412267  6833 layer_factory.hpp:77] Creating layer inception_4d/output
I0403 18:20:36.412286  6833 net.cpp:91] Creating Layer inception_4d/output
I0403 18:20:36.412302  6833 net.cpp:425] inception_4d/output <- inception_4d/1x1
I0403 18:20:36.412333  6833 net.cpp:425] inception_4d/output <- inception_4d/3x3
I0403 18:20:36.412350  6833 net.cpp:425] inception_4d/output <- inception_4d/5x5
I0403 18:20:36.412367  6833 net.cpp:425] inception_4d/output <- inception_4d/pool_proj
I0403 18:20:36.412387  6833 net.cpp:399] inception_4d/output -> inception_4d/output
I0403 18:20:36.412438  6833 net.cpp:141] Setting up inception_4d/output
I0403 18:20:36.412467  6833 net.cpp:148] Top shape: 24 528 14 14 (2483712)
I0403 18:20:36.412482  6833 net.cpp:156] Memory required for data: 1157244192
I0403 18:20:36.412497  6833 layer_factory.hpp:77] Creating layer inception_4d/output_inception_4d/output_0_split
I0403 18:20:36.412516  6833 net.cpp:91] Creating Layer inception_4d/output_inception_4d/output_0_split
I0403 18:20:36.412533  6833 net.cpp:425] inception_4d/output_inception_4d/output_0_split <- inception_4d/output
I0403 18:20:36.412551  6833 net.cpp:399] inception_4d/output_inception_4d/output_0_split -> inception_4d/output_inception_4d/output_0_split_0
I0403 18:20:36.412575  6833 net.cpp:399] inception_4d/output_inception_4d/output_0_split -> inception_4d/output_inception_4d/output_0_split_1
I0403 18:20:36.412598  6833 net.cpp:399] inception_4d/output_inception_4d/output_0_split -> inception_4d/output_inception_4d/output_0_split_2
I0403 18:20:36.412631  6833 net.cpp:399] inception_4d/output_inception_4d/output_0_split -> inception_4d/output_inception_4d/output_0_split_3
I0403 18:20:36.412652  6833 net.cpp:399] inception_4d/output_inception_4d/output_0_split -> inception_4d/output_inception_4d/output_0_split_4
I0403 18:20:36.412760  6833 net.cpp:141] Setting up inception_4d/output_inception_4d/output_0_split
I0403 18:20:36.412796  6833 net.cpp:148] Top shape: 24 528 14 14 (2483712)
I0403 18:20:36.412814  6833 net.cpp:148] Top shape: 24 528 14 14 (2483712)
I0403 18:20:36.412830  6833 net.cpp:148] Top shape: 24 528 14 14 (2483712)
I0403 18:20:36.412847  6833 net.cpp:148] Top shape: 24 528 14 14 (2483712)
I0403 18:20:36.412863  6833 net.cpp:148] Top shape: 24 528 14 14 (2483712)
I0403 18:20:36.412878  6833 net.cpp:156] Memory required for data: 1206918432
I0403 18:20:36.412892  6833 layer_factory.hpp:77] Creating layer loss2/ave_pool
I0403 18:20:36.412914  6833 net.cpp:91] Creating Layer loss2/ave_pool
I0403 18:20:36.412930  6833 net.cpp:425] loss2/ave_pool <- inception_4d/output_inception_4d/output_0_split_0
I0403 18:20:36.412948  6833 net.cpp:399] loss2/ave_pool -> loss2/ave_pool
I0403 18:20:36.413277  6833 net.cpp:141] Setting up loss2/ave_pool
I0403 18:20:36.413305  6833 net.cpp:148] Top shape: 24 528 4 4 (202752)
I0403 18:20:36.413321  6833 net.cpp:156] Memory required for data: 1207729440
I0403 18:20:36.413337  6833 layer_factory.hpp:77] Creating layer loss2/conv
I0403 18:20:36.413362  6833 net.cpp:91] Creating Layer loss2/conv
I0403 18:20:36.413379  6833 net.cpp:425] loss2/conv <- loss2/ave_pool
I0403 18:20:36.413399  6833 net.cpp:399] loss2/conv -> loss2/conv
I0403 18:20:36.415383  6833 net.cpp:141] Setting up loss2/conv
I0403 18:20:36.415411  6833 net.cpp:148] Top shape: 24 128 4 4 (49152)
I0403 18:20:36.415427  6833 net.cpp:156] Memory required for data: 1207926048
I0403 18:20:36.415446  6833 layer_factory.hpp:77] Creating layer loss2/relu_conv
I0403 18:20:36.415463  6833 net.cpp:91] Creating Layer loss2/relu_conv
I0403 18:20:36.415478  6833 net.cpp:425] loss2/relu_conv <- loss2/conv
I0403 18:20:36.415498  6833 net.cpp:386] loss2/relu_conv -> loss2/conv (in-place)
I0403 18:20:36.415784  6833 net.cpp:141] Setting up loss2/relu_conv
I0403 18:20:36.415810  6833 net.cpp:148] Top shape: 24 128 4 4 (49152)
I0403 18:20:36.415825  6833 net.cpp:156] Memory required for data: 1208122656
I0403 18:20:36.415841  6833 layer_factory.hpp:77] Creating layer loss2/fc
I0403 18:20:36.415860  6833 net.cpp:91] Creating Layer loss2/fc
I0403 18:20:36.415875  6833 net.cpp:425] loss2/fc <- loss2/conv
I0403 18:20:36.415896  6833 net.cpp:399] loss2/fc -> loss2/fc
I0403 18:20:36.433838  6833 net.cpp:141] Setting up loss2/fc
I0403 18:20:36.433871  6833 net.cpp:148] Top shape: 24 1024 (24576)
I0403 18:20:36.433886  6833 net.cpp:156] Memory required for data: 1208220960
I0403 18:20:36.433904  6833 layer_factory.hpp:77] Creating layer loss2/relu_fc
I0403 18:20:36.433922  6833 net.cpp:91] Creating Layer loss2/relu_fc
I0403 18:20:36.433938  6833 net.cpp:425] loss2/relu_fc <- loss2/fc
I0403 18:20:36.433954  6833 net.cpp:386] loss2/relu_fc -> loss2/fc (in-place)
I0403 18:20:36.434305  6833 net.cpp:141] Setting up loss2/relu_fc
I0403 18:20:36.434334  6833 net.cpp:148] Top shape: 24 1024 (24576)
I0403 18:20:36.434350  6833 net.cpp:156] Memory required for data: 1208319264
I0403 18:20:36.434365  6833 layer_factory.hpp:77] Creating layer loss2/drop_fc
I0403 18:20:36.434382  6833 net.cpp:91] Creating Layer loss2/drop_fc
I0403 18:20:36.434398  6833 net.cpp:425] loss2/drop_fc <- loss2/fc
I0403 18:20:36.434415  6833 net.cpp:386] loss2/drop_fc -> loss2/fc (in-place)
I0403 18:20:36.434466  6833 net.cpp:141] Setting up loss2/drop_fc
I0403 18:20:36.434489  6833 net.cpp:148] Top shape: 24 1024 (24576)
I0403 18:20:36.434504  6833 net.cpp:156] Memory required for data: 1208417568
I0403 18:20:36.434517  6833 layer_factory.hpp:77] Creating layer loss2/classifier_plantvillage
I0403 18:20:36.434551  6833 net.cpp:91] Creating Layer loss2/classifier_plantvillage
I0403 18:20:36.434568  6833 net.cpp:425] loss2/classifier_plantvillage <- loss2/fc
I0403 18:20:36.434587  6833 net.cpp:399] loss2/classifier_plantvillage -> loss2/classifier_plantvillage
I0403 18:20:36.434983  6833 net.cpp:141] Setting up loss2/classifier_plantvillage
I0403 18:20:36.435008  6833 net.cpp:148] Top shape: 24 38 (912)
I0403 18:20:36.435044  6833 net.cpp:156] Memory required for data: 1208421216
I0403 18:20:36.435062  6833 layer_factory.hpp:77] Creating layer loss2/classifier_plantvillage_loss2/classifier_plantvillage_0_split
I0403 18:20:36.435081  6833 net.cpp:91] Creating Layer loss2/classifier_plantvillage_loss2/classifier_plantvillage_0_split
I0403 18:20:36.435096  6833 net.cpp:425] loss2/classifier_plantvillage_loss2/classifier_plantvillage_0_split <- loss2/classifier_plantvillage
I0403 18:20:36.435116  6833 net.cpp:399] loss2/classifier_plantvillage_loss2/classifier_plantvillage_0_split -> loss2/classifier_plantvillage_loss2/classifier_plantvillage_0_split_0
I0403 18:20:36.435135  6833 net.cpp:399] loss2/classifier_plantvillage_loss2/classifier_plantvillage_0_split -> loss2/classifier_plantvillage_loss2/classifier_plantvillage_0_split_1
I0403 18:20:36.435154  6833 net.cpp:399] loss2/classifier_plantvillage_loss2/classifier_plantvillage_0_split -> loss2/classifier_plantvillage_loss2/classifier_plantvillage_0_split_2
I0403 18:20:36.435231  6833 net.cpp:141] Setting up loss2/classifier_plantvillage_loss2/classifier_plantvillage_0_split
I0403 18:20:36.435271  6833 net.cpp:148] Top shape: 24 38 (912)
I0403 18:20:36.435287  6833 net.cpp:148] Top shape: 24 38 (912)
I0403 18:20:36.435302  6833 net.cpp:148] Top shape: 24 38 (912)
I0403 18:20:36.435317  6833 net.cpp:156] Memory required for data: 1208432160
I0403 18:20:36.435329  6833 layer_factory.hpp:77] Creating layer inception_4e/1x1
I0403 18:20:36.435353  6833 net.cpp:91] Creating Layer inception_4e/1x1
I0403 18:20:36.435370  6833 net.cpp:425] inception_4e/1x1 <- inception_4d/output_inception_4d/output_0_split_1
I0403 18:20:36.435389  6833 net.cpp:399] inception_4e/1x1 -> inception_4e/1x1
I0403 18:20:36.437194  6833 net.cpp:141] Setting up inception_4e/1x1
I0403 18:20:36.437222  6833 net.cpp:148] Top shape: 24 256 14 14 (1204224)
I0403 18:20:36.437237  6833 net.cpp:156] Memory required for data: 1213249056
I0403 18:20:36.437259  6833 layer_factory.hpp:77] Creating layer inception_4e/relu_1x1
I0403 18:20:36.437279  6833 net.cpp:91] Creating Layer inception_4e/relu_1x1
I0403 18:20:36.437295  6833 net.cpp:425] inception_4e/relu_1x1 <- inception_4e/1x1
I0403 18:20:36.437312  6833 net.cpp:386] inception_4e/relu_1x1 -> inception_4e/1x1 (in-place)
I0403 18:20:36.437602  6833 net.cpp:141] Setting up inception_4e/relu_1x1
I0403 18:20:36.437628  6833 net.cpp:148] Top shape: 24 256 14 14 (1204224)
I0403 18:20:36.437641  6833 net.cpp:156] Memory required for data: 1218065952
I0403 18:20:36.437656  6833 layer_factory.hpp:77] Creating layer inception_4e/3x3_reduce
I0403 18:20:36.437679  6833 net.cpp:91] Creating Layer inception_4e/3x3_reduce
I0403 18:20:36.437695  6833 net.cpp:425] inception_4e/3x3_reduce <- inception_4d/output_inception_4d/output_0_split_2
I0403 18:20:36.437716  6833 net.cpp:399] inception_4e/3x3_reduce -> inception_4e/3x3_reduce
I0403 18:20:36.439867  6833 net.cpp:141] Setting up inception_4e/3x3_reduce
I0403 18:20:36.439893  6833 net.cpp:148] Top shape: 24 160 14 14 (752640)
I0403 18:20:36.439908  6833 net.cpp:156] Memory required for data: 1221076512
I0403 18:20:36.439926  6833 layer_factory.hpp:77] Creating layer inception_4e/relu_3x3_reduce
I0403 18:20:36.439944  6833 net.cpp:91] Creating Layer inception_4e/relu_3x3_reduce
I0403 18:20:36.439960  6833 net.cpp:425] inception_4e/relu_3x3_reduce <- inception_4e/3x3_reduce
I0403 18:20:36.439978  6833 net.cpp:386] inception_4e/relu_3x3_reduce -> inception_4e/3x3_reduce (in-place)
I0403 18:20:36.440160  6833 net.cpp:141] Setting up inception_4e/relu_3x3_reduce
I0403 18:20:36.440186  6833 net.cpp:148] Top shape: 24 160 14 14 (752640)
I0403 18:20:36.440199  6833 net.cpp:156] Memory required for data: 1224087072
I0403 18:20:36.440214  6833 layer_factory.hpp:77] Creating layer inception_4e/3x3
I0403 18:20:36.440237  6833 net.cpp:91] Creating Layer inception_4e/3x3
I0403 18:20:36.440256  6833 net.cpp:425] inception_4e/3x3 <- inception_4e/3x3_reduce
I0403 18:20:36.440277  6833 net.cpp:399] inception_4e/3x3 -> inception_4e/3x3
I0403 18:20:36.445261  6833 net.cpp:141] Setting up inception_4e/3x3
I0403 18:20:36.445300  6833 net.cpp:148] Top shape: 24 320 14 14 (1505280)
I0403 18:20:36.445317  6833 net.cpp:156] Memory required for data: 1230108192
I0403 18:20:36.445334  6833 layer_factory.hpp:77] Creating layer inception_4e/relu_3x3
I0403 18:20:36.445354  6833 net.cpp:91] Creating Layer inception_4e/relu_3x3
I0403 18:20:36.445370  6833 net.cpp:425] inception_4e/relu_3x3 <- inception_4e/3x3
I0403 18:20:36.445386  6833 net.cpp:386] inception_4e/relu_3x3 -> inception_4e/3x3 (in-place)
I0403 18:20:36.445679  6833 net.cpp:141] Setting up inception_4e/relu_3x3
I0403 18:20:36.445708  6833 net.cpp:148] Top shape: 24 320 14 14 (1505280)
I0403 18:20:36.445724  6833 net.cpp:156] Memory required for data: 1236129312
I0403 18:20:36.445737  6833 layer_factory.hpp:77] Creating layer inception_4e/5x5_reduce
I0403 18:20:36.445756  6833 net.cpp:91] Creating Layer inception_4e/5x5_reduce
I0403 18:20:36.445772  6833 net.cpp:425] inception_4e/5x5_reduce <- inception_4d/output_inception_4d/output_0_split_3
I0403 18:20:36.445794  6833 net.cpp:399] inception_4e/5x5_reduce -> inception_4e/5x5_reduce
I0403 18:20:36.446874  6833 net.cpp:141] Setting up inception_4e/5x5_reduce
I0403 18:20:36.446900  6833 net.cpp:148] Top shape: 24 32 14 14 (150528)
I0403 18:20:36.446915  6833 net.cpp:156] Memory required for data: 1236731424
I0403 18:20:36.446933  6833 layer_factory.hpp:77] Creating layer inception_4e/relu_5x5_reduce
I0403 18:20:36.446951  6833 net.cpp:91] Creating Layer inception_4e/relu_5x5_reduce
I0403 18:20:36.446969  6833 net.cpp:425] inception_4e/relu_5x5_reduce <- inception_4e/5x5_reduce
I0403 18:20:36.446986  6833 net.cpp:386] inception_4e/relu_5x5_reduce -> inception_4e/5x5_reduce (in-place)
I0403 18:20:36.447285  6833 net.cpp:141] Setting up inception_4e/relu_5x5_reduce
I0403 18:20:36.447310  6833 net.cpp:148] Top shape: 24 32 14 14 (150528)
I0403 18:20:36.447325  6833 net.cpp:156] Memory required for data: 1237333536
I0403 18:20:36.447340  6833 layer_factory.hpp:77] Creating layer inception_4e/5x5
I0403 18:20:36.447378  6833 net.cpp:91] Creating Layer inception_4e/5x5
I0403 18:20:36.447397  6833 net.cpp:425] inception_4e/5x5 <- inception_4e/5x5_reduce
I0403 18:20:36.447417  6833 net.cpp:399] inception_4e/5x5 -> inception_4e/5x5
I0403 18:20:36.449235  6833 net.cpp:141] Setting up inception_4e/5x5
I0403 18:20:36.449268  6833 net.cpp:148] Top shape: 24 128 14 14 (602112)
I0403 18:20:36.449285  6833 net.cpp:156] Memory required for data: 1239741984
I0403 18:20:36.449302  6833 layer_factory.hpp:77] Creating layer inception_4e/relu_5x5
I0403 18:20:36.449321  6833 net.cpp:91] Creating Layer inception_4e/relu_5x5
I0403 18:20:36.449337  6833 net.cpp:425] inception_4e/relu_5x5 <- inception_4e/5x5
I0403 18:20:36.449355  6833 net.cpp:386] inception_4e/relu_5x5 -> inception_4e/5x5 (in-place)
I0403 18:20:36.449548  6833 net.cpp:141] Setting up inception_4e/relu_5x5
I0403 18:20:36.449573  6833 net.cpp:148] Top shape: 24 128 14 14 (602112)
I0403 18:20:36.449586  6833 net.cpp:156] Memory required for data: 1242150432
I0403 18:20:36.449601  6833 layer_factory.hpp:77] Creating layer inception_4e/pool
I0403 18:20:36.449620  6833 net.cpp:91] Creating Layer inception_4e/pool
I0403 18:20:36.449636  6833 net.cpp:425] inception_4e/pool <- inception_4d/output_inception_4d/output_0_split_4
I0403 18:20:36.449656  6833 net.cpp:399] inception_4e/pool -> inception_4e/pool
I0403 18:20:36.449724  6833 net.cpp:141] Setting up inception_4e/pool
I0403 18:20:36.449748  6833 net.cpp:148] Top shape: 24 528 14 14 (2483712)
I0403 18:20:36.449761  6833 net.cpp:156] Memory required for data: 1252085280
I0403 18:20:36.449776  6833 layer_factory.hpp:77] Creating layer inception_4e/pool_proj
I0403 18:20:36.449800  6833 net.cpp:91] Creating Layer inception_4e/pool_proj
I0403 18:20:36.449816  6833 net.cpp:425] inception_4e/pool_proj <- inception_4e/pool
I0403 18:20:36.449834  6833 net.cpp:399] inception_4e/pool_proj -> inception_4e/pool_proj
I0403 18:20:36.451393  6833 net.cpp:141] Setting up inception_4e/pool_proj
I0403 18:20:36.451437  6833 net.cpp:148] Top shape: 24 128 14 14 (602112)
I0403 18:20:36.451454  6833 net.cpp:156] Memory required for data: 1254493728
I0403 18:20:36.451473  6833 layer_factory.hpp:77] Creating layer inception_4e/relu_pool_proj
I0403 18:20:36.451493  6833 net.cpp:91] Creating Layer inception_4e/relu_pool_proj
I0403 18:20:36.451508  6833 net.cpp:425] inception_4e/relu_pool_proj <- inception_4e/pool_proj
I0403 18:20:36.451529  6833 net.cpp:386] inception_4e/relu_pool_proj -> inception_4e/pool_proj (in-place)
I0403 18:20:36.451850  6833 net.cpp:141] Setting up inception_4e/relu_pool_proj
I0403 18:20:36.451880  6833 net.cpp:148] Top shape: 24 128 14 14 (602112)
I0403 18:20:36.451895  6833 net.cpp:156] Memory required for data: 1256902176
I0403 18:20:36.451911  6833 layer_factory.hpp:77] Creating layer inception_4e/output
I0403 18:20:36.451930  6833 net.cpp:91] Creating Layer inception_4e/output
I0403 18:20:36.451944  6833 net.cpp:425] inception_4e/output <- inception_4e/1x1
I0403 18:20:36.451962  6833 net.cpp:425] inception_4e/output <- inception_4e/3x3
I0403 18:20:36.451978  6833 net.cpp:425] inception_4e/output <- inception_4e/5x5
I0403 18:20:36.452006  6833 net.cpp:425] inception_4e/output <- inception_4e/pool_proj
I0403 18:20:36.452024  6833 net.cpp:399] inception_4e/output -> inception_4e/output
I0403 18:20:36.452075  6833 net.cpp:141] Setting up inception_4e/output
I0403 18:20:36.452100  6833 net.cpp:148] Top shape: 24 832 14 14 (3913728)
I0403 18:20:36.452114  6833 net.cpp:156] Memory required for data: 1272557088
I0403 18:20:36.452128  6833 layer_factory.hpp:77] Creating layer pool4/3x3_s2
I0403 18:20:36.452149  6833 net.cpp:91] Creating Layer pool4/3x3_s2
I0403 18:20:36.452165  6833 net.cpp:425] pool4/3x3_s2 <- inception_4e/output
I0403 18:20:36.452184  6833 net.cpp:399] pool4/3x3_s2 -> pool4/3x3_s2
I0403 18:20:36.452265  6833 net.cpp:141] Setting up pool4/3x3_s2
I0403 18:20:36.452288  6833 net.cpp:148] Top shape: 24 832 7 7 (978432)
I0403 18:20:36.452303  6833 net.cpp:156] Memory required for data: 1276470816
I0403 18:20:36.452317  6833 layer_factory.hpp:77] Creating layer pool4/3x3_s2_pool4/3x3_s2_0_split
I0403 18:20:36.452335  6833 net.cpp:91] Creating Layer pool4/3x3_s2_pool4/3x3_s2_0_split
I0403 18:20:36.452352  6833 net.cpp:425] pool4/3x3_s2_pool4/3x3_s2_0_split <- pool4/3x3_s2
I0403 18:20:36.452370  6833 net.cpp:399] pool4/3x3_s2_pool4/3x3_s2_0_split -> pool4/3x3_s2_pool4/3x3_s2_0_split_0
I0403 18:20:36.452391  6833 net.cpp:399] pool4/3x3_s2_pool4/3x3_s2_0_split -> pool4/3x3_s2_pool4/3x3_s2_0_split_1
I0403 18:20:36.452410  6833 net.cpp:399] pool4/3x3_s2_pool4/3x3_s2_0_split -> pool4/3x3_s2_pool4/3x3_s2_0_split_2
I0403 18:20:36.452430  6833 net.cpp:399] pool4/3x3_s2_pool4/3x3_s2_0_split -> pool4/3x3_s2_pool4/3x3_s2_0_split_3
I0403 18:20:36.452522  6833 net.cpp:141] Setting up pool4/3x3_s2_pool4/3x3_s2_0_split
I0403 18:20:36.452548  6833 net.cpp:148] Top shape: 24 832 7 7 (978432)
I0403 18:20:36.452564  6833 net.cpp:148] Top shape: 24 832 7 7 (978432)
I0403 18:20:36.452580  6833 net.cpp:148] Top shape: 24 832 7 7 (978432)
I0403 18:20:36.452595  6833 net.cpp:148] Top shape: 24 832 7 7 (978432)
I0403 18:20:36.452610  6833 net.cpp:156] Memory required for data: 1292125728
I0403 18:20:36.452625  6833 layer_factory.hpp:77] Creating layer inception_5a/1x1
I0403 18:20:36.452646  6833 net.cpp:91] Creating Layer inception_5a/1x1
I0403 18:20:36.452663  6833 net.cpp:425] inception_5a/1x1 <- pool4/3x3_s2_pool4/3x3_s2_0_split_0
I0403 18:20:36.452682  6833 net.cpp:399] inception_5a/1x1 -> inception_5a/1x1
I0403 18:20:36.455601  6833 net.cpp:141] Setting up inception_5a/1x1
I0403 18:20:36.455631  6833 net.cpp:148] Top shape: 24 256 7 7 (301056)
I0403 18:20:36.455646  6833 net.cpp:156] Memory required for data: 1293329952
I0403 18:20:36.455665  6833 layer_factory.hpp:77] Creating layer inception_5a/relu_1x1
I0403 18:20:36.455682  6833 net.cpp:91] Creating Layer inception_5a/relu_1x1
I0403 18:20:36.455698  6833 net.cpp:425] inception_5a/relu_1x1 <- inception_5a/1x1
I0403 18:20:36.455718  6833 net.cpp:386] inception_5a/relu_1x1 -> inception_5a/1x1 (in-place)
I0403 18:20:36.456035  6833 net.cpp:141] Setting up inception_5a/relu_1x1
I0403 18:20:36.456063  6833 net.cpp:148] Top shape: 24 256 7 7 (301056)
I0403 18:20:36.456079  6833 net.cpp:156] Memory required for data: 1294534176
I0403 18:20:36.456094  6833 layer_factory.hpp:77] Creating layer inception_5a/3x3_reduce
I0403 18:20:36.456115  6833 net.cpp:91] Creating Layer inception_5a/3x3_reduce
I0403 18:20:36.456131  6833 net.cpp:425] inception_5a/3x3_reduce <- pool4/3x3_s2_pool4/3x3_s2_0_split_1
I0403 18:20:36.456153  6833 net.cpp:399] inception_5a/3x3_reduce -> inception_5a/3x3_reduce
I0403 18:20:36.458673  6833 net.cpp:141] Setting up inception_5a/3x3_reduce
I0403 18:20:36.458703  6833 net.cpp:148] Top shape: 24 160 7 7 (188160)
I0403 18:20:36.458717  6833 net.cpp:156] Memory required for data: 1295286816
I0403 18:20:36.458736  6833 layer_factory.hpp:77] Creating layer inception_5a/relu_3x3_reduce
I0403 18:20:36.458756  6833 net.cpp:91] Creating Layer inception_5a/relu_3x3_reduce
I0403 18:20:36.458773  6833 net.cpp:425] inception_5a/relu_3x3_reduce <- inception_5a/3x3_reduce
I0403 18:20:36.458791  6833 net.cpp:386] inception_5a/relu_3x3_reduce -> inception_5a/3x3_reduce (in-place)
I0403 18:20:36.458979  6833 net.cpp:141] Setting up inception_5a/relu_3x3_reduce
I0403 18:20:36.459007  6833 net.cpp:148] Top shape: 24 160 7 7 (188160)
I0403 18:20:36.459022  6833 net.cpp:156] Memory required for data: 1296039456
I0403 18:20:36.459038  6833 layer_factory.hpp:77] Creating layer inception_5a/3x3
I0403 18:20:36.459060  6833 net.cpp:91] Creating Layer inception_5a/3x3
I0403 18:20:36.459079  6833 net.cpp:425] inception_5a/3x3 <- inception_5a/3x3_reduce
I0403 18:20:36.459100  6833 net.cpp:399] inception_5a/3x3 -> inception_5a/3x3
I0403 18:20:36.464275  6833 net.cpp:141] Setting up inception_5a/3x3
I0403 18:20:36.464308  6833 net.cpp:148] Top shape: 24 320 7 7 (376320)
I0403 18:20:36.464324  6833 net.cpp:156] Memory required for data: 1297544736
I0403 18:20:36.464344  6833 layer_factory.hpp:77] Creating layer inception_5a/relu_3x3
I0403 18:20:36.464360  6833 net.cpp:91] Creating Layer inception_5a/relu_3x3
I0403 18:20:36.464377  6833 net.cpp:425] inception_5a/relu_3x3 <- inception_5a/3x3
I0403 18:20:36.464396  6833 net.cpp:386] inception_5a/relu_3x3 -> inception_5a/3x3 (in-place)
I0403 18:20:36.464690  6833 net.cpp:141] Setting up inception_5a/relu_3x3
I0403 18:20:36.464720  6833 net.cpp:148] Top shape: 24 320 7 7 (376320)
I0403 18:20:36.464735  6833 net.cpp:156] Memory required for data: 1299050016
I0403 18:20:36.464751  6833 layer_factory.hpp:77] Creating layer inception_5a/5x5_reduce
I0403 18:20:36.464774  6833 net.cpp:91] Creating Layer inception_5a/5x5_reduce
I0403 18:20:36.464792  6833 net.cpp:425] inception_5a/5x5_reduce <- pool4/3x3_s2_pool4/3x3_s2_0_split_2
I0403 18:20:36.464812  6833 net.cpp:399] inception_5a/5x5_reduce -> inception_5a/5x5_reduce
I0403 18:20:36.465991  6833 net.cpp:141] Setting up inception_5a/5x5_reduce
I0403 18:20:36.466020  6833 net.cpp:148] Top shape: 24 32 7 7 (37632)
I0403 18:20:36.466035  6833 net.cpp:156] Memory required for data: 1299200544
I0403 18:20:36.466054  6833 layer_factory.hpp:77] Creating layer inception_5a/relu_5x5_reduce
I0403 18:20:36.466073  6833 net.cpp:91] Creating Layer inception_5a/relu_5x5_reduce
I0403 18:20:36.466089  6833 net.cpp:425] inception_5a/relu_5x5_reduce <- inception_5a/5x5_reduce
I0403 18:20:36.466107  6833 net.cpp:386] inception_5a/relu_5x5_reduce -> inception_5a/5x5_reduce (in-place)
I0403 18:20:36.466434  6833 net.cpp:141] Setting up inception_5a/relu_5x5_reduce
I0403 18:20:36.466460  6833 net.cpp:148] Top shape: 24 32 7 7 (37632)
I0403 18:20:36.466475  6833 net.cpp:156] Memory required for data: 1299351072
I0403 18:20:36.466490  6833 layer_factory.hpp:77] Creating layer inception_5a/5x5
I0403 18:20:36.466513  6833 net.cpp:91] Creating Layer inception_5a/5x5
I0403 18:20:36.466531  6833 net.cpp:425] inception_5a/5x5 <- inception_5a/5x5_reduce
I0403 18:20:36.466564  6833 net.cpp:399] inception_5a/5x5 -> inception_5a/5x5
I0403 18:20:36.468348  6833 net.cpp:141] Setting up inception_5a/5x5
I0403 18:20:36.468402  6833 net.cpp:148] Top shape: 24 128 7 7 (150528)
I0403 18:20:36.468420  6833 net.cpp:156] Memory required for data: 1299953184
I0403 18:20:36.468438  6833 layer_factory.hpp:77] Creating layer inception_5a/relu_5x5
I0403 18:20:36.468456  6833 net.cpp:91] Creating Layer inception_5a/relu_5x5
I0403 18:20:36.468472  6833 net.cpp:425] inception_5a/relu_5x5 <- inception_5a/5x5
I0403 18:20:36.468492  6833 net.cpp:386] inception_5a/relu_5x5 -> inception_5a/5x5 (in-place)
I0403 18:20:36.468698  6833 net.cpp:141] Setting up inception_5a/relu_5x5
I0403 18:20:36.468722  6833 net.cpp:148] Top shape: 24 128 7 7 (150528)
I0403 18:20:36.468736  6833 net.cpp:156] Memory required for data: 1300555296
I0403 18:20:36.468751  6833 layer_factory.hpp:77] Creating layer inception_5a/pool
I0403 18:20:36.468768  6833 net.cpp:91] Creating Layer inception_5a/pool
I0403 18:20:36.468785  6833 net.cpp:425] inception_5a/pool <- pool4/3x3_s2_pool4/3x3_s2_0_split_3
I0403 18:20:36.468806  6833 net.cpp:399] inception_5a/pool -> inception_5a/pool
I0403 18:20:36.468874  6833 net.cpp:141] Setting up inception_5a/pool
I0403 18:20:36.468899  6833 net.cpp:148] Top shape: 24 832 7 7 (978432)
I0403 18:20:36.468914  6833 net.cpp:156] Memory required for data: 1304469024
I0403 18:20:36.468927  6833 layer_factory.hpp:77] Creating layer inception_5a/pool_proj
I0403 18:20:36.468951  6833 net.cpp:91] Creating Layer inception_5a/pool_proj
I0403 18:20:36.468968  6833 net.cpp:425] inception_5a/pool_proj <- inception_5a/pool
I0403 18:20:36.468986  6833 net.cpp:399] inception_5a/pool_proj -> inception_5a/pool_proj
I0403 18:20:36.471297  6833 net.cpp:141] Setting up inception_5a/pool_proj
I0403 18:20:36.471328  6833 net.cpp:148] Top shape: 24 128 7 7 (150528)
I0403 18:20:36.471343  6833 net.cpp:156] Memory required for data: 1305071136
I0403 18:20:36.471360  6833 layer_factory.hpp:77] Creating layer inception_5a/relu_pool_proj
I0403 18:20:36.471379  6833 net.cpp:91] Creating Layer inception_5a/relu_pool_proj
I0403 18:20:36.471395  6833 net.cpp:425] inception_5a/relu_pool_proj <- inception_5a/pool_proj
I0403 18:20:36.471410  6833 net.cpp:386] inception_5a/relu_pool_proj -> inception_5a/pool_proj (in-place)
I0403 18:20:36.471705  6833 net.cpp:141] Setting up inception_5a/relu_pool_proj
I0403 18:20:36.471734  6833 net.cpp:148] Top shape: 24 128 7 7 (150528)
I0403 18:20:36.471748  6833 net.cpp:156] Memory required for data: 1305673248
I0403 18:20:36.471762  6833 layer_factory.hpp:77] Creating layer inception_5a/output
I0403 18:20:36.471779  6833 net.cpp:91] Creating Layer inception_5a/output
I0403 18:20:36.471796  6833 net.cpp:425] inception_5a/output <- inception_5a/1x1
I0403 18:20:36.471810  6833 net.cpp:425] inception_5a/output <- inception_5a/3x3
I0403 18:20:36.471827  6833 net.cpp:425] inception_5a/output <- inception_5a/5x5
I0403 18:20:36.471842  6833 net.cpp:425] inception_5a/output <- inception_5a/pool_proj
I0403 18:20:36.471858  6833 net.cpp:399] inception_5a/output -> inception_5a/output
I0403 18:20:36.471907  6833 net.cpp:141] Setting up inception_5a/output
I0403 18:20:36.471931  6833 net.cpp:148] Top shape: 24 832 7 7 (978432)
I0403 18:20:36.471946  6833 net.cpp:156] Memory required for data: 1309586976
I0403 18:20:36.471961  6833 layer_factory.hpp:77] Creating layer inception_5a/output_inception_5a/output_0_split
I0403 18:20:36.471979  6833 net.cpp:91] Creating Layer inception_5a/output_inception_5a/output_0_split
I0403 18:20:36.471995  6833 net.cpp:425] inception_5a/output_inception_5a/output_0_split <- inception_5a/output
I0403 18:20:36.472012  6833 net.cpp:399] inception_5a/output_inception_5a/output_0_split -> inception_5a/output_inception_5a/output_0_split_0
I0403 18:20:36.472033  6833 net.cpp:399] inception_5a/output_inception_5a/output_0_split -> inception_5a/output_inception_5a/output_0_split_1
I0403 18:20:36.472051  6833 net.cpp:399] inception_5a/output_inception_5a/output_0_split -> inception_5a/output_inception_5a/output_0_split_2
I0403 18:20:36.472071  6833 net.cpp:399] inception_5a/output_inception_5a/output_0_split -> inception_5a/output_inception_5a/output_0_split_3
I0403 18:20:36.472183  6833 net.cpp:141] Setting up inception_5a/output_inception_5a/output_0_split
I0403 18:20:36.472206  6833 net.cpp:148] Top shape: 24 832 7 7 (978432)
I0403 18:20:36.472223  6833 net.cpp:148] Top shape: 24 832 7 7 (978432)
I0403 18:20:36.472237  6833 net.cpp:148] Top shape: 24 832 7 7 (978432)
I0403 18:20:36.472265  6833 net.cpp:148] Top shape: 24 832 7 7 (978432)
I0403 18:20:36.472280  6833 net.cpp:156] Memory required for data: 1325241888
I0403 18:20:36.472295  6833 layer_factory.hpp:77] Creating layer inception_5b/1x1
I0403 18:20:36.472316  6833 net.cpp:91] Creating Layer inception_5b/1x1
I0403 18:20:36.472333  6833 net.cpp:425] inception_5b/1x1 <- inception_5a/output_inception_5a/output_0_split_0
I0403 18:20:36.472353  6833 net.cpp:399] inception_5b/1x1 -> inception_5b/1x1
I0403 18:20:36.476205  6833 net.cpp:141] Setting up inception_5b/1x1
I0403 18:20:36.476234  6833 net.cpp:148] Top shape: 24 384 7 7 (451584)
I0403 18:20:36.476255  6833 net.cpp:156] Memory required for data: 1327048224
I0403 18:20:36.476274  6833 layer_factory.hpp:77] Creating layer inception_5b/relu_1x1
I0403 18:20:36.476294  6833 net.cpp:91] Creating Layer inception_5b/relu_1x1
I0403 18:20:36.476310  6833 net.cpp:425] inception_5b/relu_1x1 <- inception_5b/1x1
I0403 18:20:36.476327  6833 net.cpp:386] inception_5b/relu_1x1 -> inception_5b/1x1 (in-place)
I0403 18:20:36.476636  6833 net.cpp:141] Setting up inception_5b/relu_1x1
I0403 18:20:36.476662  6833 net.cpp:148] Top shape: 24 384 7 7 (451584)
I0403 18:20:36.476677  6833 net.cpp:156] Memory required for data: 1328854560
I0403 18:20:36.476692  6833 layer_factory.hpp:77] Creating layer inception_5b/3x3_reduce
I0403 18:20:36.476717  6833 net.cpp:91] Creating Layer inception_5b/3x3_reduce
I0403 18:20:36.476735  6833 net.cpp:425] inception_5b/3x3_reduce <- inception_5a/output_inception_5a/output_0_split_1
I0403 18:20:36.476755  6833 net.cpp:399] inception_5b/3x3_reduce -> inception_5b/3x3_reduce
I0403 18:20:36.479481  6833 net.cpp:141] Setting up inception_5b/3x3_reduce
I0403 18:20:36.479513  6833 net.cpp:148] Top shape: 24 192 7 7 (225792)
I0403 18:20:36.479529  6833 net.cpp:156] Memory required for data: 1329757728
I0403 18:20:36.479549  6833 layer_factory.hpp:77] Creating layer inception_5b/relu_3x3_reduce
I0403 18:20:36.479568  6833 net.cpp:91] Creating Layer inception_5b/relu_3x3_reduce
I0403 18:20:36.479583  6833 net.cpp:425] inception_5b/relu_3x3_reduce <- inception_5b/3x3_reduce
I0403 18:20:36.479601  6833 net.cpp:386] inception_5b/relu_3x3_reduce -> inception_5b/3x3_reduce (in-place)
I0403 18:20:36.479795  6833 net.cpp:141] Setting up inception_5b/relu_3x3_reduce
I0403 18:20:36.479822  6833 net.cpp:148] Top shape: 24 192 7 7 (225792)
I0403 18:20:36.479838  6833 net.cpp:156] Memory required for data: 1330660896
I0403 18:20:36.479853  6833 layer_factory.hpp:77] Creating layer inception_5b/3x3
I0403 18:20:36.479874  6833 net.cpp:91] Creating Layer inception_5b/3x3
I0403 18:20:36.479892  6833 net.cpp:425] inception_5b/3x3 <- inception_5b/3x3_reduce
I0403 18:20:36.479914  6833 net.cpp:399] inception_5b/3x3 -> inception_5b/3x3
I0403 18:20:36.486845  6833 net.cpp:141] Setting up inception_5b/3x3
I0403 18:20:36.486881  6833 net.cpp:148] Top shape: 24 384 7 7 (451584)
I0403 18:20:36.486896  6833 net.cpp:156] Memory required for data: 1332467232
I0403 18:20:36.486914  6833 layer_factory.hpp:77] Creating layer inception_5b/relu_3x3
I0403 18:20:36.486932  6833 net.cpp:91] Creating Layer inception_5b/relu_3x3
I0403 18:20:36.486948  6833 net.cpp:425] inception_5b/relu_3x3 <- inception_5b/3x3
I0403 18:20:36.486966  6833 net.cpp:386] inception_5b/relu_3x3 -> inception_5b/3x3 (in-place)
I0403 18:20:36.487280  6833 net.cpp:141] Setting up inception_5b/relu_3x3
I0403 18:20:36.487308  6833 net.cpp:148] Top shape: 24 384 7 7 (451584)
I0403 18:20:36.487323  6833 net.cpp:156] Memory required for data: 1334273568
I0403 18:20:36.487339  6833 layer_factory.hpp:77] Creating layer inception_5b/5x5_reduce
I0403 18:20:36.487380  6833 net.cpp:91] Creating Layer inception_5b/5x5_reduce
I0403 18:20:36.487399  6833 net.cpp:425] inception_5b/5x5_reduce <- inception_5a/output_inception_5a/output_0_split_2
I0403 18:20:36.487418  6833 net.cpp:399] inception_5b/5x5_reduce -> inception_5b/5x5_reduce
I0403 18:20:36.488711  6833 net.cpp:141] Setting up inception_5b/5x5_reduce
I0403 18:20:36.488739  6833 net.cpp:148] Top shape: 24 48 7 7 (56448)
I0403 18:20:36.488754  6833 net.cpp:156] Memory required for data: 1334499360
I0403 18:20:36.488775  6833 layer_factory.hpp:77] Creating layer inception_5b/relu_5x5_reduce
I0403 18:20:36.488793  6833 net.cpp:91] Creating Layer inception_5b/relu_5x5_reduce
I0403 18:20:36.488811  6833 net.cpp:425] inception_5b/relu_5x5_reduce <- inception_5b/5x5_reduce
I0403 18:20:36.488828  6833 net.cpp:386] inception_5b/relu_5x5_reduce -> inception_5b/5x5_reduce (in-place)
I0403 18:20:36.489210  6833 net.cpp:141] Setting up inception_5b/relu_5x5_reduce
I0403 18:20:36.489236  6833 net.cpp:148] Top shape: 24 48 7 7 (56448)
I0403 18:20:36.489256  6833 net.cpp:156] Memory required for data: 1334725152
I0403 18:20:36.489272  6833 layer_factory.hpp:77] Creating layer inception_5b/5x5
I0403 18:20:36.489294  6833 net.cpp:91] Creating Layer inception_5b/5x5
I0403 18:20:36.489310  6833 net.cpp:425] inception_5b/5x5 <- inception_5b/5x5_reduce
I0403 18:20:36.489328  6833 net.cpp:399] inception_5b/5x5 -> inception_5b/5x5
I0403 18:20:36.491466  6833 net.cpp:141] Setting up inception_5b/5x5
I0403 18:20:36.491494  6833 net.cpp:148] Top shape: 24 128 7 7 (150528)
I0403 18:20:36.491509  6833 net.cpp:156] Memory required for data: 1335327264
I0403 18:20:36.491529  6833 layer_factory.hpp:77] Creating layer inception_5b/relu_5x5
I0403 18:20:36.491560  6833 net.cpp:91] Creating Layer inception_5b/relu_5x5
I0403 18:20:36.491575  6833 net.cpp:425] inception_5b/relu_5x5 <- inception_5b/5x5
I0403 18:20:36.491595  6833 net.cpp:386] inception_5b/relu_5x5 -> inception_5b/5x5 (in-place)
I0403 18:20:36.491791  6833 net.cpp:141] Setting up inception_5b/relu_5x5
I0403 18:20:36.491816  6833 net.cpp:148] Top shape: 24 128 7 7 (150528)
I0403 18:20:36.491832  6833 net.cpp:156] Memory required for data: 1335929376
I0403 18:20:36.491847  6833 layer_factory.hpp:77] Creating layer inception_5b/pool
I0403 18:20:36.491868  6833 net.cpp:91] Creating Layer inception_5b/pool
I0403 18:20:36.491884  6833 net.cpp:425] inception_5b/pool <- inception_5a/output_inception_5a/output_0_split_3
I0403 18:20:36.491902  6833 net.cpp:399] inception_5b/pool -> inception_5b/pool
I0403 18:20:36.491976  6833 net.cpp:141] Setting up inception_5b/pool
I0403 18:20:36.491999  6833 net.cpp:148] Top shape: 24 832 7 7 (978432)
I0403 18:20:36.492014  6833 net.cpp:156] Memory required for data: 1339843104
I0403 18:20:36.492029  6833 layer_factory.hpp:77] Creating layer inception_5b/pool_proj
I0403 18:20:36.492053  6833 net.cpp:91] Creating Layer inception_5b/pool_proj
I0403 18:20:36.492070  6833 net.cpp:425] inception_5b/pool_proj <- inception_5b/pool
I0403 18:20:36.492090  6833 net.cpp:399] inception_5b/pool_proj -> inception_5b/pool_proj
I0403 18:20:36.494581  6833 net.cpp:141] Setting up inception_5b/pool_proj
I0403 18:20:36.494613  6833 net.cpp:148] Top shape: 24 128 7 7 (150528)
I0403 18:20:36.494631  6833 net.cpp:156] Memory required for data: 1340445216
I0403 18:20:36.494648  6833 layer_factory.hpp:77] Creating layer inception_5b/relu_pool_proj
I0403 18:20:36.494666  6833 net.cpp:91] Creating Layer inception_5b/relu_pool_proj
I0403 18:20:36.494683  6833 net.cpp:425] inception_5b/relu_pool_proj <- inception_5b/pool_proj
I0403 18:20:36.494701  6833 net.cpp:386] inception_5b/relu_pool_proj -> inception_5b/pool_proj (in-place)
I0403 18:20:36.495002  6833 net.cpp:141] Setting up inception_5b/relu_pool_proj
I0403 18:20:36.495029  6833 net.cpp:148] Top shape: 24 128 7 7 (150528)
I0403 18:20:36.495044  6833 net.cpp:156] Memory required for data: 1341047328
I0403 18:20:36.495059  6833 layer_factory.hpp:77] Creating layer inception_5b/output
I0403 18:20:36.495076  6833 net.cpp:91] Creating Layer inception_5b/output
I0403 18:20:36.495106  6833 net.cpp:425] inception_5b/output <- inception_5b/1x1
I0403 18:20:36.495124  6833 net.cpp:425] inception_5b/output <- inception_5b/3x3
I0403 18:20:36.495141  6833 net.cpp:425] inception_5b/output <- inception_5b/5x5
I0403 18:20:36.495156  6833 net.cpp:425] inception_5b/output <- inception_5b/pool_proj
I0403 18:20:36.495172  6833 net.cpp:399] inception_5b/output -> inception_5b/output
I0403 18:20:36.495228  6833 net.cpp:141] Setting up inception_5b/output
I0403 18:20:36.495255  6833 net.cpp:148] Top shape: 24 1024 7 7 (1204224)
I0403 18:20:36.495270  6833 net.cpp:156] Memory required for data: 1345864224
I0403 18:20:36.495285  6833 layer_factory.hpp:77] Creating layer pool5/7x7_s1
I0403 18:20:36.495306  6833 net.cpp:91] Creating Layer pool5/7x7_s1
I0403 18:20:36.495323  6833 net.cpp:425] pool5/7x7_s1 <- inception_5b/output
I0403 18:20:36.495342  6833 net.cpp:399] pool5/7x7_s1 -> pool5/7x7_s1
I0403 18:20:36.495559  6833 net.cpp:141] Setting up pool5/7x7_s1
I0403 18:20:36.495589  6833 net.cpp:148] Top shape: 24 1024 1 1 (24576)
I0403 18:20:36.495605  6833 net.cpp:156] Memory required for data: 1345962528
I0403 18:20:36.495620  6833 layer_factory.hpp:77] Creating layer pool5/drop_7x7_s1
I0403 18:20:36.495637  6833 net.cpp:91] Creating Layer pool5/drop_7x7_s1
I0403 18:20:36.495653  6833 net.cpp:425] pool5/drop_7x7_s1 <- pool5/7x7_s1
I0403 18:20:36.495672  6833 net.cpp:386] pool5/drop_7x7_s1 -> pool5/7x7_s1 (in-place)
I0403 18:20:36.495721  6833 net.cpp:141] Setting up pool5/drop_7x7_s1
I0403 18:20:36.495744  6833 net.cpp:148] Top shape: 24 1024 1 1 (24576)
I0403 18:20:36.495759  6833 net.cpp:156] Memory required for data: 1346060832
I0403 18:20:36.495774  6833 layer_factory.hpp:77] Creating layer loss3/classifier_plantvillage
I0403 18:20:36.495795  6833 net.cpp:91] Creating Layer loss3/classifier_plantvillage
I0403 18:20:36.495811  6833 net.cpp:425] loss3/classifier_plantvillage <- pool5/7x7_s1
I0403 18:20:36.495832  6833 net.cpp:399] loss3/classifier_plantvillage -> loss3/classifier_plantvillage
I0403 18:20:36.496268  6833 net.cpp:141] Setting up loss3/classifier_plantvillage
I0403 18:20:36.496294  6833 net.cpp:148] Top shape: 24 38 (912)
I0403 18:20:36.496309  6833 net.cpp:156] Memory required for data: 1346064480
I0403 18:20:36.496326  6833 layer_factory.hpp:77] Creating layer loss3/classifier_plantvillage_loss3/classifier_plantvillage_0_split
I0403 18:20:36.496346  6833 net.cpp:91] Creating Layer loss3/classifier_plantvillage_loss3/classifier_plantvillage_0_split
I0403 18:20:36.496362  6833 net.cpp:425] loss3/classifier_plantvillage_loss3/classifier_plantvillage_0_split <- loss3/classifier_plantvillage
I0403 18:20:36.496382  6833 net.cpp:399] loss3/classifier_plantvillage_loss3/classifier_plantvillage_0_split -> loss3/classifier_plantvillage_loss3/classifier_plantvillage_0_split_0
I0403 18:20:36.496403  6833 net.cpp:399] loss3/classifier_plantvillage_loss3/classifier_plantvillage_0_split -> loss3/classifier_plantvillage_loss3/classifier_plantvillage_0_split_1
I0403 18:20:36.496423  6833 net.cpp:399] loss3/classifier_plantvillage_loss3/classifier_plantvillage_0_split -> loss3/classifier_plantvillage_loss3/classifier_plantvillage_0_split_2
I0403 18:20:36.496443  6833 net.cpp:399] loss3/classifier_plantvillage_loss3/classifier_plantvillage_0_split -> loss3/classifier_plantvillage_loss3/classifier_plantvillage_0_split_3
I0403 18:20:36.496546  6833 net.cpp:141] Setting up loss3/classifier_plantvillage_loss3/classifier_plantvillage_0_split
I0403 18:20:36.496568  6833 net.cpp:148] Top shape: 24 38 (912)
I0403 18:20:36.496584  6833 net.cpp:148] Top shape: 24 38 (912)
I0403 18:20:36.496600  6833 net.cpp:148] Top shape: 24 38 (912)
I0403 18:20:36.496615  6833 net.cpp:148] Top shape: 24 38 (912)
I0403 18:20:36.496629  6833 net.cpp:156] Memory required for data: 1346079072
I0403 18:20:36.496644  6833 layer_factory.hpp:77] Creating layer loss1/loss
I0403 18:20:36.496666  6833 net.cpp:91] Creating Layer loss1/loss
I0403 18:20:36.496683  6833 net.cpp:425] loss1/loss <- loss1/classifier_plantvillage_loss1/classifier_plantvillage_0_split_0
I0403 18:20:36.496714  6833 net.cpp:425] loss1/loss <- label_data_1_split_0
…
